#loc = loc(unknown)
#loc1 = loc("key")
#loc4 = loc("/Users/noahfarr/reinforcement-learning/src/algorithms/algorithms/recurrent_ppo.py":298:50 to :74)
#loc33 = loc("/Users/noahfarr/reinforcement-learning/.venv/lib/python3.13/site-packages/flax/linen/linear.py":1166:21 to 1171:5)
#loc34 = loc("/Users/noahfarr/noahfarr.github.io/tools/whlo/export_ppo_wordle.py":84:32 to :49)
#loc35 = loc("/Users/noahfarr/reinforcement-learning/src/networks/networks/network.py":24:12 to :71)
#loc36 = loc("/Users/noahfarr/reinforcement-learning/src/algorithms/algorithms/recurrent_ppo.py":307:17 to 314:9)
#loc45 = loc("scatter")
#loc100 = loc("/Users/noahfarr/reinforcement-learning/src/algorithms/algorithms/recurrent_ppo.py":268:20 to :66)
#loc101 = loc("/Users/noahfarr/noahfarr.github.io/tools/whlo/export_ppo_wordle.py":192:23 to :63)
#loc107 = loc("vmap()")
#loc138 = loc("erf")
#loc142 = loc("RecurrentPPO.init"(#loc4))
#loc171 = loc("Embed.setup"(#loc33))
#loc172 = loc("TokenFeatureExtractor.__call__"(#loc34))
#loc173 = loc("Network.__call__"(#loc35))
#loc174 = loc("RecurrentPPO.init"(#loc36))
#loc183 = loc("scatter:"(#loc45))
#loc229 = loc("RecurrentPPO.update_step"(#loc100))
#loc230 = loc("main.<locals>.train_step"(#loc101))
#loc236 = loc(callsite(#loc173 at #loc174))
#loc247 = loc(callsite(#loc229 at #loc230))
#loc255 = loc(callsite(#loc172 at #loc236))
#loc281 = loc(callsite(#loc171 at #loc255))
module @jit_init attributes {jax.uses_shape_polymorphism = false, mhlo.num_partitions = 1 : i32, mhlo.num_replicas = 1 : i32} {
  func.func public @main(%arg0: tensor<2xui32> loc("key")) -> (tensor<i32> {jax.result_info = "result.step"}, tensor<16x5xi32> {jax.result_info = "result.timestep.obs"}, tensor<16xi32> {jax.result_info = "result.timestep.action"}, tensor<16xf32> {jax.result_info = "result.timestep.reward"}, tensor<16xi1> {jax.result_info = "result.timestep.terminated"}, tensor<16xi1> {jax.result_info = "result.timestep.truncated"}, tensor<16xf32> {jax.result_info = "result.timestep.info['fired']"}, tensor<16xf32> {jax.result_info = "result.timestep.info['guess_count']"}, tensor<16xf32> {jax.result_info = "result.timestep.info['illegal_guesses']"}, tensor<16xf32> {jax.result_info = "result.timestep.info['matched_secret']"}, tensor<16x5xi32> {jax.result_info = "result.environment_state.env_state.secret_answer"}, tensor<16x5xi32> {jax.result_info = "result.environment_state.env_state.guess_feedback"}, tensor<16xi1> {jax.result_info = "result.environment_state.env_state.guess_revealed"}, tensor<16xi32> {jax.result_info = "result.environment_state.env_state.guess_count"}, tensor<16xi1> {jax.result_info = "result.environment_state.env_state.matched_secret"}, tensor<16xi1> {jax.result_info = "result.environment_state.active"}, tensor<16x5xi32> {jax.result_info = "result.environment_state.arguments"}, tensor<16xi32> {jax.result_info = "result.environment_state.cursor"}, tensor<16x16xf32> {jax.result_info = "result.carry[1]"}, tensor<33x16xf32> {jax.result_info = "result.params['params']['feature_extractor']['token_embedding']['embedding']"}, tensor<16x33xf32> {jax.result_info = "result.params['params']['head']['actor']['kernel']"}, tensor<1xf32> {jax.result_info = "result.params['params']['head']['critic']['bias']"}, tensor<16x1xf32> {jax.result_info = "result.params['params']['head']['critic']['kernel']"}, tensor<16xf32> {jax.result_info = "result.params['params']['torso']['block']['blocks_0']['Dense_0']['bias']"}, tensor<16x16xf32> {jax.result_info = "result.params['params']['torso']['block']['blocks_0']['Dense_0']['kernel']"}, tensor<16x16xf32> {jax.result_info = "result.params['params']['torso']['block']['blocks_1']['cell']['candidate']['kernel']"}, tensor<16x16xf32> {jax.result_info = "result.params['params']['torso']['block']['blocks_1']['cell']['update_gate']['kernel']"}, tensor<i32> {jax.result_info = "result.optimizer_state[1][0].count"}, tensor<33x16xf32> {jax.result_info = "result.optimizer_state[1][0].mu['params']['feature_extractor']['token_embedding']['embedding']"}, tensor<16x33xf32> {jax.result_info = "result.optimizer_state[1][0].mu['params']['head']['actor']['kernel']"}, tensor<1xf32> {jax.result_info = "result.optimizer_state[1][0].mu['params']['head']['critic']['bias']"}, tensor<16x1xf32> {jax.result_info = "result.optimizer_state[1][0].mu['params']['head']['critic']['kernel']"}, tensor<16xf32> {jax.result_info = "result.optimizer_state[1][0].mu['params']['torso']['block']['blocks_0']['Dense_0']['bias']"}, tensor<16x16xf32> {jax.result_info = "result.optimizer_state[1][0].mu['params']['torso']['block']['blocks_0']['Dense_0']['kernel']"}, tensor<16x16xf32> {jax.result_info = "result.optimizer_state[1][0].mu['params']['torso']['block']['blocks_1']['cell']['candidate']['kernel']"}, tensor<16x16xf32> {jax.result_info = "result.optimizer_state[1][0].mu['params']['torso']['block']['blocks_1']['cell']['update_gate']['kernel']"}, tensor<33x16xf32> {jax.result_info = "result.optimizer_state[1][0].nu['params']['feature_extractor']['token_embedding']['embedding']"}, tensor<16x33xf32> {jax.result_info = "result.optimizer_state[1][0].nu['params']['head']['actor']['kernel']"}, tensor<1xf32> {jax.result_info = "result.optimizer_state[1][0].nu['params']['head']['critic']['bias']"}, tensor<16x1xf32> {jax.result_info = "result.optimizer_state[1][0].nu['params']['head']['critic']['kernel']"}, tensor<16xf32> {jax.result_info = "result.optimizer_state[1][0].nu['params']['torso']['block']['blocks_0']['Dense_0']['bias']"}, tensor<16x16xf32> {jax.result_info = "result.optimizer_state[1][0].nu['params']['torso']['block']['blocks_0']['Dense_0']['kernel']"}, tensor<16x16xf32> {jax.result_info = "result.optimizer_state[1][0].nu['params']['torso']['block']['blocks_1']['cell']['candidate']['kernel']"}, tensor<16x16xf32> {jax.result_info = "result.optimizer_state[1][0].nu['params']['torso']['block']['blocks_1']['cell']['update_gate']['kernel']"}) {
    %c = stablehlo.constant dense<3309781136> : tensor<ui32> loc(#loc248)
    %c_0 = stablehlo.constant dense<1632372854> : tensor<ui32> loc(#loc248)
    %c_1 = stablehlo.constant dense<2875902972> : tensor<ui32> loc(#loc248)
    %c_2 = stablehlo.constant dense<1> : tensor<i32> loc(#loc248)
    %c_3 = stablehlo.constant dense<207500355> : tensor<ui32> loc(#loc248)
    %cst = stablehlo.constant dense<1.000000e+00> : tensor<f32> loc(#loc)
    %c_4 = stablehlo.constant dense<352107221> : tensor<ui32> loc(#loc248)
    %c_5 = stablehlo.constant dense<-1> : tensor<i32> loc(#loc)
    %c_6 = stablehlo.constant dense<3763648675> : tensor<ui32> loc(#loc248)
    %c_7 = stablehlo.constant dense<2> : tensor<i32> loc(#loc)
    %c_8 = stablehlo.constant dense<-2> : tensor<i32> loc(#loc)
    %cst_9 = stablehlo.constant dense<0.879625678> : tensor<f32> loc(#loc)
    %c_10 = stablehlo.constant dense<1591842985> : tensor<ui32> loc(#loc248)
    %cst_11 = stablehlo.constant dense<6.250000e-02> : tensor<f32> loc(#loc)
    %c_12 = stablehlo.constant dense<3005692971> : tensor<ui32> loc(#loc248)
    %c_13 = stablehlo.constant dense<true> : tensor<i1> loc(#loc248)
    %c_14 = stablehlo.constant dense<28> : tensor<i32> loc(#loc248)
    %cst_15 = stablehlo.constant dense<0.000000e+00> : tensor<f32> loc(#loc)
    %c_16 = stablehlo.constant dense<false> : tensor<i1> loc(#loc)
    %c_17 = stablehlo.constant dense<5> : tensor<i32> loc(#loc248)
    %c_18 = stablehlo.constant dense<16> : tensor<i32> loc(#loc)
    %c_19 = stablehlo.constant dense<0> : tensor<i32> loc(#loc)
    %c_20 = stablehlo.constant dense<[[0, 20, 3, 8, 14], [1, 17, 8, 2, 10], [2, 7, 0, 8, 17], [2, 11, 14, 20, 3], [2, 17, 0, 13, 4], [5, 11, 8, 13, 19], [5, 17, 14, 18, 19], [6, 11, 0, 25, 4], [6, 17, 0, 15, 4], [7, 14, 20, 18, 4], [11, 4, 12, 14, 13], [12, 14, 20, 13, 3], [15, 11, 0, 13, 19], [18, 11, 0, 19, 4], [18, 15, 0, 3, 4], [18, 19, 14, 17, 12]]> : tensor<16x5xi32> loc(#loc248)
    %0 = call @_threefry_split(%arg0) : (tensor<2xui32>) -> tensor<3x2xui32> loc(#loc294)
    %1 = stablehlo.slice %0 [0:1, 0:2] : (tensor<3x2xui32>) -> tensor<1x2xui32> loc(#loc273)
    %2 = stablehlo.reshape %1 : (tensor<1x2xui32>) -> tensor<2xui32> loc(#loc274)
    %3 = stablehlo.slice %0 [1:2, 0:2] : (tensor<3x2xui32>) -> tensor<1x2xui32> loc(#loc273)
    %4 = stablehlo.reshape %3 : (tensor<1x2xui32>) -> tensor<2xui32> loc(#loc274)
    %5 = call @_threefry_split_0(%2) : (tensor<2xui32>) -> tensor<16x2xui32> loc(#loc331)
    %6 = stablehlo.broadcast_in_dim %5, dims = [0, 2] : (tensor<16x2xui32>) -> tensor<16x1x2xui32> loc(#loc296)
    %7 = stablehlo.reshape %6 : (tensor<16x1x2xui32>) -> tensor<16x2xui32> loc(#loc297)
    %8 = call @_randint(%7, %c_19, %c_18) : (tensor<16x2xui32>, tensor<i32>, tensor<i32>) -> tensor<16xi32> loc(#loc393)
    %9 = stablehlo.broadcast_in_dim %c_19, dims = [] : (tensor<i32>) -> tensor<16xi32> loc(#loc394)
    %10 = stablehlo.compare LT, %8, %9, SIGNED : (tensor<16xi32>, tensor<16xi32>) -> tensor<16xi1> loc(#loc394)
    %11 = stablehlo.broadcast_in_dim %c_18, dims = [] : (tensor<i32>) -> tensor<16xi32> loc(#loc395)
    %12 = stablehlo.add %8, %11 : tensor<16xi32> loc(#loc395)
    %13 = stablehlo.select %10, %12, %8 : tensor<16xi1>, tensor<16xi32> loc(#loc396)
    %14 = stablehlo.compare LT, %c_19, %c_19, SIGNED : (tensor<i32>, tensor<i32>) -> tensor<i1> loc(#loc394)
    %15 = stablehlo.add %c_19, %c_17 : tensor<i32> loc(#loc395)
    %16 = stablehlo.select %14, %15, %c_19 : tensor<i1>, tensor<i32> loc(#loc396)
    %17 = stablehlo.broadcast_in_dim %13, dims = [0] : (tensor<16xi32>) -> tensor<16x1xi32> loc(#loc397)
    %18 = stablehlo.broadcast_in_dim %16, dims = [] : (tensor<i32>) -> tensor<16x1xi32> loc(#loc397)
    %19 = stablehlo.concatenate %17, %18, dim = 1 : (tensor<16x1xi32>, tensor<16x1xi32>) -> tensor<16x2xi32> loc(#loc398)
    %20 = "stablehlo.gather"(%c_20, %19) <{dimension_numbers = #stablehlo.gather<offset_dims = [1, 2], start_index_map = [0, 1], index_vector_dim = 1>, slice_sizes = array<i64: 1, 5>}> : (tensor<16x5xi32>, tensor<16x2xi32>) -> tensor<16x1x5xi32> loc(#loc399)
    %21 = stablehlo.reshape %20 : (tensor<16x1x5xi32>) -> tensor<16x5xi32> loc(#loc400)
    %22 = stablehlo.broadcast_in_dim %c_19, dims = [] : (tensor<i32>) -> tensor<5xi32> loc(#loc401)
    %23 = call @_one_hot(%22) : (tensor<5xi32>) -> tensor<5x3xf32> loc(#loc434)
    %24 = stablehlo.reshape %23 : (tensor<5x3xf32>) -> tensor<15xf32> loc(#loc435)
    %25 = call @_where(%c_16, %24, %cst_15) : (tensor<i1>, tensor<15xf32>, tensor<f32>) -> tensor<15xf32> loc(#loc436)
    %26 = stablehlo.broadcast_in_dim %c_19, dims = [] : (tensor<i32>) -> tensor<5xi32> loc(#loc361)
    %27 = stablehlo.broadcast_in_dim %c_14, dims = [] : (tensor<i32>) -> tensor<5xi32> loc(#loc362)
    %28 = stablehlo.broadcast_in_dim %22, dims = [1] : (tensor<5xi32>) -> tensor<16x5xi32> loc(#loc299)
    %29 = stablehlo.broadcast_in_dim %c_16, dims = [] : (tensor<i1>) -> tensor<16xi1> loc(#loc299)
    %30 = stablehlo.broadcast_in_dim %c_19, dims = [] : (tensor<i32>) -> tensor<16xi32> loc(#loc299)
    %31 = stablehlo.broadcast_in_dim %c_16, dims = [] : (tensor<i1>) -> tensor<16xi1> loc(#loc299)
    %32 = stablehlo.broadcast_in_dim %c_16, dims = [] : (tensor<i1>) -> tensor<16xi1> loc(#loc299)
    %33 = stablehlo.broadcast_in_dim %26, dims = [1] : (tensor<5xi32>) -> tensor<16x5xi32> loc(#loc299)
    %34 = stablehlo.broadcast_in_dim %c_19, dims = [] : (tensor<i32>) -> tensor<16xi32> loc(#loc299)
    %35 = stablehlo.broadcast_in_dim %27, dims = [1] : (tensor<5xi32>) -> tensor<16x5xi32> loc(#loc299)
    %36 = stablehlo.broadcast_in_dim %c_19, dims = [] : (tensor<i32>) -> tensor<16xi32> loc(#loc299)
    %37 = stablehlo.broadcast_in_dim %cst_15, dims = [] : (tensor<f32>) -> tensor<16xf32> loc(#loc299)
    %38 = stablehlo.broadcast_in_dim %c_13, dims = [] : (tensor<i1>) -> tensor<16xi1> loc(#loc299)
    %39 = stablehlo.broadcast_in_dim %c_16, dims = [] : (tensor<i1>) -> tensor<16xi1> loc(#loc299)
    %40 = stablehlo.broadcast_in_dim %cst_15, dims = [] : (tensor<f32>) -> tensor<16xf32> loc(#loc299)
    %41 = stablehlo.broadcast_in_dim %cst_15, dims = [] : (tensor<f32>) -> tensor<16xf32> loc(#loc299)
    %42 = stablehlo.broadcast_in_dim %cst_15, dims = [] : (tensor<f32>) -> tensor<16xf32> loc(#loc299)
    %43 = stablehlo.broadcast_in_dim %cst_15, dims = [] : (tensor<f32>) -> tensor<16xf32> loc(#loc299)
    %44 = stablehlo.broadcast_in_dim %cst_15, dims = [] : (tensor<f32>) -> tensor<16x16xf32> loc(#loc477)
    %45 = stablehlo.broadcast_in_dim %35, dims = [0, 2] : (tensor<16x5xi32>) -> tensor<16x1x5xi32> loc(#loc336)
    %46 = stablehlo.broadcast_in_dim %36, dims = [0] : (tensor<16xi32>) -> tensor<16x1xi32> loc(#loc336)
    %47 = stablehlo.broadcast_in_dim %38, dims = [0] : (tensor<16xi1>) -> tensor<16x1xi1> loc(#loc336)
    %48 = stablehlo.broadcast_in_dim %39, dims = [0] : (tensor<16xi1>) -> tensor<16x1xi1> loc(#loc336)
    %49 = stablehlo.or %47, %48 : tensor<16x1xi1> loc(#loc302)
    %50 = call @_threefry_fold_in(%4, %c_12) : (tensor<2xui32>, tensor<ui32>) -> tensor<2xui32> loc(#loc406)
    %51 = call @_normal(%50) : (tensor<2xui32>) -> tensor<33x16xf32> loc(#loc365)
    %52 = stablehlo.sqrt %cst_11 : tensor<f32> loc(#loc366)
    %53 = stablehlo.broadcast_in_dim %52, dims = [] : (tensor<f32>) -> tensor<33x16xf32> loc(#loc367)
    %54 = stablehlo.multiply %51, %53 : tensor<33x16xf32> loc(#loc367)
    %55 = call @_take(%54, %46) : (tensor<33x16xf32>, tensor<16x1xi32>) -> tensor<16x1x16xf32> loc(#loc368)
    %56 = stablehlo.broadcast_in_dim %55, dims = [0, 1, 3] : (tensor<16x1x16xf32>) -> tensor<16x1x1x16xf32> loc(#loc339)
    %57 = call @_take_14(%54, %45) : (tensor<33x16xf32>, tensor<16x1x5xi32>) -> tensor<16x1x5x16xf32> loc(#loc369)
    %58 = stablehlo.concatenate %56, %57, dim = 2 : (tensor<16x1x1x16xf32>, tensor<16x1x5x16xf32>) -> tensor<16x1x6x16xf32> loc(#loc341)
    %59 = stablehlo.reshape %58 : (tensor<16x1x6x16xf32>) -> tensor<16x6x16xf32> loc(#loc342)
    %60 = stablehlo.broadcast_in_dim %c_16, dims = [] : (tensor<i1>) -> tensor<16x1x6xi1> loc(#loc343)
    %61 = stablehlo.broadcast_in_dim %c_19, dims = [] : (tensor<i32>) -> tensor<1xi32> loc(#loc344)
    %62 = "stablehlo.scatter"(%60, %61, %49) <{indices_are_sorted = true, scatter_dimension_numbers = #stablehlo.scatter<update_window_dims = [0, 1], inserted_window_dims = [2], scatter_dims_to_operand_dims = [2]>, unique_indices = true}> ({
    ^bb0(%arg1: tensor<i1> loc("scatter:"(#loc45)), %arg2: tensor<i1> loc("scatter:"(#loc45))):
      stablehlo.return %arg2 : tensor<i1> loc(#loc345)
    }) : (tensor<16x1x6xi1>, tensor<1xi32>, tensor<16x1xi1>) -> tensor<16x1x6xi1> loc(#loc345)
    %63 = stablehlo.reshape %62 : (tensor<16x1x6xi1>) -> tensor<16x6xi1> loc(#loc346)
    %64 = call @_threefry_fold_in(%4, %c_10) : (tensor<2xui32>, tensor<ui32>) -> tensor<2xui32> loc(#loc506)
    %65 = stablehlo.sqrt %cst_11 : tensor<f32> loc(#loc479)
    %66 = stablehlo.divide %65, %cst_9 : tensor<f32> loc(#loc480)
    %67 = call @_truncated_normal(%64, %c_8, %c_7) : (tensor<2xui32>, tensor<i32>, tensor<i32>) -> tensor<16x16xf32> loc(#loc481)
    %68 = stablehlo.broadcast_in_dim %66, dims = [] : (tensor<f32>) -> tensor<16x16xf32> loc(#loc482)
    %69 = stablehlo.multiply %67, %68 : tensor<16x16xf32> loc(#loc482)
    %70 = call @_threefry_fold_in(%4, %c_6) : (tensor<2xui32>, tensor<ui32>) -> tensor<2xui32> loc(#loc507)
    %71 = stablehlo.broadcast_in_dim %cst_15, dims = [] : (tensor<f32>) -> tensor<16xf32> loc(#loc484)
    %72 = stablehlo.dot_general %59, %69, contracting_dims = [2] x [0] : (tensor<16x6x16xf32>, tensor<16x16xf32>) -> tensor<16x6x16xf32> loc(#loc485)
    %73 = stablehlo.reshape %71 : (tensor<16xf32>) -> tensor<1x1x16xf32> loc(#loc486)
    %74 = stablehlo.broadcast_in_dim %73, dims = [0, 1, 2] : (tensor<1x1x16xf32>) -> tensor<16x6x16xf32> loc(#loc487)
    %75 = stablehlo.add %72, %74 : tensor<16x6x16xf32> loc(#loc487)
    %76 = call @relu(%75) : (tensor<16x6x16xf32>) -> tensor<16x6x16xf32> loc(#loc443)
    %77 = stablehlo.broadcast_in_dim %cst_15, dims = [] : (tensor<f32>) -> tensor<16x16xf32> loc(#loc488)
    %78 = call @_threefry_fold_in(%4, %c_4) : (tensor<2xui32>, tensor<ui32>) -> tensor<2xui32> loc(#loc527)
    %79 = stablehlo.sqrt %cst_11 : tensor<f32> loc(#loc509)
    %80 = stablehlo.divide %79, %cst_9 : tensor<f32> loc(#loc510)
    %81 = call @_truncated_normal(%78, %c_8, %c_7) : (tensor<2xui32>, tensor<i32>, tensor<i32>) -> tensor<16x16xf32> loc(#loc511)
    %82 = stablehlo.broadcast_in_dim %80, dims = [] : (tensor<f32>) -> tensor<16x16xf32> loc(#loc512)
    %83 = stablehlo.multiply %81, %82 : tensor<16x16xf32> loc(#loc512)
    %84 = stablehlo.dot_general %76, %83, contracting_dims = [2] x [0] : (tensor<16x6x16xf32>, tensor<16x16xf32>) -> tensor<16x6x16xf32> loc(#loc513)
    %85 = stablehlo.negate %84 : tensor<16x6x16xf32> loc(#loc514)
    %86 = stablehlo.exponential %85 : tensor<16x6x16xf32> loc(#loc515)
    %87 = stablehlo.broadcast_in_dim %cst, dims = [] : (tensor<f32>) -> tensor<16x6x16xf32> loc(#loc516)
    %88 = stablehlo.add %87, %86 : tensor<16x6x16xf32> loc(#loc516)
    %89 = stablehlo.broadcast_in_dim %cst, dims = [] : (tensor<f32>) -> tensor<16x6x16xf32> loc(#loc517)
    %90 = stablehlo.divide %89, %88 : tensor<16x6x16xf32> loc(#loc517)
    %91 = stablehlo.broadcast_in_dim %cst, dims = [] : (tensor<f32>) -> tensor<16x6x16xf32> loc(#loc492)
    %92 = stablehlo.subtract %91, %90 : tensor<16x6x16xf32> loc(#loc492)
    %93 = call @_threefry_fold_in(%4, %c_3) : (tensor<2xui32>, tensor<ui32>) -> tensor<2xui32> loc(#loc528)
    %94 = stablehlo.sqrt %cst_11 : tensor<f32> loc(#loc519)
    %95 = stablehlo.divide %94, %cst_9 : tensor<f32> loc(#loc520)
    %96 = call @_truncated_normal(%93, %c_8, %c_7) : (tensor<2xui32>, tensor<i32>, tensor<i32>) -> tensor<16x16xf32> loc(#loc521)
    %97 = stablehlo.broadcast_in_dim %95, dims = [] : (tensor<f32>) -> tensor<16x16xf32> loc(#loc522)
    %98 = stablehlo.multiply %96, %97 : tensor<16x16xf32> loc(#loc522)
    %99 = stablehlo.dot_general %76, %98, contracting_dims = [2] x [0] : (tensor<16x6x16xf32>, tensor<16x16xf32>) -> tensor<16x6x16xf32> loc(#loc523)
    %100 = stablehlo.multiply %90, %99 : tensor<16x6x16xf32> loc(#loc495)
    %101 = stablehlo.reshape %63 : (tensor<16x6xi1>) -> tensor<16x6x1xi1> loc(#loc496)
    %102 = stablehlo.convert %101 : (tensor<16x6x1xi1>) -> tensor<16x6x1xf32> loc(#loc451)
    %103 = stablehlo.broadcast_in_dim %102, dims = [0, 1, 2] : (tensor<16x6x1xf32>) -> tensor<16x6x16xf32> loc(#loc452)
    %104 = stablehlo.multiply %103, %92 : tensor<16x6x16xf32> loc(#loc452)
    %105 = stablehlo.broadcast_in_dim %77, dims = [0, 2] : (tensor<16x16xf32>) -> tensor<16x1x16xf32> loc(#loc453)
    %106 = stablehlo.broadcast_in_dim %105, dims = [0, 1, 2] : (tensor<16x1x16xf32>) -> tensor<16x6x16xf32> loc(#loc454)
    %107 = stablehlo.multiply %104, %106 : tensor<16x6x16xf32> loc(#loc454)
    %108 = stablehlo.add %100, %107 : tensor<16x6x16xf32> loc(#loc455)
    %109 = stablehlo.convert %101 : (tensor<16x6x1xi1>) -> tensor<16x6x1xi32> loc(#loc456)
    %110 = stablehlo.broadcast_in_dim %c_2, dims = [] : (tensor<i32>) -> tensor<16x6x1xi32> loc(#loc457)
    %111 = stablehlo.subtract %110, %109 : tensor<16x6x1xi32> loc(#loc457)
    %112 = stablehlo.convert %111 : (tensor<16x6x1xi32>) -> tensor<16x6x1xf32> loc(#loc458)
    %113 = stablehlo.broadcast_in_dim %112, dims = [0, 1, 2] : (tensor<16x6x1xf32>) -> tensor<16x6x16xf32> loc(#loc459)
    %114 = stablehlo.multiply %113, %92 : tensor<16x6x16xf32> loc(#loc459)
    %115 = stablehlo.slice %114 [0:16, 0:5:2, 0:16] : (tensor<16x6x16xf32>) -> tensor<16x3x16xf32> loc(#loc460)
    %116 = stablehlo.slice %108 [0:16, 0:5:2, 0:16] : (tensor<16x6x16xf32>) -> tensor<16x3x16xf32> loc(#loc460)
    %117 = stablehlo.slice %114 [0:16, 1:6:2, 0:16] : (tensor<16x6x16xf32>) -> tensor<16x3x16xf32> loc(#loc460)
    %118 = stablehlo.slice %108 [0:16, 1:6:2, 0:16] : (tensor<16x6x16xf32>) -> tensor<16x3x16xf32> loc(#loc460)
    %119 = stablehlo.multiply %117, %115 : tensor<16x3x16xf32> loc(#loc497)
    %120 = stablehlo.multiply %117, %116 : tensor<16x3x16xf32> loc(#loc498)
    %121 = stablehlo.add %120, %118 : tensor<16x3x16xf32> loc(#loc499)
    %122 = stablehlo.slice %119 [0:16, 0:2:2, 0:16] : (tensor<16x3x16xf32>) -> tensor<16x1x16xf32> loc(#loc460)
    %123 = stablehlo.slice %121 [0:16, 0:2:2, 0:16] : (tensor<16x3x16xf32>) -> tensor<16x1x16xf32> loc(#loc460)
    %124 = stablehlo.slice %119 [0:16, 1:3:2, 0:16] : (tensor<16x3x16xf32>) -> tensor<16x1x16xf32> loc(#loc460)
    %125 = stablehlo.slice %121 [0:16, 1:3:2, 0:16] : (tensor<16x3x16xf32>) -> tensor<16x1x16xf32> loc(#loc460)
    %126 = stablehlo.multiply %124, %122 : tensor<16x1x16xf32> loc(#loc497)
    %127 = stablehlo.multiply %124, %123 : tensor<16x1x16xf32> loc(#loc498)
    %128 = stablehlo.add %127, %125 : tensor<16x1x16xf32> loc(#loc499)
    %129 = stablehlo.slice %119 [0:16, 2:3:2, 0:16] : (tensor<16x3x16xf32>) -> tensor<16x1x16xf32> loc(#loc460)
    %130 = stablehlo.slice %121 [0:16, 2:3:2, 0:16] : (tensor<16x3x16xf32>) -> tensor<16x1x16xf32> loc(#loc460)
    %131 = stablehlo.multiply %129, %126 : tensor<16x1x16xf32> loc(#loc497)
    %132 = stablehlo.multiply %129, %128 : tensor<16x1x16xf32> loc(#loc498)
    %133 = stablehlo.add %132, %130 : tensor<16x1x16xf32> loc(#loc499)
    %134 = stablehlo.slice %119 [0:16, 0:1, 0:16] : (tensor<16x3x16xf32>) -> tensor<16x1x16xf32> loc(#loc460)
    %135 = stablehlo.concatenate %134, %131, dim = 1 : (tensor<16x1x16xf32>, tensor<16x1x16xf32>) -> tensor<16x2x16xf32> loc(#loc464)
    %136 = stablehlo.slice %121 [0:16, 0:1, 0:16] : (tensor<16x3x16xf32>) -> tensor<16x1x16xf32> loc(#loc460)
    %137 = stablehlo.concatenate %136, %133, dim = 1 : (tensor<16x1x16xf32>, tensor<16x1x16xf32>) -> tensor<16x2x16xf32> loc(#loc464)
    %138 = stablehlo.pad %135, %cst_15, low = [0, 0, 0], high = [0, 0, 0], interior = [0, 1, 0] : (tensor<16x2x16xf32>, tensor<f32>) -> tensor<16x3x16xf32> loc(#loc465)
    %139 = stablehlo.pad %126, %cst_15, low = [0, 1, 0], high = [0, 1, 0], interior = [0, 1, 0] : (tensor<16x1x16xf32>, tensor<f32>) -> tensor<16x3x16xf32> loc(#loc465)
    %140 = stablehlo.add %138, %139 : tensor<16x3x16xf32> loc(#loc466)
    %141 = stablehlo.pad %137, %cst_15, low = [0, 0, 0], high = [0, 0, 0], interior = [0, 1, 0] : (tensor<16x2x16xf32>, tensor<f32>) -> tensor<16x3x16xf32> loc(#loc465)
    %142 = stablehlo.pad %128, %cst_15, low = [0, 1, 0], high = [0, 1, 0], interior = [0, 1, 0] : (tensor<16x1x16xf32>, tensor<f32>) -> tensor<16x3x16xf32> loc(#loc465)
    %143 = stablehlo.add %141, %142 : tensor<16x3x16xf32> loc(#loc466)
    %144 = stablehlo.slice %140 [0:16, 0:2, 0:16] : (tensor<16x3x16xf32>) -> tensor<16x2x16xf32> loc(#loc460)
    %145 = stablehlo.slice %143 [0:16, 0:2, 0:16] : (tensor<16x3x16xf32>) -> tensor<16x2x16xf32> loc(#loc460)
    %146 = stablehlo.slice %114 [0:16, 2:6:2, 0:16] : (tensor<16x6x16xf32>) -> tensor<16x2x16xf32> loc(#loc460)
    %147 = stablehlo.slice %108 [0:16, 2:6:2, 0:16] : (tensor<16x6x16xf32>) -> tensor<16x2x16xf32> loc(#loc460)
    %148 = stablehlo.multiply %146, %144 : tensor<16x2x16xf32> loc(#loc497)
    %149 = stablehlo.multiply %146, %145 : tensor<16x2x16xf32> loc(#loc498)
    %150 = stablehlo.add %149, %147 : tensor<16x2x16xf32> loc(#loc499)
    %151 = stablehlo.slice %114 [0:16, 0:1, 0:16] : (tensor<16x6x16xf32>) -> tensor<16x1x16xf32> loc(#loc460)
    %152 = stablehlo.concatenate %151, %148, dim = 1 : (tensor<16x1x16xf32>, tensor<16x2x16xf32>) -> tensor<16x3x16xf32> loc(#loc464)
    %153 = stablehlo.slice %108 [0:16, 0:1, 0:16] : (tensor<16x6x16xf32>) -> tensor<16x1x16xf32> loc(#loc460)
    %154 = stablehlo.concatenate %153, %150, dim = 1 : (tensor<16x1x16xf32>, tensor<16x2x16xf32>) -> tensor<16x3x16xf32> loc(#loc464)
    %155 = stablehlo.pad %152, %cst_15, low = [0, 0, 0], high = [0, 1, 0], interior = [0, 1, 0] : (tensor<16x3x16xf32>, tensor<f32>) -> tensor<16x6x16xf32> loc(#loc465)
    %156 = stablehlo.pad %140, %cst_15, low = [0, 1, 0], high = [0, 0, 0], interior = [0, 1, 0] : (tensor<16x3x16xf32>, tensor<f32>) -> tensor<16x6x16xf32> loc(#loc465)
    %157 = stablehlo.add %155, %156 : tensor<16x6x16xf32> loc(#loc466)
    %158 = stablehlo.pad %154, %cst_15, low = [0, 0, 0], high = [0, 1, 0], interior = [0, 1, 0] : (tensor<16x3x16xf32>, tensor<f32>) -> tensor<16x6x16xf32> loc(#loc465)
    %159 = stablehlo.pad %143, %cst_15, low = [0, 1, 0], high = [0, 0, 0], interior = [0, 1, 0] : (tensor<16x3x16xf32>, tensor<f32>) -> tensor<16x6x16xf32> loc(#loc465)
    %160 = stablehlo.add %158, %159 : tensor<16x6x16xf32> loc(#loc466)
    %161 = stablehlo.broadcast_in_dim %44, dims = [0, 2] : (tensor<16x16xf32>) -> tensor<16x1x16xf32> loc(#loc467)
    %162 = stablehlo.broadcast_in_dim %161, dims = [0, 1, 2] : (tensor<16x1x16xf32>) -> tensor<16x6x16xf32> loc(#loc468)
    %163 = stablehlo.multiply %157, %162 : tensor<16x6x16xf32> loc(#loc468)
    %164 = stablehlo.add %160, %163 : tensor<16x6x16xf32> loc(#loc469)
    %165 = call @_take_20(%164, %c_5) : (tensor<16x6x16xf32>, tensor<i32>) -> tensor<16x16xf32> loc(#loc470)
    %166 = call @_threefry_fold_in(%4, %c_1) : (tensor<2xui32>, tensor<ui32>) -> tensor<2xui32> loc(#loc423)
    %167 = stablehlo.sqrt %cst_11 : tensor<f32> loc(#loc373)
    %168 = stablehlo.divide %167, %cst_9 : tensor<f32> loc(#loc374)
    %169 = call @_truncated_normal_22(%166, %c_8, %c_7) : (tensor<2xui32>, tensor<i32>, tensor<i32>) -> tensor<16x33xf32> loc(#loc375)
    %170 = stablehlo.broadcast_in_dim %168, dims = [] : (tensor<f32>) -> tensor<16x33xf32> loc(#loc376)
    %171 = stablehlo.multiply %169, %170 : tensor<16x33xf32> loc(#loc376)
    %172 = call @_threefry_fold_in(%4, %c_0) : (tensor<2xui32>, tensor<ui32>) -> tensor<2xui32> loc(#loc424)
    %173 = stablehlo.sqrt %cst_11 : tensor<f32> loc(#loc378)
    %174 = stablehlo.divide %173, %cst_9 : tensor<f32> loc(#loc379)
    %175 = call @_truncated_normal_27(%172, %c_8, %c_7) : (tensor<2xui32>, tensor<i32>, tensor<i32>) -> tensor<16x1xf32> loc(#loc380)
    %176 = stablehlo.broadcast_in_dim %174, dims = [] : (tensor<f32>) -> tensor<16x1xf32> loc(#loc381)
    %177 = stablehlo.multiply %175, %176 : tensor<16x1xf32> loc(#loc381)
    %178 = call @_threefry_fold_in(%4, %c) : (tensor<2xui32>, tensor<ui32>) -> tensor<2xui32> loc(#loc425)
    %179 = stablehlo.broadcast_in_dim %cst_15, dims = [] : (tensor<f32>) -> tensor<1xf32> loc(#loc383)
    %180 = stablehlo.broadcast_in_dim %cst_15, dims = [] : (tensor<f32>) -> tensor<33x16xf32> loc(#loc524)
    %181 = stablehlo.broadcast_in_dim %cst_15, dims = [] : (tensor<f32>) -> tensor<16x33xf32> loc(#loc524)
    %182 = stablehlo.broadcast_in_dim %cst_15, dims = [] : (tensor<f32>) -> tensor<1xf32> loc(#loc524)
    %183 = stablehlo.broadcast_in_dim %cst_15, dims = [] : (tensor<f32>) -> tensor<16x1xf32> loc(#loc524)
    %184 = stablehlo.broadcast_in_dim %cst_15, dims = [] : (tensor<f32>) -> tensor<16xf32> loc(#loc524)
    %185 = stablehlo.broadcast_in_dim %cst_15, dims = [] : (tensor<f32>) -> tensor<16x16xf32> loc(#loc524)
    %186 = stablehlo.broadcast_in_dim %cst_15, dims = [] : (tensor<f32>) -> tensor<16x16xf32> loc(#loc524)
    %187 = stablehlo.broadcast_in_dim %cst_15, dims = [] : (tensor<f32>) -> tensor<16x16xf32> loc(#loc524)
    %188 = stablehlo.broadcast_in_dim %cst_15, dims = [] : (tensor<f32>) -> tensor<33x16xf32> loc(#loc525)
    %189 = stablehlo.broadcast_in_dim %cst_15, dims = [] : (tensor<f32>) -> tensor<16x33xf32> loc(#loc525)
    %190 = stablehlo.broadcast_in_dim %cst_15, dims = [] : (tensor<f32>) -> tensor<1xf32> loc(#loc525)
    %191 = stablehlo.broadcast_in_dim %cst_15, dims = [] : (tensor<f32>) -> tensor<16x1xf32> loc(#loc525)
    %192 = stablehlo.broadcast_in_dim %cst_15, dims = [] : (tensor<f32>) -> tensor<16xf32> loc(#loc525)
    %193 = stablehlo.broadcast_in_dim %cst_15, dims = [] : (tensor<f32>) -> tensor<16x16xf32> loc(#loc525)
    %194 = stablehlo.broadcast_in_dim %cst_15, dims = [] : (tensor<f32>) -> tensor<16x16xf32> loc(#loc525)
    %195 = stablehlo.broadcast_in_dim %cst_15, dims = [] : (tensor<f32>) -> tensor<16x16xf32> loc(#loc525)
    return %c_19, %35, %36, %37, %38, %39, %40, %41, %42, %43, %21, %28, %29, %30, %31, %32, %33, %34, %44, %54, %171, %179, %177, %71, %69, %98, %83, %c_19, %180, %181, %182, %183, %184, %185, %186, %187, %188, %189, %190, %191, %192, %193, %194, %195 : tensor<i32>, tensor<16x5xi32>, tensor<16xi32>, tensor<16xf32>, tensor<16xi1>, tensor<16xi1>, tensor<16xf32>, tensor<16xf32>, tensor<16xf32>, tensor<16xf32>, tensor<16x5xi32>, tensor<16x5xi32>, tensor<16xi1>, tensor<16xi32>, tensor<16xi1>, tensor<16xi1>, tensor<16x5xi32>, tensor<16xi32>, tensor<16x16xf32>, tensor<33x16xf32>, tensor<16x33xf32>, tensor<1xf32>, tensor<16x1xf32>, tensor<16xf32>, tensor<16x16xf32>, tensor<16x16xf32>, tensor<16x16xf32>, tensor<i32>, tensor<33x16xf32>, tensor<16x33xf32>, tensor<1xf32>, tensor<16x1xf32>, tensor<16xf32>, tensor<16x16xf32>, tensor<16x16xf32>, tensor<16x16xf32>, tensor<33x16xf32>, tensor<16x33xf32>, tensor<1xf32>, tensor<16x1xf32>, tensor<16xf32>, tensor<16x16xf32>, tensor<16x16xf32>, tensor<16x16xf32> loc(#loc248)
  } loc(#loc)
  func.func private @_threefry_split(%arg0: tensor<2xui32> loc(unknown)) -> tensor<3x2xui32> {
    %c = stablehlo.constant dense<32> : tensor<ui64> loc(#loc239)
    %c_0 = stablehlo.constant dense<1> : tensor<ui64> loc(#loc239)
    %0 = stablehlo.slice %arg0 [0:1] : (tensor<2xui32>) -> tensor<1xui32> loc(#loc240)
    %1 = stablehlo.reshape %0 : (tensor<1xui32>) -> tensor<ui32> loc(#loc241)
    %2 = stablehlo.slice %arg0 [1:2] : (tensor<2xui32>) -> tensor<1xui32> loc(#loc240)
    %3 = stablehlo.reshape %2 : (tensor<1xui32>) -> tensor<ui32> loc(#loc241)
    %4 = stablehlo.iota dim = 0 : tensor<3xui64> loc(#loc239)
    %5 = stablehlo.broadcast_in_dim %c_0, dims = [] : (tensor<ui64>) -> tensor<3xui64> loc(#loc239)
    %6 = stablehlo.multiply %5, %4 : tensor<3xui64> loc(#loc239)
    %7 = stablehlo.broadcast_in_dim %c, dims = [] : (tensor<ui64>) -> tensor<3xui64> loc(#loc239)
    %8 = stablehlo.shift_right_logical %6, %7 : tensor<3xui64> loc(#loc239)
    %9 = stablehlo.convert %6 : (tensor<3xui64>) -> tensor<3xui32> loc(#loc239)
    %10 = stablehlo.convert %8 : (tensor<3xui64>) -> tensor<3xui32> loc(#loc239)
    %11:2 = call @threefry2x32(%1, %3, %10, %9) : (tensor<ui32>, tensor<ui32>, tensor<3xui32>, tensor<3xui32>) -> (tensor<3xui32>, tensor<3xui32>) loc(#loc142)
    %12 = stablehlo.broadcast_in_dim %11#0, dims = [0] : (tensor<3xui32>) -> tensor<3x1xui32> loc(#loc242)
    %13 = stablehlo.broadcast_in_dim %11#1, dims = [0] : (tensor<3xui32>) -> tensor<3x1xui32> loc(#loc242)
    %14 = stablehlo.concatenate %12, %13, dim = 1 : (tensor<3x1xui32>, tensor<3x1xui32>) -> tensor<3x2xui32> loc(#loc242)
    return %14 : tensor<3x2xui32> loc(#loc)
  } loc(#loc259)
  func.func private @threefry2x32(%arg0: tensor<ui32> loc("RecurrentPPO.init"(#loc4)), %arg1: tensor<ui32> loc("RecurrentPPO.init"(#loc4)), %arg2: tensor<3xui32> loc("RecurrentPPO.init"(#loc4)), %arg3: tensor<3xui32> loc("RecurrentPPO.init"(#loc4))) -> (tensor<3xui32>, tensor<3xui32>) {
    %c = stablehlo.constant dense<1> : tensor<i32> loc(#loc)
    %c_0 = stablehlo.constant dense<5> : tensor<i32> loc(#loc)
    %c_1 = stablehlo.constant dense<0> : tensor<i32> loc(#loc)
    %c_2 = stablehlo.constant dense<466688986> : tensor<ui32> loc(#loc228)
    %c_3 = stablehlo.constant dense<[13, 15, 26, 6]> : tensor<4xui32> loc(#loc228)
    %c_4 = stablehlo.constant dense<[17, 29, 16, 24]> : tensor<4xui32> loc(#loc228)
    %0 = stablehlo.xor %arg0, %arg1 : tensor<ui32> loc(#loc243)
    %1 = stablehlo.xor %0, %c_2 : tensor<ui32> loc(#loc243)
    %2 = stablehlo.broadcast_in_dim %arg0, dims = [] : (tensor<ui32>) -> tensor<3xui32> loc(#loc244)
    %3 = stablehlo.add %arg2, %2 : tensor<3xui32> loc(#loc244)
    %4 = stablehlo.broadcast_in_dim %arg1, dims = [] : (tensor<ui32>) -> tensor<3xui32> loc(#loc244)
    %5 = stablehlo.add %arg3, %4 : tensor<3xui32> loc(#loc244)
    %6:9 = stablehlo.while(%iterArg = %c_1, %iterArg_5 = %c_1, %iterArg_6 = %3, %iterArg_7 = %5, %iterArg_8 = %arg1, %iterArg_9 = %1, %iterArg_10 = %arg0, %iterArg_11 = %c_3, %iterArg_12 = %c_4) : tensor<i32>, tensor<i32>, tensor<3xui32>, tensor<3xui32>, tensor<ui32>, tensor<ui32>, tensor<ui32>, tensor<4xui32>, tensor<4xui32>
    cond {
      %7 = stablehlo.compare LT, %iterArg, %c_0, SIGNED : (tensor<i32>, tensor<i32>) -> tensor<i1> loc(#loc287)
      stablehlo.return %7 : tensor<i1> loc(#loc260)
    } do {
      %7:8 = func.call @closed_call(%iterArg_5, %iterArg_6, %iterArg_7, %iterArg_8, %iterArg_9, %iterArg_10, %iterArg_11, %iterArg_12) : (tensor<i32>, tensor<3xui32>, tensor<3xui32>, tensor<ui32>, tensor<ui32>, tensor<ui32>, tensor<4xui32>, tensor<4xui32>) -> (tensor<i32>, tensor<3xui32>, tensor<3xui32>, tensor<ui32>, tensor<ui32>, tensor<ui32>, tensor<4xui32>, tensor<4xui32>) loc(#loc288)
      %8 = stablehlo.add %iterArg, %c : tensor<i32> loc(#loc289)
      stablehlo.return %8, %7#0, %7#1, %7#2, %7#3, %7#4, %7#5, %7#6, %7#7 : tensor<i32>, tensor<i32>, tensor<3xui32>, tensor<3xui32>, tensor<ui32>, tensor<ui32>, tensor<ui32>, tensor<4xui32>, tensor<4xui32> loc(#loc260)
    } loc(#loc260)
    return %6#2, %6#3 : tensor<3xui32>, tensor<3xui32> loc(#loc142)
  } loc(#loc142)
  func.func private @closed_call(%arg0: tensor<i32> loc(unknown), %arg1: tensor<3xui32> loc(unknown), %arg2: tensor<3xui32> loc(unknown), %arg3: tensor<ui32> loc(unknown), %arg4: tensor<ui32> loc(unknown), %arg5: tensor<ui32> loc(unknown), %arg6: tensor<4xui32> loc(unknown), %arg7: tensor<4xui32> loc(unknown)) -> (tensor<i32>, tensor<3xui32>, tensor<3xui32>, tensor<ui32>, tensor<ui32>, tensor<ui32>, tensor<4xui32>, tensor<4xui32>) {
    %c = stablehlo.constant dense<32> : tensor<ui32> loc(#loc)
    %c_0 = stablehlo.constant dense<1> : tensor<i32> loc(#loc)
    %0 = stablehlo.add %arg0, %c_0 : tensor<i32> loc(#loc91)
    %1 = stablehlo.slice %arg6 [0:1] : (tensor<4xui32>) -> tensor<1xui32> loc(#loc92)
    %2 = stablehlo.reshape %1 : (tensor<1xui32>) -> tensor<ui32> loc(#loc93)
    %3 = stablehlo.add %arg1, %arg2 : tensor<3xui32> loc(#loc91)
    %4 = stablehlo.broadcast_in_dim %2, dims = [] : (tensor<ui32>) -> tensor<3xui32> loc(#loc94)
    %5 = stablehlo.shift_left %arg2, %4 : tensor<3xui32> loc(#loc94)
    %6 = stablehlo.subtract %c, %2 : tensor<ui32> loc(#loc95)
    %7 = stablehlo.broadcast_in_dim %6, dims = [] : (tensor<ui32>) -> tensor<3xui32> loc(#loc96)
    %8 = stablehlo.shift_right_logical %arg2, %7 : tensor<3xui32> loc(#loc96)
    %9 = stablehlo.or %5, %8 : tensor<3xui32> loc(#loc97)
    %10 = stablehlo.xor %3, %9 : tensor<3xui32> loc(#loc98)
    %11 = stablehlo.slice %arg6 [1:2] : (tensor<4xui32>) -> tensor<1xui32> loc(#loc92)
    %12 = stablehlo.reshape %11 : (tensor<1xui32>) -> tensor<ui32> loc(#loc93)
    %13 = stablehlo.add %3, %10 : tensor<3xui32> loc(#loc91)
    %14 = stablehlo.broadcast_in_dim %12, dims = [] : (tensor<ui32>) -> tensor<3xui32> loc(#loc94)
    %15 = stablehlo.shift_left %10, %14 : tensor<3xui32> loc(#loc94)
    %16 = stablehlo.subtract %c, %12 : tensor<ui32> loc(#loc95)
    %17 = stablehlo.broadcast_in_dim %16, dims = [] : (tensor<ui32>) -> tensor<3xui32> loc(#loc96)
    %18 = stablehlo.shift_right_logical %10, %17 : tensor<3xui32> loc(#loc96)
    %19 = stablehlo.or %15, %18 : tensor<3xui32> loc(#loc97)
    %20 = stablehlo.xor %13, %19 : tensor<3xui32> loc(#loc98)
    %21 = stablehlo.slice %arg6 [2:3] : (tensor<4xui32>) -> tensor<1xui32> loc(#loc92)
    %22 = stablehlo.reshape %21 : (tensor<1xui32>) -> tensor<ui32> loc(#loc93)
    %23 = stablehlo.add %13, %20 : tensor<3xui32> loc(#loc91)
    %24 = stablehlo.broadcast_in_dim %22, dims = [] : (tensor<ui32>) -> tensor<3xui32> loc(#loc94)
    %25 = stablehlo.shift_left %20, %24 : tensor<3xui32> loc(#loc94)
    %26 = stablehlo.subtract %c, %22 : tensor<ui32> loc(#loc95)
    %27 = stablehlo.broadcast_in_dim %26, dims = [] : (tensor<ui32>) -> tensor<3xui32> loc(#loc96)
    %28 = stablehlo.shift_right_logical %20, %27 : tensor<3xui32> loc(#loc96)
    %29 = stablehlo.or %25, %28 : tensor<3xui32> loc(#loc97)
    %30 = stablehlo.xor %23, %29 : tensor<3xui32> loc(#loc98)
    %31 = stablehlo.slice %arg6 [3:4] : (tensor<4xui32>) -> tensor<1xui32> loc(#loc92)
    %32 = stablehlo.reshape %31 : (tensor<1xui32>) -> tensor<ui32> loc(#loc93)
    %33 = stablehlo.add %23, %30 : tensor<3xui32> loc(#loc91)
    %34 = stablehlo.broadcast_in_dim %32, dims = [] : (tensor<ui32>) -> tensor<3xui32> loc(#loc94)
    %35 = stablehlo.shift_left %30, %34 : tensor<3xui32> loc(#loc94)
    %36 = stablehlo.subtract %c, %32 : tensor<ui32> loc(#loc95)
    %37 = stablehlo.broadcast_in_dim %36, dims = [] : (tensor<ui32>) -> tensor<3xui32> loc(#loc96)
    %38 = stablehlo.shift_right_logical %30, %37 : tensor<3xui32> loc(#loc96)
    %39 = stablehlo.or %35, %38 : tensor<3xui32> loc(#loc97)
    %40 = stablehlo.xor %33, %39 : tensor<3xui32> loc(#loc98)
    %41 = stablehlo.broadcast_in_dim %arg3, dims = [] : (tensor<ui32>) -> tensor<3xui32> loc(#loc91)
    %42 = stablehlo.add %33, %41 : tensor<3xui32> loc(#loc91)
    %43 = stablehlo.broadcast_in_dim %arg4, dims = [] : (tensor<ui32>) -> tensor<3xui32> loc(#loc91)
    %44 = stablehlo.add %40, %43 : tensor<3xui32> loc(#loc91)
    %45 = stablehlo.add %arg0, %c_0 : tensor<i32> loc(#loc91)
    %46 = stablehlo.convert %45 : (tensor<i32>) -> tensor<ui32> loc(#loc99)
    %47 = stablehlo.broadcast_in_dim %46, dims = [] : (tensor<ui32>) -> tensor<3xui32> loc(#loc91)
    %48 = stablehlo.add %44, %47 : tensor<3xui32> loc(#loc91)
    return %0, %42, %48, %arg4, %arg5, %arg3, %arg7, %arg6 : tensor<i32>, tensor<3xui32>, tensor<3xui32>, tensor<ui32>, tensor<ui32>, tensor<ui32>, tensor<4xui32>, tensor<4xui32> loc(#loc)
  } loc(#loc262)
  func.func private @_threefry_split_0(%arg0: tensor<2xui32> loc(unknown)) -> tensor<16x2xui32> {
    %c = stablehlo.constant dense<32> : tensor<ui64> loc(#loc264)
    %c_0 = stablehlo.constant dense<1> : tensor<ui64> loc(#loc264)
    %0 = stablehlo.slice %arg0 [0:1] : (tensor<2xui32>) -> tensor<1xui32> loc(#loc265)
    %1 = stablehlo.reshape %0 : (tensor<1xui32>) -> tensor<ui32> loc(#loc266)
    %2 = stablehlo.slice %arg0 [1:2] : (tensor<2xui32>) -> tensor<1xui32> loc(#loc265)
    %3 = stablehlo.reshape %2 : (tensor<1xui32>) -> tensor<ui32> loc(#loc266)
    %4 = stablehlo.iota dim = 0 : tensor<16xui64> loc(#loc264)
    %5 = stablehlo.broadcast_in_dim %c_0, dims = [] : (tensor<ui64>) -> tensor<16xui64> loc(#loc264)
    %6 = stablehlo.multiply %5, %4 : tensor<16xui64> loc(#loc264)
    %7 = stablehlo.broadcast_in_dim %c, dims = [] : (tensor<ui64>) -> tensor<16xui64> loc(#loc264)
    %8 = stablehlo.shift_right_logical %6, %7 : tensor<16xui64> loc(#loc264)
    %9 = stablehlo.convert %6 : (tensor<16xui64>) -> tensor<16xui32> loc(#loc264)
    %10 = stablehlo.convert %8 : (tensor<16xui64>) -> tensor<16xui32> loc(#loc264)
    %11:2 = call @threefry2x32_1(%1, %3, %10, %9) : (tensor<ui32>, tensor<ui32>, tensor<16xui32>, tensor<16xui32>) -> (tensor<16xui32>, tensor<16xui32>) loc(#loc247)
    %12 = stablehlo.broadcast_in_dim %11#0, dims = [0] : (tensor<16xui32>) -> tensor<16x1xui32> loc(#loc267)
    %13 = stablehlo.broadcast_in_dim %11#1, dims = [0] : (tensor<16xui32>) -> tensor<16x1xui32> loc(#loc267)
    %14 = stablehlo.concatenate %12, %13, dim = 1 : (tensor<16x1xui32>, tensor<16x1xui32>) -> tensor<16x2xui32> loc(#loc267)
    return %14 : tensor<16x2xui32> loc(#loc)
  } loc(#loc290)
  func.func private @threefry2x32_1(%arg0: tensor<ui32> loc(callsite(#loc229 at #loc230)), %arg1: tensor<ui32> loc(callsite(#loc229 at #loc230)), %arg2: tensor<16xui32> loc(callsite(#loc229 at #loc230)), %arg3: tensor<16xui32> loc(callsite(#loc229 at #loc230))) -> (tensor<16xui32>, tensor<16xui32>) {
    %c = stablehlo.constant dense<1> : tensor<i32> loc(#loc)
    %c_0 = stablehlo.constant dense<5> : tensor<i32> loc(#loc)
    %c_1 = stablehlo.constant dense<0> : tensor<i32> loc(#loc)
    %c_2 = stablehlo.constant dense<466688986> : tensor<ui32> loc(#loc228)
    %c_3 = stablehlo.constant dense<[13, 15, 26, 6]> : tensor<4xui32> loc(#loc228)
    %c_4 = stablehlo.constant dense<[17, 29, 16, 24]> : tensor<4xui32> loc(#loc228)
    %0 = stablehlo.xor %arg0, %arg1 : tensor<ui32> loc(#loc268)
    %1 = stablehlo.xor %0, %c_2 : tensor<ui32> loc(#loc268)
    %2 = stablehlo.broadcast_in_dim %arg0, dims = [] : (tensor<ui32>) -> tensor<16xui32> loc(#loc269)
    %3 = stablehlo.add %arg2, %2 : tensor<16xui32> loc(#loc269)
    %4 = stablehlo.broadcast_in_dim %arg1, dims = [] : (tensor<ui32>) -> tensor<16xui32> loc(#loc269)
    %5 = stablehlo.add %arg3, %4 : tensor<16xui32> loc(#loc269)
    %6:9 = stablehlo.while(%iterArg = %c_1, %iterArg_5 = %c_1, %iterArg_6 = %3, %iterArg_7 = %5, %iterArg_8 = %arg1, %iterArg_9 = %1, %iterArg_10 = %arg0, %iterArg_11 = %c_3, %iterArg_12 = %c_4) : tensor<i32>, tensor<i32>, tensor<16xui32>, tensor<16xui32>, tensor<ui32>, tensor<ui32>, tensor<ui32>, tensor<4xui32>, tensor<4xui32>
    cond {
      %7 = stablehlo.compare LT, %iterArg, %c_0, SIGNED : (tensor<i32>, tensor<i32>) -> tensor<i1> loc(#loc316)
      stablehlo.return %7 : tensor<i1> loc(#loc291)
    } do {
      %7:8 = func.call @closed_call_2(%iterArg_5, %iterArg_6, %iterArg_7, %iterArg_8, %iterArg_9, %iterArg_10, %iterArg_11, %iterArg_12) : (tensor<i32>, tensor<16xui32>, tensor<16xui32>, tensor<ui32>, tensor<ui32>, tensor<ui32>, tensor<4xui32>, tensor<4xui32>) -> (tensor<i32>, tensor<16xui32>, tensor<16xui32>, tensor<ui32>, tensor<ui32>, tensor<ui32>, tensor<4xui32>, tensor<4xui32>) loc(#loc317)
      %8 = stablehlo.add %iterArg, %c : tensor<i32> loc(#loc318)
      stablehlo.return %8, %7#0, %7#1, %7#2, %7#3, %7#4, %7#5, %7#6, %7#7 : tensor<i32>, tensor<i32>, tensor<16xui32>, tensor<16xui32>, tensor<ui32>, tensor<ui32>, tensor<ui32>, tensor<4xui32>, tensor<4xui32> loc(#loc291)
    } loc(#loc291)
    return %6#2, %6#3 : tensor<16xui32>, tensor<16xui32> loc(#loc247)
  } loc(#loc247)
  func.func private @closed_call_2(%arg0: tensor<i32> loc(unknown), %arg1: tensor<16xui32> loc(unknown), %arg2: tensor<16xui32> loc(unknown), %arg3: tensor<ui32> loc(unknown), %arg4: tensor<ui32> loc(unknown), %arg5: tensor<ui32> loc(unknown), %arg6: tensor<4xui32> loc(unknown), %arg7: tensor<4xui32> loc(unknown)) -> (tensor<i32>, tensor<16xui32>, tensor<16xui32>, tensor<ui32>, tensor<ui32>, tensor<ui32>, tensor<4xui32>, tensor<4xui32>) {
    %c = stablehlo.constant dense<32> : tensor<ui32> loc(#loc)
    %c_0 = stablehlo.constant dense<1> : tensor<i32> loc(#loc)
    %0 = stablehlo.add %arg0, %c_0 : tensor<i32> loc(#loc91)
    %1 = stablehlo.slice %arg6 [0:1] : (tensor<4xui32>) -> tensor<1xui32> loc(#loc92)
    %2 = stablehlo.reshape %1 : (tensor<1xui32>) -> tensor<ui32> loc(#loc93)
    %3 = stablehlo.add %arg1, %arg2 : tensor<16xui32> loc(#loc91)
    %4 = stablehlo.broadcast_in_dim %2, dims = [] : (tensor<ui32>) -> tensor<16xui32> loc(#loc94)
    %5 = stablehlo.shift_left %arg2, %4 : tensor<16xui32> loc(#loc94)
    %6 = stablehlo.subtract %c, %2 : tensor<ui32> loc(#loc95)
    %7 = stablehlo.broadcast_in_dim %6, dims = [] : (tensor<ui32>) -> tensor<16xui32> loc(#loc96)
    %8 = stablehlo.shift_right_logical %arg2, %7 : tensor<16xui32> loc(#loc96)
    %9 = stablehlo.or %5, %8 : tensor<16xui32> loc(#loc97)
    %10 = stablehlo.xor %3, %9 : tensor<16xui32> loc(#loc98)
    %11 = stablehlo.slice %arg6 [1:2] : (tensor<4xui32>) -> tensor<1xui32> loc(#loc92)
    %12 = stablehlo.reshape %11 : (tensor<1xui32>) -> tensor<ui32> loc(#loc93)
    %13 = stablehlo.add %3, %10 : tensor<16xui32> loc(#loc91)
    %14 = stablehlo.broadcast_in_dim %12, dims = [] : (tensor<ui32>) -> tensor<16xui32> loc(#loc94)
    %15 = stablehlo.shift_left %10, %14 : tensor<16xui32> loc(#loc94)
    %16 = stablehlo.subtract %c, %12 : tensor<ui32> loc(#loc95)
    %17 = stablehlo.broadcast_in_dim %16, dims = [] : (tensor<ui32>) -> tensor<16xui32> loc(#loc96)
    %18 = stablehlo.shift_right_logical %10, %17 : tensor<16xui32> loc(#loc96)
    %19 = stablehlo.or %15, %18 : tensor<16xui32> loc(#loc97)
    %20 = stablehlo.xor %13, %19 : tensor<16xui32> loc(#loc98)
    %21 = stablehlo.slice %arg6 [2:3] : (tensor<4xui32>) -> tensor<1xui32> loc(#loc92)
    %22 = stablehlo.reshape %21 : (tensor<1xui32>) -> tensor<ui32> loc(#loc93)
    %23 = stablehlo.add %13, %20 : tensor<16xui32> loc(#loc91)
    %24 = stablehlo.broadcast_in_dim %22, dims = [] : (tensor<ui32>) -> tensor<16xui32> loc(#loc94)
    %25 = stablehlo.shift_left %20, %24 : tensor<16xui32> loc(#loc94)
    %26 = stablehlo.subtract %c, %22 : tensor<ui32> loc(#loc95)
    %27 = stablehlo.broadcast_in_dim %26, dims = [] : (tensor<ui32>) -> tensor<16xui32> loc(#loc96)
    %28 = stablehlo.shift_right_logical %20, %27 : tensor<16xui32> loc(#loc96)
    %29 = stablehlo.or %25, %28 : tensor<16xui32> loc(#loc97)
    %30 = stablehlo.xor %23, %29 : tensor<16xui32> loc(#loc98)
    %31 = stablehlo.slice %arg6 [3:4] : (tensor<4xui32>) -> tensor<1xui32> loc(#loc92)
    %32 = stablehlo.reshape %31 : (tensor<1xui32>) -> tensor<ui32> loc(#loc93)
    %33 = stablehlo.add %23, %30 : tensor<16xui32> loc(#loc91)
    %34 = stablehlo.broadcast_in_dim %32, dims = [] : (tensor<ui32>) -> tensor<16xui32> loc(#loc94)
    %35 = stablehlo.shift_left %30, %34 : tensor<16xui32> loc(#loc94)
    %36 = stablehlo.subtract %c, %32 : tensor<ui32> loc(#loc95)
    %37 = stablehlo.broadcast_in_dim %36, dims = [] : (tensor<ui32>) -> tensor<16xui32> loc(#loc96)
    %38 = stablehlo.shift_right_logical %30, %37 : tensor<16xui32> loc(#loc96)
    %39 = stablehlo.or %35, %38 : tensor<16xui32> loc(#loc97)
    %40 = stablehlo.xor %33, %39 : tensor<16xui32> loc(#loc98)
    %41 = stablehlo.broadcast_in_dim %arg3, dims = [] : (tensor<ui32>) -> tensor<16xui32> loc(#loc91)
    %42 = stablehlo.add %33, %41 : tensor<16xui32> loc(#loc91)
    %43 = stablehlo.broadcast_in_dim %arg4, dims = [] : (tensor<ui32>) -> tensor<16xui32> loc(#loc91)
    %44 = stablehlo.add %40, %43 : tensor<16xui32> loc(#loc91)
    %45 = stablehlo.add %arg0, %c_0 : tensor<i32> loc(#loc91)
    %46 = stablehlo.convert %45 : (tensor<i32>) -> tensor<ui32> loc(#loc99)
    %47 = stablehlo.broadcast_in_dim %46, dims = [] : (tensor<ui32>) -> tensor<16xui32> loc(#loc91)
    %48 = stablehlo.add %44, %47 : tensor<16xui32> loc(#loc91)
    return %0, %42, %48, %arg4, %arg5, %arg3, %arg7, %arg6 : tensor<i32>, tensor<16xui32>, tensor<16xui32>, tensor<ui32>, tensor<ui32>, tensor<ui32>, tensor<4xui32>, tensor<4xui32> loc(#loc)
  } loc(#loc293)
  func.func private @_randint(%arg0: tensor<16x2xui32> loc(unknown), %arg1: tensor<i32> loc(unknown), %arg2: tensor<i32> loc(unknown)) -> tensor<16xi32> {
    %c = stablehlo.constant dense<65536> : tensor<ui32> loc(#loc)
    %c_0 = stablehlo.constant dense<1> : tensor<ui32> loc(#loc)
    %c_1 = stablehlo.constant dense<0> : tensor<ui32> loc(#loc)
    %c_2 = stablehlo.constant dense<2147483647> : tensor<i32> loc(#loc)
    %c_3 = stablehlo.constant dense<-2147483648> : tensor<i32> loc(#loc)
    %0 = call @clip(%c_2, %c_3, %c_2) : (tensor<i32>, tensor<i32>, tensor<i32>) -> tensor<i32> loc(#loc102)
    %1 = stablehlo.compare GT, %arg2, %0, SIGNED : (tensor<i32>, tensor<i32>) -> tensor<i1> loc(#loc103)
    %2 = call @clip_3(%arg1, %c_3, %c_2) : (tensor<i32>, tensor<i32>, tensor<i32>) -> tensor<i32> loc(#loc102)
    %3 = stablehlo.convert %2 : tensor<i32> loc(#loc99)
    %4 = call @clip_3(%arg2, %c_3, %c_2) : (tensor<i32>, tensor<i32>, tensor<i32>) -> tensor<i32> loc(#loc102)
    %5 = stablehlo.convert %4 : tensor<i32> loc(#loc99)
    %6 = call @_threefry_split_4(%arg0) : (tensor<16x2xui32>) -> tensor<16x2x2xui32> loc(#loc104)
    %7 = stablehlo.slice %6 [0:16, 0:1, 0:2] : (tensor<16x2x2xui32>) -> tensor<16x1x2xui32> loc(#loc92)
    %8 = stablehlo.reshape %7 : (tensor<16x1x2xui32>) -> tensor<16x2xui32> loc(#loc93)
    %9 = stablehlo.slice %6 [0:16, 1:2, 0:2] : (tensor<16x2x2xui32>) -> tensor<16x1x2xui32> loc(#loc92)
    %10 = stablehlo.reshape %9 : (tensor<16x1x2xui32>) -> tensor<16x2xui32> loc(#loc93)
    %11 = stablehlo.slice %8 [0:16, 0:1] : (tensor<16x2xui32>) -> tensor<16x1xui32> loc(#loc105)
    %12 = stablehlo.reshape %11 : (tensor<16x1xui32>) -> tensor<16xui32> loc(#loc106)
    %13 = stablehlo.slice %8 [0:16, 1:2] : (tensor<16x2xui32>) -> tensor<16x1xui32> loc(#loc105)
    %14 = stablehlo.reshape %13 : (tensor<16x1xui32>) -> tensor<16xui32> loc(#loc106)
    %15:2 = call @threefry2x32_7(%12, %14, %c_1, %c_1) : (tensor<16xui32>, tensor<16xui32>, tensor<ui32>, tensor<ui32>) -> (tensor<16xui32>, tensor<16xui32>) loc(#loc107)
    %16 = stablehlo.xor %15#0, %15#1 : tensor<16xui32> loc(#loc108)
    %17 = stablehlo.slice %10 [0:16, 0:1] : (tensor<16x2xui32>) -> tensor<16x1xui32> loc(#loc105)
    %18 = stablehlo.reshape %17 : (tensor<16x1xui32>) -> tensor<16xui32> loc(#loc106)
    %19 = stablehlo.slice %10 [0:16, 1:2] : (tensor<16x2xui32>) -> tensor<16x1xui32> loc(#loc105)
    %20 = stablehlo.reshape %19 : (tensor<16x1xui32>) -> tensor<16xui32> loc(#loc106)
    %21:2 = call @threefry2x32_7(%18, %20, %c_1, %c_1) : (tensor<16xui32>, tensor<16xui32>, tensor<ui32>, tensor<ui32>) -> (tensor<16xui32>, tensor<16xui32>) loc(#loc107)
    %22 = stablehlo.xor %21#0, %21#1 : tensor<16xui32> loc(#loc108)
    %23 = stablehlo.subtract %5, %3 : tensor<i32> loc(#loc95)
    %24 = stablehlo.convert %23 : (tensor<i32>) -> tensor<ui32> loc(#loc99)
    %25 = stablehlo.compare LE, %5, %3, SIGNED : (tensor<i32>, tensor<i32>) -> tensor<i1> loc(#loc109)
    %26 = stablehlo.select %25, %c_0, %24 : tensor<i1>, tensor<ui32> loc(#loc110)
    %27 = stablehlo.compare GT, %5, %3, SIGNED : (tensor<i32>, tensor<i32>) -> tensor<i1> loc(#loc103)
    %28 = stablehlo.and %1, %27 : tensor<i1> loc(#loc111)
    %29 = stablehlo.add %26, %c_0 : tensor<ui32> loc(#loc91)
    %30 = stablehlo.select %28, %29, %26 : tensor<i1>, tensor<ui32> loc(#loc110)
    %31 = stablehlo.remainder %c, %30 : tensor<ui32> loc(#loc112)
    %32 = stablehlo.multiply %31, %31 : tensor<ui32> loc(#loc113)
    %33 = stablehlo.remainder %32, %30 : tensor<ui32> loc(#loc112)
    %34 = stablehlo.broadcast_in_dim %30, dims = [] : (tensor<ui32>) -> tensor<16xui32> loc(#loc112)
    %35 = stablehlo.remainder %16, %34 : tensor<16xui32> loc(#loc112)
    %36 = stablehlo.broadcast_in_dim %33, dims = [] : (tensor<ui32>) -> tensor<16xui32> loc(#loc113)
    %37 = stablehlo.multiply %35, %36 : tensor<16xui32> loc(#loc113)
    %38 = stablehlo.broadcast_in_dim %30, dims = [] : (tensor<ui32>) -> tensor<16xui32> loc(#loc112)
    %39 = stablehlo.remainder %22, %38 : tensor<16xui32> loc(#loc112)
    %40 = stablehlo.add %37, %39 : tensor<16xui32> loc(#loc91)
    %41 = stablehlo.broadcast_in_dim %30, dims = [] : (tensor<ui32>) -> tensor<16xui32> loc(#loc112)
    %42 = stablehlo.remainder %40, %41 : tensor<16xui32> loc(#loc112)
    %43 = stablehlo.convert %42 : (tensor<16xui32>) -> tensor<16xi32> loc(#loc99)
    %44 = stablehlo.broadcast_in_dim %3, dims = [] : (tensor<i32>) -> tensor<16xi32> loc(#loc91)
    %45 = stablehlo.add %44, %43 : tensor<16xi32> loc(#loc91)
    return %45 : tensor<16xi32> loc(#loc)
  } loc(#loc473)
  func.func private @clip(%arg0: tensor<i32> loc(unknown), %arg1: tensor<i32> loc(unknown), %arg2: tensor<i32> loc(unknown)) -> tensor<i32> {
    %0 = stablehlo.maximum %arg1, %arg0 : tensor<i32> loc(#loc115)
    %1 = stablehlo.minimum %arg2, %0 : tensor<i32> loc(#loc116)
    return %1 : tensor<i32> loc(#loc)
  } loc(#loc231)
  func.func private @clip_3(%arg0: tensor<i32> loc(unknown), %arg1: tensor<i32> loc(unknown), %arg2: tensor<i32> loc(unknown)) -> tensor<i32> {
    %0 = stablehlo.maximum %arg1, %arg0 : tensor<i32> loc(#loc115)
    %1 = stablehlo.minimum %arg2, %0 : tensor<i32> loc(#loc116)
    return %1 : tensor<i32> loc(#loc)
  } loc(#loc231)
  func.func private @_threefry_split_4(%arg0: tensor<16x2xui32> loc(unknown)) -> tensor<16x2x2xui32> {
    %c = stablehlo.constant dense<32> : tensor<ui64> loc(#loc118)
    %c_0 = stablehlo.constant dense<1> : tensor<ui64> loc(#loc118)
    %0 = stablehlo.slice %arg0 [0:16, 0:1] : (tensor<16x2xui32>) -> tensor<16x1xui32> loc(#loc92)
    %1 = stablehlo.reshape %0 : (tensor<16x1xui32>) -> tensor<16xui32> loc(#loc93)
    %2 = stablehlo.slice %arg0 [0:16, 1:2] : (tensor<16x2xui32>) -> tensor<16x1xui32> loc(#loc92)
    %3 = stablehlo.reshape %2 : (tensor<16x1xui32>) -> tensor<16xui32> loc(#loc93)
    %4 = stablehlo.iota dim = 0 : tensor<2xui64> loc(#loc118)
    %5 = stablehlo.broadcast_in_dim %c_0, dims = [] : (tensor<ui64>) -> tensor<2xui64> loc(#loc118)
    %6 = stablehlo.multiply %5, %4 : tensor<2xui64> loc(#loc118)
    %7 = stablehlo.broadcast_in_dim %c, dims = [] : (tensor<ui64>) -> tensor<2xui64> loc(#loc118)
    %8 = stablehlo.shift_right_logical %6, %7 : tensor<2xui64> loc(#loc118)
    %9 = stablehlo.convert %6 : (tensor<2xui64>) -> tensor<2xui32> loc(#loc118)
    %10 = stablehlo.convert %8 : (tensor<2xui64>) -> tensor<2xui32> loc(#loc118)
    %11 = stablehlo.broadcast_in_dim %10, dims = [1] : (tensor<2xui32>) -> tensor<1x2xui32> loc(#loc119)
    %12 = stablehlo.broadcast_in_dim %9, dims = [1] : (tensor<2xui32>) -> tensor<1x2xui32> loc(#loc119)
    %13 = stablehlo.broadcast_in_dim %1, dims = [0] : (tensor<16xui32>) -> tensor<16x1xui32> loc(#loc119)
    %14 = stablehlo.broadcast_in_dim %3, dims = [0] : (tensor<16xui32>) -> tensor<16x1xui32> loc(#loc119)
    %15:2 = call @threefry2x32_5(%13, %14, %11, %12) : (tensor<16x1xui32>, tensor<16x1xui32>, tensor<1x2xui32>, tensor<1x2xui32>) -> (tensor<16x2xui32>, tensor<16x2xui32>) loc(#loc)
    %16 = stablehlo.broadcast_in_dim %15#0, dims = [0, 1] : (tensor<16x2xui32>) -> tensor<16x2x1xui32> loc(#loc120)
    %17 = stablehlo.broadcast_in_dim %15#1, dims = [0, 1] : (tensor<16x2xui32>) -> tensor<16x2x1xui32> loc(#loc120)
    %18 = stablehlo.concatenate %16, %17, dim = 2 : (tensor<16x2x1xui32>, tensor<16x2x1xui32>) -> tensor<16x2x2xui32> loc(#loc120)
    return %18 : tensor<16x2x2xui32> loc(#loc)
  } loc(#loc232)
  func.func private @threefry2x32_5(%arg0: tensor<16x1xui32> loc(unknown), %arg1: tensor<16x1xui32> loc(unknown), %arg2: tensor<1x2xui32> loc(unknown), %arg3: tensor<1x2xui32> loc(unknown)) -> (tensor<16x2xui32>, tensor<16x2xui32>) {
    %c = stablehlo.constant dense<1> : tensor<i32> loc(#loc)
    %c_0 = stablehlo.constant dense<5> : tensor<i32> loc(#loc)
    %c_1 = stablehlo.constant dense<0> : tensor<i32> loc(#loc)
    %c_2 = stablehlo.constant dense<466688986> : tensor<ui32> loc(#loc228)
    %c_3 = stablehlo.constant dense<[13, 15, 26, 6]> : tensor<4xui32> loc(#loc228)
    %c_4 = stablehlo.constant dense<[17, 29, 16, 24]> : tensor<4xui32> loc(#loc228)
    %0 = stablehlo.xor %arg0, %arg1 : tensor<16x1xui32> loc(#loc98)
    %1 = stablehlo.broadcast_in_dim %c_2, dims = [] : (tensor<ui32>) -> tensor<16x1xui32> loc(#loc98)
    %2 = stablehlo.xor %0, %1 : tensor<16x1xui32> loc(#loc98)
    %3 = stablehlo.broadcast_in_dim %arg2, dims = [0, 1] : (tensor<1x2xui32>) -> tensor<16x2xui32> loc(#loc91)
    %4 = stablehlo.broadcast_in_dim %arg0, dims = [0, 1] : (tensor<16x1xui32>) -> tensor<16x2xui32> loc(#loc91)
    %5 = stablehlo.add %3, %4 : tensor<16x2xui32> loc(#loc91)
    %6 = stablehlo.broadcast_in_dim %arg3, dims = [0, 1] : (tensor<1x2xui32>) -> tensor<16x2xui32> loc(#loc91)
    %7 = stablehlo.broadcast_in_dim %arg1, dims = [0, 1] : (tensor<16x1xui32>) -> tensor<16x2xui32> loc(#loc91)
    %8 = stablehlo.add %6, %7 : tensor<16x2xui32> loc(#loc91)
    %9:9 = stablehlo.while(%iterArg = %c_1, %iterArg_5 = %c_1, %iterArg_6 = %5, %iterArg_7 = %8, %iterArg_8 = %arg1, %iterArg_9 = %2, %iterArg_10 = %arg0, %iterArg_11 = %c_3, %iterArg_12 = %c_4) : tensor<i32>, tensor<i32>, tensor<16x2xui32>, tensor<16x2xui32>, tensor<16x1xui32>, tensor<16x1xui32>, tensor<16x1xui32>, tensor<4xui32>, tensor<4xui32>
    cond {
      %10 = stablehlo.compare LT, %iterArg, %c_0, SIGNED : (tensor<i32>, tensor<i32>) -> tensor<i1> loc(#loc122)
      stablehlo.return %10 : tensor<i1> loc(#loc121)
    } do {
      %10:8 = func.call @closed_call_6(%iterArg_5, %iterArg_6, %iterArg_7, %iterArg_8, %iterArg_9, %iterArg_10, %iterArg_11, %iterArg_12) : (tensor<i32>, tensor<16x2xui32>, tensor<16x2xui32>, tensor<16x1xui32>, tensor<16x1xui32>, tensor<16x1xui32>, tensor<4xui32>, tensor<4xui32>) -> (tensor<i32>, tensor<16x2xui32>, tensor<16x2xui32>, tensor<16x1xui32>, tensor<16x1xui32>, tensor<16x1xui32>, tensor<4xui32>, tensor<4xui32>) loc(#loc123)
      %11 = stablehlo.add %iterArg, %c : tensor<i32> loc(#loc124)
      stablehlo.return %11, %10#0, %10#1, %10#2, %10#3, %10#4, %10#5, %10#6, %10#7 : tensor<i32>, tensor<i32>, tensor<16x2xui32>, tensor<16x2xui32>, tensor<16x1xui32>, tensor<16x1xui32>, tensor<16x1xui32>, tensor<4xui32>, tensor<4xui32> loc(#loc121)
    } loc(#loc121)
    return %9#2, %9#3 : tensor<16x2xui32>, tensor<16x2xui32> loc(#loc)
  } loc(#loc)
  func.func private @closed_call_6(%arg0: tensor<i32> loc(unknown), %arg1: tensor<16x2xui32> loc(unknown), %arg2: tensor<16x2xui32> loc(unknown), %arg3: tensor<16x1xui32> loc(unknown), %arg4: tensor<16x1xui32> loc(unknown), %arg5: tensor<16x1xui32> loc(unknown), %arg6: tensor<4xui32> loc(unknown), %arg7: tensor<4xui32> loc(unknown)) -> (tensor<i32>, tensor<16x2xui32>, tensor<16x2xui32>, tensor<16x1xui32>, tensor<16x1xui32>, tensor<16x1xui32>, tensor<4xui32>, tensor<4xui32>) {
    %c = stablehlo.constant dense<32> : tensor<ui32> loc(#loc)
    %c_0 = stablehlo.constant dense<1> : tensor<i32> loc(#loc)
    %0 = stablehlo.add %arg0, %c_0 : tensor<i32> loc(#loc91)
    %1 = stablehlo.slice %arg6 [0:1] : (tensor<4xui32>) -> tensor<1xui32> loc(#loc92)
    %2 = stablehlo.reshape %1 : (tensor<1xui32>) -> tensor<ui32> loc(#loc93)
    %3 = stablehlo.add %arg1, %arg2 : tensor<16x2xui32> loc(#loc91)
    %4 = stablehlo.broadcast_in_dim %2, dims = [] : (tensor<ui32>) -> tensor<16x2xui32> loc(#loc94)
    %5 = stablehlo.shift_left %arg2, %4 : tensor<16x2xui32> loc(#loc94)
    %6 = stablehlo.subtract %c, %2 : tensor<ui32> loc(#loc95)
    %7 = stablehlo.broadcast_in_dim %6, dims = [] : (tensor<ui32>) -> tensor<16x2xui32> loc(#loc96)
    %8 = stablehlo.shift_right_logical %arg2, %7 : tensor<16x2xui32> loc(#loc96)
    %9 = stablehlo.or %5, %8 : tensor<16x2xui32> loc(#loc97)
    %10 = stablehlo.xor %3, %9 : tensor<16x2xui32> loc(#loc98)
    %11 = stablehlo.slice %arg6 [1:2] : (tensor<4xui32>) -> tensor<1xui32> loc(#loc92)
    %12 = stablehlo.reshape %11 : (tensor<1xui32>) -> tensor<ui32> loc(#loc93)
    %13 = stablehlo.add %3, %10 : tensor<16x2xui32> loc(#loc91)
    %14 = stablehlo.broadcast_in_dim %12, dims = [] : (tensor<ui32>) -> tensor<16x2xui32> loc(#loc94)
    %15 = stablehlo.shift_left %10, %14 : tensor<16x2xui32> loc(#loc94)
    %16 = stablehlo.subtract %c, %12 : tensor<ui32> loc(#loc95)
    %17 = stablehlo.broadcast_in_dim %16, dims = [] : (tensor<ui32>) -> tensor<16x2xui32> loc(#loc96)
    %18 = stablehlo.shift_right_logical %10, %17 : tensor<16x2xui32> loc(#loc96)
    %19 = stablehlo.or %15, %18 : tensor<16x2xui32> loc(#loc97)
    %20 = stablehlo.xor %13, %19 : tensor<16x2xui32> loc(#loc98)
    %21 = stablehlo.slice %arg6 [2:3] : (tensor<4xui32>) -> tensor<1xui32> loc(#loc92)
    %22 = stablehlo.reshape %21 : (tensor<1xui32>) -> tensor<ui32> loc(#loc93)
    %23 = stablehlo.add %13, %20 : tensor<16x2xui32> loc(#loc91)
    %24 = stablehlo.broadcast_in_dim %22, dims = [] : (tensor<ui32>) -> tensor<16x2xui32> loc(#loc94)
    %25 = stablehlo.shift_left %20, %24 : tensor<16x2xui32> loc(#loc94)
    %26 = stablehlo.subtract %c, %22 : tensor<ui32> loc(#loc95)
    %27 = stablehlo.broadcast_in_dim %26, dims = [] : (tensor<ui32>) -> tensor<16x2xui32> loc(#loc96)
    %28 = stablehlo.shift_right_logical %20, %27 : tensor<16x2xui32> loc(#loc96)
    %29 = stablehlo.or %25, %28 : tensor<16x2xui32> loc(#loc97)
    %30 = stablehlo.xor %23, %29 : tensor<16x2xui32> loc(#loc98)
    %31 = stablehlo.slice %arg6 [3:4] : (tensor<4xui32>) -> tensor<1xui32> loc(#loc92)
    %32 = stablehlo.reshape %31 : (tensor<1xui32>) -> tensor<ui32> loc(#loc93)
    %33 = stablehlo.add %23, %30 : tensor<16x2xui32> loc(#loc91)
    %34 = stablehlo.broadcast_in_dim %32, dims = [] : (tensor<ui32>) -> tensor<16x2xui32> loc(#loc94)
    %35 = stablehlo.shift_left %30, %34 : tensor<16x2xui32> loc(#loc94)
    %36 = stablehlo.subtract %c, %32 : tensor<ui32> loc(#loc95)
    %37 = stablehlo.broadcast_in_dim %36, dims = [] : (tensor<ui32>) -> tensor<16x2xui32> loc(#loc96)
    %38 = stablehlo.shift_right_logical %30, %37 : tensor<16x2xui32> loc(#loc96)
    %39 = stablehlo.or %35, %38 : tensor<16x2xui32> loc(#loc97)
    %40 = stablehlo.xor %33, %39 : tensor<16x2xui32> loc(#loc98)
    %41 = stablehlo.broadcast_in_dim %arg3, dims = [0, 1] : (tensor<16x1xui32>) -> tensor<16x2xui32> loc(#loc91)
    %42 = stablehlo.add %33, %41 : tensor<16x2xui32> loc(#loc91)
    %43 = stablehlo.broadcast_in_dim %arg4, dims = [0, 1] : (tensor<16x1xui32>) -> tensor<16x2xui32> loc(#loc91)
    %44 = stablehlo.add %40, %43 : tensor<16x2xui32> loc(#loc91)
    %45 = stablehlo.add %arg0, %c_0 : tensor<i32> loc(#loc91)
    %46 = stablehlo.convert %45 : (tensor<i32>) -> tensor<ui32> loc(#loc99)
    %47 = stablehlo.broadcast_in_dim %46, dims = [] : (tensor<ui32>) -> tensor<16x2xui32> loc(#loc91)
    %48 = stablehlo.add %44, %47 : tensor<16x2xui32> loc(#loc91)
    return %0, %42, %48, %arg4, %arg5, %arg3, %arg7, %arg6 : tensor<i32>, tensor<16x2xui32>, tensor<16x2xui32>, tensor<16x1xui32>, tensor<16x1xui32>, tensor<16x1xui32>, tensor<4xui32>, tensor<4xui32> loc(#loc)
  } loc(#loc233)
  func.func private @threefry2x32_7(%arg0: tensor<16xui32> loc("vmap()"), %arg1: tensor<16xui32> loc("vmap()"), %arg2: tensor<ui32> loc("vmap()"), %arg3: tensor<ui32> loc("vmap()")) -> (tensor<16xui32>, tensor<16xui32>) {
    %c = stablehlo.constant dense<1> : tensor<i32> loc(#loc)
    %c_0 = stablehlo.constant dense<5> : tensor<i32> loc(#loc)
    %c_1 = stablehlo.constant dense<0> : tensor<i32> loc(#loc)
    %c_2 = stablehlo.constant dense<466688986> : tensor<ui32> loc(#loc228)
    %c_3 = stablehlo.constant dense<[13, 15, 26, 6]> : tensor<4xui32> loc(#loc228)
    %c_4 = stablehlo.constant dense<[17, 29, 16, 24]> : tensor<4xui32> loc(#loc228)
    %0 = stablehlo.xor %arg0, %arg1 : tensor<16xui32> loc(#loc98)
    %1 = stablehlo.broadcast_in_dim %c_2, dims = [] : (tensor<ui32>) -> tensor<16xui32> loc(#loc98)
    %2 = stablehlo.xor %0, %1 : tensor<16xui32> loc(#loc98)
    %3 = stablehlo.broadcast_in_dim %arg2, dims = [] : (tensor<ui32>) -> tensor<16xui32> loc(#loc91)
    %4 = stablehlo.add %3, %arg0 : tensor<16xui32> loc(#loc91)
    %5 = stablehlo.broadcast_in_dim %arg3, dims = [] : (tensor<ui32>) -> tensor<16xui32> loc(#loc91)
    %6 = stablehlo.add %5, %arg1 : tensor<16xui32> loc(#loc91)
    %7:9 = stablehlo.while(%iterArg = %c_1, %iterArg_5 = %c_1, %iterArg_6 = %4, %iterArg_7 = %6, %iterArg_8 = %arg1, %iterArg_9 = %2, %iterArg_10 = %arg0, %iterArg_11 = %c_3, %iterArg_12 = %c_4) : tensor<i32>, tensor<i32>, tensor<16xui32>, tensor<16xui32>, tensor<16xui32>, tensor<16xui32>, tensor<16xui32>, tensor<4xui32>, tensor<4xui32>
    cond {
      %8 = stablehlo.compare LT, %iterArg, %c_0, SIGNED : (tensor<i32>, tensor<i32>) -> tensor<i1> loc(#loc122)
      stablehlo.return %8 : tensor<i1> loc(#loc121)
    } do {
      %8:8 = func.call @closed_call_8(%iterArg_5, %iterArg_6, %iterArg_7, %iterArg_8, %iterArg_9, %iterArg_10, %iterArg_11, %iterArg_12) : (tensor<i32>, tensor<16xui32>, tensor<16xui32>, tensor<16xui32>, tensor<16xui32>, tensor<16xui32>, tensor<4xui32>, tensor<4xui32>) -> (tensor<i32>, tensor<16xui32>, tensor<16xui32>, tensor<16xui32>, tensor<16xui32>, tensor<16xui32>, tensor<4xui32>, tensor<4xui32>) loc(#loc123)
      %9 = stablehlo.add %iterArg, %c : tensor<i32> loc(#loc124)
      stablehlo.return %9, %8#0, %8#1, %8#2, %8#3, %8#4, %8#5, %8#6, %8#7 : tensor<i32>, tensor<i32>, tensor<16xui32>, tensor<16xui32>, tensor<16xui32>, tensor<16xui32>, tensor<16xui32>, tensor<4xui32>, tensor<4xui32> loc(#loc121)
    } loc(#loc121)
    return %7#2, %7#3 : tensor<16xui32>, tensor<16xui32> loc(#loc107)
  } loc(#loc107)
  func.func private @closed_call_8(%arg0: tensor<i32> loc(unknown), %arg1: tensor<16xui32> loc(unknown), %arg2: tensor<16xui32> loc(unknown), %arg3: tensor<16xui32> loc(unknown), %arg4: tensor<16xui32> loc(unknown), %arg5: tensor<16xui32> loc(unknown), %arg6: tensor<4xui32> loc(unknown), %arg7: tensor<4xui32> loc(unknown)) -> (tensor<i32>, tensor<16xui32>, tensor<16xui32>, tensor<16xui32>, tensor<16xui32>, tensor<16xui32>, tensor<4xui32>, tensor<4xui32>) {
    %c = stablehlo.constant dense<32> : tensor<ui32> loc(#loc)
    %c_0 = stablehlo.constant dense<1> : tensor<i32> loc(#loc)
    %0 = stablehlo.add %arg0, %c_0 : tensor<i32> loc(#loc91)
    %1 = stablehlo.slice %arg6 [0:1] : (tensor<4xui32>) -> tensor<1xui32> loc(#loc92)
    %2 = stablehlo.reshape %1 : (tensor<1xui32>) -> tensor<ui32> loc(#loc93)
    %3 = stablehlo.add %arg1, %arg2 : tensor<16xui32> loc(#loc91)
    %4 = stablehlo.broadcast_in_dim %2, dims = [] : (tensor<ui32>) -> tensor<16xui32> loc(#loc94)
    %5 = stablehlo.shift_left %arg2, %4 : tensor<16xui32> loc(#loc94)
    %6 = stablehlo.subtract %c, %2 : tensor<ui32> loc(#loc95)
    %7 = stablehlo.broadcast_in_dim %6, dims = [] : (tensor<ui32>) -> tensor<16xui32> loc(#loc96)
    %8 = stablehlo.shift_right_logical %arg2, %7 : tensor<16xui32> loc(#loc96)
    %9 = stablehlo.or %5, %8 : tensor<16xui32> loc(#loc97)
    %10 = stablehlo.xor %3, %9 : tensor<16xui32> loc(#loc98)
    %11 = stablehlo.slice %arg6 [1:2] : (tensor<4xui32>) -> tensor<1xui32> loc(#loc92)
    %12 = stablehlo.reshape %11 : (tensor<1xui32>) -> tensor<ui32> loc(#loc93)
    %13 = stablehlo.add %3, %10 : tensor<16xui32> loc(#loc91)
    %14 = stablehlo.broadcast_in_dim %12, dims = [] : (tensor<ui32>) -> tensor<16xui32> loc(#loc94)
    %15 = stablehlo.shift_left %10, %14 : tensor<16xui32> loc(#loc94)
    %16 = stablehlo.subtract %c, %12 : tensor<ui32> loc(#loc95)
    %17 = stablehlo.broadcast_in_dim %16, dims = [] : (tensor<ui32>) -> tensor<16xui32> loc(#loc96)
    %18 = stablehlo.shift_right_logical %10, %17 : tensor<16xui32> loc(#loc96)
    %19 = stablehlo.or %15, %18 : tensor<16xui32> loc(#loc97)
    %20 = stablehlo.xor %13, %19 : tensor<16xui32> loc(#loc98)
    %21 = stablehlo.slice %arg6 [2:3] : (tensor<4xui32>) -> tensor<1xui32> loc(#loc92)
    %22 = stablehlo.reshape %21 : (tensor<1xui32>) -> tensor<ui32> loc(#loc93)
    %23 = stablehlo.add %13, %20 : tensor<16xui32> loc(#loc91)
    %24 = stablehlo.broadcast_in_dim %22, dims = [] : (tensor<ui32>) -> tensor<16xui32> loc(#loc94)
    %25 = stablehlo.shift_left %20, %24 : tensor<16xui32> loc(#loc94)
    %26 = stablehlo.subtract %c, %22 : tensor<ui32> loc(#loc95)
    %27 = stablehlo.broadcast_in_dim %26, dims = [] : (tensor<ui32>) -> tensor<16xui32> loc(#loc96)
    %28 = stablehlo.shift_right_logical %20, %27 : tensor<16xui32> loc(#loc96)
    %29 = stablehlo.or %25, %28 : tensor<16xui32> loc(#loc97)
    %30 = stablehlo.xor %23, %29 : tensor<16xui32> loc(#loc98)
    %31 = stablehlo.slice %arg6 [3:4] : (tensor<4xui32>) -> tensor<1xui32> loc(#loc92)
    %32 = stablehlo.reshape %31 : (tensor<1xui32>) -> tensor<ui32> loc(#loc93)
    %33 = stablehlo.add %23, %30 : tensor<16xui32> loc(#loc91)
    %34 = stablehlo.broadcast_in_dim %32, dims = [] : (tensor<ui32>) -> tensor<16xui32> loc(#loc94)
    %35 = stablehlo.shift_left %30, %34 : tensor<16xui32> loc(#loc94)
    %36 = stablehlo.subtract %c, %32 : tensor<ui32> loc(#loc95)
    %37 = stablehlo.broadcast_in_dim %36, dims = [] : (tensor<ui32>) -> tensor<16xui32> loc(#loc96)
    %38 = stablehlo.shift_right_logical %30, %37 : tensor<16xui32> loc(#loc96)
    %39 = stablehlo.or %35, %38 : tensor<16xui32> loc(#loc97)
    %40 = stablehlo.xor %33, %39 : tensor<16xui32> loc(#loc98)
    %41 = stablehlo.add %33, %arg3 : tensor<16xui32> loc(#loc91)
    %42 = stablehlo.add %40, %arg4 : tensor<16xui32> loc(#loc91)
    %43 = stablehlo.add %arg0, %c_0 : tensor<i32> loc(#loc91)
    %44 = stablehlo.convert %43 : (tensor<i32>) -> tensor<ui32> loc(#loc99)
    %45 = stablehlo.broadcast_in_dim %44, dims = [] : (tensor<ui32>) -> tensor<16xui32> loc(#loc91)
    %46 = stablehlo.add %42, %45 : tensor<16xui32> loc(#loc91)
    return %0, %41, %46, %arg4, %arg5, %arg3, %arg7, %arg6 : tensor<i32>, tensor<16xui32>, tensor<16xui32>, tensor<16xui32>, tensor<16xui32>, tensor<16xui32>, tensor<4xui32>, tensor<4xui32> loc(#loc)
  } loc(#loc233)
  func.func private @_one_hot(%arg0: tensor<5xi32> loc(unknown)) -> tensor<5x3xf32> {
    %0 = stablehlo.broadcast_in_dim %arg0, dims = [0] : (tensor<5xi32>) -> tensor<5x1xi32> loc(#loc119)
    %1 = stablehlo.iota dim = 1 : tensor<1x3xi32> loc(#loc125)
    %2 = stablehlo.broadcast_in_dim %0, dims = [0, 1] : (tensor<5x1xi32>) -> tensor<5x3xi32> loc(#loc126)
    %3 = stablehlo.broadcast_in_dim %1, dims = [0, 1] : (tensor<1x3xi32>) -> tensor<5x3xi32> loc(#loc126)
    %4 = stablehlo.compare EQ, %2, %3, SIGNED : (tensor<5x3xi32>, tensor<5x3xi32>) -> tensor<5x3xi1> loc(#loc126)
    %5 = stablehlo.convert %4 : (tensor<5x3xi1>) -> tensor<5x3xf32> loc(#loc99)
    return %5 : tensor<5x3xf32> loc(#loc)
  } loc(#loc502)
  func.func private @_where(%arg0: tensor<i1> loc(unknown), %arg1: tensor<15xf32> loc(unknown), %arg2: tensor<f32> loc(unknown)) -> tensor<15xf32> {
    %0 = stablehlo.convert %arg2 : tensor<f32> loc(#loc99)
    %1 = stablehlo.broadcast_in_dim %0, dims = [] : (tensor<f32>) -> tensor<15xf32> loc(#loc119)
    %2 = stablehlo.select %arg0, %arg1, %1 : tensor<i1>, tensor<15xf32> loc(#loc110)
    return %2 : tensor<15xf32> loc(#loc)
  } loc(#loc503)
  func.func private @_threefry_fold_in(%arg0: tensor<2xui32> loc(unknown), %arg1: tensor<ui32> loc(unknown)) -> tensor<2xui32> {
    %c = stablehlo.constant dense<4294967295> : tensor<ui32> loc(#loc)
    %c_0 = stablehlo.constant dense<32> : tensor<ui32> loc(#loc)
    %0 = stablehlo.shift_right_logical %arg1, %c_0 : tensor<ui32> loc(#loc320)
    %1 = stablehlo.broadcast_in_dim %0, dims = [] : (tensor<ui32>) -> tensor<1xui32> loc(#loc321)
    %2 = stablehlo.and %arg1, %c : tensor<ui32> loc(#loc322)
    %3 = stablehlo.broadcast_in_dim %2, dims = [] : (tensor<ui32>) -> tensor<1xui32> loc(#loc321)
    %4 = stablehlo.concatenate %1, %3, dim = 0 : (tensor<1xui32>, tensor<1xui32>) -> tensor<2xui32> loc(#loc323)
    %5 = stablehlo.slice %arg0 [0:1] : (tensor<2xui32>) -> tensor<1xui32> loc(#loc324)
    %6 = stablehlo.reshape %5 : (tensor<1xui32>) -> tensor<ui32> loc(#loc325)
    %7 = stablehlo.slice %arg0 [1:2] : (tensor<2xui32>) -> tensor<1xui32> loc(#loc324)
    %8 = stablehlo.reshape %7 : (tensor<1xui32>) -> tensor<ui32> loc(#loc325)
    %9 = stablehlo.slice %4 [0:1] : (tensor<2xui32>) -> tensor<1xui32> loc(#loc326)
    %10 = stablehlo.slice %4 [1:2] : (tensor<2xui32>) -> tensor<1xui32> loc(#loc326)
    %11:2 = call @threefry2x32_9(%6, %8, %9, %10) : (tensor<ui32>, tensor<ui32>, tensor<1xui32>, tensor<1xui32>) -> (tensor<1xui32>, tensor<1xui32>) loc(#loc281)
    %12 = stablehlo.concatenate %11#0, %11#1, dim = 0 : (tensor<1xui32>, tensor<1xui32>) -> tensor<2xui32> loc(#loc323)
    return %12 : tensor<2xui32> loc(#loc)
  } loc(#loc353)
  func.func private @threefry2x32_9(%arg0: tensor<ui32> loc(callsite(#loc171 at #loc255)), %arg1: tensor<ui32> loc(callsite(#loc171 at #loc255)), %arg2: tensor<1xui32> loc(callsite(#loc171 at #loc255)), %arg3: tensor<1xui32> loc(callsite(#loc171 at #loc255))) -> (tensor<1xui32>, tensor<1xui32>) {
    %c = stablehlo.constant dense<1> : tensor<i32> loc(#loc)
    %c_0 = stablehlo.constant dense<5> : tensor<i32> loc(#loc)
    %c_1 = stablehlo.constant dense<0> : tensor<i32> loc(#loc)
    %c_2 = stablehlo.constant dense<466688986> : tensor<ui32> loc(#loc228)
    %c_3 = stablehlo.constant dense<[13, 15, 26, 6]> : tensor<4xui32> loc(#loc228)
    %c_4 = stablehlo.constant dense<[17, 29, 16, 24]> : tensor<4xui32> loc(#loc228)
    %0 = stablehlo.xor %arg0, %arg1 : tensor<ui32> loc(#loc327)
    %1 = stablehlo.xor %0, %c_2 : tensor<ui32> loc(#loc327)
    %2 = stablehlo.broadcast_in_dim %arg0, dims = [] : (tensor<ui32>) -> tensor<1xui32> loc(#loc328)
    %3 = stablehlo.add %arg2, %2 : tensor<1xui32> loc(#loc328)
    %4 = stablehlo.broadcast_in_dim %arg1, dims = [] : (tensor<ui32>) -> tensor<1xui32> loc(#loc328)
    %5 = stablehlo.add %arg3, %4 : tensor<1xui32> loc(#loc328)
    %6:9 = stablehlo.while(%iterArg = %c_1, %iterArg_5 = %c_1, %iterArg_6 = %3, %iterArg_7 = %5, %iterArg_8 = %arg1, %iterArg_9 = %1, %iterArg_10 = %arg0, %iterArg_11 = %c_3, %iterArg_12 = %c_4) : tensor<i32>, tensor<i32>, tensor<1xui32>, tensor<1xui32>, tensor<ui32>, tensor<ui32>, tensor<ui32>, tensor<4xui32>, tensor<4xui32>
    cond {
      %7 = stablehlo.compare LT, %iterArg, %c_0, SIGNED : (tensor<i32>, tensor<i32>) -> tensor<i1> loc(#loc385)
      stablehlo.return %7 : tensor<i1> loc(#loc354)
    } do {
      %7:8 = func.call @closed_call_10(%iterArg_5, %iterArg_6, %iterArg_7, %iterArg_8, %iterArg_9, %iterArg_10, %iterArg_11, %iterArg_12) : (tensor<i32>, tensor<1xui32>, tensor<1xui32>, tensor<ui32>, tensor<ui32>, tensor<ui32>, tensor<4xui32>, tensor<4xui32>) -> (tensor<i32>, tensor<1xui32>, tensor<1xui32>, tensor<ui32>, tensor<ui32>, tensor<ui32>, tensor<4xui32>, tensor<4xui32>) loc(#loc386)
      %8 = stablehlo.add %iterArg, %c : tensor<i32> loc(#loc387)
      stablehlo.return %8, %7#0, %7#1, %7#2, %7#3, %7#4, %7#5, %7#6, %7#7 : tensor<i32>, tensor<i32>, tensor<1xui32>, tensor<1xui32>, tensor<ui32>, tensor<ui32>, tensor<ui32>, tensor<4xui32>, tensor<4xui32> loc(#loc354)
    } loc(#loc354)
    return %6#2, %6#3 : tensor<1xui32>, tensor<1xui32> loc(#loc281)
  } loc(#loc281)
  func.func private @closed_call_10(%arg0: tensor<i32> loc(unknown), %arg1: tensor<1xui32> loc(unknown), %arg2: tensor<1xui32> loc(unknown), %arg3: tensor<ui32> loc(unknown), %arg4: tensor<ui32> loc(unknown), %arg5: tensor<ui32> loc(unknown), %arg6: tensor<4xui32> loc(unknown), %arg7: tensor<4xui32> loc(unknown)) -> (tensor<i32>, tensor<1xui32>, tensor<1xui32>, tensor<ui32>, tensor<ui32>, tensor<ui32>, tensor<4xui32>, tensor<4xui32>) {
    %c = stablehlo.constant dense<32> : tensor<ui32> loc(#loc)
    %c_0 = stablehlo.constant dense<1> : tensor<i32> loc(#loc)
    %0 = stablehlo.add %arg0, %c_0 : tensor<i32> loc(#loc91)
    %1 = stablehlo.slice %arg6 [0:1] : (tensor<4xui32>) -> tensor<1xui32> loc(#loc92)
    %2 = stablehlo.reshape %1 : (tensor<1xui32>) -> tensor<ui32> loc(#loc93)
    %3 = stablehlo.add %arg1, %arg2 : tensor<1xui32> loc(#loc91)
    %4 = stablehlo.broadcast_in_dim %2, dims = [] : (tensor<ui32>) -> tensor<1xui32> loc(#loc94)
    %5 = stablehlo.shift_left %arg2, %4 : tensor<1xui32> loc(#loc94)
    %6 = stablehlo.subtract %c, %2 : tensor<ui32> loc(#loc95)
    %7 = stablehlo.broadcast_in_dim %6, dims = [] : (tensor<ui32>) -> tensor<1xui32> loc(#loc96)
    %8 = stablehlo.shift_right_logical %arg2, %7 : tensor<1xui32> loc(#loc96)
    %9 = stablehlo.or %5, %8 : tensor<1xui32> loc(#loc97)
    %10 = stablehlo.xor %3, %9 : tensor<1xui32> loc(#loc98)
    %11 = stablehlo.slice %arg6 [1:2] : (tensor<4xui32>) -> tensor<1xui32> loc(#loc92)
    %12 = stablehlo.reshape %11 : (tensor<1xui32>) -> tensor<ui32> loc(#loc93)
    %13 = stablehlo.add %3, %10 : tensor<1xui32> loc(#loc91)
    %14 = stablehlo.broadcast_in_dim %12, dims = [] : (tensor<ui32>) -> tensor<1xui32> loc(#loc94)
    %15 = stablehlo.shift_left %10, %14 : tensor<1xui32> loc(#loc94)
    %16 = stablehlo.subtract %c, %12 : tensor<ui32> loc(#loc95)
    %17 = stablehlo.broadcast_in_dim %16, dims = [] : (tensor<ui32>) -> tensor<1xui32> loc(#loc96)
    %18 = stablehlo.shift_right_logical %10, %17 : tensor<1xui32> loc(#loc96)
    %19 = stablehlo.or %15, %18 : tensor<1xui32> loc(#loc97)
    %20 = stablehlo.xor %13, %19 : tensor<1xui32> loc(#loc98)
    %21 = stablehlo.slice %arg6 [2:3] : (tensor<4xui32>) -> tensor<1xui32> loc(#loc92)
    %22 = stablehlo.reshape %21 : (tensor<1xui32>) -> tensor<ui32> loc(#loc93)
    %23 = stablehlo.add %13, %20 : tensor<1xui32> loc(#loc91)
    %24 = stablehlo.broadcast_in_dim %22, dims = [] : (tensor<ui32>) -> tensor<1xui32> loc(#loc94)
    %25 = stablehlo.shift_left %20, %24 : tensor<1xui32> loc(#loc94)
    %26 = stablehlo.subtract %c, %22 : tensor<ui32> loc(#loc95)
    %27 = stablehlo.broadcast_in_dim %26, dims = [] : (tensor<ui32>) -> tensor<1xui32> loc(#loc96)
    %28 = stablehlo.shift_right_logical %20, %27 : tensor<1xui32> loc(#loc96)
    %29 = stablehlo.or %25, %28 : tensor<1xui32> loc(#loc97)
    %30 = stablehlo.xor %23, %29 : tensor<1xui32> loc(#loc98)
    %31 = stablehlo.slice %arg6 [3:4] : (tensor<4xui32>) -> tensor<1xui32> loc(#loc92)
    %32 = stablehlo.reshape %31 : (tensor<1xui32>) -> tensor<ui32> loc(#loc93)
    %33 = stablehlo.add %23, %30 : tensor<1xui32> loc(#loc91)
    %34 = stablehlo.broadcast_in_dim %32, dims = [] : (tensor<ui32>) -> tensor<1xui32> loc(#loc94)
    %35 = stablehlo.shift_left %30, %34 : tensor<1xui32> loc(#loc94)
    %36 = stablehlo.subtract %c, %32 : tensor<ui32> loc(#loc95)
    %37 = stablehlo.broadcast_in_dim %36, dims = [] : (tensor<ui32>) -> tensor<1xui32> loc(#loc96)
    %38 = stablehlo.shift_right_logical %30, %37 : tensor<1xui32> loc(#loc96)
    %39 = stablehlo.or %35, %38 : tensor<1xui32> loc(#loc97)
    %40 = stablehlo.xor %33, %39 : tensor<1xui32> loc(#loc98)
    %41 = stablehlo.broadcast_in_dim %arg3, dims = [] : (tensor<ui32>) -> tensor<1xui32> loc(#loc91)
    %42 = stablehlo.add %33, %41 : tensor<1xui32> loc(#loc91)
    %43 = stablehlo.broadcast_in_dim %arg4, dims = [] : (tensor<ui32>) -> tensor<1xui32> loc(#loc91)
    %44 = stablehlo.add %40, %43 : tensor<1xui32> loc(#loc91)
    %45 = stablehlo.add %arg0, %c_0 : tensor<i32> loc(#loc91)
    %46 = stablehlo.convert %45 : (tensor<i32>) -> tensor<ui32> loc(#loc99)
    %47 = stablehlo.broadcast_in_dim %46, dims = [] : (tensor<ui32>) -> tensor<1xui32> loc(#loc91)
    %48 = stablehlo.add %44, %47 : tensor<1xui32> loc(#loc91)
    return %0, %42, %48, %arg4, %arg5, %arg3, %arg7, %arg6 : tensor<i32>, tensor<1xui32>, tensor<1xui32>, tensor<ui32>, tensor<ui32>, tensor<ui32>, tensor<4xui32>, tensor<4xui32> loc(#loc)
  } loc(#loc356)
  func.func private @_normal(%arg0: tensor<2xui32> loc(unknown)) -> tensor<33x16xf32> {
    %0 = call @_normal_real(%arg0) : (tensor<2xui32>) -> tensor<33x16xf32> loc(#loc127)
    return %0 : tensor<33x16xf32> loc(#loc)
  } loc(#loc429)
  func.func private @_normal_real(%arg0: tensor<2xui32> loc(unknown)) -> tensor<33x16xf32> {
    %cst = stablehlo.constant dense<0x7F800000> : tensor<33x16xf32> loc(#loc128)
    %cst_0 = stablehlo.constant dense<1.000000e+00> : tensor<33x16xf32> loc(#loc128)
    %cst_1 = stablehlo.constant dense<2.83297682> : tensor<33x16xf32> loc(#loc128)
    %cst_2 = stablehlo.constant dense<1.50140941> : tensor<33x16xf32> loc(#loc128)
    %cst_3 = stablehlo.constant dense<1.00167406> : tensor<33x16xf32> loc(#loc128)
    %cst_4 = stablehlo.constant dense<0.246640727> : tensor<33x16xf32> loc(#loc128)
    %cst_5 = stablehlo.constant dense<0.00943887047> : tensor<33x16xf32> loc(#loc128)
    %cst_6 = stablehlo.constant dense<-0.00417768164> : tensor<33x16xf32> loc(#loc128)
    %cst_7 = stablehlo.constant dense<-0.0076224613> : tensor<33x16xf32> loc(#loc128)
    %cst_8 = stablehlo.constant dense<-0.00125372503> : tensor<33x16xf32> loc(#loc128)
    %cst_9 = stablehlo.constant dense<0.00573950773> : tensor<33x16xf32> loc(#loc128)
    %cst_10 = stablehlo.constant dense<2.1858087E-4> : tensor<33x16xf32> loc(#loc128)
    %cst_11 = stablehlo.constant dense<-0.00367342844> : tensor<33x16xf32> loc(#loc128)
    %cst_12 = stablehlo.constant dense<-4.39150654E-6> : tensor<33x16xf32> loc(#loc128)
    %cst_13 = stablehlo.constant dense<0.00134934322> : tensor<33x16xf32> loc(#loc128)
    %cst_14 = stablehlo.constant dense<-3.5233877E-6> : tensor<33x16xf32> loc(#loc128)
    %cst_15 = stablehlo.constant dense<1.00950558E-4> : tensor<33x16xf32> loc(#loc128)
    %cst_16 = stablehlo.constant dense<3.43273939E-7> : tensor<33x16xf32> loc(#loc128)
    %cst_17 = stablehlo.constant dense<-2.00214257E-4> : tensor<33x16xf32> loc(#loc128)
    %cst_18 = stablehlo.constant dense<2.81022636E-8> : tensor<33x16xf32> loc(#loc128)
    %cst_19 = stablehlo.constant dense<3.000000e+00> : tensor<33x16xf32> loc(#loc128)
    %cst_20 = stablehlo.constant dense<2.500000e+00> : tensor<33x16xf32> loc(#loc128)
    %cst_21 = stablehlo.constant dense<5.000000e+00> : tensor<33x16xf32> loc(#loc128)
    %cst_22 = stablehlo.constant dense<1.41421354> : tensor<f32> loc(#loc)
    %cst_23 = stablehlo.constant dense<-0.99999994> : tensor<f32> loc(#loc)
    %cst_24 = stablehlo.constant dense<1.000000e+00> : tensor<f32> loc(#loc)
    %0 = call @_uniform(%arg0, %cst_23, %cst_24) : (tensor<2xui32>, tensor<f32>, tensor<f32>) -> tensor<33x16xf32> loc(#loc129)
    %1 = stablehlo.negate %0 : tensor<33x16xf32> loc(#loc128)
    %2 = stablehlo.multiply %0, %1 : tensor<33x16xf32> loc(#loc128)
    %3 = stablehlo.log_plus_one %2 : tensor<33x16xf32> loc(#loc128)
    %4 = stablehlo.negate %3 : tensor<33x16xf32> loc(#loc128)
    %5 = stablehlo.compare LT, %4, %cst_21 : (tensor<33x16xf32>, tensor<33x16xf32>) -> tensor<33x16xi1> loc(#loc128)
    %6 = stablehlo.subtract %4, %cst_20 : tensor<33x16xf32> loc(#loc128)
    %7 = stablehlo.sqrt %4 : tensor<33x16xf32> loc(#loc128)
    %8 = stablehlo.subtract %7, %cst_19 : tensor<33x16xf32> loc(#loc128)
    %9 = stablehlo.select %5, %6, %8 : tensor<33x16xi1>, tensor<33x16xf32> loc(#loc128)
    %10 = stablehlo.select %5, %cst_18, %cst_17 : tensor<33x16xi1>, tensor<33x16xf32> loc(#loc128)
    %11 = stablehlo.select %5, %cst_16, %cst_15 : tensor<33x16xi1>, tensor<33x16xf32> loc(#loc128)
    %12 = stablehlo.multiply %10, %9 : tensor<33x16xf32> loc(#loc128)
    %13 = stablehlo.add %11, %12 : tensor<33x16xf32> loc(#loc128)
    %14 = stablehlo.select %5, %cst_14, %cst_13 : tensor<33x16xi1>, tensor<33x16xf32> loc(#loc128)
    %15 = stablehlo.multiply %13, %9 : tensor<33x16xf32> loc(#loc128)
    %16 = stablehlo.add %14, %15 : tensor<33x16xf32> loc(#loc128)
    %17 = stablehlo.select %5, %cst_12, %cst_11 : tensor<33x16xi1>, tensor<33x16xf32> loc(#loc128)
    %18 = stablehlo.multiply %16, %9 : tensor<33x16xf32> loc(#loc128)
    %19 = stablehlo.add %17, %18 : tensor<33x16xf32> loc(#loc128)
    %20 = stablehlo.select %5, %cst_10, %cst_9 : tensor<33x16xi1>, tensor<33x16xf32> loc(#loc128)
    %21 = stablehlo.multiply %19, %9 : tensor<33x16xf32> loc(#loc128)
    %22 = stablehlo.add %20, %21 : tensor<33x16xf32> loc(#loc128)
    %23 = stablehlo.select %5, %cst_8, %cst_7 : tensor<33x16xi1>, tensor<33x16xf32> loc(#loc128)
    %24 = stablehlo.multiply %22, %9 : tensor<33x16xf32> loc(#loc128)
    %25 = stablehlo.add %23, %24 : tensor<33x16xf32> loc(#loc128)
    %26 = stablehlo.select %5, %cst_6, %cst_5 : tensor<33x16xi1>, tensor<33x16xf32> loc(#loc128)
    %27 = stablehlo.multiply %25, %9 : tensor<33x16xf32> loc(#loc128)
    %28 = stablehlo.add %26, %27 : tensor<33x16xf32> loc(#loc128)
    %29 = stablehlo.select %5, %cst_4, %cst_3 : tensor<33x16xi1>, tensor<33x16xf32> loc(#loc128)
    %30 = stablehlo.multiply %28, %9 : tensor<33x16xf32> loc(#loc128)
    %31 = stablehlo.add %29, %30 : tensor<33x16xf32> loc(#loc128)
    %32 = stablehlo.select %5, %cst_2, %cst_1 : tensor<33x16xi1>, tensor<33x16xf32> loc(#loc128)
    %33 = stablehlo.multiply %31, %9 : tensor<33x16xf32> loc(#loc128)
    %34 = stablehlo.add %32, %33 : tensor<33x16xf32> loc(#loc128)
    %35 = stablehlo.multiply %34, %0 : tensor<33x16xf32> loc(#loc128)
    %36 = stablehlo.abs %0 : tensor<33x16xf32> loc(#loc128)
    %37 = stablehlo.compare EQ, %36, %cst_0 : (tensor<33x16xf32>, tensor<33x16xf32>) -> tensor<33x16xi1> loc(#loc128)
    %38 = stablehlo.multiply %0, %cst : tensor<33x16xf32> loc(#loc128)
    %39 = stablehlo.select %37, %38, %35 : tensor<33x16xi1>, tensor<33x16xf32> loc(#loc128)
    %40 = stablehlo.broadcast_in_dim %cst_22, dims = [] : (tensor<f32>) -> tensor<33x16xf32> loc(#loc113)
    %41 = stablehlo.multiply %40, %39 : tensor<33x16xf32> loc(#loc113)
    return %41 : tensor<33x16xf32> loc(#loc)
  } loc(#loc231)
  func.func private @_uniform(%arg0: tensor<2xui32> loc(unknown), %arg1: tensor<f32> loc(unknown), %arg2: tensor<f32> loc(unknown)) -> tensor<33x16xf32> {
    %cst = stablehlo.constant dense<1.000000e+00> : tensor<f32> loc(#loc)
    %c = stablehlo.constant dense<1065353216> : tensor<ui32> loc(#loc)
    %c_0 = stablehlo.constant dense<9> : tensor<ui32> loc(#loc)
    %c_1 = stablehlo.constant dense<32> : tensor<ui64> loc(#loc118)
    %c_2 = stablehlo.constant dense<1> : tensor<ui64> loc(#loc118)
    %c_3 = stablehlo.constant dense<16> : tensor<ui64> loc(#loc118)
    %0 = stablehlo.broadcast_in_dim %arg1, dims = [] : (tensor<f32>) -> tensor<1x1xf32> loc(#loc119)
    %1 = stablehlo.broadcast_in_dim %arg2, dims = [] : (tensor<f32>) -> tensor<1x1xf32> loc(#loc119)
    %2 = stablehlo.slice %arg0 [0:1] : (tensor<2xui32>) -> tensor<1xui32> loc(#loc92)
    %3 = stablehlo.reshape %2 : (tensor<1xui32>) -> tensor<ui32> loc(#loc93)
    %4 = stablehlo.slice %arg0 [1:2] : (tensor<2xui32>) -> tensor<1xui32> loc(#loc92)
    %5 = stablehlo.reshape %4 : (tensor<1xui32>) -> tensor<ui32> loc(#loc93)
    %6 = stablehlo.iota dim = 0 : tensor<33x16xui64> loc(#loc118)
    %7 = stablehlo.iota dim = 1 : tensor<33x16xui64> loc(#loc118)
    %8 = stablehlo.broadcast_in_dim %c_3, dims = [] : (tensor<ui64>) -> tensor<33x16xui64> loc(#loc118)
    %9 = stablehlo.multiply %8, %6 : tensor<33x16xui64> loc(#loc118)
    %10 = stablehlo.broadcast_in_dim %c_2, dims = [] : (tensor<ui64>) -> tensor<33x16xui64> loc(#loc118)
    %11 = stablehlo.multiply %10, %7 : tensor<33x16xui64> loc(#loc118)
    %12 = stablehlo.add %9, %11 : tensor<33x16xui64> loc(#loc118)
    %13 = stablehlo.broadcast_in_dim %c_1, dims = [] : (tensor<ui64>) -> tensor<33x16xui64> loc(#loc118)
    %14 = stablehlo.shift_right_logical %12, %13 : tensor<33x16xui64> loc(#loc118)
    %15 = stablehlo.convert %12 : (tensor<33x16xui64>) -> tensor<33x16xui32> loc(#loc118)
    %16 = stablehlo.convert %14 : (tensor<33x16xui64>) -> tensor<33x16xui32> loc(#loc118)
    %17:2 = call @threefry2x32_11(%3, %5, %16, %15) : (tensor<ui32>, tensor<ui32>, tensor<33x16xui32>, tensor<33x16xui32>) -> (tensor<33x16xui32>, tensor<33x16xui32>) loc(#loc130)
    %18 = stablehlo.xor %17#0, %17#1 : tensor<33x16xui32> loc(#loc98)
    %19 = stablehlo.broadcast_in_dim %c_0, dims = [] : (tensor<ui32>) -> tensor<33x16xui32> loc(#loc96)
    %20 = stablehlo.shift_right_logical %18, %19 : tensor<33x16xui32> loc(#loc96)
    %21 = stablehlo.broadcast_in_dim %c, dims = [] : (tensor<ui32>) -> tensor<33x16xui32> loc(#loc97)
    %22 = stablehlo.or %20, %21 : tensor<33x16xui32> loc(#loc97)
    %23 = stablehlo.bitcast_convert %22 : (tensor<33x16xui32>) -> tensor<33x16xf32> loc(#loc131)
    %24 = stablehlo.broadcast_in_dim %cst, dims = [] : (tensor<f32>) -> tensor<33x16xf32> loc(#loc95)
    %25 = stablehlo.subtract %23, %24 : tensor<33x16xf32> loc(#loc95)
    %26 = stablehlo.subtract %1, %0 : tensor<1x1xf32> loc(#loc95)
    %27 = stablehlo.broadcast_in_dim %26, dims = [0, 1] : (tensor<1x1xf32>) -> tensor<33x16xf32> loc(#loc113)
    %28 = stablehlo.multiply %25, %27 : tensor<33x16xf32> loc(#loc113)
    %29 = stablehlo.broadcast_in_dim %0, dims = [0, 1] : (tensor<1x1xf32>) -> tensor<33x16xf32> loc(#loc91)
    %30 = stablehlo.add %28, %29 : tensor<33x16xf32> loc(#loc91)
    %31 = stablehlo.broadcast_in_dim %0, dims = [0, 1] : (tensor<1x1xf32>) -> tensor<33x16xf32> loc(#loc115)
    %32 = stablehlo.maximum %31, %30 : tensor<33x16xf32> loc(#loc115)
    return %32 : tensor<33x16xf32> loc(#loc)
  } loc(#loc231)
  func.func private @threefry2x32_11(%arg0: tensor<ui32> loc(unknown), %arg1: tensor<ui32> loc(unknown), %arg2: tensor<33x16xui32> loc(unknown), %arg3: tensor<33x16xui32> loc(unknown)) -> (tensor<33x16xui32>, tensor<33x16xui32>) {
    %c = stablehlo.constant dense<1> : tensor<i32> loc(#loc)
    %c_0 = stablehlo.constant dense<5> : tensor<i32> loc(#loc)
    %c_1 = stablehlo.constant dense<0> : tensor<i32> loc(#loc)
    %c_2 = stablehlo.constant dense<466688986> : tensor<ui32> loc(#loc228)
    %c_3 = stablehlo.constant dense<[13, 15, 26, 6]> : tensor<4xui32> loc(#loc228)
    %c_4 = stablehlo.constant dense<[17, 29, 16, 24]> : tensor<4xui32> loc(#loc228)
    %0 = stablehlo.xor %arg0, %arg1 : tensor<ui32> loc(#loc98)
    %1 = stablehlo.xor %0, %c_2 : tensor<ui32> loc(#loc98)
    %2 = stablehlo.broadcast_in_dim %arg0, dims = [] : (tensor<ui32>) -> tensor<33x16xui32> loc(#loc91)
    %3 = stablehlo.add %arg2, %2 : tensor<33x16xui32> loc(#loc91)
    %4 = stablehlo.broadcast_in_dim %arg1, dims = [] : (tensor<ui32>) -> tensor<33x16xui32> loc(#loc91)
    %5 = stablehlo.add %arg3, %4 : tensor<33x16xui32> loc(#loc91)
    %6:9 = stablehlo.while(%iterArg = %c_1, %iterArg_5 = %c_1, %iterArg_6 = %3, %iterArg_7 = %5, %iterArg_8 = %arg1, %iterArg_9 = %1, %iterArg_10 = %arg0, %iterArg_11 = %c_3, %iterArg_12 = %c_4) : tensor<i32>, tensor<i32>, tensor<33x16xui32>, tensor<33x16xui32>, tensor<ui32>, tensor<ui32>, tensor<ui32>, tensor<4xui32>, tensor<4xui32>
    cond {
      %7 = stablehlo.compare LT, %iterArg, %c_0, SIGNED : (tensor<i32>, tensor<i32>) -> tensor<i1> loc(#loc122)
      stablehlo.return %7 : tensor<i1> loc(#loc121)
    } do {
      %7:8 = func.call @closed_call_12(%iterArg_5, %iterArg_6, %iterArg_7, %iterArg_8, %iterArg_9, %iterArg_10, %iterArg_11, %iterArg_12) : (tensor<i32>, tensor<33x16xui32>, tensor<33x16xui32>, tensor<ui32>, tensor<ui32>, tensor<ui32>, tensor<4xui32>, tensor<4xui32>) -> (tensor<i32>, tensor<33x16xui32>, tensor<33x16xui32>, tensor<ui32>, tensor<ui32>, tensor<ui32>, tensor<4xui32>, tensor<4xui32>) loc(#loc123)
      %8 = stablehlo.add %iterArg, %c : tensor<i32> loc(#loc124)
      stablehlo.return %8, %7#0, %7#1, %7#2, %7#3, %7#4, %7#5, %7#6, %7#7 : tensor<i32>, tensor<i32>, tensor<33x16xui32>, tensor<33x16xui32>, tensor<ui32>, tensor<ui32>, tensor<ui32>, tensor<4xui32>, tensor<4xui32> loc(#loc121)
    } loc(#loc121)
    return %6#2, %6#3 : tensor<33x16xui32>, tensor<33x16xui32> loc(#loc)
  } loc(#loc)
  func.func private @closed_call_12(%arg0: tensor<i32> loc(unknown), %arg1: tensor<33x16xui32> loc(unknown), %arg2: tensor<33x16xui32> loc(unknown), %arg3: tensor<ui32> loc(unknown), %arg4: tensor<ui32> loc(unknown), %arg5: tensor<ui32> loc(unknown), %arg6: tensor<4xui32> loc(unknown), %arg7: tensor<4xui32> loc(unknown)) -> (tensor<i32>, tensor<33x16xui32>, tensor<33x16xui32>, tensor<ui32>, tensor<ui32>, tensor<ui32>, tensor<4xui32>, tensor<4xui32>) {
    %c = stablehlo.constant dense<32> : tensor<ui32> loc(#loc)
    %c_0 = stablehlo.constant dense<1> : tensor<i32> loc(#loc)
    %0 = stablehlo.add %arg0, %c_0 : tensor<i32> loc(#loc91)
    %1 = stablehlo.slice %arg6 [0:1] : (tensor<4xui32>) -> tensor<1xui32> loc(#loc92)
    %2 = stablehlo.reshape %1 : (tensor<1xui32>) -> tensor<ui32> loc(#loc93)
    %3 = stablehlo.add %arg1, %arg2 : tensor<33x16xui32> loc(#loc91)
    %4 = stablehlo.broadcast_in_dim %2, dims = [] : (tensor<ui32>) -> tensor<33x16xui32> loc(#loc94)
    %5 = stablehlo.shift_left %arg2, %4 : tensor<33x16xui32> loc(#loc94)
    %6 = stablehlo.subtract %c, %2 : tensor<ui32> loc(#loc95)
    %7 = stablehlo.broadcast_in_dim %6, dims = [] : (tensor<ui32>) -> tensor<33x16xui32> loc(#loc96)
    %8 = stablehlo.shift_right_logical %arg2, %7 : tensor<33x16xui32> loc(#loc96)
    %9 = stablehlo.or %5, %8 : tensor<33x16xui32> loc(#loc97)
    %10 = stablehlo.xor %3, %9 : tensor<33x16xui32> loc(#loc98)
    %11 = stablehlo.slice %arg6 [1:2] : (tensor<4xui32>) -> tensor<1xui32> loc(#loc92)
    %12 = stablehlo.reshape %11 : (tensor<1xui32>) -> tensor<ui32> loc(#loc93)
    %13 = stablehlo.add %3, %10 : tensor<33x16xui32> loc(#loc91)
    %14 = stablehlo.broadcast_in_dim %12, dims = [] : (tensor<ui32>) -> tensor<33x16xui32> loc(#loc94)
    %15 = stablehlo.shift_left %10, %14 : tensor<33x16xui32> loc(#loc94)
    %16 = stablehlo.subtract %c, %12 : tensor<ui32> loc(#loc95)
    %17 = stablehlo.broadcast_in_dim %16, dims = [] : (tensor<ui32>) -> tensor<33x16xui32> loc(#loc96)
    %18 = stablehlo.shift_right_logical %10, %17 : tensor<33x16xui32> loc(#loc96)
    %19 = stablehlo.or %15, %18 : tensor<33x16xui32> loc(#loc97)
    %20 = stablehlo.xor %13, %19 : tensor<33x16xui32> loc(#loc98)
    %21 = stablehlo.slice %arg6 [2:3] : (tensor<4xui32>) -> tensor<1xui32> loc(#loc92)
    %22 = stablehlo.reshape %21 : (tensor<1xui32>) -> tensor<ui32> loc(#loc93)
    %23 = stablehlo.add %13, %20 : tensor<33x16xui32> loc(#loc91)
    %24 = stablehlo.broadcast_in_dim %22, dims = [] : (tensor<ui32>) -> tensor<33x16xui32> loc(#loc94)
    %25 = stablehlo.shift_left %20, %24 : tensor<33x16xui32> loc(#loc94)
    %26 = stablehlo.subtract %c, %22 : tensor<ui32> loc(#loc95)
    %27 = stablehlo.broadcast_in_dim %26, dims = [] : (tensor<ui32>) -> tensor<33x16xui32> loc(#loc96)
    %28 = stablehlo.shift_right_logical %20, %27 : tensor<33x16xui32> loc(#loc96)
    %29 = stablehlo.or %25, %28 : tensor<33x16xui32> loc(#loc97)
    %30 = stablehlo.xor %23, %29 : tensor<33x16xui32> loc(#loc98)
    %31 = stablehlo.slice %arg6 [3:4] : (tensor<4xui32>) -> tensor<1xui32> loc(#loc92)
    %32 = stablehlo.reshape %31 : (tensor<1xui32>) -> tensor<ui32> loc(#loc93)
    %33 = stablehlo.add %23, %30 : tensor<33x16xui32> loc(#loc91)
    %34 = stablehlo.broadcast_in_dim %32, dims = [] : (tensor<ui32>) -> tensor<33x16xui32> loc(#loc94)
    %35 = stablehlo.shift_left %30, %34 : tensor<33x16xui32> loc(#loc94)
    %36 = stablehlo.subtract %c, %32 : tensor<ui32> loc(#loc95)
    %37 = stablehlo.broadcast_in_dim %36, dims = [] : (tensor<ui32>) -> tensor<33x16xui32> loc(#loc96)
    %38 = stablehlo.shift_right_logical %30, %37 : tensor<33x16xui32> loc(#loc96)
    %39 = stablehlo.or %35, %38 : tensor<33x16xui32> loc(#loc97)
    %40 = stablehlo.xor %33, %39 : tensor<33x16xui32> loc(#loc98)
    %41 = stablehlo.broadcast_in_dim %arg3, dims = [] : (tensor<ui32>) -> tensor<33x16xui32> loc(#loc91)
    %42 = stablehlo.add %33, %41 : tensor<33x16xui32> loc(#loc91)
    %43 = stablehlo.broadcast_in_dim %arg4, dims = [] : (tensor<ui32>) -> tensor<33x16xui32> loc(#loc91)
    %44 = stablehlo.add %40, %43 : tensor<33x16xui32> loc(#loc91)
    %45 = stablehlo.add %arg0, %c_0 : tensor<i32> loc(#loc91)
    %46 = stablehlo.convert %45 : (tensor<i32>) -> tensor<ui32> loc(#loc99)
    %47 = stablehlo.broadcast_in_dim %46, dims = [] : (tensor<ui32>) -> tensor<33x16xui32> loc(#loc91)
    %48 = stablehlo.add %44, %47 : tensor<33x16xui32> loc(#loc91)
    return %0, %42, %48, %arg4, %arg5, %arg3, %arg7, %arg6 : tensor<i32>, tensor<33x16xui32>, tensor<33x16xui32>, tensor<ui32>, tensor<ui32>, tensor<ui32>, tensor<4xui32>, tensor<4xui32> loc(#loc)
  } loc(#loc233)
  func.func private @_take(%arg0: tensor<33x16xf32> loc(unknown), %arg1: tensor<16x1xi32> loc(unknown)) -> tensor<16x1x16xf32> {
    %cst = stablehlo.constant dense<0x7FC00000> : tensor<f32> loc(#loc132)
    %c = stablehlo.constant dense<true> : tensor<i1> loc(#loc133)
    %c_0 = stablehlo.constant dense<32> : tensor<1xi32> loc(#loc132)
    %c_1 = stablehlo.constant dense<33> : tensor<i32> loc(#loc)
    %c_2 = stablehlo.constant dense<0> : tensor<i32> loc(#loc)
    %0 = stablehlo.broadcast_in_dim %c_2, dims = [] : (tensor<i32>) -> tensor<16x1xi32> loc(#loc134)
    %1 = stablehlo.compare LT, %arg1, %0, SIGNED : (tensor<16x1xi32>, tensor<16x1xi32>) -> tensor<16x1xi1> loc(#loc134)
    %2 = stablehlo.broadcast_in_dim %c_1, dims = [] : (tensor<i32>) -> tensor<16x1xi32> loc(#loc91)
    %3 = stablehlo.add %arg1, %2 : tensor<16x1xi32> loc(#loc91)
    %4 = call @_where_13(%1, %3, %arg1) : (tensor<16x1xi1>, tensor<16x1xi32>, tensor<16x1xi32>) -> tensor<16x1xi32> loc(#loc135)
    %5 = stablehlo.broadcast_in_dim %4, dims = [0, 1] : (tensor<16x1xi32>) -> tensor<16x1x1xi32> loc(#loc119)
    %6 = stablehlo.broadcast_in_dim %c_2, dims = [] : (tensor<i32>) -> tensor<16x1x1xi32> loc(#loc136)
    %7 = stablehlo.compare GE, %5, %6, SIGNED : (tensor<16x1x1xi32>, tensor<16x1x1xi32>) -> tensor<16x1x1xi1> loc(#loc136)
    %8 = stablehlo.broadcast_in_dim %c_0, dims = [2] : (tensor<1xi32>) -> tensor<1x1x1xi32> loc(#loc119)
    %9 = stablehlo.broadcast_in_dim %8, dims = [0, 1, 2] : (tensor<1x1x1xi32>) -> tensor<16x1x1xi32> loc(#loc109)
    %10 = stablehlo.compare LE, %5, %9, SIGNED : (tensor<16x1x1xi32>, tensor<16x1x1xi32>) -> tensor<16x1x1xi1> loc(#loc109)
    %11 = stablehlo.and %7, %10 : tensor<16x1x1xi1> loc(#loc111)
    %12 = stablehlo.reduce(%11 init: %c) applies stablehlo.and across dimensions = [2] : (tensor<16x1x1xi1>, tensor<i1>) -> tensor<16x1xi1> loc(#loc133)
    %13 = "stablehlo.gather"(%arg0, %5) <{dimension_numbers = #stablehlo.gather<offset_dims = [2], collapsed_slice_dims = [0], start_index_map = [0], index_vector_dim = 2>, slice_sizes = array<i64: 1, 16>}> : (tensor<33x16xf32>, tensor<16x1x1xi32>) -> tensor<16x1x16xf32> loc(#loc132)
    %14 = stablehlo.broadcast_in_dim %12, dims = [0, 1] : (tensor<16x1xi1>) -> tensor<16x1x16xi1> loc(#loc119)
    %15 = stablehlo.broadcast_in_dim %cst, dims = [] : (tensor<f32>) -> tensor<16x1x16xf32> loc(#loc119)
    %16 = stablehlo.select %14, %13, %15 : tensor<16x1x16xi1>, tensor<16x1x16xf32> loc(#loc110)
    return %16 : tensor<16x1x16xf32> loc(#loc)
  } loc(#loc430)
  func.func private @_where_13(%arg0: tensor<16x1xi1> loc(unknown), %arg1: tensor<16x1xi32> loc(unknown), %arg2: tensor<16x1xi32> loc(unknown)) -> tensor<16x1xi32> {
    %0 = stablehlo.select %arg0, %arg1, %arg2 : tensor<16x1xi1>, tensor<16x1xi32> loc(#loc110)
    return %0 : tensor<16x1xi32> loc(#loc)
  } loc(#loc231)
  func.func private @_take_14(%arg0: tensor<33x16xf32> loc(unknown), %arg1: tensor<16x1x5xi32> loc(unknown)) -> tensor<16x1x5x16xf32> {
    %cst = stablehlo.constant dense<0x7FC00000> : tensor<f32> loc(#loc132)
    %c = stablehlo.constant dense<true> : tensor<i1> loc(#loc133)
    %c_0 = stablehlo.constant dense<32> : tensor<1xi32> loc(#loc132)
    %c_1 = stablehlo.constant dense<33> : tensor<i32> loc(#loc)
    %c_2 = stablehlo.constant dense<0> : tensor<i32> loc(#loc)
    %0 = stablehlo.broadcast_in_dim %c_2, dims = [] : (tensor<i32>) -> tensor<16x1x5xi32> loc(#loc134)
    %1 = stablehlo.compare LT, %arg1, %0, SIGNED : (tensor<16x1x5xi32>, tensor<16x1x5xi32>) -> tensor<16x1x5xi1> loc(#loc134)
    %2 = stablehlo.broadcast_in_dim %c_1, dims = [] : (tensor<i32>) -> tensor<16x1x5xi32> loc(#loc91)
    %3 = stablehlo.add %arg1, %2 : tensor<16x1x5xi32> loc(#loc91)
    %4 = call @_where_15(%1, %3, %arg1) : (tensor<16x1x5xi1>, tensor<16x1x5xi32>, tensor<16x1x5xi32>) -> tensor<16x1x5xi32> loc(#loc135)
    %5 = stablehlo.broadcast_in_dim %4, dims = [0, 1, 2] : (tensor<16x1x5xi32>) -> tensor<16x1x5x1xi32> loc(#loc119)
    %6 = stablehlo.broadcast_in_dim %c_2, dims = [] : (tensor<i32>) -> tensor<16x1x5x1xi32> loc(#loc136)
    %7 = stablehlo.compare GE, %5, %6, SIGNED : (tensor<16x1x5x1xi32>, tensor<16x1x5x1xi32>) -> tensor<16x1x5x1xi1> loc(#loc136)
    %8 = stablehlo.broadcast_in_dim %c_0, dims = [3] : (tensor<1xi32>) -> tensor<1x1x1x1xi32> loc(#loc119)
    %9 = stablehlo.broadcast_in_dim %8, dims = [0, 1, 2, 3] : (tensor<1x1x1x1xi32>) -> tensor<16x1x5x1xi32> loc(#loc109)
    %10 = stablehlo.compare LE, %5, %9, SIGNED : (tensor<16x1x5x1xi32>, tensor<16x1x5x1xi32>) -> tensor<16x1x5x1xi1> loc(#loc109)
    %11 = stablehlo.and %7, %10 : tensor<16x1x5x1xi1> loc(#loc111)
    %12 = stablehlo.reduce(%11 init: %c) applies stablehlo.and across dimensions = [3] : (tensor<16x1x5x1xi1>, tensor<i1>) -> tensor<16x1x5xi1> loc(#loc133)
    %13 = "stablehlo.gather"(%arg0, %5) <{dimension_numbers = #stablehlo.gather<offset_dims = [3], collapsed_slice_dims = [0], start_index_map = [0], index_vector_dim = 3>, slice_sizes = array<i64: 1, 16>}> : (tensor<33x16xf32>, tensor<16x1x5x1xi32>) -> tensor<16x1x5x16xf32> loc(#loc132)
    %14 = stablehlo.broadcast_in_dim %12, dims = [0, 1, 2] : (tensor<16x1x5xi1>) -> tensor<16x1x5x16xi1> loc(#loc119)
    %15 = stablehlo.broadcast_in_dim %cst, dims = [] : (tensor<f32>) -> tensor<16x1x5x16xf32> loc(#loc119)
    %16 = stablehlo.select %14, %13, %15 : tensor<16x1x5x16xi1>, tensor<16x1x5x16xf32> loc(#loc110)
    return %16 : tensor<16x1x5x16xf32> loc(#loc)
  } loc(#loc431)
  func.func private @_where_15(%arg0: tensor<16x1x5xi1> loc(unknown), %arg1: tensor<16x1x5xi32> loc(unknown), %arg2: tensor<16x1x5xi32> loc(unknown)) -> tensor<16x1x5xi32> {
    %0 = stablehlo.select %arg0, %arg1, %arg2 : tensor<16x1x5xi1>, tensor<16x1x5xi32> loc(#loc110)
    return %0 : tensor<16x1x5xi32> loc(#loc)
  } loc(#loc231)
  func.func private @_truncated_normal(%arg0: tensor<2xui32> loc(unknown), %arg1: tensor<i32> loc(unknown), %arg2: tensor<i32> loc(unknown)) -> tensor<16x16xf32> {
    %c = stablehlo.constant dense<-1> : tensor<i32> loc(#loc)
    %c_0 = stablehlo.constant dense<1> : tensor<i32> loc(#loc)
    %c_1 = stablehlo.constant dense<0> : tensor<i32> loc(#loc)
    %c_2 = stablehlo.constant dense<2147483647> : tensor<i32> loc(#loc)
    %c_3 = stablehlo.constant dense<-2147483648> : tensor<i32> loc(#loc)
    %cst = stablehlo.constant dense<0x7FC00000> : tensor<f32> loc(#loc)
    %cst_4 = stablehlo.constant dense<0x7F800000> : tensor<16x16xf32> loc(#loc128)
    %cst_5 = stablehlo.constant dense<1.000000e+00> : tensor<16x16xf32> loc(#loc128)
    %cst_6 = stablehlo.constant dense<2.83297682> : tensor<16x16xf32> loc(#loc128)
    %cst_7 = stablehlo.constant dense<1.50140941> : tensor<16x16xf32> loc(#loc128)
    %cst_8 = stablehlo.constant dense<1.00167406> : tensor<16x16xf32> loc(#loc128)
    %cst_9 = stablehlo.constant dense<0.246640727> : tensor<16x16xf32> loc(#loc128)
    %cst_10 = stablehlo.constant dense<0.00943887047> : tensor<16x16xf32> loc(#loc128)
    %cst_11 = stablehlo.constant dense<-0.00417768164> : tensor<16x16xf32> loc(#loc128)
    %cst_12 = stablehlo.constant dense<-0.0076224613> : tensor<16x16xf32> loc(#loc128)
    %cst_13 = stablehlo.constant dense<-0.00125372503> : tensor<16x16xf32> loc(#loc128)
    %cst_14 = stablehlo.constant dense<0.00573950773> : tensor<16x16xf32> loc(#loc128)
    %cst_15 = stablehlo.constant dense<2.1858087E-4> : tensor<16x16xf32> loc(#loc128)
    %cst_16 = stablehlo.constant dense<-0.00367342844> : tensor<16x16xf32> loc(#loc128)
    %cst_17 = stablehlo.constant dense<-4.39150654E-6> : tensor<16x16xf32> loc(#loc128)
    %cst_18 = stablehlo.constant dense<0.00134934322> : tensor<16x16xf32> loc(#loc128)
    %cst_19 = stablehlo.constant dense<-3.5233877E-6> : tensor<16x16xf32> loc(#loc128)
    %cst_20 = stablehlo.constant dense<1.00950558E-4> : tensor<16x16xf32> loc(#loc128)
    %cst_21 = stablehlo.constant dense<3.43273939E-7> : tensor<16x16xf32> loc(#loc128)
    %cst_22 = stablehlo.constant dense<-2.00214257E-4> : tensor<16x16xf32> loc(#loc128)
    %cst_23 = stablehlo.constant dense<2.81022636E-8> : tensor<16x16xf32> loc(#loc128)
    %cst_24 = stablehlo.constant dense<3.000000e+00> : tensor<16x16xf32> loc(#loc128)
    %cst_25 = stablehlo.constant dense<2.500000e+00> : tensor<16x16xf32> loc(#loc128)
    %cst_26 = stablehlo.constant dense<5.000000e+00> : tensor<16x16xf32> loc(#loc128)
    %cst_27 = stablehlo.constant dense<0xFF800000> : tensor<f32> loc(#loc)
    %cst_28 = stablehlo.constant dense<0x7F800000> : tensor<f32> loc(#loc)
    %cst_29 = stablehlo.constant dense<1.41421354> : tensor<f32> loc(#loc)
    %0 = stablehlo.convert %arg1 : (tensor<i32>) -> tensor<f32> loc(#loc99)
    %1 = stablehlo.convert %arg2 : (tensor<i32>) -> tensor<f32> loc(#loc99)
    %2 = stablehlo.divide %0, %cst_29 : tensor<f32> loc(#loc137)
    %3 = stablehlo.composite "chlo.erf" %2 {decomposition = @chlo.erf.impl_3, version = 1 : i32} : (tensor<f32>) -> tensor<f32> loc(#loc138)
    %4 = stablehlo.divide %1, %cst_29 : tensor<f32> loc(#loc137)
    %5 = stablehlo.composite "chlo.erf" %4 {decomposition = @chlo.erf.impl_4, version = 1 : i32} : (tensor<f32>) -> tensor<f32> loc(#loc138)
    %6 = call @_uniform_16(%arg0, %3, %5) : (tensor<2xui32>, tensor<f32>, tensor<f32>) -> tensor<16x16xf32> loc(#loc129)
    %7 = stablehlo.negate %6 : tensor<16x16xf32> loc(#loc128)
    %8 = stablehlo.multiply %6, %7 : tensor<16x16xf32> loc(#loc128)
    %9 = stablehlo.log_plus_one %8 : tensor<16x16xf32> loc(#loc128)
    %10 = stablehlo.negate %9 : tensor<16x16xf32> loc(#loc128)
    %11 = stablehlo.compare LT, %10, %cst_26 : (tensor<16x16xf32>, tensor<16x16xf32>) -> tensor<16x16xi1> loc(#loc128)
    %12 = stablehlo.subtract %10, %cst_25 : tensor<16x16xf32> loc(#loc128)
    %13 = stablehlo.sqrt %10 : tensor<16x16xf32> loc(#loc128)
    %14 = stablehlo.subtract %13, %cst_24 : tensor<16x16xf32> loc(#loc128)
    %15 = stablehlo.select %11, %12, %14 : tensor<16x16xi1>, tensor<16x16xf32> loc(#loc128)
    %16 = stablehlo.select %11, %cst_23, %cst_22 : tensor<16x16xi1>, tensor<16x16xf32> loc(#loc128)
    %17 = stablehlo.select %11, %cst_21, %cst_20 : tensor<16x16xi1>, tensor<16x16xf32> loc(#loc128)
    %18 = stablehlo.multiply %16, %15 : tensor<16x16xf32> loc(#loc128)
    %19 = stablehlo.add %17, %18 : tensor<16x16xf32> loc(#loc128)
    %20 = stablehlo.select %11, %cst_19, %cst_18 : tensor<16x16xi1>, tensor<16x16xf32> loc(#loc128)
    %21 = stablehlo.multiply %19, %15 : tensor<16x16xf32> loc(#loc128)
    %22 = stablehlo.add %20, %21 : tensor<16x16xf32> loc(#loc128)
    %23 = stablehlo.select %11, %cst_17, %cst_16 : tensor<16x16xi1>, tensor<16x16xf32> loc(#loc128)
    %24 = stablehlo.multiply %22, %15 : tensor<16x16xf32> loc(#loc128)
    %25 = stablehlo.add %23, %24 : tensor<16x16xf32> loc(#loc128)
    %26 = stablehlo.select %11, %cst_15, %cst_14 : tensor<16x16xi1>, tensor<16x16xf32> loc(#loc128)
    %27 = stablehlo.multiply %25, %15 : tensor<16x16xf32> loc(#loc128)
    %28 = stablehlo.add %26, %27 : tensor<16x16xf32> loc(#loc128)
    %29 = stablehlo.select %11, %cst_13, %cst_12 : tensor<16x16xi1>, tensor<16x16xf32> loc(#loc128)
    %30 = stablehlo.multiply %28, %15 : tensor<16x16xf32> loc(#loc128)
    %31 = stablehlo.add %29, %30 : tensor<16x16xf32> loc(#loc128)
    %32 = stablehlo.select %11, %cst_11, %cst_10 : tensor<16x16xi1>, tensor<16x16xf32> loc(#loc128)
    %33 = stablehlo.multiply %31, %15 : tensor<16x16xf32> loc(#loc128)
    %34 = stablehlo.add %32, %33 : tensor<16x16xf32> loc(#loc128)
    %35 = stablehlo.select %11, %cst_9, %cst_8 : tensor<16x16xi1>, tensor<16x16xf32> loc(#loc128)
    %36 = stablehlo.multiply %34, %15 : tensor<16x16xf32> loc(#loc128)
    %37 = stablehlo.add %35, %36 : tensor<16x16xf32> loc(#loc128)
    %38 = stablehlo.select %11, %cst_7, %cst_6 : tensor<16x16xi1>, tensor<16x16xf32> loc(#loc128)
    %39 = stablehlo.multiply %37, %15 : tensor<16x16xf32> loc(#loc128)
    %40 = stablehlo.add %38, %39 : tensor<16x16xf32> loc(#loc128)
    %41 = stablehlo.multiply %40, %6 : tensor<16x16xf32> loc(#loc128)
    %42 = stablehlo.abs %6 : tensor<16x16xf32> loc(#loc128)
    %43 = stablehlo.compare EQ, %42, %cst_5 : (tensor<16x16xf32>, tensor<16x16xf32>) -> tensor<16x16xi1> loc(#loc128)
    %44 = stablehlo.multiply %6, %cst_4 : tensor<16x16xf32> loc(#loc128)
    %45 = stablehlo.select %43, %44, %41 : tensor<16x16xi1>, tensor<16x16xf32> loc(#loc128)
    %46 = stablehlo.broadcast_in_dim %cst_29, dims = [] : (tensor<f32>) -> tensor<16x16xf32> loc(#loc113)
    %47 = stablehlo.multiply %46, %45 : tensor<16x16xf32> loc(#loc113)
    %48 = stablehlo.bitcast_convert %0 : (tensor<f32>) -> tensor<i32> loc(#loc139)
    %49 = stablehlo.bitcast_convert %cst_28 : (tensor<f32>) -> tensor<i32> loc(#loc139)
    %50 = stablehlo.compare NE, %0, %0 : (tensor<f32>, tensor<f32>) -> tensor<i1> loc(#loc139)
    %51 = stablehlo.compare NE, %cst_28, %cst_28 : (tensor<f32>, tensor<f32>) -> tensor<i1> loc(#loc139)
    %52 = stablehlo.or %50, %51 : tensor<i1> loc(#loc139)
    %53 = stablehlo.bitcast_convert %cst : (tensor<f32>) -> tensor<i32> loc(#loc139)
    %54 = stablehlo.and %48, %c_2 : tensor<i32> loc(#loc139)
    %55 = stablehlo.and %49, %c_2 : tensor<i32> loc(#loc139)
    %56 = stablehlo.compare EQ, %0, %cst_28 : (tensor<f32>, tensor<f32>) -> tensor<i1> loc(#loc139)
    %57 = stablehlo.compare EQ, %54, %c_1 : (tensor<i32>, tensor<i32>) -> tensor<i1> loc(#loc139)
    %58 = stablehlo.compare EQ, %55, %c_1 : (tensor<i32>, tensor<i32>) -> tensor<i1> loc(#loc139)
    %59 = stablehlo.and %48, %c_3 : tensor<i32> loc(#loc139)
    %60 = stablehlo.and %49, %c_3 : tensor<i32> loc(#loc139)
    %61 = stablehlo.or %60, %c_0 : tensor<i32> loc(#loc139)
    %62 = stablehlo.compare NE, %59, %60 : (tensor<i32>, tensor<i32>) -> tensor<i1> loc(#loc139)
    %63 = stablehlo.compare GT, %54, %55 : (tensor<i32>, tensor<i32>) -> tensor<i1> loc(#loc139)
    %64 = stablehlo.or %63, %62 : tensor<i1> loc(#loc139)
    %65 = stablehlo.select %64, %c, %c_0 : tensor<i1>, tensor<i32> loc(#loc139)
    %66 = stablehlo.add %48, %65 : tensor<i32> loc(#loc139)
    %67 = stablehlo.select %58, %49, %61 : tensor<i1>, tensor<i32> loc(#loc139)
    %68 = stablehlo.select %57, %67, %66 : tensor<i1>, tensor<i32> loc(#loc139)
    %69 = stablehlo.select %56, %49, %68 : tensor<i1>, tensor<i32> loc(#loc139)
    %70 = stablehlo.select %52, %53, %69 : tensor<i1>, tensor<i32> loc(#loc139)
    %71 = stablehlo.bitcast_convert %70 : (tensor<i32>) -> tensor<f32> loc(#loc139)
    %72 = stablehlo.bitcast_convert %1 : (tensor<f32>) -> tensor<i32> loc(#loc139)
    %73 = stablehlo.bitcast_convert %cst_27 : (tensor<f32>) -> tensor<i32> loc(#loc139)
    %74 = stablehlo.compare NE, %1, %1 : (tensor<f32>, tensor<f32>) -> tensor<i1> loc(#loc139)
    %75 = stablehlo.compare NE, %cst_27, %cst_27 : (tensor<f32>, tensor<f32>) -> tensor<i1> loc(#loc139)
    %76 = stablehlo.or %74, %75 : tensor<i1> loc(#loc139)
    %77 = stablehlo.bitcast_convert %cst : (tensor<f32>) -> tensor<i32> loc(#loc139)
    %78 = stablehlo.and %72, %c_2 : tensor<i32> loc(#loc139)
    %79 = stablehlo.and %73, %c_2 : tensor<i32> loc(#loc139)
    %80 = stablehlo.compare EQ, %1, %cst_27 : (tensor<f32>, tensor<f32>) -> tensor<i1> loc(#loc139)
    %81 = stablehlo.compare EQ, %78, %c_1 : (tensor<i32>, tensor<i32>) -> tensor<i1> loc(#loc139)
    %82 = stablehlo.compare EQ, %79, %c_1 : (tensor<i32>, tensor<i32>) -> tensor<i1> loc(#loc139)
    %83 = stablehlo.and %72, %c_3 : tensor<i32> loc(#loc139)
    %84 = stablehlo.and %73, %c_3 : tensor<i32> loc(#loc139)
    %85 = stablehlo.or %84, %c_0 : tensor<i32> loc(#loc139)
    %86 = stablehlo.compare NE, %83, %84 : (tensor<i32>, tensor<i32>) -> tensor<i1> loc(#loc139)
    %87 = stablehlo.compare GT, %78, %79 : (tensor<i32>, tensor<i32>) -> tensor<i1> loc(#loc139)
    %88 = stablehlo.or %87, %86 : tensor<i1> loc(#loc139)
    %89 = stablehlo.select %88, %c, %c_0 : tensor<i1>, tensor<i32> loc(#loc139)
    %90 = stablehlo.add %72, %89 : tensor<i32> loc(#loc139)
    %91 = stablehlo.select %82, %73, %85 : tensor<i1>, tensor<i32> loc(#loc139)
    %92 = stablehlo.select %81, %91, %90 : tensor<i1>, tensor<i32> loc(#loc139)
    %93 = stablehlo.select %80, %73, %92 : tensor<i1>, tensor<i32> loc(#loc139)
    %94 = stablehlo.select %76, %77, %93 : tensor<i1>, tensor<i32> loc(#loc139)
    %95 = stablehlo.bitcast_convert %94 : (tensor<i32>) -> tensor<f32> loc(#loc139)
    %96 = call @clip_19(%47, %71, %95) : (tensor<16x16xf32>, tensor<f32>, tensor<f32>) -> tensor<16x16xf32> loc(#loc102)
    return %96 : tensor<16x16xf32> loc(#loc)
  } loc(#loc526)
  func.func private @chlo.erf.impl_4(%arg0: tensor<f32> loc("erf")) -> tensor<f32> {
    %cst = stablehlo.constant dense<1.000000e+00> : tensor<f32> loc(#loc138)
    %cst_0 = stablehlo.constant dense<-1.000000e+00> : tensor<f32> loc(#loc138)
    %cst_1 = stablehlo.constant dense<-0.0142647391> : tensor<f32> loc(#loc138)
    %cst_2 = stablehlo.constant dense<-0.00737332925> : tensor<f32> loc(#loc138)
    %cst_3 = stablehlo.constant dense<-0.00168282702> : tensor<f32> loc(#loc138)
    %cst_4 = stablehlo.constant dense<-2.13374049E-4> : tensor<f32> loc(#loc138)
    %cst_5 = stablehlo.constant dense<-1.45660715E-5> : tensor<f32> loc(#loc138)
    %cst_6 = stablehlo.constant dense<-0.0160960332> : tensor<f32> loc(#loc138)
    %cst_7 = stablehlo.constant dense<-2.954600e-03> : tensor<f32> loc(#loc138)
    %cst_8 = stablehlo.constant dense<-7.34990637E-4> : tensor<f32> loc(#loc138)
    %cst_9 = stablehlo.constant dense<-5.69250624E-5> : tensor<f32> loc(#loc138)
    %cst_10 = stablehlo.constant dense<-2.10102394E-6> : tensor<f32> loc(#loc138)
    %cst_11 = stablehlo.constant dense<2.77068146E-8> : tensor<f32> loc(#loc138)
    %cst_12 = stablehlo.constant dense<-2.72614237E-10> : tensor<f32> loc(#loc138)
    %cst_13 = stablehlo.constant dense<-4.000000e+00> : tensor<f32> loc(#loc138)
    %cst_14 = stablehlo.constant dense<4.000000e+00> : tensor<f32> loc(#loc138)
    %0 = stablehlo.clamp %cst_13, %arg0, %cst_14 : tensor<f32> loc(#loc138)
    %1 = stablehlo.multiply %0, %0 : tensor<f32> loc(#loc138)
    %2 = stablehlo.multiply %cst_12, %1 : tensor<f32> loc(#loc138)
    %3 = stablehlo.add %2, %cst_11 : tensor<f32> loc(#loc138)
    %4 = stablehlo.multiply %3, %1 : tensor<f32> loc(#loc138)
    %5 = stablehlo.add %4, %cst_10 : tensor<f32> loc(#loc138)
    %6 = stablehlo.multiply %5, %1 : tensor<f32> loc(#loc138)
    %7 = stablehlo.add %6, %cst_9 : tensor<f32> loc(#loc138)
    %8 = stablehlo.multiply %7, %1 : tensor<f32> loc(#loc138)
    %9 = stablehlo.add %8, %cst_8 : tensor<f32> loc(#loc138)
    %10 = stablehlo.multiply %9, %1 : tensor<f32> loc(#loc138)
    %11 = stablehlo.add %10, %cst_7 : tensor<f32> loc(#loc138)
    %12 = stablehlo.multiply %11, %1 : tensor<f32> loc(#loc138)
    %13 = stablehlo.add %12, %cst_6 : tensor<f32> loc(#loc138)
    %14 = stablehlo.multiply %cst_5, %1 : tensor<f32> loc(#loc138)
    %15 = stablehlo.add %14, %cst_4 : tensor<f32> loc(#loc138)
    %16 = stablehlo.multiply %15, %1 : tensor<f32> loc(#loc138)
    %17 = stablehlo.add %16, %cst_3 : tensor<f32> loc(#loc138)
    %18 = stablehlo.multiply %17, %1 : tensor<f32> loc(#loc138)
    %19 = stablehlo.add %18, %cst_2 : tensor<f32> loc(#loc138)
    %20 = stablehlo.multiply %19, %1 : tensor<f32> loc(#loc138)
    %21 = stablehlo.add %20, %cst_1 : tensor<f32> loc(#loc138)
    %22 = stablehlo.multiply %0, %13 : tensor<f32> loc(#loc138)
    %23 = stablehlo.divide %22, %21 : tensor<f32> loc(#loc138)
    %24 = stablehlo.clamp %cst_0, %23, %cst : tensor<f32> loc(#loc138)
    return %24 : tensor<f32> loc(#loc138)
  } loc(#loc138)
  func.func private @chlo.erf.impl_3(%arg0: tensor<f32> loc("erf")) -> tensor<f32> {
    %cst = stablehlo.constant dense<1.000000e+00> : tensor<f32> loc(#loc138)
    %cst_0 = stablehlo.constant dense<-1.000000e+00> : tensor<f32> loc(#loc138)
    %cst_1 = stablehlo.constant dense<-0.0142647391> : tensor<f32> loc(#loc138)
    %cst_2 = stablehlo.constant dense<-0.00737332925> : tensor<f32> loc(#loc138)
    %cst_3 = stablehlo.constant dense<-0.00168282702> : tensor<f32> loc(#loc138)
    %cst_4 = stablehlo.constant dense<-2.13374049E-4> : tensor<f32> loc(#loc138)
    %cst_5 = stablehlo.constant dense<-1.45660715E-5> : tensor<f32> loc(#loc138)
    %cst_6 = stablehlo.constant dense<-0.0160960332> : tensor<f32> loc(#loc138)
    %cst_7 = stablehlo.constant dense<-2.954600e-03> : tensor<f32> loc(#loc138)
    %cst_8 = stablehlo.constant dense<-7.34990637E-4> : tensor<f32> loc(#loc138)
    %cst_9 = stablehlo.constant dense<-5.69250624E-5> : tensor<f32> loc(#loc138)
    %cst_10 = stablehlo.constant dense<-2.10102394E-6> : tensor<f32> loc(#loc138)
    %cst_11 = stablehlo.constant dense<2.77068146E-8> : tensor<f32> loc(#loc138)
    %cst_12 = stablehlo.constant dense<-2.72614237E-10> : tensor<f32> loc(#loc138)
    %cst_13 = stablehlo.constant dense<-4.000000e+00> : tensor<f32> loc(#loc138)
    %cst_14 = stablehlo.constant dense<4.000000e+00> : tensor<f32> loc(#loc138)
    %0 = stablehlo.clamp %cst_13, %arg0, %cst_14 : tensor<f32> loc(#loc138)
    %1 = stablehlo.multiply %0, %0 : tensor<f32> loc(#loc138)
    %2 = stablehlo.multiply %cst_12, %1 : tensor<f32> loc(#loc138)
    %3 = stablehlo.add %2, %cst_11 : tensor<f32> loc(#loc138)
    %4 = stablehlo.multiply %3, %1 : tensor<f32> loc(#loc138)
    %5 = stablehlo.add %4, %cst_10 : tensor<f32> loc(#loc138)
    %6 = stablehlo.multiply %5, %1 : tensor<f32> loc(#loc138)
    %7 = stablehlo.add %6, %cst_9 : tensor<f32> loc(#loc138)
    %8 = stablehlo.multiply %7, %1 : tensor<f32> loc(#loc138)
    %9 = stablehlo.add %8, %cst_8 : tensor<f32> loc(#loc138)
    %10 = stablehlo.multiply %9, %1 : tensor<f32> loc(#loc138)
    %11 = stablehlo.add %10, %cst_7 : tensor<f32> loc(#loc138)
    %12 = stablehlo.multiply %11, %1 : tensor<f32> loc(#loc138)
    %13 = stablehlo.add %12, %cst_6 : tensor<f32> loc(#loc138)
    %14 = stablehlo.multiply %cst_5, %1 : tensor<f32> loc(#loc138)
    %15 = stablehlo.add %14, %cst_4 : tensor<f32> loc(#loc138)
    %16 = stablehlo.multiply %15, %1 : tensor<f32> loc(#loc138)
    %17 = stablehlo.add %16, %cst_3 : tensor<f32> loc(#loc138)
    %18 = stablehlo.multiply %17, %1 : tensor<f32> loc(#loc138)
    %19 = stablehlo.add %18, %cst_2 : tensor<f32> loc(#loc138)
    %20 = stablehlo.multiply %19, %1 : tensor<f32> loc(#loc138)
    %21 = stablehlo.add %20, %cst_1 : tensor<f32> loc(#loc138)
    %22 = stablehlo.multiply %0, %13 : tensor<f32> loc(#loc138)
    %23 = stablehlo.divide %22, %21 : tensor<f32> loc(#loc138)
    %24 = stablehlo.clamp %cst_0, %23, %cst : tensor<f32> loc(#loc138)
    return %24 : tensor<f32> loc(#loc138)
  } loc(#loc138)
  func.func private @_uniform_16(%arg0: tensor<2xui32> loc(unknown), %arg1: tensor<f32> loc(unknown), %arg2: tensor<f32> loc(unknown)) -> tensor<16x16xf32> {
    %cst = stablehlo.constant dense<1.000000e+00> : tensor<f32> loc(#loc)
    %c = stablehlo.constant dense<1065353216> : tensor<ui32> loc(#loc)
    %c_0 = stablehlo.constant dense<9> : tensor<ui32> loc(#loc)
    %c_1 = stablehlo.constant dense<32> : tensor<ui64> loc(#loc118)
    %c_2 = stablehlo.constant dense<1> : tensor<ui64> loc(#loc118)
    %c_3 = stablehlo.constant dense<16> : tensor<ui64> loc(#loc118)
    %0 = stablehlo.broadcast_in_dim %arg1, dims = [] : (tensor<f32>) -> tensor<1x1xf32> loc(#loc119)
    %1 = stablehlo.broadcast_in_dim %arg2, dims = [] : (tensor<f32>) -> tensor<1x1xf32> loc(#loc119)
    %2 = stablehlo.slice %arg0 [0:1] : (tensor<2xui32>) -> tensor<1xui32> loc(#loc92)
    %3 = stablehlo.reshape %2 : (tensor<1xui32>) -> tensor<ui32> loc(#loc93)
    %4 = stablehlo.slice %arg0 [1:2] : (tensor<2xui32>) -> tensor<1xui32> loc(#loc92)
    %5 = stablehlo.reshape %4 : (tensor<1xui32>) -> tensor<ui32> loc(#loc93)
    %6 = stablehlo.iota dim = 0 : tensor<16x16xui64> loc(#loc118)
    %7 = stablehlo.iota dim = 1 : tensor<16x16xui64> loc(#loc118)
    %8 = stablehlo.broadcast_in_dim %c_3, dims = [] : (tensor<ui64>) -> tensor<16x16xui64> loc(#loc118)
    %9 = stablehlo.multiply %8, %6 : tensor<16x16xui64> loc(#loc118)
    %10 = stablehlo.broadcast_in_dim %c_2, dims = [] : (tensor<ui64>) -> tensor<16x16xui64> loc(#loc118)
    %11 = stablehlo.multiply %10, %7 : tensor<16x16xui64> loc(#loc118)
    %12 = stablehlo.add %9, %11 : tensor<16x16xui64> loc(#loc118)
    %13 = stablehlo.broadcast_in_dim %c_1, dims = [] : (tensor<ui64>) -> tensor<16x16xui64> loc(#loc118)
    %14 = stablehlo.shift_right_logical %12, %13 : tensor<16x16xui64> loc(#loc118)
    %15 = stablehlo.convert %12 : (tensor<16x16xui64>) -> tensor<16x16xui32> loc(#loc118)
    %16 = stablehlo.convert %14 : (tensor<16x16xui64>) -> tensor<16x16xui32> loc(#loc118)
    %17:2 = call @threefry2x32_17(%3, %5, %16, %15) : (tensor<ui32>, tensor<ui32>, tensor<16x16xui32>, tensor<16x16xui32>) -> (tensor<16x16xui32>, tensor<16x16xui32>) loc(#loc130)
    %18 = stablehlo.xor %17#0, %17#1 : tensor<16x16xui32> loc(#loc98)
    %19 = stablehlo.broadcast_in_dim %c_0, dims = [] : (tensor<ui32>) -> tensor<16x16xui32> loc(#loc96)
    %20 = stablehlo.shift_right_logical %18, %19 : tensor<16x16xui32> loc(#loc96)
    %21 = stablehlo.broadcast_in_dim %c, dims = [] : (tensor<ui32>) -> tensor<16x16xui32> loc(#loc97)
    %22 = stablehlo.or %20, %21 : tensor<16x16xui32> loc(#loc97)
    %23 = stablehlo.bitcast_convert %22 : (tensor<16x16xui32>) -> tensor<16x16xf32> loc(#loc131)
    %24 = stablehlo.broadcast_in_dim %cst, dims = [] : (tensor<f32>) -> tensor<16x16xf32> loc(#loc95)
    %25 = stablehlo.subtract %23, %24 : tensor<16x16xf32> loc(#loc95)
    %26 = stablehlo.subtract %1, %0 : tensor<1x1xf32> loc(#loc95)
    %27 = stablehlo.broadcast_in_dim %26, dims = [0, 1] : (tensor<1x1xf32>) -> tensor<16x16xf32> loc(#loc113)
    %28 = stablehlo.multiply %25, %27 : tensor<16x16xf32> loc(#loc113)
    %29 = stablehlo.broadcast_in_dim %0, dims = [0, 1] : (tensor<1x1xf32>) -> tensor<16x16xf32> loc(#loc91)
    %30 = stablehlo.add %28, %29 : tensor<16x16xf32> loc(#loc91)
    %31 = stablehlo.broadcast_in_dim %0, dims = [0, 1] : (tensor<1x1xf32>) -> tensor<16x16xf32> loc(#loc115)
    %32 = stablehlo.maximum %31, %30 : tensor<16x16xf32> loc(#loc115)
    return %32 : tensor<16x16xf32> loc(#loc)
  } loc(#loc231)
  func.func private @threefry2x32_17(%arg0: tensor<ui32> loc(unknown), %arg1: tensor<ui32> loc(unknown), %arg2: tensor<16x16xui32> loc(unknown), %arg3: tensor<16x16xui32> loc(unknown)) -> (tensor<16x16xui32>, tensor<16x16xui32>) {
    %c = stablehlo.constant dense<1> : tensor<i32> loc(#loc)
    %c_0 = stablehlo.constant dense<5> : tensor<i32> loc(#loc)
    %c_1 = stablehlo.constant dense<0> : tensor<i32> loc(#loc)
    %c_2 = stablehlo.constant dense<466688986> : tensor<ui32> loc(#loc228)
    %c_3 = stablehlo.constant dense<[13, 15, 26, 6]> : tensor<4xui32> loc(#loc228)
    %c_4 = stablehlo.constant dense<[17, 29, 16, 24]> : tensor<4xui32> loc(#loc228)
    %0 = stablehlo.xor %arg0, %arg1 : tensor<ui32> loc(#loc98)
    %1 = stablehlo.xor %0, %c_2 : tensor<ui32> loc(#loc98)
    %2 = stablehlo.broadcast_in_dim %arg0, dims = [] : (tensor<ui32>) -> tensor<16x16xui32> loc(#loc91)
    %3 = stablehlo.add %arg2, %2 : tensor<16x16xui32> loc(#loc91)
    %4 = stablehlo.broadcast_in_dim %arg1, dims = [] : (tensor<ui32>) -> tensor<16x16xui32> loc(#loc91)
    %5 = stablehlo.add %arg3, %4 : tensor<16x16xui32> loc(#loc91)
    %6:9 = stablehlo.while(%iterArg = %c_1, %iterArg_5 = %c_1, %iterArg_6 = %3, %iterArg_7 = %5, %iterArg_8 = %arg1, %iterArg_9 = %1, %iterArg_10 = %arg0, %iterArg_11 = %c_3, %iterArg_12 = %c_4) : tensor<i32>, tensor<i32>, tensor<16x16xui32>, tensor<16x16xui32>, tensor<ui32>, tensor<ui32>, tensor<ui32>, tensor<4xui32>, tensor<4xui32>
    cond {
      %7 = stablehlo.compare LT, %iterArg, %c_0, SIGNED : (tensor<i32>, tensor<i32>) -> tensor<i1> loc(#loc122)
      stablehlo.return %7 : tensor<i1> loc(#loc121)
    } do {
      %7:8 = func.call @closed_call_18(%iterArg_5, %iterArg_6, %iterArg_7, %iterArg_8, %iterArg_9, %iterArg_10, %iterArg_11, %iterArg_12) : (tensor<i32>, tensor<16x16xui32>, tensor<16x16xui32>, tensor<ui32>, tensor<ui32>, tensor<ui32>, tensor<4xui32>, tensor<4xui32>) -> (tensor<i32>, tensor<16x16xui32>, tensor<16x16xui32>, tensor<ui32>, tensor<ui32>, tensor<ui32>, tensor<4xui32>, tensor<4xui32>) loc(#loc123)
      %8 = stablehlo.add %iterArg, %c : tensor<i32> loc(#loc124)
      stablehlo.return %8, %7#0, %7#1, %7#2, %7#3, %7#4, %7#5, %7#6, %7#7 : tensor<i32>, tensor<i32>, tensor<16x16xui32>, tensor<16x16xui32>, tensor<ui32>, tensor<ui32>, tensor<ui32>, tensor<4xui32>, tensor<4xui32> loc(#loc121)
    } loc(#loc121)
    return %6#2, %6#3 : tensor<16x16xui32>, tensor<16x16xui32> loc(#loc)
  } loc(#loc)
  func.func private @closed_call_18(%arg0: tensor<i32> loc(unknown), %arg1: tensor<16x16xui32> loc(unknown), %arg2: tensor<16x16xui32> loc(unknown), %arg3: tensor<ui32> loc(unknown), %arg4: tensor<ui32> loc(unknown), %arg5: tensor<ui32> loc(unknown), %arg6: tensor<4xui32> loc(unknown), %arg7: tensor<4xui32> loc(unknown)) -> (tensor<i32>, tensor<16x16xui32>, tensor<16x16xui32>, tensor<ui32>, tensor<ui32>, tensor<ui32>, tensor<4xui32>, tensor<4xui32>) {
    %c = stablehlo.constant dense<32> : tensor<ui32> loc(#loc)
    %c_0 = stablehlo.constant dense<1> : tensor<i32> loc(#loc)
    %0 = stablehlo.add %arg0, %c_0 : tensor<i32> loc(#loc91)
    %1 = stablehlo.slice %arg6 [0:1] : (tensor<4xui32>) -> tensor<1xui32> loc(#loc92)
    %2 = stablehlo.reshape %1 : (tensor<1xui32>) -> tensor<ui32> loc(#loc93)
    %3 = stablehlo.add %arg1, %arg2 : tensor<16x16xui32> loc(#loc91)
    %4 = stablehlo.broadcast_in_dim %2, dims = [] : (tensor<ui32>) -> tensor<16x16xui32> loc(#loc94)
    %5 = stablehlo.shift_left %arg2, %4 : tensor<16x16xui32> loc(#loc94)
    %6 = stablehlo.subtract %c, %2 : tensor<ui32> loc(#loc95)
    %7 = stablehlo.broadcast_in_dim %6, dims = [] : (tensor<ui32>) -> tensor<16x16xui32> loc(#loc96)
    %8 = stablehlo.shift_right_logical %arg2, %7 : tensor<16x16xui32> loc(#loc96)
    %9 = stablehlo.or %5, %8 : tensor<16x16xui32> loc(#loc97)
    %10 = stablehlo.xor %3, %9 : tensor<16x16xui32> loc(#loc98)
    %11 = stablehlo.slice %arg6 [1:2] : (tensor<4xui32>) -> tensor<1xui32> loc(#loc92)
    %12 = stablehlo.reshape %11 : (tensor<1xui32>) -> tensor<ui32> loc(#loc93)
    %13 = stablehlo.add %3, %10 : tensor<16x16xui32> loc(#loc91)
    %14 = stablehlo.broadcast_in_dim %12, dims = [] : (tensor<ui32>) -> tensor<16x16xui32> loc(#loc94)
    %15 = stablehlo.shift_left %10, %14 : tensor<16x16xui32> loc(#loc94)
    %16 = stablehlo.subtract %c, %12 : tensor<ui32> loc(#loc95)
    %17 = stablehlo.broadcast_in_dim %16, dims = [] : (tensor<ui32>) -> tensor<16x16xui32> loc(#loc96)
    %18 = stablehlo.shift_right_logical %10, %17 : tensor<16x16xui32> loc(#loc96)
    %19 = stablehlo.or %15, %18 : tensor<16x16xui32> loc(#loc97)
    %20 = stablehlo.xor %13, %19 : tensor<16x16xui32> loc(#loc98)
    %21 = stablehlo.slice %arg6 [2:3] : (tensor<4xui32>) -> tensor<1xui32> loc(#loc92)
    %22 = stablehlo.reshape %21 : (tensor<1xui32>) -> tensor<ui32> loc(#loc93)
    %23 = stablehlo.add %13, %20 : tensor<16x16xui32> loc(#loc91)
    %24 = stablehlo.broadcast_in_dim %22, dims = [] : (tensor<ui32>) -> tensor<16x16xui32> loc(#loc94)
    %25 = stablehlo.shift_left %20, %24 : tensor<16x16xui32> loc(#loc94)
    %26 = stablehlo.subtract %c, %22 : tensor<ui32> loc(#loc95)
    %27 = stablehlo.broadcast_in_dim %26, dims = [] : (tensor<ui32>) -> tensor<16x16xui32> loc(#loc96)
    %28 = stablehlo.shift_right_logical %20, %27 : tensor<16x16xui32> loc(#loc96)
    %29 = stablehlo.or %25, %28 : tensor<16x16xui32> loc(#loc97)
    %30 = stablehlo.xor %23, %29 : tensor<16x16xui32> loc(#loc98)
    %31 = stablehlo.slice %arg6 [3:4] : (tensor<4xui32>) -> tensor<1xui32> loc(#loc92)
    %32 = stablehlo.reshape %31 : (tensor<1xui32>) -> tensor<ui32> loc(#loc93)
    %33 = stablehlo.add %23, %30 : tensor<16x16xui32> loc(#loc91)
    %34 = stablehlo.broadcast_in_dim %32, dims = [] : (tensor<ui32>) -> tensor<16x16xui32> loc(#loc94)
    %35 = stablehlo.shift_left %30, %34 : tensor<16x16xui32> loc(#loc94)
    %36 = stablehlo.subtract %c, %32 : tensor<ui32> loc(#loc95)
    %37 = stablehlo.broadcast_in_dim %36, dims = [] : (tensor<ui32>) -> tensor<16x16xui32> loc(#loc96)
    %38 = stablehlo.shift_right_logical %30, %37 : tensor<16x16xui32> loc(#loc96)
    %39 = stablehlo.or %35, %38 : tensor<16x16xui32> loc(#loc97)
    %40 = stablehlo.xor %33, %39 : tensor<16x16xui32> loc(#loc98)
    %41 = stablehlo.broadcast_in_dim %arg3, dims = [] : (tensor<ui32>) -> tensor<16x16xui32> loc(#loc91)
    %42 = stablehlo.add %33, %41 : tensor<16x16xui32> loc(#loc91)
    %43 = stablehlo.broadcast_in_dim %arg4, dims = [] : (tensor<ui32>) -> tensor<16x16xui32> loc(#loc91)
    %44 = stablehlo.add %40, %43 : tensor<16x16xui32> loc(#loc91)
    %45 = stablehlo.add %arg0, %c_0 : tensor<i32> loc(#loc91)
    %46 = stablehlo.convert %45 : (tensor<i32>) -> tensor<ui32> loc(#loc99)
    %47 = stablehlo.broadcast_in_dim %46, dims = [] : (tensor<ui32>) -> tensor<16x16xui32> loc(#loc91)
    %48 = stablehlo.add %44, %47 : tensor<16x16xui32> loc(#loc91)
    return %0, %42, %48, %arg4, %arg5, %arg3, %arg7, %arg6 : tensor<i32>, tensor<16x16xui32>, tensor<16x16xui32>, tensor<ui32>, tensor<ui32>, tensor<ui32>, tensor<4xui32>, tensor<4xui32> loc(#loc)
  } loc(#loc233)
  func.func private @clip_19(%arg0: tensor<16x16xf32> loc(unknown), %arg1: tensor<f32> loc(unknown), %arg2: tensor<f32> loc(unknown)) -> tensor<16x16xf32> {
    %0 = stablehlo.broadcast_in_dim %arg1, dims = [] : (tensor<f32>) -> tensor<16x16xf32> loc(#loc115)
    %1 = stablehlo.maximum %0, %arg0 : tensor<16x16xf32> loc(#loc115)
    %2 = stablehlo.broadcast_in_dim %arg2, dims = [] : (tensor<f32>) -> tensor<16x16xf32> loc(#loc116)
    %3 = stablehlo.minimum %2, %1 : tensor<16x16xf32> loc(#loc116)
    return %3 : tensor<16x16xf32> loc(#loc)
  } loc(#loc231)
  func.func private @relu(%arg0: tensor<16x6x16xf32> loc(unknown)) -> tensor<16x6x16xf32> {
    %cst = stablehlo.constant dense<0.000000e+00> : tensor<f32> loc(#loc)
    %0 = stablehlo.broadcast_in_dim %cst, dims = [] : (tensor<f32>) -> tensor<16x6x16xf32> loc(#loc115)
    %1 = stablehlo.maximum %arg0, %0 : tensor<16x6x16xf32> loc(#loc115)
    return %1 : tensor<16x6x16xf32> loc(#loc)
  } loc(#loc231)
  func.func private @_take_20(%arg0: tensor<16x6x16xf32> loc(unknown), %arg1: tensor<i32> loc(unknown)) -> tensor<16x16xf32> {
    %cst = stablehlo.constant dense<0x7FC00000> : tensor<f32> loc(#loc132)
    %c = stablehlo.constant dense<true> : tensor<i1> loc(#loc133)
    %c_0 = stablehlo.constant dense<5> : tensor<1xi32> loc(#loc132)
    %c_1 = stablehlo.constant dense<6> : tensor<i32> loc(#loc)
    %c_2 = stablehlo.constant dense<0> : tensor<i32> loc(#loc)
    %0 = stablehlo.compare LT, %arg1, %c_2, SIGNED : (tensor<i32>, tensor<i32>) -> tensor<i1> loc(#loc134)
    %1 = stablehlo.add %arg1, %c_1 : tensor<i32> loc(#loc91)
    %2 = call @_where_21(%0, %1, %arg1) : (tensor<i1>, tensor<i32>, tensor<i32>) -> tensor<i32> loc(#loc135)
    %3 = stablehlo.broadcast_in_dim %2, dims = [] : (tensor<i32>) -> tensor<1xi32> loc(#loc119)
    %4 = stablehlo.convert %3 : tensor<1xi32> loc(#loc99)
    %5 = stablehlo.broadcast_in_dim %c_2, dims = [] : (tensor<i32>) -> tensor<1xi32> loc(#loc136)
    %6 = stablehlo.compare GE, %4, %5, SIGNED : (tensor<1xi32>, tensor<1xi32>) -> tensor<1xi1> loc(#loc136)
    %7 = stablehlo.compare LE, %4, %c_0, SIGNED : (tensor<1xi32>, tensor<1xi32>) -> tensor<1xi1> loc(#loc109)
    %8 = stablehlo.and %6, %7 : tensor<1xi1> loc(#loc111)
    %9 = stablehlo.reduce(%8 init: %c) applies stablehlo.and across dimensions = [0] : (tensor<1xi1>, tensor<i1>) -> tensor<i1> loc(#loc133)
    %10 = "stablehlo.gather"(%arg0, %4) <{dimension_numbers = #stablehlo.gather<offset_dims = [0, 1], collapsed_slice_dims = [1], start_index_map = [1]>, slice_sizes = array<i64: 16, 1, 16>}> : (tensor<16x6x16xf32>, tensor<1xi32>) -> tensor<16x16xf32> loc(#loc132)
    %11 = stablehlo.broadcast_in_dim %9, dims = [] : (tensor<i1>) -> tensor<16x16xi1> loc(#loc119)
    %12 = stablehlo.broadcast_in_dim %cst, dims = [] : (tensor<f32>) -> tensor<16x16xf32> loc(#loc119)
    %13 = stablehlo.select %11, %10, %12 : tensor<16x16xi1>, tensor<16x16xf32> loc(#loc110)
    return %13 : tensor<16x16xf32> loc(#loc)
  } loc(#loc505)
  func.func private @_where_21(%arg0: tensor<i1> loc(unknown), %arg1: tensor<i32> loc(unknown), %arg2: tensor<i32> loc(unknown)) -> tensor<i32> {
    %0 = stablehlo.select %arg0, %arg1, %arg2 : tensor<i1>, tensor<i32> loc(#loc110)
    return %0 : tensor<i32> loc(#loc)
  } loc(#loc231)
  func.func private @_truncated_normal_22(%arg0: tensor<2xui32> loc(unknown), %arg1: tensor<i32> loc(unknown), %arg2: tensor<i32> loc(unknown)) -> tensor<16x33xf32> {
    %c = stablehlo.constant dense<-1> : tensor<i32> loc(#loc)
    %c_0 = stablehlo.constant dense<1> : tensor<i32> loc(#loc)
    %c_1 = stablehlo.constant dense<0> : tensor<i32> loc(#loc)
    %c_2 = stablehlo.constant dense<2147483647> : tensor<i32> loc(#loc)
    %c_3 = stablehlo.constant dense<-2147483648> : tensor<i32> loc(#loc)
    %cst = stablehlo.constant dense<0x7FC00000> : tensor<f32> loc(#loc)
    %cst_4 = stablehlo.constant dense<0x7F800000> : tensor<16x33xf32> loc(#loc128)
    %cst_5 = stablehlo.constant dense<1.000000e+00> : tensor<16x33xf32> loc(#loc128)
    %cst_6 = stablehlo.constant dense<2.83297682> : tensor<16x33xf32> loc(#loc128)
    %cst_7 = stablehlo.constant dense<1.50140941> : tensor<16x33xf32> loc(#loc128)
    %cst_8 = stablehlo.constant dense<1.00167406> : tensor<16x33xf32> loc(#loc128)
    %cst_9 = stablehlo.constant dense<0.246640727> : tensor<16x33xf32> loc(#loc128)
    %cst_10 = stablehlo.constant dense<0.00943887047> : tensor<16x33xf32> loc(#loc128)
    %cst_11 = stablehlo.constant dense<-0.00417768164> : tensor<16x33xf32> loc(#loc128)
    %cst_12 = stablehlo.constant dense<-0.0076224613> : tensor<16x33xf32> loc(#loc128)
    %cst_13 = stablehlo.constant dense<-0.00125372503> : tensor<16x33xf32> loc(#loc128)
    %cst_14 = stablehlo.constant dense<0.00573950773> : tensor<16x33xf32> loc(#loc128)
    %cst_15 = stablehlo.constant dense<2.1858087E-4> : tensor<16x33xf32> loc(#loc128)
    %cst_16 = stablehlo.constant dense<-0.00367342844> : tensor<16x33xf32> loc(#loc128)
    %cst_17 = stablehlo.constant dense<-4.39150654E-6> : tensor<16x33xf32> loc(#loc128)
    %cst_18 = stablehlo.constant dense<0.00134934322> : tensor<16x33xf32> loc(#loc128)
    %cst_19 = stablehlo.constant dense<-3.5233877E-6> : tensor<16x33xf32> loc(#loc128)
    %cst_20 = stablehlo.constant dense<1.00950558E-4> : tensor<16x33xf32> loc(#loc128)
    %cst_21 = stablehlo.constant dense<3.43273939E-7> : tensor<16x33xf32> loc(#loc128)
    %cst_22 = stablehlo.constant dense<-2.00214257E-4> : tensor<16x33xf32> loc(#loc128)
    %cst_23 = stablehlo.constant dense<2.81022636E-8> : tensor<16x33xf32> loc(#loc128)
    %cst_24 = stablehlo.constant dense<3.000000e+00> : tensor<16x33xf32> loc(#loc128)
    %cst_25 = stablehlo.constant dense<2.500000e+00> : tensor<16x33xf32> loc(#loc128)
    %cst_26 = stablehlo.constant dense<5.000000e+00> : tensor<16x33xf32> loc(#loc128)
    %cst_27 = stablehlo.constant dense<0xFF800000> : tensor<f32> loc(#loc)
    %cst_28 = stablehlo.constant dense<0x7F800000> : tensor<f32> loc(#loc)
    %cst_29 = stablehlo.constant dense<1.41421354> : tensor<f32> loc(#loc)
    %0 = stablehlo.convert %arg1 : (tensor<i32>) -> tensor<f32> loc(#loc99)
    %1 = stablehlo.convert %arg2 : (tensor<i32>) -> tensor<f32> loc(#loc99)
    %2 = stablehlo.divide %0, %cst_29 : tensor<f32> loc(#loc137)
    %3 = stablehlo.composite "chlo.erf" %2 {decomposition = @chlo.erf.impl_1, version = 1 : i32} : (tensor<f32>) -> tensor<f32> loc(#loc138)
    %4 = stablehlo.divide %1, %cst_29 : tensor<f32> loc(#loc137)
    %5 = stablehlo.composite "chlo.erf" %4 {decomposition = @chlo.erf.impl_2, version = 1 : i32} : (tensor<f32>) -> tensor<f32> loc(#loc138)
    %6 = call @_uniform_23(%arg0, %3, %5) : (tensor<2xui32>, tensor<f32>, tensor<f32>) -> tensor<16x33xf32> loc(#loc129)
    %7 = stablehlo.negate %6 : tensor<16x33xf32> loc(#loc128)
    %8 = stablehlo.multiply %6, %7 : tensor<16x33xf32> loc(#loc128)
    %9 = stablehlo.log_plus_one %8 : tensor<16x33xf32> loc(#loc128)
    %10 = stablehlo.negate %9 : tensor<16x33xf32> loc(#loc128)
    %11 = stablehlo.compare LT, %10, %cst_26 : (tensor<16x33xf32>, tensor<16x33xf32>) -> tensor<16x33xi1> loc(#loc128)
    %12 = stablehlo.subtract %10, %cst_25 : tensor<16x33xf32> loc(#loc128)
    %13 = stablehlo.sqrt %10 : tensor<16x33xf32> loc(#loc128)
    %14 = stablehlo.subtract %13, %cst_24 : tensor<16x33xf32> loc(#loc128)
    %15 = stablehlo.select %11, %12, %14 : tensor<16x33xi1>, tensor<16x33xf32> loc(#loc128)
    %16 = stablehlo.select %11, %cst_23, %cst_22 : tensor<16x33xi1>, tensor<16x33xf32> loc(#loc128)
    %17 = stablehlo.select %11, %cst_21, %cst_20 : tensor<16x33xi1>, tensor<16x33xf32> loc(#loc128)
    %18 = stablehlo.multiply %16, %15 : tensor<16x33xf32> loc(#loc128)
    %19 = stablehlo.add %17, %18 : tensor<16x33xf32> loc(#loc128)
    %20 = stablehlo.select %11, %cst_19, %cst_18 : tensor<16x33xi1>, tensor<16x33xf32> loc(#loc128)
    %21 = stablehlo.multiply %19, %15 : tensor<16x33xf32> loc(#loc128)
    %22 = stablehlo.add %20, %21 : tensor<16x33xf32> loc(#loc128)
    %23 = stablehlo.select %11, %cst_17, %cst_16 : tensor<16x33xi1>, tensor<16x33xf32> loc(#loc128)
    %24 = stablehlo.multiply %22, %15 : tensor<16x33xf32> loc(#loc128)
    %25 = stablehlo.add %23, %24 : tensor<16x33xf32> loc(#loc128)
    %26 = stablehlo.select %11, %cst_15, %cst_14 : tensor<16x33xi1>, tensor<16x33xf32> loc(#loc128)
    %27 = stablehlo.multiply %25, %15 : tensor<16x33xf32> loc(#loc128)
    %28 = stablehlo.add %26, %27 : tensor<16x33xf32> loc(#loc128)
    %29 = stablehlo.select %11, %cst_13, %cst_12 : tensor<16x33xi1>, tensor<16x33xf32> loc(#loc128)
    %30 = stablehlo.multiply %28, %15 : tensor<16x33xf32> loc(#loc128)
    %31 = stablehlo.add %29, %30 : tensor<16x33xf32> loc(#loc128)
    %32 = stablehlo.select %11, %cst_11, %cst_10 : tensor<16x33xi1>, tensor<16x33xf32> loc(#loc128)
    %33 = stablehlo.multiply %31, %15 : tensor<16x33xf32> loc(#loc128)
    %34 = stablehlo.add %32, %33 : tensor<16x33xf32> loc(#loc128)
    %35 = stablehlo.select %11, %cst_9, %cst_8 : tensor<16x33xi1>, tensor<16x33xf32> loc(#loc128)
    %36 = stablehlo.multiply %34, %15 : tensor<16x33xf32> loc(#loc128)
    %37 = stablehlo.add %35, %36 : tensor<16x33xf32> loc(#loc128)
    %38 = stablehlo.select %11, %cst_7, %cst_6 : tensor<16x33xi1>, tensor<16x33xf32> loc(#loc128)
    %39 = stablehlo.multiply %37, %15 : tensor<16x33xf32> loc(#loc128)
    %40 = stablehlo.add %38, %39 : tensor<16x33xf32> loc(#loc128)
    %41 = stablehlo.multiply %40, %6 : tensor<16x33xf32> loc(#loc128)
    %42 = stablehlo.abs %6 : tensor<16x33xf32> loc(#loc128)
    %43 = stablehlo.compare EQ, %42, %cst_5 : (tensor<16x33xf32>, tensor<16x33xf32>) -> tensor<16x33xi1> loc(#loc128)
    %44 = stablehlo.multiply %6, %cst_4 : tensor<16x33xf32> loc(#loc128)
    %45 = stablehlo.select %43, %44, %41 : tensor<16x33xi1>, tensor<16x33xf32> loc(#loc128)
    %46 = stablehlo.broadcast_in_dim %cst_29, dims = [] : (tensor<f32>) -> tensor<16x33xf32> loc(#loc113)
    %47 = stablehlo.multiply %46, %45 : tensor<16x33xf32> loc(#loc113)
    %48 = stablehlo.bitcast_convert %0 : (tensor<f32>) -> tensor<i32> loc(#loc139)
    %49 = stablehlo.bitcast_convert %cst_28 : (tensor<f32>) -> tensor<i32> loc(#loc139)
    %50 = stablehlo.compare NE, %0, %0 : (tensor<f32>, tensor<f32>) -> tensor<i1> loc(#loc139)
    %51 = stablehlo.compare NE, %cst_28, %cst_28 : (tensor<f32>, tensor<f32>) -> tensor<i1> loc(#loc139)
    %52 = stablehlo.or %50, %51 : tensor<i1> loc(#loc139)
    %53 = stablehlo.bitcast_convert %cst : (tensor<f32>) -> tensor<i32> loc(#loc139)
    %54 = stablehlo.and %48, %c_2 : tensor<i32> loc(#loc139)
    %55 = stablehlo.and %49, %c_2 : tensor<i32> loc(#loc139)
    %56 = stablehlo.compare EQ, %0, %cst_28 : (tensor<f32>, tensor<f32>) -> tensor<i1> loc(#loc139)
    %57 = stablehlo.compare EQ, %54, %c_1 : (tensor<i32>, tensor<i32>) -> tensor<i1> loc(#loc139)
    %58 = stablehlo.compare EQ, %55, %c_1 : (tensor<i32>, tensor<i32>) -> tensor<i1> loc(#loc139)
    %59 = stablehlo.and %48, %c_3 : tensor<i32> loc(#loc139)
    %60 = stablehlo.and %49, %c_3 : tensor<i32> loc(#loc139)
    %61 = stablehlo.or %60, %c_0 : tensor<i32> loc(#loc139)
    %62 = stablehlo.compare NE, %59, %60 : (tensor<i32>, tensor<i32>) -> tensor<i1> loc(#loc139)
    %63 = stablehlo.compare GT, %54, %55 : (tensor<i32>, tensor<i32>) -> tensor<i1> loc(#loc139)
    %64 = stablehlo.or %63, %62 : tensor<i1> loc(#loc139)
    %65 = stablehlo.select %64, %c, %c_0 : tensor<i1>, tensor<i32> loc(#loc139)
    %66 = stablehlo.add %48, %65 : tensor<i32> loc(#loc139)
    %67 = stablehlo.select %58, %49, %61 : tensor<i1>, tensor<i32> loc(#loc139)
    %68 = stablehlo.select %57, %67, %66 : tensor<i1>, tensor<i32> loc(#loc139)
    %69 = stablehlo.select %56, %49, %68 : tensor<i1>, tensor<i32> loc(#loc139)
    %70 = stablehlo.select %52, %53, %69 : tensor<i1>, tensor<i32> loc(#loc139)
    %71 = stablehlo.bitcast_convert %70 : (tensor<i32>) -> tensor<f32> loc(#loc139)
    %72 = stablehlo.bitcast_convert %1 : (tensor<f32>) -> tensor<i32> loc(#loc139)
    %73 = stablehlo.bitcast_convert %cst_27 : (tensor<f32>) -> tensor<i32> loc(#loc139)
    %74 = stablehlo.compare NE, %1, %1 : (tensor<f32>, tensor<f32>) -> tensor<i1> loc(#loc139)
    %75 = stablehlo.compare NE, %cst_27, %cst_27 : (tensor<f32>, tensor<f32>) -> tensor<i1> loc(#loc139)
    %76 = stablehlo.or %74, %75 : tensor<i1> loc(#loc139)
    %77 = stablehlo.bitcast_convert %cst : (tensor<f32>) -> tensor<i32> loc(#loc139)
    %78 = stablehlo.and %72, %c_2 : tensor<i32> loc(#loc139)
    %79 = stablehlo.and %73, %c_2 : tensor<i32> loc(#loc139)
    %80 = stablehlo.compare EQ, %1, %cst_27 : (tensor<f32>, tensor<f32>) -> tensor<i1> loc(#loc139)
    %81 = stablehlo.compare EQ, %78, %c_1 : (tensor<i32>, tensor<i32>) -> tensor<i1> loc(#loc139)
    %82 = stablehlo.compare EQ, %79, %c_1 : (tensor<i32>, tensor<i32>) -> tensor<i1> loc(#loc139)
    %83 = stablehlo.and %72, %c_3 : tensor<i32> loc(#loc139)
    %84 = stablehlo.and %73, %c_3 : tensor<i32> loc(#loc139)
    %85 = stablehlo.or %84, %c_0 : tensor<i32> loc(#loc139)
    %86 = stablehlo.compare NE, %83, %84 : (tensor<i32>, tensor<i32>) -> tensor<i1> loc(#loc139)
    %87 = stablehlo.compare GT, %78, %79 : (tensor<i32>, tensor<i32>) -> tensor<i1> loc(#loc139)
    %88 = stablehlo.or %87, %86 : tensor<i1> loc(#loc139)
    %89 = stablehlo.select %88, %c, %c_0 : tensor<i1>, tensor<i32> loc(#loc139)
    %90 = stablehlo.add %72, %89 : tensor<i32> loc(#loc139)
    %91 = stablehlo.select %82, %73, %85 : tensor<i1>, tensor<i32> loc(#loc139)
    %92 = stablehlo.select %81, %91, %90 : tensor<i1>, tensor<i32> loc(#loc139)
    %93 = stablehlo.select %80, %73, %92 : tensor<i1>, tensor<i32> loc(#loc139)
    %94 = stablehlo.select %76, %77, %93 : tensor<i1>, tensor<i32> loc(#loc139)
    %95 = stablehlo.bitcast_convert %94 : (tensor<i32>) -> tensor<f32> loc(#loc139)
    %96 = call @clip_26(%47, %71, %95) : (tensor<16x33xf32>, tensor<f32>, tensor<f32>) -> tensor<16x33xf32> loc(#loc102)
    return %96 : tensor<16x33xf32> loc(#loc)
  } loc(#loc432)
  func.func private @chlo.erf.impl_2(%arg0: tensor<f32> loc("erf")) -> tensor<f32> {
    %cst = stablehlo.constant dense<1.000000e+00> : tensor<f32> loc(#loc138)
    %cst_0 = stablehlo.constant dense<-1.000000e+00> : tensor<f32> loc(#loc138)
    %cst_1 = stablehlo.constant dense<-0.0142647391> : tensor<f32> loc(#loc138)
    %cst_2 = stablehlo.constant dense<-0.00737332925> : tensor<f32> loc(#loc138)
    %cst_3 = stablehlo.constant dense<-0.00168282702> : tensor<f32> loc(#loc138)
    %cst_4 = stablehlo.constant dense<-2.13374049E-4> : tensor<f32> loc(#loc138)
    %cst_5 = stablehlo.constant dense<-1.45660715E-5> : tensor<f32> loc(#loc138)
    %cst_6 = stablehlo.constant dense<-0.0160960332> : tensor<f32> loc(#loc138)
    %cst_7 = stablehlo.constant dense<-2.954600e-03> : tensor<f32> loc(#loc138)
    %cst_8 = stablehlo.constant dense<-7.34990637E-4> : tensor<f32> loc(#loc138)
    %cst_9 = stablehlo.constant dense<-5.69250624E-5> : tensor<f32> loc(#loc138)
    %cst_10 = stablehlo.constant dense<-2.10102394E-6> : tensor<f32> loc(#loc138)
    %cst_11 = stablehlo.constant dense<2.77068146E-8> : tensor<f32> loc(#loc138)
    %cst_12 = stablehlo.constant dense<-2.72614237E-10> : tensor<f32> loc(#loc138)
    %cst_13 = stablehlo.constant dense<-4.000000e+00> : tensor<f32> loc(#loc138)
    %cst_14 = stablehlo.constant dense<4.000000e+00> : tensor<f32> loc(#loc138)
    %0 = stablehlo.clamp %cst_13, %arg0, %cst_14 : tensor<f32> loc(#loc138)
    %1 = stablehlo.multiply %0, %0 : tensor<f32> loc(#loc138)
    %2 = stablehlo.multiply %cst_12, %1 : tensor<f32> loc(#loc138)
    %3 = stablehlo.add %2, %cst_11 : tensor<f32> loc(#loc138)
    %4 = stablehlo.multiply %3, %1 : tensor<f32> loc(#loc138)
    %5 = stablehlo.add %4, %cst_10 : tensor<f32> loc(#loc138)
    %6 = stablehlo.multiply %5, %1 : tensor<f32> loc(#loc138)
    %7 = stablehlo.add %6, %cst_9 : tensor<f32> loc(#loc138)
    %8 = stablehlo.multiply %7, %1 : tensor<f32> loc(#loc138)
    %9 = stablehlo.add %8, %cst_8 : tensor<f32> loc(#loc138)
    %10 = stablehlo.multiply %9, %1 : tensor<f32> loc(#loc138)
    %11 = stablehlo.add %10, %cst_7 : tensor<f32> loc(#loc138)
    %12 = stablehlo.multiply %11, %1 : tensor<f32> loc(#loc138)
    %13 = stablehlo.add %12, %cst_6 : tensor<f32> loc(#loc138)
    %14 = stablehlo.multiply %cst_5, %1 : tensor<f32> loc(#loc138)
    %15 = stablehlo.add %14, %cst_4 : tensor<f32> loc(#loc138)
    %16 = stablehlo.multiply %15, %1 : tensor<f32> loc(#loc138)
    %17 = stablehlo.add %16, %cst_3 : tensor<f32> loc(#loc138)
    %18 = stablehlo.multiply %17, %1 : tensor<f32> loc(#loc138)
    %19 = stablehlo.add %18, %cst_2 : tensor<f32> loc(#loc138)
    %20 = stablehlo.multiply %19, %1 : tensor<f32> loc(#loc138)
    %21 = stablehlo.add %20, %cst_1 : tensor<f32> loc(#loc138)
    %22 = stablehlo.multiply %0, %13 : tensor<f32> loc(#loc138)
    %23 = stablehlo.divide %22, %21 : tensor<f32> loc(#loc138)
    %24 = stablehlo.clamp %cst_0, %23, %cst : tensor<f32> loc(#loc138)
    return %24 : tensor<f32> loc(#loc138)
  } loc(#loc138)
  func.func private @chlo.erf.impl_1(%arg0: tensor<f32> loc("erf")) -> tensor<f32> {
    %cst = stablehlo.constant dense<1.000000e+00> : tensor<f32> loc(#loc138)
    %cst_0 = stablehlo.constant dense<-1.000000e+00> : tensor<f32> loc(#loc138)
    %cst_1 = stablehlo.constant dense<-0.0142647391> : tensor<f32> loc(#loc138)
    %cst_2 = stablehlo.constant dense<-0.00737332925> : tensor<f32> loc(#loc138)
    %cst_3 = stablehlo.constant dense<-0.00168282702> : tensor<f32> loc(#loc138)
    %cst_4 = stablehlo.constant dense<-2.13374049E-4> : tensor<f32> loc(#loc138)
    %cst_5 = stablehlo.constant dense<-1.45660715E-5> : tensor<f32> loc(#loc138)
    %cst_6 = stablehlo.constant dense<-0.0160960332> : tensor<f32> loc(#loc138)
    %cst_7 = stablehlo.constant dense<-2.954600e-03> : tensor<f32> loc(#loc138)
    %cst_8 = stablehlo.constant dense<-7.34990637E-4> : tensor<f32> loc(#loc138)
    %cst_9 = stablehlo.constant dense<-5.69250624E-5> : tensor<f32> loc(#loc138)
    %cst_10 = stablehlo.constant dense<-2.10102394E-6> : tensor<f32> loc(#loc138)
    %cst_11 = stablehlo.constant dense<2.77068146E-8> : tensor<f32> loc(#loc138)
    %cst_12 = stablehlo.constant dense<-2.72614237E-10> : tensor<f32> loc(#loc138)
    %cst_13 = stablehlo.constant dense<-4.000000e+00> : tensor<f32> loc(#loc138)
    %cst_14 = stablehlo.constant dense<4.000000e+00> : tensor<f32> loc(#loc138)
    %0 = stablehlo.clamp %cst_13, %arg0, %cst_14 : tensor<f32> loc(#loc138)
    %1 = stablehlo.multiply %0, %0 : tensor<f32> loc(#loc138)
    %2 = stablehlo.multiply %cst_12, %1 : tensor<f32> loc(#loc138)
    %3 = stablehlo.add %2, %cst_11 : tensor<f32> loc(#loc138)
    %4 = stablehlo.multiply %3, %1 : tensor<f32> loc(#loc138)
    %5 = stablehlo.add %4, %cst_10 : tensor<f32> loc(#loc138)
    %6 = stablehlo.multiply %5, %1 : tensor<f32> loc(#loc138)
    %7 = stablehlo.add %6, %cst_9 : tensor<f32> loc(#loc138)
    %8 = stablehlo.multiply %7, %1 : tensor<f32> loc(#loc138)
    %9 = stablehlo.add %8, %cst_8 : tensor<f32> loc(#loc138)
    %10 = stablehlo.multiply %9, %1 : tensor<f32> loc(#loc138)
    %11 = stablehlo.add %10, %cst_7 : tensor<f32> loc(#loc138)
    %12 = stablehlo.multiply %11, %1 : tensor<f32> loc(#loc138)
    %13 = stablehlo.add %12, %cst_6 : tensor<f32> loc(#loc138)
    %14 = stablehlo.multiply %cst_5, %1 : tensor<f32> loc(#loc138)
    %15 = stablehlo.add %14, %cst_4 : tensor<f32> loc(#loc138)
    %16 = stablehlo.multiply %15, %1 : tensor<f32> loc(#loc138)
    %17 = stablehlo.add %16, %cst_3 : tensor<f32> loc(#loc138)
    %18 = stablehlo.multiply %17, %1 : tensor<f32> loc(#loc138)
    %19 = stablehlo.add %18, %cst_2 : tensor<f32> loc(#loc138)
    %20 = stablehlo.multiply %19, %1 : tensor<f32> loc(#loc138)
    %21 = stablehlo.add %20, %cst_1 : tensor<f32> loc(#loc138)
    %22 = stablehlo.multiply %0, %13 : tensor<f32> loc(#loc138)
    %23 = stablehlo.divide %22, %21 : tensor<f32> loc(#loc138)
    %24 = stablehlo.clamp %cst_0, %23, %cst : tensor<f32> loc(#loc138)
    return %24 : tensor<f32> loc(#loc138)
  } loc(#loc138)
  func.func private @_uniform_23(%arg0: tensor<2xui32> loc(unknown), %arg1: tensor<f32> loc(unknown), %arg2: tensor<f32> loc(unknown)) -> tensor<16x33xf32> {
    %cst = stablehlo.constant dense<1.000000e+00> : tensor<f32> loc(#loc)
    %c = stablehlo.constant dense<1065353216> : tensor<ui32> loc(#loc)
    %c_0 = stablehlo.constant dense<9> : tensor<ui32> loc(#loc)
    %c_1 = stablehlo.constant dense<32> : tensor<ui64> loc(#loc118)
    %c_2 = stablehlo.constant dense<1> : tensor<ui64> loc(#loc118)
    %c_3 = stablehlo.constant dense<33> : tensor<ui64> loc(#loc118)
    %0 = stablehlo.broadcast_in_dim %arg1, dims = [] : (tensor<f32>) -> tensor<1x1xf32> loc(#loc119)
    %1 = stablehlo.broadcast_in_dim %arg2, dims = [] : (tensor<f32>) -> tensor<1x1xf32> loc(#loc119)
    %2 = stablehlo.slice %arg0 [0:1] : (tensor<2xui32>) -> tensor<1xui32> loc(#loc92)
    %3 = stablehlo.reshape %2 : (tensor<1xui32>) -> tensor<ui32> loc(#loc93)
    %4 = stablehlo.slice %arg0 [1:2] : (tensor<2xui32>) -> tensor<1xui32> loc(#loc92)
    %5 = stablehlo.reshape %4 : (tensor<1xui32>) -> tensor<ui32> loc(#loc93)
    %6 = stablehlo.iota dim = 0 : tensor<16x33xui64> loc(#loc118)
    %7 = stablehlo.iota dim = 1 : tensor<16x33xui64> loc(#loc118)
    %8 = stablehlo.broadcast_in_dim %c_3, dims = [] : (tensor<ui64>) -> tensor<16x33xui64> loc(#loc118)
    %9 = stablehlo.multiply %8, %6 : tensor<16x33xui64> loc(#loc118)
    %10 = stablehlo.broadcast_in_dim %c_2, dims = [] : (tensor<ui64>) -> tensor<16x33xui64> loc(#loc118)
    %11 = stablehlo.multiply %10, %7 : tensor<16x33xui64> loc(#loc118)
    %12 = stablehlo.add %9, %11 : tensor<16x33xui64> loc(#loc118)
    %13 = stablehlo.broadcast_in_dim %c_1, dims = [] : (tensor<ui64>) -> tensor<16x33xui64> loc(#loc118)
    %14 = stablehlo.shift_right_logical %12, %13 : tensor<16x33xui64> loc(#loc118)
    %15 = stablehlo.convert %12 : (tensor<16x33xui64>) -> tensor<16x33xui32> loc(#loc118)
    %16 = stablehlo.convert %14 : (tensor<16x33xui64>) -> tensor<16x33xui32> loc(#loc118)
…
    %51 = stablehlo.compare NE, %cst_28, %cst_28 : (tensor<f32>, tensor<f32>) -> tensor<i1> loc(#loc139)
    %52 = stablehlo.or %50, %51 : tensor<i1> loc(#loc139)
    %53 = stablehlo.bitcast_convert %cst : (tensor<f32>) -> tensor<i32> loc(#loc139)
    %54 = stablehlo.and %48, %c_2 : tensor<i32> loc(#loc139)
    %55 = stablehlo.and %49, %c_2 : tensor<i32> loc(#loc139)
    %56 = stablehlo.compare EQ, %0, %cst_28 : (tensor<f32>, tensor<f32>) -> tensor<i1> loc(#loc139)
    %57 = stablehlo.compare EQ, %54, %c_1 : (tensor<i32>, tensor<i32>) -> tensor<i1> loc(#loc139)
    %58 = stablehlo.compare EQ, %55, %c_1 : (tensor<i32>, tensor<i32>) -> tensor<i1> loc(#loc139)
    %59 = stablehlo.and %48, %c_3 : tensor<i32> loc(#loc139)
    %60 = stablehlo.and %49, %c_3 : tensor<i32> loc(#loc139)
    %61 = stablehlo.or %60, %c_0 : tensor<i32> loc(#loc139)
    %62 = stablehlo.compare NE, %59, %60 : (tensor<i32>, tensor<i32>) -> tensor<i1> loc(#loc139)
    %63 = stablehlo.compare GT, %54, %55 : (tensor<i32>, tensor<i32>) -> tensor<i1> loc(#loc139)
    %64 = stablehlo.or %63, %62 : tensor<i1> loc(#loc139)
    %65 = stablehlo.select %64, %c, %c_0 : tensor<i1>, tensor<i32> loc(#loc139)
    %66 = stablehlo.add %48, %65 : tensor<i32> loc(#loc139)
    %67 = stablehlo.select %58, %49, %61 : tensor<i1>, tensor<i32> loc(#loc139)
    %68 = stablehlo.select %57, %67, %66 : tensor<i1>, tensor<i32> loc(#loc139)
    %69 = stablehlo.select %56, %49, %68 : tensor<i1>, tensor<i32> loc(#loc139)
    %70 = stablehlo.select %52, %53, %69 : tensor<i1>, tensor<i32> loc(#loc139)
    %71 = stablehlo.bitcast_convert %70 : (tensor<i32>) -> tensor<f32> loc(#loc139)
    %72 = stablehlo.bitcast_convert %1 : (tensor<f32>) -> tensor<i32> loc(#loc139)
    %73 = stablehlo.bitcast_convert %cst_27 : (tensor<f32>) -> tensor<i32> loc(#loc139)
    %74 = stablehlo.compare NE, %1, %1 : (tensor<f32>, tensor<f32>) -> tensor<i1> loc(#loc139)
    %75 = stablehlo.compare NE, %cst_27, %cst_27 : (tensor<f32>, tensor<f32>) -> tensor<i1> loc(#loc139)
    %76 = stablehlo.or %74, %75 : tensor<i1> loc(#loc139)
    %77 = stablehlo.bitcast_convert %cst : (tensor<f32>) -> tensor<i32> loc(#loc139)
    %78 = stablehlo.and %72, %c_2 : tensor<i32> loc(#loc139)
    %79 = stablehlo.and %73, %c_2 : tensor<i32> loc(#loc139)
    %80 = stablehlo.compare EQ, %1, %cst_27 : (tensor<f32>, tensor<f32>) -> tensor<i1> loc(#loc139)
    %81 = stablehlo.compare EQ, %78, %c_1 : (tensor<i32>, tensor<i32>) -> tensor<i1> loc(#loc139)
    %82 = stablehlo.compare EQ, %79, %c_1 : (tensor<i32>, tensor<i32>) -> tensor<i1> loc(#loc139)
    %83 = stablehlo.and %72, %c_3 : tensor<i32> loc(#loc139)
    %84 = stablehlo.and %73, %c_3 : tensor<i32> loc(#loc139)
    %85 = stablehlo.or %84, %c_0 : tensor<i32> loc(#loc139)
    %86 = stablehlo.compare NE, %83, %84 : (tensor<i32>, tensor<i32>) -> tensor<i1> loc(#loc139)
    %87 = stablehlo.compare GT, %78, %79 : (tensor<i32>, tensor<i32>) -> tensor<i1> loc(#loc139)
    %88 = stablehlo.or %87, %86 : tensor<i1> loc(#loc139)
    %89 = stablehlo.select %88, %c, %c_0 : tensor<i1>, tensor<i32> loc(#loc139)
    %90 = stablehlo.add %72, %89 : tensor<i32> loc(#loc139)
    %91 = stablehlo.select %82, %73, %85 : tensor<i1>, tensor<i32> loc(#loc139)
    %92 = stablehlo.select %81, %91, %90 : tensor<i1>, tensor<i32> loc(#loc139)
    %93 = stablehlo.select %80, %73, %92 : tensor<i1>, tensor<i32> loc(#loc139)
    %94 = stablehlo.select %76, %77, %93 : tensor<i1>, tensor<i32> loc(#loc139)
    %95 = stablehlo.bitcast_convert %94 : (tensor<i32>) -> tensor<f32> loc(#loc139)
    %96 = call @clip_31(%47, %71, %95) : (tensor<16x1xf32>, tensor<f32>, tensor<f32>) -> tensor<16x1xf32> loc(#loc102)
    return %96 : tensor<16x1xf32> loc(#loc)
  } loc(#loc433)
  func.func private @chlo.erf.impl_0(%arg0: tensor<f32> loc("erf")) -> tensor<f32> {
    %cst = stablehlo.constant dense<1.000000e+00> : tensor<f32> loc(#loc138)
    %cst_0 = stablehlo.constant dense<-1.000000e+00> : tensor<f32> loc(#loc138)
    %cst_1 = stablehlo.constant dense<-0.0142647391> : tensor<f32> loc(#loc138)
    %cst_2 = stablehlo.constant dense<-0.00737332925> : tensor<f32> loc(#loc138)
    %cst_3 = stablehlo.constant dense<-0.00168282702> : tensor<f32> loc(#loc138)
    %cst_4 = stablehlo.constant dense<-2.13374049E-4> : tensor<f32> loc(#loc138)
    %cst_5 = stablehlo.constant dense<-1.45660715E-5> : tensor<f32> loc(#loc138)
    %cst_6 = stablehlo.constant dense<-0.0160960332> : tensor<f32> loc(#loc138)
    %cst_7 = stablehlo.constant dense<-2.954600e-03> : tensor<f32> loc(#loc138)
    %cst_8 = stablehlo.constant dense<-7.34990637E-4> : tensor<f32> loc(#loc138)
    %cst_9 = stablehlo.constant dense<-5.69250624E-5> : tensor<f32> loc(#loc138)
    %cst_10 = stablehlo.constant dense<-2.10102394E-6> : tensor<f32> loc(#loc138)
    %cst_11 = stablehlo.constant dense<2.77068146E-8> : tensor<f32> loc(#loc138)
    %cst_12 = stablehlo.constant dense<-2.72614237E-10> : tensor<f32> loc(#loc138)
    %cst_13 = stablehlo.constant dense<-4.000000e+00> : tensor<f32> loc(#loc138)
    %cst_14 = stablehlo.constant dense<4.000000e+00> : tensor<f32> loc(#loc138)
    %0 = stablehlo.clamp %cst_13, %arg0, %cst_14 : tensor<f32> loc(#loc138)
    %1 = stablehlo.multiply %0, %0 : tensor<f32> loc(#loc138)
    %2 = stablehlo.multiply %cst_12, %1 : tensor<f32> loc(#loc138)
    %3 = stablehlo.add %2, %cst_11 : tensor<f32> loc(#loc138)
    %4 = stablehlo.multiply %3, %1 : tensor<f32> loc(#loc138)
    %5 = stablehlo.add %4, %cst_10 : tensor<f32> loc(#loc138)
    %6 = stablehlo.multiply %5, %1 : tensor<f32> loc(#loc138)
    %7 = stablehlo.add %6, %cst_9 : tensor<f32> loc(#loc138)
    %8 = stablehlo.multiply %7, %1 : tensor<f32> loc(#loc138)
    %9 = stablehlo.add %8, %cst_8 : tensor<f32> loc(#loc138)
    %10 = stablehlo.multiply %9, %1 : tensor<f32> loc(#loc138)
    %11 = stablehlo.add %10, %cst_7 : tensor<f32> loc(#loc138)
    %12 = stablehlo.multiply %11, %1 : tensor<f32> loc(#loc138)
    %13 = stablehlo.add %12, %cst_6 : tensor<f32> loc(#loc138)
    %14 = stablehlo.multiply %cst_5, %1 : tensor<f32> loc(#loc138)
    %15 = stablehlo.add %14, %cst_4 : tensor<f32> loc(#loc138)
    %16 = stablehlo.multiply %15, %1 : tensor<f32> loc(#loc138)
    %17 = stablehlo.add %16, %cst_3 : tensor<f32> loc(#loc138)
    %18 = stablehlo.multiply %17, %1 : tensor<f32> loc(#loc138)
    %19 = stablehlo.add %18, %cst_2 : tensor<f32> loc(#loc138)
    %20 = stablehlo.multiply %19, %1 : tensor<f32> loc(#loc138)
    %21 = stablehlo.add %20, %cst_1 : tensor<f32> loc(#loc138)
    %22 = stablehlo.multiply %0, %13 : tensor<f32> loc(#loc138)
    %23 = stablehlo.divide %22, %21 : tensor<f32> loc(#loc138)
    %24 = stablehlo.clamp %cst_0, %23, %cst : tensor<f32> loc(#loc138)
    return %24 : tensor<f32> loc(#loc138)
  } loc(#loc138)
  func.func private @chlo.erf.impl(%arg0: tensor<f32> loc("erf")) -> tensor<f32> {
    %cst = stablehlo.constant dense<1.000000e+00> : tensor<f32> loc(#loc138)
    %cst_0 = stablehlo.constant dense<-1.000000e+00> : tensor<f32> loc(#loc138)
    %cst_1 = stablehlo.constant dense<-0.0142647391> : tensor<f32> loc(#loc138)
    %cst_2 = stablehlo.constant dense<-0.00737332925> : tensor<f32> loc(#loc138)
    %cst_3 = stablehlo.constant dense<-0.00168282702> : tensor<f32> loc(#loc138)
    %cst_4 = stablehlo.constant dense<-2.13374049E-4> : tensor<f32> loc(#loc138)
    %cst_5 = stablehlo.constant dense<-1.45660715E-5> : tensor<f32> loc(#loc138)
    %cst_6 = stablehlo.constant dense<-0.0160960332> : tensor<f32> loc(#loc138)
    %cst_7 = stablehlo.constant dense<-2.954600e-03> : tensor<f32> loc(#loc138)
    %cst_8 = stablehlo.constant dense<-7.34990637E-4> : tensor<f32> loc(#loc138)
    %cst_9 = stablehlo.constant dense<-5.69250624E-5> : tensor<f32> loc(#loc138)
    %cst_10 = stablehlo.constant dense<-2.10102394E-6> : tensor<f32> loc(#loc138)
    %cst_11 = stablehlo.constant dense<2.77068146E-8> : tensor<f32> loc(#loc138)
    %cst_12 = stablehlo.constant dense<-2.72614237E-10> : tensor<f32> loc(#loc138)
    %cst_13 = stablehlo.constant dense<-4.000000e+00> : tensor<f32> loc(#loc138)
    %cst_14 = stablehlo.constant dense<4.000000e+00> : tensor<f32> loc(#loc138)
    %0 = stablehlo.clamp %cst_13, %arg0, %cst_14 : tensor<f32> loc(#loc138)
    %1 = stablehlo.multiply %0, %0 : tensor<f32> loc(#loc138)
    %2 = stablehlo.multiply %cst_12, %1 : tensor<f32> loc(#loc138)
    %3 = stablehlo.add %2, %cst_11 : tensor<f32> loc(#loc138)
    %4 = stablehlo.multiply %3, %1 : tensor<f32> loc(#loc138)
    %5 = stablehlo.add %4, %cst_10 : tensor<f32> loc(#loc138)
    %6 = stablehlo.multiply %5, %1 : tensor<f32> loc(#loc138)
    %7 = stablehlo.add %6, %cst_9 : tensor<f32> loc(#loc138)
    %8 = stablehlo.multiply %7, %1 : tensor<f32> loc(#loc138)
    %9 = stablehlo.add %8, %cst_8 : tensor<f32> loc(#loc138)
    %10 = stablehlo.multiply %9, %1 : tensor<f32> loc(#loc138)
    %11 = stablehlo.add %10, %cst_7 : tensor<f32> loc(#loc138)
    %12 = stablehlo.multiply %11, %1 : tensor<f32> loc(#loc138)
    %13 = stablehlo.add %12, %cst_6 : tensor<f32> loc(#loc138)
    %14 = stablehlo.multiply %cst_5, %1 : tensor<f32> loc(#loc138)
    %15 = stablehlo.add %14, %cst_4 : tensor<f32> loc(#loc138)
    %16 = stablehlo.multiply %15, %1 : tensor<f32> loc(#loc138)
    %17 = stablehlo.add %16, %cst_3 : tensor<f32> loc(#loc138)
    %18 = stablehlo.multiply %17, %1 : tensor<f32> loc(#loc138)
    %19 = stablehlo.add %18, %cst_2 : tensor<f32> loc(#loc138)
    %20 = stablehlo.multiply %19, %1 : tensor<f32> loc(#loc138)
    %21 = stablehlo.add %20, %cst_1 : tensor<f32> loc(#loc138)
    %22 = stablehlo.multiply %0, %13 : tensor<f32> loc(#loc138)
    %23 = stablehlo.divide %22, %21 : tensor<f32> loc(#loc138)
    %24 = stablehlo.clamp %cst_0, %23, %cst : tensor<f32> loc(#loc138)
    return %24 : tensor<f32> loc(#loc138)
  } loc(#loc138)
  func.func private @_uniform_28(%arg0: tensor<2xui32> loc(unknown), %arg1: tensor<f32> loc(unknown), %arg2: tensor<f32> loc(unknown)) -> tensor<16x1xf32> {
    %cst = stablehlo.constant dense<1.000000e+00> : tensor<f32> loc(#loc)
    %c = stablehlo.constant dense<1065353216> : tensor<ui32> loc(#loc)
    %c_0 = stablehlo.constant dense<9> : tensor<ui32> loc(#loc)
    %c_1 = stablehlo.constant dense<32> : tensor<ui64> loc(#loc118)
    %c_2 = stablehlo.constant dense<1> : tensor<ui64> loc(#loc)
    %0 = stablehlo.broadcast_in_dim %arg1, dims = [] : (tensor<f32>) -> tensor<1x1xf32> loc(#loc119)
    %1 = stablehlo.broadcast_in_dim %arg2, dims = [] : (tensor<f32>) -> tensor<1x1xf32> loc(#loc119)
    %2 = stablehlo.slice %arg0 [0:1] : (tensor<2xui32>) -> tensor<1xui32> loc(#loc92)
    %3 = stablehlo.reshape %2 : (tensor<1xui32>) -> tensor<ui32> loc(#loc93)
    %4 = stablehlo.slice %arg0 [1:2] : (tensor<2xui32>) -> tensor<1xui32> loc(#loc92)
    %5 = stablehlo.reshape %4 : (tensor<1xui32>) -> tensor<ui32> loc(#loc93)
    %6 = stablehlo.iota dim = 0 : tensor<16x1xui64> loc(#loc118)
    %7 = stablehlo.iota dim = 1 : tensor<16x1xui64> loc(#loc118)
    %8 = stablehlo.broadcast_in_dim %c_2, dims = [] : (tensor<ui64>) -> tensor<16x1xui64> loc(#loc118)
    %9 = stablehlo.multiply %8, %6 : tensor<16x1xui64> loc(#loc118)
    %10 = stablehlo.broadcast_in_dim %c_2, dims = [] : (tensor<ui64>) -> tensor<16x1xui64> loc(#loc118)
    %11 = stablehlo.multiply %10, %7 : tensor<16x1xui64> loc(#loc118)
    %12 = stablehlo.add %9, %11 : tensor<16x1xui64> loc(#loc118)
    %13 = stablehlo.broadcast_in_dim %c_1, dims = [] : (tensor<ui64>) -> tensor<16x1xui64> loc(#loc118)
    %14 = stablehlo.shift_right_logical %12, %13 : tensor<16x1xui64> loc(#loc118)
    %15 = stablehlo.convert %12 : (tensor<16x1xui64>) -> tensor<16x1xui32> loc(#loc118)
    %16 = stablehlo.convert %14 : (tensor<16x1xui64>) -> tensor<16x1xui32> loc(#loc118)
    %17:2 = call @threefry2x32_29(%3, %5, %16, %15) : (tensor<ui32>, tensor<ui32>, tensor<16x1xui32>, tensor<16x1xui32>) -> (tensor<16x1xui32>, tensor<16x1xui32>) loc(#loc130)
    %18 = stablehlo.xor %17#0, %17#1 : tensor<16x1xui32> loc(#loc98)
    %19 = stablehlo.broadcast_in_dim %c_0, dims = [] : (tensor<ui32>) -> tensor<16x1xui32> loc(#loc96)
    %20 = stablehlo.shift_right_logical %18, %19 : tensor<16x1xui32> loc(#loc96)
    %21 = stablehlo.broadcast_in_dim %c, dims = [] : (tensor<ui32>) -> tensor<16x1xui32> loc(#loc97)
    %22 = stablehlo.or %20, %21 : tensor<16x1xui32> loc(#loc97)
    %23 = stablehlo.bitcast_convert %22 : (tensor<16x1xui32>) -> tensor<16x1xf32> loc(#loc131)
    %24 = stablehlo.broadcast_in_dim %cst, dims = [] : (tensor<f32>) -> tensor<16x1xf32> loc(#loc95)
    %25 = stablehlo.subtract %23, %24 : tensor<16x1xf32> loc(#loc95)
    %26 = stablehlo.subtract %1, %0 : tensor<1x1xf32> loc(#loc95)
    %27 = stablehlo.broadcast_in_dim %26, dims = [0, 1] : (tensor<1x1xf32>) -> tensor<16x1xf32> loc(#loc113)
    %28 = stablehlo.multiply %25, %27 : tensor<16x1xf32> loc(#loc113)
    %29 = stablehlo.broadcast_in_dim %0, dims = [0, 1] : (tensor<1x1xf32>) -> tensor<16x1xf32> loc(#loc91)
    %30 = stablehlo.add %28, %29 : tensor<16x1xf32> loc(#loc91)
    %31 = stablehlo.broadcast_in_dim %0, dims = [0, 1] : (tensor<1x1xf32>) -> tensor<16x1xf32> loc(#loc115)
    %32 = stablehlo.maximum %31, %30 : tensor<16x1xf32> loc(#loc115)
    return %32 : tensor<16x1xf32> loc(#loc)
  } loc(#loc231)
  func.func private @threefry2x32_29(%arg0: tensor<ui32> loc(unknown), %arg1: tensor<ui32> loc(unknown), %arg2: tensor<16x1xui32> loc(unknown), %arg3: tensor<16x1xui32> loc(unknown)) -> (tensor<16x1xui32>, tensor<16x1xui32>) {
    %c = stablehlo.constant dense<1> : tensor<i32> loc(#loc)
    %c_0 = stablehlo.constant dense<5> : tensor<i32> loc(#loc)
    %c_1 = stablehlo.constant dense<0> : tensor<i32> loc(#loc)
    %c_2 = stablehlo.constant dense<466688986> : tensor<ui32> loc(#loc228)
    %c_3 = stablehlo.constant dense<[13, 15, 26, 6]> : tensor<4xui32> loc(#loc228)
    %c_4 = stablehlo.constant dense<[17, 29, 16, 24]> : tensor<4xui32> loc(#loc228)
    %0 = stablehlo.xor %arg0, %arg1 : tensor<ui32> loc(#loc98)
    %1 = stablehlo.xor %0, %c_2 : tensor<ui32> loc(#loc98)
    %2 = stablehlo.broadcast_in_dim %arg0, dims = [] : (tensor<ui32>) -> tensor<16x1xui32> loc(#loc91)
    %3 = stablehlo.add %arg2, %2 : tensor<16x1xui32> loc(#loc91)
    %4 = stablehlo.broadcast_in_dim %arg1, dims = [] : (tensor<ui32>) -> tensor<16x1xui32> loc(#loc91)
    %5 = stablehlo.add %arg3, %4 : tensor<16x1xui32> loc(#loc91)
    %6:9 = stablehlo.while(%iterArg = %c_1, %iterArg_5 = %c_1, %iterArg_6 = %3, %iterArg_7 = %5, %iterArg_8 = %arg1, %iterArg_9 = %1, %iterArg_10 = %arg0, %iterArg_11 = %c_3, %iterArg_12 = %c_4) : tensor<i32>, tensor<i32>, tensor<16x1xui32>, tensor<16x1xui32>, tensor<ui32>, tensor<ui32>, tensor<ui32>, tensor<4xui32>, tensor<4xui32>
    cond {
      %7 = stablehlo.compare LT, %iterArg, %c_0, SIGNED : (tensor<i32>, tensor<i32>) -> tensor<i1> loc(#loc122)
      stablehlo.return %7 : tensor<i1> loc(#loc121)
    } do {
      %7:8 = func.call @closed_call_30(%iterArg_5, %iterArg_6, %iterArg_7, %iterArg_8, %iterArg_9, %iterArg_10, %iterArg_11, %iterArg_12) : (tensor<i32>, tensor<16x1xui32>, tensor<16x1xui32>, tensor<ui32>, tensor<ui32>, tensor<ui32>, tensor<4xui32>, tensor<4xui32>) -> (tensor<i32>, tensor<16x1xui32>, tensor<16x1xui32>, tensor<ui32>, tensor<ui32>, tensor<ui32>, tensor<4xui32>, tensor<4xui32>) loc(#loc123)
      %8 = stablehlo.add %iterArg, %c : tensor<i32> loc(#loc124)
      stablehlo.return %8, %7#0, %7#1, %7#2, %7#3, %7#4, %7#5, %7#6, %7#7 : tensor<i32>, tensor<i32>, tensor<16x1xui32>, tensor<16x1xui32>, tensor<ui32>, tensor<ui32>, tensor<ui32>, tensor<4xui32>, tensor<4xui32> loc(#loc121)
    } loc(#loc121)
    return %6#2, %6#3 : tensor<16x1xui32>, tensor<16x1xui32> loc(#loc)
  } loc(#loc)
  func.func private @closed_call_30(%arg0: tensor<i32> loc(unknown), %arg1: tensor<16x1xui32> loc(unknown), %arg2: tensor<16x1xui32> loc(unknown), %arg3: tensor<ui32> loc(unknown), %arg4: tensor<ui32> loc(unknown), %arg5: tensor<ui32> loc(unknown), %arg6: tensor<4xui32> loc(unknown), %arg7: tensor<4xui32> loc(unknown)) -> (tensor<i32>, tensor<16x1xui32>, tensor<16x1xui32>, tensor<ui32>, tensor<ui32>, tensor<ui32>, tensor<4xui32>, tensor<4xui32>) {
    %c = stablehlo.constant dense<32> : tensor<ui32> loc(#loc)
    %c_0 = stablehlo.constant dense<1> : tensor<i32> loc(#loc)
    %0 = stablehlo.add %arg0, %c_0 : tensor<i32> loc(#loc91)
    %1 = stablehlo.slice %arg6 [0:1] : (tensor<4xui32>) -> tensor<1xui32> loc(#loc92)
    %2 = stablehlo.reshape %1 : (tensor<1xui32>) -> tensor<ui32> loc(#loc93)
    %3 = stablehlo.add %arg1, %arg2 : tensor<16x1xui32> loc(#loc91)
    %4 = stablehlo.broadcast_in_dim %2, dims = [] : (tensor<ui32>) -> tensor<16x1xui32> loc(#loc94)
    %5 = stablehlo.shift_left %arg2, %4 : tensor<16x1xui32> loc(#loc94)
    %6 = stablehlo.subtract %c, %2 : tensor<ui32> loc(#loc95)
    %7 = stablehlo.broadcast_in_dim %6, dims = [] : (tensor<ui32>) -> tensor<16x1xui32> loc(#loc96)
    %8 = stablehlo.shift_right_logical %arg2, %7 : tensor<16x1xui32> loc(#loc96)
    %9 = stablehlo.or %5, %8 : tensor<16x1xui32> loc(#loc97)
    %10 = stablehlo.xor %3, %9 : tensor<16x1xui32> loc(#loc98)
    %11 = stablehlo.slice %arg6 [1:2] : (tensor<4xui32>) -> tensor<1xui32> loc(#loc92)
    %12 = stablehlo.reshape %11 : (tensor<1xui32>) -> tensor<ui32> loc(#loc93)
    %13 = stablehlo.add %3, %10 : tensor<16x1xui32> loc(#loc91)
    %14 = stablehlo.broadcast_in_dim %12, dims = [] : (tensor<ui32>) -> tensor<16x1xui32> loc(#loc94)
    %15 = stablehlo.shift_left %10, %14 : tensor<16x1xui32> loc(#loc94)
    %16 = stablehlo.subtract %c, %12 : tensor<ui32> loc(#loc95)
    %17 = stablehlo.broadcast_in_dim %16, dims = [] : (tensor<ui32>) -> tensor<16x1xui32> loc(#loc96)
    %18 = stablehlo.shift_right_logical %10, %17 : tensor<16x1xui32> loc(#loc96)
    %19 = stablehlo.or %15, %18 : tensor<16x1xui32> loc(#loc97)
    %20 = stablehlo.xor %13, %19 : tensor<16x1xui32> loc(#loc98)
    %21 = stablehlo.slice %arg6 [2:3] : (tensor<4xui32>) -> tensor<1xui32> loc(#loc92)
    %22 = stablehlo.reshape %21 : (tensor<1xui32>) -> tensor<ui32> loc(#loc93)
    %23 = stablehlo.add %13, %20 : tensor<16x1xui32> loc(#loc91)
    %24 = stablehlo.broadcast_in_dim %22, dims = [] : (tensor<ui32>) -> tensor<16x1xui32> loc(#loc94)
    %25 = stablehlo.shift_left %20, %24 : tensor<16x1xui32> loc(#loc94)
    %26 = stablehlo.subtract %c, %22 : tensor<ui32> loc(#loc95)
    %27 = stablehlo.broadcast_in_dim %26, dims = [] : (tensor<ui32>) -> tensor<16x1xui32> loc(#loc96)
    %28 = stablehlo.shift_right_logical %20, %27 : tensor<16x1xui32> loc(#loc96)
    %29 = stablehlo.or %25, %28 : tensor<16x1xui32> loc(#loc97)
    %30 = stablehlo.xor %23, %29 : tensor<16x1xui32> loc(#loc98)
    %31 = stablehlo.slice %arg6 [3:4] : (tensor<4xui32>) -> tensor<1xui32> loc(#loc92)
    %32 = stablehlo.reshape %31 : (tensor<1xui32>) -> tensor<ui32> loc(#loc93)
    %33 = stablehlo.add %23, %30 : tensor<16x1xui32> loc(#loc91)
    %34 = stablehlo.broadcast_in_dim %32, dims = [] : (tensor<ui32>) -> tensor<16x1xui32> loc(#loc94)
    %35 = stablehlo.shift_left %30, %34 : tensor<16x1xui32> loc(#loc94)
    %36 = stablehlo.subtract %c, %32 : tensor<ui32> loc(#loc95)
    %37 = stablehlo.broadcast_in_dim %36, dims = [] : (tensor<ui32>) -> tensor<16x1xui32> loc(#loc96)
    %38 = stablehlo.shift_right_logical %30, %37 : tensor<16x1xui32> loc(#loc96)
    %39 = stablehlo.or %35, %38 : tensor<16x1xui32> loc(#loc97)
    %40 = stablehlo.xor %33, %39 : tensor<16x1xui32> loc(#loc98)
    %41 = stablehlo.broadcast_in_dim %arg3, dims = [] : (tensor<ui32>) -> tensor<16x1xui32> loc(#loc91)
    %42 = stablehlo.add %33, %41 : tensor<16x1xui32> loc(#loc91)
    %43 = stablehlo.broadcast_in_dim %arg4, dims = [] : (tensor<ui32>) -> tensor<16x1xui32> loc(#loc91)
    %44 = stablehlo.add %40, %43 : tensor<16x1xui32> loc(#loc91)
    %45 = stablehlo.add %arg0, %c_0 : tensor<i32> loc(#loc91)
    %46 = stablehlo.convert %45 : (tensor<i32>) -> tensor<ui32> loc(#loc99)
    %47 = stablehlo.broadcast_in_dim %46, dims = [] : (tensor<ui32>) -> tensor<16x1xui32> loc(#loc91)
    %48 = stablehlo.add %44, %47 : tensor<16x1xui32> loc(#loc91)
    return %0, %42, %48, %arg4, %arg5, %arg3, %arg7, %arg6 : tensor<i32>, tensor<16x1xui32>, tensor<16x1xui32>, tensor<ui32>, tensor<ui32>, tensor<ui32>, tensor<4xui32>, tensor<4xui32> loc(#loc)
  } loc(#loc233)
  func.func private @clip_31(%arg0: tensor<16x1xf32> loc(unknown), %arg1: tensor<f32> loc(unknown), %arg2: tensor<f32> loc(unknown)) -> tensor<16x1xf32> {
    %0 = stablehlo.broadcast_in_dim %arg1, dims = [] : (tensor<f32>) -> tensor<16x1xf32> loc(#loc115)
    %1 = stablehlo.maximum %0, %arg0 : tensor<16x1xf32> loc(#loc115)
    %2 = stablehlo.broadcast_in_dim %arg2, dims = [] : (tensor<f32>) -> tensor<16x1xf32> loc(#loc116)
    %3 = stablehlo.minimum %2, %1 : tensor<16x1xf32> loc(#loc116)
    return %3 : tensor<16x1xf32> loc(#loc)
  } loc(#loc231)
} loc(#loc)
#loc2 = loc("/Users/noahfarr/noahfarr.github.io/tools/whlo/export_ppo_wordle.py":202:16 to :51)
#loc3 = loc("/Users/noahfarr/noahfarr.github.io/tools/whlo/export_ppo_wordle.py":218:4 to :10)
#loc5 = loc("/Users/noahfarr/reinforcement-learning/src/algorithms/algorithms/recurrent_ppo.py":298:8 to :47)
#loc6 = loc("/Users/noahfarr/reinforcement-learning/src/environments/environments/wrappers/vectorize.py":20:21 to :54)
#loc7 = loc("/Users/noahfarr/reinforcement-learning/src/algorithms/algorithms/recurrent_ppo.py":300:38 to 302:9)
#loc8 = loc("/Users/noahfarr/reinforcement-learning/src/environments/environments/wrappers/vectorize.py":21:15 to :57)
#loc9 = loc("/Users/noahfarr/reinforcement-learning/src/environments/environments/wordle.py":92:16 to :75)
#loc10 = loc("/Users/noahfarr/reinforcement-learning/src/environments/environments/wrappers/mcp.py":57:23 to :50)
#loc11 = loc("/Users/noahfarr/reinforcement-learning/src/environments/environments/wrappers/wrapper.py":12:15 to :42)
#loc12 = loc("/Users/noahfarr/reinforcement-learning/src/environments/environments/wrappers/vectorize.py":22:15 to :80)
#loc13 = loc("/Users/noahfarr/reinforcement-learning/src/environments/environments/wordle.py":94:26 to :51)
#loc14 = loc("/Users/noahfarr/reinforcement-learning/src/environments/environments/wordle.py":95:27 to :60)
#loc15 = loc("/Users/noahfarr/reinforcement-learning/src/environments/environments/wordle.py":63:12 to :70)
#loc16 = loc("/Users/noahfarr/reinforcement-learning/src/environments/environments/wordle.py":104:16 to :30)
#loc17 = loc("/Users/noahfarr/reinforcement-learning/src/environments/environments/wordle.py":64:43 to :60)
#loc18 = loc("/Users/noahfarr/reinforcement-learning/src/environments/environments/wordle.py":64:11 to :66)
#loc19 = loc("/Users/noahfarr/reinforcement-learning/src/environments/environments/wrappers/mcp.py":61:22 to :58)
#loc20 = loc("/Users/noahfarr/reinforcement-learning/src/environments/environments/wrappers/mcp.py":67:16 to :71)
#loc21 = loc("/Users/noahfarr/reinforcement-learning/src/networks/networks/blocks/min_gru.py":35:15 to :53)
#loc22 = loc("/Users/noahfarr/reinforcement-learning/src/networks/networks/blocks/ssm.py":57:15 to :59)
#loc23 = loc("/Users/noahfarr/reinforcement-learning/src/networks/networks/blocks/stack.py":25:21 to :61)
#loc24 = loc("/Users/noahfarr/reinforcement-learning/src/networks/networks/blocks/stack.py":25:15 to :87)
#loc25 = loc("/Users/noahfarr/reinforcement-learning/src/networks/networks/blocks/chunked.py":30:15 to :60)
#loc26 = loc("/Users/noahfarr/reinforcement-learning/src/networks/networks/network.py":36:15 to :60)
#loc27 = loc("/Users/noahfarr/reinforcement-learning/src/algorithms/algorithms/recurrent_ppo.py":305:16 to :68)
#loc28 = loc("/Users/noahfarr/reinforcement-learning/src/utils/utils/axis.py":15:11 to :37)
#loc29 = loc("/Users/noahfarr/reinforcement-learning/src/utils/utils/timestep.py":22:15 to :48)
#loc30 = loc("/Users/noahfarr/reinforcement-learning/src/algorithms/algorithms/recurrent_ppo.py":306:19 to :41)
#loc31 = loc("/Users/noahfarr/reinforcement-learning/src/utils/utils/timestep.py":19:15 to :47)
#loc32 = loc("/Users/noahfarr/reinforcement-learning/src/algorithms/algorithms/recurrent_ppo.py":312:12 to :25)
#loc37 = loc("/Users/noahfarr/reinforcement-learning/.venv/lib/python3.13/site-packages/flax/linen/linear.py":1194:11 to :46)
#loc38 = loc("/Users/noahfarr/noahfarr.github.io/tools/whlo/export_ppo_wordle.py":84:32 to :63)
#loc39 = loc("/Users/noahfarr/noahfarr.github.io/tools/whlo/export_ppo_wordle.py":84:65 to :79)
#loc40 = loc("/Users/noahfarr/noahfarr.github.io/tools/whlo/export_ppo_wordle.py":84:15 to :90)
#loc41 = loc("/Users/noahfarr/reinforcement-learning/src/networks/networks/blocks/chunked.py":14:12 to :73)
#loc42 = loc("/Users/noahfarr/reinforcement-learning/src/networks/networks/network.py":29:19 to :55)
#loc43 = loc("/Users/noahfarr/reinforcement-learning/src/networks/networks/blocks/chunked.py":16:12 to :76)
#loc44 = loc("/Users/noahfarr/reinforcement-learning/src/networks/networks/blocks/chunked.py":18:13 to :22)
#loc46 = loc("/Users/noahfarr/reinforcement-learning/src/networks/networks/blocks/chunked.py":21:22 to :76)
#loc47 = loc("/Users/noahfarr/reinforcement-learning/.venv/lib/python3.13/site-packages/flax/linen/linear.py":263:13 to 268:5)
#loc48 = loc("/Users/noahfarr/reinforcement-learning/src/networks/networks/blocks/projection.py":21:12 to 27:12)
#loc49 = loc("/Users/noahfarr/reinforcement-learning/src/networks/networks/blocks/stack.py":18:29 to :56)
#loc50 = loc("/Users/noahfarr/reinforcement-learning/src/networks/networks/blocks/stack.py":21:15 to :74)
#loc51 = loc("/Users/noahfarr/reinforcement-learning/src/networks/networks/blocks/chunked.py":20:19 to 22:9)
#loc52 = loc("/Users/noahfarr/reinforcement-learning/.venv/lib/python3.13/site-packages/flax/linen/linear.py":270:13 to 272:7)
#loc53 = loc("/Users/noahfarr/reinforcement-learning/.venv/lib/python3.13/site-packages/flax/linen/linear.py":287:8 to 292:5)
#loc54 = loc("/Users/noahfarr/reinforcement-learning/.venv/lib/python3.13/site-packages/flax/linen/linear.py":294:11 to :57)
#loc55 = loc("/Users/noahfarr/reinforcement-learning/.venv/lib/python3.13/site-packages/flax/linen/linear.py":294:6 to :57)
#loc56 = loc("/Users/noahfarr/reinforcement-learning/src/networks/networks/blocks/projection.py":29:16 to :34)
#loc57 = loc("/Users/noahfarr/reinforcement-learning/src/networks/networks/blocks/ssm.py":39:24 to 41:9)
#loc58 = loc("/Users/noahfarr/reinforcement-learning/src/networks/networks/blocks/min_gru.py":26:23 to :51)
#loc59 = loc("/Users/noahfarr/reinforcement-learning/src/networks/networks/blocks/ssm.py":43:15 to :32)
#loc60 = loc("/Users/noahfarr/reinforcement-learning/src/networks/networks/blocks/min_gru.py":26:12 to :52)
#loc61 = loc("/Users/noahfarr/reinforcement-learning/src/networks/networks/blocks/min_gru.py":27:15 to :20)
#loc62 = loc("/Users/noahfarr/reinforcement-learning/src/networks/networks/blocks/min_gru.py":27:26 to :52)
#loc63 = loc("/Users/noahfarr/reinforcement-learning/src/networks/networks/blocks/min_gru.py":27:22 to :52)
#loc64 = loc("/Users/noahfarr/reinforcement-learning/src/utils/utils/axis.py":31:11 to :65)
#loc65 = loc("/Users/noahfarr/reinforcement-learning/src/networks/networks/blocks/ssm.py":47:15 to :38)
#loc66 = loc("/Users/noahfarr/reinforcement-learning/src/networks/networks/blocks/ssm.py":48:16 to :24)
#loc67 = loc("/Users/noahfarr/reinforcement-learning/src/networks/networks/blocks/ssm.py":48:27 to :60)
#loc68 = loc("/Users/noahfarr/reinforcement-learning/src/networks/networks/blocks/ssm.py":48:16 to :60)
#loc69 = loc("/Users/noahfarr/reinforcement-learning/src/networks/networks/blocks/ssm.py":48:12 to :60)
#loc70 = loc("/Users/noahfarr/reinforcement-learning/src/networks/networks/blocks/ssm.py":49:13 to :21)
#loc71 = loc("/Users/noahfarr/reinforcement-learning/src/networks/networks/blocks/ssm.py":49:12 to :26)
#loc72 = loc("/Users/noahfarr/reinforcement-learning/src/networks/networks/blocks/ssm.py":51:15 to :72)
#loc73 = loc("/Users/noahfarr/reinforcement-learning/src/networks/networks/blocks/ssm.py":16:11 to :20)
#loc74 = loc("/Users/noahfarr/reinforcement-learning/src/networks/networks/blocks/ssm.py":16:22 to :31)
#loc75 = loc("/Users/noahfarr/reinforcement-learning/src/networks/networks/blocks/ssm.py":16:22 to :37)
#loc76 = loc("/Users/noahfarr/reinforcement-learning/src/networks/networks/blocks/ssm.py":52:26 to :51)
#loc77 = loc("/Users/noahfarr/reinforcement-learning/src/networks/networks/blocks/ssm.py":52:22 to :51)
#loc78 = loc("/Users/noahfarr/reinforcement-learning/src/networks/networks/blocks/ssm.py":52:18 to :51)
#loc79 = loc("/Users/noahfarr/reinforcement-learning/src/networks/networks/blocks/ssm.py":53:15 to :44)
#loc80 = loc("/Users/noahfarr/reinforcement-learning/src/networks/networks/actor_critic.py":11:15 to :28)
#loc81 = loc("/Users/noahfarr/reinforcement-learning/src/networks/networks/network.py":30:22 to :44)
#loc82 = loc("/Users/noahfarr/reinforcement-learning/src/networks/networks/actor_critic.py":11:30 to :44)
#loc83 = loc("/Users/noahfarr/reinforcement-learning/.venv/lib/python3.13/site-packages/optax/tree_utils/_tree_math.py":335:32 to :62)
#loc84 = loc("/Users/noahfarr/reinforcement-learning/.venv/lib/python3.13/site-packages/optax/tree_utils/_tree_math.py":335:9 to :69)
#loc85 = loc("/Users/noahfarr/reinforcement-learning/.venv/lib/python3.13/site-packages/optax/_src/transform.py":277:9 to :54)
#loc86 = loc("/Users/noahfarr/reinforcement-learning/.venv/lib/python3.13/site-packages/optax/transforms/_combining.py":79:17 to :27)
#loc87 = loc("/Users/noahfarr/reinforcement-learning/.venv/lib/python3.13/site-packages/optax/transforms/_combining.py":79:11 to :47)
#loc88 = loc("/Users/noahfarr/reinforcement-learning/src/algorithms/algorithms/recurrent_ppo.py":315:26 to :53)
#loc89 = loc("/Users/noahfarr/reinforcement-learning/.venv/lib/python3.13/site-packages/optax/_src/transform.py":278:9 to :38)
#loc90 = loc("threefry2x32")
#loc91 = loc("add")
#loc92 = loc("slice")
#loc93 = loc("squeeze")
#loc94 = loc("shift_left")
#loc95 = loc("sub")
#loc96 = loc("shift_right_logical")
#loc97 = loc("or")
#loc98 = loc("xor")
#loc99 = loc("convert_element_type")
#loc102 = loc("jit(clip)")
#loc103 = loc("gt")
#loc104 = loc("vmap(jit(_threefry_split))")
#loc105 = loc("vmap()/slice")
#loc106 = loc("vmap()/squeeze")
#loc108 = loc("vmap()/xor")
#loc109 = loc("le")
#loc110 = loc("select_n")
#loc111 = loc("and")
#loc112 = loc("rem")
#loc113 = loc("mul")
#loc114 = loc("jit")
#loc115 = loc("max")
#loc116 = loc("min")
#loc117 = loc("vmap()/jit")
#loc118 = loc("iota_2x32_shape")
#loc119 = loc("broadcast_in_dim")
#loc120 = loc("stack")
#loc121 = loc("while")
#loc122 = loc("while/cond/lt")
#loc123 = loc("while/body/closed_call")
#loc124 = loc("while/body/add")
#loc125 = loc("iota")
#loc126 = loc("eq")
#loc127 = loc("jit(_normal_real)")
#loc128 = loc("erf_inv")
#loc129 = loc("jit(_uniform)")
#loc130 = loc("")
#loc131 = loc("bitcast_convert_type")
#loc132 = loc("gather")
#loc133 = loc("reduce_and")
#loc134 = loc("lt")
#loc135 = loc("jit(_where)")
#loc136 = loc("ge")
#loc137 = loc("div")
#loc139 = loc("nextafter")
#loc140 = loc("main"(#loc2))
#loc141 = loc("<module>"(#loc3))
#loc143 = loc("RecurrentPPO.init"(#loc5))
#loc144 = loc("Vectorize.init"(#loc6))
#loc145 = loc("RecurrentPPO.init"(#loc7))
#loc146 = loc("Vectorize.init"(#loc8))
#loc147 = loc("Wordle.init"(#loc9))
#loc148 = loc("MCP.init"(#loc10))
#loc149 = loc("Wrapper.init"(#loc11))
#loc150 = loc("Vectorize.init"(#loc12))
#loc151 = loc("Wordle.init"(#loc13))
#loc152 = loc("Wordle.init"(#loc14))
#loc153 = loc("get_obs"(#loc15))
#loc154 = loc("Wordle.init"(#loc16))
#loc155 = loc("get_obs"(#loc17))
#loc156 = loc("get_obs"(#loc18))
#loc157 = loc("MCP.init"(#loc19))
#loc158 = loc("MCP.init"(#loc20))
#loc159 = loc("MinGRUCell.initialize_carry"(#loc21))
#loc160 = loc("SSM.initialize_carry"(#loc22))
#loc161 = loc("Stack.initialize_carry.<locals>.<genexpr>"(#loc23))
#loc162 = loc("Stack.initialize_carry"(#loc24))
#loc163 = loc("Chunked.initialize_carry"(#loc25))
#loc164 = loc("Network.initialize_carry"(#loc26))
#loc165 = loc("RecurrentPPO.init"(#loc27))
#loc166 = loc("add_time_axis"(#loc28))
#loc167 = loc("Timestep.to_sequence"(#loc29))
#loc168 = loc("RecurrentPPO.init"(#loc30))
#loc169 = loc("Timestep.done"(#loc31))
#loc170 = loc("RecurrentPPO.init"(#loc32))
#loc175 = loc("Embed.__call__"(#loc37))
#loc176 = loc("TokenFeatureExtractor.__call__"(#loc38))
#loc177 = loc("TokenFeatureExtractor.__call__"(#loc39))
#loc178 = loc("TokenFeatureExtractor.__call__"(#loc40))
#loc179 = loc("Chunked.__call__"(#loc41))
#loc180 = loc("Network.__call__"(#loc42))
#loc181 = loc("Chunked.__call__"(#loc43))
#loc182 = loc("Chunked.__call__"(#loc44))
#loc184 = loc("Chunked.__call__"(#loc46))
#loc185 = loc("Dense.__call__"(#loc47))
#loc186 = loc("Projection.__call__"(#loc48))
#loc187 = loc("Stack.__call__.<locals>.step"(#loc49))
#loc188 = loc("Stack.__call__"(#loc50))
#loc189 = loc("Chunked.__call__"(#loc51))
#loc190 = loc("Dense.__call__"(#loc52))
#loc191 = loc("Dense.__call__"(#loc53))
#loc192 = loc("Dense.__call__"(#loc54))
#loc193 = loc("Dense.__call__"(#loc55))
#loc194 = loc("Projection.__call__"(#loc56))
#loc195 = loc("SSM.__call__"(#loc57))
#loc196 = loc("MinGRUCell.__call__"(#loc58))
#loc197 = loc("SSM.__call__"(#loc59))
#loc198 = loc("MinGRUCell.__call__"(#loc60))
#loc199 = loc("MinGRUCell.__call__"(#loc61))
#loc200 = loc("MinGRUCell.__call__"(#loc62))
#loc201 = loc("MinGRUCell.__call__"(#loc63))
#loc202 = loc("broadcast_done"(#loc64))
#loc203 = loc("SSM.__call__"(#loc65))
#loc204 = loc("SSM.__call__"(#loc66))
#loc205 = loc("SSM.__call__"(#loc67))
#loc206 = loc("SSM.__call__"(#loc68))
#loc207 = loc("SSM.__call__"(#loc69))
#loc208 = loc("SSM.__call__"(#loc70))
#loc209 = loc("SSM.__call__"(#loc71))
#loc210 = loc("SSM.__call__"(#loc72))
#loc211 = loc("binary_operator"(#loc73))
#loc212 = loc("binary_operator"(#loc74))
#loc213 = loc("binary_operator"(#loc75))
#loc214 = loc("SSM.__call__"(#loc76))
#loc215 = loc("SSM.__call__"(#loc77))
#loc216 = loc("SSM.__call__"(#loc78))
#loc217 = loc("SSM.__call__"(#loc79))
#loc218 = loc("ActorCritic.__call__"(#loc80))
#loc219 = loc("Network.__call__"(#loc81))
#loc220 = loc("ActorCritic.__call__"(#loc82))
#loc221 = loc("tree_zeros_like.<locals>.<lambda>"(#loc83))
#loc222 = loc("tree_zeros_like"(#loc84))
#loc223 = loc("scale_by_adam.<locals>.init_fn"(#loc85))
#loc224 = loc("chain.<locals>.init_fn.<locals>.<genexpr>"(#loc86))
#loc225 = loc("chain.<locals>.init_fn"(#loc87))
#loc226 = loc("RecurrentPPO.init"(#loc88))
#loc227 = loc("scale_by_adam.<locals>.init_fn"(#loc89))
#loc228 = loc("threefry2x32:"(#loc90))
#loc231 = loc("jit:"(#loc114))
#loc232 = loc("jit:"(#loc117))
#loc233 = loc("closed_call:"(#loc123))
#loc234 = loc(callsite(#loc140 at #loc141))
#loc235 = loc(callsite(#loc144 at #loc145))
#loc237 = loc(callsite(#loc180 at #loc174))
#loc238 = loc("jit"(#loc142))
#loc239 = loc("iota_2x32_shape"(#loc142))
#loc240 = loc("slice"(#loc142))
#loc241 = loc("squeeze"(#loc142))
#loc242 = loc("stack"(#loc142))
#loc243 = loc("xor"(#loc142))
#loc244 = loc("add"(#loc142))
#loc245 = loc(callsite(#loc142 at #loc142))
#loc246 = loc("while/body/closed_call"(#loc142))
#loc248 = loc("jit(init)"(#loc234))
#loc249 = loc(callsite(#loc142 at #loc234))
#loc250 = loc(callsite(#loc143 at #loc234))
#loc251 = loc(callsite(#loc145 at #loc234))
#loc252 = loc(callsite(#loc165 at #loc234))
#loc253 = loc(callsite(#loc168 at #loc234))
#loc254 = loc(callsite(#loc170 at #loc234))
#loc256 = loc(callsite(#loc174 at #loc234))
#loc257 = loc(callsite(#loc189 at #loc237))
#loc258 = loc(callsite(#loc226 at #loc234))
#loc259 = loc("jit:"(#loc238))
#loc260 = loc("while"(#loc245))
#loc261 = loc(callsite(#loc245 at #loc142))
#loc262 = loc("closed_call:"(#loc246))
#loc263 = loc("jit"(#loc235))
#loc264 = loc("iota_2x32_shape"(#loc247))
#loc265 = loc("slice"(#loc247))
#loc266 = loc("squeeze"(#loc247))
#loc267 = loc("stack"(#loc247))
#loc268 = loc("xor"(#loc247))
#loc269 = loc("add"(#loc247))
#loc270 = loc(callsite(#loc247 at #loc247))
#loc271 = loc("while/body/closed_call"(#loc247))
#loc272 = loc(callsite(#loc142 at #loc249))
#loc273 = loc("jit(init)/slice"(#loc250))
#loc274 = loc("jit(init)/squeeze"(#loc250))
#loc275 = loc(callsite(#loc144 at #loc251))
#loc276 = loc(callsite(#loc146 at #loc251))
#loc277 = loc(callsite(#loc150 at #loc251))
#loc278 = loc(callsite(#loc164 at #loc252))
#loc279 = loc(callsite(#loc167 at #loc253))
#loc280 = loc(callsite(#loc169 at #loc254))
#loc282 = loc(callsite(#loc173 at #loc256))
#loc283 = loc(callsite(#loc180 at #loc256))
#loc284 = loc(callsite(#loc188 at #loc257))
#loc285 = loc(callsite(#loc219 at #loc256))
#loc286 = loc(callsite(#loc225 at #loc258))
#loc287 = loc("while/cond/lt"(#loc261))
#loc288 = loc("while/body/closed_call"(#loc261))
#loc289 = loc("while/body/add"(#loc261))
#loc290 = loc("jit:"(#loc263))
#loc291 = loc("while"(#loc270))
#loc292 = loc(callsite(#loc270 at #loc247))
#loc293 = loc("closed_call:"(#loc271))
#loc294 = loc("jit(init)/jit(_threefry_split)"(#loc272))
#loc295 = loc(callsite(#loc235 at #loc275))
#loc296 = loc("jit(init)/broadcast_in_dim"(#loc276))
#loc297 = loc("jit(init)/reshape"(#loc276))
#loc298 = loc(callsite(#loc149 at #loc277))
#loc299 = loc("jit(init)/vmap()/broadcast_in_dim"(#loc277))
#loc300 = loc(callsite(#loc163 at #loc278))
#loc301 = loc(callsite(#loc166 at #loc279))
#loc302 = loc("jit(init)/or"(#loc280))
#loc303 = loc(callsite(#loc172 at #loc282))
#loc304 = loc(callsite(#loc176 at #loc282))
#loc305 = loc(callsite(#loc177 at #loc282))
#loc306 = loc(callsite(#loc178 at #loc282))
#loc307 = loc(callsite(#loc179 at #loc283))
#loc308 = loc(callsite(#loc181 at #loc283))
#loc309 = loc(callsite(#loc182 at #loc283))
#loc310 = loc(callsite(#loc184 at #loc283))
#loc311 = loc(callsite(#loc189 at #loc283))
#loc312 = loc(callsite(#loc187 at #loc284))
#loc313 = loc(callsite(#loc218 at #loc285))
#loc314 = loc(callsite(#loc220 at #loc285))
#loc315 = loc(callsite(#loc224 at #loc286))
#loc316 = loc("while/cond/lt"(#loc292))
#loc317 = loc("while/body/closed_call"(#loc292))
#loc318 = loc("while/body/add"(#loc292))
#loc319 = loc("jit"(#loc281))
#loc320 = loc("shift_right_logical"(#loc281))
#loc321 = loc("broadcast_in_dim"(#loc281))
#loc322 = loc("and"(#loc281))
#loc323 = loc("concatenate"(#loc281))
#loc324 = loc("slice"(#loc281))
#loc325 = loc("squeeze"(#loc281))
#loc326 = loc("split"(#loc281))
#loc327 = loc("xor"(#loc281))
#loc328 = loc("add"(#loc281))
#loc329 = loc(callsite(#loc281 at #loc281))
#loc330 = loc("while/body/closed_call"(#loc281))
#loc331 = loc("jit(init)/jit(_threefry_split)"(#loc295))
#loc332 = loc(callsite(#loc148 at #loc298))
#loc333 = loc(callsite(#loc157 at #loc298))
#loc334 = loc(callsite(#loc158 at #loc298))
#loc335 = loc(callsite(#loc162 at #loc300))
#loc336 = loc("jit(init)/broadcast_in_dim"(#loc301))
#loc337 = loc(callsite(#loc171 at #loc303))
#loc338 = loc(callsite(#loc175 at #loc303))
#loc339 = loc("jit(init)/Network/feature_extractor/broadcast_in_dim"(#loc304))
#loc340 = loc(callsite(#loc175 at #loc305))
#loc341 = loc("jit(init)/Network/feature_extractor/concatenate"(#loc306))
#loc342 = loc("jit(init)/Network/torso/reshape"(#loc307))
#loc343 = loc("jit(init)/Network/torso/broadcast_in_dim"(#loc308))
#loc344 = loc("jit(init)/Network/torso/broadcast_in_dim"(#loc309))
#loc345 = loc("jit(init)/Network/torso/scatter"(#loc309))
#loc346 = loc("jit(init)/Network/torso/reshape"(#loc310))
#loc347 = loc(callsite(#loc188 at #loc311))
#loc348 = loc(callsite(#loc197 at #loc312))
#loc349 = loc(callsite(#loc185 at #loc313))
#loc350 = loc(callsite(#loc185 at #loc314))
#loc351 = loc(callsite(#loc190 at #loc314))
#loc352 = loc(callsite(#loc225 at #loc315))
#loc353 = loc("jit:"(#loc319))
#loc354 = loc("while"(#loc329))
#loc355 = loc(callsite(#loc329 at #loc281))
#loc356 = loc("closed_call:"(#loc330))
#loc357 = loc(callsite(#loc147 at #loc332))
#loc358 = loc(callsite(#loc151 at #loc332))
#loc359 = loc(callsite(#loc152 at #loc332))
#loc360 = loc(callsite(#loc154 at #loc332))
#loc361 = loc("jit(init)/vmap()/broadcast_in_dim"(#loc333))
#loc362 = loc("jit(init)/vmap()/broadcast_in_dim"(#loc334))
#loc363 = loc(callsite(#loc161 at #loc335))
#loc364 = loc(callsite(#loc281 at #loc337))
#loc365 = loc("jit(init)/Network/feature_extractor/token_embedding.setup/jit(_normal)"(#loc337))
#loc366 = loc("jit(init)/Network/feature_extractor/token_embedding.setup/sqrt"(#loc337))
#loc367 = loc("jit(init)/Network/feature_extractor/token_embedding.setup/mul"(#loc337))
#loc368 = loc("jit(init)/Network/feature_extractor/token_embedding/jit(_take)"(#loc338))
#loc369 = loc("jit(init)/Network/feature_extractor/token_embedding/jit(_take)"(#loc340))
#loc370 = loc(callsite(#loc187 at #loc347))
#loc371 = loc(callsite(#loc198 at #loc348))
#loc372 = loc(callsite(#loc281 at #loc349))
#loc373 = loc("jit(init)/Network/head/actor/sqrt"(#loc349))
#loc374 = loc("jit(init)/Network/head/actor/div"(#loc349))
#loc375 = loc("jit(init)/Network/head/actor/jit(_truncated_normal)"(#loc349))
#loc376 = loc("jit(init)/Network/head/actor/mul"(#loc349))
#loc377 = loc(callsite(#loc281 at #loc350))
#loc378 = loc("jit(init)/Network/head/critic/sqrt"(#loc350))
#loc379 = loc("jit(init)/Network/head/critic/div"(#loc350))
#loc380 = loc("jit(init)/Network/head/critic/jit(_truncated_normal)"(#loc350))
#loc381 = loc("jit(init)/Network/head/critic/mul"(#loc350))
#loc382 = loc(callsite(#loc281 at #loc351))
#loc383 = loc("jit(init)/Network/head/critic/broadcast_in_dim"(#loc351))
#loc384 = loc(callsite(#loc224 at #loc352))
#loc385 = loc("while/cond/lt"(#loc355))
#loc386 = loc("while/body/closed_call"(#loc355))
#loc387 = loc("while/body/add"(#loc355))
#loc388 = loc("jit(init)/Network/feature_extractor/token_embedding.setup/jit"(#loc337))
#loc389 = loc("jit(init)/Network/feature_extractor/token_embedding/jit"(#loc338))
#loc390 = loc("jit(init)/Network/feature_extractor/token_embedding/jit"(#loc340))
#loc391 = loc("jit(init)/Network/head/actor/jit"(#loc349))
#loc392 = loc("jit(init)/Network/head/critic/jit"(#loc350))
#loc393 = loc("jit(init)/vmap(jit(_randint))"(#loc357))
#loc394 = loc("jit(init)/vmap()/lt"(#loc358))
#loc395 = loc("jit(init)/vmap()/add"(#loc358))
#loc396 = loc("jit(init)/vmap()/select_n"(#loc358))
#loc397 = loc("jit(init)/vmap()/broadcast_in_dim"(#loc358))
#loc398 = loc("jit(init)/vmap()/concatenate"(#loc358))
#loc399 = loc("jit(init)/vmap()/gather"(#loc358))
#loc400 = loc("jit(init)/vmap()/squeeze"(#loc358))
#loc401 = loc("jit(init)/vmap()/broadcast_in_dim"(#loc359))
#loc402 = loc(callsite(#loc153 at #loc360))
#loc403 = loc(callsite(#loc155 at #loc360))
#loc404 = loc(callsite(#loc156 at #loc360))
#loc405 = loc(callsite(#loc160 at #loc363))
#loc406 = loc("jit(init)/Network/feature_extractor/token_embedding.setup/jit(_threefry_fold_in)"(#loc364))
#loc407 = loc(callsite(#loc186 at #loc370))
#loc408 = loc(callsite(#loc194 at #loc370))
#loc409 = loc(callsite(#loc195 at #loc370))
#loc410 = loc(callsite(#loc197 at #loc370))
#loc411 = loc(callsite(#loc203 at #loc370))
#loc412 = loc(callsite(#loc204 at #loc370))
#loc413 = loc(callsite(#loc205 at #loc370))
#loc414 = loc(callsite(#loc206 at #loc370))
#loc415 = loc(callsite(#loc207 at #loc370))
#loc416 = loc(callsite(#loc208 at #loc370))
#loc417 = loc(callsite(#loc209 at #loc370))
#loc418 = loc(callsite(#loc210 at #loc370))
#loc419 = loc(callsite(#loc214 at #loc370))
#loc420 = loc(callsite(#loc215 at #loc370))
#loc421 = loc(callsite(#loc216 at #loc370))
#loc422 = loc(callsite(#loc217 at #loc370))
#loc423 = loc("jit(init)/Network/head/actor/jit(_threefry_fold_in)"(#loc372))
#loc424 = loc("jit(init)/Network/head/critic/jit(_threefry_fold_in)"(#loc377))
#loc425 = loc("jit(init)/Network/head/critic/jit(_threefry_fold_in)"(#loc382))
#loc426 = loc(callsite(#loc223 at #loc384))
#loc427 = loc(callsite(#loc227 at #loc384))
#loc428 = loc("jit(init)/vmap()/jit"(#loc357))
#loc429 = loc("jit:"(#loc388))
#loc430 = loc("jit:"(#loc389))
#loc431 = loc("jit:"(#loc390))
#loc432 = loc("jit:"(#loc391))
#loc433 = loc("jit:"(#loc392))
#loc434 = loc("jit(init)/vmap(jit(_one_hot))"(#loc402))
#loc435 = loc("jit(init)/vmap()/reshape"(#loc403))
#loc436 = loc("jit(init)/vmap(jit(_where))"(#loc404))
#loc437 = loc(callsite(#loc159 at #loc405))
#loc438 = loc(callsite(#loc185 at #loc407))
#loc439 = loc(callsite(#loc190 at #loc407))
#loc440 = loc(callsite(#loc191 at #loc407))
#loc441 = loc(callsite(#loc192 at #loc407))
#loc442 = loc(callsite(#loc193 at #loc407))
#loc443 = loc("jit(init)/Network/torso/block/blocks_0/jit(relu)"(#loc408))
#loc444 = loc(callsite(#loc159 at #loc409))
#loc445 = loc(callsite(#loc196 at #loc410))
#loc446 = loc(callsite(#loc198 at #loc410))
#loc447 = loc(callsite(#loc199 at #loc410))
#loc448 = loc(callsite(#loc200 at #loc410))
#loc449 = loc(callsite(#loc201 at #loc410))
#loc450 = loc(callsite(#loc202 at #loc411))
#loc451 = loc("jit(init)/Network/torso/block/blocks_1/convert_element_type"(#loc412))
#loc452 = loc("jit(init)/Network/torso/block/blocks_1/mul"(#loc412))
#loc453 = loc("jit(init)/Network/torso/block/blocks_1/broadcast_in_dim"(#loc413))
#loc454 = loc("jit(init)/Network/torso/block/blocks_1/mul"(#loc414))
#loc455 = loc("jit(init)/Network/torso/block/blocks_1/add"(#loc415))
#loc456 = loc("jit(init)/Network/torso/block/blocks_1/convert_element_type"(#loc416))
#loc457 = loc("jit(init)/Network/torso/block/blocks_1/sub"(#loc416))
#loc458 = loc("jit(init)/Network/torso/block/blocks_1/convert_element_type"(#loc417))
#loc459 = loc("jit(init)/Network/torso/block/blocks_1/mul"(#loc417))
#loc460 = loc("jit(init)/Network/torso/block/blocks_1/slice"(#loc418))
#loc461 = loc(callsite(#loc211 at #loc418))
#loc462 = loc(callsite(#loc212 at #loc418))
#loc463 = loc(callsite(#loc213 at #loc418))
#loc464 = loc("jit(init)/Network/torso/block/blocks_1/concatenate"(#loc418))
#loc465 = loc("jit(init)/Network/torso/block/blocks_1/pad"(#loc418))
#loc466 = loc("jit(init)/Network/torso/block/blocks_1/add"(#loc418))
#loc467 = loc("jit(init)/Network/torso/block/blocks_1/broadcast_in_dim"(#loc419))
#loc468 = loc("jit(init)/Network/torso/block/blocks_1/mul"(#loc420))
#loc469 = loc("jit(init)/Network/torso/block/blocks_1/add"(#loc421))
#loc470 = loc("jit(init)/Network/torso/block/blocks_1/jit(_take)"(#loc422))
#loc471 = loc(callsite(#loc222 at #loc426))
#loc472 = loc(callsite(#loc222 at #loc427))
#loc473 = loc("jit:"(#loc428))
#loc474 = loc("jit(init)/vmap()/jit"(#loc402))
#loc475 = loc("jit(init)/vmap()/jit"(#loc404))
#loc476 = loc("jit(init)/Network/torso/block/blocks_1/jit"(#loc422))
#loc477 = loc("jit(init)/broadcast_in_dim"(#loc437))
#loc478 = loc(callsite(#loc281 at #loc438))
#loc479 = loc("jit(init)/Network/torso/block/blocks_0/Dense_0/sqrt"(#loc438))
#loc480 = loc("jit(init)/Network/torso/block/blocks_0/Dense_0/div"(#loc438))
#loc481 = loc("jit(init)/Network/torso/block/blocks_0/Dense_0/jit(_truncated_normal)"(#loc438))
#loc482 = loc("jit(init)/Network/torso/block/blocks_0/Dense_0/mul"(#loc438))
#loc483 = loc(callsite(#loc281 at #loc439))
#loc484 = loc("jit(init)/Network/torso/block/blocks_0/Dense_0/broadcast_in_dim"(#loc439))
#loc485 = loc("jit(init)/Network/torso/block/blocks_0/Dense_0/dot_general"(#loc440))
#loc486 = loc("jit(init)/Network/torso/block/blocks_0/Dense_0/reshape"(#loc441))
#loc487 = loc("jit(init)/Network/torso/block/blocks_0/Dense_0/add"(#loc442))
#loc488 = loc("jit(init)/Network/torso/block/blocks_1/broadcast_in_dim"(#loc444))
#loc489 = loc(callsite(#loc185 at #loc445))
#loc490 = loc(callsite(#loc191 at #loc445))
#loc491 = loc(callsite(#loc371 at #loc446))
#loc492 = loc("jit(init)/Network/torso/block/blocks_1/cell/sub"(#loc447))
#loc493 = loc(callsite(#loc185 at #loc448))
#loc494 = loc(callsite(#loc191 at #loc448))
#loc495 = loc("jit(init)/Network/torso/block/blocks_1/cell/mul"(#loc449))
#loc496 = loc("jit(init)/Network/torso/block/blocks_1/reshape"(#loc450))
#loc497 = loc("jit(init)/Network/torso/block/blocks_1/mul"(#loc461))
#loc498 = loc("jit(init)/Network/torso/block/blocks_1/mul"(#loc462))
#loc499 = loc("jit(init)/Network/torso/block/blocks_1/add"(#loc463))
#loc500 = loc(callsite(#loc221 at #loc471))
#loc501 = loc(callsite(#loc221 at #loc472))
#loc502 = loc("jit:"(#loc474))
#loc503 = loc("jit:"(#loc475))
#loc504 = loc("jit(init)/Network/torso/block/blocks_0/Dense_0/jit"(#loc438))
#loc505 = loc("jit:"(#loc476))
#loc506 = loc("jit(init)/Network/torso/block/blocks_0/Dense_0/jit(_threefry_fold_in)"(#loc478))
#loc507 = loc("jit(init)/Network/torso/block/blocks_0/Dense_0/jit(_threefry_fold_in)"(#loc483))
#loc508 = loc(callsite(#loc281 at #loc489))
#loc509 = loc("jit(init)/Network/torso/block/blocks_1/cell/update_gate/sqrt"(#loc489))
#loc510 = loc("jit(init)/Network/torso/block/blocks_1/cell/update_gate/div"(#loc489))
#loc511 = loc("jit(init)/Network/torso/block/blocks_1/cell/update_gate/jit(_truncated_normal)"(#loc489))
#loc512 = loc("jit(init)/Network/torso/block/blocks_1/cell/update_gate/mul"(#loc489))
#loc513 = loc("jit(init)/Network/torso/block/blocks_1/cell/update_gate/dot_general"(#loc490))
#loc514 = loc("jit(init)/Network/torso/block/blocks_1/cell/neg"(#loc491))
#loc515 = loc("jit(init)/Network/torso/block/blocks_1/cell/exp"(#loc491))
#loc516 = loc("jit(init)/Network/torso/block/blocks_1/cell/add"(#loc491))
#loc517 = loc("jit(init)/Network/torso/block/blocks_1/cell/div"(#loc491))
#loc518 = loc(callsite(#loc281 at #loc493))
#loc519 = loc("jit(init)/Network/torso/block/blocks_1/cell/candidate/sqrt"(#loc493))
#loc520 = loc("jit(init)/Network/torso/block/blocks_1/cell/candidate/div"(#loc493))
#loc521 = loc("jit(init)/Network/torso/block/blocks_1/cell/candidate/jit(_truncated_normal)"(#loc493))
#loc522 = loc("jit(init)/Network/torso/block/blocks_1/cell/candidate/mul"(#loc493))
#loc523 = loc("jit(init)/Network/torso/block/blocks_1/cell/candidate/dot_general"(#loc494))
#loc524 = loc("jit(init)/broadcast_in_dim"(#loc500))
#loc525 = loc("jit(init)/broadcast_in_dim"(#loc501))
#loc526 = loc("jit:"(#loc504))
#loc527 = loc("jit(init)/Network/torso/block/blocks_1/cell/update_gate/jit(_threefry_fold_in)"(#loc508))
#loc528 = loc("jit(init)/Network/torso/block/blocks_1/cell/candidate/jit(_threefry_fold_in)"(#loc518))
