#loc = loc(unknown)
#loc1 = loc("key")
#loc4 = loc("/Users/noahfarr/reinforcement-learning/src/algorithms/algorithms/recurrent_ppo.py":298:50 to :74)
#loc6 = loc("/Users/noahfarr/reinforcement-learning/src/environments/environments/wrappers/vectorize.py":20:21 to :54)
#loc7 = loc("/Users/noahfarr/reinforcement-learning/src/algorithms/algorithms/recurrent_ppo.py":300:38 to 302:9)
#loc32 = loc("/Users/noahfarr/reinforcement-learning/.venv/lib/python3.13/site-packages/flax/linen/linear.py":263:13 to 268:5)
#loc33 = loc("/Users/noahfarr/noahfarr.github.io/tools/whlo/export_ppo_wordle.py":121:24 to :77)
#loc34 = loc("/Users/noahfarr/reinforcement-learning/src/algorithms/algorithms/recurrent_ppo.py":307:17 to 314:9)
#loc91 = loc("vmap()")
#loc113 = loc("erf")
#loc125 = loc("RecurrentPPO.init"(#loc4))
#loc127 = loc("Vectorize.init"(#loc6))
#loc128 = loc("RecurrentPPO.init"(#loc7))
#loc153 = loc("Dense.__call__"(#loc32))
#loc154 = loc("MaskedActorCriticNetwork.__call__"(#loc33))
#loc155 = loc("RecurrentPPO.init"(#loc34))
#loc202 = loc(callsite(#loc127 at #loc128))
#loc203 = loc(callsite(#loc154 at #loc155))
#loc221 = loc(callsite(#loc153 at #loc203))
module @jit_init attributes {jax.uses_shape_polymorphism = false, mhlo.num_partitions = 1 : i32, mhlo.num_replicas = 1 : i32} {
  func.func public @main(%arg0: tensor<2xui32> loc("key")) -> (tensor<i32> {jax.result_info = "result.step"}, tensor<64x16xi1> {jax.result_info = "result.timestep.obs['action_mask']"}, tensor<64x15xf32> {jax.result_info = "result.timestep.obs['observation']"}, tensor<64xi32> {jax.result_info = "result.timestep.action"}, tensor<64xf32> {jax.result_info = "result.timestep.reward"}, tensor<64xi1> {jax.result_info = "result.timestep.terminated"}, tensor<64xi1> {jax.result_info = "result.timestep.truncated"}, tensor<64xf32> {jax.result_info = "result.timestep.info['guess_count']"}, tensor<64xf32> {jax.result_info = "result.timestep.info['illegal_guesses']"}, tensor<64xf32> {jax.result_info = "result.timestep.info['matched_secret']"}, tensor<64x5xi32> {jax.result_info = "result.environment_state.secret_answer"}, tensor<64x5xi32> {jax.result_info = "result.environment_state.guess_feedback"}, tensor<64xi1> {jax.result_info = "result.environment_state.guess_revealed"}, tensor<64xi32> {jax.result_info = "result.environment_state.guess_count"}, tensor<64xi1> {jax.result_info = "result.environment_state.matched_secret"}, tensor<64x32xf32> {jax.result_info = "result.carry[1]"}, tensor<32x16xf32> {jax.result_info = "result.params['params']['actor']['kernel']"}, tensor<1xf32> {jax.result_info = "result.params['params']['critic']['bias']"}, tensor<32x1xf32> {jax.result_info = "result.params['params']['critic']['kernel']"}, tensor<32xf32> {jax.result_info = "result.params['params']['obs']['bias']"}, tensor<15x32xf32> {jax.result_info = "result.params['params']['obs']['kernel']"}, tensor<32xf32> {jax.result_info = "result.params['params']['torso']['blocks_0']['Dense_0']['bias']"}, tensor<48x32xf32> {jax.result_info = "result.params['params']['torso']['blocks_0']['Dense_0']['kernel']"}, tensor<32x32xf32> {jax.result_info = "result.params['params']['torso']['blocks_1']['cell']['candidate']['kernel']"}, tensor<32x32xf32> {jax.result_info = "result.params['params']['torso']['blocks_1']['cell']['update_gate']['kernel']"}, tensor<i32> {jax.result_info = "result.optimizer_state[1][0].count"}, tensor<32x16xf32> {jax.result_info = "result.optimizer_state[1][0].mu['params']['actor']['kernel']"}, tensor<1xf32> {jax.result_info = "result.optimizer_state[1][0].mu['params']['critic']['bias']"}, tensor<32x1xf32> {jax.result_info = "result.optimizer_state[1][0].mu['params']['critic']['kernel']"}, tensor<32xf32> {jax.result_info = "result.optimizer_state[1][0].mu['params']['obs']['bias']"}, tensor<15x32xf32> {jax.result_info = "result.optimizer_state[1][0].mu['params']['obs']['kernel']"}, tensor<32xf32> {jax.result_info = "result.optimizer_state[1][0].mu['params']['torso']['blocks_0']['Dense_0']['bias']"}, tensor<48x32xf32> {jax.result_info = "result.optimizer_state[1][0].mu['params']['torso']['blocks_0']['Dense_0']['kernel']"}, tensor<32x32xf32> {jax.result_info = "result.optimizer_state[1][0].mu['params']['torso']['blocks_1']['cell']['candidate']['kernel']"}, tensor<32x32xf32> {jax.result_info = "result.optimizer_state[1][0].mu['params']['torso']['blocks_1']['cell']['update_gate']['kernel']"}, tensor<32x16xf32> {jax.result_info = "result.optimizer_state[1][0].nu['params']['actor']['kernel']"}, tensor<1xf32> {jax.result_info = "result.optimizer_state[1][0].nu['params']['critic']['bias']"}, tensor<32x1xf32> {jax.result_info = "result.optimizer_state[1][0].nu['params']['critic']['kernel']"}, tensor<32xf32> {jax.result_info = "result.optimizer_state[1][0].nu['params']['obs']['bias']"}, tensor<15x32xf32> {jax.result_info = "result.optimizer_state[1][0].nu['params']['obs']['kernel']"}, tensor<32xf32> {jax.result_info = "result.optimizer_state[1][0].nu['params']['torso']['blocks_0']['Dense_0']['bias']"}, tensor<48x32xf32> {jax.result_info = "result.optimizer_state[1][0].nu['params']['torso']['blocks_0']['Dense_0']['kernel']"}, tensor<32x32xf32> {jax.result_info = "result.optimizer_state[1][0].nu['params']['torso']['blocks_1']['cell']['candidate']['kernel']"}, tensor<32x32xf32> {jax.result_info = "result.optimizer_state[1][0].nu['params']['torso']['blocks_1']['cell']['update_gate']['kernel']"}) {
    %c = stablehlo.constant dense<3831938679> : tensor<ui32> loc(#loc214)
    %c_0 = stablehlo.constant dense<3491981184> : tensor<ui32> loc(#loc214)
    %cst = stablehlo.constant dense<-3.40282347E+38> : tensor<f32> loc(#loc214)
    %c_1 = stablehlo.constant dense<2876566538> : tensor<ui32> loc(#loc214)
    %c_2 = stablehlo.constant dense<1> : tensor<i32> loc(#loc214)
    %c_3 = stablehlo.constant dense<1521533140> : tensor<ui32> loc(#loc214)
    %cst_4 = stablehlo.constant dense<1.000000e+00> : tensor<f32> loc(#loc)
    %cst_5 = stablehlo.constant dense<3.125000e-02> : tensor<f32> loc(#loc)
    %c_6 = stablehlo.constant dense<1543552912> : tensor<ui32> loc(#loc214)
    %c_7 = stablehlo.constant dense<-1> : tensor<i32> loc(#loc)
    %c_8 = stablehlo.constant dense<3178254832> : tensor<ui32> loc(#loc214)
    %cst_9 = stablehlo.constant dense<0.020833334> : tensor<f32> loc(#loc214)
    %c_10 = stablehlo.constant dense<1157806390> : tensor<ui32> loc(#loc214)
    %c_11 = stablehlo.constant dense<3085490160> : tensor<ui32> loc(#loc214)
    %c_12 = stablehlo.constant dense<2> : tensor<i32> loc(#loc)
    %c_13 = stablehlo.constant dense<-2> : tensor<i32> loc(#loc)
    %cst_14 = stablehlo.constant dense<0.879625678> : tensor<f32> loc(#loc)
    %cst_15 = stablehlo.constant dense<0.0666666701> : tensor<f32> loc(#loc214)
    %c_16 = stablehlo.constant dense<2075703144> : tensor<ui32> loc(#loc214)
    %c_17 = stablehlo.constant dense<true> : tensor<i1> loc(#loc)
    %cst_18 = stablehlo.constant dense<0.000000e+00> : tensor<f32> loc(#loc)
    %c_19 = stablehlo.constant dense<false> : tensor<i1> loc(#loc)
    %c_20 = stablehlo.constant dense<5> : tensor<i32> loc(#loc214)
    %c_21 = stablehlo.constant dense<16> : tensor<i32> loc(#loc)
    %c_22 = stablehlo.constant dense<0> : tensor<i32> loc(#loc)
    %c_23 = stablehlo.constant dense<[[0, 20, 3, 8, 14], [1, 17, 8, 2, 10], [2, 7, 0, 8, 17], [2, 11, 14, 20, 3], [2, 17, 0, 13, 4], [5, 11, 8, 13, 19], [5, 17, 14, 18, 19], [6, 11, 0, 25, 4], [6, 17, 0, 15, 4], [7, 14, 20, 18, 4], [11, 4, 12, 14, 13], [12, 14, 20, 13, 3], [15, 11, 0, 13, 19], [18, 11, 0, 19, 4], [18, 15, 0, 3, 4], [18, 19, 14, 17, 12]]> : tensor<16x5xi32> loc(#loc214)
    %0 = call @_threefry_split(%arg0) : (tensor<2xui32>) -> tensor<3x2xui32> loc(#loc276)
    %1 = stablehlo.slice %0 [0:1, 0:2] : (tensor<3x2xui32>) -> tensor<1x2xui32> loc(#loc239)
    %2 = stablehlo.reshape %1 : (tensor<1x2xui32>) -> tensor<2xui32> loc(#loc240)
    %3 = stablehlo.slice %0 [1:2, 0:2] : (tensor<3x2xui32>) -> tensor<1x2xui32> loc(#loc239)
    %4 = stablehlo.reshape %3 : (tensor<1x2xui32>) -> tensor<2xui32> loc(#loc240)
    %5 = call @_threefry_split_0(%2) : (tensor<2xui32>) -> tensor<64x2xui32> loc(#loc310)
    %6 = stablehlo.broadcast_in_dim %5, dims = [0, 2] : (tensor<64x2xui32>) -> tensor<64x1x2xui32> loc(#loc278)
    %7 = stablehlo.reshape %6 : (tensor<64x1x2xui32>) -> tensor<64x2xui32> loc(#loc279)
    %8 = call @_randint(%7, %c_22, %c_21) : (tensor<64x2xui32>, tensor<i32>, tensor<i32>) -> tensor<64xi32> loc(#loc379)
    %9 = stablehlo.broadcast_in_dim %c_22, dims = [] : (tensor<i32>) -> tensor<64xi32> loc(#loc380)
    %10 = stablehlo.compare LT, %8, %9, SIGNED : (tensor<64xi32>, tensor<64xi32>) -> tensor<64xi1> loc(#loc380)
    %11 = stablehlo.broadcast_in_dim %c_21, dims = [] : (tensor<i32>) -> tensor<64xi32> loc(#loc381)
    %12 = stablehlo.add %8, %11 : tensor<64xi32> loc(#loc381)
    %13 = stablehlo.select %10, %12, %8 : tensor<64xi1>, tensor<64xi32> loc(#loc382)
    %14 = stablehlo.compare LT, %c_22, %c_22, SIGNED : (tensor<i32>, tensor<i32>) -> tensor<i1> loc(#loc380)
    %15 = stablehlo.add %c_22, %c_20 : tensor<i32> loc(#loc381)
    %16 = stablehlo.select %14, %15, %c_22 : tensor<i1>, tensor<i32> loc(#loc382)
    %17 = stablehlo.broadcast_in_dim %13, dims = [0] : (tensor<64xi32>) -> tensor<64x1xi32> loc(#loc383)
    %18 = stablehlo.broadcast_in_dim %16, dims = [] : (tensor<i32>) -> tensor<64x1xi32> loc(#loc383)
    %19 = stablehlo.concatenate %17, %18, dim = 1 : (tensor<64x1xi32>, tensor<64x1xi32>) -> tensor<64x2xi32> loc(#loc384)
    %20 = "stablehlo.gather"(%c_23, %19) <{dimension_numbers = #stablehlo.gather<offset_dims = [1, 2], start_index_map = [0, 1], index_vector_dim = 1>, slice_sizes = array<i64: 1, 5>}> : (tensor<16x5xi32>, tensor<64x2xi32>) -> tensor<64x1x5xi32> loc(#loc385)
    %21 = stablehlo.reshape %20 : (tensor<64x1x5xi32>) -> tensor<64x5xi32> loc(#loc386)
    %22 = stablehlo.broadcast_in_dim %c_22, dims = [] : (tensor<i32>) -> tensor<5xi32> loc(#loc387)
    %23 = call @_one_hot(%22) : (tensor<5xi32>) -> tensor<5x3xf32> loc(#loc423)
    %24 = stablehlo.reshape %23 : (tensor<5x3xf32>) -> tensor<15xf32> loc(#loc424)
    %25 = call @_where(%c_19, %24, %cst_18) : (tensor<i1>, tensor<15xf32>, tensor<f32>) -> tensor<15xf32> loc(#loc425)
    %26 = stablehlo.broadcast_in_dim %c_17, dims = [] : (tensor<i1>) -> tensor<16xi1> loc(#loc391)
    %27 = stablehlo.broadcast_in_dim %22, dims = [1] : (tensor<5xi32>) -> tensor<64x5xi32> loc(#loc281)
    %28 = stablehlo.broadcast_in_dim %c_19, dims = [] : (tensor<i1>) -> tensor<64xi1> loc(#loc281)
    %29 = stablehlo.broadcast_in_dim %c_22, dims = [] : (tensor<i32>) -> tensor<64xi32> loc(#loc281)
    %30 = stablehlo.broadcast_in_dim %c_19, dims = [] : (tensor<i1>) -> tensor<64xi1> loc(#loc281)
    %31 = stablehlo.broadcast_in_dim %26, dims = [1] : (tensor<16xi1>) -> tensor<64x16xi1> loc(#loc281)
    %32 = stablehlo.broadcast_in_dim %25, dims = [1] : (tensor<15xf32>) -> tensor<64x15xf32> loc(#loc281)
    %33 = stablehlo.broadcast_in_dim %c_22, dims = [] : (tensor<i32>) -> tensor<64xi32> loc(#loc281)
    %34 = stablehlo.broadcast_in_dim %cst_18, dims = [] : (tensor<f32>) -> tensor<64xf32> loc(#loc281)
    %35 = stablehlo.broadcast_in_dim %c_17, dims = [] : (tensor<i1>) -> tensor<64xi1> loc(#loc281)
    %36 = stablehlo.broadcast_in_dim %c_19, dims = [] : (tensor<i1>) -> tensor<64xi1> loc(#loc281)
    %37 = stablehlo.broadcast_in_dim %cst_18, dims = [] : (tensor<f32>) -> tensor<64xf32> loc(#loc281)
    %38 = stablehlo.broadcast_in_dim %cst_18, dims = [] : (tensor<f32>) -> tensor<64xf32> loc(#loc281)
    %39 = stablehlo.broadcast_in_dim %cst_18, dims = [] : (tensor<f32>) -> tensor<64xf32> loc(#loc281)
    %40 = stablehlo.broadcast_in_dim %cst_18, dims = [] : (tensor<f32>) -> tensor<64x32xf32> loc(#loc426)
    %41 = stablehlo.broadcast_in_dim %31, dims = [0, 2] : (tensor<64x16xi1>) -> tensor<64x1x16xi1> loc(#loc314)
    %42 = stablehlo.broadcast_in_dim %32, dims = [0, 2] : (tensor<64x15xf32>) -> tensor<64x1x15xf32> loc(#loc314)
    %43 = stablehlo.broadcast_in_dim %33, dims = [0] : (tensor<64xi32>) -> tensor<64x1xi32> loc(#loc314)
    %44 = stablehlo.broadcast_in_dim %35, dims = [0] : (tensor<64xi1>) -> tensor<64x1xi1> loc(#loc314)
    %45 = stablehlo.broadcast_in_dim %36, dims = [0] : (tensor<64xi1>) -> tensor<64x1xi1> loc(#loc314)
    %46 = stablehlo.or %44, %45 : tensor<64x1xi1> loc(#loc284)
    %47 = call @_threefry_fold_in(%4, %c_16) : (tensor<2xui32>, tensor<ui32>) -> tensor<2xui32> loc(#loc355)
    %48 = stablehlo.sqrt %cst_15 : tensor<f32> loc(#loc316)
    %49 = stablehlo.divide %48, %cst_14 : tensor<f32> loc(#loc317)
    %50 = call @_truncated_normal(%47, %c_13, %c_12) : (tensor<2xui32>, tensor<i32>, tensor<i32>) -> tensor<15x32xf32> loc(#loc318)
    %51 = stablehlo.broadcast_in_dim %49, dims = [] : (tensor<f32>) -> tensor<15x32xf32> loc(#loc319)
    %52 = stablehlo.multiply %50, %51 : tensor<15x32xf32> loc(#loc319)
    %53 = call @_threefry_fold_in(%4, %c_11) : (tensor<2xui32>, tensor<ui32>) -> tensor<2xui32> loc(#loc356)
    %54 = stablehlo.broadcast_in_dim %cst_18, dims = [] : (tensor<f32>) -> tensor<32xf32> loc(#loc321)
    %55 = stablehlo.dot_general %42, %52, contracting_dims = [2] x [0] : (tensor<64x1x15xf32>, tensor<15x32xf32>) -> tensor<64x1x32xf32> loc(#loc322)
    %56 = stablehlo.reshape %54 : (tensor<32xf32>) -> tensor<1x1x32xf32> loc(#loc323)
    %57 = stablehlo.broadcast_in_dim %56, dims = [0, 1, 2] : (tensor<1x1x32xf32>) -> tensor<64x1x32xf32> loc(#loc324)
    %58 = stablehlo.add %55, %57 : tensor<64x1x32xf32> loc(#loc324)
    %59 = call @relu(%58) : (tensor<64x1x32xf32>) -> tensor<64x1x32xf32> loc(#loc290)
    %60 = call @_one_hot_14(%43) : (tensor<64x1xi32>) -> tensor<64x1x16xf32> loc(#loc291)
    %61 = stablehlo.concatenate %59, %60, dim = 2 : (tensor<64x1x32xf32>, tensor<64x1x16xf32>) -> tensor<64x1x48xf32> loc(#loc292)
    %62 = call @_threefry_fold_in(%4, %c_10) : (tensor<2xui32>, tensor<ui32>) -> tensor<2xui32> loc(#loc453)
    %63 = stablehlo.sqrt %cst_9 : tensor<f32> loc(#loc428)
    %64 = stablehlo.divide %63, %cst_14 : tensor<f32> loc(#loc429)
    %65 = call @_truncated_normal_15(%62, %c_13, %c_12) : (tensor<2xui32>, tensor<i32>, tensor<i32>) -> tensor<48x32xf32> loc(#loc430)
    %66 = stablehlo.broadcast_in_dim %64, dims = [] : (tensor<f32>) -> tensor<48x32xf32> loc(#loc431)
    %67 = stablehlo.multiply %65, %66 : tensor<48x32xf32> loc(#loc431)
    %68 = call @_threefry_fold_in(%4, %c_8) : (tensor<2xui32>, tensor<ui32>) -> tensor<2xui32> loc(#loc454)
    %69 = stablehlo.broadcast_in_dim %cst_18, dims = [] : (tensor<f32>) -> tensor<32xf32> loc(#loc433)
    %70 = stablehlo.dot_general %61, %67, contracting_dims = [2] x [0] : (tensor<64x1x48xf32>, tensor<48x32xf32>) -> tensor<64x1x32xf32> loc(#loc434)
    %71 = stablehlo.reshape %69 : (tensor<32xf32>) -> tensor<1x1x32xf32> loc(#loc435)
    %72 = stablehlo.broadcast_in_dim %71, dims = [0, 1, 2] : (tensor<1x1x32xf32>) -> tensor<64x1x32xf32> loc(#loc436)
    %73 = stablehlo.add %70, %72 : tensor<64x1x32xf32> loc(#loc436)
    %74 = call @relu(%73) : (tensor<64x1x32xf32>) -> tensor<64x1x32xf32> loc(#loc398)
    %75 = stablehlo.broadcast_in_dim %cst_18, dims = [] : (tensor<f32>) -> tensor<64x32xf32> loc(#loc437)
    %76 = call @_threefry_fold_in(%4, %c_6) : (tensor<2xui32>, tensor<ui32>) -> tensor<2xui32> loc(#loc477)
    %77 = stablehlo.sqrt %cst_5 : tensor<f32> loc(#loc456)
    %78 = stablehlo.divide %77, %cst_14 : tensor<f32> loc(#loc457)
    %79 = call @_truncated_normal_20(%76, %c_13, %c_12) : (tensor<2xui32>, tensor<i32>, tensor<i32>) -> tensor<32x32xf32> loc(#loc458)
    %80 = stablehlo.broadcast_in_dim %78, dims = [] : (tensor<f32>) -> tensor<32x32xf32> loc(#loc459)
    %81 = stablehlo.multiply %79, %80 : tensor<32x32xf32> loc(#loc459)
    %82 = stablehlo.dot_general %74, %81, contracting_dims = [2] x [0] : (tensor<64x1x32xf32>, tensor<32x32xf32>) -> tensor<64x1x32xf32> loc(#loc460)
    %83 = stablehlo.negate %82 : tensor<64x1x32xf32> loc(#loc461)
    %84 = stablehlo.exponential %83 : tensor<64x1x32xf32> loc(#loc462)
    %85 = stablehlo.broadcast_in_dim %cst_4, dims = [] : (tensor<f32>) -> tensor<64x1x32xf32> loc(#loc463)
    %86 = stablehlo.add %85, %84 : tensor<64x1x32xf32> loc(#loc463)
    %87 = stablehlo.broadcast_in_dim %cst_4, dims = [] : (tensor<f32>) -> tensor<64x1x32xf32> loc(#loc464)
    %88 = stablehlo.divide %87, %86 : tensor<64x1x32xf32> loc(#loc464)
    %89 = stablehlo.broadcast_in_dim %cst_4, dims = [] : (tensor<f32>) -> tensor<64x1x32xf32> loc(#loc441)
    %90 = stablehlo.subtract %89, %88 : tensor<64x1x32xf32> loc(#loc441)
    %91 = call @_threefry_fold_in(%4, %c_3) : (tensor<2xui32>, tensor<ui32>) -> tensor<2xui32> loc(#loc478)
    %92 = stablehlo.sqrt %cst_5 : tensor<f32> loc(#loc466)
    %93 = stablehlo.divide %92, %cst_14 : tensor<f32> loc(#loc467)
    %94 = call @_truncated_normal_20(%91, %c_13, %c_12) : (tensor<2xui32>, tensor<i32>, tensor<i32>) -> tensor<32x32xf32> loc(#loc468)
    %95 = stablehlo.broadcast_in_dim %93, dims = [] : (tensor<f32>) -> tensor<32x32xf32> loc(#loc469)
    %96 = stablehlo.multiply %94, %95 : tensor<32x32xf32> loc(#loc469)
    %97 = stablehlo.dot_general %74, %96, contracting_dims = [2] x [0] : (tensor<64x1x32xf32>, tensor<32x32xf32>) -> tensor<64x1x32xf32> loc(#loc470)
    %98 = stablehlo.multiply %88, %97 : tensor<64x1x32xf32> loc(#loc444)
    %99 = stablehlo.reshape %46 : (tensor<64x1xi1>) -> tensor<64x1x1xi1> loc(#loc445)
    %100 = stablehlo.convert %99 : (tensor<64x1x1xi1>) -> tensor<64x1x1xf32> loc(#loc406)
    %101 = stablehlo.broadcast_in_dim %100, dims = [0, 1, 2] : (tensor<64x1x1xf32>) -> tensor<64x1x32xf32> loc(#loc407)
    %102 = stablehlo.multiply %101, %90 : tensor<64x1x32xf32> loc(#loc407)
    %103 = stablehlo.broadcast_in_dim %75, dims = [0, 2] : (tensor<64x32xf32>) -> tensor<64x1x32xf32> loc(#loc408)
    %104 = stablehlo.multiply %102, %103 : tensor<64x1x32xf32> loc(#loc409)
    %105 = stablehlo.add %98, %104 : tensor<64x1x32xf32> loc(#loc410)
    %106 = stablehlo.convert %99 : (tensor<64x1x1xi1>) -> tensor<64x1x1xi32> loc(#loc411)
    %107 = stablehlo.broadcast_in_dim %c_2, dims = [] : (tensor<i32>) -> tensor<64x1x1xi32> loc(#loc412)
    %108 = stablehlo.subtract %107, %106 : tensor<64x1x1xi32> loc(#loc412)
    %109 = stablehlo.convert %108 : (tensor<64x1x1xi32>) -> tensor<64x1x1xf32> loc(#loc413)
    %110 = stablehlo.broadcast_in_dim %109, dims = [0, 1, 2] : (tensor<64x1x1xf32>) -> tensor<64x1x32xf32> loc(#loc414)
    %111 = stablehlo.multiply %110, %90 : tensor<64x1x32xf32> loc(#loc414)
    %112 = stablehlo.broadcast_in_dim %40, dims = [0, 2] : (tensor<64x32xf32>) -> tensor<64x1x32xf32> loc(#loc415)
    %113 = stablehlo.multiply %111, %112 : tensor<64x1x32xf32> loc(#loc416)
    %114 = stablehlo.add %105, %113 : tensor<64x1x32xf32> loc(#loc417)
    %115 = call @_take(%114, %c_7) : (tensor<64x1x32xf32>, tensor<i32>) -> tensor<64x32xf32> loc(#loc418)
    %116 = call @_threefry_fold_in(%4, %c_1) : (tensor<2xui32>, tensor<ui32>) -> tensor<2xui32> loc(#loc372)
    %117 = stablehlo.sqrt %cst_5 : tensor<f32> loc(#loc328)
    %118 = stablehlo.divide %117, %cst_14 : tensor<f32> loc(#loc329)
    %119 = call @_truncated_normal_26(%116, %c_13, %c_12) : (tensor<2xui32>, tensor<i32>, tensor<i32>) -> tensor<32x16xf32> loc(#loc330)
    %120 = stablehlo.broadcast_in_dim %118, dims = [] : (tensor<f32>) -> tensor<32x16xf32> loc(#loc331)
    %121 = stablehlo.multiply %119, %120 : tensor<32x16xf32> loc(#loc331)
    %122 = stablehlo.dot_general %114, %121, contracting_dims = [2] x [0] : (tensor<64x1x32xf32>, tensor<32x16xf32>) -> tensor<64x1x16xf32> loc(#loc332)
    %123 = call @_where_31(%41, %122, %cst) : (tensor<64x1x16xi1>, tensor<64x1x16xf32>, tensor<f32>) -> tensor<64x1x16xf32> loc(#loc297)
    %124 = call @_threefry_fold_in(%4, %c_0) : (tensor<2xui32>, tensor<ui32>) -> tensor<2xui32> loc(#loc373)
    %125 = stablehlo.sqrt %cst_5 : tensor<f32> loc(#loc334)
    %126 = stablehlo.divide %125, %cst_14 : tensor<f32> loc(#loc335)
    %127 = call @_truncated_normal_32(%124, %c_13, %c_12) : (tensor<2xui32>, tensor<i32>, tensor<i32>) -> tensor<32x1xf32> loc(#loc336)
    %128 = stablehlo.broadcast_in_dim %126, dims = [] : (tensor<f32>) -> tensor<32x1xf32> loc(#loc337)
    %129 = stablehlo.multiply %127, %128 : tensor<32x1xf32> loc(#loc337)
    %130 = call @_threefry_fold_in(%4, %c) : (tensor<2xui32>, tensor<ui32>) -> tensor<2xui32> loc(#loc374)
    %131 = stablehlo.broadcast_in_dim %cst_18, dims = [] : (tensor<f32>) -> tensor<1xf32> loc(#loc339)
    %132 = stablehlo.broadcast_in_dim %cst_18, dims = [] : (tensor<f32>) -> tensor<32x16xf32> loc(#loc479)
    %133 = stablehlo.broadcast_in_dim %cst_18, dims = [] : (tensor<f32>) -> tensor<1xf32> loc(#loc479)
    %134 = stablehlo.broadcast_in_dim %cst_18, dims = [] : (tensor<f32>) -> tensor<32x1xf32> loc(#loc479)
    %135 = stablehlo.broadcast_in_dim %cst_18, dims = [] : (tensor<f32>) -> tensor<32xf32> loc(#loc479)
    %136 = stablehlo.broadcast_in_dim %cst_18, dims = [] : (tensor<f32>) -> tensor<15x32xf32> loc(#loc479)
    %137 = stablehlo.broadcast_in_dim %cst_18, dims = [] : (tensor<f32>) -> tensor<32xf32> loc(#loc479)
    %138 = stablehlo.broadcast_in_dim %cst_18, dims = [] : (tensor<f32>) -> tensor<48x32xf32> loc(#loc479)
    %139 = stablehlo.broadcast_in_dim %cst_18, dims = [] : (tensor<f32>) -> tensor<32x32xf32> loc(#loc479)
    %140 = stablehlo.broadcast_in_dim %cst_18, dims = [] : (tensor<f32>) -> tensor<32x32xf32> loc(#loc479)
    %141 = stablehlo.broadcast_in_dim %cst_18, dims = [] : (tensor<f32>) -> tensor<32x16xf32> loc(#loc480)
    %142 = stablehlo.broadcast_in_dim %cst_18, dims = [] : (tensor<f32>) -> tensor<1xf32> loc(#loc480)
    %143 = stablehlo.broadcast_in_dim %cst_18, dims = [] : (tensor<f32>) -> tensor<32x1xf32> loc(#loc480)
    %144 = stablehlo.broadcast_in_dim %cst_18, dims = [] : (tensor<f32>) -> tensor<32xf32> loc(#loc480)
    %145 = stablehlo.broadcast_in_dim %cst_18, dims = [] : (tensor<f32>) -> tensor<15x32xf32> loc(#loc480)
    %146 = stablehlo.broadcast_in_dim %cst_18, dims = [] : (tensor<f32>) -> tensor<32xf32> loc(#loc480)
    %147 = stablehlo.broadcast_in_dim %cst_18, dims = [] : (tensor<f32>) -> tensor<48x32xf32> loc(#loc480)
    %148 = stablehlo.broadcast_in_dim %cst_18, dims = [] : (tensor<f32>) -> tensor<32x32xf32> loc(#loc480)
    %149 = stablehlo.broadcast_in_dim %cst_18, dims = [] : (tensor<f32>) -> tensor<32x32xf32> loc(#loc480)
    return %c_22, %31, %32, %33, %34, %35, %36, %37, %38, %39, %21, %27, %28, %29, %30, %40, %121, %131, %129, %54, %52, %69, %67, %96, %81, %c_22, %132, %133, %134, %135, %136, %137, %138, %139, %140, %141, %142, %143, %144, %145, %146, %147, %148, %149 : tensor<i32>, tensor<64x16xi1>, tensor<64x15xf32>, tensor<64xi32>, tensor<64xf32>, tensor<64xi1>, tensor<64xi1>, tensor<64xf32>, tensor<64xf32>, tensor<64xf32>, tensor<64x5xi32>, tensor<64x5xi32>, tensor<64xi1>, tensor<64xi32>, tensor<64xi1>, tensor<64x32xf32>, tensor<32x16xf32>, tensor<1xf32>, tensor<32x1xf32>, tensor<32xf32>, tensor<15x32xf32>, tensor<32xf32>, tensor<48x32xf32>, tensor<32x32xf32>, tensor<32x32xf32>, tensor<i32>, tensor<32x16xf32>, tensor<1xf32>, tensor<32x1xf32>, tensor<32xf32>, tensor<15x32xf32>, tensor<32xf32>, tensor<48x32xf32>, tensor<32x32xf32>, tensor<32x32xf32>, tensor<32x16xf32>, tensor<1xf32>, tensor<32x1xf32>, tensor<32xf32>, tensor<15x32xf32>, tensor<32xf32>, tensor<48x32xf32>, tensor<32x32xf32>, tensor<32x32xf32> loc(#loc214)
  } loc(#loc)
  func.func private @_threefry_split(%arg0: tensor<2xui32> loc(unknown)) -> tensor<3x2xui32> {
    %c = stablehlo.constant dense<32> : tensor<ui64> loc(#loc206)
    %c_0 = stablehlo.constant dense<1> : tensor<ui64> loc(#loc206)
    %0 = stablehlo.slice %arg0 [0:1] : (tensor<2xui32>) -> tensor<1xui32> loc(#loc207)
    %1 = stablehlo.reshape %0 : (tensor<1xui32>) -> tensor<ui32> loc(#loc208)
    %2 = stablehlo.slice %arg0 [1:2] : (tensor<2xui32>) -> tensor<1xui32> loc(#loc207)
    %3 = stablehlo.reshape %2 : (tensor<1xui32>) -> tensor<ui32> loc(#loc208)
    %4 = stablehlo.iota dim = 0 : tensor<3xui64> loc(#loc206)
    %5 = stablehlo.broadcast_in_dim %c_0, dims = [] : (tensor<ui64>) -> tensor<3xui64> loc(#loc206)
    %6 = stablehlo.multiply %5, %4 : tensor<3xui64> loc(#loc206)
    %7 = stablehlo.broadcast_in_dim %c, dims = [] : (tensor<ui64>) -> tensor<3xui64> loc(#loc206)
    %8 = stablehlo.shift_right_logical %6, %7 : tensor<3xui64> loc(#loc206)
    %9 = stablehlo.convert %6 : (tensor<3xui64>) -> tensor<3xui32> loc(#loc206)
    %10 = stablehlo.convert %8 : (tensor<3xui64>) -> tensor<3xui32> loc(#loc206)
    %11:2 = call @threefry2x32(%1, %3, %10, %9) : (tensor<ui32>, tensor<ui32>, tensor<3xui32>, tensor<3xui32>) -> (tensor<3xui32>, tensor<3xui32>) loc(#loc125)
    %12 = stablehlo.broadcast_in_dim %11#0, dims = [0] : (tensor<3xui32>) -> tensor<3x1xui32> loc(#loc209)
    %13 = stablehlo.broadcast_in_dim %11#1, dims = [0] : (tensor<3xui32>) -> tensor<3x1xui32> loc(#loc209)
    %14 = stablehlo.concatenate %12, %13, dim = 1 : (tensor<3x1xui32>, tensor<3x1xui32>) -> tensor<3x2xui32> loc(#loc209)
    return %14 : tensor<3x2xui32> loc(#loc)
  } loc(#loc225)
  func.func private @threefry2x32(%arg0: tensor<ui32> loc("RecurrentPPO.init"(#loc4)), %arg1: tensor<ui32> loc("RecurrentPPO.init"(#loc4)), %arg2: tensor<3xui32> loc("RecurrentPPO.init"(#loc4)), %arg3: tensor<3xui32> loc("RecurrentPPO.init"(#loc4))) -> (tensor<3xui32>, tensor<3xui32>) {
    %c = stablehlo.constant dense<1> : tensor<i32> loc(#loc)
    %c_0 = stablehlo.constant dense<5> : tensor<i32> loc(#loc)
    %c_1 = stablehlo.constant dense<0> : tensor<i32> loc(#loc)
    %c_2 = stablehlo.constant dense<466688986> : tensor<ui32> loc(#loc197)
    %c_3 = stablehlo.constant dense<[13, 15, 26, 6]> : tensor<4xui32> loc(#loc197)
    %c_4 = stablehlo.constant dense<[17, 29, 16, 24]> : tensor<4xui32> loc(#loc197)
    %0 = stablehlo.xor %arg0, %arg1 : tensor<ui32> loc(#loc210)
    %1 = stablehlo.xor %0, %c_2 : tensor<ui32> loc(#loc210)
    %2 = stablehlo.broadcast_in_dim %arg0, dims = [] : (tensor<ui32>) -> tensor<3xui32> loc(#loc211)
    %3 = stablehlo.add %arg2, %2 : tensor<3xui32> loc(#loc211)
    %4 = stablehlo.broadcast_in_dim %arg1, dims = [] : (tensor<ui32>) -> tensor<3xui32> loc(#loc211)
    %5 = stablehlo.add %arg3, %4 : tensor<3xui32> loc(#loc211)
    %6:9 = stablehlo.while(%iterArg = %c_1, %iterArg_5 = %c_1, %iterArg_6 = %3, %iterArg_7 = %5, %iterArg_8 = %arg1, %iterArg_9 = %1, %iterArg_10 = %arg0, %iterArg_11 = %c_3, %iterArg_12 = %c_4) : tensor<i32>, tensor<i32>, tensor<3xui32>, tensor<3xui32>, tensor<ui32>, tensor<ui32>, tensor<ui32>, tensor<4xui32>, tensor<4xui32>
    cond {
      %7 = stablehlo.compare LT, %iterArg, %c_0, SIGNED : (tensor<i32>, tensor<i32>) -> tensor<i1> loc(#loc257)
      stablehlo.return %7 : tensor<i1> loc(#loc226)
    } do {
      %7:8 = func.call @closed_call(%iterArg_5, %iterArg_6, %iterArg_7, %iterArg_8, %iterArg_9, %iterArg_10, %iterArg_11, %iterArg_12) : (tensor<i32>, tensor<3xui32>, tensor<3xui32>, tensor<ui32>, tensor<ui32>, tensor<ui32>, tensor<4xui32>, tensor<4xui32>) -> (tensor<i32>, tensor<3xui32>, tensor<3xui32>, tensor<ui32>, tensor<ui32>, tensor<ui32>, tensor<4xui32>, tensor<4xui32>) loc(#loc258)
      %8 = stablehlo.add %iterArg, %c : tensor<i32> loc(#loc259)
      stablehlo.return %8, %7#0, %7#1, %7#2, %7#3, %7#4, %7#5, %7#6, %7#7 : tensor<i32>, tensor<i32>, tensor<3xui32>, tensor<3xui32>, tensor<ui32>, tensor<ui32>, tensor<ui32>, tensor<4xui32>, tensor<4xui32> loc(#loc226)
    } loc(#loc226)
    return %6#2, %6#3 : tensor<3xui32>, tensor<3xui32> loc(#loc125)
  } loc(#loc125)
  func.func private @closed_call(%arg0: tensor<i32> loc(unknown), %arg1: tensor<3xui32> loc(unknown), %arg2: tensor<3xui32> loc(unknown), %arg3: tensor<ui32> loc(unknown), %arg4: tensor<ui32> loc(unknown), %arg5: tensor<ui32> loc(unknown), %arg6: tensor<4xui32> loc(unknown), %arg7: tensor<4xui32> loc(unknown)) -> (tensor<i32>, tensor<3xui32>, tensor<3xui32>, tensor<ui32>, tensor<ui32>, tensor<ui32>, tensor<4xui32>, tensor<4xui32>) {
    %c = stablehlo.constant dense<32> : tensor<ui32> loc(#loc)
    %c_0 = stablehlo.constant dense<1> : tensor<i32> loc(#loc)
    %0 = stablehlo.add %arg0, %c_0 : tensor<i32> loc(#loc77)
    %1 = stablehlo.slice %arg6 [0:1] : (tensor<4xui32>) -> tensor<1xui32> loc(#loc78)
    %2 = stablehlo.reshape %1 : (tensor<1xui32>) -> tensor<ui32> loc(#loc79)
    %3 = stablehlo.add %arg1, %arg2 : tensor<3xui32> loc(#loc77)
    %4 = stablehlo.broadcast_in_dim %2, dims = [] : (tensor<ui32>) -> tensor<3xui32> loc(#loc80)
    %5 = stablehlo.shift_left %arg2, %4 : tensor<3xui32> loc(#loc80)
    %6 = stablehlo.subtract %c, %2 : tensor<ui32> loc(#loc81)
    %7 = stablehlo.broadcast_in_dim %6, dims = [] : (tensor<ui32>) -> tensor<3xui32> loc(#loc82)
    %8 = stablehlo.shift_right_logical %arg2, %7 : tensor<3xui32> loc(#loc82)
    %9 = stablehlo.or %5, %8 : tensor<3xui32> loc(#loc83)
    %10 = stablehlo.xor %3, %9 : tensor<3xui32> loc(#loc84)
    %11 = stablehlo.slice %arg6 [1:2] : (tensor<4xui32>) -> tensor<1xui32> loc(#loc78)
    %12 = stablehlo.reshape %11 : (tensor<1xui32>) -> tensor<ui32> loc(#loc79)
    %13 = stablehlo.add %3, %10 : tensor<3xui32> loc(#loc77)
    %14 = stablehlo.broadcast_in_dim %12, dims = [] : (tensor<ui32>) -> tensor<3xui32> loc(#loc80)
    %15 = stablehlo.shift_left %10, %14 : tensor<3xui32> loc(#loc80)
    %16 = stablehlo.subtract %c, %12 : tensor<ui32> loc(#loc81)
    %17 = stablehlo.broadcast_in_dim %16, dims = [] : (tensor<ui32>) -> tensor<3xui32> loc(#loc82)
    %18 = stablehlo.shift_right_logical %10, %17 : tensor<3xui32> loc(#loc82)
    %19 = stablehlo.or %15, %18 : tensor<3xui32> loc(#loc83)
    %20 = stablehlo.xor %13, %19 : tensor<3xui32> loc(#loc84)
    %21 = stablehlo.slice %arg6 [2:3] : (tensor<4xui32>) -> tensor<1xui32> loc(#loc78)
    %22 = stablehlo.reshape %21 : (tensor<1xui32>) -> tensor<ui32> loc(#loc79)
    %23 = stablehlo.add %13, %20 : tensor<3xui32> loc(#loc77)
    %24 = stablehlo.broadcast_in_dim %22, dims = [] : (tensor<ui32>) -> tensor<3xui32> loc(#loc80)
    %25 = stablehlo.shift_left %20, %24 : tensor<3xui32> loc(#loc80)
    %26 = stablehlo.subtract %c, %22 : tensor<ui32> loc(#loc81)
    %27 = stablehlo.broadcast_in_dim %26, dims = [] : (tensor<ui32>) -> tensor<3xui32> loc(#loc82)
    %28 = stablehlo.shift_right_logical %20, %27 : tensor<3xui32> loc(#loc82)
    %29 = stablehlo.or %25, %28 : tensor<3xui32> loc(#loc83)
    %30 = stablehlo.xor %23, %29 : tensor<3xui32> loc(#loc84)
    %31 = stablehlo.slice %arg6 [3:4] : (tensor<4xui32>) -> tensor<1xui32> loc(#loc78)
    %32 = stablehlo.reshape %31 : (tensor<1xui32>) -> tensor<ui32> loc(#loc79)
    %33 = stablehlo.add %23, %30 : tensor<3xui32> loc(#loc77)
    %34 = stablehlo.broadcast_in_dim %32, dims = [] : (tensor<ui32>) -> tensor<3xui32> loc(#loc80)
    %35 = stablehlo.shift_left %30, %34 : tensor<3xui32> loc(#loc80)
    %36 = stablehlo.subtract %c, %32 : tensor<ui32> loc(#loc81)
    %37 = stablehlo.broadcast_in_dim %36, dims = [] : (tensor<ui32>) -> tensor<3xui32> loc(#loc82)
    %38 = stablehlo.shift_right_logical %30, %37 : tensor<3xui32> loc(#loc82)
    %39 = stablehlo.or %35, %38 : tensor<3xui32> loc(#loc83)
    %40 = stablehlo.xor %33, %39 : tensor<3xui32> loc(#loc84)
    %41 = stablehlo.broadcast_in_dim %arg3, dims = [] : (tensor<ui32>) -> tensor<3xui32> loc(#loc77)
    %42 = stablehlo.add %33, %41 : tensor<3xui32> loc(#loc77)
    %43 = stablehlo.broadcast_in_dim %arg4, dims = [] : (tensor<ui32>) -> tensor<3xui32> loc(#loc77)
    %44 = stablehlo.add %40, %43 : tensor<3xui32> loc(#loc77)
    %45 = stablehlo.add %arg0, %c_0 : tensor<i32> loc(#loc77)
    %46 = stablehlo.convert %45 : (tensor<i32>) -> tensor<ui32> loc(#loc85)
    %47 = stablehlo.broadcast_in_dim %46, dims = [] : (tensor<ui32>) -> tensor<3xui32> loc(#loc77)
    %48 = stablehlo.add %44, %47 : tensor<3xui32> loc(#loc77)
    return %0, %42, %48, %arg4, %arg5, %arg3, %arg7, %arg6 : tensor<i32>, tensor<3xui32>, tensor<3xui32>, tensor<ui32>, tensor<ui32>, tensor<ui32>, tensor<4xui32>, tensor<4xui32> loc(#loc)
  } loc(#loc228)
  func.func private @_threefry_split_0(%arg0: tensor<2xui32> loc(unknown)) -> tensor<64x2xui32> {
    %c = stablehlo.constant dense<32> : tensor<ui64> loc(#loc230)
    %c_0 = stablehlo.constant dense<1> : tensor<ui64> loc(#loc230)
    %0 = stablehlo.slice %arg0 [0:1] : (tensor<2xui32>) -> tensor<1xui32> loc(#loc231)
    %1 = stablehlo.reshape %0 : (tensor<1xui32>) -> tensor<ui32> loc(#loc232)
    %2 = stablehlo.slice %arg0 [1:2] : (tensor<2xui32>) -> tensor<1xui32> loc(#loc231)
    %3 = stablehlo.reshape %2 : (tensor<1xui32>) -> tensor<ui32> loc(#loc232)
    %4 = stablehlo.iota dim = 0 : tensor<64xui64> loc(#loc230)
    %5 = stablehlo.broadcast_in_dim %c_0, dims = [] : (tensor<ui64>) -> tensor<64xui64> loc(#loc230)
    %6 = stablehlo.multiply %5, %4 : tensor<64xui64> loc(#loc230)
    %7 = stablehlo.broadcast_in_dim %c, dims = [] : (tensor<ui64>) -> tensor<64xui64> loc(#loc230)
    %8 = stablehlo.shift_right_logical %6, %7 : tensor<64xui64> loc(#loc230)
    %9 = stablehlo.convert %6 : (tensor<64xui64>) -> tensor<64xui32> loc(#loc230)
    %10 = stablehlo.convert %8 : (tensor<64xui64>) -> tensor<64xui32> loc(#loc230)
    %11:2 = call @threefry2x32_1(%1, %3, %10, %9) : (tensor<ui32>, tensor<ui32>, tensor<64xui32>, tensor<64xui32>) -> (tensor<64xui32>, tensor<64xui32>) loc(#loc202)
    %12 = stablehlo.broadcast_in_dim %11#0, dims = [0] : (tensor<64xui32>) -> tensor<64x1xui32> loc(#loc233)
    %13 = stablehlo.broadcast_in_dim %11#1, dims = [0] : (tensor<64xui32>) -> tensor<64x1xui32> loc(#loc233)
    %14 = stablehlo.concatenate %12, %13, dim = 1 : (tensor<64x1xui32>, tensor<64x1xui32>) -> tensor<64x2xui32> loc(#loc233)
    return %14 : tensor<64x2xui32> loc(#loc)
  } loc(#loc260)
  func.func private @threefry2x32_1(%arg0: tensor<ui32> loc(callsite(#loc127 at #loc128)), %arg1: tensor<ui32> loc(callsite(#loc127 at #loc128)), %arg2: tensor<64xui32> loc(callsite(#loc127 at #loc128)), %arg3: tensor<64xui32> loc(callsite(#loc127 at #loc128))) -> (tensor<64xui32>, tensor<64xui32>) {
    %c = stablehlo.constant dense<1> : tensor<i32> loc(#loc)
    %c_0 = stablehlo.constant dense<5> : tensor<i32> loc(#loc)
    %c_1 = stablehlo.constant dense<0> : tensor<i32> loc(#loc)
    %c_2 = stablehlo.constant dense<466688986> : tensor<ui32> loc(#loc197)
    %c_3 = stablehlo.constant dense<[13, 15, 26, 6]> : tensor<4xui32> loc(#loc197)
    %c_4 = stablehlo.constant dense<[17, 29, 16, 24]> : tensor<4xui32> loc(#loc197)
    %0 = stablehlo.xor %arg0, %arg1 : tensor<ui32> loc(#loc234)
    %1 = stablehlo.xor %0, %c_2 : tensor<ui32> loc(#loc234)
    %2 = stablehlo.broadcast_in_dim %arg0, dims = [] : (tensor<ui32>) -> tensor<64xui32> loc(#loc235)
    %3 = stablehlo.add %arg2, %2 : tensor<64xui32> loc(#loc235)
    %4 = stablehlo.broadcast_in_dim %arg1, dims = [] : (tensor<ui32>) -> tensor<64xui32> loc(#loc235)
    %5 = stablehlo.add %arg3, %4 : tensor<64xui32> loc(#loc235)
    %6:9 = stablehlo.while(%iterArg = %c_1, %iterArg_5 = %c_1, %iterArg_6 = %3, %iterArg_7 = %5, %iterArg_8 = %arg1, %iterArg_9 = %1, %iterArg_10 = %arg0, %iterArg_11 = %c_3, %iterArg_12 = %c_4) : tensor<i32>, tensor<i32>, tensor<64xui32>, tensor<64xui32>, tensor<ui32>, tensor<ui32>, tensor<ui32>, tensor<4xui32>, tensor<4xui32>
    cond {
      %7 = stablehlo.compare LT, %iterArg, %c_0, SIGNED : (tensor<i32>, tensor<i32>) -> tensor<i1> loc(#loc301)
      stablehlo.return %7 : tensor<i1> loc(#loc261)
    } do {
      %7:8 = func.call @closed_call_2(%iterArg_5, %iterArg_6, %iterArg_7, %iterArg_8, %iterArg_9, %iterArg_10, %iterArg_11, %iterArg_12) : (tensor<i32>, tensor<64xui32>, tensor<64xui32>, tensor<ui32>, tensor<ui32>, tensor<ui32>, tensor<4xui32>, tensor<4xui32>) -> (tensor<i32>, tensor<64xui32>, tensor<64xui32>, tensor<ui32>, tensor<ui32>, tensor<ui32>, tensor<4xui32>, tensor<4xui32>) loc(#loc302)
      %8 = stablehlo.add %iterArg, %c : tensor<i32> loc(#loc303)
      stablehlo.return %8, %7#0, %7#1, %7#2, %7#3, %7#4, %7#5, %7#6, %7#7 : tensor<i32>, tensor<i32>, tensor<64xui32>, tensor<64xui32>, tensor<ui32>, tensor<ui32>, tensor<ui32>, tensor<4xui32>, tensor<4xui32> loc(#loc261)
    } loc(#loc261)
    return %6#2, %6#3 : tensor<64xui32>, tensor<64xui32> loc(#loc202)
  } loc(#loc202)
  func.func private @closed_call_2(%arg0: tensor<i32> loc(unknown), %arg1: tensor<64xui32> loc(unknown), %arg2: tensor<64xui32> loc(unknown), %arg3: tensor<ui32> loc(unknown), %arg4: tensor<ui32> loc(unknown), %arg5: tensor<ui32> loc(unknown), %arg6: tensor<4xui32> loc(unknown), %arg7: tensor<4xui32> loc(unknown)) -> (tensor<i32>, tensor<64xui32>, tensor<64xui32>, tensor<ui32>, tensor<ui32>, tensor<ui32>, tensor<4xui32>, tensor<4xui32>) {
    %c = stablehlo.constant dense<32> : tensor<ui32> loc(#loc)
    %c_0 = stablehlo.constant dense<1> : tensor<i32> loc(#loc)
    %0 = stablehlo.add %arg0, %c_0 : tensor<i32> loc(#loc77)
    %1 = stablehlo.slice %arg6 [0:1] : (tensor<4xui32>) -> tensor<1xui32> loc(#loc78)
    %2 = stablehlo.reshape %1 : (tensor<1xui32>) -> tensor<ui32> loc(#loc79)
    %3 = stablehlo.add %arg1, %arg2 : tensor<64xui32> loc(#loc77)
    %4 = stablehlo.broadcast_in_dim %2, dims = [] : (tensor<ui32>) -> tensor<64xui32> loc(#loc80)
    %5 = stablehlo.shift_left %arg2, %4 : tensor<64xui32> loc(#loc80)
    %6 = stablehlo.subtract %c, %2 : tensor<ui32> loc(#loc81)
    %7 = stablehlo.broadcast_in_dim %6, dims = [] : (tensor<ui32>) -> tensor<64xui32> loc(#loc82)
    %8 = stablehlo.shift_right_logical %arg2, %7 : tensor<64xui32> loc(#loc82)
    %9 = stablehlo.or %5, %8 : tensor<64xui32> loc(#loc83)
    %10 = stablehlo.xor %3, %9 : tensor<64xui32> loc(#loc84)
    %11 = stablehlo.slice %arg6 [1:2] : (tensor<4xui32>) -> tensor<1xui32> loc(#loc78)
    %12 = stablehlo.reshape %11 : (tensor<1xui32>) -> tensor<ui32> loc(#loc79)
    %13 = stablehlo.add %3, %10 : tensor<64xui32> loc(#loc77)
    %14 = stablehlo.broadcast_in_dim %12, dims = [] : (tensor<ui32>) -> tensor<64xui32> loc(#loc80)
    %15 = stablehlo.shift_left %10, %14 : tensor<64xui32> loc(#loc80)
    %16 = stablehlo.subtract %c, %12 : tensor<ui32> loc(#loc81)
    %17 = stablehlo.broadcast_in_dim %16, dims = [] : (tensor<ui32>) -> tensor<64xui32> loc(#loc82)
    %18 = stablehlo.shift_right_logical %10, %17 : tensor<64xui32> loc(#loc82)
    %19 = stablehlo.or %15, %18 : tensor<64xui32> loc(#loc83)
    %20 = stablehlo.xor %13, %19 : tensor<64xui32> loc(#loc84)
    %21 = stablehlo.slice %arg6 [2:3] : (tensor<4xui32>) -> tensor<1xui32> loc(#loc78)
    %22 = stablehlo.reshape %21 : (tensor<1xui32>) -> tensor<ui32> loc(#loc79)
    %23 = stablehlo.add %13, %20 : tensor<64xui32> loc(#loc77)
    %24 = stablehlo.broadcast_in_dim %22, dims = [] : (tensor<ui32>) -> tensor<64xui32> loc(#loc80)
    %25 = stablehlo.shift_left %20, %24 : tensor<64xui32> loc(#loc80)
    %26 = stablehlo.subtract %c, %22 : tensor<ui32> loc(#loc81)
    %27 = stablehlo.broadcast_in_dim %26, dims = [] : (tensor<ui32>) -> tensor<64xui32> loc(#loc82)
    %28 = stablehlo.shift_right_logical %20, %27 : tensor<64xui32> loc(#loc82)
    %29 = stablehlo.or %25, %28 : tensor<64xui32> loc(#loc83)
    %30 = stablehlo.xor %23, %29 : tensor<64xui32> loc(#loc84)
    %31 = stablehlo.slice %arg6 [3:4] : (tensor<4xui32>) -> tensor<1xui32> loc(#loc78)
    %32 = stablehlo.reshape %31 : (tensor<1xui32>) -> tensor<ui32> loc(#loc79)
    %33 = stablehlo.add %23, %30 : tensor<64xui32> loc(#loc77)
    %34 = stablehlo.broadcast_in_dim %32, dims = [] : (tensor<ui32>) -> tensor<64xui32> loc(#loc80)
    %35 = stablehlo.shift_left %30, %34 : tensor<64xui32> loc(#loc80)
    %36 = stablehlo.subtract %c, %32 : tensor<ui32> loc(#loc81)
    %37 = stablehlo.broadcast_in_dim %36, dims = [] : (tensor<ui32>) -> tensor<64xui32> loc(#loc82)
    %38 = stablehlo.shift_right_logical %30, %37 : tensor<64xui32> loc(#loc82)
    %39 = stablehlo.or %35, %38 : tensor<64xui32> loc(#loc83)
    %40 = stablehlo.xor %33, %39 : tensor<64xui32> loc(#loc84)
    %41 = stablehlo.broadcast_in_dim %arg3, dims = [] : (tensor<ui32>) -> tensor<64xui32> loc(#loc77)
    %42 = stablehlo.add %33, %41 : tensor<64xui32> loc(#loc77)
    %43 = stablehlo.broadcast_in_dim %arg4, dims = [] : (tensor<ui32>) -> tensor<64xui32> loc(#loc77)
    %44 = stablehlo.add %40, %43 : tensor<64xui32> loc(#loc77)
    %45 = stablehlo.add %arg0, %c_0 : tensor<i32> loc(#loc77)
    %46 = stablehlo.convert %45 : (tensor<i32>) -> tensor<ui32> loc(#loc85)
    %47 = stablehlo.broadcast_in_dim %46, dims = [] : (tensor<ui32>) -> tensor<64xui32> loc(#loc77)
    %48 = stablehlo.add %44, %47 : tensor<64xui32> loc(#loc77)
    return %0, %42, %48, %arg4, %arg5, %arg3, %arg7, %arg6 : tensor<i32>, tensor<64xui32>, tensor<64xui32>, tensor<ui32>, tensor<ui32>, tensor<ui32>, tensor<4xui32>, tensor<4xui32> loc(#loc)
  } loc(#loc263)
  func.func private @_randint(%arg0: tensor<64x2xui32> loc(unknown), %arg1: tensor<i32> loc(unknown), %arg2: tensor<i32> loc(unknown)) -> tensor<64xi32> {
    %c = stablehlo.constant dense<65536> : tensor<ui32> loc(#loc)
    %c_0 = stablehlo.constant dense<1> : tensor<ui32> loc(#loc)
    %c_1 = stablehlo.constant dense<0> : tensor<ui32> loc(#loc)
    %c_2 = stablehlo.constant dense<2147483647> : tensor<i32> loc(#loc)
    %c_3 = stablehlo.constant dense<-2147483648> : tensor<i32> loc(#loc)
    %0 = call @clip(%c_2, %c_3, %c_2) : (tensor<i32>, tensor<i32>, tensor<i32>) -> tensor<i32> loc(#loc86)
    %1 = stablehlo.compare GT, %arg2, %0, SIGNED : (tensor<i32>, tensor<i32>) -> tensor<i1> loc(#loc87)
    %2 = call @clip_3(%arg1, %c_3, %c_2) : (tensor<i32>, tensor<i32>, tensor<i32>) -> tensor<i32> loc(#loc86)
    %3 = stablehlo.convert %2 : tensor<i32> loc(#loc85)
    %4 = call @clip_3(%arg2, %c_3, %c_2) : (tensor<i32>, tensor<i32>, tensor<i32>) -> tensor<i32> loc(#loc86)
    %5 = stablehlo.convert %4 : tensor<i32> loc(#loc85)
    %6 = call @_threefry_split_4(%arg0) : (tensor<64x2xui32>) -> tensor<64x2x2xui32> loc(#loc88)
    %7 = stablehlo.slice %6 [0:64, 0:1, 0:2] : (tensor<64x2x2xui32>) -> tensor<64x1x2xui32> loc(#loc78)
    %8 = stablehlo.reshape %7 : (tensor<64x1x2xui32>) -> tensor<64x2xui32> loc(#loc79)
    %9 = stablehlo.slice %6 [0:64, 1:2, 0:2] : (tensor<64x2x2xui32>) -> tensor<64x1x2xui32> loc(#loc78)
    %10 = stablehlo.reshape %9 : (tensor<64x1x2xui32>) -> tensor<64x2xui32> loc(#loc79)
    %11 = stablehlo.slice %8 [0:64, 0:1] : (tensor<64x2xui32>) -> tensor<64x1xui32> loc(#loc89)
    %12 = stablehlo.reshape %11 : (tensor<64x1xui32>) -> tensor<64xui32> loc(#loc90)
    %13 = stablehlo.slice %8 [0:64, 1:2] : (tensor<64x2xui32>) -> tensor<64x1xui32> loc(#loc89)
    %14 = stablehlo.reshape %13 : (tensor<64x1xui32>) -> tensor<64xui32> loc(#loc90)
    %15:2 = call @threefry2x32_7(%12, %14, %c_1, %c_1) : (tensor<64xui32>, tensor<64xui32>, tensor<ui32>, tensor<ui32>) -> (tensor<64xui32>, tensor<64xui32>) loc(#loc91)
    %16 = stablehlo.xor %15#0, %15#1 : tensor<64xui32> loc(#loc92)
    %17 = stablehlo.slice %10 [0:64, 0:1] : (tensor<64x2xui32>) -> tensor<64x1xui32> loc(#loc89)
    %18 = stablehlo.reshape %17 : (tensor<64x1xui32>) -> tensor<64xui32> loc(#loc90)
    %19 = stablehlo.slice %10 [0:64, 1:2] : (tensor<64x2xui32>) -> tensor<64x1xui32> loc(#loc89)
    %20 = stablehlo.reshape %19 : (tensor<64x1xui32>) -> tensor<64xui32> loc(#loc90)
    %21:2 = call @threefry2x32_7(%18, %20, %c_1, %c_1) : (tensor<64xui32>, tensor<64xui32>, tensor<ui32>, tensor<ui32>) -> (tensor<64xui32>, tensor<64xui32>) loc(#loc91)
    %22 = stablehlo.xor %21#0, %21#1 : tensor<64xui32> loc(#loc92)
    %23 = stablehlo.subtract %5, %3 : tensor<i32> loc(#loc81)
    %24 = stablehlo.convert %23 : (tensor<i32>) -> tensor<ui32> loc(#loc85)
    %25 = stablehlo.compare LE, %5, %3, SIGNED : (tensor<i32>, tensor<i32>) -> tensor<i1> loc(#loc93)
    %26 = stablehlo.select %25, %c_0, %24 : tensor<i1>, tensor<ui32> loc(#loc94)
    %27 = stablehlo.compare GT, %5, %3, SIGNED : (tensor<i32>, tensor<i32>) -> tensor<i1> loc(#loc87)
    %28 = stablehlo.and %1, %27 : tensor<i1> loc(#loc95)
    %29 = stablehlo.add %26, %c_0 : tensor<ui32> loc(#loc77)
    %30 = stablehlo.select %28, %29, %26 : tensor<i1>, tensor<ui32> loc(#loc94)
    %31 = stablehlo.remainder %c, %30 : tensor<ui32> loc(#loc96)
    %32 = stablehlo.multiply %31, %31 : tensor<ui32> loc(#loc97)
    %33 = stablehlo.remainder %32, %30 : tensor<ui32> loc(#loc96)
    %34 = stablehlo.broadcast_in_dim %30, dims = [] : (tensor<ui32>) -> tensor<64xui32> loc(#loc96)
    %35 = stablehlo.remainder %16, %34 : tensor<64xui32> loc(#loc96)
    %36 = stablehlo.broadcast_in_dim %33, dims = [] : (tensor<ui32>) -> tensor<64xui32> loc(#loc97)
    %37 = stablehlo.multiply %35, %36 : tensor<64xui32> loc(#loc97)
    %38 = stablehlo.broadcast_in_dim %30, dims = [] : (tensor<ui32>) -> tensor<64xui32> loc(#loc96)
    %39 = stablehlo.remainder %22, %38 : tensor<64xui32> loc(#loc96)
    %40 = stablehlo.add %37, %39 : tensor<64xui32> loc(#loc77)
    %41 = stablehlo.broadcast_in_dim %30, dims = [] : (tensor<ui32>) -> tensor<64xui32> loc(#loc96)
    %42 = stablehlo.remainder %40, %41 : tensor<64xui32> loc(#loc96)
    %43 = stablehlo.convert %42 : (tensor<64xui32>) -> tensor<64xi32> loc(#loc85)
    %44 = stablehlo.broadcast_in_dim %3, dims = [] : (tensor<i32>) -> tensor<64xi32> loc(#loc77)
    %45 = stablehlo.add %44, %43 : tensor<64xi32> loc(#loc77)
    return %45 : tensor<64xi32> loc(#loc)
  } loc(#loc448)
  func.func private @clip(%arg0: tensor<i32> loc(unknown), %arg1: tensor<i32> loc(unknown), %arg2: tensor<i32> loc(unknown)) -> tensor<i32> {
    %0 = stablehlo.maximum %arg1, %arg0 : tensor<i32> loc(#loc99)
    %1 = stablehlo.minimum %arg2, %0 : tensor<i32> loc(#loc100)
    return %1 : tensor<i32> loc(#loc)
  } loc(#loc198)
  func.func private @clip_3(%arg0: tensor<i32> loc(unknown), %arg1: tensor<i32> loc(unknown), %arg2: tensor<i32> loc(unknown)) -> tensor<i32> {
    %0 = stablehlo.maximum %arg1, %arg0 : tensor<i32> loc(#loc99)
    %1 = stablehlo.minimum %arg2, %0 : tensor<i32> loc(#loc100)
    return %1 : tensor<i32> loc(#loc)
  } loc(#loc198)
  func.func private @_threefry_split_4(%arg0: tensor<64x2xui32> loc(unknown)) -> tensor<64x2x2xui32> {
    %c = stablehlo.constant dense<32> : tensor<ui64> loc(#loc102)
    %c_0 = stablehlo.constant dense<1> : tensor<ui64> loc(#loc102)
    %0 = stablehlo.slice %arg0 [0:64, 0:1] : (tensor<64x2xui32>) -> tensor<64x1xui32> loc(#loc78)
    %1 = stablehlo.reshape %0 : (tensor<64x1xui32>) -> tensor<64xui32> loc(#loc79)
    %2 = stablehlo.slice %arg0 [0:64, 1:2] : (tensor<64x2xui32>) -> tensor<64x1xui32> loc(#loc78)
    %3 = stablehlo.reshape %2 : (tensor<64x1xui32>) -> tensor<64xui32> loc(#loc79)
    %4 = stablehlo.iota dim = 0 : tensor<2xui64> loc(#loc102)
    %5 = stablehlo.broadcast_in_dim %c_0, dims = [] : (tensor<ui64>) -> tensor<2xui64> loc(#loc102)
    %6 = stablehlo.multiply %5, %4 : tensor<2xui64> loc(#loc102)
    %7 = stablehlo.broadcast_in_dim %c, dims = [] : (tensor<ui64>) -> tensor<2xui64> loc(#loc102)
    %8 = stablehlo.shift_right_logical %6, %7 : tensor<2xui64> loc(#loc102)
    %9 = stablehlo.convert %6 : (tensor<2xui64>) -> tensor<2xui32> loc(#loc102)
    %10 = stablehlo.convert %8 : (tensor<2xui64>) -> tensor<2xui32> loc(#loc102)
    %11 = stablehlo.broadcast_in_dim %10, dims = [1] : (tensor<2xui32>) -> tensor<1x2xui32> loc(#loc103)
    %12 = stablehlo.broadcast_in_dim %9, dims = [1] : (tensor<2xui32>) -> tensor<1x2xui32> loc(#loc103)
    %13 = stablehlo.broadcast_in_dim %1, dims = [0] : (tensor<64xui32>) -> tensor<64x1xui32> loc(#loc103)
    %14 = stablehlo.broadcast_in_dim %3, dims = [0] : (tensor<64xui32>) -> tensor<64x1xui32> loc(#loc103)
    %15:2 = call @threefry2x32_5(%13, %14, %11, %12) : (tensor<64x1xui32>, tensor<64x1xui32>, tensor<1x2xui32>, tensor<1x2xui32>) -> (tensor<64x2xui32>, tensor<64x2xui32>) loc(#loc)
    %16 = stablehlo.broadcast_in_dim %15#0, dims = [0, 1] : (tensor<64x2xui32>) -> tensor<64x2x1xui32> loc(#loc104)
    %17 = stablehlo.broadcast_in_dim %15#1, dims = [0, 1] : (tensor<64x2xui32>) -> tensor<64x2x1xui32> loc(#loc104)
    %18 = stablehlo.concatenate %16, %17, dim = 2 : (tensor<64x2x1xui32>, tensor<64x2x1xui32>) -> tensor<64x2x2xui32> loc(#loc104)
    return %18 : tensor<64x2x2xui32> loc(#loc)
  } loc(#loc199)
  func.func private @threefry2x32_5(%arg0: tensor<64x1xui32> loc(unknown), %arg1: tensor<64x1xui32> loc(unknown), %arg2: tensor<1x2xui32> loc(unknown), %arg3: tensor<1x2xui32> loc(unknown)) -> (tensor<64x2xui32>, tensor<64x2xui32>) {
    %c = stablehlo.constant dense<1> : tensor<i32> loc(#loc)
    %c_0 = stablehlo.constant dense<5> : tensor<i32> loc(#loc)
    %c_1 = stablehlo.constant dense<0> : tensor<i32> loc(#loc)
    %c_2 = stablehlo.constant dense<466688986> : tensor<ui32> loc(#loc197)
    %c_3 = stablehlo.constant dense<[13, 15, 26, 6]> : tensor<4xui32> loc(#loc197)
    %c_4 = stablehlo.constant dense<[17, 29, 16, 24]> : tensor<4xui32> loc(#loc197)
    %0 = stablehlo.xor %arg0, %arg1 : tensor<64x1xui32> loc(#loc84)
    %1 = stablehlo.broadcast_in_dim %c_2, dims = [] : (tensor<ui32>) -> tensor<64x1xui32> loc(#loc84)
    %2 = stablehlo.xor %0, %1 : tensor<64x1xui32> loc(#loc84)
    %3 = stablehlo.broadcast_in_dim %arg2, dims = [0, 1] : (tensor<1x2xui32>) -> tensor<64x2xui32> loc(#loc77)
    %4 = stablehlo.broadcast_in_dim %arg0, dims = [0, 1] : (tensor<64x1xui32>) -> tensor<64x2xui32> loc(#loc77)
    %5 = stablehlo.add %3, %4 : tensor<64x2xui32> loc(#loc77)
    %6 = stablehlo.broadcast_in_dim %arg3, dims = [0, 1] : (tensor<1x2xui32>) -> tensor<64x2xui32> loc(#loc77)
    %7 = stablehlo.broadcast_in_dim %arg1, dims = [0, 1] : (tensor<64x1xui32>) -> tensor<64x2xui32> loc(#loc77)
    %8 = stablehlo.add %6, %7 : tensor<64x2xui32> loc(#loc77)
    %9:9 = stablehlo.while(%iterArg = %c_1, %iterArg_5 = %c_1, %iterArg_6 = %5, %iterArg_7 = %8, %iterArg_8 = %arg1, %iterArg_9 = %2, %iterArg_10 = %arg0, %iterArg_11 = %c_3, %iterArg_12 = %c_4) : tensor<i32>, tensor<i32>, tensor<64x2xui32>, tensor<64x2xui32>, tensor<64x1xui32>, tensor<64x1xui32>, tensor<64x1xui32>, tensor<4xui32>, tensor<4xui32>
    cond {
      %10 = stablehlo.compare LT, %iterArg, %c_0, SIGNED : (tensor<i32>, tensor<i32>) -> tensor<i1> loc(#loc106)
      stablehlo.return %10 : tensor<i1> loc(#loc105)
    } do {
      %10:8 = func.call @closed_call_6(%iterArg_5, %iterArg_6, %iterArg_7, %iterArg_8, %iterArg_9, %iterArg_10, %iterArg_11, %iterArg_12) : (tensor<i32>, tensor<64x2xui32>, tensor<64x2xui32>, tensor<64x1xui32>, tensor<64x1xui32>, tensor<64x1xui32>, tensor<4xui32>, tensor<4xui32>) -> (tensor<i32>, tensor<64x2xui32>, tensor<64x2xui32>, tensor<64x1xui32>, tensor<64x1xui32>, tensor<64x1xui32>, tensor<4xui32>, tensor<4xui32>) loc(#loc107)
      %11 = stablehlo.add %iterArg, %c : tensor<i32> loc(#loc108)
      stablehlo.return %11, %10#0, %10#1, %10#2, %10#3, %10#4, %10#5, %10#6, %10#7 : tensor<i32>, tensor<i32>, tensor<64x2xui32>, tensor<64x2xui32>, tensor<64x1xui32>, tensor<64x1xui32>, tensor<64x1xui32>, tensor<4xui32>, tensor<4xui32> loc(#loc105)
    } loc(#loc105)
    return %9#2, %9#3 : tensor<64x2xui32>, tensor<64x2xui32> loc(#loc)
  } loc(#loc)
  func.func private @closed_call_6(%arg0: tensor<i32> loc(unknown), %arg1: tensor<64x2xui32> loc(unknown), %arg2: tensor<64x2xui32> loc(unknown), %arg3: tensor<64x1xui32> loc(unknown), %arg4: tensor<64x1xui32> loc(unknown), %arg5: tensor<64x1xui32> loc(unknown), %arg6: tensor<4xui32> loc(unknown), %arg7: tensor<4xui32> loc(unknown)) -> (tensor<i32>, tensor<64x2xui32>, tensor<64x2xui32>, tensor<64x1xui32>, tensor<64x1xui32>, tensor<64x1xui32>, tensor<4xui32>, tensor<4xui32>) {
    %c = stablehlo.constant dense<32> : tensor<ui32> loc(#loc)
    %c_0 = stablehlo.constant dense<1> : tensor<i32> loc(#loc)
    %0 = stablehlo.add %arg0, %c_0 : tensor<i32> loc(#loc77)
    %1 = stablehlo.slice %arg6 [0:1] : (tensor<4xui32>) -> tensor<1xui32> loc(#loc78)
    %2 = stablehlo.reshape %1 : (tensor<1xui32>) -> tensor<ui32> loc(#loc79)
    %3 = stablehlo.add %arg1, %arg2 : tensor<64x2xui32> loc(#loc77)
    %4 = stablehlo.broadcast_in_dim %2, dims = [] : (tensor<ui32>) -> tensor<64x2xui32> loc(#loc80)
    %5 = stablehlo.shift_left %arg2, %4 : tensor<64x2xui32> loc(#loc80)
    %6 = stablehlo.subtract %c, %2 : tensor<ui32> loc(#loc81)
    %7 = stablehlo.broadcast_in_dim %6, dims = [] : (tensor<ui32>) -> tensor<64x2xui32> loc(#loc82)
    %8 = stablehlo.shift_right_logical %arg2, %7 : tensor<64x2xui32> loc(#loc82)
    %9 = stablehlo.or %5, %8 : tensor<64x2xui32> loc(#loc83)
    %10 = stablehlo.xor %3, %9 : tensor<64x2xui32> loc(#loc84)
    %11 = stablehlo.slice %arg6 [1:2] : (tensor<4xui32>) -> tensor<1xui32> loc(#loc78)
    %12 = stablehlo.reshape %11 : (tensor<1xui32>) -> tensor<ui32> loc(#loc79)
    %13 = stablehlo.add %3, %10 : tensor<64x2xui32> loc(#loc77)
    %14 = stablehlo.broadcast_in_dim %12, dims = [] : (tensor<ui32>) -> tensor<64x2xui32> loc(#loc80)
    %15 = stablehlo.shift_left %10, %14 : tensor<64x2xui32> loc(#loc80)
    %16 = stablehlo.subtract %c, %12 : tensor<ui32> loc(#loc81)
    %17 = stablehlo.broadcast_in_dim %16, dims = [] : (tensor<ui32>) -> tensor<64x2xui32> loc(#loc82)
    %18 = stablehlo.shift_right_logical %10, %17 : tensor<64x2xui32> loc(#loc82)
    %19 = stablehlo.or %15, %18 : tensor<64x2xui32> loc(#loc83)
    %20 = stablehlo.xor %13, %19 : tensor<64x2xui32> loc(#loc84)
    %21 = stablehlo.slice %arg6 [2:3] : (tensor<4xui32>) -> tensor<1xui32> loc(#loc78)
    %22 = stablehlo.reshape %21 : (tensor<1xui32>) -> tensor<ui32> loc(#loc79)
    %23 = stablehlo.add %13, %20 : tensor<64x2xui32> loc(#loc77)
    %24 = stablehlo.broadcast_in_dim %22, dims = [] : (tensor<ui32>) -> tensor<64x2xui32> loc(#loc80)
    %25 = stablehlo.shift_left %20, %24 : tensor<64x2xui32> loc(#loc80)
    %26 = stablehlo.subtract %c, %22 : tensor<ui32> loc(#loc81)
    %27 = stablehlo.broadcast_in_dim %26, dims = [] : (tensor<ui32>) -> tensor<64x2xui32> loc(#loc82)
    %28 = stablehlo.shift_right_logical %20, %27 : tensor<64x2xui32> loc(#loc82)
    %29 = stablehlo.or %25, %28 : tensor<64x2xui32> loc(#loc83)
    %30 = stablehlo.xor %23, %29 : tensor<64x2xui32> loc(#loc84)
    %31 = stablehlo.slice %arg6 [3:4] : (tensor<4xui32>) -> tensor<1xui32> loc(#loc78)
    %32 = stablehlo.reshape %31 : (tensor<1xui32>) -> tensor<ui32> loc(#loc79)
    %33 = stablehlo.add %23, %30 : tensor<64x2xui32> loc(#loc77)
    %34 = stablehlo.broadcast_in_dim %32, dims = [] : (tensor<ui32>) -> tensor<64x2xui32> loc(#loc80)
    %35 = stablehlo.shift_left %30, %34 : tensor<64x2xui32> loc(#loc80)
    %36 = stablehlo.subtract %c, %32 : tensor<ui32> loc(#loc81)
    %37 = stablehlo.broadcast_in_dim %36, dims = [] : (tensor<ui32>) -> tensor<64x2xui32> loc(#loc82)
    %38 = stablehlo.shift_right_logical %30, %37 : tensor<64x2xui32> loc(#loc82)
    %39 = stablehlo.or %35, %38 : tensor<64x2xui32> loc(#loc83)
    %40 = stablehlo.xor %33, %39 : tensor<64x2xui32> loc(#loc84)
    %41 = stablehlo.broadcast_in_dim %arg3, dims = [0, 1] : (tensor<64x1xui32>) -> tensor<64x2xui32> loc(#loc77)
    %42 = stablehlo.add %33, %41 : tensor<64x2xui32> loc(#loc77)
    %43 = stablehlo.broadcast_in_dim %arg4, dims = [0, 1] : (tensor<64x1xui32>) -> tensor<64x2xui32> loc(#loc77)
    %44 = stablehlo.add %40, %43 : tensor<64x2xui32> loc(#loc77)
    %45 = stablehlo.add %arg0, %c_0 : tensor<i32> loc(#loc77)
    %46 = stablehlo.convert %45 : (tensor<i32>) -> tensor<ui32> loc(#loc85)
    %47 = stablehlo.broadcast_in_dim %46, dims = [] : (tensor<ui32>) -> tensor<64x2xui32> loc(#loc77)
    %48 = stablehlo.add %44, %47 : tensor<64x2xui32> loc(#loc77)
    return %0, %42, %48, %arg4, %arg5, %arg3, %arg7, %arg6 : tensor<i32>, tensor<64x2xui32>, tensor<64x2xui32>, tensor<64x1xui32>, tensor<64x1xui32>, tensor<64x1xui32>, tensor<4xui32>, tensor<4xui32> loc(#loc)
  } loc(#loc200)
  func.func private @threefry2x32_7(%arg0: tensor<64xui32> loc("vmap()"), %arg1: tensor<64xui32> loc("vmap()"), %arg2: tensor<ui32> loc("vmap()"), %arg3: tensor<ui32> loc("vmap()")) -> (tensor<64xui32>, tensor<64xui32>) {
    %c = stablehlo.constant dense<1> : tensor<i32> loc(#loc)
    %c_0 = stablehlo.constant dense<5> : tensor<i32> loc(#loc)
    %c_1 = stablehlo.constant dense<0> : tensor<i32> loc(#loc)
    %c_2 = stablehlo.constant dense<466688986> : tensor<ui32> loc(#loc197)
    %c_3 = stablehlo.constant dense<[13, 15, 26, 6]> : tensor<4xui32> loc(#loc197)
    %c_4 = stablehlo.constant dense<[17, 29, 16, 24]> : tensor<4xui32> loc(#loc197)
    %0 = stablehlo.xor %arg0, %arg1 : tensor<64xui32> loc(#loc84)
    %1 = stablehlo.broadcast_in_dim %c_2, dims = [] : (tensor<ui32>) -> tensor<64xui32> loc(#loc84)
    %2 = stablehlo.xor %0, %1 : tensor<64xui32> loc(#loc84)
    %3 = stablehlo.broadcast_in_dim %arg2, dims = [] : (tensor<ui32>) -> tensor<64xui32> loc(#loc77)
    %4 = stablehlo.add %3, %arg0 : tensor<64xui32> loc(#loc77)
    %5 = stablehlo.broadcast_in_dim %arg3, dims = [] : (tensor<ui32>) -> tensor<64xui32> loc(#loc77)
    %6 = stablehlo.add %5, %arg1 : tensor<64xui32> loc(#loc77)
    %7:9 = stablehlo.while(%iterArg = %c_1, %iterArg_5 = %c_1, %iterArg_6 = %4, %iterArg_7 = %6, %iterArg_8 = %arg1, %iterArg_9 = %2, %iterArg_10 = %arg0, %iterArg_11 = %c_3, %iterArg_12 = %c_4) : tensor<i32>, tensor<i32>, tensor<64xui32>, tensor<64xui32>, tensor<64xui32>, tensor<64xui32>, tensor<64xui32>, tensor<4xui32>, tensor<4xui32>
    cond {
      %8 = stablehlo.compare LT, %iterArg, %c_0, SIGNED : (tensor<i32>, tensor<i32>) -> tensor<i1> loc(#loc106)
      stablehlo.return %8 : tensor<i1> loc(#loc105)
    } do {
      %8:8 = func.call @closed_call_8(%iterArg_5, %iterArg_6, %iterArg_7, %iterArg_8, %iterArg_9, %iterArg_10, %iterArg_11, %iterArg_12) : (tensor<i32>, tensor<64xui32>, tensor<64xui32>, tensor<64xui32>, tensor<64xui32>, tensor<64xui32>, tensor<4xui32>, tensor<4xui32>) -> (tensor<i32>, tensor<64xui32>, tensor<64xui32>, tensor<64xui32>, tensor<64xui32>, tensor<64xui32>, tensor<4xui32>, tensor<4xui32>) loc(#loc107)
      %9 = stablehlo.add %iterArg, %c : tensor<i32> loc(#loc108)
      stablehlo.return %9, %8#0, %8#1, %8#2, %8#3, %8#4, %8#5, %8#6, %8#7 : tensor<i32>, tensor<i32>, tensor<64xui32>, tensor<64xui32>, tensor<64xui32>, tensor<64xui32>, tensor<64xui32>, tensor<4xui32>, tensor<4xui32> loc(#loc105)
    } loc(#loc105)
    return %7#2, %7#3 : tensor<64xui32>, tensor<64xui32> loc(#loc91)
  } loc(#loc91)
  func.func private @closed_call_8(%arg0: tensor<i32> loc(unknown), %arg1: tensor<64xui32> loc(unknown), %arg2: tensor<64xui32> loc(unknown), %arg3: tensor<64xui32> loc(unknown), %arg4: tensor<64xui32> loc(unknown), %arg5: tensor<64xui32> loc(unknown), %arg6: tensor<4xui32> loc(unknown), %arg7: tensor<4xui32> loc(unknown)) -> (tensor<i32>, tensor<64xui32>, tensor<64xui32>, tensor<64xui32>, tensor<64xui32>, tensor<64xui32>, tensor<4xui32>, tensor<4xui32>) {
    %c = stablehlo.constant dense<32> : tensor<ui32> loc(#loc)
    %c_0 = stablehlo.constant dense<1> : tensor<i32> loc(#loc)
    %0 = stablehlo.add %arg0, %c_0 : tensor<i32> loc(#loc77)
    %1 = stablehlo.slice %arg6 [0:1] : (tensor<4xui32>) -> tensor<1xui32> loc(#loc78)
    %2 = stablehlo.reshape %1 : (tensor<1xui32>) -> tensor<ui32> loc(#loc79)
    %3 = stablehlo.add %arg1, %arg2 : tensor<64xui32> loc(#loc77)
    %4 = stablehlo.broadcast_in_dim %2, dims = [] : (tensor<ui32>) -> tensor<64xui32> loc(#loc80)
    %5 = stablehlo.shift_left %arg2, %4 : tensor<64xui32> loc(#loc80)
    %6 = stablehlo.subtract %c, %2 : tensor<ui32> loc(#loc81)
    %7 = stablehlo.broadcast_in_dim %6, dims = [] : (tensor<ui32>) -> tensor<64xui32> loc(#loc82)
    %8 = stablehlo.shift_right_logical %arg2, %7 : tensor<64xui32> loc(#loc82)
    %9 = stablehlo.or %5, %8 : tensor<64xui32> loc(#loc83)
    %10 = stablehlo.xor %3, %9 : tensor<64xui32> loc(#loc84)
    %11 = stablehlo.slice %arg6 [1:2] : (tensor<4xui32>) -> tensor<1xui32> loc(#loc78)
    %12 = stablehlo.reshape %11 : (tensor<1xui32>) -> tensor<ui32> loc(#loc79)
    %13 = stablehlo.add %3, %10 : tensor<64xui32> loc(#loc77)
    %14 = stablehlo.broadcast_in_dim %12, dims = [] : (tensor<ui32>) -> tensor<64xui32> loc(#loc80)
    %15 = stablehlo.shift_left %10, %14 : tensor<64xui32> loc(#loc80)
    %16 = stablehlo.subtract %c, %12 : tensor<ui32> loc(#loc81)
    %17 = stablehlo.broadcast_in_dim %16, dims = [] : (tensor<ui32>) -> tensor<64xui32> loc(#loc82)
    %18 = stablehlo.shift_right_logical %10, %17 : tensor<64xui32> loc(#loc82)
    %19 = stablehlo.or %15, %18 : tensor<64xui32> loc(#loc83)
    %20 = stablehlo.xor %13, %19 : tensor<64xui32> loc(#loc84)
    %21 = stablehlo.slice %arg6 [2:3] : (tensor<4xui32>) -> tensor<1xui32> loc(#loc78)
    %22 = stablehlo.reshape %21 : (tensor<1xui32>) -> tensor<ui32> loc(#loc79)
    %23 = stablehlo.add %13, %20 : tensor<64xui32> loc(#loc77)
    %24 = stablehlo.broadcast_in_dim %22, dims = [] : (tensor<ui32>) -> tensor<64xui32> loc(#loc80)
    %25 = stablehlo.shift_left %20, %24 : tensor<64xui32> loc(#loc80)
    %26 = stablehlo.subtract %c, %22 : tensor<ui32> loc(#loc81)
    %27 = stablehlo.broadcast_in_dim %26, dims = [] : (tensor<ui32>) -> tensor<64xui32> loc(#loc82)
    %28 = stablehlo.shift_right_logical %20, %27 : tensor<64xui32> loc(#loc82)
    %29 = stablehlo.or %25, %28 : tensor<64xui32> loc(#loc83)
    %30 = stablehlo.xor %23, %29 : tensor<64xui32> loc(#loc84)
    %31 = stablehlo.slice %arg6 [3:4] : (tensor<4xui32>) -> tensor<1xui32> loc(#loc78)
    %32 = stablehlo.reshape %31 : (tensor<1xui32>) -> tensor<ui32> loc(#loc79)
    %33 = stablehlo.add %23, %30 : tensor<64xui32> loc(#loc77)
    %34 = stablehlo.broadcast_in_dim %32, dims = [] : (tensor<ui32>) -> tensor<64xui32> loc(#loc80)
    %35 = stablehlo.shift_left %30, %34 : tensor<64xui32> loc(#loc80)
    %36 = stablehlo.subtract %c, %32 : tensor<ui32> loc(#loc81)
    %37 = stablehlo.broadcast_in_dim %36, dims = [] : (tensor<ui32>) -> tensor<64xui32> loc(#loc82)
    %38 = stablehlo.shift_right_logical %30, %37 : tensor<64xui32> loc(#loc82)
    %39 = stablehlo.or %35, %38 : tensor<64xui32> loc(#loc83)
    %40 = stablehlo.xor %33, %39 : tensor<64xui32> loc(#loc84)
    %41 = stablehlo.add %33, %arg3 : tensor<64xui32> loc(#loc77)
    %42 = stablehlo.add %40, %arg4 : tensor<64xui32> loc(#loc77)
    %43 = stablehlo.add %arg0, %c_0 : tensor<i32> loc(#loc77)
    %44 = stablehlo.convert %43 : (tensor<i32>) -> tensor<ui32> loc(#loc85)
    %45 = stablehlo.broadcast_in_dim %44, dims = [] : (tensor<ui32>) -> tensor<64xui32> loc(#loc77)
    %46 = stablehlo.add %42, %45 : tensor<64xui32> loc(#loc77)
    return %0, %41, %46, %arg4, %arg5, %arg3, %arg7, %arg6 : tensor<i32>, tensor<64xui32>, tensor<64xui32>, tensor<64xui32>, tensor<64xui32>, tensor<64xui32>, tensor<4xui32>, tensor<4xui32> loc(#loc)
  } loc(#loc200)
  func.func private @_one_hot(%arg0: tensor<5xi32> loc(unknown)) -> tensor<5x3xf32> {
    %0 = stablehlo.broadcast_in_dim %arg0, dims = [0] : (tensor<5xi32>) -> tensor<5x1xi32> loc(#loc103)
    %1 = stablehlo.iota dim = 1 : tensor<1x3xi32> loc(#loc109)
    %2 = stablehlo.broadcast_in_dim %0, dims = [0, 1] : (tensor<5x1xi32>) -> tensor<5x3xi32> loc(#loc110)
    %3 = stablehlo.broadcast_in_dim %1, dims = [0, 1] : (tensor<1x3xi32>) -> tensor<5x3xi32> loc(#loc110)
    %4 = stablehlo.compare EQ, %2, %3, SIGNED : (tensor<5x3xi32>, tensor<5x3xi32>) -> tensor<5x3xi1> loc(#loc110)
    %5 = stablehlo.convert %4 : (tensor<5x3xi1>) -> tensor<5x3xf32> loc(#loc85)
    return %5 : tensor<5x3xf32> loc(#loc)
  } loc(#loc473)
  func.func private @_where(%arg0: tensor<i1> loc(unknown), %arg1: tensor<15xf32> loc(unknown), %arg2: tensor<f32> loc(unknown)) -> tensor<15xf32> {
    %0 = stablehlo.convert %arg2 : tensor<f32> loc(#loc85)
    %1 = stablehlo.broadcast_in_dim %0, dims = [] : (tensor<f32>) -> tensor<15xf32> loc(#loc103)
    %2 = stablehlo.select %arg0, %arg1, %1 : tensor<i1>, tensor<15xf32> loc(#loc94)
    return %2 : tensor<15xf32> loc(#loc)
  } loc(#loc474)
  func.func private @_threefry_fold_in(%arg0: tensor<2xui32> loc(unknown), %arg1: tensor<ui32> loc(unknown)) -> tensor<2xui32> {
    %c = stablehlo.constant dense<4294967295> : tensor<ui32> loc(#loc)
    %c_0 = stablehlo.constant dense<32> : tensor<ui32> loc(#loc)
    %0 = stablehlo.shift_right_logical %arg1, %c_0 : tensor<ui32> loc(#loc265)
    %1 = stablehlo.broadcast_in_dim %0, dims = [] : (tensor<ui32>) -> tensor<1xui32> loc(#loc266)
    %2 = stablehlo.and %arg1, %c : tensor<ui32> loc(#loc267)
    %3 = stablehlo.broadcast_in_dim %2, dims = [] : (tensor<ui32>) -> tensor<1xui32> loc(#loc266)
    %4 = stablehlo.concatenate %1, %3, dim = 0 : (tensor<1xui32>, tensor<1xui32>) -> tensor<2xui32> loc(#loc268)
    %5 = stablehlo.slice %arg0 [0:1] : (tensor<2xui32>) -> tensor<1xui32> loc(#loc269)
    %6 = stablehlo.reshape %5 : (tensor<1xui32>) -> tensor<ui32> loc(#loc270)
    %7 = stablehlo.slice %arg0 [1:2] : (tensor<2xui32>) -> tensor<1xui32> loc(#loc269)
    %8 = stablehlo.reshape %7 : (tensor<1xui32>) -> tensor<ui32> loc(#loc270)
    %9 = stablehlo.slice %4 [0:1] : (tensor<2xui32>) -> tensor<1xui32> loc(#loc271)
    %10 = stablehlo.slice %4 [1:2] : (tensor<2xui32>) -> tensor<1xui32> loc(#loc271)
    %11:2 = call @threefry2x32_9(%6, %8, %9, %10) : (tensor<ui32>, tensor<ui32>, tensor<1xui32>, tensor<1xui32>) -> (tensor<1xui32>, tensor<1xui32>) loc(#loc221)
    %12 = stablehlo.concatenate %11#0, %11#1, dim = 0 : (tensor<1xui32>, tensor<1xui32>) -> tensor<2xui32> loc(#loc268)
    return %12 : tensor<2xui32> loc(#loc)
  } loc(#loc304)
  func.func private @threefry2x32_9(%arg0: tensor<ui32> loc(callsite(#loc153 at #loc203)), %arg1: tensor<ui32> loc(callsite(#loc153 at #loc203)), %arg2: tensor<1xui32> loc(callsite(#loc153 at #loc203)), %arg3: tensor<1xui32> loc(callsite(#loc153 at #loc203))) -> (tensor<1xui32>, tensor<1xui32>) {
    %c = stablehlo.constant dense<1> : tensor<i32> loc(#loc)
    %c_0 = stablehlo.constant dense<5> : tensor<i32> loc(#loc)
    %c_1 = stablehlo.constant dense<0> : tensor<i32> loc(#loc)
    %c_2 = stablehlo.constant dense<466688986> : tensor<ui32> loc(#loc197)
    %c_3 = stablehlo.constant dense<[13, 15, 26, 6]> : tensor<4xui32> loc(#loc197)
    %c_4 = stablehlo.constant dense<[17, 29, 16, 24]> : tensor<4xui32> loc(#loc197)
    %0 = stablehlo.xor %arg0, %arg1 : tensor<ui32> loc(#loc272)
    %1 = stablehlo.xor %0, %c_2 : tensor<ui32> loc(#loc272)
    %2 = stablehlo.broadcast_in_dim %arg0, dims = [] : (tensor<ui32>) -> tensor<1xui32> loc(#loc273)
    %3 = stablehlo.add %arg2, %2 : tensor<1xui32> loc(#loc273)
    %4 = stablehlo.broadcast_in_dim %arg1, dims = [] : (tensor<ui32>) -> tensor<1xui32> loc(#loc273)
    %5 = stablehlo.add %arg3, %4 : tensor<1xui32> loc(#loc273)
    %6:9 = stablehlo.while(%iterArg = %c_1, %iterArg_5 = %c_1, %iterArg_6 = %3, %iterArg_7 = %5, %iterArg_8 = %arg1, %iterArg_9 = %1, %iterArg_10 = %arg0, %iterArg_11 = %c_3, %iterArg_12 = %c_4) : tensor<i32>, tensor<i32>, tensor<1xui32>, tensor<1xui32>, tensor<ui32>, tensor<ui32>, tensor<ui32>, tensor<4xui32>, tensor<4xui32>
    cond {
      %7 = stablehlo.compare LT, %iterArg, %c_0, SIGNED : (tensor<i32>, tensor<i32>) -> tensor<i1> loc(#loc341)
      stablehlo.return %7 : tensor<i1> loc(#loc305)
    } do {
      %7:8 = func.call @closed_call_10(%iterArg_5, %iterArg_6, %iterArg_7, %iterArg_8, %iterArg_9, %iterArg_10, %iterArg_11, %iterArg_12) : (tensor<i32>, tensor<1xui32>, tensor<1xui32>, tensor<ui32>, tensor<ui32>, tensor<ui32>, tensor<4xui32>, tensor<4xui32>) -> (tensor<i32>, tensor<1xui32>, tensor<1xui32>, tensor<ui32>, tensor<ui32>, tensor<ui32>, tensor<4xui32>, tensor<4xui32>) loc(#loc342)
      %8 = stablehlo.add %iterArg, %c : tensor<i32> loc(#loc343)
      stablehlo.return %8, %7#0, %7#1, %7#2, %7#3, %7#4, %7#5, %7#6, %7#7 : tensor<i32>, tensor<i32>, tensor<1xui32>, tensor<1xui32>, tensor<ui32>, tensor<ui32>, tensor<ui32>, tensor<4xui32>, tensor<4xui32> loc(#loc305)
    } loc(#loc305)
    return %6#2, %6#3 : tensor<1xui32>, tensor<1xui32> loc(#loc221)
  } loc(#loc221)
  func.func private @closed_call_10(%arg0: tensor<i32> loc(unknown), %arg1: tensor<1xui32> loc(unknown), %arg2: tensor<1xui32> loc(unknown), %arg3: tensor<ui32> loc(unknown), %arg4: tensor<ui32> loc(unknown), %arg5: tensor<ui32> loc(unknown), %arg6: tensor<4xui32> loc(unknown), %arg7: tensor<4xui32> loc(unknown)) -> (tensor<i32>, tensor<1xui32>, tensor<1xui32>, tensor<ui32>, tensor<ui32>, tensor<ui32>, tensor<4xui32>, tensor<4xui32>) {
    %c = stablehlo.constant dense<32> : tensor<ui32> loc(#loc)
    %c_0 = stablehlo.constant dense<1> : tensor<i32> loc(#loc)
    %0 = stablehlo.add %arg0, %c_0 : tensor<i32> loc(#loc77)
    %1 = stablehlo.slice %arg6 [0:1] : (tensor<4xui32>) -> tensor<1xui32> loc(#loc78)
    %2 = stablehlo.reshape %1 : (tensor<1xui32>) -> tensor<ui32> loc(#loc79)
    %3 = stablehlo.add %arg1, %arg2 : tensor<1xui32> loc(#loc77)
    %4 = stablehlo.broadcast_in_dim %2, dims = [] : (tensor<ui32>) -> tensor<1xui32> loc(#loc80)
    %5 = stablehlo.shift_left %arg2, %4 : tensor<1xui32> loc(#loc80)
    %6 = stablehlo.subtract %c, %2 : tensor<ui32> loc(#loc81)
    %7 = stablehlo.broadcast_in_dim %6, dims = [] : (tensor<ui32>) -> tensor<1xui32> loc(#loc82)
    %8 = stablehlo.shift_right_logical %arg2, %7 : tensor<1xui32> loc(#loc82)
    %9 = stablehlo.or %5, %8 : tensor<1xui32> loc(#loc83)
    %10 = stablehlo.xor %3, %9 : tensor<1xui32> loc(#loc84)
    %11 = stablehlo.slice %arg6 [1:2] : (tensor<4xui32>) -> tensor<1xui32> loc(#loc78)
    %12 = stablehlo.reshape %11 : (tensor<1xui32>) -> tensor<ui32> loc(#loc79)
    %13 = stablehlo.add %3, %10 : tensor<1xui32> loc(#loc77)
    %14 = stablehlo.broadcast_in_dim %12, dims = [] : (tensor<ui32>) -> tensor<1xui32> loc(#loc80)
    %15 = stablehlo.shift_left %10, %14 : tensor<1xui32> loc(#loc80)
    %16 = stablehlo.subtract %c, %12 : tensor<ui32> loc(#loc81)
    %17 = stablehlo.broadcast_in_dim %16, dims = [] : (tensor<ui32>) -> tensor<1xui32> loc(#loc82)
    %18 = stablehlo.shift_right_logical %10, %17 : tensor<1xui32> loc(#loc82)
    %19 = stablehlo.or %15, %18 : tensor<1xui32> loc(#loc83)
    %20 = stablehlo.xor %13, %19 : tensor<1xui32> loc(#loc84)
    %21 = stablehlo.slice %arg6 [2:3] : (tensor<4xui32>) -> tensor<1xui32> loc(#loc78)
    %22 = stablehlo.reshape %21 : (tensor<1xui32>) -> tensor<ui32> loc(#loc79)
    %23 = stablehlo.add %13, %20 : tensor<1xui32> loc(#loc77)
    %24 = stablehlo.broadcast_in_dim %22, dims = [] : (tensor<ui32>) -> tensor<1xui32> loc(#loc80)
    %25 = stablehlo.shift_left %20, %24 : tensor<1xui32> loc(#loc80)
    %26 = stablehlo.subtract %c, %22 : tensor<ui32> loc(#loc81)
    %27 = stablehlo.broadcast_in_dim %26, dims = [] : (tensor<ui32>) -> tensor<1xui32> loc(#loc82)
    %28 = stablehlo.shift_right_logical %20, %27 : tensor<1xui32> loc(#loc82)
    %29 = stablehlo.or %25, %28 : tensor<1xui32> loc(#loc83)
    %30 = stablehlo.xor %23, %29 : tensor<1xui32> loc(#loc84)
    %31 = stablehlo.slice %arg6 [3:4] : (tensor<4xui32>) -> tensor<1xui32> loc(#loc78)
    %32 = stablehlo.reshape %31 : (tensor<1xui32>) -> tensor<ui32> loc(#loc79)
    %33 = stablehlo.add %23, %30 : tensor<1xui32> loc(#loc77)
    %34 = stablehlo.broadcast_in_dim %32, dims = [] : (tensor<ui32>) -> tensor<1xui32> loc(#loc80)
    %35 = stablehlo.shift_left %30, %34 : tensor<1xui32> loc(#loc80)
    %36 = stablehlo.subtract %c, %32 : tensor<ui32> loc(#loc81)
    %37 = stablehlo.broadcast_in_dim %36, dims = [] : (tensor<ui32>) -> tensor<1xui32> loc(#loc82)
    %38 = stablehlo.shift_right_logical %30, %37 : tensor<1xui32> loc(#loc82)
    %39 = stablehlo.or %35, %38 : tensor<1xui32> loc(#loc83)
    %40 = stablehlo.xor %33, %39 : tensor<1xui32> loc(#loc84)
    %41 = stablehlo.broadcast_in_dim %arg3, dims = [] : (tensor<ui32>) -> tensor<1xui32> loc(#loc77)
    %42 = stablehlo.add %33, %41 : tensor<1xui32> loc(#loc77)
    %43 = stablehlo.broadcast_in_dim %arg4, dims = [] : (tensor<ui32>) -> tensor<1xui32> loc(#loc77)
    %44 = stablehlo.add %40, %43 : tensor<1xui32> loc(#loc77)
    %45 = stablehlo.add %arg0, %c_0 : tensor<i32> loc(#loc77)
    %46 = stablehlo.convert %45 : (tensor<i32>) -> tensor<ui32> loc(#loc85)
    %47 = stablehlo.broadcast_in_dim %46, dims = [] : (tensor<ui32>) -> tensor<1xui32> loc(#loc77)
    %48 = stablehlo.add %44, %47 : tensor<1xui32> loc(#loc77)
    return %0, %42, %48, %arg4, %arg5, %arg3, %arg7, %arg6 : tensor<i32>, tensor<1xui32>, tensor<1xui32>, tensor<ui32>, tensor<ui32>, tensor<ui32>, tensor<4xui32>, tensor<4xui32> loc(#loc)
  } loc(#loc307)
  func.func private @_truncated_normal(%arg0: tensor<2xui32> loc(unknown), %arg1: tensor<i32> loc(unknown), %arg2: tensor<i32> loc(unknown)) -> tensor<15x32xf32> {
    %c = stablehlo.constant dense<-1> : tensor<i32> loc(#loc)
    %c_0 = stablehlo.constant dense<1> : tensor<i32> loc(#loc)
    %c_1 = stablehlo.constant dense<0> : tensor<i32> loc(#loc)
    %c_2 = stablehlo.constant dense<2147483647> : tensor<i32> loc(#loc)
    %c_3 = stablehlo.constant dense<-2147483648> : tensor<i32> loc(#loc)
    %cst = stablehlo.constant dense<0x7FC00000> : tensor<f32> loc(#loc)
    %cst_4 = stablehlo.constant dense<0x7F800000> : tensor<15x32xf32> loc(#loc111)
    %cst_5 = stablehlo.constant dense<1.000000e+00> : tensor<15x32xf32> loc(#loc111)
    %cst_6 = stablehlo.constant dense<2.83297682> : tensor<15x32xf32> loc(#loc111)
    %cst_7 = stablehlo.constant dense<1.50140941> : tensor<15x32xf32> loc(#loc111)
    %cst_8 = stablehlo.constant dense<1.00167406> : tensor<15x32xf32> loc(#loc111)
    %cst_9 = stablehlo.constant dense<0.246640727> : tensor<15x32xf32> loc(#loc111)
    %cst_10 = stablehlo.constant dense<0.00943887047> : tensor<15x32xf32> loc(#loc111)
    %cst_11 = stablehlo.constant dense<-0.00417768164> : tensor<15x32xf32> loc(#loc111)
    %cst_12 = stablehlo.constant dense<-0.0076224613> : tensor<15x32xf32> loc(#loc111)
    %cst_13 = stablehlo.constant dense<-0.00125372503> : tensor<15x32xf32> loc(#loc111)
    %cst_14 = stablehlo.constant dense<0.00573950773> : tensor<15x32xf32> loc(#loc111)
    %cst_15 = stablehlo.constant dense<2.1858087E-4> : tensor<15x32xf32> loc(#loc111)
    %cst_16 = stablehlo.constant dense<-0.00367342844> : tensor<15x32xf32> loc(#loc111)
    %cst_17 = stablehlo.constant dense<-4.39150654E-6> : tensor<15x32xf32> loc(#loc111)
    %cst_18 = stablehlo.constant dense<0.00134934322> : tensor<15x32xf32> loc(#loc111)
    %cst_19 = stablehlo.constant dense<-3.5233877E-6> : tensor<15x32xf32> loc(#loc111)
    %cst_20 = stablehlo.constant dense<1.00950558E-4> : tensor<15x32xf32> loc(#loc111)
    %cst_21 = stablehlo.constant dense<3.43273939E-7> : tensor<15x32xf32> loc(#loc111)
    %cst_22 = stablehlo.constant dense<-2.00214257E-4> : tensor<15x32xf32> loc(#loc111)
    %cst_23 = stablehlo.constant dense<2.81022636E-8> : tensor<15x32xf32> loc(#loc111)
    %cst_24 = stablehlo.constant dense<3.000000e+00> : tensor<15x32xf32> loc(#loc111)
    %cst_25 = stablehlo.constant dense<2.500000e+00> : tensor<15x32xf32> loc(#loc111)
    %cst_26 = stablehlo.constant dense<5.000000e+00> : tensor<15x32xf32> loc(#loc111)
    %cst_27 = stablehlo.constant dense<0xFF800000> : tensor<f32> loc(#loc)
    %cst_28 = stablehlo.constant dense<0x7F800000> : tensor<f32> loc(#loc)
    %cst_29 = stablehlo.constant dense<1.41421354> : tensor<f32> loc(#loc)
    %0 = stablehlo.convert %arg1 : (tensor<i32>) -> tensor<f32> loc(#loc85)
    %1 = stablehlo.convert %arg2 : (tensor<i32>) -> tensor<f32> loc(#loc85)
    %2 = stablehlo.divide %0, %cst_29 : tensor<f32> loc(#loc112)
    %3 = stablehlo.composite "chlo.erf" %2 {decomposition = @chlo.erf.impl_7, version = 1 : i32} : (tensor<f32>) -> tensor<f32> loc(#loc113)
    %4 = stablehlo.divide %1, %cst_29 : tensor<f32> loc(#loc112)
    %5 = stablehlo.composite "chlo.erf" %4 {decomposition = @chlo.erf.impl_8, version = 1 : i32} : (tensor<f32>) -> tensor<f32> loc(#loc113)
    %6 = call @_uniform(%arg0, %3, %5) : (tensor<2xui32>, tensor<f32>, tensor<f32>) -> tensor<15x32xf32> loc(#loc114)
    %7 = stablehlo.negate %6 : tensor<15x32xf32> loc(#loc111)
    %8 = stablehlo.multiply %6, %7 : tensor<15x32xf32> loc(#loc111)
    %9 = stablehlo.log_plus_one %8 : tensor<15x32xf32> loc(#loc111)
    %10 = stablehlo.negate %9 : tensor<15x32xf32> loc(#loc111)
    %11 = stablehlo.compare LT, %10, %cst_26 : (tensor<15x32xf32>, tensor<15x32xf32>) -> tensor<15x32xi1> loc(#loc111)
    %12 = stablehlo.subtract %10, %cst_25 : tensor<15x32xf32> loc(#loc111)
    %13 = stablehlo.sqrt %10 : tensor<15x32xf32> loc(#loc111)
    %14 = stablehlo.subtract %13, %cst_24 : tensor<15x32xf32> loc(#loc111)
    %15 = stablehlo.select %11, %12, %14 : tensor<15x32xi1>, tensor<15x32xf32> loc(#loc111)
    %16 = stablehlo.select %11, %cst_23, %cst_22 : tensor<15x32xi1>, tensor<15x32xf32> loc(#loc111)
    %17 = stablehlo.select %11, %cst_21, %cst_20 : tensor<15x32xi1>, tensor<15x32xf32> loc(#loc111)
    %18 = stablehlo.multiply %16, %15 : tensor<15x32xf32> loc(#loc111)
    %19 = stablehlo.add %17, %18 : tensor<15x32xf32> loc(#loc111)
    %20 = stablehlo.select %11, %cst_19, %cst_18 : tensor<15x32xi1>, tensor<15x32xf32> loc(#loc111)
    %21 = stablehlo.multiply %19, %15 : tensor<15x32xf32> loc(#loc111)
    %22 = stablehlo.add %20, %21 : tensor<15x32xf32> loc(#loc111)
    %23 = stablehlo.select %11, %cst_17, %cst_16 : tensor<15x32xi1>, tensor<15x32xf32> loc(#loc111)
    %24 = stablehlo.multiply %22, %15 : tensor<15x32xf32> loc(#loc111)
    %25 = stablehlo.add %23, %24 : tensor<15x32xf32> loc(#loc111)
    %26 = stablehlo.select %11, %cst_15, %cst_14 : tensor<15x32xi1>, tensor<15x32xf32> loc(#loc111)
    %27 = stablehlo.multiply %25, %15 : tensor<15x32xf32> loc(#loc111)
    %28 = stablehlo.add %26, %27 : tensor<15x32xf32> loc(#loc111)
    %29 = stablehlo.select %11, %cst_13, %cst_12 : tensor<15x32xi1>, tensor<15x32xf32> loc(#loc111)
    %30 = stablehlo.multiply %28, %15 : tensor<15x32xf32> loc(#loc111)
    %31 = stablehlo.add %29, %30 : tensor<15x32xf32> loc(#loc111)
    %32 = stablehlo.select %11, %cst_11, %cst_10 : tensor<15x32xi1>, tensor<15x32xf32> loc(#loc111)
    %33 = stablehlo.multiply %31, %15 : tensor<15x32xf32> loc(#loc111)
    %34 = stablehlo.add %32, %33 : tensor<15x32xf32> loc(#loc111)
    %35 = stablehlo.select %11, %cst_9, %cst_8 : tensor<15x32xi1>, tensor<15x32xf32> loc(#loc111)
    %36 = stablehlo.multiply %34, %15 : tensor<15x32xf32> loc(#loc111)
    %37 = stablehlo.add %35, %36 : tensor<15x32xf32> loc(#loc111)
    %38 = stablehlo.select %11, %cst_7, %cst_6 : tensor<15x32xi1>, tensor<15x32xf32> loc(#loc111)
    %39 = stablehlo.multiply %37, %15 : tensor<15x32xf32> loc(#loc111)
    %40 = stablehlo.add %38, %39 : tensor<15x32xf32> loc(#loc111)
    %41 = stablehlo.multiply %40, %6 : tensor<15x32xf32> loc(#loc111)
    %42 = stablehlo.abs %6 : tensor<15x32xf32> loc(#loc111)
    %43 = stablehlo.compare EQ, %42, %cst_5 : (tensor<15x32xf32>, tensor<15x32xf32>) -> tensor<15x32xi1> loc(#loc111)
    %44 = stablehlo.multiply %6, %cst_4 : tensor<15x32xf32> loc(#loc111)
    %45 = stablehlo.select %43, %44, %41 : tensor<15x32xi1>, tensor<15x32xf32> loc(#loc111)
    %46 = stablehlo.broadcast_in_dim %cst_29, dims = [] : (tensor<f32>) -> tensor<15x32xf32> loc(#loc97)
    %47 = stablehlo.multiply %46, %45 : tensor<15x32xf32> loc(#loc97)
    %48 = stablehlo.bitcast_convert %0 : (tensor<f32>) -> tensor<i32> loc(#loc115)
    %49 = stablehlo.bitcast_convert %cst_28 : (tensor<f32>) -> tensor<i32> loc(#loc115)
    %50 = stablehlo.compare NE, %0, %0 : (tensor<f32>, tensor<f32>) -> tensor<i1> loc(#loc115)
    %51 = stablehlo.compare NE, %cst_28, %cst_28 : (tensor<f32>, tensor<f32>) -> tensor<i1> loc(#loc115)
    %52 = stablehlo.or %50, %51 : tensor<i1> loc(#loc115)
    %53 = stablehlo.bitcast_convert %cst : (tensor<f32>) -> tensor<i32> loc(#loc115)
    %54 = stablehlo.and %48, %c_2 : tensor<i32> loc(#loc115)
    %55 = stablehlo.and %49, %c_2 : tensor<i32> loc(#loc115)
    %56 = stablehlo.compare EQ, %0, %cst_28 : (tensor<f32>, tensor<f32>) -> tensor<i1> loc(#loc115)
    %57 = stablehlo.compare EQ, %54, %c_1 : (tensor<i32>, tensor<i32>) -> tensor<i1> loc(#loc115)
    %58 = stablehlo.compare EQ, %55, %c_1 : (tensor<i32>, tensor<i32>) -> tensor<i1> loc(#loc115)
    %59 = stablehlo.and %48, %c_3 : tensor<i32> loc(#loc115)
    %60 = stablehlo.and %49, %c_3 : tensor<i32> loc(#loc115)
    %61 = stablehlo.or %60, %c_0 : tensor<i32> loc(#loc115)
    %62 = stablehlo.compare NE, %59, %60 : (tensor<i32>, tensor<i32>) -> tensor<i1> loc(#loc115)
    %63 = stablehlo.compare GT, %54, %55 : (tensor<i32>, tensor<i32>) -> tensor<i1> loc(#loc115)
    %64 = stablehlo.or %63, %62 : tensor<i1> loc(#loc115)
    %65 = stablehlo.select %64, %c, %c_0 : tensor<i1>, tensor<i32> loc(#loc115)
    %66 = stablehlo.add %48, %65 : tensor<i32> loc(#loc115)
    %67 = stablehlo.select %58, %49, %61 : tensor<i1>, tensor<i32> loc(#loc115)
    %68 = stablehlo.select %57, %67, %66 : tensor<i1>, tensor<i32> loc(#loc115)
    %69 = stablehlo.select %56, %49, %68 : tensor<i1>, tensor<i32> loc(#loc115)
    %70 = stablehlo.select %52, %53, %69 : tensor<i1>, tensor<i32> loc(#loc115)
    %71 = stablehlo.bitcast_convert %70 : (tensor<i32>) -> tensor<f32> loc(#loc115)
    %72 = stablehlo.bitcast_convert %1 : (tensor<f32>) -> tensor<i32> loc(#loc115)
    %73 = stablehlo.bitcast_convert %cst_27 : (tensor<f32>) -> tensor<i32> loc(#loc115)
    %74 = stablehlo.compare NE, %1, %1 : (tensor<f32>, tensor<f32>) -> tensor<i1> loc(#loc115)
    %75 = stablehlo.compare NE, %cst_27, %cst_27 : (tensor<f32>, tensor<f32>) -> tensor<i1> loc(#loc115)
    %76 = stablehlo.or %74, %75 : tensor<i1> loc(#loc115)
    %77 = stablehlo.bitcast_convert %cst : (tensor<f32>) -> tensor<i32> loc(#loc115)
    %78 = stablehlo.and %72, %c_2 : tensor<i32> loc(#loc115)
    %79 = stablehlo.and %73, %c_2 : tensor<i32> loc(#loc115)
    %80 = stablehlo.compare EQ, %1, %cst_27 : (tensor<f32>, tensor<f32>) -> tensor<i1> loc(#loc115)
    %81 = stablehlo.compare EQ, %78, %c_1 : (tensor<i32>, tensor<i32>) -> tensor<i1> loc(#loc115)
    %82 = stablehlo.compare EQ, %79, %c_1 : (tensor<i32>, tensor<i32>) -> tensor<i1> loc(#loc115)
    %83 = stablehlo.and %72, %c_3 : tensor<i32> loc(#loc115)
    %84 = stablehlo.and %73, %c_3 : tensor<i32> loc(#loc115)
    %85 = stablehlo.or %84, %c_0 : tensor<i32> loc(#loc115)
    %86 = stablehlo.compare NE, %83, %84 : (tensor<i32>, tensor<i32>) -> tensor<i1> loc(#loc115)
    %87 = stablehlo.compare GT, %78, %79 : (tensor<i32>, tensor<i32>) -> tensor<i1> loc(#loc115)
    %88 = stablehlo.or %87, %86 : tensor<i1> loc(#loc115)
    %89 = stablehlo.select %88, %c, %c_0 : tensor<i1>, tensor<i32> loc(#loc115)
    %90 = stablehlo.add %72, %89 : tensor<i32> loc(#loc115)
    %91 = stablehlo.select %82, %73, %85 : tensor<i1>, tensor<i32> loc(#loc115)
    %92 = stablehlo.select %81, %91, %90 : tensor<i1>, tensor<i32> loc(#loc115)
    %93 = stablehlo.select %80, %73, %92 : tensor<i1>, tensor<i32> loc(#loc115)
    %94 = stablehlo.select %76, %77, %93 : tensor<i1>, tensor<i32> loc(#loc115)
    %95 = stablehlo.bitcast_convert %94 : (tensor<i32>) -> tensor<f32> loc(#loc115)
    %96 = call @clip_13(%47, %71, %95) : (tensor<15x32xf32>, tensor<f32>, tensor<f32>) -> tensor<15x32xf32> loc(#loc86)
    return %96 : tensor<15x32xf32> loc(#loc)
  } loc(#loc376)
  func.func private @chlo.erf.impl_8(%arg0: tensor<f32> loc("erf")) -> tensor<f32> {
    %cst = stablehlo.constant dense<1.000000e+00> : tensor<f32> loc(#loc113)
    %cst_0 = stablehlo.constant dense<-1.000000e+00> : tensor<f32> loc(#loc113)
    %cst_1 = stablehlo.constant dense<-0.0142647391> : tensor<f32> loc(#loc113)
    %cst_2 = stablehlo.constant dense<-0.00737332925> : tensor<f32> loc(#loc113)
    %cst_3 = stablehlo.constant dense<-0.00168282702> : tensor<f32> loc(#loc113)
    %cst_4 = stablehlo.constant dense<-2.13374049E-4> : tensor<f32> loc(#loc113)
    %cst_5 = stablehlo.constant dense<-1.45660715E-5> : tensor<f32> loc(#loc113)
    %cst_6 = stablehlo.constant dense<-0.0160960332> : tensor<f32> loc(#loc113)
    %cst_7 = stablehlo.constant dense<-2.954600e-03> : tensor<f32> loc(#loc113)
    %cst_8 = stablehlo.constant dense<-7.34990637E-4> : tensor<f32> loc(#loc113)
    %cst_9 = stablehlo.constant dense<-5.69250624E-5> : tensor<f32> loc(#loc113)
    %cst_10 = stablehlo.constant dense<-2.10102394E-6> : tensor<f32> loc(#loc113)
    %cst_11 = stablehlo.constant dense<2.77068146E-8> : tensor<f32> loc(#loc113)
    %cst_12 = stablehlo.constant dense<-2.72614237E-10> : tensor<f32> loc(#loc113)
    %cst_13 = stablehlo.constant dense<-4.000000e+00> : tensor<f32> loc(#loc113)
    %cst_14 = stablehlo.constant dense<4.000000e+00> : tensor<f32> loc(#loc113)
    %0 = stablehlo.clamp %cst_13, %arg0, %cst_14 : tensor<f32> loc(#loc113)
    %1 = stablehlo.multiply %0, %0 : tensor<f32> loc(#loc113)
    %2 = stablehlo.multiply %cst_12, %1 : tensor<f32> loc(#loc113)
    %3 = stablehlo.add %2, %cst_11 : tensor<f32> loc(#loc113)
    %4 = stablehlo.multiply %3, %1 : tensor<f32> loc(#loc113)
    %5 = stablehlo.add %4, %cst_10 : tensor<f32> loc(#loc113)
    %6 = stablehlo.multiply %5, %1 : tensor<f32> loc(#loc113)
    %7 = stablehlo.add %6, %cst_9 : tensor<f32> loc(#loc113)
    %8 = stablehlo.multiply %7, %1 : tensor<f32> loc(#loc113)
    %9 = stablehlo.add %8, %cst_8 : tensor<f32> loc(#loc113)
    %10 = stablehlo.multiply %9, %1 : tensor<f32> loc(#loc113)
    %11 = stablehlo.add %10, %cst_7 : tensor<f32> loc(#loc113)
    %12 = stablehlo.multiply %11, %1 : tensor<f32> loc(#loc113)
    %13 = stablehlo.add %12, %cst_6 : tensor<f32> loc(#loc113)
    %14 = stablehlo.multiply %cst_5, %1 : tensor<f32> loc(#loc113)
    %15 = stablehlo.add %14, %cst_4 : tensor<f32> loc(#loc113)
    %16 = stablehlo.multiply %15, %1 : tensor<f32> loc(#loc113)
    %17 = stablehlo.add %16, %cst_3 : tensor<f32> loc(#loc113)
    %18 = stablehlo.multiply %17, %1 : tensor<f32> loc(#loc113)
    %19 = stablehlo.add %18, %cst_2 : tensor<f32> loc(#loc113)
    %20 = stablehlo.multiply %19, %1 : tensor<f32> loc(#loc113)
    %21 = stablehlo.add %20, %cst_1 : tensor<f32> loc(#loc113)
    %22 = stablehlo.multiply %0, %13 : tensor<f32> loc(#loc113)
    %23 = stablehlo.divide %22, %21 : tensor<f32> loc(#loc113)
    %24 = stablehlo.clamp %cst_0, %23, %cst : tensor<f32> loc(#loc113)
    return %24 : tensor<f32> loc(#loc113)
  } loc(#loc113)
  func.func private @chlo.erf.impl_7(%arg0: tensor<f32> loc("erf")) -> tensor<f32> {
    %cst = stablehlo.constant dense<1.000000e+00> : tensor<f32> loc(#loc113)
    %cst_0 = stablehlo.constant dense<-1.000000e+00> : tensor<f32> loc(#loc113)
    %cst_1 = stablehlo.constant dense<-0.0142647391> : tensor<f32> loc(#loc113)
    %cst_2 = stablehlo.constant dense<-0.00737332925> : tensor<f32> loc(#loc113)
    %cst_3 = stablehlo.constant dense<-0.00168282702> : tensor<f32> loc(#loc113)
    %cst_4 = stablehlo.constant dense<-2.13374049E-4> : tensor<f32> loc(#loc113)
    %cst_5 = stablehlo.constant dense<-1.45660715E-5> : tensor<f32> loc(#loc113)
    %cst_6 = stablehlo.constant dense<-0.0160960332> : tensor<f32> loc(#loc113)
    %cst_7 = stablehlo.constant dense<-2.954600e-03> : tensor<f32> loc(#loc113)
    %cst_8 = stablehlo.constant dense<-7.34990637E-4> : tensor<f32> loc(#loc113)
    %cst_9 = stablehlo.constant dense<-5.69250624E-5> : tensor<f32> loc(#loc113)
    %cst_10 = stablehlo.constant dense<-2.10102394E-6> : tensor<f32> loc(#loc113)
    %cst_11 = stablehlo.constant dense<2.77068146E-8> : tensor<f32> loc(#loc113)
    %cst_12 = stablehlo.constant dense<-2.72614237E-10> : tensor<f32> loc(#loc113)
    %cst_13 = stablehlo.constant dense<-4.000000e+00> : tensor<f32> loc(#loc113)
    %cst_14 = stablehlo.constant dense<4.000000e+00> : tensor<f32> loc(#loc113)
    %0 = stablehlo.clamp %cst_13, %arg0, %cst_14 : tensor<f32> loc(#loc113)
    %1 = stablehlo.multiply %0, %0 : tensor<f32> loc(#loc113)
    %2 = stablehlo.multiply %cst_12, %1 : tensor<f32> loc(#loc113)
    %3 = stablehlo.add %2, %cst_11 : tensor<f32> loc(#loc113)
    %4 = stablehlo.multiply %3, %1 : tensor<f32> loc(#loc113)
    %5 = stablehlo.add %4, %cst_10 : tensor<f32> loc(#loc113)
    %6 = stablehlo.multiply %5, %1 : tensor<f32> loc(#loc113)
    %7 = stablehlo.add %6, %cst_9 : tensor<f32> loc(#loc113)
    %8 = stablehlo.multiply %7, %1 : tensor<f32> loc(#loc113)
    %9 = stablehlo.add %8, %cst_8 : tensor<f32> loc(#loc113)
    %10 = stablehlo.multiply %9, %1 : tensor<f32> loc(#loc113)
    %11 = stablehlo.add %10, %cst_7 : tensor<f32> loc(#loc113)
    %12 = stablehlo.multiply %11, %1 : tensor<f32> loc(#loc113)
    %13 = stablehlo.add %12, %cst_6 : tensor<f32> loc(#loc113)
    %14 = stablehlo.multiply %cst_5, %1 : tensor<f32> loc(#loc113)
    %15 = stablehlo.add %14, %cst_4 : tensor<f32> loc(#loc113)
    %16 = stablehlo.multiply %15, %1 : tensor<f32> loc(#loc113)
    %17 = stablehlo.add %16, %cst_3 : tensor<f32> loc(#loc113)
    %18 = stablehlo.multiply %17, %1 : tensor<f32> loc(#loc113)
    %19 = stablehlo.add %18, %cst_2 : tensor<f32> loc(#loc113)
    %20 = stablehlo.multiply %19, %1 : tensor<f32> loc(#loc113)
    %21 = stablehlo.add %20, %cst_1 : tensor<f32> loc(#loc113)
    %22 = stablehlo.multiply %0, %13 : tensor<f32> loc(#loc113)
    %23 = stablehlo.divide %22, %21 : tensor<f32> loc(#loc113)
    %24 = stablehlo.clamp %cst_0, %23, %cst : tensor<f32> loc(#loc113)
    return %24 : tensor<f32> loc(#loc113)
  } loc(#loc113)
  func.func private @_uniform(%arg0: tensor<2xui32> loc(unknown), %arg1: tensor<f32> loc(unknown), %arg2: tensor<f32> loc(unknown)) -> tensor<15x32xf32> {
    %cst = stablehlo.constant dense<1.000000e+00> : tensor<f32> loc(#loc)
    %c = stablehlo.constant dense<1065353216> : tensor<ui32> loc(#loc)
    %c_0 = stablehlo.constant dense<9> : tensor<ui32> loc(#loc)
    %c_1 = stablehlo.constant dense<1> : tensor<ui64> loc(#loc102)
    %c_2 = stablehlo.constant dense<32> : tensor<ui64> loc(#loc)
    %0 = stablehlo.broadcast_in_dim %arg1, dims = [] : (tensor<f32>) -> tensor<1x1xf32> loc(#loc103)
    %1 = stablehlo.broadcast_in_dim %arg2, dims = [] : (tensor<f32>) -> tensor<1x1xf32> loc(#loc103)
    %2 = stablehlo.slice %arg0 [0:1] : (tensor<2xui32>) -> tensor<1xui32> loc(#loc78)
    %3 = stablehlo.reshape %2 : (tensor<1xui32>) -> tensor<ui32> loc(#loc79)
    %4 = stablehlo.slice %arg0 [1:2] : (tensor<2xui32>) -> tensor<1xui32> loc(#loc78)
    %5 = stablehlo.reshape %4 : (tensor<1xui32>) -> tensor<ui32> loc(#loc79)
    %6 = stablehlo.iota dim = 0 : tensor<15x32xui64> loc(#loc102)
    %7 = stablehlo.iota dim = 1 : tensor<15x32xui64> loc(#loc102)
    %8 = stablehlo.broadcast_in_dim %c_2, dims = [] : (tensor<ui64>) -> tensor<15x32xui64> loc(#loc102)
    %9 = stablehlo.multiply %8, %6 : tensor<15x32xui64> loc(#loc102)
    %10 = stablehlo.broadcast_in_dim %c_1, dims = [] : (tensor<ui64>) -> tensor<15x32xui64> loc(#loc102)
    %11 = stablehlo.multiply %10, %7 : tensor<15x32xui64> loc(#loc102)
    %12 = stablehlo.add %9, %11 : tensor<15x32xui64> loc(#loc102)
    %13 = stablehlo.broadcast_in_dim %c_2, dims = [] : (tensor<ui64>) -> tensor<15x32xui64> loc(#loc102)
    %14 = stablehlo.shift_right_logical %12, %13 : tensor<15x32xui64> loc(#loc102)
    %15 = stablehlo.convert %12 : (tensor<15x32xui64>) -> tensor<15x32xui32> loc(#loc102)
    %16 = stablehlo.convert %14 : (tensor<15x32xui64>) -> tensor<15x32xui32> loc(#loc102)
    %17:2 = call @threefry2x32_11(%3, %5, %16, %15) : (tensor<ui32>, tensor<ui32>, tensor<15x32xui32>, tensor<15x32xui32>) -> (tensor<15x32xui32>, tensor<15x32xui32>) loc(#loc116)
    %18 = stablehlo.xor %17#0, %17#1 : tensor<15x32xui32> loc(#loc84)
    %19 = stablehlo.broadcast_in_dim %c_0, dims = [] : (tensor<ui32>) -> tensor<15x32xui32> loc(#loc82)
    %20 = stablehlo.shift_right_logical %18, %19 : tensor<15x32xui32> loc(#loc82)
    %21 = stablehlo.broadcast_in_dim %c, dims = [] : (tensor<ui32>) -> tensor<15x32xui32> loc(#loc83)
    %22 = stablehlo.or %20, %21 : tensor<15x32xui32> loc(#loc83)
    %23 = stablehlo.bitcast_convert %22 : (tensor<15x32xui32>) -> tensor<15x32xf32> loc(#loc117)
    %24 = stablehlo.broadcast_in_dim %cst, dims = [] : (tensor<f32>) -> tensor<15x32xf32> loc(#loc81)
    %25 = stablehlo.subtract %23, %24 : tensor<15x32xf32> loc(#loc81)
    %26 = stablehlo.subtract %1, %0 : tensor<1x1xf32> loc(#loc81)
    %27 = stablehlo.broadcast_in_dim %26, dims = [0, 1] : (tensor<1x1xf32>) -> tensor<15x32xf32> loc(#loc97)
    %28 = stablehlo.multiply %25, %27 : tensor<15x32xf32> loc(#loc97)
    %29 = stablehlo.broadcast_in_dim %0, dims = [0, 1] : (tensor<1x1xf32>) -> tensor<15x32xf32> loc(#loc77)
    %30 = stablehlo.add %28, %29 : tensor<15x32xf32> loc(#loc77)
    %31 = stablehlo.broadcast_in_dim %0, dims = [0, 1] : (tensor<1x1xf32>) -> tensor<15x32xf32> loc(#loc99)
    %32 = stablehlo.maximum %31, %30 : tensor<15x32xf32> loc(#loc99)
    return %32 : tensor<15x32xf32> loc(#loc)
  } loc(#loc198)
  func.func private @threefry2x32_11(%arg0: tensor<ui32> loc(unknown), %arg1: tensor<ui32> loc(unknown), %arg2: tensor<15x32xui32> loc(unknown), %arg3: tensor<15x32xui32> loc(unknown)) -> (tensor<15x32xui32>, tensor<15x32xui32>) {
    %c = stablehlo.constant dense<1> : tensor<i32> loc(#loc)
    %c_0 = stablehlo.constant dense<5> : tensor<i32> loc(#loc)
    %c_1 = stablehlo.constant dense<0> : tensor<i32> loc(#loc)
    %c_2 = stablehlo.constant dense<466688986> : tensor<ui32> loc(#loc197)
    %c_3 = stablehlo.constant dense<[13, 15, 26, 6]> : tensor<4xui32> loc(#loc197)
    %c_4 = stablehlo.constant dense<[17, 29, 16, 24]> : tensor<4xui32> loc(#loc197)
    %0 = stablehlo.xor %arg0, %arg1 : tensor<ui32> loc(#loc84)
    %1 = stablehlo.xor %0, %c_2 : tensor<ui32> loc(#loc84)
    %2 = stablehlo.broadcast_in_dim %arg0, dims = [] : (tensor<ui32>) -> tensor<15x32xui32> loc(#loc77)
    %3 = stablehlo.add %arg2, %2 : tensor<15x32xui32> loc(#loc77)
    %4 = stablehlo.broadcast_in_dim %arg1, dims = [] : (tensor<ui32>) -> tensor<15x32xui32> loc(#loc77)
    %5 = stablehlo.add %arg3, %4 : tensor<15x32xui32> loc(#loc77)
    %6:9 = stablehlo.while(%iterArg = %c_1, %iterArg_5 = %c_1, %iterArg_6 = %3, %iterArg_7 = %5, %iterArg_8 = %arg1, %iterArg_9 = %1, %iterArg_10 = %arg0, %iterArg_11 = %c_3, %iterArg_12 = %c_4) : tensor<i32>, tensor<i32>, tensor<15x32xui32>, tensor<15x32xui32>, tensor<ui32>, tensor<ui32>, tensor<ui32>, tensor<4xui32>, tensor<4xui32>
    cond {
      %7 = stablehlo.compare LT, %iterArg, %c_0, SIGNED : (tensor<i32>, tensor<i32>) -> tensor<i1> loc(#loc106)
      stablehlo.return %7 : tensor<i1> loc(#loc105)
    } do {
      %7:8 = func.call @closed_call_12(%iterArg_5, %iterArg_6, %iterArg_7, %iterArg_8, %iterArg_9, %iterArg_10, %iterArg_11, %iterArg_12) : (tensor<i32>, tensor<15x32xui32>, tensor<15x32xui32>, tensor<ui32>, tensor<ui32>, tensor<ui32>, tensor<4xui32>, tensor<4xui32>) -> (tensor<i32>, tensor<15x32xui32>, tensor<15x32xui32>, tensor<ui32>, tensor<ui32>, tensor<ui32>, tensor<4xui32>, tensor<4xui32>) loc(#loc107)
      %8 = stablehlo.add %iterArg, %c : tensor<i32> loc(#loc108)
      stablehlo.return %8, %7#0, %7#1, %7#2, %7#3, %7#4, %7#5, %7#6, %7#7 : tensor<i32>, tensor<i32>, tensor<15x32xui32>, tensor<15x32xui32>, tensor<ui32>, tensor<ui32>, tensor<ui32>, tensor<4xui32>, tensor<4xui32> loc(#loc105)
    } loc(#loc105)
    return %6#2, %6#3 : tensor<15x32xui32>, tensor<15x32xui32> loc(#loc)
  } loc(#loc)
  func.func private @closed_call_12(%arg0: tensor<i32> loc(unknown), %arg1: tensor<15x32xui32> loc(unknown), %arg2: tensor<15x32xui32> loc(unknown), %arg3: tensor<ui32> loc(unknown), %arg4: tensor<ui32> loc(unknown), %arg5: tensor<ui32> loc(unknown), %arg6: tensor<4xui32> loc(unknown), %arg7: tensor<4xui32> loc(unknown)) -> (tensor<i32>, tensor<15x32xui32>, tensor<15x32xui32>, tensor<ui32>, tensor<ui32>, tensor<ui32>, tensor<4xui32>, tensor<4xui32>) {
    %c = stablehlo.constant dense<32> : tensor<ui32> loc(#loc)
    %c_0 = stablehlo.constant dense<1> : tensor<i32> loc(#loc)
    %0 = stablehlo.add %arg0, %c_0 : tensor<i32> loc(#loc77)
    %1 = stablehlo.slice %arg6 [0:1] : (tensor<4xui32>) -> tensor<1xui32> loc(#loc78)
    %2 = stablehlo.reshape %1 : (tensor<1xui32>) -> tensor<ui32> loc(#loc79)
    %3 = stablehlo.add %arg1, %arg2 : tensor<15x32xui32> loc(#loc77)
    %4 = stablehlo.broadcast_in_dim %2, dims = [] : (tensor<ui32>) -> tensor<15x32xui32> loc(#loc80)
    %5 = stablehlo.shift_left %arg2, %4 : tensor<15x32xui32> loc(#loc80)
    %6 = stablehlo.subtract %c, %2 : tensor<ui32> loc(#loc81)
    %7 = stablehlo.broadcast_in_dim %6, dims = [] : (tensor<ui32>) -> tensor<15x32xui32> loc(#loc82)
    %8 = stablehlo.shift_right_logical %arg2, %7 : tensor<15x32xui32> loc(#loc82)
    %9 = stablehlo.or %5, %8 : tensor<15x32xui32> loc(#loc83)
    %10 = stablehlo.xor %3, %9 : tensor<15x32xui32> loc(#loc84)
    %11 = stablehlo.slice %arg6 [1:2] : (tensor<4xui32>) -> tensor<1xui32> loc(#loc78)
    %12 = stablehlo.reshape %11 : (tensor<1xui32>) -> tensor<ui32> loc(#loc79)
    %13 = stablehlo.add %3, %10 : tensor<15x32xui32> loc(#loc77)
    %14 = stablehlo.broadcast_in_dim %12, dims = [] : (tensor<ui32>) -> tensor<15x32xui32> loc(#loc80)
    %15 = stablehlo.shift_left %10, %14 : tensor<15x32xui32> loc(#loc80)
    %16 = stablehlo.subtract %c, %12 : tensor<ui32> loc(#loc81)
    %17 = stablehlo.broadcast_in_dim %16, dims = [] : (tensor<ui32>) -> tensor<15x32xui32> loc(#loc82)
    %18 = stablehlo.shift_right_logical %10, %17 : tensor<15x32xui32> loc(#loc82)
    %19 = stablehlo.or %15, %18 : tensor<15x32xui32> loc(#loc83)
    %20 = stablehlo.xor %13, %19 : tensor<15x32xui32> loc(#loc84)
    %21 = stablehlo.slice %arg6 [2:3] : (tensor<4xui32>) -> tensor<1xui32> loc(#loc78)
    %22 = stablehlo.reshape %21 : (tensor<1xui32>) -> tensor<ui32> loc(#loc79)
    %23 = stablehlo.add %13, %20 : tensor<15x32xui32> loc(#loc77)
    %24 = stablehlo.broadcast_in_dim %22, dims = [] : (tensor<ui32>) -> tensor<15x32xui32> loc(#loc80)
    %25 = stablehlo.shift_left %20, %24 : tensor<15x32xui32> loc(#loc80)
    %26 = stablehlo.subtract %c, %22 : tensor<ui32> loc(#loc81)
    %27 = stablehlo.broadcast_in_dim %26, dims = [] : (tensor<ui32>) -> tensor<15x32xui32> loc(#loc82)
    %28 = stablehlo.shift_right_logical %20, %27 : tensor<15x32xui32> loc(#loc82)
    %29 = stablehlo.or %25, %28 : tensor<15x32xui32> loc(#loc83)
    %30 = stablehlo.xor %23, %29 : tensor<15x32xui32> loc(#loc84)
    %31 = stablehlo.slice %arg6 [3:4] : (tensor<4xui32>) -> tensor<1xui32> loc(#loc78)
    %32 = stablehlo.reshape %31 : (tensor<1xui32>) -> tensor<ui32> loc(#loc79)
    %33 = stablehlo.add %23, %30 : tensor<15x32xui32> loc(#loc77)
    %34 = stablehlo.broadcast_in_dim %32, dims = [] : (tensor<ui32>) -> tensor<15x32xui32> loc(#loc80)
    %35 = stablehlo.shift_left %30, %34 : tensor<15x32xui32> loc(#loc80)
    %36 = stablehlo.subtract %c, %32 : tensor<ui32> loc(#loc81)
    %37 = stablehlo.broadcast_in_dim %36, dims = [] : (tensor<ui32>) -> tensor<15x32xui32> loc(#loc82)
    %38 = stablehlo.shift_right_logical %30, %37 : tensor<15x32xui32> loc(#loc82)
    %39 = stablehlo.or %35, %38 : tensor<15x32xui32> loc(#loc83)
    %40 = stablehlo.xor %33, %39 : tensor<15x32xui32> loc(#loc84)
    %41 = stablehlo.broadcast_in_dim %arg3, dims = [] : (tensor<ui32>) -> tensor<15x32xui32> loc(#loc77)
    %42 = stablehlo.add %33, %41 : tensor<15x32xui32> loc(#loc77)
    %43 = stablehlo.broadcast_in_dim %arg4, dims = [] : (tensor<ui32>) -> tensor<15x32xui32> loc(#loc77)
    %44 = stablehlo.add %40, %43 : tensor<15x32xui32> loc(#loc77)
    %45 = stablehlo.add %arg0, %c_0 : tensor<i32> loc(#loc77)
    %46 = stablehlo.convert %45 : (tensor<i32>) -> tensor<ui32> loc(#loc85)
    %47 = stablehlo.broadcast_in_dim %46, dims = [] : (tensor<ui32>) -> tensor<15x32xui32> loc(#loc77)
    %48 = stablehlo.add %44, %47 : tensor<15x32xui32> loc(#loc77)
    return %0, %42, %48, %arg4, %arg5, %arg3, %arg7, %arg6 : tensor<i32>, tensor<15x32xui32>, tensor<15x32xui32>, tensor<ui32>, tensor<ui32>, tensor<ui32>, tensor<4xui32>, tensor<4xui32> loc(#loc)
  } loc(#loc200)
  func.func private @clip_13(%arg0: tensor<15x32xf32> loc(unknown), %arg1: tensor<f32> loc(unknown), %arg2: tensor<f32> loc(unknown)) -> tensor<15x32xf32> {
    %0 = stablehlo.broadcast_in_dim %arg1, dims = [] : (tensor<f32>) -> tensor<15x32xf32> loc(#loc99)
    %1 = stablehlo.maximum %0, %arg0 : tensor<15x32xf32> loc(#loc99)
    %2 = stablehlo.broadcast_in_dim %arg2, dims = [] : (tensor<f32>) -> tensor<15x32xf32> loc(#loc100)
    %3 = stablehlo.minimum %2, %1 : tensor<15x32xf32> loc(#loc100)
    return %3 : tensor<15x32xf32> loc(#loc)
  } loc(#loc198)
  func.func private @relu(%arg0: tensor<64x1x32xf32> loc(unknown)) -> tensor<64x1x32xf32> {
    %cst = stablehlo.constant dense<0.000000e+00> : tensor<f32> loc(#loc)
    %0 = stablehlo.broadcast_in_dim %cst, dims = [] : (tensor<f32>) -> tensor<64x1x32xf32> loc(#loc99)
    %1 = stablehlo.maximum %arg0, %0 : tensor<64x1x32xf32> loc(#loc99)
    return %1 : tensor<64x1x32xf32> loc(#loc)
  } loc(#loc198)
  func.func private @_one_hot_14(%arg0: tensor<64x1xi32> loc(unknown)) -> tensor<64x1x16xf32> {
    %0 = stablehlo.broadcast_in_dim %arg0, dims = [0, 1] : (tensor<64x1xi32>) -> tensor<64x1x1xi32> loc(#loc103)
    %1 = stablehlo.iota dim = 2 : tensor<1x1x16xi32> loc(#loc109)
    %2 = stablehlo.broadcast_in_dim %0, dims = [0, 1, 2] : (tensor<64x1x1xi32>) -> tensor<64x1x16xi32> loc(#loc110)
    %3 = stablehlo.broadcast_in_dim %1, dims = [0, 1, 2] : (tensor<1x1x16xi32>) -> tensor<64x1x16xi32> loc(#loc110)
    %4 = stablehlo.compare EQ, %2, %3, SIGNED : (tensor<64x1x16xi32>, tensor<64x1x16xi32>) -> tensor<64x1x16xi1> loc(#loc110)
    %5 = stablehlo.convert %4 : (tensor<64x1x16xi1>) -> tensor<64x1x16xf32> loc(#loc85)
    return %5 : tensor<64x1x16xf32> loc(#loc)
  } loc(#loc345)
  func.func private @_truncated_normal_15(%arg0: tensor<2xui32> loc(unknown), %arg1: tensor<i32> loc(unknown), %arg2: tensor<i32> loc(unknown)) -> tensor<48x32xf32> {
    %c = stablehlo.constant dense<-1> : tensor<i32> loc(#loc)
    %c_0 = stablehlo.constant dense<1> : tensor<i32> loc(#loc)
    %c_1 = stablehlo.constant dense<0> : tensor<i32> loc(#loc)
    %c_2 = stablehlo.constant dense<2147483647> : tensor<i32> loc(#loc)
    %c_3 = stablehlo.constant dense<-2147483648> : tensor<i32> loc(#loc)
    %cst = stablehlo.constant dense<0x7FC00000> : tensor<f32> loc(#loc)
    %cst_4 = stablehlo.constant dense<0x7F800000> : tensor<48x32xf32> loc(#loc111)
    %cst_5 = stablehlo.constant dense<1.000000e+00> : tensor<48x32xf32> loc(#loc111)
    %cst_6 = stablehlo.constant dense<2.83297682> : tensor<48x32xf32> loc(#loc111)
    %cst_7 = stablehlo.constant dense<1.50140941> : tensor<48x32xf32> loc(#loc111)
    %cst_8 = stablehlo.constant dense<1.00167406> : tensor<48x32xf32> loc(#loc111)
    %cst_9 = stablehlo.constant dense<0.246640727> : tensor<48x32xf32> loc(#loc111)
    %cst_10 = stablehlo.constant dense<0.00943887047> : tensor<48x32xf32> loc(#loc111)
    %cst_11 = stablehlo.constant dense<-0.00417768164> : tensor<48x32xf32> loc(#loc111)
    %cst_12 = stablehlo.constant dense<-0.0076224613> : tensor<48x32xf32> loc(#loc111)
    %cst_13 = stablehlo.constant dense<-0.00125372503> : tensor<48x32xf32> loc(#loc111)
    %cst_14 = stablehlo.constant dense<0.00573950773> : tensor<48x32xf32> loc(#loc111)
    %cst_15 = stablehlo.constant dense<2.1858087E-4> : tensor<48x32xf32> loc(#loc111)
    %cst_16 = stablehlo.constant dense<-0.00367342844> : tensor<48x32xf32> loc(#loc111)
    %cst_17 = stablehlo.constant dense<-4.39150654E-6> : tensor<48x32xf32> loc(#loc111)
    %cst_18 = stablehlo.constant dense<0.00134934322> : tensor<48x32xf32> loc(#loc111)
    %cst_19 = stablehlo.constant dense<-3.5233877E-6> : tensor<48x32xf32> loc(#loc111)
    %cst_20 = stablehlo.constant dense<1.00950558E-4> : tensor<48x32xf32> loc(#loc111)
    %cst_21 = stablehlo.constant dense<3.43273939E-7> : tensor<48x32xf32> loc(#loc111)
    %cst_22 = stablehlo.constant dense<-2.00214257E-4> : tensor<48x32xf32> loc(#loc111)
    %cst_23 = stablehlo.constant dense<2.81022636E-8> : tensor<48x32xf32> loc(#loc111)
    %cst_24 = stablehlo.constant dense<3.000000e+00> : tensor<48x32xf32> loc(#loc111)
    %cst_25 = stablehlo.constant dense<2.500000e+00> : tensor<48x32xf32> loc(#loc111)
    %cst_26 = stablehlo.constant dense<5.000000e+00> : tensor<48x32xf32> loc(#loc111)
    %cst_27 = stablehlo.constant dense<0xFF800000> : tensor<f32> loc(#loc)
    %cst_28 = stablehlo.constant dense<0x7F800000> : tensor<f32> loc(#loc)
    %cst_29 = stablehlo.constant dense<1.41421354> : tensor<f32> loc(#loc)
    %0 = stablehlo.convert %arg1 : (tensor<i32>) -> tensor<f32> loc(#loc85)
    %1 = stablehlo.convert %arg2 : (tensor<i32>) -> tensor<f32> loc(#loc85)
    %2 = stablehlo.divide %0, %cst_29 : tensor<f32> loc(#loc112)
    %3 = stablehlo.composite "chlo.erf" %2 {decomposition = @chlo.erf.impl_5, version = 1 : i32} : (tensor<f32>) -> tensor<f32> loc(#loc113)
    %4 = stablehlo.divide %1, %cst_29 : tensor<f32> loc(#loc112)
    %5 = stablehlo.composite "chlo.erf" %4 {decomposition = @chlo.erf.impl_6, version = 1 : i32} : (tensor<f32>) -> tensor<f32> loc(#loc113)
    %6 = call @_uniform_16(%arg0, %3, %5) : (tensor<2xui32>, tensor<f32>, tensor<f32>) -> tensor<48x32xf32> loc(#loc114)
    %7 = stablehlo.negate %6 : tensor<48x32xf32> loc(#loc111)
    %8 = stablehlo.multiply %6, %7 : tensor<48x32xf32> loc(#loc111)
    %9 = stablehlo.log_plus_one %8 : tensor<48x32xf32> loc(#loc111)
    %10 = stablehlo.negate %9 : tensor<48x32xf32> loc(#loc111)
    %11 = stablehlo.compare LT, %10, %cst_26 : (tensor<48x32xf32>, tensor<48x32xf32>) -> tensor<48x32xi1> loc(#loc111)
    %12 = stablehlo.subtract %10, %cst_25 : tensor<48x32xf32> loc(#loc111)
    %13 = stablehlo.sqrt %10 : tensor<48x32xf32> loc(#loc111)
    %14 = stablehlo.subtract %13, %cst_24 : tensor<48x32xf32> loc(#loc111)
    %15 = stablehlo.select %11, %12, %14 : tensor<48x32xi1>, tensor<48x32xf32> loc(#loc111)
    %16 = stablehlo.select %11, %cst_23, %cst_22 : tensor<48x32xi1>, tensor<48x32xf32> loc(#loc111)
    %17 = stablehlo.select %11, %cst_21, %cst_20 : tensor<48x32xi1>, tensor<48x32xf32> loc(#loc111)
    %18 = stablehlo.multiply %16, %15 : tensor<48x32xf32> loc(#loc111)
    %19 = stablehlo.add %17, %18 : tensor<48x32xf32> loc(#loc111)
    %20 = stablehlo.select %11, %cst_19, %cst_18 : tensor<48x32xi1>, tensor<48x32xf32> loc(#loc111)
    %21 = stablehlo.multiply %19, %15 : tensor<48x32xf32> loc(#loc111)
    %22 = stablehlo.add %20, %21 : tensor<48x32xf32> loc(#loc111)
    %23 = stablehlo.select %11, %cst_17, %cst_16 : tensor<48x32xi1>, tensor<48x32xf32> loc(#loc111)
    %24 = stablehlo.multiply %22, %15 : tensor<48x32xf32> loc(#loc111)
    %25 = stablehlo.add %23, %24 : tensor<48x32xf32> loc(#loc111)
    %26 = stablehlo.select %11, %cst_15, %cst_14 : tensor<48x32xi1>, tensor<48x32xf32> loc(#loc111)
    %27 = stablehlo.multiply %25, %15 : tensor<48x32xf32> loc(#loc111)
    %28 = stablehlo.add %26, %27 : tensor<48x32xf32> loc(#loc111)
    %29 = stablehlo.select %11, %cst_13, %cst_12 : tensor<48x32xi1>, tensor<48x32xf32> loc(#loc111)
    %30 = stablehlo.multiply %28, %15 : tensor<48x32xf32> loc(#loc111)
    %31 = stablehlo.add %29, %30 : tensor<48x32xf32> loc(#loc111)
    %32 = stablehlo.select %11, %cst_11, %cst_10 : tensor<48x32xi1>, tensor<48x32xf32> loc(#loc111)
    %33 = stablehlo.multiply %31, %15 : tensor<48x32xf32> loc(#loc111)
    %34 = stablehlo.add %32, %33 : tensor<48x32xf32> loc(#loc111)
    %35 = stablehlo.select %11, %cst_9, %cst_8 : tensor<48x32xi1>, tensor<48x32xf32> loc(#loc111)
    %36 = stablehlo.multiply %34, %15 : tensor<48x32xf32> loc(#loc111)
    %37 = stablehlo.add %35, %36 : tensor<48x32xf32> loc(#loc111)
    %38 = stablehlo.select %11, %cst_7, %cst_6 : tensor<48x32xi1>, tensor<48x32xf32> loc(#loc111)
    %39 = stablehlo.multiply %37, %15 : tensor<48x32xf32> loc(#loc111)
    %40 = stablehlo.add %38, %39 : tensor<48x32xf32> loc(#loc111)
    %41 = stablehlo.multiply %40, %6 : tensor<48x32xf32> loc(#loc111)
    %42 = stablehlo.abs %6 : tensor<48x32xf32> loc(#loc111)
    %43 = stablehlo.compare EQ, %42, %cst_5 : (tensor<48x32xf32>, tensor<48x32xf32>) -> tensor<48x32xi1> loc(#loc111)
    %44 = stablehlo.multiply %6, %cst_4 : tensor<48x32xf32> loc(#loc111)
    %45 = stablehlo.select %43, %44, %41 : tensor<48x32xi1>, tensor<48x32xf32> loc(#loc111)
    %46 = stablehlo.broadcast_in_dim %cst_29, dims = [] : (tensor<f32>) -> tensor<48x32xf32> loc(#loc97)
    %47 = stablehlo.multiply %46, %45 : tensor<48x32xf32> loc(#loc97)
    %48 = stablehlo.bitcast_convert %0 : (tensor<f32>) -> tensor<i32> loc(#loc115)
    %49 = stablehlo.bitcast_convert %cst_28 : (tensor<f32>) -> tensor<i32> loc(#loc115)
    %50 = stablehlo.compare NE, %0, %0 : (tensor<f32>, tensor<f32>) -> tensor<i1> loc(#loc115)
    %51 = stablehlo.compare NE, %cst_28, %cst_28 : (tensor<f32>, tensor<f32>) -> tensor<i1> loc(#loc115)
    %52 = stablehlo.or %50, %51 : tensor<i1> loc(#loc115)
    %53 = stablehlo.bitcast_convert %cst : (tensor<f32>) -> tensor<i32> loc(#loc115)
    %54 = stablehlo.and %48, %c_2 : tensor<i32> loc(#loc115)
    %55 = stablehlo.and %49, %c_2 : tensor<i32> loc(#loc115)
    %56 = stablehlo.compare EQ, %0, %cst_28 : (tensor<f32>, tensor<f32>) -> tensor<i1> loc(#loc115)
    %57 = stablehlo.compare EQ, %54, %c_1 : (tensor<i32>, tensor<i32>) -> tensor<i1> loc(#loc115)
    %58 = stablehlo.compare EQ, %55, %c_1 : (tensor<i32>, tensor<i32>) -> tensor<i1> loc(#loc115)
    %59 = stablehlo.and %48, %c_3 : tensor<i32> loc(#loc115)
    %60 = stablehlo.and %49, %c_3 : tensor<i32> loc(#loc115)
    %61 = stablehlo.or %60, %c_0 : tensor<i32> loc(#loc115)
    %62 = stablehlo.compare NE, %59, %60 : (tensor<i32>, tensor<i32>) -> tensor<i1> loc(#loc115)
    %63 = stablehlo.compare GT, %54, %55 : (tensor<i32>, tensor<i32>) -> tensor<i1> loc(#loc115)
    %64 = stablehlo.or %63, %62 : tensor<i1> loc(#loc115)
    %65 = stablehlo.select %64, %c, %c_0 : tensor<i1>, tensor<i32> loc(#loc115)
    %66 = stablehlo.add %48, %65 : tensor<i32> loc(#loc115)
    %67 = stablehlo.select %58, %49, %61 : tensor<i1>, tensor<i32> loc(#loc115)
    %68 = stablehlo.select %57, %67, %66 : tensor<i1>, tensor<i32> loc(#loc115)
    %69 = stablehlo.select %56, %49, %68 : tensor<i1>, tensor<i32> loc(#loc115)
    %70 = stablehlo.select %52, %53, %69 : tensor<i1>, tensor<i32> loc(#loc115)
    %71 = stablehlo.bitcast_convert %70 : (tensor<i32>) -> tensor<f32> loc(#loc115)
    %72 = stablehlo.bitcast_convert %1 : (tensor<f32>) -> tensor<i32> loc(#loc115)
    %73 = stablehlo.bitcast_convert %cst_27 : (tensor<f32>) -> tensor<i32> loc(#loc115)
    %74 = stablehlo.compare NE, %1, %1 : (tensor<f32>, tensor<f32>) -> tensor<i1> loc(#loc115)
    %75 = stablehlo.compare NE, %cst_27, %cst_27 : (tensor<f32>, tensor<f32>) -> tensor<i1> loc(#loc115)
    %76 = stablehlo.or %74, %75 : tensor<i1> loc(#loc115)
    %77 = stablehlo.bitcast_convert %cst : (tensor<f32>) -> tensor<i32> loc(#loc115)
    %78 = stablehlo.and %72, %c_2 : tensor<i32> loc(#loc115)
    %79 = stablehlo.and %73, %c_2 : tensor<i32> loc(#loc115)
    %80 = stablehlo.compare EQ, %1, %cst_27 : (tensor<f32>, tensor<f32>) -> tensor<i1> loc(#loc115)
    %81 = stablehlo.compare EQ, %78, %c_1 : (tensor<i32>, tensor<i32>) -> tensor<i1> loc(#loc115)
    %82 = stablehlo.compare EQ, %79, %c_1 : (tensor<i32>, tensor<i32>) -> tensor<i1> loc(#loc115)
    %83 = stablehlo.and %72, %c_3 : tensor<i32> loc(#loc115)
    %84 = stablehlo.and %73, %c_3 : tensor<i32> loc(#loc115)
    %85 = stablehlo.or %84, %c_0 : tensor<i32> loc(#loc115)
    %86 = stablehlo.compare NE, %83, %84 : (tensor<i32>, tensor<i32>) -> tensor<i1> loc(#loc115)
    %87 = stablehlo.compare GT, %78, %79 : (tensor<i32>, tensor<i32>) -> tensor<i1> loc(#loc115)
    %88 = stablehlo.or %87, %86 : tensor<i1> loc(#loc115)
    %89 = stablehlo.select %88, %c, %c_0 : tensor<i1>, tensor<i32> loc(#loc115)
    %90 = stablehlo.add %72, %89 : tensor<i32> loc(#loc115)
    %91 = stablehlo.select %82, %73, %85 : tensor<i1>, tensor<i32> loc(#loc115)
    %92 = stablehlo.select %81, %91, %90 : tensor<i1>, tensor<i32> loc(#loc115)
    %93 = stablehlo.select %80, %73, %92 : tensor<i1>, tensor<i32> loc(#loc115)
    %94 = stablehlo.select %76, %77, %93 : tensor<i1>, tensor<i32> loc(#loc115)
    %95 = stablehlo.bitcast_convert %94 : (tensor<i32>) -> tensor<f32> loc(#loc115)
    %96 = call @clip_19(%47, %71, %95) : (tensor<48x32xf32>, tensor<f32>, tensor<f32>) -> tensor<48x32xf32> loc(#loc86)
    return %96 : tensor<48x32xf32> loc(#loc)
  } loc(#loc475)
  func.func private @chlo.erf.impl_6(%arg0: tensor<f32> loc("erf")) -> tensor<f32> {
    %cst = stablehlo.constant dense<1.000000e+00> : tensor<f32> loc(#loc113)
    %cst_0 = stablehlo.constant dense<-1.000000e+00> : tensor<f32> loc(#loc113)
    %cst_1 = stablehlo.constant dense<-0.0142647391> : tensor<f32> loc(#loc113)
    %cst_2 = stablehlo.constant dense<-0.00737332925> : tensor<f32> loc(#loc113)
    %cst_3 = stablehlo.constant dense<-0.00168282702> : tensor<f32> loc(#loc113)
    %cst_4 = stablehlo.constant dense<-2.13374049E-4> : tensor<f32> loc(#loc113)
    %cst_5 = stablehlo.constant dense<-1.45660715E-5> : tensor<f32> loc(#loc113)
    %cst_6 = stablehlo.constant dense<-0.0160960332> : tensor<f32> loc(#loc113)
    %cst_7 = stablehlo.constant dense<-2.954600e-03> : tensor<f32> loc(#loc113)
    %cst_8 = stablehlo.constant dense<-7.34990637E-4> : tensor<f32> loc(#loc113)
    %cst_9 = stablehlo.constant dense<-5.69250624E-5> : tensor<f32> loc(#loc113)
    %cst_10 = stablehlo.constant dense<-2.10102394E-6> : tensor<f32> loc(#loc113)
    %cst_11 = stablehlo.constant dense<2.77068146E-8> : tensor<f32> loc(#loc113)
    %cst_12 = stablehlo.constant dense<-2.72614237E-10> : tensor<f32> loc(#loc113)
    %cst_13 = stablehlo.constant dense<-4.000000e+00> : tensor<f32> loc(#loc113)
    %cst_14 = stablehlo.constant dense<4.000000e+00> : tensor<f32> loc(#loc113)
    %0 = stablehlo.clamp %cst_13, %arg0, %cst_14 : tensor<f32> loc(#loc113)
    %1 = stablehlo.multiply %0, %0 : tensor<f32> loc(#loc113)
    %2 = stablehlo.multiply %cst_12, %1 : tensor<f32> loc(#loc113)
    %3 = stablehlo.add %2, %cst_11 : tensor<f32> loc(#loc113)
    %4 = stablehlo.multiply %3, %1 : tensor<f32> loc(#loc113)
    %5 = stablehlo.add %4, %cst_10 : tensor<f32> loc(#loc113)
    %6 = stablehlo.multiply %5, %1 : tensor<f32> loc(#loc113)
    %7 = stablehlo.add %6, %cst_9 : tensor<f32> loc(#loc113)
    %8 = stablehlo.multiply %7, %1 : tensor<f32> loc(#loc113)
    %9 = stablehlo.add %8, %cst_8 : tensor<f32> loc(#loc113)
    %10 = stablehlo.multiply %9, %1 : tensor<f32> loc(#loc113)
    %11 = stablehlo.add %10, %cst_7 : tensor<f32> loc(#loc113)
    %12 = stablehlo.multiply %11, %1 : tensor<f32> loc(#loc113)
    %13 = stablehlo.add %12, %cst_6 : tensor<f32> loc(#loc113)
    %14 = stablehlo.multiply %cst_5, %1 : tensor<f32> loc(#loc113)
    %15 = stablehlo.add %14, %cst_4 : tensor<f32> loc(#loc113)
    %16 = stablehlo.multiply %15, %1 : tensor<f32> loc(#loc113)
    %17 = stablehlo.add %16, %cst_3 : tensor<f32> loc(#loc113)
    %18 = stablehlo.multiply %17, %1 : tensor<f32> loc(#loc113)
    %19 = stablehlo.add %18, %cst_2 : tensor<f32> loc(#loc113)
    %20 = stablehlo.multiply %19, %1 : tensor<f32> loc(#loc113)
    %21 = stablehlo.add %20, %cst_1 : tensor<f32> loc(#loc113)
    %22 = stablehlo.multiply %0, %13 : tensor<f32> loc(#loc113)
    %23 = stablehlo.divide %22, %21 : tensor<f32> loc(#loc113)
    %24 = stablehlo.clamp %cst_0, %23, %cst : tensor<f32> loc(#loc113)
    return %24 : tensor<f32> loc(#loc113)
  } loc(#loc113)
  func.func private @chlo.erf.impl_5(%arg0: tensor<f32> loc("erf")) -> tensor<f32> {
    %cst = stablehlo.constant dense<1.000000e+00> : tensor<f32> loc(#loc113)
    %cst_0 = stablehlo.constant dense<-1.000000e+00> : tensor<f32> loc(#loc113)
    %cst_1 = stablehlo.constant dense<-0.0142647391> : tensor<f32> loc(#loc113)
    %cst_2 = stablehlo.constant dense<-0.00737332925> : tensor<f32> loc(#loc113)
    %cst_3 = stablehlo.constant dense<-0.00168282702> : tensor<f32> loc(#loc113)
    %cst_4 = stablehlo.constant dense<-2.13374049E-4> : tensor<f32> loc(#loc113)
    %cst_5 = stablehlo.constant dense<-1.45660715E-5> : tensor<f32> loc(#loc113)
    %cst_6 = stablehlo.constant dense<-0.0160960332> : tensor<f32> loc(#loc113)
    %cst_7 = stablehlo.constant dense<-2.954600e-03> : tensor<f32> loc(#loc113)
    %cst_8 = stablehlo.constant dense<-7.34990637E-4> : tensor<f32> loc(#loc113)
    %cst_9 = stablehlo.constant dense<-5.69250624E-5> : tensor<f32> loc(#loc113)
    %cst_10 = stablehlo.constant dense<-2.10102394E-6> : tensor<f32> loc(#loc113)
    %cst_11 = stablehlo.constant dense<2.77068146E-8> : tensor<f32> loc(#loc113)
    %cst_12 = stablehlo.constant dense<-2.72614237E-10> : tensor<f32> loc(#loc113)
    %cst_13 = stablehlo.constant dense<-4.000000e+00> : tensor<f32> loc(#loc113)
    %cst_14 = stablehlo.constant dense<4.000000e+00> : tensor<f32> loc(#loc113)
    %0 = stablehlo.clamp %cst_13, %arg0, %cst_14 : tensor<f32> loc(#loc113)
    %1 = stablehlo.multiply %0, %0 : tensor<f32> loc(#loc113)
    %2 = stablehlo.multiply %cst_12, %1 : tensor<f32> loc(#loc113)
    %3 = stablehlo.add %2, %cst_11 : tensor<f32> loc(#loc113)
    %4 = stablehlo.multiply %3, %1 : tensor<f32> loc(#loc113)
    %5 = stablehlo.add %4, %cst_10 : tensor<f32> loc(#loc113)
    %6 = stablehlo.multiply %5, %1 : tensor<f32> loc(#loc113)
    %7 = stablehlo.add %6, %cst_9 : tensor<f32> loc(#loc113)
    %8 = stablehlo.multiply %7, %1 : tensor<f32> loc(#loc113)
    %9 = stablehlo.add %8, %cst_8 : tensor<f32> loc(#loc113)
    %10 = stablehlo.multiply %9, %1 : tensor<f32> loc(#loc113)
    %11 = stablehlo.add %10, %cst_7 : tensor<f32> loc(#loc113)
    %12 = stablehlo.multiply %11, %1 : tensor<f32> loc(#loc113)
    %13 = stablehlo.add %12, %cst_6 : tensor<f32> loc(#loc113)
    %14 = stablehlo.multiply %cst_5, %1 : tensor<f32> loc(#loc113)
    %15 = stablehlo.add %14, %cst_4 : tensor<f32> loc(#loc113)
    %16 = stablehlo.multiply %15, %1 : tensor<f32> loc(#loc113)
    %17 = stablehlo.add %16, %cst_3 : tensor<f32> loc(#loc113)
    %18 = stablehlo.multiply %17, %1 : tensor<f32> loc(#loc113)
    %19 = stablehlo.add %18, %cst_2 : tensor<f32> loc(#loc113)
    %20 = stablehlo.multiply %19, %1 : tensor<f32> loc(#loc113)
    %21 = stablehlo.add %20, %cst_1 : tensor<f32> loc(#loc113)
    %22 = stablehlo.multiply %0, %13 : tensor<f32> loc(#loc113)
    %23 = stablehlo.divide %22, %21 : tensor<f32> loc(#loc113)
    %24 = stablehlo.clamp %cst_0, %23, %cst : tensor<f32> loc(#loc113)
    return %24 : tensor<f32> loc(#loc113)
  } loc(#loc113)
  func.func private @_uniform_16(%arg0: tensor<2xui32> loc(unknown), %arg1: tensor<f32> loc(unknown), %arg2: tensor<f32> loc(unknown)) -> tensor<48x32xf32> {
    %cst = stablehlo.constant dense<1.000000e+00> : tensor<f32> loc(#loc)
    %c = stablehlo.constant dense<1065353216> : tensor<ui32> loc(#loc)
    %c_0 = stablehlo.constant dense<9> : tensor<ui32> loc(#loc)
    %c_1 = stablehlo.constant dense<1> : tensor<ui64> loc(#loc102)
    %c_2 = stablehlo.constant dense<32> : tensor<ui64> loc(#loc)
    %0 = stablehlo.broadcast_in_dim %arg1, dims = [] : (tensor<f32>) -> tensor<1x1xf32> loc(#loc103)
    %1 = stablehlo.broadcast_in_dim %arg2, dims = [] : (tensor<f32>) -> tensor<1x1xf32> loc(#loc103)
    %2 = stablehlo.slice %arg0 [0:1] : (tensor<2xui32>) -> tensor<1xui32> loc(#loc78)
    %3 = stablehlo.reshape %2 : (tensor<1xui32>) -> tensor<ui32> loc(#loc79)
    %4 = stablehlo.slice %arg0 [1:2] : (tensor<2xui32>) -> tensor<1xui32> loc(#loc78)
    %5 = stablehlo.reshape %4 : (tensor<1xui32>) -> tensor<ui32> loc(#loc79)
    %6 = stablehlo.iota dim = 0 : tensor<48x32xui64> loc(#loc102)
    %7 = stablehlo.iota dim = 1 : tensor<48x32xui64> loc(#loc102)
    %8 = stablehlo.broadcast_in_dim %c_2, dims = [] : (tensor<ui64>) -> tensor<48x32xui64> loc(#loc102)
    %9 = stablehlo.multiply %8, %6 : tensor<48x32xui64> loc(#loc102)
    %10 = stablehlo.broadcast_in_dim %c_1, dims = [] : (tensor<ui64>) -> tensor<48x32xui64> loc(#loc102)
    %11 = stablehlo.multiply %10, %7 : tensor<48x32xui64> loc(#loc102)
    %12 = stablehlo.add %9, %11 : tensor<48x32xui64> loc(#loc102)
    %13 = stablehlo.broadcast_in_dim %c_2, dims = [] : (tensor<ui64>) -> tensor<48x32xui64> loc(#loc102)
    %14 = stablehlo.shift_right_logical %12, %13 : tensor<48x32xui64> loc(#loc102)
    %15 = stablehlo.convert %12 : (tensor<48x32xui64>) -> tensor<48x32xui32> loc(#loc102)
    %16 = stablehlo.convert %14 : (tensor<48x32xui64>) -> tensor<48x32xui32> loc(#loc102)
    %17:2 = call @threefry2x32_17(%3, %5, %16, %15) : (tensor<ui32>, tensor<ui32>, tensor<48x32xui32>, tensor<48x32xui32>) -> (tensor<48x32xui32>, tensor<48x32xui32>) loc(#loc116)
    %18 = stablehlo.xor %17#0, %17#1 : tensor<48x32xui32> loc(#loc84)
    %19 = stablehlo.broadcast_in_dim %c_0, dims = [] : (tensor<ui32>) -> tensor<48x32xui32> loc(#loc82)
    %20 = stablehlo.shift_right_logical %18, %19 : tensor<48x32xui32> loc(#loc82)
    %21 = stablehlo.broadcast_in_dim %c, dims = [] : (tensor<ui32>) -> tensor<48x32xui32> loc(#loc83)
    %22 = stablehlo.or %20, %21 : tensor<48x32xui32> loc(#loc83)
    %23 = stablehlo.bitcast_convert %22 : (tensor<48x32xui32>) -> tensor<48x32xf32> loc(#loc117)
    %24 = stablehlo.broadcast_in_dim %cst, dims = [] : (tensor<f32>) -> tensor<48x32xf32> loc(#loc81)
    %25 = stablehlo.subtract %23, %24 : tensor<48x32xf32> loc(#loc81)
    %26 = stablehlo.subtract %1, %0 : tensor<1x1xf32> loc(#loc81)
    %27 = stablehlo.broadcast_in_dim %26, dims = [0, 1] : (tensor<1x1xf32>) -> tensor<48x32xf32> loc(#loc97)
    %28 = stablehlo.multiply %25, %27 : tensor<48x32xf32> loc(#loc97)
    %29 = stablehlo.broadcast_in_dim %0, dims = [0, 1] : (tensor<1x1xf32>) -> tensor<48x32xf32> loc(#loc77)
    %30 = stablehlo.add %28, %29 : tensor<48x32xf32> loc(#loc77)
    %31 = stablehlo.broadcast_in_dim %0, dims = [0, 1] : (tensor<1x1xf32>) -> tensor<48x32xf32> loc(#loc99)
    %32 = stablehlo.maximum %31, %30 : tensor<48x32xf32> loc(#loc99)
    return %32 : tensor<48x32xf32> loc(#loc)
  } loc(#loc198)
  func.func private @threefry2x32_17(%arg0: tensor<ui32> loc(unknown), %arg1: tensor<ui32> loc(unknown), %arg2: tensor<48x32xui32> loc(unknown), %arg3: tensor<48x32xui32> loc(unknown)) -> (tensor<48x32xui32>, tensor<48x32xui32>) {
    %c = stablehlo.constant dense<1> : tensor<i32> loc(#loc)
    %c_0 = stablehlo.constant dense<5> : tensor<i32> loc(#loc)
    %c_1 = stablehlo.constant dense<0> : tensor<i32> loc(#loc)
    %c_2 = stablehlo.constant dense<466688986> : tensor<ui32> loc(#loc197)
    %c_3 = stablehlo.constant dense<[13, 15, 26, 6]> : tensor<4xui32> loc(#loc197)
    %c_4 = stablehlo.constant dense<[17, 29, 16, 24]> : tensor<4xui32> loc(#loc197)
    %0 = stablehlo.xor %arg0, %arg1 : tensor<ui32> loc(#loc84)
    %1 = stablehlo.xor %0, %c_2 : tensor<ui32> loc(#loc84)
    %2 = stablehlo.broadcast_in_dim %arg0, dims = [] : (tensor<ui32>) -> tensor<48x32xui32> loc(#loc77)
    %3 = stablehlo.add %arg2, %2 : tensor<48x32xui32> loc(#loc77)
    %4 = stablehlo.broadcast_in_dim %arg1, dims = [] : (tensor<ui32>) -> tensor<48x32xui32> loc(#loc77)
    %5 = stablehlo.add %arg3, %4 : tensor<48x32xui32> loc(#loc77)
    %6:9 = stablehlo.while(%iterArg = %c_1, %iterArg_5 = %c_1, %iterArg_6 = %3, %iterArg_7 = %5, %iterArg_8 = %arg1, %iterArg_9 = %1, %iterArg_10 = %arg0, %iterArg_11 = %c_3, %iterArg_12 = %c_4) : tensor<i32>, tensor<i32>, tensor<48x32xui32>, tensor<48x32xui32>, tensor<ui32>, tensor<ui32>, tensor<ui32>, tensor<4xui32>, tensor<4xui32>
    cond {
      %7 = stablehlo.compare LT, %iterArg, %c_0, SIGNED : (tensor<i32>, tensor<i32>) -> tensor<i1> loc(#loc106)
      stablehlo.return %7 : tensor<i1> loc(#loc105)
    } do {
      %7:8 = func.call @closed_call_18(%iterArg_5, %iterArg_6, %iterArg_7, %iterArg_8, %iterArg_9, %iterArg_10, %iterArg_11, %iterArg_12) : (tensor<i32>, tensor<48x32xui32>, tensor<48x32xui32>, tensor<ui32>, tensor<ui32>, tensor<ui32>, tensor<4xui32>, tensor<4xui32>) -> (tensor<i32>, tensor<48x32xui32>, tensor<48x32xui32>, tensor<ui32>, tensor<ui32>, tensor<ui32>, tensor<4xui32>, tensor<4xui32>) loc(#loc107)
      %8 = stablehlo.add %iterArg, %c : tensor<i32> loc(#loc108)
      stablehlo.return %8, %7#0, %7#1, %7#2, %7#3, %7#4, %7#5, %7#6, %7#7 : tensor<i32>, tensor<i32>, tensor<48x32xui32>, tensor<48x32xui32>, tensor<ui32>, tensor<ui32>, tensor<ui32>, tensor<4xui32>, tensor<4xui32> loc(#loc105)
    } loc(#loc105)
    return %6#2, %6#3 : tensor<48x32xui32>, tensor<48x32xui32> loc(#loc)
  } loc(#loc)
  func.func private @closed_call_18(%arg0: tensor<i32> loc(unknown), %arg1: tensor<48x32xui32> loc(unknown), %arg2: tensor<48x32xui32> loc(unknown), %arg3: tensor<ui32> loc(unknown), %arg4: tensor<ui32> loc(unknown), %arg5: tensor<ui32> loc(unknown), %arg6: tensor<4xui32> loc(unknown), %arg7: tensor<4xui32> loc(unknown)) -> (tensor<i32>, tensor<48x32xui32>, tensor<48x32xui32>, tensor<ui32>, tensor<ui32>, tensor<ui32>, tensor<4xui32>, tensor<4xui32>) {
    %c = stablehlo.constant dense<32> : tensor<ui32> loc(#loc)
    %c_0 = stablehlo.constant dense<1> : tensor<i32> loc(#loc)
    %0 = stablehlo.add %arg0, %c_0 : tensor<i32> loc(#loc77)
    %1 = stablehlo.slice %arg6 [0:1] : (tensor<4xui32>) -> tensor<1xui32> loc(#loc78)
    %2 = stablehlo.reshape %1 : (tensor<1xui32>) -> tensor<ui32> loc(#loc79)
    %3 = stablehlo.add %arg1, %arg2 : tensor<48x32xui32> loc(#loc77)
    %4 = stablehlo.broadcast_in_dim %2, dims = [] : (tensor<ui32>) -> tensor<48x32xui32> loc(#loc80)
    %5 = stablehlo.shift_left %arg2, %4 : tensor<48x32xui32> loc(#loc80)
    %6 = stablehlo.subtract %c, %2 : tensor<ui32> loc(#loc81)
    %7 = stablehlo.broadcast_in_dim %6, dims = [] : (tensor<ui32>) -> tensor<48x32xui32> loc(#loc82)
    %8 = stablehlo.shift_right_logical %arg2, %7 : tensor<48x32xui32> loc(#loc82)
    %9 = stablehlo.or %5, %8 : tensor<48x32xui32> loc(#loc83)
    %10 = stablehlo.xor %3, %9 : tensor<48x32xui32> loc(#loc84)
    %11 = stablehlo.slice %arg6 [1:2] : (tensor<4xui32>) -> tensor<1xui32> loc(#loc78)
    %12 = stablehlo.reshape %11 : (tensor<1xui32>) -> tensor<ui32> loc(#loc79)
    %13 = stablehlo.add %3, %10 : tensor<48x32xui32> loc(#loc77)
    %14 = stablehlo.broadcast_in_dim %12, dims = [] : (tensor<ui32>) -> tensor<48x32xui32> loc(#loc80)
    %15 = stablehlo.shift_left %10, %14 : tensor<48x32xui32> loc(#loc80)
    %16 = stablehlo.subtract %c, %12 : tensor<ui32> loc(#loc81)
    %17 = stablehlo.broadcast_in_dim %16, dims = [] : (tensor<ui32>) -> tensor<48x32xui32> loc(#loc82)
    %18 = stablehlo.shift_right_logical %10, %17 : tensor<48x32xui32> loc(#loc82)
    %19 = stablehlo.or %15, %18 : tensor<48x32xui32> loc(#loc83)
    %20 = stablehlo.xor %13, %19 : tensor<48x32xui32> loc(#loc84)
    %21 = stablehlo.slice %arg6 [2:3] : (tensor<4xui32>) -> tensor<1xui32> loc(#loc78)
    %22 = stablehlo.reshape %21 : (tensor<1xui32>) -> tensor<ui32> loc(#loc79)
    %23 = stablehlo.add %13, %20 : tensor<48x32xui32> loc(#loc77)
    %24 = stablehlo.broadcast_in_dim %22, dims = [] : (tensor<ui32>) -> tensor<48x32xui32> loc(#loc80)
    %25 = stablehlo.shift_left %20, %24 : tensor<48x32xui32> loc(#loc80)
    %26 = stablehlo.subtract %c, %22 : tensor<ui32> loc(#loc81)
    %27 = stablehlo.broadcast_in_dim %26, dims = [] : (tensor<ui32>) -> tensor<48x32xui32> loc(#loc82)
    %28 = stablehlo.shift_right_logical %20, %27 : tensor<48x32xui32> loc(#loc82)
    %29 = stablehlo.or %25, %28 : tensor<48x32xui32> loc(#loc83)
    %30 = stablehlo.xor %23, %29 : tensor<48x32xui32> loc(#loc84)
    %31 = stablehlo.slice %arg6 [3:4] : (tensor<4xui32>) -> tensor<1xui32> loc(#loc78)
    %32 = stablehlo.reshape %31 : (tensor<1xui32>) -> tensor<ui32> loc(#loc79)
    %33 = stablehlo.add %23, %30 : tensor<48x32xui32> loc(#loc77)
    %34 = stablehlo.broadcast_in_dim %32, dims = [] : (tensor<ui32>) -> tensor<48x32xui32> loc(#loc80)
    %35 = stablehlo.shift_left %30, %34 : tensor<48x32xui32> loc(#loc80)
    %36 = stablehlo.subtract %c, %32 : tensor<ui32> loc(#loc81)
    %37 = stablehlo.broadcast_in_dim %36, dims = [] : (tensor<ui32>) -> tensor<48x32xui32> loc(#loc82)
    %38 = stablehlo.shift_right_logical %30, %37 : tensor<48x32xui32> loc(#loc82)
    %39 = stablehlo.or %35, %38 : tensor<48x32xui32> loc(#loc83)
    %40 = stablehlo.xor %33, %39 : tensor<48x32xui32> loc(#loc84)
    %41 = stablehlo.broadcast_in_dim %arg3, dims = [] : (tensor<ui32>) -> tensor<48x32xui32> loc(#loc77)
    %42 = stablehlo.add %33, %41 : tensor<48x32xui32> loc(#loc77)
    %43 = stablehlo.broadcast_in_dim %arg4, dims = [] : (tensor<ui32>) -> tensor<48x32xui32> loc(#loc77)
    %44 = stablehlo.add %40, %43 : tensor<48x32xui32> loc(#loc77)
    %45 = stablehlo.add %arg0, %c_0 : tensor<i32> loc(#loc77)
    %46 = stablehlo.convert %45 : (tensor<i32>) -> tensor<ui32> loc(#loc85)
    %47 = stablehlo.broadcast_in_dim %46, dims = [] : (tensor<ui32>) -> tensor<48x32xui32> loc(#loc77)
    %48 = stablehlo.add %44, %47 : tensor<48x32xui32> loc(#loc77)
    return %0, %42, %48, %arg4, %arg5, %arg3, %arg7, %arg6 : tensor<i32>, tensor<48x32xui32>, tensor<48x32xui32>, tensor<ui32>, tensor<ui32>, tensor<ui32>, tensor<4xui32>, tensor<4xui32> loc(#loc)
  } loc(#loc200)
  func.func private @clip_19(%arg0: tensor<48x32xf32> loc(unknown), %arg1: tensor<f32> loc(unknown), %arg2: tensor<f32> loc(unknown)) -> tensor<48x32xf32> {
    %0 = stablehlo.broadcast_in_dim %arg1, dims = [] : (tensor<f32>) -> tensor<48x32xf32> loc(#loc99)
    %1 = stablehlo.maximum %0, %arg0 : tensor<48x32xf32> loc(#loc99)
    %2 = stablehlo.broadcast_in_dim %arg2, dims = [] : (tensor<f32>) -> tensor<48x32xf32> loc(#loc100)
    %3 = stablehlo.minimum %2, %1 : tensor<48x32xf32> loc(#loc100)
    return %3 : tensor<48x32xf32> loc(#loc)
  } loc(#loc198)
  func.func private @_truncated_normal_20(%arg0: tensor<2xui32> loc(unknown), %arg1: tensor<i32> loc(unknown), %arg2: tensor<i32> loc(unknown)) -> tensor<32x32xf32> {
    %c = stablehlo.constant dense<-1> : tensor<i32> loc(#loc)
    %c_0 = stablehlo.constant dense<1> : tensor<i32> loc(#loc)
    %c_1 = stablehlo.constant dense<0> : tensor<i32> loc(#loc)
    %c_2 = stablehlo.constant dense<2147483647> : tensor<i32> loc(#loc)
    %c_3 = stablehlo.constant dense<-2147483648> : tensor<i32> loc(#loc)
    %cst = stablehlo.constant dense<0x7FC00000> : tensor<f32> loc(#loc)
    %cst_4 = stablehlo.constant dense<0x7F800000> : tensor<32x32xf32> loc(#loc111)
    %cst_5 = stablehlo.constant dense<1.000000e+00> : tensor<32x32xf32> loc(#loc111)
    %cst_6 = stablehlo.constant dense<2.83297682> : tensor<32x32xf32> loc(#loc111)
    %cst_7 = stablehlo.constant dense<1.50140941> : tensor<32x32xf32> loc(#loc111)
    %cst_8 = stablehlo.constant dense<1.00167406> : tensor<32x32xf32> loc(#loc111)
    %cst_9 = stablehlo.constant dense<0.246640727> : tensor<32x32xf32> loc(#loc111)
    %cst_10 = stablehlo.constant dense<0.00943887047> : tensor<32x32xf32> loc(#loc111)
    %cst_11 = stablehlo.constant dense<-0.00417768164> : tensor<32x32xf32> loc(#loc111)
    %cst_12 = stablehlo.constant dense<-0.0076224613> : tensor<32x32xf32> loc(#loc111)
    %cst_13 = stablehlo.constant dense<-0.00125372503> : tensor<32x32xf32> loc(#loc111)
    %cst_14 = stablehlo.constant dense<0.00573950773> : tensor<32x32xf32> loc(#loc111)
    %cst_15 = stablehlo.constant dense<2.1858087E-4> : tensor<32x32xf32> loc(#loc111)
    %cst_16 = stablehlo.constant dense<-0.00367342844> : tensor<32x32xf32> loc(#loc111)
    %cst_17 = stablehlo.constant dense<-4.39150654E-6> : tensor<32x32xf32> loc(#loc111)
    %cst_18 = stablehlo.constant dense<0.00134934322> : tensor<32x32xf32> loc(#loc111)
    %cst_19 = stablehlo.constant dense<-3.5233877E-6> : tensor<32x32xf32> loc(#loc111)
    %cst_20 = stablehlo.constant dense<1.00950558E-4> : tensor<32x32xf32> loc(#loc111)
    %cst_21 = stablehlo.constant dense<3.43273939E-7> : tensor<32x32xf32> loc(#loc111)
    %cst_22 = stablehlo.constant dense<-2.00214257E-4> : tensor<32x32xf32> loc(#loc111)
    %cst_23 = stablehlo.constant dense<2.81022636E-8> : tensor<32x32xf32> loc(#loc111)
    %cst_24 = stablehlo.constant dense<3.000000e+00> : tensor<32x32xf32> loc(#loc111)
    %cst_25 = stablehlo.constant dense<2.500000e+00> : tensor<32x32xf32> loc(#loc111)
    %cst_26 = stablehlo.constant dense<5.000000e+00> : tensor<32x32xf32> loc(#loc111)
    %cst_27 = stablehlo.constant dense<0xFF800000> : tensor<f32> loc(#loc)
    %cst_28 = stablehlo.constant dense<0x7F800000> : tensor<f32> loc(#loc)
    %cst_29 = stablehlo.constant dense<1.41421354> : tensor<f32> loc(#loc)
    %0 = stablehlo.convert %arg1 : (tensor<i32>) -> tensor<f32> loc(#loc85)
    %1 = stablehlo.convert %arg2 : (tensor<i32>) -> tensor<f32> loc(#loc85)
    %2 = stablehlo.divide %0, %cst_29 : tensor<f32> loc(#loc112)
    %3 = stablehlo.composite "chlo.erf" %2 {decomposition = @chlo.erf.impl_3, version = 1 : i32} : (tensor<f32>) -> tensor<f32> loc(#loc113)
    %4 = stablehlo.divide %1, %cst_29 : tensor<f32> loc(#loc112)
    %5 = stablehlo.composite "chlo.erf" %4 {decomposition = @chlo.erf.impl_4, version = 1 : i32} : (tensor<f32>) -> tensor<f32> loc(#loc113)
    %6 = call @_uniform_21(%arg0, %3, %5) : (tensor<2xui32>, tensor<f32>, tensor<f32>) -> tensor<32x32xf32> loc(#loc114)
    %7 = stablehlo.negate %6 : tensor<32x32xf32> loc(#loc111)
    %8 = stablehlo.multiply %6, %7 : tensor<32x32xf32> loc(#loc111)
    %9 = stablehlo.log_plus_one %8 : tensor<32x32xf32> loc(#loc111)
    %10 = stablehlo.negate %9 : tensor<32x32xf32> loc(#loc111)
    %11 = stablehlo.compare LT, %10, %cst_26 : (tensor<32x32xf32>, tensor<32x32xf32>) -> tensor<32x32xi1> loc(#loc111)
    %12 = stablehlo.subtract %10, %cst_25 : tensor<32x32xf32> loc(#loc111)
    %13 = stablehlo.sqrt %10 : tensor<32x32xf32> loc(#loc111)
    %14 = stablehlo.subtract %13, %cst_24 : tensor<32x32xf32> loc(#loc111)
    %15 = stablehlo.select %11, %12, %14 : tensor<32x32xi1>, tensor<32x32xf32> loc(#loc111)
    %16 = stablehlo.select %11, %cst_23, %cst_22 : tensor<32x32xi1>, tensor<32x32xf32> loc(#loc111)
    %17 = stablehlo.select %11, %cst_21, %cst_20 : tensor<32x32xi1>, tensor<32x32xf32> loc(#loc111)
    %18 = stablehlo.multiply %16, %15 : tensor<32x32xf32> loc(#loc111)
    %19 = stablehlo.add %17, %18 : tensor<32x32xf32> loc(#loc111)
    %20 = stablehlo.select %11, %cst_19, %cst_18 : tensor<32x32xi1>, tensor<32x32xf32> loc(#loc111)
    %21 = stablehlo.multiply %19, %15 : tensor<32x32xf32> loc(#loc111)
    %22 = stablehlo.add %20, %21 : tensor<32x32xf32> loc(#loc111)
    %23 = stablehlo.select %11, %cst_17, %cst_16 : tensor<32x32xi1>, tensor<32x32xf32> loc(#loc111)
    %24 = stablehlo.multiply %22, %15 : tensor<32x32xf32> loc(#loc111)
    %25 = stablehlo.add %23, %24 : tensor<32x32xf32> loc(#loc111)
    %26 = stablehlo.select %11, %cst_15, %cst_14 : tensor<32x32xi1>, tensor<32x32xf32> loc(#loc111)
    %27 = stablehlo.multiply %25, %15 : tensor<32x32xf32> loc(#loc111)
    %28 = stablehlo.add %26, %27 : tensor<32x32xf32> loc(#loc111)
    %29 = stablehlo.select %11, %cst_13, %cst_12 : tensor<32x32xi1>, tensor<32x32xf32> loc(#loc111)
    %30 = stablehlo.multiply %28, %15 : tensor<32x32xf32> loc(#loc111)
    %31 = stablehlo.add %29, %30 : tensor<32x32xf32> loc(#loc111)
    %32 = stablehlo.select %11, %cst_11, %cst_10 : tensor<32x32xi1>, tensor<32x32xf32> loc(#loc111)
    %33 = stablehlo.multiply %31, %15 : tensor<32x32xf32> loc(#loc111)
    %34 = stablehlo.add %32, %33 : tensor<32x32xf32> loc(#loc111)
    %35 = stablehlo.select %11, %cst_9, %cst_8 : tensor<32x32xi1>, tensor<32x32xf32> loc(#loc111)
    %36 = stablehlo.multiply %34, %15 : tensor<32x32xf32> loc(#loc111)
    %37 = stablehlo.add %35, %36 : tensor<32x32xf32> loc(#loc111)
    %38 = stablehlo.select %11, %cst_7, %cst_6 : tensor<32x32xi1>, tensor<32x32xf32> loc(#loc111)
    %39 = stablehlo.multiply %37, %15 : tensor<32x32xf32> loc(#loc111)
    %40 = stablehlo.add %38, %39 : tensor<32x32xf32> loc(#loc111)
    %41 = stablehlo.multiply %40, %6 : tensor<32x32xf32> loc(#loc111)
    %42 = stablehlo.abs %6 : tensor<32x32xf32> loc(#loc111)
    %43 = stablehlo.compare EQ, %42, %cst_5 : (tensor<32x32xf32>, tensor<32x32xf32>) -> tensor<32x32xi1> loc(#loc111)
    %44 = stablehlo.multiply %6, %cst_4 : tensor<32x32xf32> loc(#loc111)
    %45 = stablehlo.select %43, %44, %41 : tensor<32x32xi1>, tensor<32x32xf32> loc(#loc111)
    %46 = stablehlo.broadcast_in_dim %cst_29, dims = [] : (tensor<f32>) -> tensor<32x32xf32> loc(#loc97)
    %47 = stablehlo.multiply %46, %45 : tensor<32x32xf32> loc(#loc97)
    %48 = stablehlo.bitcast_convert %0 : (tensor<f32>) -> tensor<i32> loc(#loc115)
    %49 = stablehlo.bitcast_convert %cst_28 : (tensor<f32>) -> tensor<i32> loc(#loc115)
    %50 = stablehlo.compare NE, %0, %0 : (tensor<f32>, tensor<f32>) -> tensor<i1> loc(#loc115)
    %51 = stablehlo.compare NE, %cst_28, %cst_28 : (tensor<f32>, tensor<f32>) -> tensor<i1> loc(#loc115)
    %52 = stablehlo.or %50, %51 : tensor<i1> loc(#loc115)
    %53 = stablehlo.bitcast_convert %cst : (tensor<f32>) -> tensor<i32> loc(#loc115)
    %54 = stablehlo.and %48, %c_2 : tensor<i32> loc(#loc115)
    %55 = stablehlo.and %49, %c_2 : tensor<i32> loc(#loc115)
    %56 = stablehlo.compare EQ, %0, %cst_28 : (tensor<f32>, tensor<f32>) -> tensor<i1> loc(#loc115)
    %57 = stablehlo.compare EQ, %54, %c_1 : (tensor<i32>, tensor<i32>) -> tensor<i1> loc(#loc115)
    %58 = stablehlo.compare EQ, %55, %c_1 : (tensor<i32>, tensor<i32>) -> tensor<i1> loc(#loc115)
    %59 = stablehlo.and %48, %c_3 : tensor<i32> loc(#loc115)
    %60 = stablehlo.and %49, %c_3 : tensor<i32> loc(#loc115)
    %61 = stablehlo.or %60, %c_0 : tensor<i32> loc(#loc115)
    %62 = stablehlo.compare NE, %59, %60 : (tensor<i32>, tensor<i32>) -> tensor<i1> loc(#loc115)
    %63 = stablehlo.compare GT, %54, %55 : (tensor<i32>, tensor<i32>) -> tensor<i1> loc(#loc115)
    %64 = stablehlo.or %63, %62 : tensor<i1> loc(#loc115)
    %65 = stablehlo.select %64, %c, %c_0 : tensor<i1>, tensor<i32> loc(#loc115)
    %66 = stablehlo.add %48, %65 : tensor<i32> loc(#loc115)
    %67 = stablehlo.select %58, %49, %61 : tensor<i1>, tensor<i32> loc(#loc115)
    %68 = stablehlo.select %57, %67, %66 : tensor<i1>, tensor<i32> loc(#loc115)
    %69 = stablehlo.select %56, %49, %68 : tensor<i1>, tensor<i32> loc(#loc115)
    %70 = stablehlo.select %52, %53, %69 : tensor<i1>, tensor<i32> loc(#loc115)
    %71 = stablehlo.bitcast_convert %70 : (tensor<i32>) -> tensor<f32> loc(#loc115)
    %72 = stablehlo.bitcast_convert %1 : (tensor<f32>) -> tensor<i32> loc(#loc115)
    %73 = stablehlo.bitcast_convert %cst_27 : (tensor<f32>) -> tensor<i32> loc(#loc115)
    %74 = stablehlo.compare NE, %1, %1 : (tensor<f32>, tensor<f32>) -> tensor<i1> loc(#loc115)
    %75 = stablehlo.compare NE, %cst_27, %cst_27 : (tensor<f32>, tensor<f32>) -> tensor<i1> loc(#loc115)
    %76 = stablehlo.or %74, %75 : tensor<i1> loc(#loc115)
    %77 = stablehlo.bitcast_convert %cst : (tensor<f32>) -> tensor<i32> loc(#loc115)
    %78 = stablehlo.and %72, %c_2 : tensor<i32> loc(#loc115)
    %79 = stablehlo.and %73, %c_2 : tensor<i32> loc(#loc115)
    %80 = stablehlo.compare EQ, %1, %cst_27 : (tensor<f32>, tensor<f32>) -> tensor<i1> loc(#loc115)
    %81 = stablehlo.compare EQ, %78, %c_1 : (tensor<i32>, tensor<i32>) -> tensor<i1> loc(#loc115)
    %82 = stablehlo.compare EQ, %79, %c_1 : (tensor<i32>, tensor<i32>) -> tensor<i1> loc(#loc115)
    %83 = stablehlo.and %72, %c_3 : tensor<i32> loc(#loc115)
    %84 = stablehlo.and %73, %c_3 : tensor<i32> loc(#loc115)
    %85 = stablehlo.or %84, %c_0 : tensor<i32> loc(#loc115)
    %86 = stablehlo.compare NE, %83, %84 : (tensor<i32>, tensor<i32>) -> tensor<i1> loc(#loc115)
    %87 = stablehlo.compare GT, %78, %79 : (tensor<i32>, tensor<i32>) -> tensor<i1> loc(#loc115)
    %88 = stablehlo.or %87, %86 : tensor<i1> loc(#loc115)
    %89 = stablehlo.select %88, %c, %c_0 : tensor<i1>, tensor<i32> loc(#loc115)
    %90 = stablehlo.add %72, %89 : tensor<i32> loc(#loc115)
    %91 = stablehlo.select %82, %73, %85 : tensor<i1>, tensor<i32> loc(#loc115)
    %92 = stablehlo.select %81, %91, %90 : tensor<i1>, tensor<i32> loc(#loc115)
    %93 = stablehlo.select %80, %73, %92 : tensor<i1>, tensor<i32> loc(#loc115)
    %94 = stablehlo.select %76, %77, %93 : tensor<i1>, tensor<i32> loc(#loc115)
    %95 = stablehlo.bitcast_convert %94 : (tensor<i32>) -> tensor<f32> loc(#loc115)
    %96 = call @clip_24(%47, %71, %95) : (tensor<32x32xf32>, tensor<f32>, tensor<f32>) -> tensor<32x32xf32> loc(#loc86)
    return %96 : tensor<32x32xf32> loc(#loc)
  } loc(#loc481)
  func.func private @chlo.erf.impl_4(%arg0: tensor<f32> loc("erf")) -> tensor<f32> {
    %cst = stablehlo.constant dense<1.000000e+00> : tensor<f32> loc(#loc113)
    %cst_0 = stablehlo.constant dense<-1.000000e+00> : tensor<f32> loc(#loc113)
    %cst_1 = stablehlo.constant dense<-0.0142647391> : tensor<f32> loc(#loc113)
    %cst_2 = stablehlo.constant dense<-0.00737332925> : tensor<f32> loc(#loc113)
    %cst_3 = stablehlo.constant dense<-0.00168282702> : tensor<f32> loc(#loc113)
    %cst_4 = stablehlo.constant dense<-2.13374049E-4> : tensor<f32> loc(#loc113)
    %cst_5 = stablehlo.constant dense<-1.45660715E-5> : tensor<f32> loc(#loc113)
    %cst_6 = stablehlo.constant dense<-0.0160960332> : tensor<f32> loc(#loc113)
    %cst_7 = stablehlo.constant dense<-2.954600e-03> : tensor<f32> loc(#loc113)
    %cst_8 = stablehlo.constant dense<-7.34990637E-4> : tensor<f32> loc(#loc113)
    %cst_9 = stablehlo.constant dense<-5.69250624E-5> : tensor<f32> loc(#loc113)
    %cst_10 = stablehlo.constant dense<-2.10102394E-6> : tensor<f32> loc(#loc113)
    %cst_11 = stablehlo.constant dense<2.77068146E-8> : tensor<f32> loc(#loc113)
    %cst_12 = stablehlo.constant dense<-2.72614237E-10> : tensor<f32> loc(#loc113)
    %cst_13 = stablehlo.constant dense<-4.000000e+00> : tensor<f32> loc(#loc113)
    %cst_14 = stablehlo.constant dense<4.000000e+00> : tensor<f32> loc(#loc113)
    %0 = stablehlo.clamp %cst_13, %arg0, %cst_14 : tensor<f32> loc(#loc113)
    %1 = stablehlo.multiply %0, %0 : tensor<f32> loc(#loc113)
    %2 = stablehlo.multiply %cst_12, %1 : tensor<f32> loc(#loc113)
    %3 = stablehlo.add %2, %cst_11 : tensor<f32> loc(#loc113)
    %4 = stablehlo.multiply %3, %1 : tensor<f32> loc(#loc113)
    %5 = stablehlo.add %4, %cst_10 : tensor<f32> loc(#loc113)
    %6 = stablehlo.multiply %5, %1 : tensor<f32> loc(#loc113)
    %7 = stablehlo.add %6, %cst_9 : tensor<f32> loc(#loc113)
    %8 = stablehlo.multiply %7, %1 : tensor<f32> loc(#loc113)
    %9 = stablehlo.add %8, %cst_8 : tensor<f32> loc(#loc113)
    %10 = stablehlo.multiply %9, %1 : tensor<f32> loc(#loc113)
    %11 = stablehlo.add %10, %cst_7 : tensor<f32> loc(#loc113)
    %12 = stablehlo.multiply %11, %1 : tensor<f32> loc(#loc113)
    %13 = stablehlo.add %12, %cst_6 : tensor<f32> loc(#loc113)
    %14 = stablehlo.multiply %cst_5, %1 : tensor<f32> loc(#loc113)
    %15 = stablehlo.add %14, %cst_4 : tensor<f32> loc(#loc113)
    %16 = stablehlo.multiply %15, %1 : tensor<f32> loc(#loc113)
    %17 = stablehlo.add %16, %cst_3 : tensor<f32> loc(#loc113)
    %18 = stablehlo.multiply %17, %1 : tensor<f32> loc(#loc113)
    %19 = stablehlo.add %18, %cst_2 : tensor<f32> loc(#loc113)
    %20 = stablehlo.multiply %19, %1 : tensor<f32> loc(#loc113)
    %21 = stablehlo.add %20, %cst_1 : tensor<f32> loc(#loc113)
    %22 = stablehlo.multiply %0, %13 : tensor<f32> loc(#loc113)
    %23 = stablehlo.divide %22, %21 : tensor<f32> loc(#loc113)
    %24 = stablehlo.clamp %cst_0, %23, %cst : tensor<f32> loc(#loc113)
    return %24 : tensor<f32> loc(#loc113)
  } loc(#loc113)
  func.func private @chlo.erf.impl_3(%arg0: tensor<f32> loc("erf")) -> tensor<f32> {
    %cst = stablehlo.constant dense<1.000000e+00> : tensor<f32> loc(#loc113)
    %cst_0 = stablehlo.constant dense<-1.000000e+00> : tensor<f32> loc(#loc113)
    %cst_1 = stablehlo.constant dense<-0.0142647391> : tensor<f32> loc(#loc113)
    %cst_2 = stablehlo.constant dense<-0.00737332925> : tensor<f32> loc(#loc113)
    %cst_3 = stablehlo.constant dense<-0.00168282702> : tensor<f32> loc(#loc113)
    %cst_4 = stablehlo.constant dense<-2.13374049E-4> : tensor<f32> loc(#loc113)
    %cst_5 = stablehlo.constant dense<-1.45660715E-5> : tensor<f32> loc(#loc113)
    %cst_6 = stablehlo.constant dense<-0.0160960332> : tensor<f32> loc(#loc113)
    %cst_7 = stablehlo.constant dense<-2.954600e-03> : tensor<f32> loc(#loc113)
    %cst_8 = stablehlo.constant dense<-7.34990637E-4> : tensor<f32> loc(#loc113)
    %cst_9 = stablehlo.constant dense<-5.69250624E-5> : tensor<f32> loc(#loc113)
    %cst_10 = stablehlo.constant dense<-2.10102394E-6> : tensor<f32> loc(#loc113)
    %cst_11 = stablehlo.constant dense<2.77068146E-8> : tensor<f32> loc(#loc113)
    %cst_12 = stablehlo.constant dense<-2.72614237E-10> : tensor<f32> loc(#loc113)
    %cst_13 = stablehlo.constant dense<-4.000000e+00> : tensor<f32> loc(#loc113)
    %cst_14 = stablehlo.constant dense<4.000000e+00> : tensor<f32> loc(#loc113)
    %0 = stablehlo.clamp %cst_13, %arg0, %cst_14 : tensor<f32> loc(#loc113)
    %1 = stablehlo.multiply %0, %0 : tensor<f32> loc(#loc113)
    %2 = stablehlo.multiply %cst_12, %1 : tensor<f32> loc(#loc113)
    %3 = stablehlo.add %2, %cst_11 : tensor<f32> loc(#loc113)
    %4 = stablehlo.multiply %3, %1 : tensor<f32> loc(#loc113)
    %5 = stablehlo.add %4, %cst_10 : tensor<f32> loc(#loc113)
    %6 = stablehlo.multiply %5, %1 : tensor<f32> loc(#loc113)
    %7 = stablehlo.add %6, %cst_9 : tensor<f32> loc(#loc113)
    %8 = stablehlo.multiply %7, %1 : tensor<f32> loc(#loc113)
    %9 = stablehlo.add %8, %cst_8 : tensor<f32> loc(#loc113)
    %10 = stablehlo.multiply %9, %1 : tensor<f32> loc(#loc113)
    %11 = stablehlo.add %10, %cst_7 : tensor<f32> loc(#loc113)
    %12 = stablehlo.multiply %11, %1 : tensor<f32> loc(#loc113)
    %13 = stablehlo.add %12, %cst_6 : tensor<f32> loc(#loc113)
    %14 = stablehlo.multiply %cst_5, %1 : tensor<f32> loc(#loc113)
    %15 = stablehlo.add %14, %cst_4 : tensor<f32> loc(#loc113)
    %16 = stablehlo.multiply %15, %1 : tensor<f32> loc(#loc113)
    %17 = stablehlo.add %16, %cst_3 : tensor<f32> loc(#loc113)
    %18 = stablehlo.multiply %17, %1 : tensor<f32> loc(#loc113)
    %19 = stablehlo.add %18, %cst_2 : tensor<f32> loc(#loc113)
    %20 = stablehlo.multiply %19, %1 : tensor<f32> loc(#loc113)
    %21 = stablehlo.add %20, %cst_1 : tensor<f32> loc(#loc113)
    %22 = stablehlo.multiply %0, %13 : tensor<f32> loc(#loc113)
    %23 = stablehlo.divide %22, %21 : tensor<f32> loc(#loc113)
    %24 = stablehlo.clamp %cst_0, %23, %cst : tensor<f32> loc(#loc113)
    return %24 : tensor<f32> loc(#loc113)
  } loc(#loc113)
  func.func private @_uniform_21(%arg0: tensor<2xui32> loc(unknown), %arg1: tensor<f32> loc(unknown), %arg2: tensor<f32> loc(unknown)) -> tensor<32x32xf32> {
    %cst = stablehlo.constant dense<1.000000e+00> : tensor<f32> loc(#loc)
    %c = stablehlo.constant dense<1065353216> : tensor<ui32> loc(#loc)
    %c_0 = stablehlo.constant dense<9> : tensor<ui32> loc(#loc)
    %c_1 = stablehlo.constant dense<1> : tensor<ui64> loc(#loc102)
    %c_2 = stablehlo.constant dense<32> : tensor<ui64> loc(#loc)
    %0 = stablehlo.broadcast_in_dim %arg1, dims = [] : (tensor<f32>) -> tensor<1x1xf32> loc(#loc103)
    %1 = stablehlo.broadcast_in_dim %arg2, dims = [] : (tensor<f32>) -> tensor<1x1xf32> loc(#loc103)
    %2 = stablehlo.slice %arg0 [0:1] : (tensor<2xui32>) -> tensor<1xui32> loc(#loc78)
    %3 = stablehlo.reshape %2 : (tensor<1xui32>) -> tensor<ui32> loc(#loc79)
    %4 = stablehlo.slice %arg0 [1:2] : (tensor<2xui32>) -> tensor<1xui32> loc(#loc78)
    %5 = stablehlo.reshape %4 : (tensor<1xui32>) -> tensor<ui32> loc(#loc79)
    %6 = stablehlo.iota dim = 0 : tensor<32x32xui64> loc(#loc102)
    %7 = stablehlo.iota dim = 1 : tensor<32x32xui64> loc(#loc102)
    %8 = stablehlo.broadcast_in_dim %c_2, dims = [] : (tensor<ui64>) -> tensor<32x32xui64> loc(#loc102)
    %9 = stablehlo.multiply %8, %6 : tensor<32x32xui64> loc(#loc102)
    %10 = stablehlo.broadcast_in_dim %c_1, dims = [] : (tensor<ui64>) -> tensor<32x32xui64> loc(#loc102)
    %11 = stablehlo.multiply %10, %7 : tensor<32x32xui64> loc(#loc102)
    %12 = stablehlo.add %9, %11 : tensor<32x32xui64> loc(#loc102)
    %13 = stablehlo.broadcast_in_dim %c_2, dims = [] : (tensor<ui64>) -> tensor<32x32xui64> loc(#loc102)
    %14 = stablehlo.shift_right_logical %12, %13 : tensor<32x32xui64> loc(#loc102)
    %15 = stablehlo.convert %12 : (tensor<32x32xui64>) -> tensor<32x32xui32> loc(#loc102)
    %16 = stablehlo.convert %14 : (tensor<32x32xui64>) -> tensor<32x32xui32> loc(#loc102)
    %17:2 = call @threefry2x32_22(%3, %5, %16, %15) : (tensor<ui32>, tensor<ui32>, tensor<32x32xui32>, tensor<32x32xui32>) -> (tensor<32x32xui32>, tensor<32x32xui32>) loc(#loc116)
    %18 = stablehlo.xor %17#0, %17#1 : tensor<32x32xui32> loc(#loc84)
    %19 = stablehlo.broadcast_in_dim %c_0, dims = [] : (tensor<ui32>) -> tensor<32x32xui32> loc(#loc82)
    %20 = stablehlo.shift_right_logical %18, %19 : tensor<32x32xui32> loc(#loc82)
    %21 = stablehlo.broadcast_in_dim %c, dims = [] : (tensor<ui32>) -> tensor<32x32xui32> loc(#loc83)
    %22 = stablehlo.or %20, %21 : tensor<32x32xui32> loc(#loc83)
    %23 = stablehlo.bitcast_convert %22 : (tensor<32x32xui32>) -> tensor<32x32xf32> loc(#loc117)
    %24 = stablehlo.broadcast_in_dim %cst, dims = [] : (tensor<f32>) -> tensor<32x32xf32> loc(#loc81)
    %25 = stablehlo.subtract %23, %24 : tensor<32x32xf32> loc(#loc81)
    %26 = stablehlo.subtract %1, %0 : tensor<1x1xf32> loc(#loc81)
    %27 = stablehlo.broadcast_in_dim %26, dims = [0, 1] : (tensor<1x1xf32>) -> tensor<32x32xf32> loc(#loc97)
    %28 = stablehlo.multiply %25, %27 : tensor<32x32xf32> loc(#loc97)
    %29 = stablehlo.broadcast_in_dim %0, dims = [0, 1] : (tensor<1x1xf32>) -> tensor<32x32xf32> loc(#loc77)
    %30 = stablehlo.add %28, %29 : tensor<32x32xf32> loc(#loc77)
    %31 = stablehlo.broadcast_in_dim %0, dims = [0, 1] : (tensor<1x1xf32>) -> tensor<32x32xf32> loc(#loc99)
    %32 = stablehlo.maximum %31, %30 : tensor<32x32xf32> loc(#loc99)
    return %32 : tensor<32x32xf32> loc(#loc)
  } loc(#loc198)
  func.func private @threefry2x32_22(%arg0: tensor<ui32> loc(unknown), %arg1: tensor<ui32> loc(unknown), %arg2: tensor<32x32xui32> loc(unknown), %arg3: tensor<32x32xui32> loc(unknown)) -> (tensor<32x32xui32>, tensor<32x32xui32>) {
    %c = stablehlo.constant dense<1> : tensor<i32> loc(#loc)
    %c_0 = stablehlo.constant dense<5> : tensor<i32> loc(#loc)
…
    %23 = stablehlo.select %11, %cst_17, %cst_16 : tensor<32x1xi1>, tensor<32x1xf32> loc(#loc111)
    %24 = stablehlo.multiply %22, %15 : tensor<32x1xf32> loc(#loc111)
    %25 = stablehlo.add %23, %24 : tensor<32x1xf32> loc(#loc111)
    %26 = stablehlo.select %11, %cst_15, %cst_14 : tensor<32x1xi1>, tensor<32x1xf32> loc(#loc111)
    %27 = stablehlo.multiply %25, %15 : tensor<32x1xf32> loc(#loc111)
    %28 = stablehlo.add %26, %27 : tensor<32x1xf32> loc(#loc111)
    %29 = stablehlo.select %11, %cst_13, %cst_12 : tensor<32x1xi1>, tensor<32x1xf32> loc(#loc111)
    %30 = stablehlo.multiply %28, %15 : tensor<32x1xf32> loc(#loc111)
    %31 = stablehlo.add %29, %30 : tensor<32x1xf32> loc(#loc111)
    %32 = stablehlo.select %11, %cst_11, %cst_10 : tensor<32x1xi1>, tensor<32x1xf32> loc(#loc111)
    %33 = stablehlo.multiply %31, %15 : tensor<32x1xf32> loc(#loc111)
    %34 = stablehlo.add %32, %33 : tensor<32x1xf32> loc(#loc111)
    %35 = stablehlo.select %11, %cst_9, %cst_8 : tensor<32x1xi1>, tensor<32x1xf32> loc(#loc111)
    %36 = stablehlo.multiply %34, %15 : tensor<32x1xf32> loc(#loc111)
    %37 = stablehlo.add %35, %36 : tensor<32x1xf32> loc(#loc111)
    %38 = stablehlo.select %11, %cst_7, %cst_6 : tensor<32x1xi1>, tensor<32x1xf32> loc(#loc111)
    %39 = stablehlo.multiply %37, %15 : tensor<32x1xf32> loc(#loc111)
    %40 = stablehlo.add %38, %39 : tensor<32x1xf32> loc(#loc111)
    %41 = stablehlo.multiply %40, %6 : tensor<32x1xf32> loc(#loc111)
    %42 = stablehlo.abs %6 : tensor<32x1xf32> loc(#loc111)
    %43 = stablehlo.compare EQ, %42, %cst_5 : (tensor<32x1xf32>, tensor<32x1xf32>) -> tensor<32x1xi1> loc(#loc111)
    %44 = stablehlo.multiply %6, %cst_4 : tensor<32x1xf32> loc(#loc111)
    %45 = stablehlo.select %43, %44, %41 : tensor<32x1xi1>, tensor<32x1xf32> loc(#loc111)
    %46 = stablehlo.broadcast_in_dim %cst_29, dims = [] : (tensor<f32>) -> tensor<32x1xf32> loc(#loc97)
    %47 = stablehlo.multiply %46, %45 : tensor<32x1xf32> loc(#loc97)
    %48 = stablehlo.bitcast_convert %0 : (tensor<f32>) -> tensor<i32> loc(#loc115)
    %49 = stablehlo.bitcast_convert %cst_28 : (tensor<f32>) -> tensor<i32> loc(#loc115)
    %50 = stablehlo.compare NE, %0, %0 : (tensor<f32>, tensor<f32>) -> tensor<i1> loc(#loc115)
    %51 = stablehlo.compare NE, %cst_28, %cst_28 : (tensor<f32>, tensor<f32>) -> tensor<i1> loc(#loc115)
    %52 = stablehlo.or %50, %51 : tensor<i1> loc(#loc115)
    %53 = stablehlo.bitcast_convert %cst : (tensor<f32>) -> tensor<i32> loc(#loc115)
    %54 = stablehlo.and %48, %c_2 : tensor<i32> loc(#loc115)
    %55 = stablehlo.and %49, %c_2 : tensor<i32> loc(#loc115)
    %56 = stablehlo.compare EQ, %0, %cst_28 : (tensor<f32>, tensor<f32>) -> tensor<i1> loc(#loc115)
    %57 = stablehlo.compare EQ, %54, %c_1 : (tensor<i32>, tensor<i32>) -> tensor<i1> loc(#loc115)
    %58 = stablehlo.compare EQ, %55, %c_1 : (tensor<i32>, tensor<i32>) -> tensor<i1> loc(#loc115)
    %59 = stablehlo.and %48, %c_3 : tensor<i32> loc(#loc115)
    %60 = stablehlo.and %49, %c_3 : tensor<i32> loc(#loc115)
    %61 = stablehlo.or %60, %c_0 : tensor<i32> loc(#loc115)
    %62 = stablehlo.compare NE, %59, %60 : (tensor<i32>, tensor<i32>) -> tensor<i1> loc(#loc115)
    %63 = stablehlo.compare GT, %54, %55 : (tensor<i32>, tensor<i32>) -> tensor<i1> loc(#loc115)
    %64 = stablehlo.or %63, %62 : tensor<i1> loc(#loc115)
    %65 = stablehlo.select %64, %c, %c_0 : tensor<i1>, tensor<i32> loc(#loc115)
    %66 = stablehlo.add %48, %65 : tensor<i32> loc(#loc115)
    %67 = stablehlo.select %58, %49, %61 : tensor<i1>, tensor<i32> loc(#loc115)
    %68 = stablehlo.select %57, %67, %66 : tensor<i1>, tensor<i32> loc(#loc115)
    %69 = stablehlo.select %56, %49, %68 : tensor<i1>, tensor<i32> loc(#loc115)
    %70 = stablehlo.select %52, %53, %69 : tensor<i1>, tensor<i32> loc(#loc115)
    %71 = stablehlo.bitcast_convert %70 : (tensor<i32>) -> tensor<f32> loc(#loc115)
    %72 = stablehlo.bitcast_convert %1 : (tensor<f32>) -> tensor<i32> loc(#loc115)
    %73 = stablehlo.bitcast_convert %cst_27 : (tensor<f32>) -> tensor<i32> loc(#loc115)
    %74 = stablehlo.compare NE, %1, %1 : (tensor<f32>, tensor<f32>) -> tensor<i1> loc(#loc115)
    %75 = stablehlo.compare NE, %cst_27, %cst_27 : (tensor<f32>, tensor<f32>) -> tensor<i1> loc(#loc115)
    %76 = stablehlo.or %74, %75 : tensor<i1> loc(#loc115)
    %77 = stablehlo.bitcast_convert %cst : (tensor<f32>) -> tensor<i32> loc(#loc115)
    %78 = stablehlo.and %72, %c_2 : tensor<i32> loc(#loc115)
    %79 = stablehlo.and %73, %c_2 : tensor<i32> loc(#loc115)
    %80 = stablehlo.compare EQ, %1, %cst_27 : (tensor<f32>, tensor<f32>) -> tensor<i1> loc(#loc115)
    %81 = stablehlo.compare EQ, %78, %c_1 : (tensor<i32>, tensor<i32>) -> tensor<i1> loc(#loc115)
    %82 = stablehlo.compare EQ, %79, %c_1 : (tensor<i32>, tensor<i32>) -> tensor<i1> loc(#loc115)
    %83 = stablehlo.and %72, %c_3 : tensor<i32> loc(#loc115)
    %84 = stablehlo.and %73, %c_3 : tensor<i32> loc(#loc115)
    %85 = stablehlo.or %84, %c_0 : tensor<i32> loc(#loc115)
    %86 = stablehlo.compare NE, %83, %84 : (tensor<i32>, tensor<i32>) -> tensor<i1> loc(#loc115)
    %87 = stablehlo.compare GT, %78, %79 : (tensor<i32>, tensor<i32>) -> tensor<i1> loc(#loc115)
    %88 = stablehlo.or %87, %86 : tensor<i1> loc(#loc115)
    %89 = stablehlo.select %88, %c, %c_0 : tensor<i1>, tensor<i32> loc(#loc115)
    %90 = stablehlo.add %72, %89 : tensor<i32> loc(#loc115)
    %91 = stablehlo.select %82, %73, %85 : tensor<i1>, tensor<i32> loc(#loc115)
    %92 = stablehlo.select %81, %91, %90 : tensor<i1>, tensor<i32> loc(#loc115)
    %93 = stablehlo.select %80, %73, %92 : tensor<i1>, tensor<i32> loc(#loc115)
    %94 = stablehlo.select %76, %77, %93 : tensor<i1>, tensor<i32> loc(#loc115)
    %95 = stablehlo.bitcast_convert %94 : (tensor<i32>) -> tensor<f32> loc(#loc115)
    %96 = call @clip_36(%47, %71, %95) : (tensor<32x1xf32>, tensor<f32>, tensor<f32>) -> tensor<32x1xf32> loc(#loc86)
    return %96 : tensor<32x1xf32> loc(#loc)
  } loc(#loc378)
  func.func private @chlo.erf.impl_0(%arg0: tensor<f32> loc("erf")) -> tensor<f32> {
    %cst = stablehlo.constant dense<1.000000e+00> : tensor<f32> loc(#loc113)
    %cst_0 = stablehlo.constant dense<-1.000000e+00> : tensor<f32> loc(#loc113)
    %cst_1 = stablehlo.constant dense<-0.0142647391> : tensor<f32> loc(#loc113)
    %cst_2 = stablehlo.constant dense<-0.00737332925> : tensor<f32> loc(#loc113)
    %cst_3 = stablehlo.constant dense<-0.00168282702> : tensor<f32> loc(#loc113)
    %cst_4 = stablehlo.constant dense<-2.13374049E-4> : tensor<f32> loc(#loc113)
    %cst_5 = stablehlo.constant dense<-1.45660715E-5> : tensor<f32> loc(#loc113)
    %cst_6 = stablehlo.constant dense<-0.0160960332> : tensor<f32> loc(#loc113)
    %cst_7 = stablehlo.constant dense<-2.954600e-03> : tensor<f32> loc(#loc113)
    %cst_8 = stablehlo.constant dense<-7.34990637E-4> : tensor<f32> loc(#loc113)
    %cst_9 = stablehlo.constant dense<-5.69250624E-5> : tensor<f32> loc(#loc113)
    %cst_10 = stablehlo.constant dense<-2.10102394E-6> : tensor<f32> loc(#loc113)
    %cst_11 = stablehlo.constant dense<2.77068146E-8> : tensor<f32> loc(#loc113)
    %cst_12 = stablehlo.constant dense<-2.72614237E-10> : tensor<f32> loc(#loc113)
    %cst_13 = stablehlo.constant dense<-4.000000e+00> : tensor<f32> loc(#loc113)
    %cst_14 = stablehlo.constant dense<4.000000e+00> : tensor<f32> loc(#loc113)
    %0 = stablehlo.clamp %cst_13, %arg0, %cst_14 : tensor<f32> loc(#loc113)
    %1 = stablehlo.multiply %0, %0 : tensor<f32> loc(#loc113)
    %2 = stablehlo.multiply %cst_12, %1 : tensor<f32> loc(#loc113)
    %3 = stablehlo.add %2, %cst_11 : tensor<f32> loc(#loc113)
    %4 = stablehlo.multiply %3, %1 : tensor<f32> loc(#loc113)
    %5 = stablehlo.add %4, %cst_10 : tensor<f32> loc(#loc113)
    %6 = stablehlo.multiply %5, %1 : tensor<f32> loc(#loc113)
    %7 = stablehlo.add %6, %cst_9 : tensor<f32> loc(#loc113)
    %8 = stablehlo.multiply %7, %1 : tensor<f32> loc(#loc113)
    %9 = stablehlo.add %8, %cst_8 : tensor<f32> loc(#loc113)
    %10 = stablehlo.multiply %9, %1 : tensor<f32> loc(#loc113)
    %11 = stablehlo.add %10, %cst_7 : tensor<f32> loc(#loc113)
    %12 = stablehlo.multiply %11, %1 : tensor<f32> loc(#loc113)
    %13 = stablehlo.add %12, %cst_6 : tensor<f32> loc(#loc113)
    %14 = stablehlo.multiply %cst_5, %1 : tensor<f32> loc(#loc113)
    %15 = stablehlo.add %14, %cst_4 : tensor<f32> loc(#loc113)
    %16 = stablehlo.multiply %15, %1 : tensor<f32> loc(#loc113)
    %17 = stablehlo.add %16, %cst_3 : tensor<f32> loc(#loc113)
    %18 = stablehlo.multiply %17, %1 : tensor<f32> loc(#loc113)
    %19 = stablehlo.add %18, %cst_2 : tensor<f32> loc(#loc113)
    %20 = stablehlo.multiply %19, %1 : tensor<f32> loc(#loc113)
    %21 = stablehlo.add %20, %cst_1 : tensor<f32> loc(#loc113)
    %22 = stablehlo.multiply %0, %13 : tensor<f32> loc(#loc113)
    %23 = stablehlo.divide %22, %21 : tensor<f32> loc(#loc113)
    %24 = stablehlo.clamp %cst_0, %23, %cst : tensor<f32> loc(#loc113)
    return %24 : tensor<f32> loc(#loc113)
  } loc(#loc113)
  func.func private @chlo.erf.impl(%arg0: tensor<f32> loc("erf")) -> tensor<f32> {
    %cst = stablehlo.constant dense<1.000000e+00> : tensor<f32> loc(#loc113)
    %cst_0 = stablehlo.constant dense<-1.000000e+00> : tensor<f32> loc(#loc113)
    %cst_1 = stablehlo.constant dense<-0.0142647391> : tensor<f32> loc(#loc113)
    %cst_2 = stablehlo.constant dense<-0.00737332925> : tensor<f32> loc(#loc113)
    %cst_3 = stablehlo.constant dense<-0.00168282702> : tensor<f32> loc(#loc113)
    %cst_4 = stablehlo.constant dense<-2.13374049E-4> : tensor<f32> loc(#loc113)
    %cst_5 = stablehlo.constant dense<-1.45660715E-5> : tensor<f32> loc(#loc113)
    %cst_6 = stablehlo.constant dense<-0.0160960332> : tensor<f32> loc(#loc113)
    %cst_7 = stablehlo.constant dense<-2.954600e-03> : tensor<f32> loc(#loc113)
    %cst_8 = stablehlo.constant dense<-7.34990637E-4> : tensor<f32> loc(#loc113)
    %cst_9 = stablehlo.constant dense<-5.69250624E-5> : tensor<f32> loc(#loc113)
    %cst_10 = stablehlo.constant dense<-2.10102394E-6> : tensor<f32> loc(#loc113)
    %cst_11 = stablehlo.constant dense<2.77068146E-8> : tensor<f32> loc(#loc113)
    %cst_12 = stablehlo.constant dense<-2.72614237E-10> : tensor<f32> loc(#loc113)
    %cst_13 = stablehlo.constant dense<-4.000000e+00> : tensor<f32> loc(#loc113)
    %cst_14 = stablehlo.constant dense<4.000000e+00> : tensor<f32> loc(#loc113)
    %0 = stablehlo.clamp %cst_13, %arg0, %cst_14 : tensor<f32> loc(#loc113)
    %1 = stablehlo.multiply %0, %0 : tensor<f32> loc(#loc113)
    %2 = stablehlo.multiply %cst_12, %1 : tensor<f32> loc(#loc113)
    %3 = stablehlo.add %2, %cst_11 : tensor<f32> loc(#loc113)
    %4 = stablehlo.multiply %3, %1 : tensor<f32> loc(#loc113)
    %5 = stablehlo.add %4, %cst_10 : tensor<f32> loc(#loc113)
    %6 = stablehlo.multiply %5, %1 : tensor<f32> loc(#loc113)
    %7 = stablehlo.add %6, %cst_9 : tensor<f32> loc(#loc113)
    %8 = stablehlo.multiply %7, %1 : tensor<f32> loc(#loc113)
    %9 = stablehlo.add %8, %cst_8 : tensor<f32> loc(#loc113)
    %10 = stablehlo.multiply %9, %1 : tensor<f32> loc(#loc113)
    %11 = stablehlo.add %10, %cst_7 : tensor<f32> loc(#loc113)
    %12 = stablehlo.multiply %11, %1 : tensor<f32> loc(#loc113)
    %13 = stablehlo.add %12, %cst_6 : tensor<f32> loc(#loc113)
    %14 = stablehlo.multiply %cst_5, %1 : tensor<f32> loc(#loc113)
    %15 = stablehlo.add %14, %cst_4 : tensor<f32> loc(#loc113)
    %16 = stablehlo.multiply %15, %1 : tensor<f32> loc(#loc113)
    %17 = stablehlo.add %16, %cst_3 : tensor<f32> loc(#loc113)
    %18 = stablehlo.multiply %17, %1 : tensor<f32> loc(#loc113)
    %19 = stablehlo.add %18, %cst_2 : tensor<f32> loc(#loc113)
    %20 = stablehlo.multiply %19, %1 : tensor<f32> loc(#loc113)
    %21 = stablehlo.add %20, %cst_1 : tensor<f32> loc(#loc113)
    %22 = stablehlo.multiply %0, %13 : tensor<f32> loc(#loc113)
    %23 = stablehlo.divide %22, %21 : tensor<f32> loc(#loc113)
    %24 = stablehlo.clamp %cst_0, %23, %cst : tensor<f32> loc(#loc113)
    return %24 : tensor<f32> loc(#loc113)
  } loc(#loc113)
  func.func private @_uniform_33(%arg0: tensor<2xui32> loc(unknown), %arg1: tensor<f32> loc(unknown), %arg2: tensor<f32> loc(unknown)) -> tensor<32x1xf32> {
    %cst = stablehlo.constant dense<1.000000e+00> : tensor<f32> loc(#loc)
    %c = stablehlo.constant dense<1065353216> : tensor<ui32> loc(#loc)
    %c_0 = stablehlo.constant dense<9> : tensor<ui32> loc(#loc)
    %c_1 = stablehlo.constant dense<32> : tensor<ui64> loc(#loc102)
    %c_2 = stablehlo.constant dense<1> : tensor<ui64> loc(#loc)
    %0 = stablehlo.broadcast_in_dim %arg1, dims = [] : (tensor<f32>) -> tensor<1x1xf32> loc(#loc103)
    %1 = stablehlo.broadcast_in_dim %arg2, dims = [] : (tensor<f32>) -> tensor<1x1xf32> loc(#loc103)
    %2 = stablehlo.slice %arg0 [0:1] : (tensor<2xui32>) -> tensor<1xui32> loc(#loc78)
    %3 = stablehlo.reshape %2 : (tensor<1xui32>) -> tensor<ui32> loc(#loc79)
    %4 = stablehlo.slice %arg0 [1:2] : (tensor<2xui32>) -> tensor<1xui32> loc(#loc78)
    %5 = stablehlo.reshape %4 : (tensor<1xui32>) -> tensor<ui32> loc(#loc79)
    %6 = stablehlo.iota dim = 0 : tensor<32x1xui64> loc(#loc102)
    %7 = stablehlo.iota dim = 1 : tensor<32x1xui64> loc(#loc102)
    %8 = stablehlo.broadcast_in_dim %c_2, dims = [] : (tensor<ui64>) -> tensor<32x1xui64> loc(#loc102)
    %9 = stablehlo.multiply %8, %6 : tensor<32x1xui64> loc(#loc102)
    %10 = stablehlo.broadcast_in_dim %c_2, dims = [] : (tensor<ui64>) -> tensor<32x1xui64> loc(#loc102)
    %11 = stablehlo.multiply %10, %7 : tensor<32x1xui64> loc(#loc102)
    %12 = stablehlo.add %9, %11 : tensor<32x1xui64> loc(#loc102)
    %13 = stablehlo.broadcast_in_dim %c_1, dims = [] : (tensor<ui64>) -> tensor<32x1xui64> loc(#loc102)
    %14 = stablehlo.shift_right_logical %12, %13 : tensor<32x1xui64> loc(#loc102)
    %15 = stablehlo.convert %12 : (tensor<32x1xui64>) -> tensor<32x1xui32> loc(#loc102)
    %16 = stablehlo.convert %14 : (tensor<32x1xui64>) -> tensor<32x1xui32> loc(#loc102)
    %17:2 = call @threefry2x32_34(%3, %5, %16, %15) : (tensor<ui32>, tensor<ui32>, tensor<32x1xui32>, tensor<32x1xui32>) -> (tensor<32x1xui32>, tensor<32x1xui32>) loc(#loc116)
    %18 = stablehlo.xor %17#0, %17#1 : tensor<32x1xui32> loc(#loc84)
    %19 = stablehlo.broadcast_in_dim %c_0, dims = [] : (tensor<ui32>) -> tensor<32x1xui32> loc(#loc82)
    %20 = stablehlo.shift_right_logical %18, %19 : tensor<32x1xui32> loc(#loc82)
    %21 = stablehlo.broadcast_in_dim %c, dims = [] : (tensor<ui32>) -> tensor<32x1xui32> loc(#loc83)
    %22 = stablehlo.or %20, %21 : tensor<32x1xui32> loc(#loc83)
    %23 = stablehlo.bitcast_convert %22 : (tensor<32x1xui32>) -> tensor<32x1xf32> loc(#loc117)
    %24 = stablehlo.broadcast_in_dim %cst, dims = [] : (tensor<f32>) -> tensor<32x1xf32> loc(#loc81)
    %25 = stablehlo.subtract %23, %24 : tensor<32x1xf32> loc(#loc81)
    %26 = stablehlo.subtract %1, %0 : tensor<1x1xf32> loc(#loc81)
    %27 = stablehlo.broadcast_in_dim %26, dims = [0, 1] : (tensor<1x1xf32>) -> tensor<32x1xf32> loc(#loc97)
    %28 = stablehlo.multiply %25, %27 : tensor<32x1xf32> loc(#loc97)
    %29 = stablehlo.broadcast_in_dim %0, dims = [0, 1] : (tensor<1x1xf32>) -> tensor<32x1xf32> loc(#loc77)
    %30 = stablehlo.add %28, %29 : tensor<32x1xf32> loc(#loc77)
    %31 = stablehlo.broadcast_in_dim %0, dims = [0, 1] : (tensor<1x1xf32>) -> tensor<32x1xf32> loc(#loc99)
    %32 = stablehlo.maximum %31, %30 : tensor<32x1xf32> loc(#loc99)
    return %32 : tensor<32x1xf32> loc(#loc)
  } loc(#loc198)
  func.func private @threefry2x32_34(%arg0: tensor<ui32> loc(unknown), %arg1: tensor<ui32> loc(unknown), %arg2: tensor<32x1xui32> loc(unknown), %arg3: tensor<32x1xui32> loc(unknown)) -> (tensor<32x1xui32>, tensor<32x1xui32>) {
    %c = stablehlo.constant dense<1> : tensor<i32> loc(#loc)
    %c_0 = stablehlo.constant dense<5> : tensor<i32> loc(#loc)
    %c_1 = stablehlo.constant dense<0> : tensor<i32> loc(#loc)
    %c_2 = stablehlo.constant dense<466688986> : tensor<ui32> loc(#loc197)
    %c_3 = stablehlo.constant dense<[13, 15, 26, 6]> : tensor<4xui32> loc(#loc197)
    %c_4 = stablehlo.constant dense<[17, 29, 16, 24]> : tensor<4xui32> loc(#loc197)
    %0 = stablehlo.xor %arg0, %arg1 : tensor<ui32> loc(#loc84)
    %1 = stablehlo.xor %0, %c_2 : tensor<ui32> loc(#loc84)
    %2 = stablehlo.broadcast_in_dim %arg0, dims = [] : (tensor<ui32>) -> tensor<32x1xui32> loc(#loc77)
    %3 = stablehlo.add %arg2, %2 : tensor<32x1xui32> loc(#loc77)
    %4 = stablehlo.broadcast_in_dim %arg1, dims = [] : (tensor<ui32>) -> tensor<32x1xui32> loc(#loc77)
    %5 = stablehlo.add %arg3, %4 : tensor<32x1xui32> loc(#loc77)
    %6:9 = stablehlo.while(%iterArg = %c_1, %iterArg_5 = %c_1, %iterArg_6 = %3, %iterArg_7 = %5, %iterArg_8 = %arg1, %iterArg_9 = %1, %iterArg_10 = %arg0, %iterArg_11 = %c_3, %iterArg_12 = %c_4) : tensor<i32>, tensor<i32>, tensor<32x1xui32>, tensor<32x1xui32>, tensor<ui32>, tensor<ui32>, tensor<ui32>, tensor<4xui32>, tensor<4xui32>
    cond {
      %7 = stablehlo.compare LT, %iterArg, %c_0, SIGNED : (tensor<i32>, tensor<i32>) -> tensor<i1> loc(#loc106)
      stablehlo.return %7 : tensor<i1> loc(#loc105)
    } do {
      %7:8 = func.call @closed_call_35(%iterArg_5, %iterArg_6, %iterArg_7, %iterArg_8, %iterArg_9, %iterArg_10, %iterArg_11, %iterArg_12) : (tensor<i32>, tensor<32x1xui32>, tensor<32x1xui32>, tensor<ui32>, tensor<ui32>, tensor<ui32>, tensor<4xui32>, tensor<4xui32>) -> (tensor<i32>, tensor<32x1xui32>, tensor<32x1xui32>, tensor<ui32>, tensor<ui32>, tensor<ui32>, tensor<4xui32>, tensor<4xui32>) loc(#loc107)
      %8 = stablehlo.add %iterArg, %c : tensor<i32> loc(#loc108)
      stablehlo.return %8, %7#0, %7#1, %7#2, %7#3, %7#4, %7#5, %7#6, %7#7 : tensor<i32>, tensor<i32>, tensor<32x1xui32>, tensor<32x1xui32>, tensor<ui32>, tensor<ui32>, tensor<ui32>, tensor<4xui32>, tensor<4xui32> loc(#loc105)
    } loc(#loc105)
    return %6#2, %6#3 : tensor<32x1xui32>, tensor<32x1xui32> loc(#loc)
  } loc(#loc)
  func.func private @closed_call_35(%arg0: tensor<i32> loc(unknown), %arg1: tensor<32x1xui32> loc(unknown), %arg2: tensor<32x1xui32> loc(unknown), %arg3: tensor<ui32> loc(unknown), %arg4: tensor<ui32> loc(unknown), %arg5: tensor<ui32> loc(unknown), %arg6: tensor<4xui32> loc(unknown), %arg7: tensor<4xui32> loc(unknown)) -> (tensor<i32>, tensor<32x1xui32>, tensor<32x1xui32>, tensor<ui32>, tensor<ui32>, tensor<ui32>, tensor<4xui32>, tensor<4xui32>) {
    %c = stablehlo.constant dense<32> : tensor<ui32> loc(#loc)
    %c_0 = stablehlo.constant dense<1> : tensor<i32> loc(#loc)
    %0 = stablehlo.add %arg0, %c_0 : tensor<i32> loc(#loc77)
    %1 = stablehlo.slice %arg6 [0:1] : (tensor<4xui32>) -> tensor<1xui32> loc(#loc78)
    %2 = stablehlo.reshape %1 : (tensor<1xui32>) -> tensor<ui32> loc(#loc79)
    %3 = stablehlo.add %arg1, %arg2 : tensor<32x1xui32> loc(#loc77)
    %4 = stablehlo.broadcast_in_dim %2, dims = [] : (tensor<ui32>) -> tensor<32x1xui32> loc(#loc80)
    %5 = stablehlo.shift_left %arg2, %4 : tensor<32x1xui32> loc(#loc80)
    %6 = stablehlo.subtract %c, %2 : tensor<ui32> loc(#loc81)
    %7 = stablehlo.broadcast_in_dim %6, dims = [] : (tensor<ui32>) -> tensor<32x1xui32> loc(#loc82)
    %8 = stablehlo.shift_right_logical %arg2, %7 : tensor<32x1xui32> loc(#loc82)
    %9 = stablehlo.or %5, %8 : tensor<32x1xui32> loc(#loc83)
    %10 = stablehlo.xor %3, %9 : tensor<32x1xui32> loc(#loc84)
    %11 = stablehlo.slice %arg6 [1:2] : (tensor<4xui32>) -> tensor<1xui32> loc(#loc78)
    %12 = stablehlo.reshape %11 : (tensor<1xui32>) -> tensor<ui32> loc(#loc79)
    %13 = stablehlo.add %3, %10 : tensor<32x1xui32> loc(#loc77)
    %14 = stablehlo.broadcast_in_dim %12, dims = [] : (tensor<ui32>) -> tensor<32x1xui32> loc(#loc80)
    %15 = stablehlo.shift_left %10, %14 : tensor<32x1xui32> loc(#loc80)
    %16 = stablehlo.subtract %c, %12 : tensor<ui32> loc(#loc81)
    %17 = stablehlo.broadcast_in_dim %16, dims = [] : (tensor<ui32>) -> tensor<32x1xui32> loc(#loc82)
    %18 = stablehlo.shift_right_logical %10, %17 : tensor<32x1xui32> loc(#loc82)
    %19 = stablehlo.or %15, %18 : tensor<32x1xui32> loc(#loc83)
    %20 = stablehlo.xor %13, %19 : tensor<32x1xui32> loc(#loc84)
    %21 = stablehlo.slice %arg6 [2:3] : (tensor<4xui32>) -> tensor<1xui32> loc(#loc78)
    %22 = stablehlo.reshape %21 : (tensor<1xui32>) -> tensor<ui32> loc(#loc79)
    %23 = stablehlo.add %13, %20 : tensor<32x1xui32> loc(#loc77)
    %24 = stablehlo.broadcast_in_dim %22, dims = [] : (tensor<ui32>) -> tensor<32x1xui32> loc(#loc80)
    %25 = stablehlo.shift_left %20, %24 : tensor<32x1xui32> loc(#loc80)
    %26 = stablehlo.subtract %c, %22 : tensor<ui32> loc(#loc81)
    %27 = stablehlo.broadcast_in_dim %26, dims = [] : (tensor<ui32>) -> tensor<32x1xui32> loc(#loc82)
    %28 = stablehlo.shift_right_logical %20, %27 : tensor<32x1xui32> loc(#loc82)
    %29 = stablehlo.or %25, %28 : tensor<32x1xui32> loc(#loc83)
    %30 = stablehlo.xor %23, %29 : tensor<32x1xui32> loc(#loc84)
    %31 = stablehlo.slice %arg6 [3:4] : (tensor<4xui32>) -> tensor<1xui32> loc(#loc78)
    %32 = stablehlo.reshape %31 : (tensor<1xui32>) -> tensor<ui32> loc(#loc79)
    %33 = stablehlo.add %23, %30 : tensor<32x1xui32> loc(#loc77)
    %34 = stablehlo.broadcast_in_dim %32, dims = [] : (tensor<ui32>) -> tensor<32x1xui32> loc(#loc80)
    %35 = stablehlo.shift_left %30, %34 : tensor<32x1xui32> loc(#loc80)
    %36 = stablehlo.subtract %c, %32 : tensor<ui32> loc(#loc81)
    %37 = stablehlo.broadcast_in_dim %36, dims = [] : (tensor<ui32>) -> tensor<32x1xui32> loc(#loc82)
    %38 = stablehlo.shift_right_logical %30, %37 : tensor<32x1xui32> loc(#loc82)
    %39 = stablehlo.or %35, %38 : tensor<32x1xui32> loc(#loc83)
    %40 = stablehlo.xor %33, %39 : tensor<32x1xui32> loc(#loc84)
    %41 = stablehlo.broadcast_in_dim %arg3, dims = [] : (tensor<ui32>) -> tensor<32x1xui32> loc(#loc77)
    %42 = stablehlo.add %33, %41 : tensor<32x1xui32> loc(#loc77)
    %43 = stablehlo.broadcast_in_dim %arg4, dims = [] : (tensor<ui32>) -> tensor<32x1xui32> loc(#loc77)
    %44 = stablehlo.add %40, %43 : tensor<32x1xui32> loc(#loc77)
    %45 = stablehlo.add %arg0, %c_0 : tensor<i32> loc(#loc77)
    %46 = stablehlo.convert %45 : (tensor<i32>) -> tensor<ui32> loc(#loc85)
    %47 = stablehlo.broadcast_in_dim %46, dims = [] : (tensor<ui32>) -> tensor<32x1xui32> loc(#loc77)
    %48 = stablehlo.add %44, %47 : tensor<32x1xui32> loc(#loc77)
    return %0, %42, %48, %arg4, %arg5, %arg3, %arg7, %arg6 : tensor<i32>, tensor<32x1xui32>, tensor<32x1xui32>, tensor<ui32>, tensor<ui32>, tensor<ui32>, tensor<4xui32>, tensor<4xui32> loc(#loc)
  } loc(#loc200)
  func.func private @clip_36(%arg0: tensor<32x1xf32> loc(unknown), %arg1: tensor<f32> loc(unknown), %arg2: tensor<f32> loc(unknown)) -> tensor<32x1xf32> {
    %0 = stablehlo.broadcast_in_dim %arg1, dims = [] : (tensor<f32>) -> tensor<32x1xf32> loc(#loc99)
    %1 = stablehlo.maximum %0, %arg0 : tensor<32x1xf32> loc(#loc99)
    %2 = stablehlo.broadcast_in_dim %arg2, dims = [] : (tensor<f32>) -> tensor<32x1xf32> loc(#loc100)
    %3 = stablehlo.minimum %2, %1 : tensor<32x1xf32> loc(#loc100)
    return %3 : tensor<32x1xf32> loc(#loc)
  } loc(#loc198)
} loc(#loc)
#loc2 = loc("/Users/noahfarr/noahfarr.github.io/tools/whlo/export_ppo_wordle.py":252:16 to :51)
#loc3 = loc("/Users/noahfarr/noahfarr.github.io/tools/whlo/export_ppo_wordle.py":268:4 to :10)
#loc5 = loc("/Users/noahfarr/reinforcement-learning/src/algorithms/algorithms/recurrent_ppo.py":298:8 to :47)
#loc8 = loc("/Users/noahfarr/reinforcement-learning/src/environments/environments/wrappers/vectorize.py":21:15 to :57)
#loc9 = loc("/Users/noahfarr/reinforcement-learning/src/environments/environments/wordle.py":108:16 to :75)
#loc10 = loc("/Users/noahfarr/noahfarr.github.io/tools/whlo/export_ppo_wordle.py":93:26 to :53)
#loc11 = loc("/Users/noahfarr/reinforcement-learning/src/environments/environments/wrappers/wrapper.py":12:15 to :42)
#loc12 = loc("/Users/noahfarr/reinforcement-learning/src/environments/environments/wrappers/vectorize.py":22:15 to :80)
#loc13 = loc("/Users/noahfarr/reinforcement-learning/src/environments/environments/wordle.py":110:26 to :51)
#loc14 = loc("/Users/noahfarr/reinforcement-learning/src/environments/environments/wordle.py":111:27 to :60)
#loc15 = loc("/Users/noahfarr/reinforcement-learning/src/environments/environments/wordle.py":70:12 to :70)
#loc16 = loc("/Users/noahfarr/reinforcement-learning/src/environments/environments/wordle.py":120:16 to :30)
#loc17 = loc("/Users/noahfarr/reinforcement-learning/src/environments/environments/wordle.py":71:43 to :60)
#loc18 = loc("/Users/noahfarr/reinforcement-learning/src/environments/environments/wordle.py":71:11 to :66)
#loc19 = loc("/Users/noahfarr/noahfarr.github.io/tools/whlo/export_ppo_wordle.py":88:15 to :41)
#loc20 = loc("/Users/noahfarr/noahfarr.github.io/tools/whlo/export_ppo_wordle.py":94:22 to :68)
#loc21 = loc("/Users/noahfarr/reinforcement-learning/src/networks/networks/blocks/min_gru.py":35:15 to :53)
#loc22 = loc("/Users/noahfarr/reinforcement-learning/src/networks/networks/blocks/ssm.py":57:15 to :59)
#loc23 = loc("/Users/noahfarr/reinforcement-learning/src/networks/networks/blocks/stack.py":25:21 to :61)
#loc24 = loc("/Users/noahfarr/reinforcement-learning/src/networks/networks/blocks/stack.py":25:15 to :87)
#loc25 = loc("/Users/noahfarr/noahfarr.github.io/tools/whlo/export_ppo_wordle.py":134:15 to :60)
#loc26 = loc("/Users/noahfarr/reinforcement-learning/src/algorithms/algorithms/recurrent_ppo.py":305:16 to :68)
#loc27 = loc("/Users/noahfarr/reinforcement-learning/src/utils/utils/axis.py":15:11 to :37)
#loc28 = loc("/Users/noahfarr/reinforcement-learning/src/utils/utils/timestep.py":22:15 to :48)
#loc29 = loc("/Users/noahfarr/reinforcement-learning/src/algorithms/algorithms/recurrent_ppo.py":306:19 to :41)
#loc30 = loc("/Users/noahfarr/reinforcement-learning/src/utils/utils/timestep.py":19:15 to :47)
#loc31 = loc("/Users/noahfarr/reinforcement-learning/src/algorithms/algorithms/recurrent_ppo.py":312:12 to :25)
#loc35 = loc("/Users/noahfarr/reinforcement-learning/.venv/lib/python3.13/site-packages/flax/linen/linear.py":270:13 to 272:7)
#loc36 = loc("/Users/noahfarr/reinforcement-learning/.venv/lib/python3.13/site-packages/flax/linen/linear.py":287:8 to 292:5)
#loc37 = loc("/Users/noahfarr/reinforcement-learning/.venv/lib/python3.13/site-packages/flax/linen/linear.py":294:11 to :57)
#loc38 = loc("/Users/noahfarr/reinforcement-learning/.venv/lib/python3.13/site-packages/flax/linen/linear.py":294:6 to :57)
#loc39 = loc("/Users/noahfarr/noahfarr.github.io/tools/whlo/export_ppo_wordle.py":121:16 to :78)
#loc40 = loc("/Users/noahfarr/noahfarr.github.io/tools/whlo/export_ppo_wordle.py":122:16 to :56)
#loc41 = loc("/Users/noahfarr/noahfarr.github.io/tools/whlo/export_ppo_wordle.py":119:19 to 125:9)
#loc42 = loc("/Users/noahfarr/reinforcement-learning/src/networks/networks/blocks/projection.py":21:12 to 27:12)
#loc43 = loc("/Users/noahfarr/reinforcement-learning/src/networks/networks/blocks/stack.py":18:29 to :56)
#loc44 = loc("/Users/noahfarr/reinforcement-learning/src/networks/networks/blocks/stack.py":21:15 to :74)
#loc45 = loc("/Users/noahfarr/noahfarr.github.io/tools/whlo/export_ppo_wordle.py":126:19 to :52)
#loc46 = loc("/Users/noahfarr/reinforcement-learning/src/networks/networks/blocks/projection.py":29:16 to :34)
#loc47 = loc("/Users/noahfarr/reinforcement-learning/src/networks/networks/blocks/ssm.py":39:24 to 41:9)
#loc48 = loc("/Users/noahfarr/reinforcement-learning/src/networks/networks/blocks/min_gru.py":26:23 to :51)
#loc49 = loc("/Users/noahfarr/reinforcement-learning/src/networks/networks/blocks/ssm.py":43:15 to :32)
#loc50 = loc("/Users/noahfarr/reinforcement-learning/src/networks/networks/blocks/min_gru.py":26:12 to :52)
#loc51 = loc("/Users/noahfarr/reinforcement-learning/src/networks/networks/blocks/min_gru.py":27:15 to :20)
#loc52 = loc("/Users/noahfarr/reinforcement-learning/src/networks/networks/blocks/min_gru.py":27:26 to :52)
#loc53 = loc("/Users/noahfarr/reinforcement-learning/src/networks/networks/blocks/min_gru.py":27:22 to :52)
#loc54 = loc("/Users/noahfarr/reinforcement-learning/src/utils/utils/axis.py":31:11 to :65)
#loc55 = loc("/Users/noahfarr/reinforcement-learning/src/networks/networks/blocks/ssm.py":47:15 to :38)
#loc56 = loc("/Users/noahfarr/reinforcement-learning/src/networks/networks/blocks/ssm.py":48:16 to :24)
#loc57 = loc("/Users/noahfarr/reinforcement-learning/src/networks/networks/blocks/ssm.py":48:27 to :60)
#loc58 = loc("/Users/noahfarr/reinforcement-learning/src/networks/networks/blocks/ssm.py":48:16 to :60)
#loc59 = loc("/Users/noahfarr/reinforcement-learning/src/networks/networks/blocks/ssm.py":48:12 to :60)
#loc60 = loc("/Users/noahfarr/reinforcement-learning/src/networks/networks/blocks/ssm.py":49:13 to :21)
#loc61 = loc("/Users/noahfarr/reinforcement-learning/src/networks/networks/blocks/ssm.py":49:12 to :26)
#loc62 = loc("/Users/noahfarr/reinforcement-learning/src/networks/networks/blocks/ssm.py":52:26 to :51)
#loc63 = loc("/Users/noahfarr/reinforcement-learning/src/networks/networks/blocks/ssm.py":52:22 to :51)
#loc64 = loc("/Users/noahfarr/reinforcement-learning/src/networks/networks/blocks/ssm.py":52:18 to :51)
#loc65 = loc("/Users/noahfarr/reinforcement-learning/src/networks/networks/blocks/ssm.py":53:15 to :44)
#loc66 = loc("/Users/noahfarr/noahfarr.github.io/tools/whlo/export_ppo_wordle.py":127:17 to :76)
#loc67 = loc("/Users/noahfarr/noahfarr.github.io/tools/whlo/export_ppo_wordle.py":128:17 to :83)
#loc68 = loc("/Users/noahfarr/noahfarr.github.io/tools/whlo/export_ppo_wordle.py":129:16 to :45)
#loc69 = loc("/Users/noahfarr/reinforcement-learning/.venv/lib/python3.13/site-packages/optax/tree_utils/_tree_math.py":335:32 to :62)
#loc70 = loc("/Users/noahfarr/reinforcement-learning/.venv/lib/python3.13/site-packages/optax/tree_utils/_tree_math.py":335:9 to :69)
#loc71 = loc("/Users/noahfarr/reinforcement-learning/.venv/lib/python3.13/site-packages/optax/_src/transform.py":277:9 to :54)
#loc72 = loc("/Users/noahfarr/reinforcement-learning/.venv/lib/python3.13/site-packages/optax/transforms/_combining.py":79:17 to :27)
#loc73 = loc("/Users/noahfarr/reinforcement-learning/.venv/lib/python3.13/site-packages/optax/transforms/_combining.py":79:11 to :47)
#loc74 = loc("/Users/noahfarr/reinforcement-learning/src/algorithms/algorithms/recurrent_ppo.py":315:26 to :53)
#loc75 = loc("/Users/noahfarr/reinforcement-learning/.venv/lib/python3.13/site-packages/optax/_src/transform.py":278:9 to :38)
#loc76 = loc("threefry2x32")
#loc77 = loc("add")
#loc78 = loc("slice")
#loc79 = loc("squeeze")
#loc80 = loc("shift_left")
#loc81 = loc("sub")
#loc82 = loc("shift_right_logical")
#loc83 = loc("or")
#loc84 = loc("xor")
#loc85 = loc("convert_element_type")
#loc86 = loc("jit(clip)")
#loc87 = loc("gt")
#loc88 = loc("vmap(jit(_threefry_split))")
#loc89 = loc("vmap()/slice")
#loc90 = loc("vmap()/squeeze")
#loc92 = loc("vmap()/xor")
#loc93 = loc("le")
#loc94 = loc("select_n")
#loc95 = loc("and")
#loc96 = loc("rem")
#loc97 = loc("mul")
#loc98 = loc("jit")
#loc99 = loc("max")
#loc100 = loc("min")
#loc101 = loc("vmap()/jit")
#loc102 = loc("iota_2x32_shape")
#loc103 = loc("broadcast_in_dim")
#loc104 = loc("stack")
#loc105 = loc("while")
#loc106 = loc("while/cond/lt")
#loc107 = loc("while/body/closed_call")
#loc108 = loc("while/body/add")
#loc109 = loc("iota")
#loc110 = loc("eq")
#loc111 = loc("erf_inv")
#loc112 = loc("div")
#loc114 = loc("jit(_uniform)")
#loc115 = loc("nextafter")
#loc116 = loc("")
#loc117 = loc("bitcast_convert_type")
#loc118 = loc("gather")
#loc119 = loc("reduce_and")
#loc120 = loc("lt")
#loc121 = loc("jit(_where)")
#loc122 = loc("ge")
#loc123 = loc("main"(#loc2))
#loc124 = loc("<module>"(#loc3))
#loc126 = loc("RecurrentPPO.init"(#loc5))
#loc129 = loc("Vectorize.init"(#loc8))
#loc130 = loc("Wordle.init"(#loc9))
#loc131 = loc("WordChoice.init"(#loc10))
#loc132 = loc("Wrapper.init"(#loc11))
#loc133 = loc("Vectorize.init"(#loc12))
#loc134 = loc("Wordle.init"(#loc13))
#loc135 = loc("Wordle.init"(#loc14))
#loc136 = loc("get_obs"(#loc15))
#loc137 = loc("Wordle.init"(#loc16))
#loc138 = loc("get_obs"(#loc17))
#loc139 = loc("get_obs"(#loc18))
#loc140 = loc("WordChoice._wrap"(#loc19))
#loc141 = loc("WordChoice.init"(#loc20))
#loc142 = loc("MinGRUCell.initialize_carry"(#loc21))
#loc143 = loc("SSM.initialize_carry"(#loc22))
#loc144 = loc("Stack.initialize_carry.<locals>.<genexpr>"(#loc23))
#loc145 = loc("Stack.initialize_carry"(#loc24))
#loc146 = loc("MaskedActorCriticNetwork.initialize_carry"(#loc25))
#loc147 = loc("RecurrentPPO.init"(#loc26))
#loc148 = loc("add_time_axis"(#loc27))
#loc149 = loc("Timestep.to_sequence"(#loc28))
#loc150 = loc("RecurrentPPO.init"(#loc29))
#loc151 = loc("Timestep.done"(#loc30))
#loc152 = loc("RecurrentPPO.init"(#loc31))
#loc156 = loc("Dense.__call__"(#loc35))
#loc157 = loc("Dense.__call__"(#loc36))
#loc158 = loc("Dense.__call__"(#loc37))
#loc159 = loc("Dense.__call__"(#loc38))
#loc160 = loc("MaskedActorCriticNetwork.__call__"(#loc39))
#loc161 = loc("MaskedActorCriticNetwork.__call__"(#loc40))
#loc162 = loc("MaskedActorCriticNetwork.__call__"(#loc41))
#loc163 = loc("Projection.__call__"(#loc42))
#loc164 = loc("Stack.__call__.<locals>.step"(#loc43))
#loc165 = loc("Stack.__call__"(#loc44))
#loc166 = loc("MaskedActorCriticNetwork.__call__"(#loc45))
#loc167 = loc("Projection.__call__"(#loc46))
#loc168 = loc("SSM.__call__"(#loc47))
#loc169 = loc("MinGRUCell.__call__"(#loc48))
#loc170 = loc("SSM.__call__"(#loc49))
#loc171 = loc("MinGRUCell.__call__"(#loc50))
#loc172 = loc("MinGRUCell.__call__"(#loc51))
#loc173 = loc("MinGRUCell.__call__"(#loc52))
#loc174 = loc("MinGRUCell.__call__"(#loc53))
#loc175 = loc("broadcast_done"(#loc54))
#loc176 = loc("SSM.__call__"(#loc55))
#loc177 = loc("SSM.__call__"(#loc56))
#loc178 = loc("SSM.__call__"(#loc57))
#loc179 = loc("SSM.__call__"(#loc58))
#loc180 = loc("SSM.__call__"(#loc59))
#loc181 = loc("SSM.__call__"(#loc60))
#loc182 = loc("SSM.__call__"(#loc61))
#loc183 = loc("SSM.__call__"(#loc62))
#loc184 = loc("SSM.__call__"(#loc63))
#loc185 = loc("SSM.__call__"(#loc64))
#loc186 = loc("SSM.__call__"(#loc65))
#loc187 = loc("MaskedActorCriticNetwork.__call__"(#loc66))
#loc188 = loc("MaskedActorCriticNetwork.__call__"(#loc67))
#loc189 = loc("MaskedActorCriticNetwork.__call__"(#loc68))
#loc190 = loc("tree_zeros_like.<locals>.<lambda>"(#loc69))
#loc191 = loc("tree_zeros_like"(#loc70))
#loc192 = loc("scale_by_adam.<locals>.init_fn"(#loc71))
#loc193 = loc("chain.<locals>.init_fn.<locals>.<genexpr>"(#loc72))
#loc194 = loc("chain.<locals>.init_fn"(#loc73))
#loc195 = loc("RecurrentPPO.init"(#loc74))
#loc196 = loc("scale_by_adam.<locals>.init_fn"(#loc75))
#loc197 = loc("threefry2x32:"(#loc76))
#loc198 = loc("jit:"(#loc98))
#loc199 = loc("jit:"(#loc101))
#loc200 = loc("closed_call:"(#loc107))
#loc201 = loc(callsite(#loc123 at #loc124))
#loc204 = loc(callsite(#loc166 at #loc155))
#loc205 = loc("jit"(#loc125))
#loc206 = loc("iota_2x32_shape"(#loc125))
#loc207 = loc("slice"(#loc125))
#loc208 = loc("squeeze"(#loc125))
#loc209 = loc("stack"(#loc125))
#loc210 = loc("xor"(#loc125))
#loc211 = loc("add"(#loc125))
#loc212 = loc(callsite(#loc125 at #loc125))
#loc213 = loc("while/body/closed_call"(#loc125))
#loc214 = loc("jit(init)"(#loc201))
#loc215 = loc(callsite(#loc125 at #loc201))
#loc216 = loc(callsite(#loc126 at #loc201))
#loc217 = loc(callsite(#loc128 at #loc201))
#loc218 = loc(callsite(#loc147 at #loc201))
#loc219 = loc(callsite(#loc150 at #loc201))
#loc220 = loc(callsite(#loc152 at #loc201))
#loc222 = loc(callsite(#loc155 at #loc201))
#loc223 = loc(callsite(#loc165 at #loc204))
#loc224 = loc(callsite(#loc195 at #loc201))
#loc225 = loc("jit:"(#loc205))
#loc226 = loc("while"(#loc212))
#loc227 = loc(callsite(#loc212 at #loc125))
#loc228 = loc("closed_call:"(#loc213))
#loc229 = loc("jit"(#loc202))
#loc230 = loc("iota_2x32_shape"(#loc202))
#loc231 = loc("slice"(#loc202))
#loc232 = loc("squeeze"(#loc202))
#loc233 = loc("stack"(#loc202))
#loc234 = loc("xor"(#loc202))
#loc235 = loc("add"(#loc202))
#loc236 = loc(callsite(#loc202 at #loc202))
#loc237 = loc("while/body/closed_call"(#loc202))
#loc238 = loc(callsite(#loc125 at #loc215))
#loc239 = loc("jit(init)/slice"(#loc216))
#loc240 = loc("jit(init)/squeeze"(#loc216))
#loc241 = loc(callsite(#loc127 at #loc217))
#loc242 = loc(callsite(#loc129 at #loc217))
#loc243 = loc(callsite(#loc133 at #loc217))
#loc244 = loc(callsite(#loc146 at #loc218))
#loc245 = loc(callsite(#loc149 at #loc219))
#loc246 = loc(callsite(#loc151 at #loc220))
#loc247 = loc(callsite(#loc154 at #loc222))
#loc248 = loc(callsite(#loc160 at #loc222))
#loc249 = loc(callsite(#loc161 at #loc222))
#loc250 = loc(callsite(#loc162 at #loc222))
#loc251 = loc(callsite(#loc166 at #loc222))
#loc252 = loc(callsite(#loc164 at #loc223))
#loc253 = loc(callsite(#loc187 at #loc222))
#loc254 = loc(callsite(#loc188 at #loc222))
#loc255 = loc(callsite(#loc189 at #loc222))
#loc256 = loc(callsite(#loc194 at #loc224))
#loc257 = loc("while/cond/lt"(#loc227))
#loc258 = loc("while/body/closed_call"(#loc227))
#loc259 = loc("while/body/add"(#loc227))
#loc260 = loc("jit:"(#loc229))
#loc261 = loc("while"(#loc236))
#loc262 = loc(callsite(#loc236 at #loc202))
#loc263 = loc("closed_call:"(#loc237))
#loc264 = loc("jit"(#loc221))
#loc265 = loc("shift_right_logical"(#loc221))
#loc266 = loc("broadcast_in_dim"(#loc221))
#loc267 = loc("and"(#loc221))
#loc268 = loc("concatenate"(#loc221))
#loc269 = loc("slice"(#loc221))
#loc270 = loc("squeeze"(#loc221))
#loc271 = loc("split"(#loc221))
#loc272 = loc("xor"(#loc221))
#loc273 = loc("add"(#loc221))
#loc274 = loc(callsite(#loc221 at #loc221))
#loc275 = loc("while/body/closed_call"(#loc221))
#loc276 = loc("jit(init)/jit(_threefry_split)"(#loc238))
#loc277 = loc(callsite(#loc202 at #loc241))
#loc278 = loc("jit(init)/broadcast_in_dim"(#loc242))
#loc279 = loc("jit(init)/reshape"(#loc242))
#loc280 = loc(callsite(#loc132 at #loc243))
#loc281 = loc("jit(init)/vmap()/broadcast_in_dim"(#loc243))
#loc282 = loc(callsite(#loc145 at #loc244))
#loc283 = loc(callsite(#loc148 at #loc245))
#loc284 = loc("jit(init)/or"(#loc246))
#loc285 = loc(callsite(#loc153 at #loc247))
#loc286 = loc(callsite(#loc156 at #loc247))
#loc287 = loc(callsite(#loc157 at #loc247))
#loc288 = loc(callsite(#loc158 at #loc247))
#loc289 = loc(callsite(#loc159 at #loc247))
#loc290 = loc("jit(init)/MaskedActorCriticNetwork/jit(relu)"(#loc248))
#loc291 = loc("jit(init)/MaskedActorCriticNetwork/jit(_one_hot)"(#loc249))
#loc292 = loc("jit(init)/MaskedActorCriticNetwork/concatenate"(#loc250))
#loc293 = loc(callsite(#loc165 at #loc251))
#loc294 = loc(callsite(#loc170 at #loc252))
#loc295 = loc(callsite(#loc153 at #loc253))
#loc296 = loc(callsite(#loc157 at #loc253))
#loc297 = loc("jit(init)/MaskedActorCriticNetwork/jit(_where)"(#loc254))
#loc298 = loc(callsite(#loc153 at #loc255))
#loc299 = loc(callsite(#loc156 at #loc255))
#loc300 = loc(callsite(#loc193 at #loc256))
#loc301 = loc("while/cond/lt"(#loc262))
#loc302 = loc("while/body/closed_call"(#loc262))
#loc303 = loc("while/body/add"(#loc262))
#loc304 = loc("jit:"(#loc264))
#loc305 = loc("while"(#loc274))
#loc306 = loc(callsite(#loc274 at #loc221))
#loc307 = loc("closed_call:"(#loc275))
#loc308 = loc("jit(init)/MaskedActorCriticNetwork/jit"(#loc249))
#loc309 = loc("jit(init)/MaskedActorCriticNetwork/jit"(#loc254))
#loc310 = loc("jit(init)/jit(_threefry_split)"(#loc277))
#loc311 = loc(callsite(#loc131 at #loc280))
#loc312 = loc(callsite(#loc141 at #loc280))
#loc313 = loc(callsite(#loc144 at #loc282))
#loc314 = loc("jit(init)/broadcast_in_dim"(#loc283))
#loc315 = loc(callsite(#loc221 at #loc285))
#loc316 = loc("jit(init)/MaskedActorCriticNetwork/obs/sqrt"(#loc285))
#loc317 = loc("jit(init)/MaskedActorCriticNetwork/obs/div"(#loc285))
#loc318 = loc("jit(init)/MaskedActorCriticNetwork/obs/jit(_truncated_normal)"(#loc285))
#loc319 = loc("jit(init)/MaskedActorCriticNetwork/obs/mul"(#loc285))
#loc320 = loc(callsite(#loc221 at #loc286))
#loc321 = loc("jit(init)/MaskedActorCriticNetwork/obs/broadcast_in_dim"(#loc286))
#loc322 = loc("jit(init)/MaskedActorCriticNetwork/obs/dot_general"(#loc287))
#loc323 = loc("jit(init)/MaskedActorCriticNetwork/obs/reshape"(#loc288))
#loc324 = loc("jit(init)/MaskedActorCriticNetwork/obs/add"(#loc289))
#loc325 = loc(callsite(#loc164 at #loc293))
#loc326 = loc(callsite(#loc171 at #loc294))
#loc327 = loc(callsite(#loc221 at #loc295))
#loc328 = loc("jit(init)/MaskedActorCriticNetwork/actor/sqrt"(#loc295))
#loc329 = loc("jit(init)/MaskedActorCriticNetwork/actor/div"(#loc295))
#loc330 = loc("jit(init)/MaskedActorCriticNetwork/actor/jit(_truncated_normal)"(#loc295))
#loc331 = loc("jit(init)/MaskedActorCriticNetwork/actor/mul"(#loc295))
#loc332 = loc("jit(init)/MaskedActorCriticNetwork/actor/dot_general"(#loc296))
#loc333 = loc(callsite(#loc221 at #loc298))
#loc334 = loc("jit(init)/MaskedActorCriticNetwork/critic/sqrt"(#loc298))
#loc335 = loc("jit(init)/MaskedActorCriticNetwork/critic/div"(#loc298))
#loc336 = loc("jit(init)/MaskedActorCriticNetwork/critic/jit(_truncated_normal)"(#loc298))
#loc337 = loc("jit(init)/MaskedActorCriticNetwork/critic/mul"(#loc298))
#loc338 = loc(callsite(#loc221 at #loc299))
#loc339 = loc("jit(init)/MaskedActorCriticNetwork/critic/broadcast_in_dim"(#loc299))
#loc340 = loc(callsite(#loc194 at #loc300))
#loc341 = loc("while/cond/lt"(#loc306))
#loc342 = loc("while/body/closed_call"(#loc306))
#loc343 = loc("while/body/add"(#loc306))
#loc344 = loc("jit(init)/MaskedActorCriticNetwork/obs/jit"(#loc285))
#loc345 = loc("jit:"(#loc308))
#loc346 = loc("jit(init)/MaskedActorCriticNetwork/actor/jit"(#loc295))
#loc347 = loc("jit:"(#loc309))
#loc348 = loc("jit(init)/MaskedActorCriticNetwork/critic/jit"(#loc298))
#loc349 = loc(callsite(#loc130 at #loc311))
#loc350 = loc(callsite(#loc134 at #loc311))
#loc351 = loc(callsite(#loc135 at #loc311))
#loc352 = loc(callsite(#loc137 at #loc311))
#loc353 = loc(callsite(#loc140 at #loc312))
#loc354 = loc(callsite(#loc143 at #loc313))
#loc355 = loc("jit(init)/MaskedActorCriticNetwork/obs/jit(_threefry_fold_in)"(#loc315))
#loc356 = loc("jit(init)/MaskedActorCriticNetwork/obs/jit(_threefry_fold_in)"(#loc320))
#loc357 = loc(callsite(#loc163 at #loc325))
#loc358 = loc(callsite(#loc167 at #loc325))
#loc359 = loc(callsite(#loc168 at #loc325))
#loc360 = loc(callsite(#loc170 at #loc325))
#loc361 = loc(callsite(#loc176 at #loc325))
#loc362 = loc(callsite(#loc177 at #loc325))
#loc363 = loc(callsite(#loc178 at #loc325))
#loc364 = loc(callsite(#loc179 at #loc325))
#loc365 = loc(callsite(#loc180 at #loc325))
#loc366 = loc(callsite(#loc181 at #loc325))
#loc367 = loc(callsite(#loc182 at #loc325))
#loc368 = loc(callsite(#loc183 at #loc325))
#loc369 = loc(callsite(#loc184 at #loc325))
#loc370 = loc(callsite(#loc185 at #loc325))
#loc371 = loc(callsite(#loc186 at #loc325))
#loc372 = loc("jit(init)/MaskedActorCriticNetwork/actor/jit(_threefry_fold_in)"(#loc327))
#loc373 = loc("jit(init)/MaskedActorCriticNetwork/critic/jit(_threefry_fold_in)"(#loc333))
#loc374 = loc("jit(init)/MaskedActorCriticNetwork/critic/jit(_threefry_fold_in)"(#loc338))
#loc375 = loc(callsite(#loc193 at #loc340))
#loc376 = loc("jit:"(#loc344))
#loc377 = loc("jit:"(#loc346))
#loc378 = loc("jit:"(#loc348))
#loc379 = loc("jit(init)/vmap(jit(_randint))"(#loc349))
#loc380 = loc("jit(init)/vmap()/lt"(#loc350))
#loc381 = loc("jit(init)/vmap()/add"(#loc350))
#loc382 = loc("jit(init)/vmap()/select_n"(#loc350))
#loc383 = loc("jit(init)/vmap()/broadcast_in_dim"(#loc350))
#loc384 = loc("jit(init)/vmap()/concatenate"(#loc350))
#loc385 = loc("jit(init)/vmap()/gather"(#loc350))
#loc386 = loc("jit(init)/vmap()/squeeze"(#loc350))
#loc387 = loc("jit(init)/vmap()/broadcast_in_dim"(#loc351))
#loc388 = loc(callsite(#loc136 at #loc352))
#loc389 = loc(callsite(#loc138 at #loc352))
#loc390 = loc(callsite(#loc139 at #loc352))
#loc391 = loc("jit(init)/vmap()/broadcast_in_dim"(#loc353))
#loc392 = loc(callsite(#loc142 at #loc354))
#loc393 = loc(callsite(#loc153 at #loc357))
#loc394 = loc(callsite(#loc156 at #loc357))
#loc395 = loc(callsite(#loc157 at #loc357))
#loc396 = loc(callsite(#loc158 at #loc357))
#loc397 = loc(callsite(#loc159 at #loc357))
#loc398 = loc("jit(init)/MaskedActorCriticNetwork/torso/blocks_0/jit(relu)"(#loc358))
#loc399 = loc(callsite(#loc142 at #loc359))
#loc400 = loc(callsite(#loc169 at #loc360))
#loc401 = loc(callsite(#loc171 at #loc360))
#loc402 = loc(callsite(#loc172 at #loc360))
#loc403 = loc(callsite(#loc173 at #loc360))
#loc404 = loc(callsite(#loc174 at #loc360))
#loc405 = loc(callsite(#loc175 at #loc361))
#loc406 = loc("jit(init)/MaskedActorCriticNetwork/torso/blocks_1/convert_element_type"(#loc362))
#loc407 = loc("jit(init)/MaskedActorCriticNetwork/torso/blocks_1/mul"(#loc362))
#loc408 = loc("jit(init)/MaskedActorCriticNetwork/torso/blocks_1/broadcast_in_dim"(#loc363))
#loc409 = loc("jit(init)/MaskedActorCriticNetwork/torso/blocks_1/mul"(#loc364))
#loc410 = loc("jit(init)/MaskedActorCriticNetwork/torso/blocks_1/add"(#loc365))
#loc411 = loc("jit(init)/MaskedActorCriticNetwork/torso/blocks_1/convert_element_type"(#loc366))
#loc412 = loc("jit(init)/MaskedActorCriticNetwork/torso/blocks_1/sub"(#loc366))
#loc413 = loc("jit(init)/MaskedActorCriticNetwork/torso/blocks_1/convert_element_type"(#loc367))
#loc414 = loc("jit(init)/MaskedActorCriticNetwork/torso/blocks_1/mul"(#loc367))
#loc415 = loc("jit(init)/MaskedActorCriticNetwork/torso/blocks_1/broadcast_in_dim"(#loc368))
#loc416 = loc("jit(init)/MaskedActorCriticNetwork/torso/blocks_1/mul"(#loc369))
#loc417 = loc("jit(init)/MaskedActorCriticNetwork/torso/blocks_1/add"(#loc370))
#loc418 = loc("jit(init)/MaskedActorCriticNetwork/torso/blocks_1/jit(_take)"(#loc371))
#loc419 = loc(callsite(#loc192 at #loc375))
#loc420 = loc(callsite(#loc196 at #loc375))
#loc421 = loc("jit(init)/vmap()/jit"(#loc349))
#loc422 = loc("jit(init)/MaskedActorCriticNetwork/torso/blocks_1/jit"(#loc371))
#loc423 = loc("jit(init)/vmap(jit(_one_hot))"(#loc388))
#loc424 = loc("jit(init)/vmap()/reshape"(#loc389))
#loc425 = loc("jit(init)/vmap(jit(_where))"(#loc390))
#loc426 = loc("jit(init)/broadcast_in_dim"(#loc392))
#loc427 = loc(callsite(#loc221 at #loc393))
#loc428 = loc("jit(init)/MaskedActorCriticNetwork/torso/blocks_0/Dense_0/sqrt"(#loc393))
#loc429 = loc("jit(init)/MaskedActorCriticNetwork/torso/blocks_0/Dense_0/div"(#loc393))
#loc430 = loc("jit(init)/MaskedActorCriticNetwork/torso/blocks_0/Dense_0/jit(_truncated_normal)"(#loc393))
#loc431 = loc("jit(init)/MaskedActorCriticNetwork/torso/blocks_0/Dense_0/mul"(#loc393))
#loc432 = loc(callsite(#loc221 at #loc394))
#loc433 = loc("jit(init)/MaskedActorCriticNetwork/torso/blocks_0/Dense_0/broadcast_in_dim"(#loc394))
#loc434 = loc("jit(init)/MaskedActorCriticNetwork/torso/blocks_0/Dense_0/dot_general"(#loc395))
#loc435 = loc("jit(init)/MaskedActorCriticNetwork/torso/blocks_0/Dense_0/reshape"(#loc396))
#loc436 = loc("jit(init)/MaskedActorCriticNetwork/torso/blocks_0/Dense_0/add"(#loc397))
#loc437 = loc("jit(init)/MaskedActorCriticNetwork/torso/blocks_1/broadcast_in_dim"(#loc399))
#loc438 = loc(callsite(#loc153 at #loc400))
#loc439 = loc(callsite(#loc157 at #loc400))
#loc440 = loc(callsite(#loc326 at #loc401))
#loc441 = loc("jit(init)/MaskedActorCriticNetwork/torso/blocks_1/cell/sub"(#loc402))
#loc442 = loc(callsite(#loc153 at #loc403))
#loc443 = loc(callsite(#loc157 at #loc403))
#loc444 = loc("jit(init)/MaskedActorCriticNetwork/torso/blocks_1/cell/mul"(#loc404))
#loc445 = loc("jit(init)/MaskedActorCriticNetwork/torso/blocks_1/reshape"(#loc405))
#loc446 = loc(callsite(#loc191 at #loc419))
#loc447 = loc(callsite(#loc191 at #loc420))
#loc448 = loc("jit:"(#loc421))
#loc449 = loc("jit(init)/vmap()/jit"(#loc388))
#loc450 = loc("jit(init)/vmap()/jit"(#loc390))
#loc451 = loc("jit(init)/MaskedActorCriticNetwork/torso/blocks_0/Dense_0/jit"(#loc393))
#loc452 = loc("jit:"(#loc422))
#loc453 = loc("jit(init)/MaskedActorCriticNetwork/torso/blocks_0/Dense_0/jit(_threefry_fold_in)"(#loc427))
#loc454 = loc("jit(init)/MaskedActorCriticNetwork/torso/blocks_0/Dense_0/jit(_threefry_fold_in)"(#loc432))
#loc455 = loc(callsite(#loc221 at #loc438))
#loc456 = loc("jit(init)/MaskedActorCriticNetwork/torso/blocks_1/cell/update_gate/sqrt"(#loc438))
#loc457 = loc("jit(init)/MaskedActorCriticNetwork/torso/blocks_1/cell/update_gate/div"(#loc438))
#loc458 = loc("jit(init)/MaskedActorCriticNetwork/torso/blocks_1/cell/update_gate/jit(_truncated_normal)"(#loc438))
#loc459 = loc("jit(init)/MaskedActorCriticNetwork/torso/blocks_1/cell/update_gate/mul"(#loc438))
#loc460 = loc("jit(init)/MaskedActorCriticNetwork/torso/blocks_1/cell/update_gate/dot_general"(#loc439))
#loc461 = loc("jit(init)/MaskedActorCriticNetwork/torso/blocks_1/cell/neg"(#loc440))
#loc462 = loc("jit(init)/MaskedActorCriticNetwork/torso/blocks_1/cell/exp"(#loc440))
#loc463 = loc("jit(init)/MaskedActorCriticNetwork/torso/blocks_1/cell/add"(#loc440))
#loc464 = loc("jit(init)/MaskedActorCriticNetwork/torso/blocks_1/cell/div"(#loc440))
#loc465 = loc(callsite(#loc221 at #loc442))
#loc466 = loc("jit(init)/MaskedActorCriticNetwork/torso/blocks_1/cell/candidate/sqrt"(#loc442))
#loc467 = loc("jit(init)/MaskedActorCriticNetwork/torso/blocks_1/cell/candidate/div"(#loc442))
#loc468 = loc("jit(init)/MaskedActorCriticNetwork/torso/blocks_1/cell/candidate/jit(_truncated_normal)"(#loc442))
#loc469 = loc("jit(init)/MaskedActorCriticNetwork/torso/blocks_1/cell/candidate/mul"(#loc442))
#loc470 = loc("jit(init)/MaskedActorCriticNetwork/torso/blocks_1/cell/candidate/dot_general"(#loc443))
#loc471 = loc(callsite(#loc190 at #loc446))
#loc472 = loc(callsite(#loc190 at #loc447))
#loc473 = loc("jit:"(#loc449))
#loc474 = loc("jit:"(#loc450))
#loc475 = loc("jit:"(#loc451))
#loc476 = loc("jit(init)/MaskedActorCriticNetwork/torso/blocks_1/cell/update_gate/jit"(#loc438))
#loc477 = loc("jit(init)/MaskedActorCriticNetwork/torso/blocks_1/cell/update_gate/jit(_threefry_fold_in)"(#loc455))
#loc478 = loc("jit(init)/MaskedActorCriticNetwork/torso/blocks_1/cell/candidate/jit(_threefry_fold_in)"(#loc465))
#loc479 = loc("jit(init)/broadcast_in_dim"(#loc471))
#loc480 = loc("jit(init)/broadcast_in_dim"(#loc472))
#loc481 = loc("jit:"(#loc476))
