#loc = loc(unknown)
#loc1 = loc("state.step")
#loc2 = loc("state.timestep.obs['action_mask']")
#loc3 = loc("state.timestep.obs['observation']")
#loc4 = loc("state.timestep.action")
#loc5 = loc("state.timestep.reward")
#loc6 = loc("state.timestep.terminated")
#loc7 = loc("state.timestep.truncated")
#loc8 = loc("state.timestep.info['guess_count']")
#loc9 = loc("state.timestep.info['illegal_guesses']")
#loc10 = loc("state.timestep.info['matched_secret']")
#loc11 = loc("state.environment_state.secret_answer")
#loc12 = loc("state.environment_state.guess_feedback")
#loc13 = loc("state.environment_state.guess_revealed")
#loc14 = loc("state.environment_state.guess_count")
#loc15 = loc("state.environment_state.matched_secret")
#loc16 = loc("state.carry[1]")
#loc17 = loc("state.params['params']['actor']['kernel']")
#loc18 = loc("state.params['params']['critic']['bias']")
#loc19 = loc("state.params['params']['critic']['kernel']")
#loc20 = loc("state.params['params']['obs']['bias']")
#loc21 = loc("state.params['params']['obs']['kernel']")
#loc22 = loc("state.params['params']['torso']['blocks_0']['Dense_0']['bias']")
#loc23 = loc("state.params['params']['torso']['blocks_0']['Dense_0']['kernel']")
#loc24 = loc("state.params['params']['torso']['blocks_1']['cell']['candidate']['kernel']")
#loc25 = loc("state.params['params']['torso']['blocks_1']['cell']['update_gate']['kernel']")
#loc26 = loc("state.optimizer_state[1][0].count")
#loc27 = loc("state.optimizer_state[1][0].mu['params']['actor']['kernel']")
#loc28 = loc("state.optimizer_state[1][0].mu['params']['critic']['bias']")
#loc29 = loc("state.optimizer_state[1][0].mu['params']['critic']['kernel']")
#loc30 = loc("state.optimizer_state[1][0].mu['params']['obs']['bias']")
#loc31 = loc("state.optimizer_state[1][0].mu['params']['obs']['kernel']")
#loc32 = loc("state.optimizer_state[1][0].mu['params']['torso']['blocks_0']['Dense_0']['bias']")
#loc33 = loc("state.optimizer_state[1][0].mu['params']['torso']['blocks_0']['Dense_0']['kernel']")
#loc34 = loc("state.optimizer_state[1][0].mu['params']['torso']['blocks_1']['cell']['candidate']['kernel']")
#loc35 = loc("state.optimizer_state[1][0].mu['params']['torso']['blocks_1']['cell']['update_gate']['kernel']")
#loc36 = loc("state.optimizer_state[1][0].nu['params']['actor']['kernel']")
#loc37 = loc("state.optimizer_state[1][0].nu['params']['critic']['bias']")
#loc38 = loc("state.optimizer_state[1][0].nu['params']['critic']['kernel']")
#loc39 = loc("state.optimizer_state[1][0].nu['params']['obs']['bias']")
#loc40 = loc("state.optimizer_state[1][0].nu['params']['obs']['kernel']")
#loc41 = loc("state.optimizer_state[1][0].nu['params']['torso']['blocks_0']['Dense_0']['bias']")
#loc42 = loc("state.optimizer_state[1][0].nu['params']['torso']['blocks_0']['Dense_0']['kernel']")
#loc43 = loc("state.optimizer_state[1][0].nu['params']['torso']['blocks_1']['cell']['candidate']['kernel']")
#loc44 = loc("state.optimizer_state[1][0].nu['params']['torso']['blocks_1']['cell']['update_gate']['kernel']")
#loc45 = loc("key")
#loc51 = loc("/Users/noahfarr/noahfarr.github.io/tools/whlo/export_ppo_wordle.py":241:23 to :63)
#loc53 = loc("/Users/noahfarr/reinforcement-learning/src/algorithms/algorithms/recurrent_ppo.py":268:20 to :66)
#loc105 = loc("/Users/noahfarr/reinforcement-learning/src/algorithms/algorithms/recurrent_ppo.py":290:21 to :72)
#loc107 = loc("/Users/noahfarr/noahfarr.github.io/tools/whlo/export_ppo_wordle.py":236:53 to :86)
#loc108 = loc("/Users/noahfarr/noahfarr.github.io/tools/whlo/export_ppo_wordle.py":242:26 to :57)
#loc140 = loc("/Users/noahfarr/reinforcement-learning/.venv/lib/python3.13/site-packages/distrax/_src/distributions/distribution.py":77:14 to :36)
#loc141 = loc("/Users/noahfarr/reinforcement-learning/.venv/lib/python3.13/site-packages/distrax/_src/distributions/distribution.py":174:24 to :69)
#loc142 = loc("/Users/noahfarr/reinforcement-learning/.venv/lib/python3.13/site-packages/distrax/_src/distributions/independent.py":104:24 to 105:33)
#loc143 = loc("/Users/noahfarr/reinforcement-learning/src/algorithms/algorithms/recurrent_ppo.py":80:27 to :68)
#loc146 = loc("/Users/noahfarr/reinforcement-learning/src/policies/policies/distributions.py":15:16 to :76)
#loc192 = loc("scatter-add")
#loc267 = loc("reduce")
#loc268 = loc("/Users/noahfarr/reinforcement-learning/src/environments/environments/wrappers/vectorize.py":20:21 to :54)
#loc269 = loc("/Users/noahfarr/reinforcement-learning/src/algorithms/algorithms/recurrent_ppo.py":300:38 to 302:9)
#loc289 = loc("vmap()")
#loc311 = loc("sort")
#loc421 = loc("main.<locals>.train_step"(#loc51))
#loc423 = loc("RecurrentPPO.update_step"(#loc53))
#loc475 = loc("RecurrentPPO.update_step"(#loc105))
#loc477 = loc("main.<locals>.solve_rate"(#loc107))
#loc478 = loc("main.<locals>.train_step"(#loc108))
#loc496 = loc("Distribution._sample_n_and_log_prob"(#loc140))
#loc497 = loc("Distribution.sample_and_log_prob"(#loc141))
#loc498 = loc("Independent._sample_n_and_log_prob"(#loc142))
#loc499 = loc("RecurrentPPO.rollout"(#loc143))
#loc502 = loc("Categorical._sample_n"(#loc146))
#loc548 = loc("scatter-add:"(#loc192))
#loc602 = loc("reduce:"(#loc267))
#loc603 = loc("Vectorize.init"(#loc268))
#loc604 = loc("RecurrentPPO.init"(#loc269))
#loc631 = loc("sort:"(#loc311))
#loc733 = loc(callsite(#loc423 at #loc421))
#loc737 = loc(callsite(#loc475 at #loc421))
#loc739 = loc(callsite(#loc477 at #loc478))
#loc755 = loc(callsite(#loc497 at #loc499))
#loc771 = loc(callsite(#loc603 at #loc604))
#loc918 = loc(callsite(#loc498 at #loc755))
#loc1133 = loc(callsite(#loc497 at #loc918))
#loc1299 = loc(callsite(#loc496 at #loc1133))
#loc1517 = loc(callsite(#loc502 at #loc1299))
module @jit_train_step attributes {jax.uses_shape_polymorphism = false, mhlo.num_partitions = 1 : i32, mhlo.num_replicas = 1 : i32} {
  func.func public @main(%arg0: tensor<i32> loc("state.step"), %arg1: tensor<64x16xi1> loc("state.timestep.obs['action_mask']"), %arg2: tensor<64x15xf32> loc("state.timestep.obs['observation']"), %arg3: tensor<64xi32> loc("state.timestep.action"), %arg4: tensor<64xf32> loc("state.timestep.reward"), %arg5: tensor<64xi1> loc("state.timestep.terminated"), %arg6: tensor<64xi1> loc("state.timestep.truncated"), %arg7: tensor<64xf32> loc("state.timestep.info['guess_count']"), %arg8: tensor<64xf32> loc("state.timestep.info['illegal_guesses']"), %arg9: tensor<64xf32> loc("state.timestep.info['matched_secret']"), %arg10: tensor<64x5xi32> loc("state.environment_state.secret_answer"), %arg11: tensor<64x5xi32> loc("state.environment_state.guess_feedback"), %arg12: tensor<64xi1> loc("state.environment_state.guess_revealed"), %arg13: tensor<64xi32> loc("state.environment_state.guess_count"), %arg14: tensor<64xi1> loc("state.environment_state.matched_secret"), %arg15: tensor<64x32xf32> loc("state.carry[1]"), %arg16: tensor<32x16xf32> loc("state.params['params']['actor']['kernel']"), %arg17: tensor<1xf32> loc("state.params['params']['critic']['bias']"), %arg18: tensor<32x1xf32> loc("state.params['params']['critic']['kernel']"), %arg19: tensor<32xf32> loc("state.params['params']['obs']['bias']"), %arg20: tensor<15x32xf32> loc("state.params['params']['obs']['kernel']"), %arg21: tensor<32xf32> loc("state.params['params']['torso']['blocks_0']['Dense_0']['bias']"), %arg22: tensor<48x32xf32> loc("state.params['params']['torso']['blocks_0']['Dense_0']['kernel']"), %arg23: tensor<32x32xf32> loc("state.params['params']['torso']['blocks_1']['cell']['candidate']['kernel']"), %arg24: tensor<32x32xf32> loc("state.params['params']['torso']['blocks_1']['cell']['update_gate']['kernel']"), %arg25: tensor<i32> loc("state.optimizer_state[1][0].count"), %arg26: tensor<32x16xf32> loc("state.optimizer_state[1][0].mu['params']['actor']['kernel']"), %arg27: tensor<1xf32> loc("state.optimizer_state[1][0].mu['params']['critic']['bias']"), %arg28: tensor<32x1xf32> loc("state.optimizer_state[1][0].mu['params']['critic']['kernel']"), %arg29: tensor<32xf32> loc("state.optimizer_state[1][0].mu['params']['obs']['bias']"), %arg30: tensor<15x32xf32> loc("state.optimizer_state[1][0].mu['params']['obs']['kernel']"), %arg31: tensor<32xf32> loc("state.optimizer_state[1][0].mu['params']['torso']['blocks_0']['Dense_0']['bias']"), %arg32: tensor<48x32xf32> loc("state.optimizer_state[1][0].mu['params']['torso']['blocks_0']['Dense_0']['kernel']"), %arg33: tensor<32x32xf32> loc("state.optimizer_state[1][0].mu['params']['torso']['blocks_1']['cell']['candidate']['kernel']"), %arg34: tensor<32x32xf32> loc("state.optimizer_state[1][0].mu['params']['torso']['blocks_1']['cell']['update_gate']['kernel']"), %arg35: tensor<32x16xf32> loc("state.optimizer_state[1][0].nu['params']['actor']['kernel']"), %arg36: tensor<1xf32> loc("state.optimizer_state[1][0].nu['params']['critic']['bias']"), %arg37: tensor<32x1xf32> loc("state.optimizer_state[1][0].nu['params']['critic']['kernel']"), %arg38: tensor<32xf32> loc("state.optimizer_state[1][0].nu['params']['obs']['bias']"), %arg39: tensor<15x32xf32> loc("state.optimizer_state[1][0].nu['params']['obs']['kernel']"), %arg40: tensor<32xf32> loc("state.optimizer_state[1][0].nu['params']['torso']['blocks_0']['Dense_0']['bias']"), %arg41: tensor<48x32xf32> loc("state.optimizer_state[1][0].nu['params']['torso']['blocks_0']['Dense_0']['kernel']"), %arg42: tensor<32x32xf32> loc("state.optimizer_state[1][0].nu['params']['torso']['blocks_1']['cell']['candidate']['kernel']"), %arg43: tensor<32x32xf32> loc("state.optimizer_state[1][0].nu['params']['torso']['blocks_1']['cell']['update_gate']['kernel']"), %arg44: tensor<2xui32> loc("key")) -> (tensor<i32> {jax.result_info = "result[0].step"}, tensor<64x16xi1> {jax.result_info = "result[0].timestep.obs['action_mask']"}, tensor<64x15xf32> {jax.result_info = "result[0].timestep.obs['observation']"}, tensor<64xi32> {jax.result_info = "result[0].timestep.action"}, tensor<64xf32> {jax.result_info = "result[0].timestep.reward"}, tensor<64xi1> {jax.result_info = "result[0].timestep.terminated"}, tensor<64xi1> {jax.result_info = "result[0].timestep.truncated"}, tensor<64xf32> {jax.result_info = "result[0].timestep.info['guess_count']"}, tensor<64xf32> {jax.result_info = "result[0].timestep.info['illegal_guesses']"}, tensor<64xf32> {jax.result_info = "result[0].timestep.info['matched_secret']"}, tensor<64x5xi32> {jax.result_info = "result[0].environment_state.secret_answer"}, tensor<64x5xi32> {jax.result_info = "result[0].environment_state.guess_feedback"}, tensor<64xi1> {jax.result_info = "result[0].environment_state.guess_revealed"}, tensor<64xi32> {jax.result_info = "result[0].environment_state.guess_count"}, tensor<64xi1> {jax.result_info = "result[0].environment_state.matched_secret"}, tensor<64x32xf32> {jax.result_info = "result[0].carry[1]"}, tensor<32x16xf32> {jax.result_info = "result[0].params['params']['actor']['kernel']"}, tensor<1xf32> {jax.result_info = "result[0].params['params']['critic']['bias']"}, tensor<32x1xf32> {jax.result_info = "result[0].params['params']['critic']['kernel']"}, tensor<32xf32> {jax.result_info = "result[0].params['params']['obs']['bias']"}, tensor<15x32xf32> {jax.result_info = "result[0].params['params']['obs']['kernel']"}, tensor<32xf32> {jax.result_info = "result[0].params['params']['torso']['blocks_0']['Dense_0']['bias']"}, tensor<48x32xf32> {jax.result_info = "result[0].params['params']['torso']['blocks_0']['Dense_0']['kernel']"}, tensor<32x32xf32> {jax.result_info = "result[0].params['params']['torso']['blocks_1']['cell']['candidate']['kernel']"}, tensor<32x32xf32> {jax.result_info = "result[0].params['params']['torso']['blocks_1']['cell']['update_gate']['kernel']"}, tensor<i32> {jax.result_info = "result[0].optimizer_state[1][0].count"}, tensor<32x16xf32> {jax.result_info = "result[0].optimizer_state[1][0].mu['params']['actor']['kernel']"}, tensor<1xf32> {jax.result_info = "result[0].optimizer_state[1][0].mu['params']['critic']['bias']"}, tensor<32x1xf32> {jax.result_info = "result[0].optimizer_state[1][0].mu['params']['critic']['kernel']"}, tensor<32xf32> {jax.result_info = "result[0].optimizer_state[1][0].mu['params']['obs']['bias']"}, tensor<15x32xf32> {jax.result_info = "result[0].optimizer_state[1][0].mu['params']['obs']['kernel']"}, tensor<32xf32> {jax.result_info = "result[0].optimizer_state[1][0].mu['params']['torso']['blocks_0']['Dense_0']['bias']"}, tensor<48x32xf32> {jax.result_info = "result[0].optimizer_state[1][0].mu['params']['torso']['blocks_0']['Dense_0']['kernel']"}, tensor<32x32xf32> {jax.result_info = "result[0].optimizer_state[1][0].mu['params']['torso']['blocks_1']['cell']['candidate']['kernel']"}, tensor<32x32xf32> {jax.result_info = "result[0].optimizer_state[1][0].mu['params']['torso']['blocks_1']['cell']['update_gate']['kernel']"}, tensor<32x16xf32> {jax.result_info = "result[0].optimizer_state[1][0].nu['params']['actor']['kernel']"}, tensor<1xf32> {jax.result_info = "result[0].optimizer_state[1][0].nu['params']['critic']['bias']"}, tensor<32x1xf32> {jax.result_info = "result[0].optimizer_state[1][0].nu['params']['critic']['kernel']"}, tensor<32xf32> {jax.result_info = "result[0].optimizer_state[1][0].nu['params']['obs']['bias']"}, tensor<15x32xf32> {jax.result_info = "result[0].optimizer_state[1][0].nu['params']['obs']['kernel']"}, tensor<32xf32> {jax.result_info = "result[0].optimizer_state[1][0].nu['params']['torso']['blocks_0']['Dense_0']['bias']"}, tensor<48x32xf32> {jax.result_info = "result[0].optimizer_state[1][0].nu['params']['torso']['blocks_0']['Dense_0']['kernel']"}, tensor<32x32xf32> {jax.result_info = "result[0].optimizer_state[1][0].nu['params']['torso']['blocks_1']['cell']['candidate']['kernel']"}, tensor<32x32xf32> {jax.result_info = "result[0].optimizer_state[1][0].nu['params']['torso']['blocks_1']['cell']['update_gate']['kernel']"}, tensor<f32> {jax.result_info = "result[1]"}) {
    %c = stablehlo.constant dense<24> : tensor<i32> loc(#loc)
    %c_0 = stablehlo.constant dense<4> : tensor<i32> loc(#loc)
    %cst = stablehlo.constant dense<-3.40282347E+38> : tensor<f32> loc(#loc874)
    %cst_1 = stablehlo.constant dense<1.000000e+00> : tensor<f32> loc(#loc)
    %c_2 = stablehlo.constant dense<-1> : tensor<i32> loc(#loc)
    %c_3 = stablehlo.constant dense<1> : tensor<i32> loc(#loc)
    %c_4 = stablehlo.constant dense<16> : tensor<i32> loc(#loc)
    %c_5 = stablehlo.constant dense<0> : tensor<i32> loc(#loc)
    %cst_6 = stablehlo.constant dense<0.000000e+00> : tensor<f32> loc(#loc)
    %c_7 = stablehlo.constant dense<false> : tensor<i1> loc(#loc)
    %c_8 = stablehlo.constant dense<[[2, 17, 0, 13, 4], [18, 11, 0, 19, 4], [0, 20, 3, 8, 14], [7, 14, 20, 18, 4], [15, 11, 0, 13, 19], [1, 17, 8, 2, 10], [18, 19, 14, 17, 12], [2, 11, 14, 20, 3], [6, 17, 0, 15, 4], [5, 11, 8, 13, 19], [12, 14, 20, 13, 3], [18, 15, 0, 3, 4], [2, 7, 0, 8, 17], [11, 4, 12, 14, 13], [5, 17, 14, 18, 19], [6, 11, 0, 25, 4]]> : tensor<16x5xi32> loc(#loc874)
    %c_9 = stablehlo.constant dense<[1613312, 1732200, 1881040, 2056836, 2091992, 2158163, 2162152, 2267596, 4610763, 5792480, 6194979, 6540820, 7909384, 8911333, 8916731, 9008823]> : tensor<16xi32> loc(#loc874)
    %c_10 = stablehlo.constant dense<[[0, 20, 3, 8, 14], [1, 17, 8, 2, 10], [2, 7, 0, 8, 17], [2, 11, 14, 20, 3], [2, 17, 0, 13, 4], [5, 11, 8, 13, 19], [5, 17, 14, 18, 19], [6, 11, 0, 25, 4], [6, 17, 0, 15, 4], [7, 14, 20, 18, 4], [11, 4, 12, 14, 13], [12, 14, 20, 13, 3], [15, 11, 0, 13, 19], [18, 11, 0, 19, 4], [18, 15, 0, 3, 4], [18, 19, 14, 17, 12]]> : tensor<16x5xi32> loc(#loc874)
    %0 = call @_threefry_split(%arg44) : (tensor<2xui32>) -> tensor<2x2xui32> loc(#loc1248)
    %1 = stablehlo.slice %0 [0:1, 0:2] : (tensor<2x2xui32>) -> tensor<1x2xui32> loc(#loc1096)
    %2 = stablehlo.reshape %1 : (tensor<1x2xui32>) -> tensor<2xui32> loc(#loc1097)
    %3 = stablehlo.slice %0 [1:2, 0:2] : (tensor<2x2xui32>) -> tensor<1x2xui32> loc(#loc1096)
    %4 = stablehlo.reshape %3 : (tensor<1x2xui32>) -> tensor<2xui32> loc(#loc1097)
    %5 = call @_threefry_split(%2) : (tensor<2xui32>) -> tensor<2x2xui32> loc(#loc1446)
    %6 = stablehlo.slice %5 [0:1, 0:2] : (tensor<2x2xui32>) -> tensor<1x2xui32> loc(#loc1250)
    %7 = stablehlo.reshape %6 : (tensor<1x2xui32>) -> tensor<2xui32> loc(#loc1251)
    %8 = stablehlo.slice %5 [1:2, 0:2] : (tensor<2x2xui32>) -> tensor<1x2xui32> loc(#loc1250)
    %9 = stablehlo.reshape %8 : (tensor<1x2xui32>) -> tensor<2xui32> loc(#loc1251)
    %10 = call @_threefry_split_0(%7) : (tensor<2xui32>) -> tensor<16x2xui32> loc(#loc1447)
    %11 = stablehlo.broadcast_in_dim %c_7, dims = [] : (tensor<i1>) -> tensor<16x64x16xi1> loc(#loc1448)
    %12 = stablehlo.broadcast_in_dim %cst_6, dims = [] : (tensor<f32>) -> tensor<16x64x15xf32> loc(#loc1448)
    %13 = stablehlo.broadcast_in_dim %c_5, dims = [] : (tensor<i32>) -> tensor<16x64xi32> loc(#loc1448)
    %14 = stablehlo.broadcast_in_dim %cst_6, dims = [] : (tensor<f32>) -> tensor<16x64xf32> loc(#loc1448)
    %15 = stablehlo.broadcast_in_dim %c_7, dims = [] : (tensor<i1>) -> tensor<16x64xi1> loc(#loc1448)
    %16 = stablehlo.broadcast_in_dim %c_7, dims = [] : (tensor<i1>) -> tensor<16x64xi1> loc(#loc1448)
    %17 = stablehlo.broadcast_in_dim %cst_6, dims = [] : (tensor<f32>) -> tensor<16x64xf32> loc(#loc1448)
    %18 = stablehlo.broadcast_in_dim %cst_6, dims = [] : (tensor<f32>) -> tensor<16x64xf32> loc(#loc1448)
    %19 = stablehlo.broadcast_in_dim %cst_6, dims = [] : (tensor<f32>) -> tensor<16x64xf32> loc(#loc1448)
    %20 = stablehlo.broadcast_in_dim %c_7, dims = [] : (tensor<i1>) -> tensor<16x64x16xi1> loc(#loc1448)
    %21 = stablehlo.broadcast_in_dim %cst_6, dims = [] : (tensor<f32>) -> tensor<16x64x15xf32> loc(#loc1448)
    %22 = stablehlo.broadcast_in_dim %c_5, dims = [] : (tensor<i32>) -> tensor<16x64xi32> loc(#loc1448)
    %23 = stablehlo.broadcast_in_dim %cst_6, dims = [] : (tensor<f32>) -> tensor<16x64xf32> loc(#loc1448)
    %24 = stablehlo.broadcast_in_dim %c_7, dims = [] : (tensor<i1>) -> tensor<16x64xi1> loc(#loc1448)
    %25 = stablehlo.broadcast_in_dim %c_7, dims = [] : (tensor<i1>) -> tensor<16x64xi1> loc(#loc1448)
    %26 = stablehlo.broadcast_in_dim %cst_6, dims = [] : (tensor<f32>) -> tensor<16x64xf32> loc(#loc1448)
    %27 = stablehlo.broadcast_in_dim %cst_6, dims = [] : (tensor<f32>) -> tensor<16x64xf32> loc(#loc1448)
    %28 = stablehlo.broadcast_in_dim %cst_6, dims = [] : (tensor<f32>) -> tensor<16x64xf32> loc(#loc1448)
    %29 = stablehlo.broadcast_in_dim %cst_6, dims = [] : (tensor<f32>) -> tensor<16x64xf32> loc(#loc1448)
    %30 = stablehlo.broadcast_in_dim %cst_6, dims = [] : (tensor<f32>) -> tensor<16x64xf32> loc(#loc1448)
    %31:69 = stablehlo.while(%iterArg = %10, %iterArg_11 = %arg16, %iterArg_12 = %arg17, %iterArg_13 = %arg18, %iterArg_14 = %arg19, %iterArg_15 = %arg20, %iterArg_16 = %arg21, %iterArg_17 = %arg22, %iterArg_18 = %arg23, %iterArg_19 = %arg24, %iterArg_20 = %arg25, %iterArg_21 = %arg26, %iterArg_22 = %arg27, %iterArg_23 = %arg28, %iterArg_24 = %arg29, %iterArg_25 = %arg30, %iterArg_26 = %arg31, %iterArg_27 = %arg32, %iterArg_28 = %arg33, %iterArg_29 = %arg34, %iterArg_30 = %arg35, %iterArg_31 = %arg36, %iterArg_32 = %arg37, %iterArg_33 = %arg38, %iterArg_34 = %arg39, %iterArg_35 = %arg40, %iterArg_36 = %arg41, %iterArg_37 = %arg42, %iterArg_38 = %arg43, %iterArg_39 = %c_8, %iterArg_40 = %c_9, %iterArg_41 = %c_10, %iterArg_42 = %c_5, %iterArg_43 = %arg0, %iterArg_44 = %arg1, %iterArg_45 = %arg2, %iterArg_46 = %arg3, %iterArg_47 = %arg4, %iterArg_48 = %arg5, %iterArg_49 = %arg6, %iterArg_50 = %arg7, %iterArg_51 = %arg8, %iterArg_52 = %arg9, %iterArg_53 = %arg10, %iterArg_54 = %arg11, %iterArg_55 = %arg12, %iterArg_56 = %arg13, %iterArg_57 = %arg14, %iterArg_58 = %arg15, %iterArg_59 = %11, %iterArg_60 = %12, %iterArg_61 = %13, %iterArg_62 = %14, %iterArg_63 = %15, %iterArg_64 = %16, %iterArg_65 = %17, %iterArg_66 = %18, %iterArg_67 = %19, %iterArg_68 = %20, %iterArg_69 = %21, %iterArg_70 = %22, %iterArg_71 = %23, %iterArg_72 = %24, %iterArg_73 = %25, %iterArg_74 = %26, %iterArg_75 = %27, %iterArg_76 = %28, %iterArg_77 = %29, %iterArg_78 = %30) : tensor<16x2xui32>, tensor<32x16xf32>, tensor<1xf32>, tensor<32x1xf32>, tensor<32xf32>, tensor<15x32xf32>, tensor<32xf32>, tensor<48x32xf32>, tensor<32x32xf32>, tensor<32x32xf32>, tensor<i32>, tensor<32x16xf32>, tensor<1xf32>, tensor<32x1xf32>, tensor<32xf32>, tensor<15x32xf32>, tensor<32xf32>, tensor<48x32xf32>, tensor<32x32xf32>, tensor<32x32xf32>, tensor<32x16xf32>, tensor<1xf32>, tensor<32x1xf32>, tensor<32xf32>, tensor<15x32xf32>, tensor<32xf32>, tensor<48x32xf32>, tensor<32x32xf32>, tensor<32x32xf32>, tensor<16x5xi32>, tensor<16xi32>, tensor<16x5xi32>, tensor<i32>, tensor<i32>, tensor<64x16xi1>, tensor<64x15xf32>, tensor<64xi32>, tensor<64xf32>, tensor<64xi1>, tensor<64xi1>, tensor<64xf32>, tensor<64xf32>, tensor<64xf32>, tensor<64x5xi32>, tensor<64x5xi32>, tensor<64xi1>, tensor<64xi32>, tensor<64xi1>, tensor<64x32xf32>, tensor<16x64x16xi1>, tensor<16x64x15xf32>, tensor<16x64xi32>, tensor<16x64xf32>, tensor<16x64xi1>, tensor<16x64xi1>, tensor<16x64xf32>, tensor<16x64xf32>, tensor<16x64xf32>, tensor<16x64x16xi1>, tensor<16x64x15xf32>, tensor<16x64xi32>, tensor<16x64xf32>, tensor<16x64xi1>, tensor<16x64xi1>, tensor<16x64xf32>, tensor<16x64xf32>, tensor<16x64xf32>, tensor<16x64xf32>, tensor<16x64xf32>
    cond {
      %101 = stablehlo.compare LT, %iterArg_42, %c_4, SIGNED : (tensor<i32>, tensor<i32>) -> tensor<i1> loc(#loc1450)
      stablehlo.return %101 : tensor<i1> loc(#loc1449)
    } do {
      %101 = func.call @dynamic_index_in_dim(%iterArg, %iterArg_42) : (tensor<16x2xui32>, tensor<i32>) -> tensor<2xui32> loc(#loc1451)
      %102:36 = func.call @closed_call_3(%iterArg_11, %iterArg_12, %iterArg_13, %iterArg_14, %iterArg_15, %iterArg_16, %iterArg_17, %iterArg_18, %iterArg_19, %iterArg_20, %iterArg_21, %iterArg_22, %iterArg_23, %iterArg_24, %iterArg_25, %iterArg_26, %iterArg_27, %iterArg_28, %iterArg_29, %iterArg_30, %iterArg_31, %iterArg_32, %iterArg_33, %iterArg_34, %iterArg_35, %iterArg_36, %iterArg_37, %iterArg_38, %iterArg_39, %iterArg_40, %iterArg_41, %iterArg_43, %iterArg_44, %iterArg_45, %iterArg_46, %iterArg_47, %iterArg_48, %iterArg_49, %iterArg_50, %iterArg_51, %iterArg_52, %iterArg_53, %iterArg_54, %iterArg_55, %iterArg_56, %iterArg_57, %iterArg_58, %101) : (tensor<32x16xf32>, tensor<1xf32>, tensor<32x1xf32>, tensor<32xf32>, tensor<15x32xf32>, tensor<32xf32>, tensor<48x32xf32>, tensor<32x32xf32>, tensor<32x32xf32>, tensor<i32>, tensor<32x16xf32>, tensor<1xf32>, tensor<32x1xf32>, tensor<32xf32>, tensor<15x32xf32>, tensor<32xf32>, tensor<48x32xf32>, tensor<32x32xf32>, tensor<32x32xf32>, tensor<32x16xf32>, tensor<1xf32>, tensor<32x1xf32>, tensor<32xf32>, tensor<15x32xf32>, tensor<32xf32>, tensor<48x32xf32>, tensor<32x32xf32>, tensor<32x32xf32>, tensor<16x5xi32>, tensor<16xi32>, tensor<16x5xi32>, tensor<i32>, tensor<64x16xi1>, tensor<64x15xf32>, tensor<64xi32>, tensor<64xf32>, tensor<64xi1>, tensor<64xi1>, tensor<64xf32>, tensor<64xf32>, tensor<64xf32>, tensor<64x5xi32>, tensor<64x5xi32>, tensor<64xi1>, tensor<64xi32>, tensor<64xi1>, tensor<64x32xf32>, tensor<2xui32>) -> (tensor<i32>, tensor<64x16xi1>, tensor<64x15xf32>, tensor<64xi32>, tensor<64xf32>, tensor<64xi1>, tensor<64xi1>, tensor<64xf32>, tensor<64xf32>, tensor<64xf32>, tensor<64x5xi32>, tensor<64x5xi32>, tensor<64xi1>, tensor<64xi32>, tensor<64xi1>, tensor<64x32xf32>, tensor<64x16xi1>, tensor<64x15xf32>, tensor<64xi32>, tensor<64xf32>, tensor<64xi1>, tensor<64xi1>, tensor<64xf32>, tensor<64xf32>, tensor<64xf32>, tensor<64x16xi1>, tensor<64x15xf32>, tensor<64xi32>, tensor<64xf32>, tensor<64xi1>, tensor<64xi1>, tensor<64xf32>, tensor<64xf32>, tensor<64xf32>, tensor<64xf32>, tensor<64xf32>) loc(#loc1452)
      %103 = func.call @dynamic_update_index_in_dim_35(%iterArg_59, %102#16, %iterArg_42) : (tensor<16x64x16xi1>, tensor<64x16xi1>, tensor<i32>) -> tensor<16x64x16xi1> loc(#loc1453)
      %104 = func.call @dynamic_update_index_in_dim_36(%iterArg_60, %102#17, %iterArg_42) : (tensor<16x64x15xf32>, tensor<64x15xf32>, tensor<i32>) -> tensor<16x64x15xf32> loc(#loc1453)
      %105 = func.call @dynamic_update_index_in_dim_37(%iterArg_61, %102#18, %iterArg_42) : (tensor<16x64xi32>, tensor<64xi32>, tensor<i32>) -> tensor<16x64xi32> loc(#loc1453)
      %106 = func.call @dynamic_update_index_in_dim_38(%iterArg_62, %102#19, %iterArg_42) : (tensor<16x64xf32>, tensor<64xf32>, tensor<i32>) -> tensor<16x64xf32> loc(#loc1453)
      %107 = func.call @dynamic_update_index_in_dim_39(%iterArg_63, %102#20, %iterArg_42) : (tensor<16x64xi1>, tensor<64xi1>, tensor<i32>) -> tensor<16x64xi1> loc(#loc1453)
      %108 = func.call @dynamic_update_index_in_dim_39(%iterArg_64, %102#21, %iterArg_42) : (tensor<16x64xi1>, tensor<64xi1>, tensor<i32>) -> tensor<16x64xi1> loc(#loc1453)
      %109 = func.call @dynamic_update_index_in_dim_38(%iterArg_65, %102#22, %iterArg_42) : (tensor<16x64xf32>, tensor<64xf32>, tensor<i32>) -> tensor<16x64xf32> loc(#loc1453)
      %110 = func.call @dynamic_update_index_in_dim_38(%iterArg_66, %102#23, %iterArg_42) : (tensor<16x64xf32>, tensor<64xf32>, tensor<i32>) -> tensor<16x64xf32> loc(#loc1453)
      %111 = func.call @dynamic_update_index_in_dim_38(%iterArg_67, %102#24, %iterArg_42) : (tensor<16x64xf32>, tensor<64xf32>, tensor<i32>) -> tensor<16x64xf32> loc(#loc1453)
      %112 = func.call @dynamic_update_index_in_dim_35(%iterArg_68, %102#25, %iterArg_42) : (tensor<16x64x16xi1>, tensor<64x16xi1>, tensor<i32>) -> tensor<16x64x16xi1> loc(#loc1453)
      %113 = func.call @dynamic_update_index_in_dim_36(%iterArg_69, %102#26, %iterArg_42) : (tensor<16x64x15xf32>, tensor<64x15xf32>, tensor<i32>) -> tensor<16x64x15xf32> loc(#loc1453)
      %114 = func.call @dynamic_update_index_in_dim_37(%iterArg_70, %102#27, %iterArg_42) : (tensor<16x64xi32>, tensor<64xi32>, tensor<i32>) -> tensor<16x64xi32> loc(#loc1453)
      %115 = func.call @dynamic_update_index_in_dim_38(%iterArg_71, %102#28, %iterArg_42) : (tensor<16x64xf32>, tensor<64xf32>, tensor<i32>) -> tensor<16x64xf32> loc(#loc1453)
      %116 = func.call @dynamic_update_index_in_dim_39(%iterArg_72, %102#29, %iterArg_42) : (tensor<16x64xi1>, tensor<64xi1>, tensor<i32>) -> tensor<16x64xi1> loc(#loc1453)
      %117 = func.call @dynamic_update_index_in_dim_39(%iterArg_73, %102#30, %iterArg_42) : (tensor<16x64xi1>, tensor<64xi1>, tensor<i32>) -> tensor<16x64xi1> loc(#loc1453)
      %118 = func.call @dynamic_update_index_in_dim_38(%iterArg_74, %102#31, %iterArg_42) : (tensor<16x64xf32>, tensor<64xf32>, tensor<i32>) -> tensor<16x64xf32> loc(#loc1453)
      %119 = func.call @dynamic_update_index_in_dim_38(%iterArg_75, %102#32, %iterArg_42) : (tensor<16x64xf32>, tensor<64xf32>, tensor<i32>) -> tensor<16x64xf32> loc(#loc1453)
      %120 = func.call @dynamic_update_index_in_dim_38(%iterArg_76, %102#33, %iterArg_42) : (tensor<16x64xf32>, tensor<64xf32>, tensor<i32>) -> tensor<16x64xf32> loc(#loc1453)
      %121 = func.call @dynamic_update_index_in_dim_38(%iterArg_77, %102#34, %iterArg_42) : (tensor<16x64xf32>, tensor<64xf32>, tensor<i32>) -> tensor<16x64xf32> loc(#loc1453)
      %122 = func.call @dynamic_update_index_in_dim_38(%iterArg_78, %102#35, %iterArg_42) : (tensor<16x64xf32>, tensor<64xf32>, tensor<i32>) -> tensor<16x64xf32> loc(#loc1453)
      %123 = stablehlo.add %iterArg_42, %c_3 : tensor<i32> loc(#loc1454)
      stablehlo.return %iterArg, %iterArg_11, %iterArg_12, %iterArg_13, %iterArg_14, %iterArg_15, %iterArg_16, %iterArg_17, %iterArg_18, %iterArg_19, %iterArg_20, %iterArg_21, %iterArg_22, %iterArg_23, %iterArg_24, %iterArg_25, %iterArg_26, %iterArg_27, %iterArg_28, %iterArg_29, %iterArg_30, %iterArg_31, %iterArg_32, %iterArg_33, %iterArg_34, %iterArg_35, %iterArg_36, %iterArg_37, %iterArg_38, %iterArg_39, %iterArg_40, %iterArg_41, %123, %102#0, %102#1, %102#2, %102#3, %102#4, %102#5, %102#6, %102#7, %102#8, %102#9, %102#10, %102#11, %102#12, %102#13, %102#14, %102#15, %103, %104, %105, %106, %107, %108, %109, %110, %111, %112, %113, %114, %115, %116, %117, %118, %119, %120, %121, %122 : tensor<16x2xui32>, tensor<32x16xf32>, tensor<1xf32>, tensor<32x1xf32>, tensor<32xf32>, tensor<15x32xf32>, tensor<32xf32>, tensor<48x32xf32>, tensor<32x32xf32>, tensor<32x32xf32>, tensor<i32>, tensor<32x16xf32>, tensor<1xf32>, tensor<32x1xf32>, tensor<32xf32>, tensor<15x32xf32>, tensor<32xf32>, tensor<48x32xf32>, tensor<32x32xf32>, tensor<32x32xf32>, tensor<32x16xf32>, tensor<1xf32>, tensor<32x1xf32>, tensor<32xf32>, tensor<15x32xf32>, tensor<32xf32>, tensor<48x32xf32>, tensor<32x32xf32>, tensor<32x32xf32>, tensor<16x5xi32>, tensor<16xi32>, tensor<16x5xi32>, tensor<i32>, tensor<i32>, tensor<64x16xi1>, tensor<64x15xf32>, tensor<64xi32>, tensor<64xf32>, tensor<64xi1>, tensor<64xi1>, tensor<64xf32>, tensor<64xf32>, tensor<64xf32>, tensor<64x5xi32>, tensor<64x5xi32>, tensor<64xi1>, tensor<64xi32>, tensor<64xi1>, tensor<64x32xf32>, tensor<16x64x16xi1>, tensor<16x64x15xf32>, tensor<16x64xi32>, tensor<16x64xf32>, tensor<16x64xi1>, tensor<16x64xi1>, tensor<16x64xf32>, tensor<16x64xf32>, tensor<16x64xf32>, tensor<16x64x16xi1>, tensor<16x64x15xf32>, tensor<16x64xi32>, tensor<16x64xf32>, tensor<16x64xi1>, tensor<16x64xi1>, tensor<16x64xf32>, tensor<16x64xf32>, tensor<16x64xf32>, tensor<16x64xf32>, tensor<16x64xf32> loc(#loc1449)
    } loc(#loc1449)
    %32 = stablehlo.broadcast_in_dim %31#34, dims = [0, 2] : (tensor<64x16xi1>) -> tensor<64x1x16xi1> loc(#loc1717)
    %33 = stablehlo.broadcast_in_dim %31#35, dims = [0, 2] : (tensor<64x15xf32>) -> tensor<64x1x15xf32> loc(#loc1717)
    %34 = stablehlo.broadcast_in_dim %31#36, dims = [0] : (tensor<64xi32>) -> tensor<64x1xi32> loc(#loc1717)
    %35 = stablehlo.broadcast_in_dim %31#38, dims = [0] : (tensor<64xi1>) -> tensor<64x1xi1> loc(#loc1717)
    %36 = stablehlo.broadcast_in_dim %31#39, dims = [0] : (tensor<64xi1>) -> tensor<64x1xi1> loc(#loc1717)
    %37 = stablehlo.or %35, %36 : tensor<64x1xi1> loc(#loc1456)
    %38 = stablehlo.dot_general %33, %arg20, contracting_dims = [2] x [0] : (tensor<64x1x15xf32>, tensor<15x32xf32>) -> tensor<64x1x32xf32> loc(#loc1718)
    %39 = stablehlo.reshape %arg19 : (tensor<32xf32>) -> tensor<1x1x32xf32> loc(#loc1719)
    %40 = stablehlo.broadcast_in_dim %39, dims = [0, 1, 2] : (tensor<1x1x32xf32>) -> tensor<64x1x32xf32> loc(#loc1720)
    %41 = stablehlo.add %38, %40 : tensor<64x1x32xf32> loc(#loc1720)
    %42 = call @relu(%41) : (tensor<64x1x32xf32>) -> tensor<64x1x32xf32> loc(#loc1460)
    %43 = call @_one_hot(%34) : (tensor<64x1xi32>) -> tensor<64x1x16xf32> loc(#loc1461)
    %44 = stablehlo.concatenate %42, %43, dim = 2 : (tensor<64x1x32xf32>, tensor<64x1x16xf32>) -> tensor<64x1x48xf32> loc(#loc1462)
    %45 = stablehlo.dot_general %44, %arg22, contracting_dims = [2] x [0] : (tensor<64x1x48xf32>, tensor<48x32xf32>) -> tensor<64x1x32xf32> loc(#loc2198)
    %46 = stablehlo.reshape %arg21 : (tensor<32xf32>) -> tensor<1x1x32xf32> loc(#loc2199)
    %47 = stablehlo.broadcast_in_dim %46, dims = [0, 1, 2] : (tensor<1x1x32xf32>) -> tensor<64x1x32xf32> loc(#loc2200)
    %48 = stablehlo.add %45, %47 : tensor<64x1x32xf32> loc(#loc2200)
    %49 = call @relu(%48) : (tensor<64x1x32xf32>) -> tensor<64x1x32xf32> loc(#loc2146)
    %50 = stablehlo.broadcast_in_dim %cst_6, dims = [] : (tensor<f32>) -> tensor<64x32xf32> loc(#loc2201)
    %51 = stablehlo.dot_general %49, %arg24, contracting_dims = [2] x [0] : (tensor<64x1x32xf32>, tensor<32x32xf32>) -> tensor<64x1x32xf32> loc(#loc2213)
    %52 = stablehlo.negate %51 : tensor<64x1x32xf32> loc(#loc2214)
    %53 = stablehlo.exponential %52 : tensor<64x1x32xf32> loc(#loc2215)
    %54 = stablehlo.broadcast_in_dim %cst_1, dims = [] : (tensor<f32>) -> tensor<64x1x32xf32> loc(#loc2216)
    %55 = stablehlo.add %54, %53 : tensor<64x1x32xf32> loc(#loc2216)
    %56 = stablehlo.broadcast_in_dim %cst_1, dims = [] : (tensor<f32>) -> tensor<64x1x32xf32> loc(#loc2217)
    %57 = stablehlo.divide %56, %55 : tensor<64x1x32xf32> loc(#loc2217)
    %58 = stablehlo.broadcast_in_dim %cst_1, dims = [] : (tensor<f32>) -> tensor<64x1x32xf32> loc(#loc2204)
    %59 = stablehlo.subtract %58, %57 : tensor<64x1x32xf32> loc(#loc2204)
    %60 = stablehlo.dot_general %49, %arg23, contracting_dims = [2] x [0] : (tensor<64x1x32xf32>, tensor<32x32xf32>) -> tensor<64x1x32xf32> loc(#loc2218)
    %61 = stablehlo.multiply %57, %60 : tensor<64x1x32xf32> loc(#loc2206)
    %62 = stablehlo.reshape %37 : (tensor<64x1xi1>) -> tensor<64x1x1xi1> loc(#loc2207)
    %63 = stablehlo.convert %62 : (tensor<64x1x1xi1>) -> tensor<64x1x1xf32> loc(#loc2154)
    %64 = stablehlo.broadcast_in_dim %63, dims = [0, 1, 2] : (tensor<64x1x1xf32>) -> tensor<64x1x32xf32> loc(#loc2155)
    %65 = stablehlo.multiply %64, %59 : tensor<64x1x32xf32> loc(#loc2155)
    %66 = stablehlo.broadcast_in_dim %50, dims = [0, 2] : (tensor<64x32xf32>) -> tensor<64x1x32xf32> loc(#loc2156)
    %67 = stablehlo.multiply %65, %66 : tensor<64x1x32xf32> loc(#loc2157)
    %68 = stablehlo.add %61, %67 : tensor<64x1x32xf32> loc(#loc2158)
    %69 = stablehlo.convert %62 : (tensor<64x1x1xi1>) -> tensor<64x1x1xi32> loc(#loc2159)
    %70 = stablehlo.broadcast_in_dim %c_3, dims = [] : (tensor<i32>) -> tensor<64x1x1xi32> loc(#loc2160)
    %71 = stablehlo.subtract %70, %69 : tensor<64x1x1xi32> loc(#loc2160)
    %72 = stablehlo.convert %71 : (tensor<64x1x1xi32>) -> tensor<64x1x1xf32> loc(#loc2161)
    %73 = stablehlo.broadcast_in_dim %72, dims = [0, 1, 2] : (tensor<64x1x1xf32>) -> tensor<64x1x32xf32> loc(#loc2162)
    %74 = stablehlo.multiply %73, %59 : tensor<64x1x32xf32> loc(#loc2162)
    %75 = stablehlo.broadcast_in_dim %31#48, dims = [0, 2] : (tensor<64x32xf32>) -> tensor<64x1x32xf32> loc(#loc2163)
    %76 = stablehlo.multiply %74, %75 : tensor<64x1x32xf32> loc(#loc2164)
    %77 = stablehlo.add %68, %76 : tensor<64x1x32xf32> loc(#loc2165)
    %78 = call @_take(%77, %c_2) : (tensor<64x1x32xf32>, tensor<i32>) -> tensor<64x32xf32> loc(#loc2166)
    %79 = stablehlo.dot_general %77, %arg16, contracting_dims = [2] x [0] : (tensor<64x1x32xf32>, tensor<32x16xf32>) -> tensor<64x1x16xf32> loc(#loc1722)
    %80 = call @_where_4(%32, %79, %cst) : (tensor<64x1x16xi1>, tensor<64x1x16xf32>, tensor<f32>) -> tensor<64x1x16xf32> loc(#loc1466)
    %81 = stablehlo.dot_general %77, %arg18, contracting_dims = [2] x [0] : (tensor<64x1x32xf32>, tensor<32x1xf32>) -> tensor<64x1x1xf32> loc(#loc1723)
    %82 = stablehlo.reshape %arg17 : (tensor<1xf32>) -> tensor<1x1x1xf32> loc(#loc1724)
    %83 = stablehlo.broadcast_in_dim %82, dims = [0, 1, 2] : (tensor<1x1x1xf32>) -> tensor<64x1x1xf32> loc(#loc1725)
    %84 = stablehlo.add %81, %83 : tensor<64x1x1xf32> loc(#loc1725)
    %85 = stablehlo.reshape %84 : (tensor<64x1x1xf32>) -> tensor<64x1xf32> loc(#loc1470)
    %86 = stablehlo.reshape %85 : (tensor<64x1xf32>) -> tensor<64xf32> loc(#loc1471)
    %87 = stablehlo.broadcast_in_dim %cst_6, dims = [] : (tensor<f32>) -> tensor<64xf32> loc(#loc1472)
    %88 = stablehlo.broadcast_in_dim %cst_6, dims = [] : (tensor<f32>) -> tensor<16x64xf32> loc(#loc1726)
    %89:8 = stablehlo.while(%iterArg = %31#61, %iterArg_11 = %31#62, %iterArg_12 = %31#63, %iterArg_13 = %31#68, %iterArg_14 = %c_5, %iterArg_15 = %87, %iterArg_16 = %86, %iterArg_17 = %88) : tensor<16x64xf32>, tensor<16x64xi1>, tensor<16x64xi1>, tensor<16x64xf32>, tensor<i32>, tensor<64xf32>, tensor<64xf32>, tensor<16x64xf32>
    cond {
      %101 = stablehlo.compare LT, %iterArg_14, %c_4, SIGNED : (tensor<i32>, tensor<i32>) -> tensor<i1> loc(#loc1728)
      stablehlo.return %101 : tensor<i1> loc(#loc1727)
    } do {
      %101 = stablehlo.subtract %c_4, %iterArg_14 : tensor<i32> loc(#loc1729)
      %102 = stablehlo.subtract %101, %c_3 : tensor<i32> loc(#loc1729)
      %103 = func.call @dynamic_index_in_dim_40(%iterArg, %102) : (tensor<16x64xf32>, tensor<i32>) -> tensor<64xf32> loc(#loc1730)
      %104 = func.call @dynamic_index_in_dim_41(%iterArg_11, %102) : (tensor<16x64xi1>, tensor<i32>) -> tensor<64xi1> loc(#loc1730)
      %105 = func.call @dynamic_index_in_dim_41(%iterArg_12, %102) : (tensor<16x64xi1>, tensor<i32>) -> tensor<64xi1> loc(#loc1730)
      %106 = func.call @dynamic_index_in_dim_40(%iterArg_13, %102) : (tensor<16x64xf32>, tensor<i32>) -> tensor<64xf32> loc(#loc1730)
      %107:3 = func.call @closed_call_42(%iterArg_15, %iterArg_16, %103, %104, %105, %106) : (tensor<64xf32>, tensor<64xf32>, tensor<64xf32>, tensor<64xi1>, tensor<64xi1>, tensor<64xf32>) -> (tensor<64xf32>, tensor<64xf32>, tensor<64xf32>) loc(#loc1731)
      %108 = func.call @dynamic_update_index_in_dim_38(%iterArg_17, %107#2, %102) : (tensor<16x64xf32>, tensor<64xf32>, tensor<i32>) -> tensor<16x64xf32> loc(#loc1732)
      %109 = stablehlo.add %iterArg_14, %c_3 : tensor<i32> loc(#loc1733)
      stablehlo.return %iterArg, %iterArg_11, %iterArg_12, %iterArg_13, %109, %107#0, %107#1, %108 : tensor<16x64xf32>, tensor<16x64xi1>, tensor<16x64xi1>, tensor<16x64xf32>, tensor<i32>, tensor<64xf32>, tensor<64xf32>, tensor<16x64xf32> loc(#loc1727)
    } loc(#loc1727)
    %90 = stablehlo.add %89#7, %31#68 : tensor<16x64xf32> loc(#loc1475)
    %91 = call @_threefry_split_43(%9) : (tensor<2xui32>) -> tensor<4x2xui32> loc(#loc1476)
    %92:69 = stablehlo.while(%iterArg = %91, %iterArg_11 = %31#33, %iterArg_12 = %31#34, %iterArg_13 = %31#35, %iterArg_14 = %31#36, %iterArg_15 = %31#37, %iterArg_16 = %31#38, %iterArg_17 = %31#39, %iterArg_18 = %31#40, %iterArg_19 = %31#41, %iterArg_20 = %31#42, %iterArg_21 = %31#43, %iterArg_22 = %31#44, %iterArg_23 = %31#45, %iterArg_24 = %31#46, %iterArg_25 = %31#47, %iterArg_26 = %31#48, %iterArg_27 = %31#49, %iterArg_28 = %31#50, %iterArg_29 = %31#51, %iterArg_30 = %31#52, %iterArg_31 = %31#53, %iterArg_32 = %31#54, %iterArg_33 = %31#55, %iterArg_34 = %31#56, %iterArg_35 = %31#57, %iterArg_36 = %31#58, %iterArg_37 = %31#59, %iterArg_38 = %31#60, %iterArg_39 = %31#61, %iterArg_40 = %31#62, %iterArg_41 = %31#63, %iterArg_42 = %31#64, %iterArg_43 = %31#65, %iterArg_44 = %31#66, %iterArg_45 = %89#7, %iterArg_46 = %31#67, %iterArg_47 = %90, %iterArg_48 = %31#68, %iterArg_49 = %arg15, %iterArg_50 = %c_5, %iterArg_51 = %arg16, %iterArg_52 = %arg17, %iterArg_53 = %arg18, %iterArg_54 = %arg19, %iterArg_55 = %arg20, %iterArg_56 = %arg21, %iterArg_57 = %arg22, %iterArg_58 = %arg23, %iterArg_59 = %arg24, %iterArg_60 = %arg25, %iterArg_61 = %arg26, %iterArg_62 = %arg27, %iterArg_63 = %arg28, %iterArg_64 = %arg29, %iterArg_65 = %arg30, %iterArg_66 = %arg31, %iterArg_67 = %arg32, %iterArg_68 = %arg33, %iterArg_69 = %arg34, %iterArg_70 = %arg35, %iterArg_71 = %arg36, %iterArg_72 = %arg37, %iterArg_73 = %arg38, %iterArg_74 = %arg39, %iterArg_75 = %arg40, %iterArg_76 = %arg41, %iterArg_77 = %arg42, %iterArg_78 = %arg43) : tensor<4x2xui32>, tensor<i32>, tensor<64x16xi1>, tensor<64x15xf32>, tensor<64xi32>, tensor<64xf32>, tensor<64xi1>, tensor<64xi1>, tensor<64xf32>, tensor<64xf32>, tensor<64xf32>, tensor<64x5xi32>, tensor<64x5xi32>, tensor<64xi1>, tensor<64xi32>, tensor<64xi1>, tensor<64x32xf32>, tensor<16x64x16xi1>, tensor<16x64x15xf32>, tensor<16x64xi32>, tensor<16x64xf32>, tensor<16x64xi1>, tensor<16x64xi1>, tensor<16x64xf32>, tensor<16x64xf32>, tensor<16x64xf32>, tensor<16x64x16xi1>, tensor<16x64x15xf32>, tensor<16x64xi32>, tensor<16x64xf32>, tensor<16x64xi1>, tensor<16x64xi1>, tensor<16x64xf32>, tensor<16x64xf32>, tensor<16x64xf32>, tensor<16x64xf32>, tensor<16x64xf32>, tensor<16x64xf32>, tensor<16x64xf32>, tensor<64x32xf32>, tensor<i32>, tensor<32x16xf32>, tensor<1xf32>, tensor<32x1xf32>, tensor<32xf32>, tensor<15x32xf32>, tensor<32xf32>, tensor<48x32xf32>, tensor<32x32xf32>, tensor<32x32xf32>, tensor<i32>, tensor<32x16xf32>, tensor<1xf32>, tensor<32x1xf32>, tensor<32xf32>, tensor<15x32xf32>, tensor<32xf32>, tensor<48x32xf32>, tensor<32x32xf32>, tensor<32x32xf32>, tensor<32x16xf32>, tensor<1xf32>, tensor<32x1xf32>, tensor<32xf32>, tensor<15x32xf32>, tensor<32xf32>, tensor<48x32xf32>, tensor<32x32xf32>, tensor<32x32xf32>
    cond {
      %101 = stablehlo.compare LT, %iterArg_50, %c_0, SIGNED : (tensor<i32>, tensor<i32>) -> tensor<i1> loc(#loc1478)
      stablehlo.return %101 : tensor<i1> loc(#loc1477)
    } do {
      %101 = func.call @dynamic_index_in_dim_46(%iterArg, %iterArg_50) : (tensor<4x2xui32>, tensor<i32>) -> tensor<2xui32> loc(#loc1479)
      %102:28 = func.call @closed_call_47(%iterArg_11, %iterArg_12, %iterArg_13, %iterArg_14, %iterArg_15, %iterArg_16, %iterArg_17, %iterArg_18, %iterArg_19, %iterArg_20, %iterArg_21, %iterArg_22, %iterArg_23, %iterArg_24, %iterArg_25, %iterArg_26, %iterArg_27, %iterArg_28, %iterArg_29, %iterArg_30, %iterArg_31, %iterArg_32, %iterArg_33, %iterArg_34, %iterArg_35, %iterArg_36, %iterArg_37, %iterArg_38, %iterArg_39, %iterArg_40, %iterArg_41, %iterArg_42, %iterArg_43, %iterArg_44, %iterArg_45, %iterArg_46, %iterArg_47, %iterArg_48, %iterArg_49, %iterArg_51, %iterArg_52, %iterArg_53, %iterArg_54, %iterArg_55, %iterArg_56, %iterArg_57, %iterArg_58, %iterArg_59, %iterArg_60, %iterArg_61, %iterArg_62, %iterArg_63, %iterArg_64, %iterArg_65, %iterArg_66, %iterArg_67, %iterArg_68, %iterArg_69, %iterArg_70, %iterArg_71, %iterArg_72, %iterArg_73, %iterArg_74, %iterArg_75, %iterArg_76, %iterArg_77, %iterArg_78, %101) : (tensor<i32>, tensor<64x16xi1>, tensor<64x15xf32>, tensor<64xi32>, tensor<64xf32>, tensor<64xi1>, tensor<64xi1>, tensor<64xf32>, tensor<64xf32>, tensor<64xf32>, tensor<64x5xi32>, tensor<64x5xi32>, tensor<64xi1>, tensor<64xi32>, tensor<64xi1>, tensor<64x32xf32>, tensor<16x64x16xi1>, tensor<16x64x15xf32>, tensor<16x64xi32>, tensor<16x64xf32>, tensor<16x64xi1>, tensor<16x64xi1>, tensor<16x64xf32>, tensor<16x64xf32>, tensor<16x64xf32>, tensor<16x64x16xi1>, tensor<16x64x15xf32>, tensor<16x64xi32>, tensor<16x64xf32>, tensor<16x64xi1>, tensor<16x64xi1>, tensor<16x64xf32>, tensor<16x64xf32>, tensor<16x64xf32>, tensor<16x64xf32>, tensor<16x64xf32>, tensor<16x64xf32>, tensor<16x64xf32>, tensor<64x32xf32>, tensor<32x16xf32>, tensor<1xf32>, tensor<32x1xf32>, tensor<32xf32>, tensor<15x32xf32>, tensor<32xf32>, tensor<48x32xf32>, tensor<32x32xf32>, tensor<32x32xf32>, tensor<i32>, tensor<32x16xf32>, tensor<1xf32>, tensor<32x1xf32>, tensor<32xf32>, tensor<15x32xf32>, tensor<32xf32>, tensor<48x32xf32>, tensor<32x32xf32>, tensor<32x32xf32>, tensor<32x16xf32>, tensor<1xf32>, tensor<32x1xf32>, tensor<32xf32>, tensor<15x32xf32>, tensor<32xf32>, tensor<48x32xf32>, tensor<32x32xf32>, tensor<32x32xf32>, tensor<2xui32>) -> (tensor<32x16xf32>, tensor<1xf32>, tensor<32x1xf32>, tensor<32xf32>, tensor<15x32xf32>, tensor<32xf32>, tensor<48x32xf32>, tensor<32x32xf32>, tensor<32x32xf32>, tensor<i32>, tensor<32x16xf32>, tensor<1xf32>, tensor<32x1xf32>, tensor<32xf32>, tensor<15x32xf32>, tensor<32xf32>, tensor<48x32xf32>, tensor<32x32xf32>, tensor<32x32xf32>, tensor<32x16xf32>, tensor<1xf32>, tensor<32x1xf32>, tensor<32xf32>, tensor<15x32xf32>, tensor<32xf32>, tensor<48x32xf32>, tensor<32x32xf32>, tensor<32x32xf32>) loc(#loc1480)
      %103 = stablehlo.add %iterArg_50, %c_3 : tensor<i32> loc(#loc1481)
      stablehlo.return %iterArg, %iterArg_11, %iterArg_12, %iterArg_13, %iterArg_14, %iterArg_15, %iterArg_16, %iterArg_17, %iterArg_18, %iterArg_19, %iterArg_20, %iterArg_21, %iterArg_22, %iterArg_23, %iterArg_24, %iterArg_25, %iterArg_26, %iterArg_27, %iterArg_28, %iterArg_29, %iterArg_30, %iterArg_31, %iterArg_32, %iterArg_33, %iterArg_34, %iterArg_35, %iterArg_36, %iterArg_37, %iterArg_38, %iterArg_39, %iterArg_40, %iterArg_41, %iterArg_42, %iterArg_43, %iterArg_44, %iterArg_45, %iterArg_46, %iterArg_47, %iterArg_48, %iterArg_49, %103, %102#0, %102#1, %102#2, %102#3, %102#4, %102#5, %102#6, %102#7, %102#8, %102#9, %102#10, %102#11, %102#12, %102#13, %102#14, %102#15, %102#16, %102#17, %102#18, %102#19, %102#20, %102#21, %102#22, %102#23, %102#24, %102#25, %102#26, %102#27 : tensor<4x2xui32>, tensor<i32>, tensor<64x16xi1>, tensor<64x15xf32>, tensor<64xi32>, tensor<64xf32>, tensor<64xi1>, tensor<64xi1>, tensor<64xf32>, tensor<64xf32>, tensor<64xf32>, tensor<64x5xi32>, tensor<64x5xi32>, tensor<64xi1>, tensor<64xi32>, tensor<64xi1>, tensor<64x32xf32>, tensor<16x64x16xi1>, tensor<16x64x15xf32>, tensor<16x64xi32>, tensor<16x64xf32>, tensor<16x64xi1>, tensor<16x64xi1>, tensor<16x64xf32>, tensor<16x64xf32>, tensor<16x64xf32>, tensor<16x64x16xi1>, tensor<16x64x15xf32>, tensor<16x64xi32>, tensor<16x64xf32>, tensor<16x64xi1>, tensor<16x64xi1>, tensor<16x64xf32>, tensor<16x64xf32>, tensor<16x64xf32>, tensor<16x64xf32>, tensor<16x64xf32>, tensor<16x64xf32>, tensor<16x64xf32>, tensor<64x32xf32>, tensor<i32>, tensor<32x16xf32>, tensor<1xf32>, tensor<32x1xf32>, tensor<32xf32>, tensor<15x32xf32>, tensor<32xf32>, tensor<48x32xf32>, tensor<32x32xf32>, tensor<32x32xf32>, tensor<i32>, tensor<32x16xf32>, tensor<1xf32>, tensor<32x1xf32>, tensor<32xf32>, tensor<15x32xf32>, tensor<32xf32>, tensor<48x32xf32>, tensor<32x32xf32>, tensor<32x32xf32>, tensor<32x16xf32>, tensor<1xf32>, tensor<32x1xf32>, tensor<32xf32>, tensor<15x32xf32>, tensor<32xf32>, tensor<48x32xf32>, tensor<32x32xf32>, tensor<32x32xf32> loc(#loc1477)
    } loc(#loc1477)
    %93 = call @_threefry_split_81(%4) : (tensor<2xui32>) -> tensor<24x2xui32> loc(#loc1482)
    %94 = stablehlo.broadcast_in_dim %cst_6, dims = [] : (tensor<f32>) -> tensor<24x64xf32> loc(#loc1483)
    %95 = stablehlo.broadcast_in_dim %cst_6, dims = [] : (tensor<f32>) -> tensor<24x64xf32> loc(#loc1483)
    %96:51 = stablehlo.while(%iterArg = %93, %iterArg_11 = %92#41, %iterArg_12 = %92#42, %iterArg_13 = %92#43, %iterArg_14 = %92#44, %iterArg_15 = %92#45, %iterArg_16 = %92#46, %iterArg_17 = %92#47, %iterArg_18 = %92#48, %iterArg_19 = %92#49, %iterArg_20 = %92#50, %iterArg_21 = %92#51, %iterArg_22 = %92#52, %iterArg_23 = %92#53, %iterArg_24 = %92#54, %iterArg_25 = %92#55, %iterArg_26 = %92#56, %iterArg_27 = %92#57, %iterArg_28 = %92#58, %iterArg_29 = %92#59, %iterArg_30 = %92#60, %iterArg_31 = %92#61, %iterArg_32 = %92#62, %iterArg_33 = %92#63, %iterArg_34 = %92#64, %iterArg_35 = %92#65, %iterArg_36 = %92#66, %iterArg_37 = %92#67, %iterArg_38 = %92#68, %iterArg_39 = %c_8, %iterArg_40 = %c_9, %iterArg_41 = %c_10, %iterArg_42 = %c_5, %iterArg_43 = %31#33, %iterArg_44 = %31#34, %iterArg_45 = %31#35, %iterArg_46 = %31#36, %iterArg_47 = %31#37, %iterArg_48 = %31#38, %iterArg_49 = %31#39, %iterArg_50 = %31#40, %iterArg_51 = %31#41, %iterArg_52 = %31#42, %iterArg_53 = %31#43, %iterArg_54 = %31#44, %iterArg_55 = %31#45, %iterArg_56 = %31#46, %iterArg_57 = %31#47, %iterArg_58 = %31#48, %iterArg_59 = %94, %iterArg_60 = %95) : tensor<24x2xui32>, tensor<32x16xf32>, tensor<1xf32>, tensor<32x1xf32>, tensor<32xf32>, tensor<15x32xf32>, tensor<32xf32>, tensor<48x32xf32>, tensor<32x32xf32>, tensor<32x32xf32>, tensor<i32>, tensor<32x16xf32>, tensor<1xf32>, tensor<32x1xf32>, tensor<32xf32>, tensor<15x32xf32>, tensor<32xf32>, tensor<48x32xf32>, tensor<32x32xf32>, tensor<32x32xf32>, tensor<32x16xf32>, tensor<1xf32>, tensor<32x1xf32>, tensor<32xf32>, tensor<15x32xf32>, tensor<32xf32>, tensor<48x32xf32>, tensor<32x32xf32>, tensor<32x32xf32>, tensor<16x5xi32>, tensor<16xi32>, tensor<16x5xi32>, tensor<i32>, tensor<i32>, tensor<64x16xi1>, tensor<64x15xf32>, tensor<64xi32>, tensor<64xf32>, tensor<64xi1>, tensor<64xi1>, tensor<64xf32>, tensor<64xf32>, tensor<64xf32>, tensor<64x5xi32>, tensor<64x5xi32>, tensor<64xi1>, tensor<64xi32>, tensor<64xi1>, tensor<64x32xf32>, tensor<24x64xf32>, tensor<24x64xf32>
    cond {
      %101 = stablehlo.compare LT, %iterArg_42, %c, SIGNED : (tensor<i32>, tensor<i32>) -> tensor<i1> loc(#loc1485)
      stablehlo.return %101 : tensor<i1> loc(#loc1484)
    } do {
      %101 = func.call @dynamic_index_in_dim_84(%iterArg, %iterArg_42) : (tensor<24x2xui32>, tensor<i32>) -> tensor<2xui32> loc(#loc1486)
      %102:18 = func.call @closed_call_85(%iterArg_11, %iterArg_12, %iterArg_13, %iterArg_14, %iterArg_15, %iterArg_16, %iterArg_17, %iterArg_18, %iterArg_19, %iterArg_20, %iterArg_21, %iterArg_22, %iterArg_23, %iterArg_24, %iterArg_25, %iterArg_26, %iterArg_27, %iterArg_28, %iterArg_29, %iterArg_30, %iterArg_31, %iterArg_32, %iterArg_33, %iterArg_34, %iterArg_35, %iterArg_36, %iterArg_37, %iterArg_38, %iterArg_39, %iterArg_40, %iterArg_41, %iterArg_43, %iterArg_44, %iterArg_45, %iterArg_46, %iterArg_47, %iterArg_48, %iterArg_49, %iterArg_50, %iterArg_51, %iterArg_52, %iterArg_53, %iterArg_54, %iterArg_55, %iterArg_56, %iterArg_57, %iterArg_58, %101) : (tensor<32x16xf32>, tensor<1xf32>, tensor<32x1xf32>, tensor<32xf32>, tensor<15x32xf32>, tensor<32xf32>, tensor<48x32xf32>, tensor<32x32xf32>, tensor<32x32xf32>, tensor<i32>, tensor<32x16xf32>, tensor<1xf32>, tensor<32x1xf32>, tensor<32xf32>, tensor<15x32xf32>, tensor<32xf32>, tensor<48x32xf32>, tensor<32x32xf32>, tensor<32x32xf32>, tensor<32x16xf32>, tensor<1xf32>, tensor<32x1xf32>, tensor<32xf32>, tensor<15x32xf32>, tensor<32xf32>, tensor<48x32xf32>, tensor<32x32xf32>, tensor<32x32xf32>, tensor<16x5xi32>, tensor<16xi32>, tensor<16x5xi32>, tensor<i32>, tensor<64x16xi1>, tensor<64x15xf32>, tensor<64xi32>, tensor<64xf32>, tensor<64xi1>, tensor<64xi1>, tensor<64xf32>, tensor<64xf32>, tensor<64xf32>, tensor<64x5xi32>, tensor<64x5xi32>, tensor<64xi1>, tensor<64xi32>, tensor<64xi1>, tensor<64x32xf32>, tensor<2xui32>) -> (tensor<i32>, tensor<64x16xi1>, tensor<64x15xf32>, tensor<64xi32>, tensor<64xf32>, tensor<64xi1>, tensor<64xi1>, tensor<64xf32>, tensor<64xf32>, tensor<64xf32>, tensor<64x5xi32>, tensor<64x5xi32>, tensor<64xi1>, tensor<64xi32>, tensor<64xi1>, tensor<64x32xf32>, tensor<64xf32>, tensor<64xf32>) loc(#loc1487)
      %103 = func.call @dynamic_update_index_in_dim_87(%iterArg_59, %102#16, %iterArg_42) : (tensor<24x64xf32>, tensor<64xf32>, tensor<i32>) -> tensor<24x64xf32> loc(#loc1488)
      %104 = func.call @dynamic_update_index_in_dim_87(%iterArg_60, %102#17, %iterArg_42) : (tensor<24x64xf32>, tensor<64xf32>, tensor<i32>) -> tensor<24x64xf32> loc(#loc1488)
      %105 = stablehlo.add %iterArg_42, %c_3 : tensor<i32> loc(#loc1489)
      stablehlo.return %iterArg, %iterArg_11, %iterArg_12, %iterArg_13, %iterArg_14, %iterArg_15, %iterArg_16, %iterArg_17, %iterArg_18, %iterArg_19, %iterArg_20, %iterArg_21, %iterArg_22, %iterArg_23, %iterArg_24, %iterArg_25, %iterArg_26, %iterArg_27, %iterArg_28, %iterArg_29, %iterArg_30, %iterArg_31, %iterArg_32, %iterArg_33, %iterArg_34, %iterArg_35, %iterArg_36, %iterArg_37, %iterArg_38, %iterArg_39, %iterArg_40, %iterArg_41, %105, %102#0, %102#1, %102#2, %102#3, %102#4, %102#5, %102#6, %102#7, %102#8, %102#9, %102#10, %102#11, %102#12, %102#13, %102#14, %102#15, %103, %104 : tensor<24x2xui32>, tensor<32x16xf32>, tensor<1xf32>, tensor<32x1xf32>, tensor<32xf32>, tensor<15x32xf32>, tensor<32xf32>, tensor<48x32xf32>, tensor<32x32xf32>, tensor<32x32xf32>, tensor<i32>, tensor<32x16xf32>, tensor<1xf32>, tensor<32x1xf32>, tensor<32xf32>, tensor<15x32xf32>, tensor<32xf32>, tensor<48x32xf32>, tensor<32x32xf32>, tensor<32x32xf32>, tensor<32x16xf32>, tensor<1xf32>, tensor<32x1xf32>, tensor<32xf32>, tensor<15x32xf32>, tensor<32xf32>, tensor<48x32xf32>, tensor<32x32xf32>, tensor<32x32xf32>, tensor<16x5xi32>, tensor<16xi32>, tensor<16x5xi32>, tensor<i32>, tensor<i32>, tensor<64x16xi1>, tensor<64x15xf32>, tensor<64xi32>, tensor<64xf32>, tensor<64xi1>, tensor<64xi1>, tensor<64xf32>, tensor<64xf32>, tensor<64xf32>, tensor<64x5xi32>, tensor<64x5xi32>, tensor<64xi1>, tensor<64xi32>, tensor<64xi1>, tensor<64x32xf32>, tensor<24x64xf32>, tensor<24x64xf32> loc(#loc1484)
    } loc(#loc1484)
    %97 = stablehlo.reduce(%96#49 init: %cst_6) applies stablehlo.add across dimensions = [0, 1] : (tensor<24x64xf32>, tensor<f32>) -> tensor<f32> loc(#loc1277)
    %98 = stablehlo.reduce(%96#50 init: %cst_6) applies stablehlo.add across dimensions = [0, 1] : (tensor<24x64xf32>, tensor<f32>) -> tensor<f32> loc(#loc1278)
    %99 = stablehlo.maximum %98, %cst_1 : tensor<f32> loc(#loc1279)
    %100 = stablehlo.divide %97, %99 : tensor<f32> loc(#loc1280)
    return %31#33, %31#34, %31#35, %31#36, %31#37, %31#38, %31#39, %31#40, %31#41, %31#42, %31#43, %31#44, %31#45, %31#46, %31#47, %31#48, %92#41, %92#42, %92#43, %92#44, %92#45, %92#46, %92#47, %92#48, %92#49, %92#50, %92#51, %92#52, %92#53, %92#54, %92#55, %92#56, %92#57, %92#58, %92#59, %92#60, %92#61, %92#62, %92#63, %92#64, %92#65, %92#66, %92#67, %92#68, %100 : tensor<i32>, tensor<64x16xi1>, tensor<64x15xf32>, tensor<64xi32>, tensor<64xf32>, tensor<64xi1>, tensor<64xi1>, tensor<64xf32>, tensor<64xf32>, tensor<64xf32>, tensor<64x5xi32>, tensor<64x5xi32>, tensor<64xi1>, tensor<64xi32>, tensor<64xi1>, tensor<64x32xf32>, tensor<32x16xf32>, tensor<1xf32>, tensor<32x1xf32>, tensor<32xf32>, tensor<15x32xf32>, tensor<32xf32>, tensor<48x32xf32>, tensor<32x32xf32>, tensor<32x32xf32>, tensor<i32>, tensor<32x16xf32>, tensor<1xf32>, tensor<32x1xf32>, tensor<32xf32>, tensor<15x32xf32>, tensor<32xf32>, tensor<48x32xf32>, tensor<32x32xf32>, tensor<32x32xf32>, tensor<32x16xf32>, tensor<1xf32>, tensor<32x1xf32>, tensor<32xf32>, tensor<15x32xf32>, tensor<32xf32>, tensor<48x32xf32>, tensor<32x32xf32>, tensor<32x32xf32>, tensor<f32> loc(#loc874)
  } loc(#loc)
  func.func private @_threefry_split(%arg0: tensor<2xui32> loc(unknown)) -> tensor<2x2xui32> {
    %c = stablehlo.constant dense<32> : tensor<ui64> loc(#loc114)
    %c_0 = stablehlo.constant dense<1> : tensor<ui64> loc(#loc114)
    %0 = stablehlo.slice %arg0 [0:1] : (tensor<2xui32>) -> tensor<1xui32> loc(#loc115)
    %1 = stablehlo.reshape %0 : (tensor<1xui32>) -> tensor<ui32> loc(#loc116)
    %2 = stablehlo.slice %arg0 [1:2] : (tensor<2xui32>) -> tensor<1xui32> loc(#loc115)
    %3 = stablehlo.reshape %2 : (tensor<1xui32>) -> tensor<ui32> loc(#loc116)
    %4 = stablehlo.iota dim = 0 : tensor<2xui64> loc(#loc114)
    %5 = stablehlo.broadcast_in_dim %c_0, dims = [] : (tensor<ui64>) -> tensor<2xui64> loc(#loc114)
    %6 = stablehlo.multiply %5, %4 : tensor<2xui64> loc(#loc114)
    %7 = stablehlo.broadcast_in_dim %c, dims = [] : (tensor<ui64>) -> tensor<2xui64> loc(#loc114)
    %8 = stablehlo.shift_right_logical %6, %7 : tensor<2xui64> loc(#loc114)
    %9 = stablehlo.convert %6 : (tensor<2xui64>) -> tensor<2xui32> loc(#loc114)
    %10 = stablehlo.convert %8 : (tensor<2xui64>) -> tensor<2xui32> loc(#loc114)
    %11:2 = call @threefry2x32(%1, %3, %10, %9) : (tensor<ui32>, tensor<ui32>, tensor<2xui32>, tensor<2xui32>) -> (tensor<2xui32>, tensor<2xui32>) loc(#loc)
    %12 = stablehlo.broadcast_in_dim %11#0, dims = [0] : (tensor<2xui32>) -> tensor<2x1xui32> loc(#loc117)
    %13 = stablehlo.broadcast_in_dim %11#1, dims = [0] : (tensor<2xui32>) -> tensor<2x1xui32> loc(#loc117)
    %14 = stablehlo.concatenate %12, %13, dim = 1 : (tensor<2x1xui32>, tensor<2x1xui32>) -> tensor<2x2xui32> loc(#loc117)
    return %14 : tensor<2x2xui32> loc(#loc)
  } loc(#loc884)
  func.func private @threefry2x32(%arg0: tensor<ui32> loc(unknown), %arg1: tensor<ui32> loc(unknown), %arg2: tensor<2xui32> loc(unknown), %arg3: tensor<2xui32> loc(unknown)) -> (tensor<2xui32>, tensor<2xui32>) {
    %c = stablehlo.constant dense<1> : tensor<i32> loc(#loc)
    %c_0 = stablehlo.constant dense<5> : tensor<i32> loc(#loc)
    %c_1 = stablehlo.constant dense<0> : tensor<i32> loc(#loc)
    %c_2 = stablehlo.constant dense<466688986> : tensor<ui32> loc(#loc484)
    %c_3 = stablehlo.constant dense<[13, 15, 26, 6]> : tensor<4xui32> loc(#loc484)
    %c_4 = stablehlo.constant dense<[17, 29, 16, 24]> : tensor<4xui32> loc(#loc484)
    %0 = stablehlo.xor %arg0, %arg1 : tensor<ui32> loc(#loc119)
    %1 = stablehlo.xor %0, %c_2 : tensor<ui32> loc(#loc119)
    %2 = stablehlo.broadcast_in_dim %arg0, dims = [] : (tensor<ui32>) -> tensor<2xui32> loc(#loc120)
    %3 = stablehlo.add %arg2, %2 : tensor<2xui32> loc(#loc120)
    %4 = stablehlo.broadcast_in_dim %arg1, dims = [] : (tensor<ui32>) -> tensor<2xui32> loc(#loc120)
    %5 = stablehlo.add %arg3, %4 : tensor<2xui32> loc(#loc120)
    %6:9 = stablehlo.while(%iterArg = %c_1, %iterArg_5 = %c_1, %iterArg_6 = %3, %iterArg_7 = %5, %iterArg_8 = %arg1, %iterArg_9 = %1, %iterArg_10 = %arg0, %iterArg_11 = %c_3, %iterArg_12 = %c_4) : tensor<i32>, tensor<i32>, tensor<2xui32>, tensor<2xui32>, tensor<ui32>, tensor<ui32>, tensor<ui32>, tensor<4xui32>, tensor<4xui32>
    cond {
      %7 = stablehlo.compare LT, %iterArg, %c_0, SIGNED : (tensor<i32>, tensor<i32>) -> tensor<i1> loc(#loc122)
      stablehlo.return %7 : tensor<i1> loc(#loc121)
    } do {
      %7:8 = func.call @closed_call(%iterArg_5, %iterArg_6, %iterArg_7, %iterArg_8, %iterArg_9, %iterArg_10, %iterArg_11, %iterArg_12) : (tensor<i32>, tensor<2xui32>, tensor<2xui32>, tensor<ui32>, tensor<ui32>, tensor<ui32>, tensor<4xui32>, tensor<4xui32>) -> (tensor<i32>, tensor<2xui32>, tensor<2xui32>, tensor<ui32>, tensor<ui32>, tensor<ui32>, tensor<4xui32>, tensor<4xui32>) loc(#loc123)
      %8 = stablehlo.add %iterArg, %c : tensor<i32> loc(#loc124)
      stablehlo.return %8, %7#0, %7#1, %7#2, %7#3, %7#4, %7#5, %7#6, %7#7 : tensor<i32>, tensor<i32>, tensor<2xui32>, tensor<2xui32>, tensor<ui32>, tensor<ui32>, tensor<ui32>, tensor<4xui32>, tensor<4xui32> loc(#loc121)
    } loc(#loc121)
    return %6#2, %6#3 : tensor<2xui32>, tensor<2xui32> loc(#loc)
  } loc(#loc)
  func.func private @closed_call(%arg0: tensor<i32> loc(unknown), %arg1: tensor<2xui32> loc(unknown), %arg2: tensor<2xui32> loc(unknown), %arg3: tensor<ui32> loc(unknown), %arg4: tensor<ui32> loc(unknown), %arg5: tensor<ui32> loc(unknown), %arg6: tensor<4xui32> loc(unknown), %arg7: tensor<4xui32> loc(unknown)) -> (tensor<i32>, tensor<2xui32>, tensor<2xui32>, tensor<ui32>, tensor<ui32>, tensor<ui32>, tensor<4xui32>, tensor<4xui32>) {
    %c = stablehlo.constant dense<32> : tensor<ui32> loc(#loc)
    %c_0 = stablehlo.constant dense<1> : tensor<i32> loc(#loc)
    %0 = stablehlo.add %arg0, %c_0 : tensor<i32> loc(#loc120)
    %1 = stablehlo.slice %arg6 [0:1] : (tensor<4xui32>) -> tensor<1xui32> loc(#loc115)
    %2 = stablehlo.reshape %1 : (tensor<1xui32>) -> tensor<ui32> loc(#loc116)
    %3 = stablehlo.add %arg1, %arg2 : tensor<2xui32> loc(#loc120)
    %4 = stablehlo.broadcast_in_dim %2, dims = [] : (tensor<ui32>) -> tensor<2xui32> loc(#loc125)
    %5 = stablehlo.shift_left %arg2, %4 : tensor<2xui32> loc(#loc125)
    %6 = stablehlo.subtract %c, %2 : tensor<ui32> loc(#loc126)
    %7 = stablehlo.broadcast_in_dim %6, dims = [] : (tensor<ui32>) -> tensor<2xui32> loc(#loc127)
    %8 = stablehlo.shift_right_logical %arg2, %7 : tensor<2xui32> loc(#loc127)
    %9 = stablehlo.or %5, %8 : tensor<2xui32> loc(#loc128)
    %10 = stablehlo.xor %3, %9 : tensor<2xui32> loc(#loc119)
    %11 = stablehlo.slice %arg6 [1:2] : (tensor<4xui32>) -> tensor<1xui32> loc(#loc115)
    %12 = stablehlo.reshape %11 : (tensor<1xui32>) -> tensor<ui32> loc(#loc116)
    %13 = stablehlo.add %3, %10 : tensor<2xui32> loc(#loc120)
    %14 = stablehlo.broadcast_in_dim %12, dims = [] : (tensor<ui32>) -> tensor<2xui32> loc(#loc125)
    %15 = stablehlo.shift_left %10, %14 : tensor<2xui32> loc(#loc125)
    %16 = stablehlo.subtract %c, %12 : tensor<ui32> loc(#loc126)
    %17 = stablehlo.broadcast_in_dim %16, dims = [] : (tensor<ui32>) -> tensor<2xui32> loc(#loc127)
    %18 = stablehlo.shift_right_logical %10, %17 : tensor<2xui32> loc(#loc127)
    %19 = stablehlo.or %15, %18 : tensor<2xui32> loc(#loc128)
    %20 = stablehlo.xor %13, %19 : tensor<2xui32> loc(#loc119)
    %21 = stablehlo.slice %arg6 [2:3] : (tensor<4xui32>) -> tensor<1xui32> loc(#loc115)
    %22 = stablehlo.reshape %21 : (tensor<1xui32>) -> tensor<ui32> loc(#loc116)
    %23 = stablehlo.add %13, %20 : tensor<2xui32> loc(#loc120)
    %24 = stablehlo.broadcast_in_dim %22, dims = [] : (tensor<ui32>) -> tensor<2xui32> loc(#loc125)
    %25 = stablehlo.shift_left %20, %24 : tensor<2xui32> loc(#loc125)
    %26 = stablehlo.subtract %c, %22 : tensor<ui32> loc(#loc126)
    %27 = stablehlo.broadcast_in_dim %26, dims = [] : (tensor<ui32>) -> tensor<2xui32> loc(#loc127)
    %28 = stablehlo.shift_right_logical %20, %27 : tensor<2xui32> loc(#loc127)
    %29 = stablehlo.or %25, %28 : tensor<2xui32> loc(#loc128)
    %30 = stablehlo.xor %23, %29 : tensor<2xui32> loc(#loc119)
    %31 = stablehlo.slice %arg6 [3:4] : (tensor<4xui32>) -> tensor<1xui32> loc(#loc115)
    %32 = stablehlo.reshape %31 : (tensor<1xui32>) -> tensor<ui32> loc(#loc116)
    %33 = stablehlo.add %23, %30 : tensor<2xui32> loc(#loc120)
    %34 = stablehlo.broadcast_in_dim %32, dims = [] : (tensor<ui32>) -> tensor<2xui32> loc(#loc125)
    %35 = stablehlo.shift_left %30, %34 : tensor<2xui32> loc(#loc125)
    %36 = stablehlo.subtract %c, %32 : tensor<ui32> loc(#loc126)
    %37 = stablehlo.broadcast_in_dim %36, dims = [] : (tensor<ui32>) -> tensor<2xui32> loc(#loc127)
    %38 = stablehlo.shift_right_logical %30, %37 : tensor<2xui32> loc(#loc127)
    %39 = stablehlo.or %35, %38 : tensor<2xui32> loc(#loc128)
    %40 = stablehlo.xor %33, %39 : tensor<2xui32> loc(#loc119)
    %41 = stablehlo.broadcast_in_dim %arg3, dims = [] : (tensor<ui32>) -> tensor<2xui32> loc(#loc120)
    %42 = stablehlo.add %33, %41 : tensor<2xui32> loc(#loc120)
    %43 = stablehlo.broadcast_in_dim %arg4, dims = [] : (tensor<ui32>) -> tensor<2xui32> loc(#loc120)
    %44 = stablehlo.add %40, %43 : tensor<2xui32> loc(#loc120)
    %45 = stablehlo.add %arg0, %c_0 : tensor<i32> loc(#loc120)
    %46 = stablehlo.convert %45 : (tensor<i32>) -> tensor<ui32> loc(#loc129)
    %47 = stablehlo.broadcast_in_dim %46, dims = [] : (tensor<ui32>) -> tensor<2xui32> loc(#loc120)
    %48 = stablehlo.add %44, %47 : tensor<2xui32> loc(#loc120)
    return %0, %42, %48, %arg4, %arg5, %arg3, %arg7, %arg6 : tensor<i32>, tensor<2xui32>, tensor<2xui32>, tensor<ui32>, tensor<ui32>, tensor<ui32>, tensor<4xui32>, tensor<4xui32> loc(#loc)
  } loc(#loc485)
  func.func private @_threefry_split_0(%arg0: tensor<2xui32> loc(unknown)) -> tensor<16x2xui32> {
    %c = stablehlo.constant dense<32> : tensor<ui64> loc(#loc886)
    %c_0 = stablehlo.constant dense<1> : tensor<ui64> loc(#loc886)
    %0 = stablehlo.slice %arg0 [0:1] : (tensor<2xui32>) -> tensor<1xui32> loc(#loc887)
    %1 = stablehlo.reshape %0 : (tensor<1xui32>) -> tensor<ui32> loc(#loc888)
    %2 = stablehlo.slice %arg0 [1:2] : (tensor<2xui32>) -> tensor<1xui32> loc(#loc887)
    %3 = stablehlo.reshape %2 : (tensor<1xui32>) -> tensor<ui32> loc(#loc888)
    %4 = stablehlo.iota dim = 0 : tensor<16xui64> loc(#loc886)
    %5 = stablehlo.broadcast_in_dim %c_0, dims = [] : (tensor<ui64>) -> tensor<16xui64> loc(#loc886)
    %6 = stablehlo.multiply %5, %4 : tensor<16xui64> loc(#loc886)
    %7 = stablehlo.broadcast_in_dim %c, dims = [] : (tensor<ui64>) -> tensor<16xui64> loc(#loc886)
    %8 = stablehlo.shift_right_logical %6, %7 : tensor<16xui64> loc(#loc886)
    %9 = stablehlo.convert %6 : (tensor<16xui64>) -> tensor<16xui32> loc(#loc886)
    %10 = stablehlo.convert %8 : (tensor<16xui64>) -> tensor<16xui32> loc(#loc886)
    %11:2 = call @threefry2x32_1(%1, %3, %10, %9) : (tensor<ui32>, tensor<ui32>, tensor<16xui32>, tensor<16xui32>) -> (tensor<16xui32>, tensor<16xui32>) loc(#loc733)
    %12 = stablehlo.broadcast_in_dim %11#0, dims = [0] : (tensor<16xui32>) -> tensor<16x1xui32> loc(#loc889)
    %13 = stablehlo.broadcast_in_dim %11#1, dims = [0] : (tensor<16xui32>) -> tensor<16x1xui32> loc(#loc889)
    %14 = stablehlo.concatenate %12, %13, dim = 1 : (tensor<16x1xui32>, tensor<16x1xui32>) -> tensor<16x2xui32> loc(#loc889)
    return %14 : tensor<16x2xui32> loc(#loc)
  } loc(#loc1118)
  func.func private @threefry2x32_1(%arg0: tensor<ui32> loc(callsite(#loc423 at #loc421)), %arg1: tensor<ui32> loc(callsite(#loc423 at #loc421)), %arg2: tensor<16xui32> loc(callsite(#loc423 at #loc421)), %arg3: tensor<16xui32> loc(callsite(#loc423 at #loc421))) -> (tensor<16xui32>, tensor<16xui32>) {
    %c = stablehlo.constant dense<1> : tensor<i32> loc(#loc)
    %c_0 = stablehlo.constant dense<5> : tensor<i32> loc(#loc)
    %c_1 = stablehlo.constant dense<0> : tensor<i32> loc(#loc)
    %c_2 = stablehlo.constant dense<466688986> : tensor<ui32> loc(#loc484)
    %c_3 = stablehlo.constant dense<[13, 15, 26, 6]> : tensor<4xui32> loc(#loc484)
    %c_4 = stablehlo.constant dense<[17, 29, 16, 24]> : tensor<4xui32> loc(#loc484)
    %0 = stablehlo.xor %arg0, %arg1 : tensor<ui32> loc(#loc890)
    %1 = stablehlo.xor %0, %c_2 : tensor<ui32> loc(#loc890)
    %2 = stablehlo.broadcast_in_dim %arg0, dims = [] : (tensor<ui32>) -> tensor<16xui32> loc(#loc891)
    %3 = stablehlo.add %arg2, %2 : tensor<16xui32> loc(#loc891)
    %4 = stablehlo.broadcast_in_dim %arg1, dims = [] : (tensor<ui32>) -> tensor<16xui32> loc(#loc891)
    %5 = stablehlo.add %arg3, %4 : tensor<16xui32> loc(#loc891)
    %6:9 = stablehlo.while(%iterArg = %c_1, %iterArg_5 = %c_1, %iterArg_6 = %3, %iterArg_7 = %5, %iterArg_8 = %arg1, %iterArg_9 = %1, %iterArg_10 = %arg0, %iterArg_11 = %c_3, %iterArg_12 = %c_4) : tensor<i32>, tensor<i32>, tensor<16xui32>, tensor<16xui32>, tensor<ui32>, tensor<ui32>, tensor<ui32>, tensor<4xui32>, tensor<4xui32>
    cond {
      %7 = stablehlo.compare LT, %iterArg, %c_0, SIGNED : (tensor<i32>, tensor<i32>) -> tensor<i1> loc(#loc1281)
      stablehlo.return %7 : tensor<i1> loc(#loc1119)
    } do {
      %7:8 = func.call @closed_call_2(%iterArg_5, %iterArg_6, %iterArg_7, %iterArg_8, %iterArg_9, %iterArg_10, %iterArg_11, %iterArg_12) : (tensor<i32>, tensor<16xui32>, tensor<16xui32>, tensor<ui32>, tensor<ui32>, tensor<ui32>, tensor<4xui32>, tensor<4xui32>) -> (tensor<i32>, tensor<16xui32>, tensor<16xui32>, tensor<ui32>, tensor<ui32>, tensor<ui32>, tensor<4xui32>, tensor<4xui32>) loc(#loc1282)
      %8 = stablehlo.add %iterArg, %c : tensor<i32> loc(#loc1283)
      stablehlo.return %8, %7#0, %7#1, %7#2, %7#3, %7#4, %7#5, %7#6, %7#7 : tensor<i32>, tensor<i32>, tensor<16xui32>, tensor<16xui32>, tensor<ui32>, tensor<ui32>, tensor<ui32>, tensor<4xui32>, tensor<4xui32> loc(#loc1119)
    } loc(#loc1119)
    return %6#2, %6#3 : tensor<16xui32>, tensor<16xui32> loc(#loc733)
  } loc(#loc733)
  func.func private @closed_call_2(%arg0: tensor<i32> loc(unknown), %arg1: tensor<16xui32> loc(unknown), %arg2: tensor<16xui32> loc(unknown), %arg3: tensor<ui32> loc(unknown), %arg4: tensor<ui32> loc(unknown), %arg5: tensor<ui32> loc(unknown), %arg6: tensor<4xui32> loc(unknown), %arg7: tensor<4xui32> loc(unknown)) -> (tensor<i32>, tensor<16xui32>, tensor<16xui32>, tensor<ui32>, tensor<ui32>, tensor<ui32>, tensor<4xui32>, tensor<4xui32>) {
    %c = stablehlo.constant dense<32> : tensor<ui32> loc(#loc)
    %c_0 = stablehlo.constant dense<1> : tensor<i32> loc(#loc)
    %0 = stablehlo.add %arg0, %c_0 : tensor<i32> loc(#loc891)
    %1 = stablehlo.slice %arg6 [0:1] : (tensor<4xui32>) -> tensor<1xui32> loc(#loc887)
    %2 = stablehlo.reshape %1 : (tensor<1xui32>) -> tensor<ui32> loc(#loc888)
    %3 = stablehlo.add %arg1, %arg2 : tensor<16xui32> loc(#loc891)
    %4 = stablehlo.broadcast_in_dim %2, dims = [] : (tensor<ui32>) -> tensor<16xui32> loc(#loc894)
    %5 = stablehlo.shift_left %arg2, %4 : tensor<16xui32> loc(#loc894)
    %6 = stablehlo.subtract %c, %2 : tensor<ui32> loc(#loc895)
    %7 = stablehlo.broadcast_in_dim %6, dims = [] : (tensor<ui32>) -> tensor<16xui32> loc(#loc896)
    %8 = stablehlo.shift_right_logical %arg2, %7 : tensor<16xui32> loc(#loc896)
    %9 = stablehlo.or %5, %8 : tensor<16xui32> loc(#loc897)
    %10 = stablehlo.xor %3, %9 : tensor<16xui32> loc(#loc890)
    %11 = stablehlo.slice %arg6 [1:2] : (tensor<4xui32>) -> tensor<1xui32> loc(#loc887)
    %12 = stablehlo.reshape %11 : (tensor<1xui32>) -> tensor<ui32> loc(#loc888)
    %13 = stablehlo.add %3, %10 : tensor<16xui32> loc(#loc891)
    %14 = stablehlo.broadcast_in_dim %12, dims = [] : (tensor<ui32>) -> tensor<16xui32> loc(#loc894)
    %15 = stablehlo.shift_left %10, %14 : tensor<16xui32> loc(#loc894)
    %16 = stablehlo.subtract %c, %12 : tensor<ui32> loc(#loc895)
    %17 = stablehlo.broadcast_in_dim %16, dims = [] : (tensor<ui32>) -> tensor<16xui32> loc(#loc896)
    %18 = stablehlo.shift_right_logical %10, %17 : tensor<16xui32> loc(#loc896)
    %19 = stablehlo.or %15, %18 : tensor<16xui32> loc(#loc897)
    %20 = stablehlo.xor %13, %19 : tensor<16xui32> loc(#loc890)
    %21 = stablehlo.slice %arg6 [2:3] : (tensor<4xui32>) -> tensor<1xui32> loc(#loc887)
    %22 = stablehlo.reshape %21 : (tensor<1xui32>) -> tensor<ui32> loc(#loc888)
    %23 = stablehlo.add %13, %20 : tensor<16xui32> loc(#loc891)
    %24 = stablehlo.broadcast_in_dim %22, dims = [] : (tensor<ui32>) -> tensor<16xui32> loc(#loc894)
    %25 = stablehlo.shift_left %20, %24 : tensor<16xui32> loc(#loc894)
    %26 = stablehlo.subtract %c, %22 : tensor<ui32> loc(#loc895)
    %27 = stablehlo.broadcast_in_dim %26, dims = [] : (tensor<ui32>) -> tensor<16xui32> loc(#loc896)
    %28 = stablehlo.shift_right_logical %20, %27 : tensor<16xui32> loc(#loc896)
    %29 = stablehlo.or %25, %28 : tensor<16xui32> loc(#loc897)
    %30 = stablehlo.xor %23, %29 : tensor<16xui32> loc(#loc890)
    %31 = stablehlo.slice %arg6 [3:4] : (tensor<4xui32>) -> tensor<1xui32> loc(#loc887)
    %32 = stablehlo.reshape %31 : (tensor<1xui32>) -> tensor<ui32> loc(#loc888)
    %33 = stablehlo.add %23, %30 : tensor<16xui32> loc(#loc891)
    %34 = stablehlo.broadcast_in_dim %32, dims = [] : (tensor<ui32>) -> tensor<16xui32> loc(#loc894)
    %35 = stablehlo.shift_left %30, %34 : tensor<16xui32> loc(#loc894)
    %36 = stablehlo.subtract %c, %32 : tensor<ui32> loc(#loc895)
    %37 = stablehlo.broadcast_in_dim %36, dims = [] : (tensor<ui32>) -> tensor<16xui32> loc(#loc896)
    %38 = stablehlo.shift_right_logical %30, %37 : tensor<16xui32> loc(#loc896)
    %39 = stablehlo.or %35, %38 : tensor<16xui32> loc(#loc897)
    %40 = stablehlo.xor %33, %39 : tensor<16xui32> loc(#loc890)
    %41 = stablehlo.broadcast_in_dim %arg3, dims = [] : (tensor<ui32>) -> tensor<16xui32> loc(#loc891)
    %42 = stablehlo.add %33, %41 : tensor<16xui32> loc(#loc891)
    %43 = stablehlo.broadcast_in_dim %arg4, dims = [] : (tensor<ui32>) -> tensor<16xui32> loc(#loc891)
    %44 = stablehlo.add %40, %43 : tensor<16xui32> loc(#loc891)
    %45 = stablehlo.add %arg0, %c_0 : tensor<i32> loc(#loc891)
    %46 = stablehlo.convert %45 : (tensor<i32>) -> tensor<ui32> loc(#loc898)
    %47 = stablehlo.broadcast_in_dim %46, dims = [] : (tensor<ui32>) -> tensor<16xui32> loc(#loc891)
    %48 = stablehlo.add %44, %47 : tensor<16xui32> loc(#loc891)
    return %0, %42, %48, %arg4, %arg5, %arg3, %arg7, %arg6 : tensor<i32>, tensor<16xui32>, tensor<16xui32>, tensor<ui32>, tensor<ui32>, tensor<ui32>, tensor<4xui32>, tensor<4xui32> loc(#loc)
  } loc(#loc1121)
  func.func private @dynamic_index_in_dim(%arg0: tensor<16x2xui32> loc(unknown), %arg1: tensor<i32> loc(unknown)) -> tensor<2xui32> {
    %c = stablehlo.constant dense<0> : tensor<i32> loc(#loc)
    %0 = stablehlo.dynamic_slice %arg0, %arg1, %c, sizes = [1, 2] : (tensor<16x2xui32>, tensor<i32>, tensor<i32>) -> tensor<1x2xui32> loc(#loc900)
    %1 = stablehlo.reshape %0 : (tensor<1x2xui32>) -> tensor<2xui32> loc(#loc901)
    return %1 : tensor<2xui32> loc(#loc)
  } loc(#loc1122)
  func.func private @closed_call_3(%arg0: tensor<32x16xf32> loc(unknown), %arg1: tensor<1xf32> loc(unknown), %arg2: tensor<32x1xf32> loc(unknown), %arg3: tensor<32xf32> loc(unknown), %arg4: tensor<15x32xf32> loc(unknown), %arg5: tensor<32xf32> loc(unknown), %arg6: tensor<48x32xf32> loc(unknown), %arg7: tensor<32x32xf32> loc(unknown), %arg8: tensor<32x32xf32> loc(unknown), %arg9: tensor<i32> loc(unknown), %arg10: tensor<32x16xf32> loc(unknown), %arg11: tensor<1xf32> loc(unknown), %arg12: tensor<32x1xf32> loc(unknown), %arg13: tensor<32xf32> loc(unknown), %arg14: tensor<15x32xf32> loc(unknown), %arg15: tensor<32xf32> loc(unknown), %arg16: tensor<48x32xf32> loc(unknown), %arg17: tensor<32x32xf32> loc(unknown), %arg18: tensor<32x32xf32> loc(unknown), %arg19: tensor<32x16xf32> loc(unknown), %arg20: tensor<1xf32> loc(unknown), %arg21: tensor<32x1xf32> loc(unknown), %arg22: tensor<32xf32> loc(unknown), %arg23: tensor<15x32xf32> loc(unknown), %arg24: tensor<32xf32> loc(unknown), %arg25: tensor<48x32xf32> loc(unknown), %arg26: tensor<32x32xf32> loc(unknown), %arg27: tensor<32x32xf32> loc(unknown), %arg28: tensor<16x5xi32> loc(unknown), %arg29: tensor<16xi32> loc(unknown), %arg30: tensor<16x5xi32> loc(unknown), %arg31: tensor<i32> loc(unknown), %arg32: tensor<64x16xi1> loc(unknown), %arg33: tensor<64x15xf32> loc(unknown), %arg34: tensor<64xi32> loc(unknown), %arg35: tensor<64xf32> loc(unknown), %arg36: tensor<64xi1> loc(unknown), %arg37: tensor<64xi1> loc(unknown), %arg38: tensor<64xf32> loc(unknown), %arg39: tensor<64xf32> loc(unknown), %arg40: tensor<64xf32> loc(unknown), %arg41: tensor<64x5xi32> loc(unknown), %arg42: tensor<64x5xi32> loc(unknown), %arg43: tensor<64xi1> loc(unknown), %arg44: tensor<64xi32> loc(unknown), %arg45: tensor<64xi1> loc(unknown), %arg46: tensor<64x32xf32> loc(unknown), %arg47: tensor<2xui32> loc(unknown)) -> (tensor<i32>, tensor<64x16xi1>, tensor<64x15xf32>, tensor<64xi32>, tensor<64xf32>, tensor<64xi1>, tensor<64xi1>, tensor<64xf32>, tensor<64xf32>, tensor<64xf32>, tensor<64x5xi32>, tensor<64x5xi32>, tensor<64xi1>, tensor<64xi32>, tensor<64xi1>, tensor<64x32xf32>, tensor<64x16xi1>, tensor<64x15xf32>, tensor<64xi32>, tensor<64xf32>, tensor<64xi1>, tensor<64xi1>, tensor<64xf32>, tensor<64xf32>, tensor<64xf32>, tensor<64x16xi1>, tensor<64x15xf32>, tensor<64xi32>, tensor<64xf32>, tensor<64xi1>, tensor<64xi1>, tensor<64xf32>, tensor<64xf32>, tensor<64xf32>, tensor<64xf32>, tensor<64xf32>) {
    %c = stablehlo.constant dense<64> : tensor<i32> loc(#loc)
    %c_0 = stablehlo.constant dense<6> : tensor<i32> loc(#loc)
    %c_1 = stablehlo.constant dense<2> : tensor<i32> loc(#loc)
    %c_2 = stablehlo.constant dense<false> : tensor<i1> loc(#loc)
    %c_3 = stablehlo.constant dense<true> : tensor<i1> loc(#loc)
    %c_4 = stablehlo.constant dense<26> : tensor<i32> loc(#loc)
    %c_5 = stablehlo.constant dense<5> : tensor<i32> loc(#loc)
    %c_6 = stablehlo.constant dense<16> : tensor<i32> loc(#loc)
    %cst = stablehlo.constant dense<0xFF800000> : tensor<f32> loc(#loc)
    %c_7 = stablehlo.constant dense<15> : tensor<i32> loc(#loc)
    %cst_8 = stablehlo.constant dense<-3.40282347E+38> : tensor<f32> loc(#loc)
    %c_9 = stablehlo.constant dense<1> : tensor<i32> loc(#loc)
    %cst_10 = stablehlo.constant dense<1.000000e+00> : tensor<f32> loc(#loc)
    %cst_11 = stablehlo.constant dense<0.000000e+00> : tensor<f32> loc(#loc)
    %c_12 = stablehlo.constant dense<-1> : tensor<i32> loc(#loc)
    %c_13 = stablehlo.constant dense<0> : tensor<i32> loc(#loc)
    %0 = call @_threefry_split(%arg47) : (tensor<2xui32>) -> tensor<2x2xui32> loc(#loc903)
    %1 = stablehlo.slice %0 [0:1, 0:2] : (tensor<2x2xui32>) -> tensor<1x2xui32> loc(#loc743)
    %2 = stablehlo.reshape %1 : (tensor<1x2xui32>) -> tensor<2xui32> loc(#loc744)
    %3 = stablehlo.slice %0 [1:2, 0:2] : (tensor<2x2xui32>) -> tensor<1x2xui32> loc(#loc743)
    %4 = stablehlo.reshape %3 : (tensor<1x2xui32>) -> tensor<2xui32> loc(#loc744)
    %5 = stablehlo.broadcast_in_dim %arg32, dims = [0, 2] : (tensor<64x16xi1>) -> tensor<64x1x16xi1> loc(#loc1124)
    %6 = stablehlo.broadcast_in_dim %arg33, dims = [0, 2] : (tensor<64x15xf32>) -> tensor<64x1x15xf32> loc(#loc1124)
    %7 = stablehlo.broadcast_in_dim %arg34, dims = [0] : (tensor<64xi32>) -> tensor<64x1xi32> loc(#loc1124)
    %8 = stablehlo.broadcast_in_dim %arg36, dims = [0] : (tensor<64xi1>) -> tensor<64x1xi1> loc(#loc1124)
    %9 = stablehlo.broadcast_in_dim %arg37, dims = [0] : (tensor<64xi1>) -> tensor<64x1xi1> loc(#loc1124)
    %10 = stablehlo.or %8, %9 : tensor<64x1xi1> loc(#loc905)
    %11 = stablehlo.dot_general %6, %arg4, contracting_dims = [2] x [0] : (tensor<64x1x15xf32>, tensor<15x32xf32>) -> tensor<64x1x32xf32> loc(#loc1125)
    %12 = stablehlo.reshape %arg3 : (tensor<32xf32>) -> tensor<1x1x32xf32> loc(#loc1126)
    %13 = stablehlo.broadcast_in_dim %12, dims = [0, 1, 2] : (tensor<1x1x32xf32>) -> tensor<64x1x32xf32> loc(#loc1127)
    %14 = stablehlo.add %11, %13 : tensor<64x1x32xf32> loc(#loc1127)
    %15 = call @relu(%14) : (tensor<64x1x32xf32>) -> tensor<64x1x32xf32> loc(#loc909)
    %16 = call @_one_hot(%7) : (tensor<64x1xi32>) -> tensor<64x1x16xf32> loc(#loc910)
    %17 = stablehlo.concatenate %15, %16, dim = 2 : (tensor<64x1x32xf32>, tensor<64x1x16xf32>) -> tensor<64x1x48xf32> loc(#loc911)
    %18 = stablehlo.dot_general %17, %arg6, contracting_dims = [2] x [0] : (tensor<64x1x48xf32>, tensor<48x32xf32>) -> tensor<64x1x32xf32> loc(#loc1734)
    %19 = stablehlo.reshape %arg5 : (tensor<32xf32>) -> tensor<1x1x32xf32> loc(#loc1735)
    %20 = stablehlo.broadcast_in_dim %19, dims = [0, 1, 2] : (tensor<1x1x32xf32>) -> tensor<64x1x32xf32> loc(#loc1736)
    %21 = stablehlo.add %18, %20 : tensor<64x1x32xf32> loc(#loc1736)
    %22 = call @relu(%21) : (tensor<64x1x32xf32>) -> tensor<64x1x32xf32> loc(#loc1493)
    %23 = stablehlo.broadcast_in_dim %cst_11, dims = [] : (tensor<f32>) -> tensor<64x32xf32> loc(#loc1737)
    %24 = stablehlo.dot_general %22, %arg8, contracting_dims = [2] x [0] : (tensor<64x1x32xf32>, tensor<32x32xf32>) -> tensor<64x1x32xf32> loc(#loc2009)
    %25 = stablehlo.negate %24 : tensor<64x1x32xf32> loc(#loc2010)
    %26 = stablehlo.exponential %25 : tensor<64x1x32xf32> loc(#loc2011)
    %27 = stablehlo.broadcast_in_dim %cst_10, dims = [] : (tensor<f32>) -> tensor<64x1x32xf32> loc(#loc2012)
    %28 = stablehlo.add %27, %26 : tensor<64x1x32xf32> loc(#loc2012)
    %29 = stablehlo.broadcast_in_dim %cst_10, dims = [] : (tensor<f32>) -> tensor<64x1x32xf32> loc(#loc2013)
    %30 = stablehlo.divide %29, %28 : tensor<64x1x32xf32> loc(#loc2013)
    %31 = stablehlo.broadcast_in_dim %cst_10, dims = [] : (tensor<f32>) -> tensor<64x1x32xf32> loc(#loc1740)
    %32 = stablehlo.subtract %31, %30 : tensor<64x1x32xf32> loc(#loc1740)
    %33 = stablehlo.dot_general %22, %arg7, contracting_dims = [2] x [0] : (tensor<64x1x32xf32>, tensor<32x32xf32>) -> tensor<64x1x32xf32> loc(#loc2014)
    %34 = stablehlo.multiply %30, %33 : tensor<64x1x32xf32> loc(#loc1742)
    %35 = stablehlo.reshape %10 : (tensor<64x1xi1>) -> tensor<64x1x1xi1> loc(#loc1743)
    %36 = stablehlo.convert %35 : (tensor<64x1x1xi1>) -> tensor<64x1x1xf32> loc(#loc1500)
    %37 = stablehlo.broadcast_in_dim %36, dims = [0, 1, 2] : (tensor<64x1x1xf32>) -> tensor<64x1x32xf32> loc(#loc1501)
    %38 = stablehlo.multiply %37, %32 : tensor<64x1x32xf32> loc(#loc1501)
    %39 = stablehlo.broadcast_in_dim %23, dims = [0, 2] : (tensor<64x32xf32>) -> tensor<64x1x32xf32> loc(#loc1502)
    %40 = stablehlo.multiply %38, %39 : tensor<64x1x32xf32> loc(#loc1503)
    %41 = stablehlo.add %34, %40 : tensor<64x1x32xf32> loc(#loc1504)
    %42 = stablehlo.convert %35 : (tensor<64x1x1xi1>) -> tensor<64x1x1xi32> loc(#loc1505)
    %43 = stablehlo.broadcast_in_dim %c_9, dims = [] : (tensor<i32>) -> tensor<64x1x1xi32> loc(#loc1506)
    %44 = stablehlo.subtract %43, %42 : tensor<64x1x1xi32> loc(#loc1506)
    %45 = stablehlo.convert %44 : (tensor<64x1x1xi32>) -> tensor<64x1x1xf32> loc(#loc1507)
    %46 = stablehlo.broadcast_in_dim %45, dims = [0, 1, 2] : (tensor<64x1x1xf32>) -> tensor<64x1x32xf32> loc(#loc1508)
    %47 = stablehlo.multiply %46, %32 : tensor<64x1x32xf32> loc(#loc1508)
    %48 = stablehlo.broadcast_in_dim %arg46, dims = [0, 2] : (tensor<64x32xf32>) -> tensor<64x1x32xf32> loc(#loc1509)
    %49 = stablehlo.multiply %47, %48 : tensor<64x1x32xf32> loc(#loc1510)
    %50 = stablehlo.add %41, %49 : tensor<64x1x32xf32> loc(#loc1511)
    %51 = call @_take(%50, %c_12) : (tensor<64x1x32xf32>, tensor<i32>) -> tensor<64x32xf32> loc(#loc1512)
    %52 = stablehlo.dot_general %50, %arg0, contracting_dims = [2] x [0] : (tensor<64x1x32xf32>, tensor<32x16xf32>) -> tensor<64x1x16xf32> loc(#loc1128)
    %53 = call @_where_4(%5, %52, %cst_8) : (tensor<64x1x16xi1>, tensor<64x1x16xf32>, tensor<f32>) -> tensor<64x1x16xf32> loc(#loc913)
    %54 = stablehlo.dot_general %50, %arg2, contracting_dims = [2] x [0] : (tensor<64x1x32xf32>, tensor<32x1xf32>) -> tensor<64x1x1xf32> loc(#loc1129)
    %55 = stablehlo.reshape %arg1 : (tensor<1xf32>) -> tensor<1x1x1xf32> loc(#loc1130)
    %56 = stablehlo.broadcast_in_dim %55, dims = [0, 1, 2] : (tensor<1x1x1xf32>) -> tensor<64x1x1xf32> loc(#loc1131)
    %57 = stablehlo.add %54, %56 : tensor<64x1x1xf32> loc(#loc1131)
    %58 = call @log_softmax(%53) : (tensor<64x1x16xf32>) -> tensor<64x1x16xf32> loc(#loc1513)
    %59 = call @_gumbel(%2) : (tensor<2xui32>) -> tensor<1x64x1x16xf32> loc(#loc1744)
    %60 = stablehlo.broadcast_in_dim %cst_10, dims = [] : (tensor<f32>) -> tensor<1x64x1x16xf32> loc(#loc1745)
    %61 = stablehlo.multiply %60, %59 : tensor<1x64x1x16xf32> loc(#loc1745)
    %62 = stablehlo.broadcast_in_dim %58, dims = [1, 2, 3] : (tensor<64x1x16xf32>) -> tensor<1x64x1x16xf32> loc(#loc1746)
    %63 = stablehlo.add %62, %61 : tensor<1x64x1x16xf32> loc(#loc1747)
    %64 = call @argmax(%63) : (tensor<1x64x1x16xf32>) -> tensor<1x64x1xi32> loc(#loc1517)
    %65 = call @_one_hot_7(%64) : (tensor<1x64x1xi32>) -> tensor<1x64x1x16xf32> loc(#loc1748)
    %66 = stablehlo.broadcast_in_dim %c_13, dims = [] : (tensor<i32>) -> tensor<1x64x1xi32> loc(#loc1749)
    %67 = stablehlo.compare LT, %64, %66, SIGNED : (tensor<1x64x1xi32>, tensor<1x64x1xi32>) -> tensor<1x64x1xi1> loc(#loc1749)
    %68 = stablehlo.broadcast_in_dim %c_7, dims = [] : (tensor<i32>) -> tensor<1x64x1xi32> loc(#loc1750)
    %69 = stablehlo.compare GT, %64, %68, SIGNED : (tensor<1x64x1xi32>, tensor<1x64x1xi32>) -> tensor<1x64x1xi1> loc(#loc1750)
    %70 = stablehlo.or %67, %69 : tensor<1x64x1xi1> loc(#loc1751)
    %71 = stablehlo.broadcast_in_dim %cst_11, dims = [] : (tensor<f32>) -> tensor<1x64x1x16xf32> loc(#loc2015)
    %72 = stablehlo.compare EQ, %65, %71, FLOAT : (tensor<1x64x1x16xf32>, tensor<1x64x1x16xf32>) -> tensor<1x64x1x16xi1> loc(#loc2015)
    %73 = stablehlo.broadcast_in_dim %58, dims = [1, 2, 3] : (tensor<64x1x16xf32>) -> tensor<1x64x1x16xf32> loc(#loc2016)
    %74 = stablehlo.multiply %73, %65 : tensor<1x64x1x16xf32> loc(#loc2017)
    %75 = call @_where_8(%72, %cst_11, %74) : (tensor<1x64x1x16xi1>, tensor<f32>, tensor<1x64x1x16xf32>) -> tensor<1x64x1x16xf32> loc(#loc2018)
    %76 = stablehlo.reduce(%75 init: %cst_11) applies stablehlo.add across dimensions = [3] : (tensor<1x64x1x16xf32>, tensor<f32>) -> tensor<1x64x1xf32> loc(#loc1755)
    %77 = call @_where_9(%70, %cst, %76) : (tensor<1x64x1xi1>, tensor<f32>, tensor<1x64x1xf32>) -> tensor<1x64x1xf32> loc(#loc1756)
    %78 = stablehlo.reduce(%77 init: %cst_11) applies stablehlo.add across dimensions = [] : (tensor<1x64x1xf32>, tensor<f32>) -> tensor<1x64x1xf32> loc(#loc1301)
    %79 = stablehlo.reshape %64 : (tensor<1x64x1xi32>) -> tensor<64x1xi32> loc(#loc1135)
    %80 = stablehlo.reshape %78 : (tensor<1x64x1xf32>) -> tensor<64x1xf32> loc(#loc1135)
    %81 = stablehlo.reshape %79 : (tensor<64x1xi32>) -> tensor<64xi32> loc(#loc921)
    %82 = stablehlo.reshape %80 : (tensor<64x1xf32>) -> tensor<64xf32> loc(#loc922)
    %83 = stablehlo.reshape %57 : (tensor<64x1x1xf32>) -> tensor<64x1xf32> loc(#loc923)
    %84 = stablehlo.reshape %83 : (tensor<64x1xf32>) -> tensor<64xf32> loc(#loc924)
    %85 = call @_threefry_split_10(%4) : (tensor<2xui32>) -> tensor<64x2xui32> loc(#loc1136)
    %86 = call @_threefry_split_13(%85) : (tensor<64x2xui32>) -> tensor<64x2x2xui32> loc(#loc1302)
    %87 = stablehlo.slice %86 [0:64, 1:2, 0:2] : (tensor<64x2x2xui32>) -> tensor<64x1x2xui32> loc(#loc1138)
    %88 = stablehlo.reshape %87 : (tensor<64x1x2xui32>) -> tensor<64x2xui32> loc(#loc1139)
    %89 = stablehlo.broadcast_in_dim %c_13, dims = [] : (tensor<i32>) -> tensor<64xi32> loc(#loc1303)
    %90 = stablehlo.compare LT, %81, %89, SIGNED : (tensor<64xi32>, tensor<64xi32>) -> tensor<64xi1> loc(#loc1303)
    %91 = stablehlo.broadcast_in_dim %c_6, dims = [] : (tensor<i32>) -> tensor<64xi32> loc(#loc1304)
    %92 = stablehlo.add %81, %91 : tensor<64xi32> loc(#loc1304)
    %93 = stablehlo.select %90, %92, %81 : tensor<64xi1>, tensor<64xi32> loc(#loc1305)
    %94 = stablehlo.compare LT, %c_13, %c_13, SIGNED : (tensor<i32>, tensor<i32>) -> tensor<i1> loc(#loc1303)
    %95 = stablehlo.add %c_13, %c_5 : tensor<i32> loc(#loc1304)
    %96 = stablehlo.select %94, %95, %c_13 : tensor<i1>, tensor<i32> loc(#loc1305)
    %97 = stablehlo.broadcast_in_dim %93, dims = [0] : (tensor<64xi32>) -> tensor<64x1xi32> loc(#loc1306)
    %98 = stablehlo.broadcast_in_dim %96, dims = [] : (tensor<i32>) -> tensor<64x1xi32> loc(#loc1306)
    %99 = stablehlo.concatenate %97, %98, dim = 1 : (tensor<64x1xi32>, tensor<64x1xi32>) -> tensor<64x2xi32> loc(#loc1307)
    %100 = "stablehlo.gather"(%arg28, %99) <{dimension_numbers = #stablehlo.gather<offset_dims = [1, 2], start_index_map = [0, 1], index_vector_dim = 1>, slice_sizes = array<i64: 1, 5>}> : (tensor<16x5xi32>, tensor<64x2xi32>) -> tensor<64x1x5xi32> loc(#loc1308)
    %101 = stablehlo.reshape %100 : (tensor<64x1x5xi32>) -> tensor<64x5xi32> loc(#loc1309)
    %102 = stablehlo.iota dim = 0 : tensor<5xi32> loc(#loc1757)
    %103 = stablehlo.compare EQ, %c_4, %c_13, SIGNED : (tensor<i32>, tensor<i32>) -> tensor<i1> loc(#loc1758)
    %104 = stablehlo.broadcast_in_dim %c_13, dims = [] : (tensor<i32>) -> tensor<5xi32> loc(#loc1759)
    %105 = stablehlo.compare NE, %102, %104, SIGNED : (tensor<5xi32>, tensor<5xi32>) -> tensor<5xi1> loc(#loc1759)
    %106 = stablehlo.broadcast_in_dim %103, dims = [] : (tensor<i1>) -> tensor<5xi1> loc(#loc1760)
    %107 = stablehlo.and %106, %105 : tensor<5xi1> loc(#loc1760)
    %108 = call @_where_16(%107, %c_13, %c_9) : (tensor<5xi1>, tensor<i32>, tensor<i32>) -> tensor<5xi32> loc(#loc1761)
    %109 = stablehlo.broadcast_in_dim %c_9, dims = [] : (tensor<i32>) -> tensor<5xi32> loc(#loc1760)
    %110 = stablehlo.and %102, %109 : tensor<5xi32> loc(#loc1760)
    %111 = stablehlo.broadcast_in_dim %c_4, dims = [] : (tensor<i32>) -> tensor<5xi32> loc(#loc1762)
    %112 = stablehlo.multiply %108, %111 : tensor<5xi32> loc(#loc1762)
    %113 = call @_where_17(%110, %112, %108) : (tensor<5xi32>, tensor<5xi32>, tensor<5xi32>) -> tensor<5xi32> loc(#loc1761)
    %114 = stablehlo.multiply %c_4, %c_4 : tensor<i32> loc(#loc1762)
    %115 = stablehlo.broadcast_in_dim %c_9, dims = [] : (tensor<i32>) -> tensor<5xi32> loc(#loc1763)
    %116 = stablehlo.shift_right_logical %102, %115 : tensor<5xi32> loc(#loc1763)
    %117 = stablehlo.broadcast_in_dim %c_9, dims = [] : (tensor<i32>) -> tensor<5xi32> loc(#loc1760)
    %118 = stablehlo.and %116, %117 : tensor<5xi32> loc(#loc1760)
    %119 = stablehlo.broadcast_in_dim %114, dims = [] : (tensor<i32>) -> tensor<5xi32> loc(#loc1762)
    %120 = stablehlo.multiply %113, %119 : tensor<5xi32> loc(#loc1762)
    %121 = call @_where_17(%118, %120, %113) : (tensor<5xi32>, tensor<5xi32>, tensor<5xi32>) -> tensor<5xi32> loc(#loc1761)
    %122 = stablehlo.multiply %114, %114 : tensor<i32> loc(#loc1762)
    %123 = stablehlo.broadcast_in_dim %c_9, dims = [] : (tensor<i32>) -> tensor<5xi32> loc(#loc1763)
    %124 = stablehlo.shift_right_logical %116, %123 : tensor<5xi32> loc(#loc1763)
    %125 = stablehlo.broadcast_in_dim %c_9, dims = [] : (tensor<i32>) -> tensor<5xi32> loc(#loc1760)
    %126 = stablehlo.and %124, %125 : tensor<5xi32> loc(#loc1760)
    %127 = stablehlo.broadcast_in_dim %122, dims = [] : (tensor<i32>) -> tensor<5xi32> loc(#loc1762)
    %128 = stablehlo.multiply %121, %127 : tensor<5xi32> loc(#loc1762)
    %129 = call @_where_17(%126, %128, %121) : (tensor<5xi32>, tensor<5xi32>, tensor<5xi32>) -> tensor<5xi32> loc(#loc1761)
    %130 = stablehlo.multiply %122, %122 : tensor<i32> loc(#loc1762)
    %131 = stablehlo.broadcast_in_dim %c_9, dims = [] : (tensor<i32>) -> tensor<5xi32> loc(#loc1763)
    %132 = stablehlo.shift_right_logical %124, %131 : tensor<5xi32> loc(#loc1763)
    %133 = stablehlo.broadcast_in_dim %c_9, dims = [] : (tensor<i32>) -> tensor<5xi32> loc(#loc1760)
    %134 = stablehlo.and %132, %133 : tensor<5xi32> loc(#loc1760)
    %135 = stablehlo.broadcast_in_dim %130, dims = [] : (tensor<i32>) -> tensor<5xi32> loc(#loc1762)
    %136 = stablehlo.multiply %129, %135 : tensor<5xi32> loc(#loc1762)
    %137 = call @_where_17(%134, %136, %129) : (tensor<5xi32>, tensor<5xi32>, tensor<5xi32>) -> tensor<5xi32> loc(#loc1761)
    %138 = stablehlo.multiply %130, %130 : tensor<i32> loc(#loc1762)
    %139 = stablehlo.broadcast_in_dim %c_9, dims = [] : (tensor<i32>) -> tensor<5xi32> loc(#loc1763)
    %140 = stablehlo.shift_right_logical %132, %139 : tensor<5xi32> loc(#loc1763)
    %141 = stablehlo.broadcast_in_dim %c_9, dims = [] : (tensor<i32>) -> tensor<5xi32> loc(#loc1760)
    %142 = stablehlo.and %140, %141 : tensor<5xi32> loc(#loc1760)
    %143 = stablehlo.broadcast_in_dim %138, dims = [] : (tensor<i32>) -> tensor<5xi32> loc(#loc1762)
    %144 = stablehlo.multiply %137, %143 : tensor<5xi32> loc(#loc1762)
    %145 = call @_where_17(%142, %144, %137) : (tensor<5xi32>, tensor<5xi32>, tensor<5xi32>) -> tensor<5xi32> loc(#loc1761)
    %146 = stablehlo.multiply %138, %138 : tensor<i32> loc(#loc1762)
    %147 = stablehlo.broadcast_in_dim %c_9, dims = [] : (tensor<i32>) -> tensor<5xi32> loc(#loc1763)
    %148 = stablehlo.shift_right_logical %140, %147 : tensor<5xi32> loc(#loc1763)
    %149 = stablehlo.broadcast_in_dim %c_9, dims = [] : (tensor<i32>) -> tensor<5xi32> loc(#loc1760)
    %150 = stablehlo.and %148, %149 : tensor<5xi32> loc(#loc1760)
    %151 = stablehlo.broadcast_in_dim %146, dims = [] : (tensor<i32>) -> tensor<5xi32> loc(#loc1762)
    %152 = stablehlo.multiply %145, %151 : tensor<5xi32> loc(#loc1762)
    %153 = call @_where_17(%150, %152, %145) : (tensor<5xi32>, tensor<5xi32>, tensor<5xi32>) -> tensor<5xi32> loc(#loc1761)
    %154 = stablehlo.broadcast_in_dim %153, dims = [1] : (tensor<5xi32>) -> tensor<1x5xi32> loc(#loc1764)
    %155 = stablehlo.broadcast_in_dim %154, dims = [0, 1] : (tensor<1x5xi32>) -> tensor<64x5xi32> loc(#loc1765)
    %156 = stablehlo.multiply %101, %155 : tensor<64x5xi32> loc(#loc1765)
    %157 = stablehlo.reduce(%156 init: %c_13) applies stablehlo.add across dimensions = [1] : (tensor<64x5xi32>, tensor<i32>) -> tensor<64xi32> loc(#loc1766)
    %158 = call @searchsorted(%arg29, %157) : (tensor<16xi32>, tensor<64xi32>) -> tensor<64xi32> loc(#loc1767)
    %159 = call @clip(%158, %c_13, %c_7) : (tensor<64xi32>, tensor<i32>, tensor<i32>) -> tensor<64xi32> loc(#loc1768)
    %160 = stablehlo.broadcast_in_dim %c_13, dims = [] : (tensor<i32>) -> tensor<64xi32> loc(#loc1769)
    %161 = stablehlo.compare LT, %159, %160, SIGNED : (tensor<64xi32>, tensor<64xi32>) -> tensor<64xi1> loc(#loc1769)
    %162 = stablehlo.broadcast_in_dim %c_6, dims = [] : (tensor<i32>) -> tensor<64xi32> loc(#loc1770)
    %163 = stablehlo.add %159, %162 : tensor<64xi32> loc(#loc1770)
    %164 = stablehlo.select %161, %163, %159 : tensor<64xi1>, tensor<64xi32> loc(#loc1771)
    %165 = stablehlo.broadcast_in_dim %164, dims = [0] : (tensor<64xi32>) -> tensor<64x1xi32> loc(#loc1772)
    %166 = "stablehlo.gather"(%arg29, %165) <{dimension_numbers = #stablehlo.gather<offset_dims = [1], start_index_map = [0], index_vector_dim = 1>, slice_sizes = array<i64: 1>}> : (tensor<16xi32>, tensor<64x1xi32>) -> tensor<64x1xi32> loc(#loc1773)
    %167 = stablehlo.reshape %166 : (tensor<64x1xi32>) -> tensor<64xi32> loc(#loc1774)
    %168 = stablehlo.compare EQ, %167, %157, SIGNED : (tensor<64xi32>, tensor<64xi32>) -> tensor<64xi1> loc(#loc1775)
    %169 = stablehlo.compare EQ, %101, %arg41, SIGNED : (tensor<64x5xi32>, tensor<64x5xi32>) -> tensor<64x5xi1> loc(#loc1533)
    %170 = stablehlo.reduce(%169 init: %c_3) applies stablehlo.and across dimensions = [1] : (tensor<64x5xi1>, tensor<i1>) -> tensor<64xi1> loc(#loc1534)
    %171 = stablehlo.compare EQ, %101, %arg41, SIGNED : (tensor<64x5xi32>, tensor<64x5xi32>) -> tensor<64x5xi1> loc(#loc1776)
    %172 = stablehlo.broadcast_in_dim %c_13, dims = [] : (tensor<i32>) -> tensor<26xi32> loc(#loc1777)
    %173 = stablehlo.not %171 : tensor<64x5xi1> loc(#loc1778)
    %174 = stablehlo.convert %173 : (tensor<64x5xi1>) -> tensor<64x5xi32> loc(#loc1779)
    %175 = stablehlo.broadcast_in_dim %c_13, dims = [] : (tensor<i32>) -> tensor<64x5xi32> loc(#loc1780)
    %176 = stablehlo.compare LT, %arg41, %175, SIGNED : (tensor<64x5xi32>, tensor<64x5xi32>) -> tensor<64x5xi1> loc(#loc1780)
    %177 = stablehlo.broadcast_in_dim %c_4, dims = [] : (tensor<i32>) -> tensor<64x5xi32> loc(#loc1781)
    %178 = stablehlo.add %arg41, %177 : tensor<64x5xi32> loc(#loc1781)
    %179 = stablehlo.select %176, %178, %arg41 : tensor<64x5xi1>, tensor<64x5xi32> loc(#loc1782)
    %180 = stablehlo.broadcast_in_dim %179, dims = [0, 1] : (tensor<64x5xi32>) -> tensor<64x5x1xi32> loc(#loc1783)
    %181 = stablehlo.broadcast_in_dim %172, dims = [1] : (tensor<26xi32>) -> tensor<64x26xi32> loc(#loc1783)
    %182 = "stablehlo.scatter"(%181, %180, %174) <{scatter_dimension_numbers = #stablehlo.scatter<inserted_window_dims = [1], input_batching_dims = [0], scatter_indices_batching_dims = [0], scatter_dims_to_operand_dims = [1], index_vector_dim = 2>}> ({
    ^bb0(%arg48: tensor<i32> loc("scatter-add:"(#loc192)), %arg49: tensor<i32> loc("scatter-add:"(#loc192))):
      %272 = stablehlo.add %arg48, %arg49 : tensor<i32> loc(#loc1781)
      stablehlo.return %272 : tensor<i32> loc(#loc1784)
    }) : (tensor<64x26xi32>, tensor<64x5x1xi32>, tensor<64x5xi32>) -> tensor<64x26xi32> loc(#loc1784)
    %183 = stablehlo.transpose %101, dims = [1, 0] : (tensor<64x5xi32>) -> tensor<5x64xi32> loc(#loc1785)
    %184 = stablehlo.transpose %171, dims = [1, 0] : (tensor<64x5xi1>) -> tensor<5x64xi1> loc(#loc1785)
    %185 = stablehlo.broadcast_in_dim %c_2, dims = [] : (tensor<i1>) -> tensor<5x64xi1> loc(#loc2019)
    %186:5 = stablehlo.while(%iterArg = %183, %iterArg_14 = %184, %iterArg_15 = %c_13, %iterArg_16 = %182, %iterArg_17 = %185) : tensor<5x64xi32>, tensor<5x64xi1>, tensor<i32>, tensor<64x26xi32>, tensor<5x64xi1>
    cond {
      %272 = stablehlo.compare LT, %iterArg_15, %c_5, SIGNED : (tensor<i32>, tensor<i32>) -> tensor<i1> loc(#loc2167)
      stablehlo.return %272 : tensor<i1> loc(#loc2020)
    } do {
      %272 = func.call @dynamic_index_in_dim_19(%iterArg, %iterArg_15) : (tensor<5x64xi32>, tensor<i32>) -> tensor<64xi32> loc(#loc2168)
      %273 = func.call @dynamic_index_in_dim_20(%iterArg_14, %iterArg_15) : (tensor<5x64xi1>, tensor<i32>) -> tensor<64xi1> loc(#loc2168)
      %274:2 = func.call @closed_call_21(%iterArg_16, %272, %273) : (tensor<64x26xi32>, tensor<64xi32>, tensor<64xi1>) -> (tensor<64x26xi32>, tensor<64xi1>) loc(#loc2169)
      %275 = func.call @dynamic_update_index_in_dim(%iterArg_17, %274#1, %iterArg_15) : (tensor<5x64xi1>, tensor<64xi1>, tensor<i32>) -> tensor<5x64xi1> loc(#loc2170)
      %276 = stablehlo.add %iterArg_15, %c_9 : tensor<i32> loc(#loc2171)
      stablehlo.return %iterArg, %iterArg_14, %276, %274#0, %275 : tensor<5x64xi32>, tensor<5x64xi1>, tensor<i32>, tensor<64x26xi32>, tensor<5x64xi1> loc(#loc2020)
    } loc(#loc2020)
    %187 = call @_where_22(%186#4, %c_9, %c_13) : (tensor<5x64xi1>, tensor<i32>, tensor<i32>) -> tensor<64x5xi32> loc(#loc1787)
    %188 = call @_where_23(%171, %c_1, %187) : (tensor<64x5xi1>, tensor<i32>, tensor<64x5xi32>) -> tensor<64x5xi32> loc(#loc1788)
    %189 = call @_where_24(%168, %188, %c_13) : (tensor<64xi1>, tensor<64x5xi32>, tensor<i32>) -> tensor<64x5xi32> loc(#loc1543)
    %190 = stablehlo.convert %168 : (tensor<64xi1>) -> tensor<64xi32> loc(#loc1544)
    %191 = stablehlo.add %arg44, %190 : tensor<64xi32> loc(#loc1545)
    %192 = stablehlo.convert %170 : (tensor<64xi1>) -> tensor<64xf32> loc(#loc1546)
    %193 = stablehlo.broadcast_in_dim %c_1, dims = [] : (tensor<i32>) -> tensor<64x5xi32> loc(#loc1547)
    %194 = stablehlo.compare EQ, %189, %193, SIGNED : (tensor<64x5xi32>, tensor<64x5xi32>) -> tensor<64x5xi1> loc(#loc1547)
    %195 = stablehlo.convert %194 : (tensor<64x5xi1>) -> tensor<64x5xi32> loc(#loc1548)
    %196 = stablehlo.reduce(%195 init: %c_13) applies stablehlo.add across dimensions = [1] : (tensor<64x5xi32>, tensor<i32>) -> tensor<64xi32> loc(#loc1549)
    %197 = stablehlo.convert %196 : (tensor<64xi32>) -> tensor<64xf32> loc(#loc1550)
    %198 = stablehlo.broadcast_in_dim %cst_11, dims = [] : (tensor<f32>) -> tensor<64xf32> loc(#loc1551)
    %199 = stablehlo.multiply %198, %197 : tensor<64xf32> loc(#loc1551)
    %200 = stablehlo.add %192, %199 : tensor<64xf32> loc(#loc1552)
    %201 = stablehlo.broadcast_in_dim %c_9, dims = [] : (tensor<i32>) -> tensor<64x5xi32> loc(#loc1553)
    %202 = stablehlo.compare EQ, %189, %201, SIGNED : (tensor<64x5xi32>, tensor<64x5xi32>) -> tensor<64x5xi1> loc(#loc1553)
    %203 = stablehlo.convert %202 : (tensor<64x5xi1>) -> tensor<64x5xi32> loc(#loc1554)
    %204 = stablehlo.reduce(%203 init: %c_13) applies stablehlo.add across dimensions = [1] : (tensor<64x5xi32>, tensor<i32>) -> tensor<64xi32> loc(#loc1555)
    %205 = stablehlo.convert %204 : (tensor<64xi32>) -> tensor<64xf32> loc(#loc1556)
    %206 = stablehlo.broadcast_in_dim %cst_11, dims = [] : (tensor<f32>) -> tensor<64xf32> loc(#loc1557)
    %207 = stablehlo.multiply %206, %205 : tensor<64xf32> loc(#loc1557)
    %208 = stablehlo.add %200, %207 : tensor<64xf32> loc(#loc1558)
    %209 = stablehlo.not %168 : tensor<64xi1> loc(#loc1559)
    %210 = stablehlo.convert %209 : (tensor<64xi1>) -> tensor<64xf32> loc(#loc1560)
    %211 = stablehlo.broadcast_in_dim %cst_11, dims = [] : (tensor<f32>) -> tensor<64xf32> loc(#loc1561)
    %212 = stablehlo.multiply %211, %210 : tensor<64xf32> loc(#loc1561)
    %213 = stablehlo.subtract %208, %212 : tensor<64xf32> loc(#loc1562)
    %214 = stablehlo.broadcast_in_dim %c_0, dims = [] : (tensor<i32>) -> tensor<64xi32> loc(#loc1563)
    %215 = stablehlo.compare GE, %191, %214, SIGNED : (tensor<64xi32>, tensor<64xi32>) -> tensor<64xi1> loc(#loc1563)
    %216 = stablehlo.or %170, %215 : tensor<64xi1> loc(#loc1564)
    %217 = stablehlo.convert %170 : (tensor<64xi1>) -> tensor<64xf32> loc(#loc1565)
    %218 = stablehlo.convert %191 : (tensor<64xi32>) -> tensor<64xf32> loc(#loc1566)
    %219 = stablehlo.not %168 : tensor<64xi1> loc(#loc1567)
    %220 = stablehlo.convert %219 : (tensor<64xi1>) -> tensor<64xf32> loc(#loc1568)
    %221 = call @_one_hot_25(%188) : (tensor<64x5xi32>) -> tensor<64x5x3xf32> loc(#loc1789)
    %222 = stablehlo.reshape %221 : (tensor<64x5x3xf32>) -> tensor<64x15xf32> loc(#loc1790)
    %223 = call @_where_26(%168, %222, %cst_11) : (tensor<64xi1>, tensor<64x15xf32>, tensor<f32>) -> tensor<64x15xf32> loc(#loc1791)
    %224 = stablehlo.broadcast_in_dim %c_3, dims = [] : (tensor<i1>) -> tensor<16xi1> loc(#loc1572)
    %225 = call @_randint(%88, %c_13, %c_6) : (tensor<64x2xui32>, tensor<i32>, tensor<i32>) -> tensor<64xi32> loc(#loc1573)
    %226 = stablehlo.broadcast_in_dim %c_13, dims = [] : (tensor<i32>) -> tensor<64xi32> loc(#loc1574)
    %227 = stablehlo.compare LT, %225, %226, SIGNED : (tensor<64xi32>, tensor<64xi32>) -> tensor<64xi1> loc(#loc1574)
    %228 = stablehlo.broadcast_in_dim %c_6, dims = [] : (tensor<i32>) -> tensor<64xi32> loc(#loc1575)
    %229 = stablehlo.add %225, %228 : tensor<64xi32> loc(#loc1575)
    %230 = stablehlo.select %227, %229, %225 : tensor<64xi1>, tensor<64xi32> loc(#loc1576)
    %231 = stablehlo.compare LT, %c_13, %c_13, SIGNED : (tensor<i32>, tensor<i32>) -> tensor<i1> loc(#loc1574)
    %232 = stablehlo.add %c_13, %c_5 : tensor<i32> loc(#loc1575)
    %233 = stablehlo.select %231, %232, %c_13 : tensor<i1>, tensor<i32> loc(#loc1576)
    %234 = stablehlo.broadcast_in_dim %230, dims = [0] : (tensor<64xi32>) -> tensor<64x1xi32> loc(#loc1577)
    %235 = stablehlo.broadcast_in_dim %233, dims = [] : (tensor<i32>) -> tensor<64x1xi32> loc(#loc1577)
    %236 = stablehlo.concatenate %234, %235, dim = 1 : (tensor<64x1xi32>, tensor<64x1xi32>) -> tensor<64x2xi32> loc(#loc1578)
    %237 = "stablehlo.gather"(%arg30, %236) <{dimension_numbers = #stablehlo.gather<offset_dims = [1, 2], start_index_map = [0, 1], index_vector_dim = 1>, slice_sizes = array<i64: 1, 5>}> : (tensor<16x5xi32>, tensor<64x2xi32>) -> tensor<64x1x5xi32> loc(#loc1579)
    %238 = stablehlo.reshape %237 : (tensor<64x1x5xi32>) -> tensor<64x5xi32> loc(#loc1580)
    %239 = stablehlo.broadcast_in_dim %c_13, dims = [] : (tensor<i32>) -> tensor<5xi32> loc(#loc1581)
    %240 = call @_one_hot_31(%239) : (tensor<5xi32>) -> tensor<5x3xf32> loc(#loc1792)
    %241 = stablehlo.reshape %240 : (tensor<5x3xf32>) -> tensor<15xf32> loc(#loc1793)
    %242 = call @_where_32(%c_2, %241, %cst_11) : (tensor<i1>, tensor<15xf32>, tensor<f32>) -> tensor<15xf32> loc(#loc1794)
    %243 = stablehlo.broadcast_in_dim %c_3, dims = [] : (tensor<i1>) -> tensor<16xi1> loc(#loc1585)
    %244 = stablehlo.broadcast_in_dim %c_2, dims = [] : (tensor<i1>) -> tensor<64xi1> loc(#loc1346)
    %245 = stablehlo.or %216, %244 : tensor<64xi1> loc(#loc1346)
    %246 = stablehlo.broadcast_in_dim %245, dims = [0] : (tensor<64xi1>) -> tensor<64x5xi1> loc(#loc1347)
    %247 = stablehlo.select %246, %238, %arg41 : tensor<64x5xi1>, tensor<64x5xi32> loc(#loc1348)
    %248 = stablehlo.broadcast_in_dim %239, dims = [1] : (tensor<5xi32>) -> tensor<64x5xi32> loc(#loc1347)
    %249 = stablehlo.broadcast_in_dim %245, dims = [0] : (tensor<64xi1>) -> tensor<64x5xi1> loc(#loc1347)
    %250 = stablehlo.select %249, %248, %188 : tensor<64x5xi1>, tensor<64x5xi32> loc(#loc1348)
    %251 = stablehlo.broadcast_in_dim %c_2, dims = [] : (tensor<i1>) -> tensor<64xi1> loc(#loc1347)
    %252 = stablehlo.select %245, %251, %168 : tensor<64xi1>, tensor<64xi1> loc(#loc1348)
    %253 = stablehlo.broadcast_in_dim %c_13, dims = [] : (tensor<i32>) -> tensor<64xi32> loc(#loc1347)
    %254 = stablehlo.select %245, %253, %191 : tensor<64xi1>, tensor<64xi32> loc(#loc1348)
    %255 = stablehlo.broadcast_in_dim %c_2, dims = [] : (tensor<i1>) -> tensor<64xi1> loc(#loc1347)
    %256 = stablehlo.select %245, %255, %170 : tensor<64xi1>, tensor<64xi1> loc(#loc1348)
    %257 = stablehlo.broadcast_in_dim %224, dims = [1] : (tensor<16xi1>) -> tensor<64x16xi1> loc(#loc1349)
    %258 = stablehlo.broadcast_in_dim %243, dims = [1] : (tensor<16xi1>) -> tensor<64x16xi1> loc(#loc1349)
    %259 = stablehlo.broadcast_in_dim %245, dims = [0] : (tensor<64xi1>) -> tensor<64x16xi1> loc(#loc1349)
    %260 = stablehlo.select %259, %258, %257 : tensor<64x16xi1>, tensor<64x16xi1> loc(#loc1350)
    %261 = stablehlo.broadcast_in_dim %242, dims = [1] : (tensor<15xf32>) -> tensor<64x15xf32> loc(#loc1349)
    %262 = stablehlo.broadcast_in_dim %245, dims = [0] : (tensor<64xi1>) -> tensor<64x15xi1> loc(#loc1349)
    %263 = stablehlo.select %262, %261, %223 : tensor<64x15xi1>, tensor<64x15xf32> loc(#loc1350)
    %264 = stablehlo.broadcast_in_dim %c_2, dims = [] : (tensor<i1>) -> tensor<64xi1> loc(#loc933)
    %265 = stablehlo.add %arg31, %c : tensor<i32> loc(#loc763)
    %266 = stablehlo.or %216, %264 : tensor<64xi1> loc(#loc934)
    %267 = stablehlo.broadcast_in_dim %c_13, dims = [] : (tensor<i32>) -> tensor<64xi32> loc(#loc765)
    %268 = call @_where_33(%266, %267, %81) : (tensor<64xi1>, tensor<64xi32>, tensor<64xi32>) -> tensor<64xi32> loc(#loc766)
    %269 = stablehlo.or %216, %264 : tensor<64xi1> loc(#loc935)
    %270 = stablehlo.broadcast_in_dim %cst_11, dims = [] : (tensor<f32>) -> tensor<64xf32> loc(#loc768)
    %271 = call @_where_34(%269, %270, %213) : (tensor<64xi1>, tensor<64xf32>, tensor<64xf32>) -> tensor<64xf32> loc(#loc769)
    return %265, %260, %263, %268, %271, %216, %264, %218, %220, %217, %247, %250, %252, %254, %256, %51, %arg32, %arg33, %arg34, %arg35, %arg36, %arg37, %arg38, %arg39, %arg40, %260, %263, %81, %213, %216, %264, %218, %220, %217, %82, %84 : tensor<i32>, tensor<64x16xi1>, tensor<64x15xf32>, tensor<64xi32>, tensor<64xf32>, tensor<64xi1>, tensor<64xi1>, tensor<64xf32>, tensor<64xf32>, tensor<64xf32>, tensor<64x5xi32>, tensor<64x5xi32>, tensor<64xi1>, tensor<64xi32>, tensor<64xi1>, tensor<64x32xf32>, tensor<64x16xi1>, tensor<64x15xf32>, tensor<64xi32>, tensor<64xf32>, tensor<64xi1>, tensor<64xi1>, tensor<64xf32>, tensor<64xf32>, tensor<64xf32>, tensor<64x16xi1>, tensor<64x15xf32>, tensor<64xi32>, tensor<64xf32>, tensor<64xi1>, tensor<64xi1>, tensor<64xf32>, tensor<64xf32>, tensor<64xf32>, tensor<64xf32>, tensor<64xf32> loc(#loc)
  } loc(#loc1123)
  func.func private @relu(%arg0: tensor<64x1x32xf32> loc(unknown)) -> tensor<64x1x32xf32> {
    %cst = stablehlo.constant dense<0.000000e+00> : tensor<f32> loc(#loc)
    %0 = stablehlo.broadcast_in_dim %cst, dims = [] : (tensor<f32>) -> tensor<64x1x32xf32> loc(#loc245)
    %1 = stablehlo.maximum %arg0, %0 : tensor<64x1x32xf32> loc(#loc245)
    return %1 : tensor<64x1x32xf32> loc(#loc)
  } loc(#loc600)
  func.func private @_one_hot(%arg0: tensor<64x1xi32> loc(unknown)) -> tensor<64x1x16xf32> {
    %0 = stablehlo.broadcast_in_dim %arg0, dims = [0, 1] : (tensor<64x1xi32>) -> tensor<64x1x1xi32> loc(#loc246)
    %1 = stablehlo.iota dim = 2 : tensor<1x1x16xi32> loc(#loc247)
    %2 = stablehlo.broadcast_in_dim %0, dims = [0, 1, 2] : (tensor<64x1x1xi32>) -> tensor<64x1x16xi32> loc(#loc248)
    %3 = stablehlo.broadcast_in_dim %1, dims = [0, 1, 2] : (tensor<1x1x16xi32>) -> tensor<64x1x16xi32> loc(#loc248)
    %4 = stablehlo.compare EQ, %2, %3, SIGNED : (tensor<64x1x16xi32>, tensor<64x1x16xi32>) -> tensor<64x1x16xi1> loc(#loc248)
    %5 = stablehlo.convert %4 : (tensor<64x1x16xi1>) -> tensor<64x1x16xf32> loc(#loc129)
    return %5 : tensor<64x1x16xf32> loc(#loc)
  } loc(#loc1148)
  func.func private @_take(%arg0: tensor<64x1x32xf32> loc(unknown), %arg1: tensor<i32> loc(unknown)) -> tensor<64x32xf32> {
    %cst = stablehlo.constant dense<0x7FC00000> : tensor<f32> loc(#loc249)
    %c = stablehlo.constant dense<true> : tensor<i1> loc(#loc250)
    %c_0 = stablehlo.constant dense<0> : tensor<1xi32> loc(#loc249)
    %c_1 = stablehlo.constant dense<1> : tensor<i32> loc(#loc)
    %c_2 = stablehlo.constant dense<0> : tensor<i32> loc(#loc)
    %0 = stablehlo.compare LT, %arg1, %c_2, SIGNED : (tensor<i32>, tensor<i32>) -> tensor<i1> loc(#loc251)
    %1 = stablehlo.add %arg1, %c_1 : tensor<i32> loc(#loc120)
    %2 = call @_where(%0, %1, %arg1) : (tensor<i1>, tensor<i32>, tensor<i32>) -> tensor<i32> loc(#loc252)
    %3 = stablehlo.broadcast_in_dim %2, dims = [] : (tensor<i32>) -> tensor<1xi32> loc(#loc246)
    %4 = stablehlo.convert %3 : tensor<1xi32> loc(#loc129)
    %5 = stablehlo.broadcast_in_dim %c_2, dims = [] : (tensor<i32>) -> tensor<1xi32> loc(#loc253)
    %6 = stablehlo.compare GE, %4, %5, SIGNED : (tensor<1xi32>, tensor<1xi32>) -> tensor<1xi1> loc(#loc253)
    %7 = stablehlo.compare LE, %4, %c_0, SIGNED : (tensor<1xi32>, tensor<1xi32>) -> tensor<1xi1> loc(#loc254)
    %8 = stablehlo.and %6, %7 : tensor<1xi1> loc(#loc255)
    %9 = stablehlo.reduce(%8 init: %c) applies stablehlo.and across dimensions = [0] : (tensor<1xi1>, tensor<i1>) -> tensor<i1> loc(#loc250)
    %10 = "stablehlo.gather"(%arg0, %4) <{dimension_numbers = #stablehlo.gather<offset_dims = [0, 1], collapsed_slice_dims = [1], start_index_map = [1]>, slice_sizes = array<i64: 64, 1, 32>}> : (tensor<64x1x32xf32>, tensor<1xi32>) -> tensor<64x32xf32> loc(#loc249)
    %11 = stablehlo.broadcast_in_dim %9, dims = [] : (tensor<i1>) -> tensor<64x32xi1> loc(#loc246)
    %12 = stablehlo.broadcast_in_dim %cst, dims = [] : (tensor<f32>) -> tensor<64x32xf32> loc(#loc246)
    %13 = stablehlo.select %11, %10, %12 : tensor<64x32xi1>, tensor<64x32xf32> loc(#loc256)
    return %13 : tensor<64x32xf32> loc(#loc)
  } loc(#loc1795)
  func.func private @_where(%arg0: tensor<i1> loc(unknown), %arg1: tensor<i32> loc(unknown), %arg2: tensor<i32> loc(unknown)) -> tensor<i32> {
    %0 = stablehlo.select %arg0, %arg1, %arg2 : tensor<i1>, tensor<i32> loc(#loc256)
    return %0 : tensor<i32> loc(#loc)
  } loc(#loc600)
  func.func private @_where_4(%arg0: tensor<64x1x16xi1> loc(unknown), %arg1: tensor<64x1x16xf32> loc(unknown), %arg2: tensor<f32> loc(unknown)) -> tensor<64x1x16xf32> {
    %0 = stablehlo.broadcast_in_dim %arg2, dims = [] : (tensor<f32>) -> tensor<64x1x16xf32> loc(#loc246)
    %1 = stablehlo.select %arg0, %arg1, %0 : tensor<64x1x16xi1>, tensor<64x1x16xf32> loc(#loc256)
    return %1 : tensor<64x1x16xf32> loc(#loc)
  } loc(#loc1149)
  func.func private @log_softmax(%arg0: tensor<64x1x16xf32> loc(unknown)) -> tensor<64x1x16xf32> {
    %cst = stablehlo.constant dense<0.000000e+00> : tensor<f32> loc(#loc257)
    %cst_0 = stablehlo.constant dense<0xFF800000> : tensor<f32> loc(#loc)
    %0 = stablehlo.reduce(%arg0 init: %cst_0) applies stablehlo.maximum across dimensions = [2] : (tensor<64x1x16xf32>, tensor<f32>) -> tensor<64x1xf32> loc(#loc258)
    %1 = stablehlo.broadcast_in_dim %cst_0, dims = [] : (tensor<f32>) -> tensor<64x1xf32> loc(#loc245)
    %2 = stablehlo.maximum %1, %0 : tensor<64x1xf32> loc(#loc245)
    %3 = stablehlo.broadcast_in_dim %2, dims = [0, 1] : (tensor<64x1xf32>) -> tensor<64x1x1xf32> loc(#loc246)
    %4 = stablehlo.broadcast_in_dim %3, dims = [0, 1, 2] : (tensor<64x1x1xf32>) -> tensor<64x1x16xf32> loc(#loc126)
    %5 = stablehlo.subtract %arg0, %4 : tensor<64x1x16xf32> loc(#loc126)
    %6 = stablehlo.exponential %5 : tensor<64x1x16xf32> loc(#loc259)
    %7 = stablehlo.reduce(%6 init: %cst) applies stablehlo.add across dimensions = [2] : (tensor<64x1x16xf32>, tensor<f32>) -> tensor<64x1xf32> loc(#loc257)
    %8 = stablehlo.broadcast_in_dim %7, dims = [0, 1] : (tensor<64x1xf32>) -> tensor<64x1x1xf32> loc(#loc246)
    %9 = stablehlo.log %8 : tensor<64x1x1xf32> loc(#loc260)
    %10 = stablehlo.broadcast_in_dim %9, dims = [0, 1, 2] : (tensor<64x1x1xf32>) -> tensor<64x1x16xf32> loc(#loc126)
    %11 = stablehlo.subtract %5, %10 : tensor<64x1x16xf32> loc(#loc126)
    return %11 : tensor<64x1x16xf32> loc(#loc)
  } loc(#loc1796)
  func.func private @_gumbel(%arg0: tensor<2xui32> loc(unknown)) -> tensor<1x64x1x16xf32> {
    %cst = stablehlo.constant dense<1.000000e+00> : tensor<f32> loc(#loc)
    %cst_0 = stablehlo.constant dense<1.17549435E-38> : tensor<f32> loc(#loc)
    %0 = call @_uniform(%arg0, %cst, %cst_0) : (tensor<2xui32>, tensor<f32>, tensor<f32>) -> tensor<1x64x1x16xf32> loc(#loc261)
    %1 = stablehlo.log %0 : tensor<1x64x1x16xf32> loc(#loc260)
    %2 = stablehlo.negate %1 : tensor<1x64x1x16xf32> loc(#loc262)
    %3 = stablehlo.log %2 : tensor<1x64x1x16xf32> loc(#loc260)
    %4 = stablehlo.negate %3 : tensor<1x64x1x16xf32> loc(#loc262)
    return %4 : tensor<1x64x1x16xf32> loc(#loc)
  } loc(#loc2022)
  func.func private @_uniform(%arg0: tensor<2xui32> loc(unknown), %arg1: tensor<f32> loc(unknown), %arg2: tensor<f32> loc(unknown)) -> tensor<1x64x1x16xf32> {
    %cst = stablehlo.constant dense<1.000000e+00> : tensor<f32> loc(#loc)
    %c = stablehlo.constant dense<1065353216> : tensor<ui32> loc(#loc)
    %c_0 = stablehlo.constant dense<9> : tensor<ui32> loc(#loc)
    %c_1 = stablehlo.constant dense<32> : tensor<ui64> loc(#loc114)
    %c_2 = stablehlo.constant dense<1> : tensor<ui64> loc(#loc114)
    %c_3 = stablehlo.constant dense<16> : tensor<ui64> loc(#loc)
    %c_4 = stablehlo.constant dense<1024> : tensor<ui64> loc(#loc114)
    %0 = stablehlo.convert %arg1 : tensor<f32> loc(#loc129)
    %1 = stablehlo.broadcast_in_dim %arg2, dims = [] : (tensor<f32>) -> tensor<1x1x1x1xf32> loc(#loc246)
    %2 = stablehlo.broadcast_in_dim %0, dims = [] : (tensor<f32>) -> tensor<1x1x1x1xf32> loc(#loc246)
    %3 = stablehlo.slice %arg0 [0:1] : (tensor<2xui32>) -> tensor<1xui32> loc(#loc115)
    %4 = stablehlo.reshape %3 : (tensor<1xui32>) -> tensor<ui32> loc(#loc116)
    %5 = stablehlo.slice %arg0 [1:2] : (tensor<2xui32>) -> tensor<1xui32> loc(#loc115)
    %6 = stablehlo.reshape %5 : (tensor<1xui32>) -> tensor<ui32> loc(#loc116)
    %7 = stablehlo.iota dim = 0 : tensor<1x64x1x16xui64> loc(#loc114)
    %8 = stablehlo.iota dim = 1 : tensor<1x64x1x16xui64> loc(#loc114)
    %9 = stablehlo.iota dim = 2 : tensor<1x64x1x16xui64> loc(#loc114)
    %10 = stablehlo.iota dim = 3 : tensor<1x64x1x16xui64> loc(#loc114)
    %11 = stablehlo.broadcast_in_dim %c_4, dims = [] : (tensor<ui64>) -> tensor<1x64x1x16xui64> loc(#loc114)
    %12 = stablehlo.multiply %11, %7 : tensor<1x64x1x16xui64> loc(#loc114)
    %13 = stablehlo.broadcast_in_dim %c_3, dims = [] : (tensor<ui64>) -> tensor<1x64x1x16xui64> loc(#loc114)
    %14 = stablehlo.multiply %13, %8 : tensor<1x64x1x16xui64> loc(#loc114)
    %15 = stablehlo.broadcast_in_dim %c_3, dims = [] : (tensor<ui64>) -> tensor<1x64x1x16xui64> loc(#loc114)
    %16 = stablehlo.multiply %15, %9 : tensor<1x64x1x16xui64> loc(#loc114)
    %17 = stablehlo.broadcast_in_dim %c_2, dims = [] : (tensor<ui64>) -> tensor<1x64x1x16xui64> loc(#loc114)
    %18 = stablehlo.multiply %17, %10 : tensor<1x64x1x16xui64> loc(#loc114)
    %19 = stablehlo.add %12, %14 : tensor<1x64x1x16xui64> loc(#loc114)
    %20 = stablehlo.add %19, %16 : tensor<1x64x1x16xui64> loc(#loc114)
    %21 = stablehlo.add %20, %18 : tensor<1x64x1x16xui64> loc(#loc114)
    %22 = stablehlo.broadcast_in_dim %c_1, dims = [] : (tensor<ui64>) -> tensor<1x64x1x16xui64> loc(#loc114)
    %23 = stablehlo.shift_right_logical %21, %22 : tensor<1x64x1x16xui64> loc(#loc114)
    %24 = stablehlo.convert %21 : (tensor<1x64x1x16xui64>) -> tensor<1x64x1x16xui32> loc(#loc114)
    %25 = stablehlo.convert %23 : (tensor<1x64x1x16xui64>) -> tensor<1x64x1x16xui32> loc(#loc114)
    %26:2 = call @threefry2x32_5(%4, %6, %25, %24) : (tensor<ui32>, tensor<ui32>, tensor<1x64x1x16xui32>, tensor<1x64x1x16xui32>) -> (tensor<1x64x1x16xui32>, tensor<1x64x1x16xui32>) loc(#loc263)
    %27 = stablehlo.xor %26#0, %26#1 : tensor<1x64x1x16xui32> loc(#loc119)
    %28 = stablehlo.broadcast_in_dim %c_0, dims = [] : (tensor<ui32>) -> tensor<1x64x1x16xui32> loc(#loc127)
    %29 = stablehlo.shift_right_logical %27, %28 : tensor<1x64x1x16xui32> loc(#loc127)
    %30 = stablehlo.broadcast_in_dim %c, dims = [] : (tensor<ui32>) -> tensor<1x64x1x16xui32> loc(#loc128)
    %31 = stablehlo.or %29, %30 : tensor<1x64x1x16xui32> loc(#loc128)
    %32 = stablehlo.bitcast_convert %31 : (tensor<1x64x1x16xui32>) -> tensor<1x64x1x16xf32> loc(#loc264)
    %33 = stablehlo.broadcast_in_dim %cst, dims = [] : (tensor<f32>) -> tensor<1x64x1x16xf32> loc(#loc126)
    %34 = stablehlo.subtract %32, %33 : tensor<1x64x1x16xf32> loc(#loc126)
    %35 = stablehlo.subtract %2, %1 : tensor<1x1x1x1xf32> loc(#loc126)
    %36 = stablehlo.broadcast_in_dim %35, dims = [0, 1, 2, 3] : (tensor<1x1x1x1xf32>) -> tensor<1x64x1x16xf32> loc(#loc265)
    %37 = stablehlo.multiply %34, %36 : tensor<1x64x1x16xf32> loc(#loc265)
    %38 = stablehlo.broadcast_in_dim %1, dims = [0, 1, 2, 3] : (tensor<1x1x1x1xf32>) -> tensor<1x64x1x16xf32> loc(#loc120)
    %39 = stablehlo.add %37, %38 : tensor<1x64x1x16xf32> loc(#loc120)
    %40 = stablehlo.broadcast_in_dim %1, dims = [0, 1, 2, 3] : (tensor<1x1x1x1xf32>) -> tensor<1x64x1x16xf32> loc(#loc245)
    %41 = stablehlo.maximum %40, %39 : tensor<1x64x1x16xf32> loc(#loc245)
    return %41 : tensor<1x64x1x16xf32> loc(#loc)
  } loc(#loc600)
  func.func private @threefry2x32_5(%arg0: tensor<ui32> loc(unknown), %arg1: tensor<ui32> loc(unknown), %arg2: tensor<1x64x1x16xui32> loc(unknown), %arg3: tensor<1x64x1x16xui32> loc(unknown)) -> (tensor<1x64x1x16xui32>, tensor<1x64x1x16xui32>) {
    %c = stablehlo.constant dense<1> : tensor<i32> loc(#loc)
    %c_0 = stablehlo.constant dense<5> : tensor<i32> loc(#loc)
    %c_1 = stablehlo.constant dense<0> : tensor<i32> loc(#loc)
    %c_2 = stablehlo.constant dense<466688986> : tensor<ui32> loc(#loc484)
    %c_3 = stablehlo.constant dense<[13, 15, 26, 6]> : tensor<4xui32> loc(#loc484)
    %c_4 = stablehlo.constant dense<[17, 29, 16, 24]> : tensor<4xui32> loc(#loc484)
    %0 = stablehlo.xor %arg0, %arg1 : tensor<ui32> loc(#loc119)
    %1 = stablehlo.xor %0, %c_2 : tensor<ui32> loc(#loc119)
    %2 = stablehlo.broadcast_in_dim %arg0, dims = [] : (tensor<ui32>) -> tensor<1x64x1x16xui32> loc(#loc120)
    %3 = stablehlo.add %arg2, %2 : tensor<1x64x1x16xui32> loc(#loc120)
    %4 = stablehlo.broadcast_in_dim %arg1, dims = [] : (tensor<ui32>) -> tensor<1x64x1x16xui32> loc(#loc120)
    %5 = stablehlo.add %arg3, %4 : tensor<1x64x1x16xui32> loc(#loc120)
    %6:9 = stablehlo.while(%iterArg = %c_1, %iterArg_5 = %c_1, %iterArg_6 = %3, %iterArg_7 = %5, %iterArg_8 = %arg1, %iterArg_9 = %1, %iterArg_10 = %arg0, %iterArg_11 = %c_3, %iterArg_12 = %c_4) : tensor<i32>, tensor<i32>, tensor<1x64x1x16xui32>, tensor<1x64x1x16xui32>, tensor<ui32>, tensor<ui32>, tensor<ui32>, tensor<4xui32>, tensor<4xui32>
    cond {
      %7 = stablehlo.compare LT, %iterArg, %c_0, SIGNED : (tensor<i32>, tensor<i32>) -> tensor<i1> loc(#loc122)
      stablehlo.return %7 : tensor<i1> loc(#loc121)
    } do {
      %7:8 = func.call @closed_call_6(%iterArg_5, %iterArg_6, %iterArg_7, %iterArg_8, %iterArg_9, %iterArg_10, %iterArg_11, %iterArg_12) : (tensor<i32>, tensor<1x64x1x16xui32>, tensor<1x64x1x16xui32>, tensor<ui32>, tensor<ui32>, tensor<ui32>, tensor<4xui32>, tensor<4xui32>) -> (tensor<i32>, tensor<1x64x1x16xui32>, tensor<1x64x1x16xui32>, tensor<ui32>, tensor<ui32>, tensor<ui32>, tensor<4xui32>, tensor<4xui32>) loc(#loc123)
      %8 = stablehlo.add %iterArg, %c : tensor<i32> loc(#loc124)
      stablehlo.return %8, %7#0, %7#1, %7#2, %7#3, %7#4, %7#5, %7#6, %7#7 : tensor<i32>, tensor<i32>, tensor<1x64x1x16xui32>, tensor<1x64x1x16xui32>, tensor<ui32>, tensor<ui32>, tensor<ui32>, tensor<4xui32>, tensor<4xui32> loc(#loc121)
    } loc(#loc121)
    return %6#2, %6#3 : tensor<1x64x1x16xui32>, tensor<1x64x1x16xui32> loc(#loc)
  } loc(#loc)
  func.func private @closed_call_6(%arg0: tensor<i32> loc(unknown), %arg1: tensor<1x64x1x16xui32> loc(unknown), %arg2: tensor<1x64x1x16xui32> loc(unknown), %arg3: tensor<ui32> loc(unknown), %arg4: tensor<ui32> loc(unknown), %arg5: tensor<ui32> loc(unknown), %arg6: tensor<4xui32> loc(unknown), %arg7: tensor<4xui32> loc(unknown)) -> (tensor<i32>, tensor<1x64x1x16xui32>, tensor<1x64x1x16xui32>, tensor<ui32>, tensor<ui32>, tensor<ui32>, tensor<4xui32>, tensor<4xui32>) {
    %c = stablehlo.constant dense<32> : tensor<ui32> loc(#loc)
    %c_0 = stablehlo.constant dense<1> : tensor<i32> loc(#loc)
    %0 = stablehlo.add %arg0, %c_0 : tensor<i32> loc(#loc120)
    %1 = stablehlo.slice %arg6 [0:1] : (tensor<4xui32>) -> tensor<1xui32> loc(#loc115)
    %2 = stablehlo.reshape %1 : (tensor<1xui32>) -> tensor<ui32> loc(#loc116)
    %3 = stablehlo.add %arg1, %arg2 : tensor<1x64x1x16xui32> loc(#loc120)
    %4 = stablehlo.broadcast_in_dim %2, dims = [] : (tensor<ui32>) -> tensor<1x64x1x16xui32> loc(#loc125)
    %5 = stablehlo.shift_left %arg2, %4 : tensor<1x64x1x16xui32> loc(#loc125)
    %6 = stablehlo.subtract %c, %2 : tensor<ui32> loc(#loc126)
    %7 = stablehlo.broadcast_in_dim %6, dims = [] : (tensor<ui32>) -> tensor<1x64x1x16xui32> loc(#loc127)
    %8 = stablehlo.shift_right_logical %arg2, %7 : tensor<1x64x1x16xui32> loc(#loc127)
    %9 = stablehlo.or %5, %8 : tensor<1x64x1x16xui32> loc(#loc128)
    %10 = stablehlo.xor %3, %9 : tensor<1x64x1x16xui32> loc(#loc119)
    %11 = stablehlo.slice %arg6 [1:2] : (tensor<4xui32>) -> tensor<1xui32> loc(#loc115)
    %12 = stablehlo.reshape %11 : (tensor<1xui32>) -> tensor<ui32> loc(#loc116)
    %13 = stablehlo.add %3, %10 : tensor<1x64x1x16xui32> loc(#loc120)
    %14 = stablehlo.broadcast_in_dim %12, dims = [] : (tensor<ui32>) -> tensor<1x64x1x16xui32> loc(#loc125)
    %15 = stablehlo.shift_left %10, %14 : tensor<1x64x1x16xui32> loc(#loc125)
    %16 = stablehlo.subtract %c, %12 : tensor<ui32> loc(#loc126)
    %17 = stablehlo.broadcast_in_dim %16, dims = [] : (tensor<ui32>) -> tensor<1x64x1x16xui32> loc(#loc127)
    %18 = stablehlo.shift_right_logical %10, %17 : tensor<1x64x1x16xui32> loc(#loc127)
    %19 = stablehlo.or %15, %18 : tensor<1x64x1x16xui32> loc(#loc128)
    %20 = stablehlo.xor %13, %19 : tensor<1x64x1x16xui32> loc(#loc119)
    %21 = stablehlo.slice %arg6 [2:3] : (tensor<4xui32>) -> tensor<1xui32> loc(#loc115)
    %22 = stablehlo.reshape %21 : (tensor<1xui32>) -> tensor<ui32> loc(#loc116)
    %23 = stablehlo.add %13, %20 : tensor<1x64x1x16xui32> loc(#loc120)
    %24 = stablehlo.broadcast_in_dim %22, dims = [] : (tensor<ui32>) -> tensor<1x64x1x16xui32> loc(#loc125)
    %25 = stablehlo.shift_left %20, %24 : tensor<1x64x1x16xui32> loc(#loc125)
    %26 = stablehlo.subtract %c, %22 : tensor<ui32> loc(#loc126)
    %27 = stablehlo.broadcast_in_dim %26, dims = [] : (tensor<ui32>) -> tensor<1x64x1x16xui32> loc(#loc127)
    %28 = stablehlo.shift_right_logical %20, %27 : tensor<1x64x1x16xui32> loc(#loc127)
    %29 = stablehlo.or %25, %28 : tensor<1x64x1x16xui32> loc(#loc128)
    %30 = stablehlo.xor %23, %29 : tensor<1x64x1x16xui32> loc(#loc119)
    %31 = stablehlo.slice %arg6 [3:4] : (tensor<4xui32>) -> tensor<1xui32> loc(#loc115)
    %32 = stablehlo.reshape %31 : (tensor<1xui32>) -> tensor<ui32> loc(#loc116)
    %33 = stablehlo.add %23, %30 : tensor<1x64x1x16xui32> loc(#loc120)
    %34 = stablehlo.broadcast_in_dim %32, dims = [] : (tensor<ui32>) -> tensor<1x64x1x16xui32> loc(#loc125)
    %35 = stablehlo.shift_left %30, %34 : tensor<1x64x1x16xui32> loc(#loc125)
    %36 = stablehlo.subtract %c, %32 : tensor<ui32> loc(#loc126)
    %37 = stablehlo.broadcast_in_dim %36, dims = [] : (tensor<ui32>) -> tensor<1x64x1x16xui32> loc(#loc127)
    %38 = stablehlo.shift_right_logical %30, %37 : tensor<1x64x1x16xui32> loc(#loc127)
    %39 = stablehlo.or %35, %38 : tensor<1x64x1x16xui32> loc(#loc128)
    %40 = stablehlo.xor %33, %39 : tensor<1x64x1x16xui32> loc(#loc119)
    %41 = stablehlo.broadcast_in_dim %arg3, dims = [] : (tensor<ui32>) -> tensor<1x64x1x16xui32> loc(#loc120)
    %42 = stablehlo.add %33, %41 : tensor<1x64x1x16xui32> loc(#loc120)
    %43 = stablehlo.broadcast_in_dim %arg4, dims = [] : (tensor<ui32>) -> tensor<1x64x1x16xui32> loc(#loc120)
    %44 = stablehlo.add %40, %43 : tensor<1x64x1x16xui32> loc(#loc120)
    %45 = stablehlo.add %arg0, %c_0 : tensor<i32> loc(#loc120)
    %46 = stablehlo.convert %45 : (tensor<i32>) -> tensor<ui32> loc(#loc129)
    %47 = stablehlo.broadcast_in_dim %46, dims = [] : (tensor<ui32>) -> tensor<1x64x1x16xui32> loc(#loc120)
    %48 = stablehlo.add %44, %47 : tensor<1x64x1x16xui32> loc(#loc120)
    return %0, %42, %48, %arg4, %arg5, %arg3, %arg7, %arg6 : tensor<i32>, tensor<1x64x1x16xui32>, tensor<1x64x1x16xui32>, tensor<ui32>, tensor<ui32>, tensor<ui32>, tensor<4xui32>, tensor<4xui32> loc(#loc)
  } loc(#loc485)
  func.func private @argmax(%arg0: tensor<1x64x1x16xf32> loc(callsite(#loc502 at #loc1299))) -> tensor<1x64x1xi32> {
    %c = stablehlo.constant dense<0> : tensor<i32> loc(#loc601)
    %cst = stablehlo.constant dense<0xFF800000> : tensor<f32> loc(#loc601)
    %0 = stablehlo.iota dim = 3 : tensor<1x64x1x16xi32> loc(#loc1798)
    %1:2 = stablehlo.reduce(%arg0 init: %cst), (%0 init: %c) across dimensions = [3] : (tensor<1x64x1x16xf32>, tensor<1x64x1x16xi32>, tensor<f32>, tensor<i32>) -> (tensor<1x64x1xf32>, tensor<1x64x1xi32>)
     reducer(%arg1: tensor<f32> loc("reduce:"(#loc267)), %arg3: tensor<f32> loc("reduce:"(#loc267))) (%arg2: tensor<i32> loc("reduce:"(#loc267)), %arg4: tensor<i32> loc("reduce:"(#loc267)))  {
      %2 = stablehlo.compare GT, %arg1, %arg3, FLOAT : (tensor<f32>, tensor<f32>) -> tensor<i1> loc(#loc2023)
      %3 = stablehlo.compare NE, %arg1, %arg1, FLOAT : (tensor<f32>, tensor<f32>) -> tensor<i1> loc(#loc2024)
      %4 = stablehlo.or %2, %3 : tensor<i1> loc(#loc2025)
      %5 = stablehlo.compare EQ, %arg1, %arg3, FLOAT : (tensor<f32>, tensor<f32>) -> tensor<i1> loc(#loc2026)
      %6 = stablehlo.compare LT, %arg2, %arg4, SIGNED : (tensor<i32>, tensor<i32>) -> tensor<i1> loc(#loc2027)
      %7 = stablehlo.and %5, %6 : tensor<i1> loc(#loc2028)
      %8 = stablehlo.or %4, %7 : tensor<i1> loc(#loc2025)
      %9 = stablehlo.select %4, %arg1, %arg3 : tensor<i1>, tensor<f32> loc(#loc2029)
      %10 = stablehlo.select %8, %arg2, %arg4 : tensor<i1>, tensor<i32> loc(#loc2029)
      stablehlo.return %9, %10 : tensor<f32>, tensor<i32> loc(#loc1799)
    } loc(#loc1799)
    return %1#1 : tensor<1x64x1xi32> loc(#loc1517)
  } loc(#loc1517)
  func.func private @_one_hot_7(%arg0: tensor<1x64x1xi32> loc(unknown)) -> tensor<1x64x1x16xf32> {
    %0 = stablehlo.broadcast_in_dim %arg0, dims = [0, 1, 2] : (tensor<1x64x1xi32>) -> tensor<1x64x1x1xi32> loc(#loc246)
    %1 = stablehlo.iota dim = 3 : tensor<1x1x1x16xi32> loc(#loc247)
    %2 = stablehlo.broadcast_in_dim %0, dims = [0, 1, 2, 3] : (tensor<1x64x1x1xi32>) -> tensor<1x64x1x16xi32> loc(#loc248)
    %3 = stablehlo.broadcast_in_dim %1, dims = [0, 1, 2, 3] : (tensor<1x1x1x16xi32>) -> tensor<1x64x1x16xi32> loc(#loc248)
    %4 = stablehlo.compare EQ, %2, %3, SIGNED : (tensor<1x64x1x16xi32>, tensor<1x64x1x16xi32>) -> tensor<1x64x1x16xi1> loc(#loc248)
    %5 = stablehlo.convert %4 : (tensor<1x64x1x16xi1>) -> tensor<1x64x1x16xf32> loc(#loc129)
    return %5 : tensor<1x64x1x16xf32> loc(#loc)
  } loc(#loc2030)
  func.func private @_where_8(%arg0: tensor<1x64x1x16xi1> loc(unknown), %arg1: tensor<f32> loc(unknown), %arg2: tensor<1x64x1x16xf32> loc(unknown)) -> tensor<1x64x1x16xf32> {
    %0 = stablehlo.broadcast_in_dim %arg1, dims = [] : (tensor<f32>) -> tensor<1x64x1x16xf32> loc(#loc246)
    %1 = stablehlo.select %arg0, %0, %arg2 : tensor<1x64x1x16xi1>, tensor<1x64x1x16xf32> loc(#loc256)
    return %1 : tensor<1x64x1x16xf32> loc(#loc)
  } loc(#loc938)
  func.func private @_where_9(%arg0: tensor<1x64x1xi1> loc(unknown), %arg1: tensor<f32> loc(unknown), %arg2: tensor<1x64x1xf32> loc(unknown)) -> tensor<1x64x1xf32> {
    %0 = stablehlo.convert %arg1 : tensor<f32> loc(#loc129)
    %1 = stablehlo.broadcast_in_dim %0, dims = [] : (tensor<f32>) -> tensor<1x64x1xf32> loc(#loc246)
    %2 = stablehlo.select %arg0, %1, %arg2 : tensor<1x64x1xi1>, tensor<1x64x1xf32> loc(#loc256)
    return %2 : tensor<1x64x1xf32> loc(#loc)
  } loc(#loc2031)
  func.func private @_threefry_split_10(%arg0: tensor<2xui32> loc(unknown)) -> tensor<64x2xui32> {
    %c = stablehlo.constant dense<32> : tensor<ui64> loc(#loc940)
    %c_0 = stablehlo.constant dense<1> : tensor<ui64> loc(#loc940)
    %0 = stablehlo.slice %arg0 [0:1] : (tensor<2xui32>) -> tensor<1xui32> loc(#loc941)
    %1 = stablehlo.reshape %0 : (tensor<1xui32>) -> tensor<ui32> loc(#loc942)
    %2 = stablehlo.slice %arg0 [1:2] : (tensor<2xui32>) -> tensor<1xui32> loc(#loc941)
    %3 = stablehlo.reshape %2 : (tensor<1xui32>) -> tensor<ui32> loc(#loc942)
    %4 = stablehlo.iota dim = 0 : tensor<64xui64> loc(#loc940)
    %5 = stablehlo.broadcast_in_dim %c_0, dims = [] : (tensor<ui64>) -> tensor<64xui64> loc(#loc940)
    %6 = stablehlo.multiply %5, %4 : tensor<64xui64> loc(#loc940)
    %7 = stablehlo.broadcast_in_dim %c, dims = [] : (tensor<ui64>) -> tensor<64xui64> loc(#loc940)
    %8 = stablehlo.shift_right_logical %6, %7 : tensor<64xui64> loc(#loc940)
    %9 = stablehlo.convert %6 : (tensor<64xui64>) -> tensor<64xui32> loc(#loc940)
    %10 = stablehlo.convert %8 : (tensor<64xui64>) -> tensor<64xui32> loc(#loc940)
    %11:2 = call @threefry2x32_11(%1, %3, %10, %9) : (tensor<ui32>, tensor<ui32>, tensor<64xui32>, tensor<64xui32>) -> (tensor<64xui32>, tensor<64xui32>) loc(#loc771)
    %12 = stablehlo.broadcast_in_dim %11#0, dims = [0] : (tensor<64xui32>) -> tensor<64x1xui32> loc(#loc943)
    %13 = stablehlo.broadcast_in_dim %11#1, dims = [0] : (tensor<64xui32>) -> tensor<64x1xui32> loc(#loc943)
    %14 = stablehlo.concatenate %12, %13, dim = 1 : (tensor<64x1xui32>, tensor<64x1xui32>) -> tensor<64x2xui32> loc(#loc943)
    return %14 : tensor<64x2xui32> loc(#loc)
  } loc(#loc1150)
  func.func private @threefry2x32_11(%arg0: tensor<ui32> loc(callsite(#loc603 at #loc604)), %arg1: tensor<ui32> loc(callsite(#loc603 at #loc604)), %arg2: tensor<64xui32> loc(callsite(#loc603 at #loc604)), %arg3: tensor<64xui32> loc(callsite(#loc603 at #loc604))) -> (tensor<64xui32>, tensor<64xui32>) {
    %c = stablehlo.constant dense<1> : tensor<i32> loc(#loc)
    %c_0 = stablehlo.constant dense<5> : tensor<i32> loc(#loc)
    %c_1 = stablehlo.constant dense<0> : tensor<i32> loc(#loc)
    %c_2 = stablehlo.constant dense<466688986> : tensor<ui32> loc(#loc484)
    %c_3 = stablehlo.constant dense<[13, 15, 26, 6]> : tensor<4xui32> loc(#loc484)
    %c_4 = stablehlo.constant dense<[17, 29, 16, 24]> : tensor<4xui32> loc(#loc484)
    %0 = stablehlo.xor %arg0, %arg1 : tensor<ui32> loc(#loc944)
    %1 = stablehlo.xor %0, %c_2 : tensor<ui32> loc(#loc944)
    %2 = stablehlo.broadcast_in_dim %arg0, dims = [] : (tensor<ui32>) -> tensor<64xui32> loc(#loc945)
    %3 = stablehlo.add %arg2, %2 : tensor<64xui32> loc(#loc945)
    %4 = stablehlo.broadcast_in_dim %arg1, dims = [] : (tensor<ui32>) -> tensor<64xui32> loc(#loc945)
    %5 = stablehlo.add %arg3, %4 : tensor<64xui32> loc(#loc945)
    %6:9 = stablehlo.while(%iterArg = %c_1, %iterArg_5 = %c_1, %iterArg_6 = %3, %iterArg_7 = %5, %iterArg_8 = %arg1, %iterArg_9 = %1, %iterArg_10 = %arg0, %iterArg_11 = %c_3, %iterArg_12 = %c_4) : tensor<i32>, tensor<i32>, tensor<64xui32>, tensor<64xui32>, tensor<ui32>, tensor<ui32>, tensor<ui32>, tensor<4xui32>, tensor<4xui32>
    cond {
      %7 = stablehlo.compare LT, %iterArg, %c_0, SIGNED : (tensor<i32>, tensor<i32>) -> tensor<i1> loc(#loc1351)
      stablehlo.return %7 : tensor<i1> loc(#loc1151)
    } do {
      %7:8 = func.call @closed_call_12(%iterArg_5, %iterArg_6, %iterArg_7, %iterArg_8, %iterArg_9, %iterArg_10, %iterArg_11, %iterArg_12) : (tensor<i32>, tensor<64xui32>, tensor<64xui32>, tensor<ui32>, tensor<ui32>, tensor<ui32>, tensor<4xui32>, tensor<4xui32>) -> (tensor<i32>, tensor<64xui32>, tensor<64xui32>, tensor<ui32>, tensor<ui32>, tensor<ui32>, tensor<4xui32>, tensor<4xui32>) loc(#loc1352)
      %8 = stablehlo.add %iterArg, %c : tensor<i32> loc(#loc1353)
      stablehlo.return %8, %7#0, %7#1, %7#2, %7#3, %7#4, %7#5, %7#6, %7#7 : tensor<i32>, tensor<i32>, tensor<64xui32>, tensor<64xui32>, tensor<ui32>, tensor<ui32>, tensor<ui32>, tensor<4xui32>, tensor<4xui32> loc(#loc1151)
    } loc(#loc1151)
    return %6#2, %6#3 : tensor<64xui32>, tensor<64xui32> loc(#loc771)
  } loc(#loc771)
  func.func private @closed_call_12(%arg0: tensor<i32> loc(unknown), %arg1: tensor<64xui32> loc(unknown), %arg2: tensor<64xui32> loc(unknown), %arg3: tensor<ui32> loc(unknown), %arg4: tensor<ui32> loc(unknown), %arg5: tensor<ui32> loc(unknown), %arg6: tensor<4xui32> loc(unknown), %arg7: tensor<4xui32> loc(unknown)) -> (tensor<i32>, tensor<64xui32>, tensor<64xui32>, tensor<ui32>, tensor<ui32>, tensor<ui32>, tensor<4xui32>, tensor<4xui32>) {
    %c = stablehlo.constant dense<32> : tensor<ui32> loc(#loc)
    %c_0 = stablehlo.constant dense<1> : tensor<i32> loc(#loc)
    %0 = stablehlo.add %arg0, %c_0 : tensor<i32> loc(#loc120)
    %1 = stablehlo.slice %arg6 [0:1] : (tensor<4xui32>) -> tensor<1xui32> loc(#loc115)
    %2 = stablehlo.reshape %1 : (tensor<1xui32>) -> tensor<ui32> loc(#loc116)
    %3 = stablehlo.add %arg1, %arg2 : tensor<64xui32> loc(#loc120)
    %4 = stablehlo.broadcast_in_dim %2, dims = [] : (tensor<ui32>) -> tensor<64xui32> loc(#loc125)
    %5 = stablehlo.shift_left %arg2, %4 : tensor<64xui32> loc(#loc125)
    %6 = stablehlo.subtract %c, %2 : tensor<ui32> loc(#loc126)
    %7 = stablehlo.broadcast_in_dim %6, dims = [] : (tensor<ui32>) -> tensor<64xui32> loc(#loc127)
    %8 = stablehlo.shift_right_logical %arg2, %7 : tensor<64xui32> loc(#loc127)
    %9 = stablehlo.or %5, %8 : tensor<64xui32> loc(#loc128)
    %10 = stablehlo.xor %3, %9 : tensor<64xui32> loc(#loc119)
    %11 = stablehlo.slice %arg6 [1:2] : (tensor<4xui32>) -> tensor<1xui32> loc(#loc115)
    %12 = stablehlo.reshape %11 : (tensor<1xui32>) -> tensor<ui32> loc(#loc116)
    %13 = stablehlo.add %3, %10 : tensor<64xui32> loc(#loc120)
    %14 = stablehlo.broadcast_in_dim %12, dims = [] : (tensor<ui32>) -> tensor<64xui32> loc(#loc125)
    %15 = stablehlo.shift_left %10, %14 : tensor<64xui32> loc(#loc125)
    %16 = stablehlo.subtract %c, %12 : tensor<ui32> loc(#loc126)
    %17 = stablehlo.broadcast_in_dim %16, dims = [] : (tensor<ui32>) -> tensor<64xui32> loc(#loc127)
    %18 = stablehlo.shift_right_logical %10, %17 : tensor<64xui32> loc(#loc127)
    %19 = stablehlo.or %15, %18 : tensor<64xui32> loc(#loc128)
    %20 = stablehlo.xor %13, %19 : tensor<64xui32> loc(#loc119)
    %21 = stablehlo.slice %arg6 [2:3] : (tensor<4xui32>) -> tensor<1xui32> loc(#loc115)
    %22 = stablehlo.reshape %21 : (tensor<1xui32>) -> tensor<ui32> loc(#loc116)
    %23 = stablehlo.add %13, %20 : tensor<64xui32> loc(#loc120)
    %24 = stablehlo.broadcast_in_dim %22, dims = [] : (tensor<ui32>) -> tensor<64xui32> loc(#loc125)
    %25 = stablehlo.shift_left %20, %24 : tensor<64xui32> loc(#loc125)
    %26 = stablehlo.subtract %c, %22 : tensor<ui32> loc(#loc126)
    %27 = stablehlo.broadcast_in_dim %26, dims = [] : (tensor<ui32>) -> tensor<64xui32> loc(#loc127)
    %28 = stablehlo.shift_right_logical %20, %27 : tensor<64xui32> loc(#loc127)
    %29 = stablehlo.or %25, %28 : tensor<64xui32> loc(#loc128)
    %30 = stablehlo.xor %23, %29 : tensor<64xui32> loc(#loc119)
    %31 = stablehlo.slice %arg6 [3:4] : (tensor<4xui32>) -> tensor<1xui32> loc(#loc115)
    %32 = stablehlo.reshape %31 : (tensor<1xui32>) -> tensor<ui32> loc(#loc116)
    %33 = stablehlo.add %23, %30 : tensor<64xui32> loc(#loc120)
    %34 = stablehlo.broadcast_in_dim %32, dims = [] : (tensor<ui32>) -> tensor<64xui32> loc(#loc125)
    %35 = stablehlo.shift_left %30, %34 : tensor<64xui32> loc(#loc125)
    %36 = stablehlo.subtract %c, %32 : tensor<ui32> loc(#loc126)
    %37 = stablehlo.broadcast_in_dim %36, dims = [] : (tensor<ui32>) -> tensor<64xui32> loc(#loc127)
    %38 = stablehlo.shift_right_logical %30, %37 : tensor<64xui32> loc(#loc127)
    %39 = stablehlo.or %35, %38 : tensor<64xui32> loc(#loc128)
    %40 = stablehlo.xor %33, %39 : tensor<64xui32> loc(#loc119)
    %41 = stablehlo.broadcast_in_dim %arg3, dims = [] : (tensor<ui32>) -> tensor<64xui32> loc(#loc120)
    %42 = stablehlo.add %33, %41 : tensor<64xui32> loc(#loc120)
    %43 = stablehlo.broadcast_in_dim %arg4, dims = [] : (tensor<ui32>) -> tensor<64xui32> loc(#loc120)
    %44 = stablehlo.add %40, %43 : tensor<64xui32> loc(#loc120)
    %45 = stablehlo.add %arg0, %c_0 : tensor<i32> loc(#loc120)
    %46 = stablehlo.convert %45 : (tensor<i32>) -> tensor<ui32> loc(#loc129)
    %47 = stablehlo.broadcast_in_dim %46, dims = [] : (tensor<ui32>) -> tensor<64xui32> loc(#loc120)
    %48 = stablehlo.add %44, %47 : tensor<64xui32> loc(#loc120)
    return %0, %42, %48, %arg4, %arg5, %arg3, %arg7, %arg6 : tensor<i32>, tensor<64xui32>, tensor<64xui32>, tensor<ui32>, tensor<ui32>, tensor<ui32>, tensor<4xui32>, tensor<4xui32> loc(#loc)
  } loc(#loc1153)
  func.func private @_threefry_split_13(%arg0: tensor<64x2xui32> loc(unknown)) -> tensor<64x2x2xui32> {
    %c = stablehlo.constant dense<32> : tensor<ui64> loc(#loc114)
    %c_0 = stablehlo.constant dense<1> : tensor<ui64> loc(#loc114)
    %0 = stablehlo.slice %arg0 [0:64, 0:1] : (tensor<64x2xui32>) -> tensor<64x1xui32> loc(#loc115)
    %1 = stablehlo.reshape %0 : (tensor<64x1xui32>) -> tensor<64xui32> loc(#loc116)
    %2 = stablehlo.slice %arg0 [0:64, 1:2] : (tensor<64x2xui32>) -> tensor<64x1xui32> loc(#loc115)
    %3 = stablehlo.reshape %2 : (tensor<64x1xui32>) -> tensor<64xui32> loc(#loc116)
    %4 = stablehlo.iota dim = 0 : tensor<2xui64> loc(#loc114)
    %5 = stablehlo.broadcast_in_dim %c_0, dims = [] : (tensor<ui64>) -> tensor<2xui64> loc(#loc114)
    %6 = stablehlo.multiply %5, %4 : tensor<2xui64> loc(#loc114)
    %7 = stablehlo.broadcast_in_dim %c, dims = [] : (tensor<ui64>) -> tensor<2xui64> loc(#loc114)
    %8 = stablehlo.shift_right_logical %6, %7 : tensor<2xui64> loc(#loc114)
    %9 = stablehlo.convert %6 : (tensor<2xui64>) -> tensor<2xui32> loc(#loc114)
    %10 = stablehlo.convert %8 : (tensor<2xui64>) -> tensor<2xui32> loc(#loc114)
    %11 = stablehlo.broadcast_in_dim %10, dims = [1] : (tensor<2xui32>) -> tensor<1x2xui32> loc(#loc246)
    %12 = stablehlo.broadcast_in_dim %9, dims = [1] : (tensor<2xui32>) -> tensor<1x2xui32> loc(#loc246)
    %13 = stablehlo.broadcast_in_dim %1, dims = [0] : (tensor<64xui32>) -> tensor<64x1xui32> loc(#loc246)
    %14 = stablehlo.broadcast_in_dim %3, dims = [0] : (tensor<64xui32>) -> tensor<64x1xui32> loc(#loc246)
    %15:2 = call @threefry2x32_14(%13, %14, %11, %12) : (tensor<64x1xui32>, tensor<64x1xui32>, tensor<1x2xui32>, tensor<1x2xui32>) -> (tensor<64x2xui32>, tensor<64x2xui32>) loc(#loc)
    %16 = stablehlo.broadcast_in_dim %15#0, dims = [0, 1] : (tensor<64x2xui32>) -> tensor<64x2x1xui32> loc(#loc117)
    %17 = stablehlo.broadcast_in_dim %15#1, dims = [0, 1] : (tensor<64x2xui32>) -> tensor<64x2x1xui32> loc(#loc117)
    %18 = stablehlo.concatenate %16, %17, dim = 2 : (tensor<64x2x1xui32>, tensor<64x2x1xui32>) -> tensor<64x2x2xui32> loc(#loc117)
    return %18 : tensor<64x2x2xui32> loc(#loc)
  } loc(#loc1354)
  func.func private @threefry2x32_14(%arg0: tensor<64x1xui32> loc(unknown), %arg1: tensor<64x1xui32> loc(unknown), %arg2: tensor<1x2xui32> loc(unknown), %arg3: tensor<1x2xui32> loc(unknown)) -> (tensor<64x2xui32>, tensor<64x2xui32>) {
    %c = stablehlo.constant dense<1> : tensor<i32> loc(#loc)
    %c_0 = stablehlo.constant dense<5> : tensor<i32> loc(#loc)
    %c_1 = stablehlo.constant dense<0> : tensor<i32> loc(#loc)
    %c_2 = stablehlo.constant dense<466688986> : tensor<ui32> loc(#loc484)
    %c_3 = stablehlo.constant dense<[13, 15, 26, 6]> : tensor<4xui32> loc(#loc484)
    %c_4 = stablehlo.constant dense<[17, 29, 16, 24]> : tensor<4xui32> loc(#loc484)
    %0 = stablehlo.xor %arg0, %arg1 : tensor<64x1xui32> loc(#loc119)
    %1 = stablehlo.broadcast_in_dim %c_2, dims = [] : (tensor<ui32>) -> tensor<64x1xui32> loc(#loc119)
    %2 = stablehlo.xor %0, %1 : tensor<64x1xui32> loc(#loc119)
    %3 = stablehlo.broadcast_in_dim %arg2, dims = [0, 1] : (tensor<1x2xui32>) -> tensor<64x2xui32> loc(#loc120)
    %4 = stablehlo.broadcast_in_dim %arg0, dims = [0, 1] : (tensor<64x1xui32>) -> tensor<64x2xui32> loc(#loc120)
    %5 = stablehlo.add %3, %4 : tensor<64x2xui32> loc(#loc120)
    %6 = stablehlo.broadcast_in_dim %arg3, dims = [0, 1] : (tensor<1x2xui32>) -> tensor<64x2xui32> loc(#loc120)
    %7 = stablehlo.broadcast_in_dim %arg1, dims = [0, 1] : (tensor<64x1xui32>) -> tensor<64x2xui32> loc(#loc120)
    %8 = stablehlo.add %6, %7 : tensor<64x2xui32> loc(#loc120)
    %9:9 = stablehlo.while(%iterArg = %c_1, %iterArg_5 = %c_1, %iterArg_6 = %5, %iterArg_7 = %8, %iterArg_8 = %arg1, %iterArg_9 = %2, %iterArg_10 = %arg0, %iterArg_11 = %c_3, %iterArg_12 = %c_4) : tensor<i32>, tensor<i32>, tensor<64x2xui32>, tensor<64x2xui32>, tensor<64x1xui32>, tensor<64x1xui32>, tensor<64x1xui32>, tensor<4xui32>, tensor<4xui32>
    cond {
      %10 = stablehlo.compare LT, %iterArg, %c_0, SIGNED : (tensor<i32>, tensor<i32>) -> tensor<i1> loc(#loc122)
      stablehlo.return %10 : tensor<i1> loc(#loc121)
    } do {
      %10:8 = func.call @closed_call_15(%iterArg_5, %iterArg_6, %iterArg_7, %iterArg_8, %iterArg_9, %iterArg_10, %iterArg_11, %iterArg_12) : (tensor<i32>, tensor<64x2xui32>, tensor<64x2xui32>, tensor<64x1xui32>, tensor<64x1xui32>, tensor<64x1xui32>, tensor<4xui32>, tensor<4xui32>) -> (tensor<i32>, tensor<64x2xui32>, tensor<64x2xui32>, tensor<64x1xui32>, tensor<64x1xui32>, tensor<64x1xui32>, tensor<4xui32>, tensor<4xui32>) loc(#loc123)
      %11 = stablehlo.add %iterArg, %c : tensor<i32> loc(#loc124)
      stablehlo.return %11, %10#0, %10#1, %10#2, %10#3, %10#4, %10#5, %10#6, %10#7 : tensor<i32>, tensor<i32>, tensor<64x2xui32>, tensor<64x2xui32>, tensor<64x1xui32>, tensor<64x1xui32>, tensor<64x1xui32>, tensor<4xui32>, tensor<4xui32> loc(#loc121)
    } loc(#loc121)
    return %9#2, %9#3 : tensor<64x2xui32>, tensor<64x2xui32> loc(#loc)
  } loc(#loc)
  func.func private @closed_call_15(%arg0: tensor<i32> loc(unknown), %arg1: tensor<64x2xui32> loc(unknown), %arg2: tensor<64x2xui32> loc(unknown), %arg3: tensor<64x1xui32> loc(unknown), %arg4: tensor<64x1xui32> loc(unknown), %arg5: tensor<64x1xui32> loc(unknown), %arg6: tensor<4xui32> loc(unknown), %arg7: tensor<4xui32> loc(unknown)) -> (tensor<i32>, tensor<64x2xui32>, tensor<64x2xui32>, tensor<64x1xui32>, tensor<64x1xui32>, tensor<64x1xui32>, tensor<4xui32>, tensor<4xui32>) {
    %c = stablehlo.constant dense<32> : tensor<ui32> loc(#loc)
    %c_0 = stablehlo.constant dense<1> : tensor<i32> loc(#loc)
    %0 = stablehlo.add %arg0, %c_0 : tensor<i32> loc(#loc120)
    %1 = stablehlo.slice %arg6 [0:1] : (tensor<4xui32>) -> tensor<1xui32> loc(#loc115)
    %2 = stablehlo.reshape %1 : (tensor<1xui32>) -> tensor<ui32> loc(#loc116)
    %3 = stablehlo.add %arg1, %arg2 : tensor<64x2xui32> loc(#loc120)
    %4 = stablehlo.broadcast_in_dim %2, dims = [] : (tensor<ui32>) -> tensor<64x2xui32> loc(#loc125)
    %5 = stablehlo.shift_left %arg2, %4 : tensor<64x2xui32> loc(#loc125)
    %6 = stablehlo.subtract %c, %2 : tensor<ui32> loc(#loc126)
    %7 = stablehlo.broadcast_in_dim %6, dims = [] : (tensor<ui32>) -> tensor<64x2xui32> loc(#loc127)
    %8 = stablehlo.shift_right_logical %arg2, %7 : tensor<64x2xui32> loc(#loc127)
    %9 = stablehlo.or %5, %8 : tensor<64x2xui32> loc(#loc128)
    %10 = stablehlo.xor %3, %9 : tensor<64x2xui32> loc(#loc119)
    %11 = stablehlo.slice %arg6 [1:2] : (tensor<4xui32>) -> tensor<1xui32> loc(#loc115)
    %12 = stablehlo.reshape %11 : (tensor<1xui32>) -> tensor<ui32> loc(#loc116)
    %13 = stablehlo.add %3, %10 : tensor<64x2xui32> loc(#loc120)
    %14 = stablehlo.broadcast_in_dim %12, dims = [] : (tensor<ui32>) -> tensor<64x2xui32> loc(#loc125)
    %15 = stablehlo.shift_left %10, %14 : tensor<64x2xui32> loc(#loc125)
    %16 = stablehlo.subtract %c, %12 : tensor<ui32> loc(#loc126)
    %17 = stablehlo.broadcast_in_dim %16, dims = [] : (tensor<ui32>) -> tensor<64x2xui32> loc(#loc127)
    %18 = stablehlo.shift_right_logical %10, %17 : tensor<64x2xui32> loc(#loc127)
    %19 = stablehlo.or %15, %18 : tensor<64x2xui32> loc(#loc128)
    %20 = stablehlo.xor %13, %19 : tensor<64x2xui32> loc(#loc119)
    %21 = stablehlo.slice %arg6 [2:3] : (tensor<4xui32>) -> tensor<1xui32> loc(#loc115)
    %22 = stablehlo.reshape %21 : (tensor<1xui32>) -> tensor<ui32> loc(#loc116)
    %23 = stablehlo.add %13, %20 : tensor<64x2xui32> loc(#loc120)
    %24 = stablehlo.broadcast_in_dim %22, dims = [] : (tensor<ui32>) -> tensor<64x2xui32> loc(#loc125)
    %25 = stablehlo.shift_left %20, %24 : tensor<64x2xui32> loc(#loc125)
    %26 = stablehlo.subtract %c, %22 : tensor<ui32> loc(#loc126)
    %27 = stablehlo.broadcast_in_dim %26, dims = [] : (tensor<ui32>) -> tensor<64x2xui32> loc(#loc127)
    %28 = stablehlo.shift_right_logical %20, %27 : tensor<64x2xui32> loc(#loc127)
    %29 = stablehlo.or %25, %28 : tensor<64x2xui32> loc(#loc128)
    %30 = stablehlo.xor %23, %29 : tensor<64x2xui32> loc(#loc119)
    %31 = stablehlo.slice %arg6 [3:4] : (tensor<4xui32>) -> tensor<1xui32> loc(#loc115)
    %32 = stablehlo.reshape %31 : (tensor<1xui32>) -> tensor<ui32> loc(#loc116)
    %33 = stablehlo.add %23, %30 : tensor<64x2xui32> loc(#loc120)
    %34 = stablehlo.broadcast_in_dim %32, dims = [] : (tensor<ui32>) -> tensor<64x2xui32> loc(#loc125)
    %35 = stablehlo.shift_left %30, %34 : tensor<64x2xui32> loc(#loc125)
    %36 = stablehlo.subtract %c, %32 : tensor<ui32> loc(#loc126)
    %37 = stablehlo.broadcast_in_dim %36, dims = [] : (tensor<ui32>) -> tensor<64x2xui32> loc(#loc127)
    %38 = stablehlo.shift_right_logical %30, %37 : tensor<64x2xui32> loc(#loc127)
    %39 = stablehlo.or %35, %38 : tensor<64x2xui32> loc(#loc128)
    %40 = stablehlo.xor %33, %39 : tensor<64x2xui32> loc(#loc119)
    %41 = stablehlo.broadcast_in_dim %arg3, dims = [0, 1] : (tensor<64x1xui32>) -> tensor<64x2xui32> loc(#loc120)
    %42 = stablehlo.add %33, %41 : tensor<64x2xui32> loc(#loc120)
    %43 = stablehlo.broadcast_in_dim %arg4, dims = [0, 1] : (tensor<64x1xui32>) -> tensor<64x2xui32> loc(#loc120)
    %44 = stablehlo.add %40, %43 : tensor<64x2xui32> loc(#loc120)
    %45 = stablehlo.add %arg0, %c_0 : tensor<i32> loc(#loc120)
    %46 = stablehlo.convert %45 : (tensor<i32>) -> tensor<ui32> loc(#loc129)
    %47 = stablehlo.broadcast_in_dim %46, dims = [] : (tensor<ui32>) -> tensor<64x2xui32> loc(#loc120)
    %48 = stablehlo.add %44, %47 : tensor<64x2xui32> loc(#loc120)
    return %0, %42, %48, %arg4, %arg5, %arg3, %arg7, %arg6 : tensor<i32>, tensor<64x2xui32>, tensor<64x2xui32>, tensor<64x1xui32>, tensor<64x1xui32>, tensor<64x1xui32>, tensor<4xui32>, tensor<4xui32> loc(#loc)
  } loc(#loc485)
  func.func private @_where_16(%arg0: tensor<5xi1> loc(unknown), %arg1: tensor<i32> loc(unknown), %arg2: tensor<i32> loc(unknown)) -> tensor<5xi32> {
    %0 = stablehlo.broadcast_in_dim %arg1, dims = [] : (tensor<i32>) -> tensor<5xi32> loc(#loc246)
    %1 = stablehlo.broadcast_in_dim %arg2, dims = [] : (tensor<i32>) -> tensor<5xi32> loc(#loc246)
    %2 = stablehlo.select %arg0, %0, %1 : tensor<5xi1>, tensor<5xi32> loc(#loc256)
    return %2 : tensor<5xi32> loc(#loc)
  } loc(#loc2032)
  func.func private @_where_17(%arg0: tensor<5xi32> loc(unknown), %arg1: tensor<5xi32> loc(unknown), %arg2: tensor<5xi32> loc(unknown)) -> tensor<5xi32> {
    %c = stablehlo.constant dense<0> : tensor<i32> loc(#loc)
    %0 = stablehlo.broadcast_in_dim %c, dims = [] : (tensor<i32>) -> tensor<5xi32> loc(#loc270)
    %1 = stablehlo.compare NE, %arg0, %0, SIGNED : (tensor<5xi32>, tensor<5xi32>) -> tensor<5xi1> loc(#loc270)
    %2 = stablehlo.select %1, %arg1, %arg2 : tensor<5xi1>, tensor<5xi32> loc(#loc256)
    return %2 : tensor<5xi32> loc(#loc)
  } loc(#loc2032)
  func.func private @searchsorted(%arg0: tensor<16xi32> loc(unknown), %arg1: tensor<64xi32> loc(unknown)) -> tensor<64xi32> {
    %0 = call @_searchsorted_scan_impl(%arg0, %arg1) : (tensor<16xi32>, tensor<64xi32>) -> tensor<64xi32> loc(#loc271)
    return %0 : tensor<64xi32> loc(#loc)
  } loc(#loc2033)
  func.func private @_searchsorted_scan_impl(%arg0: tensor<16xi32> loc(unknown), %arg1: tensor<64xi32> loc(unknown)) -> tensor<64xi32> {
    %c = stablehlo.constant dense<1> : tensor<i32> loc(#loc)
    %c_0 = stablehlo.constant dense<5> : tensor<i32> loc(#loc)
    %c_1 = stablehlo.constant dense<0> : tensor<i32> loc(#loc272)
    %c_2 = stablehlo.constant dense<16> : tensor<ui32> loc(#loc)
    %c_3 = stablehlo.constant dense<0> : tensor<ui32> loc(#loc)
    %0 = stablehlo.broadcast_in_dim %c_3, dims = [] : (tensor<ui32>) -> tensor<64xui32> loc(#loc246)
    %1 = stablehlo.broadcast_in_dim %c_2, dims = [] : (tensor<ui32>) -> tensor<64xui32> loc(#loc246)
    %2:5 = stablehlo.while(%iterArg = %arg0, %iterArg_4 = %arg1, %iterArg_5 = %c_1, %iterArg_6 = %0, %iterArg_7 = %1) : tensor<16xi32>, tensor<64xi32>, tensor<i32>, tensor<64xui32>, tensor<64xui32>
    cond {
      %4 = stablehlo.compare LT, %iterArg_5, %c_0, SIGNED : (tensor<i32>, tensor<i32>) -> tensor<i1> loc(#loc122)
      stablehlo.return %4 : tensor<i1> loc(#loc121)
    } do {
      %4:2 = func.call @closed_call_18(%iterArg, %iterArg_4, %iterArg_6, %iterArg_7) : (tensor<16xi32>, tensor<64xi32>, tensor<64xui32>, tensor<64xui32>) -> (tensor<64xui32>, tensor<64xui32>) loc(#loc123)
      %5 = stablehlo.add %iterArg_5, %c : tensor<i32> loc(#loc124)
      stablehlo.return %iterArg, %iterArg_4, %5, %4#0, %4#1 : tensor<16xi32>, tensor<64xi32>, tensor<i32>, tensor<64xui32>, tensor<64xui32> loc(#loc121)
    } loc(#loc121)
    %3 = stablehlo.convert %2#4 : (tensor<64xui32>) -> tensor<64xi32> loc(#loc129)
    return %3 : tensor<64xi32> loc(#loc)
  } loc(#loc600)
  func.func private @closed_call_18(%arg0: tensor<16xi32> loc(unknown), %arg1: tensor<64xi32> loc(unknown), %arg2: tensor<64xui32> loc(unknown), %arg3: tensor<64xui32> loc(unknown)) -> (tensor<64xui32>, tensor<64xui32>) {
    %c = stablehlo.constant dense<2> : tensor<i32> loc(#loc)
    %0 = stablehlo.subtract %arg3, %arg2 : tensor<64xui32> loc(#loc126)
    %1 = call @floor_divide(%0, %c) : (tensor<64xui32>, tensor<i32>) -> tensor<64xui32> loc(#loc273)
    %2 = stablehlo.add %arg2, %1 : tensor<64xui32> loc(#loc120)
    %3 = stablehlo.broadcast_in_dim %2, dims = [0] : (tensor<64xui32>) -> tensor<64x1xui32> loc(#loc246)
    %4 = "stablehlo.gather"(%arg0, %3) <{dimension_numbers = #stablehlo.gather<offset_dims = [1], start_index_map = [0], index_vector_dim = 1>, slice_sizes = array<i64: 1>}> : (tensor<16xi32>, tensor<64x1xui32>) -> tensor<64x1xi32> loc(#loc249)
    %5 = stablehlo.reshape %4 : (tensor<64x1xi32>) -> tensor<64xi32> loc(#loc116)
    %6 = stablehlo.compare LE, %arg1, %5, SIGNED : (tensor<64xi32>, tensor<64xi32>) -> tensor<64xi1> loc(#loc274)
    %7 = stablehlo.select %6, %arg2, %2 : tensor<64xi1>, tensor<64xui32> loc(#loc256)
    %8 = stablehlo.select %6, %2, %arg3 : tensor<64xi1>, tensor<64xui32> loc(#loc256)
    return %7, %8 : tensor<64xui32>, tensor<64xui32> loc(#loc)
  } loc(#loc485)
  func.func private @floor_divide(%arg0: tensor<64xui32> loc(unknown), %arg1: tensor<i32> loc(unknown)) -> tensor<64xui32> {
    %0 = stablehlo.convert %arg1 : (tensor<i32>) -> tensor<ui32> loc(#loc129)
    %1 = stablehlo.broadcast_in_dim %0, dims = [] : (tensor<ui32>) -> tensor<64xui32> loc(#loc275)
    %2 = stablehlo.divide %arg0, %1 : tensor<64xui32> loc(#loc275)
    return %2 : tensor<64xui32> loc(#loc)
  } loc(#loc600)
  func.func private @clip(%arg0: tensor<64xi32> loc(unknown), %arg1: tensor<i32> loc(unknown), %arg2: tensor<i32> loc(unknown)) -> tensor<64xi32> {
    %0 = stablehlo.convert %arg1 : tensor<i32> loc(#loc129)
    %1 = stablehlo.broadcast_in_dim %0, dims = [] : (tensor<i32>) -> tensor<64xi32> loc(#loc245)
    %2 = stablehlo.maximum %1, %arg0 : tensor<64xi32> loc(#loc245)
    %3 = stablehlo.convert %arg2 : tensor<i32> loc(#loc129)
    %4 = stablehlo.broadcast_in_dim %3, dims = [] : (tensor<i32>) -> tensor<64xi32> loc(#loc276)
    %5 = stablehlo.minimum %4, %2 : tensor<64xi32> loc(#loc276)
    return %5 : tensor<64xi32> loc(#loc)
  } loc(#loc2034)
  func.func private @dynamic_index_in_dim_19(%arg0: tensor<5x64xi32> loc(unknown), %arg1: tensor<i32> loc(unknown)) -> tensor<64xi32> {
    %c = stablehlo.constant dense<0> : tensor<i32> loc(#loc)
    %0 = stablehlo.dynamic_slice %arg0, %arg1, %c, sizes = [1, 64] : (tensor<5x64xi32>, tensor<i32>, tensor<i32>) -> tensor<1x64xi32> loc(#loc1807)
    %1 = stablehlo.reshape %0 : (tensor<1x64xi32>) -> tensor<64xi32> loc(#loc1808)
    return %1 : tensor<64xi32> loc(#loc)
  } loc(#loc2035)
…
#loc1272 = loc(callsite(#loc738 at #loc1111))
#loc1273 = loc(callsite(#loc881 at #loc1111))
#loc1274 = loc(callsite(#loc739 at #loc1112))
#loc1275 = loc(callsite(#loc740 at #loc1113))
#loc1276 = loc(callsite(#loc883 at #loc1113))
#loc1277 = loc("jit(train_step)/reduce_sum"(#loc1114))
#loc1278 = loc("jit(train_step)/reduce_sum"(#loc1115))
#loc1279 = loc("jit(train_step)/max"(#loc1116))
#loc1280 = loc("jit(train_step)/div"(#loc1117))
#loc1281 = loc("while/cond/lt"(#loc1120))
#loc1282 = loc("while/body/closed_call"(#loc1120))
#loc1283 = loc("while/body/add"(#loc1120))
#loc1284 = loc(callsite(#loc438 at #loc1105))
#loc1285 = loc(callsite(#loc442 at #loc1105))
#loc1286 = loc(callsite(#loc444 at #loc1105))
#loc1287 = loc(callsite(#loc453 at #loc1105))
#loc1288 = loc(callsite(#loc454 at #loc1105))
#loc1289 = loc(callsite(#loc455 at #loc1105))
#loc1290 = loc(callsite(#loc456 at #loc1105))
#loc1291 = loc(callsite(#loc457 at #loc1105))
#loc1292 = loc(callsite(#loc458 at #loc1105))
#loc1293 = loc(callsite(#loc459 at #loc1105))
#loc1294 = loc(callsite(#loc460 at #loc1105))
#loc1295 = loc(callsite(#loc461 at #loc1105))
#loc1296 = loc(callsite(#loc462 at #loc1105))
#loc1297 = loc(callsite(#loc463 at #loc1105))
#loc1298 = loc(callsite(#loc490 at #loc1132))
#loc1300 = loc(callsite(#loc504 at #loc1133))
#loc1301 = loc("reduce_sum"(#loc1134))
#loc1302 = loc("vmap()/vmap(jit(_threefry_split))"(#loc1137))
#loc1303 = loc("vmap()/lt"(#loc1140))
#loc1304 = loc("vmap()/add"(#loc1140))
#loc1305 = loc("vmap()/select_n"(#loc1140))
#loc1306 = loc("vmap()/broadcast_in_dim"(#loc1140))
#loc1307 = loc("vmap()/concatenate"(#loc1140))
#loc1308 = loc("vmap()/gather"(#loc1140))
#loc1309 = loc("vmap()/squeeze"(#loc1140))
#loc1310 = loc(callsite(#loc530 at #loc1141))
#loc1311 = loc(callsite(#loc536 at #loc1141))
#loc1312 = loc(callsite(#loc540 at #loc1141))
#loc1313 = loc(callsite(#loc541 at #loc1141))
#loc1314 = loc(callsite(#loc543 at #loc1141))
#loc1315 = loc(callsite(#loc552 at #loc1141))
#loc1316 = loc(callsite(#loc553 at #loc1141))
#loc1317 = loc(callsite(#loc554 at #loc1141))
#loc1318 = loc(callsite(#loc555 at #loc1141))
#loc1319 = loc(callsite(#loc556 at #loc1141))
#loc1320 = loc(callsite(#loc557 at #loc1141))
#loc1321 = loc(callsite(#loc558 at #loc1141))
#loc1322 = loc(callsite(#loc559 at #loc1141))
#loc1323 = loc(callsite(#loc560 at #loc1141))
#loc1324 = loc(callsite(#loc561 at #loc1141))
#loc1325 = loc(callsite(#loc562 at #loc1141))
#loc1326 = loc(callsite(#loc563 at #loc1141))
#loc1327 = loc(callsite(#loc564 at #loc1141))
#loc1328 = loc(callsite(#loc565 at #loc1141))
#loc1329 = loc(callsite(#loc566 at #loc1141))
#loc1330 = loc(callsite(#loc567 at #loc1141))
#loc1331 = loc(callsite(#loc568 at #loc1141))
#loc1332 = loc(callsite(#loc569 at #loc1141))
#loc1333 = loc(callsite(#loc570 at #loc1141))
#loc1334 = loc(callsite(#loc571 at #loc1141))
#loc1335 = loc(callsite(#loc572 at #loc1141))
#loc1336 = loc(callsite(#loc573 at #loc1141))
#loc1337 = loc(callsite(#loc574 at #loc1141))
#loc1338 = loc(callsite(#loc575 at #loc1141))
#loc1339 = loc(callsite(#loc577 at #loc1141))
#loc1340 = loc(callsite(#loc580 at #loc1142))
#loc1341 = loc(callsite(#loc582 at #loc1143))
#loc1342 = loc(callsite(#loc585 at #loc1143))
#loc1343 = loc(callsite(#loc586 at #loc1143))
#loc1344 = loc(callsite(#loc587 at #loc1143))
#loc1345 = loc(callsite(#loc580 at #loc1144))
#loc1346 = loc("vmap()/or"(#loc1145))
#loc1347 = loc("vmap()/broadcast_in_dim"(#loc1146))
#loc1348 = loc("vmap()/select_n"(#loc1146))
#loc1349 = loc("vmap()/broadcast_in_dim"(#loc1147))
#loc1350 = loc("vmap()/select_n"(#loc1147))
#loc1351 = loc("while/cond/lt"(#loc1152))
#loc1352 = loc("while/body/closed_call"(#loc1152))
#loc1353 = loc("while/body/add"(#loc1152))
#loc1354 = loc("jit:"(#loc1154))
#loc1355 = loc("jit:"(#loc1156))
#loc1356 = loc("closed_call:"(#loc1159))
#loc1357 = loc("while/cond/lt"(#loc1162))
#loc1358 = loc("while/body/closed_call"(#loc1162))
#loc1359 = loc("while/body/add"(#loc1162))
#loc1360 = loc("jvp(MaskedActorCriticNetwork)/obs/dot_general"(#loc1173))
#loc1361 = loc("jvp(MaskedActorCriticNetwork)/obs/reshape"(#loc1174))
#loc1362 = loc("jvp(MaskedActorCriticNetwork)/obs/add"(#loc1175))
#loc1363 = loc(callsite(#loc439 at #loc1180))
#loc1364 = loc("jvp(MaskedActorCriticNetwork)/actor/dot_general"(#loc1181))
#loc1365 = loc("jvp(MaskedActorCriticNetwork)/critic/dot_general"(#loc1183))
#loc1366 = loc("jvp(MaskedActorCriticNetwork)/critic/reshape"(#loc1184))
#loc1367 = loc("jvp(MaskedActorCriticNetwork)/critic/add"(#loc1185))
#loc1368 = loc(callsite(#loc491 at #loc1186))
#loc1369 = loc("jvp(jit(_one_hot))"(#loc1187))
#loc1370 = loc("jvp()/lt"(#loc1188))
#loc1371 = loc("jvp()/gt"(#loc1189))
#loc1372 = loc("jvp()/or"(#loc1190))
#loc1373 = loc(callsite(#loc642 at #loc1191))
#loc1374 = loc("jvp()/reduce_sum"(#loc1192))
#loc1375 = loc("jvp(jit(_where))"(#loc1193))
#loc1376 = loc("jvp()/reduce_sum"(#loc1194))
#loc1377 = loc("jvp(jit(log_softmax))"(#loc1195))
#loc1378 = loc(callsite(#loc647 at #loc1196))
#loc1379 = loc(callsite(#loc649 at #loc1196))
#loc1380 = loc(callsite(#loc650 at #loc1196))
#loc1381 = loc("transpose(jvp())/neg"(#loc1199))
#loc1382 = loc("transpose(jvp())/broadcast_in_dim"(#loc1200))
#loc1383 = loc(callsite(#loc677 at #loc1196))
#loc1384 = loc("transpose(jvp(jit(log_softmax)))"(#loc1195))
#loc1385 = loc("transpose(jvp(jit(_where)))"(#loc1193))
#loc1386 = loc("transpose(jvp())/broadcast_in_dim"(#loc1192))
#loc1387 = loc(callsite(#loc679 at #loc1191))
#loc1388 = loc("transpose(jvp(MaskedActorCriticNetwork))/critic/reduce_sum"(#loc1185))
#loc1389 = loc("transpose(jvp(MaskedActorCriticNetwork))/critic/reshape"(#loc1185))
#loc1390 = loc("transpose(jvp(MaskedActorCriticNetwork))/critic/reshape"(#loc1184))
#loc1391 = loc("transpose(jvp(MaskedActorCriticNetwork))/critic/dot_general"(#loc1183))
#loc1392 = loc("transpose(jvp(MaskedActorCriticNetwork))/critic/transpose"(#loc1183))
#loc1393 = loc("transpose(jvp(MaskedActorCriticNetwork))/actor/dot_general"(#loc1181))
#loc1394 = loc("transpose(jvp(MaskedActorCriticNetwork))/actor/transpose"(#loc1181))
#loc1395 = loc("transpose(jvp(MaskedActorCriticNetwork))/actor/add_any"(#loc1181))
#loc1396 = loc("transpose(jvp(MaskedActorCriticNetwork))/obs/reduce_sum"(#loc1175))
#loc1397 = loc("transpose(jvp(MaskedActorCriticNetwork))/obs/reshape"(#loc1175))
#loc1398 = loc("transpose(jvp(MaskedActorCriticNetwork))/obs/reshape"(#loc1174))
#loc1399 = loc("transpose(jvp(MaskedActorCriticNetwork))/obs/dot_general"(#loc1173))
#loc1400 = loc("transpose(jvp(MaskedActorCriticNetwork))/obs/transpose"(#loc1173))
#loc1401 = loc(callsite(#loc684 at #loc1205))
#loc1402 = loc(callsite(#loc693 at #loc1205))
#loc1403 = loc(callsite(#loc695 at #loc1205))
#loc1404 = loc("lt"(#loc1206))
#loc1405 = loc(callsite(#loc697 at #loc1207))
#loc1406 = loc(callsite(#loc699 at #loc1207))
#loc1407 = loc(callsite(#loc700 at #loc1207))
#loc1408 = loc(callsite(#loc703 at #loc1208))
#loc1409 = loc(callsite(#loc709 at #loc1208))
#loc1410 = loc(callsite(#loc714 at #loc1208))
#loc1411 = loc(callsite(#loc717 at #loc1208))
#loc1412 = loc(callsite(#loc718 at #loc1208))
#loc1413 = loc(callsite(#loc720 at #loc1208))
#loc1414 = loc(callsite(#loc725 at #loc1208))
#loc1415 = loc("jit:"(#loc1210))
#loc1416 = loc("jit:"(#loc1211))
#loc1417 = loc("jvp()/jit"(#loc1193))
#loc1418 = loc("jvp()/jit"(#loc1195))
#loc1419 = loc("transpose(jvp())/jit"(#loc1195))
#loc1420 = loc("transpose(jvp())/jit"(#loc1193))
#loc1421 = loc("jit:"(#loc1214))
#loc1422 = loc("while/cond/lt"(#loc1217))
#loc1423 = loc("while/body/closed_call"(#loc1217))
#loc1424 = loc("while/body/add"(#loc1217))
#loc1425 = loc("broadcast_in_dim"(#loc1222))
#loc1426 = loc("MaskedActorCriticNetwork/obs/dot_general"(#loc1224))
#loc1427 = loc("MaskedActorCriticNetwork/obs/reshape"(#loc1225))
#loc1428 = loc("MaskedActorCriticNetwork/obs/add"(#loc1226))
#loc1429 = loc(callsite(#loc439 at #loc1230))
#loc1430 = loc("MaskedActorCriticNetwork/actor/dot_general"(#loc1231))
#loc1431 = loc(callsite(#loc491 at #loc1233))
#loc1432 = loc(callsite(#loc497 at #loc1234))
#loc1433 = loc("reshape"(#loc1235))
#loc1434 = loc("jit(_threefry_split)"(#loc1237))
#loc1435 = loc(callsite(#loc926 at #loc1238))
#loc1436 = loc("vmap()/slice"(#loc1239))
#loc1437 = loc("vmap()/squeeze"(#loc1239))
#loc1438 = loc(callsite(#loc527 at #loc1240))
#loc1439 = loc(callsite(#loc531 at #loc1240))
#loc1440 = loc(callsite(#loc581 at #loc1240))
#loc1441 = loc(callsite(#loc583 at #loc1241))
#loc1442 = loc(callsite(#loc588 at #loc1241))
#loc1443 = loc(callsite(#loc428 at #loc1242))
#loc1444 = loc(callsite(#loc590 at #loc1243))
#loc1445 = loc(callsite(#loc590 at #loc1244))
#loc1446 = loc("jit(train_step)/jit(_threefry_split)"(#loc1249))
#loc1447 = loc("jit(train_step)/jit(_threefry_split)"(#loc1252))
#loc1448 = loc("jit(train_step)/broadcast_in_dim"(#loc1253))
#loc1449 = loc("jit(train_step)/while"(#loc1253))
#loc1450 = loc("jit(train_step)/while/cond/lt"(#loc1254))
#loc1451 = loc("jit(train_step)/while/body/jit(dynamic_index_in_dim)"(#loc1254))
#loc1452 = loc("jit(train_step)/while/body/closed_call"(#loc1254))
#loc1453 = loc("jit(train_step)/while/body/jit(dynamic_update_index_in_dim)"(#loc1254))
#loc1454 = loc("jit(train_step)/while/body/add"(#loc1254))
#loc1455 = loc(callsite(#loc425 at #loc1255))
#loc1456 = loc("jit(train_step)/or"(#loc1256))
#loc1457 = loc(callsite(#loc430 at #loc1257))
#loc1458 = loc(callsite(#loc433 at #loc1257))
#loc1459 = loc(callsite(#loc434 at #loc1257))
#loc1460 = loc("jit(train_step)/MaskedActorCriticNetwork/jit(relu)"(#loc1258))
#loc1461 = loc("jit(train_step)/MaskedActorCriticNetwork/jit(_one_hot)"(#loc1259))
#loc1462 = loc("jit(train_step)/MaskedActorCriticNetwork/concatenate"(#loc1260))
#loc1463 = loc(callsite(#loc440 at #loc1261))
#loc1464 = loc(callsite(#loc447 at #loc1262))
#loc1465 = loc(callsite(#loc430 at #loc1263))
#loc1466 = loc("jit(train_step)/MaskedActorCriticNetwork/jit(_where)"(#loc1264))
#loc1467 = loc(callsite(#loc430 at #loc1265))
#loc1468 = loc(callsite(#loc433 at #loc1265))
#loc1469 = loc(callsite(#loc434 at #loc1265))
#loc1470 = loc("jit(train_step)/squeeze"(#loc1266))
#loc1471 = loc("jit(train_step)/squeeze"(#loc1267))
#loc1472 = loc("jit(train_step)/broadcast_in_dim"(#loc1268))
#loc1473 = loc(callsite(#loc880 at #loc1269))
#loc1474 = loc(callsite(#loc1109 at #loc1269))
#loc1475 = loc("jit(train_step)/add"(#loc1270))
#loc1476 = loc("jit(train_step)/jit(_threefry_split)"(#loc1271))
#loc1477 = loc("jit(train_step)/while"(#loc1272))
#loc1478 = loc("jit(train_step)/while/cond/lt"(#loc1273))
#loc1479 = loc("jit(train_step)/while/body/jit(dynamic_index_in_dim)"(#loc1273))
#loc1480 = loc("jit(train_step)/while/body/closed_call"(#loc1273))
#loc1481 = loc("jit(train_step)/while/body/add"(#loc1273))
#loc1482 = loc("jit(train_step)/jit(_threefry_split)"(#loc1274))
#loc1483 = loc("jit(train_step)/broadcast_in_dim"(#loc1275))
#loc1484 = loc("jit(train_step)/while"(#loc1275))
#loc1485 = loc("jit(train_step)/while/cond/lt"(#loc1276))
#loc1486 = loc("jit(train_step)/while/body/jit(dynamic_index_in_dim)"(#loc1276))
#loc1487 = loc("jit(train_step)/while/body/closed_call"(#loc1276))
#loc1488 = loc("jit(train_step)/while/body/jit(dynamic_update_index_in_dim)"(#loc1276))
#loc1489 = loc("jit(train_step)/while/body/add"(#loc1276))
#loc1490 = loc(callsite(#loc430 at #loc1284))
#loc1491 = loc(callsite(#loc433 at #loc1284))
#loc1492 = loc(callsite(#loc434 at #loc1284))
#loc1493 = loc("MaskedActorCriticNetwork/torso/blocks_0/jit(relu)"(#loc1285))
#loc1494 = loc(callsite(#loc443 at #loc1286))
#loc1495 = loc(callsite(#loc445 at #loc1262))
#loc1496 = loc(callsite(#loc449 at #loc1262))
#loc1497 = loc(callsite(#loc450 at #loc1262))
#loc1498 = loc(callsite(#loc451 at #loc1262))
#loc1499 = loc(callsite(#loc452 at #loc1287))
#loc1500 = loc("MaskedActorCriticNetwork/torso/blocks_1/convert_element_type"(#loc1288))
#loc1501 = loc("MaskedActorCriticNetwork/torso/blocks_1/mul"(#loc1288))
#loc1502 = loc("MaskedActorCriticNetwork/torso/blocks_1/broadcast_in_dim"(#loc1289))
#loc1503 = loc("MaskedActorCriticNetwork/torso/blocks_1/mul"(#loc1290))
#loc1504 = loc("MaskedActorCriticNetwork/torso/blocks_1/add"(#loc1291))
#loc1505 = loc("MaskedActorCriticNetwork/torso/blocks_1/convert_element_type"(#loc1292))
#loc1506 = loc("MaskedActorCriticNetwork/torso/blocks_1/sub"(#loc1292))
#loc1507 = loc("MaskedActorCriticNetwork/torso/blocks_1/convert_element_type"(#loc1293))
#loc1508 = loc("MaskedActorCriticNetwork/torso/blocks_1/mul"(#loc1293))
#loc1509 = loc("MaskedActorCriticNetwork/torso/blocks_1/broadcast_in_dim"(#loc1294))
#loc1510 = loc("MaskedActorCriticNetwork/torso/blocks_1/mul"(#loc1295))
#loc1511 = loc("MaskedActorCriticNetwork/torso/blocks_1/add"(#loc1296))
#loc1512 = loc("MaskedActorCriticNetwork/torso/blocks_1/jit(_take)"(#loc1297))
#loc1513 = loc("jit(log_softmax)"(#loc1298))
#loc1514 = loc(callsite(#loc495 at #loc1299))
#loc1515 = loc(callsite(#loc500 at #loc1299))
#loc1516 = loc(callsite(#loc501 at #loc1299))
#loc1518 = loc(callsite(#loc503 at #loc1300))
#loc1519 = loc(callsite(#loc505 at #loc1300))
#loc1520 = loc(callsite(#loc506 at #loc1300))
#loc1521 = loc(callsite(#loc507 at #loc1300))
#loc1522 = loc(callsite(#loc509 at #loc1300))
#loc1523 = loc(callsite(#loc512 at #loc1300))
#loc1524 = loc(callsite(#loc513 at #loc1300))
#loc1525 = loc(callsite(#loc529 at #loc1310))
#loc1526 = loc(callsite(#loc532 at #loc1310))
#loc1527 = loc(callsite(#loc533 at #loc1310))
#loc1528 = loc(callsite(#loc534 at #loc1310))
#loc1529 = loc(callsite(#loc535 at #loc1311))
#loc1530 = loc(callsite(#loc537 at #loc1311))
#loc1531 = loc(callsite(#loc538 at #loc1311))
#loc1532 = loc(callsite(#loc539 at #loc1311))
#loc1533 = loc("vmap()/eq"(#loc1312))
#loc1534 = loc("vmap()/reduce_and"(#loc1313))
#loc1535 = loc(callsite(#loc542 at #loc1314))
#loc1536 = loc(callsite(#loc544 at #loc1314))
#loc1537 = loc(callsite(#loc545 at #loc1314))
#loc1538 = loc(callsite(#loc546 at #loc1314))
#loc1539 = loc(callsite(#loc547 at #loc1314))
#loc1540 = loc(callsite(#loc549 at #loc1314))
#loc1541 = loc(callsite(#loc550 at #loc1314))
#loc1542 = loc(callsite(#loc551 at #loc1314))
#loc1543 = loc("vmap(jit(_where))"(#loc1315))
#loc1544 = loc("vmap()/convert_element_type"(#loc1316))
#loc1545 = loc("vmap()/add"(#loc1317))
#loc1546 = loc("vmap()/convert_element_type"(#loc1318))
#loc1547 = loc("vmap()/eq"(#loc1319))
#loc1548 = loc("vmap()/convert_element_type"(#loc1320))
#loc1549 = loc("vmap()/reduce_sum"(#loc1320))
#loc1550 = loc("vmap()/convert_element_type"(#loc1321))
#loc1551 = loc("vmap()/mul"(#loc1322))
#loc1552 = loc("vmap()/add"(#loc1323))
#loc1553 = loc("vmap()/eq"(#loc1324))
#loc1554 = loc("vmap()/convert_element_type"(#loc1325))
#loc1555 = loc("vmap()/reduce_sum"(#loc1325))
#loc1556 = loc("vmap()/convert_element_type"(#loc1326))
#loc1557 = loc("vmap()/mul"(#loc1327))
#loc1558 = loc("vmap()/add"(#loc1328))
#loc1559 = loc("vmap()/not"(#loc1329))
#loc1560 = loc("vmap()/convert_element_type"(#loc1330))
#loc1561 = loc("vmap()/mul"(#loc1331))
#loc1562 = loc("vmap()/sub"(#loc1332))
#loc1563 = loc("vmap()/ge"(#loc1333))
#loc1564 = loc("vmap()/or"(#loc1334))
#loc1565 = loc("vmap()/convert_element_type"(#loc1335))
#loc1566 = loc("vmap()/convert_element_type"(#loc1336))
#loc1567 = loc("vmap()/not"(#loc1337))
#loc1568 = loc("vmap()/convert_element_type"(#loc1338))
#loc1569 = loc(callsite(#loc576 at #loc1339))
#loc1570 = loc(callsite(#loc578 at #loc1339))
#loc1571 = loc(callsite(#loc579 at #loc1339))
#loc1572 = loc("vmap()/broadcast_in_dim"(#loc1340))
#loc1573 = loc("vmap(jit(_randint))"(#loc1341))
#loc1574 = loc("vmap()/lt"(#loc1342))
#loc1575 = loc("vmap()/add"(#loc1342))
#loc1576 = loc("vmap()/select_n"(#loc1342))
#loc1577 = loc("vmap()/broadcast_in_dim"(#loc1342))
#loc1578 = loc("vmap()/concatenate"(#loc1342))
#loc1579 = loc("vmap()/gather"(#loc1342))
#loc1580 = loc("vmap()/squeeze"(#loc1342))
#loc1581 = loc("vmap()/broadcast_in_dim"(#loc1343))
#loc1582 = loc(callsite(#loc576 at #loc1344))
#loc1583 = loc(callsite(#loc578 at #loc1344))
#loc1584 = loc(callsite(#loc579 at #loc1344))
#loc1585 = loc("vmap()/broadcast_in_dim"(#loc1345))
#loc1586 = loc("MaskedActorCriticNetwork/torso/blocks_1/jit"(#loc1297))
#loc1587 = loc("jit"(#loc1298))
#loc1588 = loc("vmap()/jit"(#loc1315))
#loc1589 = loc("vmap()/jit"(#loc1341))
#loc1590 = loc(callsite(#loc438 at #loc1363))
#loc1591 = loc(callsite(#loc442 at #loc1363))
#loc1592 = loc(callsite(#loc444 at #loc1363))
#loc1593 = loc(callsite(#loc446 at #loc1363))
#loc1594 = loc(callsite(#loc453 at #loc1363))
#loc1595 = loc(callsite(#loc454 at #loc1363))
#loc1596 = loc(callsite(#loc455 at #loc1363))
#loc1597 = loc(callsite(#loc456 at #loc1363))
#loc1598 = loc(callsite(#loc457 at #loc1363))
#loc1599 = loc(callsite(#loc458 at #loc1363))
#loc1600 = loc(callsite(#loc459 at #loc1363))
#loc1601 = loc(callsite(#loc635 at #loc1363))
#loc1602 = loc(callsite(#loc460 at #loc1363))
#loc1603 = loc(callsite(#loc461 at #loc1363))
#loc1604 = loc(callsite(#loc462 at #loc1363))
#loc1605 = loc(callsite(#loc463 at #loc1363))
#loc1606 = loc(callsite(#loc490 at #loc1368))
#loc1607 = loc(callsite(#loc508 at #loc1373))
#loc1608 = loc(callsite(#loc510 at #loc1373))
#loc1609 = loc(callsite(#loc511 at #loc1373))
#loc1610 = loc("jvp()/exp"(#loc1378))
#loc1611 = loc("jvp()/eq"(#loc1379))
#loc1612 = loc("jvp(jit(_where))"(#loc1380))
#loc1613 = loc("transpose(jvp())/mul"(#loc1383))
#loc1614 = loc("transpose(jvp(jit(_where)))"(#loc1380))
#loc1615 = loc("transpose(jvp())/mul"(#loc1378))
#loc1616 = loc("transpose(jvp())/add_any"(#loc1378))
#loc1617 = loc(callsite(#loc678 at #loc1387))
#loc1618 = loc(callsite(#loc683 at #loc1401))
#loc1619 = loc(callsite(#loc689 at #loc1401))
#loc1620 = loc(callsite(#loc690 at #loc1401))
#loc1621 = loc(callsite(#loc691 at #loc1401))
#loc1622 = loc(callsite(#loc692 at #loc1402))
#loc1623 = loc(callsite(#loc694 at #loc1402))
#loc1624 = loc("sqrt"(#loc1403))
#loc1625 = loc("div"(#loc1405))
#loc1626 = loc("mul"(#loc1406))
#loc1627 = loc("select_n"(#loc1407))
#loc1628 = loc(callsite(#loc702 at #loc1408))
#loc1629 = loc(callsite(#loc708 at #loc1409))
#loc1630 = loc(callsite(#loc713 at #loc1410))
#loc1631 = loc(callsite(#loc715 at #loc1410))
#loc1632 = loc(callsite(#loc716 at #loc1410))
#loc1633 = loc("pow"(#loc1411))
#loc1634 = loc("sub"(#loc1411))
#loc1635 = loc("div"(#loc1411))
#loc1636 = loc("pow"(#loc1412))
#loc1637 = loc("sub"(#loc1412))
#loc1638 = loc("div"(#loc1412))
#loc1639 = loc(callsite(#loc719 at #loc1413))
#loc1640 = loc(callsite(#loc721 at #loc1413))
#loc1641 = loc(callsite(#loc722 at #loc1413))
#loc1642 = loc(callsite(#loc723 at #loc1413))
#loc1643 = loc(callsite(#loc724 at #loc1414))
#loc1644 = loc("jit:"(#loc1417))
#loc1645 = loc("jit:"(#loc1418))
#loc1646 = loc("jvp()/jit"(#loc1380))
#loc1647 = loc("transpose(jvp())/jit"(#loc1380))
#loc1648 = loc("jit:"(#loc1419))
#loc1649 = loc("jit:"(#loc1420))
#loc1650 = loc(callsite(#loc438 at #loc1429))
#loc1651 = loc(callsite(#loc442 at #loc1429))
#loc1652 = loc(callsite(#loc444 at #loc1429))
#loc1653 = loc(callsite(#loc446 at #loc1429))
#loc1654 = loc(callsite(#loc453 at #loc1429))
#loc1655 = loc(callsite(#loc454 at #loc1429))
#loc1656 = loc(callsite(#loc455 at #loc1429))
#loc1657 = loc(callsite(#loc456 at #loc1429))
#loc1658 = loc(callsite(#loc457 at #loc1429))
#loc1659 = loc(callsite(#loc458 at #loc1429))
#loc1660 = loc(callsite(#loc459 at #loc1429))
#loc1661 = loc(callsite(#loc460 at #loc1429))
#loc1662 = loc(callsite(#loc461 at #loc1429))
#loc1663 = loc(callsite(#loc462 at #loc1429))
#loc1664 = loc(callsite(#loc463 at #loc1429))
#loc1665 = loc(callsite(#loc490 at #loc1431))
#loc1666 = loc(callsite(#loc496 at #loc1432))
#loc1667 = loc(callsite(#loc504 at #loc1432))
#loc1668 = loc("vmap()/vmap(jit(_threefry_split))"(#loc1435))
#loc1669 = loc("vmap()/lt"(#loc1438))
#loc1670 = loc("vmap()/add"(#loc1438))
#loc1671 = loc("vmap()/select_n"(#loc1438))
#loc1672 = loc("vmap()/broadcast_in_dim"(#loc1438))
#loc1673 = loc("vmap()/concatenate"(#loc1438))
#loc1674 = loc("vmap()/gather"(#loc1438))
#loc1675 = loc("vmap()/squeeze"(#loc1438))
#loc1676 = loc(callsite(#loc530 at #loc1439))
#loc1677 = loc(callsite(#loc536 at #loc1439))
#loc1678 = loc(callsite(#loc540 at #loc1439))
#loc1679 = loc(callsite(#loc541 at #loc1439))
#loc1680 = loc(callsite(#loc543 at #loc1439))
#loc1681 = loc(callsite(#loc552 at #loc1439))
#loc1682 = loc(callsite(#loc553 at #loc1439))
#loc1683 = loc(callsite(#loc554 at #loc1439))
#loc1684 = loc(callsite(#loc555 at #loc1439))
#loc1685 = loc(callsite(#loc556 at #loc1439))
#loc1686 = loc(callsite(#loc557 at #loc1439))
#loc1687 = loc(callsite(#loc558 at #loc1439))
#loc1688 = loc(callsite(#loc559 at #loc1439))
#loc1689 = loc(callsite(#loc560 at #loc1439))
#loc1690 = loc(callsite(#loc561 at #loc1439))
#loc1691 = loc(callsite(#loc562 at #loc1439))
#loc1692 = loc(callsite(#loc563 at #loc1439))
#loc1693 = loc(callsite(#loc564 at #loc1439))
#loc1694 = loc(callsite(#loc565 at #loc1439))
#loc1695 = loc(callsite(#loc566 at #loc1439))
#loc1696 = loc(callsite(#loc567 at #loc1439))
#loc1697 = loc(callsite(#loc568 at #loc1439))
#loc1698 = loc(callsite(#loc569 at #loc1439))
#loc1699 = loc(callsite(#loc570 at #loc1439))
#loc1700 = loc(callsite(#loc571 at #loc1439))
#loc1701 = loc(callsite(#loc572 at #loc1439))
#loc1702 = loc(callsite(#loc573 at #loc1439))
#loc1703 = loc(callsite(#loc574 at #loc1439))
#loc1704 = loc(callsite(#loc575 at #loc1439))
#loc1705 = loc(callsite(#loc577 at #loc1439))
#loc1706 = loc(callsite(#loc580 at #loc1440))
#loc1707 = loc(callsite(#loc582 at #loc1441))
#loc1708 = loc(callsite(#loc585 at #loc1441))
#loc1709 = loc(callsite(#loc586 at #loc1441))
#loc1710 = loc(callsite(#loc587 at #loc1441))
#loc1711 = loc(callsite(#loc580 at #loc1442))
#loc1712 = loc("vmap()/or"(#loc1443))
#loc1713 = loc("vmap()/broadcast_in_dim"(#loc1444))
#loc1714 = loc("vmap()/select_n"(#loc1444))
#loc1715 = loc("vmap()/broadcast_in_dim"(#loc1445))
#loc1716 = loc("vmap()/select_n"(#loc1445))
#loc1717 = loc("jit(train_step)/broadcast_in_dim"(#loc1455))
#loc1718 = loc("jit(train_step)/MaskedActorCriticNetwork/obs/dot_general"(#loc1457))
#loc1719 = loc("jit(train_step)/MaskedActorCriticNetwork/obs/reshape"(#loc1458))
#loc1720 = loc("jit(train_step)/MaskedActorCriticNetwork/obs/add"(#loc1459))
#loc1721 = loc(callsite(#loc439 at #loc1463))
#loc1722 = loc("jit(train_step)/MaskedActorCriticNetwork/actor/dot_general"(#loc1465))
#loc1723 = loc("jit(train_step)/MaskedActorCriticNetwork/critic/dot_general"(#loc1467))
#loc1724 = loc("jit(train_step)/MaskedActorCriticNetwork/critic/reshape"(#loc1468))
#loc1725 = loc("jit(train_step)/MaskedActorCriticNetwork/critic/add"(#loc1469))
#loc1726 = loc("jit(train_step)/broadcast_in_dim"(#loc1473))
#loc1727 = loc("jit(train_step)/while"(#loc1473))
#loc1728 = loc("jit(train_step)/while/cond/lt"(#loc1474))
#loc1729 = loc("jit(train_step)/while/body/sub"(#loc1474))
#loc1730 = loc("jit(train_step)/while/body/jit(dynamic_index_in_dim)"(#loc1474))
#loc1731 = loc("jit(train_step)/while/body/closed_call"(#loc1474))
#loc1732 = loc("jit(train_step)/while/body/jit(dynamic_update_index_in_dim)"(#loc1474))
#loc1733 = loc("jit(train_step)/while/body/add"(#loc1474))
#loc1734 = loc("MaskedActorCriticNetwork/torso/blocks_0/Dense_0/dot_general"(#loc1490))
#loc1735 = loc("MaskedActorCriticNetwork/torso/blocks_0/Dense_0/reshape"(#loc1491))
#loc1736 = loc("MaskedActorCriticNetwork/torso/blocks_0/Dense_0/add"(#loc1492))
#loc1737 = loc("MaskedActorCriticNetwork/torso/blocks_1/broadcast_in_dim"(#loc1494))
#loc1738 = loc(callsite(#loc430 at #loc1495))
#loc1739 = loc(callsite(#loc1464 at #loc1464))
#loc1740 = loc("MaskedActorCriticNetwork/torso/blocks_1/cell/sub"(#loc1496))
#loc1741 = loc(callsite(#loc430 at #loc1497))
#loc1742 = loc("MaskedActorCriticNetwork/torso/blocks_1/cell/mul"(#loc1498))
#loc1743 = loc("MaskedActorCriticNetwork/torso/blocks_1/reshape"(#loc1499))
#loc1744 = loc("jit(_gumbel)"(#loc1514))
#loc1745 = loc("mul"(#loc1515))
#loc1746 = loc("broadcast_in_dim"(#loc1516))
#loc1747 = loc("add"(#loc1516))
#loc1748 = loc("jit(_one_hot)"(#loc1518))
#loc1749 = loc("lt"(#loc1519))
#loc1750 = loc("gt"(#loc1520))
#loc1751 = loc("or"(#loc1521))
#loc1752 = loc(callsite(#loc508 at #loc1522))
#loc1753 = loc(callsite(#loc510 at #loc1522))
#loc1754 = loc(callsite(#loc511 at #loc1522))
#loc1755 = loc("reduce_sum"(#loc1523))
#loc1756 = loc("jit(_where)"(#loc1524))
#loc1757 = loc("vmap()/iota"(#loc1525))
#loc1758 = loc("vmap()/eq"(#loc1526))
#loc1759 = loc("vmap()/ne"(#loc1526))
#loc1760 = loc("vmap()/and"(#loc1526))
#loc1761 = loc("vmap(jit(_where))"(#loc1526))
#loc1762 = loc("vmap()/mul"(#loc1526))
#loc1763 = loc("vmap()/shift_right_logical"(#loc1526))
#loc1764 = loc("vmap()/broadcast_in_dim"(#loc1527))
#loc1765 = loc("vmap()/mul"(#loc1527))
#loc1766 = loc("vmap()/reduce_sum"(#loc1528))
#loc1767 = loc("vmap(jit(searchsorted))"(#loc1529))
#loc1768 = loc("vmap(jit(clip))"(#loc1530))
#loc1769 = loc("vmap()/lt"(#loc1531))
#loc1770 = loc("vmap()/add"(#loc1531))
#loc1771 = loc("vmap()/select_n"(#loc1531))
#loc1772 = loc("vmap()/broadcast_in_dim"(#loc1531))
#loc1773 = loc("vmap()/gather"(#loc1531))
#loc1774 = loc("vmap()/squeeze"(#loc1531))
#loc1775 = loc("vmap()/eq"(#loc1532))
#loc1776 = loc("vmap()/eq"(#loc1535))
#loc1777 = loc("vmap()/broadcast_in_dim"(#loc1536))
#loc1778 = loc("vmap()/not"(#loc1537))
#loc1779 = loc("vmap()/convert_element_type"(#loc1538))
#loc1780 = loc("vmap()/lt"(#loc1539))
#loc1781 = loc("vmap()/add"(#loc1539))
#loc1782 = loc("vmap()/select_n"(#loc1539))
#loc1783 = loc("vmap()/broadcast_in_dim"(#loc1539))
#loc1784 = loc("vmap()/scatter-add"(#loc1539))
#loc1785 = loc("vmap()/transpose"(#loc1540))
#loc1786 = loc(callsite(#loc1540 at #loc1540))
#loc1787 = loc("vmap(jit(_where))"(#loc1541))
#loc1788 = loc("vmap(jit(_where))"(#loc1542))
#loc1789 = loc("vmap(jit(_one_hot))"(#loc1569))
#loc1790 = loc("vmap()/reshape"(#loc1570))
#loc1791 = loc("vmap(jit(_where))"(#loc1571))
#loc1792 = loc("vmap(jit(_one_hot))"(#loc1582))
#loc1793 = loc("vmap()/reshape"(#loc1583))
#loc1794 = loc("vmap(jit(_where))"(#loc1584))
#loc1795 = loc("jit:"(#loc1586))
#loc1796 = loc("jit:"(#loc1587))
#loc1797 = loc("jit"(#loc1514))
#loc1798 = loc("iota"(#loc1517))
#loc1799 = loc("reduce"(#loc1517))
#loc1800 = loc(callsite(#loc1517 at #loc1517))
#loc1801 = loc("jit"(#loc1518))
#loc1802 = loc("jit"(#loc1524))
#loc1803 = loc("vmap()/jit"(#loc1526))
#loc1804 = loc("vmap()/jit"(#loc1529))
#loc1805 = loc("vmap()/jit"(#loc1530))
#loc1806 = loc("while/body/jit"(#loc1540))
#loc1807 = loc("dynamic_slice"(#loc1540))
#loc1808 = loc("squeeze"(#loc1540))
#loc1809 = loc("while/body/closed_call"(#loc1540))
#loc1810 = loc("broadcast_in_dim"(#loc1540))
#loc1811 = loc("dynamic_update_slice"(#loc1540))
#loc1812 = loc("vmap()/jit"(#loc1541))
#loc1813 = loc("vmap()/jit"(#loc1542))
#loc1814 = loc("jit:"(#loc1588))
#loc1815 = loc("vmap()/jit"(#loc1569))
#loc1816 = loc("vmap()/jit"(#loc1571))
#loc1817 = loc("jit:"(#loc1589))
#loc1818 = loc("vmap()/jit"(#loc1582))
#loc1819 = loc("vmap()/jit"(#loc1584))
#loc1820 = loc(callsite(#loc430 at #loc1590))
#loc1821 = loc(callsite(#loc433 at #loc1590))
#loc1822 = loc(callsite(#loc434 at #loc1590))
#loc1823 = loc("jvp(MaskedActorCriticNetwork)/torso/blocks_0/jit(relu)"(#loc1591))
#loc1824 = loc("jvp(MaskedActorCriticNetwork)/torso/blocks_0/gt"(#loc1591))
#loc1825 = loc(callsite(#loc443 at #loc1592))
#loc1826 = loc(callsite(#loc445 at #loc1593))
#loc1827 = loc(callsite(#loc447 at #loc1593))
#loc1828 = loc(callsite(#loc449 at #loc1593))
#loc1829 = loc(callsite(#loc450 at #loc1593))
#loc1830 = loc(callsite(#loc451 at #loc1593))
#loc1831 = loc(callsite(#loc452 at #loc1594))
#loc1832 = loc("jvp(MaskedActorCriticNetwork)/torso/blocks_1/convert_element_type"(#loc1595))
#loc1833 = loc("jvp(MaskedActorCriticNetwork)/torso/blocks_1/mul"(#loc1595))
#loc1834 = loc("jvp(MaskedActorCriticNetwork)/torso/blocks_1/broadcast_in_dim"(#loc1596))
#loc1835 = loc("jvp(MaskedActorCriticNetwork)/torso/blocks_1/mul"(#loc1597))
#loc1836 = loc("jvp(MaskedActorCriticNetwork)/torso/blocks_1/add"(#loc1598))
#loc1837 = loc("jvp(MaskedActorCriticNetwork)/torso/blocks_1/convert_element_type"(#loc1599))
#loc1838 = loc("jvp(MaskedActorCriticNetwork)/torso/blocks_1/sub"(#loc1599))
#loc1839 = loc("jvp(MaskedActorCriticNetwork)/torso/blocks_1/convert_element_type"(#loc1600))
#loc1840 = loc("jvp(MaskedActorCriticNetwork)/torso/blocks_1/mul"(#loc1600))
#loc1841 = loc("jvp(MaskedActorCriticNetwork)/torso/blocks_1/slice"(#loc1601))
#loc1842 = loc(callsite(#loc636 at #loc1601))
#loc1843 = loc(callsite(#loc637 at #loc1601))
#loc1844 = loc(callsite(#loc638 at #loc1601))
#loc1845 = loc("jvp(MaskedActorCriticNetwork)/torso/blocks_1/concatenate"(#loc1601))
#loc1846 = loc("jvp(MaskedActorCriticNetwork)/torso/blocks_1/pad"(#loc1601))
#loc1847 = loc("jvp(MaskedActorCriticNetwork)/torso/blocks_1/add"(#loc1601))
#loc1848 = loc("jvp(MaskedActorCriticNetwork)/torso/blocks_1/broadcast_in_dim"(#loc1602))
#loc1849 = loc("jvp(MaskedActorCriticNetwork)/torso/blocks_1/mul"(#loc1603))
#loc1850 = loc("jvp(MaskedActorCriticNetwork)/torso/blocks_1/add"(#loc1604))
#loc1851 = loc("jvp(MaskedActorCriticNetwork)/torso/blocks_1/jit(_take)"(#loc1605))
#loc1852 = loc("jvp(jit(log_softmax))"(#loc1606))
#loc1853 = loc("jvp()/eq"(#loc1607))
#loc1854 = loc("jvp()/mul"(#loc1608))
#loc1855 = loc("jvp()/jit(_where)"(#loc1609))
#loc1856 = loc("transpose(jvp(jvp()))/mul"(#loc1617))
#loc1857 = loc("transpose(jvp(jvp()))/add_any"(#loc1617))
#loc1858 = loc("transpose(jvp(jit(log_softmax)))"(#loc1606))
#loc1859 = loc("transpose(jvp(MaskedActorCriticNetwork))/torso/blocks_1/mul"(#loc1603))
#loc1860 = loc("transpose(jvp(MaskedActorCriticNetwork))/torso/blocks_1/pad"(#loc1601))
#loc1861 = loc("transpose(jvp(MaskedActorCriticNetwork))/torso/blocks_1/slice"(#loc1601))
#loc1862 = loc("transpose(jvp(MaskedActorCriticNetwork))/torso/blocks_1/split"(#loc1601))
#loc1863 = loc("transpose(jvp(MaskedActorCriticNetwork))/torso/blocks_1/add_any"(#loc1601))
#loc1864 = loc("transpose(jvp(MaskedActorCriticNetwork))/torso/blocks_1/mul"(#loc1600))
#loc1865 = loc("transpose(jvp(MaskedActorCriticNetwork))/torso/blocks_1/mul"(#loc1597))
#loc1866 = loc("transpose(jvp(MaskedActorCriticNetwork))/torso/blocks_1/mul"(#loc1595))
#loc1867 = loc("transpose(jvp(MaskedActorCriticNetwork))/torso/blocks_1/add_any"(#loc1595))
#loc1868 = loc("transpose(jvp(MaskedActorCriticNetwork))/torso/blocks_0/broadcast_in_dim"(#loc1591))
#loc1869 = loc("transpose(jvp(MaskedActorCriticNetwork))/torso/blocks_0/select_n"(#loc1591))
#loc1870 = loc("square"(#loc1618))
#loc1871 = loc("broadcast_in_dim"(#loc1619))
#loc1872 = loc("square"(#loc1620))
#loc1873 = loc("add"(#loc1621))
#loc1874 = loc("reduce_sum"(#loc1622))
#loc1875 = loc("add"(#loc1623))
#loc1876 = loc(callsite(#loc701 at #loc1628))
#loc1877 = loc(callsite(#loc704 at #loc1628))
#loc1878 = loc(callsite(#loc705 at #loc1628))
#loc1879 = loc(callsite(#loc707 at #loc1629))
#loc1880 = loc(callsite(#loc710 at #loc1629))
#loc1881 = loc(callsite(#loc711 at #loc1629))
#loc1882 = loc(callsite(#loc712 at #loc1629))
#loc1883 = loc("lt"(#loc1630))
#loc1884 = loc("add"(#loc1631))
#loc1885 = loc("jit(_where)"(#loc1632))
#loc1886 = loc("add"(#loc1639))
#loc1887 = loc("sqrt"(#loc1640))
#loc1888 = loc("add"(#loc1641))
#loc1889 = loc("div"(#loc1642))
#loc1890 = loc("mul"(#loc1643))
#loc1891 = loc("jvp(MaskedActorCriticNetwork)/torso/blocks_1/jit"(#loc1605))
#loc1892 = loc("jvp()/jit"(#loc1606))
#loc1893 = loc("jit:"(#loc1646))
#loc1894 = loc("jit:"(#loc1647))
#loc1895 = loc("transpose(jvp())/jit"(#loc1606))
#loc1896 = loc("jit"(#loc1632))
#loc1897 = loc(callsite(#loc430 at #loc1650))
#loc1898 = loc(callsite(#loc433 at #loc1650))
#loc1899 = loc(callsite(#loc434 at #loc1650))
#loc1900 = loc("MaskedActorCriticNetwork/torso/blocks_0/jit(relu)"(#loc1651))
#loc1901 = loc(callsite(#loc443 at #loc1652))
#loc1902 = loc(callsite(#loc445 at #loc1653))
#loc1903 = loc(callsite(#loc447 at #loc1653))
#loc1904 = loc(callsite(#loc449 at #loc1653))
#loc1905 = loc(callsite(#loc450 at #loc1653))
#loc1906 = loc(callsite(#loc451 at #loc1653))
#loc1907 = loc(callsite(#loc452 at #loc1654))
#loc1908 = loc("MaskedActorCriticNetwork/torso/blocks_1/convert_element_type"(#loc1655))
#loc1909 = loc("MaskedActorCriticNetwork/torso/blocks_1/mul"(#loc1655))
#loc1910 = loc("MaskedActorCriticNetwork/torso/blocks_1/broadcast_in_dim"(#loc1656))
#loc1911 = loc("MaskedActorCriticNetwork/torso/blocks_1/mul"(#loc1657))
#loc1912 = loc("MaskedActorCriticNetwork/torso/blocks_1/add"(#loc1658))
#loc1913 = loc("MaskedActorCriticNetwork/torso/blocks_1/convert_element_type"(#loc1659))
#loc1914 = loc("MaskedActorCriticNetwork/torso/blocks_1/sub"(#loc1659))
#loc1915 = loc("MaskedActorCriticNetwork/torso/blocks_1/convert_element_type"(#loc1660))
#loc1916 = loc("MaskedActorCriticNetwork/torso/blocks_1/mul"(#loc1660))
#loc1917 = loc("MaskedActorCriticNetwork/torso/blocks_1/broadcast_in_dim"(#loc1661))
#loc1918 = loc("MaskedActorCriticNetwork/torso/blocks_1/mul"(#loc1662))
#loc1919 = loc("MaskedActorCriticNetwork/torso/blocks_1/add"(#loc1663))
#loc1920 = loc("MaskedActorCriticNetwork/torso/blocks_1/jit(_take)"(#loc1664))
#loc1921 = loc("jit(log_softmax)"(#loc1665))
#loc1922 = loc(callsite(#loc495 at #loc1666))
#loc1923 = loc(callsite(#loc500 at #loc1666))
#loc1924 = loc(callsite(#loc501 at #loc1666))
#loc1925 = loc(callsite(#loc502 at #loc1666))
#loc1926 = loc(callsite(#loc503 at #loc1667))
#loc1927 = loc(callsite(#loc505 at #loc1667))
#loc1928 = loc(callsite(#loc506 at #loc1667))
#loc1929 = loc(callsite(#loc507 at #loc1667))
#loc1930 = loc(callsite(#loc509 at #loc1667))
#loc1931 = loc(callsite(#loc512 at #loc1667))
#loc1932 = loc(callsite(#loc513 at #loc1667))
#loc1933 = loc(callsite(#loc529 at #loc1676))
#loc1934 = loc(callsite(#loc532 at #loc1676))
#loc1935 = loc(callsite(#loc533 at #loc1676))
#loc1936 = loc(callsite(#loc534 at #loc1676))
#loc1937 = loc(callsite(#loc535 at #loc1677))
#loc1938 = loc(callsite(#loc537 at #loc1677))
#loc1939 = loc(callsite(#loc538 at #loc1677))
#loc1940 = loc(callsite(#loc539 at #loc1677))
#loc1941 = loc("vmap()/eq"(#loc1678))
#loc1942 = loc("vmap()/reduce_and"(#loc1679))
#loc1943 = loc(callsite(#loc542 at #loc1680))
#loc1944 = loc(callsite(#loc544 at #loc1680))
#loc1945 = loc(callsite(#loc545 at #loc1680))
#loc1946 = loc(callsite(#loc546 at #loc1680))
#loc1947 = loc(callsite(#loc547 at #loc1680))
#loc1948 = loc(callsite(#loc549 at #loc1680))
#loc1949 = loc(callsite(#loc550 at #loc1680))
#loc1950 = loc(callsite(#loc551 at #loc1680))
#loc1951 = loc("vmap(jit(_where))"(#loc1681))
#loc1952 = loc("vmap()/convert_element_type"(#loc1682))
#loc1953 = loc("vmap()/add"(#loc1683))
#loc1954 = loc("vmap()/convert_element_type"(#loc1684))
#loc1955 = loc("vmap()/eq"(#loc1685))
#loc1956 = loc("vmap()/convert_element_type"(#loc1686))
#loc1957 = loc("vmap()/reduce_sum"(#loc1686))
#loc1958 = loc("vmap()/convert_element_type"(#loc1687))
#loc1959 = loc("vmap()/mul"(#loc1688))
#loc1960 = loc("vmap()/add"(#loc1689))
#loc1961 = loc("vmap()/eq"(#loc1690))
#loc1962 = loc("vmap()/convert_element_type"(#loc1691))
#loc1963 = loc("vmap()/reduce_sum"(#loc1691))
#loc1964 = loc("vmap()/convert_element_type"(#loc1692))
#loc1965 = loc("vmap()/mul"(#loc1693))
#loc1966 = loc("vmap()/add"(#loc1694))
#loc1967 = loc("vmap()/not"(#loc1695))
#loc1968 = loc("vmap()/convert_element_type"(#loc1696))
#loc1969 = loc("vmap()/mul"(#loc1697))
#loc1970 = loc("vmap()/sub"(#loc1698))
#loc1971 = loc("vmap()/ge"(#loc1699))
#loc1972 = loc("vmap()/or"(#loc1700))
#loc1973 = loc("vmap()/convert_element_type"(#loc1701))
#loc1974 = loc("vmap()/convert_element_type"(#loc1702))
#loc1975 = loc("vmap()/not"(#loc1703))
#loc1976 = loc("vmap()/convert_element_type"(#loc1704))
#loc1977 = loc(callsite(#loc576 at #loc1705))
#loc1978 = loc(callsite(#loc578 at #loc1705))
#loc1979 = loc(callsite(#loc579 at #loc1705))
#loc1980 = loc("vmap()/broadcast_in_dim"(#loc1706))
#loc1981 = loc("vmap(jit(_randint))"(#loc1707))
#loc1982 = loc("vmap()/lt"(#loc1708))
#loc1983 = loc("vmap()/add"(#loc1708))
#loc1984 = loc("vmap()/select_n"(#loc1708))
#loc1985 = loc("vmap()/broadcast_in_dim"(#loc1708))
#loc1986 = loc("vmap()/concatenate"(#loc1708))
#loc1987 = loc("vmap()/gather"(#loc1708))
#loc1988 = loc("vmap()/squeeze"(#loc1708))
#loc1989 = loc("vmap()/broadcast_in_dim"(#loc1709))
#loc1990 = loc(callsite(#loc576 at #loc1710))
#loc1991 = loc(callsite(#loc578 at #loc1710))
#loc1992 = loc(callsite(#loc579 at #loc1710))
#loc1993 = loc("vmap()/broadcast_in_dim"(#loc1711))
#loc1994 = loc(callsite(#loc438 at #loc1721))
#loc1995 = loc(callsite(#loc442 at #loc1721))
#loc1996 = loc(callsite(#loc444 at #loc1721))
#loc1997 = loc(callsite(#loc446 at #loc1721))
#loc1998 = loc(callsite(#loc453 at #loc1721))
#loc1999 = loc(callsite(#loc454 at #loc1721))
#loc2000 = loc(callsite(#loc455 at #loc1721))
#loc2001 = loc(callsite(#loc456 at #loc1721))
#loc2002 = loc(callsite(#loc457 at #loc1721))
#loc2003 = loc(callsite(#loc458 at #loc1721))
#loc2004 = loc(callsite(#loc459 at #loc1721))
#loc2005 = loc(callsite(#loc460 at #loc1721))
#loc2006 = loc(callsite(#loc461 at #loc1721))
#loc2007 = loc(callsite(#loc462 at #loc1721))
#loc2008 = loc(callsite(#loc463 at #loc1721))
#loc2009 = loc("MaskedActorCriticNetwork/torso/blocks_1/cell/update_gate/dot_general"(#loc1738))
#loc2010 = loc("MaskedActorCriticNetwork/torso/blocks_1/cell/neg"(#loc1739))
#loc2011 = loc("MaskedActorCriticNetwork/torso/blocks_1/cell/exp"(#loc1739))
#loc2012 = loc("MaskedActorCriticNetwork/torso/blocks_1/cell/add"(#loc1739))
#loc2013 = loc("MaskedActorCriticNetwork/torso/blocks_1/cell/div"(#loc1739))
#loc2014 = loc("MaskedActorCriticNetwork/torso/blocks_1/cell/candidate/dot_general"(#loc1741))
#loc2015 = loc("eq"(#loc1752))
#loc2016 = loc("broadcast_in_dim"(#loc1753))
#loc2017 = loc("mul"(#loc1753))
#loc2018 = loc("jit(_where)"(#loc1754))
#loc2019 = loc("vmap()/broadcast_in_dim"(#loc1786))
#loc2020 = loc("vmap()/while"(#loc1786))
#loc2021 = loc(callsite(#loc1786 at #loc1540))
#loc2022 = loc("jit:"(#loc1797))
#loc2023 = loc("gt"(#loc1800))
#loc2024 = loc("ne"(#loc1800))
#loc2025 = loc("or"(#loc1800))
#loc2026 = loc("eq"(#loc1800))
#loc2027 = loc("lt"(#loc1800))
#loc2028 = loc("and"(#loc1800))
#loc2029 = loc("select_n"(#loc1800))
#loc2030 = loc("jit:"(#loc1801))
#loc2031 = loc("jit:"(#loc1802))
#loc2032 = loc("jit:"(#loc1803))
#loc2033 = loc("jit:"(#loc1804))
#loc2034 = loc("jit:"(#loc1805))
#loc2035 = loc("jit:"(#loc1806))
#loc2036 = loc("closed_call:"(#loc1809))
#loc2037 = loc("jit:"(#loc1812))
#loc2038 = loc("jit:"(#loc1813))
#loc2039 = loc("jit:"(#loc1815))
#loc2040 = loc("jit:"(#loc1816))
#loc2041 = loc("jit:"(#loc1818))
#loc2042 = loc("jit:"(#loc1819))
#loc2043 = loc("jvp(MaskedActorCriticNetwork)/torso/blocks_0/Dense_0/dot_general"(#loc1820))
#loc2044 = loc("jvp(MaskedActorCriticNetwork)/torso/blocks_0/Dense_0/reshape"(#loc1821))
#loc2045 = loc("jvp(MaskedActorCriticNetwork)/torso/blocks_0/Dense_0/add"(#loc1822))
#loc2046 = loc("jvp(MaskedActorCriticNetwork)/torso/blocks_1/broadcast_in_dim"(#loc1825))
#loc2047 = loc(callsite(#loc430 at #loc1826))
#loc2048 = loc(callsite(#loc1827 at #loc1827))
#loc2049 = loc("jvp(MaskedActorCriticNetwork)/torso/blocks_1/cell/sub"(#loc1827))
#loc2050 = loc("jvp(MaskedActorCriticNetwork)/torso/blocks_1/cell/mul"(#loc1827))
#loc2051 = loc("jvp(MaskedActorCriticNetwork)/torso/blocks_1/cell/sub"(#loc1828))
#loc2052 = loc(callsite(#loc430 at #loc1829))
#loc2053 = loc("jvp(MaskedActorCriticNetwork)/torso/blocks_1/cell/mul"(#loc1830))
#loc2054 = loc("jvp(MaskedActorCriticNetwork)/torso/blocks_1/reshape"(#loc1831))
#loc2055 = loc("jvp(MaskedActorCriticNetwork)/torso/blocks_1/mul"(#loc1842))
#loc2056 = loc("jvp(MaskedActorCriticNetwork)/torso/blocks_1/mul"(#loc1843))
#loc2057 = loc("jvp(MaskedActorCriticNetwork)/torso/blocks_1/add"(#loc1844))
#loc2058 = loc("transpose(jvp(MaskedActorCriticNetwork))/torso/blocks_1/mul"(#loc1843))
#loc2059 = loc("transpose(jvp(MaskedActorCriticNetwork))/torso/blocks_1/mul"(#loc1842))
#loc2060 = loc("transpose(jvp(MaskedActorCriticNetwork))/torso/blocks_1/add_any"(#loc1842))
#loc2061 = loc("transpose(jvp(MaskedActorCriticNetwork))/torso/blocks_1/cell/mul"(#loc1830))
#loc2062 = loc("transpose(jvp(MaskedActorCriticNetwork))/torso/blocks_1/cell/neg"(#loc1828))
#loc2063 = loc("transpose(jvp(MaskedActorCriticNetwork))/torso/blocks_1/cell/add_any"(#loc1828))
#loc2064 = loc("transpose(jvp(MaskedActorCriticNetwork))/torso/blocks_1/cell/mul"(#loc1827))
#loc2065 = loc("transpose(jvp(MaskedActorCriticNetwork))/torso/blocks_0/Dense_0/reduce_sum"(#loc1822))
#loc2066 = loc("transpose(jvp(MaskedActorCriticNetwork))/torso/blocks_0/Dense_0/reshape"(#loc1822))
#loc2067 = loc("transpose(jvp(MaskedActorCriticNetwork))/torso/blocks_0/Dense_0/reshape"(#loc1821))
#loc2068 = loc("transpose(jvp(MaskedActorCriticNetwork))/torso/blocks_0/Dense_0/dot_general"(#loc1820))
#loc2069 = loc("transpose(jvp(MaskedActorCriticNetwork))/torso/blocks_0/Dense_0/transpose"(#loc1820))
#loc2070 = loc("mul"(#loc1876))
#loc2071 = loc("mul"(#loc1877))
#loc2072 = loc("add"(#loc1878))
#loc2073 = loc(callsite(#loc706 at #loc1879))
#loc2074 = loc("mul"(#loc1880))
#loc2075 = loc("mul"(#loc1881))
#loc2076 = loc("add"(#loc1882))
#loc2077 = loc("jit:"(#loc1891))
#loc2078 = loc("jit:"(#loc1892))
#loc2079 = loc("jit:"(#loc1895))
#loc2080 = loc("jit:"(#loc1896))
#loc2081 = loc("MaskedActorCriticNetwork/torso/blocks_0/Dense_0/dot_general"(#loc1897))
#loc2082 = loc("MaskedActorCriticNetwork/torso/blocks_0/Dense_0/reshape"(#loc1898))
#loc2083 = loc("MaskedActorCriticNetwork/torso/blocks_0/Dense_0/add"(#loc1899))
#loc2084 = loc("MaskedActorCriticNetwork/torso/blocks_1/broadcast_in_dim"(#loc1901))
#loc2085 = loc(callsite(#loc430 at #loc1902))
#loc2086 = loc(callsite(#loc1464 at #loc1903))
#loc2087 = loc("MaskedActorCriticNetwork/torso/blocks_1/cell/sub"(#loc1904))
#loc2088 = loc(callsite(#loc430 at #loc1905))
#loc2089 = loc("MaskedActorCriticNetwork/torso/blocks_1/cell/mul"(#loc1906))
#loc2090 = loc("MaskedActorCriticNetwork/torso/blocks_1/reshape"(#loc1907))
#loc2091 = loc("jit(_gumbel)"(#loc1922))
#loc2092 = loc("mul"(#loc1923))
#loc2093 = loc("broadcast_in_dim"(#loc1924))
#loc2094 = loc("add"(#loc1924))
#loc2095 = loc("jit(_one_hot)"(#loc1926))
#loc2096 = loc("lt"(#loc1927))
#loc2097 = loc("gt"(#loc1928))
#loc2098 = loc("or"(#loc1929))
#loc2099 = loc(callsite(#loc508 at #loc1930))
#loc2100 = loc(callsite(#loc510 at #loc1930))
#loc2101 = loc(callsite(#loc511 at #loc1930))
#loc2102 = loc("reduce_sum"(#loc1931))
#loc2103 = loc("jit(_where)"(#loc1932))
#loc2104 = loc("vmap()/iota"(#loc1933))
#loc2105 = loc("vmap()/eq"(#loc1934))
#loc2106 = loc("vmap()/ne"(#loc1934))
#loc2107 = loc("vmap()/and"(#loc1934))
#loc2108 = loc("vmap(jit(_where))"(#loc1934))
#loc2109 = loc("vmap()/mul"(#loc1934))
#loc2110 = loc("vmap()/shift_right_logical"(#loc1934))
#loc2111 = loc("vmap()/broadcast_in_dim"(#loc1935))
#loc2112 = loc("vmap()/mul"(#loc1935))
#loc2113 = loc("vmap()/reduce_sum"(#loc1936))
#loc2114 = loc("vmap(jit(searchsorted))"(#loc1937))
#loc2115 = loc("vmap(jit(clip))"(#loc1938))
#loc2116 = loc("vmap()/lt"(#loc1939))
#loc2117 = loc("vmap()/add"(#loc1939))
#loc2118 = loc("vmap()/select_n"(#loc1939))
#loc2119 = loc("vmap()/broadcast_in_dim"(#loc1939))
#loc2120 = loc("vmap()/gather"(#loc1939))
#loc2121 = loc("vmap()/squeeze"(#loc1939))
#loc2122 = loc("vmap()/eq"(#loc1940))
#loc2123 = loc("vmap()/eq"(#loc1943))
#loc2124 = loc("vmap()/broadcast_in_dim"(#loc1944))
#loc2125 = loc("vmap()/not"(#loc1945))
#loc2126 = loc("vmap()/convert_element_type"(#loc1946))
#loc2127 = loc("vmap()/lt"(#loc1947))
#loc2128 = loc("vmap()/add"(#loc1947))
#loc2129 = loc("vmap()/select_n"(#loc1947))
#loc2130 = loc("vmap()/broadcast_in_dim"(#loc1947))
#loc2131 = loc("vmap()/scatter-add"(#loc1947))
#loc2132 = loc("vmap()/transpose"(#loc1948))
#loc2133 = loc(callsite(#loc1948 at #loc1948))
#loc2134 = loc("vmap(jit(_where))"(#loc1949))
#loc2135 = loc("vmap(jit(_where))"(#loc1950))
#loc2136 = loc("vmap(jit(_one_hot))"(#loc1977))
#loc2137 = loc("vmap()/reshape"(#loc1978))
#loc2138 = loc("vmap(jit(_where))"(#loc1979))
#loc2139 = loc("vmap(jit(_one_hot))"(#loc1990))
#loc2140 = loc("vmap()/reshape"(#loc1991))
#loc2141 = loc("vmap(jit(_where))"(#loc1992))
#loc2142 = loc("while/body/closed_call"(#loc1948))
#loc2143 = loc(callsite(#loc430 at #loc1994))
#loc2144 = loc(callsite(#loc433 at #loc1994))
#loc2145 = loc(callsite(#loc434 at #loc1994))
#loc2146 = loc("jit(train_step)/MaskedActorCriticNetwork/torso/blocks_0/jit(relu)"(#loc1995))
#loc2147 = loc(callsite(#loc443 at #loc1996))
#loc2148 = loc(callsite(#loc445 at #loc1997))
#loc2149 = loc(callsite(#loc447 at #loc1997))
#loc2150 = loc(callsite(#loc449 at #loc1997))
#loc2151 = loc(callsite(#loc450 at #loc1997))
#loc2152 = loc(callsite(#loc451 at #loc1997))
#loc2153 = loc(callsite(#loc452 at #loc1998))
#loc2154 = loc("jit(train_step)/MaskedActorCriticNetwork/torso/blocks_1/convert_element_type"(#loc1999))
#loc2155 = loc("jit(train_step)/MaskedActorCriticNetwork/torso/blocks_1/mul"(#loc1999))
#loc2156 = loc("jit(train_step)/MaskedActorCriticNetwork/torso/blocks_1/broadcast_in_dim"(#loc2000))
#loc2157 = loc("jit(train_step)/MaskedActorCriticNetwork/torso/blocks_1/mul"(#loc2001))
#loc2158 = loc("jit(train_step)/MaskedActorCriticNetwork/torso/blocks_1/add"(#loc2002))
#loc2159 = loc("jit(train_step)/MaskedActorCriticNetwork/torso/blocks_1/convert_element_type"(#loc2003))
#loc2160 = loc("jit(train_step)/MaskedActorCriticNetwork/torso/blocks_1/sub"(#loc2003))
#loc2161 = loc("jit(train_step)/MaskedActorCriticNetwork/torso/blocks_1/convert_element_type"(#loc2004))
#loc2162 = loc("jit(train_step)/MaskedActorCriticNetwork/torso/blocks_1/mul"(#loc2004))
#loc2163 = loc("jit(train_step)/MaskedActorCriticNetwork/torso/blocks_1/broadcast_in_dim"(#loc2005))
#loc2164 = loc("jit(train_step)/MaskedActorCriticNetwork/torso/blocks_1/mul"(#loc2006))
#loc2165 = loc("jit(train_step)/MaskedActorCriticNetwork/torso/blocks_1/add"(#loc2007))
#loc2166 = loc("jit(train_step)/MaskedActorCriticNetwork/torso/blocks_1/jit(_take)"(#loc2008))
#loc2167 = loc("vmap()/while/cond/lt"(#loc2021))
#loc2168 = loc("vmap()/while/body/jit(dynamic_index_in_dim)"(#loc2021))
#loc2169 = loc("vmap()/while/body/closed_call"(#loc2021))
#loc2170 = loc("vmap()/while/body/jit(dynamic_update_index_in_dim)"(#loc2021))
#loc2171 = loc("vmap()/while/body/add"(#loc2021))
#loc2172 = loc("jvp(MaskedActorCriticNetwork)/torso/blocks_1/cell/update_gate/dot_general"(#loc2047))
#loc2173 = loc("jvp(MaskedActorCriticNetwork)/torso/blocks_1/cell/neg"(#loc2048))
#loc2174 = loc("jvp(MaskedActorCriticNetwork)/torso/blocks_1/cell/exp"(#loc2048))
#loc2175 = loc("jvp(MaskedActorCriticNetwork)/torso/blocks_1/cell/add"(#loc2048))
#loc2176 = loc("jvp(MaskedActorCriticNetwork)/torso/blocks_1/cell/div"(#loc2048))
#loc2177 = loc("jvp(MaskedActorCriticNetwork)/torso/blocks_1/cell/candidate/dot_general"(#loc2052))
#loc2178 = loc("transpose(jvp(MaskedActorCriticNetwork))/torso/blocks_1/cell/candidate/dot_general"(#loc2052))
#loc2179 = loc("transpose(jvp(MaskedActorCriticNetwork))/torso/blocks_1/cell/candidate/transpose"(#loc2052))
#loc2180 = loc("transpose(jvp(MaskedActorCriticNetwork))/torso/blocks_1/cell/update_gate/dot_general"(#loc2047))
#loc2181 = loc("transpose(jvp(MaskedActorCriticNetwork))/torso/blocks_1/cell/update_gate/transpose"(#loc2047))
#loc2182 = loc("transpose(jvp(MaskedActorCriticNetwork))/torso/blocks_1/cell/update_gate/add_any"(#loc2047))
#loc2183 = loc("integer_pow"(#loc2073))
#loc2184 = loc("MaskedActorCriticNetwork/torso/blocks_1/cell/update_gate/dot_general"(#loc2085))
#loc2185 = loc("MaskedActorCriticNetwork/torso/blocks_1/cell/neg"(#loc2086))
#loc2186 = loc("MaskedActorCriticNetwork/torso/blocks_1/cell/exp"(#loc2086))
#loc2187 = loc("MaskedActorCriticNetwork/torso/blocks_1/cell/add"(#loc2086))
#loc2188 = loc("MaskedActorCriticNetwork/torso/blocks_1/cell/div"(#loc2086))
#loc2189 = loc("MaskedActorCriticNetwork/torso/blocks_1/cell/candidate/dot_general"(#loc2088))
#loc2190 = loc("eq"(#loc2099))
#loc2191 = loc("broadcast_in_dim"(#loc2100))
#loc2192 = loc("mul"(#loc2100))
#loc2193 = loc("jit(_where)"(#loc2101))
#loc2194 = loc("vmap()/broadcast_in_dim"(#loc2133))
#loc2195 = loc("vmap()/while"(#loc2133))
#loc2196 = loc(callsite(#loc2133 at #loc1948))
#loc2197 = loc("closed_call:"(#loc2142))
#loc2198 = loc("jit(train_step)/MaskedActorCriticNetwork/torso/blocks_0/Dense_0/dot_general"(#loc2143))
#loc2199 = loc("jit(train_step)/MaskedActorCriticNetwork/torso/blocks_0/Dense_0/reshape"(#loc2144))
#loc2200 = loc("jit(train_step)/MaskedActorCriticNetwork/torso/blocks_0/Dense_0/add"(#loc2145))
#loc2201 = loc("jit(train_step)/MaskedActorCriticNetwork/torso/blocks_1/broadcast_in_dim"(#loc2147))
#loc2202 = loc(callsite(#loc430 at #loc2148))
#loc2203 = loc(callsite(#loc1464 at #loc2149))
#loc2204 = loc("jit(train_step)/MaskedActorCriticNetwork/torso/blocks_1/cell/sub"(#loc2150))
#loc2205 = loc(callsite(#loc430 at #loc2151))
#loc2206 = loc("jit(train_step)/MaskedActorCriticNetwork/torso/blocks_1/cell/mul"(#loc2152))
#loc2207 = loc("jit(train_step)/MaskedActorCriticNetwork/torso/blocks_1/reshape"(#loc2153))
#loc2208 = loc("vmap()/while/cond/lt"(#loc2196))
#loc2209 = loc("vmap()/while/body/jit(dynamic_index_in_dim)"(#loc2196))
#loc2210 = loc("vmap()/while/body/closed_call"(#loc2196))
#loc2211 = loc("vmap()/while/body/jit(dynamic_update_index_in_dim)"(#loc2196))
#loc2212 = loc("vmap()/while/body/add"(#loc2196))
#loc2213 = loc("jit(train_step)/MaskedActorCriticNetwork/torso/blocks_1/cell/update_gate/dot_general"(#loc2202))
#loc2214 = loc("jit(train_step)/MaskedActorCriticNetwork/torso/blocks_1/cell/neg"(#loc2203))
#loc2215 = loc("jit(train_step)/MaskedActorCriticNetwork/torso/blocks_1/cell/exp"(#loc2203))
#loc2216 = loc("jit(train_step)/MaskedActorCriticNetwork/torso/blocks_1/cell/add"(#loc2203))
#loc2217 = loc("jit(train_step)/MaskedActorCriticNetwork/torso/blocks_1/cell/div"(#loc2203))
#loc2218 = loc("jit(train_step)/MaskedActorCriticNetwork/torso/blocks_1/cell/candidate/dot_general"(#loc2205))
