#loc = loc(unknown)
#loc1 = loc("state.step")
#loc2 = loc("state.timestep.obs")
#loc3 = loc("state.timestep.action")
#loc4 = loc("state.timestep.reward")
#loc5 = loc("state.timestep.terminated")
#loc6 = loc("state.timestep.truncated")
#loc7 = loc("state.timestep.info['fired']")
#loc8 = loc("state.timestep.info['guess_count']")
#loc9 = loc("state.timestep.info['illegal_guesses']")
#loc10 = loc("state.timestep.info['matched_secret']")
#loc11 = loc("state.environment_state.env_state.secret_answer")
#loc12 = loc("state.environment_state.env_state.guess_feedback")
#loc13 = loc("state.environment_state.env_state.guess_revealed")
#loc14 = loc("state.environment_state.env_state.guess_count")
#loc15 = loc("state.environment_state.env_state.matched_secret")
#loc16 = loc("state.environment_state.active")
#loc17 = loc("state.environment_state.arguments")
#loc18 = loc("state.environment_state.cursor")
#loc19 = loc("state.carry[1]")
#loc20 = loc("state.params['params']['feature_extractor']['token_embedding']['embedding']")
#loc21 = loc("state.params['params']['head']['actor']['kernel']")
#loc22 = loc("state.params['params']['head']['critic']['bias']")
#loc23 = loc("state.params['params']['head']['critic']['kernel']")
#loc24 = loc("state.params['params']['torso']['block']['blocks_0']['Dense_0']['bias']")
#loc25 = loc("state.params['params']['torso']['block']['blocks_0']['Dense_0']['kernel']")
#loc26 = loc("state.params['params']['torso']['block']['blocks_1']['cell']['candidate']['kernel']")
#loc27 = loc("state.params['params']['torso']['block']['blocks_1']['cell']['update_gate']['kernel']")
#loc28 = loc("state.optimizer_state[1][0].count")
#loc29 = loc("state.optimizer_state[1][0].mu['params']['feature_extractor']['token_embedding']['embedding']")
#loc30 = loc("state.optimizer_state[1][0].mu['params']['head']['actor']['kernel']")
#loc31 = loc("state.optimizer_state[1][0].mu['params']['head']['critic']['bias']")
#loc32 = loc("state.optimizer_state[1][0].mu['params']['head']['critic']['kernel']")
#loc33 = loc("state.optimizer_state[1][0].mu['params']['torso']['block']['blocks_0']['Dense_0']['bias']")
#loc34 = loc("state.optimizer_state[1][0].mu['params']['torso']['block']['blocks_0']['Dense_0']['kernel']")
#loc35 = loc("state.optimizer_state[1][0].mu['params']['torso']['block']['blocks_1']['cell']['candidate']['kernel']")
#loc36 = loc("state.optimizer_state[1][0].mu['params']['torso']['block']['blocks_1']['cell']['update_gate']['kernel']")
#loc37 = loc("state.optimizer_state[1][0].nu['params']['feature_extractor']['token_embedding']['embedding']")
#loc38 = loc("state.optimizer_state[1][0].nu['params']['head']['actor']['kernel']")
#loc39 = loc("state.optimizer_state[1][0].nu['params']['head']['critic']['bias']")
#loc40 = loc("state.optimizer_state[1][0].nu['params']['head']['critic']['kernel']")
#loc41 = loc("state.optimizer_state[1][0].nu['params']['torso']['block']['blocks_0']['Dense_0']['bias']")
#loc42 = loc("state.optimizer_state[1][0].nu['params']['torso']['block']['blocks_0']['Dense_0']['kernel']")
#loc43 = loc("state.optimizer_state[1][0].nu['params']['torso']['block']['blocks_1']['cell']['candidate']['kernel']")
#loc44 = loc("state.optimizer_state[1][0].nu['params']['torso']['block']['blocks_1']['cell']['update_gate']['kernel']")
#loc45 = loc("key")
#loc51 = loc("/Users/noahfarr/noahfarr.github.io/tools/whlo/export_ppo_wordle.py":192:23 to :63)
#loc53 = loc("/Users/noahfarr/reinforcement-learning/src/algorithms/algorithms/recurrent_ppo.py":268:20 to :66)
#loc71 = loc("scatter")
#loc118 = loc("/Users/noahfarr/reinforcement-learning/src/algorithms/algorithms/recurrent_ppo.py":290:21 to :72)
#loc151 = loc("/Users/noahfarr/reinforcement-learning/.venv/lib/python3.13/site-packages/distrax/_src/distributions/distribution.py":77:14 to :36)
#loc152 = loc("/Users/noahfarr/reinforcement-learning/.venv/lib/python3.13/site-packages/distrax/_src/distributions/distribution.py":174:24 to :69)
#loc153 = loc("/Users/noahfarr/reinforcement-learning/.venv/lib/python3.13/site-packages/distrax/_src/distributions/independent.py":104:24 to 105:33)
#loc154 = loc("/Users/noahfarr/reinforcement-learning/src/algorithms/algorithms/recurrent_ppo.py":80:27 to :68)
#loc157 = loc("/Users/noahfarr/reinforcement-learning/src/policies/policies/distributions.py":15:16 to :76)
#loc178 = loc("/Users/noahfarr/reinforcement-learning/src/algorithms/algorithms/recurrent_ppo.py":85:38 to 87:9)
#loc180 = loc("/Users/noahfarr/reinforcement-learning/src/environments/environments/wrappers/vectorize.py":32:15 to 34:9)
#loc183 = loc("/Users/noahfarr/reinforcement-learning/src/environments/environments/wrappers/same_step_auto_reset.py":17:40 to :87)
#loc220 = loc("scatter-add")
#loc240 = loc("/Users/noahfarr/reinforcement-learning/src/environments/environments/wrappers/mcp.py":105:29 to :57)
#loc243 = loc("/Users/noahfarr/noahfarr.github.io/tools/whlo/export_ppo_wordle.py":74:49 to :65)
#loc295 = loc("reduce")
#loc317 = loc("vmap()")
#loc339 = loc("sort")
#loc443 = loc("main.<locals>.train_step"(#loc51))
#loc445 = loc("RecurrentPPO.update_step"(#loc53))
#loc463 = loc("scatter:"(#loc71))
#loc510 = loc("RecurrentPPO.update_step"(#loc118))
#loc529 = loc("Distribution._sample_n_and_log_prob"(#loc151))
#loc530 = loc("Distribution.sample_and_log_prob"(#loc152))
#loc531 = loc("Independent._sample_n_and_log_prob"(#loc153))
#loc532 = loc("RecurrentPPO.rollout"(#loc154))
#loc535 = loc("Categorical._sample_n"(#loc157))
#loc556 = loc("RecurrentPPO.rollout"(#loc178))
#loc558 = loc("Vectorize.step"(#loc180))
#loc561 = loc("SameStepAutoReset.step"(#loc183))
#loc598 = loc("scatter-add:"(#loc220))
#loc618 = loc("MCP.step"(#loc240))
#loc621 = loc("to_tokens"(#loc243))
#loc654 = loc("reduce:"(#loc295))
#loc681 = loc("sort:"(#loc339))
#loc777 = loc(callsite(#loc445 at #loc443))
#loc781 = loc(callsite(#loc510 at #loc443))
#loc793 = loc(callsite(#loc530 at #loc532))
#loc800 = loc(callsite(#loc558 at #loc556))
#loc949 = loc(callsite(#loc531 at #loc793))
#loc959 = loc(callsite(#loc561 at #loc800))
#loc1125 = loc(callsite(#loc530 at #loc949))
#loc1152 = loc(callsite(#loc618 at #loc959))
#loc1288 = loc(callsite(#loc529 at #loc1125))
#loc1333 = loc(callsite(#loc621 at #loc1152))
#loc1551 = loc(callsite(#loc535 at #loc1288))
#loc1594 = loc("vmap()"(#loc1333))
module @jit_train_step attributes {jax.uses_shape_polymorphism = false, mhlo.num_partitions = 1 : i32, mhlo.num_replicas = 1 : i32} {
  func.func public @main(%arg0: tensor<i32> loc("state.step"), %arg1: tensor<16x5xi32> loc("state.timestep.obs"), %arg2: tensor<16xi32> loc("state.timestep.action"), %arg3: tensor<16xf32> loc("state.timestep.reward"), %arg4: tensor<16xi1> loc("state.timestep.terminated"), %arg5: tensor<16xi1> loc("state.timestep.truncated"), %arg6: tensor<16xf32> loc("state.timestep.info['fired']"), %arg7: tensor<16xf32> loc("state.timestep.info['guess_count']"), %arg8: tensor<16xf32> loc("state.timestep.info['illegal_guesses']"), %arg9: tensor<16xf32> loc("state.timestep.info['matched_secret']"), %arg10: tensor<16x5xi32> loc("state.environment_state.env_state.secret_answer"), %arg11: tensor<16x5xi32> loc("state.environment_state.env_state.guess_feedback"), %arg12: tensor<16xi1> loc("state.environment_state.env_state.guess_revealed"), %arg13: tensor<16xi32> loc("state.environment_state.env_state.guess_count"), %arg14: tensor<16xi1> loc("state.environment_state.env_state.matched_secret"), %arg15: tensor<16xi1> loc("state.environment_state.active"), %arg16: tensor<16x5xi32> loc("state.environment_state.arguments"), %arg17: tensor<16xi32> loc("state.environment_state.cursor"), %arg18: tensor<16x16xf32> loc("state.carry[1]"), %arg19: tensor<33x16xf32> loc("state.params['params']['feature_extractor']['token_embedding']['embedding']"), %arg20: tensor<16x33xf32> loc("state.params['params']['head']['actor']['kernel']"), %arg21: tensor<1xf32> loc("state.params['params']['head']['critic']['bias']"), %arg22: tensor<16x1xf32> loc("state.params['params']['head']['critic']['kernel']"), %arg23: tensor<16xf32> loc("state.params['params']['torso']['block']['blocks_0']['Dense_0']['bias']"), %arg24: tensor<16x16xf32> loc("state.params['params']['torso']['block']['blocks_0']['Dense_0']['kernel']"), %arg25: tensor<16x16xf32> loc("state.params['params']['torso']['block']['blocks_1']['cell']['candidate']['kernel']"), %arg26: tensor<16x16xf32> loc("state.params['params']['torso']['block']['blocks_1']['cell']['update_gate']['kernel']"), %arg27: tensor<i32> loc("state.optimizer_state[1][0].count"), %arg28: tensor<33x16xf32> loc("state.optimizer_state[1][0].mu['params']['feature_extractor']['token_embedding']['embedding']"), %arg29: tensor<16x33xf32> loc("state.optimizer_state[1][0].mu['params']['head']['actor']['kernel']"), %arg30: tensor<1xf32> loc("state.optimizer_state[1][0].mu['params']['head']['critic']['bias']"), %arg31: tensor<16x1xf32> loc("state.optimizer_state[1][0].mu['params']['head']['critic']['kernel']"), %arg32: tensor<16xf32> loc("state.optimizer_state[1][0].mu['params']['torso']['block']['blocks_0']['Dense_0']['bias']"), %arg33: tensor<16x16xf32> loc("state.optimizer_state[1][0].mu['params']['torso']['block']['blocks_0']['Dense_0']['kernel']"), %arg34: tensor<16x16xf32> loc("state.optimizer_state[1][0].mu['params']['torso']['block']['blocks_1']['cell']['candidate']['kernel']"), %arg35: tensor<16x16xf32> loc("state.optimizer_state[1][0].mu['params']['torso']['block']['blocks_1']['cell']['update_gate']['kernel']"), %arg36: tensor<33x16xf32> loc("state.optimizer_state[1][0].nu['params']['feature_extractor']['token_embedding']['embedding']"), %arg37: tensor<16x33xf32> loc("state.optimizer_state[1][0].nu['params']['head']['actor']['kernel']"), %arg38: tensor<1xf32> loc("state.optimizer_state[1][0].nu['params']['head']['critic']['bias']"), %arg39: tensor<16x1xf32> loc("state.optimizer_state[1][0].nu['params']['head']['critic']['kernel']"), %arg40: tensor<16xf32> loc("state.optimizer_state[1][0].nu['params']['torso']['block']['blocks_0']['Dense_0']['bias']"), %arg41: tensor<16x16xf32> loc("state.optimizer_state[1][0].nu['params']['torso']['block']['blocks_0']['Dense_0']['kernel']"), %arg42: tensor<16x16xf32> loc("state.optimizer_state[1][0].nu['params']['torso']['block']['blocks_1']['cell']['candidate']['kernel']"), %arg43: tensor<16x16xf32> loc("state.optimizer_state[1][0].nu['params']['torso']['block']['blocks_1']['cell']['update_gate']['kernel']"), %arg44: tensor<2xui32> loc("key")) -> (tensor<i32> {jax.result_info = "result[0].step"}, tensor<16x5xi32> {jax.result_info = "result[0].timestep.obs"}, tensor<16xi32> {jax.result_info = "result[0].timestep.action"}, tensor<16xf32> {jax.result_info = "result[0].timestep.reward"}, tensor<16xi1> {jax.result_info = "result[0].timestep.terminated"}, tensor<16xi1> {jax.result_info = "result[0].timestep.truncated"}, tensor<16xf32> {jax.result_info = "result[0].timestep.info['fired']"}, tensor<16xf32> {jax.result_info = "result[0].timestep.info['guess_count']"}, tensor<16xf32> {jax.result_info = "result[0].timestep.info['illegal_guesses']"}, tensor<16xf32> {jax.result_info = "result[0].timestep.info['matched_secret']"}, tensor<16x5xi32> {jax.result_info = "result[0].environment_state.env_state.secret_answer"}, tensor<16x5xi32> {jax.result_info = "result[0].environment_state.env_state.guess_feedback"}, tensor<16xi1> {jax.result_info = "result[0].environment_state.env_state.guess_revealed"}, tensor<16xi32> {jax.result_info = "result[0].environment_state.env_state.guess_count"}, tensor<16xi1> {jax.result_info = "result[0].environment_state.env_state.matched_secret"}, tensor<16xi1> {jax.result_info = "result[0].environment_state.active"}, tensor<16x5xi32> {jax.result_info = "result[0].environment_state.arguments"}, tensor<16xi32> {jax.result_info = "result[0].environment_state.cursor"}, tensor<16x16xf32> {jax.result_info = "result[0].carry[1]"}, tensor<33x16xf32> {jax.result_info = "result[0].params['params']['feature_extractor']['token_embedding']['embedding']"}, tensor<16x33xf32> {jax.result_info = "result[0].params['params']['head']['actor']['kernel']"}, tensor<1xf32> {jax.result_info = "result[0].params['params']['head']['critic']['bias']"}, tensor<16x1xf32> {jax.result_info = "result[0].params['params']['head']['critic']['kernel']"}, tensor<16xf32> {jax.result_info = "result[0].params['params']['torso']['block']['blocks_0']['Dense_0']['bias']"}, tensor<16x16xf32> {jax.result_info = "result[0].params['params']['torso']['block']['blocks_0']['Dense_0']['kernel']"}, tensor<16x16xf32> {jax.result_info = "result[0].params['params']['torso']['block']['blocks_1']['cell']['candidate']['kernel']"}, tensor<16x16xf32> {jax.result_info = "result[0].params['params']['torso']['block']['blocks_1']['cell']['update_gate']['kernel']"}, tensor<i32> {jax.result_info = "result[0].optimizer_state[1][0].count"}, tensor<33x16xf32> {jax.result_info = "result[0].optimizer_state[1][0].mu['params']['feature_extractor']['token_embedding']['embedding']"}, tensor<16x33xf32> {jax.result_info = "result[0].optimizer_state[1][0].mu['params']['head']['actor']['kernel']"}, tensor<1xf32> {jax.result_info = "result[0].optimizer_state[1][0].mu['params']['head']['critic']['bias']"}, tensor<16x1xf32> {jax.result_info = "result[0].optimizer_state[1][0].mu['params']['head']['critic']['kernel']"}, tensor<16xf32> {jax.result_info = "result[0].optimizer_state[1][0].mu['params']['torso']['block']['blocks_0']['Dense_0']['bias']"}, tensor<16x16xf32> {jax.result_info = "result[0].optimizer_state[1][0].mu['params']['torso']['block']['blocks_0']['Dense_0']['kernel']"}, tensor<16x16xf32> {jax.result_info = "result[0].optimizer_state[1][0].mu['params']['torso']['block']['blocks_1']['cell']['candidate']['kernel']"}, tensor<16x16xf32> {jax.result_info = "result[0].optimizer_state[1][0].mu['params']['torso']['block']['blocks_1']['cell']['update_gate']['kernel']"}, tensor<33x16xf32> {jax.result_info = "result[0].optimizer_state[1][0].nu['params']['feature_extractor']['token_embedding']['embedding']"}, tensor<16x33xf32> {jax.result_info = "result[0].optimizer_state[1][0].nu['params']['head']['actor']['kernel']"}, tensor<1xf32> {jax.result_info = "result[0].optimizer_state[1][0].nu['params']['head']['critic']['bias']"}, tensor<16x1xf32> {jax.result_info = "result[0].optimizer_state[1][0].nu['params']['head']['critic']['kernel']"}, tensor<16xf32> {jax.result_info = "result[0].optimizer_state[1][0].nu['params']['torso']['block']['blocks_0']['Dense_0']['bias']"}, tensor<16x16xf32> {jax.result_info = "result[0].optimizer_state[1][0].nu['params']['torso']['block']['blocks_0']['Dense_0']['kernel']"}, tensor<16x16xf32> {jax.result_info = "result[0].optimizer_state[1][0].nu['params']['torso']['block']['blocks_1']['cell']['candidate']['kernel']"}, tensor<16x16xf32> {jax.result_info = "result[0].optimizer_state[1][0].nu['params']['torso']['block']['blocks_1']['cell']['update_gate']['kernel']"}, tensor<f32> {jax.result_info = "result[1]"}) {
    %cst = stablehlo.constant dense<2.560000e+02> : tensor<f32> loc(#loc909)
    %cst_0 = stablehlo.constant dense<1.000000e+00> : tensor<f32> loc(#loc)
    %c = stablehlo.constant dense<-1> : tensor<i32> loc(#loc)
    %c_1 = stablehlo.constant dense<1> : tensor<i32> loc(#loc)
    %c_2 = stablehlo.constant dense<16> : tensor<i32> loc(#loc)
    %c_3 = stablehlo.constant dense<false> : tensor<i1> loc(#loc)
    %cst_4 = stablehlo.constant dense<0.000000e+00> : tensor<f32> loc(#loc)
    %c_5 = stablehlo.constant dense<0> : tensor<i32> loc(#loc)
    %c_6 = stablehlo.constant dense<[1613312, 1732200, 1881040, 2056836, 2091992, 2158163, 2162152, 2267596, 4610763, 5792480, 6194979, 6540820, 7909384, 8911333, 8916731, 9008823]> : tensor<16xi32> loc(#loc909)
    %c_7 = stablehlo.constant dense<[[0, 20, 3, 8, 14], [1, 17, 8, 2, 10], [2, 7, 0, 8, 17], [2, 11, 14, 20, 3], [2, 17, 0, 13, 4], [5, 11, 8, 13, 19], [5, 17, 14, 18, 19], [6, 11, 0, 25, 4], [6, 17, 0, 15, 4], [7, 14, 20, 18, 4], [11, 4, 12, 14, 13], [12, 14, 20, 13, 3], [15, 11, 0, 13, 19], [18, 11, 0, 19, 4], [18, 15, 0, 3, 4], [18, 19, 14, 17, 12]]> : tensor<16x5xi32> loc(#loc909)
    %0 = call @_threefry_split(%arg44) : (tensor<2xui32>) -> tensor<2x2xui32> loc(#loc1252)
    %1 = stablehlo.slice %0 [0:1, 0:2] : (tensor<2x2xui32>) -> tensor<1x2xui32> loc(#loc1082)
    %2 = stablehlo.reshape %1 : (tensor<1x2xui32>) -> tensor<2xui32> loc(#loc1083)
    %3 = stablehlo.slice %0 [1:2, 0:2] : (tensor<2x2xui32>) -> tensor<1x2xui32> loc(#loc1082)
    %4 = stablehlo.reshape %3 : (tensor<1x2xui32>) -> tensor<2xui32> loc(#loc1083)
    %5 = call @_threefry_split(%2) : (tensor<2xui32>) -> tensor<2x2xui32> loc(#loc1488)
    %6 = stablehlo.slice %5 [0:1, 0:2] : (tensor<2x2xui32>) -> tensor<1x2xui32> loc(#loc1254)
    %7 = stablehlo.reshape %6 : (tensor<1x2xui32>) -> tensor<2xui32> loc(#loc1255)
    %8 = stablehlo.slice %5 [1:2, 0:2] : (tensor<2x2xui32>) -> tensor<1x2xui32> loc(#loc1254)
    %9 = stablehlo.reshape %8 : (tensor<1x2xui32>) -> tensor<2xui32> loc(#loc1255)
    %10 = call @_threefry_split_0(%7) : (tensor<2xui32>) -> tensor<16x2xui32> loc(#loc1489)
    %11 = stablehlo.broadcast_in_dim %c_5, dims = [] : (tensor<i32>) -> tensor<16x16x5xi32> loc(#loc1490)
    %12 = stablehlo.broadcast_in_dim %c_5, dims = [] : (tensor<i32>) -> tensor<16x16xi32> loc(#loc1490)
    %13 = stablehlo.broadcast_in_dim %cst_4, dims = [] : (tensor<f32>) -> tensor<16x16xf32> loc(#loc1490)
    %14 = stablehlo.broadcast_in_dim %c_3, dims = [] : (tensor<i1>) -> tensor<16x16xi1> loc(#loc1490)
    %15 = stablehlo.broadcast_in_dim %c_3, dims = [] : (tensor<i1>) -> tensor<16x16xi1> loc(#loc1490)
    %16 = stablehlo.broadcast_in_dim %cst_4, dims = [] : (tensor<f32>) -> tensor<16x16xf32> loc(#loc1490)
    %17 = stablehlo.broadcast_in_dim %cst_4, dims = [] : (tensor<f32>) -> tensor<16x16xf32> loc(#loc1490)
    %18 = stablehlo.broadcast_in_dim %cst_4, dims = [] : (tensor<f32>) -> tensor<16x16xf32> loc(#loc1490)
    %19 = stablehlo.broadcast_in_dim %cst_4, dims = [] : (tensor<f32>) -> tensor<16x16xf32> loc(#loc1490)
    %20 = stablehlo.broadcast_in_dim %c_5, dims = [] : (tensor<i32>) -> tensor<16x16x5xi32> loc(#loc1490)
    %21 = stablehlo.broadcast_in_dim %c_5, dims = [] : (tensor<i32>) -> tensor<16x16xi32> loc(#loc1490)
    %22 = stablehlo.broadcast_in_dim %cst_4, dims = [] : (tensor<f32>) -> tensor<16x16xf32> loc(#loc1490)
    %23 = stablehlo.broadcast_in_dim %c_3, dims = [] : (tensor<i1>) -> tensor<16x16xi1> loc(#loc1490)
    %24 = stablehlo.broadcast_in_dim %c_3, dims = [] : (tensor<i1>) -> tensor<16x16xi1> loc(#loc1490)
    %25 = stablehlo.broadcast_in_dim %cst_4, dims = [] : (tensor<f32>) -> tensor<16x16xf32> loc(#loc1490)
    %26 = stablehlo.broadcast_in_dim %cst_4, dims = [] : (tensor<f32>) -> tensor<16x16xf32> loc(#loc1490)
    %27 = stablehlo.broadcast_in_dim %cst_4, dims = [] : (tensor<f32>) -> tensor<16x16xf32> loc(#loc1490)
    %28 = stablehlo.broadcast_in_dim %cst_4, dims = [] : (tensor<f32>) -> tensor<16x16xf32> loc(#loc1490)
    %29 = stablehlo.broadcast_in_dim %cst_4, dims = [] : (tensor<f32>) -> tensor<16x16xf32> loc(#loc1490)
    %30 = stablehlo.broadcast_in_dim %cst_4, dims = [] : (tensor<f32>) -> tensor<16x16xf32> loc(#loc1490)
    %31:68 = stablehlo.while(%iterArg = %10, %iterArg_8 = %arg19, %iterArg_9 = %arg20, %iterArg_10 = %arg21, %iterArg_11 = %arg22, %iterArg_12 = %arg23, %iterArg_13 = %arg24, %iterArg_14 = %arg25, %iterArg_15 = %arg26, %iterArg_16 = %arg27, %iterArg_17 = %arg28, %iterArg_18 = %arg29, %iterArg_19 = %arg30, %iterArg_20 = %arg31, %iterArg_21 = %arg32, %iterArg_22 = %arg33, %iterArg_23 = %arg34, %iterArg_24 = %arg35, %iterArg_25 = %arg36, %iterArg_26 = %arg37, %iterArg_27 = %arg38, %iterArg_28 = %arg39, %iterArg_29 = %arg40, %iterArg_30 = %arg41, %iterArg_31 = %arg42, %iterArg_32 = %arg43, %iterArg_33 = %c_6, %iterArg_34 = %c_7, %iterArg_35 = %c_5, %iterArg_36 = %arg0, %iterArg_37 = %arg1, %iterArg_38 = %arg2, %iterArg_39 = %arg3, %iterArg_40 = %arg4, %iterArg_41 = %arg5, %iterArg_42 = %arg6, %iterArg_43 = %arg7, %iterArg_44 = %arg8, %iterArg_45 = %arg9, %iterArg_46 = %arg10, %iterArg_47 = %arg11, %iterArg_48 = %arg12, %iterArg_49 = %arg13, %iterArg_50 = %arg14, %iterArg_51 = %arg15, %iterArg_52 = %arg16, %iterArg_53 = %arg17, %iterArg_54 = %arg18, %iterArg_55 = %11, %iterArg_56 = %12, %iterArg_57 = %13, %iterArg_58 = %14, %iterArg_59 = %15, %iterArg_60 = %16, %iterArg_61 = %17, %iterArg_62 = %18, %iterArg_63 = %19, %iterArg_64 = %20, %iterArg_65 = %21, %iterArg_66 = %22, %iterArg_67 = %23, %iterArg_68 = %24, %iterArg_69 = %25, %iterArg_70 = %26, %iterArg_71 = %27, %iterArg_72 = %28, %iterArg_73 = %29, %iterArg_74 = %30) : tensor<16x2xui32>, tensor<33x16xf32>, tensor<16x33xf32>, tensor<1xf32>, tensor<16x1xf32>, tensor<16xf32>, tensor<16x16xf32>, tensor<16x16xf32>, tensor<16x16xf32>, tensor<i32>, tensor<33x16xf32>, tensor<16x33xf32>, tensor<1xf32>, tensor<16x1xf32>, tensor<16xf32>, tensor<16x16xf32>, tensor<16x16xf32>, tensor<16x16xf32>, tensor<33x16xf32>, tensor<16x33xf32>, tensor<1xf32>, tensor<16x1xf32>, tensor<16xf32>, tensor<16x16xf32>, tensor<16x16xf32>, tensor<16x16xf32>, tensor<16xi32>, tensor<16x5xi32>, tensor<i32>, tensor<i32>, tensor<16x5xi32>, tensor<16xi32>, tensor<16xf32>, tensor<16xi1>, tensor<16xi1>, tensor<16xf32>, tensor<16xf32>, tensor<16xf32>, tensor<16xf32>, tensor<16x5xi32>, tensor<16x5xi32>, tensor<16xi1>, tensor<16xi32>, tensor<16xi1>, tensor<16xi1>, tensor<16x5xi32>, tensor<16xi32>, tensor<16x16xf32>, tensor<16x16x5xi32>, tensor<16x16xi32>, tensor<16x16xf32>, tensor<16x16xi1>, tensor<16x16xi1>, tensor<16x16xf32>, tensor<16x16xf32>, tensor<16x16xf32>, tensor<16x16xf32>, tensor<16x16x5xi32>, tensor<16x16xi32>, tensor<16x16xf32>, tensor<16x16xi1>, tensor<16x16xi1>, tensor<16x16xf32>, tensor<16x16xf32>, tensor<16x16xf32>, tensor<16x16xf32>, tensor<16x16xf32>, tensor<16x16xf32>
    cond {
      %148 = stablehlo.compare LT, %iterArg_35, %c_2, SIGNED : (tensor<i32>, tensor<i32>) -> tensor<i1> loc(#loc1492)
      stablehlo.return %148 : tensor<i1> loc(#loc1491)
    } do {
      %148 = func.call @dynamic_index_in_dim(%iterArg, %iterArg_35) : (tensor<16x2xui32>, tensor<i32>) -> tensor<2xui32> loc(#loc1493)
      %149:39 = func.call @closed_call_3(%iterArg_8, %iterArg_9, %iterArg_10, %iterArg_11, %iterArg_12, %iterArg_13, %iterArg_14, %iterArg_15, %iterArg_16, %iterArg_17, %iterArg_18, %iterArg_19, %iterArg_20, %iterArg_21, %iterArg_22, %iterArg_23, %iterArg_24, %iterArg_25, %iterArg_26, %iterArg_27, %iterArg_28, %iterArg_29, %iterArg_30, %iterArg_31, %iterArg_32, %iterArg_33, %iterArg_34, %iterArg_36, %iterArg_37, %iterArg_38, %iterArg_39, %iterArg_40, %iterArg_41, %iterArg_42, %iterArg_43, %iterArg_44, %iterArg_45, %iterArg_46, %iterArg_47, %iterArg_48, %iterArg_49, %iterArg_50, %iterArg_51, %iterArg_52, %iterArg_53, %iterArg_54, %148) : (tensor<33x16xf32>, tensor<16x33xf32>, tensor<1xf32>, tensor<16x1xf32>, tensor<16xf32>, tensor<16x16xf32>, tensor<16x16xf32>, tensor<16x16xf32>, tensor<i32>, tensor<33x16xf32>, tensor<16x33xf32>, tensor<1xf32>, tensor<16x1xf32>, tensor<16xf32>, tensor<16x16xf32>, tensor<16x16xf32>, tensor<16x16xf32>, tensor<33x16xf32>, tensor<16x33xf32>, tensor<1xf32>, tensor<16x1xf32>, tensor<16xf32>, tensor<16x16xf32>, tensor<16x16xf32>, tensor<16x16xf32>, tensor<16xi32>, tensor<16x5xi32>, tensor<i32>, tensor<16x5xi32>, tensor<16xi32>, tensor<16xf32>, tensor<16xi1>, tensor<16xi1>, tensor<16xf32>, tensor<16xf32>, tensor<16xf32>, tensor<16xf32>, tensor<16x5xi32>, tensor<16x5xi32>, tensor<16xi1>, tensor<16xi32>, tensor<16xi1>, tensor<16xi1>, tensor<16x5xi32>, tensor<16xi32>, tensor<16x16xf32>, tensor<2xui32>) -> (tensor<i32>, tensor<16x5xi32>, tensor<16xi32>, tensor<16xf32>, tensor<16xi1>, tensor<16xi1>, tensor<16xf32>, tensor<16xf32>, tensor<16xf32>, tensor<16xf32>, tensor<16x5xi32>, tensor<16x5xi32>, tensor<16xi1>, tensor<16xi32>, tensor<16xi1>, tensor<16xi1>, tensor<16x5xi32>, tensor<16xi32>, tensor<16x16xf32>, tensor<16x5xi32>, tensor<16xi32>, tensor<16xf32>, tensor<16xi1>, tensor<16xi1>, tensor<16xf32>, tensor<16xf32>, tensor<16xf32>, tensor<16xf32>, tensor<16x5xi32>, tensor<16xi32>, tensor<16xf32>, tensor<16xi1>, tensor<16xi1>, tensor<16xf32>, tensor<16xf32>, tensor<16xf32>, tensor<16xf32>, tensor<16xf32>, tensor<16xf32>) loc(#loc1494)
      %150 = func.call @dynamic_update_index_in_dim_40(%iterArg_55, %149#19, %iterArg_35) : (tensor<16x16x5xi32>, tensor<16x5xi32>, tensor<i32>) -> tensor<16x16x5xi32> loc(#loc1495)
      %151 = func.call @dynamic_update_index_in_dim_41(%iterArg_56, %149#20, %iterArg_35) : (tensor<16x16xi32>, tensor<16xi32>, tensor<i32>) -> tensor<16x16xi32> loc(#loc1495)
      %152 = func.call @dynamic_update_index_in_dim_42(%iterArg_57, %149#21, %iterArg_35) : (tensor<16x16xf32>, tensor<16xf32>, tensor<i32>) -> tensor<16x16xf32> loc(#loc1495)
      %153 = func.call @dynamic_update_index_in_dim_43(%iterArg_58, %149#22, %iterArg_35) : (tensor<16x16xi1>, tensor<16xi1>, tensor<i32>) -> tensor<16x16xi1> loc(#loc1495)
      %154 = func.call @dynamic_update_index_in_dim_43(%iterArg_59, %149#23, %iterArg_35) : (tensor<16x16xi1>, tensor<16xi1>, tensor<i32>) -> tensor<16x16xi1> loc(#loc1495)
      %155 = func.call @dynamic_update_index_in_dim_42(%iterArg_60, %149#24, %iterArg_35) : (tensor<16x16xf32>, tensor<16xf32>, tensor<i32>) -> tensor<16x16xf32> loc(#loc1495)
      %156 = func.call @dynamic_update_index_in_dim_42(%iterArg_61, %149#25, %iterArg_35) : (tensor<16x16xf32>, tensor<16xf32>, tensor<i32>) -> tensor<16x16xf32> loc(#loc1495)
      %157 = func.call @dynamic_update_index_in_dim_42(%iterArg_62, %149#26, %iterArg_35) : (tensor<16x16xf32>, tensor<16xf32>, tensor<i32>) -> tensor<16x16xf32> loc(#loc1495)
      %158 = func.call @dynamic_update_index_in_dim_42(%iterArg_63, %149#27, %iterArg_35) : (tensor<16x16xf32>, tensor<16xf32>, tensor<i32>) -> tensor<16x16xf32> loc(#loc1495)
      %159 = func.call @dynamic_update_index_in_dim_40(%iterArg_64, %149#28, %iterArg_35) : (tensor<16x16x5xi32>, tensor<16x5xi32>, tensor<i32>) -> tensor<16x16x5xi32> loc(#loc1495)
      %160 = func.call @dynamic_update_index_in_dim_41(%iterArg_65, %149#29, %iterArg_35) : (tensor<16x16xi32>, tensor<16xi32>, tensor<i32>) -> tensor<16x16xi32> loc(#loc1495)
      %161 = func.call @dynamic_update_index_in_dim_42(%iterArg_66, %149#30, %iterArg_35) : (tensor<16x16xf32>, tensor<16xf32>, tensor<i32>) -> tensor<16x16xf32> loc(#loc1495)
      %162 = func.call @dynamic_update_index_in_dim_43(%iterArg_67, %149#31, %iterArg_35) : (tensor<16x16xi1>, tensor<16xi1>, tensor<i32>) -> tensor<16x16xi1> loc(#loc1495)
      %163 = func.call @dynamic_update_index_in_dim_43(%iterArg_68, %149#32, %iterArg_35) : (tensor<16x16xi1>, tensor<16xi1>, tensor<i32>) -> tensor<16x16xi1> loc(#loc1495)
      %164 = func.call @dynamic_update_index_in_dim_42(%iterArg_69, %149#33, %iterArg_35) : (tensor<16x16xf32>, tensor<16xf32>, tensor<i32>) -> tensor<16x16xf32> loc(#loc1495)
      %165 = func.call @dynamic_update_index_in_dim_42(%iterArg_70, %149#34, %iterArg_35) : (tensor<16x16xf32>, tensor<16xf32>, tensor<i32>) -> tensor<16x16xf32> loc(#loc1495)
      %166 = func.call @dynamic_update_index_in_dim_42(%iterArg_71, %149#35, %iterArg_35) : (tensor<16x16xf32>, tensor<16xf32>, tensor<i32>) -> tensor<16x16xf32> loc(#loc1495)
      %167 = func.call @dynamic_update_index_in_dim_42(%iterArg_72, %149#36, %iterArg_35) : (tensor<16x16xf32>, tensor<16xf32>, tensor<i32>) -> tensor<16x16xf32> loc(#loc1495)
      %168 = func.call @dynamic_update_index_in_dim_42(%iterArg_73, %149#37, %iterArg_35) : (tensor<16x16xf32>, tensor<16xf32>, tensor<i32>) -> tensor<16x16xf32> loc(#loc1495)
      %169 = func.call @dynamic_update_index_in_dim_42(%iterArg_74, %149#38, %iterArg_35) : (tensor<16x16xf32>, tensor<16xf32>, tensor<i32>) -> tensor<16x16xf32> loc(#loc1495)
      %170 = stablehlo.add %iterArg_35, %c_1 : tensor<i32> loc(#loc1496)
      stablehlo.return %iterArg, %iterArg_8, %iterArg_9, %iterArg_10, %iterArg_11, %iterArg_12, %iterArg_13, %iterArg_14, %iterArg_15, %iterArg_16, %iterArg_17, %iterArg_18, %iterArg_19, %iterArg_20, %iterArg_21, %iterArg_22, %iterArg_23, %iterArg_24, %iterArg_25, %iterArg_26, %iterArg_27, %iterArg_28, %iterArg_29, %iterArg_30, %iterArg_31, %iterArg_32, %iterArg_33, %iterArg_34, %170, %149#0, %149#1, %149#2, %149#3, %149#4, %149#5, %149#6, %149#7, %149#8, %149#9, %149#10, %149#11, %149#12, %149#13, %149#14, %149#15, %149#16, %149#17, %149#18, %150, %151, %152, %153, %154, %155, %156, %157, %158, %159, %160, %161, %162, %163, %164, %165, %166, %167, %168, %169 : tensor<16x2xui32>, tensor<33x16xf32>, tensor<16x33xf32>, tensor<1xf32>, tensor<16x1xf32>, tensor<16xf32>, tensor<16x16xf32>, tensor<16x16xf32>, tensor<16x16xf32>, tensor<i32>, tensor<33x16xf32>, tensor<16x33xf32>, tensor<1xf32>, tensor<16x1xf32>, tensor<16xf32>, tensor<16x16xf32>, tensor<16x16xf32>, tensor<16x16xf32>, tensor<33x16xf32>, tensor<16x33xf32>, tensor<1xf32>, tensor<16x1xf32>, tensor<16xf32>, tensor<16x16xf32>, tensor<16x16xf32>, tensor<16x16xf32>, tensor<16xi32>, tensor<16x5xi32>, tensor<i32>, tensor<i32>, tensor<16x5xi32>, tensor<16xi32>, tensor<16xf32>, tensor<16xi1>, tensor<16xi1>, tensor<16xf32>, tensor<16xf32>, tensor<16xf32>, tensor<16xf32>, tensor<16x5xi32>, tensor<16x5xi32>, tensor<16xi1>, tensor<16xi32>, tensor<16xi1>, tensor<16xi1>, tensor<16x5xi32>, tensor<16xi32>, tensor<16x16xf32>, tensor<16x16x5xi32>, tensor<16x16xi32>, tensor<16x16xf32>, tensor<16x16xi1>, tensor<16x16xi1>, tensor<16x16xf32>, tensor<16x16xf32>, tensor<16x16xf32>, tensor<16x16xf32>, tensor<16x16x5xi32>, tensor<16x16xi32>, tensor<16x16xf32>, tensor<16x16xi1>, tensor<16x16xi1>, tensor<16x16xf32>, tensor<16x16xf32>, tensor<16x16xf32>, tensor<16x16xf32>, tensor<16x16xf32>, tensor<16x16xf32> loc(#loc1491)
    } loc(#loc1491)
    %32 = stablehlo.broadcast_in_dim %31#30, dims = [0, 2] : (tensor<16x5xi32>) -> tensor<16x1x5xi32> loc(#loc1768)
    %33 = stablehlo.broadcast_in_dim %31#31, dims = [0] : (tensor<16xi32>) -> tensor<16x1xi32> loc(#loc1768)
    %34 = stablehlo.broadcast_in_dim %31#33, dims = [0] : (tensor<16xi1>) -> tensor<16x1xi1> loc(#loc1768)
    %35 = stablehlo.broadcast_in_dim %31#34, dims = [0] : (tensor<16xi1>) -> tensor<16x1xi1> loc(#loc1768)
    %36 = stablehlo.or %34, %35 : tensor<16x1xi1> loc(#loc1498)
    %37 = call @_take(%arg19, %33) : (tensor<33x16xf32>, tensor<16x1xi32>) -> tensor<16x1x16xf32> loc(#loc2046)
    %38 = stablehlo.broadcast_in_dim %37, dims = [0, 1, 3] : (tensor<16x1x16xf32>) -> tensor<16x1x1x16xf32> loc(#loc1770)
    %39 = call @_take_4(%arg19, %32) : (tensor<33x16xf32>, tensor<16x1x5xi32>) -> tensor<16x1x5x16xf32> loc(#loc2047)
    %40 = stablehlo.concatenate %38, %39, dim = 2 : (tensor<16x1x1x16xf32>, tensor<16x1x5x16xf32>) -> tensor<16x1x6x16xf32> loc(#loc1772)
    %41 = stablehlo.reshape %40 : (tensor<16x1x6x16xf32>) -> tensor<16x6x16xf32> loc(#loc1773)
    %42 = stablehlo.broadcast_in_dim %c_3, dims = [] : (tensor<i1>) -> tensor<16x1x6xi1> loc(#loc1774)
    %43 = stablehlo.broadcast_in_dim %c_5, dims = [] : (tensor<i32>) -> tensor<1xi32> loc(#loc1775)
    %44 = "stablehlo.scatter"(%42, %43, %36) <{indices_are_sorted = true, scatter_dimension_numbers = #stablehlo.scatter<update_window_dims = [0, 1], inserted_window_dims = [2], scatter_dims_to_operand_dims = [2]>, unique_indices = true}> ({
    ^bb0(%arg45: tensor<i1> loc("scatter:"(#loc71)), %arg46: tensor<i1> loc("scatter:"(#loc71))):
      stablehlo.return %arg46 : tensor<i1> loc(#loc1776)
    }) : (tensor<16x1x6xi1>, tensor<1xi32>, tensor<16x1xi1>) -> tensor<16x1x6xi1> loc(#loc1776)
    %45 = stablehlo.reshape %44 : (tensor<16x1x6xi1>) -> tensor<16x6xi1> loc(#loc1777)
    %46 = stablehlo.dot_general %41, %arg24, contracting_dims = [2] x [0] : (tensor<16x6x16xf32>, tensor<16x16xf32>) -> tensor<16x6x16xf32> loc(#loc2363)
    %47 = stablehlo.reshape %arg23 : (tensor<16xf32>) -> tensor<1x1x16xf32> loc(#loc2364)
    %48 = stablehlo.broadcast_in_dim %47, dims = [0, 1, 2] : (tensor<1x1x16xf32>) -> tensor<16x6x16xf32> loc(#loc2365)
    %49 = stablehlo.add %46, %48 : tensor<16x6x16xf32> loc(#loc2365)
    %50 = call @relu(%49) : (tensor<16x6x16xf32>) -> tensor<16x6x16xf32> loc(#loc2313)
    %51 = stablehlo.broadcast_in_dim %cst_4, dims = [] : (tensor<f32>) -> tensor<16x16xf32> loc(#loc2366)
    %52 = stablehlo.dot_general %50, %arg26, contracting_dims = [2] x [0] : (tensor<16x6x16xf32>, tensor<16x16xf32>) -> tensor<16x6x16xf32> loc(#loc2376)
    %53 = stablehlo.negate %52 : tensor<16x6x16xf32> loc(#loc2377)
    %54 = stablehlo.exponential %53 : tensor<16x6x16xf32> loc(#loc2378)
    %55 = stablehlo.broadcast_in_dim %cst_0, dims = [] : (tensor<f32>) -> tensor<16x6x16xf32> loc(#loc2379)
    %56 = stablehlo.add %55, %54 : tensor<16x6x16xf32> loc(#loc2379)
    %57 = stablehlo.broadcast_in_dim %cst_0, dims = [] : (tensor<f32>) -> tensor<16x6x16xf32> loc(#loc2380)
    %58 = stablehlo.divide %57, %56 : tensor<16x6x16xf32> loc(#loc2380)
    %59 = stablehlo.broadcast_in_dim %cst_0, dims = [] : (tensor<f32>) -> tensor<16x6x16xf32> loc(#loc2369)
    %60 = stablehlo.subtract %59, %58 : tensor<16x6x16xf32> loc(#loc2369)
    %61 = stablehlo.dot_general %50, %arg25, contracting_dims = [2] x [0] : (tensor<16x6x16xf32>, tensor<16x16xf32>) -> tensor<16x6x16xf32> loc(#loc2381)
    %62 = stablehlo.multiply %58, %61 : tensor<16x6x16xf32> loc(#loc2371)
    %63 = stablehlo.reshape %45 : (tensor<16x6xi1>) -> tensor<16x6x1xi1> loc(#loc2372)
    %64 = stablehlo.convert %63 : (tensor<16x6x1xi1>) -> tensor<16x6x1xf32> loc(#loc2321)
    %65 = stablehlo.broadcast_in_dim %64, dims = [0, 1, 2] : (tensor<16x6x1xf32>) -> tensor<16x6x16xf32> loc(#loc2322)
    %66 = stablehlo.multiply %65, %60 : tensor<16x6x16xf32> loc(#loc2322)
    %67 = stablehlo.broadcast_in_dim %51, dims = [0, 2] : (tensor<16x16xf32>) -> tensor<16x1x16xf32> loc(#loc2323)
    %68 = stablehlo.broadcast_in_dim %67, dims = [0, 1, 2] : (tensor<16x1x16xf32>) -> tensor<16x6x16xf32> loc(#loc2324)
    %69 = stablehlo.multiply %66, %68 : tensor<16x6x16xf32> loc(#loc2324)
    %70 = stablehlo.add %62, %69 : tensor<16x6x16xf32> loc(#loc2325)
    %71 = stablehlo.convert %63 : (tensor<16x6x1xi1>) -> tensor<16x6x1xi32> loc(#loc2326)
    %72 = stablehlo.broadcast_in_dim %c_1, dims = [] : (tensor<i32>) -> tensor<16x6x1xi32> loc(#loc2327)
    %73 = stablehlo.subtract %72, %71 : tensor<16x6x1xi32> loc(#loc2327)
    %74 = stablehlo.convert %73 : (tensor<16x6x1xi32>) -> tensor<16x6x1xf32> loc(#loc2328)
    %75 = stablehlo.broadcast_in_dim %74, dims = [0, 1, 2] : (tensor<16x6x1xf32>) -> tensor<16x6x16xf32> loc(#loc2329)
    %76 = stablehlo.multiply %75, %60 : tensor<16x6x16xf32> loc(#loc2329)
    %77 = stablehlo.slice %76 [0:16, 0:5:2, 0:16] : (tensor<16x6x16xf32>) -> tensor<16x3x16xf32> loc(#loc2330)
    %78 = stablehlo.slice %70 [0:16, 0:5:2, 0:16] : (tensor<16x6x16xf32>) -> tensor<16x3x16xf32> loc(#loc2330)
    %79 = stablehlo.slice %76 [0:16, 1:6:2, 0:16] : (tensor<16x6x16xf32>) -> tensor<16x3x16xf32> loc(#loc2330)
    %80 = stablehlo.slice %70 [0:16, 1:6:2, 0:16] : (tensor<16x6x16xf32>) -> tensor<16x3x16xf32> loc(#loc2330)
    %81 = stablehlo.multiply %79, %77 : tensor<16x3x16xf32> loc(#loc2373)
    %82 = stablehlo.multiply %79, %78 : tensor<16x3x16xf32> loc(#loc2374)
    %83 = stablehlo.add %82, %80 : tensor<16x3x16xf32> loc(#loc2375)
    %84 = stablehlo.slice %81 [0:16, 0:2:2, 0:16] : (tensor<16x3x16xf32>) -> tensor<16x1x16xf32> loc(#loc2330)
    %85 = stablehlo.slice %83 [0:16, 0:2:2, 0:16] : (tensor<16x3x16xf32>) -> tensor<16x1x16xf32> loc(#loc2330)
    %86 = stablehlo.slice %81 [0:16, 1:3:2, 0:16] : (tensor<16x3x16xf32>) -> tensor<16x1x16xf32> loc(#loc2330)
    %87 = stablehlo.slice %83 [0:16, 1:3:2, 0:16] : (tensor<16x3x16xf32>) -> tensor<16x1x16xf32> loc(#loc2330)
    %88 = stablehlo.multiply %86, %84 : tensor<16x1x16xf32> loc(#loc2373)
    %89 = stablehlo.multiply %86, %85 : tensor<16x1x16xf32> loc(#loc2374)
    %90 = stablehlo.add %89, %87 : tensor<16x1x16xf32> loc(#loc2375)
    %91 = stablehlo.slice %81 [0:16, 2:3:2, 0:16] : (tensor<16x3x16xf32>) -> tensor<16x1x16xf32> loc(#loc2330)
    %92 = stablehlo.slice %83 [0:16, 2:3:2, 0:16] : (tensor<16x3x16xf32>) -> tensor<16x1x16xf32> loc(#loc2330)
    %93 = stablehlo.multiply %91, %88 : tensor<16x1x16xf32> loc(#loc2373)
    %94 = stablehlo.multiply %91, %90 : tensor<16x1x16xf32> loc(#loc2374)
    %95 = stablehlo.add %94, %92 : tensor<16x1x16xf32> loc(#loc2375)
    %96 = stablehlo.slice %81 [0:16, 0:1, 0:16] : (tensor<16x3x16xf32>) -> tensor<16x1x16xf32> loc(#loc2330)
    %97 = stablehlo.concatenate %96, %93, dim = 1 : (tensor<16x1x16xf32>, tensor<16x1x16xf32>) -> tensor<16x2x16xf32> loc(#loc2334)
    %98 = stablehlo.slice %83 [0:16, 0:1, 0:16] : (tensor<16x3x16xf32>) -> tensor<16x1x16xf32> loc(#loc2330)
    %99 = stablehlo.concatenate %98, %95, dim = 1 : (tensor<16x1x16xf32>, tensor<16x1x16xf32>) -> tensor<16x2x16xf32> loc(#loc2334)
    %100 = stablehlo.pad %97, %cst_4, low = [0, 0, 0], high = [0, 0, 0], interior = [0, 1, 0] : (tensor<16x2x16xf32>, tensor<f32>) -> tensor<16x3x16xf32> loc(#loc2335)
    %101 = stablehlo.pad %88, %cst_4, low = [0, 1, 0], high = [0, 1, 0], interior = [0, 1, 0] : (tensor<16x1x16xf32>, tensor<f32>) -> tensor<16x3x16xf32> loc(#loc2335)
    %102 = stablehlo.add %100, %101 : tensor<16x3x16xf32> loc(#loc2336)
    %103 = stablehlo.pad %99, %cst_4, low = [0, 0, 0], high = [0, 0, 0], interior = [0, 1, 0] : (tensor<16x2x16xf32>, tensor<f32>) -> tensor<16x3x16xf32> loc(#loc2335)
    %104 = stablehlo.pad %90, %cst_4, low = [0, 1, 0], high = [0, 1, 0], interior = [0, 1, 0] : (tensor<16x1x16xf32>, tensor<f32>) -> tensor<16x3x16xf32> loc(#loc2335)
    %105 = stablehlo.add %103, %104 : tensor<16x3x16xf32> loc(#loc2336)
    %106 = stablehlo.slice %102 [0:16, 0:2, 0:16] : (tensor<16x3x16xf32>) -> tensor<16x2x16xf32> loc(#loc2330)
    %107 = stablehlo.slice %105 [0:16, 0:2, 0:16] : (tensor<16x3x16xf32>) -> tensor<16x2x16xf32> loc(#loc2330)
    %108 = stablehlo.slice %76 [0:16, 2:6:2, 0:16] : (tensor<16x6x16xf32>) -> tensor<16x2x16xf32> loc(#loc2330)
    %109 = stablehlo.slice %70 [0:16, 2:6:2, 0:16] : (tensor<16x6x16xf32>) -> tensor<16x2x16xf32> loc(#loc2330)
    %110 = stablehlo.multiply %108, %106 : tensor<16x2x16xf32> loc(#loc2373)
    %111 = stablehlo.multiply %108, %107 : tensor<16x2x16xf32> loc(#loc2374)
    %112 = stablehlo.add %111, %109 : tensor<16x2x16xf32> loc(#loc2375)
    %113 = stablehlo.slice %76 [0:16, 0:1, 0:16] : (tensor<16x6x16xf32>) -> tensor<16x1x16xf32> loc(#loc2330)
    %114 = stablehlo.concatenate %113, %110, dim = 1 : (tensor<16x1x16xf32>, tensor<16x2x16xf32>) -> tensor<16x3x16xf32> loc(#loc2334)
    %115 = stablehlo.slice %70 [0:16, 0:1, 0:16] : (tensor<16x6x16xf32>) -> tensor<16x1x16xf32> loc(#loc2330)
    %116 = stablehlo.concatenate %115, %112, dim = 1 : (tensor<16x1x16xf32>, tensor<16x2x16xf32>) -> tensor<16x3x16xf32> loc(#loc2334)
    %117 = stablehlo.pad %114, %cst_4, low = [0, 0, 0], high = [0, 1, 0], interior = [0, 1, 0] : (tensor<16x3x16xf32>, tensor<f32>) -> tensor<16x6x16xf32> loc(#loc2335)
    %118 = stablehlo.pad %102, %cst_4, low = [0, 1, 0], high = [0, 0, 0], interior = [0, 1, 0] : (tensor<16x3x16xf32>, tensor<f32>) -> tensor<16x6x16xf32> loc(#loc2335)
    %119 = stablehlo.add %117, %118 : tensor<16x6x16xf32> loc(#loc2336)
    %120 = stablehlo.pad %116, %cst_4, low = [0, 0, 0], high = [0, 1, 0], interior = [0, 1, 0] : (tensor<16x3x16xf32>, tensor<f32>) -> tensor<16x6x16xf32> loc(#loc2335)
    %121 = stablehlo.pad %105, %cst_4, low = [0, 1, 0], high = [0, 0, 0], interior = [0, 1, 0] : (tensor<16x3x16xf32>, tensor<f32>) -> tensor<16x6x16xf32> loc(#loc2335)
    %122 = stablehlo.add %120, %121 : tensor<16x6x16xf32> loc(#loc2336)
    %123 = stablehlo.broadcast_in_dim %31#47, dims = [0, 2] : (tensor<16x16xf32>) -> tensor<16x1x16xf32> loc(#loc2337)
    %124 = stablehlo.broadcast_in_dim %123, dims = [0, 1, 2] : (tensor<16x1x16xf32>) -> tensor<16x6x16xf32> loc(#loc2338)
    %125 = stablehlo.multiply %119, %124 : tensor<16x6x16xf32> loc(#loc2338)
    %126 = stablehlo.add %122, %125 : tensor<16x6x16xf32> loc(#loc2339)
    %127 = call @_take_6(%126, %c) : (tensor<16x6x16xf32>, tensor<i32>) -> tensor<16x16xf32> loc(#loc2340)
    %128 = stablehlo.reshape %126 : (tensor<16x6x16xf32>) -> tensor<16x1x6x16xf32> loc(#loc1780)
    %129 = stablehlo.slice %128 [0:16, 0:1, 5:6, 0:16] : (tensor<16x1x6x16xf32>) -> tensor<16x1x1x16xf32> loc(#loc1781)
    %130 = stablehlo.reshape %129 : (tensor<16x1x1x16xf32>) -> tensor<16x1x16xf32> loc(#loc1782)
    %131 = stablehlo.dot_general %130, %arg22, contracting_dims = [2] x [0] : (tensor<16x1x16xf32>, tensor<16x1xf32>) -> tensor<16x1x1xf32> loc(#loc2049)
    %132 = stablehlo.reshape %arg21 : (tensor<1xf32>) -> tensor<1x1x1xf32> loc(#loc2050)
    %133 = stablehlo.broadcast_in_dim %132, dims = [0, 1, 2] : (tensor<1x1x1xf32>) -> tensor<16x1x1xf32> loc(#loc2051)
    %134 = stablehlo.add %131, %133 : tensor<16x1x1xf32> loc(#loc2051)
    %135 = stablehlo.reshape %134 : (tensor<16x1x1xf32>) -> tensor<16x1xf32> loc(#loc1512)
    %136 = stablehlo.reshape %135 : (tensor<16x1xf32>) -> tensor<16xf32> loc(#loc1513)
    %137 = stablehlo.broadcast_in_dim %cst_4, dims = [] : (tensor<f32>) -> tensor<16xf32> loc(#loc1514)
    %138 = stablehlo.broadcast_in_dim %cst_4, dims = [] : (tensor<f32>) -> tensor<16x16xf32> loc(#loc1786)
    %139:8 = stablehlo.while(%iterArg = %31#59, %iterArg_8 = %31#60, %iterArg_9 = %31#61, %iterArg_10 = %31#67, %iterArg_11 = %c_5, %iterArg_12 = %137, %iterArg_13 = %136, %iterArg_14 = %138) : tensor<16x16xf32>, tensor<16x16xi1>, tensor<16x16xi1>, tensor<16x16xf32>, tensor<i32>, tensor<16xf32>, tensor<16xf32>, tensor<16x16xf32>
    cond {
      %148 = stablehlo.compare LT, %iterArg_11, %c_2, SIGNED : (tensor<i32>, tensor<i32>) -> tensor<i1> loc(#loc1788)
      stablehlo.return %148 : tensor<i1> loc(#loc1787)
    } do {
      %148 = stablehlo.subtract %c_2, %iterArg_11 : tensor<i32> loc(#loc1789)
      %149 = stablehlo.subtract %148, %c_1 : tensor<i32> loc(#loc1789)
      %150 = func.call @dynamic_index_in_dim_44(%iterArg, %149) : (tensor<16x16xf32>, tensor<i32>) -> tensor<16xf32> loc(#loc1790)
      %151 = func.call @dynamic_index_in_dim_45(%iterArg_8, %149) : (tensor<16x16xi1>, tensor<i32>) -> tensor<16xi1> loc(#loc1790)
      %152 = func.call @dynamic_index_in_dim_45(%iterArg_9, %149) : (tensor<16x16xi1>, tensor<i32>) -> tensor<16xi1> loc(#loc1790)
      %153 = func.call @dynamic_index_in_dim_44(%iterArg_10, %149) : (tensor<16x16xf32>, tensor<i32>) -> tensor<16xf32> loc(#loc1790)
      %154:3 = func.call @closed_call_46(%iterArg_12, %iterArg_13, %150, %151, %152, %153) : (tensor<16xf32>, tensor<16xf32>, tensor<16xf32>, tensor<16xi1>, tensor<16xi1>, tensor<16xf32>) -> (tensor<16xf32>, tensor<16xf32>, tensor<16xf32>) loc(#loc1791)
      %155 = func.call @dynamic_update_index_in_dim_42(%iterArg_14, %154#2, %149) : (tensor<16x16xf32>, tensor<16xf32>, tensor<i32>) -> tensor<16x16xf32> loc(#loc1792)
      %156 = stablehlo.add %iterArg_11, %c_1 : tensor<i32> loc(#loc1793)
      stablehlo.return %iterArg, %iterArg_8, %iterArg_9, %iterArg_10, %156, %154#0, %154#1, %155 : tensor<16x16xf32>, tensor<16x16xi1>, tensor<16x16xi1>, tensor<16x16xf32>, tensor<i32>, tensor<16xf32>, tensor<16xf32>, tensor<16x16xf32> loc(#loc1787)
    } loc(#loc1787)
    %140 = stablehlo.add %139#7, %31#67 : tensor<16x16xf32> loc(#loc1517)
    %141 = call @_threefry_split_47(%9) : (tensor<2xui32>) -> tensor<1x2xui32> loc(#loc1518)
    %142:69 = stablehlo.while(%iterArg = %141, %iterArg_8 = %31#29, %iterArg_9 = %31#30, %iterArg_10 = %31#31, %iterArg_11 = %31#32, %iterArg_12 = %31#33, %iterArg_13 = %31#34, %iterArg_14 = %31#35, %iterArg_15 = %31#36, %iterArg_16 = %31#37, %iterArg_17 = %31#38, %iterArg_18 = %31#39, %iterArg_19 = %31#40, %iterArg_20 = %31#41, %iterArg_21 = %31#42, %iterArg_22 = %31#43, %iterArg_23 = %31#44, %iterArg_24 = %31#45, %iterArg_25 = %31#46, %iterArg_26 = %31#47, %iterArg_27 = %31#48, %iterArg_28 = %31#49, %iterArg_29 = %31#50, %iterArg_30 = %31#51, %iterArg_31 = %31#52, %iterArg_32 = %31#53, %iterArg_33 = %31#54, %iterArg_34 = %31#55, %iterArg_35 = %31#56, %iterArg_36 = %31#57, %iterArg_37 = %31#58, %iterArg_38 = %31#59, %iterArg_39 = %31#60, %iterArg_40 = %31#61, %iterArg_41 = %31#62, %iterArg_42 = %31#63, %iterArg_43 = %31#64, %iterArg_44 = %31#65, %iterArg_45 = %139#7, %iterArg_46 = %31#66, %iterArg_47 = %140, %iterArg_48 = %31#67, %iterArg_49 = %arg18, %iterArg_50 = %c_5, %iterArg_51 = %arg19, %iterArg_52 = %arg20, %iterArg_53 = %arg21, %iterArg_54 = %arg22, %iterArg_55 = %arg23, %iterArg_56 = %arg24, %iterArg_57 = %arg25, %iterArg_58 = %arg26, %iterArg_59 = %arg27, %iterArg_60 = %arg28, %iterArg_61 = %arg29, %iterArg_62 = %arg30, %iterArg_63 = %arg31, %iterArg_64 = %arg32, %iterArg_65 = %arg33, %iterArg_66 = %arg34, %iterArg_67 = %arg35, %iterArg_68 = %arg36, %iterArg_69 = %arg37, %iterArg_70 = %arg38, %iterArg_71 = %arg39, %iterArg_72 = %arg40, %iterArg_73 = %arg41, %iterArg_74 = %arg42, %iterArg_75 = %arg43) : tensor<1x2xui32>, tensor<i32>, tensor<16x5xi32>, tensor<16xi32>, tensor<16xf32>, tensor<16xi1>, tensor<16xi1>, tensor<16xf32>, tensor<16xf32>, tensor<16xf32>, tensor<16xf32>, tensor<16x5xi32>, tensor<16x5xi32>, tensor<16xi1>, tensor<16xi32>, tensor<16xi1>, tensor<16xi1>, tensor<16x5xi32>, tensor<16xi32>, tensor<16x16xf32>, tensor<16x16x5xi32>, tensor<16x16xi32>, tensor<16x16xf32>, tensor<16x16xi1>, tensor<16x16xi1>, tensor<16x16xf32>, tensor<16x16xf32>, tensor<16x16xf32>, tensor<16x16xf32>, tensor<16x16x5xi32>, tensor<16x16xi32>, tensor<16x16xf32>, tensor<16x16xi1>, tensor<16x16xi1>, tensor<16x16xf32>, tensor<16x16xf32>, tensor<16x16xf32>, tensor<16x16xf32>, tensor<16x16xf32>, tensor<16x16xf32>, tensor<16x16xf32>, tensor<16x16xf32>, tensor<16x16xf32>, tensor<i32>, tensor<33x16xf32>, tensor<16x33xf32>, tensor<1xf32>, tensor<16x1xf32>, tensor<16xf32>, tensor<16x16xf32>, tensor<16x16xf32>, tensor<16x16xf32>, tensor<i32>, tensor<33x16xf32>, tensor<16x33xf32>, tensor<1xf32>, tensor<16x1xf32>, tensor<16xf32>, tensor<16x16xf32>, tensor<16x16xf32>, tensor<16x16xf32>, tensor<33x16xf32>, tensor<16x33xf32>, tensor<1xf32>, tensor<16x1xf32>, tensor<16xf32>, tensor<16x16xf32>, tensor<16x16xf32>, tensor<16x16xf32>
    cond {
      %148 = stablehlo.compare LT, %iterArg_50, %c_1, SIGNED : (tensor<i32>, tensor<i32>) -> tensor<i1> loc(#loc1520)
      stablehlo.return %148 : tensor<i1> loc(#loc1519)
    } do {
      %148 = func.call @dynamic_index_in_dim_50(%iterArg, %iterArg_50) : (tensor<1x2xui32>, tensor<i32>) -> tensor<2xui32> loc(#loc1521)
      %149:25 = func.call @closed_call_51(%iterArg_8, %iterArg_9, %iterArg_10, %iterArg_11, %iterArg_12, %iterArg_13, %iterArg_14, %iterArg_15, %iterArg_16, %iterArg_17, %iterArg_18, %iterArg_19, %iterArg_20, %iterArg_21, %iterArg_22, %iterArg_23, %iterArg_24, %iterArg_25, %iterArg_26, %iterArg_27, %iterArg_28, %iterArg_29, %iterArg_30, %iterArg_31, %iterArg_32, %iterArg_33, %iterArg_34, %iterArg_35, %iterArg_36, %iterArg_37, %iterArg_38, %iterArg_39, %iterArg_40, %iterArg_41, %iterArg_42, %iterArg_43, %iterArg_44, %iterArg_45, %iterArg_46, %iterArg_47, %iterArg_48, %iterArg_49, %iterArg_51, %iterArg_52, %iterArg_53, %iterArg_54, %iterArg_55, %iterArg_56, %iterArg_57, %iterArg_58, %iterArg_59, %iterArg_60, %iterArg_61, %iterArg_62, %iterArg_63, %iterArg_64, %iterArg_65, %iterArg_66, %iterArg_67, %iterArg_68, %iterArg_69, %iterArg_70, %iterArg_71, %iterArg_72, %iterArg_73, %iterArg_74, %iterArg_75, %148) : (tensor<i32>, tensor<16x5xi32>, tensor<16xi32>, tensor<16xf32>, tensor<16xi1>, tensor<16xi1>, tensor<16xf32>, tensor<16xf32>, tensor<16xf32>, tensor<16xf32>, tensor<16x5xi32>, tensor<16x5xi32>, tensor<16xi1>, tensor<16xi32>, tensor<16xi1>, tensor<16xi1>, tensor<16x5xi32>, tensor<16xi32>, tensor<16x16xf32>, tensor<16x16x5xi32>, tensor<16x16xi32>, tensor<16x16xf32>, tensor<16x16xi1>, tensor<16x16xi1>, tensor<16x16xf32>, tensor<16x16xf32>, tensor<16x16xf32>, tensor<16x16xf32>, tensor<16x16x5xi32>, tensor<16x16xi32>, tensor<16x16xf32>, tensor<16x16xi1>, tensor<16x16xi1>, tensor<16x16xf32>, tensor<16x16xf32>, tensor<16x16xf32>, tensor<16x16xf32>, tensor<16x16xf32>, tensor<16x16xf32>, tensor<16x16xf32>, tensor<16x16xf32>, tensor<16x16xf32>, tensor<33x16xf32>, tensor<16x33xf32>, tensor<1xf32>, tensor<16x1xf32>, tensor<16xf32>, tensor<16x16xf32>, tensor<16x16xf32>, tensor<16x16xf32>, tensor<i32>, tensor<33x16xf32>, tensor<16x33xf32>, tensor<1xf32>, tensor<16x1xf32>, tensor<16xf32>, tensor<16x16xf32>, tensor<16x16xf32>, tensor<16x16xf32>, tensor<33x16xf32>, tensor<16x33xf32>, tensor<1xf32>, tensor<16x1xf32>, tensor<16xf32>, tensor<16x16xf32>, tensor<16x16xf32>, tensor<16x16xf32>, tensor<2xui32>) -> (tensor<33x16xf32>, tensor<16x33xf32>, tensor<1xf32>, tensor<16x1xf32>, tensor<16xf32>, tensor<16x16xf32>, tensor<16x16xf32>, tensor<16x16xf32>, tensor<i32>, tensor<33x16xf32>, tensor<16x33xf32>, tensor<1xf32>, tensor<16x1xf32>, tensor<16xf32>, tensor<16x16xf32>, tensor<16x16xf32>, tensor<16x16xf32>, tensor<33x16xf32>, tensor<16x33xf32>, tensor<1xf32>, tensor<16x1xf32>, tensor<16xf32>, tensor<16x16xf32>, tensor<16x16xf32>, tensor<16x16xf32>) loc(#loc1522)
      %150 = stablehlo.add %iterArg_50, %c_1 : tensor<i32> loc(#loc1523)
      stablehlo.return %iterArg, %iterArg_8, %iterArg_9, %iterArg_10, %iterArg_11, %iterArg_12, %iterArg_13, %iterArg_14, %iterArg_15, %iterArg_16, %iterArg_17, %iterArg_18, %iterArg_19, %iterArg_20, %iterArg_21, %iterArg_22, %iterArg_23, %iterArg_24, %iterArg_25, %iterArg_26, %iterArg_27, %iterArg_28, %iterArg_29, %iterArg_30, %iterArg_31, %iterArg_32, %iterArg_33, %iterArg_34, %iterArg_35, %iterArg_36, %iterArg_37, %iterArg_38, %iterArg_39, %iterArg_40, %iterArg_41, %iterArg_42, %iterArg_43, %iterArg_44, %iterArg_45, %iterArg_46, %iterArg_47, %iterArg_48, %iterArg_49, %150, %149#0, %149#1, %149#2, %149#3, %149#4, %149#5, %149#6, %149#7, %149#8, %149#9, %149#10, %149#11, %149#12, %149#13, %149#14, %149#15, %149#16, %149#17, %149#18, %149#19, %149#20, %149#21, %149#22, %149#23, %149#24 : tensor<1x2xui32>, tensor<i32>, tensor<16x5xi32>, tensor<16xi32>, tensor<16xf32>, tensor<16xi1>, tensor<16xi1>, tensor<16xf32>, tensor<16xf32>, tensor<16xf32>, tensor<16xf32>, tensor<16x5xi32>, tensor<16x5xi32>, tensor<16xi1>, tensor<16xi32>, tensor<16xi1>, tensor<16xi1>, tensor<16x5xi32>, tensor<16xi32>, tensor<16x16xf32>, tensor<16x16x5xi32>, tensor<16x16xi32>, tensor<16x16xf32>, tensor<16x16xi1>, tensor<16x16xi1>, tensor<16x16xf32>, tensor<16x16xf32>, tensor<16x16xf32>, tensor<16x16xf32>, tensor<16x16x5xi32>, tensor<16x16xi32>, tensor<16x16xf32>, tensor<16x16xi1>, tensor<16x16xi1>, tensor<16x16xf32>, tensor<16x16xf32>, tensor<16x16xf32>, tensor<16x16xf32>, tensor<16x16xf32>, tensor<16x16xf32>, tensor<16x16xf32>, tensor<16x16xf32>, tensor<16x16xf32>, tensor<i32>, tensor<33x16xf32>, tensor<16x33xf32>, tensor<1xf32>, tensor<16x1xf32>, tensor<16xf32>, tensor<16x16xf32>, tensor<16x16xf32>, tensor<16x16xf32>, tensor<i32>, tensor<33x16xf32>, tensor<16x33xf32>, tensor<1xf32>, tensor<16x1xf32>, tensor<16xf32>, tensor<16x16xf32>, tensor<16x16xf32>, tensor<16x16xf32>, tensor<33x16xf32>, tensor<16x33xf32>, tensor<1xf32>, tensor<16x1xf32>, tensor<16xf32>, tensor<16x16xf32>, tensor<16x16xf32>, tensor<16x16xf32> loc(#loc1519)
    } loc(#loc1519)
    %143 = call @_threefry_split_0(%4) : (tensor<2xui32>) -> tensor<16x2xui32> loc(#loc1524)
    %144 = stablehlo.broadcast_in_dim %cst_4, dims = [] : (tensor<f32>) -> tensor<16x16xf32> loc(#loc1525)
    %145:49 = stablehlo.while(%iterArg = %143, %iterArg_8 = %142#44, %iterArg_9 = %142#45, %iterArg_10 = %142#46, %iterArg_11 = %142#47, %iterArg_12 = %142#48, %iterArg_13 = %142#49, %iterArg_14 = %142#50, %iterArg_15 = %142#51, %iterArg_16 = %142#52, %iterArg_17 = %142#53, %iterArg_18 = %142#54, %iterArg_19 = %142#55, %iterArg_20 = %142#56, %iterArg_21 = %142#57, %iterArg_22 = %142#58, %iterArg_23 = %142#59, %iterArg_24 = %142#60, %iterArg_25 = %142#61, %iterArg_26 = %142#62, %iterArg_27 = %142#63, %iterArg_28 = %142#64, %iterArg_29 = %142#65, %iterArg_30 = %142#66, %iterArg_31 = %142#67, %iterArg_32 = %142#68, %iterArg_33 = %c_6, %iterArg_34 = %c_7, %iterArg_35 = %c_5, %iterArg_36 = %31#29, %iterArg_37 = %31#30, %iterArg_38 = %31#31, %iterArg_39 = %31#32, %iterArg_40 = %31#33, %iterArg_41 = %31#34, %iterArg_42 = %31#35, %iterArg_43 = %31#36, %iterArg_44 = %31#37, %iterArg_45 = %31#38, %iterArg_46 = %31#39, %iterArg_47 = %31#40, %iterArg_48 = %31#41, %iterArg_49 = %31#42, %iterArg_50 = %31#43, %iterArg_51 = %31#44, %iterArg_52 = %31#45, %iterArg_53 = %31#46, %iterArg_54 = %31#47, %iterArg_55 = %144) : tensor<16x2xui32>, tensor<33x16xf32>, tensor<16x33xf32>, tensor<1xf32>, tensor<16x1xf32>, tensor<16xf32>, tensor<16x16xf32>, tensor<16x16xf32>, tensor<16x16xf32>, tensor<i32>, tensor<33x16xf32>, tensor<16x33xf32>, tensor<1xf32>, tensor<16x1xf32>, tensor<16xf32>, tensor<16x16xf32>, tensor<16x16xf32>, tensor<16x16xf32>, tensor<33x16xf32>, tensor<16x33xf32>, tensor<1xf32>, tensor<16x1xf32>, tensor<16xf32>, tensor<16x16xf32>, tensor<16x16xf32>, tensor<16x16xf32>, tensor<16xi32>, tensor<16x5xi32>, tensor<i32>, tensor<i32>, tensor<16x5xi32>, tensor<16xi32>, tensor<16xf32>, tensor<16xi1>, tensor<16xi1>, tensor<16xf32>, tensor<16xf32>, tensor<16xf32>, tensor<16xf32>, tensor<16x5xi32>, tensor<16x5xi32>, tensor<16xi1>, tensor<16xi32>, tensor<16xi1>, tensor<16xi1>, tensor<16x5xi32>, tensor<16xi32>, tensor<16x16xf32>, tensor<16x16xf32>
    cond {
      %148 = stablehlo.compare LT, %iterArg_35, %c_2, SIGNED : (tensor<i32>, tensor<i32>) -> tensor<i1> loc(#loc1527)
      stablehlo.return %148 : tensor<i1> loc(#loc1526)
    } do {
      %148 = func.call @dynamic_index_in_dim(%iterArg, %iterArg_35) : (tensor<16x2xui32>, tensor<i32>) -> tensor<2xui32> loc(#loc1528)
      %149:20 = func.call @closed_call_86(%iterArg_8, %iterArg_9, %iterArg_10, %iterArg_11, %iterArg_12, %iterArg_13, %iterArg_14, %iterArg_15, %iterArg_16, %iterArg_17, %iterArg_18, %iterArg_19, %iterArg_20, %iterArg_21, %iterArg_22, %iterArg_23, %iterArg_24, %iterArg_25, %iterArg_26, %iterArg_27, %iterArg_28, %iterArg_29, %iterArg_30, %iterArg_31, %iterArg_32, %iterArg_33, %iterArg_34, %iterArg_36, %iterArg_37, %iterArg_38, %iterArg_39, %iterArg_40, %iterArg_41, %iterArg_42, %iterArg_43, %iterArg_44, %iterArg_45, %iterArg_46, %iterArg_47, %iterArg_48, %iterArg_49, %iterArg_50, %iterArg_51, %iterArg_52, %iterArg_53, %iterArg_54, %148) : (tensor<33x16xf32>, tensor<16x33xf32>, tensor<1xf32>, tensor<16x1xf32>, tensor<16xf32>, tensor<16x16xf32>, tensor<16x16xf32>, tensor<16x16xf32>, tensor<i32>, tensor<33x16xf32>, tensor<16x33xf32>, tensor<1xf32>, tensor<16x1xf32>, tensor<16xf32>, tensor<16x16xf32>, tensor<16x16xf32>, tensor<16x16xf32>, tensor<33x16xf32>, tensor<16x33xf32>, tensor<1xf32>, tensor<16x1xf32>, tensor<16xf32>, tensor<16x16xf32>, tensor<16x16xf32>, tensor<16x16xf32>, tensor<16xi32>, tensor<16x5xi32>, tensor<i32>, tensor<16x5xi32>, tensor<16xi32>, tensor<16xf32>, tensor<16xi1>, tensor<16xi1>, tensor<16xf32>, tensor<16xf32>, tensor<16xf32>, tensor<16xf32>, tensor<16x5xi32>, tensor<16x5xi32>, tensor<16xi1>, tensor<16xi32>, tensor<16xi1>, tensor<16xi1>, tensor<16x5xi32>, tensor<16xi32>, tensor<16x16xf32>, tensor<2xui32>) -> (tensor<i32>, tensor<16x5xi32>, tensor<16xi32>, tensor<16xf32>, tensor<16xi1>, tensor<16xi1>, tensor<16xf32>, tensor<16xf32>, tensor<16xf32>, tensor<16xf32>, tensor<16x5xi32>, tensor<16x5xi32>, tensor<16xi1>, tensor<16xi32>, tensor<16xi1>, tensor<16xi1>, tensor<16x5xi32>, tensor<16xi32>, tensor<16x16xf32>, tensor<16xf32>) loc(#loc1529)
      %150 = func.call @dynamic_update_index_in_dim_42(%iterArg_55, %149#19, %iterArg_35) : (tensor<16x16xf32>, tensor<16xf32>, tensor<i32>) -> tensor<16x16xf32> loc(#loc1530)
      %151 = stablehlo.add %iterArg_35, %c_1 : tensor<i32> loc(#loc1531)
      stablehlo.return %iterArg, %iterArg_8, %iterArg_9, %iterArg_10, %iterArg_11, %iterArg_12, %iterArg_13, %iterArg_14, %iterArg_15, %iterArg_16, %iterArg_17, %iterArg_18, %iterArg_19, %iterArg_20, %iterArg_21, %iterArg_22, %iterArg_23, %iterArg_24, %iterArg_25, %iterArg_26, %iterArg_27, %iterArg_28, %iterArg_29, %iterArg_30, %iterArg_31, %iterArg_32, %iterArg_33, %iterArg_34, %151, %149#0, %149#1, %149#2, %149#3, %149#4, %149#5, %149#6, %149#7, %149#8, %149#9, %149#10, %149#11, %149#12, %149#13, %149#14, %149#15, %149#16, %149#17, %149#18, %150 : tensor<16x2xui32>, tensor<33x16xf32>, tensor<16x33xf32>, tensor<1xf32>, tensor<16x1xf32>, tensor<16xf32>, tensor<16x16xf32>, tensor<16x16xf32>, tensor<16x16xf32>, tensor<i32>, tensor<33x16xf32>, tensor<16x33xf32>, tensor<1xf32>, tensor<16x1xf32>, tensor<16xf32>, tensor<16x16xf32>, tensor<16x16xf32>, tensor<16x16xf32>, tensor<33x16xf32>, tensor<16x33xf32>, tensor<1xf32>, tensor<16x1xf32>, tensor<16xf32>, tensor<16x16xf32>, tensor<16x16xf32>, tensor<16x16xf32>, tensor<16xi32>, tensor<16x5xi32>, tensor<i32>, tensor<i32>, tensor<16x5xi32>, tensor<16xi32>, tensor<16xf32>, tensor<16xi1>, tensor<16xi1>, tensor<16xf32>, tensor<16xf32>, tensor<16xf32>, tensor<16xf32>, tensor<16x5xi32>, tensor<16x5xi32>, tensor<16xi1>, tensor<16xi32>, tensor<16xi1>, tensor<16xi1>, tensor<16x5xi32>, tensor<16xi32>, tensor<16x16xf32>, tensor<16x16xf32> loc(#loc1526)
    } loc(#loc1526)
    %146 = stablehlo.reduce(%145#48 init: %cst_4) applies stablehlo.add across dimensions = [0, 1] : (tensor<16x16xf32>, tensor<f32>) -> tensor<f32> loc(#loc1276)
    %147 = stablehlo.divide %146, %cst : tensor<f32> loc(#loc1277)
    return %31#29, %31#30, %31#31, %31#32, %31#33, %31#34, %31#35, %31#36, %31#37, %31#38, %31#39, %31#40, %31#41, %31#42, %31#43, %31#44, %31#45, %31#46, %31#47, %142#44, %142#45, %142#46, %142#47, %142#48, %142#49, %142#50, %142#51, %142#52, %142#53, %142#54, %142#55, %142#56, %142#57, %142#58, %142#59, %142#60, %142#61, %142#62, %142#63, %142#64, %142#65, %142#66, %142#67, %142#68, %147 : tensor<i32>, tensor<16x5xi32>, tensor<16xi32>, tensor<16xf32>, tensor<16xi1>, tensor<16xi1>, tensor<16xf32>, tensor<16xf32>, tensor<16xf32>, tensor<16xf32>, tensor<16x5xi32>, tensor<16x5xi32>, tensor<16xi1>, tensor<16xi32>, tensor<16xi1>, tensor<16xi1>, tensor<16x5xi32>, tensor<16xi32>, tensor<16x16xf32>, tensor<33x16xf32>, tensor<16x33xf32>, tensor<1xf32>, tensor<16x1xf32>, tensor<16xf32>, tensor<16x16xf32>, tensor<16x16xf32>, tensor<16x16xf32>, tensor<i32>, tensor<33x16xf32>, tensor<16x33xf32>, tensor<1xf32>, tensor<16x1xf32>, tensor<16xf32>, tensor<16x16xf32>, tensor<16x16xf32>, tensor<16x16xf32>, tensor<33x16xf32>, tensor<16x33xf32>, tensor<1xf32>, tensor<16x1xf32>, tensor<16xf32>, tensor<16x16xf32>, tensor<16x16xf32>, tensor<16x16xf32>, tensor<f32> loc(#loc909)
  } loc(#loc)
  func.func private @_threefry_split(%arg0: tensor<2xui32> loc(unknown)) -> tensor<2x2xui32> {
    %c = stablehlo.constant dense<32> : tensor<ui64> loc(#loc124)
    %c_0 = stablehlo.constant dense<1> : tensor<ui64> loc(#loc124)
    %0 = stablehlo.slice %arg0 [0:1] : (tensor<2xui32>) -> tensor<1xui32> loc(#loc125)
    %1 = stablehlo.reshape %0 : (tensor<1xui32>) -> tensor<ui32> loc(#loc126)
    %2 = stablehlo.slice %arg0 [1:2] : (tensor<2xui32>) -> tensor<1xui32> loc(#loc125)
    %3 = stablehlo.reshape %2 : (tensor<1xui32>) -> tensor<ui32> loc(#loc126)
    %4 = stablehlo.iota dim = 0 : tensor<2xui64> loc(#loc124)
    %5 = stablehlo.broadcast_in_dim %c_0, dims = [] : (tensor<ui64>) -> tensor<2xui64> loc(#loc124)
    %6 = stablehlo.multiply %5, %4 : tensor<2xui64> loc(#loc124)
    %7 = stablehlo.broadcast_in_dim %c, dims = [] : (tensor<ui64>) -> tensor<2xui64> loc(#loc124)
    %8 = stablehlo.shift_right_logical %6, %7 : tensor<2xui64> loc(#loc124)
    %9 = stablehlo.convert %6 : (tensor<2xui64>) -> tensor<2xui32> loc(#loc124)
    %10 = stablehlo.convert %8 : (tensor<2xui64>) -> tensor<2xui32> loc(#loc124)
    %11:2 = call @threefry2x32(%1, %3, %10, %9) : (tensor<ui32>, tensor<ui32>, tensor<2xui32>, tensor<2xui32>) -> (tensor<2xui32>, tensor<2xui32>) loc(#loc)
    %12 = stablehlo.broadcast_in_dim %11#0, dims = [0] : (tensor<2xui32>) -> tensor<2x1xui32> loc(#loc127)
    %13 = stablehlo.broadcast_in_dim %11#1, dims = [0] : (tensor<2xui32>) -> tensor<2x1xui32> loc(#loc127)
    %14 = stablehlo.concatenate %12, %13, dim = 1 : (tensor<2x1xui32>, tensor<2x1xui32>) -> tensor<2x2xui32> loc(#loc127)
    return %14 : tensor<2x2xui32> loc(#loc)
  } loc(#loc919)
  func.func private @threefry2x32(%arg0: tensor<ui32> loc(unknown), %arg1: tensor<ui32> loc(unknown), %arg2: tensor<2xui32> loc(unknown), %arg3: tensor<2xui32> loc(unknown)) -> (tensor<2xui32>, tensor<2xui32>) {
    %c = stablehlo.constant dense<1> : tensor<i32> loc(#loc)
    %c_0 = stablehlo.constant dense<5> : tensor<i32> loc(#loc)
    %c_1 = stablehlo.constant dense<0> : tensor<i32> loc(#loc)
    %c_2 = stablehlo.constant dense<466688986> : tensor<ui32> loc(#loc516)
    %c_3 = stablehlo.constant dense<[13, 15, 26, 6]> : tensor<4xui32> loc(#loc516)
    %c_4 = stablehlo.constant dense<[17, 29, 16, 24]> : tensor<4xui32> loc(#loc516)
    %0 = stablehlo.xor %arg0, %arg1 : tensor<ui32> loc(#loc129)
    %1 = stablehlo.xor %0, %c_2 : tensor<ui32> loc(#loc129)
    %2 = stablehlo.broadcast_in_dim %arg0, dims = [] : (tensor<ui32>) -> tensor<2xui32> loc(#loc130)
    %3 = stablehlo.add %arg2, %2 : tensor<2xui32> loc(#loc130)
    %4 = stablehlo.broadcast_in_dim %arg1, dims = [] : (tensor<ui32>) -> tensor<2xui32> loc(#loc130)
    %5 = stablehlo.add %arg3, %4 : tensor<2xui32> loc(#loc130)
    %6:9 = stablehlo.while(%iterArg = %c_1, %iterArg_5 = %c_1, %iterArg_6 = %3, %iterArg_7 = %5, %iterArg_8 = %arg1, %iterArg_9 = %1, %iterArg_10 = %arg0, %iterArg_11 = %c_3, %iterArg_12 = %c_4) : tensor<i32>, tensor<i32>, tensor<2xui32>, tensor<2xui32>, tensor<ui32>, tensor<ui32>, tensor<ui32>, tensor<4xui32>, tensor<4xui32>
    cond {
      %7 = stablehlo.compare LT, %iterArg, %c_0, SIGNED : (tensor<i32>, tensor<i32>) -> tensor<i1> loc(#loc132)
      stablehlo.return %7 : tensor<i1> loc(#loc131)
    } do {
      %7:8 = func.call @closed_call(%iterArg_5, %iterArg_6, %iterArg_7, %iterArg_8, %iterArg_9, %iterArg_10, %iterArg_11, %iterArg_12) : (tensor<i32>, tensor<2xui32>, tensor<2xui32>, tensor<ui32>, tensor<ui32>, tensor<ui32>, tensor<4xui32>, tensor<4xui32>) -> (tensor<i32>, tensor<2xui32>, tensor<2xui32>, tensor<ui32>, tensor<ui32>, tensor<ui32>, tensor<4xui32>, tensor<4xui32>) loc(#loc133)
      %8 = stablehlo.add %iterArg, %c : tensor<i32> loc(#loc134)
      stablehlo.return %8, %7#0, %7#1, %7#2, %7#3, %7#4, %7#5, %7#6, %7#7 : tensor<i32>, tensor<i32>, tensor<2xui32>, tensor<2xui32>, tensor<ui32>, tensor<ui32>, tensor<ui32>, tensor<4xui32>, tensor<4xui32> loc(#loc131)
    } loc(#loc131)
    return %6#2, %6#3 : tensor<2xui32>, tensor<2xui32> loc(#loc)
  } loc(#loc)
  func.func private @closed_call(%arg0: tensor<i32> loc(unknown), %arg1: tensor<2xui32> loc(unknown), %arg2: tensor<2xui32> loc(unknown), %arg3: tensor<ui32> loc(unknown), %arg4: tensor<ui32> loc(unknown), %arg5: tensor<ui32> loc(unknown), %arg6: tensor<4xui32> loc(unknown), %arg7: tensor<4xui32> loc(unknown)) -> (tensor<i32>, tensor<2xui32>, tensor<2xui32>, tensor<ui32>, tensor<ui32>, tensor<ui32>, tensor<4xui32>, tensor<4xui32>) {
    %c = stablehlo.constant dense<32> : tensor<ui32> loc(#loc)
    %c_0 = stablehlo.constant dense<1> : tensor<i32> loc(#loc)
    %0 = stablehlo.add %arg0, %c_0 : tensor<i32> loc(#loc130)
    %1 = stablehlo.slice %arg6 [0:1] : (tensor<4xui32>) -> tensor<1xui32> loc(#loc125)
    %2 = stablehlo.reshape %1 : (tensor<1xui32>) -> tensor<ui32> loc(#loc126)
    %3 = stablehlo.add %arg1, %arg2 : tensor<2xui32> loc(#loc130)
    %4 = stablehlo.broadcast_in_dim %2, dims = [] : (tensor<ui32>) -> tensor<2xui32> loc(#loc135)
    %5 = stablehlo.shift_left %arg2, %4 : tensor<2xui32> loc(#loc135)
    %6 = stablehlo.subtract %c, %2 : tensor<ui32> loc(#loc136)
    %7 = stablehlo.broadcast_in_dim %6, dims = [] : (tensor<ui32>) -> tensor<2xui32> loc(#loc137)
    %8 = stablehlo.shift_right_logical %arg2, %7 : tensor<2xui32> loc(#loc137)
    %9 = stablehlo.or %5, %8 : tensor<2xui32> loc(#loc138)
    %10 = stablehlo.xor %3, %9 : tensor<2xui32> loc(#loc129)
    %11 = stablehlo.slice %arg6 [1:2] : (tensor<4xui32>) -> tensor<1xui32> loc(#loc125)
    %12 = stablehlo.reshape %11 : (tensor<1xui32>) -> tensor<ui32> loc(#loc126)
    %13 = stablehlo.add %3, %10 : tensor<2xui32> loc(#loc130)
    %14 = stablehlo.broadcast_in_dim %12, dims = [] : (tensor<ui32>) -> tensor<2xui32> loc(#loc135)
    %15 = stablehlo.shift_left %10, %14 : tensor<2xui32> loc(#loc135)
    %16 = stablehlo.subtract %c, %12 : tensor<ui32> loc(#loc136)
    %17 = stablehlo.broadcast_in_dim %16, dims = [] : (tensor<ui32>) -> tensor<2xui32> loc(#loc137)
    %18 = stablehlo.shift_right_logical %10, %17 : tensor<2xui32> loc(#loc137)
    %19 = stablehlo.or %15, %18 : tensor<2xui32> loc(#loc138)
    %20 = stablehlo.xor %13, %19 : tensor<2xui32> loc(#loc129)
    %21 = stablehlo.slice %arg6 [2:3] : (tensor<4xui32>) -> tensor<1xui32> loc(#loc125)
    %22 = stablehlo.reshape %21 : (tensor<1xui32>) -> tensor<ui32> loc(#loc126)
    %23 = stablehlo.add %13, %20 : tensor<2xui32> loc(#loc130)
    %24 = stablehlo.broadcast_in_dim %22, dims = [] : (tensor<ui32>) -> tensor<2xui32> loc(#loc135)
    %25 = stablehlo.shift_left %20, %24 : tensor<2xui32> loc(#loc135)
    %26 = stablehlo.subtract %c, %22 : tensor<ui32> loc(#loc136)
    %27 = stablehlo.broadcast_in_dim %26, dims = [] : (tensor<ui32>) -> tensor<2xui32> loc(#loc137)
    %28 = stablehlo.shift_right_logical %20, %27 : tensor<2xui32> loc(#loc137)
    %29 = stablehlo.or %25, %28 : tensor<2xui32> loc(#loc138)
    %30 = stablehlo.xor %23, %29 : tensor<2xui32> loc(#loc129)
    %31 = stablehlo.slice %arg6 [3:4] : (tensor<4xui32>) -> tensor<1xui32> loc(#loc125)
    %32 = stablehlo.reshape %31 : (tensor<1xui32>) -> tensor<ui32> loc(#loc126)
    %33 = stablehlo.add %23, %30 : tensor<2xui32> loc(#loc130)
    %34 = stablehlo.broadcast_in_dim %32, dims = [] : (tensor<ui32>) -> tensor<2xui32> loc(#loc135)
    %35 = stablehlo.shift_left %30, %34 : tensor<2xui32> loc(#loc135)
    %36 = stablehlo.subtract %c, %32 : tensor<ui32> loc(#loc136)
    %37 = stablehlo.broadcast_in_dim %36, dims = [] : (tensor<ui32>) -> tensor<2xui32> loc(#loc137)
    %38 = stablehlo.shift_right_logical %30, %37 : tensor<2xui32> loc(#loc137)
    %39 = stablehlo.or %35, %38 : tensor<2xui32> loc(#loc138)
    %40 = stablehlo.xor %33, %39 : tensor<2xui32> loc(#loc129)
    %41 = stablehlo.broadcast_in_dim %arg3, dims = [] : (tensor<ui32>) -> tensor<2xui32> loc(#loc130)
    %42 = stablehlo.add %33, %41 : tensor<2xui32> loc(#loc130)
    %43 = stablehlo.broadcast_in_dim %arg4, dims = [] : (tensor<ui32>) -> tensor<2xui32> loc(#loc130)
    %44 = stablehlo.add %40, %43 : tensor<2xui32> loc(#loc130)
    %45 = stablehlo.add %arg0, %c_0 : tensor<i32> loc(#loc130)
    %46 = stablehlo.convert %45 : (tensor<i32>) -> tensor<ui32> loc(#loc139)
    %47 = stablehlo.broadcast_in_dim %46, dims = [] : (tensor<ui32>) -> tensor<2xui32> loc(#loc130)
    %48 = stablehlo.add %44, %47 : tensor<2xui32> loc(#loc130)
    return %0, %42, %48, %arg4, %arg5, %arg3, %arg7, %arg6 : tensor<i32>, tensor<2xui32>, tensor<2xui32>, tensor<ui32>, tensor<ui32>, tensor<ui32>, tensor<4xui32>, tensor<4xui32> loc(#loc)
  } loc(#loc517)
  func.func private @_threefry_split_0(%arg0: tensor<2xui32> loc(unknown)) -> tensor<16x2xui32> {
    %c = stablehlo.constant dense<32> : tensor<ui64> loc(#loc921)
    %c_0 = stablehlo.constant dense<1> : tensor<ui64> loc(#loc921)
    %0 = stablehlo.slice %arg0 [0:1] : (tensor<2xui32>) -> tensor<1xui32> loc(#loc922)
    %1 = stablehlo.reshape %0 : (tensor<1xui32>) -> tensor<ui32> loc(#loc923)
    %2 = stablehlo.slice %arg0 [1:2] : (tensor<2xui32>) -> tensor<1xui32> loc(#loc922)
    %3 = stablehlo.reshape %2 : (tensor<1xui32>) -> tensor<ui32> loc(#loc923)
    %4 = stablehlo.iota dim = 0 : tensor<16xui64> loc(#loc921)
    %5 = stablehlo.broadcast_in_dim %c_0, dims = [] : (tensor<ui64>) -> tensor<16xui64> loc(#loc921)
    %6 = stablehlo.multiply %5, %4 : tensor<16xui64> loc(#loc921)
    %7 = stablehlo.broadcast_in_dim %c, dims = [] : (tensor<ui64>) -> tensor<16xui64> loc(#loc921)
    %8 = stablehlo.shift_right_logical %6, %7 : tensor<16xui64> loc(#loc921)
    %9 = stablehlo.convert %6 : (tensor<16xui64>) -> tensor<16xui32> loc(#loc921)
    %10 = stablehlo.convert %8 : (tensor<16xui64>) -> tensor<16xui32> loc(#loc921)
    %11:2 = call @threefry2x32_1(%1, %3, %10, %9) : (tensor<ui32>, tensor<ui32>, tensor<16xui32>, tensor<16xui32>) -> (tensor<16xui32>, tensor<16xui32>) loc(#loc777)
    %12 = stablehlo.broadcast_in_dim %11#0, dims = [0] : (tensor<16xui32>) -> tensor<16x1xui32> loc(#loc924)
    %13 = stablehlo.broadcast_in_dim %11#1, dims = [0] : (tensor<16xui32>) -> tensor<16x1xui32> loc(#loc924)
    %14 = stablehlo.concatenate %12, %13, dim = 1 : (tensor<16x1xui32>, tensor<16x1xui32>) -> tensor<16x2xui32> loc(#loc924)
    return %14 : tensor<16x2xui32> loc(#loc)
  } loc(#loc1101)
  func.func private @threefry2x32_1(%arg0: tensor<ui32> loc(callsite(#loc445 at #loc443)), %arg1: tensor<ui32> loc(callsite(#loc445 at #loc443)), %arg2: tensor<16xui32> loc(callsite(#loc445 at #loc443)), %arg3: tensor<16xui32> loc(callsite(#loc445 at #loc443))) -> (tensor<16xui32>, tensor<16xui32>) {
    %c = stablehlo.constant dense<1> : tensor<i32> loc(#loc)
    %c_0 = stablehlo.constant dense<5> : tensor<i32> loc(#loc)
    %c_1 = stablehlo.constant dense<0> : tensor<i32> loc(#loc)
    %c_2 = stablehlo.constant dense<466688986> : tensor<ui32> loc(#loc516)
    %c_3 = stablehlo.constant dense<[13, 15, 26, 6]> : tensor<4xui32> loc(#loc516)
    %c_4 = stablehlo.constant dense<[17, 29, 16, 24]> : tensor<4xui32> loc(#loc516)
    %0 = stablehlo.xor %arg0, %arg1 : tensor<ui32> loc(#loc925)
    %1 = stablehlo.xor %0, %c_2 : tensor<ui32> loc(#loc925)
    %2 = stablehlo.broadcast_in_dim %arg0, dims = [] : (tensor<ui32>) -> tensor<16xui32> loc(#loc926)
    %3 = stablehlo.add %arg2, %2 : tensor<16xui32> loc(#loc926)
    %4 = stablehlo.broadcast_in_dim %arg1, dims = [] : (tensor<ui32>) -> tensor<16xui32> loc(#loc926)
    %5 = stablehlo.add %arg3, %4 : tensor<16xui32> loc(#loc926)
    %6:9 = stablehlo.while(%iterArg = %c_1, %iterArg_5 = %c_1, %iterArg_6 = %3, %iterArg_7 = %5, %iterArg_8 = %arg1, %iterArg_9 = %1, %iterArg_10 = %arg0, %iterArg_11 = %c_3, %iterArg_12 = %c_4) : tensor<i32>, tensor<i32>, tensor<16xui32>, tensor<16xui32>, tensor<ui32>, tensor<ui32>, tensor<ui32>, tensor<4xui32>, tensor<4xui32>
    cond {
      %7 = stablehlo.compare LT, %iterArg, %c_0, SIGNED : (tensor<i32>, tensor<i32>) -> tensor<i1> loc(#loc1278)
      stablehlo.return %7 : tensor<i1> loc(#loc1102)
    } do {
      %7:8 = func.call @closed_call_2(%iterArg_5, %iterArg_6, %iterArg_7, %iterArg_8, %iterArg_9, %iterArg_10, %iterArg_11, %iterArg_12) : (tensor<i32>, tensor<16xui32>, tensor<16xui32>, tensor<ui32>, tensor<ui32>, tensor<ui32>, tensor<4xui32>, tensor<4xui32>) -> (tensor<i32>, tensor<16xui32>, tensor<16xui32>, tensor<ui32>, tensor<ui32>, tensor<ui32>, tensor<4xui32>, tensor<4xui32>) loc(#loc1279)
      %8 = stablehlo.add %iterArg, %c : tensor<i32> loc(#loc1280)
      stablehlo.return %8, %7#0, %7#1, %7#2, %7#3, %7#4, %7#5, %7#6, %7#7 : tensor<i32>, tensor<i32>, tensor<16xui32>, tensor<16xui32>, tensor<ui32>, tensor<ui32>, tensor<ui32>, tensor<4xui32>, tensor<4xui32> loc(#loc1102)
    } loc(#loc1102)
    return %6#2, %6#3 : tensor<16xui32>, tensor<16xui32> loc(#loc777)
  } loc(#loc777)
  func.func private @closed_call_2(%arg0: tensor<i32> loc(unknown), %arg1: tensor<16xui32> loc(unknown), %arg2: tensor<16xui32> loc(unknown), %arg3: tensor<ui32> loc(unknown), %arg4: tensor<ui32> loc(unknown), %arg5: tensor<ui32> loc(unknown), %arg6: tensor<4xui32> loc(unknown), %arg7: tensor<4xui32> loc(unknown)) -> (tensor<i32>, tensor<16xui32>, tensor<16xui32>, tensor<ui32>, tensor<ui32>, tensor<ui32>, tensor<4xui32>, tensor<4xui32>) {
    %c = stablehlo.constant dense<32> : tensor<ui32> loc(#loc)
    %c_0 = stablehlo.constant dense<1> : tensor<i32> loc(#loc)
    %0 = stablehlo.add %arg0, %c_0 : tensor<i32> loc(#loc130)
    %1 = stablehlo.slice %arg6 [0:1] : (tensor<4xui32>) -> tensor<1xui32> loc(#loc125)
    %2 = stablehlo.reshape %1 : (tensor<1xui32>) -> tensor<ui32> loc(#loc126)
    %3 = stablehlo.add %arg1, %arg2 : tensor<16xui32> loc(#loc130)
    %4 = stablehlo.broadcast_in_dim %2, dims = [] : (tensor<ui32>) -> tensor<16xui32> loc(#loc135)
    %5 = stablehlo.shift_left %arg2, %4 : tensor<16xui32> loc(#loc135)
    %6 = stablehlo.subtract %c, %2 : tensor<ui32> loc(#loc136)
    %7 = stablehlo.broadcast_in_dim %6, dims = [] : (tensor<ui32>) -> tensor<16xui32> loc(#loc137)
    %8 = stablehlo.shift_right_logical %arg2, %7 : tensor<16xui32> loc(#loc137)
    %9 = stablehlo.or %5, %8 : tensor<16xui32> loc(#loc138)
    %10 = stablehlo.xor %3, %9 : tensor<16xui32> loc(#loc129)
    %11 = stablehlo.slice %arg6 [1:2] : (tensor<4xui32>) -> tensor<1xui32> loc(#loc125)
    %12 = stablehlo.reshape %11 : (tensor<1xui32>) -> tensor<ui32> loc(#loc126)
    %13 = stablehlo.add %3, %10 : tensor<16xui32> loc(#loc130)
    %14 = stablehlo.broadcast_in_dim %12, dims = [] : (tensor<ui32>) -> tensor<16xui32> loc(#loc135)
    %15 = stablehlo.shift_left %10, %14 : tensor<16xui32> loc(#loc135)
    %16 = stablehlo.subtract %c, %12 : tensor<ui32> loc(#loc136)
    %17 = stablehlo.broadcast_in_dim %16, dims = [] : (tensor<ui32>) -> tensor<16xui32> loc(#loc137)
    %18 = stablehlo.shift_right_logical %10, %17 : tensor<16xui32> loc(#loc137)
    %19 = stablehlo.or %15, %18 : tensor<16xui32> loc(#loc138)
    %20 = stablehlo.xor %13, %19 : tensor<16xui32> loc(#loc129)
    %21 = stablehlo.slice %arg6 [2:3] : (tensor<4xui32>) -> tensor<1xui32> loc(#loc125)
    %22 = stablehlo.reshape %21 : (tensor<1xui32>) -> tensor<ui32> loc(#loc126)
    %23 = stablehlo.add %13, %20 : tensor<16xui32> loc(#loc130)
    %24 = stablehlo.broadcast_in_dim %22, dims = [] : (tensor<ui32>) -> tensor<16xui32> loc(#loc135)
    %25 = stablehlo.shift_left %20, %24 : tensor<16xui32> loc(#loc135)
    %26 = stablehlo.subtract %c, %22 : tensor<ui32> loc(#loc136)
    %27 = stablehlo.broadcast_in_dim %26, dims = [] : (tensor<ui32>) -> tensor<16xui32> loc(#loc137)
    %28 = stablehlo.shift_right_logical %20, %27 : tensor<16xui32> loc(#loc137)
    %29 = stablehlo.or %25, %28 : tensor<16xui32> loc(#loc138)
    %30 = stablehlo.xor %23, %29 : tensor<16xui32> loc(#loc129)
    %31 = stablehlo.slice %arg6 [3:4] : (tensor<4xui32>) -> tensor<1xui32> loc(#loc125)
    %32 = stablehlo.reshape %31 : (tensor<1xui32>) -> tensor<ui32> loc(#loc126)
    %33 = stablehlo.add %23, %30 : tensor<16xui32> loc(#loc130)
    %34 = stablehlo.broadcast_in_dim %32, dims = [] : (tensor<ui32>) -> tensor<16xui32> loc(#loc135)
    %35 = stablehlo.shift_left %30, %34 : tensor<16xui32> loc(#loc135)
    %36 = stablehlo.subtract %c, %32 : tensor<ui32> loc(#loc136)
    %37 = stablehlo.broadcast_in_dim %36, dims = [] : (tensor<ui32>) -> tensor<16xui32> loc(#loc137)
    %38 = stablehlo.shift_right_logical %30, %37 : tensor<16xui32> loc(#loc137)
    %39 = stablehlo.or %35, %38 : tensor<16xui32> loc(#loc138)
    %40 = stablehlo.xor %33, %39 : tensor<16xui32> loc(#loc129)
    %41 = stablehlo.broadcast_in_dim %arg3, dims = [] : (tensor<ui32>) -> tensor<16xui32> loc(#loc130)
    %42 = stablehlo.add %33, %41 : tensor<16xui32> loc(#loc130)
    %43 = stablehlo.broadcast_in_dim %arg4, dims = [] : (tensor<ui32>) -> tensor<16xui32> loc(#loc130)
    %44 = stablehlo.add %40, %43 : tensor<16xui32> loc(#loc130)
    %45 = stablehlo.add %arg0, %c_0 : tensor<i32> loc(#loc130)
    %46 = stablehlo.convert %45 : (tensor<i32>) -> tensor<ui32> loc(#loc139)
    %47 = stablehlo.broadcast_in_dim %46, dims = [] : (tensor<ui32>) -> tensor<16xui32> loc(#loc130)
    %48 = stablehlo.add %44, %47 : tensor<16xui32> loc(#loc130)
    return %0, %42, %48, %arg4, %arg5, %arg3, %arg7, %arg6 : tensor<i32>, tensor<16xui32>, tensor<16xui32>, tensor<ui32>, tensor<ui32>, tensor<ui32>, tensor<4xui32>, tensor<4xui32> loc(#loc)
  } loc(#loc1104)
  func.func private @dynamic_index_in_dim(%arg0: tensor<16x2xui32> loc(unknown), %arg1: tensor<i32> loc(unknown)) -> tensor<2xui32> {
    %c = stablehlo.constant dense<0> : tensor<i32> loc(#loc)
    %0 = stablehlo.dynamic_slice %arg0, %arg1, %c, sizes = [1, 2] : (tensor<16x2xui32>, tensor<i32>, tensor<i32>) -> tensor<1x2xui32> loc(#loc930)
    %1 = stablehlo.reshape %0 : (tensor<1x2xui32>) -> tensor<2xui32> loc(#loc931)
    return %1 : tensor<2xui32> loc(#loc)
  } loc(#loc1105)
  func.func private @closed_call_3(%arg0: tensor<33x16xf32> loc(unknown), %arg1: tensor<16x33xf32> loc(unknown), %arg2: tensor<1xf32> loc(unknown), %arg3: tensor<16x1xf32> loc(unknown), %arg4: tensor<16xf32> loc(unknown), %arg5: tensor<16x16xf32> loc(unknown), %arg6: tensor<16x16xf32> loc(unknown), %arg7: tensor<16x16xf32> loc(unknown), %arg8: tensor<i32> loc(unknown), %arg9: tensor<33x16xf32> loc(unknown), %arg10: tensor<16x33xf32> loc(unknown), %arg11: tensor<1xf32> loc(unknown), %arg12: tensor<16x1xf32> loc(unknown), %arg13: tensor<16xf32> loc(unknown), %arg14: tensor<16x16xf32> loc(unknown), %arg15: tensor<16x16xf32> loc(unknown), %arg16: tensor<16x16xf32> loc(unknown), %arg17: tensor<33x16xf32> loc(unknown), %arg18: tensor<16x33xf32> loc(unknown), %arg19: tensor<1xf32> loc(unknown), %arg20: tensor<16x1xf32> loc(unknown), %arg21: tensor<16xf32> loc(unknown), %arg22: tensor<16x16xf32> loc(unknown), %arg23: tensor<16x16xf32> loc(unknown), %arg24: tensor<16x16xf32> loc(unknown), %arg25: tensor<16xi32> loc(unknown), %arg26: tensor<16x5xi32> loc(unknown), %arg27: tensor<i32> loc(unknown), %arg28: tensor<16x5xi32> loc(unknown), %arg29: tensor<16xi32> loc(unknown), %arg30: tensor<16xf32> loc(unknown), %arg31: tensor<16xi1> loc(unknown), %arg32: tensor<16xi1> loc(unknown), %arg33: tensor<16xf32> loc(unknown), %arg34: tensor<16xf32> loc(unknown), %arg35: tensor<16xf32> loc(unknown), %arg36: tensor<16xf32> loc(unknown), %arg37: tensor<16x5xi32> loc(unknown), %arg38: tensor<16x5xi32> loc(unknown), %arg39: tensor<16xi1> loc(unknown), %arg40: tensor<16xi32> loc(unknown), %arg41: tensor<16xi1> loc(unknown), %arg42: tensor<16xi1> loc(unknown), %arg43: tensor<16x5xi32> loc(unknown), %arg44: tensor<16xi32> loc(unknown), %arg45: tensor<16x16xf32> loc(unknown), %arg46: tensor<2xui32> loc(unknown)) -> (tensor<i32>, tensor<16x5xi32>, tensor<16xi32>, tensor<16xf32>, tensor<16xi1>, tensor<16xi1>, tensor<16xf32>, tensor<16xf32>, tensor<16xf32>, tensor<16xf32>, tensor<16x5xi32>, tensor<16x5xi32>, tensor<16xi1>, tensor<16xi32>, tensor<16xi1>, tensor<16xi1>, tensor<16x5xi32>, tensor<16xi32>, tensor<16x16xf32>, tensor<16x5xi32>, tensor<16xi32>, tensor<16xf32>, tensor<16xi1>, tensor<16xi1>, tensor<16xf32>, tensor<16xf32>, tensor<16xf32>, tensor<16xf32>, tensor<16x5xi32>, tensor<16xi32>, tensor<16xf32>, tensor<16xi1>, tensor<16xi1>, tensor<16xf32>, tensor<16xf32>, tensor<16xf32>, tensor<16xf32>, tensor<16xf32>, tensor<16xf32>) {
    %c = stablehlo.constant dense<28> : tensor<i32> loc(#loc)
    %c_0 = stablehlo.constant dense<29> : tensor<i32> loc(#loc)
    %c_1 = stablehlo.constant dense<6> : tensor<i32> loc(#loc)
    %c_2 = stablehlo.constant dense<2> : tensor<i32> loc(#loc)
    %c_3 = stablehlo.constant dense<16> : tensor<i32> loc(#loc)
    %c_4 = stablehlo.constant dense<15> : tensor<i32> loc(#loc)
    %c_5 = stablehlo.constant dense<4> : tensor<i32> loc(#loc)
    %c_6 = stablehlo.constant dense<5> : tensor<i32> loc(#loc)
    %c_7 = stablehlo.constant dense<true> : tensor<i1> loc(#loc)
    %c_8 = stablehlo.constant dense<27> : tensor<i32> loc(#loc)
    %c_9 = stablehlo.constant dense<26> : tensor<i32> loc(#loc)
    %cst = stablehlo.constant dense<0xFF800000> : tensor<f32> loc(#loc)
    %c_10 = stablehlo.constant dense<1> : tensor<i32> loc(#loc)
    %cst_11 = stablehlo.constant dense<1.000000e+00> : tensor<f32> loc(#loc)
    %cst_12 = stablehlo.constant dense<0.000000e+00> : tensor<f32> loc(#loc)
    %c_13 = stablehlo.constant dense<-1> : tensor<i32> loc(#loc)
    %c_14 = stablehlo.constant dense<32> : tensor<i32> loc(#loc)
    %c_15 = stablehlo.constant dense<0> : tensor<i32> loc(#loc)
    %c_16 = stablehlo.constant dense<false> : tensor<i1> loc(#loc)
    %0 = call @_threefry_split(%arg46) : (tensor<2xui32>) -> tensor<2x2xui32> loc(#loc933)
    %1 = stablehlo.slice %0 [0:1, 0:2] : (tensor<2x2xui32>) -> tensor<1x2xui32> loc(#loc786)
    %2 = stablehlo.reshape %1 : (tensor<1x2xui32>) -> tensor<2xui32> loc(#loc787)
    %3 = stablehlo.slice %0 [1:2, 0:2] : (tensor<2x2xui32>) -> tensor<1x2xui32> loc(#loc786)
    %4 = stablehlo.reshape %3 : (tensor<1x2xui32>) -> tensor<2xui32> loc(#loc787)
    %5 = stablehlo.broadcast_in_dim %arg28, dims = [0, 2] : (tensor<16x5xi32>) -> tensor<16x1x5xi32> loc(#loc1107)
    %6 = stablehlo.broadcast_in_dim %arg29, dims = [0] : (tensor<16xi32>) -> tensor<16x1xi32> loc(#loc1107)
    %7 = stablehlo.broadcast_in_dim %arg31, dims = [0] : (tensor<16xi1>) -> tensor<16x1xi1> loc(#loc1107)
    %8 = stablehlo.broadcast_in_dim %arg32, dims = [0] : (tensor<16xi1>) -> tensor<16x1xi1> loc(#loc1107)
    %9 = stablehlo.or %7, %8 : tensor<16x1xi1> loc(#loc935)
    %10 = call @_take(%arg0, %6) : (tensor<33x16xf32>, tensor<16x1xi32>) -> tensor<16x1x16xf32> loc(#loc1281)
    %11 = stablehlo.broadcast_in_dim %10, dims = [0, 1, 3] : (tensor<16x1x16xf32>) -> tensor<16x1x1x16xf32> loc(#loc1109)
    %12 = call @_take_4(%arg0, %5) : (tensor<33x16xf32>, tensor<16x1x5xi32>) -> tensor<16x1x5x16xf32> loc(#loc1282)
    %13 = stablehlo.concatenate %11, %12, dim = 2 : (tensor<16x1x1x16xf32>, tensor<16x1x5x16xf32>) -> tensor<16x1x6x16xf32> loc(#loc1111)
    %14 = stablehlo.reshape %13 : (tensor<16x1x6x16xf32>) -> tensor<16x6x16xf32> loc(#loc1112)
    %15 = stablehlo.broadcast_in_dim %c_16, dims = [] : (tensor<i1>) -> tensor<16x1x6xi1> loc(#loc1113)
    %16 = stablehlo.broadcast_in_dim %c_15, dims = [] : (tensor<i32>) -> tensor<1xi32> loc(#loc1114)
    %17 = "stablehlo.scatter"(%15, %16, %9) <{indices_are_sorted = true, scatter_dimension_numbers = #stablehlo.scatter<update_window_dims = [0, 1], inserted_window_dims = [2], scatter_dims_to_operand_dims = [2]>, unique_indices = true}> ({
    ^bb0(%arg47: tensor<i1> loc("scatter:"(#loc71)), %arg48: tensor<i1> loc("scatter:"(#loc71))):
      stablehlo.return %arg48 : tensor<i1> loc(#loc1115)
    }) : (tensor<16x1x6xi1>, tensor<1xi32>, tensor<16x1xi1>) -> tensor<16x1x6xi1> loc(#loc1115)
    %18 = stablehlo.reshape %17 : (tensor<16x1x6xi1>) -> tensor<16x6xi1> loc(#loc1116)
    %19 = stablehlo.dot_general %14, %arg5, contracting_dims = [2] x [0] : (tensor<16x6x16xf32>, tensor<16x16xf32>) -> tensor<16x6x16xf32> loc(#loc2052)
    %20 = stablehlo.reshape %arg4 : (tensor<16xf32>) -> tensor<1x1x16xf32> loc(#loc2053)
    %21 = stablehlo.broadcast_in_dim %20, dims = [0, 1, 2] : (tensor<1x1x16xf32>) -> tensor<16x6x16xf32> loc(#loc2054)
    %22 = stablehlo.add %19, %21 : tensor<16x6x16xf32> loc(#loc2054)
    %23 = call @relu(%22) : (tensor<16x6x16xf32>) -> tensor<16x6x16xf32> loc(#loc1797)
    %24 = stablehlo.broadcast_in_dim %cst_12, dims = [] : (tensor<f32>) -> tensor<16x16xf32> loc(#loc2055)
    %25 = stablehlo.dot_general %23, %arg7, contracting_dims = [2] x [0] : (tensor<16x6x16xf32>, tensor<16x16xf32>) -> tensor<16x6x16xf32> loc(#loc2248)
    %26 = stablehlo.negate %25 : tensor<16x6x16xf32> loc(#loc2249)
    %27 = stablehlo.exponential %26 : tensor<16x6x16xf32> loc(#loc2250)
    %28 = stablehlo.broadcast_in_dim %cst_11, dims = [] : (tensor<f32>) -> tensor<16x6x16xf32> loc(#loc2251)
    %29 = stablehlo.add %28, %27 : tensor<16x6x16xf32> loc(#loc2251)
    %30 = stablehlo.broadcast_in_dim %cst_11, dims = [] : (tensor<f32>) -> tensor<16x6x16xf32> loc(#loc2252)
    %31 = stablehlo.divide %30, %29 : tensor<16x6x16xf32> loc(#loc2252)
    %32 = stablehlo.broadcast_in_dim %cst_11, dims = [] : (tensor<f32>) -> tensor<16x6x16xf32> loc(#loc2058)
    %33 = stablehlo.subtract %32, %31 : tensor<16x6x16xf32> loc(#loc2058)
    %34 = stablehlo.dot_general %23, %arg6, contracting_dims = [2] x [0] : (tensor<16x6x16xf32>, tensor<16x16xf32>) -> tensor<16x6x16xf32> loc(#loc2253)
    %35 = stablehlo.multiply %31, %34 : tensor<16x6x16xf32> loc(#loc2060)
    %36 = stablehlo.reshape %18 : (tensor<16x6xi1>) -> tensor<16x6x1xi1> loc(#loc2061)
    %37 = stablehlo.convert %36 : (tensor<16x6x1xi1>) -> tensor<16x6x1xf32> loc(#loc1804)
    %38 = stablehlo.broadcast_in_dim %37, dims = [0, 1, 2] : (tensor<16x6x1xf32>) -> tensor<16x6x16xf32> loc(#loc1805)
    %39 = stablehlo.multiply %38, %33 : tensor<16x6x16xf32> loc(#loc1805)
    %40 = stablehlo.broadcast_in_dim %24, dims = [0, 2] : (tensor<16x16xf32>) -> tensor<16x1x16xf32> loc(#loc1806)
    %41 = stablehlo.broadcast_in_dim %40, dims = [0, 1, 2] : (tensor<16x1x16xf32>) -> tensor<16x6x16xf32> loc(#loc1807)
    %42 = stablehlo.multiply %39, %41 : tensor<16x6x16xf32> loc(#loc1807)
    %43 = stablehlo.add %35, %42 : tensor<16x6x16xf32> loc(#loc1808)
    %44 = stablehlo.convert %36 : (tensor<16x6x1xi1>) -> tensor<16x6x1xi32> loc(#loc1809)
    %45 = stablehlo.broadcast_in_dim %c_10, dims = [] : (tensor<i32>) -> tensor<16x6x1xi32> loc(#loc1810)
    %46 = stablehlo.subtract %45, %44 : tensor<16x6x1xi32> loc(#loc1810)
    %47 = stablehlo.convert %46 : (tensor<16x6x1xi32>) -> tensor<16x6x1xf32> loc(#loc1811)
    %48 = stablehlo.broadcast_in_dim %47, dims = [0, 1, 2] : (tensor<16x6x1xf32>) -> tensor<16x6x16xf32> loc(#loc1812)
    %49 = stablehlo.multiply %48, %33 : tensor<16x6x16xf32> loc(#loc1812)
    %50 = stablehlo.slice %49 [0:16, 0:5:2, 0:16] : (tensor<16x6x16xf32>) -> tensor<16x3x16xf32> loc(#loc1813)
    %51 = stablehlo.slice %43 [0:16, 0:5:2, 0:16] : (tensor<16x6x16xf32>) -> tensor<16x3x16xf32> loc(#loc1813)
    %52 = stablehlo.slice %49 [0:16, 1:6:2, 0:16] : (tensor<16x6x16xf32>) -> tensor<16x3x16xf32> loc(#loc1813)
    %53 = stablehlo.slice %43 [0:16, 1:6:2, 0:16] : (tensor<16x6x16xf32>) -> tensor<16x3x16xf32> loc(#loc1813)
    %54 = stablehlo.multiply %52, %50 : tensor<16x3x16xf32> loc(#loc2062)
    %55 = stablehlo.multiply %52, %51 : tensor<16x3x16xf32> loc(#loc2063)
    %56 = stablehlo.add %55, %53 : tensor<16x3x16xf32> loc(#loc2064)
    %57 = stablehlo.slice %54 [0:16, 0:2:2, 0:16] : (tensor<16x3x16xf32>) -> tensor<16x1x16xf32> loc(#loc1813)
    %58 = stablehlo.slice %56 [0:16, 0:2:2, 0:16] : (tensor<16x3x16xf32>) -> tensor<16x1x16xf32> loc(#loc1813)
    %59 = stablehlo.slice %54 [0:16, 1:3:2, 0:16] : (tensor<16x3x16xf32>) -> tensor<16x1x16xf32> loc(#loc1813)
    %60 = stablehlo.slice %56 [0:16, 1:3:2, 0:16] : (tensor<16x3x16xf32>) -> tensor<16x1x16xf32> loc(#loc1813)
    %61 = stablehlo.multiply %59, %57 : tensor<16x1x16xf32> loc(#loc2062)
    %62 = stablehlo.multiply %59, %58 : tensor<16x1x16xf32> loc(#loc2063)
    %63 = stablehlo.add %62, %60 : tensor<16x1x16xf32> loc(#loc2064)
    %64 = stablehlo.slice %54 [0:16, 2:3:2, 0:16] : (tensor<16x3x16xf32>) -> tensor<16x1x16xf32> loc(#loc1813)
    %65 = stablehlo.slice %56 [0:16, 2:3:2, 0:16] : (tensor<16x3x16xf32>) -> tensor<16x1x16xf32> loc(#loc1813)
    %66 = stablehlo.multiply %64, %61 : tensor<16x1x16xf32> loc(#loc2062)
    %67 = stablehlo.multiply %64, %63 : tensor<16x1x16xf32> loc(#loc2063)
    %68 = stablehlo.add %67, %65 : tensor<16x1x16xf32> loc(#loc2064)
    %69 = stablehlo.slice %54 [0:16, 0:1, 0:16] : (tensor<16x3x16xf32>) -> tensor<16x1x16xf32> loc(#loc1813)
    %70 = stablehlo.concatenate %69, %66, dim = 1 : (tensor<16x1x16xf32>, tensor<16x1x16xf32>) -> tensor<16x2x16xf32> loc(#loc1817)
    %71 = stablehlo.slice %56 [0:16, 0:1, 0:16] : (tensor<16x3x16xf32>) -> tensor<16x1x16xf32> loc(#loc1813)
    %72 = stablehlo.concatenate %71, %68, dim = 1 : (tensor<16x1x16xf32>, tensor<16x1x16xf32>) -> tensor<16x2x16xf32> loc(#loc1817)
    %73 = stablehlo.pad %70, %cst_12, low = [0, 0, 0], high = [0, 0, 0], interior = [0, 1, 0] : (tensor<16x2x16xf32>, tensor<f32>) -> tensor<16x3x16xf32> loc(#loc1818)
    %74 = stablehlo.pad %61, %cst_12, low = [0, 1, 0], high = [0, 1, 0], interior = [0, 1, 0] : (tensor<16x1x16xf32>, tensor<f32>) -> tensor<16x3x16xf32> loc(#loc1818)
    %75 = stablehlo.add %73, %74 : tensor<16x3x16xf32> loc(#loc1819)
    %76 = stablehlo.pad %72, %cst_12, low = [0, 0, 0], high = [0, 0, 0], interior = [0, 1, 0] : (tensor<16x2x16xf32>, tensor<f32>) -> tensor<16x3x16xf32> loc(#loc1818)
    %77 = stablehlo.pad %63, %cst_12, low = [0, 1, 0], high = [0, 1, 0], interior = [0, 1, 0] : (tensor<16x1x16xf32>, tensor<f32>) -> tensor<16x3x16xf32> loc(#loc1818)
    %78 = stablehlo.add %76, %77 : tensor<16x3x16xf32> loc(#loc1819)
    %79 = stablehlo.slice %75 [0:16, 0:2, 0:16] : (tensor<16x3x16xf32>) -> tensor<16x2x16xf32> loc(#loc1813)
    %80 = stablehlo.slice %78 [0:16, 0:2, 0:16] : (tensor<16x3x16xf32>) -> tensor<16x2x16xf32> loc(#loc1813)
    %81 = stablehlo.slice %49 [0:16, 2:6:2, 0:16] : (tensor<16x6x16xf32>) -> tensor<16x2x16xf32> loc(#loc1813)
    %82 = stablehlo.slice %43 [0:16, 2:6:2, 0:16] : (tensor<16x6x16xf32>) -> tensor<16x2x16xf32> loc(#loc1813)
    %83 = stablehlo.multiply %81, %79 : tensor<16x2x16xf32> loc(#loc2062)
    %84 = stablehlo.multiply %81, %80 : tensor<16x2x16xf32> loc(#loc2063)
    %85 = stablehlo.add %84, %82 : tensor<16x2x16xf32> loc(#loc2064)
    %86 = stablehlo.slice %49 [0:16, 0:1, 0:16] : (tensor<16x6x16xf32>) -> tensor<16x1x16xf32> loc(#loc1813)
    %87 = stablehlo.concatenate %86, %83, dim = 1 : (tensor<16x1x16xf32>, tensor<16x2x16xf32>) -> tensor<16x3x16xf32> loc(#loc1817)
    %88 = stablehlo.slice %43 [0:16, 0:1, 0:16] : (tensor<16x6x16xf32>) -> tensor<16x1x16xf32> loc(#loc1813)
    %89 = stablehlo.concatenate %88, %85, dim = 1 : (tensor<16x1x16xf32>, tensor<16x2x16xf32>) -> tensor<16x3x16xf32> loc(#loc1817)
    %90 = stablehlo.pad %87, %cst_12, low = [0, 0, 0], high = [0, 1, 0], interior = [0, 1, 0] : (tensor<16x3x16xf32>, tensor<f32>) -> tensor<16x6x16xf32> loc(#loc1818)
    %91 = stablehlo.pad %75, %cst_12, low = [0, 1, 0], high = [0, 0, 0], interior = [0, 1, 0] : (tensor<16x3x16xf32>, tensor<f32>) -> tensor<16x6x16xf32> loc(#loc1818)
    %92 = stablehlo.add %90, %91 : tensor<16x6x16xf32> loc(#loc1819)
    %93 = stablehlo.pad %89, %cst_12, low = [0, 0, 0], high = [0, 1, 0], interior = [0, 1, 0] : (tensor<16x3x16xf32>, tensor<f32>) -> tensor<16x6x16xf32> loc(#loc1818)
    %94 = stablehlo.pad %78, %cst_12, low = [0, 1, 0], high = [0, 0, 0], interior = [0, 1, 0] : (tensor<16x3x16xf32>, tensor<f32>) -> tensor<16x6x16xf32> loc(#loc1818)
    %95 = stablehlo.add %93, %94 : tensor<16x6x16xf32> loc(#loc1819)
    %96 = stablehlo.broadcast_in_dim %arg45, dims = [0, 2] : (tensor<16x16xf32>) -> tensor<16x1x16xf32> loc(#loc1820)
    %97 = stablehlo.broadcast_in_dim %96, dims = [0, 1, 2] : (tensor<16x1x16xf32>) -> tensor<16x6x16xf32> loc(#loc1821)
    %98 = stablehlo.multiply %92, %97 : tensor<16x6x16xf32> loc(#loc1821)
    %99 = stablehlo.add %95, %98 : tensor<16x6x16xf32> loc(#loc1822)
    %100 = call @_take_6(%99, %c_13) : (tensor<16x6x16xf32>, tensor<i32>) -> tensor<16x16xf32> loc(#loc1823)
    %101 = stablehlo.reshape %99 : (tensor<16x6x16xf32>) -> tensor<16x1x6x16xf32> loc(#loc1117)
    %102 = stablehlo.slice %101 [0:16, 0:1, 5:6, 0:16] : (tensor<16x1x6x16xf32>) -> tensor<16x1x1x16xf32> loc(#loc1118)
    %103 = stablehlo.reshape %102 : (tensor<16x1x1x16xf32>) -> tensor<16x1x16xf32> loc(#loc1119)
    %104 = stablehlo.dot_general %103, %arg1, contracting_dims = [2] x [0] : (tensor<16x1x16xf32>, tensor<16x33xf32>) -> tensor<16x1x33xf32> loc(#loc1283)
    %105 = stablehlo.dot_general %103, %arg3, contracting_dims = [2] x [0] : (tensor<16x1x16xf32>, tensor<16x1xf32>) -> tensor<16x1x1xf32> loc(#loc1284)
    %106 = stablehlo.reshape %arg2 : (tensor<1xf32>) -> tensor<1x1x1xf32> loc(#loc1285)
    %107 = stablehlo.broadcast_in_dim %106, dims = [0, 1, 2] : (tensor<1x1x1xf32>) -> tensor<16x1x1xf32> loc(#loc1286)
    %108 = stablehlo.add %105, %107 : tensor<16x1x1xf32> loc(#loc1286)
    %109 = call @log_softmax(%104) : (tensor<16x1x33xf32>) -> tensor<16x1x33xf32> loc(#loc1547)
    %110 = call @_gumbel(%2) : (tensor<2xui32>) -> tensor<1x16x1x33xf32> loc(#loc1824)
    %111 = stablehlo.broadcast_in_dim %cst_11, dims = [] : (tensor<f32>) -> tensor<1x16x1x33xf32> loc(#loc1825)
    %112 = stablehlo.multiply %111, %110 : tensor<1x16x1x33xf32> loc(#loc1825)
    %113 = stablehlo.broadcast_in_dim %109, dims = [1, 2, 3] : (tensor<16x1x33xf32>) -> tensor<1x16x1x33xf32> loc(#loc1826)
    %114 = stablehlo.add %113, %112 : tensor<1x16x1x33xf32> loc(#loc1827)
    %115 = call @argmax(%114) : (tensor<1x16x1x33xf32>) -> tensor<1x16x1xi32> loc(#loc1551)
    %116 = call @_one_hot(%115) : (tensor<1x16x1xi32>) -> tensor<1x16x1x33xf32> loc(#loc1828)
    %117 = stablehlo.broadcast_in_dim %c_15, dims = [] : (tensor<i32>) -> tensor<1x16x1xi32> loc(#loc1829)
    %118 = stablehlo.compare LT, %115, %117, SIGNED : (tensor<1x16x1xi32>, tensor<1x16x1xi32>) -> tensor<1x16x1xi1> loc(#loc1829)
    %119 = stablehlo.broadcast_in_dim %c_14, dims = [] : (tensor<i32>) -> tensor<1x16x1xi32> loc(#loc1830)
    %120 = stablehlo.compare GT, %115, %119, SIGNED : (tensor<1x16x1xi32>, tensor<1x16x1xi32>) -> tensor<1x16x1xi1> loc(#loc1830)
    %121 = stablehlo.or %118, %120 : tensor<1x16x1xi1> loc(#loc1831)
    %122 = stablehlo.broadcast_in_dim %cst_12, dims = [] : (tensor<f32>) -> tensor<1x16x1x33xf32> loc(#loc2065)
    %123 = stablehlo.compare EQ, %116, %122, FLOAT : (tensor<1x16x1x33xf32>, tensor<1x16x1x33xf32>) -> tensor<1x16x1x33xi1> loc(#loc2065)
    %124 = stablehlo.broadcast_in_dim %109, dims = [1, 2, 3] : (tensor<16x1x33xf32>) -> tensor<1x16x1x33xf32> loc(#loc2066)
    %125 = stablehlo.multiply %124, %116 : tensor<1x16x1x33xf32> loc(#loc2067)
    %126 = call @_where_10(%123, %cst_12, %125) : (tensor<1x16x1x33xi1>, tensor<f32>, tensor<1x16x1x33xf32>) -> tensor<1x16x1x33xf32> loc(#loc2068)
    %127 = stablehlo.reduce(%126 init: %cst_12) applies stablehlo.add across dimensions = [3] : (tensor<1x16x1x33xf32>, tensor<f32>) -> tensor<1x16x1xf32> loc(#loc1835)
    %128 = call @_where_11(%121, %cst, %127) : (tensor<1x16x1xi1>, tensor<f32>, tensor<1x16x1xf32>) -> tensor<1x16x1xf32> loc(#loc1836)
    %129 = stablehlo.reduce(%128 init: %cst_12) applies stablehlo.add across dimensions = [] : (tensor<1x16x1xf32>, tensor<f32>) -> tensor<1x16x1xf32> loc(#loc1290)
    %130 = stablehlo.reshape %115 : (tensor<1x16x1xi32>) -> tensor<16x1xi32> loc(#loc1127)
    %131 = stablehlo.reshape %129 : (tensor<1x16x1xf32>) -> tensor<16x1xf32> loc(#loc1127)
    %132 = stablehlo.reshape %130 : (tensor<16x1xi32>) -> tensor<16xi32> loc(#loc952)
    %133 = stablehlo.reshape %131 : (tensor<16x1xf32>) -> tensor<16xf32> loc(#loc953)
    %134 = stablehlo.reshape %108 : (tensor<16x1x1xf32>) -> tensor<16x1xf32> loc(#loc954)
    %135 = stablehlo.reshape %134 : (tensor<16x1xf32>) -> tensor<16xf32> loc(#loc955)
    %136 = call @_threefry_split_0(%4) : (tensor<2xui32>) -> tensor<16x2xui32> loc(#loc1128)
    %137 = call @_threefry_split_12(%136) : (tensor<16x2xui32>) -> tensor<16x2x2xui32> loc(#loc1291)
    %138 = stablehlo.slice %137 [0:16, 1:2, 0:2] : (tensor<16x2x2xui32>) -> tensor<16x1x2xui32> loc(#loc1130)
    %139 = stablehlo.reshape %138 : (tensor<16x1x2xui32>) -> tensor<16x2xui32> loc(#loc1131)
    %140 = stablehlo.broadcast_in_dim %c_9, dims = [] : (tensor<i32>) -> tensor<16xi32> loc(#loc1292)
    %141 = stablehlo.compare EQ, %132, %140, SIGNED : (tensor<16xi32>, tensor<16xi32>) -> tensor<16xi1> loc(#loc1292)
    %142 = stablehlo.broadcast_in_dim %c_8, dims = [] : (tensor<i32>) -> tensor<16xi32> loc(#loc1293)
    %143 = stablehlo.compare EQ, %132, %142, SIGNED : (tensor<16xi32>, tensor<16xi32>) -> tensor<16xi1> loc(#loc1293)
    %144 = call @_where_15(%141, %c_7, %arg42) : (tensor<16xi1>, tensor<i1>, tensor<16xi1>) -> tensor<16xi1> loc(#loc1294)
    %145 = call @_where_16(%141, %c_15, %arg44) : (tensor<16xi1>, tensor<i32>, tensor<16xi32>) -> tensor<16xi32> loc(#loc1295)
    %146 = stablehlo.broadcast_in_dim %c_15, dims = [] : (tensor<i32>) -> tensor<5xi32> loc(#loc1296)
    %147 = call @_where_17(%141, %146, %arg43) : (tensor<16xi1>, tensor<5xi32>, tensor<16x5xi32>) -> tensor<16x5xi32> loc(#loc1297)
    %148 = stablehlo.not %141 : tensor<16xi1> loc(#loc1298)
    %149 = stablehlo.and %144, %148 : tensor<16xi1> loc(#loc1299)
    %150 = stablehlo.not %143 : tensor<16xi1> loc(#loc1300)
    %151 = stablehlo.and %149, %150 : tensor<16xi1> loc(#loc1301)
    %152 = stablehlo.broadcast_in_dim %c_6, dims = [] : (tensor<i32>) -> tensor<16xi32> loc(#loc1302)
    %153 = stablehlo.compare LT, %145, %152, SIGNED : (tensor<16xi32>, tensor<16xi32>) -> tensor<16xi1> loc(#loc1302)
    %154 = stablehlo.and %151, %153 : tensor<16xi1> loc(#loc1303)
    %155 = call @clip(%145, %c_15, %c_5) : (tensor<16xi32>, tensor<i32>, tensor<i32>) -> tensor<16xi32> loc(#loc1304)
    %156 = stablehlo.broadcast_in_dim %c_15, dims = [] : (tensor<i32>) -> tensor<16xi32> loc(#loc1305)
    %157 = stablehlo.compare LT, %155, %156, SIGNED : (tensor<16xi32>, tensor<16xi32>) -> tensor<16xi1> loc(#loc1305)
    %158 = stablehlo.broadcast_in_dim %c_6, dims = [] : (tensor<i32>) -> tensor<16xi32> loc(#loc1306)
    %159 = stablehlo.add %155, %158 : tensor<16xi32> loc(#loc1306)
    %160 = stablehlo.select %157, %159, %155 : tensor<16xi1>, tensor<16xi32> loc(#loc1307)
    %161 = stablehlo.broadcast_in_dim %160, dims = [0] : (tensor<16xi32>) -> tensor<16x1xi32> loc(#loc1308)
    %162 = "stablehlo.scatter"(%147, %161, %132) <{indices_are_sorted = true, scatter_dimension_numbers = #stablehlo.scatter<inserted_window_dims = [1], input_batching_dims = [0], scatter_indices_batching_dims = [0], scatter_dims_to_operand_dims = [1], index_vector_dim = 1>, unique_indices = true}> ({
    ^bb0(%arg47: tensor<i32> loc("scatter:"(#loc71)), %arg48: tensor<i32> loc("scatter:"(#loc71))):
      stablehlo.return %arg48 : tensor<i32> loc(#loc1309)
    }) : (tensor<16x5xi32>, tensor<16x1xi32>, tensor<16xi32>) -> tensor<16x5xi32> loc(#loc1309)
    %163 = call @_where_18(%154, %162, %147) : (tensor<16xi1>, tensor<16x5xi32>, tensor<16x5xi32>) -> tensor<16x5xi32> loc(#loc1310)
    %164 = stablehlo.broadcast_in_dim %c_10, dims = [] : (tensor<i32>) -> tensor<16xi32> loc(#loc1311)
    %165 = stablehlo.add %145, %164 : tensor<16xi32> loc(#loc1311)
    %166 = call @_where_19(%154, %165, %145) : (tensor<16xi1>, tensor<16xi32>, tensor<16xi32>) -> tensor<16xi32> loc(#loc1312)
    %167 = stablehlo.and %144, %143 : tensor<16xi1> loc(#loc1313)
    %168 = stablehlo.iota dim = 0 : tensor<5xi32> loc(#loc1837)
    %169 = stablehlo.compare EQ, %c_9, %c_15, SIGNED : (tensor<i32>, tensor<i32>) -> tensor<i1> loc(#loc1838)
    %170 = stablehlo.broadcast_in_dim %c_15, dims = [] : (tensor<i32>) -> tensor<5xi32> loc(#loc1839)
    %171 = stablehlo.compare NE, %168, %170, SIGNED : (tensor<5xi32>, tensor<5xi32>) -> tensor<5xi1> loc(#loc1839)
    %172 = stablehlo.broadcast_in_dim %169, dims = [] : (tensor<i1>) -> tensor<5xi1> loc(#loc1840)
    %173 = stablehlo.and %172, %171 : tensor<5xi1> loc(#loc1840)
    %174 = call @_where_20(%173, %c_15, %c_10) : (tensor<5xi1>, tensor<i32>, tensor<i32>) -> tensor<5xi32> loc(#loc1841)
    %175 = stablehlo.broadcast_in_dim %c_10, dims = [] : (tensor<i32>) -> tensor<5xi32> loc(#loc1840)
    %176 = stablehlo.and %168, %175 : tensor<5xi32> loc(#loc1840)
    %177 = stablehlo.broadcast_in_dim %c_9, dims = [] : (tensor<i32>) -> tensor<5xi32> loc(#loc1842)
    %178 = stablehlo.multiply %174, %177 : tensor<5xi32> loc(#loc1842)
    %179 = call @_where_21(%176, %178, %174) : (tensor<5xi32>, tensor<5xi32>, tensor<5xi32>) -> tensor<5xi32> loc(#loc1841)
    %180 = stablehlo.multiply %c_9, %c_9 : tensor<i32> loc(#loc1842)
    %181 = stablehlo.broadcast_in_dim %c_10, dims = [] : (tensor<i32>) -> tensor<5xi32> loc(#loc1843)
    %182 = stablehlo.shift_right_logical %168, %181 : tensor<5xi32> loc(#loc1843)
    %183 = stablehlo.broadcast_in_dim %c_10, dims = [] : (tensor<i32>) -> tensor<5xi32> loc(#loc1840)
    %184 = stablehlo.and %182, %183 : tensor<5xi32> loc(#loc1840)
    %185 = stablehlo.broadcast_in_dim %180, dims = [] : (tensor<i32>) -> tensor<5xi32> loc(#loc1842)
    %186 = stablehlo.multiply %179, %185 : tensor<5xi32> loc(#loc1842)
    %187 = call @_where_21(%184, %186, %179) : (tensor<5xi32>, tensor<5xi32>, tensor<5xi32>) -> tensor<5xi32> loc(#loc1841)
    %188 = stablehlo.multiply %180, %180 : tensor<i32> loc(#loc1842)
    %189 = stablehlo.broadcast_in_dim %c_10, dims = [] : (tensor<i32>) -> tensor<5xi32> loc(#loc1843)
    %190 = stablehlo.shift_right_logical %182, %189 : tensor<5xi32> loc(#loc1843)
    %191 = stablehlo.broadcast_in_dim %c_10, dims = [] : (tensor<i32>) -> tensor<5xi32> loc(#loc1840)
    %192 = stablehlo.and %190, %191 : tensor<5xi32> loc(#loc1840)
    %193 = stablehlo.broadcast_in_dim %188, dims = [] : (tensor<i32>) -> tensor<5xi32> loc(#loc1842)
    %194 = stablehlo.multiply %187, %193 : tensor<5xi32> loc(#loc1842)
    %195 = call @_where_21(%192, %194, %187) : (tensor<5xi32>, tensor<5xi32>, tensor<5xi32>) -> tensor<5xi32> loc(#loc1841)
    %196 = stablehlo.multiply %188, %188 : tensor<i32> loc(#loc1842)
    %197 = stablehlo.broadcast_in_dim %c_10, dims = [] : (tensor<i32>) -> tensor<5xi32> loc(#loc1843)
    %198 = stablehlo.shift_right_logical %190, %197 : tensor<5xi32> loc(#loc1843)
    %199 = stablehlo.broadcast_in_dim %c_10, dims = [] : (tensor<i32>) -> tensor<5xi32> loc(#loc1840)
    %200 = stablehlo.and %198, %199 : tensor<5xi32> loc(#loc1840)
    %201 = stablehlo.broadcast_in_dim %196, dims = [] : (tensor<i32>) -> tensor<5xi32> loc(#loc1842)
    %202 = stablehlo.multiply %195, %201 : tensor<5xi32> loc(#loc1842)
    %203 = call @_where_21(%200, %202, %195) : (tensor<5xi32>, tensor<5xi32>, tensor<5xi32>) -> tensor<5xi32> loc(#loc1841)
    %204 = stablehlo.multiply %196, %196 : tensor<i32> loc(#loc1842)
    %205 = stablehlo.broadcast_in_dim %c_10, dims = [] : (tensor<i32>) -> tensor<5xi32> loc(#loc1843)
    %206 = stablehlo.shift_right_logical %198, %205 : tensor<5xi32> loc(#loc1843)
    %207 = stablehlo.broadcast_in_dim %c_10, dims = [] : (tensor<i32>) -> tensor<5xi32> loc(#loc1840)
    %208 = stablehlo.and %206, %207 : tensor<5xi32> loc(#loc1840)
    %209 = stablehlo.broadcast_in_dim %204, dims = [] : (tensor<i32>) -> tensor<5xi32> loc(#loc1842)
    %210 = stablehlo.multiply %203, %209 : tensor<5xi32> loc(#loc1842)
    %211 = call @_where_21(%208, %210, %203) : (tensor<5xi32>, tensor<5xi32>, tensor<5xi32>) -> tensor<5xi32> loc(#loc1841)
    %212 = stablehlo.multiply %204, %204 : tensor<i32> loc(#loc1842)
    %213 = stablehlo.broadcast_in_dim %c_10, dims = [] : (tensor<i32>) -> tensor<5xi32> loc(#loc1843)
    %214 = stablehlo.shift_right_logical %206, %213 : tensor<5xi32> loc(#loc1843)
    %215 = stablehlo.broadcast_in_dim %c_10, dims = [] : (tensor<i32>) -> tensor<5xi32> loc(#loc1840)
    %216 = stablehlo.and %214, %215 : tensor<5xi32> loc(#loc1840)
    %217 = stablehlo.broadcast_in_dim %212, dims = [] : (tensor<i32>) -> tensor<5xi32> loc(#loc1842)
    %218 = stablehlo.multiply %211, %217 : tensor<5xi32> loc(#loc1842)
    %219 = call @_where_21(%216, %218, %211) : (tensor<5xi32>, tensor<5xi32>, tensor<5xi32>) -> tensor<5xi32> loc(#loc1841)
    %220 = stablehlo.broadcast_in_dim %219, dims = [1] : (tensor<5xi32>) -> tensor<1x5xi32> loc(#loc1844)
    %221 = stablehlo.broadcast_in_dim %220, dims = [0, 1] : (tensor<1x5xi32>) -> tensor<16x5xi32> loc(#loc1845)
    %222 = stablehlo.multiply %163, %221 : tensor<16x5xi32> loc(#loc1845)
    %223 = stablehlo.reduce(%222 init: %c_15) applies stablehlo.add across dimensions = [1] : (tensor<16x5xi32>, tensor<i32>) -> tensor<16xi32> loc(#loc1846)
    %224 = call @searchsorted(%arg25, %223) : (tensor<16xi32>, tensor<16xi32>) -> tensor<16xi32> loc(#loc1847)
    %225 = call @clip(%224, %c_15, %c_4) : (tensor<16xi32>, tensor<i32>, tensor<i32>) -> tensor<16xi32> loc(#loc1848)
    %226 = stablehlo.broadcast_in_dim %c_15, dims = [] : (tensor<i32>) -> tensor<16xi32> loc(#loc1849)
    %227 = stablehlo.compare LT, %225, %226, SIGNED : (tensor<16xi32>, tensor<16xi32>) -> tensor<16xi1> loc(#loc1849)
    %228 = stablehlo.broadcast_in_dim %c_3, dims = [] : (tensor<i32>) -> tensor<16xi32> loc(#loc1850)
    %229 = stablehlo.add %225, %228 : tensor<16xi32> loc(#loc1850)
    %230 = stablehlo.select %227, %229, %225 : tensor<16xi1>, tensor<16xi32> loc(#loc1851)
    %231 = stablehlo.broadcast_in_dim %230, dims = [0] : (tensor<16xi32>) -> tensor<16x1xi32> loc(#loc1852)
    %232 = "stablehlo.gather"(%arg25, %231) <{dimension_numbers = #stablehlo.gather<offset_dims = [1], start_index_map = [0], index_vector_dim = 1>, slice_sizes = array<i64: 1>}> : (tensor<16xi32>, tensor<16x1xi32>) -> tensor<16x1xi32> loc(#loc1853)
    %233 = stablehlo.reshape %232 : (tensor<16x1xi32>) -> tensor<16xi32> loc(#loc1854)
    %234 = stablehlo.compare EQ, %233, %223, SIGNED : (tensor<16xi32>, tensor<16xi32>) -> tensor<16xi1> loc(#loc1855)
    %235 = stablehlo.compare EQ, %163, %arg37, SIGNED : (tensor<16x5xi32>, tensor<16x5xi32>) -> tensor<16x5xi1> loc(#loc1567)
    %236 = stablehlo.reduce(%235 init: %c_7) applies stablehlo.and across dimensions = [1] : (tensor<16x5xi1>, tensor<i1>) -> tensor<16xi1> loc(#loc1568)
    %237 = stablehlo.compare EQ, %163, %arg37, SIGNED : (tensor<16x5xi32>, tensor<16x5xi32>) -> tensor<16x5xi1> loc(#loc1856)
    %238 = stablehlo.broadcast_in_dim %c_15, dims = [] : (tensor<i32>) -> tensor<26xi32> loc(#loc1857)
    %239 = stablehlo.not %237 : tensor<16x5xi1> loc(#loc1858)
    %240 = stablehlo.convert %239 : (tensor<16x5xi1>) -> tensor<16x5xi32> loc(#loc1859)
    %241 = stablehlo.broadcast_in_dim %c_15, dims = [] : (tensor<i32>) -> tensor<16x5xi32> loc(#loc1860)
    %242 = stablehlo.compare LT, %arg37, %241, SIGNED : (tensor<16x5xi32>, tensor<16x5xi32>) -> tensor<16x5xi1> loc(#loc1860)
    %243 = stablehlo.broadcast_in_dim %c_9, dims = [] : (tensor<i32>) -> tensor<16x5xi32> loc(#loc1861)
    %244 = stablehlo.add %arg37, %243 : tensor<16x5xi32> loc(#loc1861)
    %245 = stablehlo.select %242, %244, %arg37 : tensor<16x5xi1>, tensor<16x5xi32> loc(#loc1862)
    %246 = stablehlo.broadcast_in_dim %245, dims = [0, 1] : (tensor<16x5xi32>) -> tensor<16x5x1xi32> loc(#loc1863)
    %247 = stablehlo.broadcast_in_dim %238, dims = [1] : (tensor<26xi32>) -> tensor<16x26xi32> loc(#loc1863)
    %248 = "stablehlo.scatter"(%247, %246, %240) <{scatter_dimension_numbers = #stablehlo.scatter<inserted_window_dims = [1], input_batching_dims = [0], scatter_indices_batching_dims = [0], scatter_dims_to_operand_dims = [1], index_vector_dim = 2>}> ({
    ^bb0(%arg47: tensor<i32> loc("scatter-add:"(#loc220)), %arg48: tensor<i32> loc("scatter-add:"(#loc220))):
      %351 = stablehlo.add %arg47, %arg48 : tensor<i32> loc(#loc1861)
      stablehlo.return %351 : tensor<i32> loc(#loc1864)
    }) : (tensor<16x26xi32>, tensor<16x5x1xi32>, tensor<16x5xi32>) -> tensor<16x26xi32> loc(#loc1864)
    %249 = stablehlo.transpose %163, dims = [1, 0] : (tensor<16x5xi32>) -> tensor<5x16xi32> loc(#loc1865)
    %250 = stablehlo.transpose %237, dims = [1, 0] : (tensor<16x5xi1>) -> tensor<5x16xi1> loc(#loc1865)
    %251 = stablehlo.broadcast_in_dim %c_16, dims = [] : (tensor<i1>) -> tensor<5x16xi1> loc(#loc2069)
    %252:5 = stablehlo.while(%iterArg = %249, %iterArg_17 = %250, %iterArg_18 = %c_15, %iterArg_19 = %248, %iterArg_20 = %251) : tensor<5x16xi32>, tensor<5x16xi1>, tensor<i32>, tensor<16x26xi32>, tensor<5x16xi1>
    cond {
      %351 = stablehlo.compare LT, %iterArg_18, %c_6, SIGNED : (tensor<i32>, tensor<i32>) -> tensor<i1> loc(#loc2254)
      stablehlo.return %351 : tensor<i1> loc(#loc2070)
    } do {
      %351 = func.call @dynamic_index_in_dim_23(%iterArg, %iterArg_18) : (tensor<5x16xi32>, tensor<i32>) -> tensor<16xi32> loc(#loc2255)
      %352 = func.call @dynamic_index_in_dim_24(%iterArg_17, %iterArg_18) : (tensor<5x16xi1>, tensor<i32>) -> tensor<16xi1> loc(#loc2255)
      %353:2 = func.call @closed_call_25(%iterArg_19, %351, %352) : (tensor<16x26xi32>, tensor<16xi32>, tensor<16xi1>) -> (tensor<16x26xi32>, tensor<16xi1>) loc(#loc2256)
      %354 = func.call @dynamic_update_index_in_dim(%iterArg_20, %353#1, %iterArg_18) : (tensor<5x16xi1>, tensor<16xi1>, tensor<i32>) -> tensor<5x16xi1> loc(#loc2257)
      %355 = stablehlo.add %iterArg_18, %c_10 : tensor<i32> loc(#loc2258)
      stablehlo.return %iterArg, %iterArg_17, %355, %353#0, %354 : tensor<5x16xi32>, tensor<5x16xi1>, tensor<i32>, tensor<16x26xi32>, tensor<5x16xi1> loc(#loc2070)
    } loc(#loc2070)
    %253 = call @_where_26(%252#4, %c_10, %c_15) : (tensor<5x16xi1>, tensor<i32>, tensor<i32>) -> tensor<16x5xi32> loc(#loc1867)
    %254 = call @_where_27(%237, %c_2, %253) : (tensor<16x5xi1>, tensor<i32>, tensor<16x5xi32>) -> tensor<16x5xi32> loc(#loc1868)
    %255 = stablehlo.convert %234 : (tensor<16xi1>) -> tensor<16xi32> loc(#loc1577)
    %256 = stablehlo.add %arg40, %255 : tensor<16xi32> loc(#loc1578)
    %257 = stablehlo.convert %236 : (tensor<16xi1>) -> tensor<16xf32> loc(#loc1579)
    %258 = stablehlo.broadcast_in_dim %c_1, dims = [] : (tensor<i32>) -> tensor<16xi32> loc(#loc1580)
    %259 = stablehlo.compare GE, %256, %258, SIGNED : (tensor<16xi32>, tensor<16xi32>) -> tensor<16xi1> loc(#loc1580)
    %260 = stablehlo.or %236, %259 : tensor<16xi1> loc(#loc1581)
    %261 = stablehlo.convert %236 : (tensor<16xi1>) -> tensor<16xf32> loc(#loc1582)
    %262 = stablehlo.convert %256 : (tensor<16xi32>) -> tensor<16xf32> loc(#loc1583)
    %263 = stablehlo.not %234 : tensor<16xi1> loc(#loc1584)
    %264 = stablehlo.convert %263 : (tensor<16xi1>) -> tensor<16xf32> loc(#loc1585)
    %265 = call @_one_hot_28(%254) : (tensor<16x5xi32>) -> tensor<16x5x3xf32> loc(#loc1869)
    %266 = stablehlo.reshape %265 : (tensor<16x5x3xf32>) -> tensor<16x15xf32> loc(#loc1870)
    %267 = call @_where_29(%234, %266, %cst_12) : (tensor<16xi1>, tensor<16x15xf32>, tensor<f32>) -> tensor<16x15xf32> loc(#loc1871)
    %268 = stablehlo.broadcast_in_dim %167, dims = [0] : (tensor<16xi1>) -> tensor<16x5xi1> loc(#loc1589)
    %269 = stablehlo.select %268, %arg37, %arg37 : tensor<16x5xi1>, tensor<16x5xi32> loc(#loc1590)
    %270 = stablehlo.broadcast_in_dim %167, dims = [0] : (tensor<16xi1>) -> tensor<16x5xi1> loc(#loc1589)
    %271 = stablehlo.select %270, %254, %arg38 : tensor<16x5xi1>, tensor<16x5xi32> loc(#loc1590)
    %272 = stablehlo.select %167, %234, %arg39 : tensor<16xi1>, tensor<16xi1> loc(#loc1590)
    %273 = stablehlo.select %167, %256, %arg40 : tensor<16xi1>, tensor<16xi32> loc(#loc1590)
    %274 = stablehlo.select %167, %236, %arg41 : tensor<16xi1>, tensor<16xi1> loc(#loc1590)
    %275 = stablehlo.reshape %267 : (tensor<16x15xf32>) -> tensor<16x5x3xf32> loc(#loc1591)
    %276 = stablehlo.reduce(%275 init: %cst_12) applies stablehlo.add across dimensions = [2] : (tensor<16x5x3xf32>, tensor<f32>) -> tensor<16x5xf32> loc(#loc1592)
    %277 = stablehlo.broadcast_in_dim %cst_12, dims = [] : (tensor<f32>) -> tensor<16x5xf32> loc(#loc1593)
    %278 = stablehlo.compare GT, %276, %277, FLOAT : (tensor<16x5xf32>, tensor<16x5xf32>) -> tensor<16x5xi1> loc(#loc1593)
    %279 = call @argmax_30(%275) : (tensor<16x5x3xf32>) -> tensor<16x5xi32> loc(#loc1594)
    %280 = stablehlo.broadcast_in_dim %c_0, dims = [] : (tensor<i32>) -> tensor<16x5xi32> loc(#loc1595)
    %281 = stablehlo.add %280, %279 : tensor<16x5xi32> loc(#loc1595)
    %282 = call @_where_31(%278, %281, %c_14) : (tensor<16x5xi1>, tensor<16x5xi32>, tensor<i32>) -> tensor<16x5xi32> loc(#loc1596)
    %283 = stablehlo.broadcast_in_dim %c, dims = [] : (tensor<i32>) -> tensor<5xi32> loc(#loc1336)
    %284 = stablehlo.broadcast_in_dim %283, dims = [1] : (tensor<5xi32>) -> tensor<16x5xi32> loc(#loc1597)
    %285 = stablehlo.broadcast_in_dim %167, dims = [0] : (tensor<16xi1>) -> tensor<16x5xi1> loc(#loc1597)
    %286 = stablehlo.select %285, %282, %284 : tensor<16x5xi1>, tensor<16x5xi32> loc(#loc1598)
    %287 = stablehlo.broadcast_in_dim %cst_12, dims = [] : (tensor<f32>) -> tensor<16xf32> loc(#loc1599)
    %288 = stablehlo.select %167, %257, %287 : tensor<16xi1>, tensor<16xf32> loc(#loc1600)
    %289 = stablehlo.broadcast_in_dim %c_16, dims = [] : (tensor<i1>) -> tensor<16xi1> loc(#loc1601)
    %290 = stablehlo.select %167, %260, %289 : tensor<16xi1>, tensor<16xi1> loc(#loc1602)
    %291 = stablehlo.broadcast_in_dim %cst_12, dims = [] : (tensor<f32>) -> tensor<16xf32> loc(#loc1872)
    %292 = stablehlo.select %167, %262, %291 : tensor<16xi1>, tensor<16xf32> loc(#loc1873)
    %293 = stablehlo.broadcast_in_dim %cst_12, dims = [] : (tensor<f32>) -> tensor<16xf32> loc(#loc1872)
    %294 = stablehlo.select %167, %264, %293 : tensor<16xi1>, tensor<16xf32> loc(#loc1873)
    %295 = stablehlo.broadcast_in_dim %cst_12, dims = [] : (tensor<f32>) -> tensor<16xf32> loc(#loc1872)
    %296 = stablehlo.select %167, %261, %295 : tensor<16xi1>, tensor<16xf32> loc(#loc1873)
    %297 = stablehlo.convert %167 : (tensor<16xi1>) -> tensor<16xf32> loc(#loc1341)
    %298 = call @_where_15(%167, %c_16, %144) : (tensor<16xi1>, tensor<i1>, tensor<16xi1>) -> tensor<16xi1> loc(#loc1342)
    %299 = call @_where_16(%167, %c_15, %166) : (tensor<16xi1>, tensor<i32>, tensor<16xi32>) -> tensor<16xi32> loc(#loc1343)
    %300 = call @_randint(%139, %c_15, %c_3) : (tensor<16x2xui32>, tensor<i32>, tensor<i32>) -> tensor<16xi32> loc(#loc1604)
    %301 = stablehlo.broadcast_in_dim %c_15, dims = [] : (tensor<i32>) -> tensor<16xi32> loc(#loc1605)
    %302 = stablehlo.compare LT, %300, %301, SIGNED : (tensor<16xi32>, tensor<16xi32>) -> tensor<16xi1> loc(#loc1605)
    %303 = stablehlo.broadcast_in_dim %c_3, dims = [] : (tensor<i32>) -> tensor<16xi32> loc(#loc1606)
    %304 = stablehlo.add %300, %303 : tensor<16xi32> loc(#loc1606)
    %305 = stablehlo.select %302, %304, %300 : tensor<16xi1>, tensor<16xi32> loc(#loc1607)
    %306 = stablehlo.compare LT, %c_15, %c_15, SIGNED : (tensor<i32>, tensor<i32>) -> tensor<i1> loc(#loc1605)
    %307 = stablehlo.add %c_15, %c_6 : tensor<i32> loc(#loc1606)
    %308 = stablehlo.select %306, %307, %c_15 : tensor<i1>, tensor<i32> loc(#loc1607)
    %309 = stablehlo.broadcast_in_dim %305, dims = [0] : (tensor<16xi32>) -> tensor<16x1xi32> loc(#loc1608)
    %310 = stablehlo.broadcast_in_dim %308, dims = [] : (tensor<i32>) -> tensor<16x1xi32> loc(#loc1608)
    %311 = stablehlo.concatenate %309, %310, dim = 1 : (tensor<16x1xi32>, tensor<16x1xi32>) -> tensor<16x2xi32> loc(#loc1609)
    %312 = "stablehlo.gather"(%arg26, %311) <{dimension_numbers = #stablehlo.gather<offset_dims = [1, 2], start_index_map = [0, 1], index_vector_dim = 1>, slice_sizes = array<i64: 1, 5>}> : (tensor<16x5xi32>, tensor<16x2xi32>) -> tensor<16x1x5xi32> loc(#loc1610)
    %313 = stablehlo.reshape %312 : (tensor<16x1x5xi32>) -> tensor<16x5xi32> loc(#loc1611)
    %314 = stablehlo.broadcast_in_dim %c_15, dims = [] : (tensor<i32>) -> tensor<5xi32> loc(#loc1612)
    %315 = call @_one_hot_36(%314) : (tensor<5xi32>) -> tensor<5x3xf32> loc(#loc1874)
    %316 = stablehlo.reshape %315 : (tensor<5x3xf32>) -> tensor<15xf32> loc(#loc1875)
    %317 = call @_where_37(%c_16, %316, %cst_12) : (tensor<i1>, tensor<15xf32>, tensor<f32>) -> tensor<15xf32> loc(#loc1876)
    %318 = stablehlo.broadcast_in_dim %c_15, dims = [] : (tensor<i32>) -> tensor<5xi32> loc(#loc1348)
    %319 = stablehlo.broadcast_in_dim %c, dims = [] : (tensor<i32>) -> tensor<5xi32> loc(#loc1349)
    %320 = stablehlo.broadcast_in_dim %c_16, dims = [] : (tensor<i1>) -> tensor<16xi1> loc(#loc1350)
    %321 = stablehlo.or %290, %320 : tensor<16xi1> loc(#loc1350)
    %322 = stablehlo.broadcast_in_dim %321, dims = [0] : (tensor<16xi1>) -> tensor<16x5xi1> loc(#loc1351)
    %323 = stablehlo.select %322, %313, %269 : tensor<16x5xi1>, tensor<16x5xi32> loc(#loc1352)
    %324 = stablehlo.broadcast_in_dim %314, dims = [1] : (tensor<5xi32>) -> tensor<16x5xi32> loc(#loc1351)
    %325 = stablehlo.broadcast_in_dim %321, dims = [0] : (tensor<16xi1>) -> tensor<16x5xi1> loc(#loc1351)
    %326 = stablehlo.select %325, %324, %271 : tensor<16x5xi1>, tensor<16x5xi32> loc(#loc1352)
    %327 = stablehlo.broadcast_in_dim %c_16, dims = [] : (tensor<i1>) -> tensor<16xi1> loc(#loc1351)
    %328 = stablehlo.select %321, %327, %272 : tensor<16xi1>, tensor<16xi1> loc(#loc1352)
    %329 = stablehlo.broadcast_in_dim %c_15, dims = [] : (tensor<i32>) -> tensor<16xi32> loc(#loc1351)
    %330 = stablehlo.select %321, %329, %273 : tensor<16xi1>, tensor<16xi32> loc(#loc1352)
    %331 = stablehlo.broadcast_in_dim %c_16, dims = [] : (tensor<i1>) -> tensor<16xi1> loc(#loc1351)
    %332 = stablehlo.select %321, %331, %274 : tensor<16xi1>, tensor<16xi1> loc(#loc1352)
    %333 = stablehlo.broadcast_in_dim %c_16, dims = [] : (tensor<i1>) -> tensor<16xi1> loc(#loc1351)
    %334 = stablehlo.select %321, %333, %298 : tensor<16xi1>, tensor<16xi1> loc(#loc1352)
    %335 = stablehlo.broadcast_in_dim %318, dims = [1] : (tensor<5xi32>) -> tensor<16x5xi32> loc(#loc1351)
    %336 = stablehlo.broadcast_in_dim %321, dims = [0] : (tensor<16xi1>) -> tensor<16x5xi1> loc(#loc1351)
    %337 = stablehlo.select %336, %335, %163 : tensor<16x5xi1>, tensor<16x5xi32> loc(#loc1352)
    %338 = stablehlo.broadcast_in_dim %c_15, dims = [] : (tensor<i32>) -> tensor<16xi32> loc(#loc1351)
    %339 = stablehlo.select %321, %338, %299 : tensor<16xi1>, tensor<16xi32> loc(#loc1352)
    %340 = stablehlo.broadcast_in_dim %319, dims = [1] : (tensor<5xi32>) -> tensor<16x5xi32> loc(#loc1353)
    %341 = stablehlo.broadcast_in_dim %321, dims = [0] : (tensor<16xi1>) -> tensor<16x5xi1> loc(#loc1353)
    %342 = stablehlo.select %341, %340, %286 : tensor<16x5xi1>, tensor<16x5xi32> loc(#loc1354)
    %343 = stablehlo.broadcast_in_dim %c_16, dims = [] : (tensor<i1>) -> tensor<16xi1> loc(#loc964)
    %344 = stablehlo.add %arg27, %c_3 : tensor<i32> loc(#loc801)
    %345 = stablehlo.or %290, %343 : tensor<16xi1> loc(#loc965)
    %346 = stablehlo.broadcast_in_dim %c_15, dims = [] : (tensor<i32>) -> tensor<16xi32> loc(#loc803)
    %347 = call @_where_38(%345, %346, %132) : (tensor<16xi1>, tensor<16xi32>, tensor<16xi32>) -> tensor<16xi32> loc(#loc804)
    %348 = stablehlo.or %290, %343 : tensor<16xi1> loc(#loc966)
    %349 = stablehlo.broadcast_in_dim %cst_12, dims = [] : (tensor<f32>) -> tensor<16xf32> loc(#loc806)
    %350 = call @_where_39(%348, %349, %288) : (tensor<16xi1>, tensor<16xf32>, tensor<16xf32>) -> tensor<16xf32> loc(#loc807)
    return %344, %342, %347, %350, %290, %343, %297, %292, %294, %296, %323, %326, %328, %330, %332, %334, %337, %339, %100, %arg28, %arg29, %arg30, %arg31, %arg32, %arg33, %arg34, %arg35, %arg36, %342, %132, %288, %290, %343, %297, %292, %294, %296, %133, %135 : tensor<i32>, tensor<16x5xi32>, tensor<16xi32>, tensor<16xf32>, tensor<16xi1>, tensor<16xi1>, tensor<16xf32>, tensor<16xf32>, tensor<16xf32>, tensor<16xf32>, tensor<16x5xi32>, tensor<16x5xi32>, tensor<16xi1>, tensor<16xi32>, tensor<16xi1>, tensor<16xi1>, tensor<16x5xi32>, tensor<16xi32>, tensor<16x16xf32>, tensor<16x5xi32>, tensor<16xi32>, tensor<16xf32>, tensor<16xi1>, tensor<16xi1>, tensor<16xf32>, tensor<16xf32>, tensor<16xf32>, tensor<16xf32>, tensor<16x5xi32>, tensor<16xi32>, tensor<16xf32>, tensor<16xi1>, tensor<16xi1>, tensor<16xf32>, tensor<16xf32>, tensor<16xf32>, tensor<16xf32>, tensor<16xf32>, tensor<16xf32> loc(#loc)
  } loc(#loc1106)
  func.func private @_take(%arg0: tensor<33x16xf32> loc(unknown), %arg1: tensor<16x1xi32> loc(unknown)) -> tensor<16x1x16xf32> {
    %cst = stablehlo.constant dense<0x7FC00000> : tensor<f32> loc(#loc274)
    %c = stablehlo.constant dense<true> : tensor<i1> loc(#loc275)
    %c_0 = stablehlo.constant dense<32> : tensor<1xi32> loc(#loc274)
    %c_1 = stablehlo.constant dense<33> : tensor<i32> loc(#loc)
    %c_2 = stablehlo.constant dense<0> : tensor<i32> loc(#loc)
    %0 = stablehlo.broadcast_in_dim %c_2, dims = [] : (tensor<i32>) -> tensor<16x1xi32> loc(#loc276)
    %1 = stablehlo.compare LT, %arg1, %0, SIGNED : (tensor<16x1xi32>, tensor<16x1xi32>) -> tensor<16x1xi1> loc(#loc276)
    %2 = stablehlo.broadcast_in_dim %c_1, dims = [] : (tensor<i32>) -> tensor<16x1xi32> loc(#loc130)
    %3 = stablehlo.add %arg1, %2 : tensor<16x1xi32> loc(#loc130)
    %4 = call @_where(%1, %3, %arg1) : (tensor<16x1xi1>, tensor<16x1xi32>, tensor<16x1xi32>) -> tensor<16x1xi32> loc(#loc277)
    %5 = stablehlo.broadcast_in_dim %4, dims = [0, 1] : (tensor<16x1xi32>) -> tensor<16x1x1xi32> loc(#loc278)
    %6 = stablehlo.broadcast_in_dim %c_2, dims = [] : (tensor<i32>) -> tensor<16x1x1xi32> loc(#loc279)
    %7 = stablehlo.compare GE, %5, %6, SIGNED : (tensor<16x1x1xi32>, tensor<16x1x1xi32>) -> tensor<16x1x1xi1> loc(#loc279)
    %8 = stablehlo.broadcast_in_dim %c_0, dims = [2] : (tensor<1xi32>) -> tensor<1x1x1xi32> loc(#loc278)
    %9 = stablehlo.broadcast_in_dim %8, dims = [0, 1, 2] : (tensor<1x1x1xi32>) -> tensor<16x1x1xi32> loc(#loc280)
    %10 = stablehlo.compare LE, %5, %9, SIGNED : (tensor<16x1x1xi32>, tensor<16x1x1xi32>) -> tensor<16x1x1xi1> loc(#loc280)
    %11 = stablehlo.and %7, %10 : tensor<16x1x1xi1> loc(#loc281)
    %12 = stablehlo.reduce(%11 init: %c) applies stablehlo.and across dimensions = [2] : (tensor<16x1x1xi1>, tensor<i1>) -> tensor<16x1xi1> loc(#loc275)
    %13 = "stablehlo.gather"(%arg0, %5) <{dimension_numbers = #stablehlo.gather<offset_dims = [2], collapsed_slice_dims = [0], start_index_map = [0], index_vector_dim = 2>, slice_sizes = array<i64: 1, 16>}> : (tensor<33x16xf32>, tensor<16x1x1xi32>) -> tensor<16x1x16xf32> loc(#loc274)
    %14 = stablehlo.broadcast_in_dim %12, dims = [0, 1] : (tensor<16x1xi1>) -> tensor<16x1x16xi1> loc(#loc278)
    %15 = stablehlo.broadcast_in_dim %cst, dims = [] : (tensor<f32>) -> tensor<16x1x16xf32> loc(#loc278)
    %16 = stablehlo.select %14, %13, %15 : tensor<16x1x16xi1>, tensor<16x1x16xf32> loc(#loc282)
    return %16 : tensor<16x1x16xf32> loc(#loc)
  } loc(#loc1616)
  func.func private @_where(%arg0: tensor<16x1xi1> loc(unknown), %arg1: tensor<16x1xi32> loc(unknown), %arg2: tensor<16x1xi32> loc(unknown)) -> tensor<16x1xi32> {
    %0 = stablehlo.select %arg0, %arg1, %arg2 : tensor<16x1xi1>, tensor<16x1xi32> loc(#loc282)
    return %0 : tensor<16x1xi32> loc(#loc)
  } loc(#loc652)
  func.func private @_take_4(%arg0: tensor<33x16xf32> loc(unknown), %arg1: tensor<16x1x5xi32> loc(unknown)) -> tensor<16x1x5x16xf32> {
    %cst = stablehlo.constant dense<0x7FC00000> : tensor<f32> loc(#loc274)
    %c = stablehlo.constant dense<true> : tensor<i1> loc(#loc275)
    %c_0 = stablehlo.constant dense<32> : tensor<1xi32> loc(#loc274)
    %c_1 = stablehlo.constant dense<33> : tensor<i32> loc(#loc)
    %c_2 = stablehlo.constant dense<0> : tensor<i32> loc(#loc)
    %0 = stablehlo.broadcast_in_dim %c_2, dims = [] : (tensor<i32>) -> tensor<16x1x5xi32> loc(#loc276)
    %1 = stablehlo.compare LT, %arg1, %0, SIGNED : (tensor<16x1x5xi32>, tensor<16x1x5xi32>) -> tensor<16x1x5xi1> loc(#loc276)
    %2 = stablehlo.broadcast_in_dim %c_1, dims = [] : (tensor<i32>) -> tensor<16x1x5xi32> loc(#loc130)
    %3 = stablehlo.add %arg1, %2 : tensor<16x1x5xi32> loc(#loc130)
    %4 = call @_where_5(%1, %3, %arg1) : (tensor<16x1x5xi1>, tensor<16x1x5xi32>, tensor<16x1x5xi32>) -> tensor<16x1x5xi32> loc(#loc277)
    %5 = stablehlo.broadcast_in_dim %4, dims = [0, 1, 2] : (tensor<16x1x5xi32>) -> tensor<16x1x5x1xi32> loc(#loc278)
    %6 = stablehlo.broadcast_in_dim %c_2, dims = [] : (tensor<i32>) -> tensor<16x1x5x1xi32> loc(#loc279)
    %7 = stablehlo.compare GE, %5, %6, SIGNED : (tensor<16x1x5x1xi32>, tensor<16x1x5x1xi32>) -> tensor<16x1x5x1xi1> loc(#loc279)
    %8 = stablehlo.broadcast_in_dim %c_0, dims = [3] : (tensor<1xi32>) -> tensor<1x1x1x1xi32> loc(#loc278)
    %9 = stablehlo.broadcast_in_dim %8, dims = [0, 1, 2, 3] : (tensor<1x1x1x1xi32>) -> tensor<16x1x5x1xi32> loc(#loc280)
    %10 = stablehlo.compare LE, %5, %9, SIGNED : (tensor<16x1x5x1xi32>, tensor<16x1x5x1xi32>) -> tensor<16x1x5x1xi1> loc(#loc280)
    %11 = stablehlo.and %7, %10 : tensor<16x1x5x1xi1> loc(#loc281)
    %12 = stablehlo.reduce(%11 init: %c) applies stablehlo.and across dimensions = [3] : (tensor<16x1x5x1xi1>, tensor<i1>) -> tensor<16x1x5xi1> loc(#loc275)
    %13 = "stablehlo.gather"(%arg0, %5) <{dimension_numbers = #stablehlo.gather<offset_dims = [3], collapsed_slice_dims = [0], start_index_map = [0], index_vector_dim = 3>, slice_sizes = array<i64: 1, 16>}> : (tensor<33x16xf32>, tensor<16x1x5x1xi32>) -> tensor<16x1x5x16xf32> loc(#loc274)
    %14 = stablehlo.broadcast_in_dim %12, dims = [0, 1, 2] : (tensor<16x1x5xi1>) -> tensor<16x1x5x16xi1> loc(#loc278)
    %15 = stablehlo.broadcast_in_dim %cst, dims = [] : (tensor<f32>) -> tensor<16x1x5x16xf32> loc(#loc278)
    %16 = stablehlo.select %14, %13, %15 : tensor<16x1x5x16xi1>, tensor<16x1x5x16xf32> loc(#loc282)
    return %16 : tensor<16x1x5x16xf32> loc(#loc)
  } loc(#loc1617)
  func.func private @_where_5(%arg0: tensor<16x1x5xi1> loc(unknown), %arg1: tensor<16x1x5xi32> loc(unknown), %arg2: tensor<16x1x5xi32> loc(unknown)) -> tensor<16x1x5xi32> {
    %0 = stablehlo.select %arg0, %arg1, %arg2 : tensor<16x1x5xi1>, tensor<16x1x5xi32> loc(#loc282)
    return %0 : tensor<16x1x5xi32> loc(#loc)
  } loc(#loc652)
  func.func private @relu(%arg0: tensor<16x6x16xf32> loc(unknown)) -> tensor<16x6x16xf32> {
    %cst = stablehlo.constant dense<0.000000e+00> : tensor<f32> loc(#loc)
    %0 = stablehlo.broadcast_in_dim %cst, dims = [] : (tensor<f32>) -> tensor<16x6x16xf32> loc(#loc284)
    %1 = stablehlo.maximum %arg0, %0 : tensor<16x6x16xf32> loc(#loc284)
    return %1 : tensor<16x6x16xf32> loc(#loc)
  } loc(#loc652)
  func.func private @_take_6(%arg0: tensor<16x6x16xf32> loc(unknown), %arg1: tensor<i32> loc(unknown)) -> tensor<16x16xf32> {
    %cst = stablehlo.constant dense<0x7FC00000> : tensor<f32> loc(#loc274)
    %c = stablehlo.constant dense<true> : tensor<i1> loc(#loc275)
    %c_0 = stablehlo.constant dense<5> : tensor<1xi32> loc(#loc274)
    %c_1 = stablehlo.constant dense<6> : tensor<i32> loc(#loc)
    %c_2 = stablehlo.constant dense<0> : tensor<i32> loc(#loc)
    %0 = stablehlo.compare LT, %arg1, %c_2, SIGNED : (tensor<i32>, tensor<i32>) -> tensor<i1> loc(#loc276)
    %1 = stablehlo.add %arg1, %c_1 : tensor<i32> loc(#loc130)
    %2 = call @_where_7(%0, %1, %arg1) : (tensor<i1>, tensor<i32>, tensor<i32>) -> tensor<i32> loc(#loc277)
    %3 = stablehlo.broadcast_in_dim %2, dims = [] : (tensor<i32>) -> tensor<1xi32> loc(#loc278)
    %4 = stablehlo.convert %3 : tensor<1xi32> loc(#loc139)
    %5 = stablehlo.broadcast_in_dim %c_2, dims = [] : (tensor<i32>) -> tensor<1xi32> loc(#loc279)
    %6 = stablehlo.compare GE, %4, %5, SIGNED : (tensor<1xi32>, tensor<1xi32>) -> tensor<1xi1> loc(#loc279)
    %7 = stablehlo.compare LE, %4, %c_0, SIGNED : (tensor<1xi32>, tensor<1xi32>) -> tensor<1xi1> loc(#loc280)
    %8 = stablehlo.and %6, %7 : tensor<1xi1> loc(#loc281)
    %9 = stablehlo.reduce(%8 init: %c) applies stablehlo.and across dimensions = [0] : (tensor<1xi1>, tensor<i1>) -> tensor<i1> loc(#loc275)
    %10 = "stablehlo.gather"(%arg0, %4) <{dimension_numbers = #stablehlo.gather<offset_dims = [0, 1], collapsed_slice_dims = [1], start_index_map = [1]>, slice_sizes = array<i64: 16, 1, 16>}> : (tensor<16x6x16xf32>, tensor<1xi32>) -> tensor<16x16xf32> loc(#loc274)
    %11 = stablehlo.broadcast_in_dim %9, dims = [] : (tensor<i1>) -> tensor<16x16xi1> loc(#loc278)
    %12 = stablehlo.broadcast_in_dim %cst, dims = [] : (tensor<f32>) -> tensor<16x16xf32> loc(#loc278)
    %13 = stablehlo.select %11, %10, %12 : tensor<16x16xi1>, tensor<16x16xf32> loc(#loc282)
    return %13 : tensor<16x16xf32> loc(#loc)
  } loc(#loc2072)
  func.func private @_where_7(%arg0: tensor<i1> loc(unknown), %arg1: tensor<i32> loc(unknown), %arg2: tensor<i32> loc(unknown)) -> tensor<i32> {
    %0 = stablehlo.select %arg0, %arg1, %arg2 : tensor<i1>, tensor<i32> loc(#loc282)
    return %0 : tensor<i32> loc(#loc)
  } loc(#loc652)
  func.func private @log_softmax(%arg0: tensor<16x1x33xf32> loc(unknown)) -> tensor<16x1x33xf32> {
    %cst = stablehlo.constant dense<0.000000e+00> : tensor<f32> loc(#loc285)
    %cst_0 = stablehlo.constant dense<0xFF800000> : tensor<f32> loc(#loc)
    %0 = stablehlo.reduce(%arg0 init: %cst_0) applies stablehlo.maximum across dimensions = [2] : (tensor<16x1x33xf32>, tensor<f32>) -> tensor<16x1xf32> loc(#loc286)
    %1 = stablehlo.broadcast_in_dim %cst_0, dims = [] : (tensor<f32>) -> tensor<16x1xf32> loc(#loc284)
    %2 = stablehlo.maximum %1, %0 : tensor<16x1xf32> loc(#loc284)
    %3 = stablehlo.broadcast_in_dim %2, dims = [0, 1] : (tensor<16x1xf32>) -> tensor<16x1x1xf32> loc(#loc278)
    %4 = stablehlo.broadcast_in_dim %3, dims = [0, 1, 2] : (tensor<16x1x1xf32>) -> tensor<16x1x33xf32> loc(#loc136)
    %5 = stablehlo.subtract %arg0, %4 : tensor<16x1x33xf32> loc(#loc136)
    %6 = stablehlo.exponential %5 : tensor<16x1x33xf32> loc(#loc287)
    %7 = stablehlo.reduce(%6 init: %cst) applies stablehlo.add across dimensions = [2] : (tensor<16x1x33xf32>, tensor<f32>) -> tensor<16x1xf32> loc(#loc285)
    %8 = stablehlo.broadcast_in_dim %7, dims = [0, 1] : (tensor<16x1xf32>) -> tensor<16x1x1xf32> loc(#loc278)
    %9 = stablehlo.log %8 : tensor<16x1x1xf32> loc(#loc288)
    %10 = stablehlo.broadcast_in_dim %9, dims = [0, 1, 2] : (tensor<16x1x1xf32>) -> tensor<16x1x33xf32> loc(#loc136)
    %11 = stablehlo.subtract %5, %10 : tensor<16x1x33xf32> loc(#loc136)
    return %11 : tensor<16x1x33xf32> loc(#loc)
  } loc(#loc1878)
  func.func private @_gumbel(%arg0: tensor<2xui32> loc(unknown)) -> tensor<1x16x1x33xf32> {
    %cst = stablehlo.constant dense<1.000000e+00> : tensor<f32> loc(#loc)
    %cst_0 = stablehlo.constant dense<1.17549435E-38> : tensor<f32> loc(#loc)
    %0 = call @_uniform(%arg0, %cst, %cst_0) : (tensor<2xui32>, tensor<f32>, tensor<f32>) -> tensor<1x16x1x33xf32> loc(#loc289)
    %1 = stablehlo.log %0 : tensor<1x16x1x33xf32> loc(#loc288)
    %2 = stablehlo.negate %1 : tensor<1x16x1x33xf32> loc(#loc290)
    %3 = stablehlo.log %2 : tensor<1x16x1x33xf32> loc(#loc288)
    %4 = stablehlo.negate %3 : tensor<1x16x1x33xf32> loc(#loc290)
    return %4 : tensor<1x16x1x33xf32> loc(#loc)
  } loc(#loc2073)
  func.func private @_uniform(%arg0: tensor<2xui32> loc(unknown), %arg1: tensor<f32> loc(unknown), %arg2: tensor<f32> loc(unknown)) -> tensor<1x16x1x33xf32> {
    %cst = stablehlo.constant dense<1.000000e+00> : tensor<f32> loc(#loc)
    %c = stablehlo.constant dense<1065353216> : tensor<ui32> loc(#loc)
    %c_0 = stablehlo.constant dense<9> : tensor<ui32> loc(#loc)
    %c_1 = stablehlo.constant dense<32> : tensor<ui64> loc(#loc124)
    %c_2 = stablehlo.constant dense<1> : tensor<ui64> loc(#loc124)
    %c_3 = stablehlo.constant dense<33> : tensor<ui64> loc(#loc)
    %c_4 = stablehlo.constant dense<528> : tensor<ui64> loc(#loc124)
    %0 = stablehlo.convert %arg1 : tensor<f32> loc(#loc139)
    %1 = stablehlo.broadcast_in_dim %arg2, dims = [] : (tensor<f32>) -> tensor<1x1x1x1xf32> loc(#loc278)
    %2 = stablehlo.broadcast_in_dim %0, dims = [] : (tensor<f32>) -> tensor<1x1x1x1xf32> loc(#loc278)
    %3 = stablehlo.slice %arg0 [0:1] : (tensor<2xui32>) -> tensor<1xui32> loc(#loc125)
    %4 = stablehlo.reshape %3 : (tensor<1xui32>) -> tensor<ui32> loc(#loc126)
    %5 = stablehlo.slice %arg0 [1:2] : (tensor<2xui32>) -> tensor<1xui32> loc(#loc125)
    %6 = stablehlo.reshape %5 : (tensor<1xui32>) -> tensor<ui32> loc(#loc126)
    %7 = stablehlo.iota dim = 0 : tensor<1x16x1x33xui64> loc(#loc124)
    %8 = stablehlo.iota dim = 1 : tensor<1x16x1x33xui64> loc(#loc124)
    %9 = stablehlo.iota dim = 2 : tensor<1x16x1x33xui64> loc(#loc124)
    %10 = stablehlo.iota dim = 3 : tensor<1x16x1x33xui64> loc(#loc124)
    %11 = stablehlo.broadcast_in_dim %c_4, dims = [] : (tensor<ui64>) -> tensor<1x16x1x33xui64> loc(#loc124)
    %12 = stablehlo.multiply %11, %7 : tensor<1x16x1x33xui64> loc(#loc124)
    %13 = stablehlo.broadcast_in_dim %c_3, dims = [] : (tensor<ui64>) -> tensor<1x16x1x33xui64> loc(#loc124)
    %14 = stablehlo.multiply %13, %8 : tensor<1x16x1x33xui64> loc(#loc124)
    %15 = stablehlo.broadcast_in_dim %c_3, dims = [] : (tensor<ui64>) -> tensor<1x16x1x33xui64> loc(#loc124)
    %16 = stablehlo.multiply %15, %9 : tensor<1x16x1x33xui64> loc(#loc124)
    %17 = stablehlo.broadcast_in_dim %c_2, dims = [] : (tensor<ui64>) -> tensor<1x16x1x33xui64> loc(#loc124)
    %18 = stablehlo.multiply %17, %10 : tensor<1x16x1x33xui64> loc(#loc124)
    %19 = stablehlo.add %12, %14 : tensor<1x16x1x33xui64> loc(#loc124)
    %20 = stablehlo.add %19, %16 : tensor<1x16x1x33xui64> loc(#loc124)
    %21 = stablehlo.add %20, %18 : tensor<1x16x1x33xui64> loc(#loc124)
    %22 = stablehlo.broadcast_in_dim %c_1, dims = [] : (tensor<ui64>) -> tensor<1x16x1x33xui64> loc(#loc124)
    %23 = stablehlo.shift_right_logical %21, %22 : tensor<1x16x1x33xui64> loc(#loc124)
    %24 = stablehlo.convert %21 : (tensor<1x16x1x33xui64>) -> tensor<1x16x1x33xui32> loc(#loc124)
    %25 = stablehlo.convert %23 : (tensor<1x16x1x33xui64>) -> tensor<1x16x1x33xui32> loc(#loc124)
    %26:2 = call @threefry2x32_8(%4, %6, %25, %24) : (tensor<ui32>, tensor<ui32>, tensor<1x16x1x33xui32>, tensor<1x16x1x33xui32>) -> (tensor<1x16x1x33xui32>, tensor<1x16x1x33xui32>) loc(#loc291)
    %27 = stablehlo.xor %26#0, %26#1 : tensor<1x16x1x33xui32> loc(#loc129)
    %28 = stablehlo.broadcast_in_dim %c_0, dims = [] : (tensor<ui32>) -> tensor<1x16x1x33xui32> loc(#loc137)
    %29 = stablehlo.shift_right_logical %27, %28 : tensor<1x16x1x33xui32> loc(#loc137)
    %30 = stablehlo.broadcast_in_dim %c, dims = [] : (tensor<ui32>) -> tensor<1x16x1x33xui32> loc(#loc138)
    %31 = stablehlo.or %29, %30 : tensor<1x16x1x33xui32> loc(#loc138)
    %32 = stablehlo.bitcast_convert %31 : (tensor<1x16x1x33xui32>) -> tensor<1x16x1x33xf32> loc(#loc292)
    %33 = stablehlo.broadcast_in_dim %cst, dims = [] : (tensor<f32>) -> tensor<1x16x1x33xf32> loc(#loc136)
    %34 = stablehlo.subtract %32, %33 : tensor<1x16x1x33xf32> loc(#loc136)
    %35 = stablehlo.subtract %2, %1 : tensor<1x1x1x1xf32> loc(#loc136)
    %36 = stablehlo.broadcast_in_dim %35, dims = [0, 1, 2, 3] : (tensor<1x1x1x1xf32>) -> tensor<1x16x1x33xf32> loc(#loc293)
    %37 = stablehlo.multiply %34, %36 : tensor<1x16x1x33xf32> loc(#loc293)
    %38 = stablehlo.broadcast_in_dim %1, dims = [0, 1, 2, 3] : (tensor<1x1x1x1xf32>) -> tensor<1x16x1x33xf32> loc(#loc130)
    %39 = stablehlo.add %37, %38 : tensor<1x16x1x33xf32> loc(#loc130)
    %40 = stablehlo.broadcast_in_dim %1, dims = [0, 1, 2, 3] : (tensor<1x1x1x1xf32>) -> tensor<1x16x1x33xf32> loc(#loc284)
    %41 = stablehlo.maximum %40, %39 : tensor<1x16x1x33xf32> loc(#loc284)
    return %41 : tensor<1x16x1x33xf32> loc(#loc)
  } loc(#loc652)
  func.func private @threefry2x32_8(%arg0: tensor<ui32> loc(unknown), %arg1: tensor<ui32> loc(unknown), %arg2: tensor<1x16x1x33xui32> loc(unknown), %arg3: tensor<1x16x1x33xui32> loc(unknown)) -> (tensor<1x16x1x33xui32>, tensor<1x16x1x33xui32>) {
    %c = stablehlo.constant dense<1> : tensor<i32> loc(#loc)
    %c_0 = stablehlo.constant dense<5> : tensor<i32> loc(#loc)
    %c_1 = stablehlo.constant dense<0> : tensor<i32> loc(#loc)
    %c_2 = stablehlo.constant dense<466688986> : tensor<ui32> loc(#loc516)
    %c_3 = stablehlo.constant dense<[13, 15, 26, 6]> : tensor<4xui32> loc(#loc516)
    %c_4 = stablehlo.constant dense<[17, 29, 16, 24]> : tensor<4xui32> loc(#loc516)
    %0 = stablehlo.xor %arg0, %arg1 : tensor<ui32> loc(#loc129)
    %1 = stablehlo.xor %0, %c_2 : tensor<ui32> loc(#loc129)
    %2 = stablehlo.broadcast_in_dim %arg0, dims = [] : (tensor<ui32>) -> tensor<1x16x1x33xui32> loc(#loc130)
    %3 = stablehlo.add %arg2, %2 : tensor<1x16x1x33xui32> loc(#loc130)
    %4 = stablehlo.broadcast_in_dim %arg1, dims = [] : (tensor<ui32>) -> tensor<1x16x1x33xui32> loc(#loc130)
    %5 = stablehlo.add %arg3, %4 : tensor<1x16x1x33xui32> loc(#loc130)
    %6:9 = stablehlo.while(%iterArg = %c_1, %iterArg_5 = %c_1, %iterArg_6 = %3, %iterArg_7 = %5, %iterArg_8 = %arg1, %iterArg_9 = %1, %iterArg_10 = %arg0, %iterArg_11 = %c_3, %iterArg_12 = %c_4) : tensor<i32>, tensor<i32>, tensor<1x16x1x33xui32>, tensor<1x16x1x33xui32>, tensor<ui32>, tensor<ui32>, tensor<ui32>, tensor<4xui32>, tensor<4xui32>
    cond {
      %7 = stablehlo.compare LT, %iterArg, %c_0, SIGNED : (tensor<i32>, tensor<i32>) -> tensor<i1> loc(#loc132)
      stablehlo.return %7 : tensor<i1> loc(#loc131)
    } do {
      %7:8 = func.call @closed_call_9(%iterArg_5, %iterArg_6, %iterArg_7, %iterArg_8, %iterArg_9, %iterArg_10, %iterArg_11, %iterArg_12) : (tensor<i32>, tensor<1x16x1x33xui32>, tensor<1x16x1x33xui32>, tensor<ui32>, tensor<ui32>, tensor<ui32>, tensor<4xui32>, tensor<4xui32>) -> (tensor<i32>, tensor<1x16x1x33xui32>, tensor<1x16x1x33xui32>, tensor<ui32>, tensor<ui32>, tensor<ui32>, tensor<4xui32>, tensor<4xui32>) loc(#loc133)
      %8 = stablehlo.add %iterArg, %c : tensor<i32> loc(#loc134)
      stablehlo.return %8, %7#0, %7#1, %7#2, %7#3, %7#4, %7#5, %7#6, %7#7 : tensor<i32>, tensor<i32>, tensor<1x16x1x33xui32>, tensor<1x16x1x33xui32>, tensor<ui32>, tensor<ui32>, tensor<ui32>, tensor<4xui32>, tensor<4xui32> loc(#loc131)
    } loc(#loc131)
    return %6#2, %6#3 : tensor<1x16x1x33xui32>, tensor<1x16x1x33xui32> loc(#loc)
  } loc(#loc)
  func.func private @closed_call_9(%arg0: tensor<i32> loc(unknown), %arg1: tensor<1x16x1x33xui32> loc(unknown), %arg2: tensor<1x16x1x33xui32> loc(unknown), %arg3: tensor<ui32> loc(unknown), %arg4: tensor<ui32> loc(unknown), %arg5: tensor<ui32> loc(unknown), %arg6: tensor<4xui32> loc(unknown), %arg7: tensor<4xui32> loc(unknown)) -> (tensor<i32>, tensor<1x16x1x33xui32>, tensor<1x16x1x33xui32>, tensor<ui32>, tensor<ui32>, tensor<ui32>, tensor<4xui32>, tensor<4xui32>) {
    %c = stablehlo.constant dense<32> : tensor<ui32> loc(#loc)
    %c_0 = stablehlo.constant dense<1> : tensor<i32> loc(#loc)
    %0 = stablehlo.add %arg0, %c_0 : tensor<i32> loc(#loc130)
    %1 = stablehlo.slice %arg6 [0:1] : (tensor<4xui32>) -> tensor<1xui32> loc(#loc125)
    %2 = stablehlo.reshape %1 : (tensor<1xui32>) -> tensor<ui32> loc(#loc126)
    %3 = stablehlo.add %arg1, %arg2 : tensor<1x16x1x33xui32> loc(#loc130)
    %4 = stablehlo.broadcast_in_dim %2, dims = [] : (tensor<ui32>) -> tensor<1x16x1x33xui32> loc(#loc135)
    %5 = stablehlo.shift_left %arg2, %4 : tensor<1x16x1x33xui32> loc(#loc135)
    %6 = stablehlo.subtract %c, %2 : tensor<ui32> loc(#loc136)
    %7 = stablehlo.broadcast_in_dim %6, dims = [] : (tensor<ui32>) -> tensor<1x16x1x33xui32> loc(#loc137)
    %8 = stablehlo.shift_right_logical %arg2, %7 : tensor<1x16x1x33xui32> loc(#loc137)
    %9 = stablehlo.or %5, %8 : tensor<1x16x1x33xui32> loc(#loc138)
    %10 = stablehlo.xor %3, %9 : tensor<1x16x1x33xui32> loc(#loc129)
    %11 = stablehlo.slice %arg6 [1:2] : (tensor<4xui32>) -> tensor<1xui32> loc(#loc125)
    %12 = stablehlo.reshape %11 : (tensor<1xui32>) -> tensor<ui32> loc(#loc126)
    %13 = stablehlo.add %3, %10 : tensor<1x16x1x33xui32> loc(#loc130)
    %14 = stablehlo.broadcast_in_dim %12, dims = [] : (tensor<ui32>) -> tensor<1x16x1x33xui32> loc(#loc135)
    %15 = stablehlo.shift_left %10, %14 : tensor<1x16x1x33xui32> loc(#loc135)
    %16 = stablehlo.subtract %c, %12 : tensor<ui32> loc(#loc136)
    %17 = stablehlo.broadcast_in_dim %16, dims = [] : (tensor<ui32>) -> tensor<1x16x1x33xui32> loc(#loc137)
    %18 = stablehlo.shift_right_logical %10, %17 : tensor<1x16x1x33xui32> loc(#loc137)
    %19 = stablehlo.or %15, %18 : tensor<1x16x1x33xui32> loc(#loc138)
    %20 = stablehlo.xor %13, %19 : tensor<1x16x1x33xui32> loc(#loc129)
    %21 = stablehlo.slice %arg6 [2:3] : (tensor<4xui32>) -> tensor<1xui32> loc(#loc125)
    %22 = stablehlo.reshape %21 : (tensor<1xui32>) -> tensor<ui32> loc(#loc126)
    %23 = stablehlo.add %13, %20 : tensor<1x16x1x33xui32> loc(#loc130)
    %24 = stablehlo.broadcast_in_dim %22, dims = [] : (tensor<ui32>) -> tensor<1x16x1x33xui32> loc(#loc135)
    %25 = stablehlo.shift_left %20, %24 : tensor<1x16x1x33xui32> loc(#loc135)
    %26 = stablehlo.subtract %c, %22 : tensor<ui32> loc(#loc136)
    %27 = stablehlo.broadcast_in_dim %26, dims = [] : (tensor<ui32>) -> tensor<1x16x1x33xui32> loc(#loc137)
    %28 = stablehlo.shift_right_logical %20, %27 : tensor<1x16x1x33xui32> loc(#loc137)
    %29 = stablehlo.or %25, %28 : tensor<1x16x1x33xui32> loc(#loc138)
    %30 = stablehlo.xor %23, %29 : tensor<1x16x1x33xui32> loc(#loc129)
    %31 = stablehlo.slice %arg6 [3:4] : (tensor<4xui32>) -> tensor<1xui32> loc(#loc125)
    %32 = stablehlo.reshape %31 : (tensor<1xui32>) -> tensor<ui32> loc(#loc126)
    %33 = stablehlo.add %23, %30 : tensor<1x16x1x33xui32> loc(#loc130)
    %34 = stablehlo.broadcast_in_dim %32, dims = [] : (tensor<ui32>) -> tensor<1x16x1x33xui32> loc(#loc135)
    %35 = stablehlo.shift_left %30, %34 : tensor<1x16x1x33xui32> loc(#loc135)
    %36 = stablehlo.subtract %c, %32 : tensor<ui32> loc(#loc136)
    %37 = stablehlo.broadcast_in_dim %36, dims = [] : (tensor<ui32>) -> tensor<1x16x1x33xui32> loc(#loc137)
    %38 = stablehlo.shift_right_logical %30, %37 : tensor<1x16x1x33xui32> loc(#loc137)
    %39 = stablehlo.or %35, %38 : tensor<1x16x1x33xui32> loc(#loc138)
    %40 = stablehlo.xor %33, %39 : tensor<1x16x1x33xui32> loc(#loc129)
    %41 = stablehlo.broadcast_in_dim %arg3, dims = [] : (tensor<ui32>) -> tensor<1x16x1x33xui32> loc(#loc130)
    %42 = stablehlo.add %33, %41 : tensor<1x16x1x33xui32> loc(#loc130)
    %43 = stablehlo.broadcast_in_dim %arg4, dims = [] : (tensor<ui32>) -> tensor<1x16x1x33xui32> loc(#loc130)
    %44 = stablehlo.add %40, %43 : tensor<1x16x1x33xui32> loc(#loc130)
    %45 = stablehlo.add %arg0, %c_0 : tensor<i32> loc(#loc130)
    %46 = stablehlo.convert %45 : (tensor<i32>) -> tensor<ui32> loc(#loc139)
    %47 = stablehlo.broadcast_in_dim %46, dims = [] : (tensor<ui32>) -> tensor<1x16x1x33xui32> loc(#loc130)
    %48 = stablehlo.add %44, %47 : tensor<1x16x1x33xui32> loc(#loc130)
    return %0, %42, %48, %arg4, %arg5, %arg3, %arg7, %arg6 : tensor<i32>, tensor<1x16x1x33xui32>, tensor<1x16x1x33xui32>, tensor<ui32>, tensor<ui32>, tensor<ui32>, tensor<4xui32>, tensor<4xui32> loc(#loc)
  } loc(#loc517)
  func.func private @argmax(%arg0: tensor<1x16x1x33xf32> loc(callsite(#loc535 at #loc1288))) -> tensor<1x16x1xi32> {
    %c = stablehlo.constant dense<0> : tensor<i32> loc(#loc653)
    %cst = stablehlo.constant dense<0xFF800000> : tensor<f32> loc(#loc653)
    %0 = stablehlo.iota dim = 3 : tensor<1x16x1x33xi32> loc(#loc1880)
    %1:2 = stablehlo.reduce(%arg0 init: %cst), (%0 init: %c) across dimensions = [3] : (tensor<1x16x1x33xf32>, tensor<1x16x1x33xi32>, tensor<f32>, tensor<i32>) -> (tensor<1x16x1xf32>, tensor<1x16x1xi32>)
     reducer(%arg1: tensor<f32> loc("reduce:"(#loc295)), %arg3: tensor<f32> loc("reduce:"(#loc295))) (%arg2: tensor<i32> loc("reduce:"(#loc295)), %arg4: tensor<i32> loc("reduce:"(#loc295)))  {
      %2 = stablehlo.compare GT, %arg1, %arg3, FLOAT : (tensor<f32>, tensor<f32>) -> tensor<i1> loc(#loc2074)
      %3 = stablehlo.compare NE, %arg1, %arg1, FLOAT : (tensor<f32>, tensor<f32>) -> tensor<i1> loc(#loc2075)
      %4 = stablehlo.or %2, %3 : tensor<i1> loc(#loc2076)
      %5 = stablehlo.compare EQ, %arg1, %arg3, FLOAT : (tensor<f32>, tensor<f32>) -> tensor<i1> loc(#loc2077)
      %6 = stablehlo.compare LT, %arg2, %arg4, SIGNED : (tensor<i32>, tensor<i32>) -> tensor<i1> loc(#loc2078)
      %7 = stablehlo.and %5, %6 : tensor<i1> loc(#loc2079)
      %8 = stablehlo.or %4, %7 : tensor<i1> loc(#loc2076)
      %9 = stablehlo.select %4, %arg1, %arg3 : tensor<i1>, tensor<f32> loc(#loc2080)
      %10 = stablehlo.select %8, %arg2, %arg4 : tensor<i1>, tensor<i32> loc(#loc2080)
      stablehlo.return %9, %10 : tensor<f32>, tensor<i32> loc(#loc1881)
    } loc(#loc1881)
    return %1#1 : tensor<1x16x1xi32> loc(#loc1551)
  } loc(#loc1551)
  func.func private @_one_hot(%arg0: tensor<1x16x1xi32> loc(unknown)) -> tensor<1x16x1x33xf32> {
    %0 = stablehlo.broadcast_in_dim %arg0, dims = [0, 1, 2] : (tensor<1x16x1xi32>) -> tensor<1x16x1x1xi32> loc(#loc278)
    %1 = stablehlo.iota dim = 3 : tensor<1x1x1x33xi32> loc(#loc296)
    %2 = stablehlo.broadcast_in_dim %0, dims = [0, 1, 2, 3] : (tensor<1x16x1x1xi32>) -> tensor<1x16x1x33xi32> loc(#loc297)
    %3 = stablehlo.broadcast_in_dim %1, dims = [0, 1, 2, 3] : (tensor<1x1x1x33xi32>) -> tensor<1x16x1x33xi32> loc(#loc297)
    %4 = stablehlo.compare EQ, %2, %3, SIGNED : (tensor<1x16x1x33xi32>, tensor<1x16x1x33xi32>) -> tensor<1x16x1x33xi1> loc(#loc297)
    %5 = stablehlo.convert %4 : (tensor<1x16x1x33xi1>) -> tensor<1x16x1x33xf32> loc(#loc139)
    return %5 : tensor<1x16x1x33xf32> loc(#loc)
  } loc(#loc2081)
  func.func private @_where_10(%arg0: tensor<1x16x1x33xi1> loc(unknown), %arg1: tensor<f32> loc(unknown), %arg2: tensor<1x16x1x33xf32> loc(unknown)) -> tensor<1x16x1x33xf32> {
    %0 = stablehlo.broadcast_in_dim %arg1, dims = [] : (tensor<f32>) -> tensor<1x16x1x33xf32> loc(#loc278)
    %1 = stablehlo.select %arg0, %0, %arg2 : tensor<1x16x1x33xi1>, tensor<1x16x1x33xf32> loc(#loc282)
    return %1 : tensor<1x16x1x33xf32> loc(#loc)
  } loc(#loc967)
  func.func private @_where_11(%arg0: tensor<1x16x1xi1> loc(unknown), %arg1: tensor<f32> loc(unknown), %arg2: tensor<1x16x1xf32> loc(unknown)) -> tensor<1x16x1xf32> {
    %0 = stablehlo.convert %arg1 : tensor<f32> loc(#loc139)
    %1 = stablehlo.broadcast_in_dim %0, dims = [] : (tensor<f32>) -> tensor<1x16x1xf32> loc(#loc278)
    %2 = stablehlo.select %arg0, %1, %arg2 : tensor<1x16x1xi1>, tensor<1x16x1xf32> loc(#loc282)
    return %2 : tensor<1x16x1xf32> loc(#loc)
  } loc(#loc2082)
  func.func private @_threefry_split_12(%arg0: tensor<16x2xui32> loc(unknown)) -> tensor<16x2x2xui32> {
    %c = stablehlo.constant dense<32> : tensor<ui64> loc(#loc124)
    %c_0 = stablehlo.constant dense<1> : tensor<ui64> loc(#loc124)
    %0 = stablehlo.slice %arg0 [0:16, 0:1] : (tensor<16x2xui32>) -> tensor<16x1xui32> loc(#loc125)
    %1 = stablehlo.reshape %0 : (tensor<16x1xui32>) -> tensor<16xui32> loc(#loc126)
    %2 = stablehlo.slice %arg0 [0:16, 1:2] : (tensor<16x2xui32>) -> tensor<16x1xui32> loc(#loc125)
    %3 = stablehlo.reshape %2 : (tensor<16x1xui32>) -> tensor<16xui32> loc(#loc126)
    %4 = stablehlo.iota dim = 0 : tensor<2xui64> loc(#loc124)
    %5 = stablehlo.broadcast_in_dim %c_0, dims = [] : (tensor<ui64>) -> tensor<2xui64> loc(#loc124)
    %6 = stablehlo.multiply %5, %4 : tensor<2xui64> loc(#loc124)
    %7 = stablehlo.broadcast_in_dim %c, dims = [] : (tensor<ui64>) -> tensor<2xui64> loc(#loc124)
    %8 = stablehlo.shift_right_logical %6, %7 : tensor<2xui64> loc(#loc124)
    %9 = stablehlo.convert %6 : (tensor<2xui64>) -> tensor<2xui32> loc(#loc124)
    %10 = stablehlo.convert %8 : (tensor<2xui64>) -> tensor<2xui32> loc(#loc124)
    %11 = stablehlo.broadcast_in_dim %10, dims = [1] : (tensor<2xui32>) -> tensor<1x2xui32> loc(#loc278)
    %12 = stablehlo.broadcast_in_dim %9, dims = [1] : (tensor<2xui32>) -> tensor<1x2xui32> loc(#loc278)
    %13 = stablehlo.broadcast_in_dim %1, dims = [0] : (tensor<16xui32>) -> tensor<16x1xui32> loc(#loc278)
    %14 = stablehlo.broadcast_in_dim %3, dims = [0] : (tensor<16xui32>) -> tensor<16x1xui32> loc(#loc278)
    %15:2 = call @threefry2x32_13(%13, %14, %11, %12) : (tensor<16x1xui32>, tensor<16x1xui32>, tensor<1x2xui32>, tensor<1x2xui32>) -> (tensor<16x2xui32>, tensor<16x2xui32>) loc(#loc)
    %16 = stablehlo.broadcast_in_dim %15#0, dims = [0, 1] : (tensor<16x2xui32>) -> tensor<16x2x1xui32> loc(#loc127)
    %17 = stablehlo.broadcast_in_dim %15#1, dims = [0, 1] : (tensor<16x2xui32>) -> tensor<16x2x1xui32> loc(#loc127)
    %18 = stablehlo.concatenate %16, %17, dim = 2 : (tensor<16x2x1xui32>, tensor<16x2x1xui32>) -> tensor<16x2x2xui32> loc(#loc127)
    return %18 : tensor<16x2x2xui32> loc(#loc)
  } loc(#loc1357)
  func.func private @threefry2x32_13(%arg0: tensor<16x1xui32> loc(unknown), %arg1: tensor<16x1xui32> loc(unknown), %arg2: tensor<1x2xui32> loc(unknown), %arg3: tensor<1x2xui32> loc(unknown)) -> (tensor<16x2xui32>, tensor<16x2xui32>) {
    %c = stablehlo.constant dense<1> : tensor<i32> loc(#loc)
    %c_0 = stablehlo.constant dense<5> : tensor<i32> loc(#loc)
    %c_1 = stablehlo.constant dense<0> : tensor<i32> loc(#loc)
    %c_2 = stablehlo.constant dense<466688986> : tensor<ui32> loc(#loc516)
    %c_3 = stablehlo.constant dense<[13, 15, 26, 6]> : tensor<4xui32> loc(#loc516)
    %c_4 = stablehlo.constant dense<[17, 29, 16, 24]> : tensor<4xui32> loc(#loc516)
    %0 = stablehlo.xor %arg0, %arg1 : tensor<16x1xui32> loc(#loc129)
    %1 = stablehlo.broadcast_in_dim %c_2, dims = [] : (tensor<ui32>) -> tensor<16x1xui32> loc(#loc129)
    %2 = stablehlo.xor %0, %1 : tensor<16x1xui32> loc(#loc129)
    %3 = stablehlo.broadcast_in_dim %arg2, dims = [0, 1] : (tensor<1x2xui32>) -> tensor<16x2xui32> loc(#loc130)
    %4 = stablehlo.broadcast_in_dim %arg0, dims = [0, 1] : (tensor<16x1xui32>) -> tensor<16x2xui32> loc(#loc130)
    %5 = stablehlo.add %3, %4 : tensor<16x2xui32> loc(#loc130)
    %6 = stablehlo.broadcast_in_dim %arg3, dims = [0, 1] : (tensor<1x2xui32>) -> tensor<16x2xui32> loc(#loc130)
    %7 = stablehlo.broadcast_in_dim %arg1, dims = [0, 1] : (tensor<16x1xui32>) -> tensor<16x2xui32> loc(#loc130)
    %8 = stablehlo.add %6, %7 : tensor<16x2xui32> loc(#loc130)
    %9:9 = stablehlo.while(%iterArg = %c_1, %iterArg_5 = %c_1, %iterArg_6 = %5, %iterArg_7 = %8, %iterArg_8 = %arg1, %iterArg_9 = %2, %iterArg_10 = %arg0, %iterArg_11 = %c_3, %iterArg_12 = %c_4) : tensor<i32>, tensor<i32>, tensor<16x2xui32>, tensor<16x2xui32>, tensor<16x1xui32>, tensor<16x1xui32>, tensor<16x1xui32>, tensor<4xui32>, tensor<4xui32>
    cond {
      %10 = stablehlo.compare LT, %iterArg, %c_0, SIGNED : (tensor<i32>, tensor<i32>) -> tensor<i1> loc(#loc132)
      stablehlo.return %10 : tensor<i1> loc(#loc131)
    } do {
      %10:8 = func.call @closed_call_14(%iterArg_5, %iterArg_6, %iterArg_7, %iterArg_8, %iterArg_9, %iterArg_10, %iterArg_11, %iterArg_12) : (tensor<i32>, tensor<16x2xui32>, tensor<16x2xui32>, tensor<16x1xui32>, tensor<16x1xui32>, tensor<16x1xui32>, tensor<4xui32>, tensor<4xui32>) -> (tensor<i32>, tensor<16x2xui32>, tensor<16x2xui32>, tensor<16x1xui32>, tensor<16x1xui32>, tensor<16x1xui32>, tensor<4xui32>, tensor<4xui32>) loc(#loc133)
      %11 = stablehlo.add %iterArg, %c : tensor<i32> loc(#loc134)
…
#loc1409 = loc("transpose(jvp(Network))/torso/reshape"(#loc1190))
#loc1410 = loc("transpose(jvp(Network))/feature_extractor/split"(#loc1189))
#loc1411 = loc("transpose(jvp(Network))/feature_extractor/reduce_sum"(#loc1187))
#loc1412 = loc(callsite(#loc730 at #loc1214))
#loc1413 = loc(callsite(#loc739 at #loc1214))
#loc1414 = loc(callsite(#loc741 at #loc1214))
#loc1415 = loc("lt"(#loc1215))
#loc1416 = loc(callsite(#loc743 at #loc1216))
#loc1417 = loc(callsite(#loc745 at #loc1216))
#loc1418 = loc(callsite(#loc746 at #loc1216))
#loc1419 = loc(callsite(#loc749 at #loc1217))
#loc1420 = loc(callsite(#loc755 at #loc1217))
#loc1421 = loc(callsite(#loc760 at #loc1217))
#loc1422 = loc(callsite(#loc763 at #loc1217))
#loc1423 = loc(callsite(#loc764 at #loc1217))
#loc1424 = loc(callsite(#loc766 at #loc1217))
#loc1425 = loc(callsite(#loc771 at #loc1217))
#loc1426 = loc("jvp()/jit"(#loc1200))
#loc1427 = loc("jvp()/jit"(#loc1206))
#loc1428 = loc("jvp()/jit"(#loc1208))
#loc1429 = loc("transpose(jvp())/jit"(#loc1208))
#loc1430 = loc("transpose(jvp())/jit"(#loc1206))
#loc1431 = loc("broadcast_in_dim"(#loc1223))
#loc1432 = loc(callsite(#loc452 at #loc1225))
#loc1433 = loc("Network/feature_extractor/broadcast_in_dim"(#loc1226))
#loc1434 = loc(callsite(#loc452 at #loc1227))
#loc1435 = loc("Network/feature_extractor/concatenate"(#loc1228))
#loc1436 = loc("Network/torso/reshape"(#loc1229))
#loc1437 = loc("Network/torso/broadcast_in_dim"(#loc1230))
#loc1438 = loc("Network/torso/broadcast_in_dim"(#loc1231))
#loc1439 = loc("Network/torso/scatter"(#loc1231))
#loc1440 = loc("Network/torso/reshape"(#loc1232))
#loc1441 = loc(callsite(#loc468 at #loc1233))
#loc1442 = loc("Network/torso/reshape"(#loc1234))
#loc1443 = loc("Network/torso/slice"(#loc1235))
#loc1444 = loc("Network/torso/squeeze"(#loc1235))
#loc1445 = loc(callsite(#loc465 at #loc1236))
#loc1446 = loc(callsite(#loc524 at #loc1237))
#loc1447 = loc(callsite(#loc530 at #loc1238))
#loc1448 = loc("reshape"(#loc1239))
#loc1449 = loc("jit(_threefry_split)"(#loc1241))
#loc1450 = loc(callsite(#loc957 at #loc1242))
#loc1451 = loc("vmap()/slice"(#loc1243))
#loc1452 = loc("vmap()/squeeze"(#loc1243))
#loc1453 = loc(callsite(#loc560 at #loc1244))
#loc1454 = loc(callsite(#loc562 at #loc1244))
#loc1455 = loc(callsite(#loc563 at #loc1244))
#loc1456 = loc(callsite(#loc564 at #loc1244))
#loc1457 = loc(callsite(#loc565 at #loc1244))
#loc1458 = loc(callsite(#loc566 at #loc1244))
#loc1459 = loc(callsite(#loc567 at #loc1244))
#loc1460 = loc(callsite(#loc568 at #loc1244))
#loc1461 = loc(callsite(#loc569 at #loc1244))
#loc1462 = loc(callsite(#loc570 at #loc1244))
#loc1463 = loc(callsite(#loc571 at #loc1244))
#loc1464 = loc(callsite(#loc572 at #loc1244))
#loc1465 = loc(callsite(#loc573 at #loc1244))
#loc1466 = loc(callsite(#loc574 at #loc1244))
#loc1467 = loc(callsite(#loc575 at #loc1244))
#loc1468 = loc(callsite(#loc576 at #loc1244))
#loc1469 = loc(callsite(#loc577 at #loc1244))
#loc1470 = loc(callsite(#loc578 at #loc1244))
#loc1471 = loc(callsite(#loc581 at #loc1244))
#loc1472 = loc(callsite(#loc616 at #loc1244))
#loc1473 = loc(callsite(#loc618 at #loc1244))
#loc1474 = loc(callsite(#loc624 at #loc1244))
#loc1475 = loc(callsite(#loc625 at #loc1244))
#loc1476 = loc(callsite(#loc626 at #loc1244))
#loc1477 = loc(callsite(#loc627 at #loc1244))
#loc1478 = loc(callsite(#loc629 at #loc1244))
#loc1479 = loc(callsite(#loc630 at #loc1244))
#loc1480 = loc(callsite(#loc631 at #loc1244))
#loc1481 = loc(callsite(#loc632 at #loc1244))
#loc1482 = loc(callsite(#loc634 at #loc1245))
#loc1483 = loc(callsite(#loc639 at #loc1245))
#loc1484 = loc(callsite(#loc640 at #loc1245))
#loc1485 = loc(callsite(#loc450 at #loc1246))
#loc1486 = loc(callsite(#loc642 at #loc1247))
#loc1487 = loc(callsite(#loc642 at #loc1248))
#loc1488 = loc("jit(train_step)/jit(_threefry_split)"(#loc1253))
#loc1489 = loc("jit(train_step)/jit(_threefry_split)"(#loc1256))
#loc1490 = loc("jit(train_step)/broadcast_in_dim"(#loc1257))
#loc1491 = loc("jit(train_step)/while"(#loc1257))
#loc1492 = loc("jit(train_step)/while/cond/lt"(#loc1258))
#loc1493 = loc("jit(train_step)/while/body/jit(dynamic_index_in_dim)"(#loc1258))
#loc1494 = loc("jit(train_step)/while/body/closed_call"(#loc1258))
#loc1495 = loc("jit(train_step)/while/body/jit(dynamic_update_index_in_dim)"(#loc1258))
#loc1496 = loc("jit(train_step)/while/body/add"(#loc1258))
#loc1497 = loc(callsite(#loc447 at #loc1259))
#loc1498 = loc("jit(train_step)/or"(#loc1260))
#loc1499 = loc(callsite(#loc453 at #loc1261))
#loc1500 = loc(callsite(#loc456 at #loc1261))
#loc1501 = loc(callsite(#loc457 at #loc1261))
#loc1502 = loc(callsite(#loc458 at #loc1261))
#loc1503 = loc(callsite(#loc459 at #loc1262))
#loc1504 = loc(callsite(#loc461 at #loc1262))
#loc1505 = loc(callsite(#loc462 at #loc1262))
#loc1506 = loc(callsite(#loc464 at #loc1262))
#loc1507 = loc(callsite(#loc469 at #loc1262))
#loc1508 = loc(callsite(#loc476 at #loc1263))
#loc1509 = loc(callsite(#loc498 at #loc1262))
#loc1510 = loc(callsite(#loc499 at #loc1262))
#loc1511 = loc(callsite(#loc500 at #loc1264))
#loc1512 = loc("jit(train_step)/squeeze"(#loc1265))
#loc1513 = loc("jit(train_step)/squeeze"(#loc1266))
#loc1514 = loc("jit(train_step)/broadcast_in_dim"(#loc1267))
#loc1515 = loc(callsite(#loc915 at #loc1268))
#loc1516 = loc(callsite(#loc1095 at #loc1268))
#loc1517 = loc("jit(train_step)/add"(#loc1269))
#loc1518 = loc("jit(train_step)/jit(_threefry_split)"(#loc1270))
#loc1519 = loc("jit(train_step)/while"(#loc1271))
#loc1520 = loc("jit(train_step)/while/cond/lt"(#loc1272))
#loc1521 = loc("jit(train_step)/while/body/jit(dynamic_index_in_dim)"(#loc1272))
#loc1522 = loc("jit(train_step)/while/body/closed_call"(#loc1272))
#loc1523 = loc("jit(train_step)/while/body/add"(#loc1272))
#loc1524 = loc("jit(train_step)/jit(_threefry_split)"(#loc1273))
#loc1525 = loc("jit(train_step)/broadcast_in_dim"(#loc1274))
#loc1526 = loc("jit(train_step)/while"(#loc1274))
#loc1527 = loc("jit(train_step)/while/cond/lt"(#loc1275))
#loc1528 = loc("jit(train_step)/while/body/jit(dynamic_index_in_dim)"(#loc1275))
#loc1529 = loc("jit(train_step)/while/body/closed_call"(#loc1275))
#loc1530 = loc("jit(train_step)/while/body/jit(dynamic_update_index_in_dim)"(#loc1275))
#loc1531 = loc("jit(train_step)/while/body/add"(#loc1275))
#loc1532 = loc(callsite(#loc466 at #loc1263))
#loc1533 = loc(callsite(#loc472 at #loc1263))
#loc1534 = loc(callsite(#loc474 at #loc1263))
#loc1535 = loc(callsite(#loc483 at #loc1263))
#loc1536 = loc(callsite(#loc484 at #loc1263))
#loc1537 = loc(callsite(#loc485 at #loc1263))
#loc1538 = loc(callsite(#loc486 at #loc1263))
#loc1539 = loc(callsite(#loc487 at #loc1263))
#loc1540 = loc(callsite(#loc488 at #loc1263))
#loc1541 = loc(callsite(#loc489 at #loc1263))
#loc1542 = loc(callsite(#loc490 at #loc1263))
#loc1543 = loc(callsite(#loc494 at #loc1263))
#loc1544 = loc(callsite(#loc495 at #loc1263))
#loc1545 = loc(callsite(#loc496 at #loc1263))
#loc1546 = loc(callsite(#loc497 at #loc1263))
#loc1547 = loc("jit(log_softmax)"(#loc1287))
#loc1548 = loc(callsite(#loc528 at #loc1288))
#loc1549 = loc(callsite(#loc533 at #loc1288))
#loc1550 = loc(callsite(#loc534 at #loc1288))
#loc1552 = loc(callsite(#loc536 at #loc1289))
#loc1553 = loc(callsite(#loc538 at #loc1289))
#loc1554 = loc(callsite(#loc539 at #loc1289))
#loc1555 = loc(callsite(#loc540 at #loc1289))
#loc1556 = loc(callsite(#loc542 at #loc1289))
#loc1557 = loc(callsite(#loc545 at #loc1289))
#loc1558 = loc(callsite(#loc546 at #loc1289))
#loc1559 = loc(callsite(#loc579 at #loc1314))
#loc1560 = loc(callsite(#loc582 at #loc1314))
#loc1561 = loc(callsite(#loc583 at #loc1314))
#loc1562 = loc(callsite(#loc584 at #loc1314))
#loc1563 = loc(callsite(#loc585 at #loc1315))
#loc1564 = loc(callsite(#loc587 at #loc1315))
#loc1565 = loc(callsite(#loc588 at #loc1315))
#loc1566 = loc(callsite(#loc589 at #loc1315))
#loc1567 = loc("vmap()/eq"(#loc1316))
#loc1568 = loc("vmap()/reduce_and"(#loc1317))
#loc1569 = loc(callsite(#loc592 at #loc1318))
#loc1570 = loc(callsite(#loc594 at #loc1318))
#loc1571 = loc(callsite(#loc595 at #loc1318))
#loc1572 = loc(callsite(#loc596 at #loc1318))
#loc1573 = loc(callsite(#loc597 at #loc1318))
#loc1574 = loc(callsite(#loc599 at #loc1318))
#loc1575 = loc(callsite(#loc600 at #loc1318))
#loc1576 = loc(callsite(#loc601 at #loc1318))
#loc1577 = loc("vmap()/convert_element_type"(#loc1319))
#loc1578 = loc("vmap()/add"(#loc1320))
#loc1579 = loc("vmap()/convert_element_type"(#loc1321))
#loc1580 = loc("vmap()/ge"(#loc1322))
#loc1581 = loc("vmap()/or"(#loc1323))
#loc1582 = loc("vmap()/convert_element_type"(#loc1324))
#loc1583 = loc("vmap()/convert_element_type"(#loc1325))
#loc1584 = loc("vmap()/not"(#loc1326))
#loc1585 = loc("vmap()/convert_element_type"(#loc1327))
#loc1586 = loc(callsite(#loc611 at #loc1328))
#loc1587 = loc(callsite(#loc613 at #loc1328))
#loc1588 = loc(callsite(#loc614 at #loc1328))
#loc1589 = loc("vmap()/broadcast_in_dim"(#loc1329))
#loc1590 = loc("vmap()/select_n"(#loc1329))
#loc1591 = loc("vmap()/reshape"(#loc1330))
#loc1592 = loc("vmap()/reduce_sum"(#loc1331))
#loc1593 = loc("vmap()/gt"(#loc1332))
#loc1595 = loc("vmap()/add"(#loc1334))
#loc1596 = loc("vmap(jit(_where))"(#loc1335))
#loc1597 = loc("vmap()/broadcast_in_dim"(#loc1337))
#loc1598 = loc("vmap()/select_n"(#loc1337))
#loc1599 = loc("vmap()/broadcast_in_dim"(#loc1338))
#loc1600 = loc("vmap()/select_n"(#loc1338))
#loc1601 = loc("vmap()/broadcast_in_dim"(#loc1339))
#loc1602 = loc("vmap()/select_n"(#loc1339))
#loc1603 = loc(callsite(#loc615 at #loc1340))
#loc1604 = loc("vmap(jit(_randint))"(#loc1344))
#loc1605 = loc("vmap()/lt"(#loc1345))
#loc1606 = loc("vmap()/add"(#loc1345))
#loc1607 = loc("vmap()/select_n"(#loc1345))
#loc1608 = loc("vmap()/broadcast_in_dim"(#loc1345))
#loc1609 = loc("vmap()/concatenate"(#loc1345))
#loc1610 = loc("vmap()/gather"(#loc1345))
#loc1611 = loc("vmap()/squeeze"(#loc1345))
#loc1612 = loc("vmap()/broadcast_in_dim"(#loc1346))
#loc1613 = loc(callsite(#loc611 at #loc1347))
#loc1614 = loc(callsite(#loc613 at #loc1347))
#loc1615 = loc(callsite(#loc614 at #loc1347))
#loc1616 = loc("jit:"(#loc1355))
#loc1617 = loc("jit:"(#loc1356))
#loc1618 = loc("jit"(#loc1287))
#loc1619 = loc("jit:"(#loc1358))
#loc1620 = loc("jit:"(#loc1359))
#loc1621 = loc("jit:"(#loc1360))
#loc1622 = loc("jit:"(#loc1361))
#loc1623 = loc("jit:"(#loc1362))
#loc1624 = loc("jit:"(#loc1363))
#loc1625 = loc("iota"(#loc1333))
#loc1626 = loc("reduce"(#loc1333))
#loc1627 = loc(callsite(#loc1333 at #loc1333))
#loc1628 = loc("vmap()/jit"(#loc1335))
#loc1629 = loc("vmap()/jit"(#loc1344))
#loc1630 = loc("jvp(Network)/feature_extractor/token_embedding/jit(_take)"(#loc1369))
#loc1631 = loc("jvp(Network)/feature_extractor/token_embedding/jit(_take)"(#loc1371))
#loc1632 = loc(callsite(#loc467 at #loc1378))
#loc1633 = loc("jvp(Network)/head/actor/dot_general"(#loc1382))
#loc1634 = loc("jvp(Network)/head/critic/dot_general"(#loc1383))
#loc1635 = loc("jvp(Network)/head/critic/reshape"(#loc1384))
#loc1636 = loc("jvp(Network)/head/critic/add"(#loc1385))
#loc1637 = loc(callsite(#loc523 at #loc1386))
#loc1638 = loc(callsite(#loc541 at #loc1391))
#loc1639 = loc(callsite(#loc543 at #loc1391))
#loc1640 = loc(callsite(#loc544 at #loc1391))
#loc1641 = loc("jvp()/exp"(#loc1396))
#loc1642 = loc("jvp()/eq"(#loc1397))
#loc1643 = loc("jvp(jit(_where))"(#loc1398))
#loc1644 = loc("transpose(jvp())/mul"(#loc1401))
#loc1645 = loc("transpose(jvp(jit(_where)))"(#loc1398))
#loc1646 = loc("transpose(jvp())/mul"(#loc1396))
#loc1647 = loc("transpose(jvp())/add_any"(#loc1396))
#loc1648 = loc(callsite(#loc724 at #loc1405))
#loc1649 = loc("transpose(jvp(Network))/head/critic/reduce_sum"(#loc1385))
#loc1650 = loc("transpose(jvp(Network))/head/critic/reshape"(#loc1385))
#loc1651 = loc("transpose(jvp(Network))/head/critic/reshape"(#loc1384))
#loc1652 = loc("transpose(jvp(Network))/head/critic/dot_general"(#loc1383))
#loc1653 = loc("transpose(jvp(Network))/head/critic/transpose"(#loc1383))
#loc1654 = loc("transpose(jvp(Network))/head/actor/dot_general"(#loc1382))
#loc1655 = loc("transpose(jvp(Network))/head/actor/transpose"(#loc1382))
#loc1656 = loc("transpose(jvp(Network))/head/actor/add_any"(#loc1382))
#loc1657 = loc("transpose(jvp(Network))/feature_extractor/token_embedding/jit(_take)"(#loc1371))
#loc1658 = loc("transpose(jvp(Network))/feature_extractor/token_embedding/jit(_take)"(#loc1369))
#loc1659 = loc("transpose(jvp(Network))/feature_extractor/token_embedding/add_any"(#loc1369))
#loc1660 = loc(callsite(#loc729 at #loc1412))
#loc1661 = loc(callsite(#loc735 at #loc1412))
#loc1662 = loc(callsite(#loc736 at #loc1412))
#loc1663 = loc(callsite(#loc737 at #loc1412))
#loc1664 = loc(callsite(#loc738 at #loc1413))
#loc1665 = loc(callsite(#loc740 at #loc1413))
#loc1666 = loc("sqrt"(#loc1414))
#loc1667 = loc("div"(#loc1416))
#loc1668 = loc("mul"(#loc1417))
#loc1669 = loc("select_n"(#loc1418))
#loc1670 = loc(callsite(#loc748 at #loc1419))
#loc1671 = loc(callsite(#loc754 at #loc1420))
#loc1672 = loc(callsite(#loc759 at #loc1421))
#loc1673 = loc(callsite(#loc761 at #loc1421))
#loc1674 = loc(callsite(#loc762 at #loc1421))
#loc1675 = loc("pow"(#loc1422))
#loc1676 = loc("sub"(#loc1422))
#loc1677 = loc("div"(#loc1422))
#loc1678 = loc("pow"(#loc1423))
#loc1679 = loc("sub"(#loc1423))
#loc1680 = loc("div"(#loc1423))
#loc1681 = loc(callsite(#loc765 at #loc1424))
#loc1682 = loc(callsite(#loc767 at #loc1424))
#loc1683 = loc(callsite(#loc768 at #loc1424))
#loc1684 = loc(callsite(#loc769 at #loc1424))
#loc1685 = loc(callsite(#loc770 at #loc1425))
#loc1686 = loc("jvp(Network)/feature_extractor/token_embedding/jit"(#loc1369))
#loc1687 = loc("jvp(Network)/feature_extractor/token_embedding/jit"(#loc1371))
#loc1688 = loc("jit:"(#loc1426))
#loc1689 = loc("jit:"(#loc1427))
#loc1690 = loc("jit:"(#loc1428))
#loc1691 = loc("jvp()/jit"(#loc1398))
#loc1692 = loc("transpose(jvp())/jit"(#loc1398))
#loc1693 = loc("jit:"(#loc1429))
#loc1694 = loc("jit:"(#loc1430))
#loc1695 = loc("transpose(jvp(Network))/feature_extractor/token_embedding/jit"(#loc1371))
#loc1696 = loc("transpose(jvp(Network))/feature_extractor/token_embedding/jit"(#loc1369))
#loc1697 = loc("Network/feature_extractor/token_embedding/jit(_take)"(#loc1432))
#loc1698 = loc("Network/feature_extractor/token_embedding/jit(_take)"(#loc1434))
#loc1699 = loc(callsite(#loc467 at #loc1441))
#loc1700 = loc("Network/head/actor/dot_general"(#loc1445))
#loc1701 = loc(callsite(#loc523 at #loc1446))
#loc1702 = loc(callsite(#loc529 at #loc1447))
#loc1703 = loc(callsite(#loc537 at #loc1447))
#loc1704 = loc("vmap()/vmap(jit(_threefry_split))"(#loc1450))
#loc1705 = loc("vmap()/eq"(#loc1453))
#loc1706 = loc("vmap()/eq"(#loc1454))
#loc1707 = loc("vmap(jit(_where))"(#loc1455))
#loc1708 = loc("vmap(jit(_where))"(#loc1456))
#loc1709 = loc("vmap()/broadcast_in_dim"(#loc1457))
#loc1710 = loc("vmap(jit(_where))"(#loc1458))
#loc1711 = loc("vmap()/not"(#loc1459))
#loc1712 = loc("vmap()/and"(#loc1460))
#loc1713 = loc("vmap()/not"(#loc1461))
#loc1714 = loc("vmap()/and"(#loc1462))
#loc1715 = loc("vmap()/lt"(#loc1463))
#loc1716 = loc("vmap()/and"(#loc1464))
#loc1717 = loc("vmap(jit(clip))"(#loc1465))
#loc1718 = loc("vmap()/lt"(#loc1466))
#loc1719 = loc("vmap()/add"(#loc1466))
#loc1720 = loc("vmap()/select_n"(#loc1466))
#loc1721 = loc("vmap()/broadcast_in_dim"(#loc1466))
#loc1722 = loc("vmap()/scatter"(#loc1466))
#loc1723 = loc("vmap(jit(_where))"(#loc1467))
#loc1724 = loc("vmap()/add"(#loc1468))
#loc1725 = loc("vmap(jit(_where))"(#loc1469))
#loc1726 = loc("vmap()/and"(#loc1470))
#loc1727 = loc(callsite(#loc580 at #loc1471))
#loc1728 = loc(callsite(#loc586 at #loc1471))
#loc1729 = loc(callsite(#loc590 at #loc1471))
#loc1730 = loc(callsite(#loc591 at #loc1471))
#loc1731 = loc(callsite(#loc593 at #loc1471))
#loc1732 = loc(callsite(#loc602 at #loc1471))
#loc1733 = loc(callsite(#loc603 at #loc1471))
#loc1734 = loc(callsite(#loc604 at #loc1471))
#loc1735 = loc(callsite(#loc605 at #loc1471))
#loc1736 = loc(callsite(#loc606 at #loc1471))
#loc1737 = loc(callsite(#loc607 at #loc1471))
#loc1738 = loc(callsite(#loc608 at #loc1471))
#loc1739 = loc(callsite(#loc609 at #loc1471))
#loc1740 = loc(callsite(#loc610 at #loc1471))
#loc1741 = loc(callsite(#loc612 at #loc1471))
#loc1742 = loc(callsite(#loc615 at #loc1472))
#loc1743 = loc(callsite(#loc617 at #loc1473))
#loc1744 = loc(callsite(#loc619 at #loc1473))
#loc1745 = loc(callsite(#loc620 at #loc1473))
#loc1746 = loc(callsite(#loc621 at #loc1473))
#loc1747 = loc(callsite(#loc622 at #loc1473))
#loc1748 = loc(callsite(#loc623 at #loc1473))
#loc1749 = loc("vmap()/broadcast_in_dim"(#loc1474))
#loc1750 = loc(callsite(#loc615 at #loc1475))
#loc1751 = loc(callsite(#loc615 at #loc1476))
#loc1752 = loc(callsite(#loc615 at #loc1477))
#loc1753 = loc(callsite(#loc628 at #loc1478))
#loc1754 = loc("vmap()/convert_element_type"(#loc1479))
#loc1755 = loc("vmap(jit(_where))"(#loc1480))
#loc1756 = loc("vmap(jit(_where))"(#loc1481))
#loc1757 = loc(callsite(#loc633 at #loc1482))
#loc1758 = loc(callsite(#loc636 at #loc1482))
#loc1759 = loc(callsite(#loc637 at #loc1482))
#loc1760 = loc(callsite(#loc638 at #loc1482))
#loc1761 = loc("vmap()/broadcast_in_dim"(#loc1483))
#loc1762 = loc("vmap()/broadcast_in_dim"(#loc1484))
#loc1763 = loc("vmap()/or"(#loc1485))
#loc1764 = loc("vmap()/broadcast_in_dim"(#loc1486))
#loc1765 = loc("vmap()/select_n"(#loc1486))
#loc1766 = loc("vmap()/broadcast_in_dim"(#loc1487))
#loc1767 = loc("vmap()/select_n"(#loc1487))
#loc1768 = loc("jit(train_step)/broadcast_in_dim"(#loc1497))
#loc1769 = loc(callsite(#loc452 at #loc1499))
#loc1770 = loc("jit(train_step)/Network/feature_extractor/broadcast_in_dim"(#loc1500))
#loc1771 = loc(callsite(#loc452 at #loc1501))
#loc1772 = loc("jit(train_step)/Network/feature_extractor/concatenate"(#loc1502))
#loc1773 = loc("jit(train_step)/Network/torso/reshape"(#loc1503))
#loc1774 = loc("jit(train_step)/Network/torso/broadcast_in_dim"(#loc1504))
#loc1775 = loc("jit(train_step)/Network/torso/broadcast_in_dim"(#loc1505))
#loc1776 = loc("jit(train_step)/Network/torso/scatter"(#loc1505))
#loc1777 = loc("jit(train_step)/Network/torso/reshape"(#loc1506))
#loc1778 = loc(callsite(#loc468 at #loc1507))
#loc1779 = loc(callsite(#loc477 at #loc1508))
#loc1780 = loc("jit(train_step)/Network/torso/reshape"(#loc1509))
#loc1781 = loc("jit(train_step)/Network/torso/slice"(#loc1510))
#loc1782 = loc("jit(train_step)/Network/torso/squeeze"(#loc1510))
#loc1783 = loc(callsite(#loc465 at #loc1511))
#loc1784 = loc(callsite(#loc470 at #loc1511))
#loc1785 = loc(callsite(#loc471 at #loc1511))
#loc1786 = loc("jit(train_step)/broadcast_in_dim"(#loc1515))
#loc1787 = loc("jit(train_step)/while"(#loc1515))
#loc1788 = loc("jit(train_step)/while/cond/lt"(#loc1516))
#loc1789 = loc("jit(train_step)/while/body/sub"(#loc1516))
#loc1790 = loc("jit(train_step)/while/body/jit(dynamic_index_in_dim)"(#loc1516))
#loc1791 = loc("jit(train_step)/while/body/closed_call"(#loc1516))
#loc1792 = loc("jit(train_step)/while/body/jit(dynamic_update_index_in_dim)"(#loc1516))
#loc1793 = loc("jit(train_step)/while/body/add"(#loc1516))
#loc1794 = loc(callsite(#loc465 at #loc1532))
#loc1795 = loc(callsite(#loc470 at #loc1532))
#loc1796 = loc(callsite(#loc471 at #loc1532))
#loc1797 = loc("Network/torso/block/blocks_0/jit(relu)"(#loc1533))
#loc1798 = loc(callsite(#loc473 at #loc1534))
#loc1799 = loc(callsite(#loc475 at #loc1508))
#loc1800 = loc(callsite(#loc479 at #loc1508))
#loc1801 = loc(callsite(#loc480 at #loc1508))
#loc1802 = loc(callsite(#loc481 at #loc1508))
#loc1803 = loc(callsite(#loc482 at #loc1535))
#loc1804 = loc("Network/torso/block/blocks_1/convert_element_type"(#loc1536))
#loc1805 = loc("Network/torso/block/blocks_1/mul"(#loc1536))
#loc1806 = loc("Network/torso/block/blocks_1/broadcast_in_dim"(#loc1537))
#loc1807 = loc("Network/torso/block/blocks_1/mul"(#loc1538))
#loc1808 = loc("Network/torso/block/blocks_1/add"(#loc1539))
#loc1809 = loc("Network/torso/block/blocks_1/convert_element_type"(#loc1540))
#loc1810 = loc("Network/torso/block/blocks_1/sub"(#loc1540))
#loc1811 = loc("Network/torso/block/blocks_1/convert_element_type"(#loc1541))
#loc1812 = loc("Network/torso/block/blocks_1/mul"(#loc1541))
#loc1813 = loc("Network/torso/block/blocks_1/slice"(#loc1542))
#loc1814 = loc(callsite(#loc491 at #loc1542))
#loc1815 = loc(callsite(#loc492 at #loc1542))
#loc1816 = loc(callsite(#loc493 at #loc1542))
#loc1817 = loc("Network/torso/block/blocks_1/concatenate"(#loc1542))
#loc1818 = loc("Network/torso/block/blocks_1/pad"(#loc1542))
#loc1819 = loc("Network/torso/block/blocks_1/add"(#loc1542))
#loc1820 = loc("Network/torso/block/blocks_1/broadcast_in_dim"(#loc1543))
#loc1821 = loc("Network/torso/block/blocks_1/mul"(#loc1544))
#loc1822 = loc("Network/torso/block/blocks_1/add"(#loc1545))
#loc1823 = loc("Network/torso/block/blocks_1/jit(_take)"(#loc1546))
#loc1824 = loc("jit(_gumbel)"(#loc1548))
#loc1825 = loc("mul"(#loc1549))
#loc1826 = loc("broadcast_in_dim"(#loc1550))
#loc1827 = loc("add"(#loc1550))
#loc1828 = loc("jit(_one_hot)"(#loc1552))
#loc1829 = loc("lt"(#loc1553))
#loc1830 = loc("gt"(#loc1554))
#loc1831 = loc("or"(#loc1555))
#loc1832 = loc(callsite(#loc541 at #loc1556))
#loc1833 = loc(callsite(#loc543 at #loc1556))
#loc1834 = loc(callsite(#loc544 at #loc1556))
#loc1835 = loc("reduce_sum"(#loc1557))
#loc1836 = loc("jit(_where)"(#loc1558))
#loc1837 = loc("vmap()/iota"(#loc1559))
#loc1838 = loc("vmap()/eq"(#loc1560))
#loc1839 = loc("vmap()/ne"(#loc1560))
#loc1840 = loc("vmap()/and"(#loc1560))
#loc1841 = loc("vmap(jit(_where))"(#loc1560))
#loc1842 = loc("vmap()/mul"(#loc1560))
#loc1843 = loc("vmap()/shift_right_logical"(#loc1560))
#loc1844 = loc("vmap()/broadcast_in_dim"(#loc1561))
#loc1845 = loc("vmap()/mul"(#loc1561))
#loc1846 = loc("vmap()/reduce_sum"(#loc1562))
#loc1847 = loc("vmap(jit(searchsorted))"(#loc1563))
#loc1848 = loc("vmap(jit(clip))"(#loc1564))
#loc1849 = loc("vmap()/lt"(#loc1565))
#loc1850 = loc("vmap()/add"(#loc1565))
#loc1851 = loc("vmap()/select_n"(#loc1565))
#loc1852 = loc("vmap()/broadcast_in_dim"(#loc1565))
#loc1853 = loc("vmap()/gather"(#loc1565))
#loc1854 = loc("vmap()/squeeze"(#loc1565))
#loc1855 = loc("vmap()/eq"(#loc1566))
#loc1856 = loc("vmap()/eq"(#loc1569))
#loc1857 = loc("vmap()/broadcast_in_dim"(#loc1570))
#loc1858 = loc("vmap()/not"(#loc1571))
#loc1859 = loc("vmap()/convert_element_type"(#loc1572))
#loc1860 = loc("vmap()/lt"(#loc1573))
#loc1861 = loc("vmap()/add"(#loc1573))
#loc1862 = loc("vmap()/select_n"(#loc1573))
#loc1863 = loc("vmap()/broadcast_in_dim"(#loc1573))
#loc1864 = loc("vmap()/scatter-add"(#loc1573))
#loc1865 = loc("vmap()/transpose"(#loc1574))
#loc1866 = loc(callsite(#loc1574 at #loc1574))
#loc1867 = loc("vmap(jit(_where))"(#loc1575))
#loc1868 = loc("vmap(jit(_where))"(#loc1576))
#loc1869 = loc("vmap(jit(_one_hot))"(#loc1586))
#loc1870 = loc("vmap()/reshape"(#loc1587))
#loc1871 = loc("vmap(jit(_where))"(#loc1588))
#loc1872 = loc("vmap()/broadcast_in_dim"(#loc1603))
#loc1873 = loc("vmap()/select_n"(#loc1603))
#loc1874 = loc("vmap(jit(_one_hot))"(#loc1613))
#loc1875 = loc("vmap()/reshape"(#loc1614))
#loc1876 = loc("vmap(jit(_where))"(#loc1615))
#loc1877 = loc("Network/torso/block/blocks_1/jit"(#loc1546))
#loc1878 = loc("jit:"(#loc1618))
#loc1879 = loc("jit"(#loc1548))
#loc1880 = loc("iota"(#loc1551))
#loc1881 = loc("reduce"(#loc1551))
#loc1882 = loc(callsite(#loc1551 at #loc1551))
#loc1883 = loc("jit"(#loc1552))
#loc1884 = loc("jit"(#loc1558))
#loc1885 = loc("vmap()/jit"(#loc1560))
#loc1886 = loc("vmap()/jit"(#loc1563))
#loc1887 = loc("while/body/jit"(#loc1574))
#loc1888 = loc("dynamic_slice"(#loc1574))
#loc1889 = loc("squeeze"(#loc1574))
#loc1890 = loc("while/body/closed_call"(#loc1574))
#loc1891 = loc("broadcast_in_dim"(#loc1574))
#loc1892 = loc("dynamic_update_slice"(#loc1574))
#loc1893 = loc("vmap()/jit"(#loc1575))
#loc1894 = loc("vmap()/jit"(#loc1576))
#loc1895 = loc("vmap()/jit"(#loc1586))
#loc1896 = loc("vmap()/jit"(#loc1588))
#loc1897 = loc("gt"(#loc1627))
#loc1898 = loc("ne"(#loc1627))
#loc1899 = loc("or"(#loc1627))
#loc1900 = loc("eq"(#loc1627))
#loc1901 = loc("lt"(#loc1627))
#loc1902 = loc("and"(#loc1627))
#loc1903 = loc("select_n"(#loc1627))
#loc1904 = loc("jit:"(#loc1628))
#loc1905 = loc("jit:"(#loc1629))
#loc1906 = loc("vmap()/jit"(#loc1613))
#loc1907 = loc("vmap()/jit"(#loc1615))
#loc1908 = loc(callsite(#loc466 at #loc1632))
#loc1909 = loc(callsite(#loc472 at #loc1632))
#loc1910 = loc(callsite(#loc474 at #loc1632))
#loc1911 = loc(callsite(#loc476 at #loc1632))
#loc1912 = loc(callsite(#loc483 at #loc1632))
#loc1913 = loc(callsite(#loc484 at #loc1632))
#loc1914 = loc(callsite(#loc485 at #loc1632))
#loc1915 = loc(callsite(#loc486 at #loc1632))
#loc1916 = loc(callsite(#loc487 at #loc1632))
#loc1917 = loc(callsite(#loc488 at #loc1632))
#loc1918 = loc(callsite(#loc489 at #loc1632))
#loc1919 = loc(callsite(#loc490 at #loc1632))
#loc1920 = loc(callsite(#loc494 at #loc1632))
#loc1921 = loc(callsite(#loc495 at #loc1632))
#loc1922 = loc(callsite(#loc496 at #loc1632))
#loc1923 = loc(callsite(#loc497 at #loc1632))
#loc1924 = loc("jvp(jit(log_softmax))"(#loc1637))
#loc1925 = loc("jvp()/eq"(#loc1638))
#loc1926 = loc("jvp()/mul"(#loc1639))
#loc1927 = loc("jvp()/jit(_where)"(#loc1640))
#loc1928 = loc("transpose(jvp(jvp()))/mul"(#loc1648))
#loc1929 = loc("transpose(jvp(jvp()))/add_any"(#loc1648))
#loc1930 = loc("transpose(jvp(jit(log_softmax)))"(#loc1637))
#loc1931 = loc("square"(#loc1660))
#loc1932 = loc("broadcast_in_dim"(#loc1661))
#loc1933 = loc("square"(#loc1662))
#loc1934 = loc("add"(#loc1663))
#loc1935 = loc("reduce_sum"(#loc1664))
#loc1936 = loc("add"(#loc1665))
#loc1937 = loc(callsite(#loc747 at #loc1670))
#loc1938 = loc(callsite(#loc750 at #loc1670))
#loc1939 = loc(callsite(#loc751 at #loc1670))
#loc1940 = loc(callsite(#loc753 at #loc1671))
#loc1941 = loc(callsite(#loc756 at #loc1671))
#loc1942 = loc(callsite(#loc757 at #loc1671))
#loc1943 = loc(callsite(#loc758 at #loc1671))
#loc1944 = loc("lt"(#loc1672))
#loc1945 = loc("add"(#loc1673))
#loc1946 = loc("jit(_where)"(#loc1674))
#loc1947 = loc("add"(#loc1681))
#loc1948 = loc("sqrt"(#loc1682))
#loc1949 = loc("add"(#loc1683))
#loc1950 = loc("div"(#loc1684))
#loc1951 = loc("mul"(#loc1685))
#loc1952 = loc("jit:"(#loc1686))
#loc1953 = loc("jit:"(#loc1687))
#loc1954 = loc("jvp()/jit"(#loc1637))
#loc1955 = loc("jit:"(#loc1691))
#loc1956 = loc("jit:"(#loc1692))
#loc1957 = loc("transpose(jvp())/jit"(#loc1637))
#loc1958 = loc("jit:"(#loc1695))
#loc1959 = loc("jit:"(#loc1696))
#loc1960 = loc("jit"(#loc1674))
#loc1961 = loc(callsite(#loc466 at #loc1699))
#loc1962 = loc(callsite(#loc472 at #loc1699))
#loc1963 = loc(callsite(#loc474 at #loc1699))
#loc1964 = loc(callsite(#loc476 at #loc1699))
#loc1965 = loc(callsite(#loc483 at #loc1699))
#loc1966 = loc(callsite(#loc484 at #loc1699))
#loc1967 = loc(callsite(#loc485 at #loc1699))
#loc1968 = loc(callsite(#loc486 at #loc1699))
#loc1969 = loc(callsite(#loc487 at #loc1699))
#loc1970 = loc(callsite(#loc488 at #loc1699))
#loc1971 = loc(callsite(#loc489 at #loc1699))
#loc1972 = loc(callsite(#loc490 at #loc1699))
#loc1973 = loc(callsite(#loc494 at #loc1699))
#loc1974 = loc(callsite(#loc495 at #loc1699))
#loc1975 = loc(callsite(#loc496 at #loc1699))
#loc1976 = loc(callsite(#loc497 at #loc1699))
#loc1977 = loc("jit(log_softmax)"(#loc1701))
#loc1978 = loc(callsite(#loc528 at #loc1702))
#loc1979 = loc(callsite(#loc533 at #loc1702))
#loc1980 = loc(callsite(#loc534 at #loc1702))
#loc1981 = loc(callsite(#loc535 at #loc1702))
#loc1982 = loc(callsite(#loc536 at #loc1703))
#loc1983 = loc(callsite(#loc538 at #loc1703))
#loc1984 = loc(callsite(#loc539 at #loc1703))
#loc1985 = loc(callsite(#loc540 at #loc1703))
#loc1986 = loc(callsite(#loc542 at #loc1703))
#loc1987 = loc(callsite(#loc545 at #loc1703))
#loc1988 = loc(callsite(#loc546 at #loc1703))
#loc1989 = loc(callsite(#loc579 at #loc1727))
#loc1990 = loc(callsite(#loc582 at #loc1727))
#loc1991 = loc(callsite(#loc583 at #loc1727))
#loc1992 = loc(callsite(#loc584 at #loc1727))
#loc1993 = loc(callsite(#loc585 at #loc1728))
#loc1994 = loc(callsite(#loc587 at #loc1728))
#loc1995 = loc(callsite(#loc588 at #loc1728))
#loc1996 = loc(callsite(#loc589 at #loc1728))
#loc1997 = loc("vmap()/eq"(#loc1729))
#loc1998 = loc("vmap()/reduce_and"(#loc1730))
#loc1999 = loc(callsite(#loc592 at #loc1731))
#loc2000 = loc(callsite(#loc594 at #loc1731))
#loc2001 = loc(callsite(#loc595 at #loc1731))
#loc2002 = loc(callsite(#loc596 at #loc1731))
#loc2003 = loc(callsite(#loc597 at #loc1731))
#loc2004 = loc(callsite(#loc599 at #loc1731))
#loc2005 = loc(callsite(#loc600 at #loc1731))
#loc2006 = loc(callsite(#loc601 at #loc1731))
#loc2007 = loc("vmap()/convert_element_type"(#loc1732))
#loc2008 = loc("vmap()/add"(#loc1733))
#loc2009 = loc("vmap()/convert_element_type"(#loc1734))
#loc2010 = loc("vmap()/ge"(#loc1735))
#loc2011 = loc("vmap()/or"(#loc1736))
#loc2012 = loc("vmap()/convert_element_type"(#loc1737))
#loc2013 = loc("vmap()/convert_element_type"(#loc1738))
#loc2014 = loc("vmap()/not"(#loc1739))
#loc2015 = loc("vmap()/convert_element_type"(#loc1740))
#loc2016 = loc(callsite(#loc611 at #loc1741))
#loc2017 = loc(callsite(#loc613 at #loc1741))
#loc2018 = loc(callsite(#loc614 at #loc1741))
#loc2019 = loc("vmap()/broadcast_in_dim"(#loc1742))
#loc2020 = loc("vmap()/select_n"(#loc1742))
#loc2021 = loc("vmap()/reshape"(#loc1743))
#loc2022 = loc("vmap()/reduce_sum"(#loc1744))
#loc2023 = loc("vmap()/gt"(#loc1745))
#loc2024 = loc("vmap()"(#loc1746))
#loc2025 = loc("vmap()/add"(#loc1747))
#loc2026 = loc("vmap(jit(_where))"(#loc1748))
#loc2027 = loc("vmap()/broadcast_in_dim"(#loc1750))
#loc2028 = loc("vmap()/select_n"(#loc1750))
#loc2029 = loc("vmap()/broadcast_in_dim"(#loc1751))
#loc2030 = loc("vmap()/select_n"(#loc1751))
#loc2031 = loc("vmap()/broadcast_in_dim"(#loc1752))
#loc2032 = loc("vmap()/select_n"(#loc1752))
#loc2033 = loc(callsite(#loc615 at #loc1753))
#loc2034 = loc("vmap(jit(_randint))"(#loc1757))
#loc2035 = loc("vmap()/lt"(#loc1758))
#loc2036 = loc("vmap()/add"(#loc1758))
#loc2037 = loc("vmap()/select_n"(#loc1758))
#loc2038 = loc("vmap()/broadcast_in_dim"(#loc1758))
#loc2039 = loc("vmap()/concatenate"(#loc1758))
#loc2040 = loc("vmap()/gather"(#loc1758))
#loc2041 = loc("vmap()/squeeze"(#loc1758))
#loc2042 = loc("vmap()/broadcast_in_dim"(#loc1759))
#loc2043 = loc(callsite(#loc611 at #loc1760))
#loc2044 = loc(callsite(#loc613 at #loc1760))
#loc2045 = loc(callsite(#loc614 at #loc1760))
#loc2046 = loc("jit(train_step)/Network/feature_extractor/token_embedding/jit(_take)"(#loc1769))
#loc2047 = loc("jit(train_step)/Network/feature_extractor/token_embedding/jit(_take)"(#loc1771))
#loc2048 = loc(callsite(#loc467 at #loc1778))
#loc2049 = loc("jit(train_step)/Network/head/critic/dot_general"(#loc1783))
#loc2050 = loc("jit(train_step)/Network/head/critic/reshape"(#loc1784))
#loc2051 = loc("jit(train_step)/Network/head/critic/add"(#loc1785))
#loc2052 = loc("Network/torso/block/blocks_0/Dense_0/dot_general"(#loc1794))
#loc2053 = loc("Network/torso/block/blocks_0/Dense_0/reshape"(#loc1795))
#loc2054 = loc("Network/torso/block/blocks_0/Dense_0/add"(#loc1796))
#loc2055 = loc("Network/torso/block/blocks_1/broadcast_in_dim"(#loc1798))
#loc2056 = loc(callsite(#loc465 at #loc1799))
#loc2057 = loc(callsite(#loc1779 at #loc1779))
#loc2058 = loc("Network/torso/block/blocks_1/cell/sub"(#loc1800))
#loc2059 = loc(callsite(#loc465 at #loc1801))
#loc2060 = loc("Network/torso/block/blocks_1/cell/mul"(#loc1802))
#loc2061 = loc("Network/torso/block/blocks_1/reshape"(#loc1803))
#loc2062 = loc("Network/torso/block/blocks_1/mul"(#loc1814))
#loc2063 = loc("Network/torso/block/blocks_1/mul"(#loc1815))
#loc2064 = loc("Network/torso/block/blocks_1/add"(#loc1816))
#loc2065 = loc("eq"(#loc1832))
#loc2066 = loc("broadcast_in_dim"(#loc1833))
#loc2067 = loc("mul"(#loc1833))
#loc2068 = loc("jit(_where)"(#loc1834))
#loc2069 = loc("vmap()/broadcast_in_dim"(#loc1866))
#loc2070 = loc("vmap()/while"(#loc1866))
#loc2071 = loc(callsite(#loc1866 at #loc1574))
#loc2072 = loc("jit:"(#loc1877))
#loc2073 = loc("jit:"(#loc1879))
#loc2074 = loc("gt"(#loc1882))
#loc2075 = loc("ne"(#loc1882))
#loc2076 = loc("or"(#loc1882))
#loc2077 = loc("eq"(#loc1882))
#loc2078 = loc("lt"(#loc1882))
#loc2079 = loc("and"(#loc1882))
#loc2080 = loc("select_n"(#loc1882))
#loc2081 = loc("jit:"(#loc1883))
#loc2082 = loc("jit:"(#loc1884))
#loc2083 = loc("jit:"(#loc1885))
#loc2084 = loc("jit:"(#loc1886))
#loc2085 = loc("jit:"(#loc1887))
#loc2086 = loc("closed_call:"(#loc1890))
#loc2087 = loc("jit:"(#loc1893))
#loc2088 = loc("jit:"(#loc1894))
#loc2089 = loc("jit:"(#loc1895))
#loc2090 = loc("jit:"(#loc1896))
#loc2091 = loc("jit:"(#loc1906))
#loc2092 = loc("jit:"(#loc1907))
#loc2093 = loc(callsite(#loc465 at #loc1908))
#loc2094 = loc(callsite(#loc470 at #loc1908))
#loc2095 = loc(callsite(#loc471 at #loc1908))
#loc2096 = loc("jvp(Network)/torso/block/blocks_0/jit(relu)"(#loc1909))
#loc2097 = loc("jvp(Network)/torso/block/blocks_0/gt"(#loc1909))
#loc2098 = loc(callsite(#loc473 at #loc1910))
#loc2099 = loc(callsite(#loc475 at #loc1911))
#loc2100 = loc(callsite(#loc477 at #loc1911))
#loc2101 = loc(callsite(#loc479 at #loc1911))
#loc2102 = loc(callsite(#loc480 at #loc1911))
#loc2103 = loc(callsite(#loc481 at #loc1911))
#loc2104 = loc(callsite(#loc482 at #loc1912))
#loc2105 = loc("jvp(Network)/torso/block/blocks_1/convert_element_type"(#loc1913))
#loc2106 = loc("jvp(Network)/torso/block/blocks_1/mul"(#loc1913))
#loc2107 = loc("jvp(Network)/torso/block/blocks_1/broadcast_in_dim"(#loc1914))
#loc2108 = loc("jvp(Network)/torso/block/blocks_1/mul"(#loc1915))
#loc2109 = loc("jvp(Network)/torso/block/blocks_1/add"(#loc1916))
#loc2110 = loc("jvp(Network)/torso/block/blocks_1/convert_element_type"(#loc1917))
#loc2111 = loc("jvp(Network)/torso/block/blocks_1/sub"(#loc1917))
#loc2112 = loc("jvp(Network)/torso/block/blocks_1/convert_element_type"(#loc1918))
#loc2113 = loc("jvp(Network)/torso/block/blocks_1/mul"(#loc1918))
#loc2114 = loc("jvp(Network)/torso/block/blocks_1/slice"(#loc1919))
#loc2115 = loc(callsite(#loc491 at #loc1919))
#loc2116 = loc(callsite(#loc492 at #loc1919))
#loc2117 = loc(callsite(#loc493 at #loc1919))
#loc2118 = loc("jvp(Network)/torso/block/blocks_1/concatenate"(#loc1919))
#loc2119 = loc("jvp(Network)/torso/block/blocks_1/pad"(#loc1919))
#loc2120 = loc("jvp(Network)/torso/block/blocks_1/add"(#loc1919))
#loc2121 = loc("jvp(Network)/torso/block/blocks_1/broadcast_in_dim"(#loc1920))
#loc2122 = loc("jvp(Network)/torso/block/blocks_1/mul"(#loc1921))
#loc2123 = loc("jvp(Network)/torso/block/blocks_1/add"(#loc1922))
#loc2124 = loc("jvp(Network)/torso/block/blocks_1/jit(_take)"(#loc1923))
#loc2125 = loc("transpose(jvp(Network))/torso/block/blocks_1/mul"(#loc1921))
#loc2126 = loc("transpose(jvp(Network))/torso/block/blocks_1/pad"(#loc1919))
#loc2127 = loc("transpose(jvp(Network))/torso/block/blocks_1/slice"(#loc1919))
#loc2128 = loc("transpose(jvp(Network))/torso/block/blocks_1/split"(#loc1919))
#loc2129 = loc("transpose(jvp(Network))/torso/block/blocks_1/add_any"(#loc1919))
#loc2130 = loc("transpose(jvp(Network))/torso/block/blocks_1/mul"(#loc1918))
#loc2131 = loc("transpose(jvp(Network))/torso/block/blocks_1/mul"(#loc1915))
#loc2132 = loc("transpose(jvp(Network))/torso/block/blocks_1/mul"(#loc1913))
#loc2133 = loc("transpose(jvp(Network))/torso/block/blocks_1/add_any"(#loc1913))
#loc2134 = loc("transpose(jvp(Network))/torso/block/blocks_0/broadcast_in_dim"(#loc1909))
#loc2135 = loc("transpose(jvp(Network))/torso/block/blocks_0/select_n"(#loc1909))
#loc2136 = loc("mul"(#loc1937))
#loc2137 = loc("mul"(#loc1938))
#loc2138 = loc("add"(#loc1939))
#loc2139 = loc(callsite(#loc752 at #loc1940))
#loc2140 = loc("mul"(#loc1941))
#loc2141 = loc("mul"(#loc1942))
#loc2142 = loc("add"(#loc1943))
#loc2143 = loc("jvp(Network)/torso/block/blocks_1/jit"(#loc1923))
#loc2144 = loc("jit:"(#loc1954))
#loc2145 = loc("jit:"(#loc1957))
#loc2146 = loc("jit:"(#loc1960))
#loc2147 = loc(callsite(#loc465 at #loc1961))
#loc2148 = loc(callsite(#loc470 at #loc1961))
#loc2149 = loc(callsite(#loc471 at #loc1961))
#loc2150 = loc("Network/torso/block/blocks_0/jit(relu)"(#loc1962))
#loc2151 = loc(callsite(#loc473 at #loc1963))
#loc2152 = loc(callsite(#loc475 at #loc1964))
#loc2153 = loc(callsite(#loc477 at #loc1964))
#loc2154 = loc(callsite(#loc479 at #loc1964))
#loc2155 = loc(callsite(#loc480 at #loc1964))
#loc2156 = loc(callsite(#loc481 at #loc1964))
#loc2157 = loc(callsite(#loc482 at #loc1965))
#loc2158 = loc("Network/torso/block/blocks_1/convert_element_type"(#loc1966))
#loc2159 = loc("Network/torso/block/blocks_1/mul"(#loc1966))
#loc2160 = loc("Network/torso/block/blocks_1/broadcast_in_dim"(#loc1967))
#loc2161 = loc("Network/torso/block/blocks_1/mul"(#loc1968))
#loc2162 = loc("Network/torso/block/blocks_1/add"(#loc1969))
#loc2163 = loc("Network/torso/block/blocks_1/convert_element_type"(#loc1970))
#loc2164 = loc("Network/torso/block/blocks_1/sub"(#loc1970))
#loc2165 = loc("Network/torso/block/blocks_1/convert_element_type"(#loc1971))
#loc2166 = loc("Network/torso/block/blocks_1/mul"(#loc1971))
#loc2167 = loc("Network/torso/block/blocks_1/slice"(#loc1972))
#loc2168 = loc(callsite(#loc491 at #loc1972))
#loc2169 = loc(callsite(#loc492 at #loc1972))
#loc2170 = loc(callsite(#loc493 at #loc1972))
#loc2171 = loc("Network/torso/block/blocks_1/concatenate"(#loc1972))
#loc2172 = loc("Network/torso/block/blocks_1/pad"(#loc1972))
#loc2173 = loc("Network/torso/block/blocks_1/add"(#loc1972))
#loc2174 = loc("Network/torso/block/blocks_1/broadcast_in_dim"(#loc1973))
#loc2175 = loc("Network/torso/block/blocks_1/mul"(#loc1974))
#loc2176 = loc("Network/torso/block/blocks_1/add"(#loc1975))
#loc2177 = loc("Network/torso/block/blocks_1/jit(_take)"(#loc1976))
#loc2178 = loc("jit(_gumbel)"(#loc1978))
#loc2179 = loc("mul"(#loc1979))
#loc2180 = loc("broadcast_in_dim"(#loc1980))
#loc2181 = loc("add"(#loc1980))
#loc2182 = loc("jit(_one_hot)"(#loc1982))
#loc2183 = loc("lt"(#loc1983))
#loc2184 = loc("gt"(#loc1984))
#loc2185 = loc("or"(#loc1985))
#loc2186 = loc(callsite(#loc541 at #loc1986))
#loc2187 = loc(callsite(#loc543 at #loc1986))
#loc2188 = loc(callsite(#loc544 at #loc1986))
#loc2189 = loc("reduce_sum"(#loc1987))
#loc2190 = loc("jit(_where)"(#loc1988))
#loc2191 = loc("vmap()/iota"(#loc1989))
#loc2192 = loc("vmap()/eq"(#loc1990))
#loc2193 = loc("vmap()/ne"(#loc1990))
#loc2194 = loc("vmap()/and"(#loc1990))
#loc2195 = loc("vmap(jit(_where))"(#loc1990))
#loc2196 = loc("vmap()/mul"(#loc1990))
#loc2197 = loc("vmap()/shift_right_logical"(#loc1990))
#loc2198 = loc("vmap()/broadcast_in_dim"(#loc1991))
#loc2199 = loc("vmap()/mul"(#loc1991))
#loc2200 = loc("vmap()/reduce_sum"(#loc1992))
#loc2201 = loc("vmap(jit(searchsorted))"(#loc1993))
#loc2202 = loc("vmap(jit(clip))"(#loc1994))
#loc2203 = loc("vmap()/lt"(#loc1995))
#loc2204 = loc("vmap()/add"(#loc1995))
#loc2205 = loc("vmap()/select_n"(#loc1995))
#loc2206 = loc("vmap()/broadcast_in_dim"(#loc1995))
#loc2207 = loc("vmap()/gather"(#loc1995))
#loc2208 = loc("vmap()/squeeze"(#loc1995))
#loc2209 = loc("vmap()/eq"(#loc1996))
#loc2210 = loc("vmap()/eq"(#loc1999))
#loc2211 = loc("vmap()/broadcast_in_dim"(#loc2000))
#loc2212 = loc("vmap()/not"(#loc2001))
#loc2213 = loc("vmap()/convert_element_type"(#loc2002))
#loc2214 = loc("vmap()/lt"(#loc2003))
#loc2215 = loc("vmap()/add"(#loc2003))
#loc2216 = loc("vmap()/select_n"(#loc2003))
#loc2217 = loc("vmap()/broadcast_in_dim"(#loc2003))
#loc2218 = loc("vmap()/scatter-add"(#loc2003))
#loc2219 = loc("vmap()/transpose"(#loc2004))
#loc2220 = loc(callsite(#loc2004 at #loc2004))
#loc2221 = loc("vmap(jit(_where))"(#loc2005))
#loc2222 = loc("vmap(jit(_where))"(#loc2006))
#loc2223 = loc("vmap(jit(_one_hot))"(#loc2016))
#loc2224 = loc("vmap()/reshape"(#loc2017))
#loc2225 = loc("vmap(jit(_where))"(#loc2018))
#loc2226 = loc("vmap()/broadcast_in_dim"(#loc2033))
#loc2227 = loc("vmap()/select_n"(#loc2033))
#loc2228 = loc("vmap(jit(_one_hot))"(#loc2043))
#loc2229 = loc("vmap()/reshape"(#loc2044))
#loc2230 = loc("vmap(jit(_where))"(#loc2045))
#loc2231 = loc("while/body/closed_call"(#loc2004))
#loc2232 = loc(callsite(#loc466 at #loc2048))
#loc2233 = loc(callsite(#loc472 at #loc2048))
#loc2234 = loc(callsite(#loc474 at #loc2048))
#loc2235 = loc(callsite(#loc476 at #loc2048))
#loc2236 = loc(callsite(#loc483 at #loc2048))
#loc2237 = loc(callsite(#loc484 at #loc2048))
#loc2238 = loc(callsite(#loc485 at #loc2048))
#loc2239 = loc(callsite(#loc486 at #loc2048))
#loc2240 = loc(callsite(#loc487 at #loc2048))
#loc2241 = loc(callsite(#loc488 at #loc2048))
#loc2242 = loc(callsite(#loc489 at #loc2048))
#loc2243 = loc(callsite(#loc490 at #loc2048))
#loc2244 = loc(callsite(#loc494 at #loc2048))
#loc2245 = loc(callsite(#loc495 at #loc2048))
#loc2246 = loc(callsite(#loc496 at #loc2048))
#loc2247 = loc(callsite(#loc497 at #loc2048))
#loc2248 = loc("Network/torso/block/blocks_1/cell/update_gate/dot_general"(#loc2056))
#loc2249 = loc("Network/torso/block/blocks_1/cell/neg"(#loc2057))
#loc2250 = loc("Network/torso/block/blocks_1/cell/exp"(#loc2057))
#loc2251 = loc("Network/torso/block/blocks_1/cell/add"(#loc2057))
#loc2252 = loc("Network/torso/block/blocks_1/cell/div"(#loc2057))
#loc2253 = loc("Network/torso/block/blocks_1/cell/candidate/dot_general"(#loc2059))
#loc2254 = loc("vmap()/while/cond/lt"(#loc2071))
#loc2255 = loc("vmap()/while/body/jit(dynamic_index_in_dim)"(#loc2071))
#loc2256 = loc("vmap()/while/body/closed_call"(#loc2071))
#loc2257 = loc("vmap()/while/body/jit(dynamic_update_index_in_dim)"(#loc2071))
#loc2258 = loc("vmap()/while/body/add"(#loc2071))
#loc2259 = loc("jvp(Network)/torso/block/blocks_0/Dense_0/dot_general"(#loc2093))
#loc2260 = loc("jvp(Network)/torso/block/blocks_0/Dense_0/reshape"(#loc2094))
#loc2261 = loc("jvp(Network)/torso/block/blocks_0/Dense_0/add"(#loc2095))
#loc2262 = loc("jvp(Network)/torso/block/blocks_1/broadcast_in_dim"(#loc2098))
#loc2263 = loc(callsite(#loc465 at #loc2099))
#loc2264 = loc(callsite(#loc2100 at #loc2100))
#loc2265 = loc("jvp(Network)/torso/block/blocks_1/cell/sub"(#loc2100))
#loc2266 = loc("jvp(Network)/torso/block/blocks_1/cell/mul"(#loc2100))
#loc2267 = loc("jvp(Network)/torso/block/blocks_1/cell/sub"(#loc2101))
#loc2268 = loc(callsite(#loc465 at #loc2102))
#loc2269 = loc("jvp(Network)/torso/block/blocks_1/cell/mul"(#loc2103))
#loc2270 = loc("jvp(Network)/torso/block/blocks_1/reshape"(#loc2104))
#loc2271 = loc("jvp(Network)/torso/block/blocks_1/mul"(#loc2115))
#loc2272 = loc("jvp(Network)/torso/block/blocks_1/mul"(#loc2116))
#loc2273 = loc("jvp(Network)/torso/block/blocks_1/add"(#loc2117))
#loc2274 = loc("transpose(jvp(Network))/torso/block/blocks_1/mul"(#loc2116))
#loc2275 = loc("transpose(jvp(Network))/torso/block/blocks_1/mul"(#loc2115))
#loc2276 = loc("transpose(jvp(Network))/torso/block/blocks_1/add_any"(#loc2115))
#loc2277 = loc("transpose(jvp(Network))/torso/block/blocks_1/add_any"(#loc2116))
#loc2278 = loc("transpose(jvp(Network))/torso/block/blocks_1/cell/mul"(#loc2103))
#loc2279 = loc("transpose(jvp(Network))/torso/block/blocks_1/cell/neg"(#loc2101))
#loc2280 = loc("transpose(jvp(Network))/torso/block/blocks_1/cell/add_any"(#loc2101))
#loc2281 = loc("transpose(jvp(Network))/torso/block/blocks_1/cell/mul"(#loc2100))
#loc2282 = loc("transpose(jvp(Network))/torso/block/blocks_0/Dense_0/reduce_sum"(#loc2095))
#loc2283 = loc("transpose(jvp(Network))/torso/block/blocks_0/Dense_0/reshape"(#loc2095))
#loc2284 = loc("transpose(jvp(Network))/torso/block/blocks_0/Dense_0/reshape"(#loc2094))
#loc2285 = loc("transpose(jvp(Network))/torso/block/blocks_0/Dense_0/dot_general"(#loc2093))
#loc2286 = loc("transpose(jvp(Network))/torso/block/blocks_0/Dense_0/transpose"(#loc2093))
#loc2287 = loc("integer_pow"(#loc2139))
#loc2288 = loc("jit:"(#loc2143))
#loc2289 = loc("Network/torso/block/blocks_0/Dense_0/dot_general"(#loc2147))
#loc2290 = loc("Network/torso/block/blocks_0/Dense_0/reshape"(#loc2148))
#loc2291 = loc("Network/torso/block/blocks_0/Dense_0/add"(#loc2149))
#loc2292 = loc("Network/torso/block/blocks_1/broadcast_in_dim"(#loc2151))
#loc2293 = loc(callsite(#loc465 at #loc2152))
#loc2294 = loc(callsite(#loc1779 at #loc2153))
#loc2295 = loc("Network/torso/block/blocks_1/cell/sub"(#loc2154))
#loc2296 = loc(callsite(#loc465 at #loc2155))
#loc2297 = loc("Network/torso/block/blocks_1/cell/mul"(#loc2156))
#loc2298 = loc("Network/torso/block/blocks_1/reshape"(#loc2157))
#loc2299 = loc("Network/torso/block/blocks_1/mul"(#loc2168))
#loc2300 = loc("Network/torso/block/blocks_1/mul"(#loc2169))
#loc2301 = loc("Network/torso/block/blocks_1/add"(#loc2170))
#loc2302 = loc("eq"(#loc2186))
#loc2303 = loc("broadcast_in_dim"(#loc2187))
#loc2304 = loc("mul"(#loc2187))
#loc2305 = loc("jit(_where)"(#loc2188))
#loc2306 = loc("vmap()/broadcast_in_dim"(#loc2220))
#loc2307 = loc("vmap()/while"(#loc2220))
#loc2308 = loc(callsite(#loc2220 at #loc2004))
#loc2309 = loc("closed_call:"(#loc2231))
#loc2310 = loc(callsite(#loc465 at #loc2232))
#loc2311 = loc(callsite(#loc470 at #loc2232))
#loc2312 = loc(callsite(#loc471 at #loc2232))
#loc2313 = loc("jit(train_step)/Network/torso/block/blocks_0/jit(relu)"(#loc2233))
#loc2314 = loc(callsite(#loc473 at #loc2234))
#loc2315 = loc(callsite(#loc475 at #loc2235))
#loc2316 = loc(callsite(#loc477 at #loc2235))
#loc2317 = loc(callsite(#loc479 at #loc2235))
#loc2318 = loc(callsite(#loc480 at #loc2235))
#loc2319 = loc(callsite(#loc481 at #loc2235))
#loc2320 = loc(callsite(#loc482 at #loc2236))
#loc2321 = loc("jit(train_step)/Network/torso/block/blocks_1/convert_element_type"(#loc2237))
#loc2322 = loc("jit(train_step)/Network/torso/block/blocks_1/mul"(#loc2237))
#loc2323 = loc("jit(train_step)/Network/torso/block/blocks_1/broadcast_in_dim"(#loc2238))
#loc2324 = loc("jit(train_step)/Network/torso/block/blocks_1/mul"(#loc2239))
#loc2325 = loc("jit(train_step)/Network/torso/block/blocks_1/add"(#loc2240))
#loc2326 = loc("jit(train_step)/Network/torso/block/blocks_1/convert_element_type"(#loc2241))
#loc2327 = loc("jit(train_step)/Network/torso/block/blocks_1/sub"(#loc2241))
#loc2328 = loc("jit(train_step)/Network/torso/block/blocks_1/convert_element_type"(#loc2242))
#loc2329 = loc("jit(train_step)/Network/torso/block/blocks_1/mul"(#loc2242))
#loc2330 = loc("jit(train_step)/Network/torso/block/blocks_1/slice"(#loc2243))
#loc2331 = loc(callsite(#loc491 at #loc2243))
#loc2332 = loc(callsite(#loc492 at #loc2243))
#loc2333 = loc(callsite(#loc493 at #loc2243))
#loc2334 = loc("jit(train_step)/Network/torso/block/blocks_1/concatenate"(#loc2243))
#loc2335 = loc("jit(train_step)/Network/torso/block/blocks_1/pad"(#loc2243))
#loc2336 = loc("jit(train_step)/Network/torso/block/blocks_1/add"(#loc2243))
#loc2337 = loc("jit(train_step)/Network/torso/block/blocks_1/broadcast_in_dim"(#loc2244))
#loc2338 = loc("jit(train_step)/Network/torso/block/blocks_1/mul"(#loc2245))
#loc2339 = loc("jit(train_step)/Network/torso/block/blocks_1/add"(#loc2246))
#loc2340 = loc("jit(train_step)/Network/torso/block/blocks_1/jit(_take)"(#loc2247))
#loc2341 = loc("jvp(Network)/torso/block/blocks_1/cell/update_gate/dot_general"(#loc2263))
#loc2342 = loc("jvp(Network)/torso/block/blocks_1/cell/neg"(#loc2264))
#loc2343 = loc("jvp(Network)/torso/block/blocks_1/cell/exp"(#loc2264))
#loc2344 = loc("jvp(Network)/torso/block/blocks_1/cell/add"(#loc2264))
#loc2345 = loc("jvp(Network)/torso/block/blocks_1/cell/div"(#loc2264))
#loc2346 = loc("jvp(Network)/torso/block/blocks_1/cell/candidate/dot_general"(#loc2268))
#loc2347 = loc("transpose(jvp(Network))/torso/block/blocks_1/cell/candidate/dot_general"(#loc2268))
#loc2348 = loc("transpose(jvp(Network))/torso/block/blocks_1/cell/candidate/transpose"(#loc2268))
#loc2349 = loc("transpose(jvp(Network))/torso/block/blocks_1/cell/update_gate/dot_general"(#loc2263))
#loc2350 = loc("transpose(jvp(Network))/torso/block/blocks_1/cell/update_gate/transpose"(#loc2263))
#loc2351 = loc("transpose(jvp(Network))/torso/block/blocks_1/cell/update_gate/add_any"(#loc2263))
#loc2352 = loc("Network/torso/block/blocks_1/cell/update_gate/dot_general"(#loc2293))
#loc2353 = loc("Network/torso/block/blocks_1/cell/neg"(#loc2294))
#loc2354 = loc("Network/torso/block/blocks_1/cell/exp"(#loc2294))
#loc2355 = loc("Network/torso/block/blocks_1/cell/add"(#loc2294))
#loc2356 = loc("Network/torso/block/blocks_1/cell/div"(#loc2294))
#loc2357 = loc("Network/torso/block/blocks_1/cell/candidate/dot_general"(#loc2296))
#loc2358 = loc("vmap()/while/cond/lt"(#loc2308))
#loc2359 = loc("vmap()/while/body/jit(dynamic_index_in_dim)"(#loc2308))
#loc2360 = loc("vmap()/while/body/closed_call"(#loc2308))
#loc2361 = loc("vmap()/while/body/jit(dynamic_update_index_in_dim)"(#loc2308))
#loc2362 = loc("vmap()/while/body/add"(#loc2308))
#loc2363 = loc("jit(train_step)/Network/torso/block/blocks_0/Dense_0/dot_general"(#loc2310))
#loc2364 = loc("jit(train_step)/Network/torso/block/blocks_0/Dense_0/reshape"(#loc2311))
#loc2365 = loc("jit(train_step)/Network/torso/block/blocks_0/Dense_0/add"(#loc2312))
#loc2366 = loc("jit(train_step)/Network/torso/block/blocks_1/broadcast_in_dim"(#loc2314))
#loc2367 = loc(callsite(#loc465 at #loc2315))
#loc2368 = loc(callsite(#loc1779 at #loc2316))
#loc2369 = loc("jit(train_step)/Network/torso/block/blocks_1/cell/sub"(#loc2317))
#loc2370 = loc(callsite(#loc465 at #loc2318))
#loc2371 = loc("jit(train_step)/Network/torso/block/blocks_1/cell/mul"(#loc2319))
#loc2372 = loc("jit(train_step)/Network/torso/block/blocks_1/reshape"(#loc2320))
#loc2373 = loc("jit(train_step)/Network/torso/block/blocks_1/mul"(#loc2331))
#loc2374 = loc("jit(train_step)/Network/torso/block/blocks_1/mul"(#loc2332))
#loc2375 = loc("jit(train_step)/Network/torso/block/blocks_1/add"(#loc2333))
#loc2376 = loc("jit(train_step)/Network/torso/block/blocks_1/cell/update_gate/dot_general"(#loc2367))
#loc2377 = loc("jit(train_step)/Network/torso/block/blocks_1/cell/neg"(#loc2368))
#loc2378 = loc("jit(train_step)/Network/torso/block/blocks_1/cell/exp"(#loc2368))
#loc2379 = loc("jit(train_step)/Network/torso/block/blocks_1/cell/add"(#loc2368))
#loc2380 = loc("jit(train_step)/Network/torso/block/blocks_1/cell/div"(#loc2368))
#loc2381 = loc("jit(train_step)/Network/torso/block/blocks_1/cell/candidate/dot_general"(#loc2370))
