#loc = loc(unknown)
#loc1 = loc("key")
#loc4 = loc("/Users/noahfarr/reinforcement-learning/src/algorithms/algorithms/recurrent_ppo.py":298:50 to :74)
#loc33 = loc("/Users/noahfarr/reinforcement-learning/.venv/lib/python3.13/site-packages/flax/linen/linear.py":1166:21 to 1171:5)
#loc34 = loc("/Users/noahfarr/noahfarr.github.io/tools/whlo/export_ppo_wordle.py":84:32 to :49)
#loc35 = loc("/Users/noahfarr/reinforcement-learning/src/networks/networks/network.py":24:12 to :71)
#loc36 = loc("/Users/noahfarr/reinforcement-learning/src/algorithms/algorithms/recurrent_ppo.py":307:17 to 314:9)
#loc45 = loc("scatter")
#loc95 = loc("/Users/noahfarr/reinforcement-learning/src/algorithms/algorithms/recurrent_ppo.py":268:20 to :66)
#loc96 = loc("/Users/noahfarr/noahfarr.github.io/tools/whlo/export_ppo_wordle.py":192:23 to :63)
#loc102 = loc("vmap()")
#loc133 = loc("erf")
#loc152 = loc("RecurrentPPO.init"(#loc4))
#loc181 = loc("Embed.setup"(#loc33))
#loc182 = loc("TokenFeatureExtractor.__call__"(#loc34))
#loc183 = loc("Network.__call__"(#loc35))
#loc184 = loc("RecurrentPPO.init"(#loc36))
#loc193 = loc("scatter:"(#loc45))
#loc234 = loc("RecurrentPPO.update_step"(#loc95))
#loc235 = loc("main.<locals>.train_step"(#loc96))
#loc254 = loc(callsite(#loc183 at #loc184))
#loc265 = loc(callsite(#loc234 at #loc235))
#loc275 = loc(callsite(#loc182 at #loc254))
#loc319 = loc(callsite(#loc181 at #loc275))
module @jit_init attributes {jax.uses_shape_polymorphism = false, mhlo.num_partitions = 1 : i32, mhlo.num_replicas = 1 : i32} {
  func.func public @main(%arg0: tensor<2xui32> loc("key")) -> (tensor<i32> {jax.result_info = "result.step"}, tensor<16x5xi32> {jax.result_info = "result.timestep.obs"}, tensor<16xi32> {jax.result_info = "result.timestep.action"}, tensor<16xf32> {jax.result_info = "result.timestep.reward"}, tensor<16xi1> {jax.result_info = "result.timestep.terminated"}, tensor<16xi1> {jax.result_info = "result.timestep.truncated"}, tensor<16xf32> {jax.result_info = "result.timestep.info['fired']"}, tensor<16xf32> {jax.result_info = "result.timestep.info['guess_count']"}, tensor<16xf32> {jax.result_info = "result.timestep.info['illegal_guesses']"}, tensor<16xf32> {jax.result_info = "result.timestep.info['matched_secret']"}, tensor<16x5xi32> {jax.result_info = "result.environment_state.env_state.secret_answer"}, tensor<16x5xi32> {jax.result_info = "result.environment_state.env_state.guess_feedback"}, tensor<16xi1> {jax.result_info = "result.environment_state.env_state.guess_revealed"}, tensor<16xi32> {jax.result_info = "result.environment_state.env_state.guess_count"}, tensor<16xi1> {jax.result_info = "result.environment_state.env_state.matched_secret"}, tensor<16xi1> {jax.result_info = "result.environment_state.active"}, tensor<16x5xi32> {jax.result_info = "result.environment_state.arguments"}, tensor<16xi32> {jax.result_info = "result.environment_state.cursor"}, tensor<16x16xf32> {jax.result_info = "result.carry[1]"}, tensor<33x16xf32> {jax.result_info = "result.params['params']['feature_extractor']['token_embedding']['embedding']"}, tensor<16x33xf32> {jax.result_info = "result.params['params']['head']['actor']['kernel']"}, tensor<1xf32> {jax.result_info = "result.params['params']['head']['critic']['bias']"}, tensor<16x1xf32> {jax.result_info = "result.params['params']['head']['critic']['kernel']"}, tensor<16xf32> {jax.result_info = "result.params['params']['torso']['block']['blocks_0']['Dense_0']['bias']"}, tensor<16x16xf32> {jax.result_info = "result.params['params']['torso']['block']['blocks_0']['Dense_0']['kernel']"}, tensor<16xf32> {jax.result_info = "result.params['params']['torso']['block']['blocks_1']['cell']['hn']['bias']"}, tensor<16x16xf32> {jax.result_info = "result.params['params']['torso']['block']['blocks_1']['cell']['hn']['kernel']"}, tensor<16x16xf32> {jax.result_info = "result.params['params']['torso']['block']['blocks_1']['cell']['hr']['kernel']"}, tensor<16x16xf32> {jax.result_info = "result.params['params']['torso']['block']['blocks_1']['cell']['hz']['kernel']"}, tensor<16xf32> {jax.result_info = "result.params['params']['torso']['block']['blocks_1']['cell']['in']['bias']"}, tensor<16x16xf32> {jax.result_info = "result.params['params']['torso']['block']['blocks_1']['cell']['in']['kernel']"}, tensor<16xf32> {jax.result_info = "result.params['params']['torso']['block']['blocks_1']['cell']['ir']['bias']"}, tensor<16x16xf32> {jax.result_info = "result.params['params']['torso']['block']['blocks_1']['cell']['ir']['kernel']"}, tensor<16xf32> {jax.result_info = "result.params['params']['torso']['block']['blocks_1']['cell']['iz']['bias']"}, tensor<16x16xf32> {jax.result_info = "result.params['params']['torso']['block']['blocks_1']['cell']['iz']['kernel']"}, tensor<i32> {jax.result_info = "result.optimizer_state[1][0].count"}, tensor<33x16xf32> {jax.result_info = "result.optimizer_state[1][0].mu['params']['feature_extractor']['token_embedding']['embedding']"}, tensor<16x33xf32> {jax.result_info = "result.optimizer_state[1][0].mu['params']['head']['actor']['kernel']"}, tensor<1xf32> {jax.result_info = "result.optimizer_state[1][0].mu['params']['head']['critic']['bias']"}, tensor<16x1xf32> {jax.result_info = "result.optimizer_state[1][0].mu['params']['head']['critic']['kernel']"}, tensor<16xf32> {jax.result_info = "result.optimizer_state[1][0].mu['params']['torso']['block']['blocks_0']['Dense_0']['bias']"}, tensor<16x16xf32> {jax.result_info = "result.optimizer_state[1][0].mu['params']['torso']['block']['blocks_0']['Dense_0']['kernel']"}, tensor<16xf32> {jax.result_info = "result.optimizer_state[1][0].mu['params']['torso']['block']['blocks_1']['cell']['hn']['bias']"}, tensor<16x16xf32> {jax.result_info = "result.optimizer_state[1][0].mu['params']['torso']['block']['blocks_1']['cell']['hn']['kernel']"}, tensor<16x16xf32> {jax.result_info = "result.optimizer_state[1][0].mu['params']['torso']['block']['blocks_1']['cell']['hr']['kernel']"}, tensor<16x16xf32> {jax.result_info = "result.optimizer_state[1][0].mu['params']['torso']['block']['blocks_1']['cell']['hz']['kernel']"}, tensor<16xf32> {jax.result_info = "result.optimizer_state[1][0].mu['params']['torso']['block']['blocks_1']['cell']['in']['bias']"}, tensor<16x16xf32> {jax.result_info = "result.optimizer_state[1][0].mu['params']['torso']['block']['blocks_1']['cell']['in']['kernel']"}, tensor<16xf32> {jax.result_info = "result.optimizer_state[1][0].mu['params']['torso']['block']['blocks_1']['cell']['ir']['bias']"}, tensor<16x16xf32> {jax.result_info = "result.optimizer_state[1][0].mu['params']['torso']['block']['blocks_1']['cell']['ir']['kernel']"}, tensor<16xf32> {jax.result_info = "result.optimizer_state[1][0].mu['params']['torso']['block']['blocks_1']['cell']['iz']['bias']"}, tensor<16x16xf32> {jax.result_info = "result.optimizer_state[1][0].mu['params']['torso']['block']['blocks_1']['cell']['iz']['kernel']"}, tensor<33x16xf32> {jax.result_info = "result.optimizer_state[1][0].nu['params']['feature_extractor']['token_embedding']['embedding']"}, tensor<16x33xf32> {jax.result_info = "result.optimizer_state[1][0].nu['params']['head']['actor']['kernel']"}, tensor<1xf32> {jax.result_info = "result.optimizer_state[1][0].nu['params']['head']['critic']['bias']"}, tensor<16x1xf32> {jax.result_info = "result.optimizer_state[1][0].nu['params']['head']['critic']['kernel']"}, tensor<16xf32> {jax.result_info = "result.optimizer_state[1][0].nu['params']['torso']['block']['blocks_0']['Dense_0']['bias']"}, tensor<16x16xf32> {jax.result_info = "result.optimizer_state[1][0].nu['params']['torso']['block']['blocks_0']['Dense_0']['kernel']"}, tensor<16xf32> {jax.result_info = "result.optimizer_state[1][0].nu['params']['torso']['block']['blocks_1']['cell']['hn']['bias']"}, tensor<16x16xf32> {jax.result_info = "result.optimizer_state[1][0].nu['params']['torso']['block']['blocks_1']['cell']['hn']['kernel']"}, tensor<16x16xf32> {jax.result_info = "result.optimizer_state[1][0].nu['params']['torso']['block']['blocks_1']['cell']['hr']['kernel']"}, tensor<16x16xf32> {jax.result_info = "result.optimizer_state[1][0].nu['params']['torso']['block']['blocks_1']['cell']['hz']['kernel']"}, tensor<16xf32> {jax.result_info = "result.optimizer_state[1][0].nu['params']['torso']['block']['blocks_1']['cell']['in']['bias']"}, tensor<16x16xf32> {jax.result_info = "result.optimizer_state[1][0].nu['params']['torso']['block']['blocks_1']['cell']['in']['kernel']"}, tensor<16xf32> {jax.result_info = "result.optimizer_state[1][0].nu['params']['torso']['block']['blocks_1']['cell']['ir']['bias']"}, tensor<16x16xf32> {jax.result_info = "result.optimizer_state[1][0].nu['params']['torso']['block']['blocks_1']['cell']['ir']['kernel']"}, tensor<16xf32> {jax.result_info = "result.optimizer_state[1][0].nu['params']['torso']['block']['blocks_1']['cell']['iz']['bias']"}, tensor<16x16xf32> {jax.result_info = "result.optimizer_state[1][0].nu['params']['torso']['block']['blocks_1']['cell']['iz']['kernel']"}) {
    %c = stablehlo.constant dense<3309781136> : tensor<ui32> loc(#loc268)
    %c_0 = stablehlo.constant dense<1632372854> : tensor<ui32> loc(#loc268)
    %c_1 = stablehlo.constant dense<2875902972> : tensor<ui32> loc(#loc268)
    %c_2 = stablehlo.constant dense<1> : tensor<i32> loc(#loc)
    %c_3 = stablehlo.constant dense<6> : tensor<i32> loc(#loc)
    %c_4 = stablehlo.constant dense<2048461400> : tensor<ui32> loc(#loc268)
    %c_5 = stablehlo.constant dense<2218040706> : tensor<ui32> loc(#loc268)
    %c_6 = stablehlo.constant dense<844053399> : tensor<ui32> loc(#loc268)
    %c_7 = stablehlo.constant dense<2202832691> : tensor<ui32> loc(#loc268)
    %c_8 = stablehlo.constant dense<1572179623> : tensor<ui32> loc(#loc268)
    %c_9 = stablehlo.constant dense<2146539145> : tensor<ui32> loc(#loc268)
    %c_10 = stablehlo.constant dense<2821373726> : tensor<ui32> loc(#loc268)
    %c_11 = stablehlo.constant dense<2511747036> : tensor<ui32> loc(#loc268)
    %c_12 = stablehlo.constant dense<3515350182> : tensor<ui32> loc(#loc268)
    %c_13 = stablehlo.constant dense<111433393> : tensor<ui32> loc(#loc268)
    %c_14 = stablehlo.constant dense<3763648675> : tensor<ui32> loc(#loc268)
    %c_15 = stablehlo.constant dense<2> : tensor<i32> loc(#loc)
    %c_16 = stablehlo.constant dense<-2> : tensor<i32> loc(#loc)
    %cst = stablehlo.constant dense<0.879625678> : tensor<f32> loc(#loc)
    %c_17 = stablehlo.constant dense<1591842985> : tensor<ui32> loc(#loc268)
    %cst_18 = stablehlo.constant dense<6.250000e-02> : tensor<f32> loc(#loc)
    %c_19 = stablehlo.constant dense<3005692971> : tensor<ui32> loc(#loc268)
    %c_20 = stablehlo.constant dense<true> : tensor<i1> loc(#loc268)
    %c_21 = stablehlo.constant dense<28> : tensor<i32> loc(#loc268)
    %cst_22 = stablehlo.constant dense<0.000000e+00> : tensor<f32> loc(#loc)
    %c_23 = stablehlo.constant dense<false> : tensor<i1> loc(#loc)
    %c_24 = stablehlo.constant dense<5> : tensor<i32> loc(#loc268)
    %c_25 = stablehlo.constant dense<16> : tensor<i32> loc(#loc)
    %c_26 = stablehlo.constant dense<0> : tensor<i32> loc(#loc)
    %c_27 = stablehlo.constant dense<[[0, 20, 3, 8, 14], [1, 17, 8, 2, 10], [2, 7, 0, 8, 17], [2, 11, 14, 20, 3], [2, 17, 0, 13, 4], [5, 11, 8, 13, 19], [5, 17, 14, 18, 19], [6, 11, 0, 25, 4], [6, 17, 0, 15, 4], [7, 14, 20, 18, 4], [11, 4, 12, 14, 13], [12, 14, 20, 13, 3], [15, 11, 0, 13, 19], [18, 11, 0, 19, 4], [18, 15, 0, 3, 4], [18, 19, 14, 17, 12]]> : tensor<16x5xi32> loc(#loc268)
    %0 = call @_threefry_split(%arg0) : (tensor<2xui32>) -> tensor<3x2xui32> loc(#loc359)
    %1 = stablehlo.slice %0 [0:1, 0:2] : (tensor<3x2xui32>) -> tensor<1x2xui32> loc(#loc311)
    %2 = stablehlo.reshape %1 : (tensor<1x2xui32>) -> tensor<2xui32> loc(#loc312)
    %3 = stablehlo.slice %0 [1:2, 0:2] : (tensor<3x2xui32>) -> tensor<1x2xui32> loc(#loc311)
    %4 = stablehlo.reshape %3 : (tensor<1x2xui32>) -> tensor<2xui32> loc(#loc312)
    %5 = call @_threefry_split_0(%2) : (tensor<2xui32>) -> tensor<16x2xui32> loc(#loc421)
    %6 = stablehlo.broadcast_in_dim %5, dims = [0, 2] : (tensor<16x2xui32>) -> tensor<16x1x2xui32> loc(#loc361)
    %7 = stablehlo.reshape %6 : (tensor<16x1x2xui32>) -> tensor<16x2xui32> loc(#loc362)
    %8 = call @_randint(%7, %c_26, %c_25) : (tensor<16x2xui32>, tensor<i32>, tensor<i32>) -> tensor<16xi32> loc(#loc485)
    %9 = stablehlo.broadcast_in_dim %c_26, dims = [] : (tensor<i32>) -> tensor<16xi32> loc(#loc486)
    %10 = stablehlo.compare LT, %8, %9, SIGNED : (tensor<16xi32>, tensor<16xi32>) -> tensor<16xi1> loc(#loc486)
    %11 = stablehlo.broadcast_in_dim %c_25, dims = [] : (tensor<i32>) -> tensor<16xi32> loc(#loc487)
    %12 = stablehlo.add %8, %11 : tensor<16xi32> loc(#loc487)
    %13 = stablehlo.select %10, %12, %8 : tensor<16xi1>, tensor<16xi32> loc(#loc488)
    %14 = stablehlo.compare LT, %c_26, %c_26, SIGNED : (tensor<i32>, tensor<i32>) -> tensor<i1> loc(#loc486)
    %15 = stablehlo.add %c_26, %c_24 : tensor<i32> loc(#loc487)
    %16 = stablehlo.select %14, %15, %c_26 : tensor<i1>, tensor<i32> loc(#loc488)
    %17 = stablehlo.broadcast_in_dim %13, dims = [0] : (tensor<16xi32>) -> tensor<16x1xi32> loc(#loc489)
    %18 = stablehlo.broadcast_in_dim %16, dims = [] : (tensor<i32>) -> tensor<16x1xi32> loc(#loc489)
    %19 = stablehlo.concatenate %17, %18, dim = 1 : (tensor<16x1xi32>, tensor<16x1xi32>) -> tensor<16x2xi32> loc(#loc490)
    %20 = "stablehlo.gather"(%c_27, %19) <{dimension_numbers = #stablehlo.gather<offset_dims = [1, 2], start_index_map = [0, 1], index_vector_dim = 1>, slice_sizes = array<i64: 1, 5>}> : (tensor<16x5xi32>, tensor<16x2xi32>) -> tensor<16x1x5xi32> loc(#loc491)
    %21 = stablehlo.reshape %20 : (tensor<16x1x5xi32>) -> tensor<16x5xi32> loc(#loc492)
    %22 = stablehlo.broadcast_in_dim %c_26, dims = [] : (tensor<i32>) -> tensor<5xi32> loc(#loc493)
    %23 = call @_one_hot(%22) : (tensor<5xi32>) -> tensor<5x3xf32> loc(#loc517)
    %24 = stablehlo.reshape %23 : (tensor<5x3xf32>) -> tensor<15xf32> loc(#loc518)
    %25 = call @_where(%c_23, %24, %cst_22) : (tensor<i1>, tensor<15xf32>, tensor<f32>) -> tensor<15xf32> loc(#loc519)
    %26 = stablehlo.broadcast_in_dim %c_26, dims = [] : (tensor<i32>) -> tensor<5xi32> loc(#loc453)
    %27 = stablehlo.broadcast_in_dim %c_21, dims = [] : (tensor<i32>) -> tensor<5xi32> loc(#loc454)
    %28 = stablehlo.broadcast_in_dim %22, dims = [1] : (tensor<5xi32>) -> tensor<16x5xi32> loc(#loc364)
    %29 = stablehlo.broadcast_in_dim %c_23, dims = [] : (tensor<i1>) -> tensor<16xi1> loc(#loc364)
    %30 = stablehlo.broadcast_in_dim %c_26, dims = [] : (tensor<i32>) -> tensor<16xi32> loc(#loc364)
    %31 = stablehlo.broadcast_in_dim %c_23, dims = [] : (tensor<i1>) -> tensor<16xi1> loc(#loc364)
    %32 = stablehlo.broadcast_in_dim %c_23, dims = [] : (tensor<i1>) -> tensor<16xi1> loc(#loc364)
    %33 = stablehlo.broadcast_in_dim %26, dims = [1] : (tensor<5xi32>) -> tensor<16x5xi32> loc(#loc364)
    %34 = stablehlo.broadcast_in_dim %c_26, dims = [] : (tensor<i32>) -> tensor<16xi32> loc(#loc364)
    %35 = stablehlo.broadcast_in_dim %27, dims = [1] : (tensor<5xi32>) -> tensor<16x5xi32> loc(#loc364)
    %36 = stablehlo.broadcast_in_dim %c_26, dims = [] : (tensor<i32>) -> tensor<16xi32> loc(#loc364)
    %37 = stablehlo.broadcast_in_dim %cst_22, dims = [] : (tensor<f32>) -> tensor<16xf32> loc(#loc364)
    %38 = stablehlo.broadcast_in_dim %c_20, dims = [] : (tensor<i1>) -> tensor<16xi1> loc(#loc364)
    %39 = stablehlo.broadcast_in_dim %c_23, dims = [] : (tensor<i1>) -> tensor<16xi1> loc(#loc364)
    %40 = stablehlo.broadcast_in_dim %cst_22, dims = [] : (tensor<f32>) -> tensor<16xf32> loc(#loc364)
    %41 = stablehlo.broadcast_in_dim %cst_22, dims = [] : (tensor<f32>) -> tensor<16xf32> loc(#loc364)
    %42 = stablehlo.broadcast_in_dim %cst_22, dims = [] : (tensor<f32>) -> tensor<16xf32> loc(#loc364)
    %43 = stablehlo.broadcast_in_dim %cst_22, dims = [] : (tensor<f32>) -> tensor<16xf32> loc(#loc364)
    %44 = stablehlo.broadcast_in_dim %cst_22, dims = [] : (tensor<f32>) -> tensor<16x16xf32> loc(#loc538)
    %45 = stablehlo.broadcast_in_dim %35, dims = [0, 2] : (tensor<16x5xi32>) -> tensor<16x1x5xi32> loc(#loc426)
    %46 = stablehlo.broadcast_in_dim %36, dims = [0] : (tensor<16xi32>) -> tensor<16x1xi32> loc(#loc426)
    %47 = stablehlo.broadcast_in_dim %38, dims = [0] : (tensor<16xi1>) -> tensor<16x1xi1> loc(#loc426)
    %48 = stablehlo.broadcast_in_dim %39, dims = [0] : (tensor<16xi1>) -> tensor<16x1xi1> loc(#loc426)
    %49 = stablehlo.or %47, %48 : tensor<16x1xi1> loc(#loc367)
    %50 = call @_threefry_fold_in(%4, %c_19) : (tensor<2xui32>, tensor<ui32>) -> tensor<2xui32> loc(#loc498)
    %51 = call @_normal(%50) : (tensor<2xui32>) -> tensor<33x16xf32> loc(#loc457)
    %52 = stablehlo.sqrt %cst_18 : tensor<f32> loc(#loc458)
    %53 = stablehlo.broadcast_in_dim %52, dims = [] : (tensor<f32>) -> tensor<33x16xf32> loc(#loc459)
    %54 = stablehlo.multiply %51, %53 : tensor<33x16xf32> loc(#loc459)
    %55 = call @_take(%54, %46) : (tensor<33x16xf32>, tensor<16x1xi32>) -> tensor<16x1x16xf32> loc(#loc460)
    %56 = stablehlo.broadcast_in_dim %55, dims = [0, 1, 3] : (tensor<16x1x16xf32>) -> tensor<16x1x1x16xf32> loc(#loc429)
    %57 = call @_take_14(%54, %45) : (tensor<33x16xf32>, tensor<16x1x5xi32>) -> tensor<16x1x5x16xf32> loc(#loc461)
    %58 = stablehlo.concatenate %56, %57, dim = 2 : (tensor<16x1x1x16xf32>, tensor<16x1x5x16xf32>) -> tensor<16x1x6x16xf32> loc(#loc431)
    %59 = stablehlo.reshape %58 : (tensor<16x1x6x16xf32>) -> tensor<16x6x16xf32> loc(#loc432)
    %60 = stablehlo.broadcast_in_dim %c_23, dims = [] : (tensor<i1>) -> tensor<16x1x6xi1> loc(#loc433)
    %61 = stablehlo.broadcast_in_dim %c_26, dims = [] : (tensor<i32>) -> tensor<1xi32> loc(#loc434)
    %62 = "stablehlo.scatter"(%60, %61, %49) <{indices_are_sorted = true, scatter_dimension_numbers = #stablehlo.scatter<update_window_dims = [0, 1], inserted_window_dims = [2], scatter_dims_to_operand_dims = [2]>, unique_indices = true}> ({
    ^bb0(%arg1: tensor<i1> loc("scatter:"(#loc45)), %arg2: tensor<i1> loc("scatter:"(#loc45))):
      stablehlo.return %arg2 : tensor<i1> loc(#loc435)
    }) : (tensor<16x1x6xi1>, tensor<1xi32>, tensor<16x1xi1>) -> tensor<16x1x6xi1> loc(#loc435)
    %63 = stablehlo.reshape %62 : (tensor<16x1x6xi1>) -> tensor<16x6xi1> loc(#loc436)
    %64 = call @_threefry_fold_in(%4, %c_17) : (tensor<2xui32>, tensor<ui32>) -> tensor<2xui32> loc(#loc559)
    %65 = stablehlo.sqrt %cst_18 : tensor<f32> loc(#loc540)
    %66 = stablehlo.divide %65, %cst : tensor<f32> loc(#loc541)
    %67 = call @_truncated_normal(%64, %c_16, %c_15) : (tensor<2xui32>, tensor<i32>, tensor<i32>) -> tensor<16x16xf32> loc(#loc542)
    %68 = stablehlo.broadcast_in_dim %66, dims = [] : (tensor<f32>) -> tensor<16x16xf32> loc(#loc543)
    %69 = stablehlo.multiply %67, %68 : tensor<16x16xf32> loc(#loc543)
    %70 = call @_threefry_fold_in(%4, %c_14) : (tensor<2xui32>, tensor<ui32>) -> tensor<2xui32> loc(#loc560)
    %71 = stablehlo.broadcast_in_dim %cst_22, dims = [] : (tensor<f32>) -> tensor<16xf32> loc(#loc545)
    %72 = stablehlo.dot_general %59, %69, contracting_dims = [2] x [0] : (tensor<16x6x16xf32>, tensor<16x16xf32>) -> tensor<16x6x16xf32> loc(#loc546)
    %73 = stablehlo.reshape %71 : (tensor<16xf32>) -> tensor<1x1x16xf32> loc(#loc547)
    %74 = stablehlo.broadcast_in_dim %73, dims = [0, 1, 2] : (tensor<1x1x16xf32>) -> tensor<16x6x16xf32> loc(#loc548)
    %75 = stablehlo.add %72, %74 : tensor<16x6x16xf32> loc(#loc548)
    %76 = call @relu(%75) : (tensor<16x6x16xf32>) -> tensor<16x6x16xf32> loc(#loc526)
    %77 = stablehlo.broadcast_in_dim %cst_22, dims = [] : (tensor<f32>) -> tensor<16x16xf32> loc(#loc549)
    %78 = stablehlo.transpose %76, dims = [1, 0, 2] : (tensor<16x6x16xf32>) -> tensor<6x16x16xf32> loc(#loc574)
    %79 = stablehlo.transpose %63, dims = [1, 0] : (tensor<16x6xi1>) -> tensor<6x16xi1> loc(#loc574)
    call @_where_20(%77) : (tensor<16x16xf32>) -> () loc(#loc593)
    %80 = call @_threefry_fold_in(%4, %c_13) : (tensor<2xui32>, tensor<ui32>) -> tensor<2xui32> loc(#loc634)
    %81 = stablehlo.sqrt %cst_18 : tensor<f32> loc(#loc595)
    %82 = stablehlo.divide %81, %cst : tensor<f32> loc(#loc596)
    %83 = call @_truncated_normal_21(%80, %c_16, %c_15) : (tensor<2xui32>, tensor<i32>, tensor<i32>) -> tensor<16x16xf32> loc(#loc597)
    %84 = stablehlo.broadcast_in_dim %82, dims = [] : (tensor<f32>) -> tensor<16x16xf32> loc(#loc598)
    %85 = stablehlo.multiply %83, %84 : tensor<16x16xf32> loc(#loc598)
    %86 = call @_threefry_fold_in(%4, %c_12) : (tensor<2xui32>, tensor<ui32>) -> tensor<2xui32> loc(#loc635)
    %87 = stablehlo.broadcast_in_dim %cst_22, dims = [] : (tensor<f32>) -> tensor<16xf32> loc(#loc600)
    %88 = call @_threefry_fold_in(%4, %c_11) : (tensor<2xui32>, tensor<ui32>) -> tensor<2xui32> loc(#loc636)
    %89 = stablehlo.sqrt %cst_18 : tensor<f32> loc(#loc602)
    %90 = stablehlo.divide %89, %cst : tensor<f32> loc(#loc603)
    %91 = call @_truncated_normal_21(%88, %c_16, %c_15) : (tensor<2xui32>, tensor<i32>, tensor<i32>) -> tensor<16x16xf32> loc(#loc604)
    %92 = stablehlo.broadcast_in_dim %90, dims = [] : (tensor<f32>) -> tensor<16x16xf32> loc(#loc605)
    %93 = stablehlo.multiply %91, %92 : tensor<16x16xf32> loc(#loc605)
    %94 = call @_threefry_fold_in(%4, %c_10) : (tensor<2xui32>, tensor<ui32>) -> tensor<2xui32> loc(#loc637)
    %95 = stablehlo.sqrt %cst_18 : tensor<f32> loc(#loc607)
    %96 = stablehlo.divide %95, %cst : tensor<f32> loc(#loc608)
    %97 = call @_truncated_normal_21(%94, %c_16, %c_15) : (tensor<2xui32>, tensor<i32>, tensor<i32>) -> tensor<16x16xf32> loc(#loc609)
    %98 = stablehlo.broadcast_in_dim %96, dims = [] : (tensor<f32>) -> tensor<16x16xf32> loc(#loc610)
    %99 = stablehlo.multiply %97, %98 : tensor<16x16xf32> loc(#loc610)
    %100 = call @_threefry_fold_in(%4, %c_9) : (tensor<2xui32>, tensor<ui32>) -> tensor<2xui32> loc(#loc638)
    %101 = stablehlo.broadcast_in_dim %cst_22, dims = [] : (tensor<f32>) -> tensor<16xf32> loc(#loc612)
    %102 = call @_threefry_fold_in(%4, %c_8) : (tensor<2xui32>, tensor<ui32>) -> tensor<2xui32> loc(#loc639)
    %103 = stablehlo.sqrt %cst_18 : tensor<f32> loc(#loc614)
    %104 = stablehlo.divide %103, %cst : tensor<f32> loc(#loc615)
    %105 = call @_truncated_normal_21(%102, %c_16, %c_15) : (tensor<2xui32>, tensor<i32>, tensor<i32>) -> tensor<16x16xf32> loc(#loc616)
    %106 = stablehlo.broadcast_in_dim %104, dims = [] : (tensor<f32>) -> tensor<16x16xf32> loc(#loc617)
    %107 = stablehlo.multiply %105, %106 : tensor<16x16xf32> loc(#loc617)
    %108 = call @_threefry_fold_in(%4, %c_7) : (tensor<2xui32>, tensor<ui32>) -> tensor<2xui32> loc(#loc640)
    %109 = stablehlo.sqrt %cst_18 : tensor<f32> loc(#loc619)
    %110 = stablehlo.divide %109, %cst : tensor<f32> loc(#loc620)
    %111 = call @_truncated_normal_21(%108, %c_16, %c_15) : (tensor<2xui32>, tensor<i32>, tensor<i32>) -> tensor<16x16xf32> loc(#loc621)
    %112 = stablehlo.broadcast_in_dim %110, dims = [] : (tensor<f32>) -> tensor<16x16xf32> loc(#loc622)
    %113 = stablehlo.multiply %111, %112 : tensor<16x16xf32> loc(#loc622)
    %114 = call @_threefry_fold_in(%4, %c_6) : (tensor<2xui32>, tensor<ui32>) -> tensor<2xui32> loc(#loc641)
    %115 = stablehlo.broadcast_in_dim %cst_22, dims = [] : (tensor<f32>) -> tensor<16xf32> loc(#loc624)
    %116 = call @_threefry_fold_in(%4, %c_5) : (tensor<2xui32>, tensor<ui32>) -> tensor<2xui32> loc(#loc642)
    %117 = stablehlo.sqrt %cst_18 : tensor<f32> loc(#loc626)
    %118 = stablehlo.divide %117, %cst : tensor<f32> loc(#loc627)
    %119 = call @_truncated_normal_21(%116, %c_16, %c_15) : (tensor<2xui32>, tensor<i32>, tensor<i32>) -> tensor<16x16xf32> loc(#loc628)
    %120 = stablehlo.broadcast_in_dim %118, dims = [] : (tensor<f32>) -> tensor<16x16xf32> loc(#loc629)
    %121 = stablehlo.multiply %119, %120 : tensor<16x16xf32> loc(#loc629)
    %122 = call @_threefry_fold_in(%4, %c_4) : (tensor<2xui32>, tensor<ui32>) -> tensor<2xui32> loc(#loc643)
    %123 = stablehlo.broadcast_in_dim %cst_22, dims = [] : (tensor<f32>) -> tensor<16xf32> loc(#loc631)
    %124 = stablehlo.broadcast_in_dim %cst_22, dims = [] : (tensor<f32>) -> tensor<6x16x16xf32> loc(#loc564)
    %125:16 = stablehlo.while(%iterArg = %78, %iterArg_28 = %79, %iterArg_29 = %77, %iterArg_30 = %85, %iterArg_31 = %87, %iterArg_32 = %93, %iterArg_33 = %99, %iterArg_34 = %101, %iterArg_35 = %107, %iterArg_36 = %113, %iterArg_37 = %115, %iterArg_38 = %121, %iterArg_39 = %123, %iterArg_40 = %c_26, %iterArg_41 = %44, %iterArg_42 = %124) : tensor<6x16x16xf32>, tensor<6x16xi1>, tensor<16x16xf32>, tensor<16x16xf32>, tensor<16xf32>, tensor<16x16xf32>, tensor<16x16xf32>, tensor<16xf32>, tensor<16x16xf32>, tensor<16x16xf32>, tensor<16xf32>, tensor<16x16xf32>, tensor<16xf32>, tensor<i32>, tensor<16x16xf32>, tensor<6x16x16xf32>
    cond {
      %172 = stablehlo.compare LT, %iterArg_40, %c_3, SIGNED : (tensor<i32>, tensor<i32>) -> tensor<i1> loc(#loc566)
      stablehlo.return %172 : tensor<i1> loc(#loc565)
    } do {
      %172 = func.call @dynamic_index_in_dim(%iterArg, %iterArg_40) : (tensor<6x16x16xf32>, tensor<i32>) -> tensor<16x16xf32> loc(#loc567)
      %173 = func.call @dynamic_index_in_dim_24(%iterArg_28, %iterArg_40) : (tensor<6x16xi1>, tensor<i32>) -> tensor<16xi1> loc(#loc567)
      %174:2 = func.call @closed_call_25(%iterArg_29, %iterArg_30, %iterArg_31, %iterArg_32, %iterArg_33, %iterArg_34, %iterArg_35, %iterArg_36, %iterArg_37, %iterArg_38, %iterArg_39, %iterArg_41, %172, %173) : (tensor<16x16xf32>, tensor<16x16xf32>, tensor<16xf32>, tensor<16x16xf32>, tensor<16x16xf32>, tensor<16xf32>, tensor<16x16xf32>, tensor<16x16xf32>, tensor<16xf32>, tensor<16x16xf32>, tensor<16xf32>, tensor<16x16xf32>, tensor<16x16xf32>, tensor<16xi1>) -> (tensor<16x16xf32>, tensor<16x16xf32>) loc(#loc568)
      %175 = func.call @dynamic_update_index_in_dim(%iterArg_42, %174#1, %iterArg_40) : (tensor<6x16x16xf32>, tensor<16x16xf32>, tensor<i32>) -> tensor<6x16x16xf32> loc(#loc569)
      %176 = stablehlo.add %iterArg_40, %c_2 : tensor<i32> loc(#loc570)
      stablehlo.return %iterArg, %iterArg_28, %iterArg_29, %iterArg_30, %iterArg_31, %iterArg_32, %iterArg_33, %iterArg_34, %iterArg_35, %iterArg_36, %iterArg_37, %iterArg_38, %iterArg_39, %176, %174#0, %175 : tensor<6x16x16xf32>, tensor<6x16xi1>, tensor<16x16xf32>, tensor<16x16xf32>, tensor<16xf32>, tensor<16x16xf32>, tensor<16x16xf32>, tensor<16xf32>, tensor<16x16xf32>, tensor<16x16xf32>, tensor<16xf32>, tensor<16x16xf32>, tensor<16xf32>, tensor<i32>, tensor<16x16xf32>, tensor<6x16x16xf32> loc(#loc565)
    } loc(#loc565)
    %126 = call @_threefry_fold_in(%4, %c_1) : (tensor<2xui32>, tensor<ui32>) -> tensor<2xui32> loc(#loc504)
    %127 = stablehlo.sqrt %cst_18 : tensor<f32> loc(#loc465)
    %128 = stablehlo.divide %127, %cst : tensor<f32> loc(#loc466)
    %129 = call @_truncated_normal_27(%126, %c_16, %c_15) : (tensor<2xui32>, tensor<i32>, tensor<i32>) -> tensor<16x33xf32> loc(#loc467)
    %130 = stablehlo.broadcast_in_dim %128, dims = [] : (tensor<f32>) -> tensor<16x33xf32> loc(#loc468)
    %131 = stablehlo.multiply %129, %130 : tensor<16x33xf32> loc(#loc468)
    %132 = call @_threefry_fold_in(%4, %c_0) : (tensor<2xui32>, tensor<ui32>) -> tensor<2xui32> loc(#loc505)
    %133 = stablehlo.sqrt %cst_18 : tensor<f32> loc(#loc470)
    %134 = stablehlo.divide %133, %cst : tensor<f32> loc(#loc471)
    %135 = call @_truncated_normal_32(%132, %c_16, %c_15) : (tensor<2xui32>, tensor<i32>, tensor<i32>) -> tensor<16x1xf32> loc(#loc472)
    %136 = stablehlo.broadcast_in_dim %134, dims = [] : (tensor<f32>) -> tensor<16x1xf32> loc(#loc473)
    %137 = stablehlo.multiply %135, %136 : tensor<16x1xf32> loc(#loc473)
    %138 = call @_threefry_fold_in(%4, %c) : (tensor<2xui32>, tensor<ui32>) -> tensor<2xui32> loc(#loc506)
    %139 = stablehlo.broadcast_in_dim %cst_22, dims = [] : (tensor<f32>) -> tensor<1xf32> loc(#loc475)
    %140 = stablehlo.broadcast_in_dim %cst_22, dims = [] : (tensor<f32>) -> tensor<33x16xf32> loc(#loc571)
    %141 = stablehlo.broadcast_in_dim %cst_22, dims = [] : (tensor<f32>) -> tensor<16x33xf32> loc(#loc571)
    %142 = stablehlo.broadcast_in_dim %cst_22, dims = [] : (tensor<f32>) -> tensor<1xf32> loc(#loc571)
    %143 = stablehlo.broadcast_in_dim %cst_22, dims = [] : (tensor<f32>) -> tensor<16x1xf32> loc(#loc571)
    %144 = stablehlo.broadcast_in_dim %cst_22, dims = [] : (tensor<f32>) -> tensor<16xf32> loc(#loc571)
    %145 = stablehlo.broadcast_in_dim %cst_22, dims = [] : (tensor<f32>) -> tensor<16x16xf32> loc(#loc571)
    %146 = stablehlo.broadcast_in_dim %cst_22, dims = [] : (tensor<f32>) -> tensor<16xf32> loc(#loc571)
    %147 = stablehlo.broadcast_in_dim %cst_22, dims = [] : (tensor<f32>) -> tensor<16x16xf32> loc(#loc571)
    %148 = stablehlo.broadcast_in_dim %cst_22, dims = [] : (tensor<f32>) -> tensor<16x16xf32> loc(#loc571)
    %149 = stablehlo.broadcast_in_dim %cst_22, dims = [] : (tensor<f32>) -> tensor<16x16xf32> loc(#loc571)
    %150 = stablehlo.broadcast_in_dim %cst_22, dims = [] : (tensor<f32>) -> tensor<16xf32> loc(#loc571)
    %151 = stablehlo.broadcast_in_dim %cst_22, dims = [] : (tensor<f32>) -> tensor<16x16xf32> loc(#loc571)
    %152 = stablehlo.broadcast_in_dim %cst_22, dims = [] : (tensor<f32>) -> tensor<16xf32> loc(#loc571)
    %153 = stablehlo.broadcast_in_dim %cst_22, dims = [] : (tensor<f32>) -> tensor<16x16xf32> loc(#loc571)
    %154 = stablehlo.broadcast_in_dim %cst_22, dims = [] : (tensor<f32>) -> tensor<16xf32> loc(#loc571)
    %155 = stablehlo.broadcast_in_dim %cst_22, dims = [] : (tensor<f32>) -> tensor<16x16xf32> loc(#loc571)
    %156 = stablehlo.broadcast_in_dim %cst_22, dims = [] : (tensor<f32>) -> tensor<33x16xf32> loc(#loc572)
    %157 = stablehlo.broadcast_in_dim %cst_22, dims = [] : (tensor<f32>) -> tensor<16x33xf32> loc(#loc572)
    %158 = stablehlo.broadcast_in_dim %cst_22, dims = [] : (tensor<f32>) -> tensor<1xf32> loc(#loc572)
    %159 = stablehlo.broadcast_in_dim %cst_22, dims = [] : (tensor<f32>) -> tensor<16x1xf32> loc(#loc572)
    %160 = stablehlo.broadcast_in_dim %cst_22, dims = [] : (tensor<f32>) -> tensor<16xf32> loc(#loc572)
    %161 = stablehlo.broadcast_in_dim %cst_22, dims = [] : (tensor<f32>) -> tensor<16x16xf32> loc(#loc572)
    %162 = stablehlo.broadcast_in_dim %cst_22, dims = [] : (tensor<f32>) -> tensor<16xf32> loc(#loc572)
    %163 = stablehlo.broadcast_in_dim %cst_22, dims = [] : (tensor<f32>) -> tensor<16x16xf32> loc(#loc572)
    %164 = stablehlo.broadcast_in_dim %cst_22, dims = [] : (tensor<f32>) -> tensor<16x16xf32> loc(#loc572)
    %165 = stablehlo.broadcast_in_dim %cst_22, dims = [] : (tensor<f32>) -> tensor<16x16xf32> loc(#loc572)
    %166 = stablehlo.broadcast_in_dim %cst_22, dims = [] : (tensor<f32>) -> tensor<16xf32> loc(#loc572)
    %167 = stablehlo.broadcast_in_dim %cst_22, dims = [] : (tensor<f32>) -> tensor<16x16xf32> loc(#loc572)
    %168 = stablehlo.broadcast_in_dim %cst_22, dims = [] : (tensor<f32>) -> tensor<16xf32> loc(#loc572)
    %169 = stablehlo.broadcast_in_dim %cst_22, dims = [] : (tensor<f32>) -> tensor<16x16xf32> loc(#loc572)
    %170 = stablehlo.broadcast_in_dim %cst_22, dims = [] : (tensor<f32>) -> tensor<16xf32> loc(#loc572)
    %171 = stablehlo.broadcast_in_dim %cst_22, dims = [] : (tensor<f32>) -> tensor<16x16xf32> loc(#loc572)
    return %c_26, %35, %36, %37, %38, %39, %40, %41, %42, %43, %21, %28, %29, %30, %31, %32, %33, %34, %44, %54, %131, %139, %137, %71, %69, %123, %121, %93, %107, %115, %113, %87, %85, %101, %99, %c_26, %140, %141, %142, %143, %144, %145, %146, %147, %148, %149, %150, %151, %152, %153, %154, %155, %156, %157, %158, %159, %160, %161, %162, %163, %164, %165, %166, %167, %168, %169, %170, %171 : tensor<i32>, tensor<16x5xi32>, tensor<16xi32>, tensor<16xf32>, tensor<16xi1>, tensor<16xi1>, tensor<16xf32>, tensor<16xf32>, tensor<16xf32>, tensor<16xf32>, tensor<16x5xi32>, tensor<16x5xi32>, tensor<16xi1>, tensor<16xi32>, tensor<16xi1>, tensor<16xi1>, tensor<16x5xi32>, tensor<16xi32>, tensor<16x16xf32>, tensor<33x16xf32>, tensor<16x33xf32>, tensor<1xf32>, tensor<16x1xf32>, tensor<16xf32>, tensor<16x16xf32>, tensor<16xf32>, tensor<16x16xf32>, tensor<16x16xf32>, tensor<16x16xf32>, tensor<16xf32>, tensor<16x16xf32>, tensor<16xf32>, tensor<16x16xf32>, tensor<16xf32>, tensor<16x16xf32>, tensor<i32>, tensor<33x16xf32>, tensor<16x33xf32>, tensor<1xf32>, tensor<16x1xf32>, tensor<16xf32>, tensor<16x16xf32>, tensor<16xf32>, tensor<16x16xf32>, tensor<16x16xf32>, tensor<16x16xf32>, tensor<16xf32>, tensor<16x16xf32>, tensor<16xf32>, tensor<16x16xf32>, tensor<16xf32>, tensor<16x16xf32>, tensor<33x16xf32>, tensor<16x33xf32>, tensor<1xf32>, tensor<16x1xf32>, tensor<16xf32>, tensor<16x16xf32>, tensor<16xf32>, tensor<16x16xf32>, tensor<16x16xf32>, tensor<16x16xf32>, tensor<16xf32>, tensor<16x16xf32>, tensor<16xf32>, tensor<16x16xf32>, tensor<16xf32>, tensor<16x16xf32> loc(#loc268)
  } loc(#loc)
  func.func private @_threefry_split(%arg0: tensor<2xui32> loc(unknown)) -> tensor<3x2xui32> {
    %c = stablehlo.constant dense<32> : tensor<ui64> loc(#loc257)
    %c_0 = stablehlo.constant dense<1> : tensor<ui64> loc(#loc257)
    %0 = stablehlo.slice %arg0 [0:1] : (tensor<2xui32>) -> tensor<1xui32> loc(#loc258)
    %1 = stablehlo.reshape %0 : (tensor<1xui32>) -> tensor<ui32> loc(#loc259)
    %2 = stablehlo.slice %arg0 [1:2] : (tensor<2xui32>) -> tensor<1xui32> loc(#loc258)
    %3 = stablehlo.reshape %2 : (tensor<1xui32>) -> tensor<ui32> loc(#loc259)
    %4 = stablehlo.iota dim = 0 : tensor<3xui64> loc(#loc257)
    %5 = stablehlo.broadcast_in_dim %c_0, dims = [] : (tensor<ui64>) -> tensor<3xui64> loc(#loc257)
    %6 = stablehlo.multiply %5, %4 : tensor<3xui64> loc(#loc257)
    %7 = stablehlo.broadcast_in_dim %c, dims = [] : (tensor<ui64>) -> tensor<3xui64> loc(#loc257)
    %8 = stablehlo.shift_right_logical %6, %7 : tensor<3xui64> loc(#loc257)
    %9 = stablehlo.convert %6 : (tensor<3xui64>) -> tensor<3xui32> loc(#loc257)
    %10 = stablehlo.convert %8 : (tensor<3xui64>) -> tensor<3xui32> loc(#loc257)
    %11:2 = call @threefry2x32(%1, %3, %10, %9) : (tensor<ui32>, tensor<ui32>, tensor<3xui32>, tensor<3xui32>) -> (tensor<3xui32>, tensor<3xui32>) loc(#loc152)
    %12 = stablehlo.broadcast_in_dim %11#0, dims = [0] : (tensor<3xui32>) -> tensor<3x1xui32> loc(#loc260)
    %13 = stablehlo.broadcast_in_dim %11#1, dims = [0] : (tensor<3xui32>) -> tensor<3x1xui32> loc(#loc260)
    %14 = stablehlo.concatenate %12, %13, dim = 1 : (tensor<3x1xui32>, tensor<3x1xui32>) -> tensor<3x2xui32> loc(#loc260)
    return %14 : tensor<3x2xui32> loc(#loc)
  } loc(#loc279)
  func.func private @threefry2x32(%arg0: tensor<ui32> loc("RecurrentPPO.init"(#loc4)), %arg1: tensor<ui32> loc("RecurrentPPO.init"(#loc4)), %arg2: tensor<3xui32> loc("RecurrentPPO.init"(#loc4)), %arg3: tensor<3xui32> loc("RecurrentPPO.init"(#loc4))) -> (tensor<3xui32>, tensor<3xui32>) {
    %c = stablehlo.constant dense<1> : tensor<i32> loc(#loc)
    %c_0 = stablehlo.constant dense<5> : tensor<i32> loc(#loc)
    %c_1 = stablehlo.constant dense<0> : tensor<i32> loc(#loc)
    %c_2 = stablehlo.constant dense<466688986> : tensor<ui32> loc(#loc233)
    %c_3 = stablehlo.constant dense<[13, 15, 26, 6]> : tensor<4xui32> loc(#loc233)
    %c_4 = stablehlo.constant dense<[17, 29, 16, 24]> : tensor<4xui32> loc(#loc233)
    %0 = stablehlo.xor %arg0, %arg1 : tensor<ui32> loc(#loc261)
    %1 = stablehlo.xor %0, %c_2 : tensor<ui32> loc(#loc261)
    %2 = stablehlo.broadcast_in_dim %arg0, dims = [] : (tensor<ui32>) -> tensor<3xui32> loc(#loc262)
    %3 = stablehlo.add %arg2, %2 : tensor<3xui32> loc(#loc262)
    %4 = stablehlo.broadcast_in_dim %arg1, dims = [] : (tensor<ui32>) -> tensor<3xui32> loc(#loc262)
    %5 = stablehlo.add %arg3, %4 : tensor<3xui32> loc(#loc262)
    %6:9 = stablehlo.while(%iterArg = %c_1, %iterArg_5 = %c_1, %iterArg_6 = %3, %iterArg_7 = %5, %iterArg_8 = %arg1, %iterArg_9 = %1, %iterArg_10 = %arg0, %iterArg_11 = %c_3, %iterArg_12 = %c_4) : tensor<i32>, tensor<i32>, tensor<3xui32>, tensor<3xui32>, tensor<ui32>, tensor<ui32>, tensor<ui32>, tensor<4xui32>, tensor<4xui32>
    cond {
      %7 = stablehlo.compare LT, %iterArg, %c_0, SIGNED : (tensor<i32>, tensor<i32>) -> tensor<i1> loc(#loc325)
      stablehlo.return %7 : tensor<i1> loc(#loc280)
    } do {
      %7:8 = func.call @closed_call(%iterArg_5, %iterArg_6, %iterArg_7, %iterArg_8, %iterArg_9, %iterArg_10, %iterArg_11, %iterArg_12) : (tensor<i32>, tensor<3xui32>, tensor<3xui32>, tensor<ui32>, tensor<ui32>, tensor<ui32>, tensor<4xui32>, tensor<4xui32>) -> (tensor<i32>, tensor<3xui32>, tensor<3xui32>, tensor<ui32>, tensor<ui32>, tensor<ui32>, tensor<4xui32>, tensor<4xui32>) loc(#loc326)
      %8 = stablehlo.add %iterArg, %c : tensor<i32> loc(#loc327)
      stablehlo.return %8, %7#0, %7#1, %7#2, %7#3, %7#4, %7#5, %7#6, %7#7 : tensor<i32>, tensor<i32>, tensor<3xui32>, tensor<3xui32>, tensor<ui32>, tensor<ui32>, tensor<ui32>, tensor<4xui32>, tensor<4xui32> loc(#loc280)
    } loc(#loc280)
    return %6#2, %6#3 : tensor<3xui32>, tensor<3xui32> loc(#loc152)
  } loc(#loc152)
  func.func private @closed_call(%arg0: tensor<i32> loc(unknown), %arg1: tensor<3xui32> loc(unknown), %arg2: tensor<3xui32> loc(unknown), %arg3: tensor<ui32> loc(unknown), %arg4: tensor<ui32> loc(unknown), %arg5: tensor<ui32> loc(unknown), %arg6: tensor<4xui32> loc(unknown), %arg7: tensor<4xui32> loc(unknown)) -> (tensor<i32>, tensor<3xui32>, tensor<3xui32>, tensor<ui32>, tensor<ui32>, tensor<ui32>, tensor<4xui32>, tensor<4xui32>) {
    %c = stablehlo.constant dense<32> : tensor<ui32> loc(#loc)
    %c_0 = stablehlo.constant dense<1> : tensor<i32> loc(#loc)
    %0 = stablehlo.add %arg0, %c_0 : tensor<i32> loc(#loc86)
    %1 = stablehlo.slice %arg6 [0:1] : (tensor<4xui32>) -> tensor<1xui32> loc(#loc87)
    %2 = stablehlo.reshape %1 : (tensor<1xui32>) -> tensor<ui32> loc(#loc88)
    %3 = stablehlo.add %arg1, %arg2 : tensor<3xui32> loc(#loc86)
    %4 = stablehlo.broadcast_in_dim %2, dims = [] : (tensor<ui32>) -> tensor<3xui32> loc(#loc89)
    %5 = stablehlo.shift_left %arg2, %4 : tensor<3xui32> loc(#loc89)
    %6 = stablehlo.subtract %c, %2 : tensor<ui32> loc(#loc90)
    %7 = stablehlo.broadcast_in_dim %6, dims = [] : (tensor<ui32>) -> tensor<3xui32> loc(#loc91)
    %8 = stablehlo.shift_right_logical %arg2, %7 : tensor<3xui32> loc(#loc91)
    %9 = stablehlo.or %5, %8 : tensor<3xui32> loc(#loc92)
    %10 = stablehlo.xor %3, %9 : tensor<3xui32> loc(#loc93)
    %11 = stablehlo.slice %arg6 [1:2] : (tensor<4xui32>) -> tensor<1xui32> loc(#loc87)
    %12 = stablehlo.reshape %11 : (tensor<1xui32>) -> tensor<ui32> loc(#loc88)
    %13 = stablehlo.add %3, %10 : tensor<3xui32> loc(#loc86)
    %14 = stablehlo.broadcast_in_dim %12, dims = [] : (tensor<ui32>) -> tensor<3xui32> loc(#loc89)
    %15 = stablehlo.shift_left %10, %14 : tensor<3xui32> loc(#loc89)
    %16 = stablehlo.subtract %c, %12 : tensor<ui32> loc(#loc90)
    %17 = stablehlo.broadcast_in_dim %16, dims = [] : (tensor<ui32>) -> tensor<3xui32> loc(#loc91)
    %18 = stablehlo.shift_right_logical %10, %17 : tensor<3xui32> loc(#loc91)
    %19 = stablehlo.or %15, %18 : tensor<3xui32> loc(#loc92)
    %20 = stablehlo.xor %13, %19 : tensor<3xui32> loc(#loc93)
    %21 = stablehlo.slice %arg6 [2:3] : (tensor<4xui32>) -> tensor<1xui32> loc(#loc87)
    %22 = stablehlo.reshape %21 : (tensor<1xui32>) -> tensor<ui32> loc(#loc88)
    %23 = stablehlo.add %13, %20 : tensor<3xui32> loc(#loc86)
    %24 = stablehlo.broadcast_in_dim %22, dims = [] : (tensor<ui32>) -> tensor<3xui32> loc(#loc89)
    %25 = stablehlo.shift_left %20, %24 : tensor<3xui32> loc(#loc89)
    %26 = stablehlo.subtract %c, %22 : tensor<ui32> loc(#loc90)
    %27 = stablehlo.broadcast_in_dim %26, dims = [] : (tensor<ui32>) -> tensor<3xui32> loc(#loc91)
    %28 = stablehlo.shift_right_logical %20, %27 : tensor<3xui32> loc(#loc91)
    %29 = stablehlo.or %25, %28 : tensor<3xui32> loc(#loc92)
    %30 = stablehlo.xor %23, %29 : tensor<3xui32> loc(#loc93)
    %31 = stablehlo.slice %arg6 [3:4] : (tensor<4xui32>) -> tensor<1xui32> loc(#loc87)
    %32 = stablehlo.reshape %31 : (tensor<1xui32>) -> tensor<ui32> loc(#loc88)
    %33 = stablehlo.add %23, %30 : tensor<3xui32> loc(#loc86)
    %34 = stablehlo.broadcast_in_dim %32, dims = [] : (tensor<ui32>) -> tensor<3xui32> loc(#loc89)
    %35 = stablehlo.shift_left %30, %34 : tensor<3xui32> loc(#loc89)
    %36 = stablehlo.subtract %c, %32 : tensor<ui32> loc(#loc90)
    %37 = stablehlo.broadcast_in_dim %36, dims = [] : (tensor<ui32>) -> tensor<3xui32> loc(#loc91)
    %38 = stablehlo.shift_right_logical %30, %37 : tensor<3xui32> loc(#loc91)
    %39 = stablehlo.or %35, %38 : tensor<3xui32> loc(#loc92)
    %40 = stablehlo.xor %33, %39 : tensor<3xui32> loc(#loc93)
    %41 = stablehlo.broadcast_in_dim %arg3, dims = [] : (tensor<ui32>) -> tensor<3xui32> loc(#loc86)
    %42 = stablehlo.add %33, %41 : tensor<3xui32> loc(#loc86)
    %43 = stablehlo.broadcast_in_dim %arg4, dims = [] : (tensor<ui32>) -> tensor<3xui32> loc(#loc86)
    %44 = stablehlo.add %40, %43 : tensor<3xui32> loc(#loc86)
    %45 = stablehlo.add %arg0, %c_0 : tensor<i32> loc(#loc86)
    %46 = stablehlo.convert %45 : (tensor<i32>) -> tensor<ui32> loc(#loc94)
    %47 = stablehlo.broadcast_in_dim %46, dims = [] : (tensor<ui32>) -> tensor<3xui32> loc(#loc86)
    %48 = stablehlo.add %44, %47 : tensor<3xui32> loc(#loc86)
    return %0, %42, %48, %arg4, %arg5, %arg3, %arg7, %arg6 : tensor<i32>, tensor<3xui32>, tensor<3xui32>, tensor<ui32>, tensor<ui32>, tensor<ui32>, tensor<4xui32>, tensor<4xui32> loc(#loc)
  } loc(#loc282)
  func.func private @_threefry_split_0(%arg0: tensor<2xui32> loc(unknown)) -> tensor<16x2xui32> {
    %c = stablehlo.constant dense<32> : tensor<ui64> loc(#loc284)
    %c_0 = stablehlo.constant dense<1> : tensor<ui64> loc(#loc284)
    %0 = stablehlo.slice %arg0 [0:1] : (tensor<2xui32>) -> tensor<1xui32> loc(#loc285)
    %1 = stablehlo.reshape %0 : (tensor<1xui32>) -> tensor<ui32> loc(#loc286)
    %2 = stablehlo.slice %arg0 [1:2] : (tensor<2xui32>) -> tensor<1xui32> loc(#loc285)
    %3 = stablehlo.reshape %2 : (tensor<1xui32>) -> tensor<ui32> loc(#loc286)
    %4 = stablehlo.iota dim = 0 : tensor<16xui64> loc(#loc284)
    %5 = stablehlo.broadcast_in_dim %c_0, dims = [] : (tensor<ui64>) -> tensor<16xui64> loc(#loc284)
    %6 = stablehlo.multiply %5, %4 : tensor<16xui64> loc(#loc284)
    %7 = stablehlo.broadcast_in_dim %c, dims = [] : (tensor<ui64>) -> tensor<16xui64> loc(#loc284)
    %8 = stablehlo.shift_right_logical %6, %7 : tensor<16xui64> loc(#loc284)
    %9 = stablehlo.convert %6 : (tensor<16xui64>) -> tensor<16xui32> loc(#loc284)
    %10 = stablehlo.convert %8 : (tensor<16xui64>) -> tensor<16xui32> loc(#loc284)
    %11:2 = call @threefry2x32_1(%1, %3, %10, %9) : (tensor<ui32>, tensor<ui32>, tensor<16xui32>, tensor<16xui32>) -> (tensor<16xui32>, tensor<16xui32>) loc(#loc265)
    %12 = stablehlo.broadcast_in_dim %11#0, dims = [0] : (tensor<16xui32>) -> tensor<16x1xui32> loc(#loc287)
    %13 = stablehlo.broadcast_in_dim %11#1, dims = [0] : (tensor<16xui32>) -> tensor<16x1xui32> loc(#loc287)
    %14 = stablehlo.concatenate %12, %13, dim = 1 : (tensor<16x1xui32>, tensor<16x1xui32>) -> tensor<16x2xui32> loc(#loc287)
    return %14 : tensor<16x2xui32> loc(#loc)
  } loc(#loc328)
  func.func private @threefry2x32_1(%arg0: tensor<ui32> loc(callsite(#loc234 at #loc235)), %arg1: tensor<ui32> loc(callsite(#loc234 at #loc235)), %arg2: tensor<16xui32> loc(callsite(#loc234 at #loc235)), %arg3: tensor<16xui32> loc(callsite(#loc234 at #loc235))) -> (tensor<16xui32>, tensor<16xui32>) {
    %c = stablehlo.constant dense<1> : tensor<i32> loc(#loc)
    %c_0 = stablehlo.constant dense<5> : tensor<i32> loc(#loc)
    %c_1 = stablehlo.constant dense<0> : tensor<i32> loc(#loc)
    %c_2 = stablehlo.constant dense<466688986> : tensor<ui32> loc(#loc233)
    %c_3 = stablehlo.constant dense<[13, 15, 26, 6]> : tensor<4xui32> loc(#loc233)
    %c_4 = stablehlo.constant dense<[17, 29, 16, 24]> : tensor<4xui32> loc(#loc233)
    %0 = stablehlo.xor %arg0, %arg1 : tensor<ui32> loc(#loc288)
    %1 = stablehlo.xor %0, %c_2 : tensor<ui32> loc(#loc288)
    %2 = stablehlo.broadcast_in_dim %arg0, dims = [] : (tensor<ui32>) -> tensor<16xui32> loc(#loc289)
    %3 = stablehlo.add %arg2, %2 : tensor<16xui32> loc(#loc289)
    %4 = stablehlo.broadcast_in_dim %arg1, dims = [] : (tensor<ui32>) -> tensor<16xui32> loc(#loc289)
    %5 = stablehlo.add %arg3, %4 : tensor<16xui32> loc(#loc289)
    %6:9 = stablehlo.while(%iterArg = %c_1, %iterArg_5 = %c_1, %iterArg_6 = %3, %iterArg_7 = %5, %iterArg_8 = %arg1, %iterArg_9 = %1, %iterArg_10 = %arg0, %iterArg_11 = %c_3, %iterArg_12 = %c_4) : tensor<i32>, tensor<i32>, tensor<16xui32>, tensor<16xui32>, tensor<ui32>, tensor<ui32>, tensor<ui32>, tensor<4xui32>, tensor<4xui32>
    cond {
      %7 = stablehlo.compare LT, %iterArg, %c_0, SIGNED : (tensor<i32>, tensor<i32>) -> tensor<i1> loc(#loc381)
      stablehlo.return %7 : tensor<i1> loc(#loc329)
    } do {
      %7:8 = func.call @closed_call_2(%iterArg_5, %iterArg_6, %iterArg_7, %iterArg_8, %iterArg_9, %iterArg_10, %iterArg_11, %iterArg_12) : (tensor<i32>, tensor<16xui32>, tensor<16xui32>, tensor<ui32>, tensor<ui32>, tensor<ui32>, tensor<4xui32>, tensor<4xui32>) -> (tensor<i32>, tensor<16xui32>, tensor<16xui32>, tensor<ui32>, tensor<ui32>, tensor<ui32>, tensor<4xui32>, tensor<4xui32>) loc(#loc382)
      %8 = stablehlo.add %iterArg, %c : tensor<i32> loc(#loc383)
      stablehlo.return %8, %7#0, %7#1, %7#2, %7#3, %7#4, %7#5, %7#6, %7#7 : tensor<i32>, tensor<i32>, tensor<16xui32>, tensor<16xui32>, tensor<ui32>, tensor<ui32>, tensor<ui32>, tensor<4xui32>, tensor<4xui32> loc(#loc329)
    } loc(#loc329)
    return %6#2, %6#3 : tensor<16xui32>, tensor<16xui32> loc(#loc265)
  } loc(#loc265)
  func.func private @closed_call_2(%arg0: tensor<i32> loc(unknown), %arg1: tensor<16xui32> loc(unknown), %arg2: tensor<16xui32> loc(unknown), %arg3: tensor<ui32> loc(unknown), %arg4: tensor<ui32> loc(unknown), %arg5: tensor<ui32> loc(unknown), %arg6: tensor<4xui32> loc(unknown), %arg7: tensor<4xui32> loc(unknown)) -> (tensor<i32>, tensor<16xui32>, tensor<16xui32>, tensor<ui32>, tensor<ui32>, tensor<ui32>, tensor<4xui32>, tensor<4xui32>) {
    %c = stablehlo.constant dense<32> : tensor<ui32> loc(#loc)
    %c_0 = stablehlo.constant dense<1> : tensor<i32> loc(#loc)
    %0 = stablehlo.add %arg0, %c_0 : tensor<i32> loc(#loc86)
    %1 = stablehlo.slice %arg6 [0:1] : (tensor<4xui32>) -> tensor<1xui32> loc(#loc87)
    %2 = stablehlo.reshape %1 : (tensor<1xui32>) -> tensor<ui32> loc(#loc88)
    %3 = stablehlo.add %arg1, %arg2 : tensor<16xui32> loc(#loc86)
    %4 = stablehlo.broadcast_in_dim %2, dims = [] : (tensor<ui32>) -> tensor<16xui32> loc(#loc89)
    %5 = stablehlo.shift_left %arg2, %4 : tensor<16xui32> loc(#loc89)
    %6 = stablehlo.subtract %c, %2 : tensor<ui32> loc(#loc90)
    %7 = stablehlo.broadcast_in_dim %6, dims = [] : (tensor<ui32>) -> tensor<16xui32> loc(#loc91)
    %8 = stablehlo.shift_right_logical %arg2, %7 : tensor<16xui32> loc(#loc91)
    %9 = stablehlo.or %5, %8 : tensor<16xui32> loc(#loc92)
    %10 = stablehlo.xor %3, %9 : tensor<16xui32> loc(#loc93)
    %11 = stablehlo.slice %arg6 [1:2] : (tensor<4xui32>) -> tensor<1xui32> loc(#loc87)
    %12 = stablehlo.reshape %11 : (tensor<1xui32>) -> tensor<ui32> loc(#loc88)
    %13 = stablehlo.add %3, %10 : tensor<16xui32> loc(#loc86)
    %14 = stablehlo.broadcast_in_dim %12, dims = [] : (tensor<ui32>) -> tensor<16xui32> loc(#loc89)
    %15 = stablehlo.shift_left %10, %14 : tensor<16xui32> loc(#loc89)
    %16 = stablehlo.subtract %c, %12 : tensor<ui32> loc(#loc90)
    %17 = stablehlo.broadcast_in_dim %16, dims = [] : (tensor<ui32>) -> tensor<16xui32> loc(#loc91)
    %18 = stablehlo.shift_right_logical %10, %17 : tensor<16xui32> loc(#loc91)
    %19 = stablehlo.or %15, %18 : tensor<16xui32> loc(#loc92)
    %20 = stablehlo.xor %13, %19 : tensor<16xui32> loc(#loc93)
    %21 = stablehlo.slice %arg6 [2:3] : (tensor<4xui32>) -> tensor<1xui32> loc(#loc87)
    %22 = stablehlo.reshape %21 : (tensor<1xui32>) -> tensor<ui32> loc(#loc88)
    %23 = stablehlo.add %13, %20 : tensor<16xui32> loc(#loc86)
    %24 = stablehlo.broadcast_in_dim %22, dims = [] : (tensor<ui32>) -> tensor<16xui32> loc(#loc89)
    %25 = stablehlo.shift_left %20, %24 : tensor<16xui32> loc(#loc89)
    %26 = stablehlo.subtract %c, %22 : tensor<ui32> loc(#loc90)
    %27 = stablehlo.broadcast_in_dim %26, dims = [] : (tensor<ui32>) -> tensor<16xui32> loc(#loc91)
    %28 = stablehlo.shift_right_logical %20, %27 : tensor<16xui32> loc(#loc91)
    %29 = stablehlo.or %25, %28 : tensor<16xui32> loc(#loc92)
    %30 = stablehlo.xor %23, %29 : tensor<16xui32> loc(#loc93)
    %31 = stablehlo.slice %arg6 [3:4] : (tensor<4xui32>) -> tensor<1xui32> loc(#loc87)
    %32 = stablehlo.reshape %31 : (tensor<1xui32>) -> tensor<ui32> loc(#loc88)
    %33 = stablehlo.add %23, %30 : tensor<16xui32> loc(#loc86)
    %34 = stablehlo.broadcast_in_dim %32, dims = [] : (tensor<ui32>) -> tensor<16xui32> loc(#loc89)
    %35 = stablehlo.shift_left %30, %34 : tensor<16xui32> loc(#loc89)
    %36 = stablehlo.subtract %c, %32 : tensor<ui32> loc(#loc90)
    %37 = stablehlo.broadcast_in_dim %36, dims = [] : (tensor<ui32>) -> tensor<16xui32> loc(#loc91)
    %38 = stablehlo.shift_right_logical %30, %37 : tensor<16xui32> loc(#loc91)
    %39 = stablehlo.or %35, %38 : tensor<16xui32> loc(#loc92)
    %40 = stablehlo.xor %33, %39 : tensor<16xui32> loc(#loc93)
    %41 = stablehlo.broadcast_in_dim %arg3, dims = [] : (tensor<ui32>) -> tensor<16xui32> loc(#loc86)
    %42 = stablehlo.add %33, %41 : tensor<16xui32> loc(#loc86)
    %43 = stablehlo.broadcast_in_dim %arg4, dims = [] : (tensor<ui32>) -> tensor<16xui32> loc(#loc86)
    %44 = stablehlo.add %40, %43 : tensor<16xui32> loc(#loc86)
    %45 = stablehlo.add %arg0, %c_0 : tensor<i32> loc(#loc86)
    %46 = stablehlo.convert %45 : (tensor<i32>) -> tensor<ui32> loc(#loc94)
    %47 = stablehlo.broadcast_in_dim %46, dims = [] : (tensor<ui32>) -> tensor<16xui32> loc(#loc86)
    %48 = stablehlo.add %44, %47 : tensor<16xui32> loc(#loc86)
    return %0, %42, %48, %arg4, %arg5, %arg3, %arg7, %arg6 : tensor<i32>, tensor<16xui32>, tensor<16xui32>, tensor<ui32>, tensor<ui32>, tensor<ui32>, tensor<4xui32>, tensor<4xui32> loc(#loc)
  } loc(#loc331)
  func.func private @_randint(%arg0: tensor<16x2xui32> loc(unknown), %arg1: tensor<i32> loc(unknown), %arg2: tensor<i32> loc(unknown)) -> tensor<16xi32> {
    %c = stablehlo.constant dense<65536> : tensor<ui32> loc(#loc)
    %c_0 = stablehlo.constant dense<1> : tensor<ui32> loc(#loc)
    %c_1 = stablehlo.constant dense<0> : tensor<ui32> loc(#loc)
    %c_2 = stablehlo.constant dense<2147483647> : tensor<i32> loc(#loc)
    %c_3 = stablehlo.constant dense<-2147483648> : tensor<i32> loc(#loc)
    %0 = call @clip(%c_2, %c_3, %c_2) : (tensor<i32>, tensor<i32>, tensor<i32>) -> tensor<i32> loc(#loc97)
    %1 = stablehlo.compare GT, %arg2, %0, SIGNED : (tensor<i32>, tensor<i32>) -> tensor<i1> loc(#loc98)
    %2 = call @clip_3(%arg1, %c_3, %c_2) : (tensor<i32>, tensor<i32>, tensor<i32>) -> tensor<i32> loc(#loc97)
    %3 = stablehlo.convert %2 : tensor<i32> loc(#loc94)
    %4 = call @clip_3(%arg2, %c_3, %c_2) : (tensor<i32>, tensor<i32>, tensor<i32>) -> tensor<i32> loc(#loc97)
    %5 = stablehlo.convert %4 : tensor<i32> loc(#loc94)
    %6 = call @_threefry_split_4(%arg0) : (tensor<16x2xui32>) -> tensor<16x2x2xui32> loc(#loc99)
    %7 = stablehlo.slice %6 [0:16, 0:1, 0:2] : (tensor<16x2x2xui32>) -> tensor<16x1x2xui32> loc(#loc87)
    %8 = stablehlo.reshape %7 : (tensor<16x1x2xui32>) -> tensor<16x2xui32> loc(#loc88)
    %9 = stablehlo.slice %6 [0:16, 1:2, 0:2] : (tensor<16x2x2xui32>) -> tensor<16x1x2xui32> loc(#loc87)
    %10 = stablehlo.reshape %9 : (tensor<16x1x2xui32>) -> tensor<16x2xui32> loc(#loc88)
    %11 = stablehlo.slice %8 [0:16, 0:1] : (tensor<16x2xui32>) -> tensor<16x1xui32> loc(#loc100)
    %12 = stablehlo.reshape %11 : (tensor<16x1xui32>) -> tensor<16xui32> loc(#loc101)
    %13 = stablehlo.slice %8 [0:16, 1:2] : (tensor<16x2xui32>) -> tensor<16x1xui32> loc(#loc100)
    %14 = stablehlo.reshape %13 : (tensor<16x1xui32>) -> tensor<16xui32> loc(#loc101)
    %15:2 = call @threefry2x32_7(%12, %14, %c_1, %c_1) : (tensor<16xui32>, tensor<16xui32>, tensor<ui32>, tensor<ui32>) -> (tensor<16xui32>, tensor<16xui32>) loc(#loc102)
    %16 = stablehlo.xor %15#0, %15#1 : tensor<16xui32> loc(#loc103)
    %17 = stablehlo.slice %10 [0:16, 0:1] : (tensor<16x2xui32>) -> tensor<16x1xui32> loc(#loc100)
    %18 = stablehlo.reshape %17 : (tensor<16x1xui32>) -> tensor<16xui32> loc(#loc101)
    %19 = stablehlo.slice %10 [0:16, 1:2] : (tensor<16x2xui32>) -> tensor<16x1xui32> loc(#loc100)
    %20 = stablehlo.reshape %19 : (tensor<16x1xui32>) -> tensor<16xui32> loc(#loc101)
    %21:2 = call @threefry2x32_7(%18, %20, %c_1, %c_1) : (tensor<16xui32>, tensor<16xui32>, tensor<ui32>, tensor<ui32>) -> (tensor<16xui32>, tensor<16xui32>) loc(#loc102)
    %22 = stablehlo.xor %21#0, %21#1 : tensor<16xui32> loc(#loc103)
    %23 = stablehlo.subtract %5, %3 : tensor<i32> loc(#loc90)
    %24 = stablehlo.convert %23 : (tensor<i32>) -> tensor<ui32> loc(#loc94)
    %25 = stablehlo.compare LE, %5, %3, SIGNED : (tensor<i32>, tensor<i32>) -> tensor<i1> loc(#loc104)
    %26 = stablehlo.select %25, %c_0, %24 : tensor<i1>, tensor<ui32> loc(#loc105)
    %27 = stablehlo.compare GT, %5, %3, SIGNED : (tensor<i32>, tensor<i32>) -> tensor<i1> loc(#loc98)
    %28 = stablehlo.and %1, %27 : tensor<i1> loc(#loc106)
    %29 = stablehlo.add %26, %c_0 : tensor<ui32> loc(#loc86)
    %30 = stablehlo.select %28, %29, %26 : tensor<i1>, tensor<ui32> loc(#loc105)
    %31 = stablehlo.remainder %c, %30 : tensor<ui32> loc(#loc107)
    %32 = stablehlo.multiply %31, %31 : tensor<ui32> loc(#loc108)
    %33 = stablehlo.remainder %32, %30 : tensor<ui32> loc(#loc107)
    %34 = stablehlo.broadcast_in_dim %30, dims = [] : (tensor<ui32>) -> tensor<16xui32> loc(#loc107)
    %35 = stablehlo.remainder %16, %34 : tensor<16xui32> loc(#loc107)
    %36 = stablehlo.broadcast_in_dim %33, dims = [] : (tensor<ui32>) -> tensor<16xui32> loc(#loc108)
    %37 = stablehlo.multiply %35, %36 : tensor<16xui32> loc(#loc108)
    %38 = stablehlo.broadcast_in_dim %30, dims = [] : (tensor<ui32>) -> tensor<16xui32> loc(#loc107)
    %39 = stablehlo.remainder %22, %38 : tensor<16xui32> loc(#loc107)
    %40 = stablehlo.add %37, %39 : tensor<16xui32> loc(#loc86)
    %41 = stablehlo.broadcast_in_dim %30, dims = [] : (tensor<ui32>) -> tensor<16xui32> loc(#loc107)
    %42 = stablehlo.remainder %40, %41 : tensor<16xui32> loc(#loc107)
    %43 = stablehlo.convert %42 : (tensor<16xui32>) -> tensor<16xi32> loc(#loc94)
    %44 = stablehlo.broadcast_in_dim %3, dims = [] : (tensor<i32>) -> tensor<16xi32> loc(#loc86)
    %45 = stablehlo.add %44, %43 : tensor<16xi32> loc(#loc86)
    return %45 : tensor<16xi32> loc(#loc)
  } loc(#loc533)
  func.func private @clip(%arg0: tensor<i32> loc(unknown), %arg1: tensor<i32> loc(unknown), %arg2: tensor<i32> loc(unknown)) -> tensor<i32> {
    %0 = stablehlo.maximum %arg1, %arg0 : tensor<i32> loc(#loc110)
    %1 = stablehlo.minimum %arg2, %0 : tensor<i32> loc(#loc111)
    return %1 : tensor<i32> loc(#loc)
  } loc(#loc236)
  func.func private @clip_3(%arg0: tensor<i32> loc(unknown), %arg1: tensor<i32> loc(unknown), %arg2: tensor<i32> loc(unknown)) -> tensor<i32> {
    %0 = stablehlo.maximum %arg1, %arg0 : tensor<i32> loc(#loc110)
    %1 = stablehlo.minimum %arg2, %0 : tensor<i32> loc(#loc111)
    return %1 : tensor<i32> loc(#loc)
  } loc(#loc236)
  func.func private @_threefry_split_4(%arg0: tensor<16x2xui32> loc(unknown)) -> tensor<16x2x2xui32> {
    %c = stablehlo.constant dense<32> : tensor<ui64> loc(#loc113)
    %c_0 = stablehlo.constant dense<1> : tensor<ui64> loc(#loc113)
    %0 = stablehlo.slice %arg0 [0:16, 0:1] : (tensor<16x2xui32>) -> tensor<16x1xui32> loc(#loc87)
    %1 = stablehlo.reshape %0 : (tensor<16x1xui32>) -> tensor<16xui32> loc(#loc88)
    %2 = stablehlo.slice %arg0 [0:16, 1:2] : (tensor<16x2xui32>) -> tensor<16x1xui32> loc(#loc87)
    %3 = stablehlo.reshape %2 : (tensor<16x1xui32>) -> tensor<16xui32> loc(#loc88)
    %4 = stablehlo.iota dim = 0 : tensor<2xui64> loc(#loc113)
    %5 = stablehlo.broadcast_in_dim %c_0, dims = [] : (tensor<ui64>) -> tensor<2xui64> loc(#loc113)
    %6 = stablehlo.multiply %5, %4 : tensor<2xui64> loc(#loc113)
    %7 = stablehlo.broadcast_in_dim %c, dims = [] : (tensor<ui64>) -> tensor<2xui64> loc(#loc113)
    %8 = stablehlo.shift_right_logical %6, %7 : tensor<2xui64> loc(#loc113)
    %9 = stablehlo.convert %6 : (tensor<2xui64>) -> tensor<2xui32> loc(#loc113)
    %10 = stablehlo.convert %8 : (tensor<2xui64>) -> tensor<2xui32> loc(#loc113)
    %11 = stablehlo.broadcast_in_dim %10, dims = [1] : (tensor<2xui32>) -> tensor<1x2xui32> loc(#loc114)
    %12 = stablehlo.broadcast_in_dim %9, dims = [1] : (tensor<2xui32>) -> tensor<1x2xui32> loc(#loc114)
    %13 = stablehlo.broadcast_in_dim %1, dims = [0] : (tensor<16xui32>) -> tensor<16x1xui32> loc(#loc114)
    %14 = stablehlo.broadcast_in_dim %3, dims = [0] : (tensor<16xui32>) -> tensor<16x1xui32> loc(#loc114)
    %15:2 = call @threefry2x32_5(%13, %14, %11, %12) : (tensor<16x1xui32>, tensor<16x1xui32>, tensor<1x2xui32>, tensor<1x2xui32>) -> (tensor<16x2xui32>, tensor<16x2xui32>) loc(#loc)
    %16 = stablehlo.broadcast_in_dim %15#0, dims = [0, 1] : (tensor<16x2xui32>) -> tensor<16x2x1xui32> loc(#loc115)
    %17 = stablehlo.broadcast_in_dim %15#1, dims = [0, 1] : (tensor<16x2xui32>) -> tensor<16x2x1xui32> loc(#loc115)
    %18 = stablehlo.concatenate %16, %17, dim = 2 : (tensor<16x2x1xui32>, tensor<16x2x1xui32>) -> tensor<16x2x2xui32> loc(#loc115)
    return %18 : tensor<16x2x2xui32> loc(#loc)
  } loc(#loc237)
  func.func private @threefry2x32_5(%arg0: tensor<16x1xui32> loc(unknown), %arg1: tensor<16x1xui32> loc(unknown), %arg2: tensor<1x2xui32> loc(unknown), %arg3: tensor<1x2xui32> loc(unknown)) -> (tensor<16x2xui32>, tensor<16x2xui32>) {
    %c = stablehlo.constant dense<1> : tensor<i32> loc(#loc)
    %c_0 = stablehlo.constant dense<5> : tensor<i32> loc(#loc)
    %c_1 = stablehlo.constant dense<0> : tensor<i32> loc(#loc)
    %c_2 = stablehlo.constant dense<466688986> : tensor<ui32> loc(#loc233)
    %c_3 = stablehlo.constant dense<[13, 15, 26, 6]> : tensor<4xui32> loc(#loc233)
    %c_4 = stablehlo.constant dense<[17, 29, 16, 24]> : tensor<4xui32> loc(#loc233)
    %0 = stablehlo.xor %arg0, %arg1 : tensor<16x1xui32> loc(#loc93)
    %1 = stablehlo.broadcast_in_dim %c_2, dims = [] : (tensor<ui32>) -> tensor<16x1xui32> loc(#loc93)
    %2 = stablehlo.xor %0, %1 : tensor<16x1xui32> loc(#loc93)
    %3 = stablehlo.broadcast_in_dim %arg2, dims = [0, 1] : (tensor<1x2xui32>) -> tensor<16x2xui32> loc(#loc86)
    %4 = stablehlo.broadcast_in_dim %arg0, dims = [0, 1] : (tensor<16x1xui32>) -> tensor<16x2xui32> loc(#loc86)
    %5 = stablehlo.add %3, %4 : tensor<16x2xui32> loc(#loc86)
    %6 = stablehlo.broadcast_in_dim %arg3, dims = [0, 1] : (tensor<1x2xui32>) -> tensor<16x2xui32> loc(#loc86)
    %7 = stablehlo.broadcast_in_dim %arg1, dims = [0, 1] : (tensor<16x1xui32>) -> tensor<16x2xui32> loc(#loc86)
    %8 = stablehlo.add %6, %7 : tensor<16x2xui32> loc(#loc86)
    %9:9 = stablehlo.while(%iterArg = %c_1, %iterArg_5 = %c_1, %iterArg_6 = %5, %iterArg_7 = %8, %iterArg_8 = %arg1, %iterArg_9 = %2, %iterArg_10 = %arg0, %iterArg_11 = %c_3, %iterArg_12 = %c_4) : tensor<i32>, tensor<i32>, tensor<16x2xui32>, tensor<16x2xui32>, tensor<16x1xui32>, tensor<16x1xui32>, tensor<16x1xui32>, tensor<4xui32>, tensor<4xui32>
    cond {
      %10 = stablehlo.compare LT, %iterArg, %c_0, SIGNED : (tensor<i32>, tensor<i32>) -> tensor<i1> loc(#loc117)
      stablehlo.return %10 : tensor<i1> loc(#loc116)
    } do {
      %10:8 = func.call @closed_call_6(%iterArg_5, %iterArg_6, %iterArg_7, %iterArg_8, %iterArg_9, %iterArg_10, %iterArg_11, %iterArg_12) : (tensor<i32>, tensor<16x2xui32>, tensor<16x2xui32>, tensor<16x1xui32>, tensor<16x1xui32>, tensor<16x1xui32>, tensor<4xui32>, tensor<4xui32>) -> (tensor<i32>, tensor<16x2xui32>, tensor<16x2xui32>, tensor<16x1xui32>, tensor<16x1xui32>, tensor<16x1xui32>, tensor<4xui32>, tensor<4xui32>) loc(#loc118)
      %11 = stablehlo.add %iterArg, %c : tensor<i32> loc(#loc119)
      stablehlo.return %11, %10#0, %10#1, %10#2, %10#3, %10#4, %10#5, %10#6, %10#7 : tensor<i32>, tensor<i32>, tensor<16x2xui32>, tensor<16x2xui32>, tensor<16x1xui32>, tensor<16x1xui32>, tensor<16x1xui32>, tensor<4xui32>, tensor<4xui32> loc(#loc116)
    } loc(#loc116)
    return %9#2, %9#3 : tensor<16x2xui32>, tensor<16x2xui32> loc(#loc)
  } loc(#loc)
  func.func private @closed_call_6(%arg0: tensor<i32> loc(unknown), %arg1: tensor<16x2xui32> loc(unknown), %arg2: tensor<16x2xui32> loc(unknown), %arg3: tensor<16x1xui32> loc(unknown), %arg4: tensor<16x1xui32> loc(unknown), %arg5: tensor<16x1xui32> loc(unknown), %arg6: tensor<4xui32> loc(unknown), %arg7: tensor<4xui32> loc(unknown)) -> (tensor<i32>, tensor<16x2xui32>, tensor<16x2xui32>, tensor<16x1xui32>, tensor<16x1xui32>, tensor<16x1xui32>, tensor<4xui32>, tensor<4xui32>) {
    %c = stablehlo.constant dense<32> : tensor<ui32> loc(#loc)
    %c_0 = stablehlo.constant dense<1> : tensor<i32> loc(#loc)
    %0 = stablehlo.add %arg0, %c_0 : tensor<i32> loc(#loc86)
    %1 = stablehlo.slice %arg6 [0:1] : (tensor<4xui32>) -> tensor<1xui32> loc(#loc87)
    %2 = stablehlo.reshape %1 : (tensor<1xui32>) -> tensor<ui32> loc(#loc88)
    %3 = stablehlo.add %arg1, %arg2 : tensor<16x2xui32> loc(#loc86)
    %4 = stablehlo.broadcast_in_dim %2, dims = [] : (tensor<ui32>) -> tensor<16x2xui32> loc(#loc89)
    %5 = stablehlo.shift_left %arg2, %4 : tensor<16x2xui32> loc(#loc89)
    %6 = stablehlo.subtract %c, %2 : tensor<ui32> loc(#loc90)
    %7 = stablehlo.broadcast_in_dim %6, dims = [] : (tensor<ui32>) -> tensor<16x2xui32> loc(#loc91)
    %8 = stablehlo.shift_right_logical %arg2, %7 : tensor<16x2xui32> loc(#loc91)
    %9 = stablehlo.or %5, %8 : tensor<16x2xui32> loc(#loc92)
    %10 = stablehlo.xor %3, %9 : tensor<16x2xui32> loc(#loc93)
    %11 = stablehlo.slice %arg6 [1:2] : (tensor<4xui32>) -> tensor<1xui32> loc(#loc87)
    %12 = stablehlo.reshape %11 : (tensor<1xui32>) -> tensor<ui32> loc(#loc88)
    %13 = stablehlo.add %3, %10 : tensor<16x2xui32> loc(#loc86)
    %14 = stablehlo.broadcast_in_dim %12, dims = [] : (tensor<ui32>) -> tensor<16x2xui32> loc(#loc89)
    %15 = stablehlo.shift_left %10, %14 : tensor<16x2xui32> loc(#loc89)
    %16 = stablehlo.subtract %c, %12 : tensor<ui32> loc(#loc90)
    %17 = stablehlo.broadcast_in_dim %16, dims = [] : (tensor<ui32>) -> tensor<16x2xui32> loc(#loc91)
    %18 = stablehlo.shift_right_logical %10, %17 : tensor<16x2xui32> loc(#loc91)
    %19 = stablehlo.or %15, %18 : tensor<16x2xui32> loc(#loc92)
    %20 = stablehlo.xor %13, %19 : tensor<16x2xui32> loc(#loc93)
    %21 = stablehlo.slice %arg6 [2:3] : (tensor<4xui32>) -> tensor<1xui32> loc(#loc87)
    %22 = stablehlo.reshape %21 : (tensor<1xui32>) -> tensor<ui32> loc(#loc88)
    %23 = stablehlo.add %13, %20 : tensor<16x2xui32> loc(#loc86)
    %24 = stablehlo.broadcast_in_dim %22, dims = [] : (tensor<ui32>) -> tensor<16x2xui32> loc(#loc89)
    %25 = stablehlo.shift_left %20, %24 : tensor<16x2xui32> loc(#loc89)
    %26 = stablehlo.subtract %c, %22 : tensor<ui32> loc(#loc90)
    %27 = stablehlo.broadcast_in_dim %26, dims = [] : (tensor<ui32>) -> tensor<16x2xui32> loc(#loc91)
    %28 = stablehlo.shift_right_logical %20, %27 : tensor<16x2xui32> loc(#loc91)
    %29 = stablehlo.or %25, %28 : tensor<16x2xui32> loc(#loc92)
    %30 = stablehlo.xor %23, %29 : tensor<16x2xui32> loc(#loc93)
    %31 = stablehlo.slice %arg6 [3:4] : (tensor<4xui32>) -> tensor<1xui32> loc(#loc87)
    %32 = stablehlo.reshape %31 : (tensor<1xui32>) -> tensor<ui32> loc(#loc88)
    %33 = stablehlo.add %23, %30 : tensor<16x2xui32> loc(#loc86)
    %34 = stablehlo.broadcast_in_dim %32, dims = [] : (tensor<ui32>) -> tensor<16x2xui32> loc(#loc89)
    %35 = stablehlo.shift_left %30, %34 : tensor<16x2xui32> loc(#loc89)
    %36 = stablehlo.subtract %c, %32 : tensor<ui32> loc(#loc90)
    %37 = stablehlo.broadcast_in_dim %36, dims = [] : (tensor<ui32>) -> tensor<16x2xui32> loc(#loc91)
    %38 = stablehlo.shift_right_logical %30, %37 : tensor<16x2xui32> loc(#loc91)
    %39 = stablehlo.or %35, %38 : tensor<16x2xui32> loc(#loc92)
    %40 = stablehlo.xor %33, %39 : tensor<16x2xui32> loc(#loc93)
    %41 = stablehlo.broadcast_in_dim %arg3, dims = [0, 1] : (tensor<16x1xui32>) -> tensor<16x2xui32> loc(#loc86)
    %42 = stablehlo.add %33, %41 : tensor<16x2xui32> loc(#loc86)
    %43 = stablehlo.broadcast_in_dim %arg4, dims = [0, 1] : (tensor<16x1xui32>) -> tensor<16x2xui32> loc(#loc86)
    %44 = stablehlo.add %40, %43 : tensor<16x2xui32> loc(#loc86)
    %45 = stablehlo.add %arg0, %c_0 : tensor<i32> loc(#loc86)
    %46 = stablehlo.convert %45 : (tensor<i32>) -> tensor<ui32> loc(#loc94)
    %47 = stablehlo.broadcast_in_dim %46, dims = [] : (tensor<ui32>) -> tensor<16x2xui32> loc(#loc86)
    %48 = stablehlo.add %44, %47 : tensor<16x2xui32> loc(#loc86)
    return %0, %42, %48, %arg4, %arg5, %arg3, %arg7, %arg6 : tensor<i32>, tensor<16x2xui32>, tensor<16x2xui32>, tensor<16x1xui32>, tensor<16x1xui32>, tensor<16x1xui32>, tensor<4xui32>, tensor<4xui32> loc(#loc)
  } loc(#loc238)
  func.func private @threefry2x32_7(%arg0: tensor<16xui32> loc("vmap()"), %arg1: tensor<16xui32> loc("vmap()"), %arg2: tensor<ui32> loc("vmap()"), %arg3: tensor<ui32> loc("vmap()")) -> (tensor<16xui32>, tensor<16xui32>) {
    %c = stablehlo.constant dense<1> : tensor<i32> loc(#loc)
    %c_0 = stablehlo.constant dense<5> : tensor<i32> loc(#loc)
    %c_1 = stablehlo.constant dense<0> : tensor<i32> loc(#loc)
    %c_2 = stablehlo.constant dense<466688986> : tensor<ui32> loc(#loc233)
    %c_3 = stablehlo.constant dense<[13, 15, 26, 6]> : tensor<4xui32> loc(#loc233)
    %c_4 = stablehlo.constant dense<[17, 29, 16, 24]> : tensor<4xui32> loc(#loc233)
    %0 = stablehlo.xor %arg0, %arg1 : tensor<16xui32> loc(#loc93)
    %1 = stablehlo.broadcast_in_dim %c_2, dims = [] : (tensor<ui32>) -> tensor<16xui32> loc(#loc93)
    %2 = stablehlo.xor %0, %1 : tensor<16xui32> loc(#loc93)
    %3 = stablehlo.broadcast_in_dim %arg2, dims = [] : (tensor<ui32>) -> tensor<16xui32> loc(#loc86)
    %4 = stablehlo.add %3, %arg0 : tensor<16xui32> loc(#loc86)
    %5 = stablehlo.broadcast_in_dim %arg3, dims = [] : (tensor<ui32>) -> tensor<16xui32> loc(#loc86)
    %6 = stablehlo.add %5, %arg1 : tensor<16xui32> loc(#loc86)
    %7:9 = stablehlo.while(%iterArg = %c_1, %iterArg_5 = %c_1, %iterArg_6 = %4, %iterArg_7 = %6, %iterArg_8 = %arg1, %iterArg_9 = %2, %iterArg_10 = %arg0, %iterArg_11 = %c_3, %iterArg_12 = %c_4) : tensor<i32>, tensor<i32>, tensor<16xui32>, tensor<16xui32>, tensor<16xui32>, tensor<16xui32>, tensor<16xui32>, tensor<4xui32>, tensor<4xui32>
    cond {
      %8 = stablehlo.compare LT, %iterArg, %c_0, SIGNED : (tensor<i32>, tensor<i32>) -> tensor<i1> loc(#loc117)
      stablehlo.return %8 : tensor<i1> loc(#loc116)
    } do {
      %8:8 = func.call @closed_call_8(%iterArg_5, %iterArg_6, %iterArg_7, %iterArg_8, %iterArg_9, %iterArg_10, %iterArg_11, %iterArg_12) : (tensor<i32>, tensor<16xui32>, tensor<16xui32>, tensor<16xui32>, tensor<16xui32>, tensor<16xui32>, tensor<4xui32>, tensor<4xui32>) -> (tensor<i32>, tensor<16xui32>, tensor<16xui32>, tensor<16xui32>, tensor<16xui32>, tensor<16xui32>, tensor<4xui32>, tensor<4xui32>) loc(#loc118)
      %9 = stablehlo.add %iterArg, %c : tensor<i32> loc(#loc119)
      stablehlo.return %9, %8#0, %8#1, %8#2, %8#3, %8#4, %8#5, %8#6, %8#7 : tensor<i32>, tensor<i32>, tensor<16xui32>, tensor<16xui32>, tensor<16xui32>, tensor<16xui32>, tensor<16xui32>, tensor<4xui32>, tensor<4xui32> loc(#loc116)
    } loc(#loc116)
    return %7#2, %7#3 : tensor<16xui32>, tensor<16xui32> loc(#loc102)
  } loc(#loc102)
  func.func private @closed_call_8(%arg0: tensor<i32> loc(unknown), %arg1: tensor<16xui32> loc(unknown), %arg2: tensor<16xui32> loc(unknown), %arg3: tensor<16xui32> loc(unknown), %arg4: tensor<16xui32> loc(unknown), %arg5: tensor<16xui32> loc(unknown), %arg6: tensor<4xui32> loc(unknown), %arg7: tensor<4xui32> loc(unknown)) -> (tensor<i32>, tensor<16xui32>, tensor<16xui32>, tensor<16xui32>, tensor<16xui32>, tensor<16xui32>, tensor<4xui32>, tensor<4xui32>) {
    %c = stablehlo.constant dense<32> : tensor<ui32> loc(#loc)
    %c_0 = stablehlo.constant dense<1> : tensor<i32> loc(#loc)
    %0 = stablehlo.add %arg0, %c_0 : tensor<i32> loc(#loc86)
    %1 = stablehlo.slice %arg6 [0:1] : (tensor<4xui32>) -> tensor<1xui32> loc(#loc87)
    %2 = stablehlo.reshape %1 : (tensor<1xui32>) -> tensor<ui32> loc(#loc88)
    %3 = stablehlo.add %arg1, %arg2 : tensor<16xui32> loc(#loc86)
    %4 = stablehlo.broadcast_in_dim %2, dims = [] : (tensor<ui32>) -> tensor<16xui32> loc(#loc89)
    %5 = stablehlo.shift_left %arg2, %4 : tensor<16xui32> loc(#loc89)
    %6 = stablehlo.subtract %c, %2 : tensor<ui32> loc(#loc90)
    %7 = stablehlo.broadcast_in_dim %6, dims = [] : (tensor<ui32>) -> tensor<16xui32> loc(#loc91)
    %8 = stablehlo.shift_right_logical %arg2, %7 : tensor<16xui32> loc(#loc91)
    %9 = stablehlo.or %5, %8 : tensor<16xui32> loc(#loc92)
    %10 = stablehlo.xor %3, %9 : tensor<16xui32> loc(#loc93)
    %11 = stablehlo.slice %arg6 [1:2] : (tensor<4xui32>) -> tensor<1xui32> loc(#loc87)
    %12 = stablehlo.reshape %11 : (tensor<1xui32>) -> tensor<ui32> loc(#loc88)
    %13 = stablehlo.add %3, %10 : tensor<16xui32> loc(#loc86)
    %14 = stablehlo.broadcast_in_dim %12, dims = [] : (tensor<ui32>) -> tensor<16xui32> loc(#loc89)
    %15 = stablehlo.shift_left %10, %14 : tensor<16xui32> loc(#loc89)
    %16 = stablehlo.subtract %c, %12 : tensor<ui32> loc(#loc90)
    %17 = stablehlo.broadcast_in_dim %16, dims = [] : (tensor<ui32>) -> tensor<16xui32> loc(#loc91)
    %18 = stablehlo.shift_right_logical %10, %17 : tensor<16xui32> loc(#loc91)
    %19 = stablehlo.or %15, %18 : tensor<16xui32> loc(#loc92)
    %20 = stablehlo.xor %13, %19 : tensor<16xui32> loc(#loc93)
    %21 = stablehlo.slice %arg6 [2:3] : (tensor<4xui32>) -> tensor<1xui32> loc(#loc87)
    %22 = stablehlo.reshape %21 : (tensor<1xui32>) -> tensor<ui32> loc(#loc88)
    %23 = stablehlo.add %13, %20 : tensor<16xui32> loc(#loc86)
    %24 = stablehlo.broadcast_in_dim %22, dims = [] : (tensor<ui32>) -> tensor<16xui32> loc(#loc89)
    %25 = stablehlo.shift_left %20, %24 : tensor<16xui32> loc(#loc89)
    %26 = stablehlo.subtract %c, %22 : tensor<ui32> loc(#loc90)
    %27 = stablehlo.broadcast_in_dim %26, dims = [] : (tensor<ui32>) -> tensor<16xui32> loc(#loc91)
    %28 = stablehlo.shift_right_logical %20, %27 : tensor<16xui32> loc(#loc91)
    %29 = stablehlo.or %25, %28 : tensor<16xui32> loc(#loc92)
    %30 = stablehlo.xor %23, %29 : tensor<16xui32> loc(#loc93)
    %31 = stablehlo.slice %arg6 [3:4] : (tensor<4xui32>) -> tensor<1xui32> loc(#loc87)
    %32 = stablehlo.reshape %31 : (tensor<1xui32>) -> tensor<ui32> loc(#loc88)
    %33 = stablehlo.add %23, %30 : tensor<16xui32> loc(#loc86)
    %34 = stablehlo.broadcast_in_dim %32, dims = [] : (tensor<ui32>) -> tensor<16xui32> loc(#loc89)
    %35 = stablehlo.shift_left %30, %34 : tensor<16xui32> loc(#loc89)
    %36 = stablehlo.subtract %c, %32 : tensor<ui32> loc(#loc90)
    %37 = stablehlo.broadcast_in_dim %36, dims = [] : (tensor<ui32>) -> tensor<16xui32> loc(#loc91)
    %38 = stablehlo.shift_right_logical %30, %37 : tensor<16xui32> loc(#loc91)
    %39 = stablehlo.or %35, %38 : tensor<16xui32> loc(#loc92)
    %40 = stablehlo.xor %33, %39 : tensor<16xui32> loc(#loc93)
    %41 = stablehlo.add %33, %arg3 : tensor<16xui32> loc(#loc86)
    %42 = stablehlo.add %40, %arg4 : tensor<16xui32> loc(#loc86)
    %43 = stablehlo.add %arg0, %c_0 : tensor<i32> loc(#loc86)
    %44 = stablehlo.convert %43 : (tensor<i32>) -> tensor<ui32> loc(#loc94)
    %45 = stablehlo.broadcast_in_dim %44, dims = [] : (tensor<ui32>) -> tensor<16xui32> loc(#loc86)
    %46 = stablehlo.add %42, %45 : tensor<16xui32> loc(#loc86)
    return %0, %41, %46, %arg4, %arg5, %arg3, %arg7, %arg6 : tensor<i32>, tensor<16xui32>, tensor<16xui32>, tensor<16xui32>, tensor<16xui32>, tensor<16xui32>, tensor<4xui32>, tensor<4xui32> loc(#loc)
  } loc(#loc238)
  func.func private @_one_hot(%arg0: tensor<5xi32> loc(unknown)) -> tensor<5x3xf32> {
    %0 = stablehlo.broadcast_in_dim %arg0, dims = [0] : (tensor<5xi32>) -> tensor<5x1xi32> loc(#loc114)
    %1 = stablehlo.iota dim = 1 : tensor<1x3xi32> loc(#loc120)
    %2 = stablehlo.broadcast_in_dim %0, dims = [0, 1] : (tensor<5x1xi32>) -> tensor<5x3xi32> loc(#loc121)
    %3 = stablehlo.broadcast_in_dim %1, dims = [0, 1] : (tensor<1x3xi32>) -> tensor<5x3xi32> loc(#loc121)
    %4 = stablehlo.compare EQ, %2, %3, SIGNED : (tensor<5x3xi32>, tensor<5x3xi32>) -> tensor<5x3xi1> loc(#loc121)
    %5 = stablehlo.convert %4 : (tensor<5x3xi1>) -> tensor<5x3xf32> loc(#loc94)
    return %5 : tensor<5x3xf32> loc(#loc)
  } loc(#loc556)
  func.func private @_where(%arg0: tensor<i1> loc(unknown), %arg1: tensor<15xf32> loc(unknown), %arg2: tensor<f32> loc(unknown)) -> tensor<15xf32> {
    %0 = stablehlo.convert %arg2 : tensor<f32> loc(#loc94)
    %1 = stablehlo.broadcast_in_dim %0, dims = [] : (tensor<f32>) -> tensor<15xf32> loc(#loc114)
    %2 = stablehlo.select %arg0, %arg1, %1 : tensor<i1>, tensor<15xf32> loc(#loc105)
    return %2 : tensor<15xf32> loc(#loc)
  } loc(#loc557)
  func.func private @_threefry_fold_in(%arg0: tensor<2xui32> loc(unknown), %arg1: tensor<ui32> loc(unknown)) -> tensor<2xui32> {
    %c = stablehlo.constant dense<4294967295> : tensor<ui32> loc(#loc)
    %c_0 = stablehlo.constant dense<32> : tensor<ui32> loc(#loc)
    %0 = stablehlo.shift_right_logical %arg1, %c_0 : tensor<ui32> loc(#loc385)
    %1 = stablehlo.broadcast_in_dim %0, dims = [] : (tensor<ui32>) -> tensor<1xui32> loc(#loc386)
    %2 = stablehlo.and %arg1, %c : tensor<ui32> loc(#loc387)
    %3 = stablehlo.broadcast_in_dim %2, dims = [] : (tensor<ui32>) -> tensor<1xui32> loc(#loc386)
    %4 = stablehlo.concatenate %1, %3, dim = 0 : (tensor<1xui32>, tensor<1xui32>) -> tensor<2xui32> loc(#loc388)
    %5 = stablehlo.slice %arg0 [0:1] : (tensor<2xui32>) -> tensor<1xui32> loc(#loc389)
    %6 = stablehlo.reshape %5 : (tensor<1xui32>) -> tensor<ui32> loc(#loc390)
    %7 = stablehlo.slice %arg0 [1:2] : (tensor<2xui32>) -> tensor<1xui32> loc(#loc389)
    %8 = stablehlo.reshape %7 : (tensor<1xui32>) -> tensor<ui32> loc(#loc390)
    %9 = stablehlo.slice %4 [0:1] : (tensor<2xui32>) -> tensor<1xui32> loc(#loc391)
    %10 = stablehlo.slice %4 [1:2] : (tensor<2xui32>) -> tensor<1xui32> loc(#loc391)
    %11:2 = call @threefry2x32_9(%6, %8, %9, %10) : (tensor<ui32>, tensor<ui32>, tensor<1xui32>, tensor<1xui32>) -> (tensor<1xui32>, tensor<1xui32>) loc(#loc319)
    %12 = stablehlo.concatenate %11#0, %11#1, dim = 0 : (tensor<1xui32>, tensor<1xui32>) -> tensor<2xui32> loc(#loc388)
    return %12 : tensor<2xui32> loc(#loc)
  } loc(#loc443)
  func.func private @threefry2x32_9(%arg0: tensor<ui32> loc(callsite(#loc181 at #loc275)), %arg1: tensor<ui32> loc(callsite(#loc181 at #loc275)), %arg2: tensor<1xui32> loc(callsite(#loc181 at #loc275)), %arg3: tensor<1xui32> loc(callsite(#loc181 at #loc275))) -> (tensor<1xui32>, tensor<1xui32>) {
    %c = stablehlo.constant dense<1> : tensor<i32> loc(#loc)
    %c_0 = stablehlo.constant dense<5> : tensor<i32> loc(#loc)
    %c_1 = stablehlo.constant dense<0> : tensor<i32> loc(#loc)
    %c_2 = stablehlo.constant dense<466688986> : tensor<ui32> loc(#loc233)
    %c_3 = stablehlo.constant dense<[13, 15, 26, 6]> : tensor<4xui32> loc(#loc233)
    %c_4 = stablehlo.constant dense<[17, 29, 16, 24]> : tensor<4xui32> loc(#loc233)
    %0 = stablehlo.xor %arg0, %arg1 : tensor<ui32> loc(#loc392)
    %1 = stablehlo.xor %0, %c_2 : tensor<ui32> loc(#loc392)
    %2 = stablehlo.broadcast_in_dim %arg0, dims = [] : (tensor<ui32>) -> tensor<1xui32> loc(#loc393)
    %3 = stablehlo.add %arg2, %2 : tensor<1xui32> loc(#loc393)
    %4 = stablehlo.broadcast_in_dim %arg1, dims = [] : (tensor<ui32>) -> tensor<1xui32> loc(#loc393)
    %5 = stablehlo.add %arg3, %4 : tensor<1xui32> loc(#loc393)
    %6:9 = stablehlo.while(%iterArg = %c_1, %iterArg_5 = %c_1, %iterArg_6 = %3, %iterArg_7 = %5, %iterArg_8 = %arg1, %iterArg_9 = %1, %iterArg_10 = %arg0, %iterArg_11 = %c_3, %iterArg_12 = %c_4) : tensor<i32>, tensor<i32>, tensor<1xui32>, tensor<1xui32>, tensor<ui32>, tensor<ui32>, tensor<ui32>, tensor<4xui32>, tensor<4xui32>
    cond {
      %7 = stablehlo.compare LT, %iterArg, %c_0, SIGNED : (tensor<i32>, tensor<i32>) -> tensor<i1> loc(#loc477)
      stablehlo.return %7 : tensor<i1> loc(#loc444)
    } do {
      %7:8 = func.call @closed_call_10(%iterArg_5, %iterArg_6, %iterArg_7, %iterArg_8, %iterArg_9, %iterArg_10, %iterArg_11, %iterArg_12) : (tensor<i32>, tensor<1xui32>, tensor<1xui32>, tensor<ui32>, tensor<ui32>, tensor<ui32>, tensor<4xui32>, tensor<4xui32>) -> (tensor<i32>, tensor<1xui32>, tensor<1xui32>, tensor<ui32>, tensor<ui32>, tensor<ui32>, tensor<4xui32>, tensor<4xui32>) loc(#loc478)
      %8 = stablehlo.add %iterArg, %c : tensor<i32> loc(#loc479)
      stablehlo.return %8, %7#0, %7#1, %7#2, %7#3, %7#4, %7#5, %7#6, %7#7 : tensor<i32>, tensor<i32>, tensor<1xui32>, tensor<1xui32>, tensor<ui32>, tensor<ui32>, tensor<ui32>, tensor<4xui32>, tensor<4xui32> loc(#loc444)
    } loc(#loc444)
    return %6#2, %6#3 : tensor<1xui32>, tensor<1xui32> loc(#loc319)
  } loc(#loc319)
  func.func private @closed_call_10(%arg0: tensor<i32> loc(unknown), %arg1: tensor<1xui32> loc(unknown), %arg2: tensor<1xui32> loc(unknown), %arg3: tensor<ui32> loc(unknown), %arg4: tensor<ui32> loc(unknown), %arg5: tensor<ui32> loc(unknown), %arg6: tensor<4xui32> loc(unknown), %arg7: tensor<4xui32> loc(unknown)) -> (tensor<i32>, tensor<1xui32>, tensor<1xui32>, tensor<ui32>, tensor<ui32>, tensor<ui32>, tensor<4xui32>, tensor<4xui32>) {
    %c = stablehlo.constant dense<32> : tensor<ui32> loc(#loc)
    %c_0 = stablehlo.constant dense<1> : tensor<i32> loc(#loc)
    %0 = stablehlo.add %arg0, %c_0 : tensor<i32> loc(#loc86)
    %1 = stablehlo.slice %arg6 [0:1] : (tensor<4xui32>) -> tensor<1xui32> loc(#loc87)
    %2 = stablehlo.reshape %1 : (tensor<1xui32>) -> tensor<ui32> loc(#loc88)
    %3 = stablehlo.add %arg1, %arg2 : tensor<1xui32> loc(#loc86)
    %4 = stablehlo.broadcast_in_dim %2, dims = [] : (tensor<ui32>) -> tensor<1xui32> loc(#loc89)
    %5 = stablehlo.shift_left %arg2, %4 : tensor<1xui32> loc(#loc89)
    %6 = stablehlo.subtract %c, %2 : tensor<ui32> loc(#loc90)
    %7 = stablehlo.broadcast_in_dim %6, dims = [] : (tensor<ui32>) -> tensor<1xui32> loc(#loc91)
    %8 = stablehlo.shift_right_logical %arg2, %7 : tensor<1xui32> loc(#loc91)
    %9 = stablehlo.or %5, %8 : tensor<1xui32> loc(#loc92)
    %10 = stablehlo.xor %3, %9 : tensor<1xui32> loc(#loc93)
    %11 = stablehlo.slice %arg6 [1:2] : (tensor<4xui32>) -> tensor<1xui32> loc(#loc87)
    %12 = stablehlo.reshape %11 : (tensor<1xui32>) -> tensor<ui32> loc(#loc88)
    %13 = stablehlo.add %3, %10 : tensor<1xui32> loc(#loc86)
    %14 = stablehlo.broadcast_in_dim %12, dims = [] : (tensor<ui32>) -> tensor<1xui32> loc(#loc89)
    %15 = stablehlo.shift_left %10, %14 : tensor<1xui32> loc(#loc89)
    %16 = stablehlo.subtract %c, %12 : tensor<ui32> loc(#loc90)
    %17 = stablehlo.broadcast_in_dim %16, dims = [] : (tensor<ui32>) -> tensor<1xui32> loc(#loc91)
    %18 = stablehlo.shift_right_logical %10, %17 : tensor<1xui32> loc(#loc91)
    %19 = stablehlo.or %15, %18 : tensor<1xui32> loc(#loc92)
    %20 = stablehlo.xor %13, %19 : tensor<1xui32> loc(#loc93)
    %21 = stablehlo.slice %arg6 [2:3] : (tensor<4xui32>) -> tensor<1xui32> loc(#loc87)
    %22 = stablehlo.reshape %21 : (tensor<1xui32>) -> tensor<ui32> loc(#loc88)
    %23 = stablehlo.add %13, %20 : tensor<1xui32> loc(#loc86)
    %24 = stablehlo.broadcast_in_dim %22, dims = [] : (tensor<ui32>) -> tensor<1xui32> loc(#loc89)
    %25 = stablehlo.shift_left %20, %24 : tensor<1xui32> loc(#loc89)
    %26 = stablehlo.subtract %c, %22 : tensor<ui32> loc(#loc90)
    %27 = stablehlo.broadcast_in_dim %26, dims = [] : (tensor<ui32>) -> tensor<1xui32> loc(#loc91)
    %28 = stablehlo.shift_right_logical %20, %27 : tensor<1xui32> loc(#loc91)
    %29 = stablehlo.or %25, %28 : tensor<1xui32> loc(#loc92)
    %30 = stablehlo.xor %23, %29 : tensor<1xui32> loc(#loc93)
    %31 = stablehlo.slice %arg6 [3:4] : (tensor<4xui32>) -> tensor<1xui32> loc(#loc87)
    %32 = stablehlo.reshape %31 : (tensor<1xui32>) -> tensor<ui32> loc(#loc88)
    %33 = stablehlo.add %23, %30 : tensor<1xui32> loc(#loc86)
    %34 = stablehlo.broadcast_in_dim %32, dims = [] : (tensor<ui32>) -> tensor<1xui32> loc(#loc89)
    %35 = stablehlo.shift_left %30, %34 : tensor<1xui32> loc(#loc89)
    %36 = stablehlo.subtract %c, %32 : tensor<ui32> loc(#loc90)
    %37 = stablehlo.broadcast_in_dim %36, dims = [] : (tensor<ui32>) -> tensor<1xui32> loc(#loc91)
    %38 = stablehlo.shift_right_logical %30, %37 : tensor<1xui32> loc(#loc91)
    %39 = stablehlo.or %35, %38 : tensor<1xui32> loc(#loc92)
    %40 = stablehlo.xor %33, %39 : tensor<1xui32> loc(#loc93)
    %41 = stablehlo.broadcast_in_dim %arg3, dims = [] : (tensor<ui32>) -> tensor<1xui32> loc(#loc86)
    %42 = stablehlo.add %33, %41 : tensor<1xui32> loc(#loc86)
    %43 = stablehlo.broadcast_in_dim %arg4, dims = [] : (tensor<ui32>) -> tensor<1xui32> loc(#loc86)
    %44 = stablehlo.add %40, %43 : tensor<1xui32> loc(#loc86)
    %45 = stablehlo.add %arg0, %c_0 : tensor<i32> loc(#loc86)
    %46 = stablehlo.convert %45 : (tensor<i32>) -> tensor<ui32> loc(#loc94)
    %47 = stablehlo.broadcast_in_dim %46, dims = [] : (tensor<ui32>) -> tensor<1xui32> loc(#loc86)
    %48 = stablehlo.add %44, %47 : tensor<1xui32> loc(#loc86)
    return %0, %42, %48, %arg4, %arg5, %arg3, %arg7, %arg6 : tensor<i32>, tensor<1xui32>, tensor<1xui32>, tensor<ui32>, tensor<ui32>, tensor<ui32>, tensor<4xui32>, tensor<4xui32> loc(#loc)
  } loc(#loc446)
  func.func private @_normal(%arg0: tensor<2xui32> loc(unknown)) -> tensor<33x16xf32> {
    %0 = call @_normal_real(%arg0) : (tensor<2xui32>) -> tensor<33x16xf32> loc(#loc122)
    return %0 : tensor<33x16xf32> loc(#loc)
  } loc(#loc510)
  func.func private @_normal_real(%arg0: tensor<2xui32> loc(unknown)) -> tensor<33x16xf32> {
    %cst = stablehlo.constant dense<0x7F800000> : tensor<33x16xf32> loc(#loc123)
    %cst_0 = stablehlo.constant dense<1.000000e+00> : tensor<33x16xf32> loc(#loc123)
    %cst_1 = stablehlo.constant dense<2.83297682> : tensor<33x16xf32> loc(#loc123)
    %cst_2 = stablehlo.constant dense<1.50140941> : tensor<33x16xf32> loc(#loc123)
    %cst_3 = stablehlo.constant dense<1.00167406> : tensor<33x16xf32> loc(#loc123)
    %cst_4 = stablehlo.constant dense<0.246640727> : tensor<33x16xf32> loc(#loc123)
    %cst_5 = stablehlo.constant dense<0.00943887047> : tensor<33x16xf32> loc(#loc123)
    %cst_6 = stablehlo.constant dense<-0.00417768164> : tensor<33x16xf32> loc(#loc123)
    %cst_7 = stablehlo.constant dense<-0.0076224613> : tensor<33x16xf32> loc(#loc123)
    %cst_8 = stablehlo.constant dense<-0.00125372503> : tensor<33x16xf32> loc(#loc123)
    %cst_9 = stablehlo.constant dense<0.00573950773> : tensor<33x16xf32> loc(#loc123)
    %cst_10 = stablehlo.constant dense<2.1858087E-4> : tensor<33x16xf32> loc(#loc123)
    %cst_11 = stablehlo.constant dense<-0.00367342844> : tensor<33x16xf32> loc(#loc123)
    %cst_12 = stablehlo.constant dense<-4.39150654E-6> : tensor<33x16xf32> loc(#loc123)
    %cst_13 = stablehlo.constant dense<0.00134934322> : tensor<33x16xf32> loc(#loc123)
    %cst_14 = stablehlo.constant dense<-3.5233877E-6> : tensor<33x16xf32> loc(#loc123)
    %cst_15 = stablehlo.constant dense<1.00950558E-4> : tensor<33x16xf32> loc(#loc123)
    %cst_16 = stablehlo.constant dense<3.43273939E-7> : tensor<33x16xf32> loc(#loc123)
    %cst_17 = stablehlo.constant dense<-2.00214257E-4> : tensor<33x16xf32> loc(#loc123)
    %cst_18 = stablehlo.constant dense<2.81022636E-8> : tensor<33x16xf32> loc(#loc123)
    %cst_19 = stablehlo.constant dense<3.000000e+00> : tensor<33x16xf32> loc(#loc123)
    %cst_20 = stablehlo.constant dense<2.500000e+00> : tensor<33x16xf32> loc(#loc123)
    %cst_21 = stablehlo.constant dense<5.000000e+00> : tensor<33x16xf32> loc(#loc123)
    %cst_22 = stablehlo.constant dense<1.41421354> : tensor<f32> loc(#loc)
    %cst_23 = stablehlo.constant dense<-0.99999994> : tensor<f32> loc(#loc)
    %cst_24 = stablehlo.constant dense<1.000000e+00> : tensor<f32> loc(#loc)
    %0 = call @_uniform(%arg0, %cst_23, %cst_24) : (tensor<2xui32>, tensor<f32>, tensor<f32>) -> tensor<33x16xf32> loc(#loc124)
    %1 = stablehlo.negate %0 : tensor<33x16xf32> loc(#loc123)
    %2 = stablehlo.multiply %0, %1 : tensor<33x16xf32> loc(#loc123)
    %3 = stablehlo.log_plus_one %2 : tensor<33x16xf32> loc(#loc123)
    %4 = stablehlo.negate %3 : tensor<33x16xf32> loc(#loc123)
    %5 = stablehlo.compare LT, %4, %cst_21 : (tensor<33x16xf32>, tensor<33x16xf32>) -> tensor<33x16xi1> loc(#loc123)
    %6 = stablehlo.subtract %4, %cst_20 : tensor<33x16xf32> loc(#loc123)
    %7 = stablehlo.sqrt %4 : tensor<33x16xf32> loc(#loc123)
    %8 = stablehlo.subtract %7, %cst_19 : tensor<33x16xf32> loc(#loc123)
    %9 = stablehlo.select %5, %6, %8 : tensor<33x16xi1>, tensor<33x16xf32> loc(#loc123)
    %10 = stablehlo.select %5, %cst_18, %cst_17 : tensor<33x16xi1>, tensor<33x16xf32> loc(#loc123)
    %11 = stablehlo.select %5, %cst_16, %cst_15 : tensor<33x16xi1>, tensor<33x16xf32> loc(#loc123)
    %12 = stablehlo.multiply %10, %9 : tensor<33x16xf32> loc(#loc123)
    %13 = stablehlo.add %11, %12 : tensor<33x16xf32> loc(#loc123)
    %14 = stablehlo.select %5, %cst_14, %cst_13 : tensor<33x16xi1>, tensor<33x16xf32> loc(#loc123)
    %15 = stablehlo.multiply %13, %9 : tensor<33x16xf32> loc(#loc123)
    %16 = stablehlo.add %14, %15 : tensor<33x16xf32> loc(#loc123)
    %17 = stablehlo.select %5, %cst_12, %cst_11 : tensor<33x16xi1>, tensor<33x16xf32> loc(#loc123)
    %18 = stablehlo.multiply %16, %9 : tensor<33x16xf32> loc(#loc123)
    %19 = stablehlo.add %17, %18 : tensor<33x16xf32> loc(#loc123)
    %20 = stablehlo.select %5, %cst_10, %cst_9 : tensor<33x16xi1>, tensor<33x16xf32> loc(#loc123)
    %21 = stablehlo.multiply %19, %9 : tensor<33x16xf32> loc(#loc123)
    %22 = stablehlo.add %20, %21 : tensor<33x16xf32> loc(#loc123)
    %23 = stablehlo.select %5, %cst_8, %cst_7 : tensor<33x16xi1>, tensor<33x16xf32> loc(#loc123)
    %24 = stablehlo.multiply %22, %9 : tensor<33x16xf32> loc(#loc123)
    %25 = stablehlo.add %23, %24 : tensor<33x16xf32> loc(#loc123)
    %26 = stablehlo.select %5, %cst_6, %cst_5 : tensor<33x16xi1>, tensor<33x16xf32> loc(#loc123)
    %27 = stablehlo.multiply %25, %9 : tensor<33x16xf32> loc(#loc123)
    %28 = stablehlo.add %26, %27 : tensor<33x16xf32> loc(#loc123)
    %29 = stablehlo.select %5, %cst_4, %cst_3 : tensor<33x16xi1>, tensor<33x16xf32> loc(#loc123)
    %30 = stablehlo.multiply %28, %9 : tensor<33x16xf32> loc(#loc123)
    %31 = stablehlo.add %29, %30 : tensor<33x16xf32> loc(#loc123)
    %32 = stablehlo.select %5, %cst_2, %cst_1 : tensor<33x16xi1>, tensor<33x16xf32> loc(#loc123)
    %33 = stablehlo.multiply %31, %9 : tensor<33x16xf32> loc(#loc123)
    %34 = stablehlo.add %32, %33 : tensor<33x16xf32> loc(#loc123)
    %35 = stablehlo.multiply %34, %0 : tensor<33x16xf32> loc(#loc123)
    %36 = stablehlo.abs %0 : tensor<33x16xf32> loc(#loc123)
    %37 = stablehlo.compare EQ, %36, %cst_0 : (tensor<33x16xf32>, tensor<33x16xf32>) -> tensor<33x16xi1> loc(#loc123)
    %38 = stablehlo.multiply %0, %cst : tensor<33x16xf32> loc(#loc123)
    %39 = stablehlo.select %37, %38, %35 : tensor<33x16xi1>, tensor<33x16xf32> loc(#loc123)
    %40 = stablehlo.broadcast_in_dim %cst_22, dims = [] : (tensor<f32>) -> tensor<33x16xf32> loc(#loc108)
    %41 = stablehlo.multiply %40, %39 : tensor<33x16xf32> loc(#loc108)
    return %41 : tensor<33x16xf32> loc(#loc)
  } loc(#loc236)
  func.func private @_uniform(%arg0: tensor<2xui32> loc(unknown), %arg1: tensor<f32> loc(unknown), %arg2: tensor<f32> loc(unknown)) -> tensor<33x16xf32> {
    %cst = stablehlo.constant dense<1.000000e+00> : tensor<f32> loc(#loc)
    %c = stablehlo.constant dense<1065353216> : tensor<ui32> loc(#loc)
    %c_0 = stablehlo.constant dense<9> : tensor<ui32> loc(#loc)
    %c_1 = stablehlo.constant dense<32> : tensor<ui64> loc(#loc113)
    %c_2 = stablehlo.constant dense<1> : tensor<ui64> loc(#loc113)
    %c_3 = stablehlo.constant dense<16> : tensor<ui64> loc(#loc113)
    %0 = stablehlo.broadcast_in_dim %arg1, dims = [] : (tensor<f32>) -> tensor<1x1xf32> loc(#loc114)
    %1 = stablehlo.broadcast_in_dim %arg2, dims = [] : (tensor<f32>) -> tensor<1x1xf32> loc(#loc114)
    %2 = stablehlo.slice %arg0 [0:1] : (tensor<2xui32>) -> tensor<1xui32> loc(#loc87)
    %3 = stablehlo.reshape %2 : (tensor<1xui32>) -> tensor<ui32> loc(#loc88)
    %4 = stablehlo.slice %arg0 [1:2] : (tensor<2xui32>) -> tensor<1xui32> loc(#loc87)
    %5 = stablehlo.reshape %4 : (tensor<1xui32>) -> tensor<ui32> loc(#loc88)
    %6 = stablehlo.iota dim = 0 : tensor<33x16xui64> loc(#loc113)
    %7 = stablehlo.iota dim = 1 : tensor<33x16xui64> loc(#loc113)
    %8 = stablehlo.broadcast_in_dim %c_3, dims = [] : (tensor<ui64>) -> tensor<33x16xui64> loc(#loc113)
    %9 = stablehlo.multiply %8, %6 : tensor<33x16xui64> loc(#loc113)
    %10 = stablehlo.broadcast_in_dim %c_2, dims = [] : (tensor<ui64>) -> tensor<33x16xui64> loc(#loc113)
    %11 = stablehlo.multiply %10, %7 : tensor<33x16xui64> loc(#loc113)
    %12 = stablehlo.add %9, %11 : tensor<33x16xui64> loc(#loc113)
    %13 = stablehlo.broadcast_in_dim %c_1, dims = [] : (tensor<ui64>) -> tensor<33x16xui64> loc(#loc113)
    %14 = stablehlo.shift_right_logical %12, %13 : tensor<33x16xui64> loc(#loc113)
    %15 = stablehlo.convert %12 : (tensor<33x16xui64>) -> tensor<33x16xui32> loc(#loc113)
    %16 = stablehlo.convert %14 : (tensor<33x16xui64>) -> tensor<33x16xui32> loc(#loc113)
    %17:2 = call @threefry2x32_11(%3, %5, %16, %15) : (tensor<ui32>, tensor<ui32>, tensor<33x16xui32>, tensor<33x16xui32>) -> (tensor<33x16xui32>, tensor<33x16xui32>) loc(#loc125)
    %18 = stablehlo.xor %17#0, %17#1 : tensor<33x16xui32> loc(#loc93)
    %19 = stablehlo.broadcast_in_dim %c_0, dims = [] : (tensor<ui32>) -> tensor<33x16xui32> loc(#loc91)
    %20 = stablehlo.shift_right_logical %18, %19 : tensor<33x16xui32> loc(#loc91)
    %21 = stablehlo.broadcast_in_dim %c, dims = [] : (tensor<ui32>) -> tensor<33x16xui32> loc(#loc92)
    %22 = stablehlo.or %20, %21 : tensor<33x16xui32> loc(#loc92)
    %23 = stablehlo.bitcast_convert %22 : (tensor<33x16xui32>) -> tensor<33x16xf32> loc(#loc126)
    %24 = stablehlo.broadcast_in_dim %cst, dims = [] : (tensor<f32>) -> tensor<33x16xf32> loc(#loc90)
    %25 = stablehlo.subtract %23, %24 : tensor<33x16xf32> loc(#loc90)
    %26 = stablehlo.subtract %1, %0 : tensor<1x1xf32> loc(#loc90)
    %27 = stablehlo.broadcast_in_dim %26, dims = [0, 1] : (tensor<1x1xf32>) -> tensor<33x16xf32> loc(#loc108)
    %28 = stablehlo.multiply %25, %27 : tensor<33x16xf32> loc(#loc108)
    %29 = stablehlo.broadcast_in_dim %0, dims = [0, 1] : (tensor<1x1xf32>) -> tensor<33x16xf32> loc(#loc86)
    %30 = stablehlo.add %28, %29 : tensor<33x16xf32> loc(#loc86)
    %31 = stablehlo.broadcast_in_dim %0, dims = [0, 1] : (tensor<1x1xf32>) -> tensor<33x16xf32> loc(#loc110)
    %32 = stablehlo.maximum %31, %30 : tensor<33x16xf32> loc(#loc110)
    return %32 : tensor<33x16xf32> loc(#loc)
  } loc(#loc236)
  func.func private @threefry2x32_11(%arg0: tensor<ui32> loc(unknown), %arg1: tensor<ui32> loc(unknown), %arg2: tensor<33x16xui32> loc(unknown), %arg3: tensor<33x16xui32> loc(unknown)) -> (tensor<33x16xui32>, tensor<33x16xui32>) {
    %c = stablehlo.constant dense<1> : tensor<i32> loc(#loc)
    %c_0 = stablehlo.constant dense<5> : tensor<i32> loc(#loc)
    %c_1 = stablehlo.constant dense<0> : tensor<i32> loc(#loc)
    %c_2 = stablehlo.constant dense<466688986> : tensor<ui32> loc(#loc233)
    %c_3 = stablehlo.constant dense<[13, 15, 26, 6]> : tensor<4xui32> loc(#loc233)
    %c_4 = stablehlo.constant dense<[17, 29, 16, 24]> : tensor<4xui32> loc(#loc233)
    %0 = stablehlo.xor %arg0, %arg1 : tensor<ui32> loc(#loc93)
    %1 = stablehlo.xor %0, %c_2 : tensor<ui32> loc(#loc93)
    %2 = stablehlo.broadcast_in_dim %arg0, dims = [] : (tensor<ui32>) -> tensor<33x16xui32> loc(#loc86)
    %3 = stablehlo.add %arg2, %2 : tensor<33x16xui32> loc(#loc86)
    %4 = stablehlo.broadcast_in_dim %arg1, dims = [] : (tensor<ui32>) -> tensor<33x16xui32> loc(#loc86)
    %5 = stablehlo.add %arg3, %4 : tensor<33x16xui32> loc(#loc86)
    %6:9 = stablehlo.while(%iterArg = %c_1, %iterArg_5 = %c_1, %iterArg_6 = %3, %iterArg_7 = %5, %iterArg_8 = %arg1, %iterArg_9 = %1, %iterArg_10 = %arg0, %iterArg_11 = %c_3, %iterArg_12 = %c_4) : tensor<i32>, tensor<i32>, tensor<33x16xui32>, tensor<33x16xui32>, tensor<ui32>, tensor<ui32>, tensor<ui32>, tensor<4xui32>, tensor<4xui32>
    cond {
      %7 = stablehlo.compare LT, %iterArg, %c_0, SIGNED : (tensor<i32>, tensor<i32>) -> tensor<i1> loc(#loc117)
      stablehlo.return %7 : tensor<i1> loc(#loc116)
    } do {
      %7:8 = func.call @closed_call_12(%iterArg_5, %iterArg_6, %iterArg_7, %iterArg_8, %iterArg_9, %iterArg_10, %iterArg_11, %iterArg_12) : (tensor<i32>, tensor<33x16xui32>, tensor<33x16xui32>, tensor<ui32>, tensor<ui32>, tensor<ui32>, tensor<4xui32>, tensor<4xui32>) -> (tensor<i32>, tensor<33x16xui32>, tensor<33x16xui32>, tensor<ui32>, tensor<ui32>, tensor<ui32>, tensor<4xui32>, tensor<4xui32>) loc(#loc118)
      %8 = stablehlo.add %iterArg, %c : tensor<i32> loc(#loc119)
      stablehlo.return %8, %7#0, %7#1, %7#2, %7#3, %7#4, %7#5, %7#6, %7#7 : tensor<i32>, tensor<i32>, tensor<33x16xui32>, tensor<33x16xui32>, tensor<ui32>, tensor<ui32>, tensor<ui32>, tensor<4xui32>, tensor<4xui32> loc(#loc116)
    } loc(#loc116)
    return %6#2, %6#3 : tensor<33x16xui32>, tensor<33x16xui32> loc(#loc)
  } loc(#loc)
  func.func private @closed_call_12(%arg0: tensor<i32> loc(unknown), %arg1: tensor<33x16xui32> loc(unknown), %arg2: tensor<33x16xui32> loc(unknown), %arg3: tensor<ui32> loc(unknown), %arg4: tensor<ui32> loc(unknown), %arg5: tensor<ui32> loc(unknown), %arg6: tensor<4xui32> loc(unknown), %arg7: tensor<4xui32> loc(unknown)) -> (tensor<i32>, tensor<33x16xui32>, tensor<33x16xui32>, tensor<ui32>, tensor<ui32>, tensor<ui32>, tensor<4xui32>, tensor<4xui32>) {
    %c = stablehlo.constant dense<32> : tensor<ui32> loc(#loc)
    %c_0 = stablehlo.constant dense<1> : tensor<i32> loc(#loc)
    %0 = stablehlo.add %arg0, %c_0 : tensor<i32> loc(#loc86)
    %1 = stablehlo.slice %arg6 [0:1] : (tensor<4xui32>) -> tensor<1xui32> loc(#loc87)
    %2 = stablehlo.reshape %1 : (tensor<1xui32>) -> tensor<ui32> loc(#loc88)
    %3 = stablehlo.add %arg1, %arg2 : tensor<33x16xui32> loc(#loc86)
    %4 = stablehlo.broadcast_in_dim %2, dims = [] : (tensor<ui32>) -> tensor<33x16xui32> loc(#loc89)
    %5 = stablehlo.shift_left %arg2, %4 : tensor<33x16xui32> loc(#loc89)
    %6 = stablehlo.subtract %c, %2 : tensor<ui32> loc(#loc90)
    %7 = stablehlo.broadcast_in_dim %6, dims = [] : (tensor<ui32>) -> tensor<33x16xui32> loc(#loc91)
    %8 = stablehlo.shift_right_logical %arg2, %7 : tensor<33x16xui32> loc(#loc91)
    %9 = stablehlo.or %5, %8 : tensor<33x16xui32> loc(#loc92)
    %10 = stablehlo.xor %3, %9 : tensor<33x16xui32> loc(#loc93)
    %11 = stablehlo.slice %arg6 [1:2] : (tensor<4xui32>) -> tensor<1xui32> loc(#loc87)
    %12 = stablehlo.reshape %11 : (tensor<1xui32>) -> tensor<ui32> loc(#loc88)
    %13 = stablehlo.add %3, %10 : tensor<33x16xui32> loc(#loc86)
    %14 = stablehlo.broadcast_in_dim %12, dims = [] : (tensor<ui32>) -> tensor<33x16xui32> loc(#loc89)
    %15 = stablehlo.shift_left %10, %14 : tensor<33x16xui32> loc(#loc89)
    %16 = stablehlo.subtract %c, %12 : tensor<ui32> loc(#loc90)
    %17 = stablehlo.broadcast_in_dim %16, dims = [] : (tensor<ui32>) -> tensor<33x16xui32> loc(#loc91)
    %18 = stablehlo.shift_right_logical %10, %17 : tensor<33x16xui32> loc(#loc91)
    %19 = stablehlo.or %15, %18 : tensor<33x16xui32> loc(#loc92)
    %20 = stablehlo.xor %13, %19 : tensor<33x16xui32> loc(#loc93)
    %21 = stablehlo.slice %arg6 [2:3] : (tensor<4xui32>) -> tensor<1xui32> loc(#loc87)
    %22 = stablehlo.reshape %21 : (tensor<1xui32>) -> tensor<ui32> loc(#loc88)
    %23 = stablehlo.add %13, %20 : tensor<33x16xui32> loc(#loc86)
    %24 = stablehlo.broadcast_in_dim %22, dims = [] : (tensor<ui32>) -> tensor<33x16xui32> loc(#loc89)
    %25 = stablehlo.shift_left %20, %24 : tensor<33x16xui32> loc(#loc89)
    %26 = stablehlo.subtract %c, %22 : tensor<ui32> loc(#loc90)
    %27 = stablehlo.broadcast_in_dim %26, dims = [] : (tensor<ui32>) -> tensor<33x16xui32> loc(#loc91)
    %28 = stablehlo.shift_right_logical %20, %27 : tensor<33x16xui32> loc(#loc91)
    %29 = stablehlo.or %25, %28 : tensor<33x16xui32> loc(#loc92)
    %30 = stablehlo.xor %23, %29 : tensor<33x16xui32> loc(#loc93)
    %31 = stablehlo.slice %arg6 [3:4] : (tensor<4xui32>) -> tensor<1xui32> loc(#loc87)
    %32 = stablehlo.reshape %31 : (tensor<1xui32>) -> tensor<ui32> loc(#loc88)
    %33 = stablehlo.add %23, %30 : tensor<33x16xui32> loc(#loc86)
    %34 = stablehlo.broadcast_in_dim %32, dims = [] : (tensor<ui32>) -> tensor<33x16xui32> loc(#loc89)
    %35 = stablehlo.shift_left %30, %34 : tensor<33x16xui32> loc(#loc89)
    %36 = stablehlo.subtract %c, %32 : tensor<ui32> loc(#loc90)
    %37 = stablehlo.broadcast_in_dim %36, dims = [] : (tensor<ui32>) -> tensor<33x16xui32> loc(#loc91)
    %38 = stablehlo.shift_right_logical %30, %37 : tensor<33x16xui32> loc(#loc91)
    %39 = stablehlo.or %35, %38 : tensor<33x16xui32> loc(#loc92)
    %40 = stablehlo.xor %33, %39 : tensor<33x16xui32> loc(#loc93)
    %41 = stablehlo.broadcast_in_dim %arg3, dims = [] : (tensor<ui32>) -> tensor<33x16xui32> loc(#loc86)
    %42 = stablehlo.add %33, %41 : tensor<33x16xui32> loc(#loc86)
    %43 = stablehlo.broadcast_in_dim %arg4, dims = [] : (tensor<ui32>) -> tensor<33x16xui32> loc(#loc86)
    %44 = stablehlo.add %40, %43 : tensor<33x16xui32> loc(#loc86)
    %45 = stablehlo.add %arg0, %c_0 : tensor<i32> loc(#loc86)
    %46 = stablehlo.convert %45 : (tensor<i32>) -> tensor<ui32> loc(#loc94)
    %47 = stablehlo.broadcast_in_dim %46, dims = [] : (tensor<ui32>) -> tensor<33x16xui32> loc(#loc86)
    %48 = stablehlo.add %44, %47 : tensor<33x16xui32> loc(#loc86)
    return %0, %42, %48, %arg4, %arg5, %arg3, %arg7, %arg6 : tensor<i32>, tensor<33x16xui32>, tensor<33x16xui32>, tensor<ui32>, tensor<ui32>, tensor<ui32>, tensor<4xui32>, tensor<4xui32> loc(#loc)
  } loc(#loc238)
  func.func private @_take(%arg0: tensor<33x16xf32> loc(unknown), %arg1: tensor<16x1xi32> loc(unknown)) -> tensor<16x1x16xf32> {
    %cst = stablehlo.constant dense<0x7FC00000> : tensor<f32> loc(#loc127)
    %c = stablehlo.constant dense<true> : tensor<i1> loc(#loc128)
    %c_0 = stablehlo.constant dense<32> : tensor<1xi32> loc(#loc127)
    %c_1 = stablehlo.constant dense<33> : tensor<i32> loc(#loc)
    %c_2 = stablehlo.constant dense<0> : tensor<i32> loc(#loc)
    %0 = stablehlo.broadcast_in_dim %c_2, dims = [] : (tensor<i32>) -> tensor<16x1xi32> loc(#loc129)
    %1 = stablehlo.compare LT, %arg1, %0, SIGNED : (tensor<16x1xi32>, tensor<16x1xi32>) -> tensor<16x1xi1> loc(#loc129)
    %2 = stablehlo.broadcast_in_dim %c_1, dims = [] : (tensor<i32>) -> tensor<16x1xi32> loc(#loc86)
    %3 = stablehlo.add %arg1, %2 : tensor<16x1xi32> loc(#loc86)
    %4 = call @_where_13(%1, %3, %arg1) : (tensor<16x1xi1>, tensor<16x1xi32>, tensor<16x1xi32>) -> tensor<16x1xi32> loc(#loc130)
    %5 = stablehlo.broadcast_in_dim %4, dims = [0, 1] : (tensor<16x1xi32>) -> tensor<16x1x1xi32> loc(#loc114)
    %6 = stablehlo.broadcast_in_dim %c_2, dims = [] : (tensor<i32>) -> tensor<16x1x1xi32> loc(#loc131)
    %7 = stablehlo.compare GE, %5, %6, SIGNED : (tensor<16x1x1xi32>, tensor<16x1x1xi32>) -> tensor<16x1x1xi1> loc(#loc131)
    %8 = stablehlo.broadcast_in_dim %c_0, dims = [2] : (tensor<1xi32>) -> tensor<1x1x1xi32> loc(#loc114)
    %9 = stablehlo.broadcast_in_dim %8, dims = [0, 1, 2] : (tensor<1x1x1xi32>) -> tensor<16x1x1xi32> loc(#loc104)
    %10 = stablehlo.compare LE, %5, %9, SIGNED : (tensor<16x1x1xi32>, tensor<16x1x1xi32>) -> tensor<16x1x1xi1> loc(#loc104)
    %11 = stablehlo.and %7, %10 : tensor<16x1x1xi1> loc(#loc106)
    %12 = stablehlo.reduce(%11 init: %c) applies stablehlo.and across dimensions = [2] : (tensor<16x1x1xi1>, tensor<i1>) -> tensor<16x1xi1> loc(#loc128)
    %13 = "stablehlo.gather"(%arg0, %5) <{dimension_numbers = #stablehlo.gather<offset_dims = [2], collapsed_slice_dims = [0], start_index_map = [0], index_vector_dim = 2>, slice_sizes = array<i64: 1, 16>}> : (tensor<33x16xf32>, tensor<16x1x1xi32>) -> tensor<16x1x16xf32> loc(#loc127)
    %14 = stablehlo.broadcast_in_dim %12, dims = [0, 1] : (tensor<16x1xi1>) -> tensor<16x1x16xi1> loc(#loc114)
    %15 = stablehlo.broadcast_in_dim %cst, dims = [] : (tensor<f32>) -> tensor<16x1x16xf32> loc(#loc114)
    %16 = stablehlo.select %14, %13, %15 : tensor<16x1x16xi1>, tensor<16x1x16xf32> loc(#loc105)
    return %16 : tensor<16x1x16xf32> loc(#loc)
  } loc(#loc511)
  func.func private @_where_13(%arg0: tensor<16x1xi1> loc(unknown), %arg1: tensor<16x1xi32> loc(unknown), %arg2: tensor<16x1xi32> loc(unknown)) -> tensor<16x1xi32> {
    %0 = stablehlo.select %arg0, %arg1, %arg2 : tensor<16x1xi1>, tensor<16x1xi32> loc(#loc105)
    return %0 : tensor<16x1xi32> loc(#loc)
  } loc(#loc236)
  func.func private @_take_14(%arg0: tensor<33x16xf32> loc(unknown), %arg1: tensor<16x1x5xi32> loc(unknown)) -> tensor<16x1x5x16xf32> {
    %cst = stablehlo.constant dense<0x7FC00000> : tensor<f32> loc(#loc127)
    %c = stablehlo.constant dense<true> : tensor<i1> loc(#loc128)
    %c_0 = stablehlo.constant dense<32> : tensor<1xi32> loc(#loc127)
    %c_1 = stablehlo.constant dense<33> : tensor<i32> loc(#loc)
    %c_2 = stablehlo.constant dense<0> : tensor<i32> loc(#loc)
    %0 = stablehlo.broadcast_in_dim %c_2, dims = [] : (tensor<i32>) -> tensor<16x1x5xi32> loc(#loc129)
    %1 = stablehlo.compare LT, %arg1, %0, SIGNED : (tensor<16x1x5xi32>, tensor<16x1x5xi32>) -> tensor<16x1x5xi1> loc(#loc129)
    %2 = stablehlo.broadcast_in_dim %c_1, dims = [] : (tensor<i32>) -> tensor<16x1x5xi32> loc(#loc86)
    %3 = stablehlo.add %arg1, %2 : tensor<16x1x5xi32> loc(#loc86)
    %4 = call @_where_15(%1, %3, %arg1) : (tensor<16x1x5xi1>, tensor<16x1x5xi32>, tensor<16x1x5xi32>) -> tensor<16x1x5xi32> loc(#loc130)
    %5 = stablehlo.broadcast_in_dim %4, dims = [0, 1, 2] : (tensor<16x1x5xi32>) -> tensor<16x1x5x1xi32> loc(#loc114)
    %6 = stablehlo.broadcast_in_dim %c_2, dims = [] : (tensor<i32>) -> tensor<16x1x5x1xi32> loc(#loc131)
    %7 = stablehlo.compare GE, %5, %6, SIGNED : (tensor<16x1x5x1xi32>, tensor<16x1x5x1xi32>) -> tensor<16x1x5x1xi1> loc(#loc131)
    %8 = stablehlo.broadcast_in_dim %c_0, dims = [3] : (tensor<1xi32>) -> tensor<1x1x1x1xi32> loc(#loc114)
    %9 = stablehlo.broadcast_in_dim %8, dims = [0, 1, 2, 3] : (tensor<1x1x1x1xi32>) -> tensor<16x1x5x1xi32> loc(#loc104)
    %10 = stablehlo.compare LE, %5, %9, SIGNED : (tensor<16x1x5x1xi32>, tensor<16x1x5x1xi32>) -> tensor<16x1x5x1xi1> loc(#loc104)
    %11 = stablehlo.and %7, %10 : tensor<16x1x5x1xi1> loc(#loc106)
    %12 = stablehlo.reduce(%11 init: %c) applies stablehlo.and across dimensions = [3] : (tensor<16x1x5x1xi1>, tensor<i1>) -> tensor<16x1x5xi1> loc(#loc128)
    %13 = "stablehlo.gather"(%arg0, %5) <{dimension_numbers = #stablehlo.gather<offset_dims = [3], collapsed_slice_dims = [0], start_index_map = [0], index_vector_dim = 3>, slice_sizes = array<i64: 1, 16>}> : (tensor<33x16xf32>, tensor<16x1x5x1xi32>) -> tensor<16x1x5x16xf32> loc(#loc127)
    %14 = stablehlo.broadcast_in_dim %12, dims = [0, 1, 2] : (tensor<16x1x5xi1>) -> tensor<16x1x5x16xi1> loc(#loc114)
    %15 = stablehlo.broadcast_in_dim %cst, dims = [] : (tensor<f32>) -> tensor<16x1x5x16xf32> loc(#loc114)
    %16 = stablehlo.select %14, %13, %15 : tensor<16x1x5x16xi1>, tensor<16x1x5x16xf32> loc(#loc105)
    return %16 : tensor<16x1x5x16xf32> loc(#loc)
  } loc(#loc512)
  func.func private @_where_15(%arg0: tensor<16x1x5xi1> loc(unknown), %arg1: tensor<16x1x5xi32> loc(unknown), %arg2: tensor<16x1x5xi32> loc(unknown)) -> tensor<16x1x5xi32> {
    %0 = stablehlo.select %arg0, %arg1, %arg2 : tensor<16x1x5xi1>, tensor<16x1x5xi32> loc(#loc105)
    return %0 : tensor<16x1x5xi32> loc(#loc)
  } loc(#loc236)
  func.func private @_truncated_normal(%arg0: tensor<2xui32> loc(unknown), %arg1: tensor<i32> loc(unknown), %arg2: tensor<i32> loc(unknown)) -> tensor<16x16xf32> {
    %c = stablehlo.constant dense<-1> : tensor<i32> loc(#loc)
    %c_0 = stablehlo.constant dense<1> : tensor<i32> loc(#loc)
    %c_1 = stablehlo.constant dense<0> : tensor<i32> loc(#loc)
    %c_2 = stablehlo.constant dense<2147483647> : tensor<i32> loc(#loc)
    %c_3 = stablehlo.constant dense<-2147483648> : tensor<i32> loc(#loc)
    %cst = stablehlo.constant dense<0x7FC00000> : tensor<f32> loc(#loc)
    %cst_4 = stablehlo.constant dense<0x7F800000> : tensor<16x16xf32> loc(#loc123)
    %cst_5 = stablehlo.constant dense<1.000000e+00> : tensor<16x16xf32> loc(#loc123)
    %cst_6 = stablehlo.constant dense<2.83297682> : tensor<16x16xf32> loc(#loc123)
    %cst_7 = stablehlo.constant dense<1.50140941> : tensor<16x16xf32> loc(#loc123)
    %cst_8 = stablehlo.constant dense<1.00167406> : tensor<16x16xf32> loc(#loc123)
    %cst_9 = stablehlo.constant dense<0.246640727> : tensor<16x16xf32> loc(#loc123)
    %cst_10 = stablehlo.constant dense<0.00943887047> : tensor<16x16xf32> loc(#loc123)
    %cst_11 = stablehlo.constant dense<-0.00417768164> : tensor<16x16xf32> loc(#loc123)
    %cst_12 = stablehlo.constant dense<-0.0076224613> : tensor<16x16xf32> loc(#loc123)
    %cst_13 = stablehlo.constant dense<-0.00125372503> : tensor<16x16xf32> loc(#loc123)
    %cst_14 = stablehlo.constant dense<0.00573950773> : tensor<16x16xf32> loc(#loc123)
    %cst_15 = stablehlo.constant dense<2.1858087E-4> : tensor<16x16xf32> loc(#loc123)
    %cst_16 = stablehlo.constant dense<-0.00367342844> : tensor<16x16xf32> loc(#loc123)
    %cst_17 = stablehlo.constant dense<-4.39150654E-6> : tensor<16x16xf32> loc(#loc123)
    %cst_18 = stablehlo.constant dense<0.00134934322> : tensor<16x16xf32> loc(#loc123)
    %cst_19 = stablehlo.constant dense<-3.5233877E-6> : tensor<16x16xf32> loc(#loc123)
    %cst_20 = stablehlo.constant dense<1.00950558E-4> : tensor<16x16xf32> loc(#loc123)
    %cst_21 = stablehlo.constant dense<3.43273939E-7> : tensor<16x16xf32> loc(#loc123)
    %cst_22 = stablehlo.constant dense<-2.00214257E-4> : tensor<16x16xf32> loc(#loc123)
    %cst_23 = stablehlo.constant dense<2.81022636E-8> : tensor<16x16xf32> loc(#loc123)
    %cst_24 = stablehlo.constant dense<3.000000e+00> : tensor<16x16xf32> loc(#loc123)
    %cst_25 = stablehlo.constant dense<2.500000e+00> : tensor<16x16xf32> loc(#loc123)
    %cst_26 = stablehlo.constant dense<5.000000e+00> : tensor<16x16xf32> loc(#loc123)
    %cst_27 = stablehlo.constant dense<0xFF800000> : tensor<f32> loc(#loc)
    %cst_28 = stablehlo.constant dense<0x7F800000> : tensor<f32> loc(#loc)
    %cst_29 = stablehlo.constant dense<1.41421354> : tensor<f32> loc(#loc)
    %0 = stablehlo.convert %arg1 : (tensor<i32>) -> tensor<f32> loc(#loc94)
    %1 = stablehlo.convert %arg2 : (tensor<i32>) -> tensor<f32> loc(#loc94)
    %2 = stablehlo.divide %0, %cst_29 : tensor<f32> loc(#loc132)
    %3 = stablehlo.composite "chlo.erf" %2 {decomposition = @chlo.erf.impl_5, version = 1 : i32} : (tensor<f32>) -> tensor<f32> loc(#loc133)
    %4 = stablehlo.divide %1, %cst_29 : tensor<f32> loc(#loc132)
    %5 = stablehlo.composite "chlo.erf" %4 {decomposition = @chlo.erf.impl_6, version = 1 : i32} : (tensor<f32>) -> tensor<f32> loc(#loc133)
    %6 = call @_uniform_16(%arg0, %3, %5) : (tensor<2xui32>, tensor<f32>, tensor<f32>) -> tensor<16x16xf32> loc(#loc124)
    %7 = stablehlo.negate %6 : tensor<16x16xf32> loc(#loc123)
    %8 = stablehlo.multiply %6, %7 : tensor<16x16xf32> loc(#loc123)
    %9 = stablehlo.log_plus_one %8 : tensor<16x16xf32> loc(#loc123)
    %10 = stablehlo.negate %9 : tensor<16x16xf32> loc(#loc123)
    %11 = stablehlo.compare LT, %10, %cst_26 : (tensor<16x16xf32>, tensor<16x16xf32>) -> tensor<16x16xi1> loc(#loc123)
    %12 = stablehlo.subtract %10, %cst_25 : tensor<16x16xf32> loc(#loc123)
    %13 = stablehlo.sqrt %10 : tensor<16x16xf32> loc(#loc123)
    %14 = stablehlo.subtract %13, %cst_24 : tensor<16x16xf32> loc(#loc123)
    %15 = stablehlo.select %11, %12, %14 : tensor<16x16xi1>, tensor<16x16xf32> loc(#loc123)
    %16 = stablehlo.select %11, %cst_23, %cst_22 : tensor<16x16xi1>, tensor<16x16xf32> loc(#loc123)
    %17 = stablehlo.select %11, %cst_21, %cst_20 : tensor<16x16xi1>, tensor<16x16xf32> loc(#loc123)
    %18 = stablehlo.multiply %16, %15 : tensor<16x16xf32> loc(#loc123)
    %19 = stablehlo.add %17, %18 : tensor<16x16xf32> loc(#loc123)
    %20 = stablehlo.select %11, %cst_19, %cst_18 : tensor<16x16xi1>, tensor<16x16xf32> loc(#loc123)
    %21 = stablehlo.multiply %19, %15 : tensor<16x16xf32> loc(#loc123)
    %22 = stablehlo.add %20, %21 : tensor<16x16xf32> loc(#loc123)
    %23 = stablehlo.select %11, %cst_17, %cst_16 : tensor<16x16xi1>, tensor<16x16xf32> loc(#loc123)
    %24 = stablehlo.multiply %22, %15 : tensor<16x16xf32> loc(#loc123)
    %25 = stablehlo.add %23, %24 : tensor<16x16xf32> loc(#loc123)
    %26 = stablehlo.select %11, %cst_15, %cst_14 : tensor<16x16xi1>, tensor<16x16xf32> loc(#loc123)
    %27 = stablehlo.multiply %25, %15 : tensor<16x16xf32> loc(#loc123)
    %28 = stablehlo.add %26, %27 : tensor<16x16xf32> loc(#loc123)
    %29 = stablehlo.select %11, %cst_13, %cst_12 : tensor<16x16xi1>, tensor<16x16xf32> loc(#loc123)
    %30 = stablehlo.multiply %28, %15 : tensor<16x16xf32> loc(#loc123)
    %31 = stablehlo.add %29, %30 : tensor<16x16xf32> loc(#loc123)
    %32 = stablehlo.select %11, %cst_11, %cst_10 : tensor<16x16xi1>, tensor<16x16xf32> loc(#loc123)
    %33 = stablehlo.multiply %31, %15 : tensor<16x16xf32> loc(#loc123)
    %34 = stablehlo.add %32, %33 : tensor<16x16xf32> loc(#loc123)
    %35 = stablehlo.select %11, %cst_9, %cst_8 : tensor<16x16xi1>, tensor<16x16xf32> loc(#loc123)
    %36 = stablehlo.multiply %34, %15 : tensor<16x16xf32> loc(#loc123)
    %37 = stablehlo.add %35, %36 : tensor<16x16xf32> loc(#loc123)
    %38 = stablehlo.select %11, %cst_7, %cst_6 : tensor<16x16xi1>, tensor<16x16xf32> loc(#loc123)
    %39 = stablehlo.multiply %37, %15 : tensor<16x16xf32> loc(#loc123)
    %40 = stablehlo.add %38, %39 : tensor<16x16xf32> loc(#loc123)
    %41 = stablehlo.multiply %40, %6 : tensor<16x16xf32> loc(#loc123)
    %42 = stablehlo.abs %6 : tensor<16x16xf32> loc(#loc123)
    %43 = stablehlo.compare EQ, %42, %cst_5 : (tensor<16x16xf32>, tensor<16x16xf32>) -> tensor<16x16xi1> loc(#loc123)
    %44 = stablehlo.multiply %6, %cst_4 : tensor<16x16xf32> loc(#loc123)
    %45 = stablehlo.select %43, %44, %41 : tensor<16x16xi1>, tensor<16x16xf32> loc(#loc123)
    %46 = stablehlo.broadcast_in_dim %cst_29, dims = [] : (tensor<f32>) -> tensor<16x16xf32> loc(#loc108)
    %47 = stablehlo.multiply %46, %45 : tensor<16x16xf32> loc(#loc108)
    %48 = stablehlo.bitcast_convert %0 : (tensor<f32>) -> tensor<i32> loc(#loc134)
    %49 = stablehlo.bitcast_convert %cst_28 : (tensor<f32>) -> tensor<i32> loc(#loc134)
    %50 = stablehlo.compare NE, %0, %0 : (tensor<f32>, tensor<f32>) -> tensor<i1> loc(#loc134)
    %51 = stablehlo.compare NE, %cst_28, %cst_28 : (tensor<f32>, tensor<f32>) -> tensor<i1> loc(#loc134)
    %52 = stablehlo.or %50, %51 : tensor<i1> loc(#loc134)
    %53 = stablehlo.bitcast_convert %cst : (tensor<f32>) -> tensor<i32> loc(#loc134)
    %54 = stablehlo.and %48, %c_2 : tensor<i32> loc(#loc134)
    %55 = stablehlo.and %49, %c_2 : tensor<i32> loc(#loc134)
    %56 = stablehlo.compare EQ, %0, %cst_28 : (tensor<f32>, tensor<f32>) -> tensor<i1> loc(#loc134)
    %57 = stablehlo.compare EQ, %54, %c_1 : (tensor<i32>, tensor<i32>) -> tensor<i1> loc(#loc134)
    %58 = stablehlo.compare EQ, %55, %c_1 : (tensor<i32>, tensor<i32>) -> tensor<i1> loc(#loc134)
    %59 = stablehlo.and %48, %c_3 : tensor<i32> loc(#loc134)
    %60 = stablehlo.and %49, %c_3 : tensor<i32> loc(#loc134)
    %61 = stablehlo.or %60, %c_0 : tensor<i32> loc(#loc134)
    %62 = stablehlo.compare NE, %59, %60 : (tensor<i32>, tensor<i32>) -> tensor<i1> loc(#loc134)
    %63 = stablehlo.compare GT, %54, %55 : (tensor<i32>, tensor<i32>) -> tensor<i1> loc(#loc134)
    %64 = stablehlo.or %63, %62 : tensor<i1> loc(#loc134)
    %65 = stablehlo.select %64, %c, %c_0 : tensor<i1>, tensor<i32> loc(#loc134)
    %66 = stablehlo.add %48, %65 : tensor<i32> loc(#loc134)
    %67 = stablehlo.select %58, %49, %61 : tensor<i1>, tensor<i32> loc(#loc134)
    %68 = stablehlo.select %57, %67, %66 : tensor<i1>, tensor<i32> loc(#loc134)
    %69 = stablehlo.select %56, %49, %68 : tensor<i1>, tensor<i32> loc(#loc134)
    %70 = stablehlo.select %52, %53, %69 : tensor<i1>, tensor<i32> loc(#loc134)
    %71 = stablehlo.bitcast_convert %70 : (tensor<i32>) -> tensor<f32> loc(#loc134)
    %72 = stablehlo.bitcast_convert %1 : (tensor<f32>) -> tensor<i32> loc(#loc134)
    %73 = stablehlo.bitcast_convert %cst_27 : (tensor<f32>) -> tensor<i32> loc(#loc134)
    %74 = stablehlo.compare NE, %1, %1 : (tensor<f32>, tensor<f32>) -> tensor<i1> loc(#loc134)
    %75 = stablehlo.compare NE, %cst_27, %cst_27 : (tensor<f32>, tensor<f32>) -> tensor<i1> loc(#loc134)
    %76 = stablehlo.or %74, %75 : tensor<i1> loc(#loc134)
    %77 = stablehlo.bitcast_convert %cst : (tensor<f32>) -> tensor<i32> loc(#loc134)
    %78 = stablehlo.and %72, %c_2 : tensor<i32> loc(#loc134)
    %79 = stablehlo.and %73, %c_2 : tensor<i32> loc(#loc134)
    %80 = stablehlo.compare EQ, %1, %cst_27 : (tensor<f32>, tensor<f32>) -> tensor<i1> loc(#loc134)
    %81 = stablehlo.compare EQ, %78, %c_1 : (tensor<i32>, tensor<i32>) -> tensor<i1> loc(#loc134)
    %82 = stablehlo.compare EQ, %79, %c_1 : (tensor<i32>, tensor<i32>) -> tensor<i1> loc(#loc134)
    %83 = stablehlo.and %72, %c_3 : tensor<i32> loc(#loc134)
    %84 = stablehlo.and %73, %c_3 : tensor<i32> loc(#loc134)
    %85 = stablehlo.or %84, %c_0 : tensor<i32> loc(#loc134)
    %86 = stablehlo.compare NE, %83, %84 : (tensor<i32>, tensor<i32>) -> tensor<i1> loc(#loc134)
    %87 = stablehlo.compare GT, %78, %79 : (tensor<i32>, tensor<i32>) -> tensor<i1> loc(#loc134)
    %88 = stablehlo.or %87, %86 : tensor<i1> loc(#loc134)
    %89 = stablehlo.select %88, %c, %c_0 : tensor<i1>, tensor<i32> loc(#loc134)
    %90 = stablehlo.add %72, %89 : tensor<i32> loc(#loc134)
    %91 = stablehlo.select %82, %73, %85 : tensor<i1>, tensor<i32> loc(#loc134)
    %92 = stablehlo.select %81, %91, %90 : tensor<i1>, tensor<i32> loc(#loc134)
    %93 = stablehlo.select %80, %73, %92 : tensor<i1>, tensor<i32> loc(#loc134)
    %94 = stablehlo.select %76, %77, %93 : tensor<i1>, tensor<i32> loc(#loc134)
    %95 = stablehlo.bitcast_convert %94 : (tensor<i32>) -> tensor<f32> loc(#loc134)
    %96 = call @clip_19(%47, %71, %95) : (tensor<16x16xf32>, tensor<f32>, tensor<f32>) -> tensor<16x16xf32> loc(#loc97)
    return %96 : tensor<16x16xf32> loc(#loc)
  } loc(#loc573)
  func.func private @chlo.erf.impl_6(%arg0: tensor<f32> loc("erf")) -> tensor<f32> {
    %cst = stablehlo.constant dense<1.000000e+00> : tensor<f32> loc(#loc133)
    %cst_0 = stablehlo.constant dense<-1.000000e+00> : tensor<f32> loc(#loc133)
    %cst_1 = stablehlo.constant dense<-0.0142647391> : tensor<f32> loc(#loc133)
    %cst_2 = stablehlo.constant dense<-0.00737332925> : tensor<f32> loc(#loc133)
    %cst_3 = stablehlo.constant dense<-0.00168282702> : tensor<f32> loc(#loc133)
    %cst_4 = stablehlo.constant dense<-2.13374049E-4> : tensor<f32> loc(#loc133)
    %cst_5 = stablehlo.constant dense<-1.45660715E-5> : tensor<f32> loc(#loc133)
    %cst_6 = stablehlo.constant dense<-0.0160960332> : tensor<f32> loc(#loc133)
    %cst_7 = stablehlo.constant dense<-2.954600e-03> : tensor<f32> loc(#loc133)
    %cst_8 = stablehlo.constant dense<-7.34990637E-4> : tensor<f32> loc(#loc133)
    %cst_9 = stablehlo.constant dense<-5.69250624E-5> : tensor<f32> loc(#loc133)
    %cst_10 = stablehlo.constant dense<-2.10102394E-6> : tensor<f32> loc(#loc133)
    %cst_11 = stablehlo.constant dense<2.77068146E-8> : tensor<f32> loc(#loc133)
    %cst_12 = stablehlo.constant dense<-2.72614237E-10> : tensor<f32> loc(#loc133)
    %cst_13 = stablehlo.constant dense<-4.000000e+00> : tensor<f32> loc(#loc133)
    %cst_14 = stablehlo.constant dense<4.000000e+00> : tensor<f32> loc(#loc133)
    %0 = stablehlo.clamp %cst_13, %arg0, %cst_14 : tensor<f32> loc(#loc133)
    %1 = stablehlo.multiply %0, %0 : tensor<f32> loc(#loc133)
    %2 = stablehlo.multiply %cst_12, %1 : tensor<f32> loc(#loc133)
    %3 = stablehlo.add %2, %cst_11 : tensor<f32> loc(#loc133)
    %4 = stablehlo.multiply %3, %1 : tensor<f32> loc(#loc133)
    %5 = stablehlo.add %4, %cst_10 : tensor<f32> loc(#loc133)
    %6 = stablehlo.multiply %5, %1 : tensor<f32> loc(#loc133)
    %7 = stablehlo.add %6, %cst_9 : tensor<f32> loc(#loc133)
    %8 = stablehlo.multiply %7, %1 : tensor<f32> loc(#loc133)
    %9 = stablehlo.add %8, %cst_8 : tensor<f32> loc(#loc133)
    %10 = stablehlo.multiply %9, %1 : tensor<f32> loc(#loc133)
    %11 = stablehlo.add %10, %cst_7 : tensor<f32> loc(#loc133)
    %12 = stablehlo.multiply %11, %1 : tensor<f32> loc(#loc133)
    %13 = stablehlo.add %12, %cst_6 : tensor<f32> loc(#loc133)
    %14 = stablehlo.multiply %cst_5, %1 : tensor<f32> loc(#loc133)
    %15 = stablehlo.add %14, %cst_4 : tensor<f32> loc(#loc133)
    %16 = stablehlo.multiply %15, %1 : tensor<f32> loc(#loc133)
    %17 = stablehlo.add %16, %cst_3 : tensor<f32> loc(#loc133)
    %18 = stablehlo.multiply %17, %1 : tensor<f32> loc(#loc133)
    %19 = stablehlo.add %18, %cst_2 : tensor<f32> loc(#loc133)
    %20 = stablehlo.multiply %19, %1 : tensor<f32> loc(#loc133)
    %21 = stablehlo.add %20, %cst_1 : tensor<f32> loc(#loc133)
    %22 = stablehlo.multiply %0, %13 : tensor<f32> loc(#loc133)
    %23 = stablehlo.divide %22, %21 : tensor<f32> loc(#loc133)
    %24 = stablehlo.clamp %cst_0, %23, %cst : tensor<f32> loc(#loc133)
    return %24 : tensor<f32> loc(#loc133)
  } loc(#loc133)
  func.func private @chlo.erf.impl_5(%arg0: tensor<f32> loc("erf")) -> tensor<f32> {
    %cst = stablehlo.constant dense<1.000000e+00> : tensor<f32> loc(#loc133)
    %cst_0 = stablehlo.constant dense<-1.000000e+00> : tensor<f32> loc(#loc133)
    %cst_1 = stablehlo.constant dense<-0.0142647391> : tensor<f32> loc(#loc133)
    %cst_2 = stablehlo.constant dense<-0.00737332925> : tensor<f32> loc(#loc133)
    %cst_3 = stablehlo.constant dense<-0.00168282702> : tensor<f32> loc(#loc133)
    %cst_4 = stablehlo.constant dense<-2.13374049E-4> : tensor<f32> loc(#loc133)
    %cst_5 = stablehlo.constant dense<-1.45660715E-5> : tensor<f32> loc(#loc133)
    %cst_6 = stablehlo.constant dense<-0.0160960332> : tensor<f32> loc(#loc133)
    %cst_7 = stablehlo.constant dense<-2.954600e-03> : tensor<f32> loc(#loc133)
    %cst_8 = stablehlo.constant dense<-7.34990637E-4> : tensor<f32> loc(#loc133)
    %cst_9 = stablehlo.constant dense<-5.69250624E-5> : tensor<f32> loc(#loc133)
    %cst_10 = stablehlo.constant dense<-2.10102394E-6> : tensor<f32> loc(#loc133)
    %cst_11 = stablehlo.constant dense<2.77068146E-8> : tensor<f32> loc(#loc133)
    %cst_12 = stablehlo.constant dense<-2.72614237E-10> : tensor<f32> loc(#loc133)
    %cst_13 = stablehlo.constant dense<-4.000000e+00> : tensor<f32> loc(#loc133)
    %cst_14 = stablehlo.constant dense<4.000000e+00> : tensor<f32> loc(#loc133)
    %0 = stablehlo.clamp %cst_13, %arg0, %cst_14 : tensor<f32> loc(#loc133)
    %1 = stablehlo.multiply %0, %0 : tensor<f32> loc(#loc133)
    %2 = stablehlo.multiply %cst_12, %1 : tensor<f32> loc(#loc133)
    %3 = stablehlo.add %2, %cst_11 : tensor<f32> loc(#loc133)
    %4 = stablehlo.multiply %3, %1 : tensor<f32> loc(#loc133)
    %5 = stablehlo.add %4, %cst_10 : tensor<f32> loc(#loc133)
    %6 = stablehlo.multiply %5, %1 : tensor<f32> loc(#loc133)
    %7 = stablehlo.add %6, %cst_9 : tensor<f32> loc(#loc133)
    %8 = stablehlo.multiply %7, %1 : tensor<f32> loc(#loc133)
    %9 = stablehlo.add %8, %cst_8 : tensor<f32> loc(#loc133)
    %10 = stablehlo.multiply %9, %1 : tensor<f32> loc(#loc133)
    %11 = stablehlo.add %10, %cst_7 : tensor<f32> loc(#loc133)
    %12 = stablehlo.multiply %11, %1 : tensor<f32> loc(#loc133)
    %13 = stablehlo.add %12, %cst_6 : tensor<f32> loc(#loc133)
    %14 = stablehlo.multiply %cst_5, %1 : tensor<f32> loc(#loc133)
    %15 = stablehlo.add %14, %cst_4 : tensor<f32> loc(#loc133)
    %16 = stablehlo.multiply %15, %1 : tensor<f32> loc(#loc133)
    %17 = stablehlo.add %16, %cst_3 : tensor<f32> loc(#loc133)
    %18 = stablehlo.multiply %17, %1 : tensor<f32> loc(#loc133)
    %19 = stablehlo.add %18, %cst_2 : tensor<f32> loc(#loc133)
    %20 = stablehlo.multiply %19, %1 : tensor<f32> loc(#loc133)
    %21 = stablehlo.add %20, %cst_1 : tensor<f32> loc(#loc133)
    %22 = stablehlo.multiply %0, %13 : tensor<f32> loc(#loc133)
    %23 = stablehlo.divide %22, %21 : tensor<f32> loc(#loc133)
    %24 = stablehlo.clamp %cst_0, %23, %cst : tensor<f32> loc(#loc133)
    return %24 : tensor<f32> loc(#loc133)
  } loc(#loc133)
  func.func private @_uniform_16(%arg0: tensor<2xui32> loc(unknown), %arg1: tensor<f32> loc(unknown), %arg2: tensor<f32> loc(unknown)) -> tensor<16x16xf32> {
    %cst = stablehlo.constant dense<1.000000e+00> : tensor<f32> loc(#loc)
    %c = stablehlo.constant dense<1065353216> : tensor<ui32> loc(#loc)
    %c_0 = stablehlo.constant dense<9> : tensor<ui32> loc(#loc)
    %c_1 = stablehlo.constant dense<32> : tensor<ui64> loc(#loc113)
    %c_2 = stablehlo.constant dense<1> : tensor<ui64> loc(#loc113)
    %c_3 = stablehlo.constant dense<16> : tensor<ui64> loc(#loc113)
    %0 = stablehlo.broadcast_in_dim %arg1, dims = [] : (tensor<f32>) -> tensor<1x1xf32> loc(#loc114)
    %1 = stablehlo.broadcast_in_dim %arg2, dims = [] : (tensor<f32>) -> tensor<1x1xf32> loc(#loc114)
    %2 = stablehlo.slice %arg0 [0:1] : (tensor<2xui32>) -> tensor<1xui32> loc(#loc87)
    %3 = stablehlo.reshape %2 : (tensor<1xui32>) -> tensor<ui32> loc(#loc88)
    %4 = stablehlo.slice %arg0 [1:2] : (tensor<2xui32>) -> tensor<1xui32> loc(#loc87)
    %5 = stablehlo.reshape %4 : (tensor<1xui32>) -> tensor<ui32> loc(#loc88)
    %6 = stablehlo.iota dim = 0 : tensor<16x16xui64> loc(#loc113)
    %7 = stablehlo.iota dim = 1 : tensor<16x16xui64> loc(#loc113)
    %8 = stablehlo.broadcast_in_dim %c_3, dims = [] : (tensor<ui64>) -> tensor<16x16xui64> loc(#loc113)
    %9 = stablehlo.multiply %8, %6 : tensor<16x16xui64> loc(#loc113)
    %10 = stablehlo.broadcast_in_dim %c_2, dims = [] : (tensor<ui64>) -> tensor<16x16xui64> loc(#loc113)
    %11 = stablehlo.multiply %10, %7 : tensor<16x16xui64> loc(#loc113)
    %12 = stablehlo.add %9, %11 : tensor<16x16xui64> loc(#loc113)
    %13 = stablehlo.broadcast_in_dim %c_1, dims = [] : (tensor<ui64>) -> tensor<16x16xui64> loc(#loc113)
    %14 = stablehlo.shift_right_logical %12, %13 : tensor<16x16xui64> loc(#loc113)
    %15 = stablehlo.convert %12 : (tensor<16x16xui64>) -> tensor<16x16xui32> loc(#loc113)
    %16 = stablehlo.convert %14 : (tensor<16x16xui64>) -> tensor<16x16xui32> loc(#loc113)
    %17:2 = call @threefry2x32_17(%3, %5, %16, %15) : (tensor<ui32>, tensor<ui32>, tensor<16x16xui32>, tensor<16x16xui32>) -> (tensor<16x16xui32>, tensor<16x16xui32>) loc(#loc125)
    %18 = stablehlo.xor %17#0, %17#1 : tensor<16x16xui32> loc(#loc93)
    %19 = stablehlo.broadcast_in_dim %c_0, dims = [] : (tensor<ui32>) -> tensor<16x16xui32> loc(#loc91)
    %20 = stablehlo.shift_right_logical %18, %19 : tensor<16x16xui32> loc(#loc91)
    %21 = stablehlo.broadcast_in_dim %c, dims = [] : (tensor<ui32>) -> tensor<16x16xui32> loc(#loc92)
    %22 = stablehlo.or %20, %21 : tensor<16x16xui32> loc(#loc92)
    %23 = stablehlo.bitcast_convert %22 : (tensor<16x16xui32>) -> tensor<16x16xf32> loc(#loc126)
    %24 = stablehlo.broadcast_in_dim %cst, dims = [] : (tensor<f32>) -> tensor<16x16xf32> loc(#loc90)
    %25 = stablehlo.subtract %23, %24 : tensor<16x16xf32> loc(#loc90)
    %26 = stablehlo.subtract %1, %0 : tensor<1x1xf32> loc(#loc90)
    %27 = stablehlo.broadcast_in_dim %26, dims = [0, 1] : (tensor<1x1xf32>) -> tensor<16x16xf32> loc(#loc108)
    %28 = stablehlo.multiply %25, %27 : tensor<16x16xf32> loc(#loc108)
    %29 = stablehlo.broadcast_in_dim %0, dims = [0, 1] : (tensor<1x1xf32>) -> tensor<16x16xf32> loc(#loc86)
    %30 = stablehlo.add %28, %29 : tensor<16x16xf32> loc(#loc86)
    %31 = stablehlo.broadcast_in_dim %0, dims = [0, 1] : (tensor<1x1xf32>) -> tensor<16x16xf32> loc(#loc110)
    %32 = stablehlo.maximum %31, %30 : tensor<16x16xf32> loc(#loc110)
    return %32 : tensor<16x16xf32> loc(#loc)
  } loc(#loc236)
  func.func private @threefry2x32_17(%arg0: tensor<ui32> loc(unknown), %arg1: tensor<ui32> loc(unknown), %arg2: tensor<16x16xui32> loc(unknown), %arg3: tensor<16x16xui32> loc(unknown)) -> (tensor<16x16xui32>, tensor<16x16xui32>) {
    %c = stablehlo.constant dense<1> : tensor<i32> loc(#loc)
    %c_0 = stablehlo.constant dense<5> : tensor<i32> loc(#loc)
    %c_1 = stablehlo.constant dense<0> : tensor<i32> loc(#loc)
    %c_2 = stablehlo.constant dense<466688986> : tensor<ui32> loc(#loc233)
    %c_3 = stablehlo.constant dense<[13, 15, 26, 6]> : tensor<4xui32> loc(#loc233)
    %c_4 = stablehlo.constant dense<[17, 29, 16, 24]> : tensor<4xui32> loc(#loc233)
    %0 = stablehlo.xor %arg0, %arg1 : tensor<ui32> loc(#loc93)
    %1 = stablehlo.xor %0, %c_2 : tensor<ui32> loc(#loc93)
    %2 = stablehlo.broadcast_in_dim %arg0, dims = [] : (tensor<ui32>) -> tensor<16x16xui32> loc(#loc86)
    %3 = stablehlo.add %arg2, %2 : tensor<16x16xui32> loc(#loc86)
    %4 = stablehlo.broadcast_in_dim %arg1, dims = [] : (tensor<ui32>) -> tensor<16x16xui32> loc(#loc86)
    %5 = stablehlo.add %arg3, %4 : tensor<16x16xui32> loc(#loc86)
    %6:9 = stablehlo.while(%iterArg = %c_1, %iterArg_5 = %c_1, %iterArg_6 = %3, %iterArg_7 = %5, %iterArg_8 = %arg1, %iterArg_9 = %1, %iterArg_10 = %arg0, %iterArg_11 = %c_3, %iterArg_12 = %c_4) : tensor<i32>, tensor<i32>, tensor<16x16xui32>, tensor<16x16xui32>, tensor<ui32>, tensor<ui32>, tensor<ui32>, tensor<4xui32>, tensor<4xui32>
    cond {
      %7 = stablehlo.compare LT, %iterArg, %c_0, SIGNED : (tensor<i32>, tensor<i32>) -> tensor<i1> loc(#loc117)
      stablehlo.return %7 : tensor<i1> loc(#loc116)
    } do {
      %7:8 = func.call @closed_call_18(%iterArg_5, %iterArg_6, %iterArg_7, %iterArg_8, %iterArg_9, %iterArg_10, %iterArg_11, %iterArg_12) : (tensor<i32>, tensor<16x16xui32>, tensor<16x16xui32>, tensor<ui32>, tensor<ui32>, tensor<ui32>, tensor<4xui32>, tensor<4xui32>) -> (tensor<i32>, tensor<16x16xui32>, tensor<16x16xui32>, tensor<ui32>, tensor<ui32>, tensor<ui32>, tensor<4xui32>, tensor<4xui32>) loc(#loc118)
      %8 = stablehlo.add %iterArg, %c : tensor<i32> loc(#loc119)
      stablehlo.return %8, %7#0, %7#1, %7#2, %7#3, %7#4, %7#5, %7#6, %7#7 : tensor<i32>, tensor<i32>, tensor<16x16xui32>, tensor<16x16xui32>, tensor<ui32>, tensor<ui32>, tensor<ui32>, tensor<4xui32>, tensor<4xui32> loc(#loc116)
    } loc(#loc116)
    return %6#2, %6#3 : tensor<16x16xui32>, tensor<16x16xui32> loc(#loc)
  } loc(#loc)
  func.func private @closed_call_18(%arg0: tensor<i32> loc(unknown), %arg1: tensor<16x16xui32> loc(unknown), %arg2: tensor<16x16xui32> loc(unknown), %arg3: tensor<ui32> loc(unknown), %arg4: tensor<ui32> loc(unknown), %arg5: tensor<ui32> loc(unknown), %arg6: tensor<4xui32> loc(unknown), %arg7: tensor<4xui32> loc(unknown)) -> (tensor<i32>, tensor<16x16xui32>, tensor<16x16xui32>, tensor<ui32>, tensor<ui32>, tensor<ui32>, tensor<4xui32>, tensor<4xui32>) {
    %c = stablehlo.constant dense<32> : tensor<ui32> loc(#loc)
    %c_0 = stablehlo.constant dense<1> : tensor<i32> loc(#loc)
    %0 = stablehlo.add %arg0, %c_0 : tensor<i32> loc(#loc86)
    %1 = stablehlo.slice %arg6 [0:1] : (tensor<4xui32>) -> tensor<1xui32> loc(#loc87)
    %2 = stablehlo.reshape %1 : (tensor<1xui32>) -> tensor<ui32> loc(#loc88)
    %3 = stablehlo.add %arg1, %arg2 : tensor<16x16xui32> loc(#loc86)
    %4 = stablehlo.broadcast_in_dim %2, dims = [] : (tensor<ui32>) -> tensor<16x16xui32> loc(#loc89)
    %5 = stablehlo.shift_left %arg2, %4 : tensor<16x16xui32> loc(#loc89)
    %6 = stablehlo.subtract %c, %2 : tensor<ui32> loc(#loc90)
    %7 = stablehlo.broadcast_in_dim %6, dims = [] : (tensor<ui32>) -> tensor<16x16xui32> loc(#loc91)
    %8 = stablehlo.shift_right_logical %arg2, %7 : tensor<16x16xui32> loc(#loc91)
    %9 = stablehlo.or %5, %8 : tensor<16x16xui32> loc(#loc92)
    %10 = stablehlo.xor %3, %9 : tensor<16x16xui32> loc(#loc93)
    %11 = stablehlo.slice %arg6 [1:2] : (tensor<4xui32>) -> tensor<1xui32> loc(#loc87)
    %12 = stablehlo.reshape %11 : (tensor<1xui32>) -> tensor<ui32> loc(#loc88)
    %13 = stablehlo.add %3, %10 : tensor<16x16xui32> loc(#loc86)
    %14 = stablehlo.broadcast_in_dim %12, dims = [] : (tensor<ui32>) -> tensor<16x16xui32> loc(#loc89)
    %15 = stablehlo.shift_left %10, %14 : tensor<16x16xui32> loc(#loc89)
    %16 = stablehlo.subtract %c, %12 : tensor<ui32> loc(#loc90)
    %17 = stablehlo.broadcast_in_dim %16, dims = [] : (tensor<ui32>) -> tensor<16x16xui32> loc(#loc91)
    %18 = stablehlo.shift_right_logical %10, %17 : tensor<16x16xui32> loc(#loc91)
    %19 = stablehlo.or %15, %18 : tensor<16x16xui32> loc(#loc92)
    %20 = stablehlo.xor %13, %19 : tensor<16x16xui32> loc(#loc93)
    %21 = stablehlo.slice %arg6 [2:3] : (tensor<4xui32>) -> tensor<1xui32> loc(#loc87)
    %22 = stablehlo.reshape %21 : (tensor<1xui32>) -> tensor<ui32> loc(#loc88)
    %23 = stablehlo.add %13, %20 : tensor<16x16xui32> loc(#loc86)
    %24 = stablehlo.broadcast_in_dim %22, dims = [] : (tensor<ui32>) -> tensor<16x16xui32> loc(#loc89)
    %25 = stablehlo.shift_left %20, %24 : tensor<16x16xui32> loc(#loc89)
    %26 = stablehlo.subtract %c, %22 : tensor<ui32> loc(#loc90)
    %27 = stablehlo.broadcast_in_dim %26, dims = [] : (tensor<ui32>) -> tensor<16x16xui32> loc(#loc91)
    %28 = stablehlo.shift_right_logical %20, %27 : tensor<16x16xui32> loc(#loc91)
    %29 = stablehlo.or %25, %28 : tensor<16x16xui32> loc(#loc92)
    %30 = stablehlo.xor %23, %29 : tensor<16x16xui32> loc(#loc93)
    %31 = stablehlo.slice %arg6 [3:4] : (tensor<4xui32>) -> tensor<1xui32> loc(#loc87)
    %32 = stablehlo.reshape %31 : (tensor<1xui32>) -> tensor<ui32> loc(#loc88)
    %33 = stablehlo.add %23, %30 : tensor<16x16xui32> loc(#loc86)
    %34 = stablehlo.broadcast_in_dim %32, dims = [] : (tensor<ui32>) -> tensor<16x16xui32> loc(#loc89)
    %35 = stablehlo.shift_left %30, %34 : tensor<16x16xui32> loc(#loc89)
    %36 = stablehlo.subtract %c, %32 : tensor<ui32> loc(#loc90)
    %37 = stablehlo.broadcast_in_dim %36, dims = [] : (tensor<ui32>) -> tensor<16x16xui32> loc(#loc91)
    %38 = stablehlo.shift_right_logical %30, %37 : tensor<16x16xui32> loc(#loc91)
    %39 = stablehlo.or %35, %38 : tensor<16x16xui32> loc(#loc92)
    %40 = stablehlo.xor %33, %39 : tensor<16x16xui32> loc(#loc93)
    %41 = stablehlo.broadcast_in_dim %arg3, dims = [] : (tensor<ui32>) -> tensor<16x16xui32> loc(#loc86)
    %42 = stablehlo.add %33, %41 : tensor<16x16xui32> loc(#loc86)
    %43 = stablehlo.broadcast_in_dim %arg4, dims = [] : (tensor<ui32>) -> tensor<16x16xui32> loc(#loc86)
    %44 = stablehlo.add %40, %43 : tensor<16x16xui32> loc(#loc86)
    %45 = stablehlo.add %arg0, %c_0 : tensor<i32> loc(#loc86)
    %46 = stablehlo.convert %45 : (tensor<i32>) -> tensor<ui32> loc(#loc94)
    %47 = stablehlo.broadcast_in_dim %46, dims = [] : (tensor<ui32>) -> tensor<16x16xui32> loc(#loc86)
    %48 = stablehlo.add %44, %47 : tensor<16x16xui32> loc(#loc86)
    return %0, %42, %48, %arg4, %arg5, %arg3, %arg7, %arg6 : tensor<i32>, tensor<16x16xui32>, tensor<16x16xui32>, tensor<ui32>, tensor<ui32>, tensor<ui32>, tensor<4xui32>, tensor<4xui32> loc(#loc)
  } loc(#loc238)
  func.func private @clip_19(%arg0: tensor<16x16xf32> loc(unknown), %arg1: tensor<f32> loc(unknown), %arg2: tensor<f32> loc(unknown)) -> tensor<16x16xf32> {
    %0 = stablehlo.broadcast_in_dim %arg1, dims = [] : (tensor<f32>) -> tensor<16x16xf32> loc(#loc110)
    %1 = stablehlo.maximum %0, %arg0 : tensor<16x16xf32> loc(#loc110)
    %2 = stablehlo.broadcast_in_dim %arg2, dims = [] : (tensor<f32>) -> tensor<16x16xf32> loc(#loc111)
    %3 = stablehlo.minimum %2, %1 : tensor<16x16xf32> loc(#loc111)
    return %3 : tensor<16x16xf32> loc(#loc)
  } loc(#loc236)
  func.func private @relu(%arg0: tensor<16x6x16xf32> loc(unknown)) -> tensor<16x6x16xf32> {
    %cst = stablehlo.constant dense<0.000000e+00> : tensor<f32> loc(#loc)
    %0 = stablehlo.broadcast_in_dim %cst, dims = [] : (tensor<f32>) -> tensor<16x6x16xf32> loc(#loc110)
    %1 = stablehlo.maximum %arg0, %0 : tensor<16x6x16xf32> loc(#loc110)
    return %1 : tensor<16x6x16xf32> loc(#loc)
  } loc(#loc236)
  func.func private @_where_20(%arg0: tensor<16x16xf32> loc(unknown)) {
    return loc(#loc)
  } loc(#loc644)
  func.func private @_truncated_normal_21(%arg0: tensor<2xui32> loc(unknown), %arg1: tensor<i32> loc(unknown), %arg2: tensor<i32> loc(unknown)) -> tensor<16x16xf32> {
    %c = stablehlo.constant dense<-1> : tensor<i32> loc(#loc)
    %c_0 = stablehlo.constant dense<1> : tensor<i32> loc(#loc)
    %c_1 = stablehlo.constant dense<0> : tensor<i32> loc(#loc)
    %c_2 = stablehlo.constant dense<2147483647> : tensor<i32> loc(#loc)
    %c_3 = stablehlo.constant dense<-2147483648> : tensor<i32> loc(#loc)
    %cst = stablehlo.constant dense<0x7FC00000> : tensor<f32> loc(#loc)
    %cst_4 = stablehlo.constant dense<0x7F800000> : tensor<16x16xf32> loc(#loc123)
    %cst_5 = stablehlo.constant dense<1.000000e+00> : tensor<16x16xf32> loc(#loc123)
    %cst_6 = stablehlo.constant dense<2.83297682> : tensor<16x16xf32> loc(#loc123)
    %cst_7 = stablehlo.constant dense<1.50140941> : tensor<16x16xf32> loc(#loc123)
    %cst_8 = stablehlo.constant dense<1.00167406> : tensor<16x16xf32> loc(#loc123)
    %cst_9 = stablehlo.constant dense<0.246640727> : tensor<16x16xf32> loc(#loc123)
    %cst_10 = stablehlo.constant dense<0.00943887047> : tensor<16x16xf32> loc(#loc123)
    %cst_11 = stablehlo.constant dense<-0.00417768164> : tensor<16x16xf32> loc(#loc123)
    %cst_12 = stablehlo.constant dense<-0.0076224613> : tensor<16x16xf32> loc(#loc123)
    %cst_13 = stablehlo.constant dense<-0.00125372503> : tensor<16x16xf32> loc(#loc123)
    %cst_14 = stablehlo.constant dense<0.00573950773> : tensor<16x16xf32> loc(#loc123)
    %cst_15 = stablehlo.constant dense<2.1858087E-4> : tensor<16x16xf32> loc(#loc123)
    %cst_16 = stablehlo.constant dense<-0.00367342844> : tensor<16x16xf32> loc(#loc123)
    %cst_17 = stablehlo.constant dense<-4.39150654E-6> : tensor<16x16xf32> loc(#loc123)
    %cst_18 = stablehlo.constant dense<0.00134934322> : tensor<16x16xf32> loc(#loc123)
    %cst_19 = stablehlo.constant dense<-3.5233877E-6> : tensor<16x16xf32> loc(#loc123)
    %cst_20 = stablehlo.constant dense<1.00950558E-4> : tensor<16x16xf32> loc(#loc123)
    %cst_21 = stablehlo.constant dense<3.43273939E-7> : tensor<16x16xf32> loc(#loc123)
    %cst_22 = stablehlo.constant dense<-2.00214257E-4> : tensor<16x16xf32> loc(#loc123)
    %cst_23 = stablehlo.constant dense<2.81022636E-8> : tensor<16x16xf32> loc(#loc123)
    %cst_24 = stablehlo.constant dense<3.000000e+00> : tensor<16x16xf32> loc(#loc123)
    %cst_25 = stablehlo.constant dense<2.500000e+00> : tensor<16x16xf32> loc(#loc123)
    %cst_26 = stablehlo.constant dense<5.000000e+00> : tensor<16x16xf32> loc(#loc123)
    %cst_27 = stablehlo.constant dense<0xFF800000> : tensor<f32> loc(#loc)
    %cst_28 = stablehlo.constant dense<0x7F800000> : tensor<f32> loc(#loc)
    %cst_29 = stablehlo.constant dense<1.41421354> : tensor<f32> loc(#loc)
    %0 = stablehlo.convert %arg1 : (tensor<i32>) -> tensor<f32> loc(#loc94)
    %1 = stablehlo.convert %arg2 : (tensor<i32>) -> tensor<f32> loc(#loc94)
    %2 = stablehlo.divide %0, %cst_29 : tensor<f32> loc(#loc132)
    %3 = stablehlo.composite "chlo.erf" %2 {decomposition = @chlo.erf.impl_3, version = 1 : i32} : (tensor<f32>) -> tensor<f32> loc(#loc133)
    %4 = stablehlo.divide %1, %cst_29 : tensor<f32> loc(#loc132)
    %5 = stablehlo.composite "chlo.erf" %4 {decomposition = @chlo.erf.impl_4, version = 1 : i32} : (tensor<f32>) -> tensor<f32> loc(#loc133)
    %6 = call @_uniform_22(%arg0, %3, %5) : (tensor<2xui32>, tensor<f32>, tensor<f32>) -> tensor<16x16xf32> loc(#loc124)
    %7 = stablehlo.negate %6 : tensor<16x16xf32> loc(#loc123)
    %8 = stablehlo.multiply %6, %7 : tensor<16x16xf32> loc(#loc123)
    %9 = stablehlo.log_plus_one %8 : tensor<16x16xf32> loc(#loc123)
    %10 = stablehlo.negate %9 : tensor<16x16xf32> loc(#loc123)
    %11 = stablehlo.compare LT, %10, %cst_26 : (tensor<16x16xf32>, tensor<16x16xf32>) -> tensor<16x16xi1> loc(#loc123)
    %12 = stablehlo.subtract %10, %cst_25 : tensor<16x16xf32> loc(#loc123)
    %13 = stablehlo.sqrt %10 : tensor<16x16xf32> loc(#loc123)
    %14 = stablehlo.subtract %13, %cst_24 : tensor<16x16xf32> loc(#loc123)
    %15 = stablehlo.select %11, %12, %14 : tensor<16x16xi1>, tensor<16x16xf32> loc(#loc123)
    %16 = stablehlo.select %11, %cst_23, %cst_22 : tensor<16x16xi1>, tensor<16x16xf32> loc(#loc123)
    %17 = stablehlo.select %11, %cst_21, %cst_20 : tensor<16x16xi1>, tensor<16x16xf32> loc(#loc123)
    %18 = stablehlo.multiply %16, %15 : tensor<16x16xf32> loc(#loc123)
    %19 = stablehlo.add %17, %18 : tensor<16x16xf32> loc(#loc123)
    %20 = stablehlo.select %11, %cst_19, %cst_18 : tensor<16x16xi1>, tensor<16x16xf32> loc(#loc123)
    %21 = stablehlo.multiply %19, %15 : tensor<16x16xf32> loc(#loc123)
    %22 = stablehlo.add %20, %21 : tensor<16x16xf32> loc(#loc123)
    %23 = stablehlo.select %11, %cst_17, %cst_16 : tensor<16x16xi1>, tensor<16x16xf32> loc(#loc123)
    %24 = stablehlo.multiply %22, %15 : tensor<16x16xf32> loc(#loc123)
    %25 = stablehlo.add %23, %24 : tensor<16x16xf32> loc(#loc123)
    %26 = stablehlo.select %11, %cst_15, %cst_14 : tensor<16x16xi1>, tensor<16x16xf32> loc(#loc123)
    %27 = stablehlo.multiply %25, %15 : tensor<16x16xf32> loc(#loc123)
    %28 = stablehlo.add %26, %27 : tensor<16x16xf32> loc(#loc123)
    %29 = stablehlo.select %11, %cst_13, %cst_12 : tensor<16x16xi1>, tensor<16x16xf32> loc(#loc123)
    %30 = stablehlo.multiply %28, %15 : tensor<16x16xf32> loc(#loc123)
    %31 = stablehlo.add %29, %30 : tensor<16x16xf32> loc(#loc123)
    %32 = stablehlo.select %11, %cst_11, %cst_10 : tensor<16x16xi1>, tensor<16x16xf32> loc(#loc123)
    %33 = stablehlo.multiply %31, %15 : tensor<16x16xf32> loc(#loc123)
    %34 = stablehlo.add %32, %33 : tensor<16x16xf32> loc(#loc123)
    %35 = stablehlo.select %11, %cst_9, %cst_8 : tensor<16x16xi1>, tensor<16x16xf32> loc(#loc123)
    %36 = stablehlo.multiply %34, %15 : tensor<16x16xf32> loc(#loc123)
    %37 = stablehlo.add %35, %36 : tensor<16x16xf32> loc(#loc123)
    %38 = stablehlo.select %11, %cst_7, %cst_6 : tensor<16x16xi1>, tensor<16x16xf32> loc(#loc123)
    %39 = stablehlo.multiply %37, %15 : tensor<16x16xf32> loc(#loc123)
    %40 = stablehlo.add %38, %39 : tensor<16x16xf32> loc(#loc123)
    %41 = stablehlo.multiply %40, %6 : tensor<16x16xf32> loc(#loc123)
    %42 = stablehlo.abs %6 : tensor<16x16xf32> loc(#loc123)
    %43 = stablehlo.compare EQ, %42, %cst_5 : (tensor<16x16xf32>, tensor<16x16xf32>) -> tensor<16x16xi1> loc(#loc123)
    %44 = stablehlo.multiply %6, %cst_4 : tensor<16x16xf32> loc(#loc123)
    %45 = stablehlo.select %43, %44, %41 : tensor<16x16xi1>, tensor<16x16xf32> loc(#loc123)
    %46 = stablehlo.broadcast_in_dim %cst_29, dims = [] : (tensor<f32>) -> tensor<16x16xf32> loc(#loc108)
    %47 = stablehlo.multiply %46, %45 : tensor<16x16xf32> loc(#loc108)
    %48 = stablehlo.bitcast_convert %0 : (tensor<f32>) -> tensor<i32> loc(#loc134)
    %49 = stablehlo.bitcast_convert %cst_28 : (tensor<f32>) -> tensor<i32> loc(#loc134)
    %50 = stablehlo.compare NE, %0, %0 : (tensor<f32>, tensor<f32>) -> tensor<i1> loc(#loc134)
    %51 = stablehlo.compare NE, %cst_28, %cst_28 : (tensor<f32>, tensor<f32>) -> tensor<i1> loc(#loc134)
    %52 = stablehlo.or %50, %51 : tensor<i1> loc(#loc134)
    %53 = stablehlo.bitcast_convert %cst : (tensor<f32>) -> tensor<i32> loc(#loc134)
    %54 = stablehlo.and %48, %c_2 : tensor<i32> loc(#loc134)
    %55 = stablehlo.and %49, %c_2 : tensor<i32> loc(#loc134)
    %56 = stablehlo.compare EQ, %0, %cst_28 : (tensor<f32>, tensor<f32>) -> tensor<i1> loc(#loc134)
    %57 = stablehlo.compare EQ, %54, %c_1 : (tensor<i32>, tensor<i32>) -> tensor<i1> loc(#loc134)
    %58 = stablehlo.compare EQ, %55, %c_1 : (tensor<i32>, tensor<i32>) -> tensor<i1> loc(#loc134)
    %59 = stablehlo.and %48, %c_3 : tensor<i32> loc(#loc134)
    %60 = stablehlo.and %49, %c_3 : tensor<i32> loc(#loc134)
    %61 = stablehlo.or %60, %c_0 : tensor<i32> loc(#loc134)
    %62 = stablehlo.compare NE, %59, %60 : (tensor<i32>, tensor<i32>) -> tensor<i1> loc(#loc134)
    %63 = stablehlo.compare GT, %54, %55 : (tensor<i32>, tensor<i32>) -> tensor<i1> loc(#loc134)
    %64 = stablehlo.or %63, %62 : tensor<i1> loc(#loc134)
    %65 = stablehlo.select %64, %c, %c_0 : tensor<i1>, tensor<i32> loc(#loc134)
    %66 = stablehlo.add %48, %65 : tensor<i32> loc(#loc134)
    %67 = stablehlo.select %58, %49, %61 : tensor<i1>, tensor<i32> loc(#loc134)
    %68 = stablehlo.select %57, %67, %66 : tensor<i1>, tensor<i32> loc(#loc134)
    %69 = stablehlo.select %56, %49, %68 : tensor<i1>, tensor<i32> loc(#loc134)
    %70 = stablehlo.select %52, %53, %69 : tensor<i1>, tensor<i32> loc(#loc134)
    %71 = stablehlo.bitcast_convert %70 : (tensor<i32>) -> tensor<f32> loc(#loc134)
    %72 = stablehlo.bitcast_convert %1 : (tensor<f32>) -> tensor<i32> loc(#loc134)
    %73 = stablehlo.bitcast_convert %cst_27 : (tensor<f32>) -> tensor<i32> loc(#loc134)
    %74 = stablehlo.compare NE, %1, %1 : (tensor<f32>, tensor<f32>) -> tensor<i1> loc(#loc134)
    %75 = stablehlo.compare NE, %cst_27, %cst_27 : (tensor<f32>, tensor<f32>) -> tensor<i1> loc(#loc134)
    %76 = stablehlo.or %74, %75 : tensor<i1> loc(#loc134)
    %77 = stablehlo.bitcast_convert %cst : (tensor<f32>) -> tensor<i32> loc(#loc134)
    %78 = stablehlo.and %72, %c_2 : tensor<i32> loc(#loc134)
    %79 = stablehlo.and %73, %c_2 : tensor<i32> loc(#loc134)
    %80 = stablehlo.compare EQ, %1, %cst_27 : (tensor<f32>, tensor<f32>) -> tensor<i1> loc(#loc134)
    %81 = stablehlo.compare EQ, %78, %c_1 : (tensor<i32>, tensor<i32>) -> tensor<i1> loc(#loc134)
    %82 = stablehlo.compare EQ, %79, %c_1 : (tensor<i32>, tensor<i32>) -> tensor<i1> loc(#loc134)
    %83 = stablehlo.and %72, %c_3 : tensor<i32> loc(#loc134)
    %84 = stablehlo.and %73, %c_3 : tensor<i32> loc(#loc134)
    %85 = stablehlo.or %84, %c_0 : tensor<i32> loc(#loc134)
    %86 = stablehlo.compare NE, %83, %84 : (tensor<i32>, tensor<i32>) -> tensor<i1> loc(#loc134)
    %87 = stablehlo.compare GT, %78, %79 : (tensor<i32>, tensor<i32>) -> tensor<i1> loc(#loc134)
    %88 = stablehlo.or %87, %86 : tensor<i1> loc(#loc134)
    %89 = stablehlo.select %88, %c, %c_0 : tensor<i1>, tensor<i32> loc(#loc134)
    %90 = stablehlo.add %72, %89 : tensor<i32> loc(#loc134)
    %91 = stablehlo.select %82, %73, %85 : tensor<i1>, tensor<i32> loc(#loc134)
    %92 = stablehlo.select %81, %91, %90 : tensor<i1>, tensor<i32> loc(#loc134)
    %93 = stablehlo.select %80, %73, %92 : tensor<i1>, tensor<i32> loc(#loc134)
    %94 = stablehlo.select %76, %77, %93 : tensor<i1>, tensor<i32> loc(#loc134)
    %95 = stablehlo.bitcast_convert %94 : (tensor<i32>) -> tensor<f32> loc(#loc134)
    %96 = call @clip_23(%47, %71, %95) : (tensor<16x16xf32>, tensor<f32>, tensor<f32>) -> tensor<16x16xf32> loc(#loc97)
    return %96 : tensor<16x16xf32> loc(#loc)
  } loc(#loc645)
  func.func private @chlo.erf.impl_4(%arg0: tensor<f32> loc("erf")) -> tensor<f32> {
    %cst = stablehlo.constant dense<1.000000e+00> : tensor<f32> loc(#loc133)
    %cst_0 = stablehlo.constant dense<-1.000000e+00> : tensor<f32> loc(#loc133)
    %cst_1 = stablehlo.constant dense<-0.0142647391> : tensor<f32> loc(#loc133)
    %cst_2 = stablehlo.constant dense<-0.00737332925> : tensor<f32> loc(#loc133)
    %cst_3 = stablehlo.constant dense<-0.00168282702> : tensor<f32> loc(#loc133)
    %cst_4 = stablehlo.constant dense<-2.13374049E-4> : tensor<f32> loc(#loc133)
    %cst_5 = stablehlo.constant dense<-1.45660715E-5> : tensor<f32> loc(#loc133)
    %cst_6 = stablehlo.constant dense<-0.0160960332> : tensor<f32> loc(#loc133)
    %cst_7 = stablehlo.constant dense<-2.954600e-03> : tensor<f32> loc(#loc133)
    %cst_8 = stablehlo.constant dense<-7.34990637E-4> : tensor<f32> loc(#loc133)
    %cst_9 = stablehlo.constant dense<-5.69250624E-5> : tensor<f32> loc(#loc133)
    %cst_10 = stablehlo.constant dense<-2.10102394E-6> : tensor<f32> loc(#loc133)
    %cst_11 = stablehlo.constant dense<2.77068146E-8> : tensor<f32> loc(#loc133)
    %cst_12 = stablehlo.constant dense<-2.72614237E-10> : tensor<f32> loc(#loc133)
    %cst_13 = stablehlo.constant dense<-4.000000e+00> : tensor<f32> loc(#loc133)
    %cst_14 = stablehlo.constant dense<4.000000e+00> : tensor<f32> loc(#loc133)
    %0 = stablehlo.clamp %cst_13, %arg0, %cst_14 : tensor<f32> loc(#loc133)
    %1 = stablehlo.multiply %0, %0 : tensor<f32> loc(#loc133)
    %2 = stablehlo.multiply %cst_12, %1 : tensor<f32> loc(#loc133)
    %3 = stablehlo.add %2, %cst_11 : tensor<f32> loc(#loc133)
    %4 = stablehlo.multiply %3, %1 : tensor<f32> loc(#loc133)
    %5 = stablehlo.add %4, %cst_10 : tensor<f32> loc(#loc133)
    %6 = stablehlo.multiply %5, %1 : tensor<f32> loc(#loc133)
    %7 = stablehlo.add %6, %cst_9 : tensor<f32> loc(#loc133)
    %8 = stablehlo.multiply %7, %1 : tensor<f32> loc(#loc133)
    %9 = stablehlo.add %8, %cst_8 : tensor<f32> loc(#loc133)
    %10 = stablehlo.multiply %9, %1 : tensor<f32> loc(#loc133)
    %11 = stablehlo.add %10, %cst_7 : tensor<f32> loc(#loc133)
    %12 = stablehlo.multiply %11, %1 : tensor<f32> loc(#loc133)
    %13 = stablehlo.add %12, %cst_6 : tensor<f32> loc(#loc133)
    %14 = stablehlo.multiply %cst_5, %1 : tensor<f32> loc(#loc133)
    %15 = stablehlo.add %14, %cst_4 : tensor<f32> loc(#loc133)
    %16 = stablehlo.multiply %15, %1 : tensor<f32> loc(#loc133)
    %17 = stablehlo.add %16, %cst_3 : tensor<f32> loc(#loc133)
    %18 = stablehlo.multiply %17, %1 : tensor<f32> loc(#loc133)
    %19 = stablehlo.add %18, %cst_2 : tensor<f32> loc(#loc133)
    %20 = stablehlo.multiply %19, %1 : tensor<f32> loc(#loc133)
    %21 = stablehlo.add %20, %cst_1 : tensor<f32> loc(#loc133)
    %22 = stablehlo.multiply %0, %13 : tensor<f32> loc(#loc133)
    %23 = stablehlo.divide %22, %21 : tensor<f32> loc(#loc133)
    %24 = stablehlo.clamp %cst_0, %23, %cst : tensor<f32> loc(#loc133)
    return %24 : tensor<f32> loc(#loc133)
  } loc(#loc133)
  func.func private @chlo.erf.impl_3(%arg0: tensor<f32> loc("erf")) -> tensor<f32> {
    %cst = stablehlo.constant dense<1.000000e+00> : tensor<f32> loc(#loc133)
    %cst_0 = stablehlo.constant dense<-1.000000e+00> : tensor<f32> loc(#loc133)
    %cst_1 = stablehlo.constant dense<-0.0142647391> : tensor<f32> loc(#loc133)
    %cst_2 = stablehlo.constant dense<-0.00737332925> : tensor<f32> loc(#loc133)
    %cst_3 = stablehlo.constant dense<-0.00168282702> : tensor<f32> loc(#loc133)
    %cst_4 = stablehlo.constant dense<-2.13374049E-4> : tensor<f32> loc(#loc133)
    %cst_5 = stablehlo.constant dense<-1.45660715E-5> : tensor<f32> loc(#loc133)
    %cst_6 = stablehlo.constant dense<-0.0160960332> : tensor<f32> loc(#loc133)
    %cst_7 = stablehlo.constant dense<-2.954600e-03> : tensor<f32> loc(#loc133)
    %cst_8 = stablehlo.constant dense<-7.34990637E-4> : tensor<f32> loc(#loc133)
    %cst_9 = stablehlo.constant dense<-5.69250624E-5> : tensor<f32> loc(#loc133)
    %cst_10 = stablehlo.constant dense<-2.10102394E-6> : tensor<f32> loc(#loc133)
    %cst_11 = stablehlo.constant dense<2.77068146E-8> : tensor<f32> loc(#loc133)
    %cst_12 = stablehlo.constant dense<-2.72614237E-10> : tensor<f32> loc(#loc133)
    %cst_13 = stablehlo.constant dense<-4.000000e+00> : tensor<f32> loc(#loc133)
    %cst_14 = stablehlo.constant dense<4.000000e+00> : tensor<f32> loc(#loc133)
    %0 = stablehlo.clamp %cst_13, %arg0, %cst_14 : tensor<f32> loc(#loc133)
    %1 = stablehlo.multiply %0, %0 : tensor<f32> loc(#loc133)
    %2 = stablehlo.multiply %cst_12, %1 : tensor<f32> loc(#loc133)
    %3 = stablehlo.add %2, %cst_11 : tensor<f32> loc(#loc133)
    %4 = stablehlo.multiply %3, %1 : tensor<f32> loc(#loc133)
    %5 = stablehlo.add %4, %cst_10 : tensor<f32> loc(#loc133)
    %6 = stablehlo.multiply %5, %1 : tensor<f32> loc(#loc133)
    %7 = stablehlo.add %6, %cst_9 : tensor<f32> loc(#loc133)
    %8 = stablehlo.multiply %7, %1 : tensor<f32> loc(#loc133)
    %9 = stablehlo.add %8, %cst_8 : tensor<f32> loc(#loc133)
    %10 = stablehlo.multiply %9, %1 : tensor<f32> loc(#loc133)
    %11 = stablehlo.add %10, %cst_7 : tensor<f32> loc(#loc133)
    %12 = stablehlo.multiply %11, %1 : tensor<f32> loc(#loc133)
    %13 = stablehlo.add %12, %cst_6 : tensor<f32> loc(#loc133)
    %14 = stablehlo.multiply %cst_5, %1 : tensor<f32> loc(#loc133)
    %15 = stablehlo.add %14, %cst_4 : tensor<f32> loc(#loc133)
    %16 = stablehlo.multiply %15, %1 : tensor<f32> loc(#loc133)
    %17 = stablehlo.add %16, %cst_3 : tensor<f32> loc(#loc133)
    %18 = stablehlo.multiply %17, %1 : tensor<f32> loc(#loc133)
    %19 = stablehlo.add %18, %cst_2 : tensor<f32> loc(#loc133)
    %20 = stablehlo.multiply %19, %1 : tensor<f32> loc(#loc133)
    %21 = stablehlo.add %20, %cst_1 : tensor<f32> loc(#loc133)
    %22 = stablehlo.multiply %0, %13 : tensor<f32> loc(#loc133)
    %23 = stablehlo.divide %22, %21 : tensor<f32> loc(#loc133)
    %24 = stablehlo.clamp %cst_0, %23, %cst : tensor<f32> loc(#loc133)
    return %24 : tensor<f32> loc(#loc133)
  } loc(#loc133)
  func.func private @_uniform_22(%arg0: tensor<2xui32> loc(unknown), %arg1: tensor<f32> loc(unknown), %arg2: tensor<f32> loc(unknown)) -> tensor<16x16xf32> {
    %cst = stablehlo.constant dense<1.000000e+00> : tensor<f32> loc(#loc)
    %c = stablehlo.constant dense<1065353216> : tensor<ui32> loc(#loc)
    %c_0 = stablehlo.constant dense<9> : tensor<ui32> loc(#loc)
    %c_1 = stablehlo.constant dense<32> : tensor<ui64> loc(#loc113)
    %c_2 = stablehlo.constant dense<1> : tensor<ui64> loc(#loc113)
…
    %cst_10 = stablehlo.constant dense<-2.10102394E-6> : tensor<f32> loc(#loc133)
    %cst_11 = stablehlo.constant dense<2.77068146E-8> : tensor<f32> loc(#loc133)
    %cst_12 = stablehlo.constant dense<-2.72614237E-10> : tensor<f32> loc(#loc133)
    %cst_13 = stablehlo.constant dense<-4.000000e+00> : tensor<f32> loc(#loc133)
    %cst_14 = stablehlo.constant dense<4.000000e+00> : tensor<f32> loc(#loc133)
    %0 = stablehlo.clamp %cst_13, %arg0, %cst_14 : tensor<f32> loc(#loc133)
    %1 = stablehlo.multiply %0, %0 : tensor<f32> loc(#loc133)
    %2 = stablehlo.multiply %cst_12, %1 : tensor<f32> loc(#loc133)
    %3 = stablehlo.add %2, %cst_11 : tensor<f32> loc(#loc133)
    %4 = stablehlo.multiply %3, %1 : tensor<f32> loc(#loc133)
    %5 = stablehlo.add %4, %cst_10 : tensor<f32> loc(#loc133)
    %6 = stablehlo.multiply %5, %1 : tensor<f32> loc(#loc133)
    %7 = stablehlo.add %6, %cst_9 : tensor<f32> loc(#loc133)
    %8 = stablehlo.multiply %7, %1 : tensor<f32> loc(#loc133)
    %9 = stablehlo.add %8, %cst_8 : tensor<f32> loc(#loc133)
    %10 = stablehlo.multiply %9, %1 : tensor<f32> loc(#loc133)
    %11 = stablehlo.add %10, %cst_7 : tensor<f32> loc(#loc133)
    %12 = stablehlo.multiply %11, %1 : tensor<f32> loc(#loc133)
    %13 = stablehlo.add %12, %cst_6 : tensor<f32> loc(#loc133)
    %14 = stablehlo.multiply %cst_5, %1 : tensor<f32> loc(#loc133)
    %15 = stablehlo.add %14, %cst_4 : tensor<f32> loc(#loc133)
    %16 = stablehlo.multiply %15, %1 : tensor<f32> loc(#loc133)
    %17 = stablehlo.add %16, %cst_3 : tensor<f32> loc(#loc133)
    %18 = stablehlo.multiply %17, %1 : tensor<f32> loc(#loc133)
    %19 = stablehlo.add %18, %cst_2 : tensor<f32> loc(#loc133)
    %20 = stablehlo.multiply %19, %1 : tensor<f32> loc(#loc133)
    %21 = stablehlo.add %20, %cst_1 : tensor<f32> loc(#loc133)
    %22 = stablehlo.multiply %0, %13 : tensor<f32> loc(#loc133)
    %23 = stablehlo.divide %22, %21 : tensor<f32> loc(#loc133)
    %24 = stablehlo.clamp %cst_0, %23, %cst : tensor<f32> loc(#loc133)
    return %24 : tensor<f32> loc(#loc133)
  } loc(#loc133)
  func.func private @_uniform_33(%arg0: tensor<2xui32> loc(unknown), %arg1: tensor<f32> loc(unknown), %arg2: tensor<f32> loc(unknown)) -> tensor<16x1xf32> {
    %cst = stablehlo.constant dense<1.000000e+00> : tensor<f32> loc(#loc)
    %c = stablehlo.constant dense<1065353216> : tensor<ui32> loc(#loc)
    %c_0 = stablehlo.constant dense<9> : tensor<ui32> loc(#loc)
    %c_1 = stablehlo.constant dense<32> : tensor<ui64> loc(#loc113)
    %c_2 = stablehlo.constant dense<1> : tensor<ui64> loc(#loc)
    %0 = stablehlo.broadcast_in_dim %arg1, dims = [] : (tensor<f32>) -> tensor<1x1xf32> loc(#loc114)
    %1 = stablehlo.broadcast_in_dim %arg2, dims = [] : (tensor<f32>) -> tensor<1x1xf32> loc(#loc114)
    %2 = stablehlo.slice %arg0 [0:1] : (tensor<2xui32>) -> tensor<1xui32> loc(#loc87)
    %3 = stablehlo.reshape %2 : (tensor<1xui32>) -> tensor<ui32> loc(#loc88)
    %4 = stablehlo.slice %arg0 [1:2] : (tensor<2xui32>) -> tensor<1xui32> loc(#loc87)
    %5 = stablehlo.reshape %4 : (tensor<1xui32>) -> tensor<ui32> loc(#loc88)
    %6 = stablehlo.iota dim = 0 : tensor<16x1xui64> loc(#loc113)
    %7 = stablehlo.iota dim = 1 : tensor<16x1xui64> loc(#loc113)
    %8 = stablehlo.broadcast_in_dim %c_2, dims = [] : (tensor<ui64>) -> tensor<16x1xui64> loc(#loc113)
    %9 = stablehlo.multiply %8, %6 : tensor<16x1xui64> loc(#loc113)
    %10 = stablehlo.broadcast_in_dim %c_2, dims = [] : (tensor<ui64>) -> tensor<16x1xui64> loc(#loc113)
    %11 = stablehlo.multiply %10, %7 : tensor<16x1xui64> loc(#loc113)
    %12 = stablehlo.add %9, %11 : tensor<16x1xui64> loc(#loc113)
    %13 = stablehlo.broadcast_in_dim %c_1, dims = [] : (tensor<ui64>) -> tensor<16x1xui64> loc(#loc113)
    %14 = stablehlo.shift_right_logical %12, %13 : tensor<16x1xui64> loc(#loc113)
    %15 = stablehlo.convert %12 : (tensor<16x1xui64>) -> tensor<16x1xui32> loc(#loc113)
    %16 = stablehlo.convert %14 : (tensor<16x1xui64>) -> tensor<16x1xui32> loc(#loc113)
    %17:2 = call @threefry2x32_34(%3, %5, %16, %15) : (tensor<ui32>, tensor<ui32>, tensor<16x1xui32>, tensor<16x1xui32>) -> (tensor<16x1xui32>, tensor<16x1xui32>) loc(#loc125)
    %18 = stablehlo.xor %17#0, %17#1 : tensor<16x1xui32> loc(#loc93)
    %19 = stablehlo.broadcast_in_dim %c_0, dims = [] : (tensor<ui32>) -> tensor<16x1xui32> loc(#loc91)
    %20 = stablehlo.shift_right_logical %18, %19 : tensor<16x1xui32> loc(#loc91)
    %21 = stablehlo.broadcast_in_dim %c, dims = [] : (tensor<ui32>) -> tensor<16x1xui32> loc(#loc92)
    %22 = stablehlo.or %20, %21 : tensor<16x1xui32> loc(#loc92)
    %23 = stablehlo.bitcast_convert %22 : (tensor<16x1xui32>) -> tensor<16x1xf32> loc(#loc126)
    %24 = stablehlo.broadcast_in_dim %cst, dims = [] : (tensor<f32>) -> tensor<16x1xf32> loc(#loc90)
    %25 = stablehlo.subtract %23, %24 : tensor<16x1xf32> loc(#loc90)
    %26 = stablehlo.subtract %1, %0 : tensor<1x1xf32> loc(#loc90)
    %27 = stablehlo.broadcast_in_dim %26, dims = [0, 1] : (tensor<1x1xf32>) -> tensor<16x1xf32> loc(#loc108)
    %28 = stablehlo.multiply %25, %27 : tensor<16x1xf32> loc(#loc108)
    %29 = stablehlo.broadcast_in_dim %0, dims = [0, 1] : (tensor<1x1xf32>) -> tensor<16x1xf32> loc(#loc86)
    %30 = stablehlo.add %28, %29 : tensor<16x1xf32> loc(#loc86)
    %31 = stablehlo.broadcast_in_dim %0, dims = [0, 1] : (tensor<1x1xf32>) -> tensor<16x1xf32> loc(#loc110)
    %32 = stablehlo.maximum %31, %30 : tensor<16x1xf32> loc(#loc110)
    return %32 : tensor<16x1xf32> loc(#loc)
  } loc(#loc236)
  func.func private @threefry2x32_34(%arg0: tensor<ui32> loc(unknown), %arg1: tensor<ui32> loc(unknown), %arg2: tensor<16x1xui32> loc(unknown), %arg3: tensor<16x1xui32> loc(unknown)) -> (tensor<16x1xui32>, tensor<16x1xui32>) {
    %c = stablehlo.constant dense<1> : tensor<i32> loc(#loc)
    %c_0 = stablehlo.constant dense<5> : tensor<i32> loc(#loc)
    %c_1 = stablehlo.constant dense<0> : tensor<i32> loc(#loc)
    %c_2 = stablehlo.constant dense<466688986> : tensor<ui32> loc(#loc233)
    %c_3 = stablehlo.constant dense<[13, 15, 26, 6]> : tensor<4xui32> loc(#loc233)
    %c_4 = stablehlo.constant dense<[17, 29, 16, 24]> : tensor<4xui32> loc(#loc233)
    %0 = stablehlo.xor %arg0, %arg1 : tensor<ui32> loc(#loc93)
    %1 = stablehlo.xor %0, %c_2 : tensor<ui32> loc(#loc93)
    %2 = stablehlo.broadcast_in_dim %arg0, dims = [] : (tensor<ui32>) -> tensor<16x1xui32> loc(#loc86)
    %3 = stablehlo.add %arg2, %2 : tensor<16x1xui32> loc(#loc86)
    %4 = stablehlo.broadcast_in_dim %arg1, dims = [] : (tensor<ui32>) -> tensor<16x1xui32> loc(#loc86)
    %5 = stablehlo.add %arg3, %4 : tensor<16x1xui32> loc(#loc86)
    %6:9 = stablehlo.while(%iterArg = %c_1, %iterArg_5 = %c_1, %iterArg_6 = %3, %iterArg_7 = %5, %iterArg_8 = %arg1, %iterArg_9 = %1, %iterArg_10 = %arg0, %iterArg_11 = %c_3, %iterArg_12 = %c_4) : tensor<i32>, tensor<i32>, tensor<16x1xui32>, tensor<16x1xui32>, tensor<ui32>, tensor<ui32>, tensor<ui32>, tensor<4xui32>, tensor<4xui32>
    cond {
      %7 = stablehlo.compare LT, %iterArg, %c_0, SIGNED : (tensor<i32>, tensor<i32>) -> tensor<i1> loc(#loc117)
      stablehlo.return %7 : tensor<i1> loc(#loc116)
    } do {
      %7:8 = func.call @closed_call_35(%iterArg_5, %iterArg_6, %iterArg_7, %iterArg_8, %iterArg_9, %iterArg_10, %iterArg_11, %iterArg_12) : (tensor<i32>, tensor<16x1xui32>, tensor<16x1xui32>, tensor<ui32>, tensor<ui32>, tensor<ui32>, tensor<4xui32>, tensor<4xui32>) -> (tensor<i32>, tensor<16x1xui32>, tensor<16x1xui32>, tensor<ui32>, tensor<ui32>, tensor<ui32>, tensor<4xui32>, tensor<4xui32>) loc(#loc118)
      %8 = stablehlo.add %iterArg, %c : tensor<i32> loc(#loc119)
      stablehlo.return %8, %7#0, %7#1, %7#2, %7#3, %7#4, %7#5, %7#6, %7#7 : tensor<i32>, tensor<i32>, tensor<16x1xui32>, tensor<16x1xui32>, tensor<ui32>, tensor<ui32>, tensor<ui32>, tensor<4xui32>, tensor<4xui32> loc(#loc116)
    } loc(#loc116)
    return %6#2, %6#3 : tensor<16x1xui32>, tensor<16x1xui32> loc(#loc)
  } loc(#loc)
  func.func private @closed_call_35(%arg0: tensor<i32> loc(unknown), %arg1: tensor<16x1xui32> loc(unknown), %arg2: tensor<16x1xui32> loc(unknown), %arg3: tensor<ui32> loc(unknown), %arg4: tensor<ui32> loc(unknown), %arg5: tensor<ui32> loc(unknown), %arg6: tensor<4xui32> loc(unknown), %arg7: tensor<4xui32> loc(unknown)) -> (tensor<i32>, tensor<16x1xui32>, tensor<16x1xui32>, tensor<ui32>, tensor<ui32>, tensor<ui32>, tensor<4xui32>, tensor<4xui32>) {
    %c = stablehlo.constant dense<32> : tensor<ui32> loc(#loc)
    %c_0 = stablehlo.constant dense<1> : tensor<i32> loc(#loc)
    %0 = stablehlo.add %arg0, %c_0 : tensor<i32> loc(#loc86)
    %1 = stablehlo.slice %arg6 [0:1] : (tensor<4xui32>) -> tensor<1xui32> loc(#loc87)
    %2 = stablehlo.reshape %1 : (tensor<1xui32>) -> tensor<ui32> loc(#loc88)
    %3 = stablehlo.add %arg1, %arg2 : tensor<16x1xui32> loc(#loc86)
    %4 = stablehlo.broadcast_in_dim %2, dims = [] : (tensor<ui32>) -> tensor<16x1xui32> loc(#loc89)
    %5 = stablehlo.shift_left %arg2, %4 : tensor<16x1xui32> loc(#loc89)
    %6 = stablehlo.subtract %c, %2 : tensor<ui32> loc(#loc90)
    %7 = stablehlo.broadcast_in_dim %6, dims = [] : (tensor<ui32>) -> tensor<16x1xui32> loc(#loc91)
    %8 = stablehlo.shift_right_logical %arg2, %7 : tensor<16x1xui32> loc(#loc91)
    %9 = stablehlo.or %5, %8 : tensor<16x1xui32> loc(#loc92)
    %10 = stablehlo.xor %3, %9 : tensor<16x1xui32> loc(#loc93)
    %11 = stablehlo.slice %arg6 [1:2] : (tensor<4xui32>) -> tensor<1xui32> loc(#loc87)
    %12 = stablehlo.reshape %11 : (tensor<1xui32>) -> tensor<ui32> loc(#loc88)
    %13 = stablehlo.add %3, %10 : tensor<16x1xui32> loc(#loc86)
    %14 = stablehlo.broadcast_in_dim %12, dims = [] : (tensor<ui32>) -> tensor<16x1xui32> loc(#loc89)
    %15 = stablehlo.shift_left %10, %14 : tensor<16x1xui32> loc(#loc89)
    %16 = stablehlo.subtract %c, %12 : tensor<ui32> loc(#loc90)
    %17 = stablehlo.broadcast_in_dim %16, dims = [] : (tensor<ui32>) -> tensor<16x1xui32> loc(#loc91)
    %18 = stablehlo.shift_right_logical %10, %17 : tensor<16x1xui32> loc(#loc91)
    %19 = stablehlo.or %15, %18 : tensor<16x1xui32> loc(#loc92)
    %20 = stablehlo.xor %13, %19 : tensor<16x1xui32> loc(#loc93)
    %21 = stablehlo.slice %arg6 [2:3] : (tensor<4xui32>) -> tensor<1xui32> loc(#loc87)
    %22 = stablehlo.reshape %21 : (tensor<1xui32>) -> tensor<ui32> loc(#loc88)
    %23 = stablehlo.add %13, %20 : tensor<16x1xui32> loc(#loc86)
    %24 = stablehlo.broadcast_in_dim %22, dims = [] : (tensor<ui32>) -> tensor<16x1xui32> loc(#loc89)
    %25 = stablehlo.shift_left %20, %24 : tensor<16x1xui32> loc(#loc89)
    %26 = stablehlo.subtract %c, %22 : tensor<ui32> loc(#loc90)
    %27 = stablehlo.broadcast_in_dim %26, dims = [] : (tensor<ui32>) -> tensor<16x1xui32> loc(#loc91)
    %28 = stablehlo.shift_right_logical %20, %27 : tensor<16x1xui32> loc(#loc91)
    %29 = stablehlo.or %25, %28 : tensor<16x1xui32> loc(#loc92)
    %30 = stablehlo.xor %23, %29 : tensor<16x1xui32> loc(#loc93)
    %31 = stablehlo.slice %arg6 [3:4] : (tensor<4xui32>) -> tensor<1xui32> loc(#loc87)
    %32 = stablehlo.reshape %31 : (tensor<1xui32>) -> tensor<ui32> loc(#loc88)
    %33 = stablehlo.add %23, %30 : tensor<16x1xui32> loc(#loc86)
    %34 = stablehlo.broadcast_in_dim %32, dims = [] : (tensor<ui32>) -> tensor<16x1xui32> loc(#loc89)
    %35 = stablehlo.shift_left %30, %34 : tensor<16x1xui32> loc(#loc89)
    %36 = stablehlo.subtract %c, %32 : tensor<ui32> loc(#loc90)
    %37 = stablehlo.broadcast_in_dim %36, dims = [] : (tensor<ui32>) -> tensor<16x1xui32> loc(#loc91)
    %38 = stablehlo.shift_right_logical %30, %37 : tensor<16x1xui32> loc(#loc91)
    %39 = stablehlo.or %35, %38 : tensor<16x1xui32> loc(#loc92)
    %40 = stablehlo.xor %33, %39 : tensor<16x1xui32> loc(#loc93)
    %41 = stablehlo.broadcast_in_dim %arg3, dims = [] : (tensor<ui32>) -> tensor<16x1xui32> loc(#loc86)
    %42 = stablehlo.add %33, %41 : tensor<16x1xui32> loc(#loc86)
    %43 = stablehlo.broadcast_in_dim %arg4, dims = [] : (tensor<ui32>) -> tensor<16x1xui32> loc(#loc86)
    %44 = stablehlo.add %40, %43 : tensor<16x1xui32> loc(#loc86)
    %45 = stablehlo.add %arg0, %c_0 : tensor<i32> loc(#loc86)
    %46 = stablehlo.convert %45 : (tensor<i32>) -> tensor<ui32> loc(#loc94)
    %47 = stablehlo.broadcast_in_dim %46, dims = [] : (tensor<ui32>) -> tensor<16x1xui32> loc(#loc86)
    %48 = stablehlo.add %44, %47 : tensor<16x1xui32> loc(#loc86)
    return %0, %42, %48, %arg4, %arg5, %arg3, %arg7, %arg6 : tensor<i32>, tensor<16x1xui32>, tensor<16x1xui32>, tensor<ui32>, tensor<ui32>, tensor<ui32>, tensor<4xui32>, tensor<4xui32> loc(#loc)
  } loc(#loc238)
  func.func private @clip_36(%arg0: tensor<16x1xf32> loc(unknown), %arg1: tensor<f32> loc(unknown), %arg2: tensor<f32> loc(unknown)) -> tensor<16x1xf32> {
    %0 = stablehlo.broadcast_in_dim %arg1, dims = [] : (tensor<f32>) -> tensor<16x1xf32> loc(#loc110)
    %1 = stablehlo.maximum %0, %arg0 : tensor<16x1xf32> loc(#loc110)
    %2 = stablehlo.broadcast_in_dim %arg2, dims = [] : (tensor<f32>) -> tensor<16x1xf32> loc(#loc111)
    %3 = stablehlo.minimum %2, %1 : tensor<16x1xf32> loc(#loc111)
    return %3 : tensor<16x1xf32> loc(#loc)
  } loc(#loc236)
} loc(#loc)
#loc2 = loc("/Users/noahfarr/noahfarr.github.io/tools/whlo/export_ppo_wordle.py":202:16 to :51)
#loc3 = loc("/Users/noahfarr/noahfarr.github.io/tools/whlo/export_ppo_wordle.py":218:4 to :10)
#loc5 = loc("/Users/noahfarr/reinforcement-learning/src/algorithms/algorithms/recurrent_ppo.py":298:8 to :47)
#loc6 = loc("/Users/noahfarr/reinforcement-learning/src/environments/environments/wrappers/vectorize.py":20:21 to :54)
#loc7 = loc("/Users/noahfarr/reinforcement-learning/src/algorithms/algorithms/recurrent_ppo.py":300:38 to 302:9)
#loc8 = loc("/Users/noahfarr/reinforcement-learning/src/environments/environments/wrappers/vectorize.py":21:15 to :57)
#loc9 = loc("/Users/noahfarr/reinforcement-learning/src/environments/environments/wordle.py":92:16 to :75)
#loc10 = loc("/Users/noahfarr/reinforcement-learning/src/environments/environments/wrappers/mcp.py":57:23 to :50)
#loc11 = loc("/Users/noahfarr/reinforcement-learning/src/environments/environments/wrappers/wrapper.py":12:15 to :42)
#loc12 = loc("/Users/noahfarr/reinforcement-learning/src/environments/environments/wrappers/vectorize.py":22:15 to :80)
#loc13 = loc("/Users/noahfarr/reinforcement-learning/src/environments/environments/wordle.py":94:26 to :51)
#loc14 = loc("/Users/noahfarr/reinforcement-learning/src/environments/environments/wordle.py":95:27 to :60)
#loc15 = loc("/Users/noahfarr/reinforcement-learning/src/environments/environments/wordle.py":63:12 to :70)
#loc16 = loc("/Users/noahfarr/reinforcement-learning/src/environments/environments/wordle.py":104:16 to :30)
#loc17 = loc("/Users/noahfarr/reinforcement-learning/src/environments/environments/wordle.py":64:43 to :60)
#loc18 = loc("/Users/noahfarr/reinforcement-learning/src/environments/environments/wordle.py":64:11 to :66)
#loc19 = loc("/Users/noahfarr/reinforcement-learning/src/environments/environments/wrappers/mcp.py":61:22 to :58)
#loc20 = loc("/Users/noahfarr/reinforcement-learning/src/environments/environments/wrappers/mcp.py":67:16 to :71)
#loc21 = loc("/Users/noahfarr/reinforcement-learning/.venv/lib/python3.13/site-packages/flax/linen/recurrent.py":610:11 to :60)
#loc22 = loc("/Users/noahfarr/reinforcement-learning/src/networks/networks/blocks/rnn.py":59:15 to :80)
#loc23 = loc("/Users/noahfarr/reinforcement-learning/src/networks/networks/blocks/stack.py":25:21 to :61)
#loc24 = loc("/Users/noahfarr/reinforcement-learning/src/networks/networks/blocks/stack.py":25:15 to :87)
#loc25 = loc("/Users/noahfarr/reinforcement-learning/src/networks/networks/blocks/chunked.py":30:15 to :60)
#loc26 = loc("/Users/noahfarr/reinforcement-learning/src/networks/networks/network.py":36:15 to :60)
#loc27 = loc("/Users/noahfarr/reinforcement-learning/src/algorithms/algorithms/recurrent_ppo.py":305:16 to :68)
#loc28 = loc("/Users/noahfarr/reinforcement-learning/src/utils/utils/axis.py":15:11 to :37)
#loc29 = loc("/Users/noahfarr/reinforcement-learning/src/utils/utils/timestep.py":22:15 to :48)
#loc30 = loc("/Users/noahfarr/reinforcement-learning/src/algorithms/algorithms/recurrent_ppo.py":306:19 to :41)
#loc31 = loc("/Users/noahfarr/reinforcement-learning/src/utils/utils/timestep.py":19:15 to :47)
#loc32 = loc("/Users/noahfarr/reinforcement-learning/src/algorithms/algorithms/recurrent_ppo.py":312:12 to :25)
#loc37 = loc("/Users/noahfarr/reinforcement-learning/.venv/lib/python3.13/site-packages/flax/linen/linear.py":1194:11 to :46)
#loc38 = loc("/Users/noahfarr/noahfarr.github.io/tools/whlo/export_ppo_wordle.py":84:32 to :63)
#loc39 = loc("/Users/noahfarr/noahfarr.github.io/tools/whlo/export_ppo_wordle.py":84:65 to :79)
#loc40 = loc("/Users/noahfarr/noahfarr.github.io/tools/whlo/export_ppo_wordle.py":84:15 to :90)
#loc41 = loc("/Users/noahfarr/reinforcement-learning/src/networks/networks/blocks/chunked.py":14:12 to :73)
#loc42 = loc("/Users/noahfarr/reinforcement-learning/src/networks/networks/network.py":29:19 to :55)
#loc43 = loc("/Users/noahfarr/reinforcement-learning/src/networks/networks/blocks/chunked.py":16:12 to :76)
#loc44 = loc("/Users/noahfarr/reinforcement-learning/src/networks/networks/blocks/chunked.py":18:13 to :22)
#loc46 = loc("/Users/noahfarr/reinforcement-learning/src/networks/networks/blocks/chunked.py":21:22 to :76)
#loc47 = loc("/Users/noahfarr/reinforcement-learning/.venv/lib/python3.13/site-packages/flax/linen/linear.py":263:13 to 268:5)
#loc48 = loc("/Users/noahfarr/reinforcement-learning/src/networks/networks/blocks/projection.py":21:12 to 27:12)
#loc49 = loc("/Users/noahfarr/reinforcement-learning/src/networks/networks/blocks/stack.py":18:29 to :56)
#loc50 = loc("/Users/noahfarr/reinforcement-learning/src/networks/networks/blocks/stack.py":21:15 to :74)
#loc51 = loc("/Users/noahfarr/reinforcement-learning/src/networks/networks/blocks/chunked.py":20:19 to 22:9)
#loc52 = loc("/Users/noahfarr/reinforcement-learning/.venv/lib/python3.13/site-packages/flax/linen/linear.py":270:13 to 272:7)
#loc53 = loc("/Users/noahfarr/reinforcement-learning/.venv/lib/python3.13/site-packages/flax/linen/linear.py":287:8 to 292:5)
#loc54 = loc("/Users/noahfarr/reinforcement-learning/.venv/lib/python3.13/site-packages/flax/linen/linear.py":294:11 to :57)
#loc55 = loc("/Users/noahfarr/reinforcement-learning/.venv/lib/python3.13/site-packages/flax/linen/linear.py":294:6 to :57)
#loc56 = loc("/Users/noahfarr/reinforcement-learning/src/networks/networks/blocks/projection.py":29:16 to :34)
#loc57 = loc("/Users/noahfarr/reinforcement-learning/src/networks/networks/blocks/rnn.py":38:24 to 40:9)
#loc58 = loc("/Users/noahfarr/reinforcement-learning/.venv/lib/python3.13/site-packages/flax/core/axes_scan.py":124:13 to :35)
#loc59 = loc("/Users/noahfarr/reinforcement-learning/.venv/lib/python3.13/site-packages/flax/core/axes_scan.py":126:11 to :44)
#loc60 = loc("/Users/noahfarr/reinforcement-learning/.venv/lib/python3.13/site-packages/flax/core/axes_scan.py":150:9 to :66)
#loc61 = loc("/Users/noahfarr/reinforcement-learning/src/networks/networks/blocks/rnn.py":54:15 to :53)
#loc62 = loc("/Users/noahfarr/reinforcement-learning/src/networks/networks/blocks/rnn.py":13:30 to :82)
#loc63 = loc("/Users/noahfarr/reinforcement-learning/src/networks/networks/blocks/rnn.py":12:11 to 16:5)
#loc64 = loc("/Users/noahfarr/reinforcement-learning/src/networks/networks/blocks/rnn.py":44:20 to :59)
#loc65 = loc("/Users/noahfarr/reinforcement-learning/.venv/lib/python3.13/site-packages/flax/core/axes_scan.py":157:29 to :53)
#loc66 = loc("/Users/noahfarr/reinforcement-learning/.venv/lib/python3.13/site-packages/flax/core/axes_scan.py":186:22 to :65)
#loc67 = loc("/Users/noahfarr/reinforcement-learning/.venv/lib/python3.13/site-packages/flax/linen/recurrent.py":588:21 to :47)
#loc68 = loc("/Users/noahfarr/reinforcement-learning/src/networks/networks/blocks/rnn.py":45:19 to :40)
#loc69 = loc("/Users/noahfarr/reinforcement-learning/.venv/lib/python3.13/site-packages/flax/linen/recurrent.py":588:50 to :71)
#loc70 = loc("/Users/noahfarr/reinforcement-learning/.venv/lib/python3.13/site-packages/flax/linen/recurrent.py":589:21 to :47)
#loc71 = loc("/Users/noahfarr/reinforcement-learning/.venv/lib/python3.13/site-packages/flax/linen/recurrent.py":589:50 to :71)
#loc72 = loc("/Users/noahfarr/reinforcement-learning/.venv/lib/python3.13/site-packages/flax/linen/recurrent.py":592:6 to :32)
#loc73 = loc("/Users/noahfarr/reinforcement-learning/.venv/lib/python3.13/site-packages/flax/linen/recurrent.py":592:39 to :75)
#loc74 = loc("/Users/noahfarr/reinforcement-learning/.venv/lib/python3.13/site-packages/flax/core/axes_scan.py":200:14 to 203:7)
#loc75 = loc("/Users/noahfarr/reinforcement-learning/src/networks/networks/actor_critic.py":11:15 to :28)
#loc76 = loc("/Users/noahfarr/reinforcement-learning/src/networks/networks/network.py":30:22 to :44)
#loc77 = loc("/Users/noahfarr/reinforcement-learning/src/networks/networks/actor_critic.py":11:30 to :44)
#loc78 = loc("/Users/noahfarr/reinforcement-learning/.venv/lib/python3.13/site-packages/optax/tree_utils/_tree_math.py":335:32 to :62)
#loc79 = loc("/Users/noahfarr/reinforcement-learning/.venv/lib/python3.13/site-packages/optax/tree_utils/_tree_math.py":335:9 to :69)
#loc80 = loc("/Users/noahfarr/reinforcement-learning/.venv/lib/python3.13/site-packages/optax/_src/transform.py":277:9 to :54)
#loc81 = loc("/Users/noahfarr/reinforcement-learning/.venv/lib/python3.13/site-packages/optax/transforms/_combining.py":79:17 to :27)
#loc82 = loc("/Users/noahfarr/reinforcement-learning/.venv/lib/python3.13/site-packages/optax/transforms/_combining.py":79:11 to :47)
#loc83 = loc("/Users/noahfarr/reinforcement-learning/src/algorithms/algorithms/recurrent_ppo.py":315:26 to :53)
#loc84 = loc("/Users/noahfarr/reinforcement-learning/.venv/lib/python3.13/site-packages/optax/_src/transform.py":278:9 to :38)
#loc85 = loc("threefry2x32")
#loc86 = loc("add")
#loc87 = loc("slice")
#loc88 = loc("squeeze")
#loc89 = loc("shift_left")
#loc90 = loc("sub")
#loc91 = loc("shift_right_logical")
#loc92 = loc("or")
#loc93 = loc("xor")
#loc94 = loc("convert_element_type")
#loc97 = loc("jit(clip)")
#loc98 = loc("gt")
#loc99 = loc("vmap(jit(_threefry_split))")
#loc100 = loc("vmap()/slice")
#loc101 = loc("vmap()/squeeze")
#loc103 = loc("vmap()/xor")
#loc104 = loc("le")
#loc105 = loc("select_n")
#loc106 = loc("and")
#loc107 = loc("rem")
#loc108 = loc("mul")
#loc109 = loc("jit")
#loc110 = loc("max")
#loc111 = loc("min")
#loc112 = loc("vmap()/jit")
#loc113 = loc("iota_2x32_shape")
#loc114 = loc("broadcast_in_dim")
#loc115 = loc("stack")
#loc116 = loc("while")
#loc117 = loc("while/cond/lt")
#loc118 = loc("while/body/closed_call")
#loc119 = loc("while/body/add")
#loc120 = loc("iota")
#loc121 = loc("eq")
#loc122 = loc("jit(_normal_real)")
#loc123 = loc("erf_inv")
#loc124 = loc("jit(_uniform)")
#loc125 = loc("")
#loc126 = loc("bitcast_convert_type")
#loc127 = loc("gather")
#loc128 = loc("reduce_and")
#loc129 = loc("lt")
#loc130 = loc("jit(_where)")
#loc131 = loc("ge")
#loc132 = loc("div")
#loc134 = loc("nextafter")
#loc135 = loc("dynamic_slice")
#loc136 = loc("/Users/noahfarr/reinforcement-learning/src/utils/utils/axis.py":31:11 to :65)
#loc137 = loc("/Users/noahfarr/reinforcement-learning/src/networks/networks/blocks/rnn.py":13:40 to :66)
#loc138 = loc("/Users/noahfarr/reinforcement-learning/.venv/lib/python3.13/site-packages/flax/linen/recurrent.py":588:21 to :71)
#loc139 = loc("/Users/noahfarr/reinforcement-learning/.venv/lib/python3.13/site-packages/flax/linen/recurrent.py":588:8 to :72)
#loc140 = loc("/Users/noahfarr/reinforcement-learning/.venv/lib/python3.13/site-packages/flax/linen/recurrent.py":589:21 to :71)
#loc141 = loc("/Users/noahfarr/reinforcement-learning/.venv/lib/python3.13/site-packages/flax/linen/recurrent.py":589:8 to :72)
#loc142 = loc("/Users/noahfarr/reinforcement-learning/.venv/lib/python3.13/site-packages/flax/linen/recurrent.py":592:35 to :75)
#loc143 = loc("/Users/noahfarr/reinforcement-learning/.venv/lib/python3.13/site-packages/flax/linen/recurrent.py":592:6 to :75)
#loc144 = loc("/Users/noahfarr/reinforcement-learning/.venv/lib/python3.13/site-packages/flax/linen/recurrent.py":591:8 to 593:5)
#loc145 = loc("/Users/noahfarr/reinforcement-learning/.venv/lib/python3.13/site-packages/flax/linen/recurrent.py":594:13 to :20)
#loc146 = loc("/Users/noahfarr/reinforcement-learning/.venv/lib/python3.13/site-packages/flax/linen/recurrent.py":594:12 to :25)
#loc147 = loc("/Users/noahfarr/reinforcement-learning/.venv/lib/python3.13/site-packages/flax/linen/recurrent.py":594:28 to :33)
#loc148 = loc("/Users/noahfarr/reinforcement-learning/.venv/lib/python3.13/site-packages/flax/linen/recurrent.py":594:12 to :33)
#loc149 = loc("dynamic_update_slice")
#loc150 = loc("main"(#loc2))
#loc151 = loc("<module>"(#loc3))
#loc153 = loc("RecurrentPPO.init"(#loc5))
#loc154 = loc("Vectorize.init"(#loc6))
#loc155 = loc("RecurrentPPO.init"(#loc7))
#loc156 = loc("Vectorize.init"(#loc8))
#loc157 = loc("Wordle.init"(#loc9))
#loc158 = loc("MCP.init"(#loc10))
#loc159 = loc("Wrapper.init"(#loc11))
#loc160 = loc("Vectorize.init"(#loc12))
#loc161 = loc("Wordle.init"(#loc13))
#loc162 = loc("Wordle.init"(#loc14))
#loc163 = loc("get_obs"(#loc15))
#loc164 = loc("Wordle.init"(#loc16))
#loc165 = loc("get_obs"(#loc17))
#loc166 = loc("get_obs"(#loc18))
#loc167 = loc("MCP.init"(#loc19))
#loc168 = loc("MCP.init"(#loc20))
#loc169 = loc("GRUCell.initialize_carry"(#loc21))
#loc170 = loc("RNN.initialize_carry"(#loc22))
#loc171 = loc("Stack.initialize_carry.<locals>.<genexpr>"(#loc23))
#loc172 = loc("Stack.initialize_carry"(#loc24))
#loc173 = loc("Chunked.initialize_carry"(#loc25))
#loc174 = loc("Network.initialize_carry"(#loc26))
#loc175 = loc("RecurrentPPO.init"(#loc27))
#loc176 = loc("add_time_axis"(#loc28))
#loc177 = loc("Timestep.to_sequence"(#loc29))
#loc178 = loc("RecurrentPPO.init"(#loc30))
#loc179 = loc("Timestep.done"(#loc31))
#loc180 = loc("RecurrentPPO.init"(#loc32))
#loc185 = loc("Embed.__call__"(#loc37))
#loc186 = loc("TokenFeatureExtractor.__call__"(#loc38))
#loc187 = loc("TokenFeatureExtractor.__call__"(#loc39))
#loc188 = loc("TokenFeatureExtractor.__call__"(#loc40))
#loc189 = loc("Chunked.__call__"(#loc41))
#loc190 = loc("Network.__call__"(#loc42))
#loc191 = loc("Chunked.__call__"(#loc43))
#loc192 = loc("Chunked.__call__"(#loc44))
#loc194 = loc("Chunked.__call__"(#loc46))
#loc195 = loc("Dense.__call__"(#loc47))
#loc196 = loc("Projection.__call__"(#loc48))
#loc197 = loc("Stack.__call__.<locals>.step"(#loc49))
#loc198 = loc("Stack.__call__"(#loc50))
#loc199 = loc("Chunked.__call__"(#loc51))
#loc200 = loc("Dense.__call__"(#loc52))
#loc201 = loc("Dense.__call__"(#loc53))
#loc202 = loc("Dense.__call__"(#loc54))
#loc203 = loc("Dense.__call__"(#loc55))
#loc204 = loc("Projection.__call__"(#loc56))
#loc205 = loc("RNN.__call__"(#loc57))
#loc206 = loc("scan.<locals>.transpose_to_front.<locals>.trans"(#loc58))
#loc207 = loc("scan.<locals>.transpose_to_front"(#loc59))
#loc208 = loc("scan.<locals>.scan_fn"(#loc60))
#loc209 = loc("RNN.__call__"(#loc61))
#loc210 = loc("reset_carry.<locals>.<lambda>"(#loc62))
#loc211 = loc("reset_carry"(#loc63))
#loc212 = loc("RNN.__call__.<locals>.scan_fn"(#loc64))
#loc213 = loc("scan.<locals>.scan_fn.<locals>.body_fn"(#loc65))
#loc214 = loc("scan.<locals>.scan_fn"(#loc66))
#loc215 = loc("GRUCell.__call__"(#loc67))
#loc216 = loc("RNN.__call__.<locals>.scan_fn"(#loc68))
#loc217 = loc("GRUCell.__call__"(#loc69))
#loc218 = loc("GRUCell.__call__"(#loc70))
#loc219 = loc("GRUCell.__call__"(#loc71))
#loc220 = loc("GRUCell.__call__"(#loc72))
#loc221 = loc("GRUCell.__call__"(#loc73))
#loc222 = loc("scan.<locals>.scan_fn"(#loc74))
#loc223 = loc("ActorCritic.__call__"(#loc75))
#loc224 = loc("Network.__call__"(#loc76))
#loc225 = loc("ActorCritic.__call__"(#loc77))
#loc226 = loc("tree_zeros_like.<locals>.<lambda>"(#loc78))
#loc227 = loc("tree_zeros_like"(#loc79))
#loc228 = loc("scale_by_adam.<locals>.init_fn"(#loc80))
#loc229 = loc("chain.<locals>.init_fn.<locals>.<genexpr>"(#loc81))
#loc230 = loc("chain.<locals>.init_fn"(#loc82))
#loc231 = loc("RecurrentPPO.init"(#loc83))
#loc232 = loc("scale_by_adam.<locals>.init_fn"(#loc84))
#loc233 = loc("threefry2x32:"(#loc85))
#loc236 = loc("jit:"(#loc109))
#loc237 = loc("jit:"(#loc112))
#loc238 = loc("closed_call:"(#loc118))
#loc239 = loc("broadcast_done"(#loc136))
#loc240 = loc("reset_carry.<locals>.<lambda>"(#loc137))
#loc241 = loc("GRUCell.__call__"(#loc138))
#loc242 = loc("GRUCell.__call__"(#loc139))
#loc243 = loc("GRUCell.__call__"(#loc140))
#loc244 = loc("GRUCell.__call__"(#loc141))
#loc245 = loc("GRUCell.__call__"(#loc142))
#loc246 = loc("GRUCell.__call__"(#loc143))
#loc247 = loc("GRUCell.__call__"(#loc144))
#loc248 = loc("GRUCell.__call__"(#loc145))
#loc249 = loc("GRUCell.__call__"(#loc146))
#loc250 = loc("GRUCell.__call__"(#loc147))
#loc251 = loc("GRUCell.__call__"(#loc148))
#loc252 = loc(callsite(#loc150 at #loc151))
#loc253 = loc(callsite(#loc154 at #loc155))
#loc255 = loc(callsite(#loc190 at #loc184))
#loc256 = loc("jit"(#loc152))
#loc257 = loc("iota_2x32_shape"(#loc152))
#loc258 = loc("slice"(#loc152))
#loc259 = loc("squeeze"(#loc152))
#loc260 = loc("stack"(#loc152))
#loc261 = loc("xor"(#loc152))
#loc262 = loc("add"(#loc152))
#loc263 = loc(callsite(#loc152 at #loc152))
#loc264 = loc("while/body/closed_call"(#loc152))
#loc266 = loc(callsite(#loc212 at #loc213))
#loc267 = loc(callsite(#loc216 at #loc213))
#loc268 = loc("jit(init)"(#loc252))
#loc269 = loc(callsite(#loc152 at #loc252))
#loc270 = loc(callsite(#loc153 at #loc252))
#loc271 = loc(callsite(#loc155 at #loc252))
#loc272 = loc(callsite(#loc175 at #loc252))
#loc273 = loc(callsite(#loc178 at #loc252))
#loc274 = loc(callsite(#loc180 at #loc252))
#loc276 = loc(callsite(#loc184 at #loc252))
#loc277 = loc(callsite(#loc199 at #loc255))
#loc278 = loc(callsite(#loc231 at #loc252))
#loc279 = loc("jit:"(#loc256))
#loc280 = loc("while"(#loc263))
#loc281 = loc(callsite(#loc263 at #loc152))
#loc282 = loc("closed_call:"(#loc264))
#loc283 = loc("jit"(#loc253))
#loc284 = loc("iota_2x32_shape"(#loc265))
#loc285 = loc("slice"(#loc265))
#loc286 = loc("squeeze"(#loc265))
#loc287 = loc("stack"(#loc265))
#loc288 = loc("xor"(#loc265))
#loc289 = loc("add"(#loc265))
#loc290 = loc(callsite(#loc265 at #loc265))
#loc291 = loc("while/body/closed_call"(#loc265))
#loc292 = loc(callsite(#loc211 at #loc266))
#loc293 = loc(callsite(#loc215 at #loc267))
#loc294 = loc(callsite(#loc217 at #loc267))
#loc295 = loc(callsite(#loc241 at #loc267))
#loc296 = loc(callsite(#loc242 at #loc267))
#loc297 = loc(callsite(#loc218 at #loc267))
#loc298 = loc(callsite(#loc219 at #loc267))
#loc299 = loc(callsite(#loc243 at #loc267))
#loc300 = loc(callsite(#loc244 at #loc267))
#loc301 = loc(callsite(#loc220 at #loc267))
#loc302 = loc(callsite(#loc221 at #loc267))
#loc303 = loc(callsite(#loc245 at #loc267))
#loc304 = loc(callsite(#loc246 at #loc267))
#loc305 = loc(callsite(#loc247 at #loc267))
#loc306 = loc(callsite(#loc248 at #loc267))
#loc307 = loc(callsite(#loc249 at #loc267))
#loc308 = loc(callsite(#loc250 at #loc267))
#loc309 = loc(callsite(#loc251 at #loc267))
#loc310 = loc(callsite(#loc152 at #loc269))
#loc311 = loc("jit(init)/slice"(#loc270))
#loc312 = loc("jit(init)/squeeze"(#loc270))
#loc313 = loc(callsite(#loc154 at #loc271))
#loc314 = loc(callsite(#loc156 at #loc271))
#loc315 = loc(callsite(#loc160 at #loc271))
#loc316 = loc(callsite(#loc174 at #loc272))
#loc317 = loc(callsite(#loc177 at #loc273))
#loc318 = loc(callsite(#loc179 at #loc274))
#loc320 = loc(callsite(#loc183 at #loc276))
#loc321 = loc(callsite(#loc190 at #loc276))
#loc322 = loc(callsite(#loc198 at #loc277))
#loc323 = loc(callsite(#loc224 at #loc276))
#loc324 = loc(callsite(#loc230 at #loc278))
#loc325 = loc("while/cond/lt"(#loc281))
#loc326 = loc("while/body/closed_call"(#loc281))
#loc327 = loc("while/body/add"(#loc281))
#loc328 = loc("jit:"(#loc283))
#loc329 = loc("while"(#loc290))
#loc330 = loc(callsite(#loc290 at #loc265))
#loc331 = loc("closed_call:"(#loc291))
#loc332 = loc(callsite(#loc240 at #loc292))
#loc333 = loc(callsite(#loc210 at #loc292))
#loc334 = loc(callsite(#loc201 at #loc293))
#loc335 = loc(callsite(#loc202 at #loc293))
#loc336 = loc(callsite(#loc203 at #loc293))
#loc337 = loc(callsite(#loc201 at #loc294))
#loc338 = loc("cell.scan_fn/cell/add"(#loc295))
#loc339 = loc(callsite(#loc296 at #loc296))
#loc340 = loc(callsite(#loc201 at #loc297))
#loc341 = loc(callsite(#loc202 at #loc297))
#loc342 = loc(callsite(#loc203 at #loc297))
#loc343 = loc(callsite(#loc201 at #loc298))
#loc344 = loc("cell.scan_fn/cell/add"(#loc299))
#loc345 = loc(callsite(#loc296 at #loc300))
#loc346 = loc(callsite(#loc201 at #loc301))
#loc347 = loc(callsite(#loc202 at #loc301))
#loc348 = loc(callsite(#loc203 at #loc301))
#loc349 = loc(callsite(#loc201 at #loc302))
#loc350 = loc(callsite(#loc202 at #loc302))
#loc351 = loc(callsite(#loc203 at #loc302))
#loc352 = loc("cell.scan_fn/cell/mul"(#loc303))
#loc353 = loc("cell.scan_fn/cell/add"(#loc304))
#loc354 = loc("cell.scan_fn/cell/tanh"(#loc305))
#loc355 = loc("cell.scan_fn/cell/sub"(#loc306))
#loc356 = loc("cell.scan_fn/cell/mul"(#loc307))
#loc357 = loc("cell.scan_fn/cell/mul"(#loc308))
#loc358 = loc("cell.scan_fn/cell/add"(#loc309))
#loc359 = loc("jit(init)/jit(_threefry_split)"(#loc310))
#loc360 = loc(callsite(#loc253 at #loc313))
#loc361 = loc("jit(init)/broadcast_in_dim"(#loc314))
#loc362 = loc("jit(init)/reshape"(#loc314))
#loc363 = loc(callsite(#loc159 at #loc315))
#loc364 = loc("jit(init)/vmap()/broadcast_in_dim"(#loc315))
#loc365 = loc(callsite(#loc173 at #loc316))
#loc366 = loc(callsite(#loc176 at #loc317))
#loc367 = loc("jit(init)/or"(#loc318))
#loc368 = loc(callsite(#loc182 at #loc320))
#loc369 = loc(callsite(#loc186 at #loc320))
#loc370 = loc(callsite(#loc187 at #loc320))
#loc371 = loc(callsite(#loc188 at #loc320))
#loc372 = loc(callsite(#loc189 at #loc321))
#loc373 = loc(callsite(#loc191 at #loc321))
#loc374 = loc(callsite(#loc192 at #loc321))
#loc375 = loc(callsite(#loc194 at #loc321))
#loc376 = loc(callsite(#loc199 at #loc321))
#loc377 = loc(callsite(#loc197 at #loc322))
#loc378 = loc(callsite(#loc223 at #loc323))
#loc379 = loc(callsite(#loc225 at #loc323))
#loc380 = loc(callsite(#loc229 at #loc324))
#loc381 = loc("while/cond/lt"(#loc330))
#loc382 = loc("while/body/closed_call"(#loc330))
#loc383 = loc("while/body/add"(#loc330))
#loc384 = loc("jit"(#loc319))
#loc385 = loc("shift_right_logical"(#loc319))
#loc386 = loc("broadcast_in_dim"(#loc319))
#loc387 = loc("and"(#loc319))
#loc388 = loc("concatenate"(#loc319))
#loc389 = loc("slice"(#loc319))
#loc390 = loc("squeeze"(#loc319))
#loc391 = loc("split"(#loc319))
#loc392 = loc("xor"(#loc319))
#loc393 = loc("add"(#loc319))
#loc394 = loc(callsite(#loc319 at #loc319))
#loc395 = loc("while/body/closed_call"(#loc319))
#loc396 = loc(callsite(#loc239 at #loc332))
#loc397 = loc("cell.scan_fn/jit(_where)"(#loc333))
#loc398 = loc("cell.scan_fn/cell/ir/dot_general"(#loc334))
#loc399 = loc("cell.scan_fn/cell/ir/reshape"(#loc335))
#loc400 = loc("cell.scan_fn/cell/ir/add"(#loc336))
#loc401 = loc("cell.scan_fn/cell/hr/dot_general"(#loc337))
#loc402 = loc("cell.scan_fn/cell/neg"(#loc339))
#loc403 = loc("cell.scan_fn/cell/exp"(#loc339))
#loc404 = loc("cell.scan_fn/cell/add"(#loc339))
#loc405 = loc("cell.scan_fn/cell/div"(#loc339))
#loc406 = loc("cell.scan_fn/cell/iz/dot_general"(#loc340))
#loc407 = loc("cell.scan_fn/cell/iz/reshape"(#loc341))
#loc408 = loc("cell.scan_fn/cell/iz/add"(#loc342))
#loc409 = loc("cell.scan_fn/cell/hz/dot_general"(#loc343))
#loc410 = loc("cell.scan_fn/cell/neg"(#loc345))
#loc411 = loc("cell.scan_fn/cell/exp"(#loc345))
#loc412 = loc("cell.scan_fn/cell/add"(#loc345))
#loc413 = loc("cell.scan_fn/cell/div"(#loc345))
#loc414 = loc("cell.scan_fn/cell/in/dot_general"(#loc346))
#loc415 = loc("cell.scan_fn/cell/in/reshape"(#loc347))
#loc416 = loc("cell.scan_fn/cell/in/add"(#loc348))
#loc417 = loc("cell.scan_fn/cell/hn/dot_general"(#loc349))
#loc418 = loc("cell.scan_fn/cell/hn/reshape"(#loc350))
#loc419 = loc("cell.scan_fn/cell/hn/add"(#loc351))
#loc420 = loc("cell.scan_fn/jit"(#loc333))
#loc421 = loc("jit(init)/jit(_threefry_split)"(#loc360))
#loc422 = loc(callsite(#loc158 at #loc363))
#loc423 = loc(callsite(#loc167 at #loc363))
#loc424 = loc(callsite(#loc168 at #loc363))
#loc425 = loc(callsite(#loc172 at #loc365))
#loc426 = loc("jit(init)/broadcast_in_dim"(#loc366))
#loc427 = loc(callsite(#loc181 at #loc368))
#loc428 = loc(callsite(#loc185 at #loc368))
#loc429 = loc("jit(init)/Network/feature_extractor/broadcast_in_dim"(#loc369))
#loc430 = loc(callsite(#loc185 at #loc370))
#loc431 = loc("jit(init)/Network/feature_extractor/concatenate"(#loc371))
#loc432 = loc("jit(init)/Network/torso/reshape"(#loc372))
#loc433 = loc("jit(init)/Network/torso/broadcast_in_dim"(#loc373))
#loc434 = loc("jit(init)/Network/torso/broadcast_in_dim"(#loc374))
#loc435 = loc("jit(init)/Network/torso/scatter"(#loc374))
#loc436 = loc("jit(init)/Network/torso/reshape"(#loc375))
#loc437 = loc(callsite(#loc198 at #loc376))
#loc438 = loc(callsite(#loc209 at #loc377))
#loc439 = loc(callsite(#loc195 at #loc378))
#loc440 = loc(callsite(#loc195 at #loc379))
#loc441 = loc(callsite(#loc200 at #loc379))
#loc442 = loc(callsite(#loc230 at #loc380))
#loc443 = loc("jit:"(#loc384))
#loc444 = loc("while"(#loc394))
#loc445 = loc(callsite(#loc394 at #loc319))
#loc446 = loc("closed_call:"(#loc395))
#loc447 = loc("cell.scan_fn/reshape"(#loc396))
#loc448 = loc("jit:"(#loc420))
#loc449 = loc(callsite(#loc157 at #loc422))
#loc450 = loc(callsite(#loc161 at #loc422))
#loc451 = loc(callsite(#loc162 at #loc422))
#loc452 = loc(callsite(#loc164 at #loc422))
#loc453 = loc("jit(init)/vmap()/broadcast_in_dim"(#loc423))
#loc454 = loc("jit(init)/vmap()/broadcast_in_dim"(#loc424))
#loc455 = loc(callsite(#loc171 at #loc425))
#loc456 = loc(callsite(#loc319 at #loc427))
#loc457 = loc("jit(init)/Network/feature_extractor/token_embedding.setup/jit(_normal)"(#loc427))
#loc458 = loc("jit(init)/Network/feature_extractor/token_embedding.setup/sqrt"(#loc427))
#loc459 = loc("jit(init)/Network/feature_extractor/token_embedding.setup/mul"(#loc427))
#loc460 = loc("jit(init)/Network/feature_extractor/token_embedding/jit(_take)"(#loc428))
#loc461 = loc("jit(init)/Network/feature_extractor/token_embedding/jit(_take)"(#loc430))
#loc462 = loc(callsite(#loc197 at #loc437))
#loc463 = loc(callsite(#loc222 at #loc438))
#loc464 = loc(callsite(#loc319 at #loc439))
#loc465 = loc("jit(init)/Network/head/actor/sqrt"(#loc439))
#loc466 = loc("jit(init)/Network/head/actor/div"(#loc439))
#loc467 = loc("jit(init)/Network/head/actor/jit(_truncated_normal)"(#loc439))
#loc468 = loc("jit(init)/Network/head/actor/mul"(#loc439))
#loc469 = loc(callsite(#loc319 at #loc440))
#loc470 = loc("jit(init)/Network/head/critic/sqrt"(#loc440))
#loc471 = loc("jit(init)/Network/head/critic/div"(#loc440))
#loc472 = loc("jit(init)/Network/head/critic/jit(_truncated_normal)"(#loc440))
#loc473 = loc("jit(init)/Network/head/critic/mul"(#loc440))
#loc474 = loc(callsite(#loc319 at #loc441))
#loc475 = loc("jit(init)/Network/head/critic/broadcast_in_dim"(#loc441))
#loc476 = loc(callsite(#loc229 at #loc442))
#loc477 = loc("while/cond/lt"(#loc445))
#loc478 = loc("while/body/closed_call"(#loc445))
#loc479 = loc("while/body/add"(#loc445))
#loc480 = loc("jit(init)/Network/feature_extractor/token_embedding.setup/jit"(#loc427))
#loc481 = loc("jit(init)/Network/feature_extractor/token_embedding/jit"(#loc428))
#loc482 = loc("jit(init)/Network/feature_extractor/token_embedding/jit"(#loc430))
#loc483 = loc("jit(init)/Network/head/actor/jit"(#loc439))
#loc484 = loc("jit(init)/Network/head/critic/jit"(#loc440))
#loc485 = loc("jit(init)/vmap(jit(_randint))"(#loc449))
#loc486 = loc("jit(init)/vmap()/lt"(#loc450))
#loc487 = loc("jit(init)/vmap()/add"(#loc450))
#loc488 = loc("jit(init)/vmap()/select_n"(#loc450))
#loc489 = loc("jit(init)/vmap()/broadcast_in_dim"(#loc450))
#loc490 = loc("jit(init)/vmap()/concatenate"(#loc450))
#loc491 = loc("jit(init)/vmap()/gather"(#loc450))
#loc492 = loc("jit(init)/vmap()/squeeze"(#loc450))
#loc493 = loc("jit(init)/vmap()/broadcast_in_dim"(#loc451))
#loc494 = loc(callsite(#loc163 at #loc452))
#loc495 = loc(callsite(#loc165 at #loc452))
#loc496 = loc(callsite(#loc166 at #loc452))
#loc497 = loc(callsite(#loc170 at #loc455))
#loc498 = loc("jit(init)/Network/feature_extractor/token_embedding.setup/jit(_threefry_fold_in)"(#loc456))
#loc499 = loc(callsite(#loc196 at #loc462))
#loc500 = loc(callsite(#loc204 at #loc462))
#loc501 = loc(callsite(#loc205 at #loc462))
#loc502 = loc(callsite(#loc209 at #loc462))
#loc503 = loc(callsite(#loc463 at #loc463))
#loc504 = loc("jit(init)/Network/head/actor/jit(_threefry_fold_in)"(#loc464))
#loc505 = loc("jit(init)/Network/head/critic/jit(_threefry_fold_in)"(#loc469))
#loc506 = loc("jit(init)/Network/head/critic/jit(_threefry_fold_in)"(#loc474))
#loc507 = loc(callsite(#loc228 at #loc476))
#loc508 = loc(callsite(#loc232 at #loc476))
#loc509 = loc("jit(init)/vmap()/jit"(#loc449))
#loc510 = loc("jit:"(#loc480))
#loc511 = loc("jit:"(#loc481))
#loc512 = loc("jit:"(#loc482))
#loc513 = loc("while/body/jit"(#loc463))
#loc514 = loc("while/body/closed_call"(#loc463))
#loc515 = loc("jit:"(#loc483))
#loc516 = loc("jit:"(#loc484))
#loc517 = loc("jit(init)/vmap(jit(_one_hot))"(#loc494))
#loc518 = loc("jit(init)/vmap()/reshape"(#loc495))
#loc519 = loc("jit(init)/vmap(jit(_where))"(#loc496))
#loc520 = loc(callsite(#loc169 at #loc497))
#loc521 = loc(callsite(#loc195 at #loc499))
#loc522 = loc(callsite(#loc200 at #loc499))
#loc523 = loc(callsite(#loc201 at #loc499))
#loc524 = loc(callsite(#loc202 at #loc499))
#loc525 = loc(callsite(#loc203 at #loc499))
#loc526 = loc("jit(init)/Network/torso/block/blocks_0/jit(relu)"(#loc500))
#loc527 = loc(callsite(#loc169 at #loc501))
#loc528 = loc(callsite(#loc208 at #loc502))
#loc529 = loc(callsite(#loc214 at #loc502))
#loc530 = loc(callsite(#loc222 at #loc502))
#loc531 = loc(callsite(#loc227 at #loc507))
#loc532 = loc(callsite(#loc227 at #loc508))
#loc533 = loc("jit:"(#loc509))
#loc534 = loc("jit(init)/vmap()/jit"(#loc494))
#loc535 = loc("jit(init)/vmap()/jit"(#loc496))
#loc536 = loc("jit:"(#loc513))
#loc537 = loc("closed_call:"(#loc514))
#loc538 = loc("jit(init)/broadcast_in_dim"(#loc520))
#loc539 = loc(callsite(#loc319 at #loc521))
#loc540 = loc("jit(init)/Network/torso/block/blocks_0/Dense_0/sqrt"(#loc521))
#loc541 = loc("jit(init)/Network/torso/block/blocks_0/Dense_0/div"(#loc521))
#loc542 = loc("jit(init)/Network/torso/block/blocks_0/Dense_0/jit(_truncated_normal)"(#loc521))
#loc543 = loc("jit(init)/Network/torso/block/blocks_0/Dense_0/mul"(#loc521))
#loc544 = loc(callsite(#loc319 at #loc522))
#loc545 = loc("jit(init)/Network/torso/block/blocks_0/Dense_0/broadcast_in_dim"(#loc522))
#loc546 = loc("jit(init)/Network/torso/block/blocks_0/Dense_0/dot_general"(#loc523))
#loc547 = loc("jit(init)/Network/torso/block/blocks_0/Dense_0/reshape"(#loc524))
#loc548 = loc("jit(init)/Network/torso/block/blocks_0/Dense_0/add"(#loc525))
#loc549 = loc("jit(init)/Network/torso/block/blocks_1/broadcast_in_dim"(#loc527))
#loc550 = loc(callsite(#loc207 at #loc528))
#loc551 = loc(callsite(#loc213 at #loc529))
#loc552 = loc(callsite(#loc463 at #loc530))
#loc553 = loc(callsite(#loc503 at #loc530))
#loc554 = loc(callsite(#loc226 at #loc531))
#loc555 = loc(callsite(#loc226 at #loc532))
#loc556 = loc("jit:"(#loc534))
#loc557 = loc("jit:"(#loc535))
#loc558 = loc("jit(init)/Network/torso/block/blocks_0/Dense_0/jit"(#loc521))
#loc559 = loc("jit(init)/Network/torso/block/blocks_0/Dense_0/jit(_threefry_fold_in)"(#loc539))
#loc560 = loc("jit(init)/Network/torso/block/blocks_0/Dense_0/jit(_threefry_fold_in)"(#loc544))
#loc561 = loc(callsite(#loc206 at #loc550))
#loc562 = loc(callsite(#loc212 at #loc551))
#loc563 = loc(callsite(#loc216 at #loc551))
#loc564 = loc("jit(init)/Network/torso/block/blocks_1/broadcast_in_dim"(#loc552))
#loc565 = loc("jit(init)/Network/torso/block/blocks_1/while"(#loc552))
#loc566 = loc("jit(init)/Network/torso/block/blocks_1/while/cond/lt"(#loc553))
#loc567 = loc("jit(init)/Network/torso/block/blocks_1/while/body/jit(dynamic_index_in_dim)"(#loc553))
#loc568 = loc("jit(init)/Network/torso/block/blocks_1/while/body/closed_call"(#loc553))
#loc569 = loc("jit(init)/Network/torso/block/blocks_1/while/body/jit(dynamic_update_index_in_dim)"(#loc553))
#loc570 = loc("jit(init)/Network/torso/block/blocks_1/while/body/add"(#loc553))
#loc571 = loc("jit(init)/broadcast_in_dim"(#loc554))
#loc572 = loc("jit(init)/broadcast_in_dim"(#loc555))
#loc573 = loc("jit:"(#loc558))
#loc574 = loc("jit(init)/Network/torso/block/blocks_1/transpose"(#loc561))
#loc575 = loc(callsite(#loc211 at #loc562))
#loc576 = loc(callsite(#loc215 at #loc563))
#loc577 = loc(callsite(#loc217 at #loc563))
#loc578 = loc(callsite(#loc218 at #loc563))
#loc579 = loc(callsite(#loc219 at #loc563))
#loc580 = loc(callsite(#loc220 at #loc563))
#loc581 = loc(callsite(#loc221 at #loc563))
#loc582 = loc(callsite(#loc210 at #loc575))
#loc583 = loc(callsite(#loc195 at #loc576))
#loc584 = loc(callsite(#loc200 at #loc576))
#loc585 = loc(callsite(#loc195 at #loc577))
#loc586 = loc(callsite(#loc195 at #loc578))
#loc587 = loc(callsite(#loc200 at #loc578))
#loc588 = loc(callsite(#loc195 at #loc579))
#loc589 = loc(callsite(#loc195 at #loc580))
#loc590 = loc(callsite(#loc200 at #loc580))
#loc591 = loc(callsite(#loc195 at #loc581))
#loc592 = loc(callsite(#loc200 at #loc581))
#loc593 = loc("jit(init)/Network/torso/block/blocks_1/cell.scan_fn/jit(_where)"(#loc582))
#loc594 = loc(callsite(#loc319 at #loc583))
#loc595 = loc("jit(init)/Network/torso/block/blocks_1/cell.scan_fn/cell/ir/sqrt"(#loc583))
#loc596 = loc("jit(init)/Network/torso/block/blocks_1/cell.scan_fn/cell/ir/div"(#loc583))
#loc597 = loc("jit(init)/Network/torso/block/blocks_1/cell.scan_fn/cell/ir/jit(_truncated_normal)"(#loc583))
#loc598 = loc("jit(init)/Network/torso/block/blocks_1/cell.scan_fn/cell/ir/mul"(#loc583))
#loc599 = loc(callsite(#loc319 at #loc584))
#loc600 = loc("jit(init)/Network/torso/block/blocks_1/cell.scan_fn/cell/ir/broadcast_in_dim"(#loc584))
#loc601 = loc(callsite(#loc319 at #loc585))
#loc602 = loc("jit(init)/Network/torso/block/blocks_1/cell.scan_fn/cell/hr/sqrt"(#loc585))
#loc603 = loc("jit(init)/Network/torso/block/blocks_1/cell.scan_fn/cell/hr/div"(#loc585))
#loc604 = loc("jit(init)/Network/torso/block/blocks_1/cell.scan_fn/cell/hr/jit(_truncated_normal)"(#loc585))
#loc605 = loc("jit(init)/Network/torso/block/blocks_1/cell.scan_fn/cell/hr/mul"(#loc585))
#loc606 = loc(callsite(#loc319 at #loc586))
#loc607 = loc("jit(init)/Network/torso/block/blocks_1/cell.scan_fn/cell/iz/sqrt"(#loc586))
#loc608 = loc("jit(init)/Network/torso/block/blocks_1/cell.scan_fn/cell/iz/div"(#loc586))
#loc609 = loc("jit(init)/Network/torso/block/blocks_1/cell.scan_fn/cell/iz/jit(_truncated_normal)"(#loc586))
#loc610 = loc("jit(init)/Network/torso/block/blocks_1/cell.scan_fn/cell/iz/mul"(#loc586))
#loc611 = loc(callsite(#loc319 at #loc587))
#loc612 = loc("jit(init)/Network/torso/block/blocks_1/cell.scan_fn/cell/iz/broadcast_in_dim"(#loc587))
#loc613 = loc(callsite(#loc319 at #loc588))
#loc614 = loc("jit(init)/Network/torso/block/blocks_1/cell.scan_fn/cell/hz/sqrt"(#loc588))
#loc615 = loc("jit(init)/Network/torso/block/blocks_1/cell.scan_fn/cell/hz/div"(#loc588))
#loc616 = loc("jit(init)/Network/torso/block/blocks_1/cell.scan_fn/cell/hz/jit(_truncated_normal)"(#loc588))
#loc617 = loc("jit(init)/Network/torso/block/blocks_1/cell.scan_fn/cell/hz/mul"(#loc588))
#loc618 = loc(callsite(#loc319 at #loc589))
#loc619 = loc("jit(init)/Network/torso/block/blocks_1/cell.scan_fn/cell/in/sqrt"(#loc589))
#loc620 = loc("jit(init)/Network/torso/block/blocks_1/cell.scan_fn/cell/in/div"(#loc589))
#loc621 = loc("jit(init)/Network/torso/block/blocks_1/cell.scan_fn/cell/in/jit(_truncated_normal)"(#loc589))
#loc622 = loc("jit(init)/Network/torso/block/blocks_1/cell.scan_fn/cell/in/mul"(#loc589))
#loc623 = loc(callsite(#loc319 at #loc590))
#loc624 = loc("jit(init)/Network/torso/block/blocks_1/cell.scan_fn/cell/in/broadcast_in_dim"(#loc590))
#loc625 = loc(callsite(#loc319 at #loc591))
#loc626 = loc("jit(init)/Network/torso/block/blocks_1/cell.scan_fn/cell/hn/sqrt"(#loc591))
#loc627 = loc("jit(init)/Network/torso/block/blocks_1/cell.scan_fn/cell/hn/div"(#loc591))
#loc628 = loc("jit(init)/Network/torso/block/blocks_1/cell.scan_fn/cell/hn/jit(_truncated_normal)"(#loc591))
#loc629 = loc("jit(init)/Network/torso/block/blocks_1/cell.scan_fn/cell/hn/mul"(#loc591))
#loc630 = loc(callsite(#loc319 at #loc592))
#loc631 = loc("jit(init)/Network/torso/block/blocks_1/cell.scan_fn/cell/hn/broadcast_in_dim"(#loc592))
#loc632 = loc("jit(init)/Network/torso/block/blocks_1/cell.scan_fn/jit"(#loc582))
#loc633 = loc("jit(init)/Network/torso/block/blocks_1/cell.scan_fn/cell/ir/jit"(#loc583))
#loc634 = loc("jit(init)/Network/torso/block/blocks_1/cell.scan_fn/cell/ir/jit(_threefry_fold_in)"(#loc594))
#loc635 = loc("jit(init)/Network/torso/block/blocks_1/cell.scan_fn/cell/ir/jit(_threefry_fold_in)"(#loc599))
#loc636 = loc("jit(init)/Network/torso/block/blocks_1/cell.scan_fn/cell/hr/jit(_threefry_fold_in)"(#loc601))
#loc637 = loc("jit(init)/Network/torso/block/blocks_1/cell.scan_fn/cell/iz/jit(_threefry_fold_in)"(#loc606))
#loc638 = loc("jit(init)/Network/torso/block/blocks_1/cell.scan_fn/cell/iz/jit(_threefry_fold_in)"(#loc611))
#loc639 = loc("jit(init)/Network/torso/block/blocks_1/cell.scan_fn/cell/hz/jit(_threefry_fold_in)"(#loc613))
#loc640 = loc("jit(init)/Network/torso/block/blocks_1/cell.scan_fn/cell/in/jit(_threefry_fold_in)"(#loc618))
#loc641 = loc("jit(init)/Network/torso/block/blocks_1/cell.scan_fn/cell/in/jit(_threefry_fold_in)"(#loc623))
#loc642 = loc("jit(init)/Network/torso/block/blocks_1/cell.scan_fn/cell/hn/jit(_threefry_fold_in)"(#loc625))
#loc643 = loc("jit(init)/Network/torso/block/blocks_1/cell.scan_fn/cell/hn/jit(_threefry_fold_in)"(#loc630))
#loc644 = loc("jit:"(#loc632))
#loc645 = loc("jit:"(#loc633))
