#loc = loc(unknown)
#loc1 = loc("key")
#loc4 = loc("/Users/noahfarr/reinforcement-learning/src/algorithms/algorithms/recurrent_ppo.py":298:50 to :74)
#loc32 = loc("/Users/noahfarr/reinforcement-learning/.venv/lib/python3.13/site-packages/flax/linen/linear.py":263:13 to 268:5)
#loc33 = loc("/Users/noahfarr/noahfarr.github.io/tools/whlo/export_ppo_wordle.py":121:24 to :77)
#loc34 = loc("/Users/noahfarr/reinforcement-learning/src/algorithms/algorithms/recurrent_ppo.py":307:17 to 314:9)
#loc88 = loc("/Users/noahfarr/reinforcement-learning/src/environments/environments/wrappers/vectorize.py":31:15 to :51)
#loc89 = loc("/Users/noahfarr/reinforcement-learning/src/algorithms/algorithms/recurrent_ppo.py":85:38 to 87:9)
#loc95 = loc("vmap()")
#loc117 = loc("erf")
#loc139 = loc("RecurrentPPO.init"(#loc4))
#loc167 = loc("Dense.__call__"(#loc32))
#loc168 = loc("MaskedActorCriticNetwork.__call__"(#loc33))
#loc169 = loc("RecurrentPPO.init"(#loc34))
#loc214 = loc("Vectorize.step"(#loc88))
#loc215 = loc("RecurrentPPO.rollout"(#loc89))
#loc234 = loc(callsite(#loc168 at #loc169))
#loc245 = loc(callsite(#loc214 at #loc215))
#loc255 = loc(callsite(#loc167 at #loc234))
module @jit_init attributes {jax.uses_shape_polymorphism = false, mhlo.num_partitions = 1 : i32, mhlo.num_replicas = 1 : i32} {
  func.func public @main(%arg0: tensor<2xui32> loc("key")) -> (tensor<i32> {jax.result_info = "result.step"}, tensor<64x16xi1> {jax.result_info = "result.timestep.obs['action_mask']"}, tensor<64x15xf32> {jax.result_info = "result.timestep.obs['observation']"}, tensor<64xi32> {jax.result_info = "result.timestep.action"}, tensor<64xf32> {jax.result_info = "result.timestep.reward"}, tensor<64xi1> {jax.result_info = "result.timestep.terminated"}, tensor<64xi1> {jax.result_info = "result.timestep.truncated"}, tensor<64xf32> {jax.result_info = "result.timestep.info['guess_count']"}, tensor<64xf32> {jax.result_info = "result.timestep.info['illegal_guesses']"}, tensor<64xf32> {jax.result_info = "result.timestep.info['matched_secret']"}, tensor<64x5xi32> {jax.result_info = "result.environment_state.secret_answer"}, tensor<64x5xi32> {jax.result_info = "result.environment_state.guess_feedback"}, tensor<64xi1> {jax.result_info = "result.environment_state.guess_revealed"}, tensor<64xi32> {jax.result_info = "result.environment_state.guess_count"}, tensor<64xi1> {jax.result_info = "result.environment_state.matched_secret"}, tensor<64x32xf32> {jax.result_info = "result.carry[1]"}, tensor<32x16xf32> {jax.result_info = "result.params['params']['actor']['kernel']"}, tensor<1xf32> {jax.result_info = "result.params['params']['critic']['bias']"}, tensor<32x1xf32> {jax.result_info = "result.params['params']['critic']['kernel']"}, tensor<32xf32> {jax.result_info = "result.params['params']['obs']['bias']"}, tensor<15x32xf32> {jax.result_info = "result.params['params']['obs']['kernel']"}, tensor<32xf32> {jax.result_info = "result.params['params']['torso']['blocks_0']['Dense_0']['bias']"}, tensor<48x32xf32> {jax.result_info = "result.params['params']['torso']['blocks_0']['Dense_0']['kernel']"}, tensor<32xf32> {jax.result_info = "result.params['params']['torso']['blocks_1']['cell']['hn']['bias']"}, tensor<32x32xf32> {jax.result_info = "result.params['params']['torso']['blocks_1']['cell']['hn']['kernel']"}, tensor<32x32xf32> {jax.result_info = "result.params['params']['torso']['blocks_1']['cell']['hr']['kernel']"}, tensor<32x32xf32> {jax.result_info = "result.params['params']['torso']['blocks_1']['cell']['hz']['kernel']"}, tensor<32xf32> {jax.result_info = "result.params['params']['torso']['blocks_1']['cell']['in']['bias']"}, tensor<32x32xf32> {jax.result_info = "result.params['params']['torso']['blocks_1']['cell']['in']['kernel']"}, tensor<32xf32> {jax.result_info = "result.params['params']['torso']['blocks_1']['cell']['ir']['bias']"}, tensor<32x32xf32> {jax.result_info = "result.params['params']['torso']['blocks_1']['cell']['ir']['kernel']"}, tensor<32xf32> {jax.result_info = "result.params['params']['torso']['blocks_1']['cell']['iz']['bias']"}, tensor<32x32xf32> {jax.result_info = "result.params['params']['torso']['blocks_1']['cell']['iz']['kernel']"}, tensor<i32> {jax.result_info = "result.optimizer_state[1][0].count"}, tensor<32x16xf32> {jax.result_info = "result.optimizer_state[1][0].mu['params']['actor']['kernel']"}, tensor<1xf32> {jax.result_info = "result.optimizer_state[1][0].mu['params']['critic']['bias']"}, tensor<32x1xf32> {jax.result_info = "result.optimizer_state[1][0].mu['params']['critic']['kernel']"}, tensor<32xf32> {jax.result_info = "result.optimizer_state[1][0].mu['params']['obs']['bias']"}, tensor<15x32xf32> {jax.result_info = "result.optimizer_state[1][0].mu['params']['obs']['kernel']"}, tensor<32xf32> {jax.result_info = "result.optimizer_state[1][0].mu['params']['torso']['blocks_0']['Dense_0']['bias']"}, tensor<48x32xf32> {jax.result_info = "result.optimizer_state[1][0].mu['params']['torso']['blocks_0']['Dense_0']['kernel']"}, tensor<32xf32> {jax.result_info = "result.optimizer_state[1][0].mu['params']['torso']['blocks_1']['cell']['hn']['bias']"}, tensor<32x32xf32> {jax.result_info = "result.optimizer_state[1][0].mu['params']['torso']['blocks_1']['cell']['hn']['kernel']"}, tensor<32x32xf32> {jax.result_info = "result.optimizer_state[1][0].mu['params']['torso']['blocks_1']['cell']['hr']['kernel']"}, tensor<32x32xf32> {jax.result_info = "result.optimizer_state[1][0].mu['params']['torso']['blocks_1']['cell']['hz']['kernel']"}, tensor<32xf32> {jax.result_info = "result.optimizer_state[1][0].mu['params']['torso']['blocks_1']['cell']['in']['bias']"}, tensor<32x32xf32> {jax.result_info = "result.optimizer_state[1][0].mu['params']['torso']['blocks_1']['cell']['in']['kernel']"}, tensor<32xf32> {jax.result_info = "result.optimizer_state[1][0].mu['params']['torso']['blocks_1']['cell']['ir']['bias']"}, tensor<32x32xf32> {jax.result_info = "result.optimizer_state[1][0].mu['params']['torso']['blocks_1']['cell']['ir']['kernel']"}, tensor<32xf32> {jax.result_info = "result.optimizer_state[1][0].mu['params']['torso']['blocks_1']['cell']['iz']['bias']"}, tensor<32x32xf32> {jax.result_info = "result.optimizer_state[1][0].mu['params']['torso']['blocks_1']['cell']['iz']['kernel']"}, tensor<32x16xf32> {jax.result_info = "result.optimizer_state[1][0].nu['params']['actor']['kernel']"}, tensor<1xf32> {jax.result_info = "result.optimizer_state[1][0].nu['params']['critic']['bias']"}, tensor<32x1xf32> {jax.result_info = "result.optimizer_state[1][0].nu['params']['critic']['kernel']"}, tensor<32xf32> {jax.result_info = "result.optimizer_state[1][0].nu['params']['obs']['bias']"}, tensor<15x32xf32> {jax.result_info = "result.optimizer_state[1][0].nu['params']['obs']['kernel']"}, tensor<32xf32> {jax.result_info = "result.optimizer_state[1][0].nu['params']['torso']['blocks_0']['Dense_0']['bias']"}, tensor<48x32xf32> {jax.result_info = "result.optimizer_state[1][0].nu['params']['torso']['blocks_0']['Dense_0']['kernel']"}, tensor<32xf32> {jax.result_info = "result.optimizer_state[1][0].nu['params']['torso']['blocks_1']['cell']['hn']['bias']"}, tensor<32x32xf32> {jax.result_info = "result.optimizer_state[1][0].nu['params']['torso']['blocks_1']['cell']['hn']['kernel']"}, tensor<32x32xf32> {jax.result_info = "result.optimizer_state[1][0].nu['params']['torso']['blocks_1']['cell']['hr']['kernel']"}, tensor<32x32xf32> {jax.result_info = "result.optimizer_state[1][0].nu['params']['torso']['blocks_1']['cell']['hz']['kernel']"}, tensor<32xf32> {jax.result_info = "result.optimizer_state[1][0].nu['params']['torso']['blocks_1']['cell']['in']['bias']"}, tensor<32x32xf32> {jax.result_info = "result.optimizer_state[1][0].nu['params']['torso']['blocks_1']['cell']['in']['kernel']"}, tensor<32xf32> {jax.result_info = "result.optimizer_state[1][0].nu['params']['torso']['blocks_1']['cell']['ir']['bias']"}, tensor<32x32xf32> {jax.result_info = "result.optimizer_state[1][0].nu['params']['torso']['blocks_1']['cell']['ir']['kernel']"}, tensor<32xf32> {jax.result_info = "result.optimizer_state[1][0].nu['params']['torso']['blocks_1']['cell']['iz']['bias']"}, tensor<32x32xf32> {jax.result_info = "result.optimizer_state[1][0].nu['params']['torso']['blocks_1']['cell']['iz']['kernel']"}) {
    %c = stablehlo.constant dense<3831938679> : tensor<ui32> loc(#loc248)
    %c_0 = stablehlo.constant dense<3491981184> : tensor<ui32> loc(#loc248)
    %cst = stablehlo.constant dense<-3.40282347E+38> : tensor<f32> loc(#loc248)
    %c_1 = stablehlo.constant dense<2876566538> : tensor<ui32> loc(#loc248)
    %c_2 = stablehlo.constant dense<1> : tensor<i32> loc(#loc)
    %c_3 = stablehlo.constant dense<667297983> : tensor<ui32> loc(#loc248)
    %c_4 = stablehlo.constant dense<2367511813> : tensor<ui32> loc(#loc248)
    %c_5 = stablehlo.constant dense<2365037529> : tensor<ui32> loc(#loc248)
    %c_6 = stablehlo.constant dense<4088089910> : tensor<ui32> loc(#loc248)
    %c_7 = stablehlo.constant dense<2365977446> : tensor<ui32> loc(#loc248)
    %c_8 = stablehlo.constant dense<600430756> : tensor<ui32> loc(#loc248)
    %c_9 = stablehlo.constant dense<1323703344> : tensor<ui32> loc(#loc248)
    %c_10 = stablehlo.constant dense<2571888726> : tensor<ui32> loc(#loc248)
    %c_11 = stablehlo.constant dense<1015950936> : tensor<ui32> loc(#loc248)
    %cst_12 = stablehlo.constant dense<3.125000e-02> : tensor<f32> loc(#loc)
    %c_13 = stablehlo.constant dense<1784643303> : tensor<ui32> loc(#loc248)
    %c_14 = stablehlo.constant dense<3178254832> : tensor<ui32> loc(#loc248)
    %cst_15 = stablehlo.constant dense<0.020833334> : tensor<f32> loc(#loc248)
    %c_16 = stablehlo.constant dense<1157806390> : tensor<ui32> loc(#loc248)
    %c_17 = stablehlo.constant dense<3085490160> : tensor<ui32> loc(#loc248)
    %c_18 = stablehlo.constant dense<2> : tensor<i32> loc(#loc)
    %c_19 = stablehlo.constant dense<-2> : tensor<i32> loc(#loc)
    %cst_20 = stablehlo.constant dense<0.879625678> : tensor<f32> loc(#loc)
    %cst_21 = stablehlo.constant dense<0.0666666701> : tensor<f32> loc(#loc248)
    %c_22 = stablehlo.constant dense<2075703144> : tensor<ui32> loc(#loc248)
    %c_23 = stablehlo.constant dense<true> : tensor<i1> loc(#loc)
    %cst_24 = stablehlo.constant dense<0.000000e+00> : tensor<f32> loc(#loc)
    %c_25 = stablehlo.constant dense<false> : tensor<i1> loc(#loc)
    %c_26 = stablehlo.constant dense<5> : tensor<i32> loc(#loc248)
    %c_27 = stablehlo.constant dense<16> : tensor<i32> loc(#loc)
    %c_28 = stablehlo.constant dense<0> : tensor<i32> loc(#loc)
    %c_29 = stablehlo.constant dense<[[0, 20, 3, 8, 14], [1, 17, 8, 2, 10], [2, 7, 0, 8, 17], [2, 11, 14, 20, 3], [2, 17, 0, 13, 4], [5, 11, 8, 13, 19], [5, 17, 14, 18, 19], [6, 11, 0, 25, 4], [6, 17, 0, 15, 4], [7, 14, 20, 18, 4], [11, 4, 12, 14, 13], [12, 14, 20, 13, 3], [15, 11, 0, 13, 19], [18, 11, 0, 19, 4], [18, 15, 0, 3, 4], [18, 19, 14, 17, 12]]> : tensor<16x5xi32> loc(#loc248)
    %0 = call @_threefry_split(%arg0) : (tensor<2xui32>) -> tensor<3x2xui32> loc(#loc355)
    %1 = stablehlo.slice %0 [0:1, 0:2] : (tensor<3x2xui32>) -> tensor<1x2xui32> loc(#loc291)
    %2 = stablehlo.reshape %1 : (tensor<1x2xui32>) -> tensor<2xui32> loc(#loc292)
    %3 = stablehlo.slice %0 [1:2, 0:2] : (tensor<3x2xui32>) -> tensor<1x2xui32> loc(#loc291)
    %4 = stablehlo.reshape %3 : (tensor<1x2xui32>) -> tensor<2xui32> loc(#loc292)
    %5 = call @_threefry_split_0(%2) : (tensor<2xui32>) -> tensor<64x2xui32> loc(#loc414)
    %6 = stablehlo.broadcast_in_dim %5, dims = [0, 2] : (tensor<64x2xui32>) -> tensor<64x1x2xui32> loc(#loc357)
    %7 = stablehlo.reshape %6 : (tensor<64x1x2xui32>) -> tensor<64x2xui32> loc(#loc358)
    %8 = call @_randint(%7, %c_28, %c_27) : (tensor<64x2xui32>, tensor<i32>, tensor<i32>) -> tensor<64xi32> loc(#loc477)
    %9 = stablehlo.broadcast_in_dim %c_28, dims = [] : (tensor<i32>) -> tensor<64xi32> loc(#loc478)
    %10 = stablehlo.compare LT, %8, %9, SIGNED : (tensor<64xi32>, tensor<64xi32>) -> tensor<64xi1> loc(#loc478)
    %11 = stablehlo.broadcast_in_dim %c_27, dims = [] : (tensor<i32>) -> tensor<64xi32> loc(#loc479)
    %12 = stablehlo.add %8, %11 : tensor<64xi32> loc(#loc479)
    %13 = stablehlo.select %10, %12, %8 : tensor<64xi1>, tensor<64xi32> loc(#loc480)
    %14 = stablehlo.compare LT, %c_28, %c_28, SIGNED : (tensor<i32>, tensor<i32>) -> tensor<i1> loc(#loc478)
    %15 = stablehlo.add %c_28, %c_26 : tensor<i32> loc(#loc479)
    %16 = stablehlo.select %14, %15, %c_28 : tensor<i1>, tensor<i32> loc(#loc480)
    %17 = stablehlo.broadcast_in_dim %13, dims = [0] : (tensor<64xi32>) -> tensor<64x1xi32> loc(#loc481)
    %18 = stablehlo.broadcast_in_dim %16, dims = [] : (tensor<i32>) -> tensor<64x1xi32> loc(#loc481)
    %19 = stablehlo.concatenate %17, %18, dim = 1 : (tensor<64x1xi32>, tensor<64x1xi32>) -> tensor<64x2xi32> loc(#loc482)
    %20 = "stablehlo.gather"(%c_29, %19) <{dimension_numbers = #stablehlo.gather<offset_dims = [1, 2], start_index_map = [0, 1], index_vector_dim = 1>, slice_sizes = array<i64: 1, 5>}> : (tensor<16x5xi32>, tensor<64x2xi32>) -> tensor<64x1x5xi32> loc(#loc483)
    %21 = stablehlo.reshape %20 : (tensor<64x1x5xi32>) -> tensor<64x5xi32> loc(#loc484)
    %22 = stablehlo.broadcast_in_dim %c_28, dims = [] : (tensor<i32>) -> tensor<5xi32> loc(#loc485)
    %23 = call @_one_hot(%22) : (tensor<5xi32>) -> tensor<5x3xf32> loc(#loc507)
    %24 = stablehlo.reshape %23 : (tensor<5x3xf32>) -> tensor<15xf32> loc(#loc508)
    %25 = call @_where(%c_25, %24, %cst_24) : (tensor<i1>, tensor<15xf32>, tensor<f32>) -> tensor<15xf32> loc(#loc509)
    %26 = stablehlo.broadcast_in_dim %c_23, dims = [] : (tensor<i1>) -> tensor<16xi1> loc(#loc489)
    %27 = stablehlo.broadcast_in_dim %22, dims = [1] : (tensor<5xi32>) -> tensor<64x5xi32> loc(#loc360)
    %28 = stablehlo.broadcast_in_dim %c_25, dims = [] : (tensor<i1>) -> tensor<64xi1> loc(#loc360)
    %29 = stablehlo.broadcast_in_dim %c_28, dims = [] : (tensor<i32>) -> tensor<64xi32> loc(#loc360)
    %30 = stablehlo.broadcast_in_dim %c_25, dims = [] : (tensor<i1>) -> tensor<64xi1> loc(#loc360)
    %31 = stablehlo.broadcast_in_dim %26, dims = [1] : (tensor<16xi1>) -> tensor<64x16xi1> loc(#loc360)
    %32 = stablehlo.broadcast_in_dim %25, dims = [1] : (tensor<15xf32>) -> tensor<64x15xf32> loc(#loc360)
    %33 = stablehlo.broadcast_in_dim %c_28, dims = [] : (tensor<i32>) -> tensor<64xi32> loc(#loc360)
    %34 = stablehlo.broadcast_in_dim %cst_24, dims = [] : (tensor<f32>) -> tensor<64xf32> loc(#loc360)
    %35 = stablehlo.broadcast_in_dim %c_23, dims = [] : (tensor<i1>) -> tensor<64xi1> loc(#loc360)
    %36 = stablehlo.broadcast_in_dim %c_25, dims = [] : (tensor<i1>) -> tensor<64xi1> loc(#loc360)
    %37 = stablehlo.broadcast_in_dim %cst_24, dims = [] : (tensor<f32>) -> tensor<64xf32> loc(#loc360)
    %38 = stablehlo.broadcast_in_dim %cst_24, dims = [] : (tensor<f32>) -> tensor<64xf32> loc(#loc360)
    %39 = stablehlo.broadcast_in_dim %cst_24, dims = [] : (tensor<f32>) -> tensor<64xf32> loc(#loc360)
    %40 = stablehlo.broadcast_in_dim %cst_24, dims = [] : (tensor<f32>) -> tensor<64x32xf32> loc(#loc510)
    %41 = stablehlo.broadcast_in_dim %31, dims = [0, 2] : (tensor<64x16xi1>) -> tensor<64x1x16xi1> loc(#loc418)
    %42 = stablehlo.broadcast_in_dim %32, dims = [0, 2] : (tensor<64x15xf32>) -> tensor<64x1x15xf32> loc(#loc418)
    %43 = stablehlo.broadcast_in_dim %33, dims = [0] : (tensor<64xi32>) -> tensor<64x1xi32> loc(#loc418)
    %44 = stablehlo.broadcast_in_dim %35, dims = [0] : (tensor<64xi1>) -> tensor<64x1xi1> loc(#loc418)
    %45 = stablehlo.broadcast_in_dim %36, dims = [0] : (tensor<64xi1>) -> tensor<64x1xi1> loc(#loc418)
    %46 = stablehlo.or %44, %45 : tensor<64x1xi1> loc(#loc363)
    %47 = call @_threefry_fold_in(%4, %c_22) : (tensor<2xui32>, tensor<ui32>) -> tensor<2xui32> loc(#loc461)
    %48 = stablehlo.sqrt %cst_21 : tensor<f32> loc(#loc420)
    %49 = stablehlo.divide %48, %cst_20 : tensor<f32> loc(#loc421)
    %50 = call @_truncated_normal(%47, %c_19, %c_18) : (tensor<2xui32>, tensor<i32>, tensor<i32>) -> tensor<15x32xf32> loc(#loc422)
    %51 = stablehlo.broadcast_in_dim %49, dims = [] : (tensor<f32>) -> tensor<15x32xf32> loc(#loc423)
    %52 = stablehlo.multiply %50, %51 : tensor<15x32xf32> loc(#loc423)
    %53 = call @_threefry_fold_in(%4, %c_17) : (tensor<2xui32>, tensor<ui32>) -> tensor<2xui32> loc(#loc462)
    %54 = stablehlo.broadcast_in_dim %cst_24, dims = [] : (tensor<f32>) -> tensor<32xf32> loc(#loc425)
    %55 = stablehlo.dot_general %42, %52, contracting_dims = [2] x [0] : (tensor<64x1x15xf32>, tensor<15x32xf32>) -> tensor<64x1x32xf32> loc(#loc426)
    %56 = stablehlo.reshape %54 : (tensor<32xf32>) -> tensor<1x1x32xf32> loc(#loc427)
    %57 = stablehlo.broadcast_in_dim %56, dims = [0, 1, 2] : (tensor<1x1x32xf32>) -> tensor<64x1x32xf32> loc(#loc428)
    %58 = stablehlo.add %55, %57 : tensor<64x1x32xf32> loc(#loc428)
    %59 = call @relu(%58) : (tensor<64x1x32xf32>) -> tensor<64x1x32xf32> loc(#loc369)
    %60 = call @_one_hot_14(%43) : (tensor<64x1xi32>) -> tensor<64x1x16xf32> loc(#loc370)
    %61 = stablehlo.concatenate %59, %60, dim = 2 : (tensor<64x1x32xf32>, tensor<64x1x16xf32>) -> tensor<64x1x48xf32> loc(#loc371)
    %62 = call @_threefry_fold_in(%4, %c_16) : (tensor<2xui32>, tensor<ui32>) -> tensor<2xui32> loc(#loc533)
    %63 = stablehlo.sqrt %cst_15 : tensor<f32> loc(#loc512)
    %64 = stablehlo.divide %63, %cst_20 : tensor<f32> loc(#loc513)
    %65 = call @_truncated_normal_15(%62, %c_19, %c_18) : (tensor<2xui32>, tensor<i32>, tensor<i32>) -> tensor<48x32xf32> loc(#loc514)
    %66 = stablehlo.broadcast_in_dim %64, dims = [] : (tensor<f32>) -> tensor<48x32xf32> loc(#loc515)
    %67 = stablehlo.multiply %65, %66 : tensor<48x32xf32> loc(#loc515)
    %68 = call @_threefry_fold_in(%4, %c_14) : (tensor<2xui32>, tensor<ui32>) -> tensor<2xui32> loc(#loc534)
    %69 = stablehlo.broadcast_in_dim %cst_24, dims = [] : (tensor<f32>) -> tensor<32xf32> loc(#loc517)
    %70 = stablehlo.dot_general %61, %67, contracting_dims = [2] x [0] : (tensor<64x1x48xf32>, tensor<48x32xf32>) -> tensor<64x1x32xf32> loc(#loc518)
    %71 = stablehlo.reshape %69 : (tensor<32xf32>) -> tensor<1x1x32xf32> loc(#loc519)
    %72 = stablehlo.broadcast_in_dim %71, dims = [0, 1, 2] : (tensor<1x1x32xf32>) -> tensor<64x1x32xf32> loc(#loc520)
    %73 = stablehlo.add %70, %72 : tensor<64x1x32xf32> loc(#loc520)
    %74 = call @relu(%73) : (tensor<64x1x32xf32>) -> tensor<64x1x32xf32> loc(#loc496)
    %75 = stablehlo.broadcast_in_dim %cst_24, dims = [] : (tensor<f32>) -> tensor<64x32xf32> loc(#loc521)
    %76 = stablehlo.transpose %74, dims = [1, 0, 2] : (tensor<64x1x32xf32>) -> tensor<1x64x32xf32> loc(#loc551)
    %77 = stablehlo.transpose %46, dims = [1, 0] : (tensor<64x1xi1>) -> tensor<1x64xi1> loc(#loc551)
    call @_where_20(%75) : (tensor<64x32xf32>) -> () loc(#loc573)
    %78 = call @_threefry_fold_in(%4, %c_13) : (tensor<2xui32>, tensor<ui32>) -> tensor<2xui32> loc(#loc614)
    %79 = stablehlo.sqrt %cst_12 : tensor<f32> loc(#loc575)
    %80 = stablehlo.divide %79, %cst_20 : tensor<f32> loc(#loc576)
    %81 = call @_truncated_normal_21(%78, %c_19, %c_18) : (tensor<2xui32>, tensor<i32>, tensor<i32>) -> tensor<32x32xf32> loc(#loc577)
    %82 = stablehlo.broadcast_in_dim %80, dims = [] : (tensor<f32>) -> tensor<32x32xf32> loc(#loc578)
    %83 = stablehlo.multiply %81, %82 : tensor<32x32xf32> loc(#loc578)
    %84 = call @_threefry_fold_in(%4, %c_11) : (tensor<2xui32>, tensor<ui32>) -> tensor<2xui32> loc(#loc615)
    %85 = stablehlo.broadcast_in_dim %cst_24, dims = [] : (tensor<f32>) -> tensor<32xf32> loc(#loc580)
    %86 = call @_threefry_fold_in(%4, %c_10) : (tensor<2xui32>, tensor<ui32>) -> tensor<2xui32> loc(#loc616)
    %87 = stablehlo.sqrt %cst_12 : tensor<f32> loc(#loc582)
    %88 = stablehlo.divide %87, %cst_20 : tensor<f32> loc(#loc583)
    %89 = call @_truncated_normal_21(%86, %c_19, %c_18) : (tensor<2xui32>, tensor<i32>, tensor<i32>) -> tensor<32x32xf32> loc(#loc584)
    %90 = stablehlo.broadcast_in_dim %88, dims = [] : (tensor<f32>) -> tensor<32x32xf32> loc(#loc585)
    %91 = stablehlo.multiply %89, %90 : tensor<32x32xf32> loc(#loc585)
    %92 = call @_threefry_fold_in(%4, %c_9) : (tensor<2xui32>, tensor<ui32>) -> tensor<2xui32> loc(#loc617)
    %93 = stablehlo.sqrt %cst_12 : tensor<f32> loc(#loc587)
    %94 = stablehlo.divide %93, %cst_20 : tensor<f32> loc(#loc588)
    %95 = call @_truncated_normal_21(%92, %c_19, %c_18) : (tensor<2xui32>, tensor<i32>, tensor<i32>) -> tensor<32x32xf32> loc(#loc589)
    %96 = stablehlo.broadcast_in_dim %94, dims = [] : (tensor<f32>) -> tensor<32x32xf32> loc(#loc590)
    %97 = stablehlo.multiply %95, %96 : tensor<32x32xf32> loc(#loc590)
    %98 = call @_threefry_fold_in(%4, %c_8) : (tensor<2xui32>, tensor<ui32>) -> tensor<2xui32> loc(#loc618)
    %99 = stablehlo.broadcast_in_dim %cst_24, dims = [] : (tensor<f32>) -> tensor<32xf32> loc(#loc592)
    %100 = call @_threefry_fold_in(%4, %c_7) : (tensor<2xui32>, tensor<ui32>) -> tensor<2xui32> loc(#loc619)
    %101 = stablehlo.sqrt %cst_12 : tensor<f32> loc(#loc594)
    %102 = stablehlo.divide %101, %cst_20 : tensor<f32> loc(#loc595)
    %103 = call @_truncated_normal_21(%100, %c_19, %c_18) : (tensor<2xui32>, tensor<i32>, tensor<i32>) -> tensor<32x32xf32> loc(#loc596)
    %104 = stablehlo.broadcast_in_dim %102, dims = [] : (tensor<f32>) -> tensor<32x32xf32> loc(#loc597)
    %105 = stablehlo.multiply %103, %104 : tensor<32x32xf32> loc(#loc597)
    %106 = call @_threefry_fold_in(%4, %c_6) : (tensor<2xui32>, tensor<ui32>) -> tensor<2xui32> loc(#loc620)
    %107 = stablehlo.sqrt %cst_12 : tensor<f32> loc(#loc599)
    %108 = stablehlo.divide %107, %cst_20 : tensor<f32> loc(#loc600)
    %109 = call @_truncated_normal_21(%106, %c_19, %c_18) : (tensor<2xui32>, tensor<i32>, tensor<i32>) -> tensor<32x32xf32> loc(#loc601)
    %110 = stablehlo.broadcast_in_dim %108, dims = [] : (tensor<f32>) -> tensor<32x32xf32> loc(#loc602)
    %111 = stablehlo.multiply %109, %110 : tensor<32x32xf32> loc(#loc602)
    %112 = call @_threefry_fold_in(%4, %c_5) : (tensor<2xui32>, tensor<ui32>) -> tensor<2xui32> loc(#loc621)
    %113 = stablehlo.broadcast_in_dim %cst_24, dims = [] : (tensor<f32>) -> tensor<32xf32> loc(#loc604)
    %114 = call @_threefry_fold_in(%4, %c_4) : (tensor<2xui32>, tensor<ui32>) -> tensor<2xui32> loc(#loc622)
    %115 = stablehlo.sqrt %cst_12 : tensor<f32> loc(#loc606)
    %116 = stablehlo.divide %115, %cst_20 : tensor<f32> loc(#loc607)
    %117 = call @_truncated_normal_21(%114, %c_19, %c_18) : (tensor<2xui32>, tensor<i32>, tensor<i32>) -> tensor<32x32xf32> loc(#loc608)
    %118 = stablehlo.broadcast_in_dim %116, dims = [] : (tensor<f32>) -> tensor<32x32xf32> loc(#loc609)
    %119 = stablehlo.multiply %117, %118 : tensor<32x32xf32> loc(#loc609)
    %120 = call @_threefry_fold_in(%4, %c_3) : (tensor<2xui32>, tensor<ui32>) -> tensor<2xui32> loc(#loc623)
    %121 = stablehlo.broadcast_in_dim %cst_24, dims = [] : (tensor<f32>) -> tensor<32xf32> loc(#loc611)
    %122 = stablehlo.broadcast_in_dim %cst_24, dims = [] : (tensor<f32>) -> tensor<1x64x32xf32> loc(#loc538)
    %123:16 = stablehlo.while(%iterArg = %76, %iterArg_30 = %77, %iterArg_31 = %75, %iterArg_32 = %83, %iterArg_33 = %85, %iterArg_34 = %91, %iterArg_35 = %97, %iterArg_36 = %99, %iterArg_37 = %105, %iterArg_38 = %111, %iterArg_39 = %113, %iterArg_40 = %119, %iterArg_41 = %121, %iterArg_42 = %c_28, %iterArg_43 = %40, %iterArg_44 = %122) : tensor<1x64x32xf32>, tensor<1x64xi1>, tensor<64x32xf32>, tensor<32x32xf32>, tensor<32xf32>, tensor<32x32xf32>, tensor<32x32xf32>, tensor<32xf32>, tensor<32x32xf32>, tensor<32x32xf32>, tensor<32xf32>, tensor<32x32xf32>, tensor<32xf32>, tensor<i32>, tensor<64x32xf32>, tensor<1x64x32xf32>
    cond {
      %175 = stablehlo.compare LT, %iterArg_42, %c_2, SIGNED : (tensor<i32>, tensor<i32>) -> tensor<i1> loc(#loc540)
      stablehlo.return %175 : tensor<i1> loc(#loc539)
    } do {
      %175 = func.call @dynamic_index_in_dim(%iterArg, %iterArg_42) : (tensor<1x64x32xf32>, tensor<i32>) -> tensor<64x32xf32> loc(#loc541)
      %176 = func.call @dynamic_index_in_dim_26(%iterArg_30, %iterArg_42) : (tensor<1x64xi1>, tensor<i32>) -> tensor<64xi1> loc(#loc541)
      %177:2 = func.call @closed_call_27(%iterArg_31, %iterArg_32, %iterArg_33, %iterArg_34, %iterArg_35, %iterArg_36, %iterArg_37, %iterArg_38, %iterArg_39, %iterArg_40, %iterArg_41, %iterArg_43, %175, %176) : (tensor<64x32xf32>, tensor<32x32xf32>, tensor<32xf32>, tensor<32x32xf32>, tensor<32x32xf32>, tensor<32xf32>, tensor<32x32xf32>, tensor<32x32xf32>, tensor<32xf32>, tensor<32x32xf32>, tensor<32xf32>, tensor<64x32xf32>, tensor<64x32xf32>, tensor<64xi1>) -> (tensor<64x32xf32>, tensor<64x32xf32>) loc(#loc542)
      %178 = func.call @dynamic_update_index_in_dim(%iterArg_44, %177#1, %iterArg_42) : (tensor<1x64x32xf32>, tensor<64x32xf32>, tensor<i32>) -> tensor<1x64x32xf32> loc(#loc543)
      %179 = stablehlo.add %iterArg_42, %c_2 : tensor<i32> loc(#loc544)
      stablehlo.return %iterArg, %iterArg_30, %iterArg_31, %iterArg_32, %iterArg_33, %iterArg_34, %iterArg_35, %iterArg_36, %iterArg_37, %iterArg_38, %iterArg_39, %iterArg_40, %iterArg_41, %179, %177#0, %178 : tensor<1x64x32xf32>, tensor<1x64xi1>, tensor<64x32xf32>, tensor<32x32xf32>, tensor<32xf32>, tensor<32x32xf32>, tensor<32x32xf32>, tensor<32xf32>, tensor<32x32xf32>, tensor<32x32xf32>, tensor<32xf32>, tensor<32x32xf32>, tensor<32xf32>, tensor<i32>, tensor<64x32xf32>, tensor<1x64x32xf32> loc(#loc539)
    } loc(#loc539)
    %124 = stablehlo.transpose %123#15, dims = [1, 0, 2] : (tensor<1x64x32xf32>) -> tensor<64x1x32xf32> loc(#loc559)
    %125 = call @_threefry_fold_in(%4, %c_1) : (tensor<2xui32>, tensor<ui32>) -> tensor<2xui32> loc(#loc468)
    %126 = stablehlo.sqrt %cst_12 : tensor<f32> loc(#loc432)
    %127 = stablehlo.divide %126, %cst_20 : tensor<f32> loc(#loc433)
    %128 = call @_truncated_normal_29(%125, %c_19, %c_18) : (tensor<2xui32>, tensor<i32>, tensor<i32>) -> tensor<32x16xf32> loc(#loc434)
    %129 = stablehlo.broadcast_in_dim %127, dims = [] : (tensor<f32>) -> tensor<32x16xf32> loc(#loc435)
    %130 = stablehlo.multiply %128, %129 : tensor<32x16xf32> loc(#loc435)
    %131 = stablehlo.dot_general %124, %130, contracting_dims = [2] x [0] : (tensor<64x1x32xf32>, tensor<32x16xf32>) -> tensor<64x1x16xf32> loc(#loc436)
    %132 = call @_where_34(%41, %131, %cst) : (tensor<64x1x16xi1>, tensor<64x1x16xf32>, tensor<f32>) -> tensor<64x1x16xf32> loc(#loc376)
    %133 = call @_threefry_fold_in(%4, %c_0) : (tensor<2xui32>, tensor<ui32>) -> tensor<2xui32> loc(#loc469)
    %134 = stablehlo.sqrt %cst_12 : tensor<f32> loc(#loc438)
    %135 = stablehlo.divide %134, %cst_20 : tensor<f32> loc(#loc439)
    %136 = call @_truncated_normal_35(%133, %c_19, %c_18) : (tensor<2xui32>, tensor<i32>, tensor<i32>) -> tensor<32x1xf32> loc(#loc440)
    %137 = stablehlo.broadcast_in_dim %135, dims = [] : (tensor<f32>) -> tensor<32x1xf32> loc(#loc441)
    %138 = stablehlo.multiply %136, %137 : tensor<32x1xf32> loc(#loc441)
    %139 = call @_threefry_fold_in(%4, %c) : (tensor<2xui32>, tensor<ui32>) -> tensor<2xui32> loc(#loc470)
    %140 = stablehlo.broadcast_in_dim %cst_24, dims = [] : (tensor<f32>) -> tensor<1xf32> loc(#loc443)
    %141 = stablehlo.broadcast_in_dim %cst_24, dims = [] : (tensor<f32>) -> tensor<32x16xf32> loc(#loc560)
    %142 = stablehlo.broadcast_in_dim %cst_24, dims = [] : (tensor<f32>) -> tensor<1xf32> loc(#loc560)
    %143 = stablehlo.broadcast_in_dim %cst_24, dims = [] : (tensor<f32>) -> tensor<32x1xf32> loc(#loc560)
    %144 = stablehlo.broadcast_in_dim %cst_24, dims = [] : (tensor<f32>) -> tensor<32xf32> loc(#loc560)
    %145 = stablehlo.broadcast_in_dim %cst_24, dims = [] : (tensor<f32>) -> tensor<15x32xf32> loc(#loc560)
    %146 = stablehlo.broadcast_in_dim %cst_24, dims = [] : (tensor<f32>) -> tensor<32xf32> loc(#loc560)
    %147 = stablehlo.broadcast_in_dim %cst_24, dims = [] : (tensor<f32>) -> tensor<48x32xf32> loc(#loc560)
    %148 = stablehlo.broadcast_in_dim %cst_24, dims = [] : (tensor<f32>) -> tensor<32xf32> loc(#loc560)
    %149 = stablehlo.broadcast_in_dim %cst_24, dims = [] : (tensor<f32>) -> tensor<32x32xf32> loc(#loc560)
    %150 = stablehlo.broadcast_in_dim %cst_24, dims = [] : (tensor<f32>) -> tensor<32x32xf32> loc(#loc560)
    %151 = stablehlo.broadcast_in_dim %cst_24, dims = [] : (tensor<f32>) -> tensor<32x32xf32> loc(#loc560)
    %152 = stablehlo.broadcast_in_dim %cst_24, dims = [] : (tensor<f32>) -> tensor<32xf32> loc(#loc560)
    %153 = stablehlo.broadcast_in_dim %cst_24, dims = [] : (tensor<f32>) -> tensor<32x32xf32> loc(#loc560)
    %154 = stablehlo.broadcast_in_dim %cst_24, dims = [] : (tensor<f32>) -> tensor<32xf32> loc(#loc560)
    %155 = stablehlo.broadcast_in_dim %cst_24, dims = [] : (tensor<f32>) -> tensor<32x32xf32> loc(#loc560)
    %156 = stablehlo.broadcast_in_dim %cst_24, dims = [] : (tensor<f32>) -> tensor<32xf32> loc(#loc560)
    %157 = stablehlo.broadcast_in_dim %cst_24, dims = [] : (tensor<f32>) -> tensor<32x32xf32> loc(#loc560)
    %158 = stablehlo.broadcast_in_dim %cst_24, dims = [] : (tensor<f32>) -> tensor<32x16xf32> loc(#loc561)
    %159 = stablehlo.broadcast_in_dim %cst_24, dims = [] : (tensor<f32>) -> tensor<1xf32> loc(#loc561)
    %160 = stablehlo.broadcast_in_dim %cst_24, dims = [] : (tensor<f32>) -> tensor<32x1xf32> loc(#loc561)
    %161 = stablehlo.broadcast_in_dim %cst_24, dims = [] : (tensor<f32>) -> tensor<32xf32> loc(#loc561)
    %162 = stablehlo.broadcast_in_dim %cst_24, dims = [] : (tensor<f32>) -> tensor<15x32xf32> loc(#loc561)
    %163 = stablehlo.broadcast_in_dim %cst_24, dims = [] : (tensor<f32>) -> tensor<32xf32> loc(#loc561)
    %164 = stablehlo.broadcast_in_dim %cst_24, dims = [] : (tensor<f32>) -> tensor<48x32xf32> loc(#loc561)
    %165 = stablehlo.broadcast_in_dim %cst_24, dims = [] : (tensor<f32>) -> tensor<32xf32> loc(#loc561)
    %166 = stablehlo.broadcast_in_dim %cst_24, dims = [] : (tensor<f32>) -> tensor<32x32xf32> loc(#loc561)
    %167 = stablehlo.broadcast_in_dim %cst_24, dims = [] : (tensor<f32>) -> tensor<32x32xf32> loc(#loc561)
    %168 = stablehlo.broadcast_in_dim %cst_24, dims = [] : (tensor<f32>) -> tensor<32x32xf32> loc(#loc561)
    %169 = stablehlo.broadcast_in_dim %cst_24, dims = [] : (tensor<f32>) -> tensor<32xf32> loc(#loc561)
    %170 = stablehlo.broadcast_in_dim %cst_24, dims = [] : (tensor<f32>) -> tensor<32x32xf32> loc(#loc561)
    %171 = stablehlo.broadcast_in_dim %cst_24, dims = [] : (tensor<f32>) -> tensor<32xf32> loc(#loc561)
    %172 = stablehlo.broadcast_in_dim %cst_24, dims = [] : (tensor<f32>) -> tensor<32x32xf32> loc(#loc561)
    %173 = stablehlo.broadcast_in_dim %cst_24, dims = [] : (tensor<f32>) -> tensor<32xf32> loc(#loc561)
    %174 = stablehlo.broadcast_in_dim %cst_24, dims = [] : (tensor<f32>) -> tensor<32x32xf32> loc(#loc561)
    return %c_28, %31, %32, %33, %34, %35, %36, %37, %38, %39, %21, %27, %28, %29, %30, %40, %130, %140, %138, %54, %52, %69, %67, %121, %119, %91, %105, %113, %111, %85, %83, %99, %97, %c_28, %141, %142, %143, %144, %145, %146, %147, %148, %149, %150, %151, %152, %153, %154, %155, %156, %157, %158, %159, %160, %161, %162, %163, %164, %165, %166, %167, %168, %169, %170, %171, %172, %173, %174 : tensor<i32>, tensor<64x16xi1>, tensor<64x15xf32>, tensor<64xi32>, tensor<64xf32>, tensor<64xi1>, tensor<64xi1>, tensor<64xf32>, tensor<64xf32>, tensor<64xf32>, tensor<64x5xi32>, tensor<64x5xi32>, tensor<64xi1>, tensor<64xi32>, tensor<64xi1>, tensor<64x32xf32>, tensor<32x16xf32>, tensor<1xf32>, tensor<32x1xf32>, tensor<32xf32>, tensor<15x32xf32>, tensor<32xf32>, tensor<48x32xf32>, tensor<32xf32>, tensor<32x32xf32>, tensor<32x32xf32>, tensor<32x32xf32>, tensor<32xf32>, tensor<32x32xf32>, tensor<32xf32>, tensor<32x32xf32>, tensor<32xf32>, tensor<32x32xf32>, tensor<i32>, tensor<32x16xf32>, tensor<1xf32>, tensor<32x1xf32>, tensor<32xf32>, tensor<15x32xf32>, tensor<32xf32>, tensor<48x32xf32>, tensor<32xf32>, tensor<32x32xf32>, tensor<32x32xf32>, tensor<32x32xf32>, tensor<32xf32>, tensor<32x32xf32>, tensor<32xf32>, tensor<32x32xf32>, tensor<32xf32>, tensor<32x32xf32>, tensor<32x16xf32>, tensor<1xf32>, tensor<32x1xf32>, tensor<32xf32>, tensor<15x32xf32>, tensor<32xf32>, tensor<48x32xf32>, tensor<32xf32>, tensor<32x32xf32>, tensor<32x32xf32>, tensor<32x32xf32>, tensor<32xf32>, tensor<32x32xf32>, tensor<32xf32>, tensor<32x32xf32>, tensor<32xf32>, tensor<32x32xf32> loc(#loc248)
  } loc(#loc)
  func.func private @_threefry_split(%arg0: tensor<2xui32> loc(unknown)) -> tensor<3x2xui32> {
    %c = stablehlo.constant dense<32> : tensor<ui64> loc(#loc237)
    %c_0 = stablehlo.constant dense<1> : tensor<ui64> loc(#loc237)
    %0 = stablehlo.slice %arg0 [0:1] : (tensor<2xui32>) -> tensor<1xui32> loc(#loc238)
    %1 = stablehlo.reshape %0 : (tensor<1xui32>) -> tensor<ui32> loc(#loc239)
    %2 = stablehlo.slice %arg0 [1:2] : (tensor<2xui32>) -> tensor<1xui32> loc(#loc238)
    %3 = stablehlo.reshape %2 : (tensor<1xui32>) -> tensor<ui32> loc(#loc239)
    %4 = stablehlo.iota dim = 0 : tensor<3xui64> loc(#loc237)
    %5 = stablehlo.broadcast_in_dim %c_0, dims = [] : (tensor<ui64>) -> tensor<3xui64> loc(#loc237)
    %6 = stablehlo.multiply %5, %4 : tensor<3xui64> loc(#loc237)
    %7 = stablehlo.broadcast_in_dim %c, dims = [] : (tensor<ui64>) -> tensor<3xui64> loc(#loc237)
    %8 = stablehlo.shift_right_logical %6, %7 : tensor<3xui64> loc(#loc237)
    %9 = stablehlo.convert %6 : (tensor<3xui64>) -> tensor<3xui32> loc(#loc237)
    %10 = stablehlo.convert %8 : (tensor<3xui64>) -> tensor<3xui32> loc(#loc237)
    %11:2 = call @threefry2x32(%1, %3, %10, %9) : (tensor<ui32>, tensor<ui32>, tensor<3xui32>, tensor<3xui32>) -> (tensor<3xui32>, tensor<3xui32>) loc(#loc139)
    %12 = stablehlo.broadcast_in_dim %11#0, dims = [0] : (tensor<3xui32>) -> tensor<3x1xui32> loc(#loc240)
    %13 = stablehlo.broadcast_in_dim %11#1, dims = [0] : (tensor<3xui32>) -> tensor<3x1xui32> loc(#loc240)
    %14 = stablehlo.concatenate %12, %13, dim = 1 : (tensor<3x1xui32>, tensor<3x1xui32>) -> tensor<3x2xui32> loc(#loc240)
    return %14 : tensor<3x2xui32> loc(#loc)
  } loc(#loc259)
  func.func private @threefry2x32(%arg0: tensor<ui32> loc("RecurrentPPO.init"(#loc4)), %arg1: tensor<ui32> loc("RecurrentPPO.init"(#loc4)), %arg2: tensor<3xui32> loc("RecurrentPPO.init"(#loc4)), %arg3: tensor<3xui32> loc("RecurrentPPO.init"(#loc4))) -> (tensor<3xui32>, tensor<3xui32>) {
    %c = stablehlo.constant dense<1> : tensor<i32> loc(#loc)
    %c_0 = stablehlo.constant dense<5> : tensor<i32> loc(#loc)
    %c_1 = stablehlo.constant dense<0> : tensor<i32> loc(#loc)
    %c_2 = stablehlo.constant dense<466688986> : tensor<ui32> loc(#loc213)
    %c_3 = stablehlo.constant dense<[13, 15, 26, 6]> : tensor<4xui32> loc(#loc213)
    %c_4 = stablehlo.constant dense<[17, 29, 16, 24]> : tensor<4xui32> loc(#loc213)
    %0 = stablehlo.xor %arg0, %arg1 : tensor<ui32> loc(#loc241)
    %1 = stablehlo.xor %0, %c_2 : tensor<ui32> loc(#loc241)
    %2 = stablehlo.broadcast_in_dim %arg0, dims = [] : (tensor<ui32>) -> tensor<3xui32> loc(#loc242)
    %3 = stablehlo.add %arg2, %2 : tensor<3xui32> loc(#loc242)
    %4 = stablehlo.broadcast_in_dim %arg1, dims = [] : (tensor<ui32>) -> tensor<3xui32> loc(#loc242)
    %5 = stablehlo.add %arg3, %4 : tensor<3xui32> loc(#loc242)
    %6:9 = stablehlo.while(%iterArg = %c_1, %iterArg_5 = %c_1, %iterArg_6 = %3, %iterArg_7 = %5, %iterArg_8 = %arg1, %iterArg_9 = %1, %iterArg_10 = %arg0, %iterArg_11 = %c_3, %iterArg_12 = %c_4) : tensor<i32>, tensor<i32>, tensor<3xui32>, tensor<3xui32>, tensor<ui32>, tensor<ui32>, tensor<ui32>, tensor<4xui32>, tensor<4xui32>
    cond {
      %7 = stablehlo.compare LT, %iterArg, %c_0, SIGNED : (tensor<i32>, tensor<i32>) -> tensor<i1> loc(#loc309)
      stablehlo.return %7 : tensor<i1> loc(#loc260)
    } do {
      %7:8 = func.call @closed_call(%iterArg_5, %iterArg_6, %iterArg_7, %iterArg_8, %iterArg_9, %iterArg_10, %iterArg_11, %iterArg_12) : (tensor<i32>, tensor<3xui32>, tensor<3xui32>, tensor<ui32>, tensor<ui32>, tensor<ui32>, tensor<4xui32>, tensor<4xui32>) -> (tensor<i32>, tensor<3xui32>, tensor<3xui32>, tensor<ui32>, tensor<ui32>, tensor<ui32>, tensor<4xui32>, tensor<4xui32>) loc(#loc310)
      %8 = stablehlo.add %iterArg, %c : tensor<i32> loc(#loc311)
      stablehlo.return %8, %7#0, %7#1, %7#2, %7#3, %7#4, %7#5, %7#6, %7#7 : tensor<i32>, tensor<i32>, tensor<3xui32>, tensor<3xui32>, tensor<ui32>, tensor<ui32>, tensor<ui32>, tensor<4xui32>, tensor<4xui32> loc(#loc260)
    } loc(#loc260)
    return %6#2, %6#3 : tensor<3xui32>, tensor<3xui32> loc(#loc139)
  } loc(#loc139)
  func.func private @closed_call(%arg0: tensor<i32> loc(unknown), %arg1: tensor<3xui32> loc(unknown), %arg2: tensor<3xui32> loc(unknown), %arg3: tensor<ui32> loc(unknown), %arg4: tensor<ui32> loc(unknown), %arg5: tensor<ui32> loc(unknown), %arg6: tensor<4xui32> loc(unknown), %arg7: tensor<4xui32> loc(unknown)) -> (tensor<i32>, tensor<3xui32>, tensor<3xui32>, tensor<ui32>, tensor<ui32>, tensor<ui32>, tensor<4xui32>, tensor<4xui32>) {
    %c = stablehlo.constant dense<32> : tensor<ui32> loc(#loc)
    %c_0 = stablehlo.constant dense<1> : tensor<i32> loc(#loc)
    %0 = stablehlo.add %arg0, %c_0 : tensor<i32> loc(#loc79)
    %1 = stablehlo.slice %arg6 [0:1] : (tensor<4xui32>) -> tensor<1xui32> loc(#loc80)
    %2 = stablehlo.reshape %1 : (tensor<1xui32>) -> tensor<ui32> loc(#loc81)
    %3 = stablehlo.add %arg1, %arg2 : tensor<3xui32> loc(#loc79)
    %4 = stablehlo.broadcast_in_dim %2, dims = [] : (tensor<ui32>) -> tensor<3xui32> loc(#loc82)
    %5 = stablehlo.shift_left %arg2, %4 : tensor<3xui32> loc(#loc82)
    %6 = stablehlo.subtract %c, %2 : tensor<ui32> loc(#loc83)
    %7 = stablehlo.broadcast_in_dim %6, dims = [] : (tensor<ui32>) -> tensor<3xui32> loc(#loc84)
    %8 = stablehlo.shift_right_logical %arg2, %7 : tensor<3xui32> loc(#loc84)
    %9 = stablehlo.or %5, %8 : tensor<3xui32> loc(#loc85)
    %10 = stablehlo.xor %3, %9 : tensor<3xui32> loc(#loc86)
    %11 = stablehlo.slice %arg6 [1:2] : (tensor<4xui32>) -> tensor<1xui32> loc(#loc80)
    %12 = stablehlo.reshape %11 : (tensor<1xui32>) -> tensor<ui32> loc(#loc81)
    %13 = stablehlo.add %3, %10 : tensor<3xui32> loc(#loc79)
    %14 = stablehlo.broadcast_in_dim %12, dims = [] : (tensor<ui32>) -> tensor<3xui32> loc(#loc82)
    %15 = stablehlo.shift_left %10, %14 : tensor<3xui32> loc(#loc82)
    %16 = stablehlo.subtract %c, %12 : tensor<ui32> loc(#loc83)
    %17 = stablehlo.broadcast_in_dim %16, dims = [] : (tensor<ui32>) -> tensor<3xui32> loc(#loc84)
    %18 = stablehlo.shift_right_logical %10, %17 : tensor<3xui32> loc(#loc84)
    %19 = stablehlo.or %15, %18 : tensor<3xui32> loc(#loc85)
    %20 = stablehlo.xor %13, %19 : tensor<3xui32> loc(#loc86)
    %21 = stablehlo.slice %arg6 [2:3] : (tensor<4xui32>) -> tensor<1xui32> loc(#loc80)
    %22 = stablehlo.reshape %21 : (tensor<1xui32>) -> tensor<ui32> loc(#loc81)
    %23 = stablehlo.add %13, %20 : tensor<3xui32> loc(#loc79)
    %24 = stablehlo.broadcast_in_dim %22, dims = [] : (tensor<ui32>) -> tensor<3xui32> loc(#loc82)
    %25 = stablehlo.shift_left %20, %24 : tensor<3xui32> loc(#loc82)
    %26 = stablehlo.subtract %c, %22 : tensor<ui32> loc(#loc83)
    %27 = stablehlo.broadcast_in_dim %26, dims = [] : (tensor<ui32>) -> tensor<3xui32> loc(#loc84)
    %28 = stablehlo.shift_right_logical %20, %27 : tensor<3xui32> loc(#loc84)
    %29 = stablehlo.or %25, %28 : tensor<3xui32> loc(#loc85)
    %30 = stablehlo.xor %23, %29 : tensor<3xui32> loc(#loc86)
    %31 = stablehlo.slice %arg6 [3:4] : (tensor<4xui32>) -> tensor<1xui32> loc(#loc80)
    %32 = stablehlo.reshape %31 : (tensor<1xui32>) -> tensor<ui32> loc(#loc81)
    %33 = stablehlo.add %23, %30 : tensor<3xui32> loc(#loc79)
    %34 = stablehlo.broadcast_in_dim %32, dims = [] : (tensor<ui32>) -> tensor<3xui32> loc(#loc82)
    %35 = stablehlo.shift_left %30, %34 : tensor<3xui32> loc(#loc82)
    %36 = stablehlo.subtract %c, %32 : tensor<ui32> loc(#loc83)
    %37 = stablehlo.broadcast_in_dim %36, dims = [] : (tensor<ui32>) -> tensor<3xui32> loc(#loc84)
    %38 = stablehlo.shift_right_logical %30, %37 : tensor<3xui32> loc(#loc84)
    %39 = stablehlo.or %35, %38 : tensor<3xui32> loc(#loc85)
    %40 = stablehlo.xor %33, %39 : tensor<3xui32> loc(#loc86)
    %41 = stablehlo.broadcast_in_dim %arg3, dims = [] : (tensor<ui32>) -> tensor<3xui32> loc(#loc79)
    %42 = stablehlo.add %33, %41 : tensor<3xui32> loc(#loc79)
    %43 = stablehlo.broadcast_in_dim %arg4, dims = [] : (tensor<ui32>) -> tensor<3xui32> loc(#loc79)
    %44 = stablehlo.add %40, %43 : tensor<3xui32> loc(#loc79)
    %45 = stablehlo.add %arg0, %c_0 : tensor<i32> loc(#loc79)
    %46 = stablehlo.convert %45 : (tensor<i32>) -> tensor<ui32> loc(#loc87)
    %47 = stablehlo.broadcast_in_dim %46, dims = [] : (tensor<ui32>) -> tensor<3xui32> loc(#loc79)
    %48 = stablehlo.add %44, %47 : tensor<3xui32> loc(#loc79)
    return %0, %42, %48, %arg4, %arg5, %arg3, %arg7, %arg6 : tensor<i32>, tensor<3xui32>, tensor<3xui32>, tensor<ui32>, tensor<ui32>, tensor<ui32>, tensor<4xui32>, tensor<4xui32> loc(#loc)
  } loc(#loc262)
  func.func private @_threefry_split_0(%arg0: tensor<2xui32> loc(unknown)) -> tensor<64x2xui32> {
    %c = stablehlo.constant dense<32> : tensor<ui64> loc(#loc264)
    %c_0 = stablehlo.constant dense<1> : tensor<ui64> loc(#loc264)
    %0 = stablehlo.slice %arg0 [0:1] : (tensor<2xui32>) -> tensor<1xui32> loc(#loc265)
    %1 = stablehlo.reshape %0 : (tensor<1xui32>) -> tensor<ui32> loc(#loc266)
    %2 = stablehlo.slice %arg0 [1:2] : (tensor<2xui32>) -> tensor<1xui32> loc(#loc265)
    %3 = stablehlo.reshape %2 : (tensor<1xui32>) -> tensor<ui32> loc(#loc266)
    %4 = stablehlo.iota dim = 0 : tensor<64xui64> loc(#loc264)
    %5 = stablehlo.broadcast_in_dim %c_0, dims = [] : (tensor<ui64>) -> tensor<64xui64> loc(#loc264)
    %6 = stablehlo.multiply %5, %4 : tensor<64xui64> loc(#loc264)
    %7 = stablehlo.broadcast_in_dim %c, dims = [] : (tensor<ui64>) -> tensor<64xui64> loc(#loc264)
    %8 = stablehlo.shift_right_logical %6, %7 : tensor<64xui64> loc(#loc264)
    %9 = stablehlo.convert %6 : (tensor<64xui64>) -> tensor<64xui32> loc(#loc264)
    %10 = stablehlo.convert %8 : (tensor<64xui64>) -> tensor<64xui32> loc(#loc264)
    %11:2 = call @threefry2x32_1(%1, %3, %10, %9) : (tensor<ui32>, tensor<ui32>, tensor<64xui32>, tensor<64xui32>) -> (tensor<64xui32>, tensor<64xui32>) loc(#loc245)
    %12 = stablehlo.broadcast_in_dim %11#0, dims = [0] : (tensor<64xui32>) -> tensor<64x1xui32> loc(#loc267)
    %13 = stablehlo.broadcast_in_dim %11#1, dims = [0] : (tensor<64xui32>) -> tensor<64x1xui32> loc(#loc267)
    %14 = stablehlo.concatenate %12, %13, dim = 1 : (tensor<64x1xui32>, tensor<64x1xui32>) -> tensor<64x2xui32> loc(#loc267)
    return %14 : tensor<64x2xui32> loc(#loc)
  } loc(#loc312)
  func.func private @threefry2x32_1(%arg0: tensor<ui32> loc(callsite(#loc214 at #loc215)), %arg1: tensor<ui32> loc(callsite(#loc214 at #loc215)), %arg2: tensor<64xui32> loc(callsite(#loc214 at #loc215)), %arg3: tensor<64xui32> loc(callsite(#loc214 at #loc215))) -> (tensor<64xui32>, tensor<64xui32>) {
    %c = stablehlo.constant dense<1> : tensor<i32> loc(#loc)
    %c_0 = stablehlo.constant dense<5> : tensor<i32> loc(#loc)
    %c_1 = stablehlo.constant dense<0> : tensor<i32> loc(#loc)
    %c_2 = stablehlo.constant dense<466688986> : tensor<ui32> loc(#loc213)
    %c_3 = stablehlo.constant dense<[13, 15, 26, 6]> : tensor<4xui32> loc(#loc213)
    %c_4 = stablehlo.constant dense<[17, 29, 16, 24]> : tensor<4xui32> loc(#loc213)
    %0 = stablehlo.xor %arg0, %arg1 : tensor<ui32> loc(#loc268)
    %1 = stablehlo.xor %0, %c_2 : tensor<ui32> loc(#loc268)
    %2 = stablehlo.broadcast_in_dim %arg0, dims = [] : (tensor<ui32>) -> tensor<64xui32> loc(#loc269)
    %3 = stablehlo.add %arg2, %2 : tensor<64xui32> loc(#loc269)
    %4 = stablehlo.broadcast_in_dim %arg1, dims = [] : (tensor<ui32>) -> tensor<64xui32> loc(#loc269)
    %5 = stablehlo.add %arg3, %4 : tensor<64xui32> loc(#loc269)
    %6:9 = stablehlo.while(%iterArg = %c_1, %iterArg_5 = %c_1, %iterArg_6 = %3, %iterArg_7 = %5, %iterArg_8 = %arg1, %iterArg_9 = %1, %iterArg_10 = %arg0, %iterArg_11 = %c_3, %iterArg_12 = %c_4) : tensor<i32>, tensor<i32>, tensor<64xui32>, tensor<64xui32>, tensor<ui32>, tensor<ui32>, tensor<ui32>, tensor<4xui32>, tensor<4xui32>
    cond {
      %7 = stablehlo.compare LT, %iterArg, %c_0, SIGNED : (tensor<i32>, tensor<i32>) -> tensor<i1> loc(#loc380)
      stablehlo.return %7 : tensor<i1> loc(#loc313)
    } do {
      %7:8 = func.call @closed_call_2(%iterArg_5, %iterArg_6, %iterArg_7, %iterArg_8, %iterArg_9, %iterArg_10, %iterArg_11, %iterArg_12) : (tensor<i32>, tensor<64xui32>, tensor<64xui32>, tensor<ui32>, tensor<ui32>, tensor<ui32>, tensor<4xui32>, tensor<4xui32>) -> (tensor<i32>, tensor<64xui32>, tensor<64xui32>, tensor<ui32>, tensor<ui32>, tensor<ui32>, tensor<4xui32>, tensor<4xui32>) loc(#loc381)
      %8 = stablehlo.add %iterArg, %c : tensor<i32> loc(#loc382)
      stablehlo.return %8, %7#0, %7#1, %7#2, %7#3, %7#4, %7#5, %7#6, %7#7 : tensor<i32>, tensor<i32>, tensor<64xui32>, tensor<64xui32>, tensor<ui32>, tensor<ui32>, tensor<ui32>, tensor<4xui32>, tensor<4xui32> loc(#loc313)
    } loc(#loc313)
    return %6#2, %6#3 : tensor<64xui32>, tensor<64xui32> loc(#loc245)
  } loc(#loc245)
  func.func private @closed_call_2(%arg0: tensor<i32> loc(unknown), %arg1: tensor<64xui32> loc(unknown), %arg2: tensor<64xui32> loc(unknown), %arg3: tensor<ui32> loc(unknown), %arg4: tensor<ui32> loc(unknown), %arg5: tensor<ui32> loc(unknown), %arg6: tensor<4xui32> loc(unknown), %arg7: tensor<4xui32> loc(unknown)) -> (tensor<i32>, tensor<64xui32>, tensor<64xui32>, tensor<ui32>, tensor<ui32>, tensor<ui32>, tensor<4xui32>, tensor<4xui32>) {
    %c = stablehlo.constant dense<32> : tensor<ui32> loc(#loc)
    %c_0 = stablehlo.constant dense<1> : tensor<i32> loc(#loc)
    %0 = stablehlo.add %arg0, %c_0 : tensor<i32> loc(#loc79)
    %1 = stablehlo.slice %arg6 [0:1] : (tensor<4xui32>) -> tensor<1xui32> loc(#loc80)
    %2 = stablehlo.reshape %1 : (tensor<1xui32>) -> tensor<ui32> loc(#loc81)
    %3 = stablehlo.add %arg1, %arg2 : tensor<64xui32> loc(#loc79)
    %4 = stablehlo.broadcast_in_dim %2, dims = [] : (tensor<ui32>) -> tensor<64xui32> loc(#loc82)
    %5 = stablehlo.shift_left %arg2, %4 : tensor<64xui32> loc(#loc82)
    %6 = stablehlo.subtract %c, %2 : tensor<ui32> loc(#loc83)
    %7 = stablehlo.broadcast_in_dim %6, dims = [] : (tensor<ui32>) -> tensor<64xui32> loc(#loc84)
    %8 = stablehlo.shift_right_logical %arg2, %7 : tensor<64xui32> loc(#loc84)
    %9 = stablehlo.or %5, %8 : tensor<64xui32> loc(#loc85)
    %10 = stablehlo.xor %3, %9 : tensor<64xui32> loc(#loc86)
    %11 = stablehlo.slice %arg6 [1:2] : (tensor<4xui32>) -> tensor<1xui32> loc(#loc80)
    %12 = stablehlo.reshape %11 : (tensor<1xui32>) -> tensor<ui32> loc(#loc81)
    %13 = stablehlo.add %3, %10 : tensor<64xui32> loc(#loc79)
    %14 = stablehlo.broadcast_in_dim %12, dims = [] : (tensor<ui32>) -> tensor<64xui32> loc(#loc82)
    %15 = stablehlo.shift_left %10, %14 : tensor<64xui32> loc(#loc82)
    %16 = stablehlo.subtract %c, %12 : tensor<ui32> loc(#loc83)
    %17 = stablehlo.broadcast_in_dim %16, dims = [] : (tensor<ui32>) -> tensor<64xui32> loc(#loc84)
    %18 = stablehlo.shift_right_logical %10, %17 : tensor<64xui32> loc(#loc84)
    %19 = stablehlo.or %15, %18 : tensor<64xui32> loc(#loc85)
    %20 = stablehlo.xor %13, %19 : tensor<64xui32> loc(#loc86)
    %21 = stablehlo.slice %arg6 [2:3] : (tensor<4xui32>) -> tensor<1xui32> loc(#loc80)
    %22 = stablehlo.reshape %21 : (tensor<1xui32>) -> tensor<ui32> loc(#loc81)
    %23 = stablehlo.add %13, %20 : tensor<64xui32> loc(#loc79)
    %24 = stablehlo.broadcast_in_dim %22, dims = [] : (tensor<ui32>) -> tensor<64xui32> loc(#loc82)
    %25 = stablehlo.shift_left %20, %24 : tensor<64xui32> loc(#loc82)
    %26 = stablehlo.subtract %c, %22 : tensor<ui32> loc(#loc83)
    %27 = stablehlo.broadcast_in_dim %26, dims = [] : (tensor<ui32>) -> tensor<64xui32> loc(#loc84)
    %28 = stablehlo.shift_right_logical %20, %27 : tensor<64xui32> loc(#loc84)
    %29 = stablehlo.or %25, %28 : tensor<64xui32> loc(#loc85)
    %30 = stablehlo.xor %23, %29 : tensor<64xui32> loc(#loc86)
    %31 = stablehlo.slice %arg6 [3:4] : (tensor<4xui32>) -> tensor<1xui32> loc(#loc80)
    %32 = stablehlo.reshape %31 : (tensor<1xui32>) -> tensor<ui32> loc(#loc81)
    %33 = stablehlo.add %23, %30 : tensor<64xui32> loc(#loc79)
    %34 = stablehlo.broadcast_in_dim %32, dims = [] : (tensor<ui32>) -> tensor<64xui32> loc(#loc82)
    %35 = stablehlo.shift_left %30, %34 : tensor<64xui32> loc(#loc82)
    %36 = stablehlo.subtract %c, %32 : tensor<ui32> loc(#loc83)
    %37 = stablehlo.broadcast_in_dim %36, dims = [] : (tensor<ui32>) -> tensor<64xui32> loc(#loc84)
    %38 = stablehlo.shift_right_logical %30, %37 : tensor<64xui32> loc(#loc84)
    %39 = stablehlo.or %35, %38 : tensor<64xui32> loc(#loc85)
    %40 = stablehlo.xor %33, %39 : tensor<64xui32> loc(#loc86)
    %41 = stablehlo.broadcast_in_dim %arg3, dims = [] : (tensor<ui32>) -> tensor<64xui32> loc(#loc79)
    %42 = stablehlo.add %33, %41 : tensor<64xui32> loc(#loc79)
    %43 = stablehlo.broadcast_in_dim %arg4, dims = [] : (tensor<ui32>) -> tensor<64xui32> loc(#loc79)
    %44 = stablehlo.add %40, %43 : tensor<64xui32> loc(#loc79)
    %45 = stablehlo.add %arg0, %c_0 : tensor<i32> loc(#loc79)
    %46 = stablehlo.convert %45 : (tensor<i32>) -> tensor<ui32> loc(#loc87)
    %47 = stablehlo.broadcast_in_dim %46, dims = [] : (tensor<ui32>) -> tensor<64xui32> loc(#loc79)
    %48 = stablehlo.add %44, %47 : tensor<64xui32> loc(#loc79)
    return %0, %42, %48, %arg4, %arg5, %arg3, %arg7, %arg6 : tensor<i32>, tensor<64xui32>, tensor<64xui32>, tensor<ui32>, tensor<ui32>, tensor<ui32>, tensor<4xui32>, tensor<4xui32> loc(#loc)
  } loc(#loc315)
  func.func private @_randint(%arg0: tensor<64x2xui32> loc(unknown), %arg1: tensor<i32> loc(unknown), %arg2: tensor<i32> loc(unknown)) -> tensor<64xi32> {
    %c = stablehlo.constant dense<65536> : tensor<ui32> loc(#loc)
    %c_0 = stablehlo.constant dense<1> : tensor<ui32> loc(#loc)
    %c_1 = stablehlo.constant dense<0> : tensor<ui32> loc(#loc)
    %c_2 = stablehlo.constant dense<2147483647> : tensor<i32> loc(#loc)
    %c_3 = stablehlo.constant dense<-2147483648> : tensor<i32> loc(#loc)
    %0 = call @clip(%c_2, %c_3, %c_2) : (tensor<i32>, tensor<i32>, tensor<i32>) -> tensor<i32> loc(#loc90)
    %1 = stablehlo.compare GT, %arg2, %0, SIGNED : (tensor<i32>, tensor<i32>) -> tensor<i1> loc(#loc91)
    %2 = call @clip_3(%arg1, %c_3, %c_2) : (tensor<i32>, tensor<i32>, tensor<i32>) -> tensor<i32> loc(#loc90)
    %3 = stablehlo.convert %2 : tensor<i32> loc(#loc87)
    %4 = call @clip_3(%arg2, %c_3, %c_2) : (tensor<i32>, tensor<i32>, tensor<i32>) -> tensor<i32> loc(#loc90)
    %5 = stablehlo.convert %4 : tensor<i32> loc(#loc87)
    %6 = call @_threefry_split_4(%arg0) : (tensor<64x2xui32>) -> tensor<64x2x2xui32> loc(#loc92)
    %7 = stablehlo.slice %6 [0:64, 0:1, 0:2] : (tensor<64x2x2xui32>) -> tensor<64x1x2xui32> loc(#loc80)
    %8 = stablehlo.reshape %7 : (tensor<64x1x2xui32>) -> tensor<64x2xui32> loc(#loc81)
    %9 = stablehlo.slice %6 [0:64, 1:2, 0:2] : (tensor<64x2x2xui32>) -> tensor<64x1x2xui32> loc(#loc80)
    %10 = stablehlo.reshape %9 : (tensor<64x1x2xui32>) -> tensor<64x2xui32> loc(#loc81)
    %11 = stablehlo.slice %8 [0:64, 0:1] : (tensor<64x2xui32>) -> tensor<64x1xui32> loc(#loc93)
    %12 = stablehlo.reshape %11 : (tensor<64x1xui32>) -> tensor<64xui32> loc(#loc94)
    %13 = stablehlo.slice %8 [0:64, 1:2] : (tensor<64x2xui32>) -> tensor<64x1xui32> loc(#loc93)
    %14 = stablehlo.reshape %13 : (tensor<64x1xui32>) -> tensor<64xui32> loc(#loc94)
    %15:2 = call @threefry2x32_7(%12, %14, %c_1, %c_1) : (tensor<64xui32>, tensor<64xui32>, tensor<ui32>, tensor<ui32>) -> (tensor<64xui32>, tensor<64xui32>) loc(#loc95)
    %16 = stablehlo.xor %15#0, %15#1 : tensor<64xui32> loc(#loc96)
    %17 = stablehlo.slice %10 [0:64, 0:1] : (tensor<64x2xui32>) -> tensor<64x1xui32> loc(#loc93)
    %18 = stablehlo.reshape %17 : (tensor<64x1xui32>) -> tensor<64xui32> loc(#loc94)
    %19 = stablehlo.slice %10 [0:64, 1:2] : (tensor<64x2xui32>) -> tensor<64x1xui32> loc(#loc93)
    %20 = stablehlo.reshape %19 : (tensor<64x1xui32>) -> tensor<64xui32> loc(#loc94)
    %21:2 = call @threefry2x32_7(%18, %20, %c_1, %c_1) : (tensor<64xui32>, tensor<64xui32>, tensor<ui32>, tensor<ui32>) -> (tensor<64xui32>, tensor<64xui32>) loc(#loc95)
    %22 = stablehlo.xor %21#0, %21#1 : tensor<64xui32> loc(#loc96)
    %23 = stablehlo.subtract %5, %3 : tensor<i32> loc(#loc83)
    %24 = stablehlo.convert %23 : (tensor<i32>) -> tensor<ui32> loc(#loc87)
    %25 = stablehlo.compare LE, %5, %3, SIGNED : (tensor<i32>, tensor<i32>) -> tensor<i1> loc(#loc97)
    %26 = stablehlo.select %25, %c_0, %24 : tensor<i1>, tensor<ui32> loc(#loc98)
    %27 = stablehlo.compare GT, %5, %3, SIGNED : (tensor<i32>, tensor<i32>) -> tensor<i1> loc(#loc91)
    %28 = stablehlo.and %1, %27 : tensor<i1> loc(#loc99)
    %29 = stablehlo.add %26, %c_0 : tensor<ui32> loc(#loc79)
    %30 = stablehlo.select %28, %29, %26 : tensor<i1>, tensor<ui32> loc(#loc98)
    %31 = stablehlo.remainder %c, %30 : tensor<ui32> loc(#loc100)
    %32 = stablehlo.multiply %31, %31 : tensor<ui32> loc(#loc101)
    %33 = stablehlo.remainder %32, %30 : tensor<ui32> loc(#loc100)
    %34 = stablehlo.broadcast_in_dim %30, dims = [] : (tensor<ui32>) -> tensor<64xui32> loc(#loc100)
    %35 = stablehlo.remainder %16, %34 : tensor<64xui32> loc(#loc100)
    %36 = stablehlo.broadcast_in_dim %33, dims = [] : (tensor<ui32>) -> tensor<64xui32> loc(#loc101)
    %37 = stablehlo.multiply %35, %36 : tensor<64xui32> loc(#loc101)
    %38 = stablehlo.broadcast_in_dim %30, dims = [] : (tensor<ui32>) -> tensor<64xui32> loc(#loc100)
    %39 = stablehlo.remainder %22, %38 : tensor<64xui32> loc(#loc100)
    %40 = stablehlo.add %37, %39 : tensor<64xui32> loc(#loc79)
    %41 = stablehlo.broadcast_in_dim %30, dims = [] : (tensor<ui32>) -> tensor<64xui32> loc(#loc100)
    %42 = stablehlo.remainder %40, %41 : tensor<64xui32> loc(#loc100)
    %43 = stablehlo.convert %42 : (tensor<64xui32>) -> tensor<64xi32> loc(#loc87)
    %44 = stablehlo.broadcast_in_dim %3, dims = [] : (tensor<i32>) -> tensor<64xi32> loc(#loc79)
    %45 = stablehlo.add %44, %43 : tensor<64xi32> loc(#loc79)
    return %45 : tensor<64xi32> loc(#loc)
  } loc(#loc529)
  func.func private @clip(%arg0: tensor<i32> loc(unknown), %arg1: tensor<i32> loc(unknown), %arg2: tensor<i32> loc(unknown)) -> tensor<i32> {
    %0 = stablehlo.maximum %arg1, %arg0 : tensor<i32> loc(#loc103)
    %1 = stablehlo.minimum %arg2, %0 : tensor<i32> loc(#loc104)
    return %1 : tensor<i32> loc(#loc)
  } loc(#loc216)
  func.func private @clip_3(%arg0: tensor<i32> loc(unknown), %arg1: tensor<i32> loc(unknown), %arg2: tensor<i32> loc(unknown)) -> tensor<i32> {
    %0 = stablehlo.maximum %arg1, %arg0 : tensor<i32> loc(#loc103)
    %1 = stablehlo.minimum %arg2, %0 : tensor<i32> loc(#loc104)
    return %1 : tensor<i32> loc(#loc)
  } loc(#loc216)
  func.func private @_threefry_split_4(%arg0: tensor<64x2xui32> loc(unknown)) -> tensor<64x2x2xui32> {
    %c = stablehlo.constant dense<32> : tensor<ui64> loc(#loc106)
    %c_0 = stablehlo.constant dense<1> : tensor<ui64> loc(#loc106)
    %0 = stablehlo.slice %arg0 [0:64, 0:1] : (tensor<64x2xui32>) -> tensor<64x1xui32> loc(#loc80)
    %1 = stablehlo.reshape %0 : (tensor<64x1xui32>) -> tensor<64xui32> loc(#loc81)
    %2 = stablehlo.slice %arg0 [0:64, 1:2] : (tensor<64x2xui32>) -> tensor<64x1xui32> loc(#loc80)
    %3 = stablehlo.reshape %2 : (tensor<64x1xui32>) -> tensor<64xui32> loc(#loc81)
    %4 = stablehlo.iota dim = 0 : tensor<2xui64> loc(#loc106)
    %5 = stablehlo.broadcast_in_dim %c_0, dims = [] : (tensor<ui64>) -> tensor<2xui64> loc(#loc106)
    %6 = stablehlo.multiply %5, %4 : tensor<2xui64> loc(#loc106)
    %7 = stablehlo.broadcast_in_dim %c, dims = [] : (tensor<ui64>) -> tensor<2xui64> loc(#loc106)
    %8 = stablehlo.shift_right_logical %6, %7 : tensor<2xui64> loc(#loc106)
    %9 = stablehlo.convert %6 : (tensor<2xui64>) -> tensor<2xui32> loc(#loc106)
    %10 = stablehlo.convert %8 : (tensor<2xui64>) -> tensor<2xui32> loc(#loc106)
    %11 = stablehlo.broadcast_in_dim %10, dims = [1] : (tensor<2xui32>) -> tensor<1x2xui32> loc(#loc107)
    %12 = stablehlo.broadcast_in_dim %9, dims = [1] : (tensor<2xui32>) -> tensor<1x2xui32> loc(#loc107)
    %13 = stablehlo.broadcast_in_dim %1, dims = [0] : (tensor<64xui32>) -> tensor<64x1xui32> loc(#loc107)
    %14 = stablehlo.broadcast_in_dim %3, dims = [0] : (tensor<64xui32>) -> tensor<64x1xui32> loc(#loc107)
    %15:2 = call @threefry2x32_5(%13, %14, %11, %12) : (tensor<64x1xui32>, tensor<64x1xui32>, tensor<1x2xui32>, tensor<1x2xui32>) -> (tensor<64x2xui32>, tensor<64x2xui32>) loc(#loc)
    %16 = stablehlo.broadcast_in_dim %15#0, dims = [0, 1] : (tensor<64x2xui32>) -> tensor<64x2x1xui32> loc(#loc108)
    %17 = stablehlo.broadcast_in_dim %15#1, dims = [0, 1] : (tensor<64x2xui32>) -> tensor<64x2x1xui32> loc(#loc108)
    %18 = stablehlo.concatenate %16, %17, dim = 2 : (tensor<64x2x1xui32>, tensor<64x2x1xui32>) -> tensor<64x2x2xui32> loc(#loc108)
    return %18 : tensor<64x2x2xui32> loc(#loc)
  } loc(#loc217)
  func.func private @threefry2x32_5(%arg0: tensor<64x1xui32> loc(unknown), %arg1: tensor<64x1xui32> loc(unknown), %arg2: tensor<1x2xui32> loc(unknown), %arg3: tensor<1x2xui32> loc(unknown)) -> (tensor<64x2xui32>, tensor<64x2xui32>) {
    %c = stablehlo.constant dense<1> : tensor<i32> loc(#loc)
    %c_0 = stablehlo.constant dense<5> : tensor<i32> loc(#loc)
    %c_1 = stablehlo.constant dense<0> : tensor<i32> loc(#loc)
    %c_2 = stablehlo.constant dense<466688986> : tensor<ui32> loc(#loc213)
    %c_3 = stablehlo.constant dense<[13, 15, 26, 6]> : tensor<4xui32> loc(#loc213)
    %c_4 = stablehlo.constant dense<[17, 29, 16, 24]> : tensor<4xui32> loc(#loc213)
    %0 = stablehlo.xor %arg0, %arg1 : tensor<64x1xui32> loc(#loc86)
    %1 = stablehlo.broadcast_in_dim %c_2, dims = [] : (tensor<ui32>) -> tensor<64x1xui32> loc(#loc86)
    %2 = stablehlo.xor %0, %1 : tensor<64x1xui32> loc(#loc86)
    %3 = stablehlo.broadcast_in_dim %arg2, dims = [0, 1] : (tensor<1x2xui32>) -> tensor<64x2xui32> loc(#loc79)
    %4 = stablehlo.broadcast_in_dim %arg0, dims = [0, 1] : (tensor<64x1xui32>) -> tensor<64x2xui32> loc(#loc79)
    %5 = stablehlo.add %3, %4 : tensor<64x2xui32> loc(#loc79)
    %6 = stablehlo.broadcast_in_dim %arg3, dims = [0, 1] : (tensor<1x2xui32>) -> tensor<64x2xui32> loc(#loc79)
    %7 = stablehlo.broadcast_in_dim %arg1, dims = [0, 1] : (tensor<64x1xui32>) -> tensor<64x2xui32> loc(#loc79)
    %8 = stablehlo.add %6, %7 : tensor<64x2xui32> loc(#loc79)
    %9:9 = stablehlo.while(%iterArg = %c_1, %iterArg_5 = %c_1, %iterArg_6 = %5, %iterArg_7 = %8, %iterArg_8 = %arg1, %iterArg_9 = %2, %iterArg_10 = %arg0, %iterArg_11 = %c_3, %iterArg_12 = %c_4) : tensor<i32>, tensor<i32>, tensor<64x2xui32>, tensor<64x2xui32>, tensor<64x1xui32>, tensor<64x1xui32>, tensor<64x1xui32>, tensor<4xui32>, tensor<4xui32>
    cond {
      %10 = stablehlo.compare LT, %iterArg, %c_0, SIGNED : (tensor<i32>, tensor<i32>) -> tensor<i1> loc(#loc110)
      stablehlo.return %10 : tensor<i1> loc(#loc109)
    } do {
      %10:8 = func.call @closed_call_6(%iterArg_5, %iterArg_6, %iterArg_7, %iterArg_8, %iterArg_9, %iterArg_10, %iterArg_11, %iterArg_12) : (tensor<i32>, tensor<64x2xui32>, tensor<64x2xui32>, tensor<64x1xui32>, tensor<64x1xui32>, tensor<64x1xui32>, tensor<4xui32>, tensor<4xui32>) -> (tensor<i32>, tensor<64x2xui32>, tensor<64x2xui32>, tensor<64x1xui32>, tensor<64x1xui32>, tensor<64x1xui32>, tensor<4xui32>, tensor<4xui32>) loc(#loc111)
      %11 = stablehlo.add %iterArg, %c : tensor<i32> loc(#loc112)
      stablehlo.return %11, %10#0, %10#1, %10#2, %10#3, %10#4, %10#5, %10#6, %10#7 : tensor<i32>, tensor<i32>, tensor<64x2xui32>, tensor<64x2xui32>, tensor<64x1xui32>, tensor<64x1xui32>, tensor<64x1xui32>, tensor<4xui32>, tensor<4xui32> loc(#loc109)
    } loc(#loc109)
    return %9#2, %9#3 : tensor<64x2xui32>, tensor<64x2xui32> loc(#loc)
  } loc(#loc)
  func.func private @closed_call_6(%arg0: tensor<i32> loc(unknown), %arg1: tensor<64x2xui32> loc(unknown), %arg2: tensor<64x2xui32> loc(unknown), %arg3: tensor<64x1xui32> loc(unknown), %arg4: tensor<64x1xui32> loc(unknown), %arg5: tensor<64x1xui32> loc(unknown), %arg6: tensor<4xui32> loc(unknown), %arg7: tensor<4xui32> loc(unknown)) -> (tensor<i32>, tensor<64x2xui32>, tensor<64x2xui32>, tensor<64x1xui32>, tensor<64x1xui32>, tensor<64x1xui32>, tensor<4xui32>, tensor<4xui32>) {
    %c = stablehlo.constant dense<32> : tensor<ui32> loc(#loc)
    %c_0 = stablehlo.constant dense<1> : tensor<i32> loc(#loc)
    %0 = stablehlo.add %arg0, %c_0 : tensor<i32> loc(#loc79)
    %1 = stablehlo.slice %arg6 [0:1] : (tensor<4xui32>) -> tensor<1xui32> loc(#loc80)
    %2 = stablehlo.reshape %1 : (tensor<1xui32>) -> tensor<ui32> loc(#loc81)
    %3 = stablehlo.add %arg1, %arg2 : tensor<64x2xui32> loc(#loc79)
    %4 = stablehlo.broadcast_in_dim %2, dims = [] : (tensor<ui32>) -> tensor<64x2xui32> loc(#loc82)
    %5 = stablehlo.shift_left %arg2, %4 : tensor<64x2xui32> loc(#loc82)
    %6 = stablehlo.subtract %c, %2 : tensor<ui32> loc(#loc83)
    %7 = stablehlo.broadcast_in_dim %6, dims = [] : (tensor<ui32>) -> tensor<64x2xui32> loc(#loc84)
    %8 = stablehlo.shift_right_logical %arg2, %7 : tensor<64x2xui32> loc(#loc84)
    %9 = stablehlo.or %5, %8 : tensor<64x2xui32> loc(#loc85)
    %10 = stablehlo.xor %3, %9 : tensor<64x2xui32> loc(#loc86)
    %11 = stablehlo.slice %arg6 [1:2] : (tensor<4xui32>) -> tensor<1xui32> loc(#loc80)
    %12 = stablehlo.reshape %11 : (tensor<1xui32>) -> tensor<ui32> loc(#loc81)
    %13 = stablehlo.add %3, %10 : tensor<64x2xui32> loc(#loc79)
    %14 = stablehlo.broadcast_in_dim %12, dims = [] : (tensor<ui32>) -> tensor<64x2xui32> loc(#loc82)
    %15 = stablehlo.shift_left %10, %14 : tensor<64x2xui32> loc(#loc82)
    %16 = stablehlo.subtract %c, %12 : tensor<ui32> loc(#loc83)
    %17 = stablehlo.broadcast_in_dim %16, dims = [] : (tensor<ui32>) -> tensor<64x2xui32> loc(#loc84)
    %18 = stablehlo.shift_right_logical %10, %17 : tensor<64x2xui32> loc(#loc84)
    %19 = stablehlo.or %15, %18 : tensor<64x2xui32> loc(#loc85)
    %20 = stablehlo.xor %13, %19 : tensor<64x2xui32> loc(#loc86)
    %21 = stablehlo.slice %arg6 [2:3] : (tensor<4xui32>) -> tensor<1xui32> loc(#loc80)
    %22 = stablehlo.reshape %21 : (tensor<1xui32>) -> tensor<ui32> loc(#loc81)
    %23 = stablehlo.add %13, %20 : tensor<64x2xui32> loc(#loc79)
    %24 = stablehlo.broadcast_in_dim %22, dims = [] : (tensor<ui32>) -> tensor<64x2xui32> loc(#loc82)
    %25 = stablehlo.shift_left %20, %24 : tensor<64x2xui32> loc(#loc82)
    %26 = stablehlo.subtract %c, %22 : tensor<ui32> loc(#loc83)
    %27 = stablehlo.broadcast_in_dim %26, dims = [] : (tensor<ui32>) -> tensor<64x2xui32> loc(#loc84)
    %28 = stablehlo.shift_right_logical %20, %27 : tensor<64x2xui32> loc(#loc84)
    %29 = stablehlo.or %25, %28 : tensor<64x2xui32> loc(#loc85)
    %30 = stablehlo.xor %23, %29 : tensor<64x2xui32> loc(#loc86)
    %31 = stablehlo.slice %arg6 [3:4] : (tensor<4xui32>) -> tensor<1xui32> loc(#loc80)
    %32 = stablehlo.reshape %31 : (tensor<1xui32>) -> tensor<ui32> loc(#loc81)
    %33 = stablehlo.add %23, %30 : tensor<64x2xui32> loc(#loc79)
    %34 = stablehlo.broadcast_in_dim %32, dims = [] : (tensor<ui32>) -> tensor<64x2xui32> loc(#loc82)
    %35 = stablehlo.shift_left %30, %34 : tensor<64x2xui32> loc(#loc82)
    %36 = stablehlo.subtract %c, %32 : tensor<ui32> loc(#loc83)
    %37 = stablehlo.broadcast_in_dim %36, dims = [] : (tensor<ui32>) -> tensor<64x2xui32> loc(#loc84)
    %38 = stablehlo.shift_right_logical %30, %37 : tensor<64x2xui32> loc(#loc84)
    %39 = stablehlo.or %35, %38 : tensor<64x2xui32> loc(#loc85)
    %40 = stablehlo.xor %33, %39 : tensor<64x2xui32> loc(#loc86)
    %41 = stablehlo.broadcast_in_dim %arg3, dims = [0, 1] : (tensor<64x1xui32>) -> tensor<64x2xui32> loc(#loc79)
    %42 = stablehlo.add %33, %41 : tensor<64x2xui32> loc(#loc79)
    %43 = stablehlo.broadcast_in_dim %arg4, dims = [0, 1] : (tensor<64x1xui32>) -> tensor<64x2xui32> loc(#loc79)
    %44 = stablehlo.add %40, %43 : tensor<64x2xui32> loc(#loc79)
    %45 = stablehlo.add %arg0, %c_0 : tensor<i32> loc(#loc79)
    %46 = stablehlo.convert %45 : (tensor<i32>) -> tensor<ui32> loc(#loc87)
    %47 = stablehlo.broadcast_in_dim %46, dims = [] : (tensor<ui32>) -> tensor<64x2xui32> loc(#loc79)
    %48 = stablehlo.add %44, %47 : tensor<64x2xui32> loc(#loc79)
    return %0, %42, %48, %arg4, %arg5, %arg3, %arg7, %arg6 : tensor<i32>, tensor<64x2xui32>, tensor<64x2xui32>, tensor<64x1xui32>, tensor<64x1xui32>, tensor<64x1xui32>, tensor<4xui32>, tensor<4xui32> loc(#loc)
  } loc(#loc218)
  func.func private @threefry2x32_7(%arg0: tensor<64xui32> loc("vmap()"), %arg1: tensor<64xui32> loc("vmap()"), %arg2: tensor<ui32> loc("vmap()"), %arg3: tensor<ui32> loc("vmap()")) -> (tensor<64xui32>, tensor<64xui32>) {
    %c = stablehlo.constant dense<1> : tensor<i32> loc(#loc)
    %c_0 = stablehlo.constant dense<5> : tensor<i32> loc(#loc)
    %c_1 = stablehlo.constant dense<0> : tensor<i32> loc(#loc)
    %c_2 = stablehlo.constant dense<466688986> : tensor<ui32> loc(#loc213)
    %c_3 = stablehlo.constant dense<[13, 15, 26, 6]> : tensor<4xui32> loc(#loc213)
    %c_4 = stablehlo.constant dense<[17, 29, 16, 24]> : tensor<4xui32> loc(#loc213)
    %0 = stablehlo.xor %arg0, %arg1 : tensor<64xui32> loc(#loc86)
    %1 = stablehlo.broadcast_in_dim %c_2, dims = [] : (tensor<ui32>) -> tensor<64xui32> loc(#loc86)
    %2 = stablehlo.xor %0, %1 : tensor<64xui32> loc(#loc86)
    %3 = stablehlo.broadcast_in_dim %arg2, dims = [] : (tensor<ui32>) -> tensor<64xui32> loc(#loc79)
    %4 = stablehlo.add %3, %arg0 : tensor<64xui32> loc(#loc79)
    %5 = stablehlo.broadcast_in_dim %arg3, dims = [] : (tensor<ui32>) -> tensor<64xui32> loc(#loc79)
    %6 = stablehlo.add %5, %arg1 : tensor<64xui32> loc(#loc79)
    %7:9 = stablehlo.while(%iterArg = %c_1, %iterArg_5 = %c_1, %iterArg_6 = %4, %iterArg_7 = %6, %iterArg_8 = %arg1, %iterArg_9 = %2, %iterArg_10 = %arg0, %iterArg_11 = %c_3, %iterArg_12 = %c_4) : tensor<i32>, tensor<i32>, tensor<64xui32>, tensor<64xui32>, tensor<64xui32>, tensor<64xui32>, tensor<64xui32>, tensor<4xui32>, tensor<4xui32>
    cond {
      %8 = stablehlo.compare LT, %iterArg, %c_0, SIGNED : (tensor<i32>, tensor<i32>) -> tensor<i1> loc(#loc110)
      stablehlo.return %8 : tensor<i1> loc(#loc109)
    } do {
      %8:8 = func.call @closed_call_8(%iterArg_5, %iterArg_6, %iterArg_7, %iterArg_8, %iterArg_9, %iterArg_10, %iterArg_11, %iterArg_12) : (tensor<i32>, tensor<64xui32>, tensor<64xui32>, tensor<64xui32>, tensor<64xui32>, tensor<64xui32>, tensor<4xui32>, tensor<4xui32>) -> (tensor<i32>, tensor<64xui32>, tensor<64xui32>, tensor<64xui32>, tensor<64xui32>, tensor<64xui32>, tensor<4xui32>, tensor<4xui32>) loc(#loc111)
      %9 = stablehlo.add %iterArg, %c : tensor<i32> loc(#loc112)
      stablehlo.return %9, %8#0, %8#1, %8#2, %8#3, %8#4, %8#5, %8#6, %8#7 : tensor<i32>, tensor<i32>, tensor<64xui32>, tensor<64xui32>, tensor<64xui32>, tensor<64xui32>, tensor<64xui32>, tensor<4xui32>, tensor<4xui32> loc(#loc109)
    } loc(#loc109)
    return %7#2, %7#3 : tensor<64xui32>, tensor<64xui32> loc(#loc95)
  } loc(#loc95)
  func.func private @closed_call_8(%arg0: tensor<i32> loc(unknown), %arg1: tensor<64xui32> loc(unknown), %arg2: tensor<64xui32> loc(unknown), %arg3: tensor<64xui32> loc(unknown), %arg4: tensor<64xui32> loc(unknown), %arg5: tensor<64xui32> loc(unknown), %arg6: tensor<4xui32> loc(unknown), %arg7: tensor<4xui32> loc(unknown)) -> (tensor<i32>, tensor<64xui32>, tensor<64xui32>, tensor<64xui32>, tensor<64xui32>, tensor<64xui32>, tensor<4xui32>, tensor<4xui32>) {
    %c = stablehlo.constant dense<32> : tensor<ui32> loc(#loc)
    %c_0 = stablehlo.constant dense<1> : tensor<i32> loc(#loc)
    %0 = stablehlo.add %arg0, %c_0 : tensor<i32> loc(#loc79)
    %1 = stablehlo.slice %arg6 [0:1] : (tensor<4xui32>) -> tensor<1xui32> loc(#loc80)
    %2 = stablehlo.reshape %1 : (tensor<1xui32>) -> tensor<ui32> loc(#loc81)
    %3 = stablehlo.add %arg1, %arg2 : tensor<64xui32> loc(#loc79)
    %4 = stablehlo.broadcast_in_dim %2, dims = [] : (tensor<ui32>) -> tensor<64xui32> loc(#loc82)
    %5 = stablehlo.shift_left %arg2, %4 : tensor<64xui32> loc(#loc82)
    %6 = stablehlo.subtract %c, %2 : tensor<ui32> loc(#loc83)
    %7 = stablehlo.broadcast_in_dim %6, dims = [] : (tensor<ui32>) -> tensor<64xui32> loc(#loc84)
    %8 = stablehlo.shift_right_logical %arg2, %7 : tensor<64xui32> loc(#loc84)
    %9 = stablehlo.or %5, %8 : tensor<64xui32> loc(#loc85)
    %10 = stablehlo.xor %3, %9 : tensor<64xui32> loc(#loc86)
    %11 = stablehlo.slice %arg6 [1:2] : (tensor<4xui32>) -> tensor<1xui32> loc(#loc80)
    %12 = stablehlo.reshape %11 : (tensor<1xui32>) -> tensor<ui32> loc(#loc81)
    %13 = stablehlo.add %3, %10 : tensor<64xui32> loc(#loc79)
    %14 = stablehlo.broadcast_in_dim %12, dims = [] : (tensor<ui32>) -> tensor<64xui32> loc(#loc82)
    %15 = stablehlo.shift_left %10, %14 : tensor<64xui32> loc(#loc82)
    %16 = stablehlo.subtract %c, %12 : tensor<ui32> loc(#loc83)
    %17 = stablehlo.broadcast_in_dim %16, dims = [] : (tensor<ui32>) -> tensor<64xui32> loc(#loc84)
    %18 = stablehlo.shift_right_logical %10, %17 : tensor<64xui32> loc(#loc84)
    %19 = stablehlo.or %15, %18 : tensor<64xui32> loc(#loc85)
    %20 = stablehlo.xor %13, %19 : tensor<64xui32> loc(#loc86)
    %21 = stablehlo.slice %arg6 [2:3] : (tensor<4xui32>) -> tensor<1xui32> loc(#loc80)
    %22 = stablehlo.reshape %21 : (tensor<1xui32>) -> tensor<ui32> loc(#loc81)
    %23 = stablehlo.add %13, %20 : tensor<64xui32> loc(#loc79)
    %24 = stablehlo.broadcast_in_dim %22, dims = [] : (tensor<ui32>) -> tensor<64xui32> loc(#loc82)
    %25 = stablehlo.shift_left %20, %24 : tensor<64xui32> loc(#loc82)
    %26 = stablehlo.subtract %c, %22 : tensor<ui32> loc(#loc83)
    %27 = stablehlo.broadcast_in_dim %26, dims = [] : (tensor<ui32>) -> tensor<64xui32> loc(#loc84)
    %28 = stablehlo.shift_right_logical %20, %27 : tensor<64xui32> loc(#loc84)
    %29 = stablehlo.or %25, %28 : tensor<64xui32> loc(#loc85)
    %30 = stablehlo.xor %23, %29 : tensor<64xui32> loc(#loc86)
    %31 = stablehlo.slice %arg6 [3:4] : (tensor<4xui32>) -> tensor<1xui32> loc(#loc80)
    %32 = stablehlo.reshape %31 : (tensor<1xui32>) -> tensor<ui32> loc(#loc81)
    %33 = stablehlo.add %23, %30 : tensor<64xui32> loc(#loc79)
    %34 = stablehlo.broadcast_in_dim %32, dims = [] : (tensor<ui32>) -> tensor<64xui32> loc(#loc82)
    %35 = stablehlo.shift_left %30, %34 : tensor<64xui32> loc(#loc82)
    %36 = stablehlo.subtract %c, %32 : tensor<ui32> loc(#loc83)
    %37 = stablehlo.broadcast_in_dim %36, dims = [] : (tensor<ui32>) -> tensor<64xui32> loc(#loc84)
    %38 = stablehlo.shift_right_logical %30, %37 : tensor<64xui32> loc(#loc84)
    %39 = stablehlo.or %35, %38 : tensor<64xui32> loc(#loc85)
    %40 = stablehlo.xor %33, %39 : tensor<64xui32> loc(#loc86)
    %41 = stablehlo.add %33, %arg3 : tensor<64xui32> loc(#loc79)
    %42 = stablehlo.add %40, %arg4 : tensor<64xui32> loc(#loc79)
    %43 = stablehlo.add %arg0, %c_0 : tensor<i32> loc(#loc79)
    %44 = stablehlo.convert %43 : (tensor<i32>) -> tensor<ui32> loc(#loc87)
    %45 = stablehlo.broadcast_in_dim %44, dims = [] : (tensor<ui32>) -> tensor<64xui32> loc(#loc79)
    %46 = stablehlo.add %42, %45 : tensor<64xui32> loc(#loc79)
    return %0, %41, %46, %arg4, %arg5, %arg3, %arg7, %arg6 : tensor<i32>, tensor<64xui32>, tensor<64xui32>, tensor<64xui32>, tensor<64xui32>, tensor<64xui32>, tensor<4xui32>, tensor<4xui32> loc(#loc)
  } loc(#loc218)
  func.func private @_one_hot(%arg0: tensor<5xi32> loc(unknown)) -> tensor<5x3xf32> {
    %0 = stablehlo.broadcast_in_dim %arg0, dims = [0] : (tensor<5xi32>) -> tensor<5x1xi32> loc(#loc107)
    %1 = stablehlo.iota dim = 1 : tensor<1x3xi32> loc(#loc113)
    %2 = stablehlo.broadcast_in_dim %0, dims = [0, 1] : (tensor<5x1xi32>) -> tensor<5x3xi32> loc(#loc114)
    %3 = stablehlo.broadcast_in_dim %1, dims = [0, 1] : (tensor<1x3xi32>) -> tensor<5x3xi32> loc(#loc114)
    %4 = stablehlo.compare EQ, %2, %3, SIGNED : (tensor<5x3xi32>, tensor<5x3xi32>) -> tensor<5x3xi1> loc(#loc114)
    %5 = stablehlo.convert %4 : (tensor<5x3xi1>) -> tensor<5x3xf32> loc(#loc87)
    return %5 : tensor<5x3xf32> loc(#loc)
  } loc(#loc548)
  func.func private @_where(%arg0: tensor<i1> loc(unknown), %arg1: tensor<15xf32> loc(unknown), %arg2: tensor<f32> loc(unknown)) -> tensor<15xf32> {
    %0 = stablehlo.convert %arg2 : tensor<f32> loc(#loc87)
    %1 = stablehlo.broadcast_in_dim %0, dims = [] : (tensor<f32>) -> tensor<15xf32> loc(#loc107)
    %2 = stablehlo.select %arg0, %arg1, %1 : tensor<i1>, tensor<15xf32> loc(#loc98)
    return %2 : tensor<15xf32> loc(#loc)
  } loc(#loc549)
  func.func private @_threefry_fold_in(%arg0: tensor<2xui32> loc(unknown), %arg1: tensor<ui32> loc(unknown)) -> tensor<2xui32> {
    %c = stablehlo.constant dense<4294967295> : tensor<ui32> loc(#loc)
    %c_0 = stablehlo.constant dense<32> : tensor<ui32> loc(#loc)
    %0 = stablehlo.shift_right_logical %arg1, %c_0 : tensor<ui32> loc(#loc317)
    %1 = stablehlo.broadcast_in_dim %0, dims = [] : (tensor<ui32>) -> tensor<1xui32> loc(#loc318)
    %2 = stablehlo.and %arg1, %c : tensor<ui32> loc(#loc319)
    %3 = stablehlo.broadcast_in_dim %2, dims = [] : (tensor<ui32>) -> tensor<1xui32> loc(#loc318)
    %4 = stablehlo.concatenate %1, %3, dim = 0 : (tensor<1xui32>, tensor<1xui32>) -> tensor<2xui32> loc(#loc320)
    %5 = stablehlo.slice %arg0 [0:1] : (tensor<2xui32>) -> tensor<1xui32> loc(#loc321)
    %6 = stablehlo.reshape %5 : (tensor<1xui32>) -> tensor<ui32> loc(#loc322)
    %7 = stablehlo.slice %arg0 [1:2] : (tensor<2xui32>) -> tensor<1xui32> loc(#loc321)
    %8 = stablehlo.reshape %7 : (tensor<1xui32>) -> tensor<ui32> loc(#loc322)
    %9 = stablehlo.slice %4 [0:1] : (tensor<2xui32>) -> tensor<1xui32> loc(#loc323)
    %10 = stablehlo.slice %4 [1:2] : (tensor<2xui32>) -> tensor<1xui32> loc(#loc323)
    %11:2 = call @threefry2x32_9(%6, %8, %9, %10) : (tensor<ui32>, tensor<ui32>, tensor<1xui32>, tensor<1xui32>) -> (tensor<1xui32>, tensor<1xui32>) loc(#loc255)
    %12 = stablehlo.concatenate %11#0, %11#1, dim = 0 : (tensor<1xui32>, tensor<1xui32>) -> tensor<2xui32> loc(#loc320)
    return %12 : tensor<2xui32> loc(#loc)
  } loc(#loc383)
  func.func private @threefry2x32_9(%arg0: tensor<ui32> loc(callsite(#loc167 at #loc234)), %arg1: tensor<ui32> loc(callsite(#loc167 at #loc234)), %arg2: tensor<1xui32> loc(callsite(#loc167 at #loc234)), %arg3: tensor<1xui32> loc(callsite(#loc167 at #loc234))) -> (tensor<1xui32>, tensor<1xui32>) {
    %c = stablehlo.constant dense<1> : tensor<i32> loc(#loc)
    %c_0 = stablehlo.constant dense<5> : tensor<i32> loc(#loc)
    %c_1 = stablehlo.constant dense<0> : tensor<i32> loc(#loc)
    %c_2 = stablehlo.constant dense<466688986> : tensor<ui32> loc(#loc213)
    %c_3 = stablehlo.constant dense<[13, 15, 26, 6]> : tensor<4xui32> loc(#loc213)
    %c_4 = stablehlo.constant dense<[17, 29, 16, 24]> : tensor<4xui32> loc(#loc213)
    %0 = stablehlo.xor %arg0, %arg1 : tensor<ui32> loc(#loc324)
    %1 = stablehlo.xor %0, %c_2 : tensor<ui32> loc(#loc324)
    %2 = stablehlo.broadcast_in_dim %arg0, dims = [] : (tensor<ui32>) -> tensor<1xui32> loc(#loc325)
    %3 = stablehlo.add %arg2, %2 : tensor<1xui32> loc(#loc325)
    %4 = stablehlo.broadcast_in_dim %arg1, dims = [] : (tensor<ui32>) -> tensor<1xui32> loc(#loc325)
    %5 = stablehlo.add %arg3, %4 : tensor<1xui32> loc(#loc325)
    %6:9 = stablehlo.while(%iterArg = %c_1, %iterArg_5 = %c_1, %iterArg_6 = %3, %iterArg_7 = %5, %iterArg_8 = %arg1, %iterArg_9 = %1, %iterArg_10 = %arg0, %iterArg_11 = %c_3, %iterArg_12 = %c_4) : tensor<i32>, tensor<i32>, tensor<1xui32>, tensor<1xui32>, tensor<ui32>, tensor<ui32>, tensor<ui32>, tensor<4xui32>, tensor<4xui32>
    cond {
      %7 = stablehlo.compare LT, %iterArg, %c_0, SIGNED : (tensor<i32>, tensor<i32>) -> tensor<i1> loc(#loc445)
      stablehlo.return %7 : tensor<i1> loc(#loc384)
    } do {
      %7:8 = func.call @closed_call_10(%iterArg_5, %iterArg_6, %iterArg_7, %iterArg_8, %iterArg_9, %iterArg_10, %iterArg_11, %iterArg_12) : (tensor<i32>, tensor<1xui32>, tensor<1xui32>, tensor<ui32>, tensor<ui32>, tensor<ui32>, tensor<4xui32>, tensor<4xui32>) -> (tensor<i32>, tensor<1xui32>, tensor<1xui32>, tensor<ui32>, tensor<ui32>, tensor<ui32>, tensor<4xui32>, tensor<4xui32>) loc(#loc446)
      %8 = stablehlo.add %iterArg, %c : tensor<i32> loc(#loc447)
      stablehlo.return %8, %7#0, %7#1, %7#2, %7#3, %7#4, %7#5, %7#6, %7#7 : tensor<i32>, tensor<i32>, tensor<1xui32>, tensor<1xui32>, tensor<ui32>, tensor<ui32>, tensor<ui32>, tensor<4xui32>, tensor<4xui32> loc(#loc384)
    } loc(#loc384)
    return %6#2, %6#3 : tensor<1xui32>, tensor<1xui32> loc(#loc255)
  } loc(#loc255)
  func.func private @closed_call_10(%arg0: tensor<i32> loc(unknown), %arg1: tensor<1xui32> loc(unknown), %arg2: tensor<1xui32> loc(unknown), %arg3: tensor<ui32> loc(unknown), %arg4: tensor<ui32> loc(unknown), %arg5: tensor<ui32> loc(unknown), %arg6: tensor<4xui32> loc(unknown), %arg7: tensor<4xui32> loc(unknown)) -> (tensor<i32>, tensor<1xui32>, tensor<1xui32>, tensor<ui32>, tensor<ui32>, tensor<ui32>, tensor<4xui32>, tensor<4xui32>) {
    %c = stablehlo.constant dense<32> : tensor<ui32> loc(#loc)
    %c_0 = stablehlo.constant dense<1> : tensor<i32> loc(#loc)
    %0 = stablehlo.add %arg0, %c_0 : tensor<i32> loc(#loc79)
    %1 = stablehlo.slice %arg6 [0:1] : (tensor<4xui32>) -> tensor<1xui32> loc(#loc80)
    %2 = stablehlo.reshape %1 : (tensor<1xui32>) -> tensor<ui32> loc(#loc81)
    %3 = stablehlo.add %arg1, %arg2 : tensor<1xui32> loc(#loc79)
    %4 = stablehlo.broadcast_in_dim %2, dims = [] : (tensor<ui32>) -> tensor<1xui32> loc(#loc82)
    %5 = stablehlo.shift_left %arg2, %4 : tensor<1xui32> loc(#loc82)
    %6 = stablehlo.subtract %c, %2 : tensor<ui32> loc(#loc83)
    %7 = stablehlo.broadcast_in_dim %6, dims = [] : (tensor<ui32>) -> tensor<1xui32> loc(#loc84)
    %8 = stablehlo.shift_right_logical %arg2, %7 : tensor<1xui32> loc(#loc84)
    %9 = stablehlo.or %5, %8 : tensor<1xui32> loc(#loc85)
    %10 = stablehlo.xor %3, %9 : tensor<1xui32> loc(#loc86)
    %11 = stablehlo.slice %arg6 [1:2] : (tensor<4xui32>) -> tensor<1xui32> loc(#loc80)
    %12 = stablehlo.reshape %11 : (tensor<1xui32>) -> tensor<ui32> loc(#loc81)
    %13 = stablehlo.add %3, %10 : tensor<1xui32> loc(#loc79)
    %14 = stablehlo.broadcast_in_dim %12, dims = [] : (tensor<ui32>) -> tensor<1xui32> loc(#loc82)
    %15 = stablehlo.shift_left %10, %14 : tensor<1xui32> loc(#loc82)
    %16 = stablehlo.subtract %c, %12 : tensor<ui32> loc(#loc83)
    %17 = stablehlo.broadcast_in_dim %16, dims = [] : (tensor<ui32>) -> tensor<1xui32> loc(#loc84)
    %18 = stablehlo.shift_right_logical %10, %17 : tensor<1xui32> loc(#loc84)
    %19 = stablehlo.or %15, %18 : tensor<1xui32> loc(#loc85)
    %20 = stablehlo.xor %13, %19 : tensor<1xui32> loc(#loc86)
    %21 = stablehlo.slice %arg6 [2:3] : (tensor<4xui32>) -> tensor<1xui32> loc(#loc80)
    %22 = stablehlo.reshape %21 : (tensor<1xui32>) -> tensor<ui32> loc(#loc81)
    %23 = stablehlo.add %13, %20 : tensor<1xui32> loc(#loc79)
    %24 = stablehlo.broadcast_in_dim %22, dims = [] : (tensor<ui32>) -> tensor<1xui32> loc(#loc82)
    %25 = stablehlo.shift_left %20, %24 : tensor<1xui32> loc(#loc82)
    %26 = stablehlo.subtract %c, %22 : tensor<ui32> loc(#loc83)
    %27 = stablehlo.broadcast_in_dim %26, dims = [] : (tensor<ui32>) -> tensor<1xui32> loc(#loc84)
    %28 = stablehlo.shift_right_logical %20, %27 : tensor<1xui32> loc(#loc84)
    %29 = stablehlo.or %25, %28 : tensor<1xui32> loc(#loc85)
    %30 = stablehlo.xor %23, %29 : tensor<1xui32> loc(#loc86)
    %31 = stablehlo.slice %arg6 [3:4] : (tensor<4xui32>) -> tensor<1xui32> loc(#loc80)
    %32 = stablehlo.reshape %31 : (tensor<1xui32>) -> tensor<ui32> loc(#loc81)
    %33 = stablehlo.add %23, %30 : tensor<1xui32> loc(#loc79)
    %34 = stablehlo.broadcast_in_dim %32, dims = [] : (tensor<ui32>) -> tensor<1xui32> loc(#loc82)
    %35 = stablehlo.shift_left %30, %34 : tensor<1xui32> loc(#loc82)
    %36 = stablehlo.subtract %c, %32 : tensor<ui32> loc(#loc83)
    %37 = stablehlo.broadcast_in_dim %36, dims = [] : (tensor<ui32>) -> tensor<1xui32> loc(#loc84)
    %38 = stablehlo.shift_right_logical %30, %37 : tensor<1xui32> loc(#loc84)
    %39 = stablehlo.or %35, %38 : tensor<1xui32> loc(#loc85)
    %40 = stablehlo.xor %33, %39 : tensor<1xui32> loc(#loc86)
    %41 = stablehlo.broadcast_in_dim %arg3, dims = [] : (tensor<ui32>) -> tensor<1xui32> loc(#loc79)
    %42 = stablehlo.add %33, %41 : tensor<1xui32> loc(#loc79)
    %43 = stablehlo.broadcast_in_dim %arg4, dims = [] : (tensor<ui32>) -> tensor<1xui32> loc(#loc79)
    %44 = stablehlo.add %40, %43 : tensor<1xui32> loc(#loc79)
    %45 = stablehlo.add %arg0, %c_0 : tensor<i32> loc(#loc79)
    %46 = stablehlo.convert %45 : (tensor<i32>) -> tensor<ui32> loc(#loc87)
    %47 = stablehlo.broadcast_in_dim %46, dims = [] : (tensor<ui32>) -> tensor<1xui32> loc(#loc79)
    %48 = stablehlo.add %44, %47 : tensor<1xui32> loc(#loc79)
    return %0, %42, %48, %arg4, %arg5, %arg3, %arg7, %arg6 : tensor<i32>, tensor<1xui32>, tensor<1xui32>, tensor<ui32>, tensor<ui32>, tensor<ui32>, tensor<4xui32>, tensor<4xui32> loc(#loc)
  } loc(#loc386)
  func.func private @_truncated_normal(%arg0: tensor<2xui32> loc(unknown), %arg1: tensor<i32> loc(unknown), %arg2: tensor<i32> loc(unknown)) -> tensor<15x32xf32> {
    %c = stablehlo.constant dense<-1> : tensor<i32> loc(#loc)
    %c_0 = stablehlo.constant dense<1> : tensor<i32> loc(#loc)
    %c_1 = stablehlo.constant dense<0> : tensor<i32> loc(#loc)
    %c_2 = stablehlo.constant dense<2147483647> : tensor<i32> loc(#loc)
    %c_3 = stablehlo.constant dense<-2147483648> : tensor<i32> loc(#loc)
    %cst = stablehlo.constant dense<0x7FC00000> : tensor<f32> loc(#loc)
    %cst_4 = stablehlo.constant dense<0x7F800000> : tensor<15x32xf32> loc(#loc115)
    %cst_5 = stablehlo.constant dense<1.000000e+00> : tensor<15x32xf32> loc(#loc115)
    %cst_6 = stablehlo.constant dense<2.83297682> : tensor<15x32xf32> loc(#loc115)
    %cst_7 = stablehlo.constant dense<1.50140941> : tensor<15x32xf32> loc(#loc115)
    %cst_8 = stablehlo.constant dense<1.00167406> : tensor<15x32xf32> loc(#loc115)
    %cst_9 = stablehlo.constant dense<0.246640727> : tensor<15x32xf32> loc(#loc115)
    %cst_10 = stablehlo.constant dense<0.00943887047> : tensor<15x32xf32> loc(#loc115)
    %cst_11 = stablehlo.constant dense<-0.00417768164> : tensor<15x32xf32> loc(#loc115)
    %cst_12 = stablehlo.constant dense<-0.0076224613> : tensor<15x32xf32> loc(#loc115)
    %cst_13 = stablehlo.constant dense<-0.00125372503> : tensor<15x32xf32> loc(#loc115)
    %cst_14 = stablehlo.constant dense<0.00573950773> : tensor<15x32xf32> loc(#loc115)
    %cst_15 = stablehlo.constant dense<2.1858087E-4> : tensor<15x32xf32> loc(#loc115)
    %cst_16 = stablehlo.constant dense<-0.00367342844> : tensor<15x32xf32> loc(#loc115)
    %cst_17 = stablehlo.constant dense<-4.39150654E-6> : tensor<15x32xf32> loc(#loc115)
    %cst_18 = stablehlo.constant dense<0.00134934322> : tensor<15x32xf32> loc(#loc115)
    %cst_19 = stablehlo.constant dense<-3.5233877E-6> : tensor<15x32xf32> loc(#loc115)
    %cst_20 = stablehlo.constant dense<1.00950558E-4> : tensor<15x32xf32> loc(#loc115)
    %cst_21 = stablehlo.constant dense<3.43273939E-7> : tensor<15x32xf32> loc(#loc115)
    %cst_22 = stablehlo.constant dense<-2.00214257E-4> : tensor<15x32xf32> loc(#loc115)
    %cst_23 = stablehlo.constant dense<2.81022636E-8> : tensor<15x32xf32> loc(#loc115)
    %cst_24 = stablehlo.constant dense<3.000000e+00> : tensor<15x32xf32> loc(#loc115)
    %cst_25 = stablehlo.constant dense<2.500000e+00> : tensor<15x32xf32> loc(#loc115)
    %cst_26 = stablehlo.constant dense<5.000000e+00> : tensor<15x32xf32> loc(#loc115)
    %cst_27 = stablehlo.constant dense<0xFF800000> : tensor<f32> loc(#loc)
    %cst_28 = stablehlo.constant dense<0x7F800000> : tensor<f32> loc(#loc)
    %cst_29 = stablehlo.constant dense<1.41421354> : tensor<f32> loc(#loc)
    %0 = stablehlo.convert %arg1 : (tensor<i32>) -> tensor<f32> loc(#loc87)
    %1 = stablehlo.convert %arg2 : (tensor<i32>) -> tensor<f32> loc(#loc87)
    %2 = stablehlo.divide %0, %cst_29 : tensor<f32> loc(#loc116)
    %3 = stablehlo.composite "chlo.erf" %2 {decomposition = @chlo.erf.impl_7, version = 1 : i32} : (tensor<f32>) -> tensor<f32> loc(#loc117)
    %4 = stablehlo.divide %1, %cst_29 : tensor<f32> loc(#loc116)
    %5 = stablehlo.composite "chlo.erf" %4 {decomposition = @chlo.erf.impl_8, version = 1 : i32} : (tensor<f32>) -> tensor<f32> loc(#loc117)
    %6 = call @_uniform(%arg0, %3, %5) : (tensor<2xui32>, tensor<f32>, tensor<f32>) -> tensor<15x32xf32> loc(#loc118)
    %7 = stablehlo.negate %6 : tensor<15x32xf32> loc(#loc115)
    %8 = stablehlo.multiply %6, %7 : tensor<15x32xf32> loc(#loc115)
    %9 = stablehlo.log_plus_one %8 : tensor<15x32xf32> loc(#loc115)
    %10 = stablehlo.negate %9 : tensor<15x32xf32> loc(#loc115)
    %11 = stablehlo.compare LT, %10, %cst_26 : (tensor<15x32xf32>, tensor<15x32xf32>) -> tensor<15x32xi1> loc(#loc115)
    %12 = stablehlo.subtract %10, %cst_25 : tensor<15x32xf32> loc(#loc115)
    %13 = stablehlo.sqrt %10 : tensor<15x32xf32> loc(#loc115)
    %14 = stablehlo.subtract %13, %cst_24 : tensor<15x32xf32> loc(#loc115)
    %15 = stablehlo.select %11, %12, %14 : tensor<15x32xi1>, tensor<15x32xf32> loc(#loc115)
    %16 = stablehlo.select %11, %cst_23, %cst_22 : tensor<15x32xi1>, tensor<15x32xf32> loc(#loc115)
    %17 = stablehlo.select %11, %cst_21, %cst_20 : tensor<15x32xi1>, tensor<15x32xf32> loc(#loc115)
    %18 = stablehlo.multiply %16, %15 : tensor<15x32xf32> loc(#loc115)
    %19 = stablehlo.add %17, %18 : tensor<15x32xf32> loc(#loc115)
    %20 = stablehlo.select %11, %cst_19, %cst_18 : tensor<15x32xi1>, tensor<15x32xf32> loc(#loc115)
    %21 = stablehlo.multiply %19, %15 : tensor<15x32xf32> loc(#loc115)
    %22 = stablehlo.add %20, %21 : tensor<15x32xf32> loc(#loc115)
    %23 = stablehlo.select %11, %cst_17, %cst_16 : tensor<15x32xi1>, tensor<15x32xf32> loc(#loc115)
    %24 = stablehlo.multiply %22, %15 : tensor<15x32xf32> loc(#loc115)
    %25 = stablehlo.add %23, %24 : tensor<15x32xf32> loc(#loc115)
    %26 = stablehlo.select %11, %cst_15, %cst_14 : tensor<15x32xi1>, tensor<15x32xf32> loc(#loc115)
    %27 = stablehlo.multiply %25, %15 : tensor<15x32xf32> loc(#loc115)
    %28 = stablehlo.add %26, %27 : tensor<15x32xf32> loc(#loc115)
    %29 = stablehlo.select %11, %cst_13, %cst_12 : tensor<15x32xi1>, tensor<15x32xf32> loc(#loc115)
    %30 = stablehlo.multiply %28, %15 : tensor<15x32xf32> loc(#loc115)
    %31 = stablehlo.add %29, %30 : tensor<15x32xf32> loc(#loc115)
    %32 = stablehlo.select %11, %cst_11, %cst_10 : tensor<15x32xi1>, tensor<15x32xf32> loc(#loc115)
    %33 = stablehlo.multiply %31, %15 : tensor<15x32xf32> loc(#loc115)
    %34 = stablehlo.add %32, %33 : tensor<15x32xf32> loc(#loc115)
    %35 = stablehlo.select %11, %cst_9, %cst_8 : tensor<15x32xi1>, tensor<15x32xf32> loc(#loc115)
    %36 = stablehlo.multiply %34, %15 : tensor<15x32xf32> loc(#loc115)
    %37 = stablehlo.add %35, %36 : tensor<15x32xf32> loc(#loc115)
    %38 = stablehlo.select %11, %cst_7, %cst_6 : tensor<15x32xi1>, tensor<15x32xf32> loc(#loc115)
    %39 = stablehlo.multiply %37, %15 : tensor<15x32xf32> loc(#loc115)
    %40 = stablehlo.add %38, %39 : tensor<15x32xf32> loc(#loc115)
    %41 = stablehlo.multiply %40, %6 : tensor<15x32xf32> loc(#loc115)
    %42 = stablehlo.abs %6 : tensor<15x32xf32> loc(#loc115)
    %43 = stablehlo.compare EQ, %42, %cst_5 : (tensor<15x32xf32>, tensor<15x32xf32>) -> tensor<15x32xi1> loc(#loc115)
    %44 = stablehlo.multiply %6, %cst_4 : tensor<15x32xf32> loc(#loc115)
    %45 = stablehlo.select %43, %44, %41 : tensor<15x32xi1>, tensor<15x32xf32> loc(#loc115)
    %46 = stablehlo.broadcast_in_dim %cst_29, dims = [] : (tensor<f32>) -> tensor<15x32xf32> loc(#loc101)
    %47 = stablehlo.multiply %46, %45 : tensor<15x32xf32> loc(#loc101)
    %48 = stablehlo.bitcast_convert %0 : (tensor<f32>) -> tensor<i32> loc(#loc119)
    %49 = stablehlo.bitcast_convert %cst_28 : (tensor<f32>) -> tensor<i32> loc(#loc119)
    %50 = stablehlo.compare NE, %0, %0 : (tensor<f32>, tensor<f32>) -> tensor<i1> loc(#loc119)
    %51 = stablehlo.compare NE, %cst_28, %cst_28 : (tensor<f32>, tensor<f32>) -> tensor<i1> loc(#loc119)
    %52 = stablehlo.or %50, %51 : tensor<i1> loc(#loc119)
    %53 = stablehlo.bitcast_convert %cst : (tensor<f32>) -> tensor<i32> loc(#loc119)
    %54 = stablehlo.and %48, %c_2 : tensor<i32> loc(#loc119)
    %55 = stablehlo.and %49, %c_2 : tensor<i32> loc(#loc119)
    %56 = stablehlo.compare EQ, %0, %cst_28 : (tensor<f32>, tensor<f32>) -> tensor<i1> loc(#loc119)
    %57 = stablehlo.compare EQ, %54, %c_1 : (tensor<i32>, tensor<i32>) -> tensor<i1> loc(#loc119)
    %58 = stablehlo.compare EQ, %55, %c_1 : (tensor<i32>, tensor<i32>) -> tensor<i1> loc(#loc119)
    %59 = stablehlo.and %48, %c_3 : tensor<i32> loc(#loc119)
    %60 = stablehlo.and %49, %c_3 : tensor<i32> loc(#loc119)
    %61 = stablehlo.or %60, %c_0 : tensor<i32> loc(#loc119)
    %62 = stablehlo.compare NE, %59, %60 : (tensor<i32>, tensor<i32>) -> tensor<i1> loc(#loc119)
    %63 = stablehlo.compare GT, %54, %55 : (tensor<i32>, tensor<i32>) -> tensor<i1> loc(#loc119)
    %64 = stablehlo.or %63, %62 : tensor<i1> loc(#loc119)
    %65 = stablehlo.select %64, %c, %c_0 : tensor<i1>, tensor<i32> loc(#loc119)
    %66 = stablehlo.add %48, %65 : tensor<i32> loc(#loc119)
    %67 = stablehlo.select %58, %49, %61 : tensor<i1>, tensor<i32> loc(#loc119)
    %68 = stablehlo.select %57, %67, %66 : tensor<i1>, tensor<i32> loc(#loc119)
    %69 = stablehlo.select %56, %49, %68 : tensor<i1>, tensor<i32> loc(#loc119)
    %70 = stablehlo.select %52, %53, %69 : tensor<i1>, tensor<i32> loc(#loc119)
    %71 = stablehlo.bitcast_convert %70 : (tensor<i32>) -> tensor<f32> loc(#loc119)
    %72 = stablehlo.bitcast_convert %1 : (tensor<f32>) -> tensor<i32> loc(#loc119)
    %73 = stablehlo.bitcast_convert %cst_27 : (tensor<f32>) -> tensor<i32> loc(#loc119)
    %74 = stablehlo.compare NE, %1, %1 : (tensor<f32>, tensor<f32>) -> tensor<i1> loc(#loc119)
    %75 = stablehlo.compare NE, %cst_27, %cst_27 : (tensor<f32>, tensor<f32>) -> tensor<i1> loc(#loc119)
    %76 = stablehlo.or %74, %75 : tensor<i1> loc(#loc119)
    %77 = stablehlo.bitcast_convert %cst : (tensor<f32>) -> tensor<i32> loc(#loc119)
    %78 = stablehlo.and %72, %c_2 : tensor<i32> loc(#loc119)
    %79 = stablehlo.and %73, %c_2 : tensor<i32> loc(#loc119)
    %80 = stablehlo.compare EQ, %1, %cst_27 : (tensor<f32>, tensor<f32>) -> tensor<i1> loc(#loc119)
    %81 = stablehlo.compare EQ, %78, %c_1 : (tensor<i32>, tensor<i32>) -> tensor<i1> loc(#loc119)
    %82 = stablehlo.compare EQ, %79, %c_1 : (tensor<i32>, tensor<i32>) -> tensor<i1> loc(#loc119)
    %83 = stablehlo.and %72, %c_3 : tensor<i32> loc(#loc119)
    %84 = stablehlo.and %73, %c_3 : tensor<i32> loc(#loc119)
    %85 = stablehlo.or %84, %c_0 : tensor<i32> loc(#loc119)
    %86 = stablehlo.compare NE, %83, %84 : (tensor<i32>, tensor<i32>) -> tensor<i1> loc(#loc119)
    %87 = stablehlo.compare GT, %78, %79 : (tensor<i32>, tensor<i32>) -> tensor<i1> loc(#loc119)
    %88 = stablehlo.or %87, %86 : tensor<i1> loc(#loc119)
    %89 = stablehlo.select %88, %c, %c_0 : tensor<i1>, tensor<i32> loc(#loc119)
    %90 = stablehlo.add %72, %89 : tensor<i32> loc(#loc119)
    %91 = stablehlo.select %82, %73, %85 : tensor<i1>, tensor<i32> loc(#loc119)
    %92 = stablehlo.select %81, %91, %90 : tensor<i1>, tensor<i32> loc(#loc119)
    %93 = stablehlo.select %80, %73, %92 : tensor<i1>, tensor<i32> loc(#loc119)
    %94 = stablehlo.select %76, %77, %93 : tensor<i1>, tensor<i32> loc(#loc119)
    %95 = stablehlo.bitcast_convert %94 : (tensor<i32>) -> tensor<f32> loc(#loc119)
    %96 = call @clip_13(%47, %71, %95) : (tensor<15x32xf32>, tensor<f32>, tensor<f32>) -> tensor<15x32xf32> loc(#loc90)
    return %96 : tensor<15x32xf32> loc(#loc)
  } loc(#loc472)
  func.func private @chlo.erf.impl_8(%arg0: tensor<f32> loc("erf")) -> tensor<f32> {
    %cst = stablehlo.constant dense<1.000000e+00> : tensor<f32> loc(#loc117)
    %cst_0 = stablehlo.constant dense<-1.000000e+00> : tensor<f32> loc(#loc117)
    %cst_1 = stablehlo.constant dense<-0.0142647391> : tensor<f32> loc(#loc117)
    %cst_2 = stablehlo.constant dense<-0.00737332925> : tensor<f32> loc(#loc117)
    %cst_3 = stablehlo.constant dense<-0.00168282702> : tensor<f32> loc(#loc117)
    %cst_4 = stablehlo.constant dense<-2.13374049E-4> : tensor<f32> loc(#loc117)
    %cst_5 = stablehlo.constant dense<-1.45660715E-5> : tensor<f32> loc(#loc117)
    %cst_6 = stablehlo.constant dense<-0.0160960332> : tensor<f32> loc(#loc117)
    %cst_7 = stablehlo.constant dense<-2.954600e-03> : tensor<f32> loc(#loc117)
    %cst_8 = stablehlo.constant dense<-7.34990637E-4> : tensor<f32> loc(#loc117)
    %cst_9 = stablehlo.constant dense<-5.69250624E-5> : tensor<f32> loc(#loc117)
    %cst_10 = stablehlo.constant dense<-2.10102394E-6> : tensor<f32> loc(#loc117)
    %cst_11 = stablehlo.constant dense<2.77068146E-8> : tensor<f32> loc(#loc117)
    %cst_12 = stablehlo.constant dense<-2.72614237E-10> : tensor<f32> loc(#loc117)
    %cst_13 = stablehlo.constant dense<-4.000000e+00> : tensor<f32> loc(#loc117)
    %cst_14 = stablehlo.constant dense<4.000000e+00> : tensor<f32> loc(#loc117)
    %0 = stablehlo.clamp %cst_13, %arg0, %cst_14 : tensor<f32> loc(#loc117)
    %1 = stablehlo.multiply %0, %0 : tensor<f32> loc(#loc117)
    %2 = stablehlo.multiply %cst_12, %1 : tensor<f32> loc(#loc117)
    %3 = stablehlo.add %2, %cst_11 : tensor<f32> loc(#loc117)
    %4 = stablehlo.multiply %3, %1 : tensor<f32> loc(#loc117)
    %5 = stablehlo.add %4, %cst_10 : tensor<f32> loc(#loc117)
    %6 = stablehlo.multiply %5, %1 : tensor<f32> loc(#loc117)
    %7 = stablehlo.add %6, %cst_9 : tensor<f32> loc(#loc117)
    %8 = stablehlo.multiply %7, %1 : tensor<f32> loc(#loc117)
    %9 = stablehlo.add %8, %cst_8 : tensor<f32> loc(#loc117)
    %10 = stablehlo.multiply %9, %1 : tensor<f32> loc(#loc117)
    %11 = stablehlo.add %10, %cst_7 : tensor<f32> loc(#loc117)
    %12 = stablehlo.multiply %11, %1 : tensor<f32> loc(#loc117)
    %13 = stablehlo.add %12, %cst_6 : tensor<f32> loc(#loc117)
    %14 = stablehlo.multiply %cst_5, %1 : tensor<f32> loc(#loc117)
    %15 = stablehlo.add %14, %cst_4 : tensor<f32> loc(#loc117)
    %16 = stablehlo.multiply %15, %1 : tensor<f32> loc(#loc117)
    %17 = stablehlo.add %16, %cst_3 : tensor<f32> loc(#loc117)
    %18 = stablehlo.multiply %17, %1 : tensor<f32> loc(#loc117)
    %19 = stablehlo.add %18, %cst_2 : tensor<f32> loc(#loc117)
    %20 = stablehlo.multiply %19, %1 : tensor<f32> loc(#loc117)
    %21 = stablehlo.add %20, %cst_1 : tensor<f32> loc(#loc117)
    %22 = stablehlo.multiply %0, %13 : tensor<f32> loc(#loc117)
    %23 = stablehlo.divide %22, %21 : tensor<f32> loc(#loc117)
    %24 = stablehlo.clamp %cst_0, %23, %cst : tensor<f32> loc(#loc117)
    return %24 : tensor<f32> loc(#loc117)
  } loc(#loc117)
  func.func private @chlo.erf.impl_7(%arg0: tensor<f32> loc("erf")) -> tensor<f32> {
    %cst = stablehlo.constant dense<1.000000e+00> : tensor<f32> loc(#loc117)
    %cst_0 = stablehlo.constant dense<-1.000000e+00> : tensor<f32> loc(#loc117)
    %cst_1 = stablehlo.constant dense<-0.0142647391> : tensor<f32> loc(#loc117)
    %cst_2 = stablehlo.constant dense<-0.00737332925> : tensor<f32> loc(#loc117)
    %cst_3 = stablehlo.constant dense<-0.00168282702> : tensor<f32> loc(#loc117)
    %cst_4 = stablehlo.constant dense<-2.13374049E-4> : tensor<f32> loc(#loc117)
    %cst_5 = stablehlo.constant dense<-1.45660715E-5> : tensor<f32> loc(#loc117)
    %cst_6 = stablehlo.constant dense<-0.0160960332> : tensor<f32> loc(#loc117)
    %cst_7 = stablehlo.constant dense<-2.954600e-03> : tensor<f32> loc(#loc117)
    %cst_8 = stablehlo.constant dense<-7.34990637E-4> : tensor<f32> loc(#loc117)
    %cst_9 = stablehlo.constant dense<-5.69250624E-5> : tensor<f32> loc(#loc117)
    %cst_10 = stablehlo.constant dense<-2.10102394E-6> : tensor<f32> loc(#loc117)
    %cst_11 = stablehlo.constant dense<2.77068146E-8> : tensor<f32> loc(#loc117)
    %cst_12 = stablehlo.constant dense<-2.72614237E-10> : tensor<f32> loc(#loc117)
    %cst_13 = stablehlo.constant dense<-4.000000e+00> : tensor<f32> loc(#loc117)
    %cst_14 = stablehlo.constant dense<4.000000e+00> : tensor<f32> loc(#loc117)
    %0 = stablehlo.clamp %cst_13, %arg0, %cst_14 : tensor<f32> loc(#loc117)
    %1 = stablehlo.multiply %0, %0 : tensor<f32> loc(#loc117)
    %2 = stablehlo.multiply %cst_12, %1 : tensor<f32> loc(#loc117)
    %3 = stablehlo.add %2, %cst_11 : tensor<f32> loc(#loc117)
    %4 = stablehlo.multiply %3, %1 : tensor<f32> loc(#loc117)
    %5 = stablehlo.add %4, %cst_10 : tensor<f32> loc(#loc117)
    %6 = stablehlo.multiply %5, %1 : tensor<f32> loc(#loc117)
    %7 = stablehlo.add %6, %cst_9 : tensor<f32> loc(#loc117)
    %8 = stablehlo.multiply %7, %1 : tensor<f32> loc(#loc117)
    %9 = stablehlo.add %8, %cst_8 : tensor<f32> loc(#loc117)
    %10 = stablehlo.multiply %9, %1 : tensor<f32> loc(#loc117)
    %11 = stablehlo.add %10, %cst_7 : tensor<f32> loc(#loc117)
    %12 = stablehlo.multiply %11, %1 : tensor<f32> loc(#loc117)
    %13 = stablehlo.add %12, %cst_6 : tensor<f32> loc(#loc117)
    %14 = stablehlo.multiply %cst_5, %1 : tensor<f32> loc(#loc117)
    %15 = stablehlo.add %14, %cst_4 : tensor<f32> loc(#loc117)
    %16 = stablehlo.multiply %15, %1 : tensor<f32> loc(#loc117)
    %17 = stablehlo.add %16, %cst_3 : tensor<f32> loc(#loc117)
    %18 = stablehlo.multiply %17, %1 : tensor<f32> loc(#loc117)
    %19 = stablehlo.add %18, %cst_2 : tensor<f32> loc(#loc117)
    %20 = stablehlo.multiply %19, %1 : tensor<f32> loc(#loc117)
    %21 = stablehlo.add %20, %cst_1 : tensor<f32> loc(#loc117)
    %22 = stablehlo.multiply %0, %13 : tensor<f32> loc(#loc117)
    %23 = stablehlo.divide %22, %21 : tensor<f32> loc(#loc117)
    %24 = stablehlo.clamp %cst_0, %23, %cst : tensor<f32> loc(#loc117)
    return %24 : tensor<f32> loc(#loc117)
  } loc(#loc117)
  func.func private @_uniform(%arg0: tensor<2xui32> loc(unknown), %arg1: tensor<f32> loc(unknown), %arg2: tensor<f32> loc(unknown)) -> tensor<15x32xf32> {
    %cst = stablehlo.constant dense<1.000000e+00> : tensor<f32> loc(#loc)
    %c = stablehlo.constant dense<1065353216> : tensor<ui32> loc(#loc)
    %c_0 = stablehlo.constant dense<9> : tensor<ui32> loc(#loc)
    %c_1 = stablehlo.constant dense<1> : tensor<ui64> loc(#loc106)
    %c_2 = stablehlo.constant dense<32> : tensor<ui64> loc(#loc)
    %0 = stablehlo.broadcast_in_dim %arg1, dims = [] : (tensor<f32>) -> tensor<1x1xf32> loc(#loc107)
    %1 = stablehlo.broadcast_in_dim %arg2, dims = [] : (tensor<f32>) -> tensor<1x1xf32> loc(#loc107)
    %2 = stablehlo.slice %arg0 [0:1] : (tensor<2xui32>) -> tensor<1xui32> loc(#loc80)
    %3 = stablehlo.reshape %2 : (tensor<1xui32>) -> tensor<ui32> loc(#loc81)
    %4 = stablehlo.slice %arg0 [1:2] : (tensor<2xui32>) -> tensor<1xui32> loc(#loc80)
    %5 = stablehlo.reshape %4 : (tensor<1xui32>) -> tensor<ui32> loc(#loc81)
    %6 = stablehlo.iota dim = 0 : tensor<15x32xui64> loc(#loc106)
    %7 = stablehlo.iota dim = 1 : tensor<15x32xui64> loc(#loc106)
    %8 = stablehlo.broadcast_in_dim %c_2, dims = [] : (tensor<ui64>) -> tensor<15x32xui64> loc(#loc106)
    %9 = stablehlo.multiply %8, %6 : tensor<15x32xui64> loc(#loc106)
    %10 = stablehlo.broadcast_in_dim %c_1, dims = [] : (tensor<ui64>) -> tensor<15x32xui64> loc(#loc106)
    %11 = stablehlo.multiply %10, %7 : tensor<15x32xui64> loc(#loc106)
    %12 = stablehlo.add %9, %11 : tensor<15x32xui64> loc(#loc106)
    %13 = stablehlo.broadcast_in_dim %c_2, dims = [] : (tensor<ui64>) -> tensor<15x32xui64> loc(#loc106)
    %14 = stablehlo.shift_right_logical %12, %13 : tensor<15x32xui64> loc(#loc106)
    %15 = stablehlo.convert %12 : (tensor<15x32xui64>) -> tensor<15x32xui32> loc(#loc106)
    %16 = stablehlo.convert %14 : (tensor<15x32xui64>) -> tensor<15x32xui32> loc(#loc106)
    %17:2 = call @threefry2x32_11(%3, %5, %16, %15) : (tensor<ui32>, tensor<ui32>, tensor<15x32xui32>, tensor<15x32xui32>) -> (tensor<15x32xui32>, tensor<15x32xui32>) loc(#loc120)
    %18 = stablehlo.xor %17#0, %17#1 : tensor<15x32xui32> loc(#loc86)
    %19 = stablehlo.broadcast_in_dim %c_0, dims = [] : (tensor<ui32>) -> tensor<15x32xui32> loc(#loc84)
    %20 = stablehlo.shift_right_logical %18, %19 : tensor<15x32xui32> loc(#loc84)
    %21 = stablehlo.broadcast_in_dim %c, dims = [] : (tensor<ui32>) -> tensor<15x32xui32> loc(#loc85)
    %22 = stablehlo.or %20, %21 : tensor<15x32xui32> loc(#loc85)
    %23 = stablehlo.bitcast_convert %22 : (tensor<15x32xui32>) -> tensor<15x32xf32> loc(#loc121)
    %24 = stablehlo.broadcast_in_dim %cst, dims = [] : (tensor<f32>) -> tensor<15x32xf32> loc(#loc83)
    %25 = stablehlo.subtract %23, %24 : tensor<15x32xf32> loc(#loc83)
    %26 = stablehlo.subtract %1, %0 : tensor<1x1xf32> loc(#loc83)
    %27 = stablehlo.broadcast_in_dim %26, dims = [0, 1] : (tensor<1x1xf32>) -> tensor<15x32xf32> loc(#loc101)
    %28 = stablehlo.multiply %25, %27 : tensor<15x32xf32> loc(#loc101)
    %29 = stablehlo.broadcast_in_dim %0, dims = [0, 1] : (tensor<1x1xf32>) -> tensor<15x32xf32> loc(#loc79)
    %30 = stablehlo.add %28, %29 : tensor<15x32xf32> loc(#loc79)
    %31 = stablehlo.broadcast_in_dim %0, dims = [0, 1] : (tensor<1x1xf32>) -> tensor<15x32xf32> loc(#loc103)
    %32 = stablehlo.maximum %31, %30 : tensor<15x32xf32> loc(#loc103)
    return %32 : tensor<15x32xf32> loc(#loc)
  } loc(#loc216)
  func.func private @threefry2x32_11(%arg0: tensor<ui32> loc(unknown), %arg1: tensor<ui32> loc(unknown), %arg2: tensor<15x32xui32> loc(unknown), %arg3: tensor<15x32xui32> loc(unknown)) -> (tensor<15x32xui32>, tensor<15x32xui32>) {
    %c = stablehlo.constant dense<1> : tensor<i32> loc(#loc)
    %c_0 = stablehlo.constant dense<5> : tensor<i32> loc(#loc)
    %c_1 = stablehlo.constant dense<0> : tensor<i32> loc(#loc)
    %c_2 = stablehlo.constant dense<466688986> : tensor<ui32> loc(#loc213)
    %c_3 = stablehlo.constant dense<[13, 15, 26, 6]> : tensor<4xui32> loc(#loc213)
    %c_4 = stablehlo.constant dense<[17, 29, 16, 24]> : tensor<4xui32> loc(#loc213)
    %0 = stablehlo.xor %arg0, %arg1 : tensor<ui32> loc(#loc86)
    %1 = stablehlo.xor %0, %c_2 : tensor<ui32> loc(#loc86)
    %2 = stablehlo.broadcast_in_dim %arg0, dims = [] : (tensor<ui32>) -> tensor<15x32xui32> loc(#loc79)
    %3 = stablehlo.add %arg2, %2 : tensor<15x32xui32> loc(#loc79)
    %4 = stablehlo.broadcast_in_dim %arg1, dims = [] : (tensor<ui32>) -> tensor<15x32xui32> loc(#loc79)
    %5 = stablehlo.add %arg3, %4 : tensor<15x32xui32> loc(#loc79)
    %6:9 = stablehlo.while(%iterArg = %c_1, %iterArg_5 = %c_1, %iterArg_6 = %3, %iterArg_7 = %5, %iterArg_8 = %arg1, %iterArg_9 = %1, %iterArg_10 = %arg0, %iterArg_11 = %c_3, %iterArg_12 = %c_4) : tensor<i32>, tensor<i32>, tensor<15x32xui32>, tensor<15x32xui32>, tensor<ui32>, tensor<ui32>, tensor<ui32>, tensor<4xui32>, tensor<4xui32>
    cond {
      %7 = stablehlo.compare LT, %iterArg, %c_0, SIGNED : (tensor<i32>, tensor<i32>) -> tensor<i1> loc(#loc110)
      stablehlo.return %7 : tensor<i1> loc(#loc109)
    } do {
      %7:8 = func.call @closed_call_12(%iterArg_5, %iterArg_6, %iterArg_7, %iterArg_8, %iterArg_9, %iterArg_10, %iterArg_11, %iterArg_12) : (tensor<i32>, tensor<15x32xui32>, tensor<15x32xui32>, tensor<ui32>, tensor<ui32>, tensor<ui32>, tensor<4xui32>, tensor<4xui32>) -> (tensor<i32>, tensor<15x32xui32>, tensor<15x32xui32>, tensor<ui32>, tensor<ui32>, tensor<ui32>, tensor<4xui32>, tensor<4xui32>) loc(#loc111)
      %8 = stablehlo.add %iterArg, %c : tensor<i32> loc(#loc112)
      stablehlo.return %8, %7#0, %7#1, %7#2, %7#3, %7#4, %7#5, %7#6, %7#7 : tensor<i32>, tensor<i32>, tensor<15x32xui32>, tensor<15x32xui32>, tensor<ui32>, tensor<ui32>, tensor<ui32>, tensor<4xui32>, tensor<4xui32> loc(#loc109)
    } loc(#loc109)
    return %6#2, %6#3 : tensor<15x32xui32>, tensor<15x32xui32> loc(#loc)
  } loc(#loc)
  func.func private @closed_call_12(%arg0: tensor<i32> loc(unknown), %arg1: tensor<15x32xui32> loc(unknown), %arg2: tensor<15x32xui32> loc(unknown), %arg3: tensor<ui32> loc(unknown), %arg4: tensor<ui32> loc(unknown), %arg5: tensor<ui32> loc(unknown), %arg6: tensor<4xui32> loc(unknown), %arg7: tensor<4xui32> loc(unknown)) -> (tensor<i32>, tensor<15x32xui32>, tensor<15x32xui32>, tensor<ui32>, tensor<ui32>, tensor<ui32>, tensor<4xui32>, tensor<4xui32>) {
    %c = stablehlo.constant dense<32> : tensor<ui32> loc(#loc)
    %c_0 = stablehlo.constant dense<1> : tensor<i32> loc(#loc)
    %0 = stablehlo.add %arg0, %c_0 : tensor<i32> loc(#loc79)
    %1 = stablehlo.slice %arg6 [0:1] : (tensor<4xui32>) -> tensor<1xui32> loc(#loc80)
    %2 = stablehlo.reshape %1 : (tensor<1xui32>) -> tensor<ui32> loc(#loc81)
    %3 = stablehlo.add %arg1, %arg2 : tensor<15x32xui32> loc(#loc79)
    %4 = stablehlo.broadcast_in_dim %2, dims = [] : (tensor<ui32>) -> tensor<15x32xui32> loc(#loc82)
    %5 = stablehlo.shift_left %arg2, %4 : tensor<15x32xui32> loc(#loc82)
    %6 = stablehlo.subtract %c, %2 : tensor<ui32> loc(#loc83)
    %7 = stablehlo.broadcast_in_dim %6, dims = [] : (tensor<ui32>) -> tensor<15x32xui32> loc(#loc84)
    %8 = stablehlo.shift_right_logical %arg2, %7 : tensor<15x32xui32> loc(#loc84)
    %9 = stablehlo.or %5, %8 : tensor<15x32xui32> loc(#loc85)
    %10 = stablehlo.xor %3, %9 : tensor<15x32xui32> loc(#loc86)
    %11 = stablehlo.slice %arg6 [1:2] : (tensor<4xui32>) -> tensor<1xui32> loc(#loc80)
    %12 = stablehlo.reshape %11 : (tensor<1xui32>) -> tensor<ui32> loc(#loc81)
    %13 = stablehlo.add %3, %10 : tensor<15x32xui32> loc(#loc79)
    %14 = stablehlo.broadcast_in_dim %12, dims = [] : (tensor<ui32>) -> tensor<15x32xui32> loc(#loc82)
    %15 = stablehlo.shift_left %10, %14 : tensor<15x32xui32> loc(#loc82)
    %16 = stablehlo.subtract %c, %12 : tensor<ui32> loc(#loc83)
    %17 = stablehlo.broadcast_in_dim %16, dims = [] : (tensor<ui32>) -> tensor<15x32xui32> loc(#loc84)
    %18 = stablehlo.shift_right_logical %10, %17 : tensor<15x32xui32> loc(#loc84)
    %19 = stablehlo.or %15, %18 : tensor<15x32xui32> loc(#loc85)
    %20 = stablehlo.xor %13, %19 : tensor<15x32xui32> loc(#loc86)
    %21 = stablehlo.slice %arg6 [2:3] : (tensor<4xui32>) -> tensor<1xui32> loc(#loc80)
    %22 = stablehlo.reshape %21 : (tensor<1xui32>) -> tensor<ui32> loc(#loc81)
    %23 = stablehlo.add %13, %20 : tensor<15x32xui32> loc(#loc79)
    %24 = stablehlo.broadcast_in_dim %22, dims = [] : (tensor<ui32>) -> tensor<15x32xui32> loc(#loc82)
    %25 = stablehlo.shift_left %20, %24 : tensor<15x32xui32> loc(#loc82)
    %26 = stablehlo.subtract %c, %22 : tensor<ui32> loc(#loc83)
    %27 = stablehlo.broadcast_in_dim %26, dims = [] : (tensor<ui32>) -> tensor<15x32xui32> loc(#loc84)
    %28 = stablehlo.shift_right_logical %20, %27 : tensor<15x32xui32> loc(#loc84)
    %29 = stablehlo.or %25, %28 : tensor<15x32xui32> loc(#loc85)
    %30 = stablehlo.xor %23, %29 : tensor<15x32xui32> loc(#loc86)
    %31 = stablehlo.slice %arg6 [3:4] : (tensor<4xui32>) -> tensor<1xui32> loc(#loc80)
    %32 = stablehlo.reshape %31 : (tensor<1xui32>) -> tensor<ui32> loc(#loc81)
    %33 = stablehlo.add %23, %30 : tensor<15x32xui32> loc(#loc79)
    %34 = stablehlo.broadcast_in_dim %32, dims = [] : (tensor<ui32>) -> tensor<15x32xui32> loc(#loc82)
    %35 = stablehlo.shift_left %30, %34 : tensor<15x32xui32> loc(#loc82)
    %36 = stablehlo.subtract %c, %32 : tensor<ui32> loc(#loc83)
    %37 = stablehlo.broadcast_in_dim %36, dims = [] : (tensor<ui32>) -> tensor<15x32xui32> loc(#loc84)
    %38 = stablehlo.shift_right_logical %30, %37 : tensor<15x32xui32> loc(#loc84)
    %39 = stablehlo.or %35, %38 : tensor<15x32xui32> loc(#loc85)
    %40 = stablehlo.xor %33, %39 : tensor<15x32xui32> loc(#loc86)
    %41 = stablehlo.broadcast_in_dim %arg3, dims = [] : (tensor<ui32>) -> tensor<15x32xui32> loc(#loc79)
    %42 = stablehlo.add %33, %41 : tensor<15x32xui32> loc(#loc79)
    %43 = stablehlo.broadcast_in_dim %arg4, dims = [] : (tensor<ui32>) -> tensor<15x32xui32> loc(#loc79)
    %44 = stablehlo.add %40, %43 : tensor<15x32xui32> loc(#loc79)
    %45 = stablehlo.add %arg0, %c_0 : tensor<i32> loc(#loc79)
    %46 = stablehlo.convert %45 : (tensor<i32>) -> tensor<ui32> loc(#loc87)
    %47 = stablehlo.broadcast_in_dim %46, dims = [] : (tensor<ui32>) -> tensor<15x32xui32> loc(#loc79)
    %48 = stablehlo.add %44, %47 : tensor<15x32xui32> loc(#loc79)
    return %0, %42, %48, %arg4, %arg5, %arg3, %arg7, %arg6 : tensor<i32>, tensor<15x32xui32>, tensor<15x32xui32>, tensor<ui32>, tensor<ui32>, tensor<ui32>, tensor<4xui32>, tensor<4xui32> loc(#loc)
  } loc(#loc218)
  func.func private @clip_13(%arg0: tensor<15x32xf32> loc(unknown), %arg1: tensor<f32> loc(unknown), %arg2: tensor<f32> loc(unknown)) -> tensor<15x32xf32> {
    %0 = stablehlo.broadcast_in_dim %arg1, dims = [] : (tensor<f32>) -> tensor<15x32xf32> loc(#loc103)
    %1 = stablehlo.maximum %0, %arg0 : tensor<15x32xf32> loc(#loc103)
    %2 = stablehlo.broadcast_in_dim %arg2, dims = [] : (tensor<f32>) -> tensor<15x32xf32> loc(#loc104)
    %3 = stablehlo.minimum %2, %1 : tensor<15x32xf32> loc(#loc104)
    return %3 : tensor<15x32xf32> loc(#loc)
  } loc(#loc216)
  func.func private @relu(%arg0: tensor<64x1x32xf32> loc(unknown)) -> tensor<64x1x32xf32> {
    %cst = stablehlo.constant dense<0.000000e+00> : tensor<f32> loc(#loc)
    %0 = stablehlo.broadcast_in_dim %cst, dims = [] : (tensor<f32>) -> tensor<64x1x32xf32> loc(#loc103)
    %1 = stablehlo.maximum %arg0, %0 : tensor<64x1x32xf32> loc(#loc103)
    return %1 : tensor<64x1x32xf32> loc(#loc)
  } loc(#loc216)
  func.func private @_one_hot_14(%arg0: tensor<64x1xi32> loc(unknown)) -> tensor<64x1x16xf32> {
    %0 = stablehlo.broadcast_in_dim %arg0, dims = [0, 1] : (tensor<64x1xi32>) -> tensor<64x1x1xi32> loc(#loc107)
    %1 = stablehlo.iota dim = 2 : tensor<1x1x16xi32> loc(#loc113)
    %2 = stablehlo.broadcast_in_dim %0, dims = [0, 1, 2] : (tensor<64x1x1xi32>) -> tensor<64x1x16xi32> loc(#loc114)
    %3 = stablehlo.broadcast_in_dim %1, dims = [0, 1, 2] : (tensor<1x1x16xi32>) -> tensor<64x1x16xi32> loc(#loc114)
    %4 = stablehlo.compare EQ, %2, %3, SIGNED : (tensor<64x1x16xi32>, tensor<64x1x16xi32>) -> tensor<64x1x16xi1> loc(#loc114)
    %5 = stablehlo.convert %4 : (tensor<64x1x16xi1>) -> tensor<64x1x16xf32> loc(#loc87)
    return %5 : tensor<64x1x16xf32> loc(#loc)
  } loc(#loc449)
  func.func private @_truncated_normal_15(%arg0: tensor<2xui32> loc(unknown), %arg1: tensor<i32> loc(unknown), %arg2: tensor<i32> loc(unknown)) -> tensor<48x32xf32> {
    %c = stablehlo.constant dense<-1> : tensor<i32> loc(#loc)
    %c_0 = stablehlo.constant dense<1> : tensor<i32> loc(#loc)
    %c_1 = stablehlo.constant dense<0> : tensor<i32> loc(#loc)
    %c_2 = stablehlo.constant dense<2147483647> : tensor<i32> loc(#loc)
    %c_3 = stablehlo.constant dense<-2147483648> : tensor<i32> loc(#loc)
    %cst = stablehlo.constant dense<0x7FC00000> : tensor<f32> loc(#loc)
    %cst_4 = stablehlo.constant dense<0x7F800000> : tensor<48x32xf32> loc(#loc115)
    %cst_5 = stablehlo.constant dense<1.000000e+00> : tensor<48x32xf32> loc(#loc115)
    %cst_6 = stablehlo.constant dense<2.83297682> : tensor<48x32xf32> loc(#loc115)
    %cst_7 = stablehlo.constant dense<1.50140941> : tensor<48x32xf32> loc(#loc115)
    %cst_8 = stablehlo.constant dense<1.00167406> : tensor<48x32xf32> loc(#loc115)
    %cst_9 = stablehlo.constant dense<0.246640727> : tensor<48x32xf32> loc(#loc115)
    %cst_10 = stablehlo.constant dense<0.00943887047> : tensor<48x32xf32> loc(#loc115)
    %cst_11 = stablehlo.constant dense<-0.00417768164> : tensor<48x32xf32> loc(#loc115)
    %cst_12 = stablehlo.constant dense<-0.0076224613> : tensor<48x32xf32> loc(#loc115)
    %cst_13 = stablehlo.constant dense<-0.00125372503> : tensor<48x32xf32> loc(#loc115)
    %cst_14 = stablehlo.constant dense<0.00573950773> : tensor<48x32xf32> loc(#loc115)
    %cst_15 = stablehlo.constant dense<2.1858087E-4> : tensor<48x32xf32> loc(#loc115)
    %cst_16 = stablehlo.constant dense<-0.00367342844> : tensor<48x32xf32> loc(#loc115)
    %cst_17 = stablehlo.constant dense<-4.39150654E-6> : tensor<48x32xf32> loc(#loc115)
    %cst_18 = stablehlo.constant dense<0.00134934322> : tensor<48x32xf32> loc(#loc115)
    %cst_19 = stablehlo.constant dense<-3.5233877E-6> : tensor<48x32xf32> loc(#loc115)
    %cst_20 = stablehlo.constant dense<1.00950558E-4> : tensor<48x32xf32> loc(#loc115)
    %cst_21 = stablehlo.constant dense<3.43273939E-7> : tensor<48x32xf32> loc(#loc115)
    %cst_22 = stablehlo.constant dense<-2.00214257E-4> : tensor<48x32xf32> loc(#loc115)
    %cst_23 = stablehlo.constant dense<2.81022636E-8> : tensor<48x32xf32> loc(#loc115)
    %cst_24 = stablehlo.constant dense<3.000000e+00> : tensor<48x32xf32> loc(#loc115)
    %cst_25 = stablehlo.constant dense<2.500000e+00> : tensor<48x32xf32> loc(#loc115)
    %cst_26 = stablehlo.constant dense<5.000000e+00> : tensor<48x32xf32> loc(#loc115)
    %cst_27 = stablehlo.constant dense<0xFF800000> : tensor<f32> loc(#loc)
    %cst_28 = stablehlo.constant dense<0x7F800000> : tensor<f32> loc(#loc)
    %cst_29 = stablehlo.constant dense<1.41421354> : tensor<f32> loc(#loc)
    %0 = stablehlo.convert %arg1 : (tensor<i32>) -> tensor<f32> loc(#loc87)
    %1 = stablehlo.convert %arg2 : (tensor<i32>) -> tensor<f32> loc(#loc87)
    %2 = stablehlo.divide %0, %cst_29 : tensor<f32> loc(#loc116)
    %3 = stablehlo.composite "chlo.erf" %2 {decomposition = @chlo.erf.impl_5, version = 1 : i32} : (tensor<f32>) -> tensor<f32> loc(#loc117)
    %4 = stablehlo.divide %1, %cst_29 : tensor<f32> loc(#loc116)
    %5 = stablehlo.composite "chlo.erf" %4 {decomposition = @chlo.erf.impl_6, version = 1 : i32} : (tensor<f32>) -> tensor<f32> loc(#loc117)
    %6 = call @_uniform_16(%arg0, %3, %5) : (tensor<2xui32>, tensor<f32>, tensor<f32>) -> tensor<48x32xf32> loc(#loc118)
    %7 = stablehlo.negate %6 : tensor<48x32xf32> loc(#loc115)
    %8 = stablehlo.multiply %6, %7 : tensor<48x32xf32> loc(#loc115)
    %9 = stablehlo.log_plus_one %8 : tensor<48x32xf32> loc(#loc115)
    %10 = stablehlo.negate %9 : tensor<48x32xf32> loc(#loc115)
    %11 = stablehlo.compare LT, %10, %cst_26 : (tensor<48x32xf32>, tensor<48x32xf32>) -> tensor<48x32xi1> loc(#loc115)
    %12 = stablehlo.subtract %10, %cst_25 : tensor<48x32xf32> loc(#loc115)
    %13 = stablehlo.sqrt %10 : tensor<48x32xf32> loc(#loc115)
    %14 = stablehlo.subtract %13, %cst_24 : tensor<48x32xf32> loc(#loc115)
    %15 = stablehlo.select %11, %12, %14 : tensor<48x32xi1>, tensor<48x32xf32> loc(#loc115)
    %16 = stablehlo.select %11, %cst_23, %cst_22 : tensor<48x32xi1>, tensor<48x32xf32> loc(#loc115)
    %17 = stablehlo.select %11, %cst_21, %cst_20 : tensor<48x32xi1>, tensor<48x32xf32> loc(#loc115)
    %18 = stablehlo.multiply %16, %15 : tensor<48x32xf32> loc(#loc115)
    %19 = stablehlo.add %17, %18 : tensor<48x32xf32> loc(#loc115)
    %20 = stablehlo.select %11, %cst_19, %cst_18 : tensor<48x32xi1>, tensor<48x32xf32> loc(#loc115)
    %21 = stablehlo.multiply %19, %15 : tensor<48x32xf32> loc(#loc115)
    %22 = stablehlo.add %20, %21 : tensor<48x32xf32> loc(#loc115)
    %23 = stablehlo.select %11, %cst_17, %cst_16 : tensor<48x32xi1>, tensor<48x32xf32> loc(#loc115)
    %24 = stablehlo.multiply %22, %15 : tensor<48x32xf32> loc(#loc115)
    %25 = stablehlo.add %23, %24 : tensor<48x32xf32> loc(#loc115)
    %26 = stablehlo.select %11, %cst_15, %cst_14 : tensor<48x32xi1>, tensor<48x32xf32> loc(#loc115)
    %27 = stablehlo.multiply %25, %15 : tensor<48x32xf32> loc(#loc115)
    %28 = stablehlo.add %26, %27 : tensor<48x32xf32> loc(#loc115)
    %29 = stablehlo.select %11, %cst_13, %cst_12 : tensor<48x32xi1>, tensor<48x32xf32> loc(#loc115)
    %30 = stablehlo.multiply %28, %15 : tensor<48x32xf32> loc(#loc115)
    %31 = stablehlo.add %29, %30 : tensor<48x32xf32> loc(#loc115)
    %32 = stablehlo.select %11, %cst_11, %cst_10 : tensor<48x32xi1>, tensor<48x32xf32> loc(#loc115)
    %33 = stablehlo.multiply %31, %15 : tensor<48x32xf32> loc(#loc115)
    %34 = stablehlo.add %32, %33 : tensor<48x32xf32> loc(#loc115)
    %35 = stablehlo.select %11, %cst_9, %cst_8 : tensor<48x32xi1>, tensor<48x32xf32> loc(#loc115)
    %36 = stablehlo.multiply %34, %15 : tensor<48x32xf32> loc(#loc115)
    %37 = stablehlo.add %35, %36 : tensor<48x32xf32> loc(#loc115)
    %38 = stablehlo.select %11, %cst_7, %cst_6 : tensor<48x32xi1>, tensor<48x32xf32> loc(#loc115)
    %39 = stablehlo.multiply %37, %15 : tensor<48x32xf32> loc(#loc115)
    %40 = stablehlo.add %38, %39 : tensor<48x32xf32> loc(#loc115)
    %41 = stablehlo.multiply %40, %6 : tensor<48x32xf32> loc(#loc115)
    %42 = stablehlo.abs %6 : tensor<48x32xf32> loc(#loc115)
    %43 = stablehlo.compare EQ, %42, %cst_5 : (tensor<48x32xf32>, tensor<48x32xf32>) -> tensor<48x32xi1> loc(#loc115)
    %44 = stablehlo.multiply %6, %cst_4 : tensor<48x32xf32> loc(#loc115)
    %45 = stablehlo.select %43, %44, %41 : tensor<48x32xi1>, tensor<48x32xf32> loc(#loc115)
    %46 = stablehlo.broadcast_in_dim %cst_29, dims = [] : (tensor<f32>) -> tensor<48x32xf32> loc(#loc101)
    %47 = stablehlo.multiply %46, %45 : tensor<48x32xf32> loc(#loc101)
    %48 = stablehlo.bitcast_convert %0 : (tensor<f32>) -> tensor<i32> loc(#loc119)
    %49 = stablehlo.bitcast_convert %cst_28 : (tensor<f32>) -> tensor<i32> loc(#loc119)
    %50 = stablehlo.compare NE, %0, %0 : (tensor<f32>, tensor<f32>) -> tensor<i1> loc(#loc119)
    %51 = stablehlo.compare NE, %cst_28, %cst_28 : (tensor<f32>, tensor<f32>) -> tensor<i1> loc(#loc119)
    %52 = stablehlo.or %50, %51 : tensor<i1> loc(#loc119)
    %53 = stablehlo.bitcast_convert %cst : (tensor<f32>) -> tensor<i32> loc(#loc119)
    %54 = stablehlo.and %48, %c_2 : tensor<i32> loc(#loc119)
    %55 = stablehlo.and %49, %c_2 : tensor<i32> loc(#loc119)
    %56 = stablehlo.compare EQ, %0, %cst_28 : (tensor<f32>, tensor<f32>) -> tensor<i1> loc(#loc119)
    %57 = stablehlo.compare EQ, %54, %c_1 : (tensor<i32>, tensor<i32>) -> tensor<i1> loc(#loc119)
    %58 = stablehlo.compare EQ, %55, %c_1 : (tensor<i32>, tensor<i32>) -> tensor<i1> loc(#loc119)
    %59 = stablehlo.and %48, %c_3 : tensor<i32> loc(#loc119)
    %60 = stablehlo.and %49, %c_3 : tensor<i32> loc(#loc119)
    %61 = stablehlo.or %60, %c_0 : tensor<i32> loc(#loc119)
    %62 = stablehlo.compare NE, %59, %60 : (tensor<i32>, tensor<i32>) -> tensor<i1> loc(#loc119)
    %63 = stablehlo.compare GT, %54, %55 : (tensor<i32>, tensor<i32>) -> tensor<i1> loc(#loc119)
    %64 = stablehlo.or %63, %62 : tensor<i1> loc(#loc119)
    %65 = stablehlo.select %64, %c, %c_0 : tensor<i1>, tensor<i32> loc(#loc119)
    %66 = stablehlo.add %48, %65 : tensor<i32> loc(#loc119)
    %67 = stablehlo.select %58, %49, %61 : tensor<i1>, tensor<i32> loc(#loc119)
    %68 = stablehlo.select %57, %67, %66 : tensor<i1>, tensor<i32> loc(#loc119)
    %69 = stablehlo.select %56, %49, %68 : tensor<i1>, tensor<i32> loc(#loc119)
    %70 = stablehlo.select %52, %53, %69 : tensor<i1>, tensor<i32> loc(#loc119)
    %71 = stablehlo.bitcast_convert %70 : (tensor<i32>) -> tensor<f32> loc(#loc119)
    %72 = stablehlo.bitcast_convert %1 : (tensor<f32>) -> tensor<i32> loc(#loc119)
    %73 = stablehlo.bitcast_convert %cst_27 : (tensor<f32>) -> tensor<i32> loc(#loc119)
    %74 = stablehlo.compare NE, %1, %1 : (tensor<f32>, tensor<f32>) -> tensor<i1> loc(#loc119)
    %75 = stablehlo.compare NE, %cst_27, %cst_27 : (tensor<f32>, tensor<f32>) -> tensor<i1> loc(#loc119)
    %76 = stablehlo.or %74, %75 : tensor<i1> loc(#loc119)
    %77 = stablehlo.bitcast_convert %cst : (tensor<f32>) -> tensor<i32> loc(#loc119)
    %78 = stablehlo.and %72, %c_2 : tensor<i32> loc(#loc119)
    %79 = stablehlo.and %73, %c_2 : tensor<i32> loc(#loc119)
    %80 = stablehlo.compare EQ, %1, %cst_27 : (tensor<f32>, tensor<f32>) -> tensor<i1> loc(#loc119)
    %81 = stablehlo.compare EQ, %78, %c_1 : (tensor<i32>, tensor<i32>) -> tensor<i1> loc(#loc119)
    %82 = stablehlo.compare EQ, %79, %c_1 : (tensor<i32>, tensor<i32>) -> tensor<i1> loc(#loc119)
    %83 = stablehlo.and %72, %c_3 : tensor<i32> loc(#loc119)
    %84 = stablehlo.and %73, %c_3 : tensor<i32> loc(#loc119)
    %85 = stablehlo.or %84, %c_0 : tensor<i32> loc(#loc119)
    %86 = stablehlo.compare NE, %83, %84 : (tensor<i32>, tensor<i32>) -> tensor<i1> loc(#loc119)
    %87 = stablehlo.compare GT, %78, %79 : (tensor<i32>, tensor<i32>) -> tensor<i1> loc(#loc119)
    %88 = stablehlo.or %87, %86 : tensor<i1> loc(#loc119)
    %89 = stablehlo.select %88, %c, %c_0 : tensor<i1>, tensor<i32> loc(#loc119)
    %90 = stablehlo.add %72, %89 : tensor<i32> loc(#loc119)
    %91 = stablehlo.select %82, %73, %85 : tensor<i1>, tensor<i32> loc(#loc119)
    %92 = stablehlo.select %81, %91, %90 : tensor<i1>, tensor<i32> loc(#loc119)
    %93 = stablehlo.select %80, %73, %92 : tensor<i1>, tensor<i32> loc(#loc119)
    %94 = stablehlo.select %76, %77, %93 : tensor<i1>, tensor<i32> loc(#loc119)
    %95 = stablehlo.bitcast_convert %94 : (tensor<i32>) -> tensor<f32> loc(#loc119)
    %96 = call @clip_19(%47, %71, %95) : (tensor<48x32xf32>, tensor<f32>, tensor<f32>) -> tensor<48x32xf32> loc(#loc90)
    return %96 : tensor<48x32xf32> loc(#loc)
  } loc(#loc550)
  func.func private @chlo.erf.impl_6(%arg0: tensor<f32> loc("erf")) -> tensor<f32> {
    %cst = stablehlo.constant dense<1.000000e+00> : tensor<f32> loc(#loc117)
    %cst_0 = stablehlo.constant dense<-1.000000e+00> : tensor<f32> loc(#loc117)
    %cst_1 = stablehlo.constant dense<-0.0142647391> : tensor<f32> loc(#loc117)
    %cst_2 = stablehlo.constant dense<-0.00737332925> : tensor<f32> loc(#loc117)
    %cst_3 = stablehlo.constant dense<-0.00168282702> : tensor<f32> loc(#loc117)
    %cst_4 = stablehlo.constant dense<-2.13374049E-4> : tensor<f32> loc(#loc117)
    %cst_5 = stablehlo.constant dense<-1.45660715E-5> : tensor<f32> loc(#loc117)
    %cst_6 = stablehlo.constant dense<-0.0160960332> : tensor<f32> loc(#loc117)
    %cst_7 = stablehlo.constant dense<-2.954600e-03> : tensor<f32> loc(#loc117)
    %cst_8 = stablehlo.constant dense<-7.34990637E-4> : tensor<f32> loc(#loc117)
    %cst_9 = stablehlo.constant dense<-5.69250624E-5> : tensor<f32> loc(#loc117)
    %cst_10 = stablehlo.constant dense<-2.10102394E-6> : tensor<f32> loc(#loc117)
    %cst_11 = stablehlo.constant dense<2.77068146E-8> : tensor<f32> loc(#loc117)
    %cst_12 = stablehlo.constant dense<-2.72614237E-10> : tensor<f32> loc(#loc117)
    %cst_13 = stablehlo.constant dense<-4.000000e+00> : tensor<f32> loc(#loc117)
    %cst_14 = stablehlo.constant dense<4.000000e+00> : tensor<f32> loc(#loc117)
    %0 = stablehlo.clamp %cst_13, %arg0, %cst_14 : tensor<f32> loc(#loc117)
    %1 = stablehlo.multiply %0, %0 : tensor<f32> loc(#loc117)
    %2 = stablehlo.multiply %cst_12, %1 : tensor<f32> loc(#loc117)
    %3 = stablehlo.add %2, %cst_11 : tensor<f32> loc(#loc117)
    %4 = stablehlo.multiply %3, %1 : tensor<f32> loc(#loc117)
    %5 = stablehlo.add %4, %cst_10 : tensor<f32> loc(#loc117)
    %6 = stablehlo.multiply %5, %1 : tensor<f32> loc(#loc117)
    %7 = stablehlo.add %6, %cst_9 : tensor<f32> loc(#loc117)
    %8 = stablehlo.multiply %7, %1 : tensor<f32> loc(#loc117)
    %9 = stablehlo.add %8, %cst_8 : tensor<f32> loc(#loc117)
    %10 = stablehlo.multiply %9, %1 : tensor<f32> loc(#loc117)
    %11 = stablehlo.add %10, %cst_7 : tensor<f32> loc(#loc117)
    %12 = stablehlo.multiply %11, %1 : tensor<f32> loc(#loc117)
    %13 = stablehlo.add %12, %cst_6 : tensor<f32> loc(#loc117)
    %14 = stablehlo.multiply %cst_5, %1 : tensor<f32> loc(#loc117)
    %15 = stablehlo.add %14, %cst_4 : tensor<f32> loc(#loc117)
    %16 = stablehlo.multiply %15, %1 : tensor<f32> loc(#loc117)
    %17 = stablehlo.add %16, %cst_3 : tensor<f32> loc(#loc117)
    %18 = stablehlo.multiply %17, %1 : tensor<f32> loc(#loc117)
    %19 = stablehlo.add %18, %cst_2 : tensor<f32> loc(#loc117)
    %20 = stablehlo.multiply %19, %1 : tensor<f32> loc(#loc117)
    %21 = stablehlo.add %20, %cst_1 : tensor<f32> loc(#loc117)
    %22 = stablehlo.multiply %0, %13 : tensor<f32> loc(#loc117)
    %23 = stablehlo.divide %22, %21 : tensor<f32> loc(#loc117)
    %24 = stablehlo.clamp %cst_0, %23, %cst : tensor<f32> loc(#loc117)
    return %24 : tensor<f32> loc(#loc117)
  } loc(#loc117)
  func.func private @chlo.erf.impl_5(%arg0: tensor<f32> loc("erf")) -> tensor<f32> {
    %cst = stablehlo.constant dense<1.000000e+00> : tensor<f32> loc(#loc117)
    %cst_0 = stablehlo.constant dense<-1.000000e+00> : tensor<f32> loc(#loc117)
    %cst_1 = stablehlo.constant dense<-0.0142647391> : tensor<f32> loc(#loc117)
    %cst_2 = stablehlo.constant dense<-0.00737332925> : tensor<f32> loc(#loc117)
    %cst_3 = stablehlo.constant dense<-0.00168282702> : tensor<f32> loc(#loc117)
    %cst_4 = stablehlo.constant dense<-2.13374049E-4> : tensor<f32> loc(#loc117)
    %cst_5 = stablehlo.constant dense<-1.45660715E-5> : tensor<f32> loc(#loc117)
    %cst_6 = stablehlo.constant dense<-0.0160960332> : tensor<f32> loc(#loc117)
    %cst_7 = stablehlo.constant dense<-2.954600e-03> : tensor<f32> loc(#loc117)
    %cst_8 = stablehlo.constant dense<-7.34990637E-4> : tensor<f32> loc(#loc117)
    %cst_9 = stablehlo.constant dense<-5.69250624E-5> : tensor<f32> loc(#loc117)
    %cst_10 = stablehlo.constant dense<-2.10102394E-6> : tensor<f32> loc(#loc117)
    %cst_11 = stablehlo.constant dense<2.77068146E-8> : tensor<f32> loc(#loc117)
    %cst_12 = stablehlo.constant dense<-2.72614237E-10> : tensor<f32> loc(#loc117)
    %cst_13 = stablehlo.constant dense<-4.000000e+00> : tensor<f32> loc(#loc117)
    %cst_14 = stablehlo.constant dense<4.000000e+00> : tensor<f32> loc(#loc117)
    %0 = stablehlo.clamp %cst_13, %arg0, %cst_14 : tensor<f32> loc(#loc117)
    %1 = stablehlo.multiply %0, %0 : tensor<f32> loc(#loc117)
    %2 = stablehlo.multiply %cst_12, %1 : tensor<f32> loc(#loc117)
    %3 = stablehlo.add %2, %cst_11 : tensor<f32> loc(#loc117)
    %4 = stablehlo.multiply %3, %1 : tensor<f32> loc(#loc117)
    %5 = stablehlo.add %4, %cst_10 : tensor<f32> loc(#loc117)
    %6 = stablehlo.multiply %5, %1 : tensor<f32> loc(#loc117)
    %7 = stablehlo.add %6, %cst_9 : tensor<f32> loc(#loc117)
    %8 = stablehlo.multiply %7, %1 : tensor<f32> loc(#loc117)
    %9 = stablehlo.add %8, %cst_8 : tensor<f32> loc(#loc117)
    %10 = stablehlo.multiply %9, %1 : tensor<f32> loc(#loc117)
    %11 = stablehlo.add %10, %cst_7 : tensor<f32> loc(#loc117)
    %12 = stablehlo.multiply %11, %1 : tensor<f32> loc(#loc117)
    %13 = stablehlo.add %12, %cst_6 : tensor<f32> loc(#loc117)
    %14 = stablehlo.multiply %cst_5, %1 : tensor<f32> loc(#loc117)
    %15 = stablehlo.add %14, %cst_4 : tensor<f32> loc(#loc117)
    %16 = stablehlo.multiply %15, %1 : tensor<f32> loc(#loc117)
    %17 = stablehlo.add %16, %cst_3 : tensor<f32> loc(#loc117)
    %18 = stablehlo.multiply %17, %1 : tensor<f32> loc(#loc117)
    %19 = stablehlo.add %18, %cst_2 : tensor<f32> loc(#loc117)
    %20 = stablehlo.multiply %19, %1 : tensor<f32> loc(#loc117)
    %21 = stablehlo.add %20, %cst_1 : tensor<f32> loc(#loc117)
    %22 = stablehlo.multiply %0, %13 : tensor<f32> loc(#loc117)
    %23 = stablehlo.divide %22, %21 : tensor<f32> loc(#loc117)
    %24 = stablehlo.clamp %cst_0, %23, %cst : tensor<f32> loc(#loc117)
    return %24 : tensor<f32> loc(#loc117)
  } loc(#loc117)
  func.func private @_uniform_16(%arg0: tensor<2xui32> loc(unknown), %arg1: tensor<f32> loc(unknown), %arg2: tensor<f32> loc(unknown)) -> tensor<48x32xf32> {
    %cst = stablehlo.constant dense<1.000000e+00> : tensor<f32> loc(#loc)
    %c = stablehlo.constant dense<1065353216> : tensor<ui32> loc(#loc)
    %c_0 = stablehlo.constant dense<9> : tensor<ui32> loc(#loc)
    %c_1 = stablehlo.constant dense<1> : tensor<ui64> loc(#loc106)
    %c_2 = stablehlo.constant dense<32> : tensor<ui64> loc(#loc)
    %0 = stablehlo.broadcast_in_dim %arg1, dims = [] : (tensor<f32>) -> tensor<1x1xf32> loc(#loc107)
    %1 = stablehlo.broadcast_in_dim %arg2, dims = [] : (tensor<f32>) -> tensor<1x1xf32> loc(#loc107)
    %2 = stablehlo.slice %arg0 [0:1] : (tensor<2xui32>) -> tensor<1xui32> loc(#loc80)
    %3 = stablehlo.reshape %2 : (tensor<1xui32>) -> tensor<ui32> loc(#loc81)
    %4 = stablehlo.slice %arg0 [1:2] : (tensor<2xui32>) -> tensor<1xui32> loc(#loc80)
    %5 = stablehlo.reshape %4 : (tensor<1xui32>) -> tensor<ui32> loc(#loc81)
    %6 = stablehlo.iota dim = 0 : tensor<48x32xui64> loc(#loc106)
    %7 = stablehlo.iota dim = 1 : tensor<48x32xui64> loc(#loc106)
    %8 = stablehlo.broadcast_in_dim %c_2, dims = [] : (tensor<ui64>) -> tensor<48x32xui64> loc(#loc106)
    %9 = stablehlo.multiply %8, %6 : tensor<48x32xui64> loc(#loc106)
    %10 = stablehlo.broadcast_in_dim %c_1, dims = [] : (tensor<ui64>) -> tensor<48x32xui64> loc(#loc106)
    %11 = stablehlo.multiply %10, %7 : tensor<48x32xui64> loc(#loc106)
    %12 = stablehlo.add %9, %11 : tensor<48x32xui64> loc(#loc106)
    %13 = stablehlo.broadcast_in_dim %c_2, dims = [] : (tensor<ui64>) -> tensor<48x32xui64> loc(#loc106)
    %14 = stablehlo.shift_right_logical %12, %13 : tensor<48x32xui64> loc(#loc106)
    %15 = stablehlo.convert %12 : (tensor<48x32xui64>) -> tensor<48x32xui32> loc(#loc106)
    %16 = stablehlo.convert %14 : (tensor<48x32xui64>) -> tensor<48x32xui32> loc(#loc106)
    %17:2 = call @threefry2x32_17(%3, %5, %16, %15) : (tensor<ui32>, tensor<ui32>, tensor<48x32xui32>, tensor<48x32xui32>) -> (tensor<48x32xui32>, tensor<48x32xui32>) loc(#loc120)
    %18 = stablehlo.xor %17#0, %17#1 : tensor<48x32xui32> loc(#loc86)
    %19 = stablehlo.broadcast_in_dim %c_0, dims = [] : (tensor<ui32>) -> tensor<48x32xui32> loc(#loc84)
    %20 = stablehlo.shift_right_logical %18, %19 : tensor<48x32xui32> loc(#loc84)
    %21 = stablehlo.broadcast_in_dim %c, dims = [] : (tensor<ui32>) -> tensor<48x32xui32> loc(#loc85)
    %22 = stablehlo.or %20, %21 : tensor<48x32xui32> loc(#loc85)
    %23 = stablehlo.bitcast_convert %22 : (tensor<48x32xui32>) -> tensor<48x32xf32> loc(#loc121)
    %24 = stablehlo.broadcast_in_dim %cst, dims = [] : (tensor<f32>) -> tensor<48x32xf32> loc(#loc83)
    %25 = stablehlo.subtract %23, %24 : tensor<48x32xf32> loc(#loc83)
    %26 = stablehlo.subtract %1, %0 : tensor<1x1xf32> loc(#loc83)
    %27 = stablehlo.broadcast_in_dim %26, dims = [0, 1] : (tensor<1x1xf32>) -> tensor<48x32xf32> loc(#loc101)
    %28 = stablehlo.multiply %25, %27 : tensor<48x32xf32> loc(#loc101)
    %29 = stablehlo.broadcast_in_dim %0, dims = [0, 1] : (tensor<1x1xf32>) -> tensor<48x32xf32> loc(#loc79)
    %30 = stablehlo.add %28, %29 : tensor<48x32xf32> loc(#loc79)
    %31 = stablehlo.broadcast_in_dim %0, dims = [0, 1] : (tensor<1x1xf32>) -> tensor<48x32xf32> loc(#loc103)
    %32 = stablehlo.maximum %31, %30 : tensor<48x32xf32> loc(#loc103)
    return %32 : tensor<48x32xf32> loc(#loc)
  } loc(#loc216)
  func.func private @threefry2x32_17(%arg0: tensor<ui32> loc(unknown), %arg1: tensor<ui32> loc(unknown), %arg2: tensor<48x32xui32> loc(unknown), %arg3: tensor<48x32xui32> loc(unknown)) -> (tensor<48x32xui32>, tensor<48x32xui32>) {
    %c = stablehlo.constant dense<1> : tensor<i32> loc(#loc)
    %c_0 = stablehlo.constant dense<5> : tensor<i32> loc(#loc)
    %c_1 = stablehlo.constant dense<0> : tensor<i32> loc(#loc)
    %c_2 = stablehlo.constant dense<466688986> : tensor<ui32> loc(#loc213)
    %c_3 = stablehlo.constant dense<[13, 15, 26, 6]> : tensor<4xui32> loc(#loc213)
    %c_4 = stablehlo.constant dense<[17, 29, 16, 24]> : tensor<4xui32> loc(#loc213)
    %0 = stablehlo.xor %arg0, %arg1 : tensor<ui32> loc(#loc86)
    %1 = stablehlo.xor %0, %c_2 : tensor<ui32> loc(#loc86)
    %2 = stablehlo.broadcast_in_dim %arg0, dims = [] : (tensor<ui32>) -> tensor<48x32xui32> loc(#loc79)
    %3 = stablehlo.add %arg2, %2 : tensor<48x32xui32> loc(#loc79)
    %4 = stablehlo.broadcast_in_dim %arg1, dims = [] : (tensor<ui32>) -> tensor<48x32xui32> loc(#loc79)
    %5 = stablehlo.add %arg3, %4 : tensor<48x32xui32> loc(#loc79)
    %6:9 = stablehlo.while(%iterArg = %c_1, %iterArg_5 = %c_1, %iterArg_6 = %3, %iterArg_7 = %5, %iterArg_8 = %arg1, %iterArg_9 = %1, %iterArg_10 = %arg0, %iterArg_11 = %c_3, %iterArg_12 = %c_4) : tensor<i32>, tensor<i32>, tensor<48x32xui32>, tensor<48x32xui32>, tensor<ui32>, tensor<ui32>, tensor<ui32>, tensor<4xui32>, tensor<4xui32>
    cond {
      %7 = stablehlo.compare LT, %iterArg, %c_0, SIGNED : (tensor<i32>, tensor<i32>) -> tensor<i1> loc(#loc110)
      stablehlo.return %7 : tensor<i1> loc(#loc109)
    } do {
      %7:8 = func.call @closed_call_18(%iterArg_5, %iterArg_6, %iterArg_7, %iterArg_8, %iterArg_9, %iterArg_10, %iterArg_11, %iterArg_12) : (tensor<i32>, tensor<48x32xui32>, tensor<48x32xui32>, tensor<ui32>, tensor<ui32>, tensor<ui32>, tensor<4xui32>, tensor<4xui32>) -> (tensor<i32>, tensor<48x32xui32>, tensor<48x32xui32>, tensor<ui32>, tensor<ui32>, tensor<ui32>, tensor<4xui32>, tensor<4xui32>) loc(#loc111)
      %8 = stablehlo.add %iterArg, %c : tensor<i32> loc(#loc112)
      stablehlo.return %8, %7#0, %7#1, %7#2, %7#3, %7#4, %7#5, %7#6, %7#7 : tensor<i32>, tensor<i32>, tensor<48x32xui32>, tensor<48x32xui32>, tensor<ui32>, tensor<ui32>, tensor<ui32>, tensor<4xui32>, tensor<4xui32> loc(#loc109)
    } loc(#loc109)
    return %6#2, %6#3 : tensor<48x32xui32>, tensor<48x32xui32> loc(#loc)
  } loc(#loc)
  func.func private @closed_call_18(%arg0: tensor<i32> loc(unknown), %arg1: tensor<48x32xui32> loc(unknown), %arg2: tensor<48x32xui32> loc(unknown), %arg3: tensor<ui32> loc(unknown), %arg4: tensor<ui32> loc(unknown), %arg5: tensor<ui32> loc(unknown), %arg6: tensor<4xui32> loc(unknown), %arg7: tensor<4xui32> loc(unknown)) -> (tensor<i32>, tensor<48x32xui32>, tensor<48x32xui32>, tensor<ui32>, tensor<ui32>, tensor<ui32>, tensor<4xui32>, tensor<4xui32>) {
    %c = stablehlo.constant dense<32> : tensor<ui32> loc(#loc)
    %c_0 = stablehlo.constant dense<1> : tensor<i32> loc(#loc)
    %0 = stablehlo.add %arg0, %c_0 : tensor<i32> loc(#loc79)
    %1 = stablehlo.slice %arg6 [0:1] : (tensor<4xui32>) -> tensor<1xui32> loc(#loc80)
    %2 = stablehlo.reshape %1 : (tensor<1xui32>) -> tensor<ui32> loc(#loc81)
    %3 = stablehlo.add %arg1, %arg2 : tensor<48x32xui32> loc(#loc79)
    %4 = stablehlo.broadcast_in_dim %2, dims = [] : (tensor<ui32>) -> tensor<48x32xui32> loc(#loc82)
    %5 = stablehlo.shift_left %arg2, %4 : tensor<48x32xui32> loc(#loc82)
    %6 = stablehlo.subtract %c, %2 : tensor<ui32> loc(#loc83)
    %7 = stablehlo.broadcast_in_dim %6, dims = [] : (tensor<ui32>) -> tensor<48x32xui32> loc(#loc84)
    %8 = stablehlo.shift_right_logical %arg2, %7 : tensor<48x32xui32> loc(#loc84)
    %9 = stablehlo.or %5, %8 : tensor<48x32xui32> loc(#loc85)
    %10 = stablehlo.xor %3, %9 : tensor<48x32xui32> loc(#loc86)
    %11 = stablehlo.slice %arg6 [1:2] : (tensor<4xui32>) -> tensor<1xui32> loc(#loc80)
    %12 = stablehlo.reshape %11 : (tensor<1xui32>) -> tensor<ui32> loc(#loc81)
    %13 = stablehlo.add %3, %10 : tensor<48x32xui32> loc(#loc79)
    %14 = stablehlo.broadcast_in_dim %12, dims = [] : (tensor<ui32>) -> tensor<48x32xui32> loc(#loc82)
    %15 = stablehlo.shift_left %10, %14 : tensor<48x32xui32> loc(#loc82)
    %16 = stablehlo.subtract %c, %12 : tensor<ui32> loc(#loc83)
    %17 = stablehlo.broadcast_in_dim %16, dims = [] : (tensor<ui32>) -> tensor<48x32xui32> loc(#loc84)
    %18 = stablehlo.shift_right_logical %10, %17 : tensor<48x32xui32> loc(#loc84)
    %19 = stablehlo.or %15, %18 : tensor<48x32xui32> loc(#loc85)
    %20 = stablehlo.xor %13, %19 : tensor<48x32xui32> loc(#loc86)
    %21 = stablehlo.slice %arg6 [2:3] : (tensor<4xui32>) -> tensor<1xui32> loc(#loc80)
    %22 = stablehlo.reshape %21 : (tensor<1xui32>) -> tensor<ui32> loc(#loc81)
    %23 = stablehlo.add %13, %20 : tensor<48x32xui32> loc(#loc79)
    %24 = stablehlo.broadcast_in_dim %22, dims = [] : (tensor<ui32>) -> tensor<48x32xui32> loc(#loc82)
    %25 = stablehlo.shift_left %20, %24 : tensor<48x32xui32> loc(#loc82)
    %26 = stablehlo.subtract %c, %22 : tensor<ui32> loc(#loc83)
    %27 = stablehlo.broadcast_in_dim %26, dims = [] : (tensor<ui32>) -> tensor<48x32xui32> loc(#loc84)
    %28 = stablehlo.shift_right_logical %20, %27 : tensor<48x32xui32> loc(#loc84)
    %29 = stablehlo.or %25, %28 : tensor<48x32xui32> loc(#loc85)
    %30 = stablehlo.xor %23, %29 : tensor<48x32xui32> loc(#loc86)
    %31 = stablehlo.slice %arg6 [3:4] : (tensor<4xui32>) -> tensor<1xui32> loc(#loc80)
    %32 = stablehlo.reshape %31 : (tensor<1xui32>) -> tensor<ui32> loc(#loc81)
    %33 = stablehlo.add %23, %30 : tensor<48x32xui32> loc(#loc79)
    %34 = stablehlo.broadcast_in_dim %32, dims = [] : (tensor<ui32>) -> tensor<48x32xui32> loc(#loc82)
    %35 = stablehlo.shift_left %30, %34 : tensor<48x32xui32> loc(#loc82)
    %36 = stablehlo.subtract %c, %32 : tensor<ui32> loc(#loc83)
    %37 = stablehlo.broadcast_in_dim %36, dims = [] : (tensor<ui32>) -> tensor<48x32xui32> loc(#loc84)
    %38 = stablehlo.shift_right_logical %30, %37 : tensor<48x32xui32> loc(#loc84)
    %39 = stablehlo.or %35, %38 : tensor<48x32xui32> loc(#loc85)
    %40 = stablehlo.xor %33, %39 : tensor<48x32xui32> loc(#loc86)
    %41 = stablehlo.broadcast_in_dim %arg3, dims = [] : (tensor<ui32>) -> tensor<48x32xui32> loc(#loc79)
    %42 = stablehlo.add %33, %41 : tensor<48x32xui32> loc(#loc79)
    %43 = stablehlo.broadcast_in_dim %arg4, dims = [] : (tensor<ui32>) -> tensor<48x32xui32> loc(#loc79)
    %44 = stablehlo.add %40, %43 : tensor<48x32xui32> loc(#loc79)
    %45 = stablehlo.add %arg0, %c_0 : tensor<i32> loc(#loc79)
    %46 = stablehlo.convert %45 : (tensor<i32>) -> tensor<ui32> loc(#loc87)
    %47 = stablehlo.broadcast_in_dim %46, dims = [] : (tensor<ui32>) -> tensor<48x32xui32> loc(#loc79)
    %48 = stablehlo.add %44, %47 : tensor<48x32xui32> loc(#loc79)
    return %0, %42, %48, %arg4, %arg5, %arg3, %arg7, %arg6 : tensor<i32>, tensor<48x32xui32>, tensor<48x32xui32>, tensor<ui32>, tensor<ui32>, tensor<ui32>, tensor<4xui32>, tensor<4xui32> loc(#loc)
  } loc(#loc218)
  func.func private @clip_19(%arg0: tensor<48x32xf32> loc(unknown), %arg1: tensor<f32> loc(unknown), %arg2: tensor<f32> loc(unknown)) -> tensor<48x32xf32> {
    %0 = stablehlo.broadcast_in_dim %arg1, dims = [] : (tensor<f32>) -> tensor<48x32xf32> loc(#loc103)
    %1 = stablehlo.maximum %0, %arg0 : tensor<48x32xf32> loc(#loc103)
    %2 = stablehlo.broadcast_in_dim %arg2, dims = [] : (tensor<f32>) -> tensor<48x32xf32> loc(#loc104)
    %3 = stablehlo.minimum %2, %1 : tensor<48x32xf32> loc(#loc104)
    return %3 : tensor<48x32xf32> loc(#loc)
  } loc(#loc216)
  func.func private @_where_20(%arg0: tensor<64x32xf32> loc(unknown)) {
    return loc(#loc)
  } loc(#loc624)
  func.func private @_truncated_normal_21(%arg0: tensor<2xui32> loc(unknown), %arg1: tensor<i32> loc(unknown), %arg2: tensor<i32> loc(unknown)) -> tensor<32x32xf32> {
    %c = stablehlo.constant dense<-1> : tensor<i32> loc(#loc)
    %c_0 = stablehlo.constant dense<1> : tensor<i32> loc(#loc)
    %c_1 = stablehlo.constant dense<0> : tensor<i32> loc(#loc)
    %c_2 = stablehlo.constant dense<2147483647> : tensor<i32> loc(#loc)
    %c_3 = stablehlo.constant dense<-2147483648> : tensor<i32> loc(#loc)
    %cst = stablehlo.constant dense<0x7FC00000> : tensor<f32> loc(#loc)
    %cst_4 = stablehlo.constant dense<0x7F800000> : tensor<32x32xf32> loc(#loc115)
    %cst_5 = stablehlo.constant dense<1.000000e+00> : tensor<32x32xf32> loc(#loc115)
    %cst_6 = stablehlo.constant dense<2.83297682> : tensor<32x32xf32> loc(#loc115)
    %cst_7 = stablehlo.constant dense<1.50140941> : tensor<32x32xf32> loc(#loc115)
    %cst_8 = stablehlo.constant dense<1.00167406> : tensor<32x32xf32> loc(#loc115)
    %cst_9 = stablehlo.constant dense<0.246640727> : tensor<32x32xf32> loc(#loc115)
    %cst_10 = stablehlo.constant dense<0.00943887047> : tensor<32x32xf32> loc(#loc115)
    %cst_11 = stablehlo.constant dense<-0.00417768164> : tensor<32x32xf32> loc(#loc115)
    %cst_12 = stablehlo.constant dense<-0.0076224613> : tensor<32x32xf32> loc(#loc115)
    %cst_13 = stablehlo.constant dense<-0.00125372503> : tensor<32x32xf32> loc(#loc115)
    %cst_14 = stablehlo.constant dense<0.00573950773> : tensor<32x32xf32> loc(#loc115)
    %cst_15 = stablehlo.constant dense<2.1858087E-4> : tensor<32x32xf32> loc(#loc115)
    %cst_16 = stablehlo.constant dense<-0.00367342844> : tensor<32x32xf32> loc(#loc115)
    %cst_17 = stablehlo.constant dense<-4.39150654E-6> : tensor<32x32xf32> loc(#loc115)
    %cst_18 = stablehlo.constant dense<0.00134934322> : tensor<32x32xf32> loc(#loc115)
    %cst_19 = stablehlo.constant dense<-3.5233877E-6> : tensor<32x32xf32> loc(#loc115)
    %cst_20 = stablehlo.constant dense<1.00950558E-4> : tensor<32x32xf32> loc(#loc115)
    %cst_21 = stablehlo.constant dense<3.43273939E-7> : tensor<32x32xf32> loc(#loc115)
    %cst_22 = stablehlo.constant dense<-2.00214257E-4> : tensor<32x32xf32> loc(#loc115)
    %cst_23 = stablehlo.constant dense<2.81022636E-8> : tensor<32x32xf32> loc(#loc115)
    %cst_24 = stablehlo.constant dense<3.000000e+00> : tensor<32x32xf32> loc(#loc115)
    %cst_25 = stablehlo.constant dense<2.500000e+00> : tensor<32x32xf32> loc(#loc115)
    %cst_26 = stablehlo.constant dense<5.000000e+00> : tensor<32x32xf32> loc(#loc115)
    %cst_27 = stablehlo.constant dense<0xFF800000> : tensor<f32> loc(#loc)
    %cst_28 = stablehlo.constant dense<0x7F800000> : tensor<f32> loc(#loc)
    %cst_29 = stablehlo.constant dense<1.41421354> : tensor<f32> loc(#loc)
    %0 = stablehlo.convert %arg1 : (tensor<i32>) -> tensor<f32> loc(#loc87)
    %1 = stablehlo.convert %arg2 : (tensor<i32>) -> tensor<f32> loc(#loc87)
    %2 = stablehlo.divide %0, %cst_29 : tensor<f32> loc(#loc116)
    %3 = stablehlo.composite "chlo.erf" %2 {decomposition = @chlo.erf.impl_3, version = 1 : i32} : (tensor<f32>) -> tensor<f32> loc(#loc117)
    %4 = stablehlo.divide %1, %cst_29 : tensor<f32> loc(#loc116)
    %5 = stablehlo.composite "chlo.erf" %4 {decomposition = @chlo.erf.impl_4, version = 1 : i32} : (tensor<f32>) -> tensor<f32> loc(#loc117)
    %6 = call @_uniform_22(%arg0, %3, %5) : (tensor<2xui32>, tensor<f32>, tensor<f32>) -> tensor<32x32xf32> loc(#loc118)
    %7 = stablehlo.negate %6 : tensor<32x32xf32> loc(#loc115)
    %8 = stablehlo.multiply %6, %7 : tensor<32x32xf32> loc(#loc115)
    %9 = stablehlo.log_plus_one %8 : tensor<32x32xf32> loc(#loc115)
    %10 = stablehlo.negate %9 : tensor<32x32xf32> loc(#loc115)
    %11 = stablehlo.compare LT, %10, %cst_26 : (tensor<32x32xf32>, tensor<32x32xf32>) -> tensor<32x32xi1> loc(#loc115)
    %12 = stablehlo.subtract %10, %cst_25 : tensor<32x32xf32> loc(#loc115)
    %13 = stablehlo.sqrt %10 : tensor<32x32xf32> loc(#loc115)
    %14 = stablehlo.subtract %13, %cst_24 : tensor<32x32xf32> loc(#loc115)
    %15 = stablehlo.select %11, %12, %14 : tensor<32x32xi1>, tensor<32x32xf32> loc(#loc115)
    %16 = stablehlo.select %11, %cst_23, %cst_22 : tensor<32x32xi1>, tensor<32x32xf32> loc(#loc115)
    %17 = stablehlo.select %11, %cst_21, %cst_20 : tensor<32x32xi1>, tensor<32x32xf32> loc(#loc115)
    %18 = stablehlo.multiply %16, %15 : tensor<32x32xf32> loc(#loc115)
    %19 = stablehlo.add %17, %18 : tensor<32x32xf32> loc(#loc115)
    %20 = stablehlo.select %11, %cst_19, %cst_18 : tensor<32x32xi1>, tensor<32x32xf32> loc(#loc115)
    %21 = stablehlo.multiply %19, %15 : tensor<32x32xf32> loc(#loc115)
    %22 = stablehlo.add %20, %21 : tensor<32x32xf32> loc(#loc115)
    %23 = stablehlo.select %11, %cst_17, %cst_16 : tensor<32x32xi1>, tensor<32x32xf32> loc(#loc115)
    %24 = stablehlo.multiply %22, %15 : tensor<32x32xf32> loc(#loc115)
    %25 = stablehlo.add %23, %24 : tensor<32x32xf32> loc(#loc115)
    %26 = stablehlo.select %11, %cst_15, %cst_14 : tensor<32x32xi1>, tensor<32x32xf32> loc(#loc115)
    %27 = stablehlo.multiply %25, %15 : tensor<32x32xf32> loc(#loc115)
    %28 = stablehlo.add %26, %27 : tensor<32x32xf32> loc(#loc115)
    %29 = stablehlo.select %11, %cst_13, %cst_12 : tensor<32x32xi1>, tensor<32x32xf32> loc(#loc115)
    %30 = stablehlo.multiply %28, %15 : tensor<32x32xf32> loc(#loc115)
    %31 = stablehlo.add %29, %30 : tensor<32x32xf32> loc(#loc115)
    %32 = stablehlo.select %11, %cst_11, %cst_10 : tensor<32x32xi1>, tensor<32x32xf32> loc(#loc115)
    %33 = stablehlo.multiply %31, %15 : tensor<32x32xf32> loc(#loc115)
    %34 = stablehlo.add %32, %33 : tensor<32x32xf32> loc(#loc115)
    %35 = stablehlo.select %11, %cst_9, %cst_8 : tensor<32x32xi1>, tensor<32x32xf32> loc(#loc115)
    %36 = stablehlo.multiply %34, %15 : tensor<32x32xf32> loc(#loc115)
    %37 = stablehlo.add %35, %36 : tensor<32x32xf32> loc(#loc115)
    %38 = stablehlo.select %11, %cst_7, %cst_6 : tensor<32x32xi1>, tensor<32x32xf32> loc(#loc115)
    %39 = stablehlo.multiply %37, %15 : tensor<32x32xf32> loc(#loc115)
    %40 = stablehlo.add %38, %39 : tensor<32x32xf32> loc(#loc115)
    %41 = stablehlo.multiply %40, %6 : tensor<32x32xf32> loc(#loc115)
    %42 = stablehlo.abs %6 : tensor<32x32xf32> loc(#loc115)
    %43 = stablehlo.compare EQ, %42, %cst_5 : (tensor<32x32xf32>, tensor<32x32xf32>) -> tensor<32x32xi1> loc(#loc115)
    %44 = stablehlo.multiply %6, %cst_4 : tensor<32x32xf32> loc(#loc115)
    %45 = stablehlo.select %43, %44, %41 : tensor<32x32xi1>, tensor<32x32xf32> loc(#loc115)
    %46 = stablehlo.broadcast_in_dim %cst_29, dims = [] : (tensor<f32>) -> tensor<32x32xf32> loc(#loc101)
    %47 = stablehlo.multiply %46, %45 : tensor<32x32xf32> loc(#loc101)
    %48 = stablehlo.bitcast_convert %0 : (tensor<f32>) -> tensor<i32> loc(#loc119)
    %49 = stablehlo.bitcast_convert %cst_28 : (tensor<f32>) -> tensor<i32> loc(#loc119)
    %50 = stablehlo.compare NE, %0, %0 : (tensor<f32>, tensor<f32>) -> tensor<i1> loc(#loc119)
    %51 = stablehlo.compare NE, %cst_28, %cst_28 : (tensor<f32>, tensor<f32>) -> tensor<i1> loc(#loc119)
    %52 = stablehlo.or %50, %51 : tensor<i1> loc(#loc119)
    %53 = stablehlo.bitcast_convert %cst : (tensor<f32>) -> tensor<i32> loc(#loc119)
    %54 = stablehlo.and %48, %c_2 : tensor<i32> loc(#loc119)
    %55 = stablehlo.and %49, %c_2 : tensor<i32> loc(#loc119)
    %56 = stablehlo.compare EQ, %0, %cst_28 : (tensor<f32>, tensor<f32>) -> tensor<i1> loc(#loc119)
    %57 = stablehlo.compare EQ, %54, %c_1 : (tensor<i32>, tensor<i32>) -> tensor<i1> loc(#loc119)
    %58 = stablehlo.compare EQ, %55, %c_1 : (tensor<i32>, tensor<i32>) -> tensor<i1> loc(#loc119)
    %59 = stablehlo.and %48, %c_3 : tensor<i32> loc(#loc119)
    %60 = stablehlo.and %49, %c_3 : tensor<i32> loc(#loc119)
    %61 = stablehlo.or %60, %c_0 : tensor<i32> loc(#loc119)
    %62 = stablehlo.compare NE, %59, %60 : (tensor<i32>, tensor<i32>) -> tensor<i1> loc(#loc119)
    %63 = stablehlo.compare GT, %54, %55 : (tensor<i32>, tensor<i32>) -> tensor<i1> loc(#loc119)
    %64 = stablehlo.or %63, %62 : tensor<i1> loc(#loc119)
    %65 = stablehlo.select %64, %c, %c_0 : tensor<i1>, tensor<i32> loc(#loc119)
    %66 = stablehlo.add %48, %65 : tensor<i32> loc(#loc119)
    %67 = stablehlo.select %58, %49, %61 : tensor<i1>, tensor<i32> loc(#loc119)
    %68 = stablehlo.select %57, %67, %66 : tensor<i1>, tensor<i32> loc(#loc119)
    %69 = stablehlo.select %56, %49, %68 : tensor<i1>, tensor<i32> loc(#loc119)
    %70 = stablehlo.select %52, %53, %69 : tensor<i1>, tensor<i32> loc(#loc119)
    %71 = stablehlo.bitcast_convert %70 : (tensor<i32>) -> tensor<f32> loc(#loc119)
    %72 = stablehlo.bitcast_convert %1 : (tensor<f32>) -> tensor<i32> loc(#loc119)
    %73 = stablehlo.bitcast_convert %cst_27 : (tensor<f32>) -> tensor<i32> loc(#loc119)
    %74 = stablehlo.compare NE, %1, %1 : (tensor<f32>, tensor<f32>) -> tensor<i1> loc(#loc119)
    %75 = stablehlo.compare NE, %cst_27, %cst_27 : (tensor<f32>, tensor<f32>) -> tensor<i1> loc(#loc119)
    %76 = stablehlo.or %74, %75 : tensor<i1> loc(#loc119)
    %77 = stablehlo.bitcast_convert %cst : (tensor<f32>) -> tensor<i32> loc(#loc119)
    %78 = stablehlo.and %72, %c_2 : tensor<i32> loc(#loc119)
    %79 = stablehlo.and %73, %c_2 : tensor<i32> loc(#loc119)
    %80 = stablehlo.compare EQ, %1, %cst_27 : (tensor<f32>, tensor<f32>) -> tensor<i1> loc(#loc119)
    %81 = stablehlo.compare EQ, %78, %c_1 : (tensor<i32>, tensor<i32>) -> tensor<i1> loc(#loc119)
    %82 = stablehlo.compare EQ, %79, %c_1 : (tensor<i32>, tensor<i32>) -> tensor<i1> loc(#loc119)
    %83 = stablehlo.and %72, %c_3 : tensor<i32> loc(#loc119)
    %84 = stablehlo.and %73, %c_3 : tensor<i32> loc(#loc119)
    %85 = stablehlo.or %84, %c_0 : tensor<i32> loc(#loc119)
    %86 = stablehlo.compare NE, %83, %84 : (tensor<i32>, tensor<i32>) -> tensor<i1> loc(#loc119)
    %87 = stablehlo.compare GT, %78, %79 : (tensor<i32>, tensor<i32>) -> tensor<i1> loc(#loc119)
    %88 = stablehlo.or %87, %86 : tensor<i1> loc(#loc119)
    %89 = stablehlo.select %88, %c, %c_0 : tensor<i1>, tensor<i32> loc(#loc119)
    %90 = stablehlo.add %72, %89 : tensor<i32> loc(#loc119)
    %91 = stablehlo.select %82, %73, %85 : tensor<i1>, tensor<i32> loc(#loc119)
    %92 = stablehlo.select %81, %91, %90 : tensor<i1>, tensor<i32> loc(#loc119)
    %93 = stablehlo.select %80, %73, %92 : tensor<i1>, tensor<i32> loc(#loc119)
    %94 = stablehlo.select %76, %77, %93 : tensor<i1>, tensor<i32> loc(#loc119)
    %95 = stablehlo.bitcast_convert %94 : (tensor<i32>) -> tensor<f32> loc(#loc119)
    %96 = call @clip_25(%47, %71, %95) : (tensor<32x32xf32>, tensor<f32>, tensor<f32>) -> tensor<32x32xf32> loc(#loc90)
    return %96 : tensor<32x32xf32> loc(#loc)
  } loc(#loc625)
  func.func private @chlo.erf.impl_4(%arg0: tensor<f32> loc("erf")) -> tensor<f32> {
    %cst = stablehlo.constant dense<1.000000e+00> : tensor<f32> loc(#loc117)
    %cst_0 = stablehlo.constant dense<-1.000000e+00> : tensor<f32> loc(#loc117)
    %cst_1 = stablehlo.constant dense<-0.0142647391> : tensor<f32> loc(#loc117)
    %cst_2 = stablehlo.constant dense<-0.00737332925> : tensor<f32> loc(#loc117)
    %cst_3 = stablehlo.constant dense<-0.00168282702> : tensor<f32> loc(#loc117)
    %cst_4 = stablehlo.constant dense<-2.13374049E-4> : tensor<f32> loc(#loc117)
    %cst_5 = stablehlo.constant dense<-1.45660715E-5> : tensor<f32> loc(#loc117)
    %cst_6 = stablehlo.constant dense<-0.0160960332> : tensor<f32> loc(#loc117)
    %cst_7 = stablehlo.constant dense<-2.954600e-03> : tensor<f32> loc(#loc117)
…
    %cst_11 = stablehlo.constant dense<2.77068146E-8> : tensor<f32> loc(#loc117)
    %cst_12 = stablehlo.constant dense<-2.72614237E-10> : tensor<f32> loc(#loc117)
    %cst_13 = stablehlo.constant dense<-4.000000e+00> : tensor<f32> loc(#loc117)
    %cst_14 = stablehlo.constant dense<4.000000e+00> : tensor<f32> loc(#loc117)
    %0 = stablehlo.clamp %cst_13, %arg0, %cst_14 : tensor<f32> loc(#loc117)
    %1 = stablehlo.multiply %0, %0 : tensor<f32> loc(#loc117)
    %2 = stablehlo.multiply %cst_12, %1 : tensor<f32> loc(#loc117)
    %3 = stablehlo.add %2, %cst_11 : tensor<f32> loc(#loc117)
    %4 = stablehlo.multiply %3, %1 : tensor<f32> loc(#loc117)
    %5 = stablehlo.add %4, %cst_10 : tensor<f32> loc(#loc117)
    %6 = stablehlo.multiply %5, %1 : tensor<f32> loc(#loc117)
    %7 = stablehlo.add %6, %cst_9 : tensor<f32> loc(#loc117)
    %8 = stablehlo.multiply %7, %1 : tensor<f32> loc(#loc117)
    %9 = stablehlo.add %8, %cst_8 : tensor<f32> loc(#loc117)
    %10 = stablehlo.multiply %9, %1 : tensor<f32> loc(#loc117)
    %11 = stablehlo.add %10, %cst_7 : tensor<f32> loc(#loc117)
    %12 = stablehlo.multiply %11, %1 : tensor<f32> loc(#loc117)
    %13 = stablehlo.add %12, %cst_6 : tensor<f32> loc(#loc117)
    %14 = stablehlo.multiply %cst_5, %1 : tensor<f32> loc(#loc117)
    %15 = stablehlo.add %14, %cst_4 : tensor<f32> loc(#loc117)
    %16 = stablehlo.multiply %15, %1 : tensor<f32> loc(#loc117)
    %17 = stablehlo.add %16, %cst_3 : tensor<f32> loc(#loc117)
    %18 = stablehlo.multiply %17, %1 : tensor<f32> loc(#loc117)
    %19 = stablehlo.add %18, %cst_2 : tensor<f32> loc(#loc117)
    %20 = stablehlo.multiply %19, %1 : tensor<f32> loc(#loc117)
    %21 = stablehlo.add %20, %cst_1 : tensor<f32> loc(#loc117)
    %22 = stablehlo.multiply %0, %13 : tensor<f32> loc(#loc117)
    %23 = stablehlo.divide %22, %21 : tensor<f32> loc(#loc117)
    %24 = stablehlo.clamp %cst_0, %23, %cst : tensor<f32> loc(#loc117)
    return %24 : tensor<f32> loc(#loc117)
  } loc(#loc117)
  func.func private @_uniform_36(%arg0: tensor<2xui32> loc(unknown), %arg1: tensor<f32> loc(unknown), %arg2: tensor<f32> loc(unknown)) -> tensor<32x1xf32> {
    %cst = stablehlo.constant dense<1.000000e+00> : tensor<f32> loc(#loc)
    %c = stablehlo.constant dense<1065353216> : tensor<ui32> loc(#loc)
    %c_0 = stablehlo.constant dense<9> : tensor<ui32> loc(#loc)
    %c_1 = stablehlo.constant dense<32> : tensor<ui64> loc(#loc106)
    %c_2 = stablehlo.constant dense<1> : tensor<ui64> loc(#loc)
    %0 = stablehlo.broadcast_in_dim %arg1, dims = [] : (tensor<f32>) -> tensor<1x1xf32> loc(#loc107)
    %1 = stablehlo.broadcast_in_dim %arg2, dims = [] : (tensor<f32>) -> tensor<1x1xf32> loc(#loc107)
    %2 = stablehlo.slice %arg0 [0:1] : (tensor<2xui32>) -> tensor<1xui32> loc(#loc80)
    %3 = stablehlo.reshape %2 : (tensor<1xui32>) -> tensor<ui32> loc(#loc81)
    %4 = stablehlo.slice %arg0 [1:2] : (tensor<2xui32>) -> tensor<1xui32> loc(#loc80)
    %5 = stablehlo.reshape %4 : (tensor<1xui32>) -> tensor<ui32> loc(#loc81)
    %6 = stablehlo.iota dim = 0 : tensor<32x1xui64> loc(#loc106)
    %7 = stablehlo.iota dim = 1 : tensor<32x1xui64> loc(#loc106)
    %8 = stablehlo.broadcast_in_dim %c_2, dims = [] : (tensor<ui64>) -> tensor<32x1xui64> loc(#loc106)
    %9 = stablehlo.multiply %8, %6 : tensor<32x1xui64> loc(#loc106)
    %10 = stablehlo.broadcast_in_dim %c_2, dims = [] : (tensor<ui64>) -> tensor<32x1xui64> loc(#loc106)
    %11 = stablehlo.multiply %10, %7 : tensor<32x1xui64> loc(#loc106)
    %12 = stablehlo.add %9, %11 : tensor<32x1xui64> loc(#loc106)
    %13 = stablehlo.broadcast_in_dim %c_1, dims = [] : (tensor<ui64>) -> tensor<32x1xui64> loc(#loc106)
    %14 = stablehlo.shift_right_logical %12, %13 : tensor<32x1xui64> loc(#loc106)
    %15 = stablehlo.convert %12 : (tensor<32x1xui64>) -> tensor<32x1xui32> loc(#loc106)
    %16 = stablehlo.convert %14 : (tensor<32x1xui64>) -> tensor<32x1xui32> loc(#loc106)
    %17:2 = call @threefry2x32_37(%3, %5, %16, %15) : (tensor<ui32>, tensor<ui32>, tensor<32x1xui32>, tensor<32x1xui32>) -> (tensor<32x1xui32>, tensor<32x1xui32>) loc(#loc120)
    %18 = stablehlo.xor %17#0, %17#1 : tensor<32x1xui32> loc(#loc86)
    %19 = stablehlo.broadcast_in_dim %c_0, dims = [] : (tensor<ui32>) -> tensor<32x1xui32> loc(#loc84)
    %20 = stablehlo.shift_right_logical %18, %19 : tensor<32x1xui32> loc(#loc84)
    %21 = stablehlo.broadcast_in_dim %c, dims = [] : (tensor<ui32>) -> tensor<32x1xui32> loc(#loc85)
    %22 = stablehlo.or %20, %21 : tensor<32x1xui32> loc(#loc85)
    %23 = stablehlo.bitcast_convert %22 : (tensor<32x1xui32>) -> tensor<32x1xf32> loc(#loc121)
    %24 = stablehlo.broadcast_in_dim %cst, dims = [] : (tensor<f32>) -> tensor<32x1xf32> loc(#loc83)
    %25 = stablehlo.subtract %23, %24 : tensor<32x1xf32> loc(#loc83)
    %26 = stablehlo.subtract %1, %0 : tensor<1x1xf32> loc(#loc83)
    %27 = stablehlo.broadcast_in_dim %26, dims = [0, 1] : (tensor<1x1xf32>) -> tensor<32x1xf32> loc(#loc101)
    %28 = stablehlo.multiply %25, %27 : tensor<32x1xf32> loc(#loc101)
    %29 = stablehlo.broadcast_in_dim %0, dims = [0, 1] : (tensor<1x1xf32>) -> tensor<32x1xf32> loc(#loc79)
    %30 = stablehlo.add %28, %29 : tensor<32x1xf32> loc(#loc79)
    %31 = stablehlo.broadcast_in_dim %0, dims = [0, 1] : (tensor<1x1xf32>) -> tensor<32x1xf32> loc(#loc103)
    %32 = stablehlo.maximum %31, %30 : tensor<32x1xf32> loc(#loc103)
    return %32 : tensor<32x1xf32> loc(#loc)
  } loc(#loc216)
  func.func private @threefry2x32_37(%arg0: tensor<ui32> loc(unknown), %arg1: tensor<ui32> loc(unknown), %arg2: tensor<32x1xui32> loc(unknown), %arg3: tensor<32x1xui32> loc(unknown)) -> (tensor<32x1xui32>, tensor<32x1xui32>) {
    %c = stablehlo.constant dense<1> : tensor<i32> loc(#loc)
    %c_0 = stablehlo.constant dense<5> : tensor<i32> loc(#loc)
    %c_1 = stablehlo.constant dense<0> : tensor<i32> loc(#loc)
    %c_2 = stablehlo.constant dense<466688986> : tensor<ui32> loc(#loc213)
    %c_3 = stablehlo.constant dense<[13, 15, 26, 6]> : tensor<4xui32> loc(#loc213)
    %c_4 = stablehlo.constant dense<[17, 29, 16, 24]> : tensor<4xui32> loc(#loc213)
    %0 = stablehlo.xor %arg0, %arg1 : tensor<ui32> loc(#loc86)
    %1 = stablehlo.xor %0, %c_2 : tensor<ui32> loc(#loc86)
    %2 = stablehlo.broadcast_in_dim %arg0, dims = [] : (tensor<ui32>) -> tensor<32x1xui32> loc(#loc79)
    %3 = stablehlo.add %arg2, %2 : tensor<32x1xui32> loc(#loc79)
    %4 = stablehlo.broadcast_in_dim %arg1, dims = [] : (tensor<ui32>) -> tensor<32x1xui32> loc(#loc79)
    %5 = stablehlo.add %arg3, %4 : tensor<32x1xui32> loc(#loc79)
    %6:9 = stablehlo.while(%iterArg = %c_1, %iterArg_5 = %c_1, %iterArg_6 = %3, %iterArg_7 = %5, %iterArg_8 = %arg1, %iterArg_9 = %1, %iterArg_10 = %arg0, %iterArg_11 = %c_3, %iterArg_12 = %c_4) : tensor<i32>, tensor<i32>, tensor<32x1xui32>, tensor<32x1xui32>, tensor<ui32>, tensor<ui32>, tensor<ui32>, tensor<4xui32>, tensor<4xui32>
    cond {
      %7 = stablehlo.compare LT, %iterArg, %c_0, SIGNED : (tensor<i32>, tensor<i32>) -> tensor<i1> loc(#loc110)
      stablehlo.return %7 : tensor<i1> loc(#loc109)
    } do {
      %7:8 = func.call @closed_call_38(%iterArg_5, %iterArg_6, %iterArg_7, %iterArg_8, %iterArg_9, %iterArg_10, %iterArg_11, %iterArg_12) : (tensor<i32>, tensor<32x1xui32>, tensor<32x1xui32>, tensor<ui32>, tensor<ui32>, tensor<ui32>, tensor<4xui32>, tensor<4xui32>) -> (tensor<i32>, tensor<32x1xui32>, tensor<32x1xui32>, tensor<ui32>, tensor<ui32>, tensor<ui32>, tensor<4xui32>, tensor<4xui32>) loc(#loc111)
      %8 = stablehlo.add %iterArg, %c : tensor<i32> loc(#loc112)
      stablehlo.return %8, %7#0, %7#1, %7#2, %7#3, %7#4, %7#5, %7#6, %7#7 : tensor<i32>, tensor<i32>, tensor<32x1xui32>, tensor<32x1xui32>, tensor<ui32>, tensor<ui32>, tensor<ui32>, tensor<4xui32>, tensor<4xui32> loc(#loc109)
    } loc(#loc109)
    return %6#2, %6#3 : tensor<32x1xui32>, tensor<32x1xui32> loc(#loc)
  } loc(#loc)
  func.func private @closed_call_38(%arg0: tensor<i32> loc(unknown), %arg1: tensor<32x1xui32> loc(unknown), %arg2: tensor<32x1xui32> loc(unknown), %arg3: tensor<ui32> loc(unknown), %arg4: tensor<ui32> loc(unknown), %arg5: tensor<ui32> loc(unknown), %arg6: tensor<4xui32> loc(unknown), %arg7: tensor<4xui32> loc(unknown)) -> (tensor<i32>, tensor<32x1xui32>, tensor<32x1xui32>, tensor<ui32>, tensor<ui32>, tensor<ui32>, tensor<4xui32>, tensor<4xui32>) {
    %c = stablehlo.constant dense<32> : tensor<ui32> loc(#loc)
    %c_0 = stablehlo.constant dense<1> : tensor<i32> loc(#loc)
    %0 = stablehlo.add %arg0, %c_0 : tensor<i32> loc(#loc79)
    %1 = stablehlo.slice %arg6 [0:1] : (tensor<4xui32>) -> tensor<1xui32> loc(#loc80)
    %2 = stablehlo.reshape %1 : (tensor<1xui32>) -> tensor<ui32> loc(#loc81)
    %3 = stablehlo.add %arg1, %arg2 : tensor<32x1xui32> loc(#loc79)
    %4 = stablehlo.broadcast_in_dim %2, dims = [] : (tensor<ui32>) -> tensor<32x1xui32> loc(#loc82)
    %5 = stablehlo.shift_left %arg2, %4 : tensor<32x1xui32> loc(#loc82)
    %6 = stablehlo.subtract %c, %2 : tensor<ui32> loc(#loc83)
    %7 = stablehlo.broadcast_in_dim %6, dims = [] : (tensor<ui32>) -> tensor<32x1xui32> loc(#loc84)
    %8 = stablehlo.shift_right_logical %arg2, %7 : tensor<32x1xui32> loc(#loc84)
    %9 = stablehlo.or %5, %8 : tensor<32x1xui32> loc(#loc85)
    %10 = stablehlo.xor %3, %9 : tensor<32x1xui32> loc(#loc86)
    %11 = stablehlo.slice %arg6 [1:2] : (tensor<4xui32>) -> tensor<1xui32> loc(#loc80)
    %12 = stablehlo.reshape %11 : (tensor<1xui32>) -> tensor<ui32> loc(#loc81)
    %13 = stablehlo.add %3, %10 : tensor<32x1xui32> loc(#loc79)
    %14 = stablehlo.broadcast_in_dim %12, dims = [] : (tensor<ui32>) -> tensor<32x1xui32> loc(#loc82)
    %15 = stablehlo.shift_left %10, %14 : tensor<32x1xui32> loc(#loc82)
    %16 = stablehlo.subtract %c, %12 : tensor<ui32> loc(#loc83)
    %17 = stablehlo.broadcast_in_dim %16, dims = [] : (tensor<ui32>) -> tensor<32x1xui32> loc(#loc84)
    %18 = stablehlo.shift_right_logical %10, %17 : tensor<32x1xui32> loc(#loc84)
    %19 = stablehlo.or %15, %18 : tensor<32x1xui32> loc(#loc85)
    %20 = stablehlo.xor %13, %19 : tensor<32x1xui32> loc(#loc86)
    %21 = stablehlo.slice %arg6 [2:3] : (tensor<4xui32>) -> tensor<1xui32> loc(#loc80)
    %22 = stablehlo.reshape %21 : (tensor<1xui32>) -> tensor<ui32> loc(#loc81)
    %23 = stablehlo.add %13, %20 : tensor<32x1xui32> loc(#loc79)
    %24 = stablehlo.broadcast_in_dim %22, dims = [] : (tensor<ui32>) -> tensor<32x1xui32> loc(#loc82)
    %25 = stablehlo.shift_left %20, %24 : tensor<32x1xui32> loc(#loc82)
    %26 = stablehlo.subtract %c, %22 : tensor<ui32> loc(#loc83)
    %27 = stablehlo.broadcast_in_dim %26, dims = [] : (tensor<ui32>) -> tensor<32x1xui32> loc(#loc84)
    %28 = stablehlo.shift_right_logical %20, %27 : tensor<32x1xui32> loc(#loc84)
    %29 = stablehlo.or %25, %28 : tensor<32x1xui32> loc(#loc85)
    %30 = stablehlo.xor %23, %29 : tensor<32x1xui32> loc(#loc86)
    %31 = stablehlo.slice %arg6 [3:4] : (tensor<4xui32>) -> tensor<1xui32> loc(#loc80)
    %32 = stablehlo.reshape %31 : (tensor<1xui32>) -> tensor<ui32> loc(#loc81)
    %33 = stablehlo.add %23, %30 : tensor<32x1xui32> loc(#loc79)
    %34 = stablehlo.broadcast_in_dim %32, dims = [] : (tensor<ui32>) -> tensor<32x1xui32> loc(#loc82)
    %35 = stablehlo.shift_left %30, %34 : tensor<32x1xui32> loc(#loc82)
    %36 = stablehlo.subtract %c, %32 : tensor<ui32> loc(#loc83)
    %37 = stablehlo.broadcast_in_dim %36, dims = [] : (tensor<ui32>) -> tensor<32x1xui32> loc(#loc84)
    %38 = stablehlo.shift_right_logical %30, %37 : tensor<32x1xui32> loc(#loc84)
    %39 = stablehlo.or %35, %38 : tensor<32x1xui32> loc(#loc85)
    %40 = stablehlo.xor %33, %39 : tensor<32x1xui32> loc(#loc86)
    %41 = stablehlo.broadcast_in_dim %arg3, dims = [] : (tensor<ui32>) -> tensor<32x1xui32> loc(#loc79)
    %42 = stablehlo.add %33, %41 : tensor<32x1xui32> loc(#loc79)
    %43 = stablehlo.broadcast_in_dim %arg4, dims = [] : (tensor<ui32>) -> tensor<32x1xui32> loc(#loc79)
    %44 = stablehlo.add %40, %43 : tensor<32x1xui32> loc(#loc79)
    %45 = stablehlo.add %arg0, %c_0 : tensor<i32> loc(#loc79)
    %46 = stablehlo.convert %45 : (tensor<i32>) -> tensor<ui32> loc(#loc87)
    %47 = stablehlo.broadcast_in_dim %46, dims = [] : (tensor<ui32>) -> tensor<32x1xui32> loc(#loc79)
    %48 = stablehlo.add %44, %47 : tensor<32x1xui32> loc(#loc79)
    return %0, %42, %48, %arg4, %arg5, %arg3, %arg7, %arg6 : tensor<i32>, tensor<32x1xui32>, tensor<32x1xui32>, tensor<ui32>, tensor<ui32>, tensor<ui32>, tensor<4xui32>, tensor<4xui32> loc(#loc)
  } loc(#loc218)
  func.func private @clip_39(%arg0: tensor<32x1xf32> loc(unknown), %arg1: tensor<f32> loc(unknown), %arg2: tensor<f32> loc(unknown)) -> tensor<32x1xf32> {
    %0 = stablehlo.broadcast_in_dim %arg1, dims = [] : (tensor<f32>) -> tensor<32x1xf32> loc(#loc103)
    %1 = stablehlo.maximum %0, %arg0 : tensor<32x1xf32> loc(#loc103)
    %2 = stablehlo.broadcast_in_dim %arg2, dims = [] : (tensor<f32>) -> tensor<32x1xf32> loc(#loc104)
    %3 = stablehlo.minimum %2, %1 : tensor<32x1xf32> loc(#loc104)
    return %3 : tensor<32x1xf32> loc(#loc)
  } loc(#loc216)
} loc(#loc)
#loc2 = loc("/Users/noahfarr/noahfarr.github.io/tools/whlo/export_ppo_wordle.py":247:16 to :51)
#loc3 = loc("/Users/noahfarr/noahfarr.github.io/tools/whlo/export_ppo_wordle.py":263:4 to :10)
#loc5 = loc("/Users/noahfarr/reinforcement-learning/src/algorithms/algorithms/recurrent_ppo.py":298:8 to :47)
#loc6 = loc("/Users/noahfarr/reinforcement-learning/src/environments/environments/wrappers/vectorize.py":20:21 to :54)
#loc7 = loc("/Users/noahfarr/reinforcement-learning/src/algorithms/algorithms/recurrent_ppo.py":300:38 to 302:9)
#loc8 = loc("/Users/noahfarr/reinforcement-learning/src/environments/environments/wrappers/vectorize.py":21:15 to :57)
#loc9 = loc("/Users/noahfarr/reinforcement-learning/src/environments/environments/wordle.py":108:16 to :75)
#loc10 = loc("/Users/noahfarr/noahfarr.github.io/tools/whlo/export_ppo_wordle.py":93:26 to :53)
#loc11 = loc("/Users/noahfarr/reinforcement-learning/src/environments/environments/wrappers/wrapper.py":12:15 to :42)
#loc12 = loc("/Users/noahfarr/reinforcement-learning/src/environments/environments/wrappers/vectorize.py":22:15 to :80)
#loc13 = loc("/Users/noahfarr/reinforcement-learning/src/environments/environments/wordle.py":110:26 to :51)
#loc14 = loc("/Users/noahfarr/reinforcement-learning/src/environments/environments/wordle.py":111:27 to :60)
#loc15 = loc("/Users/noahfarr/reinforcement-learning/src/environments/environments/wordle.py":70:12 to :70)
#loc16 = loc("/Users/noahfarr/reinforcement-learning/src/environments/environments/wordle.py":120:16 to :30)
#loc17 = loc("/Users/noahfarr/reinforcement-learning/src/environments/environments/wordle.py":71:43 to :60)
#loc18 = loc("/Users/noahfarr/reinforcement-learning/src/environments/environments/wordle.py":71:11 to :66)
#loc19 = loc("/Users/noahfarr/noahfarr.github.io/tools/whlo/export_ppo_wordle.py":88:15 to :41)
#loc20 = loc("/Users/noahfarr/noahfarr.github.io/tools/whlo/export_ppo_wordle.py":94:22 to :68)
#loc21 = loc("/Users/noahfarr/reinforcement-learning/.venv/lib/python3.13/site-packages/flax/linen/recurrent.py":610:11 to :60)
#loc22 = loc("/Users/noahfarr/reinforcement-learning/src/networks/networks/blocks/rnn.py":59:15 to :80)
#loc23 = loc("/Users/noahfarr/reinforcement-learning/src/networks/networks/blocks/stack.py":25:21 to :61)
#loc24 = loc("/Users/noahfarr/reinforcement-learning/src/networks/networks/blocks/stack.py":25:15 to :87)
#loc25 = loc("/Users/noahfarr/noahfarr.github.io/tools/whlo/export_ppo_wordle.py":134:15 to :60)
#loc26 = loc("/Users/noahfarr/reinforcement-learning/src/algorithms/algorithms/recurrent_ppo.py":305:16 to :68)
#loc27 = loc("/Users/noahfarr/reinforcement-learning/src/utils/utils/axis.py":15:11 to :37)
#loc28 = loc("/Users/noahfarr/reinforcement-learning/src/utils/utils/timestep.py":22:15 to :48)
#loc29 = loc("/Users/noahfarr/reinforcement-learning/src/algorithms/algorithms/recurrent_ppo.py":306:19 to :41)
#loc30 = loc("/Users/noahfarr/reinforcement-learning/src/utils/utils/timestep.py":19:15 to :47)
#loc31 = loc("/Users/noahfarr/reinforcement-learning/src/algorithms/algorithms/recurrent_ppo.py":312:12 to :25)
#loc35 = loc("/Users/noahfarr/reinforcement-learning/.venv/lib/python3.13/site-packages/flax/linen/linear.py":270:13 to 272:7)
#loc36 = loc("/Users/noahfarr/reinforcement-learning/.venv/lib/python3.13/site-packages/flax/linen/linear.py":287:8 to 292:5)
#loc37 = loc("/Users/noahfarr/reinforcement-learning/.venv/lib/python3.13/site-packages/flax/linen/linear.py":294:11 to :57)
#loc38 = loc("/Users/noahfarr/reinforcement-learning/.venv/lib/python3.13/site-packages/flax/linen/linear.py":294:6 to :57)
#loc39 = loc("/Users/noahfarr/noahfarr.github.io/tools/whlo/export_ppo_wordle.py":121:16 to :78)
#loc40 = loc("/Users/noahfarr/noahfarr.github.io/tools/whlo/export_ppo_wordle.py":122:16 to :56)
#loc41 = loc("/Users/noahfarr/noahfarr.github.io/tools/whlo/export_ppo_wordle.py":119:19 to 125:9)
#loc42 = loc("/Users/noahfarr/reinforcement-learning/src/networks/networks/blocks/projection.py":21:12 to 27:12)
#loc43 = loc("/Users/noahfarr/reinforcement-learning/src/networks/networks/blocks/stack.py":18:29 to :56)
#loc44 = loc("/Users/noahfarr/reinforcement-learning/src/networks/networks/blocks/stack.py":21:15 to :74)
#loc45 = loc("/Users/noahfarr/noahfarr.github.io/tools/whlo/export_ppo_wordle.py":126:19 to :52)
#loc46 = loc("/Users/noahfarr/reinforcement-learning/src/networks/networks/blocks/projection.py":29:16 to :34)
#loc47 = loc("/Users/noahfarr/reinforcement-learning/src/networks/networks/blocks/rnn.py":38:24 to 40:9)
#loc48 = loc("/Users/noahfarr/reinforcement-learning/.venv/lib/python3.13/site-packages/flax/core/axes_scan.py":124:13 to :35)
#loc49 = loc("/Users/noahfarr/reinforcement-learning/.venv/lib/python3.13/site-packages/flax/core/axes_scan.py":126:11 to :44)
#loc50 = loc("/Users/noahfarr/reinforcement-learning/.venv/lib/python3.13/site-packages/flax/core/axes_scan.py":150:9 to :66)
#loc51 = loc("/Users/noahfarr/reinforcement-learning/src/networks/networks/blocks/rnn.py":54:15 to :53)
#loc52 = loc("/Users/noahfarr/reinforcement-learning/src/networks/networks/blocks/rnn.py":13:30 to :82)
#loc53 = loc("/Users/noahfarr/reinforcement-learning/src/networks/networks/blocks/rnn.py":12:11 to 16:5)
#loc54 = loc("/Users/noahfarr/reinforcement-learning/src/networks/networks/blocks/rnn.py":44:20 to :59)
#loc55 = loc("/Users/noahfarr/reinforcement-learning/.venv/lib/python3.13/site-packages/flax/core/axes_scan.py":157:29 to :53)
#loc56 = loc("/Users/noahfarr/reinforcement-learning/.venv/lib/python3.13/site-packages/flax/core/axes_scan.py":186:22 to :65)
#loc57 = loc("/Users/noahfarr/reinforcement-learning/.venv/lib/python3.13/site-packages/flax/linen/recurrent.py":588:21 to :47)
#loc58 = loc("/Users/noahfarr/reinforcement-learning/src/networks/networks/blocks/rnn.py":45:19 to :40)
#loc59 = loc("/Users/noahfarr/reinforcement-learning/.venv/lib/python3.13/site-packages/flax/linen/recurrent.py":588:50 to :71)
#loc60 = loc("/Users/noahfarr/reinforcement-learning/.venv/lib/python3.13/site-packages/flax/linen/recurrent.py":589:21 to :47)
#loc61 = loc("/Users/noahfarr/reinforcement-learning/.venv/lib/python3.13/site-packages/flax/linen/recurrent.py":589:50 to :71)
#loc62 = loc("/Users/noahfarr/reinforcement-learning/.venv/lib/python3.13/site-packages/flax/linen/recurrent.py":592:6 to :32)
#loc63 = loc("/Users/noahfarr/reinforcement-learning/.venv/lib/python3.13/site-packages/flax/linen/recurrent.py":592:39 to :75)
#loc64 = loc("/Users/noahfarr/reinforcement-learning/.venv/lib/python3.13/site-packages/flax/core/axes_scan.py":200:14 to 203:7)
#loc65 = loc("/Users/noahfarr/reinforcement-learning/.venv/lib/python3.13/site-packages/flax/core/axes_scan.py":141:13 to :35)
#loc66 = loc("/Users/noahfarr/reinforcement-learning/.venv/lib/python3.13/site-packages/flax/core/axes_scan.py":143:11 to :44)
#loc67 = loc("/Users/noahfarr/reinforcement-learning/.venv/lib/python3.13/site-packages/flax/core/axes_scan.py":208:9 to :67)
#loc68 = loc("/Users/noahfarr/noahfarr.github.io/tools/whlo/export_ppo_wordle.py":127:17 to :76)
#loc69 = loc("/Users/noahfarr/noahfarr.github.io/tools/whlo/export_ppo_wordle.py":128:17 to :83)
#loc70 = loc("/Users/noahfarr/noahfarr.github.io/tools/whlo/export_ppo_wordle.py":129:16 to :45)
#loc71 = loc("/Users/noahfarr/reinforcement-learning/.venv/lib/python3.13/site-packages/optax/tree_utils/_tree_math.py":335:32 to :62)
#loc72 = loc("/Users/noahfarr/reinforcement-learning/.venv/lib/python3.13/site-packages/optax/tree_utils/_tree_math.py":335:9 to :69)
#loc73 = loc("/Users/noahfarr/reinforcement-learning/.venv/lib/python3.13/site-packages/optax/_src/transform.py":277:9 to :54)
#loc74 = loc("/Users/noahfarr/reinforcement-learning/.venv/lib/python3.13/site-packages/optax/transforms/_combining.py":79:17 to :27)
#loc75 = loc("/Users/noahfarr/reinforcement-learning/.venv/lib/python3.13/site-packages/optax/transforms/_combining.py":79:11 to :47)
#loc76 = loc("/Users/noahfarr/reinforcement-learning/src/algorithms/algorithms/recurrent_ppo.py":315:26 to :53)
#loc77 = loc("/Users/noahfarr/reinforcement-learning/.venv/lib/python3.13/site-packages/optax/_src/transform.py":278:9 to :38)
#loc78 = loc("threefry2x32")
#loc79 = loc("add")
#loc80 = loc("slice")
#loc81 = loc("squeeze")
#loc82 = loc("shift_left")
#loc83 = loc("sub")
#loc84 = loc("shift_right_logical")
#loc85 = loc("or")
#loc86 = loc("xor")
#loc87 = loc("convert_element_type")
#loc90 = loc("jit(clip)")
#loc91 = loc("gt")
#loc92 = loc("vmap(jit(_threefry_split))")
#loc93 = loc("vmap()/slice")
#loc94 = loc("vmap()/squeeze")
#loc96 = loc("vmap()/xor")
#loc97 = loc("le")
#loc98 = loc("select_n")
#loc99 = loc("and")
#loc100 = loc("rem")
#loc101 = loc("mul")
#loc102 = loc("jit")
#loc103 = loc("max")
#loc104 = loc("min")
#loc105 = loc("vmap()/jit")
#loc106 = loc("iota_2x32_shape")
#loc107 = loc("broadcast_in_dim")
#loc108 = loc("stack")
#loc109 = loc("while")
#loc110 = loc("while/cond/lt")
#loc111 = loc("while/body/closed_call")
#loc112 = loc("while/body/add")
#loc113 = loc("iota")
#loc114 = loc("eq")
#loc115 = loc("erf_inv")
#loc116 = loc("div")
#loc118 = loc("jit(_uniform)")
#loc119 = loc("nextafter")
#loc120 = loc("")
#loc121 = loc("bitcast_convert_type")
#loc122 = loc("dynamic_slice")
#loc123 = loc("/Users/noahfarr/reinforcement-learning/src/utils/utils/axis.py":31:11 to :65)
#loc124 = loc("/Users/noahfarr/reinforcement-learning/src/networks/networks/blocks/rnn.py":13:40 to :66)
#loc125 = loc("/Users/noahfarr/reinforcement-learning/.venv/lib/python3.13/site-packages/flax/linen/recurrent.py":588:21 to :71)
#loc126 = loc("/Users/noahfarr/reinforcement-learning/.venv/lib/python3.13/site-packages/flax/linen/recurrent.py":588:8 to :72)
#loc127 = loc("/Users/noahfarr/reinforcement-learning/.venv/lib/python3.13/site-packages/flax/linen/recurrent.py":589:21 to :71)
#loc128 = loc("/Users/noahfarr/reinforcement-learning/.venv/lib/python3.13/site-packages/flax/linen/recurrent.py":589:8 to :72)
#loc129 = loc("/Users/noahfarr/reinforcement-learning/.venv/lib/python3.13/site-packages/flax/linen/recurrent.py":592:35 to :75)
#loc130 = loc("/Users/noahfarr/reinforcement-learning/.venv/lib/python3.13/site-packages/flax/linen/recurrent.py":592:6 to :75)
#loc131 = loc("/Users/noahfarr/reinforcement-learning/.venv/lib/python3.13/site-packages/flax/linen/recurrent.py":591:8 to 593:5)
#loc132 = loc("/Users/noahfarr/reinforcement-learning/.venv/lib/python3.13/site-packages/flax/linen/recurrent.py":594:13 to :20)
#loc133 = loc("/Users/noahfarr/reinforcement-learning/.venv/lib/python3.13/site-packages/flax/linen/recurrent.py":594:12 to :25)
#loc134 = loc("/Users/noahfarr/reinforcement-learning/.venv/lib/python3.13/site-packages/flax/linen/recurrent.py":594:28 to :33)
#loc135 = loc("/Users/noahfarr/reinforcement-learning/.venv/lib/python3.13/site-packages/flax/linen/recurrent.py":594:12 to :33)
#loc136 = loc("dynamic_update_slice")
#loc137 = loc("main"(#loc2))
#loc138 = loc("<module>"(#loc3))
#loc140 = loc("RecurrentPPO.init"(#loc5))
#loc141 = loc("Vectorize.init"(#loc6))
#loc142 = loc("RecurrentPPO.init"(#loc7))
#loc143 = loc("Vectorize.init"(#loc8))
#loc144 = loc("Wordle.init"(#loc9))
#loc145 = loc("WordChoice.init"(#loc10))
#loc146 = loc("Wrapper.init"(#loc11))
#loc147 = loc("Vectorize.init"(#loc12))
#loc148 = loc("Wordle.init"(#loc13))
#loc149 = loc("Wordle.init"(#loc14))
#loc150 = loc("get_obs"(#loc15))
#loc151 = loc("Wordle.init"(#loc16))
#loc152 = loc("get_obs"(#loc17))
#loc153 = loc("get_obs"(#loc18))
#loc154 = loc("WordChoice._wrap"(#loc19))
#loc155 = loc("WordChoice.init"(#loc20))
#loc156 = loc("GRUCell.initialize_carry"(#loc21))
#loc157 = loc("RNN.initialize_carry"(#loc22))
#loc158 = loc("Stack.initialize_carry.<locals>.<genexpr>"(#loc23))
#loc159 = loc("Stack.initialize_carry"(#loc24))
#loc160 = loc("MaskedActorCriticNetwork.initialize_carry"(#loc25))
#loc161 = loc("RecurrentPPO.init"(#loc26))
#loc162 = loc("add_time_axis"(#loc27))
#loc163 = loc("Timestep.to_sequence"(#loc28))
#loc164 = loc("RecurrentPPO.init"(#loc29))
#loc165 = loc("Timestep.done"(#loc30))
#loc166 = loc("RecurrentPPO.init"(#loc31))
#loc170 = loc("Dense.__call__"(#loc35))
#loc171 = loc("Dense.__call__"(#loc36))
#loc172 = loc("Dense.__call__"(#loc37))
#loc173 = loc("Dense.__call__"(#loc38))
#loc174 = loc("MaskedActorCriticNetwork.__call__"(#loc39))
#loc175 = loc("MaskedActorCriticNetwork.__call__"(#loc40))
#loc176 = loc("MaskedActorCriticNetwork.__call__"(#loc41))
#loc177 = loc("Projection.__call__"(#loc42))
#loc178 = loc("Stack.__call__.<locals>.step"(#loc43))
#loc179 = loc("Stack.__call__"(#loc44))
#loc180 = loc("MaskedActorCriticNetwork.__call__"(#loc45))
#loc181 = loc("Projection.__call__"(#loc46))
#loc182 = loc("RNN.__call__"(#loc47))
#loc183 = loc("scan.<locals>.transpose_to_front.<locals>.trans"(#loc48))
#loc184 = loc("scan.<locals>.transpose_to_front"(#loc49))
#loc185 = loc("scan.<locals>.scan_fn"(#loc50))
#loc186 = loc("RNN.__call__"(#loc51))
#loc187 = loc("reset_carry.<locals>.<lambda>"(#loc52))
#loc188 = loc("reset_carry"(#loc53))
#loc189 = loc("RNN.__call__.<locals>.scan_fn"(#loc54))
#loc190 = loc("scan.<locals>.scan_fn.<locals>.body_fn"(#loc55))
#loc191 = loc("scan.<locals>.scan_fn"(#loc56))
#loc192 = loc("GRUCell.__call__"(#loc57))
#loc193 = loc("RNN.__call__.<locals>.scan_fn"(#loc58))
#loc194 = loc("GRUCell.__call__"(#loc59))
#loc195 = loc("GRUCell.__call__"(#loc60))
#loc196 = loc("GRUCell.__call__"(#loc61))
#loc197 = loc("GRUCell.__call__"(#loc62))
#loc198 = loc("GRUCell.__call__"(#loc63))
#loc199 = loc("scan.<locals>.scan_fn"(#loc64))
#loc200 = loc("scan.<locals>.transpose_from_front.<locals>.trans"(#loc65))
#loc201 = loc("scan.<locals>.transpose_from_front"(#loc66))
#loc202 = loc("scan.<locals>.scan_fn"(#loc67))
#loc203 = loc("MaskedActorCriticNetwork.__call__"(#loc68))
#loc204 = loc("MaskedActorCriticNetwork.__call__"(#loc69))
#loc205 = loc("MaskedActorCriticNetwork.__call__"(#loc70))
#loc206 = loc("tree_zeros_like.<locals>.<lambda>"(#loc71))
#loc207 = loc("tree_zeros_like"(#loc72))
#loc208 = loc("scale_by_adam.<locals>.init_fn"(#loc73))
#loc209 = loc("chain.<locals>.init_fn.<locals>.<genexpr>"(#loc74))
#loc210 = loc("chain.<locals>.init_fn"(#loc75))
#loc211 = loc("RecurrentPPO.init"(#loc76))
#loc212 = loc("scale_by_adam.<locals>.init_fn"(#loc77))
#loc213 = loc("threefry2x32:"(#loc78))
#loc216 = loc("jit:"(#loc102))
#loc217 = loc("jit:"(#loc105))
#loc218 = loc("closed_call:"(#loc111))
#loc219 = loc("broadcast_done"(#loc123))
#loc220 = loc("reset_carry.<locals>.<lambda>"(#loc124))
#loc221 = loc("GRUCell.__call__"(#loc125))
#loc222 = loc("GRUCell.__call__"(#loc126))
#loc223 = loc("GRUCell.__call__"(#loc127))
#loc224 = loc("GRUCell.__call__"(#loc128))
#loc225 = loc("GRUCell.__call__"(#loc129))
#loc226 = loc("GRUCell.__call__"(#loc130))
#loc227 = loc("GRUCell.__call__"(#loc131))
#loc228 = loc("GRUCell.__call__"(#loc132))
#loc229 = loc("GRUCell.__call__"(#loc133))
#loc230 = loc("GRUCell.__call__"(#loc134))
#loc231 = loc("GRUCell.__call__"(#loc135))
#loc232 = loc(callsite(#loc137 at #loc138))
#loc233 = loc(callsite(#loc141 at #loc142))
#loc235 = loc(callsite(#loc180 at #loc169))
#loc236 = loc("jit"(#loc139))
#loc237 = loc("iota_2x32_shape"(#loc139))
#loc238 = loc("slice"(#loc139))
#loc239 = loc("squeeze"(#loc139))
#loc240 = loc("stack"(#loc139))
#loc241 = loc("xor"(#loc139))
#loc242 = loc("add"(#loc139))
#loc243 = loc(callsite(#loc139 at #loc139))
#loc244 = loc("while/body/closed_call"(#loc139))
#loc246 = loc(callsite(#loc189 at #loc190))
#loc247 = loc(callsite(#loc193 at #loc190))
#loc248 = loc("jit(init)"(#loc232))
#loc249 = loc(callsite(#loc139 at #loc232))
#loc250 = loc(callsite(#loc140 at #loc232))
#loc251 = loc(callsite(#loc142 at #loc232))
#loc252 = loc(callsite(#loc161 at #loc232))
#loc253 = loc(callsite(#loc164 at #loc232))
#loc254 = loc(callsite(#loc166 at #loc232))
#loc256 = loc(callsite(#loc169 at #loc232))
#loc257 = loc(callsite(#loc179 at #loc235))
#loc258 = loc(callsite(#loc211 at #loc232))
#loc259 = loc("jit:"(#loc236))
#loc260 = loc("while"(#loc243))
#loc261 = loc(callsite(#loc243 at #loc139))
#loc262 = loc("closed_call:"(#loc244))
#loc263 = loc("jit"(#loc233))
#loc264 = loc("iota_2x32_shape"(#loc245))
#loc265 = loc("slice"(#loc245))
#loc266 = loc("squeeze"(#loc245))
#loc267 = loc("stack"(#loc245))
#loc268 = loc("xor"(#loc245))
#loc269 = loc("add"(#loc245))
#loc270 = loc(callsite(#loc245 at #loc245))
#loc271 = loc("while/body/closed_call"(#loc245))
#loc272 = loc(callsite(#loc188 at #loc246))
#loc273 = loc(callsite(#loc192 at #loc247))
#loc274 = loc(callsite(#loc194 at #loc247))
#loc275 = loc(callsite(#loc221 at #loc247))
#loc276 = loc(callsite(#loc222 at #loc247))
#loc277 = loc(callsite(#loc195 at #loc247))
#loc278 = loc(callsite(#loc196 at #loc247))
#loc279 = loc(callsite(#loc223 at #loc247))
#loc280 = loc(callsite(#loc224 at #loc247))
#loc281 = loc(callsite(#loc197 at #loc247))
#loc282 = loc(callsite(#loc198 at #loc247))
#loc283 = loc(callsite(#loc225 at #loc247))
#loc284 = loc(callsite(#loc226 at #loc247))
#loc285 = loc(callsite(#loc227 at #loc247))
#loc286 = loc(callsite(#loc228 at #loc247))
#loc287 = loc(callsite(#loc229 at #loc247))
#loc288 = loc(callsite(#loc230 at #loc247))
#loc289 = loc(callsite(#loc231 at #loc247))
#loc290 = loc(callsite(#loc139 at #loc249))
#loc291 = loc("jit(init)/slice"(#loc250))
#loc292 = loc("jit(init)/squeeze"(#loc250))
#loc293 = loc(callsite(#loc141 at #loc251))
#loc294 = loc(callsite(#loc143 at #loc251))
#loc295 = loc(callsite(#loc147 at #loc251))
#loc296 = loc(callsite(#loc160 at #loc252))
#loc297 = loc(callsite(#loc163 at #loc253))
#loc298 = loc(callsite(#loc165 at #loc254))
#loc299 = loc(callsite(#loc168 at #loc256))
#loc300 = loc(callsite(#loc174 at #loc256))
#loc301 = loc(callsite(#loc175 at #loc256))
#loc302 = loc(callsite(#loc176 at #loc256))
#loc303 = loc(callsite(#loc180 at #loc256))
#loc304 = loc(callsite(#loc178 at #loc257))
#loc305 = loc(callsite(#loc203 at #loc256))
#loc306 = loc(callsite(#loc204 at #loc256))
#loc307 = loc(callsite(#loc205 at #loc256))
#loc308 = loc(callsite(#loc210 at #loc258))
#loc309 = loc("while/cond/lt"(#loc261))
#loc310 = loc("while/body/closed_call"(#loc261))
#loc311 = loc("while/body/add"(#loc261))
#loc312 = loc("jit:"(#loc263))
#loc313 = loc("while"(#loc270))
#loc314 = loc(callsite(#loc270 at #loc245))
#loc315 = loc("closed_call:"(#loc271))
#loc316 = loc("jit"(#loc255))
#loc317 = loc("shift_right_logical"(#loc255))
#loc318 = loc("broadcast_in_dim"(#loc255))
#loc319 = loc("and"(#loc255))
#loc320 = loc("concatenate"(#loc255))
#loc321 = loc("slice"(#loc255))
#loc322 = loc("squeeze"(#loc255))
#loc323 = loc("split"(#loc255))
#loc324 = loc("xor"(#loc255))
#loc325 = loc("add"(#loc255))
#loc326 = loc(callsite(#loc255 at #loc255))
#loc327 = loc("while/body/closed_call"(#loc255))
#loc328 = loc(callsite(#loc220 at #loc272))
#loc329 = loc(callsite(#loc187 at #loc272))
#loc330 = loc(callsite(#loc171 at #loc273))
#loc331 = loc(callsite(#loc172 at #loc273))
#loc332 = loc(callsite(#loc173 at #loc273))
#loc333 = loc(callsite(#loc171 at #loc274))
#loc334 = loc("cell.scan_fn/cell/add"(#loc275))
#loc335 = loc(callsite(#loc276 at #loc276))
#loc336 = loc(callsite(#loc171 at #loc277))
#loc337 = loc(callsite(#loc172 at #loc277))
#loc338 = loc(callsite(#loc173 at #loc277))
#loc339 = loc(callsite(#loc171 at #loc278))
#loc340 = loc("cell.scan_fn/cell/add"(#loc279))
#loc341 = loc(callsite(#loc276 at #loc280))
#loc342 = loc(callsite(#loc171 at #loc281))
#loc343 = loc(callsite(#loc172 at #loc281))
#loc344 = loc(callsite(#loc173 at #loc281))
#loc345 = loc(callsite(#loc171 at #loc282))
#loc346 = loc(callsite(#loc172 at #loc282))
#loc347 = loc(callsite(#loc173 at #loc282))
#loc348 = loc("cell.scan_fn/cell/mul"(#loc283))
#loc349 = loc("cell.scan_fn/cell/add"(#loc284))
#loc350 = loc("cell.scan_fn/cell/tanh"(#loc285))
#loc351 = loc("cell.scan_fn/cell/sub"(#loc286))
#loc352 = loc("cell.scan_fn/cell/mul"(#loc287))
#loc353 = loc("cell.scan_fn/cell/mul"(#loc288))
#loc354 = loc("cell.scan_fn/cell/add"(#loc289))
#loc355 = loc("jit(init)/jit(_threefry_split)"(#loc290))
#loc356 = loc(callsite(#loc233 at #loc293))
#loc357 = loc("jit(init)/broadcast_in_dim"(#loc294))
#loc358 = loc("jit(init)/reshape"(#loc294))
#loc359 = loc(callsite(#loc146 at #loc295))
#loc360 = loc("jit(init)/vmap()/broadcast_in_dim"(#loc295))
#loc361 = loc(callsite(#loc159 at #loc296))
#loc362 = loc(callsite(#loc162 at #loc297))
#loc363 = loc("jit(init)/or"(#loc298))
#loc364 = loc(callsite(#loc167 at #loc299))
#loc365 = loc(callsite(#loc170 at #loc299))
#loc366 = loc(callsite(#loc171 at #loc299))
#loc367 = loc(callsite(#loc172 at #loc299))
#loc368 = loc(callsite(#loc173 at #loc299))
#loc369 = loc("jit(init)/MaskedActorCriticNetwork/jit(relu)"(#loc300))
#loc370 = loc("jit(init)/MaskedActorCriticNetwork/jit(_one_hot)"(#loc301))
#loc371 = loc("jit(init)/MaskedActorCriticNetwork/concatenate"(#loc302))
#loc372 = loc(callsite(#loc179 at #loc303))
#loc373 = loc(callsite(#loc186 at #loc304))
#loc374 = loc(callsite(#loc167 at #loc305))
#loc375 = loc(callsite(#loc171 at #loc305))
#loc376 = loc("jit(init)/MaskedActorCriticNetwork/jit(_where)"(#loc306))
#loc377 = loc(callsite(#loc167 at #loc307))
#loc378 = loc(callsite(#loc170 at #loc307))
#loc379 = loc(callsite(#loc209 at #loc308))
#loc380 = loc("while/cond/lt"(#loc314))
#loc381 = loc("while/body/closed_call"(#loc314))
#loc382 = loc("while/body/add"(#loc314))
#loc383 = loc("jit:"(#loc316))
#loc384 = loc("while"(#loc326))
#loc385 = loc(callsite(#loc326 at #loc255))
#loc386 = loc("closed_call:"(#loc327))
#loc387 = loc("jit(init)/MaskedActorCriticNetwork/jit"(#loc301))
#loc388 = loc(callsite(#loc219 at #loc328))
#loc389 = loc("cell.scan_fn/jit(_where)"(#loc329))
#loc390 = loc("cell.scan_fn/cell/ir/dot_general"(#loc330))
#loc391 = loc("cell.scan_fn/cell/ir/reshape"(#loc331))
#loc392 = loc("cell.scan_fn/cell/ir/add"(#loc332))
#loc393 = loc("cell.scan_fn/cell/hr/dot_general"(#loc333))
#loc394 = loc("cell.scan_fn/cell/neg"(#loc335))
#loc395 = loc("cell.scan_fn/cell/exp"(#loc335))
#loc396 = loc("cell.scan_fn/cell/add"(#loc335))
#loc397 = loc("cell.scan_fn/cell/div"(#loc335))
#loc398 = loc("cell.scan_fn/cell/iz/dot_general"(#loc336))
#loc399 = loc("cell.scan_fn/cell/iz/reshape"(#loc337))
#loc400 = loc("cell.scan_fn/cell/iz/add"(#loc338))
#loc401 = loc("cell.scan_fn/cell/hz/dot_general"(#loc339))
#loc402 = loc("cell.scan_fn/cell/neg"(#loc341))
#loc403 = loc("cell.scan_fn/cell/exp"(#loc341))
#loc404 = loc("cell.scan_fn/cell/add"(#loc341))
#loc405 = loc("cell.scan_fn/cell/div"(#loc341))
#loc406 = loc("cell.scan_fn/cell/in/dot_general"(#loc342))
#loc407 = loc("cell.scan_fn/cell/in/reshape"(#loc343))
#loc408 = loc("cell.scan_fn/cell/in/add"(#loc344))
#loc409 = loc("cell.scan_fn/cell/hn/dot_general"(#loc345))
#loc410 = loc("cell.scan_fn/cell/hn/reshape"(#loc346))
#loc411 = loc("cell.scan_fn/cell/hn/add"(#loc347))
#loc412 = loc("cell.scan_fn/jit"(#loc329))
#loc413 = loc("jit(init)/MaskedActorCriticNetwork/jit"(#loc306))
#loc414 = loc("jit(init)/jit(_threefry_split)"(#loc356))
#loc415 = loc(callsite(#loc145 at #loc359))
#loc416 = loc(callsite(#loc155 at #loc359))
#loc417 = loc(callsite(#loc158 at #loc361))
#loc418 = loc("jit(init)/broadcast_in_dim"(#loc362))
#loc419 = loc(callsite(#loc255 at #loc364))
#loc420 = loc("jit(init)/MaskedActorCriticNetwork/obs/sqrt"(#loc364))
#loc421 = loc("jit(init)/MaskedActorCriticNetwork/obs/div"(#loc364))
#loc422 = loc("jit(init)/MaskedActorCriticNetwork/obs/jit(_truncated_normal)"(#loc364))
#loc423 = loc("jit(init)/MaskedActorCriticNetwork/obs/mul"(#loc364))
#loc424 = loc(callsite(#loc255 at #loc365))
#loc425 = loc("jit(init)/MaskedActorCriticNetwork/obs/broadcast_in_dim"(#loc365))
#loc426 = loc("jit(init)/MaskedActorCriticNetwork/obs/dot_general"(#loc366))
#loc427 = loc("jit(init)/MaskedActorCriticNetwork/obs/reshape"(#loc367))
#loc428 = loc("jit(init)/MaskedActorCriticNetwork/obs/add"(#loc368))
#loc429 = loc(callsite(#loc178 at #loc372))
#loc430 = loc(callsite(#loc199 at #loc373))
#loc431 = loc(callsite(#loc255 at #loc374))
#loc432 = loc("jit(init)/MaskedActorCriticNetwork/actor/sqrt"(#loc374))
#loc433 = loc("jit(init)/MaskedActorCriticNetwork/actor/div"(#loc374))
#loc434 = loc("jit(init)/MaskedActorCriticNetwork/actor/jit(_truncated_normal)"(#loc374))
#loc435 = loc("jit(init)/MaskedActorCriticNetwork/actor/mul"(#loc374))
#loc436 = loc("jit(init)/MaskedActorCriticNetwork/actor/dot_general"(#loc375))
#loc437 = loc(callsite(#loc255 at #loc377))
#loc438 = loc("jit(init)/MaskedActorCriticNetwork/critic/sqrt"(#loc377))
#loc439 = loc("jit(init)/MaskedActorCriticNetwork/critic/div"(#loc377))
#loc440 = loc("jit(init)/MaskedActorCriticNetwork/critic/jit(_truncated_normal)"(#loc377))
#loc441 = loc("jit(init)/MaskedActorCriticNetwork/critic/mul"(#loc377))
#loc442 = loc(callsite(#loc255 at #loc378))
#loc443 = loc("jit(init)/MaskedActorCriticNetwork/critic/broadcast_in_dim"(#loc378))
#loc444 = loc(callsite(#loc210 at #loc379))
#loc445 = loc("while/cond/lt"(#loc385))
#loc446 = loc("while/body/closed_call"(#loc385))
#loc447 = loc("while/body/add"(#loc385))
#loc448 = loc("jit(init)/MaskedActorCriticNetwork/obs/jit"(#loc364))
#loc449 = loc("jit:"(#loc387))
#loc450 = loc("cell.scan_fn/reshape"(#loc388))
#loc451 = loc("jit:"(#loc412))
#loc452 = loc("jit(init)/MaskedActorCriticNetwork/actor/jit"(#loc374))
#loc453 = loc("jit:"(#loc413))
#loc454 = loc("jit(init)/MaskedActorCriticNetwork/critic/jit"(#loc377))
#loc455 = loc(callsite(#loc144 at #loc415))
#loc456 = loc(callsite(#loc148 at #loc415))
#loc457 = loc(callsite(#loc149 at #loc415))
#loc458 = loc(callsite(#loc151 at #loc415))
#loc459 = loc(callsite(#loc154 at #loc416))
#loc460 = loc(callsite(#loc157 at #loc417))
#loc461 = loc("jit(init)/MaskedActorCriticNetwork/obs/jit(_threefry_fold_in)"(#loc419))
#loc462 = loc("jit(init)/MaskedActorCriticNetwork/obs/jit(_threefry_fold_in)"(#loc424))
#loc463 = loc(callsite(#loc177 at #loc429))
#loc464 = loc(callsite(#loc181 at #loc429))
#loc465 = loc(callsite(#loc182 at #loc429))
#loc466 = loc(callsite(#loc186 at #loc429))
#loc467 = loc(callsite(#loc430 at #loc430))
#loc468 = loc("jit(init)/MaskedActorCriticNetwork/actor/jit(_threefry_fold_in)"(#loc431))
#loc469 = loc("jit(init)/MaskedActorCriticNetwork/critic/jit(_threefry_fold_in)"(#loc437))
#loc470 = loc("jit(init)/MaskedActorCriticNetwork/critic/jit(_threefry_fold_in)"(#loc442))
#loc471 = loc(callsite(#loc209 at #loc444))
#loc472 = loc("jit:"(#loc448))
#loc473 = loc("while/body/jit"(#loc430))
#loc474 = loc("while/body/closed_call"(#loc430))
#loc475 = loc("jit:"(#loc452))
#loc476 = loc("jit:"(#loc454))
#loc477 = loc("jit(init)/vmap(jit(_randint))"(#loc455))
#loc478 = loc("jit(init)/vmap()/lt"(#loc456))
#loc479 = loc("jit(init)/vmap()/add"(#loc456))
#loc480 = loc("jit(init)/vmap()/select_n"(#loc456))
#loc481 = loc("jit(init)/vmap()/broadcast_in_dim"(#loc456))
#loc482 = loc("jit(init)/vmap()/concatenate"(#loc456))
#loc483 = loc("jit(init)/vmap()/gather"(#loc456))
#loc484 = loc("jit(init)/vmap()/squeeze"(#loc456))
#loc485 = loc("jit(init)/vmap()/broadcast_in_dim"(#loc457))
#loc486 = loc(callsite(#loc150 at #loc458))
#loc487 = loc(callsite(#loc152 at #loc458))
#loc488 = loc(callsite(#loc153 at #loc458))
#loc489 = loc("jit(init)/vmap()/broadcast_in_dim"(#loc459))
#loc490 = loc(callsite(#loc156 at #loc460))
#loc491 = loc(callsite(#loc167 at #loc463))
#loc492 = loc(callsite(#loc170 at #loc463))
#loc493 = loc(callsite(#loc171 at #loc463))
#loc494 = loc(callsite(#loc172 at #loc463))
#loc495 = loc(callsite(#loc173 at #loc463))
#loc496 = loc("jit(init)/MaskedActorCriticNetwork/torso/blocks_0/jit(relu)"(#loc464))
#loc497 = loc(callsite(#loc156 at #loc465))
#loc498 = loc(callsite(#loc185 at #loc466))
#loc499 = loc(callsite(#loc191 at #loc466))
#loc500 = loc(callsite(#loc199 at #loc466))
#loc501 = loc(callsite(#loc202 at #loc466))
#loc502 = loc(callsite(#loc208 at #loc471))
#loc503 = loc(callsite(#loc212 at #loc471))
#loc504 = loc("jit(init)/vmap()/jit"(#loc455))
#loc505 = loc("jit:"(#loc473))
#loc506 = loc("closed_call:"(#loc474))
#loc507 = loc("jit(init)/vmap(jit(_one_hot))"(#loc486))
#loc508 = loc("jit(init)/vmap()/reshape"(#loc487))
#loc509 = loc("jit(init)/vmap(jit(_where))"(#loc488))
#loc510 = loc("jit(init)/broadcast_in_dim"(#loc490))
#loc511 = loc(callsite(#loc255 at #loc491))
#loc512 = loc("jit(init)/MaskedActorCriticNetwork/torso/blocks_0/Dense_0/sqrt"(#loc491))
#loc513 = loc("jit(init)/MaskedActorCriticNetwork/torso/blocks_0/Dense_0/div"(#loc491))
#loc514 = loc("jit(init)/MaskedActorCriticNetwork/torso/blocks_0/Dense_0/jit(_truncated_normal)"(#loc491))
#loc515 = loc("jit(init)/MaskedActorCriticNetwork/torso/blocks_0/Dense_0/mul"(#loc491))
#loc516 = loc(callsite(#loc255 at #loc492))
#loc517 = loc("jit(init)/MaskedActorCriticNetwork/torso/blocks_0/Dense_0/broadcast_in_dim"(#loc492))
#loc518 = loc("jit(init)/MaskedActorCriticNetwork/torso/blocks_0/Dense_0/dot_general"(#loc493))
#loc519 = loc("jit(init)/MaskedActorCriticNetwork/torso/blocks_0/Dense_0/reshape"(#loc494))
#loc520 = loc("jit(init)/MaskedActorCriticNetwork/torso/blocks_0/Dense_0/add"(#loc495))
#loc521 = loc("jit(init)/MaskedActorCriticNetwork/torso/blocks_1/broadcast_in_dim"(#loc497))
#loc522 = loc(callsite(#loc184 at #loc498))
#loc523 = loc(callsite(#loc190 at #loc499))
#loc524 = loc(callsite(#loc430 at #loc500))
#loc525 = loc(callsite(#loc467 at #loc500))
#loc526 = loc(callsite(#loc201 at #loc501))
#loc527 = loc(callsite(#loc207 at #loc502))
#loc528 = loc(callsite(#loc207 at #loc503))
#loc529 = loc("jit:"(#loc504))
#loc530 = loc("jit(init)/vmap()/jit"(#loc486))
#loc531 = loc("jit(init)/vmap()/jit"(#loc488))
#loc532 = loc("jit(init)/MaskedActorCriticNetwork/torso/blocks_0/Dense_0/jit"(#loc491))
#loc533 = loc("jit(init)/MaskedActorCriticNetwork/torso/blocks_0/Dense_0/jit(_threefry_fold_in)"(#loc511))
#loc534 = loc("jit(init)/MaskedActorCriticNetwork/torso/blocks_0/Dense_0/jit(_threefry_fold_in)"(#loc516))
#loc535 = loc(callsite(#loc183 at #loc522))
#loc536 = loc(callsite(#loc189 at #loc523))
#loc537 = loc(callsite(#loc193 at #loc523))
#loc538 = loc("jit(init)/MaskedActorCriticNetwork/torso/blocks_1/broadcast_in_dim"(#loc524))
#loc539 = loc("jit(init)/MaskedActorCriticNetwork/torso/blocks_1/while"(#loc524))
#loc540 = loc("jit(init)/MaskedActorCriticNetwork/torso/blocks_1/while/cond/lt"(#loc525))
#loc541 = loc("jit(init)/MaskedActorCriticNetwork/torso/blocks_1/while/body/jit(dynamic_index_in_dim)"(#loc525))
#loc542 = loc("jit(init)/MaskedActorCriticNetwork/torso/blocks_1/while/body/closed_call"(#loc525))
#loc543 = loc("jit(init)/MaskedActorCriticNetwork/torso/blocks_1/while/body/jit(dynamic_update_index_in_dim)"(#loc525))
#loc544 = loc("jit(init)/MaskedActorCriticNetwork/torso/blocks_1/while/body/add"(#loc525))
#loc545 = loc(callsite(#loc200 at #loc526))
#loc546 = loc(callsite(#loc206 at #loc527))
#loc547 = loc(callsite(#loc206 at #loc528))
#loc548 = loc("jit:"(#loc530))
#loc549 = loc("jit:"(#loc531))
#loc550 = loc("jit:"(#loc532))
#loc551 = loc("jit(init)/MaskedActorCriticNetwork/torso/blocks_1/transpose"(#loc535))
#loc552 = loc(callsite(#loc188 at #loc536))
#loc553 = loc(callsite(#loc192 at #loc537))
#loc554 = loc(callsite(#loc194 at #loc537))
#loc555 = loc(callsite(#loc195 at #loc537))
#loc556 = loc(callsite(#loc196 at #loc537))
#loc557 = loc(callsite(#loc197 at #loc537))
#loc558 = loc(callsite(#loc198 at #loc537))
#loc559 = loc("jit(init)/MaskedActorCriticNetwork/torso/blocks_1/transpose"(#loc545))
#loc560 = loc("jit(init)/broadcast_in_dim"(#loc546))
#loc561 = loc("jit(init)/broadcast_in_dim"(#loc547))
#loc562 = loc(callsite(#loc187 at #loc552))
#loc563 = loc(callsite(#loc167 at #loc553))
#loc564 = loc(callsite(#loc170 at #loc553))
#loc565 = loc(callsite(#loc167 at #loc554))
#loc566 = loc(callsite(#loc167 at #loc555))
#loc567 = loc(callsite(#loc170 at #loc555))
#loc568 = loc(callsite(#loc167 at #loc556))
#loc569 = loc(callsite(#loc167 at #loc557))
#loc570 = loc(callsite(#loc170 at #loc557))
#loc571 = loc(callsite(#loc167 at #loc558))
#loc572 = loc(callsite(#loc170 at #loc558))
#loc573 = loc("jit(init)/MaskedActorCriticNetwork/torso/blocks_1/cell.scan_fn/jit(_where)"(#loc562))
#loc574 = loc(callsite(#loc255 at #loc563))
#loc575 = loc("jit(init)/MaskedActorCriticNetwork/torso/blocks_1/cell.scan_fn/cell/ir/sqrt"(#loc563))
#loc576 = loc("jit(init)/MaskedActorCriticNetwork/torso/blocks_1/cell.scan_fn/cell/ir/div"(#loc563))
#loc577 = loc("jit(init)/MaskedActorCriticNetwork/torso/blocks_1/cell.scan_fn/cell/ir/jit(_truncated_normal)"(#loc563))
#loc578 = loc("jit(init)/MaskedActorCriticNetwork/torso/blocks_1/cell.scan_fn/cell/ir/mul"(#loc563))
#loc579 = loc(callsite(#loc255 at #loc564))
#loc580 = loc("jit(init)/MaskedActorCriticNetwork/torso/blocks_1/cell.scan_fn/cell/ir/broadcast_in_dim"(#loc564))
#loc581 = loc(callsite(#loc255 at #loc565))
#loc582 = loc("jit(init)/MaskedActorCriticNetwork/torso/blocks_1/cell.scan_fn/cell/hr/sqrt"(#loc565))
#loc583 = loc("jit(init)/MaskedActorCriticNetwork/torso/blocks_1/cell.scan_fn/cell/hr/div"(#loc565))
#loc584 = loc("jit(init)/MaskedActorCriticNetwork/torso/blocks_1/cell.scan_fn/cell/hr/jit(_truncated_normal)"(#loc565))
#loc585 = loc("jit(init)/MaskedActorCriticNetwork/torso/blocks_1/cell.scan_fn/cell/hr/mul"(#loc565))
#loc586 = loc(callsite(#loc255 at #loc566))
#loc587 = loc("jit(init)/MaskedActorCriticNetwork/torso/blocks_1/cell.scan_fn/cell/iz/sqrt"(#loc566))
#loc588 = loc("jit(init)/MaskedActorCriticNetwork/torso/blocks_1/cell.scan_fn/cell/iz/div"(#loc566))
#loc589 = loc("jit(init)/MaskedActorCriticNetwork/torso/blocks_1/cell.scan_fn/cell/iz/jit(_truncated_normal)"(#loc566))
#loc590 = loc("jit(init)/MaskedActorCriticNetwork/torso/blocks_1/cell.scan_fn/cell/iz/mul"(#loc566))
#loc591 = loc(callsite(#loc255 at #loc567))
#loc592 = loc("jit(init)/MaskedActorCriticNetwork/torso/blocks_1/cell.scan_fn/cell/iz/broadcast_in_dim"(#loc567))
#loc593 = loc(callsite(#loc255 at #loc568))
#loc594 = loc("jit(init)/MaskedActorCriticNetwork/torso/blocks_1/cell.scan_fn/cell/hz/sqrt"(#loc568))
#loc595 = loc("jit(init)/MaskedActorCriticNetwork/torso/blocks_1/cell.scan_fn/cell/hz/div"(#loc568))
#loc596 = loc("jit(init)/MaskedActorCriticNetwork/torso/blocks_1/cell.scan_fn/cell/hz/jit(_truncated_normal)"(#loc568))
#loc597 = loc("jit(init)/MaskedActorCriticNetwork/torso/blocks_1/cell.scan_fn/cell/hz/mul"(#loc568))
#loc598 = loc(callsite(#loc255 at #loc569))
#loc599 = loc("jit(init)/MaskedActorCriticNetwork/torso/blocks_1/cell.scan_fn/cell/in/sqrt"(#loc569))
#loc600 = loc("jit(init)/MaskedActorCriticNetwork/torso/blocks_1/cell.scan_fn/cell/in/div"(#loc569))
#loc601 = loc("jit(init)/MaskedActorCriticNetwork/torso/blocks_1/cell.scan_fn/cell/in/jit(_truncated_normal)"(#loc569))
#loc602 = loc("jit(init)/MaskedActorCriticNetwork/torso/blocks_1/cell.scan_fn/cell/in/mul"(#loc569))
#loc603 = loc(callsite(#loc255 at #loc570))
#loc604 = loc("jit(init)/MaskedActorCriticNetwork/torso/blocks_1/cell.scan_fn/cell/in/broadcast_in_dim"(#loc570))
#loc605 = loc(callsite(#loc255 at #loc571))
#loc606 = loc("jit(init)/MaskedActorCriticNetwork/torso/blocks_1/cell.scan_fn/cell/hn/sqrt"(#loc571))
#loc607 = loc("jit(init)/MaskedActorCriticNetwork/torso/blocks_1/cell.scan_fn/cell/hn/div"(#loc571))
#loc608 = loc("jit(init)/MaskedActorCriticNetwork/torso/blocks_1/cell.scan_fn/cell/hn/jit(_truncated_normal)"(#loc571))
#loc609 = loc("jit(init)/MaskedActorCriticNetwork/torso/blocks_1/cell.scan_fn/cell/hn/mul"(#loc571))
#loc610 = loc(callsite(#loc255 at #loc572))
#loc611 = loc("jit(init)/MaskedActorCriticNetwork/torso/blocks_1/cell.scan_fn/cell/hn/broadcast_in_dim"(#loc572))
#loc612 = loc("jit(init)/MaskedActorCriticNetwork/torso/blocks_1/cell.scan_fn/jit"(#loc562))
#loc613 = loc("jit(init)/MaskedActorCriticNetwork/torso/blocks_1/cell.scan_fn/cell/ir/jit"(#loc563))
#loc614 = loc("jit(init)/MaskedActorCriticNetwork/torso/blocks_1/cell.scan_fn/cell/ir/jit(_threefry_fold_in)"(#loc574))
#loc615 = loc("jit(init)/MaskedActorCriticNetwork/torso/blocks_1/cell.scan_fn/cell/ir/jit(_threefry_fold_in)"(#loc579))
#loc616 = loc("jit(init)/MaskedActorCriticNetwork/torso/blocks_1/cell.scan_fn/cell/hr/jit(_threefry_fold_in)"(#loc581))
#loc617 = loc("jit(init)/MaskedActorCriticNetwork/torso/blocks_1/cell.scan_fn/cell/iz/jit(_threefry_fold_in)"(#loc586))
#loc618 = loc("jit(init)/MaskedActorCriticNetwork/torso/blocks_1/cell.scan_fn/cell/iz/jit(_threefry_fold_in)"(#loc591))
#loc619 = loc("jit(init)/MaskedActorCriticNetwork/torso/blocks_1/cell.scan_fn/cell/hz/jit(_threefry_fold_in)"(#loc593))
#loc620 = loc("jit(init)/MaskedActorCriticNetwork/torso/blocks_1/cell.scan_fn/cell/in/jit(_threefry_fold_in)"(#loc598))
#loc621 = loc("jit(init)/MaskedActorCriticNetwork/torso/blocks_1/cell.scan_fn/cell/in/jit(_threefry_fold_in)"(#loc603))
#loc622 = loc("jit(init)/MaskedActorCriticNetwork/torso/blocks_1/cell.scan_fn/cell/hn/jit(_threefry_fold_in)"(#loc605))
#loc623 = loc("jit(init)/MaskedActorCriticNetwork/torso/blocks_1/cell.scan_fn/cell/hn/jit(_threefry_fold_in)"(#loc610))
#loc624 = loc("jit:"(#loc612))
#loc625 = loc("jit:"(#loc613))
