#loc = loc(unknown)
#loc1 = loc("state.step")
#loc2 = loc("state.timestep.obs")
#loc3 = loc("state.timestep.action")
#loc4 = loc("state.timestep.reward")
#loc5 = loc("state.timestep.terminated")
#loc6 = loc("state.timestep.truncated")
#loc7 = loc("state.timestep.info['fired']")
#loc8 = loc("state.timestep.info['guess_count']")
#loc9 = loc("state.timestep.info['illegal_guesses']")
#loc10 = loc("state.timestep.info['matched_secret']")
#loc11 = loc("state.environment_state.env_state.secret_answer")
#loc12 = loc("state.environment_state.env_state.guess_feedback")
#loc13 = loc("state.environment_state.env_state.guess_revealed")
#loc14 = loc("state.environment_state.env_state.guess_count")
#loc15 = loc("state.environment_state.env_state.matched_secret")
#loc16 = loc("state.environment_state.active")
#loc17 = loc("state.environment_state.arguments")
#loc18 = loc("state.environment_state.cursor")
#loc19 = loc("state.carry[1]")
#loc20 = loc("state.params['params']['feature_extractor']['token_embedding']['embedding']")
#loc21 = loc("state.params['params']['head']['actor']['kernel']")
#loc22 = loc("state.params['params']['head']['critic']['bias']")
#loc23 = loc("state.params['params']['head']['critic']['kernel']")
#loc24 = loc("state.params['params']['torso']['block']['blocks_0']['Dense_0']['bias']")
#loc25 = loc("state.params['params']['torso']['block']['blocks_0']['Dense_0']['kernel']")
#loc26 = loc("state.params['params']['torso']['block']['blocks_1']['cell']['hn']['bias']")
#loc27 = loc("state.params['params']['torso']['block']['blocks_1']['cell']['hn']['kernel']")
#loc28 = loc("state.params['params']['torso']['block']['blocks_1']['cell']['hr']['kernel']")
#loc29 = loc("state.params['params']['torso']['block']['blocks_1']['cell']['hz']['kernel']")
#loc30 = loc("state.params['params']['torso']['block']['blocks_1']['cell']['in']['bias']")
#loc31 = loc("state.params['params']['torso']['block']['blocks_1']['cell']['in']['kernel']")
#loc32 = loc("state.params['params']['torso']['block']['blocks_1']['cell']['ir']['bias']")
#loc33 = loc("state.params['params']['torso']['block']['blocks_1']['cell']['ir']['kernel']")
#loc34 = loc("state.params['params']['torso']['block']['blocks_1']['cell']['iz']['bias']")
#loc35 = loc("state.params['params']['torso']['block']['blocks_1']['cell']['iz']['kernel']")
#loc36 = loc("state.optimizer_state[1][0].count")
#loc37 = loc("state.optimizer_state[1][0].mu['params']['feature_extractor']['token_embedding']['embedding']")
#loc38 = loc("state.optimizer_state[1][0].mu['params']['head']['actor']['kernel']")
#loc39 = loc("state.optimizer_state[1][0].mu['params']['head']['critic']['bias']")
#loc40 = loc("state.optimizer_state[1][0].mu['params']['head']['critic']['kernel']")
#loc41 = loc("state.optimizer_state[1][0].mu['params']['torso']['block']['blocks_0']['Dense_0']['bias']")
#loc42 = loc("state.optimizer_state[1][0].mu['params']['torso']['block']['blocks_0']['Dense_0']['kernel']")
#loc43 = loc("state.optimizer_state[1][0].mu['params']['torso']['block']['blocks_1']['cell']['hn']['bias']")
#loc44 = loc("state.optimizer_state[1][0].mu['params']['torso']['block']['blocks_1']['cell']['hn']['kernel']")
#loc45 = loc("state.optimizer_state[1][0].mu['params']['torso']['block']['blocks_1']['cell']['hr']['kernel']")
#loc46 = loc("state.optimizer_state[1][0].mu['params']['torso']['block']['blocks_1']['cell']['hz']['kernel']")
#loc47 = loc("state.optimizer_state[1][0].mu['params']['torso']['block']['blocks_1']['cell']['in']['bias']")
#loc48 = loc("state.optimizer_state[1][0].mu['params']['torso']['block']['blocks_1']['cell']['in']['kernel']")
#loc49 = loc("state.optimizer_state[1][0].mu['params']['torso']['block']['blocks_1']['cell']['ir']['bias']")
#loc50 = loc("state.optimizer_state[1][0].mu['params']['torso']['block']['blocks_1']['cell']['ir']['kernel']")
#loc51 = loc("state.optimizer_state[1][0].mu['params']['torso']['block']['blocks_1']['cell']['iz']['bias']")
#loc52 = loc("state.optimizer_state[1][0].mu['params']['torso']['block']['blocks_1']['cell']['iz']['kernel']")
#loc53 = loc("state.optimizer_state[1][0].nu['params']['feature_extractor']['token_embedding']['embedding']")
#loc54 = loc("state.optimizer_state[1][0].nu['params']['head']['actor']['kernel']")
#loc55 = loc("state.optimizer_state[1][0].nu['params']['head']['critic']['bias']")
#loc56 = loc("state.optimizer_state[1][0].nu['params']['head']['critic']['kernel']")
#loc57 = loc("state.optimizer_state[1][0].nu['params']['torso']['block']['blocks_0']['Dense_0']['bias']")
#loc58 = loc("state.optimizer_state[1][0].nu['params']['torso']['block']['blocks_0']['Dense_0']['kernel']")
#loc59 = loc("state.optimizer_state[1][0].nu['params']['torso']['block']['blocks_1']['cell']['hn']['bias']")
#loc60 = loc("state.optimizer_state[1][0].nu['params']['torso']['block']['blocks_1']['cell']['hn']['kernel']")
#loc61 = loc("state.optimizer_state[1][0].nu['params']['torso']['block']['blocks_1']['cell']['hr']['kernel']")
#loc62 = loc("state.optimizer_state[1][0].nu['params']['torso']['block']['blocks_1']['cell']['hz']['kernel']")
#loc63 = loc("state.optimizer_state[1][0].nu['params']['torso']['block']['blocks_1']['cell']['in']['bias']")
#loc64 = loc("state.optimizer_state[1][0].nu['params']['torso']['block']['blocks_1']['cell']['in']['kernel']")
#loc65 = loc("state.optimizer_state[1][0].nu['params']['torso']['block']['blocks_1']['cell']['ir']['bias']")
#loc66 = loc("state.optimizer_state[1][0].nu['params']['torso']['block']['blocks_1']['cell']['ir']['kernel']")
#loc67 = loc("state.optimizer_state[1][0].nu['params']['torso']['block']['blocks_1']['cell']['iz']['bias']")
#loc68 = loc("state.optimizer_state[1][0].nu['params']['torso']['block']['blocks_1']['cell']['iz']['kernel']")
#loc69 = loc("key")
#loc75 = loc("/Users/noahfarr/noahfarr.github.io/tools/whlo/export_ppo_wordle.py":192:23 to :63)
#loc77 = loc("/Users/noahfarr/reinforcement-learning/src/algorithms/algorithms/recurrent_ppo.py":268:20 to :66)
#loc95 = loc("scatter")
#loc132 = loc("/Users/noahfarr/reinforcement-learning/src/algorithms/algorithms/recurrent_ppo.py":290:21 to :72)
#loc166 = loc("/Users/noahfarr/reinforcement-learning/.venv/lib/python3.13/site-packages/distrax/_src/distributions/distribution.py":77:14 to :36)
#loc167 = loc("/Users/noahfarr/reinforcement-learning/.venv/lib/python3.13/site-packages/distrax/_src/distributions/distribution.py":174:24 to :69)
#loc168 = loc("/Users/noahfarr/reinforcement-learning/.venv/lib/python3.13/site-packages/distrax/_src/distributions/independent.py":104:24 to 105:33)
#loc169 = loc("/Users/noahfarr/reinforcement-learning/src/algorithms/algorithms/recurrent_ppo.py":80:27 to :68)
#loc172 = loc("/Users/noahfarr/reinforcement-learning/src/policies/policies/distributions.py":15:16 to :76)
#loc193 = loc("/Users/noahfarr/reinforcement-learning/src/algorithms/algorithms/recurrent_ppo.py":85:38 to 87:9)
#loc195 = loc("/Users/noahfarr/reinforcement-learning/src/environments/environments/wrappers/vectorize.py":32:15 to 34:9)
#loc198 = loc("/Users/noahfarr/reinforcement-learning/src/environments/environments/wrappers/same_step_auto_reset.py":17:40 to :87)
#loc235 = loc("scatter-add")
#loc255 = loc("/Users/noahfarr/reinforcement-learning/src/environments/environments/wrappers/mcp.py":105:29 to :57)
#loc258 = loc("/Users/noahfarr/noahfarr.github.io/tools/whlo/export_ppo_wordle.py":74:49 to :65)
#loc332 = loc("reduce")
#loc354 = loc("vmap()")
#loc376 = loc("sort")
#loc480 = loc("main.<locals>.train_step"(#loc75))
#loc482 = loc("RecurrentPPO.update_step"(#loc77))
#loc500 = loc("scatter:"(#loc95))
#loc537 = loc("RecurrentPPO.update_step"(#loc132))
#loc557 = loc("Distribution._sample_n_and_log_prob"(#loc166))
#loc558 = loc("Distribution.sample_and_log_prob"(#loc167))
#loc559 = loc("Independent._sample_n_and_log_prob"(#loc168))
#loc560 = loc("RecurrentPPO.rollout"(#loc169))
#loc563 = loc("Categorical._sample_n"(#loc172))
#loc584 = loc("RecurrentPPO.rollout"(#loc193))
#loc586 = loc("Vectorize.step"(#loc195))
#loc589 = loc("SameStepAutoReset.step"(#loc198))
#loc626 = loc("scatter-add:"(#loc235))
#loc646 = loc("MCP.step"(#loc255))
#loc649 = loc("to_tokens"(#loc258))
#loc702 = loc("reduce:"(#loc332))
#loc729 = loc("sort:"(#loc376))
#loc825 = loc(callsite(#loc482 at #loc480))
#loc829 = loc(callsite(#loc537 at #loc480))
#loc842 = loc(callsite(#loc558 at #loc560))
#loc849 = loc(callsite(#loc586 at #loc584))
#loc1001 = loc(callsite(#loc559 at #loc842))
#loc1011 = loc(callsite(#loc589 at #loc849))
#loc1196 = loc(callsite(#loc558 at #loc1001))
#loc1223 = loc(callsite(#loc646 at #loc1011))
#loc1396 = loc(callsite(#loc557 at #loc1196))
#loc1441 = loc(callsite(#loc649 at #loc1223))
#loc1697 = loc(callsite(#loc563 at #loc1396))
#loc1740 = loc("vmap()"(#loc1441))
module @jit_train_step attributes {jax.uses_shape_polymorphism = false, mhlo.num_partitions = 1 : i32, mhlo.num_replicas = 1 : i32} {
  func.func public @main(%arg0: tensor<i32> loc("state.step"), %arg1: tensor<16x5xi32> loc("state.timestep.obs"), %arg2: tensor<16xi32> loc("state.timestep.action"), %arg3: tensor<16xf32> loc("state.timestep.reward"), %arg4: tensor<16xi1> loc("state.timestep.terminated"), %arg5: tensor<16xi1> loc("state.timestep.truncated"), %arg6: tensor<16xf32> loc("state.timestep.info['fired']"), %arg7: tensor<16xf32> loc("state.timestep.info['guess_count']"), %arg8: tensor<16xf32> loc("state.timestep.info['illegal_guesses']"), %arg9: tensor<16xf32> loc("state.timestep.info['matched_secret']"), %arg10: tensor<16x5xi32> loc("state.environment_state.env_state.secret_answer"), %arg11: tensor<16x5xi32> loc("state.environment_state.env_state.guess_feedback"), %arg12: tensor<16xi1> loc("state.environment_state.env_state.guess_revealed"), %arg13: tensor<16xi32> loc("state.environment_state.env_state.guess_count"), %arg14: tensor<16xi1> loc("state.environment_state.env_state.matched_secret"), %arg15: tensor<16xi1> loc("state.environment_state.active"), %arg16: tensor<16x5xi32> loc("state.environment_state.arguments"), %arg17: tensor<16xi32> loc("state.environment_state.cursor"), %arg18: tensor<16x16xf32> loc("state.carry[1]"), %arg19: tensor<33x16xf32> loc("state.params['params']['feature_extractor']['token_embedding']['embedding']"), %arg20: tensor<16x33xf32> loc("state.params['params']['head']['actor']['kernel']"), %arg21: tensor<1xf32> loc("state.params['params']['head']['critic']['bias']"), %arg22: tensor<16x1xf32> loc("state.params['params']['head']['critic']['kernel']"), %arg23: tensor<16xf32> loc("state.params['params']['torso']['block']['blocks_0']['Dense_0']['bias']"), %arg24: tensor<16x16xf32> loc("state.params['params']['torso']['block']['blocks_0']['Dense_0']['kernel']"), %arg25: tensor<16xf32> loc("state.params['params']['torso']['block']['blocks_1']['cell']['hn']['bias']"), %arg26: tensor<16x16xf32> loc("state.params['params']['torso']['block']['blocks_1']['cell']['hn']['kernel']"), %arg27: tensor<16x16xf32> loc("state.params['params']['torso']['block']['blocks_1']['cell']['hr']['kernel']"), %arg28: tensor<16x16xf32> loc("state.params['params']['torso']['block']['blocks_1']['cell']['hz']['kernel']"), %arg29: tensor<16xf32> loc("state.params['params']['torso']['block']['blocks_1']['cell']['in']['bias']"), %arg30: tensor<16x16xf32> loc("state.params['params']['torso']['block']['blocks_1']['cell']['in']['kernel']"), %arg31: tensor<16xf32> loc("state.params['params']['torso']['block']['blocks_1']['cell']['ir']['bias']"), %arg32: tensor<16x16xf32> loc("state.params['params']['torso']['block']['blocks_1']['cell']['ir']['kernel']"), %arg33: tensor<16xf32> loc("state.params['params']['torso']['block']['blocks_1']['cell']['iz']['bias']"), %arg34: tensor<16x16xf32> loc("state.params['params']['torso']['block']['blocks_1']['cell']['iz']['kernel']"), %arg35: tensor<i32> loc("state.optimizer_state[1][0].count"), %arg36: tensor<33x16xf32> loc("state.optimizer_state[1][0].mu['params']['feature_extractor']['token_embedding']['embedding']"), %arg37: tensor<16x33xf32> loc("state.optimizer_state[1][0].mu['params']['head']['actor']['kernel']"), %arg38: tensor<1xf32> loc("state.optimizer_state[1][0].mu['params']['head']['critic']['bias']"), %arg39: tensor<16x1xf32> loc("state.optimizer_state[1][0].mu['params']['head']['critic']['kernel']"), %arg40: tensor<16xf32> loc("state.optimizer_state[1][0].mu['params']['torso']['block']['blocks_0']['Dense_0']['bias']"), %arg41: tensor<16x16xf32> loc("state.optimizer_state[1][0].mu['params']['torso']['block']['blocks_0']['Dense_0']['kernel']"), %arg42: tensor<16xf32> loc("state.optimizer_state[1][0].mu['params']['torso']['block']['blocks_1']['cell']['hn']['bias']"), %arg43: tensor<16x16xf32> loc("state.optimizer_state[1][0].mu['params']['torso']['block']['blocks_1']['cell']['hn']['kernel']"), %arg44: tensor<16x16xf32> loc("state.optimizer_state[1][0].mu['params']['torso']['block']['blocks_1']['cell']['hr']['kernel']"), %arg45: tensor<16x16xf32> loc("state.optimizer_state[1][0].mu['params']['torso']['block']['blocks_1']['cell']['hz']['kernel']"), %arg46: tensor<16xf32> loc("state.optimizer_state[1][0].mu['params']['torso']['block']['blocks_1']['cell']['in']['bias']"), %arg47: tensor<16x16xf32> loc("state.optimizer_state[1][0].mu['params']['torso']['block']['blocks_1']['cell']['in']['kernel']"), %arg48: tensor<16xf32> loc("state.optimizer_state[1][0].mu['params']['torso']['block']['blocks_1']['cell']['ir']['bias']"), %arg49: tensor<16x16xf32> loc("state.optimizer_state[1][0].mu['params']['torso']['block']['blocks_1']['cell']['ir']['kernel']"), %arg50: tensor<16xf32> loc("state.optimizer_state[1][0].mu['params']['torso']['block']['blocks_1']['cell']['iz']['bias']"), %arg51: tensor<16x16xf32> loc("state.optimizer_state[1][0].mu['params']['torso']['block']['blocks_1']['cell']['iz']['kernel']"), %arg52: tensor<33x16xf32> loc("state.optimizer_state[1][0].nu['params']['feature_extractor']['token_embedding']['embedding']"), %arg53: tensor<16x33xf32> loc("state.optimizer_state[1][0].nu['params']['head']['actor']['kernel']"), %arg54: tensor<1xf32> loc("state.optimizer_state[1][0].nu['params']['head']['critic']['bias']"), %arg55: tensor<16x1xf32> loc("state.optimizer_state[1][0].nu['params']['head']['critic']['kernel']"), %arg56: tensor<16xf32> loc("state.optimizer_state[1][0].nu['params']['torso']['block']['blocks_0']['Dense_0']['bias']"), %arg57: tensor<16x16xf32> loc("state.optimizer_state[1][0].nu['params']['torso']['block']['blocks_0']['Dense_0']['kernel']"), %arg58: tensor<16xf32> loc("state.optimizer_state[1][0].nu['params']['torso']['block']['blocks_1']['cell']['hn']['bias']"), %arg59: tensor<16x16xf32> loc("state.optimizer_state[1][0].nu['params']['torso']['block']['blocks_1']['cell']['hn']['kernel']"), %arg60: tensor<16x16xf32> loc("state.optimizer_state[1][0].nu['params']['torso']['block']['blocks_1']['cell']['hr']['kernel']"), %arg61: tensor<16x16xf32> loc("state.optimizer_state[1][0].nu['params']['torso']['block']['blocks_1']['cell']['hz']['kernel']"), %arg62: tensor<16xf32> loc("state.optimizer_state[1][0].nu['params']['torso']['block']['blocks_1']['cell']['in']['bias']"), %arg63: tensor<16x16xf32> loc("state.optimizer_state[1][0].nu['params']['torso']['block']['blocks_1']['cell']['in']['kernel']"), %arg64: tensor<16xf32> loc("state.optimizer_state[1][0].nu['params']['torso']['block']['blocks_1']['cell']['ir']['bias']"), %arg65: tensor<16x16xf32> loc("state.optimizer_state[1][0].nu['params']['torso']['block']['blocks_1']['cell']['ir']['kernel']"), %arg66: tensor<16xf32> loc("state.optimizer_state[1][0].nu['params']['torso']['block']['blocks_1']['cell']['iz']['bias']"), %arg67: tensor<16x16xf32> loc("state.optimizer_state[1][0].nu['params']['torso']['block']['blocks_1']['cell']['iz']['kernel']"), %arg68: tensor<2xui32> loc("key")) -> (tensor<i32> {jax.result_info = "result[0].step"}, tensor<16x5xi32> {jax.result_info = "result[0].timestep.obs"}, tensor<16xi32> {jax.result_info = "result[0].timestep.action"}, tensor<16xf32> {jax.result_info = "result[0].timestep.reward"}, tensor<16xi1> {jax.result_info = "result[0].timestep.terminated"}, tensor<16xi1> {jax.result_info = "result[0].timestep.truncated"}, tensor<16xf32> {jax.result_info = "result[0].timestep.info['fired']"}, tensor<16xf32> {jax.result_info = "result[0].timestep.info['guess_count']"}, tensor<16xf32> {jax.result_info = "result[0].timestep.info['illegal_guesses']"}, tensor<16xf32> {jax.result_info = "result[0].timestep.info['matched_secret']"}, tensor<16x5xi32> {jax.result_info = "result[0].environment_state.env_state.secret_answer"}, tensor<16x5xi32> {jax.result_info = "result[0].environment_state.env_state.guess_feedback"}, tensor<16xi1> {jax.result_info = "result[0].environment_state.env_state.guess_revealed"}, tensor<16xi32> {jax.result_info = "result[0].environment_state.env_state.guess_count"}, tensor<16xi1> {jax.result_info = "result[0].environment_state.env_state.matched_secret"}, tensor<16xi1> {jax.result_info = "result[0].environment_state.active"}, tensor<16x5xi32> {jax.result_info = "result[0].environment_state.arguments"}, tensor<16xi32> {jax.result_info = "result[0].environment_state.cursor"}, tensor<16x16xf32> {jax.result_info = "result[0].carry[1]"}, tensor<33x16xf32> {jax.result_info = "result[0].params['params']['feature_extractor']['token_embedding']['embedding']"}, tensor<16x33xf32> {jax.result_info = "result[0].params['params']['head']['actor']['kernel']"}, tensor<1xf32> {jax.result_info = "result[0].params['params']['head']['critic']['bias']"}, tensor<16x1xf32> {jax.result_info = "result[0].params['params']['head']['critic']['kernel']"}, tensor<16xf32> {jax.result_info = "result[0].params['params']['torso']['block']['blocks_0']['Dense_0']['bias']"}, tensor<16x16xf32> {jax.result_info = "result[0].params['params']['torso']['block']['blocks_0']['Dense_0']['kernel']"}, tensor<16xf32> {jax.result_info = "result[0].params['params']['torso']['block']['blocks_1']['cell']['hn']['bias']"}, tensor<16x16xf32> {jax.result_info = "result[0].params['params']['torso']['block']['blocks_1']['cell']['hn']['kernel']"}, tensor<16x16xf32> {jax.result_info = "result[0].params['params']['torso']['block']['blocks_1']['cell']['hr']['kernel']"}, tensor<16x16xf32> {jax.result_info = "result[0].params['params']['torso']['block']['blocks_1']['cell']['hz']['kernel']"}, tensor<16xf32> {jax.result_info = "result[0].params['params']['torso']['block']['blocks_1']['cell']['in']['bias']"}, tensor<16x16xf32> {jax.result_info = "result[0].params['params']['torso']['block']['blocks_1']['cell']['in']['kernel']"}, tensor<16xf32> {jax.result_info = "result[0].params['params']['torso']['block']['blocks_1']['cell']['ir']['bias']"}, tensor<16x16xf32> {jax.result_info = "result[0].params['params']['torso']['block']['blocks_1']['cell']['ir']['kernel']"}, tensor<16xf32> {jax.result_info = "result[0].params['params']['torso']['block']['blocks_1']['cell']['iz']['bias']"}, tensor<16x16xf32> {jax.result_info = "result[0].params['params']['torso']['block']['blocks_1']['cell']['iz']['kernel']"}, tensor<i32> {jax.result_info = "result[0].optimizer_state[1][0].count"}, tensor<33x16xf32> {jax.result_info = "result[0].optimizer_state[1][0].mu['params']['feature_extractor']['token_embedding']['embedding']"}, tensor<16x33xf32> {jax.result_info = "result[0].optimizer_state[1][0].mu['params']['head']['actor']['kernel']"}, tensor<1xf32> {jax.result_info = "result[0].optimizer_state[1][0].mu['params']['head']['critic']['bias']"}, tensor<16x1xf32> {jax.result_info = "result[0].optimizer_state[1][0].mu['params']['head']['critic']['kernel']"}, tensor<16xf32> {jax.result_info = "result[0].optimizer_state[1][0].mu['params']['torso']['block']['blocks_0']['Dense_0']['bias']"}, tensor<16x16xf32> {jax.result_info = "result[0].optimizer_state[1][0].mu['params']['torso']['block']['blocks_0']['Dense_0']['kernel']"}, tensor<16xf32> {jax.result_info = "result[0].optimizer_state[1][0].mu['params']['torso']['block']['blocks_1']['cell']['hn']['bias']"}, tensor<16x16xf32> {jax.result_info = "result[0].optimizer_state[1][0].mu['params']['torso']['block']['blocks_1']['cell']['hn']['kernel']"}, tensor<16x16xf32> {jax.result_info = "result[0].optimizer_state[1][0].mu['params']['torso']['block']['blocks_1']['cell']['hr']['kernel']"}, tensor<16x16xf32> {jax.result_info = "result[0].optimizer_state[1][0].mu['params']['torso']['block']['blocks_1']['cell']['hz']['kernel']"}, tensor<16xf32> {jax.result_info = "result[0].optimizer_state[1][0].mu['params']['torso']['block']['blocks_1']['cell']['in']['bias']"}, tensor<16x16xf32> {jax.result_info = "result[0].optimizer_state[1][0].mu['params']['torso']['block']['blocks_1']['cell']['in']['kernel']"}, tensor<16xf32> {jax.result_info = "result[0].optimizer_state[1][0].mu['params']['torso']['block']['blocks_1']['cell']['ir']['bias']"}, tensor<16x16xf32> {jax.result_info = "result[0].optimizer_state[1][0].mu['params']['torso']['block']['blocks_1']['cell']['ir']['kernel']"}, tensor<16xf32> {jax.result_info = "result[0].optimizer_state[1][0].mu['params']['torso']['block']['blocks_1']['cell']['iz']['bias']"}, tensor<16x16xf32> {jax.result_info = "result[0].optimizer_state[1][0].mu['params']['torso']['block']['blocks_1']['cell']['iz']['kernel']"}, tensor<33x16xf32> {jax.result_info = "result[0].optimizer_state[1][0].nu['params']['feature_extractor']['token_embedding']['embedding']"}, tensor<16x33xf32> {jax.result_info = "result[0].optimizer_state[1][0].nu['params']['head']['actor']['kernel']"}, tensor<1xf32> {jax.result_info = "result[0].optimizer_state[1][0].nu['params']['head']['critic']['bias']"}, tensor<16x1xf32> {jax.result_info = "result[0].optimizer_state[1][0].nu['params']['head']['critic']['kernel']"}, tensor<16xf32> {jax.result_info = "result[0].optimizer_state[1][0].nu['params']['torso']['block']['blocks_0']['Dense_0']['bias']"}, tensor<16x16xf32> {jax.result_info = "result[0].optimizer_state[1][0].nu['params']['torso']['block']['blocks_0']['Dense_0']['kernel']"}, tensor<16xf32> {jax.result_info = "result[0].optimizer_state[1][0].nu['params']['torso']['block']['blocks_1']['cell']['hn']['bias']"}, tensor<16x16xf32> {jax.result_info = "result[0].optimizer_state[1][0].nu['params']['torso']['block']['blocks_1']['cell']['hn']['kernel']"}, tensor<16x16xf32> {jax.result_info = "result[0].optimizer_state[1][0].nu['params']['torso']['block']['blocks_1']['cell']['hr']['kernel']"}, tensor<16x16xf32> {jax.result_info = "result[0].optimizer_state[1][0].nu['params']['torso']['block']['blocks_1']['cell']['hz']['kernel']"}, tensor<16xf32> {jax.result_info = "result[0].optimizer_state[1][0].nu['params']['torso']['block']['blocks_1']['cell']['in']['bias']"}, tensor<16x16xf32> {jax.result_info = "result[0].optimizer_state[1][0].nu['params']['torso']['block']['blocks_1']['cell']['in']['kernel']"}, tensor<16xf32> {jax.result_info = "result[0].optimizer_state[1][0].nu['params']['torso']['block']['blocks_1']['cell']['ir']['bias']"}, tensor<16x16xf32> {jax.result_info = "result[0].optimizer_state[1][0].nu['params']['torso']['block']['blocks_1']['cell']['ir']['kernel']"}, tensor<16xf32> {jax.result_info = "result[0].optimizer_state[1][0].nu['params']['torso']['block']['blocks_1']['cell']['iz']['bias']"}, tensor<16x16xf32> {jax.result_info = "result[0].optimizer_state[1][0].nu['params']['torso']['block']['blocks_1']['cell']['iz']['kernel']"}, tensor<f32> {jax.result_info = "result[1]"}) {
    %cst = stablehlo.constant dense<2.560000e+02> : tensor<f32> loc(#loc960)
    %c = stablehlo.constant dense<6> : tensor<i32> loc(#loc)
    %c_0 = stablehlo.constant dense<1> : tensor<i32> loc(#loc)
    %c_1 = stablehlo.constant dense<16> : tensor<i32> loc(#loc)
    %c_2 = stablehlo.constant dense<false> : tensor<i1> loc(#loc)
    %cst_3 = stablehlo.constant dense<0.000000e+00> : tensor<f32> loc(#loc)
    %c_4 = stablehlo.constant dense<0> : tensor<i32> loc(#loc)
    %c_5 = stablehlo.constant dense<[1613312, 1732200, 1881040, 2056836, 2091992, 2158163, 2162152, 2267596, 4610763, 5792480, 6194979, 6540820, 7909384, 8911333, 8916731, 9008823]> : tensor<16xi32> loc(#loc960)
    %c_6 = stablehlo.constant dense<[[0, 20, 3, 8, 14], [1, 17, 8, 2, 10], [2, 7, 0, 8, 17], [2, 11, 14, 20, 3], [2, 17, 0, 13, 4], [5, 11, 8, 13, 19], [5, 17, 14, 18, 19], [6, 11, 0, 25, 4], [6, 17, 0, 15, 4], [7, 14, 20, 18, 4], [11, 4, 12, 14, 13], [12, 14, 20, 13, 3], [15, 11, 0, 13, 19], [18, 11, 0, 19, 4], [18, 15, 0, 3, 4], [18, 19, 14, 17, 12]]> : tensor<16x5xi32> loc(#loc960)
    %0 = call @_threefry_split(%arg68) : (tensor<2xui32>) -> tensor<2x2xui32> loc(#loc1359)
    %1 = stablehlo.slice %0 [0:1, 0:2] : (tensor<2x2xui32>) -> tensor<1x2xui32> loc(#loc1152)
    %2 = stablehlo.reshape %1 : (tensor<1x2xui32>) -> tensor<2xui32> loc(#loc1153)
    %3 = stablehlo.slice %0 [1:2, 0:2] : (tensor<2x2xui32>) -> tensor<1x2xui32> loc(#loc1152)
    %4 = stablehlo.reshape %3 : (tensor<1x2xui32>) -> tensor<2xui32> loc(#loc1153)
    %5 = call @_threefry_split(%2) : (tensor<2xui32>) -> tensor<2x2xui32> loc(#loc1645)
    %6 = stablehlo.slice %5 [0:1, 0:2] : (tensor<2x2xui32>) -> tensor<1x2xui32> loc(#loc1361)
    %7 = stablehlo.reshape %6 : (tensor<1x2xui32>) -> tensor<2xui32> loc(#loc1362)
    %8 = stablehlo.slice %5 [1:2, 0:2] : (tensor<2x2xui32>) -> tensor<1x2xui32> loc(#loc1361)
    %9 = stablehlo.reshape %8 : (tensor<1x2xui32>) -> tensor<2xui32> loc(#loc1362)
    %10 = call @_threefry_split_0(%7) : (tensor<2xui32>) -> tensor<16x2xui32> loc(#loc1646)
    %11 = stablehlo.broadcast_in_dim %c_4, dims = [] : (tensor<i32>) -> tensor<16x16x5xi32> loc(#loc1647)
    %12 = stablehlo.broadcast_in_dim %c_4, dims = [] : (tensor<i32>) -> tensor<16x16xi32> loc(#loc1647)
    %13 = stablehlo.broadcast_in_dim %cst_3, dims = [] : (tensor<f32>) -> tensor<16x16xf32> loc(#loc1647)
    %14 = stablehlo.broadcast_in_dim %c_2, dims = [] : (tensor<i1>) -> tensor<16x16xi1> loc(#loc1647)
    %15 = stablehlo.broadcast_in_dim %c_2, dims = [] : (tensor<i1>) -> tensor<16x16xi1> loc(#loc1647)
    %16 = stablehlo.broadcast_in_dim %cst_3, dims = [] : (tensor<f32>) -> tensor<16x16xf32> loc(#loc1647)
    %17 = stablehlo.broadcast_in_dim %cst_3, dims = [] : (tensor<f32>) -> tensor<16x16xf32> loc(#loc1647)
    %18 = stablehlo.broadcast_in_dim %cst_3, dims = [] : (tensor<f32>) -> tensor<16x16xf32> loc(#loc1647)
    %19 = stablehlo.broadcast_in_dim %cst_3, dims = [] : (tensor<f32>) -> tensor<16x16xf32> loc(#loc1647)
    %20 = stablehlo.broadcast_in_dim %c_4, dims = [] : (tensor<i32>) -> tensor<16x16x5xi32> loc(#loc1647)
    %21 = stablehlo.broadcast_in_dim %c_4, dims = [] : (tensor<i32>) -> tensor<16x16xi32> loc(#loc1647)
    %22 = stablehlo.broadcast_in_dim %cst_3, dims = [] : (tensor<f32>) -> tensor<16x16xf32> loc(#loc1647)
    %23 = stablehlo.broadcast_in_dim %c_2, dims = [] : (tensor<i1>) -> tensor<16x16xi1> loc(#loc1647)
    %24 = stablehlo.broadcast_in_dim %c_2, dims = [] : (tensor<i1>) -> tensor<16x16xi1> loc(#loc1647)
    %25 = stablehlo.broadcast_in_dim %cst_3, dims = [] : (tensor<f32>) -> tensor<16x16xf32> loc(#loc1647)
    %26 = stablehlo.broadcast_in_dim %cst_3, dims = [] : (tensor<f32>) -> tensor<16x16xf32> loc(#loc1647)
    %27 = stablehlo.broadcast_in_dim %cst_3, dims = [] : (tensor<f32>) -> tensor<16x16xf32> loc(#loc1647)
    %28 = stablehlo.broadcast_in_dim %cst_3, dims = [] : (tensor<f32>) -> tensor<16x16xf32> loc(#loc1647)
    %29 = stablehlo.broadcast_in_dim %cst_3, dims = [] : (tensor<f32>) -> tensor<16x16xf32> loc(#loc1647)
    %30 = stablehlo.broadcast_in_dim %cst_3, dims = [] : (tensor<f32>) -> tensor<16x16xf32> loc(#loc1647)
    %31:92 = stablehlo.while(%iterArg = %10, %iterArg_7 = %arg19, %iterArg_8 = %arg20, %iterArg_9 = %arg21, %iterArg_10 = %arg22, %iterArg_11 = %arg23, %iterArg_12 = %arg24, %iterArg_13 = %arg25, %iterArg_14 = %arg26, %iterArg_15 = %arg27, %iterArg_16 = %arg28, %iterArg_17 = %arg29, %iterArg_18 = %arg30, %iterArg_19 = %arg31, %iterArg_20 = %arg32, %iterArg_21 = %arg33, %iterArg_22 = %arg34, %iterArg_23 = %arg35, %iterArg_24 = %arg36, %iterArg_25 = %arg37, %iterArg_26 = %arg38, %iterArg_27 = %arg39, %iterArg_28 = %arg40, %iterArg_29 = %arg41, %iterArg_30 = %arg42, %iterArg_31 = %arg43, %iterArg_32 = %arg44, %iterArg_33 = %arg45, %iterArg_34 = %arg46, %iterArg_35 = %arg47, %iterArg_36 = %arg48, %iterArg_37 = %arg49, %iterArg_38 = %arg50, %iterArg_39 = %arg51, %iterArg_40 = %arg52, %iterArg_41 = %arg53, %iterArg_42 = %arg54, %iterArg_43 = %arg55, %iterArg_44 = %arg56, %iterArg_45 = %arg57, %iterArg_46 = %arg58, %iterArg_47 = %arg59, %iterArg_48 = %arg60, %iterArg_49 = %arg61, %iterArg_50 = %arg62, %iterArg_51 = %arg63, %iterArg_52 = %arg64, %iterArg_53 = %arg65, %iterArg_54 = %arg66, %iterArg_55 = %arg67, %iterArg_56 = %c_5, %iterArg_57 = %c_6, %iterArg_58 = %c_4, %iterArg_59 = %arg0, %iterArg_60 = %arg1, %iterArg_61 = %arg2, %iterArg_62 = %arg3, %iterArg_63 = %arg4, %iterArg_64 = %arg5, %iterArg_65 = %arg6, %iterArg_66 = %arg7, %iterArg_67 = %arg8, %iterArg_68 = %arg9, %iterArg_69 = %arg10, %iterArg_70 = %arg11, %iterArg_71 = %arg12, %iterArg_72 = %arg13, %iterArg_73 = %arg14, %iterArg_74 = %arg15, %iterArg_75 = %arg16, %iterArg_76 = %arg17, %iterArg_77 = %arg18, %iterArg_78 = %11, %iterArg_79 = %12, %iterArg_80 = %13, %iterArg_81 = %14, %iterArg_82 = %15, %iterArg_83 = %16, %iterArg_84 = %17, %iterArg_85 = %18, %iterArg_86 = %19, %iterArg_87 = %20, %iterArg_88 = %21, %iterArg_89 = %22, %iterArg_90 = %23, %iterArg_91 = %24, %iterArg_92 = %25, %iterArg_93 = %26, %iterArg_94 = %27, %iterArg_95 = %28, %iterArg_96 = %29, %iterArg_97 = %30) : tensor<16x2xui32>, tensor<33x16xf32>, tensor<16x33xf32>, tensor<1xf32>, tensor<16x1xf32>, tensor<16xf32>, tensor<16x16xf32>, tensor<16xf32>, tensor<16x16xf32>, tensor<16x16xf32>, tensor<16x16xf32>, tensor<16xf32>, tensor<16x16xf32>, tensor<16xf32>, tensor<16x16xf32>, tensor<16xf32>, tensor<16x16xf32>, tensor<i32>, tensor<33x16xf32>, tensor<16x33xf32>, tensor<1xf32>, tensor<16x1xf32>, tensor<16xf32>, tensor<16x16xf32>, tensor<16xf32>, tensor<16x16xf32>, tensor<16x16xf32>, tensor<16x16xf32>, tensor<16xf32>, tensor<16x16xf32>, tensor<16xf32>, tensor<16x16xf32>, tensor<16xf32>, tensor<16x16xf32>, tensor<33x16xf32>, tensor<16x33xf32>, tensor<1xf32>, tensor<16x1xf32>, tensor<16xf32>, tensor<16x16xf32>, tensor<16xf32>, tensor<16x16xf32>, tensor<16x16xf32>, tensor<16x16xf32>, tensor<16xf32>, tensor<16x16xf32>, tensor<16xf32>, tensor<16x16xf32>, tensor<16xf32>, tensor<16x16xf32>, tensor<16xi32>, tensor<16x5xi32>, tensor<i32>, tensor<i32>, tensor<16x5xi32>, tensor<16xi32>, tensor<16xf32>, tensor<16xi1>, tensor<16xi1>, tensor<16xf32>, tensor<16xf32>, tensor<16xf32>, tensor<16xf32>, tensor<16x5xi32>, tensor<16x5xi32>, tensor<16xi1>, tensor<16xi32>, tensor<16xi1>, tensor<16xi1>, tensor<16x5xi32>, tensor<16xi32>, tensor<16x16xf32>, tensor<16x16x5xi32>, tensor<16x16xi32>, tensor<16x16xf32>, tensor<16x16xi1>, tensor<16x16xi1>, tensor<16x16xf32>, tensor<16x16xf32>, tensor<16x16xf32>, tensor<16x16xf32>, tensor<16x16x5xi32>, tensor<16x16xi32>, tensor<16x16xf32>, tensor<16x16xi1>, tensor<16x16xi1>, tensor<16x16xf32>, tensor<16x16xf32>, tensor<16x16xf32>, tensor<16x16xf32>, tensor<16x16xf32>, tensor<16x16xf32>
    cond {
      %77 = stablehlo.compare LT, %iterArg_58, %c_1, SIGNED : (tensor<i32>, tensor<i32>) -> tensor<i1> loc(#loc1649)
      stablehlo.return %77 : tensor<i1> loc(#loc1648)
    } do {
      %77 = func.call @dynamic_index_in_dim(%iterArg, %iterArg_58) : (tensor<16x2xui32>, tensor<i32>) -> tensor<2xui32> loc(#loc1650)
      %78:39 = func.call @closed_call_3(%iterArg_7, %iterArg_8, %iterArg_9, %iterArg_10, %iterArg_11, %iterArg_12, %iterArg_13, %iterArg_14, %iterArg_15, %iterArg_16, %iterArg_17, %iterArg_18, %iterArg_19, %iterArg_20, %iterArg_21, %iterArg_22, %iterArg_23, %iterArg_24, %iterArg_25, %iterArg_26, %iterArg_27, %iterArg_28, %iterArg_29, %iterArg_30, %iterArg_31, %iterArg_32, %iterArg_33, %iterArg_34, %iterArg_35, %iterArg_36, %iterArg_37, %iterArg_38, %iterArg_39, %iterArg_40, %iterArg_41, %iterArg_42, %iterArg_43, %iterArg_44, %iterArg_45, %iterArg_46, %iterArg_47, %iterArg_48, %iterArg_49, %iterArg_50, %iterArg_51, %iterArg_52, %iterArg_53, %iterArg_54, %iterArg_55, %iterArg_56, %iterArg_57, %iterArg_59, %iterArg_60, %iterArg_61, %iterArg_62, %iterArg_63, %iterArg_64, %iterArg_65, %iterArg_66, %iterArg_67, %iterArg_68, %iterArg_69, %iterArg_70, %iterArg_71, %iterArg_72, %iterArg_73, %iterArg_74, %iterArg_75, %iterArg_76, %iterArg_77, %77) : (tensor<33x16xf32>, tensor<16x33xf32>, tensor<1xf32>, tensor<16x1xf32>, tensor<16xf32>, tensor<16x16xf32>, tensor<16xf32>, tensor<16x16xf32>, tensor<16x16xf32>, tensor<16x16xf32>, tensor<16xf32>, tensor<16x16xf32>, tensor<16xf32>, tensor<16x16xf32>, tensor<16xf32>, tensor<16x16xf32>, tensor<i32>, tensor<33x16xf32>, tensor<16x33xf32>, tensor<1xf32>, tensor<16x1xf32>, tensor<16xf32>, tensor<16x16xf32>, tensor<16xf32>, tensor<16x16xf32>, tensor<16x16xf32>, tensor<16x16xf32>, tensor<16xf32>, tensor<16x16xf32>, tensor<16xf32>, tensor<16x16xf32>, tensor<16xf32>, tensor<16x16xf32>, tensor<33x16xf32>, tensor<16x33xf32>, tensor<1xf32>, tensor<16x1xf32>, tensor<16xf32>, tensor<16x16xf32>, tensor<16xf32>, tensor<16x16xf32>, tensor<16x16xf32>, tensor<16x16xf32>, tensor<16xf32>, tensor<16x16xf32>, tensor<16xf32>, tensor<16x16xf32>, tensor<16xf32>, tensor<16x16xf32>, tensor<16xi32>, tensor<16x5xi32>, tensor<i32>, tensor<16x5xi32>, tensor<16xi32>, tensor<16xf32>, tensor<16xi1>, tensor<16xi1>, tensor<16xf32>, tensor<16xf32>, tensor<16xf32>, tensor<16xf32>, tensor<16x5xi32>, tensor<16x5xi32>, tensor<16xi1>, tensor<16xi32>, tensor<16xi1>, tensor<16xi1>, tensor<16x5xi32>, tensor<16xi32>, tensor<16x16xf32>, tensor<2xui32>) -> (tensor<i32>, tensor<16x5xi32>, tensor<16xi32>, tensor<16xf32>, tensor<16xi1>, tensor<16xi1>, tensor<16xf32>, tensor<16xf32>, tensor<16xf32>, tensor<16xf32>, tensor<16x5xi32>, tensor<16x5xi32>, tensor<16xi1>, tensor<16xi32>, tensor<16xi1>, tensor<16xi1>, tensor<16x5xi32>, tensor<16xi32>, tensor<16x16xf32>, tensor<16x5xi32>, tensor<16xi32>, tensor<16xf32>, tensor<16xi1>, tensor<16xi1>, tensor<16xf32>, tensor<16xf32>, tensor<16xf32>, tensor<16xf32>, tensor<16x5xi32>, tensor<16xi32>, tensor<16xf32>, tensor<16xi1>, tensor<16xi1>, tensor<16xf32>, tensor<16xf32>, tensor<16xf32>, tensor<16xf32>, tensor<16xf32>, tensor<16xf32>) loc(#loc1651)
      %79 = func.call @dynamic_update_index_in_dim_44(%iterArg_78, %78#19, %iterArg_58) : (tensor<16x16x5xi32>, tensor<16x5xi32>, tensor<i32>) -> tensor<16x16x5xi32> loc(#loc1652)
      %80 = func.call @dynamic_update_index_in_dim_45(%iterArg_79, %78#20, %iterArg_58) : (tensor<16x16xi32>, tensor<16xi32>, tensor<i32>) -> tensor<16x16xi32> loc(#loc1652)
      %81 = func.call @dynamic_update_index_in_dim_46(%iterArg_80, %78#21, %iterArg_58) : (tensor<16x16xf32>, tensor<16xf32>, tensor<i32>) -> tensor<16x16xf32> loc(#loc1652)
      %82 = func.call @dynamic_update_index_in_dim_47(%iterArg_81, %78#22, %iterArg_58) : (tensor<16x16xi1>, tensor<16xi1>, tensor<i32>) -> tensor<16x16xi1> loc(#loc1652)
      %83 = func.call @dynamic_update_index_in_dim_47(%iterArg_82, %78#23, %iterArg_58) : (tensor<16x16xi1>, tensor<16xi1>, tensor<i32>) -> tensor<16x16xi1> loc(#loc1652)
      %84 = func.call @dynamic_update_index_in_dim_46(%iterArg_83, %78#24, %iterArg_58) : (tensor<16x16xf32>, tensor<16xf32>, tensor<i32>) -> tensor<16x16xf32> loc(#loc1652)
      %85 = func.call @dynamic_update_index_in_dim_46(%iterArg_84, %78#25, %iterArg_58) : (tensor<16x16xf32>, tensor<16xf32>, tensor<i32>) -> tensor<16x16xf32> loc(#loc1652)
      %86 = func.call @dynamic_update_index_in_dim_46(%iterArg_85, %78#26, %iterArg_58) : (tensor<16x16xf32>, tensor<16xf32>, tensor<i32>) -> tensor<16x16xf32> loc(#loc1652)
      %87 = func.call @dynamic_update_index_in_dim_46(%iterArg_86, %78#27, %iterArg_58) : (tensor<16x16xf32>, tensor<16xf32>, tensor<i32>) -> tensor<16x16xf32> loc(#loc1652)
      %88 = func.call @dynamic_update_index_in_dim_44(%iterArg_87, %78#28, %iterArg_58) : (tensor<16x16x5xi32>, tensor<16x5xi32>, tensor<i32>) -> tensor<16x16x5xi32> loc(#loc1652)
      %89 = func.call @dynamic_update_index_in_dim_45(%iterArg_88, %78#29, %iterArg_58) : (tensor<16x16xi32>, tensor<16xi32>, tensor<i32>) -> tensor<16x16xi32> loc(#loc1652)
      %90 = func.call @dynamic_update_index_in_dim_46(%iterArg_89, %78#30, %iterArg_58) : (tensor<16x16xf32>, tensor<16xf32>, tensor<i32>) -> tensor<16x16xf32> loc(#loc1652)
      %91 = func.call @dynamic_update_index_in_dim_47(%iterArg_90, %78#31, %iterArg_58) : (tensor<16x16xi1>, tensor<16xi1>, tensor<i32>) -> tensor<16x16xi1> loc(#loc1652)
      %92 = func.call @dynamic_update_index_in_dim_47(%iterArg_91, %78#32, %iterArg_58) : (tensor<16x16xi1>, tensor<16xi1>, tensor<i32>) -> tensor<16x16xi1> loc(#loc1652)
      %93 = func.call @dynamic_update_index_in_dim_46(%iterArg_92, %78#33, %iterArg_58) : (tensor<16x16xf32>, tensor<16xf32>, tensor<i32>) -> tensor<16x16xf32> loc(#loc1652)
      %94 = func.call @dynamic_update_index_in_dim_46(%iterArg_93, %78#34, %iterArg_58) : (tensor<16x16xf32>, tensor<16xf32>, tensor<i32>) -> tensor<16x16xf32> loc(#loc1652)
      %95 = func.call @dynamic_update_index_in_dim_46(%iterArg_94, %78#35, %iterArg_58) : (tensor<16x16xf32>, tensor<16xf32>, tensor<i32>) -> tensor<16x16xf32> loc(#loc1652)
      %96 = func.call @dynamic_update_index_in_dim_46(%iterArg_95, %78#36, %iterArg_58) : (tensor<16x16xf32>, tensor<16xf32>, tensor<i32>) -> tensor<16x16xf32> loc(#loc1652)
      %97 = func.call @dynamic_update_index_in_dim_46(%iterArg_96, %78#37, %iterArg_58) : (tensor<16x16xf32>, tensor<16xf32>, tensor<i32>) -> tensor<16x16xf32> loc(#loc1652)
      %98 = func.call @dynamic_update_index_in_dim_46(%iterArg_97, %78#38, %iterArg_58) : (tensor<16x16xf32>, tensor<16xf32>, tensor<i32>) -> tensor<16x16xf32> loc(#loc1652)
      %99 = stablehlo.add %iterArg_58, %c_0 : tensor<i32> loc(#loc1653)
      stablehlo.return %iterArg, %iterArg_7, %iterArg_8, %iterArg_9, %iterArg_10, %iterArg_11, %iterArg_12, %iterArg_13, %iterArg_14, %iterArg_15, %iterArg_16, %iterArg_17, %iterArg_18, %iterArg_19, %iterArg_20, %iterArg_21, %iterArg_22, %iterArg_23, %iterArg_24, %iterArg_25, %iterArg_26, %iterArg_27, %iterArg_28, %iterArg_29, %iterArg_30, %iterArg_31, %iterArg_32, %iterArg_33, %iterArg_34, %iterArg_35, %iterArg_36, %iterArg_37, %iterArg_38, %iterArg_39, %iterArg_40, %iterArg_41, %iterArg_42, %iterArg_43, %iterArg_44, %iterArg_45, %iterArg_46, %iterArg_47, %iterArg_48, %iterArg_49, %iterArg_50, %iterArg_51, %iterArg_52, %iterArg_53, %iterArg_54, %iterArg_55, %iterArg_56, %iterArg_57, %99, %78#0, %78#1, %78#2, %78#3, %78#4, %78#5, %78#6, %78#7, %78#8, %78#9, %78#10, %78#11, %78#12, %78#13, %78#14, %78#15, %78#16, %78#17, %78#18, %79, %80, %81, %82, %83, %84, %85, %86, %87, %88, %89, %90, %91, %92, %93, %94, %95, %96, %97, %98 : tensor<16x2xui32>, tensor<33x16xf32>, tensor<16x33xf32>, tensor<1xf32>, tensor<16x1xf32>, tensor<16xf32>, tensor<16x16xf32>, tensor<16xf32>, tensor<16x16xf32>, tensor<16x16xf32>, tensor<16x16xf32>, tensor<16xf32>, tensor<16x16xf32>, tensor<16xf32>, tensor<16x16xf32>, tensor<16xf32>, tensor<16x16xf32>, tensor<i32>, tensor<33x16xf32>, tensor<16x33xf32>, tensor<1xf32>, tensor<16x1xf32>, tensor<16xf32>, tensor<16x16xf32>, tensor<16xf32>, tensor<16x16xf32>, tensor<16x16xf32>, tensor<16x16xf32>, tensor<16xf32>, tensor<16x16xf32>, tensor<16xf32>, tensor<16x16xf32>, tensor<16xf32>, tensor<16x16xf32>, tensor<33x16xf32>, tensor<16x33xf32>, tensor<1xf32>, tensor<16x1xf32>, tensor<16xf32>, tensor<16x16xf32>, tensor<16xf32>, tensor<16x16xf32>, tensor<16x16xf32>, tensor<16x16xf32>, tensor<16xf32>, tensor<16x16xf32>, tensor<16xf32>, tensor<16x16xf32>, tensor<16xf32>, tensor<16x16xf32>, tensor<16xi32>, tensor<16x5xi32>, tensor<i32>, tensor<i32>, tensor<16x5xi32>, tensor<16xi32>, tensor<16xf32>, tensor<16xi1>, tensor<16xi1>, tensor<16xf32>, tensor<16xf32>, tensor<16xf32>, tensor<16xf32>, tensor<16x5xi32>, tensor<16x5xi32>, tensor<16xi1>, tensor<16xi32>, tensor<16xi1>, tensor<16xi1>, tensor<16x5xi32>, tensor<16xi32>, tensor<16x16xf32>, tensor<16x16x5xi32>, tensor<16x16xi32>, tensor<16x16xf32>, tensor<16x16xi1>, tensor<16x16xi1>, tensor<16x16xf32>, tensor<16x16xf32>, tensor<16x16xf32>, tensor<16x16xf32>, tensor<16x16x5xi32>, tensor<16x16xi32>, tensor<16x16xf32>, tensor<16x16xi1>, tensor<16x16xi1>, tensor<16x16xf32>, tensor<16x16xf32>, tensor<16x16xf32>, tensor<16x16xf32>, tensor<16x16xf32>, tensor<16x16xf32> loc(#loc1648)
    } loc(#loc1648)
    %32 = stablehlo.broadcast_in_dim %31#54, dims = [0, 2] : (tensor<16x5xi32>) -> tensor<16x1x5xi32> loc(#loc1916)
    %33 = stablehlo.broadcast_in_dim %31#55, dims = [0] : (tensor<16xi32>) -> tensor<16x1xi32> loc(#loc1916)
    %34 = stablehlo.broadcast_in_dim %31#57, dims = [0] : (tensor<16xi1>) -> tensor<16x1xi1> loc(#loc1916)
    %35 = stablehlo.broadcast_in_dim %31#58, dims = [0] : (tensor<16xi1>) -> tensor<16x1xi1> loc(#loc1916)
    %36 = stablehlo.or %34, %35 : tensor<16x1xi1> loc(#loc1655)
    %37 = call @_take(%arg19, %33) : (tensor<33x16xf32>, tensor<16x1xi32>) -> tensor<16x1x16xf32> loc(#loc2148)
    %38 = stablehlo.broadcast_in_dim %37, dims = [0, 1, 3] : (tensor<16x1x16xf32>) -> tensor<16x1x1x16xf32> loc(#loc1918)
    %39 = call @_take_4(%arg19, %32) : (tensor<33x16xf32>, tensor<16x1x5xi32>) -> tensor<16x1x5x16xf32> loc(#loc2149)
    %40 = stablehlo.concatenate %38, %39, dim = 2 : (tensor<16x1x1x16xf32>, tensor<16x1x5x16xf32>) -> tensor<16x1x6x16xf32> loc(#loc1920)
    %41 = stablehlo.reshape %40 : (tensor<16x1x6x16xf32>) -> tensor<16x6x16xf32> loc(#loc1921)
    %42 = stablehlo.broadcast_in_dim %c_2, dims = [] : (tensor<i1>) -> tensor<16x1x6xi1> loc(#loc1922)
    %43 = stablehlo.broadcast_in_dim %c_4, dims = [] : (tensor<i32>) -> tensor<1xi32> loc(#loc1923)
    %44 = "stablehlo.scatter"(%42, %43, %36) <{indices_are_sorted = true, scatter_dimension_numbers = #stablehlo.scatter<update_window_dims = [0, 1], inserted_window_dims = [2], scatter_dims_to_operand_dims = [2]>, unique_indices = true}> ({
    ^bb0(%arg69: tensor<i1> loc("scatter:"(#loc95)), %arg70: tensor<i1> loc("scatter:"(#loc95))):
      stablehlo.return %arg70 : tensor<i1> loc(#loc1924)
    }) : (tensor<16x1x6xi1>, tensor<1xi32>, tensor<16x1xi1>) -> tensor<16x1x6xi1> loc(#loc1924)
    %45 = stablehlo.reshape %44 : (tensor<16x1x6xi1>) -> tensor<16x6xi1> loc(#loc1925)
    %46 = stablehlo.dot_general %41, %arg24, contracting_dims = [2] x [0] : (tensor<16x6x16xf32>, tensor<16x16xf32>) -> tensor<16x6x16xf32> loc(#loc2375)
    %47 = stablehlo.reshape %arg23 : (tensor<16xf32>) -> tensor<1x1x16xf32> loc(#loc2376)
    %48 = stablehlo.broadcast_in_dim %47, dims = [0, 1, 2] : (tensor<1x1x16xf32>) -> tensor<16x6x16xf32> loc(#loc2377)
    %49 = stablehlo.add %46, %48 : tensor<16x6x16xf32> loc(#loc2377)
    %50 = call @relu(%49) : (tensor<16x6x16xf32>) -> tensor<16x6x16xf32> loc(#loc2338)
    %51 = stablehlo.broadcast_in_dim %cst_3, dims = [] : (tensor<f32>) -> tensor<16x16xf32> loc(#loc2378)
    %52 = stablehlo.transpose %50, dims = [1, 0, 2] : (tensor<16x6x16xf32>) -> tensor<6x16x16xf32> loc(#loc2423)
    %53 = stablehlo.transpose %45, dims = [1, 0] : (tensor<16x6xi1>) -> tensor<6x16xi1> loc(#loc2423)
    call @_where_6(%51) : (tensor<16x16xf32>) -> () loc(#loc2430)
    %54 = stablehlo.broadcast_in_dim %cst_3, dims = [] : (tensor<f32>) -> tensor<6x16x16xf32> loc(#loc2411)
    %55:16 = stablehlo.while(%iterArg = %52, %iterArg_7 = %53, %iterArg_8 = %51, %iterArg_9 = %arg32, %iterArg_10 = %arg31, %iterArg_11 = %arg27, %iterArg_12 = %arg34, %iterArg_13 = %arg33, %iterArg_14 = %arg28, %iterArg_15 = %arg30, %iterArg_16 = %arg29, %iterArg_17 = %arg26, %iterArg_18 = %arg25, %iterArg_19 = %c_4, %iterArg_20 = %31#71, %iterArg_21 = %54) : tensor<6x16x16xf32>, tensor<6x16xi1>, tensor<16x16xf32>, tensor<16x16xf32>, tensor<16xf32>, tensor<16x16xf32>, tensor<16x16xf32>, tensor<16xf32>, tensor<16x16xf32>, tensor<16x16xf32>, tensor<16xf32>, tensor<16x16xf32>, tensor<16xf32>, tensor<i32>, tensor<16x16xf32>, tensor<6x16x16xf32>
    cond {
      %77 = stablehlo.compare LT, %iterArg_19, %c, SIGNED : (tensor<i32>, tensor<i32>) -> tensor<i1> loc(#loc2413)
      stablehlo.return %77 : tensor<i1> loc(#loc2412)
    } do {
      %77 = func.call @dynamic_index_in_dim_7(%iterArg, %iterArg_19) : (tensor<6x16x16xf32>, tensor<i32>) -> tensor<16x16xf32> loc(#loc2414)
      %78 = func.call @dynamic_index_in_dim_8(%iterArg_7, %iterArg_19) : (tensor<6x16xi1>, tensor<i32>) -> tensor<16xi1> loc(#loc2414)
      %79:2 = func.call @closed_call_48(%iterArg_8, %iterArg_9, %iterArg_10, %iterArg_11, %iterArg_12, %iterArg_13, %iterArg_14, %iterArg_15, %iterArg_16, %iterArg_17, %iterArg_18, %iterArg_20, %77, %78) : (tensor<16x16xf32>, tensor<16x16xf32>, tensor<16xf32>, tensor<16x16xf32>, tensor<16x16xf32>, tensor<16xf32>, tensor<16x16xf32>, tensor<16x16xf32>, tensor<16xf32>, tensor<16x16xf32>, tensor<16xf32>, tensor<16x16xf32>, tensor<16x16xf32>, tensor<16xi1>) -> (tensor<16x16xf32>, tensor<16x16xf32>) loc(#loc2415)
      %80 = func.call @dynamic_update_index_in_dim(%iterArg_21, %79#1, %iterArg_19) : (tensor<6x16x16xf32>, tensor<16x16xf32>, tensor<i32>) -> tensor<6x16x16xf32> loc(#loc2416)
      %81 = stablehlo.add %iterArg_19, %c_0 : tensor<i32> loc(#loc2417)
      stablehlo.return %iterArg, %iterArg_7, %iterArg_8, %iterArg_9, %iterArg_10, %iterArg_11, %iterArg_12, %iterArg_13, %iterArg_14, %iterArg_15, %iterArg_16, %iterArg_17, %iterArg_18, %81, %79#0, %80 : tensor<6x16x16xf32>, tensor<6x16xi1>, tensor<16x16xf32>, tensor<16x16xf32>, tensor<16xf32>, tensor<16x16xf32>, tensor<16x16xf32>, tensor<16xf32>, tensor<16x16xf32>, tensor<16x16xf32>, tensor<16xf32>, tensor<16x16xf32>, tensor<16xf32>, tensor<i32>, tensor<16x16xf32>, tensor<6x16x16xf32> loc(#loc2412)
    } loc(#loc2412)
    %56 = stablehlo.transpose %55#15, dims = [1, 0, 2] : (tensor<6x16x16xf32>) -> tensor<16x6x16xf32> loc(#loc2425)
    %57 = stablehlo.reshape %56 : (tensor<16x6x16xf32>) -> tensor<16x1x6x16xf32> loc(#loc1928)
    %58 = stablehlo.slice %57 [0:16, 0:1, 5:6, 0:16] : (tensor<16x1x6x16xf32>) -> tensor<16x1x1x16xf32> loc(#loc1929)
    %59 = stablehlo.reshape %58 : (tensor<16x1x1x16xf32>) -> tensor<16x1x16xf32> loc(#loc1930)
    %60 = stablehlo.dot_general %59, %arg22, contracting_dims = [2] x [0] : (tensor<16x1x16xf32>, tensor<16x1xf32>) -> tensor<16x1x1xf32> loc(#loc2152)
    %61 = stablehlo.reshape %arg21 : (tensor<1xf32>) -> tensor<1x1x1xf32> loc(#loc2153)
    %62 = stablehlo.broadcast_in_dim %61, dims = [0, 1, 2] : (tensor<1x1x1xf32>) -> tensor<16x1x1xf32> loc(#loc2154)
    %63 = stablehlo.add %60, %62 : tensor<16x1x1xf32> loc(#loc2154)
    %64 = stablehlo.reshape %63 : (tensor<16x1x1xf32>) -> tensor<16x1xf32> loc(#loc1669)
    %65 = stablehlo.reshape %64 : (tensor<16x1xf32>) -> tensor<16xf32> loc(#loc1670)
    %66 = stablehlo.broadcast_in_dim %cst_3, dims = [] : (tensor<f32>) -> tensor<16xf32> loc(#loc1671)
    %67 = stablehlo.broadcast_in_dim %cst_3, dims = [] : (tensor<f32>) -> tensor<16x16xf32> loc(#loc1934)
    %68:8 = stablehlo.while(%iterArg = %31#83, %iterArg_7 = %31#84, %iterArg_8 = %31#85, %iterArg_9 = %31#91, %iterArg_10 = %c_4, %iterArg_11 = %66, %iterArg_12 = %65, %iterArg_13 = %67) : tensor<16x16xf32>, tensor<16x16xi1>, tensor<16x16xi1>, tensor<16x16xf32>, tensor<i32>, tensor<16xf32>, tensor<16xf32>, tensor<16x16xf32>
    cond {
      %77 = stablehlo.compare LT, %iterArg_10, %c_1, SIGNED : (tensor<i32>, tensor<i32>) -> tensor<i1> loc(#loc1936)
      stablehlo.return %77 : tensor<i1> loc(#loc1935)
    } do {
      %77 = stablehlo.subtract %c_1, %iterArg_10 : tensor<i32> loc(#loc1937)
      %78 = stablehlo.subtract %77, %c_0 : tensor<i32> loc(#loc1937)
      %79 = func.call @dynamic_index_in_dim_49(%iterArg, %78) : (tensor<16x16xf32>, tensor<i32>) -> tensor<16xf32> loc(#loc1938)
      %80 = func.call @dynamic_index_in_dim_50(%iterArg_7, %78) : (tensor<16x16xi1>, tensor<i32>) -> tensor<16xi1> loc(#loc1938)
      %81 = func.call @dynamic_index_in_dim_50(%iterArg_8, %78) : (tensor<16x16xi1>, tensor<i32>) -> tensor<16xi1> loc(#loc1938)
      %82 = func.call @dynamic_index_in_dim_49(%iterArg_9, %78) : (tensor<16x16xf32>, tensor<i32>) -> tensor<16xf32> loc(#loc1938)
      %83:3 = func.call @closed_call_51(%iterArg_11, %iterArg_12, %79, %80, %81, %82) : (tensor<16xf32>, tensor<16xf32>, tensor<16xf32>, tensor<16xi1>, tensor<16xi1>, tensor<16xf32>) -> (tensor<16xf32>, tensor<16xf32>, tensor<16xf32>) loc(#loc1939)
      %84 = func.call @dynamic_update_index_in_dim_46(%iterArg_13, %83#2, %78) : (tensor<16x16xf32>, tensor<16xf32>, tensor<i32>) -> tensor<16x16xf32> loc(#loc1940)
      %85 = stablehlo.add %iterArg_10, %c_0 : tensor<i32> loc(#loc1941)
      stablehlo.return %iterArg, %iterArg_7, %iterArg_8, %iterArg_9, %85, %83#0, %83#1, %84 : tensor<16x16xf32>, tensor<16x16xi1>, tensor<16x16xi1>, tensor<16x16xf32>, tensor<i32>, tensor<16xf32>, tensor<16xf32>, tensor<16x16xf32> loc(#loc1935)
    } loc(#loc1935)
    %69 = stablehlo.add %68#7, %31#91 : tensor<16x16xf32> loc(#loc1674)
    %70 = call @_threefry_split_52(%9) : (tensor<2xui32>) -> tensor<1x2xui32> loc(#loc1675)
    %71:93 = stablehlo.while(%iterArg = %70, %iterArg_7 = %31#53, %iterArg_8 = %31#54, %iterArg_9 = %31#55, %iterArg_10 = %31#56, %iterArg_11 = %31#57, %iterArg_12 = %31#58, %iterArg_13 = %31#59, %iterArg_14 = %31#60, %iterArg_15 = %31#61, %iterArg_16 = %31#62, %iterArg_17 = %31#63, %iterArg_18 = %31#64, %iterArg_19 = %31#65, %iterArg_20 = %31#66, %iterArg_21 = %31#67, %iterArg_22 = %31#68, %iterArg_23 = %31#69, %iterArg_24 = %31#70, %iterArg_25 = %31#71, %iterArg_26 = %31#72, %iterArg_27 = %31#73, %iterArg_28 = %31#74, %iterArg_29 = %31#75, %iterArg_30 = %31#76, %iterArg_31 = %31#77, %iterArg_32 = %31#78, %iterArg_33 = %31#79, %iterArg_34 = %31#80, %iterArg_35 = %31#81, %iterArg_36 = %31#82, %iterArg_37 = %31#83, %iterArg_38 = %31#84, %iterArg_39 = %31#85, %iterArg_40 = %31#86, %iterArg_41 = %31#87, %iterArg_42 = %31#88, %iterArg_43 = %31#89, %iterArg_44 = %68#7, %iterArg_45 = %31#90, %iterArg_46 = %69, %iterArg_47 = %31#91, %iterArg_48 = %arg18, %iterArg_49 = %c_4, %iterArg_50 = %arg19, %iterArg_51 = %arg20, %iterArg_52 = %arg21, %iterArg_53 = %arg22, %iterArg_54 = %arg23, %iterArg_55 = %arg24, %iterArg_56 = %arg25, %iterArg_57 = %arg26, %iterArg_58 = %arg27, %iterArg_59 = %arg28, %iterArg_60 = %arg29, %iterArg_61 = %arg30, %iterArg_62 = %arg31, %iterArg_63 = %arg32, %iterArg_64 = %arg33, %iterArg_65 = %arg34, %iterArg_66 = %arg35, %iterArg_67 = %arg36, %iterArg_68 = %arg37, %iterArg_69 = %arg38, %iterArg_70 = %arg39, %iterArg_71 = %arg40, %iterArg_72 = %arg41, %iterArg_73 = %arg42, %iterArg_74 = %arg43, %iterArg_75 = %arg44, %iterArg_76 = %arg45, %iterArg_77 = %arg46, %iterArg_78 = %arg47, %iterArg_79 = %arg48, %iterArg_80 = %arg49, %iterArg_81 = %arg50, %iterArg_82 = %arg51, %iterArg_83 = %arg52, %iterArg_84 = %arg53, %iterArg_85 = %arg54, %iterArg_86 = %arg55, %iterArg_87 = %arg56, %iterArg_88 = %arg57, %iterArg_89 = %arg58, %iterArg_90 = %arg59, %iterArg_91 = %arg60, %iterArg_92 = %arg61, %iterArg_93 = %arg62, %iterArg_94 = %arg63, %iterArg_95 = %arg64, %iterArg_96 = %arg65, %iterArg_97 = %arg66, %iterArg_98 = %arg67) : tensor<1x2xui32>, tensor<i32>, tensor<16x5xi32>, tensor<16xi32>, tensor<16xf32>, tensor<16xi1>, tensor<16xi1>, tensor<16xf32>, tensor<16xf32>, tensor<16xf32>, tensor<16xf32>, tensor<16x5xi32>, tensor<16x5xi32>, tensor<16xi1>, tensor<16xi32>, tensor<16xi1>, tensor<16xi1>, tensor<16x5xi32>, tensor<16xi32>, tensor<16x16xf32>, tensor<16x16x5xi32>, tensor<16x16xi32>, tensor<16x16xf32>, tensor<16x16xi1>, tensor<16x16xi1>, tensor<16x16xf32>, tensor<16x16xf32>, tensor<16x16xf32>, tensor<16x16xf32>, tensor<16x16x5xi32>, tensor<16x16xi32>, tensor<16x16xf32>, tensor<16x16xi1>, tensor<16x16xi1>, tensor<16x16xf32>, tensor<16x16xf32>, tensor<16x16xf32>, tensor<16x16xf32>, tensor<16x16xf32>, tensor<16x16xf32>, tensor<16x16xf32>, tensor<16x16xf32>, tensor<16x16xf32>, tensor<i32>, tensor<33x16xf32>, tensor<16x33xf32>, tensor<1xf32>, tensor<16x1xf32>, tensor<16xf32>, tensor<16x16xf32>, tensor<16xf32>, tensor<16x16xf32>, tensor<16x16xf32>, tensor<16x16xf32>, tensor<16xf32>, tensor<16x16xf32>, tensor<16xf32>, tensor<16x16xf32>, tensor<16xf32>, tensor<16x16xf32>, tensor<i32>, tensor<33x16xf32>, tensor<16x33xf32>, tensor<1xf32>, tensor<16x1xf32>, tensor<16xf32>, tensor<16x16xf32>, tensor<16xf32>, tensor<16x16xf32>, tensor<16x16xf32>, tensor<16x16xf32>, tensor<16xf32>, tensor<16x16xf32>, tensor<16xf32>, tensor<16x16xf32>, tensor<16xf32>, tensor<16x16xf32>, tensor<33x16xf32>, tensor<16x33xf32>, tensor<1xf32>, tensor<16x1xf32>, tensor<16xf32>, tensor<16x16xf32>, tensor<16xf32>, tensor<16x16xf32>, tensor<16x16xf32>, tensor<16x16xf32>, tensor<16xf32>, tensor<16x16xf32>, tensor<16xf32>, tensor<16x16xf32>, tensor<16xf32>, tensor<16x16xf32>
    cond {
      %77 = stablehlo.compare LT, %iterArg_49, %c_0, SIGNED : (tensor<i32>, tensor<i32>) -> tensor<i1> loc(#loc1677)
      stablehlo.return %77 : tensor<i1> loc(#loc1676)
    } do {
      %77 = func.call @dynamic_index_in_dim_55(%iterArg, %iterArg_49) : (tensor<1x2xui32>, tensor<i32>) -> tensor<2xui32> loc(#loc1678)
      %78:49 = func.call @closed_call_56(%iterArg_7, %iterArg_8, %iterArg_9, %iterArg_10, %iterArg_11, %iterArg_12, %iterArg_13, %iterArg_14, %iterArg_15, %iterArg_16, %iterArg_17, %iterArg_18, %iterArg_19, %iterArg_20, %iterArg_21, %iterArg_22, %iterArg_23, %iterArg_24, %iterArg_25, %iterArg_26, %iterArg_27, %iterArg_28, %iterArg_29, %iterArg_30, %iterArg_31, %iterArg_32, %iterArg_33, %iterArg_34, %iterArg_35, %iterArg_36, %iterArg_37, %iterArg_38, %iterArg_39, %iterArg_40, %iterArg_41, %iterArg_42, %iterArg_43, %iterArg_44, %iterArg_45, %iterArg_46, %iterArg_47, %iterArg_48, %iterArg_50, %iterArg_51, %iterArg_52, %iterArg_53, %iterArg_54, %iterArg_55, %iterArg_56, %iterArg_57, %iterArg_58, %iterArg_59, %iterArg_60, %iterArg_61, %iterArg_62, %iterArg_63, %iterArg_64, %iterArg_65, %iterArg_66, %iterArg_67, %iterArg_68, %iterArg_69, %iterArg_70, %iterArg_71, %iterArg_72, %iterArg_73, %iterArg_74, %iterArg_75, %iterArg_76, %iterArg_77, %iterArg_78, %iterArg_79, %iterArg_80, %iterArg_81, %iterArg_82, %iterArg_83, %iterArg_84, %iterArg_85, %iterArg_86, %iterArg_87, %iterArg_88, %iterArg_89, %iterArg_90, %iterArg_91, %iterArg_92, %iterArg_93, %iterArg_94, %iterArg_95, %iterArg_96, %iterArg_97, %iterArg_98, %77) : (tensor<i32>, tensor<16x5xi32>, tensor<16xi32>, tensor<16xf32>, tensor<16xi1>, tensor<16xi1>, tensor<16xf32>, tensor<16xf32>, tensor<16xf32>, tensor<16xf32>, tensor<16x5xi32>, tensor<16x5xi32>, tensor<16xi1>, tensor<16xi32>, tensor<16xi1>, tensor<16xi1>, tensor<16x5xi32>, tensor<16xi32>, tensor<16x16xf32>, tensor<16x16x5xi32>, tensor<16x16xi32>, tensor<16x16xf32>, tensor<16x16xi1>, tensor<16x16xi1>, tensor<16x16xf32>, tensor<16x16xf32>, tensor<16x16xf32>, tensor<16x16xf32>, tensor<16x16x5xi32>, tensor<16x16xi32>, tensor<16x16xf32>, tensor<16x16xi1>, tensor<16x16xi1>, tensor<16x16xf32>, tensor<16x16xf32>, tensor<16x16xf32>, tensor<16x16xf32>, tensor<16x16xf32>, tensor<16x16xf32>, tensor<16x16xf32>, tensor<16x16xf32>, tensor<16x16xf32>, tensor<33x16xf32>, tensor<16x33xf32>, tensor<1xf32>, tensor<16x1xf32>, tensor<16xf32>, tensor<16x16xf32>, tensor<16xf32>, tensor<16x16xf32>, tensor<16x16xf32>, tensor<16x16xf32>, tensor<16xf32>, tensor<16x16xf32>, tensor<16xf32>, tensor<16x16xf32>, tensor<16xf32>, tensor<16x16xf32>, tensor<i32>, tensor<33x16xf32>, tensor<16x33xf32>, tensor<1xf32>, tensor<16x1xf32>, tensor<16xf32>, tensor<16x16xf32>, tensor<16xf32>, tensor<16x16xf32>, tensor<16x16xf32>, tensor<16x16xf32>, tensor<16xf32>, tensor<16x16xf32>, tensor<16xf32>, tensor<16x16xf32>, tensor<16xf32>, tensor<16x16xf32>, tensor<33x16xf32>, tensor<16x33xf32>, tensor<1xf32>, tensor<16x1xf32>, tensor<16xf32>, tensor<16x16xf32>, tensor<16xf32>, tensor<16x16xf32>, tensor<16x16xf32>, tensor<16x16xf32>, tensor<16xf32>, tensor<16x16xf32>, tensor<16xf32>, tensor<16x16xf32>, tensor<16xf32>, tensor<16x16xf32>, tensor<2xui32>) -> (tensor<33x16xf32>, tensor<16x33xf32>, tensor<1xf32>, tensor<16x1xf32>, tensor<16xf32>, tensor<16x16xf32>, tensor<16xf32>, tensor<16x16xf32>, tensor<16x16xf32>, tensor<16x16xf32>, tensor<16xf32>, tensor<16x16xf32>, tensor<16xf32>, tensor<16x16xf32>, tensor<16xf32>, tensor<16x16xf32>, tensor<i32>, tensor<33x16xf32>, tensor<16x33xf32>, tensor<1xf32>, tensor<16x1xf32>, tensor<16xf32>, tensor<16x16xf32>, tensor<16xf32>, tensor<16x16xf32>, tensor<16x16xf32>, tensor<16x16xf32>, tensor<16xf32>, tensor<16x16xf32>, tensor<16xf32>, tensor<16x16xf32>, tensor<16xf32>, tensor<16x16xf32>, tensor<33x16xf32>, tensor<16x33xf32>, tensor<1xf32>, tensor<16x1xf32>, tensor<16xf32>, tensor<16x16xf32>, tensor<16xf32>, tensor<16x16xf32>, tensor<16x16xf32>, tensor<16x16xf32>, tensor<16xf32>, tensor<16x16xf32>, tensor<16xf32>, tensor<16x16xf32>, tensor<16xf32>, tensor<16x16xf32>) loc(#loc1679)
      %79 = stablehlo.add %iterArg_49, %c_0 : tensor<i32> loc(#loc1680)
      stablehlo.return %iterArg, %iterArg_7, %iterArg_8, %iterArg_9, %iterArg_10, %iterArg_11, %iterArg_12, %iterArg_13, %iterArg_14, %iterArg_15, %iterArg_16, %iterArg_17, %iterArg_18, %iterArg_19, %iterArg_20, %iterArg_21, %iterArg_22, %iterArg_23, %iterArg_24, %iterArg_25, %iterArg_26, %iterArg_27, %iterArg_28, %iterArg_29, %iterArg_30, %iterArg_31, %iterArg_32, %iterArg_33, %iterArg_34, %iterArg_35, %iterArg_36, %iterArg_37, %iterArg_38, %iterArg_39, %iterArg_40, %iterArg_41, %iterArg_42, %iterArg_43, %iterArg_44, %iterArg_45, %iterArg_46, %iterArg_47, %iterArg_48, %79, %78#0, %78#1, %78#2, %78#3, %78#4, %78#5, %78#6, %78#7, %78#8, %78#9, %78#10, %78#11, %78#12, %78#13, %78#14, %78#15, %78#16, %78#17, %78#18, %78#19, %78#20, %78#21, %78#22, %78#23, %78#24, %78#25, %78#26, %78#27, %78#28, %78#29, %78#30, %78#31, %78#32, %78#33, %78#34, %78#35, %78#36, %78#37, %78#38, %78#39, %78#40, %78#41, %78#42, %78#43, %78#44, %78#45, %78#46, %78#47, %78#48 : tensor<1x2xui32>, tensor<i32>, tensor<16x5xi32>, tensor<16xi32>, tensor<16xf32>, tensor<16xi1>, tensor<16xi1>, tensor<16xf32>, tensor<16xf32>, tensor<16xf32>, tensor<16xf32>, tensor<16x5xi32>, tensor<16x5xi32>, tensor<16xi1>, tensor<16xi32>, tensor<16xi1>, tensor<16xi1>, tensor<16x5xi32>, tensor<16xi32>, tensor<16x16xf32>, tensor<16x16x5xi32>, tensor<16x16xi32>, tensor<16x16xf32>, tensor<16x16xi1>, tensor<16x16xi1>, tensor<16x16xf32>, tensor<16x16xf32>, tensor<16x16xf32>, tensor<16x16xf32>, tensor<16x16x5xi32>, tensor<16x16xi32>, tensor<16x16xf32>, tensor<16x16xi1>, tensor<16x16xi1>, tensor<16x16xf32>, tensor<16x16xf32>, tensor<16x16xf32>, tensor<16x16xf32>, tensor<16x16xf32>, tensor<16x16xf32>, tensor<16x16xf32>, tensor<16x16xf32>, tensor<16x16xf32>, tensor<i32>, tensor<33x16xf32>, tensor<16x33xf32>, tensor<1xf32>, tensor<16x1xf32>, tensor<16xf32>, tensor<16x16xf32>, tensor<16xf32>, tensor<16x16xf32>, tensor<16x16xf32>, tensor<16x16xf32>, tensor<16xf32>, tensor<16x16xf32>, tensor<16xf32>, tensor<16x16xf32>, tensor<16xf32>, tensor<16x16xf32>, tensor<i32>, tensor<33x16xf32>, tensor<16x33xf32>, tensor<1xf32>, tensor<16x1xf32>, tensor<16xf32>, tensor<16x16xf32>, tensor<16xf32>, tensor<16x16xf32>, tensor<16x16xf32>, tensor<16x16xf32>, tensor<16xf32>, tensor<16x16xf32>, tensor<16xf32>, tensor<16x16xf32>, tensor<16xf32>, tensor<16x16xf32>, tensor<33x16xf32>, tensor<16x33xf32>, tensor<1xf32>, tensor<16x1xf32>, tensor<16xf32>, tensor<16x16xf32>, tensor<16xf32>, tensor<16x16xf32>, tensor<16x16xf32>, tensor<16x16xf32>, tensor<16xf32>, tensor<16x16xf32>, tensor<16xf32>, tensor<16x16xf32>, tensor<16xf32>, tensor<16x16xf32> loc(#loc1676)
    } loc(#loc1676)
    %72 = call @_threefry_split_0(%4) : (tensor<2xui32>) -> tensor<16x2xui32> loc(#loc1681)
    %73 = stablehlo.broadcast_in_dim %cst_3, dims = [] : (tensor<f32>) -> tensor<16x16xf32> loc(#loc1682)
    %74:73 = stablehlo.while(%iterArg = %72, %iterArg_7 = %71#44, %iterArg_8 = %71#45, %iterArg_9 = %71#46, %iterArg_10 = %71#47, %iterArg_11 = %71#48, %iterArg_12 = %71#49, %iterArg_13 = %71#50, %iterArg_14 = %71#51, %iterArg_15 = %71#52, %iterArg_16 = %71#53, %iterArg_17 = %71#54, %iterArg_18 = %71#55, %iterArg_19 = %71#56, %iterArg_20 = %71#57, %iterArg_21 = %71#58, %iterArg_22 = %71#59, %iterArg_23 = %71#60, %iterArg_24 = %71#61, %iterArg_25 = %71#62, %iterArg_26 = %71#63, %iterArg_27 = %71#64, %iterArg_28 = %71#65, %iterArg_29 = %71#66, %iterArg_30 = %71#67, %iterArg_31 = %71#68, %iterArg_32 = %71#69, %iterArg_33 = %71#70, %iterArg_34 = %71#71, %iterArg_35 = %71#72, %iterArg_36 = %71#73, %iterArg_37 = %71#74, %iterArg_38 = %71#75, %iterArg_39 = %71#76, %iterArg_40 = %71#77, %iterArg_41 = %71#78, %iterArg_42 = %71#79, %iterArg_43 = %71#80, %iterArg_44 = %71#81, %iterArg_45 = %71#82, %iterArg_46 = %71#83, %iterArg_47 = %71#84, %iterArg_48 = %71#85, %iterArg_49 = %71#86, %iterArg_50 = %71#87, %iterArg_51 = %71#88, %iterArg_52 = %71#89, %iterArg_53 = %71#90, %iterArg_54 = %71#91, %iterArg_55 = %71#92, %iterArg_56 = %c_5, %iterArg_57 = %c_6, %iterArg_58 = %c_4, %iterArg_59 = %31#53, %iterArg_60 = %31#54, %iterArg_61 = %31#55, %iterArg_62 = %31#56, %iterArg_63 = %31#57, %iterArg_64 = %31#58, %iterArg_65 = %31#59, %iterArg_66 = %31#60, %iterArg_67 = %31#61, %iterArg_68 = %31#62, %iterArg_69 = %31#63, %iterArg_70 = %31#64, %iterArg_71 = %31#65, %iterArg_72 = %31#66, %iterArg_73 = %31#67, %iterArg_74 = %31#68, %iterArg_75 = %31#69, %iterArg_76 = %31#70, %iterArg_77 = %31#71, %iterArg_78 = %73) : tensor<16x2xui32>, tensor<33x16xf32>, tensor<16x33xf32>, tensor<1xf32>, tensor<16x1xf32>, tensor<16xf32>, tensor<16x16xf32>, tensor<16xf32>, tensor<16x16xf32>, tensor<16x16xf32>, tensor<16x16xf32>, tensor<16xf32>, tensor<16x16xf32>, tensor<16xf32>, tensor<16x16xf32>, tensor<16xf32>, tensor<16x16xf32>, tensor<i32>, tensor<33x16xf32>, tensor<16x33xf32>, tensor<1xf32>, tensor<16x1xf32>, tensor<16xf32>, tensor<16x16xf32>, tensor<16xf32>, tensor<16x16xf32>, tensor<16x16xf32>, tensor<16x16xf32>, tensor<16xf32>, tensor<16x16xf32>, tensor<16xf32>, tensor<16x16xf32>, tensor<16xf32>, tensor<16x16xf32>, tensor<33x16xf32>, tensor<16x33xf32>, tensor<1xf32>, tensor<16x1xf32>, tensor<16xf32>, tensor<16x16xf32>, tensor<16xf32>, tensor<16x16xf32>, tensor<16x16xf32>, tensor<16x16xf32>, tensor<16xf32>, tensor<16x16xf32>, tensor<16xf32>, tensor<16x16xf32>, tensor<16xf32>, tensor<16x16xf32>, tensor<16xi32>, tensor<16x5xi32>, tensor<i32>, tensor<i32>, tensor<16x5xi32>, tensor<16xi32>, tensor<16xf32>, tensor<16xi1>, tensor<16xi1>, tensor<16xf32>, tensor<16xf32>, tensor<16xf32>, tensor<16xf32>, tensor<16x5xi32>, tensor<16x5xi32>, tensor<16xi1>, tensor<16xi32>, tensor<16xi1>, tensor<16xi1>, tensor<16x5xi32>, tensor<16xi32>, tensor<16x16xf32>, tensor<16x16xf32>
    cond {
      %77 = stablehlo.compare LT, %iterArg_58, %c_1, SIGNED : (tensor<i32>, tensor<i32>) -> tensor<i1> loc(#loc1684)
      stablehlo.return %77 : tensor<i1> loc(#loc1683)
    } do {
      %77 = func.call @dynamic_index_in_dim(%iterArg, %iterArg_58) : (tensor<16x2xui32>, tensor<i32>) -> tensor<2xui32> loc(#loc1685)
      %78:20 = func.call @closed_call_99(%iterArg_7, %iterArg_8, %iterArg_9, %iterArg_10, %iterArg_11, %iterArg_12, %iterArg_13, %iterArg_14, %iterArg_15, %iterArg_16, %iterArg_17, %iterArg_18, %iterArg_19, %iterArg_20, %iterArg_21, %iterArg_22, %iterArg_23, %iterArg_24, %iterArg_25, %iterArg_26, %iterArg_27, %iterArg_28, %iterArg_29, %iterArg_30, %iterArg_31, %iterArg_32, %iterArg_33, %iterArg_34, %iterArg_35, %iterArg_36, %iterArg_37, %iterArg_38, %iterArg_39, %iterArg_40, %iterArg_41, %iterArg_42, %iterArg_43, %iterArg_44, %iterArg_45, %iterArg_46, %iterArg_47, %iterArg_48, %iterArg_49, %iterArg_50, %iterArg_51, %iterArg_52, %iterArg_53, %iterArg_54, %iterArg_55, %iterArg_56, %iterArg_57, %iterArg_59, %iterArg_60, %iterArg_61, %iterArg_62, %iterArg_63, %iterArg_64, %iterArg_65, %iterArg_66, %iterArg_67, %iterArg_68, %iterArg_69, %iterArg_70, %iterArg_71, %iterArg_72, %iterArg_73, %iterArg_74, %iterArg_75, %iterArg_76, %iterArg_77, %77) : (tensor<33x16xf32>, tensor<16x33xf32>, tensor<1xf32>, tensor<16x1xf32>, tensor<16xf32>, tensor<16x16xf32>, tensor<16xf32>, tensor<16x16xf32>, tensor<16x16xf32>, tensor<16x16xf32>, tensor<16xf32>, tensor<16x16xf32>, tensor<16xf32>, tensor<16x16xf32>, tensor<16xf32>, tensor<16x16xf32>, tensor<i32>, tensor<33x16xf32>, tensor<16x33xf32>, tensor<1xf32>, tensor<16x1xf32>, tensor<16xf32>, tensor<16x16xf32>, tensor<16xf32>, tensor<16x16xf32>, tensor<16x16xf32>, tensor<16x16xf32>, tensor<16xf32>, tensor<16x16xf32>, tensor<16xf32>, tensor<16x16xf32>, tensor<16xf32>, tensor<16x16xf32>, tensor<33x16xf32>, tensor<16x33xf32>, tensor<1xf32>, tensor<16x1xf32>, tensor<16xf32>, tensor<16x16xf32>, tensor<16xf32>, tensor<16x16xf32>, tensor<16x16xf32>, tensor<16x16xf32>, tensor<16xf32>, tensor<16x16xf32>, tensor<16xf32>, tensor<16x16xf32>, tensor<16xf32>, tensor<16x16xf32>, tensor<16xi32>, tensor<16x5xi32>, tensor<i32>, tensor<16x5xi32>, tensor<16xi32>, tensor<16xf32>, tensor<16xi1>, tensor<16xi1>, tensor<16xf32>, tensor<16xf32>, tensor<16xf32>, tensor<16xf32>, tensor<16x5xi32>, tensor<16x5xi32>, tensor<16xi1>, tensor<16xi32>, tensor<16xi1>, tensor<16xi1>, tensor<16x5xi32>, tensor<16xi32>, tensor<16x16xf32>, tensor<2xui32>) -> (tensor<i32>, tensor<16x5xi32>, tensor<16xi32>, tensor<16xf32>, tensor<16xi1>, tensor<16xi1>, tensor<16xf32>, tensor<16xf32>, tensor<16xf32>, tensor<16xf32>, tensor<16x5xi32>, tensor<16x5xi32>, tensor<16xi1>, tensor<16xi32>, tensor<16xi1>, tensor<16xi1>, tensor<16x5xi32>, tensor<16xi32>, tensor<16x16xf32>, tensor<16xf32>) loc(#loc1686)
      %79 = func.call @dynamic_update_index_in_dim_46(%iterArg_78, %78#19, %iterArg_58) : (tensor<16x16xf32>, tensor<16xf32>, tensor<i32>) -> tensor<16x16xf32> loc(#loc1687)
      %80 = stablehlo.add %iterArg_58, %c_0 : tensor<i32> loc(#loc1688)
      stablehlo.return %iterArg, %iterArg_7, %iterArg_8, %iterArg_9, %iterArg_10, %iterArg_11, %iterArg_12, %iterArg_13, %iterArg_14, %iterArg_15, %iterArg_16, %iterArg_17, %iterArg_18, %iterArg_19, %iterArg_20, %iterArg_21, %iterArg_22, %iterArg_23, %iterArg_24, %iterArg_25, %iterArg_26, %iterArg_27, %iterArg_28, %iterArg_29, %iterArg_30, %iterArg_31, %iterArg_32, %iterArg_33, %iterArg_34, %iterArg_35, %iterArg_36, %iterArg_37, %iterArg_38, %iterArg_39, %iterArg_40, %iterArg_41, %iterArg_42, %iterArg_43, %iterArg_44, %iterArg_45, %iterArg_46, %iterArg_47, %iterArg_48, %iterArg_49, %iterArg_50, %iterArg_51, %iterArg_52, %iterArg_53, %iterArg_54, %iterArg_55, %iterArg_56, %iterArg_57, %80, %78#0, %78#1, %78#2, %78#3, %78#4, %78#5, %78#6, %78#7, %78#8, %78#9, %78#10, %78#11, %78#12, %78#13, %78#14, %78#15, %78#16, %78#17, %78#18, %79 : tensor<16x2xui32>, tensor<33x16xf32>, tensor<16x33xf32>, tensor<1xf32>, tensor<16x1xf32>, tensor<16xf32>, tensor<16x16xf32>, tensor<16xf32>, tensor<16x16xf32>, tensor<16x16xf32>, tensor<16x16xf32>, tensor<16xf32>, tensor<16x16xf32>, tensor<16xf32>, tensor<16x16xf32>, tensor<16xf32>, tensor<16x16xf32>, tensor<i32>, tensor<33x16xf32>, tensor<16x33xf32>, tensor<1xf32>, tensor<16x1xf32>, tensor<16xf32>, tensor<16x16xf32>, tensor<16xf32>, tensor<16x16xf32>, tensor<16x16xf32>, tensor<16x16xf32>, tensor<16xf32>, tensor<16x16xf32>, tensor<16xf32>, tensor<16x16xf32>, tensor<16xf32>, tensor<16x16xf32>, tensor<33x16xf32>, tensor<16x33xf32>, tensor<1xf32>, tensor<16x1xf32>, tensor<16xf32>, tensor<16x16xf32>, tensor<16xf32>, tensor<16x16xf32>, tensor<16x16xf32>, tensor<16x16xf32>, tensor<16xf32>, tensor<16x16xf32>, tensor<16xf32>, tensor<16x16xf32>, tensor<16xf32>, tensor<16x16xf32>, tensor<16xi32>, tensor<16x5xi32>, tensor<i32>, tensor<i32>, tensor<16x5xi32>, tensor<16xi32>, tensor<16xf32>, tensor<16xi1>, tensor<16xi1>, tensor<16xf32>, tensor<16xf32>, tensor<16xf32>, tensor<16xf32>, tensor<16x5xi32>, tensor<16x5xi32>, tensor<16xi1>, tensor<16xi32>, tensor<16xi1>, tensor<16xi1>, tensor<16x5xi32>, tensor<16xi32>, tensor<16x16xf32>, tensor<16x16xf32> loc(#loc1683)
    } loc(#loc1683)
    %75 = stablehlo.reduce(%74#72 init: %cst_3) applies stablehlo.add across dimensions = [0, 1] : (tensor<16x16xf32>, tensor<f32>) -> tensor<f32> loc(#loc1383)
    %76 = stablehlo.divide %75, %cst : tensor<f32> loc(#loc1384)
    return %31#53, %31#54, %31#55, %31#56, %31#57, %31#58, %31#59, %31#60, %31#61, %31#62, %31#63, %31#64, %31#65, %31#66, %31#67, %31#68, %31#69, %31#70, %31#71, %71#44, %71#45, %71#46, %71#47, %71#48, %71#49, %71#50, %71#51, %71#52, %71#53, %71#54, %71#55, %71#56, %71#57, %71#58, %71#59, %71#60, %71#61, %71#62, %71#63, %71#64, %71#65, %71#66, %71#67, %71#68, %71#69, %71#70, %71#71, %71#72, %71#73, %71#74, %71#75, %71#76, %71#77, %71#78, %71#79, %71#80, %71#81, %71#82, %71#83, %71#84, %71#85, %71#86, %71#87, %71#88, %71#89, %71#90, %71#91, %71#92, %76 : tensor<i32>, tensor<16x5xi32>, tensor<16xi32>, tensor<16xf32>, tensor<16xi1>, tensor<16xi1>, tensor<16xf32>, tensor<16xf32>, tensor<16xf32>, tensor<16xf32>, tensor<16x5xi32>, tensor<16x5xi32>, tensor<16xi1>, tensor<16xi32>, tensor<16xi1>, tensor<16xi1>, tensor<16x5xi32>, tensor<16xi32>, tensor<16x16xf32>, tensor<33x16xf32>, tensor<16x33xf32>, tensor<1xf32>, tensor<16x1xf32>, tensor<16xf32>, tensor<16x16xf32>, tensor<16xf32>, tensor<16x16xf32>, tensor<16x16xf32>, tensor<16x16xf32>, tensor<16xf32>, tensor<16x16xf32>, tensor<16xf32>, tensor<16x16xf32>, tensor<16xf32>, tensor<16x16xf32>, tensor<i32>, tensor<33x16xf32>, tensor<16x33xf32>, tensor<1xf32>, tensor<16x1xf32>, tensor<16xf32>, tensor<16x16xf32>, tensor<16xf32>, tensor<16x16xf32>, tensor<16x16xf32>, tensor<16x16xf32>, tensor<16xf32>, tensor<16x16xf32>, tensor<16xf32>, tensor<16x16xf32>, tensor<16xf32>, tensor<16x16xf32>, tensor<33x16xf32>, tensor<16x33xf32>, tensor<1xf32>, tensor<16x1xf32>, tensor<16xf32>, tensor<16x16xf32>, tensor<16xf32>, tensor<16x16xf32>, tensor<16x16xf32>, tensor<16x16xf32>, tensor<16xf32>, tensor<16x16xf32>, tensor<16xf32>, tensor<16x16xf32>, tensor<16xf32>, tensor<16x16xf32>, tensor<f32> loc(#loc960)
  } loc(#loc)
  func.func private @_threefry_split(%arg0: tensor<2xui32> loc(unknown)) -> tensor<2x2xui32> {
    %c = stablehlo.constant dense<32> : tensor<ui64> loc(#loc138)
    %c_0 = stablehlo.constant dense<1> : tensor<ui64> loc(#loc138)
    %0 = stablehlo.slice %arg0 [0:1] : (tensor<2xui32>) -> tensor<1xui32> loc(#loc139)
    %1 = stablehlo.reshape %0 : (tensor<1xui32>) -> tensor<ui32> loc(#loc140)
    %2 = stablehlo.slice %arg0 [1:2] : (tensor<2xui32>) -> tensor<1xui32> loc(#loc139)
    %3 = stablehlo.reshape %2 : (tensor<1xui32>) -> tensor<ui32> loc(#loc140)
    %4 = stablehlo.iota dim = 0 : tensor<2xui64> loc(#loc138)
    %5 = stablehlo.broadcast_in_dim %c_0, dims = [] : (tensor<ui64>) -> tensor<2xui64> loc(#loc138)
    %6 = stablehlo.multiply %5, %4 : tensor<2xui64> loc(#loc138)
    %7 = stablehlo.broadcast_in_dim %c, dims = [] : (tensor<ui64>) -> tensor<2xui64> loc(#loc138)
    %8 = stablehlo.shift_right_logical %6, %7 : tensor<2xui64> loc(#loc138)
    %9 = stablehlo.convert %6 : (tensor<2xui64>) -> tensor<2xui32> loc(#loc138)
    %10 = stablehlo.convert %8 : (tensor<2xui64>) -> tensor<2xui32> loc(#loc138)
    %11:2 = call @threefry2x32(%1, %3, %10, %9) : (tensor<ui32>, tensor<ui32>, tensor<2xui32>, tensor<2xui32>) -> (tensor<2xui32>, tensor<2xui32>) loc(#loc)
    %12 = stablehlo.broadcast_in_dim %11#0, dims = [0] : (tensor<2xui32>) -> tensor<2x1xui32> loc(#loc141)
    %13 = stablehlo.broadcast_in_dim %11#1, dims = [0] : (tensor<2xui32>) -> tensor<2x1xui32> loc(#loc141)
    %14 = stablehlo.concatenate %12, %13, dim = 1 : (tensor<2x1xui32>, tensor<2x1xui32>) -> tensor<2x2xui32> loc(#loc141)
    return %14 : tensor<2x2xui32> loc(#loc)
  } loc(#loc970)
  func.func private @threefry2x32(%arg0: tensor<ui32> loc(unknown), %arg1: tensor<ui32> loc(unknown), %arg2: tensor<2xui32> loc(unknown), %arg3: tensor<2xui32> loc(unknown)) -> (tensor<2xui32>, tensor<2xui32>) {
    %c = stablehlo.constant dense<1> : tensor<i32> loc(#loc)
    %c_0 = stablehlo.constant dense<5> : tensor<i32> loc(#loc)
    %c_1 = stablehlo.constant dense<0> : tensor<i32> loc(#loc)
    %c_2 = stablehlo.constant dense<466688986> : tensor<ui32> loc(#loc543)
    %c_3 = stablehlo.constant dense<[13, 15, 26, 6]> : tensor<4xui32> loc(#loc543)
    %c_4 = stablehlo.constant dense<[17, 29, 16, 24]> : tensor<4xui32> loc(#loc543)
    %0 = stablehlo.xor %arg0, %arg1 : tensor<ui32> loc(#loc143)
    %1 = stablehlo.xor %0, %c_2 : tensor<ui32> loc(#loc143)
    %2 = stablehlo.broadcast_in_dim %arg0, dims = [] : (tensor<ui32>) -> tensor<2xui32> loc(#loc144)
    %3 = stablehlo.add %arg2, %2 : tensor<2xui32> loc(#loc144)
    %4 = stablehlo.broadcast_in_dim %arg1, dims = [] : (tensor<ui32>) -> tensor<2xui32> loc(#loc144)
    %5 = stablehlo.add %arg3, %4 : tensor<2xui32> loc(#loc144)
    %6:9 = stablehlo.while(%iterArg = %c_1, %iterArg_5 = %c_1, %iterArg_6 = %3, %iterArg_7 = %5, %iterArg_8 = %arg1, %iterArg_9 = %1, %iterArg_10 = %arg0, %iterArg_11 = %c_3, %iterArg_12 = %c_4) : tensor<i32>, tensor<i32>, tensor<2xui32>, tensor<2xui32>, tensor<ui32>, tensor<ui32>, tensor<ui32>, tensor<4xui32>, tensor<4xui32>
    cond {
      %7 = stablehlo.compare LT, %iterArg, %c_0, SIGNED : (tensor<i32>, tensor<i32>) -> tensor<i1> loc(#loc146)
      stablehlo.return %7 : tensor<i1> loc(#loc145)
    } do {
      %7:8 = func.call @closed_call(%iterArg_5, %iterArg_6, %iterArg_7, %iterArg_8, %iterArg_9, %iterArg_10, %iterArg_11, %iterArg_12) : (tensor<i32>, tensor<2xui32>, tensor<2xui32>, tensor<ui32>, tensor<ui32>, tensor<ui32>, tensor<4xui32>, tensor<4xui32>) -> (tensor<i32>, tensor<2xui32>, tensor<2xui32>, tensor<ui32>, tensor<ui32>, tensor<ui32>, tensor<4xui32>, tensor<4xui32>) loc(#loc147)
      %8 = stablehlo.add %iterArg, %c : tensor<i32> loc(#loc148)
      stablehlo.return %8, %7#0, %7#1, %7#2, %7#3, %7#4, %7#5, %7#6, %7#7 : tensor<i32>, tensor<i32>, tensor<2xui32>, tensor<2xui32>, tensor<ui32>, tensor<ui32>, tensor<ui32>, tensor<4xui32>, tensor<4xui32> loc(#loc145)
    } loc(#loc145)
    return %6#2, %6#3 : tensor<2xui32>, tensor<2xui32> loc(#loc)
  } loc(#loc)
  func.func private @closed_call(%arg0: tensor<i32> loc(unknown), %arg1: tensor<2xui32> loc(unknown), %arg2: tensor<2xui32> loc(unknown), %arg3: tensor<ui32> loc(unknown), %arg4: tensor<ui32> loc(unknown), %arg5: tensor<ui32> loc(unknown), %arg6: tensor<4xui32> loc(unknown), %arg7: tensor<4xui32> loc(unknown)) -> (tensor<i32>, tensor<2xui32>, tensor<2xui32>, tensor<ui32>, tensor<ui32>, tensor<ui32>, tensor<4xui32>, tensor<4xui32>) {
    %c = stablehlo.constant dense<32> : tensor<ui32> loc(#loc)
    %c_0 = stablehlo.constant dense<1> : tensor<i32> loc(#loc)
    %0 = stablehlo.add %arg0, %c_0 : tensor<i32> loc(#loc144)
    %1 = stablehlo.slice %arg6 [0:1] : (tensor<4xui32>) -> tensor<1xui32> loc(#loc139)
    %2 = stablehlo.reshape %1 : (tensor<1xui32>) -> tensor<ui32> loc(#loc140)
    %3 = stablehlo.add %arg1, %arg2 : tensor<2xui32> loc(#loc144)
    %4 = stablehlo.broadcast_in_dim %2, dims = [] : (tensor<ui32>) -> tensor<2xui32> loc(#loc149)
    %5 = stablehlo.shift_left %arg2, %4 : tensor<2xui32> loc(#loc149)
    %6 = stablehlo.subtract %c, %2 : tensor<ui32> loc(#loc150)
    %7 = stablehlo.broadcast_in_dim %6, dims = [] : (tensor<ui32>) -> tensor<2xui32> loc(#loc151)
    %8 = stablehlo.shift_right_logical %arg2, %7 : tensor<2xui32> loc(#loc151)
    %9 = stablehlo.or %5, %8 : tensor<2xui32> loc(#loc152)
    %10 = stablehlo.xor %3, %9 : tensor<2xui32> loc(#loc143)
    %11 = stablehlo.slice %arg6 [1:2] : (tensor<4xui32>) -> tensor<1xui32> loc(#loc139)
    %12 = stablehlo.reshape %11 : (tensor<1xui32>) -> tensor<ui32> loc(#loc140)
    %13 = stablehlo.add %3, %10 : tensor<2xui32> loc(#loc144)
    %14 = stablehlo.broadcast_in_dim %12, dims = [] : (tensor<ui32>) -> tensor<2xui32> loc(#loc149)
    %15 = stablehlo.shift_left %10, %14 : tensor<2xui32> loc(#loc149)
    %16 = stablehlo.subtract %c, %12 : tensor<ui32> loc(#loc150)
    %17 = stablehlo.broadcast_in_dim %16, dims = [] : (tensor<ui32>) -> tensor<2xui32> loc(#loc151)
    %18 = stablehlo.shift_right_logical %10, %17 : tensor<2xui32> loc(#loc151)
    %19 = stablehlo.or %15, %18 : tensor<2xui32> loc(#loc152)
    %20 = stablehlo.xor %13, %19 : tensor<2xui32> loc(#loc143)
    %21 = stablehlo.slice %arg6 [2:3] : (tensor<4xui32>) -> tensor<1xui32> loc(#loc139)
    %22 = stablehlo.reshape %21 : (tensor<1xui32>) -> tensor<ui32> loc(#loc140)
    %23 = stablehlo.add %13, %20 : tensor<2xui32> loc(#loc144)
    %24 = stablehlo.broadcast_in_dim %22, dims = [] : (tensor<ui32>) -> tensor<2xui32> loc(#loc149)
    %25 = stablehlo.shift_left %20, %24 : tensor<2xui32> loc(#loc149)
    %26 = stablehlo.subtract %c, %22 : tensor<ui32> loc(#loc150)
    %27 = stablehlo.broadcast_in_dim %26, dims = [] : (tensor<ui32>) -> tensor<2xui32> loc(#loc151)
    %28 = stablehlo.shift_right_logical %20, %27 : tensor<2xui32> loc(#loc151)
    %29 = stablehlo.or %25, %28 : tensor<2xui32> loc(#loc152)
    %30 = stablehlo.xor %23, %29 : tensor<2xui32> loc(#loc143)
    %31 = stablehlo.slice %arg6 [3:4] : (tensor<4xui32>) -> tensor<1xui32> loc(#loc139)
    %32 = stablehlo.reshape %31 : (tensor<1xui32>) -> tensor<ui32> loc(#loc140)
    %33 = stablehlo.add %23, %30 : tensor<2xui32> loc(#loc144)
    %34 = stablehlo.broadcast_in_dim %32, dims = [] : (tensor<ui32>) -> tensor<2xui32> loc(#loc149)
    %35 = stablehlo.shift_left %30, %34 : tensor<2xui32> loc(#loc149)
    %36 = stablehlo.subtract %c, %32 : tensor<ui32> loc(#loc150)
    %37 = stablehlo.broadcast_in_dim %36, dims = [] : (tensor<ui32>) -> tensor<2xui32> loc(#loc151)
    %38 = stablehlo.shift_right_logical %30, %37 : tensor<2xui32> loc(#loc151)
    %39 = stablehlo.or %35, %38 : tensor<2xui32> loc(#loc152)
    %40 = stablehlo.xor %33, %39 : tensor<2xui32> loc(#loc143)
    %41 = stablehlo.broadcast_in_dim %arg3, dims = [] : (tensor<ui32>) -> tensor<2xui32> loc(#loc144)
    %42 = stablehlo.add %33, %41 : tensor<2xui32> loc(#loc144)
    %43 = stablehlo.broadcast_in_dim %arg4, dims = [] : (tensor<ui32>) -> tensor<2xui32> loc(#loc144)
    %44 = stablehlo.add %40, %43 : tensor<2xui32> loc(#loc144)
    %45 = stablehlo.add %arg0, %c_0 : tensor<i32> loc(#loc144)
    %46 = stablehlo.convert %45 : (tensor<i32>) -> tensor<ui32> loc(#loc153)
    %47 = stablehlo.broadcast_in_dim %46, dims = [] : (tensor<ui32>) -> tensor<2xui32> loc(#loc144)
    %48 = stablehlo.add %44, %47 : tensor<2xui32> loc(#loc144)
    return %0, %42, %48, %arg4, %arg5, %arg3, %arg7, %arg6 : tensor<i32>, tensor<2xui32>, tensor<2xui32>, tensor<ui32>, tensor<ui32>, tensor<ui32>, tensor<4xui32>, tensor<4xui32> loc(#loc)
  } loc(#loc544)
  func.func private @_threefry_split_0(%arg0: tensor<2xui32> loc(unknown)) -> tensor<16x2xui32> {
    %c = stablehlo.constant dense<32> : tensor<ui64> loc(#loc972)
    %c_0 = stablehlo.constant dense<1> : tensor<ui64> loc(#loc972)
    %0 = stablehlo.slice %arg0 [0:1] : (tensor<2xui32>) -> tensor<1xui32> loc(#loc973)
    %1 = stablehlo.reshape %0 : (tensor<1xui32>) -> tensor<ui32> loc(#loc974)
    %2 = stablehlo.slice %arg0 [1:2] : (tensor<2xui32>) -> tensor<1xui32> loc(#loc973)
    %3 = stablehlo.reshape %2 : (tensor<1xui32>) -> tensor<ui32> loc(#loc974)
    %4 = stablehlo.iota dim = 0 : tensor<16xui64> loc(#loc972)
    %5 = stablehlo.broadcast_in_dim %c_0, dims = [] : (tensor<ui64>) -> tensor<16xui64> loc(#loc972)
    %6 = stablehlo.multiply %5, %4 : tensor<16xui64> loc(#loc972)
    %7 = stablehlo.broadcast_in_dim %c, dims = [] : (tensor<ui64>) -> tensor<16xui64> loc(#loc972)
    %8 = stablehlo.shift_right_logical %6, %7 : tensor<16xui64> loc(#loc972)
    %9 = stablehlo.convert %6 : (tensor<16xui64>) -> tensor<16xui32> loc(#loc972)
    %10 = stablehlo.convert %8 : (tensor<16xui64>) -> tensor<16xui32> loc(#loc972)
    %11:2 = call @threefry2x32_1(%1, %3, %10, %9) : (tensor<ui32>, tensor<ui32>, tensor<16xui32>, tensor<16xui32>) -> (tensor<16xui32>, tensor<16xui32>) loc(#loc825)
    %12 = stablehlo.broadcast_in_dim %11#0, dims = [0] : (tensor<16xui32>) -> tensor<16x1xui32> loc(#loc975)
    %13 = stablehlo.broadcast_in_dim %11#1, dims = [0] : (tensor<16xui32>) -> tensor<16x1xui32> loc(#loc975)
    %14 = stablehlo.concatenate %12, %13, dim = 1 : (tensor<16x1xui32>, tensor<16x1xui32>) -> tensor<16x2xui32> loc(#loc975)
    return %14 : tensor<16x2xui32> loc(#loc)
  } loc(#loc1171)
  func.func private @threefry2x32_1(%arg0: tensor<ui32> loc(callsite(#loc482 at #loc480)), %arg1: tensor<ui32> loc(callsite(#loc482 at #loc480)), %arg2: tensor<16xui32> loc(callsite(#loc482 at #loc480)), %arg3: tensor<16xui32> loc(callsite(#loc482 at #loc480))) -> (tensor<16xui32>, tensor<16xui32>) {
    %c = stablehlo.constant dense<1> : tensor<i32> loc(#loc)
    %c_0 = stablehlo.constant dense<5> : tensor<i32> loc(#loc)
    %c_1 = stablehlo.constant dense<0> : tensor<i32> loc(#loc)
    %c_2 = stablehlo.constant dense<466688986> : tensor<ui32> loc(#loc543)
    %c_3 = stablehlo.constant dense<[13, 15, 26, 6]> : tensor<4xui32> loc(#loc543)
    %c_4 = stablehlo.constant dense<[17, 29, 16, 24]> : tensor<4xui32> loc(#loc543)
    %0 = stablehlo.xor %arg0, %arg1 : tensor<ui32> loc(#loc976)
    %1 = stablehlo.xor %0, %c_2 : tensor<ui32> loc(#loc976)
    %2 = stablehlo.broadcast_in_dim %arg0, dims = [] : (tensor<ui32>) -> tensor<16xui32> loc(#loc977)
    %3 = stablehlo.add %arg2, %2 : tensor<16xui32> loc(#loc977)
    %4 = stablehlo.broadcast_in_dim %arg1, dims = [] : (tensor<ui32>) -> tensor<16xui32> loc(#loc977)
    %5 = stablehlo.add %arg3, %4 : tensor<16xui32> loc(#loc977)
    %6:9 = stablehlo.while(%iterArg = %c_1, %iterArg_5 = %c_1, %iterArg_6 = %3, %iterArg_7 = %5, %iterArg_8 = %arg1, %iterArg_9 = %1, %iterArg_10 = %arg0, %iterArg_11 = %c_3, %iterArg_12 = %c_4) : tensor<i32>, tensor<i32>, tensor<16xui32>, tensor<16xui32>, tensor<ui32>, tensor<ui32>, tensor<ui32>, tensor<4xui32>, tensor<4xui32>
    cond {
      %7 = stablehlo.compare LT, %iterArg, %c_0, SIGNED : (tensor<i32>, tensor<i32>) -> tensor<i1> loc(#loc1385)
      stablehlo.return %7 : tensor<i1> loc(#loc1172)
    } do {
      %7:8 = func.call @closed_call_2(%iterArg_5, %iterArg_6, %iterArg_7, %iterArg_8, %iterArg_9, %iterArg_10, %iterArg_11, %iterArg_12) : (tensor<i32>, tensor<16xui32>, tensor<16xui32>, tensor<ui32>, tensor<ui32>, tensor<ui32>, tensor<4xui32>, tensor<4xui32>) -> (tensor<i32>, tensor<16xui32>, tensor<16xui32>, tensor<ui32>, tensor<ui32>, tensor<ui32>, tensor<4xui32>, tensor<4xui32>) loc(#loc1386)
      %8 = stablehlo.add %iterArg, %c : tensor<i32> loc(#loc1387)
      stablehlo.return %8, %7#0, %7#1, %7#2, %7#3, %7#4, %7#5, %7#6, %7#7 : tensor<i32>, tensor<i32>, tensor<16xui32>, tensor<16xui32>, tensor<ui32>, tensor<ui32>, tensor<ui32>, tensor<4xui32>, tensor<4xui32> loc(#loc1172)
    } loc(#loc1172)
    return %6#2, %6#3 : tensor<16xui32>, tensor<16xui32> loc(#loc825)
  } loc(#loc825)
  func.func private @closed_call_2(%arg0: tensor<i32> loc(unknown), %arg1: tensor<16xui32> loc(unknown), %arg2: tensor<16xui32> loc(unknown), %arg3: tensor<ui32> loc(unknown), %arg4: tensor<ui32> loc(unknown), %arg5: tensor<ui32> loc(unknown), %arg6: tensor<4xui32> loc(unknown), %arg7: tensor<4xui32> loc(unknown)) -> (tensor<i32>, tensor<16xui32>, tensor<16xui32>, tensor<ui32>, tensor<ui32>, tensor<ui32>, tensor<4xui32>, tensor<4xui32>) {
    %c = stablehlo.constant dense<32> : tensor<ui32> loc(#loc)
    %c_0 = stablehlo.constant dense<1> : tensor<i32> loc(#loc)
    %0 = stablehlo.add %arg0, %c_0 : tensor<i32> loc(#loc144)
    %1 = stablehlo.slice %arg6 [0:1] : (tensor<4xui32>) -> tensor<1xui32> loc(#loc139)
    %2 = stablehlo.reshape %1 : (tensor<1xui32>) -> tensor<ui32> loc(#loc140)
    %3 = stablehlo.add %arg1, %arg2 : tensor<16xui32> loc(#loc144)
    %4 = stablehlo.broadcast_in_dim %2, dims = [] : (tensor<ui32>) -> tensor<16xui32> loc(#loc149)
    %5 = stablehlo.shift_left %arg2, %4 : tensor<16xui32> loc(#loc149)
    %6 = stablehlo.subtract %c, %2 : tensor<ui32> loc(#loc150)
    %7 = stablehlo.broadcast_in_dim %6, dims = [] : (tensor<ui32>) -> tensor<16xui32> loc(#loc151)
    %8 = stablehlo.shift_right_logical %arg2, %7 : tensor<16xui32> loc(#loc151)
    %9 = stablehlo.or %5, %8 : tensor<16xui32> loc(#loc152)
    %10 = stablehlo.xor %3, %9 : tensor<16xui32> loc(#loc143)
    %11 = stablehlo.slice %arg6 [1:2] : (tensor<4xui32>) -> tensor<1xui32> loc(#loc139)
    %12 = stablehlo.reshape %11 : (tensor<1xui32>) -> tensor<ui32> loc(#loc140)
    %13 = stablehlo.add %3, %10 : tensor<16xui32> loc(#loc144)
    %14 = stablehlo.broadcast_in_dim %12, dims = [] : (tensor<ui32>) -> tensor<16xui32> loc(#loc149)
    %15 = stablehlo.shift_left %10, %14 : tensor<16xui32> loc(#loc149)
    %16 = stablehlo.subtract %c, %12 : tensor<ui32> loc(#loc150)
    %17 = stablehlo.broadcast_in_dim %16, dims = [] : (tensor<ui32>) -> tensor<16xui32> loc(#loc151)
    %18 = stablehlo.shift_right_logical %10, %17 : tensor<16xui32> loc(#loc151)
    %19 = stablehlo.or %15, %18 : tensor<16xui32> loc(#loc152)
    %20 = stablehlo.xor %13, %19 : tensor<16xui32> loc(#loc143)
    %21 = stablehlo.slice %arg6 [2:3] : (tensor<4xui32>) -> tensor<1xui32> loc(#loc139)
    %22 = stablehlo.reshape %21 : (tensor<1xui32>) -> tensor<ui32> loc(#loc140)
    %23 = stablehlo.add %13, %20 : tensor<16xui32> loc(#loc144)
    %24 = stablehlo.broadcast_in_dim %22, dims = [] : (tensor<ui32>) -> tensor<16xui32> loc(#loc149)
    %25 = stablehlo.shift_left %20, %24 : tensor<16xui32> loc(#loc149)
    %26 = stablehlo.subtract %c, %22 : tensor<ui32> loc(#loc150)
    %27 = stablehlo.broadcast_in_dim %26, dims = [] : (tensor<ui32>) -> tensor<16xui32> loc(#loc151)
    %28 = stablehlo.shift_right_logical %20, %27 : tensor<16xui32> loc(#loc151)
    %29 = stablehlo.or %25, %28 : tensor<16xui32> loc(#loc152)
    %30 = stablehlo.xor %23, %29 : tensor<16xui32> loc(#loc143)
    %31 = stablehlo.slice %arg6 [3:4] : (tensor<4xui32>) -> tensor<1xui32> loc(#loc139)
    %32 = stablehlo.reshape %31 : (tensor<1xui32>) -> tensor<ui32> loc(#loc140)
    %33 = stablehlo.add %23, %30 : tensor<16xui32> loc(#loc144)
    %34 = stablehlo.broadcast_in_dim %32, dims = [] : (tensor<ui32>) -> tensor<16xui32> loc(#loc149)
    %35 = stablehlo.shift_left %30, %34 : tensor<16xui32> loc(#loc149)
    %36 = stablehlo.subtract %c, %32 : tensor<ui32> loc(#loc150)
    %37 = stablehlo.broadcast_in_dim %36, dims = [] : (tensor<ui32>) -> tensor<16xui32> loc(#loc151)
    %38 = stablehlo.shift_right_logical %30, %37 : tensor<16xui32> loc(#loc151)
    %39 = stablehlo.or %35, %38 : tensor<16xui32> loc(#loc152)
    %40 = stablehlo.xor %33, %39 : tensor<16xui32> loc(#loc143)
    %41 = stablehlo.broadcast_in_dim %arg3, dims = [] : (tensor<ui32>) -> tensor<16xui32> loc(#loc144)
    %42 = stablehlo.add %33, %41 : tensor<16xui32> loc(#loc144)
    %43 = stablehlo.broadcast_in_dim %arg4, dims = [] : (tensor<ui32>) -> tensor<16xui32> loc(#loc144)
    %44 = stablehlo.add %40, %43 : tensor<16xui32> loc(#loc144)
    %45 = stablehlo.add %arg0, %c_0 : tensor<i32> loc(#loc144)
    %46 = stablehlo.convert %45 : (tensor<i32>) -> tensor<ui32> loc(#loc153)
    %47 = stablehlo.broadcast_in_dim %46, dims = [] : (tensor<ui32>) -> tensor<16xui32> loc(#loc144)
    %48 = stablehlo.add %44, %47 : tensor<16xui32> loc(#loc144)
    return %0, %42, %48, %arg4, %arg5, %arg3, %arg7, %arg6 : tensor<i32>, tensor<16xui32>, tensor<16xui32>, tensor<ui32>, tensor<ui32>, tensor<ui32>, tensor<4xui32>, tensor<4xui32> loc(#loc)
  } loc(#loc1174)
  func.func private @dynamic_index_in_dim(%arg0: tensor<16x2xui32> loc(unknown), %arg1: tensor<i32> loc(unknown)) -> tensor<2xui32> {
    %c = stablehlo.constant dense<0> : tensor<i32> loc(#loc)
    %0 = stablehlo.dynamic_slice %arg0, %arg1, %c, sizes = [1, 2] : (tensor<16x2xui32>, tensor<i32>, tensor<i32>) -> tensor<1x2xui32> loc(#loc981)
    %1 = stablehlo.reshape %0 : (tensor<1x2xui32>) -> tensor<2xui32> loc(#loc982)
    return %1 : tensor<2xui32> loc(#loc)
  } loc(#loc1175)
  func.func private @closed_call_3(%arg0: tensor<33x16xf32> loc(unknown), %arg1: tensor<16x33xf32> loc(unknown), %arg2: tensor<1xf32> loc(unknown), %arg3: tensor<16x1xf32> loc(unknown), %arg4: tensor<16xf32> loc(unknown), %arg5: tensor<16x16xf32> loc(unknown), %arg6: tensor<16xf32> loc(unknown), %arg7: tensor<16x16xf32> loc(unknown), %arg8: tensor<16x16xf32> loc(unknown), %arg9: tensor<16x16xf32> loc(unknown), %arg10: tensor<16xf32> loc(unknown), %arg11: tensor<16x16xf32> loc(unknown), %arg12: tensor<16xf32> loc(unknown), %arg13: tensor<16x16xf32> loc(unknown), %arg14: tensor<16xf32> loc(unknown), %arg15: tensor<16x16xf32> loc(unknown), %arg16: tensor<i32> loc(unknown), %arg17: tensor<33x16xf32> loc(unknown), %arg18: tensor<16x33xf32> loc(unknown), %arg19: tensor<1xf32> loc(unknown), %arg20: tensor<16x1xf32> loc(unknown), %arg21: tensor<16xf32> loc(unknown), %arg22: tensor<16x16xf32> loc(unknown), %arg23: tensor<16xf32> loc(unknown), %arg24: tensor<16x16xf32> loc(unknown), %arg25: tensor<16x16xf32> loc(unknown), %arg26: tensor<16x16xf32> loc(unknown), %arg27: tensor<16xf32> loc(unknown), %arg28: tensor<16x16xf32> loc(unknown), %arg29: tensor<16xf32> loc(unknown), %arg30: tensor<16x16xf32> loc(unknown), %arg31: tensor<16xf32> loc(unknown), %arg32: tensor<16x16xf32> loc(unknown), %arg33: tensor<33x16xf32> loc(unknown), %arg34: tensor<16x33xf32> loc(unknown), %arg35: tensor<1xf32> loc(unknown), %arg36: tensor<16x1xf32> loc(unknown), %arg37: tensor<16xf32> loc(unknown), %arg38: tensor<16x16xf32> loc(unknown), %arg39: tensor<16xf32> loc(unknown), %arg40: tensor<16x16xf32> loc(unknown), %arg41: tensor<16x16xf32> loc(unknown), %arg42: tensor<16x16xf32> loc(unknown), %arg43: tensor<16xf32> loc(unknown), %arg44: tensor<16x16xf32> loc(unknown), %arg45: tensor<16xf32> loc(unknown), %arg46: tensor<16x16xf32> loc(unknown), %arg47: tensor<16xf32> loc(unknown), %arg48: tensor<16x16xf32> loc(unknown), %arg49: tensor<16xi32> loc(unknown), %arg50: tensor<16x5xi32> loc(unknown), %arg51: tensor<i32> loc(unknown), %arg52: tensor<16x5xi32> loc(unknown), %arg53: tensor<16xi32> loc(unknown), %arg54: tensor<16xf32> loc(unknown), %arg55: tensor<16xi1> loc(unknown), %arg56: tensor<16xi1> loc(unknown), %arg57: tensor<16xf32> loc(unknown), %arg58: tensor<16xf32> loc(unknown), %arg59: tensor<16xf32> loc(unknown), %arg60: tensor<16xf32> loc(unknown), %arg61: tensor<16x5xi32> loc(unknown), %arg62: tensor<16x5xi32> loc(unknown), %arg63: tensor<16xi1> loc(unknown), %arg64: tensor<16xi32> loc(unknown), %arg65: tensor<16xi1> loc(unknown), %arg66: tensor<16xi1> loc(unknown), %arg67: tensor<16x5xi32> loc(unknown), %arg68: tensor<16xi32> loc(unknown), %arg69: tensor<16x16xf32> loc(unknown), %arg70: tensor<2xui32> loc(unknown)) -> (tensor<i32>, tensor<16x5xi32>, tensor<16xi32>, tensor<16xf32>, tensor<16xi1>, tensor<16xi1>, tensor<16xf32>, tensor<16xf32>, tensor<16xf32>, tensor<16xf32>, tensor<16x5xi32>, tensor<16x5xi32>, tensor<16xi1>, tensor<16xi32>, tensor<16xi1>, tensor<16xi1>, tensor<16x5xi32>, tensor<16xi32>, tensor<16x16xf32>, tensor<16x5xi32>, tensor<16xi32>, tensor<16xf32>, tensor<16xi1>, tensor<16xi1>, tensor<16xf32>, tensor<16xf32>, tensor<16xf32>, tensor<16xf32>, tensor<16x5xi32>, tensor<16xi32>, tensor<16xf32>, tensor<16xi1>, tensor<16xi1>, tensor<16xf32>, tensor<16xf32>, tensor<16xf32>, tensor<16xf32>, tensor<16xf32>, tensor<16xf32>) {
    %c = stablehlo.constant dense<28> : tensor<i32> loc(#loc)
    %c_0 = stablehlo.constant dense<29> : tensor<i32> loc(#loc)
    %c_1 = stablehlo.constant dense<2> : tensor<i32> loc(#loc)
    %c_2 = stablehlo.constant dense<16> : tensor<i32> loc(#loc)
    %c_3 = stablehlo.constant dense<15> : tensor<i32> loc(#loc)
    %c_4 = stablehlo.constant dense<4> : tensor<i32> loc(#loc)
    %c_5 = stablehlo.constant dense<5> : tensor<i32> loc(#loc)
    %c_6 = stablehlo.constant dense<true> : tensor<i1> loc(#loc)
    %c_7 = stablehlo.constant dense<27> : tensor<i32> loc(#loc)
    %c_8 = stablehlo.constant dense<26> : tensor<i32> loc(#loc)
    %cst = stablehlo.constant dense<0xFF800000> : tensor<f32> loc(#loc)
    %cst_9 = stablehlo.constant dense<1.000000e+00> : tensor<f32> loc(#loc)
    %c_10 = stablehlo.constant dense<1> : tensor<i32> loc(#loc)
    %c_11 = stablehlo.constant dense<6> : tensor<i32> loc(#loc)
    %cst_12 = stablehlo.constant dense<0.000000e+00> : tensor<f32> loc(#loc)
    %c_13 = stablehlo.constant dense<32> : tensor<i32> loc(#loc)
    %c_14 = stablehlo.constant dense<0> : tensor<i32> loc(#loc)
    %c_15 = stablehlo.constant dense<false> : tensor<i1> loc(#loc)
    %0 = call @_threefry_split(%arg70) : (tensor<2xui32>) -> tensor<2x2xui32> loc(#loc984)
    %1 = stablehlo.slice %0 [0:1, 0:2] : (tensor<2x2xui32>) -> tensor<1x2xui32> loc(#loc834)
    %2 = stablehlo.reshape %1 : (tensor<1x2xui32>) -> tensor<2xui32> loc(#loc835)
    %3 = stablehlo.slice %0 [1:2, 0:2] : (tensor<2x2xui32>) -> tensor<1x2xui32> loc(#loc834)
    %4 = stablehlo.reshape %3 : (tensor<1x2xui32>) -> tensor<2xui32> loc(#loc835)
    %5 = stablehlo.broadcast_in_dim %arg52, dims = [0, 2] : (tensor<16x5xi32>) -> tensor<16x1x5xi32> loc(#loc1177)
    %6 = stablehlo.broadcast_in_dim %arg53, dims = [0] : (tensor<16xi32>) -> tensor<16x1xi32> loc(#loc1177)
    %7 = stablehlo.broadcast_in_dim %arg55, dims = [0] : (tensor<16xi1>) -> tensor<16x1xi1> loc(#loc1177)
    %8 = stablehlo.broadcast_in_dim %arg56, dims = [0] : (tensor<16xi1>) -> tensor<16x1xi1> loc(#loc1177)
    %9 = stablehlo.or %7, %8 : tensor<16x1xi1> loc(#loc986)
    %10 = call @_take(%arg0, %6) : (tensor<33x16xf32>, tensor<16x1xi32>) -> tensor<16x1x16xf32> loc(#loc1388)
    %11 = stablehlo.broadcast_in_dim %10, dims = [0, 1, 3] : (tensor<16x1x16xf32>) -> tensor<16x1x1x16xf32> loc(#loc1179)
    %12 = call @_take_4(%arg0, %5) : (tensor<33x16xf32>, tensor<16x1x5xi32>) -> tensor<16x1x5x16xf32> loc(#loc1389)
    %13 = stablehlo.concatenate %11, %12, dim = 2 : (tensor<16x1x1x16xf32>, tensor<16x1x5x16xf32>) -> tensor<16x1x6x16xf32> loc(#loc1181)
    %14 = stablehlo.reshape %13 : (tensor<16x1x6x16xf32>) -> tensor<16x6x16xf32> loc(#loc1182)
    %15 = stablehlo.broadcast_in_dim %c_15, dims = [] : (tensor<i1>) -> tensor<16x1x6xi1> loc(#loc1183)
    %16 = stablehlo.broadcast_in_dim %c_14, dims = [] : (tensor<i32>) -> tensor<1xi32> loc(#loc1184)
    %17 = "stablehlo.scatter"(%15, %16, %9) <{indices_are_sorted = true, scatter_dimension_numbers = #stablehlo.scatter<update_window_dims = [0, 1], inserted_window_dims = [2], scatter_dims_to_operand_dims = [2]>, unique_indices = true}> ({
    ^bb0(%arg71: tensor<i1> loc("scatter:"(#loc95)), %arg72: tensor<i1> loc("scatter:"(#loc95))):
      stablehlo.return %arg72 : tensor<i1> loc(#loc1185)
    }) : (tensor<16x1x6xi1>, tensor<1xi32>, tensor<16x1xi1>) -> tensor<16x1x6xi1> loc(#loc1185)
    %18 = stablehlo.reshape %17 : (tensor<16x1x6xi1>) -> tensor<16x6xi1> loc(#loc1186)
    %19 = stablehlo.dot_general %14, %arg5, contracting_dims = [2] x [0] : (tensor<16x6x16xf32>, tensor<16x16xf32>) -> tensor<16x6x16xf32> loc(#loc2155)
    %20 = stablehlo.reshape %arg4 : (tensor<16xf32>) -> tensor<1x1x16xf32> loc(#loc2156)
    %21 = stablehlo.broadcast_in_dim %20, dims = [0, 1, 2] : (tensor<1x1x16xf32>) -> tensor<16x6x16xf32> loc(#loc2157)
    %22 = stablehlo.add %19, %21 : tensor<16x6x16xf32> loc(#loc2157)
    %23 = call @relu(%22) : (tensor<16x6x16xf32>) -> tensor<16x6x16xf32> loc(#loc1945)
    %24 = stablehlo.broadcast_in_dim %cst_12, dims = [] : (tensor<f32>) -> tensor<16x16xf32> loc(#loc2158)
    %25 = stablehlo.transpose %23, dims = [1, 0, 2] : (tensor<16x6x16xf32>) -> tensor<6x16x16xf32> loc(#loc2344)
    %26 = stablehlo.transpose %18, dims = [1, 0] : (tensor<16x6xi1>) -> tensor<6x16xi1> loc(#loc2344)
    call @_where_6(%24) : (tensor<16x16xf32>) -> () loc(#loc2419)
    %27 = stablehlo.broadcast_in_dim %cst_12, dims = [] : (tensor<f32>) -> tensor<6x16x16xf32> loc(#loc2284)
    %28:16 = stablehlo.while(%iterArg = %25, %iterArg_16 = %26, %iterArg_17 = %24, %iterArg_18 = %arg13, %iterArg_19 = %arg12, %iterArg_20 = %arg8, %iterArg_21 = %arg15, %iterArg_22 = %arg14, %iterArg_23 = %arg9, %iterArg_24 = %arg11, %iterArg_25 = %arg10, %iterArg_26 = %arg7, %iterArg_27 = %arg6, %iterArg_28 = %c_14, %iterArg_29 = %arg69, %iterArg_30 = %27) : tensor<6x16x16xf32>, tensor<6x16xi1>, tensor<16x16xf32>, tensor<16x16xf32>, tensor<16xf32>, tensor<16x16xf32>, tensor<16x16xf32>, tensor<16xf32>, tensor<16x16xf32>, tensor<16x16xf32>, tensor<16xf32>, tensor<16x16xf32>, tensor<16xf32>, tensor<i32>, tensor<16x16xf32>, tensor<6x16x16xf32>
    cond {
      %280 = stablehlo.compare LT, %iterArg_28, %c_11, SIGNED : (tensor<i32>, tensor<i32>) -> tensor<i1> loc(#loc2346)
      stablehlo.return %280 : tensor<i1> loc(#loc2285)
    } do {
      %280 = func.call @dynamic_index_in_dim_7(%iterArg, %iterArg_28) : (tensor<6x16x16xf32>, tensor<i32>) -> tensor<16x16xf32> loc(#loc2347)
      %281 = func.call @dynamic_index_in_dim_8(%iterArg_16, %iterArg_28) : (tensor<6x16xi1>, tensor<i32>) -> tensor<16xi1> loc(#loc2347)
      %282:2 = func.call @closed_call_9(%iterArg_17, %iterArg_18, %iterArg_19, %iterArg_20, %iterArg_21, %iterArg_22, %iterArg_23, %iterArg_24, %iterArg_25, %iterArg_26, %iterArg_27, %iterArg_29, %280, %281) : (tensor<16x16xf32>, tensor<16x16xf32>, tensor<16xf32>, tensor<16x16xf32>, tensor<16x16xf32>, tensor<16xf32>, tensor<16x16xf32>, tensor<16x16xf32>, tensor<16xf32>, tensor<16x16xf32>, tensor<16xf32>, tensor<16x16xf32>, tensor<16x16xf32>, tensor<16xi1>) -> (tensor<16x16xf32>, tensor<16x16xf32>) loc(#loc2348)
      %283 = func.call @dynamic_update_index_in_dim(%iterArg_30, %282#1, %iterArg_28) : (tensor<6x16x16xf32>, tensor<16x16xf32>, tensor<i32>) -> tensor<6x16x16xf32> loc(#loc2349)
      %284 = stablehlo.add %iterArg_28, %c_10 : tensor<i32> loc(#loc2350)
      stablehlo.return %iterArg, %iterArg_16, %iterArg_17, %iterArg_18, %iterArg_19, %iterArg_20, %iterArg_21, %iterArg_22, %iterArg_23, %iterArg_24, %iterArg_25, %iterArg_26, %iterArg_27, %284, %282#0, %283 : tensor<6x16x16xf32>, tensor<6x16xi1>, tensor<16x16xf32>, tensor<16x16xf32>, tensor<16xf32>, tensor<16x16xf32>, tensor<16x16xf32>, tensor<16xf32>, tensor<16x16xf32>, tensor<16x16xf32>, tensor<16xf32>, tensor<16x16xf32>, tensor<16xf32>, tensor<i32>, tensor<16x16xf32>, tensor<6x16x16xf32> loc(#loc2285)
    } loc(#loc2285)
    %29 = stablehlo.transpose %28#15, dims = [1, 0, 2] : (tensor<6x16x16xf32>) -> tensor<16x6x16xf32> loc(#loc2351)
    %30 = stablehlo.reshape %29 : (tensor<16x6x16xf32>) -> tensor<16x1x6x16xf32> loc(#loc1188)
    %31 = stablehlo.slice %30 [0:16, 0:1, 5:6, 0:16] : (tensor<16x1x6x16xf32>) -> tensor<16x1x1x16xf32> loc(#loc1189)
    %32 = stablehlo.reshape %31 : (tensor<16x1x1x16xf32>) -> tensor<16x1x16xf32> loc(#loc1190)
    %33 = stablehlo.dot_general %32, %arg1, contracting_dims = [2] x [0] : (tensor<16x1x16xf32>, tensor<16x33xf32>) -> tensor<16x1x33xf32> loc(#loc1391)
    %34 = stablehlo.dot_general %32, %arg3, contracting_dims = [2] x [0] : (tensor<16x1x16xf32>, tensor<16x1xf32>) -> tensor<16x1x1xf32> loc(#loc1392)
    %35 = stablehlo.reshape %arg2 : (tensor<1xf32>) -> tensor<1x1x1xf32> loc(#loc1393)
    %36 = stablehlo.broadcast_in_dim %35, dims = [0, 1, 2] : (tensor<1x1x1xf32>) -> tensor<16x1x1xf32> loc(#loc1394)
    %37 = stablehlo.add %34, %36 : tensor<16x1x1xf32> loc(#loc1394)
    %38 = call @log_softmax(%33) : (tensor<16x1x33xf32>) -> tensor<16x1x33xf32> loc(#loc1693)
    %39 = call @_gumbel(%2) : (tensor<2xui32>) -> tensor<1x16x1x33xf32> loc(#loc1951)
    %40 = stablehlo.broadcast_in_dim %cst_9, dims = [] : (tensor<f32>) -> tensor<1x16x1x33xf32> loc(#loc1952)
    %41 = stablehlo.multiply %40, %39 : tensor<1x16x1x33xf32> loc(#loc1952)
    %42 = stablehlo.broadcast_in_dim %38, dims = [1, 2, 3] : (tensor<16x1x33xf32>) -> tensor<1x16x1x33xf32> loc(#loc1953)
    %43 = stablehlo.add %42, %41 : tensor<1x16x1x33xf32> loc(#loc1954)
    %44 = call @argmax(%43) : (tensor<1x16x1x33xf32>) -> tensor<1x16x1xi32> loc(#loc1697)
    %45 = call @_one_hot(%44) : (tensor<1x16x1xi32>) -> tensor<1x16x1x33xf32> loc(#loc1955)
    %46 = stablehlo.broadcast_in_dim %c_14, dims = [] : (tensor<i32>) -> tensor<1x16x1xi32> loc(#loc1956)
    %47 = stablehlo.compare LT, %44, %46, SIGNED : (tensor<1x16x1xi32>, tensor<1x16x1xi32>) -> tensor<1x16x1xi1> loc(#loc1956)
    %48 = stablehlo.broadcast_in_dim %c_13, dims = [] : (tensor<i32>) -> tensor<1x16x1xi32> loc(#loc1957)
    %49 = stablehlo.compare GT, %44, %48, SIGNED : (tensor<1x16x1xi32>, tensor<1x16x1xi32>) -> tensor<1x16x1xi1> loc(#loc1957)
    %50 = stablehlo.or %47, %49 : tensor<1x16x1xi1> loc(#loc1958)
    %51 = stablehlo.broadcast_in_dim %cst_12, dims = [] : (tensor<f32>) -> tensor<1x16x1x33xf32> loc(#loc2163)
    %52 = stablehlo.compare EQ, %45, %51, FLOAT : (tensor<1x16x1x33xf32>, tensor<1x16x1x33xf32>) -> tensor<1x16x1x33xi1> loc(#loc2163)
    %53 = stablehlo.broadcast_in_dim %38, dims = [1, 2, 3] : (tensor<16x1x33xf32>) -> tensor<1x16x1x33xf32> loc(#loc2164)
    %54 = stablehlo.multiply %53, %45 : tensor<1x16x1x33xf32> loc(#loc2165)
    %55 = call @_where_13(%52, %cst_12, %54) : (tensor<1x16x1x33xi1>, tensor<f32>, tensor<1x16x1x33xf32>) -> tensor<1x16x1x33xf32> loc(#loc2166)
    %56 = stablehlo.reduce(%55 init: %cst_12) applies stablehlo.add across dimensions = [3] : (tensor<1x16x1x33xf32>, tensor<f32>) -> tensor<1x16x1xf32> loc(#loc1962)
    %57 = call @_where_14(%50, %cst, %56) : (tensor<1x16x1xi1>, tensor<f32>, tensor<1x16x1xf32>) -> tensor<1x16x1xf32> loc(#loc1963)
    %58 = stablehlo.reduce(%57 init: %cst_12) applies stablehlo.add across dimensions = [] : (tensor<1x16x1xf32>, tensor<f32>) -> tensor<1x16x1xf32> loc(#loc1398)
    %59 = stablehlo.reshape %44 : (tensor<1x16x1xi32>) -> tensor<16x1xi32> loc(#loc1198)
    %60 = stablehlo.reshape %58 : (tensor<1x16x1xf32>) -> tensor<16x1xf32> loc(#loc1198)
    %61 = stablehlo.reshape %59 : (tensor<16x1xi32>) -> tensor<16xi32> loc(#loc1004)
    %62 = stablehlo.reshape %60 : (tensor<16x1xf32>) -> tensor<16xf32> loc(#loc1005)
    %63 = stablehlo.reshape %37 : (tensor<16x1x1xf32>) -> tensor<16x1xf32> loc(#loc1006)
    %64 = stablehlo.reshape %63 : (tensor<16x1xf32>) -> tensor<16xf32> loc(#loc1007)
    %65 = call @_threefry_split_0(%4) : (tensor<2xui32>) -> tensor<16x2xui32> loc(#loc1199)
    %66 = call @_threefry_split_15(%65) : (tensor<16x2xui32>) -> tensor<16x2x2xui32> loc(#loc1399)
    %67 = stablehlo.slice %66 [0:16, 1:2, 0:2] : (tensor<16x2x2xui32>) -> tensor<16x1x2xui32> loc(#loc1201)
    %68 = stablehlo.reshape %67 : (tensor<16x1x2xui32>) -> tensor<16x2xui32> loc(#loc1202)
    %69 = stablehlo.broadcast_in_dim %c_8, dims = [] : (tensor<i32>) -> tensor<16xi32> loc(#loc1400)
    %70 = stablehlo.compare EQ, %61, %69, SIGNED : (tensor<16xi32>, tensor<16xi32>) -> tensor<16xi1> loc(#loc1400)
    %71 = stablehlo.broadcast_in_dim %c_7, dims = [] : (tensor<i32>) -> tensor<16xi32> loc(#loc1401)
    %72 = stablehlo.compare EQ, %61, %71, SIGNED : (tensor<16xi32>, tensor<16xi32>) -> tensor<16xi1> loc(#loc1401)
    %73 = call @_where_18(%70, %c_6, %arg66) : (tensor<16xi1>, tensor<i1>, tensor<16xi1>) -> tensor<16xi1> loc(#loc1402)
    %74 = call @_where_19(%70, %c_14, %arg68) : (tensor<16xi1>, tensor<i32>, tensor<16xi32>) -> tensor<16xi32> loc(#loc1403)
    %75 = stablehlo.broadcast_in_dim %c_14, dims = [] : (tensor<i32>) -> tensor<5xi32> loc(#loc1404)
    %76 = call @_where_20(%70, %75, %arg67) : (tensor<16xi1>, tensor<5xi32>, tensor<16x5xi32>) -> tensor<16x5xi32> loc(#loc1405)
    %77 = stablehlo.not %70 : tensor<16xi1> loc(#loc1406)
    %78 = stablehlo.and %73, %77 : tensor<16xi1> loc(#loc1407)
    %79 = stablehlo.not %72 : tensor<16xi1> loc(#loc1408)
    %80 = stablehlo.and %78, %79 : tensor<16xi1> loc(#loc1409)
    %81 = stablehlo.broadcast_in_dim %c_5, dims = [] : (tensor<i32>) -> tensor<16xi32> loc(#loc1410)
    %82 = stablehlo.compare LT, %74, %81, SIGNED : (tensor<16xi32>, tensor<16xi32>) -> tensor<16xi1> loc(#loc1410)
    %83 = stablehlo.and %80, %82 : tensor<16xi1> loc(#loc1411)
    %84 = call @clip(%74, %c_14, %c_4) : (tensor<16xi32>, tensor<i32>, tensor<i32>) -> tensor<16xi32> loc(#loc1412)
    %85 = stablehlo.broadcast_in_dim %c_14, dims = [] : (tensor<i32>) -> tensor<16xi32> loc(#loc1413)
    %86 = stablehlo.compare LT, %84, %85, SIGNED : (tensor<16xi32>, tensor<16xi32>) -> tensor<16xi1> loc(#loc1413)
    %87 = stablehlo.broadcast_in_dim %c_5, dims = [] : (tensor<i32>) -> tensor<16xi32> loc(#loc1414)
    %88 = stablehlo.add %84, %87 : tensor<16xi32> loc(#loc1414)
    %89 = stablehlo.select %86, %88, %84 : tensor<16xi1>, tensor<16xi32> loc(#loc1415)
    %90 = stablehlo.broadcast_in_dim %89, dims = [0] : (tensor<16xi32>) -> tensor<16x1xi32> loc(#loc1416)
    %91 = "stablehlo.scatter"(%76, %90, %61) <{indices_are_sorted = true, scatter_dimension_numbers = #stablehlo.scatter<inserted_window_dims = [1], input_batching_dims = [0], scatter_indices_batching_dims = [0], scatter_dims_to_operand_dims = [1], index_vector_dim = 1>, unique_indices = true}> ({
    ^bb0(%arg71: tensor<i32> loc("scatter:"(#loc95)), %arg72: tensor<i32> loc("scatter:"(#loc95))):
      stablehlo.return %arg72 : tensor<i32> loc(#loc1417)
    }) : (tensor<16x5xi32>, tensor<16x1xi32>, tensor<16xi32>) -> tensor<16x5xi32> loc(#loc1417)
    %92 = call @_where_21(%83, %91, %76) : (tensor<16xi1>, tensor<16x5xi32>, tensor<16x5xi32>) -> tensor<16x5xi32> loc(#loc1418)
    %93 = stablehlo.broadcast_in_dim %c_10, dims = [] : (tensor<i32>) -> tensor<16xi32> loc(#loc1419)
    %94 = stablehlo.add %74, %93 : tensor<16xi32> loc(#loc1419)
    %95 = call @_where_22(%83, %94, %74) : (tensor<16xi1>, tensor<16xi32>, tensor<16xi32>) -> tensor<16xi32> loc(#loc1420)
    %96 = stablehlo.and %73, %72 : tensor<16xi1> loc(#loc1421)
    %97 = stablehlo.iota dim = 0 : tensor<5xi32> loc(#loc1964)
    %98 = stablehlo.compare EQ, %c_8, %c_14, SIGNED : (tensor<i32>, tensor<i32>) -> tensor<i1> loc(#loc1965)
    %99 = stablehlo.broadcast_in_dim %c_14, dims = [] : (tensor<i32>) -> tensor<5xi32> loc(#loc1966)
    %100 = stablehlo.compare NE, %97, %99, SIGNED : (tensor<5xi32>, tensor<5xi32>) -> tensor<5xi1> loc(#loc1966)
    %101 = stablehlo.broadcast_in_dim %98, dims = [] : (tensor<i1>) -> tensor<5xi1> loc(#loc1967)
    %102 = stablehlo.and %101, %100 : tensor<5xi1> loc(#loc1967)
    %103 = call @_where_23(%102, %c_14, %c_10) : (tensor<5xi1>, tensor<i32>, tensor<i32>) -> tensor<5xi32> loc(#loc1968)
    %104 = stablehlo.broadcast_in_dim %c_10, dims = [] : (tensor<i32>) -> tensor<5xi32> loc(#loc1967)
    %105 = stablehlo.and %97, %104 : tensor<5xi32> loc(#loc1967)
    %106 = stablehlo.broadcast_in_dim %c_8, dims = [] : (tensor<i32>) -> tensor<5xi32> loc(#loc1969)
    %107 = stablehlo.multiply %103, %106 : tensor<5xi32> loc(#loc1969)
    %108 = call @_where_24(%105, %107, %103) : (tensor<5xi32>, tensor<5xi32>, tensor<5xi32>) -> tensor<5xi32> loc(#loc1968)
    %109 = stablehlo.multiply %c_8, %c_8 : tensor<i32> loc(#loc1969)
    %110 = stablehlo.broadcast_in_dim %c_10, dims = [] : (tensor<i32>) -> tensor<5xi32> loc(#loc1970)
    %111 = stablehlo.shift_right_logical %97, %110 : tensor<5xi32> loc(#loc1970)
    %112 = stablehlo.broadcast_in_dim %c_10, dims = [] : (tensor<i32>) -> tensor<5xi32> loc(#loc1967)
    %113 = stablehlo.and %111, %112 : tensor<5xi32> loc(#loc1967)
    %114 = stablehlo.broadcast_in_dim %109, dims = [] : (tensor<i32>) -> tensor<5xi32> loc(#loc1969)
    %115 = stablehlo.multiply %108, %114 : tensor<5xi32> loc(#loc1969)
    %116 = call @_where_24(%113, %115, %108) : (tensor<5xi32>, tensor<5xi32>, tensor<5xi32>) -> tensor<5xi32> loc(#loc1968)
    %117 = stablehlo.multiply %109, %109 : tensor<i32> loc(#loc1969)
    %118 = stablehlo.broadcast_in_dim %c_10, dims = [] : (tensor<i32>) -> tensor<5xi32> loc(#loc1970)
    %119 = stablehlo.shift_right_logical %111, %118 : tensor<5xi32> loc(#loc1970)
    %120 = stablehlo.broadcast_in_dim %c_10, dims = [] : (tensor<i32>) -> tensor<5xi32> loc(#loc1967)
    %121 = stablehlo.and %119, %120 : tensor<5xi32> loc(#loc1967)
    %122 = stablehlo.broadcast_in_dim %117, dims = [] : (tensor<i32>) -> tensor<5xi32> loc(#loc1969)
    %123 = stablehlo.multiply %116, %122 : tensor<5xi32> loc(#loc1969)
    %124 = call @_where_24(%121, %123, %116) : (tensor<5xi32>, tensor<5xi32>, tensor<5xi32>) -> tensor<5xi32> loc(#loc1968)
    %125 = stablehlo.multiply %117, %117 : tensor<i32> loc(#loc1969)
    %126 = stablehlo.broadcast_in_dim %c_10, dims = [] : (tensor<i32>) -> tensor<5xi32> loc(#loc1970)
    %127 = stablehlo.shift_right_logical %119, %126 : tensor<5xi32> loc(#loc1970)
    %128 = stablehlo.broadcast_in_dim %c_10, dims = [] : (tensor<i32>) -> tensor<5xi32> loc(#loc1967)
    %129 = stablehlo.and %127, %128 : tensor<5xi32> loc(#loc1967)
    %130 = stablehlo.broadcast_in_dim %125, dims = [] : (tensor<i32>) -> tensor<5xi32> loc(#loc1969)
    %131 = stablehlo.multiply %124, %130 : tensor<5xi32> loc(#loc1969)
    %132 = call @_where_24(%129, %131, %124) : (tensor<5xi32>, tensor<5xi32>, tensor<5xi32>) -> tensor<5xi32> loc(#loc1968)
    %133 = stablehlo.multiply %125, %125 : tensor<i32> loc(#loc1969)
    %134 = stablehlo.broadcast_in_dim %c_10, dims = [] : (tensor<i32>) -> tensor<5xi32> loc(#loc1970)
    %135 = stablehlo.shift_right_logical %127, %134 : tensor<5xi32> loc(#loc1970)
    %136 = stablehlo.broadcast_in_dim %c_10, dims = [] : (tensor<i32>) -> tensor<5xi32> loc(#loc1967)
    %137 = stablehlo.and %135, %136 : tensor<5xi32> loc(#loc1967)
    %138 = stablehlo.broadcast_in_dim %133, dims = [] : (tensor<i32>) -> tensor<5xi32> loc(#loc1969)
    %139 = stablehlo.multiply %132, %138 : tensor<5xi32> loc(#loc1969)
    %140 = call @_where_24(%137, %139, %132) : (tensor<5xi32>, tensor<5xi32>, tensor<5xi32>) -> tensor<5xi32> loc(#loc1968)
    %141 = stablehlo.multiply %133, %133 : tensor<i32> loc(#loc1969)
    %142 = stablehlo.broadcast_in_dim %c_10, dims = [] : (tensor<i32>) -> tensor<5xi32> loc(#loc1970)
    %143 = stablehlo.shift_right_logical %135, %142 : tensor<5xi32> loc(#loc1970)
    %144 = stablehlo.broadcast_in_dim %c_10, dims = [] : (tensor<i32>) -> tensor<5xi32> loc(#loc1967)
    %145 = stablehlo.and %143, %144 : tensor<5xi32> loc(#loc1967)
    %146 = stablehlo.broadcast_in_dim %141, dims = [] : (tensor<i32>) -> tensor<5xi32> loc(#loc1969)
    %147 = stablehlo.multiply %140, %146 : tensor<5xi32> loc(#loc1969)
    %148 = call @_where_24(%145, %147, %140) : (tensor<5xi32>, tensor<5xi32>, tensor<5xi32>) -> tensor<5xi32> loc(#loc1968)
    %149 = stablehlo.broadcast_in_dim %148, dims = [1] : (tensor<5xi32>) -> tensor<1x5xi32> loc(#loc1971)
    %150 = stablehlo.broadcast_in_dim %149, dims = [0, 1] : (tensor<1x5xi32>) -> tensor<16x5xi32> loc(#loc1972)
    %151 = stablehlo.multiply %92, %150 : tensor<16x5xi32> loc(#loc1972)
    %152 = stablehlo.reduce(%151 init: %c_14) applies stablehlo.add across dimensions = [1] : (tensor<16x5xi32>, tensor<i32>) -> tensor<16xi32> loc(#loc1973)
    %153 = call @searchsorted(%arg49, %152) : (tensor<16xi32>, tensor<16xi32>) -> tensor<16xi32> loc(#loc1974)
    %154 = call @clip(%153, %c_14, %c_3) : (tensor<16xi32>, tensor<i32>, tensor<i32>) -> tensor<16xi32> loc(#loc1975)
    %155 = stablehlo.broadcast_in_dim %c_14, dims = [] : (tensor<i32>) -> tensor<16xi32> loc(#loc1976)
    %156 = stablehlo.compare LT, %154, %155, SIGNED : (tensor<16xi32>, tensor<16xi32>) -> tensor<16xi1> loc(#loc1976)
    %157 = stablehlo.broadcast_in_dim %c_2, dims = [] : (tensor<i32>) -> tensor<16xi32> loc(#loc1977)
    %158 = stablehlo.add %154, %157 : tensor<16xi32> loc(#loc1977)
    %159 = stablehlo.select %156, %158, %154 : tensor<16xi1>, tensor<16xi32> loc(#loc1978)
    %160 = stablehlo.broadcast_in_dim %159, dims = [0] : (tensor<16xi32>) -> tensor<16x1xi32> loc(#loc1979)
    %161 = "stablehlo.gather"(%arg49, %160) <{dimension_numbers = #stablehlo.gather<offset_dims = [1], start_index_map = [0], index_vector_dim = 1>, slice_sizes = array<i64: 1>}> : (tensor<16xi32>, tensor<16x1xi32>) -> tensor<16x1xi32> loc(#loc1980)
    %162 = stablehlo.reshape %161 : (tensor<16x1xi32>) -> tensor<16xi32> loc(#loc1981)
    %163 = stablehlo.compare EQ, %162, %152, SIGNED : (tensor<16xi32>, tensor<16xi32>) -> tensor<16xi1> loc(#loc1982)
    %164 = stablehlo.compare EQ, %92, %arg61, SIGNED : (tensor<16x5xi32>, tensor<16x5xi32>) -> tensor<16x5xi1> loc(#loc1713)
    %165 = stablehlo.reduce(%164 init: %c_6) applies stablehlo.and across dimensions = [1] : (tensor<16x5xi1>, tensor<i1>) -> tensor<16xi1> loc(#loc1714)
    %166 = stablehlo.compare EQ, %92, %arg61, SIGNED : (tensor<16x5xi32>, tensor<16x5xi32>) -> tensor<16x5xi1> loc(#loc1983)
    %167 = stablehlo.broadcast_in_dim %c_14, dims = [] : (tensor<i32>) -> tensor<26xi32> loc(#loc1984)
    %168 = stablehlo.not %166 : tensor<16x5xi1> loc(#loc1985)
    %169 = stablehlo.convert %168 : (tensor<16x5xi1>) -> tensor<16x5xi32> loc(#loc1986)
    %170 = stablehlo.broadcast_in_dim %c_14, dims = [] : (tensor<i32>) -> tensor<16x5xi32> loc(#loc1987)
    %171 = stablehlo.compare LT, %arg61, %170, SIGNED : (tensor<16x5xi32>, tensor<16x5xi32>) -> tensor<16x5xi1> loc(#loc1987)
    %172 = stablehlo.broadcast_in_dim %c_8, dims = [] : (tensor<i32>) -> tensor<16x5xi32> loc(#loc1988)
    %173 = stablehlo.add %arg61, %172 : tensor<16x5xi32> loc(#loc1988)
    %174 = stablehlo.select %171, %173, %arg61 : tensor<16x5xi1>, tensor<16x5xi32> loc(#loc1989)
    %175 = stablehlo.broadcast_in_dim %174, dims = [0, 1] : (tensor<16x5xi32>) -> tensor<16x5x1xi32> loc(#loc1990)
    %176 = stablehlo.broadcast_in_dim %167, dims = [1] : (tensor<26xi32>) -> tensor<16x26xi32> loc(#loc1990)
    %177 = "stablehlo.scatter"(%176, %175, %169) <{scatter_dimension_numbers = #stablehlo.scatter<inserted_window_dims = [1], input_batching_dims = [0], scatter_indices_batching_dims = [0], scatter_dims_to_operand_dims = [1], index_vector_dim = 2>}> ({
    ^bb0(%arg71: tensor<i32> loc("scatter-add:"(#loc235)), %arg72: tensor<i32> loc("scatter-add:"(#loc235))):
      %280 = stablehlo.add %arg71, %arg72 : tensor<i32> loc(#loc1988)
      stablehlo.return %280 : tensor<i32> loc(#loc1991)
    }) : (tensor<16x26xi32>, tensor<16x5x1xi32>, tensor<16x5xi32>) -> tensor<16x26xi32> loc(#loc1991)
    %178 = stablehlo.transpose %92, dims = [1, 0] : (tensor<16x5xi32>) -> tensor<5x16xi32> loc(#loc1992)
    %179 = stablehlo.transpose %166, dims = [1, 0] : (tensor<16x5xi1>) -> tensor<5x16xi1> loc(#loc1992)
    %180 = stablehlo.broadcast_in_dim %c_15, dims = [] : (tensor<i1>) -> tensor<5x16xi1> loc(#loc2167)
    %181:5 = stablehlo.while(%iterArg = %178, %iterArg_16 = %179, %iterArg_17 = %c_14, %iterArg_18 = %177, %iterArg_19 = %180) : tensor<5x16xi32>, tensor<5x16xi1>, tensor<i32>, tensor<16x26xi32>, tensor<5x16xi1>
    cond {
      %280 = stablehlo.compare LT, %iterArg_17, %c_5, SIGNED : (tensor<i32>, tensor<i32>) -> tensor<i1> loc(#loc2288)
      stablehlo.return %280 : tensor<i1> loc(#loc2168)
    } do {
      %280 = func.call @dynamic_index_in_dim_26(%iterArg, %iterArg_17) : (tensor<5x16xi32>, tensor<i32>) -> tensor<16xi32> loc(#loc2289)
      %281 = func.call @dynamic_index_in_dim_27(%iterArg_16, %iterArg_17) : (tensor<5x16xi1>, tensor<i32>) -> tensor<16xi1> loc(#loc2289)
      %282:2 = func.call @closed_call_28(%iterArg_18, %280, %281) : (tensor<16x26xi32>, tensor<16xi32>, tensor<16xi1>) -> (tensor<16x26xi32>, tensor<16xi1>) loc(#loc2290)
      %283 = func.call @dynamic_update_index_in_dim_29(%iterArg_19, %282#1, %iterArg_17) : (tensor<5x16xi1>, tensor<16xi1>, tensor<i32>) -> tensor<5x16xi1> loc(#loc2291)
      %284 = stablehlo.add %iterArg_17, %c_10 : tensor<i32> loc(#loc2292)
      stablehlo.return %iterArg, %iterArg_16, %284, %282#0, %283 : tensor<5x16xi32>, tensor<5x16xi1>, tensor<i32>, tensor<16x26xi32>, tensor<5x16xi1> loc(#loc2168)
    } loc(#loc2168)
    %182 = call @_where_30(%181#4, %c_10, %c_14) : (tensor<5x16xi1>, tensor<i32>, tensor<i32>) -> tensor<16x5xi32> loc(#loc1994)
    %183 = call @_where_31(%166, %c_1, %182) : (tensor<16x5xi1>, tensor<i32>, tensor<16x5xi32>) -> tensor<16x5xi32> loc(#loc1995)
    %184 = stablehlo.convert %163 : (tensor<16xi1>) -> tensor<16xi32> loc(#loc1723)
    %185 = stablehlo.add %arg64, %184 : tensor<16xi32> loc(#loc1724)
    %186 = stablehlo.convert %165 : (tensor<16xi1>) -> tensor<16xf32> loc(#loc1725)
    %187 = stablehlo.broadcast_in_dim %c_11, dims = [] : (tensor<i32>) -> tensor<16xi32> loc(#loc1726)
    %188 = stablehlo.compare GE, %185, %187, SIGNED : (tensor<16xi32>, tensor<16xi32>) -> tensor<16xi1> loc(#loc1726)
    %189 = stablehlo.or %165, %188 : tensor<16xi1> loc(#loc1727)
    %190 = stablehlo.convert %165 : (tensor<16xi1>) -> tensor<16xf32> loc(#loc1728)
    %191 = stablehlo.convert %185 : (tensor<16xi32>) -> tensor<16xf32> loc(#loc1729)
    %192 = stablehlo.not %163 : tensor<16xi1> loc(#loc1730)
    %193 = stablehlo.convert %192 : (tensor<16xi1>) -> tensor<16xf32> loc(#loc1731)
    %194 = call @_one_hot_32(%183) : (tensor<16x5xi32>) -> tensor<16x5x3xf32> loc(#loc1996)
    %195 = stablehlo.reshape %194 : (tensor<16x5x3xf32>) -> tensor<16x15xf32> loc(#loc1997)
    %196 = call @_where_33(%163, %195, %cst_12) : (tensor<16xi1>, tensor<16x15xf32>, tensor<f32>) -> tensor<16x15xf32> loc(#loc1998)
    %197 = stablehlo.broadcast_in_dim %96, dims = [0] : (tensor<16xi1>) -> tensor<16x5xi1> loc(#loc1735)
    %198 = stablehlo.select %197, %arg61, %arg61 : tensor<16x5xi1>, tensor<16x5xi32> loc(#loc1736)
    %199 = stablehlo.broadcast_in_dim %96, dims = [0] : (tensor<16xi1>) -> tensor<16x5xi1> loc(#loc1735)
    %200 = stablehlo.select %199, %183, %arg62 : tensor<16x5xi1>, tensor<16x5xi32> loc(#loc1736)
    %201 = stablehlo.select %96, %163, %arg63 : tensor<16xi1>, tensor<16xi1> loc(#loc1736)
    %202 = stablehlo.select %96, %185, %arg64 : tensor<16xi1>, tensor<16xi32> loc(#loc1736)
    %203 = stablehlo.select %96, %165, %arg65 : tensor<16xi1>, tensor<16xi1> loc(#loc1736)
    %204 = stablehlo.reshape %196 : (tensor<16x15xf32>) -> tensor<16x5x3xf32> loc(#loc1737)
    %205 = stablehlo.reduce(%204 init: %cst_12) applies stablehlo.add across dimensions = [2] : (tensor<16x5x3xf32>, tensor<f32>) -> tensor<16x5xf32> loc(#loc1738)
    %206 = stablehlo.broadcast_in_dim %cst_12, dims = [] : (tensor<f32>) -> tensor<16x5xf32> loc(#loc1739)
    %207 = stablehlo.compare GT, %205, %206, FLOAT : (tensor<16x5xf32>, tensor<16x5xf32>) -> tensor<16x5xi1> loc(#loc1739)
    %208 = call @argmax_34(%204) : (tensor<16x5x3xf32>) -> tensor<16x5xi32> loc(#loc1740)
    %209 = stablehlo.broadcast_in_dim %c_0, dims = [] : (tensor<i32>) -> tensor<16x5xi32> loc(#loc1741)
    %210 = stablehlo.add %209, %208 : tensor<16x5xi32> loc(#loc1741)
    %211 = call @_where_35(%207, %210, %c_13) : (tensor<16x5xi1>, tensor<16x5xi32>, tensor<i32>) -> tensor<16x5xi32> loc(#loc1742)
    %212 = stablehlo.broadcast_in_dim %c, dims = [] : (tensor<i32>) -> tensor<5xi32> loc(#loc1444)
    %213 = stablehlo.broadcast_in_dim %212, dims = [1] : (tensor<5xi32>) -> tensor<16x5xi32> loc(#loc1743)
    %214 = stablehlo.broadcast_in_dim %96, dims = [0] : (tensor<16xi1>) -> tensor<16x5xi1> loc(#loc1743)
    %215 = stablehlo.select %214, %211, %213 : tensor<16x5xi1>, tensor<16x5xi32> loc(#loc1744)
    %216 = stablehlo.broadcast_in_dim %cst_12, dims = [] : (tensor<f32>) -> tensor<16xf32> loc(#loc1745)
    %217 = stablehlo.select %96, %186, %216 : tensor<16xi1>, tensor<16xf32> loc(#loc1746)
    %218 = stablehlo.broadcast_in_dim %c_15, dims = [] : (tensor<i1>) -> tensor<16xi1> loc(#loc1747)
    %219 = stablehlo.select %96, %189, %218 : tensor<16xi1>, tensor<16xi1> loc(#loc1748)
    %220 = stablehlo.broadcast_in_dim %cst_12, dims = [] : (tensor<f32>) -> tensor<16xf32> loc(#loc1999)
    %221 = stablehlo.select %96, %191, %220 : tensor<16xi1>, tensor<16xf32> loc(#loc2000)
    %222 = stablehlo.broadcast_in_dim %cst_12, dims = [] : (tensor<f32>) -> tensor<16xf32> loc(#loc1999)
    %223 = stablehlo.select %96, %193, %222 : tensor<16xi1>, tensor<16xf32> loc(#loc2000)
    %224 = stablehlo.broadcast_in_dim %cst_12, dims = [] : (tensor<f32>) -> tensor<16xf32> loc(#loc1999)
    %225 = stablehlo.select %96, %190, %224 : tensor<16xi1>, tensor<16xf32> loc(#loc2000)
    %226 = stablehlo.convert %96 : (tensor<16xi1>) -> tensor<16xf32> loc(#loc1449)
    %227 = call @_where_18(%96, %c_15, %73) : (tensor<16xi1>, tensor<i1>, tensor<16xi1>) -> tensor<16xi1> loc(#loc1450)
    %228 = call @_where_19(%96, %c_14, %95) : (tensor<16xi1>, tensor<i32>, tensor<16xi32>) -> tensor<16xi32> loc(#loc1451)
    %229 = call @_randint(%68, %c_14, %c_2) : (tensor<16x2xui32>, tensor<i32>, tensor<i32>) -> tensor<16xi32> loc(#loc1750)
    %230 = stablehlo.broadcast_in_dim %c_14, dims = [] : (tensor<i32>) -> tensor<16xi32> loc(#loc1751)
    %231 = stablehlo.compare LT, %229, %230, SIGNED : (tensor<16xi32>, tensor<16xi32>) -> tensor<16xi1> loc(#loc1751)
    %232 = stablehlo.broadcast_in_dim %c_2, dims = [] : (tensor<i32>) -> tensor<16xi32> loc(#loc1752)
    %233 = stablehlo.add %229, %232 : tensor<16xi32> loc(#loc1752)
    %234 = stablehlo.select %231, %233, %229 : tensor<16xi1>, tensor<16xi32> loc(#loc1753)
    %235 = stablehlo.compare LT, %c_14, %c_14, SIGNED : (tensor<i32>, tensor<i32>) -> tensor<i1> loc(#loc1751)
    %236 = stablehlo.add %c_14, %c_5 : tensor<i32> loc(#loc1752)
    %237 = stablehlo.select %235, %236, %c_14 : tensor<i1>, tensor<i32> loc(#loc1753)
    %238 = stablehlo.broadcast_in_dim %234, dims = [0] : (tensor<16xi32>) -> tensor<16x1xi32> loc(#loc1754)
    %239 = stablehlo.broadcast_in_dim %237, dims = [] : (tensor<i32>) -> tensor<16x1xi32> loc(#loc1754)
    %240 = stablehlo.concatenate %238, %239, dim = 1 : (tensor<16x1xi32>, tensor<16x1xi32>) -> tensor<16x2xi32> loc(#loc1755)
    %241 = "stablehlo.gather"(%arg50, %240) <{dimension_numbers = #stablehlo.gather<offset_dims = [1, 2], start_index_map = [0, 1], index_vector_dim = 1>, slice_sizes = array<i64: 1, 5>}> : (tensor<16x5xi32>, tensor<16x2xi32>) -> tensor<16x1x5xi32> loc(#loc1756)
    %242 = stablehlo.reshape %241 : (tensor<16x1x5xi32>) -> tensor<16x5xi32> loc(#loc1757)
    %243 = stablehlo.broadcast_in_dim %c_14, dims = [] : (tensor<i32>) -> tensor<5xi32> loc(#loc1758)
    %244 = call @_one_hot_40(%243) : (tensor<5xi32>) -> tensor<5x3xf32> loc(#loc2001)
    %245 = stablehlo.reshape %244 : (tensor<5x3xf32>) -> tensor<15xf32> loc(#loc2002)
    %246 = call @_where_41(%c_15, %245, %cst_12) : (tensor<i1>, tensor<15xf32>, tensor<f32>) -> tensor<15xf32> loc(#loc2003)
    %247 = stablehlo.broadcast_in_dim %c_14, dims = [] : (tensor<i32>) -> tensor<5xi32> loc(#loc1456)
    %248 = stablehlo.broadcast_in_dim %c, dims = [] : (tensor<i32>) -> tensor<5xi32> loc(#loc1457)
    %249 = stablehlo.broadcast_in_dim %c_15, dims = [] : (tensor<i1>) -> tensor<16xi1> loc(#loc1458)
    %250 = stablehlo.or %219, %249 : tensor<16xi1> loc(#loc1458)
    %251 = stablehlo.broadcast_in_dim %250, dims = [0] : (tensor<16xi1>) -> tensor<16x5xi1> loc(#loc1459)
    %252 = stablehlo.select %251, %242, %198 : tensor<16x5xi1>, tensor<16x5xi32> loc(#loc1460)
    %253 = stablehlo.broadcast_in_dim %243, dims = [1] : (tensor<5xi32>) -> tensor<16x5xi32> loc(#loc1459)
    %254 = stablehlo.broadcast_in_dim %250, dims = [0] : (tensor<16xi1>) -> tensor<16x5xi1> loc(#loc1459)
    %255 = stablehlo.select %254, %253, %200 : tensor<16x5xi1>, tensor<16x5xi32> loc(#loc1460)
    %256 = stablehlo.broadcast_in_dim %c_15, dims = [] : (tensor<i1>) -> tensor<16xi1> loc(#loc1459)
    %257 = stablehlo.select %250, %256, %201 : tensor<16xi1>, tensor<16xi1> loc(#loc1460)
    %258 = stablehlo.broadcast_in_dim %c_14, dims = [] : (tensor<i32>) -> tensor<16xi32> loc(#loc1459)
    %259 = stablehlo.select %250, %258, %202 : tensor<16xi1>, tensor<16xi32> loc(#loc1460)
    %260 = stablehlo.broadcast_in_dim %c_15, dims = [] : (tensor<i1>) -> tensor<16xi1> loc(#loc1459)
    %261 = stablehlo.select %250, %260, %203 : tensor<16xi1>, tensor<16xi1> loc(#loc1460)
    %262 = stablehlo.broadcast_in_dim %c_15, dims = [] : (tensor<i1>) -> tensor<16xi1> loc(#loc1459)
    %263 = stablehlo.select %250, %262, %227 : tensor<16xi1>, tensor<16xi1> loc(#loc1460)
    %264 = stablehlo.broadcast_in_dim %247, dims = [1] : (tensor<5xi32>) -> tensor<16x5xi32> loc(#loc1459)
    %265 = stablehlo.broadcast_in_dim %250, dims = [0] : (tensor<16xi1>) -> tensor<16x5xi1> loc(#loc1459)
    %266 = stablehlo.select %265, %264, %92 : tensor<16x5xi1>, tensor<16x5xi32> loc(#loc1460)
    %267 = stablehlo.broadcast_in_dim %c_14, dims = [] : (tensor<i32>) -> tensor<16xi32> loc(#loc1459)
    %268 = stablehlo.select %250, %267, %228 : tensor<16xi1>, tensor<16xi32> loc(#loc1460)
    %269 = stablehlo.broadcast_in_dim %248, dims = [1] : (tensor<5xi32>) -> tensor<16x5xi32> loc(#loc1461)
    %270 = stablehlo.broadcast_in_dim %250, dims = [0] : (tensor<16xi1>) -> tensor<16x5xi1> loc(#loc1461)
    %271 = stablehlo.select %270, %269, %215 : tensor<16x5xi1>, tensor<16x5xi32> loc(#loc1462)
    %272 = stablehlo.broadcast_in_dim %c_15, dims = [] : (tensor<i1>) -> tensor<16xi1> loc(#loc1016)
    %273 = stablehlo.add %arg51, %c_2 : tensor<i32> loc(#loc850)
    %274 = stablehlo.or %219, %272 : tensor<16xi1> loc(#loc1017)
    %275 = stablehlo.broadcast_in_dim %c_14, dims = [] : (tensor<i32>) -> tensor<16xi32> loc(#loc852)
    %276 = call @_where_42(%274, %275, %61) : (tensor<16xi1>, tensor<16xi32>, tensor<16xi32>) -> tensor<16xi32> loc(#loc853)
    %277 = stablehlo.or %219, %272 : tensor<16xi1> loc(#loc1018)
    %278 = stablehlo.broadcast_in_dim %cst_12, dims = [] : (tensor<f32>) -> tensor<16xf32> loc(#loc855)
    %279 = call @_where_43(%277, %278, %217) : (tensor<16xi1>, tensor<16xf32>, tensor<16xf32>) -> tensor<16xf32> loc(#loc856)
    return %273, %271, %276, %279, %219, %272, %226, %221, %223, %225, %252, %255, %257, %259, %261, %263, %266, %268, %28#14, %arg52, %arg53, %arg54, %arg55, %arg56, %arg57, %arg58, %arg59, %arg60, %271, %61, %217, %219, %272, %226, %221, %223, %225, %62, %64 : tensor<i32>, tensor<16x5xi32>, tensor<16xi32>, tensor<16xf32>, tensor<16xi1>, tensor<16xi1>, tensor<16xf32>, tensor<16xf32>, tensor<16xf32>, tensor<16xf32>, tensor<16x5xi32>, tensor<16x5xi32>, tensor<16xi1>, tensor<16xi32>, tensor<16xi1>, tensor<16xi1>, tensor<16x5xi32>, tensor<16xi32>, tensor<16x16xf32>, tensor<16x5xi32>, tensor<16xi32>, tensor<16xf32>, tensor<16xi1>, tensor<16xi1>, tensor<16xf32>, tensor<16xf32>, tensor<16xf32>, tensor<16xf32>, tensor<16x5xi32>, tensor<16xi32>, tensor<16xf32>, tensor<16xi1>, tensor<16xi1>, tensor<16xf32>, tensor<16xf32>, tensor<16xf32>, tensor<16xf32>, tensor<16xf32>, tensor<16xf32> loc(#loc)
  } loc(#loc1176)
  func.func private @_take(%arg0: tensor<33x16xf32> loc(unknown), %arg1: tensor<16x1xi32> loc(unknown)) -> tensor<16x1x16xf32> {
    %cst = stablehlo.constant dense<0x7FC00000> : tensor<f32> loc(#loc289)
    %c = stablehlo.constant dense<true> : tensor<i1> loc(#loc290)
    %c_0 = stablehlo.constant dense<32> : tensor<1xi32> loc(#loc289)
    %c_1 = stablehlo.constant dense<33> : tensor<i32> loc(#loc)
    %c_2 = stablehlo.constant dense<0> : tensor<i32> loc(#loc)
    %0 = stablehlo.broadcast_in_dim %c_2, dims = [] : (tensor<i32>) -> tensor<16x1xi32> loc(#loc291)
    %1 = stablehlo.compare LT, %arg1, %0, SIGNED : (tensor<16x1xi32>, tensor<16x1xi32>) -> tensor<16x1xi1> loc(#loc291)
    %2 = stablehlo.broadcast_in_dim %c_1, dims = [] : (tensor<i32>) -> tensor<16x1xi32> loc(#loc144)
    %3 = stablehlo.add %arg1, %2 : tensor<16x1xi32> loc(#loc144)
    %4 = call @_where(%1, %3, %arg1) : (tensor<16x1xi1>, tensor<16x1xi32>, tensor<16x1xi32>) -> tensor<16x1xi32> loc(#loc292)
    %5 = stablehlo.broadcast_in_dim %4, dims = [0, 1] : (tensor<16x1xi32>) -> tensor<16x1x1xi32> loc(#loc293)
    %6 = stablehlo.broadcast_in_dim %c_2, dims = [] : (tensor<i32>) -> tensor<16x1x1xi32> loc(#loc294)
    %7 = stablehlo.compare GE, %5, %6, SIGNED : (tensor<16x1x1xi32>, tensor<16x1x1xi32>) -> tensor<16x1x1xi1> loc(#loc294)
    %8 = stablehlo.broadcast_in_dim %c_0, dims = [2] : (tensor<1xi32>) -> tensor<1x1x1xi32> loc(#loc293)
    %9 = stablehlo.broadcast_in_dim %8, dims = [0, 1, 2] : (tensor<1x1x1xi32>) -> tensor<16x1x1xi32> loc(#loc295)
    %10 = stablehlo.compare LE, %5, %9, SIGNED : (tensor<16x1x1xi32>, tensor<16x1x1xi32>) -> tensor<16x1x1xi1> loc(#loc295)
    %11 = stablehlo.and %7, %10 : tensor<16x1x1xi1> loc(#loc296)
    %12 = stablehlo.reduce(%11 init: %c) applies stablehlo.and across dimensions = [2] : (tensor<16x1x1xi1>, tensor<i1>) -> tensor<16x1xi1> loc(#loc290)
    %13 = "stablehlo.gather"(%arg0, %5) <{dimension_numbers = #stablehlo.gather<offset_dims = [2], collapsed_slice_dims = [0], start_index_map = [0], index_vector_dim = 2>, slice_sizes = array<i64: 1, 16>}> : (tensor<33x16xf32>, tensor<16x1x1xi32>) -> tensor<16x1x16xf32> loc(#loc289)
    %14 = stablehlo.broadcast_in_dim %12, dims = [0, 1] : (tensor<16x1xi1>) -> tensor<16x1x16xi1> loc(#loc293)
    %15 = stablehlo.broadcast_in_dim %cst, dims = [] : (tensor<f32>) -> tensor<16x1x16xf32> loc(#loc293)
    %16 = stablehlo.select %14, %13, %15 : tensor<16x1x16xi1>, tensor<16x1x16xf32> loc(#loc297)
    return %16 : tensor<16x1x16xf32> loc(#loc)
  } loc(#loc1762)
  func.func private @_where(%arg0: tensor<16x1xi1> loc(unknown), %arg1: tensor<16x1xi32> loc(unknown), %arg2: tensor<16x1xi32> loc(unknown)) -> tensor<16x1xi32> {
    %0 = stablehlo.select %arg0, %arg1, %arg2 : tensor<16x1xi1>, tensor<16x1xi32> loc(#loc297)
    return %0 : tensor<16x1xi32> loc(#loc)
  } loc(#loc680)
  func.func private @_take_4(%arg0: tensor<33x16xf32> loc(unknown), %arg1: tensor<16x1x5xi32> loc(unknown)) -> tensor<16x1x5x16xf32> {
    %cst = stablehlo.constant dense<0x7FC00000> : tensor<f32> loc(#loc289)
    %c = stablehlo.constant dense<true> : tensor<i1> loc(#loc290)
    %c_0 = stablehlo.constant dense<32> : tensor<1xi32> loc(#loc289)
    %c_1 = stablehlo.constant dense<33> : tensor<i32> loc(#loc)
    %c_2 = stablehlo.constant dense<0> : tensor<i32> loc(#loc)
    %0 = stablehlo.broadcast_in_dim %c_2, dims = [] : (tensor<i32>) -> tensor<16x1x5xi32> loc(#loc291)
    %1 = stablehlo.compare LT, %arg1, %0, SIGNED : (tensor<16x1x5xi32>, tensor<16x1x5xi32>) -> tensor<16x1x5xi1> loc(#loc291)
    %2 = stablehlo.broadcast_in_dim %c_1, dims = [] : (tensor<i32>) -> tensor<16x1x5xi32> loc(#loc144)
    %3 = stablehlo.add %arg1, %2 : tensor<16x1x5xi32> loc(#loc144)
    %4 = call @_where_5(%1, %3, %arg1) : (tensor<16x1x5xi1>, tensor<16x1x5xi32>, tensor<16x1x5xi32>) -> tensor<16x1x5xi32> loc(#loc292)
    %5 = stablehlo.broadcast_in_dim %4, dims = [0, 1, 2] : (tensor<16x1x5xi32>) -> tensor<16x1x5x1xi32> loc(#loc293)
    %6 = stablehlo.broadcast_in_dim %c_2, dims = [] : (tensor<i32>) -> tensor<16x1x5x1xi32> loc(#loc294)
    %7 = stablehlo.compare GE, %5, %6, SIGNED : (tensor<16x1x5x1xi32>, tensor<16x1x5x1xi32>) -> tensor<16x1x5x1xi1> loc(#loc294)
    %8 = stablehlo.broadcast_in_dim %c_0, dims = [3] : (tensor<1xi32>) -> tensor<1x1x1x1xi32> loc(#loc293)
    %9 = stablehlo.broadcast_in_dim %8, dims = [0, 1, 2, 3] : (tensor<1x1x1x1xi32>) -> tensor<16x1x5x1xi32> loc(#loc295)
    %10 = stablehlo.compare LE, %5, %9, SIGNED : (tensor<16x1x5x1xi32>, tensor<16x1x5x1xi32>) -> tensor<16x1x5x1xi1> loc(#loc295)
    %11 = stablehlo.and %7, %10 : tensor<16x1x5x1xi1> loc(#loc296)
    %12 = stablehlo.reduce(%11 init: %c) applies stablehlo.and across dimensions = [3] : (tensor<16x1x5x1xi1>, tensor<i1>) -> tensor<16x1x5xi1> loc(#loc290)
    %13 = "stablehlo.gather"(%arg0, %5) <{dimension_numbers = #stablehlo.gather<offset_dims = [3], collapsed_slice_dims = [0], start_index_map = [0], index_vector_dim = 3>, slice_sizes = array<i64: 1, 16>}> : (tensor<33x16xf32>, tensor<16x1x5x1xi32>) -> tensor<16x1x5x16xf32> loc(#loc289)
    %14 = stablehlo.broadcast_in_dim %12, dims = [0, 1, 2] : (tensor<16x1x5xi1>) -> tensor<16x1x5x16xi1> loc(#loc293)
    %15 = stablehlo.broadcast_in_dim %cst, dims = [] : (tensor<f32>) -> tensor<16x1x5x16xf32> loc(#loc293)
    %16 = stablehlo.select %14, %13, %15 : tensor<16x1x5x16xi1>, tensor<16x1x5x16xf32> loc(#loc297)
    return %16 : tensor<16x1x5x16xf32> loc(#loc)
  } loc(#loc1763)
  func.func private @_where_5(%arg0: tensor<16x1x5xi1> loc(unknown), %arg1: tensor<16x1x5xi32> loc(unknown), %arg2: tensor<16x1x5xi32> loc(unknown)) -> tensor<16x1x5xi32> {
    %0 = stablehlo.select %arg0, %arg1, %arg2 : tensor<16x1x5xi1>, tensor<16x1x5xi32> loc(#loc297)
    return %0 : tensor<16x1x5xi32> loc(#loc)
  } loc(#loc680)
  func.func private @relu(%arg0: tensor<16x6x16xf32> loc(unknown)) -> tensor<16x6x16xf32> {
    %cst = stablehlo.constant dense<0.000000e+00> : tensor<f32> loc(#loc)
    %0 = stablehlo.broadcast_in_dim %cst, dims = [] : (tensor<f32>) -> tensor<16x6x16xf32> loc(#loc299)
    %1 = stablehlo.maximum %arg0, %0 : tensor<16x6x16xf32> loc(#loc299)
    return %1 : tensor<16x6x16xf32> loc(#loc)
  } loc(#loc680)
  func.func private @_where_6(%arg0: tensor<16x16xf32> loc(unknown)) {
    return loc(#loc)
  } loc(#loc2426)
  func.func private @dynamic_index_in_dim_7(%arg0: tensor<6x16x16xf32> loc(unknown), %arg1: tensor<i32> loc(unknown)) -> tensor<16x16xf32> {
    %c = stablehlo.constant dense<0> : tensor<i32> loc(#loc)
    %0 = stablehlo.dynamic_slice %arg0, %arg1, %c, %c, sizes = [1, 16, 16] : (tensor<6x16x16xf32>, tensor<i32>, tensor<i32>, tensor<i32>) -> tensor<1x16x16xf32> loc(#loc300)
    %1 = stablehlo.reshape %0 : (tensor<1x16x16xf32>) -> tensor<16x16xf32> loc(#loc140)
    return %1 : tensor<16x16xf32> loc(#loc)
  } loc(#loc2293)
  func.func private @dynamic_index_in_dim_8(%arg0: tensor<6x16xi1> loc(unknown), %arg1: tensor<i32> loc(unknown)) -> tensor<16xi1> {
    %c = stablehlo.constant dense<0> : tensor<i32> loc(#loc)
    %0 = stablehlo.dynamic_slice %arg0, %arg1, %c, sizes = [1, 16] : (tensor<6x16xi1>, tensor<i32>, tensor<i32>) -> tensor<1x16xi1> loc(#loc300)
    %1 = stablehlo.reshape %0 : (tensor<1x16xi1>) -> tensor<16xi1> loc(#loc140)
    return %1 : tensor<16xi1> loc(#loc)
  } loc(#loc2293)
  func.func private @closed_call_9(%arg0: tensor<16x16xf32> loc(unknown), %arg1: tensor<16x16xf32> loc(unknown), %arg2: tensor<16xf32> loc(unknown), %arg3: tensor<16x16xf32> loc(unknown), %arg4: tensor<16x16xf32> loc(unknown), %arg5: tensor<16xf32> loc(unknown), %arg6: tensor<16x16xf32> loc(unknown), %arg7: tensor<16x16xf32> loc(unknown), %arg8: tensor<16xf32> loc(unknown), %arg9: tensor<16x16xf32> loc(unknown), %arg10: tensor<16xf32> loc(unknown), %arg11: tensor<16x16xf32> loc(unknown), %arg12: tensor<16x16xf32> loc(unknown), %arg13: tensor<16xi1> loc(unknown)) -> (tensor<16x16xf32>, tensor<16x16xf32>) {
    %cst = stablehlo.constant dense<1.000000e+00> : tensor<f32> loc(#loc)
    %0 = stablehlo.reshape %arg13 : (tensor<16xi1>) -> tensor<16x1xi1> loc(#loc1764)
    %1 = call @_where_10(%0, %arg0, %arg11) : (tensor<16x1xi1>, tensor<16x16xf32>, tensor<16x16xf32>) -> tensor<16x16xf32> loc(#loc1466)
    %2 = stablehlo.dot_general %arg12, %arg1, contracting_dims = [1] x [0] : (tensor<16x16xf32>, tensor<16x16xf32>) -> tensor<16x16xf32> loc(#loc1467)
    %3 = stablehlo.reshape %arg2 : (tensor<16xf32>) -> tensor<1x16xf32> loc(#loc1468)
    %4 = stablehlo.broadcast_in_dim %3, dims = [0, 1] : (tensor<1x16xf32>) -> tensor<16x16xf32> loc(#loc1469)
    %5 = stablehlo.add %2, %4 : tensor<16x16xf32> loc(#loc1469)
    %6 = stablehlo.dot_general %1, %arg3, contracting_dims = [1] x [0] : (tensor<16x16xf32>, tensor<16x16xf32>) -> tensor<16x16xf32> loc(#loc1470)
    %7 = stablehlo.add %5, %6 : tensor<16x16xf32> loc(#loc1244)
    %8 = stablehlo.negate %7 : tensor<16x16xf32> loc(#loc1471)
    %9 = stablehlo.exponential %8 : tensor<16x16xf32> loc(#loc1472)
    %10 = stablehlo.broadcast_in_dim %cst, dims = [] : (tensor<f32>) -> tensor<16x16xf32> loc(#loc1473)
    %11 = stablehlo.add %10, %9 : tensor<16x16xf32> loc(#loc1473)
    %12 = stablehlo.broadcast_in_dim %cst, dims = [] : (tensor<f32>) -> tensor<16x16xf32> loc(#loc1474)
    %13 = stablehlo.divide %12, %11 : tensor<16x16xf32> loc(#loc1474)
    %14 = stablehlo.dot_general %arg12, %arg4, contracting_dims = [1] x [0] : (tensor<16x16xf32>, tensor<16x16xf32>) -> tensor<16x16xf32> loc(#loc1475)
    %15 = stablehlo.reshape %arg5 : (tensor<16xf32>) -> tensor<1x16xf32> loc(#loc1476)
    %16 = stablehlo.broadcast_in_dim %15, dims = [0, 1] : (tensor<1x16xf32>) -> tensor<16x16xf32> loc(#loc1477)
    %17 = stablehlo.add %14, %16 : tensor<16x16xf32> loc(#loc1477)
    %18 = stablehlo.dot_general %1, %arg6, contracting_dims = [1] x [0] : (tensor<16x16xf32>, tensor<16x16xf32>) -> tensor<16x16xf32> loc(#loc1478)
    %19 = stablehlo.add %17, %18 : tensor<16x16xf32> loc(#loc1250)
    %20 = stablehlo.negate %19 : tensor<16x16xf32> loc(#loc1479)
    %21 = stablehlo.exponential %20 : tensor<16x16xf32> loc(#loc1480)
    %22 = stablehlo.broadcast_in_dim %cst, dims = [] : (tensor<f32>) -> tensor<16x16xf32> loc(#loc1481)
    %23 = stablehlo.add %22, %21 : tensor<16x16xf32> loc(#loc1481)
    %24 = stablehlo.broadcast_in_dim %cst, dims = [] : (tensor<f32>) -> tensor<16x16xf32> loc(#loc1482)
    %25 = stablehlo.divide %24, %23 : tensor<16x16xf32> loc(#loc1482)
    %26 = stablehlo.dot_general %arg12, %arg7, contracting_dims = [1] x [0] : (tensor<16x16xf32>, tensor<16x16xf32>) -> tensor<16x16xf32> loc(#loc1483)
    %27 = stablehlo.reshape %arg8 : (tensor<16xf32>) -> tensor<1x16xf32> loc(#loc1484)
    %28 = stablehlo.broadcast_in_dim %27, dims = [0, 1] : (tensor<1x16xf32>) -> tensor<16x16xf32> loc(#loc1485)
    %29 = stablehlo.add %26, %28 : tensor<16x16xf32> loc(#loc1485)
    %30 = stablehlo.dot_general %1, %arg9, contracting_dims = [1] x [0] : (tensor<16x16xf32>, tensor<16x16xf32>) -> tensor<16x16xf32> loc(#loc1486)
    %31 = stablehlo.reshape %arg10 : (tensor<16xf32>) -> tensor<1x16xf32> loc(#loc1487)
    %32 = stablehlo.broadcast_in_dim %31, dims = [0, 1] : (tensor<1x16xf32>) -> tensor<16x16xf32> loc(#loc1488)
    %33 = stablehlo.add %30, %32 : tensor<16x16xf32> loc(#loc1488)
    %34 = stablehlo.multiply %13, %33 : tensor<16x16xf32> loc(#loc1258)
    %35 = stablehlo.add %29, %34 : tensor<16x16xf32> loc(#loc1259)
    %36 = stablehlo.tanh %35 : tensor<16x16xf32> loc(#loc1260)
    %37 = stablehlo.broadcast_in_dim %cst, dims = [] : (tensor<f32>) -> tensor<16x16xf32> loc(#loc1261)
    %38 = stablehlo.subtract %37, %25 : tensor<16x16xf32> loc(#loc1261)
    %39 = stablehlo.multiply %38, %36 : tensor<16x16xf32> loc(#loc1262)
    %40 = stablehlo.multiply %25, %1 : tensor<16x16xf32> loc(#loc1263)
    %41 = stablehlo.add %39, %40 : tensor<16x16xf32> loc(#loc1264)
    return %41, %41 : tensor<16x16xf32>, tensor<16x16xf32> loc(#loc)
  } loc(#loc2294)
  func.func private @_where_10(%arg0: tensor<16x1xi1> loc(unknown), %arg1: tensor<16x16xf32> loc(unknown), %arg2: tensor<16x16xf32> loc(unknown)) -> tensor<16x16xf32> {
    %0 = stablehlo.broadcast_in_dim %arg0, dims = [0, 1] : (tensor<16x1xi1>) -> tensor<16x16xi1> loc(#loc293)
    %1 = stablehlo.select %0, %arg1, %arg2 : tensor<16x16xi1>, tensor<16x16xf32> loc(#loc297)
    return %1 : tensor<16x16xf32> loc(#loc)
  } loc(#loc1765)
  func.func private @dynamic_update_index_in_dim(%arg0: tensor<6x16x16xf32> loc(unknown), %arg1: tensor<16x16xf32> loc(unknown), %arg2: tensor<i32> loc(unknown)) -> tensor<6x16x16xf32> {
    %c = stablehlo.constant dense<0> : tensor<i32> loc(#loc)
    %0 = stablehlo.broadcast_in_dim %arg1, dims = [1, 2] : (tensor<16x16xf32>) -> tensor<1x16x16xf32> loc(#loc293)
    %1 = stablehlo.dynamic_update_slice %arg0, %0, %arg2, %c, %c : (tensor<6x16x16xf32>, tensor<1x16x16xf32>, tensor<i32>, tensor<i32>, tensor<i32>) -> tensor<6x16x16xf32> loc(#loc321)
    return %1 : tensor<6x16x16xf32> loc(#loc)
  } loc(#loc2293)
  func.func private @log_softmax(%arg0: tensor<16x1x33xf32> loc(unknown)) -> tensor<16x1x33xf32> {
    %cst = stablehlo.constant dense<0.000000e+00> : tensor<f32> loc(#loc322)
    %cst_0 = stablehlo.constant dense<0xFF800000> : tensor<f32> loc(#loc)
    %0 = stablehlo.reduce(%arg0 init: %cst_0) applies stablehlo.maximum across dimensions = [2] : (tensor<16x1x33xf32>, tensor<f32>) -> tensor<16x1xf32> loc(#loc323)
    %1 = stablehlo.broadcast_in_dim %cst_0, dims = [] : (tensor<f32>) -> tensor<16x1xf32> loc(#loc299)
    %2 = stablehlo.maximum %1, %0 : tensor<16x1xf32> loc(#loc299)
    %3 = stablehlo.broadcast_in_dim %2, dims = [0, 1] : (tensor<16x1xf32>) -> tensor<16x1x1xf32> loc(#loc293)
    %4 = stablehlo.broadcast_in_dim %3, dims = [0, 1, 2] : (tensor<16x1x1xf32>) -> tensor<16x1x33xf32> loc(#loc150)
    %5 = stablehlo.subtract %arg0, %4 : tensor<16x1x33xf32> loc(#loc150)
    %6 = stablehlo.exponential %5 : tensor<16x1x33xf32> loc(#loc324)
    %7 = stablehlo.reduce(%6 init: %cst) applies stablehlo.add across dimensions = [2] : (tensor<16x1x33xf32>, tensor<f32>) -> tensor<16x1xf32> loc(#loc322)
    %8 = stablehlo.broadcast_in_dim %7, dims = [0, 1] : (tensor<16x1xf32>) -> tensor<16x1x1xf32> loc(#loc293)
    %9 = stablehlo.log %8 : tensor<16x1x1xf32> loc(#loc325)
    %10 = stablehlo.broadcast_in_dim %9, dims = [0, 1, 2] : (tensor<16x1x1xf32>) -> tensor<16x1x33xf32> loc(#loc150)
    %11 = stablehlo.subtract %5, %10 : tensor<16x1x33xf32> loc(#loc150)
    return %11 : tensor<16x1x33xf32> loc(#loc)
  } loc(#loc2004)
  func.func private @_gumbel(%arg0: tensor<2xui32> loc(unknown)) -> tensor<1x16x1x33xf32> {
    %cst = stablehlo.constant dense<1.000000e+00> : tensor<f32> loc(#loc)
    %cst_0 = stablehlo.constant dense<1.17549435E-38> : tensor<f32> loc(#loc)
    %0 = call @_uniform(%arg0, %cst, %cst_0) : (tensor<2xui32>, tensor<f32>, tensor<f32>) -> tensor<1x16x1x33xf32> loc(#loc326)
    %1 = stablehlo.log %0 : tensor<1x16x1x33xf32> loc(#loc325)
    %2 = stablehlo.negate %1 : tensor<1x16x1x33xf32> loc(#loc327)
    %3 = stablehlo.log %2 : tensor<1x16x1x33xf32> loc(#loc325)
    %4 = stablehlo.negate %3 : tensor<1x16x1x33xf32> loc(#loc327)
    return %4 : tensor<1x16x1x33xf32> loc(#loc)
  } loc(#loc2172)
  func.func private @_uniform(%arg0: tensor<2xui32> loc(unknown), %arg1: tensor<f32> loc(unknown), %arg2: tensor<f32> loc(unknown)) -> tensor<1x16x1x33xf32> {
    %cst = stablehlo.constant dense<1.000000e+00> : tensor<f32> loc(#loc)
    %c = stablehlo.constant dense<1065353216> : tensor<ui32> loc(#loc)
    %c_0 = stablehlo.constant dense<9> : tensor<ui32> loc(#loc)
    %c_1 = stablehlo.constant dense<32> : tensor<ui64> loc(#loc138)
    %c_2 = stablehlo.constant dense<1> : tensor<ui64> loc(#loc138)
    %c_3 = stablehlo.constant dense<33> : tensor<ui64> loc(#loc)
    %c_4 = stablehlo.constant dense<528> : tensor<ui64> loc(#loc138)
    %0 = stablehlo.convert %arg1 : tensor<f32> loc(#loc153)
    %1 = stablehlo.broadcast_in_dim %arg2, dims = [] : (tensor<f32>) -> tensor<1x1x1x1xf32> loc(#loc293)
    %2 = stablehlo.broadcast_in_dim %0, dims = [] : (tensor<f32>) -> tensor<1x1x1x1xf32> loc(#loc293)
    %3 = stablehlo.slice %arg0 [0:1] : (tensor<2xui32>) -> tensor<1xui32> loc(#loc139)
    %4 = stablehlo.reshape %3 : (tensor<1xui32>) -> tensor<ui32> loc(#loc140)
    %5 = stablehlo.slice %arg0 [1:2] : (tensor<2xui32>) -> tensor<1xui32> loc(#loc139)
    %6 = stablehlo.reshape %5 : (tensor<1xui32>) -> tensor<ui32> loc(#loc140)
    %7 = stablehlo.iota dim = 0 : tensor<1x16x1x33xui64> loc(#loc138)
    %8 = stablehlo.iota dim = 1 : tensor<1x16x1x33xui64> loc(#loc138)
    %9 = stablehlo.iota dim = 2 : tensor<1x16x1x33xui64> loc(#loc138)
    %10 = stablehlo.iota dim = 3 : tensor<1x16x1x33xui64> loc(#loc138)
    %11 = stablehlo.broadcast_in_dim %c_4, dims = [] : (tensor<ui64>) -> tensor<1x16x1x33xui64> loc(#loc138)
    %12 = stablehlo.multiply %11, %7 : tensor<1x16x1x33xui64> loc(#loc138)
    %13 = stablehlo.broadcast_in_dim %c_3, dims = [] : (tensor<ui64>) -> tensor<1x16x1x33xui64> loc(#loc138)
    %14 = stablehlo.multiply %13, %8 : tensor<1x16x1x33xui64> loc(#loc138)
    %15 = stablehlo.broadcast_in_dim %c_3, dims = [] : (tensor<ui64>) -> tensor<1x16x1x33xui64> loc(#loc138)
    %16 = stablehlo.multiply %15, %9 : tensor<1x16x1x33xui64> loc(#loc138)
    %17 = stablehlo.broadcast_in_dim %c_2, dims = [] : (tensor<ui64>) -> tensor<1x16x1x33xui64> loc(#loc138)
    %18 = stablehlo.multiply %17, %10 : tensor<1x16x1x33xui64> loc(#loc138)
    %19 = stablehlo.add %12, %14 : tensor<1x16x1x33xui64> loc(#loc138)
    %20 = stablehlo.add %19, %16 : tensor<1x16x1x33xui64> loc(#loc138)
    %21 = stablehlo.add %20, %18 : tensor<1x16x1x33xui64> loc(#loc138)
    %22 = stablehlo.broadcast_in_dim %c_1, dims = [] : (tensor<ui64>) -> tensor<1x16x1x33xui64> loc(#loc138)
    %23 = stablehlo.shift_right_logical %21, %22 : tensor<1x16x1x33xui64> loc(#loc138)
    %24 = stablehlo.convert %21 : (tensor<1x16x1x33xui64>) -> tensor<1x16x1x33xui32> loc(#loc138)
    %25 = stablehlo.convert %23 : (tensor<1x16x1x33xui64>) -> tensor<1x16x1x33xui32> loc(#loc138)
    %26:2 = call @threefry2x32_11(%4, %6, %25, %24) : (tensor<ui32>, tensor<ui32>, tensor<1x16x1x33xui32>, tensor<1x16x1x33xui32>) -> (tensor<1x16x1x33xui32>, tensor<1x16x1x33xui32>) loc(#loc328)
    %27 = stablehlo.xor %26#0, %26#1 : tensor<1x16x1x33xui32> loc(#loc143)
    %28 = stablehlo.broadcast_in_dim %c_0, dims = [] : (tensor<ui32>) -> tensor<1x16x1x33xui32> loc(#loc151)
    %29 = stablehlo.shift_right_logical %27, %28 : tensor<1x16x1x33xui32> loc(#loc151)
    %30 = stablehlo.broadcast_in_dim %c, dims = [] : (tensor<ui32>) -> tensor<1x16x1x33xui32> loc(#loc152)
    %31 = stablehlo.or %29, %30 : tensor<1x16x1x33xui32> loc(#loc152)
    %32 = stablehlo.bitcast_convert %31 : (tensor<1x16x1x33xui32>) -> tensor<1x16x1x33xf32> loc(#loc329)
    %33 = stablehlo.broadcast_in_dim %cst, dims = [] : (tensor<f32>) -> tensor<1x16x1x33xf32> loc(#loc150)
    %34 = stablehlo.subtract %32, %33 : tensor<1x16x1x33xf32> loc(#loc150)
    %35 = stablehlo.subtract %2, %1 : tensor<1x1x1x1xf32> loc(#loc150)
    %36 = stablehlo.broadcast_in_dim %35, dims = [0, 1, 2, 3] : (tensor<1x1x1x1xf32>) -> tensor<1x16x1x33xf32> loc(#loc330)
    %37 = stablehlo.multiply %34, %36 : tensor<1x16x1x33xf32> loc(#loc330)
    %38 = stablehlo.broadcast_in_dim %1, dims = [0, 1, 2, 3] : (tensor<1x1x1x1xf32>) -> tensor<1x16x1x33xf32> loc(#loc144)
    %39 = stablehlo.add %37, %38 : tensor<1x16x1x33xf32> loc(#loc144)
    %40 = stablehlo.broadcast_in_dim %1, dims = [0, 1, 2, 3] : (tensor<1x1x1x1xf32>) -> tensor<1x16x1x33xf32> loc(#loc299)
    %41 = stablehlo.maximum %40, %39 : tensor<1x16x1x33xf32> loc(#loc299)
    return %41 : tensor<1x16x1x33xf32> loc(#loc)
  } loc(#loc680)
  func.func private @threefry2x32_11(%arg0: tensor<ui32> loc(unknown), %arg1: tensor<ui32> loc(unknown), %arg2: tensor<1x16x1x33xui32> loc(unknown), %arg3: tensor<1x16x1x33xui32> loc(unknown)) -> (tensor<1x16x1x33xui32>, tensor<1x16x1x33xui32>) {
    %c = stablehlo.constant dense<1> : tensor<i32> loc(#loc)
    %c_0 = stablehlo.constant dense<5> : tensor<i32> loc(#loc)
    %c_1 = stablehlo.constant dense<0> : tensor<i32> loc(#loc)
    %c_2 = stablehlo.constant dense<466688986> : tensor<ui32> loc(#loc543)
    %c_3 = stablehlo.constant dense<[13, 15, 26, 6]> : tensor<4xui32> loc(#loc543)
    %c_4 = stablehlo.constant dense<[17, 29, 16, 24]> : tensor<4xui32> loc(#loc543)
    %0 = stablehlo.xor %arg0, %arg1 : tensor<ui32> loc(#loc143)
    %1 = stablehlo.xor %0, %c_2 : tensor<ui32> loc(#loc143)
    %2 = stablehlo.broadcast_in_dim %arg0, dims = [] : (tensor<ui32>) -> tensor<1x16x1x33xui32> loc(#loc144)
    %3 = stablehlo.add %arg2, %2 : tensor<1x16x1x33xui32> loc(#loc144)
    %4 = stablehlo.broadcast_in_dim %arg1, dims = [] : (tensor<ui32>) -> tensor<1x16x1x33xui32> loc(#loc144)
    %5 = stablehlo.add %arg3, %4 : tensor<1x16x1x33xui32> loc(#loc144)
    %6:9 = stablehlo.while(%iterArg = %c_1, %iterArg_5 = %c_1, %iterArg_6 = %3, %iterArg_7 = %5, %iterArg_8 = %arg1, %iterArg_9 = %1, %iterArg_10 = %arg0, %iterArg_11 = %c_3, %iterArg_12 = %c_4) : tensor<i32>, tensor<i32>, tensor<1x16x1x33xui32>, tensor<1x16x1x33xui32>, tensor<ui32>, tensor<ui32>, tensor<ui32>, tensor<4xui32>, tensor<4xui32>
    cond {
      %7 = stablehlo.compare LT, %iterArg, %c_0, SIGNED : (tensor<i32>, tensor<i32>) -> tensor<i1> loc(#loc146)
      stablehlo.return %7 : tensor<i1> loc(#loc145)
    } do {
      %7:8 = func.call @closed_call_12(%iterArg_5, %iterArg_6, %iterArg_7, %iterArg_8, %iterArg_9, %iterArg_10, %iterArg_11, %iterArg_12) : (tensor<i32>, tensor<1x16x1x33xui32>, tensor<1x16x1x33xui32>, tensor<ui32>, tensor<ui32>, tensor<ui32>, tensor<4xui32>, tensor<4xui32>) -> (tensor<i32>, tensor<1x16x1x33xui32>, tensor<1x16x1x33xui32>, tensor<ui32>, tensor<ui32>, tensor<ui32>, tensor<4xui32>, tensor<4xui32>) loc(#loc147)
      %8 = stablehlo.add %iterArg, %c : tensor<i32> loc(#loc148)
      stablehlo.return %8, %7#0, %7#1, %7#2, %7#3, %7#4, %7#5, %7#6, %7#7 : tensor<i32>, tensor<i32>, tensor<1x16x1x33xui32>, tensor<1x16x1x33xui32>, tensor<ui32>, tensor<ui32>, tensor<ui32>, tensor<4xui32>, tensor<4xui32> loc(#loc145)
    } loc(#loc145)
    return %6#2, %6#3 : tensor<1x16x1x33xui32>, tensor<1x16x1x33xui32> loc(#loc)
  } loc(#loc)
  func.func private @closed_call_12(%arg0: tensor<i32> loc(unknown), %arg1: tensor<1x16x1x33xui32> loc(unknown), %arg2: tensor<1x16x1x33xui32> loc(unknown), %arg3: tensor<ui32> loc(unknown), %arg4: tensor<ui32> loc(unknown), %arg5: tensor<ui32> loc(unknown), %arg6: tensor<4xui32> loc(unknown), %arg7: tensor<4xui32> loc(unknown)) -> (tensor<i32>, tensor<1x16x1x33xui32>, tensor<1x16x1x33xui32>, tensor<ui32>, tensor<ui32>, tensor<ui32>, tensor<4xui32>, tensor<4xui32>) {
    %c = stablehlo.constant dense<32> : tensor<ui32> loc(#loc)
    %c_0 = stablehlo.constant dense<1> : tensor<i32> loc(#loc)
    %0 = stablehlo.add %arg0, %c_0 : tensor<i32> loc(#loc144)
    %1 = stablehlo.slice %arg6 [0:1] : (tensor<4xui32>) -> tensor<1xui32> loc(#loc139)
    %2 = stablehlo.reshape %1 : (tensor<1xui32>) -> tensor<ui32> loc(#loc140)
    %3 = stablehlo.add %arg1, %arg2 : tensor<1x16x1x33xui32> loc(#loc144)
    %4 = stablehlo.broadcast_in_dim %2, dims = [] : (tensor<ui32>) -> tensor<1x16x1x33xui32> loc(#loc149)
    %5 = stablehlo.shift_left %arg2, %4 : tensor<1x16x1x33xui32> loc(#loc149)
    %6 = stablehlo.subtract %c, %2 : tensor<ui32> loc(#loc150)
    %7 = stablehlo.broadcast_in_dim %6, dims = [] : (tensor<ui32>) -> tensor<1x16x1x33xui32> loc(#loc151)
    %8 = stablehlo.shift_right_logical %arg2, %7 : tensor<1x16x1x33xui32> loc(#loc151)
    %9 = stablehlo.or %5, %8 : tensor<1x16x1x33xui32> loc(#loc152)
    %10 = stablehlo.xor %3, %9 : tensor<1x16x1x33xui32> loc(#loc143)
    %11 = stablehlo.slice %arg6 [1:2] : (tensor<4xui32>) -> tensor<1xui32> loc(#loc139)
…
#loc1429 = loc(callsite(#loc632 at #loc1221))
#loc1430 = loc(callsite(#loc633 at #loc1221))
#loc1431 = loc(callsite(#loc634 at #loc1221))
#loc1432 = loc(callsite(#loc635 at #loc1221))
#loc1433 = loc(callsite(#loc636 at #loc1221))
#loc1434 = loc(callsite(#loc637 at #loc1221))
#loc1435 = loc(callsite(#loc638 at #loc1221))
#loc1436 = loc(callsite(#loc640 at #loc1221))
#loc1437 = loc(callsite(#loc643 at #loc1222))
#loc1438 = loc(callsite(#loc645 at #loc1223))
#loc1439 = loc(callsite(#loc647 at #loc1223))
#loc1440 = loc(callsite(#loc648 at #loc1223))
#loc1442 = loc(callsite(#loc650 at #loc1223))
#loc1443 = loc(callsite(#loc651 at #loc1223))
#loc1444 = loc("vmap()/broadcast_in_dim"(#loc1224))
#loc1445 = loc(callsite(#loc643 at #loc1225))
#loc1446 = loc(callsite(#loc643 at #loc1226))
#loc1447 = loc(callsite(#loc643 at #loc1227))
#loc1448 = loc(callsite(#loc656 at #loc1228))
#loc1449 = loc("vmap()/convert_element_type"(#loc1229))
#loc1450 = loc("vmap(jit(_where))"(#loc1230))
#loc1451 = loc("vmap(jit(_where))"(#loc1231))
#loc1452 = loc(callsite(#loc661 at #loc1232))
#loc1453 = loc(callsite(#loc664 at #loc1232))
#loc1454 = loc(callsite(#loc665 at #loc1232))
#loc1455 = loc(callsite(#loc666 at #loc1232))
#loc1456 = loc("vmap()/broadcast_in_dim"(#loc1233))
#loc1457 = loc("vmap()/broadcast_in_dim"(#loc1234))
#loc1458 = loc("vmap()/or"(#loc1235))
#loc1459 = loc("vmap()/broadcast_in_dim"(#loc1236))
#loc1460 = loc("vmap()/select_n"(#loc1236))
#loc1461 = loc("vmap()/broadcast_in_dim"(#loc1237))
#loc1462 = loc("vmap()/select_n"(#loc1237))
#loc1463 = loc("Network/feature_extractor/token_embedding/jit"(#loc1178))
#loc1464 = loc("Network/feature_extractor/token_embedding/jit"(#loc1180))
#loc1465 = loc(callsite(#loc681 at #loc1238))
#loc1466 = loc("cell.scan_fn/jit(_where)"(#loc1239))
#loc1467 = loc("cell.scan_fn/cell/ir/dot_general"(#loc1240))
#loc1468 = loc("cell.scan_fn/cell/ir/reshape"(#loc1241))
#loc1469 = loc("cell.scan_fn/cell/ir/add"(#loc1242))
#loc1470 = loc("cell.scan_fn/cell/hr/dot_general"(#loc1243))
#loc1471 = loc("cell.scan_fn/cell/neg"(#loc1245))
#loc1472 = loc("cell.scan_fn/cell/exp"(#loc1245))
#loc1473 = loc("cell.scan_fn/cell/add"(#loc1245))
#loc1474 = loc("cell.scan_fn/cell/div"(#loc1245))
#loc1475 = loc("cell.scan_fn/cell/iz/dot_general"(#loc1246))
#loc1476 = loc("cell.scan_fn/cell/iz/reshape"(#loc1247))
#loc1477 = loc("cell.scan_fn/cell/iz/add"(#loc1248))
#loc1478 = loc("cell.scan_fn/cell/hz/dot_general"(#loc1249))
#loc1479 = loc("cell.scan_fn/cell/neg"(#loc1251))
#loc1480 = loc("cell.scan_fn/cell/exp"(#loc1251))
#loc1481 = loc("cell.scan_fn/cell/add"(#loc1251))
#loc1482 = loc("cell.scan_fn/cell/div"(#loc1251))
#loc1483 = loc("cell.scan_fn/cell/in/dot_general"(#loc1252))
#loc1484 = loc("cell.scan_fn/cell/in/reshape"(#loc1253))
#loc1485 = loc("cell.scan_fn/cell/in/add"(#loc1254))
#loc1486 = loc("cell.scan_fn/cell/hn/dot_general"(#loc1255))
#loc1487 = loc("cell.scan_fn/cell/hn/reshape"(#loc1256))
#loc1488 = loc("cell.scan_fn/cell/hn/add"(#loc1257))
#loc1489 = loc("cell.scan_fn/jit"(#loc1239))
#loc1490 = loc("jit:"(#loc1265))
#loc1491 = loc("vmap()/jit"(#loc1205))
#loc1492 = loc("vmap()/jit"(#loc1206))
#loc1493 = loc("vmap()/jit"(#loc1208))
#loc1494 = loc("vmap()/jit"(#loc1215))
#loc1495 = loc("vmap()/jit"(#loc1217))
#loc1496 = loc("vmap()/jit"(#loc1219))
#loc1497 = loc("jit:"(#loc1267))
#loc1498 = loc("closed_call:"(#loc1270))
#loc1499 = loc("while/cond/lt"(#loc1273))
#loc1500 = loc("while/body/closed_call"(#loc1273))
#loc1501 = loc("while/body/add"(#loc1273))
#loc1502 = loc(callsite(#loc489 at #loc1284))
#loc1503 = loc("jvp(Network)/feature_extractor/broadcast_in_dim"(#loc1285))
#loc1504 = loc(callsite(#loc489 at #loc1286))
#loc1505 = loc("jvp(Network)/feature_extractor/concatenate"(#loc1287))
#loc1506 = loc("jvp(Network)/torso/reshape"(#loc1288))
#loc1507 = loc("jvp(Network)/torso/broadcast_in_dim"(#loc1289))
#loc1508 = loc("jvp(Network)/torso/broadcast_in_dim"(#loc1290))
#loc1509 = loc("jvp(Network)/torso/scatter"(#loc1290))
#loc1510 = loc("jvp(Network)/torso/reshape"(#loc1291))
#loc1511 = loc(callsite(#loc505 at #loc1292))
#loc1512 = loc("jvp(Network)/torso/reshape"(#loc1293))
#loc1513 = loc("jvp(Network)/torso/slice"(#loc1294))
#loc1514 = loc("jvp(Network)/torso/squeeze"(#loc1294))
#loc1515 = loc(callsite(#loc502 at #loc1295))
#loc1516 = loc(callsite(#loc502 at #loc1296))
#loc1517 = loc(callsite(#loc507 at #loc1296))
#loc1518 = loc(callsite(#loc508 at #loc1296))
#loc1519 = loc(callsite(#loc552 at #loc1297))
#loc1520 = loc("jvp(jit(_one_hot))"(#loc1298))
#loc1521 = loc("jvp()/lt"(#loc1299))
#loc1522 = loc("jvp()/gt"(#loc1300))
#loc1523 = loc("jvp()/or"(#loc1301))
#loc1524 = loc(callsite(#loc736 at #loc1302))
#loc1525 = loc("jvp()/reduce_sum"(#loc1303))
#loc1526 = loc("jvp(jit(_where))"(#loc1304))
#loc1527 = loc("jvp()/reduce_sum"(#loc1305))
#loc1528 = loc("jvp(jit(log_softmax))"(#loc1306))
#loc1529 = loc(callsite(#loc741 at #loc1307))
#loc1530 = loc(callsite(#loc743 at #loc1307))
#loc1531 = loc(callsite(#loc744 at #loc1307))
#loc1532 = loc("transpose(jvp())/neg"(#loc1310))
#loc1533 = loc("transpose(jvp())/broadcast_in_dim"(#loc1311))
#loc1534 = loc(callsite(#loc771 at #loc1307))
#loc1535 = loc("transpose(jvp(jit(log_softmax)))"(#loc1306))
#loc1536 = loc("transpose(jvp(jit(_where)))"(#loc1304))
#loc1537 = loc("transpose(jvp())/broadcast_in_dim"(#loc1303))
#loc1538 = loc(callsite(#loc773 at #loc1302))
#loc1539 = loc("transpose(jvp(Network))/torso/broadcast_in_dim"(#loc1294))
#loc1540 = loc("transpose(jvp(Network))/torso/pad"(#loc1294))
#loc1541 = loc("transpose(jvp(Network))/torso/reshape"(#loc1293))
#loc1542 = loc("transpose(jvp(Network))/torso/reshape"(#loc1288))
#loc1543 = loc("transpose(jvp(Network))/feature_extractor/split"(#loc1287))
#loc1544 = loc("transpose(jvp(Network))/feature_extractor/reduce_sum"(#loc1285))
#loc1545 = loc(callsite(#loc778 at #loc1312))
#loc1546 = loc(callsite(#loc787 at #loc1312))
#loc1547 = loc(callsite(#loc789 at #loc1312))
#loc1548 = loc("lt"(#loc1313))
#loc1549 = loc(callsite(#loc791 at #loc1314))
#loc1550 = loc(callsite(#loc793 at #loc1314))
#loc1551 = loc(callsite(#loc794 at #loc1314))
#loc1552 = loc(callsite(#loc797 at #loc1315))
#loc1553 = loc(callsite(#loc803 at #loc1315))
#loc1554 = loc(callsite(#loc808 at #loc1315))
#loc1555 = loc(callsite(#loc811 at #loc1315))
#loc1556 = loc(callsite(#loc812 at #loc1315))
#loc1557 = loc(callsite(#loc814 at #loc1315))
#loc1558 = loc(callsite(#loc819 at #loc1315))
#loc1559 = loc("jvp()/jit"(#loc1298))
#loc1560 = loc("jvp()/jit"(#loc1304))
#loc1561 = loc("jvp()/jit"(#loc1306))
#loc1562 = loc("transpose(jvp())/jit"(#loc1306))
#loc1563 = loc("transpose(jvp())/jit"(#loc1304))
#loc1564 = loc("cell.scan_fn/cell/hn/reduce_sum"(#loc1257))
#loc1565 = loc("cell.scan_fn/cell/hn/reshape"(#loc1257))
#loc1566 = loc("cell.scan_fn/cell/hn/add_any"(#loc1256))
#loc1567 = loc("cell.scan_fn/cell/hn/transpose"(#loc1255))
#loc1568 = loc("cell.scan_fn/cell/hn/add_any"(#loc1255))
#loc1569 = loc("cell.scan_fn/cell/in/reduce_sum"(#loc1254))
#loc1570 = loc("cell.scan_fn/cell/in/reshape"(#loc1254))
#loc1571 = loc("cell.scan_fn/cell/in/add_any"(#loc1253))
#loc1572 = loc("cell.scan_fn/cell/in/transpose"(#loc1252))
#loc1573 = loc("cell.scan_fn/cell/in/add_any"(#loc1252))
#loc1574 = loc("cell.scan_fn/cell/hz/transpose"(#loc1249))
#loc1575 = loc("cell.scan_fn/cell/hz/add_any"(#loc1249))
#loc1576 = loc("cell.scan_fn/cell/iz/reduce_sum"(#loc1248))
#loc1577 = loc("cell.scan_fn/cell/iz/reshape"(#loc1248))
#loc1578 = loc("cell.scan_fn/cell/iz/add_any"(#loc1247))
#loc1579 = loc("cell.scan_fn/cell/iz/transpose"(#loc1246))
#loc1580 = loc("cell.scan_fn/cell/iz/add_any"(#loc1246))
#loc1581 = loc("cell.scan_fn/cell/hr/transpose"(#loc1243))
#loc1582 = loc("cell.scan_fn/cell/hr/add_any"(#loc1243))
#loc1583 = loc("cell.scan_fn/cell/ir/reduce_sum"(#loc1242))
#loc1584 = loc("cell.scan_fn/cell/ir/reshape"(#loc1242))
#loc1585 = loc("cell.scan_fn/cell/ir/add_any"(#loc1241))
#loc1586 = loc("cell.scan_fn/cell/ir/transpose"(#loc1240))
#loc1587 = loc("cell.scan_fn/cell/ir/add_any"(#loc1240))
#loc1588 = loc("broadcast_in_dim"(#loc1330))
#loc1589 = loc(callsite(#loc489 at #loc1332))
#loc1590 = loc("Network/feature_extractor/broadcast_in_dim"(#loc1333))
#loc1591 = loc(callsite(#loc489 at #loc1334))
#loc1592 = loc("Network/feature_extractor/concatenate"(#loc1335))
#loc1593 = loc("Network/torso/reshape"(#loc1336))
#loc1594 = loc("Network/torso/broadcast_in_dim"(#loc1337))
#loc1595 = loc("Network/torso/broadcast_in_dim"(#loc1338))
#loc1596 = loc("Network/torso/scatter"(#loc1338))
#loc1597 = loc("Network/torso/reshape"(#loc1339))
#loc1598 = loc(callsite(#loc505 at #loc1340))
#loc1599 = loc("Network/torso/reshape"(#loc1341))
#loc1600 = loc("Network/torso/slice"(#loc1342))
#loc1601 = loc("Network/torso/squeeze"(#loc1342))
#loc1602 = loc(callsite(#loc502 at #loc1343))
#loc1603 = loc(callsite(#loc552 at #loc1344))
#loc1604 = loc(callsite(#loc558 at #loc1345))
#loc1605 = loc("reshape"(#loc1346))
#loc1606 = loc("jit(_threefry_split)"(#loc1348))
#loc1607 = loc(callsite(#loc1009 at #loc1349))
#loc1608 = loc("vmap()/slice"(#loc1350))
#loc1609 = loc("vmap()/squeeze"(#loc1350))
#loc1610 = loc(callsite(#loc588 at #loc1351))
#loc1611 = loc(callsite(#loc590 at #loc1351))
#loc1612 = loc(callsite(#loc591 at #loc1351))
#loc1613 = loc(callsite(#loc592 at #loc1351))
#loc1614 = loc(callsite(#loc593 at #loc1351))
#loc1615 = loc(callsite(#loc594 at #loc1351))
#loc1616 = loc(callsite(#loc595 at #loc1351))
#loc1617 = loc(callsite(#loc596 at #loc1351))
#loc1618 = loc(callsite(#loc597 at #loc1351))
#loc1619 = loc(callsite(#loc598 at #loc1351))
#loc1620 = loc(callsite(#loc599 at #loc1351))
#loc1621 = loc(callsite(#loc600 at #loc1351))
#loc1622 = loc(callsite(#loc601 at #loc1351))
#loc1623 = loc(callsite(#loc602 at #loc1351))
#loc1624 = loc(callsite(#loc603 at #loc1351))
#loc1625 = loc(callsite(#loc604 at #loc1351))
#loc1626 = loc(callsite(#loc605 at #loc1351))
#loc1627 = loc(callsite(#loc606 at #loc1351))
#loc1628 = loc(callsite(#loc609 at #loc1351))
#loc1629 = loc(callsite(#loc644 at #loc1351))
#loc1630 = loc(callsite(#loc646 at #loc1351))
#loc1631 = loc(callsite(#loc652 at #loc1351))
#loc1632 = loc(callsite(#loc653 at #loc1351))
#loc1633 = loc(callsite(#loc654 at #loc1351))
#loc1634 = loc(callsite(#loc655 at #loc1351))
#loc1635 = loc(callsite(#loc657 at #loc1351))
#loc1636 = loc(callsite(#loc658 at #loc1351))
#loc1637 = loc(callsite(#loc659 at #loc1351))
#loc1638 = loc(callsite(#loc660 at #loc1351))
#loc1639 = loc(callsite(#loc662 at #loc1352))
#loc1640 = loc(callsite(#loc667 at #loc1352))
#loc1641 = loc(callsite(#loc668 at #loc1352))
#loc1642 = loc(callsite(#loc487 at #loc1353))
#loc1643 = loc(callsite(#loc670 at #loc1354))
#loc1644 = loc(callsite(#loc670 at #loc1355))
#loc1645 = loc("jit(train_step)/jit(_threefry_split)"(#loc1360))
#loc1646 = loc("jit(train_step)/jit(_threefry_split)"(#loc1363))
#loc1647 = loc("jit(train_step)/broadcast_in_dim"(#loc1364))
#loc1648 = loc("jit(train_step)/while"(#loc1364))
#loc1649 = loc("jit(train_step)/while/cond/lt"(#loc1365))
#loc1650 = loc("jit(train_step)/while/body/jit(dynamic_index_in_dim)"(#loc1365))
#loc1651 = loc("jit(train_step)/while/body/closed_call"(#loc1365))
#loc1652 = loc("jit(train_step)/while/body/jit(dynamic_update_index_in_dim)"(#loc1365))
#loc1653 = loc("jit(train_step)/while/body/add"(#loc1365))
#loc1654 = loc(callsite(#loc484 at #loc1366))
#loc1655 = loc("jit(train_step)/or"(#loc1367))
#loc1656 = loc(callsite(#loc490 at #loc1368))
#loc1657 = loc(callsite(#loc493 at #loc1368))
#loc1658 = loc(callsite(#loc494 at #loc1368))
#loc1659 = loc(callsite(#loc495 at #loc1368))
#loc1660 = loc(callsite(#loc496 at #loc1369))
#loc1661 = loc(callsite(#loc498 at #loc1369))
#loc1662 = loc(callsite(#loc499 at #loc1369))
#loc1663 = loc(callsite(#loc501 at #loc1369))
#loc1664 = loc(callsite(#loc506 at #loc1369))
#loc1665 = loc(callsite(#loc504 at #loc1370))
#loc1666 = loc(callsite(#loc525 at #loc1369))
#loc1667 = loc(callsite(#loc526 at #loc1369))
#loc1668 = loc(callsite(#loc527 at #loc1371))
#loc1669 = loc("jit(train_step)/squeeze"(#loc1372))
#loc1670 = loc("jit(train_step)/squeeze"(#loc1373))
#loc1671 = loc("jit(train_step)/broadcast_in_dim"(#loc1374))
#loc1672 = loc(callsite(#loc966 at #loc1375))
#loc1673 = loc(callsite(#loc1165 at #loc1375))
#loc1674 = loc("jit(train_step)/add"(#loc1376))
#loc1675 = loc("jit(train_step)/jit(_threefry_split)"(#loc1377))
#loc1676 = loc("jit(train_step)/while"(#loc1378))
#loc1677 = loc("jit(train_step)/while/cond/lt"(#loc1379))
#loc1678 = loc("jit(train_step)/while/body/jit(dynamic_index_in_dim)"(#loc1379))
#loc1679 = loc("jit(train_step)/while/body/closed_call"(#loc1379))
#loc1680 = loc("jit(train_step)/while/body/add"(#loc1379))
#loc1681 = loc("jit(train_step)/jit(_threefry_split)"(#loc1380))
#loc1682 = loc("jit(train_step)/broadcast_in_dim"(#loc1381))
#loc1683 = loc("jit(train_step)/while"(#loc1381))
#loc1684 = loc("jit(train_step)/while/cond/lt"(#loc1382))
#loc1685 = loc("jit(train_step)/while/body/jit(dynamic_index_in_dim)"(#loc1382))
#loc1686 = loc("jit(train_step)/while/body/closed_call"(#loc1382))
#loc1687 = loc("jit(train_step)/while/body/jit(dynamic_update_index_in_dim)"(#loc1382))
#loc1688 = loc("jit(train_step)/while/body/add"(#loc1382))
#loc1689 = loc(callsite(#loc503 at #loc1390))
#loc1690 = loc(callsite(#loc509 at #loc1390))
#loc1691 = loc(callsite(#loc511 at #loc1390))
#loc1692 = loc(callsite(#loc515 at #loc1390))
#loc1693 = loc("jit(log_softmax)"(#loc1395))
#loc1694 = loc(callsite(#loc556 at #loc1396))
#loc1695 = loc(callsite(#loc561 at #loc1396))
#loc1696 = loc(callsite(#loc562 at #loc1396))
#loc1698 = loc(callsite(#loc564 at #loc1397))
#loc1699 = loc(callsite(#loc566 at #loc1397))
#loc1700 = loc(callsite(#loc567 at #loc1397))
#loc1701 = loc(callsite(#loc568 at #loc1397))
#loc1702 = loc(callsite(#loc570 at #loc1397))
#loc1703 = loc(callsite(#loc573 at #loc1397))
#loc1704 = loc(callsite(#loc574 at #loc1397))
#loc1705 = loc(callsite(#loc607 at #loc1422))
#loc1706 = loc(callsite(#loc610 at #loc1422))
#loc1707 = loc(callsite(#loc611 at #loc1422))
#loc1708 = loc(callsite(#loc612 at #loc1422))
#loc1709 = loc(callsite(#loc613 at #loc1423))
#loc1710 = loc(callsite(#loc615 at #loc1423))
#loc1711 = loc(callsite(#loc616 at #loc1423))
#loc1712 = loc(callsite(#loc617 at #loc1423))
#loc1713 = loc("vmap()/eq"(#loc1424))
#loc1714 = loc("vmap()/reduce_and"(#loc1425))
#loc1715 = loc(callsite(#loc620 at #loc1426))
#loc1716 = loc(callsite(#loc622 at #loc1426))
#loc1717 = loc(callsite(#loc623 at #loc1426))
#loc1718 = loc(callsite(#loc624 at #loc1426))
#loc1719 = loc(callsite(#loc625 at #loc1426))
#loc1720 = loc(callsite(#loc627 at #loc1426))
#loc1721 = loc(callsite(#loc628 at #loc1426))
#loc1722 = loc(callsite(#loc629 at #loc1426))
#loc1723 = loc("vmap()/convert_element_type"(#loc1427))
#loc1724 = loc("vmap()/add"(#loc1428))
#loc1725 = loc("vmap()/convert_element_type"(#loc1429))
#loc1726 = loc("vmap()/ge"(#loc1430))
#loc1727 = loc("vmap()/or"(#loc1431))
#loc1728 = loc("vmap()/convert_element_type"(#loc1432))
#loc1729 = loc("vmap()/convert_element_type"(#loc1433))
#loc1730 = loc("vmap()/not"(#loc1434))
#loc1731 = loc("vmap()/convert_element_type"(#loc1435))
#loc1732 = loc(callsite(#loc639 at #loc1436))
#loc1733 = loc(callsite(#loc641 at #loc1436))
#loc1734 = loc(callsite(#loc642 at #loc1436))
#loc1735 = loc("vmap()/broadcast_in_dim"(#loc1437))
#loc1736 = loc("vmap()/select_n"(#loc1437))
#loc1737 = loc("vmap()/reshape"(#loc1438))
#loc1738 = loc("vmap()/reduce_sum"(#loc1439))
#loc1739 = loc("vmap()/gt"(#loc1440))
#loc1741 = loc("vmap()/add"(#loc1442))
#loc1742 = loc("vmap(jit(_where))"(#loc1443))
#loc1743 = loc("vmap()/broadcast_in_dim"(#loc1445))
#loc1744 = loc("vmap()/select_n"(#loc1445))
#loc1745 = loc("vmap()/broadcast_in_dim"(#loc1446))
#loc1746 = loc("vmap()/select_n"(#loc1446))
#loc1747 = loc("vmap()/broadcast_in_dim"(#loc1447))
#loc1748 = loc("vmap()/select_n"(#loc1447))
#loc1749 = loc(callsite(#loc643 at #loc1448))
#loc1750 = loc("vmap(jit(_randint))"(#loc1452))
#loc1751 = loc("vmap()/lt"(#loc1453))
#loc1752 = loc("vmap()/add"(#loc1453))
#loc1753 = loc("vmap()/select_n"(#loc1453))
#loc1754 = loc("vmap()/broadcast_in_dim"(#loc1453))
#loc1755 = loc("vmap()/concatenate"(#loc1453))
#loc1756 = loc("vmap()/gather"(#loc1453))
#loc1757 = loc("vmap()/squeeze"(#loc1453))
#loc1758 = loc("vmap()/broadcast_in_dim"(#loc1454))
#loc1759 = loc(callsite(#loc639 at #loc1455))
#loc1760 = loc(callsite(#loc641 at #loc1455))
#loc1761 = loc(callsite(#loc642 at #loc1455))
#loc1762 = loc("jit:"(#loc1463))
#loc1763 = loc("jit:"(#loc1464))
#loc1764 = loc("cell.scan_fn/reshape"(#loc1465))
#loc1765 = loc("jit:"(#loc1489))
#loc1766 = loc("jit"(#loc1395))
#loc1767 = loc("jit:"(#loc1491))
#loc1768 = loc("jit:"(#loc1492))
#loc1769 = loc("jit:"(#loc1493))
#loc1770 = loc("jit:"(#loc1494))
#loc1771 = loc("jit:"(#loc1495))
#loc1772 = loc("jit:"(#loc1496))
#loc1773 = loc("iota"(#loc1441))
#loc1774 = loc("reduce"(#loc1441))
#loc1775 = loc(callsite(#loc1441 at #loc1441))
#loc1776 = loc("vmap()/jit"(#loc1443))
#loc1777 = loc("vmap()/jit"(#loc1452))
#loc1778 = loc("jvp(Network)/feature_extractor/token_embedding/jit(_take)"(#loc1502))
#loc1779 = loc("jvp(Network)/feature_extractor/token_embedding/jit(_take)"(#loc1504))
#loc1780 = loc(callsite(#loc504 at #loc1511))
#loc1781 = loc("jvp(Network)/head/actor/dot_general"(#loc1515))
#loc1782 = loc("jvp(Network)/head/critic/dot_general"(#loc1516))
#loc1783 = loc("jvp(Network)/head/critic/reshape"(#loc1517))
#loc1784 = loc("jvp(Network)/head/critic/add"(#loc1518))
#loc1785 = loc(callsite(#loc551 at #loc1519))
#loc1786 = loc(callsite(#loc569 at #loc1524))
#loc1787 = loc(callsite(#loc571 at #loc1524))
#loc1788 = loc(callsite(#loc572 at #loc1524))
#loc1789 = loc("jvp()/exp"(#loc1529))
#loc1790 = loc("jvp()/eq"(#loc1530))
#loc1791 = loc("jvp(jit(_where))"(#loc1531))
#loc1792 = loc("transpose(jvp())/mul"(#loc1534))
#loc1793 = loc("transpose(jvp(jit(_where)))"(#loc1531))
#loc1794 = loc("transpose(jvp())/mul"(#loc1529))
#loc1795 = loc("transpose(jvp())/add_any"(#loc1529))
#loc1796 = loc(callsite(#loc772 at #loc1538))
#loc1797 = loc("transpose(jvp(Network))/head/critic/reduce_sum"(#loc1518))
#loc1798 = loc("transpose(jvp(Network))/head/critic/reshape"(#loc1518))
#loc1799 = loc("transpose(jvp(Network))/head/critic/reshape"(#loc1517))
#loc1800 = loc("transpose(jvp(Network))/head/critic/dot_general"(#loc1516))
#loc1801 = loc("transpose(jvp(Network))/head/critic/transpose"(#loc1516))
#loc1802 = loc("transpose(jvp(Network))/head/actor/dot_general"(#loc1515))
#loc1803 = loc("transpose(jvp(Network))/head/actor/transpose"(#loc1515))
#loc1804 = loc("transpose(jvp(Network))/head/actor/add_any"(#loc1515))
#loc1805 = loc("transpose(jvp(Network))/feature_extractor/token_embedding/jit(_take)"(#loc1504))
#loc1806 = loc("transpose(jvp(Network))/feature_extractor/token_embedding/jit(_take)"(#loc1502))
#loc1807 = loc("transpose(jvp(Network))/feature_extractor/token_embedding/add_any"(#loc1502))
#loc1808 = loc(callsite(#loc777 at #loc1545))
#loc1809 = loc(callsite(#loc783 at #loc1545))
#loc1810 = loc(callsite(#loc784 at #loc1545))
#loc1811 = loc(callsite(#loc785 at #loc1545))
#loc1812 = loc(callsite(#loc786 at #loc1546))
#loc1813 = loc(callsite(#loc788 at #loc1546))
#loc1814 = loc("sqrt"(#loc1547))
#loc1815 = loc("div"(#loc1549))
#loc1816 = loc("mul"(#loc1550))
#loc1817 = loc("select_n"(#loc1551))
#loc1818 = loc(callsite(#loc796 at #loc1552))
#loc1819 = loc(callsite(#loc802 at #loc1553))
#loc1820 = loc(callsite(#loc807 at #loc1554))
#loc1821 = loc(callsite(#loc809 at #loc1554))
#loc1822 = loc(callsite(#loc810 at #loc1554))
#loc1823 = loc("pow"(#loc1555))
#loc1824 = loc("sub"(#loc1555))
#loc1825 = loc("div"(#loc1555))
#loc1826 = loc("pow"(#loc1556))
#loc1827 = loc("sub"(#loc1556))
#loc1828 = loc("div"(#loc1556))
#loc1829 = loc(callsite(#loc813 at #loc1557))
#loc1830 = loc(callsite(#loc815 at #loc1557))
#loc1831 = loc(callsite(#loc816 at #loc1557))
#loc1832 = loc(callsite(#loc817 at #loc1557))
#loc1833 = loc(callsite(#loc818 at #loc1558))
#loc1834 = loc("jvp(Network)/feature_extractor/token_embedding/jit"(#loc1502))
#loc1835 = loc("jvp(Network)/feature_extractor/token_embedding/jit"(#loc1504))
#loc1836 = loc("jit:"(#loc1559))
#loc1837 = loc("jit:"(#loc1560))
#loc1838 = loc("jit:"(#loc1561))
#loc1839 = loc("jvp()/jit"(#loc1531))
#loc1840 = loc("transpose(jvp())/jit"(#loc1531))
#loc1841 = loc("jit:"(#loc1562))
#loc1842 = loc("jit:"(#loc1563))
#loc1843 = loc("transpose(jvp(Network))/feature_extractor/token_embedding/jit"(#loc1504))
#loc1844 = loc("transpose(jvp(Network))/feature_extractor/token_embedding/jit"(#loc1502))
#loc1845 = loc("Network/feature_extractor/token_embedding/jit(_take)"(#loc1589))
#loc1846 = loc("Network/feature_extractor/token_embedding/jit(_take)"(#loc1591))
#loc1847 = loc(callsite(#loc504 at #loc1598))
#loc1848 = loc("Network/head/actor/dot_general"(#loc1602))
#loc1849 = loc(callsite(#loc551 at #loc1603))
#loc1850 = loc(callsite(#loc557 at #loc1604))
#loc1851 = loc(callsite(#loc565 at #loc1604))
#loc1852 = loc("vmap()/vmap(jit(_threefry_split))"(#loc1607))
#loc1853 = loc("vmap()/eq"(#loc1610))
#loc1854 = loc("vmap()/eq"(#loc1611))
#loc1855 = loc("vmap(jit(_where))"(#loc1612))
#loc1856 = loc("vmap(jit(_where))"(#loc1613))
#loc1857 = loc("vmap()/broadcast_in_dim"(#loc1614))
#loc1858 = loc("vmap(jit(_where))"(#loc1615))
#loc1859 = loc("vmap()/not"(#loc1616))
#loc1860 = loc("vmap()/and"(#loc1617))
#loc1861 = loc("vmap()/not"(#loc1618))
#loc1862 = loc("vmap()/and"(#loc1619))
#loc1863 = loc("vmap()/lt"(#loc1620))
#loc1864 = loc("vmap()/and"(#loc1621))
#loc1865 = loc("vmap(jit(clip))"(#loc1622))
#loc1866 = loc("vmap()/lt"(#loc1623))
#loc1867 = loc("vmap()/add"(#loc1623))
#loc1868 = loc("vmap()/select_n"(#loc1623))
#loc1869 = loc("vmap()/broadcast_in_dim"(#loc1623))
#loc1870 = loc("vmap()/scatter"(#loc1623))
#loc1871 = loc("vmap(jit(_where))"(#loc1624))
#loc1872 = loc("vmap()/add"(#loc1625))
#loc1873 = loc("vmap(jit(_where))"(#loc1626))
#loc1874 = loc("vmap()/and"(#loc1627))
#loc1875 = loc(callsite(#loc608 at #loc1628))
#loc1876 = loc(callsite(#loc614 at #loc1628))
#loc1877 = loc(callsite(#loc618 at #loc1628))
#loc1878 = loc(callsite(#loc619 at #loc1628))
#loc1879 = loc(callsite(#loc621 at #loc1628))
#loc1880 = loc(callsite(#loc630 at #loc1628))
#loc1881 = loc(callsite(#loc631 at #loc1628))
#loc1882 = loc(callsite(#loc632 at #loc1628))
#loc1883 = loc(callsite(#loc633 at #loc1628))
#loc1884 = loc(callsite(#loc634 at #loc1628))
#loc1885 = loc(callsite(#loc635 at #loc1628))
#loc1886 = loc(callsite(#loc636 at #loc1628))
#loc1887 = loc(callsite(#loc637 at #loc1628))
#loc1888 = loc(callsite(#loc638 at #loc1628))
#loc1889 = loc(callsite(#loc640 at #loc1628))
#loc1890 = loc(callsite(#loc643 at #loc1629))
#loc1891 = loc(callsite(#loc645 at #loc1630))
#loc1892 = loc(callsite(#loc647 at #loc1630))
#loc1893 = loc(callsite(#loc648 at #loc1630))
#loc1894 = loc(callsite(#loc649 at #loc1630))
#loc1895 = loc(callsite(#loc650 at #loc1630))
#loc1896 = loc(callsite(#loc651 at #loc1630))
#loc1897 = loc("vmap()/broadcast_in_dim"(#loc1631))
#loc1898 = loc(callsite(#loc643 at #loc1632))
#loc1899 = loc(callsite(#loc643 at #loc1633))
#loc1900 = loc(callsite(#loc643 at #loc1634))
#loc1901 = loc(callsite(#loc656 at #loc1635))
#loc1902 = loc("vmap()/convert_element_type"(#loc1636))
#loc1903 = loc("vmap(jit(_where))"(#loc1637))
#loc1904 = loc("vmap(jit(_where))"(#loc1638))
#loc1905 = loc(callsite(#loc661 at #loc1639))
#loc1906 = loc(callsite(#loc664 at #loc1639))
#loc1907 = loc(callsite(#loc665 at #loc1639))
#loc1908 = loc(callsite(#loc666 at #loc1639))
#loc1909 = loc("vmap()/broadcast_in_dim"(#loc1640))
#loc1910 = loc("vmap()/broadcast_in_dim"(#loc1641))
#loc1911 = loc("vmap()/or"(#loc1642))
#loc1912 = loc("vmap()/broadcast_in_dim"(#loc1643))
#loc1913 = loc("vmap()/select_n"(#loc1643))
#loc1914 = loc("vmap()/broadcast_in_dim"(#loc1644))
#loc1915 = loc("vmap()/select_n"(#loc1644))
#loc1916 = loc("jit(train_step)/broadcast_in_dim"(#loc1654))
#loc1917 = loc(callsite(#loc489 at #loc1656))
#loc1918 = loc("jit(train_step)/Network/feature_extractor/broadcast_in_dim"(#loc1657))
#loc1919 = loc(callsite(#loc489 at #loc1658))
#loc1920 = loc("jit(train_step)/Network/feature_extractor/concatenate"(#loc1659))
#loc1921 = loc("jit(train_step)/Network/torso/reshape"(#loc1660))
#loc1922 = loc("jit(train_step)/Network/torso/broadcast_in_dim"(#loc1661))
#loc1923 = loc("jit(train_step)/Network/torso/broadcast_in_dim"(#loc1662))
#loc1924 = loc("jit(train_step)/Network/torso/scatter"(#loc1662))
#loc1925 = loc("jit(train_step)/Network/torso/reshape"(#loc1663))
#loc1926 = loc(callsite(#loc505 at #loc1664))
#loc1927 = loc(callsite(#loc515 at #loc1665))
#loc1928 = loc("jit(train_step)/Network/torso/reshape"(#loc1666))
#loc1929 = loc("jit(train_step)/Network/torso/slice"(#loc1667))
#loc1930 = loc("jit(train_step)/Network/torso/squeeze"(#loc1667))
#loc1931 = loc(callsite(#loc502 at #loc1668))
#loc1932 = loc(callsite(#loc507 at #loc1668))
#loc1933 = loc(callsite(#loc508 at #loc1668))
#loc1934 = loc("jit(train_step)/broadcast_in_dim"(#loc1672))
#loc1935 = loc("jit(train_step)/while"(#loc1672))
#loc1936 = loc("jit(train_step)/while/cond/lt"(#loc1673))
#loc1937 = loc("jit(train_step)/while/body/sub"(#loc1673))
#loc1938 = loc("jit(train_step)/while/body/jit(dynamic_index_in_dim)"(#loc1673))
#loc1939 = loc("jit(train_step)/while/body/closed_call"(#loc1673))
#loc1940 = loc("jit(train_step)/while/body/jit(dynamic_update_index_in_dim)"(#loc1673))
#loc1941 = loc("jit(train_step)/while/body/add"(#loc1673))
#loc1942 = loc(callsite(#loc502 at #loc1689))
#loc1943 = loc(callsite(#loc507 at #loc1689))
#loc1944 = loc(callsite(#loc508 at #loc1689))
#loc1945 = loc("Network/torso/block/blocks_0/jit(relu)"(#loc1690))
#loc1946 = loc(callsite(#loc510 at #loc1691))
#loc1947 = loc(callsite(#loc514 at #loc1692))
#loc1948 = loc(callsite(#loc520 at #loc1692))
#loc1949 = loc(callsite(#loc521 at #loc1692))
#loc1950 = loc(callsite(#loc524 at #loc1692))
#loc1951 = loc("jit(_gumbel)"(#loc1694))
#loc1952 = loc("mul"(#loc1695))
#loc1953 = loc("broadcast_in_dim"(#loc1696))
#loc1954 = loc("add"(#loc1696))
#loc1955 = loc("jit(_one_hot)"(#loc1698))
#loc1956 = loc("lt"(#loc1699))
#loc1957 = loc("gt"(#loc1700))
#loc1958 = loc("or"(#loc1701))
#loc1959 = loc(callsite(#loc569 at #loc1702))
#loc1960 = loc(callsite(#loc571 at #loc1702))
#loc1961 = loc(callsite(#loc572 at #loc1702))
#loc1962 = loc("reduce_sum"(#loc1703))
#loc1963 = loc("jit(_where)"(#loc1704))
#loc1964 = loc("vmap()/iota"(#loc1705))
#loc1965 = loc("vmap()/eq"(#loc1706))
#loc1966 = loc("vmap()/ne"(#loc1706))
#loc1967 = loc("vmap()/and"(#loc1706))
#loc1968 = loc("vmap(jit(_where))"(#loc1706))
#loc1969 = loc("vmap()/mul"(#loc1706))
#loc1970 = loc("vmap()/shift_right_logical"(#loc1706))
#loc1971 = loc("vmap()/broadcast_in_dim"(#loc1707))
#loc1972 = loc("vmap()/mul"(#loc1707))
#loc1973 = loc("vmap()/reduce_sum"(#loc1708))
#loc1974 = loc("vmap(jit(searchsorted))"(#loc1709))
#loc1975 = loc("vmap(jit(clip))"(#loc1710))
#loc1976 = loc("vmap()/lt"(#loc1711))
#loc1977 = loc("vmap()/add"(#loc1711))
#loc1978 = loc("vmap()/select_n"(#loc1711))
#loc1979 = loc("vmap()/broadcast_in_dim"(#loc1711))
#loc1980 = loc("vmap()/gather"(#loc1711))
#loc1981 = loc("vmap()/squeeze"(#loc1711))
#loc1982 = loc("vmap()/eq"(#loc1712))
#loc1983 = loc("vmap()/eq"(#loc1715))
#loc1984 = loc("vmap()/broadcast_in_dim"(#loc1716))
#loc1985 = loc("vmap()/not"(#loc1717))
#loc1986 = loc("vmap()/convert_element_type"(#loc1718))
#loc1987 = loc("vmap()/lt"(#loc1719))
#loc1988 = loc("vmap()/add"(#loc1719))
#loc1989 = loc("vmap()/select_n"(#loc1719))
#loc1990 = loc("vmap()/broadcast_in_dim"(#loc1719))
#loc1991 = loc("vmap()/scatter-add"(#loc1719))
#loc1992 = loc("vmap()/transpose"(#loc1720))
#loc1993 = loc(callsite(#loc1720 at #loc1720))
#loc1994 = loc("vmap(jit(_where))"(#loc1721))
#loc1995 = loc("vmap(jit(_where))"(#loc1722))
#loc1996 = loc("vmap(jit(_one_hot))"(#loc1732))
#loc1997 = loc("vmap()/reshape"(#loc1733))
#loc1998 = loc("vmap(jit(_where))"(#loc1734))
#loc1999 = loc("vmap()/broadcast_in_dim"(#loc1749))
#loc2000 = loc("vmap()/select_n"(#loc1749))
#loc2001 = loc("vmap(jit(_one_hot))"(#loc1759))
#loc2002 = loc("vmap()/reshape"(#loc1760))
#loc2003 = loc("vmap(jit(_where))"(#loc1761))
#loc2004 = loc("jit:"(#loc1766))
#loc2005 = loc("jit"(#loc1694))
#loc2006 = loc("iota"(#loc1697))
#loc2007 = loc("reduce"(#loc1697))
#loc2008 = loc(callsite(#loc1697 at #loc1697))
#loc2009 = loc("jit"(#loc1698))
#loc2010 = loc("jit"(#loc1704))
#loc2011 = loc("vmap()/jit"(#loc1706))
#loc2012 = loc("vmap()/jit"(#loc1709))
#loc2013 = loc("while/body/jit"(#loc1720))
#loc2014 = loc("dynamic_slice"(#loc1720))
#loc2015 = loc("squeeze"(#loc1720))
#loc2016 = loc("while/body/closed_call"(#loc1720))
#loc2017 = loc("broadcast_in_dim"(#loc1720))
#loc2018 = loc("dynamic_update_slice"(#loc1720))
#loc2019 = loc("vmap()/jit"(#loc1721))
#loc2020 = loc("vmap()/jit"(#loc1722))
#loc2021 = loc("vmap()/jit"(#loc1732))
#loc2022 = loc("vmap()/jit"(#loc1734))
#loc2023 = loc("gt"(#loc1775))
#loc2024 = loc("ne"(#loc1775))
#loc2025 = loc("or"(#loc1775))
#loc2026 = loc("eq"(#loc1775))
#loc2027 = loc("lt"(#loc1775))
#loc2028 = loc("and"(#loc1775))
#loc2029 = loc("select_n"(#loc1775))
#loc2030 = loc("jit:"(#loc1776))
#loc2031 = loc("jit:"(#loc1777))
#loc2032 = loc("vmap()/jit"(#loc1759))
#loc2033 = loc("vmap()/jit"(#loc1761))
#loc2034 = loc(callsite(#loc503 at #loc1780))
#loc2035 = loc(callsite(#loc509 at #loc1780))
#loc2036 = loc(callsite(#loc511 at #loc1780))
#loc2037 = loc(callsite(#loc515 at #loc1780))
#loc2038 = loc("jvp(jit(log_softmax))"(#loc1785))
#loc2039 = loc("jvp()/eq"(#loc1786))
#loc2040 = loc("jvp()/mul"(#loc1787))
#loc2041 = loc("jvp()/jit(_where)"(#loc1788))
#loc2042 = loc("transpose(jvp(jvp()))/mul"(#loc1796))
#loc2043 = loc("transpose(jvp(jvp()))/add_any"(#loc1796))
#loc2044 = loc("transpose(jvp(jit(log_softmax)))"(#loc1785))
#loc2045 = loc("square"(#loc1808))
#loc2046 = loc("broadcast_in_dim"(#loc1809))
#loc2047 = loc("square"(#loc1810))
#loc2048 = loc("add"(#loc1811))
#loc2049 = loc("reduce_sum"(#loc1812))
#loc2050 = loc("add"(#loc1813))
#loc2051 = loc(callsite(#loc795 at #loc1818))
#loc2052 = loc(callsite(#loc798 at #loc1818))
#loc2053 = loc(callsite(#loc799 at #loc1818))
#loc2054 = loc(callsite(#loc801 at #loc1819))
#loc2055 = loc(callsite(#loc804 at #loc1819))
#loc2056 = loc(callsite(#loc805 at #loc1819))
#loc2057 = loc(callsite(#loc806 at #loc1819))
#loc2058 = loc("lt"(#loc1820))
#loc2059 = loc("add"(#loc1821))
#loc2060 = loc("jit(_where)"(#loc1822))
#loc2061 = loc("add"(#loc1829))
#loc2062 = loc("sqrt"(#loc1830))
#loc2063 = loc("add"(#loc1831))
#loc2064 = loc("div"(#loc1832))
#loc2065 = loc("mul"(#loc1833))
#loc2066 = loc("jit:"(#loc1834))
#loc2067 = loc("jit:"(#loc1835))
#loc2068 = loc("jvp()/jit"(#loc1785))
#loc2069 = loc("jit:"(#loc1839))
#loc2070 = loc("jit:"(#loc1840))
#loc2071 = loc("transpose(jvp())/jit"(#loc1785))
#loc2072 = loc("jit:"(#loc1843))
#loc2073 = loc("jit:"(#loc1844))
#loc2074 = loc("jit"(#loc1822))
#loc2075 = loc(callsite(#loc503 at #loc1847))
#loc2076 = loc(callsite(#loc509 at #loc1847))
#loc2077 = loc(callsite(#loc511 at #loc1847))
#loc2078 = loc(callsite(#loc515 at #loc1847))
#loc2079 = loc("jit(log_softmax)"(#loc1849))
#loc2080 = loc(callsite(#loc556 at #loc1850))
#loc2081 = loc(callsite(#loc561 at #loc1850))
#loc2082 = loc(callsite(#loc562 at #loc1850))
#loc2083 = loc(callsite(#loc563 at #loc1850))
#loc2084 = loc(callsite(#loc564 at #loc1851))
#loc2085 = loc(callsite(#loc566 at #loc1851))
#loc2086 = loc(callsite(#loc567 at #loc1851))
#loc2087 = loc(callsite(#loc568 at #loc1851))
#loc2088 = loc(callsite(#loc570 at #loc1851))
#loc2089 = loc(callsite(#loc573 at #loc1851))
#loc2090 = loc(callsite(#loc574 at #loc1851))
#loc2091 = loc(callsite(#loc607 at #loc1875))
#loc2092 = loc(callsite(#loc610 at #loc1875))
#loc2093 = loc(callsite(#loc611 at #loc1875))
#loc2094 = loc(callsite(#loc612 at #loc1875))
#loc2095 = loc(callsite(#loc613 at #loc1876))
#loc2096 = loc(callsite(#loc615 at #loc1876))
#loc2097 = loc(callsite(#loc616 at #loc1876))
#loc2098 = loc(callsite(#loc617 at #loc1876))
#loc2099 = loc("vmap()/eq"(#loc1877))
#loc2100 = loc("vmap()/reduce_and"(#loc1878))
#loc2101 = loc(callsite(#loc620 at #loc1879))
#loc2102 = loc(callsite(#loc622 at #loc1879))
#loc2103 = loc(callsite(#loc623 at #loc1879))
#loc2104 = loc(callsite(#loc624 at #loc1879))
#loc2105 = loc(callsite(#loc625 at #loc1879))
#loc2106 = loc(callsite(#loc627 at #loc1879))
#loc2107 = loc(callsite(#loc628 at #loc1879))
#loc2108 = loc(callsite(#loc629 at #loc1879))
#loc2109 = loc("vmap()/convert_element_type"(#loc1880))
#loc2110 = loc("vmap()/add"(#loc1881))
#loc2111 = loc("vmap()/convert_element_type"(#loc1882))
#loc2112 = loc("vmap()/ge"(#loc1883))
#loc2113 = loc("vmap()/or"(#loc1884))
#loc2114 = loc("vmap()/convert_element_type"(#loc1885))
#loc2115 = loc("vmap()/convert_element_type"(#loc1886))
#loc2116 = loc("vmap()/not"(#loc1887))
#loc2117 = loc("vmap()/convert_element_type"(#loc1888))
#loc2118 = loc(callsite(#loc639 at #loc1889))
#loc2119 = loc(callsite(#loc641 at #loc1889))
#loc2120 = loc(callsite(#loc642 at #loc1889))
#loc2121 = loc("vmap()/broadcast_in_dim"(#loc1890))
#loc2122 = loc("vmap()/select_n"(#loc1890))
#loc2123 = loc("vmap()/reshape"(#loc1891))
#loc2124 = loc("vmap()/reduce_sum"(#loc1892))
#loc2125 = loc("vmap()/gt"(#loc1893))
#loc2126 = loc("vmap()"(#loc1894))
#loc2127 = loc("vmap()/add"(#loc1895))
#loc2128 = loc("vmap(jit(_where))"(#loc1896))
#loc2129 = loc("vmap()/broadcast_in_dim"(#loc1898))
#loc2130 = loc("vmap()/select_n"(#loc1898))
#loc2131 = loc("vmap()/broadcast_in_dim"(#loc1899))
#loc2132 = loc("vmap()/select_n"(#loc1899))
#loc2133 = loc("vmap()/broadcast_in_dim"(#loc1900))
#loc2134 = loc("vmap()/select_n"(#loc1900))
#loc2135 = loc(callsite(#loc643 at #loc1901))
#loc2136 = loc("vmap(jit(_randint))"(#loc1905))
#loc2137 = loc("vmap()/lt"(#loc1906))
#loc2138 = loc("vmap()/add"(#loc1906))
#loc2139 = loc("vmap()/select_n"(#loc1906))
#loc2140 = loc("vmap()/broadcast_in_dim"(#loc1906))
#loc2141 = loc("vmap()/concatenate"(#loc1906))
#loc2142 = loc("vmap()/gather"(#loc1906))
#loc2143 = loc("vmap()/squeeze"(#loc1906))
#loc2144 = loc("vmap()/broadcast_in_dim"(#loc1907))
#loc2145 = loc(callsite(#loc639 at #loc1908))
#loc2146 = loc(callsite(#loc641 at #loc1908))
#loc2147 = loc(callsite(#loc642 at #loc1908))
#loc2148 = loc("jit(train_step)/Network/feature_extractor/token_embedding/jit(_take)"(#loc1917))
#loc2149 = loc("jit(train_step)/Network/feature_extractor/token_embedding/jit(_take)"(#loc1919))
#loc2150 = loc(callsite(#loc504 at #loc1926))
#loc2151 = loc(callsite(#loc521 at #loc1927))
#loc2152 = loc("jit(train_step)/Network/head/critic/dot_general"(#loc1931))
#loc2153 = loc("jit(train_step)/Network/head/critic/reshape"(#loc1932))
#loc2154 = loc("jit(train_step)/Network/head/critic/add"(#loc1933))
#loc2155 = loc("Network/torso/block/blocks_0/Dense_0/dot_general"(#loc1942))
#loc2156 = loc("Network/torso/block/blocks_0/Dense_0/reshape"(#loc1943))
#loc2157 = loc("Network/torso/block/blocks_0/Dense_0/add"(#loc1944))
#loc2158 = loc("Network/torso/block/blocks_1/broadcast_in_dim"(#loc1946))
#loc2159 = loc(callsite(#loc513 at #loc1947))
#loc2160 = loc(callsite(#loc519 at #loc1948))
#loc2161 = loc(callsite(#loc1949 at #loc1949))
#loc2162 = loc(callsite(#loc523 at #loc1950))
#loc2163 = loc("eq"(#loc1959))
#loc2164 = loc("broadcast_in_dim"(#loc1960))
#loc2165 = loc("mul"(#loc1960))
#loc2166 = loc("jit(_where)"(#loc1961))
#loc2167 = loc("vmap()/broadcast_in_dim"(#loc1993))
#loc2168 = loc("vmap()/while"(#loc1993))
#loc2169 = loc(callsite(#loc1993 at #loc1720))
#loc2170 = loc("while/body/jit"(#loc1949))
#loc2171 = loc("while/body/closed_call"(#loc1949))
#loc2172 = loc("jit:"(#loc2005))
#loc2173 = loc("gt"(#loc2008))
#loc2174 = loc("ne"(#loc2008))
#loc2175 = loc("or"(#loc2008))
#loc2176 = loc("eq"(#loc2008))
#loc2177 = loc("lt"(#loc2008))
#loc2178 = loc("and"(#loc2008))
#loc2179 = loc("select_n"(#loc2008))
#loc2180 = loc("jit:"(#loc2009))
#loc2181 = loc("jit:"(#loc2010))
#loc2182 = loc("jit:"(#loc2011))
#loc2183 = loc("jit:"(#loc2012))
#loc2184 = loc("jit:"(#loc2013))
#loc2185 = loc("closed_call:"(#loc2016))
#loc2186 = loc("jit:"(#loc2019))
#loc2187 = loc("jit:"(#loc2020))
#loc2188 = loc("jit:"(#loc2021))
#loc2189 = loc("jit:"(#loc2022))
#loc2190 = loc("jit:"(#loc2032))
#loc2191 = loc("jit:"(#loc2033))
#loc2192 = loc(callsite(#loc502 at #loc2034))
#loc2193 = loc(callsite(#loc507 at #loc2034))
#loc2194 = loc(callsite(#loc508 at #loc2034))
#loc2195 = loc("jvp(Network)/torso/block/blocks_0/jit(relu)"(#loc2035))
#loc2196 = loc("jvp(Network)/torso/block/blocks_0/gt"(#loc2035))
#loc2197 = loc(callsite(#loc510 at #loc2036))
#loc2198 = loc(callsite(#loc514 at #loc2037))
#loc2199 = loc(callsite(#loc520 at #loc2037))
#loc2200 = loc(callsite(#loc521 at #loc2037))
#loc2201 = loc(callsite(#loc524 at #loc2037))
#loc2202 = loc("transpose(jvp(Network))/torso/block/blocks_0/broadcast_in_dim"(#loc2035))
#loc2203 = loc("transpose(jvp(Network))/torso/block/blocks_0/select_n"(#loc2035))
#loc2204 = loc("mul"(#loc2051))
#loc2205 = loc("mul"(#loc2052))
#loc2206 = loc("add"(#loc2053))
#loc2207 = loc(callsite(#loc800 at #loc2054))
#loc2208 = loc("mul"(#loc2055))
#loc2209 = loc("mul"(#loc2056))
#loc2210 = loc("add"(#loc2057))
#loc2211 = loc("jit:"(#loc2068))
#loc2212 = loc("jit:"(#loc2071))
#loc2213 = loc("jit:"(#loc2074))
#loc2214 = loc(callsite(#loc502 at #loc2075))
#loc2215 = loc(callsite(#loc507 at #loc2075))
#loc2216 = loc(callsite(#loc508 at #loc2075))
#loc2217 = loc("Network/torso/block/blocks_0/jit(relu)"(#loc2076))
#loc2218 = loc(callsite(#loc510 at #loc2077))
#loc2219 = loc(callsite(#loc514 at #loc2078))
#loc2220 = loc(callsite(#loc520 at #loc2078))
#loc2221 = loc(callsite(#loc521 at #loc2078))
#loc2222 = loc(callsite(#loc524 at #loc2078))
#loc2223 = loc("jit(_gumbel)"(#loc2080))
#loc2224 = loc("mul"(#loc2081))
#loc2225 = loc("broadcast_in_dim"(#loc2082))
#loc2226 = loc("add"(#loc2082))
#loc2227 = loc("jit(_one_hot)"(#loc2084))
#loc2228 = loc("lt"(#loc2085))
#loc2229 = loc("gt"(#loc2086))
#loc2230 = loc("or"(#loc2087))
#loc2231 = loc(callsite(#loc569 at #loc2088))
#loc2232 = loc(callsite(#loc571 at #loc2088))
#loc2233 = loc(callsite(#loc572 at #loc2088))
#loc2234 = loc("reduce_sum"(#loc2089))
#loc2235 = loc("jit(_where)"(#loc2090))
#loc2236 = loc("vmap()/iota"(#loc2091))
#loc2237 = loc("vmap()/eq"(#loc2092))
#loc2238 = loc("vmap()/ne"(#loc2092))
#loc2239 = loc("vmap()/and"(#loc2092))
#loc2240 = loc("vmap(jit(_where))"(#loc2092))
#loc2241 = loc("vmap()/mul"(#loc2092))
#loc2242 = loc("vmap()/shift_right_logical"(#loc2092))
#loc2243 = loc("vmap()/broadcast_in_dim"(#loc2093))
#loc2244 = loc("vmap()/mul"(#loc2093))
#loc2245 = loc("vmap()/reduce_sum"(#loc2094))
#loc2246 = loc("vmap(jit(searchsorted))"(#loc2095))
#loc2247 = loc("vmap(jit(clip))"(#loc2096))
#loc2248 = loc("vmap()/lt"(#loc2097))
#loc2249 = loc("vmap()/add"(#loc2097))
#loc2250 = loc("vmap()/select_n"(#loc2097))
#loc2251 = loc("vmap()/broadcast_in_dim"(#loc2097))
#loc2252 = loc("vmap()/gather"(#loc2097))
#loc2253 = loc("vmap()/squeeze"(#loc2097))
#loc2254 = loc("vmap()/eq"(#loc2098))
#loc2255 = loc("vmap()/eq"(#loc2101))
#loc2256 = loc("vmap()/broadcast_in_dim"(#loc2102))
#loc2257 = loc("vmap()/not"(#loc2103))
#loc2258 = loc("vmap()/convert_element_type"(#loc2104))
#loc2259 = loc("vmap()/lt"(#loc2105))
#loc2260 = loc("vmap()/add"(#loc2105))
#loc2261 = loc("vmap()/select_n"(#loc2105))
#loc2262 = loc("vmap()/broadcast_in_dim"(#loc2105))
#loc2263 = loc("vmap()/scatter-add"(#loc2105))
#loc2264 = loc("vmap()/transpose"(#loc2106))
#loc2265 = loc(callsite(#loc2106 at #loc2106))
#loc2266 = loc("vmap(jit(_where))"(#loc2107))
#loc2267 = loc("vmap(jit(_where))"(#loc2108))
#loc2268 = loc("vmap(jit(_one_hot))"(#loc2118))
#loc2269 = loc("vmap()/reshape"(#loc2119))
#loc2270 = loc("vmap(jit(_where))"(#loc2120))
#loc2271 = loc("vmap()/broadcast_in_dim"(#loc2135))
#loc2272 = loc("vmap()/select_n"(#loc2135))
#loc2273 = loc("vmap(jit(_one_hot))"(#loc2145))
#loc2274 = loc("vmap()/reshape"(#loc2146))
#loc2275 = loc("vmap(jit(_where))"(#loc2147))
#loc2276 = loc("while/body/closed_call"(#loc2106))
#loc2277 = loc(callsite(#loc503 at #loc2150))
#loc2278 = loc(callsite(#loc509 at #loc2150))
#loc2279 = loc(callsite(#loc511 at #loc2150))
#loc2280 = loc(callsite(#loc515 at #loc2150))
#loc2281 = loc(callsite(#loc2151 at #loc2151))
#loc2282 = loc(callsite(#loc512 at #loc2159))
#loc2283 = loc(callsite(#loc518 at #loc2160))
#loc2284 = loc("Network/torso/block/blocks_1/broadcast_in_dim"(#loc2161))
#loc2285 = loc("Network/torso/block/blocks_1/while"(#loc2161))
#loc2286 = loc(callsite(#loc2161 at #loc1949))
#loc2287 = loc(callsite(#loc522 at #loc2162))
#loc2288 = loc("vmap()/while/cond/lt"(#loc2169))
#loc2289 = loc("vmap()/while/body/jit(dynamic_index_in_dim)"(#loc2169))
#loc2290 = loc("vmap()/while/body/closed_call"(#loc2169))
#loc2291 = loc("vmap()/while/body/jit(dynamic_update_index_in_dim)"(#loc2169))
#loc2292 = loc("vmap()/while/body/add"(#loc2169))
#loc2293 = loc("jit:"(#loc2170))
#loc2294 = loc("closed_call:"(#loc2171))
#loc2295 = loc("while/body/closed_call"(#loc2151))
#loc2296 = loc("jvp(Network)/torso/block/blocks_0/Dense_0/dot_general"(#loc2192))
#loc2297 = loc("jvp(Network)/torso/block/blocks_0/Dense_0/reshape"(#loc2193))
#loc2298 = loc("jvp(Network)/torso/block/blocks_0/Dense_0/add"(#loc2194))
#loc2299 = loc("jvp(Network)/torso/block/blocks_1/broadcast_in_dim"(#loc2197))
#loc2300 = loc(callsite(#loc513 at #loc2198))
#loc2301 = loc(callsite(#loc519 at #loc2199))
#loc2302 = loc(callsite(#loc2200 at #loc2200))
#loc2303 = loc(callsite(#loc523 at #loc2201))
#loc2304 = loc("transpose(jvp(Network))/torso/block/blocks_1/broadcast_in_dim"(#loc2200))
#loc2305 = loc("transpose(jvp(Network))/torso/block/blocks_0/Dense_0/reduce_sum"(#loc2194))
#loc2306 = loc("transpose(jvp(Network))/torso/block/blocks_0/Dense_0/reshape"(#loc2194))
#loc2307 = loc("transpose(jvp(Network))/torso/block/blocks_0/Dense_0/reshape"(#loc2193))
#loc2308 = loc("transpose(jvp(Network))/torso/block/blocks_0/Dense_0/dot_general"(#loc2192))
#loc2309 = loc("transpose(jvp(Network))/torso/block/blocks_0/Dense_0/transpose"(#loc2192))
#loc2310 = loc("integer_pow"(#loc2207))
#loc2311 = loc("while/body/jit"(#loc2200))
#loc2312 = loc("dynamic_slice"(#loc2200))
#loc2313 = loc("squeeze"(#loc2200))
#loc2314 = loc("while/body/closed_call"(#loc2200))
#loc2315 = loc("broadcast_in_dim"(#loc2200))
#loc2316 = loc("dynamic_update_slice"(#loc2200))
#loc2317 = loc("add_any"(#loc2200))
#loc2318 = loc("Network/torso/block/blocks_0/Dense_0/dot_general"(#loc2214))
#loc2319 = loc("Network/torso/block/blocks_0/Dense_0/reshape"(#loc2215))
#loc2320 = loc("Network/torso/block/blocks_0/Dense_0/add"(#loc2216))
#loc2321 = loc("Network/torso/block/blocks_1/broadcast_in_dim"(#loc2218))
#loc2322 = loc(callsite(#loc513 at #loc2219))
#loc2323 = loc(callsite(#loc519 at #loc2220))
#loc2324 = loc(callsite(#loc2221 at #loc2221))
#loc2325 = loc(callsite(#loc523 at #loc2222))
#loc2326 = loc("eq"(#loc2231))
#loc2327 = loc("broadcast_in_dim"(#loc2232))
#loc2328 = loc("mul"(#loc2232))
#loc2329 = loc("jit(_where)"(#loc2233))
#loc2330 = loc("vmap()/broadcast_in_dim"(#loc2265))
#loc2331 = loc("vmap()/while"(#loc2265))
#loc2332 = loc(callsite(#loc2265 at #loc2106))
#loc2333 = loc("while/body/closed_call"(#loc2221))
#loc2334 = loc("closed_call:"(#loc2276))
#loc2335 = loc(callsite(#loc502 at #loc2277))
#loc2336 = loc(callsite(#loc507 at #loc2277))
#loc2337 = loc(callsite(#loc508 at #loc2277))
#loc2338 = loc("jit(train_step)/Network/torso/block/blocks_0/jit(relu)"(#loc2278))
#loc2339 = loc(callsite(#loc510 at #loc2279))
#loc2340 = loc(callsite(#loc514 at #loc2280))
#loc2341 = loc(callsite(#loc520 at #loc2280))
#loc2342 = loc(callsite(#loc521 at #loc2280))
#loc2343 = loc(callsite(#loc524 at #loc2280))
#loc2344 = loc("Network/torso/block/blocks_1/transpose"(#loc2282))
#loc2345 = loc(callsite(#loc517 at #loc2283))
#loc2346 = loc("Network/torso/block/blocks_1/while/cond/lt"(#loc2286))
#loc2347 = loc("Network/torso/block/blocks_1/while/body/jit(dynamic_index_in_dim)"(#loc2286))
#loc2348 = loc("Network/torso/block/blocks_1/while/body/closed_call"(#loc2286))
#loc2349 = loc("Network/torso/block/blocks_1/while/body/jit(dynamic_update_index_in_dim)"(#loc2286))
#loc2350 = loc("Network/torso/block/blocks_1/while/body/add"(#loc2286))
#loc2351 = loc("Network/torso/block/blocks_1/transpose"(#loc2287))
#loc2352 = loc("closed_call:"(#loc2295))
#loc2353 = loc(callsite(#loc512 at #loc2300))
#loc2354 = loc(callsite(#loc518 at #loc2301))
#loc2355 = loc("jvp(Network)/torso/block/blocks_1/broadcast_in_dim"(#loc2302))
#loc2356 = loc("jvp(Network)/torso/block/blocks_1/while"(#loc2302))
#loc2357 = loc(callsite(#loc2302 at #loc2200))
#loc2358 = loc(callsite(#loc522 at #loc2303))
#loc2359 = loc("transpose(jvp(Network))/torso/block/blocks_1/broadcast_in_dim"(#loc2302))
#loc2360 = loc("transpose(jvp(Network))/torso/block/blocks_1/while"(#loc2302))
#loc2361 = loc("jit:"(#loc2311))
#loc2362 = loc("closed_call:"(#loc2314))
#loc2363 = loc(callsite(#loc512 at #loc2322))
#loc2364 = loc(callsite(#loc518 at #loc2323))
#loc2365 = loc("Network/torso/block/blocks_1/broadcast_in_dim"(#loc2324))
#loc2366 = loc("Network/torso/block/blocks_1/while"(#loc2324))
#loc2367 = loc(callsite(#loc2324 at #loc2221))
#loc2368 = loc(callsite(#loc522 at #loc2325))
#loc2369 = loc("vmap()/while/cond/lt"(#loc2332))
#loc2370 = loc("vmap()/while/body/jit(dynamic_index_in_dim)"(#loc2332))
#loc2371 = loc("vmap()/while/body/closed_call"(#loc2332))
#loc2372 = loc("vmap()/while/body/jit(dynamic_update_index_in_dim)"(#loc2332))
#loc2373 = loc("vmap()/while/body/add"(#loc2332))
#loc2374 = loc("closed_call:"(#loc2333))
#loc2375 = loc("jit(train_step)/Network/torso/block/blocks_0/Dense_0/dot_general"(#loc2335))
#loc2376 = loc("jit(train_step)/Network/torso/block/blocks_0/Dense_0/reshape"(#loc2336))
#loc2377 = loc("jit(train_step)/Network/torso/block/blocks_0/Dense_0/add"(#loc2337))
#loc2378 = loc("jit(train_step)/Network/torso/block/blocks_1/broadcast_in_dim"(#loc2339))
#loc2379 = loc(callsite(#loc513 at #loc2340))
#loc2380 = loc(callsite(#loc519 at #loc2341))
#loc2381 = loc(callsite(#loc2151 at #loc2342))
#loc2382 = loc(callsite(#loc2281 at #loc2342))
#loc2383 = loc(callsite(#loc523 at #loc2343))
#loc2384 = loc(callsite(#loc516 at #loc2345))
#loc2385 = loc("jvp(Network)/torso/block/blocks_1/transpose"(#loc2353))
#loc2386 = loc(callsite(#loc517 at #loc2354))
#loc2387 = loc("jvp(Network)/torso/block/blocks_1/while/cond/lt"(#loc2357))
#loc2388 = loc("jvp(Network)/torso/block/blocks_1/while/body/jit(dynamic_index_in_dim)"(#loc2357))
#loc2389 = loc("jvp(Network)/torso/block/blocks_1/while/body/closed_call"(#loc2357))
#loc2390 = loc("jvp(Network)/torso/block/blocks_1/while/body/jit(dynamic_update_index_in_dim)"(#loc2357))
#loc2391 = loc("jvp(Network)/torso/block/blocks_1/while/body/add"(#loc2357))
#loc2392 = loc("jvp(Network)/torso/block/blocks_1/transpose"(#loc2358))
#loc2393 = loc("transpose(jvp(Network))/torso/block/blocks_1/transpose"(#loc2358))
#loc2394 = loc("transpose(jvp(Network))/torso/block/blocks_1/while/cond/lt"(#loc2357))
#loc2395 = loc("transpose(jvp(Network))/torso/block/blocks_1/while/body/sub"(#loc2357))
#loc2396 = loc("transpose(jvp(Network))/torso/block/blocks_1/while/body/jit(dynamic_index_in_dim)"(#loc2357))
#loc2397 = loc("transpose(jvp(Network))/torso/block/blocks_1/while/body/closed_call"(#loc2357))
#loc2398 = loc("transpose(jvp(Network))/torso/block/blocks_1/while/body/jit(dynamic_update_index_in_dim)"(#loc2357))
#loc2399 = loc("transpose(jvp(Network))/torso/block/blocks_1/while/body/add"(#loc2357))
#loc2400 = loc("transpose(jvp(Network))/torso/block/blocks_1/transpose"(#loc2353))
#loc2401 = loc("Network/torso/block/blocks_1/transpose"(#loc2363))
#loc2402 = loc(callsite(#loc517 at #loc2364))
#loc2403 = loc("Network/torso/block/blocks_1/while/cond/lt"(#loc2367))
#loc2404 = loc("Network/torso/block/blocks_1/while/body/jit(dynamic_index_in_dim)"(#loc2367))
#loc2405 = loc("Network/torso/block/blocks_1/while/body/closed_call"(#loc2367))
#loc2406 = loc("Network/torso/block/blocks_1/while/body/jit(dynamic_update_index_in_dim)"(#loc2367))
#loc2407 = loc("Network/torso/block/blocks_1/while/body/add"(#loc2367))
#loc2408 = loc("Network/torso/block/blocks_1/transpose"(#loc2368))
#loc2409 = loc(callsite(#loc512 at #loc2379))
#loc2410 = loc(callsite(#loc518 at #loc2380))
#loc2411 = loc("jit(train_step)/Network/torso/block/blocks_1/broadcast_in_dim"(#loc2381))
#loc2412 = loc("jit(train_step)/Network/torso/block/blocks_1/while"(#loc2381))
#loc2413 = loc("jit(train_step)/Network/torso/block/blocks_1/while/cond/lt"(#loc2382))
#loc2414 = loc("jit(train_step)/Network/torso/block/blocks_1/while/body/jit(dynamic_index_in_dim)"(#loc2382))
#loc2415 = loc("jit(train_step)/Network/torso/block/blocks_1/while/body/closed_call"(#loc2382))
#loc2416 = loc("jit(train_step)/Network/torso/block/blocks_1/while/body/jit(dynamic_update_index_in_dim)"(#loc2382))
#loc2417 = loc("jit(train_step)/Network/torso/block/blocks_1/while/body/add"(#loc2382))
#loc2418 = loc(callsite(#loc522 at #loc2383))
#loc2419 = loc("Network/torso/block/blocks_1/cell.scan_fn/jit(_where)"(#loc2384))
#loc2420 = loc("Network/torso/block/blocks_1/cell.scan_fn/jit"(#loc2384))
#loc2421 = loc(callsite(#loc516 at #loc2386))
#loc2422 = loc(callsite(#loc516 at #loc2402))
#loc2423 = loc("jit(train_step)/Network/torso/block/blocks_1/transpose"(#loc2409))
#loc2424 = loc(callsite(#loc517 at #loc2410))
#loc2425 = loc("jit(train_step)/Network/torso/block/blocks_1/transpose"(#loc2418))
#loc2426 = loc("jit:"(#loc2420))
#loc2427 = loc("jvp(Network)/torso/block/blocks_1/cell.scan_fn/jit(_where)"(#loc2421))
#loc2428 = loc("Network/torso/block/blocks_1/cell.scan_fn/jit(_where)"(#loc2422))
#loc2429 = loc(callsite(#loc516 at #loc2424))
#loc2430 = loc("jit(train_step)/Network/torso/block/blocks_1/cell.scan_fn/jit(_where)"(#loc2429))
