#loc = loc(unknown)
#loc1 = loc("state.step")
#loc2 = loc("state.timestep.obs['action_mask']")
#loc3 = loc("state.timestep.obs['observation']")
#loc4 = loc("state.timestep.action")
#loc5 = loc("state.timestep.reward")
#loc6 = loc("state.timestep.terminated")
#loc7 = loc("state.timestep.truncated")
#loc8 = loc("state.timestep.info['guess_count']")
#loc9 = loc("state.timestep.info['illegal_guesses']")
#loc10 = loc("state.timestep.info['matched_secret']")
#loc11 = loc("state.environment_state.secret_answer")
#loc12 = loc("state.environment_state.guess_feedback")
#loc13 = loc("state.environment_state.guess_revealed")
#loc14 = loc("state.environment_state.guess_count")
#loc15 = loc("state.environment_state.matched_secret")
#loc16 = loc("state.carry[1]")
#loc17 = loc("state.params['params']['actor']['kernel']")
#loc18 = loc("state.params['params']['critic']['bias']")
#loc19 = loc("state.params['params']['critic']['kernel']")
#loc20 = loc("state.params['params']['obs']['bias']")
#loc21 = loc("state.params['params']['obs']['kernel']")
#loc22 = loc("state.params['params']['torso']['blocks_0']['Dense_0']['bias']")
#loc23 = loc("state.params['params']['torso']['blocks_0']['Dense_0']['kernel']")
#loc24 = loc("state.params['params']['torso']['blocks_1']['cell']['hn']['bias']")
#loc25 = loc("state.params['params']['torso']['blocks_1']['cell']['hn']['kernel']")
#loc26 = loc("state.params['params']['torso']['blocks_1']['cell']['hr']['kernel']")
#loc27 = loc("state.params['params']['torso']['blocks_1']['cell']['hz']['kernel']")
#loc28 = loc("state.params['params']['torso']['blocks_1']['cell']['in']['bias']")
#loc29 = loc("state.params['params']['torso']['blocks_1']['cell']['in']['kernel']")
#loc30 = loc("state.params['params']['torso']['blocks_1']['cell']['ir']['bias']")
#loc31 = loc("state.params['params']['torso']['blocks_1']['cell']['ir']['kernel']")
#loc32 = loc("state.params['params']['torso']['blocks_1']['cell']['iz']['bias']")
#loc33 = loc("state.params['params']['torso']['blocks_1']['cell']['iz']['kernel']")
#loc34 = loc("state.optimizer_state[1][0].count")
#loc35 = loc("state.optimizer_state[1][0].mu['params']['actor']['kernel']")
#loc36 = loc("state.optimizer_state[1][0].mu['params']['critic']['bias']")
#loc37 = loc("state.optimizer_state[1][0].mu['params']['critic']['kernel']")
#loc38 = loc("state.optimizer_state[1][0].mu['params']['obs']['bias']")
#loc39 = loc("state.optimizer_state[1][0].mu['params']['obs']['kernel']")
#loc40 = loc("state.optimizer_state[1][0].mu['params']['torso']['blocks_0']['Dense_0']['bias']")
#loc41 = loc("state.optimizer_state[1][0].mu['params']['torso']['blocks_0']['Dense_0']['kernel']")
#loc42 = loc("state.optimizer_state[1][0].mu['params']['torso']['blocks_1']['cell']['hn']['bias']")
#loc43 = loc("state.optimizer_state[1][0].mu['params']['torso']['blocks_1']['cell']['hn']['kernel']")
#loc44 = loc("state.optimizer_state[1][0].mu['params']['torso']['blocks_1']['cell']['hr']['kernel']")
#loc45 = loc("state.optimizer_state[1][0].mu['params']['torso']['blocks_1']['cell']['hz']['kernel']")
#loc46 = loc("state.optimizer_state[1][0].mu['params']['torso']['blocks_1']['cell']['in']['bias']")
#loc47 = loc("state.optimizer_state[1][0].mu['params']['torso']['blocks_1']['cell']['in']['kernel']")
#loc48 = loc("state.optimizer_state[1][0].mu['params']['torso']['blocks_1']['cell']['ir']['bias']")
#loc49 = loc("state.optimizer_state[1][0].mu['params']['torso']['blocks_1']['cell']['ir']['kernel']")
#loc50 = loc("state.optimizer_state[1][0].mu['params']['torso']['blocks_1']['cell']['iz']['bias']")
#loc51 = loc("state.optimizer_state[1][0].mu['params']['torso']['blocks_1']['cell']['iz']['kernel']")
#loc52 = loc("state.optimizer_state[1][0].nu['params']['actor']['kernel']")
#loc53 = loc("state.optimizer_state[1][0].nu['params']['critic']['bias']")
#loc54 = loc("state.optimizer_state[1][0].nu['params']['critic']['kernel']")
#loc55 = loc("state.optimizer_state[1][0].nu['params']['obs']['bias']")
#loc56 = loc("state.optimizer_state[1][0].nu['params']['obs']['kernel']")
#loc57 = loc("state.optimizer_state[1][0].nu['params']['torso']['blocks_0']['Dense_0']['bias']")
#loc58 = loc("state.optimizer_state[1][0].nu['params']['torso']['blocks_0']['Dense_0']['kernel']")
#loc59 = loc("state.optimizer_state[1][0].nu['params']['torso']['blocks_1']['cell']['hn']['bias']")
#loc60 = loc("state.optimizer_state[1][0].nu['params']['torso']['blocks_1']['cell']['hn']['kernel']")
#loc61 = loc("state.optimizer_state[1][0].nu['params']['torso']['blocks_1']['cell']['hr']['kernel']")
#loc62 = loc("state.optimizer_state[1][0].nu['params']['torso']['blocks_1']['cell']['hz']['kernel']")
#loc63 = loc("state.optimizer_state[1][0].nu['params']['torso']['blocks_1']['cell']['in']['bias']")
#loc64 = loc("state.optimizer_state[1][0].nu['params']['torso']['blocks_1']['cell']['in']['kernel']")
#loc65 = loc("state.optimizer_state[1][0].nu['params']['torso']['blocks_1']['cell']['ir']['bias']")
#loc66 = loc("state.optimizer_state[1][0].nu['params']['torso']['blocks_1']['cell']['ir']['kernel']")
#loc67 = loc("state.optimizer_state[1][0].nu['params']['torso']['blocks_1']['cell']['iz']['bias']")
#loc68 = loc("state.optimizer_state[1][0].nu['params']['torso']['blocks_1']['cell']['iz']['kernel']")
#loc69 = loc("key")
#loc75 = loc("/Users/noahfarr/noahfarr.github.io/tools/whlo/export_ppo_wordle.py":237:23 to :63)
#loc77 = loc("/Users/noahfarr/reinforcement-learning/src/algorithms/algorithms/recurrent_ppo.py":268:20 to :66)
#loc123 = loc("/Users/noahfarr/reinforcement-learning/src/algorithms/algorithms/recurrent_ppo.py":290:21 to :72)
#loc125 = loc("/Users/noahfarr/noahfarr.github.io/tools/whlo/export_ppo_wordle.py":232:53 to :86)
#loc126 = loc("/Users/noahfarr/noahfarr.github.io/tools/whlo/export_ppo_wordle.py":238:26 to :57)
#loc159 = loc("/Users/noahfarr/reinforcement-learning/.venv/lib/python3.13/site-packages/distrax/_src/distributions/distribution.py":77:14 to :36)
#loc160 = loc("/Users/noahfarr/reinforcement-learning/.venv/lib/python3.13/site-packages/distrax/_src/distributions/distribution.py":174:24 to :69)
#loc161 = loc("/Users/noahfarr/reinforcement-learning/.venv/lib/python3.13/site-packages/distrax/_src/distributions/independent.py":104:24 to 105:33)
#loc162 = loc("/Users/noahfarr/reinforcement-learning/src/algorithms/algorithms/recurrent_ppo.py":80:27 to :68)
#loc165 = loc("/Users/noahfarr/reinforcement-learning/src/policies/policies/distributions.py":15:16 to :76)
#loc185 = loc("/Users/noahfarr/reinforcement-learning/src/environments/environments/wrappers/vectorize.py":31:15 to :51)
#loc186 = loc("/Users/noahfarr/reinforcement-learning/src/algorithms/algorithms/recurrent_ppo.py":85:38 to 87:9)
#loc211 = loc("scatter-add")
#loc301 = loc("reduce")
#loc322 = loc("vmap()")
#loc346 = loc("sort")
#loc456 = loc("main.<locals>.train_step"(#loc75))
#loc458 = loc("RecurrentPPO.update_step"(#loc77))
#loc504 = loc("RecurrentPPO.update_step"(#loc123))
#loc506 = loc("main.<locals>.solve_rate"(#loc125))
#loc507 = loc("main.<locals>.train_step"(#loc126))
#loc526 = loc("Distribution._sample_n_and_log_prob"(#loc159))
#loc527 = loc("Distribution.sample_and_log_prob"(#loc160))
#loc528 = loc("Independent._sample_n_and_log_prob"(#loc161))
#loc529 = loc("RecurrentPPO.rollout"(#loc162))
#loc532 = loc("Categorical._sample_n"(#loc165))
#loc552 = loc("Vectorize.step"(#loc185))
#loc553 = loc("RecurrentPPO.rollout"(#loc186))
#loc578 = loc("scatter-add:"(#loc211))
#loc652 = loc("reduce:"(#loc301))
#loc679 = loc("sort:"(#loc346))
#loc777 = loc(callsite(#loc458 at #loc456))
#loc781 = loc(callsite(#loc504 at #loc456))
#loc783 = loc(callsite(#loc506 at #loc507))
#loc800 = loc(callsite(#loc527 at #loc529))
#loc806 = loc(callsite(#loc552 at #loc553))
#loc965 = loc(callsite(#loc528 at #loc800))
#loc1198 = loc(callsite(#loc527 at #loc965))
#loc1390 = loc(callsite(#loc526 at #loc1198))
#loc1643 = loc(callsite(#loc532 at #loc1390))
module @jit_train_step attributes {jax.uses_shape_polymorphism = false, mhlo.num_partitions = 1 : i32, mhlo.num_replicas = 1 : i32} {
  func.func public @main(%arg0: tensor<i32> loc("state.step"), %arg1: tensor<64x16xi1> loc("state.timestep.obs['action_mask']"), %arg2: tensor<64x15xf32> loc("state.timestep.obs['observation']"), %arg3: tensor<64xi32> loc("state.timestep.action"), %arg4: tensor<64xf32> loc("state.timestep.reward"), %arg5: tensor<64xi1> loc("state.timestep.terminated"), %arg6: tensor<64xi1> loc("state.timestep.truncated"), %arg7: tensor<64xf32> loc("state.timestep.info['guess_count']"), %arg8: tensor<64xf32> loc("state.timestep.info['illegal_guesses']"), %arg9: tensor<64xf32> loc("state.timestep.info['matched_secret']"), %arg10: tensor<64x5xi32> loc("state.environment_state.secret_answer"), %arg11: tensor<64x5xi32> loc("state.environment_state.guess_feedback"), %arg12: tensor<64xi1> loc("state.environment_state.guess_revealed"), %arg13: tensor<64xi32> loc("state.environment_state.guess_count"), %arg14: tensor<64xi1> loc("state.environment_state.matched_secret"), %arg15: tensor<64x32xf32> loc("state.carry[1]"), %arg16: tensor<32x16xf32> loc("state.params['params']['actor']['kernel']"), %arg17: tensor<1xf32> loc("state.params['params']['critic']['bias']"), %arg18: tensor<32x1xf32> loc("state.params['params']['critic']['kernel']"), %arg19: tensor<32xf32> loc("state.params['params']['obs']['bias']"), %arg20: tensor<15x32xf32> loc("state.params['params']['obs']['kernel']"), %arg21: tensor<32xf32> loc("state.params['params']['torso']['blocks_0']['Dense_0']['bias']"), %arg22: tensor<48x32xf32> loc("state.params['params']['torso']['blocks_0']['Dense_0']['kernel']"), %arg23: tensor<32xf32> loc("state.params['params']['torso']['blocks_1']['cell']['hn']['bias']"), %arg24: tensor<32x32xf32> loc("state.params['params']['torso']['blocks_1']['cell']['hn']['kernel']"), %arg25: tensor<32x32xf32> loc("state.params['params']['torso']['blocks_1']['cell']['hr']['kernel']"), %arg26: tensor<32x32xf32> loc("state.params['params']['torso']['blocks_1']['cell']['hz']['kernel']"), %arg27: tensor<32xf32> loc("state.params['params']['torso']['blocks_1']['cell']['in']['bias']"), %arg28: tensor<32x32xf32> loc("state.params['params']['torso']['blocks_1']['cell']['in']['kernel']"), %arg29: tensor<32xf32> loc("state.params['params']['torso']['blocks_1']['cell']['ir']['bias']"), %arg30: tensor<32x32xf32> loc("state.params['params']['torso']['blocks_1']['cell']['ir']['kernel']"), %arg31: tensor<32xf32> loc("state.params['params']['torso']['blocks_1']['cell']['iz']['bias']"), %arg32: tensor<32x32xf32> loc("state.params['params']['torso']['blocks_1']['cell']['iz']['kernel']"), %arg33: tensor<i32> loc("state.optimizer_state[1][0].count"), %arg34: tensor<32x16xf32> loc("state.optimizer_state[1][0].mu['params']['actor']['kernel']"), %arg35: tensor<1xf32> loc("state.optimizer_state[1][0].mu['params']['critic']['bias']"), %arg36: tensor<32x1xf32> loc("state.optimizer_state[1][0].mu['params']['critic']['kernel']"), %arg37: tensor<32xf32> loc("state.optimizer_state[1][0].mu['params']['obs']['bias']"), %arg38: tensor<15x32xf32> loc("state.optimizer_state[1][0].mu['params']['obs']['kernel']"), %arg39: tensor<32xf32> loc("state.optimizer_state[1][0].mu['params']['torso']['blocks_0']['Dense_0']['bias']"), %arg40: tensor<48x32xf32> loc("state.optimizer_state[1][0].mu['params']['torso']['blocks_0']['Dense_0']['kernel']"), %arg41: tensor<32xf32> loc("state.optimizer_state[1][0].mu['params']['torso']['blocks_1']['cell']['hn']['bias']"), %arg42: tensor<32x32xf32> loc("state.optimizer_state[1][0].mu['params']['torso']['blocks_1']['cell']['hn']['kernel']"), %arg43: tensor<32x32xf32> loc("state.optimizer_state[1][0].mu['params']['torso']['blocks_1']['cell']['hr']['kernel']"), %arg44: tensor<32x32xf32> loc("state.optimizer_state[1][0].mu['params']['torso']['blocks_1']['cell']['hz']['kernel']"), %arg45: tensor<32xf32> loc("state.optimizer_state[1][0].mu['params']['torso']['blocks_1']['cell']['in']['bias']"), %arg46: tensor<32x32xf32> loc("state.optimizer_state[1][0].mu['params']['torso']['blocks_1']['cell']['in']['kernel']"), %arg47: tensor<32xf32> loc("state.optimizer_state[1][0].mu['params']['torso']['blocks_1']['cell']['ir']['bias']"), %arg48: tensor<32x32xf32> loc("state.optimizer_state[1][0].mu['params']['torso']['blocks_1']['cell']['ir']['kernel']"), %arg49: tensor<32xf32> loc("state.optimizer_state[1][0].mu['params']['torso']['blocks_1']['cell']['iz']['bias']"), %arg50: tensor<32x32xf32> loc("state.optimizer_state[1][0].mu['params']['torso']['blocks_1']['cell']['iz']['kernel']"), %arg51: tensor<32x16xf32> loc("state.optimizer_state[1][0].nu['params']['actor']['kernel']"), %arg52: tensor<1xf32> loc("state.optimizer_state[1][0].nu['params']['critic']['bias']"), %arg53: tensor<32x1xf32> loc("state.optimizer_state[1][0].nu['params']['critic']['kernel']"), %arg54: tensor<32xf32> loc("state.optimizer_state[1][0].nu['params']['obs']['bias']"), %arg55: tensor<15x32xf32> loc("state.optimizer_state[1][0].nu['params']['obs']['kernel']"), %arg56: tensor<32xf32> loc("state.optimizer_state[1][0].nu['params']['torso']['blocks_0']['Dense_0']['bias']"), %arg57: tensor<48x32xf32> loc("state.optimizer_state[1][0].nu['params']['torso']['blocks_0']['Dense_0']['kernel']"), %arg58: tensor<32xf32> loc("state.optimizer_state[1][0].nu['params']['torso']['blocks_1']['cell']['hn']['bias']"), %arg59: tensor<32x32xf32> loc("state.optimizer_state[1][0].nu['params']['torso']['blocks_1']['cell']['hn']['kernel']"), %arg60: tensor<32x32xf32> loc("state.optimizer_state[1][0].nu['params']['torso']['blocks_1']['cell']['hr']['kernel']"), %arg61: tensor<32x32xf32> loc("state.optimizer_state[1][0].nu['params']['torso']['blocks_1']['cell']['hz']['kernel']"), %arg62: tensor<32xf32> loc("state.optimizer_state[1][0].nu['params']['torso']['blocks_1']['cell']['in']['bias']"), %arg63: tensor<32x32xf32> loc("state.optimizer_state[1][0].nu['params']['torso']['blocks_1']['cell']['in']['kernel']"), %arg64: tensor<32xf32> loc("state.optimizer_state[1][0].nu['params']['torso']['blocks_1']['cell']['ir']['bias']"), %arg65: tensor<32x32xf32> loc("state.optimizer_state[1][0].nu['params']['torso']['blocks_1']['cell']['ir']['kernel']"), %arg66: tensor<32xf32> loc("state.optimizer_state[1][0].nu['params']['torso']['blocks_1']['cell']['iz']['bias']"), %arg67: tensor<32x32xf32> loc("state.optimizer_state[1][0].nu['params']['torso']['blocks_1']['cell']['iz']['kernel']"), %arg68: tensor<2xui32> loc("key")) -> (tensor<i32> {jax.result_info = "result[0].step"}, tensor<64x16xi1> {jax.result_info = "result[0].timestep.obs['action_mask']"}, tensor<64x15xf32> {jax.result_info = "result[0].timestep.obs['observation']"}, tensor<64xi32> {jax.result_info = "result[0].timestep.action"}, tensor<64xf32> {jax.result_info = "result[0].timestep.reward"}, tensor<64xi1> {jax.result_info = "result[0].timestep.terminated"}, tensor<64xi1> {jax.result_info = "result[0].timestep.truncated"}, tensor<64xf32> {jax.result_info = "result[0].timestep.info['guess_count']"}, tensor<64xf32> {jax.result_info = "result[0].timestep.info['illegal_guesses']"}, tensor<64xf32> {jax.result_info = "result[0].timestep.info['matched_secret']"}, tensor<64x5xi32> {jax.result_info = "result[0].environment_state.secret_answer"}, tensor<64x5xi32> {jax.result_info = "result[0].environment_state.guess_feedback"}, tensor<64xi1> {jax.result_info = "result[0].environment_state.guess_revealed"}, tensor<64xi32> {jax.result_info = "result[0].environment_state.guess_count"}, tensor<64xi1> {jax.result_info = "result[0].environment_state.matched_secret"}, tensor<64x32xf32> {jax.result_info = "result[0].carry[1]"}, tensor<32x16xf32> {jax.result_info = "result[0].params['params']['actor']['kernel']"}, tensor<1xf32> {jax.result_info = "result[0].params['params']['critic']['bias']"}, tensor<32x1xf32> {jax.result_info = "result[0].params['params']['critic']['kernel']"}, tensor<32xf32> {jax.result_info = "result[0].params['params']['obs']['bias']"}, tensor<15x32xf32> {jax.result_info = "result[0].params['params']['obs']['kernel']"}, tensor<32xf32> {jax.result_info = "result[0].params['params']['torso']['blocks_0']['Dense_0']['bias']"}, tensor<48x32xf32> {jax.result_info = "result[0].params['params']['torso']['blocks_0']['Dense_0']['kernel']"}, tensor<32xf32> {jax.result_info = "result[0].params['params']['torso']['blocks_1']['cell']['hn']['bias']"}, tensor<32x32xf32> {jax.result_info = "result[0].params['params']['torso']['blocks_1']['cell']['hn']['kernel']"}, tensor<32x32xf32> {jax.result_info = "result[0].params['params']['torso']['blocks_1']['cell']['hr']['kernel']"}, tensor<32x32xf32> {jax.result_info = "result[0].params['params']['torso']['blocks_1']['cell']['hz']['kernel']"}, tensor<32xf32> {jax.result_info = "result[0].params['params']['torso']['blocks_1']['cell']['in']['bias']"}, tensor<32x32xf32> {jax.result_info = "result[0].params['params']['torso']['blocks_1']['cell']['in']['kernel']"}, tensor<32xf32> {jax.result_info = "result[0].params['params']['torso']['blocks_1']['cell']['ir']['bias']"}, tensor<32x32xf32> {jax.result_info = "result[0].params['params']['torso']['blocks_1']['cell']['ir']['kernel']"}, tensor<32xf32> {jax.result_info = "result[0].params['params']['torso']['blocks_1']['cell']['iz']['bias']"}, tensor<32x32xf32> {jax.result_info = "result[0].params['params']['torso']['blocks_1']['cell']['iz']['kernel']"}, tensor<i32> {jax.result_info = "result[0].optimizer_state[1][0].count"}, tensor<32x16xf32> {jax.result_info = "result[0].optimizer_state[1][0].mu['params']['actor']['kernel']"}, tensor<1xf32> {jax.result_info = "result[0].optimizer_state[1][0].mu['params']['critic']['bias']"}, tensor<32x1xf32> {jax.result_info = "result[0].optimizer_state[1][0].mu['params']['critic']['kernel']"}, tensor<32xf32> {jax.result_info = "result[0].optimizer_state[1][0].mu['params']['obs']['bias']"}, tensor<15x32xf32> {jax.result_info = "result[0].optimizer_state[1][0].mu['params']['obs']['kernel']"}, tensor<32xf32> {jax.result_info = "result[0].optimizer_state[1][0].mu['params']['torso']['blocks_0']['Dense_0']['bias']"}, tensor<48x32xf32> {jax.result_info = "result[0].optimizer_state[1][0].mu['params']['torso']['blocks_0']['Dense_0']['kernel']"}, tensor<32xf32> {jax.result_info = "result[0].optimizer_state[1][0].mu['params']['torso']['blocks_1']['cell']['hn']['bias']"}, tensor<32x32xf32> {jax.result_info = "result[0].optimizer_state[1][0].mu['params']['torso']['blocks_1']['cell']['hn']['kernel']"}, tensor<32x32xf32> {jax.result_info = "result[0].optimizer_state[1][0].mu['params']['torso']['blocks_1']['cell']['hr']['kernel']"}, tensor<32x32xf32> {jax.result_info = "result[0].optimizer_state[1][0].mu['params']['torso']['blocks_1']['cell']['hz']['kernel']"}, tensor<32xf32> {jax.result_info = "result[0].optimizer_state[1][0].mu['params']['torso']['blocks_1']['cell']['in']['bias']"}, tensor<32x32xf32> {jax.result_info = "result[0].optimizer_state[1][0].mu['params']['torso']['blocks_1']['cell']['in']['kernel']"}, tensor<32xf32> {jax.result_info = "result[0].optimizer_state[1][0].mu['params']['torso']['blocks_1']['cell']['ir']['bias']"}, tensor<32x32xf32> {jax.result_info = "result[0].optimizer_state[1][0].mu['params']['torso']['blocks_1']['cell']['ir']['kernel']"}, tensor<32xf32> {jax.result_info = "result[0].optimizer_state[1][0].mu['params']['torso']['blocks_1']['cell']['iz']['bias']"}, tensor<32x32xf32> {jax.result_info = "result[0].optimizer_state[1][0].mu['params']['torso']['blocks_1']['cell']['iz']['kernel']"}, tensor<32x16xf32> {jax.result_info = "result[0].optimizer_state[1][0].nu['params']['actor']['kernel']"}, tensor<1xf32> {jax.result_info = "result[0].optimizer_state[1][0].nu['params']['critic']['bias']"}, tensor<32x1xf32> {jax.result_info = "result[0].optimizer_state[1][0].nu['params']['critic']['kernel']"}, tensor<32xf32> {jax.result_info = "result[0].optimizer_state[1][0].nu['params']['obs']['bias']"}, tensor<15x32xf32> {jax.result_info = "result[0].optimizer_state[1][0].nu['params']['obs']['kernel']"}, tensor<32xf32> {jax.result_info = "result[0].optimizer_state[1][0].nu['params']['torso']['blocks_0']['Dense_0']['bias']"}, tensor<48x32xf32> {jax.result_info = "result[0].optimizer_state[1][0].nu['params']['torso']['blocks_0']['Dense_0']['kernel']"}, tensor<32xf32> {jax.result_info = "result[0].optimizer_state[1][0].nu['params']['torso']['blocks_1']['cell']['hn']['bias']"}, tensor<32x32xf32> {jax.result_info = "result[0].optimizer_state[1][0].nu['params']['torso']['blocks_1']['cell']['hn']['kernel']"}, tensor<32x32xf32> {jax.result_info = "result[0].optimizer_state[1][0].nu['params']['torso']['blocks_1']['cell']['hr']['kernel']"}, tensor<32x32xf32> {jax.result_info = "result[0].optimizer_state[1][0].nu['params']['torso']['blocks_1']['cell']['hz']['kernel']"}, tensor<32xf32> {jax.result_info = "result[0].optimizer_state[1][0].nu['params']['torso']['blocks_1']['cell']['in']['bias']"}, tensor<32x32xf32> {jax.result_info = "result[0].optimizer_state[1][0].nu['params']['torso']['blocks_1']['cell']['in']['kernel']"}, tensor<32xf32> {jax.result_info = "result[0].optimizer_state[1][0].nu['params']['torso']['blocks_1']['cell']['ir']['bias']"}, tensor<32x32xf32> {jax.result_info = "result[0].optimizer_state[1][0].nu['params']['torso']['blocks_1']['cell']['ir']['kernel']"}, tensor<32xf32> {jax.result_info = "result[0].optimizer_state[1][0].nu['params']['torso']['blocks_1']['cell']['iz']['bias']"}, tensor<32x32xf32> {jax.result_info = "result[0].optimizer_state[1][0].nu['params']['torso']['blocks_1']['cell']['iz']['kernel']"}, tensor<f32> {jax.result_info = "result[1]"}) {
    %cst = stablehlo.constant dense<1.000000e+00> : tensor<f32> loc(#loc920)
    %c = stablehlo.constant dense<24> : tensor<i32> loc(#loc)
    %c_0 = stablehlo.constant dense<4> : tensor<i32> loc(#loc)
    %cst_1 = stablehlo.constant dense<-3.40282347E+38> : tensor<f32> loc(#loc920)
    %c_2 = stablehlo.constant dense<1> : tensor<i32> loc(#loc)
    %c_3 = stablehlo.constant dense<16> : tensor<i32> loc(#loc)
    %c_4 = stablehlo.constant dense<0> : tensor<i32> loc(#loc)
    %cst_5 = stablehlo.constant dense<0.000000e+00> : tensor<f32> loc(#loc)
    %c_6 = stablehlo.constant dense<false> : tensor<i1> loc(#loc)
    %c_7 = stablehlo.constant dense<[[2, 17, 0, 13, 4], [18, 11, 0, 19, 4], [0, 20, 3, 8, 14], [7, 14, 20, 18, 4], [15, 11, 0, 13, 19], [1, 17, 8, 2, 10], [18, 19, 14, 17, 12], [2, 11, 14, 20, 3], [6, 17, 0, 15, 4], [5, 11, 8, 13, 19], [12, 14, 20, 13, 3], [18, 15, 0, 3, 4], [2, 7, 0, 8, 17], [11, 4, 12, 14, 13], [5, 17, 14, 18, 19], [6, 11, 0, 25, 4]]> : tensor<16x5xi32> loc(#loc920)
    %c_8 = stablehlo.constant dense<[1613312, 1732200, 1881040, 2056836, 2091992, 2158163, 2162152, 2267596, 4610763, 5792480, 6194979, 6540820, 7909384, 8911333, 8916731, 9008823]> : tensor<16xi32> loc(#loc920)
    %c_9 = stablehlo.constant dense<[[0, 20, 3, 8, 14], [1, 17, 8, 2, 10], [2, 7, 0, 8, 17], [2, 11, 14, 20, 3], [2, 17, 0, 13, 4], [5, 11, 8, 13, 19], [5, 17, 14, 18, 19], [6, 11, 0, 25, 4], [6, 17, 0, 15, 4], [7, 14, 20, 18, 4], [11, 4, 12, 14, 13], [12, 14, 20, 13, 3], [15, 11, 0, 13, 19], [18, 11, 0, 19, 4], [18, 15, 0, 3, 4], [18, 19, 14, 17, 12]]> : tensor<16x5xi32> loc(#loc920)
    %0 = call @_threefry_split(%arg68) : (tensor<2xui32>) -> tensor<2x2xui32> loc(#loc1349)
    %1 = stablehlo.slice %0 [0:1, 0:2] : (tensor<2x2xui32>) -> tensor<1x2xui32> loc(#loc1160)
    %2 = stablehlo.reshape %1 : (tensor<1x2xui32>) -> tensor<2xui32> loc(#loc1161)
    %3 = stablehlo.slice %0 [1:2, 0:2] : (tensor<2x2xui32>) -> tensor<1x2xui32> loc(#loc1160)
    %4 = stablehlo.reshape %3 : (tensor<1x2xui32>) -> tensor<2xui32> loc(#loc1161)
    %5 = call @_threefry_split(%2) : (tensor<2xui32>) -> tensor<2x2xui32> loc(#loc1586)
    %6 = stablehlo.slice %5 [0:1, 0:2] : (tensor<2x2xui32>) -> tensor<1x2xui32> loc(#loc1351)
    %7 = stablehlo.reshape %6 : (tensor<1x2xui32>) -> tensor<2xui32> loc(#loc1352)
    %8 = stablehlo.slice %5 [1:2, 0:2] : (tensor<2x2xui32>) -> tensor<1x2xui32> loc(#loc1351)
    %9 = stablehlo.reshape %8 : (tensor<1x2xui32>) -> tensor<2xui32> loc(#loc1352)
    %10 = call @_threefry_split_0(%7) : (tensor<2xui32>) -> tensor<16x2xui32> loc(#loc1587)
    %11 = stablehlo.broadcast_in_dim %c_6, dims = [] : (tensor<i1>) -> tensor<16x64x16xi1> loc(#loc1588)
    %12 = stablehlo.broadcast_in_dim %cst_5, dims = [] : (tensor<f32>) -> tensor<16x64x15xf32> loc(#loc1588)
    %13 = stablehlo.broadcast_in_dim %c_4, dims = [] : (tensor<i32>) -> tensor<16x64xi32> loc(#loc1588)
    %14 = stablehlo.broadcast_in_dim %cst_5, dims = [] : (tensor<f32>) -> tensor<16x64xf32> loc(#loc1588)
    %15 = stablehlo.broadcast_in_dim %c_6, dims = [] : (tensor<i1>) -> tensor<16x64xi1> loc(#loc1588)
    %16 = stablehlo.broadcast_in_dim %c_6, dims = [] : (tensor<i1>) -> tensor<16x64xi1> loc(#loc1588)
    %17 = stablehlo.broadcast_in_dim %cst_5, dims = [] : (tensor<f32>) -> tensor<16x64xf32> loc(#loc1588)
    %18 = stablehlo.broadcast_in_dim %cst_5, dims = [] : (tensor<f32>) -> tensor<16x64xf32> loc(#loc1588)
    %19 = stablehlo.broadcast_in_dim %cst_5, dims = [] : (tensor<f32>) -> tensor<16x64xf32> loc(#loc1588)
    %20 = stablehlo.broadcast_in_dim %c_6, dims = [] : (tensor<i1>) -> tensor<16x64x16xi1> loc(#loc1588)
    %21 = stablehlo.broadcast_in_dim %cst_5, dims = [] : (tensor<f32>) -> tensor<16x64x15xf32> loc(#loc1588)
    %22 = stablehlo.broadcast_in_dim %c_4, dims = [] : (tensor<i32>) -> tensor<16x64xi32> loc(#loc1588)
    %23 = stablehlo.broadcast_in_dim %cst_5, dims = [] : (tensor<f32>) -> tensor<16x64xf32> loc(#loc1588)
    %24 = stablehlo.broadcast_in_dim %c_6, dims = [] : (tensor<i1>) -> tensor<16x64xi1> loc(#loc1588)
    %25 = stablehlo.broadcast_in_dim %c_6, dims = [] : (tensor<i1>) -> tensor<16x64xi1> loc(#loc1588)
    %26 = stablehlo.broadcast_in_dim %cst_5, dims = [] : (tensor<f32>) -> tensor<16x64xf32> loc(#loc1588)
    %27 = stablehlo.broadcast_in_dim %cst_5, dims = [] : (tensor<f32>) -> tensor<16x64xf32> loc(#loc1588)
    %28 = stablehlo.broadcast_in_dim %cst_5, dims = [] : (tensor<f32>) -> tensor<16x64xf32> loc(#loc1588)
    %29 = stablehlo.broadcast_in_dim %cst_5, dims = [] : (tensor<f32>) -> tensor<16x64xf32> loc(#loc1588)
    %30 = stablehlo.broadcast_in_dim %cst_5, dims = [] : (tensor<f32>) -> tensor<16x64xf32> loc(#loc1588)
    %31:93 = stablehlo.while(%iterArg = %10, %iterArg_10 = %arg16, %iterArg_11 = %arg17, %iterArg_12 = %arg18, %iterArg_13 = %arg19, %iterArg_14 = %arg20, %iterArg_15 = %arg21, %iterArg_16 = %arg22, %iterArg_17 = %arg23, %iterArg_18 = %arg24, %iterArg_19 = %arg25, %iterArg_20 = %arg26, %iterArg_21 = %arg27, %iterArg_22 = %arg28, %iterArg_23 = %arg29, %iterArg_24 = %arg30, %iterArg_25 = %arg31, %iterArg_26 = %arg32, %iterArg_27 = %arg33, %iterArg_28 = %arg34, %iterArg_29 = %arg35, %iterArg_30 = %arg36, %iterArg_31 = %arg37, %iterArg_32 = %arg38, %iterArg_33 = %arg39, %iterArg_34 = %arg40, %iterArg_35 = %arg41, %iterArg_36 = %arg42, %iterArg_37 = %arg43, %iterArg_38 = %arg44, %iterArg_39 = %arg45, %iterArg_40 = %arg46, %iterArg_41 = %arg47, %iterArg_42 = %arg48, %iterArg_43 = %arg49, %iterArg_44 = %arg50, %iterArg_45 = %arg51, %iterArg_46 = %arg52, %iterArg_47 = %arg53, %iterArg_48 = %arg54, %iterArg_49 = %arg55, %iterArg_50 = %arg56, %iterArg_51 = %arg57, %iterArg_52 = %arg58, %iterArg_53 = %arg59, %iterArg_54 = %arg60, %iterArg_55 = %arg61, %iterArg_56 = %arg62, %iterArg_57 = %arg63, %iterArg_58 = %arg64, %iterArg_59 = %arg65, %iterArg_60 = %arg66, %iterArg_61 = %arg67, %iterArg_62 = %c_7, %iterArg_63 = %c_8, %iterArg_64 = %c_9, %iterArg_65 = %c_4, %iterArg_66 = %arg0, %iterArg_67 = %arg1, %iterArg_68 = %arg2, %iterArg_69 = %arg3, %iterArg_70 = %arg4, %iterArg_71 = %arg5, %iterArg_72 = %arg6, %iterArg_73 = %arg7, %iterArg_74 = %arg8, %iterArg_75 = %arg9, %iterArg_76 = %arg10, %iterArg_77 = %arg11, %iterArg_78 = %arg12, %iterArg_79 = %arg13, %iterArg_80 = %arg14, %iterArg_81 = %arg15, %iterArg_82 = %11, %iterArg_83 = %12, %iterArg_84 = %13, %iterArg_85 = %14, %iterArg_86 = %15, %iterArg_87 = %16, %iterArg_88 = %17, %iterArg_89 = %18, %iterArg_90 = %19, %iterArg_91 = %20, %iterArg_92 = %21, %iterArg_93 = %22, %iterArg_94 = %23, %iterArg_95 = %24, %iterArg_96 = %25, %iterArg_97 = %26, %iterArg_98 = %27, %iterArg_99 = %28, %iterArg_100 = %29, %iterArg_101 = %30) : tensor<16x2xui32>, tensor<32x16xf32>, tensor<1xf32>, tensor<32x1xf32>, tensor<32xf32>, tensor<15x32xf32>, tensor<32xf32>, tensor<48x32xf32>, tensor<32xf32>, tensor<32x32xf32>, tensor<32x32xf32>, tensor<32x32xf32>, tensor<32xf32>, tensor<32x32xf32>, tensor<32xf32>, tensor<32x32xf32>, tensor<32xf32>, tensor<32x32xf32>, tensor<i32>, tensor<32x16xf32>, tensor<1xf32>, tensor<32x1xf32>, tensor<32xf32>, tensor<15x32xf32>, tensor<32xf32>, tensor<48x32xf32>, tensor<32xf32>, tensor<32x32xf32>, tensor<32x32xf32>, tensor<32x32xf32>, tensor<32xf32>, tensor<32x32xf32>, tensor<32xf32>, tensor<32x32xf32>, tensor<32xf32>, tensor<32x32xf32>, tensor<32x16xf32>, tensor<1xf32>, tensor<32x1xf32>, tensor<32xf32>, tensor<15x32xf32>, tensor<32xf32>, tensor<48x32xf32>, tensor<32xf32>, tensor<32x32xf32>, tensor<32x32xf32>, tensor<32x32xf32>, tensor<32xf32>, tensor<32x32xf32>, tensor<32xf32>, tensor<32x32xf32>, tensor<32xf32>, tensor<32x32xf32>, tensor<16x5xi32>, tensor<16xi32>, tensor<16x5xi32>, tensor<i32>, tensor<i32>, tensor<64x16xi1>, tensor<64x15xf32>, tensor<64xi32>, tensor<64xf32>, tensor<64xi1>, tensor<64xi1>, tensor<64xf32>, tensor<64xf32>, tensor<64xf32>, tensor<64x5xi32>, tensor<64x5xi32>, tensor<64xi1>, tensor<64xi32>, tensor<64xi1>, tensor<64x32xf32>, tensor<16x64x16xi1>, tensor<16x64x15xf32>, tensor<16x64xi32>, tensor<16x64xf32>, tensor<16x64xi1>, tensor<16x64xi1>, tensor<16x64xf32>, tensor<16x64xf32>, tensor<16x64xf32>, tensor<16x64x16xi1>, tensor<16x64x15xf32>, tensor<16x64xi32>, tensor<16x64xf32>, tensor<16x64xi1>, tensor<16x64xi1>, tensor<16x64xf32>, tensor<16x64xf32>, tensor<16x64xf32>, tensor<16x64xf32>, tensor<16x64xf32>
    cond {
      %78 = stablehlo.compare LT, %iterArg_65, %c_3, SIGNED : (tensor<i32>, tensor<i32>) -> tensor<i1> loc(#loc1590)
      stablehlo.return %78 : tensor<i1> loc(#loc1589)
    } do {
      %78 = func.call @dynamic_index_in_dim(%iterArg, %iterArg_65) : (tensor<16x2xui32>, tensor<i32>) -> tensor<2xui32> loc(#loc1591)
      %79:36 = func.call @closed_call_3(%iterArg_10, %iterArg_11, %iterArg_12, %iterArg_13, %iterArg_14, %iterArg_15, %iterArg_16, %iterArg_17, %iterArg_18, %iterArg_19, %iterArg_20, %iterArg_21, %iterArg_22, %iterArg_23, %iterArg_24, %iterArg_25, %iterArg_26, %iterArg_27, %iterArg_28, %iterArg_29, %iterArg_30, %iterArg_31, %iterArg_32, %iterArg_33, %iterArg_34, %iterArg_35, %iterArg_36, %iterArg_37, %iterArg_38, %iterArg_39, %iterArg_40, %iterArg_41, %iterArg_42, %iterArg_43, %iterArg_44, %iterArg_45, %iterArg_46, %iterArg_47, %iterArg_48, %iterArg_49, %iterArg_50, %iterArg_51, %iterArg_52, %iterArg_53, %iterArg_54, %iterArg_55, %iterArg_56, %iterArg_57, %iterArg_58, %iterArg_59, %iterArg_60, %iterArg_61, %iterArg_62, %iterArg_63, %iterArg_64, %iterArg_66, %iterArg_67, %iterArg_68, %iterArg_69, %iterArg_70, %iterArg_71, %iterArg_72, %iterArg_73, %iterArg_74, %iterArg_75, %iterArg_76, %iterArg_77, %iterArg_78, %iterArg_79, %iterArg_80, %iterArg_81, %78) : (tensor<32x16xf32>, tensor<1xf32>, tensor<32x1xf32>, tensor<32xf32>, tensor<15x32xf32>, tensor<32xf32>, tensor<48x32xf32>, tensor<32xf32>, tensor<32x32xf32>, tensor<32x32xf32>, tensor<32x32xf32>, tensor<32xf32>, tensor<32x32xf32>, tensor<32xf32>, tensor<32x32xf32>, tensor<32xf32>, tensor<32x32xf32>, tensor<i32>, tensor<32x16xf32>, tensor<1xf32>, tensor<32x1xf32>, tensor<32xf32>, tensor<15x32xf32>, tensor<32xf32>, tensor<48x32xf32>, tensor<32xf32>, tensor<32x32xf32>, tensor<32x32xf32>, tensor<32x32xf32>, tensor<32xf32>, tensor<32x32xf32>, tensor<32xf32>, tensor<32x32xf32>, tensor<32xf32>, tensor<32x32xf32>, tensor<32x16xf32>, tensor<1xf32>, tensor<32x1xf32>, tensor<32xf32>, tensor<15x32xf32>, tensor<32xf32>, tensor<48x32xf32>, tensor<32xf32>, tensor<32x32xf32>, tensor<32x32xf32>, tensor<32x32xf32>, tensor<32xf32>, tensor<32x32xf32>, tensor<32xf32>, tensor<32x32xf32>, tensor<32xf32>, tensor<32x32xf32>, tensor<16x5xi32>, tensor<16xi32>, tensor<16x5xi32>, tensor<i32>, tensor<64x16xi1>, tensor<64x15xf32>, tensor<64xi32>, tensor<64xf32>, tensor<64xi1>, tensor<64xi1>, tensor<64xf32>, tensor<64xf32>, tensor<64xf32>, tensor<64x5xi32>, tensor<64x5xi32>, tensor<64xi1>, tensor<64xi32>, tensor<64xi1>, tensor<64x32xf32>, tensor<2xui32>) -> (tensor<i32>, tensor<64x16xi1>, tensor<64x15xf32>, tensor<64xi32>, tensor<64xf32>, tensor<64xi1>, tensor<64xi1>, tensor<64xf32>, tensor<64xf32>, tensor<64xf32>, tensor<64x5xi32>, tensor<64x5xi32>, tensor<64xi1>, tensor<64xi32>, tensor<64xi1>, tensor<64x32xf32>, tensor<64x16xi1>, tensor<64x15xf32>, tensor<64xi32>, tensor<64xf32>, tensor<64xi1>, tensor<64xi1>, tensor<64xf32>, tensor<64xf32>, tensor<64xf32>, tensor<64x16xi1>, tensor<64x15xf32>, tensor<64xi32>, tensor<64xf32>, tensor<64xi1>, tensor<64xi1>, tensor<64xf32>, tensor<64xf32>, tensor<64xf32>, tensor<64xf32>, tensor<64xf32>) loc(#loc1592)
      %80 = func.call @dynamic_update_index_in_dim_40(%iterArg_82, %79#16, %iterArg_65) : (tensor<16x64x16xi1>, tensor<64x16xi1>, tensor<i32>) -> tensor<16x64x16xi1> loc(#loc1593)
      %81 = func.call @dynamic_update_index_in_dim_41(%iterArg_83, %79#17, %iterArg_65) : (tensor<16x64x15xf32>, tensor<64x15xf32>, tensor<i32>) -> tensor<16x64x15xf32> loc(#loc1593)
      %82 = func.call @dynamic_update_index_in_dim_42(%iterArg_84, %79#18, %iterArg_65) : (tensor<16x64xi32>, tensor<64xi32>, tensor<i32>) -> tensor<16x64xi32> loc(#loc1593)
      %83 = func.call @dynamic_update_index_in_dim_43(%iterArg_85, %79#19, %iterArg_65) : (tensor<16x64xf32>, tensor<64xf32>, tensor<i32>) -> tensor<16x64xf32> loc(#loc1593)
      %84 = func.call @dynamic_update_index_in_dim_44(%iterArg_86, %79#20, %iterArg_65) : (tensor<16x64xi1>, tensor<64xi1>, tensor<i32>) -> tensor<16x64xi1> loc(#loc1593)
      %85 = func.call @dynamic_update_index_in_dim_44(%iterArg_87, %79#21, %iterArg_65) : (tensor<16x64xi1>, tensor<64xi1>, tensor<i32>) -> tensor<16x64xi1> loc(#loc1593)
      %86 = func.call @dynamic_update_index_in_dim_43(%iterArg_88, %79#22, %iterArg_65) : (tensor<16x64xf32>, tensor<64xf32>, tensor<i32>) -> tensor<16x64xf32> loc(#loc1593)
      %87 = func.call @dynamic_update_index_in_dim_43(%iterArg_89, %79#23, %iterArg_65) : (tensor<16x64xf32>, tensor<64xf32>, tensor<i32>) -> tensor<16x64xf32> loc(#loc1593)
      %88 = func.call @dynamic_update_index_in_dim_43(%iterArg_90, %79#24, %iterArg_65) : (tensor<16x64xf32>, tensor<64xf32>, tensor<i32>) -> tensor<16x64xf32> loc(#loc1593)
      %89 = func.call @dynamic_update_index_in_dim_40(%iterArg_91, %79#25, %iterArg_65) : (tensor<16x64x16xi1>, tensor<64x16xi1>, tensor<i32>) -> tensor<16x64x16xi1> loc(#loc1593)
      %90 = func.call @dynamic_update_index_in_dim_41(%iterArg_92, %79#26, %iterArg_65) : (tensor<16x64x15xf32>, tensor<64x15xf32>, tensor<i32>) -> tensor<16x64x15xf32> loc(#loc1593)
      %91 = func.call @dynamic_update_index_in_dim_42(%iterArg_93, %79#27, %iterArg_65) : (tensor<16x64xi32>, tensor<64xi32>, tensor<i32>) -> tensor<16x64xi32> loc(#loc1593)
      %92 = func.call @dynamic_update_index_in_dim_43(%iterArg_94, %79#28, %iterArg_65) : (tensor<16x64xf32>, tensor<64xf32>, tensor<i32>) -> tensor<16x64xf32> loc(#loc1593)
      %93 = func.call @dynamic_update_index_in_dim_44(%iterArg_95, %79#29, %iterArg_65) : (tensor<16x64xi1>, tensor<64xi1>, tensor<i32>) -> tensor<16x64xi1> loc(#loc1593)
      %94 = func.call @dynamic_update_index_in_dim_44(%iterArg_96, %79#30, %iterArg_65) : (tensor<16x64xi1>, tensor<64xi1>, tensor<i32>) -> tensor<16x64xi1> loc(#loc1593)
      %95 = func.call @dynamic_update_index_in_dim_43(%iterArg_97, %79#31, %iterArg_65) : (tensor<16x64xf32>, tensor<64xf32>, tensor<i32>) -> tensor<16x64xf32> loc(#loc1593)
      %96 = func.call @dynamic_update_index_in_dim_43(%iterArg_98, %79#32, %iterArg_65) : (tensor<16x64xf32>, tensor<64xf32>, tensor<i32>) -> tensor<16x64xf32> loc(#loc1593)
      %97 = func.call @dynamic_update_index_in_dim_43(%iterArg_99, %79#33, %iterArg_65) : (tensor<16x64xf32>, tensor<64xf32>, tensor<i32>) -> tensor<16x64xf32> loc(#loc1593)
      %98 = func.call @dynamic_update_index_in_dim_43(%iterArg_100, %79#34, %iterArg_65) : (tensor<16x64xf32>, tensor<64xf32>, tensor<i32>) -> tensor<16x64xf32> loc(#loc1593)
      %99 = func.call @dynamic_update_index_in_dim_43(%iterArg_101, %79#35, %iterArg_65) : (tensor<16x64xf32>, tensor<64xf32>, tensor<i32>) -> tensor<16x64xf32> loc(#loc1593)
      %100 = stablehlo.add %iterArg_65, %c_2 : tensor<i32> loc(#loc1594)
      stablehlo.return %iterArg, %iterArg_10, %iterArg_11, %iterArg_12, %iterArg_13, %iterArg_14, %iterArg_15, %iterArg_16, %iterArg_17, %iterArg_18, %iterArg_19, %iterArg_20, %iterArg_21, %iterArg_22, %iterArg_23, %iterArg_24, %iterArg_25, %iterArg_26, %iterArg_27, %iterArg_28, %iterArg_29, %iterArg_30, %iterArg_31, %iterArg_32, %iterArg_33, %iterArg_34, %iterArg_35, %iterArg_36, %iterArg_37, %iterArg_38, %iterArg_39, %iterArg_40, %iterArg_41, %iterArg_42, %iterArg_43, %iterArg_44, %iterArg_45, %iterArg_46, %iterArg_47, %iterArg_48, %iterArg_49, %iterArg_50, %iterArg_51, %iterArg_52, %iterArg_53, %iterArg_54, %iterArg_55, %iterArg_56, %iterArg_57, %iterArg_58, %iterArg_59, %iterArg_60, %iterArg_61, %iterArg_62, %iterArg_63, %iterArg_64, %100, %79#0, %79#1, %79#2, %79#3, %79#4, %79#5, %79#6, %79#7, %79#8, %79#9, %79#10, %79#11, %79#12, %79#13, %79#14, %79#15, %80, %81, %82, %83, %84, %85, %86, %87, %88, %89, %90, %91, %92, %93, %94, %95, %96, %97, %98, %99 : tensor<16x2xui32>, tensor<32x16xf32>, tensor<1xf32>, tensor<32x1xf32>, tensor<32xf32>, tensor<15x32xf32>, tensor<32xf32>, tensor<48x32xf32>, tensor<32xf32>, tensor<32x32xf32>, tensor<32x32xf32>, tensor<32x32xf32>, tensor<32xf32>, tensor<32x32xf32>, tensor<32xf32>, tensor<32x32xf32>, tensor<32xf32>, tensor<32x32xf32>, tensor<i32>, tensor<32x16xf32>, tensor<1xf32>, tensor<32x1xf32>, tensor<32xf32>, tensor<15x32xf32>, tensor<32xf32>, tensor<48x32xf32>, tensor<32xf32>, tensor<32x32xf32>, tensor<32x32xf32>, tensor<32x32xf32>, tensor<32xf32>, tensor<32x32xf32>, tensor<32xf32>, tensor<32x32xf32>, tensor<32xf32>, tensor<32x32xf32>, tensor<32x16xf32>, tensor<1xf32>, tensor<32x1xf32>, tensor<32xf32>, tensor<15x32xf32>, tensor<32xf32>, tensor<48x32xf32>, tensor<32xf32>, tensor<32x32xf32>, tensor<32x32xf32>, tensor<32x32xf32>, tensor<32xf32>, tensor<32x32xf32>, tensor<32xf32>, tensor<32x32xf32>, tensor<32xf32>, tensor<32x32xf32>, tensor<16x5xi32>, tensor<16xi32>, tensor<16x5xi32>, tensor<i32>, tensor<i32>, tensor<64x16xi1>, tensor<64x15xf32>, tensor<64xi32>, tensor<64xf32>, tensor<64xi1>, tensor<64xi1>, tensor<64xf32>, tensor<64xf32>, tensor<64xf32>, tensor<64x5xi32>, tensor<64x5xi32>, tensor<64xi1>, tensor<64xi32>, tensor<64xi1>, tensor<64x32xf32>, tensor<16x64x16xi1>, tensor<16x64x15xf32>, tensor<16x64xi32>, tensor<16x64xf32>, tensor<16x64xi1>, tensor<16x64xi1>, tensor<16x64xf32>, tensor<16x64xf32>, tensor<16x64xf32>, tensor<16x64x16xi1>, tensor<16x64x15xf32>, tensor<16x64xi32>, tensor<16x64xf32>, tensor<16x64xi1>, tensor<16x64xi1>, tensor<16x64xf32>, tensor<16x64xf32>, tensor<16x64xf32>, tensor<16x64xf32>, tensor<16x64xf32> loc(#loc1589)
    } loc(#loc1589)
    %32 = stablehlo.broadcast_in_dim %31#58, dims = [0, 2] : (tensor<64x16xi1>) -> tensor<64x1x16xi1> loc(#loc1821)
    %33 = stablehlo.broadcast_in_dim %31#59, dims = [0, 2] : (tensor<64x15xf32>) -> tensor<64x1x15xf32> loc(#loc1821)
    %34 = stablehlo.broadcast_in_dim %31#60, dims = [0] : (tensor<64xi32>) -> tensor<64x1xi32> loc(#loc1821)
    %35 = stablehlo.broadcast_in_dim %31#62, dims = [0] : (tensor<64xi1>) -> tensor<64x1xi1> loc(#loc1821)
    %36 = stablehlo.broadcast_in_dim %31#63, dims = [0] : (tensor<64xi1>) -> tensor<64x1xi1> loc(#loc1821)
    %37 = stablehlo.or %35, %36 : tensor<64x1xi1> loc(#loc1596)
    %38 = stablehlo.dot_general %33, %arg20, contracting_dims = [2] x [0] : (tensor<64x1x15xf32>, tensor<15x32xf32>) -> tensor<64x1x32xf32> loc(#loc1822)
    %39 = stablehlo.reshape %arg19 : (tensor<32xf32>) -> tensor<1x1x32xf32> loc(#loc1823)
    %40 = stablehlo.broadcast_in_dim %39, dims = [0, 1, 2] : (tensor<1x1x32xf32>) -> tensor<64x1x32xf32> loc(#loc1824)
    %41 = stablehlo.add %38, %40 : tensor<64x1x32xf32> loc(#loc1824)
    %42 = call @relu(%41) : (tensor<64x1x32xf32>) -> tensor<64x1x32xf32> loc(#loc1600)
    %43 = call @_one_hot(%34) : (tensor<64x1xi32>) -> tensor<64x1x16xf32> loc(#loc1601)
    %44 = stablehlo.concatenate %42, %43, dim = 2 : (tensor<64x1x32xf32>, tensor<64x1x16xf32>) -> tensor<64x1x48xf32> loc(#loc1602)
    %45 = stablehlo.dot_general %44, %arg22, contracting_dims = [2] x [0] : (tensor<64x1x48xf32>, tensor<48x32xf32>) -> tensor<64x1x32xf32> loc(#loc2235)
    %46 = stablehlo.reshape %arg21 : (tensor<32xf32>) -> tensor<1x1x32xf32> loc(#loc2236)
    %47 = stablehlo.broadcast_in_dim %46, dims = [0, 1, 2] : (tensor<1x1x32xf32>) -> tensor<64x1x32xf32> loc(#loc2237)
    %48 = stablehlo.add %45, %47 : tensor<64x1x32xf32> loc(#loc2237)
    %49 = call @relu(%48) : (tensor<64x1x32xf32>) -> tensor<64x1x32xf32> loc(#loc2188)
    %50 = stablehlo.broadcast_in_dim %cst_5, dims = [] : (tensor<f32>) -> tensor<64x32xf32> loc(#loc2238)
    %51 = stablehlo.transpose %49, dims = [1, 0, 2] : (tensor<64x1x32xf32>) -> tensor<1x64x32xf32> loc(#loc2288)
    %52 = stablehlo.transpose %37, dims = [1, 0] : (tensor<64x1xi1>) -> tensor<1x64xi1> loc(#loc2288)
    call @_where(%50) : (tensor<64x32xf32>) -> () loc(#loc2297)
    %53 = stablehlo.broadcast_in_dim %cst_5, dims = [] : (tensor<f32>) -> tensor<1x64x32xf32> loc(#loc2276)
    %54:16 = stablehlo.while(%iterArg = %51, %iterArg_10 = %52, %iterArg_11 = %50, %iterArg_12 = %arg30, %iterArg_13 = %arg29, %iterArg_14 = %arg25, %iterArg_15 = %arg32, %iterArg_16 = %arg31, %iterArg_17 = %arg26, %iterArg_18 = %arg28, %iterArg_19 = %arg27, %iterArg_20 = %arg24, %iterArg_21 = %arg23, %iterArg_22 = %c_4, %iterArg_23 = %31#72, %iterArg_24 = %53) : tensor<1x64x32xf32>, tensor<1x64xi1>, tensor<64x32xf32>, tensor<32x32xf32>, tensor<32xf32>, tensor<32x32xf32>, tensor<32x32xf32>, tensor<32xf32>, tensor<32x32xf32>, tensor<32x32xf32>, tensor<32xf32>, tensor<32x32xf32>, tensor<32xf32>, tensor<i32>, tensor<64x32xf32>, tensor<1x64x32xf32>
    cond {
      %78 = stablehlo.compare LT, %iterArg_22, %c_2, SIGNED : (tensor<i32>, tensor<i32>) -> tensor<i1> loc(#loc2278)
      stablehlo.return %78 : tensor<i1> loc(#loc2277)
    } do {
      %78 = func.call @dynamic_index_in_dim_4(%iterArg, %iterArg_22) : (tensor<1x64x32xf32>, tensor<i32>) -> tensor<64x32xf32> loc(#loc2279)
      %79 = func.call @dynamic_index_in_dim_5(%iterArg_10, %iterArg_22) : (tensor<1x64xi1>, tensor<i32>) -> tensor<64xi1> loc(#loc2279)
      %80:2 = func.call @closed_call_45(%iterArg_11, %iterArg_12, %iterArg_13, %iterArg_14, %iterArg_15, %iterArg_16, %iterArg_17, %iterArg_18, %iterArg_19, %iterArg_20, %iterArg_21, %iterArg_23, %78, %79) : (tensor<64x32xf32>, tensor<32x32xf32>, tensor<32xf32>, tensor<32x32xf32>, tensor<32x32xf32>, tensor<32xf32>, tensor<32x32xf32>, tensor<32x32xf32>, tensor<32xf32>, tensor<32x32xf32>, tensor<32xf32>, tensor<64x32xf32>, tensor<64x32xf32>, tensor<64xi1>) -> (tensor<64x32xf32>, tensor<64x32xf32>) loc(#loc2280)
      %81 = func.call @dynamic_update_index_in_dim(%iterArg_24, %80#1, %iterArg_22) : (tensor<1x64x32xf32>, tensor<64x32xf32>, tensor<i32>) -> tensor<1x64x32xf32> loc(#loc2281)
      %82 = stablehlo.add %iterArg_22, %c_2 : tensor<i32> loc(#loc2282)
      stablehlo.return %iterArg, %iterArg_10, %iterArg_11, %iterArg_12, %iterArg_13, %iterArg_14, %iterArg_15, %iterArg_16, %iterArg_17, %iterArg_18, %iterArg_19, %iterArg_20, %iterArg_21, %82, %80#0, %81 : tensor<1x64x32xf32>, tensor<1x64xi1>, tensor<64x32xf32>, tensor<32x32xf32>, tensor<32xf32>, tensor<32x32xf32>, tensor<32x32xf32>, tensor<32xf32>, tensor<32x32xf32>, tensor<32x32xf32>, tensor<32xf32>, tensor<32x32xf32>, tensor<32xf32>, tensor<i32>, tensor<64x32xf32>, tensor<1x64x32xf32> loc(#loc2277)
    } loc(#loc2277)
    %55 = stablehlo.transpose %54#15, dims = [1, 0, 2] : (tensor<1x64x32xf32>) -> tensor<64x1x32xf32> loc(#loc2290)
    %56 = stablehlo.dot_general %55, %arg16, contracting_dims = [2] x [0] : (tensor<64x1x32xf32>, tensor<32x16xf32>) -> tensor<64x1x16xf32> loc(#loc1827)
    %57 = call @_where_8(%32, %56, %cst_1) : (tensor<64x1x16xi1>, tensor<64x1x16xf32>, tensor<f32>) -> tensor<64x1x16xf32> loc(#loc1606)
    %58 = stablehlo.dot_general %55, %arg18, contracting_dims = [2] x [0] : (tensor<64x1x32xf32>, tensor<32x1xf32>) -> tensor<64x1x1xf32> loc(#loc1828)
    %59 = stablehlo.reshape %arg17 : (tensor<1xf32>) -> tensor<1x1x1xf32> loc(#loc1829)
    %60 = stablehlo.broadcast_in_dim %59, dims = [0, 1, 2] : (tensor<1x1x1xf32>) -> tensor<64x1x1xf32> loc(#loc1830)
    %61 = stablehlo.add %58, %60 : tensor<64x1x1xf32> loc(#loc1830)
    %62 = stablehlo.reshape %61 : (tensor<64x1x1xf32>) -> tensor<64x1xf32> loc(#loc1610)
    %63 = stablehlo.reshape %62 : (tensor<64x1xf32>) -> tensor<64xf32> loc(#loc1611)
    %64 = stablehlo.broadcast_in_dim %cst_5, dims = [] : (tensor<f32>) -> tensor<64xf32> loc(#loc1612)
    %65 = stablehlo.broadcast_in_dim %cst_5, dims = [] : (tensor<f32>) -> tensor<16x64xf32> loc(#loc1831)
    %66:8 = stablehlo.while(%iterArg = %31#85, %iterArg_10 = %31#86, %iterArg_11 = %31#87, %iterArg_12 = %31#92, %iterArg_13 = %c_4, %iterArg_14 = %64, %iterArg_15 = %63, %iterArg_16 = %65) : tensor<16x64xf32>, tensor<16x64xi1>, tensor<16x64xi1>, tensor<16x64xf32>, tensor<i32>, tensor<64xf32>, tensor<64xf32>, tensor<16x64xf32>
    cond {
      %78 = stablehlo.compare LT, %iterArg_13, %c_3, SIGNED : (tensor<i32>, tensor<i32>) -> tensor<i1> loc(#loc1833)
      stablehlo.return %78 : tensor<i1> loc(#loc1832)
    } do {
      %78 = stablehlo.subtract %c_3, %iterArg_13 : tensor<i32> loc(#loc1834)
      %79 = stablehlo.subtract %78, %c_2 : tensor<i32> loc(#loc1834)
      %80 = func.call @dynamic_index_in_dim_46(%iterArg, %79) : (tensor<16x64xf32>, tensor<i32>) -> tensor<64xf32> loc(#loc1835)
      %81 = func.call @dynamic_index_in_dim_47(%iterArg_10, %79) : (tensor<16x64xi1>, tensor<i32>) -> tensor<64xi1> loc(#loc1835)
      %82 = func.call @dynamic_index_in_dim_47(%iterArg_11, %79) : (tensor<16x64xi1>, tensor<i32>) -> tensor<64xi1> loc(#loc1835)
      %83 = func.call @dynamic_index_in_dim_46(%iterArg_12, %79) : (tensor<16x64xf32>, tensor<i32>) -> tensor<64xf32> loc(#loc1835)
      %84:3 = func.call @closed_call_48(%iterArg_14, %iterArg_15, %80, %81, %82, %83) : (tensor<64xf32>, tensor<64xf32>, tensor<64xf32>, tensor<64xi1>, tensor<64xi1>, tensor<64xf32>) -> (tensor<64xf32>, tensor<64xf32>, tensor<64xf32>) loc(#loc1836)
      %85 = func.call @dynamic_update_index_in_dim_43(%iterArg_16, %84#2, %79) : (tensor<16x64xf32>, tensor<64xf32>, tensor<i32>) -> tensor<16x64xf32> loc(#loc1837)
      %86 = stablehlo.add %iterArg_13, %c_2 : tensor<i32> loc(#loc1838)
      stablehlo.return %iterArg, %iterArg_10, %iterArg_11, %iterArg_12, %86, %84#0, %84#1, %85 : tensor<16x64xf32>, tensor<16x64xi1>, tensor<16x64xi1>, tensor<16x64xf32>, tensor<i32>, tensor<64xf32>, tensor<64xf32>, tensor<16x64xf32> loc(#loc1832)
    } loc(#loc1832)
    %67 = stablehlo.add %66#7, %31#92 : tensor<16x64xf32> loc(#loc1615)
    %68 = call @_threefry_split_49(%9) : (tensor<2xui32>) -> tensor<4x2xui32> loc(#loc1616)
    %69:93 = stablehlo.while(%iterArg = %68, %iterArg_10 = %31#57, %iterArg_11 = %31#58, %iterArg_12 = %31#59, %iterArg_13 = %31#60, %iterArg_14 = %31#61, %iterArg_15 = %31#62, %iterArg_16 = %31#63, %iterArg_17 = %31#64, %iterArg_18 = %31#65, %iterArg_19 = %31#66, %iterArg_20 = %31#67, %iterArg_21 = %31#68, %iterArg_22 = %31#69, %iterArg_23 = %31#70, %iterArg_24 = %31#71, %iterArg_25 = %31#72, %iterArg_26 = %31#73, %iterArg_27 = %31#74, %iterArg_28 = %31#75, %iterArg_29 = %31#76, %iterArg_30 = %31#77, %iterArg_31 = %31#78, %iterArg_32 = %31#79, %iterArg_33 = %31#80, %iterArg_34 = %31#81, %iterArg_35 = %31#82, %iterArg_36 = %31#83, %iterArg_37 = %31#84, %iterArg_38 = %31#85, %iterArg_39 = %31#86, %iterArg_40 = %31#87, %iterArg_41 = %31#88, %iterArg_42 = %31#89, %iterArg_43 = %31#90, %iterArg_44 = %66#7, %iterArg_45 = %31#91, %iterArg_46 = %67, %iterArg_47 = %31#92, %iterArg_48 = %arg15, %iterArg_49 = %c_4, %iterArg_50 = %arg16, %iterArg_51 = %arg17, %iterArg_52 = %arg18, %iterArg_53 = %arg19, %iterArg_54 = %arg20, %iterArg_55 = %arg21, %iterArg_56 = %arg22, %iterArg_57 = %arg23, %iterArg_58 = %arg24, %iterArg_59 = %arg25, %iterArg_60 = %arg26, %iterArg_61 = %arg27, %iterArg_62 = %arg28, %iterArg_63 = %arg29, %iterArg_64 = %arg30, %iterArg_65 = %arg31, %iterArg_66 = %arg32, %iterArg_67 = %arg33, %iterArg_68 = %arg34, %iterArg_69 = %arg35, %iterArg_70 = %arg36, %iterArg_71 = %arg37, %iterArg_72 = %arg38, %iterArg_73 = %arg39, %iterArg_74 = %arg40, %iterArg_75 = %arg41, %iterArg_76 = %arg42, %iterArg_77 = %arg43, %iterArg_78 = %arg44, %iterArg_79 = %arg45, %iterArg_80 = %arg46, %iterArg_81 = %arg47, %iterArg_82 = %arg48, %iterArg_83 = %arg49, %iterArg_84 = %arg50, %iterArg_85 = %arg51, %iterArg_86 = %arg52, %iterArg_87 = %arg53, %iterArg_88 = %arg54, %iterArg_89 = %arg55, %iterArg_90 = %arg56, %iterArg_91 = %arg57, %iterArg_92 = %arg58, %iterArg_93 = %arg59, %iterArg_94 = %arg60, %iterArg_95 = %arg61, %iterArg_96 = %arg62, %iterArg_97 = %arg63, %iterArg_98 = %arg64, %iterArg_99 = %arg65, %iterArg_100 = %arg66, %iterArg_101 = %arg67) : tensor<4x2xui32>, tensor<i32>, tensor<64x16xi1>, tensor<64x15xf32>, tensor<64xi32>, tensor<64xf32>, tensor<64xi1>, tensor<64xi1>, tensor<64xf32>, tensor<64xf32>, tensor<64xf32>, tensor<64x5xi32>, tensor<64x5xi32>, tensor<64xi1>, tensor<64xi32>, tensor<64xi1>, tensor<64x32xf32>, tensor<16x64x16xi1>, tensor<16x64x15xf32>, tensor<16x64xi32>, tensor<16x64xf32>, tensor<16x64xi1>, tensor<16x64xi1>, tensor<16x64xf32>, tensor<16x64xf32>, tensor<16x64xf32>, tensor<16x64x16xi1>, tensor<16x64x15xf32>, tensor<16x64xi32>, tensor<16x64xf32>, tensor<16x64xi1>, tensor<16x64xi1>, tensor<16x64xf32>, tensor<16x64xf32>, tensor<16x64xf32>, tensor<16x64xf32>, tensor<16x64xf32>, tensor<16x64xf32>, tensor<16x64xf32>, tensor<64x32xf32>, tensor<i32>, tensor<32x16xf32>, tensor<1xf32>, tensor<32x1xf32>, tensor<32xf32>, tensor<15x32xf32>, tensor<32xf32>, tensor<48x32xf32>, tensor<32xf32>, tensor<32x32xf32>, tensor<32x32xf32>, tensor<32x32xf32>, tensor<32xf32>, tensor<32x32xf32>, tensor<32xf32>, tensor<32x32xf32>, tensor<32xf32>, tensor<32x32xf32>, tensor<i32>, tensor<32x16xf32>, tensor<1xf32>, tensor<32x1xf32>, tensor<32xf32>, tensor<15x32xf32>, tensor<32xf32>, tensor<48x32xf32>, tensor<32xf32>, tensor<32x32xf32>, tensor<32x32xf32>, tensor<32x32xf32>, tensor<32xf32>, tensor<32x32xf32>, tensor<32xf32>, tensor<32x32xf32>, tensor<32xf32>, tensor<32x32xf32>, tensor<32x16xf32>, tensor<1xf32>, tensor<32x1xf32>, tensor<32xf32>, tensor<15x32xf32>, tensor<32xf32>, tensor<48x32xf32>, tensor<32xf32>, tensor<32x32xf32>, tensor<32x32xf32>, tensor<32x32xf32>, tensor<32xf32>, tensor<32x32xf32>, tensor<32xf32>, tensor<32x32xf32>, tensor<32xf32>, tensor<32x32xf32>
    cond {
      %78 = stablehlo.compare LT, %iterArg_49, %c_0, SIGNED : (tensor<i32>, tensor<i32>) -> tensor<i1> loc(#loc1618)
      stablehlo.return %78 : tensor<i1> loc(#loc1617)
    } do {
      %78 = func.call @dynamic_index_in_dim_52(%iterArg, %iterArg_49) : (tensor<4x2xui32>, tensor<i32>) -> tensor<2xui32> loc(#loc1619)
      %79:52 = func.call @closed_call_53(%iterArg_10, %iterArg_11, %iterArg_12, %iterArg_13, %iterArg_14, %iterArg_15, %iterArg_16, %iterArg_17, %iterArg_18, %iterArg_19, %iterArg_20, %iterArg_21, %iterArg_22, %iterArg_23, %iterArg_24, %iterArg_25, %iterArg_26, %iterArg_27, %iterArg_28, %iterArg_29, %iterArg_30, %iterArg_31, %iterArg_32, %iterArg_33, %iterArg_34, %iterArg_35, %iterArg_36, %iterArg_37, %iterArg_38, %iterArg_39, %iterArg_40, %iterArg_41, %iterArg_42, %iterArg_43, %iterArg_44, %iterArg_45, %iterArg_46, %iterArg_47, %iterArg_48, %iterArg_50, %iterArg_51, %iterArg_52, %iterArg_53, %iterArg_54, %iterArg_55, %iterArg_56, %iterArg_57, %iterArg_58, %iterArg_59, %iterArg_60, %iterArg_61, %iterArg_62, %iterArg_63, %iterArg_64, %iterArg_65, %iterArg_66, %iterArg_67, %iterArg_68, %iterArg_69, %iterArg_70, %iterArg_71, %iterArg_72, %iterArg_73, %iterArg_74, %iterArg_75, %iterArg_76, %iterArg_77, %iterArg_78, %iterArg_79, %iterArg_80, %iterArg_81, %iterArg_82, %iterArg_83, %iterArg_84, %iterArg_85, %iterArg_86, %iterArg_87, %iterArg_88, %iterArg_89, %iterArg_90, %iterArg_91, %iterArg_92, %iterArg_93, %iterArg_94, %iterArg_95, %iterArg_96, %iterArg_97, %iterArg_98, %iterArg_99, %iterArg_100, %iterArg_101, %78) : (tensor<i32>, tensor<64x16xi1>, tensor<64x15xf32>, tensor<64xi32>, tensor<64xf32>, tensor<64xi1>, tensor<64xi1>, tensor<64xf32>, tensor<64xf32>, tensor<64xf32>, tensor<64x5xi32>, tensor<64x5xi32>, tensor<64xi1>, tensor<64xi32>, tensor<64xi1>, tensor<64x32xf32>, tensor<16x64x16xi1>, tensor<16x64x15xf32>, tensor<16x64xi32>, tensor<16x64xf32>, tensor<16x64xi1>, tensor<16x64xi1>, tensor<16x64xf32>, tensor<16x64xf32>, tensor<16x64xf32>, tensor<16x64x16xi1>, tensor<16x64x15xf32>, tensor<16x64xi32>, tensor<16x64xf32>, tensor<16x64xi1>, tensor<16x64xi1>, tensor<16x64xf32>, tensor<16x64xf32>, tensor<16x64xf32>, tensor<16x64xf32>, tensor<16x64xf32>, tensor<16x64xf32>, tensor<16x64xf32>, tensor<64x32xf32>, tensor<32x16xf32>, tensor<1xf32>, tensor<32x1xf32>, tensor<32xf32>, tensor<15x32xf32>, tensor<32xf32>, tensor<48x32xf32>, tensor<32xf32>, tensor<32x32xf32>, tensor<32x32xf32>, tensor<32x32xf32>, tensor<32xf32>, tensor<32x32xf32>, tensor<32xf32>, tensor<32x32xf32>, tensor<32xf32>, tensor<32x32xf32>, tensor<i32>, tensor<32x16xf32>, tensor<1xf32>, tensor<32x1xf32>, tensor<32xf32>, tensor<15x32xf32>, tensor<32xf32>, tensor<48x32xf32>, tensor<32xf32>, tensor<32x32xf32>, tensor<32x32xf32>, tensor<32x32xf32>, tensor<32xf32>, tensor<32x32xf32>, tensor<32xf32>, tensor<32x32xf32>, tensor<32xf32>, tensor<32x32xf32>, tensor<32x16xf32>, tensor<1xf32>, tensor<32x1xf32>, tensor<32xf32>, tensor<15x32xf32>, tensor<32xf32>, tensor<48x32xf32>, tensor<32xf32>, tensor<32x32xf32>, tensor<32x32xf32>, tensor<32x32xf32>, tensor<32xf32>, tensor<32x32xf32>, tensor<32xf32>, tensor<32x32xf32>, tensor<32xf32>, tensor<32x32xf32>, tensor<2xui32>) -> (tensor<32x16xf32>, tensor<1xf32>, tensor<32x1xf32>, tensor<32xf32>, tensor<15x32xf32>, tensor<32xf32>, tensor<48x32xf32>, tensor<32xf32>, tensor<32x32xf32>, tensor<32x32xf32>, tensor<32x32xf32>, tensor<32xf32>, tensor<32x32xf32>, tensor<32xf32>, tensor<32x32xf32>, tensor<32xf32>, tensor<32x32xf32>, tensor<i32>, tensor<32x16xf32>, tensor<1xf32>, tensor<32x1xf32>, tensor<32xf32>, tensor<15x32xf32>, tensor<32xf32>, tensor<48x32xf32>, tensor<32xf32>, tensor<32x32xf32>, tensor<32x32xf32>, tensor<32x32xf32>, tensor<32xf32>, tensor<32x32xf32>, tensor<32xf32>, tensor<32x32xf32>, tensor<32xf32>, tensor<32x32xf32>, tensor<32x16xf32>, tensor<1xf32>, tensor<32x1xf32>, tensor<32xf32>, tensor<15x32xf32>, tensor<32xf32>, tensor<48x32xf32>, tensor<32xf32>, tensor<32x32xf32>, tensor<32x32xf32>, tensor<32x32xf32>, tensor<32xf32>, tensor<32x32xf32>, tensor<32xf32>, tensor<32x32xf32>, tensor<32xf32>, tensor<32x32xf32>) loc(#loc1620)
      %80 = stablehlo.add %iterArg_49, %c_2 : tensor<i32> loc(#loc1621)
      stablehlo.return %iterArg, %iterArg_10, %iterArg_11, %iterArg_12, %iterArg_13, %iterArg_14, %iterArg_15, %iterArg_16, %iterArg_17, %iterArg_18, %iterArg_19, %iterArg_20, %iterArg_21, %iterArg_22, %iterArg_23, %iterArg_24, %iterArg_25, %iterArg_26, %iterArg_27, %iterArg_28, %iterArg_29, %iterArg_30, %iterArg_31, %iterArg_32, %iterArg_33, %iterArg_34, %iterArg_35, %iterArg_36, %iterArg_37, %iterArg_38, %iterArg_39, %iterArg_40, %iterArg_41, %iterArg_42, %iterArg_43, %iterArg_44, %iterArg_45, %iterArg_46, %iterArg_47, %iterArg_48, %80, %79#0, %79#1, %79#2, %79#3, %79#4, %79#5, %79#6, %79#7, %79#8, %79#9, %79#10, %79#11, %79#12, %79#13, %79#14, %79#15, %79#16, %79#17, %79#18, %79#19, %79#20, %79#21, %79#22, %79#23, %79#24, %79#25, %79#26, %79#27, %79#28, %79#29, %79#30, %79#31, %79#32, %79#33, %79#34, %79#35, %79#36, %79#37, %79#38, %79#39, %79#40, %79#41, %79#42, %79#43, %79#44, %79#45, %79#46, %79#47, %79#48, %79#49, %79#50, %79#51 : tensor<4x2xui32>, tensor<i32>, tensor<64x16xi1>, tensor<64x15xf32>, tensor<64xi32>, tensor<64xf32>, tensor<64xi1>, tensor<64xi1>, tensor<64xf32>, tensor<64xf32>, tensor<64xf32>, tensor<64x5xi32>, tensor<64x5xi32>, tensor<64xi1>, tensor<64xi32>, tensor<64xi1>, tensor<64x32xf32>, tensor<16x64x16xi1>, tensor<16x64x15xf32>, tensor<16x64xi32>, tensor<16x64xf32>, tensor<16x64xi1>, tensor<16x64xi1>, tensor<16x64xf32>, tensor<16x64xf32>, tensor<16x64xf32>, tensor<16x64x16xi1>, tensor<16x64x15xf32>, tensor<16x64xi32>, tensor<16x64xf32>, tensor<16x64xi1>, tensor<16x64xi1>, tensor<16x64xf32>, tensor<16x64xf32>, tensor<16x64xf32>, tensor<16x64xf32>, tensor<16x64xf32>, tensor<16x64xf32>, tensor<16x64xf32>, tensor<64x32xf32>, tensor<i32>, tensor<32x16xf32>, tensor<1xf32>, tensor<32x1xf32>, tensor<32xf32>, tensor<15x32xf32>, tensor<32xf32>, tensor<48x32xf32>, tensor<32xf32>, tensor<32x32xf32>, tensor<32x32xf32>, tensor<32x32xf32>, tensor<32xf32>, tensor<32x32xf32>, tensor<32xf32>, tensor<32x32xf32>, tensor<32xf32>, tensor<32x32xf32>, tensor<i32>, tensor<32x16xf32>, tensor<1xf32>, tensor<32x1xf32>, tensor<32xf32>, tensor<15x32xf32>, tensor<32xf32>, tensor<48x32xf32>, tensor<32xf32>, tensor<32x32xf32>, tensor<32x32xf32>, tensor<32x32xf32>, tensor<32xf32>, tensor<32x32xf32>, tensor<32xf32>, tensor<32x32xf32>, tensor<32xf32>, tensor<32x32xf32>, tensor<32x16xf32>, tensor<1xf32>, tensor<32x1xf32>, tensor<32xf32>, tensor<15x32xf32>, tensor<32xf32>, tensor<48x32xf32>, tensor<32xf32>, tensor<32x32xf32>, tensor<32x32xf32>, tensor<32x32xf32>, tensor<32xf32>, tensor<32x32xf32>, tensor<32xf32>, tensor<32x32xf32>, tensor<32xf32>, tensor<32x32xf32> loc(#loc1617)
    } loc(#loc1617)
    %70 = call @_threefry_split_95(%4) : (tensor<2xui32>) -> tensor<24x2xui32> loc(#loc1622)
    %71 = stablehlo.broadcast_in_dim %cst_5, dims = [] : (tensor<f32>) -> tensor<24x64xf32> loc(#loc1623)
    %72 = stablehlo.broadcast_in_dim %cst_5, dims = [] : (tensor<f32>) -> tensor<24x64xf32> loc(#loc1623)
    %73:75 = stablehlo.while(%iterArg = %70, %iterArg_10 = %69#41, %iterArg_11 = %69#42, %iterArg_12 = %69#43, %iterArg_13 = %69#44, %iterArg_14 = %69#45, %iterArg_15 = %69#46, %iterArg_16 = %69#47, %iterArg_17 = %69#48, %iterArg_18 = %69#49, %iterArg_19 = %69#50, %iterArg_20 = %69#51, %iterArg_21 = %69#52, %iterArg_22 = %69#53, %iterArg_23 = %69#54, %iterArg_24 = %69#55, %iterArg_25 = %69#56, %iterArg_26 = %69#57, %iterArg_27 = %69#58, %iterArg_28 = %69#59, %iterArg_29 = %69#60, %iterArg_30 = %69#61, %iterArg_31 = %69#62, %iterArg_32 = %69#63, %iterArg_33 = %69#64, %iterArg_34 = %69#65, %iterArg_35 = %69#66, %iterArg_36 = %69#67, %iterArg_37 = %69#68, %iterArg_38 = %69#69, %iterArg_39 = %69#70, %iterArg_40 = %69#71, %iterArg_41 = %69#72, %iterArg_42 = %69#73, %iterArg_43 = %69#74, %iterArg_44 = %69#75, %iterArg_45 = %69#76, %iterArg_46 = %69#77, %iterArg_47 = %69#78, %iterArg_48 = %69#79, %iterArg_49 = %69#80, %iterArg_50 = %69#81, %iterArg_51 = %69#82, %iterArg_52 = %69#83, %iterArg_53 = %69#84, %iterArg_54 = %69#85, %iterArg_55 = %69#86, %iterArg_56 = %69#87, %iterArg_57 = %69#88, %iterArg_58 = %69#89, %iterArg_59 = %69#90, %iterArg_60 = %69#91, %iterArg_61 = %69#92, %iterArg_62 = %c_7, %iterArg_63 = %c_8, %iterArg_64 = %c_9, %iterArg_65 = %c_4, %iterArg_66 = %31#57, %iterArg_67 = %31#58, %iterArg_68 = %31#59, %iterArg_69 = %31#60, %iterArg_70 = %31#61, %iterArg_71 = %31#62, %iterArg_72 = %31#63, %iterArg_73 = %31#64, %iterArg_74 = %31#65, %iterArg_75 = %31#66, %iterArg_76 = %31#67, %iterArg_77 = %31#68, %iterArg_78 = %31#69, %iterArg_79 = %31#70, %iterArg_80 = %31#71, %iterArg_81 = %31#72, %iterArg_82 = %71, %iterArg_83 = %72) : tensor<24x2xui32>, tensor<32x16xf32>, tensor<1xf32>, tensor<32x1xf32>, tensor<32xf32>, tensor<15x32xf32>, tensor<32xf32>, tensor<48x32xf32>, tensor<32xf32>, tensor<32x32xf32>, tensor<32x32xf32>, tensor<32x32xf32>, tensor<32xf32>, tensor<32x32xf32>, tensor<32xf32>, tensor<32x32xf32>, tensor<32xf32>, tensor<32x32xf32>, tensor<i32>, tensor<32x16xf32>, tensor<1xf32>, tensor<32x1xf32>, tensor<32xf32>, tensor<15x32xf32>, tensor<32xf32>, tensor<48x32xf32>, tensor<32xf32>, tensor<32x32xf32>, tensor<32x32xf32>, tensor<32x32xf32>, tensor<32xf32>, tensor<32x32xf32>, tensor<32xf32>, tensor<32x32xf32>, tensor<32xf32>, tensor<32x32xf32>, tensor<32x16xf32>, tensor<1xf32>, tensor<32x1xf32>, tensor<32xf32>, tensor<15x32xf32>, tensor<32xf32>, tensor<48x32xf32>, tensor<32xf32>, tensor<32x32xf32>, tensor<32x32xf32>, tensor<32x32xf32>, tensor<32xf32>, tensor<32x32xf32>, tensor<32xf32>, tensor<32x32xf32>, tensor<32xf32>, tensor<32x32xf32>, tensor<16x5xi32>, tensor<16xi32>, tensor<16x5xi32>, tensor<i32>, tensor<i32>, tensor<64x16xi1>, tensor<64x15xf32>, tensor<64xi32>, tensor<64xf32>, tensor<64xi1>, tensor<64xi1>, tensor<64xf32>, tensor<64xf32>, tensor<64xf32>, tensor<64x5xi32>, tensor<64x5xi32>, tensor<64xi1>, tensor<64xi32>, tensor<64xi1>, tensor<64x32xf32>, tensor<24x64xf32>, tensor<24x64xf32>
    cond {
      %78 = stablehlo.compare LT, %iterArg_65, %c, SIGNED : (tensor<i32>, tensor<i32>) -> tensor<i1> loc(#loc1625)
      stablehlo.return %78 : tensor<i1> loc(#loc1624)
    } do {
      %78 = func.call @dynamic_index_in_dim_98(%iterArg, %iterArg_65) : (tensor<24x2xui32>, tensor<i32>) -> tensor<2xui32> loc(#loc1626)
      %79:18 = func.call @closed_call_99(%iterArg_10, %iterArg_11, %iterArg_12, %iterArg_13, %iterArg_14, %iterArg_15, %iterArg_16, %iterArg_17, %iterArg_18, %iterArg_19, %iterArg_20, %iterArg_21, %iterArg_22, %iterArg_23, %iterArg_24, %iterArg_25, %iterArg_26, %iterArg_27, %iterArg_28, %iterArg_29, %iterArg_30, %iterArg_31, %iterArg_32, %iterArg_33, %iterArg_34, %iterArg_35, %iterArg_36, %iterArg_37, %iterArg_38, %iterArg_39, %iterArg_40, %iterArg_41, %iterArg_42, %iterArg_43, %iterArg_44, %iterArg_45, %iterArg_46, %iterArg_47, %iterArg_48, %iterArg_49, %iterArg_50, %iterArg_51, %iterArg_52, %iterArg_53, %iterArg_54, %iterArg_55, %iterArg_56, %iterArg_57, %iterArg_58, %iterArg_59, %iterArg_60, %iterArg_61, %iterArg_62, %iterArg_63, %iterArg_64, %iterArg_66, %iterArg_67, %iterArg_68, %iterArg_69, %iterArg_70, %iterArg_71, %iterArg_72, %iterArg_73, %iterArg_74, %iterArg_75, %iterArg_76, %iterArg_77, %iterArg_78, %iterArg_79, %iterArg_80, %iterArg_81, %78) : (tensor<32x16xf32>, tensor<1xf32>, tensor<32x1xf32>, tensor<32xf32>, tensor<15x32xf32>, tensor<32xf32>, tensor<48x32xf32>, tensor<32xf32>, tensor<32x32xf32>, tensor<32x32xf32>, tensor<32x32xf32>, tensor<32xf32>, tensor<32x32xf32>, tensor<32xf32>, tensor<32x32xf32>, tensor<32xf32>, tensor<32x32xf32>, tensor<i32>, tensor<32x16xf32>, tensor<1xf32>, tensor<32x1xf32>, tensor<32xf32>, tensor<15x32xf32>, tensor<32xf32>, tensor<48x32xf32>, tensor<32xf32>, tensor<32x32xf32>, tensor<32x32xf32>, tensor<32x32xf32>, tensor<32xf32>, tensor<32x32xf32>, tensor<32xf32>, tensor<32x32xf32>, tensor<32xf32>, tensor<32x32xf32>, tensor<32x16xf32>, tensor<1xf32>, tensor<32x1xf32>, tensor<32xf32>, tensor<15x32xf32>, tensor<32xf32>, tensor<48x32xf32>, tensor<32xf32>, tensor<32x32xf32>, tensor<32x32xf32>, tensor<32x32xf32>, tensor<32xf32>, tensor<32x32xf32>, tensor<32xf32>, tensor<32x32xf32>, tensor<32xf32>, tensor<32x32xf32>, tensor<16x5xi32>, tensor<16xi32>, tensor<16x5xi32>, tensor<i32>, tensor<64x16xi1>, tensor<64x15xf32>, tensor<64xi32>, tensor<64xf32>, tensor<64xi1>, tensor<64xi1>, tensor<64xf32>, tensor<64xf32>, tensor<64xf32>, tensor<64x5xi32>, tensor<64x5xi32>, tensor<64xi1>, tensor<64xi32>, tensor<64xi1>, tensor<64x32xf32>, tensor<2xui32>) -> (tensor<i32>, tensor<64x16xi1>, tensor<64x15xf32>, tensor<64xi32>, tensor<64xf32>, tensor<64xi1>, tensor<64xi1>, tensor<64xf32>, tensor<64xf32>, tensor<64xf32>, tensor<64x5xi32>, tensor<64x5xi32>, tensor<64xi1>, tensor<64xi32>, tensor<64xi1>, tensor<64x32xf32>, tensor<64xf32>, tensor<64xf32>) loc(#loc1627)
      %80 = func.call @dynamic_update_index_in_dim_102(%iterArg_82, %79#16, %iterArg_65) : (tensor<24x64xf32>, tensor<64xf32>, tensor<i32>) -> tensor<24x64xf32> loc(#loc1628)
      %81 = func.call @dynamic_update_index_in_dim_102(%iterArg_83, %79#17, %iterArg_65) : (tensor<24x64xf32>, tensor<64xf32>, tensor<i32>) -> tensor<24x64xf32> loc(#loc1628)
      %82 = stablehlo.add %iterArg_65, %c_2 : tensor<i32> loc(#loc1629)
      stablehlo.return %iterArg, %iterArg_10, %iterArg_11, %iterArg_12, %iterArg_13, %iterArg_14, %iterArg_15, %iterArg_16, %iterArg_17, %iterArg_18, %iterArg_19, %iterArg_20, %iterArg_21, %iterArg_22, %iterArg_23, %iterArg_24, %iterArg_25, %iterArg_26, %iterArg_27, %iterArg_28, %iterArg_29, %iterArg_30, %iterArg_31, %iterArg_32, %iterArg_33, %iterArg_34, %iterArg_35, %iterArg_36, %iterArg_37, %iterArg_38, %iterArg_39, %iterArg_40, %iterArg_41, %iterArg_42, %iterArg_43, %iterArg_44, %iterArg_45, %iterArg_46, %iterArg_47, %iterArg_48, %iterArg_49, %iterArg_50, %iterArg_51, %iterArg_52, %iterArg_53, %iterArg_54, %iterArg_55, %iterArg_56, %iterArg_57, %iterArg_58, %iterArg_59, %iterArg_60, %iterArg_61, %iterArg_62, %iterArg_63, %iterArg_64, %82, %79#0, %79#1, %79#2, %79#3, %79#4, %79#5, %79#6, %79#7, %79#8, %79#9, %79#10, %79#11, %79#12, %79#13, %79#14, %79#15, %80, %81 : tensor<24x2xui32>, tensor<32x16xf32>, tensor<1xf32>, tensor<32x1xf32>, tensor<32xf32>, tensor<15x32xf32>, tensor<32xf32>, tensor<48x32xf32>, tensor<32xf32>, tensor<32x32xf32>, tensor<32x32xf32>, tensor<32x32xf32>, tensor<32xf32>, tensor<32x32xf32>, tensor<32xf32>, tensor<32x32xf32>, tensor<32xf32>, tensor<32x32xf32>, tensor<i32>, tensor<32x16xf32>, tensor<1xf32>, tensor<32x1xf32>, tensor<32xf32>, tensor<15x32xf32>, tensor<32xf32>, tensor<48x32xf32>, tensor<32xf32>, tensor<32x32xf32>, tensor<32x32xf32>, tensor<32x32xf32>, tensor<32xf32>, tensor<32x32xf32>, tensor<32xf32>, tensor<32x32xf32>, tensor<32xf32>, tensor<32x32xf32>, tensor<32x16xf32>, tensor<1xf32>, tensor<32x1xf32>, tensor<32xf32>, tensor<15x32xf32>, tensor<32xf32>, tensor<48x32xf32>, tensor<32xf32>, tensor<32x32xf32>, tensor<32x32xf32>, tensor<32x32xf32>, tensor<32xf32>, tensor<32x32xf32>, tensor<32xf32>, tensor<32x32xf32>, tensor<32xf32>, tensor<32x32xf32>, tensor<16x5xi32>, tensor<16xi32>, tensor<16x5xi32>, tensor<i32>, tensor<i32>, tensor<64x16xi1>, tensor<64x15xf32>, tensor<64xi32>, tensor<64xf32>, tensor<64xi1>, tensor<64xi1>, tensor<64xf32>, tensor<64xf32>, tensor<64xf32>, tensor<64x5xi32>, tensor<64x5xi32>, tensor<64xi1>, tensor<64xi32>, tensor<64xi1>, tensor<64x32xf32>, tensor<24x64xf32>, tensor<24x64xf32> loc(#loc1624)
    } loc(#loc1624)
    %74 = stablehlo.reduce(%73#73 init: %cst_5) applies stablehlo.add across dimensions = [0, 1] : (tensor<24x64xf32>, tensor<f32>) -> tensor<f32> loc(#loc1378)
    %75 = stablehlo.reduce(%73#74 init: %cst_5) applies stablehlo.add across dimensions = [0, 1] : (tensor<24x64xf32>, tensor<f32>) -> tensor<f32> loc(#loc1379)
    %76 = stablehlo.maximum %75, %cst : tensor<f32> loc(#loc1380)
    %77 = stablehlo.divide %74, %76 : tensor<f32> loc(#loc1381)
    return %31#57, %31#58, %31#59, %31#60, %31#61, %31#62, %31#63, %31#64, %31#65, %31#66, %31#67, %31#68, %31#69, %31#70, %31#71, %31#72, %69#41, %69#42, %69#43, %69#44, %69#45, %69#46, %69#47, %69#48, %69#49, %69#50, %69#51, %69#52, %69#53, %69#54, %69#55, %69#56, %69#57, %69#58, %69#59, %69#60, %69#61, %69#62, %69#63, %69#64, %69#65, %69#66, %69#67, %69#68, %69#69, %69#70, %69#71, %69#72, %69#73, %69#74, %69#75, %69#76, %69#77, %69#78, %69#79, %69#80, %69#81, %69#82, %69#83, %69#84, %69#85, %69#86, %69#87, %69#88, %69#89, %69#90, %69#91, %69#92, %77 : tensor<i32>, tensor<64x16xi1>, tensor<64x15xf32>, tensor<64xi32>, tensor<64xf32>, tensor<64xi1>, tensor<64xi1>, tensor<64xf32>, tensor<64xf32>, tensor<64xf32>, tensor<64x5xi32>, tensor<64x5xi32>, tensor<64xi1>, tensor<64xi32>, tensor<64xi1>, tensor<64x32xf32>, tensor<32x16xf32>, tensor<1xf32>, tensor<32x1xf32>, tensor<32xf32>, tensor<15x32xf32>, tensor<32xf32>, tensor<48x32xf32>, tensor<32xf32>, tensor<32x32xf32>, tensor<32x32xf32>, tensor<32x32xf32>, tensor<32xf32>, tensor<32x32xf32>, tensor<32xf32>, tensor<32x32xf32>, tensor<32xf32>, tensor<32x32xf32>, tensor<i32>, tensor<32x16xf32>, tensor<1xf32>, tensor<32x1xf32>, tensor<32xf32>, tensor<15x32xf32>, tensor<32xf32>, tensor<48x32xf32>, tensor<32xf32>, tensor<32x32xf32>, tensor<32x32xf32>, tensor<32x32xf32>, tensor<32xf32>, tensor<32x32xf32>, tensor<32xf32>, tensor<32x32xf32>, tensor<32xf32>, tensor<32x32xf32>, tensor<32x16xf32>, tensor<1xf32>, tensor<32x1xf32>, tensor<32xf32>, tensor<15x32xf32>, tensor<32xf32>, tensor<48x32xf32>, tensor<32xf32>, tensor<32x32xf32>, tensor<32x32xf32>, tensor<32x32xf32>, tensor<32xf32>, tensor<32x32xf32>, tensor<32xf32>, tensor<32x32xf32>, tensor<32xf32>, tensor<32x32xf32>, tensor<f32> loc(#loc920)
  } loc(#loc)
  func.func private @_threefry_split(%arg0: tensor<2xui32> loc(unknown)) -> tensor<2x2xui32> {
    %c = stablehlo.constant dense<32> : tensor<ui64> loc(#loc132)
    %c_0 = stablehlo.constant dense<1> : tensor<ui64> loc(#loc132)
    %0 = stablehlo.slice %arg0 [0:1] : (tensor<2xui32>) -> tensor<1xui32> loc(#loc133)
    %1 = stablehlo.reshape %0 : (tensor<1xui32>) -> tensor<ui32> loc(#loc134)
    %2 = stablehlo.slice %arg0 [1:2] : (tensor<2xui32>) -> tensor<1xui32> loc(#loc133)
    %3 = stablehlo.reshape %2 : (tensor<1xui32>) -> tensor<ui32> loc(#loc134)
    %4 = stablehlo.iota dim = 0 : tensor<2xui64> loc(#loc132)
    %5 = stablehlo.broadcast_in_dim %c_0, dims = [] : (tensor<ui64>) -> tensor<2xui64> loc(#loc132)
    %6 = stablehlo.multiply %5, %4 : tensor<2xui64> loc(#loc132)
    %7 = stablehlo.broadcast_in_dim %c, dims = [] : (tensor<ui64>) -> tensor<2xui64> loc(#loc132)
    %8 = stablehlo.shift_right_logical %6, %7 : tensor<2xui64> loc(#loc132)
    %9 = stablehlo.convert %6 : (tensor<2xui64>) -> tensor<2xui32> loc(#loc132)
    %10 = stablehlo.convert %8 : (tensor<2xui64>) -> tensor<2xui32> loc(#loc132)
    %11:2 = call @threefry2x32(%1, %3, %10, %9) : (tensor<ui32>, tensor<ui32>, tensor<2xui32>, tensor<2xui32>) -> (tensor<2xui32>, tensor<2xui32>) loc(#loc)
    %12 = stablehlo.broadcast_in_dim %11#0, dims = [0] : (tensor<2xui32>) -> tensor<2x1xui32> loc(#loc135)
    %13 = stablehlo.broadcast_in_dim %11#1, dims = [0] : (tensor<2xui32>) -> tensor<2x1xui32> loc(#loc135)
    %14 = stablehlo.concatenate %12, %13, dim = 1 : (tensor<2x1xui32>, tensor<2x1xui32>) -> tensor<2x2xui32> loc(#loc135)
    return %14 : tensor<2x2xui32> loc(#loc)
  } loc(#loc930)
  func.func private @threefry2x32(%arg0: tensor<ui32> loc(unknown), %arg1: tensor<ui32> loc(unknown), %arg2: tensor<2xui32> loc(unknown), %arg3: tensor<2xui32> loc(unknown)) -> (tensor<2xui32>, tensor<2xui32>) {
    %c = stablehlo.constant dense<1> : tensor<i32> loc(#loc)
    %c_0 = stablehlo.constant dense<5> : tensor<i32> loc(#loc)
    %c_1 = stablehlo.constant dense<0> : tensor<i32> loc(#loc)
    %c_2 = stablehlo.constant dense<466688986> : tensor<ui32> loc(#loc513)
    %c_3 = stablehlo.constant dense<[13, 15, 26, 6]> : tensor<4xui32> loc(#loc513)
    %c_4 = stablehlo.constant dense<[17, 29, 16, 24]> : tensor<4xui32> loc(#loc513)
    %0 = stablehlo.xor %arg0, %arg1 : tensor<ui32> loc(#loc137)
    %1 = stablehlo.xor %0, %c_2 : tensor<ui32> loc(#loc137)
    %2 = stablehlo.broadcast_in_dim %arg0, dims = [] : (tensor<ui32>) -> tensor<2xui32> loc(#loc138)
    %3 = stablehlo.add %arg2, %2 : tensor<2xui32> loc(#loc138)
    %4 = stablehlo.broadcast_in_dim %arg1, dims = [] : (tensor<ui32>) -> tensor<2xui32> loc(#loc138)
    %5 = stablehlo.add %arg3, %4 : tensor<2xui32> loc(#loc138)
    %6:9 = stablehlo.while(%iterArg = %c_1, %iterArg_5 = %c_1, %iterArg_6 = %3, %iterArg_7 = %5, %iterArg_8 = %arg1, %iterArg_9 = %1, %iterArg_10 = %arg0, %iterArg_11 = %c_3, %iterArg_12 = %c_4) : tensor<i32>, tensor<i32>, tensor<2xui32>, tensor<2xui32>, tensor<ui32>, tensor<ui32>, tensor<ui32>, tensor<4xui32>, tensor<4xui32>
    cond {
      %7 = stablehlo.compare LT, %iterArg, %c_0, SIGNED : (tensor<i32>, tensor<i32>) -> tensor<i1> loc(#loc140)
      stablehlo.return %7 : tensor<i1> loc(#loc139)
    } do {
      %7:8 = func.call @closed_call(%iterArg_5, %iterArg_6, %iterArg_7, %iterArg_8, %iterArg_9, %iterArg_10, %iterArg_11, %iterArg_12) : (tensor<i32>, tensor<2xui32>, tensor<2xui32>, tensor<ui32>, tensor<ui32>, tensor<ui32>, tensor<4xui32>, tensor<4xui32>) -> (tensor<i32>, tensor<2xui32>, tensor<2xui32>, tensor<ui32>, tensor<ui32>, tensor<ui32>, tensor<4xui32>, tensor<4xui32>) loc(#loc141)
      %8 = stablehlo.add %iterArg, %c : tensor<i32> loc(#loc142)
      stablehlo.return %8, %7#0, %7#1, %7#2, %7#3, %7#4, %7#5, %7#6, %7#7 : tensor<i32>, tensor<i32>, tensor<2xui32>, tensor<2xui32>, tensor<ui32>, tensor<ui32>, tensor<ui32>, tensor<4xui32>, tensor<4xui32> loc(#loc139)
    } loc(#loc139)
    return %6#2, %6#3 : tensor<2xui32>, tensor<2xui32> loc(#loc)
  } loc(#loc)
  func.func private @closed_call(%arg0: tensor<i32> loc(unknown), %arg1: tensor<2xui32> loc(unknown), %arg2: tensor<2xui32> loc(unknown), %arg3: tensor<ui32> loc(unknown), %arg4: tensor<ui32> loc(unknown), %arg5: tensor<ui32> loc(unknown), %arg6: tensor<4xui32> loc(unknown), %arg7: tensor<4xui32> loc(unknown)) -> (tensor<i32>, tensor<2xui32>, tensor<2xui32>, tensor<ui32>, tensor<ui32>, tensor<ui32>, tensor<4xui32>, tensor<4xui32>) {
    %c = stablehlo.constant dense<32> : tensor<ui32> loc(#loc)
    %c_0 = stablehlo.constant dense<1> : tensor<i32> loc(#loc)
    %0 = stablehlo.add %arg0, %c_0 : tensor<i32> loc(#loc138)
    %1 = stablehlo.slice %arg6 [0:1] : (tensor<4xui32>) -> tensor<1xui32> loc(#loc133)
    %2 = stablehlo.reshape %1 : (tensor<1xui32>) -> tensor<ui32> loc(#loc134)
    %3 = stablehlo.add %arg1, %arg2 : tensor<2xui32> loc(#loc138)
    %4 = stablehlo.broadcast_in_dim %2, dims = [] : (tensor<ui32>) -> tensor<2xui32> loc(#loc143)
    %5 = stablehlo.shift_left %arg2, %4 : tensor<2xui32> loc(#loc143)
    %6 = stablehlo.subtract %c, %2 : tensor<ui32> loc(#loc144)
    %7 = stablehlo.broadcast_in_dim %6, dims = [] : (tensor<ui32>) -> tensor<2xui32> loc(#loc145)
    %8 = stablehlo.shift_right_logical %arg2, %7 : tensor<2xui32> loc(#loc145)
    %9 = stablehlo.or %5, %8 : tensor<2xui32> loc(#loc146)
    %10 = stablehlo.xor %3, %9 : tensor<2xui32> loc(#loc137)
    %11 = stablehlo.slice %arg6 [1:2] : (tensor<4xui32>) -> tensor<1xui32> loc(#loc133)
    %12 = stablehlo.reshape %11 : (tensor<1xui32>) -> tensor<ui32> loc(#loc134)
    %13 = stablehlo.add %3, %10 : tensor<2xui32> loc(#loc138)
    %14 = stablehlo.broadcast_in_dim %12, dims = [] : (tensor<ui32>) -> tensor<2xui32> loc(#loc143)
    %15 = stablehlo.shift_left %10, %14 : tensor<2xui32> loc(#loc143)
    %16 = stablehlo.subtract %c, %12 : tensor<ui32> loc(#loc144)
    %17 = stablehlo.broadcast_in_dim %16, dims = [] : (tensor<ui32>) -> tensor<2xui32> loc(#loc145)
    %18 = stablehlo.shift_right_logical %10, %17 : tensor<2xui32> loc(#loc145)
    %19 = stablehlo.or %15, %18 : tensor<2xui32> loc(#loc146)
    %20 = stablehlo.xor %13, %19 : tensor<2xui32> loc(#loc137)
    %21 = stablehlo.slice %arg6 [2:3] : (tensor<4xui32>) -> tensor<1xui32> loc(#loc133)
    %22 = stablehlo.reshape %21 : (tensor<1xui32>) -> tensor<ui32> loc(#loc134)
    %23 = stablehlo.add %13, %20 : tensor<2xui32> loc(#loc138)
    %24 = stablehlo.broadcast_in_dim %22, dims = [] : (tensor<ui32>) -> tensor<2xui32> loc(#loc143)
    %25 = stablehlo.shift_left %20, %24 : tensor<2xui32> loc(#loc143)
    %26 = stablehlo.subtract %c, %22 : tensor<ui32> loc(#loc144)
    %27 = stablehlo.broadcast_in_dim %26, dims = [] : (tensor<ui32>) -> tensor<2xui32> loc(#loc145)
    %28 = stablehlo.shift_right_logical %20, %27 : tensor<2xui32> loc(#loc145)
    %29 = stablehlo.or %25, %28 : tensor<2xui32> loc(#loc146)
    %30 = stablehlo.xor %23, %29 : tensor<2xui32> loc(#loc137)
    %31 = stablehlo.slice %arg6 [3:4] : (tensor<4xui32>) -> tensor<1xui32> loc(#loc133)
    %32 = stablehlo.reshape %31 : (tensor<1xui32>) -> tensor<ui32> loc(#loc134)
    %33 = stablehlo.add %23, %30 : tensor<2xui32> loc(#loc138)
    %34 = stablehlo.broadcast_in_dim %32, dims = [] : (tensor<ui32>) -> tensor<2xui32> loc(#loc143)
    %35 = stablehlo.shift_left %30, %34 : tensor<2xui32> loc(#loc143)
    %36 = stablehlo.subtract %c, %32 : tensor<ui32> loc(#loc144)
    %37 = stablehlo.broadcast_in_dim %36, dims = [] : (tensor<ui32>) -> tensor<2xui32> loc(#loc145)
    %38 = stablehlo.shift_right_logical %30, %37 : tensor<2xui32> loc(#loc145)
    %39 = stablehlo.or %35, %38 : tensor<2xui32> loc(#loc146)
    %40 = stablehlo.xor %33, %39 : tensor<2xui32> loc(#loc137)
    %41 = stablehlo.broadcast_in_dim %arg3, dims = [] : (tensor<ui32>) -> tensor<2xui32> loc(#loc138)
    %42 = stablehlo.add %33, %41 : tensor<2xui32> loc(#loc138)
    %43 = stablehlo.broadcast_in_dim %arg4, dims = [] : (tensor<ui32>) -> tensor<2xui32> loc(#loc138)
    %44 = stablehlo.add %40, %43 : tensor<2xui32> loc(#loc138)
    %45 = stablehlo.add %arg0, %c_0 : tensor<i32> loc(#loc138)
    %46 = stablehlo.convert %45 : (tensor<i32>) -> tensor<ui32> loc(#loc147)
    %47 = stablehlo.broadcast_in_dim %46, dims = [] : (tensor<ui32>) -> tensor<2xui32> loc(#loc138)
    %48 = stablehlo.add %44, %47 : tensor<2xui32> loc(#loc138)
    return %0, %42, %48, %arg4, %arg5, %arg3, %arg7, %arg6 : tensor<i32>, tensor<2xui32>, tensor<2xui32>, tensor<ui32>, tensor<ui32>, tensor<ui32>, tensor<4xui32>, tensor<4xui32> loc(#loc)
  } loc(#loc514)
  func.func private @_threefry_split_0(%arg0: tensor<2xui32> loc(unknown)) -> tensor<16x2xui32> {
    %c = stablehlo.constant dense<32> : tensor<ui64> loc(#loc932)
    %c_0 = stablehlo.constant dense<1> : tensor<ui64> loc(#loc932)
    %0 = stablehlo.slice %arg0 [0:1] : (tensor<2xui32>) -> tensor<1xui32> loc(#loc933)
    %1 = stablehlo.reshape %0 : (tensor<1xui32>) -> tensor<ui32> loc(#loc934)
    %2 = stablehlo.slice %arg0 [1:2] : (tensor<2xui32>) -> tensor<1xui32> loc(#loc933)
    %3 = stablehlo.reshape %2 : (tensor<1xui32>) -> tensor<ui32> loc(#loc934)
    %4 = stablehlo.iota dim = 0 : tensor<16xui64> loc(#loc932)
    %5 = stablehlo.broadcast_in_dim %c_0, dims = [] : (tensor<ui64>) -> tensor<16xui64> loc(#loc932)
    %6 = stablehlo.multiply %5, %4 : tensor<16xui64> loc(#loc932)
    %7 = stablehlo.broadcast_in_dim %c, dims = [] : (tensor<ui64>) -> tensor<16xui64> loc(#loc932)
    %8 = stablehlo.shift_right_logical %6, %7 : tensor<16xui64> loc(#loc932)
    %9 = stablehlo.convert %6 : (tensor<16xui64>) -> tensor<16xui32> loc(#loc932)
    %10 = stablehlo.convert %8 : (tensor<16xui64>) -> tensor<16xui32> loc(#loc932)
    %11:2 = call @threefry2x32_1(%1, %3, %10, %9) : (tensor<ui32>, tensor<ui32>, tensor<16xui32>, tensor<16xui32>) -> (tensor<16xui32>, tensor<16xui32>) loc(#loc777)
    %12 = stablehlo.broadcast_in_dim %11#0, dims = [0] : (tensor<16xui32>) -> tensor<16x1xui32> loc(#loc935)
    %13 = stablehlo.broadcast_in_dim %11#1, dims = [0] : (tensor<16xui32>) -> tensor<16x1xui32> loc(#loc935)
    %14 = stablehlo.concatenate %12, %13, dim = 1 : (tensor<16x1xui32>, tensor<16x1xui32>) -> tensor<16x2xui32> loc(#loc935)
    return %14 : tensor<16x2xui32> loc(#loc)
  } loc(#loc1182)
  func.func private @threefry2x32_1(%arg0: tensor<ui32> loc(callsite(#loc458 at #loc456)), %arg1: tensor<ui32> loc(callsite(#loc458 at #loc456)), %arg2: tensor<16xui32> loc(callsite(#loc458 at #loc456)), %arg3: tensor<16xui32> loc(callsite(#loc458 at #loc456))) -> (tensor<16xui32>, tensor<16xui32>) {
    %c = stablehlo.constant dense<1> : tensor<i32> loc(#loc)
    %c_0 = stablehlo.constant dense<5> : tensor<i32> loc(#loc)
    %c_1 = stablehlo.constant dense<0> : tensor<i32> loc(#loc)
    %c_2 = stablehlo.constant dense<466688986> : tensor<ui32> loc(#loc513)
    %c_3 = stablehlo.constant dense<[13, 15, 26, 6]> : tensor<4xui32> loc(#loc513)
    %c_4 = stablehlo.constant dense<[17, 29, 16, 24]> : tensor<4xui32> loc(#loc513)
    %0 = stablehlo.xor %arg0, %arg1 : tensor<ui32> loc(#loc936)
    %1 = stablehlo.xor %0, %c_2 : tensor<ui32> loc(#loc936)
    %2 = stablehlo.broadcast_in_dim %arg0, dims = [] : (tensor<ui32>) -> tensor<16xui32> loc(#loc937)
    %3 = stablehlo.add %arg2, %2 : tensor<16xui32> loc(#loc937)
    %4 = stablehlo.broadcast_in_dim %arg1, dims = [] : (tensor<ui32>) -> tensor<16xui32> loc(#loc937)
    %5 = stablehlo.add %arg3, %4 : tensor<16xui32> loc(#loc937)
    %6:9 = stablehlo.while(%iterArg = %c_1, %iterArg_5 = %c_1, %iterArg_6 = %3, %iterArg_7 = %5, %iterArg_8 = %arg1, %iterArg_9 = %1, %iterArg_10 = %arg0, %iterArg_11 = %c_3, %iterArg_12 = %c_4) : tensor<i32>, tensor<i32>, tensor<16xui32>, tensor<16xui32>, tensor<ui32>, tensor<ui32>, tensor<ui32>, tensor<4xui32>, tensor<4xui32>
    cond {
      %7 = stablehlo.compare LT, %iterArg, %c_0, SIGNED : (tensor<i32>, tensor<i32>) -> tensor<i1> loc(#loc1382)
      stablehlo.return %7 : tensor<i1> loc(#loc1183)
    } do {
      %7:8 = func.call @closed_call_2(%iterArg_5, %iterArg_6, %iterArg_7, %iterArg_8, %iterArg_9, %iterArg_10, %iterArg_11, %iterArg_12) : (tensor<i32>, tensor<16xui32>, tensor<16xui32>, tensor<ui32>, tensor<ui32>, tensor<ui32>, tensor<4xui32>, tensor<4xui32>) -> (tensor<i32>, tensor<16xui32>, tensor<16xui32>, tensor<ui32>, tensor<ui32>, tensor<ui32>, tensor<4xui32>, tensor<4xui32>) loc(#loc1383)
      %8 = stablehlo.add %iterArg, %c : tensor<i32> loc(#loc1384)
      stablehlo.return %8, %7#0, %7#1, %7#2, %7#3, %7#4, %7#5, %7#6, %7#7 : tensor<i32>, tensor<i32>, tensor<16xui32>, tensor<16xui32>, tensor<ui32>, tensor<ui32>, tensor<ui32>, tensor<4xui32>, tensor<4xui32> loc(#loc1183)
    } loc(#loc1183)
    return %6#2, %6#3 : tensor<16xui32>, tensor<16xui32> loc(#loc777)
  } loc(#loc777)
  func.func private @closed_call_2(%arg0: tensor<i32> loc(unknown), %arg1: tensor<16xui32> loc(unknown), %arg2: tensor<16xui32> loc(unknown), %arg3: tensor<ui32> loc(unknown), %arg4: tensor<ui32> loc(unknown), %arg5: tensor<ui32> loc(unknown), %arg6: tensor<4xui32> loc(unknown), %arg7: tensor<4xui32> loc(unknown)) -> (tensor<i32>, tensor<16xui32>, tensor<16xui32>, tensor<ui32>, tensor<ui32>, tensor<ui32>, tensor<4xui32>, tensor<4xui32>) {
    %c = stablehlo.constant dense<32> : tensor<ui32> loc(#loc)
    %c_0 = stablehlo.constant dense<1> : tensor<i32> loc(#loc)
    %0 = stablehlo.add %arg0, %c_0 : tensor<i32> loc(#loc937)
    %1 = stablehlo.slice %arg6 [0:1] : (tensor<4xui32>) -> tensor<1xui32> loc(#loc933)
    %2 = stablehlo.reshape %1 : (tensor<1xui32>) -> tensor<ui32> loc(#loc934)
    %3 = stablehlo.add %arg1, %arg2 : tensor<16xui32> loc(#loc937)
    %4 = stablehlo.broadcast_in_dim %2, dims = [] : (tensor<ui32>) -> tensor<16xui32> loc(#loc940)
    %5 = stablehlo.shift_left %arg2, %4 : tensor<16xui32> loc(#loc940)
    %6 = stablehlo.subtract %c, %2 : tensor<ui32> loc(#loc941)
    %7 = stablehlo.broadcast_in_dim %6, dims = [] : (tensor<ui32>) -> tensor<16xui32> loc(#loc942)
    %8 = stablehlo.shift_right_logical %arg2, %7 : tensor<16xui32> loc(#loc942)
    %9 = stablehlo.or %5, %8 : tensor<16xui32> loc(#loc943)
    %10 = stablehlo.xor %3, %9 : tensor<16xui32> loc(#loc936)
    %11 = stablehlo.slice %arg6 [1:2] : (tensor<4xui32>) -> tensor<1xui32> loc(#loc933)
    %12 = stablehlo.reshape %11 : (tensor<1xui32>) -> tensor<ui32> loc(#loc934)
    %13 = stablehlo.add %3, %10 : tensor<16xui32> loc(#loc937)
    %14 = stablehlo.broadcast_in_dim %12, dims = [] : (tensor<ui32>) -> tensor<16xui32> loc(#loc940)
    %15 = stablehlo.shift_left %10, %14 : tensor<16xui32> loc(#loc940)
    %16 = stablehlo.subtract %c, %12 : tensor<ui32> loc(#loc941)
    %17 = stablehlo.broadcast_in_dim %16, dims = [] : (tensor<ui32>) -> tensor<16xui32> loc(#loc942)
    %18 = stablehlo.shift_right_logical %10, %17 : tensor<16xui32> loc(#loc942)
    %19 = stablehlo.or %15, %18 : tensor<16xui32> loc(#loc943)
    %20 = stablehlo.xor %13, %19 : tensor<16xui32> loc(#loc936)
    %21 = stablehlo.slice %arg6 [2:3] : (tensor<4xui32>) -> tensor<1xui32> loc(#loc933)
    %22 = stablehlo.reshape %21 : (tensor<1xui32>) -> tensor<ui32> loc(#loc934)
    %23 = stablehlo.add %13, %20 : tensor<16xui32> loc(#loc937)
    %24 = stablehlo.broadcast_in_dim %22, dims = [] : (tensor<ui32>) -> tensor<16xui32> loc(#loc940)
    %25 = stablehlo.shift_left %20, %24 : tensor<16xui32> loc(#loc940)
    %26 = stablehlo.subtract %c, %22 : tensor<ui32> loc(#loc941)
    %27 = stablehlo.broadcast_in_dim %26, dims = [] : (tensor<ui32>) -> tensor<16xui32> loc(#loc942)
    %28 = stablehlo.shift_right_logical %20, %27 : tensor<16xui32> loc(#loc942)
    %29 = stablehlo.or %25, %28 : tensor<16xui32> loc(#loc943)
    %30 = stablehlo.xor %23, %29 : tensor<16xui32> loc(#loc936)
    %31 = stablehlo.slice %arg6 [3:4] : (tensor<4xui32>) -> tensor<1xui32> loc(#loc933)
    %32 = stablehlo.reshape %31 : (tensor<1xui32>) -> tensor<ui32> loc(#loc934)
    %33 = stablehlo.add %23, %30 : tensor<16xui32> loc(#loc937)
    %34 = stablehlo.broadcast_in_dim %32, dims = [] : (tensor<ui32>) -> tensor<16xui32> loc(#loc940)
    %35 = stablehlo.shift_left %30, %34 : tensor<16xui32> loc(#loc940)
    %36 = stablehlo.subtract %c, %32 : tensor<ui32> loc(#loc941)
    %37 = stablehlo.broadcast_in_dim %36, dims = [] : (tensor<ui32>) -> tensor<16xui32> loc(#loc942)
    %38 = stablehlo.shift_right_logical %30, %37 : tensor<16xui32> loc(#loc942)
    %39 = stablehlo.or %35, %38 : tensor<16xui32> loc(#loc943)
    %40 = stablehlo.xor %33, %39 : tensor<16xui32> loc(#loc936)
    %41 = stablehlo.broadcast_in_dim %arg3, dims = [] : (tensor<ui32>) -> tensor<16xui32> loc(#loc937)
    %42 = stablehlo.add %33, %41 : tensor<16xui32> loc(#loc937)
    %43 = stablehlo.broadcast_in_dim %arg4, dims = [] : (tensor<ui32>) -> tensor<16xui32> loc(#loc937)
    %44 = stablehlo.add %40, %43 : tensor<16xui32> loc(#loc937)
    %45 = stablehlo.add %arg0, %c_0 : tensor<i32> loc(#loc937)
    %46 = stablehlo.convert %45 : (tensor<i32>) -> tensor<ui32> loc(#loc944)
    %47 = stablehlo.broadcast_in_dim %46, dims = [] : (tensor<ui32>) -> tensor<16xui32> loc(#loc937)
    %48 = stablehlo.add %44, %47 : tensor<16xui32> loc(#loc937)
    return %0, %42, %48, %arg4, %arg5, %arg3, %arg7, %arg6 : tensor<i32>, tensor<16xui32>, tensor<16xui32>, tensor<ui32>, tensor<ui32>, tensor<ui32>, tensor<4xui32>, tensor<4xui32> loc(#loc)
  } loc(#loc1185)
  func.func private @dynamic_index_in_dim(%arg0: tensor<16x2xui32> loc(unknown), %arg1: tensor<i32> loc(unknown)) -> tensor<2xui32> {
    %c = stablehlo.constant dense<0> : tensor<i32> loc(#loc)
    %0 = stablehlo.dynamic_slice %arg0, %arg1, %c, sizes = [1, 2] : (tensor<16x2xui32>, tensor<i32>, tensor<i32>) -> tensor<1x2xui32> loc(#loc946)
    %1 = stablehlo.reshape %0 : (tensor<1x2xui32>) -> tensor<2xui32> loc(#loc947)
    return %1 : tensor<2xui32> loc(#loc)
  } loc(#loc1186)
  func.func private @closed_call_3(%arg0: tensor<32x16xf32> loc(unknown), %arg1: tensor<1xf32> loc(unknown), %arg2: tensor<32x1xf32> loc(unknown), %arg3: tensor<32xf32> loc(unknown), %arg4: tensor<15x32xf32> loc(unknown), %arg5: tensor<32xf32> loc(unknown), %arg6: tensor<48x32xf32> loc(unknown), %arg7: tensor<32xf32> loc(unknown), %arg8: tensor<32x32xf32> loc(unknown), %arg9: tensor<32x32xf32> loc(unknown), %arg10: tensor<32x32xf32> loc(unknown), %arg11: tensor<32xf32> loc(unknown), %arg12: tensor<32x32xf32> loc(unknown), %arg13: tensor<32xf32> loc(unknown), %arg14: tensor<32x32xf32> loc(unknown), %arg15: tensor<32xf32> loc(unknown), %arg16: tensor<32x32xf32> loc(unknown), %arg17: tensor<i32> loc(unknown), %arg18: tensor<32x16xf32> loc(unknown), %arg19: tensor<1xf32> loc(unknown), %arg20: tensor<32x1xf32> loc(unknown), %arg21: tensor<32xf32> loc(unknown), %arg22: tensor<15x32xf32> loc(unknown), %arg23: tensor<32xf32> loc(unknown), %arg24: tensor<48x32xf32> loc(unknown), %arg25: tensor<32xf32> loc(unknown), %arg26: tensor<32x32xf32> loc(unknown), %arg27: tensor<32x32xf32> loc(unknown), %arg28: tensor<32x32xf32> loc(unknown), %arg29: tensor<32xf32> loc(unknown), %arg30: tensor<32x32xf32> loc(unknown), %arg31: tensor<32xf32> loc(unknown), %arg32: tensor<32x32xf32> loc(unknown), %arg33: tensor<32xf32> loc(unknown), %arg34: tensor<32x32xf32> loc(unknown), %arg35: tensor<32x16xf32> loc(unknown), %arg36: tensor<1xf32> loc(unknown), %arg37: tensor<32x1xf32> loc(unknown), %arg38: tensor<32xf32> loc(unknown), %arg39: tensor<15x32xf32> loc(unknown), %arg40: tensor<32xf32> loc(unknown), %arg41: tensor<48x32xf32> loc(unknown), %arg42: tensor<32xf32> loc(unknown), %arg43: tensor<32x32xf32> loc(unknown), %arg44: tensor<32x32xf32> loc(unknown), %arg45: tensor<32x32xf32> loc(unknown), %arg46: tensor<32xf32> loc(unknown), %arg47: tensor<32x32xf32> loc(unknown), %arg48: tensor<32xf32> loc(unknown), %arg49: tensor<32x32xf32> loc(unknown), %arg50: tensor<32xf32> loc(unknown), %arg51: tensor<32x32xf32> loc(unknown), %arg52: tensor<16x5xi32> loc(unknown), %arg53: tensor<16xi32> loc(unknown), %arg54: tensor<16x5xi32> loc(unknown), %arg55: tensor<i32> loc(unknown), %arg56: tensor<64x16xi1> loc(unknown), %arg57: tensor<64x15xf32> loc(unknown), %arg58: tensor<64xi32> loc(unknown), %arg59: tensor<64xf32> loc(unknown), %arg60: tensor<64xi1> loc(unknown), %arg61: tensor<64xi1> loc(unknown), %arg62: tensor<64xf32> loc(unknown), %arg63: tensor<64xf32> loc(unknown), %arg64: tensor<64xf32> loc(unknown), %arg65: tensor<64x5xi32> loc(unknown), %arg66: tensor<64x5xi32> loc(unknown), %arg67: tensor<64xi1> loc(unknown), %arg68: tensor<64xi32> loc(unknown), %arg69: tensor<64xi1> loc(unknown), %arg70: tensor<64x32xf32> loc(unknown), %arg71: tensor<2xui32> loc(unknown)) -> (tensor<i32>, tensor<64x16xi1>, tensor<64x15xf32>, tensor<64xi32>, tensor<64xf32>, tensor<64xi1>, tensor<64xi1>, tensor<64xf32>, tensor<64xf32>, tensor<64xf32>, tensor<64x5xi32>, tensor<64x5xi32>, tensor<64xi1>, tensor<64xi32>, tensor<64xi1>, tensor<64x32xf32>, tensor<64x16xi1>, tensor<64x15xf32>, tensor<64xi32>, tensor<64xf32>, tensor<64xi1>, tensor<64xi1>, tensor<64xf32>, tensor<64xf32>, tensor<64xf32>, tensor<64x16xi1>, tensor<64x15xf32>, tensor<64xi32>, tensor<64xf32>, tensor<64xi1>, tensor<64xi1>, tensor<64xf32>, tensor<64xf32>, tensor<64xf32>, tensor<64xf32>, tensor<64xf32>) {
    %c = stablehlo.constant dense<64> : tensor<i32> loc(#loc)
    %c_0 = stablehlo.constant dense<6> : tensor<i32> loc(#loc)
    %c_1 = stablehlo.constant dense<2> : tensor<i32> loc(#loc)
    %c_2 = stablehlo.constant dense<false> : tensor<i1> loc(#loc)
    %c_3 = stablehlo.constant dense<true> : tensor<i1> loc(#loc)
    %c_4 = stablehlo.constant dense<26> : tensor<i32> loc(#loc)
    %c_5 = stablehlo.constant dense<5> : tensor<i32> loc(#loc)
    %c_6 = stablehlo.constant dense<16> : tensor<i32> loc(#loc)
    %cst = stablehlo.constant dense<0xFF800000> : tensor<f32> loc(#loc)
    %c_7 = stablehlo.constant dense<15> : tensor<i32> loc(#loc)
    %cst_8 = stablehlo.constant dense<1.000000e+00> : tensor<f32> loc(#loc)
    %cst_9 = stablehlo.constant dense<-3.40282347E+38> : tensor<f32> loc(#loc)
    %c_10 = stablehlo.constant dense<1> : tensor<i32> loc(#loc)
    %cst_11 = stablehlo.constant dense<0.000000e+00> : tensor<f32> loc(#loc)
    %c_12 = stablehlo.constant dense<0> : tensor<i32> loc(#loc)
    %0 = call @_threefry_split(%arg71) : (tensor<2xui32>) -> tensor<2x2xui32> loc(#loc949)
    %1 = stablehlo.slice %0 [0:1, 0:2] : (tensor<2x2xui32>) -> tensor<1x2xui32> loc(#loc787)
    %2 = stablehlo.reshape %1 : (tensor<1x2xui32>) -> tensor<2xui32> loc(#loc788)
    %3 = stablehlo.slice %0 [1:2, 0:2] : (tensor<2x2xui32>) -> tensor<1x2xui32> loc(#loc787)
    %4 = stablehlo.reshape %3 : (tensor<1x2xui32>) -> tensor<2xui32> loc(#loc788)
    %5 = stablehlo.broadcast_in_dim %arg56, dims = [0, 2] : (tensor<64x16xi1>) -> tensor<64x1x16xi1> loc(#loc1188)
    %6 = stablehlo.broadcast_in_dim %arg57, dims = [0, 2] : (tensor<64x15xf32>) -> tensor<64x1x15xf32> loc(#loc1188)
    %7 = stablehlo.broadcast_in_dim %arg58, dims = [0] : (tensor<64xi32>) -> tensor<64x1xi32> loc(#loc1188)
    %8 = stablehlo.broadcast_in_dim %arg60, dims = [0] : (tensor<64xi1>) -> tensor<64x1xi1> loc(#loc1188)
    %9 = stablehlo.broadcast_in_dim %arg61, dims = [0] : (tensor<64xi1>) -> tensor<64x1xi1> loc(#loc1188)
    %10 = stablehlo.or %8, %9 : tensor<64x1xi1> loc(#loc951)
    %11 = stablehlo.dot_general %6, %arg4, contracting_dims = [2] x [0] : (tensor<64x1x15xf32>, tensor<15x32xf32>) -> tensor<64x1x32xf32> loc(#loc1189)
    %12 = stablehlo.reshape %arg3 : (tensor<32xf32>) -> tensor<1x1x32xf32> loc(#loc1190)
    %13 = stablehlo.broadcast_in_dim %12, dims = [0, 1, 2] : (tensor<1x1x32xf32>) -> tensor<64x1x32xf32> loc(#loc1191)
    %14 = stablehlo.add %11, %13 : tensor<64x1x32xf32> loc(#loc1191)
    %15 = call @relu(%14) : (tensor<64x1x32xf32>) -> tensor<64x1x32xf32> loc(#loc955)
    %16 = call @_one_hot(%7) : (tensor<64x1xi32>) -> tensor<64x1x16xf32> loc(#loc956)
    %17 = stablehlo.concatenate %15, %16, dim = 2 : (tensor<64x1x32xf32>, tensor<64x1x16xf32>) -> tensor<64x1x48xf32> loc(#loc957)
    %18 = stablehlo.dot_general %17, %arg6, contracting_dims = [2] x [0] : (tensor<64x1x48xf32>, tensor<48x32xf32>) -> tensor<64x1x32xf32> loc(#loc1839)
    %19 = stablehlo.reshape %arg5 : (tensor<32xf32>) -> tensor<1x1x32xf32> loc(#loc1840)
    %20 = stablehlo.broadcast_in_dim %19, dims = [0, 1, 2] : (tensor<1x1x32xf32>) -> tensor<64x1x32xf32> loc(#loc1841)
    %21 = stablehlo.add %18, %20 : tensor<64x1x32xf32> loc(#loc1841)
    %22 = call @relu(%21) : (tensor<64x1x32xf32>) -> tensor<64x1x32xf32> loc(#loc1633)
    %23 = stablehlo.broadcast_in_dim %cst_11, dims = [] : (tensor<f32>) -> tensor<64x32xf32> loc(#loc1842)
    %24 = stablehlo.transpose %22, dims = [1, 0, 2] : (tensor<64x1x32xf32>) -> tensor<1x64x32xf32> loc(#loc2194)
    %25 = stablehlo.transpose %10, dims = [1, 0] : (tensor<64x1xi1>) -> tensor<1x64xi1> loc(#loc2194)
    call @_where(%23) : (tensor<64x32xf32>) -> () loc(#loc2284)
    %26 = stablehlo.broadcast_in_dim %cst_11, dims = [] : (tensor<f32>) -> tensor<1x64x32xf32> loc(#loc2058)
    %27:16 = stablehlo.while(%iterArg = %24, %iterArg_13 = %25, %iterArg_14 = %23, %iterArg_15 = %arg14, %iterArg_16 = %arg13, %iterArg_17 = %arg9, %iterArg_18 = %arg16, %iterArg_19 = %arg15, %iterArg_20 = %arg10, %iterArg_21 = %arg12, %iterArg_22 = %arg11, %iterArg_23 = %arg8, %iterArg_24 = %arg7, %iterArg_25 = %c_12, %iterArg_26 = %arg70, %iterArg_27 = %26) : tensor<1x64x32xf32>, tensor<1x64xi1>, tensor<64x32xf32>, tensor<32x32xf32>, tensor<32xf32>, tensor<32x32xf32>, tensor<32x32xf32>, tensor<32xf32>, tensor<32x32xf32>, tensor<32x32xf32>, tensor<32xf32>, tensor<32x32xf32>, tensor<32xf32>, tensor<i32>, tensor<64x32xf32>, tensor<1x64x32xf32>
    cond {
      %249 = stablehlo.compare LT, %iterArg_25, %c_10, SIGNED : (tensor<i32>, tensor<i32>) -> tensor<i1> loc(#loc2196)
      stablehlo.return %249 : tensor<i1> loc(#loc2059)
    } do {
      %249 = func.call @dynamic_index_in_dim_4(%iterArg, %iterArg_25) : (tensor<1x64x32xf32>, tensor<i32>) -> tensor<64x32xf32> loc(#loc2197)
      %250 = func.call @dynamic_index_in_dim_5(%iterArg_13, %iterArg_25) : (tensor<1x64xi1>, tensor<i32>) -> tensor<64xi1> loc(#loc2197)
      %251:2 = func.call @closed_call_6(%iterArg_14, %iterArg_15, %iterArg_16, %iterArg_17, %iterArg_18, %iterArg_19, %iterArg_20, %iterArg_21, %iterArg_22, %iterArg_23, %iterArg_24, %iterArg_26, %249, %250) : (tensor<64x32xf32>, tensor<32x32xf32>, tensor<32xf32>, tensor<32x32xf32>, tensor<32x32xf32>, tensor<32xf32>, tensor<32x32xf32>, tensor<32x32xf32>, tensor<32xf32>, tensor<32x32xf32>, tensor<32xf32>, tensor<64x32xf32>, tensor<64x32xf32>, tensor<64xi1>) -> (tensor<64x32xf32>, tensor<64x32xf32>) loc(#loc2198)
      %252 = func.call @dynamic_update_index_in_dim(%iterArg_27, %251#1, %iterArg_25) : (tensor<1x64x32xf32>, tensor<64x32xf32>, tensor<i32>) -> tensor<1x64x32xf32> loc(#loc2199)
      %253 = stablehlo.add %iterArg_25, %c_10 : tensor<i32> loc(#loc2200)
      stablehlo.return %iterArg, %iterArg_13, %iterArg_14, %iterArg_15, %iterArg_16, %iterArg_17, %iterArg_18, %iterArg_19, %iterArg_20, %iterArg_21, %iterArg_22, %iterArg_23, %iterArg_24, %253, %251#0, %252 : tensor<1x64x32xf32>, tensor<1x64xi1>, tensor<64x32xf32>, tensor<32x32xf32>, tensor<32xf32>, tensor<32x32xf32>, tensor<32x32xf32>, tensor<32xf32>, tensor<32x32xf32>, tensor<32x32xf32>, tensor<32xf32>, tensor<32x32xf32>, tensor<32xf32>, tensor<i32>, tensor<64x32xf32>, tensor<1x64x32xf32> loc(#loc2059)
    } loc(#loc2059)
    %28 = stablehlo.transpose %27#15, dims = [1, 0, 2] : (tensor<1x64x32xf32>) -> tensor<64x1x32xf32> loc(#loc2201)
    %29 = stablehlo.dot_general %28, %arg0, contracting_dims = [2] x [0] : (tensor<64x1x32xf32>, tensor<32x16xf32>) -> tensor<64x1x16xf32> loc(#loc1193)
    %30 = call @_where_8(%5, %29, %cst_9) : (tensor<64x1x16xi1>, tensor<64x1x16xf32>, tensor<f32>) -> tensor<64x1x16xf32> loc(#loc960)
    %31 = stablehlo.dot_general %28, %arg2, contracting_dims = [2] x [0] : (tensor<64x1x32xf32>, tensor<32x1xf32>) -> tensor<64x1x1xf32> loc(#loc1194)
    %32 = stablehlo.reshape %arg1 : (tensor<1xf32>) -> tensor<1x1x1xf32> loc(#loc1195)
    %33 = stablehlo.broadcast_in_dim %32, dims = [0, 1, 2] : (tensor<1x1x1xf32>) -> tensor<64x1x1xf32> loc(#loc1196)
    %34 = stablehlo.add %31, %33 : tensor<64x1x1xf32> loc(#loc1196)
    %35 = call @log_softmax(%30) : (tensor<64x1x16xf32>) -> tensor<64x1x16xf32> loc(#loc1639)
    %36 = call @_gumbel(%2) : (tensor<2xui32>) -> tensor<1x64x1x16xf32> loc(#loc1847)
    %37 = stablehlo.broadcast_in_dim %cst_8, dims = [] : (tensor<f32>) -> tensor<1x64x1x16xf32> loc(#loc1848)
    %38 = stablehlo.multiply %37, %36 : tensor<1x64x1x16xf32> loc(#loc1848)
    %39 = stablehlo.broadcast_in_dim %35, dims = [1, 2, 3] : (tensor<64x1x16xf32>) -> tensor<1x64x1x16xf32> loc(#loc1849)
    %40 = stablehlo.add %39, %38 : tensor<1x64x1x16xf32> loc(#loc1850)
    %41 = call @argmax(%40) : (tensor<1x64x1x16xf32>) -> tensor<1x64x1xi32> loc(#loc1643)
    %42 = call @_one_hot_11(%41) : (tensor<1x64x1xi32>) -> tensor<1x64x1x16xf32> loc(#loc1851)
    %43 = stablehlo.broadcast_in_dim %c_12, dims = [] : (tensor<i32>) -> tensor<1x64x1xi32> loc(#loc1852)
    %44 = stablehlo.compare LT, %41, %43, SIGNED : (tensor<1x64x1xi32>, tensor<1x64x1xi32>) -> tensor<1x64x1xi1> loc(#loc1852)
    %45 = stablehlo.broadcast_in_dim %c_7, dims = [] : (tensor<i32>) -> tensor<1x64x1xi32> loc(#loc1853)
    %46 = stablehlo.compare GT, %41, %45, SIGNED : (tensor<1x64x1xi32>, tensor<1x64x1xi32>) -> tensor<1x64x1xi1> loc(#loc1853)
    %47 = stablehlo.or %44, %46 : tensor<1x64x1xi1> loc(#loc1854)
    %48 = stablehlo.broadcast_in_dim %cst_11, dims = [] : (tensor<f32>) -> tensor<1x64x1x16xf32> loc(#loc2062)
    %49 = stablehlo.compare EQ, %42, %48, FLOAT : (tensor<1x64x1x16xf32>, tensor<1x64x1x16xf32>) -> tensor<1x64x1x16xi1> loc(#loc2062)
    %50 = stablehlo.broadcast_in_dim %35, dims = [1, 2, 3] : (tensor<64x1x16xf32>) -> tensor<1x64x1x16xf32> loc(#loc2063)
    %51 = stablehlo.multiply %50, %42 : tensor<1x64x1x16xf32> loc(#loc2064)
    %52 = call @_where_12(%49, %cst_11, %51) : (tensor<1x64x1x16xi1>, tensor<f32>, tensor<1x64x1x16xf32>) -> tensor<1x64x1x16xf32> loc(#loc2065)
    %53 = stablehlo.reduce(%52 init: %cst_11) applies stablehlo.add across dimensions = [3] : (tensor<1x64x1x16xf32>, tensor<f32>) -> tensor<1x64x1xf32> loc(#loc1858)
    %54 = call @_where_13(%47, %cst, %53) : (tensor<1x64x1xi1>, tensor<f32>, tensor<1x64x1xf32>) -> tensor<1x64x1xf32> loc(#loc1859)
    %55 = stablehlo.reduce(%54 init: %cst_11) applies stablehlo.add across dimensions = [] : (tensor<1x64x1xf32>, tensor<f32>) -> tensor<1x64x1xf32> loc(#loc1392)
    %56 = stablehlo.reshape %41 : (tensor<1x64x1xi32>) -> tensor<64x1xi32> loc(#loc1200)
    %57 = stablehlo.reshape %55 : (tensor<1x64x1xf32>) -> tensor<64x1xf32> loc(#loc1200)
    %58 = stablehlo.reshape %56 : (tensor<64x1xi32>) -> tensor<64xi32> loc(#loc968)
    %59 = stablehlo.reshape %57 : (tensor<64x1xf32>) -> tensor<64xf32> loc(#loc969)
    %60 = stablehlo.reshape %34 : (tensor<64x1x1xf32>) -> tensor<64x1xf32> loc(#loc970)
    %61 = stablehlo.reshape %60 : (tensor<64x1xf32>) -> tensor<64xf32> loc(#loc971)
    %62 = call @_threefry_split_14(%4) : (tensor<2xui32>) -> tensor<64x2xui32> loc(#loc1201)
    %63 = call @_threefry_split_17(%62) : (tensor<64x2xui32>) -> tensor<64x2x2xui32> loc(#loc1393)
    %64 = stablehlo.slice %63 [0:64, 1:2, 0:2] : (tensor<64x2x2xui32>) -> tensor<64x1x2xui32> loc(#loc1203)
    %65 = stablehlo.reshape %64 : (tensor<64x1x2xui32>) -> tensor<64x2xui32> loc(#loc1204)
    %66 = stablehlo.broadcast_in_dim %c_12, dims = [] : (tensor<i32>) -> tensor<64xi32> loc(#loc1394)
    %67 = stablehlo.compare LT, %58, %66, SIGNED : (tensor<64xi32>, tensor<64xi32>) -> tensor<64xi1> loc(#loc1394)
    %68 = stablehlo.broadcast_in_dim %c_6, dims = [] : (tensor<i32>) -> tensor<64xi32> loc(#loc1395)
    %69 = stablehlo.add %58, %68 : tensor<64xi32> loc(#loc1395)
    %70 = stablehlo.select %67, %69, %58 : tensor<64xi1>, tensor<64xi32> loc(#loc1396)
    %71 = stablehlo.compare LT, %c_12, %c_12, SIGNED : (tensor<i32>, tensor<i32>) -> tensor<i1> loc(#loc1394)
    %72 = stablehlo.add %c_12, %c_5 : tensor<i32> loc(#loc1395)
    %73 = stablehlo.select %71, %72, %c_12 : tensor<i1>, tensor<i32> loc(#loc1396)
    %74 = stablehlo.broadcast_in_dim %70, dims = [0] : (tensor<64xi32>) -> tensor<64x1xi32> loc(#loc1397)
    %75 = stablehlo.broadcast_in_dim %73, dims = [] : (tensor<i32>) -> tensor<64x1xi32> loc(#loc1397)
    %76 = stablehlo.concatenate %74, %75, dim = 1 : (tensor<64x1xi32>, tensor<64x1xi32>) -> tensor<64x2xi32> loc(#loc1398)
    %77 = "stablehlo.gather"(%arg52, %76) <{dimension_numbers = #stablehlo.gather<offset_dims = [1, 2], start_index_map = [0, 1], index_vector_dim = 1>, slice_sizes = array<i64: 1, 5>}> : (tensor<16x5xi32>, tensor<64x2xi32>) -> tensor<64x1x5xi32> loc(#loc1399)
    %78 = stablehlo.reshape %77 : (tensor<64x1x5xi32>) -> tensor<64x5xi32> loc(#loc1400)
    %79 = stablehlo.iota dim = 0 : tensor<5xi32> loc(#loc1860)
    %80 = stablehlo.compare EQ, %c_4, %c_12, SIGNED : (tensor<i32>, tensor<i32>) -> tensor<i1> loc(#loc1861)
    %81 = stablehlo.broadcast_in_dim %c_12, dims = [] : (tensor<i32>) -> tensor<5xi32> loc(#loc1862)
    %82 = stablehlo.compare NE, %79, %81, SIGNED : (tensor<5xi32>, tensor<5xi32>) -> tensor<5xi1> loc(#loc1862)
    %83 = stablehlo.broadcast_in_dim %80, dims = [] : (tensor<i1>) -> tensor<5xi1> loc(#loc1863)
    %84 = stablehlo.and %83, %82 : tensor<5xi1> loc(#loc1863)
    %85 = call @_where_20(%84, %c_12, %c_10) : (tensor<5xi1>, tensor<i32>, tensor<i32>) -> tensor<5xi32> loc(#loc1864)
    %86 = stablehlo.broadcast_in_dim %c_10, dims = [] : (tensor<i32>) -> tensor<5xi32> loc(#loc1863)
    %87 = stablehlo.and %79, %86 : tensor<5xi32> loc(#loc1863)
    %88 = stablehlo.broadcast_in_dim %c_4, dims = [] : (tensor<i32>) -> tensor<5xi32> loc(#loc1865)
    %89 = stablehlo.multiply %85, %88 : tensor<5xi32> loc(#loc1865)
    %90 = call @_where_21(%87, %89, %85) : (tensor<5xi32>, tensor<5xi32>, tensor<5xi32>) -> tensor<5xi32> loc(#loc1864)
    %91 = stablehlo.multiply %c_4, %c_4 : tensor<i32> loc(#loc1865)
    %92 = stablehlo.broadcast_in_dim %c_10, dims = [] : (tensor<i32>) -> tensor<5xi32> loc(#loc1866)
    %93 = stablehlo.shift_right_logical %79, %92 : tensor<5xi32> loc(#loc1866)
    %94 = stablehlo.broadcast_in_dim %c_10, dims = [] : (tensor<i32>) -> tensor<5xi32> loc(#loc1863)
    %95 = stablehlo.and %93, %94 : tensor<5xi32> loc(#loc1863)
    %96 = stablehlo.broadcast_in_dim %91, dims = [] : (tensor<i32>) -> tensor<5xi32> loc(#loc1865)
    %97 = stablehlo.multiply %90, %96 : tensor<5xi32> loc(#loc1865)
    %98 = call @_where_21(%95, %97, %90) : (tensor<5xi32>, tensor<5xi32>, tensor<5xi32>) -> tensor<5xi32> loc(#loc1864)
    %99 = stablehlo.multiply %91, %91 : tensor<i32> loc(#loc1865)
    %100 = stablehlo.broadcast_in_dim %c_10, dims = [] : (tensor<i32>) -> tensor<5xi32> loc(#loc1866)
    %101 = stablehlo.shift_right_logical %93, %100 : tensor<5xi32> loc(#loc1866)
    %102 = stablehlo.broadcast_in_dim %c_10, dims = [] : (tensor<i32>) -> tensor<5xi32> loc(#loc1863)
    %103 = stablehlo.and %101, %102 : tensor<5xi32> loc(#loc1863)
    %104 = stablehlo.broadcast_in_dim %99, dims = [] : (tensor<i32>) -> tensor<5xi32> loc(#loc1865)
    %105 = stablehlo.multiply %98, %104 : tensor<5xi32> loc(#loc1865)
    %106 = call @_where_21(%103, %105, %98) : (tensor<5xi32>, tensor<5xi32>, tensor<5xi32>) -> tensor<5xi32> loc(#loc1864)
    %107 = stablehlo.multiply %99, %99 : tensor<i32> loc(#loc1865)
    %108 = stablehlo.broadcast_in_dim %c_10, dims = [] : (tensor<i32>) -> tensor<5xi32> loc(#loc1866)
    %109 = stablehlo.shift_right_logical %101, %108 : tensor<5xi32> loc(#loc1866)
    %110 = stablehlo.broadcast_in_dim %c_10, dims = [] : (tensor<i32>) -> tensor<5xi32> loc(#loc1863)
    %111 = stablehlo.and %109, %110 : tensor<5xi32> loc(#loc1863)
    %112 = stablehlo.broadcast_in_dim %107, dims = [] : (tensor<i32>) -> tensor<5xi32> loc(#loc1865)
    %113 = stablehlo.multiply %106, %112 : tensor<5xi32> loc(#loc1865)
    %114 = call @_where_21(%111, %113, %106) : (tensor<5xi32>, tensor<5xi32>, tensor<5xi32>) -> tensor<5xi32> loc(#loc1864)
    %115 = stablehlo.multiply %107, %107 : tensor<i32> loc(#loc1865)
    %116 = stablehlo.broadcast_in_dim %c_10, dims = [] : (tensor<i32>) -> tensor<5xi32> loc(#loc1866)
    %117 = stablehlo.shift_right_logical %109, %116 : tensor<5xi32> loc(#loc1866)
    %118 = stablehlo.broadcast_in_dim %c_10, dims = [] : (tensor<i32>) -> tensor<5xi32> loc(#loc1863)
    %119 = stablehlo.and %117, %118 : tensor<5xi32> loc(#loc1863)
    %120 = stablehlo.broadcast_in_dim %115, dims = [] : (tensor<i32>) -> tensor<5xi32> loc(#loc1865)
    %121 = stablehlo.multiply %114, %120 : tensor<5xi32> loc(#loc1865)
    %122 = call @_where_21(%119, %121, %114) : (tensor<5xi32>, tensor<5xi32>, tensor<5xi32>) -> tensor<5xi32> loc(#loc1864)
    %123 = stablehlo.multiply %115, %115 : tensor<i32> loc(#loc1865)
    %124 = stablehlo.broadcast_in_dim %c_10, dims = [] : (tensor<i32>) -> tensor<5xi32> loc(#loc1866)
    %125 = stablehlo.shift_right_logical %117, %124 : tensor<5xi32> loc(#loc1866)
    %126 = stablehlo.broadcast_in_dim %c_10, dims = [] : (tensor<i32>) -> tensor<5xi32> loc(#loc1863)
    %127 = stablehlo.and %125, %126 : tensor<5xi32> loc(#loc1863)
    %128 = stablehlo.broadcast_in_dim %123, dims = [] : (tensor<i32>) -> tensor<5xi32> loc(#loc1865)
    %129 = stablehlo.multiply %122, %128 : tensor<5xi32> loc(#loc1865)
    %130 = call @_where_21(%127, %129, %122) : (tensor<5xi32>, tensor<5xi32>, tensor<5xi32>) -> tensor<5xi32> loc(#loc1864)
    %131 = stablehlo.broadcast_in_dim %130, dims = [1] : (tensor<5xi32>) -> tensor<1x5xi32> loc(#loc1867)
    %132 = stablehlo.broadcast_in_dim %131, dims = [0, 1] : (tensor<1x5xi32>) -> tensor<64x5xi32> loc(#loc1868)
    %133 = stablehlo.multiply %78, %132 : tensor<64x5xi32> loc(#loc1868)
    %134 = stablehlo.reduce(%133 init: %c_12) applies stablehlo.add across dimensions = [1] : (tensor<64x5xi32>, tensor<i32>) -> tensor<64xi32> loc(#loc1869)
    %135 = call @searchsorted(%arg53, %134) : (tensor<16xi32>, tensor<64xi32>) -> tensor<64xi32> loc(#loc1870)
    %136 = call @clip(%135, %c_12, %c_7) : (tensor<64xi32>, tensor<i32>, tensor<i32>) -> tensor<64xi32> loc(#loc1871)
    %137 = stablehlo.broadcast_in_dim %c_12, dims = [] : (tensor<i32>) -> tensor<64xi32> loc(#loc1872)
    %138 = stablehlo.compare LT, %136, %137, SIGNED : (tensor<64xi32>, tensor<64xi32>) -> tensor<64xi1> loc(#loc1872)
    %139 = stablehlo.broadcast_in_dim %c_6, dims = [] : (tensor<i32>) -> tensor<64xi32> loc(#loc1873)
    %140 = stablehlo.add %136, %139 : tensor<64xi32> loc(#loc1873)
    %141 = stablehlo.select %138, %140, %136 : tensor<64xi1>, tensor<64xi32> loc(#loc1874)
    %142 = stablehlo.broadcast_in_dim %141, dims = [0] : (tensor<64xi32>) -> tensor<64x1xi32> loc(#loc1875)
    %143 = "stablehlo.gather"(%arg53, %142) <{dimension_numbers = #stablehlo.gather<offset_dims = [1], start_index_map = [0], index_vector_dim = 1>, slice_sizes = array<i64: 1>}> : (tensor<16xi32>, tensor<64x1xi32>) -> tensor<64x1xi32> loc(#loc1876)
    %144 = stablehlo.reshape %143 : (tensor<64x1xi32>) -> tensor<64xi32> loc(#loc1877)
    %145 = stablehlo.compare EQ, %144, %134, SIGNED : (tensor<64xi32>, tensor<64xi32>) -> tensor<64xi1> loc(#loc1878)
    %146 = stablehlo.compare EQ, %78, %arg65, SIGNED : (tensor<64x5xi32>, tensor<64x5xi32>) -> tensor<64x5xi1> loc(#loc1659)
    %147 = stablehlo.reduce(%146 init: %c_3) applies stablehlo.and across dimensions = [1] : (tensor<64x5xi1>, tensor<i1>) -> tensor<64xi1> loc(#loc1660)
    %148 = stablehlo.compare EQ, %78, %arg65, SIGNED : (tensor<64x5xi32>, tensor<64x5xi32>) -> tensor<64x5xi1> loc(#loc1879)
    %149 = stablehlo.broadcast_in_dim %c_12, dims = [] : (tensor<i32>) -> tensor<26xi32> loc(#loc1880)
    %150 = stablehlo.not %148 : tensor<64x5xi1> loc(#loc1881)
    %151 = stablehlo.convert %150 : (tensor<64x5xi1>) -> tensor<64x5xi32> loc(#loc1882)
    %152 = stablehlo.broadcast_in_dim %c_12, dims = [] : (tensor<i32>) -> tensor<64x5xi32> loc(#loc1883)
    %153 = stablehlo.compare LT, %arg65, %152, SIGNED : (tensor<64x5xi32>, tensor<64x5xi32>) -> tensor<64x5xi1> loc(#loc1883)
    %154 = stablehlo.broadcast_in_dim %c_4, dims = [] : (tensor<i32>) -> tensor<64x5xi32> loc(#loc1884)
    %155 = stablehlo.add %arg65, %154 : tensor<64x5xi32> loc(#loc1884)
    %156 = stablehlo.select %153, %155, %arg65 : tensor<64x5xi1>, tensor<64x5xi32> loc(#loc1885)
    %157 = stablehlo.broadcast_in_dim %156, dims = [0, 1] : (tensor<64x5xi32>) -> tensor<64x5x1xi32> loc(#loc1886)
    %158 = stablehlo.broadcast_in_dim %149, dims = [1] : (tensor<26xi32>) -> tensor<64x26xi32> loc(#loc1886)
    %159 = "stablehlo.scatter"(%158, %157, %151) <{scatter_dimension_numbers = #stablehlo.scatter<inserted_window_dims = [1], input_batching_dims = [0], scatter_indices_batching_dims = [0], scatter_dims_to_operand_dims = [1], index_vector_dim = 2>}> ({
    ^bb0(%arg72: tensor<i32> loc("scatter-add:"(#loc211)), %arg73: tensor<i32> loc("scatter-add:"(#loc211))):
      %249 = stablehlo.add %arg72, %arg73 : tensor<i32> loc(#loc1884)
      stablehlo.return %249 : tensor<i32> loc(#loc1887)
    }) : (tensor<64x26xi32>, tensor<64x5x1xi32>, tensor<64x5xi32>) -> tensor<64x26xi32> loc(#loc1887)
    %160 = stablehlo.transpose %78, dims = [1, 0] : (tensor<64x5xi32>) -> tensor<5x64xi32> loc(#loc1888)
    %161 = stablehlo.transpose %148, dims = [1, 0] : (tensor<64x5xi1>) -> tensor<5x64xi1> loc(#loc1888)
    %162 = stablehlo.broadcast_in_dim %c_2, dims = [] : (tensor<i1>) -> tensor<5x64xi1> loc(#loc2066)
    %163:5 = stablehlo.while(%iterArg = %160, %iterArg_13 = %161, %iterArg_14 = %c_12, %iterArg_15 = %159, %iterArg_16 = %162) : tensor<5x64xi32>, tensor<5x64xi1>, tensor<i32>, tensor<64x26xi32>, tensor<5x64xi1>
    cond {
      %249 = stablehlo.compare LT, %iterArg_14, %c_5, SIGNED : (tensor<i32>, tensor<i32>) -> tensor<i1> loc(#loc2202)
      stablehlo.return %249 : tensor<i1> loc(#loc2067)
    } do {
      %249 = func.call @dynamic_index_in_dim_23(%iterArg, %iterArg_14) : (tensor<5x64xi32>, tensor<i32>) -> tensor<64xi32> loc(#loc2203)
      %250 = func.call @dynamic_index_in_dim_24(%iterArg_13, %iterArg_14) : (tensor<5x64xi1>, tensor<i32>) -> tensor<64xi1> loc(#loc2203)
      %251:2 = func.call @closed_call_25(%iterArg_15, %249, %250) : (tensor<64x26xi32>, tensor<64xi32>, tensor<64xi1>) -> (tensor<64x26xi32>, tensor<64xi1>) loc(#loc2204)
      %252 = func.call @dynamic_update_index_in_dim_26(%iterArg_16, %251#1, %iterArg_14) : (tensor<5x64xi1>, tensor<64xi1>, tensor<i32>) -> tensor<5x64xi1> loc(#loc2205)
      %253 = stablehlo.add %iterArg_14, %c_10 : tensor<i32> loc(#loc2206)
      stablehlo.return %iterArg, %iterArg_13, %253, %251#0, %252 : tensor<5x64xi32>, tensor<5x64xi1>, tensor<i32>, tensor<64x26xi32>, tensor<5x64xi1> loc(#loc2067)
    } loc(#loc2067)
    %164 = call @_where_27(%163#4, %c_10, %c_12) : (tensor<5x64xi1>, tensor<i32>, tensor<i32>) -> tensor<64x5xi32> loc(#loc1890)
    %165 = call @_where_28(%148, %c_1, %164) : (tensor<64x5xi1>, tensor<i32>, tensor<64x5xi32>) -> tensor<64x5xi32> loc(#loc1891)
    %166 = call @_where_29(%145, %165, %c_12) : (tensor<64xi1>, tensor<64x5xi32>, tensor<i32>) -> tensor<64x5xi32> loc(#loc1669)
    %167 = stablehlo.convert %145 : (tensor<64xi1>) -> tensor<64xi32> loc(#loc1670)
    %168 = stablehlo.add %arg68, %167 : tensor<64xi32> loc(#loc1671)
    %169 = stablehlo.convert %147 : (tensor<64xi1>) -> tensor<64xf32> loc(#loc1672)
    %170 = stablehlo.broadcast_in_dim %c_1, dims = [] : (tensor<i32>) -> tensor<64x5xi32> loc(#loc1673)
    %171 = stablehlo.compare EQ, %166, %170, SIGNED : (tensor<64x5xi32>, tensor<64x5xi32>) -> tensor<64x5xi1> loc(#loc1673)
    %172 = stablehlo.convert %171 : (tensor<64x5xi1>) -> tensor<64x5xi32> loc(#loc1674)
    %173 = stablehlo.reduce(%172 init: %c_12) applies stablehlo.add across dimensions = [1] : (tensor<64x5xi32>, tensor<i32>) -> tensor<64xi32> loc(#loc1675)
    %174 = stablehlo.convert %173 : (tensor<64xi32>) -> tensor<64xf32> loc(#loc1676)
    %175 = stablehlo.broadcast_in_dim %cst_11, dims = [] : (tensor<f32>) -> tensor<64xf32> loc(#loc1677)
    %176 = stablehlo.multiply %175, %174 : tensor<64xf32> loc(#loc1677)
    %177 = stablehlo.add %169, %176 : tensor<64xf32> loc(#loc1678)
    %178 = stablehlo.broadcast_in_dim %c_10, dims = [] : (tensor<i32>) -> tensor<64x5xi32> loc(#loc1679)
    %179 = stablehlo.compare EQ, %166, %178, SIGNED : (tensor<64x5xi32>, tensor<64x5xi32>) -> tensor<64x5xi1> loc(#loc1679)
    %180 = stablehlo.convert %179 : (tensor<64x5xi1>) -> tensor<64x5xi32> loc(#loc1680)
    %181 = stablehlo.reduce(%180 init: %c_12) applies stablehlo.add across dimensions = [1] : (tensor<64x5xi32>, tensor<i32>) -> tensor<64xi32> loc(#loc1681)
    %182 = stablehlo.convert %181 : (tensor<64xi32>) -> tensor<64xf32> loc(#loc1682)
    %183 = stablehlo.broadcast_in_dim %cst_11, dims = [] : (tensor<f32>) -> tensor<64xf32> loc(#loc1683)
    %184 = stablehlo.multiply %183, %182 : tensor<64xf32> loc(#loc1683)
    %185 = stablehlo.add %177, %184 : tensor<64xf32> loc(#loc1684)
    %186 = stablehlo.not %145 : tensor<64xi1> loc(#loc1685)
    %187 = stablehlo.convert %186 : (tensor<64xi1>) -> tensor<64xf32> loc(#loc1686)
    %188 = stablehlo.broadcast_in_dim %cst_11, dims = [] : (tensor<f32>) -> tensor<64xf32> loc(#loc1687)
    %189 = stablehlo.multiply %188, %187 : tensor<64xf32> loc(#loc1687)
    %190 = stablehlo.subtract %185, %189 : tensor<64xf32> loc(#loc1688)
    %191 = stablehlo.broadcast_in_dim %c_0, dims = [] : (tensor<i32>) -> tensor<64xi32> loc(#loc1689)
    %192 = stablehlo.compare GE, %168, %191, SIGNED : (tensor<64xi32>, tensor<64xi32>) -> tensor<64xi1> loc(#loc1689)
    %193 = stablehlo.or %147, %192 : tensor<64xi1> loc(#loc1690)
    %194 = stablehlo.convert %147 : (tensor<64xi1>) -> tensor<64xf32> loc(#loc1691)
    %195 = stablehlo.convert %168 : (tensor<64xi32>) -> tensor<64xf32> loc(#loc1692)
    %196 = stablehlo.not %145 : tensor<64xi1> loc(#loc1693)
    %197 = stablehlo.convert %196 : (tensor<64xi1>) -> tensor<64xf32> loc(#loc1694)
    %198 = call @_one_hot_30(%165) : (tensor<64x5xi32>) -> tensor<64x5x3xf32> loc(#loc1892)
    %199 = stablehlo.reshape %198 : (tensor<64x5x3xf32>) -> tensor<64x15xf32> loc(#loc1893)
    %200 = call @_where_31(%145, %199, %cst_11) : (tensor<64xi1>, tensor<64x15xf32>, tensor<f32>) -> tensor<64x15xf32> loc(#loc1894)
    %201 = stablehlo.broadcast_in_dim %c_3, dims = [] : (tensor<i1>) -> tensor<16xi1> loc(#loc1698)
    %202 = call @_randint(%65, %c_12, %c_6) : (tensor<64x2xui32>, tensor<i32>, tensor<i32>) -> tensor<64xi32> loc(#loc1699)
    %203 = stablehlo.broadcast_in_dim %c_12, dims = [] : (tensor<i32>) -> tensor<64xi32> loc(#loc1700)
    %204 = stablehlo.compare LT, %202, %203, SIGNED : (tensor<64xi32>, tensor<64xi32>) -> tensor<64xi1> loc(#loc1700)
    %205 = stablehlo.broadcast_in_dim %c_6, dims = [] : (tensor<i32>) -> tensor<64xi32> loc(#loc1701)
    %206 = stablehlo.add %202, %205 : tensor<64xi32> loc(#loc1701)
    %207 = stablehlo.select %204, %206, %202 : tensor<64xi1>, tensor<64xi32> loc(#loc1702)
    %208 = stablehlo.compare LT, %c_12, %c_12, SIGNED : (tensor<i32>, tensor<i32>) -> tensor<i1> loc(#loc1700)
    %209 = stablehlo.add %c_12, %c_5 : tensor<i32> loc(#loc1701)
    %210 = stablehlo.select %208, %209, %c_12 : tensor<i1>, tensor<i32> loc(#loc1702)
    %211 = stablehlo.broadcast_in_dim %207, dims = [0] : (tensor<64xi32>) -> tensor<64x1xi32> loc(#loc1703)
    %212 = stablehlo.broadcast_in_dim %210, dims = [] : (tensor<i32>) -> tensor<64x1xi32> loc(#loc1703)
    %213 = stablehlo.concatenate %211, %212, dim = 1 : (tensor<64x1xi32>, tensor<64x1xi32>) -> tensor<64x2xi32> loc(#loc1704)
    %214 = "stablehlo.gather"(%arg54, %213) <{dimension_numbers = #stablehlo.gather<offset_dims = [1, 2], start_index_map = [0, 1], index_vector_dim = 1>, slice_sizes = array<i64: 1, 5>}> : (tensor<16x5xi32>, tensor<64x2xi32>) -> tensor<64x1x5xi32> loc(#loc1705)
    %215 = stablehlo.reshape %214 : (tensor<64x1x5xi32>) -> tensor<64x5xi32> loc(#loc1706)
    %216 = stablehlo.broadcast_in_dim %c_12, dims = [] : (tensor<i32>) -> tensor<5xi32> loc(#loc1707)
    %217 = call @_one_hot_36(%216) : (tensor<5xi32>) -> tensor<5x3xf32> loc(#loc1895)
    %218 = stablehlo.reshape %217 : (tensor<5x3xf32>) -> tensor<15xf32> loc(#loc1896)
    %219 = call @_where_37(%c_2, %218, %cst_11) : (tensor<i1>, tensor<15xf32>, tensor<f32>) -> tensor<15xf32> loc(#loc1897)
    %220 = stablehlo.broadcast_in_dim %c_3, dims = [] : (tensor<i1>) -> tensor<16xi1> loc(#loc1711)
    %221 = stablehlo.broadcast_in_dim %c_2, dims = [] : (tensor<i1>) -> tensor<64xi1> loc(#loc1437)
    %222 = stablehlo.or %193, %221 : tensor<64xi1> loc(#loc1437)
    %223 = stablehlo.broadcast_in_dim %222, dims = [0] : (tensor<64xi1>) -> tensor<64x5xi1> loc(#loc1438)
    %224 = stablehlo.select %223, %215, %arg65 : tensor<64x5xi1>, tensor<64x5xi32> loc(#loc1439)
    %225 = stablehlo.broadcast_in_dim %216, dims = [1] : (tensor<5xi32>) -> tensor<64x5xi32> loc(#loc1438)
    %226 = stablehlo.broadcast_in_dim %222, dims = [0] : (tensor<64xi1>) -> tensor<64x5xi1> loc(#loc1438)
    %227 = stablehlo.select %226, %225, %165 : tensor<64x5xi1>, tensor<64x5xi32> loc(#loc1439)
    %228 = stablehlo.broadcast_in_dim %c_2, dims = [] : (tensor<i1>) -> tensor<64xi1> loc(#loc1438)
    %229 = stablehlo.select %222, %228, %145 : tensor<64xi1>, tensor<64xi1> loc(#loc1439)
    %230 = stablehlo.broadcast_in_dim %c_12, dims = [] : (tensor<i32>) -> tensor<64xi32> loc(#loc1438)
    %231 = stablehlo.select %222, %230, %168 : tensor<64xi1>, tensor<64xi32> loc(#loc1439)
    %232 = stablehlo.broadcast_in_dim %c_2, dims = [] : (tensor<i1>) -> tensor<64xi1> loc(#loc1438)
    %233 = stablehlo.select %222, %232, %147 : tensor<64xi1>, tensor<64xi1> loc(#loc1439)
    %234 = stablehlo.broadcast_in_dim %201, dims = [1] : (tensor<16xi1>) -> tensor<64x16xi1> loc(#loc1440)
    %235 = stablehlo.broadcast_in_dim %220, dims = [1] : (tensor<16xi1>) -> tensor<64x16xi1> loc(#loc1440)
    %236 = stablehlo.broadcast_in_dim %222, dims = [0] : (tensor<64xi1>) -> tensor<64x16xi1> loc(#loc1440)
    %237 = stablehlo.select %236, %235, %234 : tensor<64x16xi1>, tensor<64x16xi1> loc(#loc1441)
    %238 = stablehlo.broadcast_in_dim %219, dims = [1] : (tensor<15xf32>) -> tensor<64x15xf32> loc(#loc1440)
    %239 = stablehlo.broadcast_in_dim %222, dims = [0] : (tensor<64xi1>) -> tensor<64x15xi1> loc(#loc1440)
    %240 = stablehlo.select %239, %238, %200 : tensor<64x15xi1>, tensor<64x15xf32> loc(#loc1441)
    %241 = stablehlo.broadcast_in_dim %c_2, dims = [] : (tensor<i1>) -> tensor<64xi1> loc(#loc980)
    %242 = stablehlo.add %arg55, %c : tensor<i32> loc(#loc808)
    %243 = stablehlo.or %193, %241 : tensor<64xi1> loc(#loc981)
    %244 = stablehlo.broadcast_in_dim %c_12, dims = [] : (tensor<i32>) -> tensor<64xi32> loc(#loc810)
    %245 = call @_where_38(%243, %244, %58) : (tensor<64xi1>, tensor<64xi32>, tensor<64xi32>) -> tensor<64xi32> loc(#loc811)
    %246 = stablehlo.or %193, %241 : tensor<64xi1> loc(#loc982)
    %247 = stablehlo.broadcast_in_dim %cst_11, dims = [] : (tensor<f32>) -> tensor<64xf32> loc(#loc813)
    %248 = call @_where_39(%246, %247, %190) : (tensor<64xi1>, tensor<64xf32>, tensor<64xf32>) -> tensor<64xf32> loc(#loc814)
    return %242, %237, %240, %245, %248, %193, %241, %195, %197, %194, %224, %227, %229, %231, %233, %27#14, %arg56, %arg57, %arg58, %arg59, %arg60, %arg61, %arg62, %arg63, %arg64, %237, %240, %58, %190, %193, %241, %195, %197, %194, %59, %61 : tensor<i32>, tensor<64x16xi1>, tensor<64x15xf32>, tensor<64xi32>, tensor<64xf32>, tensor<64xi1>, tensor<64xi1>, tensor<64xf32>, tensor<64xf32>, tensor<64xf32>, tensor<64x5xi32>, tensor<64x5xi32>, tensor<64xi1>, tensor<64xi32>, tensor<64xi1>, tensor<64x32xf32>, tensor<64x16xi1>, tensor<64x15xf32>, tensor<64xi32>, tensor<64xf32>, tensor<64xi1>, tensor<64xi1>, tensor<64xf32>, tensor<64xf32>, tensor<64xf32>, tensor<64x16xi1>, tensor<64x15xf32>, tensor<64xi32>, tensor<64xf32>, tensor<64xi1>, tensor<64xi1>, tensor<64xf32>, tensor<64xf32>, tensor<64xf32>, tensor<64xf32>, tensor<64xf32> loc(#loc)
  } loc(#loc1187)
  func.func private @relu(%arg0: tensor<64x1x32xf32> loc(unknown)) -> tensor<64x1x32xf32> {
    %cst = stablehlo.constant dense<0.000000e+00> : tensor<f32> loc(#loc)
    %0 = stablehlo.broadcast_in_dim %cst, dims = [] : (tensor<f32>) -> tensor<64x1x32xf32> loc(#loc264)
    %1 = stablehlo.maximum %arg0, %0 : tensor<64x1x32xf32> loc(#loc264)
    return %1 : tensor<64x1x32xf32> loc(#loc)
  } loc(#loc630)
  func.func private @_one_hot(%arg0: tensor<64x1xi32> loc(unknown)) -> tensor<64x1x16xf32> {
    %0 = stablehlo.broadcast_in_dim %arg0, dims = [0, 1] : (tensor<64x1xi32>) -> tensor<64x1x1xi32> loc(#loc265)
    %1 = stablehlo.iota dim = 2 : tensor<1x1x16xi32> loc(#loc266)
    %2 = stablehlo.broadcast_in_dim %0, dims = [0, 1, 2] : (tensor<64x1x1xi32>) -> tensor<64x1x16xi32> loc(#loc267)
    %3 = stablehlo.broadcast_in_dim %1, dims = [0, 1, 2] : (tensor<1x1x16xi32>) -> tensor<64x1x16xi32> loc(#loc267)
    %4 = stablehlo.compare EQ, %2, %3, SIGNED : (tensor<64x1x16xi32>, tensor<64x1x16xi32>) -> tensor<64x1x16xi1> loc(#loc267)
    %5 = stablehlo.convert %4 : (tensor<64x1x16xi1>) -> tensor<64x1x16xf32> loc(#loc147)
    return %5 : tensor<64x1x16xf32> loc(#loc)
  } loc(#loc1213)
  func.func private @_where(%arg0: tensor<64x32xf32> loc(unknown)) {
    return loc(#loc)
  } loc(#loc2291)
  func.func private @dynamic_index_in_dim_4(%arg0: tensor<1x64x32xf32> loc(unknown), %arg1: tensor<i32> loc(unknown)) -> tensor<64x32xf32> {
    %c = stablehlo.constant dense<0> : tensor<i32> loc(#loc)
    %0 = stablehlo.dynamic_slice %arg0, %arg1, %c, %c, sizes = [1, 64, 32] : (tensor<1x64x32xf32>, tensor<i32>, tensor<i32>, tensor<i32>) -> tensor<1x64x32xf32> loc(#loc268)
    %1 = stablehlo.reshape %0 : (tensor<1x64x32xf32>) -> tensor<64x32xf32> loc(#loc134)
    return %1 : tensor<64x32xf32> loc(#loc)
  } loc(#loc2069)
  func.func private @dynamic_index_in_dim_5(%arg0: tensor<1x64xi1> loc(unknown), %arg1: tensor<i32> loc(unknown)) -> tensor<64xi1> {
    %c = stablehlo.constant dense<0> : tensor<i32> loc(#loc)
    %0 = stablehlo.dynamic_slice %arg0, %arg1, %c, sizes = [1, 64] : (tensor<1x64xi1>, tensor<i32>, tensor<i32>) -> tensor<1x64xi1> loc(#loc268)
    %1 = stablehlo.reshape %0 : (tensor<1x64xi1>) -> tensor<64xi1> loc(#loc134)
    return %1 : tensor<64xi1> loc(#loc)
  } loc(#loc2069)
  func.func private @closed_call_6(%arg0: tensor<64x32xf32> loc(unknown), %arg1: tensor<32x32xf32> loc(unknown), %arg2: tensor<32xf32> loc(unknown), %arg3: tensor<32x32xf32> loc(unknown), %arg4: tensor<32x32xf32> loc(unknown), %arg5: tensor<32xf32> loc(unknown), %arg6: tensor<32x32xf32> loc(unknown), %arg7: tensor<32x32xf32> loc(unknown), %arg8: tensor<32xf32> loc(unknown), %arg9: tensor<32x32xf32> loc(unknown), %arg10: tensor<32xf32> loc(unknown), %arg11: tensor<64x32xf32> loc(unknown), %arg12: tensor<64x32xf32> loc(unknown), %arg13: tensor<64xi1> loc(unknown)) -> (tensor<64x32xf32>, tensor<64x32xf32>) {
    %cst = stablehlo.constant dense<1.000000e+00> : tensor<f32> loc(#loc)
    %0 = stablehlo.reshape %arg13 : (tensor<64xi1>) -> tensor<64x1xi1> loc(#loc1712)
    %1 = call @_where_7(%0, %arg0, %arg11) : (tensor<64x1xi1>, tensor<64x32xf32>, tensor<64x32xf32>) -> tensor<64x32xf32> loc(#loc1443)
    %2 = stablehlo.dot_general %arg12, %arg1, contracting_dims = [1] x [0] : (tensor<64x32xf32>, tensor<32x32xf32>) -> tensor<64x32xf32> loc(#loc1444)
    %3 = stablehlo.reshape %arg2 : (tensor<32xf32>) -> tensor<1x32xf32> loc(#loc1445)
    %4 = stablehlo.broadcast_in_dim %3, dims = [0, 1] : (tensor<1x32xf32>) -> tensor<64x32xf32> loc(#loc1446)
    %5 = stablehlo.add %2, %4 : tensor<64x32xf32> loc(#loc1446)
    %6 = stablehlo.dot_general %1, %arg3, contracting_dims = [1] x [0] : (tensor<64x32xf32>, tensor<32x32xf32>) -> tensor<64x32xf32> loc(#loc1447)
    %7 = stablehlo.add %5, %6 : tensor<64x32xf32> loc(#loc1220)
    %8 = stablehlo.negate %7 : tensor<64x32xf32> loc(#loc1448)
    %9 = stablehlo.exponential %8 : tensor<64x32xf32> loc(#loc1449)
    %10 = stablehlo.broadcast_in_dim %cst, dims = [] : (tensor<f32>) -> tensor<64x32xf32> loc(#loc1450)
    %11 = stablehlo.add %10, %9 : tensor<64x32xf32> loc(#loc1450)
    %12 = stablehlo.broadcast_in_dim %cst, dims = [] : (tensor<f32>) -> tensor<64x32xf32> loc(#loc1451)
    %13 = stablehlo.divide %12, %11 : tensor<64x32xf32> loc(#loc1451)
    %14 = stablehlo.dot_general %arg12, %arg4, contracting_dims = [1] x [0] : (tensor<64x32xf32>, tensor<32x32xf32>) -> tensor<64x32xf32> loc(#loc1452)
    %15 = stablehlo.reshape %arg5 : (tensor<32xf32>) -> tensor<1x32xf32> loc(#loc1453)
    %16 = stablehlo.broadcast_in_dim %15, dims = [0, 1] : (tensor<1x32xf32>) -> tensor<64x32xf32> loc(#loc1454)
    %17 = stablehlo.add %14, %16 : tensor<64x32xf32> loc(#loc1454)
    %18 = stablehlo.dot_general %1, %arg6, contracting_dims = [1] x [0] : (tensor<64x32xf32>, tensor<32x32xf32>) -> tensor<64x32xf32> loc(#loc1455)
    %19 = stablehlo.add %17, %18 : tensor<64x32xf32> loc(#loc1226)
    %20 = stablehlo.negate %19 : tensor<64x32xf32> loc(#loc1456)
    %21 = stablehlo.exponential %20 : tensor<64x32xf32> loc(#loc1457)
    %22 = stablehlo.broadcast_in_dim %cst, dims = [] : (tensor<f32>) -> tensor<64x32xf32> loc(#loc1458)
    %23 = stablehlo.add %22, %21 : tensor<64x32xf32> loc(#loc1458)
    %24 = stablehlo.broadcast_in_dim %cst, dims = [] : (tensor<f32>) -> tensor<64x32xf32> loc(#loc1459)
    %25 = stablehlo.divide %24, %23 : tensor<64x32xf32> loc(#loc1459)
    %26 = stablehlo.dot_general %arg12, %arg7, contracting_dims = [1] x [0] : (tensor<64x32xf32>, tensor<32x32xf32>) -> tensor<64x32xf32> loc(#loc1460)
    %27 = stablehlo.reshape %arg8 : (tensor<32xf32>) -> tensor<1x32xf32> loc(#loc1461)
    %28 = stablehlo.broadcast_in_dim %27, dims = [0, 1] : (tensor<1x32xf32>) -> tensor<64x32xf32> loc(#loc1462)
    %29 = stablehlo.add %26, %28 : tensor<64x32xf32> loc(#loc1462)
    %30 = stablehlo.dot_general %1, %arg9, contracting_dims = [1] x [0] : (tensor<64x32xf32>, tensor<32x32xf32>) -> tensor<64x32xf32> loc(#loc1463)
    %31 = stablehlo.reshape %arg10 : (tensor<32xf32>) -> tensor<1x32xf32> loc(#loc1464)
    %32 = stablehlo.broadcast_in_dim %31, dims = [0, 1] : (tensor<1x32xf32>) -> tensor<64x32xf32> loc(#loc1465)
    %33 = stablehlo.add %30, %32 : tensor<64x32xf32> loc(#loc1465)
    %34 = stablehlo.multiply %13, %33 : tensor<64x32xf32> loc(#loc1234)
    %35 = stablehlo.add %29, %34 : tensor<64x32xf32> loc(#loc1235)
    %36 = stablehlo.tanh %35 : tensor<64x32xf32> loc(#loc1236)
    %37 = stablehlo.broadcast_in_dim %cst, dims = [] : (tensor<f32>) -> tensor<64x32xf32> loc(#loc1237)
    %38 = stablehlo.subtract %37, %25 : tensor<64x32xf32> loc(#loc1237)
    %39 = stablehlo.multiply %38, %36 : tensor<64x32xf32> loc(#loc1238)
    %40 = stablehlo.multiply %25, %1 : tensor<64x32xf32> loc(#loc1239)
    %41 = stablehlo.add %39, %40 : tensor<64x32xf32> loc(#loc1240)
    return %41, %41 : tensor<64x32xf32>, tensor<64x32xf32> loc(#loc)
  } loc(#loc2070)
  func.func private @_where_7(%arg0: tensor<64x1xi1> loc(unknown), %arg1: tensor<64x32xf32> loc(unknown), %arg2: tensor<64x32xf32> loc(unknown)) -> tensor<64x32xf32> {
    %0 = stablehlo.broadcast_in_dim %arg0, dims = [0, 1] : (tensor<64x1xi1>) -> tensor<64x32xi1> loc(#loc265)
    %1 = stablehlo.select %0, %arg1, %arg2 : tensor<64x32xi1>, tensor<64x32xf32> loc(#loc289)
    return %1 : tensor<64x32xf32> loc(#loc)
  } loc(#loc1713)
  func.func private @dynamic_update_index_in_dim(%arg0: tensor<1x64x32xf32> loc(unknown), %arg1: tensor<64x32xf32> loc(unknown), %arg2: tensor<i32> loc(unknown)) -> tensor<1x64x32xf32> {
    %c = stablehlo.constant dense<0> : tensor<i32> loc(#loc)
    %0 = stablehlo.broadcast_in_dim %arg1, dims = [1, 2] : (tensor<64x32xf32>) -> tensor<1x64x32xf32> loc(#loc265)
    %1 = stablehlo.dynamic_update_slice %arg0, %0, %arg2, %c, %c : (tensor<1x64x32xf32>, tensor<1x64x32xf32>, tensor<i32>, tensor<i32>, tensor<i32>) -> tensor<1x64x32xf32> loc(#loc290)
    return %1 : tensor<1x64x32xf32> loc(#loc)
  } loc(#loc2069)
  func.func private @_where_8(%arg0: tensor<64x1x16xi1> loc(unknown), %arg1: tensor<64x1x16xf32> loc(unknown), %arg2: tensor<f32> loc(unknown)) -> tensor<64x1x16xf32> {
    %0 = stablehlo.broadcast_in_dim %arg2, dims = [] : (tensor<f32>) -> tensor<64x1x16xf32> loc(#loc265)
    %1 = stablehlo.select %arg0, %arg1, %0 : tensor<64x1x16xi1>, tensor<64x1x16xf32> loc(#loc289)
    return %1 : tensor<64x1x16xf32> loc(#loc)
  } loc(#loc1241)
  func.func private @log_softmax(%arg0: tensor<64x1x16xf32> loc(unknown)) -> tensor<64x1x16xf32> {
    %cst = stablehlo.constant dense<0.000000e+00> : tensor<f32> loc(#loc291)
    %cst_0 = stablehlo.constant dense<0xFF800000> : tensor<f32> loc(#loc)
    %0 = stablehlo.reduce(%arg0 init: %cst_0) applies stablehlo.maximum across dimensions = [2] : (tensor<64x1x16xf32>, tensor<f32>) -> tensor<64x1xf32> loc(#loc292)
    %1 = stablehlo.broadcast_in_dim %cst_0, dims = [] : (tensor<f32>) -> tensor<64x1xf32> loc(#loc264)
    %2 = stablehlo.maximum %1, %0 : tensor<64x1xf32> loc(#loc264)
    %3 = stablehlo.broadcast_in_dim %2, dims = [0, 1] : (tensor<64x1xf32>) -> tensor<64x1x1xf32> loc(#loc265)
    %4 = stablehlo.broadcast_in_dim %3, dims = [0, 1, 2] : (tensor<64x1x1xf32>) -> tensor<64x1x16xf32> loc(#loc144)
    %5 = stablehlo.subtract %arg0, %4 : tensor<64x1x16xf32> loc(#loc144)
    %6 = stablehlo.exponential %5 : tensor<64x1x16xf32> loc(#loc293)
    %7 = stablehlo.reduce(%6 init: %cst) applies stablehlo.add across dimensions = [2] : (tensor<64x1x16xf32>, tensor<f32>) -> tensor<64x1xf32> loc(#loc291)
    %8 = stablehlo.broadcast_in_dim %7, dims = [0, 1] : (tensor<64x1xf32>) -> tensor<64x1x1xf32> loc(#loc265)
    %9 = stablehlo.log %8 : tensor<64x1x1xf32> loc(#loc294)
    %10 = stablehlo.broadcast_in_dim %9, dims = [0, 1, 2] : (tensor<64x1x1xf32>) -> tensor<64x1x16xf32> loc(#loc144)
    %11 = stablehlo.subtract %5, %10 : tensor<64x1x16xf32> loc(#loc144)
    return %11 : tensor<64x1x16xf32> loc(#loc)
  } loc(#loc1900)
  func.func private @_gumbel(%arg0: tensor<2xui32> loc(unknown)) -> tensor<1x64x1x16xf32> {
    %cst = stablehlo.constant dense<1.000000e+00> : tensor<f32> loc(#loc)
    %cst_0 = stablehlo.constant dense<1.17549435E-38> : tensor<f32> loc(#loc)
    %0 = call @_uniform(%arg0, %cst, %cst_0) : (tensor<2xui32>, tensor<f32>, tensor<f32>) -> tensor<1x64x1x16xf32> loc(#loc295)
    %1 = stablehlo.log %0 : tensor<1x64x1x16xf32> loc(#loc294)
    %2 = stablehlo.negate %1 : tensor<1x64x1x16xf32> loc(#loc296)
    %3 = stablehlo.log %2 : tensor<1x64x1x16xf32> loc(#loc294)
    %4 = stablehlo.negate %3 : tensor<1x64x1x16xf32> loc(#loc296)
    return %4 : tensor<1x64x1x16xf32> loc(#loc)
  } loc(#loc2071)
  func.func private @_uniform(%arg0: tensor<2xui32> loc(unknown), %arg1: tensor<f32> loc(unknown), %arg2: tensor<f32> loc(unknown)) -> tensor<1x64x1x16xf32> {
    %cst = stablehlo.constant dense<1.000000e+00> : tensor<f32> loc(#loc)
    %c = stablehlo.constant dense<1065353216> : tensor<ui32> loc(#loc)
    %c_0 = stablehlo.constant dense<9> : tensor<ui32> loc(#loc)
    %c_1 = stablehlo.constant dense<32> : tensor<ui64> loc(#loc132)
    %c_2 = stablehlo.constant dense<1> : tensor<ui64> loc(#loc132)
    %c_3 = stablehlo.constant dense<16> : tensor<ui64> loc(#loc)
    %c_4 = stablehlo.constant dense<1024> : tensor<ui64> loc(#loc132)
    %0 = stablehlo.convert %arg1 : tensor<f32> loc(#loc147)
    %1 = stablehlo.broadcast_in_dim %arg2, dims = [] : (tensor<f32>) -> tensor<1x1x1x1xf32> loc(#loc265)
    %2 = stablehlo.broadcast_in_dim %0, dims = [] : (tensor<f32>) -> tensor<1x1x1x1xf32> loc(#loc265)
    %3 = stablehlo.slice %arg0 [0:1] : (tensor<2xui32>) -> tensor<1xui32> loc(#loc133)
    %4 = stablehlo.reshape %3 : (tensor<1xui32>) -> tensor<ui32> loc(#loc134)
    %5 = stablehlo.slice %arg0 [1:2] : (tensor<2xui32>) -> tensor<1xui32> loc(#loc133)
    %6 = stablehlo.reshape %5 : (tensor<1xui32>) -> tensor<ui32> loc(#loc134)
    %7 = stablehlo.iota dim = 0 : tensor<1x64x1x16xui64> loc(#loc132)
    %8 = stablehlo.iota dim = 1 : tensor<1x64x1x16xui64> loc(#loc132)
    %9 = stablehlo.iota dim = 2 : tensor<1x64x1x16xui64> loc(#loc132)
    %10 = stablehlo.iota dim = 3 : tensor<1x64x1x16xui64> loc(#loc132)
    %11 = stablehlo.broadcast_in_dim %c_4, dims = [] : (tensor<ui64>) -> tensor<1x64x1x16xui64> loc(#loc132)
    %12 = stablehlo.multiply %11, %7 : tensor<1x64x1x16xui64> loc(#loc132)
    %13 = stablehlo.broadcast_in_dim %c_3, dims = [] : (tensor<ui64>) -> tensor<1x64x1x16xui64> loc(#loc132)
    %14 = stablehlo.multiply %13, %8 : tensor<1x64x1x16xui64> loc(#loc132)
    %15 = stablehlo.broadcast_in_dim %c_3, dims = [] : (tensor<ui64>) -> tensor<1x64x1x16xui64> loc(#loc132)
    %16 = stablehlo.multiply %15, %9 : tensor<1x64x1x16xui64> loc(#loc132)
    %17 = stablehlo.broadcast_in_dim %c_2, dims = [] : (tensor<ui64>) -> tensor<1x64x1x16xui64> loc(#loc132)
    %18 = stablehlo.multiply %17, %10 : tensor<1x64x1x16xui64> loc(#loc132)
    %19 = stablehlo.add %12, %14 : tensor<1x64x1x16xui64> loc(#loc132)
    %20 = stablehlo.add %19, %16 : tensor<1x64x1x16xui64> loc(#loc132)
    %21 = stablehlo.add %20, %18 : tensor<1x64x1x16xui64> loc(#loc132)
    %22 = stablehlo.broadcast_in_dim %c_1, dims = [] : (tensor<ui64>) -> tensor<1x64x1x16xui64> loc(#loc132)
    %23 = stablehlo.shift_right_logical %21, %22 : tensor<1x64x1x16xui64> loc(#loc132)
    %24 = stablehlo.convert %21 : (tensor<1x64x1x16xui64>) -> tensor<1x64x1x16xui32> loc(#loc132)
    %25 = stablehlo.convert %23 : (tensor<1x64x1x16xui64>) -> tensor<1x64x1x16xui32> loc(#loc132)
    %26:2 = call @threefry2x32_9(%4, %6, %25, %24) : (tensor<ui32>, tensor<ui32>, tensor<1x64x1x16xui32>, tensor<1x64x1x16xui32>) -> (tensor<1x64x1x16xui32>, tensor<1x64x1x16xui32>) loc(#loc297)
    %27 = stablehlo.xor %26#0, %26#1 : tensor<1x64x1x16xui32> loc(#loc137)
    %28 = stablehlo.broadcast_in_dim %c_0, dims = [] : (tensor<ui32>) -> tensor<1x64x1x16xui32> loc(#loc145)
    %29 = stablehlo.shift_right_logical %27, %28 : tensor<1x64x1x16xui32> loc(#loc145)
    %30 = stablehlo.broadcast_in_dim %c, dims = [] : (tensor<ui32>) -> tensor<1x64x1x16xui32> loc(#loc146)
    %31 = stablehlo.or %29, %30 : tensor<1x64x1x16xui32> loc(#loc146)
    %32 = stablehlo.bitcast_convert %31 : (tensor<1x64x1x16xui32>) -> tensor<1x64x1x16xf32> loc(#loc298)
    %33 = stablehlo.broadcast_in_dim %cst, dims = [] : (tensor<f32>) -> tensor<1x64x1x16xf32> loc(#loc144)
    %34 = stablehlo.subtract %32, %33 : tensor<1x64x1x16xf32> loc(#loc144)
    %35 = stablehlo.subtract %2, %1 : tensor<1x1x1x1xf32> loc(#loc144)
    %36 = stablehlo.broadcast_in_dim %35, dims = [0, 1, 2, 3] : (tensor<1x1x1x1xf32>) -> tensor<1x64x1x16xf32> loc(#loc299)
    %37 = stablehlo.multiply %34, %36 : tensor<1x64x1x16xf32> loc(#loc299)
    %38 = stablehlo.broadcast_in_dim %1, dims = [0, 1, 2, 3] : (tensor<1x1x1x1xf32>) -> tensor<1x64x1x16xf32> loc(#loc138)
    %39 = stablehlo.add %37, %38 : tensor<1x64x1x16xf32> loc(#loc138)
    %40 = stablehlo.broadcast_in_dim %1, dims = [0, 1, 2, 3] : (tensor<1x1x1x1xf32>) -> tensor<1x64x1x16xf32> loc(#loc264)
    %41 = stablehlo.maximum %40, %39 : tensor<1x64x1x16xf32> loc(#loc264)
    return %41 : tensor<1x64x1x16xf32> loc(#loc)
  } loc(#loc630)
  func.func private @threefry2x32_9(%arg0: tensor<ui32> loc(unknown), %arg1: tensor<ui32> loc(unknown), %arg2: tensor<1x64x1x16xui32> loc(unknown), %arg3: tensor<1x64x1x16xui32> loc(unknown)) -> (tensor<1x64x1x16xui32>, tensor<1x64x1x16xui32>) {
    %c = stablehlo.constant dense<1> : tensor<i32> loc(#loc)
    %c_0 = stablehlo.constant dense<5> : tensor<i32> loc(#loc)
    %c_1 = stablehlo.constant dense<0> : tensor<i32> loc(#loc)
    %c_2 = stablehlo.constant dense<466688986> : tensor<ui32> loc(#loc513)
    %c_3 = stablehlo.constant dense<[13, 15, 26, 6]> : tensor<4xui32> loc(#loc513)
    %c_4 = stablehlo.constant dense<[17, 29, 16, 24]> : tensor<4xui32> loc(#loc513)
    %0 = stablehlo.xor %arg0, %arg1 : tensor<ui32> loc(#loc137)
    %1 = stablehlo.xor %0, %c_2 : tensor<ui32> loc(#loc137)
    %2 = stablehlo.broadcast_in_dim %arg0, dims = [] : (tensor<ui32>) -> tensor<1x64x1x16xui32> loc(#loc138)
    %3 = stablehlo.add %arg2, %2 : tensor<1x64x1x16xui32> loc(#loc138)
    %4 = stablehlo.broadcast_in_dim %arg1, dims = [] : (tensor<ui32>) -> tensor<1x64x1x16xui32> loc(#loc138)
    %5 = stablehlo.add %arg3, %4 : tensor<1x64x1x16xui32> loc(#loc138)
    %6:9 = stablehlo.while(%iterArg = %c_1, %iterArg_5 = %c_1, %iterArg_6 = %3, %iterArg_7 = %5, %iterArg_8 = %arg1, %iterArg_9 = %1, %iterArg_10 = %arg0, %iterArg_11 = %c_3, %iterArg_12 = %c_4) : tensor<i32>, tensor<i32>, tensor<1x64x1x16xui32>, tensor<1x64x1x16xui32>, tensor<ui32>, tensor<ui32>, tensor<ui32>, tensor<4xui32>, tensor<4xui32>
    cond {
      %7 = stablehlo.compare LT, %iterArg, %c_0, SIGNED : (tensor<i32>, tensor<i32>) -> tensor<i1> loc(#loc140)
      stablehlo.return %7 : tensor<i1> loc(#loc139)
    } do {
      %7:8 = func.call @closed_call_10(%iterArg_5, %iterArg_6, %iterArg_7, %iterArg_8, %iterArg_9, %iterArg_10, %iterArg_11, %iterArg_12) : (tensor<i32>, tensor<1x64x1x16xui32>, tensor<1x64x1x16xui32>, tensor<ui32>, tensor<ui32>, tensor<ui32>, tensor<4xui32>, tensor<4xui32>) -> (tensor<i32>, tensor<1x64x1x16xui32>, tensor<1x64x1x16xui32>, tensor<ui32>, tensor<ui32>, tensor<ui32>, tensor<4xui32>, tensor<4xui32>) loc(#loc141)
      %8 = stablehlo.add %iterArg, %c : tensor<i32> loc(#loc142)
      stablehlo.return %8, %7#0, %7#1, %7#2, %7#3, %7#4, %7#5, %7#6, %7#7 : tensor<i32>, tensor<i32>, tensor<1x64x1x16xui32>, tensor<1x64x1x16xui32>, tensor<ui32>, tensor<ui32>, tensor<ui32>, tensor<4xui32>, tensor<4xui32> loc(#loc139)
    } loc(#loc139)
    return %6#2, %6#3 : tensor<1x64x1x16xui32>, tensor<1x64x1x16xui32> loc(#loc)
  } loc(#loc)
  func.func private @closed_call_10(%arg0: tensor<i32> loc(unknown), %arg1: tensor<1x64x1x16xui32> loc(unknown), %arg2: tensor<1x64x1x16xui32> loc(unknown), %arg3: tensor<ui32> loc(unknown), %arg4: tensor<ui32> loc(unknown), %arg5: tensor<ui32> loc(unknown), %arg6: tensor<4xui32> loc(unknown), %arg7: tensor<4xui32> loc(unknown)) -> (tensor<i32>, tensor<1x64x1x16xui32>, tensor<1x64x1x16xui32>, tensor<ui32>, tensor<ui32>, tensor<ui32>, tensor<4xui32>, tensor<4xui32>) {
    %c = stablehlo.constant dense<32> : tensor<ui32> loc(#loc)
    %c_0 = stablehlo.constant dense<1> : tensor<i32> loc(#loc)
    %0 = stablehlo.add %arg0, %c_0 : tensor<i32> loc(#loc138)
    %1 = stablehlo.slice %arg6 [0:1] : (tensor<4xui32>) -> tensor<1xui32> loc(#loc133)
    %2 = stablehlo.reshape %1 : (tensor<1xui32>) -> tensor<ui32> loc(#loc134)
    %3 = stablehlo.add %arg1, %arg2 : tensor<1x64x1x16xui32> loc(#loc138)
    %4 = stablehlo.broadcast_in_dim %2, dims = [] : (tensor<ui32>) -> tensor<1x64x1x16xui32> loc(#loc143)
    %5 = stablehlo.shift_left %arg2, %4 : tensor<1x64x1x16xui32> loc(#loc143)
    %6 = stablehlo.subtract %c, %2 : tensor<ui32> loc(#loc144)
    %7 = stablehlo.broadcast_in_dim %6, dims = [] : (tensor<ui32>) -> tensor<1x64x1x16xui32> loc(#loc145)
    %8 = stablehlo.shift_right_logical %arg2, %7 : tensor<1x64x1x16xui32> loc(#loc145)
    %9 = stablehlo.or %5, %8 : tensor<1x64x1x16xui32> loc(#loc146)
    %10 = stablehlo.xor %3, %9 : tensor<1x64x1x16xui32> loc(#loc137)
    %11 = stablehlo.slice %arg6 [1:2] : (tensor<4xui32>) -> tensor<1xui32> loc(#loc133)
    %12 = stablehlo.reshape %11 : (tensor<1xui32>) -> tensor<ui32> loc(#loc134)
    %13 = stablehlo.add %3, %10 : tensor<1x64x1x16xui32> loc(#loc138)
    %14 = stablehlo.broadcast_in_dim %12, dims = [] : (tensor<ui32>) -> tensor<1x64x1x16xui32> loc(#loc143)
    %15 = stablehlo.shift_left %10, %14 : tensor<1x64x1x16xui32> loc(#loc143)
    %16 = stablehlo.subtract %c, %12 : tensor<ui32> loc(#loc144)
    %17 = stablehlo.broadcast_in_dim %16, dims = [] : (tensor<ui32>) -> tensor<1x64x1x16xui32> loc(#loc145)
    %18 = stablehlo.shift_right_logical %10, %17 : tensor<1x64x1x16xui32> loc(#loc145)
    %19 = stablehlo.or %15, %18 : tensor<1x64x1x16xui32> loc(#loc146)
    %20 = stablehlo.xor %13, %19 : tensor<1x64x1x16xui32> loc(#loc137)
    %21 = stablehlo.slice %arg6 [2:3] : (tensor<4xui32>) -> tensor<1xui32> loc(#loc133)
    %22 = stablehlo.reshape %21 : (tensor<1xui32>) -> tensor<ui32> loc(#loc134)
    %23 = stablehlo.add %13, %20 : tensor<1x64x1x16xui32> loc(#loc138)
    %24 = stablehlo.broadcast_in_dim %22, dims = [] : (tensor<ui32>) -> tensor<1x64x1x16xui32> loc(#loc143)
    %25 = stablehlo.shift_left %20, %24 : tensor<1x64x1x16xui32> loc(#loc143)
    %26 = stablehlo.subtract %c, %22 : tensor<ui32> loc(#loc144)
    %27 = stablehlo.broadcast_in_dim %26, dims = [] : (tensor<ui32>) -> tensor<1x64x1x16xui32> loc(#loc145)
    %28 = stablehlo.shift_right_logical %20, %27 : tensor<1x64x1x16xui32> loc(#loc145)
    %29 = stablehlo.or %25, %28 : tensor<1x64x1x16xui32> loc(#loc146)
    %30 = stablehlo.xor %23, %29 : tensor<1x64x1x16xui32> loc(#loc137)
    %31 = stablehlo.slice %arg6 [3:4] : (tensor<4xui32>) -> tensor<1xui32> loc(#loc133)
    %32 = stablehlo.reshape %31 : (tensor<1xui32>) -> tensor<ui32> loc(#loc134)
    %33 = stablehlo.add %23, %30 : tensor<1x64x1x16xui32> loc(#loc138)
    %34 = stablehlo.broadcast_in_dim %32, dims = [] : (tensor<ui32>) -> tensor<1x64x1x16xui32> loc(#loc143)
    %35 = stablehlo.shift_left %30, %34 : tensor<1x64x1x16xui32> loc(#loc143)
    %36 = stablehlo.subtract %c, %32 : tensor<ui32> loc(#loc144)
    %37 = stablehlo.broadcast_in_dim %36, dims = [] : (tensor<ui32>) -> tensor<1x64x1x16xui32> loc(#loc145)
    %38 = stablehlo.shift_right_logical %30, %37 : tensor<1x64x1x16xui32> loc(#loc145)
    %39 = stablehlo.or %35, %38 : tensor<1x64x1x16xui32> loc(#loc146)
    %40 = stablehlo.xor %33, %39 : tensor<1x64x1x16xui32> loc(#loc137)
    %41 = stablehlo.broadcast_in_dim %arg3, dims = [] : (tensor<ui32>) -> tensor<1x64x1x16xui32> loc(#loc138)
    %42 = stablehlo.add %33, %41 : tensor<1x64x1x16xui32> loc(#loc138)
    %43 = stablehlo.broadcast_in_dim %arg4, dims = [] : (tensor<ui32>) -> tensor<1x64x1x16xui32> loc(#loc138)
    %44 = stablehlo.add %40, %43 : tensor<1x64x1x16xui32> loc(#loc138)
    %45 = stablehlo.add %arg0, %c_0 : tensor<i32> loc(#loc138)
    %46 = stablehlo.convert %45 : (tensor<i32>) -> tensor<ui32> loc(#loc147)
    %47 = stablehlo.broadcast_in_dim %46, dims = [] : (tensor<ui32>) -> tensor<1x64x1x16xui32> loc(#loc138)
    %48 = stablehlo.add %44, %47 : tensor<1x64x1x16xui32> loc(#loc138)
    return %0, %42, %48, %arg4, %arg5, %arg3, %arg7, %arg6 : tensor<i32>, tensor<1x64x1x16xui32>, tensor<1x64x1x16xui32>, tensor<ui32>, tensor<ui32>, tensor<ui32>, tensor<4xui32>, tensor<4xui32> loc(#loc)
  } loc(#loc514)
  func.func private @argmax(%arg0: tensor<1x64x1x16xf32> loc(callsite(#loc532 at #loc1390))) -> tensor<1x64x1xi32> {
    %c = stablehlo.constant dense<0> : tensor<i32> loc(#loc651)
    %cst = stablehlo.constant dense<0xFF800000> : tensor<f32> loc(#loc651)
    %0 = stablehlo.iota dim = 3 : tensor<1x64x1x16xi32> loc(#loc1902)
    %1:2 = stablehlo.reduce(%arg0 init: %cst), (%0 init: %c) across dimensions = [3] : (tensor<1x64x1x16xf32>, tensor<1x64x1x16xi32>, tensor<f32>, tensor<i32>) -> (tensor<1x64x1xf32>, tensor<1x64x1xi32>)
     reducer(%arg1: tensor<f32> loc("reduce:"(#loc301)), %arg3: tensor<f32> loc("reduce:"(#loc301))) (%arg2: tensor<i32> loc("reduce:"(#loc301)), %arg4: tensor<i32> loc("reduce:"(#loc301)))  {
      %2 = stablehlo.compare GT, %arg1, %arg3, FLOAT : (tensor<f32>, tensor<f32>) -> tensor<i1> loc(#loc2072)
      %3 = stablehlo.compare NE, %arg1, %arg1, FLOAT : (tensor<f32>, tensor<f32>) -> tensor<i1> loc(#loc2073)
      %4 = stablehlo.or %2, %3 : tensor<i1> loc(#loc2074)
      %5 = stablehlo.compare EQ, %arg1, %arg3, FLOAT : (tensor<f32>, tensor<f32>) -> tensor<i1> loc(#loc2075)
      %6 = stablehlo.compare LT, %arg2, %arg4, SIGNED : (tensor<i32>, tensor<i32>) -> tensor<i1> loc(#loc2076)
      %7 = stablehlo.and %5, %6 : tensor<i1> loc(#loc2077)
      %8 = stablehlo.or %4, %7 : tensor<i1> loc(#loc2074)
      %9 = stablehlo.select %4, %arg1, %arg3 : tensor<i1>, tensor<f32> loc(#loc2078)
      %10 = stablehlo.select %8, %arg2, %arg4 : tensor<i1>, tensor<i32> loc(#loc2078)
      stablehlo.return %9, %10 : tensor<f32>, tensor<i32> loc(#loc1903)
    } loc(#loc1903)
    return %1#1 : tensor<1x64x1xi32> loc(#loc1643)
  } loc(#loc1643)
  func.func private @_one_hot_11(%arg0: tensor<1x64x1xi32> loc(unknown)) -> tensor<1x64x1x16xf32> {
    %0 = stablehlo.broadcast_in_dim %arg0, dims = [0, 1, 2] : (tensor<1x64x1xi32>) -> tensor<1x64x1x1xi32> loc(#loc265)
    %1 = stablehlo.iota dim = 3 : tensor<1x1x1x16xi32> loc(#loc266)
    %2 = stablehlo.broadcast_in_dim %0, dims = [0, 1, 2, 3] : (tensor<1x64x1x1xi32>) -> tensor<1x64x1x16xi32> loc(#loc267)
    %3 = stablehlo.broadcast_in_dim %1, dims = [0, 1, 2, 3] : (tensor<1x1x1x16xi32>) -> tensor<1x64x1x16xi32> loc(#loc267)
    %4 = stablehlo.compare EQ, %2, %3, SIGNED : (tensor<1x64x1x16xi32>, tensor<1x64x1x16xi32>) -> tensor<1x64x1x16xi1> loc(#loc267)
    %5 = stablehlo.convert %4 : (tensor<1x64x1x16xi1>) -> tensor<1x64x1x16xf32> loc(#loc147)
    return %5 : tensor<1x64x1x16xf32> loc(#loc)
  } loc(#loc2079)
  func.func private @_where_12(%arg0: tensor<1x64x1x16xi1> loc(unknown), %arg1: tensor<f32> loc(unknown), %arg2: tensor<1x64x1x16xf32> loc(unknown)) -> tensor<1x64x1x16xf32> {
    %0 = stablehlo.broadcast_in_dim %arg1, dims = [] : (tensor<f32>) -> tensor<1x64x1x16xf32> loc(#loc265)
    %1 = stablehlo.select %arg0, %0, %arg2 : tensor<1x64x1x16xi1>, tensor<1x64x1x16xf32> loc(#loc289)
    return %1 : tensor<1x64x1x16xf32> loc(#loc)
  } loc(#loc1003)
  func.func private @_where_13(%arg0: tensor<1x64x1xi1> loc(unknown), %arg1: tensor<f32> loc(unknown), %arg2: tensor<1x64x1xf32> loc(unknown)) -> tensor<1x64x1xf32> {
    %0 = stablehlo.convert %arg1 : tensor<f32> loc(#loc147)
    %1 = stablehlo.broadcast_in_dim %0, dims = [] : (tensor<f32>) -> tensor<1x64x1xf32> loc(#loc265)
    %2 = stablehlo.select %arg0, %1, %arg2 : tensor<1x64x1xi1>, tensor<1x64x1xf32> loc(#loc289)
    return %2 : tensor<1x64x1xf32> loc(#loc)
  } loc(#loc2080)
  func.func private @_threefry_split_14(%arg0: tensor<2xui32> loc(unknown)) -> tensor<64x2xui32> {
    %c = stablehlo.constant dense<32> : tensor<ui64> loc(#loc1005)
    %c_0 = stablehlo.constant dense<1> : tensor<ui64> loc(#loc1005)
    %0 = stablehlo.slice %arg0 [0:1] : (tensor<2xui32>) -> tensor<1xui32> loc(#loc1006)
    %1 = stablehlo.reshape %0 : (tensor<1xui32>) -> tensor<ui32> loc(#loc1007)
    %2 = stablehlo.slice %arg0 [1:2] : (tensor<2xui32>) -> tensor<1xui32> loc(#loc1006)
    %3 = stablehlo.reshape %2 : (tensor<1xui32>) -> tensor<ui32> loc(#loc1007)
    %4 = stablehlo.iota dim = 0 : tensor<64xui64> loc(#loc1005)
    %5 = stablehlo.broadcast_in_dim %c_0, dims = [] : (tensor<ui64>) -> tensor<64xui64> loc(#loc1005)
    %6 = stablehlo.multiply %5, %4 : tensor<64xui64> loc(#loc1005)
    %7 = stablehlo.broadcast_in_dim %c, dims = [] : (tensor<ui64>) -> tensor<64xui64> loc(#loc1005)
    %8 = stablehlo.shift_right_logical %6, %7 : tensor<64xui64> loc(#loc1005)
    %9 = stablehlo.convert %6 : (tensor<64xui64>) -> tensor<64xui32> loc(#loc1005)
    %10 = stablehlo.convert %8 : (tensor<64xui64>) -> tensor<64xui32> loc(#loc1005)
    %11:2 = call @threefry2x32_15(%1, %3, %10, %9) : (tensor<ui32>, tensor<ui32>, tensor<64xui32>, tensor<64xui32>) -> (tensor<64xui32>, tensor<64xui32>) loc(#loc806)
    %12 = stablehlo.broadcast_in_dim %11#0, dims = [0] : (tensor<64xui32>) -> tensor<64x1xui32> loc(#loc1008)
    %13 = stablehlo.broadcast_in_dim %11#1, dims = [0] : (tensor<64xui32>) -> tensor<64x1xui32> loc(#loc1008)
    %14 = stablehlo.concatenate %12, %13, dim = 1 : (tensor<64x1xui32>, tensor<64x1xui32>) -> tensor<64x2xui32> loc(#loc1008)
    return %14 : tensor<64x2xui32> loc(#loc)
  } loc(#loc1242)
  func.func private @threefry2x32_15(%arg0: tensor<ui32> loc(callsite(#loc552 at #loc553)), %arg1: tensor<ui32> loc(callsite(#loc552 at #loc553)), %arg2: tensor<64xui32> loc(callsite(#loc552 at #loc553)), %arg3: tensor<64xui32> loc(callsite(#loc552 at #loc553))) -> (tensor<64xui32>, tensor<64xui32>) {
    %c = stablehlo.constant dense<1> : tensor<i32> loc(#loc)
    %c_0 = stablehlo.constant dense<5> : tensor<i32> loc(#loc)
    %c_1 = stablehlo.constant dense<0> : tensor<i32> loc(#loc)
    %c_2 = stablehlo.constant dense<466688986> : tensor<ui32> loc(#loc513)
    %c_3 = stablehlo.constant dense<[13, 15, 26, 6]> : tensor<4xui32> loc(#loc513)
    %c_4 = stablehlo.constant dense<[17, 29, 16, 24]> : tensor<4xui32> loc(#loc513)
    %0 = stablehlo.xor %arg0, %arg1 : tensor<ui32> loc(#loc1009)
    %1 = stablehlo.xor %0, %c_2 : tensor<ui32> loc(#loc1009)
    %2 = stablehlo.broadcast_in_dim %arg0, dims = [] : (tensor<ui32>) -> tensor<64xui32> loc(#loc1010)
    %3 = stablehlo.add %arg2, %2 : tensor<64xui32> loc(#loc1010)
    %4 = stablehlo.broadcast_in_dim %arg1, dims = [] : (tensor<ui32>) -> tensor<64xui32> loc(#loc1010)
    %5 = stablehlo.add %arg3, %4 : tensor<64xui32> loc(#loc1010)
…
#loc1314 = loc("cell.scan_fn/cell/mul"(#loc997))
#loc1315 = loc("cell.scan_fn/cell/add_any"(#loc997))
#loc1316 = loc("jit:"(#loc1113))
#loc1317 = loc("while"(#loc1120))
#loc1318 = loc(callsite(#loc1120 at #loc783))
#loc1319 = loc("closed_call:"(#loc1121))
#loc1320 = loc("jit:"(#loc1127))
#loc1321 = loc("closed_call:"(#loc1130))
#loc1322 = loc("jit(_threefry_split)"(#loc1131))
#loc1323 = loc(callsite(#loc460 at #loc1134))
#loc1324 = loc("or"(#loc1135))
#loc1325 = loc(callsite(#loc465 at #loc1136))
#loc1326 = loc(callsite(#loc468 at #loc1136))
#loc1327 = loc(callsite(#loc469 at #loc1136))
#loc1328 = loc("MaskedActorCriticNetwork/jit(relu)"(#loc1137))
#loc1329 = loc("MaskedActorCriticNetwork/jit(_one_hot)"(#loc1138))
#loc1330 = loc("MaskedActorCriticNetwork/concatenate"(#loc1139))
#loc1331 = loc(callsite(#loc475 at #loc1140))
#loc1332 = loc(callsite(#loc465 at #loc1141))
#loc1333 = loc("MaskedActorCriticNetwork/jit(_where)"(#loc1142))
#loc1334 = loc(callsite(#loc522 at #loc1143))
#loc1335 = loc(callsite(#loc528 at #loc1144))
#loc1336 = loc(callsite(#loc546 at #loc1145))
#loc1337 = loc("squeeze"(#loc1146))
#loc1338 = loc(callsite(#loc806 at #loc1147))
#loc1339 = loc(callsite(#loc554 at #loc1148))
#loc1340 = loc(callsite(#loc556 at #loc1148))
#loc1341 = loc(callsite(#loc558 at #loc1148))
#loc1342 = loc(callsite(#loc614 at #loc1148))
#loc1343 = loc(callsite(#loc619 at #loc1148))
#loc1344 = loc(callsite(#loc621 at #loc1148))
#loc1345 = loc(callsite(#loc622 at #loc1148))
#loc1346 = loc("vmap()/broadcast_in_dim"(#loc1148))
#loc1347 = loc("or"(#loc1150))
#loc1348 = loc("or"(#loc1153))
#loc1349 = loc("jit(train_step)/jit(_threefry_split)"(#loc1159))
#loc1350 = loc(callsite(#loc453 at #loc1162))
#loc1351 = loc("jit(train_step)/slice"(#loc1163))
#loc1352 = loc("jit(train_step)/squeeze"(#loc1163))
#loc1353 = loc(callsite(#loc777 at #loc1164))
#loc1354 = loc(callsite(#loc778 at #loc1165))
#loc1355 = loc(callsite(#loc924 at #loc1165))
#loc1356 = loc(callsite(#loc461 at #loc1166))
#loc1357 = loc(callsite(#loc463 at #loc1167))
#loc1358 = loc(callsite(#loc466 at #loc1168))
#loc1359 = loc(callsite(#loc470 at #loc1168))
#loc1360 = loc(callsite(#loc471 at #loc1168))
#loc1361 = loc(callsite(#loc472 at #loc1168))
#loc1362 = loc(callsite(#loc476 at #loc1168))
#loc1363 = loc(callsite(#loc474 at #loc1169))
#loc1364 = loc(callsite(#loc493 at #loc1168))
#loc1365 = loc(callsite(#loc494 at #loc1168))
#loc1366 = loc(callsite(#loc495 at #loc1168))
#loc1367 = loc(callsite(#loc496 at #loc1170))
#loc1368 = loc(callsite(#loc498 at #loc1171))
#loc1369 = loc(callsite(#loc500 at #loc1172))
#loc1370 = loc(callsite(#loc502 at #loc1172))
#loc1371 = loc(callsite(#loc503 at #loc1172))
#loc1372 = loc(callsite(#loc781 at #loc1174))
#loc1373 = loc(callsite(#loc782 at #loc1175))
#loc1374 = loc(callsite(#loc927 at #loc1175))
#loc1375 = loc(callsite(#loc783 at #loc1176))
#loc1376 = loc(callsite(#loc784 at #loc1177))
#loc1377 = loc(callsite(#loc929 at #loc1177))
#loc1378 = loc("jit(train_step)/reduce_sum"(#loc1178))
#loc1379 = loc("jit(train_step)/reduce_sum"(#loc1179))
#loc1380 = loc("jit(train_step)/max"(#loc1180))
#loc1381 = loc("jit(train_step)/div"(#loc1181))
#loc1382 = loc("while/cond/lt"(#loc1184))
#loc1383 = loc("while/body/closed_call"(#loc1184))
#loc1384 = loc("while/body/add"(#loc1184))
#loc1385 = loc(callsite(#loc473 at #loc1192))
#loc1386 = loc(callsite(#loc477 at #loc1192))
#loc1387 = loc(callsite(#loc479 at #loc1192))
#loc1388 = loc(callsite(#loc483 at #loc1192))
#loc1389 = loc(callsite(#loc520 at #loc1197))
#loc1391 = loc(callsite(#loc534 at #loc1198))
#loc1392 = loc("reduce_sum"(#loc1199))
#loc1393 = loc("vmap()/vmap(jit(_threefry_split))"(#loc1202))
#loc1394 = loc("vmap()/lt"(#loc1205))
#loc1395 = loc("vmap()/add"(#loc1205))
#loc1396 = loc("vmap()/select_n"(#loc1205))
#loc1397 = loc("vmap()/broadcast_in_dim"(#loc1205))
#loc1398 = loc("vmap()/concatenate"(#loc1205))
#loc1399 = loc("vmap()/gather"(#loc1205))
#loc1400 = loc("vmap()/squeeze"(#loc1205))
#loc1401 = loc(callsite(#loc560 at #loc1206))
#loc1402 = loc(callsite(#loc566 at #loc1206))
#loc1403 = loc(callsite(#loc570 at #loc1206))
#loc1404 = loc(callsite(#loc571 at #loc1206))
#loc1405 = loc(callsite(#loc573 at #loc1206))
#loc1406 = loc(callsite(#loc582 at #loc1206))
#loc1407 = loc(callsite(#loc583 at #loc1206))
#loc1408 = loc(callsite(#loc584 at #loc1206))
#loc1409 = loc(callsite(#loc585 at #loc1206))
#loc1410 = loc(callsite(#loc586 at #loc1206))
#loc1411 = loc(callsite(#loc587 at #loc1206))
#loc1412 = loc(callsite(#loc588 at #loc1206))
#loc1413 = loc(callsite(#loc589 at #loc1206))
#loc1414 = loc(callsite(#loc590 at #loc1206))
#loc1415 = loc(callsite(#loc591 at #loc1206))
#loc1416 = loc(callsite(#loc592 at #loc1206))
#loc1417 = loc(callsite(#loc593 at #loc1206))
#loc1418 = loc(callsite(#loc594 at #loc1206))
#loc1419 = loc(callsite(#loc595 at #loc1206))
#loc1420 = loc(callsite(#loc596 at #loc1206))
#loc1421 = loc(callsite(#loc597 at #loc1206))
#loc1422 = loc(callsite(#loc598 at #loc1206))
#loc1423 = loc(callsite(#loc599 at #loc1206))
#loc1424 = loc(callsite(#loc600 at #loc1206))
#loc1425 = loc(callsite(#loc601 at #loc1206))
#loc1426 = loc(callsite(#loc602 at #loc1206))
#loc1427 = loc(callsite(#loc603 at #loc1206))
#loc1428 = loc(callsite(#loc604 at #loc1206))
#loc1429 = loc(callsite(#loc605 at #loc1206))
#loc1430 = loc(callsite(#loc607 at #loc1206))
#loc1431 = loc(callsite(#loc610 at #loc1207))
#loc1432 = loc(callsite(#loc612 at #loc1208))
#loc1433 = loc(callsite(#loc615 at #loc1208))
#loc1434 = loc(callsite(#loc616 at #loc1208))
#loc1435 = loc(callsite(#loc617 at #loc1208))
#loc1436 = loc(callsite(#loc610 at #loc1209))
#loc1437 = loc("vmap()/or"(#loc1210))
#loc1438 = loc("vmap()/broadcast_in_dim"(#loc1211))
#loc1439 = loc("vmap()/select_n"(#loc1211))
#loc1440 = loc("vmap()/broadcast_in_dim"(#loc1212))
#loc1441 = loc("vmap()/select_n"(#loc1212))
#loc1442 = loc(callsite(#loc631 at #loc1214))
#loc1443 = loc("cell.scan_fn/jit(_where)"(#loc1215))
#loc1444 = loc("cell.scan_fn/cell/ir/dot_general"(#loc1216))
#loc1445 = loc("cell.scan_fn/cell/ir/reshape"(#loc1217))
#loc1446 = loc("cell.scan_fn/cell/ir/add"(#loc1218))
#loc1447 = loc("cell.scan_fn/cell/hr/dot_general"(#loc1219))
#loc1448 = loc("cell.scan_fn/cell/neg"(#loc1221))
#loc1449 = loc("cell.scan_fn/cell/exp"(#loc1221))
#loc1450 = loc("cell.scan_fn/cell/add"(#loc1221))
#loc1451 = loc("cell.scan_fn/cell/div"(#loc1221))
#loc1452 = loc("cell.scan_fn/cell/iz/dot_general"(#loc1222))
#loc1453 = loc("cell.scan_fn/cell/iz/reshape"(#loc1223))
#loc1454 = loc("cell.scan_fn/cell/iz/add"(#loc1224))
#loc1455 = loc("cell.scan_fn/cell/hz/dot_general"(#loc1225))
#loc1456 = loc("cell.scan_fn/cell/neg"(#loc1227))
#loc1457 = loc("cell.scan_fn/cell/exp"(#loc1227))
#loc1458 = loc("cell.scan_fn/cell/add"(#loc1227))
#loc1459 = loc("cell.scan_fn/cell/div"(#loc1227))
#loc1460 = loc("cell.scan_fn/cell/in/dot_general"(#loc1228))
#loc1461 = loc("cell.scan_fn/cell/in/reshape"(#loc1229))
#loc1462 = loc("cell.scan_fn/cell/in/add"(#loc1230))
#loc1463 = loc("cell.scan_fn/cell/hn/dot_general"(#loc1231))
#loc1464 = loc("cell.scan_fn/cell/hn/reshape"(#loc1232))
#loc1465 = loc("cell.scan_fn/cell/hn/add"(#loc1233))
#loc1466 = loc("cell.scan_fn/jit"(#loc1215))
#loc1467 = loc("while/cond/lt"(#loc1244))
#loc1468 = loc("while/body/closed_call"(#loc1244))
#loc1469 = loc("while/body/add"(#loc1244))
#loc1470 = loc("jit:"(#loc1246))
#loc1471 = loc("jit:"(#loc1248))
#loc1472 = loc("closed_call:"(#loc1251))
#loc1473 = loc("while/cond/lt"(#loc1254))
#loc1474 = loc("while/body/closed_call"(#loc1254))
#loc1475 = loc("while/body/add"(#loc1254))
#loc1476 = loc(callsite(#loc474 at #loc1264))
#loc1477 = loc("jvp(MaskedActorCriticNetwork)/obs/dot_general"(#loc1266))
#loc1478 = loc("jvp(MaskedActorCriticNetwork)/obs/reshape"(#loc1267))
#loc1479 = loc("jvp(MaskedActorCriticNetwork)/obs/add"(#loc1268))
#loc1480 = loc("jvp(MaskedActorCriticNetwork)/actor/dot_general"(#loc1273))
#loc1481 = loc("jvp(MaskedActorCriticNetwork)/critic/dot_general"(#loc1275))
#loc1482 = loc("jvp(MaskedActorCriticNetwork)/critic/reshape"(#loc1276))
#loc1483 = loc("jvp(MaskedActorCriticNetwork)/critic/add"(#loc1277))
#loc1484 = loc(callsite(#loc521 at #loc1278))
#loc1485 = loc("jvp(jit(_one_hot))"(#loc1279))
#loc1486 = loc("jvp()/lt"(#loc1280))
#loc1487 = loc("jvp()/gt"(#loc1281))
#loc1488 = loc("jvp()/or"(#loc1282))
#loc1489 = loc(callsite(#loc686 at #loc1283))
#loc1490 = loc("jvp()/reduce_sum"(#loc1284))
#loc1491 = loc("jvp(jit(_where))"(#loc1285))
#loc1492 = loc("jvp()/reduce_sum"(#loc1286))
#loc1493 = loc("jvp(jit(log_softmax))"(#loc1287))
#loc1494 = loc(callsite(#loc691 at #loc1288))
#loc1495 = loc(callsite(#loc693 at #loc1288))
#loc1496 = loc(callsite(#loc694 at #loc1288))
#loc1497 = loc("transpose(jvp())/neg"(#loc1291))
#loc1498 = loc("transpose(jvp())/broadcast_in_dim"(#loc1292))
#loc1499 = loc(callsite(#loc721 at #loc1288))
#loc1500 = loc("transpose(jvp(jit(log_softmax)))"(#loc1287))
#loc1501 = loc("transpose(jvp(jit(_where)))"(#loc1285))
#loc1502 = loc("transpose(jvp())/broadcast_in_dim"(#loc1284))
#loc1503 = loc(callsite(#loc723 at #loc1283))
#loc1504 = loc("transpose(jvp(MaskedActorCriticNetwork))/critic/reduce_sum"(#loc1277))
#loc1505 = loc("transpose(jvp(MaskedActorCriticNetwork))/critic/reshape"(#loc1277))
#loc1506 = loc("transpose(jvp(MaskedActorCriticNetwork))/critic/reshape"(#loc1276))
#loc1507 = loc("transpose(jvp(MaskedActorCriticNetwork))/critic/dot_general"(#loc1275))
#loc1508 = loc("transpose(jvp(MaskedActorCriticNetwork))/critic/transpose"(#loc1275))
#loc1509 = loc("transpose(jvp(MaskedActorCriticNetwork))/actor/dot_general"(#loc1273))
#loc1510 = loc("transpose(jvp(MaskedActorCriticNetwork))/actor/transpose"(#loc1273))
#loc1511 = loc("transpose(jvp(MaskedActorCriticNetwork))/actor/add_any"(#loc1273))
#loc1512 = loc("transpose(jvp(MaskedActorCriticNetwork))/obs/reduce_sum"(#loc1268))
#loc1513 = loc("transpose(jvp(MaskedActorCriticNetwork))/obs/reshape"(#loc1268))
#loc1514 = loc("transpose(jvp(MaskedActorCriticNetwork))/obs/reshape"(#loc1267))
#loc1515 = loc("transpose(jvp(MaskedActorCriticNetwork))/obs/dot_general"(#loc1266))
#loc1516 = loc("transpose(jvp(MaskedActorCriticNetwork))/obs/transpose"(#loc1266))
#loc1517 = loc(callsite(#loc728 at #loc1297))
#loc1518 = loc(callsite(#loc737 at #loc1297))
#loc1519 = loc(callsite(#loc739 at #loc1297))
#loc1520 = loc("lt"(#loc1298))
#loc1521 = loc(callsite(#loc741 at #loc1299))
#loc1522 = loc(callsite(#loc743 at #loc1299))
#loc1523 = loc(callsite(#loc744 at #loc1299))
#loc1524 = loc(callsite(#loc747 at #loc1300))
#loc1525 = loc(callsite(#loc753 at #loc1300))
#loc1526 = loc(callsite(#loc758 at #loc1300))
#loc1527 = loc(callsite(#loc761 at #loc1300))
#loc1528 = loc(callsite(#loc762 at #loc1300))
#loc1529 = loc(callsite(#loc764 at #loc1300))
#loc1530 = loc(callsite(#loc769 at #loc1300))
#loc1531 = loc("jit:"(#loc1302))
#loc1532 = loc("jit:"(#loc1308))
#loc1533 = loc("jvp()/jit"(#loc1285))
#loc1534 = loc("jvp()/jit"(#loc1287))
#loc1535 = loc("transpose(jvp())/jit"(#loc1287))
#loc1536 = loc("transpose(jvp())/jit"(#loc1285))
#loc1537 = loc("jit:"(#loc1311))
#loc1538 = loc("cell.scan_fn/cell/hn/reduce_sum"(#loc1233))
#loc1539 = loc("cell.scan_fn/cell/hn/reshape"(#loc1233))
#loc1540 = loc("cell.scan_fn/cell/hn/add_any"(#loc1232))
#loc1541 = loc("cell.scan_fn/cell/hn/transpose"(#loc1231))
#loc1542 = loc("cell.scan_fn/cell/hn/add_any"(#loc1231))
#loc1543 = loc("cell.scan_fn/cell/in/reduce_sum"(#loc1230))
#loc1544 = loc("cell.scan_fn/cell/in/reshape"(#loc1230))
#loc1545 = loc("cell.scan_fn/cell/in/add_any"(#loc1229))
#loc1546 = loc("cell.scan_fn/cell/in/transpose"(#loc1228))
#loc1547 = loc("cell.scan_fn/cell/in/add_any"(#loc1228))
#loc1548 = loc("cell.scan_fn/cell/hz/transpose"(#loc1225))
#loc1549 = loc("cell.scan_fn/cell/hz/add_any"(#loc1225))
#loc1550 = loc("cell.scan_fn/cell/iz/reduce_sum"(#loc1224))
#loc1551 = loc("cell.scan_fn/cell/iz/reshape"(#loc1224))
#loc1552 = loc("cell.scan_fn/cell/iz/add_any"(#loc1223))
#loc1553 = loc("cell.scan_fn/cell/iz/transpose"(#loc1222))
#loc1554 = loc("cell.scan_fn/cell/iz/add_any"(#loc1222))
#loc1555 = loc("cell.scan_fn/cell/hr/transpose"(#loc1219))
#loc1556 = loc("cell.scan_fn/cell/hr/add_any"(#loc1219))
#loc1557 = loc("cell.scan_fn/cell/ir/reduce_sum"(#loc1218))
#loc1558 = loc("cell.scan_fn/cell/ir/reshape"(#loc1218))
#loc1559 = loc("cell.scan_fn/cell/ir/add_any"(#loc1217))
#loc1560 = loc("cell.scan_fn/cell/ir/transpose"(#loc1216))
#loc1561 = loc("cell.scan_fn/cell/ir/add_any"(#loc1216))
#loc1562 = loc("while/cond/lt"(#loc1318))
#loc1563 = loc("while/body/closed_call"(#loc1318))
#loc1564 = loc("while/body/add"(#loc1318))
#loc1565 = loc("broadcast_in_dim"(#loc1323))
#loc1566 = loc("MaskedActorCriticNetwork/obs/dot_general"(#loc1325))
#loc1567 = loc("MaskedActorCriticNetwork/obs/reshape"(#loc1326))
#loc1568 = loc("MaskedActorCriticNetwork/obs/add"(#loc1327))
#loc1569 = loc(callsite(#loc474 at #loc1331))
#loc1570 = loc("MaskedActorCriticNetwork/actor/dot_general"(#loc1332))
#loc1571 = loc(callsite(#loc521 at #loc1334))
#loc1572 = loc(callsite(#loc527 at #loc1335))
#loc1573 = loc("reshape"(#loc1336))
#loc1574 = loc("jit(_threefry_split)"(#loc1338))
#loc1575 = loc(callsite(#loc973 at #loc1339))
#loc1576 = loc("vmap()/slice"(#loc1340))
#loc1577 = loc("vmap()/squeeze"(#loc1340))
#loc1578 = loc(callsite(#loc557 at #loc1341))
#loc1579 = loc(callsite(#loc561 at #loc1341))
#loc1580 = loc(callsite(#loc611 at #loc1341))
#loc1581 = loc(callsite(#loc613 at #loc1342))
#loc1582 = loc(callsite(#loc618 at #loc1342))
#loc1583 = loc(callsite(#loc463 at #loc1343))
#loc1584 = loc(callsite(#loc620 at #loc1344))
#loc1585 = loc(callsite(#loc620 at #loc1345))
#loc1586 = loc("jit(train_step)/jit(_threefry_split)"(#loc1350))
#loc1587 = loc("jit(train_step)/jit(_threefry_split)"(#loc1353))
#loc1588 = loc("jit(train_step)/broadcast_in_dim"(#loc1354))
#loc1589 = loc("jit(train_step)/while"(#loc1354))
#loc1590 = loc("jit(train_step)/while/cond/lt"(#loc1355))
#loc1591 = loc("jit(train_step)/while/body/jit(dynamic_index_in_dim)"(#loc1355))
#loc1592 = loc("jit(train_step)/while/body/closed_call"(#loc1355))
#loc1593 = loc("jit(train_step)/while/body/jit(dynamic_update_index_in_dim)"(#loc1355))
#loc1594 = loc("jit(train_step)/while/body/add"(#loc1355))
#loc1595 = loc(callsite(#loc460 at #loc1356))
#loc1596 = loc("jit(train_step)/or"(#loc1357))
#loc1597 = loc(callsite(#loc465 at #loc1358))
#loc1598 = loc(callsite(#loc468 at #loc1358))
#loc1599 = loc(callsite(#loc469 at #loc1358))
#loc1600 = loc("jit(train_step)/MaskedActorCriticNetwork/jit(relu)"(#loc1359))
#loc1601 = loc("jit(train_step)/MaskedActorCriticNetwork/jit(_one_hot)"(#loc1360))
#loc1602 = loc("jit(train_step)/MaskedActorCriticNetwork/concatenate"(#loc1361))
#loc1603 = loc(callsite(#loc475 at #loc1362))
#loc1604 = loc(callsite(#loc483 at #loc1363))
#loc1605 = loc(callsite(#loc465 at #loc1364))
#loc1606 = loc("jit(train_step)/MaskedActorCriticNetwork/jit(_where)"(#loc1365))
#loc1607 = loc(callsite(#loc465 at #loc1366))
#loc1608 = loc(callsite(#loc468 at #loc1366))
#loc1609 = loc(callsite(#loc469 at #loc1366))
#loc1610 = loc("jit(train_step)/squeeze"(#loc1367))
#loc1611 = loc("jit(train_step)/squeeze"(#loc1368))
#loc1612 = loc("jit(train_step)/broadcast_in_dim"(#loc1369))
#loc1613 = loc(callsite(#loc926 at #loc1370))
#loc1614 = loc(callsite(#loc1173 at #loc1370))
#loc1615 = loc("jit(train_step)/add"(#loc1371))
#loc1616 = loc("jit(train_step)/jit(_threefry_split)"(#loc1372))
#loc1617 = loc("jit(train_step)/while"(#loc1373))
#loc1618 = loc("jit(train_step)/while/cond/lt"(#loc1374))
#loc1619 = loc("jit(train_step)/while/body/jit(dynamic_index_in_dim)"(#loc1374))
#loc1620 = loc("jit(train_step)/while/body/closed_call"(#loc1374))
#loc1621 = loc("jit(train_step)/while/body/add"(#loc1374))
#loc1622 = loc("jit(train_step)/jit(_threefry_split)"(#loc1375))
#loc1623 = loc("jit(train_step)/broadcast_in_dim"(#loc1376))
#loc1624 = loc("jit(train_step)/while"(#loc1376))
#loc1625 = loc("jit(train_step)/while/cond/lt"(#loc1377))
#loc1626 = loc("jit(train_step)/while/body/jit(dynamic_index_in_dim)"(#loc1377))
#loc1627 = loc("jit(train_step)/while/body/closed_call"(#loc1377))
#loc1628 = loc("jit(train_step)/while/body/jit(dynamic_update_index_in_dim)"(#loc1377))
#loc1629 = loc("jit(train_step)/while/body/add"(#loc1377))
#loc1630 = loc(callsite(#loc465 at #loc1385))
#loc1631 = loc(callsite(#loc468 at #loc1385))
#loc1632 = loc(callsite(#loc469 at #loc1385))
#loc1633 = loc("MaskedActorCriticNetwork/torso/blocks_0/jit(relu)"(#loc1386))
#loc1634 = loc(callsite(#loc478 at #loc1387))
#loc1635 = loc(callsite(#loc482 at #loc1388))
#loc1636 = loc(callsite(#loc488 at #loc1388))
#loc1637 = loc(callsite(#loc489 at #loc1388))
#loc1638 = loc(callsite(#loc492 at #loc1388))
#loc1639 = loc("jit(log_softmax)"(#loc1389))
#loc1640 = loc(callsite(#loc525 at #loc1390))
#loc1641 = loc(callsite(#loc530 at #loc1390))
#loc1642 = loc(callsite(#loc531 at #loc1390))
#loc1644 = loc(callsite(#loc533 at #loc1391))
#loc1645 = loc(callsite(#loc535 at #loc1391))
#loc1646 = loc(callsite(#loc536 at #loc1391))
#loc1647 = loc(callsite(#loc537 at #loc1391))
#loc1648 = loc(callsite(#loc539 at #loc1391))
#loc1649 = loc(callsite(#loc542 at #loc1391))
#loc1650 = loc(callsite(#loc543 at #loc1391))
#loc1651 = loc(callsite(#loc559 at #loc1401))
#loc1652 = loc(callsite(#loc562 at #loc1401))
#loc1653 = loc(callsite(#loc563 at #loc1401))
#loc1654 = loc(callsite(#loc564 at #loc1401))
#loc1655 = loc(callsite(#loc565 at #loc1402))
#loc1656 = loc(callsite(#loc567 at #loc1402))
#loc1657 = loc(callsite(#loc568 at #loc1402))
#loc1658 = loc(callsite(#loc569 at #loc1402))
#loc1659 = loc("vmap()/eq"(#loc1403))
#loc1660 = loc("vmap()/reduce_and"(#loc1404))
#loc1661 = loc(callsite(#loc572 at #loc1405))
#loc1662 = loc(callsite(#loc574 at #loc1405))
#loc1663 = loc(callsite(#loc575 at #loc1405))
#loc1664 = loc(callsite(#loc576 at #loc1405))
#loc1665 = loc(callsite(#loc577 at #loc1405))
#loc1666 = loc(callsite(#loc579 at #loc1405))
#loc1667 = loc(callsite(#loc580 at #loc1405))
#loc1668 = loc(callsite(#loc581 at #loc1405))
#loc1669 = loc("vmap(jit(_where))"(#loc1406))
#loc1670 = loc("vmap()/convert_element_type"(#loc1407))
#loc1671 = loc("vmap()/add"(#loc1408))
#loc1672 = loc("vmap()/convert_element_type"(#loc1409))
#loc1673 = loc("vmap()/eq"(#loc1410))
#loc1674 = loc("vmap()/convert_element_type"(#loc1411))
#loc1675 = loc("vmap()/reduce_sum"(#loc1411))
#loc1676 = loc("vmap()/convert_element_type"(#loc1412))
#loc1677 = loc("vmap()/mul"(#loc1413))
#loc1678 = loc("vmap()/add"(#loc1414))
#loc1679 = loc("vmap()/eq"(#loc1415))
#loc1680 = loc("vmap()/convert_element_type"(#loc1416))
#loc1681 = loc("vmap()/reduce_sum"(#loc1416))
#loc1682 = loc("vmap()/convert_element_type"(#loc1417))
#loc1683 = loc("vmap()/mul"(#loc1418))
#loc1684 = loc("vmap()/add"(#loc1419))
#loc1685 = loc("vmap()/not"(#loc1420))
#loc1686 = loc("vmap()/convert_element_type"(#loc1421))
#loc1687 = loc("vmap()/mul"(#loc1422))
#loc1688 = loc("vmap()/sub"(#loc1423))
#loc1689 = loc("vmap()/ge"(#loc1424))
#loc1690 = loc("vmap()/or"(#loc1425))
#loc1691 = loc("vmap()/convert_element_type"(#loc1426))
#loc1692 = loc("vmap()/convert_element_type"(#loc1427))
#loc1693 = loc("vmap()/not"(#loc1428))
#loc1694 = loc("vmap()/convert_element_type"(#loc1429))
#loc1695 = loc(callsite(#loc606 at #loc1430))
#loc1696 = loc(callsite(#loc608 at #loc1430))
#loc1697 = loc(callsite(#loc609 at #loc1430))
#loc1698 = loc("vmap()/broadcast_in_dim"(#loc1431))
#loc1699 = loc("vmap(jit(_randint))"(#loc1432))
#loc1700 = loc("vmap()/lt"(#loc1433))
#loc1701 = loc("vmap()/add"(#loc1433))
#loc1702 = loc("vmap()/select_n"(#loc1433))
#loc1703 = loc("vmap()/broadcast_in_dim"(#loc1433))
#loc1704 = loc("vmap()/concatenate"(#loc1433))
#loc1705 = loc("vmap()/gather"(#loc1433))
#loc1706 = loc("vmap()/squeeze"(#loc1433))
#loc1707 = loc("vmap()/broadcast_in_dim"(#loc1434))
#loc1708 = loc(callsite(#loc606 at #loc1435))
#loc1709 = loc(callsite(#loc608 at #loc1435))
#loc1710 = loc(callsite(#loc609 at #loc1435))
#loc1711 = loc("vmap()/broadcast_in_dim"(#loc1436))
#loc1712 = loc("cell.scan_fn/reshape"(#loc1442))
#loc1713 = loc("jit:"(#loc1466))
#loc1714 = loc("jit"(#loc1389))
#loc1715 = loc("vmap()/jit"(#loc1406))
#loc1716 = loc("vmap()/jit"(#loc1432))
#loc1717 = loc(callsite(#loc483 at #loc1476))
#loc1718 = loc(callsite(#loc473 at #loc1476))
#loc1719 = loc(callsite(#loc477 at #loc1476))
#loc1720 = loc(callsite(#loc479 at #loc1476))
#loc1721 = loc(callsite(#loc520 at #loc1484))
#loc1722 = loc(callsite(#loc538 at #loc1489))
#loc1723 = loc(callsite(#loc540 at #loc1489))
#loc1724 = loc(callsite(#loc541 at #loc1489))
#loc1725 = loc("jvp()/exp"(#loc1494))
#loc1726 = loc("jvp()/eq"(#loc1495))
#loc1727 = loc("jvp(jit(_where))"(#loc1496))
#loc1728 = loc("transpose(jvp())/mul"(#loc1499))
#loc1729 = loc("transpose(jvp(jit(_where)))"(#loc1496))
#loc1730 = loc("transpose(jvp())/mul"(#loc1494))
#loc1731 = loc("transpose(jvp())/add_any"(#loc1494))
#loc1732 = loc(callsite(#loc722 at #loc1503))
#loc1733 = loc(callsite(#loc727 at #loc1517))
#loc1734 = loc(callsite(#loc733 at #loc1517))
#loc1735 = loc(callsite(#loc734 at #loc1517))
#loc1736 = loc(callsite(#loc735 at #loc1517))
#loc1737 = loc(callsite(#loc736 at #loc1518))
#loc1738 = loc(callsite(#loc738 at #loc1518))
#loc1739 = loc("sqrt"(#loc1519))
#loc1740 = loc("div"(#loc1521))
#loc1741 = loc("mul"(#loc1522))
#loc1742 = loc("select_n"(#loc1523))
#loc1743 = loc(callsite(#loc746 at #loc1524))
#loc1744 = loc(callsite(#loc752 at #loc1525))
#loc1745 = loc(callsite(#loc757 at #loc1526))
#loc1746 = loc(callsite(#loc759 at #loc1526))
#loc1747 = loc(callsite(#loc760 at #loc1526))
#loc1748 = loc("pow"(#loc1527))
#loc1749 = loc("sub"(#loc1527))
#loc1750 = loc("div"(#loc1527))
#loc1751 = loc("pow"(#loc1528))
#loc1752 = loc("sub"(#loc1528))
#loc1753 = loc("div"(#loc1528))
#loc1754 = loc(callsite(#loc763 at #loc1529))
#loc1755 = loc(callsite(#loc765 at #loc1529))
#loc1756 = loc(callsite(#loc766 at #loc1529))
#loc1757 = loc(callsite(#loc767 at #loc1529))
#loc1758 = loc(callsite(#loc768 at #loc1530))
#loc1759 = loc("jit:"(#loc1533))
#loc1760 = loc("jit:"(#loc1534))
#loc1761 = loc("jvp()/jit"(#loc1496))
#loc1762 = loc("transpose(jvp())/jit"(#loc1496))
#loc1763 = loc("jit:"(#loc1535))
#loc1764 = loc("jit:"(#loc1536))
#loc1765 = loc(callsite(#loc473 at #loc1569))
#loc1766 = loc(callsite(#loc477 at #loc1569))
#loc1767 = loc(callsite(#loc479 at #loc1569))
#loc1768 = loc(callsite(#loc483 at #loc1569))
#loc1769 = loc(callsite(#loc520 at #loc1571))
#loc1770 = loc(callsite(#loc526 at #loc1572))
#loc1771 = loc(callsite(#loc534 at #loc1572))
#loc1772 = loc("vmap()/vmap(jit(_threefry_split))"(#loc1575))
#loc1773 = loc("vmap()/lt"(#loc1578))
#loc1774 = loc("vmap()/add"(#loc1578))
#loc1775 = loc("vmap()/select_n"(#loc1578))
#loc1776 = loc("vmap()/broadcast_in_dim"(#loc1578))
#loc1777 = loc("vmap()/concatenate"(#loc1578))
#loc1778 = loc("vmap()/gather"(#loc1578))
#loc1779 = loc("vmap()/squeeze"(#loc1578))
#loc1780 = loc(callsite(#loc560 at #loc1579))
#loc1781 = loc(callsite(#loc566 at #loc1579))
#loc1782 = loc(callsite(#loc570 at #loc1579))
#loc1783 = loc(callsite(#loc571 at #loc1579))
#loc1784 = loc(callsite(#loc573 at #loc1579))
#loc1785 = loc(callsite(#loc582 at #loc1579))
#loc1786 = loc(callsite(#loc583 at #loc1579))
#loc1787 = loc(callsite(#loc584 at #loc1579))
#loc1788 = loc(callsite(#loc585 at #loc1579))
#loc1789 = loc(callsite(#loc586 at #loc1579))
#loc1790 = loc(callsite(#loc587 at #loc1579))
#loc1791 = loc(callsite(#loc588 at #loc1579))
#loc1792 = loc(callsite(#loc589 at #loc1579))
#loc1793 = loc(callsite(#loc590 at #loc1579))
#loc1794 = loc(callsite(#loc591 at #loc1579))
#loc1795 = loc(callsite(#loc592 at #loc1579))
#loc1796 = loc(callsite(#loc593 at #loc1579))
#loc1797 = loc(callsite(#loc594 at #loc1579))
#loc1798 = loc(callsite(#loc595 at #loc1579))
#loc1799 = loc(callsite(#loc596 at #loc1579))
#loc1800 = loc(callsite(#loc597 at #loc1579))
#loc1801 = loc(callsite(#loc598 at #loc1579))
#loc1802 = loc(callsite(#loc599 at #loc1579))
#loc1803 = loc(callsite(#loc600 at #loc1579))
#loc1804 = loc(callsite(#loc601 at #loc1579))
#loc1805 = loc(callsite(#loc602 at #loc1579))
#loc1806 = loc(callsite(#loc603 at #loc1579))
#loc1807 = loc(callsite(#loc604 at #loc1579))
#loc1808 = loc(callsite(#loc605 at #loc1579))
#loc1809 = loc(callsite(#loc607 at #loc1579))
#loc1810 = loc(callsite(#loc610 at #loc1580))
#loc1811 = loc(callsite(#loc612 at #loc1581))
#loc1812 = loc(callsite(#loc615 at #loc1581))
#loc1813 = loc(callsite(#loc616 at #loc1581))
#loc1814 = loc(callsite(#loc617 at #loc1581))
#loc1815 = loc(callsite(#loc610 at #loc1582))
#loc1816 = loc("vmap()/or"(#loc1583))
#loc1817 = loc("vmap()/broadcast_in_dim"(#loc1584))
#loc1818 = loc("vmap()/select_n"(#loc1584))
#loc1819 = loc("vmap()/broadcast_in_dim"(#loc1585))
#loc1820 = loc("vmap()/select_n"(#loc1585))
#loc1821 = loc("jit(train_step)/broadcast_in_dim"(#loc1595))
#loc1822 = loc("jit(train_step)/MaskedActorCriticNetwork/obs/dot_general"(#loc1597))
#loc1823 = loc("jit(train_step)/MaskedActorCriticNetwork/obs/reshape"(#loc1598))
#loc1824 = loc("jit(train_step)/MaskedActorCriticNetwork/obs/add"(#loc1599))
#loc1825 = loc(callsite(#loc474 at #loc1603))
#loc1826 = loc(callsite(#loc489 at #loc1604))
#loc1827 = loc("jit(train_step)/MaskedActorCriticNetwork/actor/dot_general"(#loc1605))
#loc1828 = loc("jit(train_step)/MaskedActorCriticNetwork/critic/dot_general"(#loc1607))
#loc1829 = loc("jit(train_step)/MaskedActorCriticNetwork/critic/reshape"(#loc1608))
#loc1830 = loc("jit(train_step)/MaskedActorCriticNetwork/critic/add"(#loc1609))
#loc1831 = loc("jit(train_step)/broadcast_in_dim"(#loc1613))
#loc1832 = loc("jit(train_step)/while"(#loc1613))
#loc1833 = loc("jit(train_step)/while/cond/lt"(#loc1614))
#loc1834 = loc("jit(train_step)/while/body/sub"(#loc1614))
#loc1835 = loc("jit(train_step)/while/body/jit(dynamic_index_in_dim)"(#loc1614))
#loc1836 = loc("jit(train_step)/while/body/closed_call"(#loc1614))
#loc1837 = loc("jit(train_step)/while/body/jit(dynamic_update_index_in_dim)"(#loc1614))
#loc1838 = loc("jit(train_step)/while/body/add"(#loc1614))
#loc1839 = loc("MaskedActorCriticNetwork/torso/blocks_0/Dense_0/dot_general"(#loc1630))
#loc1840 = loc("MaskedActorCriticNetwork/torso/blocks_0/Dense_0/reshape"(#loc1631))
#loc1841 = loc("MaskedActorCriticNetwork/torso/blocks_0/Dense_0/add"(#loc1632))
#loc1842 = loc("MaskedActorCriticNetwork/torso/blocks_1/broadcast_in_dim"(#loc1634))
#loc1843 = loc(callsite(#loc481 at #loc1635))
#loc1844 = loc(callsite(#loc487 at #loc1636))
#loc1845 = loc(callsite(#loc1637 at #loc1637))
#loc1846 = loc(callsite(#loc491 at #loc1638))
#loc1847 = loc("jit(_gumbel)"(#loc1640))
#loc1848 = loc("mul"(#loc1641))
#loc1849 = loc("broadcast_in_dim"(#loc1642))
#loc1850 = loc("add"(#loc1642))
#loc1851 = loc("jit(_one_hot)"(#loc1644))
#loc1852 = loc("lt"(#loc1645))
#loc1853 = loc("gt"(#loc1646))
#loc1854 = loc("or"(#loc1647))
#loc1855 = loc(callsite(#loc538 at #loc1648))
#loc1856 = loc(callsite(#loc540 at #loc1648))
#loc1857 = loc(callsite(#loc541 at #loc1648))
#loc1858 = loc("reduce_sum"(#loc1649))
#loc1859 = loc("jit(_where)"(#loc1650))
#loc1860 = loc("vmap()/iota"(#loc1651))
#loc1861 = loc("vmap()/eq"(#loc1652))
#loc1862 = loc("vmap()/ne"(#loc1652))
#loc1863 = loc("vmap()/and"(#loc1652))
#loc1864 = loc("vmap(jit(_where))"(#loc1652))
#loc1865 = loc("vmap()/mul"(#loc1652))
#loc1866 = loc("vmap()/shift_right_logical"(#loc1652))
#loc1867 = loc("vmap()/broadcast_in_dim"(#loc1653))
#loc1868 = loc("vmap()/mul"(#loc1653))
#loc1869 = loc("vmap()/reduce_sum"(#loc1654))
#loc1870 = loc("vmap(jit(searchsorted))"(#loc1655))
#loc1871 = loc("vmap(jit(clip))"(#loc1656))
#loc1872 = loc("vmap()/lt"(#loc1657))
#loc1873 = loc("vmap()/add"(#loc1657))
#loc1874 = loc("vmap()/select_n"(#loc1657))
#loc1875 = loc("vmap()/broadcast_in_dim"(#loc1657))
#loc1876 = loc("vmap()/gather"(#loc1657))
#loc1877 = loc("vmap()/squeeze"(#loc1657))
#loc1878 = loc("vmap()/eq"(#loc1658))
#loc1879 = loc("vmap()/eq"(#loc1661))
#loc1880 = loc("vmap()/broadcast_in_dim"(#loc1662))
#loc1881 = loc("vmap()/not"(#loc1663))
#loc1882 = loc("vmap()/convert_element_type"(#loc1664))
#loc1883 = loc("vmap()/lt"(#loc1665))
#loc1884 = loc("vmap()/add"(#loc1665))
#loc1885 = loc("vmap()/select_n"(#loc1665))
#loc1886 = loc("vmap()/broadcast_in_dim"(#loc1665))
#loc1887 = loc("vmap()/scatter-add"(#loc1665))
#loc1888 = loc("vmap()/transpose"(#loc1666))
#loc1889 = loc(callsite(#loc1666 at #loc1666))
#loc1890 = loc("vmap(jit(_where))"(#loc1667))
#loc1891 = loc("vmap(jit(_where))"(#loc1668))
#loc1892 = loc("vmap(jit(_one_hot))"(#loc1695))
#loc1893 = loc("vmap()/reshape"(#loc1696))
#loc1894 = loc("vmap(jit(_where))"(#loc1697))
#loc1895 = loc("vmap(jit(_one_hot))"(#loc1708))
#loc1896 = loc("vmap()/reshape"(#loc1709))
#loc1897 = loc("vmap(jit(_where))"(#loc1710))
#loc1898 = loc("while/body/jit"(#loc1637))
#loc1899 = loc("while/body/closed_call"(#loc1637))
#loc1900 = loc("jit:"(#loc1714))
#loc1901 = loc("jit"(#loc1640))
#loc1902 = loc("iota"(#loc1643))
#loc1903 = loc("reduce"(#loc1643))
#loc1904 = loc(callsite(#loc1643 at #loc1643))
#loc1905 = loc("jit"(#loc1644))
#loc1906 = loc("jit"(#loc1650))
#loc1907 = loc("vmap()/jit"(#loc1652))
#loc1908 = loc("vmap()/jit"(#loc1655))
#loc1909 = loc("vmap()/jit"(#loc1656))
#loc1910 = loc("while/body/jit"(#loc1666))
#loc1911 = loc("dynamic_slice"(#loc1666))
#loc1912 = loc("squeeze"(#loc1666))
#loc1913 = loc("while/body/closed_call"(#loc1666))
#loc1914 = loc("broadcast_in_dim"(#loc1666))
#loc1915 = loc("dynamic_update_slice"(#loc1666))
#loc1916 = loc("vmap()/jit"(#loc1667))
#loc1917 = loc("vmap()/jit"(#loc1668))
#loc1918 = loc("jit:"(#loc1715))
#loc1919 = loc("vmap()/jit"(#loc1695))
#loc1920 = loc("vmap()/jit"(#loc1697))
#loc1921 = loc("jit:"(#loc1716))
#loc1922 = loc("vmap()/jit"(#loc1708))
#loc1923 = loc("vmap()/jit"(#loc1710))
#loc1924 = loc(callsite(#loc489 at #loc1717))
#loc1925 = loc(callsite(#loc465 at #loc1718))
#loc1926 = loc(callsite(#loc468 at #loc1718))
#loc1927 = loc(callsite(#loc469 at #loc1718))
#loc1928 = loc("jvp(MaskedActorCriticNetwork)/torso/blocks_0/jit(relu)"(#loc1719))
#loc1929 = loc("jvp(MaskedActorCriticNetwork)/torso/blocks_0/gt"(#loc1719))
#loc1930 = loc(callsite(#loc478 at #loc1720))
#loc1931 = loc(callsite(#loc482 at #loc1717))
#loc1932 = loc(callsite(#loc488 at #loc1717))
#loc1933 = loc(callsite(#loc492 at #loc1717))
#loc1934 = loc("jvp(jit(log_softmax))"(#loc1721))
#loc1935 = loc("jvp()/eq"(#loc1722))
#loc1936 = loc("jvp()/mul"(#loc1723))
#loc1937 = loc("jvp()/jit(_where)"(#loc1724))
#loc1938 = loc("transpose(jvp(jvp()))/mul"(#loc1732))
#loc1939 = loc("transpose(jvp(jvp()))/add_any"(#loc1732))
#loc1940 = loc("transpose(jvp(jit(log_softmax)))"(#loc1721))
#loc1941 = loc("transpose(jvp(MaskedActorCriticNetwork))/torso/blocks_0/broadcast_in_dim"(#loc1719))
#loc1942 = loc("transpose(jvp(MaskedActorCriticNetwork))/torso/blocks_0/select_n"(#loc1719))
#loc1943 = loc("square"(#loc1733))
#loc1944 = loc("broadcast_in_dim"(#loc1734))
#loc1945 = loc("square"(#loc1735))
#loc1946 = loc("add"(#loc1736))
#loc1947 = loc("reduce_sum"(#loc1737))
#loc1948 = loc("add"(#loc1738))
#loc1949 = loc(callsite(#loc745 at #loc1743))
#loc1950 = loc(callsite(#loc748 at #loc1743))
#loc1951 = loc(callsite(#loc749 at #loc1743))
#loc1952 = loc(callsite(#loc751 at #loc1744))
#loc1953 = loc(callsite(#loc754 at #loc1744))
#loc1954 = loc(callsite(#loc755 at #loc1744))
#loc1955 = loc(callsite(#loc756 at #loc1744))
#loc1956 = loc("lt"(#loc1745))
#loc1957 = loc("add"(#loc1746))
#loc1958 = loc("jit(_where)"(#loc1747))
#loc1959 = loc("add"(#loc1754))
#loc1960 = loc("sqrt"(#loc1755))
#loc1961 = loc("add"(#loc1756))
#loc1962 = loc("div"(#loc1757))
#loc1963 = loc("mul"(#loc1758))
#loc1964 = loc("jvp()/jit"(#loc1721))
#loc1965 = loc("jit:"(#loc1761))
#loc1966 = loc("jit:"(#loc1762))
#loc1967 = loc("transpose(jvp())/jit"(#loc1721))
#loc1968 = loc("jit"(#loc1747))
#loc1969 = loc(callsite(#loc465 at #loc1765))
#loc1970 = loc(callsite(#loc468 at #loc1765))
#loc1971 = loc(callsite(#loc469 at #loc1765))
#loc1972 = loc("MaskedActorCriticNetwork/torso/blocks_0/jit(relu)"(#loc1766))
#loc1973 = loc(callsite(#loc478 at #loc1767))
#loc1974 = loc(callsite(#loc482 at #loc1768))
#loc1975 = loc(callsite(#loc488 at #loc1768))
#loc1976 = loc(callsite(#loc489 at #loc1768))
#loc1977 = loc(callsite(#loc492 at #loc1768))
#loc1978 = loc("jit(log_softmax)"(#loc1769))
#loc1979 = loc(callsite(#loc525 at #loc1770))
#loc1980 = loc(callsite(#loc530 at #loc1770))
#loc1981 = loc(callsite(#loc531 at #loc1770))
#loc1982 = loc(callsite(#loc532 at #loc1770))
#loc1983 = loc(callsite(#loc533 at #loc1771))
#loc1984 = loc(callsite(#loc535 at #loc1771))
#loc1985 = loc(callsite(#loc536 at #loc1771))
#loc1986 = loc(callsite(#loc537 at #loc1771))
#loc1987 = loc(callsite(#loc539 at #loc1771))
#loc1988 = loc(callsite(#loc542 at #loc1771))
#loc1989 = loc(callsite(#loc543 at #loc1771))
#loc1990 = loc(callsite(#loc559 at #loc1780))
#loc1991 = loc(callsite(#loc562 at #loc1780))
#loc1992 = loc(callsite(#loc563 at #loc1780))
#loc1993 = loc(callsite(#loc564 at #loc1780))
#loc1994 = loc(callsite(#loc565 at #loc1781))
#loc1995 = loc(callsite(#loc567 at #loc1781))
#loc1996 = loc(callsite(#loc568 at #loc1781))
#loc1997 = loc(callsite(#loc569 at #loc1781))
#loc1998 = loc("vmap()/eq"(#loc1782))
#loc1999 = loc("vmap()/reduce_and"(#loc1783))
#loc2000 = loc(callsite(#loc572 at #loc1784))
#loc2001 = loc(callsite(#loc574 at #loc1784))
#loc2002 = loc(callsite(#loc575 at #loc1784))
#loc2003 = loc(callsite(#loc576 at #loc1784))
#loc2004 = loc(callsite(#loc577 at #loc1784))
#loc2005 = loc(callsite(#loc579 at #loc1784))
#loc2006 = loc(callsite(#loc580 at #loc1784))
#loc2007 = loc(callsite(#loc581 at #loc1784))
#loc2008 = loc("vmap(jit(_where))"(#loc1785))
#loc2009 = loc("vmap()/convert_element_type"(#loc1786))
#loc2010 = loc("vmap()/add"(#loc1787))
#loc2011 = loc("vmap()/convert_element_type"(#loc1788))
#loc2012 = loc("vmap()/eq"(#loc1789))
#loc2013 = loc("vmap()/convert_element_type"(#loc1790))
#loc2014 = loc("vmap()/reduce_sum"(#loc1790))
#loc2015 = loc("vmap()/convert_element_type"(#loc1791))
#loc2016 = loc("vmap()/mul"(#loc1792))
#loc2017 = loc("vmap()/add"(#loc1793))
#loc2018 = loc("vmap()/eq"(#loc1794))
#loc2019 = loc("vmap()/convert_element_type"(#loc1795))
#loc2020 = loc("vmap()/reduce_sum"(#loc1795))
#loc2021 = loc("vmap()/convert_element_type"(#loc1796))
#loc2022 = loc("vmap()/mul"(#loc1797))
#loc2023 = loc("vmap()/add"(#loc1798))
#loc2024 = loc("vmap()/not"(#loc1799))
#loc2025 = loc("vmap()/convert_element_type"(#loc1800))
#loc2026 = loc("vmap()/mul"(#loc1801))
#loc2027 = loc("vmap()/sub"(#loc1802))
#loc2028 = loc("vmap()/ge"(#loc1803))
#loc2029 = loc("vmap()/or"(#loc1804))
#loc2030 = loc("vmap()/convert_element_type"(#loc1805))
#loc2031 = loc("vmap()/convert_element_type"(#loc1806))
#loc2032 = loc("vmap()/not"(#loc1807))
#loc2033 = loc("vmap()/convert_element_type"(#loc1808))
#loc2034 = loc(callsite(#loc606 at #loc1809))
#loc2035 = loc(callsite(#loc608 at #loc1809))
#loc2036 = loc(callsite(#loc609 at #loc1809))
#loc2037 = loc("vmap()/broadcast_in_dim"(#loc1810))
#loc2038 = loc("vmap(jit(_randint))"(#loc1811))
#loc2039 = loc("vmap()/lt"(#loc1812))
#loc2040 = loc("vmap()/add"(#loc1812))
#loc2041 = loc("vmap()/select_n"(#loc1812))
#loc2042 = loc("vmap()/broadcast_in_dim"(#loc1812))
#loc2043 = loc("vmap()/concatenate"(#loc1812))
#loc2044 = loc("vmap()/gather"(#loc1812))
#loc2045 = loc("vmap()/squeeze"(#loc1812))
#loc2046 = loc("vmap()/broadcast_in_dim"(#loc1813))
#loc2047 = loc(callsite(#loc606 at #loc1814))
#loc2048 = loc(callsite(#loc608 at #loc1814))
#loc2049 = loc(callsite(#loc609 at #loc1814))
#loc2050 = loc("vmap()/broadcast_in_dim"(#loc1815))
#loc2051 = loc(callsite(#loc473 at #loc1825))
#loc2052 = loc(callsite(#loc477 at #loc1825))
#loc2053 = loc(callsite(#loc479 at #loc1825))
#loc2054 = loc(callsite(#loc483 at #loc1825))
#loc2055 = loc(callsite(#loc1826 at #loc1826))
#loc2056 = loc(callsite(#loc480 at #loc1843))
#loc2057 = loc(callsite(#loc486 at #loc1844))
#loc2058 = loc("MaskedActorCriticNetwork/torso/blocks_1/broadcast_in_dim"(#loc1845))
#loc2059 = loc("MaskedActorCriticNetwork/torso/blocks_1/while"(#loc1845))
#loc2060 = loc(callsite(#loc1845 at #loc1637))
#loc2061 = loc(callsite(#loc490 at #loc1846))
#loc2062 = loc("eq"(#loc1855))
#loc2063 = loc("broadcast_in_dim"(#loc1856))
#loc2064 = loc("mul"(#loc1856))
#loc2065 = loc("jit(_where)"(#loc1857))
#loc2066 = loc("vmap()/broadcast_in_dim"(#loc1889))
#loc2067 = loc("vmap()/while"(#loc1889))
#loc2068 = loc(callsite(#loc1889 at #loc1666))
#loc2069 = loc("jit:"(#loc1898))
#loc2070 = loc("closed_call:"(#loc1899))
#loc2071 = loc("jit:"(#loc1901))
#loc2072 = loc("gt"(#loc1904))
#loc2073 = loc("ne"(#loc1904))
#loc2074 = loc("or"(#loc1904))
#loc2075 = loc("eq"(#loc1904))
#loc2076 = loc("lt"(#loc1904))
#loc2077 = loc("and"(#loc1904))
#loc2078 = loc("select_n"(#loc1904))
#loc2079 = loc("jit:"(#loc1905))
#loc2080 = loc("jit:"(#loc1906))
#loc2081 = loc("jit:"(#loc1907))
#loc2082 = loc("jit:"(#loc1908))
#loc2083 = loc("jit:"(#loc1909))
#loc2084 = loc("jit:"(#loc1910))
#loc2085 = loc("closed_call:"(#loc1913))
#loc2086 = loc("jit:"(#loc1916))
#loc2087 = loc("jit:"(#loc1917))
#loc2088 = loc("jit:"(#loc1919))
#loc2089 = loc("jit:"(#loc1920))
#loc2090 = loc("jit:"(#loc1922))
#loc2091 = loc("jit:"(#loc1923))
#loc2092 = loc("while/body/closed_call"(#loc1826))
#loc2093 = loc(callsite(#loc1924 at #loc1924))
#loc2094 = loc("jvp(MaskedActorCriticNetwork)/torso/blocks_0/Dense_0/dot_general"(#loc1925))
#loc2095 = loc("jvp(MaskedActorCriticNetwork)/torso/blocks_0/Dense_0/reshape"(#loc1926))
#loc2096 = loc("jvp(MaskedActorCriticNetwork)/torso/blocks_0/Dense_0/add"(#loc1927))
#loc2097 = loc("jvp(MaskedActorCriticNetwork)/torso/blocks_1/broadcast_in_dim"(#loc1930))
#loc2098 = loc(callsite(#loc481 at #loc1931))
#loc2099 = loc(callsite(#loc487 at #loc1932))
#loc2100 = loc(callsite(#loc491 at #loc1933))
#loc2101 = loc("transpose(jvp(MaskedActorCriticNetwork))/torso/blocks_1/broadcast_in_dim"(#loc1924))
#loc2102 = loc("transpose(jvp(MaskedActorCriticNetwork))/torso/blocks_0/Dense_0/reduce_sum"(#loc1927))
#loc2103 = loc("transpose(jvp(MaskedActorCriticNetwork))/torso/blocks_0/Dense_0/reshape"(#loc1927))
#loc2104 = loc("transpose(jvp(MaskedActorCriticNetwork))/torso/blocks_0/Dense_0/reshape"(#loc1926))
#loc2105 = loc("transpose(jvp(MaskedActorCriticNetwork))/torso/blocks_0/Dense_0/dot_general"(#loc1925))
#loc2106 = loc("transpose(jvp(MaskedActorCriticNetwork))/torso/blocks_0/Dense_0/transpose"(#loc1925))
#loc2107 = loc("mul"(#loc1949))
#loc2108 = loc("mul"(#loc1950))
#loc2109 = loc("add"(#loc1951))
#loc2110 = loc(callsite(#loc750 at #loc1952))
#loc2111 = loc("mul"(#loc1953))
#loc2112 = loc("mul"(#loc1954))
#loc2113 = loc("add"(#loc1955))
#loc2114 = loc("while/body/jit"(#loc1924))
#loc2115 = loc("dynamic_slice"(#loc1924))
#loc2116 = loc("squeeze"(#loc1924))
#loc2117 = loc("while/body/closed_call"(#loc1924))
#loc2118 = loc("broadcast_in_dim"(#loc1924))
#loc2119 = loc("dynamic_update_slice"(#loc1924))
#loc2120 = loc("jit:"(#loc1964))
#loc2121 = loc("jit:"(#loc1967))
#loc2122 = loc("add_any"(#loc1924))
#loc2123 = loc("jit:"(#loc1968))
#loc2124 = loc("MaskedActorCriticNetwork/torso/blocks_0/Dense_0/dot_general"(#loc1969))
#loc2125 = loc("MaskedActorCriticNetwork/torso/blocks_0/Dense_0/reshape"(#loc1970))
#loc2126 = loc("MaskedActorCriticNetwork/torso/blocks_0/Dense_0/add"(#loc1971))
#loc2127 = loc("MaskedActorCriticNetwork/torso/blocks_1/broadcast_in_dim"(#loc1973))
#loc2128 = loc(callsite(#loc481 at #loc1974))
#loc2129 = loc(callsite(#loc487 at #loc1975))
#loc2130 = loc(callsite(#loc1976 at #loc1976))
#loc2131 = loc(callsite(#loc491 at #loc1977))
#loc2132 = loc("jit(_gumbel)"(#loc1979))
#loc2133 = loc("mul"(#loc1980))
#loc2134 = loc("broadcast_in_dim"(#loc1981))
#loc2135 = loc("add"(#loc1981))
#loc2136 = loc("jit(_one_hot)"(#loc1983))
#loc2137 = loc("lt"(#loc1984))
#loc2138 = loc("gt"(#loc1985))
#loc2139 = loc("or"(#loc1986))
#loc2140 = loc(callsite(#loc538 at #loc1987))
#loc2141 = loc(callsite(#loc540 at #loc1987))
#loc2142 = loc(callsite(#loc541 at #loc1987))
#loc2143 = loc("reduce_sum"(#loc1988))
#loc2144 = loc("jit(_where)"(#loc1989))
#loc2145 = loc("vmap()/iota"(#loc1990))
#loc2146 = loc("vmap()/eq"(#loc1991))
#loc2147 = loc("vmap()/ne"(#loc1991))
#loc2148 = loc("vmap()/and"(#loc1991))
#loc2149 = loc("vmap(jit(_where))"(#loc1991))
#loc2150 = loc("vmap()/mul"(#loc1991))
#loc2151 = loc("vmap()/shift_right_logical"(#loc1991))
#loc2152 = loc("vmap()/broadcast_in_dim"(#loc1992))
#loc2153 = loc("vmap()/mul"(#loc1992))
#loc2154 = loc("vmap()/reduce_sum"(#loc1993))
#loc2155 = loc("vmap(jit(searchsorted))"(#loc1994))
#loc2156 = loc("vmap(jit(clip))"(#loc1995))
#loc2157 = loc("vmap()/lt"(#loc1996))
#loc2158 = loc("vmap()/add"(#loc1996))
#loc2159 = loc("vmap()/select_n"(#loc1996))
#loc2160 = loc("vmap()/broadcast_in_dim"(#loc1996))
#loc2161 = loc("vmap()/gather"(#loc1996))
#loc2162 = loc("vmap()/squeeze"(#loc1996))
#loc2163 = loc("vmap()/eq"(#loc1997))
#loc2164 = loc("vmap()/eq"(#loc2000))
#loc2165 = loc("vmap()/broadcast_in_dim"(#loc2001))
#loc2166 = loc("vmap()/not"(#loc2002))
#loc2167 = loc("vmap()/convert_element_type"(#loc2003))
#loc2168 = loc("vmap()/lt"(#loc2004))
#loc2169 = loc("vmap()/add"(#loc2004))
#loc2170 = loc("vmap()/select_n"(#loc2004))
#loc2171 = loc("vmap()/broadcast_in_dim"(#loc2004))
#loc2172 = loc("vmap()/scatter-add"(#loc2004))
#loc2173 = loc("vmap()/transpose"(#loc2005))
#loc2174 = loc(callsite(#loc2005 at #loc2005))
#loc2175 = loc("vmap(jit(_where))"(#loc2006))
#loc2176 = loc("vmap(jit(_where))"(#loc2007))
#loc2177 = loc("vmap(jit(_one_hot))"(#loc2034))
#loc2178 = loc("vmap()/reshape"(#loc2035))
#loc2179 = loc("vmap(jit(_where))"(#loc2036))
#loc2180 = loc("vmap(jit(_one_hot))"(#loc2047))
#loc2181 = loc("vmap()/reshape"(#loc2048))
#loc2182 = loc("vmap(jit(_where))"(#loc2049))
#loc2183 = loc("while/body/closed_call"(#loc1976))
#loc2184 = loc("while/body/closed_call"(#loc2005))
#loc2185 = loc(callsite(#loc465 at #loc2051))
#loc2186 = loc(callsite(#loc468 at #loc2051))
#loc2187 = loc(callsite(#loc469 at #loc2051))
#loc2188 = loc("jit(train_step)/MaskedActorCriticNetwork/torso/blocks_0/jit(relu)"(#loc2052))
#loc2189 = loc(callsite(#loc478 at #loc2053))
#loc2190 = loc(callsite(#loc482 at #loc2054))
#loc2191 = loc(callsite(#loc488 at #loc2054))
#loc2192 = loc(callsite(#loc489 at #loc2054))
#loc2193 = loc(callsite(#loc492 at #loc2054))
#loc2194 = loc("MaskedActorCriticNetwork/torso/blocks_1/transpose"(#loc2056))
#loc2195 = loc(callsite(#loc485 at #loc2057))
#loc2196 = loc("MaskedActorCriticNetwork/torso/blocks_1/while/cond/lt"(#loc2060))
#loc2197 = loc("MaskedActorCriticNetwork/torso/blocks_1/while/body/jit(dynamic_index_in_dim)"(#loc2060))
#loc2198 = loc("MaskedActorCriticNetwork/torso/blocks_1/while/body/closed_call"(#loc2060))
#loc2199 = loc("MaskedActorCriticNetwork/torso/blocks_1/while/body/jit(dynamic_update_index_in_dim)"(#loc2060))
#loc2200 = loc("MaskedActorCriticNetwork/torso/blocks_1/while/body/add"(#loc2060))
#loc2201 = loc("MaskedActorCriticNetwork/torso/blocks_1/transpose"(#loc2061))
#loc2202 = loc("vmap()/while/cond/lt"(#loc2068))
#loc2203 = loc("vmap()/while/body/jit(dynamic_index_in_dim)"(#loc2068))
#loc2204 = loc("vmap()/while/body/closed_call"(#loc2068))
#loc2205 = loc("vmap()/while/body/jit(dynamic_update_index_in_dim)"(#loc2068))
#loc2206 = loc("vmap()/while/body/add"(#loc2068))
#loc2207 = loc("closed_call:"(#loc2092))
#loc2208 = loc("jvp(MaskedActorCriticNetwork)/torso/blocks_1/empty2"(#loc2093))
#loc2209 = loc(callsite(#loc480 at #loc2098))
#loc2210 = loc(callsite(#loc486 at #loc2099))
#loc2211 = loc("jvp(MaskedActorCriticNetwork)/torso/blocks_1/broadcast_in_dim"(#loc2093))
#loc2212 = loc("jvp(MaskedActorCriticNetwork)/torso/blocks_1/while"(#loc2093))
#loc2213 = loc(callsite(#loc2093 at #loc1924))
#loc2214 = loc(callsite(#loc490 at #loc2100))
#loc2215 = loc("transpose(jvp(MaskedActorCriticNetwork))/torso/blocks_1/broadcast_in_dim"(#loc2093))
#loc2216 = loc("transpose(jvp(MaskedActorCriticNetwork))/torso/blocks_1/while"(#loc2093))
#loc2217 = loc("integer_pow"(#loc2110))
#loc2218 = loc("jit:"(#loc2114))
#loc2219 = loc("closed_call:"(#loc2117))
#loc2220 = loc(callsite(#loc480 at #loc2128))
#loc2221 = loc(callsite(#loc486 at #loc2129))
#loc2222 = loc("MaskedActorCriticNetwork/torso/blocks_1/broadcast_in_dim"(#loc2130))
#loc2223 = loc("MaskedActorCriticNetwork/torso/blocks_1/while"(#loc2130))
#loc2224 = loc(callsite(#loc2130 at #loc1976))
#loc2225 = loc(callsite(#loc490 at #loc2131))
#loc2226 = loc("eq"(#loc2140))
#loc2227 = loc("broadcast_in_dim"(#loc2141))
#loc2228 = loc("mul"(#loc2141))
#loc2229 = loc("jit(_where)"(#loc2142))
#loc2230 = loc("vmap()/broadcast_in_dim"(#loc2174))
#loc2231 = loc("vmap()/while"(#loc2174))
#loc2232 = loc(callsite(#loc2174 at #loc2005))
#loc2233 = loc("closed_call:"(#loc2183))
#loc2234 = loc("closed_call:"(#loc2184))
#loc2235 = loc("jit(train_step)/MaskedActorCriticNetwork/torso/blocks_0/Dense_0/dot_general"(#loc2185))
#loc2236 = loc("jit(train_step)/MaskedActorCriticNetwork/torso/blocks_0/Dense_0/reshape"(#loc2186))
#loc2237 = loc("jit(train_step)/MaskedActorCriticNetwork/torso/blocks_0/Dense_0/add"(#loc2187))
#loc2238 = loc("jit(train_step)/MaskedActorCriticNetwork/torso/blocks_1/broadcast_in_dim"(#loc2189))
#loc2239 = loc(callsite(#loc481 at #loc2190))
#loc2240 = loc(callsite(#loc487 at #loc2191))
#loc2241 = loc(callsite(#loc1826 at #loc2192))
#loc2242 = loc(callsite(#loc2055 at #loc2192))
#loc2243 = loc(callsite(#loc491 at #loc2193))
#loc2244 = loc(callsite(#loc484 at #loc2195))
#loc2245 = loc("jvp(MaskedActorCriticNetwork)/torso/blocks_1/transpose"(#loc2209))
#loc2246 = loc(callsite(#loc485 at #loc2210))
#loc2247 = loc("jvp(MaskedActorCriticNetwork)/torso/blocks_1/while/cond/lt"(#loc2213))
#loc2248 = loc("jvp(MaskedActorCriticNetwork)/torso/blocks_1/while/body/jit(dynamic_index_in_dim)"(#loc2213))
#loc2249 = loc("jvp(MaskedActorCriticNetwork)/torso/blocks_1/while/body/closed_call"(#loc2213))
#loc2250 = loc("jvp(MaskedActorCriticNetwork)/torso/blocks_1/while/body/jit(dynamic_update_index_in_dim)"(#loc2213))
#loc2251 = loc("jvp(MaskedActorCriticNetwork)/torso/blocks_1/while/body/add"(#loc2213))
#loc2252 = loc("jvp(MaskedActorCriticNetwork)/torso/blocks_1/transpose"(#loc2214))
#loc2253 = loc("transpose(jvp(MaskedActorCriticNetwork))/torso/blocks_1/transpose"(#loc2214))
#loc2254 = loc("transpose(jvp(MaskedActorCriticNetwork))/torso/blocks_1/while/cond/lt"(#loc2213))
#loc2255 = loc("transpose(jvp(MaskedActorCriticNetwork))/torso/blocks_1/while/body/sub"(#loc2213))
#loc2256 = loc("transpose(jvp(MaskedActorCriticNetwork))/torso/blocks_1/while/body/jit(dynamic_index_in_dim)"(#loc2213))
#loc2257 = loc("transpose(jvp(MaskedActorCriticNetwork))/torso/blocks_1/while/body/closed_call"(#loc2213))
#loc2258 = loc("transpose(jvp(MaskedActorCriticNetwork))/torso/blocks_1/while/body/jit(dynamic_update_index_in_dim)"(#loc2213))
#loc2259 = loc("transpose(jvp(MaskedActorCriticNetwork))/torso/blocks_1/while/body/add"(#loc2213))
#loc2260 = loc("transpose(jvp(MaskedActorCriticNetwork))/torso/blocks_1/transpose"(#loc2209))
#loc2261 = loc("MaskedActorCriticNetwork/torso/blocks_1/transpose"(#loc2220))
#loc2262 = loc(callsite(#loc485 at #loc2221))
#loc2263 = loc("MaskedActorCriticNetwork/torso/blocks_1/while/cond/lt"(#loc2224))
#loc2264 = loc("MaskedActorCriticNetwork/torso/blocks_1/while/body/jit(dynamic_index_in_dim)"(#loc2224))
#loc2265 = loc("MaskedActorCriticNetwork/torso/blocks_1/while/body/closed_call"(#loc2224))
#loc2266 = loc("MaskedActorCriticNetwork/torso/blocks_1/while/body/jit(dynamic_update_index_in_dim)"(#loc2224))
#loc2267 = loc("MaskedActorCriticNetwork/torso/blocks_1/while/body/add"(#loc2224))
#loc2268 = loc("MaskedActorCriticNetwork/torso/blocks_1/transpose"(#loc2225))
#loc2269 = loc("vmap()/while/cond/lt"(#loc2232))
#loc2270 = loc("vmap()/while/body/jit(dynamic_index_in_dim)"(#loc2232))
#loc2271 = loc("vmap()/while/body/closed_call"(#loc2232))
#loc2272 = loc("vmap()/while/body/jit(dynamic_update_index_in_dim)"(#loc2232))
#loc2273 = loc("vmap()/while/body/add"(#loc2232))
#loc2274 = loc(callsite(#loc480 at #loc2239))
#loc2275 = loc(callsite(#loc486 at #loc2240))
#loc2276 = loc("jit(train_step)/MaskedActorCriticNetwork/torso/blocks_1/broadcast_in_dim"(#loc2241))
#loc2277 = loc("jit(train_step)/MaskedActorCriticNetwork/torso/blocks_1/while"(#loc2241))
#loc2278 = loc("jit(train_step)/MaskedActorCriticNetwork/torso/blocks_1/while/cond/lt"(#loc2242))
#loc2279 = loc("jit(train_step)/MaskedActorCriticNetwork/torso/blocks_1/while/body/jit(dynamic_index_in_dim)"(#loc2242))
#loc2280 = loc("jit(train_step)/MaskedActorCriticNetwork/torso/blocks_1/while/body/closed_call"(#loc2242))
#loc2281 = loc("jit(train_step)/MaskedActorCriticNetwork/torso/blocks_1/while/body/jit(dynamic_update_index_in_dim)"(#loc2242))
#loc2282 = loc("jit(train_step)/MaskedActorCriticNetwork/torso/blocks_1/while/body/add"(#loc2242))
#loc2283 = loc(callsite(#loc490 at #loc2243))
#loc2284 = loc("MaskedActorCriticNetwork/torso/blocks_1/cell.scan_fn/jit(_where)"(#loc2244))
#loc2285 = loc("MaskedActorCriticNetwork/torso/blocks_1/cell.scan_fn/jit"(#loc2244))
#loc2286 = loc(callsite(#loc484 at #loc2246))
#loc2287 = loc(callsite(#loc484 at #loc2262))
#loc2288 = loc("jit(train_step)/MaskedActorCriticNetwork/torso/blocks_1/transpose"(#loc2274))
#loc2289 = loc(callsite(#loc485 at #loc2275))
#loc2290 = loc("jit(train_step)/MaskedActorCriticNetwork/torso/blocks_1/transpose"(#loc2283))
#loc2291 = loc("jit:"(#loc2285))
#loc2292 = loc("jvp(MaskedActorCriticNetwork)/torso/blocks_1/cell.scan_fn/jit(_where)"(#loc2286))
#loc2293 = loc("jvp(MaskedActorCriticNetwork)/torso/blocks_1/cell.scan_fn/jit"(#loc2286))
#loc2294 = loc("MaskedActorCriticNetwork/torso/blocks_1/cell.scan_fn/jit(_where)"(#loc2287))
#loc2295 = loc(callsite(#loc484 at #loc2289))
#loc2296 = loc("jit:"(#loc2293))
#loc2297 = loc("jit(train_step)/MaskedActorCriticNetwork/torso/blocks_1/cell.scan_fn/jit(_where)"(#loc2295))
