#loc = loc(unknown)
#loc1 = loc("key")
#loc2 = loc("state.current_player")
#loc3 = loc("state.observation")
#loc4 = loc("state.rewards")
#loc5 = loc("state.terminated")
#loc6 = loc("state.truncated")
#loc7 = loc("state.legal_action_mask")
#loc8 = loc("state._step_count")
#loc9 = loc("state._x.color")
#loc10 = loc("state._x.board")
#loc11 = loc("state._x.winner")
#loc67 = loc("/home/farr/mcts/mcts/mcts.py":141:22 to :43)
#loc70 = loc("/home/farr/mcts/mcts/mcts.py":30:13 to :45)
#loc71 = loc("/home/farr/mcts/mcts/mcts.py":143:34 to :77)
#loc90 = loc("/home/farr/mcts/mcts/action_selection.py":35:11 to :29)
#loc116 = loc("scatter")
#loc213 = loc("reduce")
#loc259 = loc("search.<locals>.body_fun"(#loc67))
#loc262 = loc("selection"(#loc70))
#loc263 = loc("search.<locals>.body_fun"(#loc71))
#loc282 = loc("uct"(#loc90))
#loc308 = loc("scatter:"(#loc116))
#loc403 = loc("reduce:"(#loc213))
#loc410 = loc(callsite(#loc262 at #loc263))
#loc546 = loc(callsite(#loc282 at #loc410))
module @jit_pick_move attributes {jax.uses_shape_polymorphism = false, mhlo.num_partitions = 1 : i32, mhlo.num_replicas = 1 : i32} {
  func.func public @main(%arg0: tensor<2xui32> loc("key"), %arg1: tensor<i32> loc("state.current_player"), %arg2: tensor<3x3x2xi1> loc("state.observation"), %arg3: tensor<2xf32> loc("state.rewards"), %arg4: tensor<i1> loc("state.terminated"), %arg5: tensor<i1> loc("state.truncated"), %arg6: tensor<9xi1> loc("state.legal_action_mask"), %arg7: tensor<i32> loc("state._step_count"), %arg8: tensor<i32> loc("state._x.color"), %arg9: tensor<9xi32> loc("state._x.board"), %arg10: tensor<i32> loc("state._x.winner")) -> (tensor<i32> {jax.result_info = "result[0]"}, tensor<9xi32> {jax.result_info = "result[1]"}, tensor<401xf32> {jax.result_info = "result[2]"}, tensor<401xi32> {jax.result_info = "result[3]"}) {
    %cst = stablehlo.constant dense<0xFF800000> : tensor<f32> loc(#loc517)
    %c = stablehlo.constant dense<false> : tensor<i1> loc(#loc1114)
    %c_0 = stablehlo.constant dense<9> : tensor<i32> loc(#loc)
    %c_1 = stablehlo.constant dense<401> : tensor<i32> loc(#loc)
    %c_2 = stablehlo.constant dense<400> : tensor<i32> loc(#loc)
    %c_3 = stablehlo.constant dense<1> : tensor<i32> loc(#loc)
    %cst_4 = stablehlo.constant dense<5.000000e-01> : tensor<f32> loc(#loc517)
    %c_5 = stablehlo.constant dense<32> : tensor<i32> loc(#loc1115)
    %c_6 = stablehlo.constant dense<-1> : tensor<i32> loc(#loc)
    %cst_7 = stablehlo.constant dense<0.000000e+00> : tensor<f32> loc(#loc)
    %c_8 = stablehlo.constant dense<0> : tensor<i32> loc(#loc)
    %c_9 = stablehlo.constant dense<[0, 1]> : tensor<2xi32> loc(#loc)
    %c_10 = stablehlo.constant dense<[1, 0]> : tensor<2xi32> loc(#loc)
    %cst_11 = stablehlo.constant dense<9.99999993E-9> : tensor<f32> loc(#loc517)
    %cst_12 = stablehlo.constant dense<1.41421354> : tensor<f32> loc(#loc517)
    %c_13 = stablehlo.constant dense<[[0, 1, 2], [3, 4, 5], [6, 7, 8], [0, 3, 6], [1, 4, 7], [2, 5, 8], [0, 4, 8], [2, 4, 6]]> : tensor<8x3xi32> loc(#loc)
    %cst_14 = stablehlo.constant dense<-1.000000e+00> : tensor<2xf32> loc(#loc)
    %c_15 = stablehlo.constant dense<true> : tensor<i1> loc(#loc517)
    %0 = stablehlo.broadcast_in_dim %arg1, dims = [] : (tensor<i32>) -> tensor<1xi32> loc(#loc1116)
    %1 = stablehlo.broadcast_in_dim %0, dims = [0] : (tensor<1xi32>) -> tensor<1x401xi32> loc(#loc1117)
    %2 = stablehlo.reshape %1 : (tensor<1x401xi32>) -> tensor<401xi32> loc(#loc1118)
    %3 = stablehlo.broadcast_in_dim %arg2, dims = [1, 2, 3] : (tensor<3x3x2xi1>) -> tensor<1x3x3x2xi1> loc(#loc1116)
    %4 = stablehlo.broadcast_in_dim %3, dims = [0, 2, 3, 4] : (tensor<1x3x3x2xi1>) -> tensor<1x401x3x3x2xi1> loc(#loc1117)
    %5 = stablehlo.reshape %4 : (tensor<1x401x3x3x2xi1>) -> tensor<401x3x3x2xi1> loc(#loc1118)
    %6 = stablehlo.broadcast_in_dim %arg3, dims = [1] : (tensor<2xf32>) -> tensor<1x2xf32> loc(#loc1116)
    %7 = stablehlo.broadcast_in_dim %6, dims = [0, 2] : (tensor<1x2xf32>) -> tensor<1x401x2xf32> loc(#loc1117)
    %8 = stablehlo.reshape %7 : (tensor<1x401x2xf32>) -> tensor<401x2xf32> loc(#loc1118)
    %9 = stablehlo.broadcast_in_dim %arg4, dims = [] : (tensor<i1>) -> tensor<1xi1> loc(#loc1116)
    %10 = stablehlo.broadcast_in_dim %9, dims = [0] : (tensor<1xi1>) -> tensor<1x401xi1> loc(#loc1117)
    %11 = stablehlo.reshape %10 : (tensor<1x401xi1>) -> tensor<401xi1> loc(#loc1118)
    %12 = stablehlo.broadcast_in_dim %arg5, dims = [] : (tensor<i1>) -> tensor<1xi1> loc(#loc1116)
    %13 = stablehlo.broadcast_in_dim %12, dims = [0] : (tensor<1xi1>) -> tensor<1x401xi1> loc(#loc1117)
    %14 = stablehlo.reshape %13 : (tensor<1x401xi1>) -> tensor<401xi1> loc(#loc1118)
    %15 = stablehlo.broadcast_in_dim %arg6, dims = [1] : (tensor<9xi1>) -> tensor<1x9xi1> loc(#loc1116)
    %16 = stablehlo.broadcast_in_dim %15, dims = [0, 2] : (tensor<1x9xi1>) -> tensor<1x401x9xi1> loc(#loc1117)
    %17 = stablehlo.reshape %16 : (tensor<1x401x9xi1>) -> tensor<401x9xi1> loc(#loc1118)
    %18 = stablehlo.broadcast_in_dim %arg7, dims = [] : (tensor<i32>) -> tensor<1xi32> loc(#loc1116)
    %19 = stablehlo.broadcast_in_dim %18, dims = [0] : (tensor<1xi32>) -> tensor<1x401xi32> loc(#loc1117)
    %20 = stablehlo.reshape %19 : (tensor<1x401xi32>) -> tensor<401xi32> loc(#loc1118)
    %21 = stablehlo.broadcast_in_dim %arg8, dims = [] : (tensor<i32>) -> tensor<1xi32> loc(#loc1116)
    %22 = stablehlo.broadcast_in_dim %21, dims = [0] : (tensor<1xi32>) -> tensor<1x401xi32> loc(#loc1117)
    %23 = stablehlo.reshape %22 : (tensor<1x401xi32>) -> tensor<401xi32> loc(#loc1118)
    %24 = stablehlo.broadcast_in_dim %arg9, dims = [1] : (tensor<9xi32>) -> tensor<1x9xi32> loc(#loc1116)
    %25 = stablehlo.broadcast_in_dim %24, dims = [0, 2] : (tensor<1x9xi32>) -> tensor<1x401x9xi32> loc(#loc1117)
    %26 = stablehlo.reshape %25 : (tensor<1x401x9xi32>) -> tensor<401x9xi32> loc(#loc1118)
    %27 = stablehlo.broadcast_in_dim %arg10, dims = [] : (tensor<i32>) -> tensor<1xi32> loc(#loc1116)
    %28 = stablehlo.broadcast_in_dim %27, dims = [0] : (tensor<1xi32>) -> tensor<1x401xi32> loc(#loc1117)
    %29 = stablehlo.reshape %28 : (tensor<1x401xi32>) -> tensor<401xi32> loc(#loc1118)
    %30 = stablehlo.broadcast_in_dim %cst_7, dims = [] : (tensor<f32>) -> tensor<401xf32> loc(#loc970)
    %31 = stablehlo.broadcast_in_dim %cst_7, dims = [] : (tensor<f32>) -> tensor<401x2xf32> loc(#loc971)
    %32 = stablehlo.broadcast_in_dim %cst_7, dims = [] : (tensor<f32>) -> tensor<401x2xf32> loc(#loc972)
    %33 = stablehlo.broadcast_in_dim %c_6, dims = [] : (tensor<i32>) -> tensor<401xi32> loc(#loc973)
    %34 = stablehlo.broadcast_in_dim %c_6, dims = [] : (tensor<i32>) -> tensor<401xi32> loc(#loc974)
    %35 = stablehlo.shift_right_logical %c_8, %c_5 : tensor<i32> loc(#loc1265)
    %36 = stablehlo.convert %35 : (tensor<i32>) -> tensor<ui32> loc(#loc1266)
    %37 = stablehlo.broadcast_in_dim %36, dims = [] : (tensor<ui32>) -> tensor<1xui32> loc(#loc1267)
    %38 = stablehlo.and %c_8, %c_6 : tensor<i32> loc(#loc1268)
    %39 = stablehlo.convert %38 : (tensor<i32>) -> tensor<ui32> loc(#loc1266)
    %40 = stablehlo.broadcast_in_dim %39, dims = [] : (tensor<ui32>) -> tensor<1xui32> loc(#loc1267)
    %41 = stablehlo.concatenate %37, %40, dim = 0 : (tensor<1xui32>, tensor<1xui32>) -> tensor<2xui32> loc(#loc1269)
    %42 = call @_bernoulli(%41, %cst_4) : (tensor<2xui32>, tensor<f32>) -> tensor<i1> loc(#loc1287)
    %43 = stablehlo.broadcast_in_dim %c_6, dims = [] : (tensor<i32>) -> tensor<401x9xi32> loc(#loc976)
    %44:32 = stablehlo.while(%iterArg = %c_8, %iterArg_16 = %cst_11, %iterArg_17 = %cst_12, %iterArg_18 = %c_3, %iterArg_19 = %c_13, %iterArg_20 = %cst_14, %iterArg_21 = %c_15, %iterArg_22 = %c_9, %iterArg_23 = %c_10, %iterArg_24 = %c_13, %iterArg_25 = %cst_14, %iterArg_26 = %c_9, %iterArg_27 = %c_10, %iterArg_28 = %c_8, %iterArg_29 = %c_8, %iterArg_30 = %arg0, %iterArg_31 = %34, %iterArg_32 = %43, %iterArg_33 = %33, %iterArg_34 = %31, %iterArg_35 = %2, %iterArg_36 = %5, %iterArg_37 = %8, %iterArg_38 = %11, %iterArg_39 = %14, %iterArg_40 = %17, %iterArg_41 = %20, %iterArg_42 = %23, %iterArg_43 = %26, %iterArg_44 = %29, %iterArg_45 = %32, %iterArg_46 = %30) : tensor<i32>, tensor<f32>, tensor<f32>, tensor<i32>, tensor<8x3xi32>, tensor<2xf32>, tensor<i1>, tensor<2xi32>, tensor<2xi32>, tensor<8x3xi32>, tensor<2xf32>, tensor<2xi32>, tensor<2xi32>, tensor<i32>, tensor<i32>, tensor<2xui32>, tensor<401xi32>, tensor<401x9xi32>, tensor<401xi32>, tensor<401x2xf32>, tensor<401xi32>, tensor<401x3x3x2xi1>, tensor<401x2xf32>, tensor<401xi1>, tensor<401xi1>, tensor<401x9xi1>, tensor<401xi32>, tensor<401xi32>, tensor<401x9xi32>, tensor<401xi32>, tensor<401x2xf32>, tensor<401xf32>
    cond {
      %81 = stablehlo.compare LT, %iterArg_28, %c_2, SIGNED : (tensor<i32>, tensor<i32>) -> tensor<i1> loc(#loc1122)
      stablehlo.return %81 : tensor<i1> loc(#loc1121)
    } do {
      %81:18 = func.call @closed_call_0(%iterArg, %iterArg_16, %iterArg_17, %iterArg_18, %iterArg_19, %iterArg_20, %iterArg_21, %iterArg_22, %iterArg_23, %iterArg_24, %iterArg_25, %iterArg_26, %iterArg_27, %iterArg_29, %iterArg_30, %iterArg_31, %iterArg_32, %iterArg_33, %iterArg_34, %iterArg_35, %iterArg_36, %iterArg_37, %iterArg_38, %iterArg_39, %iterArg_40, %iterArg_41, %iterArg_42, %iterArg_43, %iterArg_44, %iterArg_45, %iterArg_46) : (tensor<i32>, tensor<f32>, tensor<f32>, tensor<i32>, tensor<8x3xi32>, tensor<2xf32>, tensor<i1>, tensor<2xi32>, tensor<2xi32>, tensor<8x3xi32>, tensor<2xf32>, tensor<2xi32>, tensor<2xi32>, tensor<i32>, tensor<2xui32>, tensor<401xi32>, tensor<401x9xi32>, tensor<401xi32>, tensor<401x2xf32>, tensor<401xi32>, tensor<401x3x3x2xi1>, tensor<401x2xf32>, tensor<401xi1>, tensor<401xi1>, tensor<401x9xi1>, tensor<401xi32>, tensor<401xi32>, tensor<401x9xi32>, tensor<401xi32>, tensor<401x2xf32>, tensor<401xf32>) -> (tensor<i32>, tensor<2xui32>, tensor<401xi32>, tensor<401x9xi32>, tensor<401xi32>, tensor<401x2xf32>, tensor<401xi32>, tensor<401x3x3x2xi1>, tensor<401x2xf32>, tensor<401xi1>, tensor<401xi1>, tensor<401x9xi1>, tensor<401xi32>, tensor<401xi32>, tensor<401x9xi32>, tensor<401xi32>, tensor<401x2xf32>, tensor<401xf32>) loc(#loc1123)
      %82 = stablehlo.add %iterArg_28, %c_3 : tensor<i32> loc(#loc1124)
      stablehlo.return %iterArg, %iterArg_16, %iterArg_17, %iterArg_18, %iterArg_19, %iterArg_20, %iterArg_21, %iterArg_22, %iterArg_23, %iterArg_24, %iterArg_25, %iterArg_26, %iterArg_27, %82, %81#0, %81#1, %81#2, %81#3, %81#4, %81#5, %81#6, %81#7, %81#8, %81#9, %81#10, %81#11, %81#12, %81#13, %81#14, %81#15, %81#16, %81#17 : tensor<i32>, tensor<f32>, tensor<f32>, tensor<i32>, tensor<8x3xi32>, tensor<2xf32>, tensor<i1>, tensor<2xi32>, tensor<2xi32>, tensor<8x3xi32>, tensor<2xf32>, tensor<2xi32>, tensor<2xi32>, tensor<i32>, tensor<i32>, tensor<2xui32>, tensor<401xi32>, tensor<401x9xi32>, tensor<401xi32>, tensor<401x2xf32>, tensor<401xi32>, tensor<401x3x3x2xi1>, tensor<401x2xf32>, tensor<401xi1>, tensor<401xi1>, tensor<401x9xi1>, tensor<401xi32>, tensor<401xi32>, tensor<401x9xi32>, tensor<401xi32>, tensor<401x2xf32>, tensor<401xf32> loc(#loc1121)
    } loc(#loc1121)
    %45 = stablehlo.compare LT, %c_8, %c_8, SIGNED : (tensor<i32>, tensor<i32>) -> tensor<i1> loc(#loc1125)
    %46 = stablehlo.add %c_8, %c_1 : tensor<i32> loc(#loc1126)
    %47 = stablehlo.select %45, %46, %c_8 : tensor<i1>, tensor<i32> loc(#loc1127)
    %48 = stablehlo.compare LT, %c_8, %c_8, SIGNED : (tensor<i32>, tensor<i32>) -> tensor<i1> loc(#loc1125)
    %49 = stablehlo.add %c_8, %c_0 : tensor<i32> loc(#loc1126)
    %50 = stablehlo.select %48, %49, %c_8 : tensor<i1>, tensor<i32> loc(#loc1127)
    %51 = stablehlo.dynamic_slice %44#17, %47, %50, sizes = [1, 9] : (tensor<401x9xi32>, tensor<i32>, tensor<i32>) -> tensor<1x9xi32> loc(#loc1128)
    %52 = stablehlo.reshape %51 : (tensor<1x9xi32>) -> tensor<9xi32> loc(#loc1129)
    %53 = stablehlo.broadcast_in_dim %c_6, dims = [] : (tensor<i32>) -> tensor<9xi32> loc(#loc1130)
    %54 = stablehlo.compare NE, %52, %53, SIGNED : (tensor<9xi32>, tensor<9xi32>) -> tensor<9xi1> loc(#loc1130)
    %55 = call @_where(%54, %52, %c_8) : (tensor<9xi1>, tensor<9xi32>, tensor<i32>) -> tensor<9xi32> loc(#loc1131)
    %56 = stablehlo.compare LT, %c_8, %c_8, SIGNED : (tensor<i32>, tensor<i32>) -> tensor<i1> loc(#loc1288)
    %57 = stablehlo.add %c_8, %c_1 : tensor<i32> loc(#loc1289)
    %58 = stablehlo.select %56, %57, %c_8 : tensor<i1>, tensor<i32> loc(#loc1290)
    %59 = stablehlo.compare LT, %c_8, %c_8, SIGNED : (tensor<i32>, tensor<i32>) -> tensor<i1> loc(#loc1288)
    %60 = stablehlo.add %c_8, %c_0 : tensor<i32> loc(#loc1289)
    %61 = stablehlo.select %59, %60, %c_8 : tensor<i1>, tensor<i32> loc(#loc1290)
    %62 = stablehlo.dynamic_slice %44#25, %58, %61, sizes = [1, 9] : (tensor<401x9xi1>, tensor<i32>, tensor<i32>) -> tensor<1x9xi1> loc(#loc1291)
    %63 = stablehlo.reshape %62 : (tensor<1x9xi1>) -> tensor<9xi1> loc(#loc1292)
    %64 = stablehlo.broadcast_in_dim %c, dims = [] : (tensor<i1>) -> tensor<9xi1> loc(#loc1114)
    %65 = stablehlo.compare NE, %54, %64, UNSIGNED : (tensor<9xi1>, tensor<9xi1>) -> tensor<9xi1> loc(#loc1114)
    %66 = stablehlo.convert %65 : tensor<9xi1> loc(#loc1114)
    %67 = stablehlo.and %63, %66 : tensor<9xi1> loc(#loc1133)
    %68 = stablehlo.broadcast_in_dim %c_8, dims = [] : (tensor<i32>) -> tensor<9xi32> loc(#loc1134)
    %69 = stablehlo.compare LT, %55, %68, SIGNED : (tensor<9xi32>, tensor<9xi32>) -> tensor<9xi1> loc(#loc1134)
    %70 = stablehlo.broadcast_in_dim %c_1, dims = [] : (tensor<i32>) -> tensor<9xi32> loc(#loc1135)
    %71 = stablehlo.add %55, %70 : tensor<9xi32> loc(#loc1135)
    %72 = stablehlo.select %69, %71, %55 : tensor<9xi1>, tensor<9xi32> loc(#loc1136)
    %73 = stablehlo.broadcast_in_dim %72, dims = [0] : (tensor<9xi32>) -> tensor<9x1xi32> loc(#loc1137)
    %74 = "stablehlo.gather"(%44#31, %73) <{dimension_numbers = #stablehlo.gather<collapsed_slice_dims = [0], start_index_map = [0], index_vector_dim = 1>, slice_sizes = array<i64: 1>}> : (tensor<401xf32>, tensor<9x1xi32>) -> tensor<9xf32> loc(#loc1138)
    %75 = call @_where_8(%67, %74, %cst) : (tensor<9xi1>, tensor<9xf32>, tensor<f32>) -> tensor<9xf32> loc(#loc1139)
    %76 = call @argmax(%75) : (tensor<9xf32>) -> tensor<i32> loc(#loc1140)
    %77 = stablehlo.slice %44#17 [0:1, 0:9] : (tensor<401x9xi32>) -> tensor<1x9xi32> loc(#loc700)
    %78 = stablehlo.reshape %77 : (tensor<1x9xi32>) -> tensor<9xi32> loc(#loc701)
    %79 = stablehlo.convert %78 : tensor<9xi32> loc(#loc702)
    %80 = stablehlo.convert %44#18 : tensor<401xi32> loc(#loc703)
    return %76, %79, %44#31, %80 : tensor<i32>, tensor<9xi32>, tensor<401xf32>, tensor<401xi32> loc(#loc517)
  } loc(#loc)
  func.func private @_bernoulli(%arg0: tensor<2xui32> loc(unknown), %arg1: tensor<f32> loc(unknown)) -> tensor<i1> {
    %cst = stablehlo.constant dense<0.000000e+00> : tensor<f32> loc(#loc)
    %cst_0 = stablehlo.constant dense<1.000000e+00> : tensor<f32> loc(#loc)
    %0 = call @_uniform(%arg0, %cst, %cst_0) : (tensor<2xui32>, tensor<f32>, tensor<f32>) -> tensor<f32> loc(#loc45)
    %1 = stablehlo.compare LT, %0, %arg1, FLOAT : (tensor<f32>, tensor<f32>) -> tensor<i1> loc(#loc46)
    return %1 : tensor<i1> loc(#loc)
  } loc(#loc1303)
  func.func private @_uniform(%arg0: tensor<2xui32> loc(unknown), %arg1: tensor<f32> loc(unknown), %arg2: tensor<f32> loc(unknown)) -> tensor<f32> {
    %cst = stablehlo.constant dense<1.000000e+00> : tensor<f32> loc(#loc)
    %c = stablehlo.constant dense<1065353216> : tensor<ui32> loc(#loc)
    %c_0 = stablehlo.constant dense<9> : tensor<ui32> loc(#loc)
    %c_1 = stablehlo.constant dense<0> : tensor<ui32> loc(#loc)
    %0 = stablehlo.convert %arg1 : tensor<f32> loc(#loc48)
    %1 = stablehlo.convert %arg2 : tensor<f32> loc(#loc48)
    %2 = stablehlo.slice %arg0 [0:1] : (tensor<2xui32>) -> tensor<1xui32> loc(#loc49)
    %3 = stablehlo.reshape %2 : (tensor<1xui32>) -> tensor<ui32> loc(#loc50)
    %4 = stablehlo.slice %arg0 [1:2] : (tensor<2xui32>) -> tensor<1xui32> loc(#loc49)
    %5 = stablehlo.reshape %4 : (tensor<1xui32>) -> tensor<ui32> loc(#loc50)
    %6:2 = call @threefry2x32(%3, %5, %c_1, %c_1) : (tensor<ui32>, tensor<ui32>, tensor<ui32>, tensor<ui32>) -> (tensor<ui32>, tensor<ui32>) loc(#loc51)
    %7 = stablehlo.xor %6#0, %6#1 : tensor<ui32> loc(#loc52)
    %8 = stablehlo.shift_right_logical %7, %c_0 : tensor<ui32> loc(#loc53)
    %9 = stablehlo.or %8, %c : tensor<ui32> loc(#loc54)
    %10 = stablehlo.bitcast_convert %9 : (tensor<ui32>) -> tensor<f32> loc(#loc55)
    %11 = stablehlo.subtract %10, %cst : tensor<f32> loc(#loc56)
    %12 = stablehlo.subtract %1, %0 : tensor<f32> loc(#loc56)
    %13 = stablehlo.multiply %11, %12 : tensor<f32> loc(#loc57)
    %14 = stablehlo.add %13, %0 : tensor<f32> loc(#loc58)
    %15 = stablehlo.reshape %14 : (tensor<f32>) -> tensor<f32> loc(#loc59)
    %16 = stablehlo.maximum %0, %15 : tensor<f32> loc(#loc60)
    return %16 : tensor<f32> loc(#loc)
  } loc(#loc256)
  func.func private @threefry2x32(%arg0: tensor<ui32> loc(unknown), %arg1: tensor<ui32> loc(unknown), %arg2: tensor<ui32> loc(unknown), %arg3: tensor<ui32> loc(unknown)) -> (tensor<ui32>, tensor<ui32>) {
    %c = stablehlo.constant dense<1> : tensor<i32> loc(#loc)
    %c_0 = stablehlo.constant dense<5> : tensor<i32> loc(#loc)
    %c_1 = stablehlo.constant dense<0> : tensor<i32> loc(#loc)
    %c_2 = stablehlo.constant dense<466688986> : tensor<ui32> loc(#loc257)
    %c_3 = stablehlo.constant dense<[13, 15, 26, 6]> : tensor<4xui32> loc(#loc257)
    %c_4 = stablehlo.constant dense<[17, 29, 16, 24]> : tensor<4xui32> loc(#loc257)
    %0 = stablehlo.xor %arg0, %arg1 : tensor<ui32> loc(#loc52)
    %1 = stablehlo.xor %0, %c_2 : tensor<ui32> loc(#loc52)
    %2 = stablehlo.add %arg2, %arg0 : tensor<ui32> loc(#loc58)
    %3 = stablehlo.add %arg3, %arg1 : tensor<ui32> loc(#loc58)
    %4:9 = stablehlo.while(%iterArg = %c_1, %iterArg_5 = %c_1, %iterArg_6 = %2, %iterArg_7 = %3, %iterArg_8 = %arg1, %iterArg_9 = %1, %iterArg_10 = %arg0, %iterArg_11 = %c_3, %iterArg_12 = %c_4) : tensor<i32>, tensor<i32>, tensor<ui32>, tensor<ui32>, tensor<ui32>, tensor<ui32>, tensor<ui32>, tensor<4xui32>, tensor<4xui32>
    cond {
      %5 = stablehlo.compare LT, %iterArg, %c_0, SIGNED : (tensor<i32>, tensor<i32>) -> tensor<i1> loc(#loc63)
      stablehlo.return %5 : tensor<i1> loc(#loc62)
    } do {
      %5:8 = func.call @closed_call(%iterArg_5, %iterArg_6, %iterArg_7, %iterArg_8, %iterArg_9, %iterArg_10, %iterArg_11, %iterArg_12) : (tensor<i32>, tensor<ui32>, tensor<ui32>, tensor<ui32>, tensor<ui32>, tensor<ui32>, tensor<4xui32>, tensor<4xui32>) -> (tensor<i32>, tensor<ui32>, tensor<ui32>, tensor<ui32>, tensor<ui32>, tensor<ui32>, tensor<4xui32>, tensor<4xui32>) loc(#loc64)
      %6 = stablehlo.add %iterArg, %c : tensor<i32> loc(#loc65)
      stablehlo.return %6, %5#0, %5#1, %5#2, %5#3, %5#4, %5#5, %5#6, %5#7 : tensor<i32>, tensor<i32>, tensor<ui32>, tensor<ui32>, tensor<ui32>, tensor<ui32>, tensor<ui32>, tensor<4xui32>, tensor<4xui32> loc(#loc62)
    } loc(#loc62)
    return %4#2, %4#3 : tensor<ui32>, tensor<ui32> loc(#loc)
  } loc(#loc)
  func.func private @closed_call(%arg0: tensor<i32> loc(unknown), %arg1: tensor<ui32> loc(unknown), %arg2: tensor<ui32> loc(unknown), %arg3: tensor<ui32> loc(unknown), %arg4: tensor<ui32> loc(unknown), %arg5: tensor<ui32> loc(unknown), %arg6: tensor<4xui32> loc(unknown), %arg7: tensor<4xui32> loc(unknown)) -> (tensor<i32>, tensor<ui32>, tensor<ui32>, tensor<ui32>, tensor<ui32>, tensor<ui32>, tensor<4xui32>, tensor<4xui32>) {
    %c = stablehlo.constant dense<32> : tensor<ui32> loc(#loc)
    %c_0 = stablehlo.constant dense<1> : tensor<i32> loc(#loc)
    %0 = stablehlo.add %arg0, %c_0 : tensor<i32> loc(#loc58)
    %1 = stablehlo.slice %arg6 [0:1] : (tensor<4xui32>) -> tensor<1xui32> loc(#loc49)
    %2 = stablehlo.reshape %1 : (tensor<1xui32>) -> tensor<ui32> loc(#loc50)
    %3 = stablehlo.add %arg1, %arg2 : tensor<ui32> loc(#loc58)
    %4 = stablehlo.shift_left %arg2, %2 : tensor<ui32> loc(#loc66)
    %5 = stablehlo.subtract %c, %2 : tensor<ui32> loc(#loc56)
    %6 = stablehlo.shift_right_logical %arg2, %5 : tensor<ui32> loc(#loc53)
    %7 = stablehlo.or %4, %6 : tensor<ui32> loc(#loc54)
    %8 = stablehlo.xor %3, %7 : tensor<ui32> loc(#loc52)
    %9 = stablehlo.slice %arg6 [1:2] : (tensor<4xui32>) -> tensor<1xui32> loc(#loc49)
    %10 = stablehlo.reshape %9 : (tensor<1xui32>) -> tensor<ui32> loc(#loc50)
    %11 = stablehlo.add %3, %8 : tensor<ui32> loc(#loc58)
    %12 = stablehlo.shift_left %8, %10 : tensor<ui32> loc(#loc66)
    %13 = stablehlo.subtract %c, %10 : tensor<ui32> loc(#loc56)
    %14 = stablehlo.shift_right_logical %8, %13 : tensor<ui32> loc(#loc53)
    %15 = stablehlo.or %12, %14 : tensor<ui32> loc(#loc54)
    %16 = stablehlo.xor %11, %15 : tensor<ui32> loc(#loc52)
    %17 = stablehlo.slice %arg6 [2:3] : (tensor<4xui32>) -> tensor<1xui32> loc(#loc49)
    %18 = stablehlo.reshape %17 : (tensor<1xui32>) -> tensor<ui32> loc(#loc50)
    %19 = stablehlo.add %11, %16 : tensor<ui32> loc(#loc58)
    %20 = stablehlo.shift_left %16, %18 : tensor<ui32> loc(#loc66)
    %21 = stablehlo.subtract %c, %18 : tensor<ui32> loc(#loc56)
    %22 = stablehlo.shift_right_logical %16, %21 : tensor<ui32> loc(#loc53)
    %23 = stablehlo.or %20, %22 : tensor<ui32> loc(#loc54)
    %24 = stablehlo.xor %19, %23 : tensor<ui32> loc(#loc52)
    %25 = stablehlo.slice %arg6 [3:4] : (tensor<4xui32>) -> tensor<1xui32> loc(#loc49)
    %26 = stablehlo.reshape %25 : (tensor<1xui32>) -> tensor<ui32> loc(#loc50)
    %27 = stablehlo.add %19, %24 : tensor<ui32> loc(#loc58)
    %28 = stablehlo.shift_left %24, %26 : tensor<ui32> loc(#loc66)
    %29 = stablehlo.subtract %c, %26 : tensor<ui32> loc(#loc56)
    %30 = stablehlo.shift_right_logical %24, %29 : tensor<ui32> loc(#loc53)
    %31 = stablehlo.or %28, %30 : tensor<ui32> loc(#loc54)
    %32 = stablehlo.xor %27, %31 : tensor<ui32> loc(#loc52)
    %33 = stablehlo.add %27, %arg3 : tensor<ui32> loc(#loc58)
    %34 = stablehlo.add %32, %arg4 : tensor<ui32> loc(#loc58)
    %35 = stablehlo.add %arg0, %c_0 : tensor<i32> loc(#loc58)
    %36 = stablehlo.convert %35 : (tensor<i32>) -> tensor<ui32> loc(#loc48)
    %37 = stablehlo.add %34, %36 : tensor<ui32> loc(#loc58)
    return %0, %33, %37, %arg4, %arg5, %arg3, %arg7, %arg6 : tensor<i32>, tensor<ui32>, tensor<ui32>, tensor<ui32>, tensor<ui32>, tensor<ui32>, tensor<4xui32>, tensor<4xui32> loc(#loc)
  } loc(#loc258)
  func.func private @closed_call_0(%arg0: tensor<i32> loc(unknown), %arg1: tensor<f32> loc(unknown), %arg2: tensor<f32> loc(unknown), %arg3: tensor<i32> loc(unknown), %arg4: tensor<8x3xi32> loc(unknown), %arg5: tensor<2xf32> loc(unknown), %arg6: tensor<i1> loc(unknown), %arg7: tensor<2xi32> loc(unknown), %arg8: tensor<2xi32> loc(unknown), %arg9: tensor<8x3xi32> loc(unknown), %arg10: tensor<2xf32> loc(unknown), %arg11: tensor<2xi32> loc(unknown), %arg12: tensor<2xi32> loc(unknown), %arg13: tensor<i32> loc(unknown), %arg14: tensor<2xui32> loc(unknown), %arg15: tensor<401xi32> loc(unknown), %arg16: tensor<401x9xi32> loc(unknown), %arg17: tensor<401xi32> loc(unknown), %arg18: tensor<401x2xf32> loc(unknown), %arg19: tensor<401xi32> loc(unknown), %arg20: tensor<401x3x3x2xi1> loc(unknown), %arg21: tensor<401x2xf32> loc(unknown), %arg22: tensor<401xi1> loc(unknown), %arg23: tensor<401xi1> loc(unknown), %arg24: tensor<401x9xi1> loc(unknown), %arg25: tensor<401xi32> loc(unknown), %arg26: tensor<401xi32> loc(unknown), %arg27: tensor<401x9xi32> loc(unknown), %arg28: tensor<401xi32> loc(unknown), %arg29: tensor<401x2xf32> loc(unknown), %arg30: tensor<401xf32> loc(unknown)) -> (tensor<i32>, tensor<2xui32>, tensor<401xi32>, tensor<401x9xi32>, tensor<401xi32>, tensor<401x2xf32>, tensor<401xi32>, tensor<401x3x3x2xi1>, tensor<401x2xf32>, tensor<401xi1>, tensor<401xi1>, tensor<401x9xi1>, tensor<401xi32>, tensor<401xi32>, tensor<401x9xi32>, tensor<401xi32>, tensor<401x2xf32>, tensor<401xf32>) {
    %cst = stablehlo.constant dense<-3.40282347E+38> : tensor<f32> loc(#loc)
    %cst_0 = stablehlo.constant dense<-1.000000e+00> : tensor<f32> loc(#loc)
    %cst_1 = stablehlo.constant dense<0.000000e+00> : tensor<f32> loc(#loc)
    %c = stablehlo.constant dense<true> : tensor<i1> loc(#loc)
    %cst_2 = stablehlo.constant dense<0xFF800000> : tensor<f32> loc(#loc)
    %cst_3 = stablehlo.constant dense<0x7F800000> : tensor<f32> loc(#loc)
    %c_4 = stablehlo.constant dense<false> : tensor<i1> loc(#loc)
    %cst_5 = stablehlo.constant dense<1.000000e+00> : tensor<f32> loc(#loc)
    %c_6 = stablehlo.constant dense<-1> : tensor<i32> loc(#loc)
    %c_7 = stablehlo.constant dense<2> : tensor<i32> loc(#loc)
    %c_8 = stablehlo.constant dense<3> : tensor<i32> loc(#loc)
    %c_9 = stablehlo.constant dense<9> : tensor<i32> loc(#loc)
    %c_10 = stablehlo.constant dense<401> : tensor<i32> loc(#loc)
    %c_11 = stablehlo.constant dense<0> : tensor<i32> loc(#loc)
    %c_12 = stablehlo.constant dense<1> : tensor<i32> loc(#loc)
    %0 = stablehlo.add %arg13, %c_12 : tensor<i32> loc(#loc58)
    %1 = call @_threefry_split(%arg14) : (tensor<2xui32>) -> tensor<2x2xui32> loc(#loc526)
    %2 = stablehlo.slice %1 [0:1, 0:2] : (tensor<2x2xui32>) -> tensor<1x2xui32> loc(#loc408)
    %3 = stablehlo.reshape %2 : (tensor<1x2xui32>) -> tensor<2xui32> loc(#loc409)
    %4 = stablehlo.slice %1 [1:2, 0:2] : (tensor<2x2xui32>) -> tensor<1x2xui32> loc(#loc408)
    %5 = stablehlo.reshape %4 : (tensor<1x2xui32>) -> tensor<2xui32> loc(#loc409)
    %6 = stablehlo.compare LT, %arg0, %c_11, SIGNED : (tensor<i32>, tensor<i32>) -> tensor<i1> loc(#loc705)
    %7 = stablehlo.add %arg0, %c_10 : tensor<i32> loc(#loc706)
    %8 = stablehlo.select %6, %7, %arg0 : tensor<i1>, tensor<i32> loc(#loc707)
    %9 = stablehlo.compare LT, %c_11, %c_11, SIGNED : (tensor<i32>, tensor<i32>) -> tensor<i1> loc(#loc705)
    %10 = stablehlo.add %c_11, %c_9 : tensor<i32> loc(#loc706)
    %11 = stablehlo.select %9, %10, %c_11 : tensor<i1>, tensor<i32> loc(#loc707)
    %12 = stablehlo.dynamic_slice %arg16, %8, %11, sizes = [1, 9] : (tensor<401x9xi32>, tensor<i32>, tensor<i32>) -> tensor<1x9xi32> loc(#loc708)
    %13 = stablehlo.reshape %12 : (tensor<1x9xi32>) -> tensor<9xi32> loc(#loc709)
    %14 = stablehlo.compare LT, %arg0, %c_11, SIGNED : (tensor<i32>, tensor<i32>) -> tensor<i1> loc(#loc1141)
    %15 = stablehlo.add %arg0, %c_10 : tensor<i32> loc(#loc1142)
    %16 = stablehlo.select %14, %15, %arg0 : tensor<i1>, tensor<i32> loc(#loc1143)
    %17 = stablehlo.dynamic_slice %arg19, %16, sizes = [1] : (tensor<401xi32>, tensor<i32>) -> tensor<1xi32> loc(#loc1144)
    %18 = stablehlo.reshape %17 : (tensor<1xi32>) -> tensor<i32> loc(#loc1145)
    %19 = stablehlo.compare LT, %arg0, %c_11, SIGNED : (tensor<i32>, tensor<i32>) -> tensor<i1> loc(#loc1141)
    %20 = stablehlo.add %arg0, %c_10 : tensor<i32> loc(#loc1142)
    %21 = stablehlo.select %19, %20, %arg0 : tensor<i1>, tensor<i32> loc(#loc1143)
    %22 = stablehlo.compare LT, %c_11, %c_11, SIGNED : (tensor<i32>, tensor<i32>) -> tensor<i1> loc(#loc1141)
    %23 = stablehlo.add %c_11, %c_9 : tensor<i32> loc(#loc1142)
    %24 = stablehlo.select %22, %23, %c_11 : tensor<i1>, tensor<i32> loc(#loc1143)
    %25 = stablehlo.dynamic_slice %arg24, %21, %24, sizes = [1, 9] : (tensor<401x9xi1>, tensor<i32>, tensor<i32>) -> tensor<1x9xi1> loc(#loc1144)
    %26 = stablehlo.reshape %25 : (tensor<1x9xi1>) -> tensor<9xi1> loc(#loc1145)
    %27 = stablehlo.broadcast_in_dim %c_6, dims = [] : (tensor<i32>) -> tensor<9xi32> loc(#loc711)
    %28 = stablehlo.compare NE, %13, %27, SIGNED : (tensor<9xi32>, tensor<9xi32>) -> tensor<9xi1> loc(#loc711)
    %29 = call @_where(%28, %13, %c_11) : (tensor<9xi1>, tensor<9xi32>, tensor<i32>) -> tensor<9xi32> loc(#loc712)
    %30 = stablehlo.broadcast_in_dim %c_11, dims = [] : (tensor<i32>) -> tensor<9xi32> loc(#loc713)
    %31 = stablehlo.compare LT, %29, %30, SIGNED : (tensor<9xi32>, tensor<9xi32>) -> tensor<9xi1> loc(#loc713)
    %32 = stablehlo.broadcast_in_dim %c_10, dims = [] : (tensor<i32>) -> tensor<9xi32> loc(#loc714)
    %33 = stablehlo.add %29, %32 : tensor<9xi32> loc(#loc714)
    %34 = stablehlo.select %31, %33, %29 : tensor<9xi1>, tensor<9xi32> loc(#loc715)
    %35 = stablehlo.compare LT, %18, %c_11, SIGNED : (tensor<i32>, tensor<i32>) -> tensor<i1> loc(#loc713)
    %36 = stablehlo.add %18, %c_7 : tensor<i32> loc(#loc714)
    %37 = stablehlo.select %35, %36, %18 : tensor<i1>, tensor<i32> loc(#loc715)
    %38 = stablehlo.broadcast_in_dim %37, dims = [] : (tensor<i32>) -> tensor<9xi32> loc(#loc716)
    %39 = stablehlo.broadcast_in_dim %34, dims = [0] : (tensor<9xi32>) -> tensor<9x1xi32> loc(#loc716)
    %40 = stablehlo.broadcast_in_dim %38, dims = [0] : (tensor<9xi32>) -> tensor<9x1xi32> loc(#loc716)
    %41 = stablehlo.concatenate %39, %40, dim = 1 : (tensor<9x1xi32>, tensor<9x1xi32>) -> tensor<9x2xi32> loc(#loc717)
    %42 = "stablehlo.gather"(%arg29, %41) <{dimension_numbers = #stablehlo.gather<collapsed_slice_dims = [0, 1], start_index_map = [0, 1], index_vector_dim = 1>, slice_sizes = array<i64: 1, 1>}> : (tensor<401x2xf32>, tensor<9x2xi32>) -> tensor<9xf32> loc(#loc718)
    %43 = stablehlo.compare LT, %arg0, %c_11, SIGNED : (tensor<i32>, tensor<i32>) -> tensor<i1> loc(#loc719)
    %44 = stablehlo.add %arg0, %c_10 : tensor<i32> loc(#loc720)
    %45 = stablehlo.select %43, %44, %arg0 : tensor<i1>, tensor<i32> loc(#loc721)
    %46 = stablehlo.dynamic_slice %arg30, %45, sizes = [1] : (tensor<401xf32>, tensor<i32>) -> tensor<1xf32> loc(#loc722)
    %47 = stablehlo.reshape %46 : (tensor<1xf32>) -> tensor<f32> loc(#loc723)
    %48 = stablehlo.add %47, %cst_5 : tensor<f32> loc(#loc724)
    %49 = stablehlo.log %48 : tensor<f32> loc(#loc725)
    %50 = stablehlo.broadcast_in_dim %c_11, dims = [] : (tensor<i32>) -> tensor<9xi32> loc(#loc726)
    %51 = stablehlo.compare LT, %29, %50, SIGNED : (tensor<9xi32>, tensor<9xi32>) -> tensor<9xi1> loc(#loc726)
    %52 = stablehlo.broadcast_in_dim %c_10, dims = [] : (tensor<i32>) -> tensor<9xi32> loc(#loc727)
    %53 = stablehlo.add %29, %52 : tensor<9xi32> loc(#loc727)
    %54 = stablehlo.select %51, %53, %29 : tensor<9xi1>, tensor<9xi32> loc(#loc728)
    %55 = stablehlo.broadcast_in_dim %54, dims = [0] : (tensor<9xi32>) -> tensor<9x1xi32> loc(#loc729)
    %56 = "stablehlo.gather"(%arg30, %55) <{dimension_numbers = #stablehlo.gather<collapsed_slice_dims = [0], start_index_map = [0], index_vector_dim = 1>, slice_sizes = array<i64: 1>}> : (tensor<401xf32>, tensor<9x1xi32>) -> tensor<9xf32> loc(#loc730)
    %57 = stablehlo.broadcast_in_dim %arg1, dims = [] : (tensor<f32>) -> tensor<9xf32> loc(#loc731)
    %58 = stablehlo.add %56, %57 : tensor<9xf32> loc(#loc731)
    %59 = stablehlo.broadcast_in_dim %49, dims = [] : (tensor<f32>) -> tensor<9xf32> loc(#loc732)
    %60 = stablehlo.divide %59, %58 : tensor<9xf32> loc(#loc732)
    %61 = stablehlo.sqrt %60 : tensor<9xf32> loc(#loc733)
    %62 = stablehlo.convert %arg2 : tensor<f32> loc(#loc734)
    %63 = stablehlo.broadcast_in_dim %62, dims = [] : (tensor<f32>) -> tensor<9xf32> loc(#loc735)
    %64 = stablehlo.multiply %63, %61 : tensor<9xf32> loc(#loc735)
    %65 = stablehlo.add %42, %64 : tensor<9xf32> loc(#loc736)
    %66 = stablehlo.not %28 : tensor<9xi1> loc(#loc737)
    %67 = stablehlo.broadcast_in_dim %c_4, dims = [] : (tensor<i1>) -> tensor<9xi1> loc(#loc738)
    %68 = stablehlo.compare NE, %66, %67, UNSIGNED : (tensor<9xi1>, tensor<9xi1>) -> tensor<9xi1> loc(#loc738)
    %69 = stablehlo.convert %68 : tensor<9xi1> loc(#loc738)
    %70 = stablehlo.and %26, %69 : tensor<9xi1> loc(#loc739)
    %71 = call @_where_3(%70, %cst_3, %65) : (tensor<9xi1>, tensor<f32>, tensor<9xf32>) -> tensor<9xf32> loc(#loc740)
    %72 = stablehlo.not %26 : tensor<9xi1> loc(#loc741)
    %73 = call @_where_3(%72, %cst_2, %71) : (tensor<9xi1>, tensor<f32>, tensor<9xf32>) -> tensor<9xf32> loc(#loc742)
    %74 = call @argmax(%73) : (tensor<9xf32>) -> tensor<i32> loc(#loc546)
    %75 = stablehlo.compare LT, %arg0, %c_11, SIGNED : (tensor<i32>, tensor<i32>) -> tensor<i1> loc(#loc547)
    %76 = stablehlo.add %arg0, %c_10 : tensor<i32> loc(#loc548)
    %77 = stablehlo.select %75, %76, %arg0 : tensor<i1>, tensor<i32> loc(#loc549)
    %78 = stablehlo.compare LT, %74, %c_11, SIGNED : (tensor<i32>, tensor<i32>) -> tensor<i1> loc(#loc547)
    %79 = stablehlo.add %74, %c_9 : tensor<i32> loc(#loc548)
    %80 = stablehlo.select %78, %79, %74 : tensor<i1>, tensor<i32> loc(#loc549)
    %81 = stablehlo.dynamic_slice %arg16, %77, %80, sizes = [1, 1] : (tensor<401x9xi32>, tensor<i32>, tensor<i32>) -> tensor<1x1xi32> loc(#loc550)
    %82 = stablehlo.reshape %81 : (tensor<1x1xi32>) -> tensor<i32> loc(#loc551)
    %83:18 = stablehlo.while(%iterArg = %arg16, %iterArg_13 = %arg19, %iterArg_14 = %arg20, %iterArg_15 = %arg21, %iterArg_16 = %arg22, %iterArg_17 = %arg23, %iterArg_18 = %arg24, %iterArg_19 = %arg25, %iterArg_20 = %arg26, %iterArg_21 = %arg27, %iterArg_22 = %arg28, %iterArg_23 = %arg29, %iterArg_24 = %arg30, %iterArg_25 = %arg1, %iterArg_26 = %arg2, %iterArg_27 = %arg0, %iterArg_28 = %74, %iterArg_29 = %82) : tensor<401x9xi32>, tensor<401xi32>, tensor<401x3x3x2xi1>, tensor<401x2xf32>, tensor<401xi1>, tensor<401xi1>, tensor<401x9xi1>, tensor<401xi32>, tensor<401xi32>, tensor<401x9xi32>, tensor<401xi32>, tensor<401x2xf32>, tensor<401xf32>, tensor<f32>, tensor<f32>, tensor<i32>, tensor<i32>, tensor<i32>
    cond {
      %228 = stablehlo.compare NE, %iterArg_29, %c_6, SIGNED : (tensor<i32>, tensor<i32>) -> tensor<i1> loc(#loc743)
      stablehlo.return %228 : tensor<i1> loc(#loc552)
    } do {
      %228 = stablehlo.convert %iterArg_29 : tensor<i32> loc(#loc744)
      %229 = stablehlo.compare LT, %228, %c_11, SIGNED : (tensor<i32>, tensor<i32>) -> tensor<i1> loc(#loc745)
      %230 = stablehlo.add %228, %c_10 : tensor<i32> loc(#loc746)
      %231 = stablehlo.select %229, %230, %228 : tensor<i1>, tensor<i32> loc(#loc747)
      %232 = stablehlo.compare LT, %c_11, %c_11, SIGNED : (tensor<i32>, tensor<i32>) -> tensor<i1> loc(#loc745)
      %233 = stablehlo.add %c_11, %c_9 : tensor<i32> loc(#loc746)
      %234 = stablehlo.select %232, %233, %c_11 : tensor<i1>, tensor<i32> loc(#loc747)
      %235 = stablehlo.dynamic_slice %iterArg, %231, %234, sizes = [1, 9] : (tensor<401x9xi32>, tensor<i32>, tensor<i32>) -> tensor<1x9xi32> loc(#loc748)
      %236 = stablehlo.reshape %235 : (tensor<1x9xi32>) -> tensor<9xi32> loc(#loc749)
      %237 = stablehlo.compare LT, %iterArg_29, %c_11, SIGNED : (tensor<i32>, tensor<i32>) -> tensor<i1> loc(#loc1146)
      %238 = stablehlo.convert %iterArg_29 : tensor<i32> loc(#loc1147)
      %239 = stablehlo.add %238, %c_10 : tensor<i32> loc(#loc1148)
      %240 = stablehlo.select %237, %239, %iterArg_29 : tensor<i1>, tensor<i32> loc(#loc1149)
      %241 = stablehlo.dynamic_slice %iterArg_13, %240, sizes = [1] : (tensor<401xi32>, tensor<i32>) -> tensor<1xi32> loc(#loc1150)
      %242 = stablehlo.reshape %241 : (tensor<1xi32>) -> tensor<i32> loc(#loc1151)
      %243 = stablehlo.convert %iterArg_29 : tensor<i32> loc(#loc1147)
      %244 = stablehlo.compare LT, %243, %c_11, SIGNED : (tensor<i32>, tensor<i32>) -> tensor<i1> loc(#loc1146)
      %245 = stablehlo.add %243, %c_10 : tensor<i32> loc(#loc1148)
      %246 = stablehlo.select %244, %245, %243 : tensor<i1>, tensor<i32> loc(#loc1149)
      %247 = stablehlo.compare LT, %c_11, %c_11, SIGNED : (tensor<i32>, tensor<i32>) -> tensor<i1> loc(#loc1146)
      %248 = stablehlo.add %c_11, %c_9 : tensor<i32> loc(#loc1148)
      %249 = stablehlo.select %247, %248, %c_11 : tensor<i1>, tensor<i32> loc(#loc1149)
      %250 = stablehlo.dynamic_slice %iterArg_18, %246, %249, sizes = [1, 9] : (tensor<401x9xi1>, tensor<i32>, tensor<i32>) -> tensor<1x9xi1> loc(#loc1150)
      %251 = stablehlo.reshape %250 : (tensor<1x9xi1>) -> tensor<9xi1> loc(#loc1151)
      %252 = stablehlo.broadcast_in_dim %c_6, dims = [] : (tensor<i32>) -> tensor<9xi32> loc(#loc751)
      %253 = stablehlo.compare NE, %236, %252, SIGNED : (tensor<9xi32>, tensor<9xi32>) -> tensor<9xi1> loc(#loc751)
      %254 = func.call @_where(%253, %236, %c_11) : (tensor<9xi1>, tensor<9xi32>, tensor<i32>) -> tensor<9xi32> loc(#loc752)
      %255 = stablehlo.broadcast_in_dim %c_11, dims = [] : (tensor<i32>) -> tensor<9xi32> loc(#loc753)
      %256 = stablehlo.compare LT, %254, %255, SIGNED : (tensor<9xi32>, tensor<9xi32>) -> tensor<9xi1> loc(#loc753)
      %257 = stablehlo.broadcast_in_dim %c_10, dims = [] : (tensor<i32>) -> tensor<9xi32> loc(#loc754)
      %258 = stablehlo.add %254, %257 : tensor<9xi32> loc(#loc754)
      %259 = stablehlo.select %256, %258, %254 : tensor<9xi1>, tensor<9xi32> loc(#loc755)
      %260 = stablehlo.compare LT, %242, %c_11, SIGNED : (tensor<i32>, tensor<i32>) -> tensor<i1> loc(#loc753)
      %261 = stablehlo.add %242, %c_7 : tensor<i32> loc(#loc754)
      %262 = stablehlo.select %260, %261, %242 : tensor<i1>, tensor<i32> loc(#loc755)
      %263 = stablehlo.broadcast_in_dim %262, dims = [] : (tensor<i32>) -> tensor<9xi32> loc(#loc756)
      %264 = stablehlo.broadcast_in_dim %259, dims = [0] : (tensor<9xi32>) -> tensor<9x1xi32> loc(#loc756)
      %265 = stablehlo.broadcast_in_dim %263, dims = [0] : (tensor<9xi32>) -> tensor<9x1xi32> loc(#loc756)
      %266 = stablehlo.concatenate %264, %265, dim = 1 : (tensor<9x1xi32>, tensor<9x1xi32>) -> tensor<9x2xi32> loc(#loc757)
      %267 = "stablehlo.gather"(%iterArg_23, %266) <{dimension_numbers = #stablehlo.gather<collapsed_slice_dims = [0, 1], start_index_map = [0, 1], index_vector_dim = 1>, slice_sizes = array<i64: 1, 1>}> : (tensor<401x2xf32>, tensor<9x2xi32>) -> tensor<9xf32> loc(#loc758)
      %268 = stablehlo.compare LT, %iterArg_29, %c_11, SIGNED : (tensor<i32>, tensor<i32>) -> tensor<i1> loc(#loc759)
      %269 = stablehlo.convert %iterArg_29 : tensor<i32> loc(#loc760)
      %270 = stablehlo.add %269, %c_10 : tensor<i32> loc(#loc761)
      %271 = stablehlo.select %268, %270, %iterArg_29 : tensor<i1>, tensor<i32> loc(#loc762)
      %272 = stablehlo.dynamic_slice %iterArg_24, %271, sizes = [1] : (tensor<401xf32>, tensor<i32>) -> tensor<1xf32> loc(#loc763)
      %273 = stablehlo.reshape %272 : (tensor<1xf32>) -> tensor<f32> loc(#loc764)
      %274 = stablehlo.add %273, %cst_5 : tensor<f32> loc(#loc765)
      %275 = stablehlo.log %274 : tensor<f32> loc(#loc766)
      %276 = stablehlo.broadcast_in_dim %c_11, dims = [] : (tensor<i32>) -> tensor<9xi32> loc(#loc767)
      %277 = stablehlo.compare LT, %254, %276, SIGNED : (tensor<9xi32>, tensor<9xi32>) -> tensor<9xi1> loc(#loc767)
      %278 = stablehlo.broadcast_in_dim %c_10, dims = [] : (tensor<i32>) -> tensor<9xi32> loc(#loc768)
      %279 = stablehlo.add %254, %278 : tensor<9xi32> loc(#loc768)
      %280 = stablehlo.select %277, %279, %254 : tensor<9xi1>, tensor<9xi32> loc(#loc769)
      %281 = stablehlo.broadcast_in_dim %280, dims = [0] : (tensor<9xi32>) -> tensor<9x1xi32> loc(#loc770)
      %282 = "stablehlo.gather"(%iterArg_24, %281) <{dimension_numbers = #stablehlo.gather<collapsed_slice_dims = [0], start_index_map = [0], index_vector_dim = 1>, slice_sizes = array<i64: 1>}> : (tensor<401xf32>, tensor<9x1xi32>) -> tensor<9xf32> loc(#loc771)
      %283 = stablehlo.broadcast_in_dim %iterArg_25, dims = [] : (tensor<f32>) -> tensor<9xf32> loc(#loc772)
      %284 = stablehlo.add %282, %283 : tensor<9xf32> loc(#loc772)
      %285 = stablehlo.broadcast_in_dim %275, dims = [] : (tensor<f32>) -> tensor<9xf32> loc(#loc773)
      %286 = stablehlo.divide %285, %284 : tensor<9xf32> loc(#loc773)
      %287 = stablehlo.sqrt %286 : tensor<9xf32> loc(#loc774)
      %288 = stablehlo.convert %iterArg_26 : tensor<f32> loc(#loc775)
      %289 = stablehlo.broadcast_in_dim %288, dims = [] : (tensor<f32>) -> tensor<9xf32> loc(#loc776)
      %290 = stablehlo.multiply %289, %287 : tensor<9xf32> loc(#loc776)
      %291 = stablehlo.add %267, %290 : tensor<9xf32> loc(#loc777)
      %292 = stablehlo.not %253 : tensor<9xi1> loc(#loc778)
      %293 = stablehlo.broadcast_in_dim %c_4, dims = [] : (tensor<i1>) -> tensor<9xi1> loc(#loc779)
      %294 = stablehlo.compare NE, %292, %293, UNSIGNED : (tensor<9xi1>, tensor<9xi1>) -> tensor<9xi1> loc(#loc779)
      %295 = stablehlo.convert %294 : tensor<9xi1> loc(#loc779)
      %296 = stablehlo.and %251, %295 : tensor<9xi1> loc(#loc780)
      %297 = func.call @_where_3(%296, %cst_3, %291) : (tensor<9xi1>, tensor<f32>, tensor<9xf32>) -> tensor<9xf32> loc(#loc781)
      %298 = stablehlo.not %251 : tensor<9xi1> loc(#loc782)
      %299 = func.call @_where_3(%298, %cst_2, %297) : (tensor<9xi1>, tensor<f32>, tensor<9xf32>) -> tensor<9xf32> loc(#loc783)
      %300 = func.call @argmax(%299) : (tensor<9xf32>) -> tensor<i32> loc(#loc784)
      %301 = stablehlo.convert %iterArg_29 : tensor<i32> loc(#loc785)
      %302 = stablehlo.compare LT, %301, %c_11, SIGNED : (tensor<i32>, tensor<i32>) -> tensor<i1> loc(#loc786)
      %303 = stablehlo.add %301, %c_10 : tensor<i32> loc(#loc787)
      %304 = stablehlo.select %302, %303, %301 : tensor<i1>, tensor<i32> loc(#loc788)
      %305 = stablehlo.compare LT, %300, %c_11, SIGNED : (tensor<i32>, tensor<i32>) -> tensor<i1> loc(#loc786)
      %306 = stablehlo.add %300, %c_9 : tensor<i32> loc(#loc787)
      %307 = stablehlo.select %305, %306, %300 : tensor<i1>, tensor<i32> loc(#loc788)
      %308 = stablehlo.dynamic_slice %iterArg, %304, %307, sizes = [1, 1] : (tensor<401x9xi32>, tensor<i32>, tensor<i32>) -> tensor<1x1xi32> loc(#loc789)
      %309 = stablehlo.reshape %308 : (tensor<1x1xi32>) -> tensor<i32> loc(#loc790)
      stablehlo.return %iterArg, %iterArg_13, %iterArg_14, %iterArg_15, %iterArg_16, %iterArg_17, %iterArg_18, %iterArg_19, %iterArg_20, %iterArg_21, %iterArg_22, %iterArg_23, %iterArg_24, %iterArg_25, %iterArg_26, %iterArg_29, %300, %309 : tensor<401x9xi32>, tensor<401xi32>, tensor<401x3x3x2xi1>, tensor<401x2xf32>, tensor<401xi1>, tensor<401xi1>, tensor<401x9xi1>, tensor<401xi32>, tensor<401xi32>, tensor<401x9xi32>, tensor<401xi32>, tensor<401x2xf32>, tensor<401xf32>, tensor<f32>, tensor<f32>, tensor<i32>, tensor<i32>, tensor<i32> loc(#loc552)
    } loc(#loc552)
    %84 = stablehlo.compare EQ, %83#17, %c_6, SIGNED : (tensor<i32>, tensor<i32>) -> tensor<i1> loc(#loc433)
    %85 = stablehlo.convert %arg13 : tensor<i32> loc(#loc434)
    %86 = stablehlo.add %arg3, %85 : tensor<i32> loc(#loc435)
    %87 = stablehlo.select %84, %86, %83#17 : tensor<i1>, tensor<i32> loc(#loc436)
    %88 = stablehlo.compare LT, %83#15, %c_11, SIGNED : (tensor<i32>, tensor<i32>) -> tensor<i1> loc(#loc437)
    %89 = stablehlo.convert %83#15 : tensor<i32> loc(#loc438)
    %90 = stablehlo.add %89, %c_10 : tensor<i32> loc(#loc439)
    %91 = stablehlo.select %88, %90, %83#15 : tensor<i1>, tensor<i32> loc(#loc440)
    %92 = stablehlo.dynamic_slice %arg22, %91, sizes = [1] : (tensor<401xi1>, tensor<i32>) -> tensor<1xi1> loc(#loc441)
    %93 = stablehlo.reshape %92 : (tensor<1xi1>) -> tensor<i1> loc(#loc442)
    %94 = stablehlo.compare LT, %83#15, %c_11, SIGNED : (tensor<i32>, tensor<i32>) -> tensor<i1> loc(#loc443)
    %95 = stablehlo.convert %83#15 : tensor<i32> loc(#loc444)
    %96 = stablehlo.add %95, %c_10 : tensor<i32> loc(#loc445)
    %97 = stablehlo.select %94, %96, %83#15 : tensor<i1>, tensor<i32> loc(#loc446)
    %98 = stablehlo.dynamic_slice %arg23, %97, sizes = [1] : (tensor<401xi1>, tensor<i32>) -> tensor<1xi1> loc(#loc447)
    %99 = stablehlo.reshape %98 : (tensor<1xi1>) -> tensor<i1> loc(#loc448)
    %100 = stablehlo.or %93, %99 : tensor<i1> loc(#loc449)
    %101 = stablehlo.convert %100 : (tensor<i1>) -> tensor<i32> loc(#loc450)
    %102:14 = "stablehlo.case"(%101) ({
      %228 = stablehlo.compare LT, %83#15, %c_11, SIGNED : (tensor<i32>, tensor<i32>) -> tensor<i1> loc(#loc1152)
      %229 = stablehlo.convert %83#15 : tensor<i32> loc(#loc1153)
      %230 = stablehlo.add %229, %c_10 : tensor<i32> loc(#loc1154)
      %231 = stablehlo.select %228, %230, %83#15 : tensor<i1>, tensor<i32> loc(#loc1155)
      %232 = stablehlo.dynamic_slice %arg19, %231, sizes = [1] : (tensor<401xi32>, tensor<i32>) -> tensor<1xi32> loc(#loc1156)
      %233 = stablehlo.reshape %232 : (tensor<1xi32>) -> tensor<i32> loc(#loc1157)
      %234 = stablehlo.compare LT, %83#15, %c_11, SIGNED : (tensor<i32>, tensor<i32>) -> tensor<i1> loc(#loc1152)
      %235 = stablehlo.convert %83#15 : tensor<i32> loc(#loc1153)
      %236 = stablehlo.add %235, %c_10 : tensor<i32> loc(#loc1154)
      %237 = stablehlo.select %234, %236, %83#15 : tensor<i1>, tensor<i32> loc(#loc1155)
      %238 = stablehlo.dynamic_slice %arg22, %237, sizes = [1] : (tensor<401xi1>, tensor<i32>) -> tensor<1xi1> loc(#loc1156)
      %239 = stablehlo.reshape %238 : (tensor<1xi1>) -> tensor<i1> loc(#loc1157)
      %240 = stablehlo.compare LT, %83#15, %c_11, SIGNED : (tensor<i32>, tensor<i32>) -> tensor<i1> loc(#loc1152)
      %241 = stablehlo.convert %83#15 : tensor<i32> loc(#loc1153)
      %242 = stablehlo.add %241, %c_10 : tensor<i32> loc(#loc1154)
      %243 = stablehlo.select %240, %242, %83#15 : tensor<i1>, tensor<i32> loc(#loc1155)
      %244 = stablehlo.dynamic_slice %arg23, %243, sizes = [1] : (tensor<401xi1>, tensor<i32>) -> tensor<1xi1> loc(#loc1156)
      %245 = stablehlo.reshape %244 : (tensor<1xi1>) -> tensor<i1> loc(#loc1157)
      %246 = stablehlo.convert %83#15 : tensor<i32> loc(#loc1153)
      %247 = stablehlo.compare LT, %246, %c_11, SIGNED : (tensor<i32>, tensor<i32>) -> tensor<i1> loc(#loc1152)
      %248 = stablehlo.add %246, %c_10 : tensor<i32> loc(#loc1154)
      %249 = stablehlo.select %247, %248, %246 : tensor<i1>, tensor<i32> loc(#loc1155)
      %250 = stablehlo.compare LT, %c_11, %c_11, SIGNED : (tensor<i32>, tensor<i32>) -> tensor<i1> loc(#loc1152)
      %251 = stablehlo.add %c_11, %c_9 : tensor<i32> loc(#loc1154)
      %252 = stablehlo.select %250, %251, %c_11 : tensor<i1>, tensor<i32> loc(#loc1155)
      %253 = stablehlo.dynamic_slice %arg24, %249, %252, sizes = [1, 9] : (tensor<401x9xi1>, tensor<i32>, tensor<i32>) -> tensor<1x9xi1> loc(#loc1156)
      %254 = stablehlo.reshape %253 : (tensor<1x9xi1>) -> tensor<9xi1> loc(#loc1157)
      %255 = stablehlo.compare LT, %83#15, %c_11, SIGNED : (tensor<i32>, tensor<i32>) -> tensor<i1> loc(#loc1152)
      %256 = stablehlo.convert %83#15 : tensor<i32> loc(#loc1153)
      %257 = stablehlo.add %256, %c_10 : tensor<i32> loc(#loc1154)
      %258 = stablehlo.select %255, %257, %83#15 : tensor<i1>, tensor<i32> loc(#loc1155)
      %259 = stablehlo.dynamic_slice %arg25, %258, sizes = [1] : (tensor<401xi32>, tensor<i32>) -> tensor<1xi32> loc(#loc1156)
      %260 = stablehlo.reshape %259 : (tensor<1xi32>) -> tensor<i32> loc(#loc1157)
      %261 = stablehlo.compare LT, %83#15, %c_11, SIGNED : (tensor<i32>, tensor<i32>) -> tensor<i1> loc(#loc1152)
      %262 = stablehlo.convert %83#15 : tensor<i32> loc(#loc1153)
      %263 = stablehlo.add %262, %c_10 : tensor<i32> loc(#loc1154)
      %264 = stablehlo.select %261, %263, %83#15 : tensor<i1>, tensor<i32> loc(#loc1155)
      %265 = stablehlo.dynamic_slice %arg26, %264, sizes = [1] : (tensor<401xi32>, tensor<i32>) -> tensor<1xi32> loc(#loc1156)
      %266 = stablehlo.reshape %265 : (tensor<1xi32>) -> tensor<i32> loc(#loc1157)
      %267 = stablehlo.convert %83#15 : tensor<i32> loc(#loc1153)
      %268 = stablehlo.compare LT, %267, %c_11, SIGNED : (tensor<i32>, tensor<i32>) -> tensor<i1> loc(#loc1152)
      %269 = stablehlo.add %267, %c_10 : tensor<i32> loc(#loc1154)
      %270 = stablehlo.select %268, %269, %267 : tensor<i1>, tensor<i32> loc(#loc1155)
      %271 = stablehlo.compare LT, %c_11, %c_11, SIGNED : (tensor<i32>, tensor<i32>) -> tensor<i1> loc(#loc1152)
      %272 = stablehlo.add %c_11, %c_9 : tensor<i32> loc(#loc1154)
      %273 = stablehlo.select %271, %272, %c_11 : tensor<i1>, tensor<i32> loc(#loc1155)
      %274 = stablehlo.dynamic_slice %arg27, %270, %273, sizes = [1, 9] : (tensor<401x9xi32>, tensor<i32>, tensor<i32>) -> tensor<1x9xi32> loc(#loc1156)
      %275 = stablehlo.reshape %274 : (tensor<1x9xi32>) -> tensor<9xi32> loc(#loc1157)
      %276 = stablehlo.compare LT, %83#15, %c_11, SIGNED : (tensor<i32>, tensor<i32>) -> tensor<i1> loc(#loc1152)
      %277 = stablehlo.convert %83#15 : tensor<i32> loc(#loc1153)
      %278 = stablehlo.add %277, %c_10 : tensor<i32> loc(#loc1154)
      %279 = stablehlo.select %276, %278, %83#15 : tensor<i1>, tensor<i32> loc(#loc1155)
      %280 = stablehlo.dynamic_slice %arg28, %279, sizes = [1] : (tensor<401xi32>, tensor<i32>) -> tensor<1xi32> loc(#loc1156)
      %281 = stablehlo.reshape %280 : (tensor<1xi32>) -> tensor<i32> loc(#loc1157)
      %282 = stablehlo.compare LT, %83#16, %c_11, SIGNED : (tensor<i32>, tensor<i32>) -> tensor<i1> loc(#loc989)
      %283 = stablehlo.add %83#16, %c_9 : tensor<i32> loc(#loc990)
      %284 = stablehlo.select %282, %283, %83#16 : tensor<i1>, tensor<i32> loc(#loc991)
      %285 = stablehlo.dynamic_slice %254, %284, sizes = [1] : (tensor<9xi1>, tensor<i32>) -> tensor<1xi1> loc(#loc992)
      %286 = stablehlo.reshape %285 : (tensor<1xi1>) -> tensor<i1> loc(#loc993)
      %287 = stablehlo.not %286 : tensor<i1> loc(#loc994)
      %288 = stablehlo.or %239, %245 : tensor<i1> loc(#loc995)
      %289 = stablehlo.convert %288 : (tensor<i1>) -> tensor<i32> loc(#loc996)
      %290:8 = "stablehlo.case"(%289) ({
        %384 = stablehlo.add %260, %c_12 : tensor<i32> loc(#loc1158)
        %385 = stablehlo.add %233, %c_12 : tensor<i32> loc(#loc1159)
        %386 = func.call @remainder(%385, %c_7) : (tensor<i32>, tensor<i32>) -> tensor<i32> loc(#loc1160)
        %387 = stablehlo.compare LT, %83#16, %c_11, SIGNED : (tensor<i32>, tensor<i32>) -> tensor<i1> loc(#loc1161)
        %388 = stablehlo.add %83#16, %c_9 : tensor<i32> loc(#loc1162)
        %389 = stablehlo.select %387, %388, %83#16 : tensor<i1>, tensor<i32> loc(#loc1163)
        %390 = stablehlo.broadcast_in_dim %389, dims = [] : (tensor<i32>) -> tensor<1xi32> loc(#loc1164)
        %391 = "stablehlo.scatter"(%275, %390, %266) <{indices_are_sorted = true, scatter_dimension_numbers = #stablehlo.scatter<inserted_window_dims = [0], scatter_dims_to_operand_dims = [0]>, unique_indices = true}> ({
        ^bb0(%arg31: tensor<i32> loc("scatter:"(#loc116)), %arg32: tensor<i32> loc("scatter:"(#loc116))):
          stablehlo.return %arg32 : tensor<i32> loc(#loc1165)
        }) : (tensor<9xi32>, tensor<1xi32>, tensor<i32>) -> tensor<9xi32> loc(#loc1165)
        %392 = stablehlo.broadcast_in_dim %c_11, dims = [] : (tensor<i32>) -> tensor<8x3xi32> loc(#loc1166)
        %393 = stablehlo.compare LT, %arg4, %392, SIGNED : (tensor<8x3xi32>, tensor<8x3xi32>) -> tensor<8x3xi1> loc(#loc1166)
        %394 = stablehlo.broadcast_in_dim %c_9, dims = [] : (tensor<i32>) -> tensor<8x3xi32> loc(#loc1167)
        %395 = stablehlo.add %arg4, %394 : tensor<8x3xi32> loc(#loc1167)
        %396 = stablehlo.select %393, %395, %arg4 : tensor<8x3xi1>, tensor<8x3xi32> loc(#loc1168)
        %397 = stablehlo.broadcast_in_dim %396, dims = [0, 1] : (tensor<8x3xi32>) -> tensor<8x3x1xi32> loc(#loc1169)
        %398 = "stablehlo.gather"(%391, %397) <{dimension_numbers = #stablehlo.gather<collapsed_slice_dims = [0], start_index_map = [0], index_vector_dim = 2>, slice_sizes = array<i64: 1>}> : (tensor<9xi32>, tensor<8x3x1xi32>) -> tensor<8x3xi32> loc(#loc1170)
        %399 = stablehlo.broadcast_in_dim %266, dims = [] : (tensor<i32>) -> tensor<8x3xi32> loc(#loc1171)
        %400 = stablehlo.compare EQ, %398, %399, SIGNED : (tensor<8x3xi32>, tensor<8x3xi32>) -> tensor<8x3xi1> loc(#loc1171)
        %401 = stablehlo.reduce(%400 init: %c) applies stablehlo.and across dimensions = [1] : (tensor<8x3xi1>, tensor<i1>) -> tensor<8xi1> loc(#loc1172)
        %402 = stablehlo.reduce(%401 init: %c_4) applies stablehlo.or across dimensions = [0] : (tensor<8xi1>, tensor<i1>) -> tensor<i1> loc(#loc1173)
        %403 = stablehlo.select %402, %266, %c_6 : tensor<i1>, tensor<i32> loc(#loc1174)
        %404 = stablehlo.compare LT, %83#16, %c_11, SIGNED : (tensor<i32>, tensor<i32>) -> tensor<i1> loc(#loc1175)
        %405 = stablehlo.add %83#16, %c_9 : tensor<i32> loc(#loc1176)
        %406 = stablehlo.select %404, %405, %83#16 : tensor<i1>, tensor<i32> loc(#loc1177)
        %407 = stablehlo.broadcast_in_dim %406, dims = [] : (tensor<i32>) -> tensor<1xi32> loc(#loc1178)
        %408 = "stablehlo.scatter"(%275, %407, %266) <{indices_are_sorted = true, scatter_dimension_numbers = #stablehlo.scatter<inserted_window_dims = [0], scatter_dims_to_operand_dims = [0]>, unique_indices = true}> ({
        ^bb0(%arg31: tensor<i32> loc("scatter:"(#loc116)), %arg32: tensor<i32> loc("scatter:"(#loc116))):
          stablehlo.return %arg32 : tensor<i32> loc(#loc1179)
        }) : (tensor<9xi32>, tensor<1xi32>, tensor<i32>) -> tensor<9xi32> loc(#loc1179)
        %409 = stablehlo.add %266, %c_12 : tensor<i32> loc(#loc1180)
        %410 = func.call @remainder(%409, %c_7) : (tensor<i32>, tensor<i32>) -> tensor<i32> loc(#loc1181)
        %411 = stablehlo.broadcast_in_dim %c_11, dims = [] : (tensor<i32>) -> tensor<9xi32> loc(#loc1182)
        %412 = stablehlo.compare LT, %408, %411, SIGNED : (tensor<9xi32>, tensor<9xi32>) -> tensor<9xi1> loc(#loc1182)
        %413 = stablehlo.compare GE, %403, %c_11, SIGNED : (tensor<i32>, tensor<i32>) -> tensor<i1> loc(#loc1183)
        %414 = stablehlo.broadcast_in_dim %c_6, dims = [] : (tensor<i32>) -> tensor<9xi32> loc(#loc1184)
        %415 = stablehlo.compare NE, %408, %414, SIGNED : (tensor<9xi32>, tensor<9xi32>) -> tensor<9xi1> loc(#loc1184)
        %416 = stablehlo.reduce(%415 init: %c) applies stablehlo.and across dimensions = [0] : (tensor<9xi1>, tensor<i1>) -> tensor<i1> loc(#loc1185)
        %417 = stablehlo.or %413, %416 : tensor<i1> loc(#loc1186)
        %418 = stablehlo.compare GE, %403, %c_11, SIGNED : (tensor<i32>, tensor<i32>) -> tensor<i1> loc(#loc1187)
        %419 = stablehlo.compare LT, %403, %c_11, SIGNED : (tensor<i32>, tensor<i32>) -> tensor<i1> loc(#loc1188)
        %420 = stablehlo.add %403, %c_7 : tensor<i32> loc(#loc1189)
        %421 = stablehlo.select %419, %420, %403 : tensor<i1>, tensor<i32> loc(#loc1190)
        %422 = stablehlo.broadcast_in_dim %421, dims = [] : (tensor<i32>) -> tensor<1xi32> loc(#loc1191)
        %423 = "stablehlo.scatter"(%arg5, %422, %cst_5) <{indices_are_sorted = true, scatter_dimension_numbers = #stablehlo.scatter<inserted_window_dims = [0], scatter_dims_to_operand_dims = [0]>, unique_indices = true}> ({
        ^bb0(%arg31: tensor<f32> loc("scatter:"(#loc116)), %arg32: tensor<f32> loc("scatter:"(#loc116))):
          stablehlo.return %arg32 : tensor<f32> loc(#loc1192)
        }) : (tensor<2xf32>, tensor<1xi32>, tensor<f32>) -> tensor<2xf32> loc(#loc1192)
        %424 = stablehlo.broadcast_in_dim %cst_1, dims = [] : (tensor<f32>) -> tensor<2xf32> loc(#loc1193)
        %425 = stablehlo.select %418, %423, %424 : tensor<i1>, tensor<2xf32> loc(#loc1194)
        %426 = stablehlo.compare NE, %386, %410, SIGNED : (tensor<i32>, tensor<i32>) -> tensor<i1> loc(#loc1195)
        %427 = func.call @_flip(%425) : (tensor<2xf32>) -> tensor<2xf32> loc(#loc1196)
        %428 = stablehlo.select %426, %427, %425 : tensor<i1>, tensor<2xf32> loc(#loc1197)
        %429 = stablehlo.broadcast_in_dim %cst_1, dims = [] : (tensor<f32>) -> tensor<2xf32> loc(#loc1198)
        %430 = stablehlo.select %417, %428, %429 : tensor<i1>, tensor<2xf32> loc(#loc1199)
        stablehlo.return %386, %430, %417, %412, %384, %410, %408, %403 : tensor<i32>, tensor<2xf32>, tensor<i1>, tensor<9xi1>, tensor<i32>, tensor<i32>, tensor<9xi32>, tensor<i32> loc(#loc997)
      }, {
        %384 = stablehlo.broadcast_in_dim %cst_1, dims = [] : (tensor<f32>) -> tensor<2xf32> loc(#loc1200)
        stablehlo.return %233, %384, %239, %254, %260, %266, %275, %281 : tensor<i32>, tensor<2xf32>, tensor<i1>, tensor<9xi1>, tensor<i32>, tensor<i32>, tensor<9xi32>, tensor<i32> loc(#loc997)
      }) : (tensor<i32>) -> (tensor<i32>, tensor<2xf32>, tensor<i1>, tensor<9xi1>, tensor<i32>, tensor<i32>, tensor<9xi32>, tensor<i32>) loc(#loc997)
      %291 = stablehlo.convert %287 : (tensor<i1>) -> tensor<i32> loc(#loc1025)
      %292:2 = "stablehlo.case"(%291) ({
        stablehlo.return %290#1, %290#2 : tensor<2xf32>, tensor<i1> loc(#loc1026)
      }, {
        %384 = stablehlo.broadcast_in_dim %cst_5, dims = [] : (tensor<f32>) -> tensor<2xf32> loc(#loc1201)
        %385 = stablehlo.broadcast_in_dim %cst_5, dims = [] : (tensor<f32>) -> tensor<2xf32> loc(#loc1202)
        %386 = stablehlo.multiply %384, %385 : tensor<2xf32> loc(#loc1202)
        %387 = stablehlo.broadcast_in_dim %cst_5, dims = [] : (tensor<f32>) -> tensor<2xf32> loc(#loc1203)
        %388 = stablehlo.multiply %386, %387 : tensor<2xf32> loc(#loc1203)
        %389 = stablehlo.compare LT, %233, %c_11, SIGNED : (tensor<i32>, tensor<i32>) -> tensor<i1> loc(#loc1204)
        %390 = stablehlo.add %233, %c_7 : tensor<i32> loc(#loc1205)
        %391 = stablehlo.select %389, %390, %233 : tensor<i1>, tensor<i32> loc(#loc1206)
        %392 = stablehlo.broadcast_in_dim %391, dims = [] : (tensor<i32>) -> tensor<1xi32> loc(#loc1207)
        %393 = "stablehlo.scatter"(%388, %392, %cst_0) <{indices_are_sorted = true, scatter_dimension_numbers = #stablehlo.scatter<inserted_window_dims = [0], scatter_dims_to_operand_dims = [0]>, unique_indices = true}> ({
        ^bb0(%arg31: tensor<f32> loc("scatter:"(#loc116)), %arg32: tensor<f32> loc("scatter:"(#loc116))):
          stablehlo.return %arg32 : tensor<f32> loc(#loc1208)
        }) : (tensor<2xf32>, tensor<1xi32>, tensor<f32>) -> tensor<2xf32> loc(#loc1208)
        stablehlo.return %393, %arg6 : tensor<2xf32>, tensor<i1> loc(#loc1026)
      }) : (tensor<i32>) -> (tensor<2xf32>, tensor<i1>) loc(#loc1026)
      %293 = stablehlo.convert %292#1 : (tensor<i1>) -> tensor<i32> loc(#loc1031)
      %294 = "stablehlo.case"(%293) ({
        stablehlo.return %290#3 : tensor<9xi1> loc(#loc1032)
      }, {
        %384 = stablehlo.broadcast_in_dim %c, dims = [] : (tensor<i1>) -> tensor<9xi1> loc(#loc1209)
        stablehlo.return %384 : tensor<9xi1> loc(#loc1032)
      }) : (tensor<i32>) -> tensor<9xi1> loc(#loc1032)
      %295 = stablehlo.compare EQ, %290#0, %290#0, SIGNED : (tensor<i32>, tensor<i32>) -> tensor<i1> loc(#loc1272)
      %296 = stablehlo.subtract %c_12, %290#5 : tensor<i32> loc(#loc1273)
      %297 = stablehlo.select %295, %290#5, %296 : tensor<i1>, tensor<i32> loc(#loc1274)
      %298 = stablehlo.compare EQ, %297, %c_11, SIGNED : (tensor<i32>, tensor<i32>) -> tensor<i1> loc(#loc1294)
      %299 = stablehlo.select %298, %arg7, %arg8 : tensor<i1>, tensor<2xi32> loc(#loc1295)
      %300 = stablehlo.broadcast_in_dim %290#6, dims = [1] : (tensor<9xi32>) -> tensor<1x9xi32> loc(#loc1304)
      %301 = stablehlo.broadcast_in_dim %299, dims = [0] : (tensor<2xi32>) -> tensor<2x1xi32> loc(#loc1304)
      %302 = stablehlo.broadcast_in_dim %300, dims = [0, 1] : (tensor<1x9xi32>) -> tensor<2x9xi32> loc(#loc1305)
      %303 = stablehlo.broadcast_in_dim %301, dims = [0, 1] : (tensor<2x1xi32>) -> tensor<2x9xi32> loc(#loc1305)
      %304 = stablehlo.compare EQ, %302, %303, SIGNED : (tensor<2x9xi32>, tensor<2x9xi32>) -> tensor<2x9xi1> loc(#loc1305)
      %305 = stablehlo.reshape %304 : (tensor<2x9xi1>) -> tensor<2x3x3xi1> loc(#loc1306)
      %306 = stablehlo.broadcast_in_dim %305, dims = [0, 1, 2] : (tensor<2x3x3xi1>) -> tensor<2x3x3x1xi1> loc(#loc1298)
      %307 = stablehlo.transpose %306, dims = [1, 2, 0, 3] : (tensor<2x3x3x1xi1>) -> tensor<3x3x2x1xi1> loc(#loc1299)
      %308 = stablehlo.reshape %307 : (tensor<3x3x2x1xi1>) -> tensor<3x3x2xi1> loc(#loc1299)
      %309 = stablehlo.compare LT, %87, %c_11, SIGNED : (tensor<i32>, tensor<i32>) -> tensor<i1> loc(#loc1038)
      %310 = stablehlo.add %87, %c_10 : tensor<i32> loc(#loc1039)
      %311 = stablehlo.select %309, %310, %87 : tensor<i1>, tensor<i32> loc(#loc1040)
      %312 = stablehlo.broadcast_in_dim %311, dims = [] : (tensor<i32>) -> tensor<1xi32> loc(#loc1041)
      %313 = "stablehlo.scatter"(%arg17, %312, %83#15) <{indices_are_sorted = true, scatter_dimension_numbers = #stablehlo.scatter<inserted_window_dims = [0], scatter_dims_to_operand_dims = [0]>, unique_indices = true}> ({
      ^bb0(%arg31: tensor<i32> loc("scatter:"(#loc116)), %arg32: tensor<i32> loc("scatter:"(#loc116))):
        stablehlo.return %arg32 : tensor<i32> loc(#loc1042)
      }) : (tensor<401xi32>, tensor<1xi32>, tensor<i32>) -> tensor<401xi32> loc(#loc1042)
      %314 = stablehlo.compare LT, %87, %c_11, SIGNED : (tensor<i32>, tensor<i32>) -> tensor<i1> loc(#loc1043)
      %315 = stablehlo.add %87, %c_10 : tensor<i32> loc(#loc1044)
      %316 = stablehlo.select %314, %315, %87 : tensor<i1>, tensor<i32> loc(#loc1045)
      %317 = stablehlo.broadcast_in_dim %316, dims = [] : (tensor<i32>) -> tensor<1xi32> loc(#loc1046)
      %318 = stablehlo.convert %arg15 : tensor<401xi32> loc(#loc1047)
      %319 = "stablehlo.scatter"(%318, %317, %83#16) <{indices_are_sorted = true, scatter_dimension_numbers = #stablehlo.scatter<inserted_window_dims = [0], scatter_dims_to_operand_dims = [0]>, unique_indices = true}> ({
      ^bb0(%arg31: tensor<i32> loc("scatter:"(#loc116)), %arg32: tensor<i32> loc("scatter:"(#loc116))):
        stablehlo.return %arg32 : tensor<i32> loc(#loc1048)
      }) : (tensor<401xi32>, tensor<1xi32>, tensor<i32>) -> tensor<401xi32> loc(#loc1048)
      %320 = stablehlo.convert %319 : tensor<401xi32> loc(#loc1047)
      %321 = stablehlo.compare LT, %83#15, %c_11, SIGNED : (tensor<i32>, tensor<i32>) -> tensor<i1> loc(#loc1049)
      %322 = stablehlo.add %83#15, %c_10 : tensor<i32> loc(#loc1050)
      %323 = stablehlo.select %321, %322, %83#15 : tensor<i1>, tensor<i32> loc(#loc1051)
      %324 = stablehlo.compare LT, %83#16, %c_11, SIGNED : (tensor<i32>, tensor<i32>) -> tensor<i1> loc(#loc1049)
      %325 = stablehlo.add %83#16, %c_9 : tensor<i32> loc(#loc1050)
      %326 = stablehlo.select %324, %325, %83#16 : tensor<i1>, tensor<i32> loc(#loc1051)
      %327 = stablehlo.convert %323 : tensor<i32> loc(#loc1052)
      %328 = stablehlo.broadcast_in_dim %327, dims = [] : (tensor<i32>) -> tensor<1xi32> loc(#loc1053)
      %329 = stablehlo.broadcast_in_dim %326, dims = [] : (tensor<i32>) -> tensor<1xi32> loc(#loc1053)
      %330 = stablehlo.concatenate %328, %329, dim = 0 : (tensor<1xi32>, tensor<1xi32>) -> tensor<2xi32> loc(#loc1054)
      %331 = stablehlo.convert %arg16 : tensor<401x9xi32> loc(#loc1052)
      %332 = "stablehlo.scatter"(%331, %330, %87) <{indices_are_sorted = true, scatter_dimension_numbers = #stablehlo.scatter<inserted_window_dims = [0, 1], scatter_dims_to_operand_dims = [0, 1]>, unique_indices = true}> ({
      ^bb0(%arg31: tensor<i32> loc("scatter:"(#loc116)), %arg32: tensor<i32> loc("scatter:"(#loc116))):
        stablehlo.return %arg32 : tensor<i32> loc(#loc1055)
      }) : (tensor<401x9xi32>, tensor<2xi32>, tensor<i32>) -> tensor<401x9xi32> loc(#loc1055)
      %333 = stablehlo.convert %332 : tensor<401x9xi32> loc(#loc1052)
      %334 = stablehlo.compare LT, %87, %c_11, SIGNED : (tensor<i32>, tensor<i32>) -> tensor<i1> loc(#loc1217)
      %335 = stablehlo.add %87, %c_10 : tensor<i32> loc(#loc1218)
      %336 = stablehlo.select %334, %335, %87 : tensor<i1>, tensor<i32> loc(#loc1219)
      %337 = stablehlo.broadcast_in_dim %336, dims = [] : (tensor<i32>) -> tensor<1xi32> loc(#loc1220)
      %338 = "stablehlo.scatter"(%arg19, %337, %290#0) <{indices_are_sorted = true, scatter_dimension_numbers = #stablehlo.scatter<inserted_window_dims = [0], scatter_dims_to_operand_dims = [0]>, unique_indices = true}> ({
      ^bb0(%arg31: tensor<i32> loc("scatter:"(#loc116)), %arg32: tensor<i32> loc("scatter:"(#loc116))):
        stablehlo.return %arg32 : tensor<i32> loc(#loc1221)
      }) : (tensor<401xi32>, tensor<1xi32>, tensor<i32>) -> tensor<401xi32> loc(#loc1221)
      %339 = stablehlo.compare LT, %87, %c_11, SIGNED : (tensor<i32>, tensor<i32>) -> tensor<i1> loc(#loc1217)
      %340 = stablehlo.add %87, %c_10 : tensor<i32> loc(#loc1218)
      %341 = stablehlo.select %339, %340, %87 : tensor<i1>, tensor<i32> loc(#loc1219)
      %342 = stablehlo.broadcast_in_dim %341, dims = [] : (tensor<i32>) -> tensor<1xi32> loc(#loc1220)
      %343 = "stablehlo.scatter"(%arg20, %342, %308) <{indices_are_sorted = true, scatter_dimension_numbers = #stablehlo.scatter<update_window_dims = [0, 1, 2], inserted_window_dims = [0], scatter_dims_to_operand_dims = [0]>, unique_indices = true}> ({
      ^bb0(%arg31: tensor<i1> loc("scatter:"(#loc116)), %arg32: tensor<i1> loc("scatter:"(#loc116))):
        stablehlo.return %arg32 : tensor<i1> loc(#loc1221)
      }) : (tensor<401x3x3x2xi1>, tensor<1xi32>, tensor<3x3x2xi1>) -> tensor<401x3x3x2xi1> loc(#loc1221)
      %344 = stablehlo.compare LT, %87, %c_11, SIGNED : (tensor<i32>, tensor<i32>) -> tensor<i1> loc(#loc1217)
      %345 = stablehlo.add %87, %c_10 : tensor<i32> loc(#loc1218)
      %346 = stablehlo.select %344, %345, %87 : tensor<i1>, tensor<i32> loc(#loc1219)
      %347 = stablehlo.broadcast_in_dim %346, dims = [] : (tensor<i32>) -> tensor<1xi32> loc(#loc1220)
      %348 = "stablehlo.scatter"(%arg21, %347, %292#0) <{indices_are_sorted = true, scatter_dimension_numbers = #stablehlo.scatter<update_window_dims = [0], inserted_window_dims = [0], scatter_dims_to_operand_dims = [0]>, unique_indices = true}> ({
      ^bb0(%arg31: tensor<f32> loc("scatter:"(#loc116)), %arg32: tensor<f32> loc("scatter:"(#loc116))):
        stablehlo.return %arg32 : tensor<f32> loc(#loc1221)
      }) : (tensor<401x2xf32>, tensor<1xi32>, tensor<2xf32>) -> tensor<401x2xf32> loc(#loc1221)
      %349 = stablehlo.compare LT, %87, %c_11, SIGNED : (tensor<i32>, tensor<i32>) -> tensor<i1> loc(#loc1217)
      %350 = stablehlo.add %87, %c_10 : tensor<i32> loc(#loc1218)
      %351 = stablehlo.select %349, %350, %87 : tensor<i1>, tensor<i32> loc(#loc1219)
      %352 = stablehlo.broadcast_in_dim %351, dims = [] : (tensor<i32>) -> tensor<1xi32> loc(#loc1220)
      %353 = "stablehlo.scatter"(%arg22, %352, %292#1) <{indices_are_sorted = true, scatter_dimension_numbers = #stablehlo.scatter<inserted_window_dims = [0], scatter_dims_to_operand_dims = [0]>, unique_indices = true}> ({
      ^bb0(%arg31: tensor<i1> loc("scatter:"(#loc116)), %arg32: tensor<i1> loc("scatter:"(#loc116))):
        stablehlo.return %arg32 : tensor<i1> loc(#loc1221)
      }) : (tensor<401xi1>, tensor<1xi32>, tensor<i1>) -> tensor<401xi1> loc(#loc1221)
      %354 = stablehlo.compare LT, %87, %c_11, SIGNED : (tensor<i32>, tensor<i32>) -> tensor<i1> loc(#loc1217)
      %355 = stablehlo.add %87, %c_10 : tensor<i32> loc(#loc1218)
      %356 = stablehlo.select %354, %355, %87 : tensor<i1>, tensor<i32> loc(#loc1219)
      %357 = stablehlo.broadcast_in_dim %356, dims = [] : (tensor<i32>) -> tensor<1xi32> loc(#loc1220)
      %358 = "stablehlo.scatter"(%arg23, %357, %245) <{indices_are_sorted = true, scatter_dimension_numbers = #stablehlo.scatter<inserted_window_dims = [0], scatter_dims_to_operand_dims = [0]>, unique_indices = true}> ({
      ^bb0(%arg31: tensor<i1> loc("scatter:"(#loc116)), %arg32: tensor<i1> loc("scatter:"(#loc116))):
        stablehlo.return %arg32 : tensor<i1> loc(#loc1221)
      }) : (tensor<401xi1>, tensor<1xi32>, tensor<i1>) -> tensor<401xi1> loc(#loc1221)
      %359 = stablehlo.compare LT, %87, %c_11, SIGNED : (tensor<i32>, tensor<i32>) -> tensor<i1> loc(#loc1217)
      %360 = stablehlo.add %87, %c_10 : tensor<i32> loc(#loc1218)
      %361 = stablehlo.select %359, %360, %87 : tensor<i1>, tensor<i32> loc(#loc1219)
      %362 = stablehlo.broadcast_in_dim %361, dims = [] : (tensor<i32>) -> tensor<1xi32> loc(#loc1220)
      %363 = "stablehlo.scatter"(%arg24, %362, %294) <{indices_are_sorted = true, scatter_dimension_numbers = #stablehlo.scatter<update_window_dims = [0], inserted_window_dims = [0], scatter_dims_to_operand_dims = [0]>, unique_indices = true}> ({
      ^bb0(%arg31: tensor<i1> loc("scatter:"(#loc116)), %arg32: tensor<i1> loc("scatter:"(#loc116))):
        stablehlo.return %arg32 : tensor<i1> loc(#loc1221)
      }) : (tensor<401x9xi1>, tensor<1xi32>, tensor<9xi1>) -> tensor<401x9xi1> loc(#loc1221)
      %364 = stablehlo.compare LT, %87, %c_11, SIGNED : (tensor<i32>, tensor<i32>) -> tensor<i1> loc(#loc1217)
      %365 = stablehlo.add %87, %c_10 : tensor<i32> loc(#loc1218)
      %366 = stablehlo.select %364, %365, %87 : tensor<i1>, tensor<i32> loc(#loc1219)
      %367 = stablehlo.broadcast_in_dim %366, dims = [] : (tensor<i32>) -> tensor<1xi32> loc(#loc1220)
      %368 = "stablehlo.scatter"(%arg25, %367, %290#4) <{indices_are_sorted = true, scatter_dimension_numbers = #stablehlo.scatter<inserted_window_dims = [0], scatter_dims_to_operand_dims = [0]>, unique_indices = true}> ({
      ^bb0(%arg31: tensor<i32> loc("scatter:"(#loc116)), %arg32: tensor<i32> loc("scatter:"(#loc116))):
        stablehlo.return %arg32 : tensor<i32> loc(#loc1221)
      }) : (tensor<401xi32>, tensor<1xi32>, tensor<i32>) -> tensor<401xi32> loc(#loc1221)
      %369 = stablehlo.compare LT, %87, %c_11, SIGNED : (tensor<i32>, tensor<i32>) -> tensor<i1> loc(#loc1217)
      %370 = stablehlo.add %87, %c_10 : tensor<i32> loc(#loc1218)
      %371 = stablehlo.select %369, %370, %87 : tensor<i1>, tensor<i32> loc(#loc1219)
      %372 = stablehlo.broadcast_in_dim %371, dims = [] : (tensor<i32>) -> tensor<1xi32> loc(#loc1220)
      %373 = "stablehlo.scatter"(%arg26, %372, %290#5) <{indices_are_sorted = true, scatter_dimension_numbers = #stablehlo.scatter<inserted_window_dims = [0], scatter_dims_to_operand_dims = [0]>, unique_indices = true}> ({
      ^bb0(%arg31: tensor<i32> loc("scatter:"(#loc116)), %arg32: tensor<i32> loc("scatter:"(#loc116))):
        stablehlo.return %arg32 : tensor<i32> loc(#loc1221)
      }) : (tensor<401xi32>, tensor<1xi32>, tensor<i32>) -> tensor<401xi32> loc(#loc1221)
      %374 = stablehlo.compare LT, %87, %c_11, SIGNED : (tensor<i32>, tensor<i32>) -> tensor<i1> loc(#loc1217)
      %375 = stablehlo.add %87, %c_10 : tensor<i32> loc(#loc1218)
      %376 = stablehlo.select %374, %375, %87 : tensor<i1>, tensor<i32> loc(#loc1219)
      %377 = stablehlo.broadcast_in_dim %376, dims = [] : (tensor<i32>) -> tensor<1xi32> loc(#loc1220)
      %378 = "stablehlo.scatter"(%arg27, %377, %290#6) <{indices_are_sorted = true, scatter_dimension_numbers = #stablehlo.scatter<update_window_dims = [0], inserted_window_dims = [0], scatter_dims_to_operand_dims = [0]>, unique_indices = true}> ({
      ^bb0(%arg31: tensor<i32> loc("scatter:"(#loc116)), %arg32: tensor<i32> loc("scatter:"(#loc116))):
        stablehlo.return %arg32 : tensor<i32> loc(#loc1221)
      }) : (tensor<401x9xi32>, tensor<1xi32>, tensor<9xi32>) -> tensor<401x9xi32> loc(#loc1221)
      %379 = stablehlo.compare LT, %87, %c_11, SIGNED : (tensor<i32>, tensor<i32>) -> tensor<i1> loc(#loc1217)
      %380 = stablehlo.add %87, %c_10 : tensor<i32> loc(#loc1218)
      %381 = stablehlo.select %379, %380, %87 : tensor<i1>, tensor<i32> loc(#loc1219)
      %382 = stablehlo.broadcast_in_dim %381, dims = [] : (tensor<i32>) -> tensor<1xi32> loc(#loc1220)
      %383 = "stablehlo.scatter"(%arg28, %382, %290#7) <{indices_are_sorted = true, scatter_dimension_numbers = #stablehlo.scatter<inserted_window_dims = [0], scatter_dims_to_operand_dims = [0]>, unique_indices = true}> ({
      ^bb0(%arg31: tensor<i32> loc("scatter:"(#loc116)), %arg32: tensor<i32> loc("scatter:"(#loc116))):
        stablehlo.return %arg32 : tensor<i32> loc(#loc1221)
      }) : (tensor<401xi32>, tensor<1xi32>, tensor<i32>) -> tensor<401xi32> loc(#loc1221)
      stablehlo.return %320, %333, %313, %338, %343, %348, %353, %358, %363, %368, %373, %378, %383, %87 : tensor<401xi32>, tensor<401x9xi32>, tensor<401xi32>, tensor<401xi32>, tensor<401x3x3x2xi1>, tensor<401x2xf32>, tensor<401xi1>, tensor<401xi1>, tensor<401x9xi1>, tensor<401xi32>, tensor<401xi32>, tensor<401x9xi32>, tensor<401xi32>, tensor<i32> loc(#loc451)
    }, {
      stablehlo.return %arg15, %arg16, %arg17, %arg19, %arg20, %arg21, %arg22, %arg23, %arg24, %arg25, %arg26, %arg27, %arg28, %83#15 : tensor<401xi32>, tensor<401x9xi32>, tensor<401xi32>, tensor<401xi32>, tensor<401x3x3x2xi1>, tensor<401x2xf32>, tensor<401xi1>, tensor<401xi1>, tensor<401x9xi1>, tensor<401xi32>, tensor<401xi32>, tensor<401x9xi32>, tensor<401xi32>, tensor<i32> loc(#loc451)
    }) : (tensor<i32>) -> (tensor<401xi32>, tensor<401x9xi32>, tensor<401xi32>, tensor<401xi32>, tensor<401x3x3x2xi1>, tensor<401x2xf32>, tensor<401xi1>, tensor<401xi1>, tensor<401x9xi1>, tensor<401xi32>, tensor<401xi32>, tensor<401x9xi32>, tensor<401xi32>, tensor<i32>) loc(#loc451)
    %103 = stablehlo.compare LT, %102#13, %c_11, SIGNED : (tensor<i32>, tensor<i32>) -> tensor<i1> loc(#loc1057)
    %104 = stablehlo.add %102#13, %c_10 : tensor<i32> loc(#loc1058)
    %105 = stablehlo.select %103, %104, %102#13 : tensor<i1>, tensor<i32> loc(#loc1059)
    %106 = stablehlo.dynamic_slice %102#3, %105, sizes = [1] : (tensor<401xi32>, tensor<i32>) -> tensor<1xi32> loc(#loc1060)
    %107 = stablehlo.reshape %106 : (tensor<1xi32>) -> tensor<i32> loc(#loc1061)
    %108 = stablehlo.compare LT, %102#13, %c_11, SIGNED : (tensor<i32>, tensor<i32>) -> tensor<i1> loc(#loc1057)
    %109 = stablehlo.add %102#13, %c_10 : tensor<i32> loc(#loc1058)
    %110 = stablehlo.select %108, %109, %102#13 : tensor<i1>, tensor<i32> loc(#loc1059)
    %111 = stablehlo.compare LT, %c_11, %c_11, SIGNED : (tensor<i32>, tensor<i32>) -> tensor<i1> loc(#loc1057)
    %112 = stablehlo.add %c_11, %c_8 : tensor<i32> loc(#loc1058)
    %113 = stablehlo.select %111, %112, %c_11 : tensor<i1>, tensor<i32> loc(#loc1059)
    %114 = stablehlo.compare LT, %c_11, %c_11, SIGNED : (tensor<i32>, tensor<i32>) -> tensor<i1> loc(#loc1057)
    %115 = stablehlo.add %c_11, %c_8 : tensor<i32> loc(#loc1058)
    %116 = stablehlo.select %114, %115, %c_11 : tensor<i1>, tensor<i32> loc(#loc1059)
    %117 = stablehlo.compare LT, %c_11, %c_11, SIGNED : (tensor<i32>, tensor<i32>) -> tensor<i1> loc(#loc1057)
    %118 = stablehlo.add %c_11, %c_7 : tensor<i32> loc(#loc1058)
    %119 = stablehlo.select %117, %118, %c_11 : tensor<i1>, tensor<i32> loc(#loc1059)
    %120 = stablehlo.dynamic_slice %102#4, %110, %113, %116, %119, sizes = [1, 3, 3, 2] : (tensor<401x3x3x2xi1>, tensor<i32>, tensor<i32>, tensor<i32>, tensor<i32>) -> tensor<1x3x3x2xi1> loc(#loc1060)
    %121 = stablehlo.reshape %120 : (tensor<1x3x3x2xi1>) -> tensor<3x3x2xi1> loc(#loc1061)
    %122 = stablehlo.compare LT, %102#13, %c_11, SIGNED : (tensor<i32>, tensor<i32>) -> tensor<i1> loc(#loc1057)
    %123 = stablehlo.add %102#13, %c_10 : tensor<i32> loc(#loc1058)
    %124 = stablehlo.select %122, %123, %102#13 : tensor<i1>, tensor<i32> loc(#loc1059)
    %125 = stablehlo.compare LT, %c_11, %c_11, SIGNED : (tensor<i32>, tensor<i32>) -> tensor<i1> loc(#loc1057)
    %126 = stablehlo.add %c_11, %c_7 : tensor<i32> loc(#loc1058)
    %127 = stablehlo.select %125, %126, %c_11 : tensor<i1>, tensor<i32> loc(#loc1059)
    %128 = stablehlo.dynamic_slice %102#5, %124, %127, sizes = [1, 2] : (tensor<401x2xf32>, tensor<i32>, tensor<i32>) -> tensor<1x2xf32> loc(#loc1060)
    %129 = stablehlo.reshape %128 : (tensor<1x2xf32>) -> tensor<2xf32> loc(#loc1061)
    %130 = stablehlo.compare LT, %102#13, %c_11, SIGNED : (tensor<i32>, tensor<i32>) -> tensor<i1> loc(#loc1057)
    %131 = stablehlo.add %102#13, %c_10 : tensor<i32> loc(#loc1058)
    %132 = stablehlo.select %130, %131, %102#13 : tensor<i1>, tensor<i32> loc(#loc1059)
    %133 = stablehlo.dynamic_slice %102#6, %132, sizes = [1] : (tensor<401xi1>, tensor<i32>) -> tensor<1xi1> loc(#loc1060)
    %134 = stablehlo.reshape %133 : (tensor<1xi1>) -> tensor<i1> loc(#loc1061)
    %135 = stablehlo.compare LT, %102#13, %c_11, SIGNED : (tensor<i32>, tensor<i32>) -> tensor<i1> loc(#loc1057)
    %136 = stablehlo.add %102#13, %c_10 : tensor<i32> loc(#loc1058)
    %137 = stablehlo.select %135, %136, %102#13 : tensor<i1>, tensor<i32> loc(#loc1059)
    %138 = stablehlo.dynamic_slice %102#7, %137, sizes = [1] : (tensor<401xi1>, tensor<i32>) -> tensor<1xi1> loc(#loc1060)
    %139 = stablehlo.reshape %138 : (tensor<1xi1>) -> tensor<i1> loc(#loc1061)
    %140 = stablehlo.compare LT, %102#13, %c_11, SIGNED : (tensor<i32>, tensor<i32>) -> tensor<i1> loc(#loc1057)
    %141 = stablehlo.add %102#13, %c_10 : tensor<i32> loc(#loc1058)
    %142 = stablehlo.select %140, %141, %102#13 : tensor<i1>, tensor<i32> loc(#loc1059)
    %143 = stablehlo.compare LT, %c_11, %c_11, SIGNED : (tensor<i32>, tensor<i32>) -> tensor<i1> loc(#loc1057)
    %144 = stablehlo.add %c_11, %c_9 : tensor<i32> loc(#loc1058)
    %145 = stablehlo.select %143, %144, %c_11 : tensor<i1>, tensor<i32> loc(#loc1059)
    %146 = stablehlo.dynamic_slice %102#8, %142, %145, sizes = [1, 9] : (tensor<401x9xi1>, tensor<i32>, tensor<i32>) -> tensor<1x9xi1> loc(#loc1060)
    %147 = stablehlo.reshape %146 : (tensor<1x9xi1>) -> tensor<9xi1> loc(#loc1061)
    %148 = stablehlo.compare LT, %102#13, %c_11, SIGNED : (tensor<i32>, tensor<i32>) -> tensor<i1> loc(#loc1057)
    %149 = stablehlo.add %102#13, %c_10 : tensor<i32> loc(#loc1058)
    %150 = stablehlo.select %148, %149, %102#13 : tensor<i1>, tensor<i32> loc(#loc1059)
    %151 = stablehlo.dynamic_slice %102#9, %150, sizes = [1] : (tensor<401xi32>, tensor<i32>) -> tensor<1xi32> loc(#loc1060)
    %152 = stablehlo.reshape %151 : (tensor<1xi32>) -> tensor<i32> loc(#loc1061)
    %153 = stablehlo.compare LT, %102#13, %c_11, SIGNED : (tensor<i32>, tensor<i32>) -> tensor<i1> loc(#loc1057)
    %154 = stablehlo.add %102#13, %c_10 : tensor<i32> loc(#loc1058)
    %155 = stablehlo.select %153, %154, %102#13 : tensor<i1>, tensor<i32> loc(#loc1059)
    %156 = stablehlo.dynamic_slice %102#10, %155, sizes = [1] : (tensor<401xi32>, tensor<i32>) -> tensor<1xi32> loc(#loc1060)
    %157 = stablehlo.reshape %156 : (tensor<1xi32>) -> tensor<i32> loc(#loc1061)
    %158 = stablehlo.compare LT, %102#13, %c_11, SIGNED : (tensor<i32>, tensor<i32>) -> tensor<i1> loc(#loc1057)
    %159 = stablehlo.add %102#13, %c_10 : tensor<i32> loc(#loc1058)
    %160 = stablehlo.select %158, %159, %102#13 : tensor<i1>, tensor<i32> loc(#loc1059)
    %161 = stablehlo.compare LT, %c_11, %c_11, SIGNED : (tensor<i32>, tensor<i32>) -> tensor<i1> loc(#loc1057)
    %162 = stablehlo.add %c_11, %c_9 : tensor<i32> loc(#loc1058)
    %163 = stablehlo.select %161, %162, %c_11 : tensor<i1>, tensor<i32> loc(#loc1059)
    %164 = stablehlo.dynamic_slice %102#11, %160, %163, sizes = [1, 9] : (tensor<401x9xi32>, tensor<i32>, tensor<i32>) -> tensor<1x9xi32> loc(#loc1060)
    %165 = stablehlo.reshape %164 : (tensor<1x9xi32>) -> tensor<9xi32> loc(#loc1061)
    %166 = stablehlo.compare LT, %102#13, %c_11, SIGNED : (tensor<i32>, tensor<i32>) -> tensor<i1> loc(#loc1057)
    %167 = stablehlo.add %102#13, %c_10 : tensor<i32> loc(#loc1058)
    %168 = stablehlo.select %166, %167, %102#13 : tensor<i1>, tensor<i32> loc(#loc1059)
    %169 = stablehlo.dynamic_slice %102#12, %168, sizes = [1] : (tensor<401xi32>, tensor<i32>) -> tensor<1xi32> loc(#loc1060)
    %170 = stablehlo.reshape %169 : (tensor<1xi32>) -> tensor<i32> loc(#loc1061)
    %171:16 = stablehlo.while(%iterArg = %arg9, %iterArg_13 = %arg10, %iterArg_14 = %arg6, %iterArg_15 = %arg11, %iterArg_16 = %arg12, %iterArg_17 = %5, %iterArg_18 = %107, %iterArg_19 = %121, %iterArg_20 = %129, %iterArg_21 = %134, %iterArg_22 = %139, %iterArg_23 = %147, %iterArg_24 = %152, %iterArg_25 = %157, %iterArg_26 = %165, %iterArg_27 = %170) : tensor<8x3xi32>, tensor<2xf32>, tensor<i1>, tensor<2xi32>, tensor<2xi32>, tensor<2xui32>, tensor<i32>, tensor<3x3x2xi1>, tensor<2xf32>, tensor<i1>, tensor<i1>, tensor<9xi1>, tensor<i32>, tensor<i32>, tensor<9xi32>, tensor<i32>
    cond {
      %228 = stablehlo.or %iterArg_21, %iterArg_22 : tensor<i1> loc(#loc836)
      %229 = stablehlo.not %228 : tensor<i1> loc(#loc837)
      stablehlo.return %229 : tensor<i1> loc(#loc606)
    } do {
      %228 = func.call @_threefry_split(%iterArg_17) : (tensor<2xui32>) -> tensor<2x2xui32> loc(#loc838)
      %229 = stablehlo.slice %228 [0:1, 0:2] : (tensor<2x2xui32>) -> tensor<1x2xui32> loc(#loc839)
      %230 = stablehlo.reshape %229 : (tensor<1x2xui32>) -> tensor<2xui32> loc(#loc840)
      %231 = stablehlo.slice %228 [1:2, 0:2] : (tensor<2x2xui32>) -> tensor<1x2xui32> loc(#loc839)
      %232 = stablehlo.reshape %231 : (tensor<1x2xui32>) -> tensor<2xui32> loc(#loc840)
      %233 = stablehlo.convert %iterArg_23 : (tensor<9xi1>) -> tensor<9xi32> loc(#loc841)
      %234 = stablehlo.reduce(%233 init: %c_11) applies stablehlo.add across dimensions = [0] : (tensor<9xi32>, tensor<i32>) -> tensor<i32> loc(#loc842)
      %235 = stablehlo.convert %iterArg_23 : (tensor<9xi1>) -> tensor<9xf32> loc(#loc843)
      %236 = stablehlo.convert %234 : (tensor<i32>) -> tensor<f32> loc(#loc843)
      %237 = stablehlo.broadcast_in_dim %236, dims = [] : (tensor<f32>) -> tensor<9xf32> loc(#loc844)
      %238 = stablehlo.divide %235, %237 : tensor<9xf32> loc(#loc844)
      %239 = stablehlo.log %238 : tensor<9xf32> loc(#loc845)
      %240 = stablehlo.broadcast_in_dim %cst, dims = [] : (tensor<f32>) -> tensor<9xf32> loc(#loc846)
      %241 = stablehlo.maximum %239, %240 : tensor<9xf32> loc(#loc846)
      %242 = func.call @_gumbel(%232) : (tensor<2xui32>) -> tensor<9xf32> loc(#loc847)
      %243 = stablehlo.add %242, %241 : tensor<9xf32> loc(#loc848)
      %244 = func.call @argmax(%243) : (tensor<9xf32>) -> tensor<i32> loc(#loc849)
      %245 = stablehlo.compare LT, %244, %c_11, SIGNED : (tensor<i32>, tensor<i32>) -> tensor<i1> loc(#loc850)
      %246 = stablehlo.add %244, %c_9 : tensor<i32> loc(#loc851)
      %247 = stablehlo.select %245, %246, %244 : tensor<i1>, tensor<i32> loc(#loc852)
      %248 = stablehlo.dynamic_slice %iterArg_23, %247, sizes = [1] : (tensor<9xi1>, tensor<i32>) -> tensor<1xi1> loc(#loc853)
      %249 = stablehlo.reshape %248 : (tensor<1xi1>) -> tensor<i1> loc(#loc854)
      %250 = stablehlo.not %249 : tensor<i1> loc(#loc855)
      %251 = stablehlo.or %iterArg_21, %iterArg_22 : tensor<i1> loc(#loc856)
      %252 = stablehlo.convert %251 : (tensor<i1>) -> tensor<i32> loc(#loc857)
      %253:8 = "stablehlo.case"(%252) ({
        %272 = stablehlo.add %iterArg_24, %c_12 : tensor<i32> loc(#loc1062)
        %273 = stablehlo.add %iterArg_18, %c_12 : tensor<i32> loc(#loc1063)
        %274 = func.call @remainder(%273, %c_7) : (tensor<i32>, tensor<i32>) -> tensor<i32> loc(#loc1064)
        %275 = stablehlo.compare LT, %244, %c_11, SIGNED : (tensor<i32>, tensor<i32>) -> tensor<i1> loc(#loc1222)
        %276 = stablehlo.add %244, %c_9 : tensor<i32> loc(#loc1223)
        %277 = stablehlo.select %275, %276, %244 : tensor<i1>, tensor<i32> loc(#loc1224)
        %278 = stablehlo.broadcast_in_dim %277, dims = [] : (tensor<i32>) -> tensor<1xi32> loc(#loc1225)
        %279 = "stablehlo.scatter"(%iterArg_26, %278, %iterArg_25) <{indices_are_sorted = true, scatter_dimension_numbers = #stablehlo.scatter<inserted_window_dims = [0], scatter_dims_to_operand_dims = [0]>, unique_indices = true}> ({
        ^bb0(%arg31: tensor<i32> loc("scatter:"(#loc116)), %arg32: tensor<i32> loc("scatter:"(#loc116))):
          stablehlo.return %arg32 : tensor<i32> loc(#loc1226)
        }) : (tensor<9xi32>, tensor<1xi32>, tensor<i32>) -> tensor<9xi32> loc(#loc1226)
        %280 = stablehlo.broadcast_in_dim %c_11, dims = [] : (tensor<i32>) -> tensor<8x3xi32> loc(#loc1227)
        %281 = stablehlo.compare LT, %iterArg, %280, SIGNED : (tensor<8x3xi32>, tensor<8x3xi32>) -> tensor<8x3xi1> loc(#loc1227)
        %282 = stablehlo.broadcast_in_dim %c_9, dims = [] : (tensor<i32>) -> tensor<8x3xi32> loc(#loc1228)
        %283 = stablehlo.add %iterArg, %282 : tensor<8x3xi32> loc(#loc1228)
        %284 = stablehlo.select %281, %283, %iterArg : tensor<8x3xi1>, tensor<8x3xi32> loc(#loc1229)
        %285 = stablehlo.broadcast_in_dim %284, dims = [0, 1] : (tensor<8x3xi32>) -> tensor<8x3x1xi32> loc(#loc1230)
        %286 = "stablehlo.gather"(%279, %285) <{dimension_numbers = #stablehlo.gather<collapsed_slice_dims = [0], start_index_map = [0], index_vector_dim = 2>, slice_sizes = array<i64: 1>}> : (tensor<9xi32>, tensor<8x3x1xi32>) -> tensor<8x3xi32> loc(#loc1231)
        %287 = stablehlo.broadcast_in_dim %iterArg_25, dims = [] : (tensor<i32>) -> tensor<8x3xi32> loc(#loc1232)
        %288 = stablehlo.compare EQ, %286, %287, SIGNED : (tensor<8x3xi32>, tensor<8x3xi32>) -> tensor<8x3xi1> loc(#loc1232)
        %289 = stablehlo.reduce(%288 init: %c) applies stablehlo.and across dimensions = [1] : (tensor<8x3xi1>, tensor<i1>) -> tensor<8xi1> loc(#loc1233)
        %290 = stablehlo.reduce(%289 init: %c_4) applies stablehlo.or across dimensions = [0] : (tensor<8xi1>, tensor<i1>) -> tensor<i1> loc(#loc1234)
        %291 = stablehlo.select %290, %iterArg_25, %c_6 : tensor<i1>, tensor<i32> loc(#loc1235)
        %292 = stablehlo.compare LT, %244, %c_11, SIGNED : (tensor<i32>, tensor<i32>) -> tensor<i1> loc(#loc1236)
        %293 = stablehlo.add %244, %c_9 : tensor<i32> loc(#loc1237)
        %294 = stablehlo.select %292, %293, %244 : tensor<i1>, tensor<i32> loc(#loc1238)
        %295 = stablehlo.broadcast_in_dim %294, dims = [] : (tensor<i32>) -> tensor<1xi32> loc(#loc1239)
        %296 = "stablehlo.scatter"(%iterArg_26, %295, %iterArg_25) <{indices_are_sorted = true, scatter_dimension_numbers = #stablehlo.scatter<inserted_window_dims = [0], scatter_dims_to_operand_dims = [0]>, unique_indices = true}> ({
        ^bb0(%arg31: tensor<i32> loc("scatter:"(#loc116)), %arg32: tensor<i32> loc("scatter:"(#loc116))):
          stablehlo.return %arg32 : tensor<i32> loc(#loc1240)
        }) : (tensor<9xi32>, tensor<1xi32>, tensor<i32>) -> tensor<9xi32> loc(#loc1240)
        %297 = stablehlo.add %iterArg_25, %c_12 : tensor<i32> loc(#loc1241)
        %298 = func.call @remainder(%297, %c_7) : (tensor<i32>, tensor<i32>) -> tensor<i32> loc(#loc1242)
        %299 = stablehlo.broadcast_in_dim %c_11, dims = [] : (tensor<i32>) -> tensor<9xi32> loc(#loc1243)
        %300 = stablehlo.compare LT, %296, %299, SIGNED : (tensor<9xi32>, tensor<9xi32>) -> tensor<9xi1> loc(#loc1243)
        %301 = stablehlo.compare GE, %291, %c_11, SIGNED : (tensor<i32>, tensor<i32>) -> tensor<i1> loc(#loc1244)
        %302 = stablehlo.broadcast_in_dim %c_6, dims = [] : (tensor<i32>) -> tensor<9xi32> loc(#loc1245)
        %303 = stablehlo.compare NE, %296, %302, SIGNED : (tensor<9xi32>, tensor<9xi32>) -> tensor<9xi1> loc(#loc1245)
        %304 = stablehlo.reduce(%303 init: %c) applies stablehlo.and across dimensions = [0] : (tensor<9xi1>, tensor<i1>) -> tensor<i1> loc(#loc1246)
        %305 = stablehlo.or %301, %304 : tensor<i1> loc(#loc1247)
        %306 = stablehlo.compare GE, %291, %c_11, SIGNED : (tensor<i32>, tensor<i32>) -> tensor<i1> loc(#loc1248)
        %307 = stablehlo.compare LT, %291, %c_11, SIGNED : (tensor<i32>, tensor<i32>) -> tensor<i1> loc(#loc1249)
        %308 = stablehlo.add %291, %c_7 : tensor<i32> loc(#loc1250)
        %309 = stablehlo.select %307, %308, %291 : tensor<i1>, tensor<i32> loc(#loc1251)
        %310 = stablehlo.broadcast_in_dim %309, dims = [] : (tensor<i32>) -> tensor<1xi32> loc(#loc1252)
        %311 = "stablehlo.scatter"(%iterArg_13, %310, %cst_5) <{indices_are_sorted = true, scatter_dimension_numbers = #stablehlo.scatter<inserted_window_dims = [0], scatter_dims_to_operand_dims = [0]>, unique_indices = true}> ({
        ^bb0(%arg31: tensor<f32> loc("scatter:"(#loc116)), %arg32: tensor<f32> loc("scatter:"(#loc116))):
          stablehlo.return %arg32 : tensor<f32> loc(#loc1253)
        }) : (tensor<2xf32>, tensor<1xi32>, tensor<f32>) -> tensor<2xf32> loc(#loc1253)
        %312 = stablehlo.broadcast_in_dim %cst_1, dims = [] : (tensor<f32>) -> tensor<2xf32> loc(#loc1254)
        %313 = stablehlo.select %306, %311, %312 : tensor<i1>, tensor<2xf32> loc(#loc1255)
        %314 = stablehlo.compare NE, %274, %298, SIGNED : (tensor<i32>, tensor<i32>) -> tensor<i1> loc(#loc1083)
        %315 = func.call @_flip(%313) : (tensor<2xf32>) -> tensor<2xf32> loc(#loc1084)
        %316 = stablehlo.select %314, %315, %313 : tensor<i1>, tensor<2xf32> loc(#loc1085)
        %317 = stablehlo.broadcast_in_dim %cst_1, dims = [] : (tensor<f32>) -> tensor<2xf32> loc(#loc1086)
        %318 = stablehlo.select %305, %316, %317 : tensor<i1>, tensor<2xf32> loc(#loc1087)
        stablehlo.return %274, %318, %305, %300, %272, %298, %296, %291 : tensor<i32>, tensor<2xf32>, tensor<i1>, tensor<9xi1>, tensor<i32>, tensor<i32>, tensor<9xi32>, tensor<i32> loc(#loc858)
      }, {
        %272 = stablehlo.broadcast_in_dim %cst_1, dims = [] : (tensor<f32>) -> tensor<2xf32> loc(#loc1088)
        stablehlo.return %iterArg_18, %272, %iterArg_21, %iterArg_23, %iterArg_24, %iterArg_25, %iterArg_26, %iterArg_27 : tensor<i32>, tensor<2xf32>, tensor<i1>, tensor<9xi1>, tensor<i32>, tensor<i32>, tensor<9xi32>, tensor<i32> loc(#loc858)
      }) : (tensor<i32>) -> (tensor<i32>, tensor<2xf32>, tensor<i1>, tensor<9xi1>, tensor<i32>, tensor<i32>, tensor<9xi32>, tensor<i32>) loc(#loc858)
      %254 = stablehlo.convert %250 : (tensor<i1>) -> tensor<i32> loc(#loc886)
      %255:2 = "stablehlo.case"(%254) ({
        stablehlo.return %253#1, %253#2 : tensor<2xf32>, tensor<i1> loc(#loc887)
      }, {
        %272 = stablehlo.broadcast_in_dim %cst_5, dims = [] : (tensor<f32>) -> tensor<2xf32> loc(#loc1089)
        %273 = stablehlo.broadcast_in_dim %cst_5, dims = [] : (tensor<f32>) -> tensor<2xf32> loc(#loc1090)
        %274 = stablehlo.multiply %272, %273 : tensor<2xf32> loc(#loc1090)
        %275 = stablehlo.broadcast_in_dim %cst_5, dims = [] : (tensor<f32>) -> tensor<2xf32> loc(#loc1091)
        %276 = stablehlo.multiply %274, %275 : tensor<2xf32> loc(#loc1091)
        %277 = stablehlo.compare LT, %iterArg_18, %c_11, SIGNED : (tensor<i32>, tensor<i32>) -> tensor<i1> loc(#loc1092)
        %278 = stablehlo.add %iterArg_18, %c_7 : tensor<i32> loc(#loc1093)
        %279 = stablehlo.select %277, %278, %iterArg_18 : tensor<i1>, tensor<i32> loc(#loc1094)
        %280 = stablehlo.broadcast_in_dim %279, dims = [] : (tensor<i32>) -> tensor<1xi32> loc(#loc1095)
        %281 = "stablehlo.scatter"(%276, %280, %cst_0) <{indices_are_sorted = true, scatter_dimension_numbers = #stablehlo.scatter<inserted_window_dims = [0], scatter_dims_to_operand_dims = [0]>, unique_indices = true}> ({
        ^bb0(%arg31: tensor<f32> loc("scatter:"(#loc116)), %arg32: tensor<f32> loc("scatter:"(#loc116))):
          stablehlo.return %arg32 : tensor<f32> loc(#loc1096)
        }) : (tensor<2xf32>, tensor<1xi32>, tensor<f32>) -> tensor<2xf32> loc(#loc1096)
        stablehlo.return %281, %iterArg_14 : tensor<2xf32>, tensor<i1> loc(#loc887)
      }) : (tensor<i32>) -> (tensor<2xf32>, tensor<i1>) loc(#loc887)
      %256 = stablehlo.convert %255#1 : (tensor<i1>) -> tensor<i32> loc(#loc892)
      %257 = "stablehlo.case"(%256) ({
        stablehlo.return %253#3 : tensor<9xi1> loc(#loc893)
      }, {
        %272 = stablehlo.broadcast_in_dim %c, dims = [] : (tensor<i1>) -> tensor<9xi1> loc(#loc1097)
        stablehlo.return %272 : tensor<9xi1> loc(#loc893)
      }) : (tensor<i32>) -> tensor<9xi1> loc(#loc893)
      %258 = stablehlo.compare EQ, %253#0, %253#0, SIGNED : (tensor<i32>, tensor<i32>) -> tensor<i1> loc(#loc1256)
      %259 = stablehlo.subtract %c_12, %253#5 : tensor<i32> loc(#loc1257)
      %260 = stablehlo.select %258, %253#5, %259 : tensor<i1>, tensor<i32> loc(#loc1258)
      %261 = stablehlo.compare EQ, %260, %c_11, SIGNED : (tensor<i32>, tensor<i32>) -> tensor<i1> loc(#loc1280)
      %262 = stablehlo.select %261, %iterArg_15, %iterArg_16 : tensor<i1>, tensor<2xi32> loc(#loc1281)
      %263 = stablehlo.broadcast_in_dim %253#6, dims = [1] : (tensor<9xi32>) -> tensor<1x9xi32> loc(#loc1300)
      %264 = stablehlo.broadcast_in_dim %262, dims = [0] : (tensor<2xi32>) -> tensor<2x1xi32> loc(#loc1300)
      %265 = stablehlo.broadcast_in_dim %263, dims = [0, 1] : (tensor<1x9xi32>) -> tensor<2x9xi32> loc(#loc1301)
      %266 = stablehlo.broadcast_in_dim %264, dims = [0, 1] : (tensor<2x1xi32>) -> tensor<2x9xi32> loc(#loc1301)
      %267 = stablehlo.compare EQ, %265, %266, SIGNED : (tensor<2x9xi32>, tensor<2x9xi32>) -> tensor<2x9xi1> loc(#loc1301)
      %268 = stablehlo.reshape %267 : (tensor<2x9xi1>) -> tensor<2x3x3xi1> loc(#loc1302)
      %269 = stablehlo.broadcast_in_dim %268, dims = [0, 1, 2] : (tensor<2x3x3xi1>) -> tensor<2x3x3x1xi1> loc(#loc1284)
      %270 = stablehlo.transpose %269, dims = [1, 2, 0, 3] : (tensor<2x3x3x1xi1>) -> tensor<3x3x2x1xi1> loc(#loc1285)
      %271 = stablehlo.reshape %270 : (tensor<3x3x2x1xi1>) -> tensor<3x3x2xi1> loc(#loc1285)
      stablehlo.return %iterArg, %iterArg_13, %iterArg_14, %iterArg_15, %iterArg_16, %230, %253#0, %271, %255#0, %255#1, %iterArg_22, %257, %253#4, %253#5, %253#6, %253#7 : tensor<8x3xi32>, tensor<2xf32>, tensor<i1>, tensor<2xi32>, tensor<2xi32>, tensor<2xui32>, tensor<i32>, tensor<3x3x2xi1>, tensor<2xf32>, tensor<i1>, tensor<i1>, tensor<9xi1>, tensor<i32>, tensor<i32>, tensor<9xi32>, tensor<i32> loc(#loc606)
    } loc(#loc606)
    %172 = stablehlo.compare LT, %102#13, %c_11, SIGNED : (tensor<i32>, tensor<i32>) -> tensor<i1> loc(#loc899)
    %173 = stablehlo.add %102#13, %c_10 : tensor<i32> loc(#loc900)
    %174 = stablehlo.select %172, %173, %102#13 : tensor<i1>, tensor<i32> loc(#loc901)
    %175 = stablehlo.broadcast_in_dim %174, dims = [] : (tensor<i32>) -> tensor<1xi32> loc(#loc902)
    %176 = "stablehlo.scatter"(%arg18, %175, %171#8) <{indices_are_sorted = true, scatter_dimension_numbers = #stablehlo.scatter<update_window_dims = [0], inserted_window_dims = [0], scatter_dims_to_operand_dims = [0]>, unique_indices = true}> ({
    ^bb0(%arg31: tensor<f32> loc("scatter:"(#loc116)), %arg32: tensor<f32> loc("scatter:"(#loc116))):
      stablehlo.return %arg32 : tensor<f32> loc(#loc903)
    }) : (tensor<401x2xf32>, tensor<1xi32>, tensor<2xf32>) -> tensor<401x2xf32> loc(#loc903)
    %177 = stablehlo.compare LT, %102#13, %c_11, SIGNED : (tensor<i32>, tensor<i32>) -> tensor<i1> loc(#loc638)
    %178 = stablehlo.add %102#13, %c_10 : tensor<i32> loc(#loc639)
    %179 = stablehlo.select %177, %178, %102#13 : tensor<i1>, tensor<i32> loc(#loc640)
    %180 = stablehlo.compare LT, %c_11, %c_11, SIGNED : (tensor<i32>, tensor<i32>) -> tensor<i1> loc(#loc638)
    %181 = stablehlo.add %c_11, %c_7 : tensor<i32> loc(#loc639)
    %182 = stablehlo.select %180, %181, %c_11 : tensor<i1>, tensor<i32> loc(#loc640)
    %183 = stablehlo.dynamic_slice %arg29, %179, %182, sizes = [1, 2] : (tensor<401x2xf32>, tensor<i32>, tensor<i32>) -> tensor<1x2xf32> loc(#loc641)
    %184 = stablehlo.reshape %183 : (tensor<1x2xf32>) -> tensor<2xf32> loc(#loc642)
    %185 = stablehlo.compare LT, %102#13, %c_11, SIGNED : (tensor<i32>, tensor<i32>) -> tensor<i1> loc(#loc643)
    %186 = stablehlo.add %102#13, %c_10 : tensor<i32> loc(#loc644)
    %187 = stablehlo.select %185, %186, %102#13 : tensor<i1>, tensor<i32> loc(#loc645)
    %188 = stablehlo.compare LT, %c_11, %c_11, SIGNED : (tensor<i32>, tensor<i32>) -> tensor<i1> loc(#loc643)
    %189 = stablehlo.add %c_11, %c_7 : tensor<i32> loc(#loc644)
    %190 = stablehlo.select %188, %189, %c_11 : tensor<i1>, tensor<i32> loc(#loc645)
    %191 = stablehlo.dynamic_slice %arg29, %187, %190, sizes = [1, 2] : (tensor<401x2xf32>, tensor<i32>, tensor<i32>) -> tensor<1x2xf32> loc(#loc646)
    %192 = stablehlo.reshape %191 : (tensor<1x2xf32>) -> tensor<2xf32> loc(#loc647)
    %193 = stablehlo.subtract %171#8, %192 : tensor<2xf32> loc(#loc648)
    %194 = stablehlo.compare LT, %102#13, %c_11, SIGNED : (tensor<i32>, tensor<i32>) -> tensor<i1> loc(#loc649)
    %195 = stablehlo.add %102#13, %c_10 : tensor<i32> loc(#loc650)
    %196 = stablehlo.select %194, %195, %102#13 : tensor<i1>, tensor<i32> loc(#loc651)
    %197 = stablehlo.dynamic_slice %arg30, %196, sizes = [1] : (tensor<401xf32>, tensor<i32>) -> tensor<1xf32> loc(#loc652)
    %198 = stablehlo.reshape %197 : (tensor<1xf32>) -> tensor<f32> loc(#loc653)
    %199 = stablehlo.add %198, %cst_5 : tensor<f32> loc(#loc654)
    %200 = stablehlo.broadcast_in_dim %199, dims = [] : (tensor<f32>) -> tensor<2xf32> loc(#loc655)
    %201 = stablehlo.divide %193, %200 : tensor<2xf32> loc(#loc655)
    %202 = stablehlo.add %184, %201 : tensor<2xf32> loc(#loc656)
    %203 = stablehlo.compare LT, %102#13, %c_11, SIGNED : (tensor<i32>, tensor<i32>) -> tensor<i1> loc(#loc904)
    %204 = stablehlo.add %102#13, %c_10 : tensor<i32> loc(#loc905)
    %205 = stablehlo.select %203, %204, %102#13 : tensor<i1>, tensor<i32> loc(#loc906)
    %206 = stablehlo.broadcast_in_dim %205, dims = [] : (tensor<i32>) -> tensor<1xi32> loc(#loc907)
    %207 = "stablehlo.scatter"(%arg29, %206, %202) <{indices_are_sorted = true, scatter_dimension_numbers = #stablehlo.scatter<update_window_dims = [0], inserted_window_dims = [0], scatter_dims_to_operand_dims = [0]>, unique_indices = true}> ({
    ^bb0(%arg31: tensor<f32> loc("scatter:"(#loc116)), %arg32: tensor<f32> loc("scatter:"(#loc116))):
      stablehlo.return %arg32 : tensor<f32> loc(#loc908)
    }) : (tensor<401x2xf32>, tensor<1xi32>, tensor<2xf32>) -> tensor<401x2xf32> loc(#loc908)
    %208 = stablehlo.compare LT, %102#13, %c_11, SIGNED : (tensor<i32>, tensor<i32>) -> tensor<i1> loc(#loc658)
    %209 = stablehlo.add %102#13, %c_10 : tensor<i32> loc(#loc659)
    %210 = stablehlo.select %208, %209, %102#13 : tensor<i1>, tensor<i32> loc(#loc660)
    %211 = stablehlo.dynamic_slice %arg30, %210, sizes = [1] : (tensor<401xf32>, tensor<i32>) -> tensor<1xf32> loc(#loc661)
    %212 = stablehlo.reshape %211 : (tensor<1xf32>) -> tensor<f32> loc(#loc662)
    %213 = stablehlo.add %212, %cst_5 : tensor<f32> loc(#loc663)
    %214 = stablehlo.compare LT, %102#13, %c_11, SIGNED : (tensor<i32>, tensor<i32>) -> tensor<i1> loc(#loc909)
    %215 = stablehlo.add %102#13, %c_10 : tensor<i32> loc(#loc910)
    %216 = stablehlo.select %214, %215, %102#13 : tensor<i1>, tensor<i32> loc(#loc911)
    %217 = stablehlo.broadcast_in_dim %216, dims = [] : (tensor<i32>) -> tensor<1xi32> loc(#loc912)
    %218 = "stablehlo.scatter"(%arg30, %217, %213) <{indices_are_sorted = true, scatter_dimension_numbers = #stablehlo.scatter<inserted_window_dims = [0], scatter_dims_to_operand_dims = [0]>, unique_indices = true}> ({
    ^bb0(%arg31: tensor<f32> loc("scatter:"(#loc116)), %arg32: tensor<f32> loc("scatter:"(#loc116))):
      stablehlo.return %arg32 : tensor<f32> loc(#loc913)
    }) : (tensor<401xf32>, tensor<1xi32>, tensor<f32>) -> tensor<401xf32> loc(#loc913)
    %219 = stablehlo.compare LT, %102#13, %c_11, SIGNED : (tensor<i32>, tensor<i32>) -> tensor<i1> loc(#loc665)
    %220 = stablehlo.add %102#13, %c_10 : tensor<i32> loc(#loc666)
    %221 = stablehlo.select %219, %220, %102#13 : tensor<i1>, tensor<i32> loc(#loc667)
    %222 = stablehlo.compare LT, %c_11, %c_11, SIGNED : (tensor<i32>, tensor<i32>) -> tensor<i1> loc(#loc665)
    %223 = stablehlo.add %c_11, %c_7 : tensor<i32> loc(#loc666)
    %224 = stablehlo.select %222, %223, %c_11 : tensor<i1>, tensor<i32> loc(#loc667)
    %225 = stablehlo.dynamic_slice %176, %221, %224, sizes = [1, 2] : (tensor<401x2xf32>, tensor<i32>, tensor<i32>) -> tensor<1x2xf32> loc(#loc668)
    %226 = stablehlo.reshape %225 : (tensor<1x2xf32>) -> tensor<2xf32> loc(#loc669)
    %227:19 = stablehlo.while(%iterArg = %arg0, %iterArg_13 = %102#0, %iterArg_14 = %102#1, %iterArg_15 = %102#2, %iterArg_16 = %176, %iterArg_17 = %102#3, %iterArg_18 = %102#4, %iterArg_19 = %102#5, %iterArg_20 = %102#6, %iterArg_21 = %102#7, %iterArg_22 = %102#8, %iterArg_23 = %102#9, %iterArg_24 = %102#10, %iterArg_25 = %102#11, %iterArg_26 = %102#12, %iterArg_27 = %226, %iterArg_28 = %207, %iterArg_29 = %218, %iterArg_30 = %102#13) : tensor<i32>, tensor<401xi32>, tensor<401x9xi32>, tensor<401xi32>, tensor<401x2xf32>, tensor<401xi32>, tensor<401x3x3x2xi1>, tensor<401x2xf32>, tensor<401xi1>, tensor<401xi1>, tensor<401x9xi1>, tensor<401xi32>, tensor<401xi32>, tensor<401x9xi32>, tensor<401xi32>, tensor<2xf32>, tensor<401x2xf32>, tensor<401xf32>, tensor<i32>
    cond {
      %228 = stablehlo.compare NE, %iterArg_30, %iterArg, SIGNED : (tensor<i32>, tensor<i32>) -> tensor<i1> loc(#loc914)
      stablehlo.return %228 : tensor<i1> loc(#loc670)
    } do {
      %228 = stablehlo.compare LT, %iterArg_30, %c_11, SIGNED : (tensor<i32>, tensor<i32>) -> tensor<i1> loc(#loc915)
      %229 = stablehlo.add %iterArg_30, %c_10 : tensor<i32> loc(#loc916)
      %230 = stablehlo.select %228, %229, %iterArg_30 : tensor<i1>, tensor<i32> loc(#loc917)
      %231 = stablehlo.dynamic_slice %iterArg_15, %230, sizes = [1] : (tensor<401xi32>, tensor<i32>) -> tensor<1xi32> loc(#loc918)
      %232 = stablehlo.reshape %231 : (tensor<1xi32>) -> tensor<i32> loc(#loc919)
      %233 = stablehlo.compare LT, %232, %c_11, SIGNED : (tensor<i32>, tensor<i32>) -> tensor<i1> loc(#loc920)
      %234 = stablehlo.convert %232 : tensor<i32> loc(#loc921)
      %235 = stablehlo.add %234, %c_10 : tensor<i32> loc(#loc922)
      %236 = stablehlo.select %233, %235, %232 : tensor<i1>, tensor<i32> loc(#loc923)
      %237 = stablehlo.dynamic_slice %iterArg_29, %236, sizes = [1] : (tensor<401xf32>, tensor<i32>) -> tensor<1xf32> loc(#loc924)
      %238 = stablehlo.reshape %237 : (tensor<1xf32>) -> tensor<f32> loc(#loc925)
      %239 = stablehlo.convert %232 : tensor<i32> loc(#loc926)
      %240 = stablehlo.compare LT, %239, %c_11, SIGNED : (tensor<i32>, tensor<i32>) -> tensor<i1> loc(#loc927)
      %241 = stablehlo.add %239, %c_10 : tensor<i32> loc(#loc928)
      %242 = stablehlo.select %240, %241, %239 : tensor<i1>, tensor<i32> loc(#loc929)
      %243 = stablehlo.compare LT, %c_11, %c_11, SIGNED : (tensor<i32>, tensor<i32>) -> tensor<i1> loc(#loc927)
      %244 = stablehlo.add %c_11, %c_7 : tensor<i32> loc(#loc928)
      %245 = stablehlo.select %243, %244, %c_11 : tensor<i1>, tensor<i32> loc(#loc929)
      %246 = stablehlo.dynamic_slice %iterArg_28, %242, %245, sizes = [1, 2] : (tensor<401x2xf32>, tensor<i32>, tensor<i32>) -> tensor<1x2xf32> loc(#loc930)
      %247 = stablehlo.reshape %246 : (tensor<1x2xf32>) -> tensor<2xf32> loc(#loc931)
      %248 = stablehlo.convert %232 : tensor<i32> loc(#loc932)
      %249 = stablehlo.compare LT, %248, %c_11, SIGNED : (tensor<i32>, tensor<i32>) -> tensor<i1> loc(#loc933)
      %250 = stablehlo.add %248, %c_10 : tensor<i32> loc(#loc934)
      %251 = stablehlo.select %249, %250, %248 : tensor<i1>, tensor<i32> loc(#loc935)
      %252 = stablehlo.compare LT, %c_11, %c_11, SIGNED : (tensor<i32>, tensor<i32>) -> tensor<i1> loc(#loc933)
      %253 = stablehlo.add %c_11, %c_7 : tensor<i32> loc(#loc934)
      %254 = stablehlo.select %252, %253, %c_11 : tensor<i1>, tensor<i32> loc(#loc935)
      %255 = stablehlo.dynamic_slice %iterArg_28, %251, %254, sizes = [1, 2] : (tensor<401x2xf32>, tensor<i32>, tensor<i32>) -> tensor<1x2xf32> loc(#loc936)
      %256 = stablehlo.reshape %255 : (tensor<1x2xf32>) -> tensor<2xf32> loc(#loc937)
      %257 = stablehlo.subtract %iterArg_27, %256 : tensor<2xf32> loc(#loc938)
      %258 = stablehlo.add %238, %cst_5 : tensor<f32> loc(#loc939)
      %259 = stablehlo.broadcast_in_dim %258, dims = [] : (tensor<f32>) -> tensor<2xf32> loc(#loc940)
      %260 = stablehlo.divide %257, %259 : tensor<2xf32> loc(#loc940)
      %261 = stablehlo.add %247, %260 : tensor<2xf32> loc(#loc941)
      %262 = stablehlo.compare LT, %232, %c_11, SIGNED : (tensor<i32>, tensor<i32>) -> tensor<i1> loc(#loc942)
      %263 = stablehlo.add %232, %c_10 : tensor<i32> loc(#loc943)
      %264 = stablehlo.select %262, %263, %232 : tensor<i1>, tensor<i32> loc(#loc944)
      %265 = stablehlo.convert %264 : tensor<i32> loc(#loc945)
      %266 = stablehlo.broadcast_in_dim %265, dims = [] : (tensor<i32>) -> tensor<1xi32> loc(#loc946)
      %267 = "stablehlo.scatter"(%iterArg_28, %266, %261) <{indices_are_sorted = true, scatter_dimension_numbers = #stablehlo.scatter<update_window_dims = [0], inserted_window_dims = [0], scatter_dims_to_operand_dims = [0]>, unique_indices = true}> ({
      ^bb0(%arg31: tensor<f32> loc("scatter:"(#loc116)), %arg32: tensor<f32> loc("scatter:"(#loc116))):
        stablehlo.return %arg32 : tensor<f32> loc(#loc947)
      }) : (tensor<401x2xf32>, tensor<1xi32>, tensor<2xf32>) -> tensor<401x2xf32> loc(#loc947)
      %268 = stablehlo.add %238, %cst_5 : tensor<f32> loc(#loc948)
      %269 = stablehlo.compare LT, %232, %c_11, SIGNED : (tensor<i32>, tensor<i32>) -> tensor<i1> loc(#loc949)
      %270 = stablehlo.add %232, %c_10 : tensor<i32> loc(#loc950)
      %271 = stablehlo.select %269, %270, %232 : tensor<i1>, tensor<i32> loc(#loc951)
      %272 = stablehlo.convert %271 : tensor<i32> loc(#loc952)
      %273 = stablehlo.broadcast_in_dim %272, dims = [] : (tensor<i32>) -> tensor<1xi32> loc(#loc953)
      %274 = "stablehlo.scatter"(%iterArg_29, %273, %268) <{indices_are_sorted = true, scatter_dimension_numbers = #stablehlo.scatter<inserted_window_dims = [0], scatter_dims_to_operand_dims = [0]>, unique_indices = true}> ({
      ^bb0(%arg31: tensor<f32> loc("scatter:"(#loc116)), %arg32: tensor<f32> loc("scatter:"(#loc116))):
        stablehlo.return %arg32 : tensor<f32> loc(#loc954)
      }) : (tensor<401xf32>, tensor<1xi32>, tensor<f32>) -> tensor<401xf32> loc(#loc954)
      stablehlo.return %iterArg, %iterArg_13, %iterArg_14, %iterArg_15, %iterArg_16, %iterArg_17, %iterArg_18, %iterArg_19, %iterArg_20, %iterArg_21, %iterArg_22, %iterArg_23, %iterArg_24, %iterArg_25, %iterArg_26, %iterArg_27, %267, %274, %232 : tensor<i32>, tensor<401xi32>, tensor<401x9xi32>, tensor<401xi32>, tensor<401x2xf32>, tensor<401xi32>, tensor<401x3x3x2xi1>, tensor<401x2xf32>, tensor<401xi1>, tensor<401xi1>, tensor<401x9xi1>, tensor<401xi32>, tensor<401xi32>, tensor<401x9xi32>, tensor<401xi32>, tensor<2xf32>, tensor<401x2xf32>, tensor<401xf32>, tensor<i32> loc(#loc670)
    } loc(#loc670)
    return %0, %3, %102#0, %102#1, %102#2, %176, %102#3, %102#4, %102#5, %102#6, %102#7, %102#8, %102#9, %102#10, %102#11, %102#12, %227#16, %227#17 : tensor<i32>, tensor<2xui32>, tensor<401xi32>, tensor<401x9xi32>, tensor<401xi32>, tensor<401x2xf32>, tensor<401xi32>, tensor<401x3x3x2xi1>, tensor<401x2xf32>, tensor<401xi1>, tensor<401xi1>, tensor<401x9xi1>, tensor<401xi32>, tensor<401xi32>, tensor<401x9xi32>, tensor<401xi32>, tensor<401x2xf32>, tensor<401xf32> loc(#loc)
  } loc(#loc704)
  func.func private @_threefry_split(%arg0: tensor<2xui32> loc(unknown)) -> tensor<2x2xui32> {
    %c = stablehlo.constant dense<32> : tensor<ui64> loc(#loc505)
    %c_0 = stablehlo.constant dense<1> : tensor<ui64> loc(#loc505)
    %0 = stablehlo.slice %arg0 [0:1] : (tensor<2xui32>) -> tensor<1xui32> loc(#loc506)
    %1 = stablehlo.reshape %0 : (tensor<1xui32>) -> tensor<ui32> loc(#loc507)
    %2 = stablehlo.slice %arg0 [1:2] : (tensor<2xui32>) -> tensor<1xui32> loc(#loc506)
    %3 = stablehlo.reshape %2 : (tensor<1xui32>) -> tensor<ui32> loc(#loc507)
    %4 = stablehlo.iota dim = 0 : tensor<2xui64> loc(#loc505)
    %5 = stablehlo.broadcast_in_dim %c_0, dims = [] : (tensor<ui64>) -> tensor<2xui64> loc(#loc505)
    %6 = stablehlo.multiply %5, %4 : tensor<2xui64> loc(#loc505)
    %7 = stablehlo.broadcast_in_dim %c, dims = [] : (tensor<ui64>) -> tensor<2xui64> loc(#loc505)
    %8 = stablehlo.shift_right_logical %6, %7 : tensor<2xui64> loc(#loc505)
    %9 = stablehlo.convert %6 : (tensor<2xui64>) -> tensor<2xui32> loc(#loc505)
    %10 = stablehlo.convert %8 : (tensor<2xui64>) -> tensor<2xui32> loc(#loc505)
    %11:2 = call @threefry2x32_1(%1, %3, %10, %9) : (tensor<ui32>, tensor<ui32>, tensor<2xui32>, tensor<2xui32>) -> (tensor<2xui32>, tensor<2xui32>) loc(#loc259)
    %12 = stablehlo.broadcast_in_dim %11#0, dims = [0] : (tensor<2xui32>) -> tensor<2x1xui32> loc(#loc508)
    %13 = stablehlo.broadcast_in_dim %11#1, dims = [0] : (tensor<2xui32>) -> tensor<2x1xui32> loc(#loc508)
    %14 = stablehlo.concatenate %12, %13, dim = 1 : (tensor<2x1xui32>, tensor<2x1xui32>) -> tensor<2x2xui32> loc(#loc508)
    return %14 : tensor<2x2xui32> loc(#loc)
  } loc(#loc683)
  func.func private @threefry2x32_1(%arg0: tensor<ui32> loc("search.<locals>.body_fun"(#loc67)), %arg1: tensor<ui32> loc("search.<locals>.body_fun"(#loc67)), %arg2: tensor<2xui32> loc("search.<locals>.body_fun"(#loc67)), %arg3: tensor<2xui32> loc("search.<locals>.body_fun"(#loc67))) -> (tensor<2xui32>, tensor<2xui32>) {
    %c = stablehlo.constant dense<1> : tensor<i32> loc(#loc)
    %c_0 = stablehlo.constant dense<5> : tensor<i32> loc(#loc)
    %c_1 = stablehlo.constant dense<0> : tensor<i32> loc(#loc)
    %c_2 = stablehlo.constant dense<466688986> : tensor<ui32> loc(#loc257)
    %c_3 = stablehlo.constant dense<[13, 15, 26, 6]> : tensor<4xui32> loc(#loc257)
    %c_4 = stablehlo.constant dense<[17, 29, 16, 24]> : tensor<4xui32> loc(#loc257)
    %0 = stablehlo.xor %arg0, %arg1 : tensor<ui32> loc(#loc509)
    %1 = stablehlo.xor %0, %c_2 : tensor<ui32> loc(#loc509)
    %2 = stablehlo.broadcast_in_dim %arg0, dims = [] : (tensor<ui32>) -> tensor<2xui32> loc(#loc510)
    %3 = stablehlo.add %arg2, %2 : tensor<2xui32> loc(#loc510)
    %4 = stablehlo.broadcast_in_dim %arg1, dims = [] : (tensor<ui32>) -> tensor<2xui32> loc(#loc510)
    %5 = stablehlo.add %arg3, %4 : tensor<2xui32> loc(#loc510)
    %6:9 = stablehlo.while(%iterArg = %c_1, %iterArg_5 = %c_1, %iterArg_6 = %3, %iterArg_7 = %5, %iterArg_8 = %arg1, %iterArg_9 = %1, %iterArg_10 = %arg0, %iterArg_11 = %c_3, %iterArg_12 = %c_4) : tensor<i32>, tensor<i32>, tensor<2xui32>, tensor<2xui32>, tensor<ui32>, tensor<ui32>, tensor<ui32>, tensor<4xui32>, tensor<4xui32>
    cond {
      %7 = stablehlo.compare LT, %iterArg, %c_0, SIGNED : (tensor<i32>, tensor<i32>) -> tensor<i1> loc(#loc955)
      stablehlo.return %7 : tensor<i1> loc(#loc684)
    } do {
      %7:8 = func.call @closed_call_2(%iterArg_5, %iterArg_6, %iterArg_7, %iterArg_8, %iterArg_9, %iterArg_10, %iterArg_11, %iterArg_12) : (tensor<i32>, tensor<2xui32>, tensor<2xui32>, tensor<ui32>, tensor<ui32>, tensor<ui32>, tensor<4xui32>, tensor<4xui32>) -> (tensor<i32>, tensor<2xui32>, tensor<2xui32>, tensor<ui32>, tensor<ui32>, tensor<ui32>, tensor<4xui32>, tensor<4xui32>) loc(#loc956)
      %8 = stablehlo.add %iterArg, %c : tensor<i32> loc(#loc957)
      stablehlo.return %8, %7#0, %7#1, %7#2, %7#3, %7#4, %7#5, %7#6, %7#7 : tensor<i32>, tensor<i32>, tensor<2xui32>, tensor<2xui32>, tensor<ui32>, tensor<ui32>, tensor<ui32>, tensor<4xui32>, tensor<4xui32> loc(#loc684)
    } loc(#loc684)
    return %6#2, %6#3 : tensor<2xui32>, tensor<2xui32> loc(#loc259)
  } loc(#loc259)
  func.func private @closed_call_2(%arg0: tensor<i32> loc(unknown), %arg1: tensor<2xui32> loc(unknown), %arg2: tensor<2xui32> loc(unknown), %arg3: tensor<ui32> loc(unknown), %arg4: tensor<ui32> loc(unknown), %arg5: tensor<ui32> loc(unknown), %arg6: tensor<4xui32> loc(unknown), %arg7: tensor<4xui32> loc(unknown)) -> (tensor<i32>, tensor<2xui32>, tensor<2xui32>, tensor<ui32>, tensor<ui32>, tensor<ui32>, tensor<4xui32>, tensor<4xui32>) {
    %c = stablehlo.constant dense<32> : tensor<ui32> loc(#loc)
    %c_0 = stablehlo.constant dense<1> : tensor<i32> loc(#loc)
    %0 = stablehlo.add %arg0, %c_0 : tensor<i32> loc(#loc510)
    %1 = stablehlo.slice %arg6 [0:1] : (tensor<4xui32>) -> tensor<1xui32> loc(#loc506)
    %2 = stablehlo.reshape %1 : (tensor<1xui32>) -> tensor<ui32> loc(#loc507)
    %3 = stablehlo.add %arg1, %arg2 : tensor<2xui32> loc(#loc510)
    %4 = stablehlo.broadcast_in_dim %2, dims = [] : (tensor<ui32>) -> tensor<2xui32> loc(#loc512)
    %5 = stablehlo.shift_left %arg2, %4 : tensor<2xui32> loc(#loc512)
    %6 = stablehlo.subtract %c, %2 : tensor<ui32> loc(#loc513)
    %7 = stablehlo.broadcast_in_dim %6, dims = [] : (tensor<ui32>) -> tensor<2xui32> loc(#loc514)
    %8 = stablehlo.shift_right_logical %arg2, %7 : tensor<2xui32> loc(#loc514)
    %9 = stablehlo.or %5, %8 : tensor<2xui32> loc(#loc515)
    %10 = stablehlo.xor %3, %9 : tensor<2xui32> loc(#loc509)
    %11 = stablehlo.slice %arg6 [1:2] : (tensor<4xui32>) -> tensor<1xui32> loc(#loc506)
    %12 = stablehlo.reshape %11 : (tensor<1xui32>) -> tensor<ui32> loc(#loc507)
    %13 = stablehlo.add %3, %10 : tensor<2xui32> loc(#loc510)
    %14 = stablehlo.broadcast_in_dim %12, dims = [] : (tensor<ui32>) -> tensor<2xui32> loc(#loc512)
    %15 = stablehlo.shift_left %10, %14 : tensor<2xui32> loc(#loc512)
    %16 = stablehlo.subtract %c, %12 : tensor<ui32> loc(#loc513)
    %17 = stablehlo.broadcast_in_dim %16, dims = [] : (tensor<ui32>) -> tensor<2xui32> loc(#loc514)
    %18 = stablehlo.shift_right_logical %10, %17 : tensor<2xui32> loc(#loc514)
    %19 = stablehlo.or %15, %18 : tensor<2xui32> loc(#loc515)
    %20 = stablehlo.xor %13, %19 : tensor<2xui32> loc(#loc509)
    %21 = stablehlo.slice %arg6 [2:3] : (tensor<4xui32>) -> tensor<1xui32> loc(#loc506)
    %22 = stablehlo.reshape %21 : (tensor<1xui32>) -> tensor<ui32> loc(#loc507)
    %23 = stablehlo.add %13, %20 : tensor<2xui32> loc(#loc510)
    %24 = stablehlo.broadcast_in_dim %22, dims = [] : (tensor<ui32>) -> tensor<2xui32> loc(#loc512)
    %25 = stablehlo.shift_left %20, %24 : tensor<2xui32> loc(#loc512)
    %26 = stablehlo.subtract %c, %22 : tensor<ui32> loc(#loc513)
    %27 = stablehlo.broadcast_in_dim %26, dims = [] : (tensor<ui32>) -> tensor<2xui32> loc(#loc514)
    %28 = stablehlo.shift_right_logical %20, %27 : tensor<2xui32> loc(#loc514)
    %29 = stablehlo.or %25, %28 : tensor<2xui32> loc(#loc515)
    %30 = stablehlo.xor %23, %29 : tensor<2xui32> loc(#loc509)
    %31 = stablehlo.slice %arg6 [3:4] : (tensor<4xui32>) -> tensor<1xui32> loc(#loc506)
    %32 = stablehlo.reshape %31 : (tensor<1xui32>) -> tensor<ui32> loc(#loc507)
    %33 = stablehlo.add %23, %30 : tensor<2xui32> loc(#loc510)
    %34 = stablehlo.broadcast_in_dim %32, dims = [] : (tensor<ui32>) -> tensor<2xui32> loc(#loc512)
    %35 = stablehlo.shift_left %30, %34 : tensor<2xui32> loc(#loc512)
    %36 = stablehlo.subtract %c, %32 : tensor<ui32> loc(#loc513)
    %37 = stablehlo.broadcast_in_dim %36, dims = [] : (tensor<ui32>) -> tensor<2xui32> loc(#loc514)
    %38 = stablehlo.shift_right_logical %30, %37 : tensor<2xui32> loc(#loc514)
    %39 = stablehlo.or %35, %38 : tensor<2xui32> loc(#loc515)
    %40 = stablehlo.xor %33, %39 : tensor<2xui32> loc(#loc509)
    %41 = stablehlo.broadcast_in_dim %arg3, dims = [] : (tensor<ui32>) -> tensor<2xui32> loc(#loc510)
    %42 = stablehlo.add %33, %41 : tensor<2xui32> loc(#loc510)
    %43 = stablehlo.broadcast_in_dim %arg4, dims = [] : (tensor<ui32>) -> tensor<2xui32> loc(#loc510)
    %44 = stablehlo.add %40, %43 : tensor<2xui32> loc(#loc510)
    %45 = stablehlo.add %arg0, %c_0 : tensor<i32> loc(#loc510)
    %46 = stablehlo.convert %45 : (tensor<i32>) -> tensor<ui32> loc(#loc516)
    %47 = stablehlo.broadcast_in_dim %46, dims = [] : (tensor<ui32>) -> tensor<2xui32> loc(#loc510)
    %48 = stablehlo.add %44, %47 : tensor<2xui32> loc(#loc510)
    return %0, %42, %48, %arg4, %arg5, %arg3, %arg7, %arg6 : tensor<i32>, tensor<2xui32>, tensor<2xui32>, tensor<ui32>, tensor<ui32>, tensor<ui32>, tensor<4xui32>, tensor<4xui32> loc(#loc)
  } loc(#loc686)
  func.func private @_where(%arg0: tensor<9xi1> loc(unknown), %arg1: tensor<9xi32> loc(unknown), %arg2: tensor<i32> loc(unknown)) -> tensor<9xi32> {
    %0 = stablehlo.broadcast_in_dim %arg2, dims = [] : (tensor<i32>) -> tensor<9xi32> loc(#loc210)
    %1 = stablehlo.select %arg0, %arg1, %0 : tensor<9xi1>, tensor<9xi32> loc(#loc211)
    return %1 : tensor<9xi32> loc(#loc)
  } loc(#loc1105)
  func.func private @_where_3(%arg0: tensor<9xi1> loc(unknown), %arg1: tensor<f32> loc(unknown), %arg2: tensor<9xf32> loc(unknown)) -> tensor<9xf32> {
    %0 = stablehlo.convert %arg1 : tensor<f32> loc(#loc48)
    %1 = stablehlo.broadcast_in_dim %0, dims = [] : (tensor<f32>) -> tensor<9xf32> loc(#loc210)
    %2 = stablehlo.select %arg0, %1, %arg2 : tensor<9xi1>, tensor<9xf32> loc(#loc211)
    return %2 : tensor<9xf32> loc(#loc)
  } loc(#loc1106)
  func.func private @argmax(%arg0: tensor<9xf32> loc(callsite(#loc282 at #loc410))) -> tensor<i32> {
    %c = stablehlo.constant dense<0> : tensor<i32> loc(#loc402)
    %cst = stablehlo.constant dense<0xFF800000> : tensor<f32> loc(#loc402)
    %0 = stablehlo.iota dim = 0 : tensor<9xi32> loc(#loc960)
    %1:2 = stablehlo.reduce(%arg0 init: %cst), (%0 init: %c) across dimensions = [0] : (tensor<9xf32>, tensor<9xi32>, tensor<f32>, tensor<i32>) -> (tensor<f32>, tensor<i32>)
     reducer(%arg1: tensor<f32> loc("reduce:"(#loc213)), %arg3: tensor<f32> loc("reduce:"(#loc213))) (%arg2: tensor<i32> loc("reduce:"(#loc213)), %arg4: tensor<i32> loc("reduce:"(#loc213)))  {
      %2 = stablehlo.compare GT, %arg1, %arg3, FLOAT : (tensor<f32>, tensor<f32>) -> tensor<i1> loc(#loc1107)
      %3 = stablehlo.compare NE, %arg1, %arg1, FLOAT : (tensor<f32>, tensor<f32>) -> tensor<i1> loc(#loc1108)
      %4 = stablehlo.or %2, %3 : tensor<i1> loc(#loc1109)
      %5 = stablehlo.compare EQ, %arg1, %arg3, FLOAT : (tensor<f32>, tensor<f32>) -> tensor<i1> loc(#loc1110)
      %6 = stablehlo.compare LT, %arg2, %arg4, SIGNED : (tensor<i32>, tensor<i32>) -> tensor<i1> loc(#loc1111)
      %7 = stablehlo.and %5, %6 : tensor<i1> loc(#loc1112)
      %8 = stablehlo.or %4, %7 : tensor<i1> loc(#loc1109)
      %9 = stablehlo.select %4, %arg1, %arg3 : tensor<i1>, tensor<f32> loc(#loc1113)
      %10 = stablehlo.select %8, %arg2, %arg4 : tensor<i1>, tensor<i32> loc(#loc1113)
      stablehlo.return %9, %10 : tensor<f32>, tensor<i32> loc(#loc961)
    } loc(#loc961)
    return %1#1 : tensor<i32> loc(#loc546)
  } loc(#loc546)
  func.func private @remainder(%arg0: tensor<i32> loc(unknown), %arg1: tensor<i32> loc(unknown)) -> tensor<i32> {
    %c = stablehlo.constant dense<1> : tensor<i32> loc(#loc)
    %c_0 = stablehlo.constant dense<0> : tensor<i32> loc(#loc)
    %0 = stablehlo.convert %arg1 : tensor<i32> loc(#loc48)
    %1 = stablehlo.compare EQ, %0, %c_0, SIGNED : (tensor<i32>, tensor<i32>) -> tensor<i1> loc(#loc214)
    %2 = call @_where_4(%1, %c, %0) : (tensor<i1>, tensor<i32>, tensor<i32>) -> tensor<i32> loc(#loc215)
    %3 = stablehlo.remainder %arg0, %2 : tensor<i32> loc(#loc216)
    %4 = stablehlo.compare NE, %3, %c_0, SIGNED : (tensor<i32>, tensor<i32>) -> tensor<i1> loc(#loc217)
    %5 = stablehlo.compare LT, %3, %c_0, SIGNED : (tensor<i32>, tensor<i32>) -> tensor<i1> loc(#loc46)
    %6 = stablehlo.compare LT, %2, %c_0, SIGNED : (tensor<i32>, tensor<i32>) -> tensor<i1> loc(#loc46)
    %7 = stablehlo.compare NE, %5, %6, UNSIGNED : (tensor<i1>, tensor<i1>) -> tensor<i1> loc(#loc217)
    %8 = stablehlo.and %7, %4 : tensor<i1> loc(#loc218)
    %9 = stablehlo.add %3, %2 : tensor<i32> loc(#loc58)
    %10 = stablehlo.select %8, %9, %3 : tensor<i1>, tensor<i32> loc(#loc211)
    return %10 : tensor<i32> loc(#loc)
  } loc(#loc963)
  func.func private @_where_4(%arg0: tensor<i1> loc(unknown), %arg1: tensor<i32> loc(unknown), %arg2: tensor<i32> loc(unknown)) -> tensor<i32> {
    %0 = stablehlo.select %arg0, %arg1, %arg2 : tensor<i1>, tensor<i32> loc(#loc211)
    return %0 : tensor<i32> loc(#loc)
  } loc(#loc256)
  func.func private @_flip(%arg0: tensor<2xf32> loc(unknown)) -> tensor<2xf32> {
    %0 = stablehlo.reverse %arg0, dims = [0] : tensor<2xf32> loc(#loc219)
    return %0 : tensor<2xf32> loc(#loc)
  } loc(#loc964)
  func.func private @_gumbel(%arg0: tensor<2xui32> loc(unknown)) -> tensor<9xf32> {
    %cst = stablehlo.constant dense<1.000000e+00> : tensor<f32> loc(#loc)
    %cst_0 = stablehlo.constant dense<1.17549435E-38> : tensor<f32> loc(#loc)
    %0 = call @_uniform_5(%arg0, %cst, %cst_0) : (tensor<2xui32>, tensor<f32>, tensor<f32>) -> tensor<9xf32> loc(#loc45)
    %1 = stablehlo.log %0 : tensor<9xf32> loc(#loc220)
    %2 = stablehlo.negate %1 : tensor<9xf32> loc(#loc221)
    %3 = stablehlo.log %2 : tensor<9xf32> loc(#loc220)
    %4 = stablehlo.negate %3 : tensor<9xf32> loc(#loc221)
    return %4 : tensor<9xf32> loc(#loc)
  } loc(#loc965)
  func.func private @_uniform_5(%arg0: tensor<2xui32> loc(unknown), %arg1: tensor<f32> loc(unknown), %arg2: tensor<f32> loc(unknown)) -> tensor<9xf32> {
    %cst = stablehlo.constant dense<1.000000e+00> : tensor<f32> loc(#loc)
    %c = stablehlo.constant dense<1065353216> : tensor<ui32> loc(#loc)
    %c_0 = stablehlo.constant dense<9> : tensor<ui32> loc(#loc)
    %c_1 = stablehlo.constant dense<32> : tensor<ui64> loc(#loc222)
    %c_2 = stablehlo.constant dense<1> : tensor<ui64> loc(#loc222)
    %0 = stablehlo.convert %arg1 : tensor<f32> loc(#loc48)
    %1 = stablehlo.broadcast_in_dim %arg2, dims = [] : (tensor<f32>) -> tensor<1xf32> loc(#loc210)
    %2 = stablehlo.broadcast_in_dim %0, dims = [] : (tensor<f32>) -> tensor<1xf32> loc(#loc210)
    %3 = stablehlo.slice %arg0 [0:1] : (tensor<2xui32>) -> tensor<1xui32> loc(#loc49)
    %4 = stablehlo.reshape %3 : (tensor<1xui32>) -> tensor<ui32> loc(#loc50)
    %5 = stablehlo.slice %arg0 [1:2] : (tensor<2xui32>) -> tensor<1xui32> loc(#loc49)
    %6 = stablehlo.reshape %5 : (tensor<1xui32>) -> tensor<ui32> loc(#loc50)
    %7 = stablehlo.iota dim = 0 : tensor<9xui64> loc(#loc222)
    %8 = stablehlo.broadcast_in_dim %c_2, dims = [] : (tensor<ui64>) -> tensor<9xui64> loc(#loc222)
    %9 = stablehlo.multiply %8, %7 : tensor<9xui64> loc(#loc222)
    %10 = stablehlo.broadcast_in_dim %c_1, dims = [] : (tensor<ui64>) -> tensor<9xui64> loc(#loc222)
    %11 = stablehlo.shift_right_logical %9, %10 : tensor<9xui64> loc(#loc222)
    %12 = stablehlo.convert %9 : (tensor<9xui64>) -> tensor<9xui32> loc(#loc222)
    %13 = stablehlo.convert %11 : (tensor<9xui64>) -> tensor<9xui32> loc(#loc222)
    %14:2 = call @threefry2x32_6(%4, %6, %13, %12) : (tensor<ui32>, tensor<ui32>, tensor<9xui32>, tensor<9xui32>) -> (tensor<9xui32>, tensor<9xui32>) loc(#loc51)
    %15 = stablehlo.xor %14#0, %14#1 : tensor<9xui32> loc(#loc52)
    %16 = stablehlo.broadcast_in_dim %c_0, dims = [] : (tensor<ui32>) -> tensor<9xui32> loc(#loc53)
    %17 = stablehlo.shift_right_logical %15, %16 : tensor<9xui32> loc(#loc53)
    %18 = stablehlo.broadcast_in_dim %c, dims = [] : (tensor<ui32>) -> tensor<9xui32> loc(#loc54)
    %19 = stablehlo.or %17, %18 : tensor<9xui32> loc(#loc54)
    %20 = stablehlo.bitcast_convert %19 : (tensor<9xui32>) -> tensor<9xf32> loc(#loc55)
    %21 = stablehlo.broadcast_in_dim %cst, dims = [] : (tensor<f32>) -> tensor<9xf32> loc(#loc56)
    %22 = stablehlo.subtract %20, %21 : tensor<9xf32> loc(#loc56)
    %23 = stablehlo.subtract %2, %1 : tensor<1xf32> loc(#loc56)
    %24 = stablehlo.broadcast_in_dim %23, dims = [0] : (tensor<1xf32>) -> tensor<9xf32> loc(#loc57)
    %25 = stablehlo.multiply %22, %24 : tensor<9xf32> loc(#loc57)
    %26 = stablehlo.broadcast_in_dim %1, dims = [0] : (tensor<1xf32>) -> tensor<9xf32> loc(#loc58)
    %27 = stablehlo.add %25, %26 : tensor<9xf32> loc(#loc58)
    %28 = stablehlo.broadcast_in_dim %1, dims = [0] : (tensor<1xf32>) -> tensor<9xf32> loc(#loc60)
    %29 = stablehlo.maximum %28, %27 : tensor<9xf32> loc(#loc60)
    return %29 : tensor<9xf32> loc(#loc)
  } loc(#loc256)
  func.func private @threefry2x32_6(%arg0: tensor<ui32> loc(unknown), %arg1: tensor<ui32> loc(unknown), %arg2: tensor<9xui32> loc(unknown), %arg3: tensor<9xui32> loc(unknown)) -> (tensor<9xui32>, tensor<9xui32>) {
    %c = stablehlo.constant dense<1> : tensor<i32> loc(#loc)
    %c_0 = stablehlo.constant dense<5> : tensor<i32> loc(#loc)
    %c_1 = stablehlo.constant dense<0> : tensor<i32> loc(#loc)
    %c_2 = stablehlo.constant dense<466688986> : tensor<ui32> loc(#loc257)
    %c_3 = stablehlo.constant dense<[13, 15, 26, 6]> : tensor<4xui32> loc(#loc257)
    %c_4 = stablehlo.constant dense<[17, 29, 16, 24]> : tensor<4xui32> loc(#loc257)
    %0 = stablehlo.xor %arg0, %arg1 : tensor<ui32> loc(#loc52)
    %1 = stablehlo.xor %0, %c_2 : tensor<ui32> loc(#loc52)
    %2 = stablehlo.broadcast_in_dim %arg0, dims = [] : (tensor<ui32>) -> tensor<9xui32> loc(#loc58)
    %3 = stablehlo.add %arg2, %2 : tensor<9xui32> loc(#loc58)
    %4 = stablehlo.broadcast_in_dim %arg1, dims = [] : (tensor<ui32>) -> tensor<9xui32> loc(#loc58)
    %5 = stablehlo.add %arg3, %4 : tensor<9xui32> loc(#loc58)
    %6:9 = stablehlo.while(%iterArg = %c_1, %iterArg_5 = %c_1, %iterArg_6 = %3, %iterArg_7 = %5, %iterArg_8 = %arg1, %iterArg_9 = %1, %iterArg_10 = %arg0, %iterArg_11 = %c_3, %iterArg_12 = %c_4) : tensor<i32>, tensor<i32>, tensor<9xui32>, tensor<9xui32>, tensor<ui32>, tensor<ui32>, tensor<ui32>, tensor<4xui32>, tensor<4xui32>
    cond {
      %7 = stablehlo.compare LT, %iterArg, %c_0, SIGNED : (tensor<i32>, tensor<i32>) -> tensor<i1> loc(#loc63)
      stablehlo.return %7 : tensor<i1> loc(#loc62)
    } do {
      %7:8 = func.call @closed_call_7(%iterArg_5, %iterArg_6, %iterArg_7, %iterArg_8, %iterArg_9, %iterArg_10, %iterArg_11, %iterArg_12) : (tensor<i32>, tensor<9xui32>, tensor<9xui32>, tensor<ui32>, tensor<ui32>, tensor<ui32>, tensor<4xui32>, tensor<4xui32>) -> (tensor<i32>, tensor<9xui32>, tensor<9xui32>, tensor<ui32>, tensor<ui32>, tensor<ui32>, tensor<4xui32>, tensor<4xui32>) loc(#loc64)
      %8 = stablehlo.add %iterArg, %c : tensor<i32> loc(#loc65)
      stablehlo.return %8, %7#0, %7#1, %7#2, %7#3, %7#4, %7#5, %7#6, %7#7 : tensor<i32>, tensor<i32>, tensor<9xui32>, tensor<9xui32>, tensor<ui32>, tensor<ui32>, tensor<ui32>, tensor<4xui32>, tensor<4xui32> loc(#loc62)
    } loc(#loc62)
    return %6#2, %6#3 : tensor<9xui32>, tensor<9xui32> loc(#loc)
  } loc(#loc)
  func.func private @closed_call_7(%arg0: tensor<i32> loc(unknown), %arg1: tensor<9xui32> loc(unknown), %arg2: tensor<9xui32> loc(unknown), %arg3: tensor<ui32> loc(unknown), %arg4: tensor<ui32> loc(unknown), %arg5: tensor<ui32> loc(unknown), %arg6: tensor<4xui32> loc(unknown), %arg7: tensor<4xui32> loc(unknown)) -> (tensor<i32>, tensor<9xui32>, tensor<9xui32>, tensor<ui32>, tensor<ui32>, tensor<ui32>, tensor<4xui32>, tensor<4xui32>) {
    %c = stablehlo.constant dense<32> : tensor<ui32> loc(#loc)
    %c_0 = stablehlo.constant dense<1> : tensor<i32> loc(#loc)
    %0 = stablehlo.add %arg0, %c_0 : tensor<i32> loc(#loc58)
    %1 = stablehlo.slice %arg6 [0:1] : (tensor<4xui32>) -> tensor<1xui32> loc(#loc49)
    %2 = stablehlo.reshape %1 : (tensor<1xui32>) -> tensor<ui32> loc(#loc50)
    %3 = stablehlo.add %arg1, %arg2 : tensor<9xui32> loc(#loc58)
    %4 = stablehlo.broadcast_in_dim %2, dims = [] : (tensor<ui32>) -> tensor<9xui32> loc(#loc66)
    %5 = stablehlo.shift_left %arg2, %4 : tensor<9xui32> loc(#loc66)
    %6 = stablehlo.subtract %c, %2 : tensor<ui32> loc(#loc56)
    %7 = stablehlo.broadcast_in_dim %6, dims = [] : (tensor<ui32>) -> tensor<9xui32> loc(#loc53)
    %8 = stablehlo.shift_right_logical %arg2, %7 : tensor<9xui32> loc(#loc53)
    %9 = stablehlo.or %5, %8 : tensor<9xui32> loc(#loc54)
    %10 = stablehlo.xor %3, %9 : tensor<9xui32> loc(#loc52)
    %11 = stablehlo.slice %arg6 [1:2] : (tensor<4xui32>) -> tensor<1xui32> loc(#loc49)
    %12 = stablehlo.reshape %11 : (tensor<1xui32>) -> tensor<ui32> loc(#loc50)
    %13 = stablehlo.add %3, %10 : tensor<9xui32> loc(#loc58)
    %14 = stablehlo.broadcast_in_dim %12, dims = [] : (tensor<ui32>) -> tensor<9xui32> loc(#loc66)
    %15 = stablehlo.shift_left %10, %14 : tensor<9xui32> loc(#loc66)
    %16 = stablehlo.subtract %c, %12 : tensor<ui32> loc(#loc56)
    %17 = stablehlo.broadcast_in_dim %16, dims = [] : (tensor<ui32>) -> tensor<9xui32> loc(#loc53)
    %18 = stablehlo.shift_right_logical %10, %17 : tensor<9xui32> loc(#loc53)
    %19 = stablehlo.or %15, %18 : tensor<9xui32> loc(#loc54)
    %20 = stablehlo.xor %13, %19 : tensor<9xui32> loc(#loc52)
    %21 = stablehlo.slice %arg6 [2:3] : (tensor<4xui32>) -> tensor<1xui32> loc(#loc49)
    %22 = stablehlo.reshape %21 : (tensor<1xui32>) -> tensor<ui32> loc(#loc50)
    %23 = stablehlo.add %13, %20 : tensor<9xui32> loc(#loc58)
    %24 = stablehlo.broadcast_in_dim %22, dims = [] : (tensor<ui32>) -> tensor<9xui32> loc(#loc66)
    %25 = stablehlo.shift_left %20, %24 : tensor<9xui32> loc(#loc66)
    %26 = stablehlo.subtract %c, %22 : tensor<ui32> loc(#loc56)
    %27 = stablehlo.broadcast_in_dim %26, dims = [] : (tensor<ui32>) -> tensor<9xui32> loc(#loc53)
    %28 = stablehlo.shift_right_logical %20, %27 : tensor<9xui32> loc(#loc53)
    %29 = stablehlo.or %25, %28 : tensor<9xui32> loc(#loc54)
    %30 = stablehlo.xor %23, %29 : tensor<9xui32> loc(#loc52)
    %31 = stablehlo.slice %arg6 [3:4] : (tensor<4xui32>) -> tensor<1xui32> loc(#loc49)
    %32 = stablehlo.reshape %31 : (tensor<1xui32>) -> tensor<ui32> loc(#loc50)
    %33 = stablehlo.add %23, %30 : tensor<9xui32> loc(#loc58)
    %34 = stablehlo.broadcast_in_dim %32, dims = [] : (tensor<ui32>) -> tensor<9xui32> loc(#loc66)
    %35 = stablehlo.shift_left %30, %34 : tensor<9xui32> loc(#loc66)
    %36 = stablehlo.subtract %c, %32 : tensor<ui32> loc(#loc56)
    %37 = stablehlo.broadcast_in_dim %36, dims = [] : (tensor<ui32>) -> tensor<9xui32> loc(#loc53)
    %38 = stablehlo.shift_right_logical %30, %37 : tensor<9xui32> loc(#loc53)
    %39 = stablehlo.or %35, %38 : tensor<9xui32> loc(#loc54)
    %40 = stablehlo.xor %33, %39 : tensor<9xui32> loc(#loc52)
    %41 = stablehlo.broadcast_in_dim %arg3, dims = [] : (tensor<ui32>) -> tensor<9xui32> loc(#loc58)
    %42 = stablehlo.add %33, %41 : tensor<9xui32> loc(#loc58)
    %43 = stablehlo.broadcast_in_dim %arg4, dims = [] : (tensor<ui32>) -> tensor<9xui32> loc(#loc58)
    %44 = stablehlo.add %40, %43 : tensor<9xui32> loc(#loc58)
    %45 = stablehlo.add %arg0, %c_0 : tensor<i32> loc(#loc58)
    %46 = stablehlo.convert %45 : (tensor<i32>) -> tensor<ui32> loc(#loc48)
    %47 = stablehlo.broadcast_in_dim %46, dims = [] : (tensor<ui32>) -> tensor<9xui32> loc(#loc58)
    %48 = stablehlo.add %44, %47 : tensor<9xui32> loc(#loc58)
    return %0, %42, %48, %arg4, %arg5, %arg3, %arg7, %arg6 : tensor<i32>, tensor<9xui32>, tensor<9xui32>, tensor<ui32>, tensor<ui32>, tensor<ui32>, tensor<4xui32>, tensor<4xui32> loc(#loc)
  } loc(#loc258)
  func.func private @_where_8(%arg0: tensor<9xi1> loc(unknown), %arg1: tensor<9xf32> loc(unknown), %arg2: tensor<f32> loc(unknown)) -> tensor<9xf32> {
    %0 = stablehlo.convert %arg2 : tensor<f32> loc(#loc48)
    %1 = stablehlo.broadcast_in_dim %0, dims = [] : (tensor<f32>) -> tensor<9xf32> loc(#loc210)
    %2 = stablehlo.select %arg0, %arg1, %1 : tensor<9xi1>, tensor<9xf32> loc(#loc211)
    return %2 : tensor<9xf32> loc(#loc)
  } loc(#loc1286)
} loc(#loc)
#loc12 = loc("/home/farr/noahfarr.github.io/tools/whlo/export_mcts.py":99:21 to :84)
#loc13 = loc("/home/farr/noahfarr.github.io/tools/whlo/export_mcts.py":128:4 to :10)
#loc14 = loc("/home/farr/mcts/mcts/action_selection.py":45:8 to :41)
#loc15 = loc("/home/farr/mcts/mcts/mcts.py":159:13 to :48)
#loc16 = loc("/home/farr/noahfarr.github.io/tools/whlo/export_mcts.py":46:23 to 48:9)
#loc17 = loc("/home/farr/mcts/.venv/lib/python3.13/site-packages/pgx/core.py":277:26 to :47)
#loc18 = loc("/home/farr/mcts/mcts/tree.py":48:38 to :53)
#loc19 = loc("/home/farr/noahfarr.github.io/tools/whlo/export_mcts.py":45:15 to :63)
#loc20 = loc("/home/farr/mcts/mcts/tree.py":38:29 to :41)
#loc21 = loc("/home/farr/mcts/mcts/tree.py":37:13 to 40:5)
#loc22 = loc("/home/farr/mcts/mcts/tree.py":38:18 to :61)
#loc23 = loc("/home/farr/mcts/mcts/tree.py":43:15 to :38)
#loc24 = loc("/home/farr/mcts/mcts/tree.py":44:16 to :55)
#loc25 = loc("/home/farr/mcts/mcts/tree.py":45:15 to :54)
#loc26 = loc("/home/farr/mcts/mcts/tree.py":46:16 to :54)
#loc27 = loc("/home/farr/mcts/mcts/tree.py":47:16 to :54)
#loc28 = loc("/home/farr/mcts/.venv/lib/python3.13/site-packages/pgx/tic_tac_toe.py":46:35 to :60)
#loc29 = loc("/home/farr/mcts/.venv/lib/python3.13/site-packages/pgx/core.py":187:16 to :31)
#loc30 = loc("/home/farr/mcts/.venv/lib/python3.13/site-packages/pgx/core.py":277:16 to :48)
#loc31 = loc("/home/farr/mcts/mcts/tree.py":48:17 to :71)
#loc32 = loc("/home/farr/mcts/mcts/mcts.py":158:14 to :74)
#loc33 = loc("/home/farr/mcts/mcts/action_selection.py":39:15 to :34)
#loc34 = loc("/home/farr/mcts/mcts/action_selection.py":40:14 to :40)
#loc35 = loc("/home/farr/mcts/mcts/action_selection.py":41:15 to :46)
#loc36 = loc("/home/farr/mcts/mcts/tree.py":24:37 to :47)
#loc37 = loc("/home/farr/mcts/mcts/tree.py":24:11 to :61)
#loc38 = loc("/home/farr/mcts/mcts/action_selection.py":43:12 to :33)
#loc39 = loc("/home/farr/mcts/mcts/action_selection.py":45:43 to :64)
#loc40 = loc("/home/farr/mcts/mcts/action_selection.py":44:13 to 46:5)
#loc41 = loc("/home/farr/mcts/mcts/action_selection.py":47:11 to :29)
#loc42 = loc("/home/farr/noahfarr.github.io/tools/whlo/export_mcts.py":54:24 to :54)
#loc43 = loc("/home/farr/noahfarr.github.io/tools/whlo/export_mcts.py":57:12 to :43)
#loc44 = loc("/home/farr/noahfarr.github.io/tools/whlo/export_mcts.py":59:12 to :42)
#loc45 = loc("jit(_uniform)")
#loc46 = loc("lt")
#loc47 = loc("jit")
#loc48 = loc("convert_element_type")
#loc49 = loc("slice")
#loc50 = loc("squeeze")
#loc51 = loc("")
#loc52 = loc("xor")
#loc53 = loc("shift_right_logical")
#loc54 = loc("or")
#loc55 = loc("bitcast_convert_type")
#loc56 = loc("sub")
#loc57 = loc("mul")
#loc58 = loc("add")
#loc59 = loc("reshape")
#loc60 = loc("max")
#loc61 = loc("threefry2x32")
#loc62 = loc("while")
#loc63 = loc("while/cond/lt")
#loc64 = loc("while/body/closed_call")
#loc65 = loc("while/body/add")
#loc66 = loc("shift_left")
#loc68 = loc("/home/farr/mcts/mcts/mcts.py":141:8 to :19)
#loc69 = loc("/home/farr/mcts/mcts/action_selection.py":22:15 to :34)
#loc72 = loc("/home/farr/mcts/mcts/action_selection.py":23:12 to :33)
#loc73 = loc("/home/farr/mcts/mcts/action_selection.py":26:14 to :40)
#loc74 = loc("/home/farr/mcts/mcts/action_selection.py":27:15 to :46)
#loc75 = loc("/home/farr/mcts/mcts/action_selection.py":29:14 to :43)
#loc76 = loc("/home/farr/mcts/mcts/action_selection.py":30:31 to :48)
#loc77 = loc("/home/farr/mcts/mcts/action_selection.py":30:31 to :54)
#loc78 = loc("/home/farr/mcts/mcts/action_selection.py":30:23 to :55)
#loc79 = loc("/home/farr/mcts/mcts/action_selection.py":30:59 to :80)
#loc80 = loc("/home/farr/mcts/mcts/action_selection.py":30:59 to :86)
#loc81 = loc("/home/farr/mcts/mcts/action_selection.py":30:23 to :87)
#loc82 = loc("/home/farr/mcts/mcts/action_selection.py":30:14 to :88)
#loc83 = loc("/home/farr/mcts/mcts/action_selection.py":32:23 to :34)
#loc84 = loc("/home/farr/mcts/mcts/action_selection.py":32:13 to :34)
#loc85 = loc("/home/farr/mcts/mcts/action_selection.py":33:50 to :58)
#loc86 = loc("/home/farr/mcts/mcts/action_selection.py":33:23 to :59)
#loc87 = loc("/home/farr/mcts/mcts/action_selection.py":33:13 to :77)
#loc88 = loc("/home/farr/mcts/mcts/action_selection.py":34:23 to :47)
#loc89 = loc("/home/farr/mcts/mcts/action_selection.py":34:13 to :66)
#loc91 = loc("/home/farr/mcts/mcts/mcts.py":31:16 to :43)
#loc92 = loc("/home/farr/mcts/mcts/mcts.py":32:30 to 36:5)
#loc93 = loc("/home/farr/mcts/mcts/mcts.py":20:15 to :42)
#loc94 = loc("/home/farr/mcts/mcts/mcts.py":25:28 to :60)
#loc95 = loc("/home/farr/mcts/mcts/mcts.py":26:31 to :58)
#loc96 = loc("/home/farr/mcts/mcts/mcts.py":145:35 to :62)
#loc97 = loc("/home/farr/mcts/mcts/mcts.py":145:64 to :76)
#loc98 = loc("/home/farr/mcts/mcts/mcts.py":145:20 to :88)
#loc99 = loc("/home/farr/mcts/mcts/mcts.py":148:12 to :40)
#loc100 = loc("/home/farr/mcts/mcts/mcts.py":148:43 to :70)
#loc101 = loc("/home/farr/mcts/mcts/mcts.py":148:12 to :70)
#loc102 = loc("/home/farr/mcts/mcts/mcts.py":147:21 to 152:9)
#loc103 = loc("/home/farr/mcts/mcts/mcts.py":47:23 to :44)
#loc104 = loc("/home/farr/mcts/mcts/mcts.py":150:23 to :69)
#loc105 = loc("/home/farr/mcts/.venv/lib/python3.13/site-packages/pgx/core.py":198:22 to :53)
#loc106 = loc("/home/farr/mcts/mcts/mcts.py":48:28 to :47)
#loc107 = loc("/home/farr/mcts/.venv/lib/python3.13/site-packages/pgx/core.py":198:21 to :53)
#loc108 = loc("/home/farr/mcts/.venv/lib/python3.13/site-packages/pgx/core.py":204:13 to :47)
#loc109 = loc("/home/farr/mcts/.venv/lib/python3.13/site-packages/pgx/core.py":203:16 to 207:9)
#loc110 = loc("/home/farr/mcts/.venv/lib/python3.13/site-packages/pgx/core.py":206:57 to :78)
#loc111 = loc("/home/farr/mcts/.venv/lib/python3.13/site-packages/pgx/tic_tac_toe.py":54:28 to :52)
#loc112 = loc("/home/farr/mcts/.venv/lib/python3.13/site-packages/pgx/core.py":206:20 to :93)
#loc113 = loc("/home/farr/mcts/.venv/lib/python3.13/site-packages/pgx/tic_tac_toe.py":54:27 to :57)
#loc114 = loc("/home/farr/mcts/.venv/lib/python3.13/site-packages/pgx/_src/games/tic_tac_toe.py":36:16 to :55)
#loc115 = loc("/home/farr/mcts/.venv/lib/python3.13/site-packages/pgx/tic_tac_toe.py":54:62 to :95)
#loc117 = loc("/home/farr/mcts/.venv/lib/python3.13/site-packages/pgx/_src/games/tic_tac_toe.py":38:15 to :25)
#loc118 = loc("/home/farr/mcts/.venv/lib/python3.13/site-packages/pgx/_src/games/tic_tac_toe.py":38:15 to :40)
#loc119 = loc("/home/farr/mcts/.venv/lib/python3.13/site-packages/pgx/_src/games/tic_tac_toe.py":38:14 to :53)
#loc120 = loc("/home/farr/mcts/.venv/lib/python3.13/site-packages/pgx/_src/games/tic_tac_toe.py":38:14 to :59)
#loc121 = loc("/home/farr/mcts/.venv/lib/python3.13/site-packages/pgx/_src/games/tic_tac_toe.py":39:17 to :53)
#loc122 = loc("/home/farr/mcts/.venv/lib/python3.13/site-packages/pgx/_src/games/tic_tac_toe.py":41:18 to :57)
#loc123 = loc("/home/farr/mcts/.venv/lib/python3.13/site-packages/pgx/_src/games/tic_tac_toe.py":42:19 to :34)
#loc124 = loc("/home/farr/mcts/.venv/lib/python3.13/site-packages/pgx/_src/games/tic_tac_toe.py":42:18 to :39)
#loc125 = loc("/home/farr/mcts/.venv/lib/python3.13/site-packages/pgx/_src/games/tic_tac_toe.py":58:15 to :30)
#loc126 = loc("/home/farr/mcts/.venv/lib/python3.13/site-packages/pgx/tic_tac_toe.py":57:28 to :66)
#loc127 = loc("/home/farr/mcts/.venv/lib/python3.13/site-packages/pgx/_src/games/tic_tac_toe.py":61:16 to :33)
#loc128 = loc("/home/farr/mcts/.venv/lib/python3.13/site-packages/pgx/tic_tac_toe.py":58:21 to :53)
#loc129 = loc("/home/farr/mcts/.venv/lib/python3.13/site-packages/pgx/_src/games/tic_tac_toe.py":61:45 to :62)
#loc130 = loc("/home/farr/mcts/.venv/lib/python3.13/site-packages/pgx/_src/games/tic_tac_toe.py":61:37 to :63)
#loc131 = loc("/home/farr/mcts/.venv/lib/python3.13/site-packages/pgx/_src/games/tic_tac_toe.py":61:15 to :63)
#loc132 = loc("/home/farr/mcts/.venv/lib/python3.13/site-packages/pgx/_src/games/tic_tac_toe.py":65:12 to :29)
#loc133 = loc("/home/farr/mcts/.venv/lib/python3.13/site-packages/pgx/tic_tac_toe.py":59:18 to :46)
#loc134 = loc("/home/farr/mcts/.venv/lib/python3.13/site-packages/pgx/_src/games/tic_tac_toe.py":66:12 to :57)
#loc135 = loc("/home/farr/mcts/.venv/lib/python3.13/site-packages/pgx/_src/games/tic_tac_toe.py":67:12 to :37)
#loc136 = loc("/home/farr/mcts/.venv/lib/python3.13/site-packages/pgx/_src/games/tic_tac_toe.py":64:15 to 68:9)
#loc137 = loc("/home/farr/mcts/.venv/lib/python3.13/site-packages/pgx/tic_tac_toe.py":60:22 to :60)
#loc138 = loc("/home/farr/mcts/.venv/lib/python3.13/site-packages/pgx/tic_tac_toe.py":61:46 to :63)
#loc139 = loc("/home/farr/mcts/.venv/lib/python3.13/site-packages/pgx/tic_tac_toe.py":61:18 to :73)
#loc140 = loc("/home/farr/mcts/.venv/lib/python3.13/site-packages/pgx/tic_tac_toe.py":62:54 to :79)
#loc141 = loc("/home/farr/mcts/.venv/lib/python3.13/site-packages/pgx/tic_tac_toe.py":62:18 to :80)
#loc142 = loc("/home/farr/mcts/.venv/lib/python3.13/site-packages/pgx/core.py":205:42 to :71)
#loc143 = loc("/home/farr/mcts/.venv/lib/python3.13/site-packages/pgx/core.py":210:16 to 214:9)
#loc144 = loc("/home/farr/mcts/.venv/lib/python3.13/site-packages/pgx/core.py":294:17 to :45)
#loc145 = loc("/home/farr/mcts/.venv/lib/python3.13/site-packages/pgx/core.py":212:20 to :73)
#loc146 = loc("/home/farr/mcts/.venv/lib/python3.13/site-packages/pgx/core.py":294:17 to :62)
#loc147 = loc("/home/farr/mcts/.venv/lib/python3.13/site-packages/pgx/core.py":294:17 to :87)
#loc148 = loc("/home/farr/mcts/.venv/lib/python3.13/site-packages/pgx/core.py":295:17 to :46)
#loc149 = loc("/home/farr/mcts/.venv/lib/python3.13/site-packages/pgx/core.py":219:16 to 223:9)
#loc150 = loc("/home/farr/mcts/.venv/lib/python3.13/site-packages/pgx/core.py":221:52 to :90)
#loc151 = loc("/home/farr/mcts/.venv/lib/python3.13/site-packages/pgx/tic_tac_toe.py":70:34 to :67)
#loc152 = loc("/home/farr/mcts/.venv/lib/python3.13/site-packages/pgx/core.py":236:14 to :45)
#loc153 = loc("/home/farr/mcts/.venv/lib/python3.13/site-packages/pgx/core.py":225:22 to :41)
#loc154 = loc("/home/farr/mcts/.venv/lib/python3.13/site-packages/pgx/tic_tac_toe.py":70:81 to :95)
#loc155 = loc("/home/farr/mcts/.venv/lib/python3.13/site-packages/pgx/tic_tac_toe.py":70:19 to :96)
#loc156 = loc("/home/farr/mcts/.venv/lib/python3.13/site-packages/pgx/_src/games/tic_tac_toe.py":54:27 to :37)
#loc157 = loc("/home/farr/mcts/.venv/lib/python3.13/site-packages/pgx/tic_tac_toe.py":71:15 to :53)
#loc158 = loc("/home/farr/mcts/.venv/lib/python3.13/site-packages/pgx/_src/games/tic_tac_toe.py":54:12 to :76)
#loc159 = loc("/home/farr/mcts/.venv/lib/python3.13/site-packages/pgx/_src/games/tic_tac_toe.py":52:20 to :36)
#loc160 = loc("/home/farr/mcts/.venv/lib/python3.13/site-packages/pgx/_src/games/tic_tac_toe.py":55:25 to :33)
#loc161 = loc("/home/farr/mcts/.venv/lib/python3.13/site-packages/pgx/_src/games/tic_tac_toe.py":52:19 to :53)
#loc162 = loc("/home/farr/mcts/.venv/lib/python3.13/site-packages/pgx/_src/games/tic_tac_toe.py":55:15 to :38)
#loc163 = loc("/home/farr/mcts/mcts/tree.py":28:11 to :40)
#loc164 = loc("/home/farr/mcts/mcts/mcts.py":50:16 to :53)
#loc165 = loc("/home/farr/mcts/mcts/mcts.py":51:16 to :55)
#loc166 = loc("/home/farr/mcts/mcts/mcts.py":52:17 to :63)
#loc167 = loc("/home/farr/mcts/mcts/mcts.py":54:38 to :74)
#loc168 = loc("/home/farr/mcts/mcts/mcts.py":53:15 to 57:9)
#loc169 = loc("/home/farr/mcts/mcts/mcts.py":68:12 to :33)
#loc170 = loc("/home/farr/mcts/mcts/mcts.py":154:15 to :51)
#loc171 = loc("/home/farr/mcts/mcts/mcts.py":81:17 to 85:5)
#loc172 = loc("/home/farr/mcts/mcts/mcts.py":72:31 to :65)
#loc173 = loc("/home/farr/mcts/mcts/mcts.py":72:15 to :66)
#loc174 = loc("/home/farr/mcts/mcts/mcts.py":76:22 to :43)
#loc175 = loc("/home/farr/mcts/mcts/mcts.py":76:8 to :19)
#loc176 = loc("/home/farr/mcts/mcts/action_selection.py":11:19 to :29)
#loc177 = loc("/home/farr/mcts/mcts/mcts.py":77:17 to :92)
#loc178 = loc("/home/farr/mcts/mcts/action_selection.py":11:12 to :29)
#loc179 = loc("/home/farr/mcts/mcts/action_selection.py":12:25 to :39)
#loc180 = loc("/home/farr/mcts/mcts/action_selection.py":12:13 to :68)
#loc181 = loc("/home/farr/mcts/mcts/action_selection.py":13:11 to :62)
#loc182 = loc("/home/farr/mcts/mcts/mcts.py":78:27 to :46)
#loc183 = loc("/home/farr/mcts/mcts/mcts.py":88:16 to :57)
#loc184 = loc("/home/farr/mcts/mcts/mcts.py":91:12 to :29)
#loc185 = loc("/home/farr/mcts/mcts/mcts.py":92:31 to :48)
#loc186 = loc("/home/farr/mcts/mcts/mcts.py":92:15 to :48)
#loc187 = loc("/home/farr/mcts/mcts/mcts.py":92:53 to :70)
#loc188 = loc("/home/farr/mcts/mcts/mcts.py":92:53 to :74)
#loc189 = loc("/home/farr/mcts/mcts/mcts.py":92:14 to :75)
#loc190 = loc("/home/farr/mcts/mcts/mcts.py":91:12 to 92:75)
#loc191 = loc("/home/farr/mcts/mcts/mcts.py":89:15 to 94:9)
#loc192 = loc("/home/farr/mcts/mcts/mcts.py":95:35 to :52)
#loc193 = loc("/home/farr/mcts/mcts/mcts.py":95:35 to :56)
#loc194 = loc("/home/farr/mcts/mcts/mcts.py":95:15 to :63)
#loc195 = loc("/home/farr/mcts/mcts/mcts.py":101:14 to :32)
#loc196 = loc("/home/farr/mcts/mcts/mcts.py":155:15 to :48)
#loc197 = loc("/home/farr/mcts/mcts/mcts.py":122:15 to 126:5)
#loc198 = loc("/home/farr/mcts/mcts/mcts.py":105:15 to :27)
#loc199 = loc("/home/farr/mcts/mcts/mcts.py":110:17 to :35)
#loc200 = loc("/home/farr/mcts/mcts/mcts.py":111:16 to :35)
#loc201 = loc("/home/farr/mcts/mcts/mcts.py":113:24 to :43)
#loc202 = loc("/home/farr/mcts/mcts/mcts.py":113:57 to :76)
#loc203 = loc("/home/farr/mcts/mcts/mcts.py":113:47 to :76)
#loc204 = loc("/home/farr/mcts/mcts/mcts.py":114:12 to :21)
#loc205 = loc("/home/farr/mcts/mcts/mcts.py":113:46 to 115:9)
#loc206 = loc("/home/farr/mcts/mcts/mcts.py":113:24 to 115:9)
#loc207 = loc("/home/farr/mcts/mcts/mcts.py":117:19 to :61)
#loc208 = loc("/home/farr/mcts/mcts/mcts.py":118:39 to :48)
#loc209 = loc("/home/farr/mcts/mcts/mcts.py":118:19 to :57)
#loc210 = loc("broadcast_in_dim")
#loc211 = loc("select_n")
#loc212 = loc("argmax")
#loc214 = loc("eq")
#loc215 = loc("jit(_where)")
#loc216 = loc("rem")
#loc217 = loc("ne")
#loc218 = loc("and")
#loc219 = loc("rev")
#loc220 = loc("log")
#loc221 = loc("neg")
#loc222 = loc("iota_2x32_shape")
#loc223 = loc("main"(#loc12))
#loc224 = loc("<module>"(#loc13))
#loc225 = loc("greedy"(#loc14))
#loc226 = loc("search"(#loc15))
#loc227 = loc("build_functions.<locals>.pick_move"(#loc16))
#loc228 = loc("Env.num_actions"(#loc17))
#loc229 = loc("instantiate"(#loc18))
#loc230 = loc("build_functions.<locals>.pick_move"(#loc19))
#loc231 = loc("instantiate.<locals>.<lambda>"(#loc20))
#loc232 = loc("instantiate"(#loc21))
#loc233 = loc("instantiate.<locals>.<lambda>"(#loc22))
#loc234 = loc("instantiate"(#loc23))
#loc235 = loc("instantiate"(#loc24))
#loc236 = loc("instantiate"(#loc25))
#loc237 = loc("instantiate"(#loc26))
#loc238 = loc("instantiate"(#loc27))
#loc239 = loc("TicTacToe._init"(#loc28))
#loc240 = loc("Env.init"(#loc29))
#loc241 = loc("Env.num_actions"(#loc30))
#loc242 = loc("instantiate"(#loc31))
#loc243 = loc("search"(#loc32))
#loc244 = loc("greedy"(#loc33))
#loc245 = loc("greedy"(#loc34))
#loc246 = loc("greedy"(#loc35))
#loc247 = loc("get_state.<locals>.<lambda>"(#loc36))
#loc248 = loc("get_state"(#loc37))
#loc249 = loc("greedy"(#loc38))
#loc250 = loc("greedy"(#loc39))
#loc251 = loc("greedy"(#loc40))
#loc252 = loc("greedy"(#loc41))
#loc253 = loc("build_functions.<locals>.pick_move"(#loc42))
#loc254 = loc("build_functions.<locals>.pick_move"(#loc43))
#loc255 = loc("build_functions.<locals>.pick_move"(#loc44))
#loc256 = loc("jit:"(#loc47))
#loc257 = loc("threefry2x32:"(#loc61))
#loc258 = loc("closed_call:"(#loc64))
#loc260 = loc("search.<locals>.body_fun"(#loc68))
#loc261 = loc("uct"(#loc69))
#loc264 = loc("uct"(#loc72))
#loc265 = loc("uct"(#loc73))
#loc266 = loc("uct"(#loc74))
#loc267 = loc("uct"(#loc75))
#loc268 = loc("uct"(#loc76))
#loc269 = loc("uct"(#loc77))
#loc270 = loc("uct"(#loc78))
#loc271 = loc("uct"(#loc79))
#loc272 = loc("uct"(#loc80))
#loc273 = loc("uct"(#loc81))
#loc274 = loc("uct"(#loc82))
#loc275 = loc("uct"(#loc83))
#loc276 = loc("uct"(#loc84))
#loc277 = loc("uct"(#loc85))
#loc278 = loc("uct"(#loc86))
#loc279 = loc("uct"(#loc87))
#loc280 = loc("uct"(#loc88))
#loc281 = loc("uct"(#loc89))
#loc283 = loc("selection"(#loc91))
#loc284 = loc("selection"(#loc92))
#loc285 = loc("selection.<locals>.cond_fun"(#loc93))
#loc286 = loc("selection.<locals>.body_fun"(#loc94))
#loc287 = loc("selection.<locals>.body_fun"(#loc95))
#loc288 = loc("search.<locals>.body_fun"(#loc96))
#loc289 = loc("search.<locals>.body_fun"(#loc97))
#loc290 = loc("search.<locals>.body_fun"(#loc98))
#loc291 = loc("search.<locals>.body_fun"(#loc99))
#loc292 = loc("search.<locals>.body_fun"(#loc100))
#loc293 = loc("search.<locals>.body_fun"(#loc101))
#loc294 = loc("search.<locals>.body_fun"(#loc102))
#loc295 = loc("expansion"(#loc103))
#loc296 = loc("search.<locals>.body_fun.<locals>.<lambda>"(#loc104))
#loc297 = loc("Env.step"(#loc105))
#loc298 = loc("expansion"(#loc106))
#loc299 = loc("Env.step"(#loc107))
#loc300 = loc("Env.step"(#loc108))
#loc301 = loc("Env.step"(#loc109))
#loc302 = loc("Env.step.<locals>.<lambda>"(#loc110))
#loc303 = loc("TicTacToe._step"(#loc111))
#loc304 = loc("Env.step.<locals>.<lambda>"(#loc112))
#loc305 = loc("TicTacToe._step"(#loc113))
#loc306 = loc("Game.step"(#loc114))
#loc307 = loc("TicTacToe._step"(#loc115))
#loc309 = loc("Game.step"(#loc117))
#loc310 = loc("Game.step"(#loc118))
#loc311 = loc("Game.step"(#loc119))
#loc312 = loc("Game.step"(#loc120))
#loc313 = loc("Game.step"(#loc121))
#loc314 = loc("Game.step"(#loc122))
#loc315 = loc("Game.step"(#loc123))
#loc316 = loc("Game.step"(#loc124))
#loc317 = loc("Game.legal_action_mask"(#loc125))
#loc318 = loc("TicTacToe._step"(#loc126))
#loc319 = loc("Game.is_terminal"(#loc127))
#loc320 = loc("TicTacToe._step"(#loc128))
#loc321 = loc("Game.is_terminal"(#loc129))
#loc322 = loc("Game.is_terminal"(#loc130))
#loc323 = loc("Game.is_terminal"(#loc131))
#loc324 = loc("Game.rewards"(#loc132))
#loc325 = loc("TicTacToe._step"(#loc133))
#loc326 = loc("Game.rewards"(#loc134))
#loc327 = loc("Game.rewards"(#loc135))
#loc328 = loc("Game.rewards"(#loc136))
#loc329 = loc("TicTacToe._step"(#loc137))
#loc330 = loc("TicTacToe._step"(#loc138))
#loc331 = loc("TicTacToe._step"(#loc139))
#loc332 = loc("TicTacToe._step"(#loc140))
#loc333 = loc("TicTacToe._step"(#loc141))
#loc334 = loc("Env.step.<locals>.<lambda>"(#loc142))
#loc335 = loc("Env.step"(#loc143))
#loc336 = loc("Env._step_with_illegal_action"(#loc144))
#loc337 = loc("Env.step.<locals>.<lambda>"(#loc145))
#loc338 = loc("Env._step_with_illegal_action"(#loc146))
#loc339 = loc("Env._step_with_illegal_action"(#loc147))
#loc340 = loc("Env._step_with_illegal_action"(#loc148))
#loc341 = loc("Env.step"(#loc149))
#loc342 = loc("Env.step.<locals>.<lambda>"(#loc150))
#loc343 = loc("TicTacToe._observe"(#loc151))
#loc344 = loc("Env.observe"(#loc152))
#loc345 = loc("Env.step"(#loc153))
#loc346 = loc("TicTacToe._observe"(#loc154))
#loc347 = loc("TicTacToe._observe"(#loc155))
#loc348 = loc("Game.observe"(#loc156))
#loc349 = loc("TicTacToe._observe"(#loc157))
#loc350 = loc("Game.observe"(#loc158))
#loc351 = loc("Game.observe.<locals>.plane"(#loc159))
#loc352 = loc("Game.observe"(#loc160))
#loc353 = loc("Game.observe.<locals>.plane"(#loc161))
#loc354 = loc("Game.observe"(#loc162))
#loc355 = loc("update"(#loc163))
#loc356 = loc("expansion"(#loc164))
#loc357 = loc("expansion"(#loc165))
#loc358 = loc("expansion"(#loc166))
#loc359 = loc("expansion.<locals>.<lambda>"(#loc167))
#loc360 = loc("expansion"(#loc168))
#loc361 = loc("simulation"(#loc169))
#loc362 = loc("search.<locals>.body_fun"(#loc170))
#loc363 = loc("simulation"(#loc171))
#loc364 = loc("simulation.<locals>.cond_fun"(#loc172))
#loc365 = loc("simulation.<locals>.cond_fun"(#loc173))
#loc366 = loc("simulation.<locals>.body_fun"(#loc174))
#loc367 = loc("simulation.<locals>.body_fun"(#loc175))
#loc368 = loc("random"(#loc176))
#loc369 = loc("simulation.<locals>.body_fun"(#loc177))
#loc370 = loc("random"(#loc178))
#loc371 = loc("random"(#loc179))
#loc372 = loc("random"(#loc180))
#loc373 = loc("random"(#loc181))
#loc374 = loc("simulation.<locals>.body_fun"(#loc182))
#loc375 = loc("simulation"(#loc183))
#loc376 = loc("simulation"(#loc184))
#loc377 = loc("simulation"(#loc185))
#loc378 = loc("simulation"(#loc186))
#loc379 = loc("simulation"(#loc187))
#loc380 = loc("simulation"(#loc188))
#loc381 = loc("simulation"(#loc189))
#loc382 = loc("simulation"(#loc190))
#loc383 = loc("simulation"(#loc191))
#loc384 = loc("simulation"(#loc192))
#loc385 = loc("simulation"(#loc193))
#loc386 = loc("simulation"(#loc194))
#loc387 = loc("backpropagation"(#loc195))
#loc388 = loc("search.<locals>.body_fun"(#loc196))
#loc389 = loc("backpropagation"(#loc197))
#loc390 = loc("backpropagation.<locals>.cond_fun"(#loc198))
#loc391 = loc("backpropagation.<locals>.body_fun"(#loc199))
#loc392 = loc("backpropagation.<locals>.body_fun"(#loc200))
#loc393 = loc("backpropagation.<locals>.body_fun"(#loc201))
#loc394 = loc("backpropagation.<locals>.body_fun"(#loc202))
#loc395 = loc("backpropagation.<locals>.body_fun"(#loc203))
#loc396 = loc("backpropagation.<locals>.body_fun"(#loc204))
#loc397 = loc("backpropagation.<locals>.body_fun"(#loc205))
#loc398 = loc("backpropagation.<locals>.body_fun"(#loc206))
#loc399 = loc("backpropagation.<locals>.body_fun"(#loc207))
#loc400 = loc("backpropagation.<locals>.body_fun"(#loc208))
#loc401 = loc("backpropagation.<locals>.body_fun"(#loc209))
#loc402 = loc("argmax:"(#loc212))
#loc404 = loc(callsite(#loc223 at #loc224))
#loc405 = loc(callsite(#loc229 at #loc230))
#loc406 = loc(callsite(#loc243 at #loc227))
#loc407 = loc(callsite(#loc259 at #loc259))
#loc408 = loc("slice"(#loc260))
#loc409 = loc("squeeze"(#loc260))
#loc411 = loc(callsite(#loc283 at #loc263))
#loc412 = loc(callsite(#loc284 at #loc263))
#loc413 = loc(callsite(#loc261 at #loc286))
#loc414 = loc(callsite(#loc264 at #loc286))
#loc415 = loc(callsite(#loc265 at #loc286))
#loc416 = loc(callsite(#loc266 at #loc286))
#loc417 = loc(callsite(#loc267 at #loc286))
#loc418 = loc(callsite(#loc268 at #loc286))
#loc419 = loc(callsite(#loc269 at #loc286))
#loc420 = loc(callsite(#loc270 at #loc286))
#loc421 = loc(callsite(#loc271 at #loc286))
#loc422 = loc(callsite(#loc272 at #loc286))
#loc423 = loc(callsite(#loc273 at #loc286))
#loc424 = loc(callsite(#loc274 at #loc286))
#loc425 = loc(callsite(#loc275 at #loc286))
#loc426 = loc(callsite(#loc276 at #loc286))
#loc427 = loc(callsite(#loc277 at #loc286))
#loc428 = loc(callsite(#loc278 at #loc286))
#loc429 = loc(callsite(#loc279 at #loc286))
#loc430 = loc(callsite(#loc280 at #loc286))
#loc431 = loc(callsite(#loc281 at #loc286))
#loc432 = loc(callsite(#loc282 at #loc286))
#loc433 = loc("eq"(#loc288))
#loc434 = loc("convert_element_type"(#loc289))
#loc435 = loc("add"(#loc289))
#loc436 = loc("select_n"(#loc290))
#loc437 = loc("lt"(#loc291))
#loc438 = loc("convert_element_type"(#loc291))
#loc439 = loc("add"(#loc291))
#loc440 = loc("select_n"(#loc291))
#loc441 = loc("dynamic_slice"(#loc291))
#loc442 = loc("squeeze"(#loc291))
#loc443 = loc("lt"(#loc292))
#loc444 = loc("convert_element_type"(#loc292))
#loc445 = loc("add"(#loc292))
#loc446 = loc("select_n"(#loc292))
#loc447 = loc("dynamic_slice"(#loc292))
#loc448 = loc("squeeze"(#loc292))
#loc449 = loc("or"(#loc293))
#loc450 = loc("convert_element_type"(#loc294))
#loc451 = loc("cond"(#loc294))
#loc452 = loc(callsite(#loc295 at #loc296))
#loc453 = loc(callsite(#loc298 at #loc296))
#loc454 = loc(callsite(#loc303 at #loc304))
#loc455 = loc(callsite(#loc305 at #loc304))
#loc456 = loc(callsite(#loc307 at #loc304))
#loc457 = loc(callsite(#loc318 at #loc304))
#loc458 = loc(callsite(#loc320 at #loc304))
#loc459 = loc(callsite(#loc325 at #loc304))
#loc460 = loc(callsite(#loc329 at #loc304))
#loc461 = loc(callsite(#loc330 at #loc304))
#loc462 = loc(callsite(#loc331 at #loc304))
#loc463 = loc(callsite(#loc332 at #loc304))
#loc464 = loc(callsite(#loc333 at #loc304))
#loc465 = loc(callsite(#loc336 at #loc337))
#loc466 = loc(callsite(#loc338 at #loc337))
#loc467 = loc(callsite(#loc339 at #loc337))
#loc468 = loc(callsite(#loc340 at #loc337))
#loc469 = loc(callsite(#loc356 at #loc296))
#loc470 = loc(callsite(#loc357 at #loc296))
#loc471 = loc(callsite(#loc358 at #loc296))
#loc472 = loc(callsite(#loc360 at #loc296))
#loc473 = loc(callsite(#loc361 at #loc362))
#loc474 = loc(callsite(#loc363 at #loc362))
#loc475 = loc(callsite(#loc259 at #loc366))
#loc476 = loc(callsite(#loc368 at #loc369))
#loc477 = loc(callsite(#loc370 at #loc369))
#loc478 = loc(callsite(#loc371 at #loc369))
#loc479 = loc(callsite(#loc372 at #loc369))
#loc480 = loc(callsite(#loc373 at #loc369))
#loc481 = loc(callsite(#loc297 at #loc374))
#loc482 = loc(callsite(#loc299 at #loc374))
#loc483 = loc(callsite(#loc300 at #loc374))
#loc484 = loc(callsite(#loc301 at #loc374))
#loc485 = loc(callsite(#loc335 at #loc374))
#loc486 = loc(callsite(#loc341 at #loc374))
#loc487 = loc(callsite(#loc345 at #loc374))
#loc488 = loc(callsite(#loc375 at #loc362))
#loc489 = loc(callsite(#loc376 at #loc362))
#loc490 = loc(callsite(#loc377 at #loc362))
#loc491 = loc(callsite(#loc378 at #loc362))
#loc492 = loc(callsite(#loc379 at #loc362))
#loc493 = loc(callsite(#loc380 at #loc362))
#loc494 = loc(callsite(#loc381 at #loc362))
#loc495 = loc(callsite(#loc382 at #loc362))
#loc496 = loc(callsite(#loc383 at #loc362))
#loc497 = loc(callsite(#loc384 at #loc362))
#loc498 = loc(callsite(#loc385 at #loc362))
#loc499 = loc(callsite(#loc386 at #loc362))
#loc500 = loc(callsite(#loc387 at #loc388))
#loc501 = loc(callsite(#loc389 at #loc388))
#loc502 = loc(callsite(#loc355 at #loc399))
#loc503 = loc(callsite(#loc355 at #loc401))
#loc504 = loc("jit"(#loc259))
#loc505 = loc("iota_2x32_shape"(#loc259))
#loc506 = loc("slice"(#loc259))
#loc507 = loc("squeeze"(#loc259))
#loc508 = loc("stack"(#loc259))
#loc509 = loc("xor"(#loc259))
#loc510 = loc("add"(#loc259))
#loc511 = loc("while/body/closed_call"(#loc259))
#loc512 = loc("shift_left"(#loc259))
#loc513 = loc("sub"(#loc259))
#loc514 = loc("shift_right_logical"(#loc259))
#loc515 = loc("or"(#loc259))
#loc516 = loc("convert_element_type"(#loc259))
#loc517 = loc("jit(pick_move)"(#loc404))
#loc518 = loc(callsite(#loc227 at #loc404))
#loc519 = loc(callsite(#loc230 at #loc404))
#loc520 = loc(callsite(#loc228 at #loc405))
#loc521 = loc(callsite(#loc406 at #loc406))
#loc522 = loc(callsite(#loc253 at #loc404))
#loc523 = loc(callsite(#loc254 at #loc404))
#loc524 = loc(callsite(#loc255 at #loc404))
#loc525 = loc("while/body/closed_call"(#loc406))
#loc526 = loc("jit(_threefry_split)"(#loc407))
#loc527 = loc(callsite(#loc261 at #loc410))
#loc528 = loc(callsite(#loc264 at #loc410))
#loc529 = loc(callsite(#loc265 at #loc410))
#loc530 = loc(callsite(#loc266 at #loc410))
#loc531 = loc(callsite(#loc267 at #loc410))
#loc532 = loc(callsite(#loc268 at #loc410))
#loc533 = loc(callsite(#loc269 at #loc410))
#loc534 = loc(callsite(#loc270 at #loc410))
#loc535 = loc(callsite(#loc271 at #loc410))
#loc536 = loc(callsite(#loc272 at #loc410))
#loc537 = loc(callsite(#loc273 at #loc410))
#loc538 = loc(callsite(#loc274 at #loc410))
#loc539 = loc(callsite(#loc275 at #loc410))
#loc540 = loc(callsite(#loc276 at #loc410))
#loc541 = loc(callsite(#loc277 at #loc410))
#loc542 = loc(callsite(#loc278 at #loc410))
#loc543 = loc(callsite(#loc279 at #loc410))
#loc544 = loc(callsite(#loc280 at #loc410))
#loc545 = loc(callsite(#loc281 at #loc410))
#loc547 = loc("lt"(#loc411))
#loc548 = loc("add"(#loc411))
#loc549 = loc("select_n"(#loc411))
#loc550 = loc("dynamic_slice"(#loc411))
#loc551 = loc("squeeze"(#loc411))
#loc552 = loc("while"(#loc412))
#loc553 = loc(callsite(#loc285 at #loc412))
#loc554 = loc(callsite(#loc413 at #loc412))
#loc555 = loc(callsite(#loc248 at #loc414))
#loc556 = loc(callsite(#loc415 at #loc412))
#loc557 = loc(callsite(#loc416 at #loc412))
#loc558 = loc(callsite(#loc417 at #loc412))
#loc559 = loc(callsite(#loc418 at #loc412))
#loc560 = loc(callsite(#loc419 at #loc412))
#loc561 = loc(callsite(#loc420 at #loc412))
#loc562 = loc(callsite(#loc421 at #loc412))
#loc563 = loc(callsite(#loc422 at #loc412))
#loc564 = loc(callsite(#loc423 at #loc412))
#loc565 = loc(callsite(#loc424 at #loc412))
#loc566 = loc(callsite(#loc425 at #loc412))
#loc567 = loc(callsite(#loc426 at #loc412))
#loc568 = loc(callsite(#loc427 at #loc412))
#loc569 = loc(callsite(#loc428 at #loc412))
#loc570 = loc(callsite(#loc429 at #loc412))
#loc571 = loc(callsite(#loc430 at #loc412))
#loc572 = loc(callsite(#loc431 at #loc412))
#loc573 = loc(callsite(#loc432 at #loc412))
#loc574 = loc(callsite(#loc287 at #loc412))
#loc575 = loc(callsite(#loc248 at #loc452))
#loc576 = loc(callsite(#loc297 at #loc453))
#loc577 = loc(callsite(#loc299 at #loc453))
#loc578 = loc(callsite(#loc300 at #loc453))
#loc579 = loc(callsite(#loc301 at #loc453))
#loc580 = loc(callsite(#loc306 at #loc456))
#loc581 = loc(callsite(#loc309 at #loc456))
#loc582 = loc(callsite(#loc310 at #loc456))
#loc583 = loc(callsite(#loc311 at #loc456))
#loc584 = loc(callsite(#loc312 at #loc456))
#loc585 = loc(callsite(#loc313 at #loc456))
#loc586 = loc(callsite(#loc314 at #loc456))
#loc587 = loc(callsite(#loc315 at #loc456))
#loc588 = loc(callsite(#loc316 at #loc456))
#loc589 = loc(callsite(#loc317 at #loc457))
#loc590 = loc(callsite(#loc319 at #loc458))
#loc591 = loc(callsite(#loc321 at #loc458))
#loc592 = loc(callsite(#loc322 at #loc458))
#loc593 = loc(callsite(#loc323 at #loc458))
#loc594 = loc(callsite(#loc324 at #loc459))
#loc595 = loc(callsite(#loc326 at #loc459))
#loc596 = loc(callsite(#loc327 at #loc459))
#loc597 = loc(callsite(#loc328 at #loc459))
#loc598 = loc(callsite(#loc335 at #loc453))
#loc599 = loc(callsite(#loc341 at #loc453))
#loc600 = loc(callsite(#loc345 at #loc453))
#loc601 = loc(callsite(#loc355 at #loc469))
#loc602 = loc(callsite(#loc355 at #loc470))
#loc603 = loc(callsite(#loc355 at #loc471))
#loc604 = loc(callsite(#loc359 at #loc472))
#loc605 = loc(callsite(#loc248 at #loc473))
#loc606 = loc("while"(#loc474))
#loc607 = loc(callsite(#loc364 at #loc474))
#loc608 = loc(callsite(#loc365 at #loc474))
#loc609 = loc(callsite(#loc475 at #loc474))
#loc610 = loc(callsite(#loc367 at #loc474))
#loc611 = loc(callsite(#loc476 at #loc474))
#loc612 = loc(callsite(#loc477 at #loc474))
#loc613 = loc(callsite(#loc478 at #loc474))
#loc614 = loc(callsite(#loc479 at #loc474))
#loc615 = loc(callsite(#loc480 at #loc474))
#loc616 = loc(callsite(#loc481 at #loc474))
#loc617 = loc(callsite(#loc482 at #loc474))
#loc618 = loc(callsite(#loc483 at #loc474))
#loc619 = loc(callsite(#loc484 at #loc474))
#loc620 = loc(callsite(#loc302 at #loc484))
#loc621 = loc(callsite(#loc454 at #loc484))
#loc622 = loc(callsite(#loc455 at #loc484))
#loc623 = loc(callsite(#loc460 at #loc484))
#loc624 = loc(callsite(#loc461 at #loc484))
#loc625 = loc(callsite(#loc462 at #loc484))
#loc626 = loc(callsite(#loc463 at #loc484))
#loc627 = loc(callsite(#loc464 at #loc484))
#loc628 = loc(callsite(#loc334 at #loc484))
#loc629 = loc(callsite(#loc485 at #loc474))
#loc630 = loc(callsite(#loc465 at #loc485))
#loc631 = loc(callsite(#loc466 at #loc485))
#loc632 = loc(callsite(#loc467 at #loc485))
#loc633 = loc(callsite(#loc468 at #loc485))
#loc634 = loc(callsite(#loc486 at #loc474))
#loc635 = loc(callsite(#loc342 at #loc486))
#loc636 = loc(callsite(#loc344 at #loc487))
#loc637 = loc(callsite(#loc355 at #loc488))
#loc638 = loc("lt"(#loc489))
#loc639 = loc("add"(#loc489))
#loc640 = loc("select_n"(#loc489))
#loc641 = loc("dynamic_slice"(#loc489))
#loc642 = loc("squeeze"(#loc489))
#loc643 = loc("lt"(#loc490))
#loc644 = loc("add"(#loc490))
#loc645 = loc("select_n"(#loc490))
#loc646 = loc("dynamic_slice"(#loc490))
#loc647 = loc("squeeze"(#loc490))
#loc648 = loc("sub"(#loc491))
#loc649 = loc("lt"(#loc492))
#loc650 = loc("add"(#loc492))
#loc651 = loc("select_n"(#loc492))
#loc652 = loc("dynamic_slice"(#loc492))
#loc653 = loc("squeeze"(#loc492))
#loc654 = loc("add"(#loc493))
#loc655 = loc("div"(#loc494))
#loc656 = loc("add"(#loc495))
#loc657 = loc(callsite(#loc355 at #loc496))
#loc658 = loc("lt"(#loc497))
#loc659 = loc("add"(#loc497))
#loc660 = loc("select_n"(#loc497))
#loc661 = loc("dynamic_slice"(#loc497))
#loc662 = loc("squeeze"(#loc497))
#loc663 = loc("add"(#loc498))
#loc664 = loc(callsite(#loc355 at #loc499))
#loc665 = loc("lt"(#loc500))
#loc666 = loc("add"(#loc500))
#loc667 = loc("select_n"(#loc500))
#loc668 = loc("dynamic_slice"(#loc500))
#loc669 = loc("squeeze"(#loc500))
#loc670 = loc("while"(#loc501))
#loc671 = loc(callsite(#loc390 at #loc501))
#loc672 = loc(callsite(#loc391 at #loc501))
#loc673 = loc(callsite(#loc392 at #loc501))
#loc674 = loc(callsite(#loc393 at #loc501))
#loc675 = loc(callsite(#loc394 at #loc501))
#loc676 = loc(callsite(#loc395 at #loc501))
#loc677 = loc(callsite(#loc396 at #loc501))
#loc678 = loc(callsite(#loc397 at #loc501))
#loc679 = loc(callsite(#loc398 at #loc501))
#loc680 = loc(callsite(#loc502 at #loc501))
#loc681 = loc(callsite(#loc400 at #loc501))
#loc682 = loc(callsite(#loc503 at #loc501))
#loc683 = loc("jit:"(#loc504))
#loc684 = loc("while"(#loc407))
#loc685 = loc(callsite(#loc407 at #loc259))
#loc686 = loc("closed_call:"(#loc511))
#loc687 = loc("cond/branch_0_fun/jit"(#loc455))
#loc688 = loc("cond/branch_0_fun/jit"(#loc461))
#loc689 = loc("while/body/jit"(#loc480))
#loc690 = loc(callsite(#loc226 at #loc518))
#loc691 = loc(callsite(#loc229 at #loc519))
#loc692 = loc(callsite(#loc232 at #loc519))
#loc693 = loc(callsite(#loc234 at #loc519))
#loc694 = loc(callsite(#loc235 at #loc519))
#loc695 = loc(callsite(#loc236 at #loc519))
#loc696 = loc(callsite(#loc237 at #loc519))
#loc697 = loc(callsite(#loc238 at #loc519))
#loc698 = loc(callsite(#loc242 at #loc519))
#loc699 = loc(callsite(#loc243 at #loc518))
#loc700 = loc("jit(pick_move)/slice"(#loc522))
#loc701 = loc("jit(pick_move)/squeeze"(#loc522))
#loc702 = loc("jit(pick_move)/convert_element_type"(#loc523))
#loc703 = loc("jit(pick_move)/convert_element_type"(#loc524))
#loc704 = loc("closed_call:"(#loc525))
#loc705 = loc("lt"(#loc527))
#loc706 = loc("add"(#loc527))
#loc707 = loc("select_n"(#loc527))
#loc708 = loc("dynamic_slice"(#loc527))
#loc709 = loc("squeeze"(#loc527))
#loc710 = loc(callsite(#loc248 at #loc528))
#loc711 = loc("ne"(#loc529))
#loc712 = loc("jit(_where)"(#loc530))
#loc713 = loc("lt"(#loc531))
#loc714 = loc("add"(#loc531))
#loc715 = loc("select_n"(#loc531))
#loc716 = loc("broadcast_in_dim"(#loc531))
#loc717 = loc("concatenate"(#loc531))
#loc718 = loc("gather"(#loc531))
#loc719 = loc("lt"(#loc532))
#loc720 = loc("add"(#loc532))
#loc721 = loc("select_n"(#loc532))
#loc722 = loc("dynamic_slice"(#loc532))
#loc723 = loc("squeeze"(#loc532))
#loc724 = loc("add"(#loc533))
#loc725 = loc("log"(#loc534))
#loc726 = loc("lt"(#loc535))
#loc727 = loc("add"(#loc535))
#loc728 = loc("select_n"(#loc535))
#loc729 = loc("broadcast_in_dim"(#loc535))
#loc730 = loc("gather"(#loc535))
#loc731 = loc("add"(#loc536))
#loc732 = loc("div"(#loc537))
#loc733 = loc("sqrt"(#loc538))
#loc734 = loc("convert_element_type"(#loc539))
#loc735 = loc("mul"(#loc539))
#loc736 = loc("add"(#loc540))
#loc737 = loc("not"(#loc541))
#loc738 = loc("convert_element_type"(#loc542))
#loc739 = loc("and"(#loc542))
#loc740 = loc("jit(_where)"(#loc543))
#loc741 = loc("not"(#loc544))
#loc742 = loc("jit(_where)"(#loc545))
#loc743 = loc("while/cond/ne"(#loc553))
#loc744 = loc("while/body/convert_element_type"(#loc554))
#loc745 = loc("while/body/lt"(#loc554))
#loc746 = loc("while/body/add"(#loc554))
#loc747 = loc("while/body/select_n"(#loc554))
#loc748 = loc("while/body/dynamic_slice"(#loc554))
#loc749 = loc("while/body/squeeze"(#loc554))
#loc750 = loc(callsite(#loc247 at #loc555))
#loc751 = loc("while/body/ne"(#loc556))
#loc752 = loc("while/body/jit(_where)"(#loc557))
#loc753 = loc("while/body/lt"(#loc558))
#loc754 = loc("while/body/add"(#loc558))
#loc755 = loc("while/body/select_n"(#loc558))
#loc756 = loc("while/body/broadcast_in_dim"(#loc558))
#loc757 = loc("while/body/concatenate"(#loc558))
#loc758 = loc("while/body/gather"(#loc558))
#loc759 = loc("while/body/lt"(#loc559))
#loc760 = loc("while/body/convert_element_type"(#loc559))
#loc761 = loc("while/body/add"(#loc559))
#loc762 = loc("while/body/select_n"(#loc559))
#loc763 = loc("while/body/dynamic_slice"(#loc559))
#loc764 = loc("while/body/squeeze"(#loc559))
#loc765 = loc("while/body/add"(#loc560))
#loc766 = loc("while/body/log"(#loc561))
#loc767 = loc("while/body/lt"(#loc562))
#loc768 = loc("while/body/add"(#loc562))
#loc769 = loc("while/body/select_n"(#loc562))
#loc770 = loc("while/body/broadcast_in_dim"(#loc562))
#loc771 = loc("while/body/gather"(#loc562))
#loc772 = loc("while/body/add"(#loc563))
#loc773 = loc("while/body/div"(#loc564))
#loc774 = loc("while/body/sqrt"(#loc565))
#loc775 = loc("while/body/convert_element_type"(#loc566))
#loc776 = loc("while/body/mul"(#loc566))
#loc777 = loc("while/body/add"(#loc567))
#loc778 = loc("while/body/not"(#loc568))
#loc779 = loc("while/body/convert_element_type"(#loc569))
#loc780 = loc("while/body/and"(#loc569))
#loc781 = loc("while/body/jit(_where)"(#loc570))
#loc782 = loc("while/body/not"(#loc571))
#loc783 = loc("while/body/jit(_where)"(#loc572))
#loc784 = loc("while/body"(#loc573))
#loc785 = loc("while/body/convert_element_type"(#loc574))
#loc786 = loc("while/body/lt"(#loc574))
#loc787 = loc("while/body/add"(#loc574))
#loc788 = loc("while/body/select_n"(#loc574))
#loc789 = loc("while/body/dynamic_slice"(#loc574))
#loc790 = loc("while/body/squeeze"(#loc574))
#loc791 = loc(callsite(#loc247 at #loc575))
#loc792 = loc(callsite(#loc576 at #loc294))
#loc793 = loc(callsite(#loc577 at #loc294))
#loc794 = loc(callsite(#loc578 at #loc294))
#loc795 = loc(callsite(#loc579 at #loc294))
#loc796 = loc(callsite(#loc302 at #loc579))
#loc797 = loc(callsite(#loc454 at #loc579))
#loc798 = loc(callsite(#loc455 at #loc579))
#loc799 = loc(callsite(#loc580 at #loc579))
#loc800 = loc(callsite(#loc581 at #loc579))
#loc801 = loc(callsite(#loc582 at #loc579))
#loc802 = loc(callsite(#loc583 at #loc579))
#loc803 = loc(callsite(#loc584 at #loc579))
#loc804 = loc(callsite(#loc585 at #loc579))
#loc805 = loc(callsite(#loc586 at #loc579))
#loc806 = loc(callsite(#loc587 at #loc579))
#loc807 = loc(callsite(#loc588 at #loc579))
#loc808 = loc(callsite(#loc589 at #loc579))
#loc809 = loc(callsite(#loc590 at #loc579))
#loc810 = loc(callsite(#loc591 at #loc579))
#loc811 = loc(callsite(#loc592 at #loc579))
#loc812 = loc(callsite(#loc593 at #loc579))
#loc813 = loc(callsite(#loc594 at #loc579))
#loc814 = loc(callsite(#loc595 at #loc579))
#loc815 = loc(callsite(#loc596 at #loc579))
#loc816 = loc(callsite(#loc597 at #loc579))
#loc817 = loc(callsite(#loc460 at #loc579))
#loc818 = loc(callsite(#loc461 at #loc579))
#loc819 = loc(callsite(#loc462 at #loc579))
#loc820 = loc(callsite(#loc463 at #loc579))
#loc821 = loc(callsite(#loc464 at #loc579))
#loc822 = loc(callsite(#loc334 at #loc579))
#loc823 = loc(callsite(#loc598 at #loc294))
#loc824 = loc(callsite(#loc465 at #loc598))
#loc825 = loc(callsite(#loc466 at #loc598))
#loc826 = loc(callsite(#loc467 at #loc598))
#loc827 = loc(callsite(#loc468 at #loc598))
#loc828 = loc(callsite(#loc599 at #loc294))
#loc829 = loc(callsite(#loc342 at #loc599))
#loc830 = loc(callsite(#loc344 at #loc600))
#loc831 = loc(callsite(#loc601 at #loc294))
#loc832 = loc(callsite(#loc602 at #loc294))
#loc833 = loc(callsite(#loc603 at #loc294))
#loc834 = loc(callsite(#loc355 at #loc604))
#loc835 = loc(callsite(#loc247 at #loc605))
#loc836 = loc("while/cond/or"(#loc607))
#loc837 = loc("while/cond/not"(#loc608))
#loc838 = loc("while/body/jit(_threefry_split)"(#loc609))
#loc839 = loc("while/body/slice"(#loc610))
#loc840 = loc("while/body/squeeze"(#loc610))
#loc841 = loc("while/body/convert_element_type"(#loc611))
#loc842 = loc("while/body/reduce_sum"(#loc611))
#loc843 = loc("while/body/convert_element_type"(#loc612))
#loc844 = loc("while/body/div"(#loc612))
#loc845 = loc("while/body/log"(#loc613))
#loc846 = loc("while/body/max"(#loc614))
#loc847 = loc("while/body/jit(_gumbel)"(#loc615))
#loc848 = loc("while/body/add"(#loc615))
#loc849 = loc("while/body"(#loc615))
#loc850 = loc("while/body/lt"(#loc616))
#loc851 = loc("while/body/add"(#loc616))
#loc852 = loc("while/body/select_n"(#loc616))
#loc853 = loc("while/body/dynamic_slice"(#loc616))
#loc854 = loc("while/body/squeeze"(#loc616))
#loc855 = loc("while/body/not"(#loc617))
#loc856 = loc("while/body/or"(#loc618))
#loc857 = loc("while/body/convert_element_type"(#loc619))
#loc858 = loc("while/body/cond"(#loc619))
#loc859 = loc(callsite(#loc620 at #loc474))
#loc860 = loc(callsite(#loc621 at #loc474))
#loc861 = loc(callsite(#loc622 at #loc474))
#loc862 = loc(callsite(#loc580 at #loc484))
#loc863 = loc(callsite(#loc581 at #loc484))
#loc864 = loc(callsite(#loc582 at #loc484))
#loc865 = loc(callsite(#loc583 at #loc484))
#loc866 = loc(callsite(#loc584 at #loc484))
#loc867 = loc(callsite(#loc585 at #loc484))
#loc868 = loc(callsite(#loc586 at #loc484))
#loc869 = loc(callsite(#loc587 at #loc484))
#loc870 = loc(callsite(#loc588 at #loc484))
#loc871 = loc(callsite(#loc589 at #loc484))
#loc872 = loc(callsite(#loc590 at #loc484))
#loc873 = loc(callsite(#loc591 at #loc484))
#loc874 = loc(callsite(#loc592 at #loc484))
#loc875 = loc(callsite(#loc593 at #loc484))
#loc876 = loc(callsite(#loc594 at #loc484))
#loc877 = loc(callsite(#loc595 at #loc484))
#loc878 = loc(callsite(#loc596 at #loc484))
#loc879 = loc(callsite(#loc597 at #loc484))
#loc880 = loc(callsite(#loc623 at #loc474))
#loc881 = loc(callsite(#loc624 at #loc474))
#loc882 = loc(callsite(#loc625 at #loc474))
#loc883 = loc(callsite(#loc626 at #loc474))
#loc884 = loc(callsite(#loc627 at #loc474))
#loc885 = loc(callsite(#loc628 at #loc474))
#loc886 = loc("while/body/convert_element_type"(#loc629))
#loc887 = loc("while/body/cond"(#loc629))
#loc888 = loc(callsite(#loc630 at #loc474))
#loc889 = loc(callsite(#loc631 at #loc474))
#loc890 = loc(callsite(#loc632 at #loc474))
#loc891 = loc(callsite(#loc633 at #loc474))
#loc892 = loc("while/body/convert_element_type"(#loc634))
#loc893 = loc("while/body/cond"(#loc634))
#loc894 = loc(callsite(#loc635 at #loc474))
#loc895 = loc(callsite(#loc343 at #loc636))
#loc896 = loc(callsite(#loc346 at #loc636))
#loc897 = loc(callsite(#loc347 at #loc636))
#loc898 = loc(callsite(#loc349 at #loc636))
#loc899 = loc("lt"(#loc637))
#loc900 = loc("add"(#loc637))
#loc901 = loc("select_n"(#loc637))
#loc902 = loc("broadcast_in_dim"(#loc637))
#loc903 = loc("scatter"(#loc637))
#loc904 = loc("lt"(#loc657))
#loc905 = loc("add"(#loc657))
#loc906 = loc("select_n"(#loc657))
#loc907 = loc("broadcast_in_dim"(#loc657))
#loc908 = loc("scatter"(#loc657))
#loc909 = loc("lt"(#loc664))
#loc910 = loc("add"(#loc664))
#loc911 = loc("select_n"(#loc664))
#loc912 = loc("broadcast_in_dim"(#loc664))
#loc913 = loc("scatter"(#loc664))
#loc914 = loc("while/cond/ne"(#loc671))
#loc915 = loc("while/body/lt"(#loc672))
#loc916 = loc("while/body/add"(#loc672))
#loc917 = loc("while/body/select_n"(#loc672))
#loc918 = loc("while/body/dynamic_slice"(#loc672))
#loc919 = loc("while/body/squeeze"(#loc672))
#loc920 = loc("while/body/lt"(#loc673))
#loc921 = loc("while/body/convert_element_type"(#loc673))
#loc922 = loc("while/body/add"(#loc673))
#loc923 = loc("while/body/select_n"(#loc673))
#loc924 = loc("while/body/dynamic_slice"(#loc673))
#loc925 = loc("while/body/squeeze"(#loc673))
#loc926 = loc("while/body/convert_element_type"(#loc674))
#loc927 = loc("while/body/lt"(#loc674))
#loc928 = loc("while/body/add"(#loc674))
#loc929 = loc("while/body/select_n"(#loc674))
#loc930 = loc("while/body/dynamic_slice"(#loc674))
#loc931 = loc("while/body/squeeze"(#loc674))
#loc932 = loc("while/body/convert_element_type"(#loc675))
#loc933 = loc("while/body/lt"(#loc675))
#loc934 = loc("while/body/add"(#loc675))
#loc935 = loc("while/body/select_n"(#loc675))
#loc936 = loc("while/body/dynamic_slice"(#loc675))
#loc937 = loc("while/body/squeeze"(#loc675))
#loc938 = loc("while/body/sub"(#loc676))
#loc939 = loc("while/body/add"(#loc677))
#loc940 = loc("while/body/div"(#loc678))
#loc941 = loc("while/body/add"(#loc679))
#loc942 = loc("while/body/lt"(#loc680))
#loc943 = loc("while/body/add"(#loc680))
#loc944 = loc("while/body/select_n"(#loc680))
#loc945 = loc("while/body/convert_element_type"(#loc680))
#loc946 = loc("while/body/broadcast_in_dim"(#loc680))
#loc947 = loc("while/body/scatter"(#loc680))
#loc948 = loc("while/body/add"(#loc681))
#loc949 = loc("while/body/lt"(#loc682))
#loc950 = loc("while/body/add"(#loc682))
#loc951 = loc("while/body/select_n"(#loc682))
#loc952 = loc("while/body/convert_element_type"(#loc682))
#loc953 = loc("while/body/broadcast_in_dim"(#loc682))
#loc954 = loc("while/body/scatter"(#loc682))
#loc955 = loc("while/cond/lt"(#loc685))
#loc956 = loc("while/body/closed_call"(#loc685))
#loc957 = loc("while/body/add"(#loc685))
#loc958 = loc("jit"(#loc530))
#loc959 = loc("jit"(#loc543))
#loc960 = loc("iota"(#loc546))
#loc961 = loc("reduce"(#loc546))
#loc962 = loc(callsite(#loc546 at #loc546))
#loc963 = loc("jit:"(#loc687))
#loc964 = loc("jit:"(#loc688))
#loc965 = loc("jit:"(#loc689))
#loc966 = loc(callsite(#loc225 at #loc690))
#loc967 = loc(callsite(#loc228 at #loc691))
#loc968 = loc(callsite(#loc231 at #loc692))
#loc969 = loc(callsite(#loc233 at #loc692))
#loc970 = loc("jit(pick_move)/broadcast_in_dim"(#loc693))
#loc971 = loc("jit(pick_move)/broadcast_in_dim"(#loc694))
#loc972 = loc("jit(pick_move)/broadcast_in_dim"(#loc695))
#loc973 = loc("jit(pick_move)/broadcast_in_dim"(#loc696))
#loc974 = loc("jit(pick_move)/broadcast_in_dim"(#loc697))
#loc975 = loc(callsite(#loc241 at #loc691))
#loc976 = loc("jit(pick_move)/broadcast_in_dim"(#loc698))
#loc977 = loc(callsite(#loc406 at #loc699))
#loc978 = loc(callsite(#loc521 at #loc699))
#loc979 = loc(callsite(#loc244 at #loc690))
#loc980 = loc(callsite(#loc245 at #loc690))
#loc981 = loc(callsite(#loc246 at #loc690))
#loc982 = loc(callsite(#loc249 at #loc690))
#loc983 = loc(callsite(#loc250 at #loc690))
#loc984 = loc(callsite(#loc251 at #loc690))
#loc985 = loc(callsite(#loc252 at #loc690))
#loc986 = loc(callsite(#loc247 at #loc710))
#loc987 = loc(callsite(#loc750 at #loc412))
#loc988 = loc(callsite(#loc791 at #loc294))
#loc989 = loc("cond/branch_0_fun/lt"(#loc792))
#loc990 = loc("cond/branch_0_fun/add"(#loc792))
#loc991 = loc("cond/branch_0_fun/select_n"(#loc792))
#loc992 = loc("cond/branch_0_fun/dynamic_slice"(#loc792))
#loc993 = loc("cond/branch_0_fun/squeeze"(#loc792))
#loc994 = loc("cond/branch_0_fun/not"(#loc793))
#loc995 = loc("cond/branch_0_fun/or"(#loc794))
#loc996 = loc("cond/branch_0_fun/convert_element_type"(#loc795))
#loc997 = loc("cond/branch_0_fun/cond"(#loc795))
#loc998 = loc(callsite(#loc796 at #loc294))
#loc999 = loc(callsite(#loc797 at #loc294))
#loc1000 = loc(callsite(#loc798 at #loc294))
#loc1001 = loc(callsite(#loc799 at #loc294))
#loc1002 = loc(callsite(#loc800 at #loc294))
#loc1003 = loc(callsite(#loc801 at #loc294))
#loc1004 = loc(callsite(#loc802 at #loc294))
#loc1005 = loc(callsite(#loc803 at #loc294))
#loc1006 = loc(callsite(#loc804 at #loc294))
#loc1007 = loc(callsite(#loc805 at #loc294))
#loc1008 = loc(callsite(#loc806 at #loc294))
#loc1009 = loc(callsite(#loc807 at #loc294))
#loc1010 = loc(callsite(#loc808 at #loc294))
#loc1011 = loc(callsite(#loc809 at #loc294))
#loc1012 = loc(callsite(#loc810 at #loc294))
#loc1013 = loc(callsite(#loc811 at #loc294))
#loc1014 = loc(callsite(#loc812 at #loc294))
#loc1015 = loc(callsite(#loc813 at #loc294))
#loc1016 = loc(callsite(#loc814 at #loc294))
#loc1017 = loc(callsite(#loc815 at #loc294))
#loc1018 = loc(callsite(#loc816 at #loc294))
#loc1019 = loc(callsite(#loc817 at #loc294))
#loc1020 = loc(callsite(#loc818 at #loc294))
#loc1021 = loc(callsite(#loc819 at #loc294))
#loc1022 = loc(callsite(#loc820 at #loc294))
#loc1023 = loc(callsite(#loc821 at #loc294))
#loc1024 = loc(callsite(#loc822 at #loc294))
#loc1025 = loc("cond/branch_0_fun/convert_element_type"(#loc823))
#loc1026 = loc("cond/branch_0_fun/cond"(#loc823))
#loc1027 = loc(callsite(#loc824 at #loc294))
#loc1028 = loc(callsite(#loc825 at #loc294))
#loc1029 = loc(callsite(#loc826 at #loc294))
#loc1030 = loc(callsite(#loc827 at #loc294))
#loc1031 = loc("cond/branch_0_fun/convert_element_type"(#loc828))
#loc1032 = loc("cond/branch_0_fun/cond"(#loc828))
#loc1033 = loc(callsite(#loc829 at #loc294))
#loc1034 = loc(callsite(#loc343 at #loc830))
#loc1035 = loc(callsite(#loc346 at #loc830))
#loc1036 = loc(callsite(#loc347 at #loc830))
#loc1037 = loc(callsite(#loc349 at #loc830))
#loc1038 = loc("cond/branch_0_fun/lt"(#loc831))
#loc1039 = loc("cond/branch_0_fun/add"(#loc831))
#loc1040 = loc("cond/branch_0_fun/select_n"(#loc831))
#loc1041 = loc("cond/branch_0_fun/broadcast_in_dim"(#loc831))
#loc1042 = loc("cond/branch_0_fun/scatter"(#loc831))
#loc1043 = loc("cond/branch_0_fun/lt"(#loc832))
#loc1044 = loc("cond/branch_0_fun/add"(#loc832))
#loc1045 = loc("cond/branch_0_fun/select_n"(#loc832))
#loc1046 = loc("cond/branch_0_fun/broadcast_in_dim"(#loc832))
#loc1047 = loc("cond/branch_0_fun/convert_element_type"(#loc832))
#loc1048 = loc("cond/branch_0_fun/scatter"(#loc832))
#loc1049 = loc("cond/branch_0_fun/lt"(#loc833))
#loc1050 = loc("cond/branch_0_fun/add"(#loc833))
#loc1051 = loc("cond/branch_0_fun/select_n"(#loc833))
#loc1052 = loc("cond/branch_0_fun/convert_element_type"(#loc833))
#loc1053 = loc("cond/branch_0_fun/broadcast_in_dim"(#loc833))
#loc1054 = loc("cond/branch_0_fun/concatenate"(#loc833))
#loc1055 = loc("cond/branch_0_fun/scatter"(#loc833))
#loc1056 = loc(callsite(#loc834 at #loc294))
#loc1057 = loc("lt"(#loc835))
#loc1058 = loc("add"(#loc835))
#loc1059 = loc("select_n"(#loc835))
#loc1060 = loc("dynamic_slice"(#loc835))
#loc1061 = loc("squeeze"(#loc835))
#loc1062 = loc("while/body/cond/branch_0_fun/add"(#loc859))
#loc1063 = loc("while/body/cond/branch_0_fun/add"(#loc860))
#loc1064 = loc("while/body/cond/branch_0_fun/jit(remainder)"(#loc861))
#loc1065 = loc(callsite(#loc862 at #loc474))
#loc1066 = loc(callsite(#loc863 at #loc474))
#loc1067 = loc(callsite(#loc864 at #loc474))
#loc1068 = loc(callsite(#loc865 at #loc474))
#loc1069 = loc(callsite(#loc866 at #loc474))
#loc1070 = loc(callsite(#loc867 at #loc474))
#loc1071 = loc(callsite(#loc868 at #loc474))
#loc1072 = loc(callsite(#loc869 at #loc474))
#loc1073 = loc(callsite(#loc870 at #loc474))
#loc1074 = loc(callsite(#loc871 at #loc474))
#loc1075 = loc(callsite(#loc872 at #loc474))
#loc1076 = loc(callsite(#loc873 at #loc474))
#loc1077 = loc(callsite(#loc874 at #loc474))
#loc1078 = loc(callsite(#loc875 at #loc474))
#loc1079 = loc(callsite(#loc876 at #loc474))
#loc1080 = loc(callsite(#loc877 at #loc474))
#loc1081 = loc(callsite(#loc878 at #loc474))
#loc1082 = loc(callsite(#loc879 at #loc474))
#loc1083 = loc("while/body/cond/branch_0_fun/ne"(#loc880))
#loc1084 = loc("while/body/cond/branch_0_fun/jit(_flip)"(#loc881))
#loc1085 = loc("while/body/cond/branch_0_fun/select_n"(#loc882))
#loc1086 = loc("while/body/cond/branch_0_fun/broadcast_in_dim"(#loc883))
#loc1087 = loc("while/body/cond/branch_0_fun/select_n"(#loc884))
#loc1088 = loc("while/body/cond/branch_1_fun/broadcast_in_dim"(#loc885))
#loc1089 = loc("while/body/cond/branch_1_fun/broadcast_in_dim"(#loc888))
#loc1090 = loc("while/body/cond/branch_1_fun/mul"(#loc889))
#loc1091 = loc("while/body/cond/branch_1_fun/mul"(#loc890))
#loc1092 = loc("while/body/cond/branch_1_fun/lt"(#loc891))
#loc1093 = loc("while/body/cond/branch_1_fun/add"(#loc891))
#loc1094 = loc("while/body/cond/branch_1_fun/select_n"(#loc891))
#loc1095 = loc("while/body/cond/branch_1_fun/broadcast_in_dim"(#loc891))
#loc1096 = loc("while/body/cond/branch_1_fun/scatter"(#loc891))
#loc1097 = loc("while/body/cond/branch_1_fun/broadcast_in_dim"(#loc894))
#loc1098 = loc(callsite(#loc895 at #loc474))
#loc1099 = loc(callsite(#loc896 at #loc474))
#loc1100 = loc(callsite(#loc897 at #loc474))
#loc1101 = loc(callsite(#loc348 at #loc898))
#loc1102 = loc(callsite(#loc350 at #loc898))
#loc1103 = loc(callsite(#loc352 at #loc898))
#loc1104 = loc(callsite(#loc354 at #loc898))
#loc1105 = loc("jit:"(#loc958))
#loc1106 = loc("jit:"(#loc959))
#loc1107 = loc("gt"(#loc962))
#loc1108 = loc("ne"(#loc962))
#loc1109 = loc("or"(#loc962))
#loc1110 = loc("eq"(#loc962))
#loc1111 = loc("lt"(#loc962))
#loc1112 = loc("and"(#loc962))
#loc1113 = loc("select_n"(#loc962))
#loc1114 = loc("jit(pick_move)/convert_element_type"(#loc966))
#loc1115 = loc("jit(pick_move)/random_seed"(#loc967))
#loc1116 = loc("jit(pick_move)/broadcast_in_dim"(#loc968))
#loc1117 = loc("jit(pick_move)/broadcast_in_dim"(#loc969))
#loc1118 = loc("jit(pick_move)/reshape"(#loc969))
#loc1119 = loc(callsite(#loc520 at #loc967))
#loc1120 = loc(callsite(#loc240 at #loc975))
#loc1121 = loc("jit(pick_move)/while"(#loc977))
#loc1122 = loc("jit(pick_move)/while/cond/lt"(#loc978))
#loc1123 = loc("jit(pick_move)/while/body/closed_call"(#loc978))
#loc1124 = loc("jit(pick_move)/while/body/add"(#loc978))
#loc1125 = loc("jit(pick_move)/lt"(#loc979))
#loc1126 = loc("jit(pick_move)/add"(#loc979))
#loc1127 = loc("jit(pick_move)/select_n"(#loc979))
#loc1128 = loc("jit(pick_move)/dynamic_slice"(#loc979))
#loc1129 = loc("jit(pick_move)/squeeze"(#loc979))
#loc1130 = loc("jit(pick_move)/ne"(#loc980))
#loc1131 = loc("jit(pick_move)/jit(_where)"(#loc981))
#loc1132 = loc(callsite(#loc248 at #loc982))
#loc1133 = loc("jit(pick_move)/and"(#loc966))
#loc1134 = loc("jit(pick_move)/lt"(#loc983))
#loc1135 = loc("jit(pick_move)/add"(#loc983))
#loc1136 = loc("jit(pick_move)/select_n"(#loc983))
#loc1137 = loc("jit(pick_move)/broadcast_in_dim"(#loc983))
#loc1138 = loc("jit(pick_move)/gather"(#loc983))
#loc1139 = loc("jit(pick_move)/jit(_where)"(#loc984))
#loc1140 = loc("jit(pick_move)"(#loc985))
#loc1141 = loc("lt"(#loc986))
#loc1142 = loc("add"(#loc986))
#loc1143 = loc("select_n"(#loc986))
#loc1144 = loc("dynamic_slice"(#loc986))
#loc1145 = loc("squeeze"(#loc986))
#loc1146 = loc("while/body/lt"(#loc987))
#loc1147 = loc("while/body/convert_element_type"(#loc987))
#loc1148 = loc("while/body/add"(#loc987))
#loc1149 = loc("while/body/select_n"(#loc987))
#loc1150 = loc("while/body/dynamic_slice"(#loc987))
#loc1151 = loc("while/body/squeeze"(#loc987))
#loc1152 = loc("cond/branch_0_fun/lt"(#loc988))
#loc1153 = loc("cond/branch_0_fun/convert_element_type"(#loc988))
#loc1154 = loc("cond/branch_0_fun/add"(#loc988))
#loc1155 = loc("cond/branch_0_fun/select_n"(#loc988))
#loc1156 = loc("cond/branch_0_fun/dynamic_slice"(#loc988))
#loc1157 = loc("cond/branch_0_fun/squeeze"(#loc988))
#loc1158 = loc("cond/branch_0_fun/cond/branch_0_fun/add"(#loc998))
#loc1159 = loc("cond/branch_0_fun/cond/branch_0_fun/add"(#loc999))
#loc1160 = loc("cond/branch_0_fun/cond/branch_0_fun/jit(remainder)"(#loc1000))
#loc1161 = loc("cond/branch_0_fun/cond/branch_0_fun/lt"(#loc1001))
#loc1162 = loc("cond/branch_0_fun/cond/branch_0_fun/add"(#loc1001))
#loc1163 = loc("cond/branch_0_fun/cond/branch_0_fun/select_n"(#loc1001))
#loc1164 = loc("cond/branch_0_fun/cond/branch_0_fun/broadcast_in_dim"(#loc1001))
#loc1165 = loc("cond/branch_0_fun/cond/branch_0_fun/scatter"(#loc1001))
#loc1166 = loc("cond/branch_0_fun/cond/branch_0_fun/lt"(#loc1002))
#loc1167 = loc("cond/branch_0_fun/cond/branch_0_fun/add"(#loc1002))
#loc1168 = loc("cond/branch_0_fun/cond/branch_0_fun/select_n"(#loc1002))
#loc1169 = loc("cond/branch_0_fun/cond/branch_0_fun/broadcast_in_dim"(#loc1002))
#loc1170 = loc("cond/branch_0_fun/cond/branch_0_fun/gather"(#loc1002))
#loc1171 = loc("cond/branch_0_fun/cond/branch_0_fun/eq"(#loc1003))
#loc1172 = loc("cond/branch_0_fun/cond/branch_0_fun/reduce_and"(#loc1004))
#loc1173 = loc("cond/branch_0_fun/cond/branch_0_fun/reduce_or"(#loc1005))
#loc1174 = loc("cond/branch_0_fun/cond/branch_0_fun/select_n"(#loc1006))
#loc1175 = loc("cond/branch_0_fun/cond/branch_0_fun/lt"(#loc1007))
#loc1176 = loc("cond/branch_0_fun/cond/branch_0_fun/add"(#loc1007))
#loc1177 = loc("cond/branch_0_fun/cond/branch_0_fun/select_n"(#loc1007))
#loc1178 = loc("cond/branch_0_fun/cond/branch_0_fun/broadcast_in_dim"(#loc1007))
#loc1179 = loc("cond/branch_0_fun/cond/branch_0_fun/scatter"(#loc1007))
#loc1180 = loc("cond/branch_0_fun/cond/branch_0_fun/add"(#loc1008))
#loc1181 = loc("cond/branch_0_fun/cond/branch_0_fun/jit(remainder)"(#loc1009))
#loc1182 = loc("cond/branch_0_fun/cond/branch_0_fun/lt"(#loc1010))
#loc1183 = loc("cond/branch_0_fun/cond/branch_0_fun/ge"(#loc1011))
#loc1184 = loc("cond/branch_0_fun/cond/branch_0_fun/ne"(#loc1012))
#loc1185 = loc("cond/branch_0_fun/cond/branch_0_fun/reduce_and"(#loc1013))
#loc1186 = loc("cond/branch_0_fun/cond/branch_0_fun/or"(#loc1014))
#loc1187 = loc("cond/branch_0_fun/cond/branch_0_fun/ge"(#loc1015))
#loc1188 = loc("cond/branch_0_fun/cond/branch_0_fun/lt"(#loc1016))
#loc1189 = loc("cond/branch_0_fun/cond/branch_0_fun/add"(#loc1016))
#loc1190 = loc("cond/branch_0_fun/cond/branch_0_fun/select_n"(#loc1016))
#loc1191 = loc("cond/branch_0_fun/cond/branch_0_fun/broadcast_in_dim"(#loc1016))
#loc1192 = loc("cond/branch_0_fun/cond/branch_0_fun/scatter"(#loc1016))
#loc1193 = loc("cond/branch_0_fun/cond/branch_0_fun/broadcast_in_dim"(#loc1017))
#loc1194 = loc("cond/branch_0_fun/cond/branch_0_fun/select_n"(#loc1018))
#loc1195 = loc("cond/branch_0_fun/cond/branch_0_fun/ne"(#loc1019))
#loc1196 = loc("cond/branch_0_fun/cond/branch_0_fun/jit(_flip)"(#loc1020))
#loc1197 = loc("cond/branch_0_fun/cond/branch_0_fun/select_n"(#loc1021))
#loc1198 = loc("cond/branch_0_fun/cond/branch_0_fun/broadcast_in_dim"(#loc1022))
#loc1199 = loc("cond/branch_0_fun/cond/branch_0_fun/select_n"(#loc1023))
#loc1200 = loc("cond/branch_0_fun/cond/branch_1_fun/broadcast_in_dim"(#loc1024))
#loc1201 = loc("cond/branch_0_fun/cond/branch_1_fun/broadcast_in_dim"(#loc1027))
#loc1202 = loc("cond/branch_0_fun/cond/branch_1_fun/mul"(#loc1028))
#loc1203 = loc("cond/branch_0_fun/cond/branch_1_fun/mul"(#loc1029))
#loc1204 = loc("cond/branch_0_fun/cond/branch_1_fun/lt"(#loc1030))
#loc1205 = loc("cond/branch_0_fun/cond/branch_1_fun/add"(#loc1030))
#loc1206 = loc("cond/branch_0_fun/cond/branch_1_fun/select_n"(#loc1030))
#loc1207 = loc("cond/branch_0_fun/cond/branch_1_fun/broadcast_in_dim"(#loc1030))
#loc1208 = loc("cond/branch_0_fun/cond/branch_1_fun/scatter"(#loc1030))
#loc1209 = loc("cond/branch_0_fun/cond/branch_1_fun/broadcast_in_dim"(#loc1033))
#loc1210 = loc(callsite(#loc1034 at #loc294))
#loc1211 = loc(callsite(#loc1035 at #loc294))
#loc1212 = loc(callsite(#loc1036 at #loc294))
#loc1213 = loc(callsite(#loc348 at #loc1037))
#loc1214 = loc(callsite(#loc350 at #loc1037))
#loc1215 = loc(callsite(#loc352 at #loc1037))
#loc1216 = loc(callsite(#loc354 at #loc1037))
#loc1217 = loc("cond/branch_0_fun/lt"(#loc1056))
#loc1218 = loc("cond/branch_0_fun/add"(#loc1056))
#loc1219 = loc("cond/branch_0_fun/select_n"(#loc1056))
#loc1220 = loc("cond/branch_0_fun/broadcast_in_dim"(#loc1056))
#loc1221 = loc("cond/branch_0_fun/scatter"(#loc1056))
#loc1222 = loc("while/body/cond/branch_0_fun/lt"(#loc1065))
#loc1223 = loc("while/body/cond/branch_0_fun/add"(#loc1065))
#loc1224 = loc("while/body/cond/branch_0_fun/select_n"(#loc1065))
#loc1225 = loc("while/body/cond/branch_0_fun/broadcast_in_dim"(#loc1065))
#loc1226 = loc("while/body/cond/branch_0_fun/scatter"(#loc1065))
#loc1227 = loc("while/body/cond/branch_0_fun/lt"(#loc1066))
#loc1228 = loc("while/body/cond/branch_0_fun/add"(#loc1066))
#loc1229 = loc("while/body/cond/branch_0_fun/select_n"(#loc1066))
#loc1230 = loc("while/body/cond/branch_0_fun/broadcast_in_dim"(#loc1066))
#loc1231 = loc("while/body/cond/branch_0_fun/gather"(#loc1066))
#loc1232 = loc("while/body/cond/branch_0_fun/eq"(#loc1067))
#loc1233 = loc("while/body/cond/branch_0_fun/reduce_and"(#loc1068))
#loc1234 = loc("while/body/cond/branch_0_fun/reduce_or"(#loc1069))
#loc1235 = loc("while/body/cond/branch_0_fun/select_n"(#loc1070))
#loc1236 = loc("while/body/cond/branch_0_fun/lt"(#loc1071))
#loc1237 = loc("while/body/cond/branch_0_fun/add"(#loc1071))
#loc1238 = loc("while/body/cond/branch_0_fun/select_n"(#loc1071))
#loc1239 = loc("while/body/cond/branch_0_fun/broadcast_in_dim"(#loc1071))
#loc1240 = loc("while/body/cond/branch_0_fun/scatter"(#loc1071))
#loc1241 = loc("while/body/cond/branch_0_fun/add"(#loc1072))
#loc1242 = loc("while/body/cond/branch_0_fun/jit(remainder)"(#loc1073))
#loc1243 = loc("while/body/cond/branch_0_fun/lt"(#loc1074))
#loc1244 = loc("while/body/cond/branch_0_fun/ge"(#loc1075))
#loc1245 = loc("while/body/cond/branch_0_fun/ne"(#loc1076))
#loc1246 = loc("while/body/cond/branch_0_fun/reduce_and"(#loc1077))
#loc1247 = loc("while/body/cond/branch_0_fun/or"(#loc1078))
#loc1248 = loc("while/body/cond/branch_0_fun/ge"(#loc1079))
#loc1249 = loc("while/body/cond/branch_0_fun/lt"(#loc1080))
#loc1250 = loc("while/body/cond/branch_0_fun/add"(#loc1080))
#loc1251 = loc("while/body/cond/branch_0_fun/select_n"(#loc1080))
#loc1252 = loc("while/body/cond/branch_0_fun/broadcast_in_dim"(#loc1080))
#loc1253 = loc("while/body/cond/branch_0_fun/scatter"(#loc1080))
#loc1254 = loc("while/body/cond/branch_0_fun/broadcast_in_dim"(#loc1081))
#loc1255 = loc("while/body/cond/branch_0_fun/select_n"(#loc1082))
#loc1256 = loc("while/body/eq"(#loc1098))
#loc1257 = loc("while/body/sub"(#loc1099))
#loc1258 = loc("while/body/select_n"(#loc1100))
#loc1259 = loc(callsite(#loc1101 at #loc474))
#loc1260 = loc(callsite(#loc1102 at #loc474))
#loc1261 = loc(callsite(#loc351 at #loc1103))
#loc1262 = loc(callsite(#loc353 at #loc1103))
#loc1263 = loc(callsite(#loc1104 at #loc474))
#loc1264 = loc("jit(pick_move)/jit"(#loc984))
#loc1265 = loc("jit(pick_move)/shift_right_logical"(#loc1119))
#loc1266 = loc("jit(pick_move)/convert_element_type"(#loc1119))
#loc1267 = loc("jit(pick_move)/broadcast_in_dim"(#loc1119))
#loc1268 = loc("jit(pick_move)/and"(#loc1119))
#loc1269 = loc("jit(pick_move)/concatenate"(#loc1119))
#loc1270 = loc(callsite(#loc239 at #loc1120))
#loc1271 = loc(callsite(#loc247 at #loc1132))
#loc1272 = loc("cond/branch_0_fun/eq"(#loc1210))
#loc1273 = loc("cond/branch_0_fun/sub"(#loc1211))
#loc1274 = loc("cond/branch_0_fun/select_n"(#loc1212))
#loc1275 = loc(callsite(#loc1213 at #loc294))
#loc1276 = loc(callsite(#loc1214 at #loc294))
#loc1277 = loc(callsite(#loc351 at #loc1215))
#loc1278 = loc(callsite(#loc353 at #loc1215))
#loc1279 = loc(callsite(#loc1216 at #loc294))
#loc1280 = loc("while/body/eq"(#loc1259))
#loc1281 = loc("while/body/select_n"(#loc1260))
#loc1282 = loc(callsite(#loc1261 at #loc474))
#loc1283 = loc(callsite(#loc1262 at #loc474))
#loc1284 = loc("while/body/broadcast_in_dim"(#loc1263))
#loc1285 = loc("while/body/reshape"(#loc1263))
#loc1286 = loc("jit:"(#loc1264))
#loc1287 = loc("jit(pick_move)/jit(_bernoulli)"(#loc1270))
#loc1288 = loc("jit(pick_move)/lt"(#loc1271))
#loc1289 = loc("jit(pick_move)/add"(#loc1271))
#loc1290 = loc("jit(pick_move)/select_n"(#loc1271))
#loc1291 = loc("jit(pick_move)/dynamic_slice"(#loc1271))
#loc1292 = loc("jit(pick_move)/squeeze"(#loc1271))
#loc1293 = loc("jit(pick_move)/jit"(#loc1270))
#loc1294 = loc("cond/branch_0_fun/eq"(#loc1275))
#loc1295 = loc("cond/branch_0_fun/select_n"(#loc1276))
#loc1296 = loc(callsite(#loc1277 at #loc294))
#loc1297 = loc(callsite(#loc1278 at #loc294))
#loc1298 = loc("cond/branch_0_fun/broadcast_in_dim"(#loc1279))
#loc1299 = loc("cond/branch_0_fun/reshape"(#loc1279))
#loc1300 = loc("while/body/vmap()/broadcast_in_dim"(#loc1282))
#loc1301 = loc("while/body/vmap()/eq"(#loc1282))
#loc1302 = loc("while/body/vmap()/reshape"(#loc1283))
#loc1303 = loc("jit:"(#loc1293))
#loc1304 = loc("cond/branch_0_fun/vmap()/broadcast_in_dim"(#loc1296))
#loc1305 = loc("cond/branch_0_fun/vmap()/eq"(#loc1296))
#loc1306 = loc("cond/branch_0_fun/vmap()/reshape"(#loc1297))
