#loc = loc(unknown)
#loc1 = loc("state.box.position")
#loc2 = loc("state.box.quat")
#loc3 = loc("state.box.velocity")
#loc4 = loc("state.box.angular_velocity")
#loc5 = loc("state.box.inverse_mass")
#loc6 = loc("state.box.inverse_inertia_local")
#loc7 = loc("state.box.inverse_inertia_world")
#loc8 = loc("state.box.friction")
#loc9 = loc("state.box.restitution")
#loc10 = loc("state.box.collision_mode")
#loc11 = loc("state.box.active")
#loc12 = loc("state.box.half_extents")
#loc13 = loc("state.box.radius")
#loc14 = loc("state.box.vertices")
#loc15 = loc("state.box.n_vertices")
#loc16 = loc("state.sphere.position")
#loc17 = loc("state.sphere.quat")
#loc18 = loc("state.sphere.velocity")
#loc19 = loc("state.sphere.angular_velocity")
#loc20 = loc("state.sphere.inverse_mass")
#loc21 = loc("state.sphere.inverse_inertia_local")
#loc22 = loc("state.sphere.inverse_inertia_world")
#loc23 = loc("state.sphere.friction")
#loc24 = loc("state.sphere.restitution")
#loc25 = loc("state.sphere.collision_mode")
#loc26 = loc("state.sphere.active")
#loc27 = loc("state.sphere.half_extents")
#loc28 = loc("state.sphere.radius")
#loc29 = loc("state.sphere.vertices")
#loc30 = loc("state.sphere.n_vertices")
#loc31 = loc("state.wedge.position")
#loc32 = loc("state.wedge.quat")
#loc33 = loc("state.wedge.velocity")
#loc34 = loc("state.wedge.angular_velocity")
#loc35 = loc("state.wedge.inverse_mass")
#loc36 = loc("state.wedge.inverse_inertia_local")
#loc37 = loc("state.wedge.inverse_inertia_world")
#loc38 = loc("state.wedge.friction")
#loc39 = loc("state.wedge.restitution")
#loc40 = loc("state.wedge.collision_mode")
#loc41 = loc("state.wedge.active")
#loc42 = loc("state.wedge.half_extents")
#loc43 = loc("state.wedge.radius")
#loc44 = loc("state.wedge.vertices")
#loc45 = loc("state.wedge.n_vertices")
#loc46 = loc("state.prism.position")
#loc47 = loc("state.prism.quat")
#loc48 = loc("state.prism.velocity")
#loc49 = loc("state.prism.angular_velocity")
#loc50 = loc("state.prism.inverse_mass")
#loc51 = loc("state.prism.inverse_inertia_local")
#loc52 = loc("state.prism.inverse_inertia_world")
#loc53 = loc("state.prism.friction")
#loc54 = loc("state.prism.restitution")
#loc55 = loc("state.prism.collision_mode")
#loc56 = loc("state.prism.active")
#loc57 = loc("state.prism.half_extents")
#loc58 = loc("state.prism.radius")
#loc59 = loc("state.prism.vertices")
#loc60 = loc("state.prism.n_vertices")
#loc61 = loc("state.joint.a_index")
#loc62 = loc("state.joint.b_index")
#loc63 = loc("state.joint.a_local_anchor")
#loc64 = loc("state.joint.b_local_anchor")
#loc65 = loc("state.joint.global_position")
#loc66 = loc("state.joint.active")
#loc67 = loc("state.joint.joint_type")
#loc68 = loc("state.joint.acc_point_impulse")
#loc69 = loc("state.joint.a_local_hinge_axis")
#loc70 = loc("state.joint.b_local_hinge_axis")
#loc71 = loc("state.joint.acc_perp_impulse")
#loc72 = loc("state.joint.motor_on")
#loc73 = loc("state.joint.motor_speed")
#loc74 = loc("state.joint.motor_power")
#loc75 = loc("state.joint.motor_has_joint_limits")
#loc76 = loc("state.joint.min_rotation")
#loc77 = loc("state.joint.max_rotation")
#loc78 = loc("state.joint.target_relative_rotation")
#loc79 = loc("state.joint.acc_angular_impulse")
#loc80 = loc("state.thruster.object_index")
#loc81 = loc("state.thruster.relative_position")
#loc82 = loc("state.thruster.local_direction")
#loc83 = loc("state.thruster.power")
#loc84 = loc("state.thruster.global_position")
#loc85 = loc("state.thruster.active")
#loc86 = loc("state.collision_matrix")
#loc87 = loc("state.acc_bb_manifolds.normal")
#loc88 = loc("state.acc_bb_manifolds.point")
#loc89 = loc("state.acc_bb_manifolds.separation")
#loc90 = loc("state.acc_bb_manifolds.active")
#loc91 = loc("state.acc_bb_manifolds.acc_impulse_normal")
#loc92 = loc("state.acc_bb_manifolds.acc_impulse_tangent")
#loc93 = loc("state.acc_bb_manifolds.restitution_velocity_target")
#loc94 = loc("state.acc_bs_manifolds.normal")
#loc95 = loc("state.acc_bs_manifolds.point")
#loc96 = loc("state.acc_bs_manifolds.separation")
#loc97 = loc("state.acc_bs_manifolds.active")
#loc98 = loc("state.acc_bs_manifolds.acc_impulse_normal")
#loc99 = loc("state.acc_bs_manifolds.acc_impulse_tangent")
#loc100 = loc("state.acc_bs_manifolds.restitution_velocity_target")
#loc101 = loc("state.acc_ss_manifolds.normal")
#loc102 = loc("state.acc_ss_manifolds.point")
#loc103 = loc("state.acc_ss_manifolds.separation")
#loc104 = loc("state.acc_ss_manifolds.active")
#loc105 = loc("state.acc_ss_manifolds.acc_impulse_normal")
#loc106 = loc("state.acc_ss_manifolds.acc_impulse_tangent")
#loc107 = loc("state.acc_ss_manifolds.restitution_velocity_target")
#loc108 = loc("state.acc_bw_manifolds.normal")
#loc109 = loc("state.acc_bw_manifolds.point")
#loc110 = loc("state.acc_bw_manifolds.separation")
#loc111 = loc("state.acc_bw_manifolds.active")
#loc112 = loc("state.acc_bw_manifolds.acc_impulse_normal")
#loc113 = loc("state.acc_bw_manifolds.acc_impulse_tangent")
#loc114 = loc("state.acc_bw_manifolds.restitution_velocity_target")
#loc115 = loc("state.acc_sw_manifolds.normal")
#loc116 = loc("state.acc_sw_manifolds.point")
#loc117 = loc("state.acc_sw_manifolds.separation")
#loc118 = loc("state.acc_sw_manifolds.active")
#loc119 = loc("state.acc_sw_manifolds.acc_impulse_normal")
#loc120 = loc("state.acc_sw_manifolds.acc_impulse_tangent")
#loc121 = loc("state.acc_sw_manifolds.restitution_velocity_target")
#loc122 = loc("state.acc_bp_manifolds.normal")
#loc123 = loc("state.acc_bp_manifolds.point")
#loc124 = loc("state.acc_bp_manifolds.separation")
#loc125 = loc("state.acc_bp_manifolds.active")
#loc126 = loc("state.acc_bp_manifolds.acc_impulse_normal")
#loc127 = loc("state.acc_bp_manifolds.acc_impulse_tangent")
#loc128 = loc("state.acc_bp_manifolds.restitution_velocity_target")
#loc129 = loc("state.acc_sp_manifolds.normal")
#loc130 = loc("state.acc_sp_manifolds.point")
#loc131 = loc("state.acc_sp_manifolds.separation")
#loc132 = loc("state.acc_sp_manifolds.active")
#loc133 = loc("state.acc_sp_manifolds.acc_impulse_normal")
#loc134 = loc("state.acc_sp_manifolds.acc_impulse_tangent")
#loc135 = loc("state.acc_sp_manifolds.restitution_velocity_target")
#loc136 = loc("state.gravity")
#loc137 = loc("actions")
#loc138 = loc("/home/farr/Jax3D/examples/export_web.py":170:15 to :80)
#loc139 = loc("/home/farr/Jax3D/examples/export_web.py":235:4 to :10)
#loc143 = loc("/home/farr/Jax3D/examples/export_web.py":167:23 to :62)
#loc212 = loc("/home/farr/Jax3D/jax3d/engine.py":1052:12 to :53)
#loc215 = loc("/home/farr/Jax3D/jax3d/engine.py":928:27 to :92)
#loc223 = loc("/home/farr/Jax3D/jax3d/engine.py":926:23 to :60)
#loc246 = loc("scatter")
#loc281 = loc("/home/farr/Jax3D/jax3d/collision.py":417:23 to :45)
#loc286 = loc("/home/farr/Jax3D/jax3d/collision.py":423:21 to :42)
#loc320 = loc("/home/farr/Jax3D/jax3d/collision.py":444:41 to 446:5)
#loc438 = loc("/home/farr/Jax3D/jax3d/collision.py":344:31 to :97)
#loc439 = loc("/home/farr/Jax3D/jax3d/collision.py":286:11 to :61)
#loc451 = loc("/home/farr/Jax3D/jax3d/collision.py":292:11 to :58)
#loc583 = loc("/home/farr/Jax3D/jax3d/engine.py":940:27 to :92)
#loc591 = loc("/home/farr/Jax3D/jax3d/engine.py":938:23 to :63)
#loc605 = loc("/home/farr/Jax3D/jax3d/collision.py":189:11 to :32)
#loc798 = loc("scatter-add")
#loc1038 = loc("reduce")
#loc1045 = loc("sort")
#loc1385 = loc("main"(#loc138))
#loc1386 = loc("<module>"(#loc139))
#loc1390 = loc("main.<locals>.step_fn"(#loc143))
#loc1459 = loc("PhysicsEngine.step"(#loc212))
#loc1462 = loc("PhysicsEngine.calculate_collision_manifolds"(#loc215))
#loc1470 = loc("PhysicsEngine.calculate_collision_manifolds.<locals>._calc_bb"(#loc223))
#loc1493 = loc("scatter:"(#loc246))
#loc1528 = loc("generate_manifold_box_box"(#loc281))
#loc1533 = loc("generate_manifold_box_box"(#loc286))
#loc1567 = loc("generate_manifold_box_box"(#loc320))
#loc1685 = loc("_face_contact_manifold"(#loc438))
#loc1686 = loc("_reduce_manifold_points"(#loc439))
#loc1698 = loc("_reduce_manifold_points"(#loc451))
#loc1830 = loc("PhysicsEngine.calculate_collision_manifolds"(#loc583))
#loc1838 = loc("PhysicsEngine.calculate_collision_manifolds.<locals>._calc_bs"(#loc591))
#loc1852 = loc("generate_manifold_box_sphere"(#loc605))
#loc2045 = loc("scatter-add:"(#loc798))
#loc2270 = loc("reduce:"(#loc1038))
#loc2271 = loc("sort:"(#loc1045))
#loc2600 = loc(callsite(#loc1385 at #loc1386))
#loc2824 = loc(callsite(#loc1390 at #loc2600))
#loc3331 = loc(callsite(#loc1459 at #loc2824))
#loc3839 = loc(callsite(#loc1462 at #loc3331))
#loc3841 = loc(callsite(#loc1830 at #loc3331))
#loc4439 = loc(callsite(#loc1470 at #loc3839))
#loc4444 = loc(callsite(#loc1838 at #loc3841))
#loc5150 = loc(callsite(#loc1528 at #loc4439))
#loc5155 = loc(callsite(#loc1533 at #loc4439))
#loc5181 = loc(callsite(#loc1567 at #loc4439))
#loc5231 = loc(callsite(#loc1852 at #loc4444))
#loc6156 = loc("jit(step_fn)/vmap()"(#loc5150))
#loc6171 = loc("jit(step_fn)/vmap()"(#loc5155))
#loc6265 = loc(callsite(#loc1685 at #loc5181))
#loc6393 = loc("jit(step_fn)/vmap()"(#loc5231))
#loc7473 = loc(callsite(#loc1686 at #loc6265))
#loc7485 = loc(callsite(#loc1698 at #loc6265))
#loc8291 = loc("jit(step_fn)/vmap()"(#loc7473))
#loc8333 = loc("jit(step_fn)/vmap()"(#loc7485))
module @jit_step_fn attributes {jax.uses_shape_polymorphism = false, mhlo.num_partitions = 1 : i32, mhlo.num_replicas = 1 : i32} {
  func.func public @main(%arg0: tensor<12x3xf32> loc("state.box.position"), %arg1: tensor<12x4xf32> loc("state.box.quat"), %arg2: tensor<12x3xf32> loc("state.box.velocity"), %arg3: tensor<12x3xf32> loc("state.box.angular_velocity"), %arg4: tensor<12xf32> loc("state.box.inverse_mass"), %arg5: tensor<12x3xf32> loc("state.box.inverse_inertia_local"), %arg6: tensor<12x3x3xf32> loc("state.box.inverse_inertia_world"), %arg7: tensor<12xf32> loc("state.box.friction"), %arg8: tensor<12xf32> loc("state.box.restitution"), %arg9: tensor<12xi32> loc("state.box.collision_mode"), %arg10: tensor<12xi1> loc("state.box.active"), %arg11: tensor<12x3xf32> loc("state.box.half_extents"), %arg12: tensor<12xf32> loc("state.box.radius"), %arg13: tensor<12x8x2xf32> loc("state.box.vertices"), %arg14: tensor<12xi32> loc("state.box.n_vertices"), %arg15: tensor<4x3xf32> loc("state.sphere.position"), %arg16: tensor<4x4xf32> loc("state.sphere.quat"), %arg17: tensor<4x3xf32> loc("state.sphere.velocity"), %arg18: tensor<4x3xf32> loc("state.sphere.angular_velocity"), %arg19: tensor<4xf32> loc("state.sphere.inverse_mass"), %arg20: tensor<4x3xf32> loc("state.sphere.inverse_inertia_local"), %arg21: tensor<4x3x3xf32> loc("state.sphere.inverse_inertia_world"), %arg22: tensor<4xf32> loc("state.sphere.friction"), %arg23: tensor<4xf32> loc("state.sphere.restitution"), %arg24: tensor<4xi32> loc("state.sphere.collision_mode"), %arg25: tensor<4xi1> loc("state.sphere.active"), %arg26: tensor<4x3xf32> loc("state.sphere.half_extents"), %arg27: tensor<4xf32> loc("state.sphere.radius"), %arg28: tensor<4x8x2xf32> loc("state.sphere.vertices"), %arg29: tensor<4xi32> loc("state.sphere.n_vertices"), %arg30: tensor<0x3xf32> loc("state.wedge.position"), %arg31: tensor<0x4xf32> loc("state.wedge.quat"), %arg32: tensor<0x3xf32> loc("state.wedge.velocity"), %arg33: tensor<0x3xf32> loc("state.wedge.angular_velocity"), %arg34: tensor<0xf32> loc("state.wedge.inverse_mass"), %arg35: tensor<0x3xf32> loc("state.wedge.inverse_inertia_local"), %arg36: tensor<0x3x3xf32> loc("state.wedge.inverse_inertia_world"), %arg37: tensor<0xf32> loc("state.wedge.friction"), %arg38: tensor<0xf32> loc("state.wedge.restitution"), %arg39: tensor<0xi32> loc("state.wedge.collision_mode"), %arg40: tensor<0xi1> loc("state.wedge.active"), %arg41: tensor<0x3xf32> loc("state.wedge.half_extents"), %arg42: tensor<0xf32> loc("state.wedge.radius"), %arg43: tensor<0x8x2xf32> loc("state.wedge.vertices"), %arg44: tensor<0xi32> loc("state.wedge.n_vertices"), %arg45: tensor<0x3xf32> loc("state.prism.position"), %arg46: tensor<0x4xf32> loc("state.prism.quat"), %arg47: tensor<0x3xf32> loc("state.prism.velocity"), %arg48: tensor<0x3xf32> loc("state.prism.angular_velocity"), %arg49: tensor<0xf32> loc("state.prism.inverse_mass"), %arg50: tensor<0x3xf32> loc("state.prism.inverse_inertia_local"), %arg51: tensor<0x3x3xf32> loc("state.prism.inverse_inertia_world"), %arg52: tensor<0xf32> loc("state.prism.friction"), %arg53: tensor<0xf32> loc("state.prism.restitution"), %arg54: tensor<0xi32> loc("state.prism.collision_mode"), %arg55: tensor<0xi1> loc("state.prism.active"), %arg56: tensor<0x3xf32> loc("state.prism.half_extents"), %arg57: tensor<0xf32> loc("state.prism.radius"), %arg58: tensor<0x8x2xf32> loc("state.prism.vertices"), %arg59: tensor<0xi32> loc("state.prism.n_vertices"), %arg60: tensor<4xi32> loc("state.joint.a_index"), %arg61: tensor<4xi32> loc("state.joint.b_index"), %arg62: tensor<4x3xf32> loc("state.joint.a_local_anchor"), %arg63: tensor<4x3xf32> loc("state.joint.b_local_anchor"), %arg64: tensor<4x3xf32> loc("state.joint.global_position"), %arg65: tensor<4xi1> loc("state.joint.active"), %arg66: tensor<4xi32> loc("state.joint.joint_type"), %arg67: tensor<4x3xf32> loc("state.joint.acc_point_impulse"), %arg68: tensor<4x3xf32> loc("state.joint.a_local_hinge_axis"), %arg69: tensor<4x3xf32> loc("state.joint.b_local_hinge_axis"), %arg70: tensor<4x2xf32> loc("state.joint.acc_perp_impulse"), %arg71: tensor<4xi1> loc("state.joint.motor_on"), %arg72: tensor<4xf32> loc("state.joint.motor_speed"), %arg73: tensor<4xf32> loc("state.joint.motor_power"), %arg74: tensor<4xi1> loc("state.joint.motor_has_joint_limits"), %arg75: tensor<4xf32> loc("state.joint.min_rotation"), %arg76: tensor<4xf32> loc("state.joint.max_rotation"), %arg77: tensor<4x4xf32> loc("state.joint.target_relative_rotation"), %arg78: tensor<4x3xf32> loc("state.joint.acc_angular_impulse"), %arg79: tensor<0xi32> loc("state.thruster.object_index"), %arg80: tensor<0x3xf32> loc("state.thruster.relative_position"), %arg81: tensor<0x3xf32> loc("state.thruster.local_direction"), %arg82: tensor<0xf32> loc("state.thruster.power"), %arg83: tensor<0x3xf32> loc("state.thruster.global_position"), %arg84: tensor<0xi1> loc("state.thruster.active"), %arg85: tensor<16x16xi1> loc("state.collision_matrix"), %arg86: tensor<11x4x3xf32> loc("state.acc_bb_manifolds.normal"), %arg87: tensor<11x4x3xf32> loc("state.acc_bb_manifolds.point"), %arg88: tensor<11x4xf32> loc("state.acc_bb_manifolds.separation"), %arg89: tensor<11x4xi1> loc("state.acc_bb_manifolds.active"), %arg90: tensor<11x4xf32> loc("state.acc_bb_manifolds.acc_impulse_normal"), %arg91: tensor<11x4x2xf32> loc("state.acc_bb_manifolds.acc_impulse_tangent"), %arg92: tensor<11x4xf32> loc("state.acc_bb_manifolds.restitution_velocity_target"), %arg93: tensor<48x3xf32> loc("state.acc_bs_manifolds.normal"), %arg94: tensor<48x3xf32> loc("state.acc_bs_manifolds.point"), %arg95: tensor<48xf32> loc("state.acc_bs_manifolds.separation"), %arg96: tensor<48xi1> loc("state.acc_bs_manifolds.active"), %arg97: tensor<48xf32> loc("state.acc_bs_manifolds.acc_impulse_normal"), %arg98: tensor<48x2xf32> loc("state.acc_bs_manifolds.acc_impulse_tangent"), %arg99: tensor<48xf32> loc("state.acc_bs_manifolds.restitution_velocity_target"), %arg100: tensor<6x3xf32> loc("state.acc_ss_manifolds.normal"), %arg101: tensor<6x3xf32> loc("state.acc_ss_manifolds.point"), %arg102: tensor<6xf32> loc("state.acc_ss_manifolds.separation"), %arg103: tensor<6xi1> loc("state.acc_ss_manifolds.active"), %arg104: tensor<6xf32> loc("state.acc_ss_manifolds.acc_impulse_normal"), %arg105: tensor<6x2xf32> loc("state.acc_ss_manifolds.acc_impulse_tangent"), %arg106: tensor<6xf32> loc("state.acc_ss_manifolds.restitution_velocity_target"), %arg107: tensor<0x3xf32> loc("state.acc_bw_manifolds.normal"), %arg108: tensor<0x3xf32> loc("state.acc_bw_manifolds.point"), %arg109: tensor<0xf32> loc("state.acc_bw_manifolds.separation"), %arg110: tensor<0xi1> loc("state.acc_bw_manifolds.active"), %arg111: tensor<0xf32> loc("state.acc_bw_manifolds.acc_impulse_normal"), %arg112: tensor<0x2xf32> loc("state.acc_bw_manifolds.acc_impulse_tangent"), %arg113: tensor<0xf32> loc("state.acc_bw_manifolds.restitution_velocity_target"), %arg114: tensor<0x3xf32> loc("state.acc_sw_manifolds.normal"), %arg115: tensor<0x3xf32> loc("state.acc_sw_manifolds.point"), %arg116: tensor<0xf32> loc("state.acc_sw_manifolds.separation"), %arg117: tensor<0xi1> loc("state.acc_sw_manifolds.active"), %arg118: tensor<0xf32> loc("state.acc_sw_manifolds.acc_impulse_normal"), %arg119: tensor<0x2xf32> loc("state.acc_sw_manifolds.acc_impulse_tangent"), %arg120: tensor<0xf32> loc("state.acc_sw_manifolds.restitution_velocity_target"), %arg121: tensor<0x3xf32> loc("state.acc_bp_manifolds.normal"), %arg122: tensor<0x3xf32> loc("state.acc_bp_manifolds.point"), %arg123: tensor<0xf32> loc("state.acc_bp_manifolds.separation"), %arg124: tensor<0xi1> loc("state.acc_bp_manifolds.active"), %arg125: tensor<0xf32> loc("state.acc_bp_manifolds.acc_impulse_normal"), %arg126: tensor<0x2xf32> loc("state.acc_bp_manifolds.acc_impulse_tangent"), %arg127: tensor<0xf32> loc("state.acc_bp_manifolds.restitution_velocity_target"), %arg128: tensor<0x3xf32> loc("state.acc_sp_manifolds.normal"), %arg129: tensor<0x3xf32> loc("state.acc_sp_manifolds.point"), %arg130: tensor<0xf32> loc("state.acc_sp_manifolds.separation"), %arg131: tensor<0xi1> loc("state.acc_sp_manifolds.active"), %arg132: tensor<0xf32> loc("state.acc_sp_manifolds.acc_impulse_normal"), %arg133: tensor<0x2xf32> loc("state.acc_sp_manifolds.acc_impulse_tangent"), %arg134: tensor<0xf32> loc("state.acc_sp_manifolds.restitution_velocity_target"), %arg135: tensor<3xf32> loc("state.gravity"), %arg136: tensor<4xf32> loc("actions")) -> (tensor<12x3xf32> {jax.result_info = "result.box.position"}, tensor<12x4xf32> {jax.result_info = "result.box.quat"}, tensor<12x3xf32> {jax.result_info = "result.box.velocity"}, tensor<12x3xf32> {jax.result_info = "result.box.angular_velocity"}, tensor<12xf32> {jax.result_info = "result.box.inverse_mass"}, tensor<12x3xf32> {jax.result_info = "result.box.inverse_inertia_local"}, tensor<12x3x3xf32> {jax.result_info = "result.box.inverse_inertia_world"}, tensor<12xf32> {jax.result_info = "result.box.friction"}, tensor<12xf32> {jax.result_info = "result.box.restitution"}, tensor<12xi32> {jax.result_info = "result.box.collision_mode"}, tensor<12xi1> {jax.result_info = "result.box.active"}, tensor<12x3xf32> {jax.result_info = "result.box.half_extents"}, tensor<12xf32> {jax.result_info = "result.box.radius"}, tensor<12x8x2xf32> {jax.result_info = "result.box.vertices"}, tensor<12xi32> {jax.result_info = "result.box.n_vertices"}, tensor<4x3xf32> {jax.result_info = "result.sphere.position"}, tensor<4x4xf32> {jax.result_info = "result.sphere.quat"}, tensor<4x3xf32> {jax.result_info = "result.sphere.velocity"}, tensor<4x3xf32> {jax.result_info = "result.sphere.angular_velocity"}, tensor<4xf32> {jax.result_info = "result.sphere.inverse_mass"}, tensor<4x3xf32> {jax.result_info = "result.sphere.inverse_inertia_local"}, tensor<4x3x3xf32> {jax.result_info = "result.sphere.inverse_inertia_world"}, tensor<4xf32> {jax.result_info = "result.sphere.friction"}, tensor<4xf32> {jax.result_info = "result.sphere.restitution"}, tensor<4xi32> {jax.result_info = "result.sphere.collision_mode"}, tensor<4xi1> {jax.result_info = "result.sphere.active"}, tensor<4x3xf32> {jax.result_info = "result.sphere.half_extents"}, tensor<4xf32> {jax.result_info = "result.sphere.radius"}, tensor<4x8x2xf32> {jax.result_info = "result.sphere.vertices"}, tensor<4xi32> {jax.result_info = "result.sphere.n_vertices"}, tensor<0x3xf32> {jax.result_info = "result.wedge.position"}, tensor<0x4xf32> {jax.result_info = "result.wedge.quat"}, tensor<0x3xf32> {jax.result_info = "result.wedge.velocity"}, tensor<0x3xf32> {jax.result_info = "result.wedge.angular_velocity"}, tensor<0xf32> {jax.result_info = "result.wedge.inverse_mass"}, tensor<0x3xf32> {jax.result_info = "result.wedge.inverse_inertia_local"}, tensor<0x3x3xf32> {jax.result_info = "result.wedge.inverse_inertia_world"}, tensor<0xf32> {jax.result_info = "result.wedge.friction"}, tensor<0xf32> {jax.result_info = "result.wedge.restitution"}, tensor<0xi32> {jax.result_info = "result.wedge.collision_mode"}, tensor<0xi1> {jax.result_info = "result.wedge.active"}, tensor<0x3xf32> {jax.result_info = "result.wedge.half_extents"}, tensor<0xf32> {jax.result_info = "result.wedge.radius"}, tensor<0x8x2xf32> {jax.result_info = "result.wedge.vertices"}, tensor<0xi32> {jax.result_info = "result.wedge.n_vertices"}, tensor<0x3xf32> {jax.result_info = "result.prism.position"}, tensor<0x4xf32> {jax.result_info = "result.prism.quat"}, tensor<0x3xf32> {jax.result_info = "result.prism.velocity"}, tensor<0x3xf32> {jax.result_info = "result.prism.angular_velocity"}, tensor<0xf32> {jax.result_info = "result.prism.inverse_mass"}, tensor<0x3xf32> {jax.result_info = "result.prism.inverse_inertia_local"}, tensor<0x3x3xf32> {jax.result_info = "result.prism.inverse_inertia_world"}, tensor<0xf32> {jax.result_info = "result.prism.friction"}, tensor<0xf32> {jax.result_info = "result.prism.restitution"}, tensor<0xi32> {jax.result_info = "result.prism.collision_mode"}, tensor<0xi1> {jax.result_info = "result.prism.active"}, tensor<0x3xf32> {jax.result_info = "result.prism.half_extents"}, tensor<0xf32> {jax.result_info = "result.prism.radius"}, tensor<0x8x2xf32> {jax.result_info = "result.prism.vertices"}, tensor<0xi32> {jax.result_info = "result.prism.n_vertices"}, tensor<4xi32> {jax.result_info = "result.joint.a_index"}, tensor<4xi32> {jax.result_info = "result.joint.b_index"}, tensor<4x3xf32> {jax.result_info = "result.joint.a_local_anchor"}, tensor<4x3xf32> {jax.result_info = "result.joint.b_local_anchor"}, tensor<4x3xf32> {jax.result_info = "result.joint.global_position"}, tensor<4xi1> {jax.result_info = "result.joint.active"}, tensor<4xi32> {jax.result_info = "result.joint.joint_type"}, tensor<4x3xf32> {jax.result_info = "result.joint.acc_point_impulse"}, tensor<4x3xf32> {jax.result_info = "result.joint.a_local_hinge_axis"}, tensor<4x3xf32> {jax.result_info = "result.joint.b_local_hinge_axis"}, tensor<4x2xf32> {jax.result_info = "result.joint.acc_perp_impulse"}, tensor<4xi1> {jax.result_info = "result.joint.motor_on"}, tensor<4xf32> {jax.result_info = "result.joint.motor_speed"}, tensor<4xf32> {jax.result_info = "result.joint.motor_power"}, tensor<4xi1> {jax.result_info = "result.joint.motor_has_joint_limits"}, tensor<4xf32> {jax.result_info = "result.joint.min_rotation"}, tensor<4xf32> {jax.result_info = "result.joint.max_rotation"}, tensor<4x4xf32> {jax.result_info = "result.joint.target_relative_rotation"}, tensor<4x3xf32> {jax.result_info = "result.joint.acc_angular_impulse"}, tensor<0xi32> {jax.result_info = "result.thruster.object_index"}, tensor<0x3xf32> {jax.result_info = "result.thruster.relative_position"}, tensor<0x3xf32> {jax.result_info = "result.thruster.local_direction"}, tensor<0xf32> {jax.result_info = "result.thruster.power"}, tensor<0x3xf32> {jax.result_info = "result.thruster.global_position"}, tensor<0xi1> {jax.result_info = "result.thruster.active"}, tensor<16x16xi1> {jax.result_info = "result.collision_matrix"}, tensor<11x4x3xf32> {jax.result_info = "result.acc_bb_manifolds.normal"}, tensor<11x4x3xf32> {jax.result_info = "result.acc_bb_manifolds.point"}, tensor<11x4xf32> {jax.result_info = "result.acc_bb_manifolds.separation"}, tensor<11x4xi1> {jax.result_info = "result.acc_bb_manifolds.active"}, tensor<11x4xf32> {jax.result_info = "result.acc_bb_manifolds.acc_impulse_normal"}, tensor<11x4x2xf32> {jax.result_info = "result.acc_bb_manifolds.acc_impulse_tangent"}, tensor<11x4xf32> {jax.result_info = "result.acc_bb_manifolds.restitution_velocity_target"}, tensor<48x3xf32> {jax.result_info = "result.acc_bs_manifolds.normal"}, tensor<48x3xf32> {jax.result_info = "result.acc_bs_manifolds.point"}, tensor<48xf32> {jax.result_info = "result.acc_bs_manifolds.separation"}, tensor<48xi1> {jax.result_info = "result.acc_bs_manifolds.active"}, tensor<48xf32> {jax.result_info = "result.acc_bs_manifolds.acc_impulse_normal"}, tensor<48x2xf32> {jax.result_info = "result.acc_bs_manifolds.acc_impulse_tangent"}, tensor<48xf32> {jax.result_info = "result.acc_bs_manifolds.restitution_velocity_target"}, tensor<6x3xf32> {jax.result_info = "result.acc_ss_manifolds.normal"}, tensor<6x3xf32> {jax.result_info = "result.acc_ss_manifolds.point"}, tensor<6xf32> {jax.result_info = "result.acc_ss_manifolds.separation"}, tensor<6xi1> {jax.result_info = "result.acc_ss_manifolds.active"}, tensor<6xf32> {jax.result_info = "result.acc_ss_manifolds.acc_impulse_normal"}, tensor<6x2xf32> {jax.result_info = "result.acc_ss_manifolds.acc_impulse_tangent"}, tensor<6xf32> {jax.result_info = "result.acc_ss_manifolds.restitution_velocity_target"}, tensor<0x3xf32> {jax.result_info = "result.acc_bw_manifolds.normal"}, tensor<0x3xf32> {jax.result_info = "result.acc_bw_manifolds.point"}, tensor<0xf32> {jax.result_info = "result.acc_bw_manifolds.separation"}, tensor<0xi1> {jax.result_info = "result.acc_bw_manifolds.active"}, tensor<0xf32> {jax.result_info = "result.acc_bw_manifolds.acc_impulse_normal"}, tensor<0x2xf32> {jax.result_info = "result.acc_bw_manifolds.acc_impulse_tangent"}, tensor<0xf32> {jax.result_info = "result.acc_bw_manifolds.restitution_velocity_target"}, tensor<0x3xf32> {jax.result_info = "result.acc_sw_manifolds.normal"}, tensor<0x3xf32> {jax.result_info = "result.acc_sw_manifolds.point"}, tensor<0xf32> {jax.result_info = "result.acc_sw_manifolds.separation"}, tensor<0xi1> {jax.result_info = "result.acc_sw_manifolds.active"}, tensor<0xf32> {jax.result_info = "result.acc_sw_manifolds.acc_impulse_normal"}, tensor<0x2xf32> {jax.result_info = "result.acc_sw_manifolds.acc_impulse_tangent"}, tensor<0xf32> {jax.result_info = "result.acc_sw_manifolds.restitution_velocity_target"}, tensor<0x3xf32> {jax.result_info = "result.acc_bp_manifolds.normal"}, tensor<0x3xf32> {jax.result_info = "result.acc_bp_manifolds.point"}, tensor<0xf32> {jax.result_info = "result.acc_bp_manifolds.separation"}, tensor<0xi1> {jax.result_info = "result.acc_bp_manifolds.active"}, tensor<0xf32> {jax.result_info = "result.acc_bp_manifolds.acc_impulse_normal"}, tensor<0x2xf32> {jax.result_info = "result.acc_bp_manifolds.acc_impulse_tangent"}, tensor<0xf32> {jax.result_info = "result.acc_bp_manifolds.restitution_velocity_target"}, tensor<0x3xf32> {jax.result_info = "result.acc_sp_manifolds.normal"}, tensor<0x3xf32> {jax.result_info = "result.acc_sp_manifolds.point"}, tensor<0xf32> {jax.result_info = "result.acc_sp_manifolds.separation"}, tensor<0xi1> {jax.result_info = "result.acc_sp_manifolds.active"}, tensor<0xf32> {jax.result_info = "result.acc_sp_manifolds.acc_impulse_normal"}, tensor<0x2xf32> {jax.result_info = "result.acc_sp_manifolds.acc_impulse_tangent"}, tensor<0xf32> {jax.result_info = "result.acc_sp_manifolds.restitution_velocity_target"}, tensor<3xf32> {jax.result_info = "result.gravity"}) {
    %c = stablehlo.constant dense<-100> : tensor<i32> loc(#loc)
    %c_0 = stablehlo.constant dense<100> : tensor<i32> loc(#loc)
    %c_1 = stablehlo.constant dense<-15> : tensor<i32> loc(#loc)
    %c_2 = stablehlo.constant dense<15> : tensor<i32> loc(#loc)
    %cst = stablehlo.constant dense<5.000000e+01> : tensor<f32> loc(#loc)
    %cst_3 = stablehlo.constant dense<9.99999996E-13> : tensor<f32> loc(#loc)
    %cst_4 = stablehlo.constant dense<0.00833333377> : tensor<f32> loc(#loc)
    %c_5 = stablehlo.constant dense<10> : tensor<i32> loc(#loc)
    %cst_6 = stablehlo.constant dense<1.000000e-01> : tensor<f32> loc(#loc)
    %cst_7 = stablehlo.constant dense<6.000000e+00> : tensor<f32> loc(#loc2823)
    %cst_8 = stablehlo.constant dense<9.000000e+02> : tensor<f32> loc(#loc2823)
    %c_9 = stablehlo.constant dense<6> : tensor<i32> loc(#loc)
    %c_10 = stablehlo.constant dense<48> : tensor<i32> loc(#loc)
    %cst_11 = stablehlo.constant dense<0.899999976> : tensor<f32> loc(#loc2823)
    %cst_12 = stablehlo.constant dense<5.000000e-01> : tensor<f32> loc(#loc)
    %cst_13 = stablehlo.constant dense<-1.000000e+09> : tensor<f32> loc(#loc)
    %cst_14 = stablehlo.constant dense<1.000000e+09> : tensor<f32> loc(#loc)
    %c_15 = stablehlo.constant dense<16> : tensor<i32> loc(#loc)
    %c_16 = stablehlo.constant dense<true> : tensor<i1> loc(#loc)
    %c_17 = stablehlo.constant dense<false> : tensor<i1> loc(#loc)
    %cst_18 = stablehlo.constant dense<-1.000000e+00> : tensor<f32> loc(#loc)
    %cst_19 = stablehlo.constant dense<5.000000e-03> : tensor<f32> loc(#loc)
    %c_20 = stablehlo.constant dense<9> : tensor<i32> loc(#loc2823)
    %cst_21 = stablehlo.constant dense<9.99999997E-7> : tensor<f32> loc(#loc)
    %cst_22 = stablehlo.constant dense<0xFF800000> : tensor<f32> loc(#loc)
    %c_23 = stablehlo.constant dense<1> : tensor<i32> loc(#loc)
    %c_24 = stablehlo.constant dense<11> : tensor<i32> loc(#loc)
    %c_25 = stablehlo.constant dense<2> : tensor<i32> loc(#loc)
    %c_26 = stablehlo.constant dense<8> : tensor<i32> loc(#loc)
    %c_27 = stablehlo.constant dense<4> : tensor<i32> loc(#loc)
    %c_28 = stablehlo.constant dense<3> : tensor<i32> loc(#loc)
    %c_29 = stablehlo.constant dense<12> : tensor<i32> loc(#loc)
    %c_30 = stablehlo.constant dense<0> : tensor<i32> loc(#loc)
    %cst_31 = stablehlo.constant dense<0.000000e+00> : tensor<f32> loc(#loc)
    %cst_32 = stablehlo.constant dense<0.0166666675> : tensor<f32> loc(#loc)
    %cst_33 = stablehlo.constant dense<1.000000e+00> : tensor<f32> loc(#loc)
    %cst_34 = stablehlo.constant dense<2.000000e+00> : tensor<f32> loc(#loc)
    %c_35 = stablehlo.constant dense<[[0, 11], [1, 11], [2, 11], [3, 11], [4, 11], [5, 11], [6, 11], [7, 11], [8, 11], [9, 11], [10, 11]]> : tensor<11x2xi32> loc(#loc2823)
    %cst_36 = stablehlo.constant dense<[[1.000000e+00, 1.000000e+00], [-1.000000e+00, 1.000000e+00], [-1.000000e+00, -1.000000e+00], [1.000000e+00, -1.000000e+00]]> : tensor<4x2xf32> loc(#loc2823)
    %c_37 = stablehlo.constant dense<[[0, 0], [0, 1], [0, 2], [0, 3], [1, 0], [1, 1], [1, 2], [1, 3], [2, 0], [2, 1], [2, 2], [2, 3], [3, 0], [3, 1], [3, 2], [3, 3], [4, 0], [4, 1], [4, 2], [4, 3], [5, 0], [5, 1], [5, 2], [5, 3], [6, 0], [6, 1], [6, 2], [6, 3], [7, 0], [7, 1], [7, 2], [7, 3], [8, 0], [8, 1], [8, 2], [8, 3], [9, 0], [9, 1], [9, 2], [9, 3], [10, 0], [10, 1], [10, 2], [10, 3], [11, 0], [11, 1], [11, 2], [11, 3]]> : tensor<48x2xi32> loc(#loc2823)
    %c_38 = stablehlo.constant dense<[[0, 1], [0, 2], [0, 3], [1, 2], [1, 3], [2, 3]]> : tensor<6x2xi32> loc(#loc2823)
    %cst_39 = stablehlo.constant dense<[0.000000e+00, 0.000000e+00, 0.000000e+00, 1.000000e+00]> : tensor<4xf32> loc(#loc2823)
    %0 = stablehlo.slice %arg1 [0:12, 0:1] : (tensor<12x4xf32>) -> tensor<12x1xf32> loc(#loc4932)
    %1 = stablehlo.reshape %0 : (tensor<12x1xf32>) -> tensor<12xf32> loc(#loc4933)
    %2 = stablehlo.slice %arg1 [0:12, 1:2] : (tensor<12x4xf32>) -> tensor<12x1xf32> loc(#loc4932)
    %3 = stablehlo.reshape %2 : (tensor<12x1xf32>) -> tensor<12xf32> loc(#loc4933)
    %4 = stablehlo.slice %arg1 [0:12, 2:3] : (tensor<12x4xf32>) -> tensor<12x1xf32> loc(#loc4932)
    %5 = stablehlo.reshape %4 : (tensor<12x1xf32>) -> tensor<12xf32> loc(#loc4933)
    %6 = stablehlo.slice %arg1 [0:12, 3:4] : (tensor<12x4xf32>) -> tensor<12x1xf32> loc(#loc4932)
    %7 = stablehlo.reshape %6 : (tensor<12x1xf32>) -> tensor<12xf32> loc(#loc4933)
    %8 = stablehlo.multiply %3, %3 : tensor<12xf32> loc(#loc4934)
    %9 = stablehlo.multiply %5, %5 : tensor<12xf32> loc(#loc4935)
    %10 = stablehlo.add %8, %9 : tensor<12xf32> loc(#loc4936)
    %11 = stablehlo.broadcast_in_dim %cst_34, dims = [] : (tensor<f32>) -> tensor<12xf32> loc(#loc4937)
    %12 = stablehlo.multiply %11, %10 : tensor<12xf32> loc(#loc4937)
    %13 = stablehlo.broadcast_in_dim %cst_33, dims = [] : (tensor<f32>) -> tensor<12xf32> loc(#loc4938)
    %14 = stablehlo.subtract %13, %12 : tensor<12xf32> loc(#loc4938)
    %15 = stablehlo.multiply %1, %3 : tensor<12xf32> loc(#loc4939)
    %16 = stablehlo.multiply %7, %5 : tensor<12xf32> loc(#loc4940)
    %17 = stablehlo.subtract %15, %16 : tensor<12xf32> loc(#loc4941)
    %18 = stablehlo.broadcast_in_dim %cst_34, dims = [] : (tensor<f32>) -> tensor<12xf32> loc(#loc4942)
    %19 = stablehlo.multiply %18, %17 : tensor<12xf32> loc(#loc4942)
    %20 = stablehlo.multiply %1, %5 : tensor<12xf32> loc(#loc4943)
    %21 = stablehlo.multiply %7, %3 : tensor<12xf32> loc(#loc4944)
    %22 = stablehlo.add %20, %21 : tensor<12xf32> loc(#loc4945)
    %23 = stablehlo.broadcast_in_dim %cst_34, dims = [] : (tensor<f32>) -> tensor<12xf32> loc(#loc4946)
    %24 = stablehlo.multiply %23, %22 : tensor<12xf32> loc(#loc4946)
    %25 = stablehlo.multiply %1, %3 : tensor<12xf32> loc(#loc4947)
    %26 = stablehlo.multiply %7, %5 : tensor<12xf32> loc(#loc4948)
    %27 = stablehlo.add %25, %26 : tensor<12xf32> loc(#loc4949)
    %28 = stablehlo.broadcast_in_dim %cst_34, dims = [] : (tensor<f32>) -> tensor<12xf32> loc(#loc4950)
    %29 = stablehlo.multiply %28, %27 : tensor<12xf32> loc(#loc4950)
    %30 = stablehlo.multiply %1, %1 : tensor<12xf32> loc(#loc4951)
    %31 = stablehlo.multiply %5, %5 : tensor<12xf32> loc(#loc4952)
    %32 = stablehlo.add %30, %31 : tensor<12xf32> loc(#loc4953)
    %33 = stablehlo.broadcast_in_dim %cst_34, dims = [] : (tensor<f32>) -> tensor<12xf32> loc(#loc4954)
    %34 = stablehlo.multiply %33, %32 : tensor<12xf32> loc(#loc4954)
    %35 = stablehlo.broadcast_in_dim %cst_33, dims = [] : (tensor<f32>) -> tensor<12xf32> loc(#loc4955)
    %36 = stablehlo.subtract %35, %34 : tensor<12xf32> loc(#loc4955)
    %37 = stablehlo.multiply %3, %5 : tensor<12xf32> loc(#loc4956)
    %38 = stablehlo.multiply %7, %1 : tensor<12xf32> loc(#loc4957)
    %39 = stablehlo.subtract %37, %38 : tensor<12xf32> loc(#loc4958)
    %40 = stablehlo.broadcast_in_dim %cst_34, dims = [] : (tensor<f32>) -> tensor<12xf32> loc(#loc4959)
    %41 = stablehlo.multiply %40, %39 : tensor<12xf32> loc(#loc4959)
    %42 = stablehlo.multiply %1, %5 : tensor<12xf32> loc(#loc4960)
    %43 = stablehlo.multiply %7, %3 : tensor<12xf32> loc(#loc4961)
    %44 = stablehlo.subtract %42, %43 : tensor<12xf32> loc(#loc4962)
    %45 = stablehlo.broadcast_in_dim %cst_34, dims = [] : (tensor<f32>) -> tensor<12xf32> loc(#loc4963)
    %46 = stablehlo.multiply %45, %44 : tensor<12xf32> loc(#loc4963)
    %47 = stablehlo.multiply %3, %5 : tensor<12xf32> loc(#loc4964)
    %48 = stablehlo.multiply %7, %1 : tensor<12xf32> loc(#loc4965)
    %49 = stablehlo.add %47, %48 : tensor<12xf32> loc(#loc4966)
    %50 = stablehlo.broadcast_in_dim %cst_34, dims = [] : (tensor<f32>) -> tensor<12xf32> loc(#loc4967)
    %51 = stablehlo.multiply %50, %49 : tensor<12xf32> loc(#loc4967)
    %52 = stablehlo.multiply %1, %1 : tensor<12xf32> loc(#loc4968)
    %53 = stablehlo.multiply %3, %3 : tensor<12xf32> loc(#loc4969)
    %54 = stablehlo.add %52, %53 : tensor<12xf32> loc(#loc4970)
    %55 = stablehlo.broadcast_in_dim %cst_34, dims = [] : (tensor<f32>) -> tensor<12xf32> loc(#loc4971)
    %56 = stablehlo.multiply %55, %54 : tensor<12xf32> loc(#loc4971)
    %57 = stablehlo.broadcast_in_dim %cst_33, dims = [] : (tensor<f32>) -> tensor<12xf32> loc(#loc4972)
    %58 = stablehlo.subtract %57, %56 : tensor<12xf32> loc(#loc4972)
    %59 = stablehlo.broadcast_in_dim %14, dims = [0] : (tensor<12xf32>) -> tensor<12x1xf32> loc(#loc4973)
    %60 = stablehlo.broadcast_in_dim %19, dims = [0] : (tensor<12xf32>) -> tensor<12x1xf32> loc(#loc4973)
    %61 = stablehlo.broadcast_in_dim %24, dims = [0] : (tensor<12xf32>) -> tensor<12x1xf32> loc(#loc4973)
    %62 = stablehlo.concatenate %59, %60, %61, dim = 1 : (tensor<12x1xf32>, tensor<12x1xf32>, tensor<12x1xf32>) -> tensor<12x3xf32> loc(#loc4974)
    %63 = stablehlo.broadcast_in_dim %62, dims = [0, 2] : (tensor<12x3xf32>) -> tensor<12x1x3xf32> loc(#loc4973)
    %64 = stablehlo.broadcast_in_dim %29, dims = [0] : (tensor<12xf32>) -> tensor<12x1xf32> loc(#loc4973)
    %65 = stablehlo.broadcast_in_dim %36, dims = [0] : (tensor<12xf32>) -> tensor<12x1xf32> loc(#loc4973)
    %66 = stablehlo.broadcast_in_dim %41, dims = [0] : (tensor<12xf32>) -> tensor<12x1xf32> loc(#loc4973)
    %67 = stablehlo.concatenate %64, %65, %66, dim = 1 : (tensor<12x1xf32>, tensor<12x1xf32>, tensor<12x1xf32>) -> tensor<12x3xf32> loc(#loc4974)
    %68 = stablehlo.broadcast_in_dim %67, dims = [0, 2] : (tensor<12x3xf32>) -> tensor<12x1x3xf32> loc(#loc4973)
    %69 = stablehlo.broadcast_in_dim %46, dims = [0] : (tensor<12xf32>) -> tensor<12x1xf32> loc(#loc4973)
    %70 = stablehlo.broadcast_in_dim %51, dims = [0] : (tensor<12xf32>) -> tensor<12x1xf32> loc(#loc4973)
    %71 = stablehlo.broadcast_in_dim %58, dims = [0] : (tensor<12xf32>) -> tensor<12x1xf32> loc(#loc4973)
    %72 = stablehlo.concatenate %69, %70, %71, dim = 1 : (tensor<12x1xf32>, tensor<12x1xf32>, tensor<12x1xf32>) -> tensor<12x3xf32> loc(#loc4974)
    %73 = stablehlo.broadcast_in_dim %72, dims = [0, 2] : (tensor<12x3xf32>) -> tensor<12x1x3xf32> loc(#loc4973)
    %74 = stablehlo.concatenate %63, %68, %73, dim = 1 : (tensor<12x1x3xf32>, tensor<12x1x3xf32>, tensor<12x1x3xf32>) -> tensor<12x3x3xf32> loc(#loc4974)
    %75 = call @_diag(%arg5) : (tensor<12x3xf32>) -> tensor<12x3x3xf32> loc(#loc4296)
    %76 = stablehlo.dot_general %74, %75, batching_dims = [0] x [0], contracting_dims = [2] x [1] : (tensor<12x3x3xf32>, tensor<12x3x3xf32>) -> tensor<12x3x3xf32> loc(#loc4297)
    %77 = stablehlo.transpose %74, dims = [0, 2, 1] : (tensor<12x3x3xf32>) -> tensor<12x3x3xf32> loc(#loc4298)
    %78 = stablehlo.dot_general %76, %77, batching_dims = [0] x [0], contracting_dims = [2] x [1] : (tensor<12x3x3xf32>, tensor<12x3x3xf32>) -> tensor<12x3x3xf32> loc(#loc4299)
    %79 = stablehlo.slice %arg16 [0:4, 0:1] : (tensor<4x4xf32>) -> tensor<4x1xf32> loc(#loc4975)
    %80 = stablehlo.reshape %79 : (tensor<4x1xf32>) -> tensor<4xf32> loc(#loc4976)
    %81 = stablehlo.slice %arg16 [0:4, 1:2] : (tensor<4x4xf32>) -> tensor<4x1xf32> loc(#loc4975)
    %82 = stablehlo.reshape %81 : (tensor<4x1xf32>) -> tensor<4xf32> loc(#loc4976)
    %83 = stablehlo.slice %arg16 [0:4, 2:3] : (tensor<4x4xf32>) -> tensor<4x1xf32> loc(#loc4975)
    %84 = stablehlo.reshape %83 : (tensor<4x1xf32>) -> tensor<4xf32> loc(#loc4976)
    %85 = stablehlo.slice %arg16 [0:4, 3:4] : (tensor<4x4xf32>) -> tensor<4x1xf32> loc(#loc4975)
    %86 = stablehlo.reshape %85 : (tensor<4x1xf32>) -> tensor<4xf32> loc(#loc4976)
    %87 = stablehlo.multiply %82, %82 : tensor<4xf32> loc(#loc4977)
    %88 = stablehlo.multiply %84, %84 : tensor<4xf32> loc(#loc4978)
    %89 = stablehlo.add %87, %88 : tensor<4xf32> loc(#loc4979)
    %90 = stablehlo.broadcast_in_dim %cst_34, dims = [] : (tensor<f32>) -> tensor<4xf32> loc(#loc4980)
    %91 = stablehlo.multiply %90, %89 : tensor<4xf32> loc(#loc4980)
    %92 = stablehlo.broadcast_in_dim %cst_33, dims = [] : (tensor<f32>) -> tensor<4xf32> loc(#loc4981)
    %93 = stablehlo.subtract %92, %91 : tensor<4xf32> loc(#loc4981)
    %94 = stablehlo.multiply %80, %82 : tensor<4xf32> loc(#loc4982)
    %95 = stablehlo.multiply %86, %84 : tensor<4xf32> loc(#loc4983)
    %96 = stablehlo.subtract %94, %95 : tensor<4xf32> loc(#loc4984)
    %97 = stablehlo.broadcast_in_dim %cst_34, dims = [] : (tensor<f32>) -> tensor<4xf32> loc(#loc4985)
    %98 = stablehlo.multiply %97, %96 : tensor<4xf32> loc(#loc4985)
    %99 = stablehlo.multiply %80, %84 : tensor<4xf32> loc(#loc4986)
    %100 = stablehlo.multiply %86, %82 : tensor<4xf32> loc(#loc4987)
    %101 = stablehlo.add %99, %100 : tensor<4xf32> loc(#loc4988)
    %102 = stablehlo.broadcast_in_dim %cst_34, dims = [] : (tensor<f32>) -> tensor<4xf32> loc(#loc4989)
    %103 = stablehlo.multiply %102, %101 : tensor<4xf32> loc(#loc4989)
    %104 = stablehlo.multiply %80, %82 : tensor<4xf32> loc(#loc4990)
    %105 = stablehlo.multiply %86, %84 : tensor<4xf32> loc(#loc4991)
    %106 = stablehlo.add %104, %105 : tensor<4xf32> loc(#loc4992)
    %107 = stablehlo.broadcast_in_dim %cst_34, dims = [] : (tensor<f32>) -> tensor<4xf32> loc(#loc4993)
    %108 = stablehlo.multiply %107, %106 : tensor<4xf32> loc(#loc4993)
    %109 = stablehlo.multiply %80, %80 : tensor<4xf32> loc(#loc4994)
    %110 = stablehlo.multiply %84, %84 : tensor<4xf32> loc(#loc4995)
    %111 = stablehlo.add %109, %110 : tensor<4xf32> loc(#loc4996)
    %112 = stablehlo.broadcast_in_dim %cst_34, dims = [] : (tensor<f32>) -> tensor<4xf32> loc(#loc4997)
    %113 = stablehlo.multiply %112, %111 : tensor<4xf32> loc(#loc4997)
    %114 = stablehlo.broadcast_in_dim %cst_33, dims = [] : (tensor<f32>) -> tensor<4xf32> loc(#loc4998)
    %115 = stablehlo.subtract %114, %113 : tensor<4xf32> loc(#loc4998)
    %116 = stablehlo.multiply %82, %84 : tensor<4xf32> loc(#loc4999)
    %117 = stablehlo.multiply %86, %80 : tensor<4xf32> loc(#loc5000)
    %118 = stablehlo.subtract %116, %117 : tensor<4xf32> loc(#loc5001)
    %119 = stablehlo.broadcast_in_dim %cst_34, dims = [] : (tensor<f32>) -> tensor<4xf32> loc(#loc5002)
    %120 = stablehlo.multiply %119, %118 : tensor<4xf32> loc(#loc5002)
    %121 = stablehlo.multiply %80, %84 : tensor<4xf32> loc(#loc5003)
    %122 = stablehlo.multiply %86, %82 : tensor<4xf32> loc(#loc5004)
    %123 = stablehlo.subtract %121, %122 : tensor<4xf32> loc(#loc5005)
    %124 = stablehlo.broadcast_in_dim %cst_34, dims = [] : (tensor<f32>) -> tensor<4xf32> loc(#loc5006)
    %125 = stablehlo.multiply %124, %123 : tensor<4xf32> loc(#loc5006)
    %126 = stablehlo.multiply %82, %84 : tensor<4xf32> loc(#loc5007)
    %127 = stablehlo.multiply %86, %80 : tensor<4xf32> loc(#loc5008)
    %128 = stablehlo.add %126, %127 : tensor<4xf32> loc(#loc5009)
    %129 = stablehlo.broadcast_in_dim %cst_34, dims = [] : (tensor<f32>) -> tensor<4xf32> loc(#loc5010)
    %130 = stablehlo.multiply %129, %128 : tensor<4xf32> loc(#loc5010)
    %131 = stablehlo.multiply %80, %80 : tensor<4xf32> loc(#loc5011)
    %132 = stablehlo.multiply %82, %82 : tensor<4xf32> loc(#loc5012)
    %133 = stablehlo.add %131, %132 : tensor<4xf32> loc(#loc5013)
    %134 = stablehlo.broadcast_in_dim %cst_34, dims = [] : (tensor<f32>) -> tensor<4xf32> loc(#loc5014)
    %135 = stablehlo.multiply %134, %133 : tensor<4xf32> loc(#loc5014)
    %136 = stablehlo.broadcast_in_dim %cst_33, dims = [] : (tensor<f32>) -> tensor<4xf32> loc(#loc5015)
    %137 = stablehlo.subtract %136, %135 : tensor<4xf32> loc(#loc5015)
    %138 = stablehlo.broadcast_in_dim %93, dims = [0] : (tensor<4xf32>) -> tensor<4x1xf32> loc(#loc5016)
    %139 = stablehlo.broadcast_in_dim %98, dims = [0] : (tensor<4xf32>) -> tensor<4x1xf32> loc(#loc5016)
    %140 = stablehlo.broadcast_in_dim %103, dims = [0] : (tensor<4xf32>) -> tensor<4x1xf32> loc(#loc5016)
    %141 = stablehlo.concatenate %138, %139, %140, dim = 1 : (tensor<4x1xf32>, tensor<4x1xf32>, tensor<4x1xf32>) -> tensor<4x3xf32> loc(#loc5017)
    %142 = stablehlo.broadcast_in_dim %141, dims = [0, 2] : (tensor<4x3xf32>) -> tensor<4x1x3xf32> loc(#loc5016)
    %143 = stablehlo.broadcast_in_dim %108, dims = [0] : (tensor<4xf32>) -> tensor<4x1xf32> loc(#loc5016)
    %144 = stablehlo.broadcast_in_dim %115, dims = [0] : (tensor<4xf32>) -> tensor<4x1xf32> loc(#loc5016)
    %145 = stablehlo.broadcast_in_dim %120, dims = [0] : (tensor<4xf32>) -> tensor<4x1xf32> loc(#loc5016)
    %146 = stablehlo.concatenate %143, %144, %145, dim = 1 : (tensor<4x1xf32>, tensor<4x1xf32>, tensor<4x1xf32>) -> tensor<4x3xf32> loc(#loc5017)
    %147 = stablehlo.broadcast_in_dim %146, dims = [0, 2] : (tensor<4x3xf32>) -> tensor<4x1x3xf32> loc(#loc5016)
    %148 = stablehlo.broadcast_in_dim %125, dims = [0] : (tensor<4xf32>) -> tensor<4x1xf32> loc(#loc5016)
    %149 = stablehlo.broadcast_in_dim %130, dims = [0] : (tensor<4xf32>) -> tensor<4x1xf32> loc(#loc5016)
    %150 = stablehlo.broadcast_in_dim %137, dims = [0] : (tensor<4xf32>) -> tensor<4x1xf32> loc(#loc5016)
    %151 = stablehlo.concatenate %148, %149, %150, dim = 1 : (tensor<4x1xf32>, tensor<4x1xf32>, tensor<4x1xf32>) -> tensor<4x3xf32> loc(#loc5017)
    %152 = stablehlo.broadcast_in_dim %151, dims = [0, 2] : (tensor<4x3xf32>) -> tensor<4x1x3xf32> loc(#loc5016)
    %153 = stablehlo.concatenate %142, %147, %152, dim = 1 : (tensor<4x1x3xf32>, tensor<4x1x3xf32>, tensor<4x1x3xf32>) -> tensor<4x3x3xf32> loc(#loc5017)
    %154 = call @_diag_0(%arg20) : (tensor<4x3xf32>) -> tensor<4x3x3xf32> loc(#loc4341)
    %155 = stablehlo.dot_general %153, %154, batching_dims = [0] x [0], contracting_dims = [2] x [1] : (tensor<4x3x3xf32>, tensor<4x3x3xf32>) -> tensor<4x3x3xf32> loc(#loc4342)
    %156 = stablehlo.transpose %153, dims = [0, 2, 1] : (tensor<4x3x3xf32>) -> tensor<4x3x3xf32> loc(#loc4343)
    %157 = stablehlo.dot_general %155, %156, batching_dims = [0] x [0], contracting_dims = [2] x [1] : (tensor<4x3x3xf32>, tensor<4x3x3xf32>) -> tensor<4x3x3xf32> loc(#loc4344)
    %158 = stablehlo.slice %arg31 [0:0, 0:1] : (tensor<0x4xf32>) -> tensor<0x1xf32> loc(#loc5018)
    %159 = stablehlo.reshape %158 : (tensor<0x1xf32>) -> tensor<0xf32> loc(#loc5019)
    %160 = stablehlo.slice %arg31 [0:0, 1:2] : (tensor<0x4xf32>) -> tensor<0x1xf32> loc(#loc5018)
    %161 = stablehlo.reshape %160 : (tensor<0x1xf32>) -> tensor<0xf32> loc(#loc5019)
    %162 = stablehlo.slice %arg31 [0:0, 2:3] : (tensor<0x4xf32>) -> tensor<0x1xf32> loc(#loc5018)
    %163 = stablehlo.reshape %162 : (tensor<0x1xf32>) -> tensor<0xf32> loc(#loc5019)
    %164 = stablehlo.slice %arg31 [0:0, 3:4] : (tensor<0x4xf32>) -> tensor<0x1xf32> loc(#loc5018)
    %165 = stablehlo.reshape %164 : (tensor<0x1xf32>) -> tensor<0xf32> loc(#loc5019)
    %166 = stablehlo.multiply %161, %161 : tensor<0xf32> loc(#loc5020)
    %167 = stablehlo.multiply %163, %163 : tensor<0xf32> loc(#loc5021)
    %168 = stablehlo.add %166, %167 : tensor<0xf32> loc(#loc5022)
    %169 = stablehlo.broadcast_in_dim %cst_34, dims = [] : (tensor<f32>) -> tensor<0xf32> loc(#loc5023)
    %170 = stablehlo.multiply %169, %168 : tensor<0xf32> loc(#loc5023)
    %171 = stablehlo.broadcast_in_dim %cst_33, dims = [] : (tensor<f32>) -> tensor<0xf32> loc(#loc5024)
    %172 = stablehlo.subtract %171, %170 : tensor<0xf32> loc(#loc5024)
    %173 = stablehlo.multiply %159, %161 : tensor<0xf32> loc(#loc5025)
    %174 = stablehlo.multiply %165, %163 : tensor<0xf32> loc(#loc5026)
    %175 = stablehlo.subtract %173, %174 : tensor<0xf32> loc(#loc5027)
    %176 = stablehlo.broadcast_in_dim %cst_34, dims = [] : (tensor<f32>) -> tensor<0xf32> loc(#loc5028)
    %177 = stablehlo.multiply %176, %175 : tensor<0xf32> loc(#loc5028)
    %178 = stablehlo.multiply %159, %163 : tensor<0xf32> loc(#loc5029)
    %179 = stablehlo.multiply %165, %161 : tensor<0xf32> loc(#loc5030)
    %180 = stablehlo.add %178, %179 : tensor<0xf32> loc(#loc5031)
    %181 = stablehlo.broadcast_in_dim %cst_34, dims = [] : (tensor<f32>) -> tensor<0xf32> loc(#loc5032)
    %182 = stablehlo.multiply %181, %180 : tensor<0xf32> loc(#loc5032)
    %183 = stablehlo.multiply %159, %161 : tensor<0xf32> loc(#loc5033)
    %184 = stablehlo.multiply %165, %163 : tensor<0xf32> loc(#loc5034)
    %185 = stablehlo.add %183, %184 : tensor<0xf32> loc(#loc5035)
    %186 = stablehlo.broadcast_in_dim %cst_34, dims = [] : (tensor<f32>) -> tensor<0xf32> loc(#loc5036)
    %187 = stablehlo.multiply %186, %185 : tensor<0xf32> loc(#loc5036)
    %188 = stablehlo.multiply %159, %159 : tensor<0xf32> loc(#loc5037)
    %189 = stablehlo.multiply %163, %163 : tensor<0xf32> loc(#loc5038)
    %190 = stablehlo.add %188, %189 : tensor<0xf32> loc(#loc5039)
    %191 = stablehlo.broadcast_in_dim %cst_34, dims = [] : (tensor<f32>) -> tensor<0xf32> loc(#loc5040)
    %192 = stablehlo.multiply %191, %190 : tensor<0xf32> loc(#loc5040)
    %193 = stablehlo.broadcast_in_dim %cst_33, dims = [] : (tensor<f32>) -> tensor<0xf32> loc(#loc5041)
    %194 = stablehlo.subtract %193, %192 : tensor<0xf32> loc(#loc5041)
    %195 = stablehlo.multiply %161, %163 : tensor<0xf32> loc(#loc5042)
    %196 = stablehlo.multiply %165, %159 : tensor<0xf32> loc(#loc5043)
    %197 = stablehlo.subtract %195, %196 : tensor<0xf32> loc(#loc5044)
    %198 = stablehlo.broadcast_in_dim %cst_34, dims = [] : (tensor<f32>) -> tensor<0xf32> loc(#loc5045)
    %199 = stablehlo.multiply %198, %197 : tensor<0xf32> loc(#loc5045)
    %200 = stablehlo.multiply %159, %163 : tensor<0xf32> loc(#loc5046)
    %201 = stablehlo.multiply %165, %161 : tensor<0xf32> loc(#loc5047)
    %202 = stablehlo.subtract %200, %201 : tensor<0xf32> loc(#loc5048)
    %203 = stablehlo.broadcast_in_dim %cst_34, dims = [] : (tensor<f32>) -> tensor<0xf32> loc(#loc5049)
    %204 = stablehlo.multiply %203, %202 : tensor<0xf32> loc(#loc5049)
    %205 = stablehlo.multiply %161, %163 : tensor<0xf32> loc(#loc5050)
    %206 = stablehlo.multiply %165, %159 : tensor<0xf32> loc(#loc5051)
    %207 = stablehlo.add %205, %206 : tensor<0xf32> loc(#loc5052)
    %208 = stablehlo.broadcast_in_dim %cst_34, dims = [] : (tensor<f32>) -> tensor<0xf32> loc(#loc5053)
    %209 = stablehlo.multiply %208, %207 : tensor<0xf32> loc(#loc5053)
    %210 = stablehlo.multiply %159, %159 : tensor<0xf32> loc(#loc5054)
    %211 = stablehlo.multiply %161, %161 : tensor<0xf32> loc(#loc5055)
    %212 = stablehlo.add %210, %211 : tensor<0xf32> loc(#loc5056)
    %213 = stablehlo.broadcast_in_dim %cst_34, dims = [] : (tensor<f32>) -> tensor<0xf32> loc(#loc5057)
    %214 = stablehlo.multiply %213, %212 : tensor<0xf32> loc(#loc5057)
    %215 = stablehlo.broadcast_in_dim %cst_33, dims = [] : (tensor<f32>) -> tensor<0xf32> loc(#loc5058)
    %216 = stablehlo.subtract %215, %214 : tensor<0xf32> loc(#loc5058)
    %217 = stablehlo.broadcast_in_dim %172, dims = [0] : (tensor<0xf32>) -> tensor<0x1xf32> loc(#loc5059)
    %218 = stablehlo.broadcast_in_dim %177, dims = [0] : (tensor<0xf32>) -> tensor<0x1xf32> loc(#loc5059)
    %219 = stablehlo.broadcast_in_dim %182, dims = [0] : (tensor<0xf32>) -> tensor<0x1xf32> loc(#loc5059)
    %220 = stablehlo.concatenate %217, %218, %219, dim = 1 : (tensor<0x1xf32>, tensor<0x1xf32>, tensor<0x1xf32>) -> tensor<0x3xf32> loc(#loc5060)
    %221 = stablehlo.broadcast_in_dim %220, dims = [0, 2] : (tensor<0x3xf32>) -> tensor<0x1x3xf32> loc(#loc5059)
    %222 = stablehlo.broadcast_in_dim %187, dims = [0] : (tensor<0xf32>) -> tensor<0x1xf32> loc(#loc5059)
    %223 = stablehlo.broadcast_in_dim %194, dims = [0] : (tensor<0xf32>) -> tensor<0x1xf32> loc(#loc5059)
    %224 = stablehlo.broadcast_in_dim %199, dims = [0] : (tensor<0xf32>) -> tensor<0x1xf32> loc(#loc5059)
    %225 = stablehlo.concatenate %222, %223, %224, dim = 1 : (tensor<0x1xf32>, tensor<0x1xf32>, tensor<0x1xf32>) -> tensor<0x3xf32> loc(#loc5060)
    %226 = stablehlo.broadcast_in_dim %225, dims = [0, 2] : (tensor<0x3xf32>) -> tensor<0x1x3xf32> loc(#loc5059)
    %227 = stablehlo.broadcast_in_dim %204, dims = [0] : (tensor<0xf32>) -> tensor<0x1xf32> loc(#loc5059)
    %228 = stablehlo.broadcast_in_dim %209, dims = [0] : (tensor<0xf32>) -> tensor<0x1xf32> loc(#loc5059)
    %229 = stablehlo.broadcast_in_dim %216, dims = [0] : (tensor<0xf32>) -> tensor<0x1xf32> loc(#loc5059)
    %230 = stablehlo.concatenate %227, %228, %229, dim = 1 : (tensor<0x1xf32>, tensor<0x1xf32>, tensor<0x1xf32>) -> tensor<0x3xf32> loc(#loc5060)
    %231 = stablehlo.broadcast_in_dim %230, dims = [0, 2] : (tensor<0x3xf32>) -> tensor<0x1x3xf32> loc(#loc5059)
    %232 = stablehlo.concatenate %221, %226, %231, dim = 1 : (tensor<0x1x3xf32>, tensor<0x1x3xf32>, tensor<0x1x3xf32>) -> tensor<0x3x3xf32> loc(#loc5060)
    %233 = call @_diag_2(%arg35) : (tensor<0x3xf32>) -> tensor<0x3x3xf32> loc(#loc4386)
    %234 = stablehlo.dot_general %232, %233, batching_dims = [0] x [0], contracting_dims = [2] x [1] : (tensor<0x3x3xf32>, tensor<0x3x3xf32>) -> tensor<0x3x3xf32> loc(#loc4387)
    %235 = stablehlo.transpose %232, dims = [0, 2, 1] : (tensor<0x3x3xf32>) -> tensor<0x3x3xf32> loc(#loc4388)
    %236 = stablehlo.dot_general %234, %235, batching_dims = [0] x [0], contracting_dims = [2] x [1] : (tensor<0x3x3xf32>, tensor<0x3x3xf32>) -> tensor<0x3x3xf32> loc(#loc4389)
    %237 = stablehlo.slice %arg46 [0:0, 0:1] : (tensor<0x4xf32>) -> tensor<0x1xf32> loc(#loc5061)
    %238 = stablehlo.reshape %237 : (tensor<0x1xf32>) -> tensor<0xf32> loc(#loc5062)
    %239 = stablehlo.slice %arg46 [0:0, 1:2] : (tensor<0x4xf32>) -> tensor<0x1xf32> loc(#loc5061)
    %240 = stablehlo.reshape %239 : (tensor<0x1xf32>) -> tensor<0xf32> loc(#loc5062)
    %241 = stablehlo.slice %arg46 [0:0, 2:3] : (tensor<0x4xf32>) -> tensor<0x1xf32> loc(#loc5061)
    %242 = stablehlo.reshape %241 : (tensor<0x1xf32>) -> tensor<0xf32> loc(#loc5062)
    %243 = stablehlo.slice %arg46 [0:0, 3:4] : (tensor<0x4xf32>) -> tensor<0x1xf32> loc(#loc5061)
    %244 = stablehlo.reshape %243 : (tensor<0x1xf32>) -> tensor<0xf32> loc(#loc5062)
    %245 = stablehlo.multiply %240, %240 : tensor<0xf32> loc(#loc5063)
    %246 = stablehlo.multiply %242, %242 : tensor<0xf32> loc(#loc5064)
    %247 = stablehlo.add %245, %246 : tensor<0xf32> loc(#loc5065)
    %248 = stablehlo.broadcast_in_dim %cst_34, dims = [] : (tensor<f32>) -> tensor<0xf32> loc(#loc5066)
    %249 = stablehlo.multiply %248, %247 : tensor<0xf32> loc(#loc5066)
    %250 = stablehlo.broadcast_in_dim %cst_33, dims = [] : (tensor<f32>) -> tensor<0xf32> loc(#loc5067)
    %251 = stablehlo.subtract %250, %249 : tensor<0xf32> loc(#loc5067)
    %252 = stablehlo.multiply %238, %240 : tensor<0xf32> loc(#loc5068)
    %253 = stablehlo.multiply %244, %242 : tensor<0xf32> loc(#loc5069)
    %254 = stablehlo.subtract %252, %253 : tensor<0xf32> loc(#loc5070)
    %255 = stablehlo.broadcast_in_dim %cst_34, dims = [] : (tensor<f32>) -> tensor<0xf32> loc(#loc5071)
    %256 = stablehlo.multiply %255, %254 : tensor<0xf32> loc(#loc5071)
    %257 = stablehlo.multiply %238, %242 : tensor<0xf32> loc(#loc5072)
    %258 = stablehlo.multiply %244, %240 : tensor<0xf32> loc(#loc5073)
    %259 = stablehlo.add %257, %258 : tensor<0xf32> loc(#loc5074)
    %260 = stablehlo.broadcast_in_dim %cst_34, dims = [] : (tensor<f32>) -> tensor<0xf32> loc(#loc5075)
    %261 = stablehlo.multiply %260, %259 : tensor<0xf32> loc(#loc5075)
    %262 = stablehlo.multiply %238, %240 : tensor<0xf32> loc(#loc5076)
    %263 = stablehlo.multiply %244, %242 : tensor<0xf32> loc(#loc5077)
    %264 = stablehlo.add %262, %263 : tensor<0xf32> loc(#loc5078)
    %265 = stablehlo.broadcast_in_dim %cst_34, dims = [] : (tensor<f32>) -> tensor<0xf32> loc(#loc5079)
    %266 = stablehlo.multiply %265, %264 : tensor<0xf32> loc(#loc5079)
    %267 = stablehlo.multiply %238, %238 : tensor<0xf32> loc(#loc5080)
    %268 = stablehlo.multiply %242, %242 : tensor<0xf32> loc(#loc5081)
    %269 = stablehlo.add %267, %268 : tensor<0xf32> loc(#loc5082)
    %270 = stablehlo.broadcast_in_dim %cst_34, dims = [] : (tensor<f32>) -> tensor<0xf32> loc(#loc5083)
    %271 = stablehlo.multiply %270, %269 : tensor<0xf32> loc(#loc5083)
    %272 = stablehlo.broadcast_in_dim %cst_33, dims = [] : (tensor<f32>) -> tensor<0xf32> loc(#loc5084)
    %273 = stablehlo.subtract %272, %271 : tensor<0xf32> loc(#loc5084)
    %274 = stablehlo.multiply %240, %242 : tensor<0xf32> loc(#loc5085)
    %275 = stablehlo.multiply %244, %238 : tensor<0xf32> loc(#loc5086)
    %276 = stablehlo.subtract %274, %275 : tensor<0xf32> loc(#loc5087)
    %277 = stablehlo.broadcast_in_dim %cst_34, dims = [] : (tensor<f32>) -> tensor<0xf32> loc(#loc5088)
    %278 = stablehlo.multiply %277, %276 : tensor<0xf32> loc(#loc5088)
    %279 = stablehlo.multiply %238, %242 : tensor<0xf32> loc(#loc5089)
    %280 = stablehlo.multiply %244, %240 : tensor<0xf32> loc(#loc5090)
    %281 = stablehlo.subtract %279, %280 : tensor<0xf32> loc(#loc5091)
    %282 = stablehlo.broadcast_in_dim %cst_34, dims = [] : (tensor<f32>) -> tensor<0xf32> loc(#loc5092)
    %283 = stablehlo.multiply %282, %281 : tensor<0xf32> loc(#loc5092)
    %284 = stablehlo.multiply %240, %242 : tensor<0xf32> loc(#loc5093)
    %285 = stablehlo.multiply %244, %238 : tensor<0xf32> loc(#loc5094)
    %286 = stablehlo.add %284, %285 : tensor<0xf32> loc(#loc5095)
    %287 = stablehlo.broadcast_in_dim %cst_34, dims = [] : (tensor<f32>) -> tensor<0xf32> loc(#loc5096)
    %288 = stablehlo.multiply %287, %286 : tensor<0xf32> loc(#loc5096)
    %289 = stablehlo.multiply %238, %238 : tensor<0xf32> loc(#loc5097)
    %290 = stablehlo.multiply %240, %240 : tensor<0xf32> loc(#loc5098)
    %291 = stablehlo.add %289, %290 : tensor<0xf32> loc(#loc5099)
    %292 = stablehlo.broadcast_in_dim %cst_34, dims = [] : (tensor<f32>) -> tensor<0xf32> loc(#loc5100)
    %293 = stablehlo.multiply %292, %291 : tensor<0xf32> loc(#loc5100)
    %294 = stablehlo.broadcast_in_dim %cst_33, dims = [] : (tensor<f32>) -> tensor<0xf32> loc(#loc5101)
    %295 = stablehlo.subtract %294, %293 : tensor<0xf32> loc(#loc5101)
    %296 = stablehlo.broadcast_in_dim %251, dims = [0] : (tensor<0xf32>) -> tensor<0x1xf32> loc(#loc5102)
    %297 = stablehlo.broadcast_in_dim %256, dims = [0] : (tensor<0xf32>) -> tensor<0x1xf32> loc(#loc5102)
    %298 = stablehlo.broadcast_in_dim %261, dims = [0] : (tensor<0xf32>) -> tensor<0x1xf32> loc(#loc5102)
    %299 = stablehlo.concatenate %296, %297, %298, dim = 1 : (tensor<0x1xf32>, tensor<0x1xf32>, tensor<0x1xf32>) -> tensor<0x3xf32> loc(#loc5103)
    %300 = stablehlo.broadcast_in_dim %299, dims = [0, 2] : (tensor<0x3xf32>) -> tensor<0x1x3xf32> loc(#loc5102)
    %301 = stablehlo.broadcast_in_dim %266, dims = [0] : (tensor<0xf32>) -> tensor<0x1xf32> loc(#loc5102)
    %302 = stablehlo.broadcast_in_dim %273, dims = [0] : (tensor<0xf32>) -> tensor<0x1xf32> loc(#loc5102)
    %303 = stablehlo.broadcast_in_dim %278, dims = [0] : (tensor<0xf32>) -> tensor<0x1xf32> loc(#loc5102)
    %304 = stablehlo.concatenate %301, %302, %303, dim = 1 : (tensor<0x1xf32>, tensor<0x1xf32>, tensor<0x1xf32>) -> tensor<0x3xf32> loc(#loc5103)
    %305 = stablehlo.broadcast_in_dim %304, dims = [0, 2] : (tensor<0x3xf32>) -> tensor<0x1x3xf32> loc(#loc5102)
    %306 = stablehlo.broadcast_in_dim %283, dims = [0] : (tensor<0xf32>) -> tensor<0x1xf32> loc(#loc5102)
    %307 = stablehlo.broadcast_in_dim %288, dims = [0] : (tensor<0xf32>) -> tensor<0x1xf32> loc(#loc5102)
    %308 = stablehlo.broadcast_in_dim %295, dims = [0] : (tensor<0xf32>) -> tensor<0x1xf32> loc(#loc5102)
    %309 = stablehlo.concatenate %306, %307, %308, dim = 1 : (tensor<0x1xf32>, tensor<0x1xf32>, tensor<0x1xf32>) -> tensor<0x3xf32> loc(#loc5103)
    %310 = stablehlo.broadcast_in_dim %309, dims = [0, 2] : (tensor<0x3xf32>) -> tensor<0x1x3xf32> loc(#loc5102)
    %311 = stablehlo.concatenate %300, %305, %310, dim = 1 : (tensor<0x1x3xf32>, tensor<0x1x3xf32>, tensor<0x1x3xf32>) -> tensor<0x3x3xf32> loc(#loc5103)
    %312 = call @_diag_2(%arg50) : (tensor<0x3xf32>) -> tensor<0x3x3xf32> loc(#loc4431)
    %313 = stablehlo.dot_general %311, %312, batching_dims = [0] x [0], contracting_dims = [2] x [1] : (tensor<0x3x3xf32>, tensor<0x3x3xf32>) -> tensor<0x3x3xf32> loc(#loc4432)
    %314 = stablehlo.transpose %311, dims = [0, 2, 1] : (tensor<0x3x3xf32>) -> tensor<0x3x3xf32> loc(#loc4433)
    %315 = stablehlo.dot_general %313, %314, batching_dims = [0] x [0], contracting_dims = [2] x [1] : (tensor<0x3x3xf32>, tensor<0x3x3xf32>) -> tensor<0x3x3xf32> loc(#loc4434)
    %316 = stablehlo.broadcast_in_dim %cst_32, dims = [] : (tensor<f32>) -> tensor<3xf32> loc(#loc3810)
    %317 = stablehlo.multiply %arg135, %316 : tensor<3xf32> loc(#loc3810)
    %318 = stablehlo.broadcast_in_dim %cst_31, dims = [] : (tensor<f32>) -> tensor<12xf32> loc(#loc3811)
    %319 = stablehlo.compare NE, %arg4, %318, FLOAT : (tensor<12xf32>, tensor<12xf32>) -> tensor<12xi1> loc(#loc3811)
    %320 = stablehlo.broadcast_in_dim %319, dims = [0] : (tensor<12xi1>) -> tensor<12x1xi1> loc(#loc3812)
    %321 = stablehlo.convert %320 : (tensor<12x1xi1>) -> tensor<12x1xf32> loc(#loc3813)
    %322 = stablehlo.broadcast_in_dim %317, dims = [1] : (tensor<3xf32>) -> tensor<1x3xf32> loc(#loc3814)
    %323 = stablehlo.broadcast_in_dim %322, dims = [0, 1] : (tensor<1x3xf32>) -> tensor<12x3xf32> loc(#loc3815)
    %324 = stablehlo.broadcast_in_dim %321, dims = [0, 1] : (tensor<12x1xf32>) -> tensor<12x3xf32> loc(#loc3815)
    %325 = stablehlo.multiply %323, %324 : tensor<12x3xf32> loc(#loc3815)
    %326 = stablehlo.add %arg2, %325 : tensor<12x3xf32> loc(#loc3816)
    %327 = stablehlo.broadcast_in_dim %cst_32, dims = [] : (tensor<f32>) -> tensor<3xf32> loc(#loc3817)
    %328 = stablehlo.multiply %arg135, %327 : tensor<3xf32> loc(#loc3817)
    %329 = stablehlo.broadcast_in_dim %cst_31, dims = [] : (tensor<f32>) -> tensor<4xf32> loc(#loc3818)
    %330 = stablehlo.compare NE, %arg19, %329, FLOAT : (tensor<4xf32>, tensor<4xf32>) -> tensor<4xi1> loc(#loc3818)
    %331 = stablehlo.broadcast_in_dim %330, dims = [0] : (tensor<4xi1>) -> tensor<4x1xi1> loc(#loc3819)
    %332 = stablehlo.convert %331 : (tensor<4x1xi1>) -> tensor<4x1xf32> loc(#loc3820)
    %333 = stablehlo.broadcast_in_dim %328, dims = [1] : (tensor<3xf32>) -> tensor<1x3xf32> loc(#loc3821)
    %334 = stablehlo.broadcast_in_dim %333, dims = [0, 1] : (tensor<1x3xf32>) -> tensor<4x3xf32> loc(#loc3822)
    %335 = stablehlo.broadcast_in_dim %332, dims = [0, 1] : (tensor<4x1xf32>) -> tensor<4x3xf32> loc(#loc3822)
    %336 = stablehlo.multiply %334, %335 : tensor<4x3xf32> loc(#loc3822)
    %337 = stablehlo.add %arg17, %336 : tensor<4x3xf32> loc(#loc3823)
    %338 = stablehlo.broadcast_in_dim %cst_32, dims = [] : (tensor<f32>) -> tensor<3xf32> loc(#loc3824)
    %339 = stablehlo.multiply %arg135, %338 : tensor<3xf32> loc(#loc3824)
    %340 = stablehlo.broadcast_in_dim %cst_31, dims = [] : (tensor<f32>) -> tensor<0xf32> loc(#loc3825)
    %341 = stablehlo.compare NE, %arg34, %340, FLOAT : (tensor<0xf32>, tensor<0xf32>) -> tensor<0xi1> loc(#loc3825)
    %342 = stablehlo.broadcast_in_dim %341, dims = [0] : (tensor<0xi1>) -> tensor<0x1xi1> loc(#loc3826)
    %343 = stablehlo.convert %342 : (tensor<0x1xi1>) -> tensor<0x1xf32> loc(#loc3827)
    %344 = stablehlo.broadcast_in_dim %339, dims = [1] : (tensor<3xf32>) -> tensor<1x3xf32> loc(#loc3828)
    %345 = stablehlo.broadcast_in_dim %344, dims = [0, 1] : (tensor<1x3xf32>) -> tensor<0x3xf32> loc(#loc3829)
    %346 = stablehlo.broadcast_in_dim %343, dims = [0, 1] : (tensor<0x1xf32>) -> tensor<0x3xf32> loc(#loc3829)
    %347 = stablehlo.multiply %345, %346 : tensor<0x3xf32> loc(#loc3829)
    %348 = stablehlo.add %arg32, %347 : tensor<0x3xf32> loc(#loc3830)
    %349 = stablehlo.broadcast_in_dim %cst_32, dims = [] : (tensor<f32>) -> tensor<3xf32> loc(#loc3831)
    %350 = stablehlo.multiply %arg135, %349 : tensor<3xf32> loc(#loc3831)
    %351 = stablehlo.broadcast_in_dim %cst_31, dims = [] : (tensor<f32>) -> tensor<0xf32> loc(#loc3832)
    %352 = stablehlo.compare NE, %arg49, %351, FLOAT : (tensor<0xf32>, tensor<0xf32>) -> tensor<0xi1> loc(#loc3832)
    %353 = stablehlo.broadcast_in_dim %352, dims = [0] : (tensor<0xi1>) -> tensor<0x1xi1> loc(#loc3833)
    %354 = stablehlo.convert %353 : (tensor<0x1xi1>) -> tensor<0x1xf32> loc(#loc3834)
    %355 = stablehlo.broadcast_in_dim %350, dims = [1] : (tensor<3xf32>) -> tensor<1x3xf32> loc(#loc3835)
    %356 = stablehlo.broadcast_in_dim %355, dims = [0, 1] : (tensor<1x3xf32>) -> tensor<0x3xf32> loc(#loc3836)
    %357 = stablehlo.broadcast_in_dim %354, dims = [0, 1] : (tensor<0x1xf32>) -> tensor<0x3xf32> loc(#loc3836)
    %358 = stablehlo.multiply %356, %357 : tensor<0x3xf32> loc(#loc3836)
    %359 = stablehlo.add %arg47, %358 : tensor<0x3xf32> loc(#loc3837)
    %360 = stablehlo.iota dim = 0 : tensor<11xi32> loc(#loc4435)
    %361 = stablehlo.slice %c_35 [0:11, 0:1] : (tensor<11x2xi32>) -> tensor<11x1xi32> loc(#loc5971)
    %362 = stablehlo.reshape %361 : (tensor<11x1xi32>) -> tensor<11xi32> loc(#loc5972)
    %363 = stablehlo.broadcast_in_dim %c_30, dims = [] : (tensor<i32>) -> tensor<11xi32> loc(#loc5973)
    %364 = stablehlo.compare LT, %362, %363, SIGNED : (tensor<11xi32>, tensor<11xi32>) -> tensor<11xi1> loc(#loc5973)
    %365 = stablehlo.broadcast_in_dim %c_29, dims = [] : (tensor<i32>) -> tensor<11xi32> loc(#loc5974)
    %366 = stablehlo.add %362, %365 : tensor<11xi32> loc(#loc5974)
    %367 = stablehlo.select %364, %366, %362 : tensor<11xi1>, tensor<11xi32> loc(#loc5975)
    %368 = stablehlo.compare LT, %c_30, %c_30, SIGNED : (tensor<i32>, tensor<i32>) -> tensor<i1> loc(#loc5973)
    %369 = stablehlo.add %c_30, %c_28 : tensor<i32> loc(#loc5974)
    %370 = stablehlo.select %368, %369, %c_30 : tensor<i1>, tensor<i32> loc(#loc5975)
    %371 = stablehlo.broadcast_in_dim %367, dims = [0] : (tensor<11xi32>) -> tensor<11x1xi32> loc(#loc5976)
    %372 = stablehlo.broadcast_in_dim %370, dims = [] : (tensor<i32>) -> tensor<11x1xi32> loc(#loc5976)
    %373 = stablehlo.concatenate %371, %372, dim = 1 : (tensor<11x1xi32>, tensor<11x1xi32>) -> tensor<11x2xi32> loc(#loc5977)
    %374 = "stablehlo.gather"(%arg0, %373) <{dimension_numbers = #stablehlo.gather<offset_dims = [1, 2], start_index_map = [0, 1], index_vector_dim = 1>, slice_sizes = array<i64: 1, 3>}> : (tensor<12x3xf32>, tensor<11x2xi32>) -> tensor<11x1x3xf32> loc(#loc5978)
    %375 = stablehlo.reshape %374 : (tensor<11x1x3xf32>) -> tensor<11x3xf32> loc(#loc5979)
    %376 = stablehlo.slice %c_35 [0:11, 0:1] : (tensor<11x2xi32>) -> tensor<11x1xi32> loc(#loc5971)
    %377 = stablehlo.reshape %376 : (tensor<11x1xi32>) -> tensor<11xi32> loc(#loc5972)
    %378 = stablehlo.broadcast_in_dim %c_30, dims = [] : (tensor<i32>) -> tensor<11xi32> loc(#loc5973)
    %379 = stablehlo.compare LT, %377, %378, SIGNED : (tensor<11xi32>, tensor<11xi32>) -> tensor<11xi1> loc(#loc5973)
    %380 = stablehlo.broadcast_in_dim %c_29, dims = [] : (tensor<i32>) -> tensor<11xi32> loc(#loc5974)
    %381 = stablehlo.add %377, %380 : tensor<11xi32> loc(#loc5974)
    %382 = stablehlo.select %379, %381, %377 : tensor<11xi1>, tensor<11xi32> loc(#loc5975)
    %383 = stablehlo.compare LT, %c_30, %c_30, SIGNED : (tensor<i32>, tensor<i32>) -> tensor<i1> loc(#loc5973)
    %384 = stablehlo.add %c_30, %c_27 : tensor<i32> loc(#loc5974)
    %385 = stablehlo.select %383, %384, %c_30 : tensor<i1>, tensor<i32> loc(#loc5975)
    %386 = stablehlo.broadcast_in_dim %382, dims = [0] : (tensor<11xi32>) -> tensor<11x1xi32> loc(#loc5976)
    %387 = stablehlo.broadcast_in_dim %385, dims = [] : (tensor<i32>) -> tensor<11x1xi32> loc(#loc5976)
    %388 = stablehlo.concatenate %386, %387, dim = 1 : (tensor<11x1xi32>, tensor<11x1xi32>) -> tensor<11x2xi32> loc(#loc5977)
    %389 = "stablehlo.gather"(%arg1, %388) <{dimension_numbers = #stablehlo.gather<offset_dims = [1, 2], start_index_map = [0, 1], index_vector_dim = 1>, slice_sizes = array<i64: 1, 4>}> : (tensor<12x4xf32>, tensor<11x2xi32>) -> tensor<11x1x4xf32> loc(#loc5978)
    %390 = stablehlo.reshape %389 : (tensor<11x1x4xf32>) -> tensor<11x4xf32> loc(#loc5979)
    %391 = stablehlo.slice %c_35 [0:11, 0:1] : (tensor<11x2xi32>) -> tensor<11x1xi32> loc(#loc5971)
    %392 = stablehlo.reshape %391 : (tensor<11x1xi32>) -> tensor<11xi32> loc(#loc5972)
    %393 = stablehlo.broadcast_in_dim %c_30, dims = [] : (tensor<i32>) -> tensor<11xi32> loc(#loc5973)
    %394 = stablehlo.compare LT, %392, %393, SIGNED : (tensor<11xi32>, tensor<11xi32>) -> tensor<11xi1> loc(#loc5973)
    %395 = stablehlo.broadcast_in_dim %c_29, dims = [] : (tensor<i32>) -> tensor<11xi32> loc(#loc5974)
    %396 = stablehlo.add %392, %395 : tensor<11xi32> loc(#loc5974)
    %397 = stablehlo.select %394, %396, %392 : tensor<11xi1>, tensor<11xi32> loc(#loc5975)
    %398 = stablehlo.compare LT, %c_30, %c_30, SIGNED : (tensor<i32>, tensor<i32>) -> tensor<i1> loc(#loc5973)
    %399 = stablehlo.add %c_30, %c_28 : tensor<i32> loc(#loc5974)
    %400 = stablehlo.select %398, %399, %c_30 : tensor<i1>, tensor<i32> loc(#loc5975)
    %401 = stablehlo.broadcast_in_dim %397, dims = [0] : (tensor<11xi32>) -> tensor<11x1xi32> loc(#loc5976)
    %402 = stablehlo.broadcast_in_dim %400, dims = [] : (tensor<i32>) -> tensor<11x1xi32> loc(#loc5976)
    %403 = stablehlo.concatenate %401, %402, dim = 1 : (tensor<11x1xi32>, tensor<11x1xi32>) -> tensor<11x2xi32> loc(#loc5977)
    %404 = "stablehlo.gather"(%326, %403) <{dimension_numbers = #stablehlo.gather<offset_dims = [1, 2], start_index_map = [0, 1], index_vector_dim = 1>, slice_sizes = array<i64: 1, 3>}> : (tensor<12x3xf32>, tensor<11x2xi32>) -> tensor<11x1x3xf32> loc(#loc5978)
    %405 = stablehlo.reshape %404 : (tensor<11x1x3xf32>) -> tensor<11x3xf32> loc(#loc5979)
    %406 = stablehlo.slice %c_35 [0:11, 0:1] : (tensor<11x2xi32>) -> tensor<11x1xi32> loc(#loc5971)
    %407 = stablehlo.reshape %406 : (tensor<11x1xi32>) -> tensor<11xi32> loc(#loc5972)
    %408 = stablehlo.broadcast_in_dim %c_30, dims = [] : (tensor<i32>) -> tensor<11xi32> loc(#loc5973)
    %409 = stablehlo.compare LT, %407, %408, SIGNED : (tensor<11xi32>, tensor<11xi32>) -> tensor<11xi1> loc(#loc5973)
    %410 = stablehlo.broadcast_in_dim %c_29, dims = [] : (tensor<i32>) -> tensor<11xi32> loc(#loc5974)
    %411 = stablehlo.add %407, %410 : tensor<11xi32> loc(#loc5974)
    %412 = stablehlo.select %409, %411, %407 : tensor<11xi1>, tensor<11xi32> loc(#loc5975)
    %413 = stablehlo.compare LT, %c_30, %c_30, SIGNED : (tensor<i32>, tensor<i32>) -> tensor<i1> loc(#loc5973)
    %414 = stablehlo.add %c_30, %c_28 : tensor<i32> loc(#loc5974)
    %415 = stablehlo.select %413, %414, %c_30 : tensor<i1>, tensor<i32> loc(#loc5975)
    %416 = stablehlo.broadcast_in_dim %412, dims = [0] : (tensor<11xi32>) -> tensor<11x1xi32> loc(#loc5976)
    %417 = stablehlo.broadcast_in_dim %415, dims = [] : (tensor<i32>) -> tensor<11x1xi32> loc(#loc5976)
    %418 = stablehlo.concatenate %416, %417, dim = 1 : (tensor<11x1xi32>, tensor<11x1xi32>) -> tensor<11x2xi32> loc(#loc5977)
    %419 = "stablehlo.gather"(%arg3, %418) <{dimension_numbers = #stablehlo.gather<offset_dims = [1, 2], start_index_map = [0, 1], index_vector_dim = 1>, slice_sizes = array<i64: 1, 3>}> : (tensor<12x3xf32>, tensor<11x2xi32>) -> tensor<11x1x3xf32> loc(#loc5978)
    %420 = stablehlo.reshape %419 : (tensor<11x1x3xf32>) -> tensor<11x3xf32> loc(#loc5979)
    %421 = stablehlo.slice %c_35 [0:11, 0:1] : (tensor<11x2xi32>) -> tensor<11x1xi32> loc(#loc5971)
    %422 = stablehlo.reshape %421 : (tensor<11x1xi32>) -> tensor<11xi32> loc(#loc5972)
    %423 = stablehlo.broadcast_in_dim %c_30, dims = [] : (tensor<i32>) -> tensor<11xi32> loc(#loc5973)
    %424 = stablehlo.compare LT, %422, %423, SIGNED : (tensor<11xi32>, tensor<11xi32>) -> tensor<11xi1> loc(#loc5973)
    %425 = stablehlo.broadcast_in_dim %c_29, dims = [] : (tensor<i32>) -> tensor<11xi32> loc(#loc5974)
    %426 = stablehlo.add %422, %425 : tensor<11xi32> loc(#loc5974)
    %427 = stablehlo.select %424, %426, %422 : tensor<11xi1>, tensor<11xi32> loc(#loc5975)
    %428 = stablehlo.broadcast_in_dim %427, dims = [0] : (tensor<11xi32>) -> tensor<11x1xi32> loc(#loc5976)
    %429 = "stablehlo.gather"(%arg8, %428) <{dimension_numbers = #stablehlo.gather<offset_dims = [1], start_index_map = [0], index_vector_dim = 1>, slice_sizes = array<i64: 1>}> : (tensor<12xf32>, tensor<11x1xi32>) -> tensor<11x1xf32> loc(#loc5978)
    %430 = stablehlo.reshape %429 : (tensor<11x1xf32>) -> tensor<11xf32> loc(#loc5979)
    %431 = stablehlo.slice %c_35 [0:11, 0:1] : (tensor<11x2xi32>) -> tensor<11x1xi32> loc(#loc5971)
    %432 = stablehlo.reshape %431 : (tensor<11x1xi32>) -> tensor<11xi32> loc(#loc5972)
    %433 = stablehlo.broadcast_in_dim %c_30, dims = [] : (tensor<i32>) -> tensor<11xi32> loc(#loc5973)
    %434 = stablehlo.compare LT, %432, %433, SIGNED : (tensor<11xi32>, tensor<11xi32>) -> tensor<11xi1> loc(#loc5973)
    %435 = stablehlo.broadcast_in_dim %c_29, dims = [] : (tensor<i32>) -> tensor<11xi32> loc(#loc5974)
    %436 = stablehlo.add %432, %435 : tensor<11xi32> loc(#loc5974)
    %437 = stablehlo.select %434, %436, %432 : tensor<11xi1>, tensor<11xi32> loc(#loc5975)
    %438 = stablehlo.broadcast_in_dim %437, dims = [0] : (tensor<11xi32>) -> tensor<11x1xi32> loc(#loc5976)
    %439 = "stablehlo.gather"(%arg9, %438) <{dimension_numbers = #stablehlo.gather<offset_dims = [1], start_index_map = [0], index_vector_dim = 1>, slice_sizes = array<i64: 1>}> : (tensor<12xi32>, tensor<11x1xi32>) -> tensor<11x1xi32> loc(#loc5978)
    %440 = stablehlo.reshape %439 : (tensor<11x1xi32>) -> tensor<11xi32> loc(#loc5979)
    %441 = stablehlo.slice %c_35 [0:11, 0:1] : (tensor<11x2xi32>) -> tensor<11x1xi32> loc(#loc5971)
    %442 = stablehlo.reshape %441 : (tensor<11x1xi32>) -> tensor<11xi32> loc(#loc5972)
    %443 = stablehlo.broadcast_in_dim %c_30, dims = [] : (tensor<i32>) -> tensor<11xi32> loc(#loc5973)
    %444 = stablehlo.compare LT, %442, %443, SIGNED : (tensor<11xi32>, tensor<11xi32>) -> tensor<11xi1> loc(#loc5973)
    %445 = stablehlo.broadcast_in_dim %c_29, dims = [] : (tensor<i32>) -> tensor<11xi32> loc(#loc5974)
    %446 = stablehlo.add %442, %445 : tensor<11xi32> loc(#loc5974)
    %447 = stablehlo.select %444, %446, %442 : tensor<11xi1>, tensor<11xi32> loc(#loc5975)
    %448 = stablehlo.broadcast_in_dim %447, dims = [0] : (tensor<11xi32>) -> tensor<11x1xi32> loc(#loc5976)
    %449 = "stablehlo.gather"(%arg10, %448) <{dimension_numbers = #stablehlo.gather<offset_dims = [1], start_index_map = [0], index_vector_dim = 1>, slice_sizes = array<i64: 1>}> : (tensor<12xi1>, tensor<11x1xi32>) -> tensor<11x1xi1> loc(#loc5978)
    %450 = stablehlo.reshape %449 : (tensor<11x1xi1>) -> tensor<11xi1> loc(#loc5979)
    %451 = stablehlo.slice %c_35 [0:11, 0:1] : (tensor<11x2xi32>) -> tensor<11x1xi32> loc(#loc5971)
    %452 = stablehlo.reshape %451 : (tensor<11x1xi32>) -> tensor<11xi32> loc(#loc5972)
    %453 = stablehlo.broadcast_in_dim %c_30, dims = [] : (tensor<i32>) -> tensor<11xi32> loc(#loc5973)
    %454 = stablehlo.compare LT, %452, %453, SIGNED : (tensor<11xi32>, tensor<11xi32>) -> tensor<11xi1> loc(#loc5973)
    %455 = stablehlo.broadcast_in_dim %c_29, dims = [] : (tensor<i32>) -> tensor<11xi32> loc(#loc5974)
    %456 = stablehlo.add %452, %455 : tensor<11xi32> loc(#loc5974)
    %457 = stablehlo.select %454, %456, %452 : tensor<11xi1>, tensor<11xi32> loc(#loc5975)
    %458 = stablehlo.compare LT, %c_30, %c_30, SIGNED : (tensor<i32>, tensor<i32>) -> tensor<i1> loc(#loc5973)
    %459 = stablehlo.add %c_30, %c_28 : tensor<i32> loc(#loc5974)
    %460 = stablehlo.select %458, %459, %c_30 : tensor<i1>, tensor<i32> loc(#loc5975)
    %461 = stablehlo.broadcast_in_dim %457, dims = [0] : (tensor<11xi32>) -> tensor<11x1xi32> loc(#loc5976)
    %462 = stablehlo.broadcast_in_dim %460, dims = [] : (tensor<i32>) -> tensor<11x1xi32> loc(#loc5976)
    %463 = stablehlo.concatenate %461, %462, dim = 1 : (tensor<11x1xi32>, tensor<11x1xi32>) -> tensor<11x2xi32> loc(#loc5977)
    %464 = "stablehlo.gather"(%arg11, %463) <{dimension_numbers = #stablehlo.gather<offset_dims = [1, 2], start_index_map = [0, 1], index_vector_dim = 1>, slice_sizes = array<i64: 1, 3>}> : (tensor<12x3xf32>, tensor<11x2xi32>) -> tensor<11x1x3xf32> loc(#loc5978)
    %465 = stablehlo.reshape %464 : (tensor<11x1x3xf32>) -> tensor<11x3xf32> loc(#loc5979)
    %466 = stablehlo.slice %c_35 [0:11, 1:2] : (tensor<11x2xi32>) -> tensor<11x1xi32> loc(#loc5980)
    %467 = stablehlo.reshape %466 : (tensor<11x1xi32>) -> tensor<11xi32> loc(#loc5981)
    %468 = stablehlo.broadcast_in_dim %c_30, dims = [] : (tensor<i32>) -> tensor<11xi32> loc(#loc5982)
    %469 = stablehlo.compare LT, %467, %468, SIGNED : (tensor<11xi32>, tensor<11xi32>) -> tensor<11xi1> loc(#loc5982)
    %470 = stablehlo.broadcast_in_dim %c_29, dims = [] : (tensor<i32>) -> tensor<11xi32> loc(#loc5983)
    %471 = stablehlo.add %467, %470 : tensor<11xi32> loc(#loc5983)
    %472 = stablehlo.select %469, %471, %467 : tensor<11xi1>, tensor<11xi32> loc(#loc5984)
    %473 = stablehlo.compare LT, %c_30, %c_30, SIGNED : (tensor<i32>, tensor<i32>) -> tensor<i1> loc(#loc5982)
    %474 = stablehlo.add %c_30, %c_28 : tensor<i32> loc(#loc5983)
    %475 = stablehlo.select %473, %474, %c_30 : tensor<i1>, tensor<i32> loc(#loc5984)
    %476 = stablehlo.broadcast_in_dim %472, dims = [0] : (tensor<11xi32>) -> tensor<11x1xi32> loc(#loc5985)
    %477 = stablehlo.broadcast_in_dim %475, dims = [] : (tensor<i32>) -> tensor<11x1xi32> loc(#loc5985)
    %478 = stablehlo.concatenate %476, %477, dim = 1 : (tensor<11x1xi32>, tensor<11x1xi32>) -> tensor<11x2xi32> loc(#loc5986)
    %479 = "stablehlo.gather"(%arg0, %478) <{dimension_numbers = #stablehlo.gather<offset_dims = [1, 2], start_index_map = [0, 1], index_vector_dim = 1>, slice_sizes = array<i64: 1, 3>}> : (tensor<12x3xf32>, tensor<11x2xi32>) -> tensor<11x1x3xf32> loc(#loc5987)
    %480 = stablehlo.reshape %479 : (tensor<11x1x3xf32>) -> tensor<11x3xf32> loc(#loc5988)
    %481 = stablehlo.slice %c_35 [0:11, 1:2] : (tensor<11x2xi32>) -> tensor<11x1xi32> loc(#loc5980)
    %482 = stablehlo.reshape %481 : (tensor<11x1xi32>) -> tensor<11xi32> loc(#loc5981)
    %483 = stablehlo.broadcast_in_dim %c_30, dims = [] : (tensor<i32>) -> tensor<11xi32> loc(#loc5982)
    %484 = stablehlo.compare LT, %482, %483, SIGNED : (tensor<11xi32>, tensor<11xi32>) -> tensor<11xi1> loc(#loc5982)
    %485 = stablehlo.broadcast_in_dim %c_29, dims = [] : (tensor<i32>) -> tensor<11xi32> loc(#loc5983)
    %486 = stablehlo.add %482, %485 : tensor<11xi32> loc(#loc5983)
    %487 = stablehlo.select %484, %486, %482 : tensor<11xi1>, tensor<11xi32> loc(#loc5984)
    %488 = stablehlo.compare LT, %c_30, %c_30, SIGNED : (tensor<i32>, tensor<i32>) -> tensor<i1> loc(#loc5982)
    %489 = stablehlo.add %c_30, %c_27 : tensor<i32> loc(#loc5983)
    %490 = stablehlo.select %488, %489, %c_30 : tensor<i1>, tensor<i32> loc(#loc5984)
    %491 = stablehlo.broadcast_in_dim %487, dims = [0] : (tensor<11xi32>) -> tensor<11x1xi32> loc(#loc5985)
    %492 = stablehlo.broadcast_in_dim %490, dims = [] : (tensor<i32>) -> tensor<11x1xi32> loc(#loc5985)
    %493 = stablehlo.concatenate %491, %492, dim = 1 : (tensor<11x1xi32>, tensor<11x1xi32>) -> tensor<11x2xi32> loc(#loc5986)
    %494 = "stablehlo.gather"(%arg1, %493) <{dimension_numbers = #stablehlo.gather<offset_dims = [1, 2], start_index_map = [0, 1], index_vector_dim = 1>, slice_sizes = array<i64: 1, 4>}> : (tensor<12x4xf32>, tensor<11x2xi32>) -> tensor<11x1x4xf32> loc(#loc5987)
    %495 = stablehlo.reshape %494 : (tensor<11x1x4xf32>) -> tensor<11x4xf32> loc(#loc5988)
    %496 = stablehlo.slice %c_35 [0:11, 1:2] : (tensor<11x2xi32>) -> tensor<11x1xi32> loc(#loc5980)
    %497 = stablehlo.reshape %496 : (tensor<11x1xi32>) -> tensor<11xi32> loc(#loc5981)
    %498 = stablehlo.broadcast_in_dim %c_30, dims = [] : (tensor<i32>) -> tensor<11xi32> loc(#loc5982)
    %499 = stablehlo.compare LT, %497, %498, SIGNED : (tensor<11xi32>, tensor<11xi32>) -> tensor<11xi1> loc(#loc5982)
    %500 = stablehlo.broadcast_in_dim %c_29, dims = [] : (tensor<i32>) -> tensor<11xi32> loc(#loc5983)
    %501 = stablehlo.add %497, %500 : tensor<11xi32> loc(#loc5983)
    %502 = stablehlo.select %499, %501, %497 : tensor<11xi1>, tensor<11xi32> loc(#loc5984)
    %503 = stablehlo.compare LT, %c_30, %c_30, SIGNED : (tensor<i32>, tensor<i32>) -> tensor<i1> loc(#loc5982)
    %504 = stablehlo.add %c_30, %c_28 : tensor<i32> loc(#loc5983)
    %505 = stablehlo.select %503, %504, %c_30 : tensor<i1>, tensor<i32> loc(#loc5984)
    %506 = stablehlo.broadcast_in_dim %502, dims = [0] : (tensor<11xi32>) -> tensor<11x1xi32> loc(#loc5985)
    %507 = stablehlo.broadcast_in_dim %505, dims = [] : (tensor<i32>) -> tensor<11x1xi32> loc(#loc5985)
    %508 = stablehlo.concatenate %506, %507, dim = 1 : (tensor<11x1xi32>, tensor<11x1xi32>) -> tensor<11x2xi32> loc(#loc5986)
    %509 = "stablehlo.gather"(%326, %508) <{dimension_numbers = #stablehlo.gather<offset_dims = [1, 2], start_index_map = [0, 1], index_vector_dim = 1>, slice_sizes = array<i64: 1, 3>}> : (tensor<12x3xf32>, tensor<11x2xi32>) -> tensor<11x1x3xf32> loc(#loc5987)
    %510 = stablehlo.reshape %509 : (tensor<11x1x3xf32>) -> tensor<11x3xf32> loc(#loc5988)
    %511 = stablehlo.slice %c_35 [0:11, 1:2] : (tensor<11x2xi32>) -> tensor<11x1xi32> loc(#loc5980)
    %512 = stablehlo.reshape %511 : (tensor<11x1xi32>) -> tensor<11xi32> loc(#loc5981)
    %513 = stablehlo.broadcast_in_dim %c_30, dims = [] : (tensor<i32>) -> tensor<11xi32> loc(#loc5982)
    %514 = stablehlo.compare LT, %512, %513, SIGNED : (tensor<11xi32>, tensor<11xi32>) -> tensor<11xi1> loc(#loc5982)
    %515 = stablehlo.broadcast_in_dim %c_29, dims = [] : (tensor<i32>) -> tensor<11xi32> loc(#loc5983)
    %516 = stablehlo.add %512, %515 : tensor<11xi32> loc(#loc5983)
    %517 = stablehlo.select %514, %516, %512 : tensor<11xi1>, tensor<11xi32> loc(#loc5984)
    %518 = stablehlo.compare LT, %c_30, %c_30, SIGNED : (tensor<i32>, tensor<i32>) -> tensor<i1> loc(#loc5982)
    %519 = stablehlo.add %c_30, %c_28 : tensor<i32> loc(#loc5983)
    %520 = stablehlo.select %518, %519, %c_30 : tensor<i1>, tensor<i32> loc(#loc5984)
    %521 = stablehlo.broadcast_in_dim %517, dims = [0] : (tensor<11xi32>) -> tensor<11x1xi32> loc(#loc5985)
    %522 = stablehlo.broadcast_in_dim %520, dims = [] : (tensor<i32>) -> tensor<11x1xi32> loc(#loc5985)
    %523 = stablehlo.concatenate %521, %522, dim = 1 : (tensor<11x1xi32>, tensor<11x1xi32>) -> tensor<11x2xi32> loc(#loc5986)
    %524 = "stablehlo.gather"(%arg3, %523) <{dimension_numbers = #stablehlo.gather<offset_dims = [1, 2], start_index_map = [0, 1], index_vector_dim = 1>, slice_sizes = array<i64: 1, 3>}> : (tensor<12x3xf32>, tensor<11x2xi32>) -> tensor<11x1x3xf32> loc(#loc5987)
    %525 = stablehlo.reshape %524 : (tensor<11x1x3xf32>) -> tensor<11x3xf32> loc(#loc5988)
    %526 = stablehlo.slice %c_35 [0:11, 1:2] : (tensor<11x2xi32>) -> tensor<11x1xi32> loc(#loc5980)
    %527 = stablehlo.reshape %526 : (tensor<11x1xi32>) -> tensor<11xi32> loc(#loc5981)
    %528 = stablehlo.broadcast_in_dim %c_30, dims = [] : (tensor<i32>) -> tensor<11xi32> loc(#loc5982)
    %529 = stablehlo.compare LT, %527, %528, SIGNED : (tensor<11xi32>, tensor<11xi32>) -> tensor<11xi1> loc(#loc5982)
    %530 = stablehlo.broadcast_in_dim %c_29, dims = [] : (tensor<i32>) -> tensor<11xi32> loc(#loc5983)
    %531 = stablehlo.add %527, %530 : tensor<11xi32> loc(#loc5983)
    %532 = stablehlo.select %529, %531, %527 : tensor<11xi1>, tensor<11xi32> loc(#loc5984)
    %533 = stablehlo.broadcast_in_dim %532, dims = [0] : (tensor<11xi32>) -> tensor<11x1xi32> loc(#loc5985)
    %534 = "stablehlo.gather"(%arg8, %533) <{dimension_numbers = #stablehlo.gather<offset_dims = [1], start_index_map = [0], index_vector_dim = 1>, slice_sizes = array<i64: 1>}> : (tensor<12xf32>, tensor<11x1xi32>) -> tensor<11x1xf32> loc(#loc5987)
    %535 = stablehlo.reshape %534 : (tensor<11x1xf32>) -> tensor<11xf32> loc(#loc5988)
    %536 = stablehlo.slice %c_35 [0:11, 1:2] : (tensor<11x2xi32>) -> tensor<11x1xi32> loc(#loc5980)
    %537 = stablehlo.reshape %536 : (tensor<11x1xi32>) -> tensor<11xi32> loc(#loc5981)
    %538 = stablehlo.broadcast_in_dim %c_30, dims = [] : (tensor<i32>) -> tensor<11xi32> loc(#loc5982)
    %539 = stablehlo.compare LT, %537, %538, SIGNED : (tensor<11xi32>, tensor<11xi32>) -> tensor<11xi1> loc(#loc5982)
    %540 = stablehlo.broadcast_in_dim %c_29, dims = [] : (tensor<i32>) -> tensor<11xi32> loc(#loc5983)
    %541 = stablehlo.add %537, %540 : tensor<11xi32> loc(#loc5983)
    %542 = stablehlo.select %539, %541, %537 : tensor<11xi1>, tensor<11xi32> loc(#loc5984)
    %543 = stablehlo.broadcast_in_dim %542, dims = [0] : (tensor<11xi32>) -> tensor<11x1xi32> loc(#loc5985)
    %544 = "stablehlo.gather"(%arg9, %543) <{dimension_numbers = #stablehlo.gather<offset_dims = [1], start_index_map = [0], index_vector_dim = 1>, slice_sizes = array<i64: 1>}> : (tensor<12xi32>, tensor<11x1xi32>) -> tensor<11x1xi32> loc(#loc5987)
    %545 = stablehlo.reshape %544 : (tensor<11x1xi32>) -> tensor<11xi32> loc(#loc5988)
    %546 = stablehlo.slice %c_35 [0:11, 1:2] : (tensor<11x2xi32>) -> tensor<11x1xi32> loc(#loc5980)
    %547 = stablehlo.reshape %546 : (tensor<11x1xi32>) -> tensor<11xi32> loc(#loc5981)
    %548 = stablehlo.broadcast_in_dim %c_30, dims = [] : (tensor<i32>) -> tensor<11xi32> loc(#loc5982)
    %549 = stablehlo.compare LT, %547, %548, SIGNED : (tensor<11xi32>, tensor<11xi32>) -> tensor<11xi1> loc(#loc5982)
    %550 = stablehlo.broadcast_in_dim %c_29, dims = [] : (tensor<i32>) -> tensor<11xi32> loc(#loc5983)
    %551 = stablehlo.add %547, %550 : tensor<11xi32> loc(#loc5983)
    %552 = stablehlo.select %549, %551, %547 : tensor<11xi1>, tensor<11xi32> loc(#loc5984)
    %553 = stablehlo.broadcast_in_dim %552, dims = [0] : (tensor<11xi32>) -> tensor<11x1xi32> loc(#loc5985)
    %554 = "stablehlo.gather"(%arg10, %553) <{dimension_numbers = #stablehlo.gather<offset_dims = [1], start_index_map = [0], index_vector_dim = 1>, slice_sizes = array<i64: 1>}> : (tensor<12xi1>, tensor<11x1xi32>) -> tensor<11x1xi1> loc(#loc5987)
    %555 = stablehlo.reshape %554 : (tensor<11x1xi1>) -> tensor<11xi1> loc(#loc5988)
    %556 = stablehlo.slice %c_35 [0:11, 1:2] : (tensor<11x2xi32>) -> tensor<11x1xi32> loc(#loc5980)
    %557 = stablehlo.reshape %556 : (tensor<11x1xi32>) -> tensor<11xi32> loc(#loc5981)
    %558 = stablehlo.broadcast_in_dim %c_30, dims = [] : (tensor<i32>) -> tensor<11xi32> loc(#loc5982)
    %559 = stablehlo.compare LT, %557, %558, SIGNED : (tensor<11xi32>, tensor<11xi32>) -> tensor<11xi1> loc(#loc5982)
    %560 = stablehlo.broadcast_in_dim %c_29, dims = [] : (tensor<i32>) -> tensor<11xi32> loc(#loc5983)
    %561 = stablehlo.add %557, %560 : tensor<11xi32> loc(#loc5983)
    %562 = stablehlo.select %559, %561, %557 : tensor<11xi1>, tensor<11xi32> loc(#loc5984)
    %563 = stablehlo.compare LT, %c_30, %c_30, SIGNED : (tensor<i32>, tensor<i32>) -> tensor<i1> loc(#loc5982)
    %564 = stablehlo.add %c_30, %c_28 : tensor<i32> loc(#loc5983)
    %565 = stablehlo.select %563, %564, %c_30 : tensor<i1>, tensor<i32> loc(#loc5984)
    %566 = stablehlo.broadcast_in_dim %562, dims = [0] : (tensor<11xi32>) -> tensor<11x1xi32> loc(#loc5985)
    %567 = stablehlo.broadcast_in_dim %565, dims = [] : (tensor<i32>) -> tensor<11x1xi32> loc(#loc5985)
    %568 = stablehlo.concatenate %566, %567, dim = 1 : (tensor<11x1xi32>, tensor<11x1xi32>) -> tensor<11x2xi32> loc(#loc5986)
    %569 = "stablehlo.gather"(%arg11, %568) <{dimension_numbers = #stablehlo.gather<offset_dims = [1, 2], start_index_map = [0, 1], index_vector_dim = 1>, slice_sizes = array<i64: 1, 3>}> : (tensor<12x3xf32>, tensor<11x2xi32>) -> tensor<11x1x3xf32> loc(#loc5987)
    %570 = stablehlo.reshape %569 : (tensor<11x1x3xf32>) -> tensor<11x3xf32> loc(#loc5988)
    %571 = stablehlo.broadcast_in_dim %c_30, dims = [] : (tensor<i32>) -> tensor<11xi32> loc(#loc5989)
    %572 = stablehlo.compare LT, %360, %571, SIGNED : (tensor<11xi32>, tensor<11xi32>) -> tensor<11xi1> loc(#loc5989)
    %573 = stablehlo.broadcast_in_dim %c_24, dims = [] : (tensor<i32>) -> tensor<11xi32> loc(#loc5990)
    %574 = stablehlo.add %360, %573 : tensor<11xi32> loc(#loc5990)
    %575 = stablehlo.select %572, %574, %360 : tensor<11xi1>, tensor<11xi32> loc(#loc5991)
    %576 = stablehlo.compare LT, %c_30, %c_30, SIGNED : (tensor<i32>, tensor<i32>) -> tensor<i1> loc(#loc5989)
    %577 = stablehlo.add %c_30, %c_27 : tensor<i32> loc(#loc5990)
    %578 = stablehlo.select %576, %577, %c_30 : tensor<i1>, tensor<i32> loc(#loc5991)
    %579 = stablehlo.broadcast_in_dim %575, dims = [0] : (tensor<11xi32>) -> tensor<11x1xi32> loc(#loc5992)
    %580 = stablehlo.broadcast_in_dim %578, dims = [] : (tensor<i32>) -> tensor<11x1xi32> loc(#loc5992)
    %581 = stablehlo.concatenate %579, %580, dim = 1 : (tensor<11x1xi32>, tensor<11x1xi32>) -> tensor<11x2xi32> loc(#loc5993)
    %582 = "stablehlo.gather"(%arg89, %581) <{dimension_numbers = #stablehlo.gather<offset_dims = [1, 2], start_index_map = [0, 1], index_vector_dim = 1>, slice_sizes = array<i64: 1, 4>}> : (tensor<11x4xi1>, tensor<11x2xi32>) -> tensor<11x1x4xi1> loc(#loc5994)
    %583 = stablehlo.reshape %582 : (tensor<11x1x4xi1>) -> tensor<11x4xi1> loc(#loc5995)
    %584 = stablehlo.broadcast_in_dim %c_30, dims = [] : (tensor<i32>) -> tensor<11xi32> loc(#loc5989)
    %585 = stablehlo.compare LT, %360, %584, SIGNED : (tensor<11xi32>, tensor<11xi32>) -> tensor<11xi1> loc(#loc5989)
    %586 = stablehlo.broadcast_in_dim %c_24, dims = [] : (tensor<i32>) -> tensor<11xi32> loc(#loc5990)
    %587 = stablehlo.add %360, %586 : tensor<11xi32> loc(#loc5990)
    %588 = stablehlo.select %585, %587, %360 : tensor<11xi1>, tensor<11xi32> loc(#loc5991)
    %589 = stablehlo.compare LT, %c_30, %c_30, SIGNED : (tensor<i32>, tensor<i32>) -> tensor<i1> loc(#loc5989)
    %590 = stablehlo.add %c_30, %c_27 : tensor<i32> loc(#loc5990)
    %591 = stablehlo.select %589, %590, %c_30 : tensor<i1>, tensor<i32> loc(#loc5991)
    %592 = stablehlo.broadcast_in_dim %588, dims = [0] : (tensor<11xi32>) -> tensor<11x1xi32> loc(#loc5992)
    %593 = stablehlo.broadcast_in_dim %591, dims = [] : (tensor<i32>) -> tensor<11x1xi32> loc(#loc5992)
    %594 = stablehlo.concatenate %592, %593, dim = 1 : (tensor<11x1xi32>, tensor<11x1xi32>) -> tensor<11x2xi32> loc(#loc5993)
    %595 = "stablehlo.gather"(%arg90, %594) <{dimension_numbers = #stablehlo.gather<offset_dims = [1, 2], start_index_map = [0, 1], index_vector_dim = 1>, slice_sizes = array<i64: 1, 4>}> : (tensor<11x4xf32>, tensor<11x2xi32>) -> tensor<11x1x4xf32> loc(#loc5994)
    %596 = stablehlo.reshape %595 : (tensor<11x1x4xf32>) -> tensor<11x4xf32> loc(#loc5995)
    %597 = stablehlo.broadcast_in_dim %c_30, dims = [] : (tensor<i32>) -> tensor<11xi32> loc(#loc5989)
    %598 = stablehlo.compare LT, %360, %597, SIGNED : (tensor<11xi32>, tensor<11xi32>) -> tensor<11xi1> loc(#loc5989)
    %599 = stablehlo.broadcast_in_dim %c_24, dims = [] : (tensor<i32>) -> tensor<11xi32> loc(#loc5990)
    %600 = stablehlo.add %360, %599 : tensor<11xi32> loc(#loc5990)
    %601 = stablehlo.select %598, %600, %360 : tensor<11xi1>, tensor<11xi32> loc(#loc5991)
    %602 = stablehlo.compare LT, %c_30, %c_30, SIGNED : (tensor<i32>, tensor<i32>) -> tensor<i1> loc(#loc5989)
    %603 = stablehlo.add %c_30, %c_27 : tensor<i32> loc(#loc5990)
    %604 = stablehlo.select %602, %603, %c_30 : tensor<i1>, tensor<i32> loc(#loc5991)
    %605 = stablehlo.compare LT, %c_30, %c_30, SIGNED : (tensor<i32>, tensor<i32>) -> tensor<i1> loc(#loc5989)
    %606 = stablehlo.add %c_30, %c_25 : tensor<i32> loc(#loc5990)
    %607 = stablehlo.select %605, %606, %c_30 : tensor<i1>, tensor<i32> loc(#loc5991)
    %608 = stablehlo.broadcast_in_dim %601, dims = [0] : (tensor<11xi32>) -> tensor<11x1xi32> loc(#loc5992)
    %609 = stablehlo.broadcast_in_dim %604, dims = [] : (tensor<i32>) -> tensor<11x1xi32> loc(#loc5992)
    %610 = stablehlo.broadcast_in_dim %607, dims = [] : (tensor<i32>) -> tensor<11x1xi32> loc(#loc5992)
    %611 = stablehlo.concatenate %608, %609, %610, dim = 1 : (tensor<11x1xi32>, tensor<11x1xi32>, tensor<11x1xi32>) -> tensor<11x3xi32> loc(#loc5993)
    %612 = "stablehlo.gather"(%arg91, %611) <{dimension_numbers = #stablehlo.gather<offset_dims = [1, 2, 3], start_index_map = [0, 1, 2], index_vector_dim = 1>, slice_sizes = array<i64: 1, 4, 2>}> : (tensor<11x4x2xf32>, tensor<11x3xi32>) -> tensor<11x1x4x2xf32> loc(#loc5994)
    %613 = stablehlo.reshape %612 : (tensor<11x1x4x2xf32>) -> tensor<11x4x2xf32> loc(#loc5995)
    %614 = stablehlo.slice %390 [0:11, 0:1] : (tensor<11x4xf32>) -> tensor<11x1xf32> loc(#loc7189)
    %615 = stablehlo.reshape %614 : (tensor<11x1xf32>) -> tensor<11xf32> loc(#loc7190)
    %616 = stablehlo.slice %390 [0:11, 1:2] : (tensor<11x4xf32>) -> tensor<11x1xf32> loc(#loc7189)
    %617 = stablehlo.reshape %616 : (tensor<11x1xf32>) -> tensor<11xf32> loc(#loc7190)
    %618 = stablehlo.slice %390 [0:11, 2:3] : (tensor<11x4xf32>) -> tensor<11x1xf32> loc(#loc7189)
    %619 = stablehlo.reshape %618 : (tensor<11x1xf32>) -> tensor<11xf32> loc(#loc7190)
    %620 = stablehlo.slice %390 [0:11, 3:4] : (tensor<11x4xf32>) -> tensor<11x1xf32> loc(#loc7189)
    %621 = stablehlo.reshape %620 : (tensor<11x1xf32>) -> tensor<11xf32> loc(#loc7190)
    %622 = stablehlo.multiply %617, %617 : tensor<11xf32> loc(#loc7191)
    %623 = stablehlo.multiply %619, %619 : tensor<11xf32> loc(#loc7192)
    %624 = stablehlo.add %622, %623 : tensor<11xf32> loc(#loc7193)
    %625 = stablehlo.broadcast_in_dim %cst_34, dims = [] : (tensor<f32>) -> tensor<11xf32> loc(#loc7194)
    %626 = stablehlo.multiply %625, %624 : tensor<11xf32> loc(#loc7194)
    %627 = stablehlo.broadcast_in_dim %cst_33, dims = [] : (tensor<f32>) -> tensor<11xf32> loc(#loc7195)
    %628 = stablehlo.subtract %627, %626 : tensor<11xf32> loc(#loc7195)
    %629 = stablehlo.multiply %615, %617 : tensor<11xf32> loc(#loc7196)
    %630 = stablehlo.multiply %621, %619 : tensor<11xf32> loc(#loc7197)
    %631 = stablehlo.subtract %629, %630 : tensor<11xf32> loc(#loc7198)
    %632 = stablehlo.broadcast_in_dim %cst_34, dims = [] : (tensor<f32>) -> tensor<11xf32> loc(#loc7199)
    %633 = stablehlo.multiply %632, %631 : tensor<11xf32> loc(#loc7199)
    %634 = stablehlo.multiply %615, %619 : tensor<11xf32> loc(#loc7200)
    %635 = stablehlo.multiply %621, %617 : tensor<11xf32> loc(#loc7201)
    %636 = stablehlo.add %634, %635 : tensor<11xf32> loc(#loc7202)
    %637 = stablehlo.broadcast_in_dim %cst_34, dims = [] : (tensor<f32>) -> tensor<11xf32> loc(#loc7203)
    %638 = stablehlo.multiply %637, %636 : tensor<11xf32> loc(#loc7203)
    %639 = stablehlo.multiply %615, %617 : tensor<11xf32> loc(#loc7204)
    %640 = stablehlo.multiply %621, %619 : tensor<11xf32> loc(#loc7205)
    %641 = stablehlo.add %639, %640 : tensor<11xf32> loc(#loc7206)
    %642 = stablehlo.broadcast_in_dim %cst_34, dims = [] : (tensor<f32>) -> tensor<11xf32> loc(#loc7207)
    %643 = stablehlo.multiply %642, %641 : tensor<11xf32> loc(#loc7207)
    %644 = stablehlo.multiply %615, %615 : tensor<11xf32> loc(#loc7208)
    %645 = stablehlo.multiply %619, %619 : tensor<11xf32> loc(#loc7209)
    %646 = stablehlo.add %644, %645 : tensor<11xf32> loc(#loc7210)
    %647 = stablehlo.broadcast_in_dim %cst_34, dims = [] : (tensor<f32>) -> tensor<11xf32> loc(#loc7211)
    %648 = stablehlo.multiply %647, %646 : tensor<11xf32> loc(#loc7211)
    %649 = stablehlo.broadcast_in_dim %cst_33, dims = [] : (tensor<f32>) -> tensor<11xf32> loc(#loc7212)
    %650 = stablehlo.subtract %649, %648 : tensor<11xf32> loc(#loc7212)
    %651 = stablehlo.multiply %617, %619 : tensor<11xf32> loc(#loc7213)
    %652 = stablehlo.multiply %621, %615 : tensor<11xf32> loc(#loc7214)
    %653 = stablehlo.subtract %651, %652 : tensor<11xf32> loc(#loc7215)
    %654 = stablehlo.broadcast_in_dim %cst_34, dims = [] : (tensor<f32>) -> tensor<11xf32> loc(#loc7216)
    %655 = stablehlo.multiply %654, %653 : tensor<11xf32> loc(#loc7216)
    %656 = stablehlo.multiply %615, %619 : tensor<11xf32> loc(#loc7217)
    %657 = stablehlo.multiply %621, %617 : tensor<11xf32> loc(#loc7218)
    %658 = stablehlo.subtract %656, %657 : tensor<11xf32> loc(#loc7219)
    %659 = stablehlo.broadcast_in_dim %cst_34, dims = [] : (tensor<f32>) -> tensor<11xf32> loc(#loc7220)
    %660 = stablehlo.multiply %659, %658 : tensor<11xf32> loc(#loc7220)
    %661 = stablehlo.multiply %617, %619 : tensor<11xf32> loc(#loc7221)
    %662 = stablehlo.multiply %621, %615 : tensor<11xf32> loc(#loc7222)
    %663 = stablehlo.add %661, %662 : tensor<11xf32> loc(#loc7223)
    %664 = stablehlo.broadcast_in_dim %cst_34, dims = [] : (tensor<f32>) -> tensor<11xf32> loc(#loc7224)
    %665 = stablehlo.multiply %664, %663 : tensor<11xf32> loc(#loc7224)
    %666 = stablehlo.multiply %615, %615 : tensor<11xf32> loc(#loc7225)
    %667 = stablehlo.multiply %617, %617 : tensor<11xf32> loc(#loc7226)
    %668 = stablehlo.add %666, %667 : tensor<11xf32> loc(#loc7227)
    %669 = stablehlo.broadcast_in_dim %cst_34, dims = [] : (tensor<f32>) -> tensor<11xf32> loc(#loc7228)
    %670 = stablehlo.multiply %669, %668 : tensor<11xf32> loc(#loc7228)
    %671 = stablehlo.broadcast_in_dim %cst_33, dims = [] : (tensor<f32>) -> tensor<11xf32> loc(#loc7229)
    %672 = stablehlo.subtract %671, %670 : tensor<11xf32> loc(#loc7229)
    %673 = stablehlo.broadcast_in_dim %628, dims = [0] : (tensor<11xf32>) -> tensor<11x1xf32> loc(#loc7230)
    %674 = stablehlo.broadcast_in_dim %633, dims = [0] : (tensor<11xf32>) -> tensor<11x1xf32> loc(#loc7230)
    %675 = stablehlo.broadcast_in_dim %638, dims = [0] : (tensor<11xf32>) -> tensor<11x1xf32> loc(#loc7230)
    %676 = stablehlo.concatenate %673, %674, %675, dim = 1 : (tensor<11x1xf32>, tensor<11x1xf32>, tensor<11x1xf32>) -> tensor<11x3xf32> loc(#loc7231)
    %677 = stablehlo.broadcast_in_dim %676, dims = [0, 2] : (tensor<11x3xf32>) -> tensor<11x1x3xf32> loc(#loc7230)
    %678 = stablehlo.broadcast_in_dim %643, dims = [0] : (tensor<11xf32>) -> tensor<11x1xf32> loc(#loc7230)
    %679 = stablehlo.broadcast_in_dim %650, dims = [0] : (tensor<11xf32>) -> tensor<11x1xf32> loc(#loc7230)
    %680 = stablehlo.broadcast_in_dim %655, dims = [0] : (tensor<11xf32>) -> tensor<11x1xf32> loc(#loc7230)
    %681 = stablehlo.concatenate %678, %679, %680, dim = 1 : (tensor<11x1xf32>, tensor<11x1xf32>, tensor<11x1xf32>) -> tensor<11x3xf32> loc(#loc7231)
    %682 = stablehlo.broadcast_in_dim %681, dims = [0, 2] : (tensor<11x3xf32>) -> tensor<11x1x3xf32> loc(#loc7230)
    %683 = stablehlo.broadcast_in_dim %660, dims = [0] : (tensor<11xf32>) -> tensor<11x1xf32> loc(#loc7230)
    %684 = stablehlo.broadcast_in_dim %665, dims = [0] : (tensor<11xf32>) -> tensor<11x1xf32> loc(#loc7230)
    %685 = stablehlo.broadcast_in_dim %672, dims = [0] : (tensor<11xf32>) -> tensor<11x1xf32> loc(#loc7230)
    %686 = stablehlo.concatenate %683, %684, %685, dim = 1 : (tensor<11x1xf32>, tensor<11x1xf32>, tensor<11x1xf32>) -> tensor<11x3xf32> loc(#loc7231)
    %687 = stablehlo.broadcast_in_dim %686, dims = [0, 2] : (tensor<11x3xf32>) -> tensor<11x1x3xf32> loc(#loc7230)
    %688 = stablehlo.concatenate %677, %682, %687, dim = 1 : (tensor<11x1x3xf32>, tensor<11x1x3xf32>, tensor<11x1x3xf32>) -> tensor<11x3x3xf32> loc(#loc7231)
    %689 = stablehlo.slice %495 [0:11, 0:1] : (tensor<11x4xf32>) -> tensor<11x1xf32> loc(#loc7232)
    %690 = stablehlo.reshape %689 : (tensor<11x1xf32>) -> tensor<11xf32> loc(#loc7233)
    %691 = stablehlo.slice %495 [0:11, 1:2] : (tensor<11x4xf32>) -> tensor<11x1xf32> loc(#loc7232)
    %692 = stablehlo.reshape %691 : (tensor<11x1xf32>) -> tensor<11xf32> loc(#loc7233)
    %693 = stablehlo.slice %495 [0:11, 2:3] : (tensor<11x4xf32>) -> tensor<11x1xf32> loc(#loc7232)
    %694 = stablehlo.reshape %693 : (tensor<11x1xf32>) -> tensor<11xf32> loc(#loc7233)
    %695 = stablehlo.slice %495 [0:11, 3:4] : (tensor<11x4xf32>) -> tensor<11x1xf32> loc(#loc7232)
    %696 = stablehlo.reshape %695 : (tensor<11x1xf32>) -> tensor<11xf32> loc(#loc7233)
    %697 = stablehlo.multiply %692, %692 : tensor<11xf32> loc(#loc7234)
    %698 = stablehlo.multiply %694, %694 : tensor<11xf32> loc(#loc7235)
    %699 = stablehlo.add %697, %698 : tensor<11xf32> loc(#loc7236)
    %700 = stablehlo.broadcast_in_dim %cst_34, dims = [] : (tensor<f32>) -> tensor<11xf32> loc(#loc7237)
    %701 = stablehlo.multiply %700, %699 : tensor<11xf32> loc(#loc7237)
    %702 = stablehlo.broadcast_in_dim %cst_33, dims = [] : (tensor<f32>) -> tensor<11xf32> loc(#loc7238)
    %703 = stablehlo.subtract %702, %701 : tensor<11xf32> loc(#loc7238)
    %704 = stablehlo.multiply %690, %692 : tensor<11xf32> loc(#loc7239)
    %705 = stablehlo.multiply %696, %694 : tensor<11xf32> loc(#loc7240)
    %706 = stablehlo.subtract %704, %705 : tensor<11xf32> loc(#loc7241)
    %707 = stablehlo.broadcast_in_dim %cst_34, dims = [] : (tensor<f32>) -> tensor<11xf32> loc(#loc7242)
    %708 = stablehlo.multiply %707, %706 : tensor<11xf32> loc(#loc7242)
    %709 = stablehlo.multiply %690, %694 : tensor<11xf32> loc(#loc7243)
    %710 = stablehlo.multiply %696, %692 : tensor<11xf32> loc(#loc7244)
    %711 = stablehlo.add %709, %710 : tensor<11xf32> loc(#loc7245)
    %712 = stablehlo.broadcast_in_dim %cst_34, dims = [] : (tensor<f32>) -> tensor<11xf32> loc(#loc7246)
    %713 = stablehlo.multiply %712, %711 : tensor<11xf32> loc(#loc7246)
    %714 = stablehlo.multiply %690, %692 : tensor<11xf32> loc(#loc7247)
    %715 = stablehlo.multiply %696, %694 : tensor<11xf32> loc(#loc7248)
    %716 = stablehlo.add %714, %715 : tensor<11xf32> loc(#loc7249)
    %717 = stablehlo.broadcast_in_dim %cst_34, dims = [] : (tensor<f32>) -> tensor<11xf32> loc(#loc7250)
    %718 = stablehlo.multiply %717, %716 : tensor<11xf32> loc(#loc7250)
    %719 = stablehlo.multiply %690, %690 : tensor<11xf32> loc(#loc7251)
    %720 = stablehlo.multiply %694, %694 : tensor<11xf32> loc(#loc7252)
    %721 = stablehlo.add %719, %720 : tensor<11xf32> loc(#loc7253)
    %722 = stablehlo.broadcast_in_dim %cst_34, dims = [] : (tensor<f32>) -> tensor<11xf32> loc(#loc7254)
    %723 = stablehlo.multiply %722, %721 : tensor<11xf32> loc(#loc7254)
    %724 = stablehlo.broadcast_in_dim %cst_33, dims = [] : (tensor<f32>) -> tensor<11xf32> loc(#loc7255)
    %725 = stablehlo.subtract %724, %723 : tensor<11xf32> loc(#loc7255)
    %726 = stablehlo.multiply %692, %694 : tensor<11xf32> loc(#loc7256)
    %727 = stablehlo.multiply %696, %690 : tensor<11xf32> loc(#loc7257)
    %728 = stablehlo.subtract %726, %727 : tensor<11xf32> loc(#loc7258)
    %729 = stablehlo.broadcast_in_dim %cst_34, dims = [] : (tensor<f32>) -> tensor<11xf32> loc(#loc7259)
    %730 = stablehlo.multiply %729, %728 : tensor<11xf32> loc(#loc7259)
    %731 = stablehlo.multiply %690, %694 : tensor<11xf32> loc(#loc7260)
    %732 = stablehlo.multiply %696, %692 : tensor<11xf32> loc(#loc7261)
    %733 = stablehlo.subtract %731, %732 : tensor<11xf32> loc(#loc7262)
    %734 = stablehlo.broadcast_in_dim %cst_34, dims = [] : (tensor<f32>) -> tensor<11xf32> loc(#loc7263)
    %735 = stablehlo.multiply %734, %733 : tensor<11xf32> loc(#loc7263)
    %736 = stablehlo.multiply %692, %694 : tensor<11xf32> loc(#loc7264)
    %737 = stablehlo.multiply %696, %690 : tensor<11xf32> loc(#loc7265)
    %738 = stablehlo.add %736, %737 : tensor<11xf32> loc(#loc7266)
    %739 = stablehlo.broadcast_in_dim %cst_34, dims = [] : (tensor<f32>) -> tensor<11xf32> loc(#loc7267)
    %740 = stablehlo.multiply %739, %738 : tensor<11xf32> loc(#loc7267)
    %741 = stablehlo.multiply %690, %690 : tensor<11xf32> loc(#loc7268)
    %742 = stablehlo.multiply %692, %692 : tensor<11xf32> loc(#loc7269)
    %743 = stablehlo.add %741, %742 : tensor<11xf32> loc(#loc7270)
    %744 = stablehlo.broadcast_in_dim %cst_34, dims = [] : (tensor<f32>) -> tensor<11xf32> loc(#loc7271)
    %745 = stablehlo.multiply %744, %743 : tensor<11xf32> loc(#loc7271)
    %746 = stablehlo.broadcast_in_dim %cst_33, dims = [] : (tensor<f32>) -> tensor<11xf32> loc(#loc7272)
    %747 = stablehlo.subtract %746, %745 : tensor<11xf32> loc(#loc7272)
    %748 = stablehlo.broadcast_in_dim %703, dims = [0] : (tensor<11xf32>) -> tensor<11x1xf32> loc(#loc7273)
    %749 = stablehlo.broadcast_in_dim %708, dims = [0] : (tensor<11xf32>) -> tensor<11x1xf32> loc(#loc7273)
    %750 = stablehlo.broadcast_in_dim %713, dims = [0] : (tensor<11xf32>) -> tensor<11x1xf32> loc(#loc7273)
    %751 = stablehlo.concatenate %748, %749, %750, dim = 1 : (tensor<11x1xf32>, tensor<11x1xf32>, tensor<11x1xf32>) -> tensor<11x3xf32> loc(#loc7274)
    %752 = stablehlo.broadcast_in_dim %751, dims = [0, 2] : (tensor<11x3xf32>) -> tensor<11x1x3xf32> loc(#loc7273)
    %753 = stablehlo.broadcast_in_dim %718, dims = [0] : (tensor<11xf32>) -> tensor<11x1xf32> loc(#loc7273)
    %754 = stablehlo.broadcast_in_dim %725, dims = [0] : (tensor<11xf32>) -> tensor<11x1xf32> loc(#loc7273)
    %755 = stablehlo.broadcast_in_dim %730, dims = [0] : (tensor<11xf32>) -> tensor<11x1xf32> loc(#loc7273)
    %756 = stablehlo.concatenate %753, %754, %755, dim = 1 : (tensor<11x1xf32>, tensor<11x1xf32>, tensor<11x1xf32>) -> tensor<11x3xf32> loc(#loc7274)
    %757 = stablehlo.broadcast_in_dim %756, dims = [0, 2] : (tensor<11x3xf32>) -> tensor<11x1x3xf32> loc(#loc7273)
    %758 = stablehlo.broadcast_in_dim %735, dims = [0] : (tensor<11xf32>) -> tensor<11x1xf32> loc(#loc7273)
    %759 = stablehlo.broadcast_in_dim %740, dims = [0] : (tensor<11xf32>) -> tensor<11x1xf32> loc(#loc7273)
    %760 = stablehlo.broadcast_in_dim %747, dims = [0] : (tensor<11xf32>) -> tensor<11x1xf32> loc(#loc7273)
    %761 = stablehlo.concatenate %758, %759, %760, dim = 1 : (tensor<11x1xf32>, tensor<11x1xf32>, tensor<11x1xf32>) -> tensor<11x3xf32> loc(#loc7274)
    %762 = stablehlo.broadcast_in_dim %761, dims = [0, 2] : (tensor<11x3xf32>) -> tensor<11x1x3xf32> loc(#loc7273)
    %763 = stablehlo.concatenate %752, %757, %762, dim = 1 : (tensor<11x1x3xf32>, tensor<11x1x3xf32>, tensor<11x1x3xf32>) -> tensor<11x3x3xf32> loc(#loc7274)
    %764 = stablehlo.subtract %480, %375 : tensor<11x3xf32> loc(#loc6078)
    %765 = stablehlo.broadcast_in_dim %cst_31, dims = [] : (tensor<f32>) -> tensor<3xf32> loc(#loc6079)
    %766 = stablehlo.broadcast_in_dim %cst_31, dims = [] : (tensor<f32>) -> tensor<3x3xf32> loc(#loc6080)
    %767 = stablehlo.broadcast_in_dim %cst_31, dims = [] : (tensor<f32>) -> tensor<3xf32> loc(#loc6081)
    %768 = stablehlo.broadcast_in_dim %cst_31, dims = [] : (tensor<f32>) -> tensor<3x3xf32> loc(#loc6082)
    %769 = stablehlo.slice %688 [0:11, 0:3, 0:1] : (tensor<11x3x3xf32>) -> tensor<11x3x1xf32> loc(#loc7275)
    %770 = stablehlo.reshape %769 : (tensor<11x3x1xf32>) -> tensor<11x3xf32> loc(#loc7276)
    %771 = stablehlo.slice %465 [0:11, 0:1] : (tensor<11x3xf32>) -> tensor<11x1xf32> loc(#loc7277)
    %772 = stablehlo.reshape %771 : (tensor<11x1xf32>) -> tensor<11xf32> loc(#loc7278)
    %773 = stablehlo.transpose %763, dims = [0, 2, 1] : (tensor<11x3x3xf32>) -> tensor<11x3x3xf32> loc(#loc7279)
    %774 = stablehlo.dot_general %773, %770, batching_dims = [0] x [0], contracting_dims = [2] x [1] : (tensor<11x3x3xf32>, tensor<11x3xf32>) -> tensor<11x3xf32> loc(#loc7280)
    %775 = stablehlo.abs %774 : tensor<11x3xf32> loc(#loc7281)
    %776 = stablehlo.dot_general %570, %775, batching_dims = [0] x [0], contracting_dims = [1] x [1] : (tensor<11x3xf32>, tensor<11x3xf32>) -> tensor<11xf32> loc(#loc7282)
    %777 = stablehlo.dot_general %764, %770, batching_dims = [0] x [0], contracting_dims = [1] x [1] : (tensor<11x3xf32>, tensor<11x3xf32>) -> tensor<11xf32> loc(#loc7283)
    %778 = stablehlo.abs %777 : tensor<11xf32> loc(#loc7284)
    %779 = stablehlo.add %772, %776 : tensor<11xf32> loc(#loc7285)
    %780 = stablehlo.subtract %778, %779 : tensor<11xf32> loc(#loc7286)
    %781 = stablehlo.dot_general %764, %770, batching_dims = [0] x [0], contracting_dims = [1] x [1] : (tensor<11x3xf32>, tensor<11x3xf32>) -> tensor<11xf32> loc(#loc7287)
    %782 = stablehlo.broadcast_in_dim %cst_31, dims = [] : (tensor<f32>) -> tensor<11xf32> loc(#loc7288)
    %783 = stablehlo.compare GE, %781, %782, FLOAT : (tensor<11xf32>, tensor<11xf32>) -> tensor<11xi1> loc(#loc7288)
    %784 = stablehlo.negate %770 : tensor<11x3xf32> loc(#loc7289)
    %785 = call @_where_4(%783, %770, %784) : (tensor<11xi1>, tensor<11x3xf32>, tensor<11x3xf32>) -> tensor<11x3xf32> loc(#loc7290)
    %786 = stablehlo.broadcast_in_dim %c_30, dims = [] : (tensor<i32>) -> tensor<1xi32> loc(#loc6097)
    %787 = stablehlo.broadcast_in_dim %765, dims = [1] : (tensor<3xf32>) -> tensor<11x3xf32> loc(#loc6097)
    %788 = "stablehlo.scatter"(%787, %786, %780) <{indices_are_sorted = true, scatter_dimension_numbers = #stablehlo.scatter<update_window_dims = [0], inserted_window_dims = [1], scatter_dims_to_operand_dims = [1]>, unique_indices = true}> ({
    ^bb0(%arg137: tensor<f32> loc("scatter:"(#loc246)), %arg138: tensor<f32> loc("scatter:"(#loc246))):
      stablehlo.return %arg138 : tensor<f32> loc(#loc6098)
    }) : (tensor<11x3xf32>, tensor<1xi32>, tensor<11xf32>) -> tensor<11x3xf32> loc(#loc6098)
    %789 = stablehlo.broadcast_in_dim %c_30, dims = [] : (tensor<i32>) -> tensor<1xi32> loc(#loc6099)
    %790 = stablehlo.broadcast_in_dim %766, dims = [1, 2] : (tensor<3x3xf32>) -> tensor<11x3x3xf32> loc(#loc6099)
    %791 = "stablehlo.scatter"(%790, %789, %785) <{indices_are_sorted = true, scatter_dimension_numbers = #stablehlo.scatter<update_window_dims = [0, 1], inserted_window_dims = [1], scatter_dims_to_operand_dims = [1]>, unique_indices = true}> ({
    ^bb0(%arg137: tensor<f32> loc("scatter:"(#loc246)), %arg138: tensor<f32> loc("scatter:"(#loc246))):
      stablehlo.return %arg138 : tensor<f32> loc(#loc6100)
    }) : (tensor<11x3x3xf32>, tensor<1xi32>, tensor<11x3xf32>) -> tensor<11x3x3xf32> loc(#loc6100)
    %792 = stablehlo.slice %763 [0:11, 0:3, 0:1] : (tensor<11x3x3xf32>) -> tensor<11x3x1xf32> loc(#loc7291)
    %793 = stablehlo.reshape %792 : (tensor<11x3x1xf32>) -> tensor<11x3xf32> loc(#loc7292)
    %794 = stablehlo.slice %570 [0:11, 0:1] : (tensor<11x3xf32>) -> tensor<11x1xf32> loc(#loc7293)
    %795 = stablehlo.reshape %794 : (tensor<11x1xf32>) -> tensor<11xf32> loc(#loc7294)
    %796 = stablehlo.transpose %688, dims = [0, 2, 1] : (tensor<11x3x3xf32>) -> tensor<11x3x3xf32> loc(#loc7295)
    %797 = stablehlo.dot_general %796, %793, batching_dims = [0] x [0], contracting_dims = [2] x [1] : (tensor<11x3x3xf32>, tensor<11x3xf32>) -> tensor<11x3xf32> loc(#loc7296)
    %798 = stablehlo.abs %797 : tensor<11x3xf32> loc(#loc7297)
    %799 = stablehlo.dot_general %465, %798, batching_dims = [0] x [0], contracting_dims = [1] x [1] : (tensor<11x3xf32>, tensor<11x3xf32>) -> tensor<11xf32> loc(#loc7298)
    %800 = stablehlo.dot_general %764, %793, batching_dims = [0] x [0], contracting_dims = [1] x [1] : (tensor<11x3xf32>, tensor<11x3xf32>) -> tensor<11xf32> loc(#loc7299)
    %801 = stablehlo.abs %800 : tensor<11xf32> loc(#loc7300)
    %802 = stablehlo.add %795, %799 : tensor<11xf32> loc(#loc7301)
    %803 = stablehlo.subtract %801, %802 : tensor<11xf32> loc(#loc7302)
    %804 = stablehlo.dot_general %764, %793, batching_dims = [0] x [0], contracting_dims = [1] x [1] : (tensor<11x3xf32>, tensor<11x3xf32>) -> tensor<11xf32> loc(#loc7303)
    %805 = stablehlo.broadcast_in_dim %cst_31, dims = [] : (tensor<f32>) -> tensor<11xf32> loc(#loc7304)
    %806 = stablehlo.compare GE, %804, %805, FLOAT : (tensor<11xf32>, tensor<11xf32>) -> tensor<11xi1> loc(#loc7304)
    %807 = stablehlo.negate %793 : tensor<11x3xf32> loc(#loc7305)
    %808 = call @_where_4(%806, %793, %807) : (tensor<11xi1>, tensor<11x3xf32>, tensor<11x3xf32>) -> tensor<11x3xf32> loc(#loc7306)
    %809 = stablehlo.broadcast_in_dim %c_30, dims = [] : (tensor<i32>) -> tensor<1xi32> loc(#loc6115)
    %810 = stablehlo.broadcast_in_dim %767, dims = [1] : (tensor<3xf32>) -> tensor<11x3xf32> loc(#loc6115)
    %811 = "stablehlo.scatter"(%810, %809, %803) <{indices_are_sorted = true, scatter_dimension_numbers = #stablehlo.scatter<update_window_dims = [0], inserted_window_dims = [1], scatter_dims_to_operand_dims = [1]>, unique_indices = true}> ({
    ^bb0(%arg137: tensor<f32> loc("scatter:"(#loc246)), %arg138: tensor<f32> loc("scatter:"(#loc246))):
      stablehlo.return %arg138 : tensor<f32> loc(#loc6116)
    }) : (tensor<11x3xf32>, tensor<1xi32>, tensor<11xf32>) -> tensor<11x3xf32> loc(#loc6116)
    %812 = stablehlo.broadcast_in_dim %c_30, dims = [] : (tensor<i32>) -> tensor<1xi32> loc(#loc6117)
    %813 = stablehlo.broadcast_in_dim %768, dims = [1, 2] : (tensor<3x3xf32>) -> tensor<11x3x3xf32> loc(#loc6117)
    %814 = "stablehlo.scatter"(%813, %812, %808) <{indices_are_sorted = true, scatter_dimension_numbers = #stablehlo.scatter<update_window_dims = [0, 1], inserted_window_dims = [1], scatter_dims_to_operand_dims = [1]>, unique_indices = true}> ({
    ^bb0(%arg137: tensor<f32> loc("scatter:"(#loc246)), %arg138: tensor<f32> loc("scatter:"(#loc246))):
      stablehlo.return %arg138 : tensor<f32> loc(#loc6118)
    }) : (tensor<11x3x3xf32>, tensor<1xi32>, tensor<11x3xf32>) -> tensor<11x3x3xf32> loc(#loc6118)
    %815 = stablehlo.slice %688 [0:11, 0:3, 1:2] : (tensor<11x3x3xf32>) -> tensor<11x3x1xf32> loc(#loc7275)
    %816 = stablehlo.reshape %815 : (tensor<11x3x1xf32>) -> tensor<11x3xf32> loc(#loc7276)
    %817 = stablehlo.slice %465 [0:11, 1:2] : (tensor<11x3xf32>) -> tensor<11x1xf32> loc(#loc7277)
    %818 = stablehlo.reshape %817 : (tensor<11x1xf32>) -> tensor<11xf32> loc(#loc7278)
    %819 = stablehlo.transpose %763, dims = [0, 2, 1] : (tensor<11x3x3xf32>) -> tensor<11x3x3xf32> loc(#loc7279)
    %820 = stablehlo.dot_general %819, %816, batching_dims = [0] x [0], contracting_dims = [2] x [1] : (tensor<11x3x3xf32>, tensor<11x3xf32>) -> tensor<11x3xf32> loc(#loc7280)
    %821 = stablehlo.abs %820 : tensor<11x3xf32> loc(#loc7281)
    %822 = stablehlo.dot_general %570, %821, batching_dims = [0] x [0], contracting_dims = [1] x [1] : (tensor<11x3xf32>, tensor<11x3xf32>) -> tensor<11xf32> loc(#loc7282)
    %823 = stablehlo.dot_general %764, %816, batching_dims = [0] x [0], contracting_dims = [1] x [1] : (tensor<11x3xf32>, tensor<11x3xf32>) -> tensor<11xf32> loc(#loc7283)
    %824 = stablehlo.abs %823 : tensor<11xf32> loc(#loc7284)
    %825 = stablehlo.add %818, %822 : tensor<11xf32> loc(#loc7285)
    %826 = stablehlo.subtract %824, %825 : tensor<11xf32> loc(#loc7286)
    %827 = stablehlo.dot_general %764, %816, batching_dims = [0] x [0], contracting_dims = [1] x [1] : (tensor<11x3xf32>, tensor<11x3xf32>) -> tensor<11xf32> loc(#loc7287)
    %828 = stablehlo.broadcast_in_dim %cst_31, dims = [] : (tensor<f32>) -> tensor<11xf32> loc(#loc7288)
    %829 = stablehlo.compare GE, %827, %828, FLOAT : (tensor<11xf32>, tensor<11xf32>) -> tensor<11xi1> loc(#loc7288)
    %830 = stablehlo.negate %816 : tensor<11x3xf32> loc(#loc7289)
    %831 = call @_where_4(%829, %816, %830) : (tensor<11xi1>, tensor<11x3xf32>, tensor<11x3xf32>) -> tensor<11x3xf32> loc(#loc7290)
    %832 = stablehlo.broadcast_in_dim %c_23, dims = [] : (tensor<i32>) -> tensor<1xi32> loc(#loc6097)
    %833 = "stablehlo.scatter"(%788, %832, %826) <{indices_are_sorted = true, scatter_dimension_numbers = #stablehlo.scatter<update_window_dims = [0], inserted_window_dims = [1], scatter_dims_to_operand_dims = [1]>, unique_indices = true}> ({
    ^bb0(%arg137: tensor<f32> loc("scatter:"(#loc246)), %arg138: tensor<f32> loc("scatter:"(#loc246))):
      stablehlo.return %arg138 : tensor<f32> loc(#loc6098)
    }) : (tensor<11x3xf32>, tensor<1xi32>, tensor<11xf32>) -> tensor<11x3xf32> loc(#loc6098)
    %834 = stablehlo.broadcast_in_dim %c_23, dims = [] : (tensor<i32>) -> tensor<1xi32> loc(#loc6099)
    %835 = "stablehlo.scatter"(%791, %834, %831) <{indices_are_sorted = true, scatter_dimension_numbers = #stablehlo.scatter<update_window_dims = [0, 1], inserted_window_dims = [1], scatter_dims_to_operand_dims = [1]>, unique_indices = true}> ({
    ^bb0(%arg137: tensor<f32> loc("scatter:"(#loc246)), %arg138: tensor<f32> loc("scatter:"(#loc246))):
      stablehlo.return %arg138 : tensor<f32> loc(#loc6100)
    }) : (tensor<11x3x3xf32>, tensor<1xi32>, tensor<11x3xf32>) -> tensor<11x3x3xf32> loc(#loc6100)
    %836 = stablehlo.slice %763 [0:11, 0:3, 1:2] : (tensor<11x3x3xf32>) -> tensor<11x3x1xf32> loc(#loc7291)
    %837 = stablehlo.reshape %836 : (tensor<11x3x1xf32>) -> tensor<11x3xf32> loc(#loc7292)
    %838 = stablehlo.slice %570 [0:11, 1:2] : (tensor<11x3xf32>) -> tensor<11x1xf32> loc(#loc7293)
    %839 = stablehlo.reshape %838 : (tensor<11x1xf32>) -> tensor<11xf32> loc(#loc7294)
    %840 = stablehlo.transpose %688, dims = [0, 2, 1] : (tensor<11x3x3xf32>) -> tensor<11x3x3xf32> loc(#loc7295)
    %841 = stablehlo.dot_general %840, %837, batching_dims = [0] x [0], contracting_dims = [2] x [1] : (tensor<11x3x3xf32>, tensor<11x3xf32>) -> tensor<11x3xf32> loc(#loc7296)
    %842 = stablehlo.abs %841 : tensor<11x3xf32> loc(#loc7297)
    %843 = stablehlo.dot_general %465, %842, batching_dims = [0] x [0], contracting_dims = [1] x [1] : (tensor<11x3xf32>, tensor<11x3xf32>) -> tensor<11xf32> loc(#loc7298)
    %844 = stablehlo.dot_general %764, %837, batching_dims = [0] x [0], contracting_dims = [1] x [1] : (tensor<11x3xf32>, tensor<11x3xf32>) -> tensor<11xf32> loc(#loc7299)
    %845 = stablehlo.abs %844 : tensor<11xf32> loc(#loc7300)
    %846 = stablehlo.add %839, %843 : tensor<11xf32> loc(#loc7301)
    %847 = stablehlo.subtract %845, %846 : tensor<11xf32> loc(#loc7302)
    %848 = stablehlo.dot_general %764, %837, batching_dims = [0] x [0], contracting_dims = [1] x [1] : (tensor<11x3xf32>, tensor<11x3xf32>) -> tensor<11xf32> loc(#loc7303)
    %849 = stablehlo.broadcast_in_dim %cst_31, dims = [] : (tensor<f32>) -> tensor<11xf32> loc(#loc7304)
    %850 = stablehlo.compare GE, %848, %849, FLOAT : (tensor<11xf32>, tensor<11xf32>) -> tensor<11xi1> loc(#loc7304)
    %851 = stablehlo.negate %837 : tensor<11x3xf32> loc(#loc7305)
    %852 = call @_where_4(%850, %837, %851) : (tensor<11xi1>, tensor<11x3xf32>, tensor<11x3xf32>) -> tensor<11x3xf32> loc(#loc7306)
    %853 = stablehlo.broadcast_in_dim %c_23, dims = [] : (tensor<i32>) -> tensor<1xi32> loc(#loc6115)
    %854 = "stablehlo.scatter"(%811, %853, %847) <{indices_are_sorted = true, scatter_dimension_numbers = #stablehlo.scatter<update_window_dims = [0], inserted_window_dims = [1], scatter_dims_to_operand_dims = [1]>, unique_indices = true}> ({
    ^bb0(%arg137: tensor<f32> loc("scatter:"(#loc246)), %arg138: tensor<f32> loc("scatter:"(#loc246))):
      stablehlo.return %arg138 : tensor<f32> loc(#loc6116)
    }) : (tensor<11x3xf32>, tensor<1xi32>, tensor<11xf32>) -> tensor<11x3xf32> loc(#loc6116)
    %855 = stablehlo.broadcast_in_dim %c_23, dims = [] : (tensor<i32>) -> tensor<1xi32> loc(#loc6117)
    %856 = "stablehlo.scatter"(%814, %855, %852) <{indices_are_sorted = true, scatter_dimension_numbers = #stablehlo.scatter<update_window_dims = [0, 1], inserted_window_dims = [1], scatter_dims_to_operand_dims = [1]>, unique_indices = true}> ({
    ^bb0(%arg137: tensor<f32> loc("scatter:"(#loc246)), %arg138: tensor<f32> loc("scatter:"(#loc246))):
      stablehlo.return %arg138 : tensor<f32> loc(#loc6118)
    }) : (tensor<11x3x3xf32>, tensor<1xi32>, tensor<11x3xf32>) -> tensor<11x3x3xf32> loc(#loc6118)
    %857 = stablehlo.slice %688 [0:11, 0:3, 2:3] : (tensor<11x3x3xf32>) -> tensor<11x3x1xf32> loc(#loc7275)
    %858 = stablehlo.reshape %857 : (tensor<11x3x1xf32>) -> tensor<11x3xf32> loc(#loc7276)
    %859 = stablehlo.slice %465 [0:11, 2:3] : (tensor<11x3xf32>) -> tensor<11x1xf32> loc(#loc7277)
    %860 = stablehlo.reshape %859 : (tensor<11x1xf32>) -> tensor<11xf32> loc(#loc7278)
    %861 = stablehlo.transpose %763, dims = [0, 2, 1] : (tensor<11x3x3xf32>) -> tensor<11x3x3xf32> loc(#loc7279)
    %862 = stablehlo.dot_general %861, %858, batching_dims = [0] x [0], contracting_dims = [2] x [1] : (tensor<11x3x3xf32>, tensor<11x3xf32>) -> tensor<11x3xf32> loc(#loc7280)
    %863 = stablehlo.abs %862 : tensor<11x3xf32> loc(#loc7281)
    %864 = stablehlo.dot_general %570, %863, batching_dims = [0] x [0], contracting_dims = [1] x [1] : (tensor<11x3xf32>, tensor<11x3xf32>) -> tensor<11xf32> loc(#loc7282)
    %865 = stablehlo.dot_general %764, %858, batching_dims = [0] x [0], contracting_dims = [1] x [1] : (tensor<11x3xf32>, tensor<11x3xf32>) -> tensor<11xf32> loc(#loc7283)
    %866 = stablehlo.abs %865 : tensor<11xf32> loc(#loc7284)
    %867 = stablehlo.add %860, %864 : tensor<11xf32> loc(#loc7285)
    %868 = stablehlo.subtract %866, %867 : tensor<11xf32> loc(#loc7286)
    %869 = stablehlo.dot_general %764, %858, batching_dims = [0] x [0], contracting_dims = [1] x [1] : (tensor<11x3xf32>, tensor<11x3xf32>) -> tensor<11xf32> loc(#loc7287)
    %870 = stablehlo.broadcast_in_dim %cst_31, dims = [] : (tensor<f32>) -> tensor<11xf32> loc(#loc7288)
    %871 = stablehlo.compare GE, %869, %870, FLOAT : (tensor<11xf32>, tensor<11xf32>) -> tensor<11xi1> loc(#loc7288)
    %872 = stablehlo.negate %858 : tensor<11x3xf32> loc(#loc7289)
    %873 = call @_where_4(%871, %858, %872) : (tensor<11xi1>, tensor<11x3xf32>, tensor<11x3xf32>) -> tensor<11x3xf32> loc(#loc7290)
    %874 = stablehlo.broadcast_in_dim %c_25, dims = [] : (tensor<i32>) -> tensor<1xi32> loc(#loc6097)
    %875 = "stablehlo.scatter"(%833, %874, %868) <{indices_are_sorted = true, scatter_dimension_numbers = #stablehlo.scatter<update_window_dims = [0], inserted_window_dims = [1], scatter_dims_to_operand_dims = [1]>, unique_indices = true}> ({
    ^bb0(%arg137: tensor<f32> loc("scatter:"(#loc246)), %arg138: tensor<f32> loc("scatter:"(#loc246))):
      stablehlo.return %arg138 : tensor<f32> loc(#loc6098)
    }) : (tensor<11x3xf32>, tensor<1xi32>, tensor<11xf32>) -> tensor<11x3xf32> loc(#loc6098)
    %876 = stablehlo.broadcast_in_dim %c_25, dims = [] : (tensor<i32>) -> tensor<1xi32> loc(#loc6099)
    %877 = "stablehlo.scatter"(%835, %876, %873) <{indices_are_sorted = true, scatter_dimension_numbers = #stablehlo.scatter<update_window_dims = [0, 1], inserted_window_dims = [1], scatter_dims_to_operand_dims = [1]>, unique_indices = true}> ({
    ^bb0(%arg137: tensor<f32> loc("scatter:"(#loc246)), %arg138: tensor<f32> loc("scatter:"(#loc246))):
      stablehlo.return %arg138 : tensor<f32> loc(#loc6100)
    }) : (tensor<11x3x3xf32>, tensor<1xi32>, tensor<11x3xf32>) -> tensor<11x3x3xf32> loc(#loc6100)
    %878 = stablehlo.slice %763 [0:11, 0:3, 2:3] : (tensor<11x3x3xf32>) -> tensor<11x3x1xf32> loc(#loc7291)
    %879 = stablehlo.reshape %878 : (tensor<11x3x1xf32>) -> tensor<11x3xf32> loc(#loc7292)
    %880 = stablehlo.slice %570 [0:11, 2:3] : (tensor<11x3xf32>) -> tensor<11x1xf32> loc(#loc7293)
    %881 = stablehlo.reshape %880 : (tensor<11x1xf32>) -> tensor<11xf32> loc(#loc7294)
    %882 = stablehlo.transpose %688, dims = [0, 2, 1] : (tensor<11x3x3xf32>) -> tensor<11x3x3xf32> loc(#loc7295)
    %883 = stablehlo.dot_general %882, %879, batching_dims = [0] x [0], contracting_dims = [2] x [1] : (tensor<11x3x3xf32>, tensor<11x3xf32>) -> tensor<11x3xf32> loc(#loc7296)
    %884 = stablehlo.abs %883 : tensor<11x3xf32> loc(#loc7297)
    %885 = stablehlo.dot_general %465, %884, batching_dims = [0] x [0], contracting_dims = [1] x [1] : (tensor<11x3xf32>, tensor<11x3xf32>) -> tensor<11xf32> loc(#loc7298)
    %886 = stablehlo.dot_general %764, %879, batching_dims = [0] x [0], contracting_dims = [1] x [1] : (tensor<11x3xf32>, tensor<11x3xf32>) -> tensor<11xf32> loc(#loc7299)
    %887 = stablehlo.abs %886 : tensor<11xf32> loc(#loc7300)
    %888 = stablehlo.add %881, %885 : tensor<11xf32> loc(#loc7301)
    %889 = stablehlo.subtract %887, %888 : tensor<11xf32> loc(#loc7302)
    %890 = stablehlo.dot_general %764, %879, batching_dims = [0] x [0], contracting_dims = [1] x [1] : (tensor<11x3xf32>, tensor<11x3xf32>) -> tensor<11xf32> loc(#loc7303)
    %891 = stablehlo.broadcast_in_dim %cst_31, dims = [] : (tensor<f32>) -> tensor<11xf32> loc(#loc7304)
    %892 = stablehlo.compare GE, %890, %891, FLOAT : (tensor<11xf32>, tensor<11xf32>) -> tensor<11xi1> loc(#loc7304)
    %893 = stablehlo.negate %879 : tensor<11x3xf32> loc(#loc7305)
    %894 = call @_where_4(%892, %879, %893) : (tensor<11xi1>, tensor<11x3xf32>, tensor<11x3xf32>) -> tensor<11x3xf32> loc(#loc7306)
    %895 = stablehlo.broadcast_in_dim %c_25, dims = [] : (tensor<i32>) -> tensor<1xi32> loc(#loc6115)
    %896 = "stablehlo.scatter"(%854, %895, %889) <{indices_are_sorted = true, scatter_dimension_numbers = #stablehlo.scatter<update_window_dims = [0], inserted_window_dims = [1], scatter_dims_to_operand_dims = [1]>, unique_indices = true}> ({
    ^bb0(%arg137: tensor<f32> loc("scatter:"(#loc246)), %arg138: tensor<f32> loc("scatter:"(#loc246))):
      stablehlo.return %arg138 : tensor<f32> loc(#loc6116)
    }) : (tensor<11x3xf32>, tensor<1xi32>, tensor<11xf32>) -> tensor<11x3xf32> loc(#loc6116)
    %897 = stablehlo.broadcast_in_dim %c_25, dims = [] : (tensor<i32>) -> tensor<1xi32> loc(#loc6117)
    %898 = "stablehlo.scatter"(%856, %897, %894) <{indices_are_sorted = true, scatter_dimension_numbers = #stablehlo.scatter<update_window_dims = [0, 1], inserted_window_dims = [1], scatter_dims_to_operand_dims = [1]>, unique_indices = true}> ({
    ^bb0(%arg137: tensor<f32> loc("scatter:"(#loc246)), %arg138: tensor<f32> loc("scatter:"(#loc246))):
      stablehlo.return %arg138 : tensor<f32> loc(#loc6118)
    }) : (tensor<11x3x3xf32>, tensor<1xi32>, tensor<11x3xf32>) -> tensor<11x3x3xf32> loc(#loc6118)
    %899 = stablehlo.broadcast_in_dim %cst_22, dims = [] : (tensor<f32>) -> tensor<3x3xf32> loc(#loc6119)
    %900 = stablehlo.broadcast_in_dim %cst_31, dims = [] : (tensor<f32>) -> tensor<3x3x3xf32> loc(#loc6120)
    %901 = stablehlo.slice %688 [0:11, 0:3, 0:1] : (tensor<11x3x3xf32>) -> tensor<11x3x1xf32> loc(#loc6121)
    %902 = stablehlo.reshape %901 : (tensor<11x3x1xf32>) -> tensor<11x3xf32> loc(#loc6122)
    %903 = stablehlo.slice %763 [0:11, 0:3, 0:1] : (tensor<11x3x3xf32>) -> tensor<11x3x1xf32> loc(#loc6123)
    %904 = stablehlo.reshape %903 : (tensor<11x3x1xf32>) -> tensor<11x3xf32> loc(#loc6124)
    %905 = call @cross(%902, %904) : (tensor<11x3xf32>, tensor<11x3xf32>) -> tensor<11x3xf32> loc(#loc6125)
    %906 = call @norm(%905) : (tensor<11x3xf32>) -> tensor<11xf32> loc(#loc6126)
    %907 = stablehlo.broadcast_in_dim %cst_21, dims = [] : (tensor<f32>) -> tensor<11xf32> loc(#loc6127)
    %908 = stablehlo.compare GT, %906, %907, FLOAT : (tensor<11xf32>, tensor<11xf32>) -> tensor<11xi1> loc(#loc6127)
    %909 = stablehlo.broadcast_in_dim %cst_31, dims = [] : (tensor<f32>) -> tensor<11xf32> loc(#loc7307)
    %910 = stablehlo.compare EQ, %906, %909, FLOAT : (tensor<11xf32>, tensor<11xf32>) -> tensor<11xi1> loc(#loc7307)
    %911 = stablehlo.broadcast_in_dim %cst_33, dims = [] : (tensor<f32>) -> tensor<11xf32> loc(#loc7308)
    %912 = stablehlo.select %910, %911, %906 : tensor<11xi1>, tensor<11xf32> loc(#loc7309)
    %913 = stablehlo.broadcast_in_dim %912, dims = [0] : (tensor<11xf32>) -> tensor<11x1xf32> loc(#loc6130)
    %914 = stablehlo.broadcast_in_dim %913, dims = [0, 1] : (tensor<11x1xf32>) -> tensor<11x3xf32> loc(#loc6131)
    %915 = stablehlo.divide %905, %914 : tensor<11x3xf32> loc(#loc6131)
    %916 = stablehlo.transpose %688, dims = [0, 2, 1] : (tensor<11x3x3xf32>) -> tensor<11x3x3xf32> loc(#loc6132)
    %917 = stablehlo.dot_general %916, %915, batching_dims = [0] x [0], contracting_dims = [2] x [1] : (tensor<11x3x3xf32>, tensor<11x3xf32>) -> tensor<11x3xf32> loc(#loc6133)
    %918 = stablehlo.abs %917 : tensor<11x3xf32> loc(#loc6134)
    %919 = stablehlo.dot_general %465, %918, batching_dims = [0] x [0], contracting_dims = [1] x [1] : (tensor<11x3xf32>, tensor<11x3xf32>) -> tensor<11xf32> loc(#loc6135)
    %920 = stablehlo.transpose %763, dims = [0, 2, 1] : (tensor<11x3x3xf32>) -> tensor<11x3x3xf32> loc(#loc6136)
    %921 = stablehlo.dot_general %920, %915, batching_dims = [0] x [0], contracting_dims = [2] x [1] : (tensor<11x3x3xf32>, tensor<11x3xf32>) -> tensor<11x3xf32> loc(#loc6137)
    %922 = stablehlo.abs %921 : tensor<11x3xf32> loc(#loc6138)
    %923 = stablehlo.dot_general %570, %922, batching_dims = [0] x [0], contracting_dims = [1] x [1] : (tensor<11x3xf32>, tensor<11x3xf32>) -> tensor<11xf32> loc(#loc6139)
    %924 = stablehlo.dot_general %764, %915, batching_dims = [0] x [0], contracting_dims = [1] x [1] : (tensor<11x3xf32>, tensor<11x3xf32>) -> tensor<11xf32> loc(#loc6140)
    %925 = stablehlo.abs %924 : tensor<11xf32> loc(#loc6141)
    %926 = stablehlo.add %919, %923 : tensor<11xf32> loc(#loc6142)
    %927 = stablehlo.subtract %925, %926 : tensor<11xf32> loc(#loc6143)
    %928 = call @_where_5(%908, %927, %cst_22) : (tensor<11xi1>, tensor<11xf32>, tensor<f32>) -> tensor<11xf32> loc(#loc6144)
    %929 = stablehlo.dot_general %764, %915, batching_dims = [0] x [0], contracting_dims = [1] x [1] : (tensor<11x3xf32>, tensor<11x3xf32>) -> tensor<11xf32> loc(#loc6145)
    %930 = stablehlo.broadcast_in_dim %cst_31, dims = [] : (tensor<f32>) -> tensor<11xf32> loc(#loc6146)
    %931 = stablehlo.compare GE, %929, %930, FLOAT : (tensor<11xf32>, tensor<11xf32>) -> tensor<11xi1> loc(#loc6146)
    %932 = stablehlo.negate %915 : tensor<11x3xf32> loc(#loc6147)
    %933 = call @_where_4(%931, %915, %932) : (tensor<11xi1>, tensor<11x3xf32>, tensor<11x3xf32>) -> tensor<11x3xf32> loc(#loc6148)
    %934 = stablehlo.broadcast_in_dim %c_30, dims = [] : (tensor<i32>) -> tensor<1xi32> loc(#loc6149)
    %935 = stablehlo.broadcast_in_dim %c_30, dims = [] : (tensor<i32>) -> tensor<1xi32> loc(#loc6149)
    %936 = stablehlo.concatenate %934, %935, dim = 0 : (tensor<1xi32>, tensor<1xi32>) -> tensor<2xi32> loc(#loc6150)
    %937 = stablehlo.convert %899 : tensor<3x3xf32> loc(#loc6151)
    %938 = stablehlo.broadcast_in_dim %937, dims = [1, 2] : (tensor<3x3xf32>) -> tensor<11x3x3xf32> loc(#loc6149)
    %939 = "stablehlo.scatter"(%938, %936, %928) <{indices_are_sorted = true, scatter_dimension_numbers = #stablehlo.scatter<update_window_dims = [0], inserted_window_dims = [1, 2], scatter_dims_to_operand_dims = [1, 2]>, unique_indices = true}> ({
    ^bb0(%arg137: tensor<f32> loc("scatter:"(#loc246)), %arg138: tensor<f32> loc("scatter:"(#loc246))):
      stablehlo.return %arg138 : tensor<f32> loc(#loc6152)
    }) : (tensor<11x3x3xf32>, tensor<2xi32>, tensor<11xf32>) -> tensor<11x3x3xf32> loc(#loc6152)
    %940 = stablehlo.convert %939 : tensor<11x3x3xf32> loc(#loc6151)
    %941 = stablehlo.broadcast_in_dim %c_30, dims = [] : (tensor<i32>) -> tensor<1xi32> loc(#loc6153)
    %942 = stablehlo.broadcast_in_dim %c_30, dims = [] : (tensor<i32>) -> tensor<1xi32> loc(#loc6153)
    %943 = stablehlo.concatenate %941, %942, dim = 0 : (tensor<1xi32>, tensor<1xi32>) -> tensor<2xi32> loc(#loc6154)
    %944 = stablehlo.broadcast_in_dim %900, dims = [1, 2, 3] : (tensor<3x3x3xf32>) -> tensor<11x3x3x3xf32> loc(#loc6153)
    %945 = "stablehlo.scatter"(%944, %943, %933) <{indices_are_sorted = true, scatter_dimension_numbers = #stablehlo.scatter<update_window_dims = [0, 1], inserted_window_dims = [1, 2], scatter_dims_to_operand_dims = [1, 2]>, unique_indices = true}> ({
    ^bb0(%arg137: tensor<f32> loc("scatter:"(#loc246)), %arg138: tensor<f32> loc("scatter:"(#loc246))):
      stablehlo.return %arg138 : tensor<f32> loc(#loc6155)
    }) : (tensor<11x3x3x3xf32>, tensor<2xi32>, tensor<11x3xf32>) -> tensor<11x3x3x3xf32> loc(#loc6155)
    %946 = stablehlo.slice %688 [0:11, 0:3, 0:1] : (tensor<11x3x3xf32>) -> tensor<11x3x1xf32> loc(#loc6121)
    %947 = stablehlo.reshape %946 : (tensor<11x3x1xf32>) -> tensor<11x3xf32> loc(#loc6122)
    %948 = stablehlo.slice %763 [0:11, 0:3, 1:2] : (tensor<11x3x3xf32>) -> tensor<11x3x1xf32> loc(#loc6123)
    %949 = stablehlo.reshape %948 : (tensor<11x3x1xf32>) -> tensor<11x3xf32> loc(#loc6124)
    %950 = call @cross(%947, %949) : (tensor<11x3xf32>, tensor<11x3xf32>) -> tensor<11x3xf32> loc(#loc6125)
    %951 = call @norm(%950) : (tensor<11x3xf32>) -> tensor<11xf32> loc(#loc6126)
    %952 = stablehlo.broadcast_in_dim %cst_21, dims = [] : (tensor<f32>) -> tensor<11xf32> loc(#loc6127)
    %953 = stablehlo.compare GT, %951, %952, FLOAT : (tensor<11xf32>, tensor<11xf32>) -> tensor<11xi1> loc(#loc6127)
    %954 = stablehlo.broadcast_in_dim %cst_31, dims = [] : (tensor<f32>) -> tensor<11xf32> loc(#loc7307)
    %955 = stablehlo.compare EQ, %951, %954, FLOAT : (tensor<11xf32>, tensor<11xf32>) -> tensor<11xi1> loc(#loc7307)
    %956 = stablehlo.broadcast_in_dim %cst_33, dims = [] : (tensor<f32>) -> tensor<11xf32> loc(#loc7308)
    %957 = stablehlo.select %955, %956, %951 : tensor<11xi1>, tensor<11xf32> loc(#loc7309)
    %958 = stablehlo.broadcast_in_dim %957, dims = [0] : (tensor<11xf32>) -> tensor<11x1xf32> loc(#loc6130)
    %959 = stablehlo.broadcast_in_dim %958, dims = [0, 1] : (tensor<11x1xf32>) -> tensor<11x3xf32> loc(#loc6131)
    %960 = stablehlo.divide %950, %959 : tensor<11x3xf32> loc(#loc6131)
    %961 = stablehlo.transpose %688, dims = [0, 2, 1] : (tensor<11x3x3xf32>) -> tensor<11x3x3xf32> loc(#loc6132)
    %962 = stablehlo.dot_general %961, %960, batching_dims = [0] x [0], contracting_dims = [2] x [1] : (tensor<11x3x3xf32>, tensor<11x3xf32>) -> tensor<11x3xf32> loc(#loc6133)
    %963 = stablehlo.abs %962 : tensor<11x3xf32> loc(#loc6134)
    %964 = stablehlo.dot_general %465, %963, batching_dims = [0] x [0], contracting_dims = [1] x [1] : (tensor<11x3xf32>, tensor<11x3xf32>) -> tensor<11xf32> loc(#loc6135)
    %965 = stablehlo.transpose %763, dims = [0, 2, 1] : (tensor<11x3x3xf32>) -> tensor<11x3x3xf32> loc(#loc6136)
    %966 = stablehlo.dot_general %965, %960, batching_dims = [0] x [0], contracting_dims = [2] x [1] : (tensor<11x3x3xf32>, tensor<11x3xf32>) -> tensor<11x3xf32> loc(#loc6137)
    %967 = stablehlo.abs %966 : tensor<11x3xf32> loc(#loc6138)
    %968 = stablehlo.dot_general %570, %967, batching_dims = [0] x [0], contracting_dims = [1] x [1] : (tensor<11x3xf32>, tensor<11x3xf32>) -> tensor<11xf32> loc(#loc6139)
    %969 = stablehlo.dot_general %764, %960, batching_dims = [0] x [0], contracting_dims = [1] x [1] : (tensor<11x3xf32>, tensor<11x3xf32>) -> tensor<11xf32> loc(#loc6140)
    %970 = stablehlo.abs %969 : tensor<11xf32> loc(#loc6141)
    %971 = stablehlo.add %964, %968 : tensor<11xf32> loc(#loc6142)
    %972 = stablehlo.subtract %970, %971 : tensor<11xf32> loc(#loc6143)
    %973 = call @_where_5(%953, %972, %cst_22) : (tensor<11xi1>, tensor<11xf32>, tensor<f32>) -> tensor<11xf32> loc(#loc6144)
    %974 = stablehlo.dot_general %764, %960, batching_dims = [0] x [0], contracting_dims = [1] x [1] : (tensor<11x3xf32>, tensor<11x3xf32>) -> tensor<11xf32> loc(#loc6145)
    %975 = stablehlo.broadcast_in_dim %cst_31, dims = [] : (tensor<f32>) -> tensor<11xf32> loc(#loc6146)
    %976 = stablehlo.compare GE, %974, %975, FLOAT : (tensor<11xf32>, tensor<11xf32>) -> tensor<11xi1> loc(#loc6146)
    %977 = stablehlo.negate %960 : tensor<11x3xf32> loc(#loc6147)
    %978 = call @_where_4(%976, %960, %977) : (tensor<11xi1>, tensor<11x3xf32>, tensor<11x3xf32>) -> tensor<11x3xf32> loc(#loc6148)
    %979 = stablehlo.broadcast_in_dim %c_30, dims = [] : (tensor<i32>) -> tensor<1xi32> loc(#loc6149)
    %980 = stablehlo.broadcast_in_dim %c_23, dims = [] : (tensor<i32>) -> tensor<1xi32> loc(#loc6149)
    %981 = stablehlo.concatenate %979, %980, dim = 0 : (tensor<1xi32>, tensor<1xi32>) -> tensor<2xi32> loc(#loc6150)
    %982 = stablehlo.convert %940 : tensor<11x3x3xf32> loc(#loc6151)
    %983 = "stablehlo.scatter"(%982, %981, %973) <{indices_are_sorted = true, scatter_dimension_numbers = #stablehlo.scatter<update_window_dims = [0], inserted_window_dims = [1, 2], scatter_dims_to_operand_dims = [1, 2]>, unique_indices = true}> ({
    ^bb0(%arg137: tensor<f32> loc("scatter:"(#loc246)), %arg138: tensor<f32> loc("scatter:"(#loc246))):
      stablehlo.return %arg138 : tensor<f32> loc(#loc6152)
    }) : (tensor<11x3x3xf32>, tensor<2xi32>, tensor<11xf32>) -> tensor<11x3x3xf32> loc(#loc6152)
    %984 = stablehlo.convert %983 : tensor<11x3x3xf32> loc(#loc6151)
    %985 = stablehlo.broadcast_in_dim %c_30, dims = [] : (tensor<i32>) -> tensor<1xi32> loc(#loc6153)
    %986 = stablehlo.broadcast_in_dim %c_23, dims = [] : (tensor<i32>) -> tensor<1xi32> loc(#loc6153)
    %987 = stablehlo.concatenate %985, %986, dim = 0 : (tensor<1xi32>, tensor<1xi32>) -> tensor<2xi32> loc(#loc6154)
    %988 = "stablehlo.scatter"(%945, %987, %978) <{indices_are_sorted = true, scatter_dimension_numbers = #stablehlo.scatter<update_window_dims = [0, 1], inserted_window_dims = [1, 2], scatter_dims_to_operand_dims = [1, 2]>, unique_indices = true}> ({
    ^bb0(%arg137: tensor<f32> loc("scatter:"(#loc246)), %arg138: tensor<f32> loc("scatter:"(#loc246))):
      stablehlo.return %arg138 : tensor<f32> loc(#loc6155)
    }) : (tensor<11x3x3x3xf32>, tensor<2xi32>, tensor<11x3xf32>) -> tensor<11x3x3x3xf32> loc(#loc6155)
    %989 = stablehlo.slice %688 [0:11, 0:3, 0:1] : (tensor<11x3x3xf32>) -> tensor<11x3x1xf32> loc(#loc6121)
    %990 = stablehlo.reshape %989 : (tensor<11x3x1xf32>) -> tensor<11x3xf32> loc(#loc6122)
    %991 = stablehlo.slice %763 [0:11, 0:3, 2:3] : (tensor<11x3x3xf32>) -> tensor<11x3x1xf32> loc(#loc6123)
    %992 = stablehlo.reshape %991 : (tensor<11x3x1xf32>) -> tensor<11x3xf32> loc(#loc6124)
    %993 = call @cross(%990, %992) : (tensor<11x3xf32>, tensor<11x3xf32>) -> tensor<11x3xf32> loc(#loc6125)
    %994 = call @norm(%993) : (tensor<11x3xf32>) -> tensor<11xf32> loc(#loc6126)
    %995 = stablehlo.broadcast_in_dim %cst_21, dims = [] : (tensor<f32>) -> tensor<11xf32> loc(#loc6127)
    %996 = stablehlo.compare GT, %994, %995, FLOAT : (tensor<11xf32>, tensor<11xf32>) -> tensor<11xi1> loc(#loc6127)
    %997 = stablehlo.broadcast_in_dim %cst_31, dims = [] : (tensor<f32>) -> tensor<11xf32> loc(#loc7307)
    %998 = stablehlo.compare EQ, %994, %997, FLOAT : (tensor<11xf32>, tensor<11xf32>) -> tensor<11xi1> loc(#loc7307)
    %999 = stablehlo.broadcast_in_dim %cst_33, dims = [] : (tensor<f32>) -> tensor<11xf32> loc(#loc7308)
    %1000 = stablehlo.select %998, %999, %994 : tensor<11xi1>, tensor<11xf32> loc(#loc7309)
    %1001 = stablehlo.broadcast_in_dim %1000, dims = [0] : (tensor<11xf32>) -> tensor<11x1xf32> loc(#loc6130)
    %1002 = stablehlo.broadcast_in_dim %1001, dims = [0, 1] : (tensor<11x1xf32>) -> tensor<11x3xf32> loc(#loc6131)
    %1003 = stablehlo.divide %993, %1002 : tensor<11x3xf32> loc(#loc6131)
    %1004 = stablehlo.transpose %688, dims = [0, 2, 1] : (tensor<11x3x3xf32>) -> tensor<11x3x3xf32> loc(#loc6132)
    %1005 = stablehlo.dot_general %1004, %1003, batching_dims = [0] x [0], contracting_dims = [2] x [1] : (tensor<11x3x3xf32>, tensor<11x3xf32>) -> tensor<11x3xf32> loc(#loc6133)
    %1006 = stablehlo.abs %1005 : tensor<11x3xf32> loc(#loc6134)
    %1007 = stablehlo.dot_general %465, %1006, batching_dims = [0] x [0], contracting_dims = [1] x [1] : (tensor<11x3xf32>, tensor<11x3xf32>) -> tensor<11xf32> loc(#loc6135)
    %1008 = stablehlo.transpose %763, dims = [0, 2, 1] : (tensor<11x3x3xf32>) -> tensor<11x3x3xf32> loc(#loc6136)
    %1009 = stablehlo.dot_general %1008, %1003, batching_dims = [0] x [0], contracting_dims = [2] x [1] : (tensor<11x3x3xf32>, tensor<11x3xf32>) -> tensor<11x3xf32> loc(#loc6137)
    %1010 = stablehlo.abs %1009 : tensor<11x3xf32> loc(#loc6138)
    %1011 = stablehlo.dot_general %570, %1010, batching_dims = [0] x [0], contracting_dims = [1] x [1] : (tensor<11x3xf32>, tensor<11x3xf32>) -> tensor<11xf32> loc(#loc6139)
    %1012 = stablehlo.dot_general %764, %1003, batching_dims = [0] x [0], contracting_dims = [1] x [1] : (tensor<11x3xf32>, tensor<11x3xf32>) -> tensor<11xf32> loc(#loc6140)
    %1013 = stablehlo.abs %1012 : tensor<11xf32> loc(#loc6141)
    %1014 = stablehlo.add %1007, %1011 : tensor<11xf32> loc(#loc6142)
    %1015 = stablehlo.subtract %1013, %1014 : tensor<11xf32> loc(#loc6143)
    %1016 = call @_where_5(%996, %1015, %cst_22) : (tensor<11xi1>, tensor<11xf32>, tensor<f32>) -> tensor<11xf32> loc(#loc6144)
    %1017 = stablehlo.dot_general %764, %1003, batching_dims = [0] x [0], contracting_dims = [1] x [1] : (tensor<11x3xf32>, tensor<11x3xf32>) -> tensor<11xf32> loc(#loc6145)
    %1018 = stablehlo.broadcast_in_dim %cst_31, dims = [] : (tensor<f32>) -> tensor<11xf32> loc(#loc6146)
    %1019 = stablehlo.compare GE, %1017, %1018, FLOAT : (tensor<11xf32>, tensor<11xf32>) -> tensor<11xi1> loc(#loc6146)
    %1020 = stablehlo.negate %1003 : tensor<11x3xf32> loc(#loc6147)
    %1021 = call @_where_4(%1019, %1003, %1020) : (tensor<11xi1>, tensor<11x3xf32>, tensor<11x3xf32>) -> tensor<11x3xf32> loc(#loc6148)
    %1022 = stablehlo.broadcast_in_dim %c_30, dims = [] : (tensor<i32>) -> tensor<1xi32> loc(#loc6149)
    %1023 = stablehlo.broadcast_in_dim %c_25, dims = [] : (tensor<i32>) -> tensor<1xi32> loc(#loc6149)
    %1024 = stablehlo.concatenate %1022, %1023, dim = 0 : (tensor<1xi32>, tensor<1xi32>) -> tensor<2xi32> loc(#loc6150)
    %1025 = stablehlo.convert %984 : tensor<11x3x3xf32> loc(#loc6151)
    %1026 = "stablehlo.scatter"(%1025, %1024, %1016) <{indices_are_sorted = true, scatter_dimension_numbers = #stablehlo.scatter<update_window_dims = [0], inserted_window_dims = [1, 2], scatter_dims_to_operand_dims = [1, 2]>, unique_indices = true}> ({
    ^bb0(%arg137: tensor<f32> loc("scatter:"(#loc246)), %arg138: tensor<f32> loc("scatter:"(#loc246))):
      stablehlo.return %arg138 : tensor<f32> loc(#loc6152)
    }) : (tensor<11x3x3xf32>, tensor<2xi32>, tensor<11xf32>) -> tensor<11x3x3xf32> loc(#loc6152)
    %1027 = stablehlo.convert %1026 : tensor<11x3x3xf32> loc(#loc6151)
    %1028 = stablehlo.broadcast_in_dim %c_30, dims = [] : (tensor<i32>) -> tensor<1xi32> loc(#loc6153)
    %1029 = stablehlo.broadcast_in_dim %c_25, dims = [] : (tensor<i32>) -> tensor<1xi32> loc(#loc6153)
    %1030 = stablehlo.concatenate %1028, %1029, dim = 0 : (tensor<1xi32>, tensor<1xi32>) -> tensor<2xi32> loc(#loc6154)
    %1031 = "stablehlo.scatter"(%988, %1030, %1021) <{indices_are_sorted = true, scatter_dimension_numbers = #stablehlo.scatter<update_window_dims = [0, 1], inserted_window_dims = [1, 2], scatter_dims_to_operand_dims = [1, 2]>, unique_indices = true}> ({
    ^bb0(%arg137: tensor<f32> loc("scatter:"(#loc246)), %arg138: tensor<f32> loc("scatter:"(#loc246))):
      stablehlo.return %arg138 : tensor<f32> loc(#loc6155)
    }) : (tensor<11x3x3x3xf32>, tensor<2xi32>, tensor<11x3xf32>) -> tensor<11x3x3x3xf32> loc(#loc6155)
    %1032 = stablehlo.slice %688 [0:11, 0:3, 1:2] : (tensor<11x3x3xf32>) -> tensor<11x3x1xf32> loc(#loc6121)
    %1033 = stablehlo.reshape %1032 : (tensor<11x3x1xf32>) -> tensor<11x3xf32> loc(#loc6122)
    %1034 = stablehlo.slice %763 [0:11, 0:3, 0:1] : (tensor<11x3x3xf32>) -> tensor<11x3x1xf32> loc(#loc6123)
    %1035 = stablehlo.reshape %1034 : (tensor<11x3x1xf32>) -> tensor<11x3xf32> loc(#loc6124)
    %1036 = call @cross(%1033, %1035) : (tensor<11x3xf32>, tensor<11x3xf32>) -> tensor<11x3xf32> loc(#loc6125)
    %1037 = call @norm(%1036) : (tensor<11x3xf32>) -> tensor<11xf32> loc(#loc6126)
    %1038 = stablehlo.broadcast_in_dim %cst_21, dims = [] : (tensor<f32>) -> tensor<11xf32> loc(#loc6127)
    %1039 = stablehlo.compare GT, %1037, %1038, FLOAT : (tensor<11xf32>, tensor<11xf32>) -> tensor<11xi1> loc(#loc6127)
    %1040 = stablehlo.broadcast_in_dim %cst_31, dims = [] : (tensor<f32>) -> tensor<11xf32> loc(#loc7307)
    %1041 = stablehlo.compare EQ, %1037, %1040, FLOAT : (tensor<11xf32>, tensor<11xf32>) -> tensor<11xi1> loc(#loc7307)
    %1042 = stablehlo.broadcast_in_dim %cst_33, dims = [] : (tensor<f32>) -> tensor<11xf32> loc(#loc7308)
    %1043 = stablehlo.select %1041, %1042, %1037 : tensor<11xi1>, tensor<11xf32> loc(#loc7309)
    %1044 = stablehlo.broadcast_in_dim %1043, dims = [0] : (tensor<11xf32>) -> tensor<11x1xf32> loc(#loc6130)
    %1045 = stablehlo.broadcast_in_dim %1044, dims = [0, 1] : (tensor<11x1xf32>) -> tensor<11x3xf32> loc(#loc6131)
    %1046 = stablehlo.divide %1036, %1045 : tensor<11x3xf32> loc(#loc6131)
    %1047 = stablehlo.transpose %688, dims = [0, 2, 1] : (tensor<11x3x3xf32>) -> tensor<11x3x3xf32> loc(#loc6132)
    %1048 = stablehlo.dot_general %1047, %1046, batching_dims = [0] x [0], contracting_dims = [2] x [1] : (tensor<11x3x3xf32>, tensor<11x3xf32>) -> tensor<11x3xf32> loc(#loc6133)
    %1049 = stablehlo.abs %1048 : tensor<11x3xf32> loc(#loc6134)
    %1050 = stablehlo.dot_general %465, %1049, batching_dims = [0] x [0], contracting_dims = [1] x [1] : (tensor<11x3xf32>, tensor<11x3xf32>) -> tensor<11xf32> loc(#loc6135)
    %1051 = stablehlo.transpose %763, dims = [0, 2, 1] : (tensor<11x3x3xf32>) -> tensor<11x3x3xf32> loc(#loc6136)
    %1052 = stablehlo.dot_general %1051, %1046, batching_dims = [0] x [0], contracting_dims = [2] x [1] : (tensor<11x3x3xf32>, tensor<11x3xf32>) -> tensor<11x3xf32> loc(#loc6137)
    %1053 = stablehlo.abs %1052 : tensor<11x3xf32> loc(#loc6138)
    %1054 = stablehlo.dot_general %570, %1053, batching_dims = [0] x [0], contracting_dims = [1] x [1] : (tensor<11x3xf32>, tensor<11x3xf32>) -> tensor<11xf32> loc(#loc6139)
    %1055 = stablehlo.dot_general %764, %1046, batching_dims = [0] x [0], contracting_dims = [1] x [1] : (tensor<11x3xf32>, tensor<11x3xf32>) -> tensor<11xf32> loc(#loc6140)
    %1056 = stablehlo.abs %1055 : tensor<11xf32> loc(#loc6141)
    %1057 = stablehlo.add %1050, %1054 : tensor<11xf32> loc(#loc6142)
    %1058 = stablehlo.subtract %1056, %1057 : tensor<11xf32> loc(#loc6143)
    %1059 = call @_where_5(%1039, %1058, %cst_22) : (tensor<11xi1>, tensor<11xf32>, tensor<f32>) -> tensor<11xf32> loc(#loc6144)
    %1060 = stablehlo.dot_general %764, %1046, batching_dims = [0] x [0], contracting_dims = [1] x [1] : (tensor<11x3xf32>, tensor<11x3xf32>) -> tensor<11xf32> loc(#loc6145)
    %1061 = stablehlo.broadcast_in_dim %cst_31, dims = [] : (tensor<f32>) -> tensor<11xf32> loc(#loc6146)
    %1062 = stablehlo.compare GE, %1060, %1061, FLOAT : (tensor<11xf32>, tensor<11xf32>) -> tensor<11xi1> loc(#loc6146)
    %1063 = stablehlo.negate %1046 : tensor<11x3xf32> loc(#loc6147)
    %1064 = call @_where_4(%1062, %1046, %1063) : (tensor<11xi1>, tensor<11x3xf32>, tensor<11x3xf32>) -> tensor<11x3xf32> loc(#loc6148)
    %1065 = stablehlo.broadcast_in_dim %c_23, dims = [] : (tensor<i32>) -> tensor<1xi32> loc(#loc6149)
    %1066 = stablehlo.broadcast_in_dim %c_30, dims = [] : (tensor<i32>) -> tensor<1xi32> loc(#loc6149)
    %1067 = stablehlo.concatenate %1065, %1066, dim = 0 : (tensor<1xi32>, tensor<1xi32>) -> tensor<2xi32> loc(#loc6150)
    %1068 = stablehlo.convert %1027 : tensor<11x3x3xf32> loc(#loc6151)
    %1069 = "stablehlo.scatter"(%1068, %1067, %1059) <{indices_are_sorted = true, scatter_dimension_numbers = #stablehlo.scatter<update_window_dims = [0], inserted_window_dims = [1, 2], scatter_dims_to_operand_dims = [1, 2]>, unique_indices = true}> ({
    ^bb0(%arg137: tensor<f32> loc("scatter:"(#loc246)), %arg138: tensor<f32> loc("scatter:"(#loc246))):
      stablehlo.return %arg138 : tensor<f32> loc(#loc6152)
    }) : (tensor<11x3x3xf32>, tensor<2xi32>, tensor<11xf32>) -> tensor<11x3x3xf32> loc(#loc6152)
    %1070 = stablehlo.convert %1069 : tensor<11x3x3xf32> loc(#loc6151)
    %1071 = stablehlo.broadcast_in_dim %c_23, dims = [] : (tensor<i32>) -> tensor<1xi32> loc(#loc6153)
    %1072 = stablehlo.broadcast_in_dim %c_30, dims = [] : (tensor<i32>) -> tensor<1xi32> loc(#loc6153)
    %1073 = stablehlo.concatenate %1071, %1072, dim = 0 : (tensor<1xi32>, tensor<1xi32>) -> tensor<2xi32> loc(#loc6154)
    %1074 = "stablehlo.scatter"(%1031, %1073, %1064) <{indices_are_sorted = true, scatter_dimension_numbers = #stablehlo.scatter<update_window_dims = [0, 1], inserted_window_dims = [1, 2], scatter_dims_to_operand_dims = [1, 2]>, unique_indices = true}> ({
    ^bb0(%arg137: tensor<f32> loc("scatter:"(#loc246)), %arg138: tensor<f32> loc("scatter:"(#loc246))):
      stablehlo.return %arg138 : tensor<f32> loc(#loc6155)
    }) : (tensor<11x3x3x3xf32>, tensor<2xi32>, tensor<11x3xf32>) -> tensor<11x3x3x3xf32> loc(#loc6155)
    %1075 = stablehlo.slice %688 [0:11, 0:3, 1:2] : (tensor<11x3x3xf32>) -> tensor<11x3x1xf32> loc(#loc6121)
    %1076 = stablehlo.reshape %1075 : (tensor<11x3x1xf32>) -> tensor<11x3xf32> loc(#loc6122)
    %1077 = stablehlo.slice %763 [0:11, 0:3, 1:2] : (tensor<11x3x3xf32>) -> tensor<11x3x1xf32> loc(#loc6123)
    %1078 = stablehlo.reshape %1077 : (tensor<11x3x1xf32>) -> tensor<11x3xf32> loc(#loc6124)
    %1079 = call @cross(%1076, %1078) : (tensor<11x3xf32>, tensor<11x3xf32>) -> tensor<11x3xf32> loc(#loc6125)
    %1080 = call @norm(%1079) : (tensor<11x3xf32>) -> tensor<11xf32> loc(#loc6126)
    %1081 = stablehlo.broadcast_in_dim %cst_21, dims = [] : (tensor<f32>) -> tensor<11xf32> loc(#loc6127)
    %1082 = stablehlo.compare GT, %1080, %1081, FLOAT : (tensor<11xf32>, tensor<11xf32>) -> tensor<11xi1> loc(#loc6127)
    %1083 = stablehlo.broadcast_in_dim %cst_31, dims = [] : (tensor<f32>) -> tensor<11xf32> loc(#loc7307)
    %1084 = stablehlo.compare EQ, %1080, %1083, FLOAT : (tensor<11xf32>, tensor<11xf32>) -> tensor<11xi1> loc(#loc7307)
    %1085 = stablehlo.broadcast_in_dim %cst_33, dims = [] : (tensor<f32>) -> tensor<11xf32> loc(#loc7308)
    %1086 = stablehlo.select %1084, %1085, %1080 : tensor<11xi1>, tensor<11xf32> loc(#loc7309)
    %1087 = stablehlo.broadcast_in_dim %1086, dims = [0] : (tensor<11xf32>) -> tensor<11x1xf32> loc(#loc6130)
    %1088 = stablehlo.broadcast_in_dim %1087, dims = [0, 1] : (tensor<11x1xf32>) -> tensor<11x3xf32> loc(#loc6131)
    %1089 = stablehlo.divide %1079, %1088 : tensor<11x3xf32> loc(#loc6131)
    %1090 = stablehlo.transpose %688, dims = [0, 2, 1] : (tensor<11x3x3xf32>) -> tensor<11x3x3xf32> loc(#loc6132)
    %1091 = stablehlo.dot_general %1090, %1089, batching_dims = [0] x [0], contracting_dims = [2] x [1] : (tensor<11x3x3xf32>, tensor<11x3xf32>) -> tensor<11x3xf32> loc(#loc6133)
    %1092 = stablehlo.abs %1091 : tensor<11x3xf32> loc(#loc6134)
    %1093 = stablehlo.dot_general %465, %1092, batching_dims = [0] x [0], contracting_dims = [1] x [1] : (tensor<11x3xf32>, tensor<11x3xf32>) -> tensor<11xf32> loc(#loc6135)
    %1094 = stablehlo.transpose %763, dims = [0, 2, 1] : (tensor<11x3x3xf32>) -> tensor<11x3x3xf32> loc(#loc6136)
    %1095 = stablehlo.dot_general %1094, %1089, batching_dims = [0] x [0], contracting_dims = [2] x [1] : (tensor<11x3x3xf32>, tensor<11x3xf32>) -> tensor<11x3xf32> loc(#loc6137)
    %1096 = stablehlo.abs %1095 : tensor<11x3xf32> loc(#loc6138)
    %1097 = stablehlo.dot_general %570, %1096, batching_dims = [0] x [0], contracting_dims = [1] x [1] : (tensor<11x3xf32>, tensor<11x3xf32>) -> tensor<11xf32> loc(#loc6139)
    %1098 = stablehlo.dot_general %764, %1089, batching_dims = [0] x [0], contracting_dims = [1] x [1] : (tensor<11x3xf32>, tensor<11x3xf32>) -> tensor<11xf32> loc(#loc6140)
    %1099 = stablehlo.abs %1098 : tensor<11xf32> loc(#loc6141)
    %1100 = stablehlo.add %1093, %1097 : tensor<11xf32> loc(#loc6142)
    %1101 = stablehlo.subtract %1099, %1100 : tensor<11xf32> loc(#loc6143)
    %1102 = call @_where_5(%1082, %1101, %cst_22) : (tensor<11xi1>, tensor<11xf32>, tensor<f32>) -> tensor<11xf32> loc(#loc6144)
    %1103 = stablehlo.dot_general %764, %1089, batching_dims = [0] x [0], contracting_dims = [1] x [1] : (tensor<11x3xf32>, tensor<11x3xf32>) -> tensor<11xf32> loc(#loc6145)
    %1104 = stablehlo.broadcast_in_dim %cst_31, dims = [] : (tensor<f32>) -> tensor<11xf32> loc(#loc6146)
    %1105 = stablehlo.compare GE, %1103, %1104, FLOAT : (tensor<11xf32>, tensor<11xf32>) -> tensor<11xi1> loc(#loc6146)
    %1106 = stablehlo.negate %1089 : tensor<11x3xf32> loc(#loc6147)
…
#loc7732 = loc("jit(step_fn)/vmap()/mul"(#loc6606))
#loc7733 = loc("jit(step_fn)/vmap()/add"(#loc6607))
#loc7734 = loc("jit(step_fn)/vmap()/mul"(#loc6608))
#loc7735 = loc("jit(step_fn)/vmap()/dot_general"(#loc6609))
#loc7736 = loc("jit(step_fn)/vmap()/sub"(#loc6610))
#loc7737 = loc("jit(step_fn)/vmap()/broadcast_in_dim"(#loc6611))
#loc7738 = loc("jit(step_fn)/vmap()/concatenate"(#loc6612))
#loc7739 = loc("jit(step_fn)/vmap()/slice"(#loc6613))
#loc7740 = loc("jit(step_fn)/vmap()/neg"(#loc6614))
#loc7741 = loc("jit(step_fn)/vmap()/slice"(#loc6615))
#loc7742 = loc("jit(step_fn)/vmap()/concatenate"(#loc6616))
#loc7743 = loc("jit(step_fn)/vmap()/slice"(#loc6617))
#loc7744 = loc("jit(step_fn)/vmap()/slice"(#loc6618))
#loc7745 = loc("jit(step_fn)/vmap()/squeeze"(#loc6618))
#loc7746 = loc("jit(step_fn)/vmap()/slice"(#loc6619))
#loc7747 = loc("jit(step_fn)/vmap()/slice"(#loc6620))
#loc7748 = loc("jit(step_fn)/vmap()/squeeze"(#loc6620))
#loc7749 = loc("jit(step_fn)/vmap(jit(cross))"(#loc6621))
#loc7750 = loc("jit(step_fn)/vmap()/broadcast_in_dim"(#loc6622))
#loc7751 = loc("jit(step_fn)/vmap()/mul"(#loc6622))
#loc7752 = loc("jit(step_fn)/vmap()/add"(#loc6623))
#loc7753 = loc("jit(step_fn)/vmap()/broadcast_in_dim"(#loc6624))
#loc7754 = loc("jit(step_fn)/vmap()/mul"(#loc6624))
#loc7755 = loc("jit(step_fn)/vmap()/add"(#loc6625))
#loc7756 = loc("jit(step_fn)/vmap()/mul"(#loc6626))
#loc7757 = loc("jit(step_fn)/vmap()/dot_general"(#loc6627))
#loc7758 = loc("jit(step_fn)/vmap()/sub"(#loc6628))
#loc7759 = loc("jit(step_fn)/vmap()/broadcast_in_dim"(#loc6629))
#loc7760 = loc("jit(step_fn)/vmap()/concatenate"(#loc6630))
#loc7761 = loc("jit(step_fn)/vmap()/slice"(#loc6631))
#loc7762 = loc("jit(step_fn)/vmap()/dot_general"(#loc6632))
#loc7763 = loc("jit(step_fn)/vmap()/slice"(#loc6633))
#loc7764 = loc("jit(step_fn)/vmap()/squeeze"(#loc6633))
#loc7765 = loc("jit(step_fn)/vmap()/atan2"(#loc6634))
#loc7766 = loc("jit(step_fn)/vmap()/mul"(#loc6635))
#loc7767 = loc("jit(step_fn)/vmap()/slice"(#loc6662))
#loc7768 = loc("jit(step_fn)/vmap()/squeeze"(#loc6662))
#loc7769 = loc("jit(step_fn)/vmap()/ge"(#loc6663))
#loc7770 = loc("jit(step_fn)/vmap(jit(_where))"(#loc6664))
#loc7771 = loc("jit(step_fn)/vmap()/slice"(#loc6665))
#loc7772 = loc("jit(step_fn)/vmap()/squeeze"(#loc6665))
#loc7773 = loc("jit(step_fn)/vmap()/convert_element_type"(#loc6666))
#loc7774 = loc("jit(step_fn)/vmap()/add"(#loc6666))
#loc7775 = loc("jit(step_fn)/vmap()/div"(#loc6667))
#loc7776 = loc("jit(step_fn)/vmap()/slice"(#loc6668))
#loc7777 = loc("jit(step_fn)/vmap()/squeeze"(#loc6668))
#loc7778 = loc("jit(step_fn)/vmap()/slice"(#loc6669))
#loc7779 = loc("jit(step_fn)/vmap()/squeeze"(#loc6669))
#loc7780 = loc("jit(step_fn)/vmap()/mul"(#loc6670))
#loc7781 = loc("jit(step_fn)/vmap()/mul"(#loc6671))
#loc7782 = loc("jit(step_fn)/vmap()/slice"(#loc6672))
#loc7783 = loc("jit(step_fn)/vmap()/squeeze"(#loc6672))
#loc7784 = loc("jit(step_fn)/vmap()/convert_element_type"(#loc6673))
#loc7785 = loc("jit(step_fn)/vmap()/mul"(#loc6673))
#loc7786 = loc("jit(step_fn)/vmap()/slice"(#loc6674))
#loc7787 = loc("jit(step_fn)/vmap()/squeeze"(#loc6674))
#loc7788 = loc("jit(step_fn)/vmap()/mul"(#loc6675))
#loc7789 = loc("jit(step_fn)/vmap()/mul"(#loc6676))
#loc7790 = loc("jit(step_fn)/vmap()/add"(#loc6677))
#loc7791 = loc("jit(step_fn)/vmap()/convert_element_type"(#loc6678))
#loc7792 = loc("jit(step_fn)/vmap()/mul"(#loc6678))
#loc7793 = loc("jit(step_fn)/vmap()/neg"(#loc6679))
#loc7794 = loc("jit(step_fn)/vmap()/slice"(#loc6680))
#loc7795 = loc("jit(step_fn)/vmap()/squeeze"(#loc6680))
#loc7796 = loc("jit(step_fn)/vmap()/convert_element_type"(#loc6681))
#loc7797 = loc("jit(step_fn)/vmap()/mul"(#loc6681))
#loc7798 = loc("jit(step_fn)/vmap()/broadcast_in_dim"(#loc6682))
#loc7799 = loc("jit(step_fn)/vmap()/concatenate"(#loc6682))
#loc7800 = loc("jit(step_fn)/vmap()/slice"(#loc6683))
#loc7801 = loc("jit(step_fn)/vmap()/squeeze"(#loc6683))
#loc7802 = loc("jit(step_fn)/vmap()/slice"(#loc6684))
#loc7803 = loc("jit(step_fn)/vmap()/squeeze"(#loc6684))
#loc7804 = loc("jit(step_fn)/vmap()/mul"(#loc6685))
#loc7805 = loc("jit(step_fn)/vmap()/mul"(#loc6686))
#loc7806 = loc("jit(step_fn)/vmap()/convert_element_type"(#loc6687))
#loc7807 = loc("jit(step_fn)/vmap()/add"(#loc6687))
#loc7808 = loc("jit(step_fn)/vmap()/slice"(#loc6688))
#loc7809 = loc("jit(step_fn)/vmap()/squeeze"(#loc6688))
#loc7810 = loc("jit(step_fn)/vmap()/neg"(#loc6689))
#loc7811 = loc("jit(step_fn)/vmap()/broadcast_in_dim"(#loc6690))
#loc7812 = loc("jit(step_fn)/vmap()/concatenate"(#loc6690))
#loc7813 = loc("jit(step_fn)/vmap()/broadcast_in_dim"(#loc6721))
#loc7814 = loc("jit(step_fn)/vmap()/broadcast_in_dim"(#loc6722))
#loc7815 = loc("jit(step_fn)/vmap()/select_n"(#loc6722))
#loc7816 = loc("jit(step_fn)/vmap()/slice"(#loc6746))
#loc7817 = loc("jit(step_fn)/vmap()/squeeze"(#loc6746))
#loc7818 = loc("jit(step_fn)/vmap()/ge"(#loc6747))
#loc7819 = loc("jit(step_fn)/vmap(jit(_where))"(#loc6748))
#loc7820 = loc("jit(step_fn)/vmap()/slice"(#loc6749))
#loc7821 = loc("jit(step_fn)/vmap()/squeeze"(#loc6749))
#loc7822 = loc("jit(step_fn)/vmap()/convert_element_type"(#loc6750))
#loc7823 = loc("jit(step_fn)/vmap()/add"(#loc6750))
#loc7824 = loc("jit(step_fn)/vmap()/div"(#loc6751))
#loc7825 = loc("jit(step_fn)/vmap()/slice"(#loc6752))
#loc7826 = loc("jit(step_fn)/vmap()/squeeze"(#loc6752))
#loc7827 = loc("jit(step_fn)/vmap()/slice"(#loc6753))
#loc7828 = loc("jit(step_fn)/vmap()/squeeze"(#loc6753))
#loc7829 = loc("jit(step_fn)/vmap()/mul"(#loc6754))
#loc7830 = loc("jit(step_fn)/vmap()/mul"(#loc6755))
#loc7831 = loc("jit(step_fn)/vmap()/slice"(#loc6756))
#loc7832 = loc("jit(step_fn)/vmap()/squeeze"(#loc6756))
#loc7833 = loc("jit(step_fn)/vmap()/convert_element_type"(#loc6757))
#loc7834 = loc("jit(step_fn)/vmap()/mul"(#loc6757))
#loc7835 = loc("jit(step_fn)/vmap()/slice"(#loc6758))
#loc7836 = loc("jit(step_fn)/vmap()/squeeze"(#loc6758))
#loc7837 = loc("jit(step_fn)/vmap()/mul"(#loc6759))
#loc7838 = loc("jit(step_fn)/vmap()/mul"(#loc6760))
#loc7839 = loc("jit(step_fn)/vmap()/add"(#loc6761))
#loc7840 = loc("jit(step_fn)/vmap()/convert_element_type"(#loc6762))
#loc7841 = loc("jit(step_fn)/vmap()/mul"(#loc6762))
#loc7842 = loc("jit(step_fn)/vmap()/neg"(#loc6763))
#loc7843 = loc("jit(step_fn)/vmap()/slice"(#loc6764))
#loc7844 = loc("jit(step_fn)/vmap()/squeeze"(#loc6764))
#loc7845 = loc("jit(step_fn)/vmap()/convert_element_type"(#loc6765))
#loc7846 = loc("jit(step_fn)/vmap()/mul"(#loc6765))
#loc7847 = loc("jit(step_fn)/vmap()/broadcast_in_dim"(#loc6766))
#loc7848 = loc("jit(step_fn)/vmap()/concatenate"(#loc6766))
#loc7849 = loc("jit(step_fn)/vmap()/slice"(#loc6767))
#loc7850 = loc("jit(step_fn)/vmap()/squeeze"(#loc6767))
#loc7851 = loc("jit(step_fn)/vmap()/slice"(#loc6768))
#loc7852 = loc("jit(step_fn)/vmap()/squeeze"(#loc6768))
#loc7853 = loc("jit(step_fn)/vmap()/mul"(#loc6769))
#loc7854 = loc("jit(step_fn)/vmap()/mul"(#loc6770))
#loc7855 = loc("jit(step_fn)/vmap()/convert_element_type"(#loc6771))
#loc7856 = loc("jit(step_fn)/vmap()/add"(#loc6771))
#loc7857 = loc("jit(step_fn)/vmap()/slice"(#loc6772))
#loc7858 = loc("jit(step_fn)/vmap()/squeeze"(#loc6772))
#loc7859 = loc("jit(step_fn)/vmap()/neg"(#loc6773))
#loc7860 = loc("jit(step_fn)/vmap()/broadcast_in_dim"(#loc6774))
#loc7861 = loc("jit(step_fn)/vmap()/concatenate"(#loc6774))
#loc7862 = loc("jit(step_fn)/vmap()/broadcast_in_dim"(#loc6805))
#loc7863 = loc("jit(step_fn)/vmap()/broadcast_in_dim"(#loc6806))
#loc7864 = loc("jit(step_fn)/vmap()/select_n"(#loc6806))
#loc7865 = loc("jit(step_fn)/vmap()/slice"(#loc6830))
#loc7866 = loc("jit(step_fn)/vmap()/squeeze"(#loc6830))
#loc7867 = loc("jit(step_fn)/vmap()/ge"(#loc6831))
#loc7868 = loc("jit(step_fn)/vmap(jit(_where))"(#loc6832))
#loc7869 = loc("jit(step_fn)/vmap()/slice"(#loc6833))
#loc7870 = loc("jit(step_fn)/vmap()/squeeze"(#loc6833))
#loc7871 = loc("jit(step_fn)/vmap()/convert_element_type"(#loc6834))
#loc7872 = loc("jit(step_fn)/vmap()/add"(#loc6834))
#loc7873 = loc("jit(step_fn)/vmap()/div"(#loc6835))
#loc7874 = loc("jit(step_fn)/vmap()/slice"(#loc6836))
#loc7875 = loc("jit(step_fn)/vmap()/squeeze"(#loc6836))
#loc7876 = loc("jit(step_fn)/vmap()/slice"(#loc6837))
#loc7877 = loc("jit(step_fn)/vmap()/squeeze"(#loc6837))
#loc7878 = loc("jit(step_fn)/vmap()/mul"(#loc6838))
#loc7879 = loc("jit(step_fn)/vmap()/mul"(#loc6839))
#loc7880 = loc("jit(step_fn)/vmap()/slice"(#loc6840))
#loc7881 = loc("jit(step_fn)/vmap()/squeeze"(#loc6840))
#loc7882 = loc("jit(step_fn)/vmap()/convert_element_type"(#loc6841))
#loc7883 = loc("jit(step_fn)/vmap()/mul"(#loc6841))
#loc7884 = loc("jit(step_fn)/vmap()/slice"(#loc6842))
#loc7885 = loc("jit(step_fn)/vmap()/squeeze"(#loc6842))
#loc7886 = loc("jit(step_fn)/vmap()/mul"(#loc6843))
#loc7887 = loc("jit(step_fn)/vmap()/mul"(#loc6844))
#loc7888 = loc("jit(step_fn)/vmap()/add"(#loc6845))
#loc7889 = loc("jit(step_fn)/vmap()/convert_element_type"(#loc6846))
#loc7890 = loc("jit(step_fn)/vmap()/mul"(#loc6846))
#loc7891 = loc("jit(step_fn)/vmap()/neg"(#loc6847))
#loc7892 = loc("jit(step_fn)/vmap()/slice"(#loc6848))
#loc7893 = loc("jit(step_fn)/vmap()/squeeze"(#loc6848))
#loc7894 = loc("jit(step_fn)/vmap()/convert_element_type"(#loc6849))
#loc7895 = loc("jit(step_fn)/vmap()/mul"(#loc6849))
#loc7896 = loc("jit(step_fn)/vmap()/broadcast_in_dim"(#loc6850))
#loc7897 = loc("jit(step_fn)/vmap()/concatenate"(#loc6850))
#loc7898 = loc("jit(step_fn)/vmap()/slice"(#loc6851))
#loc7899 = loc("jit(step_fn)/vmap()/squeeze"(#loc6851))
#loc7900 = loc("jit(step_fn)/vmap()/slice"(#loc6852))
#loc7901 = loc("jit(step_fn)/vmap()/squeeze"(#loc6852))
#loc7902 = loc("jit(step_fn)/vmap()/mul"(#loc6853))
#loc7903 = loc("jit(step_fn)/vmap()/mul"(#loc6854))
#loc7904 = loc("jit(step_fn)/vmap()/convert_element_type"(#loc6855))
#loc7905 = loc("jit(step_fn)/vmap()/add"(#loc6855))
#loc7906 = loc("jit(step_fn)/vmap()/slice"(#loc6856))
#loc7907 = loc("jit(step_fn)/vmap()/squeeze"(#loc6856))
#loc7908 = loc("jit(step_fn)/vmap()/neg"(#loc6857))
#loc7909 = loc("jit(step_fn)/vmap()/broadcast_in_dim"(#loc6858))
#loc7910 = loc("jit(step_fn)/vmap()/concatenate"(#loc6858))
#loc7911 = loc("jit(step_fn)/vmap()/broadcast_in_dim"(#loc6889))
#loc7912 = loc("jit(step_fn)/vmap()/broadcast_in_dim"(#loc6890))
#loc7913 = loc("jit(step_fn)/vmap()/select_n"(#loc6890))
#loc7914 = loc("jit(step_fn)/vmap()/sub"(#loc6898))
#loc7915 = loc("jit(step_fn)/vmap()/lt"(#loc6899))
#loc7916 = loc("jit(step_fn)/vmap()/add"(#loc6899))
#loc7917 = loc("jit(step_fn)/vmap()/select_n"(#loc6899))
#loc7918 = loc("jit(step_fn)/vmap()/broadcast_in_dim"(#loc6899))
#loc7919 = loc("jit(step_fn)/vmap()/concatenate"(#loc6899))
#loc7920 = loc("jit(step_fn)/vmap()/gather"(#loc6899))
#loc7921 = loc("jit(step_fn)/vmap()/squeeze"(#loc6899))
#loc7922 = loc("jit(step_fn)/vmap()/sub"(#loc6900))
#loc7923 = loc("jit(step_fn)/vmap()/lt"(#loc6901))
#loc7924 = loc("jit(step_fn)/vmap()/add"(#loc6901))
#loc7925 = loc("jit(step_fn)/vmap()/select_n"(#loc6901))
#loc7926 = loc("jit(step_fn)/vmap()/broadcast_in_dim"(#loc6901))
#loc7927 = loc("jit(step_fn)/vmap()/concatenate"(#loc6901))
#loc7928 = loc("jit(step_fn)/vmap()/gather"(#loc6901))
#loc7929 = loc("jit(step_fn)/vmap()/squeeze"(#loc6901))
#loc7930 = loc("jit(step_fn)/vmap()/broadcast_in_dim"(#loc6903))
#loc7931 = loc("jit(step_fn)/vmap()/select_n"(#loc6903))
#loc7932 = loc("jit(step_fn)/vmap()/sub"(#loc6904))
#loc7933 = loc("jit(step_fn)/vmap()/lt"(#loc6905))
#loc7934 = loc("jit(step_fn)/vmap()/add"(#loc6905))
#loc7935 = loc("jit(step_fn)/vmap()/select_n"(#loc6905))
#loc7936 = loc("jit(step_fn)/vmap()/broadcast_in_dim"(#loc6905))
#loc7937 = loc("jit(step_fn)/vmap()/concatenate"(#loc6905))
#loc7938 = loc("jit(step_fn)/vmap()/gather"(#loc6905))
#loc7939 = loc("jit(step_fn)/vmap()/squeeze"(#loc6905))
#loc7940 = loc("jit(step_fn)/vmap()/sub"(#loc6906))
#loc7941 = loc("jit(step_fn)/vmap()/lt"(#loc6907))
#loc7942 = loc("jit(step_fn)/vmap()/add"(#loc6907))
#loc7943 = loc("jit(step_fn)/vmap()/select_n"(#loc6907))
#loc7944 = loc("jit(step_fn)/vmap()/broadcast_in_dim"(#loc6907))
#loc7945 = loc("jit(step_fn)/vmap()/concatenate"(#loc6907))
#loc7946 = loc("jit(step_fn)/vmap()/gather"(#loc6907))
#loc7947 = loc("jit(step_fn)/vmap()/squeeze"(#loc6907))
#loc7948 = loc("jit(step_fn)/vmap()/broadcast_in_dim"(#loc6909))
#loc7949 = loc("jit(step_fn)/vmap()/select_n"(#loc6909))
#loc7950 = loc("jit(step_fn)/vmap()/slice"(#loc6910))
#loc7951 = loc("jit(step_fn)/vmap()/slice"(#loc6911))
#loc7952 = loc("jit(step_fn)/vmap()/squeeze"(#loc6911))
#loc7953 = loc("jit(step_fn)/vmap(jit(cross))"(#loc6912))
#loc7954 = loc("jit(step_fn)/vmap()/broadcast_in_dim"(#loc6913))
#loc7955 = loc("jit(step_fn)/vmap()/mul"(#loc6913))
#loc7956 = loc("jit(step_fn)/vmap()/add"(#loc6914))
#loc7957 = loc("jit(step_fn)/vmap(jit(cross))"(#loc6915))
#loc7958 = loc("jit(step_fn)/vmap()/mul"(#loc6916))
#loc7959 = loc("jit(step_fn)/vmap()/add"(#loc6917))
#loc7960 = loc("jit(step_fn)/vmap()/slice"(#loc6918))
#loc7961 = loc("jit(step_fn)/vmap()/slice"(#loc6919))
#loc7962 = loc("jit(step_fn)/vmap()/squeeze"(#loc6919))
#loc7963 = loc("jit(step_fn)/vmap(jit(cross))"(#loc6920))
#loc7964 = loc("jit(step_fn)/vmap()/broadcast_in_dim"(#loc6921))
#loc7965 = loc("jit(step_fn)/vmap()/mul"(#loc6921))
#loc7966 = loc("jit(step_fn)/vmap()/add"(#loc6922))
#loc7967 = loc("jit(step_fn)/vmap(jit(cross))"(#loc6923))
#loc7968 = loc("jit(step_fn)/vmap()/mul"(#loc6924))
#loc7969 = loc("jit(step_fn)/vmap()/add"(#loc6925))
#loc7970 = loc(callsite(#loc1613 at #loc6937))
#loc7971 = loc(callsite(#loc1616 at #loc6937))
#loc7972 = loc(callsite(#loc1617 at #loc6937))
#loc7973 = loc(callsite(#loc1618 at #loc6937))
#loc7974 = loc(callsite(#loc1619 at #loc6937))
#loc7975 = loc(callsite(#loc1620 at #loc6937))
#loc7976 = loc(callsite(#loc1621 at #loc6937))
#loc7977 = loc(callsite(#loc1622 at #loc6937))
#loc7978 = loc(callsite(#loc1613 at #loc6938))
#loc7979 = loc(callsite(#loc1616 at #loc6938))
#loc7980 = loc(callsite(#loc1617 at #loc6938))
#loc7981 = loc(callsite(#loc1618 at #loc6938))
#loc7982 = loc(callsite(#loc1619 at #loc6938))
#loc7983 = loc(callsite(#loc1620 at #loc6938))
#loc7984 = loc(callsite(#loc1621 at #loc6938))
#loc7985 = loc(callsite(#loc1622 at #loc6938))
#loc7986 = loc(callsite(#loc2076 at #loc6939))
#loc7987 = loc(callsite(#loc2078 at #loc6939))
#loc7988 = loc(callsite(#loc2079 at #loc6939))
#loc7989 = loc(callsite(#loc2080 at #loc6939))
#loc7990 = loc(callsite(#loc2081 at #loc6939))
#loc7991 = loc(callsite(#loc2082 at #loc6939))
#loc7992 = loc(callsite(#loc2083 at #loc6939))
#loc7993 = loc(callsite(#loc2084 at #loc6939))
#loc7994 = loc(callsite(#loc2085 at #loc6939))
#loc7995 = loc(callsite(#loc2086 at #loc6939))
#loc7996 = loc(callsite(#loc2087 at #loc6939))
#loc7997 = loc(callsite(#loc2088 at #loc6939))
#loc7998 = loc(callsite(#loc2089 at #loc6939))
#loc7999 = loc(callsite(#loc2090 at #loc6939))
#loc8000 = loc(callsite(#loc2091 at #loc6939))
#loc8001 = loc(callsite(#loc2092 at #loc6939))
#loc8002 = loc(callsite(#loc2093 at #loc6939))
#loc8003 = loc(callsite(#loc2094 at #loc6939))
#loc8004 = loc(callsite(#loc2095 at #loc6939))
#loc8005 = loc(callsite(#loc2096 at #loc6939))
#loc8006 = loc(callsite(#loc2097 at #loc6939))
#loc8007 = loc(callsite(#loc2098 at #loc6939))
#loc8008 = loc(callsite(#loc2099 at #loc6939))
#loc8009 = loc(callsite(#loc2100 at #loc6939))
#loc8010 = loc(callsite(#loc2101 at #loc6939))
#loc8011 = loc(callsite(#loc2102 at #loc6939))
#loc8012 = loc(callsite(#loc2103 at #loc6939))
#loc8013 = loc(callsite(#loc2104 at #loc6939))
#loc8014 = loc(callsite(#loc2105 at #loc6939))
#loc8015 = loc("jit(step_fn)/vmap(jit(cross))"(#loc6940))
#loc8016 = loc("jit(step_fn)/vmap(jit(cross))"(#loc6941))
#loc8017 = loc("jit(step_fn)/vmap()/broadcast_in_dim"(#loc6979))
#loc8018 = loc("jit(step_fn)/vmap()/broadcast_in_dim"(#loc6980))
#loc8019 = loc("jit(step_fn)/vmap()/select_n"(#loc6980))
#loc8020 = loc("jit(step_fn)/vmap()/eq"(#loc7000))
#loc8021 = loc("jit(step_fn)/vmap()/broadcast_in_dim"(#loc7001))
#loc8022 = loc("jit(step_fn)/vmap()/select_n"(#loc7001))
#loc8023 = loc("jit(step_fn)/vmap()/eq"(#loc7026))
#loc8024 = loc("jit(step_fn)/vmap()/broadcast_in_dim"(#loc7027))
#loc8025 = loc("jit(step_fn)/vmap()/select_n"(#loc7027))
#loc8026 = loc("jit(step_fn)/vmap()/eq"(#loc7052))
#loc8027 = loc("jit(step_fn)/vmap()/broadcast_in_dim"(#loc7053))
#loc8028 = loc("jit(step_fn)/vmap()/select_n"(#loc7053))
#loc8029 = loc("jit(step_fn)/vmap()/eq"(#loc7078))
#loc8030 = loc("jit(step_fn)/vmap()/broadcast_in_dim"(#loc7079))
#loc8031 = loc("jit(step_fn)/vmap()/select_n"(#loc7079))
#loc8032 = loc("jit(step_fn)/vmap()/sub"(#loc7104))
#loc8033 = loc("jit(step_fn)/vmap()/lt"(#loc7105))
#loc8034 = loc("jit(step_fn)/vmap()/add"(#loc7105))
#loc8035 = loc("jit(step_fn)/vmap()/select_n"(#loc7105))
#loc8036 = loc("jit(step_fn)/vmap()/broadcast_in_dim"(#loc7105))
#loc8037 = loc("jit(step_fn)/vmap()/concatenate"(#loc7105))
#loc8038 = loc("jit(step_fn)/vmap()/gather"(#loc7105))
#loc8039 = loc("jit(step_fn)/vmap()/squeeze"(#loc7105))
#loc8040 = loc("jit(step_fn)/vmap()/sub"(#loc7106))
#loc8041 = loc("jit(step_fn)/vmap()/lt"(#loc7107))
#loc8042 = loc("jit(step_fn)/vmap()/add"(#loc7107))
#loc8043 = loc("jit(step_fn)/vmap()/select_n"(#loc7107))
#loc8044 = loc("jit(step_fn)/vmap()/broadcast_in_dim"(#loc7107))
#loc8045 = loc("jit(step_fn)/vmap()/concatenate"(#loc7107))
#loc8046 = loc("jit(step_fn)/vmap()/gather"(#loc7107))
#loc8047 = loc("jit(step_fn)/vmap()/squeeze"(#loc7107))
#loc8048 = loc("jit(step_fn)/vmap()/broadcast_in_dim"(#loc7109))
#loc8049 = loc("jit(step_fn)/vmap()/select_n"(#loc7109))
#loc8050 = loc("jit(step_fn)/vmap()/sub"(#loc7110))
#loc8051 = loc("jit(step_fn)/vmap()/lt"(#loc7111))
#loc8052 = loc("jit(step_fn)/vmap()/add"(#loc7111))
#loc8053 = loc("jit(step_fn)/vmap()/select_n"(#loc7111))
#loc8054 = loc("jit(step_fn)/vmap()/broadcast_in_dim"(#loc7111))
#loc8055 = loc("jit(step_fn)/vmap()/concatenate"(#loc7111))
#loc8056 = loc("jit(step_fn)/vmap()/gather"(#loc7111))
#loc8057 = loc("jit(step_fn)/vmap()/squeeze"(#loc7111))
#loc8058 = loc("jit(step_fn)/vmap()/sub"(#loc7112))
#loc8059 = loc("jit(step_fn)/vmap()/lt"(#loc7113))
#loc8060 = loc("jit(step_fn)/vmap()/add"(#loc7113))
#loc8061 = loc("jit(step_fn)/vmap()/select_n"(#loc7113))
#loc8062 = loc("jit(step_fn)/vmap()/broadcast_in_dim"(#loc7113))
#loc8063 = loc("jit(step_fn)/vmap()/concatenate"(#loc7113))
#loc8064 = loc("jit(step_fn)/vmap()/gather"(#loc7113))
#loc8065 = loc("jit(step_fn)/vmap()/squeeze"(#loc7113))
#loc8066 = loc("jit(step_fn)/vmap()/broadcast_in_dim"(#loc7115))
#loc8067 = loc("jit(step_fn)/vmap()/select_n"(#loc7115))
#loc8068 = loc("jit(step_fn)/vmap()/slice"(#loc7116))
#loc8069 = loc("jit(step_fn)/vmap()/slice"(#loc7117))
#loc8070 = loc("jit(step_fn)/vmap()/squeeze"(#loc7117))
#loc8071 = loc("jit(step_fn)/vmap(jit(cross))"(#loc7118))
#loc8072 = loc("jit(step_fn)/vmap()/broadcast_in_dim"(#loc7119))
#loc8073 = loc("jit(step_fn)/vmap()/mul"(#loc7119))
#loc8074 = loc("jit(step_fn)/vmap()/add"(#loc7120))
#loc8075 = loc("jit(step_fn)/vmap(jit(cross))"(#loc7121))
#loc8076 = loc("jit(step_fn)/vmap()/mul"(#loc7122))
#loc8077 = loc("jit(step_fn)/vmap()/add"(#loc7123))
#loc8078 = loc("jit(step_fn)/vmap()/slice"(#loc7124))
#loc8079 = loc("jit(step_fn)/vmap()/slice"(#loc7125))
#loc8080 = loc("jit(step_fn)/vmap()/squeeze"(#loc7125))
#loc8081 = loc("jit(step_fn)/vmap(jit(cross))"(#loc7126))
#loc8082 = loc("jit(step_fn)/vmap()/broadcast_in_dim"(#loc7127))
#loc8083 = loc("jit(step_fn)/vmap()/mul"(#loc7127))
#loc8084 = loc("jit(step_fn)/vmap()/add"(#loc7128))
#loc8085 = loc("jit(step_fn)/vmap(jit(cross))"(#loc7129))
#loc8086 = loc("jit(step_fn)/vmap()/mul"(#loc7130))
#loc8087 = loc("jit(step_fn)/vmap()/add"(#loc7131))
#loc8088 = loc("jit(step_fn)/vmap()/eq"(#loc7134))
#loc8089 = loc("jit(step_fn)/vmap()/broadcast_in_dim"(#loc7135))
#loc8090 = loc("jit(step_fn)/vmap()/select_n"(#loc7135))
#loc8091 = loc("jit(step_fn)/vmap()/eq"(#loc7136))
#loc8092 = loc("jit(step_fn)/vmap()/broadcast_in_dim"(#loc7137))
#loc8093 = loc("jit(step_fn)/vmap()/select_n"(#loc7137))
#loc8094 = loc("jit(step_fn)/vmap()/jit"(#loc6096))
#loc8095 = loc("jit:"(#loc7152))
#loc8096 = loc("jit:"(#loc7153))
#loc8097 = loc("jit:"(#loc7154))
#loc8098 = loc("jit:"(#loc7155))
#loc8099 = loc("jit:"(#loc7156))
#loc8100 = loc("jit:"(#loc7157))
#loc8101 = loc("jit:"(#loc7158))
#loc8102 = loc("jit(step_fn)/vmap()/jit"(#loc6231))
#loc8103 = loc("lt"(#loc7161))
#loc8104 = loc("ne"(#loc7161))
#loc8105 = loc("or"(#loc7161))
#loc8106 = loc("eq"(#loc7161))
#loc8107 = loc("and"(#loc7161))
#loc8108 = loc("select_n"(#loc7161))
#loc8109 = loc("gt"(#loc7164))
#loc8110 = loc("ne"(#loc7164))
#loc8111 = loc("or"(#loc7164))
#loc8112 = loc("eq"(#loc7164))
#loc8113 = loc("lt"(#loc7164))
#loc8114 = loc("and"(#loc7164))
#loc8115 = loc("select_n"(#loc7164))
#loc8116 = loc("jit(step_fn)/vmap()/jit"(#loc6280))
#loc8117 = loc("jit(step_fn)/vmap()/jit"(#loc6299))
#loc8118 = loc("jit:"(#loc7165))
#loc8119 = loc("jit:"(#loc7166))
#loc8120 = loc("jit:"(#loc7167))
#loc8121 = loc("jit:"(#loc7168))
#loc8122 = loc("jit(step_fn)/vmap()/jit"(#loc6373))
#loc8123 = loc("jit:"(#loc7169))
#loc8124 = loc("jit:"(#loc7170))
#loc8125 = loc("jit:"(#loc7171))
#loc8126 = loc("jit:"(#loc7172))
#loc8127 = loc("jit:"(#loc7173))
#loc8128 = loc("jit:"(#loc7174))
#loc8129 = loc("jit(step_fn)/vmap()/jit"(#loc6528))
#loc8130 = loc("jit:"(#loc7175))
#loc8131 = loc("jit(step_fn)/vmap()/jit"(#loc6832))
#loc8132 = loc("jit:"(#loc7177))
#loc8133 = loc("jit:"(#loc7178))
#loc8134 = loc("jit:"(#loc7179))
#loc8135 = loc("jit:"(#loc7180))
#loc8136 = loc("jit:"(#loc7181))
#loc8137 = loc("jit:"(#loc7188))
#loc8138 = loc("jit(step_fn)/vmap()/slice"(#loc7316))
#loc8139 = loc("jit(step_fn)/vmap()/slice"(#loc7317))
#loc8140 = loc("jit(step_fn)/vmap()/squeeze"(#loc7317))
#loc8141 = loc("jit(step_fn)/vmap(jit(cross))"(#loc7318))
#loc8142 = loc("jit(step_fn)/vmap()/broadcast_in_dim"(#loc7319))
#loc8143 = loc("jit(step_fn)/vmap()/mul"(#loc7319))
#loc8144 = loc("jit(step_fn)/vmap()/sub"(#loc7320))
#loc8145 = loc("jit(step_fn)/vmap(jit(cross))"(#loc7321))
#loc8146 = loc("jit(step_fn)/vmap()/mul"(#loc7322))
#loc8147 = loc("jit(step_fn)/vmap()/add"(#loc7323))
#loc8148 = loc("jit(step_fn)/vmap()/slice"(#loc7334))
#loc8149 = loc("jit(step_fn)/vmap()/slice"(#loc7335))
#loc8150 = loc("jit(step_fn)/vmap()/squeeze"(#loc7335))
#loc8151 = loc("jit(step_fn)/vmap(jit(cross))"(#loc7336))
#loc8152 = loc("jit(step_fn)/vmap()/broadcast_in_dim"(#loc7337))
#loc8153 = loc("jit(step_fn)/vmap()/mul"(#loc7337))
#loc8154 = loc("jit(step_fn)/vmap()/sub"(#loc7338))
#loc8155 = loc("jit(step_fn)/vmap(jit(cross))"(#loc7339))
#loc8156 = loc("jit(step_fn)/vmap()/mul"(#loc7340))
#loc8157 = loc("jit(step_fn)/vmap()/add"(#loc7341))
#loc8158 = loc("jit(step_fn)/vmap()/add"(#loc7352))
#loc8159 = loc("jit(step_fn)/vmap(jit(remainder))"(#loc7353))
#loc8160 = loc("jit(step_fn)/vmap()/add"(#loc7354))
#loc8161 = loc("jit(step_fn)/vmap(jit(remainder))"(#loc7355))
#loc8162 = loc("jit(step_fn)/vmap()/iota"(#loc7356))
#loc8163 = loc("jit(step_fn)/vmap()/add"(#loc7356))
#loc8164 = loc("jit(step_fn)/vmap()/eq"(#loc7356))
#loc8165 = loc("jit(step_fn)/vmap()/convert_element_type"(#loc7356))
#loc8166 = loc("jit(step_fn)/vmap()/lt"(#loc7357))
#loc8167 = loc("jit(step_fn)/vmap()/add"(#loc7357))
#loc8168 = loc("jit(step_fn)/vmap()/select_n"(#loc7357))
#loc8169 = loc("jit(step_fn)/vmap()/broadcast_in_dim"(#loc7357))
#loc8170 = loc("jit(step_fn)/vmap()/concatenate"(#loc7357))
#loc8171 = loc("jit(step_fn)/vmap()/gather"(#loc7357))
#loc8172 = loc("jit(step_fn)/vmap()/squeeze"(#loc7357))
#loc8173 = loc("jit(step_fn)/vmap()/iota"(#loc7358))
#loc8174 = loc("jit(step_fn)/vmap()/add"(#loc7358))
#loc8175 = loc("jit(step_fn)/vmap()/eq"(#loc7358))
#loc8176 = loc("jit(step_fn)/vmap()/convert_element_type"(#loc7358))
#loc8177 = loc("jit(step_fn)/vmap()/lt"(#loc7359))
#loc8178 = loc("jit(step_fn)/vmap()/add"(#loc7359))
#loc8179 = loc("jit(step_fn)/vmap()/select_n"(#loc7359))
#loc8180 = loc("jit(step_fn)/vmap()/broadcast_in_dim"(#loc7359))
#loc8181 = loc("jit(step_fn)/vmap()/concatenate"(#loc7359))
#loc8182 = loc("jit(step_fn)/vmap()/gather"(#loc7359))
#loc8183 = loc("jit(step_fn)/vmap()/squeeze"(#loc7359))
#loc8184 = loc("jit(step_fn)/vmap()/iota"(#loc7360))
#loc8185 = loc("jit(step_fn)/vmap()/add"(#loc7360))
#loc8186 = loc("jit(step_fn)/vmap()/eq"(#loc7360))
#loc8187 = loc("jit(step_fn)/vmap()/convert_element_type"(#loc7360))
#loc8188 = loc("jit(step_fn)/vmap()/lt"(#loc7361))
#loc8189 = loc("jit(step_fn)/vmap()/add"(#loc7361))
#loc8190 = loc("jit(step_fn)/vmap()/select_n"(#loc7361))
#loc8191 = loc("jit(step_fn)/vmap()/broadcast_in_dim"(#loc7361))
#loc8192 = loc("jit(step_fn)/vmap()/concatenate"(#loc7361))
#loc8193 = loc("jit(step_fn)/vmap()/gather"(#loc7361))
#loc8194 = loc("jit(step_fn)/vmap()/squeeze"(#loc7361))
#loc8195 = loc("jit(step_fn)/vmap()/lt"(#loc7362))
#loc8196 = loc("jit(step_fn)/vmap()/add"(#loc7362))
#loc8197 = loc("jit(step_fn)/vmap()/select_n"(#loc7362))
#loc8198 = loc("jit(step_fn)/vmap()/broadcast_in_dim"(#loc7362))
#loc8199 = loc("jit(step_fn)/vmap()/gather"(#loc7362))
#loc8200 = loc("jit(step_fn)/vmap()/squeeze"(#loc7362))
#loc8201 = loc("jit(step_fn)/vmap()/convert_element_type"(#loc7363))
#loc8202 = loc("jit(step_fn)/vmap()/mul"(#loc7363))
#loc8203 = loc("jit(step_fn)/vmap()/broadcast_in_dim"(#loc7364))
#loc8204 = loc("jit(step_fn)/vmap()/broadcast_in_dim"(#loc7365))
#loc8205 = loc("jit(step_fn)/vmap()/mul"(#loc7365))
#loc8206 = loc("jit(step_fn)/vmap()/slice"(#loc7366))
#loc8207 = loc("jit(step_fn)/vmap()/lt"(#loc7367))
#loc8208 = loc("jit(step_fn)/vmap()/add"(#loc7367))
#loc8209 = loc("jit(step_fn)/vmap()/select_n"(#loc7367))
#loc8210 = loc("jit(step_fn)/vmap()/broadcast_in_dim"(#loc7367))
#loc8211 = loc("jit(step_fn)/vmap()/gather"(#loc7367))
#loc8212 = loc("jit(step_fn)/vmap()/squeeze"(#loc7367))
#loc8213 = loc("jit(step_fn)/vmap()/broadcast_in_dim"(#loc7368))
#loc8214 = loc("jit(step_fn)/vmap()/mul"(#loc7368))
#loc8215 = loc("jit(step_fn)/vmap()/broadcast_in_dim"(#loc7369))
#loc8216 = loc("jit(step_fn)/vmap()/mul"(#loc7370))
#loc8217 = loc("jit(step_fn)/vmap()/add"(#loc7371))
#loc8218 = loc("jit(step_fn)/vmap()/slice"(#loc7372))
#loc8219 = loc("jit(step_fn)/vmap()/lt"(#loc7373))
#loc8220 = loc("jit(step_fn)/vmap()/add"(#loc7373))
#loc8221 = loc("jit(step_fn)/vmap()/select_n"(#loc7373))
#loc8222 = loc("jit(step_fn)/vmap()/broadcast_in_dim"(#loc7373))
#loc8223 = loc("jit(step_fn)/vmap()/gather"(#loc7373))
#loc8224 = loc("jit(step_fn)/vmap()/squeeze"(#loc7373))
#loc8225 = loc("jit(step_fn)/vmap()/broadcast_in_dim"(#loc7374))
#loc8226 = loc("jit(step_fn)/vmap()/mul"(#loc7374))
#loc8227 = loc("jit(step_fn)/vmap()/broadcast_in_dim"(#loc7375))
#loc8228 = loc("jit(step_fn)/vmap()/mul"(#loc7376))
#loc8229 = loc("jit(step_fn)/vmap()/add"(#loc7377))
#loc8230 = loc(callsite(#loc1613 at #loc7378))
#loc8231 = loc(callsite(#loc1616 at #loc7378))
#loc8232 = loc(callsite(#loc1617 at #loc7378))
#loc8233 = loc(callsite(#loc1618 at #loc7378))
#loc8234 = loc(callsite(#loc1619 at #loc7378))
#loc8235 = loc(callsite(#loc1620 at #loc7378))
#loc8236 = loc(callsite(#loc1621 at #loc7378))
#loc8237 = loc(callsite(#loc1622 at #loc7378))
#loc8238 = loc("jit(step_fn)/vmap(vmap())/broadcast_in_dim"(#loc7381))
#loc8239 = loc("jit(step_fn)/vmap(vmap())/sub"(#loc7381))
#loc8240 = loc(callsite(#loc1565 at #loc7382))
#loc8241 = loc(callsite(#loc1568 at #loc7382))
#loc8242 = loc(callsite(#loc1569 at #loc7382))
#loc8243 = loc(callsite(#loc1570 at #loc7382))
#loc8244 = loc(callsite(#loc1571 at #loc7382))
#loc8245 = loc(callsite(#loc1572 at #loc7382))
#loc8246 = loc(callsite(#loc1573 at #loc7382))
#loc8247 = loc(callsite(#loc1574 at #loc7382))
#loc8248 = loc("jit(step_fn)/vmap()/convert_element_type"(#loc7441))
#loc8249 = loc("jit(step_fn)/vmap()/reduce_sum"(#loc7441))
#loc8250 = loc("jit(step_fn)/vmap()/max"(#loc7442))
#loc8251 = loc("jit(step_fn)/vmap()/iota"(#loc7443))
#loc8252 = loc(callsite(#loc1649 at #loc7444))
#loc8253 = loc(callsite(#loc1651 at #loc7444))
#loc8254 = loc(callsite(#loc1652 at #loc7444))
#loc8255 = loc(callsite(#loc1653 at #loc7444))
#loc8256 = loc(callsite(#loc1654 at #loc7444))
#loc8257 = loc(callsite(#loc1655 at #loc7444))
#loc8258 = loc(callsite(#loc1656 at #loc7444))
#loc8259 = loc(callsite(#loc1657 at #loc7444))
#loc8260 = loc(callsite(#loc1658 at #loc7444))
#loc8261 = loc(callsite(#loc1659 at #loc7444))
#loc8262 = loc(callsite(#loc1660 at #loc7444))
#loc8263 = loc(callsite(#loc1661 at #loc7444))
#loc8264 = loc(callsite(#loc1662 at #loc7444))
#loc8265 = loc(callsite(#loc1663 at #loc7444))
#loc8266 = loc(callsite(#loc1664 at #loc7444))
#loc8267 = loc(callsite(#loc1665 at #loc7444))
#loc8268 = loc(callsite(#loc1666 at #loc7444))
#loc8269 = loc(callsite(#loc1667 at #loc7444))
#loc8270 = loc(callsite(#loc1668 at #loc7444))
#loc8271 = loc(callsite(#loc1669 at #loc7444))
#loc8272 = loc(callsite(#loc1670 at #loc7444))
#loc8273 = loc("jit(step_fn)/vmap()/concatenate"(#loc7445))
#loc8274 = loc("jit(step_fn)/vmap()/concatenate"(#loc7446))
#loc8275 = loc("jit(step_fn)/vmap()/not"(#loc7447))
#loc8276 = loc("jit(step_fn)/vmap()/convert_element_type"(#loc7448))
#loc8277 = loc("jit(step_fn)/vmap(jit(argsort))"(#loc7449))
#loc8278 = loc("jit(step_fn)/vmap()/lt"(#loc7450))
#loc8279 = loc("jit(step_fn)/vmap()/add"(#loc7450))
#loc8280 = loc("jit(step_fn)/vmap()/select_n"(#loc7450))
#loc8281 = loc("jit(step_fn)/vmap()/broadcast_in_dim"(#loc7450))
#loc8282 = loc("jit(step_fn)/vmap()/gather"(#loc7450))
#loc8283 = loc("jit(step_fn)/vmap()/slice"(#loc7451))
#loc8284 = loc("jit(step_fn)/vmap()/lt"(#loc7452))
#loc8285 = loc("jit(step_fn)/vmap()/add"(#loc7452))
#loc8286 = loc("jit(step_fn)/vmap()/select_n"(#loc7452))
#loc8287 = loc("jit(step_fn)/vmap()/broadcast_in_dim"(#loc7452))
#loc8288 = loc("jit(step_fn)/vmap()/gather"(#loc7452))
#loc8289 = loc("jit(step_fn)/vmap()/slice"(#loc7453))
#loc8290 = loc("jit(step_fn)/vmap(jit(_where))"(#loc7472))
#loc8292 = loc("jit(step_fn)/vmap()/lt"(#loc7474))
#loc8293 = loc("jit(step_fn)/vmap()/add"(#loc7474))
#loc8294 = loc("jit(step_fn)/vmap()/select_n"(#loc7474))
#loc8295 = loc("jit(step_fn)/vmap()/broadcast_in_dim"(#loc7474))
#loc8296 = loc("jit(step_fn)/vmap()/concatenate"(#loc7474))
#loc8297 = loc("jit(step_fn)/vmap()/gather"(#loc7474))
#loc8298 = loc("jit(step_fn)/vmap()/squeeze"(#loc7474))
#loc8299 = loc("jit(step_fn)/vmap()/lt"(#loc7475))
#loc8300 = loc("jit(step_fn)/vmap()/add"(#loc7475))
#loc8301 = loc("jit(step_fn)/vmap()/select_n"(#loc7475))
#loc8302 = loc("jit(step_fn)/vmap()/broadcast_in_dim"(#loc7475))
#loc8303 = loc("jit(step_fn)/vmap()/concatenate"(#loc7475))
#loc8304 = loc("jit(step_fn)/vmap()/gather"(#loc7475))
#loc8305 = loc("jit(step_fn)/vmap()/squeeze"(#loc7475))
#loc8306 = loc("jit(step_fn)/vmap()/lt"(#loc7476))
#loc8307 = loc("jit(step_fn)/vmap()/add"(#loc7476))
#loc8308 = loc("jit(step_fn)/vmap()/select_n"(#loc7476))
#loc8309 = loc("jit(step_fn)/vmap()/broadcast_in_dim"(#loc7476))
#loc8310 = loc("jit(step_fn)/vmap()/gather"(#loc7476))
#loc8311 = loc("jit(step_fn)/vmap()/squeeze"(#loc7476))
#loc8312 = loc("jit(step_fn)/vmap()/broadcast_in_dim"(#loc7477))
#loc8313 = loc("jit(step_fn)/vmap()/sub"(#loc7477))
#loc8314 = loc("jit(step_fn)/vmap()/lt"(#loc7478))
#loc8315 = loc("jit(step_fn)/vmap()/add"(#loc7478))
#loc8316 = loc("jit(step_fn)/vmap()/select_n"(#loc7478))
#loc8317 = loc("jit(step_fn)/vmap()/broadcast_in_dim"(#loc7478))
#loc8318 = loc("jit(step_fn)/vmap()/concatenate"(#loc7478))
#loc8319 = loc("jit(step_fn)/vmap()/gather"(#loc7478))
#loc8320 = loc("jit(step_fn)/vmap()/squeeze"(#loc7478))
#loc8321 = loc("jit(step_fn)/vmap()/lt"(#loc7479))
#loc8322 = loc("jit(step_fn)/vmap()/add"(#loc7479))
#loc8323 = loc("jit(step_fn)/vmap()/select_n"(#loc7479))
#loc8324 = loc("jit(step_fn)/vmap()/broadcast_in_dim"(#loc7479))
#loc8325 = loc("jit(step_fn)/vmap()/gather"(#loc7479))
#loc8326 = loc("jit(step_fn)/vmap()/squeeze"(#loc7479))
#loc8327 = loc("jit(step_fn)/vmap()/broadcast_in_dim"(#loc7480))
#loc8328 = loc("jit(step_fn)/vmap()/sub"(#loc7480))
#loc8329 = loc("jit(step_fn)/vmap()/mul"(#loc7481))
#loc8330 = loc("jit(step_fn)/vmap()/mul"(#loc7482))
#loc8331 = loc("jit(step_fn)/vmap()/add"(#loc7483))
#loc8332 = loc("jit(step_fn)/vmap(jit(_where))"(#loc7484))
#loc8334 = loc("jit(step_fn)/vmap()/lt"(#loc7486))
#loc8335 = loc("jit(step_fn)/vmap()/add"(#loc7486))
#loc8336 = loc("jit(step_fn)/vmap()/select_n"(#loc7486))
#loc8337 = loc("jit(step_fn)/vmap()/broadcast_in_dim"(#loc7486))
#loc8338 = loc("jit(step_fn)/vmap()/concatenate"(#loc7486))
#loc8339 = loc("jit(step_fn)/vmap()/gather"(#loc7486))
#loc8340 = loc("jit(step_fn)/vmap()/squeeze"(#loc7486))
#loc8341 = loc("jit(step_fn)/vmap()/lt"(#loc7487))
#loc8342 = loc("jit(step_fn)/vmap()/add"(#loc7487))
#loc8343 = loc("jit(step_fn)/vmap()/select_n"(#loc7487))
#loc8344 = loc("jit(step_fn)/vmap()/broadcast_in_dim"(#loc7487))
#loc8345 = loc("jit(step_fn)/vmap()/gather"(#loc7487))
#loc8346 = loc("jit(step_fn)/vmap()/squeeze"(#loc7487))
#loc8347 = loc("jit(step_fn)/vmap()/lt"(#loc7488))
#loc8348 = loc("jit(step_fn)/vmap()/add"(#loc7488))
#loc8349 = loc("jit(step_fn)/vmap()/select_n"(#loc7488))
#loc8350 = loc("jit(step_fn)/vmap()/broadcast_in_dim"(#loc7488))
#loc8351 = loc("jit(step_fn)/vmap()/gather"(#loc7488))
#loc8352 = loc("jit(step_fn)/vmap()/squeeze"(#loc7488))
#loc8353 = loc("jit(step_fn)/vmap()/sub"(#loc7489))
#loc8354 = loc("jit(step_fn)/vmap()/lt"(#loc7490))
#loc8355 = loc("jit(step_fn)/vmap()/add"(#loc7490))
#loc8356 = loc("jit(step_fn)/vmap()/select_n"(#loc7490))
#loc8357 = loc("jit(step_fn)/vmap()/broadcast_in_dim"(#loc7490))
#loc8358 = loc("jit(step_fn)/vmap()/gather"(#loc7490))
#loc8359 = loc("jit(step_fn)/vmap()/squeeze"(#loc7490))
#loc8360 = loc("jit(step_fn)/vmap()/lt"(#loc7491))
#loc8361 = loc("jit(step_fn)/vmap()/add"(#loc7491))
#loc8362 = loc("jit(step_fn)/vmap()/select_n"(#loc7491))
#loc8363 = loc("jit(step_fn)/vmap()/broadcast_in_dim"(#loc7491))
#loc8364 = loc("jit(step_fn)/vmap()/gather"(#loc7491))
#loc8365 = loc("jit(step_fn)/vmap()/squeeze"(#loc7491))
#loc8366 = loc("jit(step_fn)/vmap()/sub"(#loc7492))
#loc8367 = loc("jit(step_fn)/vmap()/lt"(#loc7493))
#loc8368 = loc("jit(step_fn)/vmap()/add"(#loc7493))
#loc8369 = loc("jit(step_fn)/vmap()/select_n"(#loc7493))
#loc8370 = loc("jit(step_fn)/vmap()/broadcast_in_dim"(#loc7493))
#loc8371 = loc("jit(step_fn)/vmap()/concatenate"(#loc7493))
#loc8372 = loc("jit(step_fn)/vmap()/gather"(#loc7493))
#loc8373 = loc("jit(step_fn)/vmap()/squeeze"(#loc7493))
#loc8374 = loc("jit(step_fn)/vmap()/lt"(#loc7494))
#loc8375 = loc("jit(step_fn)/vmap()/add"(#loc7494))
#loc8376 = loc("jit(step_fn)/vmap()/select_n"(#loc7494))
#loc8377 = loc("jit(step_fn)/vmap()/broadcast_in_dim"(#loc7494))
#loc8378 = loc("jit(step_fn)/vmap()/gather"(#loc7494))
#loc8379 = loc("jit(step_fn)/vmap()/squeeze"(#loc7494))
#loc8380 = loc("jit(step_fn)/vmap()/broadcast_in_dim"(#loc7495))
#loc8381 = loc("jit(step_fn)/vmap()/sub"(#loc7495))
#loc8382 = loc("jit(step_fn)/vmap()/lt"(#loc7496))
#loc8383 = loc("jit(step_fn)/vmap()/add"(#loc7496))
#loc8384 = loc("jit(step_fn)/vmap()/select_n"(#loc7496))
#loc8385 = loc("jit(step_fn)/vmap()/broadcast_in_dim"(#loc7496))
#loc8386 = loc("jit(step_fn)/vmap()/concatenate"(#loc7496))
#loc8387 = loc("jit(step_fn)/vmap()/gather"(#loc7496))
#loc8388 = loc("jit(step_fn)/vmap()/squeeze"(#loc7496))
#loc8389 = loc("jit(step_fn)/vmap()/lt"(#loc7497))
#loc8390 = loc("jit(step_fn)/vmap()/add"(#loc7497))
#loc8391 = loc("jit(step_fn)/vmap()/select_n"(#loc7497))
#loc8392 = loc("jit(step_fn)/vmap()/broadcast_in_dim"(#loc7497))
#loc8393 = loc("jit(step_fn)/vmap()/gather"(#loc7497))
#loc8394 = loc("jit(step_fn)/vmap()/squeeze"(#loc7497))
#loc8395 = loc("jit(step_fn)/vmap()/broadcast_in_dim"(#loc7498))
#loc8396 = loc("jit(step_fn)/vmap()/sub"(#loc7498))
#loc8397 = loc("jit(step_fn)/vmap()/broadcast_in_dim"(#loc7499))
#loc8398 = loc("jit(step_fn)/vmap()/mul"(#loc7499))
#loc8399 = loc("jit(step_fn)/vmap()/broadcast_in_dim"(#loc7500))
#loc8400 = loc("jit(step_fn)/vmap()/mul"(#loc7500))
#loc8401 = loc("jit(step_fn)/vmap()/sub"(#loc7501))
#loc8402 = loc("jit(step_fn)/vmap(jit(_where))"(#loc7502))
#loc8403 = loc("jit(step_fn)/vmap()"(#loc7503))
#loc8404 = loc("jit(step_fn)/vmap(jit(_where))"(#loc7504))
#loc8405 = loc("jit(step_fn)/vmap()"(#loc7505))
#loc8406 = loc("jit(step_fn)/vmap()/broadcast_in_dim"(#loc7506))
#loc8407 = loc("jit(step_fn)/vmap()/concatenate"(#loc7506))
#loc8408 = loc("jit(step_fn)/vmap()/lt"(#loc7507))
#loc8409 = loc("jit(step_fn)/vmap()/add"(#loc7507))
#loc8410 = loc("jit(step_fn)/vmap()/select_n"(#loc7507))
#loc8411 = loc("jit(step_fn)/vmap()/broadcast_in_dim"(#loc7507))
#loc8412 = loc("jit(step_fn)/vmap()/gather"(#loc7507))
#loc8413 = loc(callsite(#loc1613 at #loc7518))
#loc8414 = loc(callsite(#loc1616 at #loc7518))
#loc8415 = loc(callsite(#loc1617 at #loc7518))
#loc8416 = loc(callsite(#loc1618 at #loc7518))
#loc8417 = loc(callsite(#loc1619 at #loc7518))
#loc8418 = loc(callsite(#loc1620 at #loc7518))
#loc8419 = loc(callsite(#loc1621 at #loc7518))
#loc8420 = loc(callsite(#loc1622 at #loc7518))
#loc8421 = loc("jit(step_fn)/vmap()/slice"(#loc7538))
#loc8422 = loc("jit(step_fn)/vmap()/slice"(#loc7539))
#loc8423 = loc("jit(step_fn)/vmap()/squeeze"(#loc7539))
#loc8424 = loc("jit(step_fn)/vmap(jit(cross))"(#loc7540))
#loc8425 = loc("jit(step_fn)/vmap()/broadcast_in_dim"(#loc7541))
#loc8426 = loc("jit(step_fn)/vmap()/mul"(#loc7541))
#loc8427 = loc("jit(step_fn)/vmap()/add"(#loc7542))
#loc8428 = loc("jit(step_fn)/vmap(jit(cross))"(#loc7543))
#loc8429 = loc("jit(step_fn)/vmap()/mul"(#loc7544))
#loc8430 = loc("jit(step_fn)/vmap()/add"(#loc7545))
#loc8431 = loc("jit(step_fn)/vmap()/slice"(#loc7565))
#loc8432 = loc("jit(step_fn)/vmap()/slice"(#loc7566))
#loc8433 = loc("jit(step_fn)/vmap()/squeeze"(#loc7566))
#loc8434 = loc("jit(step_fn)/vmap(jit(cross))"(#loc7567))
#loc8435 = loc("jit(step_fn)/vmap()/broadcast_in_dim"(#loc7568))
#loc8436 = loc("jit(step_fn)/vmap()/mul"(#loc7568))
#loc8437 = loc("jit(step_fn)/vmap()/add"(#loc7569))
#loc8438 = loc("jit(step_fn)/vmap(jit(cross))"(#loc7570))
#loc8439 = loc("jit(step_fn)/vmap()/mul"(#loc7571))
#loc8440 = loc("jit(step_fn)/vmap()/add"(#loc7572))
#loc8441 = loc("jit(step_fn)/vmap()/sub"(#loc7581))
#loc8442 = loc("jit(step_fn)/vmap()/dot_general"(#loc7582))
#loc8443 = loc("jit(step_fn)/vmap()/dot_general"(#loc7583))
#loc8444 = loc("jit(step_fn)/vmap()/dot_general"(#loc7584))
#loc8445 = loc("jit(step_fn)/vmap()/dot_general"(#loc7585))
#loc8446 = loc("jit(step_fn)/vmap()/dot_general"(#loc7586))
#loc8447 = loc("jit(step_fn)/vmap()/mul"(#loc7587))
#loc8448 = loc("jit(step_fn)/vmap()/mul"(#loc7588))
#loc8449 = loc("jit(step_fn)/vmap()/sub"(#loc7589))
#loc8450 = loc("jit(step_fn)/vmap()/mul"(#loc7590))
#loc8451 = loc("jit(step_fn)/vmap()/mul"(#loc7591))
#loc8452 = loc("jit(step_fn)/vmap()/sub"(#loc7592))
#loc8453 = loc(callsite(#loc1505 at #loc7593))
#loc8454 = loc(callsite(#loc1507 at #loc7593))
#loc8455 = loc("jit(step_fn)/vmap()/div"(#loc7594))
#loc8456 = loc("jit(step_fn)/vmap()/mul"(#loc7595))
#loc8457 = loc("jit(step_fn)/vmap()/mul"(#loc7596))
#loc8458 = loc("jit(step_fn)/vmap()/sub"(#loc7597))
#loc8459 = loc(callsite(#loc1505 at #loc7598))
#loc8460 = loc(callsite(#loc1507 at #loc7598))
#loc8461 = loc("jit(step_fn)/vmap()/div"(#loc7599))
#loc8462 = loc("jit(step_fn)/vmap(vmap())/broadcast_in_dim"(#loc7636))
#loc8463 = loc("jit(step_fn)/vmap(vmap())/sub"(#loc7636))
#loc8464 = loc("jit(step_fn)/vmap(vmap(jit(cross)))"(#loc7637))
#loc8465 = loc("jit(step_fn)/vmap(vmap())/broadcast_in_dim"(#loc7638))
#loc8466 = loc("jit(step_fn)/vmap(vmap())/add"(#loc7638))
#loc8467 = loc("jit(step_fn)/vmap(vmap())/broadcast_in_dim"(#loc7639))
#loc8468 = loc("jit(step_fn)/vmap(vmap())/sub"(#loc7639))
#loc8469 = loc("jit(step_fn)/vmap(vmap(jit(cross)))"(#loc7640))
#loc8470 = loc("jit(step_fn)/vmap(vmap())/broadcast_in_dim"(#loc7641))
#loc8471 = loc("jit(step_fn)/vmap(vmap())/add"(#loc7641))
#loc8472 = loc("jit(step_fn)/vmap(vmap())/sub"(#loc7642))
#loc8473 = loc("jit(step_fn)/vmap(vmap())/dot_general"(#loc7643))
#loc8474 = loc("jit(step_fn)/vmap()/reshape"(#loc7644))
#loc8475 = loc("jit(step_fn)/vmap()/broadcast_in_dim"(#loc7645))
#loc8476 = loc("jit(step_fn)/vmap(jit(_where))"(#loc7646))
#loc8477 = loc("jit(step_fn)/vmap()/slice"(#loc7970))
#loc8478 = loc("jit(step_fn)/vmap()/slice"(#loc7971))
#loc8479 = loc("jit(step_fn)/vmap()/squeeze"(#loc7971))
#loc8480 = loc("jit(step_fn)/vmap(jit(cross))"(#loc7972))
#loc8481 = loc("jit(step_fn)/vmap()/broadcast_in_dim"(#loc7973))
#loc8482 = loc("jit(step_fn)/vmap()/mul"(#loc7973))
#loc8483 = loc("jit(step_fn)/vmap()/add"(#loc7974))
#loc8484 = loc("jit(step_fn)/vmap(jit(cross))"(#loc7975))
#loc8485 = loc("jit(step_fn)/vmap()/mul"(#loc7976))
#loc8486 = loc("jit(step_fn)/vmap()/add"(#loc7977))
#loc8487 = loc("jit(step_fn)/vmap()/slice"(#loc7978))
#loc8488 = loc("jit(step_fn)/vmap()/slice"(#loc7979))
#loc8489 = loc("jit(step_fn)/vmap()/squeeze"(#loc7979))
#loc8490 = loc("jit(step_fn)/vmap(jit(cross))"(#loc7980))
#loc8491 = loc("jit(step_fn)/vmap()/broadcast_in_dim"(#loc7981))
#loc8492 = loc("jit(step_fn)/vmap()/mul"(#loc7981))
#loc8493 = loc("jit(step_fn)/vmap()/add"(#loc7982))
#loc8494 = loc("jit(step_fn)/vmap(jit(cross))"(#loc7983))
#loc8495 = loc("jit(step_fn)/vmap()/mul"(#loc7984))
#loc8496 = loc("jit(step_fn)/vmap()/add"(#loc7985))
#loc8497 = loc("jit(step_fn)/vmap()/slice"(#loc7986))
#loc8498 = loc("jit(step_fn)/vmap()/squeeze"(#loc7986))
#loc8499 = loc("jit(step_fn)/vmap()/ge"(#loc7987))
#loc8500 = loc("jit(step_fn)/vmap(jit(_where))"(#loc7988))
#loc8501 = loc("jit(step_fn)/vmap()/slice"(#loc7989))
#loc8502 = loc("jit(step_fn)/vmap()/squeeze"(#loc7989))
#loc8503 = loc("jit(step_fn)/vmap()/convert_element_type"(#loc7990))
#loc8504 = loc("jit(step_fn)/vmap()/add"(#loc7990))
#loc8505 = loc("jit(step_fn)/vmap()/div"(#loc7991))
#loc8506 = loc("jit(step_fn)/vmap()/slice"(#loc7992))
#loc8507 = loc("jit(step_fn)/vmap()/squeeze"(#loc7992))
#loc8508 = loc("jit(step_fn)/vmap()/slice"(#loc7993))
#loc8509 = loc("jit(step_fn)/vmap()/squeeze"(#loc7993))
#loc8510 = loc("jit(step_fn)/vmap()/mul"(#loc7994))
#loc8511 = loc("jit(step_fn)/vmap()/mul"(#loc7995))
#loc8512 = loc("jit(step_fn)/vmap()/slice"(#loc7996))
#loc8513 = loc("jit(step_fn)/vmap()/squeeze"(#loc7996))
#loc8514 = loc("jit(step_fn)/vmap()/convert_element_type"(#loc7997))
#loc8515 = loc("jit(step_fn)/vmap()/mul"(#loc7997))
#loc8516 = loc("jit(step_fn)/vmap()/slice"(#loc7998))
#loc8517 = loc("jit(step_fn)/vmap()/squeeze"(#loc7998))
#loc8518 = loc("jit(step_fn)/vmap()/mul"(#loc7999))
#loc8519 = loc("jit(step_fn)/vmap()/mul"(#loc8000))
#loc8520 = loc("jit(step_fn)/vmap()/add"(#loc8001))
#loc8521 = loc("jit(step_fn)/vmap()/convert_element_type"(#loc8002))
#loc8522 = loc("jit(step_fn)/vmap()/mul"(#loc8002))
#loc8523 = loc("jit(step_fn)/vmap()/neg"(#loc8003))
#loc8524 = loc("jit(step_fn)/vmap()/slice"(#loc8004))
#loc8525 = loc("jit(step_fn)/vmap()/squeeze"(#loc8004))
#loc8526 = loc("jit(step_fn)/vmap()/convert_element_type"(#loc8005))
#loc8527 = loc("jit(step_fn)/vmap()/mul"(#loc8005))
#loc8528 = loc("jit(step_fn)/vmap()/broadcast_in_dim"(#loc8006))
#loc8529 = loc("jit(step_fn)/vmap()/concatenate"(#loc8006))
#loc8530 = loc("jit(step_fn)/vmap()/slice"(#loc8007))
#loc8531 = loc("jit(step_fn)/vmap()/squeeze"(#loc8007))
#loc8532 = loc("jit(step_fn)/vmap()/slice"(#loc8008))
#loc8533 = loc("jit(step_fn)/vmap()/squeeze"(#loc8008))
#loc8534 = loc("jit(step_fn)/vmap()/mul"(#loc8009))
#loc8535 = loc("jit(step_fn)/vmap()/mul"(#loc8010))
#loc8536 = loc("jit(step_fn)/vmap()/convert_element_type"(#loc8011))
#loc8537 = loc("jit(step_fn)/vmap()/add"(#loc8011))
#loc8538 = loc("jit(step_fn)/vmap()/slice"(#loc8012))
#loc8539 = loc("jit(step_fn)/vmap()/squeeze"(#loc8012))
#loc8540 = loc("jit(step_fn)/vmap()/neg"(#loc8013))
#loc8541 = loc("jit(step_fn)/vmap()/broadcast_in_dim"(#loc8014))
#loc8542 = loc("jit(step_fn)/vmap()/concatenate"(#loc8014))
#loc8543 = loc("jit:"(#loc8094))
#loc8544 = loc("jit:"(#loc8102))
#loc8545 = loc("jit(step_fn)/vmap()/jit"(#loc7449))
#loc8546 = loc("jit(step_fn)/vmap()/jit"(#loc7472))
#loc8547 = loc("jit:"(#loc8116))
#loc8548 = loc("jit:"(#loc8117))
#loc8549 = loc("jit(step_fn)/vmap()/jit"(#loc7646))
#loc8550 = loc("jit:"(#loc8122))
#loc8551 = loc("jit:"(#loc8129))
#loc8552 = loc("jit:"(#loc8131))
#loc8553 = loc("jit(step_fn)/vmap()/jit"(#loc7988))
#loc8554 = loc("jit(step_fn)/vmap(vmap())/slice"(#loc8230))
#loc8555 = loc("jit(step_fn)/vmap(vmap())/slice"(#loc8231))
#loc8556 = loc("jit(step_fn)/vmap(vmap())/squeeze"(#loc8231))
#loc8557 = loc("jit(step_fn)/vmap(vmap(jit(cross)))"(#loc8232))
#loc8558 = loc("jit(step_fn)/vmap(vmap())/broadcast_in_dim"(#loc8233))
#loc8559 = loc("jit(step_fn)/vmap(vmap())/mul"(#loc8233))
#loc8560 = loc("jit(step_fn)/vmap(vmap())/add"(#loc8234))
#loc8561 = loc("jit(step_fn)/vmap(vmap(jit(cross)))"(#loc8235))
#loc8562 = loc("jit(step_fn)/vmap(vmap())/mul"(#loc8236))
#loc8563 = loc("jit(step_fn)/vmap(vmap())/add"(#loc8237))
#loc8564 = loc("jit(step_fn)/vmap(vmap())/slice"(#loc8240))
#loc8565 = loc("jit(step_fn)/vmap(vmap())/slice"(#loc8241))
#loc8566 = loc("jit(step_fn)/vmap(vmap())/squeeze"(#loc8241))
#loc8567 = loc("jit(step_fn)/vmap(vmap(jit(cross)))"(#loc8242))
#loc8568 = loc("jit(step_fn)/vmap(vmap())/broadcast_in_dim"(#loc8243))
#loc8569 = loc("jit(step_fn)/vmap(vmap())/mul"(#loc8243))
#loc8570 = loc("jit(step_fn)/vmap(vmap())/sub"(#loc8244))
#loc8571 = loc("jit(step_fn)/vmap(vmap(jit(cross)))"(#loc8245))
#loc8572 = loc("jit(step_fn)/vmap(vmap())/mul"(#loc8246))
#loc8573 = loc("jit(step_fn)/vmap(vmap())/add"(#loc8247))
#loc8574 = loc("jit(step_fn)/vmap(vmap())/add"(#loc8252))
#loc8575 = loc("jit(step_fn)/vmap(vmap(jit(remainder)))"(#loc8253))
#loc8576 = loc("jit(step_fn)/vmap(vmap())/lt"(#loc8254))
#loc8577 = loc("jit(step_fn)/vmap(vmap())/add"(#loc8254))
#loc8578 = loc("jit(step_fn)/vmap(vmap())/select_n"(#loc8254))
#loc8579 = loc("jit(step_fn)/vmap(vmap())/broadcast_in_dim"(#loc8254))
#loc8580 = loc("jit(step_fn)/vmap(vmap())/concatenate"(#loc8254))
#loc8581 = loc("jit(step_fn)/vmap(vmap())/gather"(#loc8254))
#loc8582 = loc("jit(step_fn)/vmap(vmap())/squeeze"(#loc8254))
#loc8583 = loc("jit(step_fn)/vmap(vmap())/lt"(#loc8255))
#loc8584 = loc("jit(step_fn)/vmap(vmap())/add"(#loc8255))
#loc8585 = loc("jit(step_fn)/vmap(vmap())/select_n"(#loc8255))
#loc8586 = loc("jit(step_fn)/vmap(vmap())/broadcast_in_dim"(#loc8255))
#loc8587 = loc("jit(step_fn)/vmap(vmap())/concatenate"(#loc8255))
#loc8588 = loc("jit(step_fn)/vmap(vmap())/gather"(#loc8255))
#loc8589 = loc("jit(step_fn)/vmap(vmap())/squeeze"(#loc8255))
#loc8590 = loc("jit(step_fn)/vmap(vmap())/dot_general"(#loc8256))
#loc8591 = loc("jit(step_fn)/vmap(vmap())/broadcast_in_dim"(#loc8257))
#loc8592 = loc("jit(step_fn)/vmap(vmap())/sub"(#loc8257))
#loc8593 = loc("jit(step_fn)/vmap(vmap())/dot_general"(#loc8258))
#loc8594 = loc("jit(step_fn)/vmap(vmap())/broadcast_in_dim"(#loc8259))
#loc8595 = loc("jit(step_fn)/vmap(vmap())/sub"(#loc8259))
#loc8596 = loc("jit(step_fn)/vmap(vmap())/lt"(#loc8260))
#loc8597 = loc("jit(step_fn)/vmap(vmap())/add"(#loc8260))
#loc8598 = loc("jit(step_fn)/vmap(vmap())/select_n"(#loc8260))
#loc8599 = loc("jit(step_fn)/vmap(vmap())/broadcast_in_dim"(#loc8260))
#loc8600 = loc("jit(step_fn)/vmap(vmap())/gather"(#loc8260))
#loc8601 = loc("jit(step_fn)/vmap(vmap())/squeeze"(#loc8260))
#loc8602 = loc("jit(step_fn)/vmap(vmap())/le"(#loc8261))
#loc8603 = loc("jit(step_fn)/vmap(vmap())/broadcast_in_dim"(#loc8262))
#loc8604 = loc("jit(step_fn)/vmap(vmap())/and"(#loc8262))
#loc8605 = loc("jit(step_fn)/vmap(vmap())/lt"(#loc8263))
#loc8606 = loc("jit(step_fn)/vmap(vmap())/add"(#loc8263))
#loc8607 = loc("jit(step_fn)/vmap(vmap())/select_n"(#loc8263))
#loc8608 = loc("jit(step_fn)/vmap(vmap())/broadcast_in_dim"(#loc8263))
#loc8609 = loc("jit(step_fn)/vmap(vmap())/gather"(#loc8263))
#loc8610 = loc("jit(step_fn)/vmap(vmap())/squeeze"(#loc8263))
#loc8611 = loc("jit(step_fn)/vmap(vmap())/mul"(#loc8264))
#loc8612 = loc("jit(step_fn)/vmap(vmap())/lt"(#loc8265))
#loc8613 = loc("jit(step_fn)/vmap(vmap())/broadcast_in_dim"(#loc8266))
#loc8614 = loc("jit(step_fn)/vmap(vmap())/and"(#loc8266))
#loc8615 = loc("jit(step_fn)/vmap(vmap())/sub"(#loc8267))
#loc8616 = loc(callsite(#loc1505 at #loc8268))
#loc8617 = loc(callsite(#loc1507 at #loc8268))
#loc8618 = loc("jit(step_fn)/vmap(vmap())/div"(#loc8269))
#loc8619 = loc("jit(step_fn)/vmap(vmap())/sub"(#loc8270))
#loc8620 = loc("jit(step_fn)/vmap(vmap())/broadcast_in_dim"(#loc8271))
#loc8621 = loc("jit(step_fn)/vmap(vmap())/mul"(#loc8271))
#loc8622 = loc("jit(step_fn)/vmap(vmap())/add"(#loc8272))
#loc8623 = loc("jit(step_fn)/vmap(vmap())/slice"(#loc8413))
#loc8624 = loc("jit(step_fn)/vmap(vmap())/slice"(#loc8414))
#loc8625 = loc("jit(step_fn)/vmap(vmap())/squeeze"(#loc8414))
#loc8626 = loc("jit(step_fn)/vmap(vmap(jit(cross)))"(#loc8415))
#loc8627 = loc("jit(step_fn)/vmap(vmap())/broadcast_in_dim"(#loc8416))
#loc8628 = loc("jit(step_fn)/vmap(vmap())/mul"(#loc8416))
#loc8629 = loc("jit(step_fn)/vmap(vmap())/add"(#loc8417))
#loc8630 = loc("jit(step_fn)/vmap(vmap(jit(cross)))"(#loc8418))
#loc8631 = loc("jit(step_fn)/vmap(vmap())/mul"(#loc8419))
#loc8632 = loc("jit(step_fn)/vmap(vmap())/add"(#loc8420))
#loc8633 = loc("jit(step_fn)/vmap()/eq"(#loc8453))
#loc8634 = loc("jit(step_fn)/vmap()/broadcast_in_dim"(#loc8454))
#loc8635 = loc("jit(step_fn)/vmap()/select_n"(#loc8454))
#loc8636 = loc("jit(step_fn)/vmap()/eq"(#loc8459))
#loc8637 = loc("jit(step_fn)/vmap()/broadcast_in_dim"(#loc8460))
#loc8638 = loc("jit(step_fn)/vmap()/select_n"(#loc8460))
#loc8639 = loc("jit(step_fn)/vmap(vmap())/jit"(#loc8232))
#loc8640 = loc("jit(step_fn)/vmap(vmap())/jit"(#loc8253))
#loc8641 = loc("jit:"(#loc8545))
#loc8642 = loc("jit:"(#loc8546))
#loc8643 = loc("jit:"(#loc8549))
#loc8644 = loc("jit:"(#loc8553))
#loc8645 = loc("jit(step_fn)/vmap(vmap())/eq"(#loc8616))
#loc8646 = loc("jit(step_fn)/vmap(vmap())/broadcast_in_dim"(#loc8617))
#loc8647 = loc("jit(step_fn)/vmap(vmap())/select_n"(#loc8617))
#loc8648 = loc("jit:"(#loc8639))
#loc8649 = loc("jit:"(#loc8640))
