#loc = loc(unknown)
#loc1 = loc("state.box.position")
#loc2 = loc("state.box.quat")
#loc3 = loc("state.box.velocity")
#loc4 = loc("state.box.angular_velocity")
#loc5 = loc("state.box.inverse_mass")
#loc6 = loc("state.box.inverse_inertia_local")
#loc7 = loc("state.box.inverse_inertia_world")
#loc8 = loc("state.box.friction")
#loc9 = loc("state.box.restitution")
#loc10 = loc("state.box.collision_mode")
#loc11 = loc("state.box.active")
#loc12 = loc("state.box.half_extents")
#loc13 = loc("state.box.radius")
#loc14 = loc("state.box.vertices")
#loc15 = loc("state.box.n_vertices")
#loc16 = loc("state.sphere.position")
#loc17 = loc("state.sphere.quat")
#loc18 = loc("state.sphere.velocity")
#loc19 = loc("state.sphere.angular_velocity")
#loc20 = loc("state.sphere.inverse_mass")
#loc21 = loc("state.sphere.inverse_inertia_local")
#loc22 = loc("state.sphere.inverse_inertia_world")
#loc23 = loc("state.sphere.friction")
#loc24 = loc("state.sphere.restitution")
#loc25 = loc("state.sphere.collision_mode")
#loc26 = loc("state.sphere.active")
#loc27 = loc("state.sphere.half_extents")
#loc28 = loc("state.sphere.radius")
#loc29 = loc("state.sphere.vertices")
#loc30 = loc("state.sphere.n_vertices")
#loc31 = loc("state.wedge.position")
#loc32 = loc("state.wedge.quat")
#loc33 = loc("state.wedge.velocity")
#loc34 = loc("state.wedge.angular_velocity")
#loc35 = loc("state.wedge.inverse_mass")
#loc36 = loc("state.wedge.inverse_inertia_local")
#loc37 = loc("state.wedge.inverse_inertia_world")
#loc38 = loc("state.wedge.friction")
#loc39 = loc("state.wedge.restitution")
#loc40 = loc("state.wedge.collision_mode")
#loc41 = loc("state.wedge.active")
#loc42 = loc("state.wedge.half_extents")
#loc43 = loc("state.wedge.radius")
#loc44 = loc("state.wedge.vertices")
#loc45 = loc("state.wedge.n_vertices")
#loc46 = loc("state.prism.position")
#loc47 = loc("state.prism.quat")
#loc48 = loc("state.prism.velocity")
#loc49 = loc("state.prism.angular_velocity")
#loc50 = loc("state.prism.inverse_mass")
#loc51 = loc("state.prism.inverse_inertia_local")
#loc52 = loc("state.prism.inverse_inertia_world")
#loc53 = loc("state.prism.friction")
#loc54 = loc("state.prism.restitution")
#loc55 = loc("state.prism.collision_mode")
#loc56 = loc("state.prism.active")
#loc57 = loc("state.prism.half_extents")
#loc58 = loc("state.prism.radius")
#loc59 = loc("state.prism.vertices")
#loc60 = loc("state.prism.n_vertices")
#loc61 = loc("state.joint.a_index")
#loc62 = loc("state.joint.b_index")
#loc63 = loc("state.joint.a_local_anchor")
#loc64 = loc("state.joint.b_local_anchor")
#loc65 = loc("state.joint.global_position")
#loc66 = loc("state.joint.active")
#loc67 = loc("state.joint.joint_type")
#loc68 = loc("state.joint.acc_point_impulse")
#loc69 = loc("state.joint.a_local_hinge_axis")
#loc70 = loc("state.joint.b_local_hinge_axis")
#loc71 = loc("state.joint.acc_perp_impulse")
#loc72 = loc("state.joint.motor_on")
#loc73 = loc("state.joint.motor_speed")
#loc74 = loc("state.joint.motor_power")
#loc75 = loc("state.joint.motor_has_joint_limits")
#loc76 = loc("state.joint.min_rotation")
#loc77 = loc("state.joint.max_rotation")
#loc78 = loc("state.joint.target_relative_rotation")
#loc79 = loc("state.joint.acc_angular_impulse")
#loc80 = loc("state.thruster.object_index")
#loc81 = loc("state.thruster.relative_position")
#loc82 = loc("state.thruster.local_direction")
#loc83 = loc("state.thruster.power")
#loc84 = loc("state.thruster.global_position")
#loc85 = loc("state.thruster.active")
#loc86 = loc("state.collision_matrix")
#loc87 = loc("state.acc_bb_manifolds.normal")
#loc88 = loc("state.acc_bb_manifolds.point")
#loc89 = loc("state.acc_bb_manifolds.separation")
#loc90 = loc("state.acc_bb_manifolds.active")
#loc91 = loc("state.acc_bb_manifolds.acc_impulse_normal")
#loc92 = loc("state.acc_bb_manifolds.acc_impulse_tangent")
#loc93 = loc("state.acc_bb_manifolds.restitution_velocity_target")
#loc94 = loc("state.acc_bs_manifolds.normal")
#loc95 = loc("state.acc_bs_manifolds.point")
#loc96 = loc("state.acc_bs_manifolds.separation")
#loc97 = loc("state.acc_bs_manifolds.active")
#loc98 = loc("state.acc_bs_manifolds.acc_impulse_normal")
#loc99 = loc("state.acc_bs_manifolds.acc_impulse_tangent")
#loc100 = loc("state.acc_bs_manifolds.restitution_velocity_target")
#loc101 = loc("state.acc_ss_manifolds.normal")
#loc102 = loc("state.acc_ss_manifolds.point")
#loc103 = loc("state.acc_ss_manifolds.separation")
#loc104 = loc("state.acc_ss_manifolds.active")
#loc105 = loc("state.acc_ss_manifolds.acc_impulse_normal")
#loc106 = loc("state.acc_ss_manifolds.acc_impulse_tangent")
#loc107 = loc("state.acc_ss_manifolds.restitution_velocity_target")
#loc108 = loc("state.acc_bw_manifolds.normal")
#loc109 = loc("state.acc_bw_manifolds.point")
#loc110 = loc("state.acc_bw_manifolds.separation")
#loc111 = loc("state.acc_bw_manifolds.active")
#loc112 = loc("state.acc_bw_manifolds.acc_impulse_normal")
#loc113 = loc("state.acc_bw_manifolds.acc_impulse_tangent")
#loc114 = loc("state.acc_bw_manifolds.restitution_velocity_target")
#loc115 = loc("state.acc_sw_manifolds.normal")
#loc116 = loc("state.acc_sw_manifolds.point")
#loc117 = loc("state.acc_sw_manifolds.separation")
#loc118 = loc("state.acc_sw_manifolds.active")
#loc119 = loc("state.acc_sw_manifolds.acc_impulse_normal")
#loc120 = loc("state.acc_sw_manifolds.acc_impulse_tangent")
#loc121 = loc("state.acc_sw_manifolds.restitution_velocity_target")
#loc122 = loc("state.acc_bp_manifolds.normal")
#loc123 = loc("state.acc_bp_manifolds.point")
#loc124 = loc("state.acc_bp_manifolds.separation")
#loc125 = loc("state.acc_bp_manifolds.active")
#loc126 = loc("state.acc_bp_manifolds.acc_impulse_normal")
#loc127 = loc("state.acc_bp_manifolds.acc_impulse_tangent")
#loc128 = loc("state.acc_bp_manifolds.restitution_velocity_target")
#loc129 = loc("state.acc_sp_manifolds.normal")
#loc130 = loc("state.acc_sp_manifolds.point")
#loc131 = loc("state.acc_sp_manifolds.separation")
#loc132 = loc("state.acc_sp_manifolds.active")
#loc133 = loc("state.acc_sp_manifolds.acc_impulse_normal")
#loc134 = loc("state.acc_sp_manifolds.acc_impulse_tangent")
#loc135 = loc("state.acc_sp_manifolds.restitution_velocity_target")
#loc136 = loc("state.gravity")
#loc137 = loc("actions")
#loc138 = loc("/home/farr/Jax3D/examples/export_web.py":149:15 to :80)
#loc139 = loc("/home/farr/Jax3D/examples/export_web.py":214:4 to :10)
#loc143 = loc("/home/farr/Jax3D/examples/export_web.py":146:23 to :62)
#loc212 = loc("/home/farr/Jax3D/jax3d/engine.py":1052:12 to :53)
#loc215 = loc("/home/farr/Jax3D/jax3d/engine.py":928:27 to :92)
#loc223 = loc("/home/farr/Jax3D/jax3d/engine.py":926:23 to :60)
#loc246 = loc("scatter")
#loc281 = loc("/home/farr/Jax3D/jax3d/collision.py":417:23 to :45)
#loc286 = loc("/home/farr/Jax3D/jax3d/collision.py":423:21 to :42)
#loc320 = loc("/home/farr/Jax3D/jax3d/collision.py":444:41 to 446:5)
#loc438 = loc("/home/farr/Jax3D/jax3d/collision.py":344:31 to :97)
#loc439 = loc("/home/farr/Jax3D/jax3d/collision.py":286:11 to :61)
#loc451 = loc("/home/farr/Jax3D/jax3d/collision.py":292:11 to :58)
#loc583 = loc("/home/farr/Jax3D/jax3d/engine.py":940:27 to :92)
#loc591 = loc("/home/farr/Jax3D/jax3d/engine.py":938:23 to :63)
#loc605 = loc("/home/farr/Jax3D/jax3d/collision.py":189:11 to :32)
#loc798 = loc("scatter-add")
#loc1038 = loc("reduce")
#loc1045 = loc("sort")
#loc1385 = loc("main"(#loc138))
#loc1386 = loc("<module>"(#loc139))
#loc1390 = loc("main.<locals>.step_fn"(#loc143))
#loc1459 = loc("PhysicsEngine.step"(#loc212))
#loc1462 = loc("PhysicsEngine.calculate_collision_manifolds"(#loc215))
#loc1470 = loc("PhysicsEngine.calculate_collision_manifolds.<locals>._calc_bb"(#loc223))
#loc1493 = loc("scatter:"(#loc246))
#loc1528 = loc("generate_manifold_box_box"(#loc281))
#loc1533 = loc("generate_manifold_box_box"(#loc286))
#loc1567 = loc("generate_manifold_box_box"(#loc320))
#loc1685 = loc("_face_contact_manifold"(#loc438))
#loc1686 = loc("_reduce_manifold_points"(#loc439))
#loc1698 = loc("_reduce_manifold_points"(#loc451))
#loc1830 = loc("PhysicsEngine.calculate_collision_manifolds"(#loc583))
#loc1838 = loc("PhysicsEngine.calculate_collision_manifolds.<locals>._calc_bs"(#loc591))
#loc1852 = loc("generate_manifold_box_sphere"(#loc605))
#loc2045 = loc("scatter-add:"(#loc798))
#loc2270 = loc("reduce:"(#loc1038))
#loc2271 = loc("sort:"(#loc1045))
#loc2600 = loc(callsite(#loc1385 at #loc1386))
#loc2824 = loc(callsite(#loc1390 at #loc2600))
#loc3328 = loc(callsite(#loc1459 at #loc2824))
#loc3835 = loc(callsite(#loc1462 at #loc3328))
#loc3837 = loc(callsite(#loc1830 at #loc3328))
#loc4435 = loc(callsite(#loc1470 at #loc3835))
#loc4440 = loc(callsite(#loc1838 at #loc3837))
#loc5146 = loc(callsite(#loc1528 at #loc4435))
#loc5151 = loc(callsite(#loc1533 at #loc4435))
#loc5177 = loc(callsite(#loc1567 at #loc4435))
#loc5227 = loc(callsite(#loc1852 at #loc4440))
#loc6151 = loc("jit(step_fn)/vmap()"(#loc5146))
#loc6166 = loc("jit(step_fn)/vmap()"(#loc5151))
#loc6260 = loc(callsite(#loc1685 at #loc5177))
#loc6388 = loc("jit(step_fn)/vmap()"(#loc5227))
#loc7465 = loc(callsite(#loc1686 at #loc6260))
#loc7477 = loc(callsite(#loc1698 at #loc6260))
#loc8281 = loc("jit(step_fn)/vmap()"(#loc7465))
#loc8323 = loc("jit(step_fn)/vmap()"(#loc7477))
module @jit_step_fn attributes {jax.uses_shape_polymorphism = false, mhlo.num_partitions = 1 : i32, mhlo.num_replicas = 1 : i32} {
  func.func public @main(%arg0: tensor<5x3xf32> loc("state.box.position"), %arg1: tensor<5x4xf32> loc("state.box.quat"), %arg2: tensor<5x3xf32> loc("state.box.velocity"), %arg3: tensor<5x3xf32> loc("state.box.angular_velocity"), %arg4: tensor<5xf32> loc("state.box.inverse_mass"), %arg5: tensor<5x3xf32> loc("state.box.inverse_inertia_local"), %arg6: tensor<5x3x3xf32> loc("state.box.inverse_inertia_world"), %arg7: tensor<5xf32> loc("state.box.friction"), %arg8: tensor<5xf32> loc("state.box.restitution"), %arg9: tensor<5xi32> loc("state.box.collision_mode"), %arg10: tensor<5xi1> loc("state.box.active"), %arg11: tensor<5x3xf32> loc("state.box.half_extents"), %arg12: tensor<5xf32> loc("state.box.radius"), %arg13: tensor<5x8x2xf32> loc("state.box.vertices"), %arg14: tensor<5xi32> loc("state.box.n_vertices"), %arg15: tensor<4x3xf32> loc("state.sphere.position"), %arg16: tensor<4x4xf32> loc("state.sphere.quat"), %arg17: tensor<4x3xf32> loc("state.sphere.velocity"), %arg18: tensor<4x3xf32> loc("state.sphere.angular_velocity"), %arg19: tensor<4xf32> loc("state.sphere.inverse_mass"), %arg20: tensor<4x3xf32> loc("state.sphere.inverse_inertia_local"), %arg21: tensor<4x3x3xf32> loc("state.sphere.inverse_inertia_world"), %arg22: tensor<4xf32> loc("state.sphere.friction"), %arg23: tensor<4xf32> loc("state.sphere.restitution"), %arg24: tensor<4xi32> loc("state.sphere.collision_mode"), %arg25: tensor<4xi1> loc("state.sphere.active"), %arg26: tensor<4x3xf32> loc("state.sphere.half_extents"), %arg27: tensor<4xf32> loc("state.sphere.radius"), %arg28: tensor<4x8x2xf32> loc("state.sphere.vertices"), %arg29: tensor<4xi32> loc("state.sphere.n_vertices"), %arg30: tensor<0x3xf32> loc("state.wedge.position"), %arg31: tensor<0x4xf32> loc("state.wedge.quat"), %arg32: tensor<0x3xf32> loc("state.wedge.velocity"), %arg33: tensor<0x3xf32> loc("state.wedge.angular_velocity"), %arg34: tensor<0xf32> loc("state.wedge.inverse_mass"), %arg35: tensor<0x3xf32> loc("state.wedge.inverse_inertia_local"), %arg36: tensor<0x3x3xf32> loc("state.wedge.inverse_inertia_world"), %arg37: tensor<0xf32> loc("state.wedge.friction"), %arg38: tensor<0xf32> loc("state.wedge.restitution"), %arg39: tensor<0xi32> loc("state.wedge.collision_mode"), %arg40: tensor<0xi1> loc("state.wedge.active"), %arg41: tensor<0x3xf32> loc("state.wedge.half_extents"), %arg42: tensor<0xf32> loc("state.wedge.radius"), %arg43: tensor<0x8x2xf32> loc("state.wedge.vertices"), %arg44: tensor<0xi32> loc("state.wedge.n_vertices"), %arg45: tensor<0x3xf32> loc("state.prism.position"), %arg46: tensor<0x4xf32> loc("state.prism.quat"), %arg47: tensor<0x3xf32> loc("state.prism.velocity"), %arg48: tensor<0x3xf32> loc("state.prism.angular_velocity"), %arg49: tensor<0xf32> loc("state.prism.inverse_mass"), %arg50: tensor<0x3xf32> loc("state.prism.inverse_inertia_local"), %arg51: tensor<0x3x3xf32> loc("state.prism.inverse_inertia_world"), %arg52: tensor<0xf32> loc("state.prism.friction"), %arg53: tensor<0xf32> loc("state.prism.restitution"), %arg54: tensor<0xi32> loc("state.prism.collision_mode"), %arg55: tensor<0xi1> loc("state.prism.active"), %arg56: tensor<0x3xf32> loc("state.prism.half_extents"), %arg57: tensor<0xf32> loc("state.prism.radius"), %arg58: tensor<0x8x2xf32> loc("state.prism.vertices"), %arg59: tensor<0xi32> loc("state.prism.n_vertices"), %arg60: tensor<4xi32> loc("state.joint.a_index"), %arg61: tensor<4xi32> loc("state.joint.b_index"), %arg62: tensor<4x3xf32> loc("state.joint.a_local_anchor"), %arg63: tensor<4x3xf32> loc("state.joint.b_local_anchor"), %arg64: tensor<4x3xf32> loc("state.joint.global_position"), %arg65: tensor<4xi1> loc("state.joint.active"), %arg66: tensor<4xi32> loc("state.joint.joint_type"), %arg67: tensor<4x3xf32> loc("state.joint.acc_point_impulse"), %arg68: tensor<4x3xf32> loc("state.joint.a_local_hinge_axis"), %arg69: tensor<4x3xf32> loc("state.joint.b_local_hinge_axis"), %arg70: tensor<4x2xf32> loc("state.joint.acc_perp_impulse"), %arg71: tensor<4xi1> loc("state.joint.motor_on"), %arg72: tensor<4xf32> loc("state.joint.motor_speed"), %arg73: tensor<4xf32> loc("state.joint.motor_power"), %arg74: tensor<4xi1> loc("state.joint.motor_has_joint_limits"), %arg75: tensor<4xf32> loc("state.joint.min_rotation"), %arg76: tensor<4xf32> loc("state.joint.max_rotation"), %arg77: tensor<4x4xf32> loc("state.joint.target_relative_rotation"), %arg78: tensor<4x3xf32> loc("state.joint.acc_angular_impulse"), %arg79: tensor<0xi32> loc("state.thruster.object_index"), %arg80: tensor<0x3xf32> loc("state.thruster.relative_position"), %arg81: tensor<0x3xf32> loc("state.thruster.local_direction"), %arg82: tensor<0xf32> loc("state.thruster.power"), %arg83: tensor<0x3xf32> loc("state.thruster.global_position"), %arg84: tensor<0xi1> loc("state.thruster.active"), %arg85: tensor<9x9xi1> loc("state.collision_matrix"), %arg86: tensor<4x4x3xf32> loc("state.acc_bb_manifolds.normal"), %arg87: tensor<4x4x3xf32> loc("state.acc_bb_manifolds.point"), %arg88: tensor<4x4xf32> loc("state.acc_bb_manifolds.separation"), %arg89: tensor<4x4xi1> loc("state.acc_bb_manifolds.active"), %arg90: tensor<4x4xf32> loc("state.acc_bb_manifolds.acc_impulse_normal"), %arg91: tensor<4x4x2xf32> loc("state.acc_bb_manifolds.acc_impulse_tangent"), %arg92: tensor<4x4xf32> loc("state.acc_bb_manifolds.restitution_velocity_target"), %arg93: tensor<20x3xf32> loc("state.acc_bs_manifolds.normal"), %arg94: tensor<20x3xf32> loc("state.acc_bs_manifolds.point"), %arg95: tensor<20xf32> loc("state.acc_bs_manifolds.separation"), %arg96: tensor<20xi1> loc("state.acc_bs_manifolds.active"), %arg97: tensor<20xf32> loc("state.acc_bs_manifolds.acc_impulse_normal"), %arg98: tensor<20x2xf32> loc("state.acc_bs_manifolds.acc_impulse_tangent"), %arg99: tensor<20xf32> loc("state.acc_bs_manifolds.restitution_velocity_target"), %arg100: tensor<6x3xf32> loc("state.acc_ss_manifolds.normal"), %arg101: tensor<6x3xf32> loc("state.acc_ss_manifolds.point"), %arg102: tensor<6xf32> loc("state.acc_ss_manifolds.separation"), %arg103: tensor<6xi1> loc("state.acc_ss_manifolds.active"), %arg104: tensor<6xf32> loc("state.acc_ss_manifolds.acc_impulse_normal"), %arg105: tensor<6x2xf32> loc("state.acc_ss_manifolds.acc_impulse_tangent"), %arg106: tensor<6xf32> loc("state.acc_ss_manifolds.restitution_velocity_target"), %arg107: tensor<0x3xf32> loc("state.acc_bw_manifolds.normal"), %arg108: tensor<0x3xf32> loc("state.acc_bw_manifolds.point"), %arg109: tensor<0xf32> loc("state.acc_bw_manifolds.separation"), %arg110: tensor<0xi1> loc("state.acc_bw_manifolds.active"), %arg111: tensor<0xf32> loc("state.acc_bw_manifolds.acc_impulse_normal"), %arg112: tensor<0x2xf32> loc("state.acc_bw_manifolds.acc_impulse_tangent"), %arg113: tensor<0xf32> loc("state.acc_bw_manifolds.restitution_velocity_target"), %arg114: tensor<0x3xf32> loc("state.acc_sw_manifolds.normal"), %arg115: tensor<0x3xf32> loc("state.acc_sw_manifolds.point"), %arg116: tensor<0xf32> loc("state.acc_sw_manifolds.separation"), %arg117: tensor<0xi1> loc("state.acc_sw_manifolds.active"), %arg118: tensor<0xf32> loc("state.acc_sw_manifolds.acc_impulse_normal"), %arg119: tensor<0x2xf32> loc("state.acc_sw_manifolds.acc_impulse_tangent"), %arg120: tensor<0xf32> loc("state.acc_sw_manifolds.restitution_velocity_target"), %arg121: tensor<0x3xf32> loc("state.acc_bp_manifolds.normal"), %arg122: tensor<0x3xf32> loc("state.acc_bp_manifolds.point"), %arg123: tensor<0xf32> loc("state.acc_bp_manifolds.separation"), %arg124: tensor<0xi1> loc("state.acc_bp_manifolds.active"), %arg125: tensor<0xf32> loc("state.acc_bp_manifolds.acc_impulse_normal"), %arg126: tensor<0x2xf32> loc("state.acc_bp_manifolds.acc_impulse_tangent"), %arg127: tensor<0xf32> loc("state.acc_bp_manifolds.restitution_velocity_target"), %arg128: tensor<0x3xf32> loc("state.acc_sp_manifolds.normal"), %arg129: tensor<0x3xf32> loc("state.acc_sp_manifolds.point"), %arg130: tensor<0xf32> loc("state.acc_sp_manifolds.separation"), %arg131: tensor<0xi1> loc("state.acc_sp_manifolds.active"), %arg132: tensor<0xf32> loc("state.acc_sp_manifolds.acc_impulse_normal"), %arg133: tensor<0x2xf32> loc("state.acc_sp_manifolds.acc_impulse_tangent"), %arg134: tensor<0xf32> loc("state.acc_sp_manifolds.restitution_velocity_target"), %arg135: tensor<3xf32> loc("state.gravity"), %arg136: tensor<4xf32> loc("actions")) -> (tensor<5x3xf32> {jax.result_info = "result.box.position"}, tensor<5x4xf32> {jax.result_info = "result.box.quat"}, tensor<5x3xf32> {jax.result_info = "result.box.velocity"}, tensor<5x3xf32> {jax.result_info = "result.box.angular_velocity"}, tensor<5xf32> {jax.result_info = "result.box.inverse_mass"}, tensor<5x3xf32> {jax.result_info = "result.box.inverse_inertia_local"}, tensor<5x3x3xf32> {jax.result_info = "result.box.inverse_inertia_world"}, tensor<5xf32> {jax.result_info = "result.box.friction"}, tensor<5xf32> {jax.result_info = "result.box.restitution"}, tensor<5xi32> {jax.result_info = "result.box.collision_mode"}, tensor<5xi1> {jax.result_info = "result.box.active"}, tensor<5x3xf32> {jax.result_info = "result.box.half_extents"}, tensor<5xf32> {jax.result_info = "result.box.radius"}, tensor<5x8x2xf32> {jax.result_info = "result.box.vertices"}, tensor<5xi32> {jax.result_info = "result.box.n_vertices"}, tensor<4x3xf32> {jax.result_info = "result.sphere.position"}, tensor<4x4xf32> {jax.result_info = "result.sphere.quat"}, tensor<4x3xf32> {jax.result_info = "result.sphere.velocity"}, tensor<4x3xf32> {jax.result_info = "result.sphere.angular_velocity"}, tensor<4xf32> {jax.result_info = "result.sphere.inverse_mass"}, tensor<4x3xf32> {jax.result_info = "result.sphere.inverse_inertia_local"}, tensor<4x3x3xf32> {jax.result_info = "result.sphere.inverse_inertia_world"}, tensor<4xf32> {jax.result_info = "result.sphere.friction"}, tensor<4xf32> {jax.result_info = "result.sphere.restitution"}, tensor<4xi32> {jax.result_info = "result.sphere.collision_mode"}, tensor<4xi1> {jax.result_info = "result.sphere.active"}, tensor<4x3xf32> {jax.result_info = "result.sphere.half_extents"}, tensor<4xf32> {jax.result_info = "result.sphere.radius"}, tensor<4x8x2xf32> {jax.result_info = "result.sphere.vertices"}, tensor<4xi32> {jax.result_info = "result.sphere.n_vertices"}, tensor<0x3xf32> {jax.result_info = "result.wedge.position"}, tensor<0x4xf32> {jax.result_info = "result.wedge.quat"}, tensor<0x3xf32> {jax.result_info = "result.wedge.velocity"}, tensor<0x3xf32> {jax.result_info = "result.wedge.angular_velocity"}, tensor<0xf32> {jax.result_info = "result.wedge.inverse_mass"}, tensor<0x3xf32> {jax.result_info = "result.wedge.inverse_inertia_local"}, tensor<0x3x3xf32> {jax.result_info = "result.wedge.inverse_inertia_world"}, tensor<0xf32> {jax.result_info = "result.wedge.friction"}, tensor<0xf32> {jax.result_info = "result.wedge.restitution"}, tensor<0xi32> {jax.result_info = "result.wedge.collision_mode"}, tensor<0xi1> {jax.result_info = "result.wedge.active"}, tensor<0x3xf32> {jax.result_info = "result.wedge.half_extents"}, tensor<0xf32> {jax.result_info = "result.wedge.radius"}, tensor<0x8x2xf32> {jax.result_info = "result.wedge.vertices"}, tensor<0xi32> {jax.result_info = "result.wedge.n_vertices"}, tensor<0x3xf32> {jax.result_info = "result.prism.position"}, tensor<0x4xf32> {jax.result_info = "result.prism.quat"}, tensor<0x3xf32> {jax.result_info = "result.prism.velocity"}, tensor<0x3xf32> {jax.result_info = "result.prism.angular_velocity"}, tensor<0xf32> {jax.result_info = "result.prism.inverse_mass"}, tensor<0x3xf32> {jax.result_info = "result.prism.inverse_inertia_local"}, tensor<0x3x3xf32> {jax.result_info = "result.prism.inverse_inertia_world"}, tensor<0xf32> {jax.result_info = "result.prism.friction"}, tensor<0xf32> {jax.result_info = "result.prism.restitution"}, tensor<0xi32> {jax.result_info = "result.prism.collision_mode"}, tensor<0xi1> {jax.result_info = "result.prism.active"}, tensor<0x3xf32> {jax.result_info = "result.prism.half_extents"}, tensor<0xf32> {jax.result_info = "result.prism.radius"}, tensor<0x8x2xf32> {jax.result_info = "result.prism.vertices"}, tensor<0xi32> {jax.result_info = "result.prism.n_vertices"}, tensor<4xi32> {jax.result_info = "result.joint.a_index"}, tensor<4xi32> {jax.result_info = "result.joint.b_index"}, tensor<4x3xf32> {jax.result_info = "result.joint.a_local_anchor"}, tensor<4x3xf32> {jax.result_info = "result.joint.b_local_anchor"}, tensor<4x3xf32> {jax.result_info = "result.joint.global_position"}, tensor<4xi1> {jax.result_info = "result.joint.active"}, tensor<4xi32> {jax.result_info = "result.joint.joint_type"}, tensor<4x3xf32> {jax.result_info = "result.joint.acc_point_impulse"}, tensor<4x3xf32> {jax.result_info = "result.joint.a_local_hinge_axis"}, tensor<4x3xf32> {jax.result_info = "result.joint.b_local_hinge_axis"}, tensor<4x2xf32> {jax.result_info = "result.joint.acc_perp_impulse"}, tensor<4xi1> {jax.result_info = "result.joint.motor_on"}, tensor<4xf32> {jax.result_info = "result.joint.motor_speed"}, tensor<4xf32> {jax.result_info = "result.joint.motor_power"}, tensor<4xi1> {jax.result_info = "result.joint.motor_has_joint_limits"}, tensor<4xf32> {jax.result_info = "result.joint.min_rotation"}, tensor<4xf32> {jax.result_info = "result.joint.max_rotation"}, tensor<4x4xf32> {jax.result_info = "result.joint.target_relative_rotation"}, tensor<4x3xf32> {jax.result_info = "result.joint.acc_angular_impulse"}, tensor<0xi32> {jax.result_info = "result.thruster.object_index"}, tensor<0x3xf32> {jax.result_info = "result.thruster.relative_position"}, tensor<0x3xf32> {jax.result_info = "result.thruster.local_direction"}, tensor<0xf32> {jax.result_info = "result.thruster.power"}, tensor<0x3xf32> {jax.result_info = "result.thruster.global_position"}, tensor<0xi1> {jax.result_info = "result.thruster.active"}, tensor<9x9xi1> {jax.result_info = "result.collision_matrix"}, tensor<4x4x3xf32> {jax.result_info = "result.acc_bb_manifolds.normal"}, tensor<4x4x3xf32> {jax.result_info = "result.acc_bb_manifolds.point"}, tensor<4x4xf32> {jax.result_info = "result.acc_bb_manifolds.separation"}, tensor<4x4xi1> {jax.result_info = "result.acc_bb_manifolds.active"}, tensor<4x4xf32> {jax.result_info = "result.acc_bb_manifolds.acc_impulse_normal"}, tensor<4x4x2xf32> {jax.result_info = "result.acc_bb_manifolds.acc_impulse_tangent"}, tensor<4x4xf32> {jax.result_info = "result.acc_bb_manifolds.restitution_velocity_target"}, tensor<20x3xf32> {jax.result_info = "result.acc_bs_manifolds.normal"}, tensor<20x3xf32> {jax.result_info = "result.acc_bs_manifolds.point"}, tensor<20xf32> {jax.result_info = "result.acc_bs_manifolds.separation"}, tensor<20xi1> {jax.result_info = "result.acc_bs_manifolds.active"}, tensor<20xf32> {jax.result_info = "result.acc_bs_manifolds.acc_impulse_normal"}, tensor<20x2xf32> {jax.result_info = "result.acc_bs_manifolds.acc_impulse_tangent"}, tensor<20xf32> {jax.result_info = "result.acc_bs_manifolds.restitution_velocity_target"}, tensor<6x3xf32> {jax.result_info = "result.acc_ss_manifolds.normal"}, tensor<6x3xf32> {jax.result_info = "result.acc_ss_manifolds.point"}, tensor<6xf32> {jax.result_info = "result.acc_ss_manifolds.separation"}, tensor<6xi1> {jax.result_info = "result.acc_ss_manifolds.active"}, tensor<6xf32> {jax.result_info = "result.acc_ss_manifolds.acc_impulse_normal"}, tensor<6x2xf32> {jax.result_info = "result.acc_ss_manifolds.acc_impulse_tangent"}, tensor<6xf32> {jax.result_info = "result.acc_ss_manifolds.restitution_velocity_target"}, tensor<0x3xf32> {jax.result_info = "result.acc_bw_manifolds.normal"}, tensor<0x3xf32> {jax.result_info = "result.acc_bw_manifolds.point"}, tensor<0xf32> {jax.result_info = "result.acc_bw_manifolds.separation"}, tensor<0xi1> {jax.result_info = "result.acc_bw_manifolds.active"}, tensor<0xf32> {jax.result_info = "result.acc_bw_manifolds.acc_impulse_normal"}, tensor<0x2xf32> {jax.result_info = "result.acc_bw_manifolds.acc_impulse_tangent"}, tensor<0xf32> {jax.result_info = "result.acc_bw_manifolds.restitution_velocity_target"}, tensor<0x3xf32> {jax.result_info = "result.acc_sw_manifolds.normal"}, tensor<0x3xf32> {jax.result_info = "result.acc_sw_manifolds.point"}, tensor<0xf32> {jax.result_info = "result.acc_sw_manifolds.separation"}, tensor<0xi1> {jax.result_info = "result.acc_sw_manifolds.active"}, tensor<0xf32> {jax.result_info = "result.acc_sw_manifolds.acc_impulse_normal"}, tensor<0x2xf32> {jax.result_info = "result.acc_sw_manifolds.acc_impulse_tangent"}, tensor<0xf32> {jax.result_info = "result.acc_sw_manifolds.restitution_velocity_target"}, tensor<0x3xf32> {jax.result_info = "result.acc_bp_manifolds.normal"}, tensor<0x3xf32> {jax.result_info = "result.acc_bp_manifolds.point"}, tensor<0xf32> {jax.result_info = "result.acc_bp_manifolds.separation"}, tensor<0xi1> {jax.result_info = "result.acc_bp_manifolds.active"}, tensor<0xf32> {jax.result_info = "result.acc_bp_manifolds.acc_impulse_normal"}, tensor<0x2xf32> {jax.result_info = "result.acc_bp_manifolds.acc_impulse_tangent"}, tensor<0xf32> {jax.result_info = "result.acc_bp_manifolds.restitution_velocity_target"}, tensor<0x3xf32> {jax.result_info = "result.acc_sp_manifolds.normal"}, tensor<0x3xf32> {jax.result_info = "result.acc_sp_manifolds.point"}, tensor<0xf32> {jax.result_info = "result.acc_sp_manifolds.separation"}, tensor<0xi1> {jax.result_info = "result.acc_sp_manifolds.active"}, tensor<0xf32> {jax.result_info = "result.acc_sp_manifolds.acc_impulse_normal"}, tensor<0x2xf32> {jax.result_info = "result.acc_sp_manifolds.acc_impulse_tangent"}, tensor<0xf32> {jax.result_info = "result.acc_sp_manifolds.restitution_velocity_target"}, tensor<3xf32> {jax.result_info = "result.gravity"}) {
    %c = stablehlo.constant dense<-100> : tensor<i32> loc(#loc)
    %c_0 = stablehlo.constant dense<100> : tensor<i32> loc(#loc)
    %c_1 = stablehlo.constant dense<-15> : tensor<i32> loc(#loc)
    %c_2 = stablehlo.constant dense<15> : tensor<i32> loc(#loc)
    %cst = stablehlo.constant dense<5.000000e+01> : tensor<f32> loc(#loc)
    %cst_3 = stablehlo.constant dense<9.99999996E-13> : tensor<f32> loc(#loc)
    %cst_4 = stablehlo.constant dense<0.00833333377> : tensor<f32> loc(#loc)
    %c_5 = stablehlo.constant dense<10> : tensor<i32> loc(#loc)
    %cst_6 = stablehlo.constant dense<1.000000e-01> : tensor<f32> loc(#loc)
    %cst_7 = stablehlo.constant dense<6.000000e+00> : tensor<f32> loc(#loc2823)
    %cst_8 = stablehlo.constant dense<9.000000e+02> : tensor<f32> loc(#loc2823)
    %c_9 = stablehlo.constant dense<6> : tensor<i32> loc(#loc)
    %c_10 = stablehlo.constant dense<20> : tensor<i32> loc(#loc)
    %cst_11 = stablehlo.constant dense<0.899999976> : tensor<f32> loc(#loc2823)
    %cst_12 = stablehlo.constant dense<5.000000e-01> : tensor<f32> loc(#loc)
    %cst_13 = stablehlo.constant dense<-1.000000e+09> : tensor<f32> loc(#loc)
    %cst_14 = stablehlo.constant dense<1.000000e+09> : tensor<f32> loc(#loc)
    %c_15 = stablehlo.constant dense<16> : tensor<i32> loc(#loc)
    %c_16 = stablehlo.constant dense<true> : tensor<i1> loc(#loc)
    %c_17 = stablehlo.constant dense<false> : tensor<i1> loc(#loc)
    %cst_18 = stablehlo.constant dense<-1.000000e+00> : tensor<f32> loc(#loc)
    %cst_19 = stablehlo.constant dense<5.000000e-03> : tensor<f32> loc(#loc)
    %c_20 = stablehlo.constant dense<9> : tensor<i32> loc(#loc)
    %cst_21 = stablehlo.constant dense<9.99999997E-7> : tensor<f32> loc(#loc)
    %cst_22 = stablehlo.constant dense<0xFF800000> : tensor<f32> loc(#loc)
    %c_23 = stablehlo.constant dense<1> : tensor<i32> loc(#loc)
    %c_24 = stablehlo.constant dense<2> : tensor<i32> loc(#loc)
    %c_25 = stablehlo.constant dense<8> : tensor<i32> loc(#loc)
    %c_26 = stablehlo.constant dense<4> : tensor<i32> loc(#loc)
    %c_27 = stablehlo.constant dense<3> : tensor<i32> loc(#loc)
    %c_28 = stablehlo.constant dense<5> : tensor<i32> loc(#loc)
    %c_29 = stablehlo.constant dense<0> : tensor<i32> loc(#loc)
    %cst_30 = stablehlo.constant dense<0.000000e+00> : tensor<f32> loc(#loc)
    %cst_31 = stablehlo.constant dense<0.0166666675> : tensor<f32> loc(#loc)
    %cst_32 = stablehlo.constant dense<1.000000e+00> : tensor<f32> loc(#loc)
    %cst_33 = stablehlo.constant dense<2.000000e+00> : tensor<f32> loc(#loc)
    %c_34 = stablehlo.constant dense<[[0, 4], [1, 4], [2, 4], [3, 4]]> : tensor<4x2xi32> loc(#loc2823)
    %cst_35 = stablehlo.constant dense<[[1.000000e+00, 1.000000e+00], [-1.000000e+00, 1.000000e+00], [-1.000000e+00, -1.000000e+00], [1.000000e+00, -1.000000e+00]]> : tensor<4x2xf32> loc(#loc2823)
    %c_36 = stablehlo.constant dense<[[0, 0], [0, 1], [0, 2], [0, 3], [1, 0], [1, 1], [1, 2], [1, 3], [2, 0], [2, 1], [2, 2], [2, 3], [3, 0], [3, 1], [3, 2], [3, 3], [4, 0], [4, 1], [4, 2], [4, 3]]> : tensor<20x2xi32> loc(#loc2823)
    %c_37 = stablehlo.constant dense<[[0, 1], [0, 2], [0, 3], [1, 2], [1, 3], [2, 3]]> : tensor<6x2xi32> loc(#loc2823)
    %cst_38 = stablehlo.constant dense<[0.000000e+00, 0.000000e+00, 0.000000e+00, 1.000000e+00]> : tensor<4xf32> loc(#loc2823)
    %0 = stablehlo.slice %arg1 [0:5, 0:1] : (tensor<5x4xf32>) -> tensor<5x1xf32> loc(#loc4928)
    %1 = stablehlo.reshape %0 : (tensor<5x1xf32>) -> tensor<5xf32> loc(#loc4929)
    %2 = stablehlo.slice %arg1 [0:5, 1:2] : (tensor<5x4xf32>) -> tensor<5x1xf32> loc(#loc4928)
    %3 = stablehlo.reshape %2 : (tensor<5x1xf32>) -> tensor<5xf32> loc(#loc4929)
    %4 = stablehlo.slice %arg1 [0:5, 2:3] : (tensor<5x4xf32>) -> tensor<5x1xf32> loc(#loc4928)
    %5 = stablehlo.reshape %4 : (tensor<5x1xf32>) -> tensor<5xf32> loc(#loc4929)
    %6 = stablehlo.slice %arg1 [0:5, 3:4] : (tensor<5x4xf32>) -> tensor<5x1xf32> loc(#loc4928)
    %7 = stablehlo.reshape %6 : (tensor<5x1xf32>) -> tensor<5xf32> loc(#loc4929)
    %8 = stablehlo.multiply %3, %3 : tensor<5xf32> loc(#loc4930)
    %9 = stablehlo.multiply %5, %5 : tensor<5xf32> loc(#loc4931)
    %10 = stablehlo.add %8, %9 : tensor<5xf32> loc(#loc4932)
    %11 = stablehlo.broadcast_in_dim %cst_33, dims = [] : (tensor<f32>) -> tensor<5xf32> loc(#loc4933)
    %12 = stablehlo.multiply %11, %10 : tensor<5xf32> loc(#loc4933)
    %13 = stablehlo.broadcast_in_dim %cst_32, dims = [] : (tensor<f32>) -> tensor<5xf32> loc(#loc4934)
    %14 = stablehlo.subtract %13, %12 : tensor<5xf32> loc(#loc4934)
    %15 = stablehlo.multiply %1, %3 : tensor<5xf32> loc(#loc4935)
    %16 = stablehlo.multiply %7, %5 : tensor<5xf32> loc(#loc4936)
    %17 = stablehlo.subtract %15, %16 : tensor<5xf32> loc(#loc4937)
    %18 = stablehlo.broadcast_in_dim %cst_33, dims = [] : (tensor<f32>) -> tensor<5xf32> loc(#loc4938)
    %19 = stablehlo.multiply %18, %17 : tensor<5xf32> loc(#loc4938)
    %20 = stablehlo.multiply %1, %5 : tensor<5xf32> loc(#loc4939)
    %21 = stablehlo.multiply %7, %3 : tensor<5xf32> loc(#loc4940)
    %22 = stablehlo.add %20, %21 : tensor<5xf32> loc(#loc4941)
    %23 = stablehlo.broadcast_in_dim %cst_33, dims = [] : (tensor<f32>) -> tensor<5xf32> loc(#loc4942)
    %24 = stablehlo.multiply %23, %22 : tensor<5xf32> loc(#loc4942)
    %25 = stablehlo.multiply %1, %3 : tensor<5xf32> loc(#loc4943)
    %26 = stablehlo.multiply %7, %5 : tensor<5xf32> loc(#loc4944)
    %27 = stablehlo.add %25, %26 : tensor<5xf32> loc(#loc4945)
    %28 = stablehlo.broadcast_in_dim %cst_33, dims = [] : (tensor<f32>) -> tensor<5xf32> loc(#loc4946)
    %29 = stablehlo.multiply %28, %27 : tensor<5xf32> loc(#loc4946)
    %30 = stablehlo.multiply %1, %1 : tensor<5xf32> loc(#loc4947)
    %31 = stablehlo.multiply %5, %5 : tensor<5xf32> loc(#loc4948)
    %32 = stablehlo.add %30, %31 : tensor<5xf32> loc(#loc4949)
    %33 = stablehlo.broadcast_in_dim %cst_33, dims = [] : (tensor<f32>) -> tensor<5xf32> loc(#loc4950)
    %34 = stablehlo.multiply %33, %32 : tensor<5xf32> loc(#loc4950)
    %35 = stablehlo.broadcast_in_dim %cst_32, dims = [] : (tensor<f32>) -> tensor<5xf32> loc(#loc4951)
    %36 = stablehlo.subtract %35, %34 : tensor<5xf32> loc(#loc4951)
    %37 = stablehlo.multiply %3, %5 : tensor<5xf32> loc(#loc4952)
    %38 = stablehlo.multiply %7, %1 : tensor<5xf32> loc(#loc4953)
    %39 = stablehlo.subtract %37, %38 : tensor<5xf32> loc(#loc4954)
    %40 = stablehlo.broadcast_in_dim %cst_33, dims = [] : (tensor<f32>) -> tensor<5xf32> loc(#loc4955)
    %41 = stablehlo.multiply %40, %39 : tensor<5xf32> loc(#loc4955)
    %42 = stablehlo.multiply %1, %5 : tensor<5xf32> loc(#loc4956)
    %43 = stablehlo.multiply %7, %3 : tensor<5xf32> loc(#loc4957)
    %44 = stablehlo.subtract %42, %43 : tensor<5xf32> loc(#loc4958)
    %45 = stablehlo.broadcast_in_dim %cst_33, dims = [] : (tensor<f32>) -> tensor<5xf32> loc(#loc4959)
    %46 = stablehlo.multiply %45, %44 : tensor<5xf32> loc(#loc4959)
    %47 = stablehlo.multiply %3, %5 : tensor<5xf32> loc(#loc4960)
    %48 = stablehlo.multiply %7, %1 : tensor<5xf32> loc(#loc4961)
    %49 = stablehlo.add %47, %48 : tensor<5xf32> loc(#loc4962)
    %50 = stablehlo.broadcast_in_dim %cst_33, dims = [] : (tensor<f32>) -> tensor<5xf32> loc(#loc4963)
    %51 = stablehlo.multiply %50, %49 : tensor<5xf32> loc(#loc4963)
    %52 = stablehlo.multiply %1, %1 : tensor<5xf32> loc(#loc4964)
    %53 = stablehlo.multiply %3, %3 : tensor<5xf32> loc(#loc4965)
    %54 = stablehlo.add %52, %53 : tensor<5xf32> loc(#loc4966)
    %55 = stablehlo.broadcast_in_dim %cst_33, dims = [] : (tensor<f32>) -> tensor<5xf32> loc(#loc4967)
    %56 = stablehlo.multiply %55, %54 : tensor<5xf32> loc(#loc4967)
    %57 = stablehlo.broadcast_in_dim %cst_32, dims = [] : (tensor<f32>) -> tensor<5xf32> loc(#loc4968)
    %58 = stablehlo.subtract %57, %56 : tensor<5xf32> loc(#loc4968)
    %59 = stablehlo.broadcast_in_dim %14, dims = [0] : (tensor<5xf32>) -> tensor<5x1xf32> loc(#loc4969)
    %60 = stablehlo.broadcast_in_dim %19, dims = [0] : (tensor<5xf32>) -> tensor<5x1xf32> loc(#loc4969)
    %61 = stablehlo.broadcast_in_dim %24, dims = [0] : (tensor<5xf32>) -> tensor<5x1xf32> loc(#loc4969)
    %62 = stablehlo.concatenate %59, %60, %61, dim = 1 : (tensor<5x1xf32>, tensor<5x1xf32>, tensor<5x1xf32>) -> tensor<5x3xf32> loc(#loc4970)
    %63 = stablehlo.broadcast_in_dim %62, dims = [0, 2] : (tensor<5x3xf32>) -> tensor<5x1x3xf32> loc(#loc4969)
    %64 = stablehlo.broadcast_in_dim %29, dims = [0] : (tensor<5xf32>) -> tensor<5x1xf32> loc(#loc4969)
    %65 = stablehlo.broadcast_in_dim %36, dims = [0] : (tensor<5xf32>) -> tensor<5x1xf32> loc(#loc4969)
    %66 = stablehlo.broadcast_in_dim %41, dims = [0] : (tensor<5xf32>) -> tensor<5x1xf32> loc(#loc4969)
    %67 = stablehlo.concatenate %64, %65, %66, dim = 1 : (tensor<5x1xf32>, tensor<5x1xf32>, tensor<5x1xf32>) -> tensor<5x3xf32> loc(#loc4970)
    %68 = stablehlo.broadcast_in_dim %67, dims = [0, 2] : (tensor<5x3xf32>) -> tensor<5x1x3xf32> loc(#loc4969)
    %69 = stablehlo.broadcast_in_dim %46, dims = [0] : (tensor<5xf32>) -> tensor<5x1xf32> loc(#loc4969)
    %70 = stablehlo.broadcast_in_dim %51, dims = [0] : (tensor<5xf32>) -> tensor<5x1xf32> loc(#loc4969)
    %71 = stablehlo.broadcast_in_dim %58, dims = [0] : (tensor<5xf32>) -> tensor<5x1xf32> loc(#loc4969)
    %72 = stablehlo.concatenate %69, %70, %71, dim = 1 : (tensor<5x1xf32>, tensor<5x1xf32>, tensor<5x1xf32>) -> tensor<5x3xf32> loc(#loc4970)
    %73 = stablehlo.broadcast_in_dim %72, dims = [0, 2] : (tensor<5x3xf32>) -> tensor<5x1x3xf32> loc(#loc4969)
    %74 = stablehlo.concatenate %63, %68, %73, dim = 1 : (tensor<5x1x3xf32>, tensor<5x1x3xf32>, tensor<5x1x3xf32>) -> tensor<5x3x3xf32> loc(#loc4970)
    %75 = call @_diag(%arg5) : (tensor<5x3xf32>) -> tensor<5x3x3xf32> loc(#loc4292)
    %76 = stablehlo.dot_general %74, %75, batching_dims = [0] x [0], contracting_dims = [2] x [1] : (tensor<5x3x3xf32>, tensor<5x3x3xf32>) -> tensor<5x3x3xf32> loc(#loc4293)
    %77 = stablehlo.transpose %74, dims = [0, 2, 1] : (tensor<5x3x3xf32>) -> tensor<5x3x3xf32> loc(#loc4294)
    %78 = stablehlo.dot_general %76, %77, batching_dims = [0] x [0], contracting_dims = [2] x [1] : (tensor<5x3x3xf32>, tensor<5x3x3xf32>) -> tensor<5x3x3xf32> loc(#loc4295)
    %79 = stablehlo.slice %arg16 [0:4, 0:1] : (tensor<4x4xf32>) -> tensor<4x1xf32> loc(#loc4971)
    %80 = stablehlo.reshape %79 : (tensor<4x1xf32>) -> tensor<4xf32> loc(#loc4972)
    %81 = stablehlo.slice %arg16 [0:4, 1:2] : (tensor<4x4xf32>) -> tensor<4x1xf32> loc(#loc4971)
    %82 = stablehlo.reshape %81 : (tensor<4x1xf32>) -> tensor<4xf32> loc(#loc4972)
    %83 = stablehlo.slice %arg16 [0:4, 2:3] : (tensor<4x4xf32>) -> tensor<4x1xf32> loc(#loc4971)
    %84 = stablehlo.reshape %83 : (tensor<4x1xf32>) -> tensor<4xf32> loc(#loc4972)
    %85 = stablehlo.slice %arg16 [0:4, 3:4] : (tensor<4x4xf32>) -> tensor<4x1xf32> loc(#loc4971)
    %86 = stablehlo.reshape %85 : (tensor<4x1xf32>) -> tensor<4xf32> loc(#loc4972)
    %87 = stablehlo.multiply %82, %82 : tensor<4xf32> loc(#loc4973)
    %88 = stablehlo.multiply %84, %84 : tensor<4xf32> loc(#loc4974)
    %89 = stablehlo.add %87, %88 : tensor<4xf32> loc(#loc4975)
    %90 = stablehlo.broadcast_in_dim %cst_33, dims = [] : (tensor<f32>) -> tensor<4xf32> loc(#loc4976)
    %91 = stablehlo.multiply %90, %89 : tensor<4xf32> loc(#loc4976)
    %92 = stablehlo.broadcast_in_dim %cst_32, dims = [] : (tensor<f32>) -> tensor<4xf32> loc(#loc4977)
    %93 = stablehlo.subtract %92, %91 : tensor<4xf32> loc(#loc4977)
    %94 = stablehlo.multiply %80, %82 : tensor<4xf32> loc(#loc4978)
    %95 = stablehlo.multiply %86, %84 : tensor<4xf32> loc(#loc4979)
    %96 = stablehlo.subtract %94, %95 : tensor<4xf32> loc(#loc4980)
    %97 = stablehlo.broadcast_in_dim %cst_33, dims = [] : (tensor<f32>) -> tensor<4xf32> loc(#loc4981)
    %98 = stablehlo.multiply %97, %96 : tensor<4xf32> loc(#loc4981)
    %99 = stablehlo.multiply %80, %84 : tensor<4xf32> loc(#loc4982)
    %100 = stablehlo.multiply %86, %82 : tensor<4xf32> loc(#loc4983)
    %101 = stablehlo.add %99, %100 : tensor<4xf32> loc(#loc4984)
    %102 = stablehlo.broadcast_in_dim %cst_33, dims = [] : (tensor<f32>) -> tensor<4xf32> loc(#loc4985)
    %103 = stablehlo.multiply %102, %101 : tensor<4xf32> loc(#loc4985)
    %104 = stablehlo.multiply %80, %82 : tensor<4xf32> loc(#loc4986)
    %105 = stablehlo.multiply %86, %84 : tensor<4xf32> loc(#loc4987)
    %106 = stablehlo.add %104, %105 : tensor<4xf32> loc(#loc4988)
    %107 = stablehlo.broadcast_in_dim %cst_33, dims = [] : (tensor<f32>) -> tensor<4xf32> loc(#loc4989)
    %108 = stablehlo.multiply %107, %106 : tensor<4xf32> loc(#loc4989)
    %109 = stablehlo.multiply %80, %80 : tensor<4xf32> loc(#loc4990)
    %110 = stablehlo.multiply %84, %84 : tensor<4xf32> loc(#loc4991)
    %111 = stablehlo.add %109, %110 : tensor<4xf32> loc(#loc4992)
    %112 = stablehlo.broadcast_in_dim %cst_33, dims = [] : (tensor<f32>) -> tensor<4xf32> loc(#loc4993)
    %113 = stablehlo.multiply %112, %111 : tensor<4xf32> loc(#loc4993)
    %114 = stablehlo.broadcast_in_dim %cst_32, dims = [] : (tensor<f32>) -> tensor<4xf32> loc(#loc4994)
    %115 = stablehlo.subtract %114, %113 : tensor<4xf32> loc(#loc4994)
    %116 = stablehlo.multiply %82, %84 : tensor<4xf32> loc(#loc4995)
    %117 = stablehlo.multiply %86, %80 : tensor<4xf32> loc(#loc4996)
    %118 = stablehlo.subtract %116, %117 : tensor<4xf32> loc(#loc4997)
    %119 = stablehlo.broadcast_in_dim %cst_33, dims = [] : (tensor<f32>) -> tensor<4xf32> loc(#loc4998)
    %120 = stablehlo.multiply %119, %118 : tensor<4xf32> loc(#loc4998)
    %121 = stablehlo.multiply %80, %84 : tensor<4xf32> loc(#loc4999)
    %122 = stablehlo.multiply %86, %82 : tensor<4xf32> loc(#loc5000)
    %123 = stablehlo.subtract %121, %122 : tensor<4xf32> loc(#loc5001)
    %124 = stablehlo.broadcast_in_dim %cst_33, dims = [] : (tensor<f32>) -> tensor<4xf32> loc(#loc5002)
    %125 = stablehlo.multiply %124, %123 : tensor<4xf32> loc(#loc5002)
    %126 = stablehlo.multiply %82, %84 : tensor<4xf32> loc(#loc5003)
    %127 = stablehlo.multiply %86, %80 : tensor<4xf32> loc(#loc5004)
    %128 = stablehlo.add %126, %127 : tensor<4xf32> loc(#loc5005)
    %129 = stablehlo.broadcast_in_dim %cst_33, dims = [] : (tensor<f32>) -> tensor<4xf32> loc(#loc5006)
    %130 = stablehlo.multiply %129, %128 : tensor<4xf32> loc(#loc5006)
    %131 = stablehlo.multiply %80, %80 : tensor<4xf32> loc(#loc5007)
    %132 = stablehlo.multiply %82, %82 : tensor<4xf32> loc(#loc5008)
    %133 = stablehlo.add %131, %132 : tensor<4xf32> loc(#loc5009)
    %134 = stablehlo.broadcast_in_dim %cst_33, dims = [] : (tensor<f32>) -> tensor<4xf32> loc(#loc5010)
    %135 = stablehlo.multiply %134, %133 : tensor<4xf32> loc(#loc5010)
    %136 = stablehlo.broadcast_in_dim %cst_32, dims = [] : (tensor<f32>) -> tensor<4xf32> loc(#loc5011)
    %137 = stablehlo.subtract %136, %135 : tensor<4xf32> loc(#loc5011)
    %138 = stablehlo.broadcast_in_dim %93, dims = [0] : (tensor<4xf32>) -> tensor<4x1xf32> loc(#loc5012)
    %139 = stablehlo.broadcast_in_dim %98, dims = [0] : (tensor<4xf32>) -> tensor<4x1xf32> loc(#loc5012)
    %140 = stablehlo.broadcast_in_dim %103, dims = [0] : (tensor<4xf32>) -> tensor<4x1xf32> loc(#loc5012)
    %141 = stablehlo.concatenate %138, %139, %140, dim = 1 : (tensor<4x1xf32>, tensor<4x1xf32>, tensor<4x1xf32>) -> tensor<4x3xf32> loc(#loc5013)
    %142 = stablehlo.broadcast_in_dim %141, dims = [0, 2] : (tensor<4x3xf32>) -> tensor<4x1x3xf32> loc(#loc5012)
    %143 = stablehlo.broadcast_in_dim %108, dims = [0] : (tensor<4xf32>) -> tensor<4x1xf32> loc(#loc5012)
    %144 = stablehlo.broadcast_in_dim %115, dims = [0] : (tensor<4xf32>) -> tensor<4x1xf32> loc(#loc5012)
    %145 = stablehlo.broadcast_in_dim %120, dims = [0] : (tensor<4xf32>) -> tensor<4x1xf32> loc(#loc5012)
    %146 = stablehlo.concatenate %143, %144, %145, dim = 1 : (tensor<4x1xf32>, tensor<4x1xf32>, tensor<4x1xf32>) -> tensor<4x3xf32> loc(#loc5013)
    %147 = stablehlo.broadcast_in_dim %146, dims = [0, 2] : (tensor<4x3xf32>) -> tensor<4x1x3xf32> loc(#loc5012)
    %148 = stablehlo.broadcast_in_dim %125, dims = [0] : (tensor<4xf32>) -> tensor<4x1xf32> loc(#loc5012)
    %149 = stablehlo.broadcast_in_dim %130, dims = [0] : (tensor<4xf32>) -> tensor<4x1xf32> loc(#loc5012)
    %150 = stablehlo.broadcast_in_dim %137, dims = [0] : (tensor<4xf32>) -> tensor<4x1xf32> loc(#loc5012)
    %151 = stablehlo.concatenate %148, %149, %150, dim = 1 : (tensor<4x1xf32>, tensor<4x1xf32>, tensor<4x1xf32>) -> tensor<4x3xf32> loc(#loc5013)
    %152 = stablehlo.broadcast_in_dim %151, dims = [0, 2] : (tensor<4x3xf32>) -> tensor<4x1x3xf32> loc(#loc5012)
    %153 = stablehlo.concatenate %142, %147, %152, dim = 1 : (tensor<4x1x3xf32>, tensor<4x1x3xf32>, tensor<4x1x3xf32>) -> tensor<4x3x3xf32> loc(#loc5013)
    %154 = call @_diag_0(%arg20) : (tensor<4x3xf32>) -> tensor<4x3x3xf32> loc(#loc4337)
    %155 = stablehlo.dot_general %153, %154, batching_dims = [0] x [0], contracting_dims = [2] x [1] : (tensor<4x3x3xf32>, tensor<4x3x3xf32>) -> tensor<4x3x3xf32> loc(#loc4338)
    %156 = stablehlo.transpose %153, dims = [0, 2, 1] : (tensor<4x3x3xf32>) -> tensor<4x3x3xf32> loc(#loc4339)
    %157 = stablehlo.dot_general %155, %156, batching_dims = [0] x [0], contracting_dims = [2] x [1] : (tensor<4x3x3xf32>, tensor<4x3x3xf32>) -> tensor<4x3x3xf32> loc(#loc4340)
    %158 = stablehlo.slice %arg31 [0:0, 0:1] : (tensor<0x4xf32>) -> tensor<0x1xf32> loc(#loc5014)
    %159 = stablehlo.reshape %158 : (tensor<0x1xf32>) -> tensor<0xf32> loc(#loc5015)
    %160 = stablehlo.slice %arg31 [0:0, 1:2] : (tensor<0x4xf32>) -> tensor<0x1xf32> loc(#loc5014)
    %161 = stablehlo.reshape %160 : (tensor<0x1xf32>) -> tensor<0xf32> loc(#loc5015)
    %162 = stablehlo.slice %arg31 [0:0, 2:3] : (tensor<0x4xf32>) -> tensor<0x1xf32> loc(#loc5014)
    %163 = stablehlo.reshape %162 : (tensor<0x1xf32>) -> tensor<0xf32> loc(#loc5015)
    %164 = stablehlo.slice %arg31 [0:0, 3:4] : (tensor<0x4xf32>) -> tensor<0x1xf32> loc(#loc5014)
    %165 = stablehlo.reshape %164 : (tensor<0x1xf32>) -> tensor<0xf32> loc(#loc5015)
    %166 = stablehlo.multiply %161, %161 : tensor<0xf32> loc(#loc5016)
    %167 = stablehlo.multiply %163, %163 : tensor<0xf32> loc(#loc5017)
    %168 = stablehlo.add %166, %167 : tensor<0xf32> loc(#loc5018)
    %169 = stablehlo.broadcast_in_dim %cst_33, dims = [] : (tensor<f32>) -> tensor<0xf32> loc(#loc5019)
    %170 = stablehlo.multiply %169, %168 : tensor<0xf32> loc(#loc5019)
    %171 = stablehlo.broadcast_in_dim %cst_32, dims = [] : (tensor<f32>) -> tensor<0xf32> loc(#loc5020)
    %172 = stablehlo.subtract %171, %170 : tensor<0xf32> loc(#loc5020)
    %173 = stablehlo.multiply %159, %161 : tensor<0xf32> loc(#loc5021)
    %174 = stablehlo.multiply %165, %163 : tensor<0xf32> loc(#loc5022)
    %175 = stablehlo.subtract %173, %174 : tensor<0xf32> loc(#loc5023)
    %176 = stablehlo.broadcast_in_dim %cst_33, dims = [] : (tensor<f32>) -> tensor<0xf32> loc(#loc5024)
    %177 = stablehlo.multiply %176, %175 : tensor<0xf32> loc(#loc5024)
    %178 = stablehlo.multiply %159, %163 : tensor<0xf32> loc(#loc5025)
    %179 = stablehlo.multiply %165, %161 : tensor<0xf32> loc(#loc5026)
    %180 = stablehlo.add %178, %179 : tensor<0xf32> loc(#loc5027)
    %181 = stablehlo.broadcast_in_dim %cst_33, dims = [] : (tensor<f32>) -> tensor<0xf32> loc(#loc5028)
    %182 = stablehlo.multiply %181, %180 : tensor<0xf32> loc(#loc5028)
    %183 = stablehlo.multiply %159, %161 : tensor<0xf32> loc(#loc5029)
    %184 = stablehlo.multiply %165, %163 : tensor<0xf32> loc(#loc5030)
    %185 = stablehlo.add %183, %184 : tensor<0xf32> loc(#loc5031)
    %186 = stablehlo.broadcast_in_dim %cst_33, dims = [] : (tensor<f32>) -> tensor<0xf32> loc(#loc5032)
    %187 = stablehlo.multiply %186, %185 : tensor<0xf32> loc(#loc5032)
    %188 = stablehlo.multiply %159, %159 : tensor<0xf32> loc(#loc5033)
    %189 = stablehlo.multiply %163, %163 : tensor<0xf32> loc(#loc5034)
    %190 = stablehlo.add %188, %189 : tensor<0xf32> loc(#loc5035)
    %191 = stablehlo.broadcast_in_dim %cst_33, dims = [] : (tensor<f32>) -> tensor<0xf32> loc(#loc5036)
    %192 = stablehlo.multiply %191, %190 : tensor<0xf32> loc(#loc5036)
    %193 = stablehlo.broadcast_in_dim %cst_32, dims = [] : (tensor<f32>) -> tensor<0xf32> loc(#loc5037)
    %194 = stablehlo.subtract %193, %192 : tensor<0xf32> loc(#loc5037)
    %195 = stablehlo.multiply %161, %163 : tensor<0xf32> loc(#loc5038)
    %196 = stablehlo.multiply %165, %159 : tensor<0xf32> loc(#loc5039)
    %197 = stablehlo.subtract %195, %196 : tensor<0xf32> loc(#loc5040)
    %198 = stablehlo.broadcast_in_dim %cst_33, dims = [] : (tensor<f32>) -> tensor<0xf32> loc(#loc5041)
    %199 = stablehlo.multiply %198, %197 : tensor<0xf32> loc(#loc5041)
    %200 = stablehlo.multiply %159, %163 : tensor<0xf32> loc(#loc5042)
    %201 = stablehlo.multiply %165, %161 : tensor<0xf32> loc(#loc5043)
    %202 = stablehlo.subtract %200, %201 : tensor<0xf32> loc(#loc5044)
    %203 = stablehlo.broadcast_in_dim %cst_33, dims = [] : (tensor<f32>) -> tensor<0xf32> loc(#loc5045)
    %204 = stablehlo.multiply %203, %202 : tensor<0xf32> loc(#loc5045)
    %205 = stablehlo.multiply %161, %163 : tensor<0xf32> loc(#loc5046)
    %206 = stablehlo.multiply %165, %159 : tensor<0xf32> loc(#loc5047)
    %207 = stablehlo.add %205, %206 : tensor<0xf32> loc(#loc5048)
    %208 = stablehlo.broadcast_in_dim %cst_33, dims = [] : (tensor<f32>) -> tensor<0xf32> loc(#loc5049)
    %209 = stablehlo.multiply %208, %207 : tensor<0xf32> loc(#loc5049)
    %210 = stablehlo.multiply %159, %159 : tensor<0xf32> loc(#loc5050)
    %211 = stablehlo.multiply %161, %161 : tensor<0xf32> loc(#loc5051)
    %212 = stablehlo.add %210, %211 : tensor<0xf32> loc(#loc5052)
    %213 = stablehlo.broadcast_in_dim %cst_33, dims = [] : (tensor<f32>) -> tensor<0xf32> loc(#loc5053)
    %214 = stablehlo.multiply %213, %212 : tensor<0xf32> loc(#loc5053)
    %215 = stablehlo.broadcast_in_dim %cst_32, dims = [] : (tensor<f32>) -> tensor<0xf32> loc(#loc5054)
    %216 = stablehlo.subtract %215, %214 : tensor<0xf32> loc(#loc5054)
    %217 = stablehlo.broadcast_in_dim %172, dims = [0] : (tensor<0xf32>) -> tensor<0x1xf32> loc(#loc5055)
    %218 = stablehlo.broadcast_in_dim %177, dims = [0] : (tensor<0xf32>) -> tensor<0x1xf32> loc(#loc5055)
    %219 = stablehlo.broadcast_in_dim %182, dims = [0] : (tensor<0xf32>) -> tensor<0x1xf32> loc(#loc5055)
    %220 = stablehlo.concatenate %217, %218, %219, dim = 1 : (tensor<0x1xf32>, tensor<0x1xf32>, tensor<0x1xf32>) -> tensor<0x3xf32> loc(#loc5056)
    %221 = stablehlo.broadcast_in_dim %220, dims = [0, 2] : (tensor<0x3xf32>) -> tensor<0x1x3xf32> loc(#loc5055)
    %222 = stablehlo.broadcast_in_dim %187, dims = [0] : (tensor<0xf32>) -> tensor<0x1xf32> loc(#loc5055)
    %223 = stablehlo.broadcast_in_dim %194, dims = [0] : (tensor<0xf32>) -> tensor<0x1xf32> loc(#loc5055)
    %224 = stablehlo.broadcast_in_dim %199, dims = [0] : (tensor<0xf32>) -> tensor<0x1xf32> loc(#loc5055)
    %225 = stablehlo.concatenate %222, %223, %224, dim = 1 : (tensor<0x1xf32>, tensor<0x1xf32>, tensor<0x1xf32>) -> tensor<0x3xf32> loc(#loc5056)
    %226 = stablehlo.broadcast_in_dim %225, dims = [0, 2] : (tensor<0x3xf32>) -> tensor<0x1x3xf32> loc(#loc5055)
    %227 = stablehlo.broadcast_in_dim %204, dims = [0] : (tensor<0xf32>) -> tensor<0x1xf32> loc(#loc5055)
    %228 = stablehlo.broadcast_in_dim %209, dims = [0] : (tensor<0xf32>) -> tensor<0x1xf32> loc(#loc5055)
    %229 = stablehlo.broadcast_in_dim %216, dims = [0] : (tensor<0xf32>) -> tensor<0x1xf32> loc(#loc5055)
    %230 = stablehlo.concatenate %227, %228, %229, dim = 1 : (tensor<0x1xf32>, tensor<0x1xf32>, tensor<0x1xf32>) -> tensor<0x3xf32> loc(#loc5056)
    %231 = stablehlo.broadcast_in_dim %230, dims = [0, 2] : (tensor<0x3xf32>) -> tensor<0x1x3xf32> loc(#loc5055)
    %232 = stablehlo.concatenate %221, %226, %231, dim = 1 : (tensor<0x1x3xf32>, tensor<0x1x3xf32>, tensor<0x1x3xf32>) -> tensor<0x3x3xf32> loc(#loc5056)
    %233 = call @_diag_2(%arg35) : (tensor<0x3xf32>) -> tensor<0x3x3xf32> loc(#loc4382)
    %234 = stablehlo.dot_general %232, %233, batching_dims = [0] x [0], contracting_dims = [2] x [1] : (tensor<0x3x3xf32>, tensor<0x3x3xf32>) -> tensor<0x3x3xf32> loc(#loc4383)
    %235 = stablehlo.transpose %232, dims = [0, 2, 1] : (tensor<0x3x3xf32>) -> tensor<0x3x3xf32> loc(#loc4384)
    %236 = stablehlo.dot_general %234, %235, batching_dims = [0] x [0], contracting_dims = [2] x [1] : (tensor<0x3x3xf32>, tensor<0x3x3xf32>) -> tensor<0x3x3xf32> loc(#loc4385)
    %237 = stablehlo.slice %arg46 [0:0, 0:1] : (tensor<0x4xf32>) -> tensor<0x1xf32> loc(#loc5057)
    %238 = stablehlo.reshape %237 : (tensor<0x1xf32>) -> tensor<0xf32> loc(#loc5058)
    %239 = stablehlo.slice %arg46 [0:0, 1:2] : (tensor<0x4xf32>) -> tensor<0x1xf32> loc(#loc5057)
    %240 = stablehlo.reshape %239 : (tensor<0x1xf32>) -> tensor<0xf32> loc(#loc5058)
    %241 = stablehlo.slice %arg46 [0:0, 2:3] : (tensor<0x4xf32>) -> tensor<0x1xf32> loc(#loc5057)
    %242 = stablehlo.reshape %241 : (tensor<0x1xf32>) -> tensor<0xf32> loc(#loc5058)
    %243 = stablehlo.slice %arg46 [0:0, 3:4] : (tensor<0x4xf32>) -> tensor<0x1xf32> loc(#loc5057)
    %244 = stablehlo.reshape %243 : (tensor<0x1xf32>) -> tensor<0xf32> loc(#loc5058)
    %245 = stablehlo.multiply %240, %240 : tensor<0xf32> loc(#loc5059)
    %246 = stablehlo.multiply %242, %242 : tensor<0xf32> loc(#loc5060)
    %247 = stablehlo.add %245, %246 : tensor<0xf32> loc(#loc5061)
    %248 = stablehlo.broadcast_in_dim %cst_33, dims = [] : (tensor<f32>) -> tensor<0xf32> loc(#loc5062)
    %249 = stablehlo.multiply %248, %247 : tensor<0xf32> loc(#loc5062)
    %250 = stablehlo.broadcast_in_dim %cst_32, dims = [] : (tensor<f32>) -> tensor<0xf32> loc(#loc5063)
    %251 = stablehlo.subtract %250, %249 : tensor<0xf32> loc(#loc5063)
    %252 = stablehlo.multiply %238, %240 : tensor<0xf32> loc(#loc5064)
    %253 = stablehlo.multiply %244, %242 : tensor<0xf32> loc(#loc5065)
    %254 = stablehlo.subtract %252, %253 : tensor<0xf32> loc(#loc5066)
    %255 = stablehlo.broadcast_in_dim %cst_33, dims = [] : (tensor<f32>) -> tensor<0xf32> loc(#loc5067)
    %256 = stablehlo.multiply %255, %254 : tensor<0xf32> loc(#loc5067)
    %257 = stablehlo.multiply %238, %242 : tensor<0xf32> loc(#loc5068)
    %258 = stablehlo.multiply %244, %240 : tensor<0xf32> loc(#loc5069)
    %259 = stablehlo.add %257, %258 : tensor<0xf32> loc(#loc5070)
    %260 = stablehlo.broadcast_in_dim %cst_33, dims = [] : (tensor<f32>) -> tensor<0xf32> loc(#loc5071)
    %261 = stablehlo.multiply %260, %259 : tensor<0xf32> loc(#loc5071)
    %262 = stablehlo.multiply %238, %240 : tensor<0xf32> loc(#loc5072)
    %263 = stablehlo.multiply %244, %242 : tensor<0xf32> loc(#loc5073)
    %264 = stablehlo.add %262, %263 : tensor<0xf32> loc(#loc5074)
    %265 = stablehlo.broadcast_in_dim %cst_33, dims = [] : (tensor<f32>) -> tensor<0xf32> loc(#loc5075)
    %266 = stablehlo.multiply %265, %264 : tensor<0xf32> loc(#loc5075)
    %267 = stablehlo.multiply %238, %238 : tensor<0xf32> loc(#loc5076)
    %268 = stablehlo.multiply %242, %242 : tensor<0xf32> loc(#loc5077)
    %269 = stablehlo.add %267, %268 : tensor<0xf32> loc(#loc5078)
    %270 = stablehlo.broadcast_in_dim %cst_33, dims = [] : (tensor<f32>) -> tensor<0xf32> loc(#loc5079)
    %271 = stablehlo.multiply %270, %269 : tensor<0xf32> loc(#loc5079)
    %272 = stablehlo.broadcast_in_dim %cst_32, dims = [] : (tensor<f32>) -> tensor<0xf32> loc(#loc5080)
    %273 = stablehlo.subtract %272, %271 : tensor<0xf32> loc(#loc5080)
    %274 = stablehlo.multiply %240, %242 : tensor<0xf32> loc(#loc5081)
    %275 = stablehlo.multiply %244, %238 : tensor<0xf32> loc(#loc5082)
    %276 = stablehlo.subtract %274, %275 : tensor<0xf32> loc(#loc5083)
    %277 = stablehlo.broadcast_in_dim %cst_33, dims = [] : (tensor<f32>) -> tensor<0xf32> loc(#loc5084)
    %278 = stablehlo.multiply %277, %276 : tensor<0xf32> loc(#loc5084)
    %279 = stablehlo.multiply %238, %242 : tensor<0xf32> loc(#loc5085)
    %280 = stablehlo.multiply %244, %240 : tensor<0xf32> loc(#loc5086)
    %281 = stablehlo.subtract %279, %280 : tensor<0xf32> loc(#loc5087)
    %282 = stablehlo.broadcast_in_dim %cst_33, dims = [] : (tensor<f32>) -> tensor<0xf32> loc(#loc5088)
    %283 = stablehlo.multiply %282, %281 : tensor<0xf32> loc(#loc5088)
    %284 = stablehlo.multiply %240, %242 : tensor<0xf32> loc(#loc5089)
    %285 = stablehlo.multiply %244, %238 : tensor<0xf32> loc(#loc5090)
    %286 = stablehlo.add %284, %285 : tensor<0xf32> loc(#loc5091)
    %287 = stablehlo.broadcast_in_dim %cst_33, dims = [] : (tensor<f32>) -> tensor<0xf32> loc(#loc5092)
    %288 = stablehlo.multiply %287, %286 : tensor<0xf32> loc(#loc5092)
    %289 = stablehlo.multiply %238, %238 : tensor<0xf32> loc(#loc5093)
    %290 = stablehlo.multiply %240, %240 : tensor<0xf32> loc(#loc5094)
    %291 = stablehlo.add %289, %290 : tensor<0xf32> loc(#loc5095)
    %292 = stablehlo.broadcast_in_dim %cst_33, dims = [] : (tensor<f32>) -> tensor<0xf32> loc(#loc5096)
    %293 = stablehlo.multiply %292, %291 : tensor<0xf32> loc(#loc5096)
    %294 = stablehlo.broadcast_in_dim %cst_32, dims = [] : (tensor<f32>) -> tensor<0xf32> loc(#loc5097)
    %295 = stablehlo.subtract %294, %293 : tensor<0xf32> loc(#loc5097)
    %296 = stablehlo.broadcast_in_dim %251, dims = [0] : (tensor<0xf32>) -> tensor<0x1xf32> loc(#loc5098)
    %297 = stablehlo.broadcast_in_dim %256, dims = [0] : (tensor<0xf32>) -> tensor<0x1xf32> loc(#loc5098)
    %298 = stablehlo.broadcast_in_dim %261, dims = [0] : (tensor<0xf32>) -> tensor<0x1xf32> loc(#loc5098)
    %299 = stablehlo.concatenate %296, %297, %298, dim = 1 : (tensor<0x1xf32>, tensor<0x1xf32>, tensor<0x1xf32>) -> tensor<0x3xf32> loc(#loc5099)
    %300 = stablehlo.broadcast_in_dim %299, dims = [0, 2] : (tensor<0x3xf32>) -> tensor<0x1x3xf32> loc(#loc5098)
    %301 = stablehlo.broadcast_in_dim %266, dims = [0] : (tensor<0xf32>) -> tensor<0x1xf32> loc(#loc5098)
    %302 = stablehlo.broadcast_in_dim %273, dims = [0] : (tensor<0xf32>) -> tensor<0x1xf32> loc(#loc5098)
    %303 = stablehlo.broadcast_in_dim %278, dims = [0] : (tensor<0xf32>) -> tensor<0x1xf32> loc(#loc5098)
    %304 = stablehlo.concatenate %301, %302, %303, dim = 1 : (tensor<0x1xf32>, tensor<0x1xf32>, tensor<0x1xf32>) -> tensor<0x3xf32> loc(#loc5099)
    %305 = stablehlo.broadcast_in_dim %304, dims = [0, 2] : (tensor<0x3xf32>) -> tensor<0x1x3xf32> loc(#loc5098)
    %306 = stablehlo.broadcast_in_dim %283, dims = [0] : (tensor<0xf32>) -> tensor<0x1xf32> loc(#loc5098)
    %307 = stablehlo.broadcast_in_dim %288, dims = [0] : (tensor<0xf32>) -> tensor<0x1xf32> loc(#loc5098)
    %308 = stablehlo.broadcast_in_dim %295, dims = [0] : (tensor<0xf32>) -> tensor<0x1xf32> loc(#loc5098)
    %309 = stablehlo.concatenate %306, %307, %308, dim = 1 : (tensor<0x1xf32>, tensor<0x1xf32>, tensor<0x1xf32>) -> tensor<0x3xf32> loc(#loc5099)
    %310 = stablehlo.broadcast_in_dim %309, dims = [0, 2] : (tensor<0x3xf32>) -> tensor<0x1x3xf32> loc(#loc5098)
    %311 = stablehlo.concatenate %300, %305, %310, dim = 1 : (tensor<0x1x3xf32>, tensor<0x1x3xf32>, tensor<0x1x3xf32>) -> tensor<0x3x3xf32> loc(#loc5099)
    %312 = call @_diag_2(%arg50) : (tensor<0x3xf32>) -> tensor<0x3x3xf32> loc(#loc4427)
    %313 = stablehlo.dot_general %311, %312, batching_dims = [0] x [0], contracting_dims = [2] x [1] : (tensor<0x3x3xf32>, tensor<0x3x3xf32>) -> tensor<0x3x3xf32> loc(#loc4428)
    %314 = stablehlo.transpose %311, dims = [0, 2, 1] : (tensor<0x3x3xf32>) -> tensor<0x3x3xf32> loc(#loc4429)
    %315 = stablehlo.dot_general %313, %314, batching_dims = [0] x [0], contracting_dims = [2] x [1] : (tensor<0x3x3xf32>, tensor<0x3x3xf32>) -> tensor<0x3x3xf32> loc(#loc4430)
    %316 = stablehlo.broadcast_in_dim %cst_31, dims = [] : (tensor<f32>) -> tensor<3xf32> loc(#loc3806)
    %317 = stablehlo.multiply %arg135, %316 : tensor<3xf32> loc(#loc3806)
    %318 = stablehlo.broadcast_in_dim %cst_30, dims = [] : (tensor<f32>) -> tensor<5xf32> loc(#loc3807)
    %319 = stablehlo.compare NE, %arg4, %318, FLOAT : (tensor<5xf32>, tensor<5xf32>) -> tensor<5xi1> loc(#loc3807)
    %320 = stablehlo.broadcast_in_dim %319, dims = [0] : (tensor<5xi1>) -> tensor<5x1xi1> loc(#loc3808)
    %321 = stablehlo.convert %320 : (tensor<5x1xi1>) -> tensor<5x1xf32> loc(#loc3809)
    %322 = stablehlo.broadcast_in_dim %317, dims = [1] : (tensor<3xf32>) -> tensor<1x3xf32> loc(#loc3810)
    %323 = stablehlo.broadcast_in_dim %322, dims = [0, 1] : (tensor<1x3xf32>) -> tensor<5x3xf32> loc(#loc3811)
    %324 = stablehlo.broadcast_in_dim %321, dims = [0, 1] : (tensor<5x1xf32>) -> tensor<5x3xf32> loc(#loc3811)
    %325 = stablehlo.multiply %323, %324 : tensor<5x3xf32> loc(#loc3811)
    %326 = stablehlo.add %arg2, %325 : tensor<5x3xf32> loc(#loc3812)
    %327 = stablehlo.broadcast_in_dim %cst_31, dims = [] : (tensor<f32>) -> tensor<3xf32> loc(#loc3813)
    %328 = stablehlo.multiply %arg135, %327 : tensor<3xf32> loc(#loc3813)
    %329 = stablehlo.broadcast_in_dim %cst_30, dims = [] : (tensor<f32>) -> tensor<4xf32> loc(#loc3814)
    %330 = stablehlo.compare NE, %arg19, %329, FLOAT : (tensor<4xf32>, tensor<4xf32>) -> tensor<4xi1> loc(#loc3814)
    %331 = stablehlo.broadcast_in_dim %330, dims = [0] : (tensor<4xi1>) -> tensor<4x1xi1> loc(#loc3815)
    %332 = stablehlo.convert %331 : (tensor<4x1xi1>) -> tensor<4x1xf32> loc(#loc3816)
    %333 = stablehlo.broadcast_in_dim %328, dims = [1] : (tensor<3xf32>) -> tensor<1x3xf32> loc(#loc3817)
    %334 = stablehlo.broadcast_in_dim %333, dims = [0, 1] : (tensor<1x3xf32>) -> tensor<4x3xf32> loc(#loc3818)
    %335 = stablehlo.broadcast_in_dim %332, dims = [0, 1] : (tensor<4x1xf32>) -> tensor<4x3xf32> loc(#loc3818)
    %336 = stablehlo.multiply %334, %335 : tensor<4x3xf32> loc(#loc3818)
    %337 = stablehlo.add %arg17, %336 : tensor<4x3xf32> loc(#loc3819)
    %338 = stablehlo.broadcast_in_dim %cst_31, dims = [] : (tensor<f32>) -> tensor<3xf32> loc(#loc3820)
    %339 = stablehlo.multiply %arg135, %338 : tensor<3xf32> loc(#loc3820)
    %340 = stablehlo.broadcast_in_dim %cst_30, dims = [] : (tensor<f32>) -> tensor<0xf32> loc(#loc3821)
    %341 = stablehlo.compare NE, %arg34, %340, FLOAT : (tensor<0xf32>, tensor<0xf32>) -> tensor<0xi1> loc(#loc3821)
    %342 = stablehlo.broadcast_in_dim %341, dims = [0] : (tensor<0xi1>) -> tensor<0x1xi1> loc(#loc3822)
    %343 = stablehlo.convert %342 : (tensor<0x1xi1>) -> tensor<0x1xf32> loc(#loc3823)
    %344 = stablehlo.broadcast_in_dim %339, dims = [1] : (tensor<3xf32>) -> tensor<1x3xf32> loc(#loc3824)
    %345 = stablehlo.broadcast_in_dim %344, dims = [0, 1] : (tensor<1x3xf32>) -> tensor<0x3xf32> loc(#loc3825)
    %346 = stablehlo.broadcast_in_dim %343, dims = [0, 1] : (tensor<0x1xf32>) -> tensor<0x3xf32> loc(#loc3825)
    %347 = stablehlo.multiply %345, %346 : tensor<0x3xf32> loc(#loc3825)
    %348 = stablehlo.add %arg32, %347 : tensor<0x3xf32> loc(#loc3826)
    %349 = stablehlo.broadcast_in_dim %cst_31, dims = [] : (tensor<f32>) -> tensor<3xf32> loc(#loc3827)
    %350 = stablehlo.multiply %arg135, %349 : tensor<3xf32> loc(#loc3827)
    %351 = stablehlo.broadcast_in_dim %cst_30, dims = [] : (tensor<f32>) -> tensor<0xf32> loc(#loc3828)
    %352 = stablehlo.compare NE, %arg49, %351, FLOAT : (tensor<0xf32>, tensor<0xf32>) -> tensor<0xi1> loc(#loc3828)
    %353 = stablehlo.broadcast_in_dim %352, dims = [0] : (tensor<0xi1>) -> tensor<0x1xi1> loc(#loc3829)
    %354 = stablehlo.convert %353 : (tensor<0x1xi1>) -> tensor<0x1xf32> loc(#loc3830)
    %355 = stablehlo.broadcast_in_dim %350, dims = [1] : (tensor<3xf32>) -> tensor<1x3xf32> loc(#loc3831)
    %356 = stablehlo.broadcast_in_dim %355, dims = [0, 1] : (tensor<1x3xf32>) -> tensor<0x3xf32> loc(#loc3832)
    %357 = stablehlo.broadcast_in_dim %354, dims = [0, 1] : (tensor<0x1xf32>) -> tensor<0x3xf32> loc(#loc3832)
    %358 = stablehlo.multiply %356, %357 : tensor<0x3xf32> loc(#loc3832)
    %359 = stablehlo.add %arg47, %358 : tensor<0x3xf32> loc(#loc3833)
    %360 = stablehlo.iota dim = 0 : tensor<4xi32> loc(#loc4431)
    %361 = stablehlo.slice %c_34 [0:4, 0:1] : (tensor<4x2xi32>) -> tensor<4x1xi32> loc(#loc5966)
    %362 = stablehlo.reshape %361 : (tensor<4x1xi32>) -> tensor<4xi32> loc(#loc5967)
    %363 = stablehlo.broadcast_in_dim %c_29, dims = [] : (tensor<i32>) -> tensor<4xi32> loc(#loc5968)
    %364 = stablehlo.compare LT, %362, %363, SIGNED : (tensor<4xi32>, tensor<4xi32>) -> tensor<4xi1> loc(#loc5968)
    %365 = stablehlo.broadcast_in_dim %c_28, dims = [] : (tensor<i32>) -> tensor<4xi32> loc(#loc5969)
    %366 = stablehlo.add %362, %365 : tensor<4xi32> loc(#loc5969)
    %367 = stablehlo.select %364, %366, %362 : tensor<4xi1>, tensor<4xi32> loc(#loc5970)
    %368 = stablehlo.compare LT, %c_29, %c_29, SIGNED : (tensor<i32>, tensor<i32>) -> tensor<i1> loc(#loc5968)
    %369 = stablehlo.add %c_29, %c_27 : tensor<i32> loc(#loc5969)
    %370 = stablehlo.select %368, %369, %c_29 : tensor<i1>, tensor<i32> loc(#loc5970)
    %371 = stablehlo.broadcast_in_dim %367, dims = [0] : (tensor<4xi32>) -> tensor<4x1xi32> loc(#loc5971)
    %372 = stablehlo.broadcast_in_dim %370, dims = [] : (tensor<i32>) -> tensor<4x1xi32> loc(#loc5971)
    %373 = stablehlo.concatenate %371, %372, dim = 1 : (tensor<4x1xi32>, tensor<4x1xi32>) -> tensor<4x2xi32> loc(#loc5972)
    %374 = "stablehlo.gather"(%arg0, %373) <{dimension_numbers = #stablehlo.gather<offset_dims = [1, 2], start_index_map = [0, 1], index_vector_dim = 1>, slice_sizes = array<i64: 1, 3>}> : (tensor<5x3xf32>, tensor<4x2xi32>) -> tensor<4x1x3xf32> loc(#loc5973)
    %375 = stablehlo.reshape %374 : (tensor<4x1x3xf32>) -> tensor<4x3xf32> loc(#loc5974)
    %376 = stablehlo.slice %c_34 [0:4, 0:1] : (tensor<4x2xi32>) -> tensor<4x1xi32> loc(#loc5966)
    %377 = stablehlo.reshape %376 : (tensor<4x1xi32>) -> tensor<4xi32> loc(#loc5967)
    %378 = stablehlo.broadcast_in_dim %c_29, dims = [] : (tensor<i32>) -> tensor<4xi32> loc(#loc5968)
    %379 = stablehlo.compare LT, %377, %378, SIGNED : (tensor<4xi32>, tensor<4xi32>) -> tensor<4xi1> loc(#loc5968)
    %380 = stablehlo.broadcast_in_dim %c_28, dims = [] : (tensor<i32>) -> tensor<4xi32> loc(#loc5969)
    %381 = stablehlo.add %377, %380 : tensor<4xi32> loc(#loc5969)
    %382 = stablehlo.select %379, %381, %377 : tensor<4xi1>, tensor<4xi32> loc(#loc5970)
    %383 = stablehlo.compare LT, %c_29, %c_29, SIGNED : (tensor<i32>, tensor<i32>) -> tensor<i1> loc(#loc5968)
    %384 = stablehlo.add %c_29, %c_26 : tensor<i32> loc(#loc5969)
    %385 = stablehlo.select %383, %384, %c_29 : tensor<i1>, tensor<i32> loc(#loc5970)
    %386 = stablehlo.broadcast_in_dim %382, dims = [0] : (tensor<4xi32>) -> tensor<4x1xi32> loc(#loc5971)
    %387 = stablehlo.broadcast_in_dim %385, dims = [] : (tensor<i32>) -> tensor<4x1xi32> loc(#loc5971)
    %388 = stablehlo.concatenate %386, %387, dim = 1 : (tensor<4x1xi32>, tensor<4x1xi32>) -> tensor<4x2xi32> loc(#loc5972)
    %389 = "stablehlo.gather"(%arg1, %388) <{dimension_numbers = #stablehlo.gather<offset_dims = [1, 2], start_index_map = [0, 1], index_vector_dim = 1>, slice_sizes = array<i64: 1, 4>}> : (tensor<5x4xf32>, tensor<4x2xi32>) -> tensor<4x1x4xf32> loc(#loc5973)
    %390 = stablehlo.reshape %389 : (tensor<4x1x4xf32>) -> tensor<4x4xf32> loc(#loc5974)
    %391 = stablehlo.slice %c_34 [0:4, 0:1] : (tensor<4x2xi32>) -> tensor<4x1xi32> loc(#loc5966)
    %392 = stablehlo.reshape %391 : (tensor<4x1xi32>) -> tensor<4xi32> loc(#loc5967)
    %393 = stablehlo.broadcast_in_dim %c_29, dims = [] : (tensor<i32>) -> tensor<4xi32> loc(#loc5968)
    %394 = stablehlo.compare LT, %392, %393, SIGNED : (tensor<4xi32>, tensor<4xi32>) -> tensor<4xi1> loc(#loc5968)
    %395 = stablehlo.broadcast_in_dim %c_28, dims = [] : (tensor<i32>) -> tensor<4xi32> loc(#loc5969)
    %396 = stablehlo.add %392, %395 : tensor<4xi32> loc(#loc5969)
    %397 = stablehlo.select %394, %396, %392 : tensor<4xi1>, tensor<4xi32> loc(#loc5970)
    %398 = stablehlo.compare LT, %c_29, %c_29, SIGNED : (tensor<i32>, tensor<i32>) -> tensor<i1> loc(#loc5968)
    %399 = stablehlo.add %c_29, %c_27 : tensor<i32> loc(#loc5969)
    %400 = stablehlo.select %398, %399, %c_29 : tensor<i1>, tensor<i32> loc(#loc5970)
    %401 = stablehlo.broadcast_in_dim %397, dims = [0] : (tensor<4xi32>) -> tensor<4x1xi32> loc(#loc5971)
    %402 = stablehlo.broadcast_in_dim %400, dims = [] : (tensor<i32>) -> tensor<4x1xi32> loc(#loc5971)
    %403 = stablehlo.concatenate %401, %402, dim = 1 : (tensor<4x1xi32>, tensor<4x1xi32>) -> tensor<4x2xi32> loc(#loc5972)
    %404 = "stablehlo.gather"(%326, %403) <{dimension_numbers = #stablehlo.gather<offset_dims = [1, 2], start_index_map = [0, 1], index_vector_dim = 1>, slice_sizes = array<i64: 1, 3>}> : (tensor<5x3xf32>, tensor<4x2xi32>) -> tensor<4x1x3xf32> loc(#loc5973)
    %405 = stablehlo.reshape %404 : (tensor<4x1x3xf32>) -> tensor<4x3xf32> loc(#loc5974)
    %406 = stablehlo.slice %c_34 [0:4, 0:1] : (tensor<4x2xi32>) -> tensor<4x1xi32> loc(#loc5966)
    %407 = stablehlo.reshape %406 : (tensor<4x1xi32>) -> tensor<4xi32> loc(#loc5967)
    %408 = stablehlo.broadcast_in_dim %c_29, dims = [] : (tensor<i32>) -> tensor<4xi32> loc(#loc5968)
    %409 = stablehlo.compare LT, %407, %408, SIGNED : (tensor<4xi32>, tensor<4xi32>) -> tensor<4xi1> loc(#loc5968)
    %410 = stablehlo.broadcast_in_dim %c_28, dims = [] : (tensor<i32>) -> tensor<4xi32> loc(#loc5969)
    %411 = stablehlo.add %407, %410 : tensor<4xi32> loc(#loc5969)
    %412 = stablehlo.select %409, %411, %407 : tensor<4xi1>, tensor<4xi32> loc(#loc5970)
    %413 = stablehlo.compare LT, %c_29, %c_29, SIGNED : (tensor<i32>, tensor<i32>) -> tensor<i1> loc(#loc5968)
    %414 = stablehlo.add %c_29, %c_27 : tensor<i32> loc(#loc5969)
    %415 = stablehlo.select %413, %414, %c_29 : tensor<i1>, tensor<i32> loc(#loc5970)
    %416 = stablehlo.broadcast_in_dim %412, dims = [0] : (tensor<4xi32>) -> tensor<4x1xi32> loc(#loc5971)
    %417 = stablehlo.broadcast_in_dim %415, dims = [] : (tensor<i32>) -> tensor<4x1xi32> loc(#loc5971)
    %418 = stablehlo.concatenate %416, %417, dim = 1 : (tensor<4x1xi32>, tensor<4x1xi32>) -> tensor<4x2xi32> loc(#loc5972)
    %419 = "stablehlo.gather"(%arg3, %418) <{dimension_numbers = #stablehlo.gather<offset_dims = [1, 2], start_index_map = [0, 1], index_vector_dim = 1>, slice_sizes = array<i64: 1, 3>}> : (tensor<5x3xf32>, tensor<4x2xi32>) -> tensor<4x1x3xf32> loc(#loc5973)
    %420 = stablehlo.reshape %419 : (tensor<4x1x3xf32>) -> tensor<4x3xf32> loc(#loc5974)
    %421 = stablehlo.slice %c_34 [0:4, 0:1] : (tensor<4x2xi32>) -> tensor<4x1xi32> loc(#loc5966)
    %422 = stablehlo.reshape %421 : (tensor<4x1xi32>) -> tensor<4xi32> loc(#loc5967)
    %423 = stablehlo.broadcast_in_dim %c_29, dims = [] : (tensor<i32>) -> tensor<4xi32> loc(#loc5968)
    %424 = stablehlo.compare LT, %422, %423, SIGNED : (tensor<4xi32>, tensor<4xi32>) -> tensor<4xi1> loc(#loc5968)
    %425 = stablehlo.broadcast_in_dim %c_28, dims = [] : (tensor<i32>) -> tensor<4xi32> loc(#loc5969)
    %426 = stablehlo.add %422, %425 : tensor<4xi32> loc(#loc5969)
    %427 = stablehlo.select %424, %426, %422 : tensor<4xi1>, tensor<4xi32> loc(#loc5970)
    %428 = stablehlo.broadcast_in_dim %427, dims = [0] : (tensor<4xi32>) -> tensor<4x1xi32> loc(#loc5971)
    %429 = "stablehlo.gather"(%arg8, %428) <{dimension_numbers = #stablehlo.gather<offset_dims = [1], start_index_map = [0], index_vector_dim = 1>, slice_sizes = array<i64: 1>}> : (tensor<5xf32>, tensor<4x1xi32>) -> tensor<4x1xf32> loc(#loc5973)
    %430 = stablehlo.reshape %429 : (tensor<4x1xf32>) -> tensor<4xf32> loc(#loc5974)
    %431 = stablehlo.slice %c_34 [0:4, 0:1] : (tensor<4x2xi32>) -> tensor<4x1xi32> loc(#loc5966)
    %432 = stablehlo.reshape %431 : (tensor<4x1xi32>) -> tensor<4xi32> loc(#loc5967)
    %433 = stablehlo.broadcast_in_dim %c_29, dims = [] : (tensor<i32>) -> tensor<4xi32> loc(#loc5968)
    %434 = stablehlo.compare LT, %432, %433, SIGNED : (tensor<4xi32>, tensor<4xi32>) -> tensor<4xi1> loc(#loc5968)
    %435 = stablehlo.broadcast_in_dim %c_28, dims = [] : (tensor<i32>) -> tensor<4xi32> loc(#loc5969)
    %436 = stablehlo.add %432, %435 : tensor<4xi32> loc(#loc5969)
    %437 = stablehlo.select %434, %436, %432 : tensor<4xi1>, tensor<4xi32> loc(#loc5970)
    %438 = stablehlo.broadcast_in_dim %437, dims = [0] : (tensor<4xi32>) -> tensor<4x1xi32> loc(#loc5971)
    %439 = "stablehlo.gather"(%arg9, %438) <{dimension_numbers = #stablehlo.gather<offset_dims = [1], start_index_map = [0], index_vector_dim = 1>, slice_sizes = array<i64: 1>}> : (tensor<5xi32>, tensor<4x1xi32>) -> tensor<4x1xi32> loc(#loc5973)
    %440 = stablehlo.reshape %439 : (tensor<4x1xi32>) -> tensor<4xi32> loc(#loc5974)
    %441 = stablehlo.slice %c_34 [0:4, 0:1] : (tensor<4x2xi32>) -> tensor<4x1xi32> loc(#loc5966)
    %442 = stablehlo.reshape %441 : (tensor<4x1xi32>) -> tensor<4xi32> loc(#loc5967)
    %443 = stablehlo.broadcast_in_dim %c_29, dims = [] : (tensor<i32>) -> tensor<4xi32> loc(#loc5968)
    %444 = stablehlo.compare LT, %442, %443, SIGNED : (tensor<4xi32>, tensor<4xi32>) -> tensor<4xi1> loc(#loc5968)
    %445 = stablehlo.broadcast_in_dim %c_28, dims = [] : (tensor<i32>) -> tensor<4xi32> loc(#loc5969)
    %446 = stablehlo.add %442, %445 : tensor<4xi32> loc(#loc5969)
    %447 = stablehlo.select %444, %446, %442 : tensor<4xi1>, tensor<4xi32> loc(#loc5970)
    %448 = stablehlo.broadcast_in_dim %447, dims = [0] : (tensor<4xi32>) -> tensor<4x1xi32> loc(#loc5971)
    %449 = "stablehlo.gather"(%arg10, %448) <{dimension_numbers = #stablehlo.gather<offset_dims = [1], start_index_map = [0], index_vector_dim = 1>, slice_sizes = array<i64: 1>}> : (tensor<5xi1>, tensor<4x1xi32>) -> tensor<4x1xi1> loc(#loc5973)
    %450 = stablehlo.reshape %449 : (tensor<4x1xi1>) -> tensor<4xi1> loc(#loc5974)
    %451 = stablehlo.slice %c_34 [0:4, 0:1] : (tensor<4x2xi32>) -> tensor<4x1xi32> loc(#loc5966)
    %452 = stablehlo.reshape %451 : (tensor<4x1xi32>) -> tensor<4xi32> loc(#loc5967)
    %453 = stablehlo.broadcast_in_dim %c_29, dims = [] : (tensor<i32>) -> tensor<4xi32> loc(#loc5968)
    %454 = stablehlo.compare LT, %452, %453, SIGNED : (tensor<4xi32>, tensor<4xi32>) -> tensor<4xi1> loc(#loc5968)
    %455 = stablehlo.broadcast_in_dim %c_28, dims = [] : (tensor<i32>) -> tensor<4xi32> loc(#loc5969)
    %456 = stablehlo.add %452, %455 : tensor<4xi32> loc(#loc5969)
    %457 = stablehlo.select %454, %456, %452 : tensor<4xi1>, tensor<4xi32> loc(#loc5970)
    %458 = stablehlo.compare LT, %c_29, %c_29, SIGNED : (tensor<i32>, tensor<i32>) -> tensor<i1> loc(#loc5968)
    %459 = stablehlo.add %c_29, %c_27 : tensor<i32> loc(#loc5969)
    %460 = stablehlo.select %458, %459, %c_29 : tensor<i1>, tensor<i32> loc(#loc5970)
    %461 = stablehlo.broadcast_in_dim %457, dims = [0] : (tensor<4xi32>) -> tensor<4x1xi32> loc(#loc5971)
    %462 = stablehlo.broadcast_in_dim %460, dims = [] : (tensor<i32>) -> tensor<4x1xi32> loc(#loc5971)
    %463 = stablehlo.concatenate %461, %462, dim = 1 : (tensor<4x1xi32>, tensor<4x1xi32>) -> tensor<4x2xi32> loc(#loc5972)
    %464 = "stablehlo.gather"(%arg11, %463) <{dimension_numbers = #stablehlo.gather<offset_dims = [1, 2], start_index_map = [0, 1], index_vector_dim = 1>, slice_sizes = array<i64: 1, 3>}> : (tensor<5x3xf32>, tensor<4x2xi32>) -> tensor<4x1x3xf32> loc(#loc5973)
    %465 = stablehlo.reshape %464 : (tensor<4x1x3xf32>) -> tensor<4x3xf32> loc(#loc5974)
    %466 = stablehlo.slice %c_34 [0:4, 1:2] : (tensor<4x2xi32>) -> tensor<4x1xi32> loc(#loc5975)
    %467 = stablehlo.reshape %466 : (tensor<4x1xi32>) -> tensor<4xi32> loc(#loc5976)
    %468 = stablehlo.broadcast_in_dim %c_29, dims = [] : (tensor<i32>) -> tensor<4xi32> loc(#loc5977)
    %469 = stablehlo.compare LT, %467, %468, SIGNED : (tensor<4xi32>, tensor<4xi32>) -> tensor<4xi1> loc(#loc5977)
    %470 = stablehlo.broadcast_in_dim %c_28, dims = [] : (tensor<i32>) -> tensor<4xi32> loc(#loc5978)
    %471 = stablehlo.add %467, %470 : tensor<4xi32> loc(#loc5978)
    %472 = stablehlo.select %469, %471, %467 : tensor<4xi1>, tensor<4xi32> loc(#loc5979)
    %473 = stablehlo.compare LT, %c_29, %c_29, SIGNED : (tensor<i32>, tensor<i32>) -> tensor<i1> loc(#loc5977)
    %474 = stablehlo.add %c_29, %c_27 : tensor<i32> loc(#loc5978)
    %475 = stablehlo.select %473, %474, %c_29 : tensor<i1>, tensor<i32> loc(#loc5979)
    %476 = stablehlo.broadcast_in_dim %472, dims = [0] : (tensor<4xi32>) -> tensor<4x1xi32> loc(#loc5980)
    %477 = stablehlo.broadcast_in_dim %475, dims = [] : (tensor<i32>) -> tensor<4x1xi32> loc(#loc5980)
    %478 = stablehlo.concatenate %476, %477, dim = 1 : (tensor<4x1xi32>, tensor<4x1xi32>) -> tensor<4x2xi32> loc(#loc5981)
    %479 = "stablehlo.gather"(%arg0, %478) <{dimension_numbers = #stablehlo.gather<offset_dims = [1, 2], start_index_map = [0, 1], index_vector_dim = 1>, slice_sizes = array<i64: 1, 3>}> : (tensor<5x3xf32>, tensor<4x2xi32>) -> tensor<4x1x3xf32> loc(#loc5982)
    %480 = stablehlo.reshape %479 : (tensor<4x1x3xf32>) -> tensor<4x3xf32> loc(#loc5983)
    %481 = stablehlo.slice %c_34 [0:4, 1:2] : (tensor<4x2xi32>) -> tensor<4x1xi32> loc(#loc5975)
    %482 = stablehlo.reshape %481 : (tensor<4x1xi32>) -> tensor<4xi32> loc(#loc5976)
    %483 = stablehlo.broadcast_in_dim %c_29, dims = [] : (tensor<i32>) -> tensor<4xi32> loc(#loc5977)
    %484 = stablehlo.compare LT, %482, %483, SIGNED : (tensor<4xi32>, tensor<4xi32>) -> tensor<4xi1> loc(#loc5977)
    %485 = stablehlo.broadcast_in_dim %c_28, dims = [] : (tensor<i32>) -> tensor<4xi32> loc(#loc5978)
    %486 = stablehlo.add %482, %485 : tensor<4xi32> loc(#loc5978)
    %487 = stablehlo.select %484, %486, %482 : tensor<4xi1>, tensor<4xi32> loc(#loc5979)
    %488 = stablehlo.compare LT, %c_29, %c_29, SIGNED : (tensor<i32>, tensor<i32>) -> tensor<i1> loc(#loc5977)
    %489 = stablehlo.add %c_29, %c_26 : tensor<i32> loc(#loc5978)
    %490 = stablehlo.select %488, %489, %c_29 : tensor<i1>, tensor<i32> loc(#loc5979)
    %491 = stablehlo.broadcast_in_dim %487, dims = [0] : (tensor<4xi32>) -> tensor<4x1xi32> loc(#loc5980)
    %492 = stablehlo.broadcast_in_dim %490, dims = [] : (tensor<i32>) -> tensor<4x1xi32> loc(#loc5980)
    %493 = stablehlo.concatenate %491, %492, dim = 1 : (tensor<4x1xi32>, tensor<4x1xi32>) -> tensor<4x2xi32> loc(#loc5981)
    %494 = "stablehlo.gather"(%arg1, %493) <{dimension_numbers = #stablehlo.gather<offset_dims = [1, 2], start_index_map = [0, 1], index_vector_dim = 1>, slice_sizes = array<i64: 1, 4>}> : (tensor<5x4xf32>, tensor<4x2xi32>) -> tensor<4x1x4xf32> loc(#loc5982)
    %495 = stablehlo.reshape %494 : (tensor<4x1x4xf32>) -> tensor<4x4xf32> loc(#loc5983)
    %496 = stablehlo.slice %c_34 [0:4, 1:2] : (tensor<4x2xi32>) -> tensor<4x1xi32> loc(#loc5975)
    %497 = stablehlo.reshape %496 : (tensor<4x1xi32>) -> tensor<4xi32> loc(#loc5976)
    %498 = stablehlo.broadcast_in_dim %c_29, dims = [] : (tensor<i32>) -> tensor<4xi32> loc(#loc5977)
    %499 = stablehlo.compare LT, %497, %498, SIGNED : (tensor<4xi32>, tensor<4xi32>) -> tensor<4xi1> loc(#loc5977)
    %500 = stablehlo.broadcast_in_dim %c_28, dims = [] : (tensor<i32>) -> tensor<4xi32> loc(#loc5978)
    %501 = stablehlo.add %497, %500 : tensor<4xi32> loc(#loc5978)
    %502 = stablehlo.select %499, %501, %497 : tensor<4xi1>, tensor<4xi32> loc(#loc5979)
    %503 = stablehlo.compare LT, %c_29, %c_29, SIGNED : (tensor<i32>, tensor<i32>) -> tensor<i1> loc(#loc5977)
    %504 = stablehlo.add %c_29, %c_27 : tensor<i32> loc(#loc5978)
    %505 = stablehlo.select %503, %504, %c_29 : tensor<i1>, tensor<i32> loc(#loc5979)
    %506 = stablehlo.broadcast_in_dim %502, dims = [0] : (tensor<4xi32>) -> tensor<4x1xi32> loc(#loc5980)
    %507 = stablehlo.broadcast_in_dim %505, dims = [] : (tensor<i32>) -> tensor<4x1xi32> loc(#loc5980)
    %508 = stablehlo.concatenate %506, %507, dim = 1 : (tensor<4x1xi32>, tensor<4x1xi32>) -> tensor<4x2xi32> loc(#loc5981)
    %509 = "stablehlo.gather"(%326, %508) <{dimension_numbers = #stablehlo.gather<offset_dims = [1, 2], start_index_map = [0, 1], index_vector_dim = 1>, slice_sizes = array<i64: 1, 3>}> : (tensor<5x3xf32>, tensor<4x2xi32>) -> tensor<4x1x3xf32> loc(#loc5982)
    %510 = stablehlo.reshape %509 : (tensor<4x1x3xf32>) -> tensor<4x3xf32> loc(#loc5983)
    %511 = stablehlo.slice %c_34 [0:4, 1:2] : (tensor<4x2xi32>) -> tensor<4x1xi32> loc(#loc5975)
    %512 = stablehlo.reshape %511 : (tensor<4x1xi32>) -> tensor<4xi32> loc(#loc5976)
    %513 = stablehlo.broadcast_in_dim %c_29, dims = [] : (tensor<i32>) -> tensor<4xi32> loc(#loc5977)
    %514 = stablehlo.compare LT, %512, %513, SIGNED : (tensor<4xi32>, tensor<4xi32>) -> tensor<4xi1> loc(#loc5977)
    %515 = stablehlo.broadcast_in_dim %c_28, dims = [] : (tensor<i32>) -> tensor<4xi32> loc(#loc5978)
    %516 = stablehlo.add %512, %515 : tensor<4xi32> loc(#loc5978)
    %517 = stablehlo.select %514, %516, %512 : tensor<4xi1>, tensor<4xi32> loc(#loc5979)
    %518 = stablehlo.compare LT, %c_29, %c_29, SIGNED : (tensor<i32>, tensor<i32>) -> tensor<i1> loc(#loc5977)
    %519 = stablehlo.add %c_29, %c_27 : tensor<i32> loc(#loc5978)
    %520 = stablehlo.select %518, %519, %c_29 : tensor<i1>, tensor<i32> loc(#loc5979)
    %521 = stablehlo.broadcast_in_dim %517, dims = [0] : (tensor<4xi32>) -> tensor<4x1xi32> loc(#loc5980)
    %522 = stablehlo.broadcast_in_dim %520, dims = [] : (tensor<i32>) -> tensor<4x1xi32> loc(#loc5980)
    %523 = stablehlo.concatenate %521, %522, dim = 1 : (tensor<4x1xi32>, tensor<4x1xi32>) -> tensor<4x2xi32> loc(#loc5981)
    %524 = "stablehlo.gather"(%arg3, %523) <{dimension_numbers = #stablehlo.gather<offset_dims = [1, 2], start_index_map = [0, 1], index_vector_dim = 1>, slice_sizes = array<i64: 1, 3>}> : (tensor<5x3xf32>, tensor<4x2xi32>) -> tensor<4x1x3xf32> loc(#loc5982)
    %525 = stablehlo.reshape %524 : (tensor<4x1x3xf32>) -> tensor<4x3xf32> loc(#loc5983)
    %526 = stablehlo.slice %c_34 [0:4, 1:2] : (tensor<4x2xi32>) -> tensor<4x1xi32> loc(#loc5975)
    %527 = stablehlo.reshape %526 : (tensor<4x1xi32>) -> tensor<4xi32> loc(#loc5976)
    %528 = stablehlo.broadcast_in_dim %c_29, dims = [] : (tensor<i32>) -> tensor<4xi32> loc(#loc5977)
    %529 = stablehlo.compare LT, %527, %528, SIGNED : (tensor<4xi32>, tensor<4xi32>) -> tensor<4xi1> loc(#loc5977)
    %530 = stablehlo.broadcast_in_dim %c_28, dims = [] : (tensor<i32>) -> tensor<4xi32> loc(#loc5978)
    %531 = stablehlo.add %527, %530 : tensor<4xi32> loc(#loc5978)
    %532 = stablehlo.select %529, %531, %527 : tensor<4xi1>, tensor<4xi32> loc(#loc5979)
    %533 = stablehlo.broadcast_in_dim %532, dims = [0] : (tensor<4xi32>) -> tensor<4x1xi32> loc(#loc5980)
    %534 = "stablehlo.gather"(%arg8, %533) <{dimension_numbers = #stablehlo.gather<offset_dims = [1], start_index_map = [0], index_vector_dim = 1>, slice_sizes = array<i64: 1>}> : (tensor<5xf32>, tensor<4x1xi32>) -> tensor<4x1xf32> loc(#loc5982)
    %535 = stablehlo.reshape %534 : (tensor<4x1xf32>) -> tensor<4xf32> loc(#loc5983)
    %536 = stablehlo.slice %c_34 [0:4, 1:2] : (tensor<4x2xi32>) -> tensor<4x1xi32> loc(#loc5975)
    %537 = stablehlo.reshape %536 : (tensor<4x1xi32>) -> tensor<4xi32> loc(#loc5976)
    %538 = stablehlo.broadcast_in_dim %c_29, dims = [] : (tensor<i32>) -> tensor<4xi32> loc(#loc5977)
    %539 = stablehlo.compare LT, %537, %538, SIGNED : (tensor<4xi32>, tensor<4xi32>) -> tensor<4xi1> loc(#loc5977)
    %540 = stablehlo.broadcast_in_dim %c_28, dims = [] : (tensor<i32>) -> tensor<4xi32> loc(#loc5978)
    %541 = stablehlo.add %537, %540 : tensor<4xi32> loc(#loc5978)
    %542 = stablehlo.select %539, %541, %537 : tensor<4xi1>, tensor<4xi32> loc(#loc5979)
    %543 = stablehlo.broadcast_in_dim %542, dims = [0] : (tensor<4xi32>) -> tensor<4x1xi32> loc(#loc5980)
    %544 = "stablehlo.gather"(%arg9, %543) <{dimension_numbers = #stablehlo.gather<offset_dims = [1], start_index_map = [0], index_vector_dim = 1>, slice_sizes = array<i64: 1>}> : (tensor<5xi32>, tensor<4x1xi32>) -> tensor<4x1xi32> loc(#loc5982)
    %545 = stablehlo.reshape %544 : (tensor<4x1xi32>) -> tensor<4xi32> loc(#loc5983)
    %546 = stablehlo.slice %c_34 [0:4, 1:2] : (tensor<4x2xi32>) -> tensor<4x1xi32> loc(#loc5975)
    %547 = stablehlo.reshape %546 : (tensor<4x1xi32>) -> tensor<4xi32> loc(#loc5976)
    %548 = stablehlo.broadcast_in_dim %c_29, dims = [] : (tensor<i32>) -> tensor<4xi32> loc(#loc5977)
    %549 = stablehlo.compare LT, %547, %548, SIGNED : (tensor<4xi32>, tensor<4xi32>) -> tensor<4xi1> loc(#loc5977)
    %550 = stablehlo.broadcast_in_dim %c_28, dims = [] : (tensor<i32>) -> tensor<4xi32> loc(#loc5978)
    %551 = stablehlo.add %547, %550 : tensor<4xi32> loc(#loc5978)
    %552 = stablehlo.select %549, %551, %547 : tensor<4xi1>, tensor<4xi32> loc(#loc5979)
    %553 = stablehlo.broadcast_in_dim %552, dims = [0] : (tensor<4xi32>) -> tensor<4x1xi32> loc(#loc5980)
    %554 = "stablehlo.gather"(%arg10, %553) <{dimension_numbers = #stablehlo.gather<offset_dims = [1], start_index_map = [0], index_vector_dim = 1>, slice_sizes = array<i64: 1>}> : (tensor<5xi1>, tensor<4x1xi32>) -> tensor<4x1xi1> loc(#loc5982)
    %555 = stablehlo.reshape %554 : (tensor<4x1xi1>) -> tensor<4xi1> loc(#loc5983)
    %556 = stablehlo.slice %c_34 [0:4, 1:2] : (tensor<4x2xi32>) -> tensor<4x1xi32> loc(#loc5975)
    %557 = stablehlo.reshape %556 : (tensor<4x1xi32>) -> tensor<4xi32> loc(#loc5976)
    %558 = stablehlo.broadcast_in_dim %c_29, dims = [] : (tensor<i32>) -> tensor<4xi32> loc(#loc5977)
    %559 = stablehlo.compare LT, %557, %558, SIGNED : (tensor<4xi32>, tensor<4xi32>) -> tensor<4xi1> loc(#loc5977)
    %560 = stablehlo.broadcast_in_dim %c_28, dims = [] : (tensor<i32>) -> tensor<4xi32> loc(#loc5978)
    %561 = stablehlo.add %557, %560 : tensor<4xi32> loc(#loc5978)
    %562 = stablehlo.select %559, %561, %557 : tensor<4xi1>, tensor<4xi32> loc(#loc5979)
    %563 = stablehlo.compare LT, %c_29, %c_29, SIGNED : (tensor<i32>, tensor<i32>) -> tensor<i1> loc(#loc5977)
    %564 = stablehlo.add %c_29, %c_27 : tensor<i32> loc(#loc5978)
    %565 = stablehlo.select %563, %564, %c_29 : tensor<i1>, tensor<i32> loc(#loc5979)
    %566 = stablehlo.broadcast_in_dim %562, dims = [0] : (tensor<4xi32>) -> tensor<4x1xi32> loc(#loc5980)
    %567 = stablehlo.broadcast_in_dim %565, dims = [] : (tensor<i32>) -> tensor<4x1xi32> loc(#loc5980)
    %568 = stablehlo.concatenate %566, %567, dim = 1 : (tensor<4x1xi32>, tensor<4x1xi32>) -> tensor<4x2xi32> loc(#loc5981)
    %569 = "stablehlo.gather"(%arg11, %568) <{dimension_numbers = #stablehlo.gather<offset_dims = [1, 2], start_index_map = [0, 1], index_vector_dim = 1>, slice_sizes = array<i64: 1, 3>}> : (tensor<5x3xf32>, tensor<4x2xi32>) -> tensor<4x1x3xf32> loc(#loc5982)
    %570 = stablehlo.reshape %569 : (tensor<4x1x3xf32>) -> tensor<4x3xf32> loc(#loc5983)
    %571 = stablehlo.broadcast_in_dim %c_29, dims = [] : (tensor<i32>) -> tensor<4xi32> loc(#loc5984)
    %572 = stablehlo.compare LT, %360, %571, SIGNED : (tensor<4xi32>, tensor<4xi32>) -> tensor<4xi1> loc(#loc5984)
    %573 = stablehlo.broadcast_in_dim %c_26, dims = [] : (tensor<i32>) -> tensor<4xi32> loc(#loc5985)
    %574 = stablehlo.add %360, %573 : tensor<4xi32> loc(#loc5985)
    %575 = stablehlo.select %572, %574, %360 : tensor<4xi1>, tensor<4xi32> loc(#loc5986)
    %576 = stablehlo.compare LT, %c_29, %c_29, SIGNED : (tensor<i32>, tensor<i32>) -> tensor<i1> loc(#loc5984)
    %577 = stablehlo.add %c_29, %c_26 : tensor<i32> loc(#loc5985)
    %578 = stablehlo.select %576, %577, %c_29 : tensor<i1>, tensor<i32> loc(#loc5986)
    %579 = stablehlo.broadcast_in_dim %575, dims = [0] : (tensor<4xi32>) -> tensor<4x1xi32> loc(#loc5987)
    %580 = stablehlo.broadcast_in_dim %578, dims = [] : (tensor<i32>) -> tensor<4x1xi32> loc(#loc5987)
    %581 = stablehlo.concatenate %579, %580, dim = 1 : (tensor<4x1xi32>, tensor<4x1xi32>) -> tensor<4x2xi32> loc(#loc5988)
    %582 = "stablehlo.gather"(%arg89, %581) <{dimension_numbers = #stablehlo.gather<offset_dims = [1, 2], start_index_map = [0, 1], index_vector_dim = 1>, slice_sizes = array<i64: 1, 4>}> : (tensor<4x4xi1>, tensor<4x2xi32>) -> tensor<4x1x4xi1> loc(#loc5989)
    %583 = stablehlo.reshape %582 : (tensor<4x1x4xi1>) -> tensor<4x4xi1> loc(#loc5990)
    %584 = stablehlo.broadcast_in_dim %c_29, dims = [] : (tensor<i32>) -> tensor<4xi32> loc(#loc5984)
    %585 = stablehlo.compare LT, %360, %584, SIGNED : (tensor<4xi32>, tensor<4xi32>) -> tensor<4xi1> loc(#loc5984)
    %586 = stablehlo.broadcast_in_dim %c_26, dims = [] : (tensor<i32>) -> tensor<4xi32> loc(#loc5985)
    %587 = stablehlo.add %360, %586 : tensor<4xi32> loc(#loc5985)
    %588 = stablehlo.select %585, %587, %360 : tensor<4xi1>, tensor<4xi32> loc(#loc5986)
    %589 = stablehlo.compare LT, %c_29, %c_29, SIGNED : (tensor<i32>, tensor<i32>) -> tensor<i1> loc(#loc5984)
    %590 = stablehlo.add %c_29, %c_26 : tensor<i32> loc(#loc5985)
    %591 = stablehlo.select %589, %590, %c_29 : tensor<i1>, tensor<i32> loc(#loc5986)
    %592 = stablehlo.broadcast_in_dim %588, dims = [0] : (tensor<4xi32>) -> tensor<4x1xi32> loc(#loc5987)
    %593 = stablehlo.broadcast_in_dim %591, dims = [] : (tensor<i32>) -> tensor<4x1xi32> loc(#loc5987)
    %594 = stablehlo.concatenate %592, %593, dim = 1 : (tensor<4x1xi32>, tensor<4x1xi32>) -> tensor<4x2xi32> loc(#loc5988)
    %595 = "stablehlo.gather"(%arg90, %594) <{dimension_numbers = #stablehlo.gather<offset_dims = [1, 2], start_index_map = [0, 1], index_vector_dim = 1>, slice_sizes = array<i64: 1, 4>}> : (tensor<4x4xf32>, tensor<4x2xi32>) -> tensor<4x1x4xf32> loc(#loc5989)
    %596 = stablehlo.reshape %595 : (tensor<4x1x4xf32>) -> tensor<4x4xf32> loc(#loc5990)
    %597 = stablehlo.broadcast_in_dim %c_29, dims = [] : (tensor<i32>) -> tensor<4xi32> loc(#loc5984)
    %598 = stablehlo.compare LT, %360, %597, SIGNED : (tensor<4xi32>, tensor<4xi32>) -> tensor<4xi1> loc(#loc5984)
    %599 = stablehlo.broadcast_in_dim %c_26, dims = [] : (tensor<i32>) -> tensor<4xi32> loc(#loc5985)
    %600 = stablehlo.add %360, %599 : tensor<4xi32> loc(#loc5985)
    %601 = stablehlo.select %598, %600, %360 : tensor<4xi1>, tensor<4xi32> loc(#loc5986)
    %602 = stablehlo.compare LT, %c_29, %c_29, SIGNED : (tensor<i32>, tensor<i32>) -> tensor<i1> loc(#loc5984)
    %603 = stablehlo.add %c_29, %c_26 : tensor<i32> loc(#loc5985)
    %604 = stablehlo.select %602, %603, %c_29 : tensor<i1>, tensor<i32> loc(#loc5986)
    %605 = stablehlo.compare LT, %c_29, %c_29, SIGNED : (tensor<i32>, tensor<i32>) -> tensor<i1> loc(#loc5984)
    %606 = stablehlo.add %c_29, %c_24 : tensor<i32> loc(#loc5985)
    %607 = stablehlo.select %605, %606, %c_29 : tensor<i1>, tensor<i32> loc(#loc5986)
    %608 = stablehlo.broadcast_in_dim %601, dims = [0] : (tensor<4xi32>) -> tensor<4x1xi32> loc(#loc5987)
    %609 = stablehlo.broadcast_in_dim %604, dims = [] : (tensor<i32>) -> tensor<4x1xi32> loc(#loc5987)
    %610 = stablehlo.broadcast_in_dim %607, dims = [] : (tensor<i32>) -> tensor<4x1xi32> loc(#loc5987)
    %611 = stablehlo.concatenate %608, %609, %610, dim = 1 : (tensor<4x1xi32>, tensor<4x1xi32>, tensor<4x1xi32>) -> tensor<4x3xi32> loc(#loc5988)
    %612 = "stablehlo.gather"(%arg91, %611) <{dimension_numbers = #stablehlo.gather<offset_dims = [1, 2, 3], start_index_map = [0, 1, 2], index_vector_dim = 1>, slice_sizes = array<i64: 1, 4, 2>}> : (tensor<4x4x2xf32>, tensor<4x3xi32>) -> tensor<4x1x4x2xf32> loc(#loc5989)
    %613 = stablehlo.reshape %612 : (tensor<4x1x4x2xf32>) -> tensor<4x4x2xf32> loc(#loc5990)
    %614 = stablehlo.slice %390 [0:4, 0:1] : (tensor<4x4xf32>) -> tensor<4x1xf32> loc(#loc7181)
    %615 = stablehlo.reshape %614 : (tensor<4x1xf32>) -> tensor<4xf32> loc(#loc7182)
    %616 = stablehlo.slice %390 [0:4, 1:2] : (tensor<4x4xf32>) -> tensor<4x1xf32> loc(#loc7181)
    %617 = stablehlo.reshape %616 : (tensor<4x1xf32>) -> tensor<4xf32> loc(#loc7182)
    %618 = stablehlo.slice %390 [0:4, 2:3] : (tensor<4x4xf32>) -> tensor<4x1xf32> loc(#loc7181)
    %619 = stablehlo.reshape %618 : (tensor<4x1xf32>) -> tensor<4xf32> loc(#loc7182)
    %620 = stablehlo.slice %390 [0:4, 3:4] : (tensor<4x4xf32>) -> tensor<4x1xf32> loc(#loc7181)
    %621 = stablehlo.reshape %620 : (tensor<4x1xf32>) -> tensor<4xf32> loc(#loc7182)
    %622 = stablehlo.multiply %617, %617 : tensor<4xf32> loc(#loc7183)
    %623 = stablehlo.multiply %619, %619 : tensor<4xf32> loc(#loc7184)
    %624 = stablehlo.add %622, %623 : tensor<4xf32> loc(#loc7185)
    %625 = stablehlo.broadcast_in_dim %cst_33, dims = [] : (tensor<f32>) -> tensor<4xf32> loc(#loc7186)
    %626 = stablehlo.multiply %625, %624 : tensor<4xf32> loc(#loc7186)
    %627 = stablehlo.broadcast_in_dim %cst_32, dims = [] : (tensor<f32>) -> tensor<4xf32> loc(#loc7187)
    %628 = stablehlo.subtract %627, %626 : tensor<4xf32> loc(#loc7187)
    %629 = stablehlo.multiply %615, %617 : tensor<4xf32> loc(#loc7188)
    %630 = stablehlo.multiply %621, %619 : tensor<4xf32> loc(#loc7189)
    %631 = stablehlo.subtract %629, %630 : tensor<4xf32> loc(#loc7190)
    %632 = stablehlo.broadcast_in_dim %cst_33, dims = [] : (tensor<f32>) -> tensor<4xf32> loc(#loc7191)
    %633 = stablehlo.multiply %632, %631 : tensor<4xf32> loc(#loc7191)
    %634 = stablehlo.multiply %615, %619 : tensor<4xf32> loc(#loc7192)
    %635 = stablehlo.multiply %621, %617 : tensor<4xf32> loc(#loc7193)
    %636 = stablehlo.add %634, %635 : tensor<4xf32> loc(#loc7194)
    %637 = stablehlo.broadcast_in_dim %cst_33, dims = [] : (tensor<f32>) -> tensor<4xf32> loc(#loc7195)
    %638 = stablehlo.multiply %637, %636 : tensor<4xf32> loc(#loc7195)
    %639 = stablehlo.multiply %615, %617 : tensor<4xf32> loc(#loc7196)
    %640 = stablehlo.multiply %621, %619 : tensor<4xf32> loc(#loc7197)
    %641 = stablehlo.add %639, %640 : tensor<4xf32> loc(#loc7198)
    %642 = stablehlo.broadcast_in_dim %cst_33, dims = [] : (tensor<f32>) -> tensor<4xf32> loc(#loc7199)
    %643 = stablehlo.multiply %642, %641 : tensor<4xf32> loc(#loc7199)
    %644 = stablehlo.multiply %615, %615 : tensor<4xf32> loc(#loc7200)
    %645 = stablehlo.multiply %619, %619 : tensor<4xf32> loc(#loc7201)
    %646 = stablehlo.add %644, %645 : tensor<4xf32> loc(#loc7202)
    %647 = stablehlo.broadcast_in_dim %cst_33, dims = [] : (tensor<f32>) -> tensor<4xf32> loc(#loc7203)
    %648 = stablehlo.multiply %647, %646 : tensor<4xf32> loc(#loc7203)
    %649 = stablehlo.broadcast_in_dim %cst_32, dims = [] : (tensor<f32>) -> tensor<4xf32> loc(#loc7204)
    %650 = stablehlo.subtract %649, %648 : tensor<4xf32> loc(#loc7204)
    %651 = stablehlo.multiply %617, %619 : tensor<4xf32> loc(#loc7205)
    %652 = stablehlo.multiply %621, %615 : tensor<4xf32> loc(#loc7206)
    %653 = stablehlo.subtract %651, %652 : tensor<4xf32> loc(#loc7207)
    %654 = stablehlo.broadcast_in_dim %cst_33, dims = [] : (tensor<f32>) -> tensor<4xf32> loc(#loc7208)
    %655 = stablehlo.multiply %654, %653 : tensor<4xf32> loc(#loc7208)
    %656 = stablehlo.multiply %615, %619 : tensor<4xf32> loc(#loc7209)
    %657 = stablehlo.multiply %621, %617 : tensor<4xf32> loc(#loc7210)
    %658 = stablehlo.subtract %656, %657 : tensor<4xf32> loc(#loc7211)
    %659 = stablehlo.broadcast_in_dim %cst_33, dims = [] : (tensor<f32>) -> tensor<4xf32> loc(#loc7212)
    %660 = stablehlo.multiply %659, %658 : tensor<4xf32> loc(#loc7212)
    %661 = stablehlo.multiply %617, %619 : tensor<4xf32> loc(#loc7213)
    %662 = stablehlo.multiply %621, %615 : tensor<4xf32> loc(#loc7214)
    %663 = stablehlo.add %661, %662 : tensor<4xf32> loc(#loc7215)
    %664 = stablehlo.broadcast_in_dim %cst_33, dims = [] : (tensor<f32>) -> tensor<4xf32> loc(#loc7216)
    %665 = stablehlo.multiply %664, %663 : tensor<4xf32> loc(#loc7216)
    %666 = stablehlo.multiply %615, %615 : tensor<4xf32> loc(#loc7217)
    %667 = stablehlo.multiply %617, %617 : tensor<4xf32> loc(#loc7218)
    %668 = stablehlo.add %666, %667 : tensor<4xf32> loc(#loc7219)
    %669 = stablehlo.broadcast_in_dim %cst_33, dims = [] : (tensor<f32>) -> tensor<4xf32> loc(#loc7220)
    %670 = stablehlo.multiply %669, %668 : tensor<4xf32> loc(#loc7220)
    %671 = stablehlo.broadcast_in_dim %cst_32, dims = [] : (tensor<f32>) -> tensor<4xf32> loc(#loc7221)
    %672 = stablehlo.subtract %671, %670 : tensor<4xf32> loc(#loc7221)
    %673 = stablehlo.broadcast_in_dim %628, dims = [0] : (tensor<4xf32>) -> tensor<4x1xf32> loc(#loc7222)
    %674 = stablehlo.broadcast_in_dim %633, dims = [0] : (tensor<4xf32>) -> tensor<4x1xf32> loc(#loc7222)
    %675 = stablehlo.broadcast_in_dim %638, dims = [0] : (tensor<4xf32>) -> tensor<4x1xf32> loc(#loc7222)
    %676 = stablehlo.concatenate %673, %674, %675, dim = 1 : (tensor<4x1xf32>, tensor<4x1xf32>, tensor<4x1xf32>) -> tensor<4x3xf32> loc(#loc7223)
    %677 = stablehlo.broadcast_in_dim %676, dims = [0, 2] : (tensor<4x3xf32>) -> tensor<4x1x3xf32> loc(#loc7222)
    %678 = stablehlo.broadcast_in_dim %643, dims = [0] : (tensor<4xf32>) -> tensor<4x1xf32> loc(#loc7222)
    %679 = stablehlo.broadcast_in_dim %650, dims = [0] : (tensor<4xf32>) -> tensor<4x1xf32> loc(#loc7222)
    %680 = stablehlo.broadcast_in_dim %655, dims = [0] : (tensor<4xf32>) -> tensor<4x1xf32> loc(#loc7222)
    %681 = stablehlo.concatenate %678, %679, %680, dim = 1 : (tensor<4x1xf32>, tensor<4x1xf32>, tensor<4x1xf32>) -> tensor<4x3xf32> loc(#loc7223)
    %682 = stablehlo.broadcast_in_dim %681, dims = [0, 2] : (tensor<4x3xf32>) -> tensor<4x1x3xf32> loc(#loc7222)
    %683 = stablehlo.broadcast_in_dim %660, dims = [0] : (tensor<4xf32>) -> tensor<4x1xf32> loc(#loc7222)
    %684 = stablehlo.broadcast_in_dim %665, dims = [0] : (tensor<4xf32>) -> tensor<4x1xf32> loc(#loc7222)
    %685 = stablehlo.broadcast_in_dim %672, dims = [0] : (tensor<4xf32>) -> tensor<4x1xf32> loc(#loc7222)
    %686 = stablehlo.concatenate %683, %684, %685, dim = 1 : (tensor<4x1xf32>, tensor<4x1xf32>, tensor<4x1xf32>) -> tensor<4x3xf32> loc(#loc7223)
    %687 = stablehlo.broadcast_in_dim %686, dims = [0, 2] : (tensor<4x3xf32>) -> tensor<4x1x3xf32> loc(#loc7222)
    %688 = stablehlo.concatenate %677, %682, %687, dim = 1 : (tensor<4x1x3xf32>, tensor<4x1x3xf32>, tensor<4x1x3xf32>) -> tensor<4x3x3xf32> loc(#loc7223)
    %689 = stablehlo.slice %495 [0:4, 0:1] : (tensor<4x4xf32>) -> tensor<4x1xf32> loc(#loc7224)
    %690 = stablehlo.reshape %689 : (tensor<4x1xf32>) -> tensor<4xf32> loc(#loc7225)
    %691 = stablehlo.slice %495 [0:4, 1:2] : (tensor<4x4xf32>) -> tensor<4x1xf32> loc(#loc7224)
    %692 = stablehlo.reshape %691 : (tensor<4x1xf32>) -> tensor<4xf32> loc(#loc7225)
    %693 = stablehlo.slice %495 [0:4, 2:3] : (tensor<4x4xf32>) -> tensor<4x1xf32> loc(#loc7224)
    %694 = stablehlo.reshape %693 : (tensor<4x1xf32>) -> tensor<4xf32> loc(#loc7225)
    %695 = stablehlo.slice %495 [0:4, 3:4] : (tensor<4x4xf32>) -> tensor<4x1xf32> loc(#loc7224)
    %696 = stablehlo.reshape %695 : (tensor<4x1xf32>) -> tensor<4xf32> loc(#loc7225)
    %697 = stablehlo.multiply %692, %692 : tensor<4xf32> loc(#loc7226)
    %698 = stablehlo.multiply %694, %694 : tensor<4xf32> loc(#loc7227)
    %699 = stablehlo.add %697, %698 : tensor<4xf32> loc(#loc7228)
    %700 = stablehlo.broadcast_in_dim %cst_33, dims = [] : (tensor<f32>) -> tensor<4xf32> loc(#loc7229)
    %701 = stablehlo.multiply %700, %699 : tensor<4xf32> loc(#loc7229)
    %702 = stablehlo.broadcast_in_dim %cst_32, dims = [] : (tensor<f32>) -> tensor<4xf32> loc(#loc7230)
    %703 = stablehlo.subtract %702, %701 : tensor<4xf32> loc(#loc7230)
    %704 = stablehlo.multiply %690, %692 : tensor<4xf32> loc(#loc7231)
    %705 = stablehlo.multiply %696, %694 : tensor<4xf32> loc(#loc7232)
    %706 = stablehlo.subtract %704, %705 : tensor<4xf32> loc(#loc7233)
    %707 = stablehlo.broadcast_in_dim %cst_33, dims = [] : (tensor<f32>) -> tensor<4xf32> loc(#loc7234)
    %708 = stablehlo.multiply %707, %706 : tensor<4xf32> loc(#loc7234)
    %709 = stablehlo.multiply %690, %694 : tensor<4xf32> loc(#loc7235)
    %710 = stablehlo.multiply %696, %692 : tensor<4xf32> loc(#loc7236)
    %711 = stablehlo.add %709, %710 : tensor<4xf32> loc(#loc7237)
    %712 = stablehlo.broadcast_in_dim %cst_33, dims = [] : (tensor<f32>) -> tensor<4xf32> loc(#loc7238)
    %713 = stablehlo.multiply %712, %711 : tensor<4xf32> loc(#loc7238)
    %714 = stablehlo.multiply %690, %692 : tensor<4xf32> loc(#loc7239)
    %715 = stablehlo.multiply %696, %694 : tensor<4xf32> loc(#loc7240)
    %716 = stablehlo.add %714, %715 : tensor<4xf32> loc(#loc7241)
    %717 = stablehlo.broadcast_in_dim %cst_33, dims = [] : (tensor<f32>) -> tensor<4xf32> loc(#loc7242)
    %718 = stablehlo.multiply %717, %716 : tensor<4xf32> loc(#loc7242)
    %719 = stablehlo.multiply %690, %690 : tensor<4xf32> loc(#loc7243)
    %720 = stablehlo.multiply %694, %694 : tensor<4xf32> loc(#loc7244)
    %721 = stablehlo.add %719, %720 : tensor<4xf32> loc(#loc7245)
    %722 = stablehlo.broadcast_in_dim %cst_33, dims = [] : (tensor<f32>) -> tensor<4xf32> loc(#loc7246)
    %723 = stablehlo.multiply %722, %721 : tensor<4xf32> loc(#loc7246)
    %724 = stablehlo.broadcast_in_dim %cst_32, dims = [] : (tensor<f32>) -> tensor<4xf32> loc(#loc7247)
    %725 = stablehlo.subtract %724, %723 : tensor<4xf32> loc(#loc7247)
    %726 = stablehlo.multiply %692, %694 : tensor<4xf32> loc(#loc7248)
    %727 = stablehlo.multiply %696, %690 : tensor<4xf32> loc(#loc7249)
    %728 = stablehlo.subtract %726, %727 : tensor<4xf32> loc(#loc7250)
    %729 = stablehlo.broadcast_in_dim %cst_33, dims = [] : (tensor<f32>) -> tensor<4xf32> loc(#loc7251)
    %730 = stablehlo.multiply %729, %728 : tensor<4xf32> loc(#loc7251)
    %731 = stablehlo.multiply %690, %694 : tensor<4xf32> loc(#loc7252)
    %732 = stablehlo.multiply %696, %692 : tensor<4xf32> loc(#loc7253)
    %733 = stablehlo.subtract %731, %732 : tensor<4xf32> loc(#loc7254)
    %734 = stablehlo.broadcast_in_dim %cst_33, dims = [] : (tensor<f32>) -> tensor<4xf32> loc(#loc7255)
    %735 = stablehlo.multiply %734, %733 : tensor<4xf32> loc(#loc7255)
    %736 = stablehlo.multiply %692, %694 : tensor<4xf32> loc(#loc7256)
    %737 = stablehlo.multiply %696, %690 : tensor<4xf32> loc(#loc7257)
    %738 = stablehlo.add %736, %737 : tensor<4xf32> loc(#loc7258)
    %739 = stablehlo.broadcast_in_dim %cst_33, dims = [] : (tensor<f32>) -> tensor<4xf32> loc(#loc7259)
    %740 = stablehlo.multiply %739, %738 : tensor<4xf32> loc(#loc7259)
    %741 = stablehlo.multiply %690, %690 : tensor<4xf32> loc(#loc7260)
    %742 = stablehlo.multiply %692, %692 : tensor<4xf32> loc(#loc7261)
    %743 = stablehlo.add %741, %742 : tensor<4xf32> loc(#loc7262)
    %744 = stablehlo.broadcast_in_dim %cst_33, dims = [] : (tensor<f32>) -> tensor<4xf32> loc(#loc7263)
    %745 = stablehlo.multiply %744, %743 : tensor<4xf32> loc(#loc7263)
    %746 = stablehlo.broadcast_in_dim %cst_32, dims = [] : (tensor<f32>) -> tensor<4xf32> loc(#loc7264)
    %747 = stablehlo.subtract %746, %745 : tensor<4xf32> loc(#loc7264)
    %748 = stablehlo.broadcast_in_dim %703, dims = [0] : (tensor<4xf32>) -> tensor<4x1xf32> loc(#loc7265)
    %749 = stablehlo.broadcast_in_dim %708, dims = [0] : (tensor<4xf32>) -> tensor<4x1xf32> loc(#loc7265)
    %750 = stablehlo.broadcast_in_dim %713, dims = [0] : (tensor<4xf32>) -> tensor<4x1xf32> loc(#loc7265)
    %751 = stablehlo.concatenate %748, %749, %750, dim = 1 : (tensor<4x1xf32>, tensor<4x1xf32>, tensor<4x1xf32>) -> tensor<4x3xf32> loc(#loc7266)
    %752 = stablehlo.broadcast_in_dim %751, dims = [0, 2] : (tensor<4x3xf32>) -> tensor<4x1x3xf32> loc(#loc7265)
    %753 = stablehlo.broadcast_in_dim %718, dims = [0] : (tensor<4xf32>) -> tensor<4x1xf32> loc(#loc7265)
    %754 = stablehlo.broadcast_in_dim %725, dims = [0] : (tensor<4xf32>) -> tensor<4x1xf32> loc(#loc7265)
    %755 = stablehlo.broadcast_in_dim %730, dims = [0] : (tensor<4xf32>) -> tensor<4x1xf32> loc(#loc7265)
    %756 = stablehlo.concatenate %753, %754, %755, dim = 1 : (tensor<4x1xf32>, tensor<4x1xf32>, tensor<4x1xf32>) -> tensor<4x3xf32> loc(#loc7266)
    %757 = stablehlo.broadcast_in_dim %756, dims = [0, 2] : (tensor<4x3xf32>) -> tensor<4x1x3xf32> loc(#loc7265)
    %758 = stablehlo.broadcast_in_dim %735, dims = [0] : (tensor<4xf32>) -> tensor<4x1xf32> loc(#loc7265)
    %759 = stablehlo.broadcast_in_dim %740, dims = [0] : (tensor<4xf32>) -> tensor<4x1xf32> loc(#loc7265)
    %760 = stablehlo.broadcast_in_dim %747, dims = [0] : (tensor<4xf32>) -> tensor<4x1xf32> loc(#loc7265)
    %761 = stablehlo.concatenate %758, %759, %760, dim = 1 : (tensor<4x1xf32>, tensor<4x1xf32>, tensor<4x1xf32>) -> tensor<4x3xf32> loc(#loc7266)
    %762 = stablehlo.broadcast_in_dim %761, dims = [0, 2] : (tensor<4x3xf32>) -> tensor<4x1x3xf32> loc(#loc7265)
    %763 = stablehlo.concatenate %752, %757, %762, dim = 1 : (tensor<4x1x3xf32>, tensor<4x1x3xf32>, tensor<4x1x3xf32>) -> tensor<4x3x3xf32> loc(#loc7266)
    %764 = stablehlo.subtract %480, %375 : tensor<4x3xf32> loc(#loc6073)
    %765 = stablehlo.broadcast_in_dim %cst_30, dims = [] : (tensor<f32>) -> tensor<3xf32> loc(#loc6074)
    %766 = stablehlo.broadcast_in_dim %cst_30, dims = [] : (tensor<f32>) -> tensor<3x3xf32> loc(#loc6075)
    %767 = stablehlo.broadcast_in_dim %cst_30, dims = [] : (tensor<f32>) -> tensor<3xf32> loc(#loc6076)
    %768 = stablehlo.broadcast_in_dim %cst_30, dims = [] : (tensor<f32>) -> tensor<3x3xf32> loc(#loc6077)
    %769 = stablehlo.slice %688 [0:4, 0:3, 0:1] : (tensor<4x3x3xf32>) -> tensor<4x3x1xf32> loc(#loc7267)
    %770 = stablehlo.reshape %769 : (tensor<4x3x1xf32>) -> tensor<4x3xf32> loc(#loc7268)
    %771 = stablehlo.slice %465 [0:4, 0:1] : (tensor<4x3xf32>) -> tensor<4x1xf32> loc(#loc7269)
    %772 = stablehlo.reshape %771 : (tensor<4x1xf32>) -> tensor<4xf32> loc(#loc7270)
    %773 = stablehlo.transpose %763, dims = [0, 2, 1] : (tensor<4x3x3xf32>) -> tensor<4x3x3xf32> loc(#loc7271)
    %774 = stablehlo.dot_general %773, %770, batching_dims = [0] x [0], contracting_dims = [2] x [1] : (tensor<4x3x3xf32>, tensor<4x3xf32>) -> tensor<4x3xf32> loc(#loc7272)
    %775 = stablehlo.abs %774 : tensor<4x3xf32> loc(#loc7273)
    %776 = stablehlo.dot_general %570, %775, batching_dims = [0] x [0], contracting_dims = [1] x [1] : (tensor<4x3xf32>, tensor<4x3xf32>) -> tensor<4xf32> loc(#loc7274)
    %777 = stablehlo.dot_general %764, %770, batching_dims = [0] x [0], contracting_dims = [1] x [1] : (tensor<4x3xf32>, tensor<4x3xf32>) -> tensor<4xf32> loc(#loc7275)
    %778 = stablehlo.abs %777 : tensor<4xf32> loc(#loc7276)
    %779 = stablehlo.add %772, %776 : tensor<4xf32> loc(#loc7277)
    %780 = stablehlo.subtract %778, %779 : tensor<4xf32> loc(#loc7278)
    %781 = stablehlo.dot_general %764, %770, batching_dims = [0] x [0], contracting_dims = [1] x [1] : (tensor<4x3xf32>, tensor<4x3xf32>) -> tensor<4xf32> loc(#loc7279)
    %782 = stablehlo.broadcast_in_dim %cst_30, dims = [] : (tensor<f32>) -> tensor<4xf32> loc(#loc7280)
    %783 = stablehlo.compare GE, %781, %782, FLOAT : (tensor<4xf32>, tensor<4xf32>) -> tensor<4xi1> loc(#loc7280)
    %784 = stablehlo.negate %770 : tensor<4x3xf32> loc(#loc7281)
    %785 = call @_where_4(%783, %770, %784) : (tensor<4xi1>, tensor<4x3xf32>, tensor<4x3xf32>) -> tensor<4x3xf32> loc(#loc7282)
    %786 = stablehlo.broadcast_in_dim %c_29, dims = [] : (tensor<i32>) -> tensor<1xi32> loc(#loc6092)
    %787 = stablehlo.broadcast_in_dim %765, dims = [1] : (tensor<3xf32>) -> tensor<4x3xf32> loc(#loc6092)
    %788 = "stablehlo.scatter"(%787, %786, %780) <{indices_are_sorted = true, scatter_dimension_numbers = #stablehlo.scatter<update_window_dims = [0], inserted_window_dims = [1], scatter_dims_to_operand_dims = [1]>, unique_indices = true}> ({
    ^bb0(%arg137: tensor<f32> loc("scatter:"(#loc246)), %arg138: tensor<f32> loc("scatter:"(#loc246))):
      stablehlo.return %arg138 : tensor<f32> loc(#loc6093)
    }) : (tensor<4x3xf32>, tensor<1xi32>, tensor<4xf32>) -> tensor<4x3xf32> loc(#loc6093)
    %789 = stablehlo.broadcast_in_dim %c_29, dims = [] : (tensor<i32>) -> tensor<1xi32> loc(#loc6094)
    %790 = stablehlo.broadcast_in_dim %766, dims = [1, 2] : (tensor<3x3xf32>) -> tensor<4x3x3xf32> loc(#loc6094)
    %791 = "stablehlo.scatter"(%790, %789, %785) <{indices_are_sorted = true, scatter_dimension_numbers = #stablehlo.scatter<update_window_dims = [0, 1], inserted_window_dims = [1], scatter_dims_to_operand_dims = [1]>, unique_indices = true}> ({
    ^bb0(%arg137: tensor<f32> loc("scatter:"(#loc246)), %arg138: tensor<f32> loc("scatter:"(#loc246))):
      stablehlo.return %arg138 : tensor<f32> loc(#loc6095)
    }) : (tensor<4x3x3xf32>, tensor<1xi32>, tensor<4x3xf32>) -> tensor<4x3x3xf32> loc(#loc6095)
    %792 = stablehlo.slice %763 [0:4, 0:3, 0:1] : (tensor<4x3x3xf32>) -> tensor<4x3x1xf32> loc(#loc7283)
    %793 = stablehlo.reshape %792 : (tensor<4x3x1xf32>) -> tensor<4x3xf32> loc(#loc7284)
    %794 = stablehlo.slice %570 [0:4, 0:1] : (tensor<4x3xf32>) -> tensor<4x1xf32> loc(#loc7285)
    %795 = stablehlo.reshape %794 : (tensor<4x1xf32>) -> tensor<4xf32> loc(#loc7286)
    %796 = stablehlo.transpose %688, dims = [0, 2, 1] : (tensor<4x3x3xf32>) -> tensor<4x3x3xf32> loc(#loc7287)
    %797 = stablehlo.dot_general %796, %793, batching_dims = [0] x [0], contracting_dims = [2] x [1] : (tensor<4x3x3xf32>, tensor<4x3xf32>) -> tensor<4x3xf32> loc(#loc7288)
    %798 = stablehlo.abs %797 : tensor<4x3xf32> loc(#loc7289)
    %799 = stablehlo.dot_general %465, %798, batching_dims = [0] x [0], contracting_dims = [1] x [1] : (tensor<4x3xf32>, tensor<4x3xf32>) -> tensor<4xf32> loc(#loc7290)
    %800 = stablehlo.dot_general %764, %793, batching_dims = [0] x [0], contracting_dims = [1] x [1] : (tensor<4x3xf32>, tensor<4x3xf32>) -> tensor<4xf32> loc(#loc7291)
    %801 = stablehlo.abs %800 : tensor<4xf32> loc(#loc7292)
    %802 = stablehlo.add %795, %799 : tensor<4xf32> loc(#loc7293)
    %803 = stablehlo.subtract %801, %802 : tensor<4xf32> loc(#loc7294)
    %804 = stablehlo.dot_general %764, %793, batching_dims = [0] x [0], contracting_dims = [1] x [1] : (tensor<4x3xf32>, tensor<4x3xf32>) -> tensor<4xf32> loc(#loc7295)
    %805 = stablehlo.broadcast_in_dim %cst_30, dims = [] : (tensor<f32>) -> tensor<4xf32> loc(#loc7296)
    %806 = stablehlo.compare GE, %804, %805, FLOAT : (tensor<4xf32>, tensor<4xf32>) -> tensor<4xi1> loc(#loc7296)
    %807 = stablehlo.negate %793 : tensor<4x3xf32> loc(#loc7297)
    %808 = call @_where_4(%806, %793, %807) : (tensor<4xi1>, tensor<4x3xf32>, tensor<4x3xf32>) -> tensor<4x3xf32> loc(#loc7298)
    %809 = stablehlo.broadcast_in_dim %c_29, dims = [] : (tensor<i32>) -> tensor<1xi32> loc(#loc6110)
    %810 = stablehlo.broadcast_in_dim %767, dims = [1] : (tensor<3xf32>) -> tensor<4x3xf32> loc(#loc6110)
    %811 = "stablehlo.scatter"(%810, %809, %803) <{indices_are_sorted = true, scatter_dimension_numbers = #stablehlo.scatter<update_window_dims = [0], inserted_window_dims = [1], scatter_dims_to_operand_dims = [1]>, unique_indices = true}> ({
    ^bb0(%arg137: tensor<f32> loc("scatter:"(#loc246)), %arg138: tensor<f32> loc("scatter:"(#loc246))):
      stablehlo.return %arg138 : tensor<f32> loc(#loc6111)
    }) : (tensor<4x3xf32>, tensor<1xi32>, tensor<4xf32>) -> tensor<4x3xf32> loc(#loc6111)
    %812 = stablehlo.broadcast_in_dim %c_29, dims = [] : (tensor<i32>) -> tensor<1xi32> loc(#loc6112)
    %813 = stablehlo.broadcast_in_dim %768, dims = [1, 2] : (tensor<3x3xf32>) -> tensor<4x3x3xf32> loc(#loc6112)
    %814 = "stablehlo.scatter"(%813, %812, %808) <{indices_are_sorted = true, scatter_dimension_numbers = #stablehlo.scatter<update_window_dims = [0, 1], inserted_window_dims = [1], scatter_dims_to_operand_dims = [1]>, unique_indices = true}> ({
    ^bb0(%arg137: tensor<f32> loc("scatter:"(#loc246)), %arg138: tensor<f32> loc("scatter:"(#loc246))):
      stablehlo.return %arg138 : tensor<f32> loc(#loc6113)
    }) : (tensor<4x3x3xf32>, tensor<1xi32>, tensor<4x3xf32>) -> tensor<4x3x3xf32> loc(#loc6113)
    %815 = stablehlo.slice %688 [0:4, 0:3, 1:2] : (tensor<4x3x3xf32>) -> tensor<4x3x1xf32> loc(#loc7267)
    %816 = stablehlo.reshape %815 : (tensor<4x3x1xf32>) -> tensor<4x3xf32> loc(#loc7268)
    %817 = stablehlo.slice %465 [0:4, 1:2] : (tensor<4x3xf32>) -> tensor<4x1xf32> loc(#loc7269)
    %818 = stablehlo.reshape %817 : (tensor<4x1xf32>) -> tensor<4xf32> loc(#loc7270)
    %819 = stablehlo.transpose %763, dims = [0, 2, 1] : (tensor<4x3x3xf32>) -> tensor<4x3x3xf32> loc(#loc7271)
    %820 = stablehlo.dot_general %819, %816, batching_dims = [0] x [0], contracting_dims = [2] x [1] : (tensor<4x3x3xf32>, tensor<4x3xf32>) -> tensor<4x3xf32> loc(#loc7272)
    %821 = stablehlo.abs %820 : tensor<4x3xf32> loc(#loc7273)
    %822 = stablehlo.dot_general %570, %821, batching_dims = [0] x [0], contracting_dims = [1] x [1] : (tensor<4x3xf32>, tensor<4x3xf32>) -> tensor<4xf32> loc(#loc7274)
    %823 = stablehlo.dot_general %764, %816, batching_dims = [0] x [0], contracting_dims = [1] x [1] : (tensor<4x3xf32>, tensor<4x3xf32>) -> tensor<4xf32> loc(#loc7275)
    %824 = stablehlo.abs %823 : tensor<4xf32> loc(#loc7276)
    %825 = stablehlo.add %818, %822 : tensor<4xf32> loc(#loc7277)
    %826 = stablehlo.subtract %824, %825 : tensor<4xf32> loc(#loc7278)
    %827 = stablehlo.dot_general %764, %816, batching_dims = [0] x [0], contracting_dims = [1] x [1] : (tensor<4x3xf32>, tensor<4x3xf32>) -> tensor<4xf32> loc(#loc7279)
    %828 = stablehlo.broadcast_in_dim %cst_30, dims = [] : (tensor<f32>) -> tensor<4xf32> loc(#loc7280)
    %829 = stablehlo.compare GE, %827, %828, FLOAT : (tensor<4xf32>, tensor<4xf32>) -> tensor<4xi1> loc(#loc7280)
    %830 = stablehlo.negate %816 : tensor<4x3xf32> loc(#loc7281)
    %831 = call @_where_4(%829, %816, %830) : (tensor<4xi1>, tensor<4x3xf32>, tensor<4x3xf32>) -> tensor<4x3xf32> loc(#loc7282)
    %832 = stablehlo.broadcast_in_dim %c_23, dims = [] : (tensor<i32>) -> tensor<1xi32> loc(#loc6092)
    %833 = "stablehlo.scatter"(%788, %832, %826) <{indices_are_sorted = true, scatter_dimension_numbers = #stablehlo.scatter<update_window_dims = [0], inserted_window_dims = [1], scatter_dims_to_operand_dims = [1]>, unique_indices = true}> ({
    ^bb0(%arg137: tensor<f32> loc("scatter:"(#loc246)), %arg138: tensor<f32> loc("scatter:"(#loc246))):
      stablehlo.return %arg138 : tensor<f32> loc(#loc6093)
    }) : (tensor<4x3xf32>, tensor<1xi32>, tensor<4xf32>) -> tensor<4x3xf32> loc(#loc6093)
    %834 = stablehlo.broadcast_in_dim %c_23, dims = [] : (tensor<i32>) -> tensor<1xi32> loc(#loc6094)
    %835 = "stablehlo.scatter"(%791, %834, %831) <{indices_are_sorted = true, scatter_dimension_numbers = #stablehlo.scatter<update_window_dims = [0, 1], inserted_window_dims = [1], scatter_dims_to_operand_dims = [1]>, unique_indices = true}> ({
    ^bb0(%arg137: tensor<f32> loc("scatter:"(#loc246)), %arg138: tensor<f32> loc("scatter:"(#loc246))):
      stablehlo.return %arg138 : tensor<f32> loc(#loc6095)
    }) : (tensor<4x3x3xf32>, tensor<1xi32>, tensor<4x3xf32>) -> tensor<4x3x3xf32> loc(#loc6095)
    %836 = stablehlo.slice %763 [0:4, 0:3, 1:2] : (tensor<4x3x3xf32>) -> tensor<4x3x1xf32> loc(#loc7283)
    %837 = stablehlo.reshape %836 : (tensor<4x3x1xf32>) -> tensor<4x3xf32> loc(#loc7284)
    %838 = stablehlo.slice %570 [0:4, 1:2] : (tensor<4x3xf32>) -> tensor<4x1xf32> loc(#loc7285)
    %839 = stablehlo.reshape %838 : (tensor<4x1xf32>) -> tensor<4xf32> loc(#loc7286)
    %840 = stablehlo.transpose %688, dims = [0, 2, 1] : (tensor<4x3x3xf32>) -> tensor<4x3x3xf32> loc(#loc7287)
    %841 = stablehlo.dot_general %840, %837, batching_dims = [0] x [0], contracting_dims = [2] x [1] : (tensor<4x3x3xf32>, tensor<4x3xf32>) -> tensor<4x3xf32> loc(#loc7288)
    %842 = stablehlo.abs %841 : tensor<4x3xf32> loc(#loc7289)
    %843 = stablehlo.dot_general %465, %842, batching_dims = [0] x [0], contracting_dims = [1] x [1] : (tensor<4x3xf32>, tensor<4x3xf32>) -> tensor<4xf32> loc(#loc7290)
    %844 = stablehlo.dot_general %764, %837, batching_dims = [0] x [0], contracting_dims = [1] x [1] : (tensor<4x3xf32>, tensor<4x3xf32>) -> tensor<4xf32> loc(#loc7291)
    %845 = stablehlo.abs %844 : tensor<4xf32> loc(#loc7292)
    %846 = stablehlo.add %839, %843 : tensor<4xf32> loc(#loc7293)
    %847 = stablehlo.subtract %845, %846 : tensor<4xf32> loc(#loc7294)
    %848 = stablehlo.dot_general %764, %837, batching_dims = [0] x [0], contracting_dims = [1] x [1] : (tensor<4x3xf32>, tensor<4x3xf32>) -> tensor<4xf32> loc(#loc7295)
    %849 = stablehlo.broadcast_in_dim %cst_30, dims = [] : (tensor<f32>) -> tensor<4xf32> loc(#loc7296)
    %850 = stablehlo.compare GE, %848, %849, FLOAT : (tensor<4xf32>, tensor<4xf32>) -> tensor<4xi1> loc(#loc7296)
    %851 = stablehlo.negate %837 : tensor<4x3xf32> loc(#loc7297)
    %852 = call @_where_4(%850, %837, %851) : (tensor<4xi1>, tensor<4x3xf32>, tensor<4x3xf32>) -> tensor<4x3xf32> loc(#loc7298)
    %853 = stablehlo.broadcast_in_dim %c_23, dims = [] : (tensor<i32>) -> tensor<1xi32> loc(#loc6110)
    %854 = "stablehlo.scatter"(%811, %853, %847) <{indices_are_sorted = true, scatter_dimension_numbers = #stablehlo.scatter<update_window_dims = [0], inserted_window_dims = [1], scatter_dims_to_operand_dims = [1]>, unique_indices = true}> ({
    ^bb0(%arg137: tensor<f32> loc("scatter:"(#loc246)), %arg138: tensor<f32> loc("scatter:"(#loc246))):
      stablehlo.return %arg138 : tensor<f32> loc(#loc6111)
    }) : (tensor<4x3xf32>, tensor<1xi32>, tensor<4xf32>) -> tensor<4x3xf32> loc(#loc6111)
    %855 = stablehlo.broadcast_in_dim %c_23, dims = [] : (tensor<i32>) -> tensor<1xi32> loc(#loc6112)
    %856 = "stablehlo.scatter"(%814, %855, %852) <{indices_are_sorted = true, scatter_dimension_numbers = #stablehlo.scatter<update_window_dims = [0, 1], inserted_window_dims = [1], scatter_dims_to_operand_dims = [1]>, unique_indices = true}> ({
    ^bb0(%arg137: tensor<f32> loc("scatter:"(#loc246)), %arg138: tensor<f32> loc("scatter:"(#loc246))):
      stablehlo.return %arg138 : tensor<f32> loc(#loc6113)
    }) : (tensor<4x3x3xf32>, tensor<1xi32>, tensor<4x3xf32>) -> tensor<4x3x3xf32> loc(#loc6113)
    %857 = stablehlo.slice %688 [0:4, 0:3, 2:3] : (tensor<4x3x3xf32>) -> tensor<4x3x1xf32> loc(#loc7267)
    %858 = stablehlo.reshape %857 : (tensor<4x3x1xf32>) -> tensor<4x3xf32> loc(#loc7268)
    %859 = stablehlo.slice %465 [0:4, 2:3] : (tensor<4x3xf32>) -> tensor<4x1xf32> loc(#loc7269)
    %860 = stablehlo.reshape %859 : (tensor<4x1xf32>) -> tensor<4xf32> loc(#loc7270)
    %861 = stablehlo.transpose %763, dims = [0, 2, 1] : (tensor<4x3x3xf32>) -> tensor<4x3x3xf32> loc(#loc7271)
    %862 = stablehlo.dot_general %861, %858, batching_dims = [0] x [0], contracting_dims = [2] x [1] : (tensor<4x3x3xf32>, tensor<4x3xf32>) -> tensor<4x3xf32> loc(#loc7272)
    %863 = stablehlo.abs %862 : tensor<4x3xf32> loc(#loc7273)
    %864 = stablehlo.dot_general %570, %863, batching_dims = [0] x [0], contracting_dims = [1] x [1] : (tensor<4x3xf32>, tensor<4x3xf32>) -> tensor<4xf32> loc(#loc7274)
    %865 = stablehlo.dot_general %764, %858, batching_dims = [0] x [0], contracting_dims = [1] x [1] : (tensor<4x3xf32>, tensor<4x3xf32>) -> tensor<4xf32> loc(#loc7275)
    %866 = stablehlo.abs %865 : tensor<4xf32> loc(#loc7276)
    %867 = stablehlo.add %860, %864 : tensor<4xf32> loc(#loc7277)
    %868 = stablehlo.subtract %866, %867 : tensor<4xf32> loc(#loc7278)
    %869 = stablehlo.dot_general %764, %858, batching_dims = [0] x [0], contracting_dims = [1] x [1] : (tensor<4x3xf32>, tensor<4x3xf32>) -> tensor<4xf32> loc(#loc7279)
    %870 = stablehlo.broadcast_in_dim %cst_30, dims = [] : (tensor<f32>) -> tensor<4xf32> loc(#loc7280)
    %871 = stablehlo.compare GE, %869, %870, FLOAT : (tensor<4xf32>, tensor<4xf32>) -> tensor<4xi1> loc(#loc7280)
    %872 = stablehlo.negate %858 : tensor<4x3xf32> loc(#loc7281)
    %873 = call @_where_4(%871, %858, %872) : (tensor<4xi1>, tensor<4x3xf32>, tensor<4x3xf32>) -> tensor<4x3xf32> loc(#loc7282)
    %874 = stablehlo.broadcast_in_dim %c_24, dims = [] : (tensor<i32>) -> tensor<1xi32> loc(#loc6092)
    %875 = "stablehlo.scatter"(%833, %874, %868) <{indices_are_sorted = true, scatter_dimension_numbers = #stablehlo.scatter<update_window_dims = [0], inserted_window_dims = [1], scatter_dims_to_operand_dims = [1]>, unique_indices = true}> ({
    ^bb0(%arg137: tensor<f32> loc("scatter:"(#loc246)), %arg138: tensor<f32> loc("scatter:"(#loc246))):
      stablehlo.return %arg138 : tensor<f32> loc(#loc6093)
    }) : (tensor<4x3xf32>, tensor<1xi32>, tensor<4xf32>) -> tensor<4x3xf32> loc(#loc6093)
    %876 = stablehlo.broadcast_in_dim %c_24, dims = [] : (tensor<i32>) -> tensor<1xi32> loc(#loc6094)
    %877 = "stablehlo.scatter"(%835, %876, %873) <{indices_are_sorted = true, scatter_dimension_numbers = #stablehlo.scatter<update_window_dims = [0, 1], inserted_window_dims = [1], scatter_dims_to_operand_dims = [1]>, unique_indices = true}> ({
    ^bb0(%arg137: tensor<f32> loc("scatter:"(#loc246)), %arg138: tensor<f32> loc("scatter:"(#loc246))):
      stablehlo.return %arg138 : tensor<f32> loc(#loc6095)
    }) : (tensor<4x3x3xf32>, tensor<1xi32>, tensor<4x3xf32>) -> tensor<4x3x3xf32> loc(#loc6095)
    %878 = stablehlo.slice %763 [0:4, 0:3, 2:3] : (tensor<4x3x3xf32>) -> tensor<4x3x1xf32> loc(#loc7283)
    %879 = stablehlo.reshape %878 : (tensor<4x3x1xf32>) -> tensor<4x3xf32> loc(#loc7284)
    %880 = stablehlo.slice %570 [0:4, 2:3] : (tensor<4x3xf32>) -> tensor<4x1xf32> loc(#loc7285)
    %881 = stablehlo.reshape %880 : (tensor<4x1xf32>) -> tensor<4xf32> loc(#loc7286)
    %882 = stablehlo.transpose %688, dims = [0, 2, 1] : (tensor<4x3x3xf32>) -> tensor<4x3x3xf32> loc(#loc7287)
    %883 = stablehlo.dot_general %882, %879, batching_dims = [0] x [0], contracting_dims = [2] x [1] : (tensor<4x3x3xf32>, tensor<4x3xf32>) -> tensor<4x3xf32> loc(#loc7288)
    %884 = stablehlo.abs %883 : tensor<4x3xf32> loc(#loc7289)
    %885 = stablehlo.dot_general %465, %884, batching_dims = [0] x [0], contracting_dims = [1] x [1] : (tensor<4x3xf32>, tensor<4x3xf32>) -> tensor<4xf32> loc(#loc7290)
    %886 = stablehlo.dot_general %764, %879, batching_dims = [0] x [0], contracting_dims = [1] x [1] : (tensor<4x3xf32>, tensor<4x3xf32>) -> tensor<4xf32> loc(#loc7291)
    %887 = stablehlo.abs %886 : tensor<4xf32> loc(#loc7292)
    %888 = stablehlo.add %881, %885 : tensor<4xf32> loc(#loc7293)
    %889 = stablehlo.subtract %887, %888 : tensor<4xf32> loc(#loc7294)
    %890 = stablehlo.dot_general %764, %879, batching_dims = [0] x [0], contracting_dims = [1] x [1] : (tensor<4x3xf32>, tensor<4x3xf32>) -> tensor<4xf32> loc(#loc7295)
    %891 = stablehlo.broadcast_in_dim %cst_30, dims = [] : (tensor<f32>) -> tensor<4xf32> loc(#loc7296)
    %892 = stablehlo.compare GE, %890, %891, FLOAT : (tensor<4xf32>, tensor<4xf32>) -> tensor<4xi1> loc(#loc7296)
    %893 = stablehlo.negate %879 : tensor<4x3xf32> loc(#loc7297)
    %894 = call @_where_4(%892, %879, %893) : (tensor<4xi1>, tensor<4x3xf32>, tensor<4x3xf32>) -> tensor<4x3xf32> loc(#loc7298)
    %895 = stablehlo.broadcast_in_dim %c_24, dims = [] : (tensor<i32>) -> tensor<1xi32> loc(#loc6110)
    %896 = "stablehlo.scatter"(%854, %895, %889) <{indices_are_sorted = true, scatter_dimension_numbers = #stablehlo.scatter<update_window_dims = [0], inserted_window_dims = [1], scatter_dims_to_operand_dims = [1]>, unique_indices = true}> ({
    ^bb0(%arg137: tensor<f32> loc("scatter:"(#loc246)), %arg138: tensor<f32> loc("scatter:"(#loc246))):
      stablehlo.return %arg138 : tensor<f32> loc(#loc6111)
    }) : (tensor<4x3xf32>, tensor<1xi32>, tensor<4xf32>) -> tensor<4x3xf32> loc(#loc6111)
    %897 = stablehlo.broadcast_in_dim %c_24, dims = [] : (tensor<i32>) -> tensor<1xi32> loc(#loc6112)
    %898 = "stablehlo.scatter"(%856, %897, %894) <{indices_are_sorted = true, scatter_dimension_numbers = #stablehlo.scatter<update_window_dims = [0, 1], inserted_window_dims = [1], scatter_dims_to_operand_dims = [1]>, unique_indices = true}> ({
    ^bb0(%arg137: tensor<f32> loc("scatter:"(#loc246)), %arg138: tensor<f32> loc("scatter:"(#loc246))):
      stablehlo.return %arg138 : tensor<f32> loc(#loc6113)
    }) : (tensor<4x3x3xf32>, tensor<1xi32>, tensor<4x3xf32>) -> tensor<4x3x3xf32> loc(#loc6113)
    %899 = stablehlo.broadcast_in_dim %cst_22, dims = [] : (tensor<f32>) -> tensor<3x3xf32> loc(#loc6114)
    %900 = stablehlo.broadcast_in_dim %cst_30, dims = [] : (tensor<f32>) -> tensor<3x3x3xf32> loc(#loc6115)
    %901 = stablehlo.slice %688 [0:4, 0:3, 0:1] : (tensor<4x3x3xf32>) -> tensor<4x3x1xf32> loc(#loc6116)
    %902 = stablehlo.reshape %901 : (tensor<4x3x1xf32>) -> tensor<4x3xf32> loc(#loc6117)
    %903 = stablehlo.slice %763 [0:4, 0:3, 0:1] : (tensor<4x3x3xf32>) -> tensor<4x3x1xf32> loc(#loc6118)
    %904 = stablehlo.reshape %903 : (tensor<4x3x1xf32>) -> tensor<4x3xf32> loc(#loc6119)
    %905 = call @cross(%902, %904) : (tensor<4x3xf32>, tensor<4x3xf32>) -> tensor<4x3xf32> loc(#loc6120)
    %906 = call @norm(%905) : (tensor<4x3xf32>) -> tensor<4xf32> loc(#loc6121)
    %907 = stablehlo.broadcast_in_dim %cst_21, dims = [] : (tensor<f32>) -> tensor<4xf32> loc(#loc6122)
    %908 = stablehlo.compare GT, %906, %907, FLOAT : (tensor<4xf32>, tensor<4xf32>) -> tensor<4xi1> loc(#loc6122)
    %909 = stablehlo.broadcast_in_dim %cst_30, dims = [] : (tensor<f32>) -> tensor<4xf32> loc(#loc7299)
    %910 = stablehlo.compare EQ, %906, %909, FLOAT : (tensor<4xf32>, tensor<4xf32>) -> tensor<4xi1> loc(#loc7299)
    %911 = stablehlo.broadcast_in_dim %cst_32, dims = [] : (tensor<f32>) -> tensor<4xf32> loc(#loc7300)
    %912 = stablehlo.select %910, %911, %906 : tensor<4xi1>, tensor<4xf32> loc(#loc7301)
    %913 = stablehlo.broadcast_in_dim %912, dims = [0] : (tensor<4xf32>) -> tensor<4x1xf32> loc(#loc6125)
    %914 = stablehlo.broadcast_in_dim %913, dims = [0, 1] : (tensor<4x1xf32>) -> tensor<4x3xf32> loc(#loc6126)
    %915 = stablehlo.divide %905, %914 : tensor<4x3xf32> loc(#loc6126)
    %916 = stablehlo.transpose %688, dims = [0, 2, 1] : (tensor<4x3x3xf32>) -> tensor<4x3x3xf32> loc(#loc6127)
    %917 = stablehlo.dot_general %916, %915, batching_dims = [0] x [0], contracting_dims = [2] x [1] : (tensor<4x3x3xf32>, tensor<4x3xf32>) -> tensor<4x3xf32> loc(#loc6128)
    %918 = stablehlo.abs %917 : tensor<4x3xf32> loc(#loc6129)
    %919 = stablehlo.dot_general %465, %918, batching_dims = [0] x [0], contracting_dims = [1] x [1] : (tensor<4x3xf32>, tensor<4x3xf32>) -> tensor<4xf32> loc(#loc6130)
    %920 = stablehlo.transpose %763, dims = [0, 2, 1] : (tensor<4x3x3xf32>) -> tensor<4x3x3xf32> loc(#loc6131)
    %921 = stablehlo.dot_general %920, %915, batching_dims = [0] x [0], contracting_dims = [2] x [1] : (tensor<4x3x3xf32>, tensor<4x3xf32>) -> tensor<4x3xf32> loc(#loc6132)
    %922 = stablehlo.abs %921 : tensor<4x3xf32> loc(#loc6133)
    %923 = stablehlo.dot_general %570, %922, batching_dims = [0] x [0], contracting_dims = [1] x [1] : (tensor<4x3xf32>, tensor<4x3xf32>) -> tensor<4xf32> loc(#loc6134)
    %924 = stablehlo.dot_general %764, %915, batching_dims = [0] x [0], contracting_dims = [1] x [1] : (tensor<4x3xf32>, tensor<4x3xf32>) -> tensor<4xf32> loc(#loc6135)
    %925 = stablehlo.abs %924 : tensor<4xf32> loc(#loc6136)
    %926 = stablehlo.add %919, %923 : tensor<4xf32> loc(#loc6137)
    %927 = stablehlo.subtract %925, %926 : tensor<4xf32> loc(#loc6138)
    %928 = call @_where_5(%908, %927, %cst_22) : (tensor<4xi1>, tensor<4xf32>, tensor<f32>) -> tensor<4xf32> loc(#loc6139)
    %929 = stablehlo.dot_general %764, %915, batching_dims = [0] x [0], contracting_dims = [1] x [1] : (tensor<4x3xf32>, tensor<4x3xf32>) -> tensor<4xf32> loc(#loc6140)
    %930 = stablehlo.broadcast_in_dim %cst_30, dims = [] : (tensor<f32>) -> tensor<4xf32> loc(#loc6141)
    %931 = stablehlo.compare GE, %929, %930, FLOAT : (tensor<4xf32>, tensor<4xf32>) -> tensor<4xi1> loc(#loc6141)
    %932 = stablehlo.negate %915 : tensor<4x3xf32> loc(#loc6142)
    %933 = call @_where_4(%931, %915, %932) : (tensor<4xi1>, tensor<4x3xf32>, tensor<4x3xf32>) -> tensor<4x3xf32> loc(#loc6143)
    %934 = stablehlo.broadcast_in_dim %c_29, dims = [] : (tensor<i32>) -> tensor<1xi32> loc(#loc6144)
    %935 = stablehlo.broadcast_in_dim %c_29, dims = [] : (tensor<i32>) -> tensor<1xi32> loc(#loc6144)
    %936 = stablehlo.concatenate %934, %935, dim = 0 : (tensor<1xi32>, tensor<1xi32>) -> tensor<2xi32> loc(#loc6145)
    %937 = stablehlo.convert %899 : tensor<3x3xf32> loc(#loc6146)
    %938 = stablehlo.broadcast_in_dim %937, dims = [1, 2] : (tensor<3x3xf32>) -> tensor<4x3x3xf32> loc(#loc6144)
    %939 = "stablehlo.scatter"(%938, %936, %928) <{indices_are_sorted = true, scatter_dimension_numbers = #stablehlo.scatter<update_window_dims = [0], inserted_window_dims = [1, 2], scatter_dims_to_operand_dims = [1, 2]>, unique_indices = true}> ({
    ^bb0(%arg137: tensor<f32> loc("scatter:"(#loc246)), %arg138: tensor<f32> loc("scatter:"(#loc246))):
      stablehlo.return %arg138 : tensor<f32> loc(#loc6147)
    }) : (tensor<4x3x3xf32>, tensor<2xi32>, tensor<4xf32>) -> tensor<4x3x3xf32> loc(#loc6147)
    %940 = stablehlo.convert %939 : tensor<4x3x3xf32> loc(#loc6146)
    %941 = stablehlo.broadcast_in_dim %c_29, dims = [] : (tensor<i32>) -> tensor<1xi32> loc(#loc6148)
    %942 = stablehlo.broadcast_in_dim %c_29, dims = [] : (tensor<i32>) -> tensor<1xi32> loc(#loc6148)
    %943 = stablehlo.concatenate %941, %942, dim = 0 : (tensor<1xi32>, tensor<1xi32>) -> tensor<2xi32> loc(#loc6149)
    %944 = stablehlo.broadcast_in_dim %900, dims = [1, 2, 3] : (tensor<3x3x3xf32>) -> tensor<4x3x3x3xf32> loc(#loc6148)
    %945 = "stablehlo.scatter"(%944, %943, %933) <{indices_are_sorted = true, scatter_dimension_numbers = #stablehlo.scatter<update_window_dims = [0, 1], inserted_window_dims = [1, 2], scatter_dims_to_operand_dims = [1, 2]>, unique_indices = true}> ({
    ^bb0(%arg137: tensor<f32> loc("scatter:"(#loc246)), %arg138: tensor<f32> loc("scatter:"(#loc246))):
      stablehlo.return %arg138 : tensor<f32> loc(#loc6150)
    }) : (tensor<4x3x3x3xf32>, tensor<2xi32>, tensor<4x3xf32>) -> tensor<4x3x3x3xf32> loc(#loc6150)
    %946 = stablehlo.slice %688 [0:4, 0:3, 0:1] : (tensor<4x3x3xf32>) -> tensor<4x3x1xf32> loc(#loc6116)
    %947 = stablehlo.reshape %946 : (tensor<4x3x1xf32>) -> tensor<4x3xf32> loc(#loc6117)
    %948 = stablehlo.slice %763 [0:4, 0:3, 1:2] : (tensor<4x3x3xf32>) -> tensor<4x3x1xf32> loc(#loc6118)
    %949 = stablehlo.reshape %948 : (tensor<4x3x1xf32>) -> tensor<4x3xf32> loc(#loc6119)
    %950 = call @cross(%947, %949) : (tensor<4x3xf32>, tensor<4x3xf32>) -> tensor<4x3xf32> loc(#loc6120)
    %951 = call @norm(%950) : (tensor<4x3xf32>) -> tensor<4xf32> loc(#loc6121)
    %952 = stablehlo.broadcast_in_dim %cst_21, dims = [] : (tensor<f32>) -> tensor<4xf32> loc(#loc6122)
    %953 = stablehlo.compare GT, %951, %952, FLOAT : (tensor<4xf32>, tensor<4xf32>) -> tensor<4xi1> loc(#loc6122)
    %954 = stablehlo.broadcast_in_dim %cst_30, dims = [] : (tensor<f32>) -> tensor<4xf32> loc(#loc7299)
    %955 = stablehlo.compare EQ, %951, %954, FLOAT : (tensor<4xf32>, tensor<4xf32>) -> tensor<4xi1> loc(#loc7299)
    %956 = stablehlo.broadcast_in_dim %cst_32, dims = [] : (tensor<f32>) -> tensor<4xf32> loc(#loc7300)
    %957 = stablehlo.select %955, %956, %951 : tensor<4xi1>, tensor<4xf32> loc(#loc7301)
    %958 = stablehlo.broadcast_in_dim %957, dims = [0] : (tensor<4xf32>) -> tensor<4x1xf32> loc(#loc6125)
    %959 = stablehlo.broadcast_in_dim %958, dims = [0, 1] : (tensor<4x1xf32>) -> tensor<4x3xf32> loc(#loc6126)
    %960 = stablehlo.divide %950, %959 : tensor<4x3xf32> loc(#loc6126)
    %961 = stablehlo.transpose %688, dims = [0, 2, 1] : (tensor<4x3x3xf32>) -> tensor<4x3x3xf32> loc(#loc6127)
    %962 = stablehlo.dot_general %961, %960, batching_dims = [0] x [0], contracting_dims = [2] x [1] : (tensor<4x3x3xf32>, tensor<4x3xf32>) -> tensor<4x3xf32> loc(#loc6128)
    %963 = stablehlo.abs %962 : tensor<4x3xf32> loc(#loc6129)
    %964 = stablehlo.dot_general %465, %963, batching_dims = [0] x [0], contracting_dims = [1] x [1] : (tensor<4x3xf32>, tensor<4x3xf32>) -> tensor<4xf32> loc(#loc6130)
    %965 = stablehlo.transpose %763, dims = [0, 2, 1] : (tensor<4x3x3xf32>) -> tensor<4x3x3xf32> loc(#loc6131)
    %966 = stablehlo.dot_general %965, %960, batching_dims = [0] x [0], contracting_dims = [2] x [1] : (tensor<4x3x3xf32>, tensor<4x3xf32>) -> tensor<4x3xf32> loc(#loc6132)
    %967 = stablehlo.abs %966 : tensor<4x3xf32> loc(#loc6133)
    %968 = stablehlo.dot_general %570, %967, batching_dims = [0] x [0], contracting_dims = [1] x [1] : (tensor<4x3xf32>, tensor<4x3xf32>) -> tensor<4xf32> loc(#loc6134)
    %969 = stablehlo.dot_general %764, %960, batching_dims = [0] x [0], contracting_dims = [1] x [1] : (tensor<4x3xf32>, tensor<4x3xf32>) -> tensor<4xf32> loc(#loc6135)
    %970 = stablehlo.abs %969 : tensor<4xf32> loc(#loc6136)
    %971 = stablehlo.add %964, %968 : tensor<4xf32> loc(#loc6137)
    %972 = stablehlo.subtract %970, %971 : tensor<4xf32> loc(#loc6138)
    %973 = call @_where_5(%953, %972, %cst_22) : (tensor<4xi1>, tensor<4xf32>, tensor<f32>) -> tensor<4xf32> loc(#loc6139)
    %974 = stablehlo.dot_general %764, %960, batching_dims = [0] x [0], contracting_dims = [1] x [1] : (tensor<4x3xf32>, tensor<4x3xf32>) -> tensor<4xf32> loc(#loc6140)
    %975 = stablehlo.broadcast_in_dim %cst_30, dims = [] : (tensor<f32>) -> tensor<4xf32> loc(#loc6141)
    %976 = stablehlo.compare GE, %974, %975, FLOAT : (tensor<4xf32>, tensor<4xf32>) -> tensor<4xi1> loc(#loc6141)
    %977 = stablehlo.negate %960 : tensor<4x3xf32> loc(#loc6142)
    %978 = call @_where_4(%976, %960, %977) : (tensor<4xi1>, tensor<4x3xf32>, tensor<4x3xf32>) -> tensor<4x3xf32> loc(#loc6143)
    %979 = stablehlo.broadcast_in_dim %c_29, dims = [] : (tensor<i32>) -> tensor<1xi32> loc(#loc6144)
    %980 = stablehlo.broadcast_in_dim %c_23, dims = [] : (tensor<i32>) -> tensor<1xi32> loc(#loc6144)
    %981 = stablehlo.concatenate %979, %980, dim = 0 : (tensor<1xi32>, tensor<1xi32>) -> tensor<2xi32> loc(#loc6145)
    %982 = stablehlo.convert %940 : tensor<4x3x3xf32> loc(#loc6146)
    %983 = "stablehlo.scatter"(%982, %981, %973) <{indices_are_sorted = true, scatter_dimension_numbers = #stablehlo.scatter<update_window_dims = [0], inserted_window_dims = [1, 2], scatter_dims_to_operand_dims = [1, 2]>, unique_indices = true}> ({
    ^bb0(%arg137: tensor<f32> loc("scatter:"(#loc246)), %arg138: tensor<f32> loc("scatter:"(#loc246))):
      stablehlo.return %arg138 : tensor<f32> loc(#loc6147)
    }) : (tensor<4x3x3xf32>, tensor<2xi32>, tensor<4xf32>) -> tensor<4x3x3xf32> loc(#loc6147)
    %984 = stablehlo.convert %983 : tensor<4x3x3xf32> loc(#loc6146)
    %985 = stablehlo.broadcast_in_dim %c_29, dims = [] : (tensor<i32>) -> tensor<1xi32> loc(#loc6148)
    %986 = stablehlo.broadcast_in_dim %c_23, dims = [] : (tensor<i32>) -> tensor<1xi32> loc(#loc6148)
    %987 = stablehlo.concatenate %985, %986, dim = 0 : (tensor<1xi32>, tensor<1xi32>) -> tensor<2xi32> loc(#loc6149)
    %988 = "stablehlo.scatter"(%945, %987, %978) <{indices_are_sorted = true, scatter_dimension_numbers = #stablehlo.scatter<update_window_dims = [0, 1], inserted_window_dims = [1, 2], scatter_dims_to_operand_dims = [1, 2]>, unique_indices = true}> ({
    ^bb0(%arg137: tensor<f32> loc("scatter:"(#loc246)), %arg138: tensor<f32> loc("scatter:"(#loc246))):
      stablehlo.return %arg138 : tensor<f32> loc(#loc6150)
    }) : (tensor<4x3x3x3xf32>, tensor<2xi32>, tensor<4x3xf32>) -> tensor<4x3x3x3xf32> loc(#loc6150)
    %989 = stablehlo.slice %688 [0:4, 0:3, 0:1] : (tensor<4x3x3xf32>) -> tensor<4x3x1xf32> loc(#loc6116)
    %990 = stablehlo.reshape %989 : (tensor<4x3x1xf32>) -> tensor<4x3xf32> loc(#loc6117)
    %991 = stablehlo.slice %763 [0:4, 0:3, 2:3] : (tensor<4x3x3xf32>) -> tensor<4x3x1xf32> loc(#loc6118)
    %992 = stablehlo.reshape %991 : (tensor<4x3x1xf32>) -> tensor<4x3xf32> loc(#loc6119)
    %993 = call @cross(%990, %992) : (tensor<4x3xf32>, tensor<4x3xf32>) -> tensor<4x3xf32> loc(#loc6120)
    %994 = call @norm(%993) : (tensor<4x3xf32>) -> tensor<4xf32> loc(#loc6121)
    %995 = stablehlo.broadcast_in_dim %cst_21, dims = [] : (tensor<f32>) -> tensor<4xf32> loc(#loc6122)
    %996 = stablehlo.compare GT, %994, %995, FLOAT : (tensor<4xf32>, tensor<4xf32>) -> tensor<4xi1> loc(#loc6122)
    %997 = stablehlo.broadcast_in_dim %cst_30, dims = [] : (tensor<f32>) -> tensor<4xf32> loc(#loc7299)
    %998 = stablehlo.compare EQ, %994, %997, FLOAT : (tensor<4xf32>, tensor<4xf32>) -> tensor<4xi1> loc(#loc7299)
    %999 = stablehlo.broadcast_in_dim %cst_32, dims = [] : (tensor<f32>) -> tensor<4xf32> loc(#loc7300)
    %1000 = stablehlo.select %998, %999, %994 : tensor<4xi1>, tensor<4xf32> loc(#loc7301)
    %1001 = stablehlo.broadcast_in_dim %1000, dims = [0] : (tensor<4xf32>) -> tensor<4x1xf32> loc(#loc6125)
    %1002 = stablehlo.broadcast_in_dim %1001, dims = [0, 1] : (tensor<4x1xf32>) -> tensor<4x3xf32> loc(#loc6126)
    %1003 = stablehlo.divide %993, %1002 : tensor<4x3xf32> loc(#loc6126)
    %1004 = stablehlo.transpose %688, dims = [0, 2, 1] : (tensor<4x3x3xf32>) -> tensor<4x3x3xf32> loc(#loc6127)
    %1005 = stablehlo.dot_general %1004, %1003, batching_dims = [0] x [0], contracting_dims = [2] x [1] : (tensor<4x3x3xf32>, tensor<4x3xf32>) -> tensor<4x3xf32> loc(#loc6128)
    %1006 = stablehlo.abs %1005 : tensor<4x3xf32> loc(#loc6129)
    %1007 = stablehlo.dot_general %465, %1006, batching_dims = [0] x [0], contracting_dims = [1] x [1] : (tensor<4x3xf32>, tensor<4x3xf32>) -> tensor<4xf32> loc(#loc6130)
    %1008 = stablehlo.transpose %763, dims = [0, 2, 1] : (tensor<4x3x3xf32>) -> tensor<4x3x3xf32> loc(#loc6131)
    %1009 = stablehlo.dot_general %1008, %1003, batching_dims = [0] x [0], contracting_dims = [2] x [1] : (tensor<4x3x3xf32>, tensor<4x3xf32>) -> tensor<4x3xf32> loc(#loc6132)
    %1010 = stablehlo.abs %1009 : tensor<4x3xf32> loc(#loc6133)
    %1011 = stablehlo.dot_general %570, %1010, batching_dims = [0] x [0], contracting_dims = [1] x [1] : (tensor<4x3xf32>, tensor<4x3xf32>) -> tensor<4xf32> loc(#loc6134)
    %1012 = stablehlo.dot_general %764, %1003, batching_dims = [0] x [0], contracting_dims = [1] x [1] : (tensor<4x3xf32>, tensor<4x3xf32>) -> tensor<4xf32> loc(#loc6135)
    %1013 = stablehlo.abs %1012 : tensor<4xf32> loc(#loc6136)
    %1014 = stablehlo.add %1007, %1011 : tensor<4xf32> loc(#loc6137)
    %1015 = stablehlo.subtract %1013, %1014 : tensor<4xf32> loc(#loc6138)
    %1016 = call @_where_5(%996, %1015, %cst_22) : (tensor<4xi1>, tensor<4xf32>, tensor<f32>) -> tensor<4xf32> loc(#loc6139)
    %1017 = stablehlo.dot_general %764, %1003, batching_dims = [0] x [0], contracting_dims = [1] x [1] : (tensor<4x3xf32>, tensor<4x3xf32>) -> tensor<4xf32> loc(#loc6140)
    %1018 = stablehlo.broadcast_in_dim %cst_30, dims = [] : (tensor<f32>) -> tensor<4xf32> loc(#loc6141)
    %1019 = stablehlo.compare GE, %1017, %1018, FLOAT : (tensor<4xf32>, tensor<4xf32>) -> tensor<4xi1> loc(#loc6141)
    %1020 = stablehlo.negate %1003 : tensor<4x3xf32> loc(#loc6142)
    %1021 = call @_where_4(%1019, %1003, %1020) : (tensor<4xi1>, tensor<4x3xf32>, tensor<4x3xf32>) -> tensor<4x3xf32> loc(#loc6143)
    %1022 = stablehlo.broadcast_in_dim %c_29, dims = [] : (tensor<i32>) -> tensor<1xi32> loc(#loc6144)
    %1023 = stablehlo.broadcast_in_dim %c_24, dims = [] : (tensor<i32>) -> tensor<1xi32> loc(#loc6144)
    %1024 = stablehlo.concatenate %1022, %1023, dim = 0 : (tensor<1xi32>, tensor<1xi32>) -> tensor<2xi32> loc(#loc6145)
    %1025 = stablehlo.convert %984 : tensor<4x3x3xf32> loc(#loc6146)
    %1026 = "stablehlo.scatter"(%1025, %1024, %1016) <{indices_are_sorted = true, scatter_dimension_numbers = #stablehlo.scatter<update_window_dims = [0], inserted_window_dims = [1, 2], scatter_dims_to_operand_dims = [1, 2]>, unique_indices = true}> ({
    ^bb0(%arg137: tensor<f32> loc("scatter:"(#loc246)), %arg138: tensor<f32> loc("scatter:"(#loc246))):
      stablehlo.return %arg138 : tensor<f32> loc(#loc6147)
    }) : (tensor<4x3x3xf32>, tensor<2xi32>, tensor<4xf32>) -> tensor<4x3x3xf32> loc(#loc6147)
    %1027 = stablehlo.convert %1026 : tensor<4x3x3xf32> loc(#loc6146)
    %1028 = stablehlo.broadcast_in_dim %c_29, dims = [] : (tensor<i32>) -> tensor<1xi32> loc(#loc6148)
    %1029 = stablehlo.broadcast_in_dim %c_24, dims = [] : (tensor<i32>) -> tensor<1xi32> loc(#loc6148)
    %1030 = stablehlo.concatenate %1028, %1029, dim = 0 : (tensor<1xi32>, tensor<1xi32>) -> tensor<2xi32> loc(#loc6149)
    %1031 = "stablehlo.scatter"(%988, %1030, %1021) <{indices_are_sorted = true, scatter_dimension_numbers = #stablehlo.scatter<update_window_dims = [0, 1], inserted_window_dims = [1, 2], scatter_dims_to_operand_dims = [1, 2]>, unique_indices = true}> ({
    ^bb0(%arg137: tensor<f32> loc("scatter:"(#loc246)), %arg138: tensor<f32> loc("scatter:"(#loc246))):
      stablehlo.return %arg138 : tensor<f32> loc(#loc6150)
    }) : (tensor<4x3x3x3xf32>, tensor<2xi32>, tensor<4x3xf32>) -> tensor<4x3x3x3xf32> loc(#loc6150)
    %1032 = stablehlo.slice %688 [0:4, 0:3, 1:2] : (tensor<4x3x3xf32>) -> tensor<4x3x1xf32> loc(#loc6116)
    %1033 = stablehlo.reshape %1032 : (tensor<4x3x1xf32>) -> tensor<4x3xf32> loc(#loc6117)
    %1034 = stablehlo.slice %763 [0:4, 0:3, 0:1] : (tensor<4x3x3xf32>) -> tensor<4x3x1xf32> loc(#loc6118)
    %1035 = stablehlo.reshape %1034 : (tensor<4x3x1xf32>) -> tensor<4x3xf32> loc(#loc6119)
    %1036 = call @cross(%1033, %1035) : (tensor<4x3xf32>, tensor<4x3xf32>) -> tensor<4x3xf32> loc(#loc6120)
    %1037 = call @norm(%1036) : (tensor<4x3xf32>) -> tensor<4xf32> loc(#loc6121)
    %1038 = stablehlo.broadcast_in_dim %cst_21, dims = [] : (tensor<f32>) -> tensor<4xf32> loc(#loc6122)
    %1039 = stablehlo.compare GT, %1037, %1038, FLOAT : (tensor<4xf32>, tensor<4xf32>) -> tensor<4xi1> loc(#loc6122)
    %1040 = stablehlo.broadcast_in_dim %cst_30, dims = [] : (tensor<f32>) -> tensor<4xf32> loc(#loc7299)
    %1041 = stablehlo.compare EQ, %1037, %1040, FLOAT : (tensor<4xf32>, tensor<4xf32>) -> tensor<4xi1> loc(#loc7299)
    %1042 = stablehlo.broadcast_in_dim %cst_32, dims = [] : (tensor<f32>) -> tensor<4xf32> loc(#loc7300)
    %1043 = stablehlo.select %1041, %1042, %1037 : tensor<4xi1>, tensor<4xf32> loc(#loc7301)
    %1044 = stablehlo.broadcast_in_dim %1043, dims = [0] : (tensor<4xf32>) -> tensor<4x1xf32> loc(#loc6125)
    %1045 = stablehlo.broadcast_in_dim %1044, dims = [0, 1] : (tensor<4x1xf32>) -> tensor<4x3xf32> loc(#loc6126)
    %1046 = stablehlo.divide %1036, %1045 : tensor<4x3xf32> loc(#loc6126)
    %1047 = stablehlo.transpose %688, dims = [0, 2, 1] : (tensor<4x3x3xf32>) -> tensor<4x3x3xf32> loc(#loc6127)
    %1048 = stablehlo.dot_general %1047, %1046, batching_dims = [0] x [0], contracting_dims = [2] x [1] : (tensor<4x3x3xf32>, tensor<4x3xf32>) -> tensor<4x3xf32> loc(#loc6128)
    %1049 = stablehlo.abs %1048 : tensor<4x3xf32> loc(#loc6129)
    %1050 = stablehlo.dot_general %465, %1049, batching_dims = [0] x [0], contracting_dims = [1] x [1] : (tensor<4x3xf32>, tensor<4x3xf32>) -> tensor<4xf32> loc(#loc6130)
    %1051 = stablehlo.transpose %763, dims = [0, 2, 1] : (tensor<4x3x3xf32>) -> tensor<4x3x3xf32> loc(#loc6131)
    %1052 = stablehlo.dot_general %1051, %1046, batching_dims = [0] x [0], contracting_dims = [2] x [1] : (tensor<4x3x3xf32>, tensor<4x3xf32>) -> tensor<4x3xf32> loc(#loc6132)
    %1053 = stablehlo.abs %1052 : tensor<4x3xf32> loc(#loc6133)
    %1054 = stablehlo.dot_general %570, %1053, batching_dims = [0] x [0], contracting_dims = [1] x [1] : (tensor<4x3xf32>, tensor<4x3xf32>) -> tensor<4xf32> loc(#loc6134)
    %1055 = stablehlo.dot_general %764, %1046, batching_dims = [0] x [0], contracting_dims = [1] x [1] : (tensor<4x3xf32>, tensor<4x3xf32>) -> tensor<4xf32> loc(#loc6135)
    %1056 = stablehlo.abs %1055 : tensor<4xf32> loc(#loc6136)
    %1057 = stablehlo.add %1050, %1054 : tensor<4xf32> loc(#loc6137)
    %1058 = stablehlo.subtract %1056, %1057 : tensor<4xf32> loc(#loc6138)
    %1059 = call @_where_5(%1039, %1058, %cst_22) : (tensor<4xi1>, tensor<4xf32>, tensor<f32>) -> tensor<4xf32> loc(#loc6139)
    %1060 = stablehlo.dot_general %764, %1046, batching_dims = [0] x [0], contracting_dims = [1] x [1] : (tensor<4x3xf32>, tensor<4x3xf32>) -> tensor<4xf32> loc(#loc6140)
    %1061 = stablehlo.broadcast_in_dim %cst_30, dims = [] : (tensor<f32>) -> tensor<4xf32> loc(#loc6141)
    %1062 = stablehlo.compare GE, %1060, %1061, FLOAT : (tensor<4xf32>, tensor<4xf32>) -> tensor<4xi1> loc(#loc6141)
    %1063 = stablehlo.negate %1046 : tensor<4x3xf32> loc(#loc6142)
    %1064 = call @_where_4(%1062, %1046, %1063) : (tensor<4xi1>, tensor<4x3xf32>, tensor<4x3xf32>) -> tensor<4x3xf32> loc(#loc6143)
    %1065 = stablehlo.broadcast_in_dim %c_23, dims = [] : (tensor<i32>) -> tensor<1xi32> loc(#loc6144)
    %1066 = stablehlo.broadcast_in_dim %c_29, dims = [] : (tensor<i32>) -> tensor<1xi32> loc(#loc6144)
    %1067 = stablehlo.concatenate %1065, %1066, dim = 0 : (tensor<1xi32>, tensor<1xi32>) -> tensor<2xi32> loc(#loc6145)
    %1068 = stablehlo.convert %1027 : tensor<4x3x3xf32> loc(#loc6146)
    %1069 = "stablehlo.scatter"(%1068, %1067, %1059) <{indices_are_sorted = true, scatter_dimension_numbers = #stablehlo.scatter<update_window_dims = [0], inserted_window_dims = [1, 2], scatter_dims_to_operand_dims = [1, 2]>, unique_indices = true}> ({
    ^bb0(%arg137: tensor<f32> loc("scatter:"(#loc246)), %arg138: tensor<f32> loc("scatter:"(#loc246))):
      stablehlo.return %arg138 : tensor<f32> loc(#loc6147)
    }) : (tensor<4x3x3xf32>, tensor<2xi32>, tensor<4xf32>) -> tensor<4x3x3xf32> loc(#loc6147)
    %1070 = stablehlo.convert %1069 : tensor<4x3x3xf32> loc(#loc6146)
    %1071 = stablehlo.broadcast_in_dim %c_23, dims = [] : (tensor<i32>) -> tensor<1xi32> loc(#loc6148)
    %1072 = stablehlo.broadcast_in_dim %c_29, dims = [] : (tensor<i32>) -> tensor<1xi32> loc(#loc6148)
    %1073 = stablehlo.concatenate %1071, %1072, dim = 0 : (tensor<1xi32>, tensor<1xi32>) -> tensor<2xi32> loc(#loc6149)
    %1074 = "stablehlo.scatter"(%1031, %1073, %1064) <{indices_are_sorted = true, scatter_dimension_numbers = #stablehlo.scatter<update_window_dims = [0, 1], inserted_window_dims = [1, 2], scatter_dims_to_operand_dims = [1, 2]>, unique_indices = true}> ({
    ^bb0(%arg137: tensor<f32> loc("scatter:"(#loc246)), %arg138: tensor<f32> loc("scatter:"(#loc246))):
      stablehlo.return %arg138 : tensor<f32> loc(#loc6150)
    }) : (tensor<4x3x3x3xf32>, tensor<2xi32>, tensor<4x3xf32>) -> tensor<4x3x3x3xf32> loc(#loc6150)
    %1075 = stablehlo.slice %688 [0:4, 0:3, 1:2] : (tensor<4x3x3xf32>) -> tensor<4x3x1xf32> loc(#loc6116)
    %1076 = stablehlo.reshape %1075 : (tensor<4x3x1xf32>) -> tensor<4x3xf32> loc(#loc6117)
    %1077 = stablehlo.slice %763 [0:4, 0:3, 1:2] : (tensor<4x3x3xf32>) -> tensor<4x3x1xf32> loc(#loc6118)
    %1078 = stablehlo.reshape %1077 : (tensor<4x3x1xf32>) -> tensor<4x3xf32> loc(#loc6119)
    %1079 = call @cross(%1076, %1078) : (tensor<4x3xf32>, tensor<4x3xf32>) -> tensor<4x3xf32> loc(#loc6120)
    %1080 = call @norm(%1079) : (tensor<4x3xf32>) -> tensor<4xf32> loc(#loc6121)
    %1081 = stablehlo.broadcast_in_dim %cst_21, dims = [] : (tensor<f32>) -> tensor<4xf32> loc(#loc6122)
    %1082 = stablehlo.compare GT, %1080, %1081, FLOAT : (tensor<4xf32>, tensor<4xf32>) -> tensor<4xi1> loc(#loc6122)
    %1083 = stablehlo.broadcast_in_dim %cst_30, dims = [] : (tensor<f32>) -> tensor<4xf32> loc(#loc7299)
    %1084 = stablehlo.compare EQ, %1080, %1083, FLOAT : (tensor<4xf32>, tensor<4xf32>) -> tensor<4xi1> loc(#loc7299)
    %1085 = stablehlo.broadcast_in_dim %cst_32, dims = [] : (tensor<f32>) -> tensor<4xf32> loc(#loc7300)
    %1086 = stablehlo.select %1084, %1085, %1080 : tensor<4xi1>, tensor<4xf32> loc(#loc7301)
    %1087 = stablehlo.broadcast_in_dim %1086, dims = [0] : (tensor<4xf32>) -> tensor<4x1xf32> loc(#loc6125)
    %1088 = stablehlo.broadcast_in_dim %1087, dims = [0, 1] : (tensor<4x1xf32>) -> tensor<4x3xf32> loc(#loc6126)
    %1089 = stablehlo.divide %1079, %1088 : tensor<4x3xf32> loc(#loc6126)
    %1090 = stablehlo.transpose %688, dims = [0, 2, 1] : (tensor<4x3x3xf32>) -> tensor<4x3x3xf32> loc(#loc6127)
    %1091 = stablehlo.dot_general %1090, %1089, batching_dims = [0] x [0], contracting_dims = [2] x [1] : (tensor<4x3x3xf32>, tensor<4x3xf32>) -> tensor<4x3xf32> loc(#loc6128)
    %1092 = stablehlo.abs %1091 : tensor<4x3xf32> loc(#loc6129)
    %1093 = stablehlo.dot_general %465, %1092, batching_dims = [0] x [0], contracting_dims = [1] x [1] : (tensor<4x3xf32>, tensor<4x3xf32>) -> tensor<4xf32> loc(#loc6130)
    %1094 = stablehlo.transpose %763, dims = [0, 2, 1] : (tensor<4x3x3xf32>) -> tensor<4x3x3xf32> loc(#loc6131)
    %1095 = stablehlo.dot_general %1094, %1089, batching_dims = [0] x [0], contracting_dims = [2] x [1] : (tensor<4x3x3xf32>, tensor<4x3xf32>) -> tensor<4x3xf32> loc(#loc6132)
    %1096 = stablehlo.abs %1095 : tensor<4x3xf32> loc(#loc6133)
    %1097 = stablehlo.dot_general %570, %1096, batching_dims = [0] x [0], contracting_dims = [1] x [1] : (tensor<4x3xf32>, tensor<4x3xf32>) -> tensor<4xf32> loc(#loc6134)
    %1098 = stablehlo.dot_general %764, %1089, batching_dims = [0] x [0], contracting_dims = [1] x [1] : (tensor<4x3xf32>, tensor<4x3xf32>) -> tensor<4xf32> loc(#loc6135)
    %1099 = stablehlo.abs %1098 : tensor<4xf32> loc(#loc6136)
    %1100 = stablehlo.add %1093, %1097 : tensor<4xf32> loc(#loc6137)
    %1101 = stablehlo.subtract %1099, %1100 : tensor<4xf32> loc(#loc6138)
    %1102 = call @_where_5(%1082, %1101, %cst_22) : (tensor<4xi1>, tensor<4xf32>, tensor<f32>) -> tensor<4xf32> loc(#loc6139)
    %1103 = stablehlo.dot_general %764, %1089, batching_dims = [0] x [0], contracting_dims = [1] x [1] : (tensor<4x3xf32>, tensor<4x3xf32>) -> tensor<4xf32> loc(#loc6140)
    %1104 = stablehlo.broadcast_in_dim %cst_30, dims = [] : (tensor<f32>) -> tensor<4xf32> loc(#loc6141)
    %1105 = stablehlo.compare GE, %1103, %1104, FLOAT : (tensor<4xf32>, tensor<4xf32>) -> tensor<4xi1> loc(#loc6141)
    %1106 = stablehlo.negate %1089 : tensor<4x3xf32> loc(#loc6142)
    %1107 = call @_where_4(%1105, %1089, %1106) : (tensor<4xi1>, tensor<4x3xf32>, tensor<4x3xf32>) -> tensor<4x3xf32> loc(#loc6143)
    %1108 = stablehlo.broadcast_in_dim %c_23, dims = [] : (tensor<i32>) -> tensor<1xi32> loc(#loc6144)
    %1109 = stablehlo.broadcast_in_dim %c_23, dims = [] : (tensor<i32>) -> tensor<1xi32> loc(#loc6144)
    %1110 = stablehlo.concatenate %1108, %1109, dim = 0 : (tensor<1xi32>, tensor<1xi32>) -> tensor<2xi32> loc(#loc6145)
    %1111 = stablehlo.convert %1070 : tensor<4x3x3xf32> loc(#loc6146)
    %1112 = "stablehlo.scatter"(%1111, %1110, %1102) <{indices_are_sorted = true, scatter_dimension_numbers = #stablehlo.scatter<update_window_dims = [0], inserted_window_dims = [1, 2], scatter_dims_to_operand_dims = [1, 2]>, unique_indices = true}> ({
    ^bb0(%arg137: tensor<f32> loc("scatter:"(#loc246)), %arg138: tensor<f32> loc("scatter:"(#loc246))):
      stablehlo.return %arg138 : tensor<f32> loc(#loc6147)
    }) : (tensor<4x3x3xf32>, tensor<2xi32>, tensor<4xf32>) -> tensor<4x3x3xf32> loc(#loc6147)
    %1113 = stablehlo.convert %1112 : tensor<4x3x3xf32> loc(#loc6146)
    %1114 = stablehlo.broadcast_in_dim %c_23, dims = [] : (tensor<i32>) -> tensor<1xi32> loc(#loc6148)
    %1115 = stablehlo.broadcast_in_dim %c_23, dims = [] : (tensor<i32>) -> tensor<1xi32> loc(#loc6148)
    %1116 = stablehlo.concatenate %1114, %1115, dim = 0 : (tensor<1xi32>, tensor<1xi32>) -> tensor<2xi32> loc(#loc6149)
    %1117 = "stablehlo.scatter"(%1074, %1116, %1107) <{indices_are_sorted = true, scatter_dimension_numbers = #stablehlo.scatter<update_window_dims = [0, 1], inserted_window_dims = [1, 2], scatter_dims_to_operand_dims = [1, 2]>, unique_indices = true}> ({
    ^bb0(%arg137: tensor<f32> loc("scatter:"(#loc246)), %arg138: tensor<f32> loc("scatter:"(#loc246))):
      stablehlo.return %arg138 : tensor<f32> loc(#loc6150)
…
#loc7722 = loc("jit(step_fn)/vmap()/add"(#loc6600))
#loc7723 = loc("jit(step_fn)/vmap()/broadcast_in_dim"(#loc6601))
#loc7724 = loc("jit(step_fn)/vmap()/mul"(#loc6601))
#loc7725 = loc("jit(step_fn)/vmap()/add"(#loc6602))
#loc7726 = loc("jit(step_fn)/vmap()/mul"(#loc6603))
#loc7727 = loc("jit(step_fn)/vmap()/dot_general"(#loc6604))
#loc7728 = loc("jit(step_fn)/vmap()/sub"(#loc6605))
#loc7729 = loc("jit(step_fn)/vmap()/broadcast_in_dim"(#loc6606))
#loc7730 = loc("jit(step_fn)/vmap()/concatenate"(#loc6607))
#loc7731 = loc("jit(step_fn)/vmap()/slice"(#loc6608))
#loc7732 = loc("jit(step_fn)/vmap()/neg"(#loc6609))
#loc7733 = loc("jit(step_fn)/vmap()/slice"(#loc6610))
#loc7734 = loc("jit(step_fn)/vmap()/concatenate"(#loc6611))
#loc7735 = loc("jit(step_fn)/vmap()/slice"(#loc6612))
#loc7736 = loc("jit(step_fn)/vmap()/slice"(#loc6613))
#loc7737 = loc("jit(step_fn)/vmap()/squeeze"(#loc6613))
#loc7738 = loc("jit(step_fn)/vmap()/slice"(#loc6614))
#loc7739 = loc("jit(step_fn)/vmap()/slice"(#loc6615))
#loc7740 = loc("jit(step_fn)/vmap()/squeeze"(#loc6615))
#loc7741 = loc("jit(step_fn)/vmap(jit(cross))"(#loc6616))
#loc7742 = loc("jit(step_fn)/vmap()/broadcast_in_dim"(#loc6617))
#loc7743 = loc("jit(step_fn)/vmap()/mul"(#loc6617))
#loc7744 = loc("jit(step_fn)/vmap()/add"(#loc6618))
#loc7745 = loc("jit(step_fn)/vmap()/broadcast_in_dim"(#loc6619))
#loc7746 = loc("jit(step_fn)/vmap()/mul"(#loc6619))
#loc7747 = loc("jit(step_fn)/vmap()/add"(#loc6620))
#loc7748 = loc("jit(step_fn)/vmap()/mul"(#loc6621))
#loc7749 = loc("jit(step_fn)/vmap()/dot_general"(#loc6622))
#loc7750 = loc("jit(step_fn)/vmap()/sub"(#loc6623))
#loc7751 = loc("jit(step_fn)/vmap()/broadcast_in_dim"(#loc6624))
#loc7752 = loc("jit(step_fn)/vmap()/concatenate"(#loc6625))
#loc7753 = loc("jit(step_fn)/vmap()/slice"(#loc6626))
#loc7754 = loc("jit(step_fn)/vmap()/dot_general"(#loc6627))
#loc7755 = loc("jit(step_fn)/vmap()/slice"(#loc6628))
#loc7756 = loc("jit(step_fn)/vmap()/squeeze"(#loc6628))
#loc7757 = loc("jit(step_fn)/vmap()/atan2"(#loc6629))
#loc7758 = loc("jit(step_fn)/vmap()/mul"(#loc6630))
#loc7759 = loc("jit(step_fn)/vmap()/slice"(#loc6657))
#loc7760 = loc("jit(step_fn)/vmap()/squeeze"(#loc6657))
#loc7761 = loc("jit(step_fn)/vmap()/ge"(#loc6658))
#loc7762 = loc("jit(step_fn)/vmap(jit(_where))"(#loc6659))
#loc7763 = loc("jit(step_fn)/vmap()/slice"(#loc6660))
#loc7764 = loc("jit(step_fn)/vmap()/squeeze"(#loc6660))
#loc7765 = loc("jit(step_fn)/vmap()/convert_element_type"(#loc6661))
#loc7766 = loc("jit(step_fn)/vmap()/add"(#loc6661))
#loc7767 = loc("jit(step_fn)/vmap()/div"(#loc6662))
#loc7768 = loc("jit(step_fn)/vmap()/slice"(#loc6663))
#loc7769 = loc("jit(step_fn)/vmap()/squeeze"(#loc6663))
#loc7770 = loc("jit(step_fn)/vmap()/slice"(#loc6664))
#loc7771 = loc("jit(step_fn)/vmap()/squeeze"(#loc6664))
#loc7772 = loc("jit(step_fn)/vmap()/mul"(#loc6665))
#loc7773 = loc("jit(step_fn)/vmap()/mul"(#loc6666))
#loc7774 = loc("jit(step_fn)/vmap()/slice"(#loc6667))
#loc7775 = loc("jit(step_fn)/vmap()/squeeze"(#loc6667))
#loc7776 = loc("jit(step_fn)/vmap()/convert_element_type"(#loc6668))
#loc7777 = loc("jit(step_fn)/vmap()/mul"(#loc6668))
#loc7778 = loc("jit(step_fn)/vmap()/slice"(#loc6669))
#loc7779 = loc("jit(step_fn)/vmap()/squeeze"(#loc6669))
#loc7780 = loc("jit(step_fn)/vmap()/mul"(#loc6670))
#loc7781 = loc("jit(step_fn)/vmap()/mul"(#loc6671))
#loc7782 = loc("jit(step_fn)/vmap()/add"(#loc6672))
#loc7783 = loc("jit(step_fn)/vmap()/convert_element_type"(#loc6673))
#loc7784 = loc("jit(step_fn)/vmap()/mul"(#loc6673))
#loc7785 = loc("jit(step_fn)/vmap()/neg"(#loc6674))
#loc7786 = loc("jit(step_fn)/vmap()/slice"(#loc6675))
#loc7787 = loc("jit(step_fn)/vmap()/squeeze"(#loc6675))
#loc7788 = loc("jit(step_fn)/vmap()/convert_element_type"(#loc6676))
#loc7789 = loc("jit(step_fn)/vmap()/mul"(#loc6676))
#loc7790 = loc("jit(step_fn)/vmap()/broadcast_in_dim"(#loc6677))
#loc7791 = loc("jit(step_fn)/vmap()/concatenate"(#loc6677))
#loc7792 = loc("jit(step_fn)/vmap()/slice"(#loc6678))
#loc7793 = loc("jit(step_fn)/vmap()/squeeze"(#loc6678))
#loc7794 = loc("jit(step_fn)/vmap()/slice"(#loc6679))
#loc7795 = loc("jit(step_fn)/vmap()/squeeze"(#loc6679))
#loc7796 = loc("jit(step_fn)/vmap()/mul"(#loc6680))
#loc7797 = loc("jit(step_fn)/vmap()/mul"(#loc6681))
#loc7798 = loc("jit(step_fn)/vmap()/convert_element_type"(#loc6682))
#loc7799 = loc("jit(step_fn)/vmap()/add"(#loc6682))
#loc7800 = loc("jit(step_fn)/vmap()/slice"(#loc6683))
#loc7801 = loc("jit(step_fn)/vmap()/squeeze"(#loc6683))
#loc7802 = loc("jit(step_fn)/vmap()/neg"(#loc6684))
#loc7803 = loc("jit(step_fn)/vmap()/broadcast_in_dim"(#loc6685))
#loc7804 = loc("jit(step_fn)/vmap()/concatenate"(#loc6685))
#loc7805 = loc("jit(step_fn)/vmap()/broadcast_in_dim"(#loc6716))
#loc7806 = loc("jit(step_fn)/vmap()/broadcast_in_dim"(#loc6717))
#loc7807 = loc("jit(step_fn)/vmap()/select_n"(#loc6717))
#loc7808 = loc("jit(step_fn)/vmap()/slice"(#loc6741))
#loc7809 = loc("jit(step_fn)/vmap()/squeeze"(#loc6741))
#loc7810 = loc("jit(step_fn)/vmap()/ge"(#loc6742))
#loc7811 = loc("jit(step_fn)/vmap(jit(_where))"(#loc6743))
#loc7812 = loc("jit(step_fn)/vmap()/slice"(#loc6744))
#loc7813 = loc("jit(step_fn)/vmap()/squeeze"(#loc6744))
#loc7814 = loc("jit(step_fn)/vmap()/convert_element_type"(#loc6745))
#loc7815 = loc("jit(step_fn)/vmap()/add"(#loc6745))
#loc7816 = loc("jit(step_fn)/vmap()/div"(#loc6746))
#loc7817 = loc("jit(step_fn)/vmap()/slice"(#loc6747))
#loc7818 = loc("jit(step_fn)/vmap()/squeeze"(#loc6747))
#loc7819 = loc("jit(step_fn)/vmap()/slice"(#loc6748))
#loc7820 = loc("jit(step_fn)/vmap()/squeeze"(#loc6748))
#loc7821 = loc("jit(step_fn)/vmap()/mul"(#loc6749))
#loc7822 = loc("jit(step_fn)/vmap()/mul"(#loc6750))
#loc7823 = loc("jit(step_fn)/vmap()/slice"(#loc6751))
#loc7824 = loc("jit(step_fn)/vmap()/squeeze"(#loc6751))
#loc7825 = loc("jit(step_fn)/vmap()/convert_element_type"(#loc6752))
#loc7826 = loc("jit(step_fn)/vmap()/mul"(#loc6752))
#loc7827 = loc("jit(step_fn)/vmap()/slice"(#loc6753))
#loc7828 = loc("jit(step_fn)/vmap()/squeeze"(#loc6753))
#loc7829 = loc("jit(step_fn)/vmap()/mul"(#loc6754))
#loc7830 = loc("jit(step_fn)/vmap()/mul"(#loc6755))
#loc7831 = loc("jit(step_fn)/vmap()/add"(#loc6756))
#loc7832 = loc("jit(step_fn)/vmap()/convert_element_type"(#loc6757))
#loc7833 = loc("jit(step_fn)/vmap()/mul"(#loc6757))
#loc7834 = loc("jit(step_fn)/vmap()/neg"(#loc6758))
#loc7835 = loc("jit(step_fn)/vmap()/slice"(#loc6759))
#loc7836 = loc("jit(step_fn)/vmap()/squeeze"(#loc6759))
#loc7837 = loc("jit(step_fn)/vmap()/convert_element_type"(#loc6760))
#loc7838 = loc("jit(step_fn)/vmap()/mul"(#loc6760))
#loc7839 = loc("jit(step_fn)/vmap()/broadcast_in_dim"(#loc6761))
#loc7840 = loc("jit(step_fn)/vmap()/concatenate"(#loc6761))
#loc7841 = loc("jit(step_fn)/vmap()/slice"(#loc6762))
#loc7842 = loc("jit(step_fn)/vmap()/squeeze"(#loc6762))
#loc7843 = loc("jit(step_fn)/vmap()/slice"(#loc6763))
#loc7844 = loc("jit(step_fn)/vmap()/squeeze"(#loc6763))
#loc7845 = loc("jit(step_fn)/vmap()/mul"(#loc6764))
#loc7846 = loc("jit(step_fn)/vmap()/mul"(#loc6765))
#loc7847 = loc("jit(step_fn)/vmap()/convert_element_type"(#loc6766))
#loc7848 = loc("jit(step_fn)/vmap()/add"(#loc6766))
#loc7849 = loc("jit(step_fn)/vmap()/slice"(#loc6767))
#loc7850 = loc("jit(step_fn)/vmap()/squeeze"(#loc6767))
#loc7851 = loc("jit(step_fn)/vmap()/neg"(#loc6768))
#loc7852 = loc("jit(step_fn)/vmap()/broadcast_in_dim"(#loc6769))
#loc7853 = loc("jit(step_fn)/vmap()/concatenate"(#loc6769))
#loc7854 = loc("jit(step_fn)/vmap()/broadcast_in_dim"(#loc6800))
#loc7855 = loc("jit(step_fn)/vmap()/broadcast_in_dim"(#loc6801))
#loc7856 = loc("jit(step_fn)/vmap()/select_n"(#loc6801))
#loc7857 = loc("jit(step_fn)/vmap()/slice"(#loc6825))
#loc7858 = loc("jit(step_fn)/vmap()/squeeze"(#loc6825))
#loc7859 = loc("jit(step_fn)/vmap()/ge"(#loc6826))
#loc7860 = loc("jit(step_fn)/vmap(jit(_where))"(#loc6827))
#loc7861 = loc("jit(step_fn)/vmap()/slice"(#loc6828))
#loc7862 = loc("jit(step_fn)/vmap()/squeeze"(#loc6828))
#loc7863 = loc("jit(step_fn)/vmap()/convert_element_type"(#loc6829))
#loc7864 = loc("jit(step_fn)/vmap()/add"(#loc6829))
#loc7865 = loc("jit(step_fn)/vmap()/div"(#loc6830))
#loc7866 = loc("jit(step_fn)/vmap()/slice"(#loc6831))
#loc7867 = loc("jit(step_fn)/vmap()/squeeze"(#loc6831))
#loc7868 = loc("jit(step_fn)/vmap()/slice"(#loc6832))
#loc7869 = loc("jit(step_fn)/vmap()/squeeze"(#loc6832))
#loc7870 = loc("jit(step_fn)/vmap()/mul"(#loc6833))
#loc7871 = loc("jit(step_fn)/vmap()/mul"(#loc6834))
#loc7872 = loc("jit(step_fn)/vmap()/slice"(#loc6835))
#loc7873 = loc("jit(step_fn)/vmap()/squeeze"(#loc6835))
#loc7874 = loc("jit(step_fn)/vmap()/convert_element_type"(#loc6836))
#loc7875 = loc("jit(step_fn)/vmap()/mul"(#loc6836))
#loc7876 = loc("jit(step_fn)/vmap()/slice"(#loc6837))
#loc7877 = loc("jit(step_fn)/vmap()/squeeze"(#loc6837))
#loc7878 = loc("jit(step_fn)/vmap()/mul"(#loc6838))
#loc7879 = loc("jit(step_fn)/vmap()/mul"(#loc6839))
#loc7880 = loc("jit(step_fn)/vmap()/add"(#loc6840))
#loc7881 = loc("jit(step_fn)/vmap()/convert_element_type"(#loc6841))
#loc7882 = loc("jit(step_fn)/vmap()/mul"(#loc6841))
#loc7883 = loc("jit(step_fn)/vmap()/neg"(#loc6842))
#loc7884 = loc("jit(step_fn)/vmap()/slice"(#loc6843))
#loc7885 = loc("jit(step_fn)/vmap()/squeeze"(#loc6843))
#loc7886 = loc("jit(step_fn)/vmap()/convert_element_type"(#loc6844))
#loc7887 = loc("jit(step_fn)/vmap()/mul"(#loc6844))
#loc7888 = loc("jit(step_fn)/vmap()/broadcast_in_dim"(#loc6845))
#loc7889 = loc("jit(step_fn)/vmap()/concatenate"(#loc6845))
#loc7890 = loc("jit(step_fn)/vmap()/slice"(#loc6846))
#loc7891 = loc("jit(step_fn)/vmap()/squeeze"(#loc6846))
#loc7892 = loc("jit(step_fn)/vmap()/slice"(#loc6847))
#loc7893 = loc("jit(step_fn)/vmap()/squeeze"(#loc6847))
#loc7894 = loc("jit(step_fn)/vmap()/mul"(#loc6848))
#loc7895 = loc("jit(step_fn)/vmap()/mul"(#loc6849))
#loc7896 = loc("jit(step_fn)/vmap()/convert_element_type"(#loc6850))
#loc7897 = loc("jit(step_fn)/vmap()/add"(#loc6850))
#loc7898 = loc("jit(step_fn)/vmap()/slice"(#loc6851))
#loc7899 = loc("jit(step_fn)/vmap()/squeeze"(#loc6851))
#loc7900 = loc("jit(step_fn)/vmap()/neg"(#loc6852))
#loc7901 = loc("jit(step_fn)/vmap()/broadcast_in_dim"(#loc6853))
#loc7902 = loc("jit(step_fn)/vmap()/concatenate"(#loc6853))
#loc7903 = loc("jit(step_fn)/vmap()/broadcast_in_dim"(#loc6884))
#loc7904 = loc("jit(step_fn)/vmap()/broadcast_in_dim"(#loc6885))
#loc7905 = loc("jit(step_fn)/vmap()/select_n"(#loc6885))
#loc7906 = loc("jit(step_fn)/vmap()/sub"(#loc6893))
#loc7907 = loc("jit(step_fn)/vmap()/lt"(#loc6894))
#loc7908 = loc("jit(step_fn)/vmap()/add"(#loc6894))
#loc7909 = loc("jit(step_fn)/vmap()/select_n"(#loc6894))
#loc7910 = loc("jit(step_fn)/vmap()/broadcast_in_dim"(#loc6894))
#loc7911 = loc("jit(step_fn)/vmap()/concatenate"(#loc6894))
#loc7912 = loc("jit(step_fn)/vmap()/gather"(#loc6894))
#loc7913 = loc("jit(step_fn)/vmap()/squeeze"(#loc6894))
#loc7914 = loc("jit(step_fn)/vmap()/sub"(#loc6895))
#loc7915 = loc("jit(step_fn)/vmap()/lt"(#loc6896))
#loc7916 = loc("jit(step_fn)/vmap()/add"(#loc6896))
#loc7917 = loc("jit(step_fn)/vmap()/select_n"(#loc6896))
#loc7918 = loc("jit(step_fn)/vmap()/broadcast_in_dim"(#loc6896))
#loc7919 = loc("jit(step_fn)/vmap()/concatenate"(#loc6896))
#loc7920 = loc("jit(step_fn)/vmap()/gather"(#loc6896))
#loc7921 = loc("jit(step_fn)/vmap()/squeeze"(#loc6896))
#loc7922 = loc("jit(step_fn)/vmap()/broadcast_in_dim"(#loc6898))
#loc7923 = loc("jit(step_fn)/vmap()/select_n"(#loc6898))
#loc7924 = loc("jit(step_fn)/vmap()/sub"(#loc6899))
#loc7925 = loc("jit(step_fn)/vmap()/lt"(#loc6900))
#loc7926 = loc("jit(step_fn)/vmap()/add"(#loc6900))
#loc7927 = loc("jit(step_fn)/vmap()/select_n"(#loc6900))
#loc7928 = loc("jit(step_fn)/vmap()/broadcast_in_dim"(#loc6900))
#loc7929 = loc("jit(step_fn)/vmap()/concatenate"(#loc6900))
#loc7930 = loc("jit(step_fn)/vmap()/gather"(#loc6900))
#loc7931 = loc("jit(step_fn)/vmap()/squeeze"(#loc6900))
#loc7932 = loc("jit(step_fn)/vmap()/sub"(#loc6901))
#loc7933 = loc("jit(step_fn)/vmap()/lt"(#loc6902))
#loc7934 = loc("jit(step_fn)/vmap()/add"(#loc6902))
#loc7935 = loc("jit(step_fn)/vmap()/select_n"(#loc6902))
#loc7936 = loc("jit(step_fn)/vmap()/broadcast_in_dim"(#loc6902))
#loc7937 = loc("jit(step_fn)/vmap()/concatenate"(#loc6902))
#loc7938 = loc("jit(step_fn)/vmap()/gather"(#loc6902))
#loc7939 = loc("jit(step_fn)/vmap()/squeeze"(#loc6902))
#loc7940 = loc("jit(step_fn)/vmap()/broadcast_in_dim"(#loc6904))
#loc7941 = loc("jit(step_fn)/vmap()/select_n"(#loc6904))
#loc7942 = loc("jit(step_fn)/vmap()/slice"(#loc6905))
#loc7943 = loc("jit(step_fn)/vmap()/slice"(#loc6906))
#loc7944 = loc("jit(step_fn)/vmap()/squeeze"(#loc6906))
#loc7945 = loc("jit(step_fn)/vmap(jit(cross))"(#loc6907))
#loc7946 = loc("jit(step_fn)/vmap()/broadcast_in_dim"(#loc6908))
#loc7947 = loc("jit(step_fn)/vmap()/mul"(#loc6908))
#loc7948 = loc("jit(step_fn)/vmap()/add"(#loc6909))
#loc7949 = loc("jit(step_fn)/vmap(jit(cross))"(#loc6910))
#loc7950 = loc("jit(step_fn)/vmap()/mul"(#loc6911))
#loc7951 = loc("jit(step_fn)/vmap()/add"(#loc6912))
#loc7952 = loc("jit(step_fn)/vmap()/slice"(#loc6913))
#loc7953 = loc("jit(step_fn)/vmap()/slice"(#loc6914))
#loc7954 = loc("jit(step_fn)/vmap()/squeeze"(#loc6914))
#loc7955 = loc("jit(step_fn)/vmap(jit(cross))"(#loc6915))
#loc7956 = loc("jit(step_fn)/vmap()/broadcast_in_dim"(#loc6916))
#loc7957 = loc("jit(step_fn)/vmap()/mul"(#loc6916))
#loc7958 = loc("jit(step_fn)/vmap()/add"(#loc6917))
#loc7959 = loc("jit(step_fn)/vmap(jit(cross))"(#loc6918))
#loc7960 = loc("jit(step_fn)/vmap()/mul"(#loc6919))
#loc7961 = loc("jit(step_fn)/vmap()/add"(#loc6920))
#loc7962 = loc(callsite(#loc1613 at #loc6932))
#loc7963 = loc(callsite(#loc1616 at #loc6932))
#loc7964 = loc(callsite(#loc1617 at #loc6932))
#loc7965 = loc(callsite(#loc1618 at #loc6932))
#loc7966 = loc(callsite(#loc1619 at #loc6932))
#loc7967 = loc(callsite(#loc1620 at #loc6932))
#loc7968 = loc(callsite(#loc1621 at #loc6932))
#loc7969 = loc(callsite(#loc1622 at #loc6932))
#loc7970 = loc(callsite(#loc1613 at #loc6933))
#loc7971 = loc(callsite(#loc1616 at #loc6933))
#loc7972 = loc(callsite(#loc1617 at #loc6933))
#loc7973 = loc(callsite(#loc1618 at #loc6933))
#loc7974 = loc(callsite(#loc1619 at #loc6933))
#loc7975 = loc(callsite(#loc1620 at #loc6933))
#loc7976 = loc(callsite(#loc1621 at #loc6933))
#loc7977 = loc(callsite(#loc1622 at #loc6933))
#loc7978 = loc(callsite(#loc2076 at #loc6934))
#loc7979 = loc(callsite(#loc2078 at #loc6934))
#loc7980 = loc(callsite(#loc2079 at #loc6934))
#loc7981 = loc(callsite(#loc2080 at #loc6934))
#loc7982 = loc(callsite(#loc2081 at #loc6934))
#loc7983 = loc(callsite(#loc2082 at #loc6934))
#loc7984 = loc(callsite(#loc2083 at #loc6934))
#loc7985 = loc(callsite(#loc2084 at #loc6934))
#loc7986 = loc(callsite(#loc2085 at #loc6934))
#loc7987 = loc(callsite(#loc2086 at #loc6934))
#loc7988 = loc(callsite(#loc2087 at #loc6934))
#loc7989 = loc(callsite(#loc2088 at #loc6934))
#loc7990 = loc(callsite(#loc2089 at #loc6934))
#loc7991 = loc(callsite(#loc2090 at #loc6934))
#loc7992 = loc(callsite(#loc2091 at #loc6934))
#loc7993 = loc(callsite(#loc2092 at #loc6934))
#loc7994 = loc(callsite(#loc2093 at #loc6934))
#loc7995 = loc(callsite(#loc2094 at #loc6934))
#loc7996 = loc(callsite(#loc2095 at #loc6934))
#loc7997 = loc(callsite(#loc2096 at #loc6934))
#loc7998 = loc(callsite(#loc2097 at #loc6934))
#loc7999 = loc(callsite(#loc2098 at #loc6934))
#loc8000 = loc(callsite(#loc2099 at #loc6934))
#loc8001 = loc(callsite(#loc2100 at #loc6934))
#loc8002 = loc(callsite(#loc2101 at #loc6934))
#loc8003 = loc(callsite(#loc2102 at #loc6934))
#loc8004 = loc(callsite(#loc2103 at #loc6934))
#loc8005 = loc(callsite(#loc2104 at #loc6934))
#loc8006 = loc(callsite(#loc2105 at #loc6934))
#loc8007 = loc("jit(step_fn)/vmap(jit(cross))"(#loc6935))
#loc8008 = loc("jit(step_fn)/vmap(jit(cross))"(#loc6936))
#loc8009 = loc("jit(step_fn)/vmap()/broadcast_in_dim"(#loc6974))
#loc8010 = loc("jit(step_fn)/vmap()/broadcast_in_dim"(#loc6975))
#loc8011 = loc("jit(step_fn)/vmap()/select_n"(#loc6975))
#loc8012 = loc("jit(step_fn)/vmap()/eq"(#loc6995))
#loc8013 = loc("jit(step_fn)/vmap()/broadcast_in_dim"(#loc6996))
#loc8014 = loc("jit(step_fn)/vmap()/select_n"(#loc6996))
#loc8015 = loc("jit(step_fn)/vmap()/eq"(#loc7021))
#loc8016 = loc("jit(step_fn)/vmap()/broadcast_in_dim"(#loc7022))
#loc8017 = loc("jit(step_fn)/vmap()/select_n"(#loc7022))
#loc8018 = loc("jit(step_fn)/vmap()/eq"(#loc7047))
#loc8019 = loc("jit(step_fn)/vmap()/broadcast_in_dim"(#loc7048))
#loc8020 = loc("jit(step_fn)/vmap()/select_n"(#loc7048))
#loc8021 = loc("jit(step_fn)/vmap()/eq"(#loc7073))
#loc8022 = loc("jit(step_fn)/vmap()/broadcast_in_dim"(#loc7074))
#loc8023 = loc("jit(step_fn)/vmap()/select_n"(#loc7074))
#loc8024 = loc("jit(step_fn)/vmap()/sub"(#loc7099))
#loc8025 = loc("jit(step_fn)/vmap()/lt"(#loc7100))
#loc8026 = loc("jit(step_fn)/vmap()/add"(#loc7100))
#loc8027 = loc("jit(step_fn)/vmap()/select_n"(#loc7100))
#loc8028 = loc("jit(step_fn)/vmap()/broadcast_in_dim"(#loc7100))
#loc8029 = loc("jit(step_fn)/vmap()/concatenate"(#loc7100))
#loc8030 = loc("jit(step_fn)/vmap()/gather"(#loc7100))
#loc8031 = loc("jit(step_fn)/vmap()/squeeze"(#loc7100))
#loc8032 = loc("jit(step_fn)/vmap()/sub"(#loc7101))
#loc8033 = loc("jit(step_fn)/vmap()/lt"(#loc7102))
#loc8034 = loc("jit(step_fn)/vmap()/add"(#loc7102))
#loc8035 = loc("jit(step_fn)/vmap()/select_n"(#loc7102))
#loc8036 = loc("jit(step_fn)/vmap()/broadcast_in_dim"(#loc7102))
#loc8037 = loc("jit(step_fn)/vmap()/concatenate"(#loc7102))
#loc8038 = loc("jit(step_fn)/vmap()/gather"(#loc7102))
#loc8039 = loc("jit(step_fn)/vmap()/squeeze"(#loc7102))
#loc8040 = loc("jit(step_fn)/vmap()/broadcast_in_dim"(#loc7104))
#loc8041 = loc("jit(step_fn)/vmap()/select_n"(#loc7104))
#loc8042 = loc("jit(step_fn)/vmap()/sub"(#loc7105))
#loc8043 = loc("jit(step_fn)/vmap()/lt"(#loc7106))
#loc8044 = loc("jit(step_fn)/vmap()/add"(#loc7106))
#loc8045 = loc("jit(step_fn)/vmap()/select_n"(#loc7106))
#loc8046 = loc("jit(step_fn)/vmap()/broadcast_in_dim"(#loc7106))
#loc8047 = loc("jit(step_fn)/vmap()/concatenate"(#loc7106))
#loc8048 = loc("jit(step_fn)/vmap()/gather"(#loc7106))
#loc8049 = loc("jit(step_fn)/vmap()/squeeze"(#loc7106))
#loc8050 = loc("jit(step_fn)/vmap()/sub"(#loc7107))
#loc8051 = loc("jit(step_fn)/vmap()/lt"(#loc7108))
#loc8052 = loc("jit(step_fn)/vmap()/add"(#loc7108))
#loc8053 = loc("jit(step_fn)/vmap()/select_n"(#loc7108))
#loc8054 = loc("jit(step_fn)/vmap()/broadcast_in_dim"(#loc7108))
#loc8055 = loc("jit(step_fn)/vmap()/concatenate"(#loc7108))
#loc8056 = loc("jit(step_fn)/vmap()/gather"(#loc7108))
#loc8057 = loc("jit(step_fn)/vmap()/squeeze"(#loc7108))
#loc8058 = loc("jit(step_fn)/vmap()/broadcast_in_dim"(#loc7110))
#loc8059 = loc("jit(step_fn)/vmap()/select_n"(#loc7110))
#loc8060 = loc("jit(step_fn)/vmap()/slice"(#loc7111))
#loc8061 = loc("jit(step_fn)/vmap()/slice"(#loc7112))
#loc8062 = loc("jit(step_fn)/vmap()/squeeze"(#loc7112))
#loc8063 = loc("jit(step_fn)/vmap(jit(cross))"(#loc7113))
#loc8064 = loc("jit(step_fn)/vmap()/broadcast_in_dim"(#loc7114))
#loc8065 = loc("jit(step_fn)/vmap()/mul"(#loc7114))
#loc8066 = loc("jit(step_fn)/vmap()/add"(#loc7115))
#loc8067 = loc("jit(step_fn)/vmap(jit(cross))"(#loc7116))
#loc8068 = loc("jit(step_fn)/vmap()/mul"(#loc7117))
#loc8069 = loc("jit(step_fn)/vmap()/add"(#loc7118))
#loc8070 = loc("jit(step_fn)/vmap()/slice"(#loc7119))
#loc8071 = loc("jit(step_fn)/vmap()/slice"(#loc7120))
#loc8072 = loc("jit(step_fn)/vmap()/squeeze"(#loc7120))
#loc8073 = loc("jit(step_fn)/vmap(jit(cross))"(#loc7121))
#loc8074 = loc("jit(step_fn)/vmap()/broadcast_in_dim"(#loc7122))
#loc8075 = loc("jit(step_fn)/vmap()/mul"(#loc7122))
#loc8076 = loc("jit(step_fn)/vmap()/add"(#loc7123))
#loc8077 = loc("jit(step_fn)/vmap(jit(cross))"(#loc7124))
#loc8078 = loc("jit(step_fn)/vmap()/mul"(#loc7125))
#loc8079 = loc("jit(step_fn)/vmap()/add"(#loc7126))
#loc8080 = loc("jit(step_fn)/vmap()/eq"(#loc7129))
#loc8081 = loc("jit(step_fn)/vmap()/broadcast_in_dim"(#loc7130))
#loc8082 = loc("jit(step_fn)/vmap()/select_n"(#loc7130))
#loc8083 = loc("jit(step_fn)/vmap()/eq"(#loc7131))
#loc8084 = loc("jit(step_fn)/vmap()/broadcast_in_dim"(#loc7132))
#loc8085 = loc("jit(step_fn)/vmap()/select_n"(#loc7132))
#loc8086 = loc("jit(step_fn)/vmap()/jit"(#loc6091))
#loc8087 = loc("jit:"(#loc7147))
#loc8088 = loc("jit:"(#loc7148))
#loc8089 = loc("jit:"(#loc7149))
#loc8090 = loc("jit:"(#loc7150))
#loc8091 = loc("jit:"(#loc7151))
#loc8092 = loc("jit:"(#loc7152))
#loc8093 = loc("jit:"(#loc7153))
#loc8094 = loc("jit(step_fn)/vmap()/jit"(#loc6226))
#loc8095 = loc("lt"(#loc7156))
#loc8096 = loc("ne"(#loc7156))
#loc8097 = loc("or"(#loc7156))
#loc8098 = loc("eq"(#loc7156))
#loc8099 = loc("and"(#loc7156))
#loc8100 = loc("select_n"(#loc7156))
#loc8101 = loc("gt"(#loc7159))
#loc8102 = loc("ne"(#loc7159))
#loc8103 = loc("or"(#loc7159))
#loc8104 = loc("eq"(#loc7159))
#loc8105 = loc("lt"(#loc7159))
#loc8106 = loc("and"(#loc7159))
#loc8107 = loc("select_n"(#loc7159))
#loc8108 = loc("jit(step_fn)/vmap()/jit"(#loc6275))
#loc8109 = loc("jit(step_fn)/vmap()/jit"(#loc6294))
#loc8110 = loc("jit:"(#loc7160))
#loc8111 = loc("jit:"(#loc7161))
#loc8112 = loc("jit:"(#loc7162))
#loc8113 = loc("jit:"(#loc7163))
#loc8114 = loc("jit(step_fn)/vmap()/jit"(#loc6368))
#loc8115 = loc("jit:"(#loc7164))
#loc8116 = loc("jit:"(#loc7165))
#loc8117 = loc("jit:"(#loc7166))
#loc8118 = loc("jit:"(#loc7167))
#loc8119 = loc("jit:"(#loc7168))
#loc8120 = loc("jit:"(#loc7169))
#loc8121 = loc("jit(step_fn)/vmap()/jit"(#loc6523))
#loc8122 = loc("jit(step_fn)/vmap()/jit"(#loc6827))
#loc8123 = loc("jit:"(#loc7170))
#loc8124 = loc("jit:"(#loc7171))
#loc8125 = loc("jit:"(#loc7172))
#loc8126 = loc("jit:"(#loc7173))
#loc8127 = loc("jit:"(#loc7174))
#loc8128 = loc("jit(step_fn)/vmap()/slice"(#loc7308))
#loc8129 = loc("jit(step_fn)/vmap()/slice"(#loc7309))
#loc8130 = loc("jit(step_fn)/vmap()/squeeze"(#loc7309))
#loc8131 = loc("jit(step_fn)/vmap(jit(cross))"(#loc7310))
#loc8132 = loc("jit(step_fn)/vmap()/broadcast_in_dim"(#loc7311))
#loc8133 = loc("jit(step_fn)/vmap()/mul"(#loc7311))
#loc8134 = loc("jit(step_fn)/vmap()/sub"(#loc7312))
#loc8135 = loc("jit(step_fn)/vmap(jit(cross))"(#loc7313))
#loc8136 = loc("jit(step_fn)/vmap()/mul"(#loc7314))
#loc8137 = loc("jit(step_fn)/vmap()/add"(#loc7315))
#loc8138 = loc("jit(step_fn)/vmap()/slice"(#loc7326))
#loc8139 = loc("jit(step_fn)/vmap()/slice"(#loc7327))
#loc8140 = loc("jit(step_fn)/vmap()/squeeze"(#loc7327))
#loc8141 = loc("jit(step_fn)/vmap(jit(cross))"(#loc7328))
#loc8142 = loc("jit(step_fn)/vmap()/broadcast_in_dim"(#loc7329))
#loc8143 = loc("jit(step_fn)/vmap()/mul"(#loc7329))
#loc8144 = loc("jit(step_fn)/vmap()/sub"(#loc7330))
#loc8145 = loc("jit(step_fn)/vmap(jit(cross))"(#loc7331))
#loc8146 = loc("jit(step_fn)/vmap()/mul"(#loc7332))
#loc8147 = loc("jit(step_fn)/vmap()/add"(#loc7333))
#loc8148 = loc("jit(step_fn)/vmap()/add"(#loc7344))
#loc8149 = loc("jit(step_fn)/vmap(jit(remainder))"(#loc7345))
#loc8150 = loc("jit(step_fn)/vmap()/add"(#loc7346))
#loc8151 = loc("jit(step_fn)/vmap(jit(remainder))"(#loc7347))
#loc8152 = loc("jit(step_fn)/vmap()/iota"(#loc7348))
#loc8153 = loc("jit(step_fn)/vmap()/add"(#loc7348))
#loc8154 = loc("jit(step_fn)/vmap()/eq"(#loc7348))
#loc8155 = loc("jit(step_fn)/vmap()/convert_element_type"(#loc7348))
#loc8156 = loc("jit(step_fn)/vmap()/lt"(#loc7349))
#loc8157 = loc("jit(step_fn)/vmap()/add"(#loc7349))
#loc8158 = loc("jit(step_fn)/vmap()/select_n"(#loc7349))
#loc8159 = loc("jit(step_fn)/vmap()/broadcast_in_dim"(#loc7349))
#loc8160 = loc("jit(step_fn)/vmap()/concatenate"(#loc7349))
#loc8161 = loc("jit(step_fn)/vmap()/gather"(#loc7349))
#loc8162 = loc("jit(step_fn)/vmap()/squeeze"(#loc7349))
#loc8163 = loc("jit(step_fn)/vmap()/iota"(#loc7350))
#loc8164 = loc("jit(step_fn)/vmap()/add"(#loc7350))
#loc8165 = loc("jit(step_fn)/vmap()/eq"(#loc7350))
#loc8166 = loc("jit(step_fn)/vmap()/convert_element_type"(#loc7350))
#loc8167 = loc("jit(step_fn)/vmap()/lt"(#loc7351))
#loc8168 = loc("jit(step_fn)/vmap()/add"(#loc7351))
#loc8169 = loc("jit(step_fn)/vmap()/select_n"(#loc7351))
#loc8170 = loc("jit(step_fn)/vmap()/broadcast_in_dim"(#loc7351))
#loc8171 = loc("jit(step_fn)/vmap()/concatenate"(#loc7351))
#loc8172 = loc("jit(step_fn)/vmap()/gather"(#loc7351))
#loc8173 = loc("jit(step_fn)/vmap()/squeeze"(#loc7351))
#loc8174 = loc("jit(step_fn)/vmap()/iota"(#loc7352))
#loc8175 = loc("jit(step_fn)/vmap()/add"(#loc7352))
#loc8176 = loc("jit(step_fn)/vmap()/eq"(#loc7352))
#loc8177 = loc("jit(step_fn)/vmap()/convert_element_type"(#loc7352))
#loc8178 = loc("jit(step_fn)/vmap()/lt"(#loc7353))
#loc8179 = loc("jit(step_fn)/vmap()/add"(#loc7353))
#loc8180 = loc("jit(step_fn)/vmap()/select_n"(#loc7353))
#loc8181 = loc("jit(step_fn)/vmap()/broadcast_in_dim"(#loc7353))
#loc8182 = loc("jit(step_fn)/vmap()/concatenate"(#loc7353))
#loc8183 = loc("jit(step_fn)/vmap()/gather"(#loc7353))
#loc8184 = loc("jit(step_fn)/vmap()/squeeze"(#loc7353))
#loc8185 = loc("jit(step_fn)/vmap()/lt"(#loc7354))
#loc8186 = loc("jit(step_fn)/vmap()/add"(#loc7354))
#loc8187 = loc("jit(step_fn)/vmap()/select_n"(#loc7354))
#loc8188 = loc("jit(step_fn)/vmap()/broadcast_in_dim"(#loc7354))
#loc8189 = loc("jit(step_fn)/vmap()/gather"(#loc7354))
#loc8190 = loc("jit(step_fn)/vmap()/squeeze"(#loc7354))
#loc8191 = loc("jit(step_fn)/vmap()/convert_element_type"(#loc7355))
#loc8192 = loc("jit(step_fn)/vmap()/mul"(#loc7355))
#loc8193 = loc("jit(step_fn)/vmap()/broadcast_in_dim"(#loc7356))
#loc8194 = loc("jit(step_fn)/vmap()/broadcast_in_dim"(#loc7357))
#loc8195 = loc("jit(step_fn)/vmap()/mul"(#loc7357))
#loc8196 = loc("jit(step_fn)/vmap()/slice"(#loc7358))
#loc8197 = loc("jit(step_fn)/vmap()/lt"(#loc7359))
#loc8198 = loc("jit(step_fn)/vmap()/add"(#loc7359))
#loc8199 = loc("jit(step_fn)/vmap()/select_n"(#loc7359))
#loc8200 = loc("jit(step_fn)/vmap()/broadcast_in_dim"(#loc7359))
#loc8201 = loc("jit(step_fn)/vmap()/gather"(#loc7359))
#loc8202 = loc("jit(step_fn)/vmap()/squeeze"(#loc7359))
#loc8203 = loc("jit(step_fn)/vmap()/broadcast_in_dim"(#loc7360))
#loc8204 = loc("jit(step_fn)/vmap()/mul"(#loc7360))
#loc8205 = loc("jit(step_fn)/vmap()/broadcast_in_dim"(#loc7361))
#loc8206 = loc("jit(step_fn)/vmap()/mul"(#loc7362))
#loc8207 = loc("jit(step_fn)/vmap()/add"(#loc7363))
#loc8208 = loc("jit(step_fn)/vmap()/slice"(#loc7364))
#loc8209 = loc("jit(step_fn)/vmap()/lt"(#loc7365))
#loc8210 = loc("jit(step_fn)/vmap()/add"(#loc7365))
#loc8211 = loc("jit(step_fn)/vmap()/select_n"(#loc7365))
#loc8212 = loc("jit(step_fn)/vmap()/broadcast_in_dim"(#loc7365))
#loc8213 = loc("jit(step_fn)/vmap()/gather"(#loc7365))
#loc8214 = loc("jit(step_fn)/vmap()/squeeze"(#loc7365))
#loc8215 = loc("jit(step_fn)/vmap()/broadcast_in_dim"(#loc7366))
#loc8216 = loc("jit(step_fn)/vmap()/mul"(#loc7366))
#loc8217 = loc("jit(step_fn)/vmap()/broadcast_in_dim"(#loc7367))
#loc8218 = loc("jit(step_fn)/vmap()/mul"(#loc7368))
#loc8219 = loc("jit(step_fn)/vmap()/add"(#loc7369))
#loc8220 = loc(callsite(#loc1613 at #loc7370))
#loc8221 = loc(callsite(#loc1616 at #loc7370))
#loc8222 = loc(callsite(#loc1617 at #loc7370))
#loc8223 = loc(callsite(#loc1618 at #loc7370))
#loc8224 = loc(callsite(#loc1619 at #loc7370))
#loc8225 = loc(callsite(#loc1620 at #loc7370))
#loc8226 = loc(callsite(#loc1621 at #loc7370))
#loc8227 = loc(callsite(#loc1622 at #loc7370))
#loc8228 = loc("jit(step_fn)/vmap(vmap())/broadcast_in_dim"(#loc7373))
#loc8229 = loc("jit(step_fn)/vmap(vmap())/sub"(#loc7373))
#loc8230 = loc(callsite(#loc1565 at #loc7374))
#loc8231 = loc(callsite(#loc1568 at #loc7374))
#loc8232 = loc(callsite(#loc1569 at #loc7374))
#loc8233 = loc(callsite(#loc1570 at #loc7374))
#loc8234 = loc(callsite(#loc1571 at #loc7374))
#loc8235 = loc(callsite(#loc1572 at #loc7374))
#loc8236 = loc(callsite(#loc1573 at #loc7374))
#loc8237 = loc(callsite(#loc1574 at #loc7374))
#loc8238 = loc("jit(step_fn)/vmap()/convert_element_type"(#loc7433))
#loc8239 = loc("jit(step_fn)/vmap()/reduce_sum"(#loc7433))
#loc8240 = loc("jit(step_fn)/vmap()/max"(#loc7434))
#loc8241 = loc("jit(step_fn)/vmap()/iota"(#loc7435))
#loc8242 = loc(callsite(#loc1649 at #loc7436))
#loc8243 = loc(callsite(#loc1651 at #loc7436))
#loc8244 = loc(callsite(#loc1652 at #loc7436))
#loc8245 = loc(callsite(#loc1653 at #loc7436))
#loc8246 = loc(callsite(#loc1654 at #loc7436))
#loc8247 = loc(callsite(#loc1655 at #loc7436))
#loc8248 = loc(callsite(#loc1656 at #loc7436))
#loc8249 = loc(callsite(#loc1657 at #loc7436))
#loc8250 = loc(callsite(#loc1658 at #loc7436))
#loc8251 = loc(callsite(#loc1659 at #loc7436))
#loc8252 = loc(callsite(#loc1660 at #loc7436))
#loc8253 = loc(callsite(#loc1661 at #loc7436))
#loc8254 = loc(callsite(#loc1662 at #loc7436))
#loc8255 = loc(callsite(#loc1663 at #loc7436))
#loc8256 = loc(callsite(#loc1664 at #loc7436))
#loc8257 = loc(callsite(#loc1665 at #loc7436))
#loc8258 = loc(callsite(#loc1666 at #loc7436))
#loc8259 = loc(callsite(#loc1667 at #loc7436))
#loc8260 = loc(callsite(#loc1668 at #loc7436))
#loc8261 = loc(callsite(#loc1669 at #loc7436))
#loc8262 = loc(callsite(#loc1670 at #loc7436))
#loc8263 = loc("jit(step_fn)/vmap()/concatenate"(#loc7437))
#loc8264 = loc("jit(step_fn)/vmap()/concatenate"(#loc7438))
#loc8265 = loc("jit(step_fn)/vmap()/not"(#loc7439))
#loc8266 = loc("jit(step_fn)/vmap()/convert_element_type"(#loc7440))
#loc8267 = loc("jit(step_fn)/vmap(jit(argsort))"(#loc7441))
#loc8268 = loc("jit(step_fn)/vmap()/lt"(#loc7442))
#loc8269 = loc("jit(step_fn)/vmap()/add"(#loc7442))
#loc8270 = loc("jit(step_fn)/vmap()/select_n"(#loc7442))
#loc8271 = loc("jit(step_fn)/vmap()/broadcast_in_dim"(#loc7442))
#loc8272 = loc("jit(step_fn)/vmap()/gather"(#loc7442))
#loc8273 = loc("jit(step_fn)/vmap()/slice"(#loc7443))
#loc8274 = loc("jit(step_fn)/vmap()/lt"(#loc7444))
#loc8275 = loc("jit(step_fn)/vmap()/add"(#loc7444))
#loc8276 = loc("jit(step_fn)/vmap()/select_n"(#loc7444))
#loc8277 = loc("jit(step_fn)/vmap()/broadcast_in_dim"(#loc7444))
#loc8278 = loc("jit(step_fn)/vmap()/gather"(#loc7444))
#loc8279 = loc("jit(step_fn)/vmap()/slice"(#loc7445))
#loc8280 = loc("jit(step_fn)/vmap(jit(_where))"(#loc7464))
#loc8282 = loc("jit(step_fn)/vmap()/lt"(#loc7466))
#loc8283 = loc("jit(step_fn)/vmap()/add"(#loc7466))
#loc8284 = loc("jit(step_fn)/vmap()/select_n"(#loc7466))
#loc8285 = loc("jit(step_fn)/vmap()/broadcast_in_dim"(#loc7466))
#loc8286 = loc("jit(step_fn)/vmap()/concatenate"(#loc7466))
#loc8287 = loc("jit(step_fn)/vmap()/gather"(#loc7466))
#loc8288 = loc("jit(step_fn)/vmap()/squeeze"(#loc7466))
#loc8289 = loc("jit(step_fn)/vmap()/lt"(#loc7467))
#loc8290 = loc("jit(step_fn)/vmap()/add"(#loc7467))
#loc8291 = loc("jit(step_fn)/vmap()/select_n"(#loc7467))
#loc8292 = loc("jit(step_fn)/vmap()/broadcast_in_dim"(#loc7467))
#loc8293 = loc("jit(step_fn)/vmap()/concatenate"(#loc7467))
#loc8294 = loc("jit(step_fn)/vmap()/gather"(#loc7467))
#loc8295 = loc("jit(step_fn)/vmap()/squeeze"(#loc7467))
#loc8296 = loc("jit(step_fn)/vmap()/lt"(#loc7468))
#loc8297 = loc("jit(step_fn)/vmap()/add"(#loc7468))
#loc8298 = loc("jit(step_fn)/vmap()/select_n"(#loc7468))
#loc8299 = loc("jit(step_fn)/vmap()/broadcast_in_dim"(#loc7468))
#loc8300 = loc("jit(step_fn)/vmap()/gather"(#loc7468))
#loc8301 = loc("jit(step_fn)/vmap()/squeeze"(#loc7468))
#loc8302 = loc("jit(step_fn)/vmap()/broadcast_in_dim"(#loc7469))
#loc8303 = loc("jit(step_fn)/vmap()/sub"(#loc7469))
#loc8304 = loc("jit(step_fn)/vmap()/lt"(#loc7470))
#loc8305 = loc("jit(step_fn)/vmap()/add"(#loc7470))
#loc8306 = loc("jit(step_fn)/vmap()/select_n"(#loc7470))
#loc8307 = loc("jit(step_fn)/vmap()/broadcast_in_dim"(#loc7470))
#loc8308 = loc("jit(step_fn)/vmap()/concatenate"(#loc7470))
#loc8309 = loc("jit(step_fn)/vmap()/gather"(#loc7470))
#loc8310 = loc("jit(step_fn)/vmap()/squeeze"(#loc7470))
#loc8311 = loc("jit(step_fn)/vmap()/lt"(#loc7471))
#loc8312 = loc("jit(step_fn)/vmap()/add"(#loc7471))
#loc8313 = loc("jit(step_fn)/vmap()/select_n"(#loc7471))
#loc8314 = loc("jit(step_fn)/vmap()/broadcast_in_dim"(#loc7471))
#loc8315 = loc("jit(step_fn)/vmap()/gather"(#loc7471))
#loc8316 = loc("jit(step_fn)/vmap()/squeeze"(#loc7471))
#loc8317 = loc("jit(step_fn)/vmap()/broadcast_in_dim"(#loc7472))
#loc8318 = loc("jit(step_fn)/vmap()/sub"(#loc7472))
#loc8319 = loc("jit(step_fn)/vmap()/mul"(#loc7473))
#loc8320 = loc("jit(step_fn)/vmap()/mul"(#loc7474))
#loc8321 = loc("jit(step_fn)/vmap()/add"(#loc7475))
#loc8322 = loc("jit(step_fn)/vmap(jit(_where))"(#loc7476))
#loc8324 = loc("jit(step_fn)/vmap()/lt"(#loc7478))
#loc8325 = loc("jit(step_fn)/vmap()/add"(#loc7478))
#loc8326 = loc("jit(step_fn)/vmap()/select_n"(#loc7478))
#loc8327 = loc("jit(step_fn)/vmap()/broadcast_in_dim"(#loc7478))
#loc8328 = loc("jit(step_fn)/vmap()/concatenate"(#loc7478))
#loc8329 = loc("jit(step_fn)/vmap()/gather"(#loc7478))
#loc8330 = loc("jit(step_fn)/vmap()/squeeze"(#loc7478))
#loc8331 = loc("jit(step_fn)/vmap()/lt"(#loc7479))
#loc8332 = loc("jit(step_fn)/vmap()/add"(#loc7479))
#loc8333 = loc("jit(step_fn)/vmap()/select_n"(#loc7479))
#loc8334 = loc("jit(step_fn)/vmap()/broadcast_in_dim"(#loc7479))
#loc8335 = loc("jit(step_fn)/vmap()/gather"(#loc7479))
#loc8336 = loc("jit(step_fn)/vmap()/squeeze"(#loc7479))
#loc8337 = loc("jit(step_fn)/vmap()/lt"(#loc7480))
#loc8338 = loc("jit(step_fn)/vmap()/add"(#loc7480))
#loc8339 = loc("jit(step_fn)/vmap()/select_n"(#loc7480))
#loc8340 = loc("jit(step_fn)/vmap()/broadcast_in_dim"(#loc7480))
#loc8341 = loc("jit(step_fn)/vmap()/gather"(#loc7480))
#loc8342 = loc("jit(step_fn)/vmap()/squeeze"(#loc7480))
#loc8343 = loc("jit(step_fn)/vmap()/sub"(#loc7481))
#loc8344 = loc("jit(step_fn)/vmap()/lt"(#loc7482))
#loc8345 = loc("jit(step_fn)/vmap()/add"(#loc7482))
#loc8346 = loc("jit(step_fn)/vmap()/select_n"(#loc7482))
#loc8347 = loc("jit(step_fn)/vmap()/broadcast_in_dim"(#loc7482))
#loc8348 = loc("jit(step_fn)/vmap()/gather"(#loc7482))
#loc8349 = loc("jit(step_fn)/vmap()/squeeze"(#loc7482))
#loc8350 = loc("jit(step_fn)/vmap()/lt"(#loc7483))
#loc8351 = loc("jit(step_fn)/vmap()/add"(#loc7483))
#loc8352 = loc("jit(step_fn)/vmap()/select_n"(#loc7483))
#loc8353 = loc("jit(step_fn)/vmap()/broadcast_in_dim"(#loc7483))
#loc8354 = loc("jit(step_fn)/vmap()/gather"(#loc7483))
#loc8355 = loc("jit(step_fn)/vmap()/squeeze"(#loc7483))
#loc8356 = loc("jit(step_fn)/vmap()/sub"(#loc7484))
#loc8357 = loc("jit(step_fn)/vmap()/lt"(#loc7485))
#loc8358 = loc("jit(step_fn)/vmap()/add"(#loc7485))
#loc8359 = loc("jit(step_fn)/vmap()/select_n"(#loc7485))
#loc8360 = loc("jit(step_fn)/vmap()/broadcast_in_dim"(#loc7485))
#loc8361 = loc("jit(step_fn)/vmap()/concatenate"(#loc7485))
#loc8362 = loc("jit(step_fn)/vmap()/gather"(#loc7485))
#loc8363 = loc("jit(step_fn)/vmap()/squeeze"(#loc7485))
#loc8364 = loc("jit(step_fn)/vmap()/lt"(#loc7486))
#loc8365 = loc("jit(step_fn)/vmap()/add"(#loc7486))
#loc8366 = loc("jit(step_fn)/vmap()/select_n"(#loc7486))
#loc8367 = loc("jit(step_fn)/vmap()/broadcast_in_dim"(#loc7486))
#loc8368 = loc("jit(step_fn)/vmap()/gather"(#loc7486))
#loc8369 = loc("jit(step_fn)/vmap()/squeeze"(#loc7486))
#loc8370 = loc("jit(step_fn)/vmap()/broadcast_in_dim"(#loc7487))
#loc8371 = loc("jit(step_fn)/vmap()/sub"(#loc7487))
#loc8372 = loc("jit(step_fn)/vmap()/lt"(#loc7488))
#loc8373 = loc("jit(step_fn)/vmap()/add"(#loc7488))
#loc8374 = loc("jit(step_fn)/vmap()/select_n"(#loc7488))
#loc8375 = loc("jit(step_fn)/vmap()/broadcast_in_dim"(#loc7488))
#loc8376 = loc("jit(step_fn)/vmap()/concatenate"(#loc7488))
#loc8377 = loc("jit(step_fn)/vmap()/gather"(#loc7488))
#loc8378 = loc("jit(step_fn)/vmap()/squeeze"(#loc7488))
#loc8379 = loc("jit(step_fn)/vmap()/lt"(#loc7489))
#loc8380 = loc("jit(step_fn)/vmap()/add"(#loc7489))
#loc8381 = loc("jit(step_fn)/vmap()/select_n"(#loc7489))
#loc8382 = loc("jit(step_fn)/vmap()/broadcast_in_dim"(#loc7489))
#loc8383 = loc("jit(step_fn)/vmap()/gather"(#loc7489))
#loc8384 = loc("jit(step_fn)/vmap()/squeeze"(#loc7489))
#loc8385 = loc("jit(step_fn)/vmap()/broadcast_in_dim"(#loc7490))
#loc8386 = loc("jit(step_fn)/vmap()/sub"(#loc7490))
#loc8387 = loc("jit(step_fn)/vmap()/broadcast_in_dim"(#loc7491))
#loc8388 = loc("jit(step_fn)/vmap()/mul"(#loc7491))
#loc8389 = loc("jit(step_fn)/vmap()/broadcast_in_dim"(#loc7492))
#loc8390 = loc("jit(step_fn)/vmap()/mul"(#loc7492))
#loc8391 = loc("jit(step_fn)/vmap()/sub"(#loc7493))
#loc8392 = loc("jit(step_fn)/vmap(jit(_where))"(#loc7494))
#loc8393 = loc("jit(step_fn)/vmap()"(#loc7495))
#loc8394 = loc("jit(step_fn)/vmap(jit(_where))"(#loc7496))
#loc8395 = loc("jit(step_fn)/vmap()"(#loc7497))
#loc8396 = loc("jit(step_fn)/vmap()/broadcast_in_dim"(#loc7498))
#loc8397 = loc("jit(step_fn)/vmap()/concatenate"(#loc7498))
#loc8398 = loc("jit(step_fn)/vmap()/lt"(#loc7499))
#loc8399 = loc("jit(step_fn)/vmap()/add"(#loc7499))
#loc8400 = loc("jit(step_fn)/vmap()/select_n"(#loc7499))
#loc8401 = loc("jit(step_fn)/vmap()/broadcast_in_dim"(#loc7499))
#loc8402 = loc("jit(step_fn)/vmap()/gather"(#loc7499))
#loc8403 = loc(callsite(#loc1613 at #loc7510))
#loc8404 = loc(callsite(#loc1616 at #loc7510))
#loc8405 = loc(callsite(#loc1617 at #loc7510))
#loc8406 = loc(callsite(#loc1618 at #loc7510))
#loc8407 = loc(callsite(#loc1619 at #loc7510))
#loc8408 = loc(callsite(#loc1620 at #loc7510))
#loc8409 = loc(callsite(#loc1621 at #loc7510))
#loc8410 = loc(callsite(#loc1622 at #loc7510))
#loc8411 = loc("jit(step_fn)/vmap()/slice"(#loc7530))
#loc8412 = loc("jit(step_fn)/vmap()/slice"(#loc7531))
#loc8413 = loc("jit(step_fn)/vmap()/squeeze"(#loc7531))
#loc8414 = loc("jit(step_fn)/vmap(jit(cross))"(#loc7532))
#loc8415 = loc("jit(step_fn)/vmap()/broadcast_in_dim"(#loc7533))
#loc8416 = loc("jit(step_fn)/vmap()/mul"(#loc7533))
#loc8417 = loc("jit(step_fn)/vmap()/add"(#loc7534))
#loc8418 = loc("jit(step_fn)/vmap(jit(cross))"(#loc7535))
#loc8419 = loc("jit(step_fn)/vmap()/mul"(#loc7536))
#loc8420 = loc("jit(step_fn)/vmap()/add"(#loc7537))
#loc8421 = loc("jit(step_fn)/vmap()/slice"(#loc7557))
#loc8422 = loc("jit(step_fn)/vmap()/slice"(#loc7558))
#loc8423 = loc("jit(step_fn)/vmap()/squeeze"(#loc7558))
#loc8424 = loc("jit(step_fn)/vmap(jit(cross))"(#loc7559))
#loc8425 = loc("jit(step_fn)/vmap()/broadcast_in_dim"(#loc7560))
#loc8426 = loc("jit(step_fn)/vmap()/mul"(#loc7560))
#loc8427 = loc("jit(step_fn)/vmap()/add"(#loc7561))
#loc8428 = loc("jit(step_fn)/vmap(jit(cross))"(#loc7562))
#loc8429 = loc("jit(step_fn)/vmap()/mul"(#loc7563))
#loc8430 = loc("jit(step_fn)/vmap()/add"(#loc7564))
#loc8431 = loc("jit(step_fn)/vmap()/sub"(#loc7573))
#loc8432 = loc("jit(step_fn)/vmap()/dot_general"(#loc7574))
#loc8433 = loc("jit(step_fn)/vmap()/dot_general"(#loc7575))
#loc8434 = loc("jit(step_fn)/vmap()/dot_general"(#loc7576))
#loc8435 = loc("jit(step_fn)/vmap()/dot_general"(#loc7577))
#loc8436 = loc("jit(step_fn)/vmap()/dot_general"(#loc7578))
#loc8437 = loc("jit(step_fn)/vmap()/mul"(#loc7579))
#loc8438 = loc("jit(step_fn)/vmap()/mul"(#loc7580))
#loc8439 = loc("jit(step_fn)/vmap()/sub"(#loc7581))
#loc8440 = loc("jit(step_fn)/vmap()/mul"(#loc7582))
#loc8441 = loc("jit(step_fn)/vmap()/mul"(#loc7583))
#loc8442 = loc("jit(step_fn)/vmap()/sub"(#loc7584))
#loc8443 = loc(callsite(#loc1505 at #loc7585))
#loc8444 = loc(callsite(#loc1507 at #loc7585))
#loc8445 = loc("jit(step_fn)/vmap()/div"(#loc7586))
#loc8446 = loc("jit(step_fn)/vmap()/mul"(#loc7587))
#loc8447 = loc("jit(step_fn)/vmap()/mul"(#loc7588))
#loc8448 = loc("jit(step_fn)/vmap()/sub"(#loc7589))
#loc8449 = loc(callsite(#loc1505 at #loc7590))
#loc8450 = loc(callsite(#loc1507 at #loc7590))
#loc8451 = loc("jit(step_fn)/vmap()/div"(#loc7591))
#loc8452 = loc("jit(step_fn)/vmap(vmap())/broadcast_in_dim"(#loc7628))
#loc8453 = loc("jit(step_fn)/vmap(vmap())/sub"(#loc7628))
#loc8454 = loc("jit(step_fn)/vmap(vmap(jit(cross)))"(#loc7629))
#loc8455 = loc("jit(step_fn)/vmap(vmap())/broadcast_in_dim"(#loc7630))
#loc8456 = loc("jit(step_fn)/vmap(vmap())/add"(#loc7630))
#loc8457 = loc("jit(step_fn)/vmap(vmap())/broadcast_in_dim"(#loc7631))
#loc8458 = loc("jit(step_fn)/vmap(vmap())/sub"(#loc7631))
#loc8459 = loc("jit(step_fn)/vmap(vmap(jit(cross)))"(#loc7632))
#loc8460 = loc("jit(step_fn)/vmap(vmap())/broadcast_in_dim"(#loc7633))
#loc8461 = loc("jit(step_fn)/vmap(vmap())/add"(#loc7633))
#loc8462 = loc("jit(step_fn)/vmap(vmap())/sub"(#loc7634))
#loc8463 = loc("jit(step_fn)/vmap(vmap())/dot_general"(#loc7635))
#loc8464 = loc("jit(step_fn)/vmap()/reshape"(#loc7636))
#loc8465 = loc("jit(step_fn)/vmap()/broadcast_in_dim"(#loc7637))
#loc8466 = loc("jit(step_fn)/vmap(jit(_where))"(#loc7638))
#loc8467 = loc("jit(step_fn)/vmap()/slice"(#loc7962))
#loc8468 = loc("jit(step_fn)/vmap()/slice"(#loc7963))
#loc8469 = loc("jit(step_fn)/vmap()/squeeze"(#loc7963))
#loc8470 = loc("jit(step_fn)/vmap(jit(cross))"(#loc7964))
#loc8471 = loc("jit(step_fn)/vmap()/broadcast_in_dim"(#loc7965))
#loc8472 = loc("jit(step_fn)/vmap()/mul"(#loc7965))
#loc8473 = loc("jit(step_fn)/vmap()/add"(#loc7966))
#loc8474 = loc("jit(step_fn)/vmap(jit(cross))"(#loc7967))
#loc8475 = loc("jit(step_fn)/vmap()/mul"(#loc7968))
#loc8476 = loc("jit(step_fn)/vmap()/add"(#loc7969))
#loc8477 = loc("jit(step_fn)/vmap()/slice"(#loc7970))
#loc8478 = loc("jit(step_fn)/vmap()/slice"(#loc7971))
#loc8479 = loc("jit(step_fn)/vmap()/squeeze"(#loc7971))
#loc8480 = loc("jit(step_fn)/vmap(jit(cross))"(#loc7972))
#loc8481 = loc("jit(step_fn)/vmap()/broadcast_in_dim"(#loc7973))
#loc8482 = loc("jit(step_fn)/vmap()/mul"(#loc7973))
#loc8483 = loc("jit(step_fn)/vmap()/add"(#loc7974))
#loc8484 = loc("jit(step_fn)/vmap(jit(cross))"(#loc7975))
#loc8485 = loc("jit(step_fn)/vmap()/mul"(#loc7976))
#loc8486 = loc("jit(step_fn)/vmap()/add"(#loc7977))
#loc8487 = loc("jit(step_fn)/vmap()/slice"(#loc7978))
#loc8488 = loc("jit(step_fn)/vmap()/squeeze"(#loc7978))
#loc8489 = loc("jit(step_fn)/vmap()/ge"(#loc7979))
#loc8490 = loc("jit(step_fn)/vmap(jit(_where))"(#loc7980))
#loc8491 = loc("jit(step_fn)/vmap()/slice"(#loc7981))
#loc8492 = loc("jit(step_fn)/vmap()/squeeze"(#loc7981))
#loc8493 = loc("jit(step_fn)/vmap()/convert_element_type"(#loc7982))
#loc8494 = loc("jit(step_fn)/vmap()/add"(#loc7982))
#loc8495 = loc("jit(step_fn)/vmap()/div"(#loc7983))
#loc8496 = loc("jit(step_fn)/vmap()/slice"(#loc7984))
#loc8497 = loc("jit(step_fn)/vmap()/squeeze"(#loc7984))
#loc8498 = loc("jit(step_fn)/vmap()/slice"(#loc7985))
#loc8499 = loc("jit(step_fn)/vmap()/squeeze"(#loc7985))
#loc8500 = loc("jit(step_fn)/vmap()/mul"(#loc7986))
#loc8501 = loc("jit(step_fn)/vmap()/mul"(#loc7987))
#loc8502 = loc("jit(step_fn)/vmap()/slice"(#loc7988))
#loc8503 = loc("jit(step_fn)/vmap()/squeeze"(#loc7988))
#loc8504 = loc("jit(step_fn)/vmap()/convert_element_type"(#loc7989))
#loc8505 = loc("jit(step_fn)/vmap()/mul"(#loc7989))
#loc8506 = loc("jit(step_fn)/vmap()/slice"(#loc7990))
#loc8507 = loc("jit(step_fn)/vmap()/squeeze"(#loc7990))
#loc8508 = loc("jit(step_fn)/vmap()/mul"(#loc7991))
#loc8509 = loc("jit(step_fn)/vmap()/mul"(#loc7992))
#loc8510 = loc("jit(step_fn)/vmap()/add"(#loc7993))
#loc8511 = loc("jit(step_fn)/vmap()/convert_element_type"(#loc7994))
#loc8512 = loc("jit(step_fn)/vmap()/mul"(#loc7994))
#loc8513 = loc("jit(step_fn)/vmap()/neg"(#loc7995))
#loc8514 = loc("jit(step_fn)/vmap()/slice"(#loc7996))
#loc8515 = loc("jit(step_fn)/vmap()/squeeze"(#loc7996))
#loc8516 = loc("jit(step_fn)/vmap()/convert_element_type"(#loc7997))
#loc8517 = loc("jit(step_fn)/vmap()/mul"(#loc7997))
#loc8518 = loc("jit(step_fn)/vmap()/broadcast_in_dim"(#loc7998))
#loc8519 = loc("jit(step_fn)/vmap()/concatenate"(#loc7998))
#loc8520 = loc("jit(step_fn)/vmap()/slice"(#loc7999))
#loc8521 = loc("jit(step_fn)/vmap()/squeeze"(#loc7999))
#loc8522 = loc("jit(step_fn)/vmap()/slice"(#loc8000))
#loc8523 = loc("jit(step_fn)/vmap()/squeeze"(#loc8000))
#loc8524 = loc("jit(step_fn)/vmap()/mul"(#loc8001))
#loc8525 = loc("jit(step_fn)/vmap()/mul"(#loc8002))
#loc8526 = loc("jit(step_fn)/vmap()/convert_element_type"(#loc8003))
#loc8527 = loc("jit(step_fn)/vmap()/add"(#loc8003))
#loc8528 = loc("jit(step_fn)/vmap()/slice"(#loc8004))
#loc8529 = loc("jit(step_fn)/vmap()/squeeze"(#loc8004))
#loc8530 = loc("jit(step_fn)/vmap()/neg"(#loc8005))
#loc8531 = loc("jit(step_fn)/vmap()/broadcast_in_dim"(#loc8006))
#loc8532 = loc("jit(step_fn)/vmap()/concatenate"(#loc8006))
#loc8533 = loc("jit:"(#loc8086))
#loc8534 = loc("jit:"(#loc8094))
#loc8535 = loc("jit(step_fn)/vmap()/jit"(#loc7441))
#loc8536 = loc("jit(step_fn)/vmap()/jit"(#loc7464))
#loc8537 = loc("jit:"(#loc8108))
#loc8538 = loc("jit:"(#loc8109))
#loc8539 = loc("jit(step_fn)/vmap()/jit"(#loc7638))
#loc8540 = loc("jit:"(#loc8114))
#loc8541 = loc("jit:"(#loc8121))
#loc8542 = loc("jit:"(#loc8122))
#loc8543 = loc("jit(step_fn)/vmap(vmap())/slice"(#loc8220))
#loc8544 = loc("jit(step_fn)/vmap(vmap())/slice"(#loc8221))
#loc8545 = loc("jit(step_fn)/vmap(vmap())/squeeze"(#loc8221))
#loc8546 = loc("jit(step_fn)/vmap(vmap(jit(cross)))"(#loc8222))
#loc8547 = loc("jit(step_fn)/vmap(vmap())/broadcast_in_dim"(#loc8223))
#loc8548 = loc("jit(step_fn)/vmap(vmap())/mul"(#loc8223))
#loc8549 = loc("jit(step_fn)/vmap(vmap())/add"(#loc8224))
#loc8550 = loc("jit(step_fn)/vmap(vmap(jit(cross)))"(#loc8225))
#loc8551 = loc("jit(step_fn)/vmap(vmap())/mul"(#loc8226))
#loc8552 = loc("jit(step_fn)/vmap(vmap())/add"(#loc8227))
#loc8553 = loc("jit(step_fn)/vmap(vmap())/slice"(#loc8230))
#loc8554 = loc("jit(step_fn)/vmap(vmap())/slice"(#loc8231))
#loc8555 = loc("jit(step_fn)/vmap(vmap())/squeeze"(#loc8231))
#loc8556 = loc("jit(step_fn)/vmap(vmap(jit(cross)))"(#loc8232))
#loc8557 = loc("jit(step_fn)/vmap(vmap())/broadcast_in_dim"(#loc8233))
#loc8558 = loc("jit(step_fn)/vmap(vmap())/mul"(#loc8233))
#loc8559 = loc("jit(step_fn)/vmap(vmap())/sub"(#loc8234))
#loc8560 = loc("jit(step_fn)/vmap(vmap(jit(cross)))"(#loc8235))
#loc8561 = loc("jit(step_fn)/vmap(vmap())/mul"(#loc8236))
#loc8562 = loc("jit(step_fn)/vmap(vmap())/add"(#loc8237))
#loc8563 = loc("jit(step_fn)/vmap(vmap())/add"(#loc8242))
#loc8564 = loc("jit(step_fn)/vmap(vmap(jit(remainder)))"(#loc8243))
#loc8565 = loc("jit(step_fn)/vmap(vmap())/lt"(#loc8244))
#loc8566 = loc("jit(step_fn)/vmap(vmap())/add"(#loc8244))
#loc8567 = loc("jit(step_fn)/vmap(vmap())/select_n"(#loc8244))
#loc8568 = loc("jit(step_fn)/vmap(vmap())/broadcast_in_dim"(#loc8244))
#loc8569 = loc("jit(step_fn)/vmap(vmap())/concatenate"(#loc8244))
#loc8570 = loc("jit(step_fn)/vmap(vmap())/gather"(#loc8244))
#loc8571 = loc("jit(step_fn)/vmap(vmap())/squeeze"(#loc8244))
#loc8572 = loc("jit(step_fn)/vmap(vmap())/lt"(#loc8245))
#loc8573 = loc("jit(step_fn)/vmap(vmap())/add"(#loc8245))
#loc8574 = loc("jit(step_fn)/vmap(vmap())/select_n"(#loc8245))
#loc8575 = loc("jit(step_fn)/vmap(vmap())/broadcast_in_dim"(#loc8245))
#loc8576 = loc("jit(step_fn)/vmap(vmap())/concatenate"(#loc8245))
#loc8577 = loc("jit(step_fn)/vmap(vmap())/gather"(#loc8245))
#loc8578 = loc("jit(step_fn)/vmap(vmap())/squeeze"(#loc8245))
#loc8579 = loc("jit(step_fn)/vmap(vmap())/dot_general"(#loc8246))
#loc8580 = loc("jit(step_fn)/vmap(vmap())/broadcast_in_dim"(#loc8247))
#loc8581 = loc("jit(step_fn)/vmap(vmap())/sub"(#loc8247))
#loc8582 = loc("jit(step_fn)/vmap(vmap())/dot_general"(#loc8248))
#loc8583 = loc("jit(step_fn)/vmap(vmap())/broadcast_in_dim"(#loc8249))
#loc8584 = loc("jit(step_fn)/vmap(vmap())/sub"(#loc8249))
#loc8585 = loc("jit(step_fn)/vmap(vmap())/lt"(#loc8250))
#loc8586 = loc("jit(step_fn)/vmap(vmap())/add"(#loc8250))
#loc8587 = loc("jit(step_fn)/vmap(vmap())/select_n"(#loc8250))
#loc8588 = loc("jit(step_fn)/vmap(vmap())/broadcast_in_dim"(#loc8250))
#loc8589 = loc("jit(step_fn)/vmap(vmap())/gather"(#loc8250))
#loc8590 = loc("jit(step_fn)/vmap(vmap())/squeeze"(#loc8250))
#loc8591 = loc("jit(step_fn)/vmap(vmap())/le"(#loc8251))
#loc8592 = loc("jit(step_fn)/vmap(vmap())/broadcast_in_dim"(#loc8252))
#loc8593 = loc("jit(step_fn)/vmap(vmap())/and"(#loc8252))
#loc8594 = loc("jit(step_fn)/vmap(vmap())/lt"(#loc8253))
#loc8595 = loc("jit(step_fn)/vmap(vmap())/add"(#loc8253))
#loc8596 = loc("jit(step_fn)/vmap(vmap())/select_n"(#loc8253))
#loc8597 = loc("jit(step_fn)/vmap(vmap())/broadcast_in_dim"(#loc8253))
#loc8598 = loc("jit(step_fn)/vmap(vmap())/gather"(#loc8253))
#loc8599 = loc("jit(step_fn)/vmap(vmap())/squeeze"(#loc8253))
#loc8600 = loc("jit(step_fn)/vmap(vmap())/mul"(#loc8254))
#loc8601 = loc("jit(step_fn)/vmap(vmap())/lt"(#loc8255))
#loc8602 = loc("jit(step_fn)/vmap(vmap())/broadcast_in_dim"(#loc8256))
#loc8603 = loc("jit(step_fn)/vmap(vmap())/and"(#loc8256))
#loc8604 = loc("jit(step_fn)/vmap(vmap())/sub"(#loc8257))
#loc8605 = loc(callsite(#loc1505 at #loc8258))
#loc8606 = loc(callsite(#loc1507 at #loc8258))
#loc8607 = loc("jit(step_fn)/vmap(vmap())/div"(#loc8259))
#loc8608 = loc("jit(step_fn)/vmap(vmap())/sub"(#loc8260))
#loc8609 = loc("jit(step_fn)/vmap(vmap())/broadcast_in_dim"(#loc8261))
#loc8610 = loc("jit(step_fn)/vmap(vmap())/mul"(#loc8261))
#loc8611 = loc("jit(step_fn)/vmap(vmap())/add"(#loc8262))
#loc8612 = loc("jit(step_fn)/vmap(vmap())/slice"(#loc8403))
#loc8613 = loc("jit(step_fn)/vmap(vmap())/slice"(#loc8404))
#loc8614 = loc("jit(step_fn)/vmap(vmap())/squeeze"(#loc8404))
#loc8615 = loc("jit(step_fn)/vmap(vmap(jit(cross)))"(#loc8405))
#loc8616 = loc("jit(step_fn)/vmap(vmap())/broadcast_in_dim"(#loc8406))
#loc8617 = loc("jit(step_fn)/vmap(vmap())/mul"(#loc8406))
#loc8618 = loc("jit(step_fn)/vmap(vmap())/add"(#loc8407))
#loc8619 = loc("jit(step_fn)/vmap(vmap(jit(cross)))"(#loc8408))
#loc8620 = loc("jit(step_fn)/vmap(vmap())/mul"(#loc8409))
#loc8621 = loc("jit(step_fn)/vmap(vmap())/add"(#loc8410))
#loc8622 = loc("jit(step_fn)/vmap()/eq"(#loc8443))
#loc8623 = loc("jit(step_fn)/vmap()/broadcast_in_dim"(#loc8444))
#loc8624 = loc("jit(step_fn)/vmap()/select_n"(#loc8444))
#loc8625 = loc("jit(step_fn)/vmap()/eq"(#loc8449))
#loc8626 = loc("jit(step_fn)/vmap()/broadcast_in_dim"(#loc8450))
#loc8627 = loc("jit(step_fn)/vmap()/select_n"(#loc8450))
#loc8628 = loc("jit(step_fn)/vmap(vmap())/jit"(#loc8222))
#loc8629 = loc("jit(step_fn)/vmap(vmap())/jit"(#loc8243))
#loc8630 = loc("jit:"(#loc8535))
#loc8631 = loc("jit:"(#loc8536))
#loc8632 = loc("jit:"(#loc8539))
#loc8633 = loc("jit(step_fn)/vmap(vmap())/eq"(#loc8605))
#loc8634 = loc("jit(step_fn)/vmap(vmap())/broadcast_in_dim"(#loc8606))
#loc8635 = loc("jit(step_fn)/vmap(vmap())/select_n"(#loc8606))
#loc8636 = loc("jit:"(#loc8628))
#loc8637 = loc("jit:"(#loc8629))
