#loc = loc(unknown)
#loc1 = loc("key")
#loc4 = loc("/Users/noahfarr/reinforcement-learning/src/algorithms/algorithms/recurrent_ppo.py":298:50 to :74)
#loc33 = loc("/Users/noahfarr/reinforcement-learning/.venv/lib/python3.13/site-packages/flax/linen/linear.py":263:13 to 268:5)
#loc34 = loc("/Users/noahfarr/noahfarr.github.io/tools/whlo/export_ppo_wordle.py":121:24 to :77)
#loc35 = loc("/Users/noahfarr/reinforcement-learning/src/algorithms/algorithms/recurrent_ppo.py":307:17 to 314:9)
#loc98 = loc("/Users/noahfarr/reinforcement-learning/src/environments/environments/wrappers/vectorize.py":31:15 to :51)
#loc99 = loc("/Users/noahfarr/reinforcement-learning/src/algorithms/algorithms/recurrent_ppo.py":85:38 to 87:9)
#loc105 = loc("vmap()")
#loc127 = loc("erf")
#loc132 = loc("reduce_window_sum")
#loc136 = loc("RecurrentPPO.init"(#loc4))
#loc165 = loc("Dense.__call__"(#loc33))
#loc166 = loc("MaskedActorCriticNetwork.__call__"(#loc34))
#loc167 = loc("RecurrentPPO.init"(#loc35))
#loc221 = loc("Vectorize.step"(#loc98))
#loc222 = loc("RecurrentPPO.rollout"(#loc99))
#loc226 = loc("reduce_window_sum:"(#loc132))
#loc229 = loc(callsite(#loc166 at #loc167))
#loc239 = loc(callsite(#loc221 at #loc222))
#loc247 = loc(callsite(#loc165 at #loc229))
module @jit_init attributes {jax.uses_shape_polymorphism = false, mhlo.num_partitions = 1 : i32, mhlo.num_replicas = 1 : i32} {
  func.func public @main(%arg0: tensor<2xui32> loc("key")) -> (tensor<i32> {jax.result_info = "result.step"}, tensor<64x16xi1> {jax.result_info = "result.timestep.obs['action_mask']"}, tensor<64x15xf32> {jax.result_info = "result.timestep.obs['observation']"}, tensor<64xi32> {jax.result_info = "result.timestep.action"}, tensor<64xf32> {jax.result_info = "result.timestep.reward"}, tensor<64xi1> {jax.result_info = "result.timestep.terminated"}, tensor<64xi1> {jax.result_info = "result.timestep.truncated"}, tensor<64xf32> {jax.result_info = "result.timestep.info['guess_count']"}, tensor<64xf32> {jax.result_info = "result.timestep.info['illegal_guesses']"}, tensor<64xf32> {jax.result_info = "result.timestep.info['matched_secret']"}, tensor<64x5xi32> {jax.result_info = "result.environment_state.secret_answer"}, tensor<64x5xi32> {jax.result_info = "result.environment_state.guess_feedback"}, tensor<64xi1> {jax.result_info = "result.environment_state.guess_revealed"}, tensor<64xi32> {jax.result_info = "result.environment_state.guess_count"}, tensor<64xi1> {jax.result_info = "result.environment_state.matched_secret"}, tensor<64x16xi32> {jax.result_info = "result.carry[1].done"}, tensor<64x16x2x16xf32> {jax.result_info = "result.carry[1].key"}, tensor<64x16x2x16xf32> {jax.result_info = "result.carry[1].value"}, tensor<32x16xf32> {jax.result_info = "result.params['params']['actor']['kernel']"}, tensor<1xf32> {jax.result_info = "result.params['params']['critic']['bias']"}, tensor<32x1xf32> {jax.result_info = "result.params['params']['critic']['kernel']"}, tensor<32xf32> {jax.result_info = "result.params['params']['obs']['bias']"}, tensor<15x32xf32> {jax.result_info = "result.params['params']['obs']['kernel']"}, tensor<32xf32> {jax.result_info = "result.params['params']['torso']['blocks_0']['Dense_0']['bias']"}, tensor<48x32xf32> {jax.result_info = "result.params['params']['torso']['blocks_0']['Dense_0']['kernel']"}, tensor<2x16xf32> {jax.result_info = "result.params['params']['torso']['blocks_1']['key']['bias']"}, tensor<32x2x16xf32> {jax.result_info = "result.params['params']['torso']['blocks_1']['key']['kernel']"}, tensor<32xf32> {jax.result_info = "result.params['params']['torso']['blocks_1']['output_projection']['bias']"}, tensor<2x16x32xf32> {jax.result_info = "result.params['params']['torso']['blocks_1']['output_projection']['kernel']"}, tensor<2x16xf32> {jax.result_info = "result.params['params']['torso']['blocks_1']['query']['bias']"}, tensor<32x2x16xf32> {jax.result_info = "result.params['params']['torso']['blocks_1']['query']['kernel']"}, tensor<2x16xf32> {jax.result_info = "result.params['params']['torso']['blocks_1']['value']['bias']"}, tensor<32x2x16xf32> {jax.result_info = "result.params['params']['torso']['blocks_1']['value']['kernel']"}, tensor<i32> {jax.result_info = "result.optimizer_state[1][0].count"}, tensor<32x16xf32> {jax.result_info = "result.optimizer_state[1][0].mu['params']['actor']['kernel']"}, tensor<1xf32> {jax.result_info = "result.optimizer_state[1][0].mu['params']['critic']['bias']"}, tensor<32x1xf32> {jax.result_info = "result.optimizer_state[1][0].mu['params']['critic']['kernel']"}, tensor<32xf32> {jax.result_info = "result.optimizer_state[1][0].mu['params']['obs']['bias']"}, tensor<15x32xf32> {jax.result_info = "result.optimizer_state[1][0].mu['params']['obs']['kernel']"}, tensor<32xf32> {jax.result_info = "result.optimizer_state[1][0].mu['params']['torso']['blocks_0']['Dense_0']['bias']"}, tensor<48x32xf32> {jax.result_info = "result.optimizer_state[1][0].mu['params']['torso']['blocks_0']['Dense_0']['kernel']"}, tensor<2x16xf32> {jax.result_info = "result.optimizer_state[1][0].mu['params']['torso']['blocks_1']['key']['bias']"}, tensor<32x2x16xf32> {jax.result_info = "result.optimizer_state[1][0].mu['params']['torso']['blocks_1']['key']['kernel']"}, tensor<32xf32> {jax.result_info = "result.optimizer_state[1][0].mu['params']['torso']['blocks_1']['output_projection']['bias']"}, tensor<2x16x32xf32> {jax.result_info = "result.optimizer_state[1][0].mu['params']['torso']['blocks_1']['output_projection']['kernel']"}, tensor<2x16xf32> {jax.result_info = "result.optimizer_state[1][0].mu['params']['torso']['blocks_1']['query']['bias']"}, tensor<32x2x16xf32> {jax.result_info = "result.optimizer_state[1][0].mu['params']['torso']['blocks_1']['query']['kernel']"}, tensor<2x16xf32> {jax.result_info = "result.optimizer_state[1][0].mu['params']['torso']['blocks_1']['value']['bias']"}, tensor<32x2x16xf32> {jax.result_info = "result.optimizer_state[1][0].mu['params']['torso']['blocks_1']['value']['kernel']"}, tensor<32x16xf32> {jax.result_info = "result.optimizer_state[1][0].nu['params']['actor']['kernel']"}, tensor<1xf32> {jax.result_info = "result.optimizer_state[1][0].nu['params']['critic']['bias']"}, tensor<32x1xf32> {jax.result_info = "result.optimizer_state[1][0].nu['params']['critic']['kernel']"}, tensor<32xf32> {jax.result_info = "result.optimizer_state[1][0].nu['params']['obs']['bias']"}, tensor<15x32xf32> {jax.result_info = "result.optimizer_state[1][0].nu['params']['obs']['kernel']"}, tensor<32xf32> {jax.result_info = "result.optimizer_state[1][0].nu['params']['torso']['blocks_0']['Dense_0']['bias']"}, tensor<48x32xf32> {jax.result_info = "result.optimizer_state[1][0].nu['params']['torso']['blocks_0']['Dense_0']['kernel']"}, tensor<2x16xf32> {jax.result_info = "result.optimizer_state[1][0].nu['params']['torso']['blocks_1']['key']['bias']"}, tensor<32x2x16xf32> {jax.result_info = "result.optimizer_state[1][0].nu['params']['torso']['blocks_1']['key']['kernel']"}, tensor<32xf32> {jax.result_info = "result.optimizer_state[1][0].nu['params']['torso']['blocks_1']['output_projection']['bias']"}, tensor<2x16x32xf32> {jax.result_info = "result.optimizer_state[1][0].nu['params']['torso']['blocks_1']['output_projection']['kernel']"}, tensor<2x16xf32> {jax.result_info = "result.optimizer_state[1][0].nu['params']['torso']['blocks_1']['query']['bias']"}, tensor<32x2x16xf32> {jax.result_info = "result.optimizer_state[1][0].nu['params']['torso']['blocks_1']['query']['kernel']"}, tensor<2x16xf32> {jax.result_info = "result.optimizer_state[1][0].nu['params']['torso']['blocks_1']['value']['bias']"}, tensor<32x2x16xf32> {jax.result_info = "result.optimizer_state[1][0].nu['params']['torso']['blocks_1']['value']['kernel']"}) {
    %c = stablehlo.constant dense<3831938679> : tensor<ui32> loc(#loc240)
    %c_0 = stablehlo.constant dense<3491981184> : tensor<ui32> loc(#loc240)
    %cst = stablehlo.constant dense<-3.40282347E+38> : tensor<f32> loc(#loc240)
    %c_1 = stablehlo.constant dense<2876566538> : tensor<ui32> loc(#loc240)
    %c_2 = stablehlo.constant dense<1084336556> : tensor<ui32> loc(#loc240)
    %c_3 = stablehlo.constant dense<1674886045> : tensor<ui32> loc(#loc240)
    %cst_4 = stablehlo.constant dense<0xFF800000> : tensor<f32> loc(#loc)
    %cst_5 = stablehlo.constant dense<-2.38197633E+38> : tensor<f32> loc(#loc240)
    %cst_6 = stablehlo.constant dense<2.500000e-01> : tensor<f32> loc(#loc240)
    %c_7 = stablehlo.constant dense<765341026> : tensor<ui32> loc(#loc240)
    %c_8 = stablehlo.constant dense<647299094> : tensor<ui32> loc(#loc240)
    %c_9 = stablehlo.constant dense<3894293043> : tensor<ui32> loc(#loc240)
    %c_10 = stablehlo.constant dense<440882211> : tensor<ui32> loc(#loc240)
    %c_11 = stablehlo.constant dense<1902230596> : tensor<ui32> loc(#loc240)
    %cst_12 = stablehlo.constant dense<3.125000e-02> : tensor<f32> loc(#loc)
    %c_13 = stablehlo.constant dense<847609177> : tensor<ui32> loc(#loc240)
    %c_14 = stablehlo.constant dense<3178254832> : tensor<ui32> loc(#loc240)
    %cst_15 = stablehlo.constant dense<0.020833334> : tensor<f32> loc(#loc240)
    %c_16 = stablehlo.constant dense<1157806390> : tensor<ui32> loc(#loc240)
    %c_17 = stablehlo.constant dense<3085490160> : tensor<ui32> loc(#loc240)
    %c_18 = stablehlo.constant dense<2> : tensor<i32> loc(#loc)
    %c_19 = stablehlo.constant dense<-2> : tensor<i32> loc(#loc)
    %cst_20 = stablehlo.constant dense<0.879625678> : tensor<f32> loc(#loc)
    %cst_21 = stablehlo.constant dense<0.0666666701> : tensor<f32> loc(#loc240)
    %c_22 = stablehlo.constant dense<2075703144> : tensor<ui32> loc(#loc240)
    %c_23 = stablehlo.constant dense<1> : tensor<i32> loc(#loc240)
    %c_24 = stablehlo.constant dense<true> : tensor<i1> loc(#loc)
    %cst_25 = stablehlo.constant dense<0.000000e+00> : tensor<f32> loc(#loc)
    %c_26 = stablehlo.constant dense<false> : tensor<i1> loc(#loc)
    %c_27 = stablehlo.constant dense<5> : tensor<i32> loc(#loc240)
    %c_28 = stablehlo.constant dense<16> : tensor<i32> loc(#loc)
    %c_29 = stablehlo.constant dense<0> : tensor<i32> loc(#loc)
    %c_30 = stablehlo.constant dense<[[0, 20, 3, 8, 14], [1, 17, 8, 2, 10], [2, 7, 0, 8, 17], [2, 11, 14, 20, 3], [2, 17, 0, 13, 4], [5, 11, 8, 13, 19], [5, 17, 14, 18, 19], [6, 11, 0, 25, 4], [6, 17, 0, 15, 4], [7, 14, 20, 18, 4], [11, 4, 12, 14, 13], [12, 14, 20, 13, 3], [15, 11, 0, 13, 19], [18, 11, 0, 19, 4], [18, 15, 0, 3, 4], [18, 19, 14, 17, 12]]> : tensor<16x5xi32> loc(#loc240)
    %0 = call @_threefry_split(%arg0) : (tensor<2xui32>) -> tensor<3x2xui32> loc(#loc300)
    %1 = stablehlo.slice %0 [0:1, 0:2] : (tensor<3x2xui32>) -> tensor<1x2xui32> loc(#loc264)
    %2 = stablehlo.reshape %1 : (tensor<1x2xui32>) -> tensor<2xui32> loc(#loc265)
    %3 = stablehlo.slice %0 [1:2, 0:2] : (tensor<3x2xui32>) -> tensor<1x2xui32> loc(#loc264)
    %4 = stablehlo.reshape %3 : (tensor<1x2xui32>) -> tensor<2xui32> loc(#loc265)
    %5 = call @_threefry_split_0(%2) : (tensor<2xui32>) -> tensor<64x2xui32> loc(#loc333)
    %6 = stablehlo.broadcast_in_dim %5, dims = [0, 2] : (tensor<64x2xui32>) -> tensor<64x1x2xui32> loc(#loc302)
    %7 = stablehlo.reshape %6 : (tensor<64x1x2xui32>) -> tensor<64x2xui32> loc(#loc303)
    %8 = call @_randint(%7, %c_29, %c_28) : (tensor<64x2xui32>, tensor<i32>, tensor<i32>) -> tensor<64xi32> loc(#loc400)
    %9 = stablehlo.broadcast_in_dim %c_29, dims = [] : (tensor<i32>) -> tensor<64xi32> loc(#loc401)
    %10 = stablehlo.compare LT, %8, %9, SIGNED : (tensor<64xi32>, tensor<64xi32>) -> tensor<64xi1> loc(#loc401)
    %11 = stablehlo.broadcast_in_dim %c_28, dims = [] : (tensor<i32>) -> tensor<64xi32> loc(#loc402)
    %12 = stablehlo.add %8, %11 : tensor<64xi32> loc(#loc402)
    %13 = stablehlo.select %10, %12, %8 : tensor<64xi1>, tensor<64xi32> loc(#loc403)
    %14 = stablehlo.compare LT, %c_29, %c_29, SIGNED : (tensor<i32>, tensor<i32>) -> tensor<i1> loc(#loc401)
    %15 = stablehlo.add %c_29, %c_27 : tensor<i32> loc(#loc402)
    %16 = stablehlo.select %14, %15, %c_29 : tensor<i1>, tensor<i32> loc(#loc403)
    %17 = stablehlo.broadcast_in_dim %13, dims = [0] : (tensor<64xi32>) -> tensor<64x1xi32> loc(#loc404)
    %18 = stablehlo.broadcast_in_dim %16, dims = [] : (tensor<i32>) -> tensor<64x1xi32> loc(#loc404)
    %19 = stablehlo.concatenate %17, %18, dim = 1 : (tensor<64x1xi32>, tensor<64x1xi32>) -> tensor<64x2xi32> loc(#loc405)
    %20 = "stablehlo.gather"(%c_30, %19) <{dimension_numbers = #stablehlo.gather<offset_dims = [1, 2], start_index_map = [0, 1], index_vector_dim = 1>, slice_sizes = array<i64: 1, 5>}> : (tensor<16x5xi32>, tensor<64x2xi32>) -> tensor<64x1x5xi32> loc(#loc406)
    %21 = stablehlo.reshape %20 : (tensor<64x1x5xi32>) -> tensor<64x5xi32> loc(#loc407)
    %22 = stablehlo.broadcast_in_dim %c_29, dims = [] : (tensor<i32>) -> tensor<5xi32> loc(#loc408)
    %23 = call @_one_hot(%22) : (tensor<5xi32>) -> tensor<5x3xf32> loc(#loc477)
    %24 = stablehlo.reshape %23 : (tensor<5x3xf32>) -> tensor<15xf32> loc(#loc478)
    %25 = call @_where(%c_26, %24, %cst_25) : (tensor<i1>, tensor<15xf32>, tensor<f32>) -> tensor<15xf32> loc(#loc479)
    %26 = stablehlo.broadcast_in_dim %c_24, dims = [] : (tensor<i1>) -> tensor<16xi1> loc(#loc412)
    %27 = stablehlo.broadcast_in_dim %22, dims = [1] : (tensor<5xi32>) -> tensor<64x5xi32> loc(#loc305)
    %28 = stablehlo.broadcast_in_dim %c_26, dims = [] : (tensor<i1>) -> tensor<64xi1> loc(#loc305)
    %29 = stablehlo.broadcast_in_dim %c_29, dims = [] : (tensor<i32>) -> tensor<64xi32> loc(#loc305)
    %30 = stablehlo.broadcast_in_dim %c_26, dims = [] : (tensor<i1>) -> tensor<64xi1> loc(#loc305)
    %31 = stablehlo.broadcast_in_dim %26, dims = [1] : (tensor<16xi1>) -> tensor<64x16xi1> loc(#loc305)
    %32 = stablehlo.broadcast_in_dim %25, dims = [1] : (tensor<15xf32>) -> tensor<64x15xf32> loc(#loc305)
    %33 = stablehlo.broadcast_in_dim %c_29, dims = [] : (tensor<i32>) -> tensor<64xi32> loc(#loc305)
    %34 = stablehlo.broadcast_in_dim %cst_25, dims = [] : (tensor<f32>) -> tensor<64xf32> loc(#loc305)
    %35 = stablehlo.broadcast_in_dim %c_24, dims = [] : (tensor<i1>) -> tensor<64xi1> loc(#loc305)
    %36 = stablehlo.broadcast_in_dim %c_26, dims = [] : (tensor<i1>) -> tensor<64xi1> loc(#loc305)
    %37 = stablehlo.broadcast_in_dim %cst_25, dims = [] : (tensor<f32>) -> tensor<64xf32> loc(#loc305)
    %38 = stablehlo.broadcast_in_dim %cst_25, dims = [] : (tensor<f32>) -> tensor<64xf32> loc(#loc305)
    %39 = stablehlo.broadcast_in_dim %cst_25, dims = [] : (tensor<f32>) -> tensor<64xf32> loc(#loc305)
    %40 = stablehlo.broadcast_in_dim %c_23, dims = [] : (tensor<i32>) -> tensor<64x16xi32> loc(#loc413)
    %41 = stablehlo.broadcast_in_dim %cst_25, dims = [] : (tensor<f32>) -> tensor<64x16x2x16xf32> loc(#loc414)
    %42 = stablehlo.broadcast_in_dim %cst_25, dims = [] : (tensor<f32>) -> tensor<64x16x2x16xf32> loc(#loc415)
    %43 = stablehlo.broadcast_in_dim %31, dims = [0, 2] : (tensor<64x16xi1>) -> tensor<64x1x16xi1> loc(#loc337)
    %44 = stablehlo.broadcast_in_dim %32, dims = [0, 2] : (tensor<64x15xf32>) -> tensor<64x1x15xf32> loc(#loc337)
    %45 = stablehlo.broadcast_in_dim %33, dims = [0] : (tensor<64xi32>) -> tensor<64x1xi32> loc(#loc337)
    %46 = stablehlo.broadcast_in_dim %35, dims = [0] : (tensor<64xi1>) -> tensor<64x1xi1> loc(#loc337)
    %47 = stablehlo.broadcast_in_dim %36, dims = [0] : (tensor<64xi1>) -> tensor<64x1xi1> loc(#loc337)
    %48 = stablehlo.or %46, %47 : tensor<64x1xi1> loc(#loc308)
    %49 = call @_threefry_fold_in(%4, %c_22) : (tensor<2xui32>, tensor<ui32>) -> tensor<2xui32> loc(#loc379)
    %50 = stablehlo.sqrt %cst_21 : tensor<f32> loc(#loc339)
    %51 = stablehlo.divide %50, %cst_20 : tensor<f32> loc(#loc340)
    %52 = call @_truncated_normal(%49, %c_19, %c_18) : (tensor<2xui32>, tensor<i32>, tensor<i32>) -> tensor<15x32xf32> loc(#loc341)
    %53 = stablehlo.broadcast_in_dim %51, dims = [] : (tensor<f32>) -> tensor<15x32xf32> loc(#loc342)
    %54 = stablehlo.multiply %52, %53 : tensor<15x32xf32> loc(#loc342)
    %55 = call @_threefry_fold_in(%4, %c_17) : (tensor<2xui32>, tensor<ui32>) -> tensor<2xui32> loc(#loc380)
    %56 = stablehlo.broadcast_in_dim %cst_25, dims = [] : (tensor<f32>) -> tensor<32xf32> loc(#loc344)
    %57 = stablehlo.dot_general %44, %54, contracting_dims = [2] x [0] : (tensor<64x1x15xf32>, tensor<15x32xf32>) -> tensor<64x1x32xf32> loc(#loc345)
    %58 = stablehlo.reshape %56 : (tensor<32xf32>) -> tensor<1x1x32xf32> loc(#loc346)
    %59 = stablehlo.broadcast_in_dim %58, dims = [0, 1, 2] : (tensor<1x1x32xf32>) -> tensor<64x1x32xf32> loc(#loc347)
    %60 = stablehlo.add %57, %59 : tensor<64x1x32xf32> loc(#loc347)
    %61 = call @relu(%60) : (tensor<64x1x32xf32>) -> tensor<64x1x32xf32> loc(#loc314)
    %62 = call @_one_hot_14(%45) : (tensor<64x1xi32>) -> tensor<64x1x16xf32> loc(#loc315)
    %63 = stablehlo.concatenate %61, %62, dim = 2 : (tensor<64x1x32xf32>, tensor<64x1x16xf32>) -> tensor<64x1x48xf32> loc(#loc316)
    %64 = call @_threefry_fold_in(%4, %c_16) : (tensor<2xui32>, tensor<ui32>) -> tensor<2xui32> loc(#loc550)
    %65 = stablehlo.sqrt %cst_15 : tensor<f32> loc(#loc481)
    %66 = stablehlo.divide %65, %cst_20 : tensor<f32> loc(#loc482)
    %67 = call @_truncated_normal_15(%64, %c_19, %c_18) : (tensor<2xui32>, tensor<i32>, tensor<i32>) -> tensor<48x32xf32> loc(#loc483)
    %68 = stablehlo.broadcast_in_dim %66, dims = [] : (tensor<f32>) -> tensor<48x32xf32> loc(#loc484)
    %69 = stablehlo.multiply %67, %68 : tensor<48x32xf32> loc(#loc484)
    %70 = call @_threefry_fold_in(%4, %c_14) : (tensor<2xui32>, tensor<ui32>) -> tensor<2xui32> loc(#loc551)
    %71 = stablehlo.broadcast_in_dim %cst_25, dims = [] : (tensor<f32>) -> tensor<32xf32> loc(#loc486)
    %72 = stablehlo.dot_general %63, %69, contracting_dims = [2] x [0] : (tensor<64x1x48xf32>, tensor<48x32xf32>) -> tensor<64x1x32xf32> loc(#loc487)
    %73 = stablehlo.reshape %71 : (tensor<32xf32>) -> tensor<1x1x32xf32> loc(#loc488)
    %74 = stablehlo.broadcast_in_dim %73, dims = [0, 1, 2] : (tensor<1x1x32xf32>) -> tensor<64x1x32xf32> loc(#loc489)
    %75 = stablehlo.add %72, %74 : tensor<64x1x32xf32> loc(#loc489)
    %76 = call @relu(%75) : (tensor<64x1x32xf32>) -> tensor<64x1x32xf32> loc(#loc421)
    %77 = call @_threefry_fold_in(%4, %c_13) : (tensor<2xui32>, tensor<ui32>) -> tensor<2xui32> loc(#loc552)
    %78 = stablehlo.sqrt %cst_12 : tensor<f32> loc(#loc553)
    %79 = stablehlo.divide %78, %cst_20 : tensor<f32> loc(#loc554)
    %80 = call @_truncated_normal_20(%77, %c_19, %c_18) : (tensor<2xui32>, tensor<i32>, tensor<i32>) -> tensor<32x32xf32> loc(#loc555)
    %81 = stablehlo.broadcast_in_dim %79, dims = [] : (tensor<f32>) -> tensor<32x32xf32> loc(#loc556)
    %82 = stablehlo.multiply %80, %81 : tensor<32x32xf32> loc(#loc556)
    %83 = stablehlo.reshape %82 : (tensor<32x32xf32>) -> tensor<32x2x16xf32> loc(#loc557)
    %84 = call @_threefry_fold_in(%4, %c_11) : (tensor<2xui32>, tensor<ui32>) -> tensor<2xui32> loc(#loc558)
    %85 = stablehlo.broadcast_in_dim %cst_25, dims = [] : (tensor<f32>) -> tensor<32xf32> loc(#loc559)
    %86 = stablehlo.reshape %85 : (tensor<32xf32>) -> tensor<2x16xf32> loc(#loc560)
    %87 = stablehlo.dot_general %76, %83, contracting_dims = [2] x [0] : (tensor<64x1x32xf32>, tensor<32x2x16xf32>) -> tensor<64x1x2x16xf32> loc(#loc496)
    %88 = stablehlo.reshape %86 : (tensor<2x16xf32>) -> tensor<1x1x2x16xf32> loc(#loc497)
    %89 = stablehlo.broadcast_in_dim %88, dims = [0, 1, 2, 3] : (tensor<1x1x2x16xf32>) -> tensor<64x1x2x16xf32> loc(#loc498)
    %90 = stablehlo.add %87, %89 : tensor<64x1x2x16xf32> loc(#loc498)
    %91 = call @_threefry_fold_in(%4, %c_10) : (tensor<2xui32>, tensor<ui32>) -> tensor<2xui32> loc(#loc561)
    %92 = stablehlo.sqrt %cst_12 : tensor<f32> loc(#loc562)
    %93 = stablehlo.divide %92, %cst_20 : tensor<f32> loc(#loc563)
    %94 = call @_truncated_normal_20(%91, %c_19, %c_18) : (tensor<2xui32>, tensor<i32>, tensor<i32>) -> tensor<32x32xf32> loc(#loc564)
    %95 = stablehlo.broadcast_in_dim %93, dims = [] : (tensor<f32>) -> tensor<32x32xf32> loc(#loc565)
    %96 = stablehlo.multiply %94, %95 : tensor<32x32xf32> loc(#loc565)
    %97 = stablehlo.reshape %96 : (tensor<32x32xf32>) -> tensor<32x2x16xf32> loc(#loc566)
    %98 = call @_threefry_fold_in(%4, %c_9) : (tensor<2xui32>, tensor<ui32>) -> tensor<2xui32> loc(#loc567)
    %99 = stablehlo.broadcast_in_dim %cst_25, dims = [] : (tensor<f32>) -> tensor<32xf32> loc(#loc568)
    %100 = stablehlo.reshape %99 : (tensor<32xf32>) -> tensor<2x16xf32> loc(#loc569)
    %101 = stablehlo.dot_general %76, %97, contracting_dims = [2] x [0] : (tensor<64x1x32xf32>, tensor<32x2x16xf32>) -> tensor<64x1x2x16xf32> loc(#loc505)
    %102 = stablehlo.reshape %100 : (tensor<2x16xf32>) -> tensor<1x1x2x16xf32> loc(#loc506)
    %103 = stablehlo.broadcast_in_dim %102, dims = [0, 1, 2, 3] : (tensor<1x1x2x16xf32>) -> tensor<64x1x2x16xf32> loc(#loc507)
    %104 = stablehlo.add %101, %103 : tensor<64x1x2x16xf32> loc(#loc507)
    %105 = stablehlo.concatenate %41, %104, dim = 1 : (tensor<64x16x2x16xf32>, tensor<64x1x2x16xf32>) -> tensor<64x17x2x16xf32> loc(#loc432)
    %106 = stablehlo.slice %105 [0:64, 1:17, 0:2, 0:16] : (tensor<64x17x2x16xf32>) -> tensor<64x16x2x16xf32> loc(#loc433)
    %107 = call @_threefry_fold_in(%4, %c_8) : (tensor<2xui32>, tensor<ui32>) -> tensor<2xui32> loc(#loc570)
    %108 = stablehlo.sqrt %cst_12 : tensor<f32> loc(#loc571)
    %109 = stablehlo.divide %108, %cst_20 : tensor<f32> loc(#loc572)
    %110 = call @_truncated_normal_20(%107, %c_19, %c_18) : (tensor<2xui32>, tensor<i32>, tensor<i32>) -> tensor<32x32xf32> loc(#loc573)
    %111 = stablehlo.broadcast_in_dim %109, dims = [] : (tensor<f32>) -> tensor<32x32xf32> loc(#loc574)
    %112 = stablehlo.multiply %110, %111 : tensor<32x32xf32> loc(#loc574)
    %113 = stablehlo.reshape %112 : (tensor<32x32xf32>) -> tensor<32x2x16xf32> loc(#loc575)
    %114 = call @_threefry_fold_in(%4, %c_7) : (tensor<2xui32>, tensor<ui32>) -> tensor<2xui32> loc(#loc576)
    %115 = stablehlo.broadcast_in_dim %cst_25, dims = [] : (tensor<f32>) -> tensor<32xf32> loc(#loc577)
    %116 = stablehlo.reshape %115 : (tensor<32xf32>) -> tensor<2x16xf32> loc(#loc578)
    %117 = stablehlo.dot_general %76, %113, contracting_dims = [2] x [0] : (tensor<64x1x32xf32>, tensor<32x2x16xf32>) -> tensor<64x1x2x16xf32> loc(#loc514)
    %118 = stablehlo.reshape %116 : (tensor<2x16xf32>) -> tensor<1x1x2x16xf32> loc(#loc515)
    %119 = stablehlo.broadcast_in_dim %118, dims = [0, 1, 2, 3] : (tensor<1x1x2x16xf32>) -> tensor<64x1x2x16xf32> loc(#loc516)
    %120 = stablehlo.add %117, %119 : tensor<64x1x2x16xf32> loc(#loc516)
    %121 = stablehlo.concatenate %42, %120, dim = 1 : (tensor<64x16x2x16xf32>, tensor<64x1x2x16xf32>) -> tensor<64x17x2x16xf32> loc(#loc439)
    %122 = stablehlo.slice %121 [0:64, 1:17, 0:2, 0:16] : (tensor<64x17x2x16xf32>) -> tensor<64x16x2x16xf32> loc(#loc440)
    %123 = stablehlo.convert %48 : (tensor<64x1xi1>) -> tensor<64x1xi32> loc(#loc517)
    %124 = stablehlo.concatenate %40, %123, dim = 1 : (tensor<64x16xi32>, tensor<64x1xi32>) -> tensor<64x17xi32> loc(#loc518)
    %125 = call @cumsum(%124) : (tensor<64x17xi32>) -> tensor<64x17xi32> loc(#loc519)
    %126 = stablehlo.slice %125 [0:64, 16:17] : (tensor<64x17xi32>) -> tensor<64x1xi32> loc(#loc520)
    %127 = stablehlo.broadcast_in_dim %126, dims = [0, 1] : (tensor<64x1xi32>) -> tensor<64x1x1xi32> loc(#loc521)
    %128 = stablehlo.slice %125 [0:64, 1:17] : (tensor<64x17xi32>) -> tensor<64x16xi32> loc(#loc522)
    %129 = stablehlo.broadcast_in_dim %128, dims = [0, 2] : (tensor<64x16xi32>) -> tensor<64x1x16xi32> loc(#loc523)
    %130 = stablehlo.broadcast_in_dim %127, dims = [0, 1, 2] : (tensor<64x1x1xi32>) -> tensor<64x1x16xi32> loc(#loc524)
    %131 = stablehlo.compare EQ, %130, %129, SIGNED : (tensor<64x1x16xi32>, tensor<64x1x16xi32>) -> tensor<64x1x16xi1> loc(#loc524)
    %132 = stablehlo.iota dim = 0 : tensor<17xi32> loc(#loc525)
    %133 = stablehlo.slice %132 [16:17] : (tensor<17xi32>) -> tensor<1xi32> loc(#loc526)
    %134 = stablehlo.broadcast_in_dim %133, dims = [0] : (tensor<1xi32>) -> tensor<1x1xi32> loc(#loc527)
    %135 = stablehlo.slice %132 [1:17] : (tensor<17xi32>) -> tensor<16xi32> loc(#loc528)
    %136 = stablehlo.broadcast_in_dim %135, dims = [1] : (tensor<16xi32>) -> tensor<1x16xi32> loc(#loc529)
    %137 = stablehlo.broadcast_in_dim %134, dims = [0, 1] : (tensor<1x1xi32>) -> tensor<1x16xi32> loc(#loc530)
    %138 = stablehlo.compare GE, %137, %136, SIGNED : (tensor<1x16xi32>, tensor<1x16xi32>) -> tensor<1x16xi1> loc(#loc530)
    %139 = stablehlo.broadcast_in_dim %138, dims = [1, 2] : (tensor<1x16xi1>) -> tensor<1x1x16xi1> loc(#loc531)
    %140 = stablehlo.broadcast_in_dim %139, dims = [0, 1, 2] : (tensor<1x1x16xi1>) -> tensor<64x1x16xi1> loc(#loc532)
    %141 = stablehlo.and %131, %140 : tensor<64x1x16xi1> loc(#loc532)
    %142 = stablehlo.broadcast_in_dim %141, dims = [0, 2, 3] : (tensor<64x1x16xi1>) -> tensor<64x1x1x16xi1> loc(#loc533)
    %143 = stablehlo.reshape %90 : (tensor<64x1x2x16xf32>) -> tensor<64x1x2x1x16xf32> loc(#loc452)
    %144 = stablehlo.broadcast_in_dim %142, dims = [0, 1, 3, 4] : (tensor<64x1x1x16xi1>) -> tensor<64x1x1x1x16xi1> loc(#loc453)
    %145 = stablehlo.dot_general %143, %106, batching_dims = [0, 2] x [0, 2], contracting_dims = [4] x [3] : (tensor<64x1x2x1x16xf32>, tensor<64x16x2x16xf32>) -> tensor<64x2x1x1x16xf32> loc(#loc454)
    %146 = stablehlo.broadcast_in_dim %cst_6, dims = [] : (tensor<f32>) -> tensor<64x2x1x1x16xf32> loc(#loc455)
    %147 = stablehlo.multiply %145, %146 : tensor<64x2x1x1x16xf32> loc(#loc455)
    %148 = stablehlo.broadcast_in_dim %c_24, dims = [] : (tensor<i1>) -> tensor<64x2x1x16xi1> loc(#loc456)
    %149 = stablehlo.broadcast_in_dim %148, dims = [1, 2, 3, 4] : (tensor<64x2x1x16xi1>) -> tensor<1x64x2x1x16xi1> loc(#loc456)
    %150 = stablehlo.transpose %144, dims = [2, 0, 1, 3, 4] : (tensor<64x1x1x1x16xi1>) -> tensor<1x64x1x1x16xi1> loc(#loc457)
    %151 = stablehlo.broadcast_in_dim %150, dims = [0, 1, 2, 3, 4] : (tensor<1x64x1x1x16xi1>) -> tensor<1x64x2x1x16xi1> loc(#loc458)
    %152 = stablehlo.and %149, %151 : tensor<1x64x2x1x16xi1> loc(#loc458)
    %153 = call @_where_26(%152, %147, %cst_5) : (tensor<1x64x2x1x16xi1>, tensor<64x2x1x1x16xf32>, tensor<f32>) -> tensor<1x64x2x1x16xf32> loc(#loc459)
    %154 = stablehlo.reduce(%153 init: %cst_4) applies stablehlo.maximum across dimensions = [4] : (tensor<1x64x2x1x16xf32>, tensor<f32>) -> tensor<1x64x2x1xf32> loc(#loc460)
    %155 = stablehlo.broadcast_in_dim %cst_4, dims = [] : (tensor<f32>) -> tensor<1x64x2x1xf32> loc(#loc461)
    %156 = stablehlo.maximum %155, %154 : tensor<1x64x2x1xf32> loc(#loc461)
    %157 = stablehlo.broadcast_in_dim %156, dims = [0, 1, 2, 3] : (tensor<1x64x2x1xf32>) -> tensor<1x64x2x1x1xf32> loc(#loc456)
    %158 = stablehlo.broadcast_in_dim %157, dims = [0, 1, 2, 3, 4] : (tensor<1x64x2x1x1xf32>) -> tensor<1x64x2x1x16xf32> loc(#loc462)
    %159 = stablehlo.subtract %153, %158 : tensor<1x64x2x1x16xf32> loc(#loc462)
    %160 = stablehlo.exponential %159 : tensor<1x64x2x1x16xf32> loc(#loc463)
    %161 = stablehlo.reduce(%160 init: %cst_25) applies stablehlo.add across dimensions = [4] : (tensor<1x64x2x1x16xf32>, tensor<f32>) -> tensor<1x64x2x1xf32> loc(#loc464)
    %162 = stablehlo.broadcast_in_dim %161, dims = [0, 1, 2, 3] : (tensor<1x64x2x1xf32>) -> tensor<1x64x2x1x1xf32> loc(#loc456)
    %163 = stablehlo.broadcast_in_dim %162, dims = [0, 1, 2, 3, 4] : (tensor<1x64x2x1x1xf32>) -> tensor<1x64x2x1x16xf32> loc(#loc465)
    %164 = stablehlo.divide %160, %163 : tensor<1x64x2x1x16xf32> loc(#loc465)
    %165 = stablehlo.dot_general %122, %164, batching_dims = [0, 2] x [1, 2], contracting_dims = [1] x [4] : (tensor<64x16x2x16xf32>, tensor<1x64x2x1x16xf32>) -> tensor<64x2x16x1x1xf32> loc(#loc466)
    %166 = stablehlo.transpose %165, dims = [3, 0, 4, 1, 2] : (tensor<64x2x16x1x1xf32>) -> tensor<1x64x1x2x16xf32> loc(#loc467)
    %167 = stablehlo.transpose %166, dims = [1, 2, 3, 0, 4] : (tensor<1x64x1x2x16xf32>) -> tensor<64x1x2x1x16xf32> loc(#loc457)
    %168 = stablehlo.reshape %167 : (tensor<64x1x2x1x16xf32>) -> tensor<64x1x2x16xf32> loc(#loc452)
    %169 = call @_threefry_fold_in(%4, %c_3) : (tensor<2xui32>, tensor<ui32>) -> tensor<2xui32> loc(#loc579)
    %170 = stablehlo.sqrt %cst_12 : tensor<f32> loc(#loc580)
    %171 = stablehlo.divide %170, %cst_20 : tensor<f32> loc(#loc581)
    %172 = call @_truncated_normal_20(%169, %c_19, %c_18) : (tensor<2xui32>, tensor<i32>, tensor<i32>) -> tensor<32x32xf32> loc(#loc582)
    %173 = stablehlo.broadcast_in_dim %171, dims = [] : (tensor<f32>) -> tensor<32x32xf32> loc(#loc583)
    %174 = stablehlo.multiply %172, %173 : tensor<32x32xf32> loc(#loc583)
    %175 = stablehlo.reshape %174 : (tensor<32x32xf32>) -> tensor<2x16x32xf32> loc(#loc584)
    %176 = call @_threefry_fold_in(%4, %c_2) : (tensor<2xui32>, tensor<ui32>) -> tensor<2xui32> loc(#loc585)
    %177 = stablehlo.broadcast_in_dim %cst_25, dims = [] : (tensor<f32>) -> tensor<32xf32> loc(#loc586)
    %178 = stablehlo.dot_general %168, %175, contracting_dims = [2, 3] x [0, 1] : (tensor<64x1x2x16xf32>, tensor<2x16x32xf32>) -> tensor<64x1x32xf32> loc(#loc539)
    %179 = stablehlo.reshape %177 : (tensor<32xf32>) -> tensor<1x1x32xf32> loc(#loc540)
    %180 = stablehlo.broadcast_in_dim %179, dims = [0, 1, 2] : (tensor<1x1x32xf32>) -> tensor<64x1x32xf32> loc(#loc541)
    %181 = stablehlo.add %178, %180 : tensor<64x1x32xf32> loc(#loc541)
    %182 = call @_threefry_fold_in(%4, %c_1) : (tensor<2xui32>, tensor<ui32>) -> tensor<2xui32> loc(#loc393)
    %183 = stablehlo.sqrt %cst_12 : tensor<f32> loc(#loc350)
    %184 = stablehlo.divide %183, %cst_20 : tensor<f32> loc(#loc351)
    %185 = call @_truncated_normal_27(%182, %c_19, %c_18) : (tensor<2xui32>, tensor<i32>, tensor<i32>) -> tensor<32x16xf32> loc(#loc352)
    %186 = stablehlo.broadcast_in_dim %184, dims = [] : (tensor<f32>) -> tensor<32x16xf32> loc(#loc353)
    %187 = stablehlo.multiply %185, %186 : tensor<32x16xf32> loc(#loc353)
    %188 = stablehlo.dot_general %181, %187, contracting_dims = [2] x [0] : (tensor<64x1x32xf32>, tensor<32x16xf32>) -> tensor<64x1x16xf32> loc(#loc354)
    %189 = call @_where_32(%43, %188, %cst) : (tensor<64x1x16xi1>, tensor<64x1x16xf32>, tensor<f32>) -> tensor<64x1x16xf32> loc(#loc320)
    %190 = call @_threefry_fold_in(%4, %c_0) : (tensor<2xui32>, tensor<ui32>) -> tensor<2xui32> loc(#loc394)
    %191 = stablehlo.sqrt %cst_12 : tensor<f32> loc(#loc356)
    %192 = stablehlo.divide %191, %cst_20 : tensor<f32> loc(#loc357)
    %193 = call @_truncated_normal_33(%190, %c_19, %c_18) : (tensor<2xui32>, tensor<i32>, tensor<i32>) -> tensor<32x1xf32> loc(#loc358)
    %194 = stablehlo.broadcast_in_dim %192, dims = [] : (tensor<f32>) -> tensor<32x1xf32> loc(#loc359)
    %195 = stablehlo.multiply %193, %194 : tensor<32x1xf32> loc(#loc359)
    %196 = call @_threefry_fold_in(%4, %c) : (tensor<2xui32>, tensor<ui32>) -> tensor<2xui32> loc(#loc395)
    %197 = stablehlo.broadcast_in_dim %cst_25, dims = [] : (tensor<f32>) -> tensor<1xf32> loc(#loc361)
    %198 = stablehlo.broadcast_in_dim %cst_25, dims = [] : (tensor<f32>) -> tensor<32x16xf32> loc(#loc594)
    %199 = stablehlo.broadcast_in_dim %cst_25, dims = [] : (tensor<f32>) -> tensor<1xf32> loc(#loc594)
    %200 = stablehlo.broadcast_in_dim %cst_25, dims = [] : (tensor<f32>) -> tensor<32x1xf32> loc(#loc594)
    %201 = stablehlo.broadcast_in_dim %cst_25, dims = [] : (tensor<f32>) -> tensor<32xf32> loc(#loc594)
    %202 = stablehlo.broadcast_in_dim %cst_25, dims = [] : (tensor<f32>) -> tensor<15x32xf32> loc(#loc594)
    %203 = stablehlo.broadcast_in_dim %cst_25, dims = [] : (tensor<f32>) -> tensor<32xf32> loc(#loc594)
    %204 = stablehlo.broadcast_in_dim %cst_25, dims = [] : (tensor<f32>) -> tensor<48x32xf32> loc(#loc594)
    %205 = stablehlo.broadcast_in_dim %cst_25, dims = [] : (tensor<f32>) -> tensor<2x16xf32> loc(#loc594)
    %206 = stablehlo.broadcast_in_dim %cst_25, dims = [] : (tensor<f32>) -> tensor<32x2x16xf32> loc(#loc594)
    %207 = stablehlo.broadcast_in_dim %cst_25, dims = [] : (tensor<f32>) -> tensor<32xf32> loc(#loc594)
    %208 = stablehlo.broadcast_in_dim %cst_25, dims = [] : (tensor<f32>) -> tensor<2x16x32xf32> loc(#loc594)
    %209 = stablehlo.broadcast_in_dim %cst_25, dims = [] : (tensor<f32>) -> tensor<2x16xf32> loc(#loc594)
    %210 = stablehlo.broadcast_in_dim %cst_25, dims = [] : (tensor<f32>) -> tensor<32x2x16xf32> loc(#loc594)
    %211 = stablehlo.broadcast_in_dim %cst_25, dims = [] : (tensor<f32>) -> tensor<2x16xf32> loc(#loc594)
    %212 = stablehlo.broadcast_in_dim %cst_25, dims = [] : (tensor<f32>) -> tensor<32x2x16xf32> loc(#loc594)
    %213 = stablehlo.broadcast_in_dim %cst_25, dims = [] : (tensor<f32>) -> tensor<32x16xf32> loc(#loc595)
    %214 = stablehlo.broadcast_in_dim %cst_25, dims = [] : (tensor<f32>) -> tensor<1xf32> loc(#loc595)
    %215 = stablehlo.broadcast_in_dim %cst_25, dims = [] : (tensor<f32>) -> tensor<32x1xf32> loc(#loc595)
    %216 = stablehlo.broadcast_in_dim %cst_25, dims = [] : (tensor<f32>) -> tensor<32xf32> loc(#loc595)
    %217 = stablehlo.broadcast_in_dim %cst_25, dims = [] : (tensor<f32>) -> tensor<15x32xf32> loc(#loc595)
    %218 = stablehlo.broadcast_in_dim %cst_25, dims = [] : (tensor<f32>) -> tensor<32xf32> loc(#loc595)
    %219 = stablehlo.broadcast_in_dim %cst_25, dims = [] : (tensor<f32>) -> tensor<48x32xf32> loc(#loc595)
    %220 = stablehlo.broadcast_in_dim %cst_25, dims = [] : (tensor<f32>) -> tensor<2x16xf32> loc(#loc595)
    %221 = stablehlo.broadcast_in_dim %cst_25, dims = [] : (tensor<f32>) -> tensor<32x2x16xf32> loc(#loc595)
    %222 = stablehlo.broadcast_in_dim %cst_25, dims = [] : (tensor<f32>) -> tensor<32xf32> loc(#loc595)
    %223 = stablehlo.broadcast_in_dim %cst_25, dims = [] : (tensor<f32>) -> tensor<2x16x32xf32> loc(#loc595)
    %224 = stablehlo.broadcast_in_dim %cst_25, dims = [] : (tensor<f32>) -> tensor<2x16xf32> loc(#loc595)
    %225 = stablehlo.broadcast_in_dim %cst_25, dims = [] : (tensor<f32>) -> tensor<32x2x16xf32> loc(#loc595)
    %226 = stablehlo.broadcast_in_dim %cst_25, dims = [] : (tensor<f32>) -> tensor<2x16xf32> loc(#loc595)
    %227 = stablehlo.broadcast_in_dim %cst_25, dims = [] : (tensor<f32>) -> tensor<32x2x16xf32> loc(#loc595)
    return %c_29, %31, %32, %33, %34, %35, %36, %37, %38, %39, %21, %27, %28, %29, %30, %40, %41, %42, %187, %197, %195, %56, %54, %71, %69, %100, %97, %177, %175, %86, %83, %116, %113, %c_29, %198, %199, %200, %201, %202, %203, %204, %205, %206, %207, %208, %209, %210, %211, %212, %213, %214, %215, %216, %217, %218, %219, %220, %221, %222, %223, %224, %225, %226, %227 : tensor<i32>, tensor<64x16xi1>, tensor<64x15xf32>, tensor<64xi32>, tensor<64xf32>, tensor<64xi1>, tensor<64xi1>, tensor<64xf32>, tensor<64xf32>, tensor<64xf32>, tensor<64x5xi32>, tensor<64x5xi32>, tensor<64xi1>, tensor<64xi32>, tensor<64xi1>, tensor<64x16xi32>, tensor<64x16x2x16xf32>, tensor<64x16x2x16xf32>, tensor<32x16xf32>, tensor<1xf32>, tensor<32x1xf32>, tensor<32xf32>, tensor<15x32xf32>, tensor<32xf32>, tensor<48x32xf32>, tensor<2x16xf32>, tensor<32x2x16xf32>, tensor<32xf32>, tensor<2x16x32xf32>, tensor<2x16xf32>, tensor<32x2x16xf32>, tensor<2x16xf32>, tensor<32x2x16xf32>, tensor<i32>, tensor<32x16xf32>, tensor<1xf32>, tensor<32x1xf32>, tensor<32xf32>, tensor<15x32xf32>, tensor<32xf32>, tensor<48x32xf32>, tensor<2x16xf32>, tensor<32x2x16xf32>, tensor<32xf32>, tensor<2x16x32xf32>, tensor<2x16xf32>, tensor<32x2x16xf32>, tensor<2x16xf32>, tensor<32x2x16xf32>, tensor<32x16xf32>, tensor<1xf32>, tensor<32x1xf32>, tensor<32xf32>, tensor<15x32xf32>, tensor<32xf32>, tensor<48x32xf32>, tensor<2x16xf32>, tensor<32x2x16xf32>, tensor<32xf32>, tensor<2x16x32xf32>, tensor<2x16xf32>, tensor<32x2x16xf32>, tensor<2x16xf32>, tensor<32x2x16xf32> loc(#loc240)
  } loc(#loc)
  func.func private @_threefry_split(%arg0: tensor<2xui32> loc(unknown)) -> tensor<3x2xui32> {
    %c = stablehlo.constant dense<32> : tensor<ui64> loc(#loc231)
    %c_0 = stablehlo.constant dense<1> : tensor<ui64> loc(#loc231)
    %0 = stablehlo.slice %arg0 [0:1] : (tensor<2xui32>) -> tensor<1xui32> loc(#loc232)
    %1 = stablehlo.reshape %0 : (tensor<1xui32>) -> tensor<ui32> loc(#loc233)
    %2 = stablehlo.slice %arg0 [1:2] : (tensor<2xui32>) -> tensor<1xui32> loc(#loc232)
    %3 = stablehlo.reshape %2 : (tensor<1xui32>) -> tensor<ui32> loc(#loc233)
    %4 = stablehlo.iota dim = 0 : tensor<3xui64> loc(#loc231)
    %5 = stablehlo.broadcast_in_dim %c_0, dims = [] : (tensor<ui64>) -> tensor<3xui64> loc(#loc231)
    %6 = stablehlo.multiply %5, %4 : tensor<3xui64> loc(#loc231)
    %7 = stablehlo.broadcast_in_dim %c, dims = [] : (tensor<ui64>) -> tensor<3xui64> loc(#loc231)
    %8 = stablehlo.shift_right_logical %6, %7 : tensor<3xui64> loc(#loc231)
    %9 = stablehlo.convert %6 : (tensor<3xui64>) -> tensor<3xui32> loc(#loc231)
    %10 = stablehlo.convert %8 : (tensor<3xui64>) -> tensor<3xui32> loc(#loc231)
    %11:2 = call @threefry2x32(%1, %3, %10, %9) : (tensor<ui32>, tensor<ui32>, tensor<3xui32>, tensor<3xui32>) -> (tensor<3xui32>, tensor<3xui32>) loc(#loc136)
    %12 = stablehlo.broadcast_in_dim %11#0, dims = [0] : (tensor<3xui32>) -> tensor<3x1xui32> loc(#loc234)
    %13 = stablehlo.broadcast_in_dim %11#1, dims = [0] : (tensor<3xui32>) -> tensor<3x1xui32> loc(#loc234)
    %14 = stablehlo.concatenate %12, %13, dim = 1 : (tensor<3x1xui32>, tensor<3x1xui32>) -> tensor<3x2xui32> loc(#loc234)
    return %14 : tensor<3x2xui32> loc(#loc)
  } loc(#loc250)
  func.func private @threefry2x32(%arg0: tensor<ui32> loc("RecurrentPPO.init"(#loc4)), %arg1: tensor<ui32> loc("RecurrentPPO.init"(#loc4)), %arg2: tensor<3xui32> loc("RecurrentPPO.init"(#loc4)), %arg3: tensor<3xui32> loc("RecurrentPPO.init"(#loc4))) -> (tensor<3xui32>, tensor<3xui32>) {
    %c = stablehlo.constant dense<1> : tensor<i32> loc(#loc)
    %c_0 = stablehlo.constant dense<5> : tensor<i32> loc(#loc)
    %c_1 = stablehlo.constant dense<0> : tensor<i32> loc(#loc)
    %c_2 = stablehlo.constant dense<466688986> : tensor<ui32> loc(#loc220)
    %c_3 = stablehlo.constant dense<[13, 15, 26, 6]> : tensor<4xui32> loc(#loc220)
    %c_4 = stablehlo.constant dense<[17, 29, 16, 24]> : tensor<4xui32> loc(#loc220)
    %0 = stablehlo.xor %arg0, %arg1 : tensor<ui32> loc(#loc235)
    %1 = stablehlo.xor %0, %c_2 : tensor<ui32> loc(#loc235)
    %2 = stablehlo.broadcast_in_dim %arg0, dims = [] : (tensor<ui32>) -> tensor<3xui32> loc(#loc236)
    %3 = stablehlo.add %arg2, %2 : tensor<3xui32> loc(#loc236)
    %4 = stablehlo.broadcast_in_dim %arg1, dims = [] : (tensor<ui32>) -> tensor<3xui32> loc(#loc236)
    %5 = stablehlo.add %arg3, %4 : tensor<3xui32> loc(#loc236)
    %6:9 = stablehlo.while(%iterArg = %c_1, %iterArg_5 = %c_1, %iterArg_6 = %3, %iterArg_7 = %5, %iterArg_8 = %arg1, %iterArg_9 = %1, %iterArg_10 = %arg0, %iterArg_11 = %c_3, %iterArg_12 = %c_4) : tensor<i32>, tensor<i32>, tensor<3xui32>, tensor<3xui32>, tensor<ui32>, tensor<ui32>, tensor<ui32>, tensor<4xui32>, tensor<4xui32>
    cond {
      %7 = stablehlo.compare LT, %iterArg, %c_0, SIGNED : (tensor<i32>, tensor<i32>) -> tensor<i1> loc(#loc281)
      stablehlo.return %7 : tensor<i1> loc(#loc251)
    } do {
      %7:8 = func.call @closed_call(%iterArg_5, %iterArg_6, %iterArg_7, %iterArg_8, %iterArg_9, %iterArg_10, %iterArg_11, %iterArg_12) : (tensor<i32>, tensor<3xui32>, tensor<3xui32>, tensor<ui32>, tensor<ui32>, tensor<ui32>, tensor<4xui32>, tensor<4xui32>) -> (tensor<i32>, tensor<3xui32>, tensor<3xui32>, tensor<ui32>, tensor<ui32>, tensor<ui32>, tensor<4xui32>, tensor<4xui32>) loc(#loc282)
      %8 = stablehlo.add %iterArg, %c : tensor<i32> loc(#loc283)
      stablehlo.return %8, %7#0, %7#1, %7#2, %7#3, %7#4, %7#5, %7#6, %7#7 : tensor<i32>, tensor<i32>, tensor<3xui32>, tensor<3xui32>, tensor<ui32>, tensor<ui32>, tensor<ui32>, tensor<4xui32>, tensor<4xui32> loc(#loc251)
    } loc(#loc251)
    return %6#2, %6#3 : tensor<3xui32>, tensor<3xui32> loc(#loc136)
  } loc(#loc136)
  func.func private @closed_call(%arg0: tensor<i32> loc(unknown), %arg1: tensor<3xui32> loc(unknown), %arg2: tensor<3xui32> loc(unknown), %arg3: tensor<ui32> loc(unknown), %arg4: tensor<ui32> loc(unknown), %arg5: tensor<ui32> loc(unknown), %arg6: tensor<4xui32> loc(unknown), %arg7: tensor<4xui32> loc(unknown)) -> (tensor<i32>, tensor<3xui32>, tensor<3xui32>, tensor<ui32>, tensor<ui32>, tensor<ui32>, tensor<4xui32>, tensor<4xui32>) {
    %c = stablehlo.constant dense<32> : tensor<ui32> loc(#loc)
    %c_0 = stablehlo.constant dense<1> : tensor<i32> loc(#loc)
    %0 = stablehlo.add %arg0, %c_0 : tensor<i32> loc(#loc89)
    %1 = stablehlo.slice %arg6 [0:1] : (tensor<4xui32>) -> tensor<1xui32> loc(#loc90)
    %2 = stablehlo.reshape %1 : (tensor<1xui32>) -> tensor<ui32> loc(#loc91)
    %3 = stablehlo.add %arg1, %arg2 : tensor<3xui32> loc(#loc89)
    %4 = stablehlo.broadcast_in_dim %2, dims = [] : (tensor<ui32>) -> tensor<3xui32> loc(#loc92)
    %5 = stablehlo.shift_left %arg2, %4 : tensor<3xui32> loc(#loc92)
    %6 = stablehlo.subtract %c, %2 : tensor<ui32> loc(#loc93)
    %7 = stablehlo.broadcast_in_dim %6, dims = [] : (tensor<ui32>) -> tensor<3xui32> loc(#loc94)
    %8 = stablehlo.shift_right_logical %arg2, %7 : tensor<3xui32> loc(#loc94)
    %9 = stablehlo.or %5, %8 : tensor<3xui32> loc(#loc95)
    %10 = stablehlo.xor %3, %9 : tensor<3xui32> loc(#loc96)
    %11 = stablehlo.slice %arg6 [1:2] : (tensor<4xui32>) -> tensor<1xui32> loc(#loc90)
    %12 = stablehlo.reshape %11 : (tensor<1xui32>) -> tensor<ui32> loc(#loc91)
    %13 = stablehlo.add %3, %10 : tensor<3xui32> loc(#loc89)
    %14 = stablehlo.broadcast_in_dim %12, dims = [] : (tensor<ui32>) -> tensor<3xui32> loc(#loc92)
    %15 = stablehlo.shift_left %10, %14 : tensor<3xui32> loc(#loc92)
    %16 = stablehlo.subtract %c, %12 : tensor<ui32> loc(#loc93)
    %17 = stablehlo.broadcast_in_dim %16, dims = [] : (tensor<ui32>) -> tensor<3xui32> loc(#loc94)
    %18 = stablehlo.shift_right_logical %10, %17 : tensor<3xui32> loc(#loc94)
    %19 = stablehlo.or %15, %18 : tensor<3xui32> loc(#loc95)
    %20 = stablehlo.xor %13, %19 : tensor<3xui32> loc(#loc96)
    %21 = stablehlo.slice %arg6 [2:3] : (tensor<4xui32>) -> tensor<1xui32> loc(#loc90)
    %22 = stablehlo.reshape %21 : (tensor<1xui32>) -> tensor<ui32> loc(#loc91)
    %23 = stablehlo.add %13, %20 : tensor<3xui32> loc(#loc89)
    %24 = stablehlo.broadcast_in_dim %22, dims = [] : (tensor<ui32>) -> tensor<3xui32> loc(#loc92)
    %25 = stablehlo.shift_left %20, %24 : tensor<3xui32> loc(#loc92)
    %26 = stablehlo.subtract %c, %22 : tensor<ui32> loc(#loc93)
    %27 = stablehlo.broadcast_in_dim %26, dims = [] : (tensor<ui32>) -> tensor<3xui32> loc(#loc94)
    %28 = stablehlo.shift_right_logical %20, %27 : tensor<3xui32> loc(#loc94)
    %29 = stablehlo.or %25, %28 : tensor<3xui32> loc(#loc95)
    %30 = stablehlo.xor %23, %29 : tensor<3xui32> loc(#loc96)
    %31 = stablehlo.slice %arg6 [3:4] : (tensor<4xui32>) -> tensor<1xui32> loc(#loc90)
    %32 = stablehlo.reshape %31 : (tensor<1xui32>) -> tensor<ui32> loc(#loc91)
    %33 = stablehlo.add %23, %30 : tensor<3xui32> loc(#loc89)
    %34 = stablehlo.broadcast_in_dim %32, dims = [] : (tensor<ui32>) -> tensor<3xui32> loc(#loc92)
    %35 = stablehlo.shift_left %30, %34 : tensor<3xui32> loc(#loc92)
    %36 = stablehlo.subtract %c, %32 : tensor<ui32> loc(#loc93)
    %37 = stablehlo.broadcast_in_dim %36, dims = [] : (tensor<ui32>) -> tensor<3xui32> loc(#loc94)
    %38 = stablehlo.shift_right_logical %30, %37 : tensor<3xui32> loc(#loc94)
    %39 = stablehlo.or %35, %38 : tensor<3xui32> loc(#loc95)
    %40 = stablehlo.xor %33, %39 : tensor<3xui32> loc(#loc96)
    %41 = stablehlo.broadcast_in_dim %arg3, dims = [] : (tensor<ui32>) -> tensor<3xui32> loc(#loc89)
    %42 = stablehlo.add %33, %41 : tensor<3xui32> loc(#loc89)
    %43 = stablehlo.broadcast_in_dim %arg4, dims = [] : (tensor<ui32>) -> tensor<3xui32> loc(#loc89)
    %44 = stablehlo.add %40, %43 : tensor<3xui32> loc(#loc89)
    %45 = stablehlo.add %arg0, %c_0 : tensor<i32> loc(#loc89)
    %46 = stablehlo.convert %45 : (tensor<i32>) -> tensor<ui32> loc(#loc97)
    %47 = stablehlo.broadcast_in_dim %46, dims = [] : (tensor<ui32>) -> tensor<3xui32> loc(#loc89)
    %48 = stablehlo.add %44, %47 : tensor<3xui32> loc(#loc89)
    return %0, %42, %48, %arg4, %arg5, %arg3, %arg7, %arg6 : tensor<i32>, tensor<3xui32>, tensor<3xui32>, tensor<ui32>, tensor<ui32>, tensor<ui32>, tensor<4xui32>, tensor<4xui32> loc(#loc)
  } loc(#loc253)
  func.func private @_threefry_split_0(%arg0: tensor<2xui32> loc(unknown)) -> tensor<64x2xui32> {
    %c = stablehlo.constant dense<32> : tensor<ui64> loc(#loc255)
    %c_0 = stablehlo.constant dense<1> : tensor<ui64> loc(#loc255)
    %0 = stablehlo.slice %arg0 [0:1] : (tensor<2xui32>) -> tensor<1xui32> loc(#loc256)
    %1 = stablehlo.reshape %0 : (tensor<1xui32>) -> tensor<ui32> loc(#loc257)
    %2 = stablehlo.slice %arg0 [1:2] : (tensor<2xui32>) -> tensor<1xui32> loc(#loc256)
    %3 = stablehlo.reshape %2 : (tensor<1xui32>) -> tensor<ui32> loc(#loc257)
    %4 = stablehlo.iota dim = 0 : tensor<64xui64> loc(#loc255)
    %5 = stablehlo.broadcast_in_dim %c_0, dims = [] : (tensor<ui64>) -> tensor<64xui64> loc(#loc255)
    %6 = stablehlo.multiply %5, %4 : tensor<64xui64> loc(#loc255)
    %7 = stablehlo.broadcast_in_dim %c, dims = [] : (tensor<ui64>) -> tensor<64xui64> loc(#loc255)
    %8 = stablehlo.shift_right_logical %6, %7 : tensor<64xui64> loc(#loc255)
    %9 = stablehlo.convert %6 : (tensor<64xui64>) -> tensor<64xui32> loc(#loc255)
    %10 = stablehlo.convert %8 : (tensor<64xui64>) -> tensor<64xui32> loc(#loc255)
    %11:2 = call @threefry2x32_1(%1, %3, %10, %9) : (tensor<ui32>, tensor<ui32>, tensor<64xui32>, tensor<64xui32>) -> (tensor<64xui32>, tensor<64xui32>) loc(#loc239)
    %12 = stablehlo.broadcast_in_dim %11#0, dims = [0] : (tensor<64xui32>) -> tensor<64x1xui32> loc(#loc258)
    %13 = stablehlo.broadcast_in_dim %11#1, dims = [0] : (tensor<64xui32>) -> tensor<64x1xui32> loc(#loc258)
    %14 = stablehlo.concatenate %12, %13, dim = 1 : (tensor<64x1xui32>, tensor<64x1xui32>) -> tensor<64x2xui32> loc(#loc258)
    return %14 : tensor<64x2xui32> loc(#loc)
  } loc(#loc284)
  func.func private @threefry2x32_1(%arg0: tensor<ui32> loc(callsite(#loc221 at #loc222)), %arg1: tensor<ui32> loc(callsite(#loc221 at #loc222)), %arg2: tensor<64xui32> loc(callsite(#loc221 at #loc222)), %arg3: tensor<64xui32> loc(callsite(#loc221 at #loc222))) -> (tensor<64xui32>, tensor<64xui32>) {
    %c = stablehlo.constant dense<1> : tensor<i32> loc(#loc)
    %c_0 = stablehlo.constant dense<5> : tensor<i32> loc(#loc)
    %c_1 = stablehlo.constant dense<0> : tensor<i32> loc(#loc)
    %c_2 = stablehlo.constant dense<466688986> : tensor<ui32> loc(#loc220)
    %c_3 = stablehlo.constant dense<[13, 15, 26, 6]> : tensor<4xui32> loc(#loc220)
    %c_4 = stablehlo.constant dense<[17, 29, 16, 24]> : tensor<4xui32> loc(#loc220)
    %0 = stablehlo.xor %arg0, %arg1 : tensor<ui32> loc(#loc259)
    %1 = stablehlo.xor %0, %c_2 : tensor<ui32> loc(#loc259)
    %2 = stablehlo.broadcast_in_dim %arg0, dims = [] : (tensor<ui32>) -> tensor<64xui32> loc(#loc260)
    %3 = stablehlo.add %arg2, %2 : tensor<64xui32> loc(#loc260)
    %4 = stablehlo.broadcast_in_dim %arg1, dims = [] : (tensor<ui32>) -> tensor<64xui32> loc(#loc260)
    %5 = stablehlo.add %arg3, %4 : tensor<64xui32> loc(#loc260)
    %6:9 = stablehlo.while(%iterArg = %c_1, %iterArg_5 = %c_1, %iterArg_6 = %3, %iterArg_7 = %5, %iterArg_8 = %arg1, %iterArg_9 = %1, %iterArg_10 = %arg0, %iterArg_11 = %c_3, %iterArg_12 = %c_4) : tensor<i32>, tensor<i32>, tensor<64xui32>, tensor<64xui32>, tensor<ui32>, tensor<ui32>, tensor<ui32>, tensor<4xui32>, tensor<4xui32>
    cond {
      %7 = stablehlo.compare LT, %iterArg, %c_0, SIGNED : (tensor<i32>, tensor<i32>) -> tensor<i1> loc(#loc324)
      stablehlo.return %7 : tensor<i1> loc(#loc285)
    } do {
      %7:8 = func.call @closed_call_2(%iterArg_5, %iterArg_6, %iterArg_7, %iterArg_8, %iterArg_9, %iterArg_10, %iterArg_11, %iterArg_12) : (tensor<i32>, tensor<64xui32>, tensor<64xui32>, tensor<ui32>, tensor<ui32>, tensor<ui32>, tensor<4xui32>, tensor<4xui32>) -> (tensor<i32>, tensor<64xui32>, tensor<64xui32>, tensor<ui32>, tensor<ui32>, tensor<ui32>, tensor<4xui32>, tensor<4xui32>) loc(#loc325)
      %8 = stablehlo.add %iterArg, %c : tensor<i32> loc(#loc326)
      stablehlo.return %8, %7#0, %7#1, %7#2, %7#3, %7#4, %7#5, %7#6, %7#7 : tensor<i32>, tensor<i32>, tensor<64xui32>, tensor<64xui32>, tensor<ui32>, tensor<ui32>, tensor<ui32>, tensor<4xui32>, tensor<4xui32> loc(#loc285)
    } loc(#loc285)
    return %6#2, %6#3 : tensor<64xui32>, tensor<64xui32> loc(#loc239)
  } loc(#loc239)
  func.func private @closed_call_2(%arg0: tensor<i32> loc(unknown), %arg1: tensor<64xui32> loc(unknown), %arg2: tensor<64xui32> loc(unknown), %arg3: tensor<ui32> loc(unknown), %arg4: tensor<ui32> loc(unknown), %arg5: tensor<ui32> loc(unknown), %arg6: tensor<4xui32> loc(unknown), %arg7: tensor<4xui32> loc(unknown)) -> (tensor<i32>, tensor<64xui32>, tensor<64xui32>, tensor<ui32>, tensor<ui32>, tensor<ui32>, tensor<4xui32>, tensor<4xui32>) {
    %c = stablehlo.constant dense<32> : tensor<ui32> loc(#loc)
    %c_0 = stablehlo.constant dense<1> : tensor<i32> loc(#loc)
    %0 = stablehlo.add %arg0, %c_0 : tensor<i32> loc(#loc89)
    %1 = stablehlo.slice %arg6 [0:1] : (tensor<4xui32>) -> tensor<1xui32> loc(#loc90)
    %2 = stablehlo.reshape %1 : (tensor<1xui32>) -> tensor<ui32> loc(#loc91)
    %3 = stablehlo.add %arg1, %arg2 : tensor<64xui32> loc(#loc89)
    %4 = stablehlo.broadcast_in_dim %2, dims = [] : (tensor<ui32>) -> tensor<64xui32> loc(#loc92)
    %5 = stablehlo.shift_left %arg2, %4 : tensor<64xui32> loc(#loc92)
    %6 = stablehlo.subtract %c, %2 : tensor<ui32> loc(#loc93)
    %7 = stablehlo.broadcast_in_dim %6, dims = [] : (tensor<ui32>) -> tensor<64xui32> loc(#loc94)
    %8 = stablehlo.shift_right_logical %arg2, %7 : tensor<64xui32> loc(#loc94)
    %9 = stablehlo.or %5, %8 : tensor<64xui32> loc(#loc95)
    %10 = stablehlo.xor %3, %9 : tensor<64xui32> loc(#loc96)
    %11 = stablehlo.slice %arg6 [1:2] : (tensor<4xui32>) -> tensor<1xui32> loc(#loc90)
    %12 = stablehlo.reshape %11 : (tensor<1xui32>) -> tensor<ui32> loc(#loc91)
    %13 = stablehlo.add %3, %10 : tensor<64xui32> loc(#loc89)
    %14 = stablehlo.broadcast_in_dim %12, dims = [] : (tensor<ui32>) -> tensor<64xui32> loc(#loc92)
    %15 = stablehlo.shift_left %10, %14 : tensor<64xui32> loc(#loc92)
    %16 = stablehlo.subtract %c, %12 : tensor<ui32> loc(#loc93)
    %17 = stablehlo.broadcast_in_dim %16, dims = [] : (tensor<ui32>) -> tensor<64xui32> loc(#loc94)
    %18 = stablehlo.shift_right_logical %10, %17 : tensor<64xui32> loc(#loc94)
    %19 = stablehlo.or %15, %18 : tensor<64xui32> loc(#loc95)
    %20 = stablehlo.xor %13, %19 : tensor<64xui32> loc(#loc96)
    %21 = stablehlo.slice %arg6 [2:3] : (tensor<4xui32>) -> tensor<1xui32> loc(#loc90)
    %22 = stablehlo.reshape %21 : (tensor<1xui32>) -> tensor<ui32> loc(#loc91)
    %23 = stablehlo.add %13, %20 : tensor<64xui32> loc(#loc89)
    %24 = stablehlo.broadcast_in_dim %22, dims = [] : (tensor<ui32>) -> tensor<64xui32> loc(#loc92)
    %25 = stablehlo.shift_left %20, %24 : tensor<64xui32> loc(#loc92)
    %26 = stablehlo.subtract %c, %22 : tensor<ui32> loc(#loc93)
    %27 = stablehlo.broadcast_in_dim %26, dims = [] : (tensor<ui32>) -> tensor<64xui32> loc(#loc94)
    %28 = stablehlo.shift_right_logical %20, %27 : tensor<64xui32> loc(#loc94)
    %29 = stablehlo.or %25, %28 : tensor<64xui32> loc(#loc95)
    %30 = stablehlo.xor %23, %29 : tensor<64xui32> loc(#loc96)
    %31 = stablehlo.slice %arg6 [3:4] : (tensor<4xui32>) -> tensor<1xui32> loc(#loc90)
    %32 = stablehlo.reshape %31 : (tensor<1xui32>) -> tensor<ui32> loc(#loc91)
    %33 = stablehlo.add %23, %30 : tensor<64xui32> loc(#loc89)
    %34 = stablehlo.broadcast_in_dim %32, dims = [] : (tensor<ui32>) -> tensor<64xui32> loc(#loc92)
    %35 = stablehlo.shift_left %30, %34 : tensor<64xui32> loc(#loc92)
    %36 = stablehlo.subtract %c, %32 : tensor<ui32> loc(#loc93)
    %37 = stablehlo.broadcast_in_dim %36, dims = [] : (tensor<ui32>) -> tensor<64xui32> loc(#loc94)
    %38 = stablehlo.shift_right_logical %30, %37 : tensor<64xui32> loc(#loc94)
    %39 = stablehlo.or %35, %38 : tensor<64xui32> loc(#loc95)
    %40 = stablehlo.xor %33, %39 : tensor<64xui32> loc(#loc96)
    %41 = stablehlo.broadcast_in_dim %arg3, dims = [] : (tensor<ui32>) -> tensor<64xui32> loc(#loc89)
    %42 = stablehlo.add %33, %41 : tensor<64xui32> loc(#loc89)
    %43 = stablehlo.broadcast_in_dim %arg4, dims = [] : (tensor<ui32>) -> tensor<64xui32> loc(#loc89)
    %44 = stablehlo.add %40, %43 : tensor<64xui32> loc(#loc89)
    %45 = stablehlo.add %arg0, %c_0 : tensor<i32> loc(#loc89)
    %46 = stablehlo.convert %45 : (tensor<i32>) -> tensor<ui32> loc(#loc97)
    %47 = stablehlo.broadcast_in_dim %46, dims = [] : (tensor<ui32>) -> tensor<64xui32> loc(#loc89)
    %48 = stablehlo.add %44, %47 : tensor<64xui32> loc(#loc89)
    return %0, %42, %48, %arg4, %arg5, %arg3, %arg7, %arg6 : tensor<i32>, tensor<64xui32>, tensor<64xui32>, tensor<ui32>, tensor<ui32>, tensor<ui32>, tensor<4xui32>, tensor<4xui32> loc(#loc)
  } loc(#loc287)
  func.func private @_randint(%arg0: tensor<64x2xui32> loc(unknown), %arg1: tensor<i32> loc(unknown), %arg2: tensor<i32> loc(unknown)) -> tensor<64xi32> {
    %c = stablehlo.constant dense<65536> : tensor<ui32> loc(#loc)
    %c_0 = stablehlo.constant dense<1> : tensor<ui32> loc(#loc)
    %c_1 = stablehlo.constant dense<0> : tensor<ui32> loc(#loc)
    %c_2 = stablehlo.constant dense<2147483647> : tensor<i32> loc(#loc)
    %c_3 = stablehlo.constant dense<-2147483648> : tensor<i32> loc(#loc)
    %0 = call @clip(%c_2, %c_3, %c_2) : (tensor<i32>, tensor<i32>, tensor<i32>) -> tensor<i32> loc(#loc100)
    %1 = stablehlo.compare GT, %arg2, %0, SIGNED : (tensor<i32>, tensor<i32>) -> tensor<i1> loc(#loc101)
    %2 = call @clip_3(%arg1, %c_3, %c_2) : (tensor<i32>, tensor<i32>, tensor<i32>) -> tensor<i32> loc(#loc100)
    %3 = stablehlo.convert %2 : tensor<i32> loc(#loc97)
    %4 = call @clip_3(%arg2, %c_3, %c_2) : (tensor<i32>, tensor<i32>, tensor<i32>) -> tensor<i32> loc(#loc100)
    %5 = stablehlo.convert %4 : tensor<i32> loc(#loc97)
    %6 = call @_threefry_split_4(%arg0) : (tensor<64x2xui32>) -> tensor<64x2x2xui32> loc(#loc102)
    %7 = stablehlo.slice %6 [0:64, 0:1, 0:2] : (tensor<64x2x2xui32>) -> tensor<64x1x2xui32> loc(#loc90)
    %8 = stablehlo.reshape %7 : (tensor<64x1x2xui32>) -> tensor<64x2xui32> loc(#loc91)
    %9 = stablehlo.slice %6 [0:64, 1:2, 0:2] : (tensor<64x2x2xui32>) -> tensor<64x1x2xui32> loc(#loc90)
    %10 = stablehlo.reshape %9 : (tensor<64x1x2xui32>) -> tensor<64x2xui32> loc(#loc91)
    %11 = stablehlo.slice %8 [0:64, 0:1] : (tensor<64x2xui32>) -> tensor<64x1xui32> loc(#loc103)
    %12 = stablehlo.reshape %11 : (tensor<64x1xui32>) -> tensor<64xui32> loc(#loc104)
    %13 = stablehlo.slice %8 [0:64, 1:2] : (tensor<64x2xui32>) -> tensor<64x1xui32> loc(#loc103)
    %14 = stablehlo.reshape %13 : (tensor<64x1xui32>) -> tensor<64xui32> loc(#loc104)
    %15:2 = call @threefry2x32_7(%12, %14, %c_1, %c_1) : (tensor<64xui32>, tensor<64xui32>, tensor<ui32>, tensor<ui32>) -> (tensor<64xui32>, tensor<64xui32>) loc(#loc105)
    %16 = stablehlo.xor %15#0, %15#1 : tensor<64xui32> loc(#loc106)
    %17 = stablehlo.slice %10 [0:64, 0:1] : (tensor<64x2xui32>) -> tensor<64x1xui32> loc(#loc103)
    %18 = stablehlo.reshape %17 : (tensor<64x1xui32>) -> tensor<64xui32> loc(#loc104)
    %19 = stablehlo.slice %10 [0:64, 1:2] : (tensor<64x2xui32>) -> tensor<64x1xui32> loc(#loc103)
    %20 = stablehlo.reshape %19 : (tensor<64x1xui32>) -> tensor<64xui32> loc(#loc104)
    %21:2 = call @threefry2x32_7(%18, %20, %c_1, %c_1) : (tensor<64xui32>, tensor<64xui32>, tensor<ui32>, tensor<ui32>) -> (tensor<64xui32>, tensor<64xui32>) loc(#loc105)
    %22 = stablehlo.xor %21#0, %21#1 : tensor<64xui32> loc(#loc106)
    %23 = stablehlo.subtract %5, %3 : tensor<i32> loc(#loc93)
    %24 = stablehlo.convert %23 : (tensor<i32>) -> tensor<ui32> loc(#loc97)
    %25 = stablehlo.compare LE, %5, %3, SIGNED : (tensor<i32>, tensor<i32>) -> tensor<i1> loc(#loc107)
    %26 = stablehlo.select %25, %c_0, %24 : tensor<i1>, tensor<ui32> loc(#loc108)
    %27 = stablehlo.compare GT, %5, %3, SIGNED : (tensor<i32>, tensor<i32>) -> tensor<i1> loc(#loc101)
    %28 = stablehlo.and %1, %27 : tensor<i1> loc(#loc109)
    %29 = stablehlo.add %26, %c_0 : tensor<ui32> loc(#loc89)
    %30 = stablehlo.select %28, %29, %26 : tensor<i1>, tensor<ui32> loc(#loc108)
    %31 = stablehlo.remainder %c, %30 : tensor<ui32> loc(#loc110)
    %32 = stablehlo.multiply %31, %31 : tensor<ui32> loc(#loc111)
    %33 = stablehlo.remainder %32, %30 : tensor<ui32> loc(#loc110)
    %34 = stablehlo.broadcast_in_dim %30, dims = [] : (tensor<ui32>) -> tensor<64xui32> loc(#loc110)
    %35 = stablehlo.remainder %16, %34 : tensor<64xui32> loc(#loc110)
    %36 = stablehlo.broadcast_in_dim %33, dims = [] : (tensor<ui32>) -> tensor<64xui32> loc(#loc111)
    %37 = stablehlo.multiply %35, %36 : tensor<64xui32> loc(#loc111)
    %38 = stablehlo.broadcast_in_dim %30, dims = [] : (tensor<ui32>) -> tensor<64xui32> loc(#loc110)
    %39 = stablehlo.remainder %22, %38 : tensor<64xui32> loc(#loc110)
    %40 = stablehlo.add %37, %39 : tensor<64xui32> loc(#loc89)
    %41 = stablehlo.broadcast_in_dim %30, dims = [] : (tensor<ui32>) -> tensor<64xui32> loc(#loc110)
    %42 = stablehlo.remainder %40, %41 : tensor<64xui32> loc(#loc110)
    %43 = stablehlo.convert %42 : (tensor<64xui32>) -> tensor<64xi32> loc(#loc97)
    %44 = stablehlo.broadcast_in_dim %3, dims = [] : (tensor<i32>) -> tensor<64xi32> loc(#loc89)
    %45 = stablehlo.add %44, %43 : tensor<64xi32> loc(#loc89)
    return %45 : tensor<64xi32> loc(#loc)
  } loc(#loc544)
  func.func private @clip(%arg0: tensor<i32> loc(unknown), %arg1: tensor<i32> loc(unknown), %arg2: tensor<i32> loc(unknown)) -> tensor<i32> {
    %0 = stablehlo.maximum %arg1, %arg0 : tensor<i32> loc(#loc113)
    %1 = stablehlo.minimum %arg2, %0 : tensor<i32> loc(#loc114)
    return %1 : tensor<i32> loc(#loc)
  } loc(#loc223)
  func.func private @clip_3(%arg0: tensor<i32> loc(unknown), %arg1: tensor<i32> loc(unknown), %arg2: tensor<i32> loc(unknown)) -> tensor<i32> {
    %0 = stablehlo.maximum %arg1, %arg0 : tensor<i32> loc(#loc113)
    %1 = stablehlo.minimum %arg2, %0 : tensor<i32> loc(#loc114)
    return %1 : tensor<i32> loc(#loc)
  } loc(#loc223)
  func.func private @_threefry_split_4(%arg0: tensor<64x2xui32> loc(unknown)) -> tensor<64x2x2xui32> {
    %c = stablehlo.constant dense<32> : tensor<ui64> loc(#loc116)
    %c_0 = stablehlo.constant dense<1> : tensor<ui64> loc(#loc116)
    %0 = stablehlo.slice %arg0 [0:64, 0:1] : (tensor<64x2xui32>) -> tensor<64x1xui32> loc(#loc90)
    %1 = stablehlo.reshape %0 : (tensor<64x1xui32>) -> tensor<64xui32> loc(#loc91)
    %2 = stablehlo.slice %arg0 [0:64, 1:2] : (tensor<64x2xui32>) -> tensor<64x1xui32> loc(#loc90)
    %3 = stablehlo.reshape %2 : (tensor<64x1xui32>) -> tensor<64xui32> loc(#loc91)
    %4 = stablehlo.iota dim = 0 : tensor<2xui64> loc(#loc116)
    %5 = stablehlo.broadcast_in_dim %c_0, dims = [] : (tensor<ui64>) -> tensor<2xui64> loc(#loc116)
    %6 = stablehlo.multiply %5, %4 : tensor<2xui64> loc(#loc116)
    %7 = stablehlo.broadcast_in_dim %c, dims = [] : (tensor<ui64>) -> tensor<2xui64> loc(#loc116)
    %8 = stablehlo.shift_right_logical %6, %7 : tensor<2xui64> loc(#loc116)
    %9 = stablehlo.convert %6 : (tensor<2xui64>) -> tensor<2xui32> loc(#loc116)
    %10 = stablehlo.convert %8 : (tensor<2xui64>) -> tensor<2xui32> loc(#loc116)
    %11 = stablehlo.broadcast_in_dim %10, dims = [1] : (tensor<2xui32>) -> tensor<1x2xui32> loc(#loc117)
    %12 = stablehlo.broadcast_in_dim %9, dims = [1] : (tensor<2xui32>) -> tensor<1x2xui32> loc(#loc117)
    %13 = stablehlo.broadcast_in_dim %1, dims = [0] : (tensor<64xui32>) -> tensor<64x1xui32> loc(#loc117)
    %14 = stablehlo.broadcast_in_dim %3, dims = [0] : (tensor<64xui32>) -> tensor<64x1xui32> loc(#loc117)
    %15:2 = call @threefry2x32_5(%13, %14, %11, %12) : (tensor<64x1xui32>, tensor<64x1xui32>, tensor<1x2xui32>, tensor<1x2xui32>) -> (tensor<64x2xui32>, tensor<64x2xui32>) loc(#loc)
    %16 = stablehlo.broadcast_in_dim %15#0, dims = [0, 1] : (tensor<64x2xui32>) -> tensor<64x2x1xui32> loc(#loc118)
    %17 = stablehlo.broadcast_in_dim %15#1, dims = [0, 1] : (tensor<64x2xui32>) -> tensor<64x2x1xui32> loc(#loc118)
    %18 = stablehlo.concatenate %16, %17, dim = 2 : (tensor<64x2x1xui32>, tensor<64x2x1xui32>) -> tensor<64x2x2xui32> loc(#loc118)
    return %18 : tensor<64x2x2xui32> loc(#loc)
  } loc(#loc224)
  func.func private @threefry2x32_5(%arg0: tensor<64x1xui32> loc(unknown), %arg1: tensor<64x1xui32> loc(unknown), %arg2: tensor<1x2xui32> loc(unknown), %arg3: tensor<1x2xui32> loc(unknown)) -> (tensor<64x2xui32>, tensor<64x2xui32>) {
    %c = stablehlo.constant dense<1> : tensor<i32> loc(#loc)
    %c_0 = stablehlo.constant dense<5> : tensor<i32> loc(#loc)
    %c_1 = stablehlo.constant dense<0> : tensor<i32> loc(#loc)
    %c_2 = stablehlo.constant dense<466688986> : tensor<ui32> loc(#loc220)
    %c_3 = stablehlo.constant dense<[13, 15, 26, 6]> : tensor<4xui32> loc(#loc220)
    %c_4 = stablehlo.constant dense<[17, 29, 16, 24]> : tensor<4xui32> loc(#loc220)
    %0 = stablehlo.xor %arg0, %arg1 : tensor<64x1xui32> loc(#loc96)
    %1 = stablehlo.broadcast_in_dim %c_2, dims = [] : (tensor<ui32>) -> tensor<64x1xui32> loc(#loc96)
    %2 = stablehlo.xor %0, %1 : tensor<64x1xui32> loc(#loc96)
    %3 = stablehlo.broadcast_in_dim %arg2, dims = [0, 1] : (tensor<1x2xui32>) -> tensor<64x2xui32> loc(#loc89)
    %4 = stablehlo.broadcast_in_dim %arg0, dims = [0, 1] : (tensor<64x1xui32>) -> tensor<64x2xui32> loc(#loc89)
    %5 = stablehlo.add %3, %4 : tensor<64x2xui32> loc(#loc89)
    %6 = stablehlo.broadcast_in_dim %arg3, dims = [0, 1] : (tensor<1x2xui32>) -> tensor<64x2xui32> loc(#loc89)
    %7 = stablehlo.broadcast_in_dim %arg1, dims = [0, 1] : (tensor<64x1xui32>) -> tensor<64x2xui32> loc(#loc89)
    %8 = stablehlo.add %6, %7 : tensor<64x2xui32> loc(#loc89)
    %9:9 = stablehlo.while(%iterArg = %c_1, %iterArg_5 = %c_1, %iterArg_6 = %5, %iterArg_7 = %8, %iterArg_8 = %arg1, %iterArg_9 = %2, %iterArg_10 = %arg0, %iterArg_11 = %c_3, %iterArg_12 = %c_4) : tensor<i32>, tensor<i32>, tensor<64x2xui32>, tensor<64x2xui32>, tensor<64x1xui32>, tensor<64x1xui32>, tensor<64x1xui32>, tensor<4xui32>, tensor<4xui32>
    cond {
      %10 = stablehlo.compare LT, %iterArg, %c_0, SIGNED : (tensor<i32>, tensor<i32>) -> tensor<i1> loc(#loc120)
      stablehlo.return %10 : tensor<i1> loc(#loc119)
    } do {
      %10:8 = func.call @closed_call_6(%iterArg_5, %iterArg_6, %iterArg_7, %iterArg_8, %iterArg_9, %iterArg_10, %iterArg_11, %iterArg_12) : (tensor<i32>, tensor<64x2xui32>, tensor<64x2xui32>, tensor<64x1xui32>, tensor<64x1xui32>, tensor<64x1xui32>, tensor<4xui32>, tensor<4xui32>) -> (tensor<i32>, tensor<64x2xui32>, tensor<64x2xui32>, tensor<64x1xui32>, tensor<64x1xui32>, tensor<64x1xui32>, tensor<4xui32>, tensor<4xui32>) loc(#loc121)
      %11 = stablehlo.add %iterArg, %c : tensor<i32> loc(#loc122)
      stablehlo.return %11, %10#0, %10#1, %10#2, %10#3, %10#4, %10#5, %10#6, %10#7 : tensor<i32>, tensor<i32>, tensor<64x2xui32>, tensor<64x2xui32>, tensor<64x1xui32>, tensor<64x1xui32>, tensor<64x1xui32>, tensor<4xui32>, tensor<4xui32> loc(#loc119)
    } loc(#loc119)
    return %9#2, %9#3 : tensor<64x2xui32>, tensor<64x2xui32> loc(#loc)
  } loc(#loc)
  func.func private @closed_call_6(%arg0: tensor<i32> loc(unknown), %arg1: tensor<64x2xui32> loc(unknown), %arg2: tensor<64x2xui32> loc(unknown), %arg3: tensor<64x1xui32> loc(unknown), %arg4: tensor<64x1xui32> loc(unknown), %arg5: tensor<64x1xui32> loc(unknown), %arg6: tensor<4xui32> loc(unknown), %arg7: tensor<4xui32> loc(unknown)) -> (tensor<i32>, tensor<64x2xui32>, tensor<64x2xui32>, tensor<64x1xui32>, tensor<64x1xui32>, tensor<64x1xui32>, tensor<4xui32>, tensor<4xui32>) {
    %c = stablehlo.constant dense<32> : tensor<ui32> loc(#loc)
    %c_0 = stablehlo.constant dense<1> : tensor<i32> loc(#loc)
    %0 = stablehlo.add %arg0, %c_0 : tensor<i32> loc(#loc89)
    %1 = stablehlo.slice %arg6 [0:1] : (tensor<4xui32>) -> tensor<1xui32> loc(#loc90)
    %2 = stablehlo.reshape %1 : (tensor<1xui32>) -> tensor<ui32> loc(#loc91)
    %3 = stablehlo.add %arg1, %arg2 : tensor<64x2xui32> loc(#loc89)
    %4 = stablehlo.broadcast_in_dim %2, dims = [] : (tensor<ui32>) -> tensor<64x2xui32> loc(#loc92)
    %5 = stablehlo.shift_left %arg2, %4 : tensor<64x2xui32> loc(#loc92)
    %6 = stablehlo.subtract %c, %2 : tensor<ui32> loc(#loc93)
    %7 = stablehlo.broadcast_in_dim %6, dims = [] : (tensor<ui32>) -> tensor<64x2xui32> loc(#loc94)
    %8 = stablehlo.shift_right_logical %arg2, %7 : tensor<64x2xui32> loc(#loc94)
    %9 = stablehlo.or %5, %8 : tensor<64x2xui32> loc(#loc95)
    %10 = stablehlo.xor %3, %9 : tensor<64x2xui32> loc(#loc96)
    %11 = stablehlo.slice %arg6 [1:2] : (tensor<4xui32>) -> tensor<1xui32> loc(#loc90)
    %12 = stablehlo.reshape %11 : (tensor<1xui32>) -> tensor<ui32> loc(#loc91)
    %13 = stablehlo.add %3, %10 : tensor<64x2xui32> loc(#loc89)
    %14 = stablehlo.broadcast_in_dim %12, dims = [] : (tensor<ui32>) -> tensor<64x2xui32> loc(#loc92)
    %15 = stablehlo.shift_left %10, %14 : tensor<64x2xui32> loc(#loc92)
    %16 = stablehlo.subtract %c, %12 : tensor<ui32> loc(#loc93)
    %17 = stablehlo.broadcast_in_dim %16, dims = [] : (tensor<ui32>) -> tensor<64x2xui32> loc(#loc94)
    %18 = stablehlo.shift_right_logical %10, %17 : tensor<64x2xui32> loc(#loc94)
    %19 = stablehlo.or %15, %18 : tensor<64x2xui32> loc(#loc95)
    %20 = stablehlo.xor %13, %19 : tensor<64x2xui32> loc(#loc96)
    %21 = stablehlo.slice %arg6 [2:3] : (tensor<4xui32>) -> tensor<1xui32> loc(#loc90)
    %22 = stablehlo.reshape %21 : (tensor<1xui32>) -> tensor<ui32> loc(#loc91)
    %23 = stablehlo.add %13, %20 : tensor<64x2xui32> loc(#loc89)
    %24 = stablehlo.broadcast_in_dim %22, dims = [] : (tensor<ui32>) -> tensor<64x2xui32> loc(#loc92)
    %25 = stablehlo.shift_left %20, %24 : tensor<64x2xui32> loc(#loc92)
    %26 = stablehlo.subtract %c, %22 : tensor<ui32> loc(#loc93)
    %27 = stablehlo.broadcast_in_dim %26, dims = [] : (tensor<ui32>) -> tensor<64x2xui32> loc(#loc94)
    %28 = stablehlo.shift_right_logical %20, %27 : tensor<64x2xui32> loc(#loc94)
    %29 = stablehlo.or %25, %28 : tensor<64x2xui32> loc(#loc95)
    %30 = stablehlo.xor %23, %29 : tensor<64x2xui32> loc(#loc96)
    %31 = stablehlo.slice %arg6 [3:4] : (tensor<4xui32>) -> tensor<1xui32> loc(#loc90)
    %32 = stablehlo.reshape %31 : (tensor<1xui32>) -> tensor<ui32> loc(#loc91)
    %33 = stablehlo.add %23, %30 : tensor<64x2xui32> loc(#loc89)
    %34 = stablehlo.broadcast_in_dim %32, dims = [] : (tensor<ui32>) -> tensor<64x2xui32> loc(#loc92)
    %35 = stablehlo.shift_left %30, %34 : tensor<64x2xui32> loc(#loc92)
    %36 = stablehlo.subtract %c, %32 : tensor<ui32> loc(#loc93)
    %37 = stablehlo.broadcast_in_dim %36, dims = [] : (tensor<ui32>) -> tensor<64x2xui32> loc(#loc94)
    %38 = stablehlo.shift_right_logical %30, %37 : tensor<64x2xui32> loc(#loc94)
    %39 = stablehlo.or %35, %38 : tensor<64x2xui32> loc(#loc95)
    %40 = stablehlo.xor %33, %39 : tensor<64x2xui32> loc(#loc96)
    %41 = stablehlo.broadcast_in_dim %arg3, dims = [0, 1] : (tensor<64x1xui32>) -> tensor<64x2xui32> loc(#loc89)
    %42 = stablehlo.add %33, %41 : tensor<64x2xui32> loc(#loc89)
    %43 = stablehlo.broadcast_in_dim %arg4, dims = [0, 1] : (tensor<64x1xui32>) -> tensor<64x2xui32> loc(#loc89)
    %44 = stablehlo.add %40, %43 : tensor<64x2xui32> loc(#loc89)
    %45 = stablehlo.add %arg0, %c_0 : tensor<i32> loc(#loc89)
    %46 = stablehlo.convert %45 : (tensor<i32>) -> tensor<ui32> loc(#loc97)
    %47 = stablehlo.broadcast_in_dim %46, dims = [] : (tensor<ui32>) -> tensor<64x2xui32> loc(#loc89)
    %48 = stablehlo.add %44, %47 : tensor<64x2xui32> loc(#loc89)
    return %0, %42, %48, %arg4, %arg5, %arg3, %arg7, %arg6 : tensor<i32>, tensor<64x2xui32>, tensor<64x2xui32>, tensor<64x1xui32>, tensor<64x1xui32>, tensor<64x1xui32>, tensor<4xui32>, tensor<4xui32> loc(#loc)
  } loc(#loc225)
  func.func private @threefry2x32_7(%arg0: tensor<64xui32> loc("vmap()"), %arg1: tensor<64xui32> loc("vmap()"), %arg2: tensor<ui32> loc("vmap()"), %arg3: tensor<ui32> loc("vmap()")) -> (tensor<64xui32>, tensor<64xui32>) {
    %c = stablehlo.constant dense<1> : tensor<i32> loc(#loc)
    %c_0 = stablehlo.constant dense<5> : tensor<i32> loc(#loc)
    %c_1 = stablehlo.constant dense<0> : tensor<i32> loc(#loc)
    %c_2 = stablehlo.constant dense<466688986> : tensor<ui32> loc(#loc220)
    %c_3 = stablehlo.constant dense<[13, 15, 26, 6]> : tensor<4xui32> loc(#loc220)
    %c_4 = stablehlo.constant dense<[17, 29, 16, 24]> : tensor<4xui32> loc(#loc220)
    %0 = stablehlo.xor %arg0, %arg1 : tensor<64xui32> loc(#loc96)
    %1 = stablehlo.broadcast_in_dim %c_2, dims = [] : (tensor<ui32>) -> tensor<64xui32> loc(#loc96)
    %2 = stablehlo.xor %0, %1 : tensor<64xui32> loc(#loc96)
    %3 = stablehlo.broadcast_in_dim %arg2, dims = [] : (tensor<ui32>) -> tensor<64xui32> loc(#loc89)
    %4 = stablehlo.add %3, %arg0 : tensor<64xui32> loc(#loc89)
    %5 = stablehlo.broadcast_in_dim %arg3, dims = [] : (tensor<ui32>) -> tensor<64xui32> loc(#loc89)
    %6 = stablehlo.add %5, %arg1 : tensor<64xui32> loc(#loc89)
    %7:9 = stablehlo.while(%iterArg = %c_1, %iterArg_5 = %c_1, %iterArg_6 = %4, %iterArg_7 = %6, %iterArg_8 = %arg1, %iterArg_9 = %2, %iterArg_10 = %arg0, %iterArg_11 = %c_3, %iterArg_12 = %c_4) : tensor<i32>, tensor<i32>, tensor<64xui32>, tensor<64xui32>, tensor<64xui32>, tensor<64xui32>, tensor<64xui32>, tensor<4xui32>, tensor<4xui32>
    cond {
      %8 = stablehlo.compare LT, %iterArg, %c_0, SIGNED : (tensor<i32>, tensor<i32>) -> tensor<i1> loc(#loc120)
      stablehlo.return %8 : tensor<i1> loc(#loc119)
    } do {
      %8:8 = func.call @closed_call_8(%iterArg_5, %iterArg_6, %iterArg_7, %iterArg_8, %iterArg_9, %iterArg_10, %iterArg_11, %iterArg_12) : (tensor<i32>, tensor<64xui32>, tensor<64xui32>, tensor<64xui32>, tensor<64xui32>, tensor<64xui32>, tensor<4xui32>, tensor<4xui32>) -> (tensor<i32>, tensor<64xui32>, tensor<64xui32>, tensor<64xui32>, tensor<64xui32>, tensor<64xui32>, tensor<4xui32>, tensor<4xui32>) loc(#loc121)
      %9 = stablehlo.add %iterArg, %c : tensor<i32> loc(#loc122)
      stablehlo.return %9, %8#0, %8#1, %8#2, %8#3, %8#4, %8#5, %8#6, %8#7 : tensor<i32>, tensor<i32>, tensor<64xui32>, tensor<64xui32>, tensor<64xui32>, tensor<64xui32>, tensor<64xui32>, tensor<4xui32>, tensor<4xui32> loc(#loc119)
    } loc(#loc119)
    return %7#2, %7#3 : tensor<64xui32>, tensor<64xui32> loc(#loc105)
  } loc(#loc105)
  func.func private @closed_call_8(%arg0: tensor<i32> loc(unknown), %arg1: tensor<64xui32> loc(unknown), %arg2: tensor<64xui32> loc(unknown), %arg3: tensor<64xui32> loc(unknown), %arg4: tensor<64xui32> loc(unknown), %arg5: tensor<64xui32> loc(unknown), %arg6: tensor<4xui32> loc(unknown), %arg7: tensor<4xui32> loc(unknown)) -> (tensor<i32>, tensor<64xui32>, tensor<64xui32>, tensor<64xui32>, tensor<64xui32>, tensor<64xui32>, tensor<4xui32>, tensor<4xui32>) {
    %c = stablehlo.constant dense<32> : tensor<ui32> loc(#loc)
    %c_0 = stablehlo.constant dense<1> : tensor<i32> loc(#loc)
    %0 = stablehlo.add %arg0, %c_0 : tensor<i32> loc(#loc89)
    %1 = stablehlo.slice %arg6 [0:1] : (tensor<4xui32>) -> tensor<1xui32> loc(#loc90)
    %2 = stablehlo.reshape %1 : (tensor<1xui32>) -> tensor<ui32> loc(#loc91)
    %3 = stablehlo.add %arg1, %arg2 : tensor<64xui32> loc(#loc89)
    %4 = stablehlo.broadcast_in_dim %2, dims = [] : (tensor<ui32>) -> tensor<64xui32> loc(#loc92)
    %5 = stablehlo.shift_left %arg2, %4 : tensor<64xui32> loc(#loc92)
    %6 = stablehlo.subtract %c, %2 : tensor<ui32> loc(#loc93)
    %7 = stablehlo.broadcast_in_dim %6, dims = [] : (tensor<ui32>) -> tensor<64xui32> loc(#loc94)
    %8 = stablehlo.shift_right_logical %arg2, %7 : tensor<64xui32> loc(#loc94)
    %9 = stablehlo.or %5, %8 : tensor<64xui32> loc(#loc95)
    %10 = stablehlo.xor %3, %9 : tensor<64xui32> loc(#loc96)
    %11 = stablehlo.slice %arg6 [1:2] : (tensor<4xui32>) -> tensor<1xui32> loc(#loc90)
    %12 = stablehlo.reshape %11 : (tensor<1xui32>) -> tensor<ui32> loc(#loc91)
    %13 = stablehlo.add %3, %10 : tensor<64xui32> loc(#loc89)
    %14 = stablehlo.broadcast_in_dim %12, dims = [] : (tensor<ui32>) -> tensor<64xui32> loc(#loc92)
    %15 = stablehlo.shift_left %10, %14 : tensor<64xui32> loc(#loc92)
    %16 = stablehlo.subtract %c, %12 : tensor<ui32> loc(#loc93)
    %17 = stablehlo.broadcast_in_dim %16, dims = [] : (tensor<ui32>) -> tensor<64xui32> loc(#loc94)
    %18 = stablehlo.shift_right_logical %10, %17 : tensor<64xui32> loc(#loc94)
    %19 = stablehlo.or %15, %18 : tensor<64xui32> loc(#loc95)
    %20 = stablehlo.xor %13, %19 : tensor<64xui32> loc(#loc96)
    %21 = stablehlo.slice %arg6 [2:3] : (tensor<4xui32>) -> tensor<1xui32> loc(#loc90)
    %22 = stablehlo.reshape %21 : (tensor<1xui32>) -> tensor<ui32> loc(#loc91)
    %23 = stablehlo.add %13, %20 : tensor<64xui32> loc(#loc89)
    %24 = stablehlo.broadcast_in_dim %22, dims = [] : (tensor<ui32>) -> tensor<64xui32> loc(#loc92)
    %25 = stablehlo.shift_left %20, %24 : tensor<64xui32> loc(#loc92)
    %26 = stablehlo.subtract %c, %22 : tensor<ui32> loc(#loc93)
    %27 = stablehlo.broadcast_in_dim %26, dims = [] : (tensor<ui32>) -> tensor<64xui32> loc(#loc94)
    %28 = stablehlo.shift_right_logical %20, %27 : tensor<64xui32> loc(#loc94)
    %29 = stablehlo.or %25, %28 : tensor<64xui32> loc(#loc95)
    %30 = stablehlo.xor %23, %29 : tensor<64xui32> loc(#loc96)
    %31 = stablehlo.slice %arg6 [3:4] : (tensor<4xui32>) -> tensor<1xui32> loc(#loc90)
    %32 = stablehlo.reshape %31 : (tensor<1xui32>) -> tensor<ui32> loc(#loc91)
    %33 = stablehlo.add %23, %30 : tensor<64xui32> loc(#loc89)
    %34 = stablehlo.broadcast_in_dim %32, dims = [] : (tensor<ui32>) -> tensor<64xui32> loc(#loc92)
    %35 = stablehlo.shift_left %30, %34 : tensor<64xui32> loc(#loc92)
    %36 = stablehlo.subtract %c, %32 : tensor<ui32> loc(#loc93)
    %37 = stablehlo.broadcast_in_dim %36, dims = [] : (tensor<ui32>) -> tensor<64xui32> loc(#loc94)
    %38 = stablehlo.shift_right_logical %30, %37 : tensor<64xui32> loc(#loc94)
    %39 = stablehlo.or %35, %38 : tensor<64xui32> loc(#loc95)
    %40 = stablehlo.xor %33, %39 : tensor<64xui32> loc(#loc96)
    %41 = stablehlo.add %33, %arg3 : tensor<64xui32> loc(#loc89)
    %42 = stablehlo.add %40, %arg4 : tensor<64xui32> loc(#loc89)
    %43 = stablehlo.add %arg0, %c_0 : tensor<i32> loc(#loc89)
    %44 = stablehlo.convert %43 : (tensor<i32>) -> tensor<ui32> loc(#loc97)
    %45 = stablehlo.broadcast_in_dim %44, dims = [] : (tensor<ui32>) -> tensor<64xui32> loc(#loc89)
    %46 = stablehlo.add %42, %45 : tensor<64xui32> loc(#loc89)
    return %0, %41, %46, %arg4, %arg5, %arg3, %arg7, %arg6 : tensor<i32>, tensor<64xui32>, tensor<64xui32>, tensor<64xui32>, tensor<64xui32>, tensor<64xui32>, tensor<4xui32>, tensor<4xui32> loc(#loc)
  } loc(#loc225)
  func.func private @_one_hot(%arg0: tensor<5xi32> loc(unknown)) -> tensor<5x3xf32> {
    %0 = stablehlo.broadcast_in_dim %arg0, dims = [0] : (tensor<5xi32>) -> tensor<5x1xi32> loc(#loc117)
    %1 = stablehlo.iota dim = 1 : tensor<1x3xi32> loc(#loc123)
    %2 = stablehlo.broadcast_in_dim %0, dims = [0, 1] : (tensor<5x1xi32>) -> tensor<5x3xi32> loc(#loc124)
    %3 = stablehlo.broadcast_in_dim %1, dims = [0, 1] : (tensor<1x3xi32>) -> tensor<5x3xi32> loc(#loc124)
    %4 = stablehlo.compare EQ, %2, %3, SIGNED : (tensor<5x3xi32>, tensor<5x3xi32>) -> tensor<5x3xi1> loc(#loc124)
    %5 = stablehlo.convert %4 : (tensor<5x3xi1>) -> tensor<5x3xf32> loc(#loc97)
    return %5 : tensor<5x3xf32> loc(#loc)
  } loc(#loc589)
  func.func private @_where(%arg0: tensor<i1> loc(unknown), %arg1: tensor<15xf32> loc(unknown), %arg2: tensor<f32> loc(unknown)) -> tensor<15xf32> {
    %0 = stablehlo.convert %arg2 : tensor<f32> loc(#loc97)
    %1 = stablehlo.broadcast_in_dim %0, dims = [] : (tensor<f32>) -> tensor<15xf32> loc(#loc117)
    %2 = stablehlo.select %arg0, %arg1, %1 : tensor<i1>, tensor<15xf32> loc(#loc108)
    return %2 : tensor<15xf32> loc(#loc)
  } loc(#loc590)
  func.func private @_threefry_fold_in(%arg0: tensor<2xui32> loc(unknown), %arg1: tensor<ui32> loc(unknown)) -> tensor<2xui32> {
    %c = stablehlo.constant dense<4294967295> : tensor<ui32> loc(#loc)
    %c_0 = stablehlo.constant dense<32> : tensor<ui32> loc(#loc)
    %0 = stablehlo.shift_right_logical %arg1, %c_0 : tensor<ui32> loc(#loc289)
    %1 = stablehlo.broadcast_in_dim %0, dims = [] : (tensor<ui32>) -> tensor<1xui32> loc(#loc290)
    %2 = stablehlo.and %arg1, %c : tensor<ui32> loc(#loc291)
    %3 = stablehlo.broadcast_in_dim %2, dims = [] : (tensor<ui32>) -> tensor<1xui32> loc(#loc290)
    %4 = stablehlo.concatenate %1, %3, dim = 0 : (tensor<1xui32>, tensor<1xui32>) -> tensor<2xui32> loc(#loc292)
    %5 = stablehlo.slice %arg0 [0:1] : (tensor<2xui32>) -> tensor<1xui32> loc(#loc293)
    %6 = stablehlo.reshape %5 : (tensor<1xui32>) -> tensor<ui32> loc(#loc294)
    %7 = stablehlo.slice %arg0 [1:2] : (tensor<2xui32>) -> tensor<1xui32> loc(#loc293)
    %8 = stablehlo.reshape %7 : (tensor<1xui32>) -> tensor<ui32> loc(#loc294)
    %9 = stablehlo.slice %4 [0:1] : (tensor<2xui32>) -> tensor<1xui32> loc(#loc295)
    %10 = stablehlo.slice %4 [1:2] : (tensor<2xui32>) -> tensor<1xui32> loc(#loc295)
    %11:2 = call @threefry2x32_9(%6, %8, %9, %10) : (tensor<ui32>, tensor<ui32>, tensor<1xui32>, tensor<1xui32>) -> (tensor<1xui32>, tensor<1xui32>) loc(#loc247)
    %12 = stablehlo.concatenate %11#0, %11#1, dim = 0 : (tensor<1xui32>, tensor<1xui32>) -> tensor<2xui32> loc(#loc292)
    return %12 : tensor<2xui32> loc(#loc)
  } loc(#loc327)
  func.func private @threefry2x32_9(%arg0: tensor<ui32> loc(callsite(#loc165 at #loc229)), %arg1: tensor<ui32> loc(callsite(#loc165 at #loc229)), %arg2: tensor<1xui32> loc(callsite(#loc165 at #loc229)), %arg3: tensor<1xui32> loc(callsite(#loc165 at #loc229))) -> (tensor<1xui32>, tensor<1xui32>) {
    %c = stablehlo.constant dense<1> : tensor<i32> loc(#loc)
    %c_0 = stablehlo.constant dense<5> : tensor<i32> loc(#loc)
    %c_1 = stablehlo.constant dense<0> : tensor<i32> loc(#loc)
    %c_2 = stablehlo.constant dense<466688986> : tensor<ui32> loc(#loc220)
    %c_3 = stablehlo.constant dense<[13, 15, 26, 6]> : tensor<4xui32> loc(#loc220)
    %c_4 = stablehlo.constant dense<[17, 29, 16, 24]> : tensor<4xui32> loc(#loc220)
    %0 = stablehlo.xor %arg0, %arg1 : tensor<ui32> loc(#loc296)
    %1 = stablehlo.xor %0, %c_2 : tensor<ui32> loc(#loc296)
    %2 = stablehlo.broadcast_in_dim %arg0, dims = [] : (tensor<ui32>) -> tensor<1xui32> loc(#loc297)
    %3 = stablehlo.add %arg2, %2 : tensor<1xui32> loc(#loc297)
    %4 = stablehlo.broadcast_in_dim %arg1, dims = [] : (tensor<ui32>) -> tensor<1xui32> loc(#loc297)
    %5 = stablehlo.add %arg3, %4 : tensor<1xui32> loc(#loc297)
    %6:9 = stablehlo.while(%iterArg = %c_1, %iterArg_5 = %c_1, %iterArg_6 = %3, %iterArg_7 = %5, %iterArg_8 = %arg1, %iterArg_9 = %1, %iterArg_10 = %arg0, %iterArg_11 = %c_3, %iterArg_12 = %c_4) : tensor<i32>, tensor<i32>, tensor<1xui32>, tensor<1xui32>, tensor<ui32>, tensor<ui32>, tensor<ui32>, tensor<4xui32>, tensor<4xui32>
    cond {
      %7 = stablehlo.compare LT, %iterArg, %c_0, SIGNED : (tensor<i32>, tensor<i32>) -> tensor<i1> loc(#loc363)
      stablehlo.return %7 : tensor<i1> loc(#loc328)
    } do {
      %7:8 = func.call @closed_call_10(%iterArg_5, %iterArg_6, %iterArg_7, %iterArg_8, %iterArg_9, %iterArg_10, %iterArg_11, %iterArg_12) : (tensor<i32>, tensor<1xui32>, tensor<1xui32>, tensor<ui32>, tensor<ui32>, tensor<ui32>, tensor<4xui32>, tensor<4xui32>) -> (tensor<i32>, tensor<1xui32>, tensor<1xui32>, tensor<ui32>, tensor<ui32>, tensor<ui32>, tensor<4xui32>, tensor<4xui32>) loc(#loc364)
      %8 = stablehlo.add %iterArg, %c : tensor<i32> loc(#loc365)
      stablehlo.return %8, %7#0, %7#1, %7#2, %7#3, %7#4, %7#5, %7#6, %7#7 : tensor<i32>, tensor<i32>, tensor<1xui32>, tensor<1xui32>, tensor<ui32>, tensor<ui32>, tensor<ui32>, tensor<4xui32>, tensor<4xui32> loc(#loc328)
    } loc(#loc328)
    return %6#2, %6#3 : tensor<1xui32>, tensor<1xui32> loc(#loc247)
  } loc(#loc247)
  func.func private @closed_call_10(%arg0: tensor<i32> loc(unknown), %arg1: tensor<1xui32> loc(unknown), %arg2: tensor<1xui32> loc(unknown), %arg3: tensor<ui32> loc(unknown), %arg4: tensor<ui32> loc(unknown), %arg5: tensor<ui32> loc(unknown), %arg6: tensor<4xui32> loc(unknown), %arg7: tensor<4xui32> loc(unknown)) -> (tensor<i32>, tensor<1xui32>, tensor<1xui32>, tensor<ui32>, tensor<ui32>, tensor<ui32>, tensor<4xui32>, tensor<4xui32>) {
    %c = stablehlo.constant dense<32> : tensor<ui32> loc(#loc)
    %c_0 = stablehlo.constant dense<1> : tensor<i32> loc(#loc)
    %0 = stablehlo.add %arg0, %c_0 : tensor<i32> loc(#loc89)
    %1 = stablehlo.slice %arg6 [0:1] : (tensor<4xui32>) -> tensor<1xui32> loc(#loc90)
    %2 = stablehlo.reshape %1 : (tensor<1xui32>) -> tensor<ui32> loc(#loc91)
    %3 = stablehlo.add %arg1, %arg2 : tensor<1xui32> loc(#loc89)
    %4 = stablehlo.broadcast_in_dim %2, dims = [] : (tensor<ui32>) -> tensor<1xui32> loc(#loc92)
    %5 = stablehlo.shift_left %arg2, %4 : tensor<1xui32> loc(#loc92)
    %6 = stablehlo.subtract %c, %2 : tensor<ui32> loc(#loc93)
    %7 = stablehlo.broadcast_in_dim %6, dims = [] : (tensor<ui32>) -> tensor<1xui32> loc(#loc94)
    %8 = stablehlo.shift_right_logical %arg2, %7 : tensor<1xui32> loc(#loc94)
    %9 = stablehlo.or %5, %8 : tensor<1xui32> loc(#loc95)
    %10 = stablehlo.xor %3, %9 : tensor<1xui32> loc(#loc96)
    %11 = stablehlo.slice %arg6 [1:2] : (tensor<4xui32>) -> tensor<1xui32> loc(#loc90)
    %12 = stablehlo.reshape %11 : (tensor<1xui32>) -> tensor<ui32> loc(#loc91)
    %13 = stablehlo.add %3, %10 : tensor<1xui32> loc(#loc89)
    %14 = stablehlo.broadcast_in_dim %12, dims = [] : (tensor<ui32>) -> tensor<1xui32> loc(#loc92)
    %15 = stablehlo.shift_left %10, %14 : tensor<1xui32> loc(#loc92)
    %16 = stablehlo.subtract %c, %12 : tensor<ui32> loc(#loc93)
    %17 = stablehlo.broadcast_in_dim %16, dims = [] : (tensor<ui32>) -> tensor<1xui32> loc(#loc94)
    %18 = stablehlo.shift_right_logical %10, %17 : tensor<1xui32> loc(#loc94)
    %19 = stablehlo.or %15, %18 : tensor<1xui32> loc(#loc95)
    %20 = stablehlo.xor %13, %19 : tensor<1xui32> loc(#loc96)
    %21 = stablehlo.slice %arg6 [2:3] : (tensor<4xui32>) -> tensor<1xui32> loc(#loc90)
    %22 = stablehlo.reshape %21 : (tensor<1xui32>) -> tensor<ui32> loc(#loc91)
    %23 = stablehlo.add %13, %20 : tensor<1xui32> loc(#loc89)
    %24 = stablehlo.broadcast_in_dim %22, dims = [] : (tensor<ui32>) -> tensor<1xui32> loc(#loc92)
    %25 = stablehlo.shift_left %20, %24 : tensor<1xui32> loc(#loc92)
    %26 = stablehlo.subtract %c, %22 : tensor<ui32> loc(#loc93)
    %27 = stablehlo.broadcast_in_dim %26, dims = [] : (tensor<ui32>) -> tensor<1xui32> loc(#loc94)
    %28 = stablehlo.shift_right_logical %20, %27 : tensor<1xui32> loc(#loc94)
    %29 = stablehlo.or %25, %28 : tensor<1xui32> loc(#loc95)
    %30 = stablehlo.xor %23, %29 : tensor<1xui32> loc(#loc96)
    %31 = stablehlo.slice %arg6 [3:4] : (tensor<4xui32>) -> tensor<1xui32> loc(#loc90)
    %32 = stablehlo.reshape %31 : (tensor<1xui32>) -> tensor<ui32> loc(#loc91)
    %33 = stablehlo.add %23, %30 : tensor<1xui32> loc(#loc89)
    %34 = stablehlo.broadcast_in_dim %32, dims = [] : (tensor<ui32>) -> tensor<1xui32> loc(#loc92)
    %35 = stablehlo.shift_left %30, %34 : tensor<1xui32> loc(#loc92)
    %36 = stablehlo.subtract %c, %32 : tensor<ui32> loc(#loc93)
    %37 = stablehlo.broadcast_in_dim %36, dims = [] : (tensor<ui32>) -> tensor<1xui32> loc(#loc94)
    %38 = stablehlo.shift_right_logical %30, %37 : tensor<1xui32> loc(#loc94)
    %39 = stablehlo.or %35, %38 : tensor<1xui32> loc(#loc95)
    %40 = stablehlo.xor %33, %39 : tensor<1xui32> loc(#loc96)
    %41 = stablehlo.broadcast_in_dim %arg3, dims = [] : (tensor<ui32>) -> tensor<1xui32> loc(#loc89)
    %42 = stablehlo.add %33, %41 : tensor<1xui32> loc(#loc89)
    %43 = stablehlo.broadcast_in_dim %arg4, dims = [] : (tensor<ui32>) -> tensor<1xui32> loc(#loc89)
    %44 = stablehlo.add %40, %43 : tensor<1xui32> loc(#loc89)
    %45 = stablehlo.add %arg0, %c_0 : tensor<i32> loc(#loc89)
    %46 = stablehlo.convert %45 : (tensor<i32>) -> tensor<ui32> loc(#loc97)
    %47 = stablehlo.broadcast_in_dim %46, dims = [] : (tensor<ui32>) -> tensor<1xui32> loc(#loc89)
    %48 = stablehlo.add %44, %47 : tensor<1xui32> loc(#loc89)
    return %0, %42, %48, %arg4, %arg5, %arg3, %arg7, %arg6 : tensor<i32>, tensor<1xui32>, tensor<1xui32>, tensor<ui32>, tensor<ui32>, tensor<ui32>, tensor<4xui32>, tensor<4xui32> loc(#loc)
  } loc(#loc330)
  func.func private @_truncated_normal(%arg0: tensor<2xui32> loc(unknown), %arg1: tensor<i32> loc(unknown), %arg2: tensor<i32> loc(unknown)) -> tensor<15x32xf32> {
    %c = stablehlo.constant dense<-1> : tensor<i32> loc(#loc)
    %c_0 = stablehlo.constant dense<1> : tensor<i32> loc(#loc)
    %c_1 = stablehlo.constant dense<0> : tensor<i32> loc(#loc)
    %c_2 = stablehlo.constant dense<2147483647> : tensor<i32> loc(#loc)
    %c_3 = stablehlo.constant dense<-2147483648> : tensor<i32> loc(#loc)
    %cst = stablehlo.constant dense<0x7FC00000> : tensor<f32> loc(#loc)
    %cst_4 = stablehlo.constant dense<0x7F800000> : tensor<15x32xf32> loc(#loc125)
    %cst_5 = stablehlo.constant dense<1.000000e+00> : tensor<15x32xf32> loc(#loc125)
    %cst_6 = stablehlo.constant dense<2.83297682> : tensor<15x32xf32> loc(#loc125)
    %cst_7 = stablehlo.constant dense<1.50140941> : tensor<15x32xf32> loc(#loc125)
    %cst_8 = stablehlo.constant dense<1.00167406> : tensor<15x32xf32> loc(#loc125)
    %cst_9 = stablehlo.constant dense<0.246640727> : tensor<15x32xf32> loc(#loc125)
    %cst_10 = stablehlo.constant dense<0.00943887047> : tensor<15x32xf32> loc(#loc125)
    %cst_11 = stablehlo.constant dense<-0.00417768164> : tensor<15x32xf32> loc(#loc125)
    %cst_12 = stablehlo.constant dense<-0.0076224613> : tensor<15x32xf32> loc(#loc125)
    %cst_13 = stablehlo.constant dense<-0.00125372503> : tensor<15x32xf32> loc(#loc125)
    %cst_14 = stablehlo.constant dense<0.00573950773> : tensor<15x32xf32> loc(#loc125)
    %cst_15 = stablehlo.constant dense<2.1858087E-4> : tensor<15x32xf32> loc(#loc125)
    %cst_16 = stablehlo.constant dense<-0.00367342844> : tensor<15x32xf32> loc(#loc125)
    %cst_17 = stablehlo.constant dense<-4.39150654E-6> : tensor<15x32xf32> loc(#loc125)
    %cst_18 = stablehlo.constant dense<0.00134934322> : tensor<15x32xf32> loc(#loc125)
    %cst_19 = stablehlo.constant dense<-3.5233877E-6> : tensor<15x32xf32> loc(#loc125)
    %cst_20 = stablehlo.constant dense<1.00950558E-4> : tensor<15x32xf32> loc(#loc125)
    %cst_21 = stablehlo.constant dense<3.43273939E-7> : tensor<15x32xf32> loc(#loc125)
    %cst_22 = stablehlo.constant dense<-2.00214257E-4> : tensor<15x32xf32> loc(#loc125)
    %cst_23 = stablehlo.constant dense<2.81022636E-8> : tensor<15x32xf32> loc(#loc125)
    %cst_24 = stablehlo.constant dense<3.000000e+00> : tensor<15x32xf32> loc(#loc125)
    %cst_25 = stablehlo.constant dense<2.500000e+00> : tensor<15x32xf32> loc(#loc125)
    %cst_26 = stablehlo.constant dense<5.000000e+00> : tensor<15x32xf32> loc(#loc125)
    %cst_27 = stablehlo.constant dense<0xFF800000> : tensor<f32> loc(#loc)
    %cst_28 = stablehlo.constant dense<0x7F800000> : tensor<f32> loc(#loc)
    %cst_29 = stablehlo.constant dense<1.41421354> : tensor<f32> loc(#loc)
    %0 = stablehlo.convert %arg1 : (tensor<i32>) -> tensor<f32> loc(#loc97)
    %1 = stablehlo.convert %arg2 : (tensor<i32>) -> tensor<f32> loc(#loc97)
    %2 = stablehlo.divide %0, %cst_29 : tensor<f32> loc(#loc126)
    %3 = stablehlo.composite "chlo.erf" %2 {decomposition = @chlo.erf.impl_7, version = 1 : i32} : (tensor<f32>) -> tensor<f32> loc(#loc127)
    %4 = stablehlo.divide %1, %cst_29 : tensor<f32> loc(#loc126)
    %5 = stablehlo.composite "chlo.erf" %4 {decomposition = @chlo.erf.impl_8, version = 1 : i32} : (tensor<f32>) -> tensor<f32> loc(#loc127)
    %6 = call @_uniform(%arg0, %3, %5) : (tensor<2xui32>, tensor<f32>, tensor<f32>) -> tensor<15x32xf32> loc(#loc128)
    %7 = stablehlo.negate %6 : tensor<15x32xf32> loc(#loc125)
    %8 = stablehlo.multiply %6, %7 : tensor<15x32xf32> loc(#loc125)
    %9 = stablehlo.log_plus_one %8 : tensor<15x32xf32> loc(#loc125)
    %10 = stablehlo.negate %9 : tensor<15x32xf32> loc(#loc125)
    %11 = stablehlo.compare LT, %10, %cst_26 : (tensor<15x32xf32>, tensor<15x32xf32>) -> tensor<15x32xi1> loc(#loc125)
    %12 = stablehlo.subtract %10, %cst_25 : tensor<15x32xf32> loc(#loc125)
    %13 = stablehlo.sqrt %10 : tensor<15x32xf32> loc(#loc125)
    %14 = stablehlo.subtract %13, %cst_24 : tensor<15x32xf32> loc(#loc125)
    %15 = stablehlo.select %11, %12, %14 : tensor<15x32xi1>, tensor<15x32xf32> loc(#loc125)
    %16 = stablehlo.select %11, %cst_23, %cst_22 : tensor<15x32xi1>, tensor<15x32xf32> loc(#loc125)
    %17 = stablehlo.select %11, %cst_21, %cst_20 : tensor<15x32xi1>, tensor<15x32xf32> loc(#loc125)
    %18 = stablehlo.multiply %16, %15 : tensor<15x32xf32> loc(#loc125)
    %19 = stablehlo.add %17, %18 : tensor<15x32xf32> loc(#loc125)
    %20 = stablehlo.select %11, %cst_19, %cst_18 : tensor<15x32xi1>, tensor<15x32xf32> loc(#loc125)
    %21 = stablehlo.multiply %19, %15 : tensor<15x32xf32> loc(#loc125)
    %22 = stablehlo.add %20, %21 : tensor<15x32xf32> loc(#loc125)
    %23 = stablehlo.select %11, %cst_17, %cst_16 : tensor<15x32xi1>, tensor<15x32xf32> loc(#loc125)
    %24 = stablehlo.multiply %22, %15 : tensor<15x32xf32> loc(#loc125)
    %25 = stablehlo.add %23, %24 : tensor<15x32xf32> loc(#loc125)
    %26 = stablehlo.select %11, %cst_15, %cst_14 : tensor<15x32xi1>, tensor<15x32xf32> loc(#loc125)
    %27 = stablehlo.multiply %25, %15 : tensor<15x32xf32> loc(#loc125)
    %28 = stablehlo.add %26, %27 : tensor<15x32xf32> loc(#loc125)
    %29 = stablehlo.select %11, %cst_13, %cst_12 : tensor<15x32xi1>, tensor<15x32xf32> loc(#loc125)
    %30 = stablehlo.multiply %28, %15 : tensor<15x32xf32> loc(#loc125)
    %31 = stablehlo.add %29, %30 : tensor<15x32xf32> loc(#loc125)
    %32 = stablehlo.select %11, %cst_11, %cst_10 : tensor<15x32xi1>, tensor<15x32xf32> loc(#loc125)
    %33 = stablehlo.multiply %31, %15 : tensor<15x32xf32> loc(#loc125)
    %34 = stablehlo.add %32, %33 : tensor<15x32xf32> loc(#loc125)
    %35 = stablehlo.select %11, %cst_9, %cst_8 : tensor<15x32xi1>, tensor<15x32xf32> loc(#loc125)
    %36 = stablehlo.multiply %34, %15 : tensor<15x32xf32> loc(#loc125)
    %37 = stablehlo.add %35, %36 : tensor<15x32xf32> loc(#loc125)
    %38 = stablehlo.select %11, %cst_7, %cst_6 : tensor<15x32xi1>, tensor<15x32xf32> loc(#loc125)
    %39 = stablehlo.multiply %37, %15 : tensor<15x32xf32> loc(#loc125)
    %40 = stablehlo.add %38, %39 : tensor<15x32xf32> loc(#loc125)
    %41 = stablehlo.multiply %40, %6 : tensor<15x32xf32> loc(#loc125)
    %42 = stablehlo.abs %6 : tensor<15x32xf32> loc(#loc125)
    %43 = stablehlo.compare EQ, %42, %cst_5 : (tensor<15x32xf32>, tensor<15x32xf32>) -> tensor<15x32xi1> loc(#loc125)
    %44 = stablehlo.multiply %6, %cst_4 : tensor<15x32xf32> loc(#loc125)
    %45 = stablehlo.select %43, %44, %41 : tensor<15x32xi1>, tensor<15x32xf32> loc(#loc125)
    %46 = stablehlo.broadcast_in_dim %cst_29, dims = [] : (tensor<f32>) -> tensor<15x32xf32> loc(#loc111)
    %47 = stablehlo.multiply %46, %45 : tensor<15x32xf32> loc(#loc111)
    %48 = stablehlo.bitcast_convert %0 : (tensor<f32>) -> tensor<i32> loc(#loc129)
    %49 = stablehlo.bitcast_convert %cst_28 : (tensor<f32>) -> tensor<i32> loc(#loc129)
    %50 = stablehlo.compare NE, %0, %0 : (tensor<f32>, tensor<f32>) -> tensor<i1> loc(#loc129)
    %51 = stablehlo.compare NE, %cst_28, %cst_28 : (tensor<f32>, tensor<f32>) -> tensor<i1> loc(#loc129)
    %52 = stablehlo.or %50, %51 : tensor<i1> loc(#loc129)
    %53 = stablehlo.bitcast_convert %cst : (tensor<f32>) -> tensor<i32> loc(#loc129)
    %54 = stablehlo.and %48, %c_2 : tensor<i32> loc(#loc129)
    %55 = stablehlo.and %49, %c_2 : tensor<i32> loc(#loc129)
    %56 = stablehlo.compare EQ, %0, %cst_28 : (tensor<f32>, tensor<f32>) -> tensor<i1> loc(#loc129)
    %57 = stablehlo.compare EQ, %54, %c_1 : (tensor<i32>, tensor<i32>) -> tensor<i1> loc(#loc129)
    %58 = stablehlo.compare EQ, %55, %c_1 : (tensor<i32>, tensor<i32>) -> tensor<i1> loc(#loc129)
    %59 = stablehlo.and %48, %c_3 : tensor<i32> loc(#loc129)
    %60 = stablehlo.and %49, %c_3 : tensor<i32> loc(#loc129)
    %61 = stablehlo.or %60, %c_0 : tensor<i32> loc(#loc129)
    %62 = stablehlo.compare NE, %59, %60 : (tensor<i32>, tensor<i32>) -> tensor<i1> loc(#loc129)
    %63 = stablehlo.compare GT, %54, %55 : (tensor<i32>, tensor<i32>) -> tensor<i1> loc(#loc129)
    %64 = stablehlo.or %63, %62 : tensor<i1> loc(#loc129)
    %65 = stablehlo.select %64, %c, %c_0 : tensor<i1>, tensor<i32> loc(#loc129)
    %66 = stablehlo.add %48, %65 : tensor<i32> loc(#loc129)
    %67 = stablehlo.select %58, %49, %61 : tensor<i1>, tensor<i32> loc(#loc129)
    %68 = stablehlo.select %57, %67, %66 : tensor<i1>, tensor<i32> loc(#loc129)
    %69 = stablehlo.select %56, %49, %68 : tensor<i1>, tensor<i32> loc(#loc129)
    %70 = stablehlo.select %52, %53, %69 : tensor<i1>, tensor<i32> loc(#loc129)
    %71 = stablehlo.bitcast_convert %70 : (tensor<i32>) -> tensor<f32> loc(#loc129)
    %72 = stablehlo.bitcast_convert %1 : (tensor<f32>) -> tensor<i32> loc(#loc129)
    %73 = stablehlo.bitcast_convert %cst_27 : (tensor<f32>) -> tensor<i32> loc(#loc129)
    %74 = stablehlo.compare NE, %1, %1 : (tensor<f32>, tensor<f32>) -> tensor<i1> loc(#loc129)
    %75 = stablehlo.compare NE, %cst_27, %cst_27 : (tensor<f32>, tensor<f32>) -> tensor<i1> loc(#loc129)
    %76 = stablehlo.or %74, %75 : tensor<i1> loc(#loc129)
    %77 = stablehlo.bitcast_convert %cst : (tensor<f32>) -> tensor<i32> loc(#loc129)
    %78 = stablehlo.and %72, %c_2 : tensor<i32> loc(#loc129)
    %79 = stablehlo.and %73, %c_2 : tensor<i32> loc(#loc129)
    %80 = stablehlo.compare EQ, %1, %cst_27 : (tensor<f32>, tensor<f32>) -> tensor<i1> loc(#loc129)
    %81 = stablehlo.compare EQ, %78, %c_1 : (tensor<i32>, tensor<i32>) -> tensor<i1> loc(#loc129)
    %82 = stablehlo.compare EQ, %79, %c_1 : (tensor<i32>, tensor<i32>) -> tensor<i1> loc(#loc129)
    %83 = stablehlo.and %72, %c_3 : tensor<i32> loc(#loc129)
    %84 = stablehlo.and %73, %c_3 : tensor<i32> loc(#loc129)
    %85 = stablehlo.or %84, %c_0 : tensor<i32> loc(#loc129)
    %86 = stablehlo.compare NE, %83, %84 : (tensor<i32>, tensor<i32>) -> tensor<i1> loc(#loc129)
    %87 = stablehlo.compare GT, %78, %79 : (tensor<i32>, tensor<i32>) -> tensor<i1> loc(#loc129)
    %88 = stablehlo.or %87, %86 : tensor<i1> loc(#loc129)
    %89 = stablehlo.select %88, %c, %c_0 : tensor<i1>, tensor<i32> loc(#loc129)
    %90 = stablehlo.add %72, %89 : tensor<i32> loc(#loc129)
    %91 = stablehlo.select %82, %73, %85 : tensor<i1>, tensor<i32> loc(#loc129)
    %92 = stablehlo.select %81, %91, %90 : tensor<i1>, tensor<i32> loc(#loc129)
    %93 = stablehlo.select %80, %73, %92 : tensor<i1>, tensor<i32> loc(#loc129)
    %94 = stablehlo.select %76, %77, %93 : tensor<i1>, tensor<i32> loc(#loc129)
    %95 = stablehlo.bitcast_convert %94 : (tensor<i32>) -> tensor<f32> loc(#loc129)
    %96 = call @clip_13(%47, %71, %95) : (tensor<15x32xf32>, tensor<f32>, tensor<f32>) -> tensor<15x32xf32> loc(#loc100)
    return %96 : tensor<15x32xf32> loc(#loc)
  } loc(#loc397)
  func.func private @chlo.erf.impl_8(%arg0: tensor<f32> loc("erf")) -> tensor<f32> {
    %cst = stablehlo.constant dense<1.000000e+00> : tensor<f32> loc(#loc127)
    %cst_0 = stablehlo.constant dense<-1.000000e+00> : tensor<f32> loc(#loc127)
    %cst_1 = stablehlo.constant dense<-0.0142647391> : tensor<f32> loc(#loc127)
    %cst_2 = stablehlo.constant dense<-0.00737332925> : tensor<f32> loc(#loc127)
    %cst_3 = stablehlo.constant dense<-0.00168282702> : tensor<f32> loc(#loc127)
    %cst_4 = stablehlo.constant dense<-2.13374049E-4> : tensor<f32> loc(#loc127)
    %cst_5 = stablehlo.constant dense<-1.45660715E-5> : tensor<f32> loc(#loc127)
    %cst_6 = stablehlo.constant dense<-0.0160960332> : tensor<f32> loc(#loc127)
    %cst_7 = stablehlo.constant dense<-2.954600e-03> : tensor<f32> loc(#loc127)
    %cst_8 = stablehlo.constant dense<-7.34990637E-4> : tensor<f32> loc(#loc127)
    %cst_9 = stablehlo.constant dense<-5.69250624E-5> : tensor<f32> loc(#loc127)
    %cst_10 = stablehlo.constant dense<-2.10102394E-6> : tensor<f32> loc(#loc127)
    %cst_11 = stablehlo.constant dense<2.77068146E-8> : tensor<f32> loc(#loc127)
    %cst_12 = stablehlo.constant dense<-2.72614237E-10> : tensor<f32> loc(#loc127)
    %cst_13 = stablehlo.constant dense<-4.000000e+00> : tensor<f32> loc(#loc127)
    %cst_14 = stablehlo.constant dense<4.000000e+00> : tensor<f32> loc(#loc127)
    %0 = stablehlo.clamp %cst_13, %arg0, %cst_14 : tensor<f32> loc(#loc127)
    %1 = stablehlo.multiply %0, %0 : tensor<f32> loc(#loc127)
    %2 = stablehlo.multiply %cst_12, %1 : tensor<f32> loc(#loc127)
    %3 = stablehlo.add %2, %cst_11 : tensor<f32> loc(#loc127)
    %4 = stablehlo.multiply %3, %1 : tensor<f32> loc(#loc127)
    %5 = stablehlo.add %4, %cst_10 : tensor<f32> loc(#loc127)
    %6 = stablehlo.multiply %5, %1 : tensor<f32> loc(#loc127)
    %7 = stablehlo.add %6, %cst_9 : tensor<f32> loc(#loc127)
    %8 = stablehlo.multiply %7, %1 : tensor<f32> loc(#loc127)
    %9 = stablehlo.add %8, %cst_8 : tensor<f32> loc(#loc127)
    %10 = stablehlo.multiply %9, %1 : tensor<f32> loc(#loc127)
    %11 = stablehlo.add %10, %cst_7 : tensor<f32> loc(#loc127)
    %12 = stablehlo.multiply %11, %1 : tensor<f32> loc(#loc127)
    %13 = stablehlo.add %12, %cst_6 : tensor<f32> loc(#loc127)
    %14 = stablehlo.multiply %cst_5, %1 : tensor<f32> loc(#loc127)
    %15 = stablehlo.add %14, %cst_4 : tensor<f32> loc(#loc127)
    %16 = stablehlo.multiply %15, %1 : tensor<f32> loc(#loc127)
    %17 = stablehlo.add %16, %cst_3 : tensor<f32> loc(#loc127)
    %18 = stablehlo.multiply %17, %1 : tensor<f32> loc(#loc127)
    %19 = stablehlo.add %18, %cst_2 : tensor<f32> loc(#loc127)
    %20 = stablehlo.multiply %19, %1 : tensor<f32> loc(#loc127)
    %21 = stablehlo.add %20, %cst_1 : tensor<f32> loc(#loc127)
    %22 = stablehlo.multiply %0, %13 : tensor<f32> loc(#loc127)
    %23 = stablehlo.divide %22, %21 : tensor<f32> loc(#loc127)
    %24 = stablehlo.clamp %cst_0, %23, %cst : tensor<f32> loc(#loc127)
    return %24 : tensor<f32> loc(#loc127)
  } loc(#loc127)
  func.func private @chlo.erf.impl_7(%arg0: tensor<f32> loc("erf")) -> tensor<f32> {
    %cst = stablehlo.constant dense<1.000000e+00> : tensor<f32> loc(#loc127)
    %cst_0 = stablehlo.constant dense<-1.000000e+00> : tensor<f32> loc(#loc127)
    %cst_1 = stablehlo.constant dense<-0.0142647391> : tensor<f32> loc(#loc127)
    %cst_2 = stablehlo.constant dense<-0.00737332925> : tensor<f32> loc(#loc127)
    %cst_3 = stablehlo.constant dense<-0.00168282702> : tensor<f32> loc(#loc127)
    %cst_4 = stablehlo.constant dense<-2.13374049E-4> : tensor<f32> loc(#loc127)
    %cst_5 = stablehlo.constant dense<-1.45660715E-5> : tensor<f32> loc(#loc127)
    %cst_6 = stablehlo.constant dense<-0.0160960332> : tensor<f32> loc(#loc127)
    %cst_7 = stablehlo.constant dense<-2.954600e-03> : tensor<f32> loc(#loc127)
    %cst_8 = stablehlo.constant dense<-7.34990637E-4> : tensor<f32> loc(#loc127)
    %cst_9 = stablehlo.constant dense<-5.69250624E-5> : tensor<f32> loc(#loc127)
    %cst_10 = stablehlo.constant dense<-2.10102394E-6> : tensor<f32> loc(#loc127)
    %cst_11 = stablehlo.constant dense<2.77068146E-8> : tensor<f32> loc(#loc127)
    %cst_12 = stablehlo.constant dense<-2.72614237E-10> : tensor<f32> loc(#loc127)
    %cst_13 = stablehlo.constant dense<-4.000000e+00> : tensor<f32> loc(#loc127)
    %cst_14 = stablehlo.constant dense<4.000000e+00> : tensor<f32> loc(#loc127)
    %0 = stablehlo.clamp %cst_13, %arg0, %cst_14 : tensor<f32> loc(#loc127)
    %1 = stablehlo.multiply %0, %0 : tensor<f32> loc(#loc127)
    %2 = stablehlo.multiply %cst_12, %1 : tensor<f32> loc(#loc127)
    %3 = stablehlo.add %2, %cst_11 : tensor<f32> loc(#loc127)
    %4 = stablehlo.multiply %3, %1 : tensor<f32> loc(#loc127)
    %5 = stablehlo.add %4, %cst_10 : tensor<f32> loc(#loc127)
    %6 = stablehlo.multiply %5, %1 : tensor<f32> loc(#loc127)
    %7 = stablehlo.add %6, %cst_9 : tensor<f32> loc(#loc127)
    %8 = stablehlo.multiply %7, %1 : tensor<f32> loc(#loc127)
    %9 = stablehlo.add %8, %cst_8 : tensor<f32> loc(#loc127)
    %10 = stablehlo.multiply %9, %1 : tensor<f32> loc(#loc127)
    %11 = stablehlo.add %10, %cst_7 : tensor<f32> loc(#loc127)
    %12 = stablehlo.multiply %11, %1 : tensor<f32> loc(#loc127)
    %13 = stablehlo.add %12, %cst_6 : tensor<f32> loc(#loc127)
    %14 = stablehlo.multiply %cst_5, %1 : tensor<f32> loc(#loc127)
    %15 = stablehlo.add %14, %cst_4 : tensor<f32> loc(#loc127)
    %16 = stablehlo.multiply %15, %1 : tensor<f32> loc(#loc127)
    %17 = stablehlo.add %16, %cst_3 : tensor<f32> loc(#loc127)
    %18 = stablehlo.multiply %17, %1 : tensor<f32> loc(#loc127)
    %19 = stablehlo.add %18, %cst_2 : tensor<f32> loc(#loc127)
    %20 = stablehlo.multiply %19, %1 : tensor<f32> loc(#loc127)
    %21 = stablehlo.add %20, %cst_1 : tensor<f32> loc(#loc127)
    %22 = stablehlo.multiply %0, %13 : tensor<f32> loc(#loc127)
    %23 = stablehlo.divide %22, %21 : tensor<f32> loc(#loc127)
    %24 = stablehlo.clamp %cst_0, %23, %cst : tensor<f32> loc(#loc127)
    return %24 : tensor<f32> loc(#loc127)
  } loc(#loc127)
  func.func private @_uniform(%arg0: tensor<2xui32> loc(unknown), %arg1: tensor<f32> loc(unknown), %arg2: tensor<f32> loc(unknown)) -> tensor<15x32xf32> {
    %cst = stablehlo.constant dense<1.000000e+00> : tensor<f32> loc(#loc)
    %c = stablehlo.constant dense<1065353216> : tensor<ui32> loc(#loc)
    %c_0 = stablehlo.constant dense<9> : tensor<ui32> loc(#loc)
    %c_1 = stablehlo.constant dense<1> : tensor<ui64> loc(#loc116)
    %c_2 = stablehlo.constant dense<32> : tensor<ui64> loc(#loc)
    %0 = stablehlo.broadcast_in_dim %arg1, dims = [] : (tensor<f32>) -> tensor<1x1xf32> loc(#loc117)
    %1 = stablehlo.broadcast_in_dim %arg2, dims = [] : (tensor<f32>) -> tensor<1x1xf32> loc(#loc117)
    %2 = stablehlo.slice %arg0 [0:1] : (tensor<2xui32>) -> tensor<1xui32> loc(#loc90)
    %3 = stablehlo.reshape %2 : (tensor<1xui32>) -> tensor<ui32> loc(#loc91)
    %4 = stablehlo.slice %arg0 [1:2] : (tensor<2xui32>) -> tensor<1xui32> loc(#loc90)
    %5 = stablehlo.reshape %4 : (tensor<1xui32>) -> tensor<ui32> loc(#loc91)
    %6 = stablehlo.iota dim = 0 : tensor<15x32xui64> loc(#loc116)
    %7 = stablehlo.iota dim = 1 : tensor<15x32xui64> loc(#loc116)
    %8 = stablehlo.broadcast_in_dim %c_2, dims = [] : (tensor<ui64>) -> tensor<15x32xui64> loc(#loc116)
    %9 = stablehlo.multiply %8, %6 : tensor<15x32xui64> loc(#loc116)
    %10 = stablehlo.broadcast_in_dim %c_1, dims = [] : (tensor<ui64>) -> tensor<15x32xui64> loc(#loc116)
    %11 = stablehlo.multiply %10, %7 : tensor<15x32xui64> loc(#loc116)
    %12 = stablehlo.add %9, %11 : tensor<15x32xui64> loc(#loc116)
    %13 = stablehlo.broadcast_in_dim %c_2, dims = [] : (tensor<ui64>) -> tensor<15x32xui64> loc(#loc116)
    %14 = stablehlo.shift_right_logical %12, %13 : tensor<15x32xui64> loc(#loc116)
    %15 = stablehlo.convert %12 : (tensor<15x32xui64>) -> tensor<15x32xui32> loc(#loc116)
    %16 = stablehlo.convert %14 : (tensor<15x32xui64>) -> tensor<15x32xui32> loc(#loc116)
    %17:2 = call @threefry2x32_11(%3, %5, %16, %15) : (tensor<ui32>, tensor<ui32>, tensor<15x32xui32>, tensor<15x32xui32>) -> (tensor<15x32xui32>, tensor<15x32xui32>) loc(#loc130)
    %18 = stablehlo.xor %17#0, %17#1 : tensor<15x32xui32> loc(#loc96)
    %19 = stablehlo.broadcast_in_dim %c_0, dims = [] : (tensor<ui32>) -> tensor<15x32xui32> loc(#loc94)
    %20 = stablehlo.shift_right_logical %18, %19 : tensor<15x32xui32> loc(#loc94)
    %21 = stablehlo.broadcast_in_dim %c, dims = [] : (tensor<ui32>) -> tensor<15x32xui32> loc(#loc95)
    %22 = stablehlo.or %20, %21 : tensor<15x32xui32> loc(#loc95)
    %23 = stablehlo.bitcast_convert %22 : (tensor<15x32xui32>) -> tensor<15x32xf32> loc(#loc131)
    %24 = stablehlo.broadcast_in_dim %cst, dims = [] : (tensor<f32>) -> tensor<15x32xf32> loc(#loc93)
    %25 = stablehlo.subtract %23, %24 : tensor<15x32xf32> loc(#loc93)
    %26 = stablehlo.subtract %1, %0 : tensor<1x1xf32> loc(#loc93)
    %27 = stablehlo.broadcast_in_dim %26, dims = [0, 1] : (tensor<1x1xf32>) -> tensor<15x32xf32> loc(#loc111)
    %28 = stablehlo.multiply %25, %27 : tensor<15x32xf32> loc(#loc111)
    %29 = stablehlo.broadcast_in_dim %0, dims = [0, 1] : (tensor<1x1xf32>) -> tensor<15x32xf32> loc(#loc89)
    %30 = stablehlo.add %28, %29 : tensor<15x32xf32> loc(#loc89)
    %31 = stablehlo.broadcast_in_dim %0, dims = [0, 1] : (tensor<1x1xf32>) -> tensor<15x32xf32> loc(#loc113)
    %32 = stablehlo.maximum %31, %30 : tensor<15x32xf32> loc(#loc113)
    return %32 : tensor<15x32xf32> loc(#loc)
  } loc(#loc223)
  func.func private @threefry2x32_11(%arg0: tensor<ui32> loc(unknown), %arg1: tensor<ui32> loc(unknown), %arg2: tensor<15x32xui32> loc(unknown), %arg3: tensor<15x32xui32> loc(unknown)) -> (tensor<15x32xui32>, tensor<15x32xui32>) {
    %c = stablehlo.constant dense<1> : tensor<i32> loc(#loc)
    %c_0 = stablehlo.constant dense<5> : tensor<i32> loc(#loc)
    %c_1 = stablehlo.constant dense<0> : tensor<i32> loc(#loc)
    %c_2 = stablehlo.constant dense<466688986> : tensor<ui32> loc(#loc220)
    %c_3 = stablehlo.constant dense<[13, 15, 26, 6]> : tensor<4xui32> loc(#loc220)
    %c_4 = stablehlo.constant dense<[17, 29, 16, 24]> : tensor<4xui32> loc(#loc220)
    %0 = stablehlo.xor %arg0, %arg1 : tensor<ui32> loc(#loc96)
    %1 = stablehlo.xor %0, %c_2 : tensor<ui32> loc(#loc96)
    %2 = stablehlo.broadcast_in_dim %arg0, dims = [] : (tensor<ui32>) -> tensor<15x32xui32> loc(#loc89)
    %3 = stablehlo.add %arg2, %2 : tensor<15x32xui32> loc(#loc89)
    %4 = stablehlo.broadcast_in_dim %arg1, dims = [] : (tensor<ui32>) -> tensor<15x32xui32> loc(#loc89)
    %5 = stablehlo.add %arg3, %4 : tensor<15x32xui32> loc(#loc89)
    %6:9 = stablehlo.while(%iterArg = %c_1, %iterArg_5 = %c_1, %iterArg_6 = %3, %iterArg_7 = %5, %iterArg_8 = %arg1, %iterArg_9 = %1, %iterArg_10 = %arg0, %iterArg_11 = %c_3, %iterArg_12 = %c_4) : tensor<i32>, tensor<i32>, tensor<15x32xui32>, tensor<15x32xui32>, tensor<ui32>, tensor<ui32>, tensor<ui32>, tensor<4xui32>, tensor<4xui32>
    cond {
      %7 = stablehlo.compare LT, %iterArg, %c_0, SIGNED : (tensor<i32>, tensor<i32>) -> tensor<i1> loc(#loc120)
      stablehlo.return %7 : tensor<i1> loc(#loc119)
    } do {
      %7:8 = func.call @closed_call_12(%iterArg_5, %iterArg_6, %iterArg_7, %iterArg_8, %iterArg_9, %iterArg_10, %iterArg_11, %iterArg_12) : (tensor<i32>, tensor<15x32xui32>, tensor<15x32xui32>, tensor<ui32>, tensor<ui32>, tensor<ui32>, tensor<4xui32>, tensor<4xui32>) -> (tensor<i32>, tensor<15x32xui32>, tensor<15x32xui32>, tensor<ui32>, tensor<ui32>, tensor<ui32>, tensor<4xui32>, tensor<4xui32>) loc(#loc121)
      %8 = stablehlo.add %iterArg, %c : tensor<i32> loc(#loc122)
      stablehlo.return %8, %7#0, %7#1, %7#2, %7#3, %7#4, %7#5, %7#6, %7#7 : tensor<i32>, tensor<i32>, tensor<15x32xui32>, tensor<15x32xui32>, tensor<ui32>, tensor<ui32>, tensor<ui32>, tensor<4xui32>, tensor<4xui32> loc(#loc119)
    } loc(#loc119)
    return %6#2, %6#3 : tensor<15x32xui32>, tensor<15x32xui32> loc(#loc)
  } loc(#loc)
  func.func private @closed_call_12(%arg0: tensor<i32> loc(unknown), %arg1: tensor<15x32xui32> loc(unknown), %arg2: tensor<15x32xui32> loc(unknown), %arg3: tensor<ui32> loc(unknown), %arg4: tensor<ui32> loc(unknown), %arg5: tensor<ui32> loc(unknown), %arg6: tensor<4xui32> loc(unknown), %arg7: tensor<4xui32> loc(unknown)) -> (tensor<i32>, tensor<15x32xui32>, tensor<15x32xui32>, tensor<ui32>, tensor<ui32>, tensor<ui32>, tensor<4xui32>, tensor<4xui32>) {
    %c = stablehlo.constant dense<32> : tensor<ui32> loc(#loc)
    %c_0 = stablehlo.constant dense<1> : tensor<i32> loc(#loc)
    %0 = stablehlo.add %arg0, %c_0 : tensor<i32> loc(#loc89)
    %1 = stablehlo.slice %arg6 [0:1] : (tensor<4xui32>) -> tensor<1xui32> loc(#loc90)
    %2 = stablehlo.reshape %1 : (tensor<1xui32>) -> tensor<ui32> loc(#loc91)
    %3 = stablehlo.add %arg1, %arg2 : tensor<15x32xui32> loc(#loc89)
    %4 = stablehlo.broadcast_in_dim %2, dims = [] : (tensor<ui32>) -> tensor<15x32xui32> loc(#loc92)
    %5 = stablehlo.shift_left %arg2, %4 : tensor<15x32xui32> loc(#loc92)
    %6 = stablehlo.subtract %c, %2 : tensor<ui32> loc(#loc93)
    %7 = stablehlo.broadcast_in_dim %6, dims = [] : (tensor<ui32>) -> tensor<15x32xui32> loc(#loc94)
    %8 = stablehlo.shift_right_logical %arg2, %7 : tensor<15x32xui32> loc(#loc94)
    %9 = stablehlo.or %5, %8 : tensor<15x32xui32> loc(#loc95)
    %10 = stablehlo.xor %3, %9 : tensor<15x32xui32> loc(#loc96)
    %11 = stablehlo.slice %arg6 [1:2] : (tensor<4xui32>) -> tensor<1xui32> loc(#loc90)
    %12 = stablehlo.reshape %11 : (tensor<1xui32>) -> tensor<ui32> loc(#loc91)
    %13 = stablehlo.add %3, %10 : tensor<15x32xui32> loc(#loc89)
    %14 = stablehlo.broadcast_in_dim %12, dims = [] : (tensor<ui32>) -> tensor<15x32xui32> loc(#loc92)
    %15 = stablehlo.shift_left %10, %14 : tensor<15x32xui32> loc(#loc92)
    %16 = stablehlo.subtract %c, %12 : tensor<ui32> loc(#loc93)
    %17 = stablehlo.broadcast_in_dim %16, dims = [] : (tensor<ui32>) -> tensor<15x32xui32> loc(#loc94)
    %18 = stablehlo.shift_right_logical %10, %17 : tensor<15x32xui32> loc(#loc94)
    %19 = stablehlo.or %15, %18 : tensor<15x32xui32> loc(#loc95)
    %20 = stablehlo.xor %13, %19 : tensor<15x32xui32> loc(#loc96)
    %21 = stablehlo.slice %arg6 [2:3] : (tensor<4xui32>) -> tensor<1xui32> loc(#loc90)
    %22 = stablehlo.reshape %21 : (tensor<1xui32>) -> tensor<ui32> loc(#loc91)
    %23 = stablehlo.add %13, %20 : tensor<15x32xui32> loc(#loc89)
    %24 = stablehlo.broadcast_in_dim %22, dims = [] : (tensor<ui32>) -> tensor<15x32xui32> loc(#loc92)
    %25 = stablehlo.shift_left %20, %24 : tensor<15x32xui32> loc(#loc92)
    %26 = stablehlo.subtract %c, %22 : tensor<ui32> loc(#loc93)
    %27 = stablehlo.broadcast_in_dim %26, dims = [] : (tensor<ui32>) -> tensor<15x32xui32> loc(#loc94)
    %28 = stablehlo.shift_right_logical %20, %27 : tensor<15x32xui32> loc(#loc94)
    %29 = stablehlo.or %25, %28 : tensor<15x32xui32> loc(#loc95)
    %30 = stablehlo.xor %23, %29 : tensor<15x32xui32> loc(#loc96)
    %31 = stablehlo.slice %arg6 [3:4] : (tensor<4xui32>) -> tensor<1xui32> loc(#loc90)
    %32 = stablehlo.reshape %31 : (tensor<1xui32>) -> tensor<ui32> loc(#loc91)
    %33 = stablehlo.add %23, %30 : tensor<15x32xui32> loc(#loc89)
    %34 = stablehlo.broadcast_in_dim %32, dims = [] : (tensor<ui32>) -> tensor<15x32xui32> loc(#loc92)
    %35 = stablehlo.shift_left %30, %34 : tensor<15x32xui32> loc(#loc92)
    %36 = stablehlo.subtract %c, %32 : tensor<ui32> loc(#loc93)
    %37 = stablehlo.broadcast_in_dim %36, dims = [] : (tensor<ui32>) -> tensor<15x32xui32> loc(#loc94)
    %38 = stablehlo.shift_right_logical %30, %37 : tensor<15x32xui32> loc(#loc94)
    %39 = stablehlo.or %35, %38 : tensor<15x32xui32> loc(#loc95)
    %40 = stablehlo.xor %33, %39 : tensor<15x32xui32> loc(#loc96)
    %41 = stablehlo.broadcast_in_dim %arg3, dims = [] : (tensor<ui32>) -> tensor<15x32xui32> loc(#loc89)
    %42 = stablehlo.add %33, %41 : tensor<15x32xui32> loc(#loc89)
    %43 = stablehlo.broadcast_in_dim %arg4, dims = [] : (tensor<ui32>) -> tensor<15x32xui32> loc(#loc89)
    %44 = stablehlo.add %40, %43 : tensor<15x32xui32> loc(#loc89)
    %45 = stablehlo.add %arg0, %c_0 : tensor<i32> loc(#loc89)
    %46 = stablehlo.convert %45 : (tensor<i32>) -> tensor<ui32> loc(#loc97)
    %47 = stablehlo.broadcast_in_dim %46, dims = [] : (tensor<ui32>) -> tensor<15x32xui32> loc(#loc89)
    %48 = stablehlo.add %44, %47 : tensor<15x32xui32> loc(#loc89)
    return %0, %42, %48, %arg4, %arg5, %arg3, %arg7, %arg6 : tensor<i32>, tensor<15x32xui32>, tensor<15x32xui32>, tensor<ui32>, tensor<ui32>, tensor<ui32>, tensor<4xui32>, tensor<4xui32> loc(#loc)
  } loc(#loc225)
  func.func private @clip_13(%arg0: tensor<15x32xf32> loc(unknown), %arg1: tensor<f32> loc(unknown), %arg2: tensor<f32> loc(unknown)) -> tensor<15x32xf32> {
    %0 = stablehlo.broadcast_in_dim %arg1, dims = [] : (tensor<f32>) -> tensor<15x32xf32> loc(#loc113)
    %1 = stablehlo.maximum %0, %arg0 : tensor<15x32xf32> loc(#loc113)
    %2 = stablehlo.broadcast_in_dim %arg2, dims = [] : (tensor<f32>) -> tensor<15x32xf32> loc(#loc114)
    %3 = stablehlo.minimum %2, %1 : tensor<15x32xf32> loc(#loc114)
    return %3 : tensor<15x32xf32> loc(#loc)
  } loc(#loc223)
  func.func private @relu(%arg0: tensor<64x1x32xf32> loc(unknown)) -> tensor<64x1x32xf32> {
    %cst = stablehlo.constant dense<0.000000e+00> : tensor<f32> loc(#loc)
    %0 = stablehlo.broadcast_in_dim %cst, dims = [] : (tensor<f32>) -> tensor<64x1x32xf32> loc(#loc113)
    %1 = stablehlo.maximum %arg0, %0 : tensor<64x1x32xf32> loc(#loc113)
    return %1 : tensor<64x1x32xf32> loc(#loc)
  } loc(#loc223)
  func.func private @_one_hot_14(%arg0: tensor<64x1xi32> loc(unknown)) -> tensor<64x1x16xf32> {
    %0 = stablehlo.broadcast_in_dim %arg0, dims = [0, 1] : (tensor<64x1xi32>) -> tensor<64x1x1xi32> loc(#loc117)
    %1 = stablehlo.iota dim = 2 : tensor<1x1x16xi32> loc(#loc123)
    %2 = stablehlo.broadcast_in_dim %0, dims = [0, 1, 2] : (tensor<64x1x1xi32>) -> tensor<64x1x16xi32> loc(#loc124)
    %3 = stablehlo.broadcast_in_dim %1, dims = [0, 1, 2] : (tensor<1x1x16xi32>) -> tensor<64x1x16xi32> loc(#loc124)
    %4 = stablehlo.compare EQ, %2, %3, SIGNED : (tensor<64x1x16xi32>, tensor<64x1x16xi32>) -> tensor<64x1x16xi1> loc(#loc124)
    %5 = stablehlo.convert %4 : (tensor<64x1x16xi1>) -> tensor<64x1x16xf32> loc(#loc97)
    return %5 : tensor<64x1x16xf32> loc(#loc)
  } loc(#loc367)
  func.func private @_truncated_normal_15(%arg0: tensor<2xui32> loc(unknown), %arg1: tensor<i32> loc(unknown), %arg2: tensor<i32> loc(unknown)) -> tensor<48x32xf32> {
    %c = stablehlo.constant dense<-1> : tensor<i32> loc(#loc)
    %c_0 = stablehlo.constant dense<1> : tensor<i32> loc(#loc)
    %c_1 = stablehlo.constant dense<0> : tensor<i32> loc(#loc)
    %c_2 = stablehlo.constant dense<2147483647> : tensor<i32> loc(#loc)
    %c_3 = stablehlo.constant dense<-2147483648> : tensor<i32> loc(#loc)
    %cst = stablehlo.constant dense<0x7FC00000> : tensor<f32> loc(#loc)
    %cst_4 = stablehlo.constant dense<0x7F800000> : tensor<48x32xf32> loc(#loc125)
    %cst_5 = stablehlo.constant dense<1.000000e+00> : tensor<48x32xf32> loc(#loc125)
    %cst_6 = stablehlo.constant dense<2.83297682> : tensor<48x32xf32> loc(#loc125)
    %cst_7 = stablehlo.constant dense<1.50140941> : tensor<48x32xf32> loc(#loc125)
    %cst_8 = stablehlo.constant dense<1.00167406> : tensor<48x32xf32> loc(#loc125)
    %cst_9 = stablehlo.constant dense<0.246640727> : tensor<48x32xf32> loc(#loc125)
    %cst_10 = stablehlo.constant dense<0.00943887047> : tensor<48x32xf32> loc(#loc125)
    %cst_11 = stablehlo.constant dense<-0.00417768164> : tensor<48x32xf32> loc(#loc125)
    %cst_12 = stablehlo.constant dense<-0.0076224613> : tensor<48x32xf32> loc(#loc125)
    %cst_13 = stablehlo.constant dense<-0.00125372503> : tensor<48x32xf32> loc(#loc125)
    %cst_14 = stablehlo.constant dense<0.00573950773> : tensor<48x32xf32> loc(#loc125)
    %cst_15 = stablehlo.constant dense<2.1858087E-4> : tensor<48x32xf32> loc(#loc125)
    %cst_16 = stablehlo.constant dense<-0.00367342844> : tensor<48x32xf32> loc(#loc125)
    %cst_17 = stablehlo.constant dense<-4.39150654E-6> : tensor<48x32xf32> loc(#loc125)
    %cst_18 = stablehlo.constant dense<0.00134934322> : tensor<48x32xf32> loc(#loc125)
    %cst_19 = stablehlo.constant dense<-3.5233877E-6> : tensor<48x32xf32> loc(#loc125)
    %cst_20 = stablehlo.constant dense<1.00950558E-4> : tensor<48x32xf32> loc(#loc125)
    %cst_21 = stablehlo.constant dense<3.43273939E-7> : tensor<48x32xf32> loc(#loc125)
    %cst_22 = stablehlo.constant dense<-2.00214257E-4> : tensor<48x32xf32> loc(#loc125)
    %cst_23 = stablehlo.constant dense<2.81022636E-8> : tensor<48x32xf32> loc(#loc125)
    %cst_24 = stablehlo.constant dense<3.000000e+00> : tensor<48x32xf32> loc(#loc125)
    %cst_25 = stablehlo.constant dense<2.500000e+00> : tensor<48x32xf32> loc(#loc125)
    %cst_26 = stablehlo.constant dense<5.000000e+00> : tensor<48x32xf32> loc(#loc125)
    %cst_27 = stablehlo.constant dense<0xFF800000> : tensor<f32> loc(#loc)
    %cst_28 = stablehlo.constant dense<0x7F800000> : tensor<f32> loc(#loc)
    %cst_29 = stablehlo.constant dense<1.41421354> : tensor<f32> loc(#loc)
    %0 = stablehlo.convert %arg1 : (tensor<i32>) -> tensor<f32> loc(#loc97)
    %1 = stablehlo.convert %arg2 : (tensor<i32>) -> tensor<f32> loc(#loc97)
    %2 = stablehlo.divide %0, %cst_29 : tensor<f32> loc(#loc126)
    %3 = stablehlo.composite "chlo.erf" %2 {decomposition = @chlo.erf.impl_5, version = 1 : i32} : (tensor<f32>) -> tensor<f32> loc(#loc127)
    %4 = stablehlo.divide %1, %cst_29 : tensor<f32> loc(#loc126)
    %5 = stablehlo.composite "chlo.erf" %4 {decomposition = @chlo.erf.impl_6, version = 1 : i32} : (tensor<f32>) -> tensor<f32> loc(#loc127)
    %6 = call @_uniform_16(%arg0, %3, %5) : (tensor<2xui32>, tensor<f32>, tensor<f32>) -> tensor<48x32xf32> loc(#loc128)
    %7 = stablehlo.negate %6 : tensor<48x32xf32> loc(#loc125)
    %8 = stablehlo.multiply %6, %7 : tensor<48x32xf32> loc(#loc125)
    %9 = stablehlo.log_plus_one %8 : tensor<48x32xf32> loc(#loc125)
    %10 = stablehlo.negate %9 : tensor<48x32xf32> loc(#loc125)
    %11 = stablehlo.compare LT, %10, %cst_26 : (tensor<48x32xf32>, tensor<48x32xf32>) -> tensor<48x32xi1> loc(#loc125)
    %12 = stablehlo.subtract %10, %cst_25 : tensor<48x32xf32> loc(#loc125)
    %13 = stablehlo.sqrt %10 : tensor<48x32xf32> loc(#loc125)
    %14 = stablehlo.subtract %13, %cst_24 : tensor<48x32xf32> loc(#loc125)
    %15 = stablehlo.select %11, %12, %14 : tensor<48x32xi1>, tensor<48x32xf32> loc(#loc125)
    %16 = stablehlo.select %11, %cst_23, %cst_22 : tensor<48x32xi1>, tensor<48x32xf32> loc(#loc125)
    %17 = stablehlo.select %11, %cst_21, %cst_20 : tensor<48x32xi1>, tensor<48x32xf32> loc(#loc125)
    %18 = stablehlo.multiply %16, %15 : tensor<48x32xf32> loc(#loc125)
    %19 = stablehlo.add %17, %18 : tensor<48x32xf32> loc(#loc125)
    %20 = stablehlo.select %11, %cst_19, %cst_18 : tensor<48x32xi1>, tensor<48x32xf32> loc(#loc125)
    %21 = stablehlo.multiply %19, %15 : tensor<48x32xf32> loc(#loc125)
    %22 = stablehlo.add %20, %21 : tensor<48x32xf32> loc(#loc125)
    %23 = stablehlo.select %11, %cst_17, %cst_16 : tensor<48x32xi1>, tensor<48x32xf32> loc(#loc125)
    %24 = stablehlo.multiply %22, %15 : tensor<48x32xf32> loc(#loc125)
    %25 = stablehlo.add %23, %24 : tensor<48x32xf32> loc(#loc125)
    %26 = stablehlo.select %11, %cst_15, %cst_14 : tensor<48x32xi1>, tensor<48x32xf32> loc(#loc125)
    %27 = stablehlo.multiply %25, %15 : tensor<48x32xf32> loc(#loc125)
    %28 = stablehlo.add %26, %27 : tensor<48x32xf32> loc(#loc125)
    %29 = stablehlo.select %11, %cst_13, %cst_12 : tensor<48x32xi1>, tensor<48x32xf32> loc(#loc125)
    %30 = stablehlo.multiply %28, %15 : tensor<48x32xf32> loc(#loc125)
    %31 = stablehlo.add %29, %30 : tensor<48x32xf32> loc(#loc125)
    %32 = stablehlo.select %11, %cst_11, %cst_10 : tensor<48x32xi1>, tensor<48x32xf32> loc(#loc125)
    %33 = stablehlo.multiply %31, %15 : tensor<48x32xf32> loc(#loc125)
    %34 = stablehlo.add %32, %33 : tensor<48x32xf32> loc(#loc125)
    %35 = stablehlo.select %11, %cst_9, %cst_8 : tensor<48x32xi1>, tensor<48x32xf32> loc(#loc125)
    %36 = stablehlo.multiply %34, %15 : tensor<48x32xf32> loc(#loc125)
    %37 = stablehlo.add %35, %36 : tensor<48x32xf32> loc(#loc125)
    %38 = stablehlo.select %11, %cst_7, %cst_6 : tensor<48x32xi1>, tensor<48x32xf32> loc(#loc125)
    %39 = stablehlo.multiply %37, %15 : tensor<48x32xf32> loc(#loc125)
    %40 = stablehlo.add %38, %39 : tensor<48x32xf32> loc(#loc125)
    %41 = stablehlo.multiply %40, %6 : tensor<48x32xf32> loc(#loc125)
    %42 = stablehlo.abs %6 : tensor<48x32xf32> loc(#loc125)
    %43 = stablehlo.compare EQ, %42, %cst_5 : (tensor<48x32xf32>, tensor<48x32xf32>) -> tensor<48x32xi1> loc(#loc125)
    %44 = stablehlo.multiply %6, %cst_4 : tensor<48x32xf32> loc(#loc125)
    %45 = stablehlo.select %43, %44, %41 : tensor<48x32xi1>, tensor<48x32xf32> loc(#loc125)
    %46 = stablehlo.broadcast_in_dim %cst_29, dims = [] : (tensor<f32>) -> tensor<48x32xf32> loc(#loc111)
    %47 = stablehlo.multiply %46, %45 : tensor<48x32xf32> loc(#loc111)
    %48 = stablehlo.bitcast_convert %0 : (tensor<f32>) -> tensor<i32> loc(#loc129)
    %49 = stablehlo.bitcast_convert %cst_28 : (tensor<f32>) -> tensor<i32> loc(#loc129)
    %50 = stablehlo.compare NE, %0, %0 : (tensor<f32>, tensor<f32>) -> tensor<i1> loc(#loc129)
    %51 = stablehlo.compare NE, %cst_28, %cst_28 : (tensor<f32>, tensor<f32>) -> tensor<i1> loc(#loc129)
    %52 = stablehlo.or %50, %51 : tensor<i1> loc(#loc129)
    %53 = stablehlo.bitcast_convert %cst : (tensor<f32>) -> tensor<i32> loc(#loc129)
    %54 = stablehlo.and %48, %c_2 : tensor<i32> loc(#loc129)
    %55 = stablehlo.and %49, %c_2 : tensor<i32> loc(#loc129)
    %56 = stablehlo.compare EQ, %0, %cst_28 : (tensor<f32>, tensor<f32>) -> tensor<i1> loc(#loc129)
    %57 = stablehlo.compare EQ, %54, %c_1 : (tensor<i32>, tensor<i32>) -> tensor<i1> loc(#loc129)
    %58 = stablehlo.compare EQ, %55, %c_1 : (tensor<i32>, tensor<i32>) -> tensor<i1> loc(#loc129)
    %59 = stablehlo.and %48, %c_3 : tensor<i32> loc(#loc129)
    %60 = stablehlo.and %49, %c_3 : tensor<i32> loc(#loc129)
    %61 = stablehlo.or %60, %c_0 : tensor<i32> loc(#loc129)
    %62 = stablehlo.compare NE, %59, %60 : (tensor<i32>, tensor<i32>) -> tensor<i1> loc(#loc129)
    %63 = stablehlo.compare GT, %54, %55 : (tensor<i32>, tensor<i32>) -> tensor<i1> loc(#loc129)
    %64 = stablehlo.or %63, %62 : tensor<i1> loc(#loc129)
    %65 = stablehlo.select %64, %c, %c_0 : tensor<i1>, tensor<i32> loc(#loc129)
    %66 = stablehlo.add %48, %65 : tensor<i32> loc(#loc129)
    %67 = stablehlo.select %58, %49, %61 : tensor<i1>, tensor<i32> loc(#loc129)
    %68 = stablehlo.select %57, %67, %66 : tensor<i1>, tensor<i32> loc(#loc129)
    %69 = stablehlo.select %56, %49, %68 : tensor<i1>, tensor<i32> loc(#loc129)
    %70 = stablehlo.select %52, %53, %69 : tensor<i1>, tensor<i32> loc(#loc129)
    %71 = stablehlo.bitcast_convert %70 : (tensor<i32>) -> tensor<f32> loc(#loc129)
    %72 = stablehlo.bitcast_convert %1 : (tensor<f32>) -> tensor<i32> loc(#loc129)
    %73 = stablehlo.bitcast_convert %cst_27 : (tensor<f32>) -> tensor<i32> loc(#loc129)
    %74 = stablehlo.compare NE, %1, %1 : (tensor<f32>, tensor<f32>) -> tensor<i1> loc(#loc129)
    %75 = stablehlo.compare NE, %cst_27, %cst_27 : (tensor<f32>, tensor<f32>) -> tensor<i1> loc(#loc129)
    %76 = stablehlo.or %74, %75 : tensor<i1> loc(#loc129)
    %77 = stablehlo.bitcast_convert %cst : (tensor<f32>) -> tensor<i32> loc(#loc129)
    %78 = stablehlo.and %72, %c_2 : tensor<i32> loc(#loc129)
    %79 = stablehlo.and %73, %c_2 : tensor<i32> loc(#loc129)
    %80 = stablehlo.compare EQ, %1, %cst_27 : (tensor<f32>, tensor<f32>) -> tensor<i1> loc(#loc129)
    %81 = stablehlo.compare EQ, %78, %c_1 : (tensor<i32>, tensor<i32>) -> tensor<i1> loc(#loc129)
    %82 = stablehlo.compare EQ, %79, %c_1 : (tensor<i32>, tensor<i32>) -> tensor<i1> loc(#loc129)
    %83 = stablehlo.and %72, %c_3 : tensor<i32> loc(#loc129)
    %84 = stablehlo.and %73, %c_3 : tensor<i32> loc(#loc129)
    %85 = stablehlo.or %84, %c_0 : tensor<i32> loc(#loc129)
    %86 = stablehlo.compare NE, %83, %84 : (tensor<i32>, tensor<i32>) -> tensor<i1> loc(#loc129)
    %87 = stablehlo.compare GT, %78, %79 : (tensor<i32>, tensor<i32>) -> tensor<i1> loc(#loc129)
    %88 = stablehlo.or %87, %86 : tensor<i1> loc(#loc129)
    %89 = stablehlo.select %88, %c, %c_0 : tensor<i1>, tensor<i32> loc(#loc129)
    %90 = stablehlo.add %72, %89 : tensor<i32> loc(#loc129)
    %91 = stablehlo.select %82, %73, %85 : tensor<i1>, tensor<i32> loc(#loc129)
    %92 = stablehlo.select %81, %91, %90 : tensor<i1>, tensor<i32> loc(#loc129)
    %93 = stablehlo.select %80, %73, %92 : tensor<i1>, tensor<i32> loc(#loc129)
    %94 = stablehlo.select %76, %77, %93 : tensor<i1>, tensor<i32> loc(#loc129)
    %95 = stablehlo.bitcast_convert %94 : (tensor<i32>) -> tensor<f32> loc(#loc129)
    %96 = call @clip_19(%47, %71, %95) : (tensor<48x32xf32>, tensor<f32>, tensor<f32>) -> tensor<48x32xf32> loc(#loc100)
    return %96 : tensor<48x32xf32> loc(#loc)
  } loc(#loc591)
  func.func private @chlo.erf.impl_6(%arg0: tensor<f32> loc("erf")) -> tensor<f32> {
    %cst = stablehlo.constant dense<1.000000e+00> : tensor<f32> loc(#loc127)
    %cst_0 = stablehlo.constant dense<-1.000000e+00> : tensor<f32> loc(#loc127)
    %cst_1 = stablehlo.constant dense<-0.0142647391> : tensor<f32> loc(#loc127)
    %cst_2 = stablehlo.constant dense<-0.00737332925> : tensor<f32> loc(#loc127)
    %cst_3 = stablehlo.constant dense<-0.00168282702> : tensor<f32> loc(#loc127)
    %cst_4 = stablehlo.constant dense<-2.13374049E-4> : tensor<f32> loc(#loc127)
    %cst_5 = stablehlo.constant dense<-1.45660715E-5> : tensor<f32> loc(#loc127)
    %cst_6 = stablehlo.constant dense<-0.0160960332> : tensor<f32> loc(#loc127)
    %cst_7 = stablehlo.constant dense<-2.954600e-03> : tensor<f32> loc(#loc127)
    %cst_8 = stablehlo.constant dense<-7.34990637E-4> : tensor<f32> loc(#loc127)
    %cst_9 = stablehlo.constant dense<-5.69250624E-5> : tensor<f32> loc(#loc127)
    %cst_10 = stablehlo.constant dense<-2.10102394E-6> : tensor<f32> loc(#loc127)
    %cst_11 = stablehlo.constant dense<2.77068146E-8> : tensor<f32> loc(#loc127)
    %cst_12 = stablehlo.constant dense<-2.72614237E-10> : tensor<f32> loc(#loc127)
    %cst_13 = stablehlo.constant dense<-4.000000e+00> : tensor<f32> loc(#loc127)
    %cst_14 = stablehlo.constant dense<4.000000e+00> : tensor<f32> loc(#loc127)
    %0 = stablehlo.clamp %cst_13, %arg0, %cst_14 : tensor<f32> loc(#loc127)
    %1 = stablehlo.multiply %0, %0 : tensor<f32> loc(#loc127)
    %2 = stablehlo.multiply %cst_12, %1 : tensor<f32> loc(#loc127)
    %3 = stablehlo.add %2, %cst_11 : tensor<f32> loc(#loc127)
    %4 = stablehlo.multiply %3, %1 : tensor<f32> loc(#loc127)
    %5 = stablehlo.add %4, %cst_10 : tensor<f32> loc(#loc127)
    %6 = stablehlo.multiply %5, %1 : tensor<f32> loc(#loc127)
    %7 = stablehlo.add %6, %cst_9 : tensor<f32> loc(#loc127)
    %8 = stablehlo.multiply %7, %1 : tensor<f32> loc(#loc127)
    %9 = stablehlo.add %8, %cst_8 : tensor<f32> loc(#loc127)
    %10 = stablehlo.multiply %9, %1 : tensor<f32> loc(#loc127)
    %11 = stablehlo.add %10, %cst_7 : tensor<f32> loc(#loc127)
    %12 = stablehlo.multiply %11, %1 : tensor<f32> loc(#loc127)
    %13 = stablehlo.add %12, %cst_6 : tensor<f32> loc(#loc127)
    %14 = stablehlo.multiply %cst_5, %1 : tensor<f32> loc(#loc127)
    %15 = stablehlo.add %14, %cst_4 : tensor<f32> loc(#loc127)
    %16 = stablehlo.multiply %15, %1 : tensor<f32> loc(#loc127)
    %17 = stablehlo.add %16, %cst_3 : tensor<f32> loc(#loc127)
    %18 = stablehlo.multiply %17, %1 : tensor<f32> loc(#loc127)
    %19 = stablehlo.add %18, %cst_2 : tensor<f32> loc(#loc127)
    %20 = stablehlo.multiply %19, %1 : tensor<f32> loc(#loc127)
    %21 = stablehlo.add %20, %cst_1 : tensor<f32> loc(#loc127)
    %22 = stablehlo.multiply %0, %13 : tensor<f32> loc(#loc127)
    %23 = stablehlo.divide %22, %21 : tensor<f32> loc(#loc127)
    %24 = stablehlo.clamp %cst_0, %23, %cst : tensor<f32> loc(#loc127)
    return %24 : tensor<f32> loc(#loc127)
  } loc(#loc127)
  func.func private @chlo.erf.impl_5(%arg0: tensor<f32> loc("erf")) -> tensor<f32> {
    %cst = stablehlo.constant dense<1.000000e+00> : tensor<f32> loc(#loc127)
    %cst_0 = stablehlo.constant dense<-1.000000e+00> : tensor<f32> loc(#loc127)
    %cst_1 = stablehlo.constant dense<-0.0142647391> : tensor<f32> loc(#loc127)
    %cst_2 = stablehlo.constant dense<-0.00737332925> : tensor<f32> loc(#loc127)
    %cst_3 = stablehlo.constant dense<-0.00168282702> : tensor<f32> loc(#loc127)
    %cst_4 = stablehlo.constant dense<-2.13374049E-4> : tensor<f32> loc(#loc127)
    %cst_5 = stablehlo.constant dense<-1.45660715E-5> : tensor<f32> loc(#loc127)
    %cst_6 = stablehlo.constant dense<-0.0160960332> : tensor<f32> loc(#loc127)
    %cst_7 = stablehlo.constant dense<-2.954600e-03> : tensor<f32> loc(#loc127)
    %cst_8 = stablehlo.constant dense<-7.34990637E-4> : tensor<f32> loc(#loc127)
    %cst_9 = stablehlo.constant dense<-5.69250624E-5> : tensor<f32> loc(#loc127)
    %cst_10 = stablehlo.constant dense<-2.10102394E-6> : tensor<f32> loc(#loc127)
    %cst_11 = stablehlo.constant dense<2.77068146E-8> : tensor<f32> loc(#loc127)
    %cst_12 = stablehlo.constant dense<-2.72614237E-10> : tensor<f32> loc(#loc127)
    %cst_13 = stablehlo.constant dense<-4.000000e+00> : tensor<f32> loc(#loc127)
    %cst_14 = stablehlo.constant dense<4.000000e+00> : tensor<f32> loc(#loc127)
    %0 = stablehlo.clamp %cst_13, %arg0, %cst_14 : tensor<f32> loc(#loc127)
    %1 = stablehlo.multiply %0, %0 : tensor<f32> loc(#loc127)
    %2 = stablehlo.multiply %cst_12, %1 : tensor<f32> loc(#loc127)
    %3 = stablehlo.add %2, %cst_11 : tensor<f32> loc(#loc127)
    %4 = stablehlo.multiply %3, %1 : tensor<f32> loc(#loc127)
    %5 = stablehlo.add %4, %cst_10 : tensor<f32> loc(#loc127)
    %6 = stablehlo.multiply %5, %1 : tensor<f32> loc(#loc127)
    %7 = stablehlo.add %6, %cst_9 : tensor<f32> loc(#loc127)
    %8 = stablehlo.multiply %7, %1 : tensor<f32> loc(#loc127)
    %9 = stablehlo.add %8, %cst_8 : tensor<f32> loc(#loc127)
    %10 = stablehlo.multiply %9, %1 : tensor<f32> loc(#loc127)
    %11 = stablehlo.add %10, %cst_7 : tensor<f32> loc(#loc127)
    %12 = stablehlo.multiply %11, %1 : tensor<f32> loc(#loc127)
    %13 = stablehlo.add %12, %cst_6 : tensor<f32> loc(#loc127)
    %14 = stablehlo.multiply %cst_5, %1 : tensor<f32> loc(#loc127)
    %15 = stablehlo.add %14, %cst_4 : tensor<f32> loc(#loc127)
    %16 = stablehlo.multiply %15, %1 : tensor<f32> loc(#loc127)
    %17 = stablehlo.add %16, %cst_3 : tensor<f32> loc(#loc127)
    %18 = stablehlo.multiply %17, %1 : tensor<f32> loc(#loc127)
    %19 = stablehlo.add %18, %cst_2 : tensor<f32> loc(#loc127)
    %20 = stablehlo.multiply %19, %1 : tensor<f32> loc(#loc127)
    %21 = stablehlo.add %20, %cst_1 : tensor<f32> loc(#loc127)
    %22 = stablehlo.multiply %0, %13 : tensor<f32> loc(#loc127)
    %23 = stablehlo.divide %22, %21 : tensor<f32> loc(#loc127)
    %24 = stablehlo.clamp %cst_0, %23, %cst : tensor<f32> loc(#loc127)
    return %24 : tensor<f32> loc(#loc127)
  } loc(#loc127)
  func.func private @_uniform_16(%arg0: tensor<2xui32> loc(unknown), %arg1: tensor<f32> loc(unknown), %arg2: tensor<f32> loc(unknown)) -> tensor<48x32xf32> {
    %cst = stablehlo.constant dense<1.000000e+00> : tensor<f32> loc(#loc)
    %c = stablehlo.constant dense<1065353216> : tensor<ui32> loc(#loc)
    %c_0 = stablehlo.constant dense<9> : tensor<ui32> loc(#loc)
    %c_1 = stablehlo.constant dense<1> : tensor<ui64> loc(#loc116)
    %c_2 = stablehlo.constant dense<32> : tensor<ui64> loc(#loc)
    %0 = stablehlo.broadcast_in_dim %arg1, dims = [] : (tensor<f32>) -> tensor<1x1xf32> loc(#loc117)
    %1 = stablehlo.broadcast_in_dim %arg2, dims = [] : (tensor<f32>) -> tensor<1x1xf32> loc(#loc117)
    %2 = stablehlo.slice %arg0 [0:1] : (tensor<2xui32>) -> tensor<1xui32> loc(#loc90)
    %3 = stablehlo.reshape %2 : (tensor<1xui32>) -> tensor<ui32> loc(#loc91)
    %4 = stablehlo.slice %arg0 [1:2] : (tensor<2xui32>) -> tensor<1xui32> loc(#loc90)
    %5 = stablehlo.reshape %4 : (tensor<1xui32>) -> tensor<ui32> loc(#loc91)
    %6 = stablehlo.iota dim = 0 : tensor<48x32xui64> loc(#loc116)
    %7 = stablehlo.iota dim = 1 : tensor<48x32xui64> loc(#loc116)
    %8 = stablehlo.broadcast_in_dim %c_2, dims = [] : (tensor<ui64>) -> tensor<48x32xui64> loc(#loc116)
    %9 = stablehlo.multiply %8, %6 : tensor<48x32xui64> loc(#loc116)
    %10 = stablehlo.broadcast_in_dim %c_1, dims = [] : (tensor<ui64>) -> tensor<48x32xui64> loc(#loc116)
    %11 = stablehlo.multiply %10, %7 : tensor<48x32xui64> loc(#loc116)
    %12 = stablehlo.add %9, %11 : tensor<48x32xui64> loc(#loc116)
    %13 = stablehlo.broadcast_in_dim %c_2, dims = [] : (tensor<ui64>) -> tensor<48x32xui64> loc(#loc116)
    %14 = stablehlo.shift_right_logical %12, %13 : tensor<48x32xui64> loc(#loc116)
    %15 = stablehlo.convert %12 : (tensor<48x32xui64>) -> tensor<48x32xui32> loc(#loc116)
    %16 = stablehlo.convert %14 : (tensor<48x32xui64>) -> tensor<48x32xui32> loc(#loc116)
    %17:2 = call @threefry2x32_17(%3, %5, %16, %15) : (tensor<ui32>, tensor<ui32>, tensor<48x32xui32>, tensor<48x32xui32>) -> (tensor<48x32xui32>, tensor<48x32xui32>) loc(#loc130)
    %18 = stablehlo.xor %17#0, %17#1 : tensor<48x32xui32> loc(#loc96)
    %19 = stablehlo.broadcast_in_dim %c_0, dims = [] : (tensor<ui32>) -> tensor<48x32xui32> loc(#loc94)
    %20 = stablehlo.shift_right_logical %18, %19 : tensor<48x32xui32> loc(#loc94)
    %21 = stablehlo.broadcast_in_dim %c, dims = [] : (tensor<ui32>) -> tensor<48x32xui32> loc(#loc95)
    %22 = stablehlo.or %20, %21 : tensor<48x32xui32> loc(#loc95)
    %23 = stablehlo.bitcast_convert %22 : (tensor<48x32xui32>) -> tensor<48x32xf32> loc(#loc131)
    %24 = stablehlo.broadcast_in_dim %cst, dims = [] : (tensor<f32>) -> tensor<48x32xf32> loc(#loc93)
    %25 = stablehlo.subtract %23, %24 : tensor<48x32xf32> loc(#loc93)
    %26 = stablehlo.subtract %1, %0 : tensor<1x1xf32> loc(#loc93)
    %27 = stablehlo.broadcast_in_dim %26, dims = [0, 1] : (tensor<1x1xf32>) -> tensor<48x32xf32> loc(#loc111)
    %28 = stablehlo.multiply %25, %27 : tensor<48x32xf32> loc(#loc111)
    %29 = stablehlo.broadcast_in_dim %0, dims = [0, 1] : (tensor<1x1xf32>) -> tensor<48x32xf32> loc(#loc89)
    %30 = stablehlo.add %28, %29 : tensor<48x32xf32> loc(#loc89)
    %31 = stablehlo.broadcast_in_dim %0, dims = [0, 1] : (tensor<1x1xf32>) -> tensor<48x32xf32> loc(#loc113)
    %32 = stablehlo.maximum %31, %30 : tensor<48x32xf32> loc(#loc113)
    return %32 : tensor<48x32xf32> loc(#loc)
  } loc(#loc223)
  func.func private @threefry2x32_17(%arg0: tensor<ui32> loc(unknown), %arg1: tensor<ui32> loc(unknown), %arg2: tensor<48x32xui32> loc(unknown), %arg3: tensor<48x32xui32> loc(unknown)) -> (tensor<48x32xui32>, tensor<48x32xui32>) {
    %c = stablehlo.constant dense<1> : tensor<i32> loc(#loc)
    %c_0 = stablehlo.constant dense<5> : tensor<i32> loc(#loc)
    %c_1 = stablehlo.constant dense<0> : tensor<i32> loc(#loc)
    %c_2 = stablehlo.constant dense<466688986> : tensor<ui32> loc(#loc220)
    %c_3 = stablehlo.constant dense<[13, 15, 26, 6]> : tensor<4xui32> loc(#loc220)
    %c_4 = stablehlo.constant dense<[17, 29, 16, 24]> : tensor<4xui32> loc(#loc220)
    %0 = stablehlo.xor %arg0, %arg1 : tensor<ui32> loc(#loc96)
    %1 = stablehlo.xor %0, %c_2 : tensor<ui32> loc(#loc96)
    %2 = stablehlo.broadcast_in_dim %arg0, dims = [] : (tensor<ui32>) -> tensor<48x32xui32> loc(#loc89)
    %3 = stablehlo.add %arg2, %2 : tensor<48x32xui32> loc(#loc89)
    %4 = stablehlo.broadcast_in_dim %arg1, dims = [] : (tensor<ui32>) -> tensor<48x32xui32> loc(#loc89)
    %5 = stablehlo.add %arg3, %4 : tensor<48x32xui32> loc(#loc89)
    %6:9 = stablehlo.while(%iterArg = %c_1, %iterArg_5 = %c_1, %iterArg_6 = %3, %iterArg_7 = %5, %iterArg_8 = %arg1, %iterArg_9 = %1, %iterArg_10 = %arg0, %iterArg_11 = %c_3, %iterArg_12 = %c_4) : tensor<i32>, tensor<i32>, tensor<48x32xui32>, tensor<48x32xui32>, tensor<ui32>, tensor<ui32>, tensor<ui32>, tensor<4xui32>, tensor<4xui32>
    cond {
      %7 = stablehlo.compare LT, %iterArg, %c_0, SIGNED : (tensor<i32>, tensor<i32>) -> tensor<i1> loc(#loc120)
      stablehlo.return %7 : tensor<i1> loc(#loc119)
    } do {
      %7:8 = func.call @closed_call_18(%iterArg_5, %iterArg_6, %iterArg_7, %iterArg_8, %iterArg_9, %iterArg_10, %iterArg_11, %iterArg_12) : (tensor<i32>, tensor<48x32xui32>, tensor<48x32xui32>, tensor<ui32>, tensor<ui32>, tensor<ui32>, tensor<4xui32>, tensor<4xui32>) -> (tensor<i32>, tensor<48x32xui32>, tensor<48x32xui32>, tensor<ui32>, tensor<ui32>, tensor<ui32>, tensor<4xui32>, tensor<4xui32>) loc(#loc121)
      %8 = stablehlo.add %iterArg, %c : tensor<i32> loc(#loc122)
      stablehlo.return %8, %7#0, %7#1, %7#2, %7#3, %7#4, %7#5, %7#6, %7#7 : tensor<i32>, tensor<i32>, tensor<48x32xui32>, tensor<48x32xui32>, tensor<ui32>, tensor<ui32>, tensor<ui32>, tensor<4xui32>, tensor<4xui32> loc(#loc119)
    } loc(#loc119)
    return %6#2, %6#3 : tensor<48x32xui32>, tensor<48x32xui32> loc(#loc)
  } loc(#loc)
  func.func private @closed_call_18(%arg0: tensor<i32> loc(unknown), %arg1: tensor<48x32xui32> loc(unknown), %arg2: tensor<48x32xui32> loc(unknown), %arg3: tensor<ui32> loc(unknown), %arg4: tensor<ui32> loc(unknown), %arg5: tensor<ui32> loc(unknown), %arg6: tensor<4xui32> loc(unknown), %arg7: tensor<4xui32> loc(unknown)) -> (tensor<i32>, tensor<48x32xui32>, tensor<48x32xui32>, tensor<ui32>, tensor<ui32>, tensor<ui32>, tensor<4xui32>, tensor<4xui32>) {
    %c = stablehlo.constant dense<32> : tensor<ui32> loc(#loc)
    %c_0 = stablehlo.constant dense<1> : tensor<i32> loc(#loc)
    %0 = stablehlo.add %arg0, %c_0 : tensor<i32> loc(#loc89)
    %1 = stablehlo.slice %arg6 [0:1] : (tensor<4xui32>) -> tensor<1xui32> loc(#loc90)
    %2 = stablehlo.reshape %1 : (tensor<1xui32>) -> tensor<ui32> loc(#loc91)
    %3 = stablehlo.add %arg1, %arg2 : tensor<48x32xui32> loc(#loc89)
    %4 = stablehlo.broadcast_in_dim %2, dims = [] : (tensor<ui32>) -> tensor<48x32xui32> loc(#loc92)
    %5 = stablehlo.shift_left %arg2, %4 : tensor<48x32xui32> loc(#loc92)
    %6 = stablehlo.subtract %c, %2 : tensor<ui32> loc(#loc93)
    %7 = stablehlo.broadcast_in_dim %6, dims = [] : (tensor<ui32>) -> tensor<48x32xui32> loc(#loc94)
    %8 = stablehlo.shift_right_logical %arg2, %7 : tensor<48x32xui32> loc(#loc94)
    %9 = stablehlo.or %5, %8 : tensor<48x32xui32> loc(#loc95)
    %10 = stablehlo.xor %3, %9 : tensor<48x32xui32> loc(#loc96)
    %11 = stablehlo.slice %arg6 [1:2] : (tensor<4xui32>) -> tensor<1xui32> loc(#loc90)
    %12 = stablehlo.reshape %11 : (tensor<1xui32>) -> tensor<ui32> loc(#loc91)
    %13 = stablehlo.add %3, %10 : tensor<48x32xui32> loc(#loc89)
    %14 = stablehlo.broadcast_in_dim %12, dims = [] : (tensor<ui32>) -> tensor<48x32xui32> loc(#loc92)
    %15 = stablehlo.shift_left %10, %14 : tensor<48x32xui32> loc(#loc92)
    %16 = stablehlo.subtract %c, %12 : tensor<ui32> loc(#loc93)
    %17 = stablehlo.broadcast_in_dim %16, dims = [] : (tensor<ui32>) -> tensor<48x32xui32> loc(#loc94)
    %18 = stablehlo.shift_right_logical %10, %17 : tensor<48x32xui32> loc(#loc94)
    %19 = stablehlo.or %15, %18 : tensor<48x32xui32> loc(#loc95)
    %20 = stablehlo.xor %13, %19 : tensor<48x32xui32> loc(#loc96)
    %21 = stablehlo.slice %arg6 [2:3] : (tensor<4xui32>) -> tensor<1xui32> loc(#loc90)
    %22 = stablehlo.reshape %21 : (tensor<1xui32>) -> tensor<ui32> loc(#loc91)
    %23 = stablehlo.add %13, %20 : tensor<48x32xui32> loc(#loc89)
    %24 = stablehlo.broadcast_in_dim %22, dims = [] : (tensor<ui32>) -> tensor<48x32xui32> loc(#loc92)
    %25 = stablehlo.shift_left %20, %24 : tensor<48x32xui32> loc(#loc92)
    %26 = stablehlo.subtract %c, %22 : tensor<ui32> loc(#loc93)
    %27 = stablehlo.broadcast_in_dim %26, dims = [] : (tensor<ui32>) -> tensor<48x32xui32> loc(#loc94)
    %28 = stablehlo.shift_right_logical %20, %27 : tensor<48x32xui32> loc(#loc94)
    %29 = stablehlo.or %25, %28 : tensor<48x32xui32> loc(#loc95)
    %30 = stablehlo.xor %23, %29 : tensor<48x32xui32> loc(#loc96)
    %31 = stablehlo.slice %arg6 [3:4] : (tensor<4xui32>) -> tensor<1xui32> loc(#loc90)
    %32 = stablehlo.reshape %31 : (tensor<1xui32>) -> tensor<ui32> loc(#loc91)
    %33 = stablehlo.add %23, %30 : tensor<48x32xui32> loc(#loc89)
    %34 = stablehlo.broadcast_in_dim %32, dims = [] : (tensor<ui32>) -> tensor<48x32xui32> loc(#loc92)
    %35 = stablehlo.shift_left %30, %34 : tensor<48x32xui32> loc(#loc92)
    %36 = stablehlo.subtract %c, %32 : tensor<ui32> loc(#loc93)
    %37 = stablehlo.broadcast_in_dim %36, dims = [] : (tensor<ui32>) -> tensor<48x32xui32> loc(#loc94)
    %38 = stablehlo.shift_right_logical %30, %37 : tensor<48x32xui32> loc(#loc94)
    %39 = stablehlo.or %35, %38 : tensor<48x32xui32> loc(#loc95)
    %40 = stablehlo.xor %33, %39 : tensor<48x32xui32> loc(#loc96)
    %41 = stablehlo.broadcast_in_dim %arg3, dims = [] : (tensor<ui32>) -> tensor<48x32xui32> loc(#loc89)
    %42 = stablehlo.add %33, %41 : tensor<48x32xui32> loc(#loc89)
    %43 = stablehlo.broadcast_in_dim %arg4, dims = [] : (tensor<ui32>) -> tensor<48x32xui32> loc(#loc89)
    %44 = stablehlo.add %40, %43 : tensor<48x32xui32> loc(#loc89)
    %45 = stablehlo.add %arg0, %c_0 : tensor<i32> loc(#loc89)
    %46 = stablehlo.convert %45 : (tensor<i32>) -> tensor<ui32> loc(#loc97)
    %47 = stablehlo.broadcast_in_dim %46, dims = [] : (tensor<ui32>) -> tensor<48x32xui32> loc(#loc89)
    %48 = stablehlo.add %44, %47 : tensor<48x32xui32> loc(#loc89)
    return %0, %42, %48, %arg4, %arg5, %arg3, %arg7, %arg6 : tensor<i32>, tensor<48x32xui32>, tensor<48x32xui32>, tensor<ui32>, tensor<ui32>, tensor<ui32>, tensor<4xui32>, tensor<4xui32> loc(#loc)
  } loc(#loc225)
  func.func private @clip_19(%arg0: tensor<48x32xf32> loc(unknown), %arg1: tensor<f32> loc(unknown), %arg2: tensor<f32> loc(unknown)) -> tensor<48x32xf32> {
    %0 = stablehlo.broadcast_in_dim %arg1, dims = [] : (tensor<f32>) -> tensor<48x32xf32> loc(#loc113)
    %1 = stablehlo.maximum %0, %arg0 : tensor<48x32xf32> loc(#loc113)
    %2 = stablehlo.broadcast_in_dim %arg2, dims = [] : (tensor<f32>) -> tensor<48x32xf32> loc(#loc114)
    %3 = stablehlo.minimum %2, %1 : tensor<48x32xf32> loc(#loc114)
    return %3 : tensor<48x32xf32> loc(#loc)
  } loc(#loc223)
  func.func private @_truncated_normal_20(%arg0: tensor<2xui32> loc(unknown), %arg1: tensor<i32> loc(unknown), %arg2: tensor<i32> loc(unknown)) -> tensor<32x32xf32> {
    %c = stablehlo.constant dense<-1> : tensor<i32> loc(#loc)
    %c_0 = stablehlo.constant dense<1> : tensor<i32> loc(#loc)
    %c_1 = stablehlo.constant dense<0> : tensor<i32> loc(#loc)
    %c_2 = stablehlo.constant dense<2147483647> : tensor<i32> loc(#loc)
    %c_3 = stablehlo.constant dense<-2147483648> : tensor<i32> loc(#loc)
    %cst = stablehlo.constant dense<0x7FC00000> : tensor<f32> loc(#loc)
    %cst_4 = stablehlo.constant dense<0x7F800000> : tensor<32x32xf32> loc(#loc125)
    %cst_5 = stablehlo.constant dense<1.000000e+00> : tensor<32x32xf32> loc(#loc125)
    %cst_6 = stablehlo.constant dense<2.83297682> : tensor<32x32xf32> loc(#loc125)
    %cst_7 = stablehlo.constant dense<1.50140941> : tensor<32x32xf32> loc(#loc125)
    %cst_8 = stablehlo.constant dense<1.00167406> : tensor<32x32xf32> loc(#loc125)
    %cst_9 = stablehlo.constant dense<0.246640727> : tensor<32x32xf32> loc(#loc125)
    %cst_10 = stablehlo.constant dense<0.00943887047> : tensor<32x32xf32> loc(#loc125)
    %cst_11 = stablehlo.constant dense<-0.00417768164> : tensor<32x32xf32> loc(#loc125)
    %cst_12 = stablehlo.constant dense<-0.0076224613> : tensor<32x32xf32> loc(#loc125)
    %cst_13 = stablehlo.constant dense<-0.00125372503> : tensor<32x32xf32> loc(#loc125)
    %cst_14 = stablehlo.constant dense<0.00573950773> : tensor<32x32xf32> loc(#loc125)
    %cst_15 = stablehlo.constant dense<2.1858087E-4> : tensor<32x32xf32> loc(#loc125)
    %cst_16 = stablehlo.constant dense<-0.00367342844> : tensor<32x32xf32> loc(#loc125)
    %cst_17 = stablehlo.constant dense<-4.39150654E-6> : tensor<32x32xf32> loc(#loc125)
    %cst_18 = stablehlo.constant dense<0.00134934322> : tensor<32x32xf32> loc(#loc125)
    %cst_19 = stablehlo.constant dense<-3.5233877E-6> : tensor<32x32xf32> loc(#loc125)
    %cst_20 = stablehlo.constant dense<1.00950558E-4> : tensor<32x32xf32> loc(#loc125)
    %cst_21 = stablehlo.constant dense<3.43273939E-7> : tensor<32x32xf32> loc(#loc125)
    %cst_22 = stablehlo.constant dense<-2.00214257E-4> : tensor<32x32xf32> loc(#loc125)
    %cst_23 = stablehlo.constant dense<2.81022636E-8> : tensor<32x32xf32> loc(#loc125)
    %cst_24 = stablehlo.constant dense<3.000000e+00> : tensor<32x32xf32> loc(#loc125)
    %cst_25 = stablehlo.constant dense<2.500000e+00> : tensor<32x32xf32> loc(#loc125)
    %cst_26 = stablehlo.constant dense<5.000000e+00> : tensor<32x32xf32> loc(#loc125)
    %cst_27 = stablehlo.constant dense<0xFF800000> : tensor<f32> loc(#loc)
    %cst_28 = stablehlo.constant dense<0x7F800000> : tensor<f32> loc(#loc)
    %cst_29 = stablehlo.constant dense<1.41421354> : tensor<f32> loc(#loc)
    %0 = stablehlo.convert %arg1 : (tensor<i32>) -> tensor<f32> loc(#loc97)
    %1 = stablehlo.convert %arg2 : (tensor<i32>) -> tensor<f32> loc(#loc97)
    %2 = stablehlo.divide %0, %cst_29 : tensor<f32> loc(#loc126)
    %3 = stablehlo.composite "chlo.erf" %2 {decomposition = @chlo.erf.impl_3, version = 1 : i32} : (tensor<f32>) -> tensor<f32> loc(#loc127)
    %4 = stablehlo.divide %1, %cst_29 : tensor<f32> loc(#loc126)
    %5 = stablehlo.composite "chlo.erf" %4 {decomposition = @chlo.erf.impl_4, version = 1 : i32} : (tensor<f32>) -> tensor<f32> loc(#loc127)
    %6 = call @_uniform_21(%arg0, %3, %5) : (tensor<2xui32>, tensor<f32>, tensor<f32>) -> tensor<32x32xf32> loc(#loc128)
    %7 = stablehlo.negate %6 : tensor<32x32xf32> loc(#loc125)
    %8 = stablehlo.multiply %6, %7 : tensor<32x32xf32> loc(#loc125)
    %9 = stablehlo.log_plus_one %8 : tensor<32x32xf32> loc(#loc125)
    %10 = stablehlo.negate %9 : tensor<32x32xf32> loc(#loc125)
    %11 = stablehlo.compare LT, %10, %cst_26 : (tensor<32x32xf32>, tensor<32x32xf32>) -> tensor<32x32xi1> loc(#loc125)
    %12 = stablehlo.subtract %10, %cst_25 : tensor<32x32xf32> loc(#loc125)
    %13 = stablehlo.sqrt %10 : tensor<32x32xf32> loc(#loc125)
    %14 = stablehlo.subtract %13, %cst_24 : tensor<32x32xf32> loc(#loc125)
    %15 = stablehlo.select %11, %12, %14 : tensor<32x32xi1>, tensor<32x32xf32> loc(#loc125)
    %16 = stablehlo.select %11, %cst_23, %cst_22 : tensor<32x32xi1>, tensor<32x32xf32> loc(#loc125)
    %17 = stablehlo.select %11, %cst_21, %cst_20 : tensor<32x32xi1>, tensor<32x32xf32> loc(#loc125)
    %18 = stablehlo.multiply %16, %15 : tensor<32x32xf32> loc(#loc125)
    %19 = stablehlo.add %17, %18 : tensor<32x32xf32> loc(#loc125)
    %20 = stablehlo.select %11, %cst_19, %cst_18 : tensor<32x32xi1>, tensor<32x32xf32> loc(#loc125)
    %21 = stablehlo.multiply %19, %15 : tensor<32x32xf32> loc(#loc125)
    %22 = stablehlo.add %20, %21 : tensor<32x32xf32> loc(#loc125)
    %23 = stablehlo.select %11, %cst_17, %cst_16 : tensor<32x32xi1>, tensor<32x32xf32> loc(#loc125)
    %24 = stablehlo.multiply %22, %15 : tensor<32x32xf32> loc(#loc125)
    %25 = stablehlo.add %23, %24 : tensor<32x32xf32> loc(#loc125)
    %26 = stablehlo.select %11, %cst_15, %cst_14 : tensor<32x32xi1>, tensor<32x32xf32> loc(#loc125)
    %27 = stablehlo.multiply %25, %15 : tensor<32x32xf32> loc(#loc125)
    %28 = stablehlo.add %26, %27 : tensor<32x32xf32> loc(#loc125)
    %29 = stablehlo.select %11, %cst_13, %cst_12 : tensor<32x32xi1>, tensor<32x32xf32> loc(#loc125)
    %30 = stablehlo.multiply %28, %15 : tensor<32x32xf32> loc(#loc125)
    %31 = stablehlo.add %29, %30 : tensor<32x32xf32> loc(#loc125)
    %32 = stablehlo.select %11, %cst_11, %cst_10 : tensor<32x32xi1>, tensor<32x32xf32> loc(#loc125)
    %33 = stablehlo.multiply %31, %15 : tensor<32x32xf32> loc(#loc125)
    %34 = stablehlo.add %32, %33 : tensor<32x32xf32> loc(#loc125)
    %35 = stablehlo.select %11, %cst_9, %cst_8 : tensor<32x32xi1>, tensor<32x32xf32> loc(#loc125)
    %36 = stablehlo.multiply %34, %15 : tensor<32x32xf32> loc(#loc125)
    %37 = stablehlo.add %35, %36 : tensor<32x32xf32> loc(#loc125)
    %38 = stablehlo.select %11, %cst_7, %cst_6 : tensor<32x32xi1>, tensor<32x32xf32> loc(#loc125)
    %39 = stablehlo.multiply %37, %15 : tensor<32x32xf32> loc(#loc125)
    %40 = stablehlo.add %38, %39 : tensor<32x32xf32> loc(#loc125)
    %41 = stablehlo.multiply %40, %6 : tensor<32x32xf32> loc(#loc125)
    %42 = stablehlo.abs %6 : tensor<32x32xf32> loc(#loc125)
    %43 = stablehlo.compare EQ, %42, %cst_5 : (tensor<32x32xf32>, tensor<32x32xf32>) -> tensor<32x32xi1> loc(#loc125)
    %44 = stablehlo.multiply %6, %cst_4 : tensor<32x32xf32> loc(#loc125)
    %45 = stablehlo.select %43, %44, %41 : tensor<32x32xi1>, tensor<32x32xf32> loc(#loc125)
    %46 = stablehlo.broadcast_in_dim %cst_29, dims = [] : (tensor<f32>) -> tensor<32x32xf32> loc(#loc111)
    %47 = stablehlo.multiply %46, %45 : tensor<32x32xf32> loc(#loc111)
    %48 = stablehlo.bitcast_convert %0 : (tensor<f32>) -> tensor<i32> loc(#loc129)
    %49 = stablehlo.bitcast_convert %cst_28 : (tensor<f32>) -> tensor<i32> loc(#loc129)
    %50 = stablehlo.compare NE, %0, %0 : (tensor<f32>, tensor<f32>) -> tensor<i1> loc(#loc129)
    %51 = stablehlo.compare NE, %cst_28, %cst_28 : (tensor<f32>, tensor<f32>) -> tensor<i1> loc(#loc129)
    %52 = stablehlo.or %50, %51 : tensor<i1> loc(#loc129)
    %53 = stablehlo.bitcast_convert %cst : (tensor<f32>) -> tensor<i32> loc(#loc129)
    %54 = stablehlo.and %48, %c_2 : tensor<i32> loc(#loc129)
    %55 = stablehlo.and %49, %c_2 : tensor<i32> loc(#loc129)
    %56 = stablehlo.compare EQ, %0, %cst_28 : (tensor<f32>, tensor<f32>) -> tensor<i1> loc(#loc129)
    %57 = stablehlo.compare EQ, %54, %c_1 : (tensor<i32>, tensor<i32>) -> tensor<i1> loc(#loc129)
    %58 = stablehlo.compare EQ, %55, %c_1 : (tensor<i32>, tensor<i32>) -> tensor<i1> loc(#loc129)
    %59 = stablehlo.and %48, %c_3 : tensor<i32> loc(#loc129)
    %60 = stablehlo.and %49, %c_3 : tensor<i32> loc(#loc129)
    %61 = stablehlo.or %60, %c_0 : tensor<i32> loc(#loc129)
    %62 = stablehlo.compare NE, %59, %60 : (tensor<i32>, tensor<i32>) -> tensor<i1> loc(#loc129)
    %63 = stablehlo.compare GT, %54, %55 : (tensor<i32>, tensor<i32>) -> tensor<i1> loc(#loc129)
    %64 = stablehlo.or %63, %62 : tensor<i1> loc(#loc129)
    %65 = stablehlo.select %64, %c, %c_0 : tensor<i1>, tensor<i32> loc(#loc129)
    %66 = stablehlo.add %48, %65 : tensor<i32> loc(#loc129)
…
    %cst_2 = stablehlo.constant dense<-0.00737332925> : tensor<f32> loc(#loc127)
    %cst_3 = stablehlo.constant dense<-0.00168282702> : tensor<f32> loc(#loc127)
    %cst_4 = stablehlo.constant dense<-2.13374049E-4> : tensor<f32> loc(#loc127)
    %cst_5 = stablehlo.constant dense<-1.45660715E-5> : tensor<f32> loc(#loc127)
    %cst_6 = stablehlo.constant dense<-0.0160960332> : tensor<f32> loc(#loc127)
    %cst_7 = stablehlo.constant dense<-2.954600e-03> : tensor<f32> loc(#loc127)
    %cst_8 = stablehlo.constant dense<-7.34990637E-4> : tensor<f32> loc(#loc127)
    %cst_9 = stablehlo.constant dense<-5.69250624E-5> : tensor<f32> loc(#loc127)
    %cst_10 = stablehlo.constant dense<-2.10102394E-6> : tensor<f32> loc(#loc127)
    %cst_11 = stablehlo.constant dense<2.77068146E-8> : tensor<f32> loc(#loc127)
    %cst_12 = stablehlo.constant dense<-2.72614237E-10> : tensor<f32> loc(#loc127)
    %cst_13 = stablehlo.constant dense<-4.000000e+00> : tensor<f32> loc(#loc127)
    %cst_14 = stablehlo.constant dense<4.000000e+00> : tensor<f32> loc(#loc127)
    %0 = stablehlo.clamp %cst_13, %arg0, %cst_14 : tensor<f32> loc(#loc127)
    %1 = stablehlo.multiply %0, %0 : tensor<f32> loc(#loc127)
    %2 = stablehlo.multiply %cst_12, %1 : tensor<f32> loc(#loc127)
    %3 = stablehlo.add %2, %cst_11 : tensor<f32> loc(#loc127)
    %4 = stablehlo.multiply %3, %1 : tensor<f32> loc(#loc127)
    %5 = stablehlo.add %4, %cst_10 : tensor<f32> loc(#loc127)
    %6 = stablehlo.multiply %5, %1 : tensor<f32> loc(#loc127)
    %7 = stablehlo.add %6, %cst_9 : tensor<f32> loc(#loc127)
    %8 = stablehlo.multiply %7, %1 : tensor<f32> loc(#loc127)
    %9 = stablehlo.add %8, %cst_8 : tensor<f32> loc(#loc127)
    %10 = stablehlo.multiply %9, %1 : tensor<f32> loc(#loc127)
    %11 = stablehlo.add %10, %cst_7 : tensor<f32> loc(#loc127)
    %12 = stablehlo.multiply %11, %1 : tensor<f32> loc(#loc127)
    %13 = stablehlo.add %12, %cst_6 : tensor<f32> loc(#loc127)
    %14 = stablehlo.multiply %cst_5, %1 : tensor<f32> loc(#loc127)
    %15 = stablehlo.add %14, %cst_4 : tensor<f32> loc(#loc127)
    %16 = stablehlo.multiply %15, %1 : tensor<f32> loc(#loc127)
    %17 = stablehlo.add %16, %cst_3 : tensor<f32> loc(#loc127)
    %18 = stablehlo.multiply %17, %1 : tensor<f32> loc(#loc127)
    %19 = stablehlo.add %18, %cst_2 : tensor<f32> loc(#loc127)
    %20 = stablehlo.multiply %19, %1 : tensor<f32> loc(#loc127)
    %21 = stablehlo.add %20, %cst_1 : tensor<f32> loc(#loc127)
    %22 = stablehlo.multiply %0, %13 : tensor<f32> loc(#loc127)
    %23 = stablehlo.divide %22, %21 : tensor<f32> loc(#loc127)
    %24 = stablehlo.clamp %cst_0, %23, %cst : tensor<f32> loc(#loc127)
    return %24 : tensor<f32> loc(#loc127)
  } loc(#loc127)
  func.func private @_uniform_34(%arg0: tensor<2xui32> loc(unknown), %arg1: tensor<f32> loc(unknown), %arg2: tensor<f32> loc(unknown)) -> tensor<32x1xf32> {
    %cst = stablehlo.constant dense<1.000000e+00> : tensor<f32> loc(#loc)
    %c = stablehlo.constant dense<1065353216> : tensor<ui32> loc(#loc)
    %c_0 = stablehlo.constant dense<9> : tensor<ui32> loc(#loc)
    %c_1 = stablehlo.constant dense<32> : tensor<ui64> loc(#loc116)
    %c_2 = stablehlo.constant dense<1> : tensor<ui64> loc(#loc)
    %0 = stablehlo.broadcast_in_dim %arg1, dims = [] : (tensor<f32>) -> tensor<1x1xf32> loc(#loc117)
    %1 = stablehlo.broadcast_in_dim %arg2, dims = [] : (tensor<f32>) -> tensor<1x1xf32> loc(#loc117)
    %2 = stablehlo.slice %arg0 [0:1] : (tensor<2xui32>) -> tensor<1xui32> loc(#loc90)
    %3 = stablehlo.reshape %2 : (tensor<1xui32>) -> tensor<ui32> loc(#loc91)
    %4 = stablehlo.slice %arg0 [1:2] : (tensor<2xui32>) -> tensor<1xui32> loc(#loc90)
    %5 = stablehlo.reshape %4 : (tensor<1xui32>) -> tensor<ui32> loc(#loc91)
    %6 = stablehlo.iota dim = 0 : tensor<32x1xui64> loc(#loc116)
    %7 = stablehlo.iota dim = 1 : tensor<32x1xui64> loc(#loc116)
    %8 = stablehlo.broadcast_in_dim %c_2, dims = [] : (tensor<ui64>) -> tensor<32x1xui64> loc(#loc116)
    %9 = stablehlo.multiply %8, %6 : tensor<32x1xui64> loc(#loc116)
    %10 = stablehlo.broadcast_in_dim %c_2, dims = [] : (tensor<ui64>) -> tensor<32x1xui64> loc(#loc116)
    %11 = stablehlo.multiply %10, %7 : tensor<32x1xui64> loc(#loc116)
    %12 = stablehlo.add %9, %11 : tensor<32x1xui64> loc(#loc116)
    %13 = stablehlo.broadcast_in_dim %c_1, dims = [] : (tensor<ui64>) -> tensor<32x1xui64> loc(#loc116)
    %14 = stablehlo.shift_right_logical %12, %13 : tensor<32x1xui64> loc(#loc116)
    %15 = stablehlo.convert %12 : (tensor<32x1xui64>) -> tensor<32x1xui32> loc(#loc116)
    %16 = stablehlo.convert %14 : (tensor<32x1xui64>) -> tensor<32x1xui32> loc(#loc116)
    %17:2 = call @threefry2x32_35(%3, %5, %16, %15) : (tensor<ui32>, tensor<ui32>, tensor<32x1xui32>, tensor<32x1xui32>) -> (tensor<32x1xui32>, tensor<32x1xui32>) loc(#loc130)
    %18 = stablehlo.xor %17#0, %17#1 : tensor<32x1xui32> loc(#loc96)
    %19 = stablehlo.broadcast_in_dim %c_0, dims = [] : (tensor<ui32>) -> tensor<32x1xui32> loc(#loc94)
    %20 = stablehlo.shift_right_logical %18, %19 : tensor<32x1xui32> loc(#loc94)
    %21 = stablehlo.broadcast_in_dim %c, dims = [] : (tensor<ui32>) -> tensor<32x1xui32> loc(#loc95)
    %22 = stablehlo.or %20, %21 : tensor<32x1xui32> loc(#loc95)
    %23 = stablehlo.bitcast_convert %22 : (tensor<32x1xui32>) -> tensor<32x1xf32> loc(#loc131)
    %24 = stablehlo.broadcast_in_dim %cst, dims = [] : (tensor<f32>) -> tensor<32x1xf32> loc(#loc93)
    %25 = stablehlo.subtract %23, %24 : tensor<32x1xf32> loc(#loc93)
    %26 = stablehlo.subtract %1, %0 : tensor<1x1xf32> loc(#loc93)
    %27 = stablehlo.broadcast_in_dim %26, dims = [0, 1] : (tensor<1x1xf32>) -> tensor<32x1xf32> loc(#loc111)
    %28 = stablehlo.multiply %25, %27 : tensor<32x1xf32> loc(#loc111)
    %29 = stablehlo.broadcast_in_dim %0, dims = [0, 1] : (tensor<1x1xf32>) -> tensor<32x1xf32> loc(#loc89)
    %30 = stablehlo.add %28, %29 : tensor<32x1xf32> loc(#loc89)
    %31 = stablehlo.broadcast_in_dim %0, dims = [0, 1] : (tensor<1x1xf32>) -> tensor<32x1xf32> loc(#loc113)
    %32 = stablehlo.maximum %31, %30 : tensor<32x1xf32> loc(#loc113)
    return %32 : tensor<32x1xf32> loc(#loc)
  } loc(#loc223)
  func.func private @threefry2x32_35(%arg0: tensor<ui32> loc(unknown), %arg1: tensor<ui32> loc(unknown), %arg2: tensor<32x1xui32> loc(unknown), %arg3: tensor<32x1xui32> loc(unknown)) -> (tensor<32x1xui32>, tensor<32x1xui32>) {
    %c = stablehlo.constant dense<1> : tensor<i32> loc(#loc)
    %c_0 = stablehlo.constant dense<5> : tensor<i32> loc(#loc)
    %c_1 = stablehlo.constant dense<0> : tensor<i32> loc(#loc)
    %c_2 = stablehlo.constant dense<466688986> : tensor<ui32> loc(#loc220)
    %c_3 = stablehlo.constant dense<[13, 15, 26, 6]> : tensor<4xui32> loc(#loc220)
    %c_4 = stablehlo.constant dense<[17, 29, 16, 24]> : tensor<4xui32> loc(#loc220)
    %0 = stablehlo.xor %arg0, %arg1 : tensor<ui32> loc(#loc96)
    %1 = stablehlo.xor %0, %c_2 : tensor<ui32> loc(#loc96)
    %2 = stablehlo.broadcast_in_dim %arg0, dims = [] : (tensor<ui32>) -> tensor<32x1xui32> loc(#loc89)
    %3 = stablehlo.add %arg2, %2 : tensor<32x1xui32> loc(#loc89)
    %4 = stablehlo.broadcast_in_dim %arg1, dims = [] : (tensor<ui32>) -> tensor<32x1xui32> loc(#loc89)
    %5 = stablehlo.add %arg3, %4 : tensor<32x1xui32> loc(#loc89)
    %6:9 = stablehlo.while(%iterArg = %c_1, %iterArg_5 = %c_1, %iterArg_6 = %3, %iterArg_7 = %5, %iterArg_8 = %arg1, %iterArg_9 = %1, %iterArg_10 = %arg0, %iterArg_11 = %c_3, %iterArg_12 = %c_4) : tensor<i32>, tensor<i32>, tensor<32x1xui32>, tensor<32x1xui32>, tensor<ui32>, tensor<ui32>, tensor<ui32>, tensor<4xui32>, tensor<4xui32>
    cond {
      %7 = stablehlo.compare LT, %iterArg, %c_0, SIGNED : (tensor<i32>, tensor<i32>) -> tensor<i1> loc(#loc120)
      stablehlo.return %7 : tensor<i1> loc(#loc119)
    } do {
      %7:8 = func.call @closed_call_36(%iterArg_5, %iterArg_6, %iterArg_7, %iterArg_8, %iterArg_9, %iterArg_10, %iterArg_11, %iterArg_12) : (tensor<i32>, tensor<32x1xui32>, tensor<32x1xui32>, tensor<ui32>, tensor<ui32>, tensor<ui32>, tensor<4xui32>, tensor<4xui32>) -> (tensor<i32>, tensor<32x1xui32>, tensor<32x1xui32>, tensor<ui32>, tensor<ui32>, tensor<ui32>, tensor<4xui32>, tensor<4xui32>) loc(#loc121)
      %8 = stablehlo.add %iterArg, %c : tensor<i32> loc(#loc122)
      stablehlo.return %8, %7#0, %7#1, %7#2, %7#3, %7#4, %7#5, %7#6, %7#7 : tensor<i32>, tensor<i32>, tensor<32x1xui32>, tensor<32x1xui32>, tensor<ui32>, tensor<ui32>, tensor<ui32>, tensor<4xui32>, tensor<4xui32> loc(#loc119)
    } loc(#loc119)
    return %6#2, %6#3 : tensor<32x1xui32>, tensor<32x1xui32> loc(#loc)
  } loc(#loc)
  func.func private @closed_call_36(%arg0: tensor<i32> loc(unknown), %arg1: tensor<32x1xui32> loc(unknown), %arg2: tensor<32x1xui32> loc(unknown), %arg3: tensor<ui32> loc(unknown), %arg4: tensor<ui32> loc(unknown), %arg5: tensor<ui32> loc(unknown), %arg6: tensor<4xui32> loc(unknown), %arg7: tensor<4xui32> loc(unknown)) -> (tensor<i32>, tensor<32x1xui32>, tensor<32x1xui32>, tensor<ui32>, tensor<ui32>, tensor<ui32>, tensor<4xui32>, tensor<4xui32>) {
    %c = stablehlo.constant dense<32> : tensor<ui32> loc(#loc)
    %c_0 = stablehlo.constant dense<1> : tensor<i32> loc(#loc)
    %0 = stablehlo.add %arg0, %c_0 : tensor<i32> loc(#loc89)
    %1 = stablehlo.slice %arg6 [0:1] : (tensor<4xui32>) -> tensor<1xui32> loc(#loc90)
    %2 = stablehlo.reshape %1 : (tensor<1xui32>) -> tensor<ui32> loc(#loc91)
    %3 = stablehlo.add %arg1, %arg2 : tensor<32x1xui32> loc(#loc89)
    %4 = stablehlo.broadcast_in_dim %2, dims = [] : (tensor<ui32>) -> tensor<32x1xui32> loc(#loc92)
    %5 = stablehlo.shift_left %arg2, %4 : tensor<32x1xui32> loc(#loc92)
    %6 = stablehlo.subtract %c, %2 : tensor<ui32> loc(#loc93)
    %7 = stablehlo.broadcast_in_dim %6, dims = [] : (tensor<ui32>) -> tensor<32x1xui32> loc(#loc94)
    %8 = stablehlo.shift_right_logical %arg2, %7 : tensor<32x1xui32> loc(#loc94)
    %9 = stablehlo.or %5, %8 : tensor<32x1xui32> loc(#loc95)
    %10 = stablehlo.xor %3, %9 : tensor<32x1xui32> loc(#loc96)
    %11 = stablehlo.slice %arg6 [1:2] : (tensor<4xui32>) -> tensor<1xui32> loc(#loc90)
    %12 = stablehlo.reshape %11 : (tensor<1xui32>) -> tensor<ui32> loc(#loc91)
    %13 = stablehlo.add %3, %10 : tensor<32x1xui32> loc(#loc89)
    %14 = stablehlo.broadcast_in_dim %12, dims = [] : (tensor<ui32>) -> tensor<32x1xui32> loc(#loc92)
    %15 = stablehlo.shift_left %10, %14 : tensor<32x1xui32> loc(#loc92)
    %16 = stablehlo.subtract %c, %12 : tensor<ui32> loc(#loc93)
    %17 = stablehlo.broadcast_in_dim %16, dims = [] : (tensor<ui32>) -> tensor<32x1xui32> loc(#loc94)
    %18 = stablehlo.shift_right_logical %10, %17 : tensor<32x1xui32> loc(#loc94)
    %19 = stablehlo.or %15, %18 : tensor<32x1xui32> loc(#loc95)
    %20 = stablehlo.xor %13, %19 : tensor<32x1xui32> loc(#loc96)
    %21 = stablehlo.slice %arg6 [2:3] : (tensor<4xui32>) -> tensor<1xui32> loc(#loc90)
    %22 = stablehlo.reshape %21 : (tensor<1xui32>) -> tensor<ui32> loc(#loc91)
    %23 = stablehlo.add %13, %20 : tensor<32x1xui32> loc(#loc89)
    %24 = stablehlo.broadcast_in_dim %22, dims = [] : (tensor<ui32>) -> tensor<32x1xui32> loc(#loc92)
    %25 = stablehlo.shift_left %20, %24 : tensor<32x1xui32> loc(#loc92)
    %26 = stablehlo.subtract %c, %22 : tensor<ui32> loc(#loc93)
    %27 = stablehlo.broadcast_in_dim %26, dims = [] : (tensor<ui32>) -> tensor<32x1xui32> loc(#loc94)
    %28 = stablehlo.shift_right_logical %20, %27 : tensor<32x1xui32> loc(#loc94)
    %29 = stablehlo.or %25, %28 : tensor<32x1xui32> loc(#loc95)
    %30 = stablehlo.xor %23, %29 : tensor<32x1xui32> loc(#loc96)
    %31 = stablehlo.slice %arg6 [3:4] : (tensor<4xui32>) -> tensor<1xui32> loc(#loc90)
    %32 = stablehlo.reshape %31 : (tensor<1xui32>) -> tensor<ui32> loc(#loc91)
    %33 = stablehlo.add %23, %30 : tensor<32x1xui32> loc(#loc89)
    %34 = stablehlo.broadcast_in_dim %32, dims = [] : (tensor<ui32>) -> tensor<32x1xui32> loc(#loc92)
    %35 = stablehlo.shift_left %30, %34 : tensor<32x1xui32> loc(#loc92)
    %36 = stablehlo.subtract %c, %32 : tensor<ui32> loc(#loc93)
    %37 = stablehlo.broadcast_in_dim %36, dims = [] : (tensor<ui32>) -> tensor<32x1xui32> loc(#loc94)
    %38 = stablehlo.shift_right_logical %30, %37 : tensor<32x1xui32> loc(#loc94)
    %39 = stablehlo.or %35, %38 : tensor<32x1xui32> loc(#loc95)
    %40 = stablehlo.xor %33, %39 : tensor<32x1xui32> loc(#loc96)
    %41 = stablehlo.broadcast_in_dim %arg3, dims = [] : (tensor<ui32>) -> tensor<32x1xui32> loc(#loc89)
    %42 = stablehlo.add %33, %41 : tensor<32x1xui32> loc(#loc89)
    %43 = stablehlo.broadcast_in_dim %arg4, dims = [] : (tensor<ui32>) -> tensor<32x1xui32> loc(#loc89)
    %44 = stablehlo.add %40, %43 : tensor<32x1xui32> loc(#loc89)
    %45 = stablehlo.add %arg0, %c_0 : tensor<i32> loc(#loc89)
    %46 = stablehlo.convert %45 : (tensor<i32>) -> tensor<ui32> loc(#loc97)
    %47 = stablehlo.broadcast_in_dim %46, dims = [] : (tensor<ui32>) -> tensor<32x1xui32> loc(#loc89)
    %48 = stablehlo.add %44, %47 : tensor<32x1xui32> loc(#loc89)
    return %0, %42, %48, %arg4, %arg5, %arg3, %arg7, %arg6 : tensor<i32>, tensor<32x1xui32>, tensor<32x1xui32>, tensor<ui32>, tensor<ui32>, tensor<ui32>, tensor<4xui32>, tensor<4xui32> loc(#loc)
  } loc(#loc225)
  func.func private @clip_37(%arg0: tensor<32x1xf32> loc(unknown), %arg1: tensor<f32> loc(unknown), %arg2: tensor<f32> loc(unknown)) -> tensor<32x1xf32> {
    %0 = stablehlo.broadcast_in_dim %arg1, dims = [] : (tensor<f32>) -> tensor<32x1xf32> loc(#loc113)
    %1 = stablehlo.maximum %0, %arg0 : tensor<32x1xf32> loc(#loc113)
    %2 = stablehlo.broadcast_in_dim %arg2, dims = [] : (tensor<f32>) -> tensor<32x1xf32> loc(#loc114)
    %3 = stablehlo.minimum %2, %1 : tensor<32x1xf32> loc(#loc114)
    return %3 : tensor<32x1xf32> loc(#loc)
  } loc(#loc223)
} loc(#loc)
#loc2 = loc("/Users/noahfarr/noahfarr.github.io/tools/whlo/export_ppo_wordle.py":247:16 to :51)
#loc3 = loc("/Users/noahfarr/noahfarr.github.io/tools/whlo/export_ppo_wordle.py":263:4 to :10)
#loc5 = loc("/Users/noahfarr/reinforcement-learning/src/algorithms/algorithms/recurrent_ppo.py":298:8 to :47)
#loc6 = loc("/Users/noahfarr/reinforcement-learning/src/environments/environments/wrappers/vectorize.py":20:21 to :54)
#loc7 = loc("/Users/noahfarr/reinforcement-learning/src/algorithms/algorithms/recurrent_ppo.py":300:38 to 302:9)
#loc8 = loc("/Users/noahfarr/reinforcement-learning/src/environments/environments/wrappers/vectorize.py":21:15 to :57)
#loc9 = loc("/Users/noahfarr/reinforcement-learning/src/environments/environments/wordle.py":108:16 to :75)
#loc10 = loc("/Users/noahfarr/noahfarr.github.io/tools/whlo/export_ppo_wordle.py":93:26 to :53)
#loc11 = loc("/Users/noahfarr/reinforcement-learning/src/environments/environments/wrappers/wrapper.py":12:15 to :42)
#loc12 = loc("/Users/noahfarr/reinforcement-learning/src/environments/environments/wrappers/vectorize.py":22:15 to :80)
#loc13 = loc("/Users/noahfarr/reinforcement-learning/src/environments/environments/wordle.py":110:26 to :51)
#loc14 = loc("/Users/noahfarr/reinforcement-learning/src/environments/environments/wordle.py":111:27 to :60)
#loc15 = loc("/Users/noahfarr/reinforcement-learning/src/environments/environments/wordle.py":70:12 to :70)
#loc16 = loc("/Users/noahfarr/reinforcement-learning/src/environments/environments/wordle.py":120:16 to :30)
#loc17 = loc("/Users/noahfarr/reinforcement-learning/src/environments/environments/wordle.py":71:43 to :60)
#loc18 = loc("/Users/noahfarr/reinforcement-learning/src/environments/environments/wordle.py":71:11 to :66)
#loc19 = loc("/Users/noahfarr/noahfarr.github.io/tools/whlo/export_ppo_wordle.py":88:15 to :41)
#loc20 = loc("/Users/noahfarr/noahfarr.github.io/tools/whlo/export_ppo_wordle.py":94:22 to :68)
#loc21 = loc("/Users/noahfarr/reinforcement-learning/src/networks/networks/blocks/self_attention.py":149:17 to :72)
#loc22 = loc("/Users/noahfarr/reinforcement-learning/src/networks/networks/blocks/stack.py":25:21 to :61)
#loc23 = loc("/Users/noahfarr/reinforcement-learning/src/networks/networks/blocks/stack.py":25:15 to :87)
#loc24 = loc("/Users/noahfarr/noahfarr.github.io/tools/whlo/export_ppo_wordle.py":134:15 to :60)
#loc25 = loc("/Users/noahfarr/reinforcement-learning/src/algorithms/algorithms/recurrent_ppo.py":305:16 to :68)
#loc26 = loc("/Users/noahfarr/reinforcement-learning/src/networks/networks/blocks/self_attention.py":150:16 to 152:13)
#loc27 = loc("/Users/noahfarr/reinforcement-learning/src/networks/networks/blocks/self_attention.py":153:18 to 155:13)
#loc28 = loc("/Users/noahfarr/reinforcement-learning/src/utils/utils/axis.py":15:11 to :37)
#loc29 = loc("/Users/noahfarr/reinforcement-learning/src/utils/utils/timestep.py":22:15 to :48)
#loc30 = loc("/Users/noahfarr/reinforcement-learning/src/algorithms/algorithms/recurrent_ppo.py":306:19 to :41)
#loc31 = loc("/Users/noahfarr/reinforcement-learning/src/utils/utils/timestep.py":19:15 to :47)
#loc32 = loc("/Users/noahfarr/reinforcement-learning/src/algorithms/algorithms/recurrent_ppo.py":312:12 to :25)
#loc36 = loc("/Users/noahfarr/reinforcement-learning/.venv/lib/python3.13/site-packages/flax/linen/linear.py":270:13 to 272:7)
#loc37 = loc("/Users/noahfarr/reinforcement-learning/.venv/lib/python3.13/site-packages/flax/linen/linear.py":287:8 to 292:5)
#loc38 = loc("/Users/noahfarr/reinforcement-learning/.venv/lib/python3.13/site-packages/flax/linen/linear.py":294:11 to :57)
#loc39 = loc("/Users/noahfarr/reinforcement-learning/.venv/lib/python3.13/site-packages/flax/linen/linear.py":294:6 to :57)
#loc40 = loc("/Users/noahfarr/noahfarr.github.io/tools/whlo/export_ppo_wordle.py":121:16 to :78)
#loc41 = loc("/Users/noahfarr/noahfarr.github.io/tools/whlo/export_ppo_wordle.py":122:16 to :56)
#loc42 = loc("/Users/noahfarr/noahfarr.github.io/tools/whlo/export_ppo_wordle.py":119:19 to 125:9)
#loc43 = loc("/Users/noahfarr/reinforcement-learning/src/networks/networks/blocks/projection.py":21:12 to 27:12)
#loc44 = loc("/Users/noahfarr/reinforcement-learning/src/networks/networks/blocks/stack.py":18:29 to :56)
#loc45 = loc("/Users/noahfarr/reinforcement-learning/src/networks/networks/blocks/stack.py":21:15 to :74)
#loc46 = loc("/Users/noahfarr/noahfarr.github.io/tools/whlo/export_ppo_wordle.py":126:19 to :52)
#loc47 = loc("/Users/noahfarr/reinforcement-learning/src/networks/networks/blocks/projection.py":29:16 to :34)
#loc48 = loc("/Users/noahfarr/reinforcement-learning/.venv/lib/python3.13/site-packages/flax/linen/linear.py":164:13 to 166:5)
#loc49 = loc("/Users/noahfarr/reinforcement-learning/src/networks/networks/blocks/self_attention.py":96:16 to :80)
#loc50 = loc("/Users/noahfarr/reinforcement-learning/.venv/lib/python3.13/site-packages/flax/linen/linear.py":151:15 to :55)
#loc51 = loc("/Users/noahfarr/reinforcement-learning/.venv/lib/python3.13/site-packages/flax/linen/linear.py":154:13 to :39)
#loc52 = loc("/Users/noahfarr/reinforcement-learning/.venv/lib/python3.13/site-packages/flax/linen/linear.py":183:13 to 185:7)
#loc53 = loc("/Users/noahfarr/reinforcement-learning/.venv/lib/python3.13/site-packages/flax/linen/linear.py":178:15 to :53)
#loc54 = loc("/Users/noahfarr/reinforcement-learning/.venv/lib/python3.13/site-packages/flax/linen/linear.py":181:15 to :39)
#loc55 = loc("/Users/noahfarr/reinforcement-learning/.venv/lib/python3.13/site-packages/flax/linen/linear.py":199:10 to 204:5)
#loc56 = loc("/Users/noahfarr/reinforcement-learning/.venv/lib/python3.13/site-packages/flax/linen/linear.py":209:13 to :63)
#loc57 = loc("/Users/noahfarr/reinforcement-learning/.venv/lib/python3.13/site-packages/flax/linen/linear.py":210:6 to :17)
#loc58 = loc("/Users/noahfarr/reinforcement-learning/src/networks/networks/blocks/self_attention.py":98:24 to :82)
#loc59 = loc("/Users/noahfarr/reinforcement-learning/src/networks/networks/blocks/self_attention.py":97:14 to 100:9)
#loc60 = loc("/Users/noahfarr/reinforcement-learning/src/networks/networks/blocks/self_attention.py":97:14 to 100:30)
#loc61 = loc("/Users/noahfarr/reinforcement-learning/src/networks/networks/blocks/self_attention.py":102:26 to :86)
#loc62 = loc("/Users/noahfarr/reinforcement-learning/src/networks/networks/blocks/self_attention.py":101:16 to 104:9)
#loc63 = loc("/Users/noahfarr/reinforcement-learning/src/networks/networks/blocks/self_attention.py":101:16 to 104:30)
#loc64 = loc("/Users/noahfarr/reinforcement-learning/src/networks/networks/blocks/self_attention.py":27:8 to :68)
#loc65 = loc("/Users/noahfarr/reinforcement-learning/src/networks/networks/blocks/self_attention.py":111:15 to :63)
#loc66 = loc("/Users/noahfarr/reinforcement-learning/src/networks/networks/blocks/self_attention.py":26:15 to 28:5)
#loc67 = loc("/Users/noahfarr/reinforcement-learning/src/networks/networks/blocks/self_attention.py":30:8 to :44)
#loc68 = loc("/Users/noahfarr/reinforcement-learning/src/networks/networks/blocks/self_attention.py":30:48 to :83)
#loc69 = loc("/Users/noahfarr/reinforcement-learning/src/networks/networks/blocks/self_attention.py":30:8 to :83)
#loc70 = loc("/Users/noahfarr/reinforcement-learning/src/networks/networks/blocks/self_attention.py":33:16 to :60)
#loc71 = loc("/Users/noahfarr/reinforcement-learning/src/networks/networks/blocks/self_attention.py":34:13 to :47)
#loc72 = loc("/Users/noahfarr/reinforcement-learning/src/networks/networks/blocks/self_attention.py":34:51 to :84)
#loc73 = loc("/Users/noahfarr/reinforcement-learning/src/networks/networks/blocks/self_attention.py":34:13 to :84)
#loc74 = loc("/Users/noahfarr/reinforcement-learning/src/networks/networks/blocks/self_attention.py":36:12 to :33)
#loc75 = loc("/Users/noahfarr/reinforcement-learning/src/networks/networks/blocks/self_attention.py":36:11 to :43)
#loc76 = loc("/Users/noahfarr/reinforcement-learning/src/networks/networks/blocks/self_attention.py":114:20 to 121:9)
#loc77 = loc("/Users/noahfarr/reinforcement-learning/src/networks/networks/blocks/self_attention.py":123:12 to 132:20)
#loc78 = loc("/Users/noahfarr/noahfarr.github.io/tools/whlo/export_ppo_wordle.py":127:17 to :76)
#loc79 = loc("/Users/noahfarr/noahfarr.github.io/tools/whlo/export_ppo_wordle.py":128:17 to :83)
#loc80 = loc("/Users/noahfarr/noahfarr.github.io/tools/whlo/export_ppo_wordle.py":129:16 to :45)
#loc81 = loc("/Users/noahfarr/reinforcement-learning/.venv/lib/python3.13/site-packages/optax/tree_utils/_tree_math.py":335:32 to :62)
#loc82 = loc("/Users/noahfarr/reinforcement-learning/.venv/lib/python3.13/site-packages/optax/tree_utils/_tree_math.py":335:9 to :69)
#loc83 = loc("/Users/noahfarr/reinforcement-learning/.venv/lib/python3.13/site-packages/optax/_src/transform.py":277:9 to :54)
#loc84 = loc("/Users/noahfarr/reinforcement-learning/.venv/lib/python3.13/site-packages/optax/transforms/_combining.py":79:17 to :27)
#loc85 = loc("/Users/noahfarr/reinforcement-learning/.venv/lib/python3.13/site-packages/optax/transforms/_combining.py":79:11 to :47)
#loc86 = loc("/Users/noahfarr/reinforcement-learning/src/algorithms/algorithms/recurrent_ppo.py":315:26 to :53)
#loc87 = loc("/Users/noahfarr/reinforcement-learning/.venv/lib/python3.13/site-packages/optax/_src/transform.py":278:9 to :38)
#loc88 = loc("threefry2x32")
#loc89 = loc("add")
#loc90 = loc("slice")
#loc91 = loc("squeeze")
#loc92 = loc("shift_left")
#loc93 = loc("sub")
#loc94 = loc("shift_right_logical")
#loc95 = loc("or")
#loc96 = loc("xor")
#loc97 = loc("convert_element_type")
#loc100 = loc("jit(clip)")
#loc101 = loc("gt")
#loc102 = loc("vmap(jit(_threefry_split))")
#loc103 = loc("vmap()/slice")
#loc104 = loc("vmap()/squeeze")
#loc106 = loc("vmap()/xor")
#loc107 = loc("le")
#loc108 = loc("select_n")
#loc109 = loc("and")
#loc110 = loc("rem")
#loc111 = loc("mul")
#loc112 = loc("jit")
#loc113 = loc("max")
#loc114 = loc("min")
#loc115 = loc("vmap()/jit")
#loc116 = loc("iota_2x32_shape")
#loc117 = loc("broadcast_in_dim")
#loc118 = loc("stack")
#loc119 = loc("while")
#loc120 = loc("while/cond/lt")
#loc121 = loc("while/body/closed_call")
#loc122 = loc("while/body/add")
#loc123 = loc("iota")
#loc124 = loc("eq")
#loc125 = loc("erf_inv")
#loc126 = loc("div")
#loc128 = loc("jit(_uniform)")
#loc129 = loc("nextafter")
#loc130 = loc("")
#loc131 = loc("bitcast_convert_type")
#loc133 = loc("transpose")
#loc134 = loc("main"(#loc2))
#loc135 = loc("<module>"(#loc3))
#loc137 = loc("RecurrentPPO.init"(#loc5))
#loc138 = loc("Vectorize.init"(#loc6))
#loc139 = loc("RecurrentPPO.init"(#loc7))
#loc140 = loc("Vectorize.init"(#loc8))
#loc141 = loc("Wordle.init"(#loc9))
#loc142 = loc("WordChoice.init"(#loc10))
#loc143 = loc("Wrapper.init"(#loc11))
#loc144 = loc("Vectorize.init"(#loc12))
#loc145 = loc("Wordle.init"(#loc13))
#loc146 = loc("Wordle.init"(#loc14))
#loc147 = loc("get_obs"(#loc15))
#loc148 = loc("Wordle.init"(#loc16))
#loc149 = loc("get_obs"(#loc17))
#loc150 = loc("get_obs"(#loc18))
#loc151 = loc("WordChoice._wrap"(#loc19))
#loc152 = loc("WordChoice.init"(#loc20))
#loc153 = loc("SelfAttention.initialize_carry"(#loc21))
#loc154 = loc("Stack.initialize_carry.<locals>.<genexpr>"(#loc22))
#loc155 = loc("Stack.initialize_carry"(#loc23))
#loc156 = loc("MaskedActorCriticNetwork.initialize_carry"(#loc24))
#loc157 = loc("RecurrentPPO.init"(#loc25))
#loc158 = loc("SelfAttention.initialize_carry"(#loc26))
#loc159 = loc("SelfAttention.initialize_carry"(#loc27))
#loc160 = loc("add_time_axis"(#loc28))
#loc161 = loc("Timestep.to_sequence"(#loc29))
#loc162 = loc("RecurrentPPO.init"(#loc30))
#loc163 = loc("Timestep.done"(#loc31))
#loc164 = loc("RecurrentPPO.init"(#loc32))
#loc168 = loc("Dense.__call__"(#loc36))
#loc169 = loc("Dense.__call__"(#loc37))
#loc170 = loc("Dense.__call__"(#loc38))
#loc171 = loc("Dense.__call__"(#loc39))
#loc172 = loc("MaskedActorCriticNetwork.__call__"(#loc40))
#loc173 = loc("MaskedActorCriticNetwork.__call__"(#loc41))
#loc174 = loc("MaskedActorCriticNetwork.__call__"(#loc42))
#loc175 = loc("Projection.__call__"(#loc43))
#loc176 = loc("Stack.__call__.<locals>.step"(#loc44))
#loc177 = loc("Stack.__call__"(#loc45))
#loc178 = loc("MaskedActorCriticNetwork.__call__"(#loc46))
#loc179 = loc("Projection.__call__"(#loc47))
#loc180 = loc("DenseGeneral.__call__"(#loc48))
#loc181 = loc("SelfAttention.__call__"(#loc49))
#loc182 = loc("DenseGeneral.__call__.<locals>.kernel_init_wrap"(#loc50))
#loc183 = loc("DenseGeneral.__call__.<locals>.kernel_init_wrap"(#loc51))
#loc184 = loc("DenseGeneral.__call__"(#loc52))
#loc185 = loc("DenseGeneral.__call__.<locals>.bias_init_wrap"(#loc53))
#loc186 = loc("DenseGeneral.__call__.<locals>.bias_init_wrap"(#loc54))
#loc187 = loc("DenseGeneral.__call__"(#loc55))
#loc188 = loc("DenseGeneral.__call__"(#loc56))
#loc189 = loc("DenseGeneral.__call__"(#loc57))
#loc190 = loc("SelfAttention.__call__"(#loc58))
#loc191 = loc("SelfAttention.__call__"(#loc59))
#loc192 = loc("SelfAttention.__call__"(#loc60))
#loc193 = loc("SelfAttention.__call__"(#loc61))
#loc194 = loc("SelfAttention.__call__"(#loc62))
#loc195 = loc("SelfAttention.__call__"(#loc63))
#loc196 = loc("causal_attention_mask"(#loc64))
#loc197 = loc("SelfAttention.__call__"(#loc65))
#loc198 = loc("causal_attention_mask"(#loc66))
#loc199 = loc("causal_attention_mask"(#loc67))
#loc200 = loc("causal_attention_mask"(#loc68))
#loc201 = loc("causal_attention_mask"(#loc69))
#loc202 = loc("causal_attention_mask"(#loc70))
#loc203 = loc("causal_attention_mask"(#loc71))
#loc204 = loc("causal_attention_mask"(#loc72))
#loc205 = loc("causal_attention_mask"(#loc73))
#loc206 = loc("causal_attention_mask"(#loc74))
#loc207 = loc("causal_attention_mask"(#loc75))
#loc208 = loc("SelfAttention.__call__"(#loc76))
#loc209 = loc("SelfAttention.__call__"(#loc77))
#loc210 = loc("MaskedActorCriticNetwork.__call__"(#loc78))
#loc211 = loc("MaskedActorCriticNetwork.__call__"(#loc79))
#loc212 = loc("MaskedActorCriticNetwork.__call__"(#loc80))
#loc213 = loc("tree_zeros_like.<locals>.<lambda>"(#loc81))
#loc214 = loc("tree_zeros_like"(#loc82))
#loc215 = loc("scale_by_adam.<locals>.init_fn"(#loc83))
#loc216 = loc("chain.<locals>.init_fn.<locals>.<genexpr>"(#loc84))
#loc217 = loc("chain.<locals>.init_fn"(#loc85))
#loc218 = loc("RecurrentPPO.init"(#loc86))
#loc219 = loc("scale_by_adam.<locals>.init_fn"(#loc87))
#loc220 = loc("threefry2x32:"(#loc88))
#loc223 = loc("jit:"(#loc112))
#loc224 = loc("jit:"(#loc115))
#loc225 = loc("closed_call:"(#loc121))
#loc227 = loc(callsite(#loc134 at #loc135))
#loc228 = loc(callsite(#loc138 at #loc139))
#loc230 = loc("jit"(#loc136))
#loc231 = loc("iota_2x32_shape"(#loc136))
#loc232 = loc("slice"(#loc136))
#loc233 = loc("squeeze"(#loc136))
#loc234 = loc("stack"(#loc136))
#loc235 = loc("xor"(#loc136))
#loc236 = loc("add"(#loc136))
#loc237 = loc(callsite(#loc136 at #loc136))
#loc238 = loc("while/body/closed_call"(#loc136))
#loc240 = loc("jit(init)"(#loc227))
#loc241 = loc(callsite(#loc136 at #loc227))
#loc242 = loc(callsite(#loc137 at #loc227))
#loc243 = loc(callsite(#loc139 at #loc227))
#loc244 = loc(callsite(#loc157 at #loc227))
#loc245 = loc(callsite(#loc162 at #loc227))
#loc246 = loc(callsite(#loc164 at #loc227))
#loc248 = loc(callsite(#loc167 at #loc227))
#loc249 = loc(callsite(#loc218 at #loc227))
#loc250 = loc("jit:"(#loc230))
#loc251 = loc("while"(#loc237))
#loc252 = loc(callsite(#loc237 at #loc136))
#loc253 = loc("closed_call:"(#loc238))
#loc254 = loc("jit"(#loc228))
#loc255 = loc("iota_2x32_shape"(#loc239))
#loc256 = loc("slice"(#loc239))
#loc257 = loc("squeeze"(#loc239))
#loc258 = loc("stack"(#loc239))
#loc259 = loc("xor"(#loc239))
#loc260 = loc("add"(#loc239))
#loc261 = loc(callsite(#loc239 at #loc239))
#loc262 = loc("while/body/closed_call"(#loc239))
#loc263 = loc(callsite(#loc136 at #loc241))
#loc264 = loc("jit(init)/slice"(#loc242))
#loc265 = loc("jit(init)/squeeze"(#loc242))
#loc266 = loc(callsite(#loc138 at #loc243))
#loc267 = loc(callsite(#loc140 at #loc243))
#loc268 = loc(callsite(#loc144 at #loc243))
#loc269 = loc(callsite(#loc156 at #loc244))
#loc270 = loc(callsite(#loc161 at #loc245))
#loc271 = loc(callsite(#loc163 at #loc246))
#loc272 = loc(callsite(#loc166 at #loc248))
#loc273 = loc(callsite(#loc172 at #loc248))
#loc274 = loc(callsite(#loc173 at #loc248))
#loc275 = loc(callsite(#loc174 at #loc248))
#loc276 = loc(callsite(#loc178 at #loc248))
#loc277 = loc(callsite(#loc210 at #loc248))
#loc278 = loc(callsite(#loc211 at #loc248))
#loc279 = loc(callsite(#loc212 at #loc248))
#loc280 = loc(callsite(#loc217 at #loc249))
#loc281 = loc("while/cond/lt"(#loc252))
#loc282 = loc("while/body/closed_call"(#loc252))
#loc283 = loc("while/body/add"(#loc252))
#loc284 = loc("jit:"(#loc254))
#loc285 = loc("while"(#loc261))
#loc286 = loc(callsite(#loc261 at #loc239))
#loc287 = loc("closed_call:"(#loc262))
#loc288 = loc("jit"(#loc247))
#loc289 = loc("shift_right_logical"(#loc247))
#loc290 = loc("broadcast_in_dim"(#loc247))
#loc291 = loc("and"(#loc247))
#loc292 = loc("concatenate"(#loc247))
#loc293 = loc("slice"(#loc247))
#loc294 = loc("squeeze"(#loc247))
#loc295 = loc("split"(#loc247))
#loc296 = loc("xor"(#loc247))
#loc297 = loc("add"(#loc247))
#loc298 = loc(callsite(#loc247 at #loc247))
#loc299 = loc("while/body/closed_call"(#loc247))
#loc300 = loc("jit(init)/jit(_threefry_split)"(#loc263))
#loc301 = loc(callsite(#loc228 at #loc266))
#loc302 = loc("jit(init)/broadcast_in_dim"(#loc267))
#loc303 = loc("jit(init)/reshape"(#loc267))
#loc304 = loc(callsite(#loc143 at #loc268))
#loc305 = loc("jit(init)/vmap()/broadcast_in_dim"(#loc268))
#loc306 = loc(callsite(#loc155 at #loc269))
#loc307 = loc(callsite(#loc160 at #loc270))
#loc308 = loc("jit(init)/or"(#loc271))
#loc309 = loc(callsite(#loc165 at #loc272))
#loc310 = loc(callsite(#loc168 at #loc272))
#loc311 = loc(callsite(#loc169 at #loc272))
#loc312 = loc(callsite(#loc170 at #loc272))
#loc313 = loc(callsite(#loc171 at #loc272))
#loc314 = loc("jit(init)/MaskedActorCriticNetwork/jit(relu)"(#loc273))
#loc315 = loc("jit(init)/MaskedActorCriticNetwork/jit(_one_hot)"(#loc274))
#loc316 = loc("jit(init)/MaskedActorCriticNetwork/concatenate"(#loc275))
#loc317 = loc(callsite(#loc177 at #loc276))
#loc318 = loc(callsite(#loc165 at #loc277))
#loc319 = loc(callsite(#loc169 at #loc277))
#loc320 = loc("jit(init)/MaskedActorCriticNetwork/jit(_where)"(#loc278))
#loc321 = loc(callsite(#loc165 at #loc279))
#loc322 = loc(callsite(#loc168 at #loc279))
#loc323 = loc(callsite(#loc216 at #loc280))
#loc324 = loc("while/cond/lt"(#loc286))
#loc325 = loc("while/body/closed_call"(#loc286))
#loc326 = loc("while/body/add"(#loc286))
#loc327 = loc("jit:"(#loc288))
#loc328 = loc("while"(#loc298))
#loc329 = loc(callsite(#loc298 at #loc247))
#loc330 = loc("closed_call:"(#loc299))
#loc331 = loc("jit(init)/MaskedActorCriticNetwork/jit"(#loc274))
#loc332 = loc("jit(init)/MaskedActorCriticNetwork/jit"(#loc278))
#loc333 = loc("jit(init)/jit(_threefry_split)"(#loc301))
#loc334 = loc(callsite(#loc142 at #loc304))
#loc335 = loc(callsite(#loc152 at #loc304))
#loc336 = loc(callsite(#loc154 at #loc306))
#loc337 = loc("jit(init)/broadcast_in_dim"(#loc307))
#loc338 = loc(callsite(#loc247 at #loc309))
#loc339 = loc("jit(init)/MaskedActorCriticNetwork/obs/sqrt"(#loc309))
#loc340 = loc("jit(init)/MaskedActorCriticNetwork/obs/div"(#loc309))
#loc341 = loc("jit(init)/MaskedActorCriticNetwork/obs/jit(_truncated_normal)"(#loc309))
#loc342 = loc("jit(init)/MaskedActorCriticNetwork/obs/mul"(#loc309))
#loc343 = loc(callsite(#loc247 at #loc310))
#loc344 = loc("jit(init)/MaskedActorCriticNetwork/obs/broadcast_in_dim"(#loc310))
#loc345 = loc("jit(init)/MaskedActorCriticNetwork/obs/dot_general"(#loc311))
#loc346 = loc("jit(init)/MaskedActorCriticNetwork/obs/reshape"(#loc312))
#loc347 = loc("jit(init)/MaskedActorCriticNetwork/obs/add"(#loc313))
#loc348 = loc(callsite(#loc176 at #loc317))
#loc349 = loc(callsite(#loc247 at #loc318))
#loc350 = loc("jit(init)/MaskedActorCriticNetwork/actor/sqrt"(#loc318))
#loc351 = loc("jit(init)/MaskedActorCriticNetwork/actor/div"(#loc318))
#loc352 = loc("jit(init)/MaskedActorCriticNetwork/actor/jit(_truncated_normal)"(#loc318))
#loc353 = loc("jit(init)/MaskedActorCriticNetwork/actor/mul"(#loc318))
#loc354 = loc("jit(init)/MaskedActorCriticNetwork/actor/dot_general"(#loc319))
#loc355 = loc(callsite(#loc247 at #loc321))
#loc356 = loc("jit(init)/MaskedActorCriticNetwork/critic/sqrt"(#loc321))
#loc357 = loc("jit(init)/MaskedActorCriticNetwork/critic/div"(#loc321))
#loc358 = loc("jit(init)/MaskedActorCriticNetwork/critic/jit(_truncated_normal)"(#loc321))
#loc359 = loc("jit(init)/MaskedActorCriticNetwork/critic/mul"(#loc321))
#loc360 = loc(callsite(#loc247 at #loc322))
#loc361 = loc("jit(init)/MaskedActorCriticNetwork/critic/broadcast_in_dim"(#loc322))
#loc362 = loc(callsite(#loc217 at #loc323))
#loc363 = loc("while/cond/lt"(#loc329))
#loc364 = loc("while/body/closed_call"(#loc329))
#loc365 = loc("while/body/add"(#loc329))
#loc366 = loc("jit(init)/MaskedActorCriticNetwork/obs/jit"(#loc309))
#loc367 = loc("jit:"(#loc331))
#loc368 = loc("jit(init)/MaskedActorCriticNetwork/actor/jit"(#loc318))
#loc369 = loc("jit:"(#loc332))
#loc370 = loc("jit(init)/MaskedActorCriticNetwork/critic/jit"(#loc321))
#loc371 = loc(callsite(#loc141 at #loc334))
#loc372 = loc(callsite(#loc145 at #loc334))
#loc373 = loc(callsite(#loc146 at #loc334))
#loc374 = loc(callsite(#loc148 at #loc334))
#loc375 = loc(callsite(#loc151 at #loc335))
#loc376 = loc(callsite(#loc153 at #loc336))
#loc377 = loc(callsite(#loc158 at #loc336))
#loc378 = loc(callsite(#loc159 at #loc336))
#loc379 = loc("jit(init)/MaskedActorCriticNetwork/obs/jit(_threefry_fold_in)"(#loc338))
#loc380 = loc("jit(init)/MaskedActorCriticNetwork/obs/jit(_threefry_fold_in)"(#loc343))
#loc381 = loc(callsite(#loc175 at #loc348))
#loc382 = loc(callsite(#loc179 at #loc348))
#loc383 = loc(callsite(#loc181 at #loc348))
#loc384 = loc(callsite(#loc190 at #loc348))
#loc385 = loc(callsite(#loc191 at #loc348))
#loc386 = loc(callsite(#loc192 at #loc348))
#loc387 = loc(callsite(#loc193 at #loc348))
#loc388 = loc(callsite(#loc194 at #loc348))
#loc389 = loc(callsite(#loc195 at #loc348))
#loc390 = loc(callsite(#loc197 at #loc348))
#loc391 = loc(callsite(#loc208 at #loc348))
#loc392 = loc(callsite(#loc209 at #loc348))
#loc393 = loc("jit(init)/MaskedActorCriticNetwork/actor/jit(_threefry_fold_in)"(#loc349))
#loc394 = loc("jit(init)/MaskedActorCriticNetwork/critic/jit(_threefry_fold_in)"(#loc355))
#loc395 = loc("jit(init)/MaskedActorCriticNetwork/critic/jit(_threefry_fold_in)"(#loc360))
#loc396 = loc(callsite(#loc216 at #loc362))
#loc397 = loc("jit:"(#loc366))
#loc398 = loc("jit:"(#loc368))
#loc399 = loc("jit:"(#loc370))
#loc400 = loc("jit(init)/vmap(jit(_randint))"(#loc371))
#loc401 = loc("jit(init)/vmap()/lt"(#loc372))
#loc402 = loc("jit(init)/vmap()/add"(#loc372))
#loc403 = loc("jit(init)/vmap()/select_n"(#loc372))
#loc404 = loc("jit(init)/vmap()/broadcast_in_dim"(#loc372))
#loc405 = loc("jit(init)/vmap()/concatenate"(#loc372))
#loc406 = loc("jit(init)/vmap()/gather"(#loc372))
#loc407 = loc("jit(init)/vmap()/squeeze"(#loc372))
#loc408 = loc("jit(init)/vmap()/broadcast_in_dim"(#loc373))
#loc409 = loc(callsite(#loc147 at #loc374))
#loc410 = loc(callsite(#loc149 at #loc374))
#loc411 = loc(callsite(#loc150 at #loc374))
#loc412 = loc("jit(init)/vmap()/broadcast_in_dim"(#loc375))
#loc413 = loc("jit(init)/broadcast_in_dim"(#loc376))
#loc414 = loc("jit(init)/broadcast_in_dim"(#loc377))
#loc415 = loc("jit(init)/broadcast_in_dim"(#loc378))
#loc416 = loc(callsite(#loc165 at #loc381))
#loc417 = loc(callsite(#loc168 at #loc381))
#loc418 = loc(callsite(#loc169 at #loc381))
#loc419 = loc(callsite(#loc170 at #loc381))
#loc420 = loc(callsite(#loc171 at #loc381))
#loc421 = loc("jit(init)/MaskedActorCriticNetwork/torso/blocks_0/jit(relu)"(#loc382))
#loc422 = loc(callsite(#loc180 at #loc383))
#loc423 = loc(callsite(#loc184 at #loc383))
#loc424 = loc(callsite(#loc187 at #loc383))
#loc425 = loc(callsite(#loc188 at #loc383))
#loc426 = loc(callsite(#loc189 at #loc383))
#loc427 = loc(callsite(#loc180 at #loc384))
#loc428 = loc(callsite(#loc184 at #loc384))
#loc429 = loc(callsite(#loc187 at #loc384))
#loc430 = loc(callsite(#loc188 at #loc384))
#loc431 = loc(callsite(#loc189 at #loc384))
#loc432 = loc("jit(init)/MaskedActorCriticNetwork/torso/blocks_1/concatenate"(#loc385))
#loc433 = loc("jit(init)/MaskedActorCriticNetwork/torso/blocks_1/slice"(#loc386))
#loc434 = loc(callsite(#loc180 at #loc387))
#loc435 = loc(callsite(#loc184 at #loc387))
#loc436 = loc(callsite(#loc187 at #loc387))
#loc437 = loc(callsite(#loc188 at #loc387))
#loc438 = loc(callsite(#loc189 at #loc387))
#loc439 = loc("jit(init)/MaskedActorCriticNetwork/torso/blocks_1/concatenate"(#loc388))
#loc440 = loc("jit(init)/MaskedActorCriticNetwork/torso/blocks_1/slice"(#loc389))
#loc441 = loc(callsite(#loc196 at #loc390))
#loc442 = loc(callsite(#loc198 at #loc390))
#loc443 = loc(callsite(#loc199 at #loc390))
#loc444 = loc(callsite(#loc200 at #loc390))
#loc445 = loc(callsite(#loc201 at #loc390))
#loc446 = loc(callsite(#loc202 at #loc390))
#loc447 = loc(callsite(#loc203 at #loc390))
#loc448 = loc(callsite(#loc204 at #loc390))
#loc449 = loc(callsite(#loc205 at #loc390))
#loc450 = loc(callsite(#loc206 at #loc390))
#loc451 = loc(callsite(#loc207 at #loc390))
#loc452 = loc("jit(init)/MaskedActorCriticNetwork/torso/blocks_1/reshape"(#loc391))
#loc453 = loc("jit(init)/MaskedActorCriticNetwork/torso/blocks_1/broadcast_in_dim"(#loc391))
#loc454 = loc("jit(init)/MaskedActorCriticNetwork/torso/blocks_1/vmap(BTNH,BSNH->BNTS)/dot_general"(#loc391))
#loc455 = loc("jit(init)/MaskedActorCriticNetwork/torso/blocks_1/vmap()/mul"(#loc391))
#loc456 = loc("jit(init)/MaskedActorCriticNetwork/torso/blocks_1/vmap()/broadcast_in_dim"(#loc391))
#loc457 = loc("jit(init)/MaskedActorCriticNetwork/torso/blocks_1/vmap()/transpose"(#loc391))
#loc458 = loc("jit(init)/MaskedActorCriticNetwork/torso/blocks_1/vmap()/and"(#loc391))
#loc459 = loc("jit(init)/MaskedActorCriticNetwork/torso/blocks_1/vmap(jit(_where))"(#loc391))
#loc460 = loc("jit(init)/MaskedActorCriticNetwork/torso/blocks_1/vmap()/reduce_max"(#loc391))
#loc461 = loc("jit(init)/MaskedActorCriticNetwork/torso/blocks_1/vmap()/max"(#loc391))
#loc462 = loc("jit(init)/MaskedActorCriticNetwork/torso/blocks_1/vmap()/sub"(#loc391))
#loc463 = loc("jit(init)/MaskedActorCriticNetwork/torso/blocks_1/vmap()/exp"(#loc391))
#loc464 = loc("jit(init)/MaskedActorCriticNetwork/torso/blocks_1/vmap()/reduce_sum"(#loc391))
#loc465 = loc("jit(init)/MaskedActorCriticNetwork/torso/blocks_1/vmap()/div"(#loc391))
#loc466 = loc("jit(init)/MaskedActorCriticNetwork/torso/blocks_1/vmap(BNTS,BSNH->BTNH)/dot_general"(#loc391))
#loc467 = loc("jit(init)/MaskedActorCriticNetwork/torso/blocks_1/vmap(BNTS,BSNH->BTNH)/transpose"(#loc391))
#loc468 = loc(callsite(#loc180 at #loc392))
#loc469 = loc(callsite(#loc184 at #loc392))
#loc470 = loc(callsite(#loc187 at #loc392))
#loc471 = loc(callsite(#loc188 at #loc392))
#loc472 = loc(callsite(#loc189 at #loc392))
#loc473 = loc(callsite(#loc215 at #loc396))
#loc474 = loc(callsite(#loc219 at #loc396))
#loc475 = loc("jit(init)/vmap()/jit"(#loc371))
#loc476 = loc("jit(init)/MaskedActorCriticNetwork/torso/blocks_1/vmap()/jit"(#loc391))
#loc477 = loc("jit(init)/vmap(jit(_one_hot))"(#loc409))
#loc478 = loc("jit(init)/vmap()/reshape"(#loc410))
#loc479 = loc("jit(init)/vmap(jit(_where))"(#loc411))
#loc480 = loc(callsite(#loc247 at #loc416))
#loc481 = loc("jit(init)/MaskedActorCriticNetwork/torso/blocks_0/Dense_0/sqrt"(#loc416))
#loc482 = loc("jit(init)/MaskedActorCriticNetwork/torso/blocks_0/Dense_0/div"(#loc416))
#loc483 = loc("jit(init)/MaskedActorCriticNetwork/torso/blocks_0/Dense_0/jit(_truncated_normal)"(#loc416))
#loc484 = loc("jit(init)/MaskedActorCriticNetwork/torso/blocks_0/Dense_0/mul"(#loc416))
#loc485 = loc(callsite(#loc247 at #loc417))
#loc486 = loc("jit(init)/MaskedActorCriticNetwork/torso/blocks_0/Dense_0/broadcast_in_dim"(#loc417))
#loc487 = loc("jit(init)/MaskedActorCriticNetwork/torso/blocks_0/Dense_0/dot_general"(#loc418))
#loc488 = loc("jit(init)/MaskedActorCriticNetwork/torso/blocks_0/Dense_0/reshape"(#loc419))
#loc489 = loc("jit(init)/MaskedActorCriticNetwork/torso/blocks_0/Dense_0/add"(#loc420))
#loc490 = loc(callsite(#loc247 at #loc422))
#loc491 = loc(callsite(#loc182 at #loc422))
#loc492 = loc(callsite(#loc183 at #loc422))
#loc493 = loc(callsite(#loc247 at #loc423))
#loc494 = loc(callsite(#loc185 at #loc423))
#loc495 = loc(callsite(#loc186 at #loc423))
#loc496 = loc("jit(init)/MaskedActorCriticNetwork/torso/blocks_1/query/dot_general"(#loc424))
#loc497 = loc("jit(init)/MaskedActorCriticNetwork/torso/blocks_1/query/reshape"(#loc425))
#loc498 = loc("jit(init)/MaskedActorCriticNetwork/torso/blocks_1/query/add"(#loc426))
#loc499 = loc(callsite(#loc247 at #loc427))
#loc500 = loc(callsite(#loc182 at #loc427))
#loc501 = loc(callsite(#loc183 at #loc427))
#loc502 = loc(callsite(#loc247 at #loc428))
#loc503 = loc(callsite(#loc185 at #loc428))
#loc504 = loc(callsite(#loc186 at #loc428))
#loc505 = loc("jit(init)/MaskedActorCriticNetwork/torso/blocks_1/key/dot_general"(#loc429))
#loc506 = loc("jit(init)/MaskedActorCriticNetwork/torso/blocks_1/key/reshape"(#loc430))
#loc507 = loc("jit(init)/MaskedActorCriticNetwork/torso/blocks_1/key/add"(#loc431))
#loc508 = loc(callsite(#loc247 at #loc434))
#loc509 = loc(callsite(#loc182 at #loc434))
#loc510 = loc(callsite(#loc183 at #loc434))
#loc511 = loc(callsite(#loc247 at #loc435))
#loc512 = loc(callsite(#loc185 at #loc435))
#loc513 = loc(callsite(#loc186 at #loc435))
#loc514 = loc("jit(init)/MaskedActorCriticNetwork/torso/blocks_1/value/dot_general"(#loc436))
#loc515 = loc("jit(init)/MaskedActorCriticNetwork/torso/blocks_1/value/reshape"(#loc437))
#loc516 = loc("jit(init)/MaskedActorCriticNetwork/torso/blocks_1/value/add"(#loc438))
#loc517 = loc("jit(init)/MaskedActorCriticNetwork/torso/blocks_1/convert_element_type"(#loc441))
#loc518 = loc("jit(init)/MaskedActorCriticNetwork/torso/blocks_1/concatenate"(#loc441))
#loc519 = loc("jit(init)/MaskedActorCriticNetwork/torso/blocks_1/jit(cumsum)"(#loc442))
#loc520 = loc("jit(init)/MaskedActorCriticNetwork/torso/blocks_1/slice"(#loc443))
#loc521 = loc("jit(init)/MaskedActorCriticNetwork/torso/blocks_1/broadcast_in_dim"(#loc443))
#loc522 = loc("jit(init)/MaskedActorCriticNetwork/torso/blocks_1/slice"(#loc444))
#loc523 = loc("jit(init)/MaskedActorCriticNetwork/torso/blocks_1/broadcast_in_dim"(#loc444))
#loc524 = loc("jit(init)/MaskedActorCriticNetwork/torso/blocks_1/eq"(#loc445))
#loc525 = loc("jit(init)/MaskedActorCriticNetwork/torso/blocks_1/iota"(#loc446))
#loc526 = loc("jit(init)/MaskedActorCriticNetwork/torso/blocks_1/slice"(#loc447))
#loc527 = loc("jit(init)/MaskedActorCriticNetwork/torso/blocks_1/broadcast_in_dim"(#loc447))
#loc528 = loc("jit(init)/MaskedActorCriticNetwork/torso/blocks_1/slice"(#loc448))
#loc529 = loc("jit(init)/MaskedActorCriticNetwork/torso/blocks_1/broadcast_in_dim"(#loc448))
#loc530 = loc("jit(init)/MaskedActorCriticNetwork/torso/blocks_1/ge"(#loc449))
#loc531 = loc("jit(init)/MaskedActorCriticNetwork/torso/blocks_1/broadcast_in_dim"(#loc450))
#loc532 = loc("jit(init)/MaskedActorCriticNetwork/torso/blocks_1/and"(#loc450))
#loc533 = loc("jit(init)/MaskedActorCriticNetwork/torso/blocks_1/broadcast_in_dim"(#loc451))
#loc534 = loc(callsite(#loc247 at #loc468))
#loc535 = loc(callsite(#loc182 at #loc468))
#loc536 = loc(callsite(#loc183 at #loc468))
#loc537 = loc(callsite(#loc247 at #loc469))
#loc538 = loc(callsite(#loc185 at #loc469))
#loc539 = loc("jit(init)/MaskedActorCriticNetwork/torso/blocks_1/output_projection/dot_general"(#loc470))
#loc540 = loc("jit(init)/MaskedActorCriticNetwork/torso/blocks_1/output_projection/reshape"(#loc471))
#loc541 = loc("jit(init)/MaskedActorCriticNetwork/torso/blocks_1/output_projection/add"(#loc472))
#loc542 = loc(callsite(#loc214 at #loc473))
#loc543 = loc(callsite(#loc214 at #loc474))
#loc544 = loc("jit:"(#loc475))
#loc545 = loc("jit(init)/vmap()/jit"(#loc409))
#loc546 = loc("jit(init)/vmap()/jit"(#loc411))
#loc547 = loc("jit(init)/MaskedActorCriticNetwork/torso/blocks_0/Dense_0/jit"(#loc416))
#loc548 = loc("jit(init)/MaskedActorCriticNetwork/torso/blocks_1/jit"(#loc442))
#loc549 = loc("jit:"(#loc476))
#loc550 = loc("jit(init)/MaskedActorCriticNetwork/torso/blocks_0/Dense_0/jit(_threefry_fold_in)"(#loc480))
#loc551 = loc("jit(init)/MaskedActorCriticNetwork/torso/blocks_0/Dense_0/jit(_threefry_fold_in)"(#loc485))
#loc552 = loc("jit(init)/MaskedActorCriticNetwork/torso/blocks_1/query/jit(_threefry_fold_in)"(#loc490))
#loc553 = loc("jit(init)/MaskedActorCriticNetwork/torso/blocks_1/query/sqrt"(#loc491))
#loc554 = loc("jit(init)/MaskedActorCriticNetwork/torso/blocks_1/query/div"(#loc491))
#loc555 = loc("jit(init)/MaskedActorCriticNetwork/torso/blocks_1/query/jit(_truncated_normal)"(#loc491))
#loc556 = loc("jit(init)/MaskedActorCriticNetwork/torso/blocks_1/query/mul"(#loc491))
#loc557 = loc("jit(init)/MaskedActorCriticNetwork/torso/blocks_1/query/reshape"(#loc492))
#loc558 = loc("jit(init)/MaskedActorCriticNetwork/torso/blocks_1/query/jit(_threefry_fold_in)"(#loc493))
#loc559 = loc("jit(init)/MaskedActorCriticNetwork/torso/blocks_1/query/broadcast_in_dim"(#loc494))
#loc560 = loc("jit(init)/MaskedActorCriticNetwork/torso/blocks_1/query/reshape"(#loc495))
#loc561 = loc("jit(init)/MaskedActorCriticNetwork/torso/blocks_1/key/jit(_threefry_fold_in)"(#loc499))
#loc562 = loc("jit(init)/MaskedActorCriticNetwork/torso/blocks_1/key/sqrt"(#loc500))
#loc563 = loc("jit(init)/MaskedActorCriticNetwork/torso/blocks_1/key/div"(#loc500))
#loc564 = loc("jit(init)/MaskedActorCriticNetwork/torso/blocks_1/key/jit(_truncated_normal)"(#loc500))
#loc565 = loc("jit(init)/MaskedActorCriticNetwork/torso/blocks_1/key/mul"(#loc500))
#loc566 = loc("jit(init)/MaskedActorCriticNetwork/torso/blocks_1/key/reshape"(#loc501))
#loc567 = loc("jit(init)/MaskedActorCriticNetwork/torso/blocks_1/key/jit(_threefry_fold_in)"(#loc502))
#loc568 = loc("jit(init)/MaskedActorCriticNetwork/torso/blocks_1/key/broadcast_in_dim"(#loc503))
#loc569 = loc("jit(init)/MaskedActorCriticNetwork/torso/blocks_1/key/reshape"(#loc504))
#loc570 = loc("jit(init)/MaskedActorCriticNetwork/torso/blocks_1/value/jit(_threefry_fold_in)"(#loc508))
#loc571 = loc("jit(init)/MaskedActorCriticNetwork/torso/blocks_1/value/sqrt"(#loc509))
#loc572 = loc("jit(init)/MaskedActorCriticNetwork/torso/blocks_1/value/div"(#loc509))
#loc573 = loc("jit(init)/MaskedActorCriticNetwork/torso/blocks_1/value/jit(_truncated_normal)"(#loc509))
#loc574 = loc("jit(init)/MaskedActorCriticNetwork/torso/blocks_1/value/mul"(#loc509))
#loc575 = loc("jit(init)/MaskedActorCriticNetwork/torso/blocks_1/value/reshape"(#loc510))
#loc576 = loc("jit(init)/MaskedActorCriticNetwork/torso/blocks_1/value/jit(_threefry_fold_in)"(#loc511))
#loc577 = loc("jit(init)/MaskedActorCriticNetwork/torso/blocks_1/value/broadcast_in_dim"(#loc512))
#loc578 = loc("jit(init)/MaskedActorCriticNetwork/torso/blocks_1/value/reshape"(#loc513))
#loc579 = loc("jit(init)/MaskedActorCriticNetwork/torso/blocks_1/output_projection/jit(_threefry_fold_in)"(#loc534))
#loc580 = loc("jit(init)/MaskedActorCriticNetwork/torso/blocks_1/output_projection/sqrt"(#loc535))
#loc581 = loc("jit(init)/MaskedActorCriticNetwork/torso/blocks_1/output_projection/div"(#loc535))
#loc582 = loc("jit(init)/MaskedActorCriticNetwork/torso/blocks_1/output_projection/jit(_truncated_normal)"(#loc535))
#loc583 = loc("jit(init)/MaskedActorCriticNetwork/torso/blocks_1/output_projection/mul"(#loc535))
#loc584 = loc("jit(init)/MaskedActorCriticNetwork/torso/blocks_1/output_projection/reshape"(#loc536))
#loc585 = loc("jit(init)/MaskedActorCriticNetwork/torso/blocks_1/output_projection/jit(_threefry_fold_in)"(#loc537))
#loc586 = loc("jit(init)/MaskedActorCriticNetwork/torso/blocks_1/output_projection/broadcast_in_dim"(#loc538))
#loc587 = loc(callsite(#loc213 at #loc542))
#loc588 = loc(callsite(#loc213 at #loc543))
#loc589 = loc("jit:"(#loc545))
#loc590 = loc("jit:"(#loc546))
#loc591 = loc("jit:"(#loc547))
#loc592 = loc("jit(init)/MaskedActorCriticNetwork/torso/blocks_1/query/jit"(#loc491))
#loc593 = loc("jit:"(#loc548))
#loc594 = loc("jit(init)/broadcast_in_dim"(#loc587))
#loc595 = loc("jit(init)/broadcast_in_dim"(#loc588))
#loc596 = loc("jit:"(#loc592))
