#loc = loc(unknown)
#loc1 = loc("key")
#loc4 = loc("/Users/noahfarr/reinforcement-learning/src/algorithms/algorithms/recurrent_ppo.py":298:50 to :74)
#loc34 = loc("/Users/noahfarr/reinforcement-learning/.venv/lib/python3.13/site-packages/flax/linen/linear.py":1166:21 to 1171:5)
#loc35 = loc("/Users/noahfarr/noahfarr.github.io/tools/whlo/export_ppo_wordle.py":84:32 to :49)
#loc36 = loc("/Users/noahfarr/reinforcement-learning/src/networks/networks/network.py":24:12 to :71)
#loc37 = loc("/Users/noahfarr/reinforcement-learning/src/algorithms/algorithms/recurrent_ppo.py":307:17 to 314:9)
#loc46 = loc("scatter")
#loc106 = loc("/Users/noahfarr/reinforcement-learning/src/algorithms/algorithms/recurrent_ppo.py":268:20 to :66)
#loc107 = loc("/Users/noahfarr/noahfarr.github.io/tools/whlo/export_ppo_wordle.py":192:23 to :63)
#loc113 = loc("vmap()")
#loc144 = loc("erf")
#loc146 = loc("reduce_window_sum")
#loc150 = loc("RecurrentPPO.init"(#loc4))
#loc180 = loc("Embed.setup"(#loc34))
#loc181 = loc("TokenFeatureExtractor.__call__"(#loc35))
#loc182 = loc("Network.__call__"(#loc36))
#loc183 = loc("RecurrentPPO.init"(#loc37))
#loc192 = loc("scatter:"(#loc46))
#loc243 = loc("RecurrentPPO.update_step"(#loc106))
#loc244 = loc("main.<locals>.train_step"(#loc107))
#loc248 = loc("reduce_window_sum:"(#loc146))
#loc251 = loc(callsite(#loc182 at #loc183))
#loc261 = loc(callsite(#loc243 at #loc244))
#loc269 = loc(callsite(#loc181 at #loc251))
#loc294 = loc(callsite(#loc180 at #loc269))
module @jit_init attributes {jax.uses_shape_polymorphism = false, mhlo.num_partitions = 1 : i32, mhlo.num_replicas = 1 : i32} {
  func.func public @main(%arg0: tensor<2xui32> loc("key")) -> (tensor<i32> {jax.result_info = "result.step"}, tensor<16x5xi32> {jax.result_info = "result.timestep.obs"}, tensor<16xi32> {jax.result_info = "result.timestep.action"}, tensor<16xf32> {jax.result_info = "result.timestep.reward"}, tensor<16xi1> {jax.result_info = "result.timestep.terminated"}, tensor<16xi1> {jax.result_info = "result.timestep.truncated"}, tensor<16xf32> {jax.result_info = "result.timestep.info['fired']"}, tensor<16xf32> {jax.result_info = "result.timestep.info['guess_count']"}, tensor<16xf32> {jax.result_info = "result.timestep.info['illegal_guesses']"}, tensor<16xf32> {jax.result_info = "result.timestep.info['matched_secret']"}, tensor<16x5xi32> {jax.result_info = "result.environment_state.env_state.secret_answer"}, tensor<16x5xi32> {jax.result_info = "result.environment_state.env_state.guess_feedback"}, tensor<16xi1> {jax.result_info = "result.environment_state.env_state.guess_revealed"}, tensor<16xi32> {jax.result_info = "result.environment_state.env_state.guess_count"}, tensor<16xi1> {jax.result_info = "result.environment_state.env_state.matched_secret"}, tensor<16xi1> {jax.result_info = "result.environment_state.active"}, tensor<16x5xi32> {jax.result_info = "result.environment_state.arguments"}, tensor<16xi32> {jax.result_info = "result.environment_state.cursor"}, tensor<16x96xi32> {jax.result_info = "result.carry[1].done"}, tensor<16x96x2x8xf32> {jax.result_info = "result.carry[1].key"}, tensor<16x96x2x8xf32> {jax.result_info = "result.carry[1].value"}, tensor<33x16xf32> {jax.result_info = "result.params['params']['feature_extractor']['token_embedding']['embedding']"}, tensor<16x33xf32> {jax.result_info = "result.params['params']['head']['actor']['kernel']"}, tensor<1xf32> {jax.result_info = "result.params['params']['head']['critic']['bias']"}, tensor<16x1xf32> {jax.result_info = "result.params['params']['head']['critic']['kernel']"}, tensor<16xf32> {jax.result_info = "result.params['params']['torso']['block']['blocks_0']['Dense_0']['bias']"}, tensor<16x16xf32> {jax.result_info = "result.params['params']['torso']['block']['blocks_0']['Dense_0']['kernel']"}, tensor<2x8xf32> {jax.result_info = "result.params['params']['torso']['block']['blocks_1']['key']['bias']"}, tensor<16x2x8xf32> {jax.result_info = "result.params['params']['torso']['block']['blocks_1']['key']['kernel']"}, tensor<16xf32> {jax.result_info = "result.params['params']['torso']['block']['blocks_1']['output_projection']['bias']"}, tensor<2x8x16xf32> {jax.result_info = "result.params['params']['torso']['block']['blocks_1']['output_projection']['kernel']"}, tensor<2x8xf32> {jax.result_info = "result.params['params']['torso']['block']['blocks_1']['query']['bias']"}, tensor<16x2x8xf32> {jax.result_info = "result.params['params']['torso']['block']['blocks_1']['query']['kernel']"}, tensor<2x8xf32> {jax.result_info = "result.params['params']['torso']['block']['blocks_1']['value']['bias']"}, tensor<16x2x8xf32> {jax.result_info = "result.params['params']['torso']['block']['blocks_1']['value']['kernel']"}, tensor<i32> {jax.result_info = "result.optimizer_state[1][0].count"}, tensor<33x16xf32> {jax.result_info = "result.optimizer_state[1][0].mu['params']['feature_extractor']['token_embedding']['embedding']"}, tensor<16x33xf32> {jax.result_info = "result.optimizer_state[1][0].mu['params']['head']['actor']['kernel']"}, tensor<1xf32> {jax.result_info = "result.optimizer_state[1][0].mu['params']['head']['critic']['bias']"}, tensor<16x1xf32> {jax.result_info = "result.optimizer_state[1][0].mu['params']['head']['critic']['kernel']"}, tensor<16xf32> {jax.result_info = "result.optimizer_state[1][0].mu['params']['torso']['block']['blocks_0']['Dense_0']['bias']"}, tensor<16x16xf32> {jax.result_info = "result.optimizer_state[1][0].mu['params']['torso']['block']['blocks_0']['Dense_0']['kernel']"}, tensor<2x8xf32> {jax.result_info = "result.optimizer_state[1][0].mu['params']['torso']['block']['blocks_1']['key']['bias']"}, tensor<16x2x8xf32> {jax.result_info = "result.optimizer_state[1][0].mu['params']['torso']['block']['blocks_1']['key']['kernel']"}, tensor<16xf32> {jax.result_info = "result.optimizer_state[1][0].mu['params']['torso']['block']['blocks_1']['output_projection']['bias']"}, tensor<2x8x16xf32> {jax.result_info = "result.optimizer_state[1][0].mu['params']['torso']['block']['blocks_1']['output_projection']['kernel']"}, tensor<2x8xf32> {jax.result_info = "result.optimizer_state[1][0].mu['params']['torso']['block']['blocks_1']['query']['bias']"}, tensor<16x2x8xf32> {jax.result_info = "result.optimizer_state[1][0].mu['params']['torso']['block']['blocks_1']['query']['kernel']"}, tensor<2x8xf32> {jax.result_info = "result.optimizer_state[1][0].mu['params']['torso']['block']['blocks_1']['value']['bias']"}, tensor<16x2x8xf32> {jax.result_info = "result.optimizer_state[1][0].mu['params']['torso']['block']['blocks_1']['value']['kernel']"}, tensor<33x16xf32> {jax.result_info = "result.optimizer_state[1][0].nu['params']['feature_extractor']['token_embedding']['embedding']"}, tensor<16x33xf32> {jax.result_info = "result.optimizer_state[1][0].nu['params']['head']['actor']['kernel']"}, tensor<1xf32> {jax.result_info = "result.optimizer_state[1][0].nu['params']['head']['critic']['bias']"}, tensor<16x1xf32> {jax.result_info = "result.optimizer_state[1][0].nu['params']['head']['critic']['kernel']"}, tensor<16xf32> {jax.result_info = "result.optimizer_state[1][0].nu['params']['torso']['block']['blocks_0']['Dense_0']['bias']"}, tensor<16x16xf32> {jax.result_info = "result.optimizer_state[1][0].nu['params']['torso']['block']['blocks_0']['Dense_0']['kernel']"}, tensor<2x8xf32> {jax.result_info = "result.optimizer_state[1][0].nu['params']['torso']['block']['blocks_1']['key']['bias']"}, tensor<16x2x8xf32> {jax.result_info = "result.optimizer_state[1][0].nu['params']['torso']['block']['blocks_1']['key']['kernel']"}, tensor<16xf32> {jax.result_info = "result.optimizer_state[1][0].nu['params']['torso']['block']['blocks_1']['output_projection']['bias']"}, tensor<2x8x16xf32> {jax.result_info = "result.optimizer_state[1][0].nu['params']['torso']['block']['blocks_1']['output_projection']['kernel']"}, tensor<2x8xf32> {jax.result_info = "result.optimizer_state[1][0].nu['params']['torso']['block']['blocks_1']['query']['bias']"}, tensor<16x2x8xf32> {jax.result_info = "result.optimizer_state[1][0].nu['params']['torso']['block']['blocks_1']['query']['kernel']"}, tensor<2x8xf32> {jax.result_info = "result.optimizer_state[1][0].nu['params']['torso']['block']['blocks_1']['value']['bias']"}, tensor<16x2x8xf32> {jax.result_info = "result.optimizer_state[1][0].nu['params']['torso']['block']['blocks_1']['value']['kernel']"}) {
    %c = stablehlo.constant dense<3309781136> : tensor<ui32> loc(#loc262)
    %c_0 = stablehlo.constant dense<1632372854> : tensor<ui32> loc(#loc262)
    %c_1 = stablehlo.constant dense<2875902972> : tensor<ui32> loc(#loc262)
    %c_2 = stablehlo.constant dense<238560947> : tensor<ui32> loc(#loc262)
    %c_3 = stablehlo.constant dense<3753537410> : tensor<ui32> loc(#loc262)
    %cst = stablehlo.constant dense<-2.38197633E+38> : tensor<f32> loc(#loc262)
    %cst_4 = stablehlo.constant dense<0.353553385> : tensor<f32> loc(#loc262)
    %c_5 = stablehlo.constant dense<4044478262> : tensor<ui32> loc(#loc262)
    %c_6 = stablehlo.constant dense<88467544> : tensor<ui32> loc(#loc262)
    %c_7 = stablehlo.constant dense<3258985632> : tensor<ui32> loc(#loc262)
    %c_8 = stablehlo.constant dense<2428260558> : tensor<ui32> loc(#loc262)
    %c_9 = stablehlo.constant dense<2212064455> : tensor<ui32> loc(#loc262)
    %c_10 = stablehlo.constant dense<507466494> : tensor<ui32> loc(#loc262)
    %c_11 = stablehlo.constant dense<3763648675> : tensor<ui32> loc(#loc262)
    %c_12 = stablehlo.constant dense<2> : tensor<i32> loc(#loc)
    %c_13 = stablehlo.constant dense<-2> : tensor<i32> loc(#loc)
    %cst_14 = stablehlo.constant dense<0.879625678> : tensor<f32> loc(#loc)
    %c_15 = stablehlo.constant dense<1591842985> : tensor<ui32> loc(#loc262)
    %cst_16 = stablehlo.constant dense<6.250000e-02> : tensor<f32> loc(#loc)
    %c_17 = stablehlo.constant dense<3005692971> : tensor<ui32> loc(#loc262)
    %c_18 = stablehlo.constant dense<1> : tensor<i32> loc(#loc262)
    %c_19 = stablehlo.constant dense<true> : tensor<i1> loc(#loc)
    %c_20 = stablehlo.constant dense<28> : tensor<i32> loc(#loc262)
    %cst_21 = stablehlo.constant dense<0.000000e+00> : tensor<f32> loc(#loc)
    %c_22 = stablehlo.constant dense<false> : tensor<i1> loc(#loc)
    %c_23 = stablehlo.constant dense<5> : tensor<i32> loc(#loc262)
    %c_24 = stablehlo.constant dense<16> : tensor<i32> loc(#loc)
    %c_25 = stablehlo.constant dense<0> : tensor<i32> loc(#loc)
    %c_26 = stablehlo.constant dense<[[0, 20, 3, 8, 14], [1, 17, 8, 2, 10], [2, 7, 0, 8, 17], [2, 11, 14, 20, 3], [2, 17, 0, 13, 4], [5, 11, 8, 13, 19], [5, 17, 14, 18, 19], [6, 11, 0, 25, 4], [6, 17, 0, 15, 4], [7, 14, 20, 18, 4], [11, 4, 12, 14, 13], [12, 14, 20, 13, 3], [15, 11, 0, 13, 19], [18, 11, 0, 19, 4], [18, 15, 0, 3, 4], [18, 19, 14, 17, 12]]> : tensor<16x5xi32> loc(#loc262)
    %0 = call @_threefry_split(%arg0) : (tensor<2xui32>) -> tensor<3x2xui32> loc(#loc306)
    %1 = stablehlo.slice %0 [0:1, 0:2] : (tensor<3x2xui32>) -> tensor<1x2xui32> loc(#loc286)
    %2 = stablehlo.reshape %1 : (tensor<1x2xui32>) -> tensor<2xui32> loc(#loc287)
    %3 = stablehlo.slice %0 [1:2, 0:2] : (tensor<3x2xui32>) -> tensor<1x2xui32> loc(#loc286)
    %4 = stablehlo.reshape %3 : (tensor<1x2xui32>) -> tensor<2xui32> loc(#loc287)
    %5 = call @_threefry_split_0(%2) : (tensor<2xui32>) -> tensor<16x2xui32> loc(#loc342)
    %6 = stablehlo.broadcast_in_dim %5, dims = [0, 2] : (tensor<16x2xui32>) -> tensor<16x1x2xui32> loc(#loc308)
    %7 = stablehlo.reshape %6 : (tensor<16x1x2xui32>) -> tensor<16x2xui32> loc(#loc309)
    %8 = call @_randint(%7, %c_25, %c_24) : (tensor<16x2xui32>, tensor<i32>, tensor<i32>) -> tensor<16xi32> loc(#loc402)
    %9 = stablehlo.broadcast_in_dim %c_25, dims = [] : (tensor<i32>) -> tensor<16xi32> loc(#loc403)
    %10 = stablehlo.compare LT, %8, %9, SIGNED : (tensor<16xi32>, tensor<16xi32>) -> tensor<16xi1> loc(#loc403)
    %11 = stablehlo.broadcast_in_dim %c_24, dims = [] : (tensor<i32>) -> tensor<16xi32> loc(#loc404)
    %12 = stablehlo.add %8, %11 : tensor<16xi32> loc(#loc404)
    %13 = stablehlo.select %10, %12, %8 : tensor<16xi1>, tensor<16xi32> loc(#loc405)
    %14 = stablehlo.compare LT, %c_25, %c_25, SIGNED : (tensor<i32>, tensor<i32>) -> tensor<i1> loc(#loc403)
    %15 = stablehlo.add %c_25, %c_23 : tensor<i32> loc(#loc404)
    %16 = stablehlo.select %14, %15, %c_25 : tensor<i1>, tensor<i32> loc(#loc405)
    %17 = stablehlo.broadcast_in_dim %13, dims = [0] : (tensor<16xi32>) -> tensor<16x1xi32> loc(#loc406)
    %18 = stablehlo.broadcast_in_dim %16, dims = [] : (tensor<i32>) -> tensor<16x1xi32> loc(#loc406)
    %19 = stablehlo.concatenate %17, %18, dim = 1 : (tensor<16x1xi32>, tensor<16x1xi32>) -> tensor<16x2xi32> loc(#loc407)
    %20 = "stablehlo.gather"(%c_26, %19) <{dimension_numbers = #stablehlo.gather<offset_dims = [1, 2], start_index_map = [0, 1], index_vector_dim = 1>, slice_sizes = array<i64: 1, 5>}> : (tensor<16x5xi32>, tensor<16x2xi32>) -> tensor<16x1x5xi32> loc(#loc408)
    %21 = stablehlo.reshape %20 : (tensor<16x1x5xi32>) -> tensor<16x5xi32> loc(#loc409)
    %22 = stablehlo.broadcast_in_dim %c_25, dims = [] : (tensor<i32>) -> tensor<5xi32> loc(#loc410)
    %23 = call @_one_hot(%22) : (tensor<5xi32>) -> tensor<5x3xf32> loc(#loc439)
    %24 = stablehlo.reshape %23 : (tensor<5x3xf32>) -> tensor<15xf32> loc(#loc440)
    %25 = call @_where(%c_22, %24, %cst_21) : (tensor<i1>, tensor<15xf32>, tensor<f32>) -> tensor<15xf32> loc(#loc441)
    %26 = stablehlo.broadcast_in_dim %c_25, dims = [] : (tensor<i32>) -> tensor<5xi32> loc(#loc371)
    %27 = stablehlo.broadcast_in_dim %c_20, dims = [] : (tensor<i32>) -> tensor<5xi32> loc(#loc372)
    %28 = stablehlo.broadcast_in_dim %22, dims = [1] : (tensor<5xi32>) -> tensor<16x5xi32> loc(#loc311)
    %29 = stablehlo.broadcast_in_dim %c_22, dims = [] : (tensor<i1>) -> tensor<16xi1> loc(#loc311)
    %30 = stablehlo.broadcast_in_dim %c_25, dims = [] : (tensor<i32>) -> tensor<16xi32> loc(#loc311)
    %31 = stablehlo.broadcast_in_dim %c_22, dims = [] : (tensor<i1>) -> tensor<16xi1> loc(#loc311)
    %32 = stablehlo.broadcast_in_dim %c_22, dims = [] : (tensor<i1>) -> tensor<16xi1> loc(#loc311)
    %33 = stablehlo.broadcast_in_dim %26, dims = [1] : (tensor<5xi32>) -> tensor<16x5xi32> loc(#loc311)
    %34 = stablehlo.broadcast_in_dim %c_25, dims = [] : (tensor<i32>) -> tensor<16xi32> loc(#loc311)
    %35 = stablehlo.broadcast_in_dim %27, dims = [1] : (tensor<5xi32>) -> tensor<16x5xi32> loc(#loc311)
    %36 = stablehlo.broadcast_in_dim %c_25, dims = [] : (tensor<i32>) -> tensor<16xi32> loc(#loc311)
    %37 = stablehlo.broadcast_in_dim %cst_21, dims = [] : (tensor<f32>) -> tensor<16xf32> loc(#loc311)
    %38 = stablehlo.broadcast_in_dim %c_19, dims = [] : (tensor<i1>) -> tensor<16xi1> loc(#loc311)
    %39 = stablehlo.broadcast_in_dim %c_22, dims = [] : (tensor<i1>) -> tensor<16xi1> loc(#loc311)
    %40 = stablehlo.broadcast_in_dim %cst_21, dims = [] : (tensor<f32>) -> tensor<16xf32> loc(#loc311)
    %41 = stablehlo.broadcast_in_dim %cst_21, dims = [] : (tensor<f32>) -> tensor<16xf32> loc(#loc311)
    %42 = stablehlo.broadcast_in_dim %cst_21, dims = [] : (tensor<f32>) -> tensor<16xf32> loc(#loc311)
    %43 = stablehlo.broadcast_in_dim %cst_21, dims = [] : (tensor<f32>) -> tensor<16xf32> loc(#loc311)
    %44 = stablehlo.broadcast_in_dim %c_18, dims = [] : (tensor<i32>) -> tensor<16x96xi32> loc(#loc442)
    %45 = stablehlo.broadcast_in_dim %cst_21, dims = [] : (tensor<f32>) -> tensor<16x96x2x8xf32> loc(#loc443)
    %46 = stablehlo.broadcast_in_dim %cst_21, dims = [] : (tensor<f32>) -> tensor<16x96x2x8xf32> loc(#loc444)
    %47 = stablehlo.broadcast_in_dim %35, dims = [0, 2] : (tensor<16x5xi32>) -> tensor<16x1x5xi32> loc(#loc347)
    %48 = stablehlo.broadcast_in_dim %36, dims = [0] : (tensor<16xi32>) -> tensor<16x1xi32> loc(#loc347)
    %49 = stablehlo.broadcast_in_dim %38, dims = [0] : (tensor<16xi1>) -> tensor<16x1xi1> loc(#loc347)
    %50 = stablehlo.broadcast_in_dim %39, dims = [0] : (tensor<16xi1>) -> tensor<16x1xi1> loc(#loc347)
    %51 = stablehlo.or %49, %50 : tensor<16x1xi1> loc(#loc314)
    %52 = call @_threefry_fold_in(%4, %c_17) : (tensor<2xui32>, tensor<ui32>) -> tensor<2xui32> loc(#loc417)
    %53 = call @_normal(%52) : (tensor<2xui32>) -> tensor<33x16xf32> loc(#loc375)
    %54 = stablehlo.sqrt %cst_16 : tensor<f32> loc(#loc376)
    %55 = stablehlo.broadcast_in_dim %54, dims = [] : (tensor<f32>) -> tensor<33x16xf32> loc(#loc377)
    %56 = stablehlo.multiply %53, %55 : tensor<33x16xf32> loc(#loc377)
    %57 = call @_take(%56, %48) : (tensor<33x16xf32>, tensor<16x1xi32>) -> tensor<16x1x16xf32> loc(#loc378)
    %58 = stablehlo.broadcast_in_dim %57, dims = [0, 1, 3] : (tensor<16x1x16xf32>) -> tensor<16x1x1x16xf32> loc(#loc350)
    %59 = call @_take_14(%56, %47) : (tensor<33x16xf32>, tensor<16x1x5xi32>) -> tensor<16x1x5x16xf32> loc(#loc379)
    %60 = stablehlo.concatenate %58, %59, dim = 2 : (tensor<16x1x1x16xf32>, tensor<16x1x5x16xf32>) -> tensor<16x1x6x16xf32> loc(#loc352)
    %61 = stablehlo.reshape %60 : (tensor<16x1x6x16xf32>) -> tensor<16x6x16xf32> loc(#loc353)
    %62 = stablehlo.broadcast_in_dim %c_22, dims = [] : (tensor<i1>) -> tensor<16x1x6xi1> loc(#loc354)
    %63 = stablehlo.broadcast_in_dim %c_25, dims = [] : (tensor<i32>) -> tensor<1xi32> loc(#loc355)
    %64 = "stablehlo.scatter"(%62, %63, %51) <{indices_are_sorted = true, scatter_dimension_numbers = #stablehlo.scatter<update_window_dims = [0, 1], inserted_window_dims = [2], scatter_dims_to_operand_dims = [2]>, unique_indices = true}> ({
    ^bb0(%arg1: tensor<i1> loc("scatter:"(#loc46)), %arg2: tensor<i1> loc("scatter:"(#loc46))):
      stablehlo.return %arg2 : tensor<i1> loc(#loc356)
    }) : (tensor<16x1x6xi1>, tensor<1xi32>, tensor<16x1xi1>) -> tensor<16x1x6xi1> loc(#loc356)
    %65 = stablehlo.reshape %64 : (tensor<16x1x6xi1>) -> tensor<16x6xi1> loc(#loc357)
    %66 = call @_threefry_fold_in(%4, %c_15) : (tensor<2xui32>, tensor<ui32>) -> tensor<2xui32> loc(#loc555)
    %67 = stablehlo.sqrt %cst_16 : tensor<f32> loc(#loc493)
    %68 = stablehlo.divide %67, %cst_14 : tensor<f32> loc(#loc494)
    %69 = call @_truncated_normal(%66, %c_13, %c_12) : (tensor<2xui32>, tensor<i32>, tensor<i32>) -> tensor<16x16xf32> loc(#loc495)
    %70 = stablehlo.broadcast_in_dim %68, dims = [] : (tensor<f32>) -> tensor<16x16xf32> loc(#loc496)
    %71 = stablehlo.multiply %69, %70 : tensor<16x16xf32> loc(#loc496)
    %72 = call @_threefry_fold_in(%4, %c_11) : (tensor<2xui32>, tensor<ui32>) -> tensor<2xui32> loc(#loc556)
    %73 = stablehlo.broadcast_in_dim %cst_21, dims = [] : (tensor<f32>) -> tensor<16xf32> loc(#loc498)
    %74 = stablehlo.dot_general %61, %71, contracting_dims = [2] x [0] : (tensor<16x6x16xf32>, tensor<16x16xf32>) -> tensor<16x6x16xf32> loc(#loc499)
    %75 = stablehlo.reshape %73 : (tensor<16xf32>) -> tensor<1x1x16xf32> loc(#loc500)
    %76 = stablehlo.broadcast_in_dim %75, dims = [0, 1, 2] : (tensor<1x1x16xf32>) -> tensor<16x6x16xf32> loc(#loc501)
    %77 = stablehlo.add %74, %76 : tensor<16x6x16xf32> loc(#loc501)
    %78 = call @relu(%77) : (tensor<16x6x16xf32>) -> tensor<16x6x16xf32> loc(#loc450)
    %79 = call @_threefry_fold_in(%4, %c_10) : (tensor<2xui32>, tensor<ui32>) -> tensor<2xui32> loc(#loc557)
    %80 = stablehlo.sqrt %cst_16 : tensor<f32> loc(#loc558)
    %81 = stablehlo.divide %80, %cst_14 : tensor<f32> loc(#loc559)
    %82 = call @_truncated_normal(%79, %c_13, %c_12) : (tensor<2xui32>, tensor<i32>, tensor<i32>) -> tensor<16x16xf32> loc(#loc560)
    %83 = stablehlo.broadcast_in_dim %81, dims = [] : (tensor<f32>) -> tensor<16x16xf32> loc(#loc561)
    %84 = stablehlo.multiply %82, %83 : tensor<16x16xf32> loc(#loc561)
    %85 = stablehlo.reshape %84 : (tensor<16x16xf32>) -> tensor<16x2x8xf32> loc(#loc562)
    %86 = call @_threefry_fold_in(%4, %c_9) : (tensor<2xui32>, tensor<ui32>) -> tensor<2xui32> loc(#loc563)
    %87 = stablehlo.broadcast_in_dim %cst_21, dims = [] : (tensor<f32>) -> tensor<16xf32> loc(#loc564)
    %88 = stablehlo.reshape %87 : (tensor<16xf32>) -> tensor<2x8xf32> loc(#loc565)
    %89 = stablehlo.dot_general %78, %85, contracting_dims = [2] x [0] : (tensor<16x6x16xf32>, tensor<16x2x8xf32>) -> tensor<16x6x2x8xf32> loc(#loc508)
    %90 = stablehlo.reshape %88 : (tensor<2x8xf32>) -> tensor<1x1x2x8xf32> loc(#loc509)
    %91 = stablehlo.broadcast_in_dim %90, dims = [0, 1, 2, 3] : (tensor<1x1x2x8xf32>) -> tensor<16x6x2x8xf32> loc(#loc510)
    %92 = stablehlo.add %89, %91 : tensor<16x6x2x8xf32> loc(#loc510)
    %93 = call @_threefry_fold_in(%4, %c_8) : (tensor<2xui32>, tensor<ui32>) -> tensor<2xui32> loc(#loc566)
    %94 = stablehlo.sqrt %cst_16 : tensor<f32> loc(#loc567)
    %95 = stablehlo.divide %94, %cst_14 : tensor<f32> loc(#loc568)
    %96 = call @_truncated_normal(%93, %c_13, %c_12) : (tensor<2xui32>, tensor<i32>, tensor<i32>) -> tensor<16x16xf32> loc(#loc569)
    %97 = stablehlo.broadcast_in_dim %95, dims = [] : (tensor<f32>) -> tensor<16x16xf32> loc(#loc570)
    %98 = stablehlo.multiply %96, %97 : tensor<16x16xf32> loc(#loc570)
    %99 = stablehlo.reshape %98 : (tensor<16x16xf32>) -> tensor<16x2x8xf32> loc(#loc571)
    %100 = call @_threefry_fold_in(%4, %c_7) : (tensor<2xui32>, tensor<ui32>) -> tensor<2xui32> loc(#loc572)
    %101 = stablehlo.broadcast_in_dim %cst_21, dims = [] : (tensor<f32>) -> tensor<16xf32> loc(#loc573)
    %102 = stablehlo.reshape %101 : (tensor<16xf32>) -> tensor<2x8xf32> loc(#loc574)
    %103 = stablehlo.dot_general %78, %99, contracting_dims = [2] x [0] : (tensor<16x6x16xf32>, tensor<16x2x8xf32>) -> tensor<16x6x2x8xf32> loc(#loc517)
    %104 = stablehlo.reshape %102 : (tensor<2x8xf32>) -> tensor<1x1x2x8xf32> loc(#loc518)
    %105 = stablehlo.broadcast_in_dim %104, dims = [0, 1, 2, 3] : (tensor<1x1x2x8xf32>) -> tensor<16x6x2x8xf32> loc(#loc519)
    %106 = stablehlo.add %103, %105 : tensor<16x6x2x8xf32> loc(#loc519)
    %107 = stablehlo.concatenate %45, %106, dim = 1 : (tensor<16x96x2x8xf32>, tensor<16x6x2x8xf32>) -> tensor<16x102x2x8xf32> loc(#loc461)
    %108 = stablehlo.slice %107 [0:16, 6:102, 0:2, 0:8] : (tensor<16x102x2x8xf32>) -> tensor<16x96x2x8xf32> loc(#loc462)
    %109 = call @_threefry_fold_in(%4, %c_6) : (tensor<2xui32>, tensor<ui32>) -> tensor<2xui32> loc(#loc575)
    %110 = stablehlo.sqrt %cst_16 : tensor<f32> loc(#loc576)
    %111 = stablehlo.divide %110, %cst_14 : tensor<f32> loc(#loc577)
    %112 = call @_truncated_normal(%109, %c_13, %c_12) : (tensor<2xui32>, tensor<i32>, tensor<i32>) -> tensor<16x16xf32> loc(#loc578)
    %113 = stablehlo.broadcast_in_dim %111, dims = [] : (tensor<f32>) -> tensor<16x16xf32> loc(#loc579)
    %114 = stablehlo.multiply %112, %113 : tensor<16x16xf32> loc(#loc579)
    %115 = stablehlo.reshape %114 : (tensor<16x16xf32>) -> tensor<16x2x8xf32> loc(#loc580)
    %116 = call @_threefry_fold_in(%4, %c_5) : (tensor<2xui32>, tensor<ui32>) -> tensor<2xui32> loc(#loc581)
    %117 = stablehlo.broadcast_in_dim %cst_21, dims = [] : (tensor<f32>) -> tensor<16xf32> loc(#loc582)
    %118 = stablehlo.reshape %117 : (tensor<16xf32>) -> tensor<2x8xf32> loc(#loc583)
    %119 = stablehlo.convert %65 : (tensor<16x6xi1>) -> tensor<16x6xi32> loc(#loc526)
    %120 = stablehlo.concatenate %44, %119, dim = 1 : (tensor<16x96xi32>, tensor<16x6xi32>) -> tensor<16x102xi32> loc(#loc527)
    %121 = call @cumsum(%120) : (tensor<16x102xi32>) -> tensor<16x102xi32> loc(#loc528)
    %122 = stablehlo.slice %121 [0:16, 96:102] : (tensor<16x102xi32>) -> tensor<16x6xi32> loc(#loc529)
    %123 = stablehlo.broadcast_in_dim %122, dims = [0, 1] : (tensor<16x6xi32>) -> tensor<16x6x1xi32> loc(#loc530)
    %124 = stablehlo.slice %121 [0:16, 6:102] : (tensor<16x102xi32>) -> tensor<16x96xi32> loc(#loc531)
    %125 = stablehlo.broadcast_in_dim %124, dims = [0, 2] : (tensor<16x96xi32>) -> tensor<16x1x96xi32> loc(#loc532)
    %126 = stablehlo.broadcast_in_dim %123, dims = [0, 1, 2] : (tensor<16x6x1xi32>) -> tensor<16x6x96xi32> loc(#loc533)
    %127 = stablehlo.broadcast_in_dim %125, dims = [0, 1, 2] : (tensor<16x1x96xi32>) -> tensor<16x6x96xi32> loc(#loc533)
    %128 = stablehlo.compare EQ, %126, %127, SIGNED : (tensor<16x6x96xi32>, tensor<16x6x96xi32>) -> tensor<16x6x96xi1> loc(#loc533)
    %129 = stablehlo.iota dim = 0 : tensor<102xi32> loc(#loc534)
    %130 = stablehlo.slice %129 [96:102] : (tensor<102xi32>) -> tensor<6xi32> loc(#loc535)
    %131 = stablehlo.broadcast_in_dim %130, dims = [0] : (tensor<6xi32>) -> tensor<6x1xi32> loc(#loc536)
    %132 = stablehlo.slice %129 [6:102] : (tensor<102xi32>) -> tensor<96xi32> loc(#loc537)
    %133 = stablehlo.broadcast_in_dim %132, dims = [1] : (tensor<96xi32>) -> tensor<1x96xi32> loc(#loc538)
    %134 = stablehlo.broadcast_in_dim %131, dims = [0, 1] : (tensor<6x1xi32>) -> tensor<6x96xi32> loc(#loc539)
    %135 = stablehlo.broadcast_in_dim %133, dims = [0, 1] : (tensor<1x96xi32>) -> tensor<6x96xi32> loc(#loc539)
    %136 = stablehlo.compare GE, %134, %135, SIGNED : (tensor<6x96xi32>, tensor<6x96xi32>) -> tensor<6x96xi1> loc(#loc539)
    %137 = stablehlo.broadcast_in_dim %136, dims = [1, 2] : (tensor<6x96xi1>) -> tensor<1x6x96xi1> loc(#loc540)
    %138 = stablehlo.broadcast_in_dim %137, dims = [0, 1, 2] : (tensor<1x6x96xi1>) -> tensor<16x6x96xi1> loc(#loc541)
    %139 = stablehlo.and %128, %138 : tensor<16x6x96xi1> loc(#loc541)
    %140 = stablehlo.broadcast_in_dim %139, dims = [0, 2, 3] : (tensor<16x6x96xi1>) -> tensor<16x1x6x96xi1> loc(#loc542)
    %141 = stablehlo.reshape %92 : (tensor<16x6x2x8xf32>) -> tensor<16x6x2x1x8xf32> loc(#loc476)
    %142 = stablehlo.broadcast_in_dim %140, dims = [0, 1, 3, 4] : (tensor<16x1x6x96xi1>) -> tensor<16x1x1x6x96xi1> loc(#loc477)
    %143 = stablehlo.dot_general %141, %108, batching_dims = [0, 2] x [0, 2], contracting_dims = [4] x [3] : (tensor<16x6x2x1x8xf32>, tensor<16x96x2x8xf32>) -> tensor<16x2x6x1x96xf32> loc(#loc478)
    %144 = stablehlo.broadcast_in_dim %cst_4, dims = [] : (tensor<f32>) -> tensor<16x2x6x1x96xf32> loc(#loc479)
    %145 = stablehlo.multiply %143, %144 : tensor<16x2x6x1x96xf32> loc(#loc479)
    %146 = stablehlo.broadcast_in_dim %c_19, dims = [] : (tensor<i1>) -> tensor<16x2x6x96xi1> loc(#loc480)
    %147 = stablehlo.broadcast_in_dim %146, dims = [1, 2, 3, 4] : (tensor<16x2x6x96xi1>) -> tensor<1x16x2x6x96xi1> loc(#loc480)
    %148 = stablehlo.transpose %142, dims = [2, 0, 1, 3, 4] : (tensor<16x1x1x6x96xi1>) -> tensor<1x16x1x6x96xi1> loc(#loc481)
    %149 = stablehlo.broadcast_in_dim %148, dims = [0, 1, 2, 3, 4] : (tensor<1x16x1x6x96xi1>) -> tensor<1x16x2x6x96xi1> loc(#loc482)
    %150 = stablehlo.and %147, %149 : tensor<1x16x2x6x96xi1> loc(#loc482)
    %151 = call @_where_21(%150, %145, %cst) : (tensor<1x16x2x6x96xi1>, tensor<16x2x6x1x96xf32>, tensor<f32>) -> tensor<1x16x2x6x96xf32> loc(#loc483)
    %152 = call @_threefry_fold_in(%4, %c_3) : (tensor<2xui32>, tensor<ui32>) -> tensor<2xui32> loc(#loc584)
    %153 = stablehlo.sqrt %cst_16 : tensor<f32> loc(#loc585)
    %154 = stablehlo.divide %153, %cst_14 : tensor<f32> loc(#loc586)
    %155 = call @_truncated_normal(%152, %c_13, %c_12) : (tensor<2xui32>, tensor<i32>, tensor<i32>) -> tensor<16x16xf32> loc(#loc587)
    %156 = stablehlo.broadcast_in_dim %154, dims = [] : (tensor<f32>) -> tensor<16x16xf32> loc(#loc588)
    %157 = stablehlo.multiply %155, %156 : tensor<16x16xf32> loc(#loc588)
    %158 = stablehlo.reshape %157 : (tensor<16x16xf32>) -> tensor<2x8x16xf32> loc(#loc589)
    %159 = call @_threefry_fold_in(%4, %c_2) : (tensor<2xui32>, tensor<ui32>) -> tensor<2xui32> loc(#loc590)
    %160 = stablehlo.broadcast_in_dim %cst_21, dims = [] : (tensor<f32>) -> tensor<16xf32> loc(#loc591)
    %161 = call @_threefry_fold_in(%4, %c_1) : (tensor<2xui32>, tensor<ui32>) -> tensor<2xui32> loc(#loc428)
    %162 = stablehlo.sqrt %cst_16 : tensor<f32> loc(#loc382)
    %163 = stablehlo.divide %162, %cst_14 : tensor<f32> loc(#loc383)
    %164 = call @_truncated_normal_22(%161, %c_13, %c_12) : (tensor<2xui32>, tensor<i32>, tensor<i32>) -> tensor<16x33xf32> loc(#loc384)
    %165 = stablehlo.broadcast_in_dim %163, dims = [] : (tensor<f32>) -> tensor<16x33xf32> loc(#loc385)
    %166 = stablehlo.multiply %164, %165 : tensor<16x33xf32> loc(#loc385)
    %167 = call @_threefry_fold_in(%4, %c_0) : (tensor<2xui32>, tensor<ui32>) -> tensor<2xui32> loc(#loc429)
    %168 = stablehlo.sqrt %cst_16 : tensor<f32> loc(#loc387)
    %169 = stablehlo.divide %168, %cst_14 : tensor<f32> loc(#loc388)
    %170 = call @_truncated_normal_27(%167, %c_13, %c_12) : (tensor<2xui32>, tensor<i32>, tensor<i32>) -> tensor<16x1xf32> loc(#loc389)
    %171 = stablehlo.broadcast_in_dim %169, dims = [] : (tensor<f32>) -> tensor<16x1xf32> loc(#loc390)
    %172 = stablehlo.multiply %170, %171 : tensor<16x1xf32> loc(#loc390)
    %173 = call @_threefry_fold_in(%4, %c) : (tensor<2xui32>, tensor<ui32>) -> tensor<2xui32> loc(#loc430)
    %174 = stablehlo.broadcast_in_dim %cst_21, dims = [] : (tensor<f32>) -> tensor<1xf32> loc(#loc392)
    %175 = stablehlo.broadcast_in_dim %cst_21, dims = [] : (tensor<f32>) -> tensor<33x16xf32> loc(#loc592)
    %176 = stablehlo.broadcast_in_dim %cst_21, dims = [] : (tensor<f32>) -> tensor<16x33xf32> loc(#loc592)
    %177 = stablehlo.broadcast_in_dim %cst_21, dims = [] : (tensor<f32>) -> tensor<1xf32> loc(#loc592)
    %178 = stablehlo.broadcast_in_dim %cst_21, dims = [] : (tensor<f32>) -> tensor<16x1xf32> loc(#loc592)
    %179 = stablehlo.broadcast_in_dim %cst_21, dims = [] : (tensor<f32>) -> tensor<16xf32> loc(#loc592)
    %180 = stablehlo.broadcast_in_dim %cst_21, dims = [] : (tensor<f32>) -> tensor<16x16xf32> loc(#loc592)
    %181 = stablehlo.broadcast_in_dim %cst_21, dims = [] : (tensor<f32>) -> tensor<2x8xf32> loc(#loc592)
    %182 = stablehlo.broadcast_in_dim %cst_21, dims = [] : (tensor<f32>) -> tensor<16x2x8xf32> loc(#loc592)
    %183 = stablehlo.broadcast_in_dim %cst_21, dims = [] : (tensor<f32>) -> tensor<16xf32> loc(#loc592)
    %184 = stablehlo.broadcast_in_dim %cst_21, dims = [] : (tensor<f32>) -> tensor<2x8x16xf32> loc(#loc592)
    %185 = stablehlo.broadcast_in_dim %cst_21, dims = [] : (tensor<f32>) -> tensor<2x8xf32> loc(#loc592)
    %186 = stablehlo.broadcast_in_dim %cst_21, dims = [] : (tensor<f32>) -> tensor<16x2x8xf32> loc(#loc592)
    %187 = stablehlo.broadcast_in_dim %cst_21, dims = [] : (tensor<f32>) -> tensor<2x8xf32> loc(#loc592)
    %188 = stablehlo.broadcast_in_dim %cst_21, dims = [] : (tensor<f32>) -> tensor<16x2x8xf32> loc(#loc592)
    %189 = stablehlo.broadcast_in_dim %cst_21, dims = [] : (tensor<f32>) -> tensor<33x16xf32> loc(#loc593)
    %190 = stablehlo.broadcast_in_dim %cst_21, dims = [] : (tensor<f32>) -> tensor<16x33xf32> loc(#loc593)
    %191 = stablehlo.broadcast_in_dim %cst_21, dims = [] : (tensor<f32>) -> tensor<1xf32> loc(#loc593)
    %192 = stablehlo.broadcast_in_dim %cst_21, dims = [] : (tensor<f32>) -> tensor<16x1xf32> loc(#loc593)
    %193 = stablehlo.broadcast_in_dim %cst_21, dims = [] : (tensor<f32>) -> tensor<16xf32> loc(#loc593)
    %194 = stablehlo.broadcast_in_dim %cst_21, dims = [] : (tensor<f32>) -> tensor<16x16xf32> loc(#loc593)
    %195 = stablehlo.broadcast_in_dim %cst_21, dims = [] : (tensor<f32>) -> tensor<2x8xf32> loc(#loc593)
    %196 = stablehlo.broadcast_in_dim %cst_21, dims = [] : (tensor<f32>) -> tensor<16x2x8xf32> loc(#loc593)
    %197 = stablehlo.broadcast_in_dim %cst_21, dims = [] : (tensor<f32>) -> tensor<16xf32> loc(#loc593)
    %198 = stablehlo.broadcast_in_dim %cst_21, dims = [] : (tensor<f32>) -> tensor<2x8x16xf32> loc(#loc593)
    %199 = stablehlo.broadcast_in_dim %cst_21, dims = [] : (tensor<f32>) -> tensor<2x8xf32> loc(#loc593)
    %200 = stablehlo.broadcast_in_dim %cst_21, dims = [] : (tensor<f32>) -> tensor<16x2x8xf32> loc(#loc593)
    %201 = stablehlo.broadcast_in_dim %cst_21, dims = [] : (tensor<f32>) -> tensor<2x8xf32> loc(#loc593)
    %202 = stablehlo.broadcast_in_dim %cst_21, dims = [] : (tensor<f32>) -> tensor<16x2x8xf32> loc(#loc593)
    return %c_25, %35, %36, %37, %38, %39, %40, %41, %42, %43, %21, %28, %29, %30, %31, %32, %33, %34, %44, %45, %46, %56, %166, %174, %172, %73, %71, %102, %99, %160, %158, %88, %85, %118, %115, %c_25, %175, %176, %177, %178, %179, %180, %181, %182, %183, %184, %185, %186, %187, %188, %189, %190, %191, %192, %193, %194, %195, %196, %197, %198, %199, %200, %201, %202 : tensor<i32>, tensor<16x5xi32>, tensor<16xi32>, tensor<16xf32>, tensor<16xi1>, tensor<16xi1>, tensor<16xf32>, tensor<16xf32>, tensor<16xf32>, tensor<16xf32>, tensor<16x5xi32>, tensor<16x5xi32>, tensor<16xi1>, tensor<16xi32>, tensor<16xi1>, tensor<16xi1>, tensor<16x5xi32>, tensor<16xi32>, tensor<16x96xi32>, tensor<16x96x2x8xf32>, tensor<16x96x2x8xf32>, tensor<33x16xf32>, tensor<16x33xf32>, tensor<1xf32>, tensor<16x1xf32>, tensor<16xf32>, tensor<16x16xf32>, tensor<2x8xf32>, tensor<16x2x8xf32>, tensor<16xf32>, tensor<2x8x16xf32>, tensor<2x8xf32>, tensor<16x2x8xf32>, tensor<2x8xf32>, tensor<16x2x8xf32>, tensor<i32>, tensor<33x16xf32>, tensor<16x33xf32>, tensor<1xf32>, tensor<16x1xf32>, tensor<16xf32>, tensor<16x16xf32>, tensor<2x8xf32>, tensor<16x2x8xf32>, tensor<16xf32>, tensor<2x8x16xf32>, tensor<2x8xf32>, tensor<16x2x8xf32>, tensor<2x8xf32>, tensor<16x2x8xf32>, tensor<33x16xf32>, tensor<16x33xf32>, tensor<1xf32>, tensor<16x1xf32>, tensor<16xf32>, tensor<16x16xf32>, tensor<2x8xf32>, tensor<16x2x8xf32>, tensor<16xf32>, tensor<2x8x16xf32>, tensor<2x8xf32>, tensor<16x2x8xf32>, tensor<2x8xf32>, tensor<16x2x8xf32> loc(#loc262)
  } loc(#loc)
  func.func private @_threefry_split(%arg0: tensor<2xui32> loc(unknown)) -> tensor<3x2xui32> {
    %c = stablehlo.constant dense<32> : tensor<ui64> loc(#loc253)
    %c_0 = stablehlo.constant dense<1> : tensor<ui64> loc(#loc253)
    %0 = stablehlo.slice %arg0 [0:1] : (tensor<2xui32>) -> tensor<1xui32> loc(#loc254)
    %1 = stablehlo.reshape %0 : (tensor<1xui32>) -> tensor<ui32> loc(#loc255)
    %2 = stablehlo.slice %arg0 [1:2] : (tensor<2xui32>) -> tensor<1xui32> loc(#loc254)
    %3 = stablehlo.reshape %2 : (tensor<1xui32>) -> tensor<ui32> loc(#loc255)
    %4 = stablehlo.iota dim = 0 : tensor<3xui64> loc(#loc253)
    %5 = stablehlo.broadcast_in_dim %c_0, dims = [] : (tensor<ui64>) -> tensor<3xui64> loc(#loc253)
    %6 = stablehlo.multiply %5, %4 : tensor<3xui64> loc(#loc253)
    %7 = stablehlo.broadcast_in_dim %c, dims = [] : (tensor<ui64>) -> tensor<3xui64> loc(#loc253)
    %8 = stablehlo.shift_right_logical %6, %7 : tensor<3xui64> loc(#loc253)
    %9 = stablehlo.convert %6 : (tensor<3xui64>) -> tensor<3xui32> loc(#loc253)
    %10 = stablehlo.convert %8 : (tensor<3xui64>) -> tensor<3xui32> loc(#loc253)
    %11:2 = call @threefry2x32(%1, %3, %10, %9) : (tensor<ui32>, tensor<ui32>, tensor<3xui32>, tensor<3xui32>) -> (tensor<3xui32>, tensor<3xui32>) loc(#loc150)
    %12 = stablehlo.broadcast_in_dim %11#0, dims = [0] : (tensor<3xui32>) -> tensor<3x1xui32> loc(#loc256)
    %13 = stablehlo.broadcast_in_dim %11#1, dims = [0] : (tensor<3xui32>) -> tensor<3x1xui32> loc(#loc256)
    %14 = stablehlo.concatenate %12, %13, dim = 1 : (tensor<3x1xui32>, tensor<3x1xui32>) -> tensor<3x2xui32> loc(#loc256)
    return %14 : tensor<3x2xui32> loc(#loc)
  } loc(#loc272)
  func.func private @threefry2x32(%arg0: tensor<ui32> loc("RecurrentPPO.init"(#loc4)), %arg1: tensor<ui32> loc("RecurrentPPO.init"(#loc4)), %arg2: tensor<3xui32> loc("RecurrentPPO.init"(#loc4)), %arg3: tensor<3xui32> loc("RecurrentPPO.init"(#loc4))) -> (tensor<3xui32>, tensor<3xui32>) {
    %c = stablehlo.constant dense<1> : tensor<i32> loc(#loc)
    %c_0 = stablehlo.constant dense<5> : tensor<i32> loc(#loc)
    %c_1 = stablehlo.constant dense<0> : tensor<i32> loc(#loc)
    %c_2 = stablehlo.constant dense<466688986> : tensor<ui32> loc(#loc242)
    %c_3 = stablehlo.constant dense<[13, 15, 26, 6]> : tensor<4xui32> loc(#loc242)
    %c_4 = stablehlo.constant dense<[17, 29, 16, 24]> : tensor<4xui32> loc(#loc242)
    %0 = stablehlo.xor %arg0, %arg1 : tensor<ui32> loc(#loc257)
    %1 = stablehlo.xor %0, %c_2 : tensor<ui32> loc(#loc257)
    %2 = stablehlo.broadcast_in_dim %arg0, dims = [] : (tensor<ui32>) -> tensor<3xui32> loc(#loc258)
    %3 = stablehlo.add %arg2, %2 : tensor<3xui32> loc(#loc258)
    %4 = stablehlo.broadcast_in_dim %arg1, dims = [] : (tensor<ui32>) -> tensor<3xui32> loc(#loc258)
    %5 = stablehlo.add %arg3, %4 : tensor<3xui32> loc(#loc258)
    %6:9 = stablehlo.while(%iterArg = %c_1, %iterArg_5 = %c_1, %iterArg_6 = %3, %iterArg_7 = %5, %iterArg_8 = %arg1, %iterArg_9 = %1, %iterArg_10 = %arg0, %iterArg_11 = %c_3, %iterArg_12 = %c_4) : tensor<i32>, tensor<i32>, tensor<3xui32>, tensor<3xui32>, tensor<ui32>, tensor<ui32>, tensor<ui32>, tensor<4xui32>, tensor<4xui32>
    cond {
      %7 = stablehlo.compare LT, %iterArg, %c_0, SIGNED : (tensor<i32>, tensor<i32>) -> tensor<i1> loc(#loc299)
      stablehlo.return %7 : tensor<i1> loc(#loc273)
    } do {
      %7:8 = func.call @closed_call(%iterArg_5, %iterArg_6, %iterArg_7, %iterArg_8, %iterArg_9, %iterArg_10, %iterArg_11, %iterArg_12) : (tensor<i32>, tensor<3xui32>, tensor<3xui32>, tensor<ui32>, tensor<ui32>, tensor<ui32>, tensor<4xui32>, tensor<4xui32>) -> (tensor<i32>, tensor<3xui32>, tensor<3xui32>, tensor<ui32>, tensor<ui32>, tensor<ui32>, tensor<4xui32>, tensor<4xui32>) loc(#loc300)
      %8 = stablehlo.add %iterArg, %c : tensor<i32> loc(#loc301)
      stablehlo.return %8, %7#0, %7#1, %7#2, %7#3, %7#4, %7#5, %7#6, %7#7 : tensor<i32>, tensor<i32>, tensor<3xui32>, tensor<3xui32>, tensor<ui32>, tensor<ui32>, tensor<ui32>, tensor<4xui32>, tensor<4xui32> loc(#loc273)
    } loc(#loc273)
    return %6#2, %6#3 : tensor<3xui32>, tensor<3xui32> loc(#loc150)
  } loc(#loc150)
  func.func private @closed_call(%arg0: tensor<i32> loc(unknown), %arg1: tensor<3xui32> loc(unknown), %arg2: tensor<3xui32> loc(unknown), %arg3: tensor<ui32> loc(unknown), %arg4: tensor<ui32> loc(unknown), %arg5: tensor<ui32> loc(unknown), %arg6: tensor<4xui32> loc(unknown), %arg7: tensor<4xui32> loc(unknown)) -> (tensor<i32>, tensor<3xui32>, tensor<3xui32>, tensor<ui32>, tensor<ui32>, tensor<ui32>, tensor<4xui32>, tensor<4xui32>) {
    %c = stablehlo.constant dense<32> : tensor<ui32> loc(#loc)
    %c_0 = stablehlo.constant dense<1> : tensor<i32> loc(#loc)
    %0 = stablehlo.add %arg0, %c_0 : tensor<i32> loc(#loc97)
    %1 = stablehlo.slice %arg6 [0:1] : (tensor<4xui32>) -> tensor<1xui32> loc(#loc98)
    %2 = stablehlo.reshape %1 : (tensor<1xui32>) -> tensor<ui32> loc(#loc99)
    %3 = stablehlo.add %arg1, %arg2 : tensor<3xui32> loc(#loc97)
    %4 = stablehlo.broadcast_in_dim %2, dims = [] : (tensor<ui32>) -> tensor<3xui32> loc(#loc100)
    %5 = stablehlo.shift_left %arg2, %4 : tensor<3xui32> loc(#loc100)
    %6 = stablehlo.subtract %c, %2 : tensor<ui32> loc(#loc101)
    %7 = stablehlo.broadcast_in_dim %6, dims = [] : (tensor<ui32>) -> tensor<3xui32> loc(#loc102)
    %8 = stablehlo.shift_right_logical %arg2, %7 : tensor<3xui32> loc(#loc102)
    %9 = stablehlo.or %5, %8 : tensor<3xui32> loc(#loc103)
    %10 = stablehlo.xor %3, %9 : tensor<3xui32> loc(#loc104)
    %11 = stablehlo.slice %arg6 [1:2] : (tensor<4xui32>) -> tensor<1xui32> loc(#loc98)
    %12 = stablehlo.reshape %11 : (tensor<1xui32>) -> tensor<ui32> loc(#loc99)
    %13 = stablehlo.add %3, %10 : tensor<3xui32> loc(#loc97)
    %14 = stablehlo.broadcast_in_dim %12, dims = [] : (tensor<ui32>) -> tensor<3xui32> loc(#loc100)
    %15 = stablehlo.shift_left %10, %14 : tensor<3xui32> loc(#loc100)
    %16 = stablehlo.subtract %c, %12 : tensor<ui32> loc(#loc101)
    %17 = stablehlo.broadcast_in_dim %16, dims = [] : (tensor<ui32>) -> tensor<3xui32> loc(#loc102)
    %18 = stablehlo.shift_right_logical %10, %17 : tensor<3xui32> loc(#loc102)
    %19 = stablehlo.or %15, %18 : tensor<3xui32> loc(#loc103)
    %20 = stablehlo.xor %13, %19 : tensor<3xui32> loc(#loc104)
    %21 = stablehlo.slice %arg6 [2:3] : (tensor<4xui32>) -> tensor<1xui32> loc(#loc98)
    %22 = stablehlo.reshape %21 : (tensor<1xui32>) -> tensor<ui32> loc(#loc99)
    %23 = stablehlo.add %13, %20 : tensor<3xui32> loc(#loc97)
    %24 = stablehlo.broadcast_in_dim %22, dims = [] : (tensor<ui32>) -> tensor<3xui32> loc(#loc100)
    %25 = stablehlo.shift_left %20, %24 : tensor<3xui32> loc(#loc100)
    %26 = stablehlo.subtract %c, %22 : tensor<ui32> loc(#loc101)
    %27 = stablehlo.broadcast_in_dim %26, dims = [] : (tensor<ui32>) -> tensor<3xui32> loc(#loc102)
    %28 = stablehlo.shift_right_logical %20, %27 : tensor<3xui32> loc(#loc102)
    %29 = stablehlo.or %25, %28 : tensor<3xui32> loc(#loc103)
    %30 = stablehlo.xor %23, %29 : tensor<3xui32> loc(#loc104)
    %31 = stablehlo.slice %arg6 [3:4] : (tensor<4xui32>) -> tensor<1xui32> loc(#loc98)
    %32 = stablehlo.reshape %31 : (tensor<1xui32>) -> tensor<ui32> loc(#loc99)
    %33 = stablehlo.add %23, %30 : tensor<3xui32> loc(#loc97)
    %34 = stablehlo.broadcast_in_dim %32, dims = [] : (tensor<ui32>) -> tensor<3xui32> loc(#loc100)
    %35 = stablehlo.shift_left %30, %34 : tensor<3xui32> loc(#loc100)
    %36 = stablehlo.subtract %c, %32 : tensor<ui32> loc(#loc101)
    %37 = stablehlo.broadcast_in_dim %36, dims = [] : (tensor<ui32>) -> tensor<3xui32> loc(#loc102)
    %38 = stablehlo.shift_right_logical %30, %37 : tensor<3xui32> loc(#loc102)
    %39 = stablehlo.or %35, %38 : tensor<3xui32> loc(#loc103)
    %40 = stablehlo.xor %33, %39 : tensor<3xui32> loc(#loc104)
    %41 = stablehlo.broadcast_in_dim %arg3, dims = [] : (tensor<ui32>) -> tensor<3xui32> loc(#loc97)
    %42 = stablehlo.add %33, %41 : tensor<3xui32> loc(#loc97)
    %43 = stablehlo.broadcast_in_dim %arg4, dims = [] : (tensor<ui32>) -> tensor<3xui32> loc(#loc97)
    %44 = stablehlo.add %40, %43 : tensor<3xui32> loc(#loc97)
    %45 = stablehlo.add %arg0, %c_0 : tensor<i32> loc(#loc97)
    %46 = stablehlo.convert %45 : (tensor<i32>) -> tensor<ui32> loc(#loc105)
    %47 = stablehlo.broadcast_in_dim %46, dims = [] : (tensor<ui32>) -> tensor<3xui32> loc(#loc97)
    %48 = stablehlo.add %44, %47 : tensor<3xui32> loc(#loc97)
    return %0, %42, %48, %arg4, %arg5, %arg3, %arg7, %arg6 : tensor<i32>, tensor<3xui32>, tensor<3xui32>, tensor<ui32>, tensor<ui32>, tensor<ui32>, tensor<4xui32>, tensor<4xui32> loc(#loc)
  } loc(#loc275)
  func.func private @_threefry_split_0(%arg0: tensor<2xui32> loc(unknown)) -> tensor<16x2xui32> {
    %c = stablehlo.constant dense<32> : tensor<ui64> loc(#loc277)
    %c_0 = stablehlo.constant dense<1> : tensor<ui64> loc(#loc277)
    %0 = stablehlo.slice %arg0 [0:1] : (tensor<2xui32>) -> tensor<1xui32> loc(#loc278)
    %1 = stablehlo.reshape %0 : (tensor<1xui32>) -> tensor<ui32> loc(#loc279)
    %2 = stablehlo.slice %arg0 [1:2] : (tensor<2xui32>) -> tensor<1xui32> loc(#loc278)
    %3 = stablehlo.reshape %2 : (tensor<1xui32>) -> tensor<ui32> loc(#loc279)
    %4 = stablehlo.iota dim = 0 : tensor<16xui64> loc(#loc277)
    %5 = stablehlo.broadcast_in_dim %c_0, dims = [] : (tensor<ui64>) -> tensor<16xui64> loc(#loc277)
    %6 = stablehlo.multiply %5, %4 : tensor<16xui64> loc(#loc277)
    %7 = stablehlo.broadcast_in_dim %c, dims = [] : (tensor<ui64>) -> tensor<16xui64> loc(#loc277)
    %8 = stablehlo.shift_right_logical %6, %7 : tensor<16xui64> loc(#loc277)
    %9 = stablehlo.convert %6 : (tensor<16xui64>) -> tensor<16xui32> loc(#loc277)
    %10 = stablehlo.convert %8 : (tensor<16xui64>) -> tensor<16xui32> loc(#loc277)
    %11:2 = call @threefry2x32_1(%1, %3, %10, %9) : (tensor<ui32>, tensor<ui32>, tensor<16xui32>, tensor<16xui32>) -> (tensor<16xui32>, tensor<16xui32>) loc(#loc261)
    %12 = stablehlo.broadcast_in_dim %11#0, dims = [0] : (tensor<16xui32>) -> tensor<16x1xui32> loc(#loc280)
    %13 = stablehlo.broadcast_in_dim %11#1, dims = [0] : (tensor<16xui32>) -> tensor<16x1xui32> loc(#loc280)
    %14 = stablehlo.concatenate %12, %13, dim = 1 : (tensor<16x1xui32>, tensor<16x1xui32>) -> tensor<16x2xui32> loc(#loc280)
    return %14 : tensor<16x2xui32> loc(#loc)
  } loc(#loc302)
  func.func private @threefry2x32_1(%arg0: tensor<ui32> loc(callsite(#loc243 at #loc244)), %arg1: tensor<ui32> loc(callsite(#loc243 at #loc244)), %arg2: tensor<16xui32> loc(callsite(#loc243 at #loc244)), %arg3: tensor<16xui32> loc(callsite(#loc243 at #loc244))) -> (tensor<16xui32>, tensor<16xui32>) {
    %c = stablehlo.constant dense<1> : tensor<i32> loc(#loc)
    %c_0 = stablehlo.constant dense<5> : tensor<i32> loc(#loc)
    %c_1 = stablehlo.constant dense<0> : tensor<i32> loc(#loc)
    %c_2 = stablehlo.constant dense<466688986> : tensor<ui32> loc(#loc242)
    %c_3 = stablehlo.constant dense<[13, 15, 26, 6]> : tensor<4xui32> loc(#loc242)
    %c_4 = stablehlo.constant dense<[17, 29, 16, 24]> : tensor<4xui32> loc(#loc242)
    %0 = stablehlo.xor %arg0, %arg1 : tensor<ui32> loc(#loc281)
    %1 = stablehlo.xor %0, %c_2 : tensor<ui32> loc(#loc281)
    %2 = stablehlo.broadcast_in_dim %arg0, dims = [] : (tensor<ui32>) -> tensor<16xui32> loc(#loc282)
    %3 = stablehlo.add %arg2, %2 : tensor<16xui32> loc(#loc282)
    %4 = stablehlo.broadcast_in_dim %arg1, dims = [] : (tensor<ui32>) -> tensor<16xui32> loc(#loc282)
    %5 = stablehlo.add %arg3, %4 : tensor<16xui32> loc(#loc282)
    %6:9 = stablehlo.while(%iterArg = %c_1, %iterArg_5 = %c_1, %iterArg_6 = %3, %iterArg_7 = %5, %iterArg_8 = %arg1, %iterArg_9 = %1, %iterArg_10 = %arg0, %iterArg_11 = %c_3, %iterArg_12 = %c_4) : tensor<i32>, tensor<i32>, tensor<16xui32>, tensor<16xui32>, tensor<ui32>, tensor<ui32>, tensor<ui32>, tensor<4xui32>, tensor<4xui32>
    cond {
      %7 = stablehlo.compare LT, %iterArg, %c_0, SIGNED : (tensor<i32>, tensor<i32>) -> tensor<i1> loc(#loc327)
      stablehlo.return %7 : tensor<i1> loc(#loc303)
    } do {
      %7:8 = func.call @closed_call_2(%iterArg_5, %iterArg_6, %iterArg_7, %iterArg_8, %iterArg_9, %iterArg_10, %iterArg_11, %iterArg_12) : (tensor<i32>, tensor<16xui32>, tensor<16xui32>, tensor<ui32>, tensor<ui32>, tensor<ui32>, tensor<4xui32>, tensor<4xui32>) -> (tensor<i32>, tensor<16xui32>, tensor<16xui32>, tensor<ui32>, tensor<ui32>, tensor<ui32>, tensor<4xui32>, tensor<4xui32>) loc(#loc328)
      %8 = stablehlo.add %iterArg, %c : tensor<i32> loc(#loc329)
      stablehlo.return %8, %7#0, %7#1, %7#2, %7#3, %7#4, %7#5, %7#6, %7#7 : tensor<i32>, tensor<i32>, tensor<16xui32>, tensor<16xui32>, tensor<ui32>, tensor<ui32>, tensor<ui32>, tensor<4xui32>, tensor<4xui32> loc(#loc303)
    } loc(#loc303)
    return %6#2, %6#3 : tensor<16xui32>, tensor<16xui32> loc(#loc261)
  } loc(#loc261)
  func.func private @closed_call_2(%arg0: tensor<i32> loc(unknown), %arg1: tensor<16xui32> loc(unknown), %arg2: tensor<16xui32> loc(unknown), %arg3: tensor<ui32> loc(unknown), %arg4: tensor<ui32> loc(unknown), %arg5: tensor<ui32> loc(unknown), %arg6: tensor<4xui32> loc(unknown), %arg7: tensor<4xui32> loc(unknown)) -> (tensor<i32>, tensor<16xui32>, tensor<16xui32>, tensor<ui32>, tensor<ui32>, tensor<ui32>, tensor<4xui32>, tensor<4xui32>) {
    %c = stablehlo.constant dense<32> : tensor<ui32> loc(#loc)
    %c_0 = stablehlo.constant dense<1> : tensor<i32> loc(#loc)
    %0 = stablehlo.add %arg0, %c_0 : tensor<i32> loc(#loc97)
    %1 = stablehlo.slice %arg6 [0:1] : (tensor<4xui32>) -> tensor<1xui32> loc(#loc98)
    %2 = stablehlo.reshape %1 : (tensor<1xui32>) -> tensor<ui32> loc(#loc99)
    %3 = stablehlo.add %arg1, %arg2 : tensor<16xui32> loc(#loc97)
    %4 = stablehlo.broadcast_in_dim %2, dims = [] : (tensor<ui32>) -> tensor<16xui32> loc(#loc100)
    %5 = stablehlo.shift_left %arg2, %4 : tensor<16xui32> loc(#loc100)
    %6 = stablehlo.subtract %c, %2 : tensor<ui32> loc(#loc101)
    %7 = stablehlo.broadcast_in_dim %6, dims = [] : (tensor<ui32>) -> tensor<16xui32> loc(#loc102)
    %8 = stablehlo.shift_right_logical %arg2, %7 : tensor<16xui32> loc(#loc102)
    %9 = stablehlo.or %5, %8 : tensor<16xui32> loc(#loc103)
    %10 = stablehlo.xor %3, %9 : tensor<16xui32> loc(#loc104)
    %11 = stablehlo.slice %arg6 [1:2] : (tensor<4xui32>) -> tensor<1xui32> loc(#loc98)
    %12 = stablehlo.reshape %11 : (tensor<1xui32>) -> tensor<ui32> loc(#loc99)
    %13 = stablehlo.add %3, %10 : tensor<16xui32> loc(#loc97)
    %14 = stablehlo.broadcast_in_dim %12, dims = [] : (tensor<ui32>) -> tensor<16xui32> loc(#loc100)
    %15 = stablehlo.shift_left %10, %14 : tensor<16xui32> loc(#loc100)
    %16 = stablehlo.subtract %c, %12 : tensor<ui32> loc(#loc101)
    %17 = stablehlo.broadcast_in_dim %16, dims = [] : (tensor<ui32>) -> tensor<16xui32> loc(#loc102)
    %18 = stablehlo.shift_right_logical %10, %17 : tensor<16xui32> loc(#loc102)
    %19 = stablehlo.or %15, %18 : tensor<16xui32> loc(#loc103)
    %20 = stablehlo.xor %13, %19 : tensor<16xui32> loc(#loc104)
    %21 = stablehlo.slice %arg6 [2:3] : (tensor<4xui32>) -> tensor<1xui32> loc(#loc98)
    %22 = stablehlo.reshape %21 : (tensor<1xui32>) -> tensor<ui32> loc(#loc99)
    %23 = stablehlo.add %13, %20 : tensor<16xui32> loc(#loc97)
    %24 = stablehlo.broadcast_in_dim %22, dims = [] : (tensor<ui32>) -> tensor<16xui32> loc(#loc100)
    %25 = stablehlo.shift_left %20, %24 : tensor<16xui32> loc(#loc100)
    %26 = stablehlo.subtract %c, %22 : tensor<ui32> loc(#loc101)
    %27 = stablehlo.broadcast_in_dim %26, dims = [] : (tensor<ui32>) -> tensor<16xui32> loc(#loc102)
    %28 = stablehlo.shift_right_logical %20, %27 : tensor<16xui32> loc(#loc102)
    %29 = stablehlo.or %25, %28 : tensor<16xui32> loc(#loc103)
    %30 = stablehlo.xor %23, %29 : tensor<16xui32> loc(#loc104)
    %31 = stablehlo.slice %arg6 [3:4] : (tensor<4xui32>) -> tensor<1xui32> loc(#loc98)
    %32 = stablehlo.reshape %31 : (tensor<1xui32>) -> tensor<ui32> loc(#loc99)
    %33 = stablehlo.add %23, %30 : tensor<16xui32> loc(#loc97)
    %34 = stablehlo.broadcast_in_dim %32, dims = [] : (tensor<ui32>) -> tensor<16xui32> loc(#loc100)
    %35 = stablehlo.shift_left %30, %34 : tensor<16xui32> loc(#loc100)
    %36 = stablehlo.subtract %c, %32 : tensor<ui32> loc(#loc101)
    %37 = stablehlo.broadcast_in_dim %36, dims = [] : (tensor<ui32>) -> tensor<16xui32> loc(#loc102)
    %38 = stablehlo.shift_right_logical %30, %37 : tensor<16xui32> loc(#loc102)
    %39 = stablehlo.or %35, %38 : tensor<16xui32> loc(#loc103)
    %40 = stablehlo.xor %33, %39 : tensor<16xui32> loc(#loc104)
    %41 = stablehlo.broadcast_in_dim %arg3, dims = [] : (tensor<ui32>) -> tensor<16xui32> loc(#loc97)
    %42 = stablehlo.add %33, %41 : tensor<16xui32> loc(#loc97)
    %43 = stablehlo.broadcast_in_dim %arg4, dims = [] : (tensor<ui32>) -> tensor<16xui32> loc(#loc97)
    %44 = stablehlo.add %40, %43 : tensor<16xui32> loc(#loc97)
    %45 = stablehlo.add %arg0, %c_0 : tensor<i32> loc(#loc97)
    %46 = stablehlo.convert %45 : (tensor<i32>) -> tensor<ui32> loc(#loc105)
    %47 = stablehlo.broadcast_in_dim %46, dims = [] : (tensor<ui32>) -> tensor<16xui32> loc(#loc97)
    %48 = stablehlo.add %44, %47 : tensor<16xui32> loc(#loc97)
    return %0, %42, %48, %arg4, %arg5, %arg3, %arg7, %arg6 : tensor<i32>, tensor<16xui32>, tensor<16xui32>, tensor<ui32>, tensor<ui32>, tensor<ui32>, tensor<4xui32>, tensor<4xui32> loc(#loc)
  } loc(#loc305)
  func.func private @_randint(%arg0: tensor<16x2xui32> loc(unknown), %arg1: tensor<i32> loc(unknown), %arg2: tensor<i32> loc(unknown)) -> tensor<16xi32> {
    %c = stablehlo.constant dense<65536> : tensor<ui32> loc(#loc)
    %c_0 = stablehlo.constant dense<1> : tensor<ui32> loc(#loc)
    %c_1 = stablehlo.constant dense<0> : tensor<ui32> loc(#loc)
    %c_2 = stablehlo.constant dense<2147483647> : tensor<i32> loc(#loc)
    %c_3 = stablehlo.constant dense<-2147483648> : tensor<i32> loc(#loc)
    %0 = call @clip(%c_2, %c_3, %c_2) : (tensor<i32>, tensor<i32>, tensor<i32>) -> tensor<i32> loc(#loc108)
    %1 = stablehlo.compare GT, %arg2, %0, SIGNED : (tensor<i32>, tensor<i32>) -> tensor<i1> loc(#loc109)
    %2 = call @clip_3(%arg1, %c_3, %c_2) : (tensor<i32>, tensor<i32>, tensor<i32>) -> tensor<i32> loc(#loc108)
    %3 = stablehlo.convert %2 : tensor<i32> loc(#loc105)
    %4 = call @clip_3(%arg2, %c_3, %c_2) : (tensor<i32>, tensor<i32>, tensor<i32>) -> tensor<i32> loc(#loc108)
    %5 = stablehlo.convert %4 : tensor<i32> loc(#loc105)
    %6 = call @_threefry_split_4(%arg0) : (tensor<16x2xui32>) -> tensor<16x2x2xui32> loc(#loc110)
    %7 = stablehlo.slice %6 [0:16, 0:1, 0:2] : (tensor<16x2x2xui32>) -> tensor<16x1x2xui32> loc(#loc98)
    %8 = stablehlo.reshape %7 : (tensor<16x1x2xui32>) -> tensor<16x2xui32> loc(#loc99)
    %9 = stablehlo.slice %6 [0:16, 1:2, 0:2] : (tensor<16x2x2xui32>) -> tensor<16x1x2xui32> loc(#loc98)
    %10 = stablehlo.reshape %9 : (tensor<16x1x2xui32>) -> tensor<16x2xui32> loc(#loc99)
    %11 = stablehlo.slice %8 [0:16, 0:1] : (tensor<16x2xui32>) -> tensor<16x1xui32> loc(#loc111)
    %12 = stablehlo.reshape %11 : (tensor<16x1xui32>) -> tensor<16xui32> loc(#loc112)
    %13 = stablehlo.slice %8 [0:16, 1:2] : (tensor<16x2xui32>) -> tensor<16x1xui32> loc(#loc111)
    %14 = stablehlo.reshape %13 : (tensor<16x1xui32>) -> tensor<16xui32> loc(#loc112)
    %15:2 = call @threefry2x32_7(%12, %14, %c_1, %c_1) : (tensor<16xui32>, tensor<16xui32>, tensor<ui32>, tensor<ui32>) -> (tensor<16xui32>, tensor<16xui32>) loc(#loc113)
    %16 = stablehlo.xor %15#0, %15#1 : tensor<16xui32> loc(#loc114)
    %17 = stablehlo.slice %10 [0:16, 0:1] : (tensor<16x2xui32>) -> tensor<16x1xui32> loc(#loc111)
    %18 = stablehlo.reshape %17 : (tensor<16x1xui32>) -> tensor<16xui32> loc(#loc112)
    %19 = stablehlo.slice %10 [0:16, 1:2] : (tensor<16x2xui32>) -> tensor<16x1xui32> loc(#loc111)
    %20 = stablehlo.reshape %19 : (tensor<16x1xui32>) -> tensor<16xui32> loc(#loc112)
    %21:2 = call @threefry2x32_7(%18, %20, %c_1, %c_1) : (tensor<16xui32>, tensor<16xui32>, tensor<ui32>, tensor<ui32>) -> (tensor<16xui32>, tensor<16xui32>) loc(#loc113)
    %22 = stablehlo.xor %21#0, %21#1 : tensor<16xui32> loc(#loc114)
    %23 = stablehlo.subtract %5, %3 : tensor<i32> loc(#loc101)
    %24 = stablehlo.convert %23 : (tensor<i32>) -> tensor<ui32> loc(#loc105)
    %25 = stablehlo.compare LE, %5, %3, SIGNED : (tensor<i32>, tensor<i32>) -> tensor<i1> loc(#loc115)
    %26 = stablehlo.select %25, %c_0, %24 : tensor<i1>, tensor<ui32> loc(#loc116)
    %27 = stablehlo.compare GT, %5, %3, SIGNED : (tensor<i32>, tensor<i32>) -> tensor<i1> loc(#loc109)
    %28 = stablehlo.and %1, %27 : tensor<i1> loc(#loc117)
    %29 = stablehlo.add %26, %c_0 : tensor<ui32> loc(#loc97)
    %30 = stablehlo.select %28, %29, %26 : tensor<i1>, tensor<ui32> loc(#loc116)
    %31 = stablehlo.remainder %c, %30 : tensor<ui32> loc(#loc118)
    %32 = stablehlo.multiply %31, %31 : tensor<ui32> loc(#loc119)
    %33 = stablehlo.remainder %32, %30 : tensor<ui32> loc(#loc118)
    %34 = stablehlo.broadcast_in_dim %30, dims = [] : (tensor<ui32>) -> tensor<16xui32> loc(#loc118)
    %35 = stablehlo.remainder %16, %34 : tensor<16xui32> loc(#loc118)
    %36 = stablehlo.broadcast_in_dim %33, dims = [] : (tensor<ui32>) -> tensor<16xui32> loc(#loc119)
    %37 = stablehlo.multiply %35, %36 : tensor<16xui32> loc(#loc119)
    %38 = stablehlo.broadcast_in_dim %30, dims = [] : (tensor<ui32>) -> tensor<16xui32> loc(#loc118)
    %39 = stablehlo.remainder %22, %38 : tensor<16xui32> loc(#loc118)
    %40 = stablehlo.add %37, %39 : tensor<16xui32> loc(#loc97)
    %41 = stablehlo.broadcast_in_dim %30, dims = [] : (tensor<ui32>) -> tensor<16xui32> loc(#loc118)
    %42 = stablehlo.remainder %40, %41 : tensor<16xui32> loc(#loc118)
    %43 = stablehlo.convert %42 : (tensor<16xui32>) -> tensor<16xi32> loc(#loc105)
    %44 = stablehlo.broadcast_in_dim %3, dims = [] : (tensor<i32>) -> tensor<16xi32> loc(#loc97)
    %45 = stablehlo.add %44, %43 : tensor<16xi32> loc(#loc97)
    return %45 : tensor<16xi32> loc(#loc)
  } loc(#loc488)
  func.func private @clip(%arg0: tensor<i32> loc(unknown), %arg1: tensor<i32> loc(unknown), %arg2: tensor<i32> loc(unknown)) -> tensor<i32> {
    %0 = stablehlo.maximum %arg1, %arg0 : tensor<i32> loc(#loc121)
    %1 = stablehlo.minimum %arg2, %0 : tensor<i32> loc(#loc122)
    return %1 : tensor<i32> loc(#loc)
  } loc(#loc245)
  func.func private @clip_3(%arg0: tensor<i32> loc(unknown), %arg1: tensor<i32> loc(unknown), %arg2: tensor<i32> loc(unknown)) -> tensor<i32> {
    %0 = stablehlo.maximum %arg1, %arg0 : tensor<i32> loc(#loc121)
    %1 = stablehlo.minimum %arg2, %0 : tensor<i32> loc(#loc122)
    return %1 : tensor<i32> loc(#loc)
  } loc(#loc245)
  func.func private @_threefry_split_4(%arg0: tensor<16x2xui32> loc(unknown)) -> tensor<16x2x2xui32> {
    %c = stablehlo.constant dense<32> : tensor<ui64> loc(#loc124)
    %c_0 = stablehlo.constant dense<1> : tensor<ui64> loc(#loc124)
    %0 = stablehlo.slice %arg0 [0:16, 0:1] : (tensor<16x2xui32>) -> tensor<16x1xui32> loc(#loc98)
    %1 = stablehlo.reshape %0 : (tensor<16x1xui32>) -> tensor<16xui32> loc(#loc99)
    %2 = stablehlo.slice %arg0 [0:16, 1:2] : (tensor<16x2xui32>) -> tensor<16x1xui32> loc(#loc98)
    %3 = stablehlo.reshape %2 : (tensor<16x1xui32>) -> tensor<16xui32> loc(#loc99)
    %4 = stablehlo.iota dim = 0 : tensor<2xui64> loc(#loc124)
    %5 = stablehlo.broadcast_in_dim %c_0, dims = [] : (tensor<ui64>) -> tensor<2xui64> loc(#loc124)
    %6 = stablehlo.multiply %5, %4 : tensor<2xui64> loc(#loc124)
    %7 = stablehlo.broadcast_in_dim %c, dims = [] : (tensor<ui64>) -> tensor<2xui64> loc(#loc124)
    %8 = stablehlo.shift_right_logical %6, %7 : tensor<2xui64> loc(#loc124)
    %9 = stablehlo.convert %6 : (tensor<2xui64>) -> tensor<2xui32> loc(#loc124)
    %10 = stablehlo.convert %8 : (tensor<2xui64>) -> tensor<2xui32> loc(#loc124)
    %11 = stablehlo.broadcast_in_dim %10, dims = [1] : (tensor<2xui32>) -> tensor<1x2xui32> loc(#loc125)
    %12 = stablehlo.broadcast_in_dim %9, dims = [1] : (tensor<2xui32>) -> tensor<1x2xui32> loc(#loc125)
    %13 = stablehlo.broadcast_in_dim %1, dims = [0] : (tensor<16xui32>) -> tensor<16x1xui32> loc(#loc125)
    %14 = stablehlo.broadcast_in_dim %3, dims = [0] : (tensor<16xui32>) -> tensor<16x1xui32> loc(#loc125)
    %15:2 = call @threefry2x32_5(%13, %14, %11, %12) : (tensor<16x1xui32>, tensor<16x1xui32>, tensor<1x2xui32>, tensor<1x2xui32>) -> (tensor<16x2xui32>, tensor<16x2xui32>) loc(#loc)
    %16 = stablehlo.broadcast_in_dim %15#0, dims = [0, 1] : (tensor<16x2xui32>) -> tensor<16x2x1xui32> loc(#loc126)
    %17 = stablehlo.broadcast_in_dim %15#1, dims = [0, 1] : (tensor<16x2xui32>) -> tensor<16x2x1xui32> loc(#loc126)
    %18 = stablehlo.concatenate %16, %17, dim = 2 : (tensor<16x2x1xui32>, tensor<16x2x1xui32>) -> tensor<16x2x2xui32> loc(#loc126)
    return %18 : tensor<16x2x2xui32> loc(#loc)
  } loc(#loc246)
  func.func private @threefry2x32_5(%arg0: tensor<16x1xui32> loc(unknown), %arg1: tensor<16x1xui32> loc(unknown), %arg2: tensor<1x2xui32> loc(unknown), %arg3: tensor<1x2xui32> loc(unknown)) -> (tensor<16x2xui32>, tensor<16x2xui32>) {
    %c = stablehlo.constant dense<1> : tensor<i32> loc(#loc)
    %c_0 = stablehlo.constant dense<5> : tensor<i32> loc(#loc)
    %c_1 = stablehlo.constant dense<0> : tensor<i32> loc(#loc)
    %c_2 = stablehlo.constant dense<466688986> : tensor<ui32> loc(#loc242)
    %c_3 = stablehlo.constant dense<[13, 15, 26, 6]> : tensor<4xui32> loc(#loc242)
    %c_4 = stablehlo.constant dense<[17, 29, 16, 24]> : tensor<4xui32> loc(#loc242)
    %0 = stablehlo.xor %arg0, %arg1 : tensor<16x1xui32> loc(#loc104)
    %1 = stablehlo.broadcast_in_dim %c_2, dims = [] : (tensor<ui32>) -> tensor<16x1xui32> loc(#loc104)
    %2 = stablehlo.xor %0, %1 : tensor<16x1xui32> loc(#loc104)
    %3 = stablehlo.broadcast_in_dim %arg2, dims = [0, 1] : (tensor<1x2xui32>) -> tensor<16x2xui32> loc(#loc97)
    %4 = stablehlo.broadcast_in_dim %arg0, dims = [0, 1] : (tensor<16x1xui32>) -> tensor<16x2xui32> loc(#loc97)
    %5 = stablehlo.add %3, %4 : tensor<16x2xui32> loc(#loc97)
    %6 = stablehlo.broadcast_in_dim %arg3, dims = [0, 1] : (tensor<1x2xui32>) -> tensor<16x2xui32> loc(#loc97)
    %7 = stablehlo.broadcast_in_dim %arg1, dims = [0, 1] : (tensor<16x1xui32>) -> tensor<16x2xui32> loc(#loc97)
    %8 = stablehlo.add %6, %7 : tensor<16x2xui32> loc(#loc97)
    %9:9 = stablehlo.while(%iterArg = %c_1, %iterArg_5 = %c_1, %iterArg_6 = %5, %iterArg_7 = %8, %iterArg_8 = %arg1, %iterArg_9 = %2, %iterArg_10 = %arg0, %iterArg_11 = %c_3, %iterArg_12 = %c_4) : tensor<i32>, tensor<i32>, tensor<16x2xui32>, tensor<16x2xui32>, tensor<16x1xui32>, tensor<16x1xui32>, tensor<16x1xui32>, tensor<4xui32>, tensor<4xui32>
    cond {
      %10 = stablehlo.compare LT, %iterArg, %c_0, SIGNED : (tensor<i32>, tensor<i32>) -> tensor<i1> loc(#loc128)
      stablehlo.return %10 : tensor<i1> loc(#loc127)
    } do {
      %10:8 = func.call @closed_call_6(%iterArg_5, %iterArg_6, %iterArg_7, %iterArg_8, %iterArg_9, %iterArg_10, %iterArg_11, %iterArg_12) : (tensor<i32>, tensor<16x2xui32>, tensor<16x2xui32>, tensor<16x1xui32>, tensor<16x1xui32>, tensor<16x1xui32>, tensor<4xui32>, tensor<4xui32>) -> (tensor<i32>, tensor<16x2xui32>, tensor<16x2xui32>, tensor<16x1xui32>, tensor<16x1xui32>, tensor<16x1xui32>, tensor<4xui32>, tensor<4xui32>) loc(#loc129)
      %11 = stablehlo.add %iterArg, %c : tensor<i32> loc(#loc130)
      stablehlo.return %11, %10#0, %10#1, %10#2, %10#3, %10#4, %10#5, %10#6, %10#7 : tensor<i32>, tensor<i32>, tensor<16x2xui32>, tensor<16x2xui32>, tensor<16x1xui32>, tensor<16x1xui32>, tensor<16x1xui32>, tensor<4xui32>, tensor<4xui32> loc(#loc127)
    } loc(#loc127)
    return %9#2, %9#3 : tensor<16x2xui32>, tensor<16x2xui32> loc(#loc)
  } loc(#loc)
  func.func private @closed_call_6(%arg0: tensor<i32> loc(unknown), %arg1: tensor<16x2xui32> loc(unknown), %arg2: tensor<16x2xui32> loc(unknown), %arg3: tensor<16x1xui32> loc(unknown), %arg4: tensor<16x1xui32> loc(unknown), %arg5: tensor<16x1xui32> loc(unknown), %arg6: tensor<4xui32> loc(unknown), %arg7: tensor<4xui32> loc(unknown)) -> (tensor<i32>, tensor<16x2xui32>, tensor<16x2xui32>, tensor<16x1xui32>, tensor<16x1xui32>, tensor<16x1xui32>, tensor<4xui32>, tensor<4xui32>) {
    %c = stablehlo.constant dense<32> : tensor<ui32> loc(#loc)
    %c_0 = stablehlo.constant dense<1> : tensor<i32> loc(#loc)
    %0 = stablehlo.add %arg0, %c_0 : tensor<i32> loc(#loc97)
    %1 = stablehlo.slice %arg6 [0:1] : (tensor<4xui32>) -> tensor<1xui32> loc(#loc98)
    %2 = stablehlo.reshape %1 : (tensor<1xui32>) -> tensor<ui32> loc(#loc99)
    %3 = stablehlo.add %arg1, %arg2 : tensor<16x2xui32> loc(#loc97)
    %4 = stablehlo.broadcast_in_dim %2, dims = [] : (tensor<ui32>) -> tensor<16x2xui32> loc(#loc100)
    %5 = stablehlo.shift_left %arg2, %4 : tensor<16x2xui32> loc(#loc100)
    %6 = stablehlo.subtract %c, %2 : tensor<ui32> loc(#loc101)
    %7 = stablehlo.broadcast_in_dim %6, dims = [] : (tensor<ui32>) -> tensor<16x2xui32> loc(#loc102)
    %8 = stablehlo.shift_right_logical %arg2, %7 : tensor<16x2xui32> loc(#loc102)
    %9 = stablehlo.or %5, %8 : tensor<16x2xui32> loc(#loc103)
    %10 = stablehlo.xor %3, %9 : tensor<16x2xui32> loc(#loc104)
    %11 = stablehlo.slice %arg6 [1:2] : (tensor<4xui32>) -> tensor<1xui32> loc(#loc98)
    %12 = stablehlo.reshape %11 : (tensor<1xui32>) -> tensor<ui32> loc(#loc99)
    %13 = stablehlo.add %3, %10 : tensor<16x2xui32> loc(#loc97)
    %14 = stablehlo.broadcast_in_dim %12, dims = [] : (tensor<ui32>) -> tensor<16x2xui32> loc(#loc100)
    %15 = stablehlo.shift_left %10, %14 : tensor<16x2xui32> loc(#loc100)
    %16 = stablehlo.subtract %c, %12 : tensor<ui32> loc(#loc101)
    %17 = stablehlo.broadcast_in_dim %16, dims = [] : (tensor<ui32>) -> tensor<16x2xui32> loc(#loc102)
    %18 = stablehlo.shift_right_logical %10, %17 : tensor<16x2xui32> loc(#loc102)
    %19 = stablehlo.or %15, %18 : tensor<16x2xui32> loc(#loc103)
    %20 = stablehlo.xor %13, %19 : tensor<16x2xui32> loc(#loc104)
    %21 = stablehlo.slice %arg6 [2:3] : (tensor<4xui32>) -> tensor<1xui32> loc(#loc98)
    %22 = stablehlo.reshape %21 : (tensor<1xui32>) -> tensor<ui32> loc(#loc99)
    %23 = stablehlo.add %13, %20 : tensor<16x2xui32> loc(#loc97)
    %24 = stablehlo.broadcast_in_dim %22, dims = [] : (tensor<ui32>) -> tensor<16x2xui32> loc(#loc100)
    %25 = stablehlo.shift_left %20, %24 : tensor<16x2xui32> loc(#loc100)
    %26 = stablehlo.subtract %c, %22 : tensor<ui32> loc(#loc101)
    %27 = stablehlo.broadcast_in_dim %26, dims = [] : (tensor<ui32>) -> tensor<16x2xui32> loc(#loc102)
    %28 = stablehlo.shift_right_logical %20, %27 : tensor<16x2xui32> loc(#loc102)
    %29 = stablehlo.or %25, %28 : tensor<16x2xui32> loc(#loc103)
    %30 = stablehlo.xor %23, %29 : tensor<16x2xui32> loc(#loc104)
    %31 = stablehlo.slice %arg6 [3:4] : (tensor<4xui32>) -> tensor<1xui32> loc(#loc98)
    %32 = stablehlo.reshape %31 : (tensor<1xui32>) -> tensor<ui32> loc(#loc99)
    %33 = stablehlo.add %23, %30 : tensor<16x2xui32> loc(#loc97)
    %34 = stablehlo.broadcast_in_dim %32, dims = [] : (tensor<ui32>) -> tensor<16x2xui32> loc(#loc100)
    %35 = stablehlo.shift_left %30, %34 : tensor<16x2xui32> loc(#loc100)
    %36 = stablehlo.subtract %c, %32 : tensor<ui32> loc(#loc101)
    %37 = stablehlo.broadcast_in_dim %36, dims = [] : (tensor<ui32>) -> tensor<16x2xui32> loc(#loc102)
    %38 = stablehlo.shift_right_logical %30, %37 : tensor<16x2xui32> loc(#loc102)
    %39 = stablehlo.or %35, %38 : tensor<16x2xui32> loc(#loc103)
    %40 = stablehlo.xor %33, %39 : tensor<16x2xui32> loc(#loc104)
    %41 = stablehlo.broadcast_in_dim %arg3, dims = [0, 1] : (tensor<16x1xui32>) -> tensor<16x2xui32> loc(#loc97)
    %42 = stablehlo.add %33, %41 : tensor<16x2xui32> loc(#loc97)
    %43 = stablehlo.broadcast_in_dim %arg4, dims = [0, 1] : (tensor<16x1xui32>) -> tensor<16x2xui32> loc(#loc97)
    %44 = stablehlo.add %40, %43 : tensor<16x2xui32> loc(#loc97)
    %45 = stablehlo.add %arg0, %c_0 : tensor<i32> loc(#loc97)
    %46 = stablehlo.convert %45 : (tensor<i32>) -> tensor<ui32> loc(#loc105)
    %47 = stablehlo.broadcast_in_dim %46, dims = [] : (tensor<ui32>) -> tensor<16x2xui32> loc(#loc97)
    %48 = stablehlo.add %44, %47 : tensor<16x2xui32> loc(#loc97)
    return %0, %42, %48, %arg4, %arg5, %arg3, %arg7, %arg6 : tensor<i32>, tensor<16x2xui32>, tensor<16x2xui32>, tensor<16x1xui32>, tensor<16x1xui32>, tensor<16x1xui32>, tensor<4xui32>, tensor<4xui32> loc(#loc)
  } loc(#loc247)
  func.func private @threefry2x32_7(%arg0: tensor<16xui32> loc("vmap()"), %arg1: tensor<16xui32> loc("vmap()"), %arg2: tensor<ui32> loc("vmap()"), %arg3: tensor<ui32> loc("vmap()")) -> (tensor<16xui32>, tensor<16xui32>) {
    %c = stablehlo.constant dense<1> : tensor<i32> loc(#loc)
    %c_0 = stablehlo.constant dense<5> : tensor<i32> loc(#loc)
    %c_1 = stablehlo.constant dense<0> : tensor<i32> loc(#loc)
    %c_2 = stablehlo.constant dense<466688986> : tensor<ui32> loc(#loc242)
    %c_3 = stablehlo.constant dense<[13, 15, 26, 6]> : tensor<4xui32> loc(#loc242)
    %c_4 = stablehlo.constant dense<[17, 29, 16, 24]> : tensor<4xui32> loc(#loc242)
    %0 = stablehlo.xor %arg0, %arg1 : tensor<16xui32> loc(#loc104)
    %1 = stablehlo.broadcast_in_dim %c_2, dims = [] : (tensor<ui32>) -> tensor<16xui32> loc(#loc104)
    %2 = stablehlo.xor %0, %1 : tensor<16xui32> loc(#loc104)
    %3 = stablehlo.broadcast_in_dim %arg2, dims = [] : (tensor<ui32>) -> tensor<16xui32> loc(#loc97)
    %4 = stablehlo.add %3, %arg0 : tensor<16xui32> loc(#loc97)
    %5 = stablehlo.broadcast_in_dim %arg3, dims = [] : (tensor<ui32>) -> tensor<16xui32> loc(#loc97)
    %6 = stablehlo.add %5, %arg1 : tensor<16xui32> loc(#loc97)
    %7:9 = stablehlo.while(%iterArg = %c_1, %iterArg_5 = %c_1, %iterArg_6 = %4, %iterArg_7 = %6, %iterArg_8 = %arg1, %iterArg_9 = %2, %iterArg_10 = %arg0, %iterArg_11 = %c_3, %iterArg_12 = %c_4) : tensor<i32>, tensor<i32>, tensor<16xui32>, tensor<16xui32>, tensor<16xui32>, tensor<16xui32>, tensor<16xui32>, tensor<4xui32>, tensor<4xui32>
    cond {
      %8 = stablehlo.compare LT, %iterArg, %c_0, SIGNED : (tensor<i32>, tensor<i32>) -> tensor<i1> loc(#loc128)
      stablehlo.return %8 : tensor<i1> loc(#loc127)
    } do {
      %8:8 = func.call @closed_call_8(%iterArg_5, %iterArg_6, %iterArg_7, %iterArg_8, %iterArg_9, %iterArg_10, %iterArg_11, %iterArg_12) : (tensor<i32>, tensor<16xui32>, tensor<16xui32>, tensor<16xui32>, tensor<16xui32>, tensor<16xui32>, tensor<4xui32>, tensor<4xui32>) -> (tensor<i32>, tensor<16xui32>, tensor<16xui32>, tensor<16xui32>, tensor<16xui32>, tensor<16xui32>, tensor<4xui32>, tensor<4xui32>) loc(#loc129)
      %9 = stablehlo.add %iterArg, %c : tensor<i32> loc(#loc130)
      stablehlo.return %9, %8#0, %8#1, %8#2, %8#3, %8#4, %8#5, %8#6, %8#7 : tensor<i32>, tensor<i32>, tensor<16xui32>, tensor<16xui32>, tensor<16xui32>, tensor<16xui32>, tensor<16xui32>, tensor<4xui32>, tensor<4xui32> loc(#loc127)
    } loc(#loc127)
    return %7#2, %7#3 : tensor<16xui32>, tensor<16xui32> loc(#loc113)
  } loc(#loc113)
  func.func private @closed_call_8(%arg0: tensor<i32> loc(unknown), %arg1: tensor<16xui32> loc(unknown), %arg2: tensor<16xui32> loc(unknown), %arg3: tensor<16xui32> loc(unknown), %arg4: tensor<16xui32> loc(unknown), %arg5: tensor<16xui32> loc(unknown), %arg6: tensor<4xui32> loc(unknown), %arg7: tensor<4xui32> loc(unknown)) -> (tensor<i32>, tensor<16xui32>, tensor<16xui32>, tensor<16xui32>, tensor<16xui32>, tensor<16xui32>, tensor<4xui32>, tensor<4xui32>) {
    %c = stablehlo.constant dense<32> : tensor<ui32> loc(#loc)
    %c_0 = stablehlo.constant dense<1> : tensor<i32> loc(#loc)
    %0 = stablehlo.add %arg0, %c_0 : tensor<i32> loc(#loc97)
    %1 = stablehlo.slice %arg6 [0:1] : (tensor<4xui32>) -> tensor<1xui32> loc(#loc98)
    %2 = stablehlo.reshape %1 : (tensor<1xui32>) -> tensor<ui32> loc(#loc99)
    %3 = stablehlo.add %arg1, %arg2 : tensor<16xui32> loc(#loc97)
    %4 = stablehlo.broadcast_in_dim %2, dims = [] : (tensor<ui32>) -> tensor<16xui32> loc(#loc100)
    %5 = stablehlo.shift_left %arg2, %4 : tensor<16xui32> loc(#loc100)
    %6 = stablehlo.subtract %c, %2 : tensor<ui32> loc(#loc101)
    %7 = stablehlo.broadcast_in_dim %6, dims = [] : (tensor<ui32>) -> tensor<16xui32> loc(#loc102)
    %8 = stablehlo.shift_right_logical %arg2, %7 : tensor<16xui32> loc(#loc102)
    %9 = stablehlo.or %5, %8 : tensor<16xui32> loc(#loc103)
    %10 = stablehlo.xor %3, %9 : tensor<16xui32> loc(#loc104)
    %11 = stablehlo.slice %arg6 [1:2] : (tensor<4xui32>) -> tensor<1xui32> loc(#loc98)
    %12 = stablehlo.reshape %11 : (tensor<1xui32>) -> tensor<ui32> loc(#loc99)
    %13 = stablehlo.add %3, %10 : tensor<16xui32> loc(#loc97)
    %14 = stablehlo.broadcast_in_dim %12, dims = [] : (tensor<ui32>) -> tensor<16xui32> loc(#loc100)
    %15 = stablehlo.shift_left %10, %14 : tensor<16xui32> loc(#loc100)
    %16 = stablehlo.subtract %c, %12 : tensor<ui32> loc(#loc101)
    %17 = stablehlo.broadcast_in_dim %16, dims = [] : (tensor<ui32>) -> tensor<16xui32> loc(#loc102)
    %18 = stablehlo.shift_right_logical %10, %17 : tensor<16xui32> loc(#loc102)
    %19 = stablehlo.or %15, %18 : tensor<16xui32> loc(#loc103)
    %20 = stablehlo.xor %13, %19 : tensor<16xui32> loc(#loc104)
    %21 = stablehlo.slice %arg6 [2:3] : (tensor<4xui32>) -> tensor<1xui32> loc(#loc98)
    %22 = stablehlo.reshape %21 : (tensor<1xui32>) -> tensor<ui32> loc(#loc99)
    %23 = stablehlo.add %13, %20 : tensor<16xui32> loc(#loc97)
    %24 = stablehlo.broadcast_in_dim %22, dims = [] : (tensor<ui32>) -> tensor<16xui32> loc(#loc100)
    %25 = stablehlo.shift_left %20, %24 : tensor<16xui32> loc(#loc100)
    %26 = stablehlo.subtract %c, %22 : tensor<ui32> loc(#loc101)
    %27 = stablehlo.broadcast_in_dim %26, dims = [] : (tensor<ui32>) -> tensor<16xui32> loc(#loc102)
    %28 = stablehlo.shift_right_logical %20, %27 : tensor<16xui32> loc(#loc102)
    %29 = stablehlo.or %25, %28 : tensor<16xui32> loc(#loc103)
    %30 = stablehlo.xor %23, %29 : tensor<16xui32> loc(#loc104)
    %31 = stablehlo.slice %arg6 [3:4] : (tensor<4xui32>) -> tensor<1xui32> loc(#loc98)
    %32 = stablehlo.reshape %31 : (tensor<1xui32>) -> tensor<ui32> loc(#loc99)
    %33 = stablehlo.add %23, %30 : tensor<16xui32> loc(#loc97)
    %34 = stablehlo.broadcast_in_dim %32, dims = [] : (tensor<ui32>) -> tensor<16xui32> loc(#loc100)
    %35 = stablehlo.shift_left %30, %34 : tensor<16xui32> loc(#loc100)
    %36 = stablehlo.subtract %c, %32 : tensor<ui32> loc(#loc101)
    %37 = stablehlo.broadcast_in_dim %36, dims = [] : (tensor<ui32>) -> tensor<16xui32> loc(#loc102)
    %38 = stablehlo.shift_right_logical %30, %37 : tensor<16xui32> loc(#loc102)
    %39 = stablehlo.or %35, %38 : tensor<16xui32> loc(#loc103)
    %40 = stablehlo.xor %33, %39 : tensor<16xui32> loc(#loc104)
    %41 = stablehlo.add %33, %arg3 : tensor<16xui32> loc(#loc97)
    %42 = stablehlo.add %40, %arg4 : tensor<16xui32> loc(#loc97)
    %43 = stablehlo.add %arg0, %c_0 : tensor<i32> loc(#loc97)
    %44 = stablehlo.convert %43 : (tensor<i32>) -> tensor<ui32> loc(#loc105)
    %45 = stablehlo.broadcast_in_dim %44, dims = [] : (tensor<ui32>) -> tensor<16xui32> loc(#loc97)
    %46 = stablehlo.add %42, %45 : tensor<16xui32> loc(#loc97)
    return %0, %41, %46, %arg4, %arg5, %arg3, %arg7, %arg6 : tensor<i32>, tensor<16xui32>, tensor<16xui32>, tensor<16xui32>, tensor<16xui32>, tensor<16xui32>, tensor<4xui32>, tensor<4xui32> loc(#loc)
  } loc(#loc247)
  func.func private @_one_hot(%arg0: tensor<5xi32> loc(unknown)) -> tensor<5x3xf32> {
    %0 = stablehlo.broadcast_in_dim %arg0, dims = [0] : (tensor<5xi32>) -> tensor<5x1xi32> loc(#loc125)
    %1 = stablehlo.iota dim = 1 : tensor<1x3xi32> loc(#loc131)
    %2 = stablehlo.broadcast_in_dim %0, dims = [0, 1] : (tensor<5x1xi32>) -> tensor<5x3xi32> loc(#loc132)
    %3 = stablehlo.broadcast_in_dim %1, dims = [0, 1] : (tensor<1x3xi32>) -> tensor<5x3xi32> loc(#loc132)
    %4 = stablehlo.compare EQ, %2, %3, SIGNED : (tensor<5x3xi32>, tensor<5x3xi32>) -> tensor<5x3xi1> loc(#loc132)
    %5 = stablehlo.convert %4 : (tensor<5x3xi1>) -> tensor<5x3xf32> loc(#loc105)
    return %5 : tensor<5x3xf32> loc(#loc)
  } loc(#loc550)
  func.func private @_where(%arg0: tensor<i1> loc(unknown), %arg1: tensor<15xf32> loc(unknown), %arg2: tensor<f32> loc(unknown)) -> tensor<15xf32> {
    %0 = stablehlo.convert %arg2 : tensor<f32> loc(#loc105)
    %1 = stablehlo.broadcast_in_dim %0, dims = [] : (tensor<f32>) -> tensor<15xf32> loc(#loc125)
    %2 = stablehlo.select %arg0, %arg1, %1 : tensor<i1>, tensor<15xf32> loc(#loc116)
    return %2 : tensor<15xf32> loc(#loc)
  } loc(#loc551)
  func.func private @_threefry_fold_in(%arg0: tensor<2xui32> loc(unknown), %arg1: tensor<ui32> loc(unknown)) -> tensor<2xui32> {
    %c = stablehlo.constant dense<4294967295> : tensor<ui32> loc(#loc)
    %c_0 = stablehlo.constant dense<32> : tensor<ui32> loc(#loc)
    %0 = stablehlo.shift_right_logical %arg1, %c_0 : tensor<ui32> loc(#loc331)
    %1 = stablehlo.broadcast_in_dim %0, dims = [] : (tensor<ui32>) -> tensor<1xui32> loc(#loc332)
    %2 = stablehlo.and %arg1, %c : tensor<ui32> loc(#loc333)
    %3 = stablehlo.broadcast_in_dim %2, dims = [] : (tensor<ui32>) -> tensor<1xui32> loc(#loc332)
    %4 = stablehlo.concatenate %1, %3, dim = 0 : (tensor<1xui32>, tensor<1xui32>) -> tensor<2xui32> loc(#loc334)
    %5 = stablehlo.slice %arg0 [0:1] : (tensor<2xui32>) -> tensor<1xui32> loc(#loc335)
    %6 = stablehlo.reshape %5 : (tensor<1xui32>) -> tensor<ui32> loc(#loc336)
    %7 = stablehlo.slice %arg0 [1:2] : (tensor<2xui32>) -> tensor<1xui32> loc(#loc335)
    %8 = stablehlo.reshape %7 : (tensor<1xui32>) -> tensor<ui32> loc(#loc336)
    %9 = stablehlo.slice %4 [0:1] : (tensor<2xui32>) -> tensor<1xui32> loc(#loc337)
    %10 = stablehlo.slice %4 [1:2] : (tensor<2xui32>) -> tensor<1xui32> loc(#loc337)
    %11:2 = call @threefry2x32_9(%6, %8, %9, %10) : (tensor<ui32>, tensor<ui32>, tensor<1xui32>, tensor<1xui32>) -> (tensor<1xui32>, tensor<1xui32>) loc(#loc294)
    %12 = stablehlo.concatenate %11#0, %11#1, dim = 0 : (tensor<1xui32>, tensor<1xui32>) -> tensor<2xui32> loc(#loc334)
    return %12 : tensor<2xui32> loc(#loc)
  } loc(#loc363)
  func.func private @threefry2x32_9(%arg0: tensor<ui32> loc(callsite(#loc180 at #loc269)), %arg1: tensor<ui32> loc(callsite(#loc180 at #loc269)), %arg2: tensor<1xui32> loc(callsite(#loc180 at #loc269)), %arg3: tensor<1xui32> loc(callsite(#loc180 at #loc269))) -> (tensor<1xui32>, tensor<1xui32>) {
    %c = stablehlo.constant dense<1> : tensor<i32> loc(#loc)
    %c_0 = stablehlo.constant dense<5> : tensor<i32> loc(#loc)
    %c_1 = stablehlo.constant dense<0> : tensor<i32> loc(#loc)
    %c_2 = stablehlo.constant dense<466688986> : tensor<ui32> loc(#loc242)
    %c_3 = stablehlo.constant dense<[13, 15, 26, 6]> : tensor<4xui32> loc(#loc242)
    %c_4 = stablehlo.constant dense<[17, 29, 16, 24]> : tensor<4xui32> loc(#loc242)
    %0 = stablehlo.xor %arg0, %arg1 : tensor<ui32> loc(#loc338)
    %1 = stablehlo.xor %0, %c_2 : tensor<ui32> loc(#loc338)
    %2 = stablehlo.broadcast_in_dim %arg0, dims = [] : (tensor<ui32>) -> tensor<1xui32> loc(#loc339)
    %3 = stablehlo.add %arg2, %2 : tensor<1xui32> loc(#loc339)
    %4 = stablehlo.broadcast_in_dim %arg1, dims = [] : (tensor<ui32>) -> tensor<1xui32> loc(#loc339)
    %5 = stablehlo.add %arg3, %4 : tensor<1xui32> loc(#loc339)
    %6:9 = stablehlo.while(%iterArg = %c_1, %iterArg_5 = %c_1, %iterArg_6 = %3, %iterArg_7 = %5, %iterArg_8 = %arg1, %iterArg_9 = %1, %iterArg_10 = %arg0, %iterArg_11 = %c_3, %iterArg_12 = %c_4) : tensor<i32>, tensor<i32>, tensor<1xui32>, tensor<1xui32>, tensor<ui32>, tensor<ui32>, tensor<ui32>, tensor<4xui32>, tensor<4xui32>
    cond {
      %7 = stablehlo.compare LT, %iterArg, %c_0, SIGNED : (tensor<i32>, tensor<i32>) -> tensor<i1> loc(#loc394)
      stablehlo.return %7 : tensor<i1> loc(#loc364)
    } do {
      %7:8 = func.call @closed_call_10(%iterArg_5, %iterArg_6, %iterArg_7, %iterArg_8, %iterArg_9, %iterArg_10, %iterArg_11, %iterArg_12) : (tensor<i32>, tensor<1xui32>, tensor<1xui32>, tensor<ui32>, tensor<ui32>, tensor<ui32>, tensor<4xui32>, tensor<4xui32>) -> (tensor<i32>, tensor<1xui32>, tensor<1xui32>, tensor<ui32>, tensor<ui32>, tensor<ui32>, tensor<4xui32>, tensor<4xui32>) loc(#loc395)
      %8 = stablehlo.add %iterArg, %c : tensor<i32> loc(#loc396)
      stablehlo.return %8, %7#0, %7#1, %7#2, %7#3, %7#4, %7#5, %7#6, %7#7 : tensor<i32>, tensor<i32>, tensor<1xui32>, tensor<1xui32>, tensor<ui32>, tensor<ui32>, tensor<ui32>, tensor<4xui32>, tensor<4xui32> loc(#loc364)
    } loc(#loc364)
    return %6#2, %6#3 : tensor<1xui32>, tensor<1xui32> loc(#loc294)
  } loc(#loc294)
  func.func private @closed_call_10(%arg0: tensor<i32> loc(unknown), %arg1: tensor<1xui32> loc(unknown), %arg2: tensor<1xui32> loc(unknown), %arg3: tensor<ui32> loc(unknown), %arg4: tensor<ui32> loc(unknown), %arg5: tensor<ui32> loc(unknown), %arg6: tensor<4xui32> loc(unknown), %arg7: tensor<4xui32> loc(unknown)) -> (tensor<i32>, tensor<1xui32>, tensor<1xui32>, tensor<ui32>, tensor<ui32>, tensor<ui32>, tensor<4xui32>, tensor<4xui32>) {
    %c = stablehlo.constant dense<32> : tensor<ui32> loc(#loc)
    %c_0 = stablehlo.constant dense<1> : tensor<i32> loc(#loc)
    %0 = stablehlo.add %arg0, %c_0 : tensor<i32> loc(#loc97)
    %1 = stablehlo.slice %arg6 [0:1] : (tensor<4xui32>) -> tensor<1xui32> loc(#loc98)
    %2 = stablehlo.reshape %1 : (tensor<1xui32>) -> tensor<ui32> loc(#loc99)
    %3 = stablehlo.add %arg1, %arg2 : tensor<1xui32> loc(#loc97)
    %4 = stablehlo.broadcast_in_dim %2, dims = [] : (tensor<ui32>) -> tensor<1xui32> loc(#loc100)
    %5 = stablehlo.shift_left %arg2, %4 : tensor<1xui32> loc(#loc100)
    %6 = stablehlo.subtract %c, %2 : tensor<ui32> loc(#loc101)
    %7 = stablehlo.broadcast_in_dim %6, dims = [] : (tensor<ui32>) -> tensor<1xui32> loc(#loc102)
    %8 = stablehlo.shift_right_logical %arg2, %7 : tensor<1xui32> loc(#loc102)
    %9 = stablehlo.or %5, %8 : tensor<1xui32> loc(#loc103)
    %10 = stablehlo.xor %3, %9 : tensor<1xui32> loc(#loc104)
    %11 = stablehlo.slice %arg6 [1:2] : (tensor<4xui32>) -> tensor<1xui32> loc(#loc98)
    %12 = stablehlo.reshape %11 : (tensor<1xui32>) -> tensor<ui32> loc(#loc99)
    %13 = stablehlo.add %3, %10 : tensor<1xui32> loc(#loc97)
    %14 = stablehlo.broadcast_in_dim %12, dims = [] : (tensor<ui32>) -> tensor<1xui32> loc(#loc100)
    %15 = stablehlo.shift_left %10, %14 : tensor<1xui32> loc(#loc100)
    %16 = stablehlo.subtract %c, %12 : tensor<ui32> loc(#loc101)
    %17 = stablehlo.broadcast_in_dim %16, dims = [] : (tensor<ui32>) -> tensor<1xui32> loc(#loc102)
    %18 = stablehlo.shift_right_logical %10, %17 : tensor<1xui32> loc(#loc102)
    %19 = stablehlo.or %15, %18 : tensor<1xui32> loc(#loc103)
    %20 = stablehlo.xor %13, %19 : tensor<1xui32> loc(#loc104)
    %21 = stablehlo.slice %arg6 [2:3] : (tensor<4xui32>) -> tensor<1xui32> loc(#loc98)
    %22 = stablehlo.reshape %21 : (tensor<1xui32>) -> tensor<ui32> loc(#loc99)
    %23 = stablehlo.add %13, %20 : tensor<1xui32> loc(#loc97)
    %24 = stablehlo.broadcast_in_dim %22, dims = [] : (tensor<ui32>) -> tensor<1xui32> loc(#loc100)
    %25 = stablehlo.shift_left %20, %24 : tensor<1xui32> loc(#loc100)
    %26 = stablehlo.subtract %c, %22 : tensor<ui32> loc(#loc101)
    %27 = stablehlo.broadcast_in_dim %26, dims = [] : (tensor<ui32>) -> tensor<1xui32> loc(#loc102)
    %28 = stablehlo.shift_right_logical %20, %27 : tensor<1xui32> loc(#loc102)
    %29 = stablehlo.or %25, %28 : tensor<1xui32> loc(#loc103)
    %30 = stablehlo.xor %23, %29 : tensor<1xui32> loc(#loc104)
    %31 = stablehlo.slice %arg6 [3:4] : (tensor<4xui32>) -> tensor<1xui32> loc(#loc98)
    %32 = stablehlo.reshape %31 : (tensor<1xui32>) -> tensor<ui32> loc(#loc99)
    %33 = stablehlo.add %23, %30 : tensor<1xui32> loc(#loc97)
    %34 = stablehlo.broadcast_in_dim %32, dims = [] : (tensor<ui32>) -> tensor<1xui32> loc(#loc100)
    %35 = stablehlo.shift_left %30, %34 : tensor<1xui32> loc(#loc100)
    %36 = stablehlo.subtract %c, %32 : tensor<ui32> loc(#loc101)
    %37 = stablehlo.broadcast_in_dim %36, dims = [] : (tensor<ui32>) -> tensor<1xui32> loc(#loc102)
    %38 = stablehlo.shift_right_logical %30, %37 : tensor<1xui32> loc(#loc102)
    %39 = stablehlo.or %35, %38 : tensor<1xui32> loc(#loc103)
    %40 = stablehlo.xor %33, %39 : tensor<1xui32> loc(#loc104)
    %41 = stablehlo.broadcast_in_dim %arg3, dims = [] : (tensor<ui32>) -> tensor<1xui32> loc(#loc97)
    %42 = stablehlo.add %33, %41 : tensor<1xui32> loc(#loc97)
    %43 = stablehlo.broadcast_in_dim %arg4, dims = [] : (tensor<ui32>) -> tensor<1xui32> loc(#loc97)
    %44 = stablehlo.add %40, %43 : tensor<1xui32> loc(#loc97)
    %45 = stablehlo.add %arg0, %c_0 : tensor<i32> loc(#loc97)
    %46 = stablehlo.convert %45 : (tensor<i32>) -> tensor<ui32> loc(#loc105)
    %47 = stablehlo.broadcast_in_dim %46, dims = [] : (tensor<ui32>) -> tensor<1xui32> loc(#loc97)
    %48 = stablehlo.add %44, %47 : tensor<1xui32> loc(#loc97)
    return %0, %42, %48, %arg4, %arg5, %arg3, %arg7, %arg6 : tensor<i32>, tensor<1xui32>, tensor<1xui32>, tensor<ui32>, tensor<ui32>, tensor<ui32>, tensor<4xui32>, tensor<4xui32> loc(#loc)
  } loc(#loc366)
  func.func private @_normal(%arg0: tensor<2xui32> loc(unknown)) -> tensor<33x16xf32> {
    %0 = call @_normal_real(%arg0) : (tensor<2xui32>) -> tensor<33x16xf32> loc(#loc133)
    return %0 : tensor<33x16xf32> loc(#loc)
  } loc(#loc434)
  func.func private @_normal_real(%arg0: tensor<2xui32> loc(unknown)) -> tensor<33x16xf32> {
    %cst = stablehlo.constant dense<0x7F800000> : tensor<33x16xf32> loc(#loc134)
    %cst_0 = stablehlo.constant dense<1.000000e+00> : tensor<33x16xf32> loc(#loc134)
    %cst_1 = stablehlo.constant dense<2.83297682> : tensor<33x16xf32> loc(#loc134)
    %cst_2 = stablehlo.constant dense<1.50140941> : tensor<33x16xf32> loc(#loc134)
    %cst_3 = stablehlo.constant dense<1.00167406> : tensor<33x16xf32> loc(#loc134)
    %cst_4 = stablehlo.constant dense<0.246640727> : tensor<33x16xf32> loc(#loc134)
    %cst_5 = stablehlo.constant dense<0.00943887047> : tensor<33x16xf32> loc(#loc134)
    %cst_6 = stablehlo.constant dense<-0.00417768164> : tensor<33x16xf32> loc(#loc134)
    %cst_7 = stablehlo.constant dense<-0.0076224613> : tensor<33x16xf32> loc(#loc134)
    %cst_8 = stablehlo.constant dense<-0.00125372503> : tensor<33x16xf32> loc(#loc134)
    %cst_9 = stablehlo.constant dense<0.00573950773> : tensor<33x16xf32> loc(#loc134)
    %cst_10 = stablehlo.constant dense<2.1858087E-4> : tensor<33x16xf32> loc(#loc134)
    %cst_11 = stablehlo.constant dense<-0.00367342844> : tensor<33x16xf32> loc(#loc134)
    %cst_12 = stablehlo.constant dense<-4.39150654E-6> : tensor<33x16xf32> loc(#loc134)
    %cst_13 = stablehlo.constant dense<0.00134934322> : tensor<33x16xf32> loc(#loc134)
    %cst_14 = stablehlo.constant dense<-3.5233877E-6> : tensor<33x16xf32> loc(#loc134)
    %cst_15 = stablehlo.constant dense<1.00950558E-4> : tensor<33x16xf32> loc(#loc134)
    %cst_16 = stablehlo.constant dense<3.43273939E-7> : tensor<33x16xf32> loc(#loc134)
    %cst_17 = stablehlo.constant dense<-2.00214257E-4> : tensor<33x16xf32> loc(#loc134)
    %cst_18 = stablehlo.constant dense<2.81022636E-8> : tensor<33x16xf32> loc(#loc134)
    %cst_19 = stablehlo.constant dense<3.000000e+00> : tensor<33x16xf32> loc(#loc134)
    %cst_20 = stablehlo.constant dense<2.500000e+00> : tensor<33x16xf32> loc(#loc134)
    %cst_21 = stablehlo.constant dense<5.000000e+00> : tensor<33x16xf32> loc(#loc134)
    %cst_22 = stablehlo.constant dense<1.41421354> : tensor<f32> loc(#loc)
    %cst_23 = stablehlo.constant dense<-0.99999994> : tensor<f32> loc(#loc)
    %cst_24 = stablehlo.constant dense<1.000000e+00> : tensor<f32> loc(#loc)
    %0 = call @_uniform(%arg0, %cst_23, %cst_24) : (tensor<2xui32>, tensor<f32>, tensor<f32>) -> tensor<33x16xf32> loc(#loc135)
    %1 = stablehlo.negate %0 : tensor<33x16xf32> loc(#loc134)
    %2 = stablehlo.multiply %0, %1 : tensor<33x16xf32> loc(#loc134)
    %3 = stablehlo.log_plus_one %2 : tensor<33x16xf32> loc(#loc134)
    %4 = stablehlo.negate %3 : tensor<33x16xf32> loc(#loc134)
    %5 = stablehlo.compare LT, %4, %cst_21 : (tensor<33x16xf32>, tensor<33x16xf32>) -> tensor<33x16xi1> loc(#loc134)
    %6 = stablehlo.subtract %4, %cst_20 : tensor<33x16xf32> loc(#loc134)
    %7 = stablehlo.sqrt %4 : tensor<33x16xf32> loc(#loc134)
    %8 = stablehlo.subtract %7, %cst_19 : tensor<33x16xf32> loc(#loc134)
    %9 = stablehlo.select %5, %6, %8 : tensor<33x16xi1>, tensor<33x16xf32> loc(#loc134)
    %10 = stablehlo.select %5, %cst_18, %cst_17 : tensor<33x16xi1>, tensor<33x16xf32> loc(#loc134)
    %11 = stablehlo.select %5, %cst_16, %cst_15 : tensor<33x16xi1>, tensor<33x16xf32> loc(#loc134)
    %12 = stablehlo.multiply %10, %9 : tensor<33x16xf32> loc(#loc134)
    %13 = stablehlo.add %11, %12 : tensor<33x16xf32> loc(#loc134)
    %14 = stablehlo.select %5, %cst_14, %cst_13 : tensor<33x16xi1>, tensor<33x16xf32> loc(#loc134)
    %15 = stablehlo.multiply %13, %9 : tensor<33x16xf32> loc(#loc134)
    %16 = stablehlo.add %14, %15 : tensor<33x16xf32> loc(#loc134)
    %17 = stablehlo.select %5, %cst_12, %cst_11 : tensor<33x16xi1>, tensor<33x16xf32> loc(#loc134)
    %18 = stablehlo.multiply %16, %9 : tensor<33x16xf32> loc(#loc134)
    %19 = stablehlo.add %17, %18 : tensor<33x16xf32> loc(#loc134)
    %20 = stablehlo.select %5, %cst_10, %cst_9 : tensor<33x16xi1>, tensor<33x16xf32> loc(#loc134)
    %21 = stablehlo.multiply %19, %9 : tensor<33x16xf32> loc(#loc134)
    %22 = stablehlo.add %20, %21 : tensor<33x16xf32> loc(#loc134)
    %23 = stablehlo.select %5, %cst_8, %cst_7 : tensor<33x16xi1>, tensor<33x16xf32> loc(#loc134)
    %24 = stablehlo.multiply %22, %9 : tensor<33x16xf32> loc(#loc134)
    %25 = stablehlo.add %23, %24 : tensor<33x16xf32> loc(#loc134)
    %26 = stablehlo.select %5, %cst_6, %cst_5 : tensor<33x16xi1>, tensor<33x16xf32> loc(#loc134)
    %27 = stablehlo.multiply %25, %9 : tensor<33x16xf32> loc(#loc134)
    %28 = stablehlo.add %26, %27 : tensor<33x16xf32> loc(#loc134)
    %29 = stablehlo.select %5, %cst_4, %cst_3 : tensor<33x16xi1>, tensor<33x16xf32> loc(#loc134)
    %30 = stablehlo.multiply %28, %9 : tensor<33x16xf32> loc(#loc134)
    %31 = stablehlo.add %29, %30 : tensor<33x16xf32> loc(#loc134)
    %32 = stablehlo.select %5, %cst_2, %cst_1 : tensor<33x16xi1>, tensor<33x16xf32> loc(#loc134)
    %33 = stablehlo.multiply %31, %9 : tensor<33x16xf32> loc(#loc134)
    %34 = stablehlo.add %32, %33 : tensor<33x16xf32> loc(#loc134)
    %35 = stablehlo.multiply %34, %0 : tensor<33x16xf32> loc(#loc134)
    %36 = stablehlo.abs %0 : tensor<33x16xf32> loc(#loc134)
    %37 = stablehlo.compare EQ, %36, %cst_0 : (tensor<33x16xf32>, tensor<33x16xf32>) -> tensor<33x16xi1> loc(#loc134)
    %38 = stablehlo.multiply %0, %cst : tensor<33x16xf32> loc(#loc134)
    %39 = stablehlo.select %37, %38, %35 : tensor<33x16xi1>, tensor<33x16xf32> loc(#loc134)
    %40 = stablehlo.broadcast_in_dim %cst_22, dims = [] : (tensor<f32>) -> tensor<33x16xf32> loc(#loc119)
    %41 = stablehlo.multiply %40, %39 : tensor<33x16xf32> loc(#loc119)
    return %41 : tensor<33x16xf32> loc(#loc)
  } loc(#loc245)
  func.func private @_uniform(%arg0: tensor<2xui32> loc(unknown), %arg1: tensor<f32> loc(unknown), %arg2: tensor<f32> loc(unknown)) -> tensor<33x16xf32> {
    %cst = stablehlo.constant dense<1.000000e+00> : tensor<f32> loc(#loc)
    %c = stablehlo.constant dense<1065353216> : tensor<ui32> loc(#loc)
    %c_0 = stablehlo.constant dense<9> : tensor<ui32> loc(#loc)
    %c_1 = stablehlo.constant dense<32> : tensor<ui64> loc(#loc124)
    %c_2 = stablehlo.constant dense<1> : tensor<ui64> loc(#loc124)
    %c_3 = stablehlo.constant dense<16> : tensor<ui64> loc(#loc124)
    %0 = stablehlo.broadcast_in_dim %arg1, dims = [] : (tensor<f32>) -> tensor<1x1xf32> loc(#loc125)
    %1 = stablehlo.broadcast_in_dim %arg2, dims = [] : (tensor<f32>) -> tensor<1x1xf32> loc(#loc125)
    %2 = stablehlo.slice %arg0 [0:1] : (tensor<2xui32>) -> tensor<1xui32> loc(#loc98)
    %3 = stablehlo.reshape %2 : (tensor<1xui32>) -> tensor<ui32> loc(#loc99)
    %4 = stablehlo.slice %arg0 [1:2] : (tensor<2xui32>) -> tensor<1xui32> loc(#loc98)
    %5 = stablehlo.reshape %4 : (tensor<1xui32>) -> tensor<ui32> loc(#loc99)
    %6 = stablehlo.iota dim = 0 : tensor<33x16xui64> loc(#loc124)
    %7 = stablehlo.iota dim = 1 : tensor<33x16xui64> loc(#loc124)
    %8 = stablehlo.broadcast_in_dim %c_3, dims = [] : (tensor<ui64>) -> tensor<33x16xui64> loc(#loc124)
    %9 = stablehlo.multiply %8, %6 : tensor<33x16xui64> loc(#loc124)
    %10 = stablehlo.broadcast_in_dim %c_2, dims = [] : (tensor<ui64>) -> tensor<33x16xui64> loc(#loc124)
    %11 = stablehlo.multiply %10, %7 : tensor<33x16xui64> loc(#loc124)
    %12 = stablehlo.add %9, %11 : tensor<33x16xui64> loc(#loc124)
    %13 = stablehlo.broadcast_in_dim %c_1, dims = [] : (tensor<ui64>) -> tensor<33x16xui64> loc(#loc124)
    %14 = stablehlo.shift_right_logical %12, %13 : tensor<33x16xui64> loc(#loc124)
    %15 = stablehlo.convert %12 : (tensor<33x16xui64>) -> tensor<33x16xui32> loc(#loc124)
    %16 = stablehlo.convert %14 : (tensor<33x16xui64>) -> tensor<33x16xui32> loc(#loc124)
    %17:2 = call @threefry2x32_11(%3, %5, %16, %15) : (tensor<ui32>, tensor<ui32>, tensor<33x16xui32>, tensor<33x16xui32>) -> (tensor<33x16xui32>, tensor<33x16xui32>) loc(#loc136)
    %18 = stablehlo.xor %17#0, %17#1 : tensor<33x16xui32> loc(#loc104)
    %19 = stablehlo.broadcast_in_dim %c_0, dims = [] : (tensor<ui32>) -> tensor<33x16xui32> loc(#loc102)
    %20 = stablehlo.shift_right_logical %18, %19 : tensor<33x16xui32> loc(#loc102)
    %21 = stablehlo.broadcast_in_dim %c, dims = [] : (tensor<ui32>) -> tensor<33x16xui32> loc(#loc103)
    %22 = stablehlo.or %20, %21 : tensor<33x16xui32> loc(#loc103)
    %23 = stablehlo.bitcast_convert %22 : (tensor<33x16xui32>) -> tensor<33x16xf32> loc(#loc137)
    %24 = stablehlo.broadcast_in_dim %cst, dims = [] : (tensor<f32>) -> tensor<33x16xf32> loc(#loc101)
    %25 = stablehlo.subtract %23, %24 : tensor<33x16xf32> loc(#loc101)
    %26 = stablehlo.subtract %1, %0 : tensor<1x1xf32> loc(#loc101)
    %27 = stablehlo.broadcast_in_dim %26, dims = [0, 1] : (tensor<1x1xf32>) -> tensor<33x16xf32> loc(#loc119)
    %28 = stablehlo.multiply %25, %27 : tensor<33x16xf32> loc(#loc119)
    %29 = stablehlo.broadcast_in_dim %0, dims = [0, 1] : (tensor<1x1xf32>) -> tensor<33x16xf32> loc(#loc97)
    %30 = stablehlo.add %28, %29 : tensor<33x16xf32> loc(#loc97)
    %31 = stablehlo.broadcast_in_dim %0, dims = [0, 1] : (tensor<1x1xf32>) -> tensor<33x16xf32> loc(#loc121)
    %32 = stablehlo.maximum %31, %30 : tensor<33x16xf32> loc(#loc121)
    return %32 : tensor<33x16xf32> loc(#loc)
  } loc(#loc245)
  func.func private @threefry2x32_11(%arg0: tensor<ui32> loc(unknown), %arg1: tensor<ui32> loc(unknown), %arg2: tensor<33x16xui32> loc(unknown), %arg3: tensor<33x16xui32> loc(unknown)) -> (tensor<33x16xui32>, tensor<33x16xui32>) {
    %c = stablehlo.constant dense<1> : tensor<i32> loc(#loc)
    %c_0 = stablehlo.constant dense<5> : tensor<i32> loc(#loc)
    %c_1 = stablehlo.constant dense<0> : tensor<i32> loc(#loc)
    %c_2 = stablehlo.constant dense<466688986> : tensor<ui32> loc(#loc242)
    %c_3 = stablehlo.constant dense<[13, 15, 26, 6]> : tensor<4xui32> loc(#loc242)
    %c_4 = stablehlo.constant dense<[17, 29, 16, 24]> : tensor<4xui32> loc(#loc242)
    %0 = stablehlo.xor %arg0, %arg1 : tensor<ui32> loc(#loc104)
    %1 = stablehlo.xor %0, %c_2 : tensor<ui32> loc(#loc104)
    %2 = stablehlo.broadcast_in_dim %arg0, dims = [] : (tensor<ui32>) -> tensor<33x16xui32> loc(#loc97)
    %3 = stablehlo.add %arg2, %2 : tensor<33x16xui32> loc(#loc97)
    %4 = stablehlo.broadcast_in_dim %arg1, dims = [] : (tensor<ui32>) -> tensor<33x16xui32> loc(#loc97)
    %5 = stablehlo.add %arg3, %4 : tensor<33x16xui32> loc(#loc97)
    %6:9 = stablehlo.while(%iterArg = %c_1, %iterArg_5 = %c_1, %iterArg_6 = %3, %iterArg_7 = %5, %iterArg_8 = %arg1, %iterArg_9 = %1, %iterArg_10 = %arg0, %iterArg_11 = %c_3, %iterArg_12 = %c_4) : tensor<i32>, tensor<i32>, tensor<33x16xui32>, tensor<33x16xui32>, tensor<ui32>, tensor<ui32>, tensor<ui32>, tensor<4xui32>, tensor<4xui32>
    cond {
      %7 = stablehlo.compare LT, %iterArg, %c_0, SIGNED : (tensor<i32>, tensor<i32>) -> tensor<i1> loc(#loc128)
      stablehlo.return %7 : tensor<i1> loc(#loc127)
    } do {
      %7:8 = func.call @closed_call_12(%iterArg_5, %iterArg_6, %iterArg_7, %iterArg_8, %iterArg_9, %iterArg_10, %iterArg_11, %iterArg_12) : (tensor<i32>, tensor<33x16xui32>, tensor<33x16xui32>, tensor<ui32>, tensor<ui32>, tensor<ui32>, tensor<4xui32>, tensor<4xui32>) -> (tensor<i32>, tensor<33x16xui32>, tensor<33x16xui32>, tensor<ui32>, tensor<ui32>, tensor<ui32>, tensor<4xui32>, tensor<4xui32>) loc(#loc129)
      %8 = stablehlo.add %iterArg, %c : tensor<i32> loc(#loc130)
      stablehlo.return %8, %7#0, %7#1, %7#2, %7#3, %7#4, %7#5, %7#6, %7#7 : tensor<i32>, tensor<i32>, tensor<33x16xui32>, tensor<33x16xui32>, tensor<ui32>, tensor<ui32>, tensor<ui32>, tensor<4xui32>, tensor<4xui32> loc(#loc127)
    } loc(#loc127)
    return %6#2, %6#3 : tensor<33x16xui32>, tensor<33x16xui32> loc(#loc)
  } loc(#loc)
  func.func private @closed_call_12(%arg0: tensor<i32> loc(unknown), %arg1: tensor<33x16xui32> loc(unknown), %arg2: tensor<33x16xui32> loc(unknown), %arg3: tensor<ui32> loc(unknown), %arg4: tensor<ui32> loc(unknown), %arg5: tensor<ui32> loc(unknown), %arg6: tensor<4xui32> loc(unknown), %arg7: tensor<4xui32> loc(unknown)) -> (tensor<i32>, tensor<33x16xui32>, tensor<33x16xui32>, tensor<ui32>, tensor<ui32>, tensor<ui32>, tensor<4xui32>, tensor<4xui32>) {
    %c = stablehlo.constant dense<32> : tensor<ui32> loc(#loc)
    %c_0 = stablehlo.constant dense<1> : tensor<i32> loc(#loc)
    %0 = stablehlo.add %arg0, %c_0 : tensor<i32> loc(#loc97)
    %1 = stablehlo.slice %arg6 [0:1] : (tensor<4xui32>) -> tensor<1xui32> loc(#loc98)
    %2 = stablehlo.reshape %1 : (tensor<1xui32>) -> tensor<ui32> loc(#loc99)
    %3 = stablehlo.add %arg1, %arg2 : tensor<33x16xui32> loc(#loc97)
    %4 = stablehlo.broadcast_in_dim %2, dims = [] : (tensor<ui32>) -> tensor<33x16xui32> loc(#loc100)
    %5 = stablehlo.shift_left %arg2, %4 : tensor<33x16xui32> loc(#loc100)
    %6 = stablehlo.subtract %c, %2 : tensor<ui32> loc(#loc101)
    %7 = stablehlo.broadcast_in_dim %6, dims = [] : (tensor<ui32>) -> tensor<33x16xui32> loc(#loc102)
    %8 = stablehlo.shift_right_logical %arg2, %7 : tensor<33x16xui32> loc(#loc102)
    %9 = stablehlo.or %5, %8 : tensor<33x16xui32> loc(#loc103)
    %10 = stablehlo.xor %3, %9 : tensor<33x16xui32> loc(#loc104)
    %11 = stablehlo.slice %arg6 [1:2] : (tensor<4xui32>) -> tensor<1xui32> loc(#loc98)
    %12 = stablehlo.reshape %11 : (tensor<1xui32>) -> tensor<ui32> loc(#loc99)
    %13 = stablehlo.add %3, %10 : tensor<33x16xui32> loc(#loc97)
    %14 = stablehlo.broadcast_in_dim %12, dims = [] : (tensor<ui32>) -> tensor<33x16xui32> loc(#loc100)
    %15 = stablehlo.shift_left %10, %14 : tensor<33x16xui32> loc(#loc100)
    %16 = stablehlo.subtract %c, %12 : tensor<ui32> loc(#loc101)
    %17 = stablehlo.broadcast_in_dim %16, dims = [] : (tensor<ui32>) -> tensor<33x16xui32> loc(#loc102)
    %18 = stablehlo.shift_right_logical %10, %17 : tensor<33x16xui32> loc(#loc102)
    %19 = stablehlo.or %15, %18 : tensor<33x16xui32> loc(#loc103)
    %20 = stablehlo.xor %13, %19 : tensor<33x16xui32> loc(#loc104)
    %21 = stablehlo.slice %arg6 [2:3] : (tensor<4xui32>) -> tensor<1xui32> loc(#loc98)
    %22 = stablehlo.reshape %21 : (tensor<1xui32>) -> tensor<ui32> loc(#loc99)
    %23 = stablehlo.add %13, %20 : tensor<33x16xui32> loc(#loc97)
    %24 = stablehlo.broadcast_in_dim %22, dims = [] : (tensor<ui32>) -> tensor<33x16xui32> loc(#loc100)
    %25 = stablehlo.shift_left %20, %24 : tensor<33x16xui32> loc(#loc100)
    %26 = stablehlo.subtract %c, %22 : tensor<ui32> loc(#loc101)
    %27 = stablehlo.broadcast_in_dim %26, dims = [] : (tensor<ui32>) -> tensor<33x16xui32> loc(#loc102)
    %28 = stablehlo.shift_right_logical %20, %27 : tensor<33x16xui32> loc(#loc102)
    %29 = stablehlo.or %25, %28 : tensor<33x16xui32> loc(#loc103)
    %30 = stablehlo.xor %23, %29 : tensor<33x16xui32> loc(#loc104)
    %31 = stablehlo.slice %arg6 [3:4] : (tensor<4xui32>) -> tensor<1xui32> loc(#loc98)
    %32 = stablehlo.reshape %31 : (tensor<1xui32>) -> tensor<ui32> loc(#loc99)
    %33 = stablehlo.add %23, %30 : tensor<33x16xui32> loc(#loc97)
    %34 = stablehlo.broadcast_in_dim %32, dims = [] : (tensor<ui32>) -> tensor<33x16xui32> loc(#loc100)
    %35 = stablehlo.shift_left %30, %34 : tensor<33x16xui32> loc(#loc100)
    %36 = stablehlo.subtract %c, %32 : tensor<ui32> loc(#loc101)
    %37 = stablehlo.broadcast_in_dim %36, dims = [] : (tensor<ui32>) -> tensor<33x16xui32> loc(#loc102)
    %38 = stablehlo.shift_right_logical %30, %37 : tensor<33x16xui32> loc(#loc102)
    %39 = stablehlo.or %35, %38 : tensor<33x16xui32> loc(#loc103)
    %40 = stablehlo.xor %33, %39 : tensor<33x16xui32> loc(#loc104)
    %41 = stablehlo.broadcast_in_dim %arg3, dims = [] : (tensor<ui32>) -> tensor<33x16xui32> loc(#loc97)
    %42 = stablehlo.add %33, %41 : tensor<33x16xui32> loc(#loc97)
    %43 = stablehlo.broadcast_in_dim %arg4, dims = [] : (tensor<ui32>) -> tensor<33x16xui32> loc(#loc97)
    %44 = stablehlo.add %40, %43 : tensor<33x16xui32> loc(#loc97)
    %45 = stablehlo.add %arg0, %c_0 : tensor<i32> loc(#loc97)
    %46 = stablehlo.convert %45 : (tensor<i32>) -> tensor<ui32> loc(#loc105)
    %47 = stablehlo.broadcast_in_dim %46, dims = [] : (tensor<ui32>) -> tensor<33x16xui32> loc(#loc97)
    %48 = stablehlo.add %44, %47 : tensor<33x16xui32> loc(#loc97)
    return %0, %42, %48, %arg4, %arg5, %arg3, %arg7, %arg6 : tensor<i32>, tensor<33x16xui32>, tensor<33x16xui32>, tensor<ui32>, tensor<ui32>, tensor<ui32>, tensor<4xui32>, tensor<4xui32> loc(#loc)
  } loc(#loc247)
  func.func private @_take(%arg0: tensor<33x16xf32> loc(unknown), %arg1: tensor<16x1xi32> loc(unknown)) -> tensor<16x1x16xf32> {
    %cst = stablehlo.constant dense<0x7FC00000> : tensor<f32> loc(#loc138)
    %c = stablehlo.constant dense<true> : tensor<i1> loc(#loc139)
    %c_0 = stablehlo.constant dense<32> : tensor<1xi32> loc(#loc138)
    %c_1 = stablehlo.constant dense<33> : tensor<i32> loc(#loc)
    %c_2 = stablehlo.constant dense<0> : tensor<i32> loc(#loc)
    %0 = stablehlo.broadcast_in_dim %c_2, dims = [] : (tensor<i32>) -> tensor<16x1xi32> loc(#loc140)
    %1 = stablehlo.compare LT, %arg1, %0, SIGNED : (tensor<16x1xi32>, tensor<16x1xi32>) -> tensor<16x1xi1> loc(#loc140)
    %2 = stablehlo.broadcast_in_dim %c_1, dims = [] : (tensor<i32>) -> tensor<16x1xi32> loc(#loc97)
    %3 = stablehlo.add %arg1, %2 : tensor<16x1xi32> loc(#loc97)
    %4 = call @_where_13(%1, %3, %arg1) : (tensor<16x1xi1>, tensor<16x1xi32>, tensor<16x1xi32>) -> tensor<16x1xi32> loc(#loc141)
    %5 = stablehlo.broadcast_in_dim %4, dims = [0, 1] : (tensor<16x1xi32>) -> tensor<16x1x1xi32> loc(#loc125)
    %6 = stablehlo.broadcast_in_dim %c_2, dims = [] : (tensor<i32>) -> tensor<16x1x1xi32> loc(#loc142)
    %7 = stablehlo.compare GE, %5, %6, SIGNED : (tensor<16x1x1xi32>, tensor<16x1x1xi32>) -> tensor<16x1x1xi1> loc(#loc142)
    %8 = stablehlo.broadcast_in_dim %c_0, dims = [2] : (tensor<1xi32>) -> tensor<1x1x1xi32> loc(#loc125)
    %9 = stablehlo.broadcast_in_dim %8, dims = [0, 1, 2] : (tensor<1x1x1xi32>) -> tensor<16x1x1xi32> loc(#loc115)
    %10 = stablehlo.compare LE, %5, %9, SIGNED : (tensor<16x1x1xi32>, tensor<16x1x1xi32>) -> tensor<16x1x1xi1> loc(#loc115)
    %11 = stablehlo.and %7, %10 : tensor<16x1x1xi1> loc(#loc117)
    %12 = stablehlo.reduce(%11 init: %c) applies stablehlo.and across dimensions = [2] : (tensor<16x1x1xi1>, tensor<i1>) -> tensor<16x1xi1> loc(#loc139)
    %13 = "stablehlo.gather"(%arg0, %5) <{dimension_numbers = #stablehlo.gather<offset_dims = [2], collapsed_slice_dims = [0], start_index_map = [0], index_vector_dim = 2>, slice_sizes = array<i64: 1, 16>}> : (tensor<33x16xf32>, tensor<16x1x1xi32>) -> tensor<16x1x16xf32> loc(#loc138)
    %14 = stablehlo.broadcast_in_dim %12, dims = [0, 1] : (tensor<16x1xi1>) -> tensor<16x1x16xi1> loc(#loc125)
    %15 = stablehlo.broadcast_in_dim %cst, dims = [] : (tensor<f32>) -> tensor<16x1x16xf32> loc(#loc125)
    %16 = stablehlo.select %14, %13, %15 : tensor<16x1x16xi1>, tensor<16x1x16xf32> loc(#loc116)
    return %16 : tensor<16x1x16xf32> loc(#loc)
  } loc(#loc435)
  func.func private @_where_13(%arg0: tensor<16x1xi1> loc(unknown), %arg1: tensor<16x1xi32> loc(unknown), %arg2: tensor<16x1xi32> loc(unknown)) -> tensor<16x1xi32> {
    %0 = stablehlo.select %arg0, %arg1, %arg2 : tensor<16x1xi1>, tensor<16x1xi32> loc(#loc116)
    return %0 : tensor<16x1xi32> loc(#loc)
  } loc(#loc245)
  func.func private @_take_14(%arg0: tensor<33x16xf32> loc(unknown), %arg1: tensor<16x1x5xi32> loc(unknown)) -> tensor<16x1x5x16xf32> {
    %cst = stablehlo.constant dense<0x7FC00000> : tensor<f32> loc(#loc138)
    %c = stablehlo.constant dense<true> : tensor<i1> loc(#loc139)
    %c_0 = stablehlo.constant dense<32> : tensor<1xi32> loc(#loc138)
    %c_1 = stablehlo.constant dense<33> : tensor<i32> loc(#loc)
    %c_2 = stablehlo.constant dense<0> : tensor<i32> loc(#loc)
    %0 = stablehlo.broadcast_in_dim %c_2, dims = [] : (tensor<i32>) -> tensor<16x1x5xi32> loc(#loc140)
    %1 = stablehlo.compare LT, %arg1, %0, SIGNED : (tensor<16x1x5xi32>, tensor<16x1x5xi32>) -> tensor<16x1x5xi1> loc(#loc140)
    %2 = stablehlo.broadcast_in_dim %c_1, dims = [] : (tensor<i32>) -> tensor<16x1x5xi32> loc(#loc97)
    %3 = stablehlo.add %arg1, %2 : tensor<16x1x5xi32> loc(#loc97)
    %4 = call @_where_15(%1, %3, %arg1) : (tensor<16x1x5xi1>, tensor<16x1x5xi32>, tensor<16x1x5xi32>) -> tensor<16x1x5xi32> loc(#loc141)
    %5 = stablehlo.broadcast_in_dim %4, dims = [0, 1, 2] : (tensor<16x1x5xi32>) -> tensor<16x1x5x1xi32> loc(#loc125)
    %6 = stablehlo.broadcast_in_dim %c_2, dims = [] : (tensor<i32>) -> tensor<16x1x5x1xi32> loc(#loc142)
    %7 = stablehlo.compare GE, %5, %6, SIGNED : (tensor<16x1x5x1xi32>, tensor<16x1x5x1xi32>) -> tensor<16x1x5x1xi1> loc(#loc142)
    %8 = stablehlo.broadcast_in_dim %c_0, dims = [3] : (tensor<1xi32>) -> tensor<1x1x1x1xi32> loc(#loc125)
    %9 = stablehlo.broadcast_in_dim %8, dims = [0, 1, 2, 3] : (tensor<1x1x1x1xi32>) -> tensor<16x1x5x1xi32> loc(#loc115)
    %10 = stablehlo.compare LE, %5, %9, SIGNED : (tensor<16x1x5x1xi32>, tensor<16x1x5x1xi32>) -> tensor<16x1x5x1xi1> loc(#loc115)
    %11 = stablehlo.and %7, %10 : tensor<16x1x5x1xi1> loc(#loc117)
    %12 = stablehlo.reduce(%11 init: %c) applies stablehlo.and across dimensions = [3] : (tensor<16x1x5x1xi1>, tensor<i1>) -> tensor<16x1x5xi1> loc(#loc139)
    %13 = "stablehlo.gather"(%arg0, %5) <{dimension_numbers = #stablehlo.gather<offset_dims = [3], collapsed_slice_dims = [0], start_index_map = [0], index_vector_dim = 3>, slice_sizes = array<i64: 1, 16>}> : (tensor<33x16xf32>, tensor<16x1x5x1xi32>) -> tensor<16x1x5x16xf32> loc(#loc138)
    %14 = stablehlo.broadcast_in_dim %12, dims = [0, 1, 2] : (tensor<16x1x5xi1>) -> tensor<16x1x5x16xi1> loc(#loc125)
    %15 = stablehlo.broadcast_in_dim %cst, dims = [] : (tensor<f32>) -> tensor<16x1x5x16xf32> loc(#loc125)
    %16 = stablehlo.select %14, %13, %15 : tensor<16x1x5x16xi1>, tensor<16x1x5x16xf32> loc(#loc116)
    return %16 : tensor<16x1x5x16xf32> loc(#loc)
  } loc(#loc436)
  func.func private @_where_15(%arg0: tensor<16x1x5xi1> loc(unknown), %arg1: tensor<16x1x5xi32> loc(unknown), %arg2: tensor<16x1x5xi32> loc(unknown)) -> tensor<16x1x5xi32> {
    %0 = stablehlo.select %arg0, %arg1, %arg2 : tensor<16x1x5xi1>, tensor<16x1x5xi32> loc(#loc116)
    return %0 : tensor<16x1x5xi32> loc(#loc)
  } loc(#loc245)
  func.func private @_truncated_normal(%arg0: tensor<2xui32> loc(unknown), %arg1: tensor<i32> loc(unknown), %arg2: tensor<i32> loc(unknown)) -> tensor<16x16xf32> {
    %c = stablehlo.constant dense<-1> : tensor<i32> loc(#loc)
    %c_0 = stablehlo.constant dense<1> : tensor<i32> loc(#loc)
    %c_1 = stablehlo.constant dense<0> : tensor<i32> loc(#loc)
    %c_2 = stablehlo.constant dense<2147483647> : tensor<i32> loc(#loc)
    %c_3 = stablehlo.constant dense<-2147483648> : tensor<i32> loc(#loc)
    %cst = stablehlo.constant dense<0x7FC00000> : tensor<f32> loc(#loc)
    %cst_4 = stablehlo.constant dense<0x7F800000> : tensor<16x16xf32> loc(#loc134)
    %cst_5 = stablehlo.constant dense<1.000000e+00> : tensor<16x16xf32> loc(#loc134)
    %cst_6 = stablehlo.constant dense<2.83297682> : tensor<16x16xf32> loc(#loc134)
    %cst_7 = stablehlo.constant dense<1.50140941> : tensor<16x16xf32> loc(#loc134)
    %cst_8 = stablehlo.constant dense<1.00167406> : tensor<16x16xf32> loc(#loc134)
    %cst_9 = stablehlo.constant dense<0.246640727> : tensor<16x16xf32> loc(#loc134)
    %cst_10 = stablehlo.constant dense<0.00943887047> : tensor<16x16xf32> loc(#loc134)
    %cst_11 = stablehlo.constant dense<-0.00417768164> : tensor<16x16xf32> loc(#loc134)
    %cst_12 = stablehlo.constant dense<-0.0076224613> : tensor<16x16xf32> loc(#loc134)
    %cst_13 = stablehlo.constant dense<-0.00125372503> : tensor<16x16xf32> loc(#loc134)
    %cst_14 = stablehlo.constant dense<0.00573950773> : tensor<16x16xf32> loc(#loc134)
    %cst_15 = stablehlo.constant dense<2.1858087E-4> : tensor<16x16xf32> loc(#loc134)
    %cst_16 = stablehlo.constant dense<-0.00367342844> : tensor<16x16xf32> loc(#loc134)
    %cst_17 = stablehlo.constant dense<-4.39150654E-6> : tensor<16x16xf32> loc(#loc134)
    %cst_18 = stablehlo.constant dense<0.00134934322> : tensor<16x16xf32> loc(#loc134)
    %cst_19 = stablehlo.constant dense<-3.5233877E-6> : tensor<16x16xf32> loc(#loc134)
    %cst_20 = stablehlo.constant dense<1.00950558E-4> : tensor<16x16xf32> loc(#loc134)
    %cst_21 = stablehlo.constant dense<3.43273939E-7> : tensor<16x16xf32> loc(#loc134)
    %cst_22 = stablehlo.constant dense<-2.00214257E-4> : tensor<16x16xf32> loc(#loc134)
    %cst_23 = stablehlo.constant dense<2.81022636E-8> : tensor<16x16xf32> loc(#loc134)
    %cst_24 = stablehlo.constant dense<3.000000e+00> : tensor<16x16xf32> loc(#loc134)
    %cst_25 = stablehlo.constant dense<2.500000e+00> : tensor<16x16xf32> loc(#loc134)
    %cst_26 = stablehlo.constant dense<5.000000e+00> : tensor<16x16xf32> loc(#loc134)
    %cst_27 = stablehlo.constant dense<0xFF800000> : tensor<f32> loc(#loc)
    %cst_28 = stablehlo.constant dense<0x7F800000> : tensor<f32> loc(#loc)
    %cst_29 = stablehlo.constant dense<1.41421354> : tensor<f32> loc(#loc)
    %0 = stablehlo.convert %arg1 : (tensor<i32>) -> tensor<f32> loc(#loc105)
    %1 = stablehlo.convert %arg2 : (tensor<i32>) -> tensor<f32> loc(#loc105)
    %2 = stablehlo.divide %0, %cst_29 : tensor<f32> loc(#loc143)
    %3 = stablehlo.composite "chlo.erf" %2 {decomposition = @chlo.erf.impl_3, version = 1 : i32} : (tensor<f32>) -> tensor<f32> loc(#loc144)
    %4 = stablehlo.divide %1, %cst_29 : tensor<f32> loc(#loc143)
    %5 = stablehlo.composite "chlo.erf" %4 {decomposition = @chlo.erf.impl_4, version = 1 : i32} : (tensor<f32>) -> tensor<f32> loc(#loc144)
    %6 = call @_uniform_16(%arg0, %3, %5) : (tensor<2xui32>, tensor<f32>, tensor<f32>) -> tensor<16x16xf32> loc(#loc135)
    %7 = stablehlo.negate %6 : tensor<16x16xf32> loc(#loc134)
    %8 = stablehlo.multiply %6, %7 : tensor<16x16xf32> loc(#loc134)
    %9 = stablehlo.log_plus_one %8 : tensor<16x16xf32> loc(#loc134)
    %10 = stablehlo.negate %9 : tensor<16x16xf32> loc(#loc134)
    %11 = stablehlo.compare LT, %10, %cst_26 : (tensor<16x16xf32>, tensor<16x16xf32>) -> tensor<16x16xi1> loc(#loc134)
    %12 = stablehlo.subtract %10, %cst_25 : tensor<16x16xf32> loc(#loc134)
    %13 = stablehlo.sqrt %10 : tensor<16x16xf32> loc(#loc134)
    %14 = stablehlo.subtract %13, %cst_24 : tensor<16x16xf32> loc(#loc134)
    %15 = stablehlo.select %11, %12, %14 : tensor<16x16xi1>, tensor<16x16xf32> loc(#loc134)
    %16 = stablehlo.select %11, %cst_23, %cst_22 : tensor<16x16xi1>, tensor<16x16xf32> loc(#loc134)
    %17 = stablehlo.select %11, %cst_21, %cst_20 : tensor<16x16xi1>, tensor<16x16xf32> loc(#loc134)
    %18 = stablehlo.multiply %16, %15 : tensor<16x16xf32> loc(#loc134)
    %19 = stablehlo.add %17, %18 : tensor<16x16xf32> loc(#loc134)
    %20 = stablehlo.select %11, %cst_19, %cst_18 : tensor<16x16xi1>, tensor<16x16xf32> loc(#loc134)
    %21 = stablehlo.multiply %19, %15 : tensor<16x16xf32> loc(#loc134)
    %22 = stablehlo.add %20, %21 : tensor<16x16xf32> loc(#loc134)
    %23 = stablehlo.select %11, %cst_17, %cst_16 : tensor<16x16xi1>, tensor<16x16xf32> loc(#loc134)
    %24 = stablehlo.multiply %22, %15 : tensor<16x16xf32> loc(#loc134)
    %25 = stablehlo.add %23, %24 : tensor<16x16xf32> loc(#loc134)
    %26 = stablehlo.select %11, %cst_15, %cst_14 : tensor<16x16xi1>, tensor<16x16xf32> loc(#loc134)
    %27 = stablehlo.multiply %25, %15 : tensor<16x16xf32> loc(#loc134)
    %28 = stablehlo.add %26, %27 : tensor<16x16xf32> loc(#loc134)
    %29 = stablehlo.select %11, %cst_13, %cst_12 : tensor<16x16xi1>, tensor<16x16xf32> loc(#loc134)
    %30 = stablehlo.multiply %28, %15 : tensor<16x16xf32> loc(#loc134)
    %31 = stablehlo.add %29, %30 : tensor<16x16xf32> loc(#loc134)
    %32 = stablehlo.select %11, %cst_11, %cst_10 : tensor<16x16xi1>, tensor<16x16xf32> loc(#loc134)
    %33 = stablehlo.multiply %31, %15 : tensor<16x16xf32> loc(#loc134)
    %34 = stablehlo.add %32, %33 : tensor<16x16xf32> loc(#loc134)
    %35 = stablehlo.select %11, %cst_9, %cst_8 : tensor<16x16xi1>, tensor<16x16xf32> loc(#loc134)
    %36 = stablehlo.multiply %34, %15 : tensor<16x16xf32> loc(#loc134)
    %37 = stablehlo.add %35, %36 : tensor<16x16xf32> loc(#loc134)
    %38 = stablehlo.select %11, %cst_7, %cst_6 : tensor<16x16xi1>, tensor<16x16xf32> loc(#loc134)
    %39 = stablehlo.multiply %37, %15 : tensor<16x16xf32> loc(#loc134)
    %40 = stablehlo.add %38, %39 : tensor<16x16xf32> loc(#loc134)
    %41 = stablehlo.multiply %40, %6 : tensor<16x16xf32> loc(#loc134)
    %42 = stablehlo.abs %6 : tensor<16x16xf32> loc(#loc134)
    %43 = stablehlo.compare EQ, %42, %cst_5 : (tensor<16x16xf32>, tensor<16x16xf32>) -> tensor<16x16xi1> loc(#loc134)
    %44 = stablehlo.multiply %6, %cst_4 : tensor<16x16xf32> loc(#loc134)
    %45 = stablehlo.select %43, %44, %41 : tensor<16x16xi1>, tensor<16x16xf32> loc(#loc134)
    %46 = stablehlo.broadcast_in_dim %cst_29, dims = [] : (tensor<f32>) -> tensor<16x16xf32> loc(#loc119)
    %47 = stablehlo.multiply %46, %45 : tensor<16x16xf32> loc(#loc119)
    %48 = stablehlo.bitcast_convert %0 : (tensor<f32>) -> tensor<i32> loc(#loc145)
    %49 = stablehlo.bitcast_convert %cst_28 : (tensor<f32>) -> tensor<i32> loc(#loc145)
    %50 = stablehlo.compare NE, %0, %0 : (tensor<f32>, tensor<f32>) -> tensor<i1> loc(#loc145)
    %51 = stablehlo.compare NE, %cst_28, %cst_28 : (tensor<f32>, tensor<f32>) -> tensor<i1> loc(#loc145)
    %52 = stablehlo.or %50, %51 : tensor<i1> loc(#loc145)
    %53 = stablehlo.bitcast_convert %cst : (tensor<f32>) -> tensor<i32> loc(#loc145)
    %54 = stablehlo.and %48, %c_2 : tensor<i32> loc(#loc145)
    %55 = stablehlo.and %49, %c_2 : tensor<i32> loc(#loc145)
    %56 = stablehlo.compare EQ, %0, %cst_28 : (tensor<f32>, tensor<f32>) -> tensor<i1> loc(#loc145)
    %57 = stablehlo.compare EQ, %54, %c_1 : (tensor<i32>, tensor<i32>) -> tensor<i1> loc(#loc145)
    %58 = stablehlo.compare EQ, %55, %c_1 : (tensor<i32>, tensor<i32>) -> tensor<i1> loc(#loc145)
    %59 = stablehlo.and %48, %c_3 : tensor<i32> loc(#loc145)
    %60 = stablehlo.and %49, %c_3 : tensor<i32> loc(#loc145)
    %61 = stablehlo.or %60, %c_0 : tensor<i32> loc(#loc145)
    %62 = stablehlo.compare NE, %59, %60 : (tensor<i32>, tensor<i32>) -> tensor<i1> loc(#loc145)
    %63 = stablehlo.compare GT, %54, %55 : (tensor<i32>, tensor<i32>) -> tensor<i1> loc(#loc145)
    %64 = stablehlo.or %63, %62 : tensor<i1> loc(#loc145)
    %65 = stablehlo.select %64, %c, %c_0 : tensor<i1>, tensor<i32> loc(#loc145)
    %66 = stablehlo.add %48, %65 : tensor<i32> loc(#loc145)
    %67 = stablehlo.select %58, %49, %61 : tensor<i1>, tensor<i32> loc(#loc145)
    %68 = stablehlo.select %57, %67, %66 : tensor<i1>, tensor<i32> loc(#loc145)
    %69 = stablehlo.select %56, %49, %68 : tensor<i1>, tensor<i32> loc(#loc145)
    %70 = stablehlo.select %52, %53, %69 : tensor<i1>, tensor<i32> loc(#loc145)
    %71 = stablehlo.bitcast_convert %70 : (tensor<i32>) -> tensor<f32> loc(#loc145)
    %72 = stablehlo.bitcast_convert %1 : (tensor<f32>) -> tensor<i32> loc(#loc145)
    %73 = stablehlo.bitcast_convert %cst_27 : (tensor<f32>) -> tensor<i32> loc(#loc145)
    %74 = stablehlo.compare NE, %1, %1 : (tensor<f32>, tensor<f32>) -> tensor<i1> loc(#loc145)
    %75 = stablehlo.compare NE, %cst_27, %cst_27 : (tensor<f32>, tensor<f32>) -> tensor<i1> loc(#loc145)
    %76 = stablehlo.or %74, %75 : tensor<i1> loc(#loc145)
    %77 = stablehlo.bitcast_convert %cst : (tensor<f32>) -> tensor<i32> loc(#loc145)
    %78 = stablehlo.and %72, %c_2 : tensor<i32> loc(#loc145)
    %79 = stablehlo.and %73, %c_2 : tensor<i32> loc(#loc145)
    %80 = stablehlo.compare EQ, %1, %cst_27 : (tensor<f32>, tensor<f32>) -> tensor<i1> loc(#loc145)
    %81 = stablehlo.compare EQ, %78, %c_1 : (tensor<i32>, tensor<i32>) -> tensor<i1> loc(#loc145)
    %82 = stablehlo.compare EQ, %79, %c_1 : (tensor<i32>, tensor<i32>) -> tensor<i1> loc(#loc145)
    %83 = stablehlo.and %72, %c_3 : tensor<i32> loc(#loc145)
    %84 = stablehlo.and %73, %c_3 : tensor<i32> loc(#loc145)
    %85 = stablehlo.or %84, %c_0 : tensor<i32> loc(#loc145)
    %86 = stablehlo.compare NE, %83, %84 : (tensor<i32>, tensor<i32>) -> tensor<i1> loc(#loc145)
    %87 = stablehlo.compare GT, %78, %79 : (tensor<i32>, tensor<i32>) -> tensor<i1> loc(#loc145)
    %88 = stablehlo.or %87, %86 : tensor<i1> loc(#loc145)
    %89 = stablehlo.select %88, %c, %c_0 : tensor<i1>, tensor<i32> loc(#loc145)
    %90 = stablehlo.add %72, %89 : tensor<i32> loc(#loc145)
    %91 = stablehlo.select %82, %73, %85 : tensor<i1>, tensor<i32> loc(#loc145)
    %92 = stablehlo.select %81, %91, %90 : tensor<i1>, tensor<i32> loc(#loc145)
    %93 = stablehlo.select %80, %73, %92 : tensor<i1>, tensor<i32> loc(#loc145)
    %94 = stablehlo.select %76, %77, %93 : tensor<i1>, tensor<i32> loc(#loc145)
    %95 = stablehlo.bitcast_convert %94 : (tensor<i32>) -> tensor<f32> loc(#loc145)
    %96 = call @clip_19(%47, %71, %95) : (tensor<16x16xf32>, tensor<f32>, tensor<f32>) -> tensor<16x16xf32> loc(#loc108)
    return %96 : tensor<16x16xf32> loc(#loc)
  } loc(#loc594)
  func.func private @chlo.erf.impl_4(%arg0: tensor<f32> loc("erf")) -> tensor<f32> {
    %cst = stablehlo.constant dense<1.000000e+00> : tensor<f32> loc(#loc144)
    %cst_0 = stablehlo.constant dense<-1.000000e+00> : tensor<f32> loc(#loc144)
    %cst_1 = stablehlo.constant dense<-0.0142647391> : tensor<f32> loc(#loc144)
    %cst_2 = stablehlo.constant dense<-0.00737332925> : tensor<f32> loc(#loc144)
    %cst_3 = stablehlo.constant dense<-0.00168282702> : tensor<f32> loc(#loc144)
    %cst_4 = stablehlo.constant dense<-2.13374049E-4> : tensor<f32> loc(#loc144)
    %cst_5 = stablehlo.constant dense<-1.45660715E-5> : tensor<f32> loc(#loc144)
    %cst_6 = stablehlo.constant dense<-0.0160960332> : tensor<f32> loc(#loc144)
    %cst_7 = stablehlo.constant dense<-2.954600e-03> : tensor<f32> loc(#loc144)
    %cst_8 = stablehlo.constant dense<-7.34990637E-4> : tensor<f32> loc(#loc144)
    %cst_9 = stablehlo.constant dense<-5.69250624E-5> : tensor<f32> loc(#loc144)
    %cst_10 = stablehlo.constant dense<-2.10102394E-6> : tensor<f32> loc(#loc144)
    %cst_11 = stablehlo.constant dense<2.77068146E-8> : tensor<f32> loc(#loc144)
    %cst_12 = stablehlo.constant dense<-2.72614237E-10> : tensor<f32> loc(#loc144)
    %cst_13 = stablehlo.constant dense<-4.000000e+00> : tensor<f32> loc(#loc144)
    %cst_14 = stablehlo.constant dense<4.000000e+00> : tensor<f32> loc(#loc144)
    %0 = stablehlo.clamp %cst_13, %arg0, %cst_14 : tensor<f32> loc(#loc144)
    %1 = stablehlo.multiply %0, %0 : tensor<f32> loc(#loc144)
    %2 = stablehlo.multiply %cst_12, %1 : tensor<f32> loc(#loc144)
    %3 = stablehlo.add %2, %cst_11 : tensor<f32> loc(#loc144)
    %4 = stablehlo.multiply %3, %1 : tensor<f32> loc(#loc144)
    %5 = stablehlo.add %4, %cst_10 : tensor<f32> loc(#loc144)
    %6 = stablehlo.multiply %5, %1 : tensor<f32> loc(#loc144)
    %7 = stablehlo.add %6, %cst_9 : tensor<f32> loc(#loc144)
    %8 = stablehlo.multiply %7, %1 : tensor<f32> loc(#loc144)
    %9 = stablehlo.add %8, %cst_8 : tensor<f32> loc(#loc144)
    %10 = stablehlo.multiply %9, %1 : tensor<f32> loc(#loc144)
    %11 = stablehlo.add %10, %cst_7 : tensor<f32> loc(#loc144)
    %12 = stablehlo.multiply %11, %1 : tensor<f32> loc(#loc144)
    %13 = stablehlo.add %12, %cst_6 : tensor<f32> loc(#loc144)
    %14 = stablehlo.multiply %cst_5, %1 : tensor<f32> loc(#loc144)
    %15 = stablehlo.add %14, %cst_4 : tensor<f32> loc(#loc144)
    %16 = stablehlo.multiply %15, %1 : tensor<f32> loc(#loc144)
    %17 = stablehlo.add %16, %cst_3 : tensor<f32> loc(#loc144)
    %18 = stablehlo.multiply %17, %1 : tensor<f32> loc(#loc144)
    %19 = stablehlo.add %18, %cst_2 : tensor<f32> loc(#loc144)
    %20 = stablehlo.multiply %19, %1 : tensor<f32> loc(#loc144)
    %21 = stablehlo.add %20, %cst_1 : tensor<f32> loc(#loc144)
    %22 = stablehlo.multiply %0, %13 : tensor<f32> loc(#loc144)
    %23 = stablehlo.divide %22, %21 : tensor<f32> loc(#loc144)
    %24 = stablehlo.clamp %cst_0, %23, %cst : tensor<f32> loc(#loc144)
    return %24 : tensor<f32> loc(#loc144)
  } loc(#loc144)
  func.func private @chlo.erf.impl_3(%arg0: tensor<f32> loc("erf")) -> tensor<f32> {
    %cst = stablehlo.constant dense<1.000000e+00> : tensor<f32> loc(#loc144)
    %cst_0 = stablehlo.constant dense<-1.000000e+00> : tensor<f32> loc(#loc144)
    %cst_1 = stablehlo.constant dense<-0.0142647391> : tensor<f32> loc(#loc144)
    %cst_2 = stablehlo.constant dense<-0.00737332925> : tensor<f32> loc(#loc144)
    %cst_3 = stablehlo.constant dense<-0.00168282702> : tensor<f32> loc(#loc144)
    %cst_4 = stablehlo.constant dense<-2.13374049E-4> : tensor<f32> loc(#loc144)
    %cst_5 = stablehlo.constant dense<-1.45660715E-5> : tensor<f32> loc(#loc144)
    %cst_6 = stablehlo.constant dense<-0.0160960332> : tensor<f32> loc(#loc144)
    %cst_7 = stablehlo.constant dense<-2.954600e-03> : tensor<f32> loc(#loc144)
    %cst_8 = stablehlo.constant dense<-7.34990637E-4> : tensor<f32> loc(#loc144)
    %cst_9 = stablehlo.constant dense<-5.69250624E-5> : tensor<f32> loc(#loc144)
    %cst_10 = stablehlo.constant dense<-2.10102394E-6> : tensor<f32> loc(#loc144)
    %cst_11 = stablehlo.constant dense<2.77068146E-8> : tensor<f32> loc(#loc144)
    %cst_12 = stablehlo.constant dense<-2.72614237E-10> : tensor<f32> loc(#loc144)
    %cst_13 = stablehlo.constant dense<-4.000000e+00> : tensor<f32> loc(#loc144)
    %cst_14 = stablehlo.constant dense<4.000000e+00> : tensor<f32> loc(#loc144)
    %0 = stablehlo.clamp %cst_13, %arg0, %cst_14 : tensor<f32> loc(#loc144)
    %1 = stablehlo.multiply %0, %0 : tensor<f32> loc(#loc144)
    %2 = stablehlo.multiply %cst_12, %1 : tensor<f32> loc(#loc144)
    %3 = stablehlo.add %2, %cst_11 : tensor<f32> loc(#loc144)
    %4 = stablehlo.multiply %3, %1 : tensor<f32> loc(#loc144)
    %5 = stablehlo.add %4, %cst_10 : tensor<f32> loc(#loc144)
    %6 = stablehlo.multiply %5, %1 : tensor<f32> loc(#loc144)
    %7 = stablehlo.add %6, %cst_9 : tensor<f32> loc(#loc144)
    %8 = stablehlo.multiply %7, %1 : tensor<f32> loc(#loc144)
    %9 = stablehlo.add %8, %cst_8 : tensor<f32> loc(#loc144)
    %10 = stablehlo.multiply %9, %1 : tensor<f32> loc(#loc144)
    %11 = stablehlo.add %10, %cst_7 : tensor<f32> loc(#loc144)
    %12 = stablehlo.multiply %11, %1 : tensor<f32> loc(#loc144)
    %13 = stablehlo.add %12, %cst_6 : tensor<f32> loc(#loc144)
    %14 = stablehlo.multiply %cst_5, %1 : tensor<f32> loc(#loc144)
    %15 = stablehlo.add %14, %cst_4 : tensor<f32> loc(#loc144)
    %16 = stablehlo.multiply %15, %1 : tensor<f32> loc(#loc144)
    %17 = stablehlo.add %16, %cst_3 : tensor<f32> loc(#loc144)
    %18 = stablehlo.multiply %17, %1 : tensor<f32> loc(#loc144)
    %19 = stablehlo.add %18, %cst_2 : tensor<f32> loc(#loc144)
    %20 = stablehlo.multiply %19, %1 : tensor<f32> loc(#loc144)
    %21 = stablehlo.add %20, %cst_1 : tensor<f32> loc(#loc144)
    %22 = stablehlo.multiply %0, %13 : tensor<f32> loc(#loc144)
    %23 = stablehlo.divide %22, %21 : tensor<f32> loc(#loc144)
    %24 = stablehlo.clamp %cst_0, %23, %cst : tensor<f32> loc(#loc144)
    return %24 : tensor<f32> loc(#loc144)
  } loc(#loc144)
  func.func private @_uniform_16(%arg0: tensor<2xui32> loc(unknown), %arg1: tensor<f32> loc(unknown), %arg2: tensor<f32> loc(unknown)) -> tensor<16x16xf32> {
    %cst = stablehlo.constant dense<1.000000e+00> : tensor<f32> loc(#loc)
    %c = stablehlo.constant dense<1065353216> : tensor<ui32> loc(#loc)
    %c_0 = stablehlo.constant dense<9> : tensor<ui32> loc(#loc)
    %c_1 = stablehlo.constant dense<32> : tensor<ui64> loc(#loc124)
    %c_2 = stablehlo.constant dense<1> : tensor<ui64> loc(#loc124)
    %c_3 = stablehlo.constant dense<16> : tensor<ui64> loc(#loc124)
    %0 = stablehlo.broadcast_in_dim %arg1, dims = [] : (tensor<f32>) -> tensor<1x1xf32> loc(#loc125)
    %1 = stablehlo.broadcast_in_dim %arg2, dims = [] : (tensor<f32>) -> tensor<1x1xf32> loc(#loc125)
    %2 = stablehlo.slice %arg0 [0:1] : (tensor<2xui32>) -> tensor<1xui32> loc(#loc98)
    %3 = stablehlo.reshape %2 : (tensor<1xui32>) -> tensor<ui32> loc(#loc99)
    %4 = stablehlo.slice %arg0 [1:2] : (tensor<2xui32>) -> tensor<1xui32> loc(#loc98)
    %5 = stablehlo.reshape %4 : (tensor<1xui32>) -> tensor<ui32> loc(#loc99)
    %6 = stablehlo.iota dim = 0 : tensor<16x16xui64> loc(#loc124)
    %7 = stablehlo.iota dim = 1 : tensor<16x16xui64> loc(#loc124)
    %8 = stablehlo.broadcast_in_dim %c_3, dims = [] : (tensor<ui64>) -> tensor<16x16xui64> loc(#loc124)
    %9 = stablehlo.multiply %8, %6 : tensor<16x16xui64> loc(#loc124)
    %10 = stablehlo.broadcast_in_dim %c_2, dims = [] : (tensor<ui64>) -> tensor<16x16xui64> loc(#loc124)
    %11 = stablehlo.multiply %10, %7 : tensor<16x16xui64> loc(#loc124)
    %12 = stablehlo.add %9, %11 : tensor<16x16xui64> loc(#loc124)
    %13 = stablehlo.broadcast_in_dim %c_1, dims = [] : (tensor<ui64>) -> tensor<16x16xui64> loc(#loc124)
    %14 = stablehlo.shift_right_logical %12, %13 : tensor<16x16xui64> loc(#loc124)
    %15 = stablehlo.convert %12 : (tensor<16x16xui64>) -> tensor<16x16xui32> loc(#loc124)
    %16 = stablehlo.convert %14 : (tensor<16x16xui64>) -> tensor<16x16xui32> loc(#loc124)
    %17:2 = call @threefry2x32_17(%3, %5, %16, %15) : (tensor<ui32>, tensor<ui32>, tensor<16x16xui32>, tensor<16x16xui32>) -> (tensor<16x16xui32>, tensor<16x16xui32>) loc(#loc136)
    %18 = stablehlo.xor %17#0, %17#1 : tensor<16x16xui32> loc(#loc104)
    %19 = stablehlo.broadcast_in_dim %c_0, dims = [] : (tensor<ui32>) -> tensor<16x16xui32> loc(#loc102)
    %20 = stablehlo.shift_right_logical %18, %19 : tensor<16x16xui32> loc(#loc102)
    %21 = stablehlo.broadcast_in_dim %c, dims = [] : (tensor<ui32>) -> tensor<16x16xui32> loc(#loc103)
    %22 = stablehlo.or %20, %21 : tensor<16x16xui32> loc(#loc103)
    %23 = stablehlo.bitcast_convert %22 : (tensor<16x16xui32>) -> tensor<16x16xf32> loc(#loc137)
    %24 = stablehlo.broadcast_in_dim %cst, dims = [] : (tensor<f32>) -> tensor<16x16xf32> loc(#loc101)
    %25 = stablehlo.subtract %23, %24 : tensor<16x16xf32> loc(#loc101)
    %26 = stablehlo.subtract %1, %0 : tensor<1x1xf32> loc(#loc101)
    %27 = stablehlo.broadcast_in_dim %26, dims = [0, 1] : (tensor<1x1xf32>) -> tensor<16x16xf32> loc(#loc119)
    %28 = stablehlo.multiply %25, %27 : tensor<16x16xf32> loc(#loc119)
    %29 = stablehlo.broadcast_in_dim %0, dims = [0, 1] : (tensor<1x1xf32>) -> tensor<16x16xf32> loc(#loc97)
    %30 = stablehlo.add %28, %29 : tensor<16x16xf32> loc(#loc97)
    %31 = stablehlo.broadcast_in_dim %0, dims = [0, 1] : (tensor<1x1xf32>) -> tensor<16x16xf32> loc(#loc121)
    %32 = stablehlo.maximum %31, %30 : tensor<16x16xf32> loc(#loc121)
    return %32 : tensor<16x16xf32> loc(#loc)
  } loc(#loc245)
  func.func private @threefry2x32_17(%arg0: tensor<ui32> loc(unknown), %arg1: tensor<ui32> loc(unknown), %arg2: tensor<16x16xui32> loc(unknown), %arg3: tensor<16x16xui32> loc(unknown)) -> (tensor<16x16xui32>, tensor<16x16xui32>) {
    %c = stablehlo.constant dense<1> : tensor<i32> loc(#loc)
    %c_0 = stablehlo.constant dense<5> : tensor<i32> loc(#loc)
    %c_1 = stablehlo.constant dense<0> : tensor<i32> loc(#loc)
    %c_2 = stablehlo.constant dense<466688986> : tensor<ui32> loc(#loc242)
    %c_3 = stablehlo.constant dense<[13, 15, 26, 6]> : tensor<4xui32> loc(#loc242)
    %c_4 = stablehlo.constant dense<[17, 29, 16, 24]> : tensor<4xui32> loc(#loc242)
    %0 = stablehlo.xor %arg0, %arg1 : tensor<ui32> loc(#loc104)
    %1 = stablehlo.xor %0, %c_2 : tensor<ui32> loc(#loc104)
    %2 = stablehlo.broadcast_in_dim %arg0, dims = [] : (tensor<ui32>) -> tensor<16x16xui32> loc(#loc97)
    %3 = stablehlo.add %arg2, %2 : tensor<16x16xui32> loc(#loc97)
    %4 = stablehlo.broadcast_in_dim %arg1, dims = [] : (tensor<ui32>) -> tensor<16x16xui32> loc(#loc97)
    %5 = stablehlo.add %arg3, %4 : tensor<16x16xui32> loc(#loc97)
    %6:9 = stablehlo.while(%iterArg = %c_1, %iterArg_5 = %c_1, %iterArg_6 = %3, %iterArg_7 = %5, %iterArg_8 = %arg1, %iterArg_9 = %1, %iterArg_10 = %arg0, %iterArg_11 = %c_3, %iterArg_12 = %c_4) : tensor<i32>, tensor<i32>, tensor<16x16xui32>, tensor<16x16xui32>, tensor<ui32>, tensor<ui32>, tensor<ui32>, tensor<4xui32>, tensor<4xui32>
    cond {
      %7 = stablehlo.compare LT, %iterArg, %c_0, SIGNED : (tensor<i32>, tensor<i32>) -> tensor<i1> loc(#loc128)
      stablehlo.return %7 : tensor<i1> loc(#loc127)
    } do {
      %7:8 = func.call @closed_call_18(%iterArg_5, %iterArg_6, %iterArg_7, %iterArg_8, %iterArg_9, %iterArg_10, %iterArg_11, %iterArg_12) : (tensor<i32>, tensor<16x16xui32>, tensor<16x16xui32>, tensor<ui32>, tensor<ui32>, tensor<ui32>, tensor<4xui32>, tensor<4xui32>) -> (tensor<i32>, tensor<16x16xui32>, tensor<16x16xui32>, tensor<ui32>, tensor<ui32>, tensor<ui32>, tensor<4xui32>, tensor<4xui32>) loc(#loc129)
      %8 = stablehlo.add %iterArg, %c : tensor<i32> loc(#loc130)
      stablehlo.return %8, %7#0, %7#1, %7#2, %7#3, %7#4, %7#5, %7#6, %7#7 : tensor<i32>, tensor<i32>, tensor<16x16xui32>, tensor<16x16xui32>, tensor<ui32>, tensor<ui32>, tensor<ui32>, tensor<4xui32>, tensor<4xui32> loc(#loc127)
    } loc(#loc127)
    return %6#2, %6#3 : tensor<16x16xui32>, tensor<16x16xui32> loc(#loc)
  } loc(#loc)
  func.func private @closed_call_18(%arg0: tensor<i32> loc(unknown), %arg1: tensor<16x16xui32> loc(unknown), %arg2: tensor<16x16xui32> loc(unknown), %arg3: tensor<ui32> loc(unknown), %arg4: tensor<ui32> loc(unknown), %arg5: tensor<ui32> loc(unknown), %arg6: tensor<4xui32> loc(unknown), %arg7: tensor<4xui32> loc(unknown)) -> (tensor<i32>, tensor<16x16xui32>, tensor<16x16xui32>, tensor<ui32>, tensor<ui32>, tensor<ui32>, tensor<4xui32>, tensor<4xui32>) {
    %c = stablehlo.constant dense<32> : tensor<ui32> loc(#loc)
    %c_0 = stablehlo.constant dense<1> : tensor<i32> loc(#loc)
    %0 = stablehlo.add %arg0, %c_0 : tensor<i32> loc(#loc97)
    %1 = stablehlo.slice %arg6 [0:1] : (tensor<4xui32>) -> tensor<1xui32> loc(#loc98)
    %2 = stablehlo.reshape %1 : (tensor<1xui32>) -> tensor<ui32> loc(#loc99)
    %3 = stablehlo.add %arg1, %arg2 : tensor<16x16xui32> loc(#loc97)
    %4 = stablehlo.broadcast_in_dim %2, dims = [] : (tensor<ui32>) -> tensor<16x16xui32> loc(#loc100)
    %5 = stablehlo.shift_left %arg2, %4 : tensor<16x16xui32> loc(#loc100)
    %6 = stablehlo.subtract %c, %2 : tensor<ui32> loc(#loc101)
    %7 = stablehlo.broadcast_in_dim %6, dims = [] : (tensor<ui32>) -> tensor<16x16xui32> loc(#loc102)
    %8 = stablehlo.shift_right_logical %arg2, %7 : tensor<16x16xui32> loc(#loc102)
    %9 = stablehlo.or %5, %8 : tensor<16x16xui32> loc(#loc103)
    %10 = stablehlo.xor %3, %9 : tensor<16x16xui32> loc(#loc104)
    %11 = stablehlo.slice %arg6 [1:2] : (tensor<4xui32>) -> tensor<1xui32> loc(#loc98)
    %12 = stablehlo.reshape %11 : (tensor<1xui32>) -> tensor<ui32> loc(#loc99)
    %13 = stablehlo.add %3, %10 : tensor<16x16xui32> loc(#loc97)
    %14 = stablehlo.broadcast_in_dim %12, dims = [] : (tensor<ui32>) -> tensor<16x16xui32> loc(#loc100)
    %15 = stablehlo.shift_left %10, %14 : tensor<16x16xui32> loc(#loc100)
    %16 = stablehlo.subtract %c, %12 : tensor<ui32> loc(#loc101)
    %17 = stablehlo.broadcast_in_dim %16, dims = [] : (tensor<ui32>) -> tensor<16x16xui32> loc(#loc102)
    %18 = stablehlo.shift_right_logical %10, %17 : tensor<16x16xui32> loc(#loc102)
    %19 = stablehlo.or %15, %18 : tensor<16x16xui32> loc(#loc103)
    %20 = stablehlo.xor %13, %19 : tensor<16x16xui32> loc(#loc104)
    %21 = stablehlo.slice %arg6 [2:3] : (tensor<4xui32>) -> tensor<1xui32> loc(#loc98)
    %22 = stablehlo.reshape %21 : (tensor<1xui32>) -> tensor<ui32> loc(#loc99)
    %23 = stablehlo.add %13, %20 : tensor<16x16xui32> loc(#loc97)
    %24 = stablehlo.broadcast_in_dim %22, dims = [] : (tensor<ui32>) -> tensor<16x16xui32> loc(#loc100)
    %25 = stablehlo.shift_left %20, %24 : tensor<16x16xui32> loc(#loc100)
    %26 = stablehlo.subtract %c, %22 : tensor<ui32> loc(#loc101)
    %27 = stablehlo.broadcast_in_dim %26, dims = [] : (tensor<ui32>) -> tensor<16x16xui32> loc(#loc102)
    %28 = stablehlo.shift_right_logical %20, %27 : tensor<16x16xui32> loc(#loc102)
    %29 = stablehlo.or %25, %28 : tensor<16x16xui32> loc(#loc103)
    %30 = stablehlo.xor %23, %29 : tensor<16x16xui32> loc(#loc104)
    %31 = stablehlo.slice %arg6 [3:4] : (tensor<4xui32>) -> tensor<1xui32> loc(#loc98)
    %32 = stablehlo.reshape %31 : (tensor<1xui32>) -> tensor<ui32> loc(#loc99)
    %33 = stablehlo.add %23, %30 : tensor<16x16xui32> loc(#loc97)
    %34 = stablehlo.broadcast_in_dim %32, dims = [] : (tensor<ui32>) -> tensor<16x16xui32> loc(#loc100)
    %35 = stablehlo.shift_left %30, %34 : tensor<16x16xui32> loc(#loc100)
    %36 = stablehlo.subtract %c, %32 : tensor<ui32> loc(#loc101)
    %37 = stablehlo.broadcast_in_dim %36, dims = [] : (tensor<ui32>) -> tensor<16x16xui32> loc(#loc102)
    %38 = stablehlo.shift_right_logical %30, %37 : tensor<16x16xui32> loc(#loc102)
    %39 = stablehlo.or %35, %38 : tensor<16x16xui32> loc(#loc103)
    %40 = stablehlo.xor %33, %39 : tensor<16x16xui32> loc(#loc104)
    %41 = stablehlo.broadcast_in_dim %arg3, dims = [] : (tensor<ui32>) -> tensor<16x16xui32> loc(#loc97)
    %42 = stablehlo.add %33, %41 : tensor<16x16xui32> loc(#loc97)
    %43 = stablehlo.broadcast_in_dim %arg4, dims = [] : (tensor<ui32>) -> tensor<16x16xui32> loc(#loc97)
    %44 = stablehlo.add %40, %43 : tensor<16x16xui32> loc(#loc97)
    %45 = stablehlo.add %arg0, %c_0 : tensor<i32> loc(#loc97)
    %46 = stablehlo.convert %45 : (tensor<i32>) -> tensor<ui32> loc(#loc105)
    %47 = stablehlo.broadcast_in_dim %46, dims = [] : (tensor<ui32>) -> tensor<16x16xui32> loc(#loc97)
    %48 = stablehlo.add %44, %47 : tensor<16x16xui32> loc(#loc97)
    return %0, %42, %48, %arg4, %arg5, %arg3, %arg7, %arg6 : tensor<i32>, tensor<16x16xui32>, tensor<16x16xui32>, tensor<ui32>, tensor<ui32>, tensor<ui32>, tensor<4xui32>, tensor<4xui32> loc(#loc)
  } loc(#loc247)
  func.func private @clip_19(%arg0: tensor<16x16xf32> loc(unknown), %arg1: tensor<f32> loc(unknown), %arg2: tensor<f32> loc(unknown)) -> tensor<16x16xf32> {
    %0 = stablehlo.broadcast_in_dim %arg1, dims = [] : (tensor<f32>) -> tensor<16x16xf32> loc(#loc121)
    %1 = stablehlo.maximum %0, %arg0 : tensor<16x16xf32> loc(#loc121)
    %2 = stablehlo.broadcast_in_dim %arg2, dims = [] : (tensor<f32>) -> tensor<16x16xf32> loc(#loc122)
    %3 = stablehlo.minimum %2, %1 : tensor<16x16xf32> loc(#loc122)
    return %3 : tensor<16x16xf32> loc(#loc)
  } loc(#loc245)
  func.func private @relu(%arg0: tensor<16x6x16xf32> loc(unknown)) -> tensor<16x6x16xf32> {
    %cst = stablehlo.constant dense<0.000000e+00> : tensor<f32> loc(#loc)
    %0 = stablehlo.broadcast_in_dim %cst, dims = [] : (tensor<f32>) -> tensor<16x6x16xf32> loc(#loc121)
    %1 = stablehlo.maximum %arg0, %0 : tensor<16x6x16xf32> loc(#loc121)
    return %1 : tensor<16x6x16xf32> loc(#loc)
  } loc(#loc245)
  func.func private @cumsum(%arg0: tensor<16x102xi32> loc(unknown)) -> tensor<16x102xi32> {
    %0 = call @cumsum_20(%arg0) : (tensor<16x102xi32>) -> tensor<16x102xi32> loc(#loc)
    return %0 : tensor<16x102xi32> loc(#loc)
  } loc(#loc595)
  func.func private @cumsum_20(%arg0: tensor<16x102xi32> loc(unknown)) -> tensor<16x102xi32> {
    %c = stablehlo.constant dense<0> : tensor<i32> loc(#loc146)
    %0 = stablehlo.broadcast_in_dim %c, dims = [] : (tensor<i32>) -> tensor<i32> loc(#loc146)
    %1 = "stablehlo.reduce_window"(%arg0, %0) <{padding = dense<[[0, 0], [101, 0]]> : tensor<2x2xi64>, window_dimensions = array<i64: 1, 102>}> ({
    ^bb0(%arg1: tensor<i32> loc("reduce_window_sum:"(#loc146)), %arg2: tensor<i32> loc("reduce_window_sum:"(#loc146))):
      %2 = stablehlo.add %arg1, %arg2 : tensor<i32> loc(#loc146)
      stablehlo.return %2 : tensor<i32> loc(#loc146)
    }) : (tensor<16x102xi32>, tensor<i32>) -> tensor<16x102xi32> loc(#loc146)
    return %1 : tensor<16x102xi32> loc(#loc)
  } loc(#loc)
  func.func private @_where_21(%arg0: tensor<1x16x2x6x96xi1> loc(unknown), %arg1: tensor<16x2x6x1x96xf32> loc(unknown), %arg2: tensor<f32> loc(unknown)) -> tensor<1x16x2x6x96xf32> {
    %0 = stablehlo.broadcast_in_dim %arg2, dims = [] : (tensor<f32>) -> tensor<16x2x6x96xf32> loc(#loc125)
    %1 = stablehlo.broadcast_in_dim %0, dims = [1, 2, 3, 4] : (tensor<16x2x6x96xf32>) -> tensor<1x16x2x6x96xf32> loc(#loc125)
    %2 = stablehlo.transpose %arg1, dims = [3, 0, 1, 2, 4] : (tensor<16x2x6x1x96xf32>) -> tensor<1x16x2x6x96xf32> loc(#loc147)
    %3 = stablehlo.select %arg0, %2, %1 : tensor<1x16x2x6x96xi1>, tensor<1x16x2x6x96xf32> loc(#loc116)
    return %3 : tensor<1x16x2x6x96xf32> loc(#loc)
  } loc(#loc554)
  func.func private @_truncated_normal_22(%arg0: tensor<2xui32> loc(unknown), %arg1: tensor<i32> loc(unknown), %arg2: tensor<i32> loc(unknown)) -> tensor<16x33xf32> {
    %c = stablehlo.constant dense<-1> : tensor<i32> loc(#loc)
    %c_0 = stablehlo.constant dense<1> : tensor<i32> loc(#loc)
    %c_1 = stablehlo.constant dense<0> : tensor<i32> loc(#loc)
    %c_2 = stablehlo.constant dense<2147483647> : tensor<i32> loc(#loc)
    %c_3 = stablehlo.constant dense<-2147483648> : tensor<i32> loc(#loc)
    %cst = stablehlo.constant dense<0x7FC00000> : tensor<f32> loc(#loc)
    %cst_4 = stablehlo.constant dense<0x7F800000> : tensor<16x33xf32> loc(#loc134)
    %cst_5 = stablehlo.constant dense<1.000000e+00> : tensor<16x33xf32> loc(#loc134)
    %cst_6 = stablehlo.constant dense<2.83297682> : tensor<16x33xf32> loc(#loc134)
    %cst_7 = stablehlo.constant dense<1.50140941> : tensor<16x33xf32> loc(#loc134)
    %cst_8 = stablehlo.constant dense<1.00167406> : tensor<16x33xf32> loc(#loc134)
    %cst_9 = stablehlo.constant dense<0.246640727> : tensor<16x33xf32> loc(#loc134)
    %cst_10 = stablehlo.constant dense<0.00943887047> : tensor<16x33xf32> loc(#loc134)
    %cst_11 = stablehlo.constant dense<-0.00417768164> : tensor<16x33xf32> loc(#loc134)
    %cst_12 = stablehlo.constant dense<-0.0076224613> : tensor<16x33xf32> loc(#loc134)
    %cst_13 = stablehlo.constant dense<-0.00125372503> : tensor<16x33xf32> loc(#loc134)
    %cst_14 = stablehlo.constant dense<0.00573950773> : tensor<16x33xf32> loc(#loc134)
    %cst_15 = stablehlo.constant dense<2.1858087E-4> : tensor<16x33xf32> loc(#loc134)
    %cst_16 = stablehlo.constant dense<-0.00367342844> : tensor<16x33xf32> loc(#loc134)
    %cst_17 = stablehlo.constant dense<-4.39150654E-6> : tensor<16x33xf32> loc(#loc134)
    %cst_18 = stablehlo.constant dense<0.00134934322> : tensor<16x33xf32> loc(#loc134)
    %cst_19 = stablehlo.constant dense<-3.5233877E-6> : tensor<16x33xf32> loc(#loc134)
    %cst_20 = stablehlo.constant dense<1.00950558E-4> : tensor<16x33xf32> loc(#loc134)
    %cst_21 = stablehlo.constant dense<3.43273939E-7> : tensor<16x33xf32> loc(#loc134)
    %cst_22 = stablehlo.constant dense<-2.00214257E-4> : tensor<16x33xf32> loc(#loc134)
    %cst_23 = stablehlo.constant dense<2.81022636E-8> : tensor<16x33xf32> loc(#loc134)
    %cst_24 = stablehlo.constant dense<3.000000e+00> : tensor<16x33xf32> loc(#loc134)
    %cst_25 = stablehlo.constant dense<2.500000e+00> : tensor<16x33xf32> loc(#loc134)
    %cst_26 = stablehlo.constant dense<5.000000e+00> : tensor<16x33xf32> loc(#loc134)
    %cst_27 = stablehlo.constant dense<0xFF800000> : tensor<f32> loc(#loc)
    %cst_28 = stablehlo.constant dense<0x7F800000> : tensor<f32> loc(#loc)
    %cst_29 = stablehlo.constant dense<1.41421354> : tensor<f32> loc(#loc)
    %0 = stablehlo.convert %arg1 : (tensor<i32>) -> tensor<f32> loc(#loc105)
    %1 = stablehlo.convert %arg2 : (tensor<i32>) -> tensor<f32> loc(#loc105)
    %2 = stablehlo.divide %0, %cst_29 : tensor<f32> loc(#loc143)
    %3 = stablehlo.composite "chlo.erf" %2 {decomposition = @chlo.erf.impl_1, version = 1 : i32} : (tensor<f32>) -> tensor<f32> loc(#loc144)
    %4 = stablehlo.divide %1, %cst_29 : tensor<f32> loc(#loc143)
    %5 = stablehlo.composite "chlo.erf" %4 {decomposition = @chlo.erf.impl_2, version = 1 : i32} : (tensor<f32>) -> tensor<f32> loc(#loc144)
    %6 = call @_uniform_23(%arg0, %3, %5) : (tensor<2xui32>, tensor<f32>, tensor<f32>) -> tensor<16x33xf32> loc(#loc135)
    %7 = stablehlo.negate %6 : tensor<16x33xf32> loc(#loc134)
    %8 = stablehlo.multiply %6, %7 : tensor<16x33xf32> loc(#loc134)
    %9 = stablehlo.log_plus_one %8 : tensor<16x33xf32> loc(#loc134)
    %10 = stablehlo.negate %9 : tensor<16x33xf32> loc(#loc134)
    %11 = stablehlo.compare LT, %10, %cst_26 : (tensor<16x33xf32>, tensor<16x33xf32>) -> tensor<16x33xi1> loc(#loc134)
    %12 = stablehlo.subtract %10, %cst_25 : tensor<16x33xf32> loc(#loc134)
    %13 = stablehlo.sqrt %10 : tensor<16x33xf32> loc(#loc134)
    %14 = stablehlo.subtract %13, %cst_24 : tensor<16x33xf32> loc(#loc134)
    %15 = stablehlo.select %11, %12, %14 : tensor<16x33xi1>, tensor<16x33xf32> loc(#loc134)
    %16 = stablehlo.select %11, %cst_23, %cst_22 : tensor<16x33xi1>, tensor<16x33xf32> loc(#loc134)
    %17 = stablehlo.select %11, %cst_21, %cst_20 : tensor<16x33xi1>, tensor<16x33xf32> loc(#loc134)
    %18 = stablehlo.multiply %16, %15 : tensor<16x33xf32> loc(#loc134)
    %19 = stablehlo.add %17, %18 : tensor<16x33xf32> loc(#loc134)
    %20 = stablehlo.select %11, %cst_19, %cst_18 : tensor<16x33xi1>, tensor<16x33xf32> loc(#loc134)
    %21 = stablehlo.multiply %19, %15 : tensor<16x33xf32> loc(#loc134)
    %22 = stablehlo.add %20, %21 : tensor<16x33xf32> loc(#loc134)
    %23 = stablehlo.select %11, %cst_17, %cst_16 : tensor<16x33xi1>, tensor<16x33xf32> loc(#loc134)
    %24 = stablehlo.multiply %22, %15 : tensor<16x33xf32> loc(#loc134)
    %25 = stablehlo.add %23, %24 : tensor<16x33xf32> loc(#loc134)
    %26 = stablehlo.select %11, %cst_15, %cst_14 : tensor<16x33xi1>, tensor<16x33xf32> loc(#loc134)
    %27 = stablehlo.multiply %25, %15 : tensor<16x33xf32> loc(#loc134)
    %28 = stablehlo.add %26, %27 : tensor<16x33xf32> loc(#loc134)
    %29 = stablehlo.select %11, %cst_13, %cst_12 : tensor<16x33xi1>, tensor<16x33xf32> loc(#loc134)
    %30 = stablehlo.multiply %28, %15 : tensor<16x33xf32> loc(#loc134)
    %31 = stablehlo.add %29, %30 : tensor<16x33xf32> loc(#loc134)
    %32 = stablehlo.select %11, %cst_11, %cst_10 : tensor<16x33xi1>, tensor<16x33xf32> loc(#loc134)
    %33 = stablehlo.multiply %31, %15 : tensor<16x33xf32> loc(#loc134)
    %34 = stablehlo.add %32, %33 : tensor<16x33xf32> loc(#loc134)
    %35 = stablehlo.select %11, %cst_9, %cst_8 : tensor<16x33xi1>, tensor<16x33xf32> loc(#loc134)
    %36 = stablehlo.multiply %34, %15 : tensor<16x33xf32> loc(#loc134)
    %37 = stablehlo.add %35, %36 : tensor<16x33xf32> loc(#loc134)
    %38 = stablehlo.select %11, %cst_7, %cst_6 : tensor<16x33xi1>, tensor<16x33xf32> loc(#loc134)
    %39 = stablehlo.multiply %37, %15 : tensor<16x33xf32> loc(#loc134)
    %40 = stablehlo.add %38, %39 : tensor<16x33xf32> loc(#loc134)
    %41 = stablehlo.multiply %40, %6 : tensor<16x33xf32> loc(#loc134)
    %42 = stablehlo.abs %6 : tensor<16x33xf32> loc(#loc134)
    %43 = stablehlo.compare EQ, %42, %cst_5 : (tensor<16x33xf32>, tensor<16x33xf32>) -> tensor<16x33xi1> loc(#loc134)
    %44 = stablehlo.multiply %6, %cst_4 : tensor<16x33xf32> loc(#loc134)
    %45 = stablehlo.select %43, %44, %41 : tensor<16x33xi1>, tensor<16x33xf32> loc(#loc134)
    %46 = stablehlo.broadcast_in_dim %cst_29, dims = [] : (tensor<f32>) -> tensor<16x33xf32> loc(#loc119)
    %47 = stablehlo.multiply %46, %45 : tensor<16x33xf32> loc(#loc119)
    %48 = stablehlo.bitcast_convert %0 : (tensor<f32>) -> tensor<i32> loc(#loc145)
    %49 = stablehlo.bitcast_convert %cst_28 : (tensor<f32>) -> tensor<i32> loc(#loc145)
    %50 = stablehlo.compare NE, %0, %0 : (tensor<f32>, tensor<f32>) -> tensor<i1> loc(#loc145)
    %51 = stablehlo.compare NE, %cst_28, %cst_28 : (tensor<f32>, tensor<f32>) -> tensor<i1> loc(#loc145)
    %52 = stablehlo.or %50, %51 : tensor<i1> loc(#loc145)
    %53 = stablehlo.bitcast_convert %cst : (tensor<f32>) -> tensor<i32> loc(#loc145)
    %54 = stablehlo.and %48, %c_2 : tensor<i32> loc(#loc145)
    %55 = stablehlo.and %49, %c_2 : tensor<i32> loc(#loc145)
    %56 = stablehlo.compare EQ, %0, %cst_28 : (tensor<f32>, tensor<f32>) -> tensor<i1> loc(#loc145)
    %57 = stablehlo.compare EQ, %54, %c_1 : (tensor<i32>, tensor<i32>) -> tensor<i1> loc(#loc145)
    %58 = stablehlo.compare EQ, %55, %c_1 : (tensor<i32>, tensor<i32>) -> tensor<i1> loc(#loc145)
    %59 = stablehlo.and %48, %c_3 : tensor<i32> loc(#loc145)
    %60 = stablehlo.and %49, %c_3 : tensor<i32> loc(#loc145)
    %61 = stablehlo.or %60, %c_0 : tensor<i32> loc(#loc145)
    %62 = stablehlo.compare NE, %59, %60 : (tensor<i32>, tensor<i32>) -> tensor<i1> loc(#loc145)
    %63 = stablehlo.compare GT, %54, %55 : (tensor<i32>, tensor<i32>) -> tensor<i1> loc(#loc145)
    %64 = stablehlo.or %63, %62 : tensor<i1> loc(#loc145)
    %65 = stablehlo.select %64, %c, %c_0 : tensor<i1>, tensor<i32> loc(#loc145)
    %66 = stablehlo.add %48, %65 : tensor<i32> loc(#loc145)
    %67 = stablehlo.select %58, %49, %61 : tensor<i1>, tensor<i32> loc(#loc145)
    %68 = stablehlo.select %57, %67, %66 : tensor<i1>, tensor<i32> loc(#loc145)
    %69 = stablehlo.select %56, %49, %68 : tensor<i1>, tensor<i32> loc(#loc145)
    %70 = stablehlo.select %52, %53, %69 : tensor<i1>, tensor<i32> loc(#loc145)
    %71 = stablehlo.bitcast_convert %70 : (tensor<i32>) -> tensor<f32> loc(#loc145)
    %72 = stablehlo.bitcast_convert %1 : (tensor<f32>) -> tensor<i32> loc(#loc145)
    %73 = stablehlo.bitcast_convert %cst_27 : (tensor<f32>) -> tensor<i32> loc(#loc145)
    %74 = stablehlo.compare NE, %1, %1 : (tensor<f32>, tensor<f32>) -> tensor<i1> loc(#loc145)
    %75 = stablehlo.compare NE, %cst_27, %cst_27 : (tensor<f32>, tensor<f32>) -> tensor<i1> loc(#loc145)
    %76 = stablehlo.or %74, %75 : tensor<i1> loc(#loc145)
    %77 = stablehlo.bitcast_convert %cst : (tensor<f32>) -> tensor<i32> loc(#loc145)
    %78 = stablehlo.and %72, %c_2 : tensor<i32> loc(#loc145)
    %79 = stablehlo.and %73, %c_2 : tensor<i32> loc(#loc145)
    %80 = stablehlo.compare EQ, %1, %cst_27 : (tensor<f32>, tensor<f32>) -> tensor<i1> loc(#loc145)
    %81 = stablehlo.compare EQ, %78, %c_1 : (tensor<i32>, tensor<i32>) -> tensor<i1> loc(#loc145)
    %82 = stablehlo.compare EQ, %79, %c_1 : (tensor<i32>, tensor<i32>) -> tensor<i1> loc(#loc145)
    %83 = stablehlo.and %72, %c_3 : tensor<i32> loc(#loc145)
    %84 = stablehlo.and %73, %c_3 : tensor<i32> loc(#loc145)
    %85 = stablehlo.or %84, %c_0 : tensor<i32> loc(#loc145)
    %86 = stablehlo.compare NE, %83, %84 : (tensor<i32>, tensor<i32>) -> tensor<i1> loc(#loc145)
    %87 = stablehlo.compare GT, %78, %79 : (tensor<i32>, tensor<i32>) -> tensor<i1> loc(#loc145)
    %88 = stablehlo.or %87, %86 : tensor<i1> loc(#loc145)
    %89 = stablehlo.select %88, %c, %c_0 : tensor<i1>, tensor<i32> loc(#loc145)
    %90 = stablehlo.add %72, %89 : tensor<i32> loc(#loc145)
    %91 = stablehlo.select %82, %73, %85 : tensor<i1>, tensor<i32> loc(#loc145)
    %92 = stablehlo.select %81, %91, %90 : tensor<i1>, tensor<i32> loc(#loc145)
    %93 = stablehlo.select %80, %73, %92 : tensor<i1>, tensor<i32> loc(#loc145)
    %94 = stablehlo.select %76, %77, %93 : tensor<i1>, tensor<i32> loc(#loc145)
    %95 = stablehlo.bitcast_convert %94 : (tensor<i32>) -> tensor<f32> loc(#loc145)
    %96 = call @clip_26(%47, %71, %95) : (tensor<16x33xf32>, tensor<f32>, tensor<f32>) -> tensor<16x33xf32> loc(#loc108)
    return %96 : tensor<16x33xf32> loc(#loc)
  } loc(#loc437)
  func.func private @chlo.erf.impl_2(%arg0: tensor<f32> loc("erf")) -> tensor<f32> {
    %cst = stablehlo.constant dense<1.000000e+00> : tensor<f32> loc(#loc144)
    %cst_0 = stablehlo.constant dense<-1.000000e+00> : tensor<f32> loc(#loc144)
    %cst_1 = stablehlo.constant dense<-0.0142647391> : tensor<f32> loc(#loc144)
    %cst_2 = stablehlo.constant dense<-0.00737332925> : tensor<f32> loc(#loc144)
    %cst_3 = stablehlo.constant dense<-0.00168282702> : tensor<f32> loc(#loc144)
    %cst_4 = stablehlo.constant dense<-2.13374049E-4> : tensor<f32> loc(#loc144)
    %cst_5 = stablehlo.constant dense<-1.45660715E-5> : tensor<f32> loc(#loc144)
    %cst_6 = stablehlo.constant dense<-0.0160960332> : tensor<f32> loc(#loc144)
    %cst_7 = stablehlo.constant dense<-2.954600e-03> : tensor<f32> loc(#loc144)
    %cst_8 = stablehlo.constant dense<-7.34990637E-4> : tensor<f32> loc(#loc144)
    %cst_9 = stablehlo.constant dense<-5.69250624E-5> : tensor<f32> loc(#loc144)
    %cst_10 = stablehlo.constant dense<-2.10102394E-6> : tensor<f32> loc(#loc144)
    %cst_11 = stablehlo.constant dense<2.77068146E-8> : tensor<f32> loc(#loc144)
    %cst_12 = stablehlo.constant dense<-2.72614237E-10> : tensor<f32> loc(#loc144)
    %cst_13 = stablehlo.constant dense<-4.000000e+00> : tensor<f32> loc(#loc144)
    %cst_14 = stablehlo.constant dense<4.000000e+00> : tensor<f32> loc(#loc144)
    %0 = stablehlo.clamp %cst_13, %arg0, %cst_14 : tensor<f32> loc(#loc144)
    %1 = stablehlo.multiply %0, %0 : tensor<f32> loc(#loc144)
    %2 = stablehlo.multiply %cst_12, %1 : tensor<f32> loc(#loc144)
    %3 = stablehlo.add %2, %cst_11 : tensor<f32> loc(#loc144)
    %4 = stablehlo.multiply %3, %1 : tensor<f32> loc(#loc144)
    %5 = stablehlo.add %4, %cst_10 : tensor<f32> loc(#loc144)
    %6 = stablehlo.multiply %5, %1 : tensor<f32> loc(#loc144)
    %7 = stablehlo.add %6, %cst_9 : tensor<f32> loc(#loc144)
    %8 = stablehlo.multiply %7, %1 : tensor<f32> loc(#loc144)
    %9 = stablehlo.add %8, %cst_8 : tensor<f32> loc(#loc144)
    %10 = stablehlo.multiply %9, %1 : tensor<f32> loc(#loc144)
    %11 = stablehlo.add %10, %cst_7 : tensor<f32> loc(#loc144)
    %12 = stablehlo.multiply %11, %1 : tensor<f32> loc(#loc144)
    %13 = stablehlo.add %12, %cst_6 : tensor<f32> loc(#loc144)
    %14 = stablehlo.multiply %cst_5, %1 : tensor<f32> loc(#loc144)
    %15 = stablehlo.add %14, %cst_4 : tensor<f32> loc(#loc144)
    %16 = stablehlo.multiply %15, %1 : tensor<f32> loc(#loc144)
    %17 = stablehlo.add %16, %cst_3 : tensor<f32> loc(#loc144)
    %18 = stablehlo.multiply %17, %1 : tensor<f32> loc(#loc144)
    %19 = stablehlo.add %18, %cst_2 : tensor<f32> loc(#loc144)
    %20 = stablehlo.multiply %19, %1 : tensor<f32> loc(#loc144)
    %21 = stablehlo.add %20, %cst_1 : tensor<f32> loc(#loc144)
    %22 = stablehlo.multiply %0, %13 : tensor<f32> loc(#loc144)
    %23 = stablehlo.divide %22, %21 : tensor<f32> loc(#loc144)
    %24 = stablehlo.clamp %cst_0, %23, %cst : tensor<f32> loc(#loc144)
    return %24 : tensor<f32> loc(#loc144)
  } loc(#loc144)
  func.func private @chlo.erf.impl_1(%arg0: tensor<f32> loc("erf")) -> tensor<f32> {
    %cst = stablehlo.constant dense<1.000000e+00> : tensor<f32> loc(#loc144)
    %cst_0 = stablehlo.constant dense<-1.000000e+00> : tensor<f32> loc(#loc144)
    %cst_1 = stablehlo.constant dense<-0.0142647391> : tensor<f32> loc(#loc144)
    %cst_2 = stablehlo.constant dense<-0.00737332925> : tensor<f32> loc(#loc144)
    %cst_3 = stablehlo.constant dense<-0.00168282702> : tensor<f32> loc(#loc144)
    %cst_4 = stablehlo.constant dense<-2.13374049E-4> : tensor<f32> loc(#loc144)
    %cst_5 = stablehlo.constant dense<-1.45660715E-5> : tensor<f32> loc(#loc144)
    %cst_6 = stablehlo.constant dense<-0.0160960332> : tensor<f32> loc(#loc144)
    %cst_7 = stablehlo.constant dense<-2.954600e-03> : tensor<f32> loc(#loc144)
    %cst_8 = stablehlo.constant dense<-7.34990637E-4> : tensor<f32> loc(#loc144)
    %cst_9 = stablehlo.constant dense<-5.69250624E-5> : tensor<f32> loc(#loc144)
    %cst_10 = stablehlo.constant dense<-2.10102394E-6> : tensor<f32> loc(#loc144)
    %cst_11 = stablehlo.constant dense<2.77068146E-8> : tensor<f32> loc(#loc144)
…
    %2 = stablehlo.multiply %cst_12, %1 : tensor<f32> loc(#loc144)
    %3 = stablehlo.add %2, %cst_11 : tensor<f32> loc(#loc144)
    %4 = stablehlo.multiply %3, %1 : tensor<f32> loc(#loc144)
    %5 = stablehlo.add %4, %cst_10 : tensor<f32> loc(#loc144)
    %6 = stablehlo.multiply %5, %1 : tensor<f32> loc(#loc144)
    %7 = stablehlo.add %6, %cst_9 : tensor<f32> loc(#loc144)
    %8 = stablehlo.multiply %7, %1 : tensor<f32> loc(#loc144)
    %9 = stablehlo.add %8, %cst_8 : tensor<f32> loc(#loc144)
    %10 = stablehlo.multiply %9, %1 : tensor<f32> loc(#loc144)
    %11 = stablehlo.add %10, %cst_7 : tensor<f32> loc(#loc144)
    %12 = stablehlo.multiply %11, %1 : tensor<f32> loc(#loc144)
    %13 = stablehlo.add %12, %cst_6 : tensor<f32> loc(#loc144)
    %14 = stablehlo.multiply %cst_5, %1 : tensor<f32> loc(#loc144)
    %15 = stablehlo.add %14, %cst_4 : tensor<f32> loc(#loc144)
    %16 = stablehlo.multiply %15, %1 : tensor<f32> loc(#loc144)
    %17 = stablehlo.add %16, %cst_3 : tensor<f32> loc(#loc144)
    %18 = stablehlo.multiply %17, %1 : tensor<f32> loc(#loc144)
    %19 = stablehlo.add %18, %cst_2 : tensor<f32> loc(#loc144)
    %20 = stablehlo.multiply %19, %1 : tensor<f32> loc(#loc144)
    %21 = stablehlo.add %20, %cst_1 : tensor<f32> loc(#loc144)
    %22 = stablehlo.multiply %0, %13 : tensor<f32> loc(#loc144)
    %23 = stablehlo.divide %22, %21 : tensor<f32> loc(#loc144)
    %24 = stablehlo.clamp %cst_0, %23, %cst : tensor<f32> loc(#loc144)
    return %24 : tensor<f32> loc(#loc144)
  } loc(#loc144)
  func.func private @chlo.erf.impl(%arg0: tensor<f32> loc("erf")) -> tensor<f32> {
    %cst = stablehlo.constant dense<1.000000e+00> : tensor<f32> loc(#loc144)
    %cst_0 = stablehlo.constant dense<-1.000000e+00> : tensor<f32> loc(#loc144)
    %cst_1 = stablehlo.constant dense<-0.0142647391> : tensor<f32> loc(#loc144)
    %cst_2 = stablehlo.constant dense<-0.00737332925> : tensor<f32> loc(#loc144)
    %cst_3 = stablehlo.constant dense<-0.00168282702> : tensor<f32> loc(#loc144)
    %cst_4 = stablehlo.constant dense<-2.13374049E-4> : tensor<f32> loc(#loc144)
    %cst_5 = stablehlo.constant dense<-1.45660715E-5> : tensor<f32> loc(#loc144)
    %cst_6 = stablehlo.constant dense<-0.0160960332> : tensor<f32> loc(#loc144)
    %cst_7 = stablehlo.constant dense<-2.954600e-03> : tensor<f32> loc(#loc144)
    %cst_8 = stablehlo.constant dense<-7.34990637E-4> : tensor<f32> loc(#loc144)
    %cst_9 = stablehlo.constant dense<-5.69250624E-5> : tensor<f32> loc(#loc144)
    %cst_10 = stablehlo.constant dense<-2.10102394E-6> : tensor<f32> loc(#loc144)
    %cst_11 = stablehlo.constant dense<2.77068146E-8> : tensor<f32> loc(#loc144)
    %cst_12 = stablehlo.constant dense<-2.72614237E-10> : tensor<f32> loc(#loc144)
    %cst_13 = stablehlo.constant dense<-4.000000e+00> : tensor<f32> loc(#loc144)
    %cst_14 = stablehlo.constant dense<4.000000e+00> : tensor<f32> loc(#loc144)
    %0 = stablehlo.clamp %cst_13, %arg0, %cst_14 : tensor<f32> loc(#loc144)
    %1 = stablehlo.multiply %0, %0 : tensor<f32> loc(#loc144)
    %2 = stablehlo.multiply %cst_12, %1 : tensor<f32> loc(#loc144)
    %3 = stablehlo.add %2, %cst_11 : tensor<f32> loc(#loc144)
    %4 = stablehlo.multiply %3, %1 : tensor<f32> loc(#loc144)
    %5 = stablehlo.add %4, %cst_10 : tensor<f32> loc(#loc144)
    %6 = stablehlo.multiply %5, %1 : tensor<f32> loc(#loc144)
    %7 = stablehlo.add %6, %cst_9 : tensor<f32> loc(#loc144)
    %8 = stablehlo.multiply %7, %1 : tensor<f32> loc(#loc144)
    %9 = stablehlo.add %8, %cst_8 : tensor<f32> loc(#loc144)
    %10 = stablehlo.multiply %9, %1 : tensor<f32> loc(#loc144)
    %11 = stablehlo.add %10, %cst_7 : tensor<f32> loc(#loc144)
    %12 = stablehlo.multiply %11, %1 : tensor<f32> loc(#loc144)
    %13 = stablehlo.add %12, %cst_6 : tensor<f32> loc(#loc144)
    %14 = stablehlo.multiply %cst_5, %1 : tensor<f32> loc(#loc144)
    %15 = stablehlo.add %14, %cst_4 : tensor<f32> loc(#loc144)
    %16 = stablehlo.multiply %15, %1 : tensor<f32> loc(#loc144)
    %17 = stablehlo.add %16, %cst_3 : tensor<f32> loc(#loc144)
    %18 = stablehlo.multiply %17, %1 : tensor<f32> loc(#loc144)
    %19 = stablehlo.add %18, %cst_2 : tensor<f32> loc(#loc144)
    %20 = stablehlo.multiply %19, %1 : tensor<f32> loc(#loc144)
    %21 = stablehlo.add %20, %cst_1 : tensor<f32> loc(#loc144)
    %22 = stablehlo.multiply %0, %13 : tensor<f32> loc(#loc144)
    %23 = stablehlo.divide %22, %21 : tensor<f32> loc(#loc144)
    %24 = stablehlo.clamp %cst_0, %23, %cst : tensor<f32> loc(#loc144)
    return %24 : tensor<f32> loc(#loc144)
  } loc(#loc144)
  func.func private @_uniform_28(%arg0: tensor<2xui32> loc(unknown), %arg1: tensor<f32> loc(unknown), %arg2: tensor<f32> loc(unknown)) -> tensor<16x1xf32> {
    %cst = stablehlo.constant dense<1.000000e+00> : tensor<f32> loc(#loc)
    %c = stablehlo.constant dense<1065353216> : tensor<ui32> loc(#loc)
    %c_0 = stablehlo.constant dense<9> : tensor<ui32> loc(#loc)
    %c_1 = stablehlo.constant dense<32> : tensor<ui64> loc(#loc124)
    %c_2 = stablehlo.constant dense<1> : tensor<ui64> loc(#loc)
    %0 = stablehlo.broadcast_in_dim %arg1, dims = [] : (tensor<f32>) -> tensor<1x1xf32> loc(#loc125)
    %1 = stablehlo.broadcast_in_dim %arg2, dims = [] : (tensor<f32>) -> tensor<1x1xf32> loc(#loc125)
    %2 = stablehlo.slice %arg0 [0:1] : (tensor<2xui32>) -> tensor<1xui32> loc(#loc98)
    %3 = stablehlo.reshape %2 : (tensor<1xui32>) -> tensor<ui32> loc(#loc99)
    %4 = stablehlo.slice %arg0 [1:2] : (tensor<2xui32>) -> tensor<1xui32> loc(#loc98)
    %5 = stablehlo.reshape %4 : (tensor<1xui32>) -> tensor<ui32> loc(#loc99)
    %6 = stablehlo.iota dim = 0 : tensor<16x1xui64> loc(#loc124)
    %7 = stablehlo.iota dim = 1 : tensor<16x1xui64> loc(#loc124)
    %8 = stablehlo.broadcast_in_dim %c_2, dims = [] : (tensor<ui64>) -> tensor<16x1xui64> loc(#loc124)
    %9 = stablehlo.multiply %8, %6 : tensor<16x1xui64> loc(#loc124)
    %10 = stablehlo.broadcast_in_dim %c_2, dims = [] : (tensor<ui64>) -> tensor<16x1xui64> loc(#loc124)
    %11 = stablehlo.multiply %10, %7 : tensor<16x1xui64> loc(#loc124)
    %12 = stablehlo.add %9, %11 : tensor<16x1xui64> loc(#loc124)
    %13 = stablehlo.broadcast_in_dim %c_1, dims = [] : (tensor<ui64>) -> tensor<16x1xui64> loc(#loc124)
    %14 = stablehlo.shift_right_logical %12, %13 : tensor<16x1xui64> loc(#loc124)
    %15 = stablehlo.convert %12 : (tensor<16x1xui64>) -> tensor<16x1xui32> loc(#loc124)
    %16 = stablehlo.convert %14 : (tensor<16x1xui64>) -> tensor<16x1xui32> loc(#loc124)
    %17:2 = call @threefry2x32_29(%3, %5, %16, %15) : (tensor<ui32>, tensor<ui32>, tensor<16x1xui32>, tensor<16x1xui32>) -> (tensor<16x1xui32>, tensor<16x1xui32>) loc(#loc136)
    %18 = stablehlo.xor %17#0, %17#1 : tensor<16x1xui32> loc(#loc104)
    %19 = stablehlo.broadcast_in_dim %c_0, dims = [] : (tensor<ui32>) -> tensor<16x1xui32> loc(#loc102)
    %20 = stablehlo.shift_right_logical %18, %19 : tensor<16x1xui32> loc(#loc102)
    %21 = stablehlo.broadcast_in_dim %c, dims = [] : (tensor<ui32>) -> tensor<16x1xui32> loc(#loc103)
    %22 = stablehlo.or %20, %21 : tensor<16x1xui32> loc(#loc103)
    %23 = stablehlo.bitcast_convert %22 : (tensor<16x1xui32>) -> tensor<16x1xf32> loc(#loc137)
    %24 = stablehlo.broadcast_in_dim %cst, dims = [] : (tensor<f32>) -> tensor<16x1xf32> loc(#loc101)
    %25 = stablehlo.subtract %23, %24 : tensor<16x1xf32> loc(#loc101)
    %26 = stablehlo.subtract %1, %0 : tensor<1x1xf32> loc(#loc101)
    %27 = stablehlo.broadcast_in_dim %26, dims = [0, 1] : (tensor<1x1xf32>) -> tensor<16x1xf32> loc(#loc119)
    %28 = stablehlo.multiply %25, %27 : tensor<16x1xf32> loc(#loc119)
    %29 = stablehlo.broadcast_in_dim %0, dims = [0, 1] : (tensor<1x1xf32>) -> tensor<16x1xf32> loc(#loc97)
    %30 = stablehlo.add %28, %29 : tensor<16x1xf32> loc(#loc97)
    %31 = stablehlo.broadcast_in_dim %0, dims = [0, 1] : (tensor<1x1xf32>) -> tensor<16x1xf32> loc(#loc121)
    %32 = stablehlo.maximum %31, %30 : tensor<16x1xf32> loc(#loc121)
    return %32 : tensor<16x1xf32> loc(#loc)
  } loc(#loc245)
  func.func private @threefry2x32_29(%arg0: tensor<ui32> loc(unknown), %arg1: tensor<ui32> loc(unknown), %arg2: tensor<16x1xui32> loc(unknown), %arg3: tensor<16x1xui32> loc(unknown)) -> (tensor<16x1xui32>, tensor<16x1xui32>) {
    %c = stablehlo.constant dense<1> : tensor<i32> loc(#loc)
    %c_0 = stablehlo.constant dense<5> : tensor<i32> loc(#loc)
    %c_1 = stablehlo.constant dense<0> : tensor<i32> loc(#loc)
    %c_2 = stablehlo.constant dense<466688986> : tensor<ui32> loc(#loc242)
    %c_3 = stablehlo.constant dense<[13, 15, 26, 6]> : tensor<4xui32> loc(#loc242)
    %c_4 = stablehlo.constant dense<[17, 29, 16, 24]> : tensor<4xui32> loc(#loc242)
    %0 = stablehlo.xor %arg0, %arg1 : tensor<ui32> loc(#loc104)
    %1 = stablehlo.xor %0, %c_2 : tensor<ui32> loc(#loc104)
    %2 = stablehlo.broadcast_in_dim %arg0, dims = [] : (tensor<ui32>) -> tensor<16x1xui32> loc(#loc97)
    %3 = stablehlo.add %arg2, %2 : tensor<16x1xui32> loc(#loc97)
    %4 = stablehlo.broadcast_in_dim %arg1, dims = [] : (tensor<ui32>) -> tensor<16x1xui32> loc(#loc97)
    %5 = stablehlo.add %arg3, %4 : tensor<16x1xui32> loc(#loc97)
    %6:9 = stablehlo.while(%iterArg = %c_1, %iterArg_5 = %c_1, %iterArg_6 = %3, %iterArg_7 = %5, %iterArg_8 = %arg1, %iterArg_9 = %1, %iterArg_10 = %arg0, %iterArg_11 = %c_3, %iterArg_12 = %c_4) : tensor<i32>, tensor<i32>, tensor<16x1xui32>, tensor<16x1xui32>, tensor<ui32>, tensor<ui32>, tensor<ui32>, tensor<4xui32>, tensor<4xui32>
    cond {
      %7 = stablehlo.compare LT, %iterArg, %c_0, SIGNED : (tensor<i32>, tensor<i32>) -> tensor<i1> loc(#loc128)
      stablehlo.return %7 : tensor<i1> loc(#loc127)
    } do {
      %7:8 = func.call @closed_call_30(%iterArg_5, %iterArg_6, %iterArg_7, %iterArg_8, %iterArg_9, %iterArg_10, %iterArg_11, %iterArg_12) : (tensor<i32>, tensor<16x1xui32>, tensor<16x1xui32>, tensor<ui32>, tensor<ui32>, tensor<ui32>, tensor<4xui32>, tensor<4xui32>) -> (tensor<i32>, tensor<16x1xui32>, tensor<16x1xui32>, tensor<ui32>, tensor<ui32>, tensor<ui32>, tensor<4xui32>, tensor<4xui32>) loc(#loc129)
      %8 = stablehlo.add %iterArg, %c : tensor<i32> loc(#loc130)
      stablehlo.return %8, %7#0, %7#1, %7#2, %7#3, %7#4, %7#5, %7#6, %7#7 : tensor<i32>, tensor<i32>, tensor<16x1xui32>, tensor<16x1xui32>, tensor<ui32>, tensor<ui32>, tensor<ui32>, tensor<4xui32>, tensor<4xui32> loc(#loc127)
    } loc(#loc127)
    return %6#2, %6#3 : tensor<16x1xui32>, tensor<16x1xui32> loc(#loc)
  } loc(#loc)
  func.func private @closed_call_30(%arg0: tensor<i32> loc(unknown), %arg1: tensor<16x1xui32> loc(unknown), %arg2: tensor<16x1xui32> loc(unknown), %arg3: tensor<ui32> loc(unknown), %arg4: tensor<ui32> loc(unknown), %arg5: tensor<ui32> loc(unknown), %arg6: tensor<4xui32> loc(unknown), %arg7: tensor<4xui32> loc(unknown)) -> (tensor<i32>, tensor<16x1xui32>, tensor<16x1xui32>, tensor<ui32>, tensor<ui32>, tensor<ui32>, tensor<4xui32>, tensor<4xui32>) {
    %c = stablehlo.constant dense<32> : tensor<ui32> loc(#loc)
    %c_0 = stablehlo.constant dense<1> : tensor<i32> loc(#loc)
    %0 = stablehlo.add %arg0, %c_0 : tensor<i32> loc(#loc97)
    %1 = stablehlo.slice %arg6 [0:1] : (tensor<4xui32>) -> tensor<1xui32> loc(#loc98)
    %2 = stablehlo.reshape %1 : (tensor<1xui32>) -> tensor<ui32> loc(#loc99)
    %3 = stablehlo.add %arg1, %arg2 : tensor<16x1xui32> loc(#loc97)
    %4 = stablehlo.broadcast_in_dim %2, dims = [] : (tensor<ui32>) -> tensor<16x1xui32> loc(#loc100)
    %5 = stablehlo.shift_left %arg2, %4 : tensor<16x1xui32> loc(#loc100)
    %6 = stablehlo.subtract %c, %2 : tensor<ui32> loc(#loc101)
    %7 = stablehlo.broadcast_in_dim %6, dims = [] : (tensor<ui32>) -> tensor<16x1xui32> loc(#loc102)
    %8 = stablehlo.shift_right_logical %arg2, %7 : tensor<16x1xui32> loc(#loc102)
    %9 = stablehlo.or %5, %8 : tensor<16x1xui32> loc(#loc103)
    %10 = stablehlo.xor %3, %9 : tensor<16x1xui32> loc(#loc104)
    %11 = stablehlo.slice %arg6 [1:2] : (tensor<4xui32>) -> tensor<1xui32> loc(#loc98)
    %12 = stablehlo.reshape %11 : (tensor<1xui32>) -> tensor<ui32> loc(#loc99)
    %13 = stablehlo.add %3, %10 : tensor<16x1xui32> loc(#loc97)
    %14 = stablehlo.broadcast_in_dim %12, dims = [] : (tensor<ui32>) -> tensor<16x1xui32> loc(#loc100)
    %15 = stablehlo.shift_left %10, %14 : tensor<16x1xui32> loc(#loc100)
    %16 = stablehlo.subtract %c, %12 : tensor<ui32> loc(#loc101)
    %17 = stablehlo.broadcast_in_dim %16, dims = [] : (tensor<ui32>) -> tensor<16x1xui32> loc(#loc102)
    %18 = stablehlo.shift_right_logical %10, %17 : tensor<16x1xui32> loc(#loc102)
    %19 = stablehlo.or %15, %18 : tensor<16x1xui32> loc(#loc103)
    %20 = stablehlo.xor %13, %19 : tensor<16x1xui32> loc(#loc104)
    %21 = stablehlo.slice %arg6 [2:3] : (tensor<4xui32>) -> tensor<1xui32> loc(#loc98)
    %22 = stablehlo.reshape %21 : (tensor<1xui32>) -> tensor<ui32> loc(#loc99)
    %23 = stablehlo.add %13, %20 : tensor<16x1xui32> loc(#loc97)
    %24 = stablehlo.broadcast_in_dim %22, dims = [] : (tensor<ui32>) -> tensor<16x1xui32> loc(#loc100)
    %25 = stablehlo.shift_left %20, %24 : tensor<16x1xui32> loc(#loc100)
    %26 = stablehlo.subtract %c, %22 : tensor<ui32> loc(#loc101)
    %27 = stablehlo.broadcast_in_dim %26, dims = [] : (tensor<ui32>) -> tensor<16x1xui32> loc(#loc102)
    %28 = stablehlo.shift_right_logical %20, %27 : tensor<16x1xui32> loc(#loc102)
    %29 = stablehlo.or %25, %28 : tensor<16x1xui32> loc(#loc103)
    %30 = stablehlo.xor %23, %29 : tensor<16x1xui32> loc(#loc104)
    %31 = stablehlo.slice %arg6 [3:4] : (tensor<4xui32>) -> tensor<1xui32> loc(#loc98)
    %32 = stablehlo.reshape %31 : (tensor<1xui32>) -> tensor<ui32> loc(#loc99)
    %33 = stablehlo.add %23, %30 : tensor<16x1xui32> loc(#loc97)
    %34 = stablehlo.broadcast_in_dim %32, dims = [] : (tensor<ui32>) -> tensor<16x1xui32> loc(#loc100)
    %35 = stablehlo.shift_left %30, %34 : tensor<16x1xui32> loc(#loc100)
    %36 = stablehlo.subtract %c, %32 : tensor<ui32> loc(#loc101)
    %37 = stablehlo.broadcast_in_dim %36, dims = [] : (tensor<ui32>) -> tensor<16x1xui32> loc(#loc102)
    %38 = stablehlo.shift_right_logical %30, %37 : tensor<16x1xui32> loc(#loc102)
    %39 = stablehlo.or %35, %38 : tensor<16x1xui32> loc(#loc103)
    %40 = stablehlo.xor %33, %39 : tensor<16x1xui32> loc(#loc104)
    %41 = stablehlo.broadcast_in_dim %arg3, dims = [] : (tensor<ui32>) -> tensor<16x1xui32> loc(#loc97)
    %42 = stablehlo.add %33, %41 : tensor<16x1xui32> loc(#loc97)
    %43 = stablehlo.broadcast_in_dim %arg4, dims = [] : (tensor<ui32>) -> tensor<16x1xui32> loc(#loc97)
    %44 = stablehlo.add %40, %43 : tensor<16x1xui32> loc(#loc97)
    %45 = stablehlo.add %arg0, %c_0 : tensor<i32> loc(#loc97)
    %46 = stablehlo.convert %45 : (tensor<i32>) -> tensor<ui32> loc(#loc105)
    %47 = stablehlo.broadcast_in_dim %46, dims = [] : (tensor<ui32>) -> tensor<16x1xui32> loc(#loc97)
    %48 = stablehlo.add %44, %47 : tensor<16x1xui32> loc(#loc97)
    return %0, %42, %48, %arg4, %arg5, %arg3, %arg7, %arg6 : tensor<i32>, tensor<16x1xui32>, tensor<16x1xui32>, tensor<ui32>, tensor<ui32>, tensor<ui32>, tensor<4xui32>, tensor<4xui32> loc(#loc)
  } loc(#loc247)
  func.func private @clip_31(%arg0: tensor<16x1xf32> loc(unknown), %arg1: tensor<f32> loc(unknown), %arg2: tensor<f32> loc(unknown)) -> tensor<16x1xf32> {
    %0 = stablehlo.broadcast_in_dim %arg1, dims = [] : (tensor<f32>) -> tensor<16x1xf32> loc(#loc121)
    %1 = stablehlo.maximum %0, %arg0 : tensor<16x1xf32> loc(#loc121)
    %2 = stablehlo.broadcast_in_dim %arg2, dims = [] : (tensor<f32>) -> tensor<16x1xf32> loc(#loc122)
    %3 = stablehlo.minimum %2, %1 : tensor<16x1xf32> loc(#loc122)
    return %3 : tensor<16x1xf32> loc(#loc)
  } loc(#loc245)
} loc(#loc)
#loc2 = loc("/Users/noahfarr/noahfarr.github.io/tools/whlo/export_ppo_wordle.py":202:16 to :51)
#loc3 = loc("/Users/noahfarr/noahfarr.github.io/tools/whlo/export_ppo_wordle.py":218:4 to :10)
#loc5 = loc("/Users/noahfarr/reinforcement-learning/src/algorithms/algorithms/recurrent_ppo.py":298:8 to :47)
#loc6 = loc("/Users/noahfarr/reinforcement-learning/src/environments/environments/wrappers/vectorize.py":20:21 to :54)
#loc7 = loc("/Users/noahfarr/reinforcement-learning/src/algorithms/algorithms/recurrent_ppo.py":300:38 to 302:9)
#loc8 = loc("/Users/noahfarr/reinforcement-learning/src/environments/environments/wrappers/vectorize.py":21:15 to :57)
#loc9 = loc("/Users/noahfarr/reinforcement-learning/src/environments/environments/wordle.py":92:16 to :75)
#loc10 = loc("/Users/noahfarr/reinforcement-learning/src/environments/environments/wrappers/mcp.py":57:23 to :50)
#loc11 = loc("/Users/noahfarr/reinforcement-learning/src/environments/environments/wrappers/wrapper.py":12:15 to :42)
#loc12 = loc("/Users/noahfarr/reinforcement-learning/src/environments/environments/wrappers/vectorize.py":22:15 to :80)
#loc13 = loc("/Users/noahfarr/reinforcement-learning/src/environments/environments/wordle.py":94:26 to :51)
#loc14 = loc("/Users/noahfarr/reinforcement-learning/src/environments/environments/wordle.py":95:27 to :60)
#loc15 = loc("/Users/noahfarr/reinforcement-learning/src/environments/environments/wordle.py":63:12 to :70)
#loc16 = loc("/Users/noahfarr/reinforcement-learning/src/environments/environments/wordle.py":104:16 to :30)
#loc17 = loc("/Users/noahfarr/reinforcement-learning/src/environments/environments/wordle.py":64:43 to :60)
#loc18 = loc("/Users/noahfarr/reinforcement-learning/src/environments/environments/wordle.py":64:11 to :66)
#loc19 = loc("/Users/noahfarr/reinforcement-learning/src/environments/environments/wrappers/mcp.py":61:22 to :58)
#loc20 = loc("/Users/noahfarr/reinforcement-learning/src/environments/environments/wrappers/mcp.py":67:16 to :71)
#loc21 = loc("/Users/noahfarr/reinforcement-learning/src/networks/networks/blocks/self_attention.py":149:17 to :72)
#loc22 = loc("/Users/noahfarr/reinforcement-learning/src/networks/networks/blocks/stack.py":25:21 to :61)
#loc23 = loc("/Users/noahfarr/reinforcement-learning/src/networks/networks/blocks/stack.py":25:15 to :87)
#loc24 = loc("/Users/noahfarr/reinforcement-learning/src/networks/networks/blocks/chunked.py":30:15 to :60)
#loc25 = loc("/Users/noahfarr/reinforcement-learning/src/networks/networks/network.py":36:15 to :60)
#loc26 = loc("/Users/noahfarr/reinforcement-learning/src/algorithms/algorithms/recurrent_ppo.py":305:16 to :68)
#loc27 = loc("/Users/noahfarr/reinforcement-learning/src/networks/networks/blocks/self_attention.py":150:16 to 152:13)
#loc28 = loc("/Users/noahfarr/reinforcement-learning/src/networks/networks/blocks/self_attention.py":153:18 to 155:13)
#loc29 = loc("/Users/noahfarr/reinforcement-learning/src/utils/utils/axis.py":15:11 to :37)
#loc30 = loc("/Users/noahfarr/reinforcement-learning/src/utils/utils/timestep.py":22:15 to :48)
#loc31 = loc("/Users/noahfarr/reinforcement-learning/src/algorithms/algorithms/recurrent_ppo.py":306:19 to :41)
#loc32 = loc("/Users/noahfarr/reinforcement-learning/src/utils/utils/timestep.py":19:15 to :47)
#loc33 = loc("/Users/noahfarr/reinforcement-learning/src/algorithms/algorithms/recurrent_ppo.py":312:12 to :25)
#loc38 = loc("/Users/noahfarr/reinforcement-learning/.venv/lib/python3.13/site-packages/flax/linen/linear.py":1194:11 to :46)
#loc39 = loc("/Users/noahfarr/noahfarr.github.io/tools/whlo/export_ppo_wordle.py":84:32 to :63)
#loc40 = loc("/Users/noahfarr/noahfarr.github.io/tools/whlo/export_ppo_wordle.py":84:65 to :79)
#loc41 = loc("/Users/noahfarr/noahfarr.github.io/tools/whlo/export_ppo_wordle.py":84:15 to :90)
#loc42 = loc("/Users/noahfarr/reinforcement-learning/src/networks/networks/blocks/chunked.py":14:12 to :73)
#loc43 = loc("/Users/noahfarr/reinforcement-learning/src/networks/networks/network.py":29:19 to :55)
#loc44 = loc("/Users/noahfarr/reinforcement-learning/src/networks/networks/blocks/chunked.py":16:12 to :76)
#loc45 = loc("/Users/noahfarr/reinforcement-learning/src/networks/networks/blocks/chunked.py":18:13 to :22)
#loc47 = loc("/Users/noahfarr/reinforcement-learning/src/networks/networks/blocks/chunked.py":21:22 to :76)
#loc48 = loc("/Users/noahfarr/reinforcement-learning/.venv/lib/python3.13/site-packages/flax/linen/linear.py":263:13 to 268:5)
#loc49 = loc("/Users/noahfarr/reinforcement-learning/src/networks/networks/blocks/projection.py":21:12 to 27:12)
#loc50 = loc("/Users/noahfarr/reinforcement-learning/src/networks/networks/blocks/stack.py":18:29 to :56)
#loc51 = loc("/Users/noahfarr/reinforcement-learning/src/networks/networks/blocks/stack.py":21:15 to :74)
#loc52 = loc("/Users/noahfarr/reinforcement-learning/src/networks/networks/blocks/chunked.py":20:19 to 22:9)
#loc53 = loc("/Users/noahfarr/reinforcement-learning/.venv/lib/python3.13/site-packages/flax/linen/linear.py":270:13 to 272:7)
#loc54 = loc("/Users/noahfarr/reinforcement-learning/.venv/lib/python3.13/site-packages/flax/linen/linear.py":287:8 to 292:5)
#loc55 = loc("/Users/noahfarr/reinforcement-learning/.venv/lib/python3.13/site-packages/flax/linen/linear.py":294:11 to :57)
#loc56 = loc("/Users/noahfarr/reinforcement-learning/.venv/lib/python3.13/site-packages/flax/linen/linear.py":294:6 to :57)
#loc57 = loc("/Users/noahfarr/reinforcement-learning/src/networks/networks/blocks/projection.py":29:16 to :34)
#loc58 = loc("/Users/noahfarr/reinforcement-learning/.venv/lib/python3.13/site-packages/flax/linen/linear.py":164:13 to 166:5)
#loc59 = loc("/Users/noahfarr/reinforcement-learning/src/networks/networks/blocks/self_attention.py":96:16 to :80)
#loc60 = loc("/Users/noahfarr/reinforcement-learning/.venv/lib/python3.13/site-packages/flax/linen/linear.py":151:15 to :55)
#loc61 = loc("/Users/noahfarr/reinforcement-learning/.venv/lib/python3.13/site-packages/flax/linen/linear.py":154:13 to :39)
#loc62 = loc("/Users/noahfarr/reinforcement-learning/.venv/lib/python3.13/site-packages/flax/linen/linear.py":183:13 to 185:7)
#loc63 = loc("/Users/noahfarr/reinforcement-learning/.venv/lib/python3.13/site-packages/flax/linen/linear.py":178:15 to :53)
#loc64 = loc("/Users/noahfarr/reinforcement-learning/.venv/lib/python3.13/site-packages/flax/linen/linear.py":181:15 to :39)
#loc65 = loc("/Users/noahfarr/reinforcement-learning/.venv/lib/python3.13/site-packages/flax/linen/linear.py":199:10 to 204:5)
#loc66 = loc("/Users/noahfarr/reinforcement-learning/.venv/lib/python3.13/site-packages/flax/linen/linear.py":209:13 to :63)
#loc67 = loc("/Users/noahfarr/reinforcement-learning/.venv/lib/python3.13/site-packages/flax/linen/linear.py":210:6 to :17)
#loc68 = loc("/Users/noahfarr/reinforcement-learning/src/networks/networks/blocks/self_attention.py":98:24 to :82)
#loc69 = loc("/Users/noahfarr/reinforcement-learning/src/networks/networks/blocks/self_attention.py":97:14 to 100:9)
#loc70 = loc("/Users/noahfarr/reinforcement-learning/src/networks/networks/blocks/self_attention.py":97:14 to 100:30)
#loc71 = loc("/Users/noahfarr/reinforcement-learning/src/networks/networks/blocks/self_attention.py":102:26 to :86)
#loc72 = loc("/Users/noahfarr/reinforcement-learning/src/networks/networks/blocks/self_attention.py":27:8 to :68)
#loc73 = loc("/Users/noahfarr/reinforcement-learning/src/networks/networks/blocks/self_attention.py":111:15 to :63)
#loc74 = loc("/Users/noahfarr/reinforcement-learning/src/networks/networks/blocks/self_attention.py":26:15 to 28:5)
#loc75 = loc("/Users/noahfarr/reinforcement-learning/src/networks/networks/blocks/self_attention.py":30:8 to :44)
#loc76 = loc("/Users/noahfarr/reinforcement-learning/src/networks/networks/blocks/self_attention.py":30:48 to :83)
#loc77 = loc("/Users/noahfarr/reinforcement-learning/src/networks/networks/blocks/self_attention.py":30:8 to :83)
#loc78 = loc("/Users/noahfarr/reinforcement-learning/src/networks/networks/blocks/self_attention.py":33:16 to :60)
#loc79 = loc("/Users/noahfarr/reinforcement-learning/src/networks/networks/blocks/self_attention.py":34:13 to :47)
#loc80 = loc("/Users/noahfarr/reinforcement-learning/src/networks/networks/blocks/self_attention.py":34:51 to :84)
#loc81 = loc("/Users/noahfarr/reinforcement-learning/src/networks/networks/blocks/self_attention.py":34:13 to :84)
#loc82 = loc("/Users/noahfarr/reinforcement-learning/src/networks/networks/blocks/self_attention.py":36:12 to :33)
#loc83 = loc("/Users/noahfarr/reinforcement-learning/src/networks/networks/blocks/self_attention.py":36:11 to :43)
#loc84 = loc("/Users/noahfarr/reinforcement-learning/src/networks/networks/blocks/self_attention.py":114:20 to 121:9)
#loc85 = loc("/Users/noahfarr/reinforcement-learning/src/networks/networks/blocks/self_attention.py":123:12 to 132:20)
#loc86 = loc("/Users/noahfarr/reinforcement-learning/src/networks/networks/actor_critic.py":11:15 to :28)
#loc87 = loc("/Users/noahfarr/reinforcement-learning/src/networks/networks/network.py":30:22 to :44)
#loc88 = loc("/Users/noahfarr/reinforcement-learning/src/networks/networks/actor_critic.py":11:30 to :44)
#loc89 = loc("/Users/noahfarr/reinforcement-learning/.venv/lib/python3.13/site-packages/optax/tree_utils/_tree_math.py":335:32 to :62)
#loc90 = loc("/Users/noahfarr/reinforcement-learning/.venv/lib/python3.13/site-packages/optax/tree_utils/_tree_math.py":335:9 to :69)
#loc91 = loc("/Users/noahfarr/reinforcement-learning/.venv/lib/python3.13/site-packages/optax/_src/transform.py":277:9 to :54)
#loc92 = loc("/Users/noahfarr/reinforcement-learning/.venv/lib/python3.13/site-packages/optax/transforms/_combining.py":79:17 to :27)
#loc93 = loc("/Users/noahfarr/reinforcement-learning/.venv/lib/python3.13/site-packages/optax/transforms/_combining.py":79:11 to :47)
#loc94 = loc("/Users/noahfarr/reinforcement-learning/src/algorithms/algorithms/recurrent_ppo.py":315:26 to :53)
#loc95 = loc("/Users/noahfarr/reinforcement-learning/.venv/lib/python3.13/site-packages/optax/_src/transform.py":278:9 to :38)
#loc96 = loc("threefry2x32")
#loc97 = loc("add")
#loc98 = loc("slice")
#loc99 = loc("squeeze")
#loc100 = loc("shift_left")
#loc101 = loc("sub")
#loc102 = loc("shift_right_logical")
#loc103 = loc("or")
#loc104 = loc("xor")
#loc105 = loc("convert_element_type")
#loc108 = loc("jit(clip)")
#loc109 = loc("gt")
#loc110 = loc("vmap(jit(_threefry_split))")
#loc111 = loc("vmap()/slice")
#loc112 = loc("vmap()/squeeze")
#loc114 = loc("vmap()/xor")
#loc115 = loc("le")
#loc116 = loc("select_n")
#loc117 = loc("and")
#loc118 = loc("rem")
#loc119 = loc("mul")
#loc120 = loc("jit")
#loc121 = loc("max")
#loc122 = loc("min")
#loc123 = loc("vmap()/jit")
#loc124 = loc("iota_2x32_shape")
#loc125 = loc("broadcast_in_dim")
#loc126 = loc("stack")
#loc127 = loc("while")
#loc128 = loc("while/cond/lt")
#loc129 = loc("while/body/closed_call")
#loc130 = loc("while/body/add")
#loc131 = loc("iota")
#loc132 = loc("eq")
#loc133 = loc("jit(_normal_real)")
#loc134 = loc("erf_inv")
#loc135 = loc("jit(_uniform)")
#loc136 = loc("")
#loc137 = loc("bitcast_convert_type")
#loc138 = loc("gather")
#loc139 = loc("reduce_and")
#loc140 = loc("lt")
#loc141 = loc("jit(_where)")
#loc142 = loc("ge")
#loc143 = loc("div")
#loc145 = loc("nextafter")
#loc147 = loc("transpose")
#loc148 = loc("main"(#loc2))
#loc149 = loc("<module>"(#loc3))
#loc151 = loc("RecurrentPPO.init"(#loc5))
#loc152 = loc("Vectorize.init"(#loc6))
#loc153 = loc("RecurrentPPO.init"(#loc7))
#loc154 = loc("Vectorize.init"(#loc8))
#loc155 = loc("Wordle.init"(#loc9))
#loc156 = loc("MCP.init"(#loc10))
#loc157 = loc("Wrapper.init"(#loc11))
#loc158 = loc("Vectorize.init"(#loc12))
#loc159 = loc("Wordle.init"(#loc13))
#loc160 = loc("Wordle.init"(#loc14))
#loc161 = loc("get_obs"(#loc15))
#loc162 = loc("Wordle.init"(#loc16))
#loc163 = loc("get_obs"(#loc17))
#loc164 = loc("get_obs"(#loc18))
#loc165 = loc("MCP.init"(#loc19))
#loc166 = loc("MCP.init"(#loc20))
#loc167 = loc("SelfAttention.initialize_carry"(#loc21))
#loc168 = loc("Stack.initialize_carry.<locals>.<genexpr>"(#loc22))
#loc169 = loc("Stack.initialize_carry"(#loc23))
#loc170 = loc("Chunked.initialize_carry"(#loc24))
#loc171 = loc("Network.initialize_carry"(#loc25))
#loc172 = loc("RecurrentPPO.init"(#loc26))
#loc173 = loc("SelfAttention.initialize_carry"(#loc27))
#loc174 = loc("SelfAttention.initialize_carry"(#loc28))
#loc175 = loc("add_time_axis"(#loc29))
#loc176 = loc("Timestep.to_sequence"(#loc30))
#loc177 = loc("RecurrentPPO.init"(#loc31))
#loc178 = loc("Timestep.done"(#loc32))
#loc179 = loc("RecurrentPPO.init"(#loc33))
#loc184 = loc("Embed.__call__"(#loc38))
#loc185 = loc("TokenFeatureExtractor.__call__"(#loc39))
#loc186 = loc("TokenFeatureExtractor.__call__"(#loc40))
#loc187 = loc("TokenFeatureExtractor.__call__"(#loc41))
#loc188 = loc("Chunked.__call__"(#loc42))
#loc189 = loc("Network.__call__"(#loc43))
#loc190 = loc("Chunked.__call__"(#loc44))
#loc191 = loc("Chunked.__call__"(#loc45))
#loc193 = loc("Chunked.__call__"(#loc47))
#loc194 = loc("Dense.__call__"(#loc48))
#loc195 = loc("Projection.__call__"(#loc49))
#loc196 = loc("Stack.__call__.<locals>.step"(#loc50))
#loc197 = loc("Stack.__call__"(#loc51))
#loc198 = loc("Chunked.__call__"(#loc52))
#loc199 = loc("Dense.__call__"(#loc53))
#loc200 = loc("Dense.__call__"(#loc54))
#loc201 = loc("Dense.__call__"(#loc55))
#loc202 = loc("Dense.__call__"(#loc56))
#loc203 = loc("Projection.__call__"(#loc57))
#loc204 = loc("DenseGeneral.__call__"(#loc58))
#loc205 = loc("SelfAttention.__call__"(#loc59))
#loc206 = loc("DenseGeneral.__call__.<locals>.kernel_init_wrap"(#loc60))
#loc207 = loc("DenseGeneral.__call__.<locals>.kernel_init_wrap"(#loc61))
#loc208 = loc("DenseGeneral.__call__"(#loc62))
#loc209 = loc("DenseGeneral.__call__.<locals>.bias_init_wrap"(#loc63))
#loc210 = loc("DenseGeneral.__call__.<locals>.bias_init_wrap"(#loc64))
#loc211 = loc("DenseGeneral.__call__"(#loc65))
#loc212 = loc("DenseGeneral.__call__"(#loc66))
#loc213 = loc("DenseGeneral.__call__"(#loc67))
#loc214 = loc("SelfAttention.__call__"(#loc68))
#loc215 = loc("SelfAttention.__call__"(#loc69))
#loc216 = loc("SelfAttention.__call__"(#loc70))
#loc217 = loc("SelfAttention.__call__"(#loc71))
#loc218 = loc("causal_attention_mask"(#loc72))
#loc219 = loc("SelfAttention.__call__"(#loc73))
#loc220 = loc("causal_attention_mask"(#loc74))
#loc221 = loc("causal_attention_mask"(#loc75))
#loc222 = loc("causal_attention_mask"(#loc76))
#loc223 = loc("causal_attention_mask"(#loc77))
#loc224 = loc("causal_attention_mask"(#loc78))
#loc225 = loc("causal_attention_mask"(#loc79))
#loc226 = loc("causal_attention_mask"(#loc80))
#loc227 = loc("causal_attention_mask"(#loc81))
#loc228 = loc("causal_attention_mask"(#loc82))
#loc229 = loc("causal_attention_mask"(#loc83))
#loc230 = loc("SelfAttention.__call__"(#loc84))
#loc231 = loc("SelfAttention.__call__"(#loc85))
#loc232 = loc("ActorCritic.__call__"(#loc86))
#loc233 = loc("Network.__call__"(#loc87))
#loc234 = loc("ActorCritic.__call__"(#loc88))
#loc235 = loc("tree_zeros_like.<locals>.<lambda>"(#loc89))
#loc236 = loc("tree_zeros_like"(#loc90))
#loc237 = loc("scale_by_adam.<locals>.init_fn"(#loc91))
#loc238 = loc("chain.<locals>.init_fn.<locals>.<genexpr>"(#loc92))
#loc239 = loc("chain.<locals>.init_fn"(#loc93))
#loc240 = loc("RecurrentPPO.init"(#loc94))
#loc241 = loc("scale_by_adam.<locals>.init_fn"(#loc95))
#loc242 = loc("threefry2x32:"(#loc96))
#loc245 = loc("jit:"(#loc120))
#loc246 = loc("jit:"(#loc123))
#loc247 = loc("closed_call:"(#loc129))
#loc249 = loc(callsite(#loc148 at #loc149))
#loc250 = loc(callsite(#loc152 at #loc153))
#loc252 = loc("jit"(#loc150))
#loc253 = loc("iota_2x32_shape"(#loc150))
#loc254 = loc("slice"(#loc150))
#loc255 = loc("squeeze"(#loc150))
#loc256 = loc("stack"(#loc150))
#loc257 = loc("xor"(#loc150))
#loc258 = loc("add"(#loc150))
#loc259 = loc(callsite(#loc150 at #loc150))
#loc260 = loc("while/body/closed_call"(#loc150))
#loc262 = loc("jit(init)"(#loc249))
#loc263 = loc(callsite(#loc150 at #loc249))
#loc264 = loc(callsite(#loc151 at #loc249))
#loc265 = loc(callsite(#loc153 at #loc249))
#loc266 = loc(callsite(#loc172 at #loc249))
#loc267 = loc(callsite(#loc177 at #loc249))
#loc268 = loc(callsite(#loc179 at #loc249))
#loc270 = loc(callsite(#loc183 at #loc249))
#loc271 = loc(callsite(#loc240 at #loc249))
#loc272 = loc("jit:"(#loc252))
#loc273 = loc("while"(#loc259))
#loc274 = loc(callsite(#loc259 at #loc150))
#loc275 = loc("closed_call:"(#loc260))
#loc276 = loc("jit"(#loc250))
#loc277 = loc("iota_2x32_shape"(#loc261))
#loc278 = loc("slice"(#loc261))
#loc279 = loc("squeeze"(#loc261))
#loc280 = loc("stack"(#loc261))
#loc281 = loc("xor"(#loc261))
#loc282 = loc("add"(#loc261))
#loc283 = loc(callsite(#loc261 at #loc261))
#loc284 = loc("while/body/closed_call"(#loc261))
#loc285 = loc(callsite(#loc150 at #loc263))
#loc286 = loc("jit(init)/slice"(#loc264))
#loc287 = loc("jit(init)/squeeze"(#loc264))
#loc288 = loc(callsite(#loc152 at #loc265))
#loc289 = loc(callsite(#loc154 at #loc265))
#loc290 = loc(callsite(#loc158 at #loc265))
#loc291 = loc(callsite(#loc171 at #loc266))
#loc292 = loc(callsite(#loc176 at #loc267))
#loc293 = loc(callsite(#loc178 at #loc268))
#loc295 = loc(callsite(#loc182 at #loc270))
#loc296 = loc(callsite(#loc189 at #loc270))
#loc297 = loc(callsite(#loc233 at #loc270))
#loc298 = loc(callsite(#loc239 at #loc271))
#loc299 = loc("while/cond/lt"(#loc274))
#loc300 = loc("while/body/closed_call"(#loc274))
#loc301 = loc("while/body/add"(#loc274))
#loc302 = loc("jit:"(#loc276))
#loc303 = loc("while"(#loc283))
#loc304 = loc(callsite(#loc283 at #loc261))
#loc305 = loc("closed_call:"(#loc284))
#loc306 = loc("jit(init)/jit(_threefry_split)"(#loc285))
#loc307 = loc(callsite(#loc250 at #loc288))
#loc308 = loc("jit(init)/broadcast_in_dim"(#loc289))
#loc309 = loc("jit(init)/reshape"(#loc289))
#loc310 = loc(callsite(#loc157 at #loc290))
#loc311 = loc("jit(init)/vmap()/broadcast_in_dim"(#loc290))
#loc312 = loc(callsite(#loc170 at #loc291))
#loc313 = loc(callsite(#loc175 at #loc292))
#loc314 = loc("jit(init)/or"(#loc293))
#loc315 = loc(callsite(#loc181 at #loc295))
#loc316 = loc(callsite(#loc185 at #loc295))
#loc317 = loc(callsite(#loc186 at #loc295))
#loc318 = loc(callsite(#loc187 at #loc295))
#loc319 = loc(callsite(#loc188 at #loc296))
#loc320 = loc(callsite(#loc190 at #loc296))
#loc321 = loc(callsite(#loc191 at #loc296))
#loc322 = loc(callsite(#loc193 at #loc296))
#loc323 = loc(callsite(#loc198 at #loc296))
#loc324 = loc(callsite(#loc232 at #loc297))
#loc325 = loc(callsite(#loc234 at #loc297))
#loc326 = loc(callsite(#loc238 at #loc298))
#loc327 = loc("while/cond/lt"(#loc304))
#loc328 = loc("while/body/closed_call"(#loc304))
#loc329 = loc("while/body/add"(#loc304))
#loc330 = loc("jit"(#loc294))
#loc331 = loc("shift_right_logical"(#loc294))
#loc332 = loc("broadcast_in_dim"(#loc294))
#loc333 = loc("and"(#loc294))
#loc334 = loc("concatenate"(#loc294))
#loc335 = loc("slice"(#loc294))
#loc336 = loc("squeeze"(#loc294))
#loc337 = loc("split"(#loc294))
#loc338 = loc("xor"(#loc294))
#loc339 = loc("add"(#loc294))
#loc340 = loc(callsite(#loc294 at #loc294))
#loc341 = loc("while/body/closed_call"(#loc294))
#loc342 = loc("jit(init)/jit(_threefry_split)"(#loc307))
#loc343 = loc(callsite(#loc156 at #loc310))
#loc344 = loc(callsite(#loc165 at #loc310))
#loc345 = loc(callsite(#loc166 at #loc310))
#loc346 = loc(callsite(#loc169 at #loc312))
#loc347 = loc("jit(init)/broadcast_in_dim"(#loc313))
#loc348 = loc(callsite(#loc180 at #loc315))
#loc349 = loc(callsite(#loc184 at #loc315))
#loc350 = loc("jit(init)/Network/feature_extractor/broadcast_in_dim"(#loc316))
#loc351 = loc(callsite(#loc184 at #loc317))
#loc352 = loc("jit(init)/Network/feature_extractor/concatenate"(#loc318))
#loc353 = loc("jit(init)/Network/torso/reshape"(#loc319))
#loc354 = loc("jit(init)/Network/torso/broadcast_in_dim"(#loc320))
#loc355 = loc("jit(init)/Network/torso/broadcast_in_dim"(#loc321))
#loc356 = loc("jit(init)/Network/torso/scatter"(#loc321))
#loc357 = loc("jit(init)/Network/torso/reshape"(#loc322))
#loc358 = loc(callsite(#loc197 at #loc323))
#loc359 = loc(callsite(#loc194 at #loc324))
#loc360 = loc(callsite(#loc194 at #loc325))
#loc361 = loc(callsite(#loc199 at #loc325))
#loc362 = loc(callsite(#loc239 at #loc326))
#loc363 = loc("jit:"(#loc330))
#loc364 = loc("while"(#loc340))
#loc365 = loc(callsite(#loc340 at #loc294))
#loc366 = loc("closed_call:"(#loc341))
#loc367 = loc(callsite(#loc155 at #loc343))
#loc368 = loc(callsite(#loc159 at #loc343))
#loc369 = loc(callsite(#loc160 at #loc343))
#loc370 = loc(callsite(#loc162 at #loc343))
#loc371 = loc("jit(init)/vmap()/broadcast_in_dim"(#loc344))
#loc372 = loc("jit(init)/vmap()/broadcast_in_dim"(#loc345))
#loc373 = loc(callsite(#loc168 at #loc346))
#loc374 = loc(callsite(#loc294 at #loc348))
#loc375 = loc("jit(init)/Network/feature_extractor/token_embedding.setup/jit(_normal)"(#loc348))
#loc376 = loc("jit(init)/Network/feature_extractor/token_embedding.setup/sqrt"(#loc348))
#loc377 = loc("jit(init)/Network/feature_extractor/token_embedding.setup/mul"(#loc348))
#loc378 = loc("jit(init)/Network/feature_extractor/token_embedding/jit(_take)"(#loc349))
#loc379 = loc("jit(init)/Network/feature_extractor/token_embedding/jit(_take)"(#loc351))
#loc380 = loc(callsite(#loc196 at #loc358))
#loc381 = loc(callsite(#loc294 at #loc359))
#loc382 = loc("jit(init)/Network/head/actor/sqrt"(#loc359))
#loc383 = loc("jit(init)/Network/head/actor/div"(#loc359))
#loc384 = loc("jit(init)/Network/head/actor/jit(_truncated_normal)"(#loc359))
#loc385 = loc("jit(init)/Network/head/actor/mul"(#loc359))
#loc386 = loc(callsite(#loc294 at #loc360))
#loc387 = loc("jit(init)/Network/head/critic/sqrt"(#loc360))
#loc388 = loc("jit(init)/Network/head/critic/div"(#loc360))
#loc389 = loc("jit(init)/Network/head/critic/jit(_truncated_normal)"(#loc360))
#loc390 = loc("jit(init)/Network/head/critic/mul"(#loc360))
#loc391 = loc(callsite(#loc294 at #loc361))
#loc392 = loc("jit(init)/Network/head/critic/broadcast_in_dim"(#loc361))
#loc393 = loc(callsite(#loc238 at #loc362))
#loc394 = loc("while/cond/lt"(#loc365))
#loc395 = loc("while/body/closed_call"(#loc365))
#loc396 = loc("while/body/add"(#loc365))
#loc397 = loc("jit(init)/Network/feature_extractor/token_embedding.setup/jit"(#loc348))
#loc398 = loc("jit(init)/Network/feature_extractor/token_embedding/jit"(#loc349))
#loc399 = loc("jit(init)/Network/feature_extractor/token_embedding/jit"(#loc351))
#loc400 = loc("jit(init)/Network/head/actor/jit"(#loc359))
#loc401 = loc("jit(init)/Network/head/critic/jit"(#loc360))
#loc402 = loc("jit(init)/vmap(jit(_randint))"(#loc367))
#loc403 = loc("jit(init)/vmap()/lt"(#loc368))
#loc404 = loc("jit(init)/vmap()/add"(#loc368))
#loc405 = loc("jit(init)/vmap()/select_n"(#loc368))
#loc406 = loc("jit(init)/vmap()/broadcast_in_dim"(#loc368))
#loc407 = loc("jit(init)/vmap()/concatenate"(#loc368))
#loc408 = loc("jit(init)/vmap()/gather"(#loc368))
#loc409 = loc("jit(init)/vmap()/squeeze"(#loc368))
#loc410 = loc("jit(init)/vmap()/broadcast_in_dim"(#loc369))
#loc411 = loc(callsite(#loc161 at #loc370))
#loc412 = loc(callsite(#loc163 at #loc370))
#loc413 = loc(callsite(#loc164 at #loc370))
#loc414 = loc(callsite(#loc167 at #loc373))
#loc415 = loc(callsite(#loc173 at #loc373))
#loc416 = loc(callsite(#loc174 at #loc373))
#loc417 = loc("jit(init)/Network/feature_extractor/token_embedding.setup/jit(_threefry_fold_in)"(#loc374))
#loc418 = loc(callsite(#loc195 at #loc380))
#loc419 = loc(callsite(#loc203 at #loc380))
#loc420 = loc(callsite(#loc205 at #loc380))
#loc421 = loc(callsite(#loc214 at #loc380))
#loc422 = loc(callsite(#loc215 at #loc380))
#loc423 = loc(callsite(#loc216 at #loc380))
#loc424 = loc(callsite(#loc217 at #loc380))
#loc425 = loc(callsite(#loc219 at #loc380))
#loc426 = loc(callsite(#loc230 at #loc380))
#loc427 = loc(callsite(#loc231 at #loc380))
#loc428 = loc("jit(init)/Network/head/actor/jit(_threefry_fold_in)"(#loc381))
#loc429 = loc("jit(init)/Network/head/critic/jit(_threefry_fold_in)"(#loc386))
#loc430 = loc("jit(init)/Network/head/critic/jit(_threefry_fold_in)"(#loc391))
#loc431 = loc(callsite(#loc237 at #loc393))
#loc432 = loc(callsite(#loc241 at #loc393))
#loc433 = loc("jit(init)/vmap()/jit"(#loc367))
#loc434 = loc("jit:"(#loc397))
#loc435 = loc("jit:"(#loc398))
#loc436 = loc("jit:"(#loc399))
#loc437 = loc("jit:"(#loc400))
#loc438 = loc("jit:"(#loc401))
#loc439 = loc("jit(init)/vmap(jit(_one_hot))"(#loc411))
#loc440 = loc("jit(init)/vmap()/reshape"(#loc412))
#loc441 = loc("jit(init)/vmap(jit(_where))"(#loc413))
#loc442 = loc("jit(init)/broadcast_in_dim"(#loc414))
#loc443 = loc("jit(init)/broadcast_in_dim"(#loc415))
#loc444 = loc("jit(init)/broadcast_in_dim"(#loc416))
#loc445 = loc(callsite(#loc194 at #loc418))
#loc446 = loc(callsite(#loc199 at #loc418))
#loc447 = loc(callsite(#loc200 at #loc418))
#loc448 = loc(callsite(#loc201 at #loc418))
#loc449 = loc(callsite(#loc202 at #loc418))
#loc450 = loc("jit(init)/Network/torso/block/blocks_0/jit(relu)"(#loc419))
#loc451 = loc(callsite(#loc204 at #loc420))
#loc452 = loc(callsite(#loc208 at #loc420))
#loc453 = loc(callsite(#loc211 at #loc420))
#loc454 = loc(callsite(#loc212 at #loc420))
#loc455 = loc(callsite(#loc213 at #loc420))
#loc456 = loc(callsite(#loc204 at #loc421))
#loc457 = loc(callsite(#loc208 at #loc421))
#loc458 = loc(callsite(#loc211 at #loc421))
#loc459 = loc(callsite(#loc212 at #loc421))
#loc460 = loc(callsite(#loc213 at #loc421))
#loc461 = loc("jit(init)/Network/torso/block/blocks_1/concatenate"(#loc422))
#loc462 = loc("jit(init)/Network/torso/block/blocks_1/slice"(#loc423))
#loc463 = loc(callsite(#loc204 at #loc424))
#loc464 = loc(callsite(#loc208 at #loc424))
#loc465 = loc(callsite(#loc218 at #loc425))
#loc466 = loc(callsite(#loc220 at #loc425))
#loc467 = loc(callsite(#loc221 at #loc425))
#loc468 = loc(callsite(#loc222 at #loc425))
#loc469 = loc(callsite(#loc223 at #loc425))
#loc470 = loc(callsite(#loc224 at #loc425))
#loc471 = loc(callsite(#loc225 at #loc425))
#loc472 = loc(callsite(#loc226 at #loc425))
#loc473 = loc(callsite(#loc227 at #loc425))
#loc474 = loc(callsite(#loc228 at #loc425))
#loc475 = loc(callsite(#loc229 at #loc425))
#loc476 = loc("jit(init)/Network/torso/block/blocks_1/reshape"(#loc426))
#loc477 = loc("jit(init)/Network/torso/block/blocks_1/broadcast_in_dim"(#loc426))
#loc478 = loc("jit(init)/Network/torso/block/blocks_1/vmap(BTNH,BSNH->BNTS)/dot_general"(#loc426))
#loc479 = loc("jit(init)/Network/torso/block/blocks_1/vmap()/mul"(#loc426))
#loc480 = loc("jit(init)/Network/torso/block/blocks_1/vmap()/broadcast_in_dim"(#loc426))
#loc481 = loc("jit(init)/Network/torso/block/blocks_1/vmap()/transpose"(#loc426))
#loc482 = loc("jit(init)/Network/torso/block/blocks_1/vmap()/and"(#loc426))
#loc483 = loc("jit(init)/Network/torso/block/blocks_1/vmap(jit(_where))"(#loc426))
#loc484 = loc(callsite(#loc204 at #loc427))
#loc485 = loc(callsite(#loc208 at #loc427))
#loc486 = loc(callsite(#loc236 at #loc431))
#loc487 = loc(callsite(#loc236 at #loc432))
#loc488 = loc("jit:"(#loc433))
#loc489 = loc("jit(init)/vmap()/jit"(#loc411))
#loc490 = loc("jit(init)/vmap()/jit"(#loc413))
#loc491 = loc("jit(init)/Network/torso/block/blocks_1/vmap()/jit"(#loc426))
#loc492 = loc(callsite(#loc294 at #loc445))
#loc493 = loc("jit(init)/Network/torso/block/blocks_0/Dense_0/sqrt"(#loc445))
#loc494 = loc("jit(init)/Network/torso/block/blocks_0/Dense_0/div"(#loc445))
#loc495 = loc("jit(init)/Network/torso/block/blocks_0/Dense_0/jit(_truncated_normal)"(#loc445))
#loc496 = loc("jit(init)/Network/torso/block/blocks_0/Dense_0/mul"(#loc445))
#loc497 = loc(callsite(#loc294 at #loc446))
#loc498 = loc("jit(init)/Network/torso/block/blocks_0/Dense_0/broadcast_in_dim"(#loc446))
#loc499 = loc("jit(init)/Network/torso/block/blocks_0/Dense_0/dot_general"(#loc447))
#loc500 = loc("jit(init)/Network/torso/block/blocks_0/Dense_0/reshape"(#loc448))
#loc501 = loc("jit(init)/Network/torso/block/blocks_0/Dense_0/add"(#loc449))
#loc502 = loc(callsite(#loc294 at #loc451))
#loc503 = loc(callsite(#loc206 at #loc451))
#loc504 = loc(callsite(#loc207 at #loc451))
#loc505 = loc(callsite(#loc294 at #loc452))
#loc506 = loc(callsite(#loc209 at #loc452))
#loc507 = loc(callsite(#loc210 at #loc452))
#loc508 = loc("jit(init)/Network/torso/block/blocks_1/query/dot_general"(#loc453))
#loc509 = loc("jit(init)/Network/torso/block/blocks_1/query/reshape"(#loc454))
#loc510 = loc("jit(init)/Network/torso/block/blocks_1/query/add"(#loc455))
#loc511 = loc(callsite(#loc294 at #loc456))
#loc512 = loc(callsite(#loc206 at #loc456))
#loc513 = loc(callsite(#loc207 at #loc456))
#loc514 = loc(callsite(#loc294 at #loc457))
#loc515 = loc(callsite(#loc209 at #loc457))
#loc516 = loc(callsite(#loc210 at #loc457))
#loc517 = loc("jit(init)/Network/torso/block/blocks_1/key/dot_general"(#loc458))
#loc518 = loc("jit(init)/Network/torso/block/blocks_1/key/reshape"(#loc459))
#loc519 = loc("jit(init)/Network/torso/block/blocks_1/key/add"(#loc460))
#loc520 = loc(callsite(#loc294 at #loc463))
#loc521 = loc(callsite(#loc206 at #loc463))
#loc522 = loc(callsite(#loc207 at #loc463))
#loc523 = loc(callsite(#loc294 at #loc464))
#loc524 = loc(callsite(#loc209 at #loc464))
#loc525 = loc(callsite(#loc210 at #loc464))
#loc526 = loc("jit(init)/Network/torso/block/blocks_1/convert_element_type"(#loc465))
#loc527 = loc("jit(init)/Network/torso/block/blocks_1/concatenate"(#loc465))
#loc528 = loc("jit(init)/Network/torso/block/blocks_1/jit(cumsum)"(#loc466))
#loc529 = loc("jit(init)/Network/torso/block/blocks_1/slice"(#loc467))
#loc530 = loc("jit(init)/Network/torso/block/blocks_1/broadcast_in_dim"(#loc467))
#loc531 = loc("jit(init)/Network/torso/block/blocks_1/slice"(#loc468))
#loc532 = loc("jit(init)/Network/torso/block/blocks_1/broadcast_in_dim"(#loc468))
#loc533 = loc("jit(init)/Network/torso/block/blocks_1/eq"(#loc469))
#loc534 = loc("jit(init)/Network/torso/block/blocks_1/iota"(#loc470))
#loc535 = loc("jit(init)/Network/torso/block/blocks_1/slice"(#loc471))
#loc536 = loc("jit(init)/Network/torso/block/blocks_1/broadcast_in_dim"(#loc471))
#loc537 = loc("jit(init)/Network/torso/block/blocks_1/slice"(#loc472))
#loc538 = loc("jit(init)/Network/torso/block/blocks_1/broadcast_in_dim"(#loc472))
#loc539 = loc("jit(init)/Network/torso/block/blocks_1/ge"(#loc473))
#loc540 = loc("jit(init)/Network/torso/block/blocks_1/broadcast_in_dim"(#loc474))
#loc541 = loc("jit(init)/Network/torso/block/blocks_1/and"(#loc474))
#loc542 = loc("jit(init)/Network/torso/block/blocks_1/broadcast_in_dim"(#loc475))
#loc543 = loc(callsite(#loc294 at #loc484))
#loc544 = loc(callsite(#loc206 at #loc484))
#loc545 = loc(callsite(#loc207 at #loc484))
#loc546 = loc(callsite(#loc294 at #loc485))
#loc547 = loc(callsite(#loc209 at #loc485))
#loc548 = loc(callsite(#loc235 at #loc486))
#loc549 = loc(callsite(#loc235 at #loc487))
#loc550 = loc("jit:"(#loc489))
#loc551 = loc("jit:"(#loc490))
#loc552 = loc("jit(init)/Network/torso/block/blocks_0/Dense_0/jit"(#loc445))
#loc553 = loc("jit(init)/Network/torso/block/blocks_1/jit"(#loc466))
#loc554 = loc("jit:"(#loc491))
#loc555 = loc("jit(init)/Network/torso/block/blocks_0/Dense_0/jit(_threefry_fold_in)"(#loc492))
#loc556 = loc("jit(init)/Network/torso/block/blocks_0/Dense_0/jit(_threefry_fold_in)"(#loc497))
#loc557 = loc("jit(init)/Network/torso/block/blocks_1/query/jit(_threefry_fold_in)"(#loc502))
#loc558 = loc("jit(init)/Network/torso/block/blocks_1/query/sqrt"(#loc503))
#loc559 = loc("jit(init)/Network/torso/block/blocks_1/query/div"(#loc503))
#loc560 = loc("jit(init)/Network/torso/block/blocks_1/query/jit(_truncated_normal)"(#loc503))
#loc561 = loc("jit(init)/Network/torso/block/blocks_1/query/mul"(#loc503))
#loc562 = loc("jit(init)/Network/torso/block/blocks_1/query/reshape"(#loc504))
#loc563 = loc("jit(init)/Network/torso/block/blocks_1/query/jit(_threefry_fold_in)"(#loc505))
#loc564 = loc("jit(init)/Network/torso/block/blocks_1/query/broadcast_in_dim"(#loc506))
#loc565 = loc("jit(init)/Network/torso/block/blocks_1/query/reshape"(#loc507))
#loc566 = loc("jit(init)/Network/torso/block/blocks_1/key/jit(_threefry_fold_in)"(#loc511))
#loc567 = loc("jit(init)/Network/torso/block/blocks_1/key/sqrt"(#loc512))
#loc568 = loc("jit(init)/Network/torso/block/blocks_1/key/div"(#loc512))
#loc569 = loc("jit(init)/Network/torso/block/blocks_1/key/jit(_truncated_normal)"(#loc512))
#loc570 = loc("jit(init)/Network/torso/block/blocks_1/key/mul"(#loc512))
#loc571 = loc("jit(init)/Network/torso/block/blocks_1/key/reshape"(#loc513))
#loc572 = loc("jit(init)/Network/torso/block/blocks_1/key/jit(_threefry_fold_in)"(#loc514))
#loc573 = loc("jit(init)/Network/torso/block/blocks_1/key/broadcast_in_dim"(#loc515))
#loc574 = loc("jit(init)/Network/torso/block/blocks_1/key/reshape"(#loc516))
#loc575 = loc("jit(init)/Network/torso/block/blocks_1/value/jit(_threefry_fold_in)"(#loc520))
#loc576 = loc("jit(init)/Network/torso/block/blocks_1/value/sqrt"(#loc521))
#loc577 = loc("jit(init)/Network/torso/block/blocks_1/value/div"(#loc521))
#loc578 = loc("jit(init)/Network/torso/block/blocks_1/value/jit(_truncated_normal)"(#loc521))
#loc579 = loc("jit(init)/Network/torso/block/blocks_1/value/mul"(#loc521))
#loc580 = loc("jit(init)/Network/torso/block/blocks_1/value/reshape"(#loc522))
#loc581 = loc("jit(init)/Network/torso/block/blocks_1/value/jit(_threefry_fold_in)"(#loc523))
#loc582 = loc("jit(init)/Network/torso/block/blocks_1/value/broadcast_in_dim"(#loc524))
#loc583 = loc("jit(init)/Network/torso/block/blocks_1/value/reshape"(#loc525))
#loc584 = loc("jit(init)/Network/torso/block/blocks_1/output_projection/jit(_threefry_fold_in)"(#loc543))
#loc585 = loc("jit(init)/Network/torso/block/blocks_1/output_projection/sqrt"(#loc544))
#loc586 = loc("jit(init)/Network/torso/block/blocks_1/output_projection/div"(#loc544))
#loc587 = loc("jit(init)/Network/torso/block/blocks_1/output_projection/jit(_truncated_normal)"(#loc544))
#loc588 = loc("jit(init)/Network/torso/block/blocks_1/output_projection/mul"(#loc544))
#loc589 = loc("jit(init)/Network/torso/block/blocks_1/output_projection/reshape"(#loc545))
#loc590 = loc("jit(init)/Network/torso/block/blocks_1/output_projection/jit(_threefry_fold_in)"(#loc546))
#loc591 = loc("jit(init)/Network/torso/block/blocks_1/output_projection/broadcast_in_dim"(#loc547))
#loc592 = loc("jit(init)/broadcast_in_dim"(#loc548))
#loc593 = loc("jit(init)/broadcast_in_dim"(#loc549))
#loc594 = loc("jit:"(#loc552))
#loc595 = loc("jit:"(#loc553))
