#loc = loc(unknown)
#loc1 = loc("state.step")
#loc2 = loc("state.timestep.obs")
#loc3 = loc("state.timestep.action")
#loc4 = loc("state.timestep.reward")
#loc5 = loc("state.timestep.terminated")
#loc6 = loc("state.timestep.truncated")
#loc7 = loc("state.timestep.info['fired']")
#loc8 = loc("state.timestep.info['guess_count']")
#loc9 = loc("state.timestep.info['illegal_guesses']")
#loc10 = loc("state.timestep.info['matched_secret']")
#loc11 = loc("state.environment_state.env_state.secret_answer")
#loc12 = loc("state.environment_state.env_state.guess_feedback")
#loc13 = loc("state.environment_state.env_state.guess_revealed")
#loc14 = loc("state.environment_state.env_state.guess_count")
#loc15 = loc("state.environment_state.env_state.matched_secret")
#loc16 = loc("state.environment_state.active")
#loc17 = loc("state.environment_state.arguments")
#loc18 = loc("state.environment_state.cursor")
#loc19 = loc("state.carry[1].done")
#loc20 = loc("state.carry[1].key")
#loc21 = loc("state.carry[1].value")
#loc22 = loc("state.params['params']['feature_extractor']['token_embedding']['embedding']")
#loc23 = loc("state.params['params']['head']['actor']['kernel']")
#loc24 = loc("state.params['params']['head']['critic']['bias']")
#loc25 = loc("state.params['params']['head']['critic']['kernel']")
#loc26 = loc("state.params['params']['torso']['block']['blocks_0']['Dense_0']['bias']")
#loc27 = loc("state.params['params']['torso']['block']['blocks_0']['Dense_0']['kernel']")
#loc28 = loc("state.params['params']['torso']['block']['blocks_1']['key']['bias']")
#loc29 = loc("state.params['params']['torso']['block']['blocks_1']['key']['kernel']")
#loc30 = loc("state.params['params']['torso']['block']['blocks_1']['output_projection']['bias']")
#loc31 = loc("state.params['params']['torso']['block']['blocks_1']['output_projection']['kernel']")
#loc32 = loc("state.params['params']['torso']['block']['blocks_1']['query']['bias']")
#loc33 = loc("state.params['params']['torso']['block']['blocks_1']['query']['kernel']")
#loc34 = loc("state.params['params']['torso']['block']['blocks_1']['value']['bias']")
#loc35 = loc("state.params['params']['torso']['block']['blocks_1']['value']['kernel']")
#loc36 = loc("state.optimizer_state[1][0].count")
#loc37 = loc("state.optimizer_state[1][0].mu['params']['feature_extractor']['token_embedding']['embedding']")
#loc38 = loc("state.optimizer_state[1][0].mu['params']['head']['actor']['kernel']")
#loc39 = loc("state.optimizer_state[1][0].mu['params']['head']['critic']['bias']")
#loc40 = loc("state.optimizer_state[1][0].mu['params']['head']['critic']['kernel']")
#loc41 = loc("state.optimizer_state[1][0].mu['params']['torso']['block']['blocks_0']['Dense_0']['bias']")
#loc42 = loc("state.optimizer_state[1][0].mu['params']['torso']['block']['blocks_0']['Dense_0']['kernel']")
#loc43 = loc("state.optimizer_state[1][0].mu['params']['torso']['block']['blocks_1']['key']['bias']")
#loc44 = loc("state.optimizer_state[1][0].mu['params']['torso']['block']['blocks_1']['key']['kernel']")
#loc45 = loc("state.optimizer_state[1][0].mu['params']['torso']['block']['blocks_1']['output_projection']['bias']")
#loc46 = loc("state.optimizer_state[1][0].mu['params']['torso']['block']['blocks_1']['output_projection']['kernel']")
#loc47 = loc("state.optimizer_state[1][0].mu['params']['torso']['block']['blocks_1']['query']['bias']")
#loc48 = loc("state.optimizer_state[1][0].mu['params']['torso']['block']['blocks_1']['query']['kernel']")
#loc49 = loc("state.optimizer_state[1][0].mu['params']['torso']['block']['blocks_1']['value']['bias']")
#loc50 = loc("state.optimizer_state[1][0].mu['params']['torso']['block']['blocks_1']['value']['kernel']")
#loc51 = loc("state.optimizer_state[1][0].nu['params']['feature_extractor']['token_embedding']['embedding']")
#loc52 = loc("state.optimizer_state[1][0].nu['params']['head']['actor']['kernel']")
#loc53 = loc("state.optimizer_state[1][0].nu['params']['head']['critic']['bias']")
#loc54 = loc("state.optimizer_state[1][0].nu['params']['head']['critic']['kernel']")
#loc55 = loc("state.optimizer_state[1][0].nu['params']['torso']['block']['blocks_0']['Dense_0']['bias']")
#loc56 = loc("state.optimizer_state[1][0].nu['params']['torso']['block']['blocks_0']['Dense_0']['kernel']")
#loc57 = loc("state.optimizer_state[1][0].nu['params']['torso']['block']['blocks_1']['key']['bias']")
#loc58 = loc("state.optimizer_state[1][0].nu['params']['torso']['block']['blocks_1']['key']['kernel']")
#loc59 = loc("state.optimizer_state[1][0].nu['params']['torso']['block']['blocks_1']['output_projection']['bias']")
#loc60 = loc("state.optimizer_state[1][0].nu['params']['torso']['block']['blocks_1']['output_projection']['kernel']")
#loc61 = loc("state.optimizer_state[1][0].nu['params']['torso']['block']['blocks_1']['query']['bias']")
#loc62 = loc("state.optimizer_state[1][0].nu['params']['torso']['block']['blocks_1']['query']['kernel']")
#loc63 = loc("state.optimizer_state[1][0].nu['params']['torso']['block']['blocks_1']['value']['bias']")
#loc64 = loc("state.optimizer_state[1][0].nu['params']['torso']['block']['blocks_1']['value']['kernel']")
#loc65 = loc("key")
#loc71 = loc("/Users/noahfarr/noahfarr.github.io/tools/whlo/export_ppo_wordle.py":192:23 to :63)
#loc73 = loc("/Users/noahfarr/reinforcement-learning/src/algorithms/algorithms/recurrent_ppo.py":268:20 to :66)
#loc91 = loc("scatter")
#loc137 = loc("/Users/noahfarr/reinforcement-learning/src/algorithms/algorithms/recurrent_ppo.py":290:21 to :72)
#loc173 = loc("/Users/noahfarr/reinforcement-learning/.venv/lib/python3.13/site-packages/distrax/_src/distributions/distribution.py":77:14 to :36)
#loc174 = loc("/Users/noahfarr/reinforcement-learning/.venv/lib/python3.13/site-packages/distrax/_src/distributions/distribution.py":174:24 to :69)
#loc175 = loc("/Users/noahfarr/reinforcement-learning/.venv/lib/python3.13/site-packages/distrax/_src/distributions/independent.py":104:24 to 105:33)
#loc176 = loc("/Users/noahfarr/reinforcement-learning/src/algorithms/algorithms/recurrent_ppo.py":80:27 to :68)
#loc179 = loc("/Users/noahfarr/reinforcement-learning/src/policies/policies/distributions.py":15:16 to :76)
#loc200 = loc("/Users/noahfarr/reinforcement-learning/src/algorithms/algorithms/recurrent_ppo.py":85:38 to 87:9)
#loc202 = loc("/Users/noahfarr/reinforcement-learning/src/environments/environments/wrappers/vectorize.py":32:15 to 34:9)
#loc205 = loc("/Users/noahfarr/reinforcement-learning/src/environments/environments/wrappers/same_step_auto_reset.py":17:40 to :87)
#loc242 = loc("scatter-add")
#loc262 = loc("/Users/noahfarr/reinforcement-learning/src/environments/environments/wrappers/mcp.py":105:29 to :57)
#loc265 = loc("/Users/noahfarr/noahfarr.github.io/tools/whlo/export_ppo_wordle.py":74:49 to :65)
#loc307 = loc("reduce_window_sum")
#loc319 = loc("reduce")
#loc340 = loc("vmap()")
#loc362 = loc("sort")
#loc466 = loc("main.<locals>.train_step"(#loc71))
#loc468 = loc("RecurrentPPO.update_step"(#loc73))
#loc486 = loc("scatter:"(#loc91))
#loc532 = loc("RecurrentPPO.update_step"(#loc137))
#loc554 = loc("Distribution._sample_n_and_log_prob"(#loc173))
#loc555 = loc("Distribution.sample_and_log_prob"(#loc174))
#loc556 = loc("Independent._sample_n_and_log_prob"(#loc175))
#loc557 = loc("RecurrentPPO.rollout"(#loc176))
#loc560 = loc("Categorical._sample_n"(#loc179))
#loc581 = loc("RecurrentPPO.rollout"(#loc200))
#loc583 = loc("Vectorize.step"(#loc202))
#loc586 = loc("SameStepAutoReset.step"(#loc205))
#loc623 = loc("scatter-add:"(#loc242))
#loc643 = loc("MCP.step"(#loc262))
#loc646 = loc("to_tokens"(#loc265))
#loc678 = loc("reduce_window_sum:"(#loc307))
#loc680 = loc("reduce:"(#loc319))
#loc707 = loc("sort:"(#loc362))
#loc803 = loc(callsite(#loc468 at #loc466))
#loc806 = loc(callsite(#loc532 at #loc466))
#loc819 = loc(callsite(#loc555 at #loc557))
#loc826 = loc(callsite(#loc583 at #loc581))
#loc975 = loc(callsite(#loc556 at #loc819))
#loc985 = loc(callsite(#loc586 at #loc826))
#loc1151 = loc(callsite(#loc555 at #loc975))
#loc1178 = loc(callsite(#loc643 at #loc985))
#loc1314 = loc(callsite(#loc554 at #loc1151))
#loc1359 = loc(callsite(#loc646 at #loc1178))
#loc1575 = loc(callsite(#loc560 at #loc1314))
#loc1618 = loc("vmap()"(#loc1359))
module @jit_train_step attributes {jax.uses_shape_polymorphism = false, mhlo.num_partitions = 1 : i32, mhlo.num_replicas = 1 : i32} {
  func.func public @main(%arg0: tensor<i32> loc("state.step"), %arg1: tensor<16x5xi32> loc("state.timestep.obs"), %arg2: tensor<16xi32> loc("state.timestep.action"), %arg3: tensor<16xf32> loc("state.timestep.reward"), %arg4: tensor<16xi1> loc("state.timestep.terminated"), %arg5: tensor<16xi1> loc("state.timestep.truncated"), %arg6: tensor<16xf32> loc("state.timestep.info['fired']"), %arg7: tensor<16xf32> loc("state.timestep.info['guess_count']"), %arg8: tensor<16xf32> loc("state.timestep.info['illegal_guesses']"), %arg9: tensor<16xf32> loc("state.timestep.info['matched_secret']"), %arg10: tensor<16x5xi32> loc("state.environment_state.env_state.secret_answer"), %arg11: tensor<16x5xi32> loc("state.environment_state.env_state.guess_feedback"), %arg12: tensor<16xi1> loc("state.environment_state.env_state.guess_revealed"), %arg13: tensor<16xi32> loc("state.environment_state.env_state.guess_count"), %arg14: tensor<16xi1> loc("state.environment_state.env_state.matched_secret"), %arg15: tensor<16xi1> loc("state.environment_state.active"), %arg16: tensor<16x5xi32> loc("state.environment_state.arguments"), %arg17: tensor<16xi32> loc("state.environment_state.cursor"), %arg18: tensor<16x96xi32> loc("state.carry[1].done"), %arg19: tensor<16x96x2x8xf32> loc("state.carry[1].key"), %arg20: tensor<16x96x2x8xf32> loc("state.carry[1].value"), %arg21: tensor<33x16xf32> loc("state.params['params']['feature_extractor']['token_embedding']['embedding']"), %arg22: tensor<16x33xf32> loc("state.params['params']['head']['actor']['kernel']"), %arg23: tensor<1xf32> loc("state.params['params']['head']['critic']['bias']"), %arg24: tensor<16x1xf32> loc("state.params['params']['head']['critic']['kernel']"), %arg25: tensor<16xf32> loc("state.params['params']['torso']['block']['blocks_0']['Dense_0']['bias']"), %arg26: tensor<16x16xf32> loc("state.params['params']['torso']['block']['blocks_0']['Dense_0']['kernel']"), %arg27: tensor<2x8xf32> loc("state.params['params']['torso']['block']['blocks_1']['key']['bias']"), %arg28: tensor<16x2x8xf32> loc("state.params['params']['torso']['block']['blocks_1']['key']['kernel']"), %arg29: tensor<16xf32> loc("state.params['params']['torso']['block']['blocks_1']['output_projection']['bias']"), %arg30: tensor<2x8x16xf32> loc("state.params['params']['torso']['block']['blocks_1']['output_projection']['kernel']"), %arg31: tensor<2x8xf32> loc("state.params['params']['torso']['block']['blocks_1']['query']['bias']"), %arg32: tensor<16x2x8xf32> loc("state.params['params']['torso']['block']['blocks_1']['query']['kernel']"), %arg33: tensor<2x8xf32> loc("state.params['params']['torso']['block']['blocks_1']['value']['bias']"), %arg34: tensor<16x2x8xf32> loc("state.params['params']['torso']['block']['blocks_1']['value']['kernel']"), %arg35: tensor<i32> loc("state.optimizer_state[1][0].count"), %arg36: tensor<33x16xf32> loc("state.optimizer_state[1][0].mu['params']['feature_extractor']['token_embedding']['embedding']"), %arg37: tensor<16x33xf32> loc("state.optimizer_state[1][0].mu['params']['head']['actor']['kernel']"), %arg38: tensor<1xf32> loc("state.optimizer_state[1][0].mu['params']['head']['critic']['bias']"), %arg39: tensor<16x1xf32> loc("state.optimizer_state[1][0].mu['params']['head']['critic']['kernel']"), %arg40: tensor<16xf32> loc("state.optimizer_state[1][0].mu['params']['torso']['block']['blocks_0']['Dense_0']['bias']"), %arg41: tensor<16x16xf32> loc("state.optimizer_state[1][0].mu['params']['torso']['block']['blocks_0']['Dense_0']['kernel']"), %arg42: tensor<2x8xf32> loc("state.optimizer_state[1][0].mu['params']['torso']['block']['blocks_1']['key']['bias']"), %arg43: tensor<16x2x8xf32> loc("state.optimizer_state[1][0].mu['params']['torso']['block']['blocks_1']['key']['kernel']"), %arg44: tensor<16xf32> loc("state.optimizer_state[1][0].mu['params']['torso']['block']['blocks_1']['output_projection']['bias']"), %arg45: tensor<2x8x16xf32> loc("state.optimizer_state[1][0].mu['params']['torso']['block']['blocks_1']['output_projection']['kernel']"), %arg46: tensor<2x8xf32> loc("state.optimizer_state[1][0].mu['params']['torso']['block']['blocks_1']['query']['bias']"), %arg47: tensor<16x2x8xf32> loc("state.optimizer_state[1][0].mu['params']['torso']['block']['blocks_1']['query']['kernel']"), %arg48: tensor<2x8xf32> loc("state.optimizer_state[1][0].mu['params']['torso']['block']['blocks_1']['value']['bias']"), %arg49: tensor<16x2x8xf32> loc("state.optimizer_state[1][0].mu['params']['torso']['block']['blocks_1']['value']['kernel']"), %arg50: tensor<33x16xf32> loc("state.optimizer_state[1][0].nu['params']['feature_extractor']['token_embedding']['embedding']"), %arg51: tensor<16x33xf32> loc("state.optimizer_state[1][0].nu['params']['head']['actor']['kernel']"), %arg52: tensor<1xf32> loc("state.optimizer_state[1][0].nu['params']['head']['critic']['bias']"), %arg53: tensor<16x1xf32> loc("state.optimizer_state[1][0].nu['params']['head']['critic']['kernel']"), %arg54: tensor<16xf32> loc("state.optimizer_state[1][0].nu['params']['torso']['block']['blocks_0']['Dense_0']['bias']"), %arg55: tensor<16x16xf32> loc("state.optimizer_state[1][0].nu['params']['torso']['block']['blocks_0']['Dense_0']['kernel']"), %arg56: tensor<2x8xf32> loc("state.optimizer_state[1][0].nu['params']['torso']['block']['blocks_1']['key']['bias']"), %arg57: tensor<16x2x8xf32> loc("state.optimizer_state[1][0].nu['params']['torso']['block']['blocks_1']['key']['kernel']"), %arg58: tensor<16xf32> loc("state.optimizer_state[1][0].nu['params']['torso']['block']['blocks_1']['output_projection']['bias']"), %arg59: tensor<2x8x16xf32> loc("state.optimizer_state[1][0].nu['params']['torso']['block']['blocks_1']['output_projection']['kernel']"), %arg60: tensor<2x8xf32> loc("state.optimizer_state[1][0].nu['params']['torso']['block']['blocks_1']['query']['bias']"), %arg61: tensor<16x2x8xf32> loc("state.optimizer_state[1][0].nu['params']['torso']['block']['blocks_1']['query']['kernel']"), %arg62: tensor<2x8xf32> loc("state.optimizer_state[1][0].nu['params']['torso']['block']['blocks_1']['value']['bias']"), %arg63: tensor<16x2x8xf32> loc("state.optimizer_state[1][0].nu['params']['torso']['block']['blocks_1']['value']['kernel']"), %arg64: tensor<2xui32> loc("key")) -> (tensor<i32> {jax.result_info = "result[0].step"}, tensor<16x5xi32> {jax.result_info = "result[0].timestep.obs"}, tensor<16xi32> {jax.result_info = "result[0].timestep.action"}, tensor<16xf32> {jax.result_info = "result[0].timestep.reward"}, tensor<16xi1> {jax.result_info = "result[0].timestep.terminated"}, tensor<16xi1> {jax.result_info = "result[0].timestep.truncated"}, tensor<16xf32> {jax.result_info = "result[0].timestep.info['fired']"}, tensor<16xf32> {jax.result_info = "result[0].timestep.info['guess_count']"}, tensor<16xf32> {jax.result_info = "result[0].timestep.info['illegal_guesses']"}, tensor<16xf32> {jax.result_info = "result[0].timestep.info['matched_secret']"}, tensor<16x5xi32> {jax.result_info = "result[0].environment_state.env_state.secret_answer"}, tensor<16x5xi32> {jax.result_info = "result[0].environment_state.env_state.guess_feedback"}, tensor<16xi1> {jax.result_info = "result[0].environment_state.env_state.guess_revealed"}, tensor<16xi32> {jax.result_info = "result[0].environment_state.env_state.guess_count"}, tensor<16xi1> {jax.result_info = "result[0].environment_state.env_state.matched_secret"}, tensor<16xi1> {jax.result_info = "result[0].environment_state.active"}, tensor<16x5xi32> {jax.result_info = "result[0].environment_state.arguments"}, tensor<16xi32> {jax.result_info = "result[0].environment_state.cursor"}, tensor<16x96xi32> {jax.result_info = "result[0].carry[1].done"}, tensor<16x96x2x8xf32> {jax.result_info = "result[0].carry[1].key"}, tensor<16x96x2x8xf32> {jax.result_info = "result[0].carry[1].value"}, tensor<33x16xf32> {jax.result_info = "result[0].params['params']['feature_extractor']['token_embedding']['embedding']"}, tensor<16x33xf32> {jax.result_info = "result[0].params['params']['head']['actor']['kernel']"}, tensor<1xf32> {jax.result_info = "result[0].params['params']['head']['critic']['bias']"}, tensor<16x1xf32> {jax.result_info = "result[0].params['params']['head']['critic']['kernel']"}, tensor<16xf32> {jax.result_info = "result[0].params['params']['torso']['block']['blocks_0']['Dense_0']['bias']"}, tensor<16x16xf32> {jax.result_info = "result[0].params['params']['torso']['block']['blocks_0']['Dense_0']['kernel']"}, tensor<2x8xf32> {jax.result_info = "result[0].params['params']['torso']['block']['blocks_1']['key']['bias']"}, tensor<16x2x8xf32> {jax.result_info = "result[0].params['params']['torso']['block']['blocks_1']['key']['kernel']"}, tensor<16xf32> {jax.result_info = "result[0].params['params']['torso']['block']['blocks_1']['output_projection']['bias']"}, tensor<2x8x16xf32> {jax.result_info = "result[0].params['params']['torso']['block']['blocks_1']['output_projection']['kernel']"}, tensor<2x8xf32> {jax.result_info = "result[0].params['params']['torso']['block']['blocks_1']['query']['bias']"}, tensor<16x2x8xf32> {jax.result_info = "result[0].params['params']['torso']['block']['blocks_1']['query']['kernel']"}, tensor<2x8xf32> {jax.result_info = "result[0].params['params']['torso']['block']['blocks_1']['value']['bias']"}, tensor<16x2x8xf32> {jax.result_info = "result[0].params['params']['torso']['block']['blocks_1']['value']['kernel']"}, tensor<i32> {jax.result_info = "result[0].optimizer_state[1][0].count"}, tensor<33x16xf32> {jax.result_info = "result[0].optimizer_state[1][0].mu['params']['feature_extractor']['token_embedding']['embedding']"}, tensor<16x33xf32> {jax.result_info = "result[0].optimizer_state[1][0].mu['params']['head']['actor']['kernel']"}, tensor<1xf32> {jax.result_info = "result[0].optimizer_state[1][0].mu['params']['head']['critic']['bias']"}, tensor<16x1xf32> {jax.result_info = "result[0].optimizer_state[1][0].mu['params']['head']['critic']['kernel']"}, tensor<16xf32> {jax.result_info = "result[0].optimizer_state[1][0].mu['params']['torso']['block']['blocks_0']['Dense_0']['bias']"}, tensor<16x16xf32> {jax.result_info = "result[0].optimizer_state[1][0].mu['params']['torso']['block']['blocks_0']['Dense_0']['kernel']"}, tensor<2x8xf32> {jax.result_info = "result[0].optimizer_state[1][0].mu['params']['torso']['block']['blocks_1']['key']['bias']"}, tensor<16x2x8xf32> {jax.result_info = "result[0].optimizer_state[1][0].mu['params']['torso']['block']['blocks_1']['key']['kernel']"}, tensor<16xf32> {jax.result_info = "result[0].optimizer_state[1][0].mu['params']['torso']['block']['blocks_1']['output_projection']['bias']"}, tensor<2x8x16xf32> {jax.result_info = "result[0].optimizer_state[1][0].mu['params']['torso']['block']['blocks_1']['output_projection']['kernel']"}, tensor<2x8xf32> {jax.result_info = "result[0].optimizer_state[1][0].mu['params']['torso']['block']['blocks_1']['query']['bias']"}, tensor<16x2x8xf32> {jax.result_info = "result[0].optimizer_state[1][0].mu['params']['torso']['block']['blocks_1']['query']['kernel']"}, tensor<2x8xf32> {jax.result_info = "result[0].optimizer_state[1][0].mu['params']['torso']['block']['blocks_1']['value']['bias']"}, tensor<16x2x8xf32> {jax.result_info = "result[0].optimizer_state[1][0].mu['params']['torso']['block']['blocks_1']['value']['kernel']"}, tensor<33x16xf32> {jax.result_info = "result[0].optimizer_state[1][0].nu['params']['feature_extractor']['token_embedding']['embedding']"}, tensor<16x33xf32> {jax.result_info = "result[0].optimizer_state[1][0].nu['params']['head']['actor']['kernel']"}, tensor<1xf32> {jax.result_info = "result[0].optimizer_state[1][0].nu['params']['head']['critic']['bias']"}, tensor<16x1xf32> {jax.result_info = "result[0].optimizer_state[1][0].nu['params']['head']['critic']['kernel']"}, tensor<16xf32> {jax.result_info = "result[0].optimizer_state[1][0].nu['params']['torso']['block']['blocks_0']['Dense_0']['bias']"}, tensor<16x16xf32> {jax.result_info = "result[0].optimizer_state[1][0].nu['params']['torso']['block']['blocks_0']['Dense_0']['kernel']"}, tensor<2x8xf32> {jax.result_info = "result[0].optimizer_state[1][0].nu['params']['torso']['block']['blocks_1']['key']['bias']"}, tensor<16x2x8xf32> {jax.result_info = "result[0].optimizer_state[1][0].nu['params']['torso']['block']['blocks_1']['key']['kernel']"}, tensor<16xf32> {jax.result_info = "result[0].optimizer_state[1][0].nu['params']['torso']['block']['blocks_1']['output_projection']['bias']"}, tensor<2x8x16xf32> {jax.result_info = "result[0].optimizer_state[1][0].nu['params']['torso']['block']['blocks_1']['output_projection']['kernel']"}, tensor<2x8xf32> {jax.result_info = "result[0].optimizer_state[1][0].nu['params']['torso']['block']['blocks_1']['query']['bias']"}, tensor<16x2x8xf32> {jax.result_info = "result[0].optimizer_state[1][0].nu['params']['torso']['block']['blocks_1']['query']['kernel']"}, tensor<2x8xf32> {jax.result_info = "result[0].optimizer_state[1][0].nu['params']['torso']['block']['blocks_1']['value']['bias']"}, tensor<16x2x8xf32> {jax.result_info = "result[0].optimizer_state[1][0].nu['params']['torso']['block']['blocks_1']['value']['kernel']"}, tensor<f32> {jax.result_info = "result[1]"}) {
    %cst = stablehlo.constant dense<2.560000e+02> : tensor<f32> loc(#loc935)
    %cst_0 = stablehlo.constant dense<0xFF800000> : tensor<f32> loc(#loc)
    %cst_1 = stablehlo.constant dense<-2.38197633E+38> : tensor<f32> loc(#loc935)
    %c = stablehlo.constant dense<true> : tensor<i1> loc(#loc935)
    %cst_2 = stablehlo.constant dense<0.353553385> : tensor<f32> loc(#loc935)
    %c_3 = stablehlo.constant dense<1> : tensor<i32> loc(#loc)
    %c_4 = stablehlo.constant dense<16> : tensor<i32> loc(#loc)
    %c_5 = stablehlo.constant dense<false> : tensor<i1> loc(#loc)
    %cst_6 = stablehlo.constant dense<0.000000e+00> : tensor<f32> loc(#loc)
    %c_7 = stablehlo.constant dense<0> : tensor<i32> loc(#loc)
    %c_8 = stablehlo.constant dense<[1613312, 1732200, 1881040, 2056836, 2091992, 2158163, 2162152, 2267596, 4610763, 5792480, 6194979, 6540820, 7909384, 8911333, 8916731, 9008823]> : tensor<16xi32> loc(#loc935)
    %c_9 = stablehlo.constant dense<[[0, 20, 3, 8, 14], [1, 17, 8, 2, 10], [2, 7, 0, 8, 17], [2, 11, 14, 20, 3], [2, 17, 0, 13, 4], [5, 11, 8, 13, 19], [5, 17, 14, 18, 19], [6, 11, 0, 25, 4], [6, 17, 0, 15, 4], [7, 14, 20, 18, 4], [11, 4, 12, 14, 13], [12, 14, 20, 13, 3], [15, 11, 0, 13, 19], [18, 11, 0, 19, 4], [18, 15, 0, 3, 4], [18, 19, 14, 17, 12]]> : tensor<16x5xi32> loc(#loc935)
    %0 = call @_threefry_split(%arg64) : (tensor<2xui32>) -> tensor<2x2xui32> loc(#loc1278)
    %1 = stablehlo.slice %0 [0:1, 0:2] : (tensor<2x2xui32>) -> tensor<1x2xui32> loc(#loc1108)
    %2 = stablehlo.reshape %1 : (tensor<1x2xui32>) -> tensor<2xui32> loc(#loc1109)
    %3 = stablehlo.slice %0 [1:2, 0:2] : (tensor<2x2xui32>) -> tensor<1x2xui32> loc(#loc1108)
    %4 = stablehlo.reshape %3 : (tensor<1x2xui32>) -> tensor<2xui32> loc(#loc1109)
    %5 = call @_threefry_split(%2) : (tensor<2xui32>) -> tensor<2x2xui32> loc(#loc1514)
    %6 = stablehlo.slice %5 [0:1, 0:2] : (tensor<2x2xui32>) -> tensor<1x2xui32> loc(#loc1280)
    %7 = stablehlo.reshape %6 : (tensor<1x2xui32>) -> tensor<2xui32> loc(#loc1281)
    %8 = stablehlo.slice %5 [1:2, 0:2] : (tensor<2x2xui32>) -> tensor<1x2xui32> loc(#loc1280)
    %9 = stablehlo.reshape %8 : (tensor<1x2xui32>) -> tensor<2xui32> loc(#loc1281)
    %10 = call @_threefry_split_0(%7) : (tensor<2xui32>) -> tensor<16x2xui32> loc(#loc1515)
    %11 = stablehlo.broadcast_in_dim %c_7, dims = [] : (tensor<i32>) -> tensor<16x16x5xi32> loc(#loc1516)
    %12 = stablehlo.broadcast_in_dim %c_7, dims = [] : (tensor<i32>) -> tensor<16x16xi32> loc(#loc1516)
    %13 = stablehlo.broadcast_in_dim %cst_6, dims = [] : (tensor<f32>) -> tensor<16x16xf32> loc(#loc1516)
    %14 = stablehlo.broadcast_in_dim %c_5, dims = [] : (tensor<i1>) -> tensor<16x16xi1> loc(#loc1516)
    %15 = stablehlo.broadcast_in_dim %c_5, dims = [] : (tensor<i1>) -> tensor<16x16xi1> loc(#loc1516)
    %16 = stablehlo.broadcast_in_dim %cst_6, dims = [] : (tensor<f32>) -> tensor<16x16xf32> loc(#loc1516)
    %17 = stablehlo.broadcast_in_dim %cst_6, dims = [] : (tensor<f32>) -> tensor<16x16xf32> loc(#loc1516)
    %18 = stablehlo.broadcast_in_dim %cst_6, dims = [] : (tensor<f32>) -> tensor<16x16xf32> loc(#loc1516)
    %19 = stablehlo.broadcast_in_dim %cst_6, dims = [] : (tensor<f32>) -> tensor<16x16xf32> loc(#loc1516)
    %20 = stablehlo.broadcast_in_dim %c_7, dims = [] : (tensor<i32>) -> tensor<16x16x5xi32> loc(#loc1516)
    %21 = stablehlo.broadcast_in_dim %c_7, dims = [] : (tensor<i32>) -> tensor<16x16xi32> loc(#loc1516)
    %22 = stablehlo.broadcast_in_dim %cst_6, dims = [] : (tensor<f32>) -> tensor<16x16xf32> loc(#loc1516)
    %23 = stablehlo.broadcast_in_dim %c_5, dims = [] : (tensor<i1>) -> tensor<16x16xi1> loc(#loc1516)
    %24 = stablehlo.broadcast_in_dim %c_5, dims = [] : (tensor<i1>) -> tensor<16x16xi1> loc(#loc1516)
    %25 = stablehlo.broadcast_in_dim %cst_6, dims = [] : (tensor<f32>) -> tensor<16x16xf32> loc(#loc1516)
    %26 = stablehlo.broadcast_in_dim %cst_6, dims = [] : (tensor<f32>) -> tensor<16x16xf32> loc(#loc1516)
    %27 = stablehlo.broadcast_in_dim %cst_6, dims = [] : (tensor<f32>) -> tensor<16x16xf32> loc(#loc1516)
    %28 = stablehlo.broadcast_in_dim %cst_6, dims = [] : (tensor<f32>) -> tensor<16x16xf32> loc(#loc1516)
    %29 = stablehlo.broadcast_in_dim %cst_6, dims = [] : (tensor<f32>) -> tensor<16x16xf32> loc(#loc1516)
    %30 = stablehlo.broadcast_in_dim %cst_6, dims = [] : (tensor<f32>) -> tensor<16x16xf32> loc(#loc1516)
    %31:88 = stablehlo.while(%iterArg = %10, %iterArg_10 = %arg21, %iterArg_11 = %arg22, %iterArg_12 = %arg23, %iterArg_13 = %arg24, %iterArg_14 = %arg25, %iterArg_15 = %arg26, %iterArg_16 = %arg27, %iterArg_17 = %arg28, %iterArg_18 = %arg29, %iterArg_19 = %arg30, %iterArg_20 = %arg31, %iterArg_21 = %arg32, %iterArg_22 = %arg33, %iterArg_23 = %arg34, %iterArg_24 = %arg35, %iterArg_25 = %arg36, %iterArg_26 = %arg37, %iterArg_27 = %arg38, %iterArg_28 = %arg39, %iterArg_29 = %arg40, %iterArg_30 = %arg41, %iterArg_31 = %arg42, %iterArg_32 = %arg43, %iterArg_33 = %arg44, %iterArg_34 = %arg45, %iterArg_35 = %arg46, %iterArg_36 = %arg47, %iterArg_37 = %arg48, %iterArg_38 = %arg49, %iterArg_39 = %arg50, %iterArg_40 = %arg51, %iterArg_41 = %arg52, %iterArg_42 = %arg53, %iterArg_43 = %arg54, %iterArg_44 = %arg55, %iterArg_45 = %arg56, %iterArg_46 = %arg57, %iterArg_47 = %arg58, %iterArg_48 = %arg59, %iterArg_49 = %arg60, %iterArg_50 = %arg61, %iterArg_51 = %arg62, %iterArg_52 = %arg63, %iterArg_53 = %c_8, %iterArg_54 = %c_9, %iterArg_55 = %c_7, %iterArg_56 = %arg0, %iterArg_57 = %arg1, %iterArg_58 = %arg2, %iterArg_59 = %arg3, %iterArg_60 = %arg4, %iterArg_61 = %arg5, %iterArg_62 = %arg6, %iterArg_63 = %arg7, %iterArg_64 = %arg8, %iterArg_65 = %arg9, %iterArg_66 = %arg10, %iterArg_67 = %arg11, %iterArg_68 = %arg12, %iterArg_69 = %arg13, %iterArg_70 = %arg14, %iterArg_71 = %arg15, %iterArg_72 = %arg16, %iterArg_73 = %arg17, %iterArg_74 = %arg18, %iterArg_75 = %arg19, %iterArg_76 = %arg20, %iterArg_77 = %11, %iterArg_78 = %12, %iterArg_79 = %13, %iterArg_80 = %14, %iterArg_81 = %15, %iterArg_82 = %16, %iterArg_83 = %17, %iterArg_84 = %18, %iterArg_85 = %19, %iterArg_86 = %20, %iterArg_87 = %21, %iterArg_88 = %22, %iterArg_89 = %23, %iterArg_90 = %24, %iterArg_91 = %25, %iterArg_92 = %26, %iterArg_93 = %27, %iterArg_94 = %28, %iterArg_95 = %29, %iterArg_96 = %30) : tensor<16x2xui32>, tensor<33x16xf32>, tensor<16x33xf32>, tensor<1xf32>, tensor<16x1xf32>, tensor<16xf32>, tensor<16x16xf32>, tensor<2x8xf32>, tensor<16x2x8xf32>, tensor<16xf32>, tensor<2x8x16xf32>, tensor<2x8xf32>, tensor<16x2x8xf32>, tensor<2x8xf32>, tensor<16x2x8xf32>, tensor<i32>, tensor<33x16xf32>, tensor<16x33xf32>, tensor<1xf32>, tensor<16x1xf32>, tensor<16xf32>, tensor<16x16xf32>, tensor<2x8xf32>, tensor<16x2x8xf32>, tensor<16xf32>, tensor<2x8x16xf32>, tensor<2x8xf32>, tensor<16x2x8xf32>, tensor<2x8xf32>, tensor<16x2x8xf32>, tensor<33x16xf32>, tensor<16x33xf32>, tensor<1xf32>, tensor<16x1xf32>, tensor<16xf32>, tensor<16x16xf32>, tensor<2x8xf32>, tensor<16x2x8xf32>, tensor<16xf32>, tensor<2x8x16xf32>, tensor<2x8xf32>, tensor<16x2x8xf32>, tensor<2x8xf32>, tensor<16x2x8xf32>, tensor<16xi32>, tensor<16x5xi32>, tensor<i32>, tensor<i32>, tensor<16x5xi32>, tensor<16xi32>, tensor<16xf32>, tensor<16xi1>, tensor<16xi1>, tensor<16xf32>, tensor<16xf32>, tensor<16xf32>, tensor<16xf32>, tensor<16x5xi32>, tensor<16x5xi32>, tensor<16xi1>, tensor<16xi32>, tensor<16xi1>, tensor<16xi1>, tensor<16x5xi32>, tensor<16xi32>, tensor<16x96xi32>, tensor<16x96x2x8xf32>, tensor<16x96x2x8xf32>, tensor<16x16x5xi32>, tensor<16x16xi32>, tensor<16x16xf32>, tensor<16x16xi1>, tensor<16x16xi1>, tensor<16x16xf32>, tensor<16x16xf32>, tensor<16x16xf32>, tensor<16x16xf32>, tensor<16x16x5xi32>, tensor<16x16xi32>, tensor<16x16xf32>, tensor<16x16xi1>, tensor<16x16xi1>, tensor<16x16xf32>, tensor<16x16xf32>, tensor<16x16xf32>, tensor<16x16xf32>, tensor<16x16xf32>, tensor<16x16xf32>
    cond {
      %139 = stablehlo.compare LT, %iterArg_55, %c_4, SIGNED : (tensor<i32>, tensor<i32>) -> tensor<i1> loc(#loc1518)
      stablehlo.return %139 : tensor<i1> loc(#loc1517)
    } do {
      %139 = func.call @dynamic_index_in_dim(%iterArg, %iterArg_55) : (tensor<16x2xui32>, tensor<i32>) -> tensor<2xui32> loc(#loc1519)
      %140:41 = func.call @closed_call_3(%iterArg_10, %iterArg_11, %iterArg_12, %iterArg_13, %iterArg_14, %iterArg_15, %iterArg_16, %iterArg_17, %iterArg_18, %iterArg_19, %iterArg_20, %iterArg_21, %iterArg_22, %iterArg_23, %iterArg_24, %iterArg_25, %iterArg_26, %iterArg_27, %iterArg_28, %iterArg_29, %iterArg_30, %iterArg_31, %iterArg_32, %iterArg_33, %iterArg_34, %iterArg_35, %iterArg_36, %iterArg_37, %iterArg_38, %iterArg_39, %iterArg_40, %iterArg_41, %iterArg_42, %iterArg_43, %iterArg_44, %iterArg_45, %iterArg_46, %iterArg_47, %iterArg_48, %iterArg_49, %iterArg_50, %iterArg_51, %iterArg_52, %iterArg_53, %iterArg_54, %iterArg_56, %iterArg_57, %iterArg_58, %iterArg_59, %iterArg_60, %iterArg_61, %iterArg_62, %iterArg_63, %iterArg_64, %iterArg_65, %iterArg_66, %iterArg_67, %iterArg_68, %iterArg_69, %iterArg_70, %iterArg_71, %iterArg_72, %iterArg_73, %iterArg_74, %iterArg_75, %iterArg_76, %139) : (tensor<33x16xf32>, tensor<16x33xf32>, tensor<1xf32>, tensor<16x1xf32>, tensor<16xf32>, tensor<16x16xf32>, tensor<2x8xf32>, tensor<16x2x8xf32>, tensor<16xf32>, tensor<2x8x16xf32>, tensor<2x8xf32>, tensor<16x2x8xf32>, tensor<2x8xf32>, tensor<16x2x8xf32>, tensor<i32>, tensor<33x16xf32>, tensor<16x33xf32>, tensor<1xf32>, tensor<16x1xf32>, tensor<16xf32>, tensor<16x16xf32>, tensor<2x8xf32>, tensor<16x2x8xf32>, tensor<16xf32>, tensor<2x8x16xf32>, tensor<2x8xf32>, tensor<16x2x8xf32>, tensor<2x8xf32>, tensor<16x2x8xf32>, tensor<33x16xf32>, tensor<16x33xf32>, tensor<1xf32>, tensor<16x1xf32>, tensor<16xf32>, tensor<16x16xf32>, tensor<2x8xf32>, tensor<16x2x8xf32>, tensor<16xf32>, tensor<2x8x16xf32>, tensor<2x8xf32>, tensor<16x2x8xf32>, tensor<2x8xf32>, tensor<16x2x8xf32>, tensor<16xi32>, tensor<16x5xi32>, tensor<i32>, tensor<16x5xi32>, tensor<16xi32>, tensor<16xf32>, tensor<16xi1>, tensor<16xi1>, tensor<16xf32>, tensor<16xf32>, tensor<16xf32>, tensor<16xf32>, tensor<16x5xi32>, tensor<16x5xi32>, tensor<16xi1>, tensor<16xi32>, tensor<16xi1>, tensor<16xi1>, tensor<16x5xi32>, tensor<16xi32>, tensor<16x96xi32>, tensor<16x96x2x8xf32>, tensor<16x96x2x8xf32>, tensor<2xui32>) -> (tensor<i32>, tensor<16x5xi32>, tensor<16xi32>, tensor<16xf32>, tensor<16xi1>, tensor<16xi1>, tensor<16xf32>, tensor<16xf32>, tensor<16xf32>, tensor<16xf32>, tensor<16x5xi32>, tensor<16x5xi32>, tensor<16xi1>, tensor<16xi32>, tensor<16xi1>, tensor<16xi1>, tensor<16x5xi32>, tensor<16xi32>, tensor<16x96xi32>, tensor<16x96x2x8xf32>, tensor<16x96x2x8xf32>, tensor<16x5xi32>, tensor<16xi32>, tensor<16xf32>, tensor<16xi1>, tensor<16xi1>, tensor<16xf32>, tensor<16xf32>, tensor<16xf32>, tensor<16xf32>, tensor<16x5xi32>, tensor<16xi32>, tensor<16xf32>, tensor<16xi1>, tensor<16xi1>, tensor<16xf32>, tensor<16xf32>, tensor<16xf32>, tensor<16xf32>, tensor<16xf32>, tensor<16xf32>) loc(#loc1520)
      %141 = func.call @dynamic_update_index_in_dim_40(%iterArg_77, %140#21, %iterArg_55) : (tensor<16x16x5xi32>, tensor<16x5xi32>, tensor<i32>) -> tensor<16x16x5xi32> loc(#loc1521)
      %142 = func.call @dynamic_update_index_in_dim_41(%iterArg_78, %140#22, %iterArg_55) : (tensor<16x16xi32>, tensor<16xi32>, tensor<i32>) -> tensor<16x16xi32> loc(#loc1521)
      %143 = func.call @dynamic_update_index_in_dim_42(%iterArg_79, %140#23, %iterArg_55) : (tensor<16x16xf32>, tensor<16xf32>, tensor<i32>) -> tensor<16x16xf32> loc(#loc1521)
      %144 = func.call @dynamic_update_index_in_dim_43(%iterArg_80, %140#24, %iterArg_55) : (tensor<16x16xi1>, tensor<16xi1>, tensor<i32>) -> tensor<16x16xi1> loc(#loc1521)
      %145 = func.call @dynamic_update_index_in_dim_43(%iterArg_81, %140#25, %iterArg_55) : (tensor<16x16xi1>, tensor<16xi1>, tensor<i32>) -> tensor<16x16xi1> loc(#loc1521)
      %146 = func.call @dynamic_update_index_in_dim_42(%iterArg_82, %140#26, %iterArg_55) : (tensor<16x16xf32>, tensor<16xf32>, tensor<i32>) -> tensor<16x16xf32> loc(#loc1521)
      %147 = func.call @dynamic_update_index_in_dim_42(%iterArg_83, %140#27, %iterArg_55) : (tensor<16x16xf32>, tensor<16xf32>, tensor<i32>) -> tensor<16x16xf32> loc(#loc1521)
      %148 = func.call @dynamic_update_index_in_dim_42(%iterArg_84, %140#28, %iterArg_55) : (tensor<16x16xf32>, tensor<16xf32>, tensor<i32>) -> tensor<16x16xf32> loc(#loc1521)
      %149 = func.call @dynamic_update_index_in_dim_42(%iterArg_85, %140#29, %iterArg_55) : (tensor<16x16xf32>, tensor<16xf32>, tensor<i32>) -> tensor<16x16xf32> loc(#loc1521)
      %150 = func.call @dynamic_update_index_in_dim_40(%iterArg_86, %140#30, %iterArg_55) : (tensor<16x16x5xi32>, tensor<16x5xi32>, tensor<i32>) -> tensor<16x16x5xi32> loc(#loc1521)
      %151 = func.call @dynamic_update_index_in_dim_41(%iterArg_87, %140#31, %iterArg_55) : (tensor<16x16xi32>, tensor<16xi32>, tensor<i32>) -> tensor<16x16xi32> loc(#loc1521)
      %152 = func.call @dynamic_update_index_in_dim_42(%iterArg_88, %140#32, %iterArg_55) : (tensor<16x16xf32>, tensor<16xf32>, tensor<i32>) -> tensor<16x16xf32> loc(#loc1521)
      %153 = func.call @dynamic_update_index_in_dim_43(%iterArg_89, %140#33, %iterArg_55) : (tensor<16x16xi1>, tensor<16xi1>, tensor<i32>) -> tensor<16x16xi1> loc(#loc1521)
      %154 = func.call @dynamic_update_index_in_dim_43(%iterArg_90, %140#34, %iterArg_55) : (tensor<16x16xi1>, tensor<16xi1>, tensor<i32>) -> tensor<16x16xi1> loc(#loc1521)
      %155 = func.call @dynamic_update_index_in_dim_42(%iterArg_91, %140#35, %iterArg_55) : (tensor<16x16xf32>, tensor<16xf32>, tensor<i32>) -> tensor<16x16xf32> loc(#loc1521)
      %156 = func.call @dynamic_update_index_in_dim_42(%iterArg_92, %140#36, %iterArg_55) : (tensor<16x16xf32>, tensor<16xf32>, tensor<i32>) -> tensor<16x16xf32> loc(#loc1521)
      %157 = func.call @dynamic_update_index_in_dim_42(%iterArg_93, %140#37, %iterArg_55) : (tensor<16x16xf32>, tensor<16xf32>, tensor<i32>) -> tensor<16x16xf32> loc(#loc1521)
      %158 = func.call @dynamic_update_index_in_dim_42(%iterArg_94, %140#38, %iterArg_55) : (tensor<16x16xf32>, tensor<16xf32>, tensor<i32>) -> tensor<16x16xf32> loc(#loc1521)
      %159 = func.call @dynamic_update_index_in_dim_42(%iterArg_95, %140#39, %iterArg_55) : (tensor<16x16xf32>, tensor<16xf32>, tensor<i32>) -> tensor<16x16xf32> loc(#loc1521)
      %160 = func.call @dynamic_update_index_in_dim_42(%iterArg_96, %140#40, %iterArg_55) : (tensor<16x16xf32>, tensor<16xf32>, tensor<i32>) -> tensor<16x16xf32> loc(#loc1521)
      %161 = stablehlo.add %iterArg_55, %c_3 : tensor<i32> loc(#loc1522)
      stablehlo.return %iterArg, %iterArg_10, %iterArg_11, %iterArg_12, %iterArg_13, %iterArg_14, %iterArg_15, %iterArg_16, %iterArg_17, %iterArg_18, %iterArg_19, %iterArg_20, %iterArg_21, %iterArg_22, %iterArg_23, %iterArg_24, %iterArg_25, %iterArg_26, %iterArg_27, %iterArg_28, %iterArg_29, %iterArg_30, %iterArg_31, %iterArg_32, %iterArg_33, %iterArg_34, %iterArg_35, %iterArg_36, %iterArg_37, %iterArg_38, %iterArg_39, %iterArg_40, %iterArg_41, %iterArg_42, %iterArg_43, %iterArg_44, %iterArg_45, %iterArg_46, %iterArg_47, %iterArg_48, %iterArg_49, %iterArg_50, %iterArg_51, %iterArg_52, %iterArg_53, %iterArg_54, %161, %140#0, %140#1, %140#2, %140#3, %140#4, %140#5, %140#6, %140#7, %140#8, %140#9, %140#10, %140#11, %140#12, %140#13, %140#14, %140#15, %140#16, %140#17, %140#18, %140#19, %140#20, %141, %142, %143, %144, %145, %146, %147, %148, %149, %150, %151, %152, %153, %154, %155, %156, %157, %158, %159, %160 : tensor<16x2xui32>, tensor<33x16xf32>, tensor<16x33xf32>, tensor<1xf32>, tensor<16x1xf32>, tensor<16xf32>, tensor<16x16xf32>, tensor<2x8xf32>, tensor<16x2x8xf32>, tensor<16xf32>, tensor<2x8x16xf32>, tensor<2x8xf32>, tensor<16x2x8xf32>, tensor<2x8xf32>, tensor<16x2x8xf32>, tensor<i32>, tensor<33x16xf32>, tensor<16x33xf32>, tensor<1xf32>, tensor<16x1xf32>, tensor<16xf32>, tensor<16x16xf32>, tensor<2x8xf32>, tensor<16x2x8xf32>, tensor<16xf32>, tensor<2x8x16xf32>, tensor<2x8xf32>, tensor<16x2x8xf32>, tensor<2x8xf32>, tensor<16x2x8xf32>, tensor<33x16xf32>, tensor<16x33xf32>, tensor<1xf32>, tensor<16x1xf32>, tensor<16xf32>, tensor<16x16xf32>, tensor<2x8xf32>, tensor<16x2x8xf32>, tensor<16xf32>, tensor<2x8x16xf32>, tensor<2x8xf32>, tensor<16x2x8xf32>, tensor<2x8xf32>, tensor<16x2x8xf32>, tensor<16xi32>, tensor<16x5xi32>, tensor<i32>, tensor<i32>, tensor<16x5xi32>, tensor<16xi32>, tensor<16xf32>, tensor<16xi1>, tensor<16xi1>, tensor<16xf32>, tensor<16xf32>, tensor<16xf32>, tensor<16xf32>, tensor<16x5xi32>, tensor<16x5xi32>, tensor<16xi1>, tensor<16xi32>, tensor<16xi1>, tensor<16xi1>, tensor<16x5xi32>, tensor<16xi32>, tensor<16x96xi32>, tensor<16x96x2x8xf32>, tensor<16x96x2x8xf32>, tensor<16x16x5xi32>, tensor<16x16xi32>, tensor<16x16xf32>, tensor<16x16xi1>, tensor<16x16xi1>, tensor<16x16xf32>, tensor<16x16xf32>, tensor<16x16xf32>, tensor<16x16xf32>, tensor<16x16x5xi32>, tensor<16x16xi32>, tensor<16x16xf32>, tensor<16x16xi1>, tensor<16x16xi1>, tensor<16x16xf32>, tensor<16x16xf32>, tensor<16x16xf32>, tensor<16x16xf32>, tensor<16x16xf32>, tensor<16x16xf32> loc(#loc1517)
    } loc(#loc1517)
    %32 = stablehlo.broadcast_in_dim %31#48, dims = [0, 2] : (tensor<16x5xi32>) -> tensor<16x1x5xi32> loc(#loc1792)
    %33 = stablehlo.broadcast_in_dim %31#49, dims = [0] : (tensor<16xi32>) -> tensor<16x1xi32> loc(#loc1792)
    %34 = stablehlo.broadcast_in_dim %31#51, dims = [0] : (tensor<16xi1>) -> tensor<16x1xi1> loc(#loc1792)
    %35 = stablehlo.broadcast_in_dim %31#52, dims = [0] : (tensor<16xi1>) -> tensor<16x1xi1> loc(#loc1792)
    %36 = stablehlo.or %34, %35 : tensor<16x1xi1> loc(#loc1524)
    %37 = call @_take(%arg21, %33) : (tensor<33x16xf32>, tensor<16x1xi32>) -> tensor<16x1x16xf32> loc(#loc2083)
    %38 = stablehlo.broadcast_in_dim %37, dims = [0, 1, 3] : (tensor<16x1x16xf32>) -> tensor<16x1x1x16xf32> loc(#loc1794)
    %39 = call @_take_4(%arg21, %32) : (tensor<33x16xf32>, tensor<16x1x5xi32>) -> tensor<16x1x5x16xf32> loc(#loc2084)
    %40 = stablehlo.concatenate %38, %39, dim = 2 : (tensor<16x1x1x16xf32>, tensor<16x1x5x16xf32>) -> tensor<16x1x6x16xf32> loc(#loc1796)
    %41 = stablehlo.reshape %40 : (tensor<16x1x6x16xf32>) -> tensor<16x6x16xf32> loc(#loc1797)
    %42 = stablehlo.broadcast_in_dim %c_5, dims = [] : (tensor<i1>) -> tensor<16x1x6xi1> loc(#loc1798)
    %43 = stablehlo.broadcast_in_dim %c_7, dims = [] : (tensor<i32>) -> tensor<1xi32> loc(#loc1799)
    %44 = "stablehlo.scatter"(%42, %43, %36) <{indices_are_sorted = true, scatter_dimension_numbers = #stablehlo.scatter<update_window_dims = [0, 1], inserted_window_dims = [2], scatter_dims_to_operand_dims = [2]>, unique_indices = true}> ({
    ^bb0(%arg65: tensor<i1> loc("scatter:"(#loc91)), %arg66: tensor<i1> loc("scatter:"(#loc91))):
      stablehlo.return %arg66 : tensor<i1> loc(#loc1800)
    }) : (tensor<16x1x6xi1>, tensor<1xi32>, tensor<16x1xi1>) -> tensor<16x1x6xi1> loc(#loc1800)
    %45 = stablehlo.reshape %44 : (tensor<16x1x6xi1>) -> tensor<16x6xi1> loc(#loc1801)
    %46 = stablehlo.dot_general %41, %arg26, contracting_dims = [2] x [0] : (tensor<16x6x16xf32>, tensor<16x16xf32>) -> tensor<16x6x16xf32> loc(#loc2512)
    %47 = stablehlo.reshape %arg25 : (tensor<16xf32>) -> tensor<1x1x16xf32> loc(#loc2513)
    %48 = stablehlo.broadcast_in_dim %47, dims = [0, 1, 2] : (tensor<1x1x16xf32>) -> tensor<16x6x16xf32> loc(#loc2514)
    %49 = stablehlo.add %46, %48 : tensor<16x6x16xf32> loc(#loc2514)
    %50 = call @relu(%49) : (tensor<16x6x16xf32>) -> tensor<16x6x16xf32> loc(#loc2462)
    %51 = stablehlo.dot_general %50, %arg32, contracting_dims = [2] x [0] : (tensor<16x6x16xf32>, tensor<16x2x8xf32>) -> tensor<16x6x2x8xf32> loc(#loc2515)
    %52 = stablehlo.reshape %arg31 : (tensor<2x8xf32>) -> tensor<1x1x2x8xf32> loc(#loc2516)
    %53 = stablehlo.broadcast_in_dim %52, dims = [0, 1, 2, 3] : (tensor<1x1x2x8xf32>) -> tensor<16x6x2x8xf32> loc(#loc2517)
    %54 = stablehlo.add %51, %53 : tensor<16x6x2x8xf32> loc(#loc2517)
    %55 = stablehlo.dot_general %50, %arg28, contracting_dims = [2] x [0] : (tensor<16x6x16xf32>, tensor<16x2x8xf32>) -> tensor<16x6x2x8xf32> loc(#loc2518)
    %56 = stablehlo.reshape %arg27 : (tensor<2x8xf32>) -> tensor<1x1x2x8xf32> loc(#loc2519)
    %57 = stablehlo.broadcast_in_dim %56, dims = [0, 1, 2, 3] : (tensor<1x1x2x8xf32>) -> tensor<16x6x2x8xf32> loc(#loc2520)
    %58 = stablehlo.add %55, %57 : tensor<16x6x2x8xf32> loc(#loc2520)
    %59 = stablehlo.concatenate %31#66, %58, dim = 1 : (tensor<16x96x2x8xf32>, tensor<16x6x2x8xf32>) -> tensor<16x102x2x8xf32> loc(#loc2469)
    %60 = stablehlo.slice %59 [0:16, 6:102, 0:2, 0:8] : (tensor<16x102x2x8xf32>) -> tensor<16x96x2x8xf32> loc(#loc2470)
    %61 = stablehlo.dot_general %50, %arg34, contracting_dims = [2] x [0] : (tensor<16x6x16xf32>, tensor<16x2x8xf32>) -> tensor<16x6x2x8xf32> loc(#loc2521)
    %62 = stablehlo.reshape %arg33 : (tensor<2x8xf32>) -> tensor<1x1x2x8xf32> loc(#loc2522)
    %63 = stablehlo.broadcast_in_dim %62, dims = [0, 1, 2, 3] : (tensor<1x1x2x8xf32>) -> tensor<16x6x2x8xf32> loc(#loc2523)
    %64 = stablehlo.add %61, %63 : tensor<16x6x2x8xf32> loc(#loc2523)
    %65 = stablehlo.concatenate %31#67, %64, dim = 1 : (tensor<16x96x2x8xf32>, tensor<16x6x2x8xf32>) -> tensor<16x102x2x8xf32> loc(#loc2474)
    %66 = stablehlo.slice %65 [0:16, 6:102, 0:2, 0:8] : (tensor<16x102x2x8xf32>) -> tensor<16x96x2x8xf32> loc(#loc2475)
    %67 = stablehlo.convert %45 : (tensor<16x6xi1>) -> tensor<16x6xi32> loc(#loc2524)
    %68 = stablehlo.concatenate %31#65, %67, dim = 1 : (tensor<16x96xi32>, tensor<16x6xi32>) -> tensor<16x102xi32> loc(#loc2525)
    %69 = call @cumsum(%68) : (tensor<16x102xi32>) -> tensor<16x102xi32> loc(#loc2526)
    %70 = stablehlo.slice %69 [0:16, 96:102] : (tensor<16x102xi32>) -> tensor<16x6xi32> loc(#loc2527)
    %71 = stablehlo.broadcast_in_dim %70, dims = [0, 1] : (tensor<16x6xi32>) -> tensor<16x6x1xi32> loc(#loc2528)
    %72 = stablehlo.slice %69 [0:16, 6:102] : (tensor<16x102xi32>) -> tensor<16x96xi32> loc(#loc2529)
    %73 = stablehlo.broadcast_in_dim %72, dims = [0, 2] : (tensor<16x96xi32>) -> tensor<16x1x96xi32> loc(#loc2530)
    %74 = stablehlo.broadcast_in_dim %71, dims = [0, 1, 2] : (tensor<16x6x1xi32>) -> tensor<16x6x96xi32> loc(#loc2531)
    %75 = stablehlo.broadcast_in_dim %73, dims = [0, 1, 2] : (tensor<16x1x96xi32>) -> tensor<16x6x96xi32> loc(#loc2531)
    %76 = stablehlo.compare EQ, %74, %75, SIGNED : (tensor<16x6x96xi32>, tensor<16x6x96xi32>) -> tensor<16x6x96xi1> loc(#loc2531)
    %77 = stablehlo.iota dim = 0 : tensor<102xi32> loc(#loc2532)
    %78 = stablehlo.slice %77 [96:102] : (tensor<102xi32>) -> tensor<6xi32> loc(#loc2533)
    %79 = stablehlo.broadcast_in_dim %78, dims = [0] : (tensor<6xi32>) -> tensor<6x1xi32> loc(#loc2534)
    %80 = stablehlo.slice %77 [6:102] : (tensor<102xi32>) -> tensor<96xi32> loc(#loc2535)
    %81 = stablehlo.broadcast_in_dim %80, dims = [1] : (tensor<96xi32>) -> tensor<1x96xi32> loc(#loc2536)
    %82 = stablehlo.broadcast_in_dim %79, dims = [0, 1] : (tensor<6x1xi32>) -> tensor<6x96xi32> loc(#loc2537)
    %83 = stablehlo.broadcast_in_dim %81, dims = [0, 1] : (tensor<1x96xi32>) -> tensor<6x96xi32> loc(#loc2537)
    %84 = stablehlo.compare GE, %82, %83, SIGNED : (tensor<6x96xi32>, tensor<6x96xi32>) -> tensor<6x96xi1> loc(#loc2537)
    %85 = stablehlo.broadcast_in_dim %84, dims = [1, 2] : (tensor<6x96xi1>) -> tensor<1x6x96xi1> loc(#loc2538)
    %86 = stablehlo.broadcast_in_dim %85, dims = [0, 1, 2] : (tensor<1x6x96xi1>) -> tensor<16x6x96xi1> loc(#loc2539)
    %87 = stablehlo.and %76, %86 : tensor<16x6x96xi1> loc(#loc2539)
    %88 = stablehlo.broadcast_in_dim %87, dims = [0, 2, 3] : (tensor<16x6x96xi1>) -> tensor<16x1x6x96xi1> loc(#loc2540)
    %89 = stablehlo.reshape %54 : (tensor<16x6x2x8xf32>) -> tensor<16x6x2x1x8xf32> loc(#loc2487)
    %90 = stablehlo.broadcast_in_dim %88, dims = [0, 1, 3, 4] : (tensor<16x1x6x96xi1>) -> tensor<16x1x1x6x96xi1> loc(#loc2488)
    %91 = stablehlo.dot_general %89, %60, batching_dims = [0, 2] x [0, 2], contracting_dims = [4] x [3] : (tensor<16x6x2x1x8xf32>, tensor<16x96x2x8xf32>) -> tensor<16x2x6x1x96xf32> loc(#loc2489)
    %92 = stablehlo.broadcast_in_dim %cst_2, dims = [] : (tensor<f32>) -> tensor<16x2x6x1x96xf32> loc(#loc2490)
    %93 = stablehlo.multiply %91, %92 : tensor<16x2x6x1x96xf32> loc(#loc2490)
    %94 = stablehlo.broadcast_in_dim %c, dims = [] : (tensor<i1>) -> tensor<16x2x6x96xi1> loc(#loc2491)
    %95 = stablehlo.broadcast_in_dim %94, dims = [1, 2, 3, 4] : (tensor<16x2x6x96xi1>) -> tensor<1x16x2x6x96xi1> loc(#loc2491)
    %96 = stablehlo.transpose %90, dims = [2, 0, 1, 3, 4] : (tensor<16x1x1x6x96xi1>) -> tensor<1x16x1x6x96xi1> loc(#loc2492)
    %97 = stablehlo.broadcast_in_dim %96, dims = [0, 1, 2, 3, 4] : (tensor<1x16x1x6x96xi1>) -> tensor<1x16x2x6x96xi1> loc(#loc2493)
    %98 = stablehlo.and %95, %97 : tensor<1x16x2x6x96xi1> loc(#loc2493)
    %99 = call @_where_7(%98, %93, %cst_1) : (tensor<1x16x2x6x96xi1>, tensor<16x2x6x1x96xf32>, tensor<f32>) -> tensor<1x16x2x6x96xf32> loc(#loc2494)
    %100 = stablehlo.reduce(%99 init: %cst_0) applies stablehlo.maximum across dimensions = [4] : (tensor<1x16x2x6x96xf32>, tensor<f32>) -> tensor<1x16x2x6xf32> loc(#loc2495)
    %101 = stablehlo.broadcast_in_dim %cst_0, dims = [] : (tensor<f32>) -> tensor<1x16x2x6xf32> loc(#loc2496)
    %102 = stablehlo.maximum %101, %100 : tensor<1x16x2x6xf32> loc(#loc2496)
    %103 = stablehlo.broadcast_in_dim %102, dims = [0, 1, 2, 3] : (tensor<1x16x2x6xf32>) -> tensor<1x16x2x6x1xf32> loc(#loc2491)
    %104 = stablehlo.broadcast_in_dim %103, dims = [0, 1, 2, 3, 4] : (tensor<1x16x2x6x1xf32>) -> tensor<1x16x2x6x96xf32> loc(#loc2497)
    %105 = stablehlo.subtract %99, %104 : tensor<1x16x2x6x96xf32> loc(#loc2497)
    %106 = stablehlo.exponential %105 : tensor<1x16x2x6x96xf32> loc(#loc2498)
    %107 = stablehlo.reduce(%106 init: %cst_6) applies stablehlo.add across dimensions = [4] : (tensor<1x16x2x6x96xf32>, tensor<f32>) -> tensor<1x16x2x6xf32> loc(#loc2499)
    %108 = stablehlo.broadcast_in_dim %107, dims = [0, 1, 2, 3] : (tensor<1x16x2x6xf32>) -> tensor<1x16x2x6x1xf32> loc(#loc2491)
    %109 = stablehlo.broadcast_in_dim %108, dims = [0, 1, 2, 3, 4] : (tensor<1x16x2x6x1xf32>) -> tensor<1x16x2x6x96xf32> loc(#loc2500)
    %110 = stablehlo.divide %106, %109 : tensor<1x16x2x6x96xf32> loc(#loc2500)
    %111 = stablehlo.dot_general %66, %110, batching_dims = [0, 2] x [1, 2], contracting_dims = [1] x [4] : (tensor<16x96x2x8xf32>, tensor<1x16x2x6x96xf32>) -> tensor<16x2x8x1x6xf32> loc(#loc2501)
    %112 = stablehlo.transpose %111, dims = [3, 0, 4, 1, 2] : (tensor<16x2x8x1x6xf32>) -> tensor<1x16x6x2x8xf32> loc(#loc2502)
    %113 = stablehlo.transpose %112, dims = [1, 2, 3, 0, 4] : (tensor<1x16x6x2x8xf32>) -> tensor<16x6x2x1x8xf32> loc(#loc2492)
    %114 = stablehlo.reshape %113 : (tensor<16x6x2x1x8xf32>) -> tensor<16x6x2x8xf32> loc(#loc2487)
    %115 = stablehlo.dot_general %114, %arg30, contracting_dims = [2, 3] x [0, 1] : (tensor<16x6x2x8xf32>, tensor<2x8x16xf32>) -> tensor<16x6x16xf32> loc(#loc2541)
    %116 = stablehlo.reshape %arg29 : (tensor<16xf32>) -> tensor<1x1x16xf32> loc(#loc2542)
    %117 = stablehlo.broadcast_in_dim %116, dims = [0, 1, 2] : (tensor<1x1x16xf32>) -> tensor<16x6x16xf32> loc(#loc2543)
    %118 = stablehlo.add %115, %117 : tensor<16x6x16xf32> loc(#loc2543)
    %119 = stablehlo.reshape %118 : (tensor<16x6x16xf32>) -> tensor<16x1x6x16xf32> loc(#loc1803)
    %120 = stablehlo.slice %119 [0:16, 0:1, 5:6, 0:16] : (tensor<16x1x6x16xf32>) -> tensor<16x1x1x16xf32> loc(#loc1804)
    %121 = stablehlo.reshape %120 : (tensor<16x1x1x16xf32>) -> tensor<16x1x16xf32> loc(#loc1805)
    %122 = stablehlo.dot_general %121, %arg24, contracting_dims = [2] x [0] : (tensor<16x1x16xf32>, tensor<16x1xf32>) -> tensor<16x1x1xf32> loc(#loc2086)
    %123 = stablehlo.reshape %arg23 : (tensor<1xf32>) -> tensor<1x1x1xf32> loc(#loc2087)
    %124 = stablehlo.broadcast_in_dim %123, dims = [0, 1, 2] : (tensor<1x1x1xf32>) -> tensor<16x1x1xf32> loc(#loc2088)
    %125 = stablehlo.add %122, %124 : tensor<16x1x1xf32> loc(#loc2088)
    %126 = stablehlo.reshape %125 : (tensor<16x1x1xf32>) -> tensor<16x1xf32> loc(#loc1537)
    %127 = stablehlo.reshape %126 : (tensor<16x1xf32>) -> tensor<16xf32> loc(#loc1538)
    %128 = stablehlo.broadcast_in_dim %cst_6, dims = [] : (tensor<f32>) -> tensor<16xf32> loc(#loc1539)
    %129 = stablehlo.broadcast_in_dim %cst_6, dims = [] : (tensor<f32>) -> tensor<16x16xf32> loc(#loc1809)
    %130:8 = stablehlo.while(%iterArg = %31#79, %iterArg_10 = %31#80, %iterArg_11 = %31#81, %iterArg_12 = %31#87, %iterArg_13 = %c_7, %iterArg_14 = %128, %iterArg_15 = %127, %iterArg_16 = %129) : tensor<16x16xf32>, tensor<16x16xi1>, tensor<16x16xi1>, tensor<16x16xf32>, tensor<i32>, tensor<16xf32>, tensor<16xf32>, tensor<16x16xf32>
    cond {
      %139 = stablehlo.compare LT, %iterArg_13, %c_4, SIGNED : (tensor<i32>, tensor<i32>) -> tensor<i1> loc(#loc1811)
      stablehlo.return %139 : tensor<i1> loc(#loc1810)
    } do {
      %139 = stablehlo.subtract %c_4, %iterArg_13 : tensor<i32> loc(#loc1812)
      %140 = stablehlo.subtract %139, %c_3 : tensor<i32> loc(#loc1812)
      %141 = func.call @dynamic_index_in_dim_44(%iterArg, %140) : (tensor<16x16xf32>, tensor<i32>) -> tensor<16xf32> loc(#loc1813)
      %142 = func.call @dynamic_index_in_dim_45(%iterArg_10, %140) : (tensor<16x16xi1>, tensor<i32>) -> tensor<16xi1> loc(#loc1813)
      %143 = func.call @dynamic_index_in_dim_45(%iterArg_11, %140) : (tensor<16x16xi1>, tensor<i32>) -> tensor<16xi1> loc(#loc1813)
      %144 = func.call @dynamic_index_in_dim_44(%iterArg_12, %140) : (tensor<16x16xf32>, tensor<i32>) -> tensor<16xf32> loc(#loc1813)
      %145:3 = func.call @closed_call_46(%iterArg_14, %iterArg_15, %141, %142, %143, %144) : (tensor<16xf32>, tensor<16xf32>, tensor<16xf32>, tensor<16xi1>, tensor<16xi1>, tensor<16xf32>) -> (tensor<16xf32>, tensor<16xf32>, tensor<16xf32>) loc(#loc1814)
      %146 = func.call @dynamic_update_index_in_dim_42(%iterArg_16, %145#2, %140) : (tensor<16x16xf32>, tensor<16xf32>, tensor<i32>) -> tensor<16x16xf32> loc(#loc1815)
      %147 = stablehlo.add %iterArg_13, %c_3 : tensor<i32> loc(#loc1816)
      stablehlo.return %iterArg, %iterArg_10, %iterArg_11, %iterArg_12, %147, %145#0, %145#1, %146 : tensor<16x16xf32>, tensor<16x16xi1>, tensor<16x16xi1>, tensor<16x16xf32>, tensor<i32>, tensor<16xf32>, tensor<16xf32>, tensor<16x16xf32> loc(#loc1810)
    } loc(#loc1810)
    %131 = stablehlo.add %130#7, %31#87 : tensor<16x16xf32> loc(#loc1542)
    %132 = call @_threefry_split_47(%9) : (tensor<2xui32>) -> tensor<1x2xui32> loc(#loc1543)
    %133:91 = stablehlo.while(%iterArg = %132, %iterArg_10 = %31#47, %iterArg_11 = %31#48, %iterArg_12 = %31#49, %iterArg_13 = %31#50, %iterArg_14 = %31#51, %iterArg_15 = %31#52, %iterArg_16 = %31#53, %iterArg_17 = %31#54, %iterArg_18 = %31#55, %iterArg_19 = %31#56, %iterArg_20 = %31#57, %iterArg_21 = %31#58, %iterArg_22 = %31#59, %iterArg_23 = %31#60, %iterArg_24 = %31#61, %iterArg_25 = %31#62, %iterArg_26 = %31#63, %iterArg_27 = %31#64, %iterArg_28 = %31#65, %iterArg_29 = %31#66, %iterArg_30 = %31#67, %iterArg_31 = %31#68, %iterArg_32 = %31#69, %iterArg_33 = %31#70, %iterArg_34 = %31#71, %iterArg_35 = %31#72, %iterArg_36 = %31#73, %iterArg_37 = %31#74, %iterArg_38 = %31#75, %iterArg_39 = %31#76, %iterArg_40 = %31#77, %iterArg_41 = %31#78, %iterArg_42 = %31#79, %iterArg_43 = %31#80, %iterArg_44 = %31#81, %iterArg_45 = %31#82, %iterArg_46 = %31#83, %iterArg_47 = %31#84, %iterArg_48 = %31#85, %iterArg_49 = %130#7, %iterArg_50 = %31#86, %iterArg_51 = %131, %iterArg_52 = %31#87, %iterArg_53 = %arg18, %iterArg_54 = %arg19, %iterArg_55 = %arg20, %iterArg_56 = %c_7, %iterArg_57 = %arg21, %iterArg_58 = %arg22, %iterArg_59 = %arg23, %iterArg_60 = %arg24, %iterArg_61 = %arg25, %iterArg_62 = %arg26, %iterArg_63 = %arg27, %iterArg_64 = %arg28, %iterArg_65 = %arg29, %iterArg_66 = %arg30, %iterArg_67 = %arg31, %iterArg_68 = %arg32, %iterArg_69 = %arg33, %iterArg_70 = %arg34, %iterArg_71 = %arg35, %iterArg_72 = %arg36, %iterArg_73 = %arg37, %iterArg_74 = %arg38, %iterArg_75 = %arg39, %iterArg_76 = %arg40, %iterArg_77 = %arg41, %iterArg_78 = %arg42, %iterArg_79 = %arg43, %iterArg_80 = %arg44, %iterArg_81 = %arg45, %iterArg_82 = %arg46, %iterArg_83 = %arg47, %iterArg_84 = %arg48, %iterArg_85 = %arg49, %iterArg_86 = %arg50, %iterArg_87 = %arg51, %iterArg_88 = %arg52, %iterArg_89 = %arg53, %iterArg_90 = %arg54, %iterArg_91 = %arg55, %iterArg_92 = %arg56, %iterArg_93 = %arg57, %iterArg_94 = %arg58, %iterArg_95 = %arg59, %iterArg_96 = %arg60, %iterArg_97 = %arg61, %iterArg_98 = %arg62, %iterArg_99 = %arg63) : tensor<1x2xui32>, tensor<i32>, tensor<16x5xi32>, tensor<16xi32>, tensor<16xf32>, tensor<16xi1>, tensor<16xi1>, tensor<16xf32>, tensor<16xf32>, tensor<16xf32>, tensor<16xf32>, tensor<16x5xi32>, tensor<16x5xi32>, tensor<16xi1>, tensor<16xi32>, tensor<16xi1>, tensor<16xi1>, tensor<16x5xi32>, tensor<16xi32>, tensor<16x96xi32>, tensor<16x96x2x8xf32>, tensor<16x96x2x8xf32>, tensor<16x16x5xi32>, tensor<16x16xi32>, tensor<16x16xf32>, tensor<16x16xi1>, tensor<16x16xi1>, tensor<16x16xf32>, tensor<16x16xf32>, tensor<16x16xf32>, tensor<16x16xf32>, tensor<16x16x5xi32>, tensor<16x16xi32>, tensor<16x16xf32>, tensor<16x16xi1>, tensor<16x16xi1>, tensor<16x16xf32>, tensor<16x16xf32>, tensor<16x16xf32>, tensor<16x16xf32>, tensor<16x16xf32>, tensor<16x16xf32>, tensor<16x16xf32>, tensor<16x16xf32>, tensor<16x96xi32>, tensor<16x96x2x8xf32>, tensor<16x96x2x8xf32>, tensor<i32>, tensor<33x16xf32>, tensor<16x33xf32>, tensor<1xf32>, tensor<16x1xf32>, tensor<16xf32>, tensor<16x16xf32>, tensor<2x8xf32>, tensor<16x2x8xf32>, tensor<16xf32>, tensor<2x8x16xf32>, tensor<2x8xf32>, tensor<16x2x8xf32>, tensor<2x8xf32>, tensor<16x2x8xf32>, tensor<i32>, tensor<33x16xf32>, tensor<16x33xf32>, tensor<1xf32>, tensor<16x1xf32>, tensor<16xf32>, tensor<16x16xf32>, tensor<2x8xf32>, tensor<16x2x8xf32>, tensor<16xf32>, tensor<2x8x16xf32>, tensor<2x8xf32>, tensor<16x2x8xf32>, tensor<2x8xf32>, tensor<16x2x8xf32>, tensor<33x16xf32>, tensor<16x33xf32>, tensor<1xf32>, tensor<16x1xf32>, tensor<16xf32>, tensor<16x16xf32>, tensor<2x8xf32>, tensor<16x2x8xf32>, tensor<16xf32>, tensor<2x8x16xf32>, tensor<2x8xf32>, tensor<16x2x8xf32>, tensor<2x8xf32>, tensor<16x2x8xf32>
    cond {
      %139 = stablehlo.compare LT, %iterArg_56, %c_3, SIGNED : (tensor<i32>, tensor<i32>) -> tensor<i1> loc(#loc1545)
      stablehlo.return %139 : tensor<i1> loc(#loc1544)
    } do {
      %139 = func.call @dynamic_index_in_dim_50(%iterArg, %iterArg_56) : (tensor<1x2xui32>, tensor<i32>) -> tensor<2xui32> loc(#loc1546)
      %140:43 = func.call @closed_call_51(%iterArg_10, %iterArg_11, %iterArg_12, %iterArg_13, %iterArg_14, %iterArg_15, %iterArg_16, %iterArg_17, %iterArg_18, %iterArg_19, %iterArg_20, %iterArg_21, %iterArg_22, %iterArg_23, %iterArg_24, %iterArg_25, %iterArg_26, %iterArg_27, %iterArg_28, %iterArg_29, %iterArg_30, %iterArg_31, %iterArg_32, %iterArg_33, %iterArg_34, %iterArg_35, %iterArg_36, %iterArg_37, %iterArg_38, %iterArg_39, %iterArg_40, %iterArg_41, %iterArg_42, %iterArg_43, %iterArg_44, %iterArg_45, %iterArg_46, %iterArg_47, %iterArg_48, %iterArg_49, %iterArg_50, %iterArg_51, %iterArg_52, %iterArg_53, %iterArg_54, %iterArg_55, %iterArg_57, %iterArg_58, %iterArg_59, %iterArg_60, %iterArg_61, %iterArg_62, %iterArg_63, %iterArg_64, %iterArg_65, %iterArg_66, %iterArg_67, %iterArg_68, %iterArg_69, %iterArg_70, %iterArg_71, %iterArg_72, %iterArg_73, %iterArg_74, %iterArg_75, %iterArg_76, %iterArg_77, %iterArg_78, %iterArg_79, %iterArg_80, %iterArg_81, %iterArg_82, %iterArg_83, %iterArg_84, %iterArg_85, %iterArg_86, %iterArg_87, %iterArg_88, %iterArg_89, %iterArg_90, %iterArg_91, %iterArg_92, %iterArg_93, %iterArg_94, %iterArg_95, %iterArg_96, %iterArg_97, %iterArg_98, %iterArg_99, %139) : (tensor<i32>, tensor<16x5xi32>, tensor<16xi32>, tensor<16xf32>, tensor<16xi1>, tensor<16xi1>, tensor<16xf32>, tensor<16xf32>, tensor<16xf32>, tensor<16xf32>, tensor<16x5xi32>, tensor<16x5xi32>, tensor<16xi1>, tensor<16xi32>, tensor<16xi1>, tensor<16xi1>, tensor<16x5xi32>, tensor<16xi32>, tensor<16x96xi32>, tensor<16x96x2x8xf32>, tensor<16x96x2x8xf32>, tensor<16x16x5xi32>, tensor<16x16xi32>, tensor<16x16xf32>, tensor<16x16xi1>, tensor<16x16xi1>, tensor<16x16xf32>, tensor<16x16xf32>, tensor<16x16xf32>, tensor<16x16xf32>, tensor<16x16x5xi32>, tensor<16x16xi32>, tensor<16x16xf32>, tensor<16x16xi1>, tensor<16x16xi1>, tensor<16x16xf32>, tensor<16x16xf32>, tensor<16x16xf32>, tensor<16x16xf32>, tensor<16x16xf32>, tensor<16x16xf32>, tensor<16x16xf32>, tensor<16x16xf32>, tensor<16x96xi32>, tensor<16x96x2x8xf32>, tensor<16x96x2x8xf32>, tensor<33x16xf32>, tensor<16x33xf32>, tensor<1xf32>, tensor<16x1xf32>, tensor<16xf32>, tensor<16x16xf32>, tensor<2x8xf32>, tensor<16x2x8xf32>, tensor<16xf32>, tensor<2x8x16xf32>, tensor<2x8xf32>, tensor<16x2x8xf32>, tensor<2x8xf32>, tensor<16x2x8xf32>, tensor<i32>, tensor<33x16xf32>, tensor<16x33xf32>, tensor<1xf32>, tensor<16x1xf32>, tensor<16xf32>, tensor<16x16xf32>, tensor<2x8xf32>, tensor<16x2x8xf32>, tensor<16xf32>, tensor<2x8x16xf32>, tensor<2x8xf32>, tensor<16x2x8xf32>, tensor<2x8xf32>, tensor<16x2x8xf32>, tensor<33x16xf32>, tensor<16x33xf32>, tensor<1xf32>, tensor<16x1xf32>, tensor<16xf32>, tensor<16x16xf32>, tensor<2x8xf32>, tensor<16x2x8xf32>, tensor<16xf32>, tensor<2x8x16xf32>, tensor<2x8xf32>, tensor<16x2x8xf32>, tensor<2x8xf32>, tensor<16x2x8xf32>, tensor<2xui32>) -> (tensor<33x16xf32>, tensor<16x33xf32>, tensor<1xf32>, tensor<16x1xf32>, tensor<16xf32>, tensor<16x16xf32>, tensor<2x8xf32>, tensor<16x2x8xf32>, tensor<16xf32>, tensor<2x8x16xf32>, tensor<2x8xf32>, tensor<16x2x8xf32>, tensor<2x8xf32>, tensor<16x2x8xf32>, tensor<i32>, tensor<33x16xf32>, tensor<16x33xf32>, tensor<1xf32>, tensor<16x1xf32>, tensor<16xf32>, tensor<16x16xf32>, tensor<2x8xf32>, tensor<16x2x8xf32>, tensor<16xf32>, tensor<2x8x16xf32>, tensor<2x8xf32>, tensor<16x2x8xf32>, tensor<2x8xf32>, tensor<16x2x8xf32>, tensor<33x16xf32>, tensor<16x33xf32>, tensor<1xf32>, tensor<16x1xf32>, tensor<16xf32>, tensor<16x16xf32>, tensor<2x8xf32>, tensor<16x2x8xf32>, tensor<16xf32>, tensor<2x8x16xf32>, tensor<2x8xf32>, tensor<16x2x8xf32>, tensor<2x8xf32>, tensor<16x2x8xf32>) loc(#loc1547)
      %141 = stablehlo.add %iterArg_56, %c_3 : tensor<i32> loc(#loc1548)
      stablehlo.return %iterArg, %iterArg_10, %iterArg_11, %iterArg_12, %iterArg_13, %iterArg_14, %iterArg_15, %iterArg_16, %iterArg_17, %iterArg_18, %iterArg_19, %iterArg_20, %iterArg_21, %iterArg_22, %iterArg_23, %iterArg_24, %iterArg_25, %iterArg_26, %iterArg_27, %iterArg_28, %iterArg_29, %iterArg_30, %iterArg_31, %iterArg_32, %iterArg_33, %iterArg_34, %iterArg_35, %iterArg_36, %iterArg_37, %iterArg_38, %iterArg_39, %iterArg_40, %iterArg_41, %iterArg_42, %iterArg_43, %iterArg_44, %iterArg_45, %iterArg_46, %iterArg_47, %iterArg_48, %iterArg_49, %iterArg_50, %iterArg_51, %iterArg_52, %iterArg_53, %iterArg_54, %iterArg_55, %141, %140#0, %140#1, %140#2, %140#3, %140#4, %140#5, %140#6, %140#7, %140#8, %140#9, %140#10, %140#11, %140#12, %140#13, %140#14, %140#15, %140#16, %140#17, %140#18, %140#19, %140#20, %140#21, %140#22, %140#23, %140#24, %140#25, %140#26, %140#27, %140#28, %140#29, %140#30, %140#31, %140#32, %140#33, %140#34, %140#35, %140#36, %140#37, %140#38, %140#39, %140#40, %140#41, %140#42 : tensor<1x2xui32>, tensor<i32>, tensor<16x5xi32>, tensor<16xi32>, tensor<16xf32>, tensor<16xi1>, tensor<16xi1>, tensor<16xf32>, tensor<16xf32>, tensor<16xf32>, tensor<16xf32>, tensor<16x5xi32>, tensor<16x5xi32>, tensor<16xi1>, tensor<16xi32>, tensor<16xi1>, tensor<16xi1>, tensor<16x5xi32>, tensor<16xi32>, tensor<16x96xi32>, tensor<16x96x2x8xf32>, tensor<16x96x2x8xf32>, tensor<16x16x5xi32>, tensor<16x16xi32>, tensor<16x16xf32>, tensor<16x16xi1>, tensor<16x16xi1>, tensor<16x16xf32>, tensor<16x16xf32>, tensor<16x16xf32>, tensor<16x16xf32>, tensor<16x16x5xi32>, tensor<16x16xi32>, tensor<16x16xf32>, tensor<16x16xi1>, tensor<16x16xi1>, tensor<16x16xf32>, tensor<16x16xf32>, tensor<16x16xf32>, tensor<16x16xf32>, tensor<16x16xf32>, tensor<16x16xf32>, tensor<16x16xf32>, tensor<16x16xf32>, tensor<16x96xi32>, tensor<16x96x2x8xf32>, tensor<16x96x2x8xf32>, tensor<i32>, tensor<33x16xf32>, tensor<16x33xf32>, tensor<1xf32>, tensor<16x1xf32>, tensor<16xf32>, tensor<16x16xf32>, tensor<2x8xf32>, tensor<16x2x8xf32>, tensor<16xf32>, tensor<2x8x16xf32>, tensor<2x8xf32>, tensor<16x2x8xf32>, tensor<2x8xf32>, tensor<16x2x8xf32>, tensor<i32>, tensor<33x16xf32>, tensor<16x33xf32>, tensor<1xf32>, tensor<16x1xf32>, tensor<16xf32>, tensor<16x16xf32>, tensor<2x8xf32>, tensor<16x2x8xf32>, tensor<16xf32>, tensor<2x8x16xf32>, tensor<2x8xf32>, tensor<16x2x8xf32>, tensor<2x8xf32>, tensor<16x2x8xf32>, tensor<33x16xf32>, tensor<16x33xf32>, tensor<1xf32>, tensor<16x1xf32>, tensor<16xf32>, tensor<16x16xf32>, tensor<2x8xf32>, tensor<16x2x8xf32>, tensor<16xf32>, tensor<2x8x16xf32>, tensor<2x8xf32>, tensor<16x2x8xf32>, tensor<2x8xf32>, tensor<16x2x8xf32> loc(#loc1544)
    } loc(#loc1544)
    %134 = call @_threefry_split_0(%4) : (tensor<2xui32>) -> tensor<16x2xui32> loc(#loc1549)
    %135 = stablehlo.broadcast_in_dim %cst_6, dims = [] : (tensor<f32>) -> tensor<16x16xf32> loc(#loc1550)
    %136:69 = stablehlo.while(%iterArg = %134, %iterArg_10 = %133#48, %iterArg_11 = %133#49, %iterArg_12 = %133#50, %iterArg_13 = %133#51, %iterArg_14 = %133#52, %iterArg_15 = %133#53, %iterArg_16 = %133#54, %iterArg_17 = %133#55, %iterArg_18 = %133#56, %iterArg_19 = %133#57, %iterArg_20 = %133#58, %iterArg_21 = %133#59, %iterArg_22 = %133#60, %iterArg_23 = %133#61, %iterArg_24 = %133#62, %iterArg_25 = %133#63, %iterArg_26 = %133#64, %iterArg_27 = %133#65, %iterArg_28 = %133#66, %iterArg_29 = %133#67, %iterArg_30 = %133#68, %iterArg_31 = %133#69, %iterArg_32 = %133#70, %iterArg_33 = %133#71, %iterArg_34 = %133#72, %iterArg_35 = %133#73, %iterArg_36 = %133#74, %iterArg_37 = %133#75, %iterArg_38 = %133#76, %iterArg_39 = %133#77, %iterArg_40 = %133#78, %iterArg_41 = %133#79, %iterArg_42 = %133#80, %iterArg_43 = %133#81, %iterArg_44 = %133#82, %iterArg_45 = %133#83, %iterArg_46 = %133#84, %iterArg_47 = %133#85, %iterArg_48 = %133#86, %iterArg_49 = %133#87, %iterArg_50 = %133#88, %iterArg_51 = %133#89, %iterArg_52 = %133#90, %iterArg_53 = %c_8, %iterArg_54 = %c_9, %iterArg_55 = %c_7, %iterArg_56 = %31#47, %iterArg_57 = %31#48, %iterArg_58 = %31#49, %iterArg_59 = %31#50, %iterArg_60 = %31#51, %iterArg_61 = %31#52, %iterArg_62 = %31#53, %iterArg_63 = %31#54, %iterArg_64 = %31#55, %iterArg_65 = %31#56, %iterArg_66 = %31#57, %iterArg_67 = %31#58, %iterArg_68 = %31#59, %iterArg_69 = %31#60, %iterArg_70 = %31#61, %iterArg_71 = %31#62, %iterArg_72 = %31#63, %iterArg_73 = %31#64, %iterArg_74 = %31#65, %iterArg_75 = %31#66, %iterArg_76 = %31#67, %iterArg_77 = %135) : tensor<16x2xui32>, tensor<33x16xf32>, tensor<16x33xf32>, tensor<1xf32>, tensor<16x1xf32>, tensor<16xf32>, tensor<16x16xf32>, tensor<2x8xf32>, tensor<16x2x8xf32>, tensor<16xf32>, tensor<2x8x16xf32>, tensor<2x8xf32>, tensor<16x2x8xf32>, tensor<2x8xf32>, tensor<16x2x8xf32>, tensor<i32>, tensor<33x16xf32>, tensor<16x33xf32>, tensor<1xf32>, tensor<16x1xf32>, tensor<16xf32>, tensor<16x16xf32>, tensor<2x8xf32>, tensor<16x2x8xf32>, tensor<16xf32>, tensor<2x8x16xf32>, tensor<2x8xf32>, tensor<16x2x8xf32>, tensor<2x8xf32>, tensor<16x2x8xf32>, tensor<33x16xf32>, tensor<16x33xf32>, tensor<1xf32>, tensor<16x1xf32>, tensor<16xf32>, tensor<16x16xf32>, tensor<2x8xf32>, tensor<16x2x8xf32>, tensor<16xf32>, tensor<2x8x16xf32>, tensor<2x8xf32>, tensor<16x2x8xf32>, tensor<2x8xf32>, tensor<16x2x8xf32>, tensor<16xi32>, tensor<16x5xi32>, tensor<i32>, tensor<i32>, tensor<16x5xi32>, tensor<16xi32>, tensor<16xf32>, tensor<16xi1>, tensor<16xi1>, tensor<16xf32>, tensor<16xf32>, tensor<16xf32>, tensor<16xf32>, tensor<16x5xi32>, tensor<16x5xi32>, tensor<16xi1>, tensor<16xi32>, tensor<16xi1>, tensor<16xi1>, tensor<16x5xi32>, tensor<16xi32>, tensor<16x96xi32>, tensor<16x96x2x8xf32>, tensor<16x96x2x8xf32>, tensor<16x16xf32>
    cond {
      %139 = stablehlo.compare LT, %iterArg_55, %c_4, SIGNED : (tensor<i32>, tensor<i32>) -> tensor<i1> loc(#loc1552)
      stablehlo.return %139 : tensor<i1> loc(#loc1551)
    } do {
      %139 = func.call @dynamic_index_in_dim(%iterArg, %iterArg_55) : (tensor<16x2xui32>, tensor<i32>) -> tensor<2xui32> loc(#loc1553)
      %140:22 = func.call @closed_call_91(%iterArg_10, %iterArg_11, %iterArg_12, %iterArg_13, %iterArg_14, %iterArg_15, %iterArg_16, %iterArg_17, %iterArg_18, %iterArg_19, %iterArg_20, %iterArg_21, %iterArg_22, %iterArg_23, %iterArg_24, %iterArg_25, %iterArg_26, %iterArg_27, %iterArg_28, %iterArg_29, %iterArg_30, %iterArg_31, %iterArg_32, %iterArg_33, %iterArg_34, %iterArg_35, %iterArg_36, %iterArg_37, %iterArg_38, %iterArg_39, %iterArg_40, %iterArg_41, %iterArg_42, %iterArg_43, %iterArg_44, %iterArg_45, %iterArg_46, %iterArg_47, %iterArg_48, %iterArg_49, %iterArg_50, %iterArg_51, %iterArg_52, %iterArg_53, %iterArg_54, %iterArg_56, %iterArg_57, %iterArg_58, %iterArg_59, %iterArg_60, %iterArg_61, %iterArg_62, %iterArg_63, %iterArg_64, %iterArg_65, %iterArg_66, %iterArg_67, %iterArg_68, %iterArg_69, %iterArg_70, %iterArg_71, %iterArg_72, %iterArg_73, %iterArg_74, %iterArg_75, %iterArg_76, %139) : (tensor<33x16xf32>, tensor<16x33xf32>, tensor<1xf32>, tensor<16x1xf32>, tensor<16xf32>, tensor<16x16xf32>, tensor<2x8xf32>, tensor<16x2x8xf32>, tensor<16xf32>, tensor<2x8x16xf32>, tensor<2x8xf32>, tensor<16x2x8xf32>, tensor<2x8xf32>, tensor<16x2x8xf32>, tensor<i32>, tensor<33x16xf32>, tensor<16x33xf32>, tensor<1xf32>, tensor<16x1xf32>, tensor<16xf32>, tensor<16x16xf32>, tensor<2x8xf32>, tensor<16x2x8xf32>, tensor<16xf32>, tensor<2x8x16xf32>, tensor<2x8xf32>, tensor<16x2x8xf32>, tensor<2x8xf32>, tensor<16x2x8xf32>, tensor<33x16xf32>, tensor<16x33xf32>, tensor<1xf32>, tensor<16x1xf32>, tensor<16xf32>, tensor<16x16xf32>, tensor<2x8xf32>, tensor<16x2x8xf32>, tensor<16xf32>, tensor<2x8x16xf32>, tensor<2x8xf32>, tensor<16x2x8xf32>, tensor<2x8xf32>, tensor<16x2x8xf32>, tensor<16xi32>, tensor<16x5xi32>, tensor<i32>, tensor<16x5xi32>, tensor<16xi32>, tensor<16xf32>, tensor<16xi1>, tensor<16xi1>, tensor<16xf32>, tensor<16xf32>, tensor<16xf32>, tensor<16xf32>, tensor<16x5xi32>, tensor<16x5xi32>, tensor<16xi1>, tensor<16xi32>, tensor<16xi1>, tensor<16xi1>, tensor<16x5xi32>, tensor<16xi32>, tensor<16x96xi32>, tensor<16x96x2x8xf32>, tensor<16x96x2x8xf32>, tensor<2xui32>) -> (tensor<i32>, tensor<16x5xi32>, tensor<16xi32>, tensor<16xf32>, tensor<16xi1>, tensor<16xi1>, tensor<16xf32>, tensor<16xf32>, tensor<16xf32>, tensor<16xf32>, tensor<16x5xi32>, tensor<16x5xi32>, tensor<16xi1>, tensor<16xi32>, tensor<16xi1>, tensor<16xi1>, tensor<16x5xi32>, tensor<16xi32>, tensor<16x96xi32>, tensor<16x96x2x8xf32>, tensor<16x96x2x8xf32>, tensor<16xf32>) loc(#loc1554)
      %141 = func.call @dynamic_update_index_in_dim_42(%iterArg_77, %140#21, %iterArg_55) : (tensor<16x16xf32>, tensor<16xf32>, tensor<i32>) -> tensor<16x16xf32> loc(#loc1555)
      %142 = stablehlo.add %iterArg_55, %c_3 : tensor<i32> loc(#loc1556)
      stablehlo.return %iterArg, %iterArg_10, %iterArg_11, %iterArg_12, %iterArg_13, %iterArg_14, %iterArg_15, %iterArg_16, %iterArg_17, %iterArg_18, %iterArg_19, %iterArg_20, %iterArg_21, %iterArg_22, %iterArg_23, %iterArg_24, %iterArg_25, %iterArg_26, %iterArg_27, %iterArg_28, %iterArg_29, %iterArg_30, %iterArg_31, %iterArg_32, %iterArg_33, %iterArg_34, %iterArg_35, %iterArg_36, %iterArg_37, %iterArg_38, %iterArg_39, %iterArg_40, %iterArg_41, %iterArg_42, %iterArg_43, %iterArg_44, %iterArg_45, %iterArg_46, %iterArg_47, %iterArg_48, %iterArg_49, %iterArg_50, %iterArg_51, %iterArg_52, %iterArg_53, %iterArg_54, %142, %140#0, %140#1, %140#2, %140#3, %140#4, %140#5, %140#6, %140#7, %140#8, %140#9, %140#10, %140#11, %140#12, %140#13, %140#14, %140#15, %140#16, %140#17, %140#18, %140#19, %140#20, %141 : tensor<16x2xui32>, tensor<33x16xf32>, tensor<16x33xf32>, tensor<1xf32>, tensor<16x1xf32>, tensor<16xf32>, tensor<16x16xf32>, tensor<2x8xf32>, tensor<16x2x8xf32>, tensor<16xf32>, tensor<2x8x16xf32>, tensor<2x8xf32>, tensor<16x2x8xf32>, tensor<2x8xf32>, tensor<16x2x8xf32>, tensor<i32>, tensor<33x16xf32>, tensor<16x33xf32>, tensor<1xf32>, tensor<16x1xf32>, tensor<16xf32>, tensor<16x16xf32>, tensor<2x8xf32>, tensor<16x2x8xf32>, tensor<16xf32>, tensor<2x8x16xf32>, tensor<2x8xf32>, tensor<16x2x8xf32>, tensor<2x8xf32>, tensor<16x2x8xf32>, tensor<33x16xf32>, tensor<16x33xf32>, tensor<1xf32>, tensor<16x1xf32>, tensor<16xf32>, tensor<16x16xf32>, tensor<2x8xf32>, tensor<16x2x8xf32>, tensor<16xf32>, tensor<2x8x16xf32>, tensor<2x8xf32>, tensor<16x2x8xf32>, tensor<2x8xf32>, tensor<16x2x8xf32>, tensor<16xi32>, tensor<16x5xi32>, tensor<i32>, tensor<i32>, tensor<16x5xi32>, tensor<16xi32>, tensor<16xf32>, tensor<16xi1>, tensor<16xi1>, tensor<16xf32>, tensor<16xf32>, tensor<16xf32>, tensor<16xf32>, tensor<16x5xi32>, tensor<16x5xi32>, tensor<16xi1>, tensor<16xi32>, tensor<16xi1>, tensor<16xi1>, tensor<16x5xi32>, tensor<16xi32>, tensor<16x96xi32>, tensor<16x96x2x8xf32>, tensor<16x96x2x8xf32>, tensor<16x16xf32> loc(#loc1551)
    } loc(#loc1551)
    %137 = stablehlo.reduce(%136#68 init: %cst_6) applies stablehlo.add across dimensions = [0, 1] : (tensor<16x16xf32>, tensor<f32>) -> tensor<f32> loc(#loc1301)
    %138 = stablehlo.divide %137, %cst : tensor<f32> loc(#loc1302)
    return %31#47, %31#48, %31#49, %31#50, %31#51, %31#52, %31#53, %31#54, %31#55, %31#56, %31#57, %31#58, %31#59, %31#60, %31#61, %31#62, %31#63, %31#64, %31#65, %31#66, %31#67, %133#48, %133#49, %133#50, %133#51, %133#52, %133#53, %133#54, %133#55, %133#56, %133#57, %133#58, %133#59, %133#60, %133#61, %133#62, %133#63, %133#64, %133#65, %133#66, %133#67, %133#68, %133#69, %133#70, %133#71, %133#72, %133#73, %133#74, %133#75, %133#76, %133#77, %133#78, %133#79, %133#80, %133#81, %133#82, %133#83, %133#84, %133#85, %133#86, %133#87, %133#88, %133#89, %133#90, %138 : tensor<i32>, tensor<16x5xi32>, tensor<16xi32>, tensor<16xf32>, tensor<16xi1>, tensor<16xi1>, tensor<16xf32>, tensor<16xf32>, tensor<16xf32>, tensor<16xf32>, tensor<16x5xi32>, tensor<16x5xi32>, tensor<16xi1>, tensor<16xi32>, tensor<16xi1>, tensor<16xi1>, tensor<16x5xi32>, tensor<16xi32>, tensor<16x96xi32>, tensor<16x96x2x8xf32>, tensor<16x96x2x8xf32>, tensor<33x16xf32>, tensor<16x33xf32>, tensor<1xf32>, tensor<16x1xf32>, tensor<16xf32>, tensor<16x16xf32>, tensor<2x8xf32>, tensor<16x2x8xf32>, tensor<16xf32>, tensor<2x8x16xf32>, tensor<2x8xf32>, tensor<16x2x8xf32>, tensor<2x8xf32>, tensor<16x2x8xf32>, tensor<i32>, tensor<33x16xf32>, tensor<16x33xf32>, tensor<1xf32>, tensor<16x1xf32>, tensor<16xf32>, tensor<16x16xf32>, tensor<2x8xf32>, tensor<16x2x8xf32>, tensor<16xf32>, tensor<2x8x16xf32>, tensor<2x8xf32>, tensor<16x2x8xf32>, tensor<2x8xf32>, tensor<16x2x8xf32>, tensor<33x16xf32>, tensor<16x33xf32>, tensor<1xf32>, tensor<16x1xf32>, tensor<16xf32>, tensor<16x16xf32>, tensor<2x8xf32>, tensor<16x2x8xf32>, tensor<16xf32>, tensor<2x8x16xf32>, tensor<2x8xf32>, tensor<16x2x8xf32>, tensor<2x8xf32>, tensor<16x2x8xf32>, tensor<f32> loc(#loc935)
  } loc(#loc)
  func.func private @_threefry_split(%arg0: tensor<2xui32> loc(unknown)) -> tensor<2x2xui32> {
    %c = stablehlo.constant dense<32> : tensor<ui64> loc(#loc143)
    %c_0 = stablehlo.constant dense<1> : tensor<ui64> loc(#loc143)
    %0 = stablehlo.slice %arg0 [0:1] : (tensor<2xui32>) -> tensor<1xui32> loc(#loc144)
    %1 = stablehlo.reshape %0 : (tensor<1xui32>) -> tensor<ui32> loc(#loc145)
    %2 = stablehlo.slice %arg0 [1:2] : (tensor<2xui32>) -> tensor<1xui32> loc(#loc144)
    %3 = stablehlo.reshape %2 : (tensor<1xui32>) -> tensor<ui32> loc(#loc145)
    %4 = stablehlo.iota dim = 0 : tensor<2xui64> loc(#loc143)
    %5 = stablehlo.broadcast_in_dim %c_0, dims = [] : (tensor<ui64>) -> tensor<2xui64> loc(#loc143)
    %6 = stablehlo.multiply %5, %4 : tensor<2xui64> loc(#loc143)
    %7 = stablehlo.broadcast_in_dim %c, dims = [] : (tensor<ui64>) -> tensor<2xui64> loc(#loc143)
    %8 = stablehlo.shift_right_logical %6, %7 : tensor<2xui64> loc(#loc143)
    %9 = stablehlo.convert %6 : (tensor<2xui64>) -> tensor<2xui32> loc(#loc143)
    %10 = stablehlo.convert %8 : (tensor<2xui64>) -> tensor<2xui32> loc(#loc143)
    %11:2 = call @threefry2x32(%1, %3, %10, %9) : (tensor<ui32>, tensor<ui32>, tensor<2xui32>, tensor<2xui32>) -> (tensor<2xui32>, tensor<2xui32>) loc(#loc)
    %12 = stablehlo.broadcast_in_dim %11#0, dims = [0] : (tensor<2xui32>) -> tensor<2x1xui32> loc(#loc146)
    %13 = stablehlo.broadcast_in_dim %11#1, dims = [0] : (tensor<2xui32>) -> tensor<2x1xui32> loc(#loc146)
    %14 = stablehlo.concatenate %12, %13, dim = 1 : (tensor<2x1xui32>, tensor<2x1xui32>) -> tensor<2x2xui32> loc(#loc146)
    return %14 : tensor<2x2xui32> loc(#loc)
  } loc(#loc944)
  func.func private @threefry2x32(%arg0: tensor<ui32> loc(unknown), %arg1: tensor<ui32> loc(unknown), %arg2: tensor<2xui32> loc(unknown), %arg3: tensor<2xui32> loc(unknown)) -> (tensor<2xui32>, tensor<2xui32>) {
    %c = stablehlo.constant dense<1> : tensor<i32> loc(#loc)
    %c_0 = stablehlo.constant dense<5> : tensor<i32> loc(#loc)
    %c_1 = stablehlo.constant dense<0> : tensor<i32> loc(#loc)
    %c_2 = stablehlo.constant dense<466688986> : tensor<ui32> loc(#loc538)
    %c_3 = stablehlo.constant dense<[13, 15, 26, 6]> : tensor<4xui32> loc(#loc538)
    %c_4 = stablehlo.constant dense<[17, 29, 16, 24]> : tensor<4xui32> loc(#loc538)
    %0 = stablehlo.xor %arg0, %arg1 : tensor<ui32> loc(#loc148)
    %1 = stablehlo.xor %0, %c_2 : tensor<ui32> loc(#loc148)
    %2 = stablehlo.broadcast_in_dim %arg0, dims = [] : (tensor<ui32>) -> tensor<2xui32> loc(#loc149)
    %3 = stablehlo.add %arg2, %2 : tensor<2xui32> loc(#loc149)
    %4 = stablehlo.broadcast_in_dim %arg1, dims = [] : (tensor<ui32>) -> tensor<2xui32> loc(#loc149)
    %5 = stablehlo.add %arg3, %4 : tensor<2xui32> loc(#loc149)
    %6:9 = stablehlo.while(%iterArg = %c_1, %iterArg_5 = %c_1, %iterArg_6 = %3, %iterArg_7 = %5, %iterArg_8 = %arg1, %iterArg_9 = %1, %iterArg_10 = %arg0, %iterArg_11 = %c_3, %iterArg_12 = %c_4) : tensor<i32>, tensor<i32>, tensor<2xui32>, tensor<2xui32>, tensor<ui32>, tensor<ui32>, tensor<ui32>, tensor<4xui32>, tensor<4xui32>
    cond {
      %7 = stablehlo.compare LT, %iterArg, %c_0, SIGNED : (tensor<i32>, tensor<i32>) -> tensor<i1> loc(#loc151)
      stablehlo.return %7 : tensor<i1> loc(#loc150)
    } do {
      %7:8 = func.call @closed_call(%iterArg_5, %iterArg_6, %iterArg_7, %iterArg_8, %iterArg_9, %iterArg_10, %iterArg_11, %iterArg_12) : (tensor<i32>, tensor<2xui32>, tensor<2xui32>, tensor<ui32>, tensor<ui32>, tensor<ui32>, tensor<4xui32>, tensor<4xui32>) -> (tensor<i32>, tensor<2xui32>, tensor<2xui32>, tensor<ui32>, tensor<ui32>, tensor<ui32>, tensor<4xui32>, tensor<4xui32>) loc(#loc152)
      %8 = stablehlo.add %iterArg, %c : tensor<i32> loc(#loc153)
      stablehlo.return %8, %7#0, %7#1, %7#2, %7#3, %7#4, %7#5, %7#6, %7#7 : tensor<i32>, tensor<i32>, tensor<2xui32>, tensor<2xui32>, tensor<ui32>, tensor<ui32>, tensor<ui32>, tensor<4xui32>, tensor<4xui32> loc(#loc150)
    } loc(#loc150)
    return %6#2, %6#3 : tensor<2xui32>, tensor<2xui32> loc(#loc)
  } loc(#loc)
  func.func private @closed_call(%arg0: tensor<i32> loc(unknown), %arg1: tensor<2xui32> loc(unknown), %arg2: tensor<2xui32> loc(unknown), %arg3: tensor<ui32> loc(unknown), %arg4: tensor<ui32> loc(unknown), %arg5: tensor<ui32> loc(unknown), %arg6: tensor<4xui32> loc(unknown), %arg7: tensor<4xui32> loc(unknown)) -> (tensor<i32>, tensor<2xui32>, tensor<2xui32>, tensor<ui32>, tensor<ui32>, tensor<ui32>, tensor<4xui32>, tensor<4xui32>) {
    %c = stablehlo.constant dense<32> : tensor<ui32> loc(#loc)
    %c_0 = stablehlo.constant dense<1> : tensor<i32> loc(#loc)
    %0 = stablehlo.add %arg0, %c_0 : tensor<i32> loc(#loc149)
    %1 = stablehlo.slice %arg6 [0:1] : (tensor<4xui32>) -> tensor<1xui32> loc(#loc144)
    %2 = stablehlo.reshape %1 : (tensor<1xui32>) -> tensor<ui32> loc(#loc145)
    %3 = stablehlo.add %arg1, %arg2 : tensor<2xui32> loc(#loc149)
    %4 = stablehlo.broadcast_in_dim %2, dims = [] : (tensor<ui32>) -> tensor<2xui32> loc(#loc154)
    %5 = stablehlo.shift_left %arg2, %4 : tensor<2xui32> loc(#loc154)
    %6 = stablehlo.subtract %c, %2 : tensor<ui32> loc(#loc155)
    %7 = stablehlo.broadcast_in_dim %6, dims = [] : (tensor<ui32>) -> tensor<2xui32> loc(#loc156)
    %8 = stablehlo.shift_right_logical %arg2, %7 : tensor<2xui32> loc(#loc156)
    %9 = stablehlo.or %5, %8 : tensor<2xui32> loc(#loc157)
    %10 = stablehlo.xor %3, %9 : tensor<2xui32> loc(#loc148)
    %11 = stablehlo.slice %arg6 [1:2] : (tensor<4xui32>) -> tensor<1xui32> loc(#loc144)
    %12 = stablehlo.reshape %11 : (tensor<1xui32>) -> tensor<ui32> loc(#loc145)
    %13 = stablehlo.add %3, %10 : tensor<2xui32> loc(#loc149)
    %14 = stablehlo.broadcast_in_dim %12, dims = [] : (tensor<ui32>) -> tensor<2xui32> loc(#loc154)
    %15 = stablehlo.shift_left %10, %14 : tensor<2xui32> loc(#loc154)
    %16 = stablehlo.subtract %c, %12 : tensor<ui32> loc(#loc155)
    %17 = stablehlo.broadcast_in_dim %16, dims = [] : (tensor<ui32>) -> tensor<2xui32> loc(#loc156)
    %18 = stablehlo.shift_right_logical %10, %17 : tensor<2xui32> loc(#loc156)
    %19 = stablehlo.or %15, %18 : tensor<2xui32> loc(#loc157)
    %20 = stablehlo.xor %13, %19 : tensor<2xui32> loc(#loc148)
    %21 = stablehlo.slice %arg6 [2:3] : (tensor<4xui32>) -> tensor<1xui32> loc(#loc144)
    %22 = stablehlo.reshape %21 : (tensor<1xui32>) -> tensor<ui32> loc(#loc145)
    %23 = stablehlo.add %13, %20 : tensor<2xui32> loc(#loc149)
    %24 = stablehlo.broadcast_in_dim %22, dims = [] : (tensor<ui32>) -> tensor<2xui32> loc(#loc154)
    %25 = stablehlo.shift_left %20, %24 : tensor<2xui32> loc(#loc154)
    %26 = stablehlo.subtract %c, %22 : tensor<ui32> loc(#loc155)
    %27 = stablehlo.broadcast_in_dim %26, dims = [] : (tensor<ui32>) -> tensor<2xui32> loc(#loc156)
    %28 = stablehlo.shift_right_logical %20, %27 : tensor<2xui32> loc(#loc156)
    %29 = stablehlo.or %25, %28 : tensor<2xui32> loc(#loc157)
    %30 = stablehlo.xor %23, %29 : tensor<2xui32> loc(#loc148)
    %31 = stablehlo.slice %arg6 [3:4] : (tensor<4xui32>) -> tensor<1xui32> loc(#loc144)
    %32 = stablehlo.reshape %31 : (tensor<1xui32>) -> tensor<ui32> loc(#loc145)
    %33 = stablehlo.add %23, %30 : tensor<2xui32> loc(#loc149)
    %34 = stablehlo.broadcast_in_dim %32, dims = [] : (tensor<ui32>) -> tensor<2xui32> loc(#loc154)
    %35 = stablehlo.shift_left %30, %34 : tensor<2xui32> loc(#loc154)
    %36 = stablehlo.subtract %c, %32 : tensor<ui32> loc(#loc155)
    %37 = stablehlo.broadcast_in_dim %36, dims = [] : (tensor<ui32>) -> tensor<2xui32> loc(#loc156)
    %38 = stablehlo.shift_right_logical %30, %37 : tensor<2xui32> loc(#loc156)
    %39 = stablehlo.or %35, %38 : tensor<2xui32> loc(#loc157)
    %40 = stablehlo.xor %33, %39 : tensor<2xui32> loc(#loc148)
    %41 = stablehlo.broadcast_in_dim %arg3, dims = [] : (tensor<ui32>) -> tensor<2xui32> loc(#loc149)
    %42 = stablehlo.add %33, %41 : tensor<2xui32> loc(#loc149)
    %43 = stablehlo.broadcast_in_dim %arg4, dims = [] : (tensor<ui32>) -> tensor<2xui32> loc(#loc149)
    %44 = stablehlo.add %40, %43 : tensor<2xui32> loc(#loc149)
    %45 = stablehlo.add %arg0, %c_0 : tensor<i32> loc(#loc149)
    %46 = stablehlo.convert %45 : (tensor<i32>) -> tensor<ui32> loc(#loc158)
    %47 = stablehlo.broadcast_in_dim %46, dims = [] : (tensor<ui32>) -> tensor<2xui32> loc(#loc149)
    %48 = stablehlo.add %44, %47 : tensor<2xui32> loc(#loc149)
    return %0, %42, %48, %arg4, %arg5, %arg3, %arg7, %arg6 : tensor<i32>, tensor<2xui32>, tensor<2xui32>, tensor<ui32>, tensor<ui32>, tensor<ui32>, tensor<4xui32>, tensor<4xui32> loc(#loc)
  } loc(#loc539)
  func.func private @_threefry_split_0(%arg0: tensor<2xui32> loc(unknown)) -> tensor<16x2xui32> {
    %c = stablehlo.constant dense<32> : tensor<ui64> loc(#loc946)
    %c_0 = stablehlo.constant dense<1> : tensor<ui64> loc(#loc946)
    %0 = stablehlo.slice %arg0 [0:1] : (tensor<2xui32>) -> tensor<1xui32> loc(#loc947)
    %1 = stablehlo.reshape %0 : (tensor<1xui32>) -> tensor<ui32> loc(#loc948)
    %2 = stablehlo.slice %arg0 [1:2] : (tensor<2xui32>) -> tensor<1xui32> loc(#loc947)
    %3 = stablehlo.reshape %2 : (tensor<1xui32>) -> tensor<ui32> loc(#loc948)
    %4 = stablehlo.iota dim = 0 : tensor<16xui64> loc(#loc946)
    %5 = stablehlo.broadcast_in_dim %c_0, dims = [] : (tensor<ui64>) -> tensor<16xui64> loc(#loc946)
    %6 = stablehlo.multiply %5, %4 : tensor<16xui64> loc(#loc946)
    %7 = stablehlo.broadcast_in_dim %c, dims = [] : (tensor<ui64>) -> tensor<16xui64> loc(#loc946)
    %8 = stablehlo.shift_right_logical %6, %7 : tensor<16xui64> loc(#loc946)
    %9 = stablehlo.convert %6 : (tensor<16xui64>) -> tensor<16xui32> loc(#loc946)
    %10 = stablehlo.convert %8 : (tensor<16xui64>) -> tensor<16xui32> loc(#loc946)
    %11:2 = call @threefry2x32_1(%1, %3, %10, %9) : (tensor<ui32>, tensor<ui32>, tensor<16xui32>, tensor<16xui32>) -> (tensor<16xui32>, tensor<16xui32>) loc(#loc803)
    %12 = stablehlo.broadcast_in_dim %11#0, dims = [0] : (tensor<16xui32>) -> tensor<16x1xui32> loc(#loc949)
    %13 = stablehlo.broadcast_in_dim %11#1, dims = [0] : (tensor<16xui32>) -> tensor<16x1xui32> loc(#loc949)
    %14 = stablehlo.concatenate %12, %13, dim = 1 : (tensor<16x1xui32>, tensor<16x1xui32>) -> tensor<16x2xui32> loc(#loc949)
    return %14 : tensor<16x2xui32> loc(#loc)
  } loc(#loc1126)
  func.func private @threefry2x32_1(%arg0: tensor<ui32> loc(callsite(#loc468 at #loc466)), %arg1: tensor<ui32> loc(callsite(#loc468 at #loc466)), %arg2: tensor<16xui32> loc(callsite(#loc468 at #loc466)), %arg3: tensor<16xui32> loc(callsite(#loc468 at #loc466))) -> (tensor<16xui32>, tensor<16xui32>) {
    %c = stablehlo.constant dense<1> : tensor<i32> loc(#loc)
    %c_0 = stablehlo.constant dense<5> : tensor<i32> loc(#loc)
    %c_1 = stablehlo.constant dense<0> : tensor<i32> loc(#loc)
    %c_2 = stablehlo.constant dense<466688986> : tensor<ui32> loc(#loc538)
    %c_3 = stablehlo.constant dense<[13, 15, 26, 6]> : tensor<4xui32> loc(#loc538)
    %c_4 = stablehlo.constant dense<[17, 29, 16, 24]> : tensor<4xui32> loc(#loc538)
    %0 = stablehlo.xor %arg0, %arg1 : tensor<ui32> loc(#loc950)
    %1 = stablehlo.xor %0, %c_2 : tensor<ui32> loc(#loc950)
    %2 = stablehlo.broadcast_in_dim %arg0, dims = [] : (tensor<ui32>) -> tensor<16xui32> loc(#loc951)
    %3 = stablehlo.add %arg2, %2 : tensor<16xui32> loc(#loc951)
    %4 = stablehlo.broadcast_in_dim %arg1, dims = [] : (tensor<ui32>) -> tensor<16xui32> loc(#loc951)
    %5 = stablehlo.add %arg3, %4 : tensor<16xui32> loc(#loc951)
    %6:9 = stablehlo.while(%iterArg = %c_1, %iterArg_5 = %c_1, %iterArg_6 = %3, %iterArg_7 = %5, %iterArg_8 = %arg1, %iterArg_9 = %1, %iterArg_10 = %arg0, %iterArg_11 = %c_3, %iterArg_12 = %c_4) : tensor<i32>, tensor<i32>, tensor<16xui32>, tensor<16xui32>, tensor<ui32>, tensor<ui32>, tensor<ui32>, tensor<4xui32>, tensor<4xui32>
    cond {
      %7 = stablehlo.compare LT, %iterArg, %c_0, SIGNED : (tensor<i32>, tensor<i32>) -> tensor<i1> loc(#loc1303)
      stablehlo.return %7 : tensor<i1> loc(#loc1127)
    } do {
      %7:8 = func.call @closed_call_2(%iterArg_5, %iterArg_6, %iterArg_7, %iterArg_8, %iterArg_9, %iterArg_10, %iterArg_11, %iterArg_12) : (tensor<i32>, tensor<16xui32>, tensor<16xui32>, tensor<ui32>, tensor<ui32>, tensor<ui32>, tensor<4xui32>, tensor<4xui32>) -> (tensor<i32>, tensor<16xui32>, tensor<16xui32>, tensor<ui32>, tensor<ui32>, tensor<ui32>, tensor<4xui32>, tensor<4xui32>) loc(#loc1304)
      %8 = stablehlo.add %iterArg, %c : tensor<i32> loc(#loc1305)
      stablehlo.return %8, %7#0, %7#1, %7#2, %7#3, %7#4, %7#5, %7#6, %7#7 : tensor<i32>, tensor<i32>, tensor<16xui32>, tensor<16xui32>, tensor<ui32>, tensor<ui32>, tensor<ui32>, tensor<4xui32>, tensor<4xui32> loc(#loc1127)
    } loc(#loc1127)
    return %6#2, %6#3 : tensor<16xui32>, tensor<16xui32> loc(#loc803)
  } loc(#loc803)
  func.func private @closed_call_2(%arg0: tensor<i32> loc(unknown), %arg1: tensor<16xui32> loc(unknown), %arg2: tensor<16xui32> loc(unknown), %arg3: tensor<ui32> loc(unknown), %arg4: tensor<ui32> loc(unknown), %arg5: tensor<ui32> loc(unknown), %arg6: tensor<4xui32> loc(unknown), %arg7: tensor<4xui32> loc(unknown)) -> (tensor<i32>, tensor<16xui32>, tensor<16xui32>, tensor<ui32>, tensor<ui32>, tensor<ui32>, tensor<4xui32>, tensor<4xui32>) {
    %c = stablehlo.constant dense<32> : tensor<ui32> loc(#loc)
    %c_0 = stablehlo.constant dense<1> : tensor<i32> loc(#loc)
    %0 = stablehlo.add %arg0, %c_0 : tensor<i32> loc(#loc149)
    %1 = stablehlo.slice %arg6 [0:1] : (tensor<4xui32>) -> tensor<1xui32> loc(#loc144)
    %2 = stablehlo.reshape %1 : (tensor<1xui32>) -> tensor<ui32> loc(#loc145)
    %3 = stablehlo.add %arg1, %arg2 : tensor<16xui32> loc(#loc149)
    %4 = stablehlo.broadcast_in_dim %2, dims = [] : (tensor<ui32>) -> tensor<16xui32> loc(#loc154)
    %5 = stablehlo.shift_left %arg2, %4 : tensor<16xui32> loc(#loc154)
    %6 = stablehlo.subtract %c, %2 : tensor<ui32> loc(#loc155)
    %7 = stablehlo.broadcast_in_dim %6, dims = [] : (tensor<ui32>) -> tensor<16xui32> loc(#loc156)
    %8 = stablehlo.shift_right_logical %arg2, %7 : tensor<16xui32> loc(#loc156)
    %9 = stablehlo.or %5, %8 : tensor<16xui32> loc(#loc157)
    %10 = stablehlo.xor %3, %9 : tensor<16xui32> loc(#loc148)
    %11 = stablehlo.slice %arg6 [1:2] : (tensor<4xui32>) -> tensor<1xui32> loc(#loc144)
    %12 = stablehlo.reshape %11 : (tensor<1xui32>) -> tensor<ui32> loc(#loc145)
    %13 = stablehlo.add %3, %10 : tensor<16xui32> loc(#loc149)
    %14 = stablehlo.broadcast_in_dim %12, dims = [] : (tensor<ui32>) -> tensor<16xui32> loc(#loc154)
    %15 = stablehlo.shift_left %10, %14 : tensor<16xui32> loc(#loc154)
    %16 = stablehlo.subtract %c, %12 : tensor<ui32> loc(#loc155)
    %17 = stablehlo.broadcast_in_dim %16, dims = [] : (tensor<ui32>) -> tensor<16xui32> loc(#loc156)
    %18 = stablehlo.shift_right_logical %10, %17 : tensor<16xui32> loc(#loc156)
    %19 = stablehlo.or %15, %18 : tensor<16xui32> loc(#loc157)
    %20 = stablehlo.xor %13, %19 : tensor<16xui32> loc(#loc148)
    %21 = stablehlo.slice %arg6 [2:3] : (tensor<4xui32>) -> tensor<1xui32> loc(#loc144)
    %22 = stablehlo.reshape %21 : (tensor<1xui32>) -> tensor<ui32> loc(#loc145)
    %23 = stablehlo.add %13, %20 : tensor<16xui32> loc(#loc149)
    %24 = stablehlo.broadcast_in_dim %22, dims = [] : (tensor<ui32>) -> tensor<16xui32> loc(#loc154)
    %25 = stablehlo.shift_left %20, %24 : tensor<16xui32> loc(#loc154)
    %26 = stablehlo.subtract %c, %22 : tensor<ui32> loc(#loc155)
    %27 = stablehlo.broadcast_in_dim %26, dims = [] : (tensor<ui32>) -> tensor<16xui32> loc(#loc156)
    %28 = stablehlo.shift_right_logical %20, %27 : tensor<16xui32> loc(#loc156)
    %29 = stablehlo.or %25, %28 : tensor<16xui32> loc(#loc157)
    %30 = stablehlo.xor %23, %29 : tensor<16xui32> loc(#loc148)
    %31 = stablehlo.slice %arg6 [3:4] : (tensor<4xui32>) -> tensor<1xui32> loc(#loc144)
    %32 = stablehlo.reshape %31 : (tensor<1xui32>) -> tensor<ui32> loc(#loc145)
    %33 = stablehlo.add %23, %30 : tensor<16xui32> loc(#loc149)
    %34 = stablehlo.broadcast_in_dim %32, dims = [] : (tensor<ui32>) -> tensor<16xui32> loc(#loc154)
    %35 = stablehlo.shift_left %30, %34 : tensor<16xui32> loc(#loc154)
    %36 = stablehlo.subtract %c, %32 : tensor<ui32> loc(#loc155)
    %37 = stablehlo.broadcast_in_dim %36, dims = [] : (tensor<ui32>) -> tensor<16xui32> loc(#loc156)
    %38 = stablehlo.shift_right_logical %30, %37 : tensor<16xui32> loc(#loc156)
    %39 = stablehlo.or %35, %38 : tensor<16xui32> loc(#loc157)
    %40 = stablehlo.xor %33, %39 : tensor<16xui32> loc(#loc148)
    %41 = stablehlo.broadcast_in_dim %arg3, dims = [] : (tensor<ui32>) -> tensor<16xui32> loc(#loc149)
    %42 = stablehlo.add %33, %41 : tensor<16xui32> loc(#loc149)
    %43 = stablehlo.broadcast_in_dim %arg4, dims = [] : (tensor<ui32>) -> tensor<16xui32> loc(#loc149)
    %44 = stablehlo.add %40, %43 : tensor<16xui32> loc(#loc149)
    %45 = stablehlo.add %arg0, %c_0 : tensor<i32> loc(#loc149)
    %46 = stablehlo.convert %45 : (tensor<i32>) -> tensor<ui32> loc(#loc158)
    %47 = stablehlo.broadcast_in_dim %46, dims = [] : (tensor<ui32>) -> tensor<16xui32> loc(#loc149)
    %48 = stablehlo.add %44, %47 : tensor<16xui32> loc(#loc149)
    return %0, %42, %48, %arg4, %arg5, %arg3, %arg7, %arg6 : tensor<i32>, tensor<16xui32>, tensor<16xui32>, tensor<ui32>, tensor<ui32>, tensor<ui32>, tensor<4xui32>, tensor<4xui32> loc(#loc)
  } loc(#loc1129)
  func.func private @dynamic_index_in_dim(%arg0: tensor<16x2xui32> loc(unknown), %arg1: tensor<i32> loc(unknown)) -> tensor<2xui32> {
    %c = stablehlo.constant dense<0> : tensor<i32> loc(#loc)
    %0 = stablehlo.dynamic_slice %arg0, %arg1, %c, sizes = [1, 2] : (tensor<16x2xui32>, tensor<i32>, tensor<i32>) -> tensor<1x2xui32> loc(#loc955)
    %1 = stablehlo.reshape %0 : (tensor<1x2xui32>) -> tensor<2xui32> loc(#loc956)
    return %1 : tensor<2xui32> loc(#loc)
  } loc(#loc1130)
  func.func private @closed_call_3(%arg0: tensor<33x16xf32> loc(unknown), %arg1: tensor<16x33xf32> loc(unknown), %arg2: tensor<1xf32> loc(unknown), %arg3: tensor<16x1xf32> loc(unknown), %arg4: tensor<16xf32> loc(unknown), %arg5: tensor<16x16xf32> loc(unknown), %arg6: tensor<2x8xf32> loc(unknown), %arg7: tensor<16x2x8xf32> loc(unknown), %arg8: tensor<16xf32> loc(unknown), %arg9: tensor<2x8x16xf32> loc(unknown), %arg10: tensor<2x8xf32> loc(unknown), %arg11: tensor<16x2x8xf32> loc(unknown), %arg12: tensor<2x8xf32> loc(unknown), %arg13: tensor<16x2x8xf32> loc(unknown), %arg14: tensor<i32> loc(unknown), %arg15: tensor<33x16xf32> loc(unknown), %arg16: tensor<16x33xf32> loc(unknown), %arg17: tensor<1xf32> loc(unknown), %arg18: tensor<16x1xf32> loc(unknown), %arg19: tensor<16xf32> loc(unknown), %arg20: tensor<16x16xf32> loc(unknown), %arg21: tensor<2x8xf32> loc(unknown), %arg22: tensor<16x2x8xf32> loc(unknown), %arg23: tensor<16xf32> loc(unknown), %arg24: tensor<2x8x16xf32> loc(unknown), %arg25: tensor<2x8xf32> loc(unknown), %arg26: tensor<16x2x8xf32> loc(unknown), %arg27: tensor<2x8xf32> loc(unknown), %arg28: tensor<16x2x8xf32> loc(unknown), %arg29: tensor<33x16xf32> loc(unknown), %arg30: tensor<16x33xf32> loc(unknown), %arg31: tensor<1xf32> loc(unknown), %arg32: tensor<16x1xf32> loc(unknown), %arg33: tensor<16xf32> loc(unknown), %arg34: tensor<16x16xf32> loc(unknown), %arg35: tensor<2x8xf32> loc(unknown), %arg36: tensor<16x2x8xf32> loc(unknown), %arg37: tensor<16xf32> loc(unknown), %arg38: tensor<2x8x16xf32> loc(unknown), %arg39: tensor<2x8xf32> loc(unknown), %arg40: tensor<16x2x8xf32> loc(unknown), %arg41: tensor<2x8xf32> loc(unknown), %arg42: tensor<16x2x8xf32> loc(unknown), %arg43: tensor<16xi32> loc(unknown), %arg44: tensor<16x5xi32> loc(unknown), %arg45: tensor<i32> loc(unknown), %arg46: tensor<16x5xi32> loc(unknown), %arg47: tensor<16xi32> loc(unknown), %arg48: tensor<16xf32> loc(unknown), %arg49: tensor<16xi1> loc(unknown), %arg50: tensor<16xi1> loc(unknown), %arg51: tensor<16xf32> loc(unknown), %arg52: tensor<16xf32> loc(unknown), %arg53: tensor<16xf32> loc(unknown), %arg54: tensor<16xf32> loc(unknown), %arg55: tensor<16x5xi32> loc(unknown), %arg56: tensor<16x5xi32> loc(unknown), %arg57: tensor<16xi1> loc(unknown), %arg58: tensor<16xi32> loc(unknown), %arg59: tensor<16xi1> loc(unknown), %arg60: tensor<16xi1> loc(unknown), %arg61: tensor<16x5xi32> loc(unknown), %arg62: tensor<16xi32> loc(unknown), %arg63: tensor<16x96xi32> loc(unknown), %arg64: tensor<16x96x2x8xf32> loc(unknown), %arg65: tensor<16x96x2x8xf32> loc(unknown), %arg66: tensor<2xui32> loc(unknown)) -> (tensor<i32>, tensor<16x5xi32>, tensor<16xi32>, tensor<16xf32>, tensor<16xi1>, tensor<16xi1>, tensor<16xf32>, tensor<16xf32>, tensor<16xf32>, tensor<16xf32>, tensor<16x5xi32>, tensor<16x5xi32>, tensor<16xi1>, tensor<16xi32>, tensor<16xi1>, tensor<16xi1>, tensor<16x5xi32>, tensor<16xi32>, tensor<16x96xi32>, tensor<16x96x2x8xf32>, tensor<16x96x2x8xf32>, tensor<16x5xi32>, tensor<16xi32>, tensor<16xf32>, tensor<16xi1>, tensor<16xi1>, tensor<16xf32>, tensor<16xf32>, tensor<16xf32>, tensor<16xf32>, tensor<16x5xi32>, tensor<16xi32>, tensor<16xf32>, tensor<16xi1>, tensor<16xi1>, tensor<16xf32>, tensor<16xf32>, tensor<16xf32>, tensor<16xf32>, tensor<16xf32>, tensor<16xf32>) {
    %c = stablehlo.constant dense<28> : tensor<i32> loc(#loc)
    %c_0 = stablehlo.constant dense<29> : tensor<i32> loc(#loc)
    %c_1 = stablehlo.constant dense<6> : tensor<i32> loc(#loc)
    %c_2 = stablehlo.constant dense<2> : tensor<i32> loc(#loc)
    %c_3 = stablehlo.constant dense<16> : tensor<i32> loc(#loc)
    %c_4 = stablehlo.constant dense<15> : tensor<i32> loc(#loc)
    %c_5 = stablehlo.constant dense<1> : tensor<i32> loc(#loc)
    %c_6 = stablehlo.constant dense<4> : tensor<i32> loc(#loc)
    %c_7 = stablehlo.constant dense<5> : tensor<i32> loc(#loc)
    %c_8 = stablehlo.constant dense<27> : tensor<i32> loc(#loc)
    %c_9 = stablehlo.constant dense<26> : tensor<i32> loc(#loc)
    %cst = stablehlo.constant dense<1.000000e+00> : tensor<f32> loc(#loc)
    %c_10 = stablehlo.constant dense<32> : tensor<i32> loc(#loc)
    %cst_11 = stablehlo.constant dense<0.000000e+00> : tensor<f32> loc(#loc)
    %cst_12 = stablehlo.constant dense<0xFF800000> : tensor<f32> loc(#loc)
    %cst_13 = stablehlo.constant dense<-2.38197633E+38> : tensor<f32> loc(#loc)
    %c_14 = stablehlo.constant dense<true> : tensor<i1> loc(#loc)
    %cst_15 = stablehlo.constant dense<0.353553385> : tensor<f32> loc(#loc)
    %c_16 = stablehlo.constant dense<0> : tensor<i32> loc(#loc)
    %c_17 = stablehlo.constant dense<false> : tensor<i1> loc(#loc)
    %0 = call @_threefry_split(%arg66) : (tensor<2xui32>) -> tensor<2x2xui32> loc(#loc958)
    %1 = stablehlo.slice %0 [0:1, 0:2] : (tensor<2x2xui32>) -> tensor<1x2xui32> loc(#loc811)
    %2 = stablehlo.reshape %1 : (tensor<1x2xui32>) -> tensor<2xui32> loc(#loc812)
    %3 = stablehlo.slice %0 [1:2, 0:2] : (tensor<2x2xui32>) -> tensor<1x2xui32> loc(#loc811)
    %4 = stablehlo.reshape %3 : (tensor<1x2xui32>) -> tensor<2xui32> loc(#loc812)
    %5 = stablehlo.broadcast_in_dim %arg46, dims = [0, 2] : (tensor<16x5xi32>) -> tensor<16x1x5xi32> loc(#loc1132)
    %6 = stablehlo.broadcast_in_dim %arg47, dims = [0] : (tensor<16xi32>) -> tensor<16x1xi32> loc(#loc1132)
    %7 = stablehlo.broadcast_in_dim %arg49, dims = [0] : (tensor<16xi1>) -> tensor<16x1xi1> loc(#loc1132)
    %8 = stablehlo.broadcast_in_dim %arg50, dims = [0] : (tensor<16xi1>) -> tensor<16x1xi1> loc(#loc1132)
    %9 = stablehlo.or %7, %8 : tensor<16x1xi1> loc(#loc960)
    %10 = call @_take(%arg0, %6) : (tensor<33x16xf32>, tensor<16x1xi32>) -> tensor<16x1x16xf32> loc(#loc1306)
    %11 = stablehlo.broadcast_in_dim %10, dims = [0, 1, 3] : (tensor<16x1x16xf32>) -> tensor<16x1x1x16xf32> loc(#loc1134)
    %12 = call @_take_4(%arg0, %5) : (tensor<33x16xf32>, tensor<16x1x5xi32>) -> tensor<16x1x5x16xf32> loc(#loc1307)
    %13 = stablehlo.concatenate %11, %12, dim = 2 : (tensor<16x1x1x16xf32>, tensor<16x1x5x16xf32>) -> tensor<16x1x6x16xf32> loc(#loc1136)
    %14 = stablehlo.reshape %13 : (tensor<16x1x6x16xf32>) -> tensor<16x6x16xf32> loc(#loc1137)
    %15 = stablehlo.broadcast_in_dim %c_17, dims = [] : (tensor<i1>) -> tensor<16x1x6xi1> loc(#loc1138)
    %16 = stablehlo.broadcast_in_dim %c_16, dims = [] : (tensor<i32>) -> tensor<1xi32> loc(#loc1139)
    %17 = "stablehlo.scatter"(%15, %16, %9) <{indices_are_sorted = true, scatter_dimension_numbers = #stablehlo.scatter<update_window_dims = [0, 1], inserted_window_dims = [2], scatter_dims_to_operand_dims = [2]>, unique_indices = true}> ({
    ^bb0(%arg67: tensor<i1> loc("scatter:"(#loc91)), %arg68: tensor<i1> loc("scatter:"(#loc91))):
      stablehlo.return %arg68 : tensor<i1> loc(#loc1140)
    }) : (tensor<16x1x6xi1>, tensor<1xi32>, tensor<16x1xi1>) -> tensor<16x1x6xi1> loc(#loc1140)
    %18 = stablehlo.reshape %17 : (tensor<16x1x6xi1>) -> tensor<16x6xi1> loc(#loc1141)
    %19 = stablehlo.dot_general %14, %arg5, contracting_dims = [2] x [0] : (tensor<16x6x16xf32>, tensor<16x16xf32>) -> tensor<16x6x16xf32> loc(#loc2089)
    %20 = stablehlo.reshape %arg4 : (tensor<16xf32>) -> tensor<1x1x16xf32> loc(#loc2090)
    %21 = stablehlo.broadcast_in_dim %20, dims = [0, 1, 2] : (tensor<1x1x16xf32>) -> tensor<16x6x16xf32> loc(#loc2091)
    %22 = stablehlo.add %19, %21 : tensor<16x6x16xf32> loc(#loc2091)
    %23 = call @relu(%22) : (tensor<16x6x16xf32>) -> tensor<16x6x16xf32> loc(#loc1820)
    %24 = stablehlo.dot_general %23, %arg11, contracting_dims = [2] x [0] : (tensor<16x6x16xf32>, tensor<16x2x8xf32>) -> tensor<16x6x2x8xf32> loc(#loc2092)
    %25 = stablehlo.reshape %arg10 : (tensor<2x8xf32>) -> tensor<1x1x2x8xf32> loc(#loc2093)
    %26 = stablehlo.broadcast_in_dim %25, dims = [0, 1, 2, 3] : (tensor<1x1x2x8xf32>) -> tensor<16x6x2x8xf32> loc(#loc2094)
    %27 = stablehlo.add %24, %26 : tensor<16x6x2x8xf32> loc(#loc2094)
    %28 = stablehlo.dot_general %23, %arg7, contracting_dims = [2] x [0] : (tensor<16x6x16xf32>, tensor<16x2x8xf32>) -> tensor<16x6x2x8xf32> loc(#loc2095)
    %29 = stablehlo.reshape %arg6 : (tensor<2x8xf32>) -> tensor<1x1x2x8xf32> loc(#loc2096)
    %30 = stablehlo.broadcast_in_dim %29, dims = [0, 1, 2, 3] : (tensor<1x1x2x8xf32>) -> tensor<16x6x2x8xf32> loc(#loc2097)
    %31 = stablehlo.add %28, %30 : tensor<16x6x2x8xf32> loc(#loc2097)
    %32 = stablehlo.concatenate %arg64, %31, dim = 1 : (tensor<16x96x2x8xf32>, tensor<16x6x2x8xf32>) -> tensor<16x102x2x8xf32> loc(#loc1827)
    %33 = stablehlo.slice %32 [0:16, 6:102, 0:2, 0:8] : (tensor<16x102x2x8xf32>) -> tensor<16x96x2x8xf32> loc(#loc1828)
    %34 = stablehlo.dot_general %23, %arg13, contracting_dims = [2] x [0] : (tensor<16x6x16xf32>, tensor<16x2x8xf32>) -> tensor<16x6x2x8xf32> loc(#loc2098)
    %35 = stablehlo.reshape %arg12 : (tensor<2x8xf32>) -> tensor<1x1x2x8xf32> loc(#loc2099)
    %36 = stablehlo.broadcast_in_dim %35, dims = [0, 1, 2, 3] : (tensor<1x1x2x8xf32>) -> tensor<16x6x2x8xf32> loc(#loc2100)
    %37 = stablehlo.add %34, %36 : tensor<16x6x2x8xf32> loc(#loc2100)
    %38 = stablehlo.concatenate %arg65, %37, dim = 1 : (tensor<16x96x2x8xf32>, tensor<16x6x2x8xf32>) -> tensor<16x102x2x8xf32> loc(#loc1832)
    %39 = stablehlo.slice %38 [0:16, 6:102, 0:2, 0:8] : (tensor<16x102x2x8xf32>) -> tensor<16x96x2x8xf32> loc(#loc1833)
    %40 = stablehlo.convert %18 : (tensor<16x6xi1>) -> tensor<16x6xi32> loc(#loc2101)
    %41 = stablehlo.concatenate %arg63, %40, dim = 1 : (tensor<16x96xi32>, tensor<16x6xi32>) -> tensor<16x102xi32> loc(#loc2102)
    %42 = call @cumsum(%41) : (tensor<16x102xi32>) -> tensor<16x102xi32> loc(#loc2103)
    %43 = stablehlo.slice %42 [0:16, 96:102] : (tensor<16x102xi32>) -> tensor<16x6xi32> loc(#loc2104)
    %44 = stablehlo.broadcast_in_dim %43, dims = [0, 1] : (tensor<16x6xi32>) -> tensor<16x6x1xi32> loc(#loc2105)
    %45 = stablehlo.slice %42 [0:16, 6:102] : (tensor<16x102xi32>) -> tensor<16x96xi32> loc(#loc2106)
    %46 = stablehlo.broadcast_in_dim %45, dims = [0, 2] : (tensor<16x96xi32>) -> tensor<16x1x96xi32> loc(#loc2107)
    %47 = stablehlo.broadcast_in_dim %44, dims = [0, 1, 2] : (tensor<16x6x1xi32>) -> tensor<16x6x96xi32> loc(#loc2108)
    %48 = stablehlo.broadcast_in_dim %46, dims = [0, 1, 2] : (tensor<16x1x96xi32>) -> tensor<16x6x96xi32> loc(#loc2108)
    %49 = stablehlo.compare EQ, %47, %48, SIGNED : (tensor<16x6x96xi32>, tensor<16x6x96xi32>) -> tensor<16x6x96xi1> loc(#loc2108)
    %50 = stablehlo.iota dim = 0 : tensor<102xi32> loc(#loc2109)
    %51 = stablehlo.slice %50 [96:102] : (tensor<102xi32>) -> tensor<6xi32> loc(#loc2110)
    %52 = stablehlo.broadcast_in_dim %51, dims = [0] : (tensor<6xi32>) -> tensor<6x1xi32> loc(#loc2111)
    %53 = stablehlo.slice %50 [6:102] : (tensor<102xi32>) -> tensor<96xi32> loc(#loc2112)
    %54 = stablehlo.broadcast_in_dim %53, dims = [1] : (tensor<96xi32>) -> tensor<1x96xi32> loc(#loc2113)
    %55 = stablehlo.broadcast_in_dim %52, dims = [0, 1] : (tensor<6x1xi32>) -> tensor<6x96xi32> loc(#loc2114)
    %56 = stablehlo.broadcast_in_dim %54, dims = [0, 1] : (tensor<1x96xi32>) -> tensor<6x96xi32> loc(#loc2114)
    %57 = stablehlo.compare GE, %55, %56, SIGNED : (tensor<6x96xi32>, tensor<6x96xi32>) -> tensor<6x96xi1> loc(#loc2114)
    %58 = stablehlo.broadcast_in_dim %57, dims = [1, 2] : (tensor<6x96xi1>) -> tensor<1x6x96xi1> loc(#loc2115)
    %59 = stablehlo.broadcast_in_dim %58, dims = [0, 1, 2] : (tensor<1x6x96xi1>) -> tensor<16x6x96xi1> loc(#loc2116)
    %60 = stablehlo.and %49, %59 : tensor<16x6x96xi1> loc(#loc2116)
    %61 = stablehlo.broadcast_in_dim %60, dims = [0, 2, 3] : (tensor<16x6x96xi1>) -> tensor<16x1x6x96xi1> loc(#loc2117)
    %62 = stablehlo.reshape %27 : (tensor<16x6x2x8xf32>) -> tensor<16x6x2x1x8xf32> loc(#loc1845)
    %63 = stablehlo.broadcast_in_dim %61, dims = [0, 1, 3, 4] : (tensor<16x1x6x96xi1>) -> tensor<16x1x1x6x96xi1> loc(#loc1846)
    %64 = stablehlo.dot_general %62, %33, batching_dims = [0, 2] x [0, 2], contracting_dims = [4] x [3] : (tensor<16x6x2x1x8xf32>, tensor<16x96x2x8xf32>) -> tensor<16x2x6x1x96xf32> loc(#loc1847)
    %65 = stablehlo.broadcast_in_dim %cst_15, dims = [] : (tensor<f32>) -> tensor<16x2x6x1x96xf32> loc(#loc1848)
    %66 = stablehlo.multiply %64, %65 : tensor<16x2x6x1x96xf32> loc(#loc1848)
    %67 = stablehlo.broadcast_in_dim %c_14, dims = [] : (tensor<i1>) -> tensor<16x2x6x96xi1> loc(#loc1849)
    %68 = stablehlo.broadcast_in_dim %67, dims = [1, 2, 3, 4] : (tensor<16x2x6x96xi1>) -> tensor<1x16x2x6x96xi1> loc(#loc1849)
    %69 = stablehlo.transpose %63, dims = [2, 0, 1, 3, 4] : (tensor<16x1x1x6x96xi1>) -> tensor<1x16x1x6x96xi1> loc(#loc1850)
    %70 = stablehlo.broadcast_in_dim %69, dims = [0, 1, 2, 3, 4] : (tensor<1x16x1x6x96xi1>) -> tensor<1x16x2x6x96xi1> loc(#loc1851)
    %71 = stablehlo.and %68, %70 : tensor<1x16x2x6x96xi1> loc(#loc1851)
    %72 = call @_where_7(%71, %66, %cst_13) : (tensor<1x16x2x6x96xi1>, tensor<16x2x6x1x96xf32>, tensor<f32>) -> tensor<1x16x2x6x96xf32> loc(#loc1852)
    %73 = stablehlo.reduce(%72 init: %cst_12) applies stablehlo.maximum across dimensions = [4] : (tensor<1x16x2x6x96xf32>, tensor<f32>) -> tensor<1x16x2x6xf32> loc(#loc1853)
    %74 = stablehlo.broadcast_in_dim %cst_12, dims = [] : (tensor<f32>) -> tensor<1x16x2x6xf32> loc(#loc1854)
    %75 = stablehlo.maximum %74, %73 : tensor<1x16x2x6xf32> loc(#loc1854)
    %76 = stablehlo.broadcast_in_dim %75, dims = [0, 1, 2, 3] : (tensor<1x16x2x6xf32>) -> tensor<1x16x2x6x1xf32> loc(#loc1849)
    %77 = stablehlo.broadcast_in_dim %76, dims = [0, 1, 2, 3, 4] : (tensor<1x16x2x6x1xf32>) -> tensor<1x16x2x6x96xf32> loc(#loc1855)
    %78 = stablehlo.subtract %72, %77 : tensor<1x16x2x6x96xf32> loc(#loc1855)
    %79 = stablehlo.exponential %78 : tensor<1x16x2x6x96xf32> loc(#loc1856)
    %80 = stablehlo.reduce(%79 init: %cst_11) applies stablehlo.add across dimensions = [4] : (tensor<1x16x2x6x96xf32>, tensor<f32>) -> tensor<1x16x2x6xf32> loc(#loc1857)
    %81 = stablehlo.broadcast_in_dim %80, dims = [0, 1, 2, 3] : (tensor<1x16x2x6xf32>) -> tensor<1x16x2x6x1xf32> loc(#loc1849)
    %82 = stablehlo.broadcast_in_dim %81, dims = [0, 1, 2, 3, 4] : (tensor<1x16x2x6x1xf32>) -> tensor<1x16x2x6x96xf32> loc(#loc1858)
    %83 = stablehlo.divide %79, %82 : tensor<1x16x2x6x96xf32> loc(#loc1858)
    %84 = stablehlo.dot_general %39, %83, batching_dims = [0, 2] x [1, 2], contracting_dims = [1] x [4] : (tensor<16x96x2x8xf32>, tensor<1x16x2x6x96xf32>) -> tensor<16x2x8x1x6xf32> loc(#loc1859)
    %85 = stablehlo.transpose %84, dims = [3, 0, 4, 1, 2] : (tensor<16x2x8x1x6xf32>) -> tensor<1x16x6x2x8xf32> loc(#loc1860)
    %86 = stablehlo.transpose %85, dims = [1, 2, 3, 0, 4] : (tensor<1x16x6x2x8xf32>) -> tensor<16x6x2x1x8xf32> loc(#loc1850)
    %87 = stablehlo.reshape %86 : (tensor<16x6x2x1x8xf32>) -> tensor<16x6x2x8xf32> loc(#loc1845)
    %88 = stablehlo.dot_general %87, %arg9, contracting_dims = [2, 3] x [0, 1] : (tensor<16x6x2x8xf32>, tensor<2x8x16xf32>) -> tensor<16x6x16xf32> loc(#loc2118)
    %89 = stablehlo.reshape %arg8 : (tensor<16xf32>) -> tensor<1x1x16xf32> loc(#loc2119)
    %90 = stablehlo.broadcast_in_dim %89, dims = [0, 1, 2] : (tensor<1x1x16xf32>) -> tensor<16x6x16xf32> loc(#loc2120)
    %91 = stablehlo.add %88, %90 : tensor<16x6x16xf32> loc(#loc2120)
    %92 = stablehlo.convert %18 : (tensor<16x6xi1>) -> tensor<16x6xi32> loc(#loc1864)
    %93 = stablehlo.concatenate %arg63, %92, dim = 1 : (tensor<16x96xi32>, tensor<16x6xi32>) -> tensor<16x102xi32> loc(#loc1865)
    %94 = stablehlo.slice %93 [0:16, 6:102] : (tensor<16x102xi32>) -> tensor<16x96xi32> loc(#loc1866)
    %95 = stablehlo.reshape %91 : (tensor<16x6x16xf32>) -> tensor<16x1x6x16xf32> loc(#loc1143)
    %96 = stablehlo.slice %95 [0:16, 0:1, 5:6, 0:16] : (tensor<16x1x6x16xf32>) -> tensor<16x1x1x16xf32> loc(#loc1144)
    %97 = stablehlo.reshape %96 : (tensor<16x1x1x16xf32>) -> tensor<16x1x16xf32> loc(#loc1145)
    %98 = stablehlo.dot_general %97, %arg1, contracting_dims = [2] x [0] : (tensor<16x1x16xf32>, tensor<16x33xf32>) -> tensor<16x1x33xf32> loc(#loc1309)
    %99 = stablehlo.dot_general %97, %arg3, contracting_dims = [2] x [0] : (tensor<16x1x16xf32>, tensor<16x1xf32>) -> tensor<16x1x1xf32> loc(#loc1310)
    %100 = stablehlo.reshape %arg2 : (tensor<1xf32>) -> tensor<1x1x1xf32> loc(#loc1311)
    %101 = stablehlo.broadcast_in_dim %100, dims = [0, 1, 2] : (tensor<1x1x1xf32>) -> tensor<16x1x1xf32> loc(#loc1312)
    %102 = stablehlo.add %99, %101 : tensor<16x1x1xf32> loc(#loc1312)
    %103 = call @log_softmax(%98) : (tensor<16x1x33xf32>) -> tensor<16x1x33xf32> loc(#loc1571)
    %104 = call @_gumbel(%2) : (tensor<2xui32>) -> tensor<1x16x1x33xf32> loc(#loc1867)
    %105 = stablehlo.broadcast_in_dim %cst, dims = [] : (tensor<f32>) -> tensor<1x16x1x33xf32> loc(#loc1868)
    %106 = stablehlo.multiply %105, %104 : tensor<1x16x1x33xf32> loc(#loc1868)
    %107 = stablehlo.broadcast_in_dim %103, dims = [1, 2, 3] : (tensor<16x1x33xf32>) -> tensor<1x16x1x33xf32> loc(#loc1869)
    %108 = stablehlo.add %107, %106 : tensor<1x16x1x33xf32> loc(#loc1870)
    %109 = call @argmax(%108) : (tensor<1x16x1x33xf32>) -> tensor<1x16x1xi32> loc(#loc1575)
    %110 = call @_one_hot(%109) : (tensor<1x16x1xi32>) -> tensor<1x16x1x33xf32> loc(#loc1871)
    %111 = stablehlo.broadcast_in_dim %c_16, dims = [] : (tensor<i32>) -> tensor<1x16x1xi32> loc(#loc1872)
    %112 = stablehlo.compare LT, %109, %111, SIGNED : (tensor<1x16x1xi32>, tensor<1x16x1xi32>) -> tensor<1x16x1xi1> loc(#loc1872)
    %113 = stablehlo.broadcast_in_dim %c_10, dims = [] : (tensor<i32>) -> tensor<1x16x1xi32> loc(#loc1873)
    %114 = stablehlo.compare GT, %109, %113, SIGNED : (tensor<1x16x1xi32>, tensor<1x16x1xi32>) -> tensor<1x16x1xi1> loc(#loc1873)
    %115 = stablehlo.or %112, %114 : tensor<1x16x1xi1> loc(#loc1874)
    %116 = stablehlo.broadcast_in_dim %cst_11, dims = [] : (tensor<f32>) -> tensor<1x16x1x33xf32> loc(#loc2121)
    %117 = stablehlo.compare EQ, %110, %116, FLOAT : (tensor<1x16x1x33xf32>, tensor<1x16x1x33xf32>) -> tensor<1x16x1x33xi1> loc(#loc2121)
    %118 = stablehlo.broadcast_in_dim %103, dims = [1, 2, 3] : (tensor<16x1x33xf32>) -> tensor<1x16x1x33xf32> loc(#loc2122)
    %119 = stablehlo.multiply %118, %110 : tensor<1x16x1x33xf32> loc(#loc2123)
    %120 = call @_where_10(%117, %cst_11, %119) : (tensor<1x16x1x33xi1>, tensor<f32>, tensor<1x16x1x33xf32>) -> tensor<1x16x1x33xf32> loc(#loc2124)
    %121 = stablehlo.reduce(%120 init: %cst_11) applies stablehlo.add across dimensions = [3] : (tensor<1x16x1x33xf32>, tensor<f32>) -> tensor<1x16x1xf32> loc(#loc1878)
    %122 = call @_where_11(%115, %cst_12, %121) : (tensor<1x16x1xi1>, tensor<f32>, tensor<1x16x1xf32>) -> tensor<1x16x1xf32> loc(#loc1879)
    %123 = stablehlo.reduce(%122 init: %cst_11) applies stablehlo.add across dimensions = [] : (tensor<1x16x1xf32>, tensor<f32>) -> tensor<1x16x1xf32> loc(#loc1316)
    %124 = stablehlo.reshape %109 : (tensor<1x16x1xi32>) -> tensor<16x1xi32> loc(#loc1153)
    %125 = stablehlo.reshape %123 : (tensor<1x16x1xf32>) -> tensor<16x1xf32> loc(#loc1153)
    %126 = stablehlo.reshape %124 : (tensor<16x1xi32>) -> tensor<16xi32> loc(#loc978)
    %127 = stablehlo.reshape %125 : (tensor<16x1xf32>) -> tensor<16xf32> loc(#loc979)
    %128 = stablehlo.reshape %102 : (tensor<16x1x1xf32>) -> tensor<16x1xf32> loc(#loc980)
    %129 = stablehlo.reshape %128 : (tensor<16x1xf32>) -> tensor<16xf32> loc(#loc981)
    %130 = call @_threefry_split_0(%4) : (tensor<2xui32>) -> tensor<16x2xui32> loc(#loc1154)
    %131 = call @_threefry_split_12(%130) : (tensor<16x2xui32>) -> tensor<16x2x2xui32> loc(#loc1317)
    %132 = stablehlo.slice %131 [0:16, 1:2, 0:2] : (tensor<16x2x2xui32>) -> tensor<16x1x2xui32> loc(#loc1156)
    %133 = stablehlo.reshape %132 : (tensor<16x1x2xui32>) -> tensor<16x2xui32> loc(#loc1157)
    %134 = stablehlo.broadcast_in_dim %c_9, dims = [] : (tensor<i32>) -> tensor<16xi32> loc(#loc1318)
    %135 = stablehlo.compare EQ, %126, %134, SIGNED : (tensor<16xi32>, tensor<16xi32>) -> tensor<16xi1> loc(#loc1318)
    %136 = stablehlo.broadcast_in_dim %c_8, dims = [] : (tensor<i32>) -> tensor<16xi32> loc(#loc1319)
    %137 = stablehlo.compare EQ, %126, %136, SIGNED : (tensor<16xi32>, tensor<16xi32>) -> tensor<16xi1> loc(#loc1319)
    %138 = call @_where_15(%135, %c_14, %arg60) : (tensor<16xi1>, tensor<i1>, tensor<16xi1>) -> tensor<16xi1> loc(#loc1320)
    %139 = call @_where_16(%135, %c_16, %arg62) : (tensor<16xi1>, tensor<i32>, tensor<16xi32>) -> tensor<16xi32> loc(#loc1321)
    %140 = stablehlo.broadcast_in_dim %c_16, dims = [] : (tensor<i32>) -> tensor<5xi32> loc(#loc1322)
    %141 = call @_where_17(%135, %140, %arg61) : (tensor<16xi1>, tensor<5xi32>, tensor<16x5xi32>) -> tensor<16x5xi32> loc(#loc1323)
    %142 = stablehlo.not %135 : tensor<16xi1> loc(#loc1324)
    %143 = stablehlo.and %138, %142 : tensor<16xi1> loc(#loc1325)
    %144 = stablehlo.not %137 : tensor<16xi1> loc(#loc1326)
    %145 = stablehlo.and %143, %144 : tensor<16xi1> loc(#loc1327)
    %146 = stablehlo.broadcast_in_dim %c_7, dims = [] : (tensor<i32>) -> tensor<16xi32> loc(#loc1328)
    %147 = stablehlo.compare LT, %139, %146, SIGNED : (tensor<16xi32>, tensor<16xi32>) -> tensor<16xi1> loc(#loc1328)
    %148 = stablehlo.and %145, %147 : tensor<16xi1> loc(#loc1329)
    %149 = call @clip(%139, %c_16, %c_6) : (tensor<16xi32>, tensor<i32>, tensor<i32>) -> tensor<16xi32> loc(#loc1330)
    %150 = stablehlo.broadcast_in_dim %c_16, dims = [] : (tensor<i32>) -> tensor<16xi32> loc(#loc1331)
    %151 = stablehlo.compare LT, %149, %150, SIGNED : (tensor<16xi32>, tensor<16xi32>) -> tensor<16xi1> loc(#loc1331)
    %152 = stablehlo.broadcast_in_dim %c_7, dims = [] : (tensor<i32>) -> tensor<16xi32> loc(#loc1332)
    %153 = stablehlo.add %149, %152 : tensor<16xi32> loc(#loc1332)
    %154 = stablehlo.select %151, %153, %149 : tensor<16xi1>, tensor<16xi32> loc(#loc1333)
    %155 = stablehlo.broadcast_in_dim %154, dims = [0] : (tensor<16xi32>) -> tensor<16x1xi32> loc(#loc1334)
    %156 = "stablehlo.scatter"(%141, %155, %126) <{indices_are_sorted = true, scatter_dimension_numbers = #stablehlo.scatter<inserted_window_dims = [1], input_batching_dims = [0], scatter_indices_batching_dims = [0], scatter_dims_to_operand_dims = [1], index_vector_dim = 1>, unique_indices = true}> ({
    ^bb0(%arg67: tensor<i32> loc("scatter:"(#loc91)), %arg68: tensor<i32> loc("scatter:"(#loc91))):
      stablehlo.return %arg68 : tensor<i32> loc(#loc1335)
    }) : (tensor<16x5xi32>, tensor<16x1xi32>, tensor<16xi32>) -> tensor<16x5xi32> loc(#loc1335)
    %157 = call @_where_18(%148, %156, %141) : (tensor<16xi1>, tensor<16x5xi32>, tensor<16x5xi32>) -> tensor<16x5xi32> loc(#loc1336)
    %158 = stablehlo.broadcast_in_dim %c_5, dims = [] : (tensor<i32>) -> tensor<16xi32> loc(#loc1337)
    %159 = stablehlo.add %139, %158 : tensor<16xi32> loc(#loc1337)
    %160 = call @_where_19(%148, %159, %139) : (tensor<16xi1>, tensor<16xi32>, tensor<16xi32>) -> tensor<16xi32> loc(#loc1338)
    %161 = stablehlo.and %138, %137 : tensor<16xi1> loc(#loc1339)
    %162 = stablehlo.iota dim = 0 : tensor<5xi32> loc(#loc1880)
    %163 = stablehlo.compare EQ, %c_9, %c_16, SIGNED : (tensor<i32>, tensor<i32>) -> tensor<i1> loc(#loc1881)
    %164 = stablehlo.broadcast_in_dim %c_16, dims = [] : (tensor<i32>) -> tensor<5xi32> loc(#loc1882)
    %165 = stablehlo.compare NE, %162, %164, SIGNED : (tensor<5xi32>, tensor<5xi32>) -> tensor<5xi1> loc(#loc1882)
    %166 = stablehlo.broadcast_in_dim %163, dims = [] : (tensor<i1>) -> tensor<5xi1> loc(#loc1883)
    %167 = stablehlo.and %166, %165 : tensor<5xi1> loc(#loc1883)
    %168 = call @_where_20(%167, %c_16, %c_5) : (tensor<5xi1>, tensor<i32>, tensor<i32>) -> tensor<5xi32> loc(#loc1884)
    %169 = stablehlo.broadcast_in_dim %c_5, dims = [] : (tensor<i32>) -> tensor<5xi32> loc(#loc1883)
    %170 = stablehlo.and %162, %169 : tensor<5xi32> loc(#loc1883)
    %171 = stablehlo.broadcast_in_dim %c_9, dims = [] : (tensor<i32>) -> tensor<5xi32> loc(#loc1885)
    %172 = stablehlo.multiply %168, %171 : tensor<5xi32> loc(#loc1885)
    %173 = call @_where_21(%170, %172, %168) : (tensor<5xi32>, tensor<5xi32>, tensor<5xi32>) -> tensor<5xi32> loc(#loc1884)
    %174 = stablehlo.multiply %c_9, %c_9 : tensor<i32> loc(#loc1885)
    %175 = stablehlo.broadcast_in_dim %c_5, dims = [] : (tensor<i32>) -> tensor<5xi32> loc(#loc1886)
    %176 = stablehlo.shift_right_logical %162, %175 : tensor<5xi32> loc(#loc1886)
    %177 = stablehlo.broadcast_in_dim %c_5, dims = [] : (tensor<i32>) -> tensor<5xi32> loc(#loc1883)
    %178 = stablehlo.and %176, %177 : tensor<5xi32> loc(#loc1883)
    %179 = stablehlo.broadcast_in_dim %174, dims = [] : (tensor<i32>) -> tensor<5xi32> loc(#loc1885)
    %180 = stablehlo.multiply %173, %179 : tensor<5xi32> loc(#loc1885)
    %181 = call @_where_21(%178, %180, %173) : (tensor<5xi32>, tensor<5xi32>, tensor<5xi32>) -> tensor<5xi32> loc(#loc1884)
    %182 = stablehlo.multiply %174, %174 : tensor<i32> loc(#loc1885)
    %183 = stablehlo.broadcast_in_dim %c_5, dims = [] : (tensor<i32>) -> tensor<5xi32> loc(#loc1886)
    %184 = stablehlo.shift_right_logical %176, %183 : tensor<5xi32> loc(#loc1886)
    %185 = stablehlo.broadcast_in_dim %c_5, dims = [] : (tensor<i32>) -> tensor<5xi32> loc(#loc1883)
    %186 = stablehlo.and %184, %185 : tensor<5xi32> loc(#loc1883)
    %187 = stablehlo.broadcast_in_dim %182, dims = [] : (tensor<i32>) -> tensor<5xi32> loc(#loc1885)
    %188 = stablehlo.multiply %181, %187 : tensor<5xi32> loc(#loc1885)
    %189 = call @_where_21(%186, %188, %181) : (tensor<5xi32>, tensor<5xi32>, tensor<5xi32>) -> tensor<5xi32> loc(#loc1884)
    %190 = stablehlo.multiply %182, %182 : tensor<i32> loc(#loc1885)
    %191 = stablehlo.broadcast_in_dim %c_5, dims = [] : (tensor<i32>) -> tensor<5xi32> loc(#loc1886)
    %192 = stablehlo.shift_right_logical %184, %191 : tensor<5xi32> loc(#loc1886)
    %193 = stablehlo.broadcast_in_dim %c_5, dims = [] : (tensor<i32>) -> tensor<5xi32> loc(#loc1883)
    %194 = stablehlo.and %192, %193 : tensor<5xi32> loc(#loc1883)
    %195 = stablehlo.broadcast_in_dim %190, dims = [] : (tensor<i32>) -> tensor<5xi32> loc(#loc1885)
    %196 = stablehlo.multiply %189, %195 : tensor<5xi32> loc(#loc1885)
    %197 = call @_where_21(%194, %196, %189) : (tensor<5xi32>, tensor<5xi32>, tensor<5xi32>) -> tensor<5xi32> loc(#loc1884)
    %198 = stablehlo.multiply %190, %190 : tensor<i32> loc(#loc1885)
    %199 = stablehlo.broadcast_in_dim %c_5, dims = [] : (tensor<i32>) -> tensor<5xi32> loc(#loc1886)
    %200 = stablehlo.shift_right_logical %192, %199 : tensor<5xi32> loc(#loc1886)
    %201 = stablehlo.broadcast_in_dim %c_5, dims = [] : (tensor<i32>) -> tensor<5xi32> loc(#loc1883)
    %202 = stablehlo.and %200, %201 : tensor<5xi32> loc(#loc1883)
    %203 = stablehlo.broadcast_in_dim %198, dims = [] : (tensor<i32>) -> tensor<5xi32> loc(#loc1885)
    %204 = stablehlo.multiply %197, %203 : tensor<5xi32> loc(#loc1885)
    %205 = call @_where_21(%202, %204, %197) : (tensor<5xi32>, tensor<5xi32>, tensor<5xi32>) -> tensor<5xi32> loc(#loc1884)
    %206 = stablehlo.multiply %198, %198 : tensor<i32> loc(#loc1885)
    %207 = stablehlo.broadcast_in_dim %c_5, dims = [] : (tensor<i32>) -> tensor<5xi32> loc(#loc1886)
    %208 = stablehlo.shift_right_logical %200, %207 : tensor<5xi32> loc(#loc1886)
    %209 = stablehlo.broadcast_in_dim %c_5, dims = [] : (tensor<i32>) -> tensor<5xi32> loc(#loc1883)
    %210 = stablehlo.and %208, %209 : tensor<5xi32> loc(#loc1883)
    %211 = stablehlo.broadcast_in_dim %206, dims = [] : (tensor<i32>) -> tensor<5xi32> loc(#loc1885)
    %212 = stablehlo.multiply %205, %211 : tensor<5xi32> loc(#loc1885)
    %213 = call @_where_21(%210, %212, %205) : (tensor<5xi32>, tensor<5xi32>, tensor<5xi32>) -> tensor<5xi32> loc(#loc1884)
    %214 = stablehlo.broadcast_in_dim %213, dims = [1] : (tensor<5xi32>) -> tensor<1x5xi32> loc(#loc1887)
    %215 = stablehlo.broadcast_in_dim %214, dims = [0, 1] : (tensor<1x5xi32>) -> tensor<16x5xi32> loc(#loc1888)
    %216 = stablehlo.multiply %157, %215 : tensor<16x5xi32> loc(#loc1888)
    %217 = stablehlo.reduce(%216 init: %c_16) applies stablehlo.add across dimensions = [1] : (tensor<16x5xi32>, tensor<i32>) -> tensor<16xi32> loc(#loc1889)
    %218 = call @searchsorted(%arg43, %217) : (tensor<16xi32>, tensor<16xi32>) -> tensor<16xi32> loc(#loc1890)
    %219 = call @clip(%218, %c_16, %c_4) : (tensor<16xi32>, tensor<i32>, tensor<i32>) -> tensor<16xi32> loc(#loc1891)
    %220 = stablehlo.broadcast_in_dim %c_16, dims = [] : (tensor<i32>) -> tensor<16xi32> loc(#loc1892)
    %221 = stablehlo.compare LT, %219, %220, SIGNED : (tensor<16xi32>, tensor<16xi32>) -> tensor<16xi1> loc(#loc1892)
    %222 = stablehlo.broadcast_in_dim %c_3, dims = [] : (tensor<i32>) -> tensor<16xi32> loc(#loc1893)
    %223 = stablehlo.add %219, %222 : tensor<16xi32> loc(#loc1893)
    %224 = stablehlo.select %221, %223, %219 : tensor<16xi1>, tensor<16xi32> loc(#loc1894)
    %225 = stablehlo.broadcast_in_dim %224, dims = [0] : (tensor<16xi32>) -> tensor<16x1xi32> loc(#loc1895)
    %226 = "stablehlo.gather"(%arg43, %225) <{dimension_numbers = #stablehlo.gather<offset_dims = [1], start_index_map = [0], index_vector_dim = 1>, slice_sizes = array<i64: 1>}> : (tensor<16xi32>, tensor<16x1xi32>) -> tensor<16x1xi32> loc(#loc1896)
    %227 = stablehlo.reshape %226 : (tensor<16x1xi32>) -> tensor<16xi32> loc(#loc1897)
    %228 = stablehlo.compare EQ, %227, %217, SIGNED : (tensor<16xi32>, tensor<16xi32>) -> tensor<16xi1> loc(#loc1898)
    %229 = stablehlo.compare EQ, %157, %arg55, SIGNED : (tensor<16x5xi32>, tensor<16x5xi32>) -> tensor<16x5xi1> loc(#loc1591)
    %230 = stablehlo.reduce(%229 init: %c_14) applies stablehlo.and across dimensions = [1] : (tensor<16x5xi1>, tensor<i1>) -> tensor<16xi1> loc(#loc1592)
    %231 = stablehlo.compare EQ, %157, %arg55, SIGNED : (tensor<16x5xi32>, tensor<16x5xi32>) -> tensor<16x5xi1> loc(#loc1899)
    %232 = stablehlo.broadcast_in_dim %c_16, dims = [] : (tensor<i32>) -> tensor<26xi32> loc(#loc1900)
    %233 = stablehlo.not %231 : tensor<16x5xi1> loc(#loc1901)
    %234 = stablehlo.convert %233 : (tensor<16x5xi1>) -> tensor<16x5xi32> loc(#loc1902)
    %235 = stablehlo.broadcast_in_dim %c_16, dims = [] : (tensor<i32>) -> tensor<16x5xi32> loc(#loc1903)
    %236 = stablehlo.compare LT, %arg55, %235, SIGNED : (tensor<16x5xi32>, tensor<16x5xi32>) -> tensor<16x5xi1> loc(#loc1903)
    %237 = stablehlo.broadcast_in_dim %c_9, dims = [] : (tensor<i32>) -> tensor<16x5xi32> loc(#loc1904)
    %238 = stablehlo.add %arg55, %237 : tensor<16x5xi32> loc(#loc1904)
    %239 = stablehlo.select %236, %238, %arg55 : tensor<16x5xi1>, tensor<16x5xi32> loc(#loc1905)
    %240 = stablehlo.broadcast_in_dim %239, dims = [0, 1] : (tensor<16x5xi32>) -> tensor<16x5x1xi32> loc(#loc1906)
    %241 = stablehlo.broadcast_in_dim %232, dims = [1] : (tensor<26xi32>) -> tensor<16x26xi32> loc(#loc1906)
    %242 = "stablehlo.scatter"(%241, %240, %234) <{scatter_dimension_numbers = #stablehlo.scatter<inserted_window_dims = [1], input_batching_dims = [0], scatter_indices_batching_dims = [0], scatter_dims_to_operand_dims = [1], index_vector_dim = 2>}> ({
    ^bb0(%arg67: tensor<i32> loc("scatter-add:"(#loc242)), %arg68: tensor<i32> loc("scatter-add:"(#loc242))):
      %345 = stablehlo.add %arg67, %arg68 : tensor<i32> loc(#loc1904)
      stablehlo.return %345 : tensor<i32> loc(#loc1907)
    }) : (tensor<16x26xi32>, tensor<16x5x1xi32>, tensor<16x5xi32>) -> tensor<16x26xi32> loc(#loc1907)
    %243 = stablehlo.transpose %157, dims = [1, 0] : (tensor<16x5xi32>) -> tensor<5x16xi32> loc(#loc1908)
    %244 = stablehlo.transpose %231, dims = [1, 0] : (tensor<16x5xi1>) -> tensor<5x16xi1> loc(#loc1908)
    %245 = stablehlo.broadcast_in_dim %c_17, dims = [] : (tensor<i1>) -> tensor<5x16xi1> loc(#loc2125)
    %246:5 = stablehlo.while(%iterArg = %243, %iterArg_18 = %244, %iterArg_19 = %c_16, %iterArg_20 = %242, %iterArg_21 = %245) : tensor<5x16xi32>, tensor<5x16xi1>, tensor<i32>, tensor<16x26xi32>, tensor<5x16xi1>
    cond {
      %345 = stablehlo.compare LT, %iterArg_19, %c_7, SIGNED : (tensor<i32>, tensor<i32>) -> tensor<i1> loc(#loc2347)
      stablehlo.return %345 : tensor<i1> loc(#loc2126)
    } do {
      %345 = func.call @dynamic_index_in_dim_23(%iterArg, %iterArg_19) : (tensor<5x16xi32>, tensor<i32>) -> tensor<16xi32> loc(#loc2348)
      %346 = func.call @dynamic_index_in_dim_24(%iterArg_18, %iterArg_19) : (tensor<5x16xi1>, tensor<i32>) -> tensor<16xi1> loc(#loc2348)
      %347:2 = func.call @closed_call_25(%iterArg_20, %345, %346) : (tensor<16x26xi32>, tensor<16xi32>, tensor<16xi1>) -> (tensor<16x26xi32>, tensor<16xi1>) loc(#loc2349)
      %348 = func.call @dynamic_update_index_in_dim(%iterArg_21, %347#1, %iterArg_19) : (tensor<5x16xi1>, tensor<16xi1>, tensor<i32>) -> tensor<5x16xi1> loc(#loc2350)
      %349 = stablehlo.add %iterArg_19, %c_5 : tensor<i32> loc(#loc2351)
      stablehlo.return %iterArg, %iterArg_18, %349, %347#0, %348 : tensor<5x16xi32>, tensor<5x16xi1>, tensor<i32>, tensor<16x26xi32>, tensor<5x16xi1> loc(#loc2126)
    } loc(#loc2126)
    %247 = call @_where_26(%246#4, %c_5, %c_16) : (tensor<5x16xi1>, tensor<i32>, tensor<i32>) -> tensor<16x5xi32> loc(#loc1910)
    %248 = call @_where_27(%231, %c_2, %247) : (tensor<16x5xi1>, tensor<i32>, tensor<16x5xi32>) -> tensor<16x5xi32> loc(#loc1911)
    %249 = stablehlo.convert %228 : (tensor<16xi1>) -> tensor<16xi32> loc(#loc1601)
    %250 = stablehlo.add %arg58, %249 : tensor<16xi32> loc(#loc1602)
    %251 = stablehlo.convert %230 : (tensor<16xi1>) -> tensor<16xf32> loc(#loc1603)
    %252 = stablehlo.broadcast_in_dim %c_1, dims = [] : (tensor<i32>) -> tensor<16xi32> loc(#loc1604)
    %253 = stablehlo.compare GE, %250, %252, SIGNED : (tensor<16xi32>, tensor<16xi32>) -> tensor<16xi1> loc(#loc1604)
    %254 = stablehlo.or %230, %253 : tensor<16xi1> loc(#loc1605)
    %255 = stablehlo.convert %230 : (tensor<16xi1>) -> tensor<16xf32> loc(#loc1606)
    %256 = stablehlo.convert %250 : (tensor<16xi32>) -> tensor<16xf32> loc(#loc1607)
    %257 = stablehlo.not %228 : tensor<16xi1> loc(#loc1608)
    %258 = stablehlo.convert %257 : (tensor<16xi1>) -> tensor<16xf32> loc(#loc1609)
    %259 = call @_one_hot_28(%248) : (tensor<16x5xi32>) -> tensor<16x5x3xf32> loc(#loc1912)
    %260 = stablehlo.reshape %259 : (tensor<16x5x3xf32>) -> tensor<16x15xf32> loc(#loc1913)
    %261 = call @_where_29(%228, %260, %cst_11) : (tensor<16xi1>, tensor<16x15xf32>, tensor<f32>) -> tensor<16x15xf32> loc(#loc1914)
    %262 = stablehlo.broadcast_in_dim %161, dims = [0] : (tensor<16xi1>) -> tensor<16x5xi1> loc(#loc1613)
    %263 = stablehlo.select %262, %arg55, %arg55 : tensor<16x5xi1>, tensor<16x5xi32> loc(#loc1614)
    %264 = stablehlo.broadcast_in_dim %161, dims = [0] : (tensor<16xi1>) -> tensor<16x5xi1> loc(#loc1613)
    %265 = stablehlo.select %264, %248, %arg56 : tensor<16x5xi1>, tensor<16x5xi32> loc(#loc1614)
    %266 = stablehlo.select %161, %228, %arg57 : tensor<16xi1>, tensor<16xi1> loc(#loc1614)
    %267 = stablehlo.select %161, %250, %arg58 : tensor<16xi1>, tensor<16xi32> loc(#loc1614)
    %268 = stablehlo.select %161, %230, %arg59 : tensor<16xi1>, tensor<16xi1> loc(#loc1614)
    %269 = stablehlo.reshape %261 : (tensor<16x15xf32>) -> tensor<16x5x3xf32> loc(#loc1615)
    %270 = stablehlo.reduce(%269 init: %cst_11) applies stablehlo.add across dimensions = [2] : (tensor<16x5x3xf32>, tensor<f32>) -> tensor<16x5xf32> loc(#loc1616)
    %271 = stablehlo.broadcast_in_dim %cst_11, dims = [] : (tensor<f32>) -> tensor<16x5xf32> loc(#loc1617)
    %272 = stablehlo.compare GT, %270, %271, FLOAT : (tensor<16x5xf32>, tensor<16x5xf32>) -> tensor<16x5xi1> loc(#loc1617)
    %273 = call @argmax_30(%269) : (tensor<16x5x3xf32>) -> tensor<16x5xi32> loc(#loc1618)
    %274 = stablehlo.broadcast_in_dim %c_0, dims = [] : (tensor<i32>) -> tensor<16x5xi32> loc(#loc1619)
    %275 = stablehlo.add %274, %273 : tensor<16x5xi32> loc(#loc1619)
    %276 = call @_where_31(%272, %275, %c_10) : (tensor<16x5xi1>, tensor<16x5xi32>, tensor<i32>) -> tensor<16x5xi32> loc(#loc1620)
    %277 = stablehlo.broadcast_in_dim %c, dims = [] : (tensor<i32>) -> tensor<5xi32> loc(#loc1362)
    %278 = stablehlo.broadcast_in_dim %277, dims = [1] : (tensor<5xi32>) -> tensor<16x5xi32> loc(#loc1621)
    %279 = stablehlo.broadcast_in_dim %161, dims = [0] : (tensor<16xi1>) -> tensor<16x5xi1> loc(#loc1621)
    %280 = stablehlo.select %279, %276, %278 : tensor<16x5xi1>, tensor<16x5xi32> loc(#loc1622)
    %281 = stablehlo.broadcast_in_dim %cst_11, dims = [] : (tensor<f32>) -> tensor<16xf32> loc(#loc1623)
    %282 = stablehlo.select %161, %251, %281 : tensor<16xi1>, tensor<16xf32> loc(#loc1624)
    %283 = stablehlo.broadcast_in_dim %c_17, dims = [] : (tensor<i1>) -> tensor<16xi1> loc(#loc1625)
    %284 = stablehlo.select %161, %254, %283 : tensor<16xi1>, tensor<16xi1> loc(#loc1626)
    %285 = stablehlo.broadcast_in_dim %cst_11, dims = [] : (tensor<f32>) -> tensor<16xf32> loc(#loc1915)
    %286 = stablehlo.select %161, %256, %285 : tensor<16xi1>, tensor<16xf32> loc(#loc1916)
    %287 = stablehlo.broadcast_in_dim %cst_11, dims = [] : (tensor<f32>) -> tensor<16xf32> loc(#loc1915)
    %288 = stablehlo.select %161, %258, %287 : tensor<16xi1>, tensor<16xf32> loc(#loc1916)
    %289 = stablehlo.broadcast_in_dim %cst_11, dims = [] : (tensor<f32>) -> tensor<16xf32> loc(#loc1915)
    %290 = stablehlo.select %161, %255, %289 : tensor<16xi1>, tensor<16xf32> loc(#loc1916)
    %291 = stablehlo.convert %161 : (tensor<16xi1>) -> tensor<16xf32> loc(#loc1367)
    %292 = call @_where_15(%161, %c_17, %138) : (tensor<16xi1>, tensor<i1>, tensor<16xi1>) -> tensor<16xi1> loc(#loc1368)
    %293 = call @_where_16(%161, %c_16, %160) : (tensor<16xi1>, tensor<i32>, tensor<16xi32>) -> tensor<16xi32> loc(#loc1369)
    %294 = call @_randint(%133, %c_16, %c_3) : (tensor<16x2xui32>, tensor<i32>, tensor<i32>) -> tensor<16xi32> loc(#loc1628)
    %295 = stablehlo.broadcast_in_dim %c_16, dims = [] : (tensor<i32>) -> tensor<16xi32> loc(#loc1629)
    %296 = stablehlo.compare LT, %294, %295, SIGNED : (tensor<16xi32>, tensor<16xi32>) -> tensor<16xi1> loc(#loc1629)
    %297 = stablehlo.broadcast_in_dim %c_3, dims = [] : (tensor<i32>) -> tensor<16xi32> loc(#loc1630)
    %298 = stablehlo.add %294, %297 : tensor<16xi32> loc(#loc1630)
    %299 = stablehlo.select %296, %298, %294 : tensor<16xi1>, tensor<16xi32> loc(#loc1631)
    %300 = stablehlo.compare LT, %c_16, %c_16, SIGNED : (tensor<i32>, tensor<i32>) -> tensor<i1> loc(#loc1629)
    %301 = stablehlo.add %c_16, %c_7 : tensor<i32> loc(#loc1630)
    %302 = stablehlo.select %300, %301, %c_16 : tensor<i1>, tensor<i32> loc(#loc1631)
    %303 = stablehlo.broadcast_in_dim %299, dims = [0] : (tensor<16xi32>) -> tensor<16x1xi32> loc(#loc1632)
    %304 = stablehlo.broadcast_in_dim %302, dims = [] : (tensor<i32>) -> tensor<16x1xi32> loc(#loc1632)
    %305 = stablehlo.concatenate %303, %304, dim = 1 : (tensor<16x1xi32>, tensor<16x1xi32>) -> tensor<16x2xi32> loc(#loc1633)
    %306 = "stablehlo.gather"(%arg44, %305) <{dimension_numbers = #stablehlo.gather<offset_dims = [1, 2], start_index_map = [0, 1], index_vector_dim = 1>, slice_sizes = array<i64: 1, 5>}> : (tensor<16x5xi32>, tensor<16x2xi32>) -> tensor<16x1x5xi32> loc(#loc1634)
    %307 = stablehlo.reshape %306 : (tensor<16x1x5xi32>) -> tensor<16x5xi32> loc(#loc1635)
    %308 = stablehlo.broadcast_in_dim %c_16, dims = [] : (tensor<i32>) -> tensor<5xi32> loc(#loc1636)
    %309 = call @_one_hot_36(%308) : (tensor<5xi32>) -> tensor<5x3xf32> loc(#loc1917)
    %310 = stablehlo.reshape %309 : (tensor<5x3xf32>) -> tensor<15xf32> loc(#loc1918)
    %311 = call @_where_37(%c_17, %310, %cst_11) : (tensor<i1>, tensor<15xf32>, tensor<f32>) -> tensor<15xf32> loc(#loc1919)
    %312 = stablehlo.broadcast_in_dim %c_16, dims = [] : (tensor<i32>) -> tensor<5xi32> loc(#loc1374)
    %313 = stablehlo.broadcast_in_dim %c, dims = [] : (tensor<i32>) -> tensor<5xi32> loc(#loc1375)
    %314 = stablehlo.broadcast_in_dim %c_17, dims = [] : (tensor<i1>) -> tensor<16xi1> loc(#loc1376)
    %315 = stablehlo.or %284, %314 : tensor<16xi1> loc(#loc1376)
    %316 = stablehlo.broadcast_in_dim %315, dims = [0] : (tensor<16xi1>) -> tensor<16x5xi1> loc(#loc1377)
    %317 = stablehlo.select %316, %307, %263 : tensor<16x5xi1>, tensor<16x5xi32> loc(#loc1378)
    %318 = stablehlo.broadcast_in_dim %308, dims = [1] : (tensor<5xi32>) -> tensor<16x5xi32> loc(#loc1377)
    %319 = stablehlo.broadcast_in_dim %315, dims = [0] : (tensor<16xi1>) -> tensor<16x5xi1> loc(#loc1377)
    %320 = stablehlo.select %319, %318, %265 : tensor<16x5xi1>, tensor<16x5xi32> loc(#loc1378)
    %321 = stablehlo.broadcast_in_dim %c_17, dims = [] : (tensor<i1>) -> tensor<16xi1> loc(#loc1377)
    %322 = stablehlo.select %315, %321, %266 : tensor<16xi1>, tensor<16xi1> loc(#loc1378)
    %323 = stablehlo.broadcast_in_dim %c_16, dims = [] : (tensor<i32>) -> tensor<16xi32> loc(#loc1377)
    %324 = stablehlo.select %315, %323, %267 : tensor<16xi1>, tensor<16xi32> loc(#loc1378)
    %325 = stablehlo.broadcast_in_dim %c_17, dims = [] : (tensor<i1>) -> tensor<16xi1> loc(#loc1377)
    %326 = stablehlo.select %315, %325, %268 : tensor<16xi1>, tensor<16xi1> loc(#loc1378)
    %327 = stablehlo.broadcast_in_dim %c_17, dims = [] : (tensor<i1>) -> tensor<16xi1> loc(#loc1377)
    %328 = stablehlo.select %315, %327, %292 : tensor<16xi1>, tensor<16xi1> loc(#loc1378)
    %329 = stablehlo.broadcast_in_dim %312, dims = [1] : (tensor<5xi32>) -> tensor<16x5xi32> loc(#loc1377)
    %330 = stablehlo.broadcast_in_dim %315, dims = [0] : (tensor<16xi1>) -> tensor<16x5xi1> loc(#loc1377)
    %331 = stablehlo.select %330, %329, %157 : tensor<16x5xi1>, tensor<16x5xi32> loc(#loc1378)
    %332 = stablehlo.broadcast_in_dim %c_16, dims = [] : (tensor<i32>) -> tensor<16xi32> loc(#loc1377)
    %333 = stablehlo.select %315, %332, %293 : tensor<16xi1>, tensor<16xi32> loc(#loc1378)
    %334 = stablehlo.broadcast_in_dim %313, dims = [1] : (tensor<5xi32>) -> tensor<16x5xi32> loc(#loc1379)
    %335 = stablehlo.broadcast_in_dim %315, dims = [0] : (tensor<16xi1>) -> tensor<16x5xi1> loc(#loc1379)
    %336 = stablehlo.select %335, %334, %280 : tensor<16x5xi1>, tensor<16x5xi32> loc(#loc1380)
    %337 = stablehlo.broadcast_in_dim %c_17, dims = [] : (tensor<i1>) -> tensor<16xi1> loc(#loc990)
    %338 = stablehlo.add %arg45, %c_3 : tensor<i32> loc(#loc827)
    %339 = stablehlo.or %284, %337 : tensor<16xi1> loc(#loc991)
    %340 = stablehlo.broadcast_in_dim %c_16, dims = [] : (tensor<i32>) -> tensor<16xi32> loc(#loc829)
    %341 = call @_where_38(%339, %340, %126) : (tensor<16xi1>, tensor<16xi32>, tensor<16xi32>) -> tensor<16xi32> loc(#loc830)
    %342 = stablehlo.or %284, %337 : tensor<16xi1> loc(#loc992)
    %343 = stablehlo.broadcast_in_dim %cst_11, dims = [] : (tensor<f32>) -> tensor<16xf32> loc(#loc832)
    %344 = call @_where_39(%342, %343, %282) : (tensor<16xi1>, tensor<16xf32>, tensor<16xf32>) -> tensor<16xf32> loc(#loc833)
    return %338, %336, %341, %344, %284, %337, %291, %286, %288, %290, %317, %320, %322, %324, %326, %328, %331, %333, %94, %33, %39, %arg46, %arg47, %arg48, %arg49, %arg50, %arg51, %arg52, %arg53, %arg54, %336, %126, %282, %284, %337, %291, %286, %288, %290, %127, %129 : tensor<i32>, tensor<16x5xi32>, tensor<16xi32>, tensor<16xf32>, tensor<16xi1>, tensor<16xi1>, tensor<16xf32>, tensor<16xf32>, tensor<16xf32>, tensor<16xf32>, tensor<16x5xi32>, tensor<16x5xi32>, tensor<16xi1>, tensor<16xi32>, tensor<16xi1>, tensor<16xi1>, tensor<16x5xi32>, tensor<16xi32>, tensor<16x96xi32>, tensor<16x96x2x8xf32>, tensor<16x96x2x8xf32>, tensor<16x5xi32>, tensor<16xi32>, tensor<16xf32>, tensor<16xi1>, tensor<16xi1>, tensor<16xf32>, tensor<16xf32>, tensor<16xf32>, tensor<16xf32>, tensor<16x5xi32>, tensor<16xi32>, tensor<16xf32>, tensor<16xi1>, tensor<16xi1>, tensor<16xf32>, tensor<16xf32>, tensor<16xf32>, tensor<16xf32>, tensor<16xf32>, tensor<16xf32> loc(#loc)
  } loc(#loc1131)
  func.func private @_take(%arg0: tensor<33x16xf32> loc(unknown), %arg1: tensor<16x1xi32> loc(unknown)) -> tensor<16x1x16xf32> {
    %cst = stablehlo.constant dense<0x7FC00000> : tensor<f32> loc(#loc296)
    %c = stablehlo.constant dense<true> : tensor<i1> loc(#loc297)
    %c_0 = stablehlo.constant dense<32> : tensor<1xi32> loc(#loc296)
    %c_1 = stablehlo.constant dense<33> : tensor<i32> loc(#loc)
    %c_2 = stablehlo.constant dense<0> : tensor<i32> loc(#loc)
    %0 = stablehlo.broadcast_in_dim %c_2, dims = [] : (tensor<i32>) -> tensor<16x1xi32> loc(#loc298)
    %1 = stablehlo.compare LT, %arg1, %0, SIGNED : (tensor<16x1xi32>, tensor<16x1xi32>) -> tensor<16x1xi1> loc(#loc298)
    %2 = stablehlo.broadcast_in_dim %c_1, dims = [] : (tensor<i32>) -> tensor<16x1xi32> loc(#loc149)
    %3 = stablehlo.add %arg1, %2 : tensor<16x1xi32> loc(#loc149)
    %4 = call @_where(%1, %3, %arg1) : (tensor<16x1xi1>, tensor<16x1xi32>, tensor<16x1xi32>) -> tensor<16x1xi32> loc(#loc299)
    %5 = stablehlo.broadcast_in_dim %4, dims = [0, 1] : (tensor<16x1xi32>) -> tensor<16x1x1xi32> loc(#loc300)
    %6 = stablehlo.broadcast_in_dim %c_2, dims = [] : (tensor<i32>) -> tensor<16x1x1xi32> loc(#loc301)
    %7 = stablehlo.compare GE, %5, %6, SIGNED : (tensor<16x1x1xi32>, tensor<16x1x1xi32>) -> tensor<16x1x1xi1> loc(#loc301)
    %8 = stablehlo.broadcast_in_dim %c_0, dims = [2] : (tensor<1xi32>) -> tensor<1x1x1xi32> loc(#loc300)
    %9 = stablehlo.broadcast_in_dim %8, dims = [0, 1, 2] : (tensor<1x1x1xi32>) -> tensor<16x1x1xi32> loc(#loc302)
    %10 = stablehlo.compare LE, %5, %9, SIGNED : (tensor<16x1x1xi32>, tensor<16x1x1xi32>) -> tensor<16x1x1xi1> loc(#loc302)
    %11 = stablehlo.and %7, %10 : tensor<16x1x1xi1> loc(#loc303)
    %12 = stablehlo.reduce(%11 init: %c) applies stablehlo.and across dimensions = [2] : (tensor<16x1x1xi1>, tensor<i1>) -> tensor<16x1xi1> loc(#loc297)
    %13 = "stablehlo.gather"(%arg0, %5) <{dimension_numbers = #stablehlo.gather<offset_dims = [2], collapsed_slice_dims = [0], start_index_map = [0], index_vector_dim = 2>, slice_sizes = array<i64: 1, 16>}> : (tensor<33x16xf32>, tensor<16x1x1xi32>) -> tensor<16x1x16xf32> loc(#loc296)
    %14 = stablehlo.broadcast_in_dim %12, dims = [0, 1] : (tensor<16x1xi1>) -> tensor<16x1x16xi1> loc(#loc300)
    %15 = stablehlo.broadcast_in_dim %cst, dims = [] : (tensor<f32>) -> tensor<16x1x16xf32> loc(#loc300)
    %16 = stablehlo.select %14, %13, %15 : tensor<16x1x16xi1>, tensor<16x1x16xf32> loc(#loc304)
    return %16 : tensor<16x1x16xf32> loc(#loc)
  } loc(#loc1640)
  func.func private @_where(%arg0: tensor<16x1xi1> loc(unknown), %arg1: tensor<16x1xi32> loc(unknown), %arg2: tensor<16x1xi32> loc(unknown)) -> tensor<16x1xi32> {
    %0 = stablehlo.select %arg0, %arg1, %arg2 : tensor<16x1xi1>, tensor<16x1xi32> loc(#loc304)
    return %0 : tensor<16x1xi32> loc(#loc)
  } loc(#loc677)
  func.func private @_take_4(%arg0: tensor<33x16xf32> loc(unknown), %arg1: tensor<16x1x5xi32> loc(unknown)) -> tensor<16x1x5x16xf32> {
    %cst = stablehlo.constant dense<0x7FC00000> : tensor<f32> loc(#loc296)
    %c = stablehlo.constant dense<true> : tensor<i1> loc(#loc297)
    %c_0 = stablehlo.constant dense<32> : tensor<1xi32> loc(#loc296)
    %c_1 = stablehlo.constant dense<33> : tensor<i32> loc(#loc)
    %c_2 = stablehlo.constant dense<0> : tensor<i32> loc(#loc)
    %0 = stablehlo.broadcast_in_dim %c_2, dims = [] : (tensor<i32>) -> tensor<16x1x5xi32> loc(#loc298)
    %1 = stablehlo.compare LT, %arg1, %0, SIGNED : (tensor<16x1x5xi32>, tensor<16x1x5xi32>) -> tensor<16x1x5xi1> loc(#loc298)
    %2 = stablehlo.broadcast_in_dim %c_1, dims = [] : (tensor<i32>) -> tensor<16x1x5xi32> loc(#loc149)
    %3 = stablehlo.add %arg1, %2 : tensor<16x1x5xi32> loc(#loc149)
    %4 = call @_where_5(%1, %3, %arg1) : (tensor<16x1x5xi1>, tensor<16x1x5xi32>, tensor<16x1x5xi32>) -> tensor<16x1x5xi32> loc(#loc299)
    %5 = stablehlo.broadcast_in_dim %4, dims = [0, 1, 2] : (tensor<16x1x5xi32>) -> tensor<16x1x5x1xi32> loc(#loc300)
    %6 = stablehlo.broadcast_in_dim %c_2, dims = [] : (tensor<i32>) -> tensor<16x1x5x1xi32> loc(#loc301)
    %7 = stablehlo.compare GE, %5, %6, SIGNED : (tensor<16x1x5x1xi32>, tensor<16x1x5x1xi32>) -> tensor<16x1x5x1xi1> loc(#loc301)
    %8 = stablehlo.broadcast_in_dim %c_0, dims = [3] : (tensor<1xi32>) -> tensor<1x1x1x1xi32> loc(#loc300)
    %9 = stablehlo.broadcast_in_dim %8, dims = [0, 1, 2, 3] : (tensor<1x1x1x1xi32>) -> tensor<16x1x5x1xi32> loc(#loc302)
    %10 = stablehlo.compare LE, %5, %9, SIGNED : (tensor<16x1x5x1xi32>, tensor<16x1x5x1xi32>) -> tensor<16x1x5x1xi1> loc(#loc302)
    %11 = stablehlo.and %7, %10 : tensor<16x1x5x1xi1> loc(#loc303)
    %12 = stablehlo.reduce(%11 init: %c) applies stablehlo.and across dimensions = [3] : (tensor<16x1x5x1xi1>, tensor<i1>) -> tensor<16x1x5xi1> loc(#loc297)
    %13 = "stablehlo.gather"(%arg0, %5) <{dimension_numbers = #stablehlo.gather<offset_dims = [3], collapsed_slice_dims = [0], start_index_map = [0], index_vector_dim = 3>, slice_sizes = array<i64: 1, 16>}> : (tensor<33x16xf32>, tensor<16x1x5x1xi32>) -> tensor<16x1x5x16xf32> loc(#loc296)
    %14 = stablehlo.broadcast_in_dim %12, dims = [0, 1, 2] : (tensor<16x1x5xi1>) -> tensor<16x1x5x16xi1> loc(#loc300)
    %15 = stablehlo.broadcast_in_dim %cst, dims = [] : (tensor<f32>) -> tensor<16x1x5x16xf32> loc(#loc300)
    %16 = stablehlo.select %14, %13, %15 : tensor<16x1x5x16xi1>, tensor<16x1x5x16xf32> loc(#loc304)
    return %16 : tensor<16x1x5x16xf32> loc(#loc)
  } loc(#loc1641)
  func.func private @_where_5(%arg0: tensor<16x1x5xi1> loc(unknown), %arg1: tensor<16x1x5xi32> loc(unknown), %arg2: tensor<16x1x5xi32> loc(unknown)) -> tensor<16x1x5xi32> {
    %0 = stablehlo.select %arg0, %arg1, %arg2 : tensor<16x1x5xi1>, tensor<16x1x5xi32> loc(#loc304)
    return %0 : tensor<16x1x5xi32> loc(#loc)
  } loc(#loc677)
  func.func private @relu(%arg0: tensor<16x6x16xf32> loc(unknown)) -> tensor<16x6x16xf32> {
    %cst = stablehlo.constant dense<0.000000e+00> : tensor<f32> loc(#loc)
    %0 = stablehlo.broadcast_in_dim %cst, dims = [] : (tensor<f32>) -> tensor<16x6x16xf32> loc(#loc306)
    %1 = stablehlo.maximum %arg0, %0 : tensor<16x6x16xf32> loc(#loc306)
    return %1 : tensor<16x6x16xf32> loc(#loc)
  } loc(#loc677)
  func.func private @cumsum(%arg0: tensor<16x102xi32> loc(unknown)) -> tensor<16x102xi32> {
    %0 = call @cumsum_6(%arg0) : (tensor<16x102xi32>) -> tensor<16x102xi32> loc(#loc)
    return %0 : tensor<16x102xi32> loc(#loc)
  } loc(#loc2352)
  func.func private @cumsum_6(%arg0: tensor<16x102xi32> loc(unknown)) -> tensor<16x102xi32> {
    %c = stablehlo.constant dense<0> : tensor<i32> loc(#loc307)
    %0 = stablehlo.broadcast_in_dim %c, dims = [] : (tensor<i32>) -> tensor<i32> loc(#loc307)
    %1 = "stablehlo.reduce_window"(%arg0, %0) <{padding = dense<[[0, 0], [101, 0]]> : tensor<2x2xi64>, window_dimensions = array<i64: 1, 102>}> ({
    ^bb0(%arg1: tensor<i32> loc("reduce_window_sum:"(#loc307)), %arg2: tensor<i32> loc("reduce_window_sum:"(#loc307))):
      %2 = stablehlo.add %arg1, %arg2 : tensor<i32> loc(#loc307)
      stablehlo.return %2 : tensor<i32> loc(#loc307)
    }) : (tensor<16x102xi32>, tensor<i32>) -> tensor<16x102xi32> loc(#loc307)
    return %1 : tensor<16x102xi32> loc(#loc)
  } loc(#loc)
  func.func private @_where_7(%arg0: tensor<1x16x2x6x96xi1> loc(unknown), %arg1: tensor<16x2x6x1x96xf32> loc(unknown), %arg2: tensor<f32> loc(unknown)) -> tensor<1x16x2x6x96xf32> {
    %0 = stablehlo.broadcast_in_dim %arg2, dims = [] : (tensor<f32>) -> tensor<16x2x6x96xf32> loc(#loc300)
    %1 = stablehlo.broadcast_in_dim %0, dims = [1, 2, 3, 4] : (tensor<16x2x6x96xf32>) -> tensor<1x16x2x6x96xf32> loc(#loc300)
    %2 = stablehlo.transpose %arg1, dims = [3, 0, 1, 2, 4] : (tensor<16x2x6x1x96xf32>) -> tensor<1x16x2x6x96xf32> loc(#loc308)
    %3 = stablehlo.select %arg0, %2, %1 : tensor<1x16x2x6x96xi1>, tensor<1x16x2x6x96xf32> loc(#loc304)
    return %3 : tensor<1x16x2x6x96xf32> loc(#loc)
  } loc(#loc2129)
  func.func private @log_softmax(%arg0: tensor<16x1x33xf32> loc(unknown)) -> tensor<16x1x33xf32> {
    %cst = stablehlo.constant dense<0.000000e+00> : tensor<f32> loc(#loc309)
    %cst_0 = stablehlo.constant dense<0xFF800000> : tensor<f32> loc(#loc)
    %0 = stablehlo.reduce(%arg0 init: %cst_0) applies stablehlo.maximum across dimensions = [2] : (tensor<16x1x33xf32>, tensor<f32>) -> tensor<16x1xf32> loc(#loc310)
    %1 = stablehlo.broadcast_in_dim %cst_0, dims = [] : (tensor<f32>) -> tensor<16x1xf32> loc(#loc306)
    %2 = stablehlo.maximum %1, %0 : tensor<16x1xf32> loc(#loc306)
    %3 = stablehlo.broadcast_in_dim %2, dims = [0, 1] : (tensor<16x1xf32>) -> tensor<16x1x1xf32> loc(#loc300)
    %4 = stablehlo.broadcast_in_dim %3, dims = [0, 1, 2] : (tensor<16x1x1xf32>) -> tensor<16x1x33xf32> loc(#loc155)
    %5 = stablehlo.subtract %arg0, %4 : tensor<16x1x33xf32> loc(#loc155)
    %6 = stablehlo.exponential %5 : tensor<16x1x33xf32> loc(#loc311)
    %7 = stablehlo.reduce(%6 init: %cst) applies stablehlo.add across dimensions = [2] : (tensor<16x1x33xf32>, tensor<f32>) -> tensor<16x1xf32> loc(#loc309)
    %8 = stablehlo.broadcast_in_dim %7, dims = [0, 1] : (tensor<16x1xf32>) -> tensor<16x1x1xf32> loc(#loc300)
    %9 = stablehlo.log %8 : tensor<16x1x1xf32> loc(#loc312)
    %10 = stablehlo.broadcast_in_dim %9, dims = [0, 1, 2] : (tensor<16x1x1xf32>) -> tensor<16x1x33xf32> loc(#loc155)
    %11 = stablehlo.subtract %5, %10 : tensor<16x1x33xf32> loc(#loc155)
    return %11 : tensor<16x1x33xf32> loc(#loc)
  } loc(#loc1921)
  func.func private @_gumbel(%arg0: tensor<2xui32> loc(unknown)) -> tensor<1x16x1x33xf32> {
    %cst = stablehlo.constant dense<1.000000e+00> : tensor<f32> loc(#loc)
    %cst_0 = stablehlo.constant dense<1.17549435E-38> : tensor<f32> loc(#loc)
    %0 = call @_uniform(%arg0, %cst, %cst_0) : (tensor<2xui32>, tensor<f32>, tensor<f32>) -> tensor<1x16x1x33xf32> loc(#loc313)
    %1 = stablehlo.log %0 : tensor<1x16x1x33xf32> loc(#loc312)
    %2 = stablehlo.negate %1 : tensor<1x16x1x33xf32> loc(#loc314)
    %3 = stablehlo.log %2 : tensor<1x16x1x33xf32> loc(#loc312)
    %4 = stablehlo.negate %3 : tensor<1x16x1x33xf32> loc(#loc314)
    return %4 : tensor<1x16x1x33xf32> loc(#loc)
  } loc(#loc2130)
  func.func private @_uniform(%arg0: tensor<2xui32> loc(unknown), %arg1: tensor<f32> loc(unknown), %arg2: tensor<f32> loc(unknown)) -> tensor<1x16x1x33xf32> {
    %cst = stablehlo.constant dense<1.000000e+00> : tensor<f32> loc(#loc)
    %c = stablehlo.constant dense<1065353216> : tensor<ui32> loc(#loc)
    %c_0 = stablehlo.constant dense<9> : tensor<ui32> loc(#loc)
    %c_1 = stablehlo.constant dense<32> : tensor<ui64> loc(#loc143)
    %c_2 = stablehlo.constant dense<1> : tensor<ui64> loc(#loc143)
    %c_3 = stablehlo.constant dense<33> : tensor<ui64> loc(#loc)
    %c_4 = stablehlo.constant dense<528> : tensor<ui64> loc(#loc143)
    %0 = stablehlo.convert %arg1 : tensor<f32> loc(#loc158)
    %1 = stablehlo.broadcast_in_dim %arg2, dims = [] : (tensor<f32>) -> tensor<1x1x1x1xf32> loc(#loc300)
    %2 = stablehlo.broadcast_in_dim %0, dims = [] : (tensor<f32>) -> tensor<1x1x1x1xf32> loc(#loc300)
    %3 = stablehlo.slice %arg0 [0:1] : (tensor<2xui32>) -> tensor<1xui32> loc(#loc144)
    %4 = stablehlo.reshape %3 : (tensor<1xui32>) -> tensor<ui32> loc(#loc145)
    %5 = stablehlo.slice %arg0 [1:2] : (tensor<2xui32>) -> tensor<1xui32> loc(#loc144)
    %6 = stablehlo.reshape %5 : (tensor<1xui32>) -> tensor<ui32> loc(#loc145)
    %7 = stablehlo.iota dim = 0 : tensor<1x16x1x33xui64> loc(#loc143)
    %8 = stablehlo.iota dim = 1 : tensor<1x16x1x33xui64> loc(#loc143)
    %9 = stablehlo.iota dim = 2 : tensor<1x16x1x33xui64> loc(#loc143)
    %10 = stablehlo.iota dim = 3 : tensor<1x16x1x33xui64> loc(#loc143)
    %11 = stablehlo.broadcast_in_dim %c_4, dims = [] : (tensor<ui64>) -> tensor<1x16x1x33xui64> loc(#loc143)
    %12 = stablehlo.multiply %11, %7 : tensor<1x16x1x33xui64> loc(#loc143)
    %13 = stablehlo.broadcast_in_dim %c_3, dims = [] : (tensor<ui64>) -> tensor<1x16x1x33xui64> loc(#loc143)
    %14 = stablehlo.multiply %13, %8 : tensor<1x16x1x33xui64> loc(#loc143)
    %15 = stablehlo.broadcast_in_dim %c_3, dims = [] : (tensor<ui64>) -> tensor<1x16x1x33xui64> loc(#loc143)
    %16 = stablehlo.multiply %15, %9 : tensor<1x16x1x33xui64> loc(#loc143)
    %17 = stablehlo.broadcast_in_dim %c_2, dims = [] : (tensor<ui64>) -> tensor<1x16x1x33xui64> loc(#loc143)
    %18 = stablehlo.multiply %17, %10 : tensor<1x16x1x33xui64> loc(#loc143)
    %19 = stablehlo.add %12, %14 : tensor<1x16x1x33xui64> loc(#loc143)
    %20 = stablehlo.add %19, %16 : tensor<1x16x1x33xui64> loc(#loc143)
    %21 = stablehlo.add %20, %18 : tensor<1x16x1x33xui64> loc(#loc143)
    %22 = stablehlo.broadcast_in_dim %c_1, dims = [] : (tensor<ui64>) -> tensor<1x16x1x33xui64> loc(#loc143)
    %23 = stablehlo.shift_right_logical %21, %22 : tensor<1x16x1x33xui64> loc(#loc143)
    %24 = stablehlo.convert %21 : (tensor<1x16x1x33xui64>) -> tensor<1x16x1x33xui32> loc(#loc143)
    %25 = stablehlo.convert %23 : (tensor<1x16x1x33xui64>) -> tensor<1x16x1x33xui32> loc(#loc143)
    %26:2 = call @threefry2x32_8(%4, %6, %25, %24) : (tensor<ui32>, tensor<ui32>, tensor<1x16x1x33xui32>, tensor<1x16x1x33xui32>) -> (tensor<1x16x1x33xui32>, tensor<1x16x1x33xui32>) loc(#loc315)
    %27 = stablehlo.xor %26#0, %26#1 : tensor<1x16x1x33xui32> loc(#loc148)
    %28 = stablehlo.broadcast_in_dim %c_0, dims = [] : (tensor<ui32>) -> tensor<1x16x1x33xui32> loc(#loc156)
    %29 = stablehlo.shift_right_logical %27, %28 : tensor<1x16x1x33xui32> loc(#loc156)
    %30 = stablehlo.broadcast_in_dim %c, dims = [] : (tensor<ui32>) -> tensor<1x16x1x33xui32> loc(#loc157)
    %31 = stablehlo.or %29, %30 : tensor<1x16x1x33xui32> loc(#loc157)
    %32 = stablehlo.bitcast_convert %31 : (tensor<1x16x1x33xui32>) -> tensor<1x16x1x33xf32> loc(#loc316)
    %33 = stablehlo.broadcast_in_dim %cst, dims = [] : (tensor<f32>) -> tensor<1x16x1x33xf32> loc(#loc155)
    %34 = stablehlo.subtract %32, %33 : tensor<1x16x1x33xf32> loc(#loc155)
    %35 = stablehlo.subtract %2, %1 : tensor<1x1x1x1xf32> loc(#loc155)
    %36 = stablehlo.broadcast_in_dim %35, dims = [0, 1, 2, 3] : (tensor<1x1x1x1xf32>) -> tensor<1x16x1x33xf32> loc(#loc317)
    %37 = stablehlo.multiply %34, %36 : tensor<1x16x1x33xf32> loc(#loc317)
    %38 = stablehlo.broadcast_in_dim %1, dims = [0, 1, 2, 3] : (tensor<1x1x1x1xf32>) -> tensor<1x16x1x33xf32> loc(#loc149)
    %39 = stablehlo.add %37, %38 : tensor<1x16x1x33xf32> loc(#loc149)
    %40 = stablehlo.broadcast_in_dim %1, dims = [0, 1, 2, 3] : (tensor<1x1x1x1xf32>) -> tensor<1x16x1x33xf32> loc(#loc306)
    %41 = stablehlo.maximum %40, %39 : tensor<1x16x1x33xf32> loc(#loc306)
    return %41 : tensor<1x16x1x33xf32> loc(#loc)
  } loc(#loc677)
  func.func private @threefry2x32_8(%arg0: tensor<ui32> loc(unknown), %arg1: tensor<ui32> loc(unknown), %arg2: tensor<1x16x1x33xui32> loc(unknown), %arg3: tensor<1x16x1x33xui32> loc(unknown)) -> (tensor<1x16x1x33xui32>, tensor<1x16x1x33xui32>) {
    %c = stablehlo.constant dense<1> : tensor<i32> loc(#loc)
    %c_0 = stablehlo.constant dense<5> : tensor<i32> loc(#loc)
    %c_1 = stablehlo.constant dense<0> : tensor<i32> loc(#loc)
    %c_2 = stablehlo.constant dense<466688986> : tensor<ui32> loc(#loc538)
    %c_3 = stablehlo.constant dense<[13, 15, 26, 6]> : tensor<4xui32> loc(#loc538)
    %c_4 = stablehlo.constant dense<[17, 29, 16, 24]> : tensor<4xui32> loc(#loc538)
    %0 = stablehlo.xor %arg0, %arg1 : tensor<ui32> loc(#loc148)
    %1 = stablehlo.xor %0, %c_2 : tensor<ui32> loc(#loc148)
    %2 = stablehlo.broadcast_in_dim %arg0, dims = [] : (tensor<ui32>) -> tensor<1x16x1x33xui32> loc(#loc149)
    %3 = stablehlo.add %arg2, %2 : tensor<1x16x1x33xui32> loc(#loc149)
    %4 = stablehlo.broadcast_in_dim %arg1, dims = [] : (tensor<ui32>) -> tensor<1x16x1x33xui32> loc(#loc149)
    %5 = stablehlo.add %arg3, %4 : tensor<1x16x1x33xui32> loc(#loc149)
…
#loc1649 = loc("iota"(#loc1359))
#loc1650 = loc("reduce"(#loc1359))
#loc1651 = loc(callsite(#loc1359 at #loc1359))
#loc1652 = loc("vmap()/jit"(#loc1361))
#loc1653 = loc("vmap()/jit"(#loc1370))
#loc1654 = loc("jvp(Network)/feature_extractor/token_embedding/jit(_take)"(#loc1395))
#loc1655 = loc("jvp(Network)/feature_extractor/token_embedding/jit(_take)"(#loc1397))
#loc1656 = loc(callsite(#loc490 at #loc1404))
#loc1657 = loc("jvp(Network)/head/actor/dot_general"(#loc1408))
#loc1658 = loc("jvp(Network)/head/critic/dot_general"(#loc1409))
#loc1659 = loc("jvp(Network)/head/critic/reshape"(#loc1410))
#loc1660 = loc("jvp(Network)/head/critic/add"(#loc1411))
#loc1661 = loc(callsite(#loc548 at #loc1412))
#loc1662 = loc(callsite(#loc566 at #loc1417))
#loc1663 = loc(callsite(#loc568 at #loc1417))
#loc1664 = loc(callsite(#loc569 at #loc1417))
#loc1665 = loc("jvp()/exp"(#loc1422))
#loc1666 = loc("jvp()/eq"(#loc1423))
#loc1667 = loc("jvp(jit(_where))"(#loc1424))
#loc1668 = loc("transpose(jvp())/mul"(#loc1427))
#loc1669 = loc("transpose(jvp(jit(_where)))"(#loc1424))
#loc1670 = loc("transpose(jvp())/mul"(#loc1422))
#loc1671 = loc("transpose(jvp())/add_any"(#loc1422))
#loc1672 = loc(callsite(#loc750 at #loc1431))
#loc1673 = loc("transpose(jvp(Network))/head/critic/reduce_sum"(#loc1411))
#loc1674 = loc("transpose(jvp(Network))/head/critic/reshape"(#loc1411))
#loc1675 = loc("transpose(jvp(Network))/head/critic/reshape"(#loc1410))
#loc1676 = loc("transpose(jvp(Network))/head/critic/dot_general"(#loc1409))
#loc1677 = loc("transpose(jvp(Network))/head/critic/transpose"(#loc1409))
#loc1678 = loc("transpose(jvp(Network))/head/actor/dot_general"(#loc1408))
#loc1679 = loc("transpose(jvp(Network))/head/actor/transpose"(#loc1408))
#loc1680 = loc("transpose(jvp(Network))/head/actor/add_any"(#loc1408))
#loc1681 = loc("transpose(jvp(Network))/feature_extractor/token_embedding/jit(_take)"(#loc1397))
#loc1682 = loc("transpose(jvp(Network))/feature_extractor/token_embedding/jit(_take)"(#loc1395))
#loc1683 = loc("transpose(jvp(Network))/feature_extractor/token_embedding/add_any"(#loc1395))
#loc1684 = loc(callsite(#loc755 at #loc1438))
#loc1685 = loc(callsite(#loc761 at #loc1438))
#loc1686 = loc(callsite(#loc762 at #loc1438))
#loc1687 = loc(callsite(#loc763 at #loc1438))
#loc1688 = loc(callsite(#loc764 at #loc1439))
#loc1689 = loc(callsite(#loc766 at #loc1439))
#loc1690 = loc("sqrt"(#loc1440))
#loc1691 = loc("div"(#loc1442))
#loc1692 = loc("mul"(#loc1443))
#loc1693 = loc("select_n"(#loc1444))
#loc1694 = loc(callsite(#loc774 at #loc1445))
#loc1695 = loc(callsite(#loc780 at #loc1446))
#loc1696 = loc(callsite(#loc785 at #loc1447))
#loc1697 = loc(callsite(#loc787 at #loc1447))
#loc1698 = loc(callsite(#loc788 at #loc1447))
#loc1699 = loc("pow"(#loc1448))
#loc1700 = loc("sub"(#loc1448))
#loc1701 = loc("div"(#loc1448))
#loc1702 = loc("pow"(#loc1449))
#loc1703 = loc("sub"(#loc1449))
#loc1704 = loc("div"(#loc1449))
#loc1705 = loc(callsite(#loc791 at #loc1450))
#loc1706 = loc(callsite(#loc793 at #loc1450))
#loc1707 = loc(callsite(#loc794 at #loc1450))
#loc1708 = loc(callsite(#loc795 at #loc1450))
#loc1709 = loc(callsite(#loc796 at #loc1451))
#loc1710 = loc("jvp(Network)/feature_extractor/token_embedding/jit"(#loc1395))
#loc1711 = loc("jvp(Network)/feature_extractor/token_embedding/jit"(#loc1397))
#loc1712 = loc("jit:"(#loc1452))
#loc1713 = loc("jit:"(#loc1453))
#loc1714 = loc("jit:"(#loc1454))
#loc1715 = loc("jvp()/jit"(#loc1424))
#loc1716 = loc("transpose(jvp())/jit"(#loc1424))
#loc1717 = loc("jit:"(#loc1455))
#loc1718 = loc("jit:"(#loc1456))
#loc1719 = loc("transpose(jvp(Network))/feature_extractor/token_embedding/jit"(#loc1397))
#loc1720 = loc("transpose(jvp(Network))/feature_extractor/token_embedding/jit"(#loc1395))
#loc1721 = loc("Network/feature_extractor/token_embedding/jit(_take)"(#loc1458))
#loc1722 = loc("Network/feature_extractor/token_embedding/jit(_take)"(#loc1460))
#loc1723 = loc(callsite(#loc490 at #loc1467))
#loc1724 = loc("Network/head/actor/dot_general"(#loc1471))
#loc1725 = loc(callsite(#loc548 at #loc1472))
#loc1726 = loc(callsite(#loc554 at #loc1473))
#loc1727 = loc(callsite(#loc562 at #loc1473))
#loc1728 = loc("vmap()/vmap(jit(_threefry_split))"(#loc1476))
#loc1729 = loc("vmap()/eq"(#loc1479))
#loc1730 = loc("vmap()/eq"(#loc1480))
#loc1731 = loc("vmap(jit(_where))"(#loc1481))
#loc1732 = loc("vmap(jit(_where))"(#loc1482))
#loc1733 = loc("vmap()/broadcast_in_dim"(#loc1483))
#loc1734 = loc("vmap(jit(_where))"(#loc1484))
#loc1735 = loc("vmap()/not"(#loc1485))
#loc1736 = loc("vmap()/and"(#loc1486))
#loc1737 = loc("vmap()/not"(#loc1487))
#loc1738 = loc("vmap()/and"(#loc1488))
#loc1739 = loc("vmap()/lt"(#loc1489))
#loc1740 = loc("vmap()/and"(#loc1490))
#loc1741 = loc("vmap(jit(clip))"(#loc1491))
#loc1742 = loc("vmap()/lt"(#loc1492))
#loc1743 = loc("vmap()/add"(#loc1492))
#loc1744 = loc("vmap()/select_n"(#loc1492))
#loc1745 = loc("vmap()/broadcast_in_dim"(#loc1492))
#loc1746 = loc("vmap()/scatter"(#loc1492))
#loc1747 = loc("vmap(jit(_where))"(#loc1493))
#loc1748 = loc("vmap()/add"(#loc1494))
#loc1749 = loc("vmap(jit(_where))"(#loc1495))
#loc1750 = loc("vmap()/and"(#loc1496))
#loc1751 = loc(callsite(#loc605 at #loc1497))
#loc1752 = loc(callsite(#loc611 at #loc1497))
#loc1753 = loc(callsite(#loc615 at #loc1497))
#loc1754 = loc(callsite(#loc616 at #loc1497))
#loc1755 = loc(callsite(#loc618 at #loc1497))
#loc1756 = loc(callsite(#loc627 at #loc1497))
#loc1757 = loc(callsite(#loc628 at #loc1497))
#loc1758 = loc(callsite(#loc629 at #loc1497))
#loc1759 = loc(callsite(#loc630 at #loc1497))
#loc1760 = loc(callsite(#loc631 at #loc1497))
#loc1761 = loc(callsite(#loc632 at #loc1497))
#loc1762 = loc(callsite(#loc633 at #loc1497))
#loc1763 = loc(callsite(#loc634 at #loc1497))
#loc1764 = loc(callsite(#loc635 at #loc1497))
#loc1765 = loc(callsite(#loc637 at #loc1497))
#loc1766 = loc(callsite(#loc640 at #loc1498))
#loc1767 = loc(callsite(#loc642 at #loc1499))
#loc1768 = loc(callsite(#loc644 at #loc1499))
#loc1769 = loc(callsite(#loc645 at #loc1499))
#loc1770 = loc(callsite(#loc646 at #loc1499))
#loc1771 = loc(callsite(#loc647 at #loc1499))
#loc1772 = loc(callsite(#loc648 at #loc1499))
#loc1773 = loc("vmap()/broadcast_in_dim"(#loc1500))
#loc1774 = loc(callsite(#loc640 at #loc1501))
#loc1775 = loc(callsite(#loc640 at #loc1502))
#loc1776 = loc(callsite(#loc640 at #loc1503))
#loc1777 = loc(callsite(#loc653 at #loc1504))
#loc1778 = loc("vmap()/convert_element_type"(#loc1505))
#loc1779 = loc("vmap(jit(_where))"(#loc1506))
#loc1780 = loc("vmap(jit(_where))"(#loc1507))
#loc1781 = loc(callsite(#loc658 at #loc1508))
#loc1782 = loc(callsite(#loc661 at #loc1508))
#loc1783 = loc(callsite(#loc662 at #loc1508))
#loc1784 = loc(callsite(#loc663 at #loc1508))
#loc1785 = loc("vmap()/broadcast_in_dim"(#loc1509))
#loc1786 = loc("vmap()/broadcast_in_dim"(#loc1510))
#loc1787 = loc("vmap()/or"(#loc1511))
#loc1788 = loc("vmap()/broadcast_in_dim"(#loc1512))
#loc1789 = loc("vmap()/select_n"(#loc1512))
#loc1790 = loc("vmap()/broadcast_in_dim"(#loc1513))
#loc1791 = loc("vmap()/select_n"(#loc1513))
#loc1792 = loc("jit(train_step)/broadcast_in_dim"(#loc1523))
#loc1793 = loc(callsite(#loc475 at #loc1525))
#loc1794 = loc("jit(train_step)/Network/feature_extractor/broadcast_in_dim"(#loc1526))
#loc1795 = loc(callsite(#loc475 at #loc1527))
#loc1796 = loc("jit(train_step)/Network/feature_extractor/concatenate"(#loc1528))
#loc1797 = loc("jit(train_step)/Network/torso/reshape"(#loc1529))
#loc1798 = loc("jit(train_step)/Network/torso/broadcast_in_dim"(#loc1530))
#loc1799 = loc("jit(train_step)/Network/torso/broadcast_in_dim"(#loc1531))
#loc1800 = loc("jit(train_step)/Network/torso/scatter"(#loc1531))
#loc1801 = loc("jit(train_step)/Network/torso/reshape"(#loc1532))
#loc1802 = loc(callsite(#loc491 at #loc1533))
#loc1803 = loc("jit(train_step)/Network/torso/reshape"(#loc1534))
#loc1804 = loc("jit(train_step)/Network/torso/slice"(#loc1535))
#loc1805 = loc("jit(train_step)/Network/torso/squeeze"(#loc1535))
#loc1806 = loc(callsite(#loc488 at #loc1536))
#loc1807 = loc(callsite(#loc493 at #loc1536))
#loc1808 = loc(callsite(#loc494 at #loc1536))
#loc1809 = loc("jit(train_step)/broadcast_in_dim"(#loc1540))
#loc1810 = loc("jit(train_step)/while"(#loc1540))
#loc1811 = loc("jit(train_step)/while/cond/lt"(#loc1541))
#loc1812 = loc("jit(train_step)/while/body/sub"(#loc1541))
#loc1813 = loc("jit(train_step)/while/body/jit(dynamic_index_in_dim)"(#loc1541))
#loc1814 = loc("jit(train_step)/while/body/closed_call"(#loc1541))
#loc1815 = loc("jit(train_step)/while/body/jit(dynamic_update_index_in_dim)"(#loc1541))
#loc1816 = loc("jit(train_step)/while/body/add"(#loc1541))
#loc1817 = loc(callsite(#loc488 at #loc1557))
#loc1818 = loc(callsite(#loc493 at #loc1557))
#loc1819 = loc(callsite(#loc494 at #loc1557))
#loc1820 = loc("Network/torso/block/blocks_0/jit(relu)"(#loc1558))
#loc1821 = loc(callsite(#loc496 at #loc1559))
#loc1822 = loc(callsite(#loc498 at #loc1559))
#loc1823 = loc(callsite(#loc499 at #loc1559))
#loc1824 = loc(callsite(#loc496 at #loc1560))
#loc1825 = loc(callsite(#loc498 at #loc1560))
#loc1826 = loc(callsite(#loc499 at #loc1560))
#loc1827 = loc("Network/torso/block/blocks_1/concatenate"(#loc1561))
#loc1828 = loc("Network/torso/block/blocks_1/slice"(#loc1562))
#loc1829 = loc(callsite(#loc496 at #loc1563))
#loc1830 = loc(callsite(#loc498 at #loc1563))
#loc1831 = loc(callsite(#loc499 at #loc1563))
#loc1832 = loc("Network/torso/block/blocks_1/concatenate"(#loc1564))
#loc1833 = loc("Network/torso/block/blocks_1/slice"(#loc1565))
#loc1834 = loc(callsite(#loc506 at #loc1566))
#loc1835 = loc(callsite(#loc508 at #loc1566))
#loc1836 = loc(callsite(#loc509 at #loc1566))
#loc1837 = loc(callsite(#loc510 at #loc1566))
#loc1838 = loc(callsite(#loc511 at #loc1566))
#loc1839 = loc(callsite(#loc512 at #loc1566))
#loc1840 = loc(callsite(#loc513 at #loc1566))
#loc1841 = loc(callsite(#loc514 at #loc1566))
#loc1842 = loc(callsite(#loc515 at #loc1566))
#loc1843 = loc(callsite(#loc516 at #loc1566))
#loc1844 = loc(callsite(#loc517 at #loc1566))
#loc1845 = loc("Network/torso/block/blocks_1/reshape"(#loc1567))
#loc1846 = loc("Network/torso/block/blocks_1/broadcast_in_dim"(#loc1567))
#loc1847 = loc("Network/torso/block/blocks_1/vmap(BTNH,BSNH->BNTS)/dot_general"(#loc1567))
#loc1848 = loc("Network/torso/block/blocks_1/vmap()/mul"(#loc1567))
#loc1849 = loc("Network/torso/block/blocks_1/vmap()/broadcast_in_dim"(#loc1567))
#loc1850 = loc("Network/torso/block/blocks_1/vmap()/transpose"(#loc1567))
#loc1851 = loc("Network/torso/block/blocks_1/vmap()/and"(#loc1567))
#loc1852 = loc("Network/torso/block/blocks_1/vmap(jit(_where))"(#loc1567))
#loc1853 = loc("Network/torso/block/blocks_1/vmap()/reduce_max"(#loc1567))
#loc1854 = loc("Network/torso/block/blocks_1/vmap()/max"(#loc1567))
#loc1855 = loc("Network/torso/block/blocks_1/vmap()/sub"(#loc1567))
#loc1856 = loc("Network/torso/block/blocks_1/vmap()/exp"(#loc1567))
#loc1857 = loc("Network/torso/block/blocks_1/vmap()/reduce_sum"(#loc1567))
#loc1858 = loc("Network/torso/block/blocks_1/vmap()/div"(#loc1567))
#loc1859 = loc("Network/torso/block/blocks_1/vmap(BNTS,BSNH->BTNH)/dot_general"(#loc1567))
#loc1860 = loc("Network/torso/block/blocks_1/vmap(BNTS,BSNH->BTNH)/transpose"(#loc1567))
#loc1861 = loc(callsite(#loc496 at #loc1568))
#loc1862 = loc(callsite(#loc498 at #loc1568))
#loc1863 = loc(callsite(#loc499 at #loc1568))
#loc1864 = loc("Network/torso/block/blocks_1/convert_element_type"(#loc1569))
#loc1865 = loc("Network/torso/block/blocks_1/concatenate"(#loc1569))
#loc1866 = loc("Network/torso/block/blocks_1/slice"(#loc1570))
#loc1867 = loc("jit(_gumbel)"(#loc1572))
#loc1868 = loc("mul"(#loc1573))
#loc1869 = loc("broadcast_in_dim"(#loc1574))
#loc1870 = loc("add"(#loc1574))
#loc1871 = loc("jit(_one_hot)"(#loc1576))
#loc1872 = loc("lt"(#loc1577))
#loc1873 = loc("gt"(#loc1578))
#loc1874 = loc("or"(#loc1579))
#loc1875 = loc(callsite(#loc566 at #loc1580))
#loc1876 = loc(callsite(#loc568 at #loc1580))
#loc1877 = loc(callsite(#loc569 at #loc1580))
#loc1878 = loc("reduce_sum"(#loc1581))
#loc1879 = loc("jit(_where)"(#loc1582))
#loc1880 = loc("vmap()/iota"(#loc1583))
#loc1881 = loc("vmap()/eq"(#loc1584))
#loc1882 = loc("vmap()/ne"(#loc1584))
#loc1883 = loc("vmap()/and"(#loc1584))
#loc1884 = loc("vmap(jit(_where))"(#loc1584))
#loc1885 = loc("vmap()/mul"(#loc1584))
#loc1886 = loc("vmap()/shift_right_logical"(#loc1584))
#loc1887 = loc("vmap()/broadcast_in_dim"(#loc1585))
#loc1888 = loc("vmap()/mul"(#loc1585))
#loc1889 = loc("vmap()/reduce_sum"(#loc1586))
#loc1890 = loc("vmap(jit(searchsorted))"(#loc1587))
#loc1891 = loc("vmap(jit(clip))"(#loc1588))
#loc1892 = loc("vmap()/lt"(#loc1589))
#loc1893 = loc("vmap()/add"(#loc1589))
#loc1894 = loc("vmap()/select_n"(#loc1589))
#loc1895 = loc("vmap()/broadcast_in_dim"(#loc1589))
#loc1896 = loc("vmap()/gather"(#loc1589))
#loc1897 = loc("vmap()/squeeze"(#loc1589))
#loc1898 = loc("vmap()/eq"(#loc1590))
#loc1899 = loc("vmap()/eq"(#loc1593))
#loc1900 = loc("vmap()/broadcast_in_dim"(#loc1594))
#loc1901 = loc("vmap()/not"(#loc1595))
#loc1902 = loc("vmap()/convert_element_type"(#loc1596))
#loc1903 = loc("vmap()/lt"(#loc1597))
#loc1904 = loc("vmap()/add"(#loc1597))
#loc1905 = loc("vmap()/select_n"(#loc1597))
#loc1906 = loc("vmap()/broadcast_in_dim"(#loc1597))
#loc1907 = loc("vmap()/scatter-add"(#loc1597))
#loc1908 = loc("vmap()/transpose"(#loc1598))
#loc1909 = loc(callsite(#loc1598 at #loc1598))
#loc1910 = loc("vmap(jit(_where))"(#loc1599))
#loc1911 = loc("vmap(jit(_where))"(#loc1600))
#loc1912 = loc("vmap(jit(_one_hot))"(#loc1610))
#loc1913 = loc("vmap()/reshape"(#loc1611))
#loc1914 = loc("vmap(jit(_where))"(#loc1612))
#loc1915 = loc("vmap()/broadcast_in_dim"(#loc1627))
#loc1916 = loc("vmap()/select_n"(#loc1627))
#loc1917 = loc("vmap(jit(_one_hot))"(#loc1637))
#loc1918 = loc("vmap()/reshape"(#loc1638))
#loc1919 = loc("vmap(jit(_where))"(#loc1639))
#loc1920 = loc("Network/torso/block/blocks_1/vmap()/jit"(#loc1567))
#loc1921 = loc("jit:"(#loc1642))
#loc1922 = loc("jit"(#loc1572))
#loc1923 = loc("iota"(#loc1575))
#loc1924 = loc("reduce"(#loc1575))
#loc1925 = loc(callsite(#loc1575 at #loc1575))
#loc1926 = loc("jit"(#loc1576))
#loc1927 = loc("jit"(#loc1582))
#loc1928 = loc("vmap()/jit"(#loc1584))
#loc1929 = loc("vmap()/jit"(#loc1587))
#loc1930 = loc("while/body/jit"(#loc1598))
#loc1931 = loc("dynamic_slice"(#loc1598))
#loc1932 = loc("squeeze"(#loc1598))
#loc1933 = loc("while/body/closed_call"(#loc1598))
#loc1934 = loc("broadcast_in_dim"(#loc1598))
#loc1935 = loc("dynamic_update_slice"(#loc1598))
#loc1936 = loc("vmap()/jit"(#loc1599))
#loc1937 = loc("vmap()/jit"(#loc1600))
#loc1938 = loc("vmap()/jit"(#loc1610))
#loc1939 = loc("vmap()/jit"(#loc1612))
#loc1940 = loc("gt"(#loc1651))
#loc1941 = loc("ne"(#loc1651))
#loc1942 = loc("or"(#loc1651))
#loc1943 = loc("eq"(#loc1651))
#loc1944 = loc("lt"(#loc1651))
#loc1945 = loc("and"(#loc1651))
#loc1946 = loc("select_n"(#loc1651))
#loc1947 = loc("jit:"(#loc1652))
#loc1948 = loc("jit:"(#loc1653))
#loc1949 = loc("vmap()/jit"(#loc1637))
#loc1950 = loc("vmap()/jit"(#loc1639))
#loc1951 = loc(callsite(#loc489 at #loc1656))
#loc1952 = loc(callsite(#loc495 at #loc1656))
#loc1953 = loc(callsite(#loc497 at #loc1656))
#loc1954 = loc(callsite(#loc500 at #loc1656))
#loc1955 = loc(callsite(#loc501 at #loc1656))
#loc1956 = loc(callsite(#loc502 at #loc1656))
#loc1957 = loc(callsite(#loc503 at #loc1656))
#loc1958 = loc(callsite(#loc504 at #loc1656))
#loc1959 = loc(callsite(#loc505 at #loc1656))
#loc1960 = loc(callsite(#loc507 at #loc1656))
#loc1961 = loc(callsite(#loc518 at #loc1656))
#loc1962 = loc(callsite(#loc519 at #loc1656))
#loc1963 = loc("jvp(jit(log_softmax))"(#loc1661))
#loc1964 = loc("jvp()/eq"(#loc1662))
#loc1965 = loc("jvp()/mul"(#loc1663))
#loc1966 = loc("jvp()/jit(_where)"(#loc1664))
#loc1967 = loc("transpose(jvp(jvp()))/mul"(#loc1672))
#loc1968 = loc("transpose(jvp(jvp()))/add_any"(#loc1672))
#loc1969 = loc("transpose(jvp(jit(log_softmax)))"(#loc1661))
#loc1970 = loc("square"(#loc1684))
#loc1971 = loc("broadcast_in_dim"(#loc1685))
#loc1972 = loc("square"(#loc1686))
#loc1973 = loc("add"(#loc1687))
#loc1974 = loc("reduce_sum"(#loc1688))
#loc1975 = loc("add"(#loc1689))
#loc1976 = loc(callsite(#loc773 at #loc1694))
#loc1977 = loc(callsite(#loc776 at #loc1694))
#loc1978 = loc(callsite(#loc777 at #loc1694))
#loc1979 = loc(callsite(#loc779 at #loc1695))
#loc1980 = loc(callsite(#loc782 at #loc1695))
#loc1981 = loc(callsite(#loc783 at #loc1695))
#loc1982 = loc(callsite(#loc784 at #loc1695))
#loc1983 = loc("lt"(#loc1696))
#loc1984 = loc("add"(#loc1697))
#loc1985 = loc("jit(_where)"(#loc1698))
#loc1986 = loc("add"(#loc1705))
#loc1987 = loc("sqrt"(#loc1706))
#loc1988 = loc("add"(#loc1707))
#loc1989 = loc("div"(#loc1708))
#loc1990 = loc("mul"(#loc1709))
#loc1991 = loc("jit:"(#loc1710))
#loc1992 = loc("jit:"(#loc1711))
#loc1993 = loc("jvp()/jit"(#loc1661))
#loc1994 = loc("jit:"(#loc1715))
#loc1995 = loc("jit:"(#loc1716))
#loc1996 = loc("transpose(jvp())/jit"(#loc1661))
#loc1997 = loc("jit:"(#loc1719))
#loc1998 = loc("jit:"(#loc1720))
#loc1999 = loc("jit"(#loc1698))
#loc2000 = loc(callsite(#loc489 at #loc1723))
#loc2001 = loc(callsite(#loc495 at #loc1723))
#loc2002 = loc(callsite(#loc497 at #loc1723))
#loc2003 = loc(callsite(#loc500 at #loc1723))
#loc2004 = loc(callsite(#loc501 at #loc1723))
#loc2005 = loc(callsite(#loc502 at #loc1723))
#loc2006 = loc(callsite(#loc503 at #loc1723))
#loc2007 = loc(callsite(#loc504 at #loc1723))
#loc2008 = loc(callsite(#loc505 at #loc1723))
#loc2009 = loc(callsite(#loc507 at #loc1723))
#loc2010 = loc(callsite(#loc518 at #loc1723))
#loc2011 = loc(callsite(#loc519 at #loc1723))
#loc2012 = loc(callsite(#loc545 at #loc1723))
#loc2013 = loc(callsite(#loc546 at #loc1723))
#loc2014 = loc("jit(log_softmax)"(#loc1725))
#loc2015 = loc(callsite(#loc553 at #loc1726))
#loc2016 = loc(callsite(#loc558 at #loc1726))
#loc2017 = loc(callsite(#loc559 at #loc1726))
#loc2018 = loc(callsite(#loc560 at #loc1726))
#loc2019 = loc(callsite(#loc561 at #loc1727))
#loc2020 = loc(callsite(#loc563 at #loc1727))
#loc2021 = loc(callsite(#loc564 at #loc1727))
#loc2022 = loc(callsite(#loc565 at #loc1727))
#loc2023 = loc(callsite(#loc567 at #loc1727))
#loc2024 = loc(callsite(#loc570 at #loc1727))
#loc2025 = loc(callsite(#loc571 at #loc1727))
#loc2026 = loc(callsite(#loc604 at #loc1751))
#loc2027 = loc(callsite(#loc607 at #loc1751))
#loc2028 = loc(callsite(#loc608 at #loc1751))
#loc2029 = loc(callsite(#loc609 at #loc1751))
#loc2030 = loc(callsite(#loc610 at #loc1752))
#loc2031 = loc(callsite(#loc612 at #loc1752))
#loc2032 = loc(callsite(#loc613 at #loc1752))
#loc2033 = loc(callsite(#loc614 at #loc1752))
#loc2034 = loc("vmap()/eq"(#loc1753))
#loc2035 = loc("vmap()/reduce_and"(#loc1754))
#loc2036 = loc(callsite(#loc617 at #loc1755))
#loc2037 = loc(callsite(#loc619 at #loc1755))
#loc2038 = loc(callsite(#loc620 at #loc1755))
#loc2039 = loc(callsite(#loc621 at #loc1755))
#loc2040 = loc(callsite(#loc622 at #loc1755))
#loc2041 = loc(callsite(#loc624 at #loc1755))
#loc2042 = loc(callsite(#loc625 at #loc1755))
#loc2043 = loc(callsite(#loc626 at #loc1755))
#loc2044 = loc("vmap()/convert_element_type"(#loc1756))
#loc2045 = loc("vmap()/add"(#loc1757))
#loc2046 = loc("vmap()/convert_element_type"(#loc1758))
#loc2047 = loc("vmap()/ge"(#loc1759))
#loc2048 = loc("vmap()/or"(#loc1760))
#loc2049 = loc("vmap()/convert_element_type"(#loc1761))
#loc2050 = loc("vmap()/convert_element_type"(#loc1762))
#loc2051 = loc("vmap()/not"(#loc1763))
#loc2052 = loc("vmap()/convert_element_type"(#loc1764))
#loc2053 = loc(callsite(#loc636 at #loc1765))
#loc2054 = loc(callsite(#loc638 at #loc1765))
#loc2055 = loc(callsite(#loc639 at #loc1765))
#loc2056 = loc("vmap()/broadcast_in_dim"(#loc1766))
#loc2057 = loc("vmap()/select_n"(#loc1766))
#loc2058 = loc("vmap()/reshape"(#loc1767))
#loc2059 = loc("vmap()/reduce_sum"(#loc1768))
#loc2060 = loc("vmap()/gt"(#loc1769))
#loc2061 = loc("vmap()"(#loc1770))
#loc2062 = loc("vmap()/add"(#loc1771))
#loc2063 = loc("vmap(jit(_where))"(#loc1772))
#loc2064 = loc("vmap()/broadcast_in_dim"(#loc1774))
#loc2065 = loc("vmap()/select_n"(#loc1774))
#loc2066 = loc("vmap()/broadcast_in_dim"(#loc1775))
#loc2067 = loc("vmap()/select_n"(#loc1775))
#loc2068 = loc("vmap()/broadcast_in_dim"(#loc1776))
#loc2069 = loc("vmap()/select_n"(#loc1776))
#loc2070 = loc(callsite(#loc640 at #loc1777))
#loc2071 = loc("vmap(jit(_randint))"(#loc1781))
#loc2072 = loc("vmap()/lt"(#loc1782))
#loc2073 = loc("vmap()/add"(#loc1782))
#loc2074 = loc("vmap()/select_n"(#loc1782))
#loc2075 = loc("vmap()/broadcast_in_dim"(#loc1782))
#loc2076 = loc("vmap()/concatenate"(#loc1782))
#loc2077 = loc("vmap()/gather"(#loc1782))
#loc2078 = loc("vmap()/squeeze"(#loc1782))
#loc2079 = loc("vmap()/broadcast_in_dim"(#loc1783))
#loc2080 = loc(callsite(#loc636 at #loc1784))
#loc2081 = loc(callsite(#loc638 at #loc1784))
#loc2082 = loc(callsite(#loc639 at #loc1784))
#loc2083 = loc("jit(train_step)/Network/feature_extractor/token_embedding/jit(_take)"(#loc1793))
#loc2084 = loc("jit(train_step)/Network/feature_extractor/token_embedding/jit(_take)"(#loc1795))
#loc2085 = loc(callsite(#loc490 at #loc1802))
#loc2086 = loc("jit(train_step)/Network/head/critic/dot_general"(#loc1806))
#loc2087 = loc("jit(train_step)/Network/head/critic/reshape"(#loc1807))
#loc2088 = loc("jit(train_step)/Network/head/critic/add"(#loc1808))
#loc2089 = loc("Network/torso/block/blocks_0/Dense_0/dot_general"(#loc1817))
#loc2090 = loc("Network/torso/block/blocks_0/Dense_0/reshape"(#loc1818))
#loc2091 = loc("Network/torso/block/blocks_0/Dense_0/add"(#loc1819))
#loc2092 = loc("Network/torso/block/blocks_1/query/dot_general"(#loc1821))
#loc2093 = loc("Network/torso/block/blocks_1/query/reshape"(#loc1822))
#loc2094 = loc("Network/torso/block/blocks_1/query/add"(#loc1823))
#loc2095 = loc("Network/torso/block/blocks_1/key/dot_general"(#loc1824))
#loc2096 = loc("Network/torso/block/blocks_1/key/reshape"(#loc1825))
#loc2097 = loc("Network/torso/block/blocks_1/key/add"(#loc1826))
#loc2098 = loc("Network/torso/block/blocks_1/value/dot_general"(#loc1829))
#loc2099 = loc("Network/torso/block/blocks_1/value/reshape"(#loc1830))
#loc2100 = loc("Network/torso/block/blocks_1/value/add"(#loc1831))
#loc2101 = loc("Network/torso/block/blocks_1/convert_element_type"(#loc1834))
#loc2102 = loc("Network/torso/block/blocks_1/concatenate"(#loc1834))
#loc2103 = loc("Network/torso/block/blocks_1/jit(cumsum)"(#loc1835))
#loc2104 = loc("Network/torso/block/blocks_1/slice"(#loc1836))
#loc2105 = loc("Network/torso/block/blocks_1/broadcast_in_dim"(#loc1836))
#loc2106 = loc("Network/torso/block/blocks_1/slice"(#loc1837))
#loc2107 = loc("Network/torso/block/blocks_1/broadcast_in_dim"(#loc1837))
#loc2108 = loc("Network/torso/block/blocks_1/eq"(#loc1838))
#loc2109 = loc("Network/torso/block/blocks_1/iota"(#loc1839))
#loc2110 = loc("Network/torso/block/blocks_1/slice"(#loc1840))
#loc2111 = loc("Network/torso/block/blocks_1/broadcast_in_dim"(#loc1840))
#loc2112 = loc("Network/torso/block/blocks_1/slice"(#loc1841))
#loc2113 = loc("Network/torso/block/blocks_1/broadcast_in_dim"(#loc1841))
#loc2114 = loc("Network/torso/block/blocks_1/ge"(#loc1842))
#loc2115 = loc("Network/torso/block/blocks_1/broadcast_in_dim"(#loc1843))
#loc2116 = loc("Network/torso/block/blocks_1/and"(#loc1843))
#loc2117 = loc("Network/torso/block/blocks_1/broadcast_in_dim"(#loc1844))
#loc2118 = loc("Network/torso/block/blocks_1/output_projection/dot_general"(#loc1861))
#loc2119 = loc("Network/torso/block/blocks_1/output_projection/reshape"(#loc1862))
#loc2120 = loc("Network/torso/block/blocks_1/output_projection/add"(#loc1863))
#loc2121 = loc("eq"(#loc1875))
#loc2122 = loc("broadcast_in_dim"(#loc1876))
#loc2123 = loc("mul"(#loc1876))
#loc2124 = loc("jit(_where)"(#loc1877))
#loc2125 = loc("vmap()/broadcast_in_dim"(#loc1909))
#loc2126 = loc("vmap()/while"(#loc1909))
#loc2127 = loc(callsite(#loc1909 at #loc1598))
#loc2128 = loc("Network/torso/block/blocks_1/jit"(#loc1835))
#loc2129 = loc("jit:"(#loc1920))
#loc2130 = loc("jit:"(#loc1922))
#loc2131 = loc("gt"(#loc1925))
#loc2132 = loc("ne"(#loc1925))
#loc2133 = loc("or"(#loc1925))
#loc2134 = loc("eq"(#loc1925))
#loc2135 = loc("lt"(#loc1925))
#loc2136 = loc("and"(#loc1925))
#loc2137 = loc("select_n"(#loc1925))
#loc2138 = loc("jit:"(#loc1926))
#loc2139 = loc("jit:"(#loc1927))
#loc2140 = loc("jit:"(#loc1928))
#loc2141 = loc("jit:"(#loc1929))
#loc2142 = loc("jit:"(#loc1930))
#loc2143 = loc("closed_call:"(#loc1933))
#loc2144 = loc("jit:"(#loc1936))
#loc2145 = loc("jit:"(#loc1937))
#loc2146 = loc("jit:"(#loc1938))
#loc2147 = loc("jit:"(#loc1939))
#loc2148 = loc("jit:"(#loc1949))
#loc2149 = loc("jit:"(#loc1950))
#loc2150 = loc(callsite(#loc488 at #loc1951))
#loc2151 = loc(callsite(#loc493 at #loc1951))
#loc2152 = loc(callsite(#loc494 at #loc1951))
#loc2153 = loc("jvp(Network)/torso/block/blocks_0/jit(relu)"(#loc1952))
#loc2154 = loc("jvp(Network)/torso/block/blocks_0/gt"(#loc1952))
#loc2155 = loc(callsite(#loc496 at #loc1953))
#loc2156 = loc(callsite(#loc498 at #loc1953))
#loc2157 = loc(callsite(#loc499 at #loc1953))
#loc2158 = loc(callsite(#loc496 at #loc1954))
#loc2159 = loc(callsite(#loc498 at #loc1954))
#loc2160 = loc(callsite(#loc499 at #loc1954))
#loc2161 = loc("jvp(Network)/torso/block/blocks_1/concatenate"(#loc1955))
#loc2162 = loc("jvp(Network)/torso/block/blocks_1/slice"(#loc1956))
#loc2163 = loc(callsite(#loc496 at #loc1957))
#loc2164 = loc(callsite(#loc498 at #loc1957))
#loc2165 = loc(callsite(#loc499 at #loc1957))
#loc2166 = loc("jvp(Network)/torso/block/blocks_1/concatenate"(#loc1958))
#loc2167 = loc("jvp(Network)/torso/block/blocks_1/slice"(#loc1959))
#loc2168 = loc(callsite(#loc506 at #loc1960))
#loc2169 = loc(callsite(#loc508 at #loc1960))
#loc2170 = loc(callsite(#loc509 at #loc1960))
#loc2171 = loc(callsite(#loc510 at #loc1960))
#loc2172 = loc(callsite(#loc511 at #loc1960))
#loc2173 = loc(callsite(#loc512 at #loc1960))
#loc2174 = loc(callsite(#loc513 at #loc1960))
#loc2175 = loc(callsite(#loc514 at #loc1960))
#loc2176 = loc(callsite(#loc515 at #loc1960))
#loc2177 = loc(callsite(#loc516 at #loc1960))
#loc2178 = loc(callsite(#loc517 at #loc1960))
#loc2179 = loc("jvp(Network)/torso/block/blocks_1/reshape"(#loc1961))
#loc2180 = loc("jvp(Network)/torso/block/blocks_1/broadcast_in_dim"(#loc1961))
#loc2181 = loc("jvp(Network)/torso/block/blocks_1/vmap(BTNH,BSNH->BNTS)/dot_general"(#loc1961))
#loc2182 = loc("jvp(Network)/torso/block/blocks_1/vmap()/mul"(#loc1961))
#loc2183 = loc("jvp(Network)/torso/block/blocks_1/vmap()/broadcast_in_dim"(#loc1961))
#loc2184 = loc("jvp(Network)/torso/block/blocks_1/vmap()/transpose"(#loc1961))
#loc2185 = loc("jvp(Network)/torso/block/blocks_1/vmap()/and"(#loc1961))
#loc2186 = loc("jvp(Network)/torso/block/blocks_1/vmap(jit(_where))"(#loc1961))
#loc2187 = loc("jvp(Network)/torso/block/blocks_1/vmap()/reduce_max"(#loc1961))
#loc2188 = loc("jvp(Network)/torso/block/blocks_1/vmap()/max"(#loc1961))
#loc2189 = loc("jvp(Network)/torso/block/blocks_1/vmap()/sub"(#loc1961))
#loc2190 = loc("jvp(Network)/torso/block/blocks_1/vmap()/exp"(#loc1961))
#loc2191 = loc("jvp(Network)/torso/block/blocks_1/vmap()/reduce_sum"(#loc1961))
#loc2192 = loc("jvp(Network)/torso/block/blocks_1/vmap()/div"(#loc1961))
#loc2193 = loc(callsite(#loc1961 at #loc1961))
#loc2194 = loc("jvp(Network)/torso/block/blocks_1/vmap(BNTS,BSNH->BTNH)/dot_general"(#loc1961))
#loc2195 = loc("jvp(Network)/torso/block/blocks_1/vmap(BNTS,BSNH->BTNH)/transpose"(#loc1961))
#loc2196 = loc(callsite(#loc496 at #loc1962))
#loc2197 = loc(callsite(#loc498 at #loc1962))
#loc2198 = loc(callsite(#loc499 at #loc1962))
#loc2199 = loc("transpose(jvp(Network))/torso/block/blocks_1/reshape"(#loc1961))
#loc2200 = loc("transpose(jvp(Network))/torso/block/blocks_1/vmap()/transpose"(#loc1961))
#loc2201 = loc("transpose(jvp(Network))/torso/block/blocks_1/vmap(BNTS,BSNH->BTNH)/transpose"(#loc1961))
#loc2202 = loc("transpose(jvp(Network))/torso/block/blocks_1/vmap(BNTS,BSNH->BTNH)/dot_general"(#loc1961))
#loc2203 = loc("transpose(jvp(Network))/torso/block/blocks_1/vmap()/mul"(#loc1961))
#loc2204 = loc("transpose(jvp(Network))/torso/block/blocks_1/vmap()/reduce_sum"(#loc1961))
#loc2205 = loc("transpose(jvp(Network))/torso/block/blocks_1/vmap()/reshape"(#loc1961))
#loc2206 = loc("transpose(jvp(Network))/torso/block/blocks_1/vmap()/neg"(#loc1961))
#loc2207 = loc("transpose(jvp(Network))/torso/block/blocks_1/vmap()/div"(#loc1961))
#loc2208 = loc("transpose(jvp(Network))/torso/block/blocks_1/vmap()/broadcast_in_dim"(#loc1961))
#loc2209 = loc("transpose(jvp(Network))/torso/block/blocks_1/vmap()/add_any"(#loc1961))
#loc2210 = loc("transpose(jvp(Network))/torso/block/blocks_1/vmap(jit(_where))"(#loc1961))
#loc2211 = loc("transpose(jvp(Network))/torso/block/blocks_1/vmap(BTNH,BSNH->BNTS)/dot_general"(#loc1961))
#loc2212 = loc("transpose(jvp(Network))/torso/block/blocks_1/vmap(BTNH,BSNH->BNTS)/transpose"(#loc1961))
#loc2213 = loc("transpose(jvp(Network))/torso/block/blocks_1/pad"(#loc1959))
#loc2214 = loc("transpose(jvp(Network))/torso/block/blocks_1/split"(#loc1958))
#loc2215 = loc("transpose(jvp(Network))/torso/block/blocks_1/pad"(#loc1956))
#loc2216 = loc("transpose(jvp(Network))/torso/block/blocks_1/split"(#loc1955))
#loc2217 = loc("transpose(jvp(Network))/torso/block/blocks_0/broadcast_in_dim"(#loc1952))
#loc2218 = loc("transpose(jvp(Network))/torso/block/blocks_0/select_n"(#loc1952))
#loc2219 = loc("mul"(#loc1976))
#loc2220 = loc("mul"(#loc1977))
#loc2221 = loc("add"(#loc1978))
#loc2222 = loc(callsite(#loc778 at #loc1979))
#loc2223 = loc("mul"(#loc1980))
#loc2224 = loc("mul"(#loc1981))
#loc2225 = loc("add"(#loc1982))
#loc2226 = loc("jvp(Network)/torso/block/blocks_1/vmap()/jit"(#loc1961))
#loc2227 = loc("jit:"(#loc1993))
#loc2228 = loc("jit:"(#loc1996))
#loc2229 = loc("transpose(jvp(Network))/torso/block/blocks_1/vmap()/jit"(#loc1961))
#loc2230 = loc("jit:"(#loc1999))
#loc2231 = loc(callsite(#loc488 at #loc2000))
#loc2232 = loc(callsite(#loc493 at #loc2000))
#loc2233 = loc(callsite(#loc494 at #loc2000))
#loc2234 = loc("Network/torso/block/blocks_0/jit(relu)"(#loc2001))
#loc2235 = loc(callsite(#loc496 at #loc2002))
#loc2236 = loc(callsite(#loc498 at #loc2002))
#loc2237 = loc(callsite(#loc499 at #loc2002))
#loc2238 = loc(callsite(#loc496 at #loc2003))
#loc2239 = loc(callsite(#loc498 at #loc2003))
#loc2240 = loc(callsite(#loc499 at #loc2003))
#loc2241 = loc("Network/torso/block/blocks_1/concatenate"(#loc2004))
#loc2242 = loc("Network/torso/block/blocks_1/slice"(#loc2005))
#loc2243 = loc(callsite(#loc496 at #loc2006))
#loc2244 = loc(callsite(#loc498 at #loc2006))
#loc2245 = loc(callsite(#loc499 at #loc2006))
#loc2246 = loc("Network/torso/block/blocks_1/concatenate"(#loc2007))
#loc2247 = loc("Network/torso/block/blocks_1/slice"(#loc2008))
#loc2248 = loc(callsite(#loc506 at #loc2009))
#loc2249 = loc(callsite(#loc508 at #loc2009))
#loc2250 = loc(callsite(#loc509 at #loc2009))
#loc2251 = loc(callsite(#loc510 at #loc2009))
#loc2252 = loc(callsite(#loc511 at #loc2009))
#loc2253 = loc(callsite(#loc512 at #loc2009))
#loc2254 = loc(callsite(#loc513 at #loc2009))
#loc2255 = loc(callsite(#loc514 at #loc2009))
#loc2256 = loc(callsite(#loc515 at #loc2009))
#loc2257 = loc(callsite(#loc516 at #loc2009))
#loc2258 = loc(callsite(#loc517 at #loc2009))
#loc2259 = loc("Network/torso/block/blocks_1/reshape"(#loc2010))
#loc2260 = loc("Network/torso/block/blocks_1/broadcast_in_dim"(#loc2010))
#loc2261 = loc("Network/torso/block/blocks_1/vmap(BTNH,BSNH->BNTS)/dot_general"(#loc2010))
#loc2262 = loc("Network/torso/block/blocks_1/vmap()/mul"(#loc2010))
#loc2263 = loc("Network/torso/block/blocks_1/vmap()/broadcast_in_dim"(#loc2010))
#loc2264 = loc("Network/torso/block/blocks_1/vmap()/transpose"(#loc2010))
#loc2265 = loc("Network/torso/block/blocks_1/vmap()/and"(#loc2010))
#loc2266 = loc("Network/torso/block/blocks_1/vmap(jit(_where))"(#loc2010))
#loc2267 = loc("Network/torso/block/blocks_1/vmap()/reduce_max"(#loc2010))
#loc2268 = loc("Network/torso/block/blocks_1/vmap()/max"(#loc2010))
#loc2269 = loc("Network/torso/block/blocks_1/vmap()/sub"(#loc2010))
#loc2270 = loc("Network/torso/block/blocks_1/vmap()/exp"(#loc2010))
#loc2271 = loc("Network/torso/block/blocks_1/vmap()/reduce_sum"(#loc2010))
#loc2272 = loc("Network/torso/block/blocks_1/vmap()/div"(#loc2010))
#loc2273 = loc("Network/torso/block/blocks_1/vmap(BNTS,BSNH->BTNH)/dot_general"(#loc2010))
#loc2274 = loc("Network/torso/block/blocks_1/vmap(BNTS,BSNH->BTNH)/transpose"(#loc2010))
#loc2275 = loc(callsite(#loc496 at #loc2011))
#loc2276 = loc(callsite(#loc498 at #loc2011))
#loc2277 = loc(callsite(#loc499 at #loc2011))
#loc2278 = loc("Network/torso/block/blocks_1/convert_element_type"(#loc2012))
#loc2279 = loc("Network/torso/block/blocks_1/concatenate"(#loc2012))
#loc2280 = loc("Network/torso/block/blocks_1/slice"(#loc2013))
#loc2281 = loc("jit(_gumbel)"(#loc2015))
#loc2282 = loc("mul"(#loc2016))
#loc2283 = loc("broadcast_in_dim"(#loc2017))
#loc2284 = loc("add"(#loc2017))
#loc2285 = loc("jit(_one_hot)"(#loc2019))
#loc2286 = loc("lt"(#loc2020))
#loc2287 = loc("gt"(#loc2021))
#loc2288 = loc("or"(#loc2022))
#loc2289 = loc(callsite(#loc566 at #loc2023))
#loc2290 = loc(callsite(#loc568 at #loc2023))
#loc2291 = loc(callsite(#loc569 at #loc2023))
#loc2292 = loc("reduce_sum"(#loc2024))
#loc2293 = loc("jit(_where)"(#loc2025))
#loc2294 = loc("vmap()/iota"(#loc2026))
#loc2295 = loc("vmap()/eq"(#loc2027))
#loc2296 = loc("vmap()/ne"(#loc2027))
#loc2297 = loc("vmap()/and"(#loc2027))
#loc2298 = loc("vmap(jit(_where))"(#loc2027))
#loc2299 = loc("vmap()/mul"(#loc2027))
#loc2300 = loc("vmap()/shift_right_logical"(#loc2027))
#loc2301 = loc("vmap()/broadcast_in_dim"(#loc2028))
#loc2302 = loc("vmap()/mul"(#loc2028))
#loc2303 = loc("vmap()/reduce_sum"(#loc2029))
#loc2304 = loc("vmap(jit(searchsorted))"(#loc2030))
#loc2305 = loc("vmap(jit(clip))"(#loc2031))
#loc2306 = loc("vmap()/lt"(#loc2032))
#loc2307 = loc("vmap()/add"(#loc2032))
#loc2308 = loc("vmap()/select_n"(#loc2032))
#loc2309 = loc("vmap()/broadcast_in_dim"(#loc2032))
#loc2310 = loc("vmap()/gather"(#loc2032))
#loc2311 = loc("vmap()/squeeze"(#loc2032))
#loc2312 = loc("vmap()/eq"(#loc2033))
#loc2313 = loc("vmap()/eq"(#loc2036))
#loc2314 = loc("vmap()/broadcast_in_dim"(#loc2037))
#loc2315 = loc("vmap()/not"(#loc2038))
#loc2316 = loc("vmap()/convert_element_type"(#loc2039))
#loc2317 = loc("vmap()/lt"(#loc2040))
#loc2318 = loc("vmap()/add"(#loc2040))
#loc2319 = loc("vmap()/select_n"(#loc2040))
#loc2320 = loc("vmap()/broadcast_in_dim"(#loc2040))
#loc2321 = loc("vmap()/scatter-add"(#loc2040))
#loc2322 = loc("vmap()/transpose"(#loc2041))
#loc2323 = loc(callsite(#loc2041 at #loc2041))
#loc2324 = loc("vmap(jit(_where))"(#loc2042))
#loc2325 = loc("vmap(jit(_where))"(#loc2043))
#loc2326 = loc("vmap(jit(_one_hot))"(#loc2053))
#loc2327 = loc("vmap()/reshape"(#loc2054))
#loc2328 = loc("vmap(jit(_where))"(#loc2055))
#loc2329 = loc("vmap()/broadcast_in_dim"(#loc2070))
#loc2330 = loc("vmap()/select_n"(#loc2070))
#loc2331 = loc("vmap(jit(_one_hot))"(#loc2080))
#loc2332 = loc("vmap()/reshape"(#loc2081))
#loc2333 = loc("vmap(jit(_where))"(#loc2082))
#loc2334 = loc("while/body/closed_call"(#loc2041))
#loc2335 = loc(callsite(#loc489 at #loc2085))
#loc2336 = loc(callsite(#loc495 at #loc2085))
#loc2337 = loc(callsite(#loc497 at #loc2085))
#loc2338 = loc(callsite(#loc500 at #loc2085))
#loc2339 = loc(callsite(#loc501 at #loc2085))
#loc2340 = loc(callsite(#loc502 at #loc2085))
#loc2341 = loc(callsite(#loc503 at #loc2085))
#loc2342 = loc(callsite(#loc504 at #loc2085))
#loc2343 = loc(callsite(#loc505 at #loc2085))
#loc2344 = loc(callsite(#loc507 at #loc2085))
#loc2345 = loc(callsite(#loc518 at #loc2085))
#loc2346 = loc(callsite(#loc519 at #loc2085))
#loc2347 = loc("vmap()/while/cond/lt"(#loc2127))
#loc2348 = loc("vmap()/while/body/jit(dynamic_index_in_dim)"(#loc2127))
#loc2349 = loc("vmap()/while/body/closed_call"(#loc2127))
#loc2350 = loc("vmap()/while/body/jit(dynamic_update_index_in_dim)"(#loc2127))
#loc2351 = loc("vmap()/while/body/add"(#loc2127))
#loc2352 = loc("jit:"(#loc2128))
#loc2353 = loc("jvp(Network)/torso/block/blocks_0/Dense_0/dot_general"(#loc2150))
#loc2354 = loc("jvp(Network)/torso/block/blocks_0/Dense_0/reshape"(#loc2151))
#loc2355 = loc("jvp(Network)/torso/block/blocks_0/Dense_0/add"(#loc2152))
#loc2356 = loc("jvp(Network)/torso/block/blocks_1/query/dot_general"(#loc2155))
#loc2357 = loc("jvp(Network)/torso/block/blocks_1/query/reshape"(#loc2156))
#loc2358 = loc("jvp(Network)/torso/block/blocks_1/query/add"(#loc2157))
#loc2359 = loc("jvp(Network)/torso/block/blocks_1/key/dot_general"(#loc2158))
#loc2360 = loc("jvp(Network)/torso/block/blocks_1/key/reshape"(#loc2159))
#loc2361 = loc("jvp(Network)/torso/block/blocks_1/key/add"(#loc2160))
#loc2362 = loc("jvp(Network)/torso/block/blocks_1/value/dot_general"(#loc2163))
#loc2363 = loc("jvp(Network)/torso/block/blocks_1/value/reshape"(#loc2164))
#loc2364 = loc("jvp(Network)/torso/block/blocks_1/value/add"(#loc2165))
#loc2365 = loc("jvp(Network)/torso/block/blocks_1/convert_element_type"(#loc2168))
#loc2366 = loc("jvp(Network)/torso/block/blocks_1/concatenate"(#loc2168))
#loc2367 = loc("jvp(Network)/torso/block/blocks_1/jit(cumsum)"(#loc2169))
#loc2368 = loc("jvp(Network)/torso/block/blocks_1/slice"(#loc2170))
#loc2369 = loc("jvp(Network)/torso/block/blocks_1/broadcast_in_dim"(#loc2170))
#loc2370 = loc("jvp(Network)/torso/block/blocks_1/slice"(#loc2171))
#loc2371 = loc("jvp(Network)/torso/block/blocks_1/broadcast_in_dim"(#loc2171))
#loc2372 = loc("jvp(Network)/torso/block/blocks_1/eq"(#loc2172))
#loc2373 = loc("jvp(Network)/torso/block/blocks_1/iota"(#loc2173))
#loc2374 = loc("jvp(Network)/torso/block/blocks_1/slice"(#loc2174))
#loc2375 = loc("jvp(Network)/torso/block/blocks_1/broadcast_in_dim"(#loc2174))
#loc2376 = loc("jvp(Network)/torso/block/blocks_1/slice"(#loc2175))
#loc2377 = loc("jvp(Network)/torso/block/blocks_1/broadcast_in_dim"(#loc2175))
#loc2378 = loc("jvp(Network)/torso/block/blocks_1/ge"(#loc2176))
#loc2379 = loc("jvp(Network)/torso/block/blocks_1/broadcast_in_dim"(#loc2177))
#loc2380 = loc("jvp(Network)/torso/block/blocks_1/and"(#loc2177))
#loc2381 = loc("jvp(Network)/torso/block/blocks_1/broadcast_in_dim"(#loc2178))
#loc2382 = loc("jvp(Network)/torso/block/blocks_1/vmap()/mul"(#loc2193))
#loc2383 = loc("jvp(Network)/torso/block/blocks_1/vmap()/broadcast_in_dim"(#loc2193))
#loc2384 = loc("jvp(Network)/torso/block/blocks_1/vmap()/div"(#loc2193))
#loc2385 = loc("jvp(Network)/torso/block/blocks_1/output_projection/dot_general"(#loc2196))
#loc2386 = loc("jvp(Network)/torso/block/blocks_1/output_projection/reshape"(#loc2197))
#loc2387 = loc("jvp(Network)/torso/block/blocks_1/output_projection/add"(#loc2198))
#loc2388 = loc("transpose(jvp(Network))/torso/block/blocks_1/output_projection/reduce_sum"(#loc2198))
#loc2389 = loc("transpose(jvp(Network))/torso/block/blocks_1/output_projection/reshape"(#loc2198))
#loc2390 = loc("transpose(jvp(Network))/torso/block/blocks_1/output_projection/reshape"(#loc2197))
#loc2391 = loc("transpose(jvp(Network))/torso/block/blocks_1/output_projection/dot_general"(#loc2196))
#loc2392 = loc("transpose(jvp(Network))/torso/block/blocks_1/output_projection/transpose"(#loc2196))
#loc2393 = loc("transpose(jvp(Network))/torso/block/blocks_1/value/reduce_sum"(#loc2165))
#loc2394 = loc("transpose(jvp(Network))/torso/block/blocks_1/value/reshape"(#loc2165))
#loc2395 = loc("transpose(jvp(Network))/torso/block/blocks_1/value/reshape"(#loc2164))
#loc2396 = loc("transpose(jvp(Network))/torso/block/blocks_1/value/dot_general"(#loc2163))
#loc2397 = loc("transpose(jvp(Network))/torso/block/blocks_1/value/transpose"(#loc2163))
#loc2398 = loc("transpose(jvp(Network))/torso/block/blocks_1/key/reduce_sum"(#loc2160))
#loc2399 = loc("transpose(jvp(Network))/torso/block/blocks_1/key/reshape"(#loc2160))
#loc2400 = loc("transpose(jvp(Network))/torso/block/blocks_1/key/reshape"(#loc2159))
#loc2401 = loc("transpose(jvp(Network))/torso/block/blocks_1/key/dot_general"(#loc2158))
#loc2402 = loc("transpose(jvp(Network))/torso/block/blocks_1/key/transpose"(#loc2158))
#loc2403 = loc("transpose(jvp(Network))/torso/block/blocks_1/key/add_any"(#loc2158))
#loc2404 = loc("transpose(jvp(Network))/torso/block/blocks_1/query/reduce_sum"(#loc2157))
#loc2405 = loc("transpose(jvp(Network))/torso/block/blocks_1/query/reshape"(#loc2157))
#loc2406 = loc("transpose(jvp(Network))/torso/block/blocks_1/query/reshape"(#loc2156))
#loc2407 = loc("transpose(jvp(Network))/torso/block/blocks_1/query/dot_general"(#loc2155))
#loc2408 = loc("transpose(jvp(Network))/torso/block/blocks_1/query/transpose"(#loc2155))
#loc2409 = loc("transpose(jvp(Network))/torso/block/blocks_1/query/add_any"(#loc2155))
#loc2410 = loc("transpose(jvp(Network))/torso/block/blocks_0/Dense_0/reduce_sum"(#loc2152))
#loc2411 = loc("transpose(jvp(Network))/torso/block/blocks_0/Dense_0/reshape"(#loc2152))
#loc2412 = loc("transpose(jvp(Network))/torso/block/blocks_0/Dense_0/reshape"(#loc2151))
#loc2413 = loc("transpose(jvp(Network))/torso/block/blocks_0/Dense_0/dot_general"(#loc2150))
#loc2414 = loc("transpose(jvp(Network))/torso/block/blocks_0/Dense_0/transpose"(#loc2150))
#loc2415 = loc("integer_pow"(#loc2222))
#loc2416 = loc("jvp(Network)/torso/block/blocks_1/jit"(#loc2169))
#loc2417 = loc("jit:"(#loc2226))
#loc2418 = loc("jit:"(#loc2229))
#loc2419 = loc("Network/torso/block/blocks_0/Dense_0/dot_general"(#loc2231))
#loc2420 = loc("Network/torso/block/blocks_0/Dense_0/reshape"(#loc2232))
#loc2421 = loc("Network/torso/block/blocks_0/Dense_0/add"(#loc2233))
#loc2422 = loc("Network/torso/block/blocks_1/query/dot_general"(#loc2235))
#loc2423 = loc("Network/torso/block/blocks_1/query/reshape"(#loc2236))
#loc2424 = loc("Network/torso/block/blocks_1/query/add"(#loc2237))
#loc2425 = loc("Network/torso/block/blocks_1/key/dot_general"(#loc2238))
#loc2426 = loc("Network/torso/block/blocks_1/key/reshape"(#loc2239))
#loc2427 = loc("Network/torso/block/blocks_1/key/add"(#loc2240))
#loc2428 = loc("Network/torso/block/blocks_1/value/dot_general"(#loc2243))
#loc2429 = loc("Network/torso/block/blocks_1/value/reshape"(#loc2244))
#loc2430 = loc("Network/torso/block/blocks_1/value/add"(#loc2245))
#loc2431 = loc("Network/torso/block/blocks_1/convert_element_type"(#loc2248))
#loc2432 = loc("Network/torso/block/blocks_1/concatenate"(#loc2248))
#loc2433 = loc("Network/torso/block/blocks_1/jit(cumsum)"(#loc2249))
#loc2434 = loc("Network/torso/block/blocks_1/slice"(#loc2250))
#loc2435 = loc("Network/torso/block/blocks_1/broadcast_in_dim"(#loc2250))
#loc2436 = loc("Network/torso/block/blocks_1/slice"(#loc2251))
#loc2437 = loc("Network/torso/block/blocks_1/broadcast_in_dim"(#loc2251))
#loc2438 = loc("Network/torso/block/blocks_1/eq"(#loc2252))
#loc2439 = loc("Network/torso/block/blocks_1/iota"(#loc2253))
#loc2440 = loc("Network/torso/block/blocks_1/slice"(#loc2254))
#loc2441 = loc("Network/torso/block/blocks_1/broadcast_in_dim"(#loc2254))
#loc2442 = loc("Network/torso/block/blocks_1/slice"(#loc2255))
#loc2443 = loc("Network/torso/block/blocks_1/broadcast_in_dim"(#loc2255))
#loc2444 = loc("Network/torso/block/blocks_1/ge"(#loc2256))
#loc2445 = loc("Network/torso/block/blocks_1/broadcast_in_dim"(#loc2257))
#loc2446 = loc("Network/torso/block/blocks_1/and"(#loc2257))
#loc2447 = loc("Network/torso/block/blocks_1/broadcast_in_dim"(#loc2258))
#loc2448 = loc("Network/torso/block/blocks_1/output_projection/dot_general"(#loc2275))
#loc2449 = loc("Network/torso/block/blocks_1/output_projection/reshape"(#loc2276))
#loc2450 = loc("Network/torso/block/blocks_1/output_projection/add"(#loc2277))
#loc2451 = loc("eq"(#loc2289))
#loc2452 = loc("broadcast_in_dim"(#loc2290))
#loc2453 = loc("mul"(#loc2290))
#loc2454 = loc("jit(_where)"(#loc2291))
#loc2455 = loc("vmap()/broadcast_in_dim"(#loc2323))
#loc2456 = loc("vmap()/while"(#loc2323))
#loc2457 = loc(callsite(#loc2323 at #loc2041))
#loc2458 = loc("closed_call:"(#loc2334))
#loc2459 = loc(callsite(#loc488 at #loc2335))
#loc2460 = loc(callsite(#loc493 at #loc2335))
#loc2461 = loc(callsite(#loc494 at #loc2335))
#loc2462 = loc("jit(train_step)/Network/torso/block/blocks_0/jit(relu)"(#loc2336))
#loc2463 = loc(callsite(#loc496 at #loc2337))
#loc2464 = loc(callsite(#loc498 at #loc2337))
#loc2465 = loc(callsite(#loc499 at #loc2337))
#loc2466 = loc(callsite(#loc496 at #loc2338))
#loc2467 = loc(callsite(#loc498 at #loc2338))
#loc2468 = loc(callsite(#loc499 at #loc2338))
#loc2469 = loc("jit(train_step)/Network/torso/block/blocks_1/concatenate"(#loc2339))
#loc2470 = loc("jit(train_step)/Network/torso/block/blocks_1/slice"(#loc2340))
#loc2471 = loc(callsite(#loc496 at #loc2341))
#loc2472 = loc(callsite(#loc498 at #loc2341))
#loc2473 = loc(callsite(#loc499 at #loc2341))
#loc2474 = loc("jit(train_step)/Network/torso/block/blocks_1/concatenate"(#loc2342))
#loc2475 = loc("jit(train_step)/Network/torso/block/blocks_1/slice"(#loc2343))
#loc2476 = loc(callsite(#loc506 at #loc2344))
#loc2477 = loc(callsite(#loc508 at #loc2344))
#loc2478 = loc(callsite(#loc509 at #loc2344))
#loc2479 = loc(callsite(#loc510 at #loc2344))
#loc2480 = loc(callsite(#loc511 at #loc2344))
#loc2481 = loc(callsite(#loc512 at #loc2344))
#loc2482 = loc(callsite(#loc513 at #loc2344))
#loc2483 = loc(callsite(#loc514 at #loc2344))
#loc2484 = loc(callsite(#loc515 at #loc2344))
#loc2485 = loc(callsite(#loc516 at #loc2344))
#loc2486 = loc(callsite(#loc517 at #loc2344))
#loc2487 = loc("jit(train_step)/Network/torso/block/blocks_1/reshape"(#loc2345))
#loc2488 = loc("jit(train_step)/Network/torso/block/blocks_1/broadcast_in_dim"(#loc2345))
#loc2489 = loc("jit(train_step)/Network/torso/block/blocks_1/vmap(BTNH,BSNH->BNTS)/dot_general"(#loc2345))
#loc2490 = loc("jit(train_step)/Network/torso/block/blocks_1/vmap()/mul"(#loc2345))
#loc2491 = loc("jit(train_step)/Network/torso/block/blocks_1/vmap()/broadcast_in_dim"(#loc2345))
#loc2492 = loc("jit(train_step)/Network/torso/block/blocks_1/vmap()/transpose"(#loc2345))
#loc2493 = loc("jit(train_step)/Network/torso/block/blocks_1/vmap()/and"(#loc2345))
#loc2494 = loc("jit(train_step)/Network/torso/block/blocks_1/vmap(jit(_where))"(#loc2345))
#loc2495 = loc("jit(train_step)/Network/torso/block/blocks_1/vmap()/reduce_max"(#loc2345))
#loc2496 = loc("jit(train_step)/Network/torso/block/blocks_1/vmap()/max"(#loc2345))
#loc2497 = loc("jit(train_step)/Network/torso/block/blocks_1/vmap()/sub"(#loc2345))
#loc2498 = loc("jit(train_step)/Network/torso/block/blocks_1/vmap()/exp"(#loc2345))
#loc2499 = loc("jit(train_step)/Network/torso/block/blocks_1/vmap()/reduce_sum"(#loc2345))
#loc2500 = loc("jit(train_step)/Network/torso/block/blocks_1/vmap()/div"(#loc2345))
#loc2501 = loc("jit(train_step)/Network/torso/block/blocks_1/vmap(BNTS,BSNH->BTNH)/dot_general"(#loc2345))
#loc2502 = loc("jit(train_step)/Network/torso/block/blocks_1/vmap(BNTS,BSNH->BTNH)/transpose"(#loc2345))
#loc2503 = loc(callsite(#loc496 at #loc2346))
#loc2504 = loc(callsite(#loc498 at #loc2346))
#loc2505 = loc(callsite(#loc499 at #loc2346))
#loc2506 = loc("jit:"(#loc2416))
#loc2507 = loc("vmap()/while/cond/lt"(#loc2457))
#loc2508 = loc("vmap()/while/body/jit(dynamic_index_in_dim)"(#loc2457))
#loc2509 = loc("vmap()/while/body/closed_call"(#loc2457))
#loc2510 = loc("vmap()/while/body/jit(dynamic_update_index_in_dim)"(#loc2457))
#loc2511 = loc("vmap()/while/body/add"(#loc2457))
#loc2512 = loc("jit(train_step)/Network/torso/block/blocks_0/Dense_0/dot_general"(#loc2459))
#loc2513 = loc("jit(train_step)/Network/torso/block/blocks_0/Dense_0/reshape"(#loc2460))
#loc2514 = loc("jit(train_step)/Network/torso/block/blocks_0/Dense_0/add"(#loc2461))
#loc2515 = loc("jit(train_step)/Network/torso/block/blocks_1/query/dot_general"(#loc2463))
#loc2516 = loc("jit(train_step)/Network/torso/block/blocks_1/query/reshape"(#loc2464))
#loc2517 = loc("jit(train_step)/Network/torso/block/blocks_1/query/add"(#loc2465))
#loc2518 = loc("jit(train_step)/Network/torso/block/blocks_1/key/dot_general"(#loc2466))
#loc2519 = loc("jit(train_step)/Network/torso/block/blocks_1/key/reshape"(#loc2467))
#loc2520 = loc("jit(train_step)/Network/torso/block/blocks_1/key/add"(#loc2468))
#loc2521 = loc("jit(train_step)/Network/torso/block/blocks_1/value/dot_general"(#loc2471))
#loc2522 = loc("jit(train_step)/Network/torso/block/blocks_1/value/reshape"(#loc2472))
#loc2523 = loc("jit(train_step)/Network/torso/block/blocks_1/value/add"(#loc2473))
#loc2524 = loc("jit(train_step)/Network/torso/block/blocks_1/convert_element_type"(#loc2476))
#loc2525 = loc("jit(train_step)/Network/torso/block/blocks_1/concatenate"(#loc2476))
#loc2526 = loc("jit(train_step)/Network/torso/block/blocks_1/jit(cumsum)"(#loc2477))
#loc2527 = loc("jit(train_step)/Network/torso/block/blocks_1/slice"(#loc2478))
#loc2528 = loc("jit(train_step)/Network/torso/block/blocks_1/broadcast_in_dim"(#loc2478))
#loc2529 = loc("jit(train_step)/Network/torso/block/blocks_1/slice"(#loc2479))
#loc2530 = loc("jit(train_step)/Network/torso/block/blocks_1/broadcast_in_dim"(#loc2479))
#loc2531 = loc("jit(train_step)/Network/torso/block/blocks_1/eq"(#loc2480))
#loc2532 = loc("jit(train_step)/Network/torso/block/blocks_1/iota"(#loc2481))
#loc2533 = loc("jit(train_step)/Network/torso/block/blocks_1/slice"(#loc2482))
#loc2534 = loc("jit(train_step)/Network/torso/block/blocks_1/broadcast_in_dim"(#loc2482))
#loc2535 = loc("jit(train_step)/Network/torso/block/blocks_1/slice"(#loc2483))
#loc2536 = loc("jit(train_step)/Network/torso/block/blocks_1/broadcast_in_dim"(#loc2483))
#loc2537 = loc("jit(train_step)/Network/torso/block/blocks_1/ge"(#loc2484))
#loc2538 = loc("jit(train_step)/Network/torso/block/blocks_1/broadcast_in_dim"(#loc2485))
#loc2539 = loc("jit(train_step)/Network/torso/block/blocks_1/and"(#loc2485))
#loc2540 = loc("jit(train_step)/Network/torso/block/blocks_1/broadcast_in_dim"(#loc2486))
#loc2541 = loc("jit(train_step)/Network/torso/block/blocks_1/output_projection/dot_general"(#loc2503))
#loc2542 = loc("jit(train_step)/Network/torso/block/blocks_1/output_projection/reshape"(#loc2504))
#loc2543 = loc("jit(train_step)/Network/torso/block/blocks_1/output_projection/add"(#loc2505))
