#loc = loc(unknown)
#loc1 = loc("state.step")
#loc2 = loc("state.timestep.obs['action_mask']")
#loc3 = loc("state.timestep.obs['observation']")
#loc4 = loc("state.timestep.action")
#loc5 = loc("state.timestep.reward")
#loc6 = loc("state.timestep.terminated")
#loc7 = loc("state.timestep.truncated")
#loc8 = loc("state.timestep.info['guess_count']")
#loc9 = loc("state.timestep.info['illegal_guesses']")
#loc10 = loc("state.timestep.info['matched_secret']")
#loc11 = loc("state.environment_state.secret_answer")
#loc12 = loc("state.environment_state.guess_feedback")
#loc13 = loc("state.environment_state.guess_revealed")
#loc14 = loc("state.environment_state.guess_count")
#loc15 = loc("state.environment_state.matched_secret")
#loc16 = loc("state.carry[1].done")
#loc17 = loc("state.carry[1].key")
#loc18 = loc("state.carry[1].value")
#loc19 = loc("state.params['params']['actor']['kernel']")
#loc20 = loc("state.params['params']['critic']['bias']")
#loc21 = loc("state.params['params']['critic']['kernel']")
#loc22 = loc("state.params['params']['obs']['bias']")
#loc23 = loc("state.params['params']['obs']['kernel']")
#loc24 = loc("state.params['params']['torso']['blocks_0']['Dense_0']['bias']")
#loc25 = loc("state.params['params']['torso']['blocks_0']['Dense_0']['kernel']")
#loc26 = loc("state.params['params']['torso']['blocks_1']['key']['bias']")
#loc27 = loc("state.params['params']['torso']['blocks_1']['key']['kernel']")
#loc28 = loc("state.params['params']['torso']['blocks_1']['output_projection']['bias']")
#loc29 = loc("state.params['params']['torso']['blocks_1']['output_projection']['kernel']")
#loc30 = loc("state.params['params']['torso']['blocks_1']['query']['bias']")
#loc31 = loc("state.params['params']['torso']['blocks_1']['query']['kernel']")
#loc32 = loc("state.params['params']['torso']['blocks_1']['value']['bias']")
#loc33 = loc("state.params['params']['torso']['blocks_1']['value']['kernel']")
#loc34 = loc("state.optimizer_state[1][0].count")
#loc35 = loc("state.optimizer_state[1][0].mu['params']['actor']['kernel']")
#loc36 = loc("state.optimizer_state[1][0].mu['params']['critic']['bias']")
#loc37 = loc("state.optimizer_state[1][0].mu['params']['critic']['kernel']")
#loc38 = loc("state.optimizer_state[1][0].mu['params']['obs']['bias']")
#loc39 = loc("state.optimizer_state[1][0].mu['params']['obs']['kernel']")
#loc40 = loc("state.optimizer_state[1][0].mu['params']['torso']['blocks_0']['Dense_0']['bias']")
#loc41 = loc("state.optimizer_state[1][0].mu['params']['torso']['blocks_0']['Dense_0']['kernel']")
#loc42 = loc("state.optimizer_state[1][0].mu['params']['torso']['blocks_1']['key']['bias']")
#loc43 = loc("state.optimizer_state[1][0].mu['params']['torso']['blocks_1']['key']['kernel']")
#loc44 = loc("state.optimizer_state[1][0].mu['params']['torso']['blocks_1']['output_projection']['bias']")
#loc45 = loc("state.optimizer_state[1][0].mu['params']['torso']['blocks_1']['output_projection']['kernel']")
#loc46 = loc("state.optimizer_state[1][0].mu['params']['torso']['blocks_1']['query']['bias']")
#loc47 = loc("state.optimizer_state[1][0].mu['params']['torso']['blocks_1']['query']['kernel']")
#loc48 = loc("state.optimizer_state[1][0].mu['params']['torso']['blocks_1']['value']['bias']")
#loc49 = loc("state.optimizer_state[1][0].mu['params']['torso']['blocks_1']['value']['kernel']")
#loc50 = loc("state.optimizer_state[1][0].nu['params']['actor']['kernel']")
#loc51 = loc("state.optimizer_state[1][0].nu['params']['critic']['bias']")
#loc52 = loc("state.optimizer_state[1][0].nu['params']['critic']['kernel']")
#loc53 = loc("state.optimizer_state[1][0].nu['params']['obs']['bias']")
#loc54 = loc("state.optimizer_state[1][0].nu['params']['obs']['kernel']")
#loc55 = loc("state.optimizer_state[1][0].nu['params']['torso']['blocks_0']['Dense_0']['bias']")
#loc56 = loc("state.optimizer_state[1][0].nu['params']['torso']['blocks_0']['Dense_0']['kernel']")
#loc57 = loc("state.optimizer_state[1][0].nu['params']['torso']['blocks_1']['key']['bias']")
#loc58 = loc("state.optimizer_state[1][0].nu['params']['torso']['blocks_1']['key']['kernel']")
#loc59 = loc("state.optimizer_state[1][0].nu['params']['torso']['blocks_1']['output_projection']['bias']")
#loc60 = loc("state.optimizer_state[1][0].nu['params']['torso']['blocks_1']['output_projection']['kernel']")
#loc61 = loc("state.optimizer_state[1][0].nu['params']['torso']['blocks_1']['query']['bias']")
#loc62 = loc("state.optimizer_state[1][0].nu['params']['torso']['blocks_1']['query']['kernel']")
#loc63 = loc("state.optimizer_state[1][0].nu['params']['torso']['blocks_1']['value']['bias']")
#loc64 = loc("state.optimizer_state[1][0].nu['params']['torso']['blocks_1']['value']['kernel']")
#loc65 = loc("key")
#loc71 = loc("/Users/noahfarr/noahfarr.github.io/tools/whlo/export_ppo_wordle.py":237:23 to :63)
#loc73 = loc("/Users/noahfarr/reinforcement-learning/src/algorithms/algorithms/recurrent_ppo.py":268:20 to :66)
#loc128 = loc("/Users/noahfarr/reinforcement-learning/src/algorithms/algorithms/recurrent_ppo.py":290:21 to :72)
#loc130 = loc("/Users/noahfarr/noahfarr.github.io/tools/whlo/export_ppo_wordle.py":232:53 to :86)
#loc131 = loc("/Users/noahfarr/noahfarr.github.io/tools/whlo/export_ppo_wordle.py":238:26 to :57)
#loc166 = loc("/Users/noahfarr/reinforcement-learning/.venv/lib/python3.13/site-packages/distrax/_src/distributions/distribution.py":77:14 to :36)
#loc167 = loc("/Users/noahfarr/reinforcement-learning/.venv/lib/python3.13/site-packages/distrax/_src/distributions/distribution.py":174:24 to :69)
#loc168 = loc("/Users/noahfarr/reinforcement-learning/.venv/lib/python3.13/site-packages/distrax/_src/distributions/independent.py":104:24 to 105:33)
#loc169 = loc("/Users/noahfarr/reinforcement-learning/src/algorithms/algorithms/recurrent_ppo.py":80:27 to :68)
#loc172 = loc("/Users/noahfarr/reinforcement-learning/src/policies/policies/distributions.py":15:16 to :76)
#loc192 = loc("/Users/noahfarr/reinforcement-learning/src/environments/environments/wrappers/vectorize.py":31:15 to :51)
#loc193 = loc("/Users/noahfarr/reinforcement-learning/src/algorithms/algorithms/recurrent_ppo.py":85:38 to 87:9)
#loc218 = loc("scatter-add")
#loc275 = loc("reduce_window_sum")
#loc288 = loc("reduce")
#loc308 = loc("vmap()")
#loc332 = loc("sort")
#loc442 = loc("main.<locals>.train_step"(#loc71))
#loc444 = loc("RecurrentPPO.update_step"(#loc73))
#loc499 = loc("RecurrentPPO.update_step"(#loc128))
#loc501 = loc("main.<locals>.solve_rate"(#loc130))
#loc502 = loc("main.<locals>.train_step"(#loc131))
#loc523 = loc("Distribution._sample_n_and_log_prob"(#loc166))
#loc524 = loc("Distribution.sample_and_log_prob"(#loc167))
#loc525 = loc("Independent._sample_n_and_log_prob"(#loc168))
#loc526 = loc("RecurrentPPO.rollout"(#loc169))
#loc529 = loc("Categorical._sample_n"(#loc172))
#loc549 = loc("Vectorize.step"(#loc192))
#loc550 = loc("RecurrentPPO.rollout"(#loc193))
#loc575 = loc("scatter-add:"(#loc218))
#loc628 = loc("reduce_window_sum:"(#loc275))
#loc630 = loc("reduce:"(#loc288))
#loc657 = loc("sort:"(#loc332))
#loc755 = loc(callsite(#loc444 at #loc442))
#loc758 = loc(callsite(#loc499 at #loc442))
#loc760 = loc(callsite(#loc501 at #loc502))
#loc777 = loc(callsite(#loc524 at #loc526))
#loc783 = loc(callsite(#loc549 at #loc550))
#loc939 = loc(callsite(#loc525 at #loc777))
#loc1153 = loc(callsite(#loc524 at #loc939))
#loc1318 = loc(callsite(#loc523 at #loc1153))
#loc1562 = loc(callsite(#loc529 at #loc1318))
module @jit_train_step attributes {jax.uses_shape_polymorphism = false, mhlo.num_partitions = 1 : i32, mhlo.num_replicas = 1 : i32} {
  func.func public @main(%arg0: tensor<i32> loc("state.step"), %arg1: tensor<64x16xi1> loc("state.timestep.obs['action_mask']"), %arg2: tensor<64x15xf32> loc("state.timestep.obs['observation']"), %arg3: tensor<64xi32> loc("state.timestep.action"), %arg4: tensor<64xf32> loc("state.timestep.reward"), %arg5: tensor<64xi1> loc("state.timestep.terminated"), %arg6: tensor<64xi1> loc("state.timestep.truncated"), %arg7: tensor<64xf32> loc("state.timestep.info['guess_count']"), %arg8: tensor<64xf32> loc("state.timestep.info['illegal_guesses']"), %arg9: tensor<64xf32> loc("state.timestep.info['matched_secret']"), %arg10: tensor<64x5xi32> loc("state.environment_state.secret_answer"), %arg11: tensor<64x5xi32> loc("state.environment_state.guess_feedback"), %arg12: tensor<64xi1> loc("state.environment_state.guess_revealed"), %arg13: tensor<64xi32> loc("state.environment_state.guess_count"), %arg14: tensor<64xi1> loc("state.environment_state.matched_secret"), %arg15: tensor<64x16xi32> loc("state.carry[1].done"), %arg16: tensor<64x16x2x16xf32> loc("state.carry[1].key"), %arg17: tensor<64x16x2x16xf32> loc("state.carry[1].value"), %arg18: tensor<32x16xf32> loc("state.params['params']['actor']['kernel']"), %arg19: tensor<1xf32> loc("state.params['params']['critic']['bias']"), %arg20: tensor<32x1xf32> loc("state.params['params']['critic']['kernel']"), %arg21: tensor<32xf32> loc("state.params['params']['obs']['bias']"), %arg22: tensor<15x32xf32> loc("state.params['params']['obs']['kernel']"), %arg23: tensor<32xf32> loc("state.params['params']['torso']['blocks_0']['Dense_0']['bias']"), %arg24: tensor<48x32xf32> loc("state.params['params']['torso']['blocks_0']['Dense_0']['kernel']"), %arg25: tensor<2x16xf32> loc("state.params['params']['torso']['blocks_1']['key']['bias']"), %arg26: tensor<32x2x16xf32> loc("state.params['params']['torso']['blocks_1']['key']['kernel']"), %arg27: tensor<32xf32> loc("state.params['params']['torso']['blocks_1']['output_projection']['bias']"), %arg28: tensor<2x16x32xf32> loc("state.params['params']['torso']['blocks_1']['output_projection']['kernel']"), %arg29: tensor<2x16xf32> loc("state.params['params']['torso']['blocks_1']['query']['bias']"), %arg30: tensor<32x2x16xf32> loc("state.params['params']['torso']['blocks_1']['query']['kernel']"), %arg31: tensor<2x16xf32> loc("state.params['params']['torso']['blocks_1']['value']['bias']"), %arg32: tensor<32x2x16xf32> loc("state.params['params']['torso']['blocks_1']['value']['kernel']"), %arg33: tensor<i32> loc("state.optimizer_state[1][0].count"), %arg34: tensor<32x16xf32> loc("state.optimizer_state[1][0].mu['params']['actor']['kernel']"), %arg35: tensor<1xf32> loc("state.optimizer_state[1][0].mu['params']['critic']['bias']"), %arg36: tensor<32x1xf32> loc("state.optimizer_state[1][0].mu['params']['critic']['kernel']"), %arg37: tensor<32xf32> loc("state.optimizer_state[1][0].mu['params']['obs']['bias']"), %arg38: tensor<15x32xf32> loc("state.optimizer_state[1][0].mu['params']['obs']['kernel']"), %arg39: tensor<32xf32> loc("state.optimizer_state[1][0].mu['params']['torso']['blocks_0']['Dense_0']['bias']"), %arg40: tensor<48x32xf32> loc("state.optimizer_state[1][0].mu['params']['torso']['blocks_0']['Dense_0']['kernel']"), %arg41: tensor<2x16xf32> loc("state.optimizer_state[1][0].mu['params']['torso']['blocks_1']['key']['bias']"), %arg42: tensor<32x2x16xf32> loc("state.optimizer_state[1][0].mu['params']['torso']['blocks_1']['key']['kernel']"), %arg43: tensor<32xf32> loc("state.optimizer_state[1][0].mu['params']['torso']['blocks_1']['output_projection']['bias']"), %arg44: tensor<2x16x32xf32> loc("state.optimizer_state[1][0].mu['params']['torso']['blocks_1']['output_projection']['kernel']"), %arg45: tensor<2x16xf32> loc("state.optimizer_state[1][0].mu['params']['torso']['blocks_1']['query']['bias']"), %arg46: tensor<32x2x16xf32> loc("state.optimizer_state[1][0].mu['params']['torso']['blocks_1']['query']['kernel']"), %arg47: tensor<2x16xf32> loc("state.optimizer_state[1][0].mu['params']['torso']['blocks_1']['value']['bias']"), %arg48: tensor<32x2x16xf32> loc("state.optimizer_state[1][0].mu['params']['torso']['blocks_1']['value']['kernel']"), %arg49: tensor<32x16xf32> loc("state.optimizer_state[1][0].nu['params']['actor']['kernel']"), %arg50: tensor<1xf32> loc("state.optimizer_state[1][0].nu['params']['critic']['bias']"), %arg51: tensor<32x1xf32> loc("state.optimizer_state[1][0].nu['params']['critic']['kernel']"), %arg52: tensor<32xf32> loc("state.optimizer_state[1][0].nu['params']['obs']['bias']"), %arg53: tensor<15x32xf32> loc("state.optimizer_state[1][0].nu['params']['obs']['kernel']"), %arg54: tensor<32xf32> loc("state.optimizer_state[1][0].nu['params']['torso']['blocks_0']['Dense_0']['bias']"), %arg55: tensor<48x32xf32> loc("state.optimizer_state[1][0].nu['params']['torso']['blocks_0']['Dense_0']['kernel']"), %arg56: tensor<2x16xf32> loc("state.optimizer_state[1][0].nu['params']['torso']['blocks_1']['key']['bias']"), %arg57: tensor<32x2x16xf32> loc("state.optimizer_state[1][0].nu['params']['torso']['blocks_1']['key']['kernel']"), %arg58: tensor<32xf32> loc("state.optimizer_state[1][0].nu['params']['torso']['blocks_1']['output_projection']['bias']"), %arg59: tensor<2x16x32xf32> loc("state.optimizer_state[1][0].nu['params']['torso']['blocks_1']['output_projection']['kernel']"), %arg60: tensor<2x16xf32> loc("state.optimizer_state[1][0].nu['params']['torso']['blocks_1']['query']['bias']"), %arg61: tensor<32x2x16xf32> loc("state.optimizer_state[1][0].nu['params']['torso']['blocks_1']['query']['kernel']"), %arg62: tensor<2x16xf32> loc("state.optimizer_state[1][0].nu['params']['torso']['blocks_1']['value']['bias']"), %arg63: tensor<32x2x16xf32> loc("state.optimizer_state[1][0].nu['params']['torso']['blocks_1']['value']['kernel']"), %arg64: tensor<2xui32> loc("key")) -> (tensor<i32> {jax.result_info = "result[0].step"}, tensor<64x16xi1> {jax.result_info = "result[0].timestep.obs['action_mask']"}, tensor<64x15xf32> {jax.result_info = "result[0].timestep.obs['observation']"}, tensor<64xi32> {jax.result_info = "result[0].timestep.action"}, tensor<64xf32> {jax.result_info = "result[0].timestep.reward"}, tensor<64xi1> {jax.result_info = "result[0].timestep.terminated"}, tensor<64xi1> {jax.result_info = "result[0].timestep.truncated"}, tensor<64xf32> {jax.result_info = "result[0].timestep.info['guess_count']"}, tensor<64xf32> {jax.result_info = "result[0].timestep.info['illegal_guesses']"}, tensor<64xf32> {jax.result_info = "result[0].timestep.info['matched_secret']"}, tensor<64x5xi32> {jax.result_info = "result[0].environment_state.secret_answer"}, tensor<64x5xi32> {jax.result_info = "result[0].environment_state.guess_feedback"}, tensor<64xi1> {jax.result_info = "result[0].environment_state.guess_revealed"}, tensor<64xi32> {jax.result_info = "result[0].environment_state.guess_count"}, tensor<64xi1> {jax.result_info = "result[0].environment_state.matched_secret"}, tensor<64x16xi32> {jax.result_info = "result[0].carry[1].done"}, tensor<64x16x2x16xf32> {jax.result_info = "result[0].carry[1].key"}, tensor<64x16x2x16xf32> {jax.result_info = "result[0].carry[1].value"}, tensor<32x16xf32> {jax.result_info = "result[0].params['params']['actor']['kernel']"}, tensor<1xf32> {jax.result_info = "result[0].params['params']['critic']['bias']"}, tensor<32x1xf32> {jax.result_info = "result[0].params['params']['critic']['kernel']"}, tensor<32xf32> {jax.result_info = "result[0].params['params']['obs']['bias']"}, tensor<15x32xf32> {jax.result_info = "result[0].params['params']['obs']['kernel']"}, tensor<32xf32> {jax.result_info = "result[0].params['params']['torso']['blocks_0']['Dense_0']['bias']"}, tensor<48x32xf32> {jax.result_info = "result[0].params['params']['torso']['blocks_0']['Dense_0']['kernel']"}, tensor<2x16xf32> {jax.result_info = "result[0].params['params']['torso']['blocks_1']['key']['bias']"}, tensor<32x2x16xf32> {jax.result_info = "result[0].params['params']['torso']['blocks_1']['key']['kernel']"}, tensor<32xf32> {jax.result_info = "result[0].params['params']['torso']['blocks_1']['output_projection']['bias']"}, tensor<2x16x32xf32> {jax.result_info = "result[0].params['params']['torso']['blocks_1']['output_projection']['kernel']"}, tensor<2x16xf32> {jax.result_info = "result[0].params['params']['torso']['blocks_1']['query']['bias']"}, tensor<32x2x16xf32> {jax.result_info = "result[0].params['params']['torso']['blocks_1']['query']['kernel']"}, tensor<2x16xf32> {jax.result_info = "result[0].params['params']['torso']['blocks_1']['value']['bias']"}, tensor<32x2x16xf32> {jax.result_info = "result[0].params['params']['torso']['blocks_1']['value']['kernel']"}, tensor<i32> {jax.result_info = "result[0].optimizer_state[1][0].count"}, tensor<32x16xf32> {jax.result_info = "result[0].optimizer_state[1][0].mu['params']['actor']['kernel']"}, tensor<1xf32> {jax.result_info = "result[0].optimizer_state[1][0].mu['params']['critic']['bias']"}, tensor<32x1xf32> {jax.result_info = "result[0].optimizer_state[1][0].mu['params']['critic']['kernel']"}, tensor<32xf32> {jax.result_info = "result[0].optimizer_state[1][0].mu['params']['obs']['bias']"}, tensor<15x32xf32> {jax.result_info = "result[0].optimizer_state[1][0].mu['params']['obs']['kernel']"}, tensor<32xf32> {jax.result_info = "result[0].optimizer_state[1][0].mu['params']['torso']['blocks_0']['Dense_0']['bias']"}, tensor<48x32xf32> {jax.result_info = "result[0].optimizer_state[1][0].mu['params']['torso']['blocks_0']['Dense_0']['kernel']"}, tensor<2x16xf32> {jax.result_info = "result[0].optimizer_state[1][0].mu['params']['torso']['blocks_1']['key']['bias']"}, tensor<32x2x16xf32> {jax.result_info = "result[0].optimizer_state[1][0].mu['params']['torso']['blocks_1']['key']['kernel']"}, tensor<32xf32> {jax.result_info = "result[0].optimizer_state[1][0].mu['params']['torso']['blocks_1']['output_projection']['bias']"}, tensor<2x16x32xf32> {jax.result_info = "result[0].optimizer_state[1][0].mu['params']['torso']['blocks_1']['output_projection']['kernel']"}, tensor<2x16xf32> {jax.result_info = "result[0].optimizer_state[1][0].mu['params']['torso']['blocks_1']['query']['bias']"}, tensor<32x2x16xf32> {jax.result_info = "result[0].optimizer_state[1][0].mu['params']['torso']['blocks_1']['query']['kernel']"}, tensor<2x16xf32> {jax.result_info = "result[0].optimizer_state[1][0].mu['params']['torso']['blocks_1']['value']['bias']"}, tensor<32x2x16xf32> {jax.result_info = "result[0].optimizer_state[1][0].mu['params']['torso']['blocks_1']['value']['kernel']"}, tensor<32x16xf32> {jax.result_info = "result[0].optimizer_state[1][0].nu['params']['actor']['kernel']"}, tensor<1xf32> {jax.result_info = "result[0].optimizer_state[1][0].nu['params']['critic']['bias']"}, tensor<32x1xf32> {jax.result_info = "result[0].optimizer_state[1][0].nu['params']['critic']['kernel']"}, tensor<32xf32> {jax.result_info = "result[0].optimizer_state[1][0].nu['params']['obs']['bias']"}, tensor<15x32xf32> {jax.result_info = "result[0].optimizer_state[1][0].nu['params']['obs']['kernel']"}, tensor<32xf32> {jax.result_info = "result[0].optimizer_state[1][0].nu['params']['torso']['blocks_0']['Dense_0']['bias']"}, tensor<48x32xf32> {jax.result_info = "result[0].optimizer_state[1][0].nu['params']['torso']['blocks_0']['Dense_0']['kernel']"}, tensor<2x16xf32> {jax.result_info = "result[0].optimizer_state[1][0].nu['params']['torso']['blocks_1']['key']['bias']"}, tensor<32x2x16xf32> {jax.result_info = "result[0].optimizer_state[1][0].nu['params']['torso']['blocks_1']['key']['kernel']"}, tensor<32xf32> {jax.result_info = "result[0].optimizer_state[1][0].nu['params']['torso']['blocks_1']['output_projection']['bias']"}, tensor<2x16x32xf32> {jax.result_info = "result[0].optimizer_state[1][0].nu['params']['torso']['blocks_1']['output_projection']['kernel']"}, tensor<2x16xf32> {jax.result_info = "result[0].optimizer_state[1][0].nu['params']['torso']['blocks_1']['query']['bias']"}, tensor<32x2x16xf32> {jax.result_info = "result[0].optimizer_state[1][0].nu['params']['torso']['blocks_1']['query']['kernel']"}, tensor<2x16xf32> {jax.result_info = "result[0].optimizer_state[1][0].nu['params']['torso']['blocks_1']['value']['bias']"}, tensor<32x2x16xf32> {jax.result_info = "result[0].optimizer_state[1][0].nu['params']['torso']['blocks_1']['value']['kernel']"}, tensor<f32> {jax.result_info = "result[1]"}) {
    %cst = stablehlo.constant dense<1.000000e+00> : tensor<f32> loc(#loc895)
    %c = stablehlo.constant dense<24> : tensor<i32> loc(#loc)
    %c_0 = stablehlo.constant dense<4> : tensor<i32> loc(#loc)
    %cst_1 = stablehlo.constant dense<-3.40282347E+38> : tensor<f32> loc(#loc895)
    %cst_2 = stablehlo.constant dense<0xFF800000> : tensor<f32> loc(#loc)
    %cst_3 = stablehlo.constant dense<-2.38197633E+38> : tensor<f32> loc(#loc895)
    %c_4 = stablehlo.constant dense<true> : tensor<i1> loc(#loc895)
    %cst_5 = stablehlo.constant dense<2.500000e-01> : tensor<f32> loc(#loc895)
    %c_6 = stablehlo.constant dense<1> : tensor<i32> loc(#loc)
    %c_7 = stablehlo.constant dense<16> : tensor<i32> loc(#loc)
    %c_8 = stablehlo.constant dense<0> : tensor<i32> loc(#loc)
    %cst_9 = stablehlo.constant dense<0.000000e+00> : tensor<f32> loc(#loc)
    %c_10 = stablehlo.constant dense<false> : tensor<i1> loc(#loc)
    %c_11 = stablehlo.constant dense<[[2, 17, 0, 13, 4], [18, 11, 0, 19, 4], [0, 20, 3, 8, 14], [7, 14, 20, 18, 4], [15, 11, 0, 13, 19], [1, 17, 8, 2, 10], [18, 19, 14, 17, 12], [2, 11, 14, 20, 3], [6, 17, 0, 15, 4], [5, 11, 8, 13, 19], [12, 14, 20, 13, 3], [18, 15, 0, 3, 4], [2, 7, 0, 8, 17], [11, 4, 12, 14, 13], [5, 17, 14, 18, 19], [6, 11, 0, 25, 4]]> : tensor<16x5xi32> loc(#loc895)
    %c_12 = stablehlo.constant dense<[1613312, 1732200, 1881040, 2056836, 2091992, 2158163, 2162152, 2267596, 4610763, 5792480, 6194979, 6540820, 7909384, 8911333, 8916731, 9008823]> : tensor<16xi32> loc(#loc895)
    %c_13 = stablehlo.constant dense<[[0, 20, 3, 8, 14], [1, 17, 8, 2, 10], [2, 7, 0, 8, 17], [2, 11, 14, 20, 3], [2, 17, 0, 13, 4], [5, 11, 8, 13, 19], [5, 17, 14, 18, 19], [6, 11, 0, 25, 4], [6, 17, 0, 15, 4], [7, 14, 20, 18, 4], [11, 4, 12, 14, 13], [12, 14, 20, 13, 3], [15, 11, 0, 13, 19], [18, 11, 0, 19, 4], [18, 15, 0, 3, 4], [18, 19, 14, 17, 12]]> : tensor<16x5xi32> loc(#loc895)
    %0 = call @_threefry_split(%arg64) : (tensor<2xui32>) -> tensor<2x2xui32> loc(#loc1268)
    %1 = stablehlo.slice %0 [0:1, 0:2] : (tensor<2x2xui32>) -> tensor<1x2xui32> loc(#loc1116)
    %2 = stablehlo.reshape %1 : (tensor<1x2xui32>) -> tensor<2xui32> loc(#loc1117)
    %3 = stablehlo.slice %0 [1:2, 0:2] : (tensor<2x2xui32>) -> tensor<1x2xui32> loc(#loc1116)
    %4 = stablehlo.reshape %3 : (tensor<1x2xui32>) -> tensor<2xui32> loc(#loc1117)
    %5 = call @_threefry_split(%2) : (tensor<2xui32>) -> tensor<2x2xui32> loc(#loc1465)
    %6 = stablehlo.slice %5 [0:1, 0:2] : (tensor<2x2xui32>) -> tensor<1x2xui32> loc(#loc1270)
    %7 = stablehlo.reshape %6 : (tensor<1x2xui32>) -> tensor<2xui32> loc(#loc1271)
    %8 = stablehlo.slice %5 [1:2, 0:2] : (tensor<2x2xui32>) -> tensor<1x2xui32> loc(#loc1270)
    %9 = stablehlo.reshape %8 : (tensor<1x2xui32>) -> tensor<2xui32> loc(#loc1271)
    %10 = call @_threefry_split_0(%7) : (tensor<2xui32>) -> tensor<16x2xui32> loc(#loc1466)
    %11 = stablehlo.broadcast_in_dim %c_10, dims = [] : (tensor<i1>) -> tensor<16x64x16xi1> loc(#loc1467)
    %12 = stablehlo.broadcast_in_dim %cst_9, dims = [] : (tensor<f32>) -> tensor<16x64x15xf32> loc(#loc1467)
    %13 = stablehlo.broadcast_in_dim %c_8, dims = [] : (tensor<i32>) -> tensor<16x64xi32> loc(#loc1467)
    %14 = stablehlo.broadcast_in_dim %cst_9, dims = [] : (tensor<f32>) -> tensor<16x64xf32> loc(#loc1467)
    %15 = stablehlo.broadcast_in_dim %c_10, dims = [] : (tensor<i1>) -> tensor<16x64xi1> loc(#loc1467)
    %16 = stablehlo.broadcast_in_dim %c_10, dims = [] : (tensor<i1>) -> tensor<16x64xi1> loc(#loc1467)
    %17 = stablehlo.broadcast_in_dim %cst_9, dims = [] : (tensor<f32>) -> tensor<16x64xf32> loc(#loc1467)
    %18 = stablehlo.broadcast_in_dim %cst_9, dims = [] : (tensor<f32>) -> tensor<16x64xf32> loc(#loc1467)
    %19 = stablehlo.broadcast_in_dim %cst_9, dims = [] : (tensor<f32>) -> tensor<16x64xf32> loc(#loc1467)
    %20 = stablehlo.broadcast_in_dim %c_10, dims = [] : (tensor<i1>) -> tensor<16x64x16xi1> loc(#loc1467)
    %21 = stablehlo.broadcast_in_dim %cst_9, dims = [] : (tensor<f32>) -> tensor<16x64x15xf32> loc(#loc1467)
    %22 = stablehlo.broadcast_in_dim %c_8, dims = [] : (tensor<i32>) -> tensor<16x64xi32> loc(#loc1467)
    %23 = stablehlo.broadcast_in_dim %cst_9, dims = [] : (tensor<f32>) -> tensor<16x64xf32> loc(#loc1467)
    %24 = stablehlo.broadcast_in_dim %c_10, dims = [] : (tensor<i1>) -> tensor<16x64xi1> loc(#loc1467)
    %25 = stablehlo.broadcast_in_dim %c_10, dims = [] : (tensor<i1>) -> tensor<16x64xi1> loc(#loc1467)
    %26 = stablehlo.broadcast_in_dim %cst_9, dims = [] : (tensor<f32>) -> tensor<16x64xf32> loc(#loc1467)
    %27 = stablehlo.broadcast_in_dim %cst_9, dims = [] : (tensor<f32>) -> tensor<16x64xf32> loc(#loc1467)
    %28 = stablehlo.broadcast_in_dim %cst_9, dims = [] : (tensor<f32>) -> tensor<16x64xf32> loc(#loc1467)
    %29 = stablehlo.broadcast_in_dim %cst_9, dims = [] : (tensor<f32>) -> tensor<16x64xf32> loc(#loc1467)
    %30 = stablehlo.broadcast_in_dim %cst_9, dims = [] : (tensor<f32>) -> tensor<16x64xf32> loc(#loc1467)
    %31:89 = stablehlo.while(%iterArg = %10, %iterArg_14 = %arg18, %iterArg_15 = %arg19, %iterArg_16 = %arg20, %iterArg_17 = %arg21, %iterArg_18 = %arg22, %iterArg_19 = %arg23, %iterArg_20 = %arg24, %iterArg_21 = %arg25, %iterArg_22 = %arg26, %iterArg_23 = %arg27, %iterArg_24 = %arg28, %iterArg_25 = %arg29, %iterArg_26 = %arg30, %iterArg_27 = %arg31, %iterArg_28 = %arg32, %iterArg_29 = %arg33, %iterArg_30 = %arg34, %iterArg_31 = %arg35, %iterArg_32 = %arg36, %iterArg_33 = %arg37, %iterArg_34 = %arg38, %iterArg_35 = %arg39, %iterArg_36 = %arg40, %iterArg_37 = %arg41, %iterArg_38 = %arg42, %iterArg_39 = %arg43, %iterArg_40 = %arg44, %iterArg_41 = %arg45, %iterArg_42 = %arg46, %iterArg_43 = %arg47, %iterArg_44 = %arg48, %iterArg_45 = %arg49, %iterArg_46 = %arg50, %iterArg_47 = %arg51, %iterArg_48 = %arg52, %iterArg_49 = %arg53, %iterArg_50 = %arg54, %iterArg_51 = %arg55, %iterArg_52 = %arg56, %iterArg_53 = %arg57, %iterArg_54 = %arg58, %iterArg_55 = %arg59, %iterArg_56 = %arg60, %iterArg_57 = %arg61, %iterArg_58 = %arg62, %iterArg_59 = %arg63, %iterArg_60 = %c_11, %iterArg_61 = %c_12, %iterArg_62 = %c_13, %iterArg_63 = %c_8, %iterArg_64 = %arg0, %iterArg_65 = %arg1, %iterArg_66 = %arg2, %iterArg_67 = %arg3, %iterArg_68 = %arg4, %iterArg_69 = %arg5, %iterArg_70 = %arg6, %iterArg_71 = %arg7, %iterArg_72 = %arg8, %iterArg_73 = %arg9, %iterArg_74 = %arg10, %iterArg_75 = %arg11, %iterArg_76 = %arg12, %iterArg_77 = %arg13, %iterArg_78 = %arg14, %iterArg_79 = %arg15, %iterArg_80 = %arg16, %iterArg_81 = %arg17, %iterArg_82 = %11, %iterArg_83 = %12, %iterArg_84 = %13, %iterArg_85 = %14, %iterArg_86 = %15, %iterArg_87 = %16, %iterArg_88 = %17, %iterArg_89 = %18, %iterArg_90 = %19, %iterArg_91 = %20, %iterArg_92 = %21, %iterArg_93 = %22, %iterArg_94 = %23, %iterArg_95 = %24, %iterArg_96 = %25, %iterArg_97 = %26, %iterArg_98 = %27, %iterArg_99 = %28, %iterArg_100 = %29, %iterArg_101 = %30) : tensor<16x2xui32>, tensor<32x16xf32>, tensor<1xf32>, tensor<32x1xf32>, tensor<32xf32>, tensor<15x32xf32>, tensor<32xf32>, tensor<48x32xf32>, tensor<2x16xf32>, tensor<32x2x16xf32>, tensor<32xf32>, tensor<2x16x32xf32>, tensor<2x16xf32>, tensor<32x2x16xf32>, tensor<2x16xf32>, tensor<32x2x16xf32>, tensor<i32>, tensor<32x16xf32>, tensor<1xf32>, tensor<32x1xf32>, tensor<32xf32>, tensor<15x32xf32>, tensor<32xf32>, tensor<48x32xf32>, tensor<2x16xf32>, tensor<32x2x16xf32>, tensor<32xf32>, tensor<2x16x32xf32>, tensor<2x16xf32>, tensor<32x2x16xf32>, tensor<2x16xf32>, tensor<32x2x16xf32>, tensor<32x16xf32>, tensor<1xf32>, tensor<32x1xf32>, tensor<32xf32>, tensor<15x32xf32>, tensor<32xf32>, tensor<48x32xf32>, tensor<2x16xf32>, tensor<32x2x16xf32>, tensor<32xf32>, tensor<2x16x32xf32>, tensor<2x16xf32>, tensor<32x2x16xf32>, tensor<2x16xf32>, tensor<32x2x16xf32>, tensor<16x5xi32>, tensor<16xi32>, tensor<16x5xi32>, tensor<i32>, tensor<i32>, tensor<64x16xi1>, tensor<64x15xf32>, tensor<64xi32>, tensor<64xf32>, tensor<64xi1>, tensor<64xi1>, tensor<64xf32>, tensor<64xf32>, tensor<64xf32>, tensor<64x5xi32>, tensor<64x5xi32>, tensor<64xi1>, tensor<64xi32>, tensor<64xi1>, tensor<64x16xi32>, tensor<64x16x2x16xf32>, tensor<64x16x2x16xf32>, tensor<16x64x16xi1>, tensor<16x64x15xf32>, tensor<16x64xi32>, tensor<16x64xf32>, tensor<16x64xi1>, tensor<16x64xi1>, tensor<16x64xf32>, tensor<16x64xf32>, tensor<16x64xf32>, tensor<16x64x16xi1>, tensor<16x64x15xf32>, tensor<16x64xi32>, tensor<16x64xf32>, tensor<16x64xi1>, tensor<16x64xi1>, tensor<16x64xf32>, tensor<16x64xf32>, tensor<16x64xf32>, tensor<16x64xf32>, tensor<16x64xf32>
    cond {
      %138 = stablehlo.compare LT, %iterArg_63, %c_7, SIGNED : (tensor<i32>, tensor<i32>) -> tensor<i1> loc(#loc1469)
      stablehlo.return %138 : tensor<i1> loc(#loc1468)
    } do {
      %138 = func.call @dynamic_index_in_dim(%iterArg, %iterArg_63) : (tensor<16x2xui32>, tensor<i32>) -> tensor<2xui32> loc(#loc1470)
      %139:38 = func.call @closed_call_3(%iterArg_14, %iterArg_15, %iterArg_16, %iterArg_17, %iterArg_18, %iterArg_19, %iterArg_20, %iterArg_21, %iterArg_22, %iterArg_23, %iterArg_24, %iterArg_25, %iterArg_26, %iterArg_27, %iterArg_28, %iterArg_29, %iterArg_30, %iterArg_31, %iterArg_32, %iterArg_33, %iterArg_34, %iterArg_35, %iterArg_36, %iterArg_37, %iterArg_38, %iterArg_39, %iterArg_40, %iterArg_41, %iterArg_42, %iterArg_43, %iterArg_44, %iterArg_45, %iterArg_46, %iterArg_47, %iterArg_48, %iterArg_49, %iterArg_50, %iterArg_51, %iterArg_52, %iterArg_53, %iterArg_54, %iterArg_55, %iterArg_56, %iterArg_57, %iterArg_58, %iterArg_59, %iterArg_60, %iterArg_61, %iterArg_62, %iterArg_64, %iterArg_65, %iterArg_66, %iterArg_67, %iterArg_68, %iterArg_69, %iterArg_70, %iterArg_71, %iterArg_72, %iterArg_73, %iterArg_74, %iterArg_75, %iterArg_76, %iterArg_77, %iterArg_78, %iterArg_79, %iterArg_80, %iterArg_81, %138) : (tensor<32x16xf32>, tensor<1xf32>, tensor<32x1xf32>, tensor<32xf32>, tensor<15x32xf32>, tensor<32xf32>, tensor<48x32xf32>, tensor<2x16xf32>, tensor<32x2x16xf32>, tensor<32xf32>, tensor<2x16x32xf32>, tensor<2x16xf32>, tensor<32x2x16xf32>, tensor<2x16xf32>, tensor<32x2x16xf32>, tensor<i32>, tensor<32x16xf32>, tensor<1xf32>, tensor<32x1xf32>, tensor<32xf32>, tensor<15x32xf32>, tensor<32xf32>, tensor<48x32xf32>, tensor<2x16xf32>, tensor<32x2x16xf32>, tensor<32xf32>, tensor<2x16x32xf32>, tensor<2x16xf32>, tensor<32x2x16xf32>, tensor<2x16xf32>, tensor<32x2x16xf32>, tensor<32x16xf32>, tensor<1xf32>, tensor<32x1xf32>, tensor<32xf32>, tensor<15x32xf32>, tensor<32xf32>, tensor<48x32xf32>, tensor<2x16xf32>, tensor<32x2x16xf32>, tensor<32xf32>, tensor<2x16x32xf32>, tensor<2x16xf32>, tensor<32x2x16xf32>, tensor<2x16xf32>, tensor<32x2x16xf32>, tensor<16x5xi32>, tensor<16xi32>, tensor<16x5xi32>, tensor<i32>, tensor<64x16xi1>, tensor<64x15xf32>, tensor<64xi32>, tensor<64xf32>, tensor<64xi1>, tensor<64xi1>, tensor<64xf32>, tensor<64xf32>, tensor<64xf32>, tensor<64x5xi32>, tensor<64x5xi32>, tensor<64xi1>, tensor<64xi32>, tensor<64xi1>, tensor<64x16xi32>, tensor<64x16x2x16xf32>, tensor<64x16x2x16xf32>, tensor<2xui32>) -> (tensor<i32>, tensor<64x16xi1>, tensor<64x15xf32>, tensor<64xi32>, tensor<64xf32>, tensor<64xi1>, tensor<64xi1>, tensor<64xf32>, tensor<64xf32>, tensor<64xf32>, tensor<64x5xi32>, tensor<64x5xi32>, tensor<64xi1>, tensor<64xi32>, tensor<64xi1>, tensor<64x16xi32>, tensor<64x16x2x16xf32>, tensor<64x16x2x16xf32>, tensor<64x16xi1>, tensor<64x15xf32>, tensor<64xi32>, tensor<64xf32>, tensor<64xi1>, tensor<64xi1>, tensor<64xf32>, tensor<64xf32>, tensor<64xf32>, tensor<64x16xi1>, tensor<64x15xf32>, tensor<64xi32>, tensor<64xf32>, tensor<64xi1>, tensor<64xi1>, tensor<64xf32>, tensor<64xf32>, tensor<64xf32>, tensor<64xf32>, tensor<64xf32>) loc(#loc1471)
      %140 = func.call @dynamic_update_index_in_dim_36(%iterArg_82, %139#18, %iterArg_63) : (tensor<16x64x16xi1>, tensor<64x16xi1>, tensor<i32>) -> tensor<16x64x16xi1> loc(#loc1472)
      %141 = func.call @dynamic_update_index_in_dim_37(%iterArg_83, %139#19, %iterArg_63) : (tensor<16x64x15xf32>, tensor<64x15xf32>, tensor<i32>) -> tensor<16x64x15xf32> loc(#loc1472)
      %142 = func.call @dynamic_update_index_in_dim_38(%iterArg_84, %139#20, %iterArg_63) : (tensor<16x64xi32>, tensor<64xi32>, tensor<i32>) -> tensor<16x64xi32> loc(#loc1472)
      %143 = func.call @dynamic_update_index_in_dim_39(%iterArg_85, %139#21, %iterArg_63) : (tensor<16x64xf32>, tensor<64xf32>, tensor<i32>) -> tensor<16x64xf32> loc(#loc1472)
      %144 = func.call @dynamic_update_index_in_dim_40(%iterArg_86, %139#22, %iterArg_63) : (tensor<16x64xi1>, tensor<64xi1>, tensor<i32>) -> tensor<16x64xi1> loc(#loc1472)
      %145 = func.call @dynamic_update_index_in_dim_40(%iterArg_87, %139#23, %iterArg_63) : (tensor<16x64xi1>, tensor<64xi1>, tensor<i32>) -> tensor<16x64xi1> loc(#loc1472)
      %146 = func.call @dynamic_update_index_in_dim_39(%iterArg_88, %139#24, %iterArg_63) : (tensor<16x64xf32>, tensor<64xf32>, tensor<i32>) -> tensor<16x64xf32> loc(#loc1472)
      %147 = func.call @dynamic_update_index_in_dim_39(%iterArg_89, %139#25, %iterArg_63) : (tensor<16x64xf32>, tensor<64xf32>, tensor<i32>) -> tensor<16x64xf32> loc(#loc1472)
      %148 = func.call @dynamic_update_index_in_dim_39(%iterArg_90, %139#26, %iterArg_63) : (tensor<16x64xf32>, tensor<64xf32>, tensor<i32>) -> tensor<16x64xf32> loc(#loc1472)
      %149 = func.call @dynamic_update_index_in_dim_36(%iterArg_91, %139#27, %iterArg_63) : (tensor<16x64x16xi1>, tensor<64x16xi1>, tensor<i32>) -> tensor<16x64x16xi1> loc(#loc1472)
      %150 = func.call @dynamic_update_index_in_dim_37(%iterArg_92, %139#28, %iterArg_63) : (tensor<16x64x15xf32>, tensor<64x15xf32>, tensor<i32>) -> tensor<16x64x15xf32> loc(#loc1472)
      %151 = func.call @dynamic_update_index_in_dim_38(%iterArg_93, %139#29, %iterArg_63) : (tensor<16x64xi32>, tensor<64xi32>, tensor<i32>) -> tensor<16x64xi32> loc(#loc1472)
      %152 = func.call @dynamic_update_index_in_dim_39(%iterArg_94, %139#30, %iterArg_63) : (tensor<16x64xf32>, tensor<64xf32>, tensor<i32>) -> tensor<16x64xf32> loc(#loc1472)
      %153 = func.call @dynamic_update_index_in_dim_40(%iterArg_95, %139#31, %iterArg_63) : (tensor<16x64xi1>, tensor<64xi1>, tensor<i32>) -> tensor<16x64xi1> loc(#loc1472)
      %154 = func.call @dynamic_update_index_in_dim_40(%iterArg_96, %139#32, %iterArg_63) : (tensor<16x64xi1>, tensor<64xi1>, tensor<i32>) -> tensor<16x64xi1> loc(#loc1472)
      %155 = func.call @dynamic_update_index_in_dim_39(%iterArg_97, %139#33, %iterArg_63) : (tensor<16x64xf32>, tensor<64xf32>, tensor<i32>) -> tensor<16x64xf32> loc(#loc1472)
      %156 = func.call @dynamic_update_index_in_dim_39(%iterArg_98, %139#34, %iterArg_63) : (tensor<16x64xf32>, tensor<64xf32>, tensor<i32>) -> tensor<16x64xf32> loc(#loc1472)
      %157 = func.call @dynamic_update_index_in_dim_39(%iterArg_99, %139#35, %iterArg_63) : (tensor<16x64xf32>, tensor<64xf32>, tensor<i32>) -> tensor<16x64xf32> loc(#loc1472)
      %158 = func.call @dynamic_update_index_in_dim_39(%iterArg_100, %139#36, %iterArg_63) : (tensor<16x64xf32>, tensor<64xf32>, tensor<i32>) -> tensor<16x64xf32> loc(#loc1472)
      %159 = func.call @dynamic_update_index_in_dim_39(%iterArg_101, %139#37, %iterArg_63) : (tensor<16x64xf32>, tensor<64xf32>, tensor<i32>) -> tensor<16x64xf32> loc(#loc1472)
      %160 = stablehlo.add %iterArg_63, %c_6 : tensor<i32> loc(#loc1473)
      stablehlo.return %iterArg, %iterArg_14, %iterArg_15, %iterArg_16, %iterArg_17, %iterArg_18, %iterArg_19, %iterArg_20, %iterArg_21, %iterArg_22, %iterArg_23, %iterArg_24, %iterArg_25, %iterArg_26, %iterArg_27, %iterArg_28, %iterArg_29, %iterArg_30, %iterArg_31, %iterArg_32, %iterArg_33, %iterArg_34, %iterArg_35, %iterArg_36, %iterArg_37, %iterArg_38, %iterArg_39, %iterArg_40, %iterArg_41, %iterArg_42, %iterArg_43, %iterArg_44, %iterArg_45, %iterArg_46, %iterArg_47, %iterArg_48, %iterArg_49, %iterArg_50, %iterArg_51, %iterArg_52, %iterArg_53, %iterArg_54, %iterArg_55, %iterArg_56, %iterArg_57, %iterArg_58, %iterArg_59, %iterArg_60, %iterArg_61, %iterArg_62, %160, %139#0, %139#1, %139#2, %139#3, %139#4, %139#5, %139#6, %139#7, %139#8, %139#9, %139#10, %139#11, %139#12, %139#13, %139#14, %139#15, %139#16, %139#17, %140, %141, %142, %143, %144, %145, %146, %147, %148, %149, %150, %151, %152, %153, %154, %155, %156, %157, %158, %159 : tensor<16x2xui32>, tensor<32x16xf32>, tensor<1xf32>, tensor<32x1xf32>, tensor<32xf32>, tensor<15x32xf32>, tensor<32xf32>, tensor<48x32xf32>, tensor<2x16xf32>, tensor<32x2x16xf32>, tensor<32xf32>, tensor<2x16x32xf32>, tensor<2x16xf32>, tensor<32x2x16xf32>, tensor<2x16xf32>, tensor<32x2x16xf32>, tensor<i32>, tensor<32x16xf32>, tensor<1xf32>, tensor<32x1xf32>, tensor<32xf32>, tensor<15x32xf32>, tensor<32xf32>, tensor<48x32xf32>, tensor<2x16xf32>, tensor<32x2x16xf32>, tensor<32xf32>, tensor<2x16x32xf32>, tensor<2x16xf32>, tensor<32x2x16xf32>, tensor<2x16xf32>, tensor<32x2x16xf32>, tensor<32x16xf32>, tensor<1xf32>, tensor<32x1xf32>, tensor<32xf32>, tensor<15x32xf32>, tensor<32xf32>, tensor<48x32xf32>, tensor<2x16xf32>, tensor<32x2x16xf32>, tensor<32xf32>, tensor<2x16x32xf32>, tensor<2x16xf32>, tensor<32x2x16xf32>, tensor<2x16xf32>, tensor<32x2x16xf32>, tensor<16x5xi32>, tensor<16xi32>, tensor<16x5xi32>, tensor<i32>, tensor<i32>, tensor<64x16xi1>, tensor<64x15xf32>, tensor<64xi32>, tensor<64xf32>, tensor<64xi1>, tensor<64xi1>, tensor<64xf32>, tensor<64xf32>, tensor<64xf32>, tensor<64x5xi32>, tensor<64x5xi32>, tensor<64xi1>, tensor<64xi32>, tensor<64xi1>, tensor<64x16xi32>, tensor<64x16x2x16xf32>, tensor<64x16x2x16xf32>, tensor<16x64x16xi1>, tensor<16x64x15xf32>, tensor<16x64xi32>, tensor<16x64xf32>, tensor<16x64xi1>, tensor<16x64xi1>, tensor<16x64xf32>, tensor<16x64xf32>, tensor<16x64xf32>, tensor<16x64x16xi1>, tensor<16x64x15xf32>, tensor<16x64xi32>, tensor<16x64xf32>, tensor<16x64xi1>, tensor<16x64xi1>, tensor<16x64xf32>, tensor<16x64xf32>, tensor<16x64xf32>, tensor<16x64xf32>, tensor<16x64xf32> loc(#loc1468)
    } loc(#loc1468)
    %32 = stablehlo.broadcast_in_dim %31#52, dims = [0, 2] : (tensor<64x16xi1>) -> tensor<64x1x16xi1> loc(#loc1757)
    %33 = stablehlo.broadcast_in_dim %31#53, dims = [0, 2] : (tensor<64x15xf32>) -> tensor<64x1x15xf32> loc(#loc1757)
    %34 = stablehlo.broadcast_in_dim %31#54, dims = [0] : (tensor<64xi32>) -> tensor<64x1xi32> loc(#loc1757)
    %35 = stablehlo.broadcast_in_dim %31#56, dims = [0] : (tensor<64xi1>) -> tensor<64x1xi1> loc(#loc1757)
    %36 = stablehlo.broadcast_in_dim %31#57, dims = [0] : (tensor<64xi1>) -> tensor<64x1xi1> loc(#loc1757)
    %37 = stablehlo.or %35, %36 : tensor<64x1xi1> loc(#loc1475)
    %38 = stablehlo.dot_general %33, %arg22, contracting_dims = [2] x [0] : (tensor<64x1x15xf32>, tensor<15x32xf32>) -> tensor<64x1x32xf32> loc(#loc1758)
    %39 = stablehlo.reshape %arg21 : (tensor<32xf32>) -> tensor<1x1x32xf32> loc(#loc1759)
    %40 = stablehlo.broadcast_in_dim %39, dims = [0, 1, 2] : (tensor<1x1x32xf32>) -> tensor<64x1x32xf32> loc(#loc1760)
    %41 = stablehlo.add %38, %40 : tensor<64x1x32xf32> loc(#loc1760)
    %42 = call @relu(%41) : (tensor<64x1x32xf32>) -> tensor<64x1x32xf32> loc(#loc1479)
    %43 = call @_one_hot(%34) : (tensor<64x1xi32>) -> tensor<64x1x16xf32> loc(#loc1480)
    %44 = stablehlo.concatenate %42, %43, dim = 2 : (tensor<64x1x32xf32>, tensor<64x1x16xf32>) -> tensor<64x1x48xf32> loc(#loc1481)
    %45 = stablehlo.dot_general %44, %arg24, contracting_dims = [2] x [0] : (tensor<64x1x48xf32>, tensor<48x32xf32>) -> tensor<64x1x32xf32> loc(#loc2372)
    %46 = stablehlo.reshape %arg23 : (tensor<32xf32>) -> tensor<1x1x32xf32> loc(#loc2373)
    %47 = stablehlo.broadcast_in_dim %46, dims = [0, 1, 2] : (tensor<1x1x32xf32>) -> tensor<64x1x32xf32> loc(#loc2374)
    %48 = stablehlo.add %45, %47 : tensor<64x1x32xf32> loc(#loc2374)
    %49 = call @relu(%48) : (tensor<64x1x32xf32>) -> tensor<64x1x32xf32> loc(#loc2313)
    %50 = stablehlo.dot_general %49, %arg30, contracting_dims = [2] x [0] : (tensor<64x1x32xf32>, tensor<32x2x16xf32>) -> tensor<64x1x2x16xf32> loc(#loc2375)
    %51 = stablehlo.reshape %arg29 : (tensor<2x16xf32>) -> tensor<1x1x2x16xf32> loc(#loc2376)
    %52 = stablehlo.broadcast_in_dim %51, dims = [0, 1, 2, 3] : (tensor<1x1x2x16xf32>) -> tensor<64x1x2x16xf32> loc(#loc2377)
    %53 = stablehlo.add %50, %52 : tensor<64x1x2x16xf32> loc(#loc2377)
    %54 = stablehlo.dot_general %49, %arg26, contracting_dims = [2] x [0] : (tensor<64x1x32xf32>, tensor<32x2x16xf32>) -> tensor<64x1x2x16xf32> loc(#loc2378)
    %55 = stablehlo.reshape %arg25 : (tensor<2x16xf32>) -> tensor<1x1x2x16xf32> loc(#loc2379)
    %56 = stablehlo.broadcast_in_dim %55, dims = [0, 1, 2, 3] : (tensor<1x1x2x16xf32>) -> tensor<64x1x2x16xf32> loc(#loc2380)
    %57 = stablehlo.add %54, %56 : tensor<64x1x2x16xf32> loc(#loc2380)
    %58 = stablehlo.concatenate %31#67, %57, dim = 1 : (tensor<64x16x2x16xf32>, tensor<64x1x2x16xf32>) -> tensor<64x17x2x16xf32> loc(#loc2320)
    %59 = stablehlo.slice %58 [0:64, 1:17, 0:2, 0:16] : (tensor<64x17x2x16xf32>) -> tensor<64x16x2x16xf32> loc(#loc2321)
    %60 = stablehlo.dot_general %49, %arg32, contracting_dims = [2] x [0] : (tensor<64x1x32xf32>, tensor<32x2x16xf32>) -> tensor<64x1x2x16xf32> loc(#loc2381)
    %61 = stablehlo.reshape %arg31 : (tensor<2x16xf32>) -> tensor<1x1x2x16xf32> loc(#loc2382)
    %62 = stablehlo.broadcast_in_dim %61, dims = [0, 1, 2, 3] : (tensor<1x1x2x16xf32>) -> tensor<64x1x2x16xf32> loc(#loc2383)
    %63 = stablehlo.add %60, %62 : tensor<64x1x2x16xf32> loc(#loc2383)
    %64 = stablehlo.concatenate %31#68, %63, dim = 1 : (tensor<64x16x2x16xf32>, tensor<64x1x2x16xf32>) -> tensor<64x17x2x16xf32> loc(#loc2325)
    %65 = stablehlo.slice %64 [0:64, 1:17, 0:2, 0:16] : (tensor<64x17x2x16xf32>) -> tensor<64x16x2x16xf32> loc(#loc2326)
    %66 = stablehlo.convert %37 : (tensor<64x1xi1>) -> tensor<64x1xi32> loc(#loc2384)
    %67 = stablehlo.concatenate %31#66, %66, dim = 1 : (tensor<64x16xi32>, tensor<64x1xi32>) -> tensor<64x17xi32> loc(#loc2385)
    %68 = call @cumsum(%67) : (tensor<64x17xi32>) -> tensor<64x17xi32> loc(#loc2386)
    %69 = stablehlo.slice %68 [0:64, 16:17] : (tensor<64x17xi32>) -> tensor<64x1xi32> loc(#loc2387)
    %70 = stablehlo.broadcast_in_dim %69, dims = [0, 1] : (tensor<64x1xi32>) -> tensor<64x1x1xi32> loc(#loc2388)
    %71 = stablehlo.slice %68 [0:64, 1:17] : (tensor<64x17xi32>) -> tensor<64x16xi32> loc(#loc2389)
    %72 = stablehlo.broadcast_in_dim %71, dims = [0, 2] : (tensor<64x16xi32>) -> tensor<64x1x16xi32> loc(#loc2390)
    %73 = stablehlo.broadcast_in_dim %70, dims = [0, 1, 2] : (tensor<64x1x1xi32>) -> tensor<64x1x16xi32> loc(#loc2391)
    %74 = stablehlo.compare EQ, %73, %72, SIGNED : (tensor<64x1x16xi32>, tensor<64x1x16xi32>) -> tensor<64x1x16xi1> loc(#loc2391)
    %75 = stablehlo.iota dim = 0 : tensor<17xi32> loc(#loc2392)
    %76 = stablehlo.slice %75 [16:17] : (tensor<17xi32>) -> tensor<1xi32> loc(#loc2393)
    %77 = stablehlo.broadcast_in_dim %76, dims = [0] : (tensor<1xi32>) -> tensor<1x1xi32> loc(#loc2394)
    %78 = stablehlo.slice %75 [1:17] : (tensor<17xi32>) -> tensor<16xi32> loc(#loc2395)
    %79 = stablehlo.broadcast_in_dim %78, dims = [1] : (tensor<16xi32>) -> tensor<1x16xi32> loc(#loc2396)
    %80 = stablehlo.broadcast_in_dim %77, dims = [0, 1] : (tensor<1x1xi32>) -> tensor<1x16xi32> loc(#loc2397)
    %81 = stablehlo.compare GE, %80, %79, SIGNED : (tensor<1x16xi32>, tensor<1x16xi32>) -> tensor<1x16xi1> loc(#loc2397)
    %82 = stablehlo.broadcast_in_dim %81, dims = [1, 2] : (tensor<1x16xi1>) -> tensor<1x1x16xi1> loc(#loc2398)
    %83 = stablehlo.broadcast_in_dim %82, dims = [0, 1, 2] : (tensor<1x1x16xi1>) -> tensor<64x1x16xi1> loc(#loc2399)
    %84 = stablehlo.and %74, %83 : tensor<64x1x16xi1> loc(#loc2399)
    %85 = stablehlo.broadcast_in_dim %84, dims = [0, 2, 3] : (tensor<64x1x16xi1>) -> tensor<64x1x1x16xi1> loc(#loc2400)
    %86 = stablehlo.reshape %53 : (tensor<64x1x2x16xf32>) -> tensor<64x1x2x1x16xf32> loc(#loc2338)
    %87 = stablehlo.broadcast_in_dim %85, dims = [0, 1, 3, 4] : (tensor<64x1x1x16xi1>) -> tensor<64x1x1x1x16xi1> loc(#loc2339)
    %88 = stablehlo.dot_general %86, %59, batching_dims = [0, 2] x [0, 2], contracting_dims = [4] x [3] : (tensor<64x1x2x1x16xf32>, tensor<64x16x2x16xf32>) -> tensor<64x2x1x1x16xf32> loc(#loc2340)
    %89 = stablehlo.broadcast_in_dim %cst_5, dims = [] : (tensor<f32>) -> tensor<64x2x1x1x16xf32> loc(#loc2341)
    %90 = stablehlo.multiply %88, %89 : tensor<64x2x1x1x16xf32> loc(#loc2341)
    %91 = stablehlo.broadcast_in_dim %c_4, dims = [] : (tensor<i1>) -> tensor<64x2x1x16xi1> loc(#loc2342)
    %92 = stablehlo.broadcast_in_dim %91, dims = [1, 2, 3, 4] : (tensor<64x2x1x16xi1>) -> tensor<1x64x2x1x16xi1> loc(#loc2342)
    %93 = stablehlo.transpose %87, dims = [2, 0, 1, 3, 4] : (tensor<64x1x1x1x16xi1>) -> tensor<1x64x1x1x16xi1> loc(#loc2343)
    %94 = stablehlo.broadcast_in_dim %93, dims = [0, 1, 2, 3, 4] : (tensor<1x64x1x1x16xi1>) -> tensor<1x64x2x1x16xi1> loc(#loc2344)
    %95 = stablehlo.and %92, %94 : tensor<1x64x2x1x16xi1> loc(#loc2344)
    %96 = call @_where(%95, %90, %cst_3) : (tensor<1x64x2x1x16xi1>, tensor<64x2x1x1x16xf32>, tensor<f32>) -> tensor<1x64x2x1x16xf32> loc(#loc2345)
    %97 = stablehlo.reduce(%96 init: %cst_2) applies stablehlo.maximum across dimensions = [4] : (tensor<1x64x2x1x16xf32>, tensor<f32>) -> tensor<1x64x2x1xf32> loc(#loc2346)
    %98 = stablehlo.broadcast_in_dim %cst_2, dims = [] : (tensor<f32>) -> tensor<1x64x2x1xf32> loc(#loc2347)
    %99 = stablehlo.maximum %98, %97 : tensor<1x64x2x1xf32> loc(#loc2347)
    %100 = stablehlo.broadcast_in_dim %99, dims = [0, 1, 2, 3] : (tensor<1x64x2x1xf32>) -> tensor<1x64x2x1x1xf32> loc(#loc2342)
    %101 = stablehlo.broadcast_in_dim %100, dims = [0, 1, 2, 3, 4] : (tensor<1x64x2x1x1xf32>) -> tensor<1x64x2x1x16xf32> loc(#loc2348)
    %102 = stablehlo.subtract %96, %101 : tensor<1x64x2x1x16xf32> loc(#loc2348)
    %103 = stablehlo.exponential %102 : tensor<1x64x2x1x16xf32> loc(#loc2349)
    %104 = stablehlo.reduce(%103 init: %cst_9) applies stablehlo.add across dimensions = [4] : (tensor<1x64x2x1x16xf32>, tensor<f32>) -> tensor<1x64x2x1xf32> loc(#loc2350)
    %105 = stablehlo.broadcast_in_dim %104, dims = [0, 1, 2, 3] : (tensor<1x64x2x1xf32>) -> tensor<1x64x2x1x1xf32> loc(#loc2342)
    %106 = stablehlo.broadcast_in_dim %105, dims = [0, 1, 2, 3, 4] : (tensor<1x64x2x1x1xf32>) -> tensor<1x64x2x1x16xf32> loc(#loc2351)
    %107 = stablehlo.divide %103, %106 : tensor<1x64x2x1x16xf32> loc(#loc2351)
    %108 = stablehlo.dot_general %65, %107, batching_dims = [0, 2] x [1, 2], contracting_dims = [1] x [4] : (tensor<64x16x2x16xf32>, tensor<1x64x2x1x16xf32>) -> tensor<64x2x16x1x1xf32> loc(#loc2352)
    %109 = stablehlo.transpose %108, dims = [3, 0, 4, 1, 2] : (tensor<64x2x16x1x1xf32>) -> tensor<1x64x1x2x16xf32> loc(#loc2353)
    %110 = stablehlo.transpose %109, dims = [1, 2, 3, 0, 4] : (tensor<1x64x1x2x16xf32>) -> tensor<64x1x2x1x16xf32> loc(#loc2343)
    %111 = stablehlo.reshape %110 : (tensor<64x1x2x1x16xf32>) -> tensor<64x1x2x16xf32> loc(#loc2338)
    %112 = stablehlo.dot_general %111, %arg28, contracting_dims = [2, 3] x [0, 1] : (tensor<64x1x2x16xf32>, tensor<2x16x32xf32>) -> tensor<64x1x32xf32> loc(#loc2401)
    %113 = stablehlo.reshape %arg27 : (tensor<32xf32>) -> tensor<1x1x32xf32> loc(#loc2402)
    %114 = stablehlo.broadcast_in_dim %113, dims = [0, 1, 2] : (tensor<1x1x32xf32>) -> tensor<64x1x32xf32> loc(#loc2403)
    %115 = stablehlo.add %112, %114 : tensor<64x1x32xf32> loc(#loc2403)
    %116 = stablehlo.dot_general %115, %arg18, contracting_dims = [2] x [0] : (tensor<64x1x32xf32>, tensor<32x16xf32>) -> tensor<64x1x16xf32> loc(#loc1762)
    %117 = call @_where_5(%32, %116, %cst_1) : (tensor<64x1x16xi1>, tensor<64x1x16xf32>, tensor<f32>) -> tensor<64x1x16xf32> loc(#loc1484)
    %118 = stablehlo.dot_general %115, %arg20, contracting_dims = [2] x [0] : (tensor<64x1x32xf32>, tensor<32x1xf32>) -> tensor<64x1x1xf32> loc(#loc1763)
    %119 = stablehlo.reshape %arg19 : (tensor<1xf32>) -> tensor<1x1x1xf32> loc(#loc1764)
    %120 = stablehlo.broadcast_in_dim %119, dims = [0, 1, 2] : (tensor<1x1x1xf32>) -> tensor<64x1x1xf32> loc(#loc1765)
    %121 = stablehlo.add %118, %120 : tensor<64x1x1xf32> loc(#loc1765)
    %122 = stablehlo.reshape %121 : (tensor<64x1x1xf32>) -> tensor<64x1xf32> loc(#loc1488)
    %123 = stablehlo.reshape %122 : (tensor<64x1xf32>) -> tensor<64xf32> loc(#loc1489)
    %124 = stablehlo.broadcast_in_dim %cst_9, dims = [] : (tensor<f32>) -> tensor<64xf32> loc(#loc1490)
    %125 = stablehlo.broadcast_in_dim %cst_9, dims = [] : (tensor<f32>) -> tensor<16x64xf32> loc(#loc1766)
    %126:8 = stablehlo.while(%iterArg = %31#81, %iterArg_14 = %31#82, %iterArg_15 = %31#83, %iterArg_16 = %31#88, %iterArg_17 = %c_8, %iterArg_18 = %124, %iterArg_19 = %123, %iterArg_20 = %125) : tensor<16x64xf32>, tensor<16x64xi1>, tensor<16x64xi1>, tensor<16x64xf32>, tensor<i32>, tensor<64xf32>, tensor<64xf32>, tensor<16x64xf32>
    cond {
      %138 = stablehlo.compare LT, %iterArg_17, %c_7, SIGNED : (tensor<i32>, tensor<i32>) -> tensor<i1> loc(#loc1768)
      stablehlo.return %138 : tensor<i1> loc(#loc1767)
    } do {
      %138 = stablehlo.subtract %c_7, %iterArg_17 : tensor<i32> loc(#loc1769)
      %139 = stablehlo.subtract %138, %c_6 : tensor<i32> loc(#loc1769)
      %140 = func.call @dynamic_index_in_dim_41(%iterArg, %139) : (tensor<16x64xf32>, tensor<i32>) -> tensor<64xf32> loc(#loc1770)
      %141 = func.call @dynamic_index_in_dim_42(%iterArg_14, %139) : (tensor<16x64xi1>, tensor<i32>) -> tensor<64xi1> loc(#loc1770)
      %142 = func.call @dynamic_index_in_dim_42(%iterArg_15, %139) : (tensor<16x64xi1>, tensor<i32>) -> tensor<64xi1> loc(#loc1770)
      %143 = func.call @dynamic_index_in_dim_41(%iterArg_16, %139) : (tensor<16x64xf32>, tensor<i32>) -> tensor<64xf32> loc(#loc1770)
      %144:3 = func.call @closed_call_43(%iterArg_18, %iterArg_19, %140, %141, %142, %143) : (tensor<64xf32>, tensor<64xf32>, tensor<64xf32>, tensor<64xi1>, tensor<64xi1>, tensor<64xf32>) -> (tensor<64xf32>, tensor<64xf32>, tensor<64xf32>) loc(#loc1771)
      %145 = func.call @dynamic_update_index_in_dim_39(%iterArg_20, %144#2, %139) : (tensor<16x64xf32>, tensor<64xf32>, tensor<i32>) -> tensor<16x64xf32> loc(#loc1772)
      %146 = stablehlo.add %iterArg_17, %c_6 : tensor<i32> loc(#loc1773)
      stablehlo.return %iterArg, %iterArg_14, %iterArg_15, %iterArg_16, %146, %144#0, %144#1, %145 : tensor<16x64xf32>, tensor<16x64xi1>, tensor<16x64xi1>, tensor<16x64xf32>, tensor<i32>, tensor<64xf32>, tensor<64xf32>, tensor<16x64xf32> loc(#loc1767)
    } loc(#loc1767)
    %127 = stablehlo.add %126#7, %31#88 : tensor<16x64xf32> loc(#loc1493)
    %128 = call @_threefry_split_44(%9) : (tensor<2xui32>) -> tensor<4x2xui32> loc(#loc1494)
    %129:91 = stablehlo.while(%iterArg = %128, %iterArg_14 = %31#51, %iterArg_15 = %31#52, %iterArg_16 = %31#53, %iterArg_17 = %31#54, %iterArg_18 = %31#55, %iterArg_19 = %31#56, %iterArg_20 = %31#57, %iterArg_21 = %31#58, %iterArg_22 = %31#59, %iterArg_23 = %31#60, %iterArg_24 = %31#61, %iterArg_25 = %31#62, %iterArg_26 = %31#63, %iterArg_27 = %31#64, %iterArg_28 = %31#65, %iterArg_29 = %31#66, %iterArg_30 = %31#67, %iterArg_31 = %31#68, %iterArg_32 = %31#69, %iterArg_33 = %31#70, %iterArg_34 = %31#71, %iterArg_35 = %31#72, %iterArg_36 = %31#73, %iterArg_37 = %31#74, %iterArg_38 = %31#75, %iterArg_39 = %31#76, %iterArg_40 = %31#77, %iterArg_41 = %31#78, %iterArg_42 = %31#79, %iterArg_43 = %31#80, %iterArg_44 = %31#81, %iterArg_45 = %31#82, %iterArg_46 = %31#83, %iterArg_47 = %31#84, %iterArg_48 = %31#85, %iterArg_49 = %31#86, %iterArg_50 = %126#7, %iterArg_51 = %31#87, %iterArg_52 = %127, %iterArg_53 = %31#88, %iterArg_54 = %arg15, %iterArg_55 = %arg16, %iterArg_56 = %arg17, %iterArg_57 = %c_8, %iterArg_58 = %arg18, %iterArg_59 = %arg19, %iterArg_60 = %arg20, %iterArg_61 = %arg21, %iterArg_62 = %arg22, %iterArg_63 = %arg23, %iterArg_64 = %arg24, %iterArg_65 = %arg25, %iterArg_66 = %arg26, %iterArg_67 = %arg27, %iterArg_68 = %arg28, %iterArg_69 = %arg29, %iterArg_70 = %arg30, %iterArg_71 = %arg31, %iterArg_72 = %arg32, %iterArg_73 = %arg33, %iterArg_74 = %arg34, %iterArg_75 = %arg35, %iterArg_76 = %arg36, %iterArg_77 = %arg37, %iterArg_78 = %arg38, %iterArg_79 = %arg39, %iterArg_80 = %arg40, %iterArg_81 = %arg41, %iterArg_82 = %arg42, %iterArg_83 = %arg43, %iterArg_84 = %arg44, %iterArg_85 = %arg45, %iterArg_86 = %arg46, %iterArg_87 = %arg47, %iterArg_88 = %arg48, %iterArg_89 = %arg49, %iterArg_90 = %arg50, %iterArg_91 = %arg51, %iterArg_92 = %arg52, %iterArg_93 = %arg53, %iterArg_94 = %arg54, %iterArg_95 = %arg55, %iterArg_96 = %arg56, %iterArg_97 = %arg57, %iterArg_98 = %arg58, %iterArg_99 = %arg59, %iterArg_100 = %arg60, %iterArg_101 = %arg61, %iterArg_102 = %arg62, %iterArg_103 = %arg63) : tensor<4x2xui32>, tensor<i32>, tensor<64x16xi1>, tensor<64x15xf32>, tensor<64xi32>, tensor<64xf32>, tensor<64xi1>, tensor<64xi1>, tensor<64xf32>, tensor<64xf32>, tensor<64xf32>, tensor<64x5xi32>, tensor<64x5xi32>, tensor<64xi1>, tensor<64xi32>, tensor<64xi1>, tensor<64x16xi32>, tensor<64x16x2x16xf32>, tensor<64x16x2x16xf32>, tensor<16x64x16xi1>, tensor<16x64x15xf32>, tensor<16x64xi32>, tensor<16x64xf32>, tensor<16x64xi1>, tensor<16x64xi1>, tensor<16x64xf32>, tensor<16x64xf32>, tensor<16x64xf32>, tensor<16x64x16xi1>, tensor<16x64x15xf32>, tensor<16x64xi32>, tensor<16x64xf32>, tensor<16x64xi1>, tensor<16x64xi1>, tensor<16x64xf32>, tensor<16x64xf32>, tensor<16x64xf32>, tensor<16x64xf32>, tensor<16x64xf32>, tensor<16x64xf32>, tensor<16x64xf32>, tensor<64x16xi32>, tensor<64x16x2x16xf32>, tensor<64x16x2x16xf32>, tensor<i32>, tensor<32x16xf32>, tensor<1xf32>, tensor<32x1xf32>, tensor<32xf32>, tensor<15x32xf32>, tensor<32xf32>, tensor<48x32xf32>, tensor<2x16xf32>, tensor<32x2x16xf32>, tensor<32xf32>, tensor<2x16x32xf32>, tensor<2x16xf32>, tensor<32x2x16xf32>, tensor<2x16xf32>, tensor<32x2x16xf32>, tensor<i32>, tensor<32x16xf32>, tensor<1xf32>, tensor<32x1xf32>, tensor<32xf32>, tensor<15x32xf32>, tensor<32xf32>, tensor<48x32xf32>, tensor<2x16xf32>, tensor<32x2x16xf32>, tensor<32xf32>, tensor<2x16x32xf32>, tensor<2x16xf32>, tensor<32x2x16xf32>, tensor<2x16xf32>, tensor<32x2x16xf32>, tensor<32x16xf32>, tensor<1xf32>, tensor<32x1xf32>, tensor<32xf32>, tensor<15x32xf32>, tensor<32xf32>, tensor<48x32xf32>, tensor<2x16xf32>, tensor<32x2x16xf32>, tensor<32xf32>, tensor<2x16x32xf32>, tensor<2x16xf32>, tensor<32x2x16xf32>, tensor<2x16xf32>, tensor<32x2x16xf32>
    cond {
      %138 = stablehlo.compare LT, %iterArg_57, %c_0, SIGNED : (tensor<i32>, tensor<i32>) -> tensor<i1> loc(#loc1496)
      stablehlo.return %138 : tensor<i1> loc(#loc1495)
    } do {
      %138 = func.call @dynamic_index_in_dim_47(%iterArg, %iterArg_57) : (tensor<4x2xui32>, tensor<i32>) -> tensor<2xui32> loc(#loc1497)
      %139:46 = func.call @closed_call_48(%iterArg_14, %iterArg_15, %iterArg_16, %iterArg_17, %iterArg_18, %iterArg_19, %iterArg_20, %iterArg_21, %iterArg_22, %iterArg_23, %iterArg_24, %iterArg_25, %iterArg_26, %iterArg_27, %iterArg_28, %iterArg_29, %iterArg_30, %iterArg_31, %iterArg_32, %iterArg_33, %iterArg_34, %iterArg_35, %iterArg_36, %iterArg_37, %iterArg_38, %iterArg_39, %iterArg_40, %iterArg_41, %iterArg_42, %iterArg_43, %iterArg_44, %iterArg_45, %iterArg_46, %iterArg_47, %iterArg_48, %iterArg_49, %iterArg_50, %iterArg_51, %iterArg_52, %iterArg_53, %iterArg_54, %iterArg_55, %iterArg_56, %iterArg_58, %iterArg_59, %iterArg_60, %iterArg_61, %iterArg_62, %iterArg_63, %iterArg_64, %iterArg_65, %iterArg_66, %iterArg_67, %iterArg_68, %iterArg_69, %iterArg_70, %iterArg_71, %iterArg_72, %iterArg_73, %iterArg_74, %iterArg_75, %iterArg_76, %iterArg_77, %iterArg_78, %iterArg_79, %iterArg_80, %iterArg_81, %iterArg_82, %iterArg_83, %iterArg_84, %iterArg_85, %iterArg_86, %iterArg_87, %iterArg_88, %iterArg_89, %iterArg_90, %iterArg_91, %iterArg_92, %iterArg_93, %iterArg_94, %iterArg_95, %iterArg_96, %iterArg_97, %iterArg_98, %iterArg_99, %iterArg_100, %iterArg_101, %iterArg_102, %iterArg_103, %138) : (tensor<i32>, tensor<64x16xi1>, tensor<64x15xf32>, tensor<64xi32>, tensor<64xf32>, tensor<64xi1>, tensor<64xi1>, tensor<64xf32>, tensor<64xf32>, tensor<64xf32>, tensor<64x5xi32>, tensor<64x5xi32>, tensor<64xi1>, tensor<64xi32>, tensor<64xi1>, tensor<64x16xi32>, tensor<64x16x2x16xf32>, tensor<64x16x2x16xf32>, tensor<16x64x16xi1>, tensor<16x64x15xf32>, tensor<16x64xi32>, tensor<16x64xf32>, tensor<16x64xi1>, tensor<16x64xi1>, tensor<16x64xf32>, tensor<16x64xf32>, tensor<16x64xf32>, tensor<16x64x16xi1>, tensor<16x64x15xf32>, tensor<16x64xi32>, tensor<16x64xf32>, tensor<16x64xi1>, tensor<16x64xi1>, tensor<16x64xf32>, tensor<16x64xf32>, tensor<16x64xf32>, tensor<16x64xf32>, tensor<16x64xf32>, tensor<16x64xf32>, tensor<16x64xf32>, tensor<64x16xi32>, tensor<64x16x2x16xf32>, tensor<64x16x2x16xf32>, tensor<32x16xf32>, tensor<1xf32>, tensor<32x1xf32>, tensor<32xf32>, tensor<15x32xf32>, tensor<32xf32>, tensor<48x32xf32>, tensor<2x16xf32>, tensor<32x2x16xf32>, tensor<32xf32>, tensor<2x16x32xf32>, tensor<2x16xf32>, tensor<32x2x16xf32>, tensor<2x16xf32>, tensor<32x2x16xf32>, tensor<i32>, tensor<32x16xf32>, tensor<1xf32>, tensor<32x1xf32>, tensor<32xf32>, tensor<15x32xf32>, tensor<32xf32>, tensor<48x32xf32>, tensor<2x16xf32>, tensor<32x2x16xf32>, tensor<32xf32>, tensor<2x16x32xf32>, tensor<2x16xf32>, tensor<32x2x16xf32>, tensor<2x16xf32>, tensor<32x2x16xf32>, tensor<32x16xf32>, tensor<1xf32>, tensor<32x1xf32>, tensor<32xf32>, tensor<15x32xf32>, tensor<32xf32>, tensor<48x32xf32>, tensor<2x16xf32>, tensor<32x2x16xf32>, tensor<32xf32>, tensor<2x16x32xf32>, tensor<2x16xf32>, tensor<32x2x16xf32>, tensor<2x16xf32>, tensor<32x2x16xf32>, tensor<2xui32>) -> (tensor<32x16xf32>, tensor<1xf32>, tensor<32x1xf32>, tensor<32xf32>, tensor<15x32xf32>, tensor<32xf32>, tensor<48x32xf32>, tensor<2x16xf32>, tensor<32x2x16xf32>, tensor<32xf32>, tensor<2x16x32xf32>, tensor<2x16xf32>, tensor<32x2x16xf32>, tensor<2x16xf32>, tensor<32x2x16xf32>, tensor<i32>, tensor<32x16xf32>, tensor<1xf32>, tensor<32x1xf32>, tensor<32xf32>, tensor<15x32xf32>, tensor<32xf32>, tensor<48x32xf32>, tensor<2x16xf32>, tensor<32x2x16xf32>, tensor<32xf32>, tensor<2x16x32xf32>, tensor<2x16xf32>, tensor<32x2x16xf32>, tensor<2x16xf32>, tensor<32x2x16xf32>, tensor<32x16xf32>, tensor<1xf32>, tensor<32x1xf32>, tensor<32xf32>, tensor<15x32xf32>, tensor<32xf32>, tensor<48x32xf32>, tensor<2x16xf32>, tensor<32x2x16xf32>, tensor<32xf32>, tensor<2x16x32xf32>, tensor<2x16xf32>, tensor<32x2x16xf32>, tensor<2x16xf32>, tensor<32x2x16xf32>) loc(#loc1498)
      %140 = stablehlo.add %iterArg_57, %c_6 : tensor<i32> loc(#loc1499)
      stablehlo.return %iterArg, %iterArg_14, %iterArg_15, %iterArg_16, %iterArg_17, %iterArg_18, %iterArg_19, %iterArg_20, %iterArg_21, %iterArg_22, %iterArg_23, %iterArg_24, %iterArg_25, %iterArg_26, %iterArg_27, %iterArg_28, %iterArg_29, %iterArg_30, %iterArg_31, %iterArg_32, %iterArg_33, %iterArg_34, %iterArg_35, %iterArg_36, %iterArg_37, %iterArg_38, %iterArg_39, %iterArg_40, %iterArg_41, %iterArg_42, %iterArg_43, %iterArg_44, %iterArg_45, %iterArg_46, %iterArg_47, %iterArg_48, %iterArg_49, %iterArg_50, %iterArg_51, %iterArg_52, %iterArg_53, %iterArg_54, %iterArg_55, %iterArg_56, %140, %139#0, %139#1, %139#2, %139#3, %139#4, %139#5, %139#6, %139#7, %139#8, %139#9, %139#10, %139#11, %139#12, %139#13, %139#14, %139#15, %139#16, %139#17, %139#18, %139#19, %139#20, %139#21, %139#22, %139#23, %139#24, %139#25, %139#26, %139#27, %139#28, %139#29, %139#30, %139#31, %139#32, %139#33, %139#34, %139#35, %139#36, %139#37, %139#38, %139#39, %139#40, %139#41, %139#42, %139#43, %139#44, %139#45 : tensor<4x2xui32>, tensor<i32>, tensor<64x16xi1>, tensor<64x15xf32>, tensor<64xi32>, tensor<64xf32>, tensor<64xi1>, tensor<64xi1>, tensor<64xf32>, tensor<64xf32>, tensor<64xf32>, tensor<64x5xi32>, tensor<64x5xi32>, tensor<64xi1>, tensor<64xi32>, tensor<64xi1>, tensor<64x16xi32>, tensor<64x16x2x16xf32>, tensor<64x16x2x16xf32>, tensor<16x64x16xi1>, tensor<16x64x15xf32>, tensor<16x64xi32>, tensor<16x64xf32>, tensor<16x64xi1>, tensor<16x64xi1>, tensor<16x64xf32>, tensor<16x64xf32>, tensor<16x64xf32>, tensor<16x64x16xi1>, tensor<16x64x15xf32>, tensor<16x64xi32>, tensor<16x64xf32>, tensor<16x64xi1>, tensor<16x64xi1>, tensor<16x64xf32>, tensor<16x64xf32>, tensor<16x64xf32>, tensor<16x64xf32>, tensor<16x64xf32>, tensor<16x64xf32>, tensor<16x64xf32>, tensor<64x16xi32>, tensor<64x16x2x16xf32>, tensor<64x16x2x16xf32>, tensor<i32>, tensor<32x16xf32>, tensor<1xf32>, tensor<32x1xf32>, tensor<32xf32>, tensor<15x32xf32>, tensor<32xf32>, tensor<48x32xf32>, tensor<2x16xf32>, tensor<32x2x16xf32>, tensor<32xf32>, tensor<2x16x32xf32>, tensor<2x16xf32>, tensor<32x2x16xf32>, tensor<2x16xf32>, tensor<32x2x16xf32>, tensor<i32>, tensor<32x16xf32>, tensor<1xf32>, tensor<32x1xf32>, tensor<32xf32>, tensor<15x32xf32>, tensor<32xf32>, tensor<48x32xf32>, tensor<2x16xf32>, tensor<32x2x16xf32>, tensor<32xf32>, tensor<2x16x32xf32>, tensor<2x16xf32>, tensor<32x2x16xf32>, tensor<2x16xf32>, tensor<32x2x16xf32>, tensor<32x16xf32>, tensor<1xf32>, tensor<32x1xf32>, tensor<32xf32>, tensor<15x32xf32>, tensor<32xf32>, tensor<48x32xf32>, tensor<2x16xf32>, tensor<32x2x16xf32>, tensor<32xf32>, tensor<2x16x32xf32>, tensor<2x16xf32>, tensor<32x2x16xf32>, tensor<2x16xf32>, tensor<32x2x16xf32> loc(#loc1495)
    } loc(#loc1495)
    %130 = call @_threefry_split_84(%4) : (tensor<2xui32>) -> tensor<24x2xui32> loc(#loc1500)
    %131 = stablehlo.broadcast_in_dim %cst_9, dims = [] : (tensor<f32>) -> tensor<24x64xf32> loc(#loc1501)
    %132 = stablehlo.broadcast_in_dim %cst_9, dims = [] : (tensor<f32>) -> tensor<24x64xf32> loc(#loc1501)
    %133:71 = stablehlo.while(%iterArg = %130, %iterArg_14 = %129#45, %iterArg_15 = %129#46, %iterArg_16 = %129#47, %iterArg_17 = %129#48, %iterArg_18 = %129#49, %iterArg_19 = %129#50, %iterArg_20 = %129#51, %iterArg_21 = %129#52, %iterArg_22 = %129#53, %iterArg_23 = %129#54, %iterArg_24 = %129#55, %iterArg_25 = %129#56, %iterArg_26 = %129#57, %iterArg_27 = %129#58, %iterArg_28 = %129#59, %iterArg_29 = %129#60, %iterArg_30 = %129#61, %iterArg_31 = %129#62, %iterArg_32 = %129#63, %iterArg_33 = %129#64, %iterArg_34 = %129#65, %iterArg_35 = %129#66, %iterArg_36 = %129#67, %iterArg_37 = %129#68, %iterArg_38 = %129#69, %iterArg_39 = %129#70, %iterArg_40 = %129#71, %iterArg_41 = %129#72, %iterArg_42 = %129#73, %iterArg_43 = %129#74, %iterArg_44 = %129#75, %iterArg_45 = %129#76, %iterArg_46 = %129#77, %iterArg_47 = %129#78, %iterArg_48 = %129#79, %iterArg_49 = %129#80, %iterArg_50 = %129#81, %iterArg_51 = %129#82, %iterArg_52 = %129#83, %iterArg_53 = %129#84, %iterArg_54 = %129#85, %iterArg_55 = %129#86, %iterArg_56 = %129#87, %iterArg_57 = %129#88, %iterArg_58 = %129#89, %iterArg_59 = %129#90, %iterArg_60 = %c_11, %iterArg_61 = %c_12, %iterArg_62 = %c_13, %iterArg_63 = %c_8, %iterArg_64 = %31#51, %iterArg_65 = %31#52, %iterArg_66 = %31#53, %iterArg_67 = %31#54, %iterArg_68 = %31#55, %iterArg_69 = %31#56, %iterArg_70 = %31#57, %iterArg_71 = %31#58, %iterArg_72 = %31#59, %iterArg_73 = %31#60, %iterArg_74 = %31#61, %iterArg_75 = %31#62, %iterArg_76 = %31#63, %iterArg_77 = %31#64, %iterArg_78 = %31#65, %iterArg_79 = %31#66, %iterArg_80 = %31#67, %iterArg_81 = %31#68, %iterArg_82 = %131, %iterArg_83 = %132) : tensor<24x2xui32>, tensor<32x16xf32>, tensor<1xf32>, tensor<32x1xf32>, tensor<32xf32>, tensor<15x32xf32>, tensor<32xf32>, tensor<48x32xf32>, tensor<2x16xf32>, tensor<32x2x16xf32>, tensor<32xf32>, tensor<2x16x32xf32>, tensor<2x16xf32>, tensor<32x2x16xf32>, tensor<2x16xf32>, tensor<32x2x16xf32>, tensor<i32>, tensor<32x16xf32>, tensor<1xf32>, tensor<32x1xf32>, tensor<32xf32>, tensor<15x32xf32>, tensor<32xf32>, tensor<48x32xf32>, tensor<2x16xf32>, tensor<32x2x16xf32>, tensor<32xf32>, tensor<2x16x32xf32>, tensor<2x16xf32>, tensor<32x2x16xf32>, tensor<2x16xf32>, tensor<32x2x16xf32>, tensor<32x16xf32>, tensor<1xf32>, tensor<32x1xf32>, tensor<32xf32>, tensor<15x32xf32>, tensor<32xf32>, tensor<48x32xf32>, tensor<2x16xf32>, tensor<32x2x16xf32>, tensor<32xf32>, tensor<2x16x32xf32>, tensor<2x16xf32>, tensor<32x2x16xf32>, tensor<2x16xf32>, tensor<32x2x16xf32>, tensor<16x5xi32>, tensor<16xi32>, tensor<16x5xi32>, tensor<i32>, tensor<i32>, tensor<64x16xi1>, tensor<64x15xf32>, tensor<64xi32>, tensor<64xf32>, tensor<64xi1>, tensor<64xi1>, tensor<64xf32>, tensor<64xf32>, tensor<64xf32>, tensor<64x5xi32>, tensor<64x5xi32>, tensor<64xi1>, tensor<64xi32>, tensor<64xi1>, tensor<64x16xi32>, tensor<64x16x2x16xf32>, tensor<64x16x2x16xf32>, tensor<24x64xf32>, tensor<24x64xf32>
    cond {
      %138 = stablehlo.compare LT, %iterArg_63, %c, SIGNED : (tensor<i32>, tensor<i32>) -> tensor<i1> loc(#loc1503)
      stablehlo.return %138 : tensor<i1> loc(#loc1502)
    } do {
      %138 = func.call @dynamic_index_in_dim_87(%iterArg, %iterArg_63) : (tensor<24x2xui32>, tensor<i32>) -> tensor<2xui32> loc(#loc1504)
      %139:20 = func.call @closed_call_88(%iterArg_14, %iterArg_15, %iterArg_16, %iterArg_17, %iterArg_18, %iterArg_19, %iterArg_20, %iterArg_21, %iterArg_22, %iterArg_23, %iterArg_24, %iterArg_25, %iterArg_26, %iterArg_27, %iterArg_28, %iterArg_29, %iterArg_30, %iterArg_31, %iterArg_32, %iterArg_33, %iterArg_34, %iterArg_35, %iterArg_36, %iterArg_37, %iterArg_38, %iterArg_39, %iterArg_40, %iterArg_41, %iterArg_42, %iterArg_43, %iterArg_44, %iterArg_45, %iterArg_46, %iterArg_47, %iterArg_48, %iterArg_49, %iterArg_50, %iterArg_51, %iterArg_52, %iterArg_53, %iterArg_54, %iterArg_55, %iterArg_56, %iterArg_57, %iterArg_58, %iterArg_59, %iterArg_60, %iterArg_61, %iterArg_62, %iterArg_64, %iterArg_65, %iterArg_66, %iterArg_67, %iterArg_68, %iterArg_69, %iterArg_70, %iterArg_71, %iterArg_72, %iterArg_73, %iterArg_74, %iterArg_75, %iterArg_76, %iterArg_77, %iterArg_78, %iterArg_79, %iterArg_80, %iterArg_81, %138) : (tensor<32x16xf32>, tensor<1xf32>, tensor<32x1xf32>, tensor<32xf32>, tensor<15x32xf32>, tensor<32xf32>, tensor<48x32xf32>, tensor<2x16xf32>, tensor<32x2x16xf32>, tensor<32xf32>, tensor<2x16x32xf32>, tensor<2x16xf32>, tensor<32x2x16xf32>, tensor<2x16xf32>, tensor<32x2x16xf32>, tensor<i32>, tensor<32x16xf32>, tensor<1xf32>, tensor<32x1xf32>, tensor<32xf32>, tensor<15x32xf32>, tensor<32xf32>, tensor<48x32xf32>, tensor<2x16xf32>, tensor<32x2x16xf32>, tensor<32xf32>, tensor<2x16x32xf32>, tensor<2x16xf32>, tensor<32x2x16xf32>, tensor<2x16xf32>, tensor<32x2x16xf32>, tensor<32x16xf32>, tensor<1xf32>, tensor<32x1xf32>, tensor<32xf32>, tensor<15x32xf32>, tensor<32xf32>, tensor<48x32xf32>, tensor<2x16xf32>, tensor<32x2x16xf32>, tensor<32xf32>, tensor<2x16x32xf32>, tensor<2x16xf32>, tensor<32x2x16xf32>, tensor<2x16xf32>, tensor<32x2x16xf32>, tensor<16x5xi32>, tensor<16xi32>, tensor<16x5xi32>, tensor<i32>, tensor<64x16xi1>, tensor<64x15xf32>, tensor<64xi32>, tensor<64xf32>, tensor<64xi1>, tensor<64xi1>, tensor<64xf32>, tensor<64xf32>, tensor<64xf32>, tensor<64x5xi32>, tensor<64x5xi32>, tensor<64xi1>, tensor<64xi32>, tensor<64xi1>, tensor<64x16xi32>, tensor<64x16x2x16xf32>, tensor<64x16x2x16xf32>, tensor<2xui32>) -> (tensor<i32>, tensor<64x16xi1>, tensor<64x15xf32>, tensor<64xi32>, tensor<64xf32>, tensor<64xi1>, tensor<64xi1>, tensor<64xf32>, tensor<64xf32>, tensor<64xf32>, tensor<64x5xi32>, tensor<64x5xi32>, tensor<64xi1>, tensor<64xi32>, tensor<64xi1>, tensor<64x16xi32>, tensor<64x16x2x16xf32>, tensor<64x16x2x16xf32>, tensor<64xf32>, tensor<64xf32>) loc(#loc1505)
      %140 = func.call @dynamic_update_index_in_dim_90(%iterArg_82, %139#18, %iterArg_63) : (tensor<24x64xf32>, tensor<64xf32>, tensor<i32>) -> tensor<24x64xf32> loc(#loc1506)
      %141 = func.call @dynamic_update_index_in_dim_90(%iterArg_83, %139#19, %iterArg_63) : (tensor<24x64xf32>, tensor<64xf32>, tensor<i32>) -> tensor<24x64xf32> loc(#loc1506)
      %142 = stablehlo.add %iterArg_63, %c_6 : tensor<i32> loc(#loc1507)
      stablehlo.return %iterArg, %iterArg_14, %iterArg_15, %iterArg_16, %iterArg_17, %iterArg_18, %iterArg_19, %iterArg_20, %iterArg_21, %iterArg_22, %iterArg_23, %iterArg_24, %iterArg_25, %iterArg_26, %iterArg_27, %iterArg_28, %iterArg_29, %iterArg_30, %iterArg_31, %iterArg_32, %iterArg_33, %iterArg_34, %iterArg_35, %iterArg_36, %iterArg_37, %iterArg_38, %iterArg_39, %iterArg_40, %iterArg_41, %iterArg_42, %iterArg_43, %iterArg_44, %iterArg_45, %iterArg_46, %iterArg_47, %iterArg_48, %iterArg_49, %iterArg_50, %iterArg_51, %iterArg_52, %iterArg_53, %iterArg_54, %iterArg_55, %iterArg_56, %iterArg_57, %iterArg_58, %iterArg_59, %iterArg_60, %iterArg_61, %iterArg_62, %142, %139#0, %139#1, %139#2, %139#3, %139#4, %139#5, %139#6, %139#7, %139#8, %139#9, %139#10, %139#11, %139#12, %139#13, %139#14, %139#15, %139#16, %139#17, %140, %141 : tensor<24x2xui32>, tensor<32x16xf32>, tensor<1xf32>, tensor<32x1xf32>, tensor<32xf32>, tensor<15x32xf32>, tensor<32xf32>, tensor<48x32xf32>, tensor<2x16xf32>, tensor<32x2x16xf32>, tensor<32xf32>, tensor<2x16x32xf32>, tensor<2x16xf32>, tensor<32x2x16xf32>, tensor<2x16xf32>, tensor<32x2x16xf32>, tensor<i32>, tensor<32x16xf32>, tensor<1xf32>, tensor<32x1xf32>, tensor<32xf32>, tensor<15x32xf32>, tensor<32xf32>, tensor<48x32xf32>, tensor<2x16xf32>, tensor<32x2x16xf32>, tensor<32xf32>, tensor<2x16x32xf32>, tensor<2x16xf32>, tensor<32x2x16xf32>, tensor<2x16xf32>, tensor<32x2x16xf32>, tensor<32x16xf32>, tensor<1xf32>, tensor<32x1xf32>, tensor<32xf32>, tensor<15x32xf32>, tensor<32xf32>, tensor<48x32xf32>, tensor<2x16xf32>, tensor<32x2x16xf32>, tensor<32xf32>, tensor<2x16x32xf32>, tensor<2x16xf32>, tensor<32x2x16xf32>, tensor<2x16xf32>, tensor<32x2x16xf32>, tensor<16x5xi32>, tensor<16xi32>, tensor<16x5xi32>, tensor<i32>, tensor<i32>, tensor<64x16xi1>, tensor<64x15xf32>, tensor<64xi32>, tensor<64xf32>, tensor<64xi1>, tensor<64xi1>, tensor<64xf32>, tensor<64xf32>, tensor<64xf32>, tensor<64x5xi32>, tensor<64x5xi32>, tensor<64xi1>, tensor<64xi32>, tensor<64xi1>, tensor<64x16xi32>, tensor<64x16x2x16xf32>, tensor<64x16x2x16xf32>, tensor<24x64xf32>, tensor<24x64xf32> loc(#loc1502)
    } loc(#loc1502)
    %134 = stablehlo.reduce(%133#69 init: %cst_9) applies stablehlo.add across dimensions = [0, 1] : (tensor<24x64xf32>, tensor<f32>) -> tensor<f32> loc(#loc1296)
    %135 = stablehlo.reduce(%133#70 init: %cst_9) applies stablehlo.add across dimensions = [0, 1] : (tensor<24x64xf32>, tensor<f32>) -> tensor<f32> loc(#loc1297)
    %136 = stablehlo.maximum %135, %cst : tensor<f32> loc(#loc1298)
    %137 = stablehlo.divide %134, %136 : tensor<f32> loc(#loc1299)
    return %31#51, %31#52, %31#53, %31#54, %31#55, %31#56, %31#57, %31#58, %31#59, %31#60, %31#61, %31#62, %31#63, %31#64, %31#65, %31#66, %31#67, %31#68, %129#45, %129#46, %129#47, %129#48, %129#49, %129#50, %129#51, %129#52, %129#53, %129#54, %129#55, %129#56, %129#57, %129#58, %129#59, %129#60, %129#61, %129#62, %129#63, %129#64, %129#65, %129#66, %129#67, %129#68, %129#69, %129#70, %129#71, %129#72, %129#73, %129#74, %129#75, %129#76, %129#77, %129#78, %129#79, %129#80, %129#81, %129#82, %129#83, %129#84, %129#85, %129#86, %129#87, %129#88, %129#89, %129#90, %137 : tensor<i32>, tensor<64x16xi1>, tensor<64x15xf32>, tensor<64xi32>, tensor<64xf32>, tensor<64xi1>, tensor<64xi1>, tensor<64xf32>, tensor<64xf32>, tensor<64xf32>, tensor<64x5xi32>, tensor<64x5xi32>, tensor<64xi1>, tensor<64xi32>, tensor<64xi1>, tensor<64x16xi32>, tensor<64x16x2x16xf32>, tensor<64x16x2x16xf32>, tensor<32x16xf32>, tensor<1xf32>, tensor<32x1xf32>, tensor<32xf32>, tensor<15x32xf32>, tensor<32xf32>, tensor<48x32xf32>, tensor<2x16xf32>, tensor<32x2x16xf32>, tensor<32xf32>, tensor<2x16x32xf32>, tensor<2x16xf32>, tensor<32x2x16xf32>, tensor<2x16xf32>, tensor<32x2x16xf32>, tensor<i32>, tensor<32x16xf32>, tensor<1xf32>, tensor<32x1xf32>, tensor<32xf32>, tensor<15x32xf32>, tensor<32xf32>, tensor<48x32xf32>, tensor<2x16xf32>, tensor<32x2x16xf32>, tensor<32xf32>, tensor<2x16x32xf32>, tensor<2x16xf32>, tensor<32x2x16xf32>, tensor<2x16xf32>, tensor<32x2x16xf32>, tensor<32x16xf32>, tensor<1xf32>, tensor<32x1xf32>, tensor<32xf32>, tensor<15x32xf32>, tensor<32xf32>, tensor<48x32xf32>, tensor<2x16xf32>, tensor<32x2x16xf32>, tensor<32xf32>, tensor<2x16x32xf32>, tensor<2x16xf32>, tensor<32x2x16xf32>, tensor<2x16xf32>, tensor<32x2x16xf32>, tensor<f32> loc(#loc895)
  } loc(#loc)
  func.func private @_threefry_split(%arg0: tensor<2xui32> loc(unknown)) -> tensor<2x2xui32> {
    %c = stablehlo.constant dense<32> : tensor<ui64> loc(#loc137)
    %c_0 = stablehlo.constant dense<1> : tensor<ui64> loc(#loc137)
    %0 = stablehlo.slice %arg0 [0:1] : (tensor<2xui32>) -> tensor<1xui32> loc(#loc138)
    %1 = stablehlo.reshape %0 : (tensor<1xui32>) -> tensor<ui32> loc(#loc139)
    %2 = stablehlo.slice %arg0 [1:2] : (tensor<2xui32>) -> tensor<1xui32> loc(#loc138)
    %3 = stablehlo.reshape %2 : (tensor<1xui32>) -> tensor<ui32> loc(#loc139)
    %4 = stablehlo.iota dim = 0 : tensor<2xui64> loc(#loc137)
    %5 = stablehlo.broadcast_in_dim %c_0, dims = [] : (tensor<ui64>) -> tensor<2xui64> loc(#loc137)
    %6 = stablehlo.multiply %5, %4 : tensor<2xui64> loc(#loc137)
    %7 = stablehlo.broadcast_in_dim %c, dims = [] : (tensor<ui64>) -> tensor<2xui64> loc(#loc137)
    %8 = stablehlo.shift_right_logical %6, %7 : tensor<2xui64> loc(#loc137)
    %9 = stablehlo.convert %6 : (tensor<2xui64>) -> tensor<2xui32> loc(#loc137)
    %10 = stablehlo.convert %8 : (tensor<2xui64>) -> tensor<2xui32> loc(#loc137)
    %11:2 = call @threefry2x32(%1, %3, %10, %9) : (tensor<ui32>, tensor<ui32>, tensor<2xui32>, tensor<2xui32>) -> (tensor<2xui32>, tensor<2xui32>) loc(#loc)
    %12 = stablehlo.broadcast_in_dim %11#0, dims = [0] : (tensor<2xui32>) -> tensor<2x1xui32> loc(#loc140)
    %13 = stablehlo.broadcast_in_dim %11#1, dims = [0] : (tensor<2xui32>) -> tensor<2x1xui32> loc(#loc140)
    %14 = stablehlo.concatenate %12, %13, dim = 1 : (tensor<2x1xui32>, tensor<2x1xui32>) -> tensor<2x2xui32> loc(#loc140)
    return %14 : tensor<2x2xui32> loc(#loc)
  } loc(#loc904)
  func.func private @threefry2x32(%arg0: tensor<ui32> loc(unknown), %arg1: tensor<ui32> loc(unknown), %arg2: tensor<2xui32> loc(unknown), %arg3: tensor<2xui32> loc(unknown)) -> (tensor<2xui32>, tensor<2xui32>) {
    %c = stablehlo.constant dense<1> : tensor<i32> loc(#loc)
    %c_0 = stablehlo.constant dense<5> : tensor<i32> loc(#loc)
    %c_1 = stablehlo.constant dense<0> : tensor<i32> loc(#loc)
    %c_2 = stablehlo.constant dense<466688986> : tensor<ui32> loc(#loc508)
    %c_3 = stablehlo.constant dense<[13, 15, 26, 6]> : tensor<4xui32> loc(#loc508)
    %c_4 = stablehlo.constant dense<[17, 29, 16, 24]> : tensor<4xui32> loc(#loc508)
    %0 = stablehlo.xor %arg0, %arg1 : tensor<ui32> loc(#loc142)
    %1 = stablehlo.xor %0, %c_2 : tensor<ui32> loc(#loc142)
    %2 = stablehlo.broadcast_in_dim %arg0, dims = [] : (tensor<ui32>) -> tensor<2xui32> loc(#loc143)
    %3 = stablehlo.add %arg2, %2 : tensor<2xui32> loc(#loc143)
    %4 = stablehlo.broadcast_in_dim %arg1, dims = [] : (tensor<ui32>) -> tensor<2xui32> loc(#loc143)
    %5 = stablehlo.add %arg3, %4 : tensor<2xui32> loc(#loc143)
    %6:9 = stablehlo.while(%iterArg = %c_1, %iterArg_5 = %c_1, %iterArg_6 = %3, %iterArg_7 = %5, %iterArg_8 = %arg1, %iterArg_9 = %1, %iterArg_10 = %arg0, %iterArg_11 = %c_3, %iterArg_12 = %c_4) : tensor<i32>, tensor<i32>, tensor<2xui32>, tensor<2xui32>, tensor<ui32>, tensor<ui32>, tensor<ui32>, tensor<4xui32>, tensor<4xui32>
    cond {
      %7 = stablehlo.compare LT, %iterArg, %c_0, SIGNED : (tensor<i32>, tensor<i32>) -> tensor<i1> loc(#loc145)
      stablehlo.return %7 : tensor<i1> loc(#loc144)
    } do {
      %7:8 = func.call @closed_call(%iterArg_5, %iterArg_6, %iterArg_7, %iterArg_8, %iterArg_9, %iterArg_10, %iterArg_11, %iterArg_12) : (tensor<i32>, tensor<2xui32>, tensor<2xui32>, tensor<ui32>, tensor<ui32>, tensor<ui32>, tensor<4xui32>, tensor<4xui32>) -> (tensor<i32>, tensor<2xui32>, tensor<2xui32>, tensor<ui32>, tensor<ui32>, tensor<ui32>, tensor<4xui32>, tensor<4xui32>) loc(#loc146)
      %8 = stablehlo.add %iterArg, %c : tensor<i32> loc(#loc147)
      stablehlo.return %8, %7#0, %7#1, %7#2, %7#3, %7#4, %7#5, %7#6, %7#7 : tensor<i32>, tensor<i32>, tensor<2xui32>, tensor<2xui32>, tensor<ui32>, tensor<ui32>, tensor<ui32>, tensor<4xui32>, tensor<4xui32> loc(#loc144)
    } loc(#loc144)
    return %6#2, %6#3 : tensor<2xui32>, tensor<2xui32> loc(#loc)
  } loc(#loc)
  func.func private @closed_call(%arg0: tensor<i32> loc(unknown), %arg1: tensor<2xui32> loc(unknown), %arg2: tensor<2xui32> loc(unknown), %arg3: tensor<ui32> loc(unknown), %arg4: tensor<ui32> loc(unknown), %arg5: tensor<ui32> loc(unknown), %arg6: tensor<4xui32> loc(unknown), %arg7: tensor<4xui32> loc(unknown)) -> (tensor<i32>, tensor<2xui32>, tensor<2xui32>, tensor<ui32>, tensor<ui32>, tensor<ui32>, tensor<4xui32>, tensor<4xui32>) {
    %c = stablehlo.constant dense<32> : tensor<ui32> loc(#loc)
    %c_0 = stablehlo.constant dense<1> : tensor<i32> loc(#loc)
    %0 = stablehlo.add %arg0, %c_0 : tensor<i32> loc(#loc143)
    %1 = stablehlo.slice %arg6 [0:1] : (tensor<4xui32>) -> tensor<1xui32> loc(#loc138)
    %2 = stablehlo.reshape %1 : (tensor<1xui32>) -> tensor<ui32> loc(#loc139)
    %3 = stablehlo.add %arg1, %arg2 : tensor<2xui32> loc(#loc143)
    %4 = stablehlo.broadcast_in_dim %2, dims = [] : (tensor<ui32>) -> tensor<2xui32> loc(#loc148)
    %5 = stablehlo.shift_left %arg2, %4 : tensor<2xui32> loc(#loc148)
    %6 = stablehlo.subtract %c, %2 : tensor<ui32> loc(#loc149)
    %7 = stablehlo.broadcast_in_dim %6, dims = [] : (tensor<ui32>) -> tensor<2xui32> loc(#loc150)
    %8 = stablehlo.shift_right_logical %arg2, %7 : tensor<2xui32> loc(#loc150)
    %9 = stablehlo.or %5, %8 : tensor<2xui32> loc(#loc151)
    %10 = stablehlo.xor %3, %9 : tensor<2xui32> loc(#loc142)
    %11 = stablehlo.slice %arg6 [1:2] : (tensor<4xui32>) -> tensor<1xui32> loc(#loc138)
    %12 = stablehlo.reshape %11 : (tensor<1xui32>) -> tensor<ui32> loc(#loc139)
    %13 = stablehlo.add %3, %10 : tensor<2xui32> loc(#loc143)
    %14 = stablehlo.broadcast_in_dim %12, dims = [] : (tensor<ui32>) -> tensor<2xui32> loc(#loc148)
    %15 = stablehlo.shift_left %10, %14 : tensor<2xui32> loc(#loc148)
    %16 = stablehlo.subtract %c, %12 : tensor<ui32> loc(#loc149)
    %17 = stablehlo.broadcast_in_dim %16, dims = [] : (tensor<ui32>) -> tensor<2xui32> loc(#loc150)
    %18 = stablehlo.shift_right_logical %10, %17 : tensor<2xui32> loc(#loc150)
    %19 = stablehlo.or %15, %18 : tensor<2xui32> loc(#loc151)
    %20 = stablehlo.xor %13, %19 : tensor<2xui32> loc(#loc142)
    %21 = stablehlo.slice %arg6 [2:3] : (tensor<4xui32>) -> tensor<1xui32> loc(#loc138)
    %22 = stablehlo.reshape %21 : (tensor<1xui32>) -> tensor<ui32> loc(#loc139)
    %23 = stablehlo.add %13, %20 : tensor<2xui32> loc(#loc143)
    %24 = stablehlo.broadcast_in_dim %22, dims = [] : (tensor<ui32>) -> tensor<2xui32> loc(#loc148)
    %25 = stablehlo.shift_left %20, %24 : tensor<2xui32> loc(#loc148)
    %26 = stablehlo.subtract %c, %22 : tensor<ui32> loc(#loc149)
    %27 = stablehlo.broadcast_in_dim %26, dims = [] : (tensor<ui32>) -> tensor<2xui32> loc(#loc150)
    %28 = stablehlo.shift_right_logical %20, %27 : tensor<2xui32> loc(#loc150)
    %29 = stablehlo.or %25, %28 : tensor<2xui32> loc(#loc151)
    %30 = stablehlo.xor %23, %29 : tensor<2xui32> loc(#loc142)
    %31 = stablehlo.slice %arg6 [3:4] : (tensor<4xui32>) -> tensor<1xui32> loc(#loc138)
    %32 = stablehlo.reshape %31 : (tensor<1xui32>) -> tensor<ui32> loc(#loc139)
    %33 = stablehlo.add %23, %30 : tensor<2xui32> loc(#loc143)
    %34 = stablehlo.broadcast_in_dim %32, dims = [] : (tensor<ui32>) -> tensor<2xui32> loc(#loc148)
    %35 = stablehlo.shift_left %30, %34 : tensor<2xui32> loc(#loc148)
    %36 = stablehlo.subtract %c, %32 : tensor<ui32> loc(#loc149)
    %37 = stablehlo.broadcast_in_dim %36, dims = [] : (tensor<ui32>) -> tensor<2xui32> loc(#loc150)
    %38 = stablehlo.shift_right_logical %30, %37 : tensor<2xui32> loc(#loc150)
    %39 = stablehlo.or %35, %38 : tensor<2xui32> loc(#loc151)
    %40 = stablehlo.xor %33, %39 : tensor<2xui32> loc(#loc142)
    %41 = stablehlo.broadcast_in_dim %arg3, dims = [] : (tensor<ui32>) -> tensor<2xui32> loc(#loc143)
    %42 = stablehlo.add %33, %41 : tensor<2xui32> loc(#loc143)
    %43 = stablehlo.broadcast_in_dim %arg4, dims = [] : (tensor<ui32>) -> tensor<2xui32> loc(#loc143)
    %44 = stablehlo.add %40, %43 : tensor<2xui32> loc(#loc143)
    %45 = stablehlo.add %arg0, %c_0 : tensor<i32> loc(#loc143)
    %46 = stablehlo.convert %45 : (tensor<i32>) -> tensor<ui32> loc(#loc152)
    %47 = stablehlo.broadcast_in_dim %46, dims = [] : (tensor<ui32>) -> tensor<2xui32> loc(#loc143)
    %48 = stablehlo.add %44, %47 : tensor<2xui32> loc(#loc143)
    return %0, %42, %48, %arg4, %arg5, %arg3, %arg7, %arg6 : tensor<i32>, tensor<2xui32>, tensor<2xui32>, tensor<ui32>, tensor<ui32>, tensor<ui32>, tensor<4xui32>, tensor<4xui32> loc(#loc)
  } loc(#loc509)
  func.func private @_threefry_split_0(%arg0: tensor<2xui32> loc(unknown)) -> tensor<16x2xui32> {
    %c = stablehlo.constant dense<32> : tensor<ui64> loc(#loc906)
    %c_0 = stablehlo.constant dense<1> : tensor<ui64> loc(#loc906)
    %0 = stablehlo.slice %arg0 [0:1] : (tensor<2xui32>) -> tensor<1xui32> loc(#loc907)
    %1 = stablehlo.reshape %0 : (tensor<1xui32>) -> tensor<ui32> loc(#loc908)
    %2 = stablehlo.slice %arg0 [1:2] : (tensor<2xui32>) -> tensor<1xui32> loc(#loc907)
    %3 = stablehlo.reshape %2 : (tensor<1xui32>) -> tensor<ui32> loc(#loc908)
    %4 = stablehlo.iota dim = 0 : tensor<16xui64> loc(#loc906)
    %5 = stablehlo.broadcast_in_dim %c_0, dims = [] : (tensor<ui64>) -> tensor<16xui64> loc(#loc906)
    %6 = stablehlo.multiply %5, %4 : tensor<16xui64> loc(#loc906)
    %7 = stablehlo.broadcast_in_dim %c, dims = [] : (tensor<ui64>) -> tensor<16xui64> loc(#loc906)
    %8 = stablehlo.shift_right_logical %6, %7 : tensor<16xui64> loc(#loc906)
    %9 = stablehlo.convert %6 : (tensor<16xui64>) -> tensor<16xui32> loc(#loc906)
    %10 = stablehlo.convert %8 : (tensor<16xui64>) -> tensor<16xui32> loc(#loc906)
    %11:2 = call @threefry2x32_1(%1, %3, %10, %9) : (tensor<ui32>, tensor<ui32>, tensor<16xui32>, tensor<16xui32>) -> (tensor<16xui32>, tensor<16xui32>) loc(#loc755)
    %12 = stablehlo.broadcast_in_dim %11#0, dims = [0] : (tensor<16xui32>) -> tensor<16x1xui32> loc(#loc909)
    %13 = stablehlo.broadcast_in_dim %11#1, dims = [0] : (tensor<16xui32>) -> tensor<16x1xui32> loc(#loc909)
    %14 = stablehlo.concatenate %12, %13, dim = 1 : (tensor<16x1xui32>, tensor<16x1xui32>) -> tensor<16x2xui32> loc(#loc909)
    return %14 : tensor<16x2xui32> loc(#loc)
  } loc(#loc1137)
  func.func private @threefry2x32_1(%arg0: tensor<ui32> loc(callsite(#loc444 at #loc442)), %arg1: tensor<ui32> loc(callsite(#loc444 at #loc442)), %arg2: tensor<16xui32> loc(callsite(#loc444 at #loc442)), %arg3: tensor<16xui32> loc(callsite(#loc444 at #loc442))) -> (tensor<16xui32>, tensor<16xui32>) {
    %c = stablehlo.constant dense<1> : tensor<i32> loc(#loc)
    %c_0 = stablehlo.constant dense<5> : tensor<i32> loc(#loc)
    %c_1 = stablehlo.constant dense<0> : tensor<i32> loc(#loc)
    %c_2 = stablehlo.constant dense<466688986> : tensor<ui32> loc(#loc508)
    %c_3 = stablehlo.constant dense<[13, 15, 26, 6]> : tensor<4xui32> loc(#loc508)
    %c_4 = stablehlo.constant dense<[17, 29, 16, 24]> : tensor<4xui32> loc(#loc508)
    %0 = stablehlo.xor %arg0, %arg1 : tensor<ui32> loc(#loc910)
    %1 = stablehlo.xor %0, %c_2 : tensor<ui32> loc(#loc910)
    %2 = stablehlo.broadcast_in_dim %arg0, dims = [] : (tensor<ui32>) -> tensor<16xui32> loc(#loc911)
    %3 = stablehlo.add %arg2, %2 : tensor<16xui32> loc(#loc911)
    %4 = stablehlo.broadcast_in_dim %arg1, dims = [] : (tensor<ui32>) -> tensor<16xui32> loc(#loc911)
    %5 = stablehlo.add %arg3, %4 : tensor<16xui32> loc(#loc911)
    %6:9 = stablehlo.while(%iterArg = %c_1, %iterArg_5 = %c_1, %iterArg_6 = %3, %iterArg_7 = %5, %iterArg_8 = %arg1, %iterArg_9 = %1, %iterArg_10 = %arg0, %iterArg_11 = %c_3, %iterArg_12 = %c_4) : tensor<i32>, tensor<i32>, tensor<16xui32>, tensor<16xui32>, tensor<ui32>, tensor<ui32>, tensor<ui32>, tensor<4xui32>, tensor<4xui32>
    cond {
      %7 = stablehlo.compare LT, %iterArg, %c_0, SIGNED : (tensor<i32>, tensor<i32>) -> tensor<i1> loc(#loc1300)
      stablehlo.return %7 : tensor<i1> loc(#loc1138)
    } do {
      %7:8 = func.call @closed_call_2(%iterArg_5, %iterArg_6, %iterArg_7, %iterArg_8, %iterArg_9, %iterArg_10, %iterArg_11, %iterArg_12) : (tensor<i32>, tensor<16xui32>, tensor<16xui32>, tensor<ui32>, tensor<ui32>, tensor<ui32>, tensor<4xui32>, tensor<4xui32>) -> (tensor<i32>, tensor<16xui32>, tensor<16xui32>, tensor<ui32>, tensor<ui32>, tensor<ui32>, tensor<4xui32>, tensor<4xui32>) loc(#loc1301)
      %8 = stablehlo.add %iterArg, %c : tensor<i32> loc(#loc1302)
      stablehlo.return %8, %7#0, %7#1, %7#2, %7#3, %7#4, %7#5, %7#6, %7#7 : tensor<i32>, tensor<i32>, tensor<16xui32>, tensor<16xui32>, tensor<ui32>, tensor<ui32>, tensor<ui32>, tensor<4xui32>, tensor<4xui32> loc(#loc1138)
    } loc(#loc1138)
    return %6#2, %6#3 : tensor<16xui32>, tensor<16xui32> loc(#loc755)
  } loc(#loc755)
  func.func private @closed_call_2(%arg0: tensor<i32> loc(unknown), %arg1: tensor<16xui32> loc(unknown), %arg2: tensor<16xui32> loc(unknown), %arg3: tensor<ui32> loc(unknown), %arg4: tensor<ui32> loc(unknown), %arg5: tensor<ui32> loc(unknown), %arg6: tensor<4xui32> loc(unknown), %arg7: tensor<4xui32> loc(unknown)) -> (tensor<i32>, tensor<16xui32>, tensor<16xui32>, tensor<ui32>, tensor<ui32>, tensor<ui32>, tensor<4xui32>, tensor<4xui32>) {
    %c = stablehlo.constant dense<32> : tensor<ui32> loc(#loc)
    %c_0 = stablehlo.constant dense<1> : tensor<i32> loc(#loc)
    %0 = stablehlo.add %arg0, %c_0 : tensor<i32> loc(#loc911)
    %1 = stablehlo.slice %arg6 [0:1] : (tensor<4xui32>) -> tensor<1xui32> loc(#loc907)
    %2 = stablehlo.reshape %1 : (tensor<1xui32>) -> tensor<ui32> loc(#loc908)
    %3 = stablehlo.add %arg1, %arg2 : tensor<16xui32> loc(#loc911)
    %4 = stablehlo.broadcast_in_dim %2, dims = [] : (tensor<ui32>) -> tensor<16xui32> loc(#loc914)
    %5 = stablehlo.shift_left %arg2, %4 : tensor<16xui32> loc(#loc914)
    %6 = stablehlo.subtract %c, %2 : tensor<ui32> loc(#loc915)
    %7 = stablehlo.broadcast_in_dim %6, dims = [] : (tensor<ui32>) -> tensor<16xui32> loc(#loc916)
    %8 = stablehlo.shift_right_logical %arg2, %7 : tensor<16xui32> loc(#loc916)
    %9 = stablehlo.or %5, %8 : tensor<16xui32> loc(#loc917)
    %10 = stablehlo.xor %3, %9 : tensor<16xui32> loc(#loc910)
    %11 = stablehlo.slice %arg6 [1:2] : (tensor<4xui32>) -> tensor<1xui32> loc(#loc907)
    %12 = stablehlo.reshape %11 : (tensor<1xui32>) -> tensor<ui32> loc(#loc908)
    %13 = stablehlo.add %3, %10 : tensor<16xui32> loc(#loc911)
    %14 = stablehlo.broadcast_in_dim %12, dims = [] : (tensor<ui32>) -> tensor<16xui32> loc(#loc914)
    %15 = stablehlo.shift_left %10, %14 : tensor<16xui32> loc(#loc914)
    %16 = stablehlo.subtract %c, %12 : tensor<ui32> loc(#loc915)
    %17 = stablehlo.broadcast_in_dim %16, dims = [] : (tensor<ui32>) -> tensor<16xui32> loc(#loc916)
    %18 = stablehlo.shift_right_logical %10, %17 : tensor<16xui32> loc(#loc916)
    %19 = stablehlo.or %15, %18 : tensor<16xui32> loc(#loc917)
    %20 = stablehlo.xor %13, %19 : tensor<16xui32> loc(#loc910)
    %21 = stablehlo.slice %arg6 [2:3] : (tensor<4xui32>) -> tensor<1xui32> loc(#loc907)
    %22 = stablehlo.reshape %21 : (tensor<1xui32>) -> tensor<ui32> loc(#loc908)
    %23 = stablehlo.add %13, %20 : tensor<16xui32> loc(#loc911)
    %24 = stablehlo.broadcast_in_dim %22, dims = [] : (tensor<ui32>) -> tensor<16xui32> loc(#loc914)
    %25 = stablehlo.shift_left %20, %24 : tensor<16xui32> loc(#loc914)
    %26 = stablehlo.subtract %c, %22 : tensor<ui32> loc(#loc915)
    %27 = stablehlo.broadcast_in_dim %26, dims = [] : (tensor<ui32>) -> tensor<16xui32> loc(#loc916)
    %28 = stablehlo.shift_right_logical %20, %27 : tensor<16xui32> loc(#loc916)
    %29 = stablehlo.or %25, %28 : tensor<16xui32> loc(#loc917)
    %30 = stablehlo.xor %23, %29 : tensor<16xui32> loc(#loc910)
    %31 = stablehlo.slice %arg6 [3:4] : (tensor<4xui32>) -> tensor<1xui32> loc(#loc907)
    %32 = stablehlo.reshape %31 : (tensor<1xui32>) -> tensor<ui32> loc(#loc908)
    %33 = stablehlo.add %23, %30 : tensor<16xui32> loc(#loc911)
    %34 = stablehlo.broadcast_in_dim %32, dims = [] : (tensor<ui32>) -> tensor<16xui32> loc(#loc914)
    %35 = stablehlo.shift_left %30, %34 : tensor<16xui32> loc(#loc914)
    %36 = stablehlo.subtract %c, %32 : tensor<ui32> loc(#loc915)
    %37 = stablehlo.broadcast_in_dim %36, dims = [] : (tensor<ui32>) -> tensor<16xui32> loc(#loc916)
    %38 = stablehlo.shift_right_logical %30, %37 : tensor<16xui32> loc(#loc916)
    %39 = stablehlo.or %35, %38 : tensor<16xui32> loc(#loc917)
    %40 = stablehlo.xor %33, %39 : tensor<16xui32> loc(#loc910)
    %41 = stablehlo.broadcast_in_dim %arg3, dims = [] : (tensor<ui32>) -> tensor<16xui32> loc(#loc911)
    %42 = stablehlo.add %33, %41 : tensor<16xui32> loc(#loc911)
    %43 = stablehlo.broadcast_in_dim %arg4, dims = [] : (tensor<ui32>) -> tensor<16xui32> loc(#loc911)
    %44 = stablehlo.add %40, %43 : tensor<16xui32> loc(#loc911)
    %45 = stablehlo.add %arg0, %c_0 : tensor<i32> loc(#loc911)
    %46 = stablehlo.convert %45 : (tensor<i32>) -> tensor<ui32> loc(#loc918)
    %47 = stablehlo.broadcast_in_dim %46, dims = [] : (tensor<ui32>) -> tensor<16xui32> loc(#loc911)
    %48 = stablehlo.add %44, %47 : tensor<16xui32> loc(#loc911)
    return %0, %42, %48, %arg4, %arg5, %arg3, %arg7, %arg6 : tensor<i32>, tensor<16xui32>, tensor<16xui32>, tensor<ui32>, tensor<ui32>, tensor<ui32>, tensor<4xui32>, tensor<4xui32> loc(#loc)
  } loc(#loc1140)
  func.func private @dynamic_index_in_dim(%arg0: tensor<16x2xui32> loc(unknown), %arg1: tensor<i32> loc(unknown)) -> tensor<2xui32> {
    %c = stablehlo.constant dense<0> : tensor<i32> loc(#loc)
    %0 = stablehlo.dynamic_slice %arg0, %arg1, %c, sizes = [1, 2] : (tensor<16x2xui32>, tensor<i32>, tensor<i32>) -> tensor<1x2xui32> loc(#loc920)
    %1 = stablehlo.reshape %0 : (tensor<1x2xui32>) -> tensor<2xui32> loc(#loc921)
    return %1 : tensor<2xui32> loc(#loc)
  } loc(#loc1141)
  func.func private @closed_call_3(%arg0: tensor<32x16xf32> loc(unknown), %arg1: tensor<1xf32> loc(unknown), %arg2: tensor<32x1xf32> loc(unknown), %arg3: tensor<32xf32> loc(unknown), %arg4: tensor<15x32xf32> loc(unknown), %arg5: tensor<32xf32> loc(unknown), %arg6: tensor<48x32xf32> loc(unknown), %arg7: tensor<2x16xf32> loc(unknown), %arg8: tensor<32x2x16xf32> loc(unknown), %arg9: tensor<32xf32> loc(unknown), %arg10: tensor<2x16x32xf32> loc(unknown), %arg11: tensor<2x16xf32> loc(unknown), %arg12: tensor<32x2x16xf32> loc(unknown), %arg13: tensor<2x16xf32> loc(unknown), %arg14: tensor<32x2x16xf32> loc(unknown), %arg15: tensor<i32> loc(unknown), %arg16: tensor<32x16xf32> loc(unknown), %arg17: tensor<1xf32> loc(unknown), %arg18: tensor<32x1xf32> loc(unknown), %arg19: tensor<32xf32> loc(unknown), %arg20: tensor<15x32xf32> loc(unknown), %arg21: tensor<32xf32> loc(unknown), %arg22: tensor<48x32xf32> loc(unknown), %arg23: tensor<2x16xf32> loc(unknown), %arg24: tensor<32x2x16xf32> loc(unknown), %arg25: tensor<32xf32> loc(unknown), %arg26: tensor<2x16x32xf32> loc(unknown), %arg27: tensor<2x16xf32> loc(unknown), %arg28: tensor<32x2x16xf32> loc(unknown), %arg29: tensor<2x16xf32> loc(unknown), %arg30: tensor<32x2x16xf32> loc(unknown), %arg31: tensor<32x16xf32> loc(unknown), %arg32: tensor<1xf32> loc(unknown), %arg33: tensor<32x1xf32> loc(unknown), %arg34: tensor<32xf32> loc(unknown), %arg35: tensor<15x32xf32> loc(unknown), %arg36: tensor<32xf32> loc(unknown), %arg37: tensor<48x32xf32> loc(unknown), %arg38: tensor<2x16xf32> loc(unknown), %arg39: tensor<32x2x16xf32> loc(unknown), %arg40: tensor<32xf32> loc(unknown), %arg41: tensor<2x16x32xf32> loc(unknown), %arg42: tensor<2x16xf32> loc(unknown), %arg43: tensor<32x2x16xf32> loc(unknown), %arg44: tensor<2x16xf32> loc(unknown), %arg45: tensor<32x2x16xf32> loc(unknown), %arg46: tensor<16x5xi32> loc(unknown), %arg47: tensor<16xi32> loc(unknown), %arg48: tensor<16x5xi32> loc(unknown), %arg49: tensor<i32> loc(unknown), %arg50: tensor<64x16xi1> loc(unknown), %arg51: tensor<64x15xf32> loc(unknown), %arg52: tensor<64xi32> loc(unknown), %arg53: tensor<64xf32> loc(unknown), %arg54: tensor<64xi1> loc(unknown), %arg55: tensor<64xi1> loc(unknown), %arg56: tensor<64xf32> loc(unknown), %arg57: tensor<64xf32> loc(unknown), %arg58: tensor<64xf32> loc(unknown), %arg59: tensor<64x5xi32> loc(unknown), %arg60: tensor<64x5xi32> loc(unknown), %arg61: tensor<64xi1> loc(unknown), %arg62: tensor<64xi32> loc(unknown), %arg63: tensor<64xi1> loc(unknown), %arg64: tensor<64x16xi32> loc(unknown), %arg65: tensor<64x16x2x16xf32> loc(unknown), %arg66: tensor<64x16x2x16xf32> loc(unknown), %arg67: tensor<2xui32> loc(unknown)) -> (tensor<i32>, tensor<64x16xi1>, tensor<64x15xf32>, tensor<64xi32>, tensor<64xf32>, tensor<64xi1>, tensor<64xi1>, tensor<64xf32>, tensor<64xf32>, tensor<64xf32>, tensor<64x5xi32>, tensor<64x5xi32>, tensor<64xi1>, tensor<64xi32>, tensor<64xi1>, tensor<64x16xi32>, tensor<64x16x2x16xf32>, tensor<64x16x2x16xf32>, tensor<64x16xi1>, tensor<64x15xf32>, tensor<64xi32>, tensor<64xf32>, tensor<64xi1>, tensor<64xi1>, tensor<64xf32>, tensor<64xf32>, tensor<64xf32>, tensor<64x16xi1>, tensor<64x15xf32>, tensor<64xi32>, tensor<64xf32>, tensor<64xi1>, tensor<64xi1>, tensor<64xf32>, tensor<64xf32>, tensor<64xf32>, tensor<64xf32>, tensor<64xf32>) {
    %c = stablehlo.constant dense<64> : tensor<i32> loc(#loc)
    %c_0 = stablehlo.constant dense<6> : tensor<i32> loc(#loc)
    %c_1 = stablehlo.constant dense<2> : tensor<i32> loc(#loc)
    %c_2 = stablehlo.constant dense<false> : tensor<i1> loc(#loc)
    %c_3 = stablehlo.constant dense<1> : tensor<i32> loc(#loc)
    %c_4 = stablehlo.constant dense<26> : tensor<i32> loc(#loc)
    %c_5 = stablehlo.constant dense<5> : tensor<i32> loc(#loc)
    %c_6 = stablehlo.constant dense<16> : tensor<i32> loc(#loc)
    %c_7 = stablehlo.constant dense<15> : tensor<i32> loc(#loc)
    %cst = stablehlo.constant dense<1.000000e+00> : tensor<f32> loc(#loc)
    %c_8 = stablehlo.constant dense<0> : tensor<i32> loc(#loc)
    %cst_9 = stablehlo.constant dense<-3.40282347E+38> : tensor<f32> loc(#loc)
    %cst_10 = stablehlo.constant dense<0.000000e+00> : tensor<f32> loc(#loc)
    %cst_11 = stablehlo.constant dense<0xFF800000> : tensor<f32> loc(#loc)
    %cst_12 = stablehlo.constant dense<-2.38197633E+38> : tensor<f32> loc(#loc)
    %c_13 = stablehlo.constant dense<true> : tensor<i1> loc(#loc)
    %cst_14 = stablehlo.constant dense<2.500000e-01> : tensor<f32> loc(#loc)
    %0 = call @_threefry_split(%arg67) : (tensor<2xui32>) -> tensor<2x2xui32> loc(#loc923)
    %1 = stablehlo.slice %0 [0:1, 0:2] : (tensor<2x2xui32>) -> tensor<1x2xui32> loc(#loc764)
    %2 = stablehlo.reshape %1 : (tensor<1x2xui32>) -> tensor<2xui32> loc(#loc765)
    %3 = stablehlo.slice %0 [1:2, 0:2] : (tensor<2x2xui32>) -> tensor<1x2xui32> loc(#loc764)
    %4 = stablehlo.reshape %3 : (tensor<1x2xui32>) -> tensor<2xui32> loc(#loc765)
    %5 = stablehlo.broadcast_in_dim %arg50, dims = [0, 2] : (tensor<64x16xi1>) -> tensor<64x1x16xi1> loc(#loc1143)
    %6 = stablehlo.broadcast_in_dim %arg51, dims = [0, 2] : (tensor<64x15xf32>) -> tensor<64x1x15xf32> loc(#loc1143)
    %7 = stablehlo.broadcast_in_dim %arg52, dims = [0] : (tensor<64xi32>) -> tensor<64x1xi32> loc(#loc1143)
    %8 = stablehlo.broadcast_in_dim %arg54, dims = [0] : (tensor<64xi1>) -> tensor<64x1xi1> loc(#loc1143)
    %9 = stablehlo.broadcast_in_dim %arg55, dims = [0] : (tensor<64xi1>) -> tensor<64x1xi1> loc(#loc1143)
    %10 = stablehlo.or %8, %9 : tensor<64x1xi1> loc(#loc925)
    %11 = stablehlo.dot_general %6, %arg4, contracting_dims = [2] x [0] : (tensor<64x1x15xf32>, tensor<15x32xf32>) -> tensor<64x1x32xf32> loc(#loc1144)
    %12 = stablehlo.reshape %arg3 : (tensor<32xf32>) -> tensor<1x1x32xf32> loc(#loc1145)
    %13 = stablehlo.broadcast_in_dim %12, dims = [0, 1, 2] : (tensor<1x1x32xf32>) -> tensor<64x1x32xf32> loc(#loc1146)
    %14 = stablehlo.add %11, %13 : tensor<64x1x32xf32> loc(#loc1146)
    %15 = call @relu(%14) : (tensor<64x1x32xf32>) -> tensor<64x1x32xf32> loc(#loc929)
    %16 = call @_one_hot(%7) : (tensor<64x1xi32>) -> tensor<64x1x16xf32> loc(#loc930)
    %17 = stablehlo.concatenate %15, %16, dim = 2 : (tensor<64x1x32xf32>, tensor<64x1x16xf32>) -> tensor<64x1x48xf32> loc(#loc931)
    %18 = stablehlo.dot_general %17, %arg6, contracting_dims = [2] x [0] : (tensor<64x1x48xf32>, tensor<48x32xf32>) -> tensor<64x1x32xf32> loc(#loc1774)
    %19 = stablehlo.reshape %arg5 : (tensor<32xf32>) -> tensor<1x1x32xf32> loc(#loc1775)
    %20 = stablehlo.broadcast_in_dim %19, dims = [0, 1, 2] : (tensor<1x1x32xf32>) -> tensor<64x1x32xf32> loc(#loc1776)
    %21 = stablehlo.add %18, %20 : tensor<64x1x32xf32> loc(#loc1776)
    %22 = call @relu(%21) : (tensor<64x1x32xf32>) -> tensor<64x1x32xf32> loc(#loc1511)
    %23 = stablehlo.dot_general %22, %arg12, contracting_dims = [2] x [0] : (tensor<64x1x32xf32>, tensor<32x2x16xf32>) -> tensor<64x1x2x16xf32> loc(#loc1777)
    %24 = stablehlo.reshape %arg11 : (tensor<2x16xf32>) -> tensor<1x1x2x16xf32> loc(#loc1778)
    %25 = stablehlo.broadcast_in_dim %24, dims = [0, 1, 2, 3] : (tensor<1x1x2x16xf32>) -> tensor<64x1x2x16xf32> loc(#loc1779)
    %26 = stablehlo.add %23, %25 : tensor<64x1x2x16xf32> loc(#loc1779)
    %27 = stablehlo.dot_general %22, %arg8, contracting_dims = [2] x [0] : (tensor<64x1x32xf32>, tensor<32x2x16xf32>) -> tensor<64x1x2x16xf32> loc(#loc1780)
    %28 = stablehlo.reshape %arg7 : (tensor<2x16xf32>) -> tensor<1x1x2x16xf32> loc(#loc1781)
    %29 = stablehlo.broadcast_in_dim %28, dims = [0, 1, 2, 3] : (tensor<1x1x2x16xf32>) -> tensor<64x1x2x16xf32> loc(#loc1782)
    %30 = stablehlo.add %27, %29 : tensor<64x1x2x16xf32> loc(#loc1782)
    %31 = stablehlo.concatenate %arg65, %30, dim = 1 : (tensor<64x16x2x16xf32>, tensor<64x1x2x16xf32>) -> tensor<64x17x2x16xf32> loc(#loc1518)
    %32 = stablehlo.slice %31 [0:64, 1:17, 0:2, 0:16] : (tensor<64x17x2x16xf32>) -> tensor<64x16x2x16xf32> loc(#loc1519)
    %33 = stablehlo.dot_general %22, %arg14, contracting_dims = [2] x [0] : (tensor<64x1x32xf32>, tensor<32x2x16xf32>) -> tensor<64x1x2x16xf32> loc(#loc1783)
    %34 = stablehlo.reshape %arg13 : (tensor<2x16xf32>) -> tensor<1x1x2x16xf32> loc(#loc1784)
    %35 = stablehlo.broadcast_in_dim %34, dims = [0, 1, 2, 3] : (tensor<1x1x2x16xf32>) -> tensor<64x1x2x16xf32> loc(#loc1785)
    %36 = stablehlo.add %33, %35 : tensor<64x1x2x16xf32> loc(#loc1785)
    %37 = stablehlo.concatenate %arg66, %36, dim = 1 : (tensor<64x16x2x16xf32>, tensor<64x1x2x16xf32>) -> tensor<64x17x2x16xf32> loc(#loc1523)
    %38 = stablehlo.slice %37 [0:64, 1:17, 0:2, 0:16] : (tensor<64x17x2x16xf32>) -> tensor<64x16x2x16xf32> loc(#loc1524)
    %39 = stablehlo.convert %10 : (tensor<64x1xi1>) -> tensor<64x1xi32> loc(#loc1786)
    %40 = stablehlo.concatenate %arg64, %39, dim = 1 : (tensor<64x16xi32>, tensor<64x1xi32>) -> tensor<64x17xi32> loc(#loc1787)
    %41 = call @cumsum(%40) : (tensor<64x17xi32>) -> tensor<64x17xi32> loc(#loc1788)
    %42 = stablehlo.slice %41 [0:64, 16:17] : (tensor<64x17xi32>) -> tensor<64x1xi32> loc(#loc1789)
    %43 = stablehlo.broadcast_in_dim %42, dims = [0, 1] : (tensor<64x1xi32>) -> tensor<64x1x1xi32> loc(#loc1790)
    %44 = stablehlo.slice %41 [0:64, 1:17] : (tensor<64x17xi32>) -> tensor<64x16xi32> loc(#loc1791)
    %45 = stablehlo.broadcast_in_dim %44, dims = [0, 2] : (tensor<64x16xi32>) -> tensor<64x1x16xi32> loc(#loc1792)
    %46 = stablehlo.broadcast_in_dim %43, dims = [0, 1, 2] : (tensor<64x1x1xi32>) -> tensor<64x1x16xi32> loc(#loc1793)
    %47 = stablehlo.compare EQ, %46, %45, SIGNED : (tensor<64x1x16xi32>, tensor<64x1x16xi32>) -> tensor<64x1x16xi1> loc(#loc1793)
    %48 = stablehlo.iota dim = 0 : tensor<17xi32> loc(#loc1794)
    %49 = stablehlo.slice %48 [16:17] : (tensor<17xi32>) -> tensor<1xi32> loc(#loc1795)
    %50 = stablehlo.broadcast_in_dim %49, dims = [0] : (tensor<1xi32>) -> tensor<1x1xi32> loc(#loc1796)
    %51 = stablehlo.slice %48 [1:17] : (tensor<17xi32>) -> tensor<16xi32> loc(#loc1797)
    %52 = stablehlo.broadcast_in_dim %51, dims = [1] : (tensor<16xi32>) -> tensor<1x16xi32> loc(#loc1798)
    %53 = stablehlo.broadcast_in_dim %50, dims = [0, 1] : (tensor<1x1xi32>) -> tensor<1x16xi32> loc(#loc1799)
    %54 = stablehlo.compare GE, %53, %52, SIGNED : (tensor<1x16xi32>, tensor<1x16xi32>) -> tensor<1x16xi1> loc(#loc1799)
    %55 = stablehlo.broadcast_in_dim %54, dims = [1, 2] : (tensor<1x16xi1>) -> tensor<1x1x16xi1> loc(#loc1800)
    %56 = stablehlo.broadcast_in_dim %55, dims = [0, 1, 2] : (tensor<1x1x16xi1>) -> tensor<64x1x16xi1> loc(#loc1801)
    %57 = stablehlo.and %47, %56 : tensor<64x1x16xi1> loc(#loc1801)
    %58 = stablehlo.broadcast_in_dim %57, dims = [0, 2, 3] : (tensor<64x1x16xi1>) -> tensor<64x1x1x16xi1> loc(#loc1802)
    %59 = stablehlo.reshape %26 : (tensor<64x1x2x16xf32>) -> tensor<64x1x2x1x16xf32> loc(#loc1536)
    %60 = stablehlo.broadcast_in_dim %58, dims = [0, 1, 3, 4] : (tensor<64x1x1x16xi1>) -> tensor<64x1x1x1x16xi1> loc(#loc1537)
    %61 = stablehlo.dot_general %59, %32, batching_dims = [0, 2] x [0, 2], contracting_dims = [4] x [3] : (tensor<64x1x2x1x16xf32>, tensor<64x16x2x16xf32>) -> tensor<64x2x1x1x16xf32> loc(#loc1538)
    %62 = stablehlo.broadcast_in_dim %cst_14, dims = [] : (tensor<f32>) -> tensor<64x2x1x1x16xf32> loc(#loc1539)
    %63 = stablehlo.multiply %61, %62 : tensor<64x2x1x1x16xf32> loc(#loc1539)
    %64 = stablehlo.broadcast_in_dim %c_13, dims = [] : (tensor<i1>) -> tensor<64x2x1x16xi1> loc(#loc1540)
    %65 = stablehlo.broadcast_in_dim %64, dims = [1, 2, 3, 4] : (tensor<64x2x1x16xi1>) -> tensor<1x64x2x1x16xi1> loc(#loc1540)
    %66 = stablehlo.transpose %60, dims = [2, 0, 1, 3, 4] : (tensor<64x1x1x1x16xi1>) -> tensor<1x64x1x1x16xi1> loc(#loc1541)
    %67 = stablehlo.broadcast_in_dim %66, dims = [0, 1, 2, 3, 4] : (tensor<1x64x1x1x16xi1>) -> tensor<1x64x2x1x16xi1> loc(#loc1542)
    %68 = stablehlo.and %65, %67 : tensor<1x64x2x1x16xi1> loc(#loc1542)
    %69 = call @_where(%68, %63, %cst_12) : (tensor<1x64x2x1x16xi1>, tensor<64x2x1x1x16xf32>, tensor<f32>) -> tensor<1x64x2x1x16xf32> loc(#loc1543)
    %70 = stablehlo.reduce(%69 init: %cst_11) applies stablehlo.maximum across dimensions = [4] : (tensor<1x64x2x1x16xf32>, tensor<f32>) -> tensor<1x64x2x1xf32> loc(#loc1544)
    %71 = stablehlo.broadcast_in_dim %cst_11, dims = [] : (tensor<f32>) -> tensor<1x64x2x1xf32> loc(#loc1545)
    %72 = stablehlo.maximum %71, %70 : tensor<1x64x2x1xf32> loc(#loc1545)
    %73 = stablehlo.broadcast_in_dim %72, dims = [0, 1, 2, 3] : (tensor<1x64x2x1xf32>) -> tensor<1x64x2x1x1xf32> loc(#loc1540)
    %74 = stablehlo.broadcast_in_dim %73, dims = [0, 1, 2, 3, 4] : (tensor<1x64x2x1x1xf32>) -> tensor<1x64x2x1x16xf32> loc(#loc1546)
    %75 = stablehlo.subtract %69, %74 : tensor<1x64x2x1x16xf32> loc(#loc1546)
    %76 = stablehlo.exponential %75 : tensor<1x64x2x1x16xf32> loc(#loc1547)
    %77 = stablehlo.reduce(%76 init: %cst_10) applies stablehlo.add across dimensions = [4] : (tensor<1x64x2x1x16xf32>, tensor<f32>) -> tensor<1x64x2x1xf32> loc(#loc1548)
    %78 = stablehlo.broadcast_in_dim %77, dims = [0, 1, 2, 3] : (tensor<1x64x2x1xf32>) -> tensor<1x64x2x1x1xf32> loc(#loc1540)
    %79 = stablehlo.broadcast_in_dim %78, dims = [0, 1, 2, 3, 4] : (tensor<1x64x2x1x1xf32>) -> tensor<1x64x2x1x16xf32> loc(#loc1549)
    %80 = stablehlo.divide %76, %79 : tensor<1x64x2x1x16xf32> loc(#loc1549)
    %81 = stablehlo.dot_general %38, %80, batching_dims = [0, 2] x [1, 2], contracting_dims = [1] x [4] : (tensor<64x16x2x16xf32>, tensor<1x64x2x1x16xf32>) -> tensor<64x2x16x1x1xf32> loc(#loc1550)
    %82 = stablehlo.transpose %81, dims = [3, 0, 4, 1, 2] : (tensor<64x2x16x1x1xf32>) -> tensor<1x64x1x2x16xf32> loc(#loc1551)
    %83 = stablehlo.transpose %82, dims = [1, 2, 3, 0, 4] : (tensor<1x64x1x2x16xf32>) -> tensor<64x1x2x1x16xf32> loc(#loc1541)
    %84 = stablehlo.reshape %83 : (tensor<64x1x2x1x16xf32>) -> tensor<64x1x2x16xf32> loc(#loc1536)
    %85 = stablehlo.dot_general %84, %arg10, contracting_dims = [2, 3] x [0, 1] : (tensor<64x1x2x16xf32>, tensor<2x16x32xf32>) -> tensor<64x1x32xf32> loc(#loc1803)
    %86 = stablehlo.reshape %arg9 : (tensor<32xf32>) -> tensor<1x1x32xf32> loc(#loc1804)
    %87 = stablehlo.broadcast_in_dim %86, dims = [0, 1, 2] : (tensor<1x1x32xf32>) -> tensor<64x1x32xf32> loc(#loc1805)
    %88 = stablehlo.add %85, %87 : tensor<64x1x32xf32> loc(#loc1805)
    %89 = stablehlo.convert %10 : (tensor<64x1xi1>) -> tensor<64x1xi32> loc(#loc1555)
    %90 = stablehlo.concatenate %arg64, %89, dim = 1 : (tensor<64x16xi32>, tensor<64x1xi32>) -> tensor<64x17xi32> loc(#loc1556)
    %91 = stablehlo.slice %90 [0:64, 1:17] : (tensor<64x17xi32>) -> tensor<64x16xi32> loc(#loc1557)
    %92 = stablehlo.dot_general %88, %arg0, contracting_dims = [2] x [0] : (tensor<64x1x32xf32>, tensor<32x16xf32>) -> tensor<64x1x16xf32> loc(#loc1148)
    %93 = call @_where_5(%5, %92, %cst_9) : (tensor<64x1x16xi1>, tensor<64x1x16xf32>, tensor<f32>) -> tensor<64x1x16xf32> loc(#loc934)
    %94 = stablehlo.dot_general %88, %arg2, contracting_dims = [2] x [0] : (tensor<64x1x32xf32>, tensor<32x1xf32>) -> tensor<64x1x1xf32> loc(#loc1149)
    %95 = stablehlo.reshape %arg1 : (tensor<1xf32>) -> tensor<1x1x1xf32> loc(#loc1150)
    %96 = stablehlo.broadcast_in_dim %95, dims = [0, 1, 2] : (tensor<1x1x1xf32>) -> tensor<64x1x1xf32> loc(#loc1151)
    %97 = stablehlo.add %94, %96 : tensor<64x1x1xf32> loc(#loc1151)
    %98 = call @log_softmax(%93) : (tensor<64x1x16xf32>) -> tensor<64x1x16xf32> loc(#loc1558)
    %99 = call @_gumbel(%2) : (tensor<2xui32>) -> tensor<1x64x1x16xf32> loc(#loc1806)
    %100 = stablehlo.broadcast_in_dim %cst, dims = [] : (tensor<f32>) -> tensor<1x64x1x16xf32> loc(#loc1807)
    %101 = stablehlo.multiply %100, %99 : tensor<1x64x1x16xf32> loc(#loc1807)
    %102 = stablehlo.broadcast_in_dim %98, dims = [1, 2, 3] : (tensor<64x1x16xf32>) -> tensor<1x64x1x16xf32> loc(#loc1808)
    %103 = stablehlo.add %102, %101 : tensor<1x64x1x16xf32> loc(#loc1809)
    %104 = call @argmax(%103) : (tensor<1x64x1x16xf32>) -> tensor<1x64x1xi32> loc(#loc1562)
    %105 = call @_one_hot_8(%104) : (tensor<1x64x1xi32>) -> tensor<1x64x1x16xf32> loc(#loc1810)
    %106 = stablehlo.broadcast_in_dim %c_8, dims = [] : (tensor<i32>) -> tensor<1x64x1xi32> loc(#loc1811)
    %107 = stablehlo.compare LT, %104, %106, SIGNED : (tensor<1x64x1xi32>, tensor<1x64x1xi32>) -> tensor<1x64x1xi1> loc(#loc1811)
    %108 = stablehlo.broadcast_in_dim %c_7, dims = [] : (tensor<i32>) -> tensor<1x64x1xi32> loc(#loc1812)
    %109 = stablehlo.compare GT, %104, %108, SIGNED : (tensor<1x64x1xi32>, tensor<1x64x1xi32>) -> tensor<1x64x1xi1> loc(#loc1812)
    %110 = stablehlo.or %107, %109 : tensor<1x64x1xi1> loc(#loc1813)
    %111 = stablehlo.broadcast_in_dim %cst_10, dims = [] : (tensor<f32>) -> tensor<1x64x1x16xf32> loc(#loc2122)
    %112 = stablehlo.compare EQ, %105, %111, FLOAT : (tensor<1x64x1x16xf32>, tensor<1x64x1x16xf32>) -> tensor<1x64x1x16xi1> loc(#loc2122)
    %113 = stablehlo.broadcast_in_dim %98, dims = [1, 2, 3] : (tensor<64x1x16xf32>) -> tensor<1x64x1x16xf32> loc(#loc2123)
    %114 = stablehlo.multiply %113, %105 : tensor<1x64x1x16xf32> loc(#loc2124)
    %115 = call @_where_9(%112, %cst_10, %114) : (tensor<1x64x1x16xi1>, tensor<f32>, tensor<1x64x1x16xf32>) -> tensor<1x64x1x16xf32> loc(#loc2125)
    %116 = stablehlo.reduce(%115 init: %cst_10) applies stablehlo.add across dimensions = [3] : (tensor<1x64x1x16xf32>, tensor<f32>) -> tensor<1x64x1xf32> loc(#loc1817)
    %117 = call @_where_10(%110, %cst_11, %116) : (tensor<1x64x1xi1>, tensor<f32>, tensor<1x64x1xf32>) -> tensor<1x64x1xf32> loc(#loc1818)
    %118 = stablehlo.reduce(%117 init: %cst_10) applies stablehlo.add across dimensions = [] : (tensor<1x64x1xf32>, tensor<f32>) -> tensor<1x64x1xf32> loc(#loc1320)
    %119 = stablehlo.reshape %104 : (tensor<1x64x1xi32>) -> tensor<64x1xi32> loc(#loc1155)
    %120 = stablehlo.reshape %118 : (tensor<1x64x1xf32>) -> tensor<64x1xf32> loc(#loc1155)
    %121 = stablehlo.reshape %119 : (tensor<64x1xi32>) -> tensor<64xi32> loc(#loc942)
    %122 = stablehlo.reshape %120 : (tensor<64x1xf32>) -> tensor<64xf32> loc(#loc943)
    %123 = stablehlo.reshape %97 : (tensor<64x1x1xf32>) -> tensor<64x1xf32> loc(#loc944)
    %124 = stablehlo.reshape %123 : (tensor<64x1xf32>) -> tensor<64xf32> loc(#loc945)
    %125 = call @_threefry_split_11(%4) : (tensor<2xui32>) -> tensor<64x2xui32> loc(#loc1156)
    %126 = call @_threefry_split_14(%125) : (tensor<64x2xui32>) -> tensor<64x2x2xui32> loc(#loc1321)
    %127 = stablehlo.slice %126 [0:64, 1:2, 0:2] : (tensor<64x2x2xui32>) -> tensor<64x1x2xui32> loc(#loc1158)
    %128 = stablehlo.reshape %127 : (tensor<64x1x2xui32>) -> tensor<64x2xui32> loc(#loc1159)
    %129 = stablehlo.broadcast_in_dim %c_8, dims = [] : (tensor<i32>) -> tensor<64xi32> loc(#loc1322)
    %130 = stablehlo.compare LT, %121, %129, SIGNED : (tensor<64xi32>, tensor<64xi32>) -> tensor<64xi1> loc(#loc1322)
    %131 = stablehlo.broadcast_in_dim %c_6, dims = [] : (tensor<i32>) -> tensor<64xi32> loc(#loc1323)
    %132 = stablehlo.add %121, %131 : tensor<64xi32> loc(#loc1323)
    %133 = stablehlo.select %130, %132, %121 : tensor<64xi1>, tensor<64xi32> loc(#loc1324)
    %134 = stablehlo.compare LT, %c_8, %c_8, SIGNED : (tensor<i32>, tensor<i32>) -> tensor<i1> loc(#loc1322)
    %135 = stablehlo.add %c_8, %c_5 : tensor<i32> loc(#loc1323)
    %136 = stablehlo.select %134, %135, %c_8 : tensor<i1>, tensor<i32> loc(#loc1324)
    %137 = stablehlo.broadcast_in_dim %133, dims = [0] : (tensor<64xi32>) -> tensor<64x1xi32> loc(#loc1325)
    %138 = stablehlo.broadcast_in_dim %136, dims = [] : (tensor<i32>) -> tensor<64x1xi32> loc(#loc1325)
    %139 = stablehlo.concatenate %137, %138, dim = 1 : (tensor<64x1xi32>, tensor<64x1xi32>) -> tensor<64x2xi32> loc(#loc1326)
    %140 = "stablehlo.gather"(%arg46, %139) <{dimension_numbers = #stablehlo.gather<offset_dims = [1, 2], start_index_map = [0, 1], index_vector_dim = 1>, slice_sizes = array<i64: 1, 5>}> : (tensor<16x5xi32>, tensor<64x2xi32>) -> tensor<64x1x5xi32> loc(#loc1327)
    %141 = stablehlo.reshape %140 : (tensor<64x1x5xi32>) -> tensor<64x5xi32> loc(#loc1328)
    %142 = stablehlo.iota dim = 0 : tensor<5xi32> loc(#loc1819)
    %143 = stablehlo.compare EQ, %c_4, %c_8, SIGNED : (tensor<i32>, tensor<i32>) -> tensor<i1> loc(#loc1820)
    %144 = stablehlo.broadcast_in_dim %c_8, dims = [] : (tensor<i32>) -> tensor<5xi32> loc(#loc1821)
    %145 = stablehlo.compare NE, %142, %144, SIGNED : (tensor<5xi32>, tensor<5xi32>) -> tensor<5xi1> loc(#loc1821)
    %146 = stablehlo.broadcast_in_dim %143, dims = [] : (tensor<i1>) -> tensor<5xi1> loc(#loc1822)
    %147 = stablehlo.and %146, %145 : tensor<5xi1> loc(#loc1822)
    %148 = call @_where_17(%147, %c_8, %c_3) : (tensor<5xi1>, tensor<i32>, tensor<i32>) -> tensor<5xi32> loc(#loc1823)
    %149 = stablehlo.broadcast_in_dim %c_3, dims = [] : (tensor<i32>) -> tensor<5xi32> loc(#loc1822)
    %150 = stablehlo.and %142, %149 : tensor<5xi32> loc(#loc1822)
    %151 = stablehlo.broadcast_in_dim %c_4, dims = [] : (tensor<i32>) -> tensor<5xi32> loc(#loc1824)
    %152 = stablehlo.multiply %148, %151 : tensor<5xi32> loc(#loc1824)
    %153 = call @_where_18(%150, %152, %148) : (tensor<5xi32>, tensor<5xi32>, tensor<5xi32>) -> tensor<5xi32> loc(#loc1823)
    %154 = stablehlo.multiply %c_4, %c_4 : tensor<i32> loc(#loc1824)
    %155 = stablehlo.broadcast_in_dim %c_3, dims = [] : (tensor<i32>) -> tensor<5xi32> loc(#loc1825)
    %156 = stablehlo.shift_right_logical %142, %155 : tensor<5xi32> loc(#loc1825)
    %157 = stablehlo.broadcast_in_dim %c_3, dims = [] : (tensor<i32>) -> tensor<5xi32> loc(#loc1822)
    %158 = stablehlo.and %156, %157 : tensor<5xi32> loc(#loc1822)
    %159 = stablehlo.broadcast_in_dim %154, dims = [] : (tensor<i32>) -> tensor<5xi32> loc(#loc1824)
    %160 = stablehlo.multiply %153, %159 : tensor<5xi32> loc(#loc1824)
    %161 = call @_where_18(%158, %160, %153) : (tensor<5xi32>, tensor<5xi32>, tensor<5xi32>) -> tensor<5xi32> loc(#loc1823)
    %162 = stablehlo.multiply %154, %154 : tensor<i32> loc(#loc1824)
    %163 = stablehlo.broadcast_in_dim %c_3, dims = [] : (tensor<i32>) -> tensor<5xi32> loc(#loc1825)
    %164 = stablehlo.shift_right_logical %156, %163 : tensor<5xi32> loc(#loc1825)
    %165 = stablehlo.broadcast_in_dim %c_3, dims = [] : (tensor<i32>) -> tensor<5xi32> loc(#loc1822)
    %166 = stablehlo.and %164, %165 : tensor<5xi32> loc(#loc1822)
    %167 = stablehlo.broadcast_in_dim %162, dims = [] : (tensor<i32>) -> tensor<5xi32> loc(#loc1824)
    %168 = stablehlo.multiply %161, %167 : tensor<5xi32> loc(#loc1824)
    %169 = call @_where_18(%166, %168, %161) : (tensor<5xi32>, tensor<5xi32>, tensor<5xi32>) -> tensor<5xi32> loc(#loc1823)
    %170 = stablehlo.multiply %162, %162 : tensor<i32> loc(#loc1824)
    %171 = stablehlo.broadcast_in_dim %c_3, dims = [] : (tensor<i32>) -> tensor<5xi32> loc(#loc1825)
    %172 = stablehlo.shift_right_logical %164, %171 : tensor<5xi32> loc(#loc1825)
    %173 = stablehlo.broadcast_in_dim %c_3, dims = [] : (tensor<i32>) -> tensor<5xi32> loc(#loc1822)
    %174 = stablehlo.and %172, %173 : tensor<5xi32> loc(#loc1822)
    %175 = stablehlo.broadcast_in_dim %170, dims = [] : (tensor<i32>) -> tensor<5xi32> loc(#loc1824)
    %176 = stablehlo.multiply %169, %175 : tensor<5xi32> loc(#loc1824)
    %177 = call @_where_18(%174, %176, %169) : (tensor<5xi32>, tensor<5xi32>, tensor<5xi32>) -> tensor<5xi32> loc(#loc1823)
    %178 = stablehlo.multiply %170, %170 : tensor<i32> loc(#loc1824)
    %179 = stablehlo.broadcast_in_dim %c_3, dims = [] : (tensor<i32>) -> tensor<5xi32> loc(#loc1825)
    %180 = stablehlo.shift_right_logical %172, %179 : tensor<5xi32> loc(#loc1825)
    %181 = stablehlo.broadcast_in_dim %c_3, dims = [] : (tensor<i32>) -> tensor<5xi32> loc(#loc1822)
    %182 = stablehlo.and %180, %181 : tensor<5xi32> loc(#loc1822)
    %183 = stablehlo.broadcast_in_dim %178, dims = [] : (tensor<i32>) -> tensor<5xi32> loc(#loc1824)
    %184 = stablehlo.multiply %177, %183 : tensor<5xi32> loc(#loc1824)
    %185 = call @_where_18(%182, %184, %177) : (tensor<5xi32>, tensor<5xi32>, tensor<5xi32>) -> tensor<5xi32> loc(#loc1823)
    %186 = stablehlo.multiply %178, %178 : tensor<i32> loc(#loc1824)
    %187 = stablehlo.broadcast_in_dim %c_3, dims = [] : (tensor<i32>) -> tensor<5xi32> loc(#loc1825)
    %188 = stablehlo.shift_right_logical %180, %187 : tensor<5xi32> loc(#loc1825)
    %189 = stablehlo.broadcast_in_dim %c_3, dims = [] : (tensor<i32>) -> tensor<5xi32> loc(#loc1822)
    %190 = stablehlo.and %188, %189 : tensor<5xi32> loc(#loc1822)
    %191 = stablehlo.broadcast_in_dim %186, dims = [] : (tensor<i32>) -> tensor<5xi32> loc(#loc1824)
    %192 = stablehlo.multiply %185, %191 : tensor<5xi32> loc(#loc1824)
    %193 = call @_where_18(%190, %192, %185) : (tensor<5xi32>, tensor<5xi32>, tensor<5xi32>) -> tensor<5xi32> loc(#loc1823)
    %194 = stablehlo.broadcast_in_dim %193, dims = [1] : (tensor<5xi32>) -> tensor<1x5xi32> loc(#loc1826)
    %195 = stablehlo.broadcast_in_dim %194, dims = [0, 1] : (tensor<1x5xi32>) -> tensor<64x5xi32> loc(#loc1827)
    %196 = stablehlo.multiply %141, %195 : tensor<64x5xi32> loc(#loc1827)
    %197 = stablehlo.reduce(%196 init: %c_8) applies stablehlo.add across dimensions = [1] : (tensor<64x5xi32>, tensor<i32>) -> tensor<64xi32> loc(#loc1828)
    %198 = call @searchsorted(%arg47, %197) : (tensor<16xi32>, tensor<64xi32>) -> tensor<64xi32> loc(#loc1829)
    %199 = call @clip(%198, %c_8, %c_7) : (tensor<64xi32>, tensor<i32>, tensor<i32>) -> tensor<64xi32> loc(#loc1830)
    %200 = stablehlo.broadcast_in_dim %c_8, dims = [] : (tensor<i32>) -> tensor<64xi32> loc(#loc1831)
    %201 = stablehlo.compare LT, %199, %200, SIGNED : (tensor<64xi32>, tensor<64xi32>) -> tensor<64xi1> loc(#loc1831)
    %202 = stablehlo.broadcast_in_dim %c_6, dims = [] : (tensor<i32>) -> tensor<64xi32> loc(#loc1832)
    %203 = stablehlo.add %199, %202 : tensor<64xi32> loc(#loc1832)
    %204 = stablehlo.select %201, %203, %199 : tensor<64xi1>, tensor<64xi32> loc(#loc1833)
    %205 = stablehlo.broadcast_in_dim %204, dims = [0] : (tensor<64xi32>) -> tensor<64x1xi32> loc(#loc1834)
    %206 = "stablehlo.gather"(%arg47, %205) <{dimension_numbers = #stablehlo.gather<offset_dims = [1], start_index_map = [0], index_vector_dim = 1>, slice_sizes = array<i64: 1>}> : (tensor<16xi32>, tensor<64x1xi32>) -> tensor<64x1xi32> loc(#loc1835)
    %207 = stablehlo.reshape %206 : (tensor<64x1xi32>) -> tensor<64xi32> loc(#loc1836)
    %208 = stablehlo.compare EQ, %207, %197, SIGNED : (tensor<64xi32>, tensor<64xi32>) -> tensor<64xi1> loc(#loc1837)
    %209 = stablehlo.compare EQ, %141, %arg59, SIGNED : (tensor<64x5xi32>, tensor<64x5xi32>) -> tensor<64x5xi1> loc(#loc1578)
    %210 = stablehlo.reduce(%209 init: %c_13) applies stablehlo.and across dimensions = [1] : (tensor<64x5xi1>, tensor<i1>) -> tensor<64xi1> loc(#loc1579)
    %211 = stablehlo.compare EQ, %141, %arg59, SIGNED : (tensor<64x5xi32>, tensor<64x5xi32>) -> tensor<64x5xi1> loc(#loc1838)
    %212 = stablehlo.broadcast_in_dim %c_8, dims = [] : (tensor<i32>) -> tensor<26xi32> loc(#loc1839)
    %213 = stablehlo.not %211 : tensor<64x5xi1> loc(#loc1840)
    %214 = stablehlo.convert %213 : (tensor<64x5xi1>) -> tensor<64x5xi32> loc(#loc1841)
    %215 = stablehlo.broadcast_in_dim %c_8, dims = [] : (tensor<i32>) -> tensor<64x5xi32> loc(#loc1842)
    %216 = stablehlo.compare LT, %arg59, %215, SIGNED : (tensor<64x5xi32>, tensor<64x5xi32>) -> tensor<64x5xi1> loc(#loc1842)
    %217 = stablehlo.broadcast_in_dim %c_4, dims = [] : (tensor<i32>) -> tensor<64x5xi32> loc(#loc1843)
    %218 = stablehlo.add %arg59, %217 : tensor<64x5xi32> loc(#loc1843)
    %219 = stablehlo.select %216, %218, %arg59 : tensor<64x5xi1>, tensor<64x5xi32> loc(#loc1844)
    %220 = stablehlo.broadcast_in_dim %219, dims = [0, 1] : (tensor<64x5xi32>) -> tensor<64x5x1xi32> loc(#loc1845)
    %221 = stablehlo.broadcast_in_dim %212, dims = [1] : (tensor<26xi32>) -> tensor<64x26xi32> loc(#loc1845)
    %222 = "stablehlo.scatter"(%221, %220, %214) <{scatter_dimension_numbers = #stablehlo.scatter<inserted_window_dims = [1], input_batching_dims = [0], scatter_indices_batching_dims = [0], scatter_dims_to_operand_dims = [1], index_vector_dim = 2>}> ({
    ^bb0(%arg68: tensor<i32> loc("scatter-add:"(#loc218)), %arg69: tensor<i32> loc("scatter-add:"(#loc218))):
      %312 = stablehlo.add %arg68, %arg69 : tensor<i32> loc(#loc1843)
      stablehlo.return %312 : tensor<i32> loc(#loc1846)
    }) : (tensor<64x26xi32>, tensor<64x5x1xi32>, tensor<64x5xi32>) -> tensor<64x26xi32> loc(#loc1846)
    %223 = stablehlo.transpose %141, dims = [1, 0] : (tensor<64x5xi32>) -> tensor<5x64xi32> loc(#loc1847)
    %224 = stablehlo.transpose %211, dims = [1, 0] : (tensor<64x5xi1>) -> tensor<5x64xi1> loc(#loc1847)
    %225 = stablehlo.broadcast_in_dim %c_2, dims = [] : (tensor<i1>) -> tensor<5x64xi1> loc(#loc2126)
    %226:5 = stablehlo.while(%iterArg = %223, %iterArg_15 = %224, %iterArg_16 = %c_8, %iterArg_17 = %222, %iterArg_18 = %225) : tensor<5x64xi32>, tensor<5x64xi1>, tensor<i32>, tensor<64x26xi32>, tensor<5x64xi1>
    cond {
      %312 = stablehlo.compare LT, %iterArg_16, %c_5, SIGNED : (tensor<i32>, tensor<i32>) -> tensor<i1> loc(#loc2357)
      stablehlo.return %312 : tensor<i1> loc(#loc2127)
    } do {
      %312 = func.call @dynamic_index_in_dim_20(%iterArg, %iterArg_16) : (tensor<5x64xi32>, tensor<i32>) -> tensor<64xi32> loc(#loc2358)
      %313 = func.call @dynamic_index_in_dim_21(%iterArg_15, %iterArg_16) : (tensor<5x64xi1>, tensor<i32>) -> tensor<64xi1> loc(#loc2358)
      %314:2 = func.call @closed_call_22(%iterArg_17, %312, %313) : (tensor<64x26xi32>, tensor<64xi32>, tensor<64xi1>) -> (tensor<64x26xi32>, tensor<64xi1>) loc(#loc2359)
      %315 = func.call @dynamic_update_index_in_dim(%iterArg_18, %314#1, %iterArg_16) : (tensor<5x64xi1>, tensor<64xi1>, tensor<i32>) -> tensor<5x64xi1> loc(#loc2360)
      %316 = stablehlo.add %iterArg_16, %c_3 : tensor<i32> loc(#loc2361)
      stablehlo.return %iterArg, %iterArg_15, %316, %314#0, %315 : tensor<5x64xi32>, tensor<5x64xi1>, tensor<i32>, tensor<64x26xi32>, tensor<5x64xi1> loc(#loc2127)
    } loc(#loc2127)
    %227 = call @_where_23(%226#4, %c_3, %c_8) : (tensor<5x64xi1>, tensor<i32>, tensor<i32>) -> tensor<64x5xi32> loc(#loc1849)
    %228 = call @_where_24(%211, %c_1, %227) : (tensor<64x5xi1>, tensor<i32>, tensor<64x5xi32>) -> tensor<64x5xi32> loc(#loc1850)
    %229 = call @_where_25(%208, %228, %c_8) : (tensor<64xi1>, tensor<64x5xi32>, tensor<i32>) -> tensor<64x5xi32> loc(#loc1588)
    %230 = stablehlo.convert %208 : (tensor<64xi1>) -> tensor<64xi32> loc(#loc1589)
    %231 = stablehlo.add %arg62, %230 : tensor<64xi32> loc(#loc1590)
    %232 = stablehlo.convert %210 : (tensor<64xi1>) -> tensor<64xf32> loc(#loc1591)
    %233 = stablehlo.broadcast_in_dim %c_1, dims = [] : (tensor<i32>) -> tensor<64x5xi32> loc(#loc1592)
    %234 = stablehlo.compare EQ, %229, %233, SIGNED : (tensor<64x5xi32>, tensor<64x5xi32>) -> tensor<64x5xi1> loc(#loc1592)
    %235 = stablehlo.convert %234 : (tensor<64x5xi1>) -> tensor<64x5xi32> loc(#loc1593)
    %236 = stablehlo.reduce(%235 init: %c_8) applies stablehlo.add across dimensions = [1] : (tensor<64x5xi32>, tensor<i32>) -> tensor<64xi32> loc(#loc1594)
    %237 = stablehlo.convert %236 : (tensor<64xi32>) -> tensor<64xf32> loc(#loc1595)
    %238 = stablehlo.broadcast_in_dim %cst_10, dims = [] : (tensor<f32>) -> tensor<64xf32> loc(#loc1596)
    %239 = stablehlo.multiply %238, %237 : tensor<64xf32> loc(#loc1596)
    %240 = stablehlo.add %232, %239 : tensor<64xf32> loc(#loc1597)
    %241 = stablehlo.broadcast_in_dim %c_3, dims = [] : (tensor<i32>) -> tensor<64x5xi32> loc(#loc1598)
    %242 = stablehlo.compare EQ, %229, %241, SIGNED : (tensor<64x5xi32>, tensor<64x5xi32>) -> tensor<64x5xi1> loc(#loc1598)
    %243 = stablehlo.convert %242 : (tensor<64x5xi1>) -> tensor<64x5xi32> loc(#loc1599)
    %244 = stablehlo.reduce(%243 init: %c_8) applies stablehlo.add across dimensions = [1] : (tensor<64x5xi32>, tensor<i32>) -> tensor<64xi32> loc(#loc1600)
    %245 = stablehlo.convert %244 : (tensor<64xi32>) -> tensor<64xf32> loc(#loc1601)
    %246 = stablehlo.broadcast_in_dim %cst_10, dims = [] : (tensor<f32>) -> tensor<64xf32> loc(#loc1602)
    %247 = stablehlo.multiply %246, %245 : tensor<64xf32> loc(#loc1602)
    %248 = stablehlo.add %240, %247 : tensor<64xf32> loc(#loc1603)
    %249 = stablehlo.not %208 : tensor<64xi1> loc(#loc1604)
    %250 = stablehlo.convert %249 : (tensor<64xi1>) -> tensor<64xf32> loc(#loc1605)
    %251 = stablehlo.broadcast_in_dim %cst_10, dims = [] : (tensor<f32>) -> tensor<64xf32> loc(#loc1606)
    %252 = stablehlo.multiply %251, %250 : tensor<64xf32> loc(#loc1606)
    %253 = stablehlo.subtract %248, %252 : tensor<64xf32> loc(#loc1607)
    %254 = stablehlo.broadcast_in_dim %c_0, dims = [] : (tensor<i32>) -> tensor<64xi32> loc(#loc1608)
    %255 = stablehlo.compare GE, %231, %254, SIGNED : (tensor<64xi32>, tensor<64xi32>) -> tensor<64xi1> loc(#loc1608)
    %256 = stablehlo.or %210, %255 : tensor<64xi1> loc(#loc1609)
    %257 = stablehlo.convert %210 : (tensor<64xi1>) -> tensor<64xf32> loc(#loc1610)
    %258 = stablehlo.convert %231 : (tensor<64xi32>) -> tensor<64xf32> loc(#loc1611)
    %259 = stablehlo.not %208 : tensor<64xi1> loc(#loc1612)
    %260 = stablehlo.convert %259 : (tensor<64xi1>) -> tensor<64xf32> loc(#loc1613)
    %261 = call @_one_hot_26(%228) : (tensor<64x5xi32>) -> tensor<64x5x3xf32> loc(#loc1851)
    %262 = stablehlo.reshape %261 : (tensor<64x5x3xf32>) -> tensor<64x15xf32> loc(#loc1852)
    %263 = call @_where_27(%208, %262, %cst_10) : (tensor<64xi1>, tensor<64x15xf32>, tensor<f32>) -> tensor<64x15xf32> loc(#loc1853)
    %264 = stablehlo.broadcast_in_dim %c_13, dims = [] : (tensor<i1>) -> tensor<16xi1> loc(#loc1617)
    %265 = call @_randint(%128, %c_8, %c_6) : (tensor<64x2xui32>, tensor<i32>, tensor<i32>) -> tensor<64xi32> loc(#loc1618)
    %266 = stablehlo.broadcast_in_dim %c_8, dims = [] : (tensor<i32>) -> tensor<64xi32> loc(#loc1619)
    %267 = stablehlo.compare LT, %265, %266, SIGNED : (tensor<64xi32>, tensor<64xi32>) -> tensor<64xi1> loc(#loc1619)
    %268 = stablehlo.broadcast_in_dim %c_6, dims = [] : (tensor<i32>) -> tensor<64xi32> loc(#loc1620)
    %269 = stablehlo.add %265, %268 : tensor<64xi32> loc(#loc1620)
    %270 = stablehlo.select %267, %269, %265 : tensor<64xi1>, tensor<64xi32> loc(#loc1621)
    %271 = stablehlo.compare LT, %c_8, %c_8, SIGNED : (tensor<i32>, tensor<i32>) -> tensor<i1> loc(#loc1619)
    %272 = stablehlo.add %c_8, %c_5 : tensor<i32> loc(#loc1620)
    %273 = stablehlo.select %271, %272, %c_8 : tensor<i1>, tensor<i32> loc(#loc1621)
    %274 = stablehlo.broadcast_in_dim %270, dims = [0] : (tensor<64xi32>) -> tensor<64x1xi32> loc(#loc1622)
    %275 = stablehlo.broadcast_in_dim %273, dims = [] : (tensor<i32>) -> tensor<64x1xi32> loc(#loc1622)
    %276 = stablehlo.concatenate %274, %275, dim = 1 : (tensor<64x1xi32>, tensor<64x1xi32>) -> tensor<64x2xi32> loc(#loc1623)
    %277 = "stablehlo.gather"(%arg48, %276) <{dimension_numbers = #stablehlo.gather<offset_dims = [1, 2], start_index_map = [0, 1], index_vector_dim = 1>, slice_sizes = array<i64: 1, 5>}> : (tensor<16x5xi32>, tensor<64x2xi32>) -> tensor<64x1x5xi32> loc(#loc1624)
    %278 = stablehlo.reshape %277 : (tensor<64x1x5xi32>) -> tensor<64x5xi32> loc(#loc1625)
    %279 = stablehlo.broadcast_in_dim %c_8, dims = [] : (tensor<i32>) -> tensor<5xi32> loc(#loc1626)
    %280 = call @_one_hot_32(%279) : (tensor<5xi32>) -> tensor<5x3xf32> loc(#loc1854)
    %281 = stablehlo.reshape %280 : (tensor<5x3xf32>) -> tensor<15xf32> loc(#loc1855)
    %282 = call @_where_33(%c_2, %281, %cst_10) : (tensor<i1>, tensor<15xf32>, tensor<f32>) -> tensor<15xf32> loc(#loc1856)
    %283 = stablehlo.broadcast_in_dim %c_13, dims = [] : (tensor<i1>) -> tensor<16xi1> loc(#loc1630)
    %284 = stablehlo.broadcast_in_dim %c_2, dims = [] : (tensor<i1>) -> tensor<64xi1> loc(#loc1365)
    %285 = stablehlo.or %256, %284 : tensor<64xi1> loc(#loc1365)
    %286 = stablehlo.broadcast_in_dim %285, dims = [0] : (tensor<64xi1>) -> tensor<64x5xi1> loc(#loc1366)
    %287 = stablehlo.select %286, %278, %arg59 : tensor<64x5xi1>, tensor<64x5xi32> loc(#loc1367)
    %288 = stablehlo.broadcast_in_dim %279, dims = [1] : (tensor<5xi32>) -> tensor<64x5xi32> loc(#loc1366)
    %289 = stablehlo.broadcast_in_dim %285, dims = [0] : (tensor<64xi1>) -> tensor<64x5xi1> loc(#loc1366)
    %290 = stablehlo.select %289, %288, %228 : tensor<64x5xi1>, tensor<64x5xi32> loc(#loc1367)
    %291 = stablehlo.broadcast_in_dim %c_2, dims = [] : (tensor<i1>) -> tensor<64xi1> loc(#loc1366)
    %292 = stablehlo.select %285, %291, %208 : tensor<64xi1>, tensor<64xi1> loc(#loc1367)
    %293 = stablehlo.broadcast_in_dim %c_8, dims = [] : (tensor<i32>) -> tensor<64xi32> loc(#loc1366)
    %294 = stablehlo.select %285, %293, %231 : tensor<64xi1>, tensor<64xi32> loc(#loc1367)
    %295 = stablehlo.broadcast_in_dim %c_2, dims = [] : (tensor<i1>) -> tensor<64xi1> loc(#loc1366)
    %296 = stablehlo.select %285, %295, %210 : tensor<64xi1>, tensor<64xi1> loc(#loc1367)
    %297 = stablehlo.broadcast_in_dim %264, dims = [1] : (tensor<16xi1>) -> tensor<64x16xi1> loc(#loc1368)
    %298 = stablehlo.broadcast_in_dim %283, dims = [1] : (tensor<16xi1>) -> tensor<64x16xi1> loc(#loc1368)
    %299 = stablehlo.broadcast_in_dim %285, dims = [0] : (tensor<64xi1>) -> tensor<64x16xi1> loc(#loc1368)
    %300 = stablehlo.select %299, %298, %297 : tensor<64x16xi1>, tensor<64x16xi1> loc(#loc1369)
    %301 = stablehlo.broadcast_in_dim %282, dims = [1] : (tensor<15xf32>) -> tensor<64x15xf32> loc(#loc1368)
    %302 = stablehlo.broadcast_in_dim %285, dims = [0] : (tensor<64xi1>) -> tensor<64x15xi1> loc(#loc1368)
    %303 = stablehlo.select %302, %301, %263 : tensor<64x15xi1>, tensor<64x15xf32> loc(#loc1369)
    %304 = stablehlo.broadcast_in_dim %c_2, dims = [] : (tensor<i1>) -> tensor<64xi1> loc(#loc954)
    %305 = stablehlo.add %arg49, %c : tensor<i32> loc(#loc785)
    %306 = stablehlo.or %256, %304 : tensor<64xi1> loc(#loc955)
    %307 = stablehlo.broadcast_in_dim %c_8, dims = [] : (tensor<i32>) -> tensor<64xi32> loc(#loc787)
    %308 = call @_where_34(%306, %307, %121) : (tensor<64xi1>, tensor<64xi32>, tensor<64xi32>) -> tensor<64xi32> loc(#loc788)
    %309 = stablehlo.or %256, %304 : tensor<64xi1> loc(#loc956)
    %310 = stablehlo.broadcast_in_dim %cst_10, dims = [] : (tensor<f32>) -> tensor<64xf32> loc(#loc790)
    %311 = call @_where_35(%309, %310, %253) : (tensor<64xi1>, tensor<64xf32>, tensor<64xf32>) -> tensor<64xf32> loc(#loc791)
    return %305, %300, %303, %308, %311, %256, %304, %258, %260, %257, %287, %290, %292, %294, %296, %91, %32, %38, %arg50, %arg51, %arg52, %arg53, %arg54, %arg55, %arg56, %arg57, %arg58, %300, %303, %121, %253, %256, %304, %258, %260, %257, %122, %124 : tensor<i32>, tensor<64x16xi1>, tensor<64x15xf32>, tensor<64xi32>, tensor<64xf32>, tensor<64xi1>, tensor<64xi1>, tensor<64xf32>, tensor<64xf32>, tensor<64xf32>, tensor<64x5xi32>, tensor<64x5xi32>, tensor<64xi1>, tensor<64xi32>, tensor<64xi1>, tensor<64x16xi32>, tensor<64x16x2x16xf32>, tensor<64x16x2x16xf32>, tensor<64x16xi1>, tensor<64x15xf32>, tensor<64xi32>, tensor<64xf32>, tensor<64xi1>, tensor<64xi1>, tensor<64xf32>, tensor<64xf32>, tensor<64xf32>, tensor<64x16xi1>, tensor<64x15xf32>, tensor<64xi32>, tensor<64xf32>, tensor<64xi1>, tensor<64xi1>, tensor<64xf32>, tensor<64xf32>, tensor<64xf32>, tensor<64xf32>, tensor<64xf32> loc(#loc)
  } loc(#loc1142)
  func.func private @relu(%arg0: tensor<64x1x32xf32> loc(unknown)) -> tensor<64x1x32xf32> {
    %cst = stablehlo.constant dense<0.000000e+00> : tensor<f32> loc(#loc)
    %0 = stablehlo.broadcast_in_dim %cst, dims = [] : (tensor<f32>) -> tensor<64x1x32xf32> loc(#loc271)
    %1 = stablehlo.maximum %arg0, %0 : tensor<64x1x32xf32> loc(#loc271)
    return %1 : tensor<64x1x32xf32> loc(#loc)
  } loc(#loc627)
  func.func private @_one_hot(%arg0: tensor<64x1xi32> loc(unknown)) -> tensor<64x1x16xf32> {
    %0 = stablehlo.broadcast_in_dim %arg0, dims = [0, 1] : (tensor<64x1xi32>) -> tensor<64x1x1xi32> loc(#loc272)
    %1 = stablehlo.iota dim = 2 : tensor<1x1x16xi32> loc(#loc273)
    %2 = stablehlo.broadcast_in_dim %0, dims = [0, 1, 2] : (tensor<64x1x1xi32>) -> tensor<64x1x16xi32> loc(#loc274)
    %3 = stablehlo.broadcast_in_dim %1, dims = [0, 1, 2] : (tensor<1x1x16xi32>) -> tensor<64x1x16xi32> loc(#loc274)
    %4 = stablehlo.compare EQ, %2, %3, SIGNED : (tensor<64x1x16xi32>, tensor<64x1x16xi32>) -> tensor<64x1x16xi1> loc(#loc274)
    %5 = stablehlo.convert %4 : (tensor<64x1x16xi1>) -> tensor<64x1x16xf32> loc(#loc152)
    return %5 : tensor<64x1x16xf32> loc(#loc)
  } loc(#loc1168)
  func.func private @cumsum(%arg0: tensor<64x17xi32> loc(unknown)) -> tensor<64x17xi32> {
    %0 = call @cumsum_4(%arg0) : (tensor<64x17xi32>) -> tensor<64x17xi32> loc(#loc)
    return %0 : tensor<64x17xi32> loc(#loc)
  } loc(#loc2129)
  func.func private @cumsum_4(%arg0: tensor<64x17xi32> loc(unknown)) -> tensor<64x17xi32> {
    %c = stablehlo.constant dense<0> : tensor<i32> loc(#loc275)
    %0 = stablehlo.broadcast_in_dim %c, dims = [] : (tensor<i32>) -> tensor<i32> loc(#loc275)
    %1 = "stablehlo.reduce_window"(%arg0, %0) <{padding = dense<[[0, 0], [16, 0]]> : tensor<2x2xi64>, window_dimensions = array<i64: 1, 17>}> ({
    ^bb0(%arg1: tensor<i32> loc("reduce_window_sum:"(#loc275)), %arg2: tensor<i32> loc("reduce_window_sum:"(#loc275))):
      %2 = stablehlo.add %arg1, %arg2 : tensor<i32> loc(#loc275)
      stablehlo.return %2 : tensor<i32> loc(#loc275)
    }) : (tensor<64x17xi32>, tensor<i32>) -> tensor<64x17xi32> loc(#loc275)
    return %1 : tensor<64x17xi32> loc(#loc)
  } loc(#loc)
  func.func private @_where(%arg0: tensor<1x64x2x1x16xi1> loc(unknown), %arg1: tensor<64x2x1x1x16xf32> loc(unknown), %arg2: tensor<f32> loc(unknown)) -> tensor<1x64x2x1x16xf32> {
    %0 = stablehlo.broadcast_in_dim %arg2, dims = [] : (tensor<f32>) -> tensor<64x2x1x16xf32> loc(#loc272)
    %1 = stablehlo.broadcast_in_dim %0, dims = [1, 2, 3, 4] : (tensor<64x2x1x16xf32>) -> tensor<1x64x2x1x16xf32> loc(#loc272)
    %2 = stablehlo.transpose %arg1, dims = [3, 0, 1, 2, 4] : (tensor<64x2x1x1x16xf32>) -> tensor<1x64x2x1x16xf32> loc(#loc276)
    %3 = stablehlo.select %arg0, %2, %1 : tensor<1x64x2x1x16xi1>, tensor<1x64x2x1x16xf32> loc(#loc277)
    return %3 : tensor<1x64x2x1x16xf32> loc(#loc)
  } loc(#loc1858)
  func.func private @_where_5(%arg0: tensor<64x1x16xi1> loc(unknown), %arg1: tensor<64x1x16xf32> loc(unknown), %arg2: tensor<f32> loc(unknown)) -> tensor<64x1x16xf32> {
    %0 = stablehlo.broadcast_in_dim %arg2, dims = [] : (tensor<f32>) -> tensor<64x1x16xf32> loc(#loc272)
    %1 = stablehlo.select %arg0, %arg1, %0 : tensor<64x1x16xi1>, tensor<64x1x16xf32> loc(#loc277)
    return %1 : tensor<64x1x16xf32> loc(#loc)
  } loc(#loc1169)
  func.func private @log_softmax(%arg0: tensor<64x1x16xf32> loc(unknown)) -> tensor<64x1x16xf32> {
    %cst = stablehlo.constant dense<0.000000e+00> : tensor<f32> loc(#loc278)
    %cst_0 = stablehlo.constant dense<0xFF800000> : tensor<f32> loc(#loc)
    %0 = stablehlo.reduce(%arg0 init: %cst_0) applies stablehlo.maximum across dimensions = [2] : (tensor<64x1x16xf32>, tensor<f32>) -> tensor<64x1xf32> loc(#loc279)
    %1 = stablehlo.broadcast_in_dim %cst_0, dims = [] : (tensor<f32>) -> tensor<64x1xf32> loc(#loc271)
    %2 = stablehlo.maximum %1, %0 : tensor<64x1xf32> loc(#loc271)
    %3 = stablehlo.broadcast_in_dim %2, dims = [0, 1] : (tensor<64x1xf32>) -> tensor<64x1x1xf32> loc(#loc272)
    %4 = stablehlo.broadcast_in_dim %3, dims = [0, 1, 2] : (tensor<64x1x1xf32>) -> tensor<64x1x16xf32> loc(#loc149)
    %5 = stablehlo.subtract %arg0, %4 : tensor<64x1x16xf32> loc(#loc149)
    %6 = stablehlo.exponential %5 : tensor<64x1x16xf32> loc(#loc280)
    %7 = stablehlo.reduce(%6 init: %cst) applies stablehlo.add across dimensions = [2] : (tensor<64x1x16xf32>, tensor<f32>) -> tensor<64x1xf32> loc(#loc278)
    %8 = stablehlo.broadcast_in_dim %7, dims = [0, 1] : (tensor<64x1xf32>) -> tensor<64x1x1xf32> loc(#loc272)
    %9 = stablehlo.log %8 : tensor<64x1x1xf32> loc(#loc281)
    %10 = stablehlo.broadcast_in_dim %9, dims = [0, 1, 2] : (tensor<64x1x1xf32>) -> tensor<64x1x16xf32> loc(#loc149)
    %11 = stablehlo.subtract %5, %10 : tensor<64x1x16xf32> loc(#loc149)
    return %11 : tensor<64x1x16xf32> loc(#loc)
  } loc(#loc1859)
  func.func private @_gumbel(%arg0: tensor<2xui32> loc(unknown)) -> tensor<1x64x1x16xf32> {
    %cst = stablehlo.constant dense<1.000000e+00> : tensor<f32> loc(#loc)
    %cst_0 = stablehlo.constant dense<1.17549435E-38> : tensor<f32> loc(#loc)
    %0 = call @_uniform(%arg0, %cst, %cst_0) : (tensor<2xui32>, tensor<f32>, tensor<f32>) -> tensor<1x64x1x16xf32> loc(#loc282)
    %1 = stablehlo.log %0 : tensor<1x64x1x16xf32> loc(#loc281)
    %2 = stablehlo.negate %1 : tensor<1x64x1x16xf32> loc(#loc283)
    %3 = stablehlo.log %2 : tensor<1x64x1x16xf32> loc(#loc281)
    %4 = stablehlo.negate %3 : tensor<1x64x1x16xf32> loc(#loc283)
    return %4 : tensor<1x64x1x16xf32> loc(#loc)
  } loc(#loc2130)
  func.func private @_uniform(%arg0: tensor<2xui32> loc(unknown), %arg1: tensor<f32> loc(unknown), %arg2: tensor<f32> loc(unknown)) -> tensor<1x64x1x16xf32> {
    %cst = stablehlo.constant dense<1.000000e+00> : tensor<f32> loc(#loc)
    %c = stablehlo.constant dense<1065353216> : tensor<ui32> loc(#loc)
    %c_0 = stablehlo.constant dense<9> : tensor<ui32> loc(#loc)
    %c_1 = stablehlo.constant dense<32> : tensor<ui64> loc(#loc137)
    %c_2 = stablehlo.constant dense<1> : tensor<ui64> loc(#loc137)
    %c_3 = stablehlo.constant dense<16> : tensor<ui64> loc(#loc)
    %c_4 = stablehlo.constant dense<1024> : tensor<ui64> loc(#loc137)
    %0 = stablehlo.convert %arg1 : tensor<f32> loc(#loc152)
    %1 = stablehlo.broadcast_in_dim %arg2, dims = [] : (tensor<f32>) -> tensor<1x1x1x1xf32> loc(#loc272)
    %2 = stablehlo.broadcast_in_dim %0, dims = [] : (tensor<f32>) -> tensor<1x1x1x1xf32> loc(#loc272)
    %3 = stablehlo.slice %arg0 [0:1] : (tensor<2xui32>) -> tensor<1xui32> loc(#loc138)
    %4 = stablehlo.reshape %3 : (tensor<1xui32>) -> tensor<ui32> loc(#loc139)
    %5 = stablehlo.slice %arg0 [1:2] : (tensor<2xui32>) -> tensor<1xui32> loc(#loc138)
    %6 = stablehlo.reshape %5 : (tensor<1xui32>) -> tensor<ui32> loc(#loc139)
    %7 = stablehlo.iota dim = 0 : tensor<1x64x1x16xui64> loc(#loc137)
    %8 = stablehlo.iota dim = 1 : tensor<1x64x1x16xui64> loc(#loc137)
    %9 = stablehlo.iota dim = 2 : tensor<1x64x1x16xui64> loc(#loc137)
    %10 = stablehlo.iota dim = 3 : tensor<1x64x1x16xui64> loc(#loc137)
    %11 = stablehlo.broadcast_in_dim %c_4, dims = [] : (tensor<ui64>) -> tensor<1x64x1x16xui64> loc(#loc137)
    %12 = stablehlo.multiply %11, %7 : tensor<1x64x1x16xui64> loc(#loc137)
    %13 = stablehlo.broadcast_in_dim %c_3, dims = [] : (tensor<ui64>) -> tensor<1x64x1x16xui64> loc(#loc137)
    %14 = stablehlo.multiply %13, %8 : tensor<1x64x1x16xui64> loc(#loc137)
    %15 = stablehlo.broadcast_in_dim %c_3, dims = [] : (tensor<ui64>) -> tensor<1x64x1x16xui64> loc(#loc137)
    %16 = stablehlo.multiply %15, %9 : tensor<1x64x1x16xui64> loc(#loc137)
    %17 = stablehlo.broadcast_in_dim %c_2, dims = [] : (tensor<ui64>) -> tensor<1x64x1x16xui64> loc(#loc137)
    %18 = stablehlo.multiply %17, %10 : tensor<1x64x1x16xui64> loc(#loc137)
    %19 = stablehlo.add %12, %14 : tensor<1x64x1x16xui64> loc(#loc137)
    %20 = stablehlo.add %19, %16 : tensor<1x64x1x16xui64> loc(#loc137)
    %21 = stablehlo.add %20, %18 : tensor<1x64x1x16xui64> loc(#loc137)
    %22 = stablehlo.broadcast_in_dim %c_1, dims = [] : (tensor<ui64>) -> tensor<1x64x1x16xui64> loc(#loc137)
    %23 = stablehlo.shift_right_logical %21, %22 : tensor<1x64x1x16xui64> loc(#loc137)
    %24 = stablehlo.convert %21 : (tensor<1x64x1x16xui64>) -> tensor<1x64x1x16xui32> loc(#loc137)
    %25 = stablehlo.convert %23 : (tensor<1x64x1x16xui64>) -> tensor<1x64x1x16xui32> loc(#loc137)
    %26:2 = call @threefry2x32_6(%4, %6, %25, %24) : (tensor<ui32>, tensor<ui32>, tensor<1x64x1x16xui32>, tensor<1x64x1x16xui32>) -> (tensor<1x64x1x16xui32>, tensor<1x64x1x16xui32>) loc(#loc284)
    %27 = stablehlo.xor %26#0, %26#1 : tensor<1x64x1x16xui32> loc(#loc142)
    %28 = stablehlo.broadcast_in_dim %c_0, dims = [] : (tensor<ui32>) -> tensor<1x64x1x16xui32> loc(#loc150)
    %29 = stablehlo.shift_right_logical %27, %28 : tensor<1x64x1x16xui32> loc(#loc150)
    %30 = stablehlo.broadcast_in_dim %c, dims = [] : (tensor<ui32>) -> tensor<1x64x1x16xui32> loc(#loc151)
    %31 = stablehlo.or %29, %30 : tensor<1x64x1x16xui32> loc(#loc151)
    %32 = stablehlo.bitcast_convert %31 : (tensor<1x64x1x16xui32>) -> tensor<1x64x1x16xf32> loc(#loc285)
    %33 = stablehlo.broadcast_in_dim %cst, dims = [] : (tensor<f32>) -> tensor<1x64x1x16xf32> loc(#loc149)
    %34 = stablehlo.subtract %32, %33 : tensor<1x64x1x16xf32> loc(#loc149)
    %35 = stablehlo.subtract %2, %1 : tensor<1x1x1x1xf32> loc(#loc149)
    %36 = stablehlo.broadcast_in_dim %35, dims = [0, 1, 2, 3] : (tensor<1x1x1x1xf32>) -> tensor<1x64x1x16xf32> loc(#loc286)
    %37 = stablehlo.multiply %34, %36 : tensor<1x64x1x16xf32> loc(#loc286)
    %38 = stablehlo.broadcast_in_dim %1, dims = [0, 1, 2, 3] : (tensor<1x1x1x1xf32>) -> tensor<1x64x1x16xf32> loc(#loc143)
    %39 = stablehlo.add %37, %38 : tensor<1x64x1x16xf32> loc(#loc143)
    %40 = stablehlo.broadcast_in_dim %1, dims = [0, 1, 2, 3] : (tensor<1x1x1x1xf32>) -> tensor<1x64x1x16xf32> loc(#loc271)
    %41 = stablehlo.maximum %40, %39 : tensor<1x64x1x16xf32> loc(#loc271)
    return %41 : tensor<1x64x1x16xf32> loc(#loc)
  } loc(#loc627)
  func.func private @threefry2x32_6(%arg0: tensor<ui32> loc(unknown), %arg1: tensor<ui32> loc(unknown), %arg2: tensor<1x64x1x16xui32> loc(unknown), %arg3: tensor<1x64x1x16xui32> loc(unknown)) -> (tensor<1x64x1x16xui32>, tensor<1x64x1x16xui32>) {
    %c = stablehlo.constant dense<1> : tensor<i32> loc(#loc)
    %c_0 = stablehlo.constant dense<5> : tensor<i32> loc(#loc)
    %c_1 = stablehlo.constant dense<0> : tensor<i32> loc(#loc)
    %c_2 = stablehlo.constant dense<466688986> : tensor<ui32> loc(#loc508)
    %c_3 = stablehlo.constant dense<[13, 15, 26, 6]> : tensor<4xui32> loc(#loc508)
    %c_4 = stablehlo.constant dense<[17, 29, 16, 24]> : tensor<4xui32> loc(#loc508)
    %0 = stablehlo.xor %arg0, %arg1 : tensor<ui32> loc(#loc142)
    %1 = stablehlo.xor %0, %c_2 : tensor<ui32> loc(#loc142)
    %2 = stablehlo.broadcast_in_dim %arg0, dims = [] : (tensor<ui32>) -> tensor<1x64x1x16xui32> loc(#loc143)
    %3 = stablehlo.add %arg2, %2 : tensor<1x64x1x16xui32> loc(#loc143)
    %4 = stablehlo.broadcast_in_dim %arg1, dims = [] : (tensor<ui32>) -> tensor<1x64x1x16xui32> loc(#loc143)
    %5 = stablehlo.add %arg3, %4 : tensor<1x64x1x16xui32> loc(#loc143)
    %6:9 = stablehlo.while(%iterArg = %c_1, %iterArg_5 = %c_1, %iterArg_6 = %3, %iterArg_7 = %5, %iterArg_8 = %arg1, %iterArg_9 = %1, %iterArg_10 = %arg0, %iterArg_11 = %c_3, %iterArg_12 = %c_4) : tensor<i32>, tensor<i32>, tensor<1x64x1x16xui32>, tensor<1x64x1x16xui32>, tensor<ui32>, tensor<ui32>, tensor<ui32>, tensor<4xui32>, tensor<4xui32>
    cond {
      %7 = stablehlo.compare LT, %iterArg, %c_0, SIGNED : (tensor<i32>, tensor<i32>) -> tensor<i1> loc(#loc145)
      stablehlo.return %7 : tensor<i1> loc(#loc144)
    } do {
      %7:8 = func.call @closed_call_7(%iterArg_5, %iterArg_6, %iterArg_7, %iterArg_8, %iterArg_9, %iterArg_10, %iterArg_11, %iterArg_12) : (tensor<i32>, tensor<1x64x1x16xui32>, tensor<1x64x1x16xui32>, tensor<ui32>, tensor<ui32>, tensor<ui32>, tensor<4xui32>, tensor<4xui32>) -> (tensor<i32>, tensor<1x64x1x16xui32>, tensor<1x64x1x16xui32>, tensor<ui32>, tensor<ui32>, tensor<ui32>, tensor<4xui32>, tensor<4xui32>) loc(#loc146)
      %8 = stablehlo.add %iterArg, %c : tensor<i32> loc(#loc147)
      stablehlo.return %8, %7#0, %7#1, %7#2, %7#3, %7#4, %7#5, %7#6, %7#7 : tensor<i32>, tensor<i32>, tensor<1x64x1x16xui32>, tensor<1x64x1x16xui32>, tensor<ui32>, tensor<ui32>, tensor<ui32>, tensor<4xui32>, tensor<4xui32> loc(#loc144)
    } loc(#loc144)
    return %6#2, %6#3 : tensor<1x64x1x16xui32>, tensor<1x64x1x16xui32> loc(#loc)
  } loc(#loc)
  func.func private @closed_call_7(%arg0: tensor<i32> loc(unknown), %arg1: tensor<1x64x1x16xui32> loc(unknown), %arg2: tensor<1x64x1x16xui32> loc(unknown), %arg3: tensor<ui32> loc(unknown), %arg4: tensor<ui32> loc(unknown), %arg5: tensor<ui32> loc(unknown), %arg6: tensor<4xui32> loc(unknown), %arg7: tensor<4xui32> loc(unknown)) -> (tensor<i32>, tensor<1x64x1x16xui32>, tensor<1x64x1x16xui32>, tensor<ui32>, tensor<ui32>, tensor<ui32>, tensor<4xui32>, tensor<4xui32>) {
    %c = stablehlo.constant dense<32> : tensor<ui32> loc(#loc)
    %c_0 = stablehlo.constant dense<1> : tensor<i32> loc(#loc)
    %0 = stablehlo.add %arg0, %c_0 : tensor<i32> loc(#loc143)
    %1 = stablehlo.slice %arg6 [0:1] : (tensor<4xui32>) -> tensor<1xui32> loc(#loc138)
    %2 = stablehlo.reshape %1 : (tensor<1xui32>) -> tensor<ui32> loc(#loc139)
    %3 = stablehlo.add %arg1, %arg2 : tensor<1x64x1x16xui32> loc(#loc143)
    %4 = stablehlo.broadcast_in_dim %2, dims = [] : (tensor<ui32>) -> tensor<1x64x1x16xui32> loc(#loc148)
    %5 = stablehlo.shift_left %arg2, %4 : tensor<1x64x1x16xui32> loc(#loc148)
    %6 = stablehlo.subtract %c, %2 : tensor<ui32> loc(#loc149)
    %7 = stablehlo.broadcast_in_dim %6, dims = [] : (tensor<ui32>) -> tensor<1x64x1x16xui32> loc(#loc150)
    %8 = stablehlo.shift_right_logical %arg2, %7 : tensor<1x64x1x16xui32> loc(#loc150)
    %9 = stablehlo.or %5, %8 : tensor<1x64x1x16xui32> loc(#loc151)
    %10 = stablehlo.xor %3, %9 : tensor<1x64x1x16xui32> loc(#loc142)
    %11 = stablehlo.slice %arg6 [1:2] : (tensor<4xui32>) -> tensor<1xui32> loc(#loc138)
    %12 = stablehlo.reshape %11 : (tensor<1xui32>) -> tensor<ui32> loc(#loc139)
    %13 = stablehlo.add %3, %10 : tensor<1x64x1x16xui32> loc(#loc143)
    %14 = stablehlo.broadcast_in_dim %12, dims = [] : (tensor<ui32>) -> tensor<1x64x1x16xui32> loc(#loc148)
    %15 = stablehlo.shift_left %10, %14 : tensor<1x64x1x16xui32> loc(#loc148)
    %16 = stablehlo.subtract %c, %12 : tensor<ui32> loc(#loc149)
    %17 = stablehlo.broadcast_in_dim %16, dims = [] : (tensor<ui32>) -> tensor<1x64x1x16xui32> loc(#loc150)
    %18 = stablehlo.shift_right_logical %10, %17 : tensor<1x64x1x16xui32> loc(#loc150)
    %19 = stablehlo.or %15, %18 : tensor<1x64x1x16xui32> loc(#loc151)
    %20 = stablehlo.xor %13, %19 : tensor<1x64x1x16xui32> loc(#loc142)
    %21 = stablehlo.slice %arg6 [2:3] : (tensor<4xui32>) -> tensor<1xui32> loc(#loc138)
    %22 = stablehlo.reshape %21 : (tensor<1xui32>) -> tensor<ui32> loc(#loc139)
    %23 = stablehlo.add %13, %20 : tensor<1x64x1x16xui32> loc(#loc143)
    %24 = stablehlo.broadcast_in_dim %22, dims = [] : (tensor<ui32>) -> tensor<1x64x1x16xui32> loc(#loc148)
    %25 = stablehlo.shift_left %20, %24 : tensor<1x64x1x16xui32> loc(#loc148)
    %26 = stablehlo.subtract %c, %22 : tensor<ui32> loc(#loc149)
    %27 = stablehlo.broadcast_in_dim %26, dims = [] : (tensor<ui32>) -> tensor<1x64x1x16xui32> loc(#loc150)
    %28 = stablehlo.shift_right_logical %20, %27 : tensor<1x64x1x16xui32> loc(#loc150)
    %29 = stablehlo.or %25, %28 : tensor<1x64x1x16xui32> loc(#loc151)
    %30 = stablehlo.xor %23, %29 : tensor<1x64x1x16xui32> loc(#loc142)
    %31 = stablehlo.slice %arg6 [3:4] : (tensor<4xui32>) -> tensor<1xui32> loc(#loc138)
    %32 = stablehlo.reshape %31 : (tensor<1xui32>) -> tensor<ui32> loc(#loc139)
    %33 = stablehlo.add %23, %30 : tensor<1x64x1x16xui32> loc(#loc143)
    %34 = stablehlo.broadcast_in_dim %32, dims = [] : (tensor<ui32>) -> tensor<1x64x1x16xui32> loc(#loc148)
    %35 = stablehlo.shift_left %30, %34 : tensor<1x64x1x16xui32> loc(#loc148)
    %36 = stablehlo.subtract %c, %32 : tensor<ui32> loc(#loc149)
    %37 = stablehlo.broadcast_in_dim %36, dims = [] : (tensor<ui32>) -> tensor<1x64x1x16xui32> loc(#loc150)
    %38 = stablehlo.shift_right_logical %30, %37 : tensor<1x64x1x16xui32> loc(#loc150)
    %39 = stablehlo.or %35, %38 : tensor<1x64x1x16xui32> loc(#loc151)
    %40 = stablehlo.xor %33, %39 : tensor<1x64x1x16xui32> loc(#loc142)
    %41 = stablehlo.broadcast_in_dim %arg3, dims = [] : (tensor<ui32>) -> tensor<1x64x1x16xui32> loc(#loc143)
    %42 = stablehlo.add %33, %41 : tensor<1x64x1x16xui32> loc(#loc143)
    %43 = stablehlo.broadcast_in_dim %arg4, dims = [] : (tensor<ui32>) -> tensor<1x64x1x16xui32> loc(#loc143)
    %44 = stablehlo.add %40, %43 : tensor<1x64x1x16xui32> loc(#loc143)
    %45 = stablehlo.add %arg0, %c_0 : tensor<i32> loc(#loc143)
    %46 = stablehlo.convert %45 : (tensor<i32>) -> tensor<ui32> loc(#loc152)
    %47 = stablehlo.broadcast_in_dim %46, dims = [] : (tensor<ui32>) -> tensor<1x64x1x16xui32> loc(#loc143)
    %48 = stablehlo.add %44, %47 : tensor<1x64x1x16xui32> loc(#loc143)
    return %0, %42, %48, %arg4, %arg5, %arg3, %arg7, %arg6 : tensor<i32>, tensor<1x64x1x16xui32>, tensor<1x64x1x16xui32>, tensor<ui32>, tensor<ui32>, tensor<ui32>, tensor<4xui32>, tensor<4xui32> loc(#loc)
  } loc(#loc509)
  func.func private @argmax(%arg0: tensor<1x64x1x16xf32> loc(callsite(#loc529 at #loc1318))) -> tensor<1x64x1xi32> {
    %c = stablehlo.constant dense<0> : tensor<i32> loc(#loc629)
    %cst = stablehlo.constant dense<0xFF800000> : tensor<f32> loc(#loc629)
    %0 = stablehlo.iota dim = 3 : tensor<1x64x1x16xi32> loc(#loc1861)
    %1:2 = stablehlo.reduce(%arg0 init: %cst), (%0 init: %c) across dimensions = [3] : (tensor<1x64x1x16xf32>, tensor<1x64x1x16xi32>, tensor<f32>, tensor<i32>) -> (tensor<1x64x1xf32>, tensor<1x64x1xi32>)
     reducer(%arg1: tensor<f32> loc("reduce:"(#loc288)), %arg3: tensor<f32> loc("reduce:"(#loc288))) (%arg2: tensor<i32> loc("reduce:"(#loc288)), %arg4: tensor<i32> loc("reduce:"(#loc288)))  {
      %2 = stablehlo.compare GT, %arg1, %arg3, FLOAT : (tensor<f32>, tensor<f32>) -> tensor<i1> loc(#loc2131)
      %3 = stablehlo.compare NE, %arg1, %arg1, FLOAT : (tensor<f32>, tensor<f32>) -> tensor<i1> loc(#loc2132)
      %4 = stablehlo.or %2, %3 : tensor<i1> loc(#loc2133)
      %5 = stablehlo.compare EQ, %arg1, %arg3, FLOAT : (tensor<f32>, tensor<f32>) -> tensor<i1> loc(#loc2134)
      %6 = stablehlo.compare LT, %arg2, %arg4, SIGNED : (tensor<i32>, tensor<i32>) -> tensor<i1> loc(#loc2135)
      %7 = stablehlo.and %5, %6 : tensor<i1> loc(#loc2136)
      %8 = stablehlo.or %4, %7 : tensor<i1> loc(#loc2133)
      %9 = stablehlo.select %4, %arg1, %arg3 : tensor<i1>, tensor<f32> loc(#loc2137)
      %10 = stablehlo.select %8, %arg2, %arg4 : tensor<i1>, tensor<i32> loc(#loc2137)
      stablehlo.return %9, %10 : tensor<f32>, tensor<i32> loc(#loc1862)
    } loc(#loc1862)
    return %1#1 : tensor<1x64x1xi32> loc(#loc1562)
  } loc(#loc1562)
  func.func private @_one_hot_8(%arg0: tensor<1x64x1xi32> loc(unknown)) -> tensor<1x64x1x16xf32> {
    %0 = stablehlo.broadcast_in_dim %arg0, dims = [0, 1, 2] : (tensor<1x64x1xi32>) -> tensor<1x64x1x1xi32> loc(#loc272)
    %1 = stablehlo.iota dim = 3 : tensor<1x1x1x16xi32> loc(#loc273)
    %2 = stablehlo.broadcast_in_dim %0, dims = [0, 1, 2, 3] : (tensor<1x64x1x1xi32>) -> tensor<1x64x1x16xi32> loc(#loc274)
    %3 = stablehlo.broadcast_in_dim %1, dims = [0, 1, 2, 3] : (tensor<1x1x1x16xi32>) -> tensor<1x64x1x16xi32> loc(#loc274)
    %4 = stablehlo.compare EQ, %2, %3, SIGNED : (tensor<1x64x1x16xi32>, tensor<1x64x1x16xi32>) -> tensor<1x64x1x16xi1> loc(#loc274)
    %5 = stablehlo.convert %4 : (tensor<1x64x1x16xi1>) -> tensor<1x64x1x16xf32> loc(#loc152)
    return %5 : tensor<1x64x1x16xf32> loc(#loc)
  } loc(#loc2138)
  func.func private @_where_9(%arg0: tensor<1x64x1x16xi1> loc(unknown), %arg1: tensor<f32> loc(unknown), %arg2: tensor<1x64x1x16xf32> loc(unknown)) -> tensor<1x64x1x16xf32> {
    %0 = stablehlo.broadcast_in_dim %arg1, dims = [] : (tensor<f32>) -> tensor<1x64x1x16xf32> loc(#loc272)
    %1 = stablehlo.select %arg0, %0, %arg2 : tensor<1x64x1x16xi1>, tensor<1x64x1x16xf32> loc(#loc277)
    return %1 : tensor<1x64x1x16xf32> loc(#loc)
  } loc(#loc959)
  func.func private @_where_10(%arg0: tensor<1x64x1xi1> loc(unknown), %arg1: tensor<f32> loc(unknown), %arg2: tensor<1x64x1xf32> loc(unknown)) -> tensor<1x64x1xf32> {
    %0 = stablehlo.convert %arg1 : tensor<f32> loc(#loc152)
    %1 = stablehlo.broadcast_in_dim %0, dims = [] : (tensor<f32>) -> tensor<1x64x1xf32> loc(#loc272)
    %2 = stablehlo.select %arg0, %1, %arg2 : tensor<1x64x1xi1>, tensor<1x64x1xf32> loc(#loc277)
    return %2 : tensor<1x64x1xf32> loc(#loc)
  } loc(#loc2139)
…
#loc1548 = loc("MaskedActorCriticNetwork/torso/blocks_1/vmap()/reduce_sum"(#loc1313))
#loc1549 = loc("MaskedActorCriticNetwork/torso/blocks_1/vmap()/div"(#loc1313))
#loc1550 = loc("MaskedActorCriticNetwork/torso/blocks_1/vmap(BNTS,BSNH->BTNH)/dot_general"(#loc1313))
#loc1551 = loc("MaskedActorCriticNetwork/torso/blocks_1/vmap(BNTS,BSNH->BTNH)/transpose"(#loc1313))
#loc1552 = loc(callsite(#loc464 at #loc1314))
#loc1553 = loc(callsite(#loc466 at #loc1314))
#loc1554 = loc(callsite(#loc467 at #loc1314))
#loc1555 = loc("MaskedActorCriticNetwork/torso/blocks_1/convert_element_type"(#loc1315))
#loc1556 = loc("MaskedActorCriticNetwork/torso/blocks_1/concatenate"(#loc1315))
#loc1557 = loc("MaskedActorCriticNetwork/torso/blocks_1/slice"(#loc1316))
#loc1558 = loc("jit(log_softmax)"(#loc1317))
#loc1559 = loc(callsite(#loc522 at #loc1318))
#loc1560 = loc(callsite(#loc527 at #loc1318))
#loc1561 = loc(callsite(#loc528 at #loc1318))
#loc1563 = loc(callsite(#loc530 at #loc1319))
#loc1564 = loc(callsite(#loc532 at #loc1319))
#loc1565 = loc(callsite(#loc533 at #loc1319))
#loc1566 = loc(callsite(#loc534 at #loc1319))
#loc1567 = loc(callsite(#loc536 at #loc1319))
#loc1568 = loc(callsite(#loc539 at #loc1319))
#loc1569 = loc(callsite(#loc540 at #loc1319))
#loc1570 = loc(callsite(#loc556 at #loc1329))
#loc1571 = loc(callsite(#loc559 at #loc1329))
#loc1572 = loc(callsite(#loc560 at #loc1329))
#loc1573 = loc(callsite(#loc561 at #loc1329))
#loc1574 = loc(callsite(#loc562 at #loc1330))
#loc1575 = loc(callsite(#loc564 at #loc1330))
#loc1576 = loc(callsite(#loc565 at #loc1330))
#loc1577 = loc(callsite(#loc566 at #loc1330))
#loc1578 = loc("vmap()/eq"(#loc1331))
#loc1579 = loc("vmap()/reduce_and"(#loc1332))
#loc1580 = loc(callsite(#loc569 at #loc1333))
#loc1581 = loc(callsite(#loc571 at #loc1333))
#loc1582 = loc(callsite(#loc572 at #loc1333))
#loc1583 = loc(callsite(#loc573 at #loc1333))
#loc1584 = loc(callsite(#loc574 at #loc1333))
#loc1585 = loc(callsite(#loc576 at #loc1333))
#loc1586 = loc(callsite(#loc577 at #loc1333))
#loc1587 = loc(callsite(#loc578 at #loc1333))
#loc1588 = loc("vmap(jit(_where))"(#loc1334))
#loc1589 = loc("vmap()/convert_element_type"(#loc1335))
#loc1590 = loc("vmap()/add"(#loc1336))
#loc1591 = loc("vmap()/convert_element_type"(#loc1337))
#loc1592 = loc("vmap()/eq"(#loc1338))
#loc1593 = loc("vmap()/convert_element_type"(#loc1339))
#loc1594 = loc("vmap()/reduce_sum"(#loc1339))
#loc1595 = loc("vmap()/convert_element_type"(#loc1340))
#loc1596 = loc("vmap()/mul"(#loc1341))
#loc1597 = loc("vmap()/add"(#loc1342))
#loc1598 = loc("vmap()/eq"(#loc1343))
#loc1599 = loc("vmap()/convert_element_type"(#loc1344))
#loc1600 = loc("vmap()/reduce_sum"(#loc1344))
#loc1601 = loc("vmap()/convert_element_type"(#loc1345))
#loc1602 = loc("vmap()/mul"(#loc1346))
#loc1603 = loc("vmap()/add"(#loc1347))
#loc1604 = loc("vmap()/not"(#loc1348))
#loc1605 = loc("vmap()/convert_element_type"(#loc1349))
#loc1606 = loc("vmap()/mul"(#loc1350))
#loc1607 = loc("vmap()/sub"(#loc1351))
#loc1608 = loc("vmap()/ge"(#loc1352))
#loc1609 = loc("vmap()/or"(#loc1353))
#loc1610 = loc("vmap()/convert_element_type"(#loc1354))
#loc1611 = loc("vmap()/convert_element_type"(#loc1355))
#loc1612 = loc("vmap()/not"(#loc1356))
#loc1613 = loc("vmap()/convert_element_type"(#loc1357))
#loc1614 = loc(callsite(#loc603 at #loc1358))
#loc1615 = loc(callsite(#loc605 at #loc1358))
#loc1616 = loc(callsite(#loc606 at #loc1358))
#loc1617 = loc("vmap()/broadcast_in_dim"(#loc1359))
#loc1618 = loc("vmap(jit(_randint))"(#loc1360))
#loc1619 = loc("vmap()/lt"(#loc1361))
#loc1620 = loc("vmap()/add"(#loc1361))
#loc1621 = loc("vmap()/select_n"(#loc1361))
#loc1622 = loc("vmap()/broadcast_in_dim"(#loc1361))
#loc1623 = loc("vmap()/concatenate"(#loc1361))
#loc1624 = loc("vmap()/gather"(#loc1361))
#loc1625 = loc("vmap()/squeeze"(#loc1361))
#loc1626 = loc("vmap()/broadcast_in_dim"(#loc1362))
#loc1627 = loc(callsite(#loc603 at #loc1363))
#loc1628 = loc(callsite(#loc605 at #loc1363))
#loc1629 = loc(callsite(#loc606 at #loc1363))
#loc1630 = loc("vmap()/broadcast_in_dim"(#loc1364))
#loc1631 = loc("MaskedActorCriticNetwork/torso/blocks_1/vmap()/jit"(#loc1313))
#loc1632 = loc("jit"(#loc1317))
#loc1633 = loc("vmap()/jit"(#loc1334))
#loc1634 = loc("vmap()/jit"(#loc1360))
#loc1635 = loc(callsite(#loc459 at #loc1382))
#loc1636 = loc(callsite(#loc463 at #loc1382))
#loc1637 = loc(callsite(#loc465 at #loc1382))
#loc1638 = loc(callsite(#loc468 at #loc1382))
#loc1639 = loc(callsite(#loc469 at #loc1382))
#loc1640 = loc(callsite(#loc470 at #loc1382))
#loc1641 = loc(callsite(#loc471 at #loc1382))
#loc1642 = loc(callsite(#loc472 at #loc1382))
#loc1643 = loc(callsite(#loc473 at #loc1382))
#loc1644 = loc(callsite(#loc475 at #loc1382))
#loc1645 = loc(callsite(#loc486 at #loc1382))
#loc1646 = loc(callsite(#loc487 at #loc1382))
#loc1647 = loc(callsite(#loc517 at #loc1387))
#loc1648 = loc(callsite(#loc535 at #loc1392))
#loc1649 = loc(callsite(#loc537 at #loc1392))
#loc1650 = loc(callsite(#loc538 at #loc1392))
#loc1651 = loc("jvp()/exp"(#loc1397))
#loc1652 = loc("jvp()/eq"(#loc1398))
#loc1653 = loc("jvp(jit(_where))"(#loc1399))
#loc1654 = loc("transpose(jvp())/mul"(#loc1402))
#loc1655 = loc("transpose(jvp(jit(_where)))"(#loc1399))
#loc1656 = loc("transpose(jvp())/mul"(#loc1397))
#loc1657 = loc("transpose(jvp())/add_any"(#loc1397))
#loc1658 = loc(callsite(#loc700 at #loc1406))
#loc1659 = loc(callsite(#loc705 at #loc1420))
#loc1660 = loc(callsite(#loc711 at #loc1420))
#loc1661 = loc(callsite(#loc712 at #loc1420))
#loc1662 = loc(callsite(#loc713 at #loc1420))
#loc1663 = loc(callsite(#loc714 at #loc1421))
#loc1664 = loc(callsite(#loc716 at #loc1421))
#loc1665 = loc("sqrt"(#loc1422))
#loc1666 = loc("div"(#loc1424))
#loc1667 = loc("mul"(#loc1425))
#loc1668 = loc("select_n"(#loc1426))
#loc1669 = loc(callsite(#loc724 at #loc1427))
#loc1670 = loc(callsite(#loc730 at #loc1428))
#loc1671 = loc(callsite(#loc735 at #loc1429))
#loc1672 = loc(callsite(#loc737 at #loc1429))
#loc1673 = loc(callsite(#loc738 at #loc1429))
#loc1674 = loc("pow"(#loc1430))
#loc1675 = loc("sub"(#loc1430))
#loc1676 = loc("div"(#loc1430))
#loc1677 = loc("pow"(#loc1431))
#loc1678 = loc("sub"(#loc1431))
#loc1679 = loc("div"(#loc1431))
#loc1680 = loc(callsite(#loc741 at #loc1432))
#loc1681 = loc(callsite(#loc743 at #loc1432))
#loc1682 = loc(callsite(#loc744 at #loc1432))
#loc1683 = loc(callsite(#loc745 at #loc1432))
#loc1684 = loc(callsite(#loc746 at #loc1433))
#loc1685 = loc("jit:"(#loc1436))
#loc1686 = loc("jit:"(#loc1437))
#loc1687 = loc("jvp()/jit"(#loc1399))
#loc1688 = loc("transpose(jvp())/jit"(#loc1399))
#loc1689 = loc("jit:"(#loc1438))
#loc1690 = loc("jit:"(#loc1439))
#loc1691 = loc(callsite(#loc459 at #loc1448))
#loc1692 = loc(callsite(#loc463 at #loc1448))
#loc1693 = loc(callsite(#loc465 at #loc1448))
#loc1694 = loc(callsite(#loc468 at #loc1448))
#loc1695 = loc(callsite(#loc469 at #loc1448))
#loc1696 = loc(callsite(#loc470 at #loc1448))
#loc1697 = loc(callsite(#loc471 at #loc1448))
#loc1698 = loc(callsite(#loc472 at #loc1448))
#loc1699 = loc(callsite(#loc473 at #loc1448))
#loc1700 = loc(callsite(#loc475 at #loc1448))
#loc1701 = loc(callsite(#loc486 at #loc1448))
#loc1702 = loc(callsite(#loc487 at #loc1448))
#loc1703 = loc(callsite(#loc515 at #loc1448))
#loc1704 = loc(callsite(#loc516 at #loc1448))
#loc1705 = loc(callsite(#loc517 at #loc1450))
#loc1706 = loc(callsite(#loc523 at #loc1451))
#loc1707 = loc(callsite(#loc531 at #loc1451))
#loc1708 = loc("vmap()/vmap(jit(_threefry_split))"(#loc1454))
#loc1709 = loc("vmap()/lt"(#loc1457))
#loc1710 = loc("vmap()/add"(#loc1457))
#loc1711 = loc("vmap()/select_n"(#loc1457))
#loc1712 = loc("vmap()/broadcast_in_dim"(#loc1457))
#loc1713 = loc("vmap()/concatenate"(#loc1457))
#loc1714 = loc("vmap()/gather"(#loc1457))
#loc1715 = loc("vmap()/squeeze"(#loc1457))
#loc1716 = loc(callsite(#loc557 at #loc1458))
#loc1717 = loc(callsite(#loc563 at #loc1458))
#loc1718 = loc(callsite(#loc567 at #loc1458))
#loc1719 = loc(callsite(#loc568 at #loc1458))
#loc1720 = loc(callsite(#loc570 at #loc1458))
#loc1721 = loc(callsite(#loc579 at #loc1458))
#loc1722 = loc(callsite(#loc580 at #loc1458))
#loc1723 = loc(callsite(#loc581 at #loc1458))
#loc1724 = loc(callsite(#loc582 at #loc1458))
#loc1725 = loc(callsite(#loc583 at #loc1458))
#loc1726 = loc(callsite(#loc584 at #loc1458))
#loc1727 = loc(callsite(#loc585 at #loc1458))
#loc1728 = loc(callsite(#loc586 at #loc1458))
#loc1729 = loc(callsite(#loc587 at #loc1458))
#loc1730 = loc(callsite(#loc588 at #loc1458))
#loc1731 = loc(callsite(#loc589 at #loc1458))
#loc1732 = loc(callsite(#loc590 at #loc1458))
#loc1733 = loc(callsite(#loc591 at #loc1458))
#loc1734 = loc(callsite(#loc592 at #loc1458))
#loc1735 = loc(callsite(#loc593 at #loc1458))
#loc1736 = loc(callsite(#loc594 at #loc1458))
#loc1737 = loc(callsite(#loc595 at #loc1458))
#loc1738 = loc(callsite(#loc596 at #loc1458))
#loc1739 = loc(callsite(#loc597 at #loc1458))
#loc1740 = loc(callsite(#loc598 at #loc1458))
#loc1741 = loc(callsite(#loc599 at #loc1458))
#loc1742 = loc(callsite(#loc600 at #loc1458))
#loc1743 = loc(callsite(#loc601 at #loc1458))
#loc1744 = loc(callsite(#loc602 at #loc1458))
#loc1745 = loc(callsite(#loc604 at #loc1458))
#loc1746 = loc(callsite(#loc607 at #loc1459))
#loc1747 = loc(callsite(#loc609 at #loc1460))
#loc1748 = loc(callsite(#loc612 at #loc1460))
#loc1749 = loc(callsite(#loc613 at #loc1460))
#loc1750 = loc(callsite(#loc614 at #loc1460))
#loc1751 = loc(callsite(#loc607 at #loc1461))
#loc1752 = loc("vmap()/or"(#loc1462))
#loc1753 = loc("vmap()/broadcast_in_dim"(#loc1463))
#loc1754 = loc("vmap()/select_n"(#loc1463))
#loc1755 = loc("vmap()/broadcast_in_dim"(#loc1464))
#loc1756 = loc("vmap()/select_n"(#loc1464))
#loc1757 = loc("jit(train_step)/broadcast_in_dim"(#loc1474))
#loc1758 = loc("jit(train_step)/MaskedActorCriticNetwork/obs/dot_general"(#loc1476))
#loc1759 = loc("jit(train_step)/MaskedActorCriticNetwork/obs/reshape"(#loc1477))
#loc1760 = loc("jit(train_step)/MaskedActorCriticNetwork/obs/add"(#loc1478))
#loc1761 = loc(callsite(#loc460 at #loc1482))
#loc1762 = loc("jit(train_step)/MaskedActorCriticNetwork/actor/dot_general"(#loc1483))
#loc1763 = loc("jit(train_step)/MaskedActorCriticNetwork/critic/dot_general"(#loc1485))
#loc1764 = loc("jit(train_step)/MaskedActorCriticNetwork/critic/reshape"(#loc1486))
#loc1765 = loc("jit(train_step)/MaskedActorCriticNetwork/critic/add"(#loc1487))
#loc1766 = loc("jit(train_step)/broadcast_in_dim"(#loc1491))
#loc1767 = loc("jit(train_step)/while"(#loc1491))
#loc1768 = loc("jit(train_step)/while/cond/lt"(#loc1492))
#loc1769 = loc("jit(train_step)/while/body/sub"(#loc1492))
#loc1770 = loc("jit(train_step)/while/body/jit(dynamic_index_in_dim)"(#loc1492))
#loc1771 = loc("jit(train_step)/while/body/closed_call"(#loc1492))
#loc1772 = loc("jit(train_step)/while/body/jit(dynamic_update_index_in_dim)"(#loc1492))
#loc1773 = loc("jit(train_step)/while/body/add"(#loc1492))
#loc1774 = loc("MaskedActorCriticNetwork/torso/blocks_0/Dense_0/dot_general"(#loc1508))
#loc1775 = loc("MaskedActorCriticNetwork/torso/blocks_0/Dense_0/reshape"(#loc1509))
#loc1776 = loc("MaskedActorCriticNetwork/torso/blocks_0/Dense_0/add"(#loc1510))
#loc1777 = loc("MaskedActorCriticNetwork/torso/blocks_1/query/dot_general"(#loc1512))
#loc1778 = loc("MaskedActorCriticNetwork/torso/blocks_1/query/reshape"(#loc1513))
#loc1779 = loc("MaskedActorCriticNetwork/torso/blocks_1/query/add"(#loc1514))
#loc1780 = loc("MaskedActorCriticNetwork/torso/blocks_1/key/dot_general"(#loc1515))
#loc1781 = loc("MaskedActorCriticNetwork/torso/blocks_1/key/reshape"(#loc1516))
#loc1782 = loc("MaskedActorCriticNetwork/torso/blocks_1/key/add"(#loc1517))
#loc1783 = loc("MaskedActorCriticNetwork/torso/blocks_1/value/dot_general"(#loc1520))
#loc1784 = loc("MaskedActorCriticNetwork/torso/blocks_1/value/reshape"(#loc1521))
#loc1785 = loc("MaskedActorCriticNetwork/torso/blocks_1/value/add"(#loc1522))
#loc1786 = loc("MaskedActorCriticNetwork/torso/blocks_1/convert_element_type"(#loc1525))
#loc1787 = loc("MaskedActorCriticNetwork/torso/blocks_1/concatenate"(#loc1525))
#loc1788 = loc("MaskedActorCriticNetwork/torso/blocks_1/jit(cumsum)"(#loc1526))
#loc1789 = loc("MaskedActorCriticNetwork/torso/blocks_1/slice"(#loc1527))
#loc1790 = loc("MaskedActorCriticNetwork/torso/blocks_1/broadcast_in_dim"(#loc1527))
#loc1791 = loc("MaskedActorCriticNetwork/torso/blocks_1/slice"(#loc1528))
#loc1792 = loc("MaskedActorCriticNetwork/torso/blocks_1/broadcast_in_dim"(#loc1528))
#loc1793 = loc("MaskedActorCriticNetwork/torso/blocks_1/eq"(#loc1529))
#loc1794 = loc("MaskedActorCriticNetwork/torso/blocks_1/iota"(#loc1530))
#loc1795 = loc("MaskedActorCriticNetwork/torso/blocks_1/slice"(#loc1531))
#loc1796 = loc("MaskedActorCriticNetwork/torso/blocks_1/broadcast_in_dim"(#loc1531))
#loc1797 = loc("MaskedActorCriticNetwork/torso/blocks_1/slice"(#loc1532))
#loc1798 = loc("MaskedActorCriticNetwork/torso/blocks_1/broadcast_in_dim"(#loc1532))
#loc1799 = loc("MaskedActorCriticNetwork/torso/blocks_1/ge"(#loc1533))
#loc1800 = loc("MaskedActorCriticNetwork/torso/blocks_1/broadcast_in_dim"(#loc1534))
#loc1801 = loc("MaskedActorCriticNetwork/torso/blocks_1/and"(#loc1534))
#loc1802 = loc("MaskedActorCriticNetwork/torso/blocks_1/broadcast_in_dim"(#loc1535))
#loc1803 = loc("MaskedActorCriticNetwork/torso/blocks_1/output_projection/dot_general"(#loc1552))
#loc1804 = loc("MaskedActorCriticNetwork/torso/blocks_1/output_projection/reshape"(#loc1553))
#loc1805 = loc("MaskedActorCriticNetwork/torso/blocks_1/output_projection/add"(#loc1554))
#loc1806 = loc("jit(_gumbel)"(#loc1559))
#loc1807 = loc("mul"(#loc1560))
#loc1808 = loc("broadcast_in_dim"(#loc1561))
#loc1809 = loc("add"(#loc1561))
#loc1810 = loc("jit(_one_hot)"(#loc1563))
#loc1811 = loc("lt"(#loc1564))
#loc1812 = loc("gt"(#loc1565))
#loc1813 = loc("or"(#loc1566))
#loc1814 = loc(callsite(#loc535 at #loc1567))
#loc1815 = loc(callsite(#loc537 at #loc1567))
#loc1816 = loc(callsite(#loc538 at #loc1567))
#loc1817 = loc("reduce_sum"(#loc1568))
#loc1818 = loc("jit(_where)"(#loc1569))
#loc1819 = loc("vmap()/iota"(#loc1570))
#loc1820 = loc("vmap()/eq"(#loc1571))
#loc1821 = loc("vmap()/ne"(#loc1571))
#loc1822 = loc("vmap()/and"(#loc1571))
#loc1823 = loc("vmap(jit(_where))"(#loc1571))
#loc1824 = loc("vmap()/mul"(#loc1571))
#loc1825 = loc("vmap()/shift_right_logical"(#loc1571))
#loc1826 = loc("vmap()/broadcast_in_dim"(#loc1572))
#loc1827 = loc("vmap()/mul"(#loc1572))
#loc1828 = loc("vmap()/reduce_sum"(#loc1573))
#loc1829 = loc("vmap(jit(searchsorted))"(#loc1574))
#loc1830 = loc("vmap(jit(clip))"(#loc1575))
#loc1831 = loc("vmap()/lt"(#loc1576))
#loc1832 = loc("vmap()/add"(#loc1576))
#loc1833 = loc("vmap()/select_n"(#loc1576))
#loc1834 = loc("vmap()/broadcast_in_dim"(#loc1576))
#loc1835 = loc("vmap()/gather"(#loc1576))
#loc1836 = loc("vmap()/squeeze"(#loc1576))
#loc1837 = loc("vmap()/eq"(#loc1577))
#loc1838 = loc("vmap()/eq"(#loc1580))
#loc1839 = loc("vmap()/broadcast_in_dim"(#loc1581))
#loc1840 = loc("vmap()/not"(#loc1582))
#loc1841 = loc("vmap()/convert_element_type"(#loc1583))
#loc1842 = loc("vmap()/lt"(#loc1584))
#loc1843 = loc("vmap()/add"(#loc1584))
#loc1844 = loc("vmap()/select_n"(#loc1584))
#loc1845 = loc("vmap()/broadcast_in_dim"(#loc1584))
#loc1846 = loc("vmap()/scatter-add"(#loc1584))
#loc1847 = loc("vmap()/transpose"(#loc1585))
#loc1848 = loc(callsite(#loc1585 at #loc1585))
#loc1849 = loc("vmap(jit(_where))"(#loc1586))
#loc1850 = loc("vmap(jit(_where))"(#loc1587))
#loc1851 = loc("vmap(jit(_one_hot))"(#loc1614))
#loc1852 = loc("vmap()/reshape"(#loc1615))
#loc1853 = loc("vmap(jit(_where))"(#loc1616))
#loc1854 = loc("vmap(jit(_one_hot))"(#loc1627))
#loc1855 = loc("vmap()/reshape"(#loc1628))
#loc1856 = loc("vmap(jit(_where))"(#loc1629))
#loc1857 = loc("MaskedActorCriticNetwork/torso/blocks_1/jit"(#loc1526))
#loc1858 = loc("jit:"(#loc1631))
#loc1859 = loc("jit:"(#loc1632))
#loc1860 = loc("jit"(#loc1559))
#loc1861 = loc("iota"(#loc1562))
#loc1862 = loc("reduce"(#loc1562))
#loc1863 = loc(callsite(#loc1562 at #loc1562))
#loc1864 = loc("jit"(#loc1563))
#loc1865 = loc("jit"(#loc1569))
#loc1866 = loc("vmap()/jit"(#loc1571))
#loc1867 = loc("vmap()/jit"(#loc1574))
#loc1868 = loc("vmap()/jit"(#loc1575))
#loc1869 = loc("while/body/jit"(#loc1585))
#loc1870 = loc("dynamic_slice"(#loc1585))
#loc1871 = loc("squeeze"(#loc1585))
#loc1872 = loc("while/body/closed_call"(#loc1585))
#loc1873 = loc("broadcast_in_dim"(#loc1585))
#loc1874 = loc("dynamic_update_slice"(#loc1585))
#loc1875 = loc("vmap()/jit"(#loc1586))
#loc1876 = loc("vmap()/jit"(#loc1587))
#loc1877 = loc("jit:"(#loc1633))
#loc1878 = loc("vmap()/jit"(#loc1614))
#loc1879 = loc("vmap()/jit"(#loc1616))
#loc1880 = loc("jit:"(#loc1634))
#loc1881 = loc("vmap()/jit"(#loc1627))
#loc1882 = loc("vmap()/jit"(#loc1629))
#loc1883 = loc(callsite(#loc451 at #loc1635))
#loc1884 = loc(callsite(#loc454 at #loc1635))
#loc1885 = loc(callsite(#loc455 at #loc1635))
#loc1886 = loc("jvp(MaskedActorCriticNetwork)/torso/blocks_0/jit(relu)"(#loc1636))
#loc1887 = loc("jvp(MaskedActorCriticNetwork)/torso/blocks_0/gt"(#loc1636))
#loc1888 = loc(callsite(#loc464 at #loc1637))
#loc1889 = loc(callsite(#loc466 at #loc1637))
#loc1890 = loc(callsite(#loc467 at #loc1637))
#loc1891 = loc(callsite(#loc464 at #loc1638))
#loc1892 = loc(callsite(#loc466 at #loc1638))
#loc1893 = loc(callsite(#loc467 at #loc1638))
#loc1894 = loc("jvp(MaskedActorCriticNetwork)/torso/blocks_1/concatenate"(#loc1639))
#loc1895 = loc("jvp(MaskedActorCriticNetwork)/torso/blocks_1/slice"(#loc1640))
#loc1896 = loc(callsite(#loc464 at #loc1641))
#loc1897 = loc(callsite(#loc466 at #loc1641))
#loc1898 = loc(callsite(#loc467 at #loc1641))
#loc1899 = loc("jvp(MaskedActorCriticNetwork)/torso/blocks_1/concatenate"(#loc1642))
#loc1900 = loc("jvp(MaskedActorCriticNetwork)/torso/blocks_1/slice"(#loc1643))
#loc1901 = loc(callsite(#loc474 at #loc1644))
#loc1902 = loc(callsite(#loc476 at #loc1644))
#loc1903 = loc(callsite(#loc477 at #loc1644))
#loc1904 = loc(callsite(#loc478 at #loc1644))
#loc1905 = loc(callsite(#loc479 at #loc1644))
#loc1906 = loc(callsite(#loc480 at #loc1644))
#loc1907 = loc(callsite(#loc481 at #loc1644))
#loc1908 = loc(callsite(#loc482 at #loc1644))
#loc1909 = loc(callsite(#loc483 at #loc1644))
#loc1910 = loc(callsite(#loc484 at #loc1644))
#loc1911 = loc(callsite(#loc485 at #loc1644))
#loc1912 = loc("jvp(MaskedActorCriticNetwork)/torso/blocks_1/reshape"(#loc1645))
#loc1913 = loc("jvp(MaskedActorCriticNetwork)/torso/blocks_1/broadcast_in_dim"(#loc1645))
#loc1914 = loc("jvp(MaskedActorCriticNetwork)/torso/blocks_1/vmap(BTNH,BSNH->BNTS)/dot_general"(#loc1645))
#loc1915 = loc("jvp(MaskedActorCriticNetwork)/torso/blocks_1/vmap()/mul"(#loc1645))
#loc1916 = loc("jvp(MaskedActorCriticNetwork)/torso/blocks_1/vmap()/broadcast_in_dim"(#loc1645))
#loc1917 = loc("jvp(MaskedActorCriticNetwork)/torso/blocks_1/vmap()/transpose"(#loc1645))
#loc1918 = loc("jvp(MaskedActorCriticNetwork)/torso/blocks_1/vmap()/and"(#loc1645))
#loc1919 = loc("jvp(MaskedActorCriticNetwork)/torso/blocks_1/vmap(jit(_where))"(#loc1645))
#loc1920 = loc("jvp(MaskedActorCriticNetwork)/torso/blocks_1/vmap()/reduce_max"(#loc1645))
#loc1921 = loc("jvp(MaskedActorCriticNetwork)/torso/blocks_1/vmap()/max"(#loc1645))
#loc1922 = loc("jvp(MaskedActorCriticNetwork)/torso/blocks_1/vmap()/sub"(#loc1645))
#loc1923 = loc("jvp(MaskedActorCriticNetwork)/torso/blocks_1/vmap()/exp"(#loc1645))
#loc1924 = loc("jvp(MaskedActorCriticNetwork)/torso/blocks_1/vmap()/reduce_sum"(#loc1645))
#loc1925 = loc("jvp(MaskedActorCriticNetwork)/torso/blocks_1/vmap()/div"(#loc1645))
#loc1926 = loc(callsite(#loc1645 at #loc1645))
#loc1927 = loc("jvp(MaskedActorCriticNetwork)/torso/blocks_1/vmap(BNTS,BSNH->BTNH)/dot_general"(#loc1645))
#loc1928 = loc("jvp(MaskedActorCriticNetwork)/torso/blocks_1/vmap(BNTS,BSNH->BTNH)/transpose"(#loc1645))
#loc1929 = loc(callsite(#loc464 at #loc1646))
#loc1930 = loc(callsite(#loc466 at #loc1646))
#loc1931 = loc(callsite(#loc467 at #loc1646))
#loc1932 = loc("jvp(jit(log_softmax))"(#loc1647))
#loc1933 = loc("jvp()/eq"(#loc1648))
#loc1934 = loc("jvp()/mul"(#loc1649))
#loc1935 = loc("jvp()/jit(_where)"(#loc1650))
#loc1936 = loc("transpose(jvp(jvp()))/mul"(#loc1658))
#loc1937 = loc("transpose(jvp(jvp()))/add_any"(#loc1658))
#loc1938 = loc("transpose(jvp(jit(log_softmax)))"(#loc1647))
#loc1939 = loc("transpose(jvp(MaskedActorCriticNetwork))/torso/blocks_1/reshape"(#loc1645))
#loc1940 = loc("transpose(jvp(MaskedActorCriticNetwork))/torso/blocks_1/vmap()/transpose"(#loc1645))
#loc1941 = loc("transpose(jvp(MaskedActorCriticNetwork))/torso/blocks_1/vmap(BNTS,BSNH->BTNH)/transpose"(#loc1645))
#loc1942 = loc("transpose(jvp(MaskedActorCriticNetwork))/torso/blocks_1/vmap(BNTS,BSNH->BTNH)/dot_general"(#loc1645))
#loc1943 = loc("transpose(jvp(MaskedActorCriticNetwork))/torso/blocks_1/vmap()/mul"(#loc1645))
#loc1944 = loc("transpose(jvp(MaskedActorCriticNetwork))/torso/blocks_1/vmap()/reduce_sum"(#loc1645))
#loc1945 = loc("transpose(jvp(MaskedActorCriticNetwork))/torso/blocks_1/vmap()/reshape"(#loc1645))
#loc1946 = loc("transpose(jvp(MaskedActorCriticNetwork))/torso/blocks_1/vmap()/neg"(#loc1645))
#loc1947 = loc("transpose(jvp(MaskedActorCriticNetwork))/torso/blocks_1/vmap()/div"(#loc1645))
#loc1948 = loc("transpose(jvp(MaskedActorCriticNetwork))/torso/blocks_1/vmap()/broadcast_in_dim"(#loc1645))
#loc1949 = loc("transpose(jvp(MaskedActorCriticNetwork))/torso/blocks_1/vmap()/add_any"(#loc1645))
#loc1950 = loc("transpose(jvp(MaskedActorCriticNetwork))/torso/blocks_1/vmap(jit(_where))"(#loc1645))
#loc1951 = loc("transpose(jvp(MaskedActorCriticNetwork))/torso/blocks_1/vmap(BTNH,BSNH->BNTS)/dot_general"(#loc1645))
#loc1952 = loc("transpose(jvp(MaskedActorCriticNetwork))/torso/blocks_1/vmap(BTNH,BSNH->BNTS)/transpose"(#loc1645))
#loc1953 = loc("transpose(jvp(MaskedActorCriticNetwork))/torso/blocks_1/pad"(#loc1643))
#loc1954 = loc("transpose(jvp(MaskedActorCriticNetwork))/torso/blocks_1/split"(#loc1642))
#loc1955 = loc("transpose(jvp(MaskedActorCriticNetwork))/torso/blocks_1/pad"(#loc1640))
#loc1956 = loc("transpose(jvp(MaskedActorCriticNetwork))/torso/blocks_1/split"(#loc1639))
#loc1957 = loc("transpose(jvp(MaskedActorCriticNetwork))/torso/blocks_0/broadcast_in_dim"(#loc1636))
#loc1958 = loc("transpose(jvp(MaskedActorCriticNetwork))/torso/blocks_0/select_n"(#loc1636))
#loc1959 = loc("square"(#loc1659))
#loc1960 = loc("broadcast_in_dim"(#loc1660))
#loc1961 = loc("square"(#loc1661))
#loc1962 = loc("add"(#loc1662))
#loc1963 = loc("reduce_sum"(#loc1663))
#loc1964 = loc("add"(#loc1664))
#loc1965 = loc(callsite(#loc723 at #loc1669))
#loc1966 = loc(callsite(#loc726 at #loc1669))
#loc1967 = loc(callsite(#loc727 at #loc1669))
#loc1968 = loc(callsite(#loc729 at #loc1670))
#loc1969 = loc(callsite(#loc732 at #loc1670))
#loc1970 = loc(callsite(#loc733 at #loc1670))
#loc1971 = loc(callsite(#loc734 at #loc1670))
#loc1972 = loc("lt"(#loc1671))
#loc1973 = loc("add"(#loc1672))
#loc1974 = loc("jit(_where)"(#loc1673))
#loc1975 = loc("add"(#loc1680))
#loc1976 = loc("sqrt"(#loc1681))
#loc1977 = loc("add"(#loc1682))
#loc1978 = loc("div"(#loc1683))
#loc1979 = loc("mul"(#loc1684))
#loc1980 = loc("jvp(MaskedActorCriticNetwork)/torso/blocks_1/vmap()/jit"(#loc1645))
#loc1981 = loc("jvp()/jit"(#loc1647))
#loc1982 = loc("jit:"(#loc1687))
#loc1983 = loc("jit:"(#loc1688))
#loc1984 = loc("transpose(jvp())/jit"(#loc1647))
#loc1985 = loc("transpose(jvp(MaskedActorCriticNetwork))/torso/blocks_1/vmap()/jit"(#loc1645))
#loc1986 = loc("jit"(#loc1673))
#loc1987 = loc(callsite(#loc451 at #loc1691))
#loc1988 = loc(callsite(#loc454 at #loc1691))
#loc1989 = loc(callsite(#loc455 at #loc1691))
#loc1990 = loc("MaskedActorCriticNetwork/torso/blocks_0/jit(relu)"(#loc1692))
#loc1991 = loc(callsite(#loc464 at #loc1693))
#loc1992 = loc(callsite(#loc466 at #loc1693))
#loc1993 = loc(callsite(#loc467 at #loc1693))
#loc1994 = loc(callsite(#loc464 at #loc1694))
#loc1995 = loc(callsite(#loc466 at #loc1694))
#loc1996 = loc(callsite(#loc467 at #loc1694))
#loc1997 = loc("MaskedActorCriticNetwork/torso/blocks_1/concatenate"(#loc1695))
#loc1998 = loc("MaskedActorCriticNetwork/torso/blocks_1/slice"(#loc1696))
#loc1999 = loc(callsite(#loc464 at #loc1697))
#loc2000 = loc(callsite(#loc466 at #loc1697))
#loc2001 = loc(callsite(#loc467 at #loc1697))
#loc2002 = loc("MaskedActorCriticNetwork/torso/blocks_1/concatenate"(#loc1698))
#loc2003 = loc("MaskedActorCriticNetwork/torso/blocks_1/slice"(#loc1699))
#loc2004 = loc(callsite(#loc474 at #loc1700))
#loc2005 = loc(callsite(#loc476 at #loc1700))
#loc2006 = loc(callsite(#loc477 at #loc1700))
#loc2007 = loc(callsite(#loc478 at #loc1700))
#loc2008 = loc(callsite(#loc479 at #loc1700))
#loc2009 = loc(callsite(#loc480 at #loc1700))
#loc2010 = loc(callsite(#loc481 at #loc1700))
#loc2011 = loc(callsite(#loc482 at #loc1700))
#loc2012 = loc(callsite(#loc483 at #loc1700))
#loc2013 = loc(callsite(#loc484 at #loc1700))
#loc2014 = loc(callsite(#loc485 at #loc1700))
#loc2015 = loc("MaskedActorCriticNetwork/torso/blocks_1/reshape"(#loc1701))
#loc2016 = loc("MaskedActorCriticNetwork/torso/blocks_1/broadcast_in_dim"(#loc1701))
#loc2017 = loc("MaskedActorCriticNetwork/torso/blocks_1/vmap(BTNH,BSNH->BNTS)/dot_general"(#loc1701))
#loc2018 = loc("MaskedActorCriticNetwork/torso/blocks_1/vmap()/mul"(#loc1701))
#loc2019 = loc("MaskedActorCriticNetwork/torso/blocks_1/vmap()/broadcast_in_dim"(#loc1701))
#loc2020 = loc("MaskedActorCriticNetwork/torso/blocks_1/vmap()/transpose"(#loc1701))
#loc2021 = loc("MaskedActorCriticNetwork/torso/blocks_1/vmap()/and"(#loc1701))
#loc2022 = loc("MaskedActorCriticNetwork/torso/blocks_1/vmap(jit(_where))"(#loc1701))
#loc2023 = loc("MaskedActorCriticNetwork/torso/blocks_1/vmap()/reduce_max"(#loc1701))
#loc2024 = loc("MaskedActorCriticNetwork/torso/blocks_1/vmap()/max"(#loc1701))
#loc2025 = loc("MaskedActorCriticNetwork/torso/blocks_1/vmap()/sub"(#loc1701))
#loc2026 = loc("MaskedActorCriticNetwork/torso/blocks_1/vmap()/exp"(#loc1701))
#loc2027 = loc("MaskedActorCriticNetwork/torso/blocks_1/vmap()/reduce_sum"(#loc1701))
#loc2028 = loc("MaskedActorCriticNetwork/torso/blocks_1/vmap()/div"(#loc1701))
#loc2029 = loc("MaskedActorCriticNetwork/torso/blocks_1/vmap(BNTS,BSNH->BTNH)/dot_general"(#loc1701))
#loc2030 = loc("MaskedActorCriticNetwork/torso/blocks_1/vmap(BNTS,BSNH->BTNH)/transpose"(#loc1701))
#loc2031 = loc(callsite(#loc464 at #loc1702))
#loc2032 = loc(callsite(#loc466 at #loc1702))
#loc2033 = loc(callsite(#loc467 at #loc1702))
#loc2034 = loc("MaskedActorCriticNetwork/torso/blocks_1/convert_element_type"(#loc1703))
#loc2035 = loc("MaskedActorCriticNetwork/torso/blocks_1/concatenate"(#loc1703))
#loc2036 = loc("MaskedActorCriticNetwork/torso/blocks_1/slice"(#loc1704))
#loc2037 = loc("jit(log_softmax)"(#loc1705))
#loc2038 = loc(callsite(#loc522 at #loc1706))
#loc2039 = loc(callsite(#loc527 at #loc1706))
#loc2040 = loc(callsite(#loc528 at #loc1706))
#loc2041 = loc(callsite(#loc529 at #loc1706))
#loc2042 = loc(callsite(#loc530 at #loc1707))
#loc2043 = loc(callsite(#loc532 at #loc1707))
#loc2044 = loc(callsite(#loc533 at #loc1707))
#loc2045 = loc(callsite(#loc534 at #loc1707))
#loc2046 = loc(callsite(#loc536 at #loc1707))
#loc2047 = loc(callsite(#loc539 at #loc1707))
#loc2048 = loc(callsite(#loc540 at #loc1707))
#loc2049 = loc(callsite(#loc556 at #loc1716))
#loc2050 = loc(callsite(#loc559 at #loc1716))
#loc2051 = loc(callsite(#loc560 at #loc1716))
#loc2052 = loc(callsite(#loc561 at #loc1716))
#loc2053 = loc(callsite(#loc562 at #loc1717))
#loc2054 = loc(callsite(#loc564 at #loc1717))
#loc2055 = loc(callsite(#loc565 at #loc1717))
#loc2056 = loc(callsite(#loc566 at #loc1717))
#loc2057 = loc("vmap()/eq"(#loc1718))
#loc2058 = loc("vmap()/reduce_and"(#loc1719))
#loc2059 = loc(callsite(#loc569 at #loc1720))
#loc2060 = loc(callsite(#loc571 at #loc1720))
#loc2061 = loc(callsite(#loc572 at #loc1720))
#loc2062 = loc(callsite(#loc573 at #loc1720))
#loc2063 = loc(callsite(#loc574 at #loc1720))
#loc2064 = loc(callsite(#loc576 at #loc1720))
#loc2065 = loc(callsite(#loc577 at #loc1720))
#loc2066 = loc(callsite(#loc578 at #loc1720))
#loc2067 = loc("vmap(jit(_where))"(#loc1721))
#loc2068 = loc("vmap()/convert_element_type"(#loc1722))
#loc2069 = loc("vmap()/add"(#loc1723))
#loc2070 = loc("vmap()/convert_element_type"(#loc1724))
#loc2071 = loc("vmap()/eq"(#loc1725))
#loc2072 = loc("vmap()/convert_element_type"(#loc1726))
#loc2073 = loc("vmap()/reduce_sum"(#loc1726))
#loc2074 = loc("vmap()/convert_element_type"(#loc1727))
#loc2075 = loc("vmap()/mul"(#loc1728))
#loc2076 = loc("vmap()/add"(#loc1729))
#loc2077 = loc("vmap()/eq"(#loc1730))
#loc2078 = loc("vmap()/convert_element_type"(#loc1731))
#loc2079 = loc("vmap()/reduce_sum"(#loc1731))
#loc2080 = loc("vmap()/convert_element_type"(#loc1732))
#loc2081 = loc("vmap()/mul"(#loc1733))
#loc2082 = loc("vmap()/add"(#loc1734))
#loc2083 = loc("vmap()/not"(#loc1735))
#loc2084 = loc("vmap()/convert_element_type"(#loc1736))
#loc2085 = loc("vmap()/mul"(#loc1737))
#loc2086 = loc("vmap()/sub"(#loc1738))
#loc2087 = loc("vmap()/ge"(#loc1739))
#loc2088 = loc("vmap()/or"(#loc1740))
#loc2089 = loc("vmap()/convert_element_type"(#loc1741))
#loc2090 = loc("vmap()/convert_element_type"(#loc1742))
#loc2091 = loc("vmap()/not"(#loc1743))
#loc2092 = loc("vmap()/convert_element_type"(#loc1744))
#loc2093 = loc(callsite(#loc603 at #loc1745))
#loc2094 = loc(callsite(#loc605 at #loc1745))
#loc2095 = loc(callsite(#loc606 at #loc1745))
#loc2096 = loc("vmap()/broadcast_in_dim"(#loc1746))
#loc2097 = loc("vmap(jit(_randint))"(#loc1747))
#loc2098 = loc("vmap()/lt"(#loc1748))
#loc2099 = loc("vmap()/add"(#loc1748))
#loc2100 = loc("vmap()/select_n"(#loc1748))
#loc2101 = loc("vmap()/broadcast_in_dim"(#loc1748))
#loc2102 = loc("vmap()/concatenate"(#loc1748))
#loc2103 = loc("vmap()/gather"(#loc1748))
#loc2104 = loc("vmap()/squeeze"(#loc1748))
#loc2105 = loc("vmap()/broadcast_in_dim"(#loc1749))
#loc2106 = loc(callsite(#loc603 at #loc1750))
#loc2107 = loc(callsite(#loc605 at #loc1750))
#loc2108 = loc(callsite(#loc606 at #loc1750))
#loc2109 = loc("vmap()/broadcast_in_dim"(#loc1751))
#loc2110 = loc(callsite(#loc459 at #loc1761))
#loc2111 = loc(callsite(#loc463 at #loc1761))
#loc2112 = loc(callsite(#loc465 at #loc1761))
#loc2113 = loc(callsite(#loc468 at #loc1761))
#loc2114 = loc(callsite(#loc469 at #loc1761))
#loc2115 = loc(callsite(#loc470 at #loc1761))
#loc2116 = loc(callsite(#loc471 at #loc1761))
#loc2117 = loc(callsite(#loc472 at #loc1761))
#loc2118 = loc(callsite(#loc473 at #loc1761))
#loc2119 = loc(callsite(#loc475 at #loc1761))
#loc2120 = loc(callsite(#loc486 at #loc1761))
#loc2121 = loc(callsite(#loc487 at #loc1761))
#loc2122 = loc("eq"(#loc1814))
#loc2123 = loc("broadcast_in_dim"(#loc1815))
#loc2124 = loc("mul"(#loc1815))
#loc2125 = loc("jit(_where)"(#loc1816))
#loc2126 = loc("vmap()/broadcast_in_dim"(#loc1848))
#loc2127 = loc("vmap()/while"(#loc1848))
#loc2128 = loc(callsite(#loc1848 at #loc1585))
#loc2129 = loc("jit:"(#loc1857))
#loc2130 = loc("jit:"(#loc1860))
#loc2131 = loc("gt"(#loc1863))
#loc2132 = loc("ne"(#loc1863))
#loc2133 = loc("or"(#loc1863))
#loc2134 = loc("eq"(#loc1863))
#loc2135 = loc("lt"(#loc1863))
#loc2136 = loc("and"(#loc1863))
#loc2137 = loc("select_n"(#loc1863))
#loc2138 = loc("jit:"(#loc1864))
#loc2139 = loc("jit:"(#loc1865))
#loc2140 = loc("jit:"(#loc1866))
#loc2141 = loc("jit:"(#loc1867))
#loc2142 = loc("jit:"(#loc1868))
#loc2143 = loc("jit:"(#loc1869))
#loc2144 = loc("closed_call:"(#loc1872))
#loc2145 = loc("jit:"(#loc1875))
#loc2146 = loc("jit:"(#loc1876))
#loc2147 = loc("jit:"(#loc1878))
#loc2148 = loc("jit:"(#loc1879))
#loc2149 = loc("jit:"(#loc1881))
#loc2150 = loc("jit:"(#loc1882))
#loc2151 = loc("jvp(MaskedActorCriticNetwork)/torso/blocks_0/Dense_0/dot_general"(#loc1883))
#loc2152 = loc("jvp(MaskedActorCriticNetwork)/torso/blocks_0/Dense_0/reshape"(#loc1884))
#loc2153 = loc("jvp(MaskedActorCriticNetwork)/torso/blocks_0/Dense_0/add"(#loc1885))
#loc2154 = loc("jvp(MaskedActorCriticNetwork)/torso/blocks_1/query/dot_general"(#loc1888))
#loc2155 = loc("jvp(MaskedActorCriticNetwork)/torso/blocks_1/query/reshape"(#loc1889))
#loc2156 = loc("jvp(MaskedActorCriticNetwork)/torso/blocks_1/query/add"(#loc1890))
#loc2157 = loc("jvp(MaskedActorCriticNetwork)/torso/blocks_1/key/dot_general"(#loc1891))
#loc2158 = loc("jvp(MaskedActorCriticNetwork)/torso/blocks_1/key/reshape"(#loc1892))
#loc2159 = loc("jvp(MaskedActorCriticNetwork)/torso/blocks_1/key/add"(#loc1893))
#loc2160 = loc("jvp(MaskedActorCriticNetwork)/torso/blocks_1/value/dot_general"(#loc1896))
#loc2161 = loc("jvp(MaskedActorCriticNetwork)/torso/blocks_1/value/reshape"(#loc1897))
#loc2162 = loc("jvp(MaskedActorCriticNetwork)/torso/blocks_1/value/add"(#loc1898))
#loc2163 = loc("jvp(MaskedActorCriticNetwork)/torso/blocks_1/convert_element_type"(#loc1901))
#loc2164 = loc("jvp(MaskedActorCriticNetwork)/torso/blocks_1/concatenate"(#loc1901))
#loc2165 = loc("jvp(MaskedActorCriticNetwork)/torso/blocks_1/jit(cumsum)"(#loc1902))
#loc2166 = loc("jvp(MaskedActorCriticNetwork)/torso/blocks_1/slice"(#loc1903))
#loc2167 = loc("jvp(MaskedActorCriticNetwork)/torso/blocks_1/broadcast_in_dim"(#loc1903))
#loc2168 = loc("jvp(MaskedActorCriticNetwork)/torso/blocks_1/slice"(#loc1904))
#loc2169 = loc("jvp(MaskedActorCriticNetwork)/torso/blocks_1/broadcast_in_dim"(#loc1904))
#loc2170 = loc("jvp(MaskedActorCriticNetwork)/torso/blocks_1/eq"(#loc1905))
#loc2171 = loc("jvp(MaskedActorCriticNetwork)/torso/blocks_1/iota"(#loc1906))
#loc2172 = loc("jvp(MaskedActorCriticNetwork)/torso/blocks_1/slice"(#loc1907))
#loc2173 = loc("jvp(MaskedActorCriticNetwork)/torso/blocks_1/broadcast_in_dim"(#loc1907))
#loc2174 = loc("jvp(MaskedActorCriticNetwork)/torso/blocks_1/slice"(#loc1908))
#loc2175 = loc("jvp(MaskedActorCriticNetwork)/torso/blocks_1/broadcast_in_dim"(#loc1908))
#loc2176 = loc("jvp(MaskedActorCriticNetwork)/torso/blocks_1/ge"(#loc1909))
#loc2177 = loc("jvp(MaskedActorCriticNetwork)/torso/blocks_1/broadcast_in_dim"(#loc1910))
#loc2178 = loc("jvp(MaskedActorCriticNetwork)/torso/blocks_1/and"(#loc1910))
#loc2179 = loc("jvp(MaskedActorCriticNetwork)/torso/blocks_1/broadcast_in_dim"(#loc1911))
#loc2180 = loc("jvp(MaskedActorCriticNetwork)/torso/blocks_1/vmap()/mul"(#loc1926))
#loc2181 = loc("jvp(MaskedActorCriticNetwork)/torso/blocks_1/vmap()/broadcast_in_dim"(#loc1926))
#loc2182 = loc("jvp(MaskedActorCriticNetwork)/torso/blocks_1/vmap()/div"(#loc1926))
#loc2183 = loc("jvp(MaskedActorCriticNetwork)/torso/blocks_1/output_projection/dot_general"(#loc1929))
#loc2184 = loc("jvp(MaskedActorCriticNetwork)/torso/blocks_1/output_projection/reshape"(#loc1930))
#loc2185 = loc("jvp(MaskedActorCriticNetwork)/torso/blocks_1/output_projection/add"(#loc1931))
#loc2186 = loc("transpose(jvp(MaskedActorCriticNetwork))/torso/blocks_1/output_projection/reduce_sum"(#loc1931))
#loc2187 = loc("transpose(jvp(MaskedActorCriticNetwork))/torso/blocks_1/output_projection/reshape"(#loc1931))
#loc2188 = loc("transpose(jvp(MaskedActorCriticNetwork))/torso/blocks_1/output_projection/reshape"(#loc1930))
#loc2189 = loc("transpose(jvp(MaskedActorCriticNetwork))/torso/blocks_1/output_projection/dot_general"(#loc1929))
#loc2190 = loc("transpose(jvp(MaskedActorCriticNetwork))/torso/blocks_1/output_projection/transpose"(#loc1929))
#loc2191 = loc("transpose(jvp(MaskedActorCriticNetwork))/torso/blocks_1/value/reduce_sum"(#loc1898))
#loc2192 = loc("transpose(jvp(MaskedActorCriticNetwork))/torso/blocks_1/value/reshape"(#loc1898))
#loc2193 = loc("transpose(jvp(MaskedActorCriticNetwork))/torso/blocks_1/value/reshape"(#loc1897))
#loc2194 = loc("transpose(jvp(MaskedActorCriticNetwork))/torso/blocks_1/value/dot_general"(#loc1896))
#loc2195 = loc("transpose(jvp(MaskedActorCriticNetwork))/torso/blocks_1/value/transpose"(#loc1896))
#loc2196 = loc("transpose(jvp(MaskedActorCriticNetwork))/torso/blocks_1/key/reduce_sum"(#loc1893))
#loc2197 = loc("transpose(jvp(MaskedActorCriticNetwork))/torso/blocks_1/key/reshape"(#loc1893))
#loc2198 = loc("transpose(jvp(MaskedActorCriticNetwork))/torso/blocks_1/key/reshape"(#loc1892))
#loc2199 = loc("transpose(jvp(MaskedActorCriticNetwork))/torso/blocks_1/key/dot_general"(#loc1891))
#loc2200 = loc("transpose(jvp(MaskedActorCriticNetwork))/torso/blocks_1/key/transpose"(#loc1891))
#loc2201 = loc("transpose(jvp(MaskedActorCriticNetwork))/torso/blocks_1/key/add_any"(#loc1891))
#loc2202 = loc("transpose(jvp(MaskedActorCriticNetwork))/torso/blocks_1/query/reduce_sum"(#loc1890))
#loc2203 = loc("transpose(jvp(MaskedActorCriticNetwork))/torso/blocks_1/query/reshape"(#loc1890))
#loc2204 = loc("transpose(jvp(MaskedActorCriticNetwork))/torso/blocks_1/query/reshape"(#loc1889))
#loc2205 = loc("transpose(jvp(MaskedActorCriticNetwork))/torso/blocks_1/query/dot_general"(#loc1888))
#loc2206 = loc("transpose(jvp(MaskedActorCriticNetwork))/torso/blocks_1/query/transpose"(#loc1888))
#loc2207 = loc("transpose(jvp(MaskedActorCriticNetwork))/torso/blocks_1/query/add_any"(#loc1888))
#loc2208 = loc("transpose(jvp(MaskedActorCriticNetwork))/torso/blocks_0/Dense_0/reduce_sum"(#loc1885))
#loc2209 = loc("transpose(jvp(MaskedActorCriticNetwork))/torso/blocks_0/Dense_0/reshape"(#loc1885))
#loc2210 = loc("transpose(jvp(MaskedActorCriticNetwork))/torso/blocks_0/Dense_0/reshape"(#loc1884))
#loc2211 = loc("transpose(jvp(MaskedActorCriticNetwork))/torso/blocks_0/Dense_0/dot_general"(#loc1883))
#loc2212 = loc("transpose(jvp(MaskedActorCriticNetwork))/torso/blocks_0/Dense_0/transpose"(#loc1883))
#loc2213 = loc("mul"(#loc1965))
#loc2214 = loc("mul"(#loc1966))
#loc2215 = loc("add"(#loc1967))
#loc2216 = loc(callsite(#loc728 at #loc1968))
#loc2217 = loc("mul"(#loc1969))
#loc2218 = loc("mul"(#loc1970))
#loc2219 = loc("add"(#loc1971))
#loc2220 = loc("jvp(MaskedActorCriticNetwork)/torso/blocks_1/jit"(#loc1902))
#loc2221 = loc("jit:"(#loc1980))
#loc2222 = loc("jit:"(#loc1981))
#loc2223 = loc("jit:"(#loc1984))
#loc2224 = loc("jit:"(#loc1985))
#loc2225 = loc("jit:"(#loc1986))
#loc2226 = loc("MaskedActorCriticNetwork/torso/blocks_0/Dense_0/dot_general"(#loc1987))
#loc2227 = loc("MaskedActorCriticNetwork/torso/blocks_0/Dense_0/reshape"(#loc1988))
#loc2228 = loc("MaskedActorCriticNetwork/torso/blocks_0/Dense_0/add"(#loc1989))
#loc2229 = loc("MaskedActorCriticNetwork/torso/blocks_1/query/dot_general"(#loc1991))
#loc2230 = loc("MaskedActorCriticNetwork/torso/blocks_1/query/reshape"(#loc1992))
#loc2231 = loc("MaskedActorCriticNetwork/torso/blocks_1/query/add"(#loc1993))
#loc2232 = loc("MaskedActorCriticNetwork/torso/blocks_1/key/dot_general"(#loc1994))
#loc2233 = loc("MaskedActorCriticNetwork/torso/blocks_1/key/reshape"(#loc1995))
#loc2234 = loc("MaskedActorCriticNetwork/torso/blocks_1/key/add"(#loc1996))
#loc2235 = loc("MaskedActorCriticNetwork/torso/blocks_1/value/dot_general"(#loc1999))
#loc2236 = loc("MaskedActorCriticNetwork/torso/blocks_1/value/reshape"(#loc2000))
#loc2237 = loc("MaskedActorCriticNetwork/torso/blocks_1/value/add"(#loc2001))
#loc2238 = loc("MaskedActorCriticNetwork/torso/blocks_1/convert_element_type"(#loc2004))
#loc2239 = loc("MaskedActorCriticNetwork/torso/blocks_1/concatenate"(#loc2004))
#loc2240 = loc("MaskedActorCriticNetwork/torso/blocks_1/jit(cumsum)"(#loc2005))
#loc2241 = loc("MaskedActorCriticNetwork/torso/blocks_1/slice"(#loc2006))
#loc2242 = loc("MaskedActorCriticNetwork/torso/blocks_1/broadcast_in_dim"(#loc2006))
#loc2243 = loc("MaskedActorCriticNetwork/torso/blocks_1/slice"(#loc2007))
#loc2244 = loc("MaskedActorCriticNetwork/torso/blocks_1/broadcast_in_dim"(#loc2007))
#loc2245 = loc("MaskedActorCriticNetwork/torso/blocks_1/eq"(#loc2008))
#loc2246 = loc("MaskedActorCriticNetwork/torso/blocks_1/iota"(#loc2009))
#loc2247 = loc("MaskedActorCriticNetwork/torso/blocks_1/slice"(#loc2010))
#loc2248 = loc("MaskedActorCriticNetwork/torso/blocks_1/broadcast_in_dim"(#loc2010))
#loc2249 = loc("MaskedActorCriticNetwork/torso/blocks_1/slice"(#loc2011))
#loc2250 = loc("MaskedActorCriticNetwork/torso/blocks_1/broadcast_in_dim"(#loc2011))
#loc2251 = loc("MaskedActorCriticNetwork/torso/blocks_1/ge"(#loc2012))
#loc2252 = loc("MaskedActorCriticNetwork/torso/blocks_1/broadcast_in_dim"(#loc2013))
#loc2253 = loc("MaskedActorCriticNetwork/torso/blocks_1/and"(#loc2013))
#loc2254 = loc("MaskedActorCriticNetwork/torso/blocks_1/broadcast_in_dim"(#loc2014))
#loc2255 = loc("MaskedActorCriticNetwork/torso/blocks_1/output_projection/dot_general"(#loc2031))
#loc2256 = loc("MaskedActorCriticNetwork/torso/blocks_1/output_projection/reshape"(#loc2032))
#loc2257 = loc("MaskedActorCriticNetwork/torso/blocks_1/output_projection/add"(#loc2033))
#loc2258 = loc("jit(_gumbel)"(#loc2038))
#loc2259 = loc("mul"(#loc2039))
#loc2260 = loc("broadcast_in_dim"(#loc2040))
#loc2261 = loc("add"(#loc2040))
#loc2262 = loc("jit(_one_hot)"(#loc2042))
#loc2263 = loc("lt"(#loc2043))
#loc2264 = loc("gt"(#loc2044))
#loc2265 = loc("or"(#loc2045))
#loc2266 = loc(callsite(#loc535 at #loc2046))
#loc2267 = loc(callsite(#loc537 at #loc2046))
#loc2268 = loc(callsite(#loc538 at #loc2046))
#loc2269 = loc("reduce_sum"(#loc2047))
#loc2270 = loc("jit(_where)"(#loc2048))
#loc2271 = loc("vmap()/iota"(#loc2049))
#loc2272 = loc("vmap()/eq"(#loc2050))
#loc2273 = loc("vmap()/ne"(#loc2050))
#loc2274 = loc("vmap()/and"(#loc2050))
#loc2275 = loc("vmap(jit(_where))"(#loc2050))
#loc2276 = loc("vmap()/mul"(#loc2050))
#loc2277 = loc("vmap()/shift_right_logical"(#loc2050))
#loc2278 = loc("vmap()/broadcast_in_dim"(#loc2051))
#loc2279 = loc("vmap()/mul"(#loc2051))
#loc2280 = loc("vmap()/reduce_sum"(#loc2052))
#loc2281 = loc("vmap(jit(searchsorted))"(#loc2053))
#loc2282 = loc("vmap(jit(clip))"(#loc2054))
#loc2283 = loc("vmap()/lt"(#loc2055))
#loc2284 = loc("vmap()/add"(#loc2055))
#loc2285 = loc("vmap()/select_n"(#loc2055))
#loc2286 = loc("vmap()/broadcast_in_dim"(#loc2055))
#loc2287 = loc("vmap()/gather"(#loc2055))
#loc2288 = loc("vmap()/squeeze"(#loc2055))
#loc2289 = loc("vmap()/eq"(#loc2056))
#loc2290 = loc("vmap()/eq"(#loc2059))
#loc2291 = loc("vmap()/broadcast_in_dim"(#loc2060))
#loc2292 = loc("vmap()/not"(#loc2061))
#loc2293 = loc("vmap()/convert_element_type"(#loc2062))
#loc2294 = loc("vmap()/lt"(#loc2063))
#loc2295 = loc("vmap()/add"(#loc2063))
#loc2296 = loc("vmap()/select_n"(#loc2063))
#loc2297 = loc("vmap()/broadcast_in_dim"(#loc2063))
#loc2298 = loc("vmap()/scatter-add"(#loc2063))
#loc2299 = loc("vmap()/transpose"(#loc2064))
#loc2300 = loc(callsite(#loc2064 at #loc2064))
#loc2301 = loc("vmap(jit(_where))"(#loc2065))
#loc2302 = loc("vmap(jit(_where))"(#loc2066))
#loc2303 = loc("vmap(jit(_one_hot))"(#loc2093))
#loc2304 = loc("vmap()/reshape"(#loc2094))
#loc2305 = loc("vmap(jit(_where))"(#loc2095))
#loc2306 = loc("vmap(jit(_one_hot))"(#loc2106))
#loc2307 = loc("vmap()/reshape"(#loc2107))
#loc2308 = loc("vmap(jit(_where))"(#loc2108))
#loc2309 = loc("while/body/closed_call"(#loc2064))
#loc2310 = loc(callsite(#loc451 at #loc2110))
#loc2311 = loc(callsite(#loc454 at #loc2110))
#loc2312 = loc(callsite(#loc455 at #loc2110))
#loc2313 = loc("jit(train_step)/MaskedActorCriticNetwork/torso/blocks_0/jit(relu)"(#loc2111))
#loc2314 = loc(callsite(#loc464 at #loc2112))
#loc2315 = loc(callsite(#loc466 at #loc2112))
#loc2316 = loc(callsite(#loc467 at #loc2112))
#loc2317 = loc(callsite(#loc464 at #loc2113))
#loc2318 = loc(callsite(#loc466 at #loc2113))
#loc2319 = loc(callsite(#loc467 at #loc2113))
#loc2320 = loc("jit(train_step)/MaskedActorCriticNetwork/torso/blocks_1/concatenate"(#loc2114))
#loc2321 = loc("jit(train_step)/MaskedActorCriticNetwork/torso/blocks_1/slice"(#loc2115))
#loc2322 = loc(callsite(#loc464 at #loc2116))
#loc2323 = loc(callsite(#loc466 at #loc2116))
#loc2324 = loc(callsite(#loc467 at #loc2116))
#loc2325 = loc("jit(train_step)/MaskedActorCriticNetwork/torso/blocks_1/concatenate"(#loc2117))
#loc2326 = loc("jit(train_step)/MaskedActorCriticNetwork/torso/blocks_1/slice"(#loc2118))
#loc2327 = loc(callsite(#loc474 at #loc2119))
#loc2328 = loc(callsite(#loc476 at #loc2119))
#loc2329 = loc(callsite(#loc477 at #loc2119))
#loc2330 = loc(callsite(#loc478 at #loc2119))
#loc2331 = loc(callsite(#loc479 at #loc2119))
#loc2332 = loc(callsite(#loc480 at #loc2119))
#loc2333 = loc(callsite(#loc481 at #loc2119))
#loc2334 = loc(callsite(#loc482 at #loc2119))
#loc2335 = loc(callsite(#loc483 at #loc2119))
#loc2336 = loc(callsite(#loc484 at #loc2119))
#loc2337 = loc(callsite(#loc485 at #loc2119))
#loc2338 = loc("jit(train_step)/MaskedActorCriticNetwork/torso/blocks_1/reshape"(#loc2120))
#loc2339 = loc("jit(train_step)/MaskedActorCriticNetwork/torso/blocks_1/broadcast_in_dim"(#loc2120))
#loc2340 = loc("jit(train_step)/MaskedActorCriticNetwork/torso/blocks_1/vmap(BTNH,BSNH->BNTS)/dot_general"(#loc2120))
#loc2341 = loc("jit(train_step)/MaskedActorCriticNetwork/torso/blocks_1/vmap()/mul"(#loc2120))
#loc2342 = loc("jit(train_step)/MaskedActorCriticNetwork/torso/blocks_1/vmap()/broadcast_in_dim"(#loc2120))
#loc2343 = loc("jit(train_step)/MaskedActorCriticNetwork/torso/blocks_1/vmap()/transpose"(#loc2120))
#loc2344 = loc("jit(train_step)/MaskedActorCriticNetwork/torso/blocks_1/vmap()/and"(#loc2120))
#loc2345 = loc("jit(train_step)/MaskedActorCriticNetwork/torso/blocks_1/vmap(jit(_where))"(#loc2120))
#loc2346 = loc("jit(train_step)/MaskedActorCriticNetwork/torso/blocks_1/vmap()/reduce_max"(#loc2120))
#loc2347 = loc("jit(train_step)/MaskedActorCriticNetwork/torso/blocks_1/vmap()/max"(#loc2120))
#loc2348 = loc("jit(train_step)/MaskedActorCriticNetwork/torso/blocks_1/vmap()/sub"(#loc2120))
#loc2349 = loc("jit(train_step)/MaskedActorCriticNetwork/torso/blocks_1/vmap()/exp"(#loc2120))
#loc2350 = loc("jit(train_step)/MaskedActorCriticNetwork/torso/blocks_1/vmap()/reduce_sum"(#loc2120))
#loc2351 = loc("jit(train_step)/MaskedActorCriticNetwork/torso/blocks_1/vmap()/div"(#loc2120))
#loc2352 = loc("jit(train_step)/MaskedActorCriticNetwork/torso/blocks_1/vmap(BNTS,BSNH->BTNH)/dot_general"(#loc2120))
#loc2353 = loc("jit(train_step)/MaskedActorCriticNetwork/torso/blocks_1/vmap(BNTS,BSNH->BTNH)/transpose"(#loc2120))
#loc2354 = loc(callsite(#loc464 at #loc2121))
#loc2355 = loc(callsite(#loc466 at #loc2121))
#loc2356 = loc(callsite(#loc467 at #loc2121))
#loc2357 = loc("vmap()/while/cond/lt"(#loc2128))
#loc2358 = loc("vmap()/while/body/jit(dynamic_index_in_dim)"(#loc2128))
#loc2359 = loc("vmap()/while/body/closed_call"(#loc2128))
#loc2360 = loc("vmap()/while/body/jit(dynamic_update_index_in_dim)"(#loc2128))
#loc2361 = loc("vmap()/while/body/add"(#loc2128))
#loc2362 = loc("integer_pow"(#loc2216))
#loc2363 = loc("jit:"(#loc2220))
#loc2364 = loc("eq"(#loc2266))
#loc2365 = loc("broadcast_in_dim"(#loc2267))
#loc2366 = loc("mul"(#loc2267))
#loc2367 = loc("jit(_where)"(#loc2268))
#loc2368 = loc("vmap()/broadcast_in_dim"(#loc2300))
#loc2369 = loc("vmap()/while"(#loc2300))
#loc2370 = loc(callsite(#loc2300 at #loc2064))
#loc2371 = loc("closed_call:"(#loc2309))
#loc2372 = loc("jit(train_step)/MaskedActorCriticNetwork/torso/blocks_0/Dense_0/dot_general"(#loc2310))
#loc2373 = loc("jit(train_step)/MaskedActorCriticNetwork/torso/blocks_0/Dense_0/reshape"(#loc2311))
#loc2374 = loc("jit(train_step)/MaskedActorCriticNetwork/torso/blocks_0/Dense_0/add"(#loc2312))
#loc2375 = loc("jit(train_step)/MaskedActorCriticNetwork/torso/blocks_1/query/dot_general"(#loc2314))
#loc2376 = loc("jit(train_step)/MaskedActorCriticNetwork/torso/blocks_1/query/reshape"(#loc2315))
#loc2377 = loc("jit(train_step)/MaskedActorCriticNetwork/torso/blocks_1/query/add"(#loc2316))
#loc2378 = loc("jit(train_step)/MaskedActorCriticNetwork/torso/blocks_1/key/dot_general"(#loc2317))
#loc2379 = loc("jit(train_step)/MaskedActorCriticNetwork/torso/blocks_1/key/reshape"(#loc2318))
#loc2380 = loc("jit(train_step)/MaskedActorCriticNetwork/torso/blocks_1/key/add"(#loc2319))
#loc2381 = loc("jit(train_step)/MaskedActorCriticNetwork/torso/blocks_1/value/dot_general"(#loc2322))
#loc2382 = loc("jit(train_step)/MaskedActorCriticNetwork/torso/blocks_1/value/reshape"(#loc2323))
#loc2383 = loc("jit(train_step)/MaskedActorCriticNetwork/torso/blocks_1/value/add"(#loc2324))
#loc2384 = loc("jit(train_step)/MaskedActorCriticNetwork/torso/blocks_1/convert_element_type"(#loc2327))
#loc2385 = loc("jit(train_step)/MaskedActorCriticNetwork/torso/blocks_1/concatenate"(#loc2327))
#loc2386 = loc("jit(train_step)/MaskedActorCriticNetwork/torso/blocks_1/jit(cumsum)"(#loc2328))
#loc2387 = loc("jit(train_step)/MaskedActorCriticNetwork/torso/blocks_1/slice"(#loc2329))
#loc2388 = loc("jit(train_step)/MaskedActorCriticNetwork/torso/blocks_1/broadcast_in_dim"(#loc2329))
#loc2389 = loc("jit(train_step)/MaskedActorCriticNetwork/torso/blocks_1/slice"(#loc2330))
#loc2390 = loc("jit(train_step)/MaskedActorCriticNetwork/torso/blocks_1/broadcast_in_dim"(#loc2330))
#loc2391 = loc("jit(train_step)/MaskedActorCriticNetwork/torso/blocks_1/eq"(#loc2331))
#loc2392 = loc("jit(train_step)/MaskedActorCriticNetwork/torso/blocks_1/iota"(#loc2332))
#loc2393 = loc("jit(train_step)/MaskedActorCriticNetwork/torso/blocks_1/slice"(#loc2333))
#loc2394 = loc("jit(train_step)/MaskedActorCriticNetwork/torso/blocks_1/broadcast_in_dim"(#loc2333))
#loc2395 = loc("jit(train_step)/MaskedActorCriticNetwork/torso/blocks_1/slice"(#loc2334))
#loc2396 = loc("jit(train_step)/MaskedActorCriticNetwork/torso/blocks_1/broadcast_in_dim"(#loc2334))
#loc2397 = loc("jit(train_step)/MaskedActorCriticNetwork/torso/blocks_1/ge"(#loc2335))
#loc2398 = loc("jit(train_step)/MaskedActorCriticNetwork/torso/blocks_1/broadcast_in_dim"(#loc2336))
#loc2399 = loc("jit(train_step)/MaskedActorCriticNetwork/torso/blocks_1/and"(#loc2336))
#loc2400 = loc("jit(train_step)/MaskedActorCriticNetwork/torso/blocks_1/broadcast_in_dim"(#loc2337))
#loc2401 = loc("jit(train_step)/MaskedActorCriticNetwork/torso/blocks_1/output_projection/dot_general"(#loc2354))
#loc2402 = loc("jit(train_step)/MaskedActorCriticNetwork/torso/blocks_1/output_projection/reshape"(#loc2355))
#loc2403 = loc("jit(train_step)/MaskedActorCriticNetwork/torso/blocks_1/output_projection/add"(#loc2356))
#loc2404 = loc("vmap()/while/cond/lt"(#loc2370))
#loc2405 = loc("vmap()/while/body/jit(dynamic_index_in_dim)"(#loc2370))
#loc2406 = loc("vmap()/while/body/closed_call"(#loc2370))
#loc2407 = loc("vmap()/while/body/jit(dynamic_update_index_in_dim)"(#loc2370))
#loc2408 = loc("vmap()/while/body/add"(#loc2370))
